…
I0403 17:03:05.019711 20090 net.cpp:313] The NetState phase (1) differed from the phase (0) specified by a rule in layer data
I0403 17:03:05.020797 20090 net.cpp:49] Initializing net from parameters: 
state {
  phase: TEST
}
layer {
  name: "data"
  type: "Data"
  top: "data"
  top: "label"
  include {
    phase: TEST
  }
  transform_param {
    mirror: false
    crop_size: 224
    mean_file: "/home/mohanty/data/final_dataset/lmdb/segmented-20-80/mean.binaryproto"
  }
  data_param {
    source: "/home/mohanty/data/final_dataset/lmdb/segmented-20-80/test_db"
    batch_size: 24
    backend: LMDB
  }
}
layer {
  name: "conv1/7x7_s2"
  type: "Convolution"
  bottom: "data"
  top: "conv1/7x7_s2"
  param {
    lr_mult: 1
    decay_mult: 1
  }
  param {
    lr_mult: 2
    decay_mult: 0
  }
  convolution_param {
    num_output: 64
    pad: 3
    kernel_size: 7
    stride: 2
    weight_filler {
      type: "xavier"
      std: 0.1
    }
    bias_filler {
      type: "constant"
      value: 0.2
    }
  }
}
layer {
  name: "conv1/relu_7x7"
  type: "ReLU"
  bottom: "conv1/7x7_s2"
  top: "conv1/7x7_s2"
}
layer {
  name: "pool1/3x3_s2"
  type: "Pooling"
  bottom: "conv1/7x7_s2"
  top: "pool1/3x3_s2"
  pooling_param {
    pool: MAX
    kernel_size: 3
    stride: 2
  }
}
layer {
  name: "pool1/norm1"
  type: "LRN"
  bottom: "pool1/3x3_s2"
  top: "pool1/norm1"
  lrn_param {
    local_size: 5
    alpha: 0.0001
    beta: 0.75
  }
}
layer {
  name: "conv2/3x3_reduce"
  type: "Convolution"
  bottom: "pool1/norm1"
  top: "conv2/3x3_reduce"
  param {
    lr_mult: 1
    decay_mult: 1
  }
  param {
    lr_mult: 2
    decay_mult: 0
  }
  convolution_param {
    num_output: 64
    kernel_size: 1
    weight_filler {
      type: "xavier"
      std: 0.1
    }
    bias_filler {
      type: "constant"
      value: 0.2
    }
  }
}
layer {
  name: "conv2/relu_3x3_reduce"
  type: "ReLU"
  bottom: "conv2/3x3_reduce"
  top: "conv2/3x3_reduce"
}
layer {
  name: "conv2/3x3"
  type: "Convolution"
  bottom: "conv2/3x3_reduce"
  top: "conv2/3x3"
  param {
    lr_mult: 1
    decay_mult: 1
  }
  param {
    lr_mult: 2
    decay_mult: 0
  }
  convolution_param {
    num_output: 192
    pad: 1
    kernel_size: 3
    weight_filler {
      type: "xavier"
      std: 0.03
    }
    bias_filler {
      type: "constant"
      value: 0.2
    }
  }
}
layer {
  name: "conv2/relu_3x3"
  type: "ReLU"
  bottom: "conv2/3x3"
  top: "conv2/3x3"
}
layer {
  name: "conv2/norm2"
  type: "LRN"
  bottom: "conv2/3x3"
  top: "conv2/norm2"
  lrn_param {
    local_size: 5
    alpha: 0.0001
    beta: 0.75
  }
}
layer {
  name: "pool2/3x3_s2"
  type: "Pooling"
  bottom: "conv2/norm2"
  top: "pool2/3x3_s2"
  pooling_param {
    pool: MAX
    kernel_size: 3
    stride: 2
  }
}
layer {
  name: "inception_3a/1x1"
  type: "Convolution"
  bottom: "pool2/3x3_s2"
  top: "inception_3a/1x1"
  param {
    lr_mult: 1
    decay_mult: 1
  }
  param {
    lr_mult: 2
    decay_mult: 0
  }
  convolution_param {
    num_output: 64
    kernel_size: 1
    weight_filler {
      type: "xavier"
      std: 0.03
    }
    bias_filler {
      type: "constant"
      value: 0.2
    }
  }
}
layer {
  name: "inception_3a/relu_1x1"
  type: "ReLU"
  bottom: "inception_3a/1x1"
  top: "inception_3a/1x1"
}
layer {
  name: "inception_3a/3x3_reduce"
  type: "Convolution"
  bottom: "pool2/3x3_s2"
  top: "inception_3a/3x3_reduce"
  param {
    lr_mult: 1
    decay_mult: 1
  }
  param {
    lr_mult: 2
    decay_mult: 0
  }
  convolution_param {
    num_output: 96
    kernel_size: 1
    weight_filler {
      type: "xavier"
      std: 0.09
    }
    bias_filler {
      type: "constant"
      value: 0.2
    }
  }
}
layer {
  name: "inception_3a/relu_3x3_reduce"
  type: "ReLU"
  bottom: "inception_3a/3x3_reduce"
  top: "inception_3a/3x3_reduce"
}
layer {
  name: "inception_3a/3x3"
  type: "Convolution"
  bottom: "inception_3a/3x3_reduce"
  top: "inception_3a/3x3"
  param {
    lr_mult: 1
    decay_mult: 1
  }
  param {
    lr_mult: 2
    decay_mult: 0
  }
  convolution_param {
    num_output: 128
    pad: 1
    kernel_size: 3
    weight_filler {
      type: "xavier"
      std: 0.03
    }
    bias_filler {
      type: "constant"
      value: 0.2
    }
  }
}
layer {
  name: "inception_3a/relu_3x3"
  type: "ReLU"
  bottom: "inception_3a/3x3"
  top: "inception_3a/3x3"
}
layer {
  name: "inception_3a/5x5_reduce"
  type: "Convolution"
  bottom: "pool2/3x3_s2"
  top: "inception_3a/5x5_reduce"
  param {
    lr_mult: 1
    decay_mult: 1
  }
  param {
    lr_mult: 2
    decay_mult: 0
  }
  convolution_param {
    num_output: 16
    kernel_size: 1
    weight_filler {
      type: "xavier"
      std: 0.2
    }
    bias_filler {
      type: "constant"
      value: 0.2
    }
  }
}
layer {
  name: "inception_3a/relu_5x5_reduce"
  type: "ReLU"
  bottom: "inception_3a/5x5_reduce"
  top: "inception_3a/5x5_reduce"
}
layer {
  name: "inception_3a/5x5"
  type: "Convolution"
  bottom: "inception_3a/5x5_reduce"
  top: "inception_3a/5x5"
  param {
    lr_mult: 1
    decay_mult: 1
  }
  param {
    lr_mult: 2
    decay_mult: 0
  }
  convolution_param {
    num_output: 32
    pad: 2
    kernel_size: 5
    weight_filler {
      type: "xavier"
      std: 0.03
    }
    bias_filler {
      type: "constant"
      value: 0.2
    }
  }
}
layer {
  name: "inception_3a/relu_5x5"
  type: "ReLU"
  bottom: "inception_3a/5x5"
  top: "inception_3a/5x5"
}
layer {
  name: "inception_3a/pool"
  type: "Pooling"
  bottom: "pool2/3x3_s2"
  top: "inception_3a/pool"
  pooling_param {
    pool: MAX
    kernel_size: 3
    stride: 1
    pad: 1
  }
}
layer {
  name: "inception_3a/pool_proj"
  type: "Convolution"
  bottom: "inception_3a/pool"
  top: "inception_3a/pool_proj"
  param {
    lr_mult: 1
    decay_mult: 1
  }
  param {
    lr_mult: 2
    decay_mult: 0
  }
  convolution_param {
    num_output: 32
    kernel_size: 1
    weight_filler {
      type: "xavier"
      std: 0.1
    }
    bias_filler {
      type: "constant"
      value: 0.2
    }
  }
}
layer {
  name: "inception_3a/relu_pool_proj"
  type: "ReLU"
  bottom: "inception_3a/pool_proj"
  top: "inception_3a/pool_proj"
}
layer {
  name: "inception_3a/output"
  type: "Concat"
  bottom: "inception_3a/1x1"
  bottom: "inception_3a/3x3"
  bottom: "inception_3a/5x5"
  bottom: "inception_3a/pool_proj"
  top: "inception_3a/output"
}
layer {
  name: "inception_3b/1x1"
  type: "Convolution"
  bottom: "inception_3a/output"
  top: "inception_3b/1x1"
  param {
    lr_mult: 1
    decay_mult: 1
  }
  param {
    lr_mult: 2
    decay_mult: 0
  }
  convolution_param {
    num_output: 128
    kernel_size: 1
    weight_filler {
      type: "xavier"
      std: 0.03
    }
    bias_filler {
      type: "constant"
      value: 0.2
    }
  }
}
layer {
  name: "inception_3b/relu_1x1"
  type: "ReLU"
  bottom: "inception_3b/1x1"
  top: "inception_3b/1x1"
}
layer {
  name: "inception_3b/3x3_reduce"
  type: "Convolution"
  bottom: "inception_3a/output"
  top: "inception_3b/3x3_reduce"
  param {
    lr_mult: 1
    decay_mult: 1
  }
  param {
    lr_mult: 2
    decay_mult: 0
  }
  convolution_param {
    num_output: 128
    kernel_size: 1
    weight_filler {
      type: "xavier"
      std: 0.09
    }
    bias_filler {
      type: "constant"
      value: 0.2
    }
  }
}
layer {
  name: "inception_3b/relu_3x3_reduce"
  type: "ReLU"
  bottom: "inception_3b/3x3_reduce"
  top: "inception_3b/3x3_reduce"
}
layer {
  name: "inception_3b/3x3"
  type: "Convolution"
  bottom: "inception_3b/3x3_reduce"
  top: "inception_3b/3x3"
  param {
    lr_mult: 1
    decay_mult: 1
  }
  param {
    lr_mult: 2
    decay_mult: 0
  }
  convolution_param {
    num_output: 192
    pad: 1
    kernel_size: 3
    weight_filler {
      type: "xavier"
      std: 0.03
    }
    bias_filler {
      type: "constant"
      value: 0.2
    }
  }
}
layer {
  name: "inception_3b/relu_3x3"
  type: "ReLU"
  bottom: "inception_3b/3x3"
  top: "inception_3b/3x3"
}
layer {
  name: "inception_3b/5x5_reduce"
  type: "Convolution"
  bottom: "inception_3a/output"
  top: "inception_3b/5x5_reduce"
  param {
    lr_mult: 1
    decay_mult: 1
  }
  param {
    lr_mult: 2
    decay_mult: 0
  }
  convolution_param {
    num_output: 32
    kernel_size: 1
    weight_filler {
      type: "xavier"
      std: 0.2
    }
    bias_filler {
      type: "constant"
      value: 0.2
    }
  }
}
layer {
  name: "inception_3b/relu_5x5_reduce"
  type: "ReLU"
  bottom: "inception_3b/5x5_reduce"
  top: "inception_3b/5x5_reduce"
}
layer {
  name: "inception_3b/5x5"
  type: "Convolution"
  bottom: "inception_3b/5x5_reduce"
  top: "inception_3b/5x5"
  param {
    lr_mult: 1
    decay_mult: 1
  }
  param {
    lr_mult: 2
    decay_mult: 0
  }
  convolution_param {
    num_output: 96
    pad: 2
    kernel_size: 5
    weight_filler {
      type: "xavier"
      std: 0.03
    }
    bias_filler {
      type: "constant"
      value: 0.2
    }
  }
}
layer {
  name: "inception_3b/relu_5x5"
  type: "ReLU"
  bottom: "inception_3b/5x5"
  top: "inception_3b/5x5"
}
layer {
  name: "inception_3b/pool"
  type: "Pooling"
  bottom: "inception_3a/output"
  top: "inception_3b/pool"
  pooling_param {
    pool: MAX
    kernel_size: 3
    stride: 1
    pad: 1
  }
}
layer {
  name: "inception_3b/pool_proj"
  type: "Convolution"
  bottom: "inception_3b/pool"
  top: "inception_3b/pool_proj"
  param {
    lr_mult: 1
    decay_mult: 1
  }
  param {
    lr_mult: 2
    decay_mult: 0
  }
  convolution_param {
    num_output: 64
    kernel_size: 1
    weight_filler {
      type: "xavier"
      std: 0.1
    }
    bias_filler {
      type: "constant"
      value: 0.2
    }
  }
}
layer {
  name: "inception_3b/relu_pool_proj"
  type: "ReLU"
  bottom: "inception_3b/pool_proj"
  top: "inception_3b/pool_proj"
}
layer {
  name: "inception_3b/output"
  type: "Concat"
  bottom: "inception_3b/1x1"
  bottom: "inception_3b/3x3"
  bottom: "inception_3b/5x5"
  bottom: "inception_3b/pool_proj"
  top: "inception_3b/output"
}
layer {
  name: "pool3/3x3_s2"
  type: "Pooling"
  bottom: "inception_3b/output"
  top: "pool3/3x3_s2"
  pooling_param {
    pool: MAX
    kernel_size: 3
    stride: 2
  }
}
layer {
  name: "inception_4a/1x1"
  type: "Convolution"
  bottom: "pool3/3x3_s2"
  top: "inception_4a/1x1"
  param {
    lr_mult: 1
    decay_mult: 1
  }
  param {
    lr_mult: 2
    decay_mult: 0
  }
  convolution_param {
    num_output: 192
    kernel_size: 1
    weight_filler {
      type: "xavier"
      std: 0.03
    }
    bias_filler {
      type: "constant"
      value: 0.2
    }
  }
}
layer {
  name: "inception_4a/relu_1x1"
  type: "ReLU"
  bottom: "inception_4a/1x1"
  top: "inception_4a/1x1"
}
layer {
  name: "inception_4a/3x3_reduce"
  type: "Convolution"
  bottom: "pool3/3x3_s2"
  top: "inception_4a/3x3_reduce"
  param {
    lr_mult: 1
    decay_mult: 1
  }
  param {
    lr_mult: 2
    decay_mult: 0
  }
  convolution_param {
    num_output: 96
    kernel_size: 1
    weight_filler {
      type: "xavier"
      std: 0.09
    }
    bias_filler {
      type: "constant"
      value: 0.2
    }
  }
}
layer {
  name: "inception_4a/relu_3x3_reduce"
  type: "ReLU"
  bottom: "inception_4a/3x3_reduce"
  top: "inception_4a/3x3_reduce"
}
layer {
  name: "inception_4a/3x3"
  type: "Convolution"
  bottom: "inception_4a/3x3_reduce"
  top: "inception_4a/3x3"
  param {
    lr_mult: 1
    decay_mult: 1
  }
  param {
    lr_mult: 2
    decay_mult: 0
  }
  convolution_param {
    num_output: 208
    pad: 1
    kernel_size: 3
    weight_filler {
      type: "xavier"
      std: 0.03
    }
    bias_filler {
      type: "constant"
      value: 0.2
    }
  }
}
layer {
  name: "inception_4a/relu_3x3"
  type: "ReLU"
  bottom: "inception_4a/3x3"
  top: "inception_4a/3x3"
}
layer {
  name: "inception_4a/5x5_reduce"
  type: "Convolution"
  bottom: "pool3/3x3_s2"
  top: "inception_4a/5x5_reduce"
  param {
    lr_mult: 1
    decay_mult: 1
  }
  param {
    lr_mult: 2
    decay_mult: 0
  }
  convolution_param {
    num_output: 16
    kernel_size: 1
    weight_filler {
      type: "xavier"
      std: 0.2
    }
    bias_filler {
      type: "constant"
      value: 0.2
    }
  }
}
layer {
  name: "inception_4a/relu_5x5_reduce"
  type: "ReLU"
  bottom: "inception_4a/5x5_reduce"
  top: "inception_4a/5x5_reduce"
}
layer {
  name: "inception_4a/5x5"
  type: "Convolution"
  bottom: "inception_4a/5x5_reduce"
  top: "inception_4a/5x5"
  param {
    lr_mult: 1
    decay_mult: 1
  }
  param {
    lr_mult: 2
    decay_mult: 0
  }
  convolution_param {
    num_output: 48
    pad: 2
    kernel_size: 5
    weight_filler {
      type: "xavier"
      std: 0.03
    }
    bias_filler {
      type: "constant"
      value: 0.2
    }
  }
}
layer {
  name: "inception_4a/relu_5x5"
  type: "ReLU"
  bottom: "inception_4a/5x5"
  top: "inception_4a/5x5"
}
layer {
  name: "inception_4a/pool"
  type: "Pooling"
  bottom: "pool3/3x3_s2"
  top: "inception_4a/pool"
  pooling_param {
    pool: MAX
    kernel_size: 3
    stride: 1
    pad: 1
  }
}
layer {
  name: "inception_4a/pool_proj"
  type: "Convolution"
  bottom: "inception_4a/pool"
  top: "inception_4a/pool_proj"
  param {
    lr_mult: 1
    decay_mult: 1
  }
  param {
    lr_mult: 2
    decay_mult: 0
  }
  convolution_param {
    num_output: 64
    kernel_size: 1
    weight_filler {
      type: "xavier"
      std: 0.1
    }
    bias_filler {
      type: "constant"
      value: 0.2
    }
  }
}
layer {
  name: "inception_4a/relu_pool_proj"
  type: "ReLU"
  bottom: "inception_4a/pool_proj"
  top: "inception_4a/pool_proj"
}
layer {
  name: "inception_4a/output"
  type: "Concat"
  bottom: "inception_4a/1x1"
  bottom: "inception_4a/3x3"
  bottom: "inception_4a/5x5"
  bottom: "inception_4a/pool_proj"
  top: "inception_4a/output"
}
layer {
  name: "loss1/ave_pool"
  type: "Pooling"
  bottom: "inception_4a/output"
  top: "loss1/ave_pool"
  pooling_param {
    pool: AVE
    kernel_size: 5
    stride: 3
  }
}
layer {
  name: "loss1/conv"
  type: "Convolution"
  bottom: "loss1/ave_pool"
  top: "loss1/conv"
  param {
    lr_mult: 1
    decay_mult: 1
  }
  param {
    lr_mult: 2
    decay_mult: 0
  }
  convolution_param {
    num_output: 128
    kernel_size: 1
    weight_filler {
      type: "xavier"
      std: 0.08
    }
    bias_filler {
      type: "constant"
      value: 0.2
    }
  }
}
layer {
  name: "loss1/relu_conv"
  type: "ReLU"
  bottom: "loss1/conv"
  top: "loss1/conv"
}
layer {
  name: "loss1/fc"
  type: "InnerProduct"
  bottom: "loss1/conv"
  top: "loss1/fc"
  param {
    lr_mult: 1
    decay_mult: 1
  }
  param {
    lr_mult: 2
    decay_mult: 0
  }
  inner_product_param {
    num_output: 1024
    weight_filler {
      type: "xavier"
      std: 0.02
    }
    bias_filler {
      type: "constant"
      value: 0.2
    }
  }
}
layer {
  name: "loss1/relu_fc"
  type: "ReLU"
  bottom: "loss1/fc"
  top: "loss1/fc"
}
layer {
  name: "loss1/drop_fc"
  type: "Dropout"
  bottom: "loss1/fc"
  top: "loss1/fc"
  dropout_param {
    dropout_ratio: 0.7
  }
}
layer {
  name: "loss1/classifier_plantvillage"
  type: "InnerProduct"
  bottom: "loss1/fc"
  top: "loss1/classifier_plantvillage"
  param {
    lr_mult: 1
    decay_mult: 1
  }
  param {
    lr_mult: 2
    decay_mult: 0
  }
  inner_product_param {
    num_output: 38
    weight_filler {
      type: "xavier"
      std: 0.0009765625
    }
    bias_filler {
      type: "constant"
      value: 0
    }
  }
}
layer {
  name: "inception_4b/1x1"
  type: "Convolution"
  bottom: "inception_4a/output"
  top: "inception_4b/1x1"
  param {
    lr_mult: 1
    decay_mult: 1
  }
  param {
    lr_mult: 2
    decay_mult: 0
  }
  convolution_param {
    num_output: 160
    kernel_size: 1
    weight_filler {
      type: "xavier"
      std: 0.03
    }
    bias_filler {
      type: "constant"
      value: 0.2
    }
  }
}
layer {
  name: "inception_4b/relu_1x1"
  type: "ReLU"
  bottom: "inception_4b/1x1"
  top: "inception_4b/1x1"
}
layer {
  name: "inception_4b/3x3_reduce"
  type: "Convolution"
  bottom: "inception_4a/output"
  top: "inception_4b/3x3_reduce"
  param {
    lr_mult: 1
    decay_mult: 1
  }
  param {
    lr_mult: 2
    decay_mult: 0
  }
  convolution_param {
    num_output: 112
    kernel_size: 1
    weight_filler {
      type: "xavier"
      std: 0.09
    }
    bias_filler {
      type: "constant"
      value: 0.2
    }
  }
}
layer {
  name: "inception_4b/relu_3x3_reduce"
  type: "ReLU"
  bottom: "inception_4b/3x3_reduce"
  top: "inception_4b/3x3_reduce"
}
layer {
  name: "inception_4b/3x3"
  type: "Convolution"
  bottom: "inception_4b/3x3_reduce"
  top: "inception_4b/3x3"
  param {
    lr_mult: 1
    decay_mult: 1
  }
  param {
    lr_mult: 2
    decay_mult: 0
  }
  convolution_param {
    num_output: 224
    pad: 1
    kernel_size: 3
    weight_filler {
      type: "xavier"
      std: 0.03
    }
    bias_filler {
      type: "constant"
      value: 0.2
    }
  }
}
layer {
  name: "inception_4b/relu_3x3"
  type: "ReLU"
  bottom: "inception_4b/3x3"
  top: "inception_4b/3x3"
}
layer {
  name: "inception_4b/5x5_reduce"
  type: "Convolution"
  bottom: "inception_4a/output"
  top: "inception_4b/5x5_reduce"
  param {
    lr_mult: 1
    decay_mult: 1
  }
  param {
    lr_mult: 2
    decay_mult: 0
  }
  convolution_param {
    num_output: 24
    kernel_size: 1
    weight_filler {
      type: "xavier"
      std: 0.2
    }
    bias_filler {
      type: "constant"
      value: 0.2
    }
  }
}
layer {
  name: "inception_4b/relu_5x5_reduce"
  type: "ReLU"
  bottom: "inception_4b/5x5_reduce"
  top: "inception_4b/5x5_reduce"
}
layer {
  name: "inception_4b/5x5"
  type: "Convolution"
  bottom: "inception_4b/5x5_reduce"
  top: "inception_4b/5x5"
  param {
    lr_mult: 1
    decay_mult: 1
  }
  param {
    lr_mult: 2
    decay_mult: 0
  }
  convolution_param {
    num_output: 64
    pad: 2
    kernel_size: 5
    weight_filler {
      type: "xavier"
      std: 0.03
    }
    bias_filler {
      type: "constant"
      value: 0.2
    }
  }
}
layer {
  name: "inception_4b/relu_5x5"
  type: "ReLU"
  bottom: "inception_4b/5x5"
  top: "inception_4b/5x5"
}
layer {
  name: "inception_4b/pool"
  type: "Pooling"
  bottom: "inception_4a/output"
  top: "inception_4b/pool"
  pooling_param {
    pool: MAX
    kernel_size: 3
    stride: 1
    pad: 1
  }
}
layer {
  name: "inception_4b/pool_proj"
  type: "Convolution"
  bottom: "inception_4b/pool"
  top: "inception_4b/pool_proj"
  param {
    lr_mult: 1
    decay_mult: 1
  }
  param {
    lr_mult: 2
    decay_mult: 0
  }
  convolution_param {
    num_output: 64
    kernel_size: 1
    weight_filler {
      type: "xavier"
      std: 0.1
    }
    bias_filler {
      type: "constant"
      value: 0.2
    }
  }
}
layer {
  name: "inception_4b/relu_pool_proj"
  type: "ReLU"
  bottom: "inception_4b/pool_proj"
  top: "inception_4b/pool_proj"
}
layer {
  name: "inception_4b/output"
  type: "Concat"
  bottom: "inception_4b/1x1"
  bottom: "inception_4b/3x3"
  bottom: "inception_4b/5x5"
  bottom: "inception_4b/pool_proj"
  top: "inception_4b/output"
}
layer {
  name: "inception_4c/1x1"
  type: "Convolution"
  bottom: "inception_4b/output"
  top: "inception_4c/1x1"
  param {
    lr_mult: 1
    decay_mult: 1
  }
  param {
    lr_mult: 2
    decay_mult: 0
  }
  convolution_param {
    num_output: 128
    kernel_size: 1
    weight_filler {
      type: "xavier"
      std: 0.03
    }
    bias_filler {
      type: "constant"
      value: 0.2
    }
  }
}
layer {
  name: "inception_4c/relu_1x1"
  type: "ReLU"
  bottom: "inception_4c/1x1"
  top: "inception_4c/1x1"
}
layer {
  name: "inception_4c/3x3_reduce"
  type: "Convolution"
  bottom: "inception_4b/output"
  top: "inception_4c/3x3_reduce"
  param {
    lr_mult: 1
    decay_mult: 1
  }
  param {
    lr_mult: 2
    decay_mult: 0
  }
  convolution_param {
    num_output: 128
    kernel_size: 1
    weight_filler {
      type: "xavier"
      std: 0.09
    }
    bias_filler {
      type: "constant"
      value: 0.2
    }
  }
}
layer {
  name: "inception_4c/relu_3x3_reduce"
  type: "ReLU"
  bottom: "inception_4c/3x3_reduce"
  top: "inception_4c/3x3_reduce"
}
layer {
  name: "inception_4c/3x3"
  type: "Convolution"
  bottom: "inception_4c/3x3_reduce"
  top: "inception_4c/3x3"
  param {
    lr_mult: 1
    decay_mult: 1
  }
  param {
    lr_mult: 2
    decay_mult: 0
  }
  convolution_param {
    num_output: 256
    pad: 1
    kernel_size: 3
    weight_filler {
      type: "xavier"
      std: 0.03
    }
    bias_filler {
      type: "constant"
      value: 0.2
    }
  }
}
layer {
  name: "inception_4c/relu_3x3"
  type: "ReLU"
  bottom: "inception_4c/3x3"
  top: "inception_4c/3x3"
}
layer {
  name: "inception_4c/5x5_reduce"
  type: "Convolution"
  bottom: "inception_4b/output"
  top: "inception_4c/5x5_reduce"
  param {
    lr_mult: 1
    decay_mult: 1
  }
  param {
    lr_mult: 2
    decay_mult: 0
  }
  convolution_param {
    num_output: 24
    kernel_size: 1
    weight_filler {
      type: "xavier"
      std: 0.2
    }
    bias_filler {
      type: "constant"
      value: 0.2
    }
  }
}
layer {
  name: "inception_4c/relu_5x5_reduce"
  type: "ReLU"
  bottom: "inception_4c/5x5_reduce"
  top: "inception_4c/5x5_reduce"
}
layer {
  name: "inception_4c/5x5"
  type: "Convolution"
  bottom: "inception_4c/5x5_reduce"
  top: "inception_4c/5x5"
  param {
    lr_mult: 1
    decay_mult: 1
  }
  param {
    lr_mult: 2
    decay_mult: 0
  }
  convolution_param {
    num_output: 64
    pad: 2
    kernel_size: 5
    weight_filler {
      type: "xavier"
      std: 0.03
    }
    bias_filler {
      type: "constant"
      value: 0.2
    }
  }
}
layer {
  name: "inception_4c/relu_5x5"
  type: "ReLU"
  bottom: "inception_4c/5x5"
  top: "inception_4c/5x5"
}
layer {
  name: "inception_4c/pool"
  type: "Pooling"
  bottom: "inception_4b/output"
  top: "inception_4c/pool"
  pooling_param {
    pool: MAX
    kernel_size: 3
    stride: 1
    pad: 1
  }
}
layer {
  name: "inception_4c/pool_proj"
  type: "Convolution"
  bottom: "inception_4c/pool"
  top: "inception_4c/pool_proj"
  param {
    lr_mult: 1
    decay_mult: 1
  }
  param {
    lr_mult: 2
    decay_mult: 0
  }
  convolution_param {
    num_output: 64
    kernel_size: 1
    weight_filler {
      type: "xavier"
      std: 0.1
    }
    bias_filler {
      type: "constant"
      value: 0.2
    }
  }
}
layer {
  name: "inception_4c/relu_pool_proj"
  type: "ReLU"
  bottom: "inception_4c/pool_proj"
  top: "inception_4c/pool_proj"
}
layer {
  name: "inception_4c/output"
  type: "Concat"
  bottom: "inception_4c/1x1"
  bottom: "inception_4c/3x3"
  bottom: "inception_4c/5x5"
  bottom: "inception_4c/pool_proj"
  top: "inception_4c/output"
}
layer {
  name: "inception_4d/1x1"
  type: "Convolution"
  bottom: "inception_4c/output"
  top: "inception_4d/1x1"
  param {
    lr_mult: 1
    decay_mult: 1
  }
  param {
    lr_mult: 2
    decay_mult: 0
  }
  convolution_param {
    num_output: 112
    kernel_size: 1
    weight_filler {
      type: "xavier"
      std: 0.03
    }
    bias_filler {
      type: "constant"
      value: 0.2
    }
  }
}
layer {
  name: "inception_4d/relu_1x1"
  type: "ReLU"
  bottom: "inception_4d/1x1"
  top: "inception_4d/1x1"
}
layer {
  name: "inception_4d/3x3_reduce"
  type: "Convolution"
  bottom: "inception_4c/output"
  top: "inception_4d/3x3_reduce"
  param {
    lr_mult: 1
    decay_mult: 1
  }
  param {
    lr_mult: 2
    decay_mult: 0
  }
  convolution_param {
    num_output: 144
    kernel_size: 1
    weight_filler {
      type: "xavier"
      std: 0.09
    }
    bias_filler {
      type: "constant"
      value: 0.2
    }
  }
}
layer {
  name: "inception_4d/relu_3x3_reduce"
  type: "ReLU"
  bottom: "inception_4d/3x3_reduce"
  top: "inception_4d/3x3_reduce"
}
layer {
  name: "inception_4d/3x3"
  type: "Convolution"
  bottom: "inception_4d/3x3_reduce"
  top: "inception_4d/3x3"
  param {
    lr_mult: 1
    decay_mult: 1
  }
  param {
    lr_mult: 2
    decay_mult: 0
  }
  convolution_param {
    num_output: 288
    pad: 1
    kernel_size: 3
    weight_filler {
      type: "xavier"
      std: 0.03
    }
    bias_filler {
      type: "constant"
      value: 0.2
    }
  }
}
layer {
  name: "inception_4d/relu_3x3"
  type: "ReLU"
  bottom: "inception_4d/3x3"
  top: "inception_4d/3x3"
}
layer {
  name: "inception_4d/5x5_reduce"
  type: "Convolution"
  bottom: "inception_4c/output"
  top: "inception_4d/5x5_reduce"
  param {
    lr_mult: 1
    decay_mult: 1
  }
  param {
    lr_mult: 2
    decay_mult: 0
  }
  convolution_param {
    num_output: 32
    kernel_size: 1
    weight_filler {
      type: "xavier"
      std: 0.2
    }
    bias_filler {
      type: "constant"
      value: 0.2
    }
  }
}
layer {
  name: "inception_4d/relu_5x5_reduce"
  type: "ReLU"
  bottom: "inception_4d/5x5_reduce"
  top: "inception_4d/5x5_reduce"
}
layer {
  name: "inception_4d/5x5"
  type: "Convolution"
  bottom: "inception_4d/5x5_reduce"
  top: "inception_4d/5x5"
  param {
    lr_mult: 1
    decay_mult: 1
  }
  param {
    lr_mult: 2
    decay_mult: 0
  }
  convolution_param {
    num_output: 64
    pad: 2
    kernel_size: 5
    weight_filler {
      type: "xavier"
      std: 0.03
    }
    bias_filler {
      type: "constant"
      value: 0.2
    }
  }
}
layer {
  name: "inception_4d/relu_5x5"
  type: "ReLU"
  bottom: "inception_4d/5x5"
  top: "inception_4d/5x5"
}
layer {
  name: "inception_4d/pool"
  type: "Pooling"
  bottom: "inception_4c/output"
  top: "inception_4d/pool"
  pooling_param {
    pool: MAX
    kernel_size: 3
    stride: 1
    pad: 1
  }
}
layer {
  name: "inception_4d/pool_proj"
  type: "Convolution"
  bottom: "inception_4d/pool"
  top: "inception_4d/pool_proj"
  param {
    lr_mult: 1
    decay_mult: 1
  }
  param {
    lr_mult: 2
    decay_mult: 0
  }
  convolution_param {
    num_output: 64
    kernel_size: 1
    weight_filler {
      type: "xavier"
      std: 0.1
    }
    bias_filler {
      type: "constant"
      value: 0.2
    }
  }
}
layer {
  name: "inception_4d/relu_pool_proj"
  type: "ReLU"
  bottom: "inception_4d/pool_proj"
  top: "inception_4d/pool_proj"
}
layer {
  name: "inception_4d/output"
  type: "Concat"
  bottom: "inception_4d/1x1"
  bottom: "inception_4d/3x3"
  bottom: "inception_4d/5x5"
  bottom: "inception_4d/pool_proj"
  top: "inception_4d/output"
}
layer {
  name: "loss2/ave_pool"
  type: "Pooling"
  bottom: "inception_4d/output"
  top: "loss2/ave_pool"
  pooling_param {
    pool: AVE
    kernel_size: 5
    stride: 3
  }
}
layer {
  name: "loss2/conv"
  type: "Convolution"
  bottom: "loss2/ave_pool"
  top: "loss2/conv"
  param {
    lr_mult: 1
    decay_mult: 1
  }
  param {
    lr_mult: 2
    decay_mult: 0
  }
  convolution_param {
    num_output: 128
    kernel_size: 1
    weight_filler {
      type: "xavier"
      std: 0.08
    }
    bias_filler {
      type: "constant"
      value: 0.2
    }
  }
}
layer {
  name: "loss2/relu_conv"
  type: "ReLU"
  bottom: "loss2/conv"
  top: "loss2/conv"
}
layer {
  name: "loss2/fc"
  type: "InnerProduct"
  bottom: "loss2/conv"
  top: "loss2/fc"
  param {
    lr_mult: 1
    decay_mult: 1
  }
  param {
    lr_mult: 2
    decay_mult: 0
  }
  inner_product_param {
    num_output: 1024
    weight_filler {
      type: "xavier"
      std: 0.02
    }
    bias_filler {
      type: "constant"
      value: 0.2
    }
  }
}
layer {
  name: "loss2/relu_fc"
  type: "ReLU"
  bottom: "loss2/fc"
  top: "loss2/fc"
}
layer {
  name: "loss2/drop_fc"
  type: "Dropout"
  bottom: "loss2/fc"
  top: "loss2/fc"
  dropout_param {
    dropout_ratio: 0.7
  }
}
layer {
  name: "loss2/classifier_plantvillage"
  type: "InnerProduct"
  bottom: "loss2/fc"
  top: "loss2/classifier_plantvillage"
  param {
    lr_mult: 1
    decay_mult: 1
  }
  param {
    lr_mult: 2
    decay_mult: 0
  }
  inner_product_param {
    num_output: 38
    weight_filler {
      type: "xavier"
      std: 0.0009765625
    }
    bias_filler {
      type: "constant"
      value: 0
    }
  }
}
layer {
  name: "inception_4e/1x1"
  type: "Convolution"
  bottom: "inception_4d/output"
  top: "inception_4e/1x1"
  param {
    lr_mult: 1
    decay_mult: 1
  }
  param {
    lr_mult: 2
    decay_mult: 0
  }
  convolution_param {
    num_output: 256
    kernel_size: 1
    weight_filler {
      type: "xavier"
      std: 0.03
    }
    bias_filler {
      type: "constant"
      value: 0.2
    }
  }
}
layer {
  name: "inception_4e/relu_1x1"
  type: "ReLU"
  bottom: "inception_4e/1x1"
  top: "inception_4e/1x1"
}
layer {
  name: "inception_4e/3x3_reduce"
  type: "Convolution"
  bottom: "inception_4d/output"
  top: "inception_4e/3x3_reduce"
  param {
    lr_mult: 1
    decay_mult: 1
  }
  param {
    lr_mult: 2
    decay_mult: 0
  }
  convolution_param {
    num_output: 160
    kernel_size: 1
    weight_filler {
      type: "xavier"
      std: 0.09
    }
    bias_filler {
      type: "constant"
      value: 0.2
    }
  }
}
layer {
  name: "inception_4e/relu_3x3_reduce"
  type: "ReLU"
  bottom: "inception_4e/3x3_reduce"
  top: "inception_4e/3x3_reduce"
}
layer {
  name: "inception_4e/3x3"
  type: "Convolution"
  bottom: "inception_4e/3x3_reduce"
  top: "inception_4e/3x3"
  param {
    lr_mult: 1
    decay_mult: 1
  }
  param {
    lr_mult: 2
    decay_mult: 0
  }
  convolution_param {
    num_output: 320
    pad: 1
    kernel_size: 3
    weight_filler {
      type: "xavier"
      std: 0.03
    }
    bias_filler {
      type: "constant"
      value: 0.2
    }
  }
}
layer {
  name: "inception_4e/relu_3x3"
  type: "ReLU"
  bottom: "inception_4e/3x3"
  top: "inception_4e/3x3"
}
layer {
  name: "inception_4e/5x5_reduce"
  type: "Convolution"
  bottom: "inception_4d/output"
  top: "inception_4e/5x5_reduce"
  param {
    lr_mult: 1
    decay_mult: 1
  }
  param {
    lr_mult: 2
    decay_mult: 0
  }
  convolution_param {
    num_output: 32
    kernel_size: 1
    weight_filler {
      type: "xavier"
      std: 0.2
    }
    bias_filler {
      type: "constant"
      value: 0.2
    }
  }
}
layer {
  name: "inception_4e/relu_5x5_reduce"
  type: "ReLU"
  bottom: "inception_4e/5x5_reduce"
  top: "inception_4e/5x5_reduce"
}
layer {
  name: "inception_4e/5x5"
  type: "Convolution"
  bottom: "inception_4e/5x5_reduce"
  top: "inception_4e/
I0403 17:03:05.022137 20090 layer_factory.hpp:77] Creating layer data
I0403 17:03:05.022753 20090 net.cpp:91] Creating Layer data
I0403 17:03:05.022781 20090 net.cpp:399] data -> data
I0403 17:03:05.022830 20090 net.cpp:399] data -> label
I0403 17:03:05.022868 20090 data_transformer.cpp:25] Loading mean file from: /home/mohanty/data/final_dataset/lmdb/segmented-20-80/mean.binaryproto
I0403 17:03:05.023983 20095 db_lmdb.cpp:38] Opened lmdb /home/mohanty/data/final_dataset/lmdb/segmented-20-80/test_db
I0403 17:03:05.035501 20090 data_layer.cpp:41] output data size: 24,3,224,224
I0403 17:03:05.062180 20090 net.cpp:141] Setting up data
I0403 17:03:05.062252 20090 net.cpp:148] Top shape: 24 3 224 224 (3612672)
I0403 17:03:05.062276 20090 net.cpp:148] Top shape: 24 (24)
I0403 17:03:05.062291 20090 net.cpp:156] Memory required for data: 14450784
I0403 17:03:05.062319 20090 layer_factory.hpp:77] Creating layer label_data_1_split
I0403 17:03:05.062343 20090 net.cpp:91] Creating Layer label_data_1_split
I0403 17:03:05.062362 20090 net.cpp:425] label_data_1_split <- label
I0403 17:03:05.062394 20090 net.cpp:399] label_data_1_split -> label_data_1_split_0
I0403 17:03:05.062423 20090 net.cpp:399] label_data_1_split -> label_data_1_split_1
I0403 17:03:05.062446 20090 net.cpp:399] label_data_1_split -> label_data_1_split_2
I0403 17:03:05.062469 20090 net.cpp:399] label_data_1_split -> label_data_1_split_3
I0403 17:03:05.062490 20090 net.cpp:399] label_data_1_split -> label_data_1_split_4
I0403 17:03:05.062510 20090 net.cpp:399] label_data_1_split -> label_data_1_split_5
I0403 17:03:05.062530 20090 net.cpp:399] label_data_1_split -> label_data_1_split_6
I0403 17:03:05.062553 20090 net.cpp:399] label_data_1_split -> label_data_1_split_7
I0403 17:03:05.062574 20090 net.cpp:399] label_data_1_split -> label_data_1_split_8
I0403 17:03:05.062597 20090 net.cpp:399] label_data_1_split -> label_data_1_split_9
I0403 17:03:05.062716 20090 net.cpp:141] Setting up label_data_1_split
I0403 17:03:05.062739 20090 net.cpp:148] Top shape: 24 (24)
I0403 17:03:05.062755 20090 net.cpp:148] Top shape: 24 (24)
I0403 17:03:05.062770 20090 net.cpp:148] Top shape: 24 (24)
I0403 17:03:05.062786 20090 net.cpp:148] Top shape: 24 (24)
I0403 17:03:05.062801 20090 net.cpp:148] Top shape: 24 (24)
I0403 17:03:05.062816 20090 net.cpp:148] Top shape: 24 (24)
I0403 17:03:05.062831 20090 net.cpp:148] Top shape: 24 (24)
I0403 17:03:05.062846 20090 net.cpp:148] Top shape: 24 (24)
I0403 17:03:05.062860 20090 net.cpp:148] Top shape: 24 (24)
I0403 17:03:05.062876 20090 net.cpp:148] Top shape: 24 (24)
I0403 17:03:05.062927 20090 net.cpp:156] Memory required for data: 14451744
I0403 17:03:05.062943 20090 layer_factory.hpp:77] Creating layer conv1/7x7_s2
I0403 17:03:05.062976 20090 net.cpp:91] Creating Layer conv1/7x7_s2
I0403 17:03:05.062994 20090 net.cpp:425] conv1/7x7_s2 <- data
I0403 17:03:05.063014 20090 net.cpp:399] conv1/7x7_s2 -> conv1/7x7_s2
I0403 17:03:05.201645 20090 net.cpp:141] Setting up conv1/7x7_s2
I0403 17:03:05.201709 20090 net.cpp:148] Top shape: 24 64 112 112 (19267584)
I0403 17:03:05.201727 20090 net.cpp:156] Memory required for data: 91522080
I0403 17:03:05.201757 20090 layer_factory.hpp:77] Creating layer conv1/relu_7x7
I0403 17:03:05.201783 20090 net.cpp:91] Creating Layer conv1/relu_7x7
I0403 17:03:05.201802 20090 net.cpp:425] conv1/relu_7x7 <- conv1/7x7_s2
I0403 17:03:05.201822 20090 net.cpp:386] conv1/relu_7x7 -> conv1/7x7_s2 (in-place)
I0403 17:03:05.202085 20090 net.cpp:141] Setting up conv1/relu_7x7
I0403 17:03:05.202111 20090 net.cpp:148] Top shape: 24 64 112 112 (19267584)
I0403 17:03:05.202126 20090 net.cpp:156] Memory required for data: 168592416
I0403 17:03:05.202141 20090 layer_factory.hpp:77] Creating layer pool1/3x3_s2
I0403 17:03:05.202165 20090 net.cpp:91] Creating Layer pool1/3x3_s2
I0403 17:03:05.202183 20090 net.cpp:425] pool1/3x3_s2 <- conv1/7x7_s2
I0403 17:03:05.202200 20090 net.cpp:399] pool1/3x3_s2 -> pool1/3x3_s2
I0403 17:03:05.202277 20090 net.cpp:141] Setting up pool1/3x3_s2
I0403 17:03:05.202301 20090 net.cpp:148] Top shape: 24 64 56 56 (4816896)
I0403 17:03:05.202316 20090 net.cpp:156] Memory required for data: 187860000
I0403 17:03:05.202329 20090 layer_factory.hpp:77] Creating layer pool1/norm1
I0403 17:03:05.202353 20090 net.cpp:91] Creating Layer pool1/norm1
I0403 17:03:05.202369 20090 net.cpp:425] pool1/norm1 <- pool1/3x3_s2
I0403 17:03:05.202389 20090 net.cpp:399] pool1/norm1 -> pool1/norm1
I0403 17:03:05.202682 20090 net.cpp:141] Setting up pool1/norm1
I0403 17:03:05.202708 20090 net.cpp:148] Top shape: 24 64 56 56 (4816896)
I0403 17:03:05.202723 20090 net.cpp:156] Memory required for data: 207127584
I0403 17:03:05.202738 20090 layer_factory.hpp:77] Creating layer conv2/3x3_reduce
I0403 17:03:05.202762 20090 net.cpp:91] Creating Layer conv2/3x3_reduce
I0403 17:03:05.202780 20090 net.cpp:425] conv2/3x3_reduce <- pool1/norm1
I0403 17:03:05.202800 20090 net.cpp:399] conv2/3x3_reduce -> conv2/3x3_reduce
I0403 17:03:05.204157 20090 net.cpp:141] Setting up conv2/3x3_reduce
I0403 17:03:05.204191 20090 net.cpp:148] Top shape: 24 64 56 56 (4816896)
I0403 17:03:05.204207 20090 net.cpp:156] Memory required for data: 226395168
I0403 17:03:05.204228 20090 layer_factory.hpp:77] Creating layer conv2/relu_3x3_reduce
I0403 17:03:05.204246 20090 net.cpp:91] Creating Layer conv2/relu_3x3_reduce
I0403 17:03:05.204262 20090 net.cpp:425] conv2/relu_3x3_reduce <- conv2/3x3_reduce
I0403 17:03:05.204279 20090 net.cpp:386] conv2/relu_3x3_reduce -> conv2/3x3_reduce (in-place)
I0403 17:03:05.204537 20090 net.cpp:141] Setting up conv2/relu_3x3_reduce
I0403 17:03:05.204565 20090 net.cpp:148] Top shape: 24 64 56 56 (4816896)
I0403 17:03:05.204581 20090 net.cpp:156] Memory required for data: 245662752
I0403 17:03:05.204594 20090 layer_factory.hpp:77] Creating layer conv2/3x3
I0403 17:03:05.204630 20090 net.cpp:91] Creating Layer conv2/3x3
I0403 17:03:05.204649 20090 net.cpp:425] conv2/3x3 <- conv2/3x3_reduce
I0403 17:03:05.204668 20090 net.cpp:399] conv2/3x3 -> conv2/3x3
I0403 17:03:05.206883 20090 net.cpp:141] Setting up conv2/3x3
I0403 17:03:05.206923 20090 net.cpp:148] Top shape: 24 192 56 56 (14450688)
I0403 17:03:05.206939 20090 net.cpp:156] Memory required for data: 303465504
I0403 17:03:05.206960 20090 layer_factory.hpp:77] Creating layer conv2/relu_3x3
I0403 17:03:05.206979 20090 net.cpp:91] Creating Layer conv2/relu_3x3
I0403 17:03:05.206993 20090 net.cpp:425] conv2/relu_3x3 <- conv2/3x3
I0403 17:03:05.207012 20090 net.cpp:386] conv2/relu_3x3 -> conv2/3x3 (in-place)
I0403 17:03:05.207183 20090 net.cpp:141] Setting up conv2/relu_3x3
I0403 17:03:05.207207 20090 net.cpp:148] Top shape: 24 192 56 56 (14450688)
I0403 17:03:05.207254 20090 net.cpp:156] Memory required for data: 361268256
I0403 17:03:05.207269 20090 layer_factory.hpp:77] Creating layer conv2/norm2
I0403 17:03:05.207288 20090 net.cpp:91] Creating Layer conv2/norm2
I0403 17:03:05.207304 20090 net.cpp:425] conv2/norm2 <- conv2/3x3
I0403 17:03:05.207322 20090 net.cpp:399] conv2/norm2 -> conv2/norm2
I0403 17:03:05.207618 20090 net.cpp:141] Setting up conv2/norm2
I0403 17:03:05.207644 20090 net.cpp:148] Top shape: 24 192 56 56 (14450688)
I0403 17:03:05.207659 20090 net.cpp:156] Memory required for data: 419071008
I0403 17:03:05.207674 20090 layer_factory.hpp:77] Creating layer pool2/3x3_s2
I0403 17:03:05.207692 20090 net.cpp:91] Creating Layer pool2/3x3_s2
I0403 17:03:05.207708 20090 net.cpp:425] pool2/3x3_s2 <- conv2/norm2
I0403 17:03:05.207726 20090 net.cpp:399] pool2/3x3_s2 -> pool2/3x3_s2
I0403 17:03:05.207778 20090 net.cpp:141] Setting up pool2/3x3_s2
I0403 17:03:05.207801 20090 net.cpp:148] Top shape: 24 192 28 28 (3612672)
I0403 17:03:05.207815 20090 net.cpp:156] Memory required for data: 433521696
I0403 17:03:05.207829 20090 layer_factory.hpp:77] Creating layer pool2/3x3_s2_pool2/3x3_s2_0_split
I0403 17:03:05.207849 20090 net.cpp:91] Creating Layer pool2/3x3_s2_pool2/3x3_s2_0_split
I0403 17:03:05.207864 20090 net.cpp:425] pool2/3x3_s2_pool2/3x3_s2_0_split <- pool2/3x3_s2
I0403 17:03:05.207880 20090 net.cpp:399] pool2/3x3_s2_pool2/3x3_s2_0_split -> pool2/3x3_s2_pool2/3x3_s2_0_split_0
I0403 17:03:05.207900 20090 net.cpp:399] pool2/3x3_s2_pool2/3x3_s2_0_split -> pool2/3x3_s2_pool2/3x3_s2_0_split_1
I0403 17:03:05.207919 20090 net.cpp:399] pool2/3x3_s2_pool2/3x3_s2_0_split -> pool2/3x3_s2_pool2/3x3_s2_0_split_2
I0403 17:03:05.207938 20090 net.cpp:399] pool2/3x3_s2_pool2/3x3_s2_0_split -> pool2/3x3_s2_pool2/3x3_s2_0_split_3
I0403 17:03:05.208006 20090 net.cpp:141] Setting up pool2/3x3_s2_pool2/3x3_s2_0_split
I0403 17:03:05.208029 20090 net.cpp:148] Top shape: 24 192 28 28 (3612672)
I0403 17:03:05.208045 20090 net.cpp:148] Top shape: 24 192 28 28 (3612672)
I0403 17:03:05.208060 20090 net.cpp:148] Top shape: 24 192 28 28 (3612672)
I0403 17:03:05.208075 20090 net.cpp:148] Top shape: 24 192 28 28 (3612672)
I0403 17:03:05.208087 20090 net.cpp:156] Memory required for data: 491324448
I0403 17:03:05.208101 20090 layer_factory.hpp:77] Creating layer inception_3a/1x1
I0403 17:03:05.208122 20090 net.cpp:91] Creating Layer inception_3a/1x1
I0403 17:03:05.208138 20090 net.cpp:425] inception_3a/1x1 <- pool2/3x3_s2_pool2/3x3_s2_0_split_0
I0403 17:03:05.208159 20090 net.cpp:399] inception_3a/1x1 -> inception_3a/1x1
I0403 17:03:05.209632 20090 net.cpp:141] Setting up inception_3a/1x1
I0403 17:03:05.209663 20090 net.cpp:148] Top shape: 24 64 28 28 (1204224)
I0403 17:03:05.209679 20090 net.cpp:156] Memory required for data: 496141344
I0403 17:03:05.209697 20090 layer_factory.hpp:77] Creating layer inception_3a/relu_1x1
I0403 17:03:05.209715 20090 net.cpp:91] Creating Layer inception_3a/relu_1x1
I0403 17:03:05.209730 20090 net.cpp:425] inception_3a/relu_1x1 <- inception_3a/1x1
I0403 17:03:05.209746 20090 net.cpp:386] inception_3a/relu_1x1 -> inception_3a/1x1 (in-place)
I0403 17:03:05.209918 20090 net.cpp:141] Setting up inception_3a/relu_1x1
I0403 17:03:05.209942 20090 net.cpp:148] Top shape: 24 64 28 28 (1204224)
I0403 17:03:05.209956 20090 net.cpp:156] Memory required for data: 500958240
I0403 17:03:05.209970 20090 layer_factory.hpp:77] Creating layer inception_3a/3x3_reduce
I0403 17:03:05.209992 20090 net.cpp:91] Creating Layer inception_3a/3x3_reduce
I0403 17:03:05.210010 20090 net.cpp:425] inception_3a/3x3_reduce <- pool2/3x3_s2_pool2/3x3_s2_0_split_1
I0403 17:03:05.210029 20090 net.cpp:399] inception_3a/3x3_reduce -> inception_3a/3x3_reduce
I0403 17:03:05.211659 20090 net.cpp:141] Setting up inception_3a/3x3_reduce
I0403 17:03:05.211690 20090 net.cpp:148] Top shape: 24 96 28 28 (1806336)
I0403 17:03:05.211706 20090 net.cpp:156] Memory required for data: 508183584
I0403 17:03:05.211729 20090 layer_factory.hpp:77] Creating layer inception_3a/relu_3x3_reduce
I0403 17:03:05.211765 20090 net.cpp:91] Creating Layer inception_3a/relu_3x3_reduce
I0403 17:03:05.211782 20090 net.cpp:425] inception_3a/relu_3x3_reduce <- inception_3a/3x3_reduce
I0403 17:03:05.211799 20090 net.cpp:386] inception_3a/relu_3x3_reduce -> inception_3a/3x3_reduce (in-place)
I0403 17:03:05.211973 20090 net.cpp:141] Setting up inception_3a/relu_3x3_reduce
I0403 17:03:05.211998 20090 net.cpp:148] Top shape: 24 96 28 28 (1806336)
I0403 17:03:05.212013 20090 net.cpp:156] Memory required for data: 515408928
I0403 17:03:05.212025 20090 layer_factory.hpp:77] Creating layer inception_3a/3x3
I0403 17:03:05.212049 20090 net.cpp:91] Creating Layer inception_3a/3x3
I0403 17:03:05.212065 20090 net.cpp:425] inception_3a/3x3 <- inception_3a/3x3_reduce
I0403 17:03:05.212083 20090 net.cpp:399] inception_3a/3x3 -> inception_3a/3x3
I0403 17:03:05.213673 20090 net.cpp:141] Setting up inception_3a/3x3
I0403 17:03:05.213701 20090 net.cpp:148] Top shape: 24 128 28 28 (2408448)
I0403 17:03:05.213716 20090 net.cpp:156] Memory required for data: 525042720
I0403 17:03:05.213735 20090 layer_factory.hpp:77] Creating layer inception_3a/relu_3x3
I0403 17:03:05.213752 20090 net.cpp:91] Creating Layer inception_3a/relu_3x3
I0403 17:03:05.213768 20090 net.cpp:425] inception_3a/relu_3x3 <- inception_3a/3x3
I0403 17:03:05.213786 20090 net.cpp:386] inception_3a/relu_3x3 -> inception_3a/3x3 (in-place)
I0403 17:03:05.214051 20090 net.cpp:141] Setting up inception_3a/relu_3x3
I0403 17:03:05.214077 20090 net.cpp:148] Top shape: 24 128 28 28 (2408448)
I0403 17:03:05.214092 20090 net.cpp:156] Memory required for data: 534676512
I0403 17:03:05.214107 20090 layer_factory.hpp:77] Creating layer inception_3a/5x5_reduce
I0403 17:03:05.214128 20090 net.cpp:91] Creating Layer inception_3a/5x5_reduce
I0403 17:03:05.214145 20090 net.cpp:425] inception_3a/5x5_reduce <- pool2/3x3_s2_pool2/3x3_s2_0_split_2
I0403 17:03:05.214165 20090 net.cpp:399] inception_3a/5x5_reduce -> inception_3a/5x5_reduce
I0403 17:03:05.215112 20090 net.cpp:141] Setting up inception_3a/5x5_reduce
I0403 17:03:05.215139 20090 net.cpp:148] Top shape: 24 16 28 28 (301056)
I0403 17:03:05.215154 20090 net.cpp:156] Memory required for data: 535880736
I0403 17:03:05.215172 20090 layer_factory.hpp:77] Creating layer inception_3a/relu_5x5_reduce
I0403 17:03:05.215188 20090 net.cpp:91] Creating Layer inception_3a/relu_5x5_reduce
I0403 17:03:05.215204 20090 net.cpp:425] inception_3a/relu_5x5_reduce <- inception_3a/5x5_reduce
I0403 17:03:05.215224 20090 net.cpp:386] inception_3a/relu_5x5_reduce -> inception_3a/5x5_reduce (in-place)
I0403 17:03:05.215507 20090 net.cpp:141] Setting up inception_3a/relu_5x5_reduce
I0403 17:03:05.215533 20090 net.cpp:148] Top shape: 24 16 28 28 (301056)
I0403 17:03:05.215548 20090 net.cpp:156] Memory required for data: 537084960
I0403 17:03:05.215562 20090 layer_factory.hpp:77] Creating layer inception_3a/5x5
I0403 17:03:05.215585 20090 net.cpp:91] Creating Layer inception_3a/5x5
I0403 17:03:05.215606 20090 net.cpp:425] inception_3a/5x5 <- inception_3a/5x5_reduce
I0403 17:03:05.215629 20090 net.cpp:399] inception_3a/5x5 -> inception_3a/5x5
I0403 17:03:05.216603 20090 net.cpp:141] Setting up inception_3a/5x5
I0403 17:03:05.216632 20090 net.cpp:148] Top shape: 24 32 28 28 (602112)
I0403 17:03:05.216648 20090 net.cpp:156] Memory required for data: 539493408
I0403 17:03:05.216665 20090 layer_factory.hpp:77] Creating layer inception_3a/relu_5x5
I0403 17:03:05.216682 20090 net.cpp:91] Creating Layer inception_3a/relu_5x5
I0403 17:03:05.216697 20090 net.cpp:425] inception_3a/relu_5x5 <- inception_3a/5x5
I0403 17:03:05.216717 20090 net.cpp:386] inception_3a/relu_5x5 -> inception_3a/5x5 (in-place)
I0403 17:03:05.216879 20090 net.cpp:141] Setting up inception_3a/relu_5x5
I0403 17:03:05.216903 20090 net.cpp:148] Top shape: 24 32 28 28 (602112)
I0403 17:03:05.216917 20090 net.cpp:156] Memory required for data: 541901856
I0403 17:03:05.216931 20090 layer_factory.hpp:77] Creating layer inception_3a/pool
I0403 17:03:05.216950 20090 net.cpp:91] Creating Layer inception_3a/pool
I0403 17:03:05.216980 20090 net.cpp:425] inception_3a/pool <- pool2/3x3_s2_pool2/3x3_s2_0_split_3
I0403 17:03:05.216998 20090 net.cpp:399] inception_3a/pool -> inception_3a/pool
I0403 17:03:05.217054 20090 net.cpp:141] Setting up inception_3a/pool
I0403 17:03:05.217077 20090 net.cpp:148] Top shape: 24 192 28 28 (3612672)
I0403 17:03:05.217092 20090 net.cpp:156] Memory required for data: 556352544
I0403 17:03:05.217105 20090 layer_factory.hpp:77] Creating layer inception_3a/pool_proj
I0403 17:03:05.217125 20090 net.cpp:91] Creating Layer inception_3a/pool_proj
I0403 17:03:05.217142 20090 net.cpp:425] inception_3a/pool_proj <- inception_3a/pool
I0403 17:03:05.217164 20090 net.cpp:399] inception_3a/pool_proj -> inception_3a/pool_proj
I0403 17:03:05.218086 20090 net.cpp:141] Setting up inception_3a/pool_proj
I0403 17:03:05.218113 20090 net.cpp:148] Top shape: 24 32 28 28 (602112)
I0403 17:03:05.218132 20090 net.cpp:156] Memory required for data: 558760992
I0403 17:03:05.218153 20090 layer_factory.hpp:77] Creating layer inception_3a/relu_pool_proj
I0403 17:03:05.218171 20090 net.cpp:91] Creating Layer inception_3a/relu_pool_proj
I0403 17:03:05.218186 20090 net.cpp:425] inception_3a/relu_pool_proj <- inception_3a/pool_proj
I0403 17:03:05.218204 20090 net.cpp:386] inception_3a/relu_pool_proj -> inception_3a/pool_proj (in-place)
I0403 17:03:05.218472 20090 net.cpp:141] Setting up inception_3a/relu_pool_proj
I0403 17:03:05.218498 20090 net.cpp:148] Top shape: 24 32 28 28 (602112)
I0403 17:03:05.218513 20090 net.cpp:156] Memory required for data: 561169440
I0403 17:03:05.218528 20090 layer_factory.hpp:77] Creating layer inception_3a/output
I0403 17:03:05.218545 20090 net.cpp:91] Creating Layer inception_3a/output
I0403 17:03:05.218560 20090 net.cpp:425] inception_3a/output <- inception_3a/1x1
I0403 17:03:05.218577 20090 net.cpp:425] inception_3a/output <- inception_3a/3x3
I0403 17:03:05.218593 20090 net.cpp:425] inception_3a/output <- inception_3a/5x5
I0403 17:03:05.218614 20090 net.cpp:425] inception_3a/output <- inception_3a/pool_proj
I0403 17:03:05.218643 20090 net.cpp:399] inception_3a/output -> inception_3a/output
I0403 17:03:05.218689 20090 net.cpp:141] Setting up inception_3a/output
I0403 17:03:05.218715 20090 net.cpp:148] Top shape: 24 256 28 28 (4816896)
I0403 17:03:05.218730 20090 net.cpp:156] Memory required for data: 580437024
I0403 17:03:05.218745 20090 layer_factory.hpp:77] Creating layer inception_3a/output_inception_3a/output_0_split
I0403 17:03:05.218762 20090 net.cpp:91] Creating Layer inception_3a/output_inception_3a/output_0_split
I0403 17:03:05.218776 20090 net.cpp:425] inception_3a/output_inception_3a/output_0_split <- inception_3a/output
I0403 17:03:05.218792 20090 net.cpp:399] inception_3a/output_inception_3a/output_0_split -> inception_3a/output_inception_3a/output_0_split_0
I0403 17:03:05.218811 20090 net.cpp:399] inception_3a/output_inception_3a/output_0_split -> inception_3a/output_inception_3a/output_0_split_1
I0403 17:03:05.218835 20090 net.cpp:399] inception_3a/output_inception_3a/output_0_split -> inception_3a/output_inception_3a/output_0_split_2
I0403 17:03:05.218857 20090 net.cpp:399] inception_3a/output_inception_3a/output_0_split -> inception_3a/output_inception_3a/output_0_split_3
I0403 17:03:05.218930 20090 net.cpp:141] Setting up inception_3a/output_inception_3a/output_0_split
I0403 17:03:05.218955 20090 net.cpp:148] Top shape: 24 256 28 28 (4816896)
I0403 17:03:05.218972 20090 net.cpp:148] Top shape: 24 256 28 28 (4816896)
I0403 17:03:05.218987 20090 net.cpp:148] Top shape: 24 256 28 28 (4816896)
I0403 17:03:05.219002 20090 net.cpp:148] Top shape: 24 256 28 28 (4816896)
I0403 17:03:05.219015 20090 net.cpp:156] Memory required for data: 657507360
I0403 17:03:05.219029 20090 layer_factory.hpp:77] Creating layer inception_3b/1x1
I0403 17:03:05.219050 20090 net.cpp:91] Creating Layer inception_3b/1x1
I0403 17:03:05.219066 20090 net.cpp:425] inception_3b/1x1 <- inception_3a/output_inception_3a/output_0_split_0
I0403 17:03:05.219084 20090 net.cpp:399] inception_3b/1x1 -> inception_3b/1x1
I0403 17:03:05.220172 20090 net.cpp:141] Setting up inception_3b/1x1
I0403 17:03:05.220213 20090 net.cpp:148] Top shape: 24 128 28 28 (2408448)
I0403 17:03:05.220230 20090 net.cpp:156] Memory required for data: 667141152
I0403 17:03:05.220247 20090 layer_factory.hpp:77] Creating layer inception_3b/relu_1x1
I0403 17:03:05.220265 20090 net.cpp:91] Creating Layer inception_3b/relu_1x1
I0403 17:03:05.220279 20090 net.cpp:425] inception_3b/relu_1x1 <- inception_3b/1x1
I0403 17:03:05.220298 20090 net.cpp:386] inception_3b/relu_1x1 -> inception_3b/1x1 (in-place)
I0403 17:03:05.220465 20090 net.cpp:141] Setting up inception_3b/relu_1x1
I0403 17:03:05.220490 20090 net.cpp:148] Top shape: 24 128 28 28 (2408448)
I0403 17:03:05.220504 20090 net.cpp:156] Memory required for data: 676774944
I0403 17:03:05.220518 20090 layer_factory.hpp:77] Creating layer inception_3b/3x3_reduce
I0403 17:03:05.220540 20090 net.cpp:91] Creating Layer inception_3b/3x3_reduce
I0403 17:03:05.220556 20090 net.cpp:425] inception_3b/3x3_reduce <- inception_3a/output_inception_3a/output_0_split_1
I0403 17:03:05.220577 20090 net.cpp:399] inception_3b/3x3_reduce -> inception_3b/3x3_reduce
I0403 17:03:05.221662 20090 net.cpp:141] Setting up inception_3b/3x3_reduce
I0403 17:03:05.221693 20090 net.cpp:148] Top shape: 24 128 28 28 (2408448)
I0403 17:03:05.221709 20090 net.cpp:156] Memory required for data: 686408736
I0403 17:03:05.221726 20090 layer_factory.hpp:77] Creating layer inception_3b/relu_3x3_reduce
I0403 17:03:05.221743 20090 net.cpp:91] Creating Layer inception_3b/relu_3x3_reduce
I0403 17:03:05.221758 20090 net.cpp:425] inception_3b/relu_3x3_reduce <- inception_3b/3x3_reduce
I0403 17:03:05.221774 20090 net.cpp:386] inception_3b/relu_3x3_reduce -> inception_3b/3x3_reduce (in-place)
I0403 17:03:05.221945 20090 net.cpp:141] Setting up inception_3b/relu_3x3_reduce
I0403 17:03:05.221968 20090 net.cpp:148] Top shape: 24 128 28 28 (2408448)
I0403 17:03:05.221983 20090 net.cpp:156] Memory required for data: 696042528
I0403 17:03:05.221997 20090 layer_factory.hpp:77] Creating layer inception_3b/3x3
I0403 17:03:05.222020 20090 net.cpp:91] Creating Layer inception_3b/3x3
I0403 17:03:05.222038 20090 net.cpp:425] inception_3b/3x3 <- inception_3b/3x3_reduce
I0403 17:03:05.222059 20090 net.cpp:399] inception_3b/3x3 -> inception_3b/3x3
I0403 17:03:05.224884 20090 net.cpp:141] Setting up inception_3b/3x3
I0403 17:03:05.224910 20090 net.cpp:148] Top shape: 24 192 28 28 (3612672)
I0403 17:03:05.224926 20090 net.cpp:156] Memory required for data: 710493216
I0403 17:03:05.224943 20090 layer_factory.hpp:77] Creating layer inception_3b/relu_3x3
I0403 17:03:05.224961 20090 net.cpp:91] Creating Layer inception_3b/relu_3x3
I0403 17:03:05.224975 20090 net.cpp:425] inception_3b/relu_3x3 <- inception_3b/3x3
I0403 17:03:05.224994 20090 net.cpp:386] inception_3b/relu_3x3 -> inception_3b/3x3 (in-place)
I0403 17:03:05.225266 20090 net.cpp:141] Setting up inception_3b/relu_3x3
I0403 17:03:05.225291 20090 net.cpp:148] Top shape: 24 192 28 28 (3612672)
I0403 17:03:05.225306 20090 net.cpp:156] Memory required for data: 724943904
I0403 17:03:05.225319 20090 layer_factory.hpp:77] Creating layer inception_3b/5x5_reduce
I0403 17:03:05.225342 20090 net.cpp:91] Creating Layer inception_3b/5x5_reduce
I0403 17:03:05.225358 20090 net.cpp:425] inception_3b/5x5_reduce <- inception_3a/output_inception_3a/output_0_split_2
I0403 17:03:05.225379 20090 net.cpp:399] inception_3b/5x5_reduce -> inception_3b/5x5_reduce
I0403 17:03:05.226341 20090 net.cpp:141] Setting up inception_3b/5x5_reduce
I0403 17:03:05.226368 20090 net.cpp:148] Top shape: 24 32 28 28 (602112)
I0403 17:03:05.226383 20090 net.cpp:156] Memory required for data: 727352352
I0403 17:03:05.226399 20090 layer_factory.hpp:77] Creating layer inception_3b/relu_5x5_reduce
I0403 17:03:05.226416 20090 net.cpp:91] Creating Layer inception_3b/relu_5x5_reduce
I0403 17:03:05.226431 20090 net.cpp:425] inception_3b/relu_5x5_reduce <- inception_3b/5x5_reduce
I0403 17:03:05.226450 20090 net.cpp:386] inception_3b/relu_5x5_reduce -> inception_3b/5x5_reduce (in-place)
I0403 17:03:05.226651 20090 net.cpp:141] Setting up inception_3b/relu_5x5_reduce
I0403 17:03:05.226676 20090 net.cpp:148] Top shape: 24 32 28 28 (602112)
I0403 17:03:05.226691 20090 net.cpp:156] Memory required for data: 729760800
I0403 17:03:05.226704 20090 layer_factory.hpp:77] Creating layer inception_3b/5x5
I0403 17:03:05.226727 20090 net.cpp:91] Creating Layer inception_3b/5x5
I0403 17:03:05.226743 20090 net.cpp:425] inception_3b/5x5 <- inception_3b/5x5_reduce
I0403 17:03:05.226764 20090 net.cpp:399] inception_3b/5x5 -> inception_3b/5x5
I0403 17:03:05.228684 20090 net.cpp:141] Setting up inception_3b/5x5
I0403 17:03:05.228714 20090 net.cpp:148] Top shape: 24 96 28 28 (1806336)
I0403 17:03:05.228730 20090 net.cpp:156] Memory required for data: 736986144
I0403 17:03:05.228747 20090 layer_factory.hpp:77] Creating layer inception_3b/relu_5x5
I0403 17:03:05.228765 20090 net.cpp:91] Creating Layer inception_3b/relu_5x5
I0403 17:03:05.228780 20090 net.cpp:425] inception_3b/relu_5x5 <- inception_3b/5x5
I0403 17:03:05.228796 20090 net.cpp:386] inception_3b/relu_5x5 -> inception_3b/5x5 (in-place)
I0403 17:03:05.228987 20090 net.cpp:141] Setting up inception_3b/relu_5x5
I0403 17:03:05.229012 20090 net.cpp:148] Top shape: 24 96 28 28 (1806336)
I0403 17:03:05.229027 20090 net.cpp:156] Memory required for data: 744211488
I0403 17:03:05.229048 20090 layer_factory.hpp:77] Creating layer inception_3b/pool
I0403 17:03:05.229065 20090 net.cpp:91] Creating Layer inception_3b/pool
I0403 17:03:05.229080 20090 net.cpp:425] inception_3b/pool <- inception_3a/output_inception_3a/output_0_split_3
I0403 17:03:05.229097 20090 net.cpp:399] inception_3b/pool -> inception_3b/pool
I0403 17:03:05.229151 20090 net.cpp:141] Setting up inception_3b/pool
I0403 17:03:05.229177 20090 net.cpp:148] Top shape: 24 256 28 28 (4816896)
I0403 17:03:05.229192 20090 net.cpp:156] Memory required for data: 763479072
I0403 17:03:05.229207 20090 layer_factory.hpp:77] Creating layer inception_3b/pool_proj
I0403 17:03:05.229228 20090 net.cpp:91] Creating Layer inception_3b/pool_proj
I0403 17:03:05.229244 20090 net.cpp:425] inception_3b/pool_proj <- inception_3b/pool
I0403 17:03:05.229264 20090 net.cpp:399] inception_3b/pool_proj -> inception_3b/pool_proj
I0403 17:03:05.230280 20090 net.cpp:141] Setting up inception_3b/pool_proj
I0403 17:03:05.230307 20090 net.cpp:148] Top shape: 24 64 28 28 (1204224)
I0403 17:03:05.230322 20090 net.cpp:156] Memory required for data: 768295968
I0403 17:03:05.230340 20090 layer_factory.hpp:77] Creating layer inception_3b/relu_pool_proj
I0403 17:03:05.230360 20090 net.cpp:91] Creating Layer inception_3b/relu_pool_proj
I0403 17:03:05.230376 20090 net.cpp:425] inception_3b/relu_pool_proj <- inception_3b/pool_proj
I0403 17:03:05.230393 20090 net.cpp:386] inception_3b/relu_pool_proj -> inception_3b/pool_proj (in-place)
I0403 17:03:05.230783 20090 net.cpp:141] Setting up inception_3b/relu_pool_proj
I0403 17:03:05.230808 20090 net.cpp:148] Top shape: 24 64 28 28 (1204224)
I0403 17:03:05.230823 20090 net.cpp:156] Memory required for data: 773112864
I0403 17:03:05.230837 20090 layer_factory.hpp:77] Creating layer inception_3b/output
I0403 17:03:05.230854 20090 net.cpp:91] Creating Layer inception_3b/output
I0403 17:03:05.230870 20090 net.cpp:425] inception_3b/output <- inception_3b/1x1
I0403 17:03:05.230885 20090 net.cpp:425] inception_3b/output <- inception_3b/3x3
I0403 17:03:05.230908 20090 net.cpp:425] inception_3b/output <- inception_3b/5x5
I0403 17:03:05.230923 20090 net.cpp:425] inception_3b/output <- inception_3b/pool_proj
I0403 17:03:05.230942 20090 net.cpp:399] inception_3b/output -> inception_3b/output
I0403 17:03:05.230984 20090 net.cpp:141] Setting up inception_3b/output
I0403 17:03:05.231010 20090 net.cpp:148] Top shape: 24 480 28 28 (9031680)
I0403 17:03:05.231024 20090 net.cpp:156] Memory required for data: 809239584
I0403 17:03:05.231039 20090 layer_factory.hpp:77] Creating layer pool3/3x3_s2
I0403 17:03:05.231055 20090 net.cpp:91] Creating Layer pool3/3x3_s2
I0403 17:03:05.231070 20090 net.cpp:425] pool3/3x3_s2 <- inception_3b/output
I0403 17:03:05.231104 20090 net.cpp:399] pool3/3x3_s2 -> pool3/3x3_s2
I0403 17:03:05.231163 20090 net.cpp:141] Setting up pool3/3x3_s2
I0403 17:03:05.231185 20090 net.cpp:148] Top shape: 24 480 14 14 (2257920)
I0403 17:03:05.231199 20090 net.cpp:156] Memory required for data: 818271264
I0403 17:03:05.231214 20090 layer_factory.hpp:77] Creating layer pool3/3x3_s2_pool3/3x3_s2_0_split
I0403 17:03:05.231231 20090 net.cpp:91] Creating Layer pool3/3x3_s2_pool3/3x3_s2_0_split
I0403 17:03:05.231246 20090 net.cpp:425] pool3/3x3_s2_pool3/3x3_s2_0_split <- pool3/3x3_s2
I0403 17:03:05.231262 20090 net.cpp:399] pool3/3x3_s2_pool3/3x3_s2_0_split -> pool3/3x3_s2_pool3/3x3_s2_0_split_0
I0403 17:03:05.231282 20090 net.cpp:399] pool3/3x3_s2_pool3/3x3_s2_0_split -> pool3/3x3_s2_pool3/3x3_s2_0_split_1
I0403 17:03:05.231304 20090 net.cpp:399] pool3/3x3_s2_pool3/3x3_s2_0_split -> pool3/3x3_s2_pool3/3x3_s2_0_split_2
I0403 17:03:05.231324 20090 net.cpp:399] pool3/3x3_s2_pool3/3x3_s2_0_split -> pool3/3x3_s2_pool3/3x3_s2_0_split_3
I0403 17:03:05.231397 20090 net.cpp:141] Setting up pool3/3x3_s2_pool3/3x3_s2_0_split
I0403 17:03:05.231420 20090 net.cpp:148] Top shape: 24 480 14 14 (2257920)
I0403 17:03:05.231436 20090 net.cpp:148] Top shape: 24 480 14 14 (2257920)
I0403 17:03:05.231451 20090 net.cpp:148] Top shape: 24 480 14 14 (2257920)
I0403 17:03:05.231467 20090 net.cpp:148] Top shape: 24 480 14 14 (2257920)
I0403 17:03:05.231479 20090 net.cpp:156] Memory required for data: 854397984
I0403 17:03:05.231493 20090 layer_factory.hpp:77] Creating layer inception_4a/1x1
I0403 17:03:05.231514 20090 net.cpp:91] Creating Layer inception_4a/1x1
I0403 17:03:05.231530 20090 net.cpp:425] inception_4a/1x1 <- pool3/3x3_s2_pool3/3x3_s2_0_split_0
I0403 17:03:05.231552 20090 net.cpp:399] inception_4a/1x1 -> inception_4a/1x1
I0403 17:03:05.233068 20090 net.cpp:141] Setting up inception_4a/1x1
I0403 17:03:05.233096 20090 net.cpp:148] Top shape: 24 192 14 14 (903168)
I0403 17:03:05.233114 20090 net.cpp:156] Memory required for data: 858010656
I0403 17:03:05.233131 20090 layer_factory.hpp:77] Creating layer inception_4a/relu_1x1
I0403 17:03:05.233151 20090 net.cpp:91] Creating Layer inception_4a/relu_1x1
I0403 17:03:05.233170 20090 net.cpp:425] inception_4a/relu_1x1 <- inception_4a/1x1
I0403 17:03:05.233186 20090 net.cpp:386] inception_4a/relu_1x1 -> inception_4a/1x1 (in-place)
I0403 17:03:05.233358 20090 net.cpp:141] Setting up inception_4a/relu_1x1
I0403 17:03:05.233386 20090 net.cpp:148] Top shape: 24 192 14 14 (903168)
I0403 17:03:05.233402 20090 net.cpp:156] Memory required for data: 861623328
I0403 17:03:05.233417 20090 layer_factory.hpp:77] Creating layer inception_4a/3x3_reduce
I0403 17:03:05.233439 20090 net.cpp:91] Creating Layer inception_4a/3x3_reduce
I0403 17:03:05.233458 20090 net.cpp:425] inception_4a/3x3_reduce <- pool3/3x3_s2_pool3/3x3_s2_0_split_1
I0403 17:03:05.233477 20090 net.cpp:399] inception_4a/3x3_reduce -> inception_4a/3x3_reduce
I0403 17:03:05.234715 20090 net.cpp:141] Setting up inception_4a/3x3_reduce
I0403 17:03:05.234743 20090 net.cpp:148] Top shape: 24 96 14 14 (451584)
I0403 17:03:05.234758 20090 net.cpp:156] Memory required for data: 863429664
I0403 17:03:05.234783 20090 layer_factory.hpp:77] Creating layer inception_4a/relu_3x3_reduce
I0403 17:03:05.234805 20090 net.cpp:91] Creating Layer inception_4a/relu_3x3_reduce
I0403 17:03:05.234823 20090 net.cpp:425] inception_4a/relu_3x3_reduce <- inception_4a/3x3_reduce
I0403 17:03:05.234843 20090 net.cpp:386] inception_4a/relu_3x3_reduce -> inception_4a/3x3_reduce (in-place)
I0403 17:03:05.235013 20090 net.cpp:141] Setting up inception_4a/relu_3x3_reduce
I0403 17:03:05.235038 20090 net.cpp:148] Top shape: 24 96 14 14 (451584)
I0403 17:03:05.235054 20090 net.cpp:156] Memory required for data: 865236000
I0403 17:03:05.235069 20090 layer_factory.hpp:77] Creating layer inception_4a/3x3
I0403 17:03:05.235092 20090 net.cpp:91] Creating Layer inception_4a/3x3
I0403 17:03:05.235110 20090 net.cpp:425] inception_4a/3x3 <- inception_4a/3x3_reduce
I0403 17:03:05.235127 20090 net.cpp:399] inception_4a/3x3 -> inception_4a/3x3
I0403 17:03:05.237732 20090 net.cpp:141] Setting up inception_4a/3x3
I0403 17:03:05.237764 20090 net.cpp:148] Top shape: 24 208 14 14 (978432)
I0403 17:03:05.237782 20090 net.cpp:156] Memory required for data: 869149728
I0403 17:03:05.237799 20090 layer_factory.hpp:77] Creating layer inception_4a/relu_3x3
I0403 17:03:05.237818 20090 net.cpp:91] Creating Layer inception_4a/relu_3x3
I0403 17:03:05.237833 20090 net.cpp:425] inception_4a/relu_3x3 <- inception_4a/3x3
I0403 17:03:05.237851 20090 net.cpp:386] inception_4a/relu_3x3 -> inception_4a/3x3 (in-place)
I0403 17:03:05.238122 20090 net.cpp:141] Setting up inception_4a/relu_3x3
I0403 17:03:05.238152 20090 net.cpp:148] Top shape: 24 208 14 14 (978432)
I0403 17:03:05.238168 20090 net.cpp:156] Memory required for data: 873063456
I0403 17:03:05.238183 20090 layer_factory.hpp:77] Creating layer inception_4a/5x5_reduce
I0403 17:03:05.238205 20090 net.cpp:91] Creating Layer inception_4a/5x5_reduce
I0403 17:03:05.238224 20090 net.cpp:425] inception_4a/5x5_reduce <- pool3/3x3_s2_pool3/3x3_s2_0_split_2
I0403 17:03:05.238245 20090 net.cpp:399] inception_4a/5x5_reduce -> inception_4a/5x5_reduce
I0403 17:03:05.239224 20090 net.cpp:141] Setting up inception_4a/5x5_reduce
I0403 17:03:05.239254 20090 net.cpp:148] Top shape: 24 16 14 14 (75264)
I0403 17:03:05.239270 20090 net.cpp:156] Memory required for data: 873364512
I0403 17:03:05.239289 20090 layer_factory.hpp:77] Creating layer inception_4a/relu_5x5_reduce
I0403 17:03:05.239307 20090 net.cpp:91] Creating Layer inception_4a/relu_5x5_reduce
I0403 17:03:05.239325 20090 net.cpp:425] inception_4a/relu_5x5_reduce <- inception_4a/5x5_reduce
I0403 17:03:05.239344 20090 net.cpp:386] inception_4a/relu_5x5_reduce -> inception_4a/5x5_reduce (in-place)
I0403 17:03:05.239517 20090 net.cpp:141] Setting up inception_4a/relu_5x5_reduce
I0403 17:03:05.239544 20090 net.cpp:148] Top shape: 24 16 14 14 (75264)
I0403 17:03:05.239560 20090 net.cpp:156] Memory required for data: 873665568
I0403 17:03:05.239576 20090 layer_factory.hpp:77] Creating layer inception_4a/5x5
I0403 17:03:05.239598 20090 net.cpp:91] Creating Layer inception_4a/5x5
I0403 17:03:05.239621 20090 net.cpp:425] inception_4a/5x5 <- inception_4a/5x5_reduce
I0403 17:03:05.239647 20090 net.cpp:399] inception_4a/5x5 -> inception_4a/5x5
I0403 17:03:05.240699 20090 net.cpp:141] Setting up inception_4a/5x5
I0403 17:03:05.240726 20090 net.cpp:148] Top shape: 24 48 14 14 (225792)
I0403 17:03:05.240743 20090 net.cpp:156] Memory required for data: 874568736
I0403 17:03:05.240761 20090 layer_factory.hpp:77] Creating layer inception_4a/relu_5x5
I0403 17:03:05.240782 20090 net.cpp:91] Creating Layer inception_4a/relu_5x5
I0403 17:03:05.240798 20090 net.cpp:425] inception_4a/relu_5x5 <- inception_4a/5x5
I0403 17:03:05.240815 20090 net.cpp:386] inception_4a/relu_5x5 -> inception_4a/5x5 (in-place)
I0403 17:03:05.240988 20090 net.cpp:141] Setting up inception_4a/relu_5x5
I0403 17:03:05.241015 20090 net.cpp:148] Top shape: 24 48 14 14 (225792)
I0403 17:03:05.241034 20090 net.cpp:156] Memory required for data: 875471904
I0403 17:03:05.241050 20090 layer_factory.hpp:77] Creating layer inception_4a/pool
I0403 17:03:05.241067 20090 net.cpp:91] Creating Layer inception_4a/pool
I0403 17:03:05.241085 20090 net.cpp:425] inception_4a/pool <- pool3/3x3_s2_pool3/3x3_s2_0_split_3
I0403 17:03:05.241102 20090 net.cpp:399] inception_4a/pool -> inception_4a/pool
I0403 17:03:05.241163 20090 net.cpp:141] Setting up inception_4a/pool
I0403 17:03:05.241189 20090 net.cpp:148] Top shape: 24 480 14 14 (2257920)
I0403 17:03:05.241204 20090 net.cpp:156] Memory required for data: 884503584
I0403 17:03:05.241217 20090 layer_factory.hpp:77] Creating layer inception_4a/pool_proj
I0403 17:03:05.241240 20090 net.cpp:91] Creating Layer inception_4a/pool_proj
I0403 17:03:05.241258 20090 net.cpp:425] inception_4a/pool_proj <- inception_4a/pool
I0403 17:03:05.241279 20090 net.cpp:399] inception_4a/pool_proj -> inception_4a/pool_proj
I0403 17:03:05.242420 20090 net.cpp:141] Setting up inception_4a/pool_proj
I0403 17:03:05.242449 20090 net.cpp:148] Top shape: 24 64 14 14 (301056)
I0403 17:03:05.242492 20090 net.cpp:156] Memory required for data: 885707808
I0403 17:03:05.242511 20090 layer_factory.hpp:77] Creating layer inception_4a/relu_pool_proj
I0403 17:03:05.242533 20090 net.cpp:91] Creating Layer inception_4a/relu_pool_proj
I0403 17:03:05.242553 20090 net.cpp:425] inception_4a/relu_pool_proj <- inception_4a/pool_proj
I0403 17:03:05.242570 20090 net.cpp:386] inception_4a/relu_pool_proj -> inception_4a/pool_proj (in-place)
I0403 17:03:05.242852 20090 net.cpp:141] Setting up inception_4a/relu_pool_proj
I0403 17:03:05.242878 20090 net.cpp:148] Top shape: 24 64 14 14 (301056)
I0403 17:03:05.242894 20090 net.cpp:156] Memory required for data: 886912032
I0403 17:03:05.242909 20090 layer_factory.hpp:77] Creating layer inception_4a/output
I0403 17:03:05.242929 20090 net.cpp:91] Creating Layer inception_4a/output
I0403 17:03:05.242945 20090 net.cpp:425] inception_4a/output <- inception_4a/1x1
I0403 17:03:05.242962 20090 net.cpp:425] inception_4a/output <- inception_4a/3x3
I0403 17:03:05.242979 20090 net.cpp:425] inception_4a/output <- inception_4a/5x5
I0403 17:03:05.242995 20090 net.cpp:425] inception_4a/output <- inception_4a/pool_proj
I0403 17:03:05.243012 20090 net.cpp:399] inception_4a/output -> inception_4a/output
I0403 17:03:05.243058 20090 net.cpp:141] Setting up inception_4a/output
I0403 17:03:05.243083 20090 net.cpp:148] Top shape: 24 512 14 14 (2408448)
I0403 17:03:05.243098 20090 net.cpp:156] Memory required for data: 896545824
I0403 17:03:05.243113 20090 layer_factory.hpp:77] Creating layer inception_4a/output_inception_4a/output_0_split
I0403 17:03:05.243130 20090 net.cpp:91] Creating Layer inception_4a/output_inception_4a/output_0_split
I0403 17:03:05.243146 20090 net.cpp:425] inception_4a/output_inception_4a/output_0_split <- inception_4a/output
I0403 17:03:05.243170 20090 net.cpp:399] inception_4a/output_inception_4a/output_0_split -> inception_4a/output_inception_4a/output_0_split_0
I0403 17:03:05.243193 20090 net.cpp:399] inception_4a/output_inception_4a/output_0_split -> inception_4a/output_inception_4a/output_0_split_1
I0403 17:03:05.243216 20090 net.cpp:399] inception_4a/output_inception_4a/output_0_split -> inception_4a/output_inception_4a/output_0_split_2
I0403 17:03:05.243237 20090 net.cpp:399] inception_4a/output_inception_4a/output_0_split -> inception_4a/output_inception_4a/output_0_split_3
I0403 17:03:05.243257 20090 net.cpp:399] inception_4a/output_inception_4a/output_0_split -> inception_4a/output_inception_4a/output_0_split_4
I0403 17:03:05.243347 20090 net.cpp:141] Setting up inception_4a/output_inception_4a/output_0_split
I0403 17:03:05.243372 20090 net.cpp:148] Top shape: 24 512 14 14 (2408448)
I0403 17:03:05.243389 20090 net.cpp:148] Top shape: 24 512 14 14 (2408448)
I0403 17:03:05.243405 20090 net.cpp:148] Top shape: 24 512 14 14 (2408448)
I0403 17:03:05.243420 20090 net.cpp:148] Top shape: 24 512 14 14 (2408448)
I0403 17:03:05.243435 20090 net.cpp:148] Top shape: 24 512 14 14 (2408448)
I0403 17:03:05.243448 20090 net.cpp:156] Memory required for data: 944714784
I0403 17:03:05.243463 20090 layer_factory.hpp:77] Creating layer loss1/ave_pool
I0403 17:03:05.243479 20090 net.cpp:91] Creating Layer loss1/ave_pool
I0403 17:03:05.243494 20090 net.cpp:425] loss1/ave_pool <- inception_4a/output_inception_4a/output_0_split_0
I0403 17:03:05.243513 20090 net.cpp:399] loss1/ave_pool -> loss1/ave_pool
I0403 17:03:05.243733 20090 net.cpp:141] Setting up loss1/ave_pool
I0403 17:03:05.243758 20090 net.cpp:148] Top shape: 24 512 4 4 (196608)
I0403 17:03:05.243773 20090 net.cpp:156] Memory required for data: 945501216
I0403 17:03:05.243788 20090 layer_factory.hpp:77] Creating layer loss1/conv
I0403 17:03:05.243809 20090 net.cpp:91] Creating Layer loss1/conv
I0403 17:03:05.243826 20090 net.cpp:425] loss1/conv <- loss1/ave_pool
I0403 17:03:05.243846 20090 net.cpp:399] loss1/conv -> loss1/conv
I0403 17:03:05.245208 20090 net.cpp:141] Setting up loss1/conv
I0403 17:03:05.245239 20090 net.cpp:148] Top shape: 24 128 4 4 (49152)
I0403 17:03:05.245270 20090 net.cpp:156] Memory required for data: 945697824
I0403 17:03:05.245290 20090 layer_factory.hpp:77] Creating layer loss1/relu_conv
I0403 17:03:05.245308 20090 net.cpp:91] Creating Layer loss1/relu_conv
I0403 17:03:05.245323 20090 net.cpp:425] loss1/relu_conv <- loss1/conv
I0403 17:03:05.245340 20090 net.cpp:386] loss1/relu_conv -> loss1/conv (in-place)
I0403 17:03:05.245617 20090 net.cpp:141] Setting up loss1/relu_conv
I0403 17:03:05.245646 20090 net.cpp:148] Top shape: 24 128 4 4 (49152)
I0403 17:03:05.245662 20090 net.cpp:156] Memory required for data: 945894432
I0403 17:03:05.245678 20090 layer_factory.hpp:77] Creating layer loss1/fc
I0403 17:03:05.245702 20090 net.cpp:91] Creating Layer loss1/fc
I0403 17:03:05.245721 20090 net.cpp:425] loss1/fc <- loss1/conv
I0403 17:03:05.245743 20090 net.cpp:399] loss1/fc -> loss1/fc
I0403 17:03:05.263311 20090 net.cpp:141] Setting up loss1/fc
I0403 17:03:05.263393 20090 net.cpp:148] Top shape: 24 1024 (24576)
I0403 17:03:05.263409 20090 net.cpp:156] Memory required for data: 945992736
I0403 17:03:05.263429 20090 layer_factory.hpp:77] Creating layer loss1/relu_fc
I0403 17:03:05.263452 20090 net.cpp:91] Creating Layer loss1/relu_fc
I0403 17:03:05.263468 20090 net.cpp:425] loss1/relu_fc <- loss1/fc
I0403 17:03:05.263486 20090 net.cpp:386] loss1/relu_fc -> loss1/fc (in-place)
I0403 17:03:05.263730 20090 net.cpp:141] Setting up loss1/relu_fc
I0403 17:03:05.263756 20090 net.cpp:148] Top shape: 24 1024 (24576)
I0403 17:03:05.263772 20090 net.cpp:156] Memory required for data: 946091040
I0403 17:03:05.263787 20090 layer_factory.hpp:77] Creating layer loss1/drop_fc
I0403 17:03:05.263815 20090 net.cpp:91] Creating Layer loss1/drop_fc
I0403 17:03:05.263833 20090 net.cpp:425] loss1/drop_fc <- loss1/fc
I0403 17:03:05.263849 20090 net.cpp:386] loss1/drop_fc -> loss1/fc (in-place)
I0403 17:03:05.263908 20090 net.cpp:141] Setting up loss1/drop_fc
I0403 17:03:05.263931 20090 net.cpp:148] Top shape: 24 1024 (24576)
I0403 17:03:05.263947 20090 net.cpp:156] Memory required for data: 946189344
I0403 17:03:05.263960 20090 layer_factory.hpp:77] Creating layer loss1/classifier_plantvillage
I0403 17:03:05.263983 20090 net.cpp:91] Creating Layer loss1/classifier_plantvillage
I0403 17:03:05.264000 20090 net.cpp:425] loss1/classifier_plantvillage <- loss1/fc
I0403 17:03:05.264017 20090 net.cpp:399] loss1/classifier_plantvillage -> loss1/classifier_plantvillage
I0403 17:03:05.265033 20090 net.cpp:141] Setting up loss1/classifier_plantvillage
I0403 17:03:05.265063 20090 net.cpp:148] Top shape: 24 38 (912)
I0403 17:03:05.265079 20090 net.cpp:156] Memory required for data: 946192992
I0403 17:03:05.265095 20090 layer_factory.hpp:77] Creating layer loss1/classifier_plantvillage_loss1/classifier_plantvillage_0_split
I0403 17:03:05.265113 20090 net.cpp:91] Creating Layer loss1/classifier_plantvillage_loss1/classifier_plantvillage_0_split
I0403 17:03:05.265128 20090 net.cpp:425] loss1/classifier_plantvillage_loss1/classifier_plantvillage_0_split <- loss1/classifier_plantvillage
I0403 17:03:05.265146 20090 net.cpp:399] loss1/classifier_plantvillage_loss1/classifier_plantvillage_0_split -> loss1/classifier_plantvillage_loss1/classifier_plantvillage_0_split_0
I0403 17:03:05.265166 20090 net.cpp:399] loss1/classifier_plantvillage_loss1/classifier_plantvillage_0_split -> loss1/classifier_plantvillage_loss1/classifier_plantvillage_0_split_1
I0403 17:03:05.265185 20090 net.cpp:399] loss1/classifier_plantvillage_loss1/classifier_plantvillage_0_split -> loss1/classifier_plantvillage_loss1/classifier_plantvillage_0_split_2
I0403 17:03:05.265249 20090 net.cpp:141] Setting up loss1/classifier_plantvillage_loss1/classifier_plantvillage_0_split
I0403 17:03:05.265272 20090 net.cpp:148] Top shape: 24 38 (912)
I0403 17:03:05.265287 20090 net.cpp:148] Top shape: 24 38 (912)
I0403 17:03:05.265301 20090 net.cpp:148] Top shape: 24 38 (912)
I0403 17:03:05.265316 20090 net.cpp:156] Memory required for data: 946203936
I0403 17:03:05.265328 20090 layer_factory.hpp:77] Creating layer inception_4b/1x1
I0403 17:03:05.265350 20090 net.cpp:91] Creating Layer inception_4b/1x1
I0403 17:03:05.265399 20090 net.cpp:425] inception_4b/1x1 <- inception_4a/output_inception_4a/output_0_split_1
I0403 17:03:05.265422 20090 net.cpp:399] inception_4b/1x1 -> inception_4b/1x1
I0403 17:03:05.267061 20090 net.cpp:141] Setting up inception_4b/1x1
I0403 17:03:05.267094 20090 net.cpp:148] Top shape: 24 160 14 14 (752640)
I0403 17:03:05.267110 20090 net.cpp:156] Memory required for data: 949214496
I0403 17:03:05.267128 20090 layer_factory.hpp:77] Creating layer inception_4b/relu_1x1
I0403 17:03:05.267145 20090 net.cpp:91] Creating Layer inception_4b/relu_1x1
I0403 17:03:05.267161 20090 net.cpp:425] inception_4b/relu_1x1 <- inception_4b/1x1
I0403 17:03:05.267179 20090 net.cpp:386] inception_4b/relu_1x1 -> inception_4b/1x1 (in-place)
I0403 17:03:05.267351 20090 net.cpp:141] Setting up inception_4b/relu_1x1
I0403 17:03:05.267376 20090 net.cpp:148] Top shape: 24 160 14 14 (752640)
I0403 17:03:05.267390 20090 net.cpp:156] Memory required for data: 952225056
I0403 17:03:05.267405 20090 layer_factory.hpp:77] Creating layer inception_4b/3x3_reduce
I0403 17:03:05.267426 20090 net.cpp:91] Creating Layer inception_4b/3x3_reduce
I0403 17:03:05.267443 20090 net.cpp:425] inception_4b/3x3_reduce <- inception_4a/output_inception_4a/output_0_split_2
I0403 17:03:05.267463 20090 net.cpp:399] inception_4b/3x3_reduce -> inception_4b/3x3_reduce
I0403 17:03:05.268774 20090 net.cpp:141] Setting up inception_4b/3x3_reduce
I0403 17:03:05.268801 20090 net.cpp:148] Top shape: 24 112 14 14 (526848)
I0403 17:03:05.268816 20090 net.cpp:156] Memory required for data: 954332448
I0403 17:03:05.268834 20090 layer_factory.hpp:77] Creating layer inception_4b/relu_3x3_reduce
I0403 17:03:05.268854 20090 net.cpp:91] Creating Layer inception_4b/relu_3x3_reduce
I0403 17:03:05.268870 20090 net.cpp:425] inception_4b/relu_3x3_reduce <- inception_4b/3x3_reduce
I0403 17:03:05.268887 20090 net.cpp:386] inception_4b/relu_3x3_reduce -> inception_4b/3x3_reduce (in-place)
I0403 17:03:05.269160 20090 net.cpp:141] Setting up inception_4b/relu_3x3_reduce
I0403 17:03:05.269184 20090 net.cpp:148] Top shape: 24 112 14 14 (526848)
I0403 17:03:05.269199 20090 net.cpp:156] Memory required for data: 956439840
I0403 17:03:05.269213 20090 layer_factory.hpp:77] Creating layer inception_4b/3x3
I0403 17:03:05.269235 20090 net.cpp:91] Creating Layer inception_4b/3x3
I0403 17:03:05.269253 20090 net.cpp:425] inception_4b/3x3 <- inception_4b/3x3_reduce
I0403 17:03:05.269275 20090 net.cpp:399] inception_4b/3x3 -> inception_4b/3x3
I0403 17:03:05.272177 20090 net.cpp:141] Setting up inception_4b/3x3
I0403 17:03:05.272205 20090 net.cpp:148] Top shape: 24 224 14 14 (1053696)
I0403 17:03:05.272220 20090 net.cpp:156] Memory required for data: 960654624
I0403 17:03:05.272238 20090 layer_factory.hpp:77] Creating layer inception_4b/relu_3x3
I0403 17:03:05.272258 20090 net.cpp:91] Creating Layer inception_4b/relu_3x3
I0403 17:03:05.272274 20090 net.cpp:425] inception_4b/relu_3x3 <- inception_4b/3x3
I0403 17:03:05.272291 20090 net.cpp:386] inception_4b/relu_3x3 -> inception_4b/3x3 (in-place)
I0403 17:03:05.272464 20090 net.cpp:141] Setting up inception_4b/relu_3x3
I0403 17:03:05.272498 20090 net.cpp:148] Top shape: 24 224 14 14 (1053696)
I0403 17:03:05.272513 20090 net.cpp:156] Memory required for data: 964869408
I0403 17:03:05.272528 20090 layer_factory.hpp:77] Creating layer inception_4b/5x5_reduce
I0403 17:03:05.272550 20090 net.cpp:91] Creating Layer inception_4b/5x5_reduce
I0403 17:03:05.272567 20090 net.cpp:425] inception_4b/5x5_reduce <- inception_4a/output_inception_4a/output_0_split_3
I0403 17:03:05.272586 20090 net.cpp:399] inception_4b/5x5_reduce -> inception_4b/5x5_reduce
I0403 17:03:05.273634 20090 net.cpp:141] Setting up inception_4b/5x5_reduce
I0403 17:03:05.273663 20090 net.cpp:148] Top shape: 24 24 14 14 (112896)
I0403 17:03:05.273679 20090 net.cpp:156] Memory required for data: 965320992
I0403 17:03:05.273696 20090 layer_factory.hpp:77] Creating layer inception_4b/relu_5x5_reduce
I0403 17:03:05.273713 20090 net.cpp:91] Creating Layer inception_4b/relu_5x5_reduce
I0403 17:03:05.273744 20090 net.cpp:425] inception_4b/relu_5x5_reduce <- inception_4b/5x5_reduce
I0403 17:03:05.273764 20090 net.cpp:386] inception_4b/relu_5x5_reduce -> inception_4b/5x5_reduce (in-place)
I0403 17:03:05.273939 20090 net.cpp:141] Setting up inception_4b/relu_5x5_reduce
I0403 17:03:05.273963 20090 net.cpp:148] Top shape: 24 24 14 14 (112896)
I0403 17:03:05.273977 20090 net.cpp:156] Memory required for data: 965772576
I0403 17:03:05.273991 20090 layer_factory.hpp:77] Creating layer inception_4b/5x5
I0403 17:03:05.274013 20090 net.cpp:91] Creating Layer inception_4b/5x5
I0403 17:03:05.274030 20090 net.cpp:425] inception_4b/5x5 <- inception_4b/5x5_reduce
I0403 17:03:05.274054 20090 net.cpp:399] inception_4b/5x5 -> inception_4b/5x5
I0403 17:03:05.275249 20090 net.cpp:141] Setting up inception_4b/5x5
I0403 17:03:05.275279 20090 net.cpp:148] Top shape: 24 64 14 14 (301056)
I0403 17:03:05.275295 20090 net.cpp:156] Memory required for data: 966976800
I0403 17:03:05.275311 20090 layer_factory.hpp:77] Creating layer inception_4b/relu_5x5
I0403 17:03:05.275329 20090 net.cpp:91] Creating Layer inception_4b/relu_5x5
I0403 17:03:05.275346 20090 net.cpp:425] inception_4b/relu_5x5 <- inception_4b/5x5
I0403 17:03:05.275365 20090 net.cpp:386] inception_4b/relu_5x5 -> inception_4b/5x5 (in-place)
I0403 17:03:05.275645 20090 net.cpp:141] Setting up inception_4b/relu_5x5
I0403 17:03:05.275673 20090 net.cpp:148] Top shape: 24 64 14 14 (301056)
I0403 17:03:05.275688 20090 net.cpp:156] Memory required for data: 968181024
I0403 17:03:05.275702 20090 layer_factory.hpp:77] Creating layer inception_4b/pool
I0403 17:03:05.275720 20090 net.cpp:91] Creating Layer inception_4b/pool
I0403 17:03:05.275737 20090 net.cpp:425] inception_4b/pool <- inception_4a/output_inception_4a/output_0_split_4
I0403 17:03:05.275758 20090 net.cpp:399] inception_4b/pool -> inception_4b/pool
I0403 17:03:05.275821 20090 net.cpp:141] Setting up inception_4b/pool
I0403 17:03:05.275845 20090 net.cpp:148] Top shape: 24 512 14 14 (2408448)
I0403 17:03:05.275858 20090 net.cpp:156] Memory required for data: 977814816
I0403 17:03:05.275872 20090 layer_factory.hpp:77] Creating layer inception_4b/pool_proj
I0403 17:03:05.275895 20090 net.cpp:91] Creating Layer inception_4b/pool_proj
I0403 17:03:05.275913 20090 net.cpp:425] inception_4b/pool_proj <- inception_4b/pool
I0403 17:03:05.275930 20090 net.cpp:399] inception_4b/pool_proj -> inception_4b/pool_proj
I0403 17:03:05.277088 20090 net.cpp:141] Setting up inception_4b/pool_proj
I0403 17:03:05.277115 20090 net.cpp:148] Top shape: 24 64 14 14 (301056)
I0403 17:03:05.277129 20090 net.cpp:156] Memory required for data: 979019040
I0403 17:03:05.277148 20090 layer_factory.hpp:77] Creating layer inception_4b/relu_pool_proj
I0403 17:03:05.277165 20090 net.cpp:91] Creating Layer inception_4b/relu_pool_proj
I0403 17:03:05.277180 20090 net.cpp:425] inception_4b/relu_pool_proj <- inception_4b/pool_proj
I0403 17:03:05.277199 20090 net.cpp:386] inception_4b/relu_pool_proj -> inception_4b/pool_proj (in-place)
I0403 17:03:05.277374 20090 net.cpp:141] Setting up inception_4b/relu_pool_proj
I0403 17:03:05.277400 20090 net.cpp:148] Top shape: 24 64 14 14 (301056)
I0403 17:03:05.277413 20090 net.cpp:156] Memory required for data: 980223264
I0403 17:03:05.277427 20090 layer_factory.hpp:77] Creating layer inception_4b/output
I0403 17:03:05.277446 20090 net.cpp:91] Creating Layer inception_4b/output
I0403 17:03:05.277462 20090 net.cpp:425] inception_4b/output <- inception_4b/1x1
I0403 17:03:05.277477 20090 net.cpp:425] inception_4b/output <- inception_4b/3x3
I0403 17:03:05.277493 20090 net.cpp:425] inception_4b/output <- inception_4b/5x5
I0403 17:03:05.277508 20090 net.cpp:425] inception_4b/output <- inception_4b/pool_proj
I0403 17:03:05.277525 20090 net.cpp:399] inception_4b/output -> inception_4b/output
I0403 17:03:05.277570 20090 net.cpp:141] Setting up inception_4b/output
I0403 17:03:05.277595 20090 net.cpp:148] Top shape: 24 512 14 14 (2408448)
I0403 17:03:05.277616 20090 net.cpp:156] Memory required for data: 989857056
I0403 17:03:05.277643 20090 layer_factory.hpp:77] Creating layer inception_4b/output_inception_4b/output_0_split
I0403 17:03:05.277662 20090 net.cpp:91] Creating Layer inception_4b/output_inception_4b/output_0_split
I0403 17:03:05.277676 20090 net.cpp:425] inception_4b/output_inception_4b/output_0_split <- inception_4b/output
I0403 17:03:05.277698 20090 net.cpp:399] inception_4b/output_inception_4b/output_0_split -> inception_4b/output_inception_4b/output_0_split_0
I0403 17:03:05.277719 20090 net.cpp:399] inception_4b/output_inception_4b/output_0_split -> inception_4b/output_inception_4b/output_0_split_1
I0403 17:03:05.277739 20090 net.cpp:399] inception_4b/output_inception_4b/output_0_split -> inception_4b/output_inception_4b/output_0_split_2
I0403 17:03:05.277758 20090 net.cpp:399] inception_4b/output_inception_4b/output_0_split -> inception_4b/output_inception_4b/output_0_split_3
I0403 17:03:05.277837 20090 net.cpp:141] Setting up inception_4b/output_inception_4b/output_0_split
I0403 17:03:05.277863 20090 net.cpp:148] Top shape: 24 512 14 14 (2408448)
I0403 17:03:05.277878 20090 net.cpp:148] Top shape: 24 512 14 14 (2408448)
I0403 17:03:05.277894 20090 net.cpp:148] Top shape: 24 512 14 14 (2408448)
I0403 17:03:05.277909 20090 net.cpp:148] Top shape: 24 512 14 14 (2408448)
I0403 17:03:05.277921 20090 net.cpp:156] Memory required for data: 1028392224
I0403 17:03:05.277935 20090 layer_factory.hpp:77] Creating layer inception_4c/1x1
I0403 17:03:05.277956 20090 net.cpp:91] Creating Layer inception_4c/1x1
I0403 17:03:05.277974 20090 net.cpp:425] inception_4c/1x1 <- inception_4b/output_inception_4b/output_0_split_0
I0403 17:03:05.277993 20090 net.cpp:399] inception_4c/1x1 -> inception_4c/1x1
I0403 17:03:05.279377 20090 net.cpp:141] Setting up inception_4c/1x1
I0403 17:03:05.279404 20090 net.cpp:148] Top shape: 24 128 14 14 (602112)
I0403 17:03:05.279419 20090 net.cpp:156] Memory required for data: 1030800672
I0403 17:03:05.279436 20090 layer_factory.hpp:77] Creating layer inception_4c/relu_1x1
I0403 17:03:05.279456 20090 net.cpp:91] Creating Layer inception_4c/relu_1x1
I0403 17:03:05.279472 20090 net.cpp:425] inception_4c/relu_1x1 <- inception_4c/1x1
I0403 17:03:05.279489 20090 net.cpp:386] inception_4c/relu_1x1 -> inception_4c/1x1 (in-place)
I0403 17:03:05.279667 20090 net.cpp:141] Setting up inception_4c/relu_1x1
I0403 17:03:05.279695 20090 net.cpp:148] Top shape: 24 128 14 14 (602112)
I0403 17:03:05.279711 20090 net.cpp:156] Memory required for data: 1033209120
I0403 17:03:05.279724 20090 layer_factory.hpp:77] Creating layer inception_4c/3x3_reduce
I0403 17:03:05.279745 20090 net.cpp:91] Creating Layer inception_4c/3x3_reduce
I0403 17:03:05.279762 20090 net.cpp:425] inception_4c/3x3_reduce <- inception_4b/output_inception_4b/output_0_split_1
I0403 17:03:05.279781 20090 net.cpp:399] inception_4c/3x3_reduce -> inception_4c/3x3_reduce
I0403 17:03:05.281666 20090 net.cpp:141] Setting up inception_4c/3x3_reduce
I0403 17:03:05.281695 20090 net.cpp:148] Top shape: 24 128 14 14 (602112)
I0403 17:03:05.281711 20090 net.cpp:156] Memory required for data: 1035617568
I0403 17:03:05.281729 20090 layer_factory.hpp:77] Creating layer inception_4c/relu_3x3_reduce
I0403 17:03:05.281746 20090 net.cpp:91] Creating Layer inception_4c/relu_3x3_reduce
I0403 17:03:05.281762 20090 net.cpp:425] inception_4c/relu_3x3_reduce <- inception_4c/3x3_reduce
I0403 17:03:05.281780 20090 net.cpp:386] inception_4c/relu_3x3_reduce -> inception_4c/3x3_reduce (in-place)
I0403 17:03:05.282054 20090 net.cpp:141] Setting up inception_4c/relu_3x3_reduce
I0403 17:03:05.282083 20090 net.cpp:148] Top shape: 24 128 14 14 (602112)
I0403 17:03:05.282097 20090 net.cpp:156] Memory required for data: 1038026016
I0403 17:03:05.282111 20090 layer_factory.hpp:77] Creating layer inception_4c/3x3
I0403 17:03:05.282135 20090 net.cpp:91] Creating Layer inception_4c/3x3
I0403 17:03:05.282152 20090 net.cpp:425] inception_4c/3x3 <- inception_4c/3x3_reduce
I0403 17:03:05.282171 20090 net.cpp:399] inception_4c/3x3 -> inception_4c/3x3
I0403 17:03:05.285668 20090 net.cpp:141] Setting up inception_4c/3x3
I0403 17:03:05.285707 20090 net.cpp:148] Top shape: 24 256 14 14 (1204224)
I0403 17:03:05.285723 20090 net.cpp:156] Memory required for data: 1042842912
I0403 17:03:05.285758 20090 layer_factory.hpp:77] Creating layer inception_4c/relu_3x3
I0403 17:03:05.285778 20090 net.cpp:91] Creating Layer inception_4c/relu_3x3
I0403 17:03:05.285792 20090 net.cpp:425] inception_4c/relu_3x3 <- inception_4c/3x3
I0403 17:03:05.285811 20090 net.cpp:386] inception_4c/relu_3x3 -> inception_4c/3x3 (in-place)
I0403 17:03:05.285987 20090 net.cpp:141] Setting up inception_4c/relu_3x3
I0403 17:03:05.286012 20090 net.cpp:148] Top shape: 24 256 14 14 (1204224)
I0403 17:03:05.286027 20090 net.cpp:156] Memory required for data: 1047659808
I0403 17:03:05.286041 20090 layer_factory.hpp:77] Creating layer inception_4c/5x5_reduce
I0403 17:03:05.286063 20090 net.cpp:91] Creating Layer inception_4c/5x5_reduce
I0403 17:03:05.286082 20090 net.cpp:425] inception_4c/5x5_reduce <- inception_4b/output_inception_4b/output_0_split_2
I0403 17:03:05.286103 20090 net.cpp:399] inception_4c/5x5_reduce -> inception_4c/5x5_reduce
I0403 17:03:05.287158 20090 net.cpp:141] Setting up inception_4c/5x5_reduce
I0403 17:03:05.287189 20090 net.cpp:148] Top shape: 24 24 14 14 (112896)
I0403 17:03:05.287204 20090 net.cpp:156] Memory required for data: 1048111392
I0403 17:03:05.287221 20090 layer_factory.hpp:77] Creating layer inception_4c/relu_5x5_reduce
I0403 17:03:05.287238 20090 net.cpp:91] Creating Layer inception_4c/relu_5x5_reduce
I0403 17:03:05.287253 20090 net.cpp:425] inception_4c/relu_5x5_reduce <- inception_4c/5x5_reduce
I0403 17:03:05.287272 20090 net.cpp:386] inception_4c/relu_5x5_reduce -> inception_4c/5x5_reduce (in-place)
I0403 17:03:05.287464 20090 net.cpp:141] Setting up inception_4c/relu_5x5_reduce
I0403 17:03:05.287489 20090 net.cpp:148] Top shape: 24 24 14 14 (112896)
I0403 17:03:05.287504 20090 net.cpp:156] Memory required for data: 1048562976
I0403 17:03:05.287518 20090 layer_factory.hpp:77] Creating layer inception_4c/5x5
I0403 17:03:05.287540 20090 net.cpp:91] Creating Layer inception_4c/5x5
I0403 17:03:05.287559 20090 net.cpp:425] inception_4c/5x5 <- inception_4c/5x5_reduce
I0403 17:03:05.287580 20090 net.cpp:399] inception_4c/5x5 -> inception_4c/5x5
I0403 17:03:05.288805 20090 net.cpp:141] Setting up inception_4c/5x5
I0403 17:03:05.288831 20090 net.cpp:148] Top shape: 24 64 14 14 (301056)
I0403 17:03:05.288846 20090 net.cpp:156] Memory required for data: 1049767200
I0403 17:03:05.288863 20090 layer_factory.hpp:77] Creating layer inception_4c/relu_5x5
I0403 17:03:05.288883 20090 net.cpp:91] Creating Layer inception_4c/relu_5x5
I0403 17:03:05.288899 20090 net.cpp:425] inception_4c/relu_5x5 <- inception_4c/5x5
I0403 17:03:05.288916 20090 net.cpp:386] inception_4c/relu_5x5 -> inception_4c/5x5 (in-place)
I0403 17:03:05.289202 20090 net.cpp:141] Setting up inception_4c/relu_5x5
I0403 17:03:05.289227 20090 net.cpp:148] Top shape: 24 64 14 14 (301056)
I0403 17:03:05.289242 20090 net.cpp:156] Memory required for data: 1050971424
I0403 17:03:05.289257 20090 layer_factory.hpp:77] Creating layer inception_4c/pool
I0403 17:03:05.289275 20090 net.cpp:91] Creating Layer inception_4c/pool
I0403 17:03:05.289293 20090 net.cpp:425] inception_4c/pool <- inception_4b/output_inception_4b/output_0_split_3
I0403 17:03:05.289310 20090 net.cpp:399] inception_4c/pool -> inception_4c/pool
I0403 17:03:05.289374 20090 net.cpp:141] Setting up inception_4c/pool
I0403 17:03:05.289397 20090 net.cpp:148] Top shape: 24 512 14 14 (2408448)
I0403 17:03:05.289412 20090 net.cpp:156] Memory required for data: 1060605216
I0403 17:03:05.289427 20090 layer_factory.hpp:77] Creating layer inception_4c/pool_proj
I0403 17:03:05.289448 20090 net.cpp:91] Creating Layer inception_4c/pool_proj
I0403 17:03:05.289464 20090 net.cpp:425] inception_4c/pool_proj <- inception_4c/pool
I0403 17:03:05.289485 20090 net.cpp:399] inception_4c/pool_proj -> inception_4c/pool_proj
I0403 17:03:05.290712 20090 net.cpp:141] Setting up inception_4c/pool_proj
I0403 17:03:05.290740 20090 net.cpp:148] Top shape: 24 64 14 14 (301056)
I0403 17:03:05.290767 20090 net.cpp:156] Memory required for data: 1061809440
I0403 17:03:05.290786 20090 layer_factory.hpp:77] Creating layer inception_4c/relu_pool_proj
I0403 17:03:05.290804 20090 net.cpp:91] Creating Layer inception_4c/relu_pool_proj
I0403 17:03:05.290820 20090 net.cpp:425] inception_4c/relu_pool_proj <- inception_4c/pool_proj
I0403 17:03:05.290838 20090 net.cpp:386] inception_4c/relu_pool_proj -> inception_4c/pool_proj (in-place)
I0403 17:03:05.291015 20090 net.cpp:141] Setting up inception_4c/relu_pool_proj
I0403 17:03:05.291039 20090 net.cpp:148] Top shape: 24 64 14 14 (301056)
I0403 17:03:05.291054 20090 net.cpp:156] Memory required for data: 1063013664
I0403 17:03:05.291067 20090 layer_factory.hpp:77] Creating layer inception_4c/output
I0403 17:03:05.291085 20090 net.cpp:91] Creating Layer inception_4c/output
I0403 17:03:05.291103 20090 net.cpp:425] inception_4c/output <- inception_4c/1x1
I0403 17:03:05.291118 20090 net.cpp:425] inception_4c/output <- inception_4c/3x3
I0403 17:03:05.291134 20090 net.cpp:425] inception_4c/output <- inception_4c/5x5
I0403 17:03:05.291149 20090 net.cpp:425] inception_4c/output <- inception_4c/pool_proj
I0403 17:03:05.291167 20090 net.cpp:399] inception_4c/output -> inception_4c/output
I0403 17:03:05.291210 20090 net.cpp:141] Setting up inception_4c/output
I0403 17:03:05.291235 20090 net.cpp:148] Top shape: 24 512 14 14 (2408448)
I0403 17:03:05.291250 20090 net.cpp:156] Memory required for data: 1072647456
I0403 17:03:05.291265 20090 layer_factory.hpp:77] Creating layer inception_4c/output_inception_4c/output_0_split
I0403 17:03:05.291280 20090 net.cpp:91] Creating Layer inception_4c/output_inception_4c/output_0_split
I0403 17:03:05.291296 20090 net.cpp:425] inception_4c/output_inception_4c/output_0_split <- inception_4c/output
I0403 17:03:05.291314 20090 net.cpp:399] inception_4c/output_inception_4c/output_0_split -> inception_4c/output_inception_4c/output_0_split_0
I0403 17:03:05.291334 20090 net.cpp:399] inception_4c/output_inception_4c/output_0_split -> inception_4c/output_inception_4c/output_0_split_1
I0403 17:03:05.291354 20090 net.cpp:399] inception_4c/output_inception_4c/output_0_split -> inception_4c/output_inception_4c/output_0_split_2
I0403 17:03:05.291374 20090 net.cpp:399] inception_4c/output_inception_4c/output_0_split -> inception_4c/output_inception_4c/output_0_split_3
I0403 17:03:05.291455 20090 net.cpp:141] Setting up inception_4c/output_inception_4c/output_0_split
I0403 17:03:05.291482 20090 net.cpp:148] Top shape: 24 512 14 14 (2408448)
I0403 17:03:05.291498 20090 net.cpp:148] Top shape: 24 512 14 14 (2408448)
I0403 17:03:05.291513 20090 net.cpp:148] Top shape: 24 512 14 14 (2408448)
I0403 17:03:05.291527 20090 net.cpp:148] Top shape: 24 512 14 14 (2408448)
I0403 17:03:05.291543 20090 net.cpp:156] Memory required for data: 1111182624
I0403 17:03:05.291555 20090 layer_factory.hpp:77] Creating layer inception_4d/1x1
I0403 17:03:05.291577 20090 net.cpp:91] Creating Layer inception_4d/1x1
I0403 17:03:05.291595 20090 net.cpp:425] inception_4d/1x1 <- inception_4c/output_inception_4c/output_0_split_0
I0403 17:03:05.291618 20090 net.cpp:399] inception_4d/1x1 -> inception_4d/1x1
I0403 17:03:05.292984 20090 net.cpp:141] Setting up inception_4d/1x1
I0403 17:03:05.293015 20090 net.cpp:148] Top shape: 24 112 14 14 (526848)
I0403 17:03:05.293030 20090 net.cpp:156] Memory required for data: 1113290016
I0403 17:03:05.293048 20090 layer_factory.hpp:77] Creating layer inception_4d/relu_1x1
I0403 17:03:05.293066 20090 net.cpp:91] Creating Layer inception_4d/relu_1x1
I0403 17:03:05.293081 20090 net.cpp:425] inception_4d/relu_1x1 <- inception_4d/1x1
I0403 17:03:05.293097 20090 net.cpp:386] inception_4d/relu_1x1 -> inception_4d/1x1 (in-place)
I0403 17:03:05.293275 20090 net.cpp:141] Setting up inception_4d/relu_1x1
I0403 17:03:05.293303 20090 net.cpp:148] Top shape: 24 112 14 14 (526848)
I0403 17:03:05.293318 20090 net.cpp:156] Memory required for data: 1115397408
I0403 17:03:05.293331 20090 layer_factory.hpp:77] Creating layer inception_4d/3x3_reduce
I0403 17:03:05.293366 20090 net.cpp:91] Creating Layer inception_4d/3x3_reduce
I0403 17:03:05.293385 20090 net.cpp:425] inception_4d/3x3_reduce <- inception_4c/output_inception_4c/output_0_split_1
I0403 17:03:05.293403 20090 net.cpp:399] inception_4d/3x3_reduce -> inception_4d/3x3_reduce
I0403 17:03:05.294877 20090 net.cpp:141] Setting up inception_4d/3x3_reduce
I0403 17:03:05.294904 20090 net.cpp:148] Top shape: 24 144 14 14 (677376)
I0403 17:03:05.294919 20090 net.cpp:156] Memory required for data: 1118106912
I0403 17:03:05.294936 20090 layer_factory.hpp:77] Creating layer inception_4d/relu_3x3_reduce
I0403 17:03:05.294955 20090 net.cpp:91] Creating Layer inception_4d/relu_3x3_reduce
I0403 17:03:05.294971 20090 net.cpp:425] inception_4d/relu_3x3_reduce <- inception_4d/3x3_reduce
I0403 17:03:05.294989 20090 net.cpp:386] inception_4d/relu_3x3_reduce -> inception_4d/3x3_reduce (in-place)
I0403 17:03:05.295267 20090 net.cpp:141] Setting up inception_4d/relu_3x3_reduce
I0403 17:03:05.295292 20090 net.cpp:148] Top shape: 24 144 14 14 (677376)
I0403 17:03:05.295307 20090 net.cpp:156] Memory required for data: 1120816416
I0403 17:03:05.295321 20090 layer_factory.hpp:77] Creating layer inception_4d/3x3
I0403 17:03:05.295342 20090 net.cpp:91] Creating Layer inception_4d/3x3
I0403 17:03:05.295361 20090 net.cpp:425] inception_4d/3x3 <- inception_4d/3x3_reduce
I0403 17:03:05.295380 20090 net.cpp:399] inception_4d/3x3 -> inception_4d/3x3
I0403 17:03:05.299526 20090 net.cpp:141] Setting up inception_4d/3x3
I0403 17:03:05.299556 20090 net.cpp:148] Top shape: 24 288 14 14 (1354752)
I0403 17:03:05.299571 20090 net.cpp:156] Memory required for data: 1126235424
I0403 17:03:05.299592 20090 layer_factory.hpp:77] Creating layer inception_4d/relu_3x3
I0403 17:03:05.299625 20090 net.cpp:91] Creating Layer inception_4d/relu_3x3
I0403 17:03:05.299643 20090 net.cpp:425] inception_4d/relu_3x3 <- inception_4d/3x3
I0403 17:03:05.299660 20090 net.cpp:386] inception_4d/relu_3x3 -> inception_4d/3x3 (in-place)
I0403 17:03:05.299837 20090 net.cpp:141] Setting up inception_4d/relu_3x3
I0403 17:03:05.299862 20090 net.cpp:148] Top shape: 24 288 14 14 (1354752)
I0403 17:03:05.299876 20090 net.cpp:156] Memory required for data: 1131654432
I0403 17:03:05.299890 20090 layer_factory.hpp:77] Creating layer inception_4d/5x5_reduce
I0403 17:03:05.299921 20090 net.cpp:91] Creating Layer inception_4d/5x5_reduce
I0403 17:03:05.299938 20090 net.cpp:425] inception_4d/5x5_reduce <- inception_4c/output_inception_4c/output_0_split_2
I0403 17:03:05.299959 20090 net.cpp:399] inception_4d/5x5_reduce -> inception_4d/5x5_reduce
I0403 17:03:05.301074 20090 net.cpp:141] Setting up inception_4d/5x5_reduce
I0403 17:03:05.301103 20090 net.cpp:148] Top shape: 24 32 14 14 (150528)
I0403 17:03:05.301120 20090 net.cpp:156] Memory required for data: 1132256544
I0403 17:03:05.301136 20090 layer_factory.hpp:77] Creating layer inception_4d/relu_5x5_reduce
I0403 17:03:05.301154 20090 net.cpp:91] Creating Layer inception_4d/relu_5x5_reduce
I0403 17:03:05.301169 20090 net.cpp:425] inception_4d/relu_5x5_reduce <- inception_4d/5x5_reduce
I0403 17:03:05.301187 20090 net.cpp:386] inception_4d/relu_5x5_reduce -> inception_4d/5x5_reduce (in-place)
I0403 17:03:05.301369 20090 net.cpp:141] Setting up inception_4d/relu_5x5_reduce
I0403 17:03:05.301393 20090 net.cpp:148] Top shape: 24 32 14 14 (150528)
I0403 17:03:05.301408 20090 net.cpp:156] Memory required for data: 1132858656
I0403 17:03:05.301422 20090 layer_factory.hpp:77] Creating layer inception_4d/5x5
I0403 17:03:05.301443 20090 net.cpp:91] Creating Layer inception_4d/5x5
I0403 17:03:05.301460 20090 net.cpp:425] inception_4d/5x5 <- inception_4d/5x5_reduce
I0403 17:03:05.301481 20090 net.cpp:399] inception_4d/5x5 -> inception_4d/5x5
I0403 17:03:05.302916 20090 net.cpp:141] Setting up inception_4d/5x5
I0403 17:03:05.302942 20090 net.cpp:148] Top shape: 24 64 14 14 (301056)
I0403 17:03:05.302958 20090 net.cpp:156] Memory required for data: 1134062880
I0403 17:03:05.302975 20090 layer_factory.hpp:77] Creating layer inception_4d/relu_5x5
I0403 17:03:05.303009 20090 net.cpp:91] Creating Layer inception_4d/relu_5x5
I0403 17:03:05.303026 20090 net.cpp:425] inception_4d/relu_5x5 <- inception_4d/5x5
I0403 17:03:05.303043 20090 net.cpp:386] inception_4d/relu_5x5 -> inception_4d/5x5 (in-place)
I0403 17:03:05.303334 20090 net.cpp:141] Setting up inception_4d/relu_5x5
I0403 17:03:05.303360 20090 net.cpp:148] Top shape: 24 64 14 14 (301056)
I0403 17:03:05.303375 20090 net.cpp:156] Memory required for data: 1135267104
I0403 17:03:05.303390 20090 layer_factory.hpp:77] Creating layer inception_4d/pool
I0403 17:03:05.303406 20090 net.cpp:91] Creating Layer inception_4d/pool
I0403 17:03:05.303421 20090 net.cpp:425] inception_4d/pool <- inception_4c/output_inception_4c/output_0_split_3
I0403 17:03:05.303441 20090 net.cpp:399] inception_4d/pool -> inception_4d/pool
I0403 17:03:05.303508 20090 net.cpp:141] Setting up inception_4d/pool
I0403 17:03:05.303534 20090 net.cpp:148] Top shape: 24 512 14 14 (2408448)
I0403 17:03:05.303549 20090 net.cpp:156] Memory required for data: 1144900896
I0403 17:03:05.303562 20090 layer_factory.hpp:77] Creating layer inception_4d/pool_proj
I0403 17:03:05.303583 20090 net.cpp:91] Creating Layer inception_4d/pool_proj
I0403 17:03:05.303604 20090 net.cpp:425] inception_4d/pool_proj <- inception_4d/pool
I0403 17:03:05.303634 20090 net.cpp:399] inception_4d/pool_proj -> inception_4d/pool_proj
I0403 17:03:05.305364 20090 net.cpp:141] Setting up inception_4d/pool_proj
I0403 17:03:05.305394 20090 net.cpp:148] Top shape: 24 64 14 14 (301056)
I0403 17:03:05.305409 20090 net.cpp:156] Memory required for data: 1146105120
I0403 17:03:05.305426 20090 layer_factory.hpp:77] Creating layer inception_4d/relu_pool_proj
I0403 17:03:05.305444 20090 net.cpp:91] Creating Layer inception_4d/relu_pool_proj
I0403 17:03:05.305460 20090 net.cpp:425] inception_4d/relu_pool_proj <- inception_4d/pool_proj
I0403 17:03:05.305480 20090 net.cpp:386] inception_4d/relu_pool_proj -> inception_4d/pool_proj (in-place)
I0403 17:03:05.305662 20090 net.cpp:141] Setting up inception_4d/relu_pool_proj
I0403 17:03:05.305687 20090 net.cpp:148] Top shape: 24 64 14 14 (301056)
I0403 17:03:05.305701 20090 net.cpp:156] Memory required for data: 1147309344
I0403 17:03:05.305716 20090 layer_factory.hpp:77] Creating layer inception_4d/output
I0403 17:03:05.305732 20090 net.cpp:91] Creating Layer inception_4d/output
I0403 17:03:05.305747 20090 net.cpp:425] inception_4d/output <- inception_4d/1x1
I0403 17:03:05.305764 20090 net.cpp:425] inception_4d/output <- inception_4d/3x3
I0403 17:03:05.305780 20090 net.cpp:425] inception_4d/output <- inception_4d/5x5
I0403 17:03:05.305797 20090 net.cpp:425] inception_4d/output <- inception_4d/pool_proj
I0403 17:03:05.305816 20090 net.cpp:399] inception_4d/output -> inception_4d/output
I0403 17:03:05.305862 20090 net.cpp:141] Setting up inception_4d/output
I0403 17:03:05.305887 20090 net.cpp:148] Top shape: 24 528 14 14 (2483712)
I0403 17:03:05.305902 20090 net.cpp:156] Memory required for data: 1157244192
I0403 17:03:05.305917 20090 layer_factory.hpp:77] Creating layer inception_4d/output_inception_4d/output_0_split
I0403 17:03:05.305933 20090 net.cpp:91] Creating Layer inception_4d/output_inception_4d/output_0_split
I0403 17:03:05.305948 20090 net.cpp:425] inception_4d/output_inception_4d/output_0_split <- inception_4d/output
I0403 17:03:05.305964 20090 net.cpp:399] inception_4d/output_inception_4d/output_0_split -> inception_4d/output_inception_4d/output_0_split_0
I0403 17:03:05.305987 20090 net.cpp:399] inception_4d/output_inception_4d/output_0_split -> inception_4d/output_inception_4d/output_0_split_1
I0403 17:03:05.306008 20090 net.cpp:399] inception_4d/output_inception_4d/output_0_split -> inception_4d/output_inception_4d/output_0_split_2
I0403 17:03:05.306030 20090 net.cpp:399] inception_4d/output_inception_4d/output_0_split -> inception_4d/output_inception_4d/output_0_split_3
I0403 17:03:05.306052 20090 net.cpp:399] inception_4d/output_inception_4d/output_0_split -> inception_4d/output_inception_4d/output_0_split_4
I0403 17:03:05.306154 20090 net.cpp:141] Setting up inception_4d/output_inception_4d/output_0_split
I0403 17:03:05.306188 20090 net.cpp:148] Top shape: 24 528 14 14 (2483712)
I0403 17:03:05.306205 20090 net.cpp:148] Top shape: 24 528 14 14 (2483712)
I0403 17:03:05.306224 20090 net.cpp:148] Top shape: 24 528 14 14 (2483712)
I0403 17:03:05.306239 20090 net.cpp:148] Top shape: 24 528 14 14 (2483712)
I0403 17:03:05.306254 20090 net.cpp:148] Top shape: 24 528 14 14 (2483712)
I0403 17:03:05.306267 20090 net.cpp:156] Memory required for data: 1206918432
I0403 17:03:05.306282 20090 layer_factory.hpp:77] Creating layer loss2/ave_pool
I0403 17:03:05.306298 20090 net.cpp:91] Creating Layer loss2/ave_pool
I0403 17:03:05.306314 20090 net.cpp:425] loss2/ave_pool <- inception_4d/output_inception_4d/output_0_split_0
I0403 17:03:05.306332 20090 net.cpp:399] loss2/ave_pool -> loss2/ave_pool
I0403 17:03:05.306643 20090 net.cpp:141] Setting up loss2/ave_pool
I0403 17:03:05.306670 20090 net.cpp:148] Top shape: 24 528 4 4 (202752)
I0403 17:03:05.306686 20090 net.cpp:156] Memory required for data: 1207729440
I0403 17:03:05.306701 20090 layer_factory.hpp:77] Creating layer loss2/conv
I0403 17:03:05.306722 20090 net.cpp:91] Creating Layer loss2/conv
I0403 17:03:05.306740 20090 net.cpp:425] loss2/conv <- loss2/ave_pool
I0403 17:03:05.306758 20090 net.cpp:399] loss2/conv -> loss2/conv
I0403 17:03:05.308588 20090 net.cpp:141] Setting up loss2/conv
I0403 17:03:05.308620 20090 net.cpp:148] Top shape: 24 128 4 4 (49152)
I0403 17:03:05.308636 20090 net.cpp:156] Memory required for data: 1207926048
I0403 17:03:05.308653 20090 layer_factory.hpp:77] Creating layer loss2/relu_conv
I0403 17:03:05.308671 20090 net.cpp:91] Creating Layer loss2/relu_conv
I0403 17:03:05.308687 20090 net.cpp:425] loss2/relu_conv <- loss2/conv
I0403 17:03:05.308706 20090 net.cpp:386] loss2/relu_conv -> loss2/conv (in-place)
I0403 17:03:05.308984 20090 net.cpp:141] Setting up loss2/relu_conv
I0403 17:03:05.309010 20090 net.cpp:148] Top shape: 24 128 4 4 (49152)
I0403 17:03:05.309025 20090 net.cpp:156] Memory required for data: 1208122656
I0403 17:03:05.309038 20090 layer_factory.hpp:77] Creating layer loss2/fc
I0403 17:03:05.309056 20090 net.cpp:91] Creating Layer loss2/fc
I0403 17:03:05.309072 20090 net.cpp:425] loss2/fc <- loss2/conv
I0403 17:03:05.309092 20090 net.cpp:399] loss2/fc -> loss2/fc
I0403 17:03:05.326375 20090 net.cpp:141] Setting up loss2/fc
I0403 17:03:05.326406 20090 net.cpp:148] Top shape: 24 1024 (24576)
I0403 17:03:05.326422 20090 net.cpp:156] Memory required for data: 1208220960
I0403 17:03:05.326441 20090 layer_factory.hpp:77] Creating layer loss2/relu_fc
I0403 17:03:05.326459 20090 net.cpp:91] Creating Layer loss2/relu_fc
I0403 17:03:05.326477 20090 net.cpp:425] loss2/relu_fc <- loss2/fc
I0403 17:03:05.326495 20090 net.cpp:386] loss2/relu_fc -> loss2/fc (in-place)
I0403 17:03:05.326788 20090 net.cpp:141] Setting up loss2/relu_fc
I0403 17:03:05.326815 20090 net.cpp:148] Top shape: 24 1024 (24576)
I0403 17:03:05.326830 20090 net.cpp:156] Memory required for data: 1208319264
I0403 17:03:05.326844 20090 layer_factory.hpp:77] Creating layer loss2/drop_fc
I0403 17:03:05.326863 20090 net.cpp:91] Creating Layer loss2/drop_fc
I0403 17:03:05.326877 20090 net.cpp:425] loss2/drop_fc <- loss2/fc
I0403 17:03:05.326894 20090 net.cpp:386] loss2/drop_fc -> loss2/fc (in-place)
I0403 17:03:05.326943 20090 net.cpp:141] Setting up loss2/drop_fc
I0403 17:03:05.326967 20090 net.cpp:148] Top shape: 24 1024 (24576)
I0403 17:03:05.326980 20090 net.cpp:156] Memory required for data: 1208417568
I0403 17:03:05.326994 20090 layer_factory.hpp:77] Creating layer loss2/classifier_plantvillage
I0403 17:03:05.327014 20090 net.cpp:91] Creating Layer loss2/classifier_plantvillage
I0403 17:03:05.327031 20090 net.cpp:425] loss2/classifier_plantvillage <- loss2/fc
I0403 17:03:05.327049 20090 net.cpp:399] loss2/classifier_plantvillage -> loss2/classifier_plantvillage
I0403 17:03:05.327438 20090 net.cpp:141] Setting up loss2/classifier_plantvillage
I0403 17:03:05.327462 20090 net.cpp:148] Top shape: 24 38 (912)
I0403 17:03:05.327493 20090 net.cpp:156] Memory required for data: 1208421216
I0403 17:03:05.327512 20090 layer_factory.hpp:77] Creating layer loss2/classifier_plantvillage_loss2/classifier_plantvillage_0_split
I0403 17:03:05.327529 20090 net.cpp:91] Creating Layer loss2/classifier_plantvillage_loss2/classifier_plantvillage_0_split
I0403 17:03:05.327546 20090 net.cpp:425] loss2/classifier_plantvillage_loss2/classifier_plantvillage_0_split <- loss2/classifier_plantvillage
I0403 17:03:05.327565 20090 net.cpp:399] loss2/classifier_plantvillage_loss2/classifier_plantvillage_0_split -> loss2/classifier_plantvillage_loss2/classifier_plantvillage_0_split_0
I0403 17:03:05.327586 20090 net.cpp:399] loss2/classifier_plantvillage_loss2/classifier_plantvillage_0_split -> loss2/classifier_plantvillage_loss2/classifier_plantvillage_0_split_1
I0403 17:03:05.327621 20090 net.cpp:399] loss2/classifier_plantvillage_loss2/classifier_plantvillage_0_split -> loss2/classifier_plantvillage_loss2/classifier_plantvillage_0_split_2
I0403 17:03:05.327702 20090 net.cpp:141] Setting up loss2/classifier_plantvillage_loss2/classifier_plantvillage_0_split
I0403 17:03:05.327724 20090 net.cpp:148] Top shape: 24 38 (912)
I0403 17:03:05.327740 20090 net.cpp:148] Top shape: 24 38 (912)
I0403 17:03:05.327754 20090 net.cpp:148] Top shape: 24 38 (912)
I0403 17:03:05.327767 20090 net.cpp:156] Memory required for data: 1208432160
I0403 17:03:05.327781 20090 layer_factory.hpp:77] Creating layer inception_4e/1x1
I0403 17:03:05.327802 20090 net.cpp:91] Creating Layer inception_4e/1x1
I0403 17:03:05.327819 20090 net.cpp:425] inception_4e/1x1 <- inception_4d/output_inception_4d/output_0_split_1
I0403 17:03:05.327838 20090 net.cpp:399] inception_4e/1x1 -> inception_4e/1x1
I0403 17:03:05.329608 20090 net.cpp:141] Setting up inception_4e/1x1
I0403 17:03:05.329635 20090 net.cpp:148] Top shape: 24 256 14 14 (1204224)
I0403 17:03:05.329650 20090 net.cpp:156] Memory required for data: 1213249056
I0403 17:03:05.329668 20090 layer_factory.hpp:77] Creating layer inception_4e/relu_1x1
I0403 17:03:05.329687 20090 net.cpp:91] Creating Layer inception_4e/relu_1x1
I0403 17:03:05.329704 20090 net.cpp:425] inception_4e/relu_1x1 <- inception_4e/1x1
I0403 17:03:05.329721 20090 net.cpp:386] inception_4e/relu_1x1 -> inception_4e/1x1 (in-place)
I0403 17:03:05.330018 20090 net.cpp:141] Setting up inception_4e/relu_1x1
I0403 17:03:05.330054 20090 net.cpp:148] Top shape: 24 256 14 14 (1204224)
I0403 17:03:05.330068 20090 net.cpp:156] Memory required for data: 1218065952
I0403 17:03:05.330082 20090 layer_factory.hpp:77] Creating layer inception_4e/3x3_reduce
I0403 17:03:05.330103 20090 net.cpp:91] Creating Layer inception_4e/3x3_reduce
I0403 17:03:05.330121 20090 net.cpp:425] inception_4e/3x3_reduce <- inception_4d/output_inception_4d/output_0_split_2
I0403 17:03:05.330142 20090 net.cpp:399] inception_4e/3x3_reduce -> inception_4e/3x3_reduce
I0403 17:03:05.332226 20090 net.cpp:141] Setting up inception_4e/3x3_reduce
I0403 17:03:05.332254 20090 net.cpp:148] Top shape: 24 160 14 14 (752640)
I0403 17:03:05.332270 20090 net.cpp:156] Memory required for data: 1221076512
I0403 17:03:05.332288 20090 layer_factory.hpp:77] Creating layer inception_4e/relu_3x3_reduce
I0403 17:03:05.332304 20090 net.cpp:91] Creating Layer inception_4e/relu_3x3_reduce
I0403 17:03:05.332319 20090 net.cpp:425] inception_4e/relu_3x3_reduce <- inception_4e/3x3_reduce
I0403 17:03:05.332339 20090 net.cpp:386] inception_4e/relu_3x3_reduce -> inception_4e/3x3_reduce (in-place)
I0403 17:03:05.332520 20090 net.cpp:141] Setting up inception_4e/relu_3x3_reduce
I0403 17:03:05.332545 20090 net.cpp:148] Top shape: 24 160 14 14 (752640)
I0403 17:03:05.332559 20090 net.cpp:156] Memory required for data: 1224087072
I0403 17:03:05.332573 20090 layer_factory.hpp:77] Creating layer inception_4e/3x3
I0403 17:03:05.332595 20090 net.cpp:91] Creating Layer inception_4e/3x3
I0403 17:03:05.332617 20090 net.cpp:425] inception_4e/3x3 <- inception_4e/3x3_reduce
I0403 17:03:05.332638 20090 net.cpp:399] inception_4e/3x3 -> inception_4e/3x3
I0403 17:03:05.337569 20090 net.cpp:141] Setting up inception_4e/3x3
I0403 17:03:05.337615 20090 net.cpp:148] Top shape: 24 320 14 14 (1505280)
I0403 17:03:05.337631 20090 net.cpp:156] Memory required for data: 1230108192
I0403 17:03:05.337648 20090 layer_factory.hpp:77] Creating layer inception_4e/relu_3x3
I0403 17:03:05.337669 20090 net.cpp:91] Creating Layer inception_4e/relu_3x3
I0403 17:03:05.337685 20090 net.cpp:425] inception_4e/relu_3x3 <- inception_4e/3x3
I0403 17:03:05.337702 20090 net.cpp:386] inception_4e/relu_3x3 -> inception_4e/3x3 (in-place)
I0403 17:03:05.337992 20090 net.cpp:141] Setting up inception_4e/relu_3x3
I0403 17:03:05.338021 20090 net.cpp:148] Top shape: 24 320 14 14 (1505280)
I0403 17:03:05.338037 20090 net.cpp:156] Memory required for data: 1236129312
I0403 17:03:05.338052 20090 layer_factory.hpp:77] Creating layer inception_4e/5x5_reduce
I0403 17:03:05.338074 20090 net.cpp:91] Creating Layer inception_4e/5x5_reduce
I0403 17:03:05.338091 20090 net.cpp:425] inception_4e/5x5_reduce <- inception_4d/output_inception_4d/output_0_split_3
I0403 17:03:05.338110 20090 net.cpp:399] inception_4e/5x5_reduce -> inception_4e/5x5_reduce
I0403 17:03:05.339145 20090 net.cpp:141] Setting up inception_4e/5x5_reduce
I0403 17:03:05.339172 20090 net.cpp:148] Top shape: 24 32 14 14 (150528)
I0403 17:03:05.339187 20090 net.cpp:156] Memory required for data: 1236731424
I0403 17:03:05.339205 20090 layer_factory.hpp:77] Creating layer inception_4e/relu_5x5_reduce
I0403 17:03:05.339224 20090 net.cpp:91] Creating Layer inception_4e/relu_5x5_reduce
I0403 17:03:05.339241 20090 net.cpp:425] inception_4e/relu_5x5_reduce <- inception_4e/5x5_reduce
I0403 17:03:05.339257 20090 net.cpp:386] inception_4e/relu_5x5_reduce -> inception_4e/5x5_reduce (in-place)
I0403 17:03:05.339547 20090 net.cpp:141] Setting up inception_4e/relu_5x5_reduce
I0403 17:03:05.339573 20090 net.cpp:148] Top shape: 24 32 14 14 (150528)
I0403 17:03:05.339587 20090 net.cpp:156] Memory required for data: 1237333536
I0403 17:03:05.339607 20090 layer_factory.hpp:77] Creating layer inception_4e/5x5
I0403 17:03:05.339653 20090 net.cpp:91] Creating Layer inception_4e/5x5
I0403 17:03:05.339673 20090 net.cpp:425] inception_4e/5x5 <- inception_4e/5x5_reduce
I0403 17:03:05.339691 20090 net.cpp:399] inception_4e/5x5 -> inception_4e/5x5
I0403 17:03:05.341466 20090 net.cpp:141] Setting up inception_4e/5x5
I0403 17:03:05.341495 20090 net.cpp:148] Top shape: 24 128 14 14 (602112)
I0403 17:03:05.341512 20090 net.cpp:156] Memory required for data: 1239741984
I0403 17:03:05.341531 20090 layer_factory.hpp:77] Creating layer inception_4e/relu_5x5
I0403 17:03:05.341549 20090 net.cpp:91] Creating Layer inception_4e/relu_5x5
I0403 17:03:05.341565 20090 net.cpp:425] inception_4e/relu_5x5 <- inception_4e/5x5
I0403 17:03:05.341584 20090 net.cpp:386] inception_4e/relu_5x5 -> inception_4e/5x5 (in-place)
I0403 17:03:05.341776 20090 net.cpp:141] Setting up inception_4e/relu_5x5
I0403 17:03:05.341801 20090 net.cpp:148] Top shape: 24 128 14 14 (602112)
I0403 17:03:05.341815 20090 net.cpp:156] Memory required for data: 1242150432
I0403 17:03:05.341830 20090 layer_factory.hpp:77] Creating layer inception_4e/pool
I0403 17:03:05.341847 20090 net.cpp:91] Creating Layer inception_4e/pool
I0403 17:03:05.341863 20090 net.cpp:425] inception_4e/pool <- inception_4d/output_inception_4d/output_0_split_4
I0403 17:03:05.341882 20090 net.cpp:399] inception_4e/pool -> inception_4e/pool
I0403 17:03:05.341950 20090 net.cpp:141] Setting up inception_4e/pool
I0403 17:03:05.341974 20090 net.cpp:148] Top shape: 24 528 14 14 (2483712)
I0403 17:03:05.341987 20090 net.cpp:156] Memory required for data: 1252085280
I0403 17:03:05.342001 20090 layer_factory.hpp:77] Creating layer inception_4e/pool_proj
I0403 17:03:05.342025 20090 net.cpp:91] Creating Layer inception_4e/pool_proj
I0403 17:03:05.342041 20090 net.cpp:425] inception_4e/pool_proj <- inception_4e/pool
I0403 17:03:05.342059 20090 net.cpp:399] inception_4e/pool_proj -> inception_4e/pool_proj
I0403 17:03:05.343534 20090 net.cpp:141] Setting up inception_4e/pool_proj
I0403 17:03:05.343585 20090 net.cpp:148] Top shape: 24 128 14 14 (602112)
I0403 17:03:05.343607 20090 net.cpp:156] Memory required for data: 1254493728
I0403 17:03:05.343633 20090 layer_factory.hpp:77] Creating layer inception_4e/relu_pool_proj
I0403 17:03:05.343652 20090 net.cpp:91] Creating Layer inception_4e/relu_pool_proj
I0403 17:03:05.343667 20090 net.cpp:425] inception_4e/relu_pool_proj <- inception_4e/pool_proj
I0403 17:03:05.343688 20090 net.cpp:386] inception_4e/relu_pool_proj -> inception_4e/pool_proj (in-place)
I0403 17:03:05.343971 20090 net.cpp:141] Setting up inception_4e/relu_pool_proj
I0403 17:03:05.343998 20090 net.cpp:148] Top shape: 24 128 14 14 (602112)
I0403 17:03:05.344014 20090 net.cpp:156] Memory required for data: 1256902176
I0403 17:03:05.344028 20090 layer_factory.hpp:77] Creating layer inception_4e/output
I0403 17:03:05.344045 20090 net.cpp:91] Creating Layer inception_4e/output
I0403 17:03:05.344060 20090 net.cpp:425] inception_4e/output <- inception_4e/1x1
I0403 17:03:05.344076 20090 net.cpp:425] inception_4e/output <- inception_4e/3x3
I0403 17:03:05.344091 20090 net.cpp:425] inception_4e/output <- inception_4e/5x5
I0403 17:03:05.344107 20090 net.cpp:425] inception_4e/output <- inception_4e/pool_proj
I0403 17:03:05.344125 20090 net.cpp:399] inception_4e/output -> inception_4e/output
I0403 17:03:05.344175 20090 net.cpp:141] Setting up inception_4e/output
I0403 17:03:05.344198 20090 net.cpp:148] Top shape: 24 832 14 14 (3913728)
I0403 17:03:05.344213 20090 net.cpp:156] Memory required for data: 1272557088
I0403 17:03:05.344226 20090 layer_factory.hpp:77] Creating layer pool4/3x3_s2
I0403 17:03:05.344245 20090 net.cpp:91] Creating Layer pool4/3x3_s2
I0403 17:03:05.344262 20090 net.cpp:425] pool4/3x3_s2 <- inception_4e/output
I0403 17:03:05.344280 20090 net.cpp:399] pool4/3x3_s2 -> pool4/3x3_s2
I0403 17:03:05.344348 20090 net.cpp:141] Setting up pool4/3x3_s2
I0403 17:03:05.344372 20090 net.cpp:148] Top shape: 24 832 7 7 (978432)
I0403 17:03:05.344386 20090 net.cpp:156] Memory required for data: 1276470816
I0403 17:03:05.344400 20090 layer_factory.hpp:77] Creating layer pool4/3x3_s2_pool4/3x3_s2_0_split
I0403 17:03:05.344416 20090 net.cpp:91] Creating Layer pool4/3x3_s2_pool4/3x3_s2_0_split
I0403 17:03:05.344431 20090 net.cpp:425] pool4/3x3_s2_pool4/3x3_s2_0_split <- pool4/3x3_s2
I0403 17:03:05.344450 20090 net.cpp:399] pool4/3x3_s2_pool4/3x3_s2_0_split -> pool4/3x3_s2_pool4/3x3_s2_0_split_0
I0403 17:03:05.344470 20090 net.cpp:399] pool4/3x3_s2_pool4/3x3_s2_0_split -> pool4/3x3_s2_pool4/3x3_s2_0_split_1
I0403 17:03:05.344491 20090 net.cpp:399] pool4/3x3_s2_pool4/3x3_s2_0_split -> pool4/3x3_s2_pool4/3x3_s2_0_split_2
I0403 17:03:05.344511 20090 net.cpp:399] pool4/3x3_s2_pool4/3x3_s2_0_split -> pool4/3x3_s2_pool4/3x3_s2_0_split_3
I0403 17:03:05.344606 20090 net.cpp:141] Setting up pool4/3x3_s2_pool4/3x3_s2_0_split
I0403 17:03:05.344633 20090 net.cpp:148] Top shape: 24 832 7 7 (978432)
I0403 17:03:05.344650 20090 net.cpp:148] Top shape: 24 832 7 7 (978432)
I0403 17:03:05.344666 20090 net.cpp:148] Top shape: 24 832 7 7 (978432)
I0403 17:03:05.344681 20090 net.cpp:148] Top shape: 24 832 7 7 (978432)
I0403 17:03:05.344693 20090 net.cpp:156] Memory required for data: 1292125728
I0403 17:03:05.344708 20090 layer_factory.hpp:77] Creating layer inception_5a/1x1
I0403 17:03:05.344730 20090 net.cpp:91] Creating Layer inception_5a/1x1
I0403 17:03:05.344748 20090 net.cpp:425] inception_5a/1x1 <- pool4/3x3_s2_pool4/3x3_s2_0_split_0
I0403 17:03:05.344766 20090 net.cpp:399] inception_5a/1x1 -> inception_5a/1x1
I0403 17:03:05.347576 20090 net.cpp:141] Setting up inception_5a/1x1
I0403 17:03:05.347609 20090 net.cpp:148] Top shape: 24 256 7 7 (301056)
I0403 17:03:05.347630 20090 net.cpp:156] Memory required for data: 1293329952
I0403 17:03:05.347647 20090 layer_factory.hpp:77] Creating layer inception_5a/relu_1x1
I0403 17:03:05.347664 20090 net.cpp:91] Creating Layer inception_5a/relu_1x1
I0403 17:03:05.347679 20090 net.cpp:425] inception_5a/relu_1x1 <- inception_5a/1x1
I0403 17:03:05.347698 20090 net.cpp:386] inception_5a/relu_1x1 -> inception_5a/1x1 (in-place)
I0403 17:03:05.348017 20090 net.cpp:141] Setting up inception_5a/relu_1x1
I0403 17:03:05.348043 20090 net.cpp:148] Top shape: 24 256 7 7 (301056)
I0403 17:03:05.348058 20090 net.cpp:156] Memory required for data: 1294534176
I0403 17:03:05.348073 20090 layer_factory.hpp:77] Creating layer inception_5a/3x3_reduce
I0403 17:03:05.348094 20090 net.cpp:91] Creating Layer inception_5a/3x3_reduce
I0403 17:03:05.348111 20090 net.cpp:425] inception_5a/3x3_reduce <- pool4/3x3_s2_pool4/3x3_s2_0_split_1
I0403 17:03:05.348132 20090 net.cpp:399] inception_5a/3x3_reduce -> inception_5a/3x3_reduce
I0403 17:03:05.350563 20090 net.cpp:141] Setting up inception_5a/3x3_reduce
I0403 17:03:05.350590 20090 net.cpp:148] Top shape: 24 160 7 7 (188160)
I0403 17:03:05.350611 20090 net.cpp:156] Memory required for data: 1295286816
I0403 17:03:05.350630 20090 layer_factory.hpp:77] Creating layer inception_5a/relu_3x3_reduce
I0403 17:03:05.350648 20090 net.cpp:91] Creating Layer inception_5a/relu_3x3_reduce
I0403 17:03:05.350666 20090 net.cpp:425] inception_5a/relu_3x3_reduce <- inception_5a/3x3_reduce
I0403 17:03:05.350682 20090 net.cpp:386] inception_5a/relu_3x3_reduce -> inception_5a/3x3_reduce (in-place)
I0403 17:03:05.350863 20090 net.cpp:141] Setting up inception_5a/relu_3x3_reduce
I0403 17:03:05.350888 20090 net.cpp:148] Top shape: 24 160 7 7 (188160)
I0403 17:03:05.350903 20090 net.cpp:156] Memory required for data: 1296039456
I0403 17:03:05.350917 20090 layer_factory.hpp:77] Creating layer inception_5a/3x3
I0403 17:03:05.350939 20090 net.cpp:91] Creating Layer inception_5a/3x3
I0403 17:03:05.350956 20090 net.cpp:425] inception_5a/3x3 <- inception_5a/3x3_reduce
I0403 17:03:05.350977 20090 net.cpp:399] inception_5a/3x3 -> inception_5a/3x3
I0403 17:03:05.355893 20090 net.cpp:141] Setting up inception_5a/3x3
I0403 17:03:05.355929 20090 net.cpp:148] Top shape: 24 320 7 7 (376320)
I0403 17:03:05.355945 20090 net.cpp:156] Memory required for data: 1297544736
I0403 17:03:05.355963 20090 layer_factory.hpp:77] Creating layer inception_5a/relu_3x3
I0403 17:03:05.355981 20090 net.cpp:91] Creating Layer inception_5a/relu_3x3
I0403 17:03:05.355998 20090 net.cpp:425] inception_5a/relu_3x3 <- inception_5a/3x3
I0403 17:03:05.356015 20090 net.cpp:386] inception_5a/relu_3x3 -> inception_5a/3x3 (in-place)
I0403 17:03:05.356302 20090 net.cpp:141] Setting up inception_5a/relu_3x3
I0403 17:03:05.356329 20090 net.cpp:148] Top shape: 24 320 7 7 (376320)
I0403 17:03:05.356344 20090 net.cpp:156] Memory required for data: 1299050016
I0403 17:03:05.356359 20090 layer_factory.hpp:77] Creating layer inception_5a/5x5_reduce
I0403 17:03:05.356382 20090 net.cpp:91] Creating Layer inception_5a/5x5_reduce
I0403 17:03:05.356400 20090 net.cpp:425] inception_5a/5x5_reduce <- pool4/3x3_s2_pool4/3x3_s2_0_split_2
I0403 17:03:05.356417 20090 net.cpp:399] inception_5a/5x5_reduce -> inception_5a/5x5_reduce
I0403 17:03:05.357558 20090 net.cpp:141] Setting up inception_5a/5x5_reduce
I0403 17:03:05.357584 20090 net.cpp:148] Top shape: 24 32 7 7 (37632)
I0403 17:03:05.357604 20090 net.cpp:156] Memory required for data: 1299200544
I0403 17:03:05.357622 20090 layer_factory.hpp:77] Creating layer inception_5a/relu_5x5_reduce
I0403 17:03:05.357640 20090 net.cpp:91] Creating Layer inception_5a/relu_5x5_reduce
I0403 17:03:05.357656 20090 net.cpp:425] inception_5a/relu_5x5_reduce <- inception_5a/5x5_reduce
I0403 17:03:05.357676 20090 net.cpp:386] inception_5a/relu_5x5_reduce -> inception_5a/5x5_reduce (in-place)
I0403 17:03:05.357964 20090 net.cpp:141] Setting up inception_5a/relu_5x5_reduce
I0403 17:03:05.357990 20090 net.cpp:148] Top shape: 24 32 7 7 (37632)
I0403 17:03:05.358006 20090 net.cpp:156] Memory required for data: 1299351072
I0403 17:03:05.358019 20090 layer_factory.hpp:77] Creating layer inception_5a/5x5
I0403 17:03:05.358042 20090 net.cpp:91] Creating Layer inception_5a/5x5
I0403 17:03:05.358059 20090 net.cpp:425] inception_5a/5x5 <- inception_5a/5x5_reduce
I0403 17:03:05.358079 20090 net.cpp:399] inception_5a/5x5 -> inception_5a/5x5
I0403 17:03:05.359752 20090 net.cpp:141] Setting up inception_5a/5x5
I0403 17:03:05.359793 20090 net.cpp:148] Top shape: 24 128 7 7 (150528)
I0403 17:03:05.359810 20090 net.cpp:156] Memory required for data: 1299953184
I0403 17:03:05.359828 20090 layer_factory.hpp:77] Creating layer inception_5a/relu_5x5
I0403 17:03:05.359846 20090 net.cpp:91] Creating Layer inception_5a/relu_5x5
I0403 17:03:05.359863 20090 net.cpp:425] inception_5a/relu_5x5 <- inception_5a/5x5
I0403 17:03:05.359880 20090 net.cpp:386] inception_5a/relu_5x5 -> inception_5a/5x5 (in-place)
I0403 17:03:05.360064 20090 net.cpp:141] Setting up inception_5a/relu_5x5
I0403 17:03:05.360090 20090 net.cpp:148] Top shape: 24 128 7 7 (150528)
I0403 17:03:05.360103 20090 net.cpp:156] Memory required for data: 1300555296
I0403 17:03:05.360117 20090 layer_factory.hpp:77] Creating layer inception_5a/pool
I0403 17:03:05.360134 20090 net.cpp:91] Creating Layer inception_5a/pool
I0403 17:03:05.360149 20090 net.cpp:425] inception_5a/pool <- pool4/3x3_s2_pool4/3x3_s2_0_split_3
I0403 17:03:05.360169 20090 net.cpp:399] inception_5a/pool -> inception_5a/pool
I0403 17:03:05.360239 20090 net.cpp:141] Setting up inception_5a/pool
I0403 17:03:05.360262 20090 net.cpp:148] Top shape: 24 832 7 7 (978432)
I0403 17:03:05.360276 20090 net.cpp:156] Memory required for data: 1304469024
I0403 17:03:05.360291 20090 layer_factory.hpp:77] Creating layer inception_5a/pool_proj
I0403 17:03:05.360314 20090 net.cpp:91] Creating Layer inception_5a/pool_proj
I0403 17:03:05.360332 20090 net.cpp:425] inception_5a/pool_proj <- inception_5a/pool
I0403 17:03:05.360349 20090 net.cpp:399] inception_5a/pool_proj -> inception_5a/pool_proj
I0403 17:03:05.362578 20090 net.cpp:141] Setting up inception_5a/pool_proj
I0403 17:03:05.362613 20090 net.cpp:148] Top shape: 24 128 7 7 (150528)
I0403 17:03:05.362639 20090 net.cpp:156] Memory required for data: 1305071136
I0403 17:03:05.362658 20090 layer_factory.hpp:77] Creating layer inception_5a/relu_pool_proj
I0403 17:03:05.362675 20090 net.cpp:91] Creating Layer inception_5a/relu_pool_proj
I0403 17:03:05.362691 20090 net.cpp:425] inception_5a/relu_pool_proj <- inception_5a/pool_proj
I0403 17:03:05.362709 20090 net.cpp:386] inception_5a/relu_pool_proj -> inception_5a/pool_proj (in-place)
I0403 17:03:05.363003 20090 net.cpp:141] Setting up inception_5a/relu_pool_proj
I0403 17:03:05.363031 20090 net.cpp:148] Top shape: 24 128 7 7 (150528)
I0403 17:03:05.363046 20090 net.cpp:156] Memory required for data: 1305673248
I0403 17:03:05.363060 20090 layer_factory.hpp:77] Creating layer inception_5a/output
I0403 17:03:05.363076 20090 net.cpp:91] Creating Layer inception_5a/output
I0403 17:03:05.363092 20090 net.cpp:425] inception_5a/output <- inception_5a/1x1
I0403 17:03:05.363108 20090 net.cpp:425] inception_5a/output <- inception_5a/3x3
I0403 17:03:05.363124 20090 net.cpp:425] inception_5a/output <- inception_5a/5x5
I0403 17:03:05.363140 20090 net.cpp:425] inception_5a/output <- inception_5a/pool_proj
I0403 17:03:05.363157 20090 net.cpp:399] inception_5a/output -> inception_5a/output
I0403 17:03:05.363207 20090 net.cpp:141] Setting up inception_5a/output
I0403 17:03:05.363230 20090 net.cpp:148] Top shape: 24 832 7 7 (978432)
I0403 17:03:05.363245 20090 net.cpp:156] Memory required for data: 1309586976
I0403 17:03:05.363258 20090 layer_factory.hpp:77] Creating layer inception_5a/output_inception_5a/output_0_split
I0403 17:03:05.363276 20090 net.cpp:91] Creating Layer inception_5a/output_inception_5a/output_0_split
I0403 17:03:05.363292 20090 net.cpp:425] inception_5a/output_inception_5a/output_0_split <- inception_5a/output
I0403 17:03:05.363309 20090 net.cpp:399] inception_5a/output_inception_5a/output_0_split -> inception_5a/output_inception_5a/output_0_split_0
I0403 17:03:05.363328 20090 net.cpp:399] inception_5a/output_inception_5a/output_0_split -> inception_5a/output_inception_5a/output_0_split_1
I0403 17:03:05.363348 20090 net.cpp:399] inception_5a/output_inception_5a/output_0_split -> inception_5a/output_inception_5a/output_0_split_2
I0403 17:03:05.363368 20090 net.cpp:399] inception_5a/output_inception_5a/output_0_split -> inception_5a/output_inception_5a/output_0_split_3
I0403 17:03:05.363479 20090 net.cpp:141] Setting up inception_5a/output_inception_5a/output_0_split
I0403 17:03:05.363503 20090 net.cpp:148] Top shape: 24 832 7 7 (978432)
I0403 17:03:05.363518 20090 net.cpp:148] Top shape: 24 832 7 7 (978432)
I0403 17:03:05.363533 20090 net.cpp:148] Top shape: 24 832 7 7 (978432)
I0403 17:03:05.363549 20090 net.cpp:148] Top shape: 24 832 7 7 (978432)
I0403 17:03:05.363562 20090 net.cpp:156] Memory required for data: 1325241888
I0403 17:03:05.363576 20090 layer_factory.hpp:77] Creating layer inception_5b/1x1
I0403 17:03:05.363597 20090 net.cpp:91] Creating Layer inception_5b/1x1
I0403 17:03:05.363629 20090 net.cpp:425] inception_5b/1x1 <- inception_5a/output_inception_5a/output_0_split_0
I0403 17:03:05.363651 20090 net.cpp:399] inception_5b/1x1 -> inception_5b/1x1
I0403 17:03:05.367337 20090 net.cpp:141] Setting up inception_5b/1x1
I0403 17:03:05.367368 20090 net.cpp:148] Top shape: 24 384 7 7 (451584)
I0403 17:03:05.367383 20090 net.cpp:156] Memory required for data: 1327048224
I0403 17:03:05.367400 20090 layer_factory.hpp:77] Creating layer inception_5b/relu_1x1
I0403 17:03:05.367422 20090 net.cpp:91] Creating Layer inception_5b/relu_1x1
I0403 17:03:05.367439 20090 net.cpp:425] inception_5b/relu_1x1 <- inception_5b/1x1
I0403 17:03:05.367455 20090 net.cpp:386] inception_5b/relu_1x1 -> inception_5b/1x1 (in-place)
I0403 17:03:05.367758 20090 net.cpp:141] Setting up inception_5b/relu_1x1
I0403 17:03:05.367784 20090 net.cpp:148] Top shape: 24 384 7 7 (451584)
I0403 17:03:05.367799 20090 net.cpp:156] Memory required for data: 1328854560
I0403 17:03:05.367813 20090 layer_factory.hpp:77] Creating layer inception_5b/3x3_reduce
I0403 17:03:05.367836 20090 net.cpp:91] Creating Layer inception_5b/3x3_reduce
I0403 17:03:05.367854 20090 net.cpp:425] inception_5b/3x3_reduce <- inception_5a/output_inception_5a/output_0_split_1
I0403 17:03:05.367872 20090 net.cpp:399] inception_5b/3x3_reduce -> inception_5b/3x3_reduce
I0403 17:03:05.370460 20090 net.cpp:141] Setting up inception_5b/3x3_reduce
I0403 17:03:05.370491 20090 net.cpp:148] Top shape: 24 192 7 7 (225792)
I0403 17:03:05.370507 20090 net.cpp:156] Memory required for data: 1329757728
I0403 17:03:05.370523 20090 layer_factory.hpp:77] Creating layer inception_5b/relu_3x3_reduce
I0403 17:03:05.370542 20090 net.cpp:91] Creating Layer inception_5b/relu_3x3_reduce
I0403 17:03:05.370558 20090 net.cpp:425] inception_5b/relu_3x3_reduce <- inception_5b/3x3_reduce
I0403 17:03:05.370574 20090 net.cpp:386] inception_5b/relu_3x3_reduce -> inception_5b/3x3_reduce (in-place)
I0403 17:03:05.370769 20090 net.cpp:141] Setting up inception_5b/relu_3x3_reduce
I0403 17:03:05.370793 20090 net.cpp:148] Top shape: 24 192 7 7 (225792)
I0403 17:03:05.370807 20090 net.cpp:156] Memory required for data: 1330660896
I0403 17:03:05.370822 20090 layer_factory.hpp:77] Creating layer inception_5b/3x3
I0403 17:03:05.370843 20090 net.cpp:91] Creating Layer inception_5b/3x3
I0403 17:03:05.370862 20090 net.cpp:425] inception_5b/3x3 <- inception_5b/3x3_reduce
I0403 17:03:05.370883 20090 net.cpp:399] inception_5b/3x3 -> inception_5b/3x3
I0403 17:03:05.377452 20090 net.cpp:141] Setting up inception_5b/3x3
I0403 17:03:05.377482 20090 net.cpp:148] Top shape: 24 384 7 7 (451584)
I0403 17:03:05.377498 20090 net.cpp:156] Memory required for data: 1332467232
I0403 17:03:05.377516 20090 layer_factory.hpp:77] Creating layer inception_5b/relu_3x3
I0403 17:03:05.377535 20090 net.cpp:91] Creating Layer inception_5b/relu_3x3
I0403 17:03:05.377552 20090 net.cpp:425] inception_5b/relu_3x3 <- inception_5b/3x3
I0403 17:03:05.377568 20090 net.cpp:386] inception_5b/relu_3x3 -> inception_5b/3x3 (in-place)
I0403 17:03:05.377866 20090 net.cpp:141] Setting up inception_5b/relu_3x3
I0403 17:03:05.377893 20090 net.cpp:148] Top shape: 24 384 7 7 (451584)
I0403 17:03:05.377909 20090 net.cpp:156] Memory required for data: 1334273568
I0403 17:03:05.377923 20090 layer_factory.hpp:77] Creating layer inception_5b/5x5_reduce
I0403 17:03:05.377960 20090 net.cpp:91] Creating Layer inception_5b/5x5_reduce
I0403 17:03:05.377979 20090 net.cpp:425] inception_5b/5x5_reduce <- inception_5a/output_inception_5a/output_0_split_2
I0403 17:03:05.377998 20090 net.cpp:399] inception_5b/5x5_reduce -> inception_5b/5x5_reduce
I0403 17:03:05.379238 20090 net.cpp:141] Setting up inception_5b/5x5_reduce
I0403 17:03:05.379267 20090 net.cpp:148] Top shape: 24 48 7 7 (56448)
I0403 17:03:05.379284 20090 net.cpp:156] Memory required for data: 1334499360
I0403 17:03:05.379302 20090 layer_factory.hpp:77] Creating layer inception_5b/relu_5x5_reduce
I0403 17:03:05.379319 20090 net.cpp:91] Creating Layer inception_5b/relu_5x5_reduce
I0403 17:03:05.379335 20090 net.cpp:425] inception_5b/relu_5x5_reduce <- inception_5b/5x5_reduce
I0403 17:03:05.379354 20090 net.cpp:386] inception_5b/relu_5x5_reduce -> inception_5b/5x5_reduce (in-place)
I0403 17:03:05.379737 20090 net.cpp:141] Setting up inception_5b/relu_5x5_reduce
I0403 17:03:05.379763 20090 net.cpp:148] Top shape: 24 48 7 7 (56448)
I0403 17:03:05.379778 20090 net.cpp:156] Memory required for data: 1334725152
I0403 17:03:05.379792 20090 layer_factory.hpp:77] Creating layer inception_5b/5x5
I0403 17:03:05.379812 20090 net.cpp:91] Creating Layer inception_5b/5x5
I0403 17:03:05.379829 20090 net.cpp:425] inception_5b/5x5 <- inception_5b/5x5_reduce
I0403 17:03:05.379848 20090 net.cpp:399] inception_5b/5x5 -> inception_5b/5x5
I0403 17:03:05.381857 20090 net.cpp:141] Setting up inception_5b/5x5
I0403 17:03:05.381885 20090 net.cpp:148] Top shape: 24 128 7 7 (150528)
I0403 17:03:05.381898 20090 net.cpp:156] Memory required for data: 1335327264
I0403 17:03:05.381916 20090 layer_factory.hpp:77] Creating layer inception_5b/relu_5x5
I0403 17:03:05.381934 20090 net.cpp:91] Creating Layer inception_5b/relu_5x5
I0403 17:03:05.381949 20090 net.cpp:425] inception_5b/relu_5x5 <- inception_5b/5x5
I0403 17:03:05.381968 20090 net.cpp:386] inception_5b/relu_5x5 -> inception_5b/5x5 (in-place)
I0403 17:03:05.382156 20090 net.cpp:141] Setting up inception_5b/relu_5x5
I0403 17:03:05.382180 20090 net.cpp:148] Top shape: 24 128 7 7 (150528)
I0403 17:03:05.382194 20090 net.cpp:156] Memory required for data: 1335929376
I0403 17:03:05.382208 20090 layer_factory.hpp:77] Creating layer inception_5b/pool
I0403 17:03:05.382227 20090 net.cpp:91] Creating Layer inception_5b/pool
I0403 17:03:05.382243 20090 net.cpp:425] inception_5b/pool <- inception_5a/output_inception_5a/output_0_split_3
I0403 17:03:05.382261 20090 net.cpp:399] inception_5b/pool -> inception_5b/pool
I0403 17:03:05.382333 20090 net.cpp:141] Setting up inception_5b/pool
I0403 17:03:05.382356 20090 net.cpp:148] Top shape: 24 832 7 7 (978432)
I0403 17:03:05.382370 20090 net.cpp:156] Memory required for data: 1339843104
I0403 17:03:05.382385 20090 layer_factory.hpp:77] Creating layer inception_5b/pool_proj
I0403 17:03:05.382405 20090 net.cpp:91] Creating Layer inception_5b/pool_proj
I0403 17:03:05.382423 20090 net.cpp:425] inception_5b/pool_proj <- inception_5b/pool
I0403 17:03:05.382444 20090 net.cpp:399] inception_5b/pool_proj -> inception_5b/pool_proj
I0403 17:03:05.384713 20090 net.cpp:141] Setting up inception_5b/pool_proj
I0403 17:03:05.384744 20090 net.cpp:148] Top shape: 24 128 7 7 (150528)
I0403 17:03:05.384760 20090 net.cpp:156] Memory required for data: 1340445216
I0403 17:03:05.384778 20090 layer_factory.hpp:77] Creating layer inception_5b/relu_pool_proj
I0403 17:03:05.384795 20090 net.cpp:91] Creating Layer inception_5b/relu_pool_proj
I0403 17:03:05.384811 20090 net.cpp:425] inception_5b/relu_pool_proj <- inception_5b/pool_proj
I0403 17:03:05.384830 20090 net.cpp:386] inception_5b/relu_pool_proj -> inception_5b/pool_proj (in-place)
I0403 17:03:05.385120 20090 net.cpp:141] Setting up inception_5b/relu_pool_proj
I0403 17:03:05.385149 20090 net.cpp:148] Top shape: 24 128 7 7 (150528)
I0403 17:03:05.385164 20090 net.cpp:156] Memory required for data: 1341047328
I0403 17:03:05.385179 20090 layer_factory.hpp:77] Creating layer inception_5b/output
I0403 17:03:05.385195 20090 net.cpp:91] Creating Layer inception_5b/output
I0403 17:03:05.385226 20090 net.cpp:425] inception_5b/output <- inception_5b/1x1
I0403 17:03:05.385243 20090 net.cpp:425] inception_5b/output <- inception_5b/3x3
I0403 17:03:05.385259 20090 net.cpp:425] inception_5b/output <- inception_5b/5x5
I0403 17:03:05.385274 20090 net.cpp:425] inception_5b/output <- inception_5b/pool_proj
I0403 17:03:05.385293 20090 net.cpp:399] inception_5b/output -> inception_5b/output
I0403 17:03:05.385344 20090 net.cpp:141] Setting up inception_5b/output
I0403 17:03:05.385367 20090 net.cpp:148] Top shape: 24 1024 7 7 (1204224)
I0403 17:03:05.385382 20090 net.cpp:156] Memory required for data: 1345864224
I0403 17:03:05.385396 20090 layer_factory.hpp:77] Creating layer pool5/7x7_s1
I0403 17:03:05.385416 20090 net.cpp:91] Creating Layer pool5/7x7_s1
I0403 17:03:05.385432 20090 net.cpp:425] pool5/7x7_s1 <- inception_5b/output
I0403 17:03:05.385449 20090 net.cpp:399] pool5/7x7_s1 -> pool5/7x7_s1
I0403 17:03:05.385663 20090 net.cpp:141] Setting up pool5/7x7_s1
I0403 17:03:05.385690 20090 net.cpp:148] Top shape: 24 1024 1 1 (24576)
I0403 17:03:05.385706 20090 net.cpp:156] Memory required for data: 1345962528
I0403 17:03:05.385720 20090 layer_factory.hpp:77] Creating layer pool5/drop_7x7_s1
I0403 17:03:05.385737 20090 net.cpp:91] Creating Layer pool5/drop_7x7_s1
I0403 17:03:05.385752 20090 net.cpp:425] pool5/drop_7x7_s1 <- pool5/7x7_s1
I0403 17:03:05.385771 20090 net.cpp:386] pool5/drop_7x7_s1 -> pool5/7x7_s1 (in-place)
I0403 17:03:05.385820 20090 net.cpp:141] Setting up pool5/drop_7x7_s1
I0403 17:03:05.385843 20090 net.cpp:148] Top shape: 24 1024 1 1 (24576)
I0403 17:03:05.385857 20090 net.cpp:156] Memory required for data: 1346060832
I0403 17:03:05.385870 20090 layer_factory.hpp:77] Creating layer loss3/classifier_plantvillage
I0403 17:03:05.385893 20090 net.cpp:91] Creating Layer loss3/classifier_plantvillage
I0403 17:03:05.385910 20090 net.cpp:425] loss3/classifier_plantvillage <- pool5/7x7_s1
I0403 17:03:05.385931 20090 net.cpp:399] loss3/classifier_plantvillage -> loss3/classifier_plantvillage
I0403 17:03:05.386345 20090 net.cpp:141] Setting up loss3/classifier_plantvillage
I0403 17:03:05.386369 20090 net.cpp:148] Top shape: 24 38 (912)
I0403 17:03:05.386384 20090 net.cpp:156] Memory required for data: 1346064480
I0403 17:03:05.386401 20090 layer_factory.hpp:77] Creating layer loss3/classifier_plantvillage_loss3/classifier_plantvillage_0_split
I0403 17:03:05.386421 20090 net.cpp:91] Creating Layer loss3/classifier_plantvillage_loss3/classifier_plantvillage_0_split
I0403 17:03:05.386437 20090 net.cpp:425] loss3/classifier_plantvillage_loss3/classifier_plantvillage_0_split <- loss3/classifier_plantvillage
I0403 17:03:05.386454 20090 net.cpp:399] loss3/classifier_plantvillage_loss3/classifier_plantvillage_0_split -> loss3/classifier_plantvillage_loss3/classifier_plantvillage_0_split_0
I0403 17:03:05.386474 20090 net.cpp:399] loss3/classifier_plantvillage_loss3/classifier_plantvillage_0_split -> loss3/classifier_plantvillage_loss3/classifier_plantvillage_0_split_1
I0403 17:03:05.386494 20090 net.cpp:399] loss3/classifier_plantvillage_loss3/classifier_plantvillage_0_split -> loss3/classifier_plantvillage_loss3/classifier_plantvillage_0_split_2
I0403 17:03:05.386513 20090 net.cpp:399] loss3/classifier_plantvillage_loss3/classifier_plantvillage_0_split -> loss3/classifier_plantvillage_loss3/classifier_plantvillage_0_split_3
I0403 17:03:05.386615 20090 net.cpp:141] Setting up loss3/classifier_plantvillage_loss3/classifier_plantvillage_0_split
I0403 17:03:05.386638 20090 net.cpp:148] Top shape: 24 38 (912)
I0403 17:03:05.386654 20090 net.cpp:148] Top shape: 24 38 (912)
I0403 17:03:05.386670 20090 net.cpp:148] Top shape: 24 38 (912)
I0403 17:03:05.386684 20090 net.cpp:148] Top shape: 24 38 (912)
I0403 17:03:05.386696 20090 net.cpp:156] Memory required for data: 1346079072
I0403 17:03:05.386710 20090 layer_factory.hpp:77] Creating layer loss1/loss
I0403 17:03:05.386730 20090 net.cpp:91] Creating Layer loss1/loss
I0403 17:03:05.386747 20090 net.cpp:425] loss1/loss <- loss1/classifier_plantvillage_loss1/classifier_plantvillage_0_split_0
I0403 17:03:05.386777 20090 net.cpp:425] loss1/loss <- label_data_1_split_0
…
