…
I0403 16:08:17.026908 17125 net.cpp:313] The NetState phase (1) differed from the phase (0) specified by a rule in layer data
I0403 16:08:17.027972 17125 net.cpp:49] Initializing net from parameters: 
state {
  phase: TEST
}
layer {
  name: "data"
  type: "Data"
  top: "data"
  top: "label"
  include {
    phase: TEST
  }
  transform_param {
    mirror: false
    crop_size: 224
    mean_file: "/home/mohanty/data/final_dataset/lmdb/segmented-20-80/mean.binaryproto"
  }
  data_param {
    source: "/home/mohanty/data/final_dataset/lmdb/segmented-20-80/test_db"
    batch_size: 24
    backend: LMDB
  }
}
layer {
  name: "conv1/7x7_s2"
  type: "Convolution"
  bottom: "data"
  top: "conv1/7x7_s2"
  param {
    lr_mult: 1
    decay_mult: 1
  }
  param {
    lr_mult: 2
    decay_mult: 0
  }
  convolution_param {
    num_output: 64
    pad: 3
    kernel_size: 7
    stride: 2
    weight_filler {
      type: "xavier"
      std: 0.1
    }
    bias_filler {
      type: "constant"
      value: 0.2
    }
  }
}
layer {
  name: "conv1/relu_7x7"
  type: "ReLU"
  bottom: "conv1/7x7_s2"
  top: "conv1/7x7_s2"
}
layer {
  name: "pool1/3x3_s2"
  type: "Pooling"
  bottom: "conv1/7x7_s2"
  top: "pool1/3x3_s2"
  pooling_param {
    pool: MAX
    kernel_size: 3
    stride: 2
  }
}
layer {
  name: "pool1/norm1"
  type: "LRN"
  bottom: "pool1/3x3_s2"
  top: "pool1/norm1"
  lrn_param {
    local_size: 5
    alpha: 0.0001
    beta: 0.75
  }
}
layer {
  name: "conv2/3x3_reduce"
  type: "Convolution"
  bottom: "pool1/norm1"
  top: "conv2/3x3_reduce"
  param {
    lr_mult: 1
    decay_mult: 1
  }
  param {
    lr_mult: 2
    decay_mult: 0
  }
  convolution_param {
    num_output: 64
    kernel_size: 1
    weight_filler {
      type: "xavier"
      std: 0.1
    }
    bias_filler {
      type: "constant"
      value: 0.2
    }
  }
}
layer {
  name: "conv2/relu_3x3_reduce"
  type: "ReLU"
  bottom: "conv2/3x3_reduce"
  top: "conv2/3x3_reduce"
}
layer {
  name: "conv2/3x3"
  type: "Convolution"
  bottom: "conv2/3x3_reduce"
  top: "conv2/3x3"
  param {
    lr_mult: 1
    decay_mult: 1
  }
  param {
    lr_mult: 2
    decay_mult: 0
  }
  convolution_param {
    num_output: 192
    pad: 1
    kernel_size: 3
    weight_filler {
      type: "xavier"
      std: 0.03
    }
    bias_filler {
      type: "constant"
      value: 0.2
    }
  }
}
layer {
  name: "conv2/relu_3x3"
  type: "ReLU"
  bottom: "conv2/3x3"
  top: "conv2/3x3"
}
layer {
  name: "conv2/norm2"
  type: "LRN"
  bottom: "conv2/3x3"
  top: "conv2/norm2"
  lrn_param {
    local_size: 5
    alpha: 0.0001
    beta: 0.75
  }
}
layer {
  name: "pool2/3x3_s2"
  type: "Pooling"
  bottom: "conv2/norm2"
  top: "pool2/3x3_s2"
  pooling_param {
    pool: MAX
    kernel_size: 3
    stride: 2
  }
}
layer {
  name: "inception_3a/1x1"
  type: "Convolution"
  bottom: "pool2/3x3_s2"
  top: "inception_3a/1x1"
  param {
    lr_mult: 1
    decay_mult: 1
  }
  param {
    lr_mult: 2
    decay_mult: 0
  }
  convolution_param {
    num_output: 64
    kernel_size: 1
    weight_filler {
      type: "xavier"
      std: 0.03
    }
    bias_filler {
      type: "constant"
      value: 0.2
    }
  }
}
layer {
  name: "inception_3a/relu_1x1"
  type: "ReLU"
  bottom: "inception_3a/1x1"
  top: "inception_3a/1x1"
}
layer {
  name: "inception_3a/3x3_reduce"
  type: "Convolution"
  bottom: "pool2/3x3_s2"
  top: "inception_3a/3x3_reduce"
  param {
    lr_mult: 1
    decay_mult: 1
  }
  param {
    lr_mult: 2
    decay_mult: 0
  }
  convolution_param {
    num_output: 96
    kernel_size: 1
    weight_filler {
      type: "xavier"
      std: 0.09
    }
    bias_filler {
      type: "constant"
      value: 0.2
    }
  }
}
layer {
  name: "inception_3a/relu_3x3_reduce"
  type: "ReLU"
  bottom: "inception_3a/3x3_reduce"
  top: "inception_3a/3x3_reduce"
}
layer {
  name: "inception_3a/3x3"
  type: "Convolution"
  bottom: "inception_3a/3x3_reduce"
  top: "inception_3a/3x3"
  param {
    lr_mult: 1
    decay_mult: 1
  }
  param {
    lr_mult: 2
    decay_mult: 0
  }
  convolution_param {
    num_output: 128
    pad: 1
    kernel_size: 3
    weight_filler {
      type: "xavier"
      std: 0.03
    }
    bias_filler {
      type: "constant"
      value: 0.2
    }
  }
}
layer {
  name: "inception_3a/relu_3x3"
  type: "ReLU"
  bottom: "inception_3a/3x3"
  top: "inception_3a/3x3"
}
layer {
  name: "inception_3a/5x5_reduce"
  type: "Convolution"
  bottom: "pool2/3x3_s2"
  top: "inception_3a/5x5_reduce"
  param {
    lr_mult: 1
    decay_mult: 1
  }
  param {
    lr_mult: 2
    decay_mult: 0
  }
  convolution_param {
    num_output: 16
    kernel_size: 1
    weight_filler {
      type: "xavier"
      std: 0.2
    }
    bias_filler {
      type: "constant"
      value: 0.2
    }
  }
}
layer {
  name: "inception_3a/relu_5x5_reduce"
  type: "ReLU"
  bottom: "inception_3a/5x5_reduce"
  top: "inception_3a/5x5_reduce"
}
layer {
  name: "inception_3a/5x5"
  type: "Convolution"
  bottom: "inception_3a/5x5_reduce"
  top: "inception_3a/5x5"
  param {
    lr_mult: 1
    decay_mult: 1
  }
  param {
    lr_mult: 2
    decay_mult: 0
  }
  convolution_param {
    num_output: 32
    pad: 2
    kernel_size: 5
    weight_filler {
      type: "xavier"
      std: 0.03
    }
    bias_filler {
      type: "constant"
      value: 0.2
    }
  }
}
layer {
  name: "inception_3a/relu_5x5"
  type: "ReLU"
  bottom: "inception_3a/5x5"
  top: "inception_3a/5x5"
}
layer {
  name: "inception_3a/pool"
  type: "Pooling"
  bottom: "pool2/3x3_s2"
  top: "inception_3a/pool"
  pooling_param {
    pool: MAX
    kernel_size: 3
    stride: 1
    pad: 1
  }
}
layer {
  name: "inception_3a/pool_proj"
  type: "Convolution"
  bottom: "inception_3a/pool"
  top: "inception_3a/pool_proj"
  param {
    lr_mult: 1
    decay_mult: 1
  }
  param {
    lr_mult: 2
    decay_mult: 0
  }
  convolution_param {
    num_output: 32
    kernel_size: 1
    weight_filler {
      type: "xavier"
      std: 0.1
    }
    bias_filler {
      type: "constant"
      value: 0.2
    }
  }
}
layer {
  name: "inception_3a/relu_pool_proj"
  type: "ReLU"
  bottom: "inception_3a/pool_proj"
  top: "inception_3a/pool_proj"
}
layer {
  name: "inception_3a/output"
  type: "Concat"
  bottom: "inception_3a/1x1"
  bottom: "inception_3a/3x3"
  bottom: "inception_3a/5x5"
  bottom: "inception_3a/pool_proj"
  top: "inception_3a/output"
}
layer {
  name: "inception_3b/1x1"
  type: "Convolution"
  bottom: "inception_3a/output"
  top: "inception_3b/1x1"
  param {
    lr_mult: 1
    decay_mult: 1
  }
  param {
    lr_mult: 2
    decay_mult: 0
  }
  convolution_param {
    num_output: 128
    kernel_size: 1
    weight_filler {
      type: "xavier"
      std: 0.03
    }
    bias_filler {
      type: "constant"
      value: 0.2
    }
  }
}
layer {
  name: "inception_3b/relu_1x1"
  type: "ReLU"
  bottom: "inception_3b/1x1"
  top: "inception_3b/1x1"
}
layer {
  name: "inception_3b/3x3_reduce"
  type: "Convolution"
  bottom: "inception_3a/output"
  top: "inception_3b/3x3_reduce"
  param {
    lr_mult: 1
    decay_mult: 1
  }
  param {
    lr_mult: 2
    decay_mult: 0
  }
  convolution_param {
    num_output: 128
    kernel_size: 1
    weight_filler {
      type: "xavier"
      std: 0.09
    }
    bias_filler {
      type: "constant"
      value: 0.2
    }
  }
}
layer {
  name: "inception_3b/relu_3x3_reduce"
  type: "ReLU"
  bottom: "inception_3b/3x3_reduce"
  top: "inception_3b/3x3_reduce"
}
layer {
  name: "inception_3b/3x3"
  type: "Convolution"
  bottom: "inception_3b/3x3_reduce"
  top: "inception_3b/3x3"
  param {
    lr_mult: 1
    decay_mult: 1
  }
  param {
    lr_mult: 2
    decay_mult: 0
  }
  convolution_param {
    num_output: 192
    pad: 1
    kernel_size: 3
    weight_filler {
      type: "xavier"
      std: 0.03
    }
    bias_filler {
      type: "constant"
      value: 0.2
    }
  }
}
layer {
  name: "inception_3b/relu_3x3"
  type: "ReLU"
  bottom: "inception_3b/3x3"
  top: "inception_3b/3x3"
}
layer {
  name: "inception_3b/5x5_reduce"
  type: "Convolution"
  bottom: "inception_3a/output"
  top: "inception_3b/5x5_reduce"
  param {
    lr_mult: 1
    decay_mult: 1
  }
  param {
    lr_mult: 2
    decay_mult: 0
  }
  convolution_param {
    num_output: 32
    kernel_size: 1
    weight_filler {
      type: "xavier"
      std: 0.2
    }
    bias_filler {
      type: "constant"
      value: 0.2
    }
  }
}
layer {
  name: "inception_3b/relu_5x5_reduce"
  type: "ReLU"
  bottom: "inception_3b/5x5_reduce"
  top: "inception_3b/5x5_reduce"
}
layer {
  name: "inception_3b/5x5"
  type: "Convolution"
  bottom: "inception_3b/5x5_reduce"
  top: "inception_3b/5x5"
  param {
    lr_mult: 1
    decay_mult: 1
  }
  param {
    lr_mult: 2
    decay_mult: 0
  }
  convolution_param {
    num_output: 96
    pad: 2
    kernel_size: 5
    weight_filler {
      type: "xavier"
      std: 0.03
    }
    bias_filler {
      type: "constant"
      value: 0.2
    }
  }
}
layer {
  name: "inception_3b/relu_5x5"
  type: "ReLU"
  bottom: "inception_3b/5x5"
  top: "inception_3b/5x5"
}
layer {
  name: "inception_3b/pool"
  type: "Pooling"
  bottom: "inception_3a/output"
  top: "inception_3b/pool"
  pooling_param {
    pool: MAX
    kernel_size: 3
    stride: 1
    pad: 1
  }
}
layer {
  name: "inception_3b/pool_proj"
  type: "Convolution"
  bottom: "inception_3b/pool"
  top: "inception_3b/pool_proj"
  param {
    lr_mult: 1
    decay_mult: 1
  }
  param {
    lr_mult: 2
    decay_mult: 0
  }
  convolution_param {
    num_output: 64
    kernel_size: 1
    weight_filler {
      type: "xavier"
      std: 0.1
    }
    bias_filler {
      type: "constant"
      value: 0.2
    }
  }
}
layer {
  name: "inception_3b/relu_pool_proj"
  type: "ReLU"
  bottom: "inception_3b/pool_proj"
  top: "inception_3b/pool_proj"
}
layer {
  name: "inception_3b/output"
  type: "Concat"
  bottom: "inception_3b/1x1"
  bottom: "inception_3b/3x3"
  bottom: "inception_3b/5x5"
  bottom: "inception_3b/pool_proj"
  top: "inception_3b/output"
}
layer {
  name: "pool3/3x3_s2"
  type: "Pooling"
  bottom: "inception_3b/output"
  top: "pool3/3x3_s2"
  pooling_param {
    pool: MAX
    kernel_size: 3
    stride: 2
  }
}
layer {
  name: "inception_4a/1x1"
  type: "Convolution"
  bottom: "pool3/3x3_s2"
  top: "inception_4a/1x1"
  param {
    lr_mult: 1
    decay_mult: 1
  }
  param {
    lr_mult: 2
    decay_mult: 0
  }
  convolution_param {
    num_output: 192
    kernel_size: 1
    weight_filler {
      type: "xavier"
      std: 0.03
    }
    bias_filler {
      type: "constant"
      value: 0.2
    }
  }
}
layer {
  name: "inception_4a/relu_1x1"
  type: "ReLU"
  bottom: "inception_4a/1x1"
  top: "inception_4a/1x1"
}
layer {
  name: "inception_4a/3x3_reduce"
  type: "Convolution"
  bottom: "pool3/3x3_s2"
  top: "inception_4a/3x3_reduce"
  param {
    lr_mult: 1
    decay_mult: 1
  }
  param {
    lr_mult: 2
    decay_mult: 0
  }
  convolution_param {
    num_output: 96
    kernel_size: 1
    weight_filler {
      type: "xavier"
      std: 0.09
    }
    bias_filler {
      type: "constant"
      value: 0.2
    }
  }
}
layer {
  name: "inception_4a/relu_3x3_reduce"
  type: "ReLU"
  bottom: "inception_4a/3x3_reduce"
  top: "inception_4a/3x3_reduce"
}
layer {
  name: "inception_4a/3x3"
  type: "Convolution"
  bottom: "inception_4a/3x3_reduce"
  top: "inception_4a/3x3"
  param {
    lr_mult: 1
    decay_mult: 1
  }
  param {
    lr_mult: 2
    decay_mult: 0
  }
  convolution_param {
    num_output: 208
    pad: 1
    kernel_size: 3
    weight_filler {
      type: "xavier"
      std: 0.03
    }
    bias_filler {
      type: "constant"
      value: 0.2
    }
  }
}
layer {
  name: "inception_4a/relu_3x3"
  type: "ReLU"
  bottom: "inception_4a/3x3"
  top: "inception_4a/3x3"
}
layer {
  name: "inception_4a/5x5_reduce"
  type: "Convolution"
  bottom: "pool3/3x3_s2"
  top: "inception_4a/5x5_reduce"
  param {
    lr_mult: 1
    decay_mult: 1
  }
  param {
    lr_mult: 2
    decay_mult: 0
  }
  convolution_param {
    num_output: 16
    kernel_size: 1
    weight_filler {
      type: "xavier"
      std: 0.2
    }
    bias_filler {
      type: "constant"
      value: 0.2
    }
  }
}
layer {
  name: "inception_4a/relu_5x5_reduce"
  type: "ReLU"
  bottom: "inception_4a/5x5_reduce"
  top: "inception_4a/5x5_reduce"
}
layer {
  name: "inception_4a/5x5"
  type: "Convolution"
  bottom: "inception_4a/5x5_reduce"
  top: "inception_4a/5x5"
  param {
    lr_mult: 1
    decay_mult: 1
  }
  param {
    lr_mult: 2
    decay_mult: 0
  }
  convolution_param {
    num_output: 48
    pad: 2
    kernel_size: 5
    weight_filler {
      type: "xavier"
      std: 0.03
    }
    bias_filler {
      type: "constant"
      value: 0.2
    }
  }
}
layer {
  name: "inception_4a/relu_5x5"
  type: "ReLU"
  bottom: "inception_4a/5x5"
  top: "inception_4a/5x5"
}
layer {
  name: "inception_4a/pool"
  type: "Pooling"
  bottom: "pool3/3x3_s2"
  top: "inception_4a/pool"
  pooling_param {
    pool: MAX
    kernel_size: 3
    stride: 1
    pad: 1
  }
}
layer {
  name: "inception_4a/pool_proj"
  type: "Convolution"
  bottom: "inception_4a/pool"
  top: "inception_4a/pool_proj"
  param {
    lr_mult: 1
    decay_mult: 1
  }
  param {
    lr_mult: 2
    decay_mult: 0
  }
  convolution_param {
    num_output: 64
    kernel_size: 1
    weight_filler {
      type: "xavier"
      std: 0.1
    }
    bias_filler {
      type: "constant"
      value: 0.2
    }
  }
}
layer {
  name: "inception_4a/relu_pool_proj"
  type: "ReLU"
  bottom: "inception_4a/pool_proj"
  top: "inception_4a/pool_proj"
}
layer {
  name: "inception_4a/output"
  type: "Concat"
  bottom: "inception_4a/1x1"
  bottom: "inception_4a/3x3"
  bottom: "inception_4a/5x5"
  bottom: "inception_4a/pool_proj"
  top: "inception_4a/output"
}
layer {
  name: "loss1/ave_pool"
  type: "Pooling"
  bottom: "inception_4a/output"
  top: "loss1/ave_pool"
  pooling_param {
    pool: AVE
    kernel_size: 5
    stride: 3
  }
}
layer {
  name: "loss1/conv"
  type: "Convolution"
  bottom: "loss1/ave_pool"
  top: "loss1/conv"
  param {
    lr_mult: 1
    decay_mult: 1
  }
  param {
    lr_mult: 2
    decay_mult: 0
  }
  convolution_param {
    num_output: 128
    kernel_size: 1
    weight_filler {
      type: "xavier"
      std: 0.08
    }
    bias_filler {
      type: "constant"
      value: 0.2
    }
  }
}
layer {
  name: "loss1/relu_conv"
  type: "ReLU"
  bottom: "loss1/conv"
  top: "loss1/conv"
}
layer {
  name: "loss1/fc"
  type: "InnerProduct"
  bottom: "loss1/conv"
  top: "loss1/fc"
  param {
    lr_mult: 1
    decay_mult: 1
  }
  param {
    lr_mult: 2
    decay_mult: 0
  }
  inner_product_param {
    num_output: 1024
    weight_filler {
      type: "xavier"
      std: 0.02
    }
    bias_filler {
      type: "constant"
      value: 0.2
    }
  }
}
layer {
  name: "loss1/relu_fc"
  type: "ReLU"
  bottom: "loss1/fc"
  top: "loss1/fc"
}
layer {
  name: "loss1/drop_fc"
  type: "Dropout"
  bottom: "loss1/fc"
  top: "loss1/fc"
  dropout_param {
    dropout_ratio: 0.7
  }
}
layer {
  name: "loss1/classifier_plantvillage"
  type: "InnerProduct"
  bottom: "loss1/fc"
  top: "loss1/classifier_plantvillage"
  param {
    lr_mult: 1
    decay_mult: 1
  }
  param {
    lr_mult: 2
    decay_mult: 0
  }
  inner_product_param {
    num_output: 38
    weight_filler {
      type: "xavier"
      std: 0.0009765625
    }
    bias_filler {
      type: "constant"
      value: 0
    }
  }
}
layer {
  name: "inception_4b/1x1"
  type: "Convolution"
  bottom: "inception_4a/output"
  top: "inception_4b/1x1"
  param {
    lr_mult: 1
    decay_mult: 1
  }
  param {
    lr_mult: 2
    decay_mult: 0
  }
  convolution_param {
    num_output: 160
    kernel_size: 1
    weight_filler {
      type: "xavier"
      std: 0.03
    }
    bias_filler {
      type: "constant"
      value: 0.2
    }
  }
}
layer {
  name: "inception_4b/relu_1x1"
  type: "ReLU"
  bottom: "inception_4b/1x1"
  top: "inception_4b/1x1"
}
layer {
  name: "inception_4b/3x3_reduce"
  type: "Convolution"
  bottom: "inception_4a/output"
  top: "inception_4b/3x3_reduce"
  param {
    lr_mult: 1
    decay_mult: 1
  }
  param {
    lr_mult: 2
    decay_mult: 0
  }
  convolution_param {
    num_output: 112
    kernel_size: 1
    weight_filler {
      type: "xavier"
      std: 0.09
    }
    bias_filler {
      type: "constant"
      value: 0.2
    }
  }
}
layer {
  name: "inception_4b/relu_3x3_reduce"
  type: "ReLU"
  bottom: "inception_4b/3x3_reduce"
  top: "inception_4b/3x3_reduce"
}
layer {
  name: "inception_4b/3x3"
  type: "Convolution"
  bottom: "inception_4b/3x3_reduce"
  top: "inception_4b/3x3"
  param {
    lr_mult: 1
    decay_mult: 1
  }
  param {
    lr_mult: 2
    decay_mult: 0
  }
  convolution_param {
    num_output: 224
    pad: 1
    kernel_size: 3
    weight_filler {
      type: "xavier"
      std: 0.03
    }
    bias_filler {
      type: "constant"
      value: 0.2
    }
  }
}
layer {
  name: "inception_4b/relu_3x3"
  type: "ReLU"
  bottom: "inception_4b/3x3"
  top: "inception_4b/3x3"
}
layer {
  name: "inception_4b/5x5_reduce"
  type: "Convolution"
  bottom: "inception_4a/output"
  top: "inception_4b/5x5_reduce"
  param {
    lr_mult: 1
    decay_mult: 1
  }
  param {
    lr_mult: 2
    decay_mult: 0
  }
  convolution_param {
    num_output: 24
    kernel_size: 1
    weight_filler {
      type: "xavier"
      std: 0.2
    }
    bias_filler {
      type: "constant"
      value: 0.2
    }
  }
}
layer {
  name: "inception_4b/relu_5x5_reduce"
  type: "ReLU"
  bottom: "inception_4b/5x5_reduce"
  top: "inception_4b/5x5_reduce"
}
layer {
  name: "inception_4b/5x5"
  type: "Convolution"
  bottom: "inception_4b/5x5_reduce"
  top: "inception_4b/5x5"
  param {
    lr_mult: 1
    decay_mult: 1
  }
  param {
    lr_mult: 2
    decay_mult: 0
  }
  convolution_param {
    num_output: 64
    pad: 2
    kernel_size: 5
    weight_filler {
      type: "xavier"
      std: 0.03
    }
    bias_filler {
      type: "constant"
      value: 0.2
    }
  }
}
layer {
  name: "inception_4b/relu_5x5"
  type: "ReLU"
  bottom: "inception_4b/5x5"
  top: "inception_4b/5x5"
}
layer {
  name: "inception_4b/pool"
  type: "Pooling"
  bottom: "inception_4a/output"
  top: "inception_4b/pool"
  pooling_param {
    pool: MAX
    kernel_size: 3
    stride: 1
    pad: 1
  }
}
layer {
  name: "inception_4b/pool_proj"
  type: "Convolution"
  bottom: "inception_4b/pool"
  top: "inception_4b/pool_proj"
  param {
    lr_mult: 1
    decay_mult: 1
  }
  param {
    lr_mult: 2
    decay_mult: 0
  }
  convolution_param {
    num_output: 64
    kernel_size: 1
    weight_filler {
      type: "xavier"
      std: 0.1
    }
    bias_filler {
      type: "constant"
      value: 0.2
    }
  }
}
layer {
  name: "inception_4b/relu_pool_proj"
  type: "ReLU"
  bottom: "inception_4b/pool_proj"
  top: "inception_4b/pool_proj"
}
layer {
  name: "inception_4b/output"
  type: "Concat"
  bottom: "inception_4b/1x1"
  bottom: "inception_4b/3x3"
  bottom: "inception_4b/5x5"
  bottom: "inception_4b/pool_proj"
  top: "inception_4b/output"
}
layer {
  name: "inception_4c/1x1"
  type: "Convolution"
  bottom: "inception_4b/output"
  top: "inception_4c/1x1"
  param {
    lr_mult: 1
    decay_mult: 1
  }
  param {
    lr_mult: 2
    decay_mult: 0
  }
  convolution_param {
    num_output: 128
    kernel_size: 1
    weight_filler {
      type: "xavier"
      std: 0.03
    }
    bias_filler {
      type: "constant"
      value: 0.2
    }
  }
}
layer {
  name: "inception_4c/relu_1x1"
  type: "ReLU"
  bottom: "inception_4c/1x1"
  top: "inception_4c/1x1"
}
layer {
  name: "inception_4c/3x3_reduce"
  type: "Convolution"
  bottom: "inception_4b/output"
  top: "inception_4c/3x3_reduce"
  param {
    lr_mult: 1
    decay_mult: 1
  }
  param {
    lr_mult: 2
    decay_mult: 0
  }
  convolution_param {
    num_output: 128
    kernel_size: 1
    weight_filler {
      type: "xavier"
      std: 0.09
    }
    bias_filler {
      type: "constant"
      value: 0.2
    }
  }
}
layer {
  name: "inception_4c/relu_3x3_reduce"
  type: "ReLU"
  bottom: "inception_4c/3x3_reduce"
  top: "inception_4c/3x3_reduce"
}
layer {
  name: "inception_4c/3x3"
  type: "Convolution"
  bottom: "inception_4c/3x3_reduce"
  top: "inception_4c/3x3"
  param {
    lr_mult: 1
    decay_mult: 1
  }
  param {
    lr_mult: 2
    decay_mult: 0
  }
  convolution_param {
    num_output: 256
    pad: 1
    kernel_size: 3
    weight_filler {
      type: "xavier"
      std: 0.03
    }
    bias_filler {
      type: "constant"
      value: 0.2
    }
  }
}
layer {
  name: "inception_4c/relu_3x3"
  type: "ReLU"
  bottom: "inception_4c/3x3"
  top: "inception_4c/3x3"
}
layer {
  name: "inception_4c/5x5_reduce"
  type: "Convolution"
  bottom: "inception_4b/output"
  top: "inception_4c/5x5_reduce"
  param {
    lr_mult: 1
    decay_mult: 1
  }
  param {
    lr_mult: 2
    decay_mult: 0
  }
  convolution_param {
    num_output: 24
    kernel_size: 1
    weight_filler {
      type: "xavier"
      std: 0.2
    }
    bias_filler {
      type: "constant"
      value: 0.2
    }
  }
}
layer {
  name: "inception_4c/relu_5x5_reduce"
  type: "ReLU"
  bottom: "inception_4c/5x5_reduce"
  top: "inception_4c/5x5_reduce"
}
layer {
  name: "inception_4c/5x5"
  type: "Convolution"
  bottom: "inception_4c/5x5_reduce"
  top: "inception_4c/5x5"
  param {
    lr_mult: 1
    decay_mult: 1
  }
  param {
    lr_mult: 2
    decay_mult: 0
  }
  convolution_param {
    num_output: 64
    pad: 2
    kernel_size: 5
    weight_filler {
      type: "xavier"
      std: 0.03
    }
    bias_filler {
      type: "constant"
      value: 0.2
    }
  }
}
layer {
  name: "inception_4c/relu_5x5"
  type: "ReLU"
  bottom: "inception_4c/5x5"
  top: "inception_4c/5x5"
}
layer {
  name: "inception_4c/pool"
  type: "Pooling"
  bottom: "inception_4b/output"
  top: "inception_4c/pool"
  pooling_param {
    pool: MAX
    kernel_size: 3
    stride: 1
    pad: 1
  }
}
layer {
  name: "inception_4c/pool_proj"
  type: "Convolution"
  bottom: "inception_4c/pool"
  top: "inception_4c/pool_proj"
  param {
    lr_mult: 1
    decay_mult: 1
  }
  param {
    lr_mult: 2
    decay_mult: 0
  }
  convolution_param {
    num_output: 64
    kernel_size: 1
    weight_filler {
      type: "xavier"
      std: 0.1
    }
    bias_filler {
      type: "constant"
      value: 0.2
    }
  }
}
layer {
  name: "inception_4c/relu_pool_proj"
  type: "ReLU"
  bottom: "inception_4c/pool_proj"
  top: "inception_4c/pool_proj"
}
layer {
  name: "inception_4c/output"
  type: "Concat"
  bottom: "inception_4c/1x1"
  bottom: "inception_4c/3x3"
  bottom: "inception_4c/5x5"
  bottom: "inception_4c/pool_proj"
  top: "inception_4c/output"
}
layer {
  name: "inception_4d/1x1"
  type: "Convolution"
  bottom: "inception_4c/output"
  top: "inception_4d/1x1"
  param {
    lr_mult: 1
    decay_mult: 1
  }
  param {
    lr_mult: 2
    decay_mult: 0
  }
  convolution_param {
    num_output: 112
    kernel_size: 1
    weight_filler {
      type: "xavier"
      std: 0.03
    }
    bias_filler {
      type: "constant"
      value: 0.2
    }
  }
}
layer {
  name: "inception_4d/relu_1x1"
  type: "ReLU"
  bottom: "inception_4d/1x1"
  top: "inception_4d/1x1"
}
layer {
  name: "inception_4d/3x3_reduce"
  type: "Convolution"
  bottom: "inception_4c/output"
  top: "inception_4d/3x3_reduce"
  param {
    lr_mult: 1
    decay_mult: 1
  }
  param {
    lr_mult: 2
    decay_mult: 0
  }
  convolution_param {
    num_output: 144
    kernel_size: 1
    weight_filler {
      type: "xavier"
      std: 0.09
    }
    bias_filler {
      type: "constant"
      value: 0.2
    }
  }
}
layer {
  name: "inception_4d/relu_3x3_reduce"
  type: "ReLU"
  bottom: "inception_4d/3x3_reduce"
  top: "inception_4d/3x3_reduce"
}
layer {
  name: "inception_4d/3x3"
  type: "Convolution"
  bottom: "inception_4d/3x3_reduce"
  top: "inception_4d/3x3"
  param {
    lr_mult: 1
    decay_mult: 1
  }
  param {
    lr_mult: 2
    decay_mult: 0
  }
  convolution_param {
    num_output: 288
    pad: 1
    kernel_size: 3
    weight_filler {
      type: "xavier"
      std: 0.03
    }
    bias_filler {
      type: "constant"
      value: 0.2
    }
  }
}
layer {
  name: "inception_4d/relu_3x3"
  type: "ReLU"
  bottom: "inception_4d/3x3"
  top: "inception_4d/3x3"
}
layer {
  name: "inception_4d/5x5_reduce"
  type: "Convolution"
  bottom: "inception_4c/output"
  top: "inception_4d/5x5_reduce"
  param {
    lr_mult: 1
    decay_mult: 1
  }
  param {
    lr_mult: 2
    decay_mult: 0
  }
  convolution_param {
    num_output: 32
    kernel_size: 1
    weight_filler {
      type: "xavier"
      std: 0.2
    }
    bias_filler {
      type: "constant"
      value: 0.2
    }
  }
}
layer {
  name: "inception_4d/relu_5x5_reduce"
  type: "ReLU"
  bottom: "inception_4d/5x5_reduce"
  top: "inception_4d/5x5_reduce"
}
layer {
  name: "inception_4d/5x5"
  type: "Convolution"
  bottom: "inception_4d/5x5_reduce"
  top: "inception_4d/5x5"
  param {
    lr_mult: 1
    decay_mult: 1
  }
  param {
    lr_mult: 2
    decay_mult: 0
  }
  convolution_param {
    num_output: 64
    pad: 2
    kernel_size: 5
    weight_filler {
      type: "xavier"
      std: 0.03
    }
    bias_filler {
      type: "constant"
      value: 0.2
    }
  }
}
layer {
  name: "inception_4d/relu_5x5"
  type: "ReLU"
  bottom: "inception_4d/5x5"
  top: "inception_4d/5x5"
}
layer {
  name: "inception_4d/pool"
  type: "Pooling"
  bottom: "inception_4c/output"
  top: "inception_4d/pool"
  pooling_param {
    pool: MAX
    kernel_size: 3
    stride: 1
    pad: 1
  }
}
layer {
  name: "inception_4d/pool_proj"
  type: "Convolution"
  bottom: "inception_4d/pool"
  top: "inception_4d/pool_proj"
  param {
    lr_mult: 1
    decay_mult: 1
  }
  param {
    lr_mult: 2
    decay_mult: 0
  }
  convolution_param {
    num_output: 64
    kernel_size: 1
    weight_filler {
      type: "xavier"
      std: 0.1
    }
    bias_filler {
      type: "constant"
      value: 0.2
    }
  }
}
layer {
  name: "inception_4d/relu_pool_proj"
  type: "ReLU"
  bottom: "inception_4d/pool_proj"
  top: "inception_4d/pool_proj"
}
layer {
  name: "inception_4d/output"
  type: "Concat"
  bottom: "inception_4d/1x1"
  bottom: "inception_4d/3x3"
  bottom: "inception_4d/5x5"
  bottom: "inception_4d/pool_proj"
  top: "inception_4d/output"
}
layer {
  name: "loss2/ave_pool"
  type: "Pooling"
  bottom: "inception_4d/output"
  top: "loss2/ave_pool"
  pooling_param {
    pool: AVE
    kernel_size: 5
    stride: 3
  }
}
layer {
  name: "loss2/conv"
  type: "Convolution"
  bottom: "loss2/ave_pool"
  top: "loss2/conv"
  param {
    lr_mult: 1
    decay_mult: 1
  }
  param {
    lr_mult: 2
    decay_mult: 0
  }
  convolution_param {
    num_output: 128
    kernel_size: 1
    weight_filler {
      type: "xavier"
      std: 0.08
    }
    bias_filler {
      type: "constant"
      value: 0.2
    }
  }
}
layer {
  name: "loss2/relu_conv"
  type: "ReLU"
  bottom: "loss2/conv"
  top: "loss2/conv"
}
layer {
  name: "loss2/fc"
  type: "InnerProduct"
  bottom: "loss2/conv"
  top: "loss2/fc"
  param {
    lr_mult: 1
    decay_mult: 1
  }
  param {
    lr_mult: 2
    decay_mult: 0
  }
  inner_product_param {
    num_output: 1024
    weight_filler {
      type: "xavier"
      std: 0.02
    }
    bias_filler {
      type: "constant"
      value: 0.2
    }
  }
}
layer {
  name: "loss2/relu_fc"
  type: "ReLU"
  bottom: "loss2/fc"
  top: "loss2/fc"
}
layer {
  name: "loss2/drop_fc"
  type: "Dropout"
  bottom: "loss2/fc"
  top: "loss2/fc"
  dropout_param {
    dropout_ratio: 0.7
  }
}
layer {
  name: "loss2/classifier_plantvillage"
  type: "InnerProduct"
  bottom: "loss2/fc"
  top: "loss2/classifier_plantvillage"
  param {
    lr_mult: 1
    decay_mult: 1
  }
  param {
    lr_mult: 2
    decay_mult: 0
  }
  inner_product_param {
    num_output: 38
    weight_filler {
      type: "xavier"
      std: 0.0009765625
    }
    bias_filler {
      type: "constant"
      value: 0
    }
  }
}
layer {
  name: "inception_4e/1x1"
  type: "Convolution"
  bottom: "inception_4d/output"
  top: "inception_4e/1x1"
  param {
    lr_mult: 1
    decay_mult: 1
  }
  param {
    lr_mult: 2
    decay_mult: 0
  }
  convolution_param {
    num_output: 256
    kernel_size: 1
    weight_filler {
      type: "xavier"
      std: 0.03
    }
    bias_filler {
      type: "constant"
      value: 0.2
    }
  }
}
layer {
  name: "inception_4e/relu_1x1"
  type: "ReLU"
  bottom: "inception_4e/1x1"
  top: "inception_4e/1x1"
}
layer {
  name: "inception_4e/3x3_reduce"
  type: "Convolution"
  bottom: "inception_4d/output"
  top: "inception_4e/3x3_reduce"
  param {
    lr_mult: 1
    decay_mult: 1
  }
  param {
    lr_mult: 2
    decay_mult: 0
  }
  convolution_param {
    num_output: 160
    kernel_size: 1
    weight_filler {
      type: "xavier"
      std: 0.09
    }
    bias_filler {
      type: "constant"
      value: 0.2
    }
  }
}
layer {
  name: "inception_4e/relu_3x3_reduce"
  type: "ReLU"
  bottom: "inception_4e/3x3_reduce"
  top: "inception_4e/3x3_reduce"
}
layer {
  name: "inception_4e/3x3"
  type: "Convolution"
  bottom: "inception_4e/3x3_reduce"
  top: "inception_4e/3x3"
  param {
    lr_mult: 1
    decay_mult: 1
  }
  param {
    lr_mult: 2
    decay_mult: 0
  }
  convolution_param {
    num_output: 320
    pad: 1
    kernel_size: 3
    weight_filler {
      type: "xavier"
      std: 0.03
    }
    bias_filler {
      type: "constant"
      value: 0.2
    }
  }
}
layer {
  name: "inception_4e/relu_3x3"
  type: "ReLU"
  bottom: "inception_4e/3x3"
  top: "inception_4e/3x3"
}
layer {
  name: "inception_4e/5x5_reduce"
  type: "Convolution"
  bottom: "inception_4d/output"
  top: "inception_4e/5x5_reduce"
  param {
    lr_mult: 1
    decay_mult: 1
  }
  param {
    lr_mult: 2
    decay_mult: 0
  }
  convolution_param {
    num_output: 32
    kernel_size: 1
    weight_filler {
      type: "xavier"
      std: 0.2
    }
    bias_filler {
      type: "constant"
      value: 0.2
    }
  }
}
layer {
  name: "inception_4e/relu_5x5_reduce"
  type: "ReLU"
  bottom: "inception_4e/5x5_reduce"
  top: "inception_4e/5x5_reduce"
}
layer {
  name: "inception_4e/5x5"
  type: "Convolution"
  bottom: "inception_4e/5x5_reduce"
  top: "inception_4e/
I0403 16:08:17.029273 17125 layer_factory.hpp:77] Creating layer data
I0403 16:08:17.029860 17125 net.cpp:91] Creating Layer data
I0403 16:08:17.029891 17125 net.cpp:399] data -> data
I0403 16:08:17.029939 17125 net.cpp:399] data -> label
I0403 16:08:17.029974 17125 data_transformer.cpp:25] Loading mean file from: /home/mohanty/data/final_dataset/lmdb/segmented-20-80/mean.binaryproto
I0403 16:08:17.031092 17129 db_lmdb.cpp:38] Opened lmdb /home/mohanty/data/final_dataset/lmdb/segmented-20-80/test_db
I0403 16:08:17.042341 17125 data_layer.cpp:41] output data size: 24,3,224,224
I0403 16:08:17.068969 17125 net.cpp:141] Setting up data
I0403 16:08:17.069044 17125 net.cpp:148] Top shape: 24 3 224 224 (3612672)
I0403 16:08:17.069066 17125 net.cpp:148] Top shape: 24 (24)
I0403 16:08:17.069080 17125 net.cpp:156] Memory required for data: 14450784
I0403 16:08:17.069108 17125 layer_factory.hpp:77] Creating layer label_data_1_split
I0403 16:08:17.069133 17125 net.cpp:91] Creating Layer label_data_1_split
I0403 16:08:17.069149 17125 net.cpp:425] label_data_1_split <- label
I0403 16:08:17.069180 17125 net.cpp:399] label_data_1_split -> label_data_1_split_0
I0403 16:08:17.069207 17125 net.cpp:399] label_data_1_split -> label_data_1_split_1
I0403 16:08:17.069227 17125 net.cpp:399] label_data_1_split -> label_data_1_split_2
I0403 16:08:17.069247 17125 net.cpp:399] label_data_1_split -> label_data_1_split_3
I0403 16:08:17.069267 17125 net.cpp:399] label_data_1_split -> label_data_1_split_4
I0403 16:08:17.069285 17125 net.cpp:399] label_data_1_split -> label_data_1_split_5
I0403 16:08:17.069303 17125 net.cpp:399] label_data_1_split -> label_data_1_split_6
I0403 16:08:17.069322 17125 net.cpp:399] label_data_1_split -> label_data_1_split_7
I0403 16:08:17.069340 17125 net.cpp:399] label_data_1_split -> label_data_1_split_8
I0403 16:08:17.069358 17125 net.cpp:399] label_data_1_split -> label_data_1_split_9
I0403 16:08:17.069468 17125 net.cpp:141] Setting up label_data_1_split
I0403 16:08:17.069489 17125 net.cpp:148] Top shape: 24 (24)
I0403 16:08:17.069504 17125 net.cpp:148] Top shape: 24 (24)
I0403 16:08:17.069519 17125 net.cpp:148] Top shape: 24 (24)
I0403 16:08:17.069535 17125 net.cpp:148] Top shape: 24 (24)
I0403 16:08:17.069550 17125 net.cpp:148] Top shape: 24 (24)
I0403 16:08:17.069563 17125 net.cpp:148] Top shape: 24 (24)
I0403 16:08:17.069577 17125 net.cpp:148] Top shape: 24 (24)
I0403 16:08:17.069592 17125 net.cpp:148] Top shape: 24 (24)
I0403 16:08:17.069612 17125 net.cpp:148] Top shape: 24 (24)
I0403 16:08:17.069628 17125 net.cpp:148] Top shape: 24 (24)
I0403 16:08:17.069677 17125 net.cpp:156] Memory required for data: 14451744
I0403 16:08:17.069692 17125 layer_factory.hpp:77] Creating layer conv1/7x7_s2
I0403 16:08:17.069722 17125 net.cpp:91] Creating Layer conv1/7x7_s2
I0403 16:08:17.069739 17125 net.cpp:425] conv1/7x7_s2 <- data
I0403 16:08:17.069758 17125 net.cpp:399] conv1/7x7_s2 -> conv1/7x7_s2
I0403 16:08:17.203177 17125 net.cpp:141] Setting up conv1/7x7_s2
I0403 16:08:17.203235 17125 net.cpp:148] Top shape: 24 64 112 112 (19267584)
I0403 16:08:17.203253 17125 net.cpp:156] Memory required for data: 91522080
I0403 16:08:17.203280 17125 layer_factory.hpp:77] Creating layer conv1/relu_7x7
I0403 16:08:17.203307 17125 net.cpp:91] Creating Layer conv1/relu_7x7
I0403 16:08:17.203323 17125 net.cpp:425] conv1/relu_7x7 <- conv1/7x7_s2
I0403 16:08:17.203341 17125 net.cpp:386] conv1/relu_7x7 -> conv1/7x7_s2 (in-place)
I0403 16:08:17.203584 17125 net.cpp:141] Setting up conv1/relu_7x7
I0403 16:08:17.203614 17125 net.cpp:148] Top shape: 24 64 112 112 (19267584)
I0403 16:08:17.203629 17125 net.cpp:156] Memory required for data: 168592416
I0403 16:08:17.203644 17125 layer_factory.hpp:77] Creating layer pool1/3x3_s2
I0403 16:08:17.203666 17125 net.cpp:91] Creating Layer pool1/3x3_s2
I0403 16:08:17.203683 17125 net.cpp:425] pool1/3x3_s2 <- conv1/7x7_s2
I0403 16:08:17.203701 17125 net.cpp:399] pool1/3x3_s2 -> pool1/3x3_s2
I0403 16:08:17.203769 17125 net.cpp:141] Setting up pool1/3x3_s2
I0403 16:08:17.203791 17125 net.cpp:148] Top shape: 24 64 56 56 (4816896)
I0403 16:08:17.203805 17125 net.cpp:156] Memory required for data: 187860000
I0403 16:08:17.203819 17125 layer_factory.hpp:77] Creating layer pool1/norm1
I0403 16:08:17.203842 17125 net.cpp:91] Creating Layer pool1/norm1
I0403 16:08:17.203858 17125 net.cpp:425] pool1/norm1 <- pool1/3x3_s2
I0403 16:08:17.203874 17125 net.cpp:399] pool1/norm1 -> pool1/norm1
I0403 16:08:17.204138 17125 net.cpp:141] Setting up pool1/norm1
I0403 16:08:17.204164 17125 net.cpp:148] Top shape: 24 64 56 56 (4816896)
I0403 16:08:17.204179 17125 net.cpp:156] Memory required for data: 207127584
I0403 16:08:17.204192 17125 layer_factory.hpp:77] Creating layer conv2/3x3_reduce
I0403 16:08:17.204215 17125 net.cpp:91] Creating Layer conv2/3x3_reduce
I0403 16:08:17.204229 17125 net.cpp:425] conv2/3x3_reduce <- pool1/norm1
I0403 16:08:17.204246 17125 net.cpp:399] conv2/3x3_reduce -> conv2/3x3_reduce
I0403 16:08:17.205485 17125 net.cpp:141] Setting up conv2/3x3_reduce
I0403 16:08:17.205513 17125 net.cpp:148] Top shape: 24 64 56 56 (4816896)
I0403 16:08:17.205528 17125 net.cpp:156] Memory required for data: 226395168
I0403 16:08:17.205549 17125 layer_factory.hpp:77] Creating layer conv2/relu_3x3_reduce
I0403 16:08:17.205565 17125 net.cpp:91] Creating Layer conv2/relu_3x3_reduce
I0403 16:08:17.205580 17125 net.cpp:425] conv2/relu_3x3_reduce <- conv2/3x3_reduce
I0403 16:08:17.205596 17125 net.cpp:386] conv2/relu_3x3_reduce -> conv2/3x3_reduce (in-place)
I0403 16:08:17.205839 17125 net.cpp:141] Setting up conv2/relu_3x3_reduce
I0403 16:08:17.205864 17125 net.cpp:148] Top shape: 24 64 56 56 (4816896)
I0403 16:08:17.205878 17125 net.cpp:156] Memory required for data: 245662752
I0403 16:08:17.205893 17125 layer_factory.hpp:77] Creating layer conv2/3x3
I0403 16:08:17.205914 17125 net.cpp:91] Creating Layer conv2/3x3
I0403 16:08:17.205929 17125 net.cpp:425] conv2/3x3 <- conv2/3x3_reduce
I0403 16:08:17.205945 17125 net.cpp:399] conv2/3x3 -> conv2/3x3
I0403 16:08:17.208019 17125 net.cpp:141] Setting up conv2/3x3
I0403 16:08:17.208046 17125 net.cpp:148] Top shape: 24 192 56 56 (14450688)
I0403 16:08:17.208062 17125 net.cpp:156] Memory required for data: 303465504
I0403 16:08:17.208082 17125 layer_factory.hpp:77] Creating layer conv2/relu_3x3
I0403 16:08:17.208101 17125 net.cpp:91] Creating Layer conv2/relu_3x3
I0403 16:08:17.208115 17125 net.cpp:425] conv2/relu_3x3 <- conv2/3x3
I0403 16:08:17.208132 17125 net.cpp:386] conv2/relu_3x3 -> conv2/3x3 (in-place)
I0403 16:08:17.208292 17125 net.cpp:141] Setting up conv2/relu_3x3
I0403 16:08:17.208315 17125 net.cpp:148] Top shape: 24 192 56 56 (14450688)
I0403 16:08:17.208361 17125 net.cpp:156] Memory required for data: 361268256
I0403 16:08:17.208375 17125 layer_factory.hpp:77] Creating layer conv2/norm2
I0403 16:08:17.208395 17125 net.cpp:91] Creating Layer conv2/norm2
I0403 16:08:17.208410 17125 net.cpp:425] conv2/norm2 <- conv2/3x3
I0403 16:08:17.208425 17125 net.cpp:399] conv2/norm2 -> conv2/norm2
I0403 16:08:17.208712 17125 net.cpp:141] Setting up conv2/norm2
I0403 16:08:17.208740 17125 net.cpp:148] Top shape: 24 192 56 56 (14450688)
I0403 16:08:17.208755 17125 net.cpp:156] Memory required for data: 419071008
I0403 16:08:17.208768 17125 layer_factory.hpp:77] Creating layer pool2/3x3_s2
I0403 16:08:17.208786 17125 net.cpp:91] Creating Layer pool2/3x3_s2
I0403 16:08:17.208801 17125 net.cpp:425] pool2/3x3_s2 <- conv2/norm2
I0403 16:08:17.208817 17125 net.cpp:399] pool2/3x3_s2 -> pool2/3x3_s2
I0403 16:08:17.208868 17125 net.cpp:141] Setting up pool2/3x3_s2
I0403 16:08:17.208890 17125 net.cpp:148] Top shape: 24 192 28 28 (3612672)
I0403 16:08:17.208904 17125 net.cpp:156] Memory required for data: 433521696
I0403 16:08:17.208919 17125 layer_factory.hpp:77] Creating layer pool2/3x3_s2_pool2/3x3_s2_0_split
I0403 16:08:17.208936 17125 net.cpp:91] Creating Layer pool2/3x3_s2_pool2/3x3_s2_0_split
I0403 16:08:17.208951 17125 net.cpp:425] pool2/3x3_s2_pool2/3x3_s2_0_split <- pool2/3x3_s2
I0403 16:08:17.208966 17125 net.cpp:399] pool2/3x3_s2_pool2/3x3_s2_0_split -> pool2/3x3_s2_pool2/3x3_s2_0_split_0
I0403 16:08:17.208986 17125 net.cpp:399] pool2/3x3_s2_pool2/3x3_s2_0_split -> pool2/3x3_s2_pool2/3x3_s2_0_split_1
I0403 16:08:17.209004 17125 net.cpp:399] pool2/3x3_s2_pool2/3x3_s2_0_split -> pool2/3x3_s2_pool2/3x3_s2_0_split_2
I0403 16:08:17.209025 17125 net.cpp:399] pool2/3x3_s2_pool2/3x3_s2_0_split -> pool2/3x3_s2_pool2/3x3_s2_0_split_3
I0403 16:08:17.209094 17125 net.cpp:141] Setting up pool2/3x3_s2_pool2/3x3_s2_0_split
I0403 16:08:17.209115 17125 net.cpp:148] Top shape: 24 192 28 28 (3612672)
I0403 16:08:17.209131 17125 net.cpp:148] Top shape: 24 192 28 28 (3612672)
I0403 16:08:17.209144 17125 net.cpp:148] Top shape: 24 192 28 28 (3612672)
I0403 16:08:17.209158 17125 net.cpp:148] Top shape: 24 192 28 28 (3612672)
I0403 16:08:17.209172 17125 net.cpp:156] Memory required for data: 491324448
I0403 16:08:17.209184 17125 layer_factory.hpp:77] Creating layer inception_3a/1x1
I0403 16:08:17.209205 17125 net.cpp:91] Creating Layer inception_3a/1x1
I0403 16:08:17.209220 17125 net.cpp:425] inception_3a/1x1 <- pool2/3x3_s2_pool2/3x3_s2_0_split_0
I0403 16:08:17.209239 17125 net.cpp:399] inception_3a/1x1 -> inception_3a/1x1
I0403 16:08:17.210703 17125 net.cpp:141] Setting up inception_3a/1x1
I0403 16:08:17.210732 17125 net.cpp:148] Top shape: 24 64 28 28 (1204224)
I0403 16:08:17.210748 17125 net.cpp:156] Memory required for data: 496141344
I0403 16:08:17.210767 17125 layer_factory.hpp:77] Creating layer inception_3a/relu_1x1
I0403 16:08:17.210783 17125 net.cpp:91] Creating Layer inception_3a/relu_1x1
I0403 16:08:17.210798 17125 net.cpp:425] inception_3a/relu_1x1 <- inception_3a/1x1
I0403 16:08:17.210815 17125 net.cpp:386] inception_3a/relu_1x1 -> inception_3a/1x1 (in-place)
I0403 16:08:17.210976 17125 net.cpp:141] Setting up inception_3a/relu_1x1
I0403 16:08:17.211000 17125 net.cpp:148] Top shape: 24 64 28 28 (1204224)
I0403 16:08:17.211014 17125 net.cpp:156] Memory required for data: 500958240
I0403 16:08:17.211027 17125 layer_factory.hpp:77] Creating layer inception_3a/3x3_reduce
I0403 16:08:17.211048 17125 net.cpp:91] Creating Layer inception_3a/3x3_reduce
I0403 16:08:17.211066 17125 net.cpp:425] inception_3a/3x3_reduce <- pool2/3x3_s2_pool2/3x3_s2_0_split_1
I0403 16:08:17.211084 17125 net.cpp:399] inception_3a/3x3_reduce -> inception_3a/3x3_reduce
I0403 16:08:17.212703 17125 net.cpp:141] Setting up inception_3a/3x3_reduce
I0403 16:08:17.212731 17125 net.cpp:148] Top shape: 24 96 28 28 (1806336)
I0403 16:08:17.212745 17125 net.cpp:156] Memory required for data: 508183584
I0403 16:08:17.212765 17125 layer_factory.hpp:77] Creating layer inception_3a/relu_3x3_reduce
I0403 16:08:17.212801 17125 net.cpp:91] Creating Layer inception_3a/relu_3x3_reduce
I0403 16:08:17.212818 17125 net.cpp:425] inception_3a/relu_3x3_reduce <- inception_3a/3x3_reduce
I0403 16:08:17.212834 17125 net.cpp:386] inception_3a/relu_3x3_reduce -> inception_3a/3x3_reduce (in-place)
I0403 16:08:17.213004 17125 net.cpp:141] Setting up inception_3a/relu_3x3_reduce
I0403 16:08:17.213029 17125 net.cpp:148] Top shape: 24 96 28 28 (1806336)
I0403 16:08:17.213044 17125 net.cpp:156] Memory required for data: 515408928
I0403 16:08:17.213058 17125 layer_factory.hpp:77] Creating layer inception_3a/3x3
I0403 16:08:17.213078 17125 net.cpp:91] Creating Layer inception_3a/3x3
I0403 16:08:17.213094 17125 net.cpp:425] inception_3a/3x3 <- inception_3a/3x3_reduce
I0403 16:08:17.213111 17125 net.cpp:399] inception_3a/3x3 -> inception_3a/3x3
I0403 16:08:17.214679 17125 net.cpp:141] Setting up inception_3a/3x3
I0403 16:08:17.214706 17125 net.cpp:148] Top shape: 24 128 28 28 (2408448)
I0403 16:08:17.214721 17125 net.cpp:156] Memory required for data: 525042720
I0403 16:08:17.214738 17125 layer_factory.hpp:77] Creating layer inception_3a/relu_3x3
I0403 16:08:17.214757 17125 net.cpp:91] Creating Layer inception_3a/relu_3x3
I0403 16:08:17.214773 17125 net.cpp:425] inception_3a/relu_3x3 <- inception_3a/3x3
I0403 16:08:17.214789 17125 net.cpp:386] inception_3a/relu_3x3 -> inception_3a/3x3 (in-place)
I0403 16:08:17.215045 17125 net.cpp:141] Setting up inception_3a/relu_3x3
I0403 16:08:17.215070 17125 net.cpp:148] Top shape: 24 128 28 28 (2408448)
I0403 16:08:17.215083 17125 net.cpp:156] Memory required for data: 534676512
I0403 16:08:17.215096 17125 layer_factory.hpp:77] Creating layer inception_3a/5x5_reduce
I0403 16:08:17.215117 17125 net.cpp:91] Creating Layer inception_3a/5x5_reduce
I0403 16:08:17.215133 17125 net.cpp:425] inception_3a/5x5_reduce <- pool2/3x3_s2_pool2/3x3_s2_0_split_2
I0403 16:08:17.215152 17125 net.cpp:399] inception_3a/5x5_reduce -> inception_3a/5x5_reduce
I0403 16:08:17.216054 17125 net.cpp:141] Setting up inception_3a/5x5_reduce
I0403 16:08:17.216080 17125 net.cpp:148] Top shape: 24 16 28 28 (301056)
I0403 16:08:17.216095 17125 net.cpp:156] Memory required for data: 535880736
I0403 16:08:17.216112 17125 layer_factory.hpp:77] Creating layer inception_3a/relu_5x5_reduce
I0403 16:08:17.216131 17125 net.cpp:91] Creating Layer inception_3a/relu_5x5_reduce
I0403 16:08:17.216146 17125 net.cpp:425] inception_3a/relu_5x5_reduce <- inception_3a/5x5_reduce
I0403 16:08:17.216162 17125 net.cpp:386] inception_3a/relu_5x5_reduce -> inception_3a/5x5_reduce (in-place)
I0403 16:08:17.216439 17125 net.cpp:141] Setting up inception_3a/relu_5x5_reduce
I0403 16:08:17.216462 17125 net.cpp:148] Top shape: 24 16 28 28 (301056)
I0403 16:08:17.216477 17125 net.cpp:156] Memory required for data: 537084960
I0403 16:08:17.216490 17125 layer_factory.hpp:77] Creating layer inception_3a/5x5
I0403 16:08:17.216511 17125 net.cpp:91] Creating Layer inception_3a/5x5
I0403 16:08:17.216527 17125 net.cpp:425] inception_3a/5x5 <- inception_3a/5x5_reduce
I0403 16:08:17.216547 17125 net.cpp:399] inception_3a/5x5 -> inception_3a/5x5
I0403 16:08:17.217499 17125 net.cpp:141] Setting up inception_3a/5x5
I0403 16:08:17.217526 17125 net.cpp:148] Top shape: 24 32 28 28 (602112)
I0403 16:08:17.217542 17125 net.cpp:156] Memory required for data: 539493408
I0403 16:08:17.217560 17125 layer_factory.hpp:77] Creating layer inception_3a/relu_5x5
I0403 16:08:17.217576 17125 net.cpp:91] Creating Layer inception_3a/relu_5x5
I0403 16:08:17.217592 17125 net.cpp:425] inception_3a/relu_5x5 <- inception_3a/5x5
I0403 16:08:17.217614 17125 net.cpp:386] inception_3a/relu_5x5 -> inception_3a/5x5 (in-place)
I0403 16:08:17.217778 17125 net.cpp:141] Setting up inception_3a/relu_5x5
I0403 16:08:17.217802 17125 net.cpp:148] Top shape: 24 32 28 28 (602112)
I0403 16:08:17.217815 17125 net.cpp:156] Memory required for data: 541901856
I0403 16:08:17.217828 17125 layer_factory.hpp:77] Creating layer inception_3a/pool
I0403 16:08:17.217844 17125 net.cpp:91] Creating Layer inception_3a/pool
I0403 16:08:17.217874 17125 net.cpp:425] inception_3a/pool <- pool2/3x3_s2_pool2/3x3_s2_0_split_3
I0403 16:08:17.217893 17125 net.cpp:399] inception_3a/pool -> inception_3a/pool
I0403 16:08:17.217949 17125 net.cpp:141] Setting up inception_3a/pool
I0403 16:08:17.217972 17125 net.cpp:148] Top shape: 24 192 28 28 (3612672)
I0403 16:08:17.217985 17125 net.cpp:156] Memory required for data: 556352544
I0403 16:08:17.217998 17125 layer_factory.hpp:77] Creating layer inception_3a/pool_proj
I0403 16:08:17.218019 17125 net.cpp:91] Creating Layer inception_3a/pool_proj
I0403 16:08:17.218036 17125 net.cpp:425] inception_3a/pool_proj <- inception_3a/pool
I0403 16:08:17.218056 17125 net.cpp:399] inception_3a/pool_proj -> inception_3a/pool_proj
I0403 16:08:17.218966 17125 net.cpp:141] Setting up inception_3a/pool_proj
I0403 16:08:17.218991 17125 net.cpp:148] Top shape: 24 32 28 28 (602112)
I0403 16:08:17.219007 17125 net.cpp:156] Memory required for data: 558760992
I0403 16:08:17.219028 17125 layer_factory.hpp:77] Creating layer inception_3a/relu_pool_proj
I0403 16:08:17.219049 17125 net.cpp:91] Creating Layer inception_3a/relu_pool_proj
I0403 16:08:17.219065 17125 net.cpp:425] inception_3a/relu_pool_proj <- inception_3a/pool_proj
I0403 16:08:17.219081 17125 net.cpp:386] inception_3a/relu_pool_proj -> inception_3a/pool_proj (in-place)
I0403 16:08:17.219338 17125 net.cpp:141] Setting up inception_3a/relu_pool_proj
I0403 16:08:17.219362 17125 net.cpp:148] Top shape: 24 32 28 28 (602112)
I0403 16:08:17.219377 17125 net.cpp:156] Memory required for data: 561169440
I0403 16:08:17.219390 17125 layer_factory.hpp:77] Creating layer inception_3a/output
I0403 16:08:17.219406 17125 net.cpp:91] Creating Layer inception_3a/output
I0403 16:08:17.219421 17125 net.cpp:425] inception_3a/output <- inception_3a/1x1
I0403 16:08:17.219436 17125 net.cpp:425] inception_3a/output <- inception_3a/3x3
I0403 16:08:17.219451 17125 net.cpp:425] inception_3a/output <- inception_3a/5x5
I0403 16:08:17.219465 17125 net.cpp:425] inception_3a/output <- inception_3a/pool_proj
I0403 16:08:17.219483 17125 net.cpp:399] inception_3a/output -> inception_3a/output
I0403 16:08:17.219527 17125 net.cpp:141] Setting up inception_3a/output
I0403 16:08:17.219550 17125 net.cpp:148] Top shape: 24 256 28 28 (4816896)
I0403 16:08:17.219565 17125 net.cpp:156] Memory required for data: 580437024
I0403 16:08:17.219578 17125 layer_factory.hpp:77] Creating layer inception_3a/output_inception_3a/output_0_split
I0403 16:08:17.219594 17125 net.cpp:91] Creating Layer inception_3a/output_inception_3a/output_0_split
I0403 16:08:17.219612 17125 net.cpp:425] inception_3a/output_inception_3a/output_0_split <- inception_3a/output
I0403 16:08:17.219630 17125 net.cpp:399] inception_3a/output_inception_3a/output_0_split -> inception_3a/output_inception_3a/output_0_split_0
I0403 16:08:17.219651 17125 net.cpp:399] inception_3a/output_inception_3a/output_0_split -> inception_3a/output_inception_3a/output_0_split_1
I0403 16:08:17.219671 17125 net.cpp:399] inception_3a/output_inception_3a/output_0_split -> inception_3a/output_inception_3a/output_0_split_2
I0403 16:08:17.219691 17125 net.cpp:399] inception_3a/output_inception_3a/output_0_split -> inception_3a/output_inception_3a/output_0_split_3
I0403 16:08:17.219760 17125 net.cpp:141] Setting up inception_3a/output_inception_3a/output_0_split
I0403 16:08:17.219784 17125 net.cpp:148] Top shape: 24 256 28 28 (4816896)
I0403 16:08:17.219799 17125 net.cpp:148] Top shape: 24 256 28 28 (4816896)
I0403 16:08:17.219815 17125 net.cpp:148] Top shape: 24 256 28 28 (4816896)
I0403 16:08:17.219830 17125 net.cpp:148] Top shape: 24 256 28 28 (4816896)
I0403 16:08:17.219842 17125 net.cpp:156] Memory required for data: 657507360
I0403 16:08:17.219854 17125 layer_factory.hpp:77] Creating layer inception_3b/1x1
I0403 16:08:17.219876 17125 net.cpp:91] Creating Layer inception_3b/1x1
I0403 16:08:17.219892 17125 net.cpp:425] inception_3b/1x1 <- inception_3a/output_inception_3a/output_0_split_0
I0403 16:08:17.219912 17125 net.cpp:399] inception_3b/1x1 -> inception_3b/1x1
I0403 16:08:17.220989 17125 net.cpp:141] Setting up inception_3b/1x1
I0403 16:08:17.221030 17125 net.cpp:148] Top shape: 24 128 28 28 (2408448)
I0403 16:08:17.221046 17125 net.cpp:156] Memory required for data: 667141152
I0403 16:08:17.221063 17125 layer_factory.hpp:77] Creating layer inception_3b/relu_1x1
I0403 16:08:17.221081 17125 net.cpp:91] Creating Layer inception_3b/relu_1x1
I0403 16:08:17.221097 17125 net.cpp:425] inception_3b/relu_1x1 <- inception_3b/1x1
I0403 16:08:17.221113 17125 net.cpp:386] inception_3b/relu_1x1 -> inception_3b/1x1 (in-place)
I0403 16:08:17.221283 17125 net.cpp:141] Setting up inception_3b/relu_1x1
I0403 16:08:17.221307 17125 net.cpp:148] Top shape: 24 128 28 28 (2408448)
I0403 16:08:17.221323 17125 net.cpp:156] Memory required for data: 676774944
I0403 16:08:17.221336 17125 layer_factory.hpp:77] Creating layer inception_3b/3x3_reduce
I0403 16:08:17.221357 17125 net.cpp:91] Creating Layer inception_3b/3x3_reduce
I0403 16:08:17.221374 17125 net.cpp:425] inception_3b/3x3_reduce <- inception_3a/output_inception_3a/output_0_split_1
I0403 16:08:17.221393 17125 net.cpp:399] inception_3b/3x3_reduce -> inception_3b/3x3_reduce
I0403 16:08:17.222481 17125 net.cpp:141] Setting up inception_3b/3x3_reduce
I0403 16:08:17.222511 17125 net.cpp:148] Top shape: 24 128 28 28 (2408448)
I0403 16:08:17.222525 17125 net.cpp:156] Memory required for data: 686408736
I0403 16:08:17.222543 17125 layer_factory.hpp:77] Creating layer inception_3b/relu_3x3_reduce
I0403 16:08:17.222560 17125 net.cpp:91] Creating Layer inception_3b/relu_3x3_reduce
I0403 16:08:17.222575 17125 net.cpp:425] inception_3b/relu_3x3_reduce <- inception_3b/3x3_reduce
I0403 16:08:17.222594 17125 net.cpp:386] inception_3b/relu_3x3_reduce -> inception_3b/3x3_reduce (in-place)
I0403 16:08:17.222766 17125 net.cpp:141] Setting up inception_3b/relu_3x3_reduce
I0403 16:08:17.222790 17125 net.cpp:148] Top shape: 24 128 28 28 (2408448)
I0403 16:08:17.222805 17125 net.cpp:156] Memory required for data: 696042528
I0403 16:08:17.222820 17125 layer_factory.hpp:77] Creating layer inception_3b/3x3
I0403 16:08:17.222844 17125 net.cpp:91] Creating Layer inception_3b/3x3
I0403 16:08:17.222862 17125 net.cpp:425] inception_3b/3x3 <- inception_3b/3x3_reduce
I0403 16:08:17.222879 17125 net.cpp:399] inception_3b/3x3 -> inception_3b/3x3
I0403 16:08:17.225682 17125 net.cpp:141] Setting up inception_3b/3x3
I0403 16:08:17.225708 17125 net.cpp:148] Top shape: 24 192 28 28 (3612672)
I0403 16:08:17.225724 17125 net.cpp:156] Memory required for data: 710493216
I0403 16:08:17.225741 17125 layer_factory.hpp:77] Creating layer inception_3b/relu_3x3
I0403 16:08:17.225759 17125 net.cpp:91] Creating Layer inception_3b/relu_3x3
I0403 16:08:17.225776 17125 net.cpp:425] inception_3b/relu_3x3 <- inception_3b/3x3
I0403 16:08:17.225793 17125 net.cpp:386] inception_3b/relu_3x3 -> inception_3b/3x3 (in-place)
I0403 16:08:17.226063 17125 net.cpp:141] Setting up inception_3b/relu_3x3
I0403 16:08:17.226088 17125 net.cpp:148] Top shape: 24 192 28 28 (3612672)
I0403 16:08:17.226102 17125 net.cpp:156] Memory required for data: 724943904
I0403 16:08:17.226116 17125 layer_factory.hpp:77] Creating layer inception_3b/5x5_reduce
I0403 16:08:17.226138 17125 net.cpp:91] Creating Layer inception_3b/5x5_reduce
I0403 16:08:17.226155 17125 net.cpp:425] inception_3b/5x5_reduce <- inception_3a/output_inception_3a/output_0_split_2
I0403 16:08:17.226176 17125 net.cpp:399] inception_3b/5x5_reduce -> inception_3b/5x5_reduce
I0403 16:08:17.227133 17125 net.cpp:141] Setting up inception_3b/5x5_reduce
I0403 16:08:17.227159 17125 net.cpp:148] Top shape: 24 32 28 28 (602112)
I0403 16:08:17.227174 17125 net.cpp:156] Memory required for data: 727352352
I0403 16:08:17.227191 17125 layer_factory.hpp:77] Creating layer inception_3b/relu_5x5_reduce
I0403 16:08:17.227208 17125 net.cpp:91] Creating Layer inception_3b/relu_5x5_reduce
I0403 16:08:17.227223 17125 net.cpp:425] inception_3b/relu_5x5_reduce <- inception_3b/5x5_reduce
I0403 16:08:17.227241 17125 net.cpp:386] inception_3b/relu_5x5_reduce -> inception_3b/5x5_reduce (in-place)
I0403 16:08:17.227422 17125 net.cpp:141] Setting up inception_3b/relu_5x5_reduce
I0403 16:08:17.227447 17125 net.cpp:148] Top shape: 24 32 28 28 (602112)
I0403 16:08:17.227460 17125 net.cpp:156] Memory required for data: 729760800
I0403 16:08:17.227474 17125 layer_factory.hpp:77] Creating layer inception_3b/5x5
I0403 16:08:17.227495 17125 net.cpp:91] Creating Layer inception_3b/5x5
I0403 16:08:17.227512 17125 net.cpp:425] inception_3b/5x5 <- inception_3b/5x5_reduce
I0403 16:08:17.227532 17125 net.cpp:399] inception_3b/5x5 -> inception_3b/5x5
I0403 16:08:17.229454 17125 net.cpp:141] Setting up inception_3b/5x5
I0403 16:08:17.229483 17125 net.cpp:148] Top shape: 24 96 28 28 (1806336)
I0403 16:08:17.229509 17125 net.cpp:156] Memory required for data: 736986144
I0403 16:08:17.229526 17125 layer_factory.hpp:77] Creating layer inception_3b/relu_5x5
I0403 16:08:17.229544 17125 net.cpp:91] Creating Layer inception_3b/relu_5x5
I0403 16:08:17.229559 17125 net.cpp:425] inception_3b/relu_5x5 <- inception_3b/5x5
I0403 16:08:17.229578 17125 net.cpp:386] inception_3b/relu_5x5 -> inception_3b/5x5 (in-place)
I0403 16:08:17.229770 17125 net.cpp:141] Setting up inception_3b/relu_5x5
I0403 16:08:17.229794 17125 net.cpp:148] Top shape: 24 96 28 28 (1806336)
I0403 16:08:17.229809 17125 net.cpp:156] Memory required for data: 744211488
I0403 16:08:17.229823 17125 layer_factory.hpp:77] Creating layer inception_3b/pool
I0403 16:08:17.229840 17125 net.cpp:91] Creating Layer inception_3b/pool
I0403 16:08:17.229856 17125 net.cpp:425] inception_3b/pool <- inception_3a/output_inception_3a/output_0_split_3
I0403 16:08:17.229872 17125 net.cpp:399] inception_3b/pool -> inception_3b/pool
I0403 16:08:17.229925 17125 net.cpp:141] Setting up inception_3b/pool
I0403 16:08:17.229948 17125 net.cpp:148] Top shape: 24 256 28 28 (4816896)
I0403 16:08:17.229961 17125 net.cpp:156] Memory required for data: 763479072
I0403 16:08:17.229974 17125 layer_factory.hpp:77] Creating layer inception_3b/pool_proj
I0403 16:08:17.229997 17125 net.cpp:91] Creating Layer inception_3b/pool_proj
I0403 16:08:17.230013 17125 net.cpp:425] inception_3b/pool_proj <- inception_3b/pool
I0403 16:08:17.230031 17125 net.cpp:399] inception_3b/pool_proj -> inception_3b/pool_proj
I0403 16:08:17.231030 17125 net.cpp:141] Setting up inception_3b/pool_proj
I0403 16:08:17.231057 17125 net.cpp:148] Top shape: 24 64 28 28 (1204224)
I0403 16:08:17.231072 17125 net.cpp:156] Memory required for data: 768295968
I0403 16:08:17.231089 17125 layer_factory.hpp:77] Creating layer inception_3b/relu_pool_proj
I0403 16:08:17.231109 17125 net.cpp:91] Creating Layer inception_3b/relu_pool_proj
I0403 16:08:17.231124 17125 net.cpp:425] inception_3b/relu_pool_proj <- inception_3b/pool_proj
I0403 16:08:17.231140 17125 net.cpp:386] inception_3b/relu_pool_proj -> inception_3b/pool_proj (in-place)
I0403 16:08:17.231509 17125 net.cpp:141] Setting up inception_3b/relu_pool_proj
I0403 16:08:17.231534 17125 net.cpp:148] Top shape: 24 64 28 28 (1204224)
I0403 16:08:17.231549 17125 net.cpp:156] Memory required for data: 773112864
I0403 16:08:17.231564 17125 layer_factory.hpp:77] Creating layer inception_3b/output
I0403 16:08:17.231582 17125 net.cpp:91] Creating Layer inception_3b/output
I0403 16:08:17.231597 17125 net.cpp:425] inception_3b/output <- inception_3b/1x1
I0403 16:08:17.231619 17125 net.cpp:425] inception_3b/output <- inception_3b/3x3
I0403 16:08:17.231634 17125 net.cpp:425] inception_3b/output <- inception_3b/5x5
I0403 16:08:17.231649 17125 net.cpp:425] inception_3b/output <- inception_3b/pool_proj
I0403 16:08:17.231665 17125 net.cpp:399] inception_3b/output -> inception_3b/output
I0403 16:08:17.231706 17125 net.cpp:141] Setting up inception_3b/output
I0403 16:08:17.231730 17125 net.cpp:148] Top shape: 24 480 28 28 (9031680)
I0403 16:08:17.231745 17125 net.cpp:156] Memory required for data: 809239584
I0403 16:08:17.231760 17125 layer_factory.hpp:77] Creating layer pool3/3x3_s2
I0403 16:08:17.231776 17125 net.cpp:91] Creating Layer pool3/3x3_s2
I0403 16:08:17.231791 17125 net.cpp:425] pool3/3x3_s2 <- inception_3b/output
I0403 16:08:17.231825 17125 net.cpp:399] pool3/3x3_s2 -> pool3/3x3_s2
I0403 16:08:17.231881 17125 net.cpp:141] Setting up pool3/3x3_s2
I0403 16:08:17.231905 17125 net.cpp:148] Top shape: 24 480 14 14 (2257920)
I0403 16:08:17.231920 17125 net.cpp:156] Memory required for data: 818271264
I0403 16:08:17.231935 17125 layer_factory.hpp:77] Creating layer pool3/3x3_s2_pool3/3x3_s2_0_split
I0403 16:08:17.231950 17125 net.cpp:91] Creating Layer pool3/3x3_s2_pool3/3x3_s2_0_split
I0403 16:08:17.231964 17125 net.cpp:425] pool3/3x3_s2_pool3/3x3_s2_0_split <- pool3/3x3_s2
I0403 16:08:17.231981 17125 net.cpp:399] pool3/3x3_s2_pool3/3x3_s2_0_split -> pool3/3x3_s2_pool3/3x3_s2_0_split_0
I0403 16:08:17.231999 17125 net.cpp:399] pool3/3x3_s2_pool3/3x3_s2_0_split -> pool3/3x3_s2_pool3/3x3_s2_0_split_1
I0403 16:08:17.232022 17125 net.cpp:399] pool3/3x3_s2_pool3/3x3_s2_0_split -> pool3/3x3_s2_pool3/3x3_s2_0_split_2
I0403 16:08:17.232041 17125 net.cpp:399] pool3/3x3_s2_pool3/3x3_s2_0_split -> pool3/3x3_s2_pool3/3x3_s2_0_split_3
I0403 16:08:17.232117 17125 net.cpp:141] Setting up pool3/3x3_s2_pool3/3x3_s2_0_split
I0403 16:08:17.232139 17125 net.cpp:148] Top shape: 24 480 14 14 (2257920)
I0403 16:08:17.232156 17125 net.cpp:148] Top shape: 24 480 14 14 (2257920)
I0403 16:08:17.232169 17125 net.cpp:148] Top shape: 24 480 14 14 (2257920)
I0403 16:08:17.232184 17125 net.cpp:148] Top shape: 24 480 14 14 (2257920)
I0403 16:08:17.232197 17125 net.cpp:156] Memory required for data: 854397984
I0403 16:08:17.232211 17125 layer_factory.hpp:77] Creating layer inception_4a/1x1
I0403 16:08:17.232231 17125 net.cpp:91] Creating Layer inception_4a/1x1
I0403 16:08:17.232247 17125 net.cpp:425] inception_4a/1x1 <- pool3/3x3_s2_pool3/3x3_s2_0_split_0
I0403 16:08:17.232269 17125 net.cpp:399] inception_4a/1x1 -> inception_4a/1x1
I0403 16:08:17.233769 17125 net.cpp:141] Setting up inception_4a/1x1
I0403 16:08:17.233796 17125 net.cpp:148] Top shape: 24 192 14 14 (903168)
I0403 16:08:17.233810 17125 net.cpp:156] Memory required for data: 858010656
I0403 16:08:17.233829 17125 layer_factory.hpp:77] Creating layer inception_4a/relu_1x1
I0403 16:08:17.233849 17125 net.cpp:91] Creating Layer inception_4a/relu_1x1
I0403 16:08:17.233865 17125 net.cpp:425] inception_4a/relu_1x1 <- inception_4a/1x1
I0403 16:08:17.233881 17125 net.cpp:386] inception_4a/relu_1x1 -> inception_4a/1x1 (in-place)
I0403 16:08:17.234046 17125 net.cpp:141] Setting up inception_4a/relu_1x1
I0403 16:08:17.234073 17125 net.cpp:148] Top shape: 24 192 14 14 (903168)
I0403 16:08:17.234087 17125 net.cpp:156] Memory required for data: 861623328
I0403 16:08:17.234102 17125 layer_factory.hpp:77] Creating layer inception_4a/3x3_reduce
I0403 16:08:17.234122 17125 net.cpp:91] Creating Layer inception_4a/3x3_reduce
I0403 16:08:17.234138 17125 net.cpp:425] inception_4a/3x3_reduce <- pool3/3x3_s2_pool3/3x3_s2_0_split_1
I0403 16:08:17.234159 17125 net.cpp:399] inception_4a/3x3_reduce -> inception_4a/3x3_reduce
I0403 16:08:17.235384 17125 net.cpp:141] Setting up inception_4a/3x3_reduce
I0403 16:08:17.235411 17125 net.cpp:148] Top shape: 24 96 14 14 (451584)
I0403 16:08:17.235426 17125 net.cpp:156] Memory required for data: 863429664
I0403 16:08:17.235450 17125 layer_factory.hpp:77] Creating layer inception_4a/relu_3x3_reduce
I0403 16:08:17.235471 17125 net.cpp:91] Creating Layer inception_4a/relu_3x3_reduce
I0403 16:08:17.235486 17125 net.cpp:425] inception_4a/relu_3x3_reduce <- inception_4a/3x3_reduce
I0403 16:08:17.235503 17125 net.cpp:386] inception_4a/relu_3x3_reduce -> inception_4a/3x3_reduce (in-place)
I0403 16:08:17.235678 17125 net.cpp:141] Setting up inception_4a/relu_3x3_reduce
I0403 16:08:17.235703 17125 net.cpp:148] Top shape: 24 96 14 14 (451584)
I0403 16:08:17.235718 17125 net.cpp:156] Memory required for data: 865236000
I0403 16:08:17.235733 17125 layer_factory.hpp:77] Creating layer inception_4a/3x3
I0403 16:08:17.235754 17125 net.cpp:91] Creating Layer inception_4a/3x3
I0403 16:08:17.235770 17125 net.cpp:425] inception_4a/3x3 <- inception_4a/3x3_reduce
I0403 16:08:17.235788 17125 net.cpp:399] inception_4a/3x3 -> inception_4a/3x3
I0403 16:08:17.238378 17125 net.cpp:141] Setting up inception_4a/3x3
I0403 16:08:17.238407 17125 net.cpp:148] Top shape: 24 208 14 14 (978432)
I0403 16:08:17.238425 17125 net.cpp:156] Memory required for data: 869149728
I0403 16:08:17.238441 17125 layer_factory.hpp:77] Creating layer inception_4a/relu_3x3
I0403 16:08:17.238471 17125 net.cpp:91] Creating Layer inception_4a/relu_3x3
I0403 16:08:17.238484 17125 net.cpp:425] inception_4a/relu_3x3 <- inception_4a/3x3
I0403 16:08:17.238502 17125 net.cpp:386] inception_4a/relu_3x3 -> inception_4a/3x3 (in-place)
I0403 16:08:17.238765 17125 net.cpp:141] Setting up inception_4a/relu_3x3
I0403 16:08:17.238791 17125 net.cpp:148] Top shape: 24 208 14 14 (978432)
I0403 16:08:17.238806 17125 net.cpp:156] Memory required for data: 873063456
I0403 16:08:17.238819 17125 layer_factory.hpp:77] Creating layer inception_4a/5x5_reduce
I0403 16:08:17.238840 17125 net.cpp:91] Creating Layer inception_4a/5x5_reduce
I0403 16:08:17.238857 17125 net.cpp:425] inception_4a/5x5_reduce <- pool3/3x3_s2_pool3/3x3_s2_0_split_2
I0403 16:08:17.238875 17125 net.cpp:399] inception_4a/5x5_reduce -> inception_4a/5x5_reduce
I0403 16:08:17.239825 17125 net.cpp:141] Setting up inception_4a/5x5_reduce
I0403 16:08:17.239853 17125 net.cpp:148] Top shape: 24 16 14 14 (75264)
I0403 16:08:17.239868 17125 net.cpp:156] Memory required for data: 873364512
I0403 16:08:17.239886 17125 layer_factory.hpp:77] Creating layer inception_4a/relu_5x5_reduce
I0403 16:08:17.239903 17125 net.cpp:91] Creating Layer inception_4a/relu_5x5_reduce
I0403 16:08:17.239918 17125 net.cpp:425] inception_4a/relu_5x5_reduce <- inception_4a/5x5_reduce
I0403 16:08:17.239935 17125 net.cpp:386] inception_4a/relu_5x5_reduce -> inception_4a/5x5_reduce (in-place)
I0403 16:08:17.240103 17125 net.cpp:141] Setting up inception_4a/relu_5x5_reduce
I0403 16:08:17.240126 17125 net.cpp:148] Top shape: 24 16 14 14 (75264)
I0403 16:08:17.240140 17125 net.cpp:156] Memory required for data: 873665568
I0403 16:08:17.240154 17125 layer_factory.hpp:77] Creating layer inception_4a/5x5
I0403 16:08:17.240173 17125 net.cpp:91] Creating Layer inception_4a/5x5
I0403 16:08:17.240190 17125 net.cpp:425] inception_4a/5x5 <- inception_4a/5x5_reduce
I0403 16:08:17.240211 17125 net.cpp:399] inception_4a/5x5 -> inception_4a/5x5
I0403 16:08:17.241235 17125 net.cpp:141] Setting up inception_4a/5x5
I0403 16:08:17.241261 17125 net.cpp:148] Top shape: 24 48 14 14 (225792)
I0403 16:08:17.241274 17125 net.cpp:156] Memory required for data: 874568736
I0403 16:08:17.241291 17125 layer_factory.hpp:77] Creating layer inception_4a/relu_5x5
I0403 16:08:17.241310 17125 net.cpp:91] Creating Layer inception_4a/relu_5x5
I0403 16:08:17.241327 17125 net.cpp:425] inception_4a/relu_5x5 <- inception_4a/5x5
I0403 16:08:17.241343 17125 net.cpp:386] inception_4a/relu_5x5 -> inception_4a/5x5 (in-place)
I0403 16:08:17.241510 17125 net.cpp:141] Setting up inception_4a/relu_5x5
I0403 16:08:17.241533 17125 net.cpp:148] Top shape: 24 48 14 14 (225792)
I0403 16:08:17.241547 17125 net.cpp:156] Memory required for data: 875471904
I0403 16:08:17.241561 17125 layer_factory.hpp:77] Creating layer inception_4a/pool
I0403 16:08:17.241580 17125 net.cpp:91] Creating Layer inception_4a/pool
I0403 16:08:17.241595 17125 net.cpp:425] inception_4a/pool <- pool3/3x3_s2_pool3/3x3_s2_0_split_3
I0403 16:08:17.241619 17125 net.cpp:399] inception_4a/pool -> inception_4a/pool
I0403 16:08:17.241677 17125 net.cpp:141] Setting up inception_4a/pool
I0403 16:08:17.241698 17125 net.cpp:148] Top shape: 24 480 14 14 (2257920)
I0403 16:08:17.241713 17125 net.cpp:156] Memory required for data: 884503584
I0403 16:08:17.241725 17125 layer_factory.hpp:77] Creating layer inception_4a/pool_proj
I0403 16:08:17.241746 17125 net.cpp:91] Creating Layer inception_4a/pool_proj
I0403 16:08:17.241761 17125 net.cpp:425] inception_4a/pool_proj <- inception_4a/pool
I0403 16:08:17.241780 17125 net.cpp:399] inception_4a/pool_proj -> inception_4a/pool_proj
I0403 16:08:17.242877 17125 net.cpp:141] Setting up inception_4a/pool_proj
I0403 16:08:17.242904 17125 net.cpp:148] Top shape: 24 64 14 14 (301056)
I0403 16:08:17.242933 17125 net.cpp:156] Memory required for data: 885707808
I0403 16:08:17.242951 17125 layer_factory.hpp:77] Creating layer inception_4a/relu_pool_proj
I0403 16:08:17.242971 17125 net.cpp:91] Creating Layer inception_4a/relu_pool_proj
I0403 16:08:17.242987 17125 net.cpp:425] inception_4a/relu_pool_proj <- inception_4a/pool_proj
I0403 16:08:17.243003 17125 net.cpp:386] inception_4a/relu_pool_proj -> inception_4a/pool_proj (in-place)
I0403 16:08:17.243274 17125 net.cpp:141] Setting up inception_4a/relu_pool_proj
I0403 16:08:17.243300 17125 net.cpp:148] Top shape: 24 64 14 14 (301056)
I0403 16:08:17.243314 17125 net.cpp:156] Memory required for data: 886912032
I0403 16:08:17.243329 17125 layer_factory.hpp:77] Creating layer inception_4a/output
I0403 16:08:17.243350 17125 net.cpp:91] Creating Layer inception_4a/output
I0403 16:08:17.243366 17125 net.cpp:425] inception_4a/output <- inception_4a/1x1
I0403 16:08:17.243381 17125 net.cpp:425] inception_4a/output <- inception_4a/3x3
I0403 16:08:17.243396 17125 net.cpp:425] inception_4a/output <- inception_4a/5x5
I0403 16:08:17.243412 17125 net.cpp:425] inception_4a/output <- inception_4a/pool_proj
I0403 16:08:17.243427 17125 net.cpp:399] inception_4a/output -> inception_4a/output
I0403 16:08:17.243470 17125 net.cpp:141] Setting up inception_4a/output
I0403 16:08:17.243492 17125 net.cpp:148] Top shape: 24 512 14 14 (2408448)
I0403 16:08:17.243506 17125 net.cpp:156] Memory required for data: 896545824
I0403 16:08:17.243520 17125 layer_factory.hpp:77] Creating layer inception_4a/output_inception_4a/output_0_split
I0403 16:08:17.243536 17125 net.cpp:91] Creating Layer inception_4a/output_inception_4a/output_0_split
I0403 16:08:17.243551 17125 net.cpp:425] inception_4a/output_inception_4a/output_0_split <- inception_4a/output
I0403 16:08:17.243568 17125 net.cpp:399] inception_4a/output_inception_4a/output_0_split -> inception_4a/output_inception_4a/output_0_split_0
I0403 16:08:17.243587 17125 net.cpp:399] inception_4a/output_inception_4a/output_0_split -> inception_4a/output_inception_4a/output_0_split_1
I0403 16:08:17.243613 17125 net.cpp:399] inception_4a/output_inception_4a/output_0_split -> inception_4a/output_inception_4a/output_0_split_2
I0403 16:08:17.243633 17125 net.cpp:399] inception_4a/output_inception_4a/output_0_split -> inception_4a/output_inception_4a/output_0_split_3
I0403 16:08:17.243650 17125 net.cpp:399] inception_4a/output_inception_4a/output_0_split -> inception_4a/output_inception_4a/output_0_split_4
I0403 16:08:17.243738 17125 net.cpp:141] Setting up inception_4a/output_inception_4a/output_0_split
I0403 16:08:17.243760 17125 net.cpp:148] Top shape: 24 512 14 14 (2408448)
I0403 16:08:17.243777 17125 net.cpp:148] Top shape: 24 512 14 14 (2408448)
I0403 16:08:17.243790 17125 net.cpp:148] Top shape: 24 512 14 14 (2408448)
I0403 16:08:17.243804 17125 net.cpp:148] Top shape: 24 512 14 14 (2408448)
I0403 16:08:17.243819 17125 net.cpp:148] Top shape: 24 512 14 14 (2408448)
I0403 16:08:17.243832 17125 net.cpp:156] Memory required for data: 944714784
I0403 16:08:17.243846 17125 layer_factory.hpp:77] Creating layer loss1/ave_pool
I0403 16:08:17.243862 17125 net.cpp:91] Creating Layer loss1/ave_pool
I0403 16:08:17.243876 17125 net.cpp:425] loss1/ave_pool <- inception_4a/output_inception_4a/output_0_split_0
I0403 16:08:17.243896 17125 net.cpp:399] loss1/ave_pool -> loss1/ave_pool
I0403 16:08:17.244086 17125 net.cpp:141] Setting up loss1/ave_pool
I0403 16:08:17.244110 17125 net.cpp:148] Top shape: 24 512 4 4 (196608)
I0403 16:08:17.244124 17125 net.cpp:156] Memory required for data: 945501216
I0403 16:08:17.244138 17125 layer_factory.hpp:77] Creating layer loss1/conv
I0403 16:08:17.244158 17125 net.cpp:91] Creating Layer loss1/conv
I0403 16:08:17.244174 17125 net.cpp:425] loss1/conv <- loss1/ave_pool
I0403 16:08:17.244194 17125 net.cpp:399] loss1/conv -> loss1/conv
I0403 16:08:17.245514 17125 net.cpp:141] Setting up loss1/conv
I0403 16:08:17.245543 17125 net.cpp:148] Top shape: 24 128 4 4 (49152)
I0403 16:08:17.245571 17125 net.cpp:156] Memory required for data: 945697824
I0403 16:08:17.245589 17125 layer_factory.hpp:77] Creating layer loss1/relu_conv
I0403 16:08:17.245611 17125 net.cpp:91] Creating Layer loss1/relu_conv
I0403 16:08:17.245627 17125 net.cpp:425] loss1/relu_conv <- loss1/conv
I0403 16:08:17.245645 17125 net.cpp:386] loss1/relu_conv -> loss1/conv (in-place)
I0403 16:08:17.245910 17125 net.cpp:141] Setting up loss1/relu_conv
I0403 16:08:17.245937 17125 net.cpp:148] Top shape: 24 128 4 4 (49152)
I0403 16:08:17.245952 17125 net.cpp:156] Memory required for data: 945894432
I0403 16:08:17.245966 17125 layer_factory.hpp:77] Creating layer loss1/fc
I0403 16:08:17.245987 17125 net.cpp:91] Creating Layer loss1/fc
I0403 16:08:17.246003 17125 net.cpp:425] loss1/fc <- loss1/conv
I0403 16:08:17.246022 17125 net.cpp:399] loss1/fc -> loss1/fc
I0403 16:08:17.262802 17125 net.cpp:141] Setting up loss1/fc
I0403 16:08:17.262831 17125 net.cpp:148] Top shape: 24 1024 (24576)
I0403 16:08:17.262846 17125 net.cpp:156] Memory required for data: 945992736
I0403 16:08:17.262863 17125 layer_factory.hpp:77] Creating layer loss1/relu_fc
I0403 16:08:17.262883 17125 net.cpp:91] Creating Layer loss1/relu_fc
I0403 16:08:17.262898 17125 net.cpp:425] loss1/relu_fc <- loss1/fc
I0403 16:08:17.262914 17125 net.cpp:386] loss1/relu_fc -> loss1/fc (in-place)
I0403 16:08:17.263085 17125 net.cpp:141] Setting up loss1/relu_fc
I0403 16:08:17.263108 17125 net.cpp:148] Top shape: 24 1024 (24576)
I0403 16:08:17.263123 17125 net.cpp:156] Memory required for data: 946091040
I0403 16:08:17.263136 17125 layer_factory.hpp:77] Creating layer loss1/drop_fc
I0403 16:08:17.263159 17125 net.cpp:91] Creating Layer loss1/drop_fc
I0403 16:08:17.263176 17125 net.cpp:425] loss1/drop_fc <- loss1/fc
I0403 16:08:17.263195 17125 net.cpp:386] loss1/drop_fc -> loss1/fc (in-place)
I0403 16:08:17.263242 17125 net.cpp:141] Setting up loss1/drop_fc
I0403 16:08:17.263264 17125 net.cpp:148] Top shape: 24 1024 (24576)
I0403 16:08:17.263278 17125 net.cpp:156] Memory required for data: 946189344
I0403 16:08:17.263293 17125 layer_factory.hpp:77] Creating layer loss1/classifier_plantvillage
I0403 16:08:17.263314 17125 net.cpp:91] Creating Layer loss1/classifier_plantvillage
I0403 16:08:17.263330 17125 net.cpp:425] loss1/classifier_plantvillage <- loss1/fc
I0403 16:08:17.263346 17125 net.cpp:399] loss1/classifier_plantvillage -> loss1/classifier_plantvillage
I0403 16:08:17.264215 17125 net.cpp:141] Setting up loss1/classifier_plantvillage
I0403 16:08:17.264243 17125 net.cpp:148] Top shape: 24 38 (912)
I0403 16:08:17.264257 17125 net.cpp:156] Memory required for data: 946192992
I0403 16:08:17.264274 17125 layer_factory.hpp:77] Creating layer loss1/classifier_plantvillage_loss1/classifier_plantvillage_0_split
I0403 16:08:17.264295 17125 net.cpp:91] Creating Layer loss1/classifier_plantvillage_loss1/classifier_plantvillage_0_split
I0403 16:08:17.264312 17125 net.cpp:425] loss1/classifier_plantvillage_loss1/classifier_plantvillage_0_split <- loss1/classifier_plantvillage
I0403 16:08:17.264328 17125 net.cpp:399] loss1/classifier_plantvillage_loss1/classifier_plantvillage_0_split -> loss1/classifier_plantvillage_loss1/classifier_plantvillage_0_split_0
I0403 16:08:17.264348 17125 net.cpp:399] loss1/classifier_plantvillage_loss1/classifier_plantvillage_0_split -> loss1/classifier_plantvillage_loss1/classifier_plantvillage_0_split_1
I0403 16:08:17.264367 17125 net.cpp:399] loss1/classifier_plantvillage_loss1/classifier_plantvillage_0_split -> loss1/classifier_plantvillage_loss1/classifier_plantvillage_0_split_2
I0403 16:08:17.264433 17125 net.cpp:141] Setting up loss1/classifier_plantvillage_loss1/classifier_plantvillage_0_split
I0403 16:08:17.264454 17125 net.cpp:148] Top shape: 24 38 (912)
I0403 16:08:17.264469 17125 net.cpp:148] Top shape: 24 38 (912)
I0403 16:08:17.264484 17125 net.cpp:148] Top shape: 24 38 (912)
I0403 16:08:17.264497 17125 net.cpp:156] Memory required for data: 946203936
I0403 16:08:17.264509 17125 layer_factory.hpp:77] Creating layer inception_4b/1x1
I0403 16:08:17.264530 17125 net.cpp:91] Creating Layer inception_4b/1x1
I0403 16:08:17.264561 17125 net.cpp:425] inception_4b/1x1 <- inception_4a/output_inception_4a/output_0_split_1
I0403 16:08:17.264580 17125 net.cpp:399] inception_4b/1x1 -> inception_4b/1x1
I0403 16:08:17.266121 17125 net.cpp:141] Setting up inception_4b/1x1
I0403 16:08:17.266151 17125 net.cpp:148] Top shape: 24 160 14 14 (752640)
I0403 16:08:17.266167 17125 net.cpp:156] Memory required for data: 949214496
I0403 16:08:17.266183 17125 layer_factory.hpp:77] Creating layer inception_4b/relu_1x1
I0403 16:08:17.266201 17125 net.cpp:91] Creating Layer inception_4b/relu_1x1
I0403 16:08:17.266216 17125 net.cpp:425] inception_4b/relu_1x1 <- inception_4b/1x1
I0403 16:08:17.266235 17125 net.cpp:386] inception_4b/relu_1x1 -> inception_4b/1x1 (in-place)
I0403 16:08:17.266401 17125 net.cpp:141] Setting up inception_4b/relu_1x1
I0403 16:08:17.266423 17125 net.cpp:148] Top shape: 24 160 14 14 (752640)
I0403 16:08:17.266438 17125 net.cpp:156] Memory required for data: 952225056
I0403 16:08:17.266451 17125 layer_factory.hpp:77] Creating layer inception_4b/3x3_reduce
I0403 16:08:17.266474 17125 net.cpp:91] Creating Layer inception_4b/3x3_reduce
I0403 16:08:17.266489 17125 net.cpp:425] inception_4b/3x3_reduce <- inception_4a/output_inception_4a/output_0_split_2
I0403 16:08:17.266510 17125 net.cpp:399] inception_4b/3x3_reduce -> inception_4b/3x3_reduce
I0403 16:08:17.267841 17125 net.cpp:141] Setting up inception_4b/3x3_reduce
I0403 16:08:17.267868 17125 net.cpp:148] Top shape: 24 112 14 14 (526848)
I0403 16:08:17.267882 17125 net.cpp:156] Memory required for data: 954332448
I0403 16:08:17.267900 17125 layer_factory.hpp:77] Creating layer inception_4b/relu_3x3_reduce
I0403 16:08:17.267920 17125 net.cpp:91] Creating Layer inception_4b/relu_3x3_reduce
I0403 16:08:17.267935 17125 net.cpp:425] inception_4b/relu_3x3_reduce <- inception_4b/3x3_reduce
I0403 16:08:17.267951 17125 net.cpp:386] inception_4b/relu_3x3_reduce -> inception_4b/3x3_reduce (in-place)
I0403 16:08:17.268223 17125 net.cpp:141] Setting up inception_4b/relu_3x3_reduce
I0403 16:08:17.268247 17125 net.cpp:148] Top shape: 24 112 14 14 (526848)
I0403 16:08:17.268261 17125 net.cpp:156] Memory required for data: 956439840
I0403 16:08:17.268276 17125 layer_factory.hpp:77] Creating layer inception_4b/3x3
I0403 16:08:17.268299 17125 net.cpp:91] Creating Layer inception_4b/3x3
I0403 16:08:17.268316 17125 net.cpp:425] inception_4b/3x3 <- inception_4b/3x3_reduce
I0403 16:08:17.268337 17125 net.cpp:399] inception_4b/3x3 -> inception_4b/3x3
I0403 16:08:17.271230 17125 net.cpp:141] Setting up inception_4b/3x3
I0403 16:08:17.271258 17125 net.cpp:148] Top shape: 24 224 14 14 (1053696)
I0403 16:08:17.271273 17125 net.cpp:156] Memory required for data: 960654624
I0403 16:08:17.271291 17125 layer_factory.hpp:77] Creating layer inception_4b/relu_3x3
I0403 16:08:17.271311 17125 net.cpp:91] Creating Layer inception_4b/relu_3x3
I0403 16:08:17.271327 17125 net.cpp:425] inception_4b/relu_3x3 <- inception_4b/3x3
I0403 16:08:17.271343 17125 net.cpp:386] inception_4b/relu_3x3 -> inception_4b/3x3 (in-place)
I0403 16:08:17.271517 17125 net.cpp:141] Setting up inception_4b/relu_3x3
I0403 16:08:17.271541 17125 net.cpp:148] Top shape: 24 224 14 14 (1053696)
I0403 16:08:17.271555 17125 net.cpp:156] Memory required for data: 964869408
I0403 16:08:17.271569 17125 layer_factory.hpp:77] Creating layer inception_4b/5x5_reduce
I0403 16:08:17.271590 17125 net.cpp:91] Creating Layer inception_4b/5x5_reduce
I0403 16:08:17.271612 17125 net.cpp:425] inception_4b/5x5_reduce <- inception_4a/output_inception_4a/output_0_split_3
I0403 16:08:17.271634 17125 net.cpp:399] inception_4b/5x5_reduce -> inception_4b/5x5_reduce
I0403 16:08:17.272691 17125 net.cpp:141] Setting up inception_4b/5x5_reduce
I0403 16:08:17.272718 17125 net.cpp:148] Top shape: 24 24 14 14 (112896)
I0403 16:08:17.272733 17125 net.cpp:156] Memory required for data: 965320992
I0403 16:08:17.272750 17125 layer_factory.hpp:77] Creating layer inception_4b/relu_5x5_reduce
I0403 16:08:17.272768 17125 net.cpp:91] Creating Layer inception_4b/relu_5x5_reduce
I0403 16:08:17.272799 17125 net.cpp:425] inception_4b/relu_5x5_reduce <- inception_4b/5x5_reduce
I0403 16:08:17.272819 17125 net.cpp:386] inception_4b/relu_5x5_reduce -> inception_4b/5x5_reduce (in-place)
I0403 16:08:17.272999 17125 net.cpp:141] Setting up inception_4b/relu_5x5_reduce
I0403 16:08:17.273023 17125 net.cpp:148] Top shape: 24 24 14 14 (112896)
I0403 16:08:17.273037 17125 net.cpp:156] Memory required for data: 965772576
I0403 16:08:17.273051 17125 layer_factory.hpp:77] Creating layer inception_4b/5x5
I0403 16:08:17.273072 17125 net.cpp:91] Creating Layer inception_4b/5x5
I0403 16:08:17.273089 17125 net.cpp:425] inception_4b/5x5 <- inception_4b/5x5_reduce
I0403 16:08:17.273109 17125 net.cpp:399] inception_4b/5x5 -> inception_4b/5x5
I0403 16:08:17.274298 17125 net.cpp:141] Setting up inception_4b/5x5
I0403 16:08:17.274327 17125 net.cpp:148] Top shape: 24 64 14 14 (301056)
I0403 16:08:17.274343 17125 net.cpp:156] Memory required for data: 966976800
I0403 16:08:17.274360 17125 layer_factory.hpp:77] Creating layer inception_4b/relu_5x5
I0403 16:08:17.274379 17125 net.cpp:91] Creating Layer inception_4b/relu_5x5
I0403 16:08:17.274394 17125 net.cpp:425] inception_4b/relu_5x5 <- inception_4b/5x5
I0403 16:08:17.274413 17125 net.cpp:386] inception_4b/relu_5x5 -> inception_4b/5x5 (in-place)
I0403 16:08:17.274703 17125 net.cpp:141] Setting up inception_4b/relu_5x5
I0403 16:08:17.274739 17125 net.cpp:148] Top shape: 24 64 14 14 (301056)
I0403 16:08:17.274755 17125 net.cpp:156] Memory required for data: 968181024
I0403 16:08:17.274770 17125 layer_factory.hpp:77] Creating layer inception_4b/pool
I0403 16:08:17.274787 17125 net.cpp:91] Creating Layer inception_4b/pool
I0403 16:08:17.274802 17125 net.cpp:425] inception_4b/pool <- inception_4a/output_inception_4a/output_0_split_4
I0403 16:08:17.274822 17125 net.cpp:399] inception_4b/pool -> inception_4b/pool
I0403 16:08:17.274883 17125 net.cpp:141] Setting up inception_4b/pool
I0403 16:08:17.274907 17125 net.cpp:148] Top shape: 24 512 14 14 (2408448)
I0403 16:08:17.274924 17125 net.cpp:156] Memory required for data: 977814816
I0403 16:08:17.274937 17125 layer_factory.hpp:77] Creating layer inception_4b/pool_proj
I0403 16:08:17.274956 17125 net.cpp:91] Creating Layer inception_4b/pool_proj
I0403 16:08:17.274973 17125 net.cpp:425] inception_4b/pool_proj <- inception_4b/pool
I0403 16:08:17.274994 17125 net.cpp:399] inception_4b/pool_proj -> inception_4b/pool_proj
I0403 16:08:17.276155 17125 net.cpp:141] Setting up inception_4b/pool_proj
I0403 16:08:17.276182 17125 net.cpp:148] Top shape: 24 64 14 14 (301056)
I0403 16:08:17.276197 17125 net.cpp:156] Memory required for data: 979019040
I0403 16:08:17.276216 17125 layer_factory.hpp:77] Creating layer inception_4b/relu_pool_proj
I0403 16:08:17.276232 17125 net.cpp:91] Creating Layer inception_4b/relu_pool_proj
I0403 16:08:17.276257 17125 net.cpp:425] inception_4b/relu_pool_proj <- inception_4b/pool_proj
I0403 16:08:17.276275 17125 net.cpp:386] inception_4b/relu_pool_proj -> inception_4b/pool_proj (in-place)
I0403 16:08:17.276449 17125 net.cpp:141] Setting up inception_4b/relu_pool_proj
I0403 16:08:17.276473 17125 net.cpp:148] Top shape: 24 64 14 14 (301056)
I0403 16:08:17.276487 17125 net.cpp:156] Memory required for data: 980223264
I0403 16:08:17.276501 17125 layer_factory.hpp:77] Creating layer inception_4b/output
I0403 16:08:17.276522 17125 net.cpp:91] Creating Layer inception_4b/output
I0403 16:08:17.276540 17125 net.cpp:425] inception_4b/output <- inception_4b/1x1
I0403 16:08:17.276554 17125 net.cpp:425] inception_4b/output <- inception_4b/3x3
I0403 16:08:17.276571 17125 net.cpp:425] inception_4b/output <- inception_4b/5x5
I0403 16:08:17.276585 17125 net.cpp:425] inception_4b/output <- inception_4b/pool_proj
I0403 16:08:17.276607 17125 net.cpp:399] inception_4b/output -> inception_4b/output
I0403 16:08:17.276655 17125 net.cpp:141] Setting up inception_4b/output
I0403 16:08:17.276679 17125 net.cpp:148] Top shape: 24 512 14 14 (2408448)
I0403 16:08:17.276692 17125 net.cpp:156] Memory required for data: 989857056
I0403 16:08:17.276721 17125 layer_factory.hpp:77] Creating layer inception_4b/output_inception_4b/output_0_split
I0403 16:08:17.276739 17125 net.cpp:91] Creating Layer inception_4b/output_inception_4b/output_0_split
I0403 16:08:17.276754 17125 net.cpp:425] inception_4b/output_inception_4b/output_0_split <- inception_4b/output
I0403 16:08:17.276772 17125 net.cpp:399] inception_4b/output_inception_4b/output_0_split -> inception_4b/output_inception_4b/output_0_split_0
I0403 16:08:17.276793 17125 net.cpp:399] inception_4b/output_inception_4b/output_0_split -> inception_4b/output_inception_4b/output_0_split_1
I0403 16:08:17.276813 17125 net.cpp:399] inception_4b/output_inception_4b/output_0_split -> inception_4b/output_inception_4b/output_0_split_2
I0403 16:08:17.276831 17125 net.cpp:399] inception_4b/output_inception_4b/output_0_split -> inception_4b/output_inception_4b/output_0_split_3
I0403 16:08:17.276912 17125 net.cpp:141] Setting up inception_4b/output_inception_4b/output_0_split
I0403 16:08:17.276937 17125 net.cpp:148] Top shape: 24 512 14 14 (2408448)
I0403 16:08:17.276954 17125 net.cpp:148] Top shape: 24 512 14 14 (2408448)
I0403 16:08:17.276969 17125 net.cpp:148] Top shape: 24 512 14 14 (2408448)
I0403 16:08:17.276984 17125 net.cpp:148] Top shape: 24 512 14 14 (2408448)
I0403 16:08:17.276998 17125 net.cpp:156] Memory required for data: 1028392224
I0403 16:08:17.277010 17125 layer_factory.hpp:77] Creating layer inception_4c/1x1
I0403 16:08:17.277032 17125 net.cpp:91] Creating Layer inception_4c/1x1
I0403 16:08:17.277050 17125 net.cpp:425] inception_4c/1x1 <- inception_4b/output_inception_4b/output_0_split_0
I0403 16:08:17.277066 17125 net.cpp:399] inception_4c/1x1 -> inception_4c/1x1
I0403 16:08:17.278445 17125 net.cpp:141] Setting up inception_4c/1x1
I0403 16:08:17.278472 17125 net.cpp:148] Top shape: 24 128 14 14 (602112)
I0403 16:08:17.278487 17125 net.cpp:156] Memory required for data: 1030800672
I0403 16:08:17.278504 17125 layer_factory.hpp:77] Creating layer inception_4c/relu_1x1
I0403 16:08:17.278525 17125 net.cpp:91] Creating Layer inception_4c/relu_1x1
I0403 16:08:17.278542 17125 net.cpp:425] inception_4c/relu_1x1 <- inception_4c/1x1
I0403 16:08:17.278558 17125 net.cpp:386] inception_4c/relu_1x1 -> inception_4c/1x1 (in-place)
I0403 16:08:17.278738 17125 net.cpp:141] Setting up inception_4c/relu_1x1
I0403 16:08:17.278764 17125 net.cpp:148] Top shape: 24 128 14 14 (602112)
I0403 16:08:17.278779 17125 net.cpp:156] Memory required for data: 1033209120
I0403 16:08:17.278794 17125 layer_factory.hpp:77] Creating layer inception_4c/3x3_reduce
I0403 16:08:17.278813 17125 net.cpp:91] Creating Layer inception_4c/3x3_reduce
I0403 16:08:17.278831 17125 net.cpp:425] inception_4c/3x3_reduce <- inception_4b/output_inception_4b/output_0_split_1
I0403 16:08:17.278849 17125 net.cpp:399] inception_4c/3x3_reduce -> inception_4c/3x3_reduce
I0403 16:08:17.280751 17125 net.cpp:141] Setting up inception_4c/3x3_reduce
I0403 16:08:17.280781 17125 net.cpp:148] Top shape: 24 128 14 14 (602112)
I0403 16:08:17.280797 17125 net.cpp:156] Memory required for data: 1035617568
I0403 16:08:17.280813 17125 layer_factory.hpp:77] Creating layer inception_4c/relu_3x3_reduce
I0403 16:08:17.280830 17125 net.cpp:91] Creating Layer inception_4c/relu_3x3_reduce
I0403 16:08:17.280845 17125 net.cpp:425] inception_4c/relu_3x3_reduce <- inception_4c/3x3_reduce
I0403 16:08:17.280864 17125 net.cpp:386] inception_4c/relu_3x3_reduce -> inception_4c/3x3_reduce (in-place)
I0403 16:08:17.281142 17125 net.cpp:141] Setting up inception_4c/relu_3x3_reduce
I0403 16:08:17.281167 17125 net.cpp:148] Top shape: 24 128 14 14 (602112)
I0403 16:08:17.281182 17125 net.cpp:156] Memory required for data: 1038026016
I0403 16:08:17.281196 17125 layer_factory.hpp:77] Creating layer inception_4c/3x3
I0403 16:08:17.281219 17125 net.cpp:91] Creating Layer inception_4c/3x3
I0403 16:08:17.281236 17125 net.cpp:425] inception_4c/3x3 <- inception_4c/3x3_reduce
I0403 16:08:17.281256 17125 net.cpp:399] inception_4c/3x3 -> inception_4c/3x3
I0403 16:08:17.284764 17125 net.cpp:141] Setting up inception_4c/3x3
I0403 16:08:17.284802 17125 net.cpp:148] Top shape: 24 256 14 14 (1204224)
I0403 16:08:17.284818 17125 net.cpp:156] Memory required for data: 1042842912
I0403 16:08:17.284847 17125 layer_factory.hpp:77] Creating layer inception_4c/relu_3x3
I0403 16:08:17.284868 17125 net.cpp:91] Creating Layer inception_4c/relu_3x3
I0403 16:08:17.284883 17125 net.cpp:425] inception_4c/relu_3x3 <- inception_4c/3x3
I0403 16:08:17.284901 17125 net.cpp:386] inception_4c/relu_3x3 -> inception_4c/3x3 (in-place)
I0403 16:08:17.285070 17125 net.cpp:141] Setting up inception_4c/relu_3x3
I0403 16:08:17.285094 17125 net.cpp:148] Top shape: 24 256 14 14 (1204224)
I0403 16:08:17.285109 17125 net.cpp:156] Memory required for data: 1047659808
I0403 16:08:17.285121 17125 layer_factory.hpp:77] Creating layer inception_4c/5x5_reduce
I0403 16:08:17.285142 17125 net.cpp:91] Creating Layer inception_4c/5x5_reduce
I0403 16:08:17.285159 17125 net.cpp:425] inception_4c/5x5_reduce <- inception_4b/output_inception_4b/output_0_split_2
I0403 16:08:17.285179 17125 net.cpp:399] inception_4c/5x5_reduce -> inception_4c/5x5_reduce
I0403 16:08:17.286204 17125 net.cpp:141] Setting up inception_4c/5x5_reduce
I0403 16:08:17.286231 17125 net.cpp:148] Top shape: 24 24 14 14 (112896)
I0403 16:08:17.286244 17125 net.cpp:156] Memory required for data: 1048111392
I0403 16:08:17.286262 17125 layer_factory.hpp:77] Creating layer inception_4c/relu_5x5_reduce
I0403 16:08:17.286278 17125 net.cpp:91] Creating Layer inception_4c/relu_5x5_reduce
I0403 16:08:17.286294 17125 net.cpp:425] inception_4c/relu_5x5_reduce <- inception_4c/5x5_reduce
I0403 16:08:17.286314 17125 net.cpp:386] inception_4c/relu_5x5_reduce -> inception_4c/5x5_reduce (in-place)
I0403 16:08:17.286487 17125 net.cpp:141] Setting up inception_4c/relu_5x5_reduce
I0403 16:08:17.286510 17125 net.cpp:148] Top shape: 24 24 14 14 (112896)
I0403 16:08:17.286525 17125 net.cpp:156] Memory required for data: 1048562976
I0403 16:08:17.286538 17125 layer_factory.hpp:77] Creating layer inception_4c/5x5
I0403 16:08:17.286558 17125 net.cpp:91] Creating Layer inception_4c/5x5
I0403 16:08:17.286574 17125 net.cpp:425] inception_4c/5x5 <- inception_4c/5x5_reduce
I0403 16:08:17.286594 17125 net.cpp:399] inception_4c/5x5 -> inception_4c/5x5
I0403 16:08:17.287775 17125 net.cpp:141] Setting up inception_4c/5x5
I0403 16:08:17.287799 17125 net.cpp:148] Top shape: 24 64 14 14 (301056)
I0403 16:08:17.287814 17125 net.cpp:156] Memory required for data: 1049767200
I0403 16:08:17.287832 17125 layer_factory.hpp:77] Creating layer inception_4c/relu_5x5
I0403 16:08:17.287853 17125 net.cpp:91] Creating Layer inception_4c/relu_5x5
I0403 16:08:17.287869 17125 net.cpp:425] inception_4c/relu_5x5 <- inception_4c/5x5
I0403 16:08:17.287885 17125 net.cpp:386] inception_4c/relu_5x5 -> inception_4c/5x5 (in-place)
I0403 16:08:17.288159 17125 net.cpp:141] Setting up inception_4c/relu_5x5
I0403 16:08:17.288184 17125 net.cpp:148] Top shape: 24 64 14 14 (301056)
I0403 16:08:17.288198 17125 net.cpp:156] Memory required for data: 1050971424
I0403 16:08:17.288211 17125 layer_factory.hpp:77] Creating layer inception_4c/pool
I0403 16:08:17.288230 17125 net.cpp:91] Creating Layer inception_4c/pool
I0403 16:08:17.288245 17125 net.cpp:425] inception_4c/pool <- inception_4b/output_inception_4b/output_0_split_3
I0403 16:08:17.288262 17125 net.cpp:399] inception_4c/pool -> inception_4c/pool
I0403 16:08:17.288326 17125 net.cpp:141] Setting up inception_4c/pool
I0403 16:08:17.288348 17125 net.cpp:148] Top shape: 24 512 14 14 (2408448)
I0403 16:08:17.288362 17125 net.cpp:156] Memory required for data: 1060605216
I0403 16:08:17.288375 17125 layer_factory.hpp:77] Creating layer inception_4c/pool_proj
I0403 16:08:17.288396 17125 net.cpp:91] Creating Layer inception_4c/pool_proj
I0403 16:08:17.288413 17125 net.cpp:425] inception_4c/pool_proj <- inception_4c/pool
I0403 16:08:17.288432 17125 net.cpp:399] inception_4c/pool_proj -> inception_4c/pool_proj
I0403 16:08:17.289608 17125 net.cpp:141] Setting up inception_4c/pool_proj
I0403 16:08:17.289634 17125 net.cpp:148] Top shape: 24 64 14 14 (301056)
I0403 16:08:17.289664 17125 net.cpp:156] Memory required for data: 1061809440
I0403 16:08:17.289681 17125 layer_factory.hpp:77] Creating layer inception_4c/relu_pool_proj
I0403 16:08:17.289698 17125 net.cpp:91] Creating Layer inception_4c/relu_pool_proj
I0403 16:08:17.289713 17125 net.cpp:425] inception_4c/relu_pool_proj <- inception_4c/pool_proj
I0403 16:08:17.289731 17125 net.cpp:386] inception_4c/relu_pool_proj -> inception_4c/pool_proj (in-place)
I0403 16:08:17.289902 17125 net.cpp:141] Setting up inception_4c/relu_pool_proj
I0403 16:08:17.289927 17125 net.cpp:148] Top shape: 24 64 14 14 (301056)
I0403 16:08:17.289939 17125 net.cpp:156] Memory required for data: 1063013664
I0403 16:08:17.289952 17125 layer_factory.hpp:77] Creating layer inception_4c/output
I0403 16:08:17.289968 17125 net.cpp:91] Creating Layer inception_4c/output
I0403 16:08:17.289983 17125 net.cpp:425] inception_4c/output <- inception_4c/1x1
I0403 16:08:17.289997 17125 net.cpp:425] inception_4c/output <- inception_4c/3x3
I0403 16:08:17.290012 17125 net.cpp:425] inception_4c/output <- inception_4c/5x5
I0403 16:08:17.290027 17125 net.cpp:425] inception_4c/output <- inception_4c/pool_proj
I0403 16:08:17.290045 17125 net.cpp:399] inception_4c/output -> inception_4c/output
I0403 16:08:17.290091 17125 net.cpp:141] Setting up inception_4c/output
I0403 16:08:17.290112 17125 net.cpp:148] Top shape: 24 512 14 14 (2408448)
I0403 16:08:17.290125 17125 net.cpp:156] Memory required for data: 1072647456
I0403 16:08:17.290138 17125 layer_factory.hpp:77] Creating layer inception_4c/output_inception_4c/output_0_split
I0403 16:08:17.290153 17125 net.cpp:91] Creating Layer inception_4c/output_inception_4c/output_0_split
I0403 16:08:17.290168 17125 net.cpp:425] inception_4c/output_inception_4c/output_0_split <- inception_4c/output
I0403 16:08:17.290185 17125 net.cpp:399] inception_4c/output_inception_4c/output_0_split -> inception_4c/output_inception_4c/output_0_split_0
I0403 16:08:17.290205 17125 net.cpp:399] inception_4c/output_inception_4c/output_0_split -> inception_4c/output_inception_4c/output_0_split_1
I0403 16:08:17.290223 17125 net.cpp:399] inception_4c/output_inception_4c/output_0_split -> inception_4c/output_inception_4c/output_0_split_2
I0403 16:08:17.290241 17125 net.cpp:399] inception_4c/output_inception_4c/output_0_split -> inception_4c/output_inception_4c/output_0_split_3
I0403 16:08:17.290324 17125 net.cpp:141] Setting up inception_4c/output_inception_4c/output_0_split
I0403 16:08:17.290351 17125 net.cpp:148] Top shape: 24 512 14 14 (2408448)
I0403 16:08:17.290366 17125 net.cpp:148] Top shape: 24 512 14 14 (2408448)
I0403 16:08:17.290381 17125 net.cpp:148] Top shape: 24 512 14 14 (2408448)
I0403 16:08:17.290396 17125 net.cpp:148] Top shape: 24 512 14 14 (2408448)
I0403 16:08:17.290408 17125 net.cpp:156] Memory required for data: 1111182624
I0403 16:08:17.290421 17125 layer_factory.hpp:77] Creating layer inception_4d/1x1
I0403 16:08:17.290441 17125 net.cpp:91] Creating Layer inception_4d/1x1
I0403 16:08:17.290457 17125 net.cpp:425] inception_4d/1x1 <- inception_4c/output_inception_4c/output_0_split_0
I0403 16:08:17.290474 17125 net.cpp:399] inception_4d/1x1 -> inception_4d/1x1
I0403 16:08:17.291843 17125 net.cpp:141] Setting up inception_4d/1x1
I0403 16:08:17.291870 17125 net.cpp:148] Top shape: 24 112 14 14 (526848)
I0403 16:08:17.291884 17125 net.cpp:156] Memory required for data: 1113290016
I0403 16:08:17.291901 17125 layer_factory.hpp:77] Creating layer inception_4d/relu_1x1
I0403 16:08:17.291921 17125 net.cpp:91] Creating Layer inception_4d/relu_1x1
I0403 16:08:17.291937 17125 net.cpp:425] inception_4d/relu_1x1 <- inception_4d/1x1
I0403 16:08:17.291954 17125 net.cpp:386] inception_4d/relu_1x1 -> inception_4d/1x1 (in-place)
I0403 16:08:17.292129 17125 net.cpp:141] Setting up inception_4d/relu_1x1
I0403 16:08:17.292151 17125 net.cpp:148] Top shape: 24 112 14 14 (526848)
I0403 16:08:17.292165 17125 net.cpp:156] Memory required for data: 1115397408
I0403 16:08:17.292178 17125 layer_factory.hpp:77] Creating layer inception_4d/3x3_reduce
I0403 16:08:17.292213 17125 net.cpp:91] Creating Layer inception_4d/3x3_reduce
I0403 16:08:17.292230 17125 net.cpp:425] inception_4d/3x3_reduce <- inception_4c/output_inception_4c/output_0_split_1
I0403 16:08:17.292250 17125 net.cpp:399] inception_4d/3x3_reduce -> inception_4d/3x3_reduce
I0403 16:08:17.293730 17125 net.cpp:141] Setting up inception_4d/3x3_reduce
I0403 16:08:17.293757 17125 net.cpp:148] Top shape: 24 144 14 14 (677376)
I0403 16:08:17.293772 17125 net.cpp:156] Memory required for data: 1118106912
I0403 16:08:17.293789 17125 layer_factory.hpp:77] Creating layer inception_4d/relu_3x3_reduce
I0403 16:08:17.293820 17125 net.cpp:91] Creating Layer inception_4d/relu_3x3_reduce
I0403 16:08:17.293836 17125 net.cpp:425] inception_4d/relu_3x3_reduce <- inception_4d/3x3_reduce
I0403 16:08:17.293853 17125 net.cpp:386] inception_4d/relu_3x3_reduce -> inception_4d/3x3_reduce (in-place)
I0403 16:08:17.294126 17125 net.cpp:141] Setting up inception_4d/relu_3x3_reduce
I0403 16:08:17.294150 17125 net.cpp:148] Top shape: 24 144 14 14 (677376)
I0403 16:08:17.294164 17125 net.cpp:156] Memory required for data: 1120816416
I0403 16:08:17.294178 17125 layer_factory.hpp:77] Creating layer inception_4d/3x3
I0403 16:08:17.294198 17125 net.cpp:91] Creating Layer inception_4d/3x3
I0403 16:08:17.294214 17125 net.cpp:425] inception_4d/3x3 <- inception_4d/3x3_reduce
I0403 16:08:17.294234 17125 net.cpp:399] inception_4d/3x3 -> inception_4d/3x3
I0403 16:08:17.298400 17125 net.cpp:141] Setting up inception_4d/3x3
I0403 16:08:17.298429 17125 net.cpp:148] Top shape: 24 288 14 14 (1354752)
I0403 16:08:17.298445 17125 net.cpp:156] Memory required for data: 1126235424
I0403 16:08:17.298463 17125 layer_factory.hpp:77] Creating layer inception_4d/relu_3x3
I0403 16:08:17.298480 17125 net.cpp:91] Creating Layer inception_4d/relu_3x3
I0403 16:08:17.298496 17125 net.cpp:425] inception_4d/relu_3x3 <- inception_4d/3x3
I0403 16:08:17.298511 17125 net.cpp:386] inception_4d/relu_3x3 -> inception_4d/3x3 (in-place)
I0403 16:08:17.298709 17125 net.cpp:141] Setting up inception_4d/relu_3x3
I0403 16:08:17.298734 17125 net.cpp:148] Top shape: 24 288 14 14 (1354752)
I0403 16:08:17.298748 17125 net.cpp:156] Memory required for data: 1131654432
I0403 16:08:17.298761 17125 layer_factory.hpp:77] Creating layer inception_4d/5x5_reduce
I0403 16:08:17.298782 17125 net.cpp:91] Creating Layer inception_4d/5x5_reduce
I0403 16:08:17.298799 17125 net.cpp:425] inception_4d/5x5_reduce <- inception_4c/output_inception_4c/output_0_split_2
I0403 16:08:17.298832 17125 net.cpp:399] inception_4d/5x5_reduce -> inception_4d/5x5_reduce
I0403 16:08:17.299943 17125 net.cpp:141] Setting up inception_4d/5x5_reduce
I0403 16:08:17.299971 17125 net.cpp:148] Top shape: 24 32 14 14 (150528)
I0403 16:08:17.299988 17125 net.cpp:156] Memory required for data: 1132256544
I0403 16:08:17.300004 17125 layer_factory.hpp:77] Creating layer inception_4d/relu_5x5_reduce
I0403 16:08:17.300021 17125 net.cpp:91] Creating Layer inception_4d/relu_5x5_reduce
I0403 16:08:17.300042 17125 net.cpp:425] inception_4d/relu_5x5_reduce <- inception_4d/5x5_reduce
I0403 16:08:17.300060 17125 net.cpp:386] inception_4d/relu_5x5_reduce -> inception_4d/5x5_reduce (in-place)
I0403 16:08:17.300235 17125 net.cpp:141] Setting up inception_4d/relu_5x5_reduce
I0403 16:08:17.300257 17125 net.cpp:148] Top shape: 24 32 14 14 (150528)
I0403 16:08:17.300271 17125 net.cpp:156] Memory required for data: 1132858656
I0403 16:08:17.300285 17125 layer_factory.hpp:77] Creating layer inception_4d/5x5
I0403 16:08:17.300305 17125 net.cpp:91] Creating Layer inception_4d/5x5
I0403 16:08:17.300323 17125 net.cpp:425] inception_4d/5x5 <- inception_4d/5x5_reduce
I0403 16:08:17.300341 17125 net.cpp:399] inception_4d/5x5 -> inception_4d/5x5
I0403 16:08:17.301743 17125 net.cpp:141] Setting up inception_4d/5x5
I0403 16:08:17.301769 17125 net.cpp:148] Top shape: 24 64 14 14 (301056)
I0403 16:08:17.301784 17125 net.cpp:156] Memory required for data: 1134062880
I0403 16:08:17.301800 17125 layer_factory.hpp:77] Creating layer inception_4d/relu_5x5
I0403 16:08:17.301832 17125 net.cpp:91] Creating Layer inception_4d/relu_5x5
I0403 16:08:17.301848 17125 net.cpp:425] inception_4d/relu_5x5 <- inception_4d/5x5
I0403 16:08:17.301867 17125 net.cpp:386] inception_4d/relu_5x5 -> inception_4d/5x5 (in-place)
I0403 16:08:17.302160 17125 net.cpp:141] Setting up inception_4d/relu_5x5
I0403 16:08:17.302184 17125 net.cpp:148] Top shape: 24 64 14 14 (301056)
I0403 16:08:17.302198 17125 net.cpp:156] Memory required for data: 1135267104
I0403 16:08:17.302212 17125 layer_factory.hpp:77] Creating layer inception_4d/pool
I0403 16:08:17.302228 17125 net.cpp:91] Creating Layer inception_4d/pool
I0403 16:08:17.302242 17125 net.cpp:425] inception_4d/pool <- inception_4c/output_inception_4c/output_0_split_3
I0403 16:08:17.302261 17125 net.cpp:399] inception_4d/pool -> inception_4d/pool
I0403 16:08:17.302326 17125 net.cpp:141] Setting up inception_4d/pool
I0403 16:08:17.302350 17125 net.cpp:148] Top shape: 24 512 14 14 (2408448)
I0403 16:08:17.302362 17125 net.cpp:156] Memory required for data: 1144900896
I0403 16:08:17.302376 17125 layer_factory.hpp:77] Creating layer inception_4d/pool_proj
I0403 16:08:17.302398 17125 net.cpp:91] Creating Layer inception_4d/pool_proj
I0403 16:08:17.302414 17125 net.cpp:425] inception_4d/pool_proj <- inception_4d/pool
I0403 16:08:17.302431 17125 net.cpp:399] inception_4d/pool_proj -> inception_4d/pool_proj
I0403 16:08:17.304121 17125 net.cpp:141] Setting up inception_4d/pool_proj
I0403 16:08:17.304150 17125 net.cpp:148] Top shape: 24 64 14 14 (301056)
I0403 16:08:17.304167 17125 net.cpp:156] Memory required for data: 1146105120
I0403 16:08:17.304183 17125 layer_factory.hpp:77] Creating layer inception_4d/relu_pool_proj
I0403 16:08:17.304199 17125 net.cpp:91] Creating Layer inception_4d/relu_pool_proj
I0403 16:08:17.304214 17125 net.cpp:425] inception_4d/relu_pool_proj <- inception_4d/pool_proj
I0403 16:08:17.304230 17125 net.cpp:386] inception_4d/relu_pool_proj -> inception_4d/pool_proj (in-place)
I0403 16:08:17.304406 17125 net.cpp:141] Setting up inception_4d/relu_pool_proj
I0403 16:08:17.304430 17125 net.cpp:148] Top shape: 24 64 14 14 (301056)
I0403 16:08:17.304443 17125 net.cpp:156] Memory required for data: 1147309344
I0403 16:08:17.304457 17125 layer_factory.hpp:77] Creating layer inception_4d/output
I0403 16:08:17.304473 17125 net.cpp:91] Creating Layer inception_4d/output
I0403 16:08:17.304487 17125 net.cpp:425] inception_4d/output <- inception_4d/1x1
I0403 16:08:17.304502 17125 net.cpp:425] inception_4d/output <- inception_4d/3x3
I0403 16:08:17.304517 17125 net.cpp:425] inception_4d/output <- inception_4d/5x5
I0403 16:08:17.304533 17125 net.cpp:425] inception_4d/output <- inception_4d/pool_proj
I0403 16:08:17.304550 17125 net.cpp:399] inception_4d/output -> inception_4d/output
I0403 16:08:17.304595 17125 net.cpp:141] Setting up inception_4d/output
I0403 16:08:17.304644 17125 net.cpp:148] Top shape: 24 528 14 14 (2483712)
I0403 16:08:17.304669 17125 net.cpp:156] Memory required for data: 1157244192
I0403 16:08:17.304683 17125 layer_factory.hpp:77] Creating layer inception_4d/output_inception_4d/output_0_split
I0403 16:08:17.304700 17125 net.cpp:91] Creating Layer inception_4d/output_inception_4d/output_0_split
I0403 16:08:17.304714 17125 net.cpp:425] inception_4d/output_inception_4d/output_0_split <- inception_4d/output
I0403 16:08:17.304734 17125 net.cpp:399] inception_4d/output_inception_4d/output_0_split -> inception_4d/output_inception_4d/output_0_split_0
I0403 16:08:17.304755 17125 net.cpp:399] inception_4d/output_inception_4d/output_0_split -> inception_4d/output_inception_4d/output_0_split_1
I0403 16:08:17.304775 17125 net.cpp:399] inception_4d/output_inception_4d/output_0_split -> inception_4d/output_inception_4d/output_0_split_2
I0403 16:08:17.304795 17125 net.cpp:399] inception_4d/output_inception_4d/output_0_split -> inception_4d/output_inception_4d/output_0_split_3
I0403 16:08:17.304816 17125 net.cpp:399] inception_4d/output_inception_4d/output_0_split -> inception_4d/output_inception_4d/output_0_split_4
I0403 16:08:17.304915 17125 net.cpp:141] Setting up inception_4d/output_inception_4d/output_0_split
I0403 16:08:17.304960 17125 net.cpp:148] Top shape: 24 528 14 14 (2483712)
I0403 16:08:17.304975 17125 net.cpp:148] Top shape: 24 528 14 14 (2483712)
I0403 16:08:17.304991 17125 net.cpp:148] Top shape: 24 528 14 14 (2483712)
I0403 16:08:17.305013 17125 net.cpp:148] Top shape: 24 528 14 14 (2483712)
I0403 16:08:17.305028 17125 net.cpp:148] Top shape: 24 528 14 14 (2483712)
I0403 16:08:17.305042 17125 net.cpp:156] Memory required for data: 1206918432
I0403 16:08:17.305054 17125 layer_factory.hpp:77] Creating layer loss2/ave_pool
I0403 16:08:17.305073 17125 net.cpp:91] Creating Layer loss2/ave_pool
I0403 16:08:17.305089 17125 net.cpp:425] loss2/ave_pool <- inception_4d/output_inception_4d/output_0_split_0
I0403 16:08:17.305106 17125 net.cpp:399] loss2/ave_pool -> loss2/ave_pool
I0403 16:08:17.305413 17125 net.cpp:141] Setting up loss2/ave_pool
I0403 16:08:17.305441 17125 net.cpp:148] Top shape: 24 528 4 4 (202752)
I0403 16:08:17.305456 17125 net.cpp:156] Memory required for data: 1207729440
I0403 16:08:17.305471 17125 layer_factory.hpp:77] Creating layer loss2/conv
I0403 16:08:17.305492 17125 net.cpp:91] Creating Layer loss2/conv
I0403 16:08:17.305510 17125 net.cpp:425] loss2/conv <- loss2/ave_pool
I0403 16:08:17.305527 17125 net.cpp:399] loss2/conv -> loss2/conv
I0403 16:08:17.307379 17125 net.cpp:141] Setting up loss2/conv
I0403 16:08:17.307406 17125 net.cpp:148] Top shape: 24 128 4 4 (49152)
I0403 16:08:17.307421 17125 net.cpp:156] Memory required for data: 1207926048
I0403 16:08:17.307440 17125 layer_factory.hpp:77] Creating layer loss2/relu_conv
I0403 16:08:17.307459 17125 net.cpp:91] Creating Layer loss2/relu_conv
I0403 16:08:17.307476 17125 net.cpp:425] loss2/relu_conv <- loss2/conv
I0403 16:08:17.307492 17125 net.cpp:386] loss2/relu_conv -> loss2/conv (in-place)
I0403 16:08:17.307772 17125 net.cpp:141] Setting up loss2/relu_conv
I0403 16:08:17.307797 17125 net.cpp:148] Top shape: 24 128 4 4 (49152)
I0403 16:08:17.307812 17125 net.cpp:156] Memory required for data: 1208122656
I0403 16:08:17.307827 17125 layer_factory.hpp:77] Creating layer loss2/fc
I0403 16:08:17.307852 17125 net.cpp:91] Creating Layer loss2/fc
I0403 16:08:17.307868 17125 net.cpp:425] loss2/fc <- loss2/conv
I0403 16:08:17.307886 17125 net.cpp:399] loss2/fc -> loss2/fc
I0403 16:08:17.325050 17125 net.cpp:141] Setting up loss2/fc
I0403 16:08:17.325083 17125 net.cpp:148] Top shape: 24 1024 (24576)
I0403 16:08:17.325098 17125 net.cpp:156] Memory required for data: 1208220960
I0403 16:08:17.325114 17125 layer_factory.hpp:77] Creating layer loss2/relu_fc
I0403 16:08:17.325131 17125 net.cpp:91] Creating Layer loss2/relu_fc
I0403 16:08:17.325146 17125 net.cpp:425] loss2/relu_fc <- loss2/fc
I0403 16:08:17.325165 17125 net.cpp:386] loss2/relu_fc -> loss2/fc (in-place)
I0403 16:08:17.325445 17125 net.cpp:141] Setting up loss2/relu_fc
I0403 16:08:17.325471 17125 net.cpp:148] Top shape: 24 1024 (24576)
I0403 16:08:17.325486 17125 net.cpp:156] Memory required for data: 1208319264
I0403 16:08:17.325505 17125 layer_factory.hpp:77] Creating layer loss2/drop_fc
I0403 16:08:17.325521 17125 net.cpp:91] Creating Layer loss2/drop_fc
I0403 16:08:17.325536 17125 net.cpp:425] loss2/drop_fc <- loss2/fc
I0403 16:08:17.325556 17125 net.cpp:386] loss2/drop_fc -> loss2/fc (in-place)
I0403 16:08:17.325605 17125 net.cpp:141] Setting up loss2/drop_fc
I0403 16:08:17.325628 17125 net.cpp:148] Top shape: 24 1024 (24576)
I0403 16:08:17.325642 17125 net.cpp:156] Memory required for data: 1208417568
I0403 16:08:17.325656 17125 layer_factory.hpp:77] Creating layer loss2/classifier_plantvillage
I0403 16:08:17.325676 17125 net.cpp:91] Creating Layer loss2/classifier_plantvillage
I0403 16:08:17.325692 17125 net.cpp:425] loss2/classifier_plantvillage <- loss2/fc
I0403 16:08:17.325711 17125 net.cpp:399] loss2/classifier_plantvillage -> loss2/classifier_plantvillage
I0403 16:08:17.326092 17125 net.cpp:141] Setting up loss2/classifier_plantvillage
I0403 16:08:17.326117 17125 net.cpp:148] Top shape: 24 38 (912)
I0403 16:08:17.326148 17125 net.cpp:156] Memory required for data: 1208421216
I0403 16:08:17.326165 17125 layer_factory.hpp:77] Creating layer loss2/classifier_plantvillage_loss2/classifier_plantvillage_0_split
I0403 16:08:17.326184 17125 net.cpp:91] Creating Layer loss2/classifier_plantvillage_loss2/classifier_plantvillage_0_split
I0403 16:08:17.326200 17125 net.cpp:425] loss2/classifier_plantvillage_loss2/classifier_plantvillage_0_split <- loss2/classifier_plantvillage
I0403 16:08:17.326216 17125 net.cpp:399] loss2/classifier_plantvillage_loss2/classifier_plantvillage_0_split -> loss2/classifier_plantvillage_loss2/classifier_plantvillage_0_split_0
I0403 16:08:17.326234 17125 net.cpp:399] loss2/classifier_plantvillage_loss2/classifier_plantvillage_0_split -> loss2/classifier_plantvillage_loss2/classifier_plantvillage_0_split_1
I0403 16:08:17.326253 17125 net.cpp:399] loss2/classifier_plantvillage_loss2/classifier_plantvillage_0_split -> loss2/classifier_plantvillage_loss2/classifier_plantvillage_0_split_2
I0403 16:08:17.326329 17125 net.cpp:141] Setting up loss2/classifier_plantvillage_loss2/classifier_plantvillage_0_split
I0403 16:08:17.326351 17125 net.cpp:148] Top shape: 24 38 (912)
I0403 16:08:17.326366 17125 net.cpp:148] Top shape: 24 38 (912)
I0403 16:08:17.326380 17125 net.cpp:148] Top shape: 24 38 (912)
I0403 16:08:17.326393 17125 net.cpp:156] Memory required for data: 1208432160
I0403 16:08:17.326406 17125 layer_factory.hpp:77] Creating layer inception_4e/1x1
I0403 16:08:17.326426 17125 net.cpp:91] Creating Layer inception_4e/1x1
I0403 16:08:17.326441 17125 net.cpp:425] inception_4e/1x1 <- inception_4d/output_inception_4d/output_0_split_1
I0403 16:08:17.326459 17125 net.cpp:399] inception_4e/1x1 -> inception_4e/1x1
I0403 16:08:17.328182 17125 net.cpp:141] Setting up inception_4e/1x1
I0403 16:08:17.328209 17125 net.cpp:148] Top shape: 24 256 14 14 (1204224)
I0403 16:08:17.328224 17125 net.cpp:156] Memory required for data: 1213249056
I0403 16:08:17.328241 17125 layer_factory.hpp:77] Creating layer inception_4e/relu_1x1
I0403 16:08:17.328260 17125 net.cpp:91] Creating Layer inception_4e/relu_1x1
I0403 16:08:17.328275 17125 net.cpp:425] inception_4e/relu_1x1 <- inception_4e/1x1
I0403 16:08:17.328294 17125 net.cpp:386] inception_4e/relu_1x1 -> inception_4e/1x1 (in-place)
I0403 16:08:17.328578 17125 net.cpp:141] Setting up inception_4e/relu_1x1
I0403 16:08:17.328608 17125 net.cpp:148] Top shape: 24 256 14 14 (1204224)
I0403 16:08:17.328624 17125 net.cpp:156] Memory required for data: 1218065952
I0403 16:08:17.328637 17125 layer_factory.hpp:77] Creating layer inception_4e/3x3_reduce
I0403 16:08:17.328657 17125 net.cpp:91] Creating Layer inception_4e/3x3_reduce
I0403 16:08:17.328675 17125 net.cpp:425] inception_4e/3x3_reduce <- inception_4d/output_inception_4d/output_0_split_2
I0403 16:08:17.328693 17125 net.cpp:399] inception_4e/3x3_reduce -> inception_4e/3x3_reduce
I0403 16:08:17.330713 17125 net.cpp:141] Setting up inception_4e/3x3_reduce
I0403 16:08:17.330740 17125 net.cpp:148] Top shape: 24 160 14 14 (752640)
I0403 16:08:17.330755 17125 net.cpp:156] Memory required for data: 1221076512
I0403 16:08:17.330772 17125 layer_factory.hpp:77] Creating layer inception_4e/relu_3x3_reduce
I0403 16:08:17.330792 17125 net.cpp:91] Creating Layer inception_4e/relu_3x3_reduce
I0403 16:08:17.330807 17125 net.cpp:425] inception_4e/relu_3x3_reduce <- inception_4e/3x3_reduce
I0403 16:08:17.330823 17125 net.cpp:386] inception_4e/relu_3x3_reduce -> inception_4e/3x3_reduce (in-place)
I0403 16:08:17.330997 17125 net.cpp:141] Setting up inception_4e/relu_3x3_reduce
I0403 16:08:17.331020 17125 net.cpp:148] Top shape: 24 160 14 14 (752640)
I0403 16:08:17.331034 17125 net.cpp:156] Memory required for data: 1224087072
I0403 16:08:17.331048 17125 layer_factory.hpp:77] Creating layer inception_4e/3x3
I0403 16:08:17.331068 17125 net.cpp:91] Creating Layer inception_4e/3x3
I0403 16:08:17.331084 17125 net.cpp:425] inception_4e/3x3 <- inception_4e/3x3_reduce
I0403 16:08:17.331104 17125 net.cpp:399] inception_4e/3x3 -> inception_4e/3x3
I0403 16:08:17.335885 17125 net.cpp:141] Setting up inception_4e/3x3
I0403 16:08:17.335922 17125 net.cpp:148] Top shape: 24 320 14 14 (1505280)
I0403 16:08:17.335938 17125 net.cpp:156] Memory required for data: 1230108192
I0403 16:08:17.335955 17125 layer_factory.hpp:77] Creating layer inception_4e/relu_3x3
I0403 16:08:17.335974 17125 net.cpp:91] Creating Layer inception_4e/relu_3x3
I0403 16:08:17.335991 17125 net.cpp:425] inception_4e/relu_3x3 <- inception_4e/3x3
I0403 16:08:17.336007 17125 net.cpp:386] inception_4e/relu_3x3 -> inception_4e/3x3 (in-place)
I0403 16:08:17.336292 17125 net.cpp:141] Setting up inception_4e/relu_3x3
I0403 16:08:17.336319 17125 net.cpp:148] Top shape: 24 320 14 14 (1505280)
I0403 16:08:17.336334 17125 net.cpp:156] Memory required for data: 1236129312
I0403 16:08:17.336349 17125 layer_factory.hpp:77] Creating layer inception_4e/5x5_reduce
I0403 16:08:17.336371 17125 net.cpp:91] Creating Layer inception_4e/5x5_reduce
I0403 16:08:17.336388 17125 net.cpp:425] inception_4e/5x5_reduce <- inception_4d/output_inception_4d/output_0_split_3
I0403 16:08:17.336405 17125 net.cpp:399] inception_4e/5x5_reduce -> inception_4e/5x5_reduce
I0403 16:08:17.337432 17125 net.cpp:141] Setting up inception_4e/5x5_reduce
I0403 16:08:17.337458 17125 net.cpp:148] Top shape: 24 32 14 14 (150528)
I0403 16:08:17.337473 17125 net.cpp:156] Memory required for data: 1236731424
I0403 16:08:17.337491 17125 layer_factory.hpp:77] Creating layer inception_4e/relu_5x5_reduce
I0403 16:08:17.337507 17125 net.cpp:91] Creating Layer inception_4e/relu_5x5_reduce
I0403 16:08:17.337523 17125 net.cpp:425] inception_4e/relu_5x5_reduce <- inception_4e/5x5_reduce
I0403 16:08:17.337541 17125 net.cpp:386] inception_4e/relu_5x5_reduce -> inception_4e/5x5_reduce (in-place)
I0403 16:08:17.337827 17125 net.cpp:141] Setting up inception_4e/relu_5x5_reduce
I0403 16:08:17.337852 17125 net.cpp:148] Top shape: 24 32 14 14 (150528)
I0403 16:08:17.337865 17125 net.cpp:156] Memory required for data: 1237333536
I0403 16:08:17.337880 17125 layer_factory.hpp:77] Creating layer inception_4e/5x5
I0403 16:08:17.337915 17125 net.cpp:91] Creating Layer inception_4e/5x5
I0403 16:08:17.337934 17125 net.cpp:425] inception_4e/5x5 <- inception_4e/5x5_reduce
I0403 16:08:17.337952 17125 net.cpp:399] inception_4e/5x5 -> inception_4e/5x5
I0403 16:08:17.339709 17125 net.cpp:141] Setting up inception_4e/5x5
I0403 16:08:17.339735 17125 net.cpp:148] Top shape: 24 128 14 14 (602112)
I0403 16:08:17.339750 17125 net.cpp:156] Memory required for data: 1239741984
I0403 16:08:17.339767 17125 layer_factory.hpp:77] Creating layer inception_4e/relu_5x5
I0403 16:08:17.339784 17125 net.cpp:91] Creating Layer inception_4e/relu_5x5
I0403 16:08:17.339799 17125 net.cpp:425] inception_4e/relu_5x5 <- inception_4e/5x5
I0403 16:08:17.339818 17125 net.cpp:386] inception_4e/relu_5x5 -> inception_4e/5x5 (in-place)
I0403 16:08:17.340005 17125 net.cpp:141] Setting up inception_4e/relu_5x5
I0403 16:08:17.340029 17125 net.cpp:148] Top shape: 24 128 14 14 (602112)
I0403 16:08:17.340044 17125 net.cpp:156] Memory required for data: 1242150432
I0403 16:08:17.340057 17125 layer_factory.hpp:77] Creating layer inception_4e/pool
I0403 16:08:17.340076 17125 net.cpp:91] Creating Layer inception_4e/pool
I0403 16:08:17.340091 17125 net.cpp:425] inception_4e/pool <- inception_4d/output_inception_4d/output_0_split_4
I0403 16:08:17.340108 17125 net.cpp:399] inception_4e/pool -> inception_4e/pool
I0403 16:08:17.340175 17125 net.cpp:141] Setting up inception_4e/pool
I0403 16:08:17.340198 17125 net.cpp:148] Top shape: 24 528 14 14 (2483712)
I0403 16:08:17.340211 17125 net.cpp:156] Memory required for data: 1252085280
I0403 16:08:17.340225 17125 layer_factory.hpp:77] Creating layer inception_4e/pool_proj
I0403 16:08:17.340245 17125 net.cpp:91] Creating Layer inception_4e/pool_proj
I0403 16:08:17.340262 17125 net.cpp:425] inception_4e/pool_proj <- inception_4e/pool
I0403 16:08:17.340281 17125 net.cpp:399] inception_4e/pool_proj -> inception_4e/pool_proj
I0403 16:08:17.341712 17125 net.cpp:141] Setting up inception_4e/pool_proj
I0403 16:08:17.341754 17125 net.cpp:148] Top shape: 24 128 14 14 (602112)
I0403 16:08:17.341784 17125 net.cpp:156] Memory required for data: 1254493728
I0403 16:08:17.341800 17125 layer_factory.hpp:77] Creating layer inception_4e/relu_pool_proj
I0403 16:08:17.341819 17125 net.cpp:91] Creating Layer inception_4e/relu_pool_proj
I0403 16:08:17.341833 17125 net.cpp:425] inception_4e/relu_pool_proj <- inception_4e/pool_proj
I0403 16:08:17.341852 17125 net.cpp:386] inception_4e/relu_pool_proj -> inception_4e/pool_proj (in-place)
I0403 16:08:17.342139 17125 net.cpp:141] Setting up inception_4e/relu_pool_proj
I0403 16:08:17.342166 17125 net.cpp:148] Top shape: 24 128 14 14 (602112)
I0403 16:08:17.342181 17125 net.cpp:156] Memory required for data: 1256902176
I0403 16:08:17.342196 17125 layer_factory.hpp:77] Creating layer inception_4e/output
I0403 16:08:17.342212 17125 net.cpp:91] Creating Layer inception_4e/output
I0403 16:08:17.342228 17125 net.cpp:425] inception_4e/output <- inception_4e/1x1
I0403 16:08:17.342257 17125 net.cpp:425] inception_4e/output <- inception_4e/3x3
I0403 16:08:17.342272 17125 net.cpp:425] inception_4e/output <- inception_4e/5x5
I0403 16:08:17.342285 17125 net.cpp:425] inception_4e/output <- inception_4e/pool_proj
I0403 16:08:17.342303 17125 net.cpp:399] inception_4e/output -> inception_4e/output
I0403 16:08:17.342350 17125 net.cpp:141] Setting up inception_4e/output
I0403 16:08:17.342372 17125 net.cpp:148] Top shape: 24 832 14 14 (3913728)
I0403 16:08:17.342387 17125 net.cpp:156] Memory required for data: 1272557088
I0403 16:08:17.342401 17125 layer_factory.hpp:77] Creating layer pool4/3x3_s2
I0403 16:08:17.342419 17125 net.cpp:91] Creating Layer pool4/3x3_s2
I0403 16:08:17.342434 17125 net.cpp:425] pool4/3x3_s2 <- inception_4e/output
I0403 16:08:17.342452 17125 net.cpp:399] pool4/3x3_s2 -> pool4/3x3_s2
I0403 16:08:17.342516 17125 net.cpp:141] Setting up pool4/3x3_s2
I0403 16:08:17.342538 17125 net.cpp:148] Top shape: 24 832 7 7 (978432)
I0403 16:08:17.342552 17125 net.cpp:156] Memory required for data: 1276470816
I0403 16:08:17.342566 17125 layer_factory.hpp:77] Creating layer pool4/3x3_s2_pool4/3x3_s2_0_split
I0403 16:08:17.342582 17125 net.cpp:91] Creating Layer pool4/3x3_s2_pool4/3x3_s2_0_split
I0403 16:08:17.342597 17125 net.cpp:425] pool4/3x3_s2_pool4/3x3_s2_0_split <- pool4/3x3_s2
I0403 16:08:17.342620 17125 net.cpp:399] pool4/3x3_s2_pool4/3x3_s2_0_split -> pool4/3x3_s2_pool4/3x3_s2_0_split_0
I0403 16:08:17.342641 17125 net.cpp:399] pool4/3x3_s2_pool4/3x3_s2_0_split -> pool4/3x3_s2_pool4/3x3_s2_0_split_1
I0403 16:08:17.342661 17125 net.cpp:399] pool4/3x3_s2_pool4/3x3_s2_0_split -> pool4/3x3_s2_pool4/3x3_s2_0_split_2
I0403 16:08:17.342680 17125 net.cpp:399] pool4/3x3_s2_pool4/3x3_s2_0_split -> pool4/3x3_s2_pool4/3x3_s2_0_split_3
I0403 16:08:17.342768 17125 net.cpp:141] Setting up pool4/3x3_s2_pool4/3x3_s2_0_split
I0403 16:08:17.342793 17125 net.cpp:148] Top shape: 24 832 7 7 (978432)
I0403 16:08:17.342809 17125 net.cpp:148] Top shape: 24 832 7 7 (978432)
I0403 16:08:17.342824 17125 net.cpp:148] Top shape: 24 832 7 7 (978432)
I0403 16:08:17.342839 17125 net.cpp:148] Top shape: 24 832 7 7 (978432)
I0403 16:08:17.342852 17125 net.cpp:156] Memory required for data: 1292125728
I0403 16:08:17.342865 17125 layer_factory.hpp:77] Creating layer inception_5a/1x1
I0403 16:08:17.342885 17125 net.cpp:91] Creating Layer inception_5a/1x1
I0403 16:08:17.342902 17125 net.cpp:425] inception_5a/1x1 <- pool4/3x3_s2_pool4/3x3_s2_0_split_0
I0403 16:08:17.342921 17125 net.cpp:399] inception_5a/1x1 -> inception_5a/1x1
I0403 16:08:17.345645 17125 net.cpp:141] Setting up inception_5a/1x1
I0403 16:08:17.345672 17125 net.cpp:148] Top shape: 24 256 7 7 (301056)
I0403 16:08:17.345687 17125 net.cpp:156] Memory required for data: 1293329952
I0403 16:08:17.345705 17125 layer_factory.hpp:77] Creating layer inception_5a/relu_1x1
I0403 16:08:17.345721 17125 net.cpp:91] Creating Layer inception_5a/relu_1x1
I0403 16:08:17.345737 17125 net.cpp:425] inception_5a/relu_1x1 <- inception_5a/1x1
I0403 16:08:17.345755 17125 net.cpp:386] inception_5a/relu_1x1 -> inception_5a/1x1 (in-place)
I0403 16:08:17.346055 17125 net.cpp:141] Setting up inception_5a/relu_1x1
I0403 16:08:17.346081 17125 net.cpp:148] Top shape: 24 256 7 7 (301056)
I0403 16:08:17.346094 17125 net.cpp:156] Memory required for data: 1294534176
I0403 16:08:17.346107 17125 layer_factory.hpp:77] Creating layer inception_5a/3x3_reduce
I0403 16:08:17.346128 17125 net.cpp:91] Creating Layer inception_5a/3x3_reduce
I0403 16:08:17.346145 17125 net.cpp:425] inception_5a/3x3_reduce <- pool4/3x3_s2_pool4/3x3_s2_0_split_1
I0403 16:08:17.346165 17125 net.cpp:399] inception_5a/3x3_reduce -> inception_5a/3x3_reduce
I0403 16:08:17.348517 17125 net.cpp:141] Setting up inception_5a/3x3_reduce
I0403 16:08:17.348546 17125 net.cpp:148] Top shape: 24 160 7 7 (188160)
I0403 16:08:17.348562 17125 net.cpp:156] Memory required for data: 1295286816
I0403 16:08:17.348577 17125 layer_factory.hpp:77] Creating layer inception_5a/relu_3x3_reduce
I0403 16:08:17.348594 17125 net.cpp:91] Creating Layer inception_5a/relu_3x3_reduce
I0403 16:08:17.348615 17125 net.cpp:425] inception_5a/relu_3x3_reduce <- inception_5a/3x3_reduce
I0403 16:08:17.348633 17125 net.cpp:386] inception_5a/relu_3x3_reduce -> inception_5a/3x3_reduce (in-place)
I0403 16:08:17.348812 17125 net.cpp:141] Setting up inception_5a/relu_3x3_reduce
I0403 16:08:17.348837 17125 net.cpp:148] Top shape: 24 160 7 7 (188160)
I0403 16:08:17.348852 17125 net.cpp:156] Memory required for data: 1296039456
I0403 16:08:17.348866 17125 layer_factory.hpp:77] Creating layer inception_5a/3x3
I0403 16:08:17.348891 17125 net.cpp:91] Creating Layer inception_5a/3x3
I0403 16:08:17.348907 17125 net.cpp:425] inception_5a/3x3 <- inception_5a/3x3_reduce
I0403 16:08:17.348928 17125 net.cpp:399] inception_5a/3x3 -> inception_5a/3x3
I0403 16:08:17.353732 17125 net.cpp:141] Setting up inception_5a/3x3
I0403 16:08:17.353761 17125 net.cpp:148] Top shape: 24 320 7 7 (376320)
I0403 16:08:17.353776 17125 net.cpp:156] Memory required for data: 1297544736
I0403 16:08:17.353793 17125 layer_factory.hpp:77] Creating layer inception_5a/relu_3x3
I0403 16:08:17.353811 17125 net.cpp:91] Creating Layer inception_5a/relu_3x3
I0403 16:08:17.353826 17125 net.cpp:425] inception_5a/relu_3x3 <- inception_5a/3x3
I0403 16:08:17.353843 17125 net.cpp:386] inception_5a/relu_3x3 -> inception_5a/3x3 (in-place)
I0403 16:08:17.354122 17125 net.cpp:141] Setting up inception_5a/relu_3x3
I0403 16:08:17.354146 17125 net.cpp:148] Top shape: 24 320 7 7 (376320)
I0403 16:08:17.354161 17125 net.cpp:156] Memory required for data: 1299050016
I0403 16:08:17.354174 17125 layer_factory.hpp:77] Creating layer inception_5a/5x5_reduce
I0403 16:08:17.354195 17125 net.cpp:91] Creating Layer inception_5a/5x5_reduce
I0403 16:08:17.354212 17125 net.cpp:425] inception_5a/5x5_reduce <- pool4/3x3_s2_pool4/3x3_s2_0_split_2
I0403 16:08:17.354235 17125 net.cpp:399] inception_5a/5x5_reduce -> inception_5a/5x5_reduce
I0403 16:08:17.355361 17125 net.cpp:141] Setting up inception_5a/5x5_reduce
I0403 16:08:17.355391 17125 net.cpp:148] Top shape: 24 32 7 7 (37632)
I0403 16:08:17.355406 17125 net.cpp:156] Memory required for data: 1299200544
I0403 16:08:17.355423 17125 layer_factory.hpp:77] Creating layer inception_5a/relu_5x5_reduce
I0403 16:08:17.355443 17125 net.cpp:91] Creating Layer inception_5a/relu_5x5_reduce
I0403 16:08:17.355458 17125 net.cpp:425] inception_5a/relu_5x5_reduce <- inception_5a/5x5_reduce
I0403 16:08:17.355474 17125 net.cpp:386] inception_5a/relu_5x5_reduce -> inception_5a/5x5_reduce (in-place)
I0403 16:08:17.355763 17125 net.cpp:141] Setting up inception_5a/relu_5x5_reduce
I0403 16:08:17.355787 17125 net.cpp:148] Top shape: 24 32 7 7 (37632)
I0403 16:08:17.355803 17125 net.cpp:156] Memory required for data: 1299351072
I0403 16:08:17.355815 17125 layer_factory.hpp:77] Creating layer inception_5a/5x5
I0403 16:08:17.355836 17125 net.cpp:91] Creating Layer inception_5a/5x5
I0403 16:08:17.355854 17125 net.cpp:425] inception_5a/5x5 <- inception_5a/5x5_reduce
I0403 16:08:17.355872 17125 net.cpp:399] inception_5a/5x5 -> inception_5a/5x5
I0403 16:08:17.357509 17125 net.cpp:141] Setting up inception_5a/5x5
I0403 16:08:17.357547 17125 net.cpp:148] Top shape: 24 128 7 7 (150528)
I0403 16:08:17.357563 17125 net.cpp:156] Memory required for data: 1299953184
I0403 16:08:17.357580 17125 layer_factory.hpp:77] Creating layer inception_5a/relu_5x5
I0403 16:08:17.357597 17125 net.cpp:91] Creating Layer inception_5a/relu_5x5
I0403 16:08:17.357619 17125 net.cpp:425] inception_5a/relu_5x5 <- inception_5a/5x5
I0403 16:08:17.357636 17125 net.cpp:386] inception_5a/relu_5x5 -> inception_5a/5x5 (in-place)
I0403 16:08:17.357820 17125 net.cpp:141] Setting up inception_5a/relu_5x5
I0403 16:08:17.357844 17125 net.cpp:148] Top shape: 24 128 7 7 (150528)
I0403 16:08:17.357858 17125 net.cpp:156] Memory required for data: 1300555296
I0403 16:08:17.357872 17125 layer_factory.hpp:77] Creating layer inception_5a/pool
I0403 16:08:17.357890 17125 net.cpp:91] Creating Layer inception_5a/pool
I0403 16:08:17.357906 17125 net.cpp:425] inception_5a/pool <- pool4/3x3_s2_pool4/3x3_s2_0_split_3
I0403 16:08:17.357923 17125 net.cpp:399] inception_5a/pool -> inception_5a/pool
I0403 16:08:17.357991 17125 net.cpp:141] Setting up inception_5a/pool
I0403 16:08:17.358022 17125 net.cpp:148] Top shape: 24 832 7 7 (978432)
I0403 16:08:17.358036 17125 net.cpp:156] Memory required for data: 1304469024
I0403 16:08:17.358049 17125 layer_factory.hpp:77] Creating layer inception_5a/pool_proj
I0403 16:08:17.358073 17125 net.cpp:91] Creating Layer inception_5a/pool_proj
I0403 16:08:17.358090 17125 net.cpp:425] inception_5a/pool_proj <- inception_5a/pool
I0403 16:08:17.358110 17125 net.cpp:399] inception_5a/pool_proj -> inception_5a/pool_proj
I0403 16:08:17.360292 17125 net.cpp:141] Setting up inception_5a/pool_proj
I0403 16:08:17.360322 17125 net.cpp:148] Top shape: 24 128 7 7 (150528)
I0403 16:08:17.360337 17125 net.cpp:156] Memory required for data: 1305071136
I0403 16:08:17.360354 17125 layer_factory.hpp:77] Creating layer inception_5a/relu_pool_proj
I0403 16:08:17.360371 17125 net.cpp:91] Creating Layer inception_5a/relu_pool_proj
I0403 16:08:17.360386 17125 net.cpp:425] inception_5a/relu_pool_proj <- inception_5a/pool_proj
I0403 16:08:17.360405 17125 net.cpp:386] inception_5a/relu_pool_proj -> inception_5a/pool_proj (in-place)
I0403 16:08:17.360688 17125 net.cpp:141] Setting up inception_5a/relu_pool_proj
I0403 16:08:17.360714 17125 net.cpp:148] Top shape: 24 128 7 7 (150528)
I0403 16:08:17.360731 17125 net.cpp:156] Memory required for data: 1305673248
I0403 16:08:17.360745 17125 layer_factory.hpp:77] Creating layer inception_5a/output
I0403 16:08:17.360760 17125 net.cpp:91] Creating Layer inception_5a/output
I0403 16:08:17.360775 17125 net.cpp:425] inception_5a/output <- inception_5a/1x1
I0403 16:08:17.360791 17125 net.cpp:425] inception_5a/output <- inception_5a/3x3
I0403 16:08:17.360806 17125 net.cpp:425] inception_5a/output <- inception_5a/5x5
I0403 16:08:17.360821 17125 net.cpp:425] inception_5a/output <- inception_5a/pool_proj
I0403 16:08:17.360838 17125 net.cpp:399] inception_5a/output -> inception_5a/output
I0403 16:08:17.360885 17125 net.cpp:141] Setting up inception_5a/output
I0403 16:08:17.360908 17125 net.cpp:148] Top shape: 24 832 7 7 (978432)
I0403 16:08:17.360920 17125 net.cpp:156] Memory required for data: 1309586976
I0403 16:08:17.360934 17125 layer_factory.hpp:77] Creating layer inception_5a/output_inception_5a/output_0_split
I0403 16:08:17.360952 17125 net.cpp:91] Creating Layer inception_5a/output_inception_5a/output_0_split
I0403 16:08:17.360968 17125 net.cpp:425] inception_5a/output_inception_5a/output_0_split <- inception_5a/output
I0403 16:08:17.360985 17125 net.cpp:399] inception_5a/output_inception_5a/output_0_split -> inception_5a/output_inception_5a/output_0_split_0
I0403 16:08:17.361004 17125 net.cpp:399] inception_5a/output_inception_5a/output_0_split -> inception_5a/output_inception_5a/output_0_split_1
I0403 16:08:17.361022 17125 net.cpp:399] inception_5a/output_inception_5a/output_0_split -> inception_5a/output_inception_5a/output_0_split_2
I0403 16:08:17.361044 17125 net.cpp:399] inception_5a/output_inception_5a/output_0_split -> inception_5a/output_inception_5a/output_0_split_3
I0403 16:08:17.361150 17125 net.cpp:141] Setting up inception_5a/output_inception_5a/output_0_split
I0403 16:08:17.361172 17125 net.cpp:148] Top shape: 24 832 7 7 (978432)
I0403 16:08:17.361187 17125 net.cpp:148] Top shape: 24 832 7 7 (978432)
I0403 16:08:17.361202 17125 net.cpp:148] Top shape: 24 832 7 7 (978432)
I0403 16:08:17.361217 17125 net.cpp:148] Top shape: 24 832 7 7 (978432)
I0403 16:08:17.361229 17125 net.cpp:156] Memory required for data: 1325241888
I0403 16:08:17.361243 17125 layer_factory.hpp:77] Creating layer inception_5b/1x1
I0403 16:08:17.361263 17125 net.cpp:91] Creating Layer inception_5b/1x1
I0403 16:08:17.361279 17125 net.cpp:425] inception_5b/1x1 <- inception_5a/output_inception_5a/output_0_split_0
I0403 16:08:17.361299 17125 net.cpp:399] inception_5b/1x1 -> inception_5b/1x1
I0403 16:08:17.365042 17125 net.cpp:141] Setting up inception_5b/1x1
I0403 16:08:17.365073 17125 net.cpp:148] Top shape: 24 384 7 7 (451584)
I0403 16:08:17.365089 17125 net.cpp:156] Memory required for data: 1327048224
I0403 16:08:17.365106 17125 layer_factory.hpp:77] Creating layer inception_5b/relu_1x1
I0403 16:08:17.365124 17125 net.cpp:91] Creating Layer inception_5b/relu_1x1
I0403 16:08:17.365139 17125 net.cpp:425] inception_5b/relu_1x1 <- inception_5b/1x1
I0403 16:08:17.365157 17125 net.cpp:386] inception_5b/relu_1x1 -> inception_5b/1x1 (in-place)
I0403 16:08:17.365458 17125 net.cpp:141] Setting up inception_5b/relu_1x1
I0403 16:08:17.365485 17125 net.cpp:148] Top shape: 24 384 7 7 (451584)
I0403 16:08:17.365500 17125 net.cpp:156] Memory required for data: 1328854560
I0403 16:08:17.365515 17125 layer_factory.hpp:77] Creating layer inception_5b/3x3_reduce
I0403 16:08:17.365536 17125 net.cpp:91] Creating Layer inception_5b/3x3_reduce
I0403 16:08:17.365555 17125 net.cpp:425] inception_5b/3x3_reduce <- inception_5a/output_inception_5a/output_0_split_1
I0403 16:08:17.365572 17125 net.cpp:399] inception_5b/3x3_reduce -> inception_5b/3x3_reduce
I0403 16:08:17.368196 17125 net.cpp:141] Setting up inception_5b/3x3_reduce
I0403 16:08:17.368227 17125 net.cpp:148] Top shape: 24 192 7 7 (225792)
I0403 16:08:17.368243 17125 net.cpp:156] Memory required for data: 1329757728
I0403 16:08:17.368262 17125 layer_factory.hpp:77] Creating layer inception_5b/relu_3x3_reduce
I0403 16:08:17.368278 17125 net.cpp:91] Creating Layer inception_5b/relu_3x3_reduce
I0403 16:08:17.368295 17125 net.cpp:425] inception_5b/relu_3x3_reduce <- inception_5b/3x3_reduce
I0403 16:08:17.368315 17125 net.cpp:386] inception_5b/relu_3x3_reduce -> inception_5b/3x3_reduce (in-place)
I0403 16:08:17.368510 17125 net.cpp:141] Setting up inception_5b/relu_3x3_reduce
I0403 16:08:17.368533 17125 net.cpp:148] Top shape: 24 192 7 7 (225792)
I0403 16:08:17.368547 17125 net.cpp:156] Memory required for data: 1330660896
I0403 16:08:17.368561 17125 layer_factory.hpp:77] Creating layer inception_5b/3x3
I0403 16:08:17.368583 17125 net.cpp:91] Creating Layer inception_5b/3x3
I0403 16:08:17.368603 17125 net.cpp:425] inception_5b/3x3 <- inception_5b/3x3_reduce
I0403 16:08:17.368626 17125 net.cpp:399] inception_5b/3x3 -> inception_5b/3x3
I0403 16:08:17.375224 17125 net.cpp:141] Setting up inception_5b/3x3
I0403 16:08:17.375254 17125 net.cpp:148] Top shape: 24 384 7 7 (451584)
I0403 16:08:17.375270 17125 net.cpp:156] Memory required for data: 1332467232
I0403 16:08:17.375288 17125 layer_factory.hpp:77] Creating layer inception_5b/relu_3x3
I0403 16:08:17.375306 17125 net.cpp:91] Creating Layer inception_5b/relu_3x3
I0403 16:08:17.375321 17125 net.cpp:425] inception_5b/relu_3x3 <- inception_5b/3x3
I0403 16:08:17.375340 17125 net.cpp:386] inception_5b/relu_3x3 -> inception_5b/3x3 (in-place)
I0403 16:08:17.375638 17125 net.cpp:141] Setting up inception_5b/relu_3x3
I0403 16:08:17.375664 17125 net.cpp:148] Top shape: 24 384 7 7 (451584)
I0403 16:08:17.375679 17125 net.cpp:156] Memory required for data: 1334273568
I0403 16:08:17.375694 17125 layer_factory.hpp:77] Creating layer inception_5b/5x5_reduce
I0403 16:08:17.375731 17125 net.cpp:91] Creating Layer inception_5b/5x5_reduce
I0403 16:08:17.375751 17125 net.cpp:425] inception_5b/5x5_reduce <- inception_5a/output_inception_5a/output_0_split_2
I0403 16:08:17.375768 17125 net.cpp:399] inception_5b/5x5_reduce -> inception_5b/5x5_reduce
I0403 16:08:17.377034 17125 net.cpp:141] Setting up inception_5b/5x5_reduce
I0403 16:08:17.377063 17125 net.cpp:148] Top shape: 24 48 7 7 (56448)
I0403 16:08:17.377079 17125 net.cpp:156] Memory required for data: 1334499360
I0403 16:08:17.377096 17125 layer_factory.hpp:77] Creating layer inception_5b/relu_5x5_reduce
I0403 16:08:17.377115 17125 net.cpp:91] Creating Layer inception_5b/relu_5x5_reduce
I0403 16:08:17.377130 17125 net.cpp:425] inception_5b/relu_5x5_reduce <- inception_5b/5x5_reduce
I0403 16:08:17.377148 17125 net.cpp:386] inception_5b/relu_5x5_reduce -> inception_5b/5x5_reduce (in-place)
I0403 16:08:17.377521 17125 net.cpp:141] Setting up inception_5b/relu_5x5_reduce
I0403 16:08:17.377547 17125 net.cpp:148] Top shape: 24 48 7 7 (56448)
I0403 16:08:17.377562 17125 net.cpp:156] Memory required for data: 1334725152
I0403 16:08:17.377574 17125 layer_factory.hpp:77] Creating layer inception_5b/5x5
I0403 16:08:17.377594 17125 net.cpp:91] Creating Layer inception_5b/5x5
I0403 16:08:17.377616 17125 net.cpp:425] inception_5b/5x5 <- inception_5b/5x5_reduce
I0403 16:08:17.377635 17125 net.cpp:399] inception_5b/5x5 -> inception_5b/5x5
I0403 16:08:17.379644 17125 net.cpp:141] Setting up inception_5b/5x5
I0403 16:08:17.379670 17125 net.cpp:148] Top shape: 24 128 7 7 (150528)
I0403 16:08:17.379684 17125 net.cpp:156] Memory required for data: 1335327264
I0403 16:08:17.379701 17125 layer_factory.hpp:77] Creating layer inception_5b/relu_5x5
I0403 16:08:17.379719 17125 net.cpp:91] Creating Layer inception_5b/relu_5x5
I0403 16:08:17.379734 17125 net.cpp:425] inception_5b/relu_5x5 <- inception_5b/5x5
I0403 16:08:17.379752 17125 net.cpp:386] inception_5b/relu_5x5 -> inception_5b/5x5 (in-place)
I0403 16:08:17.379938 17125 net.cpp:141] Setting up inception_5b/relu_5x5
I0403 16:08:17.379961 17125 net.cpp:148] Top shape: 24 128 7 7 (150528)
I0403 16:08:17.379976 17125 net.cpp:156] Memory required for data: 1335929376
I0403 16:08:17.379989 17125 layer_factory.hpp:77] Creating layer inception_5b/pool
I0403 16:08:17.380008 17125 net.cpp:91] Creating Layer inception_5b/pool
I0403 16:08:17.380024 17125 net.cpp:425] inception_5b/pool <- inception_5a/output_inception_5a/output_0_split_3
I0403 16:08:17.380041 17125 net.cpp:399] inception_5b/pool -> inception_5b/pool
I0403 16:08:17.380111 17125 net.cpp:141] Setting up inception_5b/pool
I0403 16:08:17.380134 17125 net.cpp:148] Top shape: 24 832 7 7 (978432)
I0403 16:08:17.380147 17125 net.cpp:156] Memory required for data: 1339843104
I0403 16:08:17.380162 17125 layer_factory.hpp:77] Creating layer inception_5b/pool_proj
I0403 16:08:17.380185 17125 net.cpp:91] Creating Layer inception_5b/pool_proj
I0403 16:08:17.380203 17125 net.cpp:425] inception_5b/pool_proj <- inception_5b/pool
I0403 16:08:17.380221 17125 net.cpp:399] inception_5b/pool_proj -> inception_5b/pool_proj
I0403 16:08:17.382447 17125 net.cpp:141] Setting up inception_5b/pool_proj
I0403 16:08:17.382475 17125 net.cpp:148] Top shape: 24 128 7 7 (150528)
I0403 16:08:17.382490 17125 net.cpp:156] Memory required for data: 1340445216
I0403 16:08:17.382508 17125 layer_factory.hpp:77] Creating layer inception_5b/relu_pool_proj
I0403 16:08:17.382525 17125 net.cpp:91] Creating Layer inception_5b/relu_pool_proj
I0403 16:08:17.382540 17125 net.cpp:425] inception_5b/relu_pool_proj <- inception_5b/pool_proj
I0403 16:08:17.382558 17125 net.cpp:386] inception_5b/relu_pool_proj -> inception_5b/pool_proj (in-place)
I0403 16:08:17.382848 17125 net.cpp:141] Setting up inception_5b/relu_pool_proj
I0403 16:08:17.382874 17125 net.cpp:148] Top shape: 24 128 7 7 (150528)
I0403 16:08:17.382889 17125 net.cpp:156] Memory required for data: 1341047328
I0403 16:08:17.382902 17125 layer_factory.hpp:77] Creating layer inception_5b/output
I0403 16:08:17.382920 17125 net.cpp:91] Creating Layer inception_5b/output
I0403 16:08:17.382947 17125 net.cpp:425] inception_5b/output <- inception_5b/1x1
I0403 16:08:17.382964 17125 net.cpp:425] inception_5b/output <- inception_5b/3x3
I0403 16:08:17.382980 17125 net.cpp:425] inception_5b/output <- inception_5b/5x5
I0403 16:08:17.382995 17125 net.cpp:425] inception_5b/output <- inception_5b/pool_proj
I0403 16:08:17.383011 17125 net.cpp:399] inception_5b/output -> inception_5b/output
I0403 16:08:17.383062 17125 net.cpp:141] Setting up inception_5b/output
I0403 16:08:17.383085 17125 net.cpp:148] Top shape: 24 1024 7 7 (1204224)
I0403 16:08:17.383098 17125 net.cpp:156] Memory required for data: 1345864224
I0403 16:08:17.383111 17125 layer_factory.hpp:77] Creating layer pool5/7x7_s1
I0403 16:08:17.383129 17125 net.cpp:91] Creating Layer pool5/7x7_s1
I0403 16:08:17.383146 17125 net.cpp:425] pool5/7x7_s1 <- inception_5b/output
I0403 16:08:17.383162 17125 net.cpp:399] pool5/7x7_s1 -> pool5/7x7_s1
I0403 16:08:17.383374 17125 net.cpp:141] Setting up pool5/7x7_s1
I0403 16:08:17.383399 17125 net.cpp:148] Top shape: 24 1024 1 1 (24576)
I0403 16:08:17.383412 17125 net.cpp:156] Memory required for data: 1345962528
I0403 16:08:17.383426 17125 layer_factory.hpp:77] Creating layer pool5/drop_7x7_s1
I0403 16:08:17.383442 17125 net.cpp:91] Creating Layer pool5/drop_7x7_s1
I0403 16:08:17.383457 17125 net.cpp:425] pool5/drop_7x7_s1 <- pool5/7x7_s1
I0403 16:08:17.383476 17125 net.cpp:386] pool5/drop_7x7_s1 -> pool5/7x7_s1 (in-place)
I0403 16:08:17.383522 17125 net.cpp:141] Setting up pool5/drop_7x7_s1
I0403 16:08:17.383546 17125 net.cpp:148] Top shape: 24 1024 1 1 (24576)
I0403 16:08:17.383561 17125 net.cpp:156] Memory required for data: 1346060832
I0403 16:08:17.383574 17125 layer_factory.hpp:77] Creating layer loss3/classifier_plantvillage
I0403 16:08:17.383591 17125 net.cpp:91] Creating Layer loss3/classifier_plantvillage
I0403 16:08:17.383611 17125 net.cpp:425] loss3/classifier_plantvillage <- pool5/7x7_s1
I0403 16:08:17.383631 17125 net.cpp:399] loss3/classifier_plantvillage -> loss3/classifier_plantvillage
I0403 16:08:17.384037 17125 net.cpp:141] Setting up loss3/classifier_plantvillage
I0403 16:08:17.384059 17125 net.cpp:148] Top shape: 24 38 (912)
I0403 16:08:17.384073 17125 net.cpp:156] Memory required for data: 1346064480
I0403 16:08:17.384090 17125 layer_factory.hpp:77] Creating layer loss3/classifier_plantvillage_loss3/classifier_plantvillage_0_split
I0403 16:08:17.384110 17125 net.cpp:91] Creating Layer loss3/classifier_plantvillage_loss3/classifier_plantvillage_0_split
I0403 16:08:17.384126 17125 net.cpp:425] loss3/classifier_plantvillage_loss3/classifier_plantvillage_0_split <- loss3/classifier_plantvillage
I0403 16:08:17.384142 17125 net.cpp:399] loss3/classifier_plantvillage_loss3/classifier_plantvillage_0_split -> loss3/classifier_plantvillage_loss3/classifier_plantvillage_0_split_0
I0403 16:08:17.384161 17125 net.cpp:399] loss3/classifier_plantvillage_loss3/classifier_plantvillage_0_split -> loss3/classifier_plantvillage_loss3/classifier_plantvillage_0_split_1
I0403 16:08:17.384183 17125 net.cpp:399] loss3/classifier_plantvillage_loss3/classifier_plantvillage_0_split -> loss3/classifier_plantvillage_loss3/classifier_plantvillage_0_split_2
I0403 16:08:17.384202 17125 net.cpp:399] loss3/classifier_plantvillage_loss3/classifier_plantvillage_0_split -> loss3/classifier_plantvillage_loss3/classifier_plantvillage_0_split_3
I0403 16:08:17.384299 17125 net.cpp:141] Setting up loss3/classifier_plantvillage_loss3/classifier_plantvillage_0_split
I0403 16:08:17.384321 17125 net.cpp:148] Top shape: 24 38 (912)
I0403 16:08:17.384336 17125 net.cpp:148] Top shape: 24 38 (912)
I0403 16:08:17.384351 17125 net.cpp:148] Top shape: 24 38 (912)
I0403 16:08:17.384366 17125 net.cpp:148] Top shape: 24 38 (912)
I0403 16:08:17.384379 17125 net.cpp:156] Memory required for data: 1346079072
I0403 16:08:17.384392 17125 layer_factory.hpp:77] Creating layer loss1/loss
I0403 16:08:17.384413 17125 net.cpp:91] Creating Layer loss1/loss
I0403 16:08:17.384428 17125 net.cpp:425] loss1/loss <- loss1/classifier_plantvillage_loss1/classifier_plantvillage_0_split_0
I0403 16:08:17.384457 17125 net.cpp:425] loss1/loss <- label_data_1_split_0
…
