…
I0403 16:27:29.449484 18195 net.cpp:313] The NetState phase (1) differed from the phase (0) specified by a rule in layer data
I0403 16:27:29.450875 18195 net.cpp:49] Initializing net from parameters: 
state {
  phase: TEST
}
layer {
  name: "data"
  type: "Data"
  top: "data"
  top: "label"
  include {
    phase: TEST
  }
  transform_param {
    mirror: false
    crop_size: 224
    mean_file: "/home/mohanty/data/final_dataset/lmdb/segmented-20-80/mean.binaryproto"
  }
  data_param {
    source: "/home/mohanty/data/final_dataset/lmdb/segmented-20-80/test_db"
    batch_size: 24
    backend: LMDB
  }
}
layer {
  name: "conv1/7x7_s2"
  type: "Convolution"
  bottom: "data"
  top: "conv1/7x7_s2"
  param {
    lr_mult: 1
    decay_mult: 1
  }
  param {
    lr_mult: 2
    decay_mult: 0
  }
  convolution_param {
    num_output: 64
    pad: 3
    kernel_size: 7
    stride: 2
    weight_filler {
      type: "xavier"
      std: 0.1
    }
    bias_filler {
      type: "constant"
      value: 0.2
    }
  }
}
layer {
  name: "conv1/relu_7x7"
  type: "ReLU"
  bottom: "conv1/7x7_s2"
  top: "conv1/7x7_s2"
}
layer {
  name: "pool1/3x3_s2"
  type: "Pooling"
  bottom: "conv1/7x7_s2"
  top: "pool1/3x3_s2"
  pooling_param {
    pool: MAX
    kernel_size: 3
    stride: 2
  }
}
layer {
  name: "pool1/norm1"
  type: "LRN"
  bottom: "pool1/3x3_s2"
  top: "pool1/norm1"
  lrn_param {
    local_size: 5
    alpha: 0.0001
    beta: 0.75
  }
}
layer {
  name: "conv2/3x3_reduce"
  type: "Convolution"
  bottom: "pool1/norm1"
  top: "conv2/3x3_reduce"
  param {
    lr_mult: 1
    decay_mult: 1
  }
  param {
    lr_mult: 2
    decay_mult: 0
  }
  convolution_param {
    num_output: 64
    kernel_size: 1
    weight_filler {
      type: "xavier"
      std: 0.1
    }
    bias_filler {
      type: "constant"
      value: 0.2
    }
  }
}
layer {
  name: "conv2/relu_3x3_reduce"
  type: "ReLU"
  bottom: "conv2/3x3_reduce"
  top: "conv2/3x3_reduce"
}
layer {
  name: "conv2/3x3"
  type: "Convolution"
  bottom: "conv2/3x3_reduce"
  top: "conv2/3x3"
  param {
    lr_mult: 1
    decay_mult: 1
  }
  param {
    lr_mult: 2
    decay_mult: 0
  }
  convolution_param {
    num_output: 192
    pad: 1
    kernel_size: 3
    weight_filler {
      type: "xavier"
      std: 0.03
    }
    bias_filler {
      type: "constant"
      value: 0.2
    }
  }
}
layer {
  name: "conv2/relu_3x3"
  type: "ReLU"
  bottom: "conv2/3x3"
  top: "conv2/3x3"
}
layer {
  name: "conv2/norm2"
  type: "LRN"
  bottom: "conv2/3x3"
  top: "conv2/norm2"
  lrn_param {
    local_size: 5
    alpha: 0.0001
    beta: 0.75
  }
}
layer {
  name: "pool2/3x3_s2"
  type: "Pooling"
  bottom: "conv2/norm2"
  top: "pool2/3x3_s2"
  pooling_param {
    pool: MAX
    kernel_size: 3
    stride: 2
  }
}
layer {
  name: "inception_3a/1x1"
  type: "Convolution"
  bottom: "pool2/3x3_s2"
  top: "inception_3a/1x1"
  param {
    lr_mult: 1
    decay_mult: 1
  }
  param {
    lr_mult: 2
    decay_mult: 0
  }
  convolution_param {
    num_output: 64
    kernel_size: 1
    weight_filler {
      type: "xavier"
      std: 0.03
    }
    bias_filler {
      type: "constant"
      value: 0.2
    }
  }
}
layer {
  name: "inception_3a/relu_1x1"
  type: "ReLU"
  bottom: "inception_3a/1x1"
  top: "inception_3a/1x1"
}
layer {
  name: "inception_3a/3x3_reduce"
  type: "Convolution"
  bottom: "pool2/3x3_s2"
  top: "inception_3a/3x3_reduce"
  param {
    lr_mult: 1
    decay_mult: 1
  }
  param {
    lr_mult: 2
    decay_mult: 0
  }
  convolution_param {
    num_output: 96
    kernel_size: 1
    weight_filler {
      type: "xavier"
      std: 0.09
    }
    bias_filler {
      type: "constant"
      value: 0.2
    }
  }
}
layer {
  name: "inception_3a/relu_3x3_reduce"
  type: "ReLU"
  bottom: "inception_3a/3x3_reduce"
  top: "inception_3a/3x3_reduce"
}
layer {
  name: "inception_3a/3x3"
  type: "Convolution"
  bottom: "inception_3a/3x3_reduce"
  top: "inception_3a/3x3"
  param {
    lr_mult: 1
    decay_mult: 1
  }
  param {
    lr_mult: 2
    decay_mult: 0
  }
  convolution_param {
    num_output: 128
    pad: 1
    kernel_size: 3
    weight_filler {
      type: "xavier"
      std: 0.03
    }
    bias_filler {
      type: "constant"
      value: 0.2
    }
  }
}
layer {
  name: "inception_3a/relu_3x3"
  type: "ReLU"
  bottom: "inception_3a/3x3"
  top: "inception_3a/3x3"
}
layer {
  name: "inception_3a/5x5_reduce"
  type: "Convolution"
  bottom: "pool2/3x3_s2"
  top: "inception_3a/5x5_reduce"
  param {
    lr_mult: 1
    decay_mult: 1
  }
  param {
    lr_mult: 2
    decay_mult: 0
  }
  convolution_param {
    num_output: 16
    kernel_size: 1
    weight_filler {
      type: "xavier"
      std: 0.2
    }
    bias_filler {
      type: "constant"
      value: 0.2
    }
  }
}
layer {
  name: "inception_3a/relu_5x5_reduce"
  type: "ReLU"
  bottom: "inception_3a/5x5_reduce"
  top: "inception_3a/5x5_reduce"
}
layer {
  name: "inception_3a/5x5"
  type: "Convolution"
  bottom: "inception_3a/5x5_reduce"
  top: "inception_3a/5x5"
  param {
    lr_mult: 1
    decay_mult: 1
  }
  param {
    lr_mult: 2
    decay_mult: 0
  }
  convolution_param {
    num_output: 32
    pad: 2
    kernel_size: 5
    weight_filler {
      type: "xavier"
      std: 0.03
    }
    bias_filler {
      type: "constant"
      value: 0.2
    }
  }
}
layer {
  name: "inception_3a/relu_5x5"
  type: "ReLU"
  bottom: "inception_3a/5x5"
  top: "inception_3a/5x5"
}
layer {
  name: "inception_3a/pool"
  type: "Pooling"
  bottom: "pool2/3x3_s2"
  top: "inception_3a/pool"
  pooling_param {
    pool: MAX
    kernel_size: 3
    stride: 1
    pad: 1
  }
}
layer {
  name: "inception_3a/pool_proj"
  type: "Convolution"
  bottom: "inception_3a/pool"
  top: "inception_3a/pool_proj"
  param {
    lr_mult: 1
    decay_mult: 1
  }
  param {
    lr_mult: 2
    decay_mult: 0
  }
  convolution_param {
    num_output: 32
    kernel_size: 1
    weight_filler {
      type: "xavier"
      std: 0.1
    }
    bias_filler {
      type: "constant"
      value: 0.2
    }
  }
}
layer {
  name: "inception_3a/relu_pool_proj"
  type: "ReLU"
  bottom: "inception_3a/pool_proj"
  top: "inception_3a/pool_proj"
}
layer {
  name: "inception_3a/output"
  type: "Concat"
  bottom: "inception_3a/1x1"
  bottom: "inception_3a/3x3"
  bottom: "inception_3a/5x5"
  bottom: "inception_3a/pool_proj"
  top: "inception_3a/output"
}
layer {
  name: "inception_3b/1x1"
  type: "Convolution"
  bottom: "inception_3a/output"
  top: "inception_3b/1x1"
  param {
    lr_mult: 1
    decay_mult: 1
  }
  param {
    lr_mult: 2
    decay_mult: 0
  }
  convolution_param {
    num_output: 128
    kernel_size: 1
    weight_filler {
      type: "xavier"
      std: 0.03
    }
    bias_filler {
      type: "constant"
      value: 0.2
    }
  }
}
layer {
  name: "inception_3b/relu_1x1"
  type: "ReLU"
  bottom: "inception_3b/1x1"
  top: "inception_3b/1x1"
}
layer {
  name: "inception_3b/3x3_reduce"
  type: "Convolution"
  bottom: "inception_3a/output"
  top: "inception_3b/3x3_reduce"
  param {
    lr_mult: 1
    decay_mult: 1
  }
  param {
    lr_mult: 2
    decay_mult: 0
  }
  convolution_param {
    num_output: 128
    kernel_size: 1
    weight_filler {
      type: "xavier"
      std: 0.09
    }
    bias_filler {
      type: "constant"
      value: 0.2
    }
  }
}
layer {
  name: "inception_3b/relu_3x3_reduce"
  type: "ReLU"
  bottom: "inception_3b/3x3_reduce"
  top: "inception_3b/3x3_reduce"
}
layer {
  name: "inception_3b/3x3"
  type: "Convolution"
  bottom: "inception_3b/3x3_reduce"
  top: "inception_3b/3x3"
  param {
    lr_mult: 1
    decay_mult: 1
  }
  param {
    lr_mult: 2
    decay_mult: 0
  }
  convolution_param {
    num_output: 192
    pad: 1
    kernel_size: 3
    weight_filler {
      type: "xavier"
      std: 0.03
    }
    bias_filler {
      type: "constant"
      value: 0.2
    }
  }
}
layer {
  name: "inception_3b/relu_3x3"
  type: "ReLU"
  bottom: "inception_3b/3x3"
  top: "inception_3b/3x3"
}
layer {
  name: "inception_3b/5x5_reduce"
  type: "Convolution"
  bottom: "inception_3a/output"
  top: "inception_3b/5x5_reduce"
  param {
    lr_mult: 1
    decay_mult: 1
  }
  param {
    lr_mult: 2
    decay_mult: 0
  }
  convolution_param {
    num_output: 32
    kernel_size: 1
    weight_filler {
      type: "xavier"
      std: 0.2
    }
    bias_filler {
      type: "constant"
      value: 0.2
    }
  }
}
layer {
  name: "inception_3b/relu_5x5_reduce"
  type: "ReLU"
  bottom: "inception_3b/5x5_reduce"
  top: "inception_3b/5x5_reduce"
}
layer {
  name: "inception_3b/5x5"
  type: "Convolution"
  bottom: "inception_3b/5x5_reduce"
  top: "inception_3b/5x5"
  param {
    lr_mult: 1
    decay_mult: 1
  }
  param {
    lr_mult: 2
    decay_mult: 0
  }
  convolution_param {
    num_output: 96
    pad: 2
    kernel_size: 5
    weight_filler {
      type: "xavier"
      std: 0.03
    }
    bias_filler {
      type: "constant"
      value: 0.2
    }
  }
}
layer {
  name: "inception_3b/relu_5x5"
  type: "ReLU"
  bottom: "inception_3b/5x5"
  top: "inception_3b/5x5"
}
layer {
  name: "inception_3b/pool"
  type: "Pooling"
  bottom: "inception_3a/output"
  top: "inception_3b/pool"
  pooling_param {
    pool: MAX
    kernel_size: 3
    stride: 1
    pad: 1
  }
}
layer {
  name: "inception_3b/pool_proj"
  type: "Convolution"
  bottom: "inception_3b/pool"
  top: "inception_3b/pool_proj"
  param {
    lr_mult: 1
    decay_mult: 1
  }
  param {
    lr_mult: 2
    decay_mult: 0
  }
  convolution_param {
    num_output: 64
    kernel_size: 1
    weight_filler {
      type: "xavier"
      std: 0.1
    }
    bias_filler {
      type: "constant"
      value: 0.2
    }
  }
}
layer {
  name: "inception_3b/relu_pool_proj"
  type: "ReLU"
  bottom: "inception_3b/pool_proj"
  top: "inception_3b/pool_proj"
}
layer {
  name: "inception_3b/output"
  type: "Concat"
  bottom: "inception_3b/1x1"
  bottom: "inception_3b/3x3"
  bottom: "inception_3b/5x5"
  bottom: "inception_3b/pool_proj"
  top: "inception_3b/output"
}
layer {
  name: "pool3/3x3_s2"
  type: "Pooling"
  bottom: "inception_3b/output"
  top: "pool3/3x3_s2"
  pooling_param {
    pool: MAX
    kernel_size: 3
    stride: 2
  }
}
layer {
  name: "inception_4a/1x1"
  type: "Convolution"
  bottom: "pool3/3x3_s2"
  top: "inception_4a/1x1"
  param {
    lr_mult: 1
    decay_mult: 1
  }
  param {
    lr_mult: 2
    decay_mult: 0
  }
  convolution_param {
    num_output: 192
    kernel_size: 1
    weight_filler {
      type: "xavier"
      std: 0.03
    }
    bias_filler {
      type: "constant"
      value: 0.2
    }
  }
}
layer {
  name: "inception_4a/relu_1x1"
  type: "ReLU"
  bottom: "inception_4a/1x1"
  top: "inception_4a/1x1"
}
layer {
  name: "inception_4a/3x3_reduce"
  type: "Convolution"
  bottom: "pool3/3x3_s2"
  top: "inception_4a/3x3_reduce"
  param {
    lr_mult: 1
    decay_mult: 1
  }
  param {
    lr_mult: 2
    decay_mult: 0
  }
  convolution_param {
    num_output: 96
    kernel_size: 1
    weight_filler {
      type: "xavier"
      std: 0.09
    }
    bias_filler {
      type: "constant"
      value: 0.2
    }
  }
}
layer {
  name: "inception_4a/relu_3x3_reduce"
  type: "ReLU"
  bottom: "inception_4a/3x3_reduce"
  top: "inception_4a/3x3_reduce"
}
layer {
  name: "inception_4a/3x3"
  type: "Convolution"
  bottom: "inception_4a/3x3_reduce"
  top: "inception_4a/3x3"
  param {
    lr_mult: 1
    decay_mult: 1
  }
  param {
    lr_mult: 2
    decay_mult: 0
  }
  convolution_param {
    num_output: 208
    pad: 1
    kernel_size: 3
    weight_filler {
      type: "xavier"
      std: 0.03
    }
    bias_filler {
      type: "constant"
      value: 0.2
    }
  }
}
layer {
  name: "inception_4a/relu_3x3"
  type: "ReLU"
  bottom: "inception_4a/3x3"
  top: "inception_4a/3x3"
}
layer {
  name: "inception_4a/5x5_reduce"
  type: "Convolution"
  bottom: "pool3/3x3_s2"
  top: "inception_4a/5x5_reduce"
  param {
    lr_mult: 1
    decay_mult: 1
  }
  param {
    lr_mult: 2
    decay_mult: 0
  }
  convolution_param {
    num_output: 16
    kernel_size: 1
    weight_filler {
      type: "xavier"
      std: 0.2
    }
    bias_filler {
      type: "constant"
      value: 0.2
    }
  }
}
layer {
  name: "inception_4a/relu_5x5_reduce"
  type: "ReLU"
  bottom: "inception_4a/5x5_reduce"
  top: "inception_4a/5x5_reduce"
}
layer {
  name: "inception_4a/5x5"
  type: "Convolution"
  bottom: "inception_4a/5x5_reduce"
  top: "inception_4a/5x5"
  param {
    lr_mult: 1
    decay_mult: 1
  }
  param {
    lr_mult: 2
    decay_mult: 0
  }
  convolution_param {
    num_output: 48
    pad: 2
    kernel_size: 5
    weight_filler {
      type: "xavier"
      std: 0.03
    }
    bias_filler {
      type: "constant"
      value: 0.2
    }
  }
}
layer {
  name: "inception_4a/relu_5x5"
  type: "ReLU"
  bottom: "inception_4a/5x5"
  top: "inception_4a/5x5"
}
layer {
  name: "inception_4a/pool"
  type: "Pooling"
  bottom: "pool3/3x3_s2"
  top: "inception_4a/pool"
  pooling_param {
    pool: MAX
    kernel_size: 3
    stride: 1
    pad: 1
  }
}
layer {
  name: "inception_4a/pool_proj"
  type: "Convolution"
  bottom: "inception_4a/pool"
  top: "inception_4a/pool_proj"
  param {
    lr_mult: 1
    decay_mult: 1
  }
  param {
    lr_mult: 2
    decay_mult: 0
  }
  convolution_param {
    num_output: 64
    kernel_size: 1
    weight_filler {
      type: "xavier"
      std: 0.1
    }
    bias_filler {
      type: "constant"
      value: 0.2
    }
  }
}
layer {
  name: "inception_4a/relu_pool_proj"
  type: "ReLU"
  bottom: "inception_4a/pool_proj"
  top: "inception_4a/pool_proj"
}
layer {
  name: "inception_4a/output"
  type: "Concat"
  bottom: "inception_4a/1x1"
  bottom: "inception_4a/3x3"
  bottom: "inception_4a/5x5"
  bottom: "inception_4a/pool_proj"
  top: "inception_4a/output"
}
layer {
  name: "loss1/ave_pool"
  type: "Pooling"
  bottom: "inception_4a/output"
  top: "loss1/ave_pool"
  pooling_param {
    pool: AVE
    kernel_size: 5
    stride: 3
  }
}
layer {
  name: "loss1/conv"
  type: "Convolution"
  bottom: "loss1/ave_pool"
  top: "loss1/conv"
  param {
    lr_mult: 1
    decay_mult: 1
  }
  param {
    lr_mult: 2
    decay_mult: 0
  }
  convolution_param {
    num_output: 128
    kernel_size: 1
    weight_filler {
      type: "xavier"
      std: 0.08
    }
    bias_filler {
      type: "constant"
      value: 0.2
    }
  }
}
layer {
  name: "loss1/relu_conv"
  type: "ReLU"
  bottom: "loss1/conv"
  top: "loss1/conv"
}
layer {
  name: "loss1/fc"
  type: "InnerProduct"
  bottom: "loss1/conv"
  top: "loss1/fc"
  param {
    lr_mult: 1
    decay_mult: 1
  }
  param {
    lr_mult: 2
    decay_mult: 0
  }
  inner_product_param {
    num_output: 1024
    weight_filler {
      type: "xavier"
      std: 0.02
    }
    bias_filler {
      type: "constant"
      value: 0.2
    }
  }
}
layer {
  name: "loss1/relu_fc"
  type: "ReLU"
  bottom: "loss1/fc"
  top: "loss1/fc"
}
layer {
  name: "loss1/drop_fc"
  type: "Dropout"
  bottom: "loss1/fc"
  top: "loss1/fc"
  dropout_param {
    dropout_ratio: 0.7
  }
}
layer {
  name: "loss1/classifier_plantvillage"
  type: "InnerProduct"
  bottom: "loss1/fc"
  top: "loss1/classifier_plantvillage"
  param {
    lr_mult: 1
    decay_mult: 1
  }
  param {
    lr_mult: 2
    decay_mult: 0
  }
  inner_product_param {
    num_output: 38
    weight_filler {
      type: "xavier"
      std: 0.0009765625
    }
    bias_filler {
      type: "constant"
      value: 0
    }
  }
}
layer {
  name: "inception_4b/1x1"
  type: "Convolution"
  bottom: "inception_4a/output"
  top: "inception_4b/1x1"
  param {
    lr_mult: 1
    decay_mult: 1
  }
  param {
    lr_mult: 2
    decay_mult: 0
  }
  convolution_param {
    num_output: 160
    kernel_size: 1
    weight_filler {
      type: "xavier"
      std: 0.03
    }
    bias_filler {
      type: "constant"
      value: 0.2
    }
  }
}
layer {
  name: "inception_4b/relu_1x1"
  type: "ReLU"
  bottom: "inception_4b/1x1"
  top: "inception_4b/1x1"
}
layer {
  name: "inception_4b/3x3_reduce"
  type: "Convolution"
  bottom: "inception_4a/output"
  top: "inception_4b/3x3_reduce"
  param {
    lr_mult: 1
    decay_mult: 1
  }
  param {
    lr_mult: 2
    decay_mult: 0
  }
  convolution_param {
    num_output: 112
    kernel_size: 1
    weight_filler {
      type: "xavier"
      std: 0.09
    }
    bias_filler {
      type: "constant"
      value: 0.2
    }
  }
}
layer {
  name: "inception_4b/relu_3x3_reduce"
  type: "ReLU"
  bottom: "inception_4b/3x3_reduce"
  top: "inception_4b/3x3_reduce"
}
layer {
  name: "inception_4b/3x3"
  type: "Convolution"
  bottom: "inception_4b/3x3_reduce"
  top: "inception_4b/3x3"
  param {
    lr_mult: 1
    decay_mult: 1
  }
  param {
    lr_mult: 2
    decay_mult: 0
  }
  convolution_param {
    num_output: 224
    pad: 1
    kernel_size: 3
    weight_filler {
      type: "xavier"
      std: 0.03
    }
    bias_filler {
      type: "constant"
      value: 0.2
    }
  }
}
layer {
  name: "inception_4b/relu_3x3"
  type: "ReLU"
  bottom: "inception_4b/3x3"
  top: "inception_4b/3x3"
}
layer {
  name: "inception_4b/5x5_reduce"
  type: "Convolution"
  bottom: "inception_4a/output"
  top: "inception_4b/5x5_reduce"
  param {
    lr_mult: 1
    decay_mult: 1
  }
  param {
    lr_mult: 2
    decay_mult: 0
  }
  convolution_param {
    num_output: 24
    kernel_size: 1
    weight_filler {
      type: "xavier"
      std: 0.2
    }
    bias_filler {
      type: "constant"
      value: 0.2
    }
  }
}
layer {
  name: "inception_4b/relu_5x5_reduce"
  type: "ReLU"
  bottom: "inception_4b/5x5_reduce"
  top: "inception_4b/5x5_reduce"
}
layer {
  name: "inception_4b/5x5"
  type: "Convolution"
  bottom: "inception_4b/5x5_reduce"
  top: "inception_4b/5x5"
  param {
    lr_mult: 1
    decay_mult: 1
  }
  param {
    lr_mult: 2
    decay_mult: 0
  }
  convolution_param {
    num_output: 64
    pad: 2
    kernel_size: 5
    weight_filler {
      type: "xavier"
      std: 0.03
    }
    bias_filler {
      type: "constant"
      value: 0.2
    }
  }
}
layer {
  name: "inception_4b/relu_5x5"
  type: "ReLU"
  bottom: "inception_4b/5x5"
  top: "inception_4b/5x5"
}
layer {
  name: "inception_4b/pool"
  type: "Pooling"
  bottom: "inception_4a/output"
  top: "inception_4b/pool"
  pooling_param {
    pool: MAX
    kernel_size: 3
    stride: 1
    pad: 1
  }
}
layer {
  name: "inception_4b/pool_proj"
  type: "Convolution"
  bottom: "inception_4b/pool"
  top: "inception_4b/pool_proj"
  param {
    lr_mult: 1
    decay_mult: 1
  }
  param {
    lr_mult: 2
    decay_mult: 0
  }
  convolution_param {
    num_output: 64
    kernel_size: 1
    weight_filler {
      type: "xavier"
      std: 0.1
    }
    bias_filler {
      type: "constant"
      value: 0.2
    }
  }
}
layer {
  name: "inception_4b/relu_pool_proj"
  type: "ReLU"
  bottom: "inception_4b/pool_proj"
  top: "inception_4b/pool_proj"
}
layer {
  name: "inception_4b/output"
  type: "Concat"
  bottom: "inception_4b/1x1"
  bottom: "inception_4b/3x3"
  bottom: "inception_4b/5x5"
  bottom: "inception_4b/pool_proj"
  top: "inception_4b/output"
}
layer {
  name: "inception_4c/1x1"
  type: "Convolution"
  bottom: "inception_4b/output"
  top: "inception_4c/1x1"
  param {
    lr_mult: 1
    decay_mult: 1
  }
  param {
    lr_mult: 2
    decay_mult: 0
  }
  convolution_param {
    num_output: 128
    kernel_size: 1
    weight_filler {
      type: "xavier"
      std: 0.03
    }
    bias_filler {
      type: "constant"
      value: 0.2
    }
  }
}
layer {
  name: "inception_4c/relu_1x1"
  type: "ReLU"
  bottom: "inception_4c/1x1"
  top: "inception_4c/1x1"
}
layer {
  name: "inception_4c/3x3_reduce"
  type: "Convolution"
  bottom: "inception_4b/output"
  top: "inception_4c/3x3_reduce"
  param {
    lr_mult: 1
    decay_mult: 1
  }
  param {
    lr_mult: 2
    decay_mult: 0
  }
  convolution_param {
    num_output: 128
    kernel_size: 1
    weight_filler {
      type: "xavier"
      std: 0.09
    }
    bias_filler {
      type: "constant"
      value: 0.2
    }
  }
}
layer {
  name: "inception_4c/relu_3x3_reduce"
  type: "ReLU"
  bottom: "inception_4c/3x3_reduce"
  top: "inception_4c/3x3_reduce"
}
layer {
  name: "inception_4c/3x3"
  type: "Convolution"
  bottom: "inception_4c/3x3_reduce"
  top: "inception_4c/3x3"
  param {
    lr_mult: 1
    decay_mult: 1
  }
  param {
    lr_mult: 2
    decay_mult: 0
  }
  convolution_param {
    num_output: 256
    pad: 1
    kernel_size: 3
    weight_filler {
      type: "xavier"
      std: 0.03
    }
    bias_filler {
      type: "constant"
      value: 0.2
    }
  }
}
layer {
  name: "inception_4c/relu_3x3"
  type: "ReLU"
  bottom: "inception_4c/3x3"
  top: "inception_4c/3x3"
}
layer {
  name: "inception_4c/5x5_reduce"
  type: "Convolution"
  bottom: "inception_4b/output"
  top: "inception_4c/5x5_reduce"
  param {
    lr_mult: 1
    decay_mult: 1
  }
  param {
    lr_mult: 2
    decay_mult: 0
  }
  convolution_param {
    num_output: 24
    kernel_size: 1
    weight_filler {
      type: "xavier"
      std: 0.2
    }
    bias_filler {
      type: "constant"
      value: 0.2
    }
  }
}
layer {
  name: "inception_4c/relu_5x5_reduce"
  type: "ReLU"
  bottom: "inception_4c/5x5_reduce"
  top: "inception_4c/5x5_reduce"
}
layer {
  name: "inception_4c/5x5"
  type: "Convolution"
  bottom: "inception_4c/5x5_reduce"
  top: "inception_4c/5x5"
  param {
    lr_mult: 1
    decay_mult: 1
  }
  param {
    lr_mult: 2
    decay_mult: 0
  }
  convolution_param {
    num_output: 64
    pad: 2
    kernel_size: 5
    weight_filler {
      type: "xavier"
      std: 0.03
    }
    bias_filler {
      type: "constant"
      value: 0.2
    }
  }
}
layer {
  name: "inception_4c/relu_5x5"
  type: "ReLU"
  bottom: "inception_4c/5x5"
  top: "inception_4c/5x5"
}
layer {
  name: "inception_4c/pool"
  type: "Pooling"
  bottom: "inception_4b/output"
  top: "inception_4c/pool"
  pooling_param {
    pool: MAX
    kernel_size: 3
    stride: 1
    pad: 1
  }
}
layer {
  name: "inception_4c/pool_proj"
  type: "Convolution"
  bottom: "inception_4c/pool"
  top: "inception_4c/pool_proj"
  param {
    lr_mult: 1
    decay_mult: 1
  }
  param {
    lr_mult: 2
    decay_mult: 0
  }
  convolution_param {
    num_output: 64
    kernel_size: 1
    weight_filler {
      type: "xavier"
      std: 0.1
    }
    bias_filler {
      type: "constant"
      value: 0.2
    }
  }
}
layer {
  name: "inception_4c/relu_pool_proj"
  type: "ReLU"
  bottom: "inception_4c/pool_proj"
  top: "inception_4c/pool_proj"
}
layer {
  name: "inception_4c/output"
  type: "Concat"
  bottom: "inception_4c/1x1"
  bottom: "inception_4c/3x3"
  bottom: "inception_4c/5x5"
  bottom: "inception_4c/pool_proj"
  top: "inception_4c/output"
}
layer {
  name: "inception_4d/1x1"
  type: "Convolution"
  bottom: "inception_4c/output"
  top: "inception_4d/1x1"
  param {
    lr_mult: 1
    decay_mult: 1
  }
  param {
    lr_mult: 2
    decay_mult: 0
  }
  convolution_param {
    num_output: 112
    kernel_size: 1
    weight_filler {
      type: "xavier"
      std: 0.03
    }
    bias_filler {
      type: "constant"
      value: 0.2
    }
  }
}
layer {
  name: "inception_4d/relu_1x1"
  type: "ReLU"
  bottom: "inception_4d/1x1"
  top: "inception_4d/1x1"
}
layer {
  name: "inception_4d/3x3_reduce"
  type: "Convolution"
  bottom: "inception_4c/output"
  top: "inception_4d/3x3_reduce"
  param {
    lr_mult: 1
    decay_mult: 1
  }
  param {
    lr_mult: 2
    decay_mult: 0
  }
  convolution_param {
    num_output: 144
    kernel_size: 1
    weight_filler {
      type: "xavier"
      std: 0.09
    }
    bias_filler {
      type: "constant"
      value: 0.2
    }
  }
}
layer {
  name: "inception_4d/relu_3x3_reduce"
  type: "ReLU"
  bottom: "inception_4d/3x3_reduce"
  top: "inception_4d/3x3_reduce"
}
layer {
  name: "inception_4d/3x3"
  type: "Convolution"
  bottom: "inception_4d/3x3_reduce"
  top: "inception_4d/3x3"
  param {
    lr_mult: 1
    decay_mult: 1
  }
  param {
    lr_mult: 2
    decay_mult: 0
  }
  convolution_param {
    num_output: 288
    pad: 1
    kernel_size: 3
    weight_filler {
      type: "xavier"
      std: 0.03
    }
    bias_filler {
      type: "constant"
      value: 0.2
    }
  }
}
layer {
  name: "inception_4d/relu_3x3"
  type: "ReLU"
  bottom: "inception_4d/3x3"
  top: "inception_4d/3x3"
}
layer {
  name: "inception_4d/5x5_reduce"
  type: "Convolution"
  bottom: "inception_4c/output"
  top: "inception_4d/5x5_reduce"
  param {
    lr_mult: 1
    decay_mult: 1
  }
  param {
    lr_mult: 2
    decay_mult: 0
  }
  convolution_param {
    num_output: 32
    kernel_size: 1
    weight_filler {
      type: "xavier"
      std: 0.2
    }
    bias_filler {
      type: "constant"
      value: 0.2
    }
  }
}
layer {
  name: "inception_4d/relu_5x5_reduce"
  type: "ReLU"
  bottom: "inception_4d/5x5_reduce"
  top: "inception_4d/5x5_reduce"
}
layer {
  name: "inception_4d/5x5"
  type: "Convolution"
  bottom: "inception_4d/5x5_reduce"
  top: "inception_4d/5x5"
  param {
    lr_mult: 1
    decay_mult: 1
  }
  param {
    lr_mult: 2
    decay_mult: 0
  }
  convolution_param {
    num_output: 64
    pad: 2
    kernel_size: 5
    weight_filler {
      type: "xavier"
      std: 0.03
    }
    bias_filler {
      type: "constant"
      value: 0.2
    }
  }
}
layer {
  name: "inception_4d/relu_5x5"
  type: "ReLU"
  bottom: "inception_4d/5x5"
  top: "inception_4d/5x5"
}
layer {
  name: "inception_4d/pool"
  type: "Pooling"
  bottom: "inception_4c/output"
  top: "inception_4d/pool"
  pooling_param {
    pool: MAX
    kernel_size: 3
    stride: 1
    pad: 1
  }
}
layer {
  name: "inception_4d/pool_proj"
  type: "Convolution"
  bottom: "inception_4d/pool"
  top: "inception_4d/pool_proj"
  param {
    lr_mult: 1
    decay_mult: 1
  }
  param {
    lr_mult: 2
    decay_mult: 0
  }
  convolution_param {
    num_output: 64
    kernel_size: 1
    weight_filler {
      type: "xavier"
      std: 0.1
    }
    bias_filler {
      type: "constant"
      value: 0.2
    }
  }
}
layer {
  name: "inception_4d/relu_pool_proj"
  type: "ReLU"
  bottom: "inception_4d/pool_proj"
  top: "inception_4d/pool_proj"
}
layer {
  name: "inception_4d/output"
  type: "Concat"
  bottom: "inception_4d/1x1"
  bottom: "inception_4d/3x3"
  bottom: "inception_4d/5x5"
  bottom: "inception_4d/pool_proj"
  top: "inception_4d/output"
}
layer {
  name: "loss2/ave_pool"
  type: "Pooling"
  bottom: "inception_4d/output"
  top: "loss2/ave_pool"
  pooling_param {
    pool: AVE
    kernel_size: 5
    stride: 3
  }
}
layer {
  name: "loss2/conv"
  type: "Convolution"
  bottom: "loss2/ave_pool"
  top: "loss2/conv"
  param {
    lr_mult: 1
    decay_mult: 1
  }
  param {
    lr_mult: 2
    decay_mult: 0
  }
  convolution_param {
    num_output: 128
    kernel_size: 1
    weight_filler {
      type: "xavier"
      std: 0.08
    }
    bias_filler {
      type: "constant"
      value: 0.2
    }
  }
}
layer {
  name: "loss2/relu_conv"
  type: "ReLU"
  bottom: "loss2/conv"
  top: "loss2/conv"
}
layer {
  name: "loss2/fc"
  type: "InnerProduct"
  bottom: "loss2/conv"
  top: "loss2/fc"
  param {
    lr_mult: 1
    decay_mult: 1
  }
  param {
    lr_mult: 2
    decay_mult: 0
  }
  inner_product_param {
    num_output: 1024
    weight_filler {
      type: "xavier"
      std: 0.02
    }
    bias_filler {
      type: "constant"
      value: 0.2
    }
  }
}
layer {
  name: "loss2/relu_fc"
  type: "ReLU"
  bottom: "loss2/fc"
  top: "loss2/fc"
}
layer {
  name: "loss2/drop_fc"
  type: "Dropout"
  bottom: "loss2/fc"
  top: "loss2/fc"
  dropout_param {
    dropout_ratio: 0.7
  }
}
layer {
  name: "loss2/classifier_plantvillage"
  type: "InnerProduct"
  bottom: "loss2/fc"
  top: "loss2/classifier_plantvillage"
  param {
    lr_mult: 1
    decay_mult: 1
  }
  param {
    lr_mult: 2
    decay_mult: 0
  }
  inner_product_param {
    num_output: 38
    weight_filler {
      type: "xavier"
      std: 0.0009765625
    }
    bias_filler {
      type: "constant"
      value: 0
    }
  }
}
layer {
  name: "inception_4e/1x1"
  type: "Convolution"
  bottom: "inception_4d/output"
  top: "inception_4e/1x1"
  param {
    lr_mult: 1
    decay_mult: 1
  }
  param {
    lr_mult: 2
    decay_mult: 0
  }
  convolution_param {
    num_output: 256
    kernel_size: 1
    weight_filler {
      type: "xavier"
      std: 0.03
    }
    bias_filler {
      type: "constant"
      value: 0.2
    }
  }
}
layer {
  name: "inception_4e/relu_1x1"
  type: "ReLU"
  bottom: "inception_4e/1x1"
  top: "inception_4e/1x1"
}
layer {
  name: "inception_4e/3x3_reduce"
  type: "Convolution"
  bottom: "inception_4d/output"
  top: "inception_4e/3x3_reduce"
  param {
    lr_mult: 1
    decay_mult: 1
  }
  param {
    lr_mult: 2
    decay_mult: 0
  }
  convolution_param {
    num_output: 160
    kernel_size: 1
    weight_filler {
      type: "xavier"
      std: 0.09
    }
    bias_filler {
      type: "constant"
      value: 0.2
    }
  }
}
layer {
  name: "inception_4e/relu_3x3_reduce"
  type: "ReLU"
  bottom: "inception_4e/3x3_reduce"
  top: "inception_4e/3x3_reduce"
}
layer {
  name: "inception_4e/3x3"
  type: "Convolution"
  bottom: "inception_4e/3x3_reduce"
  top: "inception_4e/3x3"
  param {
    lr_mult: 1
    decay_mult: 1
  }
  param {
    lr_mult: 2
    decay_mult: 0
  }
  convolution_param {
    num_output: 320
    pad: 1
    kernel_size: 3
    weight_filler {
      type: "xavier"
      std: 0.03
    }
    bias_filler {
      type: "constant"
      value: 0.2
    }
  }
}
layer {
  name: "inception_4e/relu_3x3"
  type: "ReLU"
  bottom: "inception_4e/3x3"
  top: "inception_4e/3x3"
}
layer {
  name: "inception_4e/5x5_reduce"
  type: "Convolution"
  bottom: "inception_4d/output"
  top: "inception_4e/5x5_reduce"
  param {
    lr_mult: 1
    decay_mult: 1
  }
  param {
    lr_mult: 2
    decay_mult: 0
  }
  convolution_param {
    num_output: 32
    kernel_size: 1
    weight_filler {
      type: "xavier"
      std: 0.2
    }
    bias_filler {
      type: "constant"
      value: 0.2
    }
  }
}
layer {
  name: "inception_4e/relu_5x5_reduce"
  type: "ReLU"
  bottom: "inception_4e/5x5_reduce"
  top: "inception_4e/5x5_reduce"
}
layer {
  name: "inception_4e/5x5"
  type: "Convolution"
  bottom: "inception_4e/5x5_reduce"
  top: "inception_4e/
I0403 16:27:29.452359 18195 layer_factory.hpp:77] Creating layer data
I0403 16:27:29.453083 18195 net.cpp:91] Creating Layer data
I0403 16:27:29.453135 18195 net.cpp:399] data -> data
I0403 16:27:29.453198 18195 net.cpp:399] data -> label
I0403 16:27:29.453243 18195 data_transformer.cpp:25] Loading mean file from: /home/mohanty/data/final_dataset/lmdb/segmented-20-80/mean.binaryproto
I0403 16:27:29.454516 18198 db_lmdb.cpp:38] Opened lmdb /home/mohanty/data/final_dataset/lmdb/segmented-20-80/test_db
I0403 16:27:29.468730 18195 data_layer.cpp:41] output data size: 24,3,224,224
I0403 16:27:29.500741 18195 net.cpp:141] Setting up data
I0403 16:27:29.500830 18195 net.cpp:148] Top shape: 24 3 224 224 (3612672)
I0403 16:27:29.500859 18195 net.cpp:148] Top shape: 24 (24)
I0403 16:27:29.500876 18195 net.cpp:156] Memory required for data: 14450784
I0403 16:27:29.500910 18195 layer_factory.hpp:77] Creating layer label_data_1_split
I0403 16:27:29.500942 18195 net.cpp:91] Creating Layer label_data_1_split
I0403 16:27:29.500964 18195 net.cpp:425] label_data_1_split <- label
I0403 16:27:29.501003 18195 net.cpp:399] label_data_1_split -> label_data_1_split_0
I0403 16:27:29.501037 18195 net.cpp:399] label_data_1_split -> label_data_1_split_1
I0403 16:27:29.501063 18195 net.cpp:399] label_data_1_split -> label_data_1_split_2
I0403 16:27:29.501088 18195 net.cpp:399] label_data_1_split -> label_data_1_split_3
I0403 16:27:29.501112 18195 net.cpp:399] label_data_1_split -> label_data_1_split_4
I0403 16:27:29.501137 18195 net.cpp:399] label_data_1_split -> label_data_1_split_5
I0403 16:27:29.501163 18195 net.cpp:399] label_data_1_split -> label_data_1_split_6
I0403 16:27:29.501188 18195 net.cpp:399] label_data_1_split -> label_data_1_split_7
I0403 16:27:29.501211 18195 net.cpp:399] label_data_1_split -> label_data_1_split_8
I0403 16:27:29.501236 18195 net.cpp:399] label_data_1_split -> label_data_1_split_9
I0403 16:27:29.501377 18195 net.cpp:141] Setting up label_data_1_split
I0403 16:27:29.501405 18195 net.cpp:148] Top shape: 24 (24)
I0403 16:27:29.501425 18195 net.cpp:148] Top shape: 24 (24)
I0403 16:27:29.501444 18195 net.cpp:148] Top shape: 24 (24)
I0403 16:27:29.501464 18195 net.cpp:148] Top shape: 24 (24)
I0403 16:27:29.501482 18195 net.cpp:148] Top shape: 24 (24)
I0403 16:27:29.501500 18195 net.cpp:148] Top shape: 24 (24)
I0403 16:27:29.501518 18195 net.cpp:148] Top shape: 24 (24)
I0403 16:27:29.501536 18195 net.cpp:148] Top shape: 24 (24)
I0403 16:27:29.501554 18195 net.cpp:148] Top shape: 24 (24)
I0403 16:27:29.501577 18195 net.cpp:148] Top shape: 24 (24)
I0403 16:27:29.501633 18195 net.cpp:156] Memory required for data: 14451744
I0403 16:27:29.501652 18195 layer_factory.hpp:77] Creating layer conv1/7x7_s2
I0403 16:27:29.501690 18195 net.cpp:91] Creating Layer conv1/7x7_s2
I0403 16:27:29.501713 18195 net.cpp:425] conv1/7x7_s2 <- data
I0403 16:27:29.501737 18195 net.cpp:399] conv1/7x7_s2 -> conv1/7x7_s2
I0403 16:27:29.667235 18195 net.cpp:141] Setting up conv1/7x7_s2
I0403 16:27:29.667325 18195 net.cpp:148] Top shape: 24 64 112 112 (19267584)
I0403 16:27:29.667346 18195 net.cpp:156] Memory required for data: 91522080
I0403 16:27:29.667383 18195 layer_factory.hpp:77] Creating layer conv1/relu_7x7
I0403 16:27:29.667415 18195 net.cpp:91] Creating Layer conv1/relu_7x7
I0403 16:27:29.667438 18195 net.cpp:425] conv1/relu_7x7 <- conv1/7x7_s2
I0403 16:27:29.667460 18195 net.cpp:386] conv1/relu_7x7 -> conv1/7x7_s2 (in-place)
I0403 16:27:29.667767 18195 net.cpp:141] Setting up conv1/relu_7x7
I0403 16:27:29.667800 18195 net.cpp:148] Top shape: 24 64 112 112 (19267584)
I0403 16:27:29.667819 18195 net.cpp:156] Memory required for data: 168592416
I0403 16:27:29.667840 18195 layer_factory.hpp:77] Creating layer pool1/3x3_s2
I0403 16:27:29.667871 18195 net.cpp:91] Creating Layer pool1/3x3_s2
I0403 16:27:29.667894 18195 net.cpp:425] pool1/3x3_s2 <- conv1/7x7_s2
I0403 16:27:29.667917 18195 net.cpp:399] pool1/3x3_s2 -> pool1/3x3_s2
I0403 16:27:29.668004 18195 net.cpp:141] Setting up pool1/3x3_s2
I0403 16:27:29.668033 18195 net.cpp:148] Top shape: 24 64 56 56 (4816896)
I0403 16:27:29.668052 18195 net.cpp:156] Memory required for data: 187860000
I0403 16:27:29.668071 18195 layer_factory.hpp:77] Creating layer pool1/norm1
I0403 16:27:29.668099 18195 net.cpp:91] Creating Layer pool1/norm1
I0403 16:27:29.668122 18195 net.cpp:425] pool1/norm1 <- pool1/3x3_s2
I0403 16:27:29.668143 18195 net.cpp:399] pool1/norm1 -> pool1/norm1
I0403 16:27:29.668478 18195 net.cpp:141] Setting up pool1/norm1
I0403 16:27:29.668511 18195 net.cpp:148] Top shape: 24 64 56 56 (4816896)
I0403 16:27:29.668530 18195 net.cpp:156] Memory required for data: 207127584
I0403 16:27:29.668550 18195 layer_factory.hpp:77] Creating layer conv2/3x3_reduce
I0403 16:27:29.668596 18195 net.cpp:91] Creating Layer conv2/3x3_reduce
I0403 16:27:29.668618 18195 net.cpp:425] conv2/3x3_reduce <- pool1/norm1
I0403 16:27:29.668642 18195 net.cpp:399] conv2/3x3_reduce -> conv2/3x3_reduce
I0403 16:27:29.670224 18195 net.cpp:141] Setting up conv2/3x3_reduce
I0403 16:27:29.670260 18195 net.cpp:148] Top shape: 24 64 56 56 (4816896)
I0403 16:27:29.670279 18195 net.cpp:156] Memory required for data: 226395168
I0403 16:27:29.670305 18195 layer_factory.hpp:77] Creating layer conv2/relu_3x3_reduce
I0403 16:27:29.670328 18195 net.cpp:91] Creating Layer conv2/relu_3x3_reduce
I0403 16:27:29.670348 18195 net.cpp:425] conv2/relu_3x3_reduce <- conv2/3x3_reduce
I0403 16:27:29.670368 18195 net.cpp:386] conv2/relu_3x3_reduce -> conv2/3x3_reduce (in-place)
I0403 16:27:29.670666 18195 net.cpp:141] Setting up conv2/relu_3x3_reduce
I0403 16:27:29.670699 18195 net.cpp:148] Top shape: 24 64 56 56 (4816896)
I0403 16:27:29.670717 18195 net.cpp:156] Memory required for data: 245662752
I0403 16:27:29.670737 18195 layer_factory.hpp:77] Creating layer conv2/3x3
I0403 16:27:29.670763 18195 net.cpp:91] Creating Layer conv2/3x3
I0403 16:27:29.670785 18195 net.cpp:425] conv2/3x3 <- conv2/3x3_reduce
I0403 16:27:29.670807 18195 net.cpp:399] conv2/3x3 -> conv2/3x3
I0403 16:27:29.673544 18195 net.cpp:141] Setting up conv2/3x3
I0403 16:27:29.673586 18195 net.cpp:148] Top shape: 24 192 56 56 (14450688)
I0403 16:27:29.673607 18195 net.cpp:156] Memory required for data: 303465504
I0403 16:27:29.673634 18195 layer_factory.hpp:77] Creating layer conv2/relu_3x3
I0403 16:27:29.673660 18195 net.cpp:91] Creating Layer conv2/relu_3x3
I0403 16:27:29.673681 18195 net.cpp:425] conv2/relu_3x3 <- conv2/3x3
I0403 16:27:29.673703 18195 net.cpp:386] conv2/relu_3x3 -> conv2/3x3 (in-place)
I0403 16:27:29.673913 18195 net.cpp:141] Setting up conv2/relu_3x3
I0403 16:27:29.673944 18195 net.cpp:148] Top shape: 24 192 56 56 (14450688)
I0403 16:27:29.674000 18195 net.cpp:156] Memory required for data: 361268256
I0403 16:27:29.674018 18195 layer_factory.hpp:77] Creating layer conv2/norm2
I0403 16:27:29.674043 18195 net.cpp:91] Creating Layer conv2/norm2
I0403 16:27:29.674067 18195 net.cpp:425] conv2/norm2 <- conv2/3x3
I0403 16:27:29.674088 18195 net.cpp:399] conv2/norm2 -> conv2/norm2
I0403 16:27:29.674451 18195 net.cpp:141] Setting up conv2/norm2
I0403 16:27:29.674485 18195 net.cpp:148] Top shape: 24 192 56 56 (14450688)
I0403 16:27:29.674504 18195 net.cpp:156] Memory required for data: 419071008
I0403 16:27:29.674522 18195 layer_factory.hpp:77] Creating layer pool2/3x3_s2
I0403 16:27:29.674548 18195 net.cpp:91] Creating Layer pool2/3x3_s2
I0403 16:27:29.674585 18195 net.cpp:425] pool2/3x3_s2 <- conv2/norm2
I0403 16:27:29.674613 18195 net.cpp:399] pool2/3x3_s2 -> pool2/3x3_s2
I0403 16:27:29.674680 18195 net.cpp:141] Setting up pool2/3x3_s2
I0403 16:27:29.674710 18195 net.cpp:148] Top shape: 24 192 28 28 (3612672)
I0403 16:27:29.674727 18195 net.cpp:156] Memory required for data: 433521696
I0403 16:27:29.674746 18195 layer_factory.hpp:77] Creating layer pool2/3x3_s2_pool2/3x3_s2_0_split
I0403 16:27:29.674768 18195 net.cpp:91] Creating Layer pool2/3x3_s2_pool2/3x3_s2_0_split
I0403 16:27:29.674788 18195 net.cpp:425] pool2/3x3_s2_pool2/3x3_s2_0_split <- pool2/3x3_s2
I0403 16:27:29.674813 18195 net.cpp:399] pool2/3x3_s2_pool2/3x3_s2_0_split -> pool2/3x3_s2_pool2/3x3_s2_0_split_0
I0403 16:27:29.674839 18195 net.cpp:399] pool2/3x3_s2_pool2/3x3_s2_0_split -> pool2/3x3_s2_pool2/3x3_s2_0_split_1
I0403 16:27:29.674863 18195 net.cpp:399] pool2/3x3_s2_pool2/3x3_s2_0_split -> pool2/3x3_s2_pool2/3x3_s2_0_split_2
I0403 16:27:29.674888 18195 net.cpp:399] pool2/3x3_s2_pool2/3x3_s2_0_split -> pool2/3x3_s2_pool2/3x3_s2_0_split_3
I0403 16:27:29.674973 18195 net.cpp:141] Setting up pool2/3x3_s2_pool2/3x3_s2_0_split
I0403 16:27:29.675009 18195 net.cpp:148] Top shape: 24 192 28 28 (3612672)
I0403 16:27:29.675030 18195 net.cpp:148] Top shape: 24 192 28 28 (3612672)
I0403 16:27:29.675050 18195 net.cpp:148] Top shape: 24 192 28 28 (3612672)
I0403 16:27:29.675068 18195 net.cpp:148] Top shape: 24 192 28 28 (3612672)
I0403 16:27:29.675086 18195 net.cpp:156] Memory required for data: 491324448
I0403 16:27:29.675103 18195 layer_factory.hpp:77] Creating layer inception_3a/1x1
I0403 16:27:29.675133 18195 net.cpp:91] Creating Layer inception_3a/1x1
I0403 16:27:29.675155 18195 net.cpp:425] inception_3a/1x1 <- pool2/3x3_s2_pool2/3x3_s2_0_split_0
I0403 16:27:29.675179 18195 net.cpp:399] inception_3a/1x1 -> inception_3a/1x1
I0403 16:27:29.677036 18195 net.cpp:141] Setting up inception_3a/1x1
I0403 16:27:29.677072 18195 net.cpp:148] Top shape: 24 64 28 28 (1204224)
I0403 16:27:29.677091 18195 net.cpp:156] Memory required for data: 496141344
I0403 16:27:29.677114 18195 layer_factory.hpp:77] Creating layer inception_3a/relu_1x1
I0403 16:27:29.677139 18195 net.cpp:91] Creating Layer inception_3a/relu_1x1
I0403 16:27:29.677160 18195 net.cpp:425] inception_3a/relu_1x1 <- inception_3a/1x1
I0403 16:27:29.677181 18195 net.cpp:386] inception_3a/relu_1x1 -> inception_3a/1x1 (in-place)
I0403 16:27:29.677392 18195 net.cpp:141] Setting up inception_3a/relu_1x1
I0403 16:27:29.677425 18195 net.cpp:148] Top shape: 24 64 28 28 (1204224)
I0403 16:27:29.677445 18195 net.cpp:156] Memory required for data: 500958240
I0403 16:27:29.677464 18195 layer_factory.hpp:77] Creating layer inception_3a/3x3_reduce
I0403 16:27:29.677492 18195 net.cpp:91] Creating Layer inception_3a/3x3_reduce
I0403 16:27:29.677512 18195 net.cpp:425] inception_3a/3x3_reduce <- pool2/3x3_s2_pool2/3x3_s2_0_split_1
I0403 16:27:29.677536 18195 net.cpp:399] inception_3a/3x3_reduce -> inception_3a/3x3_reduce
I0403 16:27:29.679574 18195 net.cpp:141] Setting up inception_3a/3x3_reduce
I0403 16:27:29.679611 18195 net.cpp:148] Top shape: 24 96 28 28 (1806336)
I0403 16:27:29.679630 18195 net.cpp:156] Memory required for data: 508183584
I0403 16:27:29.679657 18195 layer_factory.hpp:77] Creating layer inception_3a/relu_3x3_reduce
I0403 16:27:29.679703 18195 net.cpp:91] Creating Layer inception_3a/relu_3x3_reduce
I0403 16:27:29.679728 18195 net.cpp:425] inception_3a/relu_3x3_reduce <- inception_3a/3x3_reduce
I0403 16:27:29.679752 18195 net.cpp:386] inception_3a/relu_3x3_reduce -> inception_3a/3x3_reduce (in-place)
I0403 16:27:29.679972 18195 net.cpp:141] Setting up inception_3a/relu_3x3_reduce
I0403 16:27:29.680003 18195 net.cpp:148] Top shape: 24 96 28 28 (1806336)
I0403 16:27:29.680022 18195 net.cpp:156] Memory required for data: 515408928
I0403 16:27:29.680042 18195 layer_factory.hpp:77] Creating layer inception_3a/3x3
I0403 16:27:29.680068 18195 net.cpp:91] Creating Layer inception_3a/3x3
I0403 16:27:29.680090 18195 net.cpp:425] inception_3a/3x3 <- inception_3a/3x3_reduce
I0403 16:27:29.680119 18195 net.cpp:399] inception_3a/3x3 -> inception_3a/3x3
I0403 16:27:29.682111 18195 net.cpp:141] Setting up inception_3a/3x3
I0403 16:27:29.682149 18195 net.cpp:148] Top shape: 24 128 28 28 (2408448)
I0403 16:27:29.682170 18195 net.cpp:156] Memory required for data: 525042720
I0403 16:27:29.682193 18195 layer_factory.hpp:77] Creating layer inception_3a/relu_3x3
I0403 16:27:29.682216 18195 net.cpp:91] Creating Layer inception_3a/relu_3x3
I0403 16:27:29.682236 18195 net.cpp:425] inception_3a/relu_3x3 <- inception_3a/3x3
I0403 16:27:29.682257 18195 net.cpp:386] inception_3a/relu_3x3 -> inception_3a/3x3 (in-place)
I0403 16:27:29.682590 18195 net.cpp:141] Setting up inception_3a/relu_3x3
I0403 16:27:29.682624 18195 net.cpp:148] Top shape: 24 128 28 28 (2408448)
I0403 16:27:29.682644 18195 net.cpp:156] Memory required for data: 534676512
I0403 16:27:29.682662 18195 layer_factory.hpp:77] Creating layer inception_3a/5x5_reduce
I0403 16:27:29.682690 18195 net.cpp:91] Creating Layer inception_3a/5x5_reduce
I0403 16:27:29.682713 18195 net.cpp:425] inception_3a/5x5_reduce <- pool2/3x3_s2_pool2/3x3_s2_0_split_2
I0403 16:27:29.682735 18195 net.cpp:399] inception_3a/5x5_reduce -> inception_3a/5x5_reduce
I0403 16:27:29.683888 18195 net.cpp:141] Setting up inception_3a/5x5_reduce
I0403 16:27:29.683924 18195 net.cpp:148] Top shape: 24 16 28 28 (301056)
I0403 16:27:29.683944 18195 net.cpp:156] Memory required for data: 535880736
I0403 16:27:29.683967 18195 layer_factory.hpp:77] Creating layer inception_3a/relu_5x5_reduce
I0403 16:27:29.683990 18195 net.cpp:91] Creating Layer inception_3a/relu_5x5_reduce
I0403 16:27:29.684008 18195 net.cpp:425] inception_3a/relu_5x5_reduce <- inception_3a/5x5_reduce
I0403 16:27:29.684032 18195 net.cpp:386] inception_3a/relu_5x5_reduce -> inception_3a/5x5_reduce (in-place)
I0403 16:27:29.684376 18195 net.cpp:141] Setting up inception_3a/relu_5x5_reduce
I0403 16:27:29.684409 18195 net.cpp:148] Top shape: 24 16 28 28 (301056)
I0403 16:27:29.684427 18195 net.cpp:156] Memory required for data: 537084960
I0403 16:27:29.684447 18195 layer_factory.hpp:77] Creating layer inception_3a/5x5
I0403 16:27:29.684474 18195 net.cpp:91] Creating Layer inception_3a/5x5
I0403 16:27:29.684497 18195 net.cpp:425] inception_3a/5x5 <- inception_3a/5x5_reduce
I0403 16:27:29.684525 18195 net.cpp:399] inception_3a/5x5 -> inception_3a/5x5
I0403 16:27:29.685765 18195 net.cpp:141] Setting up inception_3a/5x5
I0403 16:27:29.685802 18195 net.cpp:148] Top shape: 24 32 28 28 (602112)
I0403 16:27:29.685822 18195 net.cpp:156] Memory required for data: 539493408
I0403 16:27:29.685845 18195 layer_factory.hpp:77] Creating layer inception_3a/relu_5x5
I0403 16:27:29.685868 18195 net.cpp:91] Creating Layer inception_3a/relu_5x5
I0403 16:27:29.685886 18195 net.cpp:425] inception_3a/relu_5x5 <- inception_3a/5x5
I0403 16:27:29.685907 18195 net.cpp:386] inception_3a/relu_5x5 -> inception_3a/5x5 (in-place)
I0403 16:27:29.686115 18195 net.cpp:141] Setting up inception_3a/relu_5x5
I0403 16:27:29.686148 18195 net.cpp:148] Top shape: 24 32 28 28 (602112)
I0403 16:27:29.686167 18195 net.cpp:156] Memory required for data: 541901856
I0403 16:27:29.686185 18195 layer_factory.hpp:77] Creating layer inception_3a/pool
I0403 16:27:29.686208 18195 net.cpp:91] Creating Layer inception_3a/pool
I0403 16:27:29.686244 18195 net.cpp:425] inception_3a/pool <- pool2/3x3_s2_pool2/3x3_s2_0_split_3
I0403 16:27:29.686271 18195 net.cpp:399] inception_3a/pool -> inception_3a/pool
I0403 16:27:29.686342 18195 net.cpp:141] Setting up inception_3a/pool
I0403 16:27:29.686378 18195 net.cpp:148] Top shape: 24 192 28 28 (3612672)
I0403 16:27:29.686398 18195 net.cpp:156] Memory required for data: 556352544
I0403 16:27:29.686416 18195 layer_factory.hpp:77] Creating layer inception_3a/pool_proj
I0403 16:27:29.686444 18195 net.cpp:91] Creating Layer inception_3a/pool_proj
I0403 16:27:29.686465 18195 net.cpp:425] inception_3a/pool_proj <- inception_3a/pool
I0403 16:27:29.686488 18195 net.cpp:399] inception_3a/pool_proj -> inception_3a/pool_proj
I0403 16:27:29.687646 18195 net.cpp:141] Setting up inception_3a/pool_proj
I0403 16:27:29.687680 18195 net.cpp:148] Top shape: 24 32 28 28 (602112)
I0403 16:27:29.687700 18195 net.cpp:156] Memory required for data: 558760992
I0403 16:27:29.687728 18195 layer_factory.hpp:77] Creating layer inception_3a/relu_pool_proj
I0403 16:27:29.687752 18195 net.cpp:91] Creating Layer inception_3a/relu_pool_proj
I0403 16:27:29.687772 18195 net.cpp:425] inception_3a/relu_pool_proj <- inception_3a/pool_proj
I0403 16:27:29.687795 18195 net.cpp:386] inception_3a/relu_pool_proj -> inception_3a/pool_proj (in-place)
I0403 16:27:29.688123 18195 net.cpp:141] Setting up inception_3a/relu_pool_proj
I0403 16:27:29.688158 18195 net.cpp:148] Top shape: 24 32 28 28 (602112)
I0403 16:27:29.688179 18195 net.cpp:156] Memory required for data: 561169440
I0403 16:27:29.688196 18195 layer_factory.hpp:77] Creating layer inception_3a/output
I0403 16:27:29.688218 18195 net.cpp:91] Creating Layer inception_3a/output
I0403 16:27:29.688237 18195 net.cpp:425] inception_3a/output <- inception_3a/1x1
I0403 16:27:29.688257 18195 net.cpp:425] inception_3a/output <- inception_3a/3x3
I0403 16:27:29.688277 18195 net.cpp:425] inception_3a/output <- inception_3a/5x5
I0403 16:27:29.688298 18195 net.cpp:425] inception_3a/output <- inception_3a/pool_proj
I0403 16:27:29.688318 18195 net.cpp:399] inception_3a/output -> inception_3a/output
I0403 16:27:29.688376 18195 net.cpp:141] Setting up inception_3a/output
I0403 16:27:29.688405 18195 net.cpp:148] Top shape: 24 256 28 28 (4816896)
I0403 16:27:29.688422 18195 net.cpp:156] Memory required for data: 580437024
I0403 16:27:29.688439 18195 layer_factory.hpp:77] Creating layer inception_3a/output_inception_3a/output_0_split
I0403 16:27:29.688463 18195 net.cpp:91] Creating Layer inception_3a/output_inception_3a/output_0_split
I0403 16:27:29.688484 18195 net.cpp:425] inception_3a/output_inception_3a/output_0_split <- inception_3a/output
I0403 16:27:29.688506 18195 net.cpp:399] inception_3a/output_inception_3a/output_0_split -> inception_3a/output_inception_3a/output_0_split_0
I0403 16:27:29.688530 18195 net.cpp:399] inception_3a/output_inception_3a/output_0_split -> inception_3a/output_inception_3a/output_0_split_1
I0403 16:27:29.688560 18195 net.cpp:399] inception_3a/output_inception_3a/output_0_split -> inception_3a/output_inception_3a/output_0_split_2
I0403 16:27:29.688602 18195 net.cpp:399] inception_3a/output_inception_3a/output_0_split -> inception_3a/output_inception_3a/output_0_split_3
I0403 16:27:29.688695 18195 net.cpp:141] Setting up inception_3a/output_inception_3a/output_0_split
I0403 16:27:29.688724 18195 net.cpp:148] Top shape: 24 256 28 28 (4816896)
I0403 16:27:29.688745 18195 net.cpp:148] Top shape: 24 256 28 28 (4816896)
I0403 16:27:29.688763 18195 net.cpp:148] Top shape: 24 256 28 28 (4816896)
I0403 16:27:29.688782 18195 net.cpp:148] Top shape: 24 256 28 28 (4816896)
I0403 16:27:29.688799 18195 net.cpp:156] Memory required for data: 657507360
I0403 16:27:29.688817 18195 layer_factory.hpp:77] Creating layer inception_3b/1x1
I0403 16:27:29.688848 18195 net.cpp:91] Creating Layer inception_3b/1x1
I0403 16:27:29.688868 18195 net.cpp:425] inception_3b/1x1 <- inception_3a/output_inception_3a/output_0_split_0
I0403 16:27:29.688892 18195 net.cpp:399] inception_3b/1x1 -> inception_3b/1x1
I0403 16:27:29.690263 18195 net.cpp:141] Setting up inception_3b/1x1
I0403 16:27:29.690312 18195 net.cpp:148] Top shape: 24 128 28 28 (2408448)
I0403 16:27:29.690333 18195 net.cpp:156] Memory required for data: 667141152
I0403 16:27:29.690356 18195 layer_factory.hpp:77] Creating layer inception_3b/relu_1x1
I0403 16:27:29.690382 18195 net.cpp:91] Creating Layer inception_3b/relu_1x1
I0403 16:27:29.690402 18195 net.cpp:425] inception_3b/relu_1x1 <- inception_3b/1x1
I0403 16:27:29.690423 18195 net.cpp:386] inception_3b/relu_1x1 -> inception_3b/1x1 (in-place)
I0403 16:27:29.690639 18195 net.cpp:141] Setting up inception_3b/relu_1x1
I0403 16:27:29.690676 18195 net.cpp:148] Top shape: 24 128 28 28 (2408448)
I0403 16:27:29.690696 18195 net.cpp:156] Memory required for data: 676774944
I0403 16:27:29.690714 18195 layer_factory.hpp:77] Creating layer inception_3b/3x3_reduce
I0403 16:27:29.690742 18195 net.cpp:91] Creating Layer inception_3b/3x3_reduce
I0403 16:27:29.690764 18195 net.cpp:425] inception_3b/3x3_reduce <- inception_3a/output_inception_3a/output_0_split_1
I0403 16:27:29.690788 18195 net.cpp:399] inception_3b/3x3_reduce -> inception_3b/3x3_reduce
I0403 16:27:29.692157 18195 net.cpp:141] Setting up inception_3b/3x3_reduce
I0403 16:27:29.692193 18195 net.cpp:148] Top shape: 24 128 28 28 (2408448)
I0403 16:27:29.692211 18195 net.cpp:156] Memory required for data: 686408736
I0403 16:27:29.692234 18195 layer_factory.hpp:77] Creating layer inception_3b/relu_3x3_reduce
I0403 16:27:29.692260 18195 net.cpp:91] Creating Layer inception_3b/relu_3x3_reduce
I0403 16:27:29.692281 18195 net.cpp:425] inception_3b/relu_3x3_reduce <- inception_3b/3x3_reduce
I0403 16:27:29.692303 18195 net.cpp:386] inception_3b/relu_3x3_reduce -> inception_3b/3x3_reduce (in-place)
I0403 16:27:29.692510 18195 net.cpp:141] Setting up inception_3b/relu_3x3_reduce
I0403 16:27:29.692543 18195 net.cpp:148] Top shape: 24 128 28 28 (2408448)
I0403 16:27:29.692564 18195 net.cpp:156] Memory required for data: 696042528
I0403 16:27:29.692595 18195 layer_factory.hpp:77] Creating layer inception_3b/3x3
I0403 16:27:29.692627 18195 net.cpp:91] Creating Layer inception_3b/3x3
I0403 16:27:29.692651 18195 net.cpp:425] inception_3b/3x3 <- inception_3b/3x3_reduce
I0403 16:27:29.692677 18195 net.cpp:399] inception_3b/3x3 -> inception_3b/3x3
I0403 16:27:29.696952 18195 net.cpp:141] Setting up inception_3b/3x3
I0403 16:27:29.696991 18195 net.cpp:148] Top shape: 24 192 28 28 (3612672)
I0403 16:27:29.697012 18195 net.cpp:156] Memory required for data: 710493216
I0403 16:27:29.697036 18195 layer_factory.hpp:77] Creating layer inception_3b/relu_3x3
I0403 16:27:29.697057 18195 net.cpp:91] Creating Layer inception_3b/relu_3x3
I0403 16:27:29.697075 18195 net.cpp:425] inception_3b/relu_3x3 <- inception_3b/3x3
I0403 16:27:29.697098 18195 net.cpp:386] inception_3b/relu_3x3 -> inception_3b/3x3 (in-place)
I0403 16:27:29.697437 18195 net.cpp:141] Setting up inception_3b/relu_3x3
I0403 16:27:29.697471 18195 net.cpp:148] Top shape: 24 192 28 28 (3612672)
I0403 16:27:29.697490 18195 net.cpp:156] Memory required for data: 724943904
I0403 16:27:29.697510 18195 layer_factory.hpp:77] Creating layer inception_3b/5x5_reduce
I0403 16:27:29.697536 18195 net.cpp:91] Creating Layer inception_3b/5x5_reduce
I0403 16:27:29.697558 18195 net.cpp:425] inception_3b/5x5_reduce <- inception_3a/output_inception_3a/output_0_split_2
I0403 16:27:29.697588 18195 net.cpp:399] inception_3b/5x5_reduce -> inception_3b/5x5_reduce
I0403 16:27:29.698793 18195 net.cpp:141] Setting up inception_3b/5x5_reduce
I0403 16:27:29.698832 18195 net.cpp:148] Top shape: 24 32 28 28 (602112)
I0403 16:27:29.698853 18195 net.cpp:156] Memory required for data: 727352352
I0403 16:27:29.698874 18195 layer_factory.hpp:77] Creating layer inception_3b/relu_5x5_reduce
I0403 16:27:29.698897 18195 net.cpp:91] Creating Layer inception_3b/relu_5x5_reduce
I0403 16:27:29.698916 18195 net.cpp:425] inception_3b/relu_5x5_reduce <- inception_3b/5x5_reduce
I0403 16:27:29.698937 18195 net.cpp:386] inception_3b/relu_5x5_reduce -> inception_3b/5x5_reduce (in-place)
I0403 16:27:29.699172 18195 net.cpp:141] Setting up inception_3b/relu_5x5_reduce
I0403 16:27:29.699204 18195 net.cpp:148] Top shape: 24 32 28 28 (602112)
I0403 16:27:29.699221 18195 net.cpp:156] Memory required for data: 729760800
I0403 16:27:29.699239 18195 layer_factory.hpp:77] Creating layer inception_3b/5x5
I0403 16:27:29.699268 18195 net.cpp:91] Creating Layer inception_3b/5x5
I0403 16:27:29.699291 18195 net.cpp:425] inception_3b/5x5 <- inception_3b/5x5_reduce
I0403 16:27:29.699317 18195 net.cpp:399] inception_3b/5x5 -> inception_3b/5x5
I0403 16:27:29.701730 18195 net.cpp:141] Setting up inception_3b/5x5
I0403 16:27:29.701766 18195 net.cpp:148] Top shape: 24 96 28 28 (1806336)
I0403 16:27:29.701786 18195 net.cpp:156] Memory required for data: 736986144
I0403 16:27:29.701808 18195 layer_factory.hpp:77] Creating layer inception_3b/relu_5x5
I0403 16:27:29.701834 18195 net.cpp:91] Creating Layer inception_3b/relu_5x5
I0403 16:27:29.701856 18195 net.cpp:425] inception_3b/relu_5x5 <- inception_3b/5x5
I0403 16:27:29.701877 18195 net.cpp:386] inception_3b/relu_5x5 -> inception_3b/5x5 (in-place)
I0403 16:27:29.702110 18195 net.cpp:141] Setting up inception_3b/relu_5x5
I0403 16:27:29.702141 18195 net.cpp:148] Top shape: 24 96 28 28 (1806336)
I0403 16:27:29.702159 18195 net.cpp:156] Memory required for data: 744211488
I0403 16:27:29.702178 18195 layer_factory.hpp:77] Creating layer inception_3b/pool
I0403 16:27:29.702200 18195 net.cpp:91] Creating Layer inception_3b/pool
I0403 16:27:29.702219 18195 net.cpp:425] inception_3b/pool <- inception_3a/output_inception_3a/output_0_split_3
I0403 16:27:29.702242 18195 net.cpp:399] inception_3b/pool -> inception_3b/pool
I0403 16:27:29.702312 18195 net.cpp:141] Setting up inception_3b/pool
I0403 16:27:29.702342 18195 net.cpp:148] Top shape: 24 256 28 28 (4816896)
I0403 16:27:29.702359 18195 net.cpp:156] Memory required for data: 763479072
I0403 16:27:29.702378 18195 layer_factory.hpp:77] Creating layer inception_3b/pool_proj
I0403 16:27:29.702405 18195 net.cpp:91] Creating Layer inception_3b/pool_proj
I0403 16:27:29.702428 18195 net.cpp:425] inception_3b/pool_proj <- inception_3b/pool
I0403 16:27:29.702455 18195 net.cpp:399] inception_3b/pool_proj -> inception_3b/pool_proj
I0403 16:27:29.703742 18195 net.cpp:141] Setting up inception_3b/pool_proj
I0403 16:27:29.703776 18195 net.cpp:148] Top shape: 24 64 28 28 (1204224)
I0403 16:27:29.703795 18195 net.cpp:156] Memory required for data: 768295968
I0403 16:27:29.703819 18195 layer_factory.hpp:77] Creating layer inception_3b/relu_pool_proj
I0403 16:27:29.703840 18195 net.cpp:91] Creating Layer inception_3b/relu_pool_proj
I0403 16:27:29.703865 18195 net.cpp:425] inception_3b/relu_pool_proj <- inception_3b/pool_proj
I0403 16:27:29.703886 18195 net.cpp:386] inception_3b/relu_pool_proj -> inception_3b/pool_proj (in-place)
I0403 16:27:29.704680 18195 net.cpp:141] Setting up inception_3b/relu_pool_proj
I0403 16:27:29.704713 18195 net.cpp:148] Top shape: 24 64 28 28 (1204224)
I0403 16:27:29.704732 18195 net.cpp:156] Memory required for data: 773112864
I0403 16:27:29.704752 18195 layer_factory.hpp:77] Creating layer inception_3b/output
I0403 16:27:29.704774 18195 net.cpp:91] Creating Layer inception_3b/output
I0403 16:27:29.704793 18195 net.cpp:425] inception_3b/output <- inception_3b/1x1
I0403 16:27:29.704813 18195 net.cpp:425] inception_3b/output <- inception_3b/3x3
I0403 16:27:29.704833 18195 net.cpp:425] inception_3b/output <- inception_3b/5x5
I0403 16:27:29.704852 18195 net.cpp:425] inception_3b/output <- inception_3b/pool_proj
I0403 16:27:29.704877 18195 net.cpp:399] inception_3b/output -> inception_3b/output
I0403 16:27:29.704932 18195 net.cpp:141] Setting up inception_3b/output
I0403 16:27:29.704973 18195 net.cpp:148] Top shape: 24 480 28 28 (9031680)
I0403 16:27:29.704993 18195 net.cpp:156] Memory required for data: 809239584
I0403 16:27:29.705011 18195 layer_factory.hpp:77] Creating layer pool3/3x3_s2
I0403 16:27:29.705034 18195 net.cpp:91] Creating Layer pool3/3x3_s2
I0403 16:27:29.705054 18195 net.cpp:425] pool3/3x3_s2 <- inception_3b/output
I0403 16:27:29.705093 18195 net.cpp:399] pool3/3x3_s2 -> pool3/3x3_s2
I0403 16:27:29.705168 18195 net.cpp:141] Setting up pool3/3x3_s2
I0403 16:27:29.705196 18195 net.cpp:148] Top shape: 24 480 14 14 (2257920)
I0403 16:27:29.705215 18195 net.cpp:156] Memory required for data: 818271264
I0403 16:27:29.705232 18195 layer_factory.hpp:77] Creating layer pool3/3x3_s2_pool3/3x3_s2_0_split
I0403 16:27:29.705253 18195 net.cpp:91] Creating Layer pool3/3x3_s2_pool3/3x3_s2_0_split
I0403 16:27:29.705281 18195 net.cpp:425] pool3/3x3_s2_pool3/3x3_s2_0_split <- pool3/3x3_s2
I0403 16:27:29.705304 18195 net.cpp:399] pool3/3x3_s2_pool3/3x3_s2_0_split -> pool3/3x3_s2_pool3/3x3_s2_0_split_0
I0403 16:27:29.705329 18195 net.cpp:399] pool3/3x3_s2_pool3/3x3_s2_0_split -> pool3/3x3_s2_pool3/3x3_s2_0_split_1
I0403 16:27:29.705354 18195 net.cpp:399] pool3/3x3_s2_pool3/3x3_s2_0_split -> pool3/3x3_s2_pool3/3x3_s2_0_split_2
I0403 16:27:29.705379 18195 net.cpp:399] pool3/3x3_s2_pool3/3x3_s2_0_split -> pool3/3x3_s2_pool3/3x3_s2_0_split_3
I0403 16:27:29.705477 18195 net.cpp:141] Setting up pool3/3x3_s2_pool3/3x3_s2_0_split
I0403 16:27:29.705505 18195 net.cpp:148] Top shape: 24 480 14 14 (2257920)
I0403 16:27:29.705526 18195 net.cpp:148] Top shape: 24 480 14 14 (2257920)
I0403 16:27:29.705545 18195 net.cpp:148] Top shape: 24 480 14 14 (2257920)
I0403 16:27:29.705574 18195 net.cpp:148] Top shape: 24 480 14 14 (2257920)
I0403 16:27:29.705593 18195 net.cpp:156] Memory required for data: 854397984
I0403 16:27:29.705611 18195 layer_factory.hpp:77] Creating layer inception_4a/1x1
I0403 16:27:29.705641 18195 net.cpp:91] Creating Layer inception_4a/1x1
I0403 16:27:29.705662 18195 net.cpp:425] inception_4a/1x1 <- pool3/3x3_s2_pool3/3x3_s2_0_split_0
I0403 16:27:29.705688 18195 net.cpp:399] inception_4a/1x1 -> inception_4a/1x1
I0403 16:27:29.707624 18195 net.cpp:141] Setting up inception_4a/1x1
I0403 16:27:29.707659 18195 net.cpp:148] Top shape: 24 192 14 14 (903168)
I0403 16:27:29.707677 18195 net.cpp:156] Memory required for data: 858010656
I0403 16:27:29.707698 18195 layer_factory.hpp:77] Creating layer inception_4a/relu_1x1
I0403 16:27:29.707723 18195 net.cpp:91] Creating Layer inception_4a/relu_1x1
I0403 16:27:29.707743 18195 net.cpp:425] inception_4a/relu_1x1 <- inception_4a/1x1
I0403 16:27:29.707763 18195 net.cpp:386] inception_4a/relu_1x1 -> inception_4a/1x1 (in-place)
I0403 16:27:29.707973 18195 net.cpp:141] Setting up inception_4a/relu_1x1
I0403 16:27:29.708005 18195 net.cpp:148] Top shape: 24 192 14 14 (903168)
I0403 16:27:29.708024 18195 net.cpp:156] Memory required for data: 861623328
I0403 16:27:29.708041 18195 layer_factory.hpp:77] Creating layer inception_4a/3x3_reduce
I0403 16:27:29.708070 18195 net.cpp:91] Creating Layer inception_4a/3x3_reduce
I0403 16:27:29.708096 18195 net.cpp:425] inception_4a/3x3_reduce <- pool3/3x3_s2_pool3/3x3_s2_0_split_1
I0403 16:27:29.708118 18195 net.cpp:399] inception_4a/3x3_reduce -> inception_4a/3x3_reduce
I0403 16:27:29.709673 18195 net.cpp:141] Setting up inception_4a/3x3_reduce
I0403 16:27:29.709707 18195 net.cpp:148] Top shape: 24 96 14 14 (451584)
I0403 16:27:29.709728 18195 net.cpp:156] Memory required for data: 863429664
I0403 16:27:29.709758 18195 layer_factory.hpp:77] Creating layer inception_4a/relu_3x3_reduce
I0403 16:27:29.709781 18195 net.cpp:91] Creating Layer inception_4a/relu_3x3_reduce
I0403 16:27:29.709801 18195 net.cpp:425] inception_4a/relu_3x3_reduce <- inception_4a/3x3_reduce
I0403 16:27:29.709825 18195 net.cpp:386] inception_4a/relu_3x3_reduce -> inception_4a/3x3_reduce (in-place)
I0403 16:27:29.710039 18195 net.cpp:141] Setting up inception_4a/relu_3x3_reduce
I0403 16:27:29.710070 18195 net.cpp:148] Top shape: 24 96 14 14 (451584)
I0403 16:27:29.710088 18195 net.cpp:156] Memory required for data: 865236000
I0403 16:27:29.710106 18195 layer_factory.hpp:77] Creating layer inception_4a/3x3
I0403 16:27:29.710134 18195 net.cpp:91] Creating Layer inception_4a/3x3
I0403 16:27:29.710156 18195 net.cpp:425] inception_4a/3x3 <- inception_4a/3x3_reduce
I0403 16:27:29.710182 18195 net.cpp:399] inception_4a/3x3 -> inception_4a/3x3
I0403 16:27:29.713428 18195 net.cpp:141] Setting up inception_4a/3x3
I0403 16:27:29.713462 18195 net.cpp:148] Top shape: 24 208 14 14 (978432)
I0403 16:27:29.713481 18195 net.cpp:156] Memory required for data: 869149728
I0403 16:27:29.713503 18195 layer_factory.hpp:77] Creating layer inception_4a/relu_3x3
I0403 16:27:29.713527 18195 net.cpp:91] Creating Layer inception_4a/relu_3x3
I0403 16:27:29.713548 18195 net.cpp:425] inception_4a/relu_3x3 <- inception_4a/3x3
I0403 16:27:29.713582 18195 net.cpp:386] inception_4a/relu_3x3 -> inception_4a/3x3 (in-place)
I0403 16:27:29.713918 18195 net.cpp:141] Setting up inception_4a/relu_3x3
I0403 16:27:29.713951 18195 net.cpp:148] Top shape: 24 208 14 14 (978432)
I0403 16:27:29.713970 18195 net.cpp:156] Memory required for data: 873063456
I0403 16:27:29.713989 18195 layer_factory.hpp:77] Creating layer inception_4a/5x5_reduce
I0403 16:27:29.714016 18195 net.cpp:91] Creating Layer inception_4a/5x5_reduce
I0403 16:27:29.714037 18195 net.cpp:425] inception_4a/5x5_reduce <- pool3/3x3_s2_pool3/3x3_s2_0_split_2
I0403 16:27:29.714064 18195 net.cpp:399] inception_4a/5x5_reduce -> inception_4a/5x5_reduce
I0403 16:27:29.715315 18195 net.cpp:141] Setting up inception_4a/5x5_reduce
I0403 16:27:29.715353 18195 net.cpp:148] Top shape: 24 16 14 14 (75264)
I0403 16:27:29.715373 18195 net.cpp:156] Memory required for data: 873364512
I0403 16:27:29.715395 18195 layer_factory.hpp:77] Creating layer inception_4a/relu_5x5_reduce
I0403 16:27:29.715417 18195 net.cpp:91] Creating Layer inception_4a/relu_5x5_reduce
I0403 16:27:29.715436 18195 net.cpp:425] inception_4a/relu_5x5_reduce <- inception_4a/5x5_reduce
I0403 16:27:29.715458 18195 net.cpp:386] inception_4a/relu_5x5_reduce -> inception_4a/5x5_reduce (in-place)
I0403 16:27:29.715682 18195 net.cpp:141] Setting up inception_4a/relu_5x5_reduce
I0403 16:27:29.715716 18195 net.cpp:148] Top shape: 24 16 14 14 (75264)
I0403 16:27:29.715737 18195 net.cpp:156] Memory required for data: 873665568
I0403 16:27:29.715755 18195 layer_factory.hpp:77] Creating layer inception_4a/5x5
I0403 16:27:29.715783 18195 net.cpp:91] Creating Layer inception_4a/5x5
I0403 16:27:29.715806 18195 net.cpp:425] inception_4a/5x5 <- inception_4a/5x5_reduce
I0403 16:27:29.715828 18195 net.cpp:399] inception_4a/5x5 -> inception_4a/5x5
I0403 16:27:29.717149 18195 net.cpp:141] Setting up inception_4a/5x5
I0403 16:27:29.717182 18195 net.cpp:148] Top shape: 24 48 14 14 (225792)
I0403 16:27:29.717202 18195 net.cpp:156] Memory required for data: 874568736
I0403 16:27:29.717223 18195 layer_factory.hpp:77] Creating layer inception_4a/relu_5x5
I0403 16:27:29.717245 18195 net.cpp:91] Creating Layer inception_4a/relu_5x5
I0403 16:27:29.717268 18195 net.cpp:425] inception_4a/relu_5x5 <- inception_4a/5x5
I0403 16:27:29.717293 18195 net.cpp:386] inception_4a/relu_5x5 -> inception_4a/5x5 (in-place)
I0403 16:27:29.717510 18195 net.cpp:141] Setting up inception_4a/relu_5x5
I0403 16:27:29.717541 18195 net.cpp:148] Top shape: 24 48 14 14 (225792)
I0403 16:27:29.717558 18195 net.cpp:156] Memory required for data: 875471904
I0403 16:27:29.717583 18195 layer_factory.hpp:77] Creating layer inception_4a/pool
I0403 16:27:29.717610 18195 net.cpp:91] Creating Layer inception_4a/pool
I0403 16:27:29.717631 18195 net.cpp:425] inception_4a/pool <- pool3/3x3_s2_pool3/3x3_s2_0_split_3
I0403 16:27:29.717653 18195 net.cpp:399] inception_4a/pool -> inception_4a/pool
I0403 16:27:29.717730 18195 net.cpp:141] Setting up inception_4a/pool
I0403 16:27:29.717759 18195 net.cpp:148] Top shape: 24 480 14 14 (2257920)
I0403 16:27:29.717777 18195 net.cpp:156] Memory required for data: 884503584
I0403 16:27:29.717795 18195 layer_factory.hpp:77] Creating layer inception_4a/pool_proj
I0403 16:27:29.717821 18195 net.cpp:91] Creating Layer inception_4a/pool_proj
I0403 16:27:29.717844 18195 net.cpp:425] inception_4a/pool_proj <- inception_4a/pool
I0403 16:27:29.717869 18195 net.cpp:399] inception_4a/pool_proj -> inception_4a/pool_proj
I0403 16:27:29.719295 18195 net.cpp:141] Setting up inception_4a/pool_proj
I0403 16:27:29.719331 18195 net.cpp:148] Top shape: 24 64 14 14 (301056)
I0403 16:27:29.719370 18195 net.cpp:156] Memory required for data: 885707808
I0403 16:27:29.719394 18195 layer_factory.hpp:77] Creating layer inception_4a/relu_pool_proj
I0403 16:27:29.719419 18195 net.cpp:91] Creating Layer inception_4a/relu_pool_proj
I0403 16:27:29.719439 18195 net.cpp:425] inception_4a/relu_pool_proj <- inception_4a/pool_proj
I0403 16:27:29.719465 18195 net.cpp:386] inception_4a/relu_pool_proj -> inception_4a/pool_proj (in-place)
I0403 16:27:29.719810 18195 net.cpp:141] Setting up inception_4a/relu_pool_proj
I0403 16:27:29.719842 18195 net.cpp:148] Top shape: 24 64 14 14 (301056)
I0403 16:27:29.719861 18195 net.cpp:156] Memory required for data: 886912032
I0403 16:27:29.719880 18195 layer_factory.hpp:77] Creating layer inception_4a/output
I0403 16:27:29.719902 18195 net.cpp:91] Creating Layer inception_4a/output
I0403 16:27:29.719920 18195 net.cpp:425] inception_4a/output <- inception_4a/1x1
I0403 16:27:29.719940 18195 net.cpp:425] inception_4a/output <- inception_4a/3x3
I0403 16:27:29.719961 18195 net.cpp:425] inception_4a/output <- inception_4a/5x5
I0403 16:27:29.719981 18195 net.cpp:425] inception_4a/output <- inception_4a/pool_proj
I0403 16:27:29.720005 18195 net.cpp:399] inception_4a/output -> inception_4a/output
I0403 16:27:29.720062 18195 net.cpp:141] Setting up inception_4a/output
I0403 16:27:29.720093 18195 net.cpp:148] Top shape: 24 512 14 14 (2408448)
I0403 16:27:29.720111 18195 net.cpp:156] Memory required for data: 896545824
I0403 16:27:29.720129 18195 layer_factory.hpp:77] Creating layer inception_4a/output_inception_4a/output_0_split
I0403 16:27:29.720152 18195 net.cpp:91] Creating Layer inception_4a/output_inception_4a/output_0_split
I0403 16:27:29.720171 18195 net.cpp:425] inception_4a/output_inception_4a/output_0_split <- inception_4a/output
I0403 16:27:29.720196 18195 net.cpp:399] inception_4a/output_inception_4a/output_0_split -> inception_4a/output_inception_4a/output_0_split_0
I0403 16:27:29.720221 18195 net.cpp:399] inception_4a/output_inception_4a/output_0_split -> inception_4a/output_inception_4a/output_0_split_1
I0403 16:27:29.720247 18195 net.cpp:399] inception_4a/output_inception_4a/output_0_split -> inception_4a/output_inception_4a/output_0_split_2
I0403 16:27:29.720275 18195 net.cpp:399] inception_4a/output_inception_4a/output_0_split -> inception_4a/output_inception_4a/output_0_split_3
I0403 16:27:29.720300 18195 net.cpp:399] inception_4a/output_inception_4a/output_0_split -> inception_4a/output_inception_4a/output_0_split_4
I0403 16:27:29.720413 18195 net.cpp:141] Setting up inception_4a/output_inception_4a/output_0_split
I0403 16:27:29.720445 18195 net.cpp:148] Top shape: 24 512 14 14 (2408448)
I0403 16:27:29.720468 18195 net.cpp:148] Top shape: 24 512 14 14 (2408448)
I0403 16:27:29.720486 18195 net.cpp:148] Top shape: 24 512 14 14 (2408448)
I0403 16:27:29.720505 18195 net.cpp:148] Top shape: 24 512 14 14 (2408448)
I0403 16:27:29.720525 18195 net.cpp:148] Top shape: 24 512 14 14 (2408448)
I0403 16:27:29.720541 18195 net.cpp:156] Memory required for data: 944714784
I0403 16:27:29.720559 18195 layer_factory.hpp:77] Creating layer loss1/ave_pool
I0403 16:27:29.720587 18195 net.cpp:91] Creating Layer loss1/ave_pool
I0403 16:27:29.720609 18195 net.cpp:425] loss1/ave_pool <- inception_4a/output_inception_4a/output_0_split_0
I0403 16:27:29.720631 18195 net.cpp:399] loss1/ave_pool -> loss1/ave_pool
I0403 16:27:29.720880 18195 net.cpp:141] Setting up loss1/ave_pool
I0403 16:27:29.720912 18195 net.cpp:148] Top shape: 24 512 4 4 (196608)
I0403 16:27:29.720932 18195 net.cpp:156] Memory required for data: 945501216
I0403 16:27:29.720952 18195 layer_factory.hpp:77] Creating layer loss1/conv
I0403 16:27:29.720978 18195 net.cpp:91] Creating Layer loss1/conv
I0403 16:27:29.721000 18195 net.cpp:425] loss1/conv <- loss1/ave_pool
I0403 16:27:29.721026 18195 net.cpp:399] loss1/conv -> loss1/conv
I0403 16:27:29.722743 18195 net.cpp:141] Setting up loss1/conv
I0403 16:27:29.722777 18195 net.cpp:148] Top shape: 24 128 4 4 (49152)
I0403 16:27:29.722815 18195 net.cpp:156] Memory required for data: 945697824
I0403 16:27:29.722838 18195 layer_factory.hpp:77] Creating layer loss1/relu_conv
I0403 16:27:29.722863 18195 net.cpp:91] Creating Layer loss1/relu_conv
I0403 16:27:29.722885 18195 net.cpp:425] loss1/relu_conv <- loss1/conv
I0403 16:27:29.722906 18195 net.cpp:386] loss1/relu_conv -> loss1/conv (in-place)
I0403 16:27:29.723253 18195 net.cpp:141] Setting up loss1/relu_conv
I0403 16:27:29.723284 18195 net.cpp:148] Top shape: 24 128 4 4 (49152)
I0403 16:27:29.723302 18195 net.cpp:156] Memory required for data: 945894432
I0403 16:27:29.723320 18195 layer_factory.hpp:77] Creating layer loss1/fc
I0403 16:27:29.723351 18195 net.cpp:91] Creating Layer loss1/fc
I0403 16:27:29.723374 18195 net.cpp:425] loss1/fc <- loss1/conv
I0403 16:27:29.723400 18195 net.cpp:399] loss1/fc -> loss1/fc
I0403 16:27:29.745339 18195 net.cpp:141] Setting up loss1/fc
I0403 16:27:29.745379 18195 net.cpp:148] Top shape: 24 1024 (24576)
I0403 16:27:29.745399 18195 net.cpp:156] Memory required for data: 945992736
I0403 16:27:29.745421 18195 layer_factory.hpp:77] Creating layer loss1/relu_fc
I0403 16:27:29.745445 18195 net.cpp:91] Creating Layer loss1/relu_fc
I0403 16:27:29.745465 18195 net.cpp:425] loss1/relu_fc <- loss1/fc
I0403 16:27:29.745491 18195 net.cpp:386] loss1/relu_fc -> loss1/fc (in-place)
I0403 16:27:29.745723 18195 net.cpp:141] Setting up loss1/relu_fc
I0403 16:27:29.745754 18195 net.cpp:148] Top shape: 24 1024 (24576)
I0403 16:27:29.745772 18195 net.cpp:156] Memory required for data: 946091040
I0403 16:27:29.745790 18195 layer_factory.hpp:77] Creating layer loss1/drop_fc
I0403 16:27:29.745825 18195 net.cpp:91] Creating Layer loss1/drop_fc
I0403 16:27:29.745846 18195 net.cpp:425] loss1/drop_fc <- loss1/fc
I0403 16:27:29.745869 18195 net.cpp:386] loss1/drop_fc -> loss1/fc (in-place)
I0403 16:27:29.745931 18195 net.cpp:141] Setting up loss1/drop_fc
I0403 16:27:29.745962 18195 net.cpp:148] Top shape: 24 1024 (24576)
I0403 16:27:29.745982 18195 net.cpp:156] Memory required for data: 946189344
I0403 16:27:29.746001 18195 layer_factory.hpp:77] Creating layer loss1/classifier_plantvillage
I0403 16:27:29.746023 18195 net.cpp:91] Creating Layer loss1/classifier_plantvillage
I0403 16:27:29.746043 18195 net.cpp:425] loss1/classifier_plantvillage <- loss1/fc
I0403 16:27:29.746069 18195 net.cpp:399] loss1/classifier_plantvillage -> loss1/classifier_plantvillage
I0403 16:27:29.747174 18195 net.cpp:141] Setting up loss1/classifier_plantvillage
I0403 16:27:29.747207 18195 net.cpp:148] Top shape: 24 38 (912)
I0403 16:27:29.747227 18195 net.cpp:156] Memory required for data: 946192992
I0403 16:27:29.747248 18195 layer_factory.hpp:77] Creating layer loss1/classifier_plantvillage_loss1/classifier_plantvillage_0_split
I0403 16:27:29.747277 18195 net.cpp:91] Creating Layer loss1/classifier_plantvillage_loss1/classifier_plantvillage_0_split
I0403 16:27:29.747298 18195 net.cpp:425] loss1/classifier_plantvillage_loss1/classifier_plantvillage_0_split <- loss1/classifier_plantvillage
I0403 16:27:29.747318 18195 net.cpp:399] loss1/classifier_plantvillage_loss1/classifier_plantvillage_0_split -> loss1/classifier_plantvillage_loss1/classifier_plantvillage_0_split_0
I0403 16:27:29.747342 18195 net.cpp:399] loss1/classifier_plantvillage_loss1/classifier_plantvillage_0_split -> loss1/classifier_plantvillage_loss1/classifier_plantvillage_0_split_1
I0403 16:27:29.747367 18195 net.cpp:399] loss1/classifier_plantvillage_loss1/classifier_plantvillage_0_split -> loss1/classifier_plantvillage_loss1/classifier_plantvillage_0_split_2
I0403 16:27:29.747452 18195 net.cpp:141] Setting up loss1/classifier_plantvillage_loss1/classifier_plantvillage_0_split
I0403 16:27:29.747483 18195 net.cpp:148] Top shape: 24 38 (912)
I0403 16:27:29.747503 18195 net.cpp:148] Top shape: 24 38 (912)
I0403 16:27:29.747521 18195 net.cpp:148] Top shape: 24 38 (912)
I0403 16:27:29.747539 18195 net.cpp:156] Memory required for data: 946203936
I0403 16:27:29.747555 18195 layer_factory.hpp:77] Creating layer inception_4b/1x1
I0403 16:27:29.747587 18195 net.cpp:91] Creating Layer inception_4b/1x1
I0403 16:27:29.747629 18195 net.cpp:425] inception_4b/1x1 <- inception_4a/output_inception_4a/output_0_split_1
I0403 16:27:29.747658 18195 net.cpp:399] inception_4b/1x1 -> inception_4b/1x1
I0403 16:27:29.749652 18195 net.cpp:141] Setting up inception_4b/1x1
I0403 16:27:29.749687 18195 net.cpp:148] Top shape: 24 160 14 14 (752640)
I0403 16:27:29.749711 18195 net.cpp:156] Memory required for data: 949214496
I0403 16:27:29.749733 18195 layer_factory.hpp:77] Creating layer inception_4b/relu_1x1
I0403 16:27:29.749757 18195 net.cpp:91] Creating Layer inception_4b/relu_1x1
I0403 16:27:29.749776 18195 net.cpp:425] inception_4b/relu_1x1 <- inception_4b/1x1
I0403 16:27:29.749799 18195 net.cpp:386] inception_4b/relu_1x1 -> inception_4b/1x1 (in-place)
I0403 16:27:29.750020 18195 net.cpp:141] Setting up inception_4b/relu_1x1
I0403 16:27:29.750054 18195 net.cpp:148] Top shape: 24 160 14 14 (752640)
I0403 16:27:29.750073 18195 net.cpp:156] Memory required for data: 952225056
I0403 16:27:29.750092 18195 layer_factory.hpp:77] Creating layer inception_4b/3x3_reduce
I0403 16:27:29.750120 18195 net.cpp:91] Creating Layer inception_4b/3x3_reduce
I0403 16:27:29.750141 18195 net.cpp:425] inception_4b/3x3_reduce <- inception_4a/output_inception_4a/output_0_split_2
I0403 16:27:29.750165 18195 net.cpp:399] inception_4b/3x3_reduce -> inception_4b/3x3_reduce
I0403 16:27:29.751821 18195 net.cpp:141] Setting up inception_4b/3x3_reduce
I0403 16:27:29.751858 18195 net.cpp:148] Top shape: 24 112 14 14 (526848)
I0403 16:27:29.751878 18195 net.cpp:156] Memory required for data: 954332448
I0403 16:27:29.751901 18195 layer_factory.hpp:77] Creating layer inception_4b/relu_3x3_reduce
I0403 16:27:29.751924 18195 net.cpp:91] Creating Layer inception_4b/relu_3x3_reduce
I0403 16:27:29.751945 18195 net.cpp:425] inception_4b/relu_3x3_reduce <- inception_4b/3x3_reduce
I0403 16:27:29.751970 18195 net.cpp:386] inception_4b/relu_3x3_reduce -> inception_4b/3x3_reduce (in-place)
I0403 16:27:29.752322 18195 net.cpp:141] Setting up inception_4b/relu_3x3_reduce
I0403 16:27:29.752357 18195 net.cpp:148] Top shape: 24 112 14 14 (526848)
I0403 16:27:29.752377 18195 net.cpp:156] Memory required for data: 956439840
I0403 16:27:29.752395 18195 layer_factory.hpp:77] Creating layer inception_4b/3x3
I0403 16:27:29.752424 18195 net.cpp:91] Creating Layer inception_4b/3x3
I0403 16:27:29.752445 18195 net.cpp:425] inception_4b/3x3 <- inception_4b/3x3_reduce
I0403 16:27:29.752468 18195 net.cpp:399] inception_4b/3x3 -> inception_4b/3x3
I0403 16:27:29.756120 18195 net.cpp:141] Setting up inception_4b/3x3
I0403 16:27:29.756156 18195 net.cpp:148] Top shape: 24 224 14 14 (1053696)
I0403 16:27:29.756176 18195 net.cpp:156] Memory required for data: 960654624
I0403 16:27:29.756198 18195 layer_factory.hpp:77] Creating layer inception_4b/relu_3x3
I0403 16:27:29.756224 18195 net.cpp:91] Creating Layer inception_4b/relu_3x3
I0403 16:27:29.756247 18195 net.cpp:425] inception_4b/relu_3x3 <- inception_4b/3x3
I0403 16:27:29.756269 18195 net.cpp:386] inception_4b/relu_3x3 -> inception_4b/3x3 (in-place)
I0403 16:27:29.756489 18195 net.cpp:141] Setting up inception_4b/relu_3x3
I0403 16:27:29.756520 18195 net.cpp:148] Top shape: 24 224 14 14 (1053696)
I0403 16:27:29.756539 18195 net.cpp:156] Memory required for data: 964869408
I0403 16:27:29.756556 18195 layer_factory.hpp:77] Creating layer inception_4b/5x5_reduce
I0403 16:27:29.756593 18195 net.cpp:91] Creating Layer inception_4b/5x5_reduce
I0403 16:27:29.756618 18195 net.cpp:425] inception_4b/5x5_reduce <- inception_4a/output_inception_4a/output_0_split_3
I0403 16:27:29.756641 18195 net.cpp:399] inception_4b/5x5_reduce -> inception_4b/5x5_reduce
I0403 16:27:29.757959 18195 net.cpp:141] Setting up inception_4b/5x5_reduce
I0403 16:27:29.757997 18195 net.cpp:148] Top shape: 24 24 14 14 (112896)
I0403 16:27:29.758018 18195 net.cpp:156] Memory required for data: 965320992
I0403 16:27:29.758040 18195 layer_factory.hpp:77] Creating layer inception_4b/relu_5x5_reduce
I0403 16:27:29.758064 18195 net.cpp:91] Creating Layer inception_4b/relu_5x5_reduce
I0403 16:27:29.758102 18195 net.cpp:425] inception_4b/relu_5x5_reduce <- inception_4b/5x5_reduce
I0403 16:27:29.758128 18195 net.cpp:386] inception_4b/relu_5x5_reduce -> inception_4b/5x5_reduce (in-place)
I0403 16:27:29.758353 18195 net.cpp:141] Setting up inception_4b/relu_5x5_reduce
I0403 16:27:29.758384 18195 net.cpp:148] Top shape: 24 24 14 14 (112896)
I0403 16:27:29.758402 18195 net.cpp:156] Memory required for data: 965772576
I0403 16:27:29.758420 18195 layer_factory.hpp:77] Creating layer inception_4b/5x5
I0403 16:27:29.758447 18195 net.cpp:91] Creating Layer inception_4b/5x5
I0403 16:27:29.758471 18195 net.cpp:425] inception_4b/5x5 <- inception_4b/5x5_reduce
I0403 16:27:29.758497 18195 net.cpp:399] inception_4b/5x5 -> inception_4b/5x5
I0403 16:27:29.759994 18195 net.cpp:141] Setting up inception_4b/5x5
I0403 16:27:29.760027 18195 net.cpp:148] Top shape: 24 64 14 14 (301056)
I0403 16:27:29.760047 18195 net.cpp:156] Memory required for data: 966976800
I0403 16:27:29.760069 18195 layer_factory.hpp:77] Creating layer inception_4b/relu_5x5
I0403 16:27:29.760097 18195 net.cpp:91] Creating Layer inception_4b/relu_5x5
I0403 16:27:29.760116 18195 net.cpp:425] inception_4b/relu_5x5 <- inception_4b/5x5
I0403 16:27:29.760138 18195 net.cpp:386] inception_4b/relu_5x5 -> inception_4b/5x5 (in-place)
I0403 16:27:29.760480 18195 net.cpp:141] Setting up inception_4b/relu_5x5
I0403 16:27:29.760512 18195 net.cpp:148] Top shape: 24 64 14 14 (301056)
I0403 16:27:29.760535 18195 net.cpp:156] Memory required for data: 968181024
I0403 16:27:29.760553 18195 layer_factory.hpp:77] Creating layer inception_4b/pool
I0403 16:27:29.760581 18195 net.cpp:91] Creating Layer inception_4b/pool
I0403 16:27:29.760603 18195 net.cpp:425] inception_4b/pool <- inception_4a/output_inception_4a/output_0_split_4
I0403 16:27:29.760627 18195 net.cpp:399] inception_4b/pool -> inception_4b/pool
I0403 16:27:29.760706 18195 net.cpp:141] Setting up inception_4b/pool
I0403 16:27:29.760735 18195 net.cpp:148] Top shape: 24 512 14 14 (2408448)
I0403 16:27:29.760753 18195 net.cpp:156] Memory required for data: 977814816
I0403 16:27:29.760771 18195 layer_factory.hpp:77] Creating layer inception_4b/pool_proj
I0403 16:27:29.760798 18195 net.cpp:91] Creating Layer inception_4b/pool_proj
I0403 16:27:29.760820 18195 net.cpp:425] inception_4b/pool_proj <- inception_4b/pool
I0403 16:27:29.760846 18195 net.cpp:399] inception_4b/pool_proj -> inception_4b/pool_proj
I0403 16:27:29.762315 18195 net.cpp:141] Setting up inception_4b/pool_proj
I0403 16:27:29.762353 18195 net.cpp:148] Top shape: 24 64 14 14 (301056)
I0403 16:27:29.762375 18195 net.cpp:156] Memory required for data: 979019040
I0403 16:27:29.762398 18195 layer_factory.hpp:77] Creating layer inception_4b/relu_pool_proj
I0403 16:27:29.762421 18195 net.cpp:91] Creating Layer inception_4b/relu_pool_proj
I0403 16:27:29.762441 18195 net.cpp:425] inception_4b/relu_pool_proj <- inception_4b/pool_proj
I0403 16:27:29.762462 18195 net.cpp:386] inception_4b/relu_pool_proj -> inception_4b/pool_proj (in-place)
I0403 16:27:29.762691 18195 net.cpp:141] Setting up inception_4b/relu_pool_proj
I0403 16:27:29.762722 18195 net.cpp:148] Top shape: 24 64 14 14 (301056)
I0403 16:27:29.762742 18195 net.cpp:156] Memory required for data: 980223264
I0403 16:27:29.762760 18195 layer_factory.hpp:77] Creating layer inception_4b/output
I0403 16:27:29.762783 18195 net.cpp:91] Creating Layer inception_4b/output
I0403 16:27:29.762801 18195 net.cpp:425] inception_4b/output <- inception_4b/1x1
I0403 16:27:29.762821 18195 net.cpp:425] inception_4b/output <- inception_4b/3x3
I0403 16:27:29.762840 18195 net.cpp:425] inception_4b/output <- inception_4b/5x5
I0403 16:27:29.762861 18195 net.cpp:425] inception_4b/output <- inception_4b/pool_proj
I0403 16:27:29.762884 18195 net.cpp:399] inception_4b/output -> inception_4b/output
I0403 16:27:29.762939 18195 net.cpp:141] Setting up inception_4b/output
I0403 16:27:29.762969 18195 net.cpp:148] Top shape: 24 512 14 14 (2408448)
I0403 16:27:29.762987 18195 net.cpp:156] Memory required for data: 989857056
I0403 16:27:29.763022 18195 layer_factory.hpp:77] Creating layer inception_4b/output_inception_4b/output_0_split
I0403 16:27:29.763047 18195 net.cpp:91] Creating Layer inception_4b/output_inception_4b/output_0_split
I0403 16:27:29.763068 18195 net.cpp:425] inception_4b/output_inception_4b/output_0_split <- inception_4b/output
I0403 16:27:29.763090 18195 net.cpp:399] inception_4b/output_inception_4b/output_0_split -> inception_4b/output_inception_4b/output_0_split_0
I0403 16:27:29.763119 18195 net.cpp:399] inception_4b/output_inception_4b/output_0_split -> inception_4b/output_inception_4b/output_0_split_1
I0403 16:27:29.763145 18195 net.cpp:399] inception_4b/output_inception_4b/output_0_split -> inception_4b/output_inception_4b/output_0_split_2
I0403 16:27:29.763171 18195 net.cpp:399] inception_4b/output_inception_4b/output_0_split -> inception_4b/output_inception_4b/output_0_split_3
I0403 16:27:29.763273 18195 net.cpp:141] Setting up inception_4b/output_inception_4b/output_0_split
I0403 16:27:29.763301 18195 net.cpp:148] Top shape: 24 512 14 14 (2408448)
I0403 16:27:29.763322 18195 net.cpp:148] Top shape: 24 512 14 14 (2408448)
I0403 16:27:29.763341 18195 net.cpp:148] Top shape: 24 512 14 14 (2408448)
I0403 16:27:29.763360 18195 net.cpp:148] Top shape: 24 512 14 14 (2408448)
I0403 16:27:29.763375 18195 net.cpp:156] Memory required for data: 1028392224
I0403 16:27:29.763394 18195 layer_factory.hpp:77] Creating layer inception_4c/1x1
I0403 16:27:29.763422 18195 net.cpp:91] Creating Layer inception_4c/1x1
I0403 16:27:29.763443 18195 net.cpp:425] inception_4c/1x1 <- inception_4b/output_inception_4b/output_0_split_0
I0403 16:27:29.763469 18195 net.cpp:399] inception_4c/1x1 -> inception_4c/1x1
I0403 16:27:29.765236 18195 net.cpp:141] Setting up inception_4c/1x1
I0403 16:27:29.765274 18195 net.cpp:148] Top shape: 24 128 14 14 (602112)
I0403 16:27:29.765292 18195 net.cpp:156] Memory required for data: 1030800672
I0403 16:27:29.765314 18195 layer_factory.hpp:77] Creating layer inception_4c/relu_1x1
I0403 16:27:29.765336 18195 net.cpp:91] Creating Layer inception_4c/relu_1x1
I0403 16:27:29.765360 18195 net.cpp:425] inception_4c/relu_1x1 <- inception_4c/1x1
I0403 16:27:29.765383 18195 net.cpp:386] inception_4c/relu_1x1 -> inception_4c/1x1 (in-place)
I0403 16:27:29.765614 18195 net.cpp:141] Setting up inception_4c/relu_1x1
I0403 16:27:29.765645 18195 net.cpp:148] Top shape: 24 128 14 14 (602112)
I0403 16:27:29.765664 18195 net.cpp:156] Memory required for data: 1033209120
I0403 16:27:29.765682 18195 layer_factory.hpp:77] Creating layer inception_4c/3x3_reduce
I0403 16:27:29.765712 18195 net.cpp:91] Creating Layer inception_4c/3x3_reduce
I0403 16:27:29.765733 18195 net.cpp:425] inception_4c/3x3_reduce <- inception_4b/output_inception_4b/output_0_split_1
I0403 16:27:29.765758 18195 net.cpp:399] inception_4c/3x3_reduce -> inception_4c/3x3_reduce
I0403 16:27:29.768129 18195 net.cpp:141] Setting up inception_4c/3x3_reduce
I0403 16:27:29.768164 18195 net.cpp:148] Top shape: 24 128 14 14 (602112)
I0403 16:27:29.768184 18195 net.cpp:156] Memory required for data: 1035617568
I0403 16:27:29.768208 18195 layer_factory.hpp:77] Creating layer inception_4c/relu_3x3_reduce
I0403 16:27:29.768232 18195 net.cpp:91] Creating Layer inception_4c/relu_3x3_reduce
I0403 16:27:29.768254 18195 net.cpp:425] inception_4c/relu_3x3_reduce <- inception_4c/3x3_reduce
I0403 16:27:29.768275 18195 net.cpp:386] inception_4c/relu_3x3_reduce -> inception_4c/3x3_reduce (in-place)
I0403 16:27:29.768630 18195 net.cpp:141] Setting up inception_4c/relu_3x3_reduce
I0403 16:27:29.768661 18195 net.cpp:148] Top shape: 24 128 14 14 (602112)
I0403 16:27:29.768681 18195 net.cpp:156] Memory required for data: 1038026016
I0403 16:27:29.768699 18195 layer_factory.hpp:77] Creating layer inception_4c/3x3
I0403 16:27:29.768726 18195 net.cpp:91] Creating Layer inception_4c/3x3
I0403 16:27:29.768753 18195 net.cpp:425] inception_4c/3x3 <- inception_4c/3x3_reduce
I0403 16:27:29.768776 18195 net.cpp:399] inception_4c/3x3 -> inception_4c/3x3
I0403 16:27:29.773161 18195 net.cpp:141] Setting up inception_4c/3x3
I0403 16:27:29.773216 18195 net.cpp:148] Top shape: 24 256 14 14 (1204224)
I0403 16:27:29.773237 18195 net.cpp:156] Memory required for data: 1042842912
I0403 16:27:29.773277 18195 layer_factory.hpp:77] Creating layer inception_4c/relu_3x3
I0403 16:27:29.773303 18195 net.cpp:91] Creating Layer inception_4c/relu_3x3
I0403 16:27:29.773324 18195 net.cpp:425] inception_4c/relu_3x3 <- inception_4c/3x3
I0403 16:27:29.773345 18195 net.cpp:386] inception_4c/relu_3x3 -> inception_4c/3x3 (in-place)
I0403 16:27:29.773573 18195 net.cpp:141] Setting up inception_4c/relu_3x3
I0403 16:27:29.773607 18195 net.cpp:148] Top shape: 24 256 14 14 (1204224)
I0403 16:27:29.773627 18195 net.cpp:156] Memory required for data: 1047659808
I0403 16:27:29.773644 18195 layer_factory.hpp:77] Creating layer inception_4c/5x5_reduce
I0403 16:27:29.773674 18195 net.cpp:91] Creating Layer inception_4c/5x5_reduce
I0403 16:27:29.773696 18195 net.cpp:425] inception_4c/5x5_reduce <- inception_4b/output_inception_4b/output_0_split_2
I0403 16:27:29.773720 18195 net.cpp:399] inception_4c/5x5_reduce -> inception_4c/5x5_reduce
I0403 16:27:29.775048 18195 net.cpp:141] Setting up inception_4c/5x5_reduce
I0403 16:27:29.775084 18195 net.cpp:148] Top shape: 24 24 14 14 (112896)
I0403 16:27:29.775102 18195 net.cpp:156] Memory required for data: 1048111392
I0403 16:27:29.775125 18195 layer_factory.hpp:77] Creating layer inception_4c/relu_5x5_reduce
I0403 16:27:29.775149 18195 net.cpp:91] Creating Layer inception_4c/relu_5x5_reduce
I0403 16:27:29.775171 18195 net.cpp:425] inception_4c/relu_5x5_reduce <- inception_4c/5x5_reduce
I0403 16:27:29.775193 18195 net.cpp:386] inception_4c/relu_5x5_reduce -> inception_4c/5x5_reduce (in-place)
I0403 16:27:29.775424 18195 net.cpp:141] Setting up inception_4c/relu_5x5_reduce
I0403 16:27:29.775454 18195 net.cpp:148] Top shape: 24 24 14 14 (112896)
I0403 16:27:29.775472 18195 net.cpp:156] Memory required for data: 1048562976
I0403 16:27:29.775490 18195 layer_factory.hpp:77] Creating layer inception_4c/5x5
I0403 16:27:29.775517 18195 net.cpp:91] Creating Layer inception_4c/5x5
I0403 16:27:29.775540 18195 net.cpp:425] inception_4c/5x5 <- inception_4c/5x5_reduce
I0403 16:27:29.775566 18195 net.cpp:399] inception_4c/5x5 -> inception_4c/5x5
I0403 16:27:29.777076 18195 net.cpp:141] Setting up inception_4c/5x5
I0403 16:27:29.777113 18195 net.cpp:148] Top shape: 24 64 14 14 (301056)
I0403 16:27:29.777133 18195 net.cpp:156] Memory required for data: 1049767200
I0403 16:27:29.777158 18195 layer_factory.hpp:77] Creating layer inception_4c/relu_5x5
I0403 16:27:29.777180 18195 net.cpp:91] Creating Layer inception_4c/relu_5x5
I0403 16:27:29.777200 18195 net.cpp:425] inception_4c/relu_5x5 <- inception_4c/5x5
I0403 16:27:29.777225 18195 net.cpp:386] inception_4c/relu_5x5 -> inception_4c/5x5 (in-place)
I0403 16:27:29.777573 18195 net.cpp:141] Setting up inception_4c/relu_5x5
I0403 16:27:29.777606 18195 net.cpp:148] Top shape: 24 64 14 14 (301056)
I0403 16:27:29.777626 18195 net.cpp:156] Memory required for data: 1050971424
I0403 16:27:29.777643 18195 layer_factory.hpp:77] Creating layer inception_4c/pool
I0403 16:27:29.777665 18195 net.cpp:91] Creating Layer inception_4c/pool
I0403 16:27:29.777688 18195 net.cpp:425] inception_4c/pool <- inception_4b/output_inception_4b/output_0_split_3
I0403 16:27:29.777712 18195 net.cpp:399] inception_4c/pool -> inception_4c/pool
I0403 16:27:29.777794 18195 net.cpp:141] Setting up inception_4c/pool
I0403 16:27:29.777827 18195 net.cpp:148] Top shape: 24 512 14 14 (2408448)
I0403 16:27:29.777845 18195 net.cpp:156] Memory required for data: 1060605216
I0403 16:27:29.777863 18195 layer_factory.hpp:77] Creating layer inception_4c/pool_proj
I0403 16:27:29.777890 18195 net.cpp:91] Creating Layer inception_4c/pool_proj
I0403 16:27:29.777914 18195 net.cpp:425] inception_4c/pool_proj <- inception_4c/pool
I0403 16:27:29.777936 18195 net.cpp:399] inception_4c/pool_proj -> inception_4c/pool_proj
I0403 16:27:29.779428 18195 net.cpp:141] Setting up inception_4c/pool_proj
I0403 16:27:29.779466 18195 net.cpp:148] Top shape: 24 64 14 14 (301056)
I0403 16:27:29.779505 18195 net.cpp:156] Memory required for data: 1061809440
I0403 16:27:29.779527 18195 layer_factory.hpp:77] Creating layer inception_4c/relu_pool_proj
I0403 16:27:29.779549 18195 net.cpp:91] Creating Layer inception_4c/relu_pool_proj
I0403 16:27:29.779573 18195 net.cpp:425] inception_4c/relu_pool_proj <- inception_4c/pool_proj
I0403 16:27:29.779597 18195 net.cpp:386] inception_4c/relu_pool_proj -> inception_4c/pool_proj (in-place)
I0403 16:27:29.779826 18195 net.cpp:141] Setting up inception_4c/relu_pool_proj
I0403 16:27:29.779860 18195 net.cpp:148] Top shape: 24 64 14 14 (301056)
I0403 16:27:29.779880 18195 net.cpp:156] Memory required for data: 1063013664
I0403 16:27:29.779897 18195 layer_factory.hpp:77] Creating layer inception_4c/output
I0403 16:27:29.779919 18195 net.cpp:91] Creating Layer inception_4c/output
I0403 16:27:29.779938 18195 net.cpp:425] inception_4c/output <- inception_4c/1x1
I0403 16:27:29.779959 18195 net.cpp:425] inception_4c/output <- inception_4c/3x3
I0403 16:27:29.779979 18195 net.cpp:425] inception_4c/output <- inception_4c/5x5
I0403 16:27:29.779999 18195 net.cpp:425] inception_4c/output <- inception_4c/pool_proj
I0403 16:27:29.780022 18195 net.cpp:399] inception_4c/output -> inception_4c/output
I0403 16:27:29.780081 18195 net.cpp:141] Setting up inception_4c/output
I0403 16:27:29.780109 18195 net.cpp:148] Top shape: 24 512 14 14 (2408448)
I0403 16:27:29.780128 18195 net.cpp:156] Memory required for data: 1072647456
I0403 16:27:29.780145 18195 layer_factory.hpp:77] Creating layer inception_4c/output_inception_4c/output_0_split
I0403 16:27:29.780169 18195 net.cpp:91] Creating Layer inception_4c/output_inception_4c/output_0_split
I0403 16:27:29.780190 18195 net.cpp:425] inception_4c/output_inception_4c/output_0_split <- inception_4c/output
I0403 16:27:29.780211 18195 net.cpp:399] inception_4c/output_inception_4c/output_0_split -> inception_4c/output_inception_4c/output_0_split_0
I0403 16:27:29.780237 18195 net.cpp:399] inception_4c/output_inception_4c/output_0_split -> inception_4c/output_inception_4c/output_0_split_1
I0403 16:27:29.780268 18195 net.cpp:399] inception_4c/output_inception_4c/output_0_split -> inception_4c/output_inception_4c/output_0_split_2
I0403 16:27:29.780294 18195 net.cpp:399] inception_4c/output_inception_4c/output_0_split -> inception_4c/output_inception_4c/output_0_split_3
I0403 16:27:29.780403 18195 net.cpp:141] Setting up inception_4c/output_inception_4c/output_0_split
I0403 16:27:29.780431 18195 net.cpp:148] Top shape: 24 512 14 14 (2408448)
I0403 16:27:29.780452 18195 net.cpp:148] Top shape: 24 512 14 14 (2408448)
I0403 16:27:29.780470 18195 net.cpp:148] Top shape: 24 512 14 14 (2408448)
I0403 16:27:29.780488 18195 net.cpp:148] Top shape: 24 512 14 14 (2408448)
I0403 16:27:29.780505 18195 net.cpp:156] Memory required for data: 1111182624
I0403 16:27:29.780522 18195 layer_factory.hpp:77] Creating layer inception_4d/1x1
I0403 16:27:29.780550 18195 net.cpp:91] Creating Layer inception_4d/1x1
I0403 16:27:29.780578 18195 net.cpp:425] inception_4d/1x1 <- inception_4c/output_inception_4c/output_0_split_0
I0403 16:27:29.780606 18195 net.cpp:399] inception_4d/1x1 -> inception_4d/1x1
I0403 16:27:29.782301 18195 net.cpp:141] Setting up inception_4d/1x1
I0403 16:27:29.782335 18195 net.cpp:148] Top shape: 24 112 14 14 (526848)
I0403 16:27:29.782356 18195 net.cpp:156] Memory required for data: 1113290016
I0403 16:27:29.782378 18195 layer_factory.hpp:77] Creating layer inception_4d/relu_1x1
I0403 16:27:29.782403 18195 net.cpp:91] Creating Layer inception_4d/relu_1x1
I0403 16:27:29.782424 18195 net.cpp:425] inception_4d/relu_1x1 <- inception_4d/1x1
I0403 16:27:29.782445 18195 net.cpp:386] inception_4d/relu_1x1 -> inception_4d/1x1 (in-place)
I0403 16:27:29.782678 18195 net.cpp:141] Setting up inception_4d/relu_1x1
I0403 16:27:29.782709 18195 net.cpp:148] Top shape: 24 112 14 14 (526848)
I0403 16:27:29.782727 18195 net.cpp:156] Memory required for data: 1115397408
I0403 16:27:29.782747 18195 layer_factory.hpp:77] Creating layer inception_4d/3x3_reduce
I0403 16:27:29.782793 18195 net.cpp:91] Creating Layer inception_4d/3x3_reduce
I0403 16:27:29.782817 18195 net.cpp:425] inception_4d/3x3_reduce <- inception_4c/output_inception_4c/output_0_split_1
I0403 16:27:29.782841 18195 net.cpp:399] inception_4d/3x3_reduce -> inception_4d/3x3_reduce
I0403 16:27:29.784710 18195 net.cpp:141] Setting up inception_4d/3x3_reduce
I0403 16:27:29.784744 18195 net.cpp:148] Top shape: 24 144 14 14 (677376)
I0403 16:27:29.784764 18195 net.cpp:156] Memory required for data: 1118106912
I0403 16:27:29.784785 18195 layer_factory.hpp:77] Creating layer inception_4d/relu_3x3_reduce
I0403 16:27:29.784807 18195 net.cpp:91] Creating Layer inception_4d/relu_3x3_reduce
I0403 16:27:29.784827 18195 net.cpp:425] inception_4d/relu_3x3_reduce <- inception_4d/3x3_reduce
I0403 16:27:29.784852 18195 net.cpp:386] inception_4d/relu_3x3_reduce -> inception_4d/3x3_reduce (in-place)
I0403 16:27:29.785212 18195 net.cpp:141] Setting up inception_4d/relu_3x3_reduce
I0403 16:27:29.785244 18195 net.cpp:148] Top shape: 24 144 14 14 (677376)
I0403 16:27:29.785264 18195 net.cpp:156] Memory required for data: 1120816416
I0403 16:27:29.785284 18195 layer_factory.hpp:77] Creating layer inception_4d/3x3
I0403 16:27:29.785310 18195 net.cpp:91] Creating Layer inception_4d/3x3
I0403 16:27:29.785333 18195 net.cpp:425] inception_4d/3x3 <- inception_4d/3x3_reduce
I0403 16:27:29.785359 18195 net.cpp:399] inception_4d/3x3 -> inception_4d/3x3
I0403 16:27:29.790604 18195 net.cpp:141] Setting up inception_4d/3x3
I0403 16:27:29.790639 18195 net.cpp:148] Top shape: 24 288 14 14 (1354752)
I0403 16:27:29.790658 18195 net.cpp:156] Memory required for data: 1126235424
I0403 16:27:29.790680 18195 layer_factory.hpp:77] Creating layer inception_4d/relu_3x3
I0403 16:27:29.790705 18195 net.cpp:91] Creating Layer inception_4d/relu_3x3
I0403 16:27:29.790729 18195 net.cpp:425] inception_4d/relu_3x3 <- inception_4d/3x3
I0403 16:27:29.790751 18195 net.cpp:386] inception_4d/relu_3x3 -> inception_4d/3x3 (in-place)
I0403 16:27:29.790973 18195 net.cpp:141] Setting up inception_4d/relu_3x3
I0403 16:27:29.791008 18195 net.cpp:148] Top shape: 24 288 14 14 (1354752)
I0403 16:27:29.791028 18195 net.cpp:156] Memory required for data: 1131654432
I0403 16:27:29.791045 18195 layer_factory.hpp:77] Creating layer inception_4d/5x5_reduce
I0403 16:27:29.791074 18195 net.cpp:91] Creating Layer inception_4d/5x5_reduce
I0403 16:27:29.791096 18195 net.cpp:425] inception_4d/5x5_reduce <- inception_4c/output_inception_4c/output_0_split_2
I0403 16:27:29.791121 18195 net.cpp:399] inception_4d/5x5_reduce -> inception_4d/5x5_reduce
I0403 16:27:29.792520 18195 net.cpp:141] Setting up inception_4d/5x5_reduce
I0403 16:27:29.792553 18195 net.cpp:148] Top shape: 24 32 14 14 (150528)
I0403 16:27:29.792579 18195 net.cpp:156] Memory required for data: 1132256544
I0403 16:27:29.792603 18195 layer_factory.hpp:77] Creating layer inception_4d/relu_5x5_reduce
I0403 16:27:29.792629 18195 net.cpp:91] Creating Layer inception_4d/relu_5x5_reduce
I0403 16:27:29.792649 18195 net.cpp:425] inception_4d/relu_5x5_reduce <- inception_4d/5x5_reduce
I0403 16:27:29.792671 18195 net.cpp:386] inception_4d/relu_5x5_reduce -> inception_4d/5x5_reduce (in-place)
I0403 16:27:29.792901 18195 net.cpp:141] Setting up inception_4d/relu_5x5_reduce
I0403 16:27:29.792937 18195 net.cpp:148] Top shape: 24 32 14 14 (150528)
I0403 16:27:29.792955 18195 net.cpp:156] Memory required for data: 1132858656
I0403 16:27:29.792973 18195 layer_factory.hpp:77] Creating layer inception_4d/5x5
I0403 16:27:29.793001 18195 net.cpp:91] Creating Layer inception_4d/5x5
I0403 16:27:29.793023 18195 net.cpp:425] inception_4d/5x5 <- inception_4d/5x5_reduce
I0403 16:27:29.793047 18195 net.cpp:399] inception_4d/5x5 -> inception_4d/5x5
I0403 16:27:29.794849 18195 net.cpp:141] Setting up inception_4d/5x5
I0403 16:27:29.794888 18195 net.cpp:148] Top shape: 24 64 14 14 (301056)
I0403 16:27:29.794909 18195 net.cpp:156] Memory required for data: 1134062880
I0403 16:27:29.794932 18195 layer_factory.hpp:77] Creating layer inception_4d/relu_5x5
I0403 16:27:29.794972 18195 net.cpp:91] Creating Layer inception_4d/relu_5x5
I0403 16:27:29.794996 18195 net.cpp:425] inception_4d/relu_5x5 <- inception_4d/5x5
I0403 16:27:29.795020 18195 net.cpp:386] inception_4d/relu_5x5 -> inception_4d/5x5 (in-place)
I0403 16:27:29.795383 18195 net.cpp:141] Setting up inception_4d/relu_5x5
I0403 16:27:29.795418 18195 net.cpp:148] Top shape: 24 64 14 14 (301056)
I0403 16:27:29.795439 18195 net.cpp:156] Memory required for data: 1135267104
I0403 16:27:29.795457 18195 layer_factory.hpp:77] Creating layer inception_4d/pool
I0403 16:27:29.795480 18195 net.cpp:91] Creating Layer inception_4d/pool
I0403 16:27:29.795500 18195 net.cpp:425] inception_4d/pool <- inception_4c/output_inception_4c/output_0_split_3
I0403 16:27:29.795526 18195 net.cpp:399] inception_4d/pool -> inception_4d/pool
I0403 16:27:29.795614 18195 net.cpp:141] Setting up inception_4d/pool
I0403 16:27:29.795644 18195 net.cpp:148] Top shape: 24 512 14 14 (2408448)
I0403 16:27:29.795663 18195 net.cpp:156] Memory required for data: 1144900896
I0403 16:27:29.795681 18195 layer_factory.hpp:77] Creating layer inception_4d/pool_proj
I0403 16:27:29.795708 18195 net.cpp:91] Creating Layer inception_4d/pool_proj
I0403 16:27:29.795732 18195 net.cpp:425] inception_4d/pool_proj <- inception_4d/pool
I0403 16:27:29.795758 18195 net.cpp:399] inception_4d/pool_proj -> inception_4d/pool_proj
I0403 16:27:29.797921 18195 net.cpp:141] Setting up inception_4d/pool_proj
I0403 16:27:29.797956 18195 net.cpp:148] Top shape: 24 64 14 14 (301056)
I0403 16:27:29.797976 18195 net.cpp:156] Memory required for data: 1146105120
I0403 16:27:29.797998 18195 layer_factory.hpp:77] Creating layer inception_4d/relu_pool_proj
I0403 16:27:29.798023 18195 net.cpp:91] Creating Layer inception_4d/relu_pool_proj
I0403 16:27:29.798046 18195 net.cpp:425] inception_4d/relu_pool_proj <- inception_4d/pool_proj
I0403 16:27:29.798068 18195 net.cpp:386] inception_4d/relu_pool_proj -> inception_4d/pool_proj (in-place)
I0403 16:27:29.798300 18195 net.cpp:141] Setting up inception_4d/relu_pool_proj
I0403 16:27:29.798333 18195 net.cpp:148] Top shape: 24 64 14 14 (301056)
I0403 16:27:29.798353 18195 net.cpp:156] Memory required for data: 1147309344
I0403 16:27:29.798370 18195 layer_factory.hpp:77] Creating layer inception_4d/output
I0403 16:27:29.798391 18195 net.cpp:91] Creating Layer inception_4d/output
I0403 16:27:29.798410 18195 net.cpp:425] inception_4d/output <- inception_4d/1x1
I0403 16:27:29.798431 18195 net.cpp:425] inception_4d/output <- inception_4d/3x3
I0403 16:27:29.798451 18195 net.cpp:425] inception_4d/output <- inception_4d/5x5
I0403 16:27:29.798471 18195 net.cpp:425] inception_4d/output <- inception_4d/pool_proj
I0403 16:27:29.798491 18195 net.cpp:399] inception_4d/output -> inception_4d/output
I0403 16:27:29.798552 18195 net.cpp:141] Setting up inception_4d/output
I0403 16:27:29.798588 18195 net.cpp:148] Top shape: 24 528 14 14 (2483712)
I0403 16:27:29.798606 18195 net.cpp:156] Memory required for data: 1157244192
I0403 16:27:29.798625 18195 layer_factory.hpp:77] Creating layer inception_4d/output_inception_4d/output_0_split
I0403 16:27:29.798650 18195 net.cpp:91] Creating Layer inception_4d/output_inception_4d/output_0_split
I0403 16:27:29.798671 18195 net.cpp:425] inception_4d/output_inception_4d/output_0_split <- inception_4d/output
I0403 16:27:29.798693 18195 net.cpp:399] inception_4d/output_inception_4d/output_0_split -> inception_4d/output_inception_4d/output_0_split_0
I0403 16:27:29.798718 18195 net.cpp:399] inception_4d/output_inception_4d/output_0_split -> inception_4d/output_inception_4d/output_0_split_1
I0403 16:27:29.798743 18195 net.cpp:399] inception_4d/output_inception_4d/output_0_split -> inception_4d/output_inception_4d/output_0_split_2
I0403 16:27:29.798773 18195 net.cpp:399] inception_4d/output_inception_4d/output_0_split -> inception_4d/output_inception_4d/output_0_split_3
I0403 16:27:29.798799 18195 net.cpp:399] inception_4d/output_inception_4d/output_0_split -> inception_4d/output_inception_4d/output_0_split_4
I0403 16:27:29.798924 18195 net.cpp:141] Setting up inception_4d/output_inception_4d/output_0_split
I0403 16:27:29.798969 18195 net.cpp:148] Top shape: 24 528 14 14 (2483712)
I0403 16:27:29.798990 18195 net.cpp:148] Top shape: 24 528 14 14 (2483712)
I0403 16:27:29.799010 18195 net.cpp:148] Top shape: 24 528 14 14 (2483712)
I0403 16:27:29.799028 18195 net.cpp:148] Top shape: 24 528 14 14 (2483712)
I0403 16:27:29.799047 18195 net.cpp:148] Top shape: 24 528 14 14 (2483712)
I0403 16:27:29.799063 18195 net.cpp:156] Memory required for data: 1206918432
I0403 16:27:29.799082 18195 layer_factory.hpp:77] Creating layer loss2/ave_pool
I0403 16:27:29.799105 18195 net.cpp:91] Creating Layer loss2/ave_pool
I0403 16:27:29.799127 18195 net.cpp:425] loss2/ave_pool <- inception_4d/output_inception_4d/output_0_split_0
I0403 16:27:29.799150 18195 net.cpp:399] loss2/ave_pool -> loss2/ave_pool
I0403 16:27:29.799537 18195 net.cpp:141] Setting up loss2/ave_pool
I0403 16:27:29.799576 18195 net.cpp:148] Top shape: 24 528 4 4 (202752)
I0403 16:27:29.799595 18195 net.cpp:156] Memory required for data: 1207729440
I0403 16:27:29.799614 18195 layer_factory.hpp:77] Creating layer loss2/conv
I0403 16:27:29.799643 18195 net.cpp:91] Creating Layer loss2/conv
I0403 16:27:29.799667 18195 net.cpp:425] loss2/conv <- loss2/ave_pool
I0403 16:27:29.799693 18195 net.cpp:399] loss2/conv -> loss2/conv
I0403 16:27:29.802009 18195 net.cpp:141] Setting up loss2/conv
I0403 16:27:29.802052 18195 net.cpp:148] Top shape: 24 128 4 4 (49152)
I0403 16:27:29.802073 18195 net.cpp:156] Memory required for data: 1207926048
I0403 16:27:29.802095 18195 layer_factory.hpp:77] Creating layer loss2/relu_conv
I0403 16:27:29.802119 18195 net.cpp:91] Creating Layer loss2/relu_conv
I0403 16:27:29.802139 18195 net.cpp:425] loss2/relu_conv <- loss2/conv
I0403 16:27:29.802163 18195 net.cpp:386] loss2/relu_conv -> loss2/conv (in-place)
I0403 16:27:29.802507 18195 net.cpp:141] Setting up loss2/relu_conv
I0403 16:27:29.802543 18195 net.cpp:148] Top shape: 24 128 4 4 (49152)
I0403 16:27:29.802563 18195 net.cpp:156] Memory required for data: 1208122656
I0403 16:27:29.802588 18195 layer_factory.hpp:77] Creating layer loss2/fc
I0403 16:27:29.802613 18195 net.cpp:91] Creating Layer loss2/fc
I0403 16:27:29.802633 18195 net.cpp:425] loss2/fc <- loss2/conv
I0403 16:27:29.802659 18195 net.cpp:399] loss2/fc -> loss2/fc
I0403 16:27:29.824580 18195 net.cpp:141] Setting up loss2/fc
I0403 16:27:29.824623 18195 net.cpp:148] Top shape: 24 1024 (24576)
I0403 16:27:29.824643 18195 net.cpp:156] Memory required for data: 1208220960
I0403 16:27:29.824666 18195 layer_factory.hpp:77] Creating layer loss2/relu_fc
I0403 16:27:29.824689 18195 net.cpp:91] Creating Layer loss2/relu_fc
I0403 16:27:29.824712 18195 net.cpp:425] loss2/relu_fc <- loss2/fc
I0403 16:27:29.824733 18195 net.cpp:386] loss2/relu_fc -> loss2/fc (in-place)
I0403 16:27:29.825089 18195 net.cpp:141] Setting up loss2/relu_fc
I0403 16:27:29.825121 18195 net.cpp:148] Top shape: 24 1024 (24576)
I0403 16:27:29.825140 18195 net.cpp:156] Memory required for data: 1208319264
I0403 16:27:29.825158 18195 layer_factory.hpp:77] Creating layer loss2/drop_fc
I0403 16:27:29.825184 18195 net.cpp:91] Creating Layer loss2/drop_fc
I0403 16:27:29.825204 18195 net.cpp:425] loss2/drop_fc <- loss2/fc
I0403 16:27:29.825227 18195 net.cpp:386] loss2/drop_fc -> loss2/fc (in-place)
I0403 16:27:29.825290 18195 net.cpp:141] Setting up loss2/drop_fc
I0403 16:27:29.825319 18195 net.cpp:148] Top shape: 24 1024 (24576)
I0403 16:27:29.825336 18195 net.cpp:156] Memory required for data: 1208417568
I0403 16:27:29.825355 18195 layer_factory.hpp:77] Creating layer loss2/classifier_plantvillage
I0403 16:27:29.825379 18195 net.cpp:91] Creating Layer loss2/classifier_plantvillage
I0403 16:27:29.825399 18195 net.cpp:425] loss2/classifier_plantvillage <- loss2/fc
I0403 16:27:29.825423 18195 net.cpp:399] loss2/classifier_plantvillage -> loss2/classifier_plantvillage
I0403 16:27:29.825925 18195 net.cpp:141] Setting up loss2/classifier_plantvillage
I0403 16:27:29.825958 18195 net.cpp:148] Top shape: 24 38 (912)
I0403 16:27:29.825999 18195 net.cpp:156] Memory required for data: 1208421216
I0403 16:27:29.826023 18195 layer_factory.hpp:77] Creating layer loss2/classifier_plantvillage_loss2/classifier_plantvillage_0_split
I0403 16:27:29.826045 18195 net.cpp:91] Creating Layer loss2/classifier_plantvillage_loss2/classifier_plantvillage_0_split
I0403 16:27:29.826064 18195 net.cpp:425] loss2/classifier_plantvillage_loss2/classifier_plantvillage_0_split <- loss2/classifier_plantvillage
I0403 16:27:29.826089 18195 net.cpp:399] loss2/classifier_plantvillage_loss2/classifier_plantvillage_0_split -> loss2/classifier_plantvillage_loss2/classifier_plantvillage_0_split_0
I0403 16:27:29.826117 18195 net.cpp:399] loss2/classifier_plantvillage_loss2/classifier_plantvillage_0_split -> loss2/classifier_plantvillage_loss2/classifier_plantvillage_0_split_1
I0403 16:27:29.826143 18195 net.cpp:399] loss2/classifier_plantvillage_loss2/classifier_plantvillage_0_split -> loss2/classifier_plantvillage_loss2/classifier_plantvillage_0_split_2
I0403 16:27:29.826239 18195 net.cpp:141] Setting up loss2/classifier_plantvillage_loss2/classifier_plantvillage_0_split
I0403 16:27:29.826272 18195 net.cpp:148] Top shape: 24 38 (912)
I0403 16:27:29.826294 18195 net.cpp:148] Top shape: 24 38 (912)
I0403 16:27:29.826313 18195 net.cpp:148] Top shape: 24 38 (912)
I0403 16:27:29.826329 18195 net.cpp:156] Memory required for data: 1208432160
I0403 16:27:29.826349 18195 layer_factory.hpp:77] Creating layer inception_4e/1x1
I0403 16:27:29.826375 18195 net.cpp:91] Creating Layer inception_4e/1x1
I0403 16:27:29.826397 18195 net.cpp:425] inception_4e/1x1 <- inception_4d/output_inception_4d/output_0_split_1
I0403 16:27:29.826421 18195 net.cpp:399] inception_4e/1x1 -> inception_4e/1x1
I0403 16:27:29.828665 18195 net.cpp:141] Setting up inception_4e/1x1
I0403 16:27:29.828702 18195 net.cpp:148] Top shape: 24 256 14 14 (1204224)
I0403 16:27:29.828723 18195 net.cpp:156] Memory required for data: 1213249056
I0403 16:27:29.828747 18195 layer_factory.hpp:77] Creating layer inception_4e/relu_1x1
I0403 16:27:29.828769 18195 net.cpp:91] Creating Layer inception_4e/relu_1x1
I0403 16:27:29.828789 18195 net.cpp:425] inception_4e/relu_1x1 <- inception_4e/1x1
I0403 16:27:29.828814 18195 net.cpp:386] inception_4e/relu_1x1 -> inception_4e/1x1 (in-place)
I0403 16:27:29.829169 18195 net.cpp:141] Setting up inception_4e/relu_1x1
I0403 16:27:29.829203 18195 net.cpp:148] Top shape: 24 256 14 14 (1204224)
I0403 16:27:29.829223 18195 net.cpp:156] Memory required for data: 1218065952
I0403 16:27:29.829241 18195 layer_factory.hpp:77] Creating layer inception_4e/3x3_reduce
I0403 16:27:29.829272 18195 net.cpp:91] Creating Layer inception_4e/3x3_reduce
I0403 16:27:29.829293 18195 net.cpp:425] inception_4e/3x3_reduce <- inception_4d/output_inception_4d/output_0_split_2
I0403 16:27:29.829318 18195 net.cpp:399] inception_4e/3x3_reduce -> inception_4e/3x3_reduce
I0403 16:27:29.831908 18195 net.cpp:141] Setting up inception_4e/3x3_reduce
I0403 16:27:29.831948 18195 net.cpp:148] Top shape: 24 160 14 14 (752640)
I0403 16:27:29.831969 18195 net.cpp:156] Memory required for data: 1221076512
I0403 16:27:29.831992 18195 layer_factory.hpp:77] Creating layer inception_4e/relu_3x3_reduce
I0403 16:27:29.832015 18195 net.cpp:91] Creating Layer inception_4e/relu_3x3_reduce
I0403 16:27:29.832034 18195 net.cpp:425] inception_4e/relu_3x3_reduce <- inception_4e/3x3_reduce
I0403 16:27:29.832056 18195 net.cpp:386] inception_4e/relu_3x3_reduce -> inception_4e/3x3_reduce (in-place)
I0403 16:27:29.832295 18195 net.cpp:141] Setting up inception_4e/relu_3x3_reduce
I0403 16:27:29.832327 18195 net.cpp:148] Top shape: 24 160 14 14 (752640)
I0403 16:27:29.832347 18195 net.cpp:156] Memory required for data: 1224087072
I0403 16:27:29.832365 18195 layer_factory.hpp:77] Creating layer inception_4e/3x3
I0403 16:27:29.832393 18195 net.cpp:91] Creating Layer inception_4e/3x3
I0403 16:27:29.832417 18195 net.cpp:425] inception_4e/3x3 <- inception_4e/3x3_reduce
I0403 16:27:29.832444 18195 net.cpp:399] inception_4e/3x3 -> inception_4e/3x3
I0403 16:27:29.838675 18195 net.cpp:141] Setting up inception_4e/3x3
I0403 16:27:29.838727 18195 net.cpp:148] Top shape: 24 320 14 14 (1505280)
I0403 16:27:29.838748 18195 net.cpp:156] Memory required for data: 1230108192
I0403 16:27:29.838770 18195 layer_factory.hpp:77] Creating layer inception_4e/relu_3x3
I0403 16:27:29.838796 18195 net.cpp:91] Creating Layer inception_4e/relu_3x3
I0403 16:27:29.838817 18195 net.cpp:425] inception_4e/relu_3x3 <- inception_4e/3x3
I0403 16:27:29.838840 18195 net.cpp:386] inception_4e/relu_3x3 -> inception_4e/3x3 (in-place)
I0403 16:27:29.839207 18195 net.cpp:141] Setting up inception_4e/relu_3x3
I0403 16:27:29.839241 18195 net.cpp:148] Top shape: 24 320 14 14 (1505280)
I0403 16:27:29.839267 18195 net.cpp:156] Memory required for data: 1236129312
I0403 16:27:29.839285 18195 layer_factory.hpp:77] Creating layer inception_4e/5x5_reduce
I0403 16:27:29.839314 18195 net.cpp:91] Creating Layer inception_4e/5x5_reduce
I0403 16:27:29.839337 18195 net.cpp:425] inception_4e/5x5_reduce <- inception_4d/output_inception_4d/output_0_split_3
I0403 16:27:29.839364 18195 net.cpp:399] inception_4e/5x5_reduce -> inception_4e/5x5_reduce
I0403 16:27:29.840690 18195 net.cpp:141] Setting up inception_4e/5x5_reduce
I0403 16:27:29.840728 18195 net.cpp:148] Top shape: 24 32 14 14 (150528)
I0403 16:27:29.840749 18195 net.cpp:156] Memory required for data: 1236731424
I0403 16:27:29.840770 18195 layer_factory.hpp:77] Creating layer inception_4e/relu_5x5_reduce
I0403 16:27:29.840795 18195 net.cpp:91] Creating Layer inception_4e/relu_5x5_reduce
I0403 16:27:29.840814 18195 net.cpp:425] inception_4e/relu_5x5_reduce <- inception_4e/5x5_reduce
I0403 16:27:29.840838 18195 net.cpp:386] inception_4e/relu_5x5_reduce -> inception_4e/5x5_reduce (in-place)
I0403 16:27:29.841199 18195 net.cpp:141] Setting up inception_4e/relu_5x5_reduce
I0403 16:27:29.841234 18195 net.cpp:148] Top shape: 24 32 14 14 (150528)
I0403 16:27:29.841254 18195 net.cpp:156] Memory required for data: 1237333536
I0403 16:27:29.841274 18195 layer_factory.hpp:77] Creating layer inception_4e/5x5
I0403 16:27:29.841322 18195 net.cpp:91] Creating Layer inception_4e/5x5
I0403 16:27:29.841346 18195 net.cpp:425] inception_4e/5x5 <- inception_4e/5x5_reduce
I0403 16:27:29.841370 18195 net.cpp:399] inception_4e/5x5 -> inception_4e/5x5
I0403 16:27:29.843641 18195 net.cpp:141] Setting up inception_4e/5x5
I0403 16:27:29.843675 18195 net.cpp:148] Top shape: 24 128 14 14 (602112)
I0403 16:27:29.843695 18195 net.cpp:156] Memory required for data: 1239741984
I0403 16:27:29.843719 18195 layer_factory.hpp:77] Creating layer inception_4e/relu_5x5
I0403 16:27:29.843744 18195 net.cpp:91] Creating Layer inception_4e/relu_5x5
I0403 16:27:29.843765 18195 net.cpp:425] inception_4e/relu_5x5 <- inception_4e/5x5
I0403 16:27:29.843787 18195 net.cpp:386] inception_4e/relu_5x5 -> inception_4e/5x5 (in-place)
I0403 16:27:29.844034 18195 net.cpp:141] Setting up inception_4e/relu_5x5
I0403 16:27:29.844068 18195 net.cpp:148] Top shape: 24 128 14 14 (602112)
I0403 16:27:29.844086 18195 net.cpp:156] Memory required for data: 1242150432
I0403 16:27:29.844105 18195 layer_factory.hpp:77] Creating layer inception_4e/pool
I0403 16:27:29.844127 18195 net.cpp:91] Creating Layer inception_4e/pool
I0403 16:27:29.844147 18195 net.cpp:425] inception_4e/pool <- inception_4d/output_inception_4d/output_0_split_4
I0403 16:27:29.844172 18195 net.cpp:399] inception_4e/pool -> inception_4e/pool
I0403 16:27:29.844259 18195 net.cpp:141] Setting up inception_4e/pool
I0403 16:27:29.844288 18195 net.cpp:148] Top shape: 24 528 14 14 (2483712)
I0403 16:27:29.844307 18195 net.cpp:156] Memory required for data: 1252085280
I0403 16:27:29.844324 18195 layer_factory.hpp:77] Creating layer inception_4e/pool_proj
I0403 16:27:29.844353 18195 net.cpp:91] Creating Layer inception_4e/pool_proj
I0403 16:27:29.844375 18195 net.cpp:425] inception_4e/pool_proj <- inception_4e/pool
I0403 16:27:29.844398 18195 net.cpp:399] inception_4e/pool_proj -> inception_4e/pool_proj
I0403 16:27:29.846266 18195 net.cpp:141] Setting up inception_4e/pool_proj
I0403 16:27:29.846313 18195 net.cpp:148] Top shape: 24 128 14 14 (602112)
I0403 16:27:29.846334 18195 net.cpp:156] Memory required for data: 1254493728
I0403 16:27:29.846356 18195 layer_factory.hpp:77] Creating layer inception_4e/relu_pool_proj
I0403 16:27:29.846382 18195 net.cpp:91] Creating Layer inception_4e/relu_pool_proj
I0403 16:27:29.846403 18195 net.cpp:425] inception_4e/relu_pool_proj <- inception_4e/pool_proj
I0403 16:27:29.846424 18195 net.cpp:386] inception_4e/relu_pool_proj -> inception_4e/pool_proj (in-place)
I0403 16:27:29.846782 18195 net.cpp:141] Setting up inception_4e/relu_pool_proj
I0403 16:27:29.846815 18195 net.cpp:148] Top shape: 24 128 14 14 (602112)
I0403 16:27:29.846834 18195 net.cpp:156] Memory required for data: 1256902176
I0403 16:27:29.846853 18195 layer_factory.hpp:77] Creating layer inception_4e/output
I0403 16:27:29.846876 18195 net.cpp:91] Creating Layer inception_4e/output
I0403 16:27:29.846899 18195 net.cpp:425] inception_4e/output <- inception_4e/1x1
I0403 16:27:29.846920 18195 net.cpp:425] inception_4e/output <- inception_4e/3x3
I0403 16:27:29.846940 18195 net.cpp:425] inception_4e/output <- inception_4e/5x5
I0403 16:27:29.846961 18195 net.cpp:425] inception_4e/output <- inception_4e/pool_proj
I0403 16:27:29.846981 18195 net.cpp:399] inception_4e/output -> inception_4e/output
I0403 16:27:29.847045 18195 net.cpp:141] Setting up inception_4e/output
I0403 16:27:29.847074 18195 net.cpp:148] Top shape: 24 832 14 14 (3913728)
I0403 16:27:29.847092 18195 net.cpp:156] Memory required for data: 1272557088
I0403 16:27:29.847111 18195 layer_factory.hpp:77] Creating layer pool4/3x3_s2
I0403 16:27:29.847133 18195 net.cpp:91] Creating Layer pool4/3x3_s2
I0403 16:27:29.847152 18195 net.cpp:425] pool4/3x3_s2 <- inception_4e/output
I0403 16:27:29.847177 18195 net.cpp:399] pool4/3x3_s2 -> pool4/3x3_s2
I0403 16:27:29.847260 18195 net.cpp:141] Setting up pool4/3x3_s2
I0403 16:27:29.847290 18195 net.cpp:148] Top shape: 24 832 7 7 (978432)
I0403 16:27:29.847308 18195 net.cpp:156] Memory required for data: 1276470816
I0403 16:27:29.847326 18195 layer_factory.hpp:77] Creating layer pool4/3x3_s2_pool4/3x3_s2_0_split
I0403 16:27:29.847350 18195 net.cpp:91] Creating Layer pool4/3x3_s2_pool4/3x3_s2_0_split
I0403 16:27:29.847371 18195 net.cpp:425] pool4/3x3_s2_pool4/3x3_s2_0_split <- pool4/3x3_s2
I0403 16:27:29.847395 18195 net.cpp:399] pool4/3x3_s2_pool4/3x3_s2_0_split -> pool4/3x3_s2_pool4/3x3_s2_0_split_0
I0403 16:27:29.847422 18195 net.cpp:399] pool4/3x3_s2_pool4/3x3_s2_0_split -> pool4/3x3_s2_pool4/3x3_s2_0_split_1
I0403 16:27:29.847446 18195 net.cpp:399] pool4/3x3_s2_pool4/3x3_s2_0_split -> pool4/3x3_s2_pool4/3x3_s2_0_split_2
I0403 16:27:29.847471 18195 net.cpp:399] pool4/3x3_s2_pool4/3x3_s2_0_split -> pool4/3x3_s2_pool4/3x3_s2_0_split_3
I0403 16:27:29.847589 18195 net.cpp:141] Setting up pool4/3x3_s2_pool4/3x3_s2_0_split
I0403 16:27:29.847618 18195 net.cpp:148] Top shape: 24 832 7 7 (978432)
I0403 16:27:29.847638 18195 net.cpp:148] Top shape: 24 832 7 7 (978432)
I0403 16:27:29.847658 18195 net.cpp:148] Top shape: 24 832 7 7 (978432)
I0403 16:27:29.847677 18195 net.cpp:148] Top shape: 24 832 7 7 (978432)
I0403 16:27:29.847693 18195 net.cpp:156] Memory required for data: 1292125728
I0403 16:27:29.847712 18195 layer_factory.hpp:77] Creating layer inception_5a/1x1
I0403 16:27:29.847738 18195 net.cpp:91] Creating Layer inception_5a/1x1
I0403 16:27:29.847761 18195 net.cpp:425] inception_5a/1x1 <- pool4/3x3_s2_pool4/3x3_s2_0_split_0
I0403 16:27:29.847787 18195 net.cpp:399] inception_5a/1x1 -> inception_5a/1x1
I0403 16:27:29.851321 18195 net.cpp:141] Setting up inception_5a/1x1
I0403 16:27:29.851359 18195 net.cpp:148] Top shape: 24 256 7 7 (301056)
I0403 16:27:29.851379 18195 net.cpp:156] Memory required for data: 1293329952
I0403 16:27:29.851402 18195 layer_factory.hpp:77] Creating layer inception_5a/relu_1x1
I0403 16:27:29.851424 18195 net.cpp:91] Creating Layer inception_5a/relu_1x1
I0403 16:27:29.851444 18195 net.cpp:425] inception_5a/relu_1x1 <- inception_5a/1x1
I0403 16:27:29.851465 18195 net.cpp:386] inception_5a/relu_1x1 -> inception_5a/1x1 (in-place)
I0403 16:27:29.851852 18195 net.cpp:141] Setting up inception_5a/relu_1x1
I0403 16:27:29.851887 18195 net.cpp:148] Top shape: 24 256 7 7 (301056)
I0403 16:27:29.851907 18195 net.cpp:156] Memory required for data: 1294534176
I0403 16:27:29.851927 18195 layer_factory.hpp:77] Creating layer inception_5a/3x3_reduce
I0403 16:27:29.851955 18195 net.cpp:91] Creating Layer inception_5a/3x3_reduce
I0403 16:27:29.851977 18195 net.cpp:425] inception_5a/3x3_reduce <- pool4/3x3_s2_pool4/3x3_s2_0_split_1
I0403 16:27:29.852002 18195 net.cpp:399] inception_5a/3x3_reduce -> inception_5a/3x3_reduce
I0403 16:27:29.855028 18195 net.cpp:141] Setting up inception_5a/3x3_reduce
I0403 16:27:29.855065 18195 net.cpp:148] Top shape: 24 160 7 7 (188160)
I0403 16:27:29.855084 18195 net.cpp:156] Memory required for data: 1295286816
I0403 16:27:29.855106 18195 layer_factory.hpp:77] Creating layer inception_5a/relu_3x3_reduce
I0403 16:27:29.855131 18195 net.cpp:91] Creating Layer inception_5a/relu_3x3_reduce
I0403 16:27:29.855154 18195 net.cpp:425] inception_5a/relu_3x3_reduce <- inception_5a/3x3_reduce
I0403 16:27:29.855175 18195 net.cpp:386] inception_5a/relu_3x3_reduce -> inception_5a/3x3_reduce (in-place)
I0403 16:27:29.855404 18195 net.cpp:141] Setting up inception_5a/relu_3x3_reduce
I0403 16:27:29.855448 18195 net.cpp:148] Top shape: 24 160 7 7 (188160)
I0403 16:27:29.855466 18195 net.cpp:156] Memory required for data: 1296039456
I0403 16:27:29.855485 18195 layer_factory.hpp:77] Creating layer inception_5a/3x3
I0403 16:27:29.855511 18195 net.cpp:91] Creating Layer inception_5a/3x3
I0403 16:27:29.855532 18195 net.cpp:425] inception_5a/3x3 <- inception_5a/3x3_reduce
I0403 16:27:29.855559 18195 net.cpp:399] inception_5a/3x3 -> inception_5a/3x3
I0403 16:27:29.861827 18195 net.cpp:141] Setting up inception_5a/3x3
I0403 16:27:29.861863 18195 net.cpp:148] Top shape: 24 320 7 7 (376320)
I0403 16:27:29.861882 18195 net.cpp:156] Memory required for data: 1297544736
I0403 16:27:29.861906 18195 layer_factory.hpp:77] Creating layer inception_5a/relu_3x3
I0403 16:27:29.861935 18195 net.cpp:91] Creating Layer inception_5a/relu_3x3
I0403 16:27:29.861956 18195 net.cpp:425] inception_5a/relu_3x3 <- inception_5a/3x3
I0403 16:27:29.861979 18195 net.cpp:386] inception_5a/relu_3x3 -> inception_5a/3x3 (in-place)
I0403 16:27:29.862337 18195 net.cpp:141] Setting up inception_5a/relu_3x3
I0403 16:27:29.862370 18195 net.cpp:148] Top shape: 24 320 7 7 (376320)
I0403 16:27:29.862390 18195 net.cpp:156] Memory required for data: 1299050016
I0403 16:27:29.862408 18195 layer_factory.hpp:77] Creating layer inception_5a/5x5_reduce
I0403 16:27:29.862438 18195 net.cpp:91] Creating Layer inception_5a/5x5_reduce
I0403 16:27:29.862462 18195 net.cpp:425] inception_5a/5x5_reduce <- pool4/3x3_s2_pool4/3x3_s2_0_split_2
I0403 16:27:29.862486 18195 net.cpp:399] inception_5a/5x5_reduce -> inception_5a/5x5_reduce
I0403 16:27:29.863940 18195 net.cpp:141] Setting up inception_5a/5x5_reduce
I0403 16:27:29.863977 18195 net.cpp:148] Top shape: 24 32 7 7 (37632)
I0403 16:27:29.863998 18195 net.cpp:156] Memory required for data: 1299200544
I0403 16:27:29.864022 18195 layer_factory.hpp:77] Creating layer inception_5a/relu_5x5_reduce
I0403 16:27:29.864043 18195 net.cpp:91] Creating Layer inception_5a/relu_5x5_reduce
I0403 16:27:29.864063 18195 net.cpp:425] inception_5a/relu_5x5_reduce <- inception_5a/5x5_reduce
I0403 16:27:29.864084 18195 net.cpp:386] inception_5a/relu_5x5_reduce -> inception_5a/5x5_reduce (in-place)
I0403 16:27:29.864449 18195 net.cpp:141] Setting up inception_5a/relu_5x5_reduce
I0403 16:27:29.864485 18195 net.cpp:148] Top shape: 24 32 7 7 (37632)
I0403 16:27:29.864503 18195 net.cpp:156] Memory required for data: 1299351072
I0403 16:27:29.864521 18195 layer_factory.hpp:77] Creating layer inception_5a/5x5
I0403 16:27:29.864549 18195 net.cpp:91] Creating Layer inception_5a/5x5
I0403 16:27:29.864583 18195 net.cpp:425] inception_5a/5x5 <- inception_5a/5x5_reduce
I0403 16:27:29.864615 18195 net.cpp:399] inception_5a/5x5 -> inception_5a/5x5
I0403 16:27:29.866741 18195 net.cpp:141] Setting up inception_5a/5x5
I0403 16:27:29.866789 18195 net.cpp:148] Top shape: 24 128 7 7 (150528)
I0403 16:27:29.866811 18195 net.cpp:156] Memory required for data: 1299953184
I0403 16:27:29.866832 18195 layer_factory.hpp:77] Creating layer inception_5a/relu_5x5
I0403 16:27:29.866857 18195 net.cpp:91] Creating Layer inception_5a/relu_5x5
I0403 16:27:29.866878 18195 net.cpp:425] inception_5a/relu_5x5 <- inception_5a/5x5
I0403 16:27:29.866899 18195 net.cpp:386] inception_5a/relu_5x5 -> inception_5a/5x5 (in-place)
I0403 16:27:29.867141 18195 net.cpp:141] Setting up inception_5a/relu_5x5
I0403 16:27:29.867172 18195 net.cpp:148] Top shape: 24 128 7 7 (150528)
I0403 16:27:29.867189 18195 net.cpp:156] Memory required for data: 1300555296
I0403 16:27:29.867208 18195 layer_factory.hpp:77] Creating layer inception_5a/pool
I0403 16:27:29.867229 18195 net.cpp:91] Creating Layer inception_5a/pool
I0403 16:27:29.867249 18195 net.cpp:425] inception_5a/pool <- pool4/3x3_s2_pool4/3x3_s2_0_split_3
I0403 16:27:29.867275 18195 net.cpp:399] inception_5a/pool -> inception_5a/pool
I0403 16:27:29.867364 18195 net.cpp:141] Setting up inception_5a/pool
I0403 16:27:29.867394 18195 net.cpp:148] Top shape: 24 832 7 7 (978432)
I0403 16:27:29.867413 18195 net.cpp:156] Memory required for data: 1304469024
I0403 16:27:29.867430 18195 layer_factory.hpp:77] Creating layer inception_5a/pool_proj
I0403 16:27:29.867460 18195 net.cpp:91] Creating Layer inception_5a/pool_proj
I0403 16:27:29.867481 18195 net.cpp:425] inception_5a/pool_proj <- inception_5a/pool
I0403 16:27:29.867506 18195 net.cpp:399] inception_5a/pool_proj -> inception_5a/pool_proj
I0403 16:27:29.870313 18195 net.cpp:141] Setting up inception_5a/pool_proj
I0403 16:27:29.870349 18195 net.cpp:148] Top shape: 24 128 7 7 (150528)
I0403 16:27:29.870368 18195 net.cpp:156] Memory required for data: 1305071136
I0403 16:27:29.870390 18195 layer_factory.hpp:77] Creating layer inception_5a/relu_pool_proj
I0403 16:27:29.870416 18195 net.cpp:91] Creating Layer inception_5a/relu_pool_proj
I0403 16:27:29.870440 18195 net.cpp:425] inception_5a/relu_pool_proj <- inception_5a/pool_proj
I0403 16:27:29.870462 18195 net.cpp:386] inception_5a/relu_pool_proj -> inception_5a/pool_proj (in-place)
I0403 16:27:29.870826 18195 net.cpp:141] Setting up inception_5a/relu_pool_proj
I0403 16:27:29.870859 18195 net.cpp:148] Top shape: 24 128 7 7 (150528)
I0403 16:27:29.870878 18195 net.cpp:156] Memory required for data: 1305673248
I0403 16:27:29.870898 18195 layer_factory.hpp:77] Creating layer inception_5a/output
I0403 16:27:29.870928 18195 net.cpp:91] Creating Layer inception_5a/output
I0403 16:27:29.870949 18195 net.cpp:425] inception_5a/output <- inception_5a/1x1
I0403 16:27:29.870970 18195 net.cpp:425] inception_5a/output <- inception_5a/3x3
I0403 16:27:29.870990 18195 net.cpp:425] inception_5a/output <- inception_5a/5x5
I0403 16:27:29.871011 18195 net.cpp:425] inception_5a/output <- inception_5a/pool_proj
I0403 16:27:29.871032 18195 net.cpp:399] inception_5a/output -> inception_5a/output
I0403 16:27:29.871098 18195 net.cpp:141] Setting up inception_5a/output
I0403 16:27:29.871126 18195 net.cpp:148] Top shape: 24 832 7 7 (978432)
I0403 16:27:29.871145 18195 net.cpp:156] Memory required for data: 1309586976
I0403 16:27:29.871163 18195 layer_factory.hpp:77] Creating layer inception_5a/output_inception_5a/output_0_split
I0403 16:27:29.871184 18195 net.cpp:91] Creating Layer inception_5a/output_inception_5a/output_0_split
I0403 16:27:29.871203 18195 net.cpp:425] inception_5a/output_inception_5a/output_0_split <- inception_5a/output
I0403 16:27:29.871229 18195 net.cpp:399] inception_5a/output_inception_5a/output_0_split -> inception_5a/output_inception_5a/output_0_split_0
I0403 16:27:29.871255 18195 net.cpp:399] inception_5a/output_inception_5a/output_0_split -> inception_5a/output_inception_5a/output_0_split_1
I0403 16:27:29.871282 18195 net.cpp:399] inception_5a/output_inception_5a/output_0_split -> inception_5a/output_inception_5a/output_0_split_2
I0403 16:27:29.871309 18195 net.cpp:399] inception_5a/output_inception_5a/output_0_split -> inception_5a/output_inception_5a/output_0_split_3
I0403 16:27:29.871448 18195 net.cpp:141] Setting up inception_5a/output_inception_5a/output_0_split
I0403 16:27:29.871479 18195 net.cpp:148] Top shape: 24 832 7 7 (978432)
I0403 16:27:29.871501 18195 net.cpp:148] Top shape: 24 832 7 7 (978432)
I0403 16:27:29.871521 18195 net.cpp:148] Top shape: 24 832 7 7 (978432)
I0403 16:27:29.871541 18195 net.cpp:148] Top shape: 24 832 7 7 (978432)
I0403 16:27:29.871557 18195 net.cpp:156] Memory required for data: 1325241888
I0403 16:27:29.871582 18195 layer_factory.hpp:77] Creating layer inception_5b/1x1
I0403 16:27:29.871611 18195 net.cpp:91] Creating Layer inception_5b/1x1
I0403 16:27:29.871634 18195 net.cpp:425] inception_5b/1x1 <- inception_5a/output_inception_5a/output_0_split_0
I0403 16:27:29.871659 18195 net.cpp:399] inception_5b/1x1 -> inception_5b/1x1
I0403 16:27:29.876308 18195 net.cpp:141] Setting up inception_5b/1x1
I0403 16:27:29.876344 18195 net.cpp:148] Top shape: 24 384 7 7 (451584)
I0403 16:27:29.876364 18195 net.cpp:156] Memory required for data: 1327048224
I0403 16:27:29.876387 18195 layer_factory.hpp:77] Creating layer inception_5b/relu_1x1
I0403 16:27:29.876412 18195 net.cpp:91] Creating Layer inception_5b/relu_1x1
I0403 16:27:29.876435 18195 net.cpp:425] inception_5b/relu_1x1 <- inception_5b/1x1
I0403 16:27:29.876456 18195 net.cpp:386] inception_5b/relu_1x1 -> inception_5b/1x1 (in-place)
I0403 16:27:29.876837 18195 net.cpp:141] Setting up inception_5b/relu_1x1
I0403 16:27:29.876868 18195 net.cpp:148] Top shape: 24 384 7 7 (451584)
I0403 16:27:29.876888 18195 net.cpp:156] Memory required for data: 1328854560
I0403 16:27:29.876905 18195 layer_factory.hpp:77] Creating layer inception_5b/3x3_reduce
I0403 16:27:29.876934 18195 net.cpp:91] Creating Layer inception_5b/3x3_reduce
I0403 16:27:29.876957 18195 net.cpp:425] inception_5b/3x3_reduce <- inception_5a/output_inception_5a/output_0_split_1
I0403 16:27:29.876986 18195 net.cpp:399] inception_5b/3x3_reduce -> inception_5b/3x3_reduce
I0403 16:27:29.880260 18195 net.cpp:141] Setting up inception_5b/3x3_reduce
I0403 16:27:29.880301 18195 net.cpp:148] Top shape: 24 192 7 7 (225792)
I0403 16:27:29.880321 18195 net.cpp:156] Memory required for data: 1329757728
I0403 16:27:29.880344 18195 layer_factory.hpp:77] Creating layer inception_5b/relu_3x3_reduce
I0403 16:27:29.880370 18195 net.cpp:91] Creating Layer inception_5b/relu_3x3_reduce
I0403 16:27:29.880393 18195 net.cpp:425] inception_5b/relu_3x3_reduce <- inception_5b/3x3_reduce
I0403 16:27:29.880414 18195 net.cpp:386] inception_5b/relu_3x3_reduce -> inception_5b/3x3_reduce (in-place)
I0403 16:27:29.880661 18195 net.cpp:141] Setting up inception_5b/relu_3x3_reduce
I0403 16:27:29.880695 18195 net.cpp:148] Top shape: 24 192 7 7 (225792)
I0403 16:27:29.880715 18195 net.cpp:156] Memory required for data: 1330660896
I0403 16:27:29.880734 18195 layer_factory.hpp:77] Creating layer inception_5b/3x3
I0403 16:27:29.880764 18195 net.cpp:91] Creating Layer inception_5b/3x3
I0403 16:27:29.880785 18195 net.cpp:425] inception_5b/3x3 <- inception_5b/3x3_reduce
I0403 16:27:29.880810 18195 net.cpp:399] inception_5b/3x3 -> inception_5b/3x3
I0403 16:27:29.889178 18195 net.cpp:141] Setting up inception_5b/3x3
I0403 16:27:29.889214 18195 net.cpp:148] Top shape: 24 384 7 7 (451584)
I0403 16:27:29.889232 18195 net.cpp:156] Memory required for data: 1332467232
I0403 16:27:29.889256 18195 layer_factory.hpp:77] Creating layer inception_5b/relu_3x3
I0403 16:27:29.889281 18195 net.cpp:91] Creating Layer inception_5b/relu_3x3
I0403 16:27:29.889302 18195 net.cpp:425] inception_5b/relu_3x3 <- inception_5b/3x3
I0403 16:27:29.889323 18195 net.cpp:386] inception_5b/relu_3x3 -> inception_5b/3x3 (in-place)
I0403 16:27:29.889698 18195 net.cpp:141] Setting up inception_5b/relu_3x3
I0403 16:27:29.889730 18195 net.cpp:148] Top shape: 24 384 7 7 (451584)
I0403 16:27:29.889750 18195 net.cpp:156] Memory required for data: 1334273568
I0403 16:27:29.889767 18195 layer_factory.hpp:77] Creating layer inception_5b/5x5_reduce
I0403 16:27:29.889814 18195 net.cpp:91] Creating Layer inception_5b/5x5_reduce
I0403 16:27:29.889838 18195 net.cpp:425] inception_5b/5x5_reduce <- inception_5a/output_inception_5a/output_0_split_2
I0403 16:27:29.889865 18195 net.cpp:399] inception_5b/5x5_reduce -> inception_5b/5x5_reduce
I0403 16:27:29.891446 18195 net.cpp:141] Setting up inception_5b/5x5_reduce
I0403 16:27:29.891481 18195 net.cpp:148] Top shape: 24 48 7 7 (56448)
I0403 16:27:29.891499 18195 net.cpp:156] Memory required for data: 1334499360
I0403 16:27:29.891521 18195 layer_factory.hpp:77] Creating layer inception_5b/relu_5x5_reduce
I0403 16:27:29.891551 18195 net.cpp:91] Creating Layer inception_5b/relu_5x5_reduce
I0403 16:27:29.891577 18195 net.cpp:425] inception_5b/relu_5x5_reduce <- inception_5b/5x5_reduce
I0403 16:27:29.891602 18195 net.cpp:386] inception_5b/relu_5x5_reduce -> inception_5b/5x5_reduce (in-place)
I0403 16:27:29.892062 18195 net.cpp:141] Setting up inception_5b/relu_5x5_reduce
I0403 16:27:29.892096 18195 net.cpp:148] Top shape: 24 48 7 7 (56448)
I0403 16:27:29.892114 18195 net.cpp:156] Memory required for data: 1334725152
I0403 16:27:29.892133 18195 layer_factory.hpp:77] Creating layer inception_5b/5x5
I0403 16:27:29.892158 18195 net.cpp:91] Creating Layer inception_5b/5x5
I0403 16:27:29.892180 18195 net.cpp:425] inception_5b/5x5 <- inception_5b/5x5_reduce
I0403 16:27:29.892204 18195 net.cpp:399] inception_5b/5x5 -> inception_5b/5x5
I0403 16:27:29.894738 18195 net.cpp:141] Setting up inception_5b/5x5
I0403 16:27:29.894776 18195 net.cpp:148] Top shape: 24 128 7 7 (150528)
I0403 16:27:29.894798 18195 net.cpp:156] Memory required for data: 1335327264
I0403 16:27:29.894821 18195 layer_factory.hpp:77] Creating layer inception_5b/relu_5x5
I0403 16:27:29.894845 18195 net.cpp:91] Creating Layer inception_5b/relu_5x5
I0403 16:27:29.894865 18195 net.cpp:425] inception_5b/relu_5x5 <- inception_5b/5x5
I0403 16:27:29.894886 18195 net.cpp:386] inception_5b/relu_5x5 -> inception_5b/5x5 (in-place)
I0403 16:27:29.895133 18195 net.cpp:141] Setting up inception_5b/relu_5x5
I0403 16:27:29.895166 18195 net.cpp:148] Top shape: 24 128 7 7 (150528)
I0403 16:27:29.895187 18195 net.cpp:156] Memory required for data: 1335929376
I0403 16:27:29.895205 18195 layer_factory.hpp:77] Creating layer inception_5b/pool
I0403 16:27:29.895228 18195 net.cpp:91] Creating Layer inception_5b/pool
I0403 16:27:29.895248 18195 net.cpp:425] inception_5b/pool <- inception_5a/output_inception_5a/output_0_split_3
I0403 16:27:29.895277 18195 net.cpp:399] inception_5b/pool -> inception_5b/pool
I0403 16:27:29.895365 18195 net.cpp:141] Setting up inception_5b/pool
I0403 16:27:29.895398 18195 net.cpp:148] Top shape: 24 832 7 7 (978432)
I0403 16:27:29.895417 18195 net.cpp:156] Memory required for data: 1339843104
I0403 16:27:29.895436 18195 layer_factory.hpp:77] Creating layer inception_5b/pool_proj
I0403 16:27:29.895463 18195 net.cpp:91] Creating Layer inception_5b/pool_proj
I0403 16:27:29.895485 18195 net.cpp:425] inception_5b/pool_proj <- inception_5b/pool
I0403 16:27:29.895509 18195 net.cpp:399] inception_5b/pool_proj -> inception_5b/pool_proj
I0403 16:27:29.898360 18195 net.cpp:141] Setting up inception_5b/pool_proj
I0403 16:27:29.898396 18195 net.cpp:148] Top shape: 24 128 7 7 (150528)
I0403 16:27:29.898416 18195 net.cpp:156] Memory required for data: 1340445216
I0403 16:27:29.898438 18195 layer_factory.hpp:77] Creating layer inception_5b/relu_pool_proj
I0403 16:27:29.898464 18195 net.cpp:91] Creating Layer inception_5b/relu_pool_proj
I0403 16:27:29.898485 18195 net.cpp:425] inception_5b/relu_pool_proj <- inception_5b/pool_proj
I0403 16:27:29.898507 18195 net.cpp:386] inception_5b/relu_pool_proj -> inception_5b/pool_proj (in-place)
I0403 16:27:29.898879 18195 net.cpp:141] Setting up inception_5b/relu_pool_proj
I0403 16:27:29.898911 18195 net.cpp:148] Top shape: 24 128 7 7 (150528)
I0403 16:27:29.898931 18195 net.cpp:156] Memory required for data: 1341047328
I0403 16:27:29.898949 18195 layer_factory.hpp:77] Creating layer inception_5b/output
I0403 16:27:29.898978 18195 net.cpp:91] Creating Layer inception_5b/output
I0403 16:27:29.899016 18195 net.cpp:425] inception_5b/output <- inception_5b/1x1
I0403 16:27:29.899039 18195 net.cpp:425] inception_5b/output <- inception_5b/3x3
I0403 16:27:29.899060 18195 net.cpp:425] inception_5b/output <- inception_5b/5x5
I0403 16:27:29.899080 18195 net.cpp:425] inception_5b/output <- inception_5b/pool_proj
I0403 16:27:29.899102 18195 net.cpp:399] inception_5b/output -> inception_5b/output
I0403 16:27:29.899168 18195 net.cpp:141] Setting up inception_5b/output
I0403 16:27:29.899199 18195 net.cpp:148] Top shape: 24 1024 7 7 (1204224)
I0403 16:27:29.899216 18195 net.cpp:156] Memory required for data: 1345864224
I0403 16:27:29.899235 18195 layer_factory.hpp:77] Creating layer pool5/7x7_s1
I0403 16:27:29.899257 18195 net.cpp:91] Creating Layer pool5/7x7_s1
I0403 16:27:29.899279 18195 net.cpp:425] pool5/7x7_s1 <- inception_5b/output
I0403 16:27:29.899303 18195 net.cpp:399] pool5/7x7_s1 -> pool5/7x7_s1
I0403 16:27:29.899580 18195 net.cpp:141] Setting up pool5/7x7_s1
I0403 16:27:29.899613 18195 net.cpp:148] Top shape: 24 1024 1 1 (24576)
I0403 16:27:29.899631 18195 net.cpp:156] Memory required for data: 1345962528
I0403 16:27:29.899649 18195 layer_factory.hpp:77] Creating layer pool5/drop_7x7_s1
I0403 16:27:29.899674 18195 net.cpp:91] Creating Layer pool5/drop_7x7_s1
I0403 16:27:29.899695 18195 net.cpp:425] pool5/drop_7x7_s1 <- pool5/7x7_s1
I0403 16:27:29.899718 18195 net.cpp:386] pool5/drop_7x7_s1 -> pool5/7x7_s1 (in-place)
I0403 16:27:29.899781 18195 net.cpp:141] Setting up pool5/drop_7x7_s1
I0403 16:27:29.899811 18195 net.cpp:148] Top shape: 24 1024 1 1 (24576)
I0403 16:27:29.899828 18195 net.cpp:156] Memory required for data: 1346060832
I0403 16:27:29.899847 18195 layer_factory.hpp:77] Creating layer loss3/classifier_plantvillage
I0403 16:27:29.899873 18195 net.cpp:91] Creating Layer loss3/classifier_plantvillage
I0403 16:27:29.899894 18195 net.cpp:425] loss3/classifier_plantvillage <- pool5/7x7_s1
I0403 16:27:29.899917 18195 net.cpp:399] loss3/classifier_plantvillage -> loss3/classifier_plantvillage
I0403 16:27:29.900447 18195 net.cpp:141] Setting up loss3/classifier_plantvillage
I0403 16:27:29.900477 18195 net.cpp:148] Top shape: 24 38 (912)
I0403 16:27:29.900496 18195 net.cpp:156] Memory required for data: 1346064480
I0403 16:27:29.900519 18195 layer_factory.hpp:77] Creating layer loss3/classifier_plantvillage_loss3/classifier_plantvillage_0_split
I0403 16:27:29.900542 18195 net.cpp:91] Creating Layer loss3/classifier_plantvillage_loss3/classifier_plantvillage_0_split
I0403 16:27:29.900562 18195 net.cpp:425] loss3/classifier_plantvillage_loss3/classifier_plantvillage_0_split <- loss3/classifier_plantvillage
I0403 16:27:29.900594 18195 net.cpp:399] loss3/classifier_plantvillage_loss3/classifier_plantvillage_0_split -> loss3/classifier_plantvillage_loss3/classifier_plantvillage_0_split_0
I0403 16:27:29.900622 18195 net.cpp:399] loss3/classifier_plantvillage_loss3/classifier_plantvillage_0_split -> loss3/classifier_plantvillage_loss3/classifier_plantvillage_0_split_1
I0403 16:27:29.900650 18195 net.cpp:399] loss3/classifier_plantvillage_loss3/classifier_plantvillage_0_split -> loss3/classifier_plantvillage_loss3/classifier_plantvillage_0_split_2
I0403 16:27:29.900676 18195 net.cpp:399] loss3/classifier_plantvillage_loss3/classifier_plantvillage_0_split -> loss3/classifier_plantvillage_loss3/classifier_plantvillage_0_split_3
I0403 16:27:29.900802 18195 net.cpp:141] Setting up loss3/classifier_plantvillage_loss3/classifier_plantvillage_0_split
I0403 16:27:29.900832 18195 net.cpp:148] Top shape: 24 38 (912)
I0403 16:27:29.900851 18195 net.cpp:148] Top shape: 24 38 (912)
I0403 16:27:29.900871 18195 net.cpp:148] Top shape: 24 38 (912)
I0403 16:27:29.900889 18195 net.cpp:148] Top shape: 24 38 (912)
I0403 16:27:29.900907 18195 net.cpp:156] Memory required for data: 1346079072
I0403 16:27:29.900925 18195 layer_factory.hpp:77] Creating layer loss1/loss
I0403 16:27:29.900954 18195 net.cpp:91] Creating Layer loss1/loss
I0403 16:27:29.900974 18195 net.cpp:425] loss1/loss <- loss1/classifier_plantvillage_loss1/classifier_plantvillage_0_split_0
I0403 16:27:29.901012 18195 net.cpp:425] loss1/loss <- label_data_1_split_0
…
