…
I0403 17:00:20.425529 20048 net.cpp:313] The NetState phase (1) differed from the phase (0) specified by a rule in layer data
I0403 17:00:20.426707 20048 net.cpp:49] Initializing net from parameters: 
state {
  phase: TEST
}
layer {
  name: "data"
  type: "Data"
  top: "data"
  top: "label"
  include {
    phase: TEST
  }
  transform_param {
    mirror: false
    crop_size: 224
    mean_file: "/home/mohanty/data/final_dataset/lmdb/segmented-20-80/mean.binaryproto"
  }
  data_param {
    source: "/home/mohanty/data/final_dataset/lmdb/segmented-20-80/test_db"
    batch_size: 24
    backend: LMDB
  }
}
layer {
  name: "conv1/7x7_s2"
  type: "Convolution"
  bottom: "data"
  top: "conv1/7x7_s2"
  param {
    lr_mult: 1
    decay_mult: 1
  }
  param {
    lr_mult: 2
    decay_mult: 0
  }
  convolution_param {
    num_output: 64
    pad: 3
    kernel_size: 7
    stride: 2
    weight_filler {
      type: "xavier"
      std: 0.1
    }
    bias_filler {
      type: "constant"
      value: 0.2
    }
  }
}
layer {
  name: "conv1/relu_7x7"
  type: "ReLU"
  bottom: "conv1/7x7_s2"
  top: "conv1/7x7_s2"
}
layer {
  name: "pool1/3x3_s2"
  type: "Pooling"
  bottom: "conv1/7x7_s2"
  top: "pool1/3x3_s2"
  pooling_param {
    pool: MAX
    kernel_size: 3
    stride: 2
  }
}
layer {
  name: "pool1/norm1"
  type: "LRN"
  bottom: "pool1/3x3_s2"
  top: "pool1/norm1"
  lrn_param {
    local_size: 5
    alpha: 0.0001
    beta: 0.75
  }
}
layer {
  name: "conv2/3x3_reduce"
  type: "Convolution"
  bottom: "pool1/norm1"
  top: "conv2/3x3_reduce"
  param {
    lr_mult: 1
    decay_mult: 1
  }
  param {
    lr_mult: 2
    decay_mult: 0
  }
  convolution_param {
    num_output: 64
    kernel_size: 1
    weight_filler {
      type: "xavier"
      std: 0.1
    }
    bias_filler {
      type: "constant"
      value: 0.2
    }
  }
}
layer {
  name: "conv2/relu_3x3_reduce"
  type: "ReLU"
  bottom: "conv2/3x3_reduce"
  top: "conv2/3x3_reduce"
}
layer {
  name: "conv2/3x3"
  type: "Convolution"
  bottom: "conv2/3x3_reduce"
  top: "conv2/3x3"
  param {
    lr_mult: 1
    decay_mult: 1
  }
  param {
    lr_mult: 2
    decay_mult: 0
  }
  convolution_param {
    num_output: 192
    pad: 1
    kernel_size: 3
    weight_filler {
      type: "xavier"
      std: 0.03
    }
    bias_filler {
      type: "constant"
      value: 0.2
    }
  }
}
layer {
  name: "conv2/relu_3x3"
  type: "ReLU"
  bottom: "conv2/3x3"
  top: "conv2/3x3"
}
layer {
  name: "conv2/norm2"
  type: "LRN"
  bottom: "conv2/3x3"
  top: "conv2/norm2"
  lrn_param {
    local_size: 5
    alpha: 0.0001
    beta: 0.75
  }
}
layer {
  name: "pool2/3x3_s2"
  type: "Pooling"
  bottom: "conv2/norm2"
  top: "pool2/3x3_s2"
  pooling_param {
    pool: MAX
    kernel_size: 3
    stride: 2
  }
}
layer {
  name: "inception_3a/1x1"
  type: "Convolution"
  bottom: "pool2/3x3_s2"
  top: "inception_3a/1x1"
  param {
    lr_mult: 1
    decay_mult: 1
  }
  param {
    lr_mult: 2
    decay_mult: 0
  }
  convolution_param {
    num_output: 64
    kernel_size: 1
    weight_filler {
      type: "xavier"
      std: 0.03
    }
    bias_filler {
      type: "constant"
      value: 0.2
    }
  }
}
layer {
  name: "inception_3a/relu_1x1"
  type: "ReLU"
  bottom: "inception_3a/1x1"
  top: "inception_3a/1x1"
}
layer {
  name: "inception_3a/3x3_reduce"
  type: "Convolution"
  bottom: "pool2/3x3_s2"
  top: "inception_3a/3x3_reduce"
  param {
    lr_mult: 1
    decay_mult: 1
  }
  param {
    lr_mult: 2
    decay_mult: 0
  }
  convolution_param {
    num_output: 96
    kernel_size: 1
    weight_filler {
      type: "xavier"
      std: 0.09
    }
    bias_filler {
      type: "constant"
      value: 0.2
    }
  }
}
layer {
  name: "inception_3a/relu_3x3_reduce"
  type: "ReLU"
  bottom: "inception_3a/3x3_reduce"
  top: "inception_3a/3x3_reduce"
}
layer {
  name: "inception_3a/3x3"
  type: "Convolution"
  bottom: "inception_3a/3x3_reduce"
  top: "inception_3a/3x3"
  param {
    lr_mult: 1
    decay_mult: 1
  }
  param {
    lr_mult: 2
    decay_mult: 0
  }
  convolution_param {
    num_output: 128
    pad: 1
    kernel_size: 3
    weight_filler {
      type: "xavier"
      std: 0.03
    }
    bias_filler {
      type: "constant"
      value: 0.2
    }
  }
}
layer {
  name: "inception_3a/relu_3x3"
  type: "ReLU"
  bottom: "inception_3a/3x3"
  top: "inception_3a/3x3"
}
layer {
  name: "inception_3a/5x5_reduce"
  type: "Convolution"
  bottom: "pool2/3x3_s2"
  top: "inception_3a/5x5_reduce"
  param {
    lr_mult: 1
    decay_mult: 1
  }
  param {
    lr_mult: 2
    decay_mult: 0
  }
  convolution_param {
    num_output: 16
    kernel_size: 1
    weight_filler {
      type: "xavier"
      std: 0.2
    }
    bias_filler {
      type: "constant"
      value: 0.2
    }
  }
}
layer {
  name: "inception_3a/relu_5x5_reduce"
  type: "ReLU"
  bottom: "inception_3a/5x5_reduce"
  top: "inception_3a/5x5_reduce"
}
layer {
  name: "inception_3a/5x5"
  type: "Convolution"
  bottom: "inception_3a/5x5_reduce"
  top: "inception_3a/5x5"
  param {
    lr_mult: 1
    decay_mult: 1
  }
  param {
    lr_mult: 2
    decay_mult: 0
  }
  convolution_param {
    num_output: 32
    pad: 2
    kernel_size: 5
    weight_filler {
      type: "xavier"
      std: 0.03
    }
    bias_filler {
      type: "constant"
      value: 0.2
    }
  }
}
layer {
  name: "inception_3a/relu_5x5"
  type: "ReLU"
  bottom: "inception_3a/5x5"
  top: "inception_3a/5x5"
}
layer {
  name: "inception_3a/pool"
  type: "Pooling"
  bottom: "pool2/3x3_s2"
  top: "inception_3a/pool"
  pooling_param {
    pool: MAX
    kernel_size: 3
    stride: 1
    pad: 1
  }
}
layer {
  name: "inception_3a/pool_proj"
  type: "Convolution"
  bottom: "inception_3a/pool"
  top: "inception_3a/pool_proj"
  param {
    lr_mult: 1
    decay_mult: 1
  }
  param {
    lr_mult: 2
    decay_mult: 0
  }
  convolution_param {
    num_output: 32
    kernel_size: 1
    weight_filler {
      type: "xavier"
      std: 0.1
    }
    bias_filler {
      type: "constant"
      value: 0.2
    }
  }
}
layer {
  name: "inception_3a/relu_pool_proj"
  type: "ReLU"
  bottom: "inception_3a/pool_proj"
  top: "inception_3a/pool_proj"
}
layer {
  name: "inception_3a/output"
  type: "Concat"
  bottom: "inception_3a/1x1"
  bottom: "inception_3a/3x3"
  bottom: "inception_3a/5x5"
  bottom: "inception_3a/pool_proj"
  top: "inception_3a/output"
}
layer {
  name: "inception_3b/1x1"
  type: "Convolution"
  bottom: "inception_3a/output"
  top: "inception_3b/1x1"
  param {
    lr_mult: 1
    decay_mult: 1
  }
  param {
    lr_mult: 2
    decay_mult: 0
  }
  convolution_param {
    num_output: 128
    kernel_size: 1
    weight_filler {
      type: "xavier"
      std: 0.03
    }
    bias_filler {
      type: "constant"
      value: 0.2
    }
  }
}
layer {
  name: "inception_3b/relu_1x1"
  type: "ReLU"
  bottom: "inception_3b/1x1"
  top: "inception_3b/1x1"
}
layer {
  name: "inception_3b/3x3_reduce"
  type: "Convolution"
  bottom: "inception_3a/output"
  top: "inception_3b/3x3_reduce"
  param {
    lr_mult: 1
    decay_mult: 1
  }
  param {
    lr_mult: 2
    decay_mult: 0
  }
  convolution_param {
    num_output: 128
    kernel_size: 1
    weight_filler {
      type: "xavier"
      std: 0.09
    }
    bias_filler {
      type: "constant"
      value: 0.2
    }
  }
}
layer {
  name: "inception_3b/relu_3x3_reduce"
  type: "ReLU"
  bottom: "inception_3b/3x3_reduce"
  top: "inception_3b/3x3_reduce"
}
layer {
  name: "inception_3b/3x3"
  type: "Convolution"
  bottom: "inception_3b/3x3_reduce"
  top: "inception_3b/3x3"
  param {
    lr_mult: 1
    decay_mult: 1
  }
  param {
    lr_mult: 2
    decay_mult: 0
  }
  convolution_param {
    num_output: 192
    pad: 1
    kernel_size: 3
    weight_filler {
      type: "xavier"
      std: 0.03
    }
    bias_filler {
      type: "constant"
      value: 0.2
    }
  }
}
layer {
  name: "inception_3b/relu_3x3"
  type: "ReLU"
  bottom: "inception_3b/3x3"
  top: "inception_3b/3x3"
}
layer {
  name: "inception_3b/5x5_reduce"
  type: "Convolution"
  bottom: "inception_3a/output"
  top: "inception_3b/5x5_reduce"
  param {
    lr_mult: 1
    decay_mult: 1
  }
  param {
    lr_mult: 2
    decay_mult: 0
  }
  convolution_param {
    num_output: 32
    kernel_size: 1
    weight_filler {
      type: "xavier"
      std: 0.2
    }
    bias_filler {
      type: "constant"
      value: 0.2
    }
  }
}
layer {
  name: "inception_3b/relu_5x5_reduce"
  type: "ReLU"
  bottom: "inception_3b/5x5_reduce"
  top: "inception_3b/5x5_reduce"
}
layer {
  name: "inception_3b/5x5"
  type: "Convolution"
  bottom: "inception_3b/5x5_reduce"
  top: "inception_3b/5x5"
  param {
    lr_mult: 1
    decay_mult: 1
  }
  param {
    lr_mult: 2
    decay_mult: 0
  }
  convolution_param {
    num_output: 96
    pad: 2
    kernel_size: 5
    weight_filler {
      type: "xavier"
      std: 0.03
    }
    bias_filler {
      type: "constant"
      value: 0.2
    }
  }
}
layer {
  name: "inception_3b/relu_5x5"
  type: "ReLU"
  bottom: "inception_3b/5x5"
  top: "inception_3b/5x5"
}
layer {
  name: "inception_3b/pool"
  type: "Pooling"
  bottom: "inception_3a/output"
  top: "inception_3b/pool"
  pooling_param {
    pool: MAX
    kernel_size: 3
    stride: 1
    pad: 1
  }
}
layer {
  name: "inception_3b/pool_proj"
  type: "Convolution"
  bottom: "inception_3b/pool"
  top: "inception_3b/pool_proj"
  param {
    lr_mult: 1
    decay_mult: 1
  }
  param {
    lr_mult: 2
    decay_mult: 0
  }
  convolution_param {
    num_output: 64
    kernel_size: 1
    weight_filler {
      type: "xavier"
      std: 0.1
    }
    bias_filler {
      type: "constant"
      value: 0.2
    }
  }
}
layer {
  name: "inception_3b/relu_pool_proj"
  type: "ReLU"
  bottom: "inception_3b/pool_proj"
  top: "inception_3b/pool_proj"
}
layer {
  name: "inception_3b/output"
  type: "Concat"
  bottom: "inception_3b/1x1"
  bottom: "inception_3b/3x3"
  bottom: "inception_3b/5x5"
  bottom: "inception_3b/pool_proj"
  top: "inception_3b/output"
}
layer {
  name: "pool3/3x3_s2"
  type: "Pooling"
  bottom: "inception_3b/output"
  top: "pool3/3x3_s2"
  pooling_param {
    pool: MAX
    kernel_size: 3
    stride: 2
  }
}
layer {
  name: "inception_4a/1x1"
  type: "Convolution"
  bottom: "pool3/3x3_s2"
  top: "inception_4a/1x1"
  param {
    lr_mult: 1
    decay_mult: 1
  }
  param {
    lr_mult: 2
    decay_mult: 0
  }
  convolution_param {
    num_output: 192
    kernel_size: 1
    weight_filler {
      type: "xavier"
      std: 0.03
    }
    bias_filler {
      type: "constant"
      value: 0.2
    }
  }
}
layer {
  name: "inception_4a/relu_1x1"
  type: "ReLU"
  bottom: "inception_4a/1x1"
  top: "inception_4a/1x1"
}
layer {
  name: "inception_4a/3x3_reduce"
  type: "Convolution"
  bottom: "pool3/3x3_s2"
  top: "inception_4a/3x3_reduce"
  param {
    lr_mult: 1
    decay_mult: 1
  }
  param {
    lr_mult: 2
    decay_mult: 0
  }
  convolution_param {
    num_output: 96
    kernel_size: 1
    weight_filler {
      type: "xavier"
      std: 0.09
    }
    bias_filler {
      type: "constant"
      value: 0.2
    }
  }
}
layer {
  name: "inception_4a/relu_3x3_reduce"
  type: "ReLU"
  bottom: "inception_4a/3x3_reduce"
  top: "inception_4a/3x3_reduce"
}
layer {
  name: "inception_4a/3x3"
  type: "Convolution"
  bottom: "inception_4a/3x3_reduce"
  top: "inception_4a/3x3"
  param {
    lr_mult: 1
    decay_mult: 1
  }
  param {
    lr_mult: 2
    decay_mult: 0
  }
  convolution_param {
    num_output: 208
    pad: 1
    kernel_size: 3
    weight_filler {
      type: "xavier"
      std: 0.03
    }
    bias_filler {
      type: "constant"
      value: 0.2
    }
  }
}
layer {
  name: "inception_4a/relu_3x3"
  type: "ReLU"
  bottom: "inception_4a/3x3"
  top: "inception_4a/3x3"
}
layer {
  name: "inception_4a/5x5_reduce"
  type: "Convolution"
  bottom: "pool3/3x3_s2"
  top: "inception_4a/5x5_reduce"
  param {
    lr_mult: 1
    decay_mult: 1
  }
  param {
    lr_mult: 2
    decay_mult: 0
  }
  convolution_param {
    num_output: 16
    kernel_size: 1
    weight_filler {
      type: "xavier"
      std: 0.2
    }
    bias_filler {
      type: "constant"
      value: 0.2
    }
  }
}
layer {
  name: "inception_4a/relu_5x5_reduce"
  type: "ReLU"
  bottom: "inception_4a/5x5_reduce"
  top: "inception_4a/5x5_reduce"
}
layer {
  name: "inception_4a/5x5"
  type: "Convolution"
  bottom: "inception_4a/5x5_reduce"
  top: "inception_4a/5x5"
  param {
    lr_mult: 1
    decay_mult: 1
  }
  param {
    lr_mult: 2
    decay_mult: 0
  }
  convolution_param {
    num_output: 48
    pad: 2
    kernel_size: 5
    weight_filler {
      type: "xavier"
      std: 0.03
    }
    bias_filler {
      type: "constant"
      value: 0.2
    }
  }
}
layer {
  name: "inception_4a/relu_5x5"
  type: "ReLU"
  bottom: "inception_4a/5x5"
  top: "inception_4a/5x5"
}
layer {
  name: "inception_4a/pool"
  type: "Pooling"
  bottom: "pool3/3x3_s2"
  top: "inception_4a/pool"
  pooling_param {
    pool: MAX
    kernel_size: 3
    stride: 1
    pad: 1
  }
}
layer {
  name: "inception_4a/pool_proj"
  type: "Convolution"
  bottom: "inception_4a/pool"
  top: "inception_4a/pool_proj"
  param {
    lr_mult: 1
    decay_mult: 1
  }
  param {
    lr_mult: 2
    decay_mult: 0
  }
  convolution_param {
    num_output: 64
    kernel_size: 1
    weight_filler {
      type: "xavier"
      std: 0.1
    }
    bias_filler {
      type: "constant"
      value: 0.2
    }
  }
}
layer {
  name: "inception_4a/relu_pool_proj"
  type: "ReLU"
  bottom: "inception_4a/pool_proj"
  top: "inception_4a/pool_proj"
}
layer {
  name: "inception_4a/output"
  type: "Concat"
  bottom: "inception_4a/1x1"
  bottom: "inception_4a/3x3"
  bottom: "inception_4a/5x5"
  bottom: "inception_4a/pool_proj"
  top: "inception_4a/output"
}
layer {
  name: "loss1/ave_pool"
  type: "Pooling"
  bottom: "inception_4a/output"
  top: "loss1/ave_pool"
  pooling_param {
    pool: AVE
    kernel_size: 5
    stride: 3
  }
}
layer {
  name: "loss1/conv"
  type: "Convolution"
  bottom: "loss1/ave_pool"
  top: "loss1/conv"
  param {
    lr_mult: 1
    decay_mult: 1
  }
  param {
    lr_mult: 2
    decay_mult: 0
  }
  convolution_param {
    num_output: 128
    kernel_size: 1
    weight_filler {
      type: "xavier"
      std: 0.08
    }
    bias_filler {
      type: "constant"
      value: 0.2
    }
  }
}
layer {
  name: "loss1/relu_conv"
  type: "ReLU"
  bottom: "loss1/conv"
  top: "loss1/conv"
}
layer {
  name: "loss1/fc"
  type: "InnerProduct"
  bottom: "loss1/conv"
  top: "loss1/fc"
  param {
    lr_mult: 1
    decay_mult: 1
  }
  param {
    lr_mult: 2
    decay_mult: 0
  }
  inner_product_param {
    num_output: 1024
    weight_filler {
      type: "xavier"
      std: 0.02
    }
    bias_filler {
      type: "constant"
      value: 0.2
    }
  }
}
layer {
  name: "loss1/relu_fc"
  type: "ReLU"
  bottom: "loss1/fc"
  top: "loss1/fc"
}
layer {
  name: "loss1/drop_fc"
  type: "Dropout"
  bottom: "loss1/fc"
  top: "loss1/fc"
  dropout_param {
    dropout_ratio: 0.7
  }
}
layer {
  name: "loss1/classifier_plantvillage"
  type: "InnerProduct"
  bottom: "loss1/fc"
  top: "loss1/classifier_plantvillage"
  param {
    lr_mult: 1
    decay_mult: 1
  }
  param {
    lr_mult: 2
    decay_mult: 0
  }
  inner_product_param {
    num_output: 38
    weight_filler {
      type: "xavier"
      std: 0.0009765625
    }
    bias_filler {
      type: "constant"
      value: 0
    }
  }
}
layer {
  name: "inception_4b/1x1"
  type: "Convolution"
  bottom: "inception_4a/output"
  top: "inception_4b/1x1"
  param {
    lr_mult: 1
    decay_mult: 1
  }
  param {
    lr_mult: 2
    decay_mult: 0
  }
  convolution_param {
    num_output: 160
    kernel_size: 1
    weight_filler {
      type: "xavier"
      std: 0.03
    }
    bias_filler {
      type: "constant"
      value: 0.2
    }
  }
}
layer {
  name: "inception_4b/relu_1x1"
  type: "ReLU"
  bottom: "inception_4b/1x1"
  top: "inception_4b/1x1"
}
layer {
  name: "inception_4b/3x3_reduce"
  type: "Convolution"
  bottom: "inception_4a/output"
  top: "inception_4b/3x3_reduce"
  param {
    lr_mult: 1
    decay_mult: 1
  }
  param {
    lr_mult: 2
    decay_mult: 0
  }
  convolution_param {
    num_output: 112
    kernel_size: 1
    weight_filler {
      type: "xavier"
      std: 0.09
    }
    bias_filler {
      type: "constant"
      value: 0.2
    }
  }
}
layer {
  name: "inception_4b/relu_3x3_reduce"
  type: "ReLU"
  bottom: "inception_4b/3x3_reduce"
  top: "inception_4b/3x3_reduce"
}
layer {
  name: "inception_4b/3x3"
  type: "Convolution"
  bottom: "inception_4b/3x3_reduce"
  top: "inception_4b/3x3"
  param {
    lr_mult: 1
    decay_mult: 1
  }
  param {
    lr_mult: 2
    decay_mult: 0
  }
  convolution_param {
    num_output: 224
    pad: 1
    kernel_size: 3
    weight_filler {
      type: "xavier"
      std: 0.03
    }
    bias_filler {
      type: "constant"
      value: 0.2
    }
  }
}
layer {
  name: "inception_4b/relu_3x3"
  type: "ReLU"
  bottom: "inception_4b/3x3"
  top: "inception_4b/3x3"
}
layer {
  name: "inception_4b/5x5_reduce"
  type: "Convolution"
  bottom: "inception_4a/output"
  top: "inception_4b/5x5_reduce"
  param {
    lr_mult: 1
    decay_mult: 1
  }
  param {
    lr_mult: 2
    decay_mult: 0
  }
  convolution_param {
    num_output: 24
    kernel_size: 1
    weight_filler {
      type: "xavier"
      std: 0.2
    }
    bias_filler {
      type: "constant"
      value: 0.2
    }
  }
}
layer {
  name: "inception_4b/relu_5x5_reduce"
  type: "ReLU"
  bottom: "inception_4b/5x5_reduce"
  top: "inception_4b/5x5_reduce"
}
layer {
  name: "inception_4b/5x5"
  type: "Convolution"
  bottom: "inception_4b/5x5_reduce"
  top: "inception_4b/5x5"
  param {
    lr_mult: 1
    decay_mult: 1
  }
  param {
    lr_mult: 2
    decay_mult: 0
  }
  convolution_param {
    num_output: 64
    pad: 2
    kernel_size: 5
    weight_filler {
      type: "xavier"
      std: 0.03
    }
    bias_filler {
      type: "constant"
      value: 0.2
    }
  }
}
layer {
  name: "inception_4b/relu_5x5"
  type: "ReLU"
  bottom: "inception_4b/5x5"
  top: "inception_4b/5x5"
}
layer {
  name: "inception_4b/pool"
  type: "Pooling"
  bottom: "inception_4a/output"
  top: "inception_4b/pool"
  pooling_param {
    pool: MAX
    kernel_size: 3
    stride: 1
    pad: 1
  }
}
layer {
  name: "inception_4b/pool_proj"
  type: "Convolution"
  bottom: "inception_4b/pool"
  top: "inception_4b/pool_proj"
  param {
    lr_mult: 1
    decay_mult: 1
  }
  param {
    lr_mult: 2
    decay_mult: 0
  }
  convolution_param {
    num_output: 64
    kernel_size: 1
    weight_filler {
      type: "xavier"
      std: 0.1
    }
    bias_filler {
      type: "constant"
      value: 0.2
    }
  }
}
layer {
  name: "inception_4b/relu_pool_proj"
  type: "ReLU"
  bottom: "inception_4b/pool_proj"
  top: "inception_4b/pool_proj"
}
layer {
  name: "inception_4b/output"
  type: "Concat"
  bottom: "inception_4b/1x1"
  bottom: "inception_4b/3x3"
  bottom: "inception_4b/5x5"
  bottom: "inception_4b/pool_proj"
  top: "inception_4b/output"
}
layer {
  name: "inception_4c/1x1"
  type: "Convolution"
  bottom: "inception_4b/output"
  top: "inception_4c/1x1"
  param {
    lr_mult: 1
    decay_mult: 1
  }
  param {
    lr_mult: 2
    decay_mult: 0
  }
  convolution_param {
    num_output: 128
    kernel_size: 1
    weight_filler {
      type: "xavier"
      std: 0.03
    }
    bias_filler {
      type: "constant"
      value: 0.2
    }
  }
}
layer {
  name: "inception_4c/relu_1x1"
  type: "ReLU"
  bottom: "inception_4c/1x1"
  top: "inception_4c/1x1"
}
layer {
  name: "inception_4c/3x3_reduce"
  type: "Convolution"
  bottom: "inception_4b/output"
  top: "inception_4c/3x3_reduce"
  param {
    lr_mult: 1
    decay_mult: 1
  }
  param {
    lr_mult: 2
    decay_mult: 0
  }
  convolution_param {
    num_output: 128
    kernel_size: 1
    weight_filler {
      type: "xavier"
      std: 0.09
    }
    bias_filler {
      type: "constant"
      value: 0.2
    }
  }
}
layer {
  name: "inception_4c/relu_3x3_reduce"
  type: "ReLU"
  bottom: "inception_4c/3x3_reduce"
  top: "inception_4c/3x3_reduce"
}
layer {
  name: "inception_4c/3x3"
  type: "Convolution"
  bottom: "inception_4c/3x3_reduce"
  top: "inception_4c/3x3"
  param {
    lr_mult: 1
    decay_mult: 1
  }
  param {
    lr_mult: 2
    decay_mult: 0
  }
  convolution_param {
    num_output: 256
    pad: 1
    kernel_size: 3
    weight_filler {
      type: "xavier"
      std: 0.03
    }
    bias_filler {
      type: "constant"
      value: 0.2
    }
  }
}
layer {
  name: "inception_4c/relu_3x3"
  type: "ReLU"
  bottom: "inception_4c/3x3"
  top: "inception_4c/3x3"
}
layer {
  name: "inception_4c/5x5_reduce"
  type: "Convolution"
  bottom: "inception_4b/output"
  top: "inception_4c/5x5_reduce"
  param {
    lr_mult: 1
    decay_mult: 1
  }
  param {
    lr_mult: 2
    decay_mult: 0
  }
  convolution_param {
    num_output: 24
    kernel_size: 1
    weight_filler {
      type: "xavier"
      std: 0.2
    }
    bias_filler {
      type: "constant"
      value: 0.2
    }
  }
}
layer {
  name: "inception_4c/relu_5x5_reduce"
  type: "ReLU"
  bottom: "inception_4c/5x5_reduce"
  top: "inception_4c/5x5_reduce"
}
layer {
  name: "inception_4c/5x5"
  type: "Convolution"
  bottom: "inception_4c/5x5_reduce"
  top: "inception_4c/5x5"
  param {
    lr_mult: 1
    decay_mult: 1
  }
  param {
    lr_mult: 2
    decay_mult: 0
  }
  convolution_param {
    num_output: 64
    pad: 2
    kernel_size: 5
    weight_filler {
      type: "xavier"
      std: 0.03
    }
    bias_filler {
      type: "constant"
      value: 0.2
    }
  }
}
layer {
  name: "inception_4c/relu_5x5"
  type: "ReLU"
  bottom: "inception_4c/5x5"
  top: "inception_4c/5x5"
}
layer {
  name: "inception_4c/pool"
  type: "Pooling"
  bottom: "inception_4b/output"
  top: "inception_4c/pool"
  pooling_param {
    pool: MAX
    kernel_size: 3
    stride: 1
    pad: 1
  }
}
layer {
  name: "inception_4c/pool_proj"
  type: "Convolution"
  bottom: "inception_4c/pool"
  top: "inception_4c/pool_proj"
  param {
    lr_mult: 1
    decay_mult: 1
  }
  param {
    lr_mult: 2
    decay_mult: 0
  }
  convolution_param {
    num_output: 64
    kernel_size: 1
    weight_filler {
      type: "xavier"
      std: 0.1
    }
    bias_filler {
      type: "constant"
      value: 0.2
    }
  }
}
layer {
  name: "inception_4c/relu_pool_proj"
  type: "ReLU"
  bottom: "inception_4c/pool_proj"
  top: "inception_4c/pool_proj"
}
layer {
  name: "inception_4c/output"
  type: "Concat"
  bottom: "inception_4c/1x1"
  bottom: "inception_4c/3x3"
  bottom: "inception_4c/5x5"
  bottom: "inception_4c/pool_proj"
  top: "inception_4c/output"
}
layer {
  name: "inception_4d/1x1"
  type: "Convolution"
  bottom: "inception_4c/output"
  top: "inception_4d/1x1"
  param {
    lr_mult: 1
    decay_mult: 1
  }
  param {
    lr_mult: 2
    decay_mult: 0
  }
  convolution_param {
    num_output: 112
    kernel_size: 1
    weight_filler {
      type: "xavier"
      std: 0.03
    }
    bias_filler {
      type: "constant"
      value: 0.2
    }
  }
}
layer {
  name: "inception_4d/relu_1x1"
  type: "ReLU"
  bottom: "inception_4d/1x1"
  top: "inception_4d/1x1"
}
layer {
  name: "inception_4d/3x3_reduce"
  type: "Convolution"
  bottom: "inception_4c/output"
  top: "inception_4d/3x3_reduce"
  param {
    lr_mult: 1
    decay_mult: 1
  }
  param {
    lr_mult: 2
    decay_mult: 0
  }
  convolution_param {
    num_output: 144
    kernel_size: 1
    weight_filler {
      type: "xavier"
      std: 0.09
    }
    bias_filler {
      type: "constant"
      value: 0.2
    }
  }
}
layer {
  name: "inception_4d/relu_3x3_reduce"
  type: "ReLU"
  bottom: "inception_4d/3x3_reduce"
  top: "inception_4d/3x3_reduce"
}
layer {
  name: "inception_4d/3x3"
  type: "Convolution"
  bottom: "inception_4d/3x3_reduce"
  top: "inception_4d/3x3"
  param {
    lr_mult: 1
    decay_mult: 1
  }
  param {
    lr_mult: 2
    decay_mult: 0
  }
  convolution_param {
    num_output: 288
    pad: 1
    kernel_size: 3
    weight_filler {
      type: "xavier"
      std: 0.03
    }
    bias_filler {
      type: "constant"
      value: 0.2
    }
  }
}
layer {
  name: "inception_4d/relu_3x3"
  type: "ReLU"
  bottom: "inception_4d/3x3"
  top: "inception_4d/3x3"
}
layer {
  name: "inception_4d/5x5_reduce"
  type: "Convolution"
  bottom: "inception_4c/output"
  top: "inception_4d/5x5_reduce"
  param {
    lr_mult: 1
    decay_mult: 1
  }
  param {
    lr_mult: 2
    decay_mult: 0
  }
  convolution_param {
    num_output: 32
    kernel_size: 1
    weight_filler {
      type: "xavier"
      std: 0.2
    }
    bias_filler {
      type: "constant"
      value: 0.2
    }
  }
}
layer {
  name: "inception_4d/relu_5x5_reduce"
  type: "ReLU"
  bottom: "inception_4d/5x5_reduce"
  top: "inception_4d/5x5_reduce"
}
layer {
  name: "inception_4d/5x5"
  type: "Convolution"
  bottom: "inception_4d/5x5_reduce"
  top: "inception_4d/5x5"
  param {
    lr_mult: 1
    decay_mult: 1
  }
  param {
    lr_mult: 2
    decay_mult: 0
  }
  convolution_param {
    num_output: 64
    pad: 2
    kernel_size: 5
    weight_filler {
      type: "xavier"
      std: 0.03
    }
    bias_filler {
      type: "constant"
      value: 0.2
    }
  }
}
layer {
  name: "inception_4d/relu_5x5"
  type: "ReLU"
  bottom: "inception_4d/5x5"
  top: "inception_4d/5x5"
}
layer {
  name: "inception_4d/pool"
  type: "Pooling"
  bottom: "inception_4c/output"
  top: "inception_4d/pool"
  pooling_param {
    pool: MAX
    kernel_size: 3
    stride: 1
    pad: 1
  }
}
layer {
  name: "inception_4d/pool_proj"
  type: "Convolution"
  bottom: "inception_4d/pool"
  top: "inception_4d/pool_proj"
  param {
    lr_mult: 1
    decay_mult: 1
  }
  param {
    lr_mult: 2
    decay_mult: 0
  }
  convolution_param {
    num_output: 64
    kernel_size: 1
    weight_filler {
      type: "xavier"
      std: 0.1
    }
    bias_filler {
      type: "constant"
      value: 0.2
    }
  }
}
layer {
  name: "inception_4d/relu_pool_proj"
  type: "ReLU"
  bottom: "inception_4d/pool_proj"
  top: "inception_4d/pool_proj"
}
layer {
  name: "inception_4d/output"
  type: "Concat"
  bottom: "inception_4d/1x1"
  bottom: "inception_4d/3x3"
  bottom: "inception_4d/5x5"
  bottom: "inception_4d/pool_proj"
  top: "inception_4d/output"
}
layer {
  name: "loss2/ave_pool"
  type: "Pooling"
  bottom: "inception_4d/output"
  top: "loss2/ave_pool"
  pooling_param {
    pool: AVE
    kernel_size: 5
    stride: 3
  }
}
layer {
  name: "loss2/conv"
  type: "Convolution"
  bottom: "loss2/ave_pool"
  top: "loss2/conv"
  param {
    lr_mult: 1
    decay_mult: 1
  }
  param {
    lr_mult: 2
    decay_mult: 0
  }
  convolution_param {
    num_output: 128
    kernel_size: 1
    weight_filler {
      type: "xavier"
      std: 0.08
    }
    bias_filler {
      type: "constant"
      value: 0.2
    }
  }
}
layer {
  name: "loss2/relu_conv"
  type: "ReLU"
  bottom: "loss2/conv"
  top: "loss2/conv"
}
layer {
  name: "loss2/fc"
  type: "InnerProduct"
  bottom: "loss2/conv"
  top: "loss2/fc"
  param {
    lr_mult: 1
    decay_mult: 1
  }
  param {
    lr_mult: 2
    decay_mult: 0
  }
  inner_product_param {
    num_output: 1024
    weight_filler {
      type: "xavier"
      std: 0.02
    }
    bias_filler {
      type: "constant"
      value: 0.2
    }
  }
}
layer {
  name: "loss2/relu_fc"
  type: "ReLU"
  bottom: "loss2/fc"
  top: "loss2/fc"
}
layer {
  name: "loss2/drop_fc"
  type: "Dropout"
  bottom: "loss2/fc"
  top: "loss2/fc"
  dropout_param {
    dropout_ratio: 0.7
  }
}
layer {
  name: "loss2/classifier_plantvillage"
  type: "InnerProduct"
  bottom: "loss2/fc"
  top: "loss2/classifier_plantvillage"
  param {
    lr_mult: 1
    decay_mult: 1
  }
  param {
    lr_mult: 2
    decay_mult: 0
  }
  inner_product_param {
    num_output: 38
    weight_filler {
      type: "xavier"
      std: 0.0009765625
    }
    bias_filler {
      type: "constant"
      value: 0
    }
  }
}
layer {
  name: "inception_4e/1x1"
  type: "Convolution"
  bottom: "inception_4d/output"
  top: "inception_4e/1x1"
  param {
    lr_mult: 1
    decay_mult: 1
  }
  param {
    lr_mult: 2
    decay_mult: 0
  }
  convolution_param {
    num_output: 256
    kernel_size: 1
    weight_filler {
      type: "xavier"
      std: 0.03
    }
    bias_filler {
      type: "constant"
      value: 0.2
    }
  }
}
layer {
  name: "inception_4e/relu_1x1"
  type: "ReLU"
  bottom: "inception_4e/1x1"
  top: "inception_4e/1x1"
}
layer {
  name: "inception_4e/3x3_reduce"
  type: "Convolution"
  bottom: "inception_4d/output"
  top: "inception_4e/3x3_reduce"
  param {
    lr_mult: 1
    decay_mult: 1
  }
  param {
    lr_mult: 2
    decay_mult: 0
  }
  convolution_param {
    num_output: 160
    kernel_size: 1
    weight_filler {
      type: "xavier"
      std: 0.09
    }
    bias_filler {
      type: "constant"
      value: 0.2
    }
  }
}
layer {
  name: "inception_4e/relu_3x3_reduce"
  type: "ReLU"
  bottom: "inception_4e/3x3_reduce"
  top: "inception_4e/3x3_reduce"
}
layer {
  name: "inception_4e/3x3"
  type: "Convolution"
  bottom: "inception_4e/3x3_reduce"
  top: "inception_4e/3x3"
  param {
    lr_mult: 1
    decay_mult: 1
  }
  param {
    lr_mult: 2
    decay_mult: 0
  }
  convolution_param {
    num_output: 320
    pad: 1
    kernel_size: 3
    weight_filler {
      type: "xavier"
      std: 0.03
    }
    bias_filler {
      type: "constant"
      value: 0.2
    }
  }
}
layer {
  name: "inception_4e/relu_3x3"
  type: "ReLU"
  bottom: "inception_4e/3x3"
  top: "inception_4e/3x3"
}
layer {
  name: "inception_4e/5x5_reduce"
  type: "Convolution"
  bottom: "inception_4d/output"
  top: "inception_4e/5x5_reduce"
  param {
    lr_mult: 1
    decay_mult: 1
  }
  param {
    lr_mult: 2
    decay_mult: 0
  }
  convolution_param {
    num_output: 32
    kernel_size: 1
    weight_filler {
      type: "xavier"
      std: 0.2
    }
    bias_filler {
      type: "constant"
      value: 0.2
    }
  }
}
layer {
  name: "inception_4e/relu_5x5_reduce"
  type: "ReLU"
  bottom: "inception_4e/5x5_reduce"
  top: "inception_4e/5x5_reduce"
}
layer {
  name: "inception_4e/5x5"
  type: "Convolution"
  bottom: "inception_4e/5x5_reduce"
  top: "inception_4e/
I0403 17:00:20.427963 20048 layer_factory.hpp:77] Creating layer data
I0403 17:00:20.428587 20048 net.cpp:91] Creating Layer data
I0403 17:00:20.428627 20048 net.cpp:399] data -> data
I0403 17:00:20.428681 20048 net.cpp:399] data -> label
I0403 17:00:20.428720 20048 data_transformer.cpp:25] Loading mean file from: /home/mohanty/data/final_dataset/lmdb/segmented-20-80/mean.binaryproto
I0403 17:00:20.429858 20053 db_lmdb.cpp:38] Opened lmdb /home/mohanty/data/final_dataset/lmdb/segmented-20-80/test_db
I0403 17:00:20.441923 20048 data_layer.cpp:41] output data size: 24,3,224,224
I0403 17:00:20.469648 20048 net.cpp:141] Setting up data
I0403 17:00:20.469723 20048 net.cpp:148] Top shape: 24 3 224 224 (3612672)
I0403 17:00:20.469749 20048 net.cpp:148] Top shape: 24 (24)
I0403 17:00:20.469765 20048 net.cpp:156] Memory required for data: 14450784
I0403 17:00:20.469794 20048 layer_factory.hpp:77] Creating layer label_data_1_split
I0403 17:00:20.469823 20048 net.cpp:91] Creating Layer label_data_1_split
I0403 17:00:20.469843 20048 net.cpp:425] label_data_1_split <- label
I0403 17:00:20.469877 20048 net.cpp:399] label_data_1_split -> label_data_1_split_0
I0403 17:00:20.469907 20048 net.cpp:399] label_data_1_split -> label_data_1_split_1
I0403 17:00:20.469929 20048 net.cpp:399] label_data_1_split -> label_data_1_split_2
I0403 17:00:20.469952 20048 net.cpp:399] label_data_1_split -> label_data_1_split_3
I0403 17:00:20.469974 20048 net.cpp:399] label_data_1_split -> label_data_1_split_4
I0403 17:00:20.469997 20048 net.cpp:399] label_data_1_split -> label_data_1_split_5
I0403 17:00:20.470018 20048 net.cpp:399] label_data_1_split -> label_data_1_split_6
I0403 17:00:20.470041 20048 net.cpp:399] label_data_1_split -> label_data_1_split_7
I0403 17:00:20.470062 20048 net.cpp:399] label_data_1_split -> label_data_1_split_8
I0403 17:00:20.470083 20048 net.cpp:399] label_data_1_split -> label_data_1_split_9
I0403 17:00:20.470206 20048 net.cpp:141] Setting up label_data_1_split
I0403 17:00:20.470232 20048 net.cpp:148] Top shape: 24 (24)
I0403 17:00:20.470250 20048 net.cpp:148] Top shape: 24 (24)
I0403 17:00:20.470270 20048 net.cpp:148] Top shape: 24 (24)
I0403 17:00:20.470286 20048 net.cpp:148] Top shape: 24 (24)
I0403 17:00:20.470302 20048 net.cpp:148] Top shape: 24 (24)
I0403 17:00:20.470319 20048 net.cpp:148] Top shape: 24 (24)
I0403 17:00:20.470336 20048 net.cpp:148] Top shape: 24 (24)
I0403 17:00:20.470353 20048 net.cpp:148] Top shape: 24 (24)
I0403 17:00:20.470371 20048 net.cpp:148] Top shape: 24 (24)
I0403 17:00:20.470387 20048 net.cpp:148] Top shape: 24 (24)
I0403 17:00:20.470443 20048 net.cpp:156] Memory required for data: 14451744
I0403 17:00:20.470459 20048 layer_factory.hpp:77] Creating layer conv1/7x7_s2
I0403 17:00:20.470492 20048 net.cpp:91] Creating Layer conv1/7x7_s2
I0403 17:00:20.470512 20048 net.cpp:425] conv1/7x7_s2 <- data
I0403 17:00:20.470535 20048 net.cpp:399] conv1/7x7_s2 -> conv1/7x7_s2
I0403 17:00:20.615243 20048 net.cpp:141] Setting up conv1/7x7_s2
I0403 17:00:20.615319 20048 net.cpp:148] Top shape: 24 64 112 112 (19267584)
I0403 17:00:20.615337 20048 net.cpp:156] Memory required for data: 91522080
I0403 17:00:20.615368 20048 layer_factory.hpp:77] Creating layer conv1/relu_7x7
I0403 17:00:20.615396 20048 net.cpp:91] Creating Layer conv1/relu_7x7
I0403 17:00:20.615413 20048 net.cpp:425] conv1/relu_7x7 <- conv1/7x7_s2
I0403 17:00:20.615432 20048 net.cpp:386] conv1/relu_7x7 -> conv1/7x7_s2 (in-place)
I0403 17:00:20.615690 20048 net.cpp:141] Setting up conv1/relu_7x7
I0403 17:00:20.615717 20048 net.cpp:148] Top shape: 24 64 112 112 (19267584)
I0403 17:00:20.615733 20048 net.cpp:156] Memory required for data: 168592416
I0403 17:00:20.615748 20048 layer_factory.hpp:77] Creating layer pool1/3x3_s2
I0403 17:00:20.615773 20048 net.cpp:91] Creating Layer pool1/3x3_s2
I0403 17:00:20.615792 20048 net.cpp:425] pool1/3x3_s2 <- conv1/7x7_s2
I0403 17:00:20.615819 20048 net.cpp:399] pool1/3x3_s2 -> pool1/3x3_s2
I0403 17:00:20.615893 20048 net.cpp:141] Setting up pool1/3x3_s2
I0403 17:00:20.615917 20048 net.cpp:148] Top shape: 24 64 56 56 (4816896)
I0403 17:00:20.615933 20048 net.cpp:156] Memory required for data: 187860000
I0403 17:00:20.615947 20048 layer_factory.hpp:77] Creating layer pool1/norm1
I0403 17:00:20.615972 20048 net.cpp:91] Creating Layer pool1/norm1
I0403 17:00:20.615989 20048 net.cpp:425] pool1/norm1 <- pool1/3x3_s2
I0403 17:00:20.616008 20048 net.cpp:399] pool1/norm1 -> pool1/norm1
I0403 17:00:20.616286 20048 net.cpp:141] Setting up pool1/norm1
I0403 17:00:20.616314 20048 net.cpp:148] Top shape: 24 64 56 56 (4816896)
I0403 17:00:20.616329 20048 net.cpp:156] Memory required for data: 207127584
I0403 17:00:20.616344 20048 layer_factory.hpp:77] Creating layer conv2/3x3_reduce
I0403 17:00:20.616369 20048 net.cpp:91] Creating Layer conv2/3x3_reduce
I0403 17:00:20.616385 20048 net.cpp:425] conv2/3x3_reduce <- pool1/norm1
I0403 17:00:20.616405 20048 net.cpp:399] conv2/3x3_reduce -> conv2/3x3_reduce
I0403 17:00:20.617728 20048 net.cpp:141] Setting up conv2/3x3_reduce
I0403 17:00:20.617758 20048 net.cpp:148] Top shape: 24 64 56 56 (4816896)
I0403 17:00:20.617774 20048 net.cpp:156] Memory required for data: 226395168
I0403 17:00:20.617794 20048 layer_factory.hpp:77] Creating layer conv2/relu_3x3_reduce
I0403 17:00:20.617812 20048 net.cpp:91] Creating Layer conv2/relu_3x3_reduce
I0403 17:00:20.617828 20048 net.cpp:425] conv2/relu_3x3_reduce <- conv2/3x3_reduce
I0403 17:00:20.617846 20048 net.cpp:386] conv2/relu_3x3_reduce -> conv2/3x3_reduce (in-place)
I0403 17:00:20.618091 20048 net.cpp:141] Setting up conv2/relu_3x3_reduce
I0403 17:00:20.618118 20048 net.cpp:148] Top shape: 24 64 56 56 (4816896)
I0403 17:00:20.618134 20048 net.cpp:156] Memory required for data: 245662752
I0403 17:00:20.618149 20048 layer_factory.hpp:77] Creating layer conv2/3x3
I0403 17:00:20.618170 20048 net.cpp:91] Creating Layer conv2/3x3
I0403 17:00:20.618187 20048 net.cpp:425] conv2/3x3 <- conv2/3x3_reduce
I0403 17:00:20.618204 20048 net.cpp:399] conv2/3x3 -> conv2/3x3
I0403 17:00:20.620401 20048 net.cpp:141] Setting up conv2/3x3
I0403 17:00:20.620431 20048 net.cpp:148] Top shape: 24 192 56 56 (14450688)
I0403 17:00:20.620448 20048 net.cpp:156] Memory required for data: 303465504
I0403 17:00:20.620472 20048 layer_factory.hpp:77] Creating layer conv2/relu_3x3
I0403 17:00:20.620492 20048 net.cpp:91] Creating Layer conv2/relu_3x3
I0403 17:00:20.620509 20048 net.cpp:425] conv2/relu_3x3 <- conv2/3x3
I0403 17:00:20.620527 20048 net.cpp:386] conv2/relu_3x3 -> conv2/3x3 (in-place)
I0403 17:00:20.620707 20048 net.cpp:141] Setting up conv2/relu_3x3
I0403 17:00:20.620734 20048 net.cpp:148] Top shape: 24 192 56 56 (14450688)
I0403 17:00:20.620789 20048 net.cpp:156] Memory required for data: 361268256
I0403 17:00:20.620805 20048 layer_factory.hpp:77] Creating layer conv2/norm2
I0403 17:00:20.620822 20048 net.cpp:91] Creating Layer conv2/norm2
I0403 17:00:20.620838 20048 net.cpp:425] conv2/norm2 <- conv2/3x3
I0403 17:00:20.620862 20048 net.cpp:399] conv2/norm2 -> conv2/norm2
I0403 17:00:20.621161 20048 net.cpp:141] Setting up conv2/norm2
I0403 17:00:20.621188 20048 net.cpp:148] Top shape: 24 192 56 56 (14450688)
I0403 17:00:20.621203 20048 net.cpp:156] Memory required for data: 419071008
I0403 17:00:20.621218 20048 layer_factory.hpp:77] Creating layer pool2/3x3_s2
I0403 17:00:20.621235 20048 net.cpp:91] Creating Layer pool2/3x3_s2
I0403 17:00:20.621251 20048 net.cpp:425] pool2/3x3_s2 <- conv2/norm2
I0403 17:00:20.621271 20048 net.cpp:399] pool2/3x3_s2 -> pool2/3x3_s2
I0403 17:00:20.621325 20048 net.cpp:141] Setting up pool2/3x3_s2
I0403 17:00:20.621348 20048 net.cpp:148] Top shape: 24 192 28 28 (3612672)
I0403 17:00:20.621363 20048 net.cpp:156] Memory required for data: 433521696
I0403 17:00:20.621378 20048 layer_factory.hpp:77] Creating layer pool2/3x3_s2_pool2/3x3_s2_0_split
I0403 17:00:20.621395 20048 net.cpp:91] Creating Layer pool2/3x3_s2_pool2/3x3_s2_0_split
I0403 17:00:20.621410 20048 net.cpp:425] pool2/3x3_s2_pool2/3x3_s2_0_split <- pool2/3x3_s2
I0403 17:00:20.621428 20048 net.cpp:399] pool2/3x3_s2_pool2/3x3_s2_0_split -> pool2/3x3_s2_pool2/3x3_s2_0_split_0
I0403 17:00:20.621449 20048 net.cpp:399] pool2/3x3_s2_pool2/3x3_s2_0_split -> pool2/3x3_s2_pool2/3x3_s2_0_split_1
I0403 17:00:20.621470 20048 net.cpp:399] pool2/3x3_s2_pool2/3x3_s2_0_split -> pool2/3x3_s2_pool2/3x3_s2_0_split_2
I0403 17:00:20.621491 20048 net.cpp:399] pool2/3x3_s2_pool2/3x3_s2_0_split -> pool2/3x3_s2_pool2/3x3_s2_0_split_3
I0403 17:00:20.621562 20048 net.cpp:141] Setting up pool2/3x3_s2_pool2/3x3_s2_0_split
I0403 17:00:20.621589 20048 net.cpp:148] Top shape: 24 192 28 28 (3612672)
I0403 17:00:20.621606 20048 net.cpp:148] Top shape: 24 192 28 28 (3612672)
I0403 17:00:20.621623 20048 net.cpp:148] Top shape: 24 192 28 28 (3612672)
I0403 17:00:20.621637 20048 net.cpp:148] Top shape: 24 192 28 28 (3612672)
I0403 17:00:20.621651 20048 net.cpp:156] Memory required for data: 491324448
I0403 17:00:20.621665 20048 layer_factory.hpp:77] Creating layer inception_3a/1x1
I0403 17:00:20.621690 20048 net.cpp:91] Creating Layer inception_3a/1x1
I0403 17:00:20.621707 20048 net.cpp:425] inception_3a/1x1 <- pool2/3x3_s2_pool2/3x3_s2_0_split_0
I0403 17:00:20.621726 20048 net.cpp:399] inception_3a/1x1 -> inception_3a/1x1
I0403 17:00:20.623246 20048 net.cpp:141] Setting up inception_3a/1x1
I0403 17:00:20.623276 20048 net.cpp:148] Top shape: 24 64 28 28 (1204224)
I0403 17:00:20.623292 20048 net.cpp:156] Memory required for data: 496141344
I0403 17:00:20.623311 20048 layer_factory.hpp:77] Creating layer inception_3a/relu_1x1
I0403 17:00:20.623332 20048 net.cpp:91] Creating Layer inception_3a/relu_1x1
I0403 17:00:20.623348 20048 net.cpp:425] inception_3a/relu_1x1 <- inception_3a/1x1
I0403 17:00:20.623366 20048 net.cpp:386] inception_3a/relu_1x1 -> inception_3a/1x1 (in-place)
I0403 17:00:20.623540 20048 net.cpp:141] Setting up inception_3a/relu_1x1
I0403 17:00:20.623571 20048 net.cpp:148] Top shape: 24 64 28 28 (1204224)
I0403 17:00:20.623589 20048 net.cpp:156] Memory required for data: 500958240
I0403 17:00:20.623605 20048 layer_factory.hpp:77] Creating layer inception_3a/3x3_reduce
I0403 17:00:20.623626 20048 net.cpp:91] Creating Layer inception_3a/3x3_reduce
I0403 17:00:20.623644 20048 net.cpp:425] inception_3a/3x3_reduce <- pool2/3x3_s2_pool2/3x3_s2_0_split_1
I0403 17:00:20.623662 20048 net.cpp:399] inception_3a/3x3_reduce -> inception_3a/3x3_reduce
I0403 17:00:20.625337 20048 net.cpp:141] Setting up inception_3a/3x3_reduce
I0403 17:00:20.625367 20048 net.cpp:148] Top shape: 24 96 28 28 (1806336)
I0403 17:00:20.625383 20048 net.cpp:156] Memory required for data: 508183584
I0403 17:00:20.625406 20048 layer_factory.hpp:77] Creating layer inception_3a/relu_3x3_reduce
I0403 17:00:20.625442 20048 net.cpp:91] Creating Layer inception_3a/relu_3x3_reduce
I0403 17:00:20.625459 20048 net.cpp:425] inception_3a/relu_3x3_reduce <- inception_3a/3x3_reduce
I0403 17:00:20.625478 20048 net.cpp:386] inception_3a/relu_3x3_reduce -> inception_3a/3x3_reduce (in-place)
I0403 17:00:20.625663 20048 net.cpp:141] Setting up inception_3a/relu_3x3_reduce
I0403 17:00:20.625687 20048 net.cpp:148] Top shape: 24 96 28 28 (1806336)
I0403 17:00:20.625702 20048 net.cpp:156] Memory required for data: 515408928
I0403 17:00:20.625717 20048 layer_factory.hpp:77] Creating layer inception_3a/3x3
I0403 17:00:20.625741 20048 net.cpp:91] Creating Layer inception_3a/3x3
I0403 17:00:20.625758 20048 net.cpp:425] inception_3a/3x3 <- inception_3a/3x3_reduce
I0403 17:00:20.625782 20048 net.cpp:399] inception_3a/3x3 -> inception_3a/3x3
I0403 17:00:20.627400 20048 net.cpp:141] Setting up inception_3a/3x3
I0403 17:00:20.627429 20048 net.cpp:148] Top shape: 24 128 28 28 (2408448)
I0403 17:00:20.627444 20048 net.cpp:156] Memory required for data: 525042720
I0403 17:00:20.627463 20048 layer_factory.hpp:77] Creating layer inception_3a/relu_3x3
I0403 17:00:20.627482 20048 net.cpp:91] Creating Layer inception_3a/relu_3x3
I0403 17:00:20.627499 20048 net.cpp:425] inception_3a/relu_3x3 <- inception_3a/3x3
I0403 17:00:20.627517 20048 net.cpp:386] inception_3a/relu_3x3 -> inception_3a/3x3 (in-place)
I0403 17:00:20.627794 20048 net.cpp:141] Setting up inception_3a/relu_3x3
I0403 17:00:20.627820 20048 net.cpp:148] Top shape: 24 128 28 28 (2408448)
I0403 17:00:20.627835 20048 net.cpp:156] Memory required for data: 534676512
I0403 17:00:20.627849 20048 layer_factory.hpp:77] Creating layer inception_3a/5x5_reduce
I0403 17:00:20.627873 20048 net.cpp:91] Creating Layer inception_3a/5x5_reduce
I0403 17:00:20.627892 20048 net.cpp:425] inception_3a/5x5_reduce <- pool2/3x3_s2_pool2/3x3_s2_0_split_2
I0403 17:00:20.627910 20048 net.cpp:399] inception_3a/5x5_reduce -> inception_3a/5x5_reduce
I0403 17:00:20.628865 20048 net.cpp:141] Setting up inception_3a/5x5_reduce
I0403 17:00:20.628892 20048 net.cpp:148] Top shape: 24 16 28 28 (301056)
I0403 17:00:20.628908 20048 net.cpp:156] Memory required for data: 535880736
I0403 17:00:20.628926 20048 layer_factory.hpp:77] Creating layer inception_3a/relu_5x5_reduce
I0403 17:00:20.628947 20048 net.cpp:91] Creating Layer inception_3a/relu_5x5_reduce
I0403 17:00:20.628963 20048 net.cpp:425] inception_3a/relu_5x5_reduce <- inception_3a/5x5_reduce
I0403 17:00:20.628981 20048 net.cpp:386] inception_3a/relu_5x5_reduce -> inception_3a/5x5_reduce (in-place)
I0403 17:00:20.629277 20048 net.cpp:141] Setting up inception_3a/relu_5x5_reduce
I0403 17:00:20.629305 20048 net.cpp:148] Top shape: 24 16 28 28 (301056)
I0403 17:00:20.629323 20048 net.cpp:156] Memory required for data: 537084960
I0403 17:00:20.629338 20048 layer_factory.hpp:77] Creating layer inception_3a/5x5
I0403 17:00:20.629360 20048 net.cpp:91] Creating Layer inception_3a/5x5
I0403 17:00:20.629377 20048 net.cpp:425] inception_3a/5x5 <- inception_3a/5x5_reduce
I0403 17:00:20.629396 20048 net.cpp:399] inception_3a/5x5 -> inception_3a/5x5
I0403 17:00:20.630410 20048 net.cpp:141] Setting up inception_3a/5x5
I0403 17:00:20.630439 20048 net.cpp:148] Top shape: 24 32 28 28 (602112)
I0403 17:00:20.630455 20048 net.cpp:156] Memory required for data: 539493408
I0403 17:00:20.630472 20048 layer_factory.hpp:77] Creating layer inception_3a/relu_5x5
I0403 17:00:20.630493 20048 net.cpp:91] Creating Layer inception_3a/relu_5x5
I0403 17:00:20.630511 20048 net.cpp:425] inception_3a/relu_5x5 <- inception_3a/5x5
I0403 17:00:20.630528 20048 net.cpp:386] inception_3a/relu_5x5 -> inception_3a/5x5 (in-place)
I0403 17:00:20.630702 20048 net.cpp:141] Setting up inception_3a/relu_5x5
I0403 17:00:20.630729 20048 net.cpp:148] Top shape: 24 32 28 28 (602112)
I0403 17:00:20.630745 20048 net.cpp:156] Memory required for data: 541901856
I0403 17:00:20.630760 20048 layer_factory.hpp:77] Creating layer inception_3a/pool
I0403 17:00:20.630779 20048 net.cpp:91] Creating Layer inception_3a/pool
I0403 17:00:20.630807 20048 net.cpp:425] inception_3a/pool <- pool2/3x3_s2_pool2/3x3_s2_0_split_3
I0403 17:00:20.630826 20048 net.cpp:399] inception_3a/pool -> inception_3a/pool
I0403 17:00:20.630883 20048 net.cpp:141] Setting up inception_3a/pool
I0403 17:00:20.630908 20048 net.cpp:148] Top shape: 24 192 28 28 (3612672)
I0403 17:00:20.630923 20048 net.cpp:156] Memory required for data: 556352544
I0403 17:00:20.630938 20048 layer_factory.hpp:77] Creating layer inception_3a/pool_proj
I0403 17:00:20.630959 20048 net.cpp:91] Creating Layer inception_3a/pool_proj
I0403 17:00:20.630977 20048 net.cpp:425] inception_3a/pool_proj <- inception_3a/pool
I0403 17:00:20.630998 20048 net.cpp:399] inception_3a/pool_proj -> inception_3a/pool_proj
I0403 17:00:20.631956 20048 net.cpp:141] Setting up inception_3a/pool_proj
I0403 17:00:20.631984 20048 net.cpp:148] Top shape: 24 32 28 28 (602112)
I0403 17:00:20.631999 20048 net.cpp:156] Memory required for data: 558760992
I0403 17:00:20.632025 20048 layer_factory.hpp:77] Creating layer inception_3a/relu_pool_proj
I0403 17:00:20.632045 20048 net.cpp:91] Creating Layer inception_3a/relu_pool_proj
I0403 17:00:20.632061 20048 net.cpp:425] inception_3a/relu_pool_proj <- inception_3a/pool_proj
I0403 17:00:20.632077 20048 net.cpp:386] inception_3a/relu_pool_proj -> inception_3a/pool_proj (in-place)
I0403 17:00:20.632349 20048 net.cpp:141] Setting up inception_3a/relu_pool_proj
I0403 17:00:20.632375 20048 net.cpp:148] Top shape: 24 32 28 28 (602112)
I0403 17:00:20.632390 20048 net.cpp:156] Memory required for data: 561169440
I0403 17:00:20.632405 20048 layer_factory.hpp:77] Creating layer inception_3a/output
I0403 17:00:20.632426 20048 net.cpp:91] Creating Layer inception_3a/output
I0403 17:00:20.632441 20048 net.cpp:425] inception_3a/output <- inception_3a/1x1
I0403 17:00:20.632458 20048 net.cpp:425] inception_3a/output <- inception_3a/3x3
I0403 17:00:20.632473 20048 net.cpp:425] inception_3a/output <- inception_3a/5x5
I0403 17:00:20.632488 20048 net.cpp:425] inception_3a/output <- inception_3a/pool_proj
I0403 17:00:20.632504 20048 net.cpp:399] inception_3a/output -> inception_3a/output
I0403 17:00:20.632551 20048 net.cpp:141] Setting up inception_3a/output
I0403 17:00:20.632580 20048 net.cpp:148] Top shape: 24 256 28 28 (4816896)
I0403 17:00:20.632596 20048 net.cpp:156] Memory required for data: 580437024
I0403 17:00:20.632611 20048 layer_factory.hpp:77] Creating layer inception_3a/output_inception_3a/output_0_split
I0403 17:00:20.632627 20048 net.cpp:91] Creating Layer inception_3a/output_inception_3a/output_0_split
I0403 17:00:20.632642 20048 net.cpp:425] inception_3a/output_inception_3a/output_0_split <- inception_3a/output
I0403 17:00:20.632664 20048 net.cpp:399] inception_3a/output_inception_3a/output_0_split -> inception_3a/output_inception_3a/output_0_split_0
I0403 17:00:20.632685 20048 net.cpp:399] inception_3a/output_inception_3a/output_0_split -> inception_3a/output_inception_3a/output_0_split_1
I0403 17:00:20.632710 20048 net.cpp:399] inception_3a/output_inception_3a/output_0_split -> inception_3a/output_inception_3a/output_0_split_2
I0403 17:00:20.632733 20048 net.cpp:399] inception_3a/output_inception_3a/output_0_split -> inception_3a/output_inception_3a/output_0_split_3
I0403 17:00:20.632807 20048 net.cpp:141] Setting up inception_3a/output_inception_3a/output_0_split
I0403 17:00:20.632829 20048 net.cpp:148] Top shape: 24 256 28 28 (4816896)
I0403 17:00:20.632846 20048 net.cpp:148] Top shape: 24 256 28 28 (4816896)
I0403 17:00:20.632863 20048 net.cpp:148] Top shape: 24 256 28 28 (4816896)
I0403 17:00:20.632879 20048 net.cpp:148] Top shape: 24 256 28 28 (4816896)
I0403 17:00:20.632892 20048 net.cpp:156] Memory required for data: 657507360
I0403 17:00:20.632907 20048 layer_factory.hpp:77] Creating layer inception_3b/1x1
I0403 17:00:20.632930 20048 net.cpp:91] Creating Layer inception_3b/1x1
I0403 17:00:20.632946 20048 net.cpp:425] inception_3b/1x1 <- inception_3a/output_inception_3a/output_0_split_0
I0403 17:00:20.632966 20048 net.cpp:399] inception_3b/1x1 -> inception_3b/1x1
I0403 17:00:20.634089 20048 net.cpp:141] Setting up inception_3b/1x1
I0403 17:00:20.634130 20048 net.cpp:148] Top shape: 24 128 28 28 (2408448)
I0403 17:00:20.634145 20048 net.cpp:156] Memory required for data: 667141152
I0403 17:00:20.634165 20048 layer_factory.hpp:77] Creating layer inception_3b/relu_1x1
I0403 17:00:20.634186 20048 net.cpp:91] Creating Layer inception_3b/relu_1x1
I0403 17:00:20.634203 20048 net.cpp:425] inception_3b/relu_1x1 <- inception_3b/1x1
I0403 17:00:20.634220 20048 net.cpp:386] inception_3b/relu_1x1 -> inception_3b/1x1 (in-place)
I0403 17:00:20.634392 20048 net.cpp:141] Setting up inception_3b/relu_1x1
I0403 17:00:20.634416 20048 net.cpp:148] Top shape: 24 128 28 28 (2408448)
I0403 17:00:20.634431 20048 net.cpp:156] Memory required for data: 676774944
I0403 17:00:20.634445 20048 layer_factory.hpp:77] Creating layer inception_3b/3x3_reduce
I0403 17:00:20.634469 20048 net.cpp:91] Creating Layer inception_3b/3x3_reduce
I0403 17:00:20.634486 20048 net.cpp:425] inception_3b/3x3_reduce <- inception_3a/output_inception_3a/output_0_split_1
I0403 17:00:20.634505 20048 net.cpp:399] inception_3b/3x3_reduce -> inception_3b/3x3_reduce
I0403 17:00:20.635644 20048 net.cpp:141] Setting up inception_3b/3x3_reduce
I0403 17:00:20.635673 20048 net.cpp:148] Top shape: 24 128 28 28 (2408448)
I0403 17:00:20.635689 20048 net.cpp:156] Memory required for data: 686408736
I0403 17:00:20.635706 20048 layer_factory.hpp:77] Creating layer inception_3b/relu_3x3_reduce
I0403 17:00:20.635725 20048 net.cpp:91] Creating Layer inception_3b/relu_3x3_reduce
I0403 17:00:20.635740 20048 net.cpp:425] inception_3b/relu_3x3_reduce <- inception_3b/3x3_reduce
I0403 17:00:20.635759 20048 net.cpp:386] inception_3b/relu_3x3_reduce -> inception_3b/3x3_reduce (in-place)
I0403 17:00:20.635931 20048 net.cpp:141] Setting up inception_3b/relu_3x3_reduce
I0403 17:00:20.635956 20048 net.cpp:148] Top shape: 24 128 28 28 (2408448)
I0403 17:00:20.635970 20048 net.cpp:156] Memory required for data: 696042528
I0403 17:00:20.635984 20048 layer_factory.hpp:77] Creating layer inception_3b/3x3
I0403 17:00:20.636010 20048 net.cpp:91] Creating Layer inception_3b/3x3
I0403 17:00:20.636029 20048 net.cpp:425] inception_3b/3x3 <- inception_3b/3x3_reduce
I0403 17:00:20.636052 20048 net.cpp:399] inception_3b/3x3 -> inception_3b/3x3
I0403 17:00:20.638938 20048 net.cpp:141] Setting up inception_3b/3x3
I0403 17:00:20.638968 20048 net.cpp:148] Top shape: 24 192 28 28 (3612672)
I0403 17:00:20.638984 20048 net.cpp:156] Memory required for data: 710493216
I0403 17:00:20.639003 20048 layer_factory.hpp:77] Creating layer inception_3b/relu_3x3
I0403 17:00:20.639024 20048 net.cpp:91] Creating Layer inception_3b/relu_3x3
I0403 17:00:20.639040 20048 net.cpp:425] inception_3b/relu_3x3 <- inception_3b/3x3
I0403 17:00:20.639058 20048 net.cpp:386] inception_3b/relu_3x3 -> inception_3b/3x3 (in-place)
I0403 17:00:20.639330 20048 net.cpp:141] Setting up inception_3b/relu_3x3
I0403 17:00:20.639356 20048 net.cpp:148] Top shape: 24 192 28 28 (3612672)
I0403 17:00:20.639374 20048 net.cpp:156] Memory required for data: 724943904
I0403 17:00:20.639389 20048 layer_factory.hpp:77] Creating layer inception_3b/5x5_reduce
I0403 17:00:20.639412 20048 net.cpp:91] Creating Layer inception_3b/5x5_reduce
I0403 17:00:20.639431 20048 net.cpp:425] inception_3b/5x5_reduce <- inception_3a/output_inception_3a/output_0_split_2
I0403 17:00:20.639449 20048 net.cpp:399] inception_3b/5x5_reduce -> inception_3b/5x5_reduce
I0403 17:00:20.640476 20048 net.cpp:141] Setting up inception_3b/5x5_reduce
I0403 17:00:20.640504 20048 net.cpp:148] Top shape: 24 32 28 28 (602112)
I0403 17:00:20.640521 20048 net.cpp:156] Memory required for data: 727352352
I0403 17:00:20.640539 20048 layer_factory.hpp:77] Creating layer inception_3b/relu_5x5_reduce
I0403 17:00:20.640560 20048 net.cpp:91] Creating Layer inception_3b/relu_5x5_reduce
I0403 17:00:20.640581 20048 net.cpp:425] inception_3b/relu_5x5_reduce <- inception_3b/5x5_reduce
I0403 17:00:20.640599 20048 net.cpp:386] inception_3b/relu_5x5_reduce -> inception_3b/5x5_reduce (in-place)
I0403 17:00:20.640792 20048 net.cpp:141] Setting up inception_3b/relu_5x5_reduce
I0403 17:00:20.640820 20048 net.cpp:148] Top shape: 24 32 28 28 (602112)
I0403 17:00:20.640836 20048 net.cpp:156] Memory required for data: 729760800
I0403 17:00:20.640851 20048 layer_factory.hpp:77] Creating layer inception_3b/5x5
I0403 17:00:20.640873 20048 net.cpp:91] Creating Layer inception_3b/5x5
I0403 17:00:20.640890 20048 net.cpp:425] inception_3b/5x5 <- inception_3b/5x5_reduce
I0403 17:00:20.640909 20048 net.cpp:399] inception_3b/5x5 -> inception_3b/5x5
I0403 17:00:20.642870 20048 net.cpp:141] Setting up inception_3b/5x5
I0403 17:00:20.642899 20048 net.cpp:148] Top shape: 24 96 28 28 (1806336)
I0403 17:00:20.642915 20048 net.cpp:156] Memory required for data: 736986144
I0403 17:00:20.642935 20048 layer_factory.hpp:77] Creating layer inception_3b/relu_5x5
I0403 17:00:20.642952 20048 net.cpp:91] Creating Layer inception_3b/relu_5x5
I0403 17:00:20.642968 20048 net.cpp:425] inception_3b/relu_5x5 <- inception_3b/5x5
I0403 17:00:20.642987 20048 net.cpp:386] inception_3b/relu_5x5 -> inception_3b/5x5 (in-place)
I0403 17:00:20.643179 20048 net.cpp:141] Setting up inception_3b/relu_5x5
I0403 17:00:20.643205 20048 net.cpp:148] Top shape: 24 96 28 28 (1806336)
I0403 17:00:20.643220 20048 net.cpp:156] Memory required for data: 744211488
I0403 17:00:20.643235 20048 layer_factory.hpp:77] Creating layer inception_3b/pool
I0403 17:00:20.643252 20048 net.cpp:91] Creating Layer inception_3b/pool
I0403 17:00:20.643267 20048 net.cpp:425] inception_3b/pool <- inception_3a/output_inception_3a/output_0_split_3
I0403 17:00:20.643285 20048 net.cpp:399] inception_3b/pool -> inception_3b/pool
I0403 17:00:20.643340 20048 net.cpp:141] Setting up inception_3b/pool
I0403 17:00:20.643363 20048 net.cpp:148] Top shape: 24 256 28 28 (4816896)
I0403 17:00:20.643378 20048 net.cpp:156] Memory required for data: 763479072
I0403 17:00:20.643393 20048 layer_factory.hpp:77] Creating layer inception_3b/pool_proj
I0403 17:00:20.643414 20048 net.cpp:91] Creating Layer inception_3b/pool_proj
I0403 17:00:20.643435 20048 net.cpp:425] inception_3b/pool_proj <- inception_3b/pool
I0403 17:00:20.643455 20048 net.cpp:399] inception_3b/pool_proj -> inception_3b/pool_proj
I0403 17:00:20.644508 20048 net.cpp:141] Setting up inception_3b/pool_proj
I0403 17:00:20.644538 20048 net.cpp:148] Top shape: 24 64 28 28 (1204224)
I0403 17:00:20.644554 20048 net.cpp:156] Memory required for data: 768295968
I0403 17:00:20.644583 20048 layer_factory.hpp:77] Creating layer inception_3b/relu_pool_proj
I0403 17:00:20.644604 20048 net.cpp:91] Creating Layer inception_3b/relu_pool_proj
I0403 17:00:20.644620 20048 net.cpp:425] inception_3b/relu_pool_proj <- inception_3b/pool_proj
I0403 17:00:20.644639 20048 net.cpp:386] inception_3b/relu_pool_proj -> inception_3b/pool_proj (in-place)
I0403 17:00:20.645033 20048 net.cpp:141] Setting up inception_3b/relu_pool_proj
I0403 17:00:20.645061 20048 net.cpp:148] Top shape: 24 64 28 28 (1204224)
I0403 17:00:20.645077 20048 net.cpp:156] Memory required for data: 773112864
I0403 17:00:20.645093 20048 layer_factory.hpp:77] Creating layer inception_3b/output
I0403 17:00:20.645110 20048 net.cpp:91] Creating Layer inception_3b/output
I0403 17:00:20.645126 20048 net.cpp:425] inception_3b/output <- inception_3b/1x1
I0403 17:00:20.645141 20048 net.cpp:425] inception_3b/output <- inception_3b/3x3
I0403 17:00:20.645156 20048 net.cpp:425] inception_3b/output <- inception_3b/5x5
I0403 17:00:20.645172 20048 net.cpp:425] inception_3b/output <- inception_3b/pool_proj
I0403 17:00:20.645189 20048 net.cpp:399] inception_3b/output -> inception_3b/output
I0403 17:00:20.645233 20048 net.cpp:141] Setting up inception_3b/output
I0403 17:00:20.645257 20048 net.cpp:148] Top shape: 24 480 28 28 (9031680)
I0403 17:00:20.645272 20048 net.cpp:156] Memory required for data: 809239584
I0403 17:00:20.645287 20048 layer_factory.hpp:77] Creating layer pool3/3x3_s2
I0403 17:00:20.645306 20048 net.cpp:91] Creating Layer pool3/3x3_s2
I0403 17:00:20.645323 20048 net.cpp:425] pool3/3x3_s2 <- inception_3b/output
I0403 17:00:20.645356 20048 net.cpp:399] pool3/3x3_s2 -> pool3/3x3_s2
I0403 17:00:20.645416 20048 net.cpp:141] Setting up pool3/3x3_s2
I0403 17:00:20.645440 20048 net.cpp:148] Top shape: 24 480 14 14 (2257920)
I0403 17:00:20.645455 20048 net.cpp:156] Memory required for data: 818271264
I0403 17:00:20.645470 20048 layer_factory.hpp:77] Creating layer pool3/3x3_s2_pool3/3x3_s2_0_split
I0403 17:00:20.645488 20048 net.cpp:91] Creating Layer pool3/3x3_s2_pool3/3x3_s2_0_split
I0403 17:00:20.645503 20048 net.cpp:425] pool3/3x3_s2_pool3/3x3_s2_0_split <- pool3/3x3_s2
I0403 17:00:20.645522 20048 net.cpp:399] pool3/3x3_s2_pool3/3x3_s2_0_split -> pool3/3x3_s2_pool3/3x3_s2_0_split_0
I0403 17:00:20.645542 20048 net.cpp:399] pool3/3x3_s2_pool3/3x3_s2_0_split -> pool3/3x3_s2_pool3/3x3_s2_0_split_1
I0403 17:00:20.645562 20048 net.cpp:399] pool3/3x3_s2_pool3/3x3_s2_0_split -> pool3/3x3_s2_pool3/3x3_s2_0_split_2
I0403 17:00:20.645587 20048 net.cpp:399] pool3/3x3_s2_pool3/3x3_s2_0_split -> pool3/3x3_s2_pool3/3x3_s2_0_split_3
I0403 17:00:20.645663 20048 net.cpp:141] Setting up pool3/3x3_s2_pool3/3x3_s2_0_split
I0403 17:00:20.645689 20048 net.cpp:148] Top shape: 24 480 14 14 (2257920)
I0403 17:00:20.645707 20048 net.cpp:148] Top shape: 24 480 14 14 (2257920)
I0403 17:00:20.645723 20048 net.cpp:148] Top shape: 24 480 14 14 (2257920)
I0403 17:00:20.645738 20048 net.cpp:148] Top shape: 24 480 14 14 (2257920)
I0403 17:00:20.645752 20048 net.cpp:156] Memory required for data: 854397984
I0403 17:00:20.645766 20048 layer_factory.hpp:77] Creating layer inception_4a/1x1
I0403 17:00:20.645787 20048 net.cpp:91] Creating Layer inception_4a/1x1
I0403 17:00:20.645804 20048 net.cpp:425] inception_4a/1x1 <- pool3/3x3_s2_pool3/3x3_s2_0_split_0
I0403 17:00:20.645823 20048 net.cpp:399] inception_4a/1x1 -> inception_4a/1x1
I0403 17:00:20.647377 20048 net.cpp:141] Setting up inception_4a/1x1
I0403 17:00:20.647405 20048 net.cpp:148] Top shape: 24 192 14 14 (903168)
I0403 17:00:20.647420 20048 net.cpp:156] Memory required for data: 858010656
I0403 17:00:20.647439 20048 layer_factory.hpp:77] Creating layer inception_4a/relu_1x1
I0403 17:00:20.647456 20048 net.cpp:91] Creating Layer inception_4a/relu_1x1
I0403 17:00:20.647474 20048 net.cpp:425] inception_4a/relu_1x1 <- inception_4a/1x1
I0403 17:00:20.647495 20048 net.cpp:386] inception_4a/relu_1x1 -> inception_4a/1x1 (in-place)
I0403 17:00:20.647676 20048 net.cpp:141] Setting up inception_4a/relu_1x1
I0403 17:00:20.647701 20048 net.cpp:148] Top shape: 24 192 14 14 (903168)
I0403 17:00:20.647716 20048 net.cpp:156] Memory required for data: 861623328
I0403 17:00:20.647732 20048 layer_factory.hpp:77] Creating layer inception_4a/3x3_reduce
I0403 17:00:20.647753 20048 net.cpp:91] Creating Layer inception_4a/3x3_reduce
I0403 17:00:20.647771 20048 net.cpp:425] inception_4a/3x3_reduce <- pool3/3x3_s2_pool3/3x3_s2_0_split_1
I0403 17:00:20.647792 20048 net.cpp:399] inception_4a/3x3_reduce -> inception_4a/3x3_reduce
I0403 17:00:20.649049 20048 net.cpp:141] Setting up inception_4a/3x3_reduce
I0403 17:00:20.649080 20048 net.cpp:148] Top shape: 24 96 14 14 (451584)
I0403 17:00:20.649096 20048 net.cpp:156] Memory required for data: 863429664
I0403 17:00:20.649121 20048 layer_factory.hpp:77] Creating layer inception_4a/relu_3x3_reduce
I0403 17:00:20.649140 20048 net.cpp:91] Creating Layer inception_4a/relu_3x3_reduce
I0403 17:00:20.649157 20048 net.cpp:425] inception_4a/relu_3x3_reduce <- inception_4a/3x3_reduce
I0403 17:00:20.649174 20048 net.cpp:386] inception_4a/relu_3x3_reduce -> inception_4a/3x3_reduce (in-place)
I0403 17:00:20.649348 20048 net.cpp:141] Setting up inception_4a/relu_3x3_reduce
I0403 17:00:20.649372 20048 net.cpp:148] Top shape: 24 96 14 14 (451584)
I0403 17:00:20.649387 20048 net.cpp:156] Memory required for data: 865236000
I0403 17:00:20.649401 20048 layer_factory.hpp:77] Creating layer inception_4a/3x3
I0403 17:00:20.649423 20048 net.cpp:91] Creating Layer inception_4a/3x3
I0403 17:00:20.649441 20048 net.cpp:425] inception_4a/3x3 <- inception_4a/3x3_reduce
I0403 17:00:20.649462 20048 net.cpp:399] inception_4a/3x3 -> inception_4a/3x3
I0403 17:00:20.652120 20048 net.cpp:141] Setting up inception_4a/3x3
I0403 17:00:20.652149 20048 net.cpp:148] Top shape: 24 208 14 14 (978432)
I0403 17:00:20.652165 20048 net.cpp:156] Memory required for data: 869149728
I0403 17:00:20.652184 20048 layer_factory.hpp:77] Creating layer inception_4a/relu_3x3
I0403 17:00:20.652204 20048 net.cpp:91] Creating Layer inception_4a/relu_3x3
I0403 17:00:20.652221 20048 net.cpp:425] inception_4a/relu_3x3 <- inception_4a/3x3
I0403 17:00:20.652238 20048 net.cpp:386] inception_4a/relu_3x3 -> inception_4a/3x3 (in-place)
I0403 17:00:20.652513 20048 net.cpp:141] Setting up inception_4a/relu_3x3
I0403 17:00:20.652539 20048 net.cpp:148] Top shape: 24 208 14 14 (978432)
I0403 17:00:20.652555 20048 net.cpp:156] Memory required for data: 873063456
I0403 17:00:20.652573 20048 layer_factory.hpp:77] Creating layer inception_4a/5x5_reduce
I0403 17:00:20.652597 20048 net.cpp:91] Creating Layer inception_4a/5x5_reduce
I0403 17:00:20.652616 20048 net.cpp:425] inception_4a/5x5_reduce <- pool3/3x3_s2_pool3/3x3_s2_0_split_2
I0403 17:00:20.652637 20048 net.cpp:399] inception_4a/5x5_reduce -> inception_4a/5x5_reduce
I0403 17:00:20.653645 20048 net.cpp:141] Setting up inception_4a/5x5_reduce
I0403 17:00:20.653672 20048 net.cpp:148] Top shape: 24 16 14 14 (75264)
I0403 17:00:20.653688 20048 net.cpp:156] Memory required for data: 873364512
I0403 17:00:20.653707 20048 layer_factory.hpp:77] Creating layer inception_4a/relu_5x5_reduce
I0403 17:00:20.653726 20048 net.cpp:91] Creating Layer inception_4a/relu_5x5_reduce
I0403 17:00:20.653743 20048 net.cpp:425] inception_4a/relu_5x5_reduce <- inception_4a/5x5_reduce
I0403 17:00:20.653760 20048 net.cpp:386] inception_4a/relu_5x5_reduce -> inception_4a/5x5_reduce (in-place)
I0403 17:00:20.653935 20048 net.cpp:141] Setting up inception_4a/relu_5x5_reduce
I0403 17:00:20.653964 20048 net.cpp:148] Top shape: 24 16 14 14 (75264)
I0403 17:00:20.653980 20048 net.cpp:156] Memory required for data: 873665568
I0403 17:00:20.653995 20048 layer_factory.hpp:77] Creating layer inception_4a/5x5
I0403 17:00:20.654016 20048 net.cpp:91] Creating Layer inception_4a/5x5
I0403 17:00:20.654034 20048 net.cpp:425] inception_4a/5x5 <- inception_4a/5x5_reduce
I0403 17:00:20.654053 20048 net.cpp:399] inception_4a/5x5 -> inception_4a/5x5
I0403 17:00:20.655135 20048 net.cpp:141] Setting up inception_4a/5x5
I0403 17:00:20.655166 20048 net.cpp:148] Top shape: 24 48 14 14 (225792)
I0403 17:00:20.655182 20048 net.cpp:156] Memory required for data: 874568736
I0403 17:00:20.655201 20048 layer_factory.hpp:77] Creating layer inception_4a/relu_5x5
I0403 17:00:20.655220 20048 net.cpp:91] Creating Layer inception_4a/relu_5x5
I0403 17:00:20.655235 20048 net.cpp:425] inception_4a/relu_5x5 <- inception_4a/5x5
I0403 17:00:20.655253 20048 net.cpp:386] inception_4a/relu_5x5 -> inception_4a/5x5 (in-place)
I0403 17:00:20.655429 20048 net.cpp:141] Setting up inception_4a/relu_5x5
I0403 17:00:20.655455 20048 net.cpp:148] Top shape: 24 48 14 14 (225792)
I0403 17:00:20.655470 20048 net.cpp:156] Memory required for data: 875471904
I0403 17:00:20.655485 20048 layer_factory.hpp:77] Creating layer inception_4a/pool
I0403 17:00:20.655503 20048 net.cpp:91] Creating Layer inception_4a/pool
I0403 17:00:20.655519 20048 net.cpp:425] inception_4a/pool <- pool3/3x3_s2_pool3/3x3_s2_0_split_3
I0403 17:00:20.655539 20048 net.cpp:399] inception_4a/pool -> inception_4a/pool
I0403 17:00:20.655603 20048 net.cpp:141] Setting up inception_4a/pool
I0403 17:00:20.655630 20048 net.cpp:148] Top shape: 24 480 14 14 (2257920)
I0403 17:00:20.655645 20048 net.cpp:156] Memory required for data: 884503584
I0403 17:00:20.655660 20048 layer_factory.hpp:77] Creating layer inception_4a/pool_proj
I0403 17:00:20.655684 20048 net.cpp:91] Creating Layer inception_4a/pool_proj
I0403 17:00:20.655701 20048 net.cpp:425] inception_4a/pool_proj <- inception_4a/pool
I0403 17:00:20.655720 20048 net.cpp:399] inception_4a/pool_proj -> inception_4a/pool_proj
I0403 17:00:20.656879 20048 net.cpp:141] Setting up inception_4a/pool_proj
I0403 17:00:20.656909 20048 net.cpp:148] Top shape: 24 64 14 14 (301056)
I0403 17:00:20.656941 20048 net.cpp:156] Memory required for data: 885707808
I0403 17:00:20.656961 20048 layer_factory.hpp:77] Creating layer inception_4a/relu_pool_proj
I0403 17:00:20.656980 20048 net.cpp:91] Creating Layer inception_4a/relu_pool_proj
I0403 17:00:20.656994 20048 net.cpp:425] inception_4a/relu_pool_proj <- inception_4a/pool_proj
I0403 17:00:20.657016 20048 net.cpp:386] inception_4a/relu_pool_proj -> inception_4a/pool_proj (in-place)
I0403 17:00:20.657292 20048 net.cpp:141] Setting up inception_4a/relu_pool_proj
I0403 17:00:20.657321 20048 net.cpp:148] Top shape: 24 64 14 14 (301056)
I0403 17:00:20.657337 20048 net.cpp:156] Memory required for data: 886912032
I0403 17:00:20.657352 20048 layer_factory.hpp:77] Creating layer inception_4a/output
I0403 17:00:20.657369 20048 net.cpp:91] Creating Layer inception_4a/output
I0403 17:00:20.657385 20048 net.cpp:425] inception_4a/output <- inception_4a/1x1
I0403 17:00:20.657402 20048 net.cpp:425] inception_4a/output <- inception_4a/3x3
I0403 17:00:20.657416 20048 net.cpp:425] inception_4a/output <- inception_4a/5x5
I0403 17:00:20.657431 20048 net.cpp:425] inception_4a/output <- inception_4a/pool_proj
I0403 17:00:20.657450 20048 net.cpp:399] inception_4a/output -> inception_4a/output
I0403 17:00:20.657495 20048 net.cpp:141] Setting up inception_4a/output
I0403 17:00:20.657518 20048 net.cpp:148] Top shape: 24 512 14 14 (2408448)
I0403 17:00:20.657533 20048 net.cpp:156] Memory required for data: 896545824
I0403 17:00:20.657548 20048 layer_factory.hpp:77] Creating layer inception_4a/output_inception_4a/output_0_split
I0403 17:00:20.657572 20048 net.cpp:91] Creating Layer inception_4a/output_inception_4a/output_0_split
I0403 17:00:20.657589 20048 net.cpp:425] inception_4a/output_inception_4a/output_0_split <- inception_4a/output
I0403 17:00:20.657608 20048 net.cpp:399] inception_4a/output_inception_4a/output_0_split -> inception_4a/output_inception_4a/output_0_split_0
I0403 17:00:20.657630 20048 net.cpp:399] inception_4a/output_inception_4a/output_0_split -> inception_4a/output_inception_4a/output_0_split_1
I0403 17:00:20.657652 20048 net.cpp:399] inception_4a/output_inception_4a/output_0_split -> inception_4a/output_inception_4a/output_0_split_2
I0403 17:00:20.657675 20048 net.cpp:399] inception_4a/output_inception_4a/output_0_split -> inception_4a/output_inception_4a/output_0_split_3
I0403 17:00:20.657694 20048 net.cpp:399] inception_4a/output_inception_4a/output_0_split -> inception_4a/output_inception_4a/output_0_split_4
I0403 17:00:20.657791 20048 net.cpp:141] Setting up inception_4a/output_inception_4a/output_0_split
I0403 17:00:20.657815 20048 net.cpp:148] Top shape: 24 512 14 14 (2408448)
I0403 17:00:20.657832 20048 net.cpp:148] Top shape: 24 512 14 14 (2408448)
I0403 17:00:20.657848 20048 net.cpp:148] Top shape: 24 512 14 14 (2408448)
I0403 17:00:20.657865 20048 net.cpp:148] Top shape: 24 512 14 14 (2408448)
I0403 17:00:20.657881 20048 net.cpp:148] Top shape: 24 512 14 14 (2408448)
I0403 17:00:20.657907 20048 net.cpp:156] Memory required for data: 944714784
I0403 17:00:20.657922 20048 layer_factory.hpp:77] Creating layer loss1/ave_pool
I0403 17:00:20.657941 20048 net.cpp:91] Creating Layer loss1/ave_pool
I0403 17:00:20.657959 20048 net.cpp:425] loss1/ave_pool <- inception_4a/output_inception_4a/output_0_split_0
I0403 17:00:20.657979 20048 net.cpp:399] loss1/ave_pool -> loss1/ave_pool
I0403 17:00:20.658186 20048 net.cpp:141] Setting up loss1/ave_pool
I0403 17:00:20.658216 20048 net.cpp:148] Top shape: 24 512 4 4 (196608)
I0403 17:00:20.658232 20048 net.cpp:156] Memory required for data: 945501216
I0403 17:00:20.658248 20048 layer_factory.hpp:77] Creating layer loss1/conv
I0403 17:00:20.658272 20048 net.cpp:91] Creating Layer loss1/conv
I0403 17:00:20.658290 20048 net.cpp:425] loss1/conv <- loss1/ave_pool
I0403 17:00:20.658310 20048 net.cpp:399] loss1/conv -> loss1/conv
I0403 17:00:20.659771 20048 net.cpp:141] Setting up loss1/conv
I0403 17:00:20.659800 20048 net.cpp:148] Top shape: 24 128 4 4 (49152)
I0403 17:00:20.659829 20048 net.cpp:156] Memory required for data: 945697824
I0403 17:00:20.659848 20048 layer_factory.hpp:77] Creating layer loss1/relu_conv
I0403 17:00:20.659869 20048 net.cpp:91] Creating Layer loss1/relu_conv
I0403 17:00:20.659886 20048 net.cpp:425] loss1/relu_conv <- loss1/conv
I0403 17:00:20.659903 20048 net.cpp:386] loss1/relu_conv -> loss1/conv (in-place)
I0403 17:00:20.660186 20048 net.cpp:141] Setting up loss1/relu_conv
I0403 17:00:20.660212 20048 net.cpp:148] Top shape: 24 128 4 4 (49152)
I0403 17:00:20.660228 20048 net.cpp:156] Memory required for data: 945894432
I0403 17:00:20.660241 20048 layer_factory.hpp:77] Creating layer loss1/fc
I0403 17:00:20.660267 20048 net.cpp:91] Creating Layer loss1/fc
I0403 17:00:20.660286 20048 net.cpp:425] loss1/fc <- loss1/conv
I0403 17:00:20.660305 20048 net.cpp:399] loss1/fc -> loss1/fc
I0403 17:00:20.677736 20048 net.cpp:141] Setting up loss1/fc
I0403 17:00:20.677770 20048 net.cpp:148] Top shape: 24 1024 (24576)
I0403 17:00:20.677788 20048 net.cpp:156] Memory required for data: 945992736
I0403 17:00:20.677806 20048 layer_factory.hpp:77] Creating layer loss1/relu_fc
I0403 17:00:20.677825 20048 net.cpp:91] Creating Layer loss1/relu_fc
I0403 17:00:20.677842 20048 net.cpp:425] loss1/relu_fc <- loss1/fc
I0403 17:00:20.677862 20048 net.cpp:386] loss1/relu_fc -> loss1/fc (in-place)
I0403 17:00:20.678048 20048 net.cpp:141] Setting up loss1/relu_fc
I0403 17:00:20.678073 20048 net.cpp:148] Top shape: 24 1024 (24576)
I0403 17:00:20.678088 20048 net.cpp:156] Memory required for data: 946091040
I0403 17:00:20.678102 20048 layer_factory.hpp:77] Creating layer loss1/drop_fc
I0403 17:00:20.678128 20048 net.cpp:91] Creating Layer loss1/drop_fc
I0403 17:00:20.678144 20048 net.cpp:425] loss1/drop_fc <- loss1/fc
I0403 17:00:20.678164 20048 net.cpp:386] loss1/drop_fc -> loss1/fc (in-place)
I0403 17:00:20.678213 20048 net.cpp:141] Setting up loss1/drop_fc
I0403 17:00:20.678239 20048 net.cpp:148] Top shape: 24 1024 (24576)
I0403 17:00:20.678254 20048 net.cpp:156] Memory required for data: 946189344
I0403 17:00:20.678268 20048 layer_factory.hpp:77] Creating layer loss1/classifier_plantvillage
I0403 17:00:20.678287 20048 net.cpp:91] Creating Layer loss1/classifier_plantvillage
I0403 17:00:20.678303 20048 net.cpp:425] loss1/classifier_plantvillage <- loss1/fc
I0403 17:00:20.678323 20048 net.cpp:399] loss1/classifier_plantvillage -> loss1/classifier_plantvillage
I0403 17:00:20.679198 20048 net.cpp:141] Setting up loss1/classifier_plantvillage
I0403 17:00:20.679225 20048 net.cpp:148] Top shape: 24 38 (912)
I0403 17:00:20.679240 20048 net.cpp:156] Memory required for data: 946192992
I0403 17:00:20.679258 20048 layer_factory.hpp:77] Creating layer loss1/classifier_plantvillage_loss1/classifier_plantvillage_0_split
I0403 17:00:20.679276 20048 net.cpp:91] Creating Layer loss1/classifier_plantvillage_loss1/classifier_plantvillage_0_split
I0403 17:00:20.679293 20048 net.cpp:425] loss1/classifier_plantvillage_loss1/classifier_plantvillage_0_split <- loss1/classifier_plantvillage
I0403 17:00:20.679312 20048 net.cpp:399] loss1/classifier_plantvillage_loss1/classifier_plantvillage_0_split -> loss1/classifier_plantvillage_loss1/classifier_plantvillage_0_split_0
I0403 17:00:20.679333 20048 net.cpp:399] loss1/classifier_plantvillage_loss1/classifier_plantvillage_0_split -> loss1/classifier_plantvillage_loss1/classifier_plantvillage_0_split_1
I0403 17:00:20.679353 20048 net.cpp:399] loss1/classifier_plantvillage_loss1/classifier_plantvillage_0_split -> loss1/classifier_plantvillage_loss1/classifier_plantvillage_0_split_2
I0403 17:00:20.679420 20048 net.cpp:141] Setting up loss1/classifier_plantvillage_loss1/classifier_plantvillage_0_split
I0403 17:00:20.679443 20048 net.cpp:148] Top shape: 24 38 (912)
I0403 17:00:20.679460 20048 net.cpp:148] Top shape: 24 38 (912)
I0403 17:00:20.679474 20048 net.cpp:148] Top shape: 24 38 (912)
I0403 17:00:20.679488 20048 net.cpp:156] Memory required for data: 946203936
I0403 17:00:20.679502 20048 layer_factory.hpp:77] Creating layer inception_4b/1x1
I0403 17:00:20.679524 20048 net.cpp:91] Creating Layer inception_4b/1x1
I0403 17:00:20.679556 20048 net.cpp:425] inception_4b/1x1 <- inception_4a/output_inception_4a/output_0_split_1
I0403 17:00:20.679580 20048 net.cpp:399] inception_4b/1x1 -> inception_4b/1x1
I0403 17:00:20.681596 20048 net.cpp:141] Setting up inception_4b/1x1
I0403 17:00:20.681623 20048 net.cpp:148] Top shape: 24 160 14 14 (752640)
I0403 17:00:20.681639 20048 net.cpp:156] Memory required for data: 949214496
I0403 17:00:20.681658 20048 layer_factory.hpp:77] Creating layer inception_4b/relu_1x1
I0403 17:00:20.681677 20048 net.cpp:91] Creating Layer inception_4b/relu_1x1
I0403 17:00:20.681694 20048 net.cpp:425] inception_4b/relu_1x1 <- inception_4b/1x1
I0403 17:00:20.681710 20048 net.cpp:386] inception_4b/relu_1x1 -> inception_4b/1x1 (in-place)
I0403 17:00:20.681885 20048 net.cpp:141] Setting up inception_4b/relu_1x1
I0403 17:00:20.681912 20048 net.cpp:148] Top shape: 24 160 14 14 (752640)
I0403 17:00:20.681928 20048 net.cpp:156] Memory required for data: 952225056
I0403 17:00:20.681942 20048 layer_factory.hpp:77] Creating layer inception_4b/3x3_reduce
I0403 17:00:20.681964 20048 net.cpp:91] Creating Layer inception_4b/3x3_reduce
I0403 17:00:20.681982 20048 net.cpp:425] inception_4b/3x3_reduce <- inception_4a/output_inception_4a/output_0_split_2
I0403 17:00:20.681999 20048 net.cpp:399] inception_4b/3x3_reduce -> inception_4b/3x3_reduce
I0403 17:00:20.683313 20048 net.cpp:141] Setting up inception_4b/3x3_reduce
I0403 17:00:20.683343 20048 net.cpp:148] Top shape: 24 112 14 14 (526848)
I0403 17:00:20.683360 20048 net.cpp:156] Memory required for data: 954332448
I0403 17:00:20.683379 20048 layer_factory.hpp:77] Creating layer inception_4b/relu_3x3_reduce
I0403 17:00:20.683398 20048 net.cpp:91] Creating Layer inception_4b/relu_3x3_reduce
I0403 17:00:20.683413 20048 net.cpp:425] inception_4b/relu_3x3_reduce <- inception_4b/3x3_reduce
I0403 17:00:20.683429 20048 net.cpp:386] inception_4b/relu_3x3_reduce -> inception_4b/3x3_reduce (in-place)
I0403 17:00:20.683711 20048 net.cpp:141] Setting up inception_4b/relu_3x3_reduce
I0403 17:00:20.683739 20048 net.cpp:148] Top shape: 24 112 14 14 (526848)
I0403 17:00:20.683754 20048 net.cpp:156] Memory required for data: 956439840
I0403 17:00:20.683769 20048 layer_factory.hpp:77] Creating layer inception_4b/3x3
I0403 17:00:20.683790 20048 net.cpp:91] Creating Layer inception_4b/3x3
I0403 17:00:20.683809 20048 net.cpp:425] inception_4b/3x3 <- inception_4b/3x3_reduce
I0403 17:00:20.683826 20048 net.cpp:399] inception_4b/3x3 -> inception_4b/3x3
I0403 17:00:20.687126 20048 net.cpp:141] Setting up inception_4b/3x3
I0403 17:00:20.687155 20048 net.cpp:148] Top shape: 24 224 14 14 (1053696)
I0403 17:00:20.687171 20048 net.cpp:156] Memory required for data: 960654624
I0403 17:00:20.687189 20048 layer_factory.hpp:77] Creating layer inception_4b/relu_3x3
I0403 17:00:20.687206 20048 net.cpp:91] Creating Layer inception_4b/relu_3x3
I0403 17:00:20.687222 20048 net.cpp:425] inception_4b/relu_3x3 <- inception_4b/3x3
I0403 17:00:20.687242 20048 net.cpp:386] inception_4b/relu_3x3 -> inception_4b/3x3 (in-place)
I0403 17:00:20.687417 20048 net.cpp:141] Setting up inception_4b/relu_3x3
I0403 17:00:20.687441 20048 net.cpp:148] Top shape: 24 224 14 14 (1053696)
I0403 17:00:20.687456 20048 net.cpp:156] Memory required for data: 964869408
I0403 17:00:20.687470 20048 layer_factory.hpp:77] Creating layer inception_4b/5x5_reduce
I0403 17:00:20.687491 20048 net.cpp:91] Creating Layer inception_4b/5x5_reduce
I0403 17:00:20.687508 20048 net.cpp:425] inception_4b/5x5_reduce <- inception_4a/output_inception_4a/output_0_split_3
I0403 17:00:20.687530 20048 net.cpp:399] inception_4b/5x5_reduce -> inception_4b/5x5_reduce
I0403 17:00:20.688601 20048 net.cpp:141] Setting up inception_4b/5x5_reduce
I0403 17:00:20.688627 20048 net.cpp:148] Top shape: 24 24 14 14 (112896)
I0403 17:00:20.688643 20048 net.cpp:156] Memory required for data: 965320992
I0403 17:00:20.688662 20048 layer_factory.hpp:77] Creating layer inception_4b/relu_5x5_reduce
I0403 17:00:20.688681 20048 net.cpp:91] Creating Layer inception_4b/relu_5x5_reduce
I0403 17:00:20.688712 20048 net.cpp:425] inception_4b/relu_5x5_reduce <- inception_4b/5x5_reduce
I0403 17:00:20.688730 20048 net.cpp:386] inception_4b/relu_5x5_reduce -> inception_4b/5x5_reduce (in-place)
I0403 17:00:20.688908 20048 net.cpp:141] Setting up inception_4b/relu_5x5_reduce
I0403 17:00:20.688936 20048 net.cpp:148] Top shape: 24 24 14 14 (112896)
I0403 17:00:20.688951 20048 net.cpp:156] Memory required for data: 965772576
I0403 17:00:20.688966 20048 layer_factory.hpp:77] Creating layer inception_4b/5x5
I0403 17:00:20.688987 20048 net.cpp:91] Creating Layer inception_4b/5x5
I0403 17:00:20.689004 20048 net.cpp:425] inception_4b/5x5 <- inception_4b/5x5_reduce
I0403 17:00:20.689023 20048 net.cpp:399] inception_4b/5x5 -> inception_4b/5x5
I0403 17:00:20.690218 20048 net.cpp:141] Setting up inception_4b/5x5
I0403 17:00:20.690246 20048 net.cpp:148] Top shape: 24 64 14 14 (301056)
I0403 17:00:20.690263 20048 net.cpp:156] Memory required for data: 966976800
I0403 17:00:20.690279 20048 layer_factory.hpp:77] Creating layer inception_4b/relu_5x5
I0403 17:00:20.690301 20048 net.cpp:91] Creating Layer inception_4b/relu_5x5
I0403 17:00:20.690318 20048 net.cpp:425] inception_4b/relu_5x5 <- inception_4b/5x5
I0403 17:00:20.690335 20048 net.cpp:386] inception_4b/relu_5x5 -> inception_4b/5x5 (in-place)
I0403 17:00:20.690620 20048 net.cpp:141] Setting up inception_4b/relu_5x5
I0403 17:00:20.690646 20048 net.cpp:148] Top shape: 24 64 14 14 (301056)
I0403 17:00:20.690661 20048 net.cpp:156] Memory required for data: 968181024
I0403 17:00:20.690676 20048 layer_factory.hpp:77] Creating layer inception_4b/pool
I0403 17:00:20.690697 20048 net.cpp:91] Creating Layer inception_4b/pool
I0403 17:00:20.690716 20048 net.cpp:425] inception_4b/pool <- inception_4a/output_inception_4a/output_0_split_4
I0403 17:00:20.690732 20048 net.cpp:399] inception_4b/pool -> inception_4b/pool
I0403 17:00:20.690795 20048 net.cpp:141] Setting up inception_4b/pool
I0403 17:00:20.690819 20048 net.cpp:148] Top shape: 24 512 14 14 (2408448)
I0403 17:00:20.690834 20048 net.cpp:156] Memory required for data: 977814816
I0403 17:00:20.690848 20048 layer_factory.hpp:77] Creating layer inception_4b/pool_proj
I0403 17:00:20.690870 20048 net.cpp:91] Creating Layer inception_4b/pool_proj
I0403 17:00:20.690887 20048 net.cpp:425] inception_4b/pool_proj <- inception_4b/pool
I0403 17:00:20.690907 20048 net.cpp:399] inception_4b/pool_proj -> inception_4b/pool_proj
I0403 17:00:20.692080 20048 net.cpp:141] Setting up inception_4b/pool_proj
I0403 17:00:20.692107 20048 net.cpp:148] Top shape: 24 64 14 14 (301056)
I0403 17:00:20.692123 20048 net.cpp:156] Memory required for data: 979019040
I0403 17:00:20.692142 20048 layer_factory.hpp:77] Creating layer inception_4b/relu_pool_proj
I0403 17:00:20.692160 20048 net.cpp:91] Creating Layer inception_4b/relu_pool_proj
I0403 17:00:20.692178 20048 net.cpp:425] inception_4b/relu_pool_proj <- inception_4b/pool_proj
I0403 17:00:20.692194 20048 net.cpp:386] inception_4b/relu_pool_proj -> inception_4b/pool_proj (in-place)
I0403 17:00:20.692366 20048 net.cpp:141] Setting up inception_4b/relu_pool_proj
I0403 17:00:20.692394 20048 net.cpp:148] Top shape: 24 64 14 14 (301056)
I0403 17:00:20.692409 20048 net.cpp:156] Memory required for data: 980223264
I0403 17:00:20.692425 20048 layer_factory.hpp:77] Creating layer inception_4b/output
I0403 17:00:20.692440 20048 net.cpp:91] Creating Layer inception_4b/output
I0403 17:00:20.692456 20048 net.cpp:425] inception_4b/output <- inception_4b/1x1
I0403 17:00:20.692472 20048 net.cpp:425] inception_4b/output <- inception_4b/3x3
I0403 17:00:20.692488 20048 net.cpp:425] inception_4b/output <- inception_4b/5x5
I0403 17:00:20.692503 20048 net.cpp:425] inception_4b/output <- inception_4b/pool_proj
I0403 17:00:20.692518 20048 net.cpp:399] inception_4b/output -> inception_4b/output
I0403 17:00:20.692564 20048 net.cpp:141] Setting up inception_4b/output
I0403 17:00:20.692591 20048 net.cpp:148] Top shape: 24 512 14 14 (2408448)
I0403 17:00:20.692606 20048 net.cpp:156] Memory required for data: 989857056
I0403 17:00:20.692636 20048 layer_factory.hpp:77] Creating layer inception_4b/output_inception_4b/output_0_split
I0403 17:00:20.692654 20048 net.cpp:91] Creating Layer inception_4b/output_inception_4b/output_0_split
I0403 17:00:20.692672 20048 net.cpp:425] inception_4b/output_inception_4b/output_0_split <- inception_4b/output
I0403 17:00:20.692688 20048 net.cpp:399] inception_4b/output_inception_4b/output_0_split -> inception_4b/output_inception_4b/output_0_split_0
I0403 17:00:20.692708 20048 net.cpp:399] inception_4b/output_inception_4b/output_0_split -> inception_4b/output_inception_4b/output_0_split_1
I0403 17:00:20.692728 20048 net.cpp:399] inception_4b/output_inception_4b/output_0_split -> inception_4b/output_inception_4b/output_0_split_2
I0403 17:00:20.692750 20048 net.cpp:399] inception_4b/output_inception_4b/output_0_split -> inception_4b/output_inception_4b/output_0_split_3
I0403 17:00:20.692837 20048 net.cpp:141] Setting up inception_4b/output_inception_4b/output_0_split
I0403 17:00:20.692860 20048 net.cpp:148] Top shape: 24 512 14 14 (2408448)
I0403 17:00:20.692878 20048 net.cpp:148] Top shape: 24 512 14 14 (2408448)
I0403 17:00:20.692893 20048 net.cpp:148] Top shape: 24 512 14 14 (2408448)
I0403 17:00:20.692908 20048 net.cpp:148] Top shape: 24 512 14 14 (2408448)
I0403 17:00:20.692921 20048 net.cpp:156] Memory required for data: 1028392224
I0403 17:00:20.692936 20048 layer_factory.hpp:77] Creating layer inception_4c/1x1
I0403 17:00:20.692957 20048 net.cpp:91] Creating Layer inception_4c/1x1
I0403 17:00:20.692973 20048 net.cpp:425] inception_4c/1x1 <- inception_4b/output_inception_4b/output_0_split_0
I0403 17:00:20.692993 20048 net.cpp:399] inception_4c/1x1 -> inception_4c/1x1
I0403 17:00:20.694381 20048 net.cpp:141] Setting up inception_4c/1x1
I0403 17:00:20.694411 20048 net.cpp:148] Top shape: 24 128 14 14 (602112)
I0403 17:00:20.694427 20048 net.cpp:156] Memory required for data: 1030800672
I0403 17:00:20.694444 20048 layer_factory.hpp:77] Creating layer inception_4c/relu_1x1
I0403 17:00:20.694461 20048 net.cpp:91] Creating Layer inception_4c/relu_1x1
I0403 17:00:20.694476 20048 net.cpp:425] inception_4c/relu_1x1 <- inception_4c/1x1
I0403 17:00:20.694495 20048 net.cpp:386] inception_4c/relu_1x1 -> inception_4c/1x1 (in-place)
I0403 17:00:20.694681 20048 net.cpp:141] Setting up inception_4c/relu_1x1
I0403 17:00:20.694707 20048 net.cpp:148] Top shape: 24 128 14 14 (602112)
I0403 17:00:20.694721 20048 net.cpp:156] Memory required for data: 1033209120
I0403 17:00:20.694736 20048 layer_factory.hpp:77] Creating layer inception_4c/3x3_reduce
I0403 17:00:20.694756 20048 net.cpp:91] Creating Layer inception_4c/3x3_reduce
I0403 17:00:20.694773 20048 net.cpp:425] inception_4c/3x3_reduce <- inception_4b/output_inception_4b/output_0_split_1
I0403 17:00:20.694797 20048 net.cpp:399] inception_4c/3x3_reduce -> inception_4c/3x3_reduce
I0403 17:00:20.696682 20048 net.cpp:141] Setting up inception_4c/3x3_reduce
I0403 17:00:20.696710 20048 net.cpp:148] Top shape: 24 128 14 14 (602112)
I0403 17:00:20.696727 20048 net.cpp:156] Memory required for data: 1035617568
I0403 17:00:20.696744 20048 layer_factory.hpp:77] Creating layer inception_4c/relu_3x3_reduce
I0403 17:00:20.696764 20048 net.cpp:91] Creating Layer inception_4c/relu_3x3_reduce
I0403 17:00:20.696780 20048 net.cpp:425] inception_4c/relu_3x3_reduce <- inception_4c/3x3_reduce
I0403 17:00:20.696797 20048 net.cpp:386] inception_4c/relu_3x3_reduce -> inception_4c/3x3_reduce (in-place)
I0403 17:00:20.697075 20048 net.cpp:141] Setting up inception_4c/relu_3x3_reduce
I0403 17:00:20.697103 20048 net.cpp:148] Top shape: 24 128 14 14 (602112)
I0403 17:00:20.697118 20048 net.cpp:156] Memory required for data: 1038026016
I0403 17:00:20.697132 20048 layer_factory.hpp:77] Creating layer inception_4c/3x3
I0403 17:00:20.697154 20048 net.cpp:91] Creating Layer inception_4c/3x3
I0403 17:00:20.697170 20048 net.cpp:425] inception_4c/3x3 <- inception_4c/3x3_reduce
I0403 17:00:20.697190 20048 net.cpp:399] inception_4c/3x3 -> inception_4c/3x3
I0403 17:00:20.700676 20048 net.cpp:141] Setting up inception_4c/3x3
I0403 17:00:20.700716 20048 net.cpp:148] Top shape: 24 256 14 14 (1204224)
I0403 17:00:20.700732 20048 net.cpp:156] Memory required for data: 1042842912
I0403 17:00:20.700763 20048 layer_factory.hpp:77] Creating layer inception_4c/relu_3x3
I0403 17:00:20.700785 20048 net.cpp:91] Creating Layer inception_4c/relu_3x3
I0403 17:00:20.700803 20048 net.cpp:425] inception_4c/relu_3x3 <- inception_4c/3x3
I0403 17:00:20.700820 20048 net.cpp:386] inception_4c/relu_3x3 -> inception_4c/3x3 (in-place)
I0403 17:00:20.700996 20048 net.cpp:141] Setting up inception_4c/relu_3x3
I0403 17:00:20.701021 20048 net.cpp:148] Top shape: 24 256 14 14 (1204224)
I0403 17:00:20.701035 20048 net.cpp:156] Memory required for data: 1047659808
I0403 17:00:20.701050 20048 layer_factory.hpp:77] Creating layer inception_4c/5x5_reduce
I0403 17:00:20.701071 20048 net.cpp:91] Creating Layer inception_4c/5x5_reduce
I0403 17:00:20.701088 20048 net.cpp:425] inception_4c/5x5_reduce <- inception_4b/output_inception_4b/output_0_split_2
I0403 17:00:20.701109 20048 net.cpp:399] inception_4c/5x5_reduce -> inception_4c/5x5_reduce
I0403 17:00:20.702173 20048 net.cpp:141] Setting up inception_4c/5x5_reduce
I0403 17:00:20.702200 20048 net.cpp:148] Top shape: 24 24 14 14 (112896)
I0403 17:00:20.702216 20048 net.cpp:156] Memory required for data: 1048111392
I0403 17:00:20.702234 20048 layer_factory.hpp:77] Creating layer inception_4c/relu_5x5_reduce
I0403 17:00:20.702253 20048 net.cpp:91] Creating Layer inception_4c/relu_5x5_reduce
I0403 17:00:20.702270 20048 net.cpp:425] inception_4c/relu_5x5_reduce <- inception_4c/5x5_reduce
I0403 17:00:20.702286 20048 net.cpp:386] inception_4c/relu_5x5_reduce -> inception_4c/5x5_reduce (in-place)
I0403 17:00:20.702466 20048 net.cpp:141] Setting up inception_4c/relu_5x5_reduce
I0403 17:00:20.702493 20048 net.cpp:148] Top shape: 24 24 14 14 (112896)
I0403 17:00:20.702508 20048 net.cpp:156] Memory required for data: 1048562976
I0403 17:00:20.702523 20048 layer_factory.hpp:77] Creating layer inception_4c/5x5
I0403 17:00:20.702545 20048 net.cpp:91] Creating Layer inception_4c/5x5
I0403 17:00:20.702563 20048 net.cpp:425] inception_4c/5x5 <- inception_4c/5x5_reduce
I0403 17:00:20.702585 20048 net.cpp:399] inception_4c/5x5 -> inception_4c/5x5
I0403 17:00:20.703837 20048 net.cpp:141] Setting up inception_4c/5x5
I0403 17:00:20.703867 20048 net.cpp:148] Top shape: 24 64 14 14 (301056)
I0403 17:00:20.703883 20048 net.cpp:156] Memory required for data: 1049767200
I0403 17:00:20.703902 20048 layer_factory.hpp:77] Creating layer inception_4c/relu_5x5
I0403 17:00:20.703918 20048 net.cpp:91] Creating Layer inception_4c/relu_5x5
I0403 17:00:20.703934 20048 net.cpp:425] inception_4c/relu_5x5 <- inception_4c/5x5
I0403 17:00:20.703953 20048 net.cpp:386] inception_4c/relu_5x5 -> inception_4c/5x5 (in-place)
I0403 17:00:20.704241 20048 net.cpp:141] Setting up inception_4c/relu_5x5
I0403 17:00:20.704268 20048 net.cpp:148] Top shape: 24 64 14 14 (301056)
I0403 17:00:20.704284 20048 net.cpp:156] Memory required for data: 1050971424
I0403 17:00:20.704299 20048 layer_factory.hpp:77] Creating layer inception_4c/pool
I0403 17:00:20.704316 20048 net.cpp:91] Creating Layer inception_4c/pool
I0403 17:00:20.704332 20048 net.cpp:425] inception_4c/pool <- inception_4b/output_inception_4b/output_0_split_3
I0403 17:00:20.704352 20048 net.cpp:399] inception_4c/pool -> inception_4c/pool
I0403 17:00:20.704416 20048 net.cpp:141] Setting up inception_4c/pool
I0403 17:00:20.704438 20048 net.cpp:148] Top shape: 24 512 14 14 (2408448)
I0403 17:00:20.704452 20048 net.cpp:156] Memory required for data: 1060605216
I0403 17:00:20.704466 20048 layer_factory.hpp:77] Creating layer inception_4c/pool_proj
I0403 17:00:20.704488 20048 net.cpp:91] Creating Layer inception_4c/pool_proj
I0403 17:00:20.704506 20048 net.cpp:425] inception_4c/pool_proj <- inception_4c/pool
I0403 17:00:20.704524 20048 net.cpp:399] inception_4c/pool_proj -> inception_4c/pool_proj
I0403 17:00:20.705727 20048 net.cpp:141] Setting up inception_4c/pool_proj
I0403 17:00:20.705754 20048 net.cpp:148] Top shape: 24 64 14 14 (301056)
I0403 17:00:20.705783 20048 net.cpp:156] Memory required for data: 1061809440
I0403 17:00:20.705801 20048 layer_factory.hpp:77] Creating layer inception_4c/relu_pool_proj
I0403 17:00:20.705821 20048 net.cpp:91] Creating Layer inception_4c/relu_pool_proj
I0403 17:00:20.705837 20048 net.cpp:425] inception_4c/relu_pool_proj <- inception_4c/pool_proj
I0403 17:00:20.705853 20048 net.cpp:386] inception_4c/relu_pool_proj -> inception_4c/pool_proj (in-place)
I0403 17:00:20.706029 20048 net.cpp:141] Setting up inception_4c/relu_pool_proj
I0403 17:00:20.706056 20048 net.cpp:148] Top shape: 24 64 14 14 (301056)
I0403 17:00:20.706071 20048 net.cpp:156] Memory required for data: 1063013664
I0403 17:00:20.706085 20048 layer_factory.hpp:77] Creating layer inception_4c/output
I0403 17:00:20.706101 20048 net.cpp:91] Creating Layer inception_4c/output
I0403 17:00:20.706116 20048 net.cpp:425] inception_4c/output <- inception_4c/1x1
I0403 17:00:20.706131 20048 net.cpp:425] inception_4c/output <- inception_4c/3x3
I0403 17:00:20.706146 20048 net.cpp:425] inception_4c/output <- inception_4c/5x5
I0403 17:00:20.706161 20048 net.cpp:425] inception_4c/output <- inception_4c/pool_proj
I0403 17:00:20.706177 20048 net.cpp:399] inception_4c/output -> inception_4c/output
I0403 17:00:20.706224 20048 net.cpp:141] Setting up inception_4c/output
I0403 17:00:20.706248 20048 net.cpp:148] Top shape: 24 512 14 14 (2408448)
I0403 17:00:20.706261 20048 net.cpp:156] Memory required for data: 1072647456
I0403 17:00:20.706275 20048 layer_factory.hpp:77] Creating layer inception_4c/output_inception_4c/output_0_split
I0403 17:00:20.706293 20048 net.cpp:91] Creating Layer inception_4c/output_inception_4c/output_0_split
I0403 17:00:20.706310 20048 net.cpp:425] inception_4c/output_inception_4c/output_0_split <- inception_4c/output
I0403 17:00:20.706326 20048 net.cpp:399] inception_4c/output_inception_4c/output_0_split -> inception_4c/output_inception_4c/output_0_split_0
I0403 17:00:20.706346 20048 net.cpp:399] inception_4c/output_inception_4c/output_0_split -> inception_4c/output_inception_4c/output_0_split_1
I0403 17:00:20.706365 20048 net.cpp:399] inception_4c/output_inception_4c/output_0_split -> inception_4c/output_inception_4c/output_0_split_2
I0403 17:00:20.706385 20048 net.cpp:399] inception_4c/output_inception_4c/output_0_split -> inception_4c/output_inception_4c/output_0_split_3
I0403 17:00:20.706470 20048 net.cpp:141] Setting up inception_4c/output_inception_4c/output_0_split
I0403 17:00:20.706492 20048 net.cpp:148] Top shape: 24 512 14 14 (2408448)
I0403 17:00:20.706508 20048 net.cpp:148] Top shape: 24 512 14 14 (2408448)
I0403 17:00:20.706523 20048 net.cpp:148] Top shape: 24 512 14 14 (2408448)
I0403 17:00:20.706538 20048 net.cpp:148] Top shape: 24 512 14 14 (2408448)
I0403 17:00:20.706552 20048 net.cpp:156] Memory required for data: 1111182624
I0403 17:00:20.706565 20048 layer_factory.hpp:77] Creating layer inception_4d/1x1
I0403 17:00:20.706593 20048 net.cpp:91] Creating Layer inception_4d/1x1
I0403 17:00:20.706610 20048 net.cpp:425] inception_4d/1x1 <- inception_4c/output_inception_4c/output_0_split_0
I0403 17:00:20.706630 20048 net.cpp:399] inception_4d/1x1 -> inception_4d/1x1
I0403 17:00:20.707974 20048 net.cpp:141] Setting up inception_4d/1x1
I0403 17:00:20.708001 20048 net.cpp:148] Top shape: 24 112 14 14 (526848)
I0403 17:00:20.708016 20048 net.cpp:156] Memory required for data: 1113290016
I0403 17:00:20.708034 20048 layer_factory.hpp:77] Creating layer inception_4d/relu_1x1
I0403 17:00:20.708051 20048 net.cpp:91] Creating Layer inception_4d/relu_1x1
I0403 17:00:20.708066 20048 net.cpp:425] inception_4d/relu_1x1 <- inception_4d/1x1
I0403 17:00:20.708086 20048 net.cpp:386] inception_4d/relu_1x1 -> inception_4d/1x1 (in-place)
I0403 17:00:20.708266 20048 net.cpp:141] Setting up inception_4d/relu_1x1
I0403 17:00:20.708290 20048 net.cpp:148] Top shape: 24 112 14 14 (526848)
I0403 17:00:20.708304 20048 net.cpp:156] Memory required for data: 1115397408
I0403 17:00:20.708319 20048 layer_factory.hpp:77] Creating layer inception_4d/3x3_reduce
I0403 17:00:20.708354 20048 net.cpp:91] Creating Layer inception_4d/3x3_reduce
I0403 17:00:20.708372 20048 net.cpp:425] inception_4d/3x3_reduce <- inception_4c/output_inception_4c/output_0_split_1
I0403 17:00:20.708392 20048 net.cpp:399] inception_4d/3x3_reduce -> inception_4d/3x3_reduce
I0403 17:00:20.709859 20048 net.cpp:141] Setting up inception_4d/3x3_reduce
I0403 17:00:20.709888 20048 net.cpp:148] Top shape: 24 144 14 14 (677376)
I0403 17:00:20.709904 20048 net.cpp:156] Memory required for data: 1118106912
I0403 17:00:20.709923 20048 layer_factory.hpp:77] Creating layer inception_4d/relu_3x3_reduce
I0403 17:00:20.709940 20048 net.cpp:91] Creating Layer inception_4d/relu_3x3_reduce
I0403 17:00:20.709956 20048 net.cpp:425] inception_4d/relu_3x3_reduce <- inception_4d/3x3_reduce
I0403 17:00:20.709975 20048 net.cpp:386] inception_4d/relu_3x3_reduce -> inception_4d/3x3_reduce (in-place)
I0403 17:00:20.710253 20048 net.cpp:141] Setting up inception_4d/relu_3x3_reduce
I0403 17:00:20.710281 20048 net.cpp:148] Top shape: 24 144 14 14 (677376)
I0403 17:00:20.710299 20048 net.cpp:156] Memory required for data: 1120816416
I0403 17:00:20.710312 20048 layer_factory.hpp:77] Creating layer inception_4d/3x3
I0403 17:00:20.710333 20048 net.cpp:91] Creating Layer inception_4d/3x3
I0403 17:00:20.710351 20048 net.cpp:425] inception_4d/3x3 <- inception_4d/3x3_reduce
I0403 17:00:20.710369 20048 net.cpp:399] inception_4d/3x3 -> inception_4d/3x3
I0403 17:00:20.714498 20048 net.cpp:141] Setting up inception_4d/3x3
I0403 17:00:20.714529 20048 net.cpp:148] Top shape: 24 288 14 14 (1354752)
I0403 17:00:20.714545 20048 net.cpp:156] Memory required for data: 1126235424
I0403 17:00:20.714562 20048 layer_factory.hpp:77] Creating layer inception_4d/relu_3x3
I0403 17:00:20.714593 20048 net.cpp:91] Creating Layer inception_4d/relu_3x3
I0403 17:00:20.714612 20048 net.cpp:425] inception_4d/relu_3x3 <- inception_4d/3x3
I0403 17:00:20.714628 20048 net.cpp:386] inception_4d/relu_3x3 -> inception_4d/3x3 (in-place)
I0403 17:00:20.714804 20048 net.cpp:141] Setting up inception_4d/relu_3x3
I0403 17:00:20.714829 20048 net.cpp:148] Top shape: 24 288 14 14 (1354752)
I0403 17:00:20.714844 20048 net.cpp:156] Memory required for data: 1131654432
I0403 17:00:20.714859 20048 layer_factory.hpp:77] Creating layer inception_4d/5x5_reduce
I0403 17:00:20.714880 20048 net.cpp:91] Creating Layer inception_4d/5x5_reduce
I0403 17:00:20.714898 20048 net.cpp:425] inception_4d/5x5_reduce <- inception_4c/output_inception_4c/output_0_split_2
I0403 17:00:20.714916 20048 net.cpp:399] inception_4d/5x5_reduce -> inception_4d/5x5_reduce
I0403 17:00:20.716034 20048 net.cpp:141] Setting up inception_4d/5x5_reduce
I0403 17:00:20.716061 20048 net.cpp:148] Top shape: 24 32 14 14 (150528)
I0403 17:00:20.716078 20048 net.cpp:156] Memory required for data: 1132256544
I0403 17:00:20.716095 20048 layer_factory.hpp:77] Creating layer inception_4d/relu_5x5_reduce
I0403 17:00:20.716112 20048 net.cpp:91] Creating Layer inception_4d/relu_5x5_reduce
I0403 17:00:20.716130 20048 net.cpp:425] inception_4d/relu_5x5_reduce <- inception_4d/5x5_reduce
I0403 17:00:20.716147 20048 net.cpp:386] inception_4d/relu_5x5_reduce -> inception_4d/5x5_reduce (in-place)
I0403 17:00:20.716331 20048 net.cpp:141] Setting up inception_4d/relu_5x5_reduce
I0403 17:00:20.716356 20048 net.cpp:148] Top shape: 24 32 14 14 (150528)
I0403 17:00:20.716370 20048 net.cpp:156] Memory required for data: 1132858656
I0403 17:00:20.716385 20048 layer_factory.hpp:77] Creating layer inception_4d/5x5
I0403 17:00:20.716408 20048 net.cpp:91] Creating Layer inception_4d/5x5
I0403 17:00:20.716424 20048 net.cpp:425] inception_4d/5x5 <- inception_4d/5x5_reduce
I0403 17:00:20.716444 20048 net.cpp:399] inception_4d/5x5 -> inception_4d/5x5
I0403 17:00:20.717880 20048 net.cpp:141] Setting up inception_4d/5x5
I0403 17:00:20.717910 20048 net.cpp:148] Top shape: 24 64 14 14 (301056)
I0403 17:00:20.717926 20048 net.cpp:156] Memory required for data: 1134062880
I0403 17:00:20.717944 20048 layer_factory.hpp:77] Creating layer inception_4d/relu_5x5
I0403 17:00:20.717977 20048 net.cpp:91] Creating Layer inception_4d/relu_5x5
I0403 17:00:20.717993 20048 net.cpp:425] inception_4d/relu_5x5 <- inception_4d/5x5
I0403 17:00:20.718009 20048 net.cpp:386] inception_4d/relu_5x5 -> inception_4d/5x5 (in-place)
I0403 17:00:20.718298 20048 net.cpp:141] Setting up inception_4d/relu_5x5
I0403 17:00:20.718327 20048 net.cpp:148] Top shape: 24 64 14 14 (301056)
I0403 17:00:20.718343 20048 net.cpp:156] Memory required for data: 1135267104
I0403 17:00:20.718358 20048 layer_factory.hpp:77] Creating layer inception_4d/pool
I0403 17:00:20.718375 20048 net.cpp:91] Creating Layer inception_4d/pool
I0403 17:00:20.718390 20048 net.cpp:425] inception_4d/pool <- inception_4c/output_inception_4c/output_0_split_3
I0403 17:00:20.718408 20048 net.cpp:399] inception_4d/pool -> inception_4d/pool
I0403 17:00:20.718473 20048 net.cpp:141] Setting up inception_4d/pool
I0403 17:00:20.718497 20048 net.cpp:148] Top shape: 24 512 14 14 (2408448)
I0403 17:00:20.718511 20048 net.cpp:156] Memory required for data: 1144900896
I0403 17:00:20.718524 20048 layer_factory.hpp:77] Creating layer inception_4d/pool_proj
I0403 17:00:20.718545 20048 net.cpp:91] Creating Layer inception_4d/pool_proj
I0403 17:00:20.718562 20048 net.cpp:425] inception_4d/pool_proj <- inception_4d/pool
I0403 17:00:20.718588 20048 net.cpp:399] inception_4d/pool_proj -> inception_4d/pool_proj
I0403 17:00:20.720316 20048 net.cpp:141] Setting up inception_4d/pool_proj
I0403 17:00:20.720345 20048 net.cpp:148] Top shape: 24 64 14 14 (301056)
I0403 17:00:20.720360 20048 net.cpp:156] Memory required for data: 1146105120
I0403 17:00:20.720377 20048 layer_factory.hpp:77] Creating layer inception_4d/relu_pool_proj
I0403 17:00:20.720397 20048 net.cpp:91] Creating Layer inception_4d/relu_pool_proj
I0403 17:00:20.720413 20048 net.cpp:425] inception_4d/relu_pool_proj <- inception_4d/pool_proj
I0403 17:00:20.720430 20048 net.cpp:386] inception_4d/relu_pool_proj -> inception_4d/pool_proj (in-place)
I0403 17:00:20.720613 20048 net.cpp:141] Setting up inception_4d/relu_pool_proj
I0403 17:00:20.720638 20048 net.cpp:148] Top shape: 24 64 14 14 (301056)
I0403 17:00:20.720652 20048 net.cpp:156] Memory required for data: 1147309344
I0403 17:00:20.720667 20048 layer_factory.hpp:77] Creating layer inception_4d/output
I0403 17:00:20.720685 20048 net.cpp:91] Creating Layer inception_4d/output
I0403 17:00:20.720701 20048 net.cpp:425] inception_4d/output <- inception_4d/1x1
I0403 17:00:20.720717 20048 net.cpp:425] inception_4d/output <- inception_4d/3x3
I0403 17:00:20.720733 20048 net.cpp:425] inception_4d/output <- inception_4d/5x5
I0403 17:00:20.720748 20048 net.cpp:425] inception_4d/output <- inception_4d/pool_proj
I0403 17:00:20.720764 20048 net.cpp:399] inception_4d/output -> inception_4d/output
I0403 17:00:20.720811 20048 net.cpp:141] Setting up inception_4d/output
I0403 17:00:20.720834 20048 net.cpp:148] Top shape: 24 528 14 14 (2483712)
I0403 17:00:20.720849 20048 net.cpp:156] Memory required for data: 1157244192
I0403 17:00:20.720863 20048 layer_factory.hpp:77] Creating layer inception_4d/output_inception_4d/output_0_split
I0403 17:00:20.720880 20048 net.cpp:91] Creating Layer inception_4d/output_inception_4d/output_0_split
I0403 17:00:20.720896 20048 net.cpp:425] inception_4d/output_inception_4d/output_0_split <- inception_4d/output
I0403 17:00:20.720916 20048 net.cpp:399] inception_4d/output_inception_4d/output_0_split -> inception_4d/output_inception_4d/output_0_split_0
I0403 17:00:20.720937 20048 net.cpp:399] inception_4d/output_inception_4d/output_0_split -> inception_4d/output_inception_4d/output_0_split_1
I0403 17:00:20.720957 20048 net.cpp:399] inception_4d/output_inception_4d/output_0_split -> inception_4d/output_inception_4d/output_0_split_2
I0403 17:00:20.720978 20048 net.cpp:399] inception_4d/output_inception_4d/output_0_split -> inception_4d/output_inception_4d/output_0_split_3
I0403 17:00:20.721002 20048 net.cpp:399] inception_4d/output_inception_4d/output_0_split -> inception_4d/output_inception_4d/output_0_split_4
I0403 17:00:20.721102 20048 net.cpp:141] Setting up inception_4d/output_inception_4d/output_0_split
I0403 17:00:20.721138 20048 net.cpp:148] Top shape: 24 528 14 14 (2483712)
I0403 17:00:20.721154 20048 net.cpp:148] Top shape: 24 528 14 14 (2483712)
I0403 17:00:20.721169 20048 net.cpp:148] Top shape: 24 528 14 14 (2483712)
I0403 17:00:20.721185 20048 net.cpp:148] Top shape: 24 528 14 14 (2483712)
I0403 17:00:20.721200 20048 net.cpp:148] Top shape: 24 528 14 14 (2483712)
I0403 17:00:20.721215 20048 net.cpp:156] Memory required for data: 1206918432
I0403 17:00:20.721228 20048 layer_factory.hpp:77] Creating layer loss2/ave_pool
I0403 17:00:20.721246 20048 net.cpp:91] Creating Layer loss2/ave_pool
I0403 17:00:20.721261 20048 net.cpp:425] loss2/ave_pool <- inception_4d/output_inception_4d/output_0_split_0
I0403 17:00:20.721281 20048 net.cpp:399] loss2/ave_pool -> loss2/ave_pool
I0403 17:00:20.721598 20048 net.cpp:141] Setting up loss2/ave_pool
I0403 17:00:20.721637 20048 net.cpp:148] Top shape: 24 528 4 4 (202752)
I0403 17:00:20.721652 20048 net.cpp:156] Memory required for data: 1207729440
I0403 17:00:20.721668 20048 layer_factory.hpp:77] Creating layer loss2/conv
I0403 17:00:20.721689 20048 net.cpp:91] Creating Layer loss2/conv
I0403 17:00:20.721707 20048 net.cpp:425] loss2/conv <- loss2/ave_pool
I0403 17:00:20.721727 20048 net.cpp:399] loss2/conv -> loss2/conv
I0403 17:00:20.723585 20048 net.cpp:141] Setting up loss2/conv
I0403 17:00:20.723613 20048 net.cpp:148] Top shape: 24 128 4 4 (49152)
I0403 17:00:20.723628 20048 net.cpp:156] Memory required for data: 1207926048
I0403 17:00:20.723646 20048 layer_factory.hpp:77] Creating layer loss2/relu_conv
I0403 17:00:20.723666 20048 net.cpp:91] Creating Layer loss2/relu_conv
I0403 17:00:20.723683 20048 net.cpp:425] loss2/relu_conv <- loss2/conv
I0403 17:00:20.723700 20048 net.cpp:386] loss2/relu_conv -> loss2/conv (in-place)
I0403 17:00:20.723976 20048 net.cpp:141] Setting up loss2/relu_conv
I0403 17:00:20.724002 20048 net.cpp:148] Top shape: 24 128 4 4 (49152)
I0403 17:00:20.724017 20048 net.cpp:156] Memory required for data: 1208122656
I0403 17:00:20.724031 20048 layer_factory.hpp:77] Creating layer loss2/fc
I0403 17:00:20.724052 20048 net.cpp:91] Creating Layer loss2/fc
I0403 17:00:20.724068 20048 net.cpp:425] loss2/fc <- loss2/conv
I0403 17:00:20.724088 20048 net.cpp:399] loss2/fc -> loss2/fc
I0403 17:00:20.741253 20048 net.cpp:141] Setting up loss2/fc
I0403 17:00:20.741286 20048 net.cpp:148] Top shape: 24 1024 (24576)
I0403 17:00:20.741302 20048 net.cpp:156] Memory required for data: 1208220960
I0403 17:00:20.741320 20048 layer_factory.hpp:77] Creating layer loss2/relu_fc
I0403 17:00:20.741338 20048 net.cpp:91] Creating Layer loss2/relu_fc
I0403 17:00:20.741354 20048 net.cpp:425] loss2/relu_fc <- loss2/fc
I0403 17:00:20.741374 20048 net.cpp:386] loss2/relu_fc -> loss2/fc (in-place)
I0403 17:00:20.741670 20048 net.cpp:141] Setting up loss2/relu_fc
I0403 17:00:20.741698 20048 net.cpp:148] Top shape: 24 1024 (24576)
I0403 17:00:20.741713 20048 net.cpp:156] Memory required for data: 1208319264
I0403 17:00:20.741726 20048 layer_factory.hpp:77] Creating layer loss2/drop_fc
I0403 17:00:20.741744 20048 net.cpp:91] Creating Layer loss2/drop_fc
I0403 17:00:20.741760 20048 net.cpp:425] loss2/drop_fc <- loss2/fc
I0403 17:00:20.741777 20048 net.cpp:386] loss2/drop_fc -> loss2/fc (in-place)
I0403 17:00:20.741827 20048 net.cpp:141] Setting up loss2/drop_fc
I0403 17:00:20.741849 20048 net.cpp:148] Top shape: 24 1024 (24576)
I0403 17:00:20.741864 20048 net.cpp:156] Memory required for data: 1208417568
I0403 17:00:20.741878 20048 layer_factory.hpp:77] Creating layer loss2/classifier_plantvillage
I0403 17:00:20.741896 20048 net.cpp:91] Creating Layer loss2/classifier_plantvillage
I0403 17:00:20.741911 20048 net.cpp:425] loss2/classifier_plantvillage <- loss2/fc
I0403 17:00:20.741932 20048 net.cpp:399] loss2/classifier_plantvillage -> loss2/classifier_plantvillage
I0403 17:00:20.742324 20048 net.cpp:141] Setting up loss2/classifier_plantvillage
I0403 17:00:20.742349 20048 net.cpp:148] Top shape: 24 38 (912)
I0403 17:00:20.742382 20048 net.cpp:156] Memory required for data: 1208421216
I0403 17:00:20.742400 20048 layer_factory.hpp:77] Creating layer loss2/classifier_plantvillage_loss2/classifier_plantvillage_0_split
I0403 17:00:20.742420 20048 net.cpp:91] Creating Layer loss2/classifier_plantvillage_loss2/classifier_plantvillage_0_split
I0403 17:00:20.742436 20048 net.cpp:425] loss2/classifier_plantvillage_loss2/classifier_plantvillage_0_split <- loss2/classifier_plantvillage
I0403 17:00:20.742455 20048 net.cpp:399] loss2/classifier_plantvillage_loss2/classifier_plantvillage_0_split -> loss2/classifier_plantvillage_loss2/classifier_plantvillage_0_split_0
I0403 17:00:20.742476 20048 net.cpp:399] loss2/classifier_plantvillage_loss2/classifier_plantvillage_0_split -> loss2/classifier_plantvillage_loss2/classifier_plantvillage_0_split_1
I0403 17:00:20.742496 20048 net.cpp:399] loss2/classifier_plantvillage_loss2/classifier_plantvillage_0_split -> loss2/classifier_plantvillage_loss2/classifier_plantvillage_0_split_2
I0403 17:00:20.742575 20048 net.cpp:141] Setting up loss2/classifier_plantvillage_loss2/classifier_plantvillage_0_split
I0403 17:00:20.742599 20048 net.cpp:148] Top shape: 24 38 (912)
I0403 17:00:20.742614 20048 net.cpp:148] Top shape: 24 38 (912)
I0403 17:00:20.742633 20048 net.cpp:148] Top shape: 24 38 (912)
I0403 17:00:20.742646 20048 net.cpp:156] Memory required for data: 1208432160
I0403 17:00:20.742660 20048 layer_factory.hpp:77] Creating layer inception_4e/1x1
I0403 17:00:20.742681 20048 net.cpp:91] Creating Layer inception_4e/1x1
I0403 17:00:20.742698 20048 net.cpp:425] inception_4e/1x1 <- inception_4d/output_inception_4d/output_0_split_1
I0403 17:00:20.742717 20048 net.cpp:399] inception_4e/1x1 -> inception_4e/1x1
I0403 17:00:20.744483 20048 net.cpp:141] Setting up inception_4e/1x1
I0403 17:00:20.744513 20048 net.cpp:148] Top shape: 24 256 14 14 (1204224)
I0403 17:00:20.744530 20048 net.cpp:156] Memory required for data: 1213249056
I0403 17:00:20.744549 20048 layer_factory.hpp:77] Creating layer inception_4e/relu_1x1
I0403 17:00:20.744566 20048 net.cpp:91] Creating Layer inception_4e/relu_1x1
I0403 17:00:20.744593 20048 net.cpp:425] inception_4e/relu_1x1 <- inception_4e/1x1
I0403 17:00:20.744611 20048 net.cpp:386] inception_4e/relu_1x1 -> inception_4e/1x1 (in-place)
I0403 17:00:20.744899 20048 net.cpp:141] Setting up inception_4e/relu_1x1
I0403 17:00:20.744927 20048 net.cpp:148] Top shape: 24 256 14 14 (1204224)
I0403 17:00:20.744942 20048 net.cpp:156] Memory required for data: 1218065952
I0403 17:00:20.744957 20048 layer_factory.hpp:77] Creating layer inception_4e/3x3_reduce
I0403 17:00:20.744979 20048 net.cpp:91] Creating Layer inception_4e/3x3_reduce
I0403 17:00:20.744997 20048 net.cpp:425] inception_4e/3x3_reduce <- inception_4d/output_inception_4d/output_0_split_2
I0403 17:00:20.745015 20048 net.cpp:399] inception_4e/3x3_reduce -> inception_4e/3x3_reduce
I0403 17:00:20.747079 20048 net.cpp:141] Setting up inception_4e/3x3_reduce
I0403 17:00:20.747107 20048 net.cpp:148] Top shape: 24 160 14 14 (752640)
I0403 17:00:20.747123 20048 net.cpp:156] Memory required for data: 1221076512
I0403 17:00:20.747141 20048 layer_factory.hpp:77] Creating layer inception_4e/relu_3x3_reduce
I0403 17:00:20.747161 20048 net.cpp:91] Creating Layer inception_4e/relu_3x3_reduce
I0403 17:00:20.747179 20048 net.cpp:425] inception_4e/relu_3x3_reduce <- inception_4e/3x3_reduce
I0403 17:00:20.747195 20048 net.cpp:386] inception_4e/relu_3x3_reduce -> inception_4e/3x3_reduce (in-place)
I0403 17:00:20.747378 20048 net.cpp:141] Setting up inception_4e/relu_3x3_reduce
I0403 17:00:20.747402 20048 net.cpp:148] Top shape: 24 160 14 14 (752640)
I0403 17:00:20.747417 20048 net.cpp:156] Memory required for data: 1224087072
I0403 17:00:20.747431 20048 layer_factory.hpp:77] Creating layer inception_4e/3x3
I0403 17:00:20.747453 20048 net.cpp:91] Creating Layer inception_4e/3x3
I0403 17:00:20.747470 20048 net.cpp:425] inception_4e/3x3 <- inception_4e/3x3_reduce
I0403 17:00:20.747491 20048 net.cpp:399] inception_4e/3x3 -> inception_4e/3x3
I0403 17:00:20.752399 20048 net.cpp:141] Setting up inception_4e/3x3
I0403 17:00:20.752439 20048 net.cpp:148] Top shape: 24 320 14 14 (1505280)
I0403 17:00:20.752455 20048 net.cpp:156] Memory required for data: 1230108192
I0403 17:00:20.752473 20048 layer_factory.hpp:77] Creating layer inception_4e/relu_3x3
I0403 17:00:20.752491 20048 net.cpp:91] Creating Layer inception_4e/relu_3x3
I0403 17:00:20.752507 20048 net.cpp:425] inception_4e/relu_3x3 <- inception_4e/3x3
I0403 17:00:20.752526 20048 net.cpp:386] inception_4e/relu_3x3 -> inception_4e/3x3 (in-place)
I0403 17:00:20.752826 20048 net.cpp:141] Setting up inception_4e/relu_3x3
I0403 17:00:20.752852 20048 net.cpp:148] Top shape: 24 320 14 14 (1505280)
I0403 17:00:20.752868 20048 net.cpp:156] Memory required for data: 1236129312
I0403 17:00:20.752882 20048 layer_factory.hpp:77] Creating layer inception_4e/5x5_reduce
I0403 17:00:20.752905 20048 net.cpp:91] Creating Layer inception_4e/5x5_reduce
I0403 17:00:20.752923 20048 net.cpp:425] inception_4e/5x5_reduce <- inception_4d/output_inception_4d/output_0_split_3
I0403 17:00:20.752943 20048 net.cpp:399] inception_4e/5x5_reduce -> inception_4e/5x5_reduce
I0403 17:00:20.754025 20048 net.cpp:141] Setting up inception_4e/5x5_reduce
I0403 17:00:20.754055 20048 net.cpp:148] Top shape: 24 32 14 14 (150528)
I0403 17:00:20.754071 20048 net.cpp:156] Memory required for data: 1236731424
I0403 17:00:20.754089 20048 layer_factory.hpp:77] Creating layer inception_4e/relu_5x5_reduce
I0403 17:00:20.754107 20048 net.cpp:91] Creating Layer inception_4e/relu_5x5_reduce
I0403 17:00:20.754122 20048 net.cpp:425] inception_4e/relu_5x5_reduce <- inception_4e/5x5_reduce
I0403 17:00:20.754138 20048 net.cpp:386] inception_4e/relu_5x5_reduce -> inception_4e/5x5_reduce (in-place)
I0403 17:00:20.754431 20048 net.cpp:141] Setting up inception_4e/relu_5x5_reduce
I0403 17:00:20.754459 20048 net.cpp:148] Top shape: 24 32 14 14 (150528)
I0403 17:00:20.754475 20048 net.cpp:156] Memory required for data: 1237333536
I0403 17:00:20.754489 20048 layer_factory.hpp:77] Creating layer inception_4e/5x5
I0403 17:00:20.754526 20048 net.cpp:91] Creating Layer inception_4e/5x5
I0403 17:00:20.754545 20048 net.cpp:425] inception_4e/5x5 <- inception_4e/5x5_reduce
I0403 17:00:20.754566 20048 net.cpp:399] inception_4e/5x5 -> inception_4e/5x5
I0403 17:00:20.756373 20048 net.cpp:141] Setting up inception_4e/5x5
I0403 17:00:20.756400 20048 net.cpp:148] Top shape: 24 128 14 14 (602112)
I0403 17:00:20.756415 20048 net.cpp:156] Memory required for data: 1239741984
I0403 17:00:20.756433 20048 layer_factory.hpp:77] Creating layer inception_4e/relu_5x5
I0403 17:00:20.756454 20048 net.cpp:91] Creating Layer inception_4e/relu_5x5
I0403 17:00:20.756471 20048 net.cpp:425] inception_4e/relu_5x5 <- inception_4e/5x5
I0403 17:00:20.756487 20048 net.cpp:386] inception_4e/relu_5x5 -> inception_4e/5x5 (in-place)
I0403 17:00:20.756695 20048 net.cpp:141] Setting up inception_4e/relu_5x5
I0403 17:00:20.756722 20048 net.cpp:148] Top shape: 24 128 14 14 (602112)
I0403 17:00:20.756737 20048 net.cpp:156] Memory required for data: 1242150432
I0403 17:00:20.756752 20048 layer_factory.hpp:77] Creating layer inception_4e/pool
I0403 17:00:20.756769 20048 net.cpp:91] Creating Layer inception_4e/pool
I0403 17:00:20.756784 20048 net.cpp:425] inception_4e/pool <- inception_4d/output_inception_4d/output_0_split_4
I0403 17:00:20.756803 20048 net.cpp:399] inception_4e/pool -> inception_4e/pool
I0403 17:00:20.756871 20048 net.cpp:141] Setting up inception_4e/pool
I0403 17:00:20.756894 20048 net.cpp:148] Top shape: 24 528 14 14 (2483712)
I0403 17:00:20.756909 20048 net.cpp:156] Memory required for data: 1252085280
I0403 17:00:20.756924 20048 layer_factory.hpp:77] Creating layer inception_4e/pool_proj
I0403 17:00:20.756947 20048 net.cpp:91] Creating Layer inception_4e/pool_proj
I0403 17:00:20.756963 20048 net.cpp:425] inception_4e/pool_proj <- inception_4e/pool
I0403 17:00:20.756983 20048 net.cpp:399] inception_4e/pool_proj -> inception_4e/pool_proj
I0403 17:00:20.758447 20048 net.cpp:141] Setting up inception_4e/pool_proj
I0403 17:00:20.758486 20048 net.cpp:148] Top shape: 24 128 14 14 (602112)
I0403 17:00:20.758502 20048 net.cpp:156] Memory required for data: 1254493728
I0403 17:00:20.758520 20048 layer_factory.hpp:77] Creating layer inception_4e/relu_pool_proj
I0403 17:00:20.758539 20048 net.cpp:91] Creating Layer inception_4e/relu_pool_proj
I0403 17:00:20.758558 20048 net.cpp:425] inception_4e/relu_pool_proj <- inception_4e/pool_proj
I0403 17:00:20.758579 20048 net.cpp:386] inception_4e/relu_pool_proj -> inception_4e/pool_proj (in-place)
I0403 17:00:20.758865 20048 net.cpp:141] Setting up inception_4e/relu_pool_proj
I0403 17:00:20.758891 20048 net.cpp:148] Top shape: 24 128 14 14 (602112)
I0403 17:00:20.758906 20048 net.cpp:156] Memory required for data: 1256902176
I0403 17:00:20.758921 20048 layer_factory.hpp:77] Creating layer inception_4e/output
I0403 17:00:20.758937 20048 net.cpp:91] Creating Layer inception_4e/output
I0403 17:00:20.758952 20048 net.cpp:425] inception_4e/output <- inception_4e/1x1
I0403 17:00:20.758971 20048 net.cpp:425] inception_4e/output <- inception_4e/3x3
I0403 17:00:20.758987 20048 net.cpp:425] inception_4e/output <- inception_4e/5x5
I0403 17:00:20.759002 20048 net.cpp:425] inception_4e/output <- inception_4e/pool_proj
I0403 17:00:20.759018 20048 net.cpp:399] inception_4e/output -> inception_4e/output
I0403 17:00:20.759065 20048 net.cpp:141] Setting up inception_4e/output
I0403 17:00:20.759090 20048 net.cpp:148] Top shape: 24 832 14 14 (3913728)
I0403 17:00:20.759107 20048 net.cpp:156] Memory required for data: 1272557088
I0403 17:00:20.759121 20048 layer_factory.hpp:77] Creating layer pool4/3x3_s2
I0403 17:00:20.759138 20048 net.cpp:91] Creating Layer pool4/3x3_s2
I0403 17:00:20.759153 20048 net.cpp:425] pool4/3x3_s2 <- inception_4e/output
I0403 17:00:20.759172 20048 net.cpp:399] pool4/3x3_s2 -> pool4/3x3_s2
I0403 17:00:20.759238 20048 net.cpp:141] Setting up pool4/3x3_s2
I0403 17:00:20.759264 20048 net.cpp:148] Top shape: 24 832 7 7 (978432)
I0403 17:00:20.759279 20048 net.cpp:156] Memory required for data: 1276470816
I0403 17:00:20.759295 20048 layer_factory.hpp:77] Creating layer pool4/3x3_s2_pool4/3x3_s2_0_split
I0403 17:00:20.759311 20048 net.cpp:91] Creating Layer pool4/3x3_s2_pool4/3x3_s2_0_split
I0403 17:00:20.759326 20048 net.cpp:425] pool4/3x3_s2_pool4/3x3_s2_0_split <- pool4/3x3_s2
I0403 17:00:20.759343 20048 net.cpp:399] pool4/3x3_s2_pool4/3x3_s2_0_split -> pool4/3x3_s2_pool4/3x3_s2_0_split_0
I0403 17:00:20.759362 20048 net.cpp:399] pool4/3x3_s2_pool4/3x3_s2_0_split -> pool4/3x3_s2_pool4/3x3_s2_0_split_1
I0403 17:00:20.759384 20048 net.cpp:399] pool4/3x3_s2_pool4/3x3_s2_0_split -> pool4/3x3_s2_pool4/3x3_s2_0_split_2
I0403 17:00:20.759404 20048 net.cpp:399] pool4/3x3_s2_pool4/3x3_s2_0_split -> pool4/3x3_s2_pool4/3x3_s2_0_split_3
I0403 17:00:20.759495 20048 net.cpp:141] Setting up pool4/3x3_s2_pool4/3x3_s2_0_split
I0403 17:00:20.759517 20048 net.cpp:148] Top shape: 24 832 7 7 (978432)
I0403 17:00:20.759533 20048 net.cpp:148] Top shape: 24 832 7 7 (978432)
I0403 17:00:20.759549 20048 net.cpp:148] Top shape: 24 832 7 7 (978432)
I0403 17:00:20.759564 20048 net.cpp:148] Top shape: 24 832 7 7 (978432)
I0403 17:00:20.759583 20048 net.cpp:156] Memory required for data: 1292125728
I0403 17:00:20.759598 20048 layer_factory.hpp:77] Creating layer inception_5a/1x1
I0403 17:00:20.759619 20048 net.cpp:91] Creating Layer inception_5a/1x1
I0403 17:00:20.759636 20048 net.cpp:425] inception_5a/1x1 <- pool4/3x3_s2_pool4/3x3_s2_0_split_0
I0403 17:00:20.759656 20048 net.cpp:399] inception_5a/1x1 -> inception_5a/1x1
I0403 17:00:20.762428 20048 net.cpp:141] Setting up inception_5a/1x1
I0403 17:00:20.762457 20048 net.cpp:148] Top shape: 24 256 7 7 (301056)
I0403 17:00:20.762472 20048 net.cpp:156] Memory required for data: 1293329952
I0403 17:00:20.762490 20048 layer_factory.hpp:77] Creating layer inception_5a/relu_1x1
I0403 17:00:20.762509 20048 net.cpp:91] Creating Layer inception_5a/relu_1x1
I0403 17:00:20.762526 20048 net.cpp:425] inception_5a/relu_1x1 <- inception_5a/1x1
I0403 17:00:20.762542 20048 net.cpp:386] inception_5a/relu_1x1 -> inception_5a/1x1 (in-place)
I0403 17:00:20.762853 20048 net.cpp:141] Setting up inception_5a/relu_1x1
I0403 17:00:20.762879 20048 net.cpp:148] Top shape: 24 256 7 7 (301056)
I0403 17:00:20.762894 20048 net.cpp:156] Memory required for data: 1294534176
I0403 17:00:20.762909 20048 layer_factory.hpp:77] Creating layer inception_5a/3x3_reduce
I0403 17:00:20.762930 20048 net.cpp:91] Creating Layer inception_5a/3x3_reduce
I0403 17:00:20.762950 20048 net.cpp:425] inception_5a/3x3_reduce <- pool4/3x3_s2_pool4/3x3_s2_0_split_1
I0403 17:00:20.762969 20048 net.cpp:399] inception_5a/3x3_reduce -> inception_5a/3x3_reduce
I0403 17:00:20.765383 20048 net.cpp:141] Setting up inception_5a/3x3_reduce
I0403 17:00:20.765413 20048 net.cpp:148] Top shape: 24 160 7 7 (188160)
I0403 17:00:20.765429 20048 net.cpp:156] Memory required for data: 1295286816
I0403 17:00:20.765446 20048 layer_factory.hpp:77] Creating layer inception_5a/relu_3x3_reduce
I0403 17:00:20.765463 20048 net.cpp:91] Creating Layer inception_5a/relu_3x3_reduce
I0403 17:00:20.765482 20048 net.cpp:425] inception_5a/relu_3x3_reduce <- inception_5a/3x3_reduce
I0403 17:00:20.765499 20048 net.cpp:386] inception_5a/relu_3x3_reduce -> inception_5a/3x3_reduce (in-place)
I0403 17:00:20.765686 20048 net.cpp:141] Setting up inception_5a/relu_3x3_reduce
I0403 17:00:20.765712 20048 net.cpp:148] Top shape: 24 160 7 7 (188160)
I0403 17:00:20.765725 20048 net.cpp:156] Memory required for data: 1296039456
I0403 17:00:20.765739 20048 layer_factory.hpp:77] Creating layer inception_5a/3x3
I0403 17:00:20.765760 20048 net.cpp:91] Creating Layer inception_5a/3x3
I0403 17:00:20.765777 20048 net.cpp:425] inception_5a/3x3 <- inception_5a/3x3_reduce
I0403 17:00:20.765799 20048 net.cpp:399] inception_5a/3x3 -> inception_5a/3x3
I0403 17:00:20.770700 20048 net.cpp:141] Setting up inception_5a/3x3
I0403 17:00:20.770730 20048 net.cpp:148] Top shape: 24 320 7 7 (376320)
I0403 17:00:20.770745 20048 net.cpp:156] Memory required for data: 1297544736
I0403 17:00:20.770764 20048 layer_factory.hpp:77] Creating layer inception_5a/relu_3x3
I0403 17:00:20.770786 20048 net.cpp:91] Creating Layer inception_5a/relu_3x3
I0403 17:00:20.770802 20048 net.cpp:425] inception_5a/relu_3x3 <- inception_5a/3x3
I0403 17:00:20.770819 20048 net.cpp:386] inception_5a/relu_3x3 -> inception_5a/3x3 (in-place)
I0403 17:00:20.771106 20048 net.cpp:141] Setting up inception_5a/relu_3x3
I0403 17:00:20.771132 20048 net.cpp:148] Top shape: 24 320 7 7 (376320)
I0403 17:00:20.771147 20048 net.cpp:156] Memory required for data: 1299050016
I0403 17:00:20.771162 20048 layer_factory.hpp:77] Creating layer inception_5a/5x5_reduce
I0403 17:00:20.771183 20048 net.cpp:91] Creating Layer inception_5a/5x5_reduce
I0403 17:00:20.771201 20048 net.cpp:425] inception_5a/5x5_reduce <- pool4/3x3_s2_pool4/3x3_s2_0_split_2
I0403 17:00:20.771221 20048 net.cpp:399] inception_5a/5x5_reduce -> inception_5a/5x5_reduce
I0403 17:00:20.772369 20048 net.cpp:141] Setting up inception_5a/5x5_reduce
I0403 17:00:20.772397 20048 net.cpp:148] Top shape: 24 32 7 7 (37632)
I0403 17:00:20.772413 20048 net.cpp:156] Memory required for data: 1299200544
I0403 17:00:20.772431 20048 layer_factory.hpp:77] Creating layer inception_5a/relu_5x5_reduce
I0403 17:00:20.772451 20048 net.cpp:91] Creating Layer inception_5a/relu_5x5_reduce
I0403 17:00:20.772467 20048 net.cpp:425] inception_5a/relu_5x5_reduce <- inception_5a/5x5_reduce
I0403 17:00:20.772485 20048 net.cpp:386] inception_5a/relu_5x5_reduce -> inception_5a/5x5_reduce (in-place)
I0403 17:00:20.772781 20048 net.cpp:141] Setting up inception_5a/relu_5x5_reduce
I0403 17:00:20.772807 20048 net.cpp:148] Top shape: 24 32 7 7 (37632)
I0403 17:00:20.772822 20048 net.cpp:156] Memory required for data: 1299351072
I0403 17:00:20.772837 20048 layer_factory.hpp:77] Creating layer inception_5a/5x5
I0403 17:00:20.772861 20048 net.cpp:91] Creating Layer inception_5a/5x5
I0403 17:00:20.772879 20048 net.cpp:425] inception_5a/5x5 <- inception_5a/5x5_reduce
I0403 17:00:20.772897 20048 net.cpp:399] inception_5a/5x5 -> inception_5a/5x5
I0403 17:00:20.774591 20048 net.cpp:141] Setting up inception_5a/5x5
I0403 17:00:20.774629 20048 net.cpp:148] Top shape: 24 128 7 7 (150528)
I0403 17:00:20.774646 20048 net.cpp:156] Memory required for data: 1299953184
I0403 17:00:20.774663 20048 layer_factory.hpp:77] Creating layer inception_5a/relu_5x5
I0403 17:00:20.774683 20048 net.cpp:91] Creating Layer inception_5a/relu_5x5
I0403 17:00:20.774700 20048 net.cpp:425] inception_5a/relu_5x5 <- inception_5a/5x5
I0403 17:00:20.774718 20048 net.cpp:386] inception_5a/relu_5x5 -> inception_5a/5x5 (in-place)
I0403 17:00:20.774904 20048 net.cpp:141] Setting up inception_5a/relu_5x5
I0403 17:00:20.774930 20048 net.cpp:148] Top shape: 24 128 7 7 (150528)
I0403 17:00:20.774946 20048 net.cpp:156] Memory required for data: 1300555296
I0403 17:00:20.774961 20048 layer_factory.hpp:77] Creating layer inception_5a/pool
I0403 17:00:20.774978 20048 net.cpp:91] Creating Layer inception_5a/pool
I0403 17:00:20.774993 20048 net.cpp:425] inception_5a/pool <- pool4/3x3_s2_pool4/3x3_s2_0_split_3
I0403 17:00:20.775013 20048 net.cpp:399] inception_5a/pool -> inception_5a/pool
I0403 17:00:20.775081 20048 net.cpp:141] Setting up inception_5a/pool
I0403 17:00:20.775104 20048 net.cpp:148] Top shape: 24 832 7 7 (978432)
I0403 17:00:20.775120 20048 net.cpp:156] Memory required for data: 1304469024
I0403 17:00:20.775133 20048 layer_factory.hpp:77] Creating layer inception_5a/pool_proj
I0403 17:00:20.775156 20048 net.cpp:91] Creating Layer inception_5a/pool_proj
I0403 17:00:20.775172 20048 net.cpp:425] inception_5a/pool_proj <- inception_5a/pool
I0403 17:00:20.775193 20048 net.cpp:399] inception_5a/pool_proj -> inception_5a/pool_proj
I0403 17:00:20.777462 20048 net.cpp:141] Setting up inception_5a/pool_proj
I0403 17:00:20.777490 20048 net.cpp:148] Top shape: 24 128 7 7 (150528)
I0403 17:00:20.777506 20048 net.cpp:156] Memory required for data: 1305071136
I0403 17:00:20.777523 20048 layer_factory.hpp:77] Creating layer inception_5a/relu_pool_proj
I0403 17:00:20.777544 20048 net.cpp:91] Creating Layer inception_5a/relu_pool_proj
I0403 17:00:20.777560 20048 net.cpp:425] inception_5a/relu_pool_proj <- inception_5a/pool_proj
I0403 17:00:20.777582 20048 net.cpp:386] inception_5a/relu_pool_proj -> inception_5a/pool_proj (in-place)
I0403 17:00:20.777871 20048 net.cpp:141] Setting up inception_5a/relu_pool_proj
I0403 17:00:20.777897 20048 net.cpp:148] Top shape: 24 128 7 7 (150528)
I0403 17:00:20.777912 20048 net.cpp:156] Memory required for data: 1305673248
I0403 17:00:20.777926 20048 layer_factory.hpp:77] Creating layer inception_5a/output
I0403 17:00:20.777943 20048 net.cpp:91] Creating Layer inception_5a/output
I0403 17:00:20.777958 20048 net.cpp:425] inception_5a/output <- inception_5a/1x1
I0403 17:00:20.777974 20048 net.cpp:425] inception_5a/output <- inception_5a/3x3
I0403 17:00:20.777989 20048 net.cpp:425] inception_5a/output <- inception_5a/5x5
I0403 17:00:20.778004 20048 net.cpp:425] inception_5a/output <- inception_5a/pool_proj
I0403 17:00:20.778023 20048 net.cpp:399] inception_5a/output -> inception_5a/output
I0403 17:00:20.778074 20048 net.cpp:141] Setting up inception_5a/output
I0403 17:00:20.778097 20048 net.cpp:148] Top shape: 24 832 7 7 (978432)
I0403 17:00:20.778111 20048 net.cpp:156] Memory required for data: 1309586976
I0403 17:00:20.778126 20048 layer_factory.hpp:77] Creating layer inception_5a/output_inception_5a/output_0_split
I0403 17:00:20.778143 20048 net.cpp:91] Creating Layer inception_5a/output_inception_5a/output_0_split
I0403 17:00:20.778158 20048 net.cpp:425] inception_5a/output_inception_5a/output_0_split <- inception_5a/output
I0403 17:00:20.778177 20048 net.cpp:399] inception_5a/output_inception_5a/output_0_split -> inception_5a/output_inception_5a/output_0_split_0
I0403 17:00:20.778198 20048 net.cpp:399] inception_5a/output_inception_5a/output_0_split -> inception_5a/output_inception_5a/output_0_split_1
I0403 17:00:20.778218 20048 net.cpp:399] inception_5a/output_inception_5a/output_0_split -> inception_5a/output_inception_5a/output_0_split_2
I0403 17:00:20.778249 20048 net.cpp:399] inception_5a/output_inception_5a/output_0_split -> inception_5a/output_inception_5a/output_0_split_3
I0403 17:00:20.778365 20048 net.cpp:141] Setting up inception_5a/output_inception_5a/output_0_split
I0403 17:00:20.778389 20048 net.cpp:148] Top shape: 24 832 7 7 (978432)
I0403 17:00:20.778406 20048 net.cpp:148] Top shape: 24 832 7 7 (978432)
I0403 17:00:20.778422 20048 net.cpp:148] Top shape: 24 832 7 7 (978432)
I0403 17:00:20.778437 20048 net.cpp:148] Top shape: 24 832 7 7 (978432)
I0403 17:00:20.778451 20048 net.cpp:156] Memory required for data: 1325241888
I0403 17:00:20.778465 20048 layer_factory.hpp:77] Creating layer inception_5b/1x1
I0403 17:00:20.778489 20048 net.cpp:91] Creating Layer inception_5b/1x1
I0403 17:00:20.778506 20048 net.cpp:425] inception_5b/1x1 <- inception_5a/output_inception_5a/output_0_split_0
I0403 17:00:20.778537 20048 net.cpp:399] inception_5b/1x1 -> inception_5b/1x1
I0403 17:00:20.782260 20048 net.cpp:141] Setting up inception_5b/1x1
I0403 17:00:20.782291 20048 net.cpp:148] Top shape: 24 384 7 7 (451584)
I0403 17:00:20.782307 20048 net.cpp:156] Memory required for data: 1327048224
I0403 17:00:20.782325 20048 layer_factory.hpp:77] Creating layer inception_5b/relu_1x1
I0403 17:00:20.782344 20048 net.cpp:91] Creating Layer inception_5b/relu_1x1
I0403 17:00:20.782361 20048 net.cpp:425] inception_5b/relu_1x1 <- inception_5b/1x1
I0403 17:00:20.782378 20048 net.cpp:386] inception_5b/relu_1x1 -> inception_5b/1x1 (in-place)
I0403 17:00:20.782690 20048 net.cpp:141] Setting up inception_5b/relu_1x1
I0403 17:00:20.782716 20048 net.cpp:148] Top shape: 24 384 7 7 (451584)
I0403 17:00:20.782730 20048 net.cpp:156] Memory required for data: 1328854560
I0403 17:00:20.782744 20048 layer_factory.hpp:77] Creating layer inception_5b/3x3_reduce
I0403 17:00:20.782768 20048 net.cpp:91] Creating Layer inception_5b/3x3_reduce
I0403 17:00:20.782785 20048 net.cpp:425] inception_5b/3x3_reduce <- inception_5a/output_inception_5a/output_0_split_1
I0403 17:00:20.782807 20048 net.cpp:399] inception_5b/3x3_reduce -> inception_5b/3x3_reduce
I0403 17:00:20.785414 20048 net.cpp:141] Setting up inception_5b/3x3_reduce
I0403 17:00:20.785444 20048 net.cpp:148] Top shape: 24 192 7 7 (225792)
I0403 17:00:20.785460 20048 net.cpp:156] Memory required for data: 1329757728
I0403 17:00:20.785477 20048 layer_factory.hpp:77] Creating layer inception_5b/relu_3x3_reduce
I0403 17:00:20.785495 20048 net.cpp:91] Creating Layer inception_5b/relu_3x3_reduce
I0403 17:00:20.785511 20048 net.cpp:425] inception_5b/relu_3x3_reduce <- inception_5b/3x3_reduce
I0403 17:00:20.785531 20048 net.cpp:386] inception_5b/relu_3x3_reduce -> inception_5b/3x3_reduce (in-place)
I0403 17:00:20.785722 20048 net.cpp:141] Setting up inception_5b/relu_3x3_reduce
I0403 17:00:20.785747 20048 net.cpp:148] Top shape: 24 192 7 7 (225792)
I0403 17:00:20.785761 20048 net.cpp:156] Memory required for data: 1330660896
I0403 17:00:20.785775 20048 layer_factory.hpp:77] Creating layer inception_5b/3x3
I0403 17:00:20.785797 20048 net.cpp:91] Creating Layer inception_5b/3x3
I0403 17:00:20.785815 20048 net.cpp:425] inception_5b/3x3 <- inception_5b/3x3_reduce
I0403 17:00:20.785835 20048 net.cpp:399] inception_5b/3x3 -> inception_5b/3x3
I0403 17:00:20.792412 20048 net.cpp:141] Setting up inception_5b/3x3
I0403 17:00:20.792441 20048 net.cpp:148] Top shape: 24 384 7 7 (451584)
I0403 17:00:20.792457 20048 net.cpp:156] Memory required for data: 1332467232
I0403 17:00:20.792477 20048 layer_factory.hpp:77] Creating layer inception_5b/relu_3x3
I0403 17:00:20.792501 20048 net.cpp:91] Creating Layer inception_5b/relu_3x3
I0403 17:00:20.792520 20048 net.cpp:425] inception_5b/relu_3x3 <- inception_5b/3x3
I0403 17:00:20.792537 20048 net.cpp:386] inception_5b/relu_3x3 -> inception_5b/3x3 (in-place)
I0403 17:00:20.792830 20048 net.cpp:141] Setting up inception_5b/relu_3x3
I0403 17:00:20.792856 20048 net.cpp:148] Top shape: 24 384 7 7 (451584)
I0403 17:00:20.792871 20048 net.cpp:156] Memory required for data: 1334273568
I0403 17:00:20.792886 20048 layer_factory.hpp:77] Creating layer inception_5b/5x5_reduce
I0403 17:00:20.792923 20048 net.cpp:91] Creating Layer inception_5b/5x5_reduce
I0403 17:00:20.792943 20048 net.cpp:425] inception_5b/5x5_reduce <- inception_5a/output_inception_5a/output_0_split_2
I0403 17:00:20.792964 20048 net.cpp:399] inception_5b/5x5_reduce -> inception_5b/5x5_reduce
I0403 17:00:20.794211 20048 net.cpp:141] Setting up inception_5b/5x5_reduce
I0403 17:00:20.794239 20048 net.cpp:148] Top shape: 24 48 7 7 (56448)
I0403 17:00:20.794255 20048 net.cpp:156] Memory required for data: 1334499360
I0403 17:00:20.794271 20048 layer_factory.hpp:77] Creating layer inception_5b/relu_5x5_reduce
I0403 17:00:20.794291 20048 net.cpp:91] Creating Layer inception_5b/relu_5x5_reduce
I0403 17:00:20.794308 20048 net.cpp:425] inception_5b/relu_5x5_reduce <- inception_5b/5x5_reduce
I0403 17:00:20.794325 20048 net.cpp:386] inception_5b/relu_5x5_reduce -> inception_5b/5x5_reduce (in-place)
I0403 17:00:20.794704 20048 net.cpp:141] Setting up inception_5b/relu_5x5_reduce
I0403 17:00:20.794731 20048 net.cpp:148] Top shape: 24 48 7 7 (56448)
I0403 17:00:20.794746 20048 net.cpp:156] Memory required for data: 1334725152
I0403 17:00:20.794760 20048 layer_factory.hpp:77] Creating layer inception_5b/5x5
I0403 17:00:20.794780 20048 net.cpp:91] Creating Layer inception_5b/5x5
I0403 17:00:20.794796 20048 net.cpp:425] inception_5b/5x5 <- inception_5b/5x5_reduce
I0403 17:00:20.794814 20048 net.cpp:399] inception_5b/5x5 -> inception_5b/5x5
I0403 17:00:20.796851 20048 net.cpp:141] Setting up inception_5b/5x5
I0403 17:00:20.796880 20048 net.cpp:148] Top shape: 24 128 7 7 (150528)
I0403 17:00:20.796895 20048 net.cpp:156] Memory required for data: 1335327264
I0403 17:00:20.796914 20048 layer_factory.hpp:77] Creating layer inception_5b/relu_5x5
I0403 17:00:20.796936 20048 net.cpp:91] Creating Layer inception_5b/relu_5x5
I0403 17:00:20.796953 20048 net.cpp:425] inception_5b/relu_5x5 <- inception_5b/5x5
I0403 17:00:20.796969 20048 net.cpp:386] inception_5b/relu_5x5 -> inception_5b/5x5 (in-place)
I0403 17:00:20.797175 20048 net.cpp:141] Setting up inception_5b/relu_5x5
I0403 17:00:20.797202 20048 net.cpp:148] Top shape: 24 128 7 7 (150528)
I0403 17:00:20.797217 20048 net.cpp:156] Memory required for data: 1335929376
I0403 17:00:20.797232 20048 layer_factory.hpp:77] Creating layer inception_5b/pool
I0403 17:00:20.797250 20048 net.cpp:91] Creating Layer inception_5b/pool
I0403 17:00:20.797266 20048 net.cpp:425] inception_5b/pool <- inception_5a/output_inception_5a/output_0_split_3
I0403 17:00:20.797284 20048 net.cpp:399] inception_5b/pool -> inception_5b/pool
I0403 17:00:20.797355 20048 net.cpp:141] Setting up inception_5b/pool
I0403 17:00:20.797379 20048 net.cpp:148] Top shape: 24 832 7 7 (978432)
I0403 17:00:20.797392 20048 net.cpp:156] Memory required for data: 1339843104
I0403 17:00:20.797406 20048 layer_factory.hpp:77] Creating layer inception_5b/pool_proj
I0403 17:00:20.797428 20048 net.cpp:91] Creating Layer inception_5b/pool_proj
I0403 17:00:20.797446 20048 net.cpp:425] inception_5b/pool_proj <- inception_5b/pool
I0403 17:00:20.797464 20048 net.cpp:399] inception_5b/pool_proj -> inception_5b/pool_proj
I0403 17:00:20.799729 20048 net.cpp:141] Setting up inception_5b/pool_proj
I0403 17:00:20.799757 20048 net.cpp:148] Top shape: 24 128 7 7 (150528)
I0403 17:00:20.799774 20048 net.cpp:156] Memory required for data: 1340445216
I0403 17:00:20.799793 20048 layer_factory.hpp:77] Creating layer inception_5b/relu_pool_proj
I0403 17:00:20.799813 20048 net.cpp:91] Creating Layer inception_5b/relu_pool_proj
I0403 17:00:20.799829 20048 net.cpp:425] inception_5b/relu_pool_proj <- inception_5b/pool_proj
I0403 17:00:20.799846 20048 net.cpp:386] inception_5b/relu_pool_proj -> inception_5b/pool_proj (in-place)
I0403 17:00:20.800138 20048 net.cpp:141] Setting up inception_5b/relu_pool_proj
I0403 17:00:20.800164 20048 net.cpp:148] Top shape: 24 128 7 7 (150528)
I0403 17:00:20.800179 20048 net.cpp:156] Memory required for data: 1341047328
I0403 17:00:20.800194 20048 layer_factory.hpp:77] Creating layer inception_5b/output
I0403 17:00:20.800214 20048 net.cpp:91] Creating Layer inception_5b/output
I0403 17:00:20.800243 20048 net.cpp:425] inception_5b/output <- inception_5b/1x1
I0403 17:00:20.800261 20048 net.cpp:425] inception_5b/output <- inception_5b/3x3
I0403 17:00:20.800276 20048 net.cpp:425] inception_5b/output <- inception_5b/5x5
I0403 17:00:20.800293 20048 net.cpp:425] inception_5b/output <- inception_5b/pool_proj
I0403 17:00:20.800309 20048 net.cpp:399] inception_5b/output -> inception_5b/output
I0403 17:00:20.800359 20048 net.cpp:141] Setting up inception_5b/output
I0403 17:00:20.800385 20048 net.cpp:148] Top shape: 24 1024 7 7 (1204224)
I0403 17:00:20.800400 20048 net.cpp:156] Memory required for data: 1345864224
I0403 17:00:20.800415 20048 layer_factory.hpp:77] Creating layer pool5/7x7_s1
I0403 17:00:20.800431 20048 net.cpp:91] Creating Layer pool5/7x7_s1
I0403 17:00:20.800446 20048 net.cpp:425] pool5/7x7_s1 <- inception_5b/output
I0403 17:00:20.800465 20048 net.cpp:399] pool5/7x7_s1 -> pool5/7x7_s1
I0403 17:00:20.800683 20048 net.cpp:141] Setting up pool5/7x7_s1
I0403 17:00:20.800707 20048 net.cpp:148] Top shape: 24 1024 1 1 (24576)
I0403 17:00:20.800724 20048 net.cpp:156] Memory required for data: 1345962528
I0403 17:00:20.800739 20048 layer_factory.hpp:77] Creating layer pool5/drop_7x7_s1
I0403 17:00:20.800757 20048 net.cpp:91] Creating Layer pool5/drop_7x7_s1
I0403 17:00:20.800773 20048 net.cpp:425] pool5/drop_7x7_s1 <- pool5/7x7_s1
I0403 17:00:20.800791 20048 net.cpp:386] pool5/drop_7x7_s1 -> pool5/7x7_s1 (in-place)
I0403 17:00:20.800839 20048 net.cpp:141] Setting up pool5/drop_7x7_s1
I0403 17:00:20.800863 20048 net.cpp:148] Top shape: 24 1024 1 1 (24576)
I0403 17:00:20.800876 20048 net.cpp:156] Memory required for data: 1346060832
I0403 17:00:20.800891 20048 layer_factory.hpp:77] Creating layer loss3/classifier_plantvillage
I0403 17:00:20.800909 20048 net.cpp:91] Creating Layer loss3/classifier_plantvillage
I0403 17:00:20.800928 20048 net.cpp:425] loss3/classifier_plantvillage <- pool5/7x7_s1
I0403 17:00:20.800946 20048 net.cpp:399] loss3/classifier_plantvillage -> loss3/classifier_plantvillage
I0403 17:00:20.801364 20048 net.cpp:141] Setting up loss3/classifier_plantvillage
I0403 17:00:20.801389 20048 net.cpp:148] Top shape: 24 38 (912)
I0403 17:00:20.801405 20048 net.cpp:156] Memory required for data: 1346064480
I0403 17:00:20.801422 20048 layer_factory.hpp:77] Creating layer loss3/classifier_plantvillage_loss3/classifier_plantvillage_0_split
I0403 17:00:20.801440 20048 net.cpp:91] Creating Layer loss3/classifier_plantvillage_loss3/classifier_plantvillage_0_split
I0403 17:00:20.801456 20048 net.cpp:425] loss3/classifier_plantvillage_loss3/classifier_plantvillage_0_split <- loss3/classifier_plantvillage
I0403 17:00:20.801476 20048 net.cpp:399] loss3/classifier_plantvillage_loss3/classifier_plantvillage_0_split -> loss3/classifier_plantvillage_loss3/classifier_plantvillage_0_split_0
I0403 17:00:20.801496 20048 net.cpp:399] loss3/classifier_plantvillage_loss3/classifier_plantvillage_0_split -> loss3/classifier_plantvillage_loss3/classifier_plantvillage_0_split_1
I0403 17:00:20.801517 20048 net.cpp:399] loss3/classifier_plantvillage_loss3/classifier_plantvillage_0_split -> loss3/classifier_plantvillage_loss3/classifier_plantvillage_0_split_2
I0403 17:00:20.801537 20048 net.cpp:399] loss3/classifier_plantvillage_loss3/classifier_plantvillage_0_split -> loss3/classifier_plantvillage_loss3/classifier_plantvillage_0_split_3
I0403 17:00:20.801641 20048 net.cpp:141] Setting up loss3/classifier_plantvillage_loss3/classifier_plantvillage_0_split
I0403 17:00:20.801666 20048 net.cpp:148] Top shape: 24 38 (912)
I0403 17:00:20.801682 20048 net.cpp:148] Top shape: 24 38 (912)
I0403 17:00:20.801697 20048 net.cpp:148] Top shape: 24 38 (912)
I0403 17:00:20.801712 20048 net.cpp:148] Top shape: 24 38 (912)
I0403 17:00:20.801726 20048 net.cpp:156] Memory required for data: 1346079072
I0403 17:00:20.801740 20048 layer_factory.hpp:77] Creating layer loss1/loss
I0403 17:00:20.801762 20048 net.cpp:91] Creating Layer loss1/loss
I0403 17:00:20.801780 20048 net.cpp:425] loss1/loss <- loss1/classifier_plantvillage_loss1/classifier_plantvillage_0_split_0
I0403 17:00:20.801810 20048 net.cpp:425] loss1/loss <- label_data_1_split_0
…
