…
I0403 16:24:44.656886 18040 net.cpp:313] The NetState phase (1) differed from the phase (0) specified by a rule in layer data
I0403 16:24:44.658046 18040 net.cpp:49] Initializing net from parameters: 
state {
  phase: TEST
}
layer {
  name: "data"
  type: "Data"
  top: "data"
  top: "label"
  include {
    phase: TEST
  }
  transform_param {
    mirror: false
    crop_size: 224
    mean_file: "/home/mohanty/data/final_dataset/lmdb/segmented-20-80/mean.binaryproto"
  }
  data_param {
    source: "/home/mohanty/data/final_dataset/lmdb/segmented-20-80/test_db"
    batch_size: 24
    backend: LMDB
  }
}
layer {
  name: "conv1/7x7_s2"
  type: "Convolution"
  bottom: "data"
  top: "conv1/7x7_s2"
  param {
    lr_mult: 1
    decay_mult: 1
  }
  param {
    lr_mult: 2
    decay_mult: 0
  }
  convolution_param {
    num_output: 64
    pad: 3
    kernel_size: 7
    stride: 2
    weight_filler {
      type: "xavier"
      std: 0.1
    }
    bias_filler {
      type: "constant"
      value: 0.2
    }
  }
}
layer {
  name: "conv1/relu_7x7"
  type: "ReLU"
  bottom: "conv1/7x7_s2"
  top: "conv1/7x7_s2"
}
layer {
  name: "pool1/3x3_s2"
  type: "Pooling"
  bottom: "conv1/7x7_s2"
  top: "pool1/3x3_s2"
  pooling_param {
    pool: MAX
    kernel_size: 3
    stride: 2
  }
}
layer {
  name: "pool1/norm1"
  type: "LRN"
  bottom: "pool1/3x3_s2"
  top: "pool1/norm1"
  lrn_param {
    local_size: 5
    alpha: 0.0001
    beta: 0.75
  }
}
layer {
  name: "conv2/3x3_reduce"
  type: "Convolution"
  bottom: "pool1/norm1"
  top: "conv2/3x3_reduce"
  param {
    lr_mult: 1
    decay_mult: 1
  }
  param {
    lr_mult: 2
    decay_mult: 0
  }
  convolution_param {
    num_output: 64
    kernel_size: 1
    weight_filler {
      type: "xavier"
      std: 0.1
    }
    bias_filler {
      type: "constant"
      value: 0.2
    }
  }
}
layer {
  name: "conv2/relu_3x3_reduce"
  type: "ReLU"
  bottom: "conv2/3x3_reduce"
  top: "conv2/3x3_reduce"
}
layer {
  name: "conv2/3x3"
  type: "Convolution"
  bottom: "conv2/3x3_reduce"
  top: "conv2/3x3"
  param {
    lr_mult: 1
    decay_mult: 1
  }
  param {
    lr_mult: 2
    decay_mult: 0
  }
  convolution_param {
    num_output: 192
    pad: 1
    kernel_size: 3
    weight_filler {
      type: "xavier"
      std: 0.03
    }
    bias_filler {
      type: "constant"
      value: 0.2
    }
  }
}
layer {
  name: "conv2/relu_3x3"
  type: "ReLU"
  bottom: "conv2/3x3"
  top: "conv2/3x3"
}
layer {
  name: "conv2/norm2"
  type: "LRN"
  bottom: "conv2/3x3"
  top: "conv2/norm2"
  lrn_param {
    local_size: 5
    alpha: 0.0001
    beta: 0.75
  }
}
layer {
  name: "pool2/3x3_s2"
  type: "Pooling"
  bottom: "conv2/norm2"
  top: "pool2/3x3_s2"
  pooling_param {
    pool: MAX
    kernel_size: 3
    stride: 2
  }
}
layer {
  name: "inception_3a/1x1"
  type: "Convolution"
  bottom: "pool2/3x3_s2"
  top: "inception_3a/1x1"
  param {
    lr_mult: 1
    decay_mult: 1
  }
  param {
    lr_mult: 2
    decay_mult: 0
  }
  convolution_param {
    num_output: 64
    kernel_size: 1
    weight_filler {
      type: "xavier"
      std: 0.03
    }
    bias_filler {
      type: "constant"
      value: 0.2
    }
  }
}
layer {
  name: "inception_3a/relu_1x1"
  type: "ReLU"
  bottom: "inception_3a/1x1"
  top: "inception_3a/1x1"
}
layer {
  name: "inception_3a/3x3_reduce"
  type: "Convolution"
  bottom: "pool2/3x3_s2"
  top: "inception_3a/3x3_reduce"
  param {
    lr_mult: 1
    decay_mult: 1
  }
  param {
    lr_mult: 2
    decay_mult: 0
  }
  convolution_param {
    num_output: 96
    kernel_size: 1
    weight_filler {
      type: "xavier"
      std: 0.09
    }
    bias_filler {
      type: "constant"
      value: 0.2
    }
  }
}
layer {
  name: "inception_3a/relu_3x3_reduce"
  type: "ReLU"
  bottom: "inception_3a/3x3_reduce"
  top: "inception_3a/3x3_reduce"
}
layer {
  name: "inception_3a/3x3"
  type: "Convolution"
  bottom: "inception_3a/3x3_reduce"
  top: "inception_3a/3x3"
  param {
    lr_mult: 1
    decay_mult: 1
  }
  param {
    lr_mult: 2
    decay_mult: 0
  }
  convolution_param {
    num_output: 128
    pad: 1
    kernel_size: 3
    weight_filler {
      type: "xavier"
      std: 0.03
    }
    bias_filler {
      type: "constant"
      value: 0.2
    }
  }
}
layer {
  name: "inception_3a/relu_3x3"
  type: "ReLU"
  bottom: "inception_3a/3x3"
  top: "inception_3a/3x3"
}
layer {
  name: "inception_3a/5x5_reduce"
  type: "Convolution"
  bottom: "pool2/3x3_s2"
  top: "inception_3a/5x5_reduce"
  param {
    lr_mult: 1
    decay_mult: 1
  }
  param {
    lr_mult: 2
    decay_mult: 0
  }
  convolution_param {
    num_output: 16
    kernel_size: 1
    weight_filler {
      type: "xavier"
      std: 0.2
    }
    bias_filler {
      type: "constant"
      value: 0.2
    }
  }
}
layer {
  name: "inception_3a/relu_5x5_reduce"
  type: "ReLU"
  bottom: "inception_3a/5x5_reduce"
  top: "inception_3a/5x5_reduce"
}
layer {
  name: "inception_3a/5x5"
  type: "Convolution"
  bottom: "inception_3a/5x5_reduce"
  top: "inception_3a/5x5"
  param {
    lr_mult: 1
    decay_mult: 1
  }
  param {
    lr_mult: 2
    decay_mult: 0
  }
  convolution_param {
    num_output: 32
    pad: 2
    kernel_size: 5
    weight_filler {
      type: "xavier"
      std: 0.03
    }
    bias_filler {
      type: "constant"
      value: 0.2
    }
  }
}
layer {
  name: "inception_3a/relu_5x5"
  type: "ReLU"
  bottom: "inception_3a/5x5"
  top: "inception_3a/5x5"
}
layer {
  name: "inception_3a/pool"
  type: "Pooling"
  bottom: "pool2/3x3_s2"
  top: "inception_3a/pool"
  pooling_param {
    pool: MAX
    kernel_size: 3
    stride: 1
    pad: 1
  }
}
layer {
  name: "inception_3a/pool_proj"
  type: "Convolution"
  bottom: "inception_3a/pool"
  top: "inception_3a/pool_proj"
  param {
    lr_mult: 1
    decay_mult: 1
  }
  param {
    lr_mult: 2
    decay_mult: 0
  }
  convolution_param {
    num_output: 32
    kernel_size: 1
    weight_filler {
      type: "xavier"
      std: 0.1
    }
    bias_filler {
      type: "constant"
      value: 0.2
    }
  }
}
layer {
  name: "inception_3a/relu_pool_proj"
  type: "ReLU"
  bottom: "inception_3a/pool_proj"
  top: "inception_3a/pool_proj"
}
layer {
  name: "inception_3a/output"
  type: "Concat"
  bottom: "inception_3a/1x1"
  bottom: "inception_3a/3x3"
  bottom: "inception_3a/5x5"
  bottom: "inception_3a/pool_proj"
  top: "inception_3a/output"
}
layer {
  name: "inception_3b/1x1"
  type: "Convolution"
  bottom: "inception_3a/output"
  top: "inception_3b/1x1"
  param {
    lr_mult: 1
    decay_mult: 1
  }
  param {
    lr_mult: 2
    decay_mult: 0
  }
  convolution_param {
    num_output: 128
    kernel_size: 1
    weight_filler {
      type: "xavier"
      std: 0.03
    }
    bias_filler {
      type: "constant"
      value: 0.2
    }
  }
}
layer {
  name: "inception_3b/relu_1x1"
  type: "ReLU"
  bottom: "inception_3b/1x1"
  top: "inception_3b/1x1"
}
layer {
  name: "inception_3b/3x3_reduce"
  type: "Convolution"
  bottom: "inception_3a/output"
  top: "inception_3b/3x3_reduce"
  param {
    lr_mult: 1
    decay_mult: 1
  }
  param {
    lr_mult: 2
    decay_mult: 0
  }
  convolution_param {
    num_output: 128
    kernel_size: 1
    weight_filler {
      type: "xavier"
      std: 0.09
    }
    bias_filler {
      type: "constant"
      value: 0.2
    }
  }
}
layer {
  name: "inception_3b/relu_3x3_reduce"
  type: "ReLU"
  bottom: "inception_3b/3x3_reduce"
  top: "inception_3b/3x3_reduce"
}
layer {
  name: "inception_3b/3x3"
  type: "Convolution"
  bottom: "inception_3b/3x3_reduce"
  top: "inception_3b/3x3"
  param {
    lr_mult: 1
    decay_mult: 1
  }
  param {
    lr_mult: 2
    decay_mult: 0
  }
  convolution_param {
    num_output: 192
    pad: 1
    kernel_size: 3
    weight_filler {
      type: "xavier"
      std: 0.03
    }
    bias_filler {
      type: "constant"
      value: 0.2
    }
  }
}
layer {
  name: "inception_3b/relu_3x3"
  type: "ReLU"
  bottom: "inception_3b/3x3"
  top: "inception_3b/3x3"
}
layer {
  name: "inception_3b/5x5_reduce"
  type: "Convolution"
  bottom: "inception_3a/output"
  top: "inception_3b/5x5_reduce"
  param {
    lr_mult: 1
    decay_mult: 1
  }
  param {
    lr_mult: 2
    decay_mult: 0
  }
  convolution_param {
    num_output: 32
    kernel_size: 1
    weight_filler {
      type: "xavier"
      std: 0.2
    }
    bias_filler {
      type: "constant"
      value: 0.2
    }
  }
}
layer {
  name: "inception_3b/relu_5x5_reduce"
  type: "ReLU"
  bottom: "inception_3b/5x5_reduce"
  top: "inception_3b/5x5_reduce"
}
layer {
  name: "inception_3b/5x5"
  type: "Convolution"
  bottom: "inception_3b/5x5_reduce"
  top: "inception_3b/5x5"
  param {
    lr_mult: 1
    decay_mult: 1
  }
  param {
    lr_mult: 2
    decay_mult: 0
  }
  convolution_param {
    num_output: 96
    pad: 2
    kernel_size: 5
    weight_filler {
      type: "xavier"
      std: 0.03
    }
    bias_filler {
      type: "constant"
      value: 0.2
    }
  }
}
layer {
  name: "inception_3b/relu_5x5"
  type: "ReLU"
  bottom: "inception_3b/5x5"
  top: "inception_3b/5x5"
}
layer {
  name: "inception_3b/pool"
  type: "Pooling"
  bottom: "inception_3a/output"
  top: "inception_3b/pool"
  pooling_param {
    pool: MAX
    kernel_size: 3
    stride: 1
    pad: 1
  }
}
layer {
  name: "inception_3b/pool_proj"
  type: "Convolution"
  bottom: "inception_3b/pool"
  top: "inception_3b/pool_proj"
  param {
    lr_mult: 1
    decay_mult: 1
  }
  param {
    lr_mult: 2
    decay_mult: 0
  }
  convolution_param {
    num_output: 64
    kernel_size: 1
    weight_filler {
      type: "xavier"
      std: 0.1
    }
    bias_filler {
      type: "constant"
      value: 0.2
    }
  }
}
layer {
  name: "inception_3b/relu_pool_proj"
  type: "ReLU"
  bottom: "inception_3b/pool_proj"
  top: "inception_3b/pool_proj"
}
layer {
  name: "inception_3b/output"
  type: "Concat"
  bottom: "inception_3b/1x1"
  bottom: "inception_3b/3x3"
  bottom: "inception_3b/5x5"
  bottom: "inception_3b/pool_proj"
  top: "inception_3b/output"
}
layer {
  name: "pool3/3x3_s2"
  type: "Pooling"
  bottom: "inception_3b/output"
  top: "pool3/3x3_s2"
  pooling_param {
    pool: MAX
    kernel_size: 3
    stride: 2
  }
}
layer {
  name: "inception_4a/1x1"
  type: "Convolution"
  bottom: "pool3/3x3_s2"
  top: "inception_4a/1x1"
  param {
    lr_mult: 1
    decay_mult: 1
  }
  param {
    lr_mult: 2
    decay_mult: 0
  }
  convolution_param {
    num_output: 192
    kernel_size: 1
    weight_filler {
      type: "xavier"
      std: 0.03
    }
    bias_filler {
      type: "constant"
      value: 0.2
    }
  }
}
layer {
  name: "inception_4a/relu_1x1"
  type: "ReLU"
  bottom: "inception_4a/1x1"
  top: "inception_4a/1x1"
}
layer {
  name: "inception_4a/3x3_reduce"
  type: "Convolution"
  bottom: "pool3/3x3_s2"
  top: "inception_4a/3x3_reduce"
  param {
    lr_mult: 1
    decay_mult: 1
  }
  param {
    lr_mult: 2
    decay_mult: 0
  }
  convolution_param {
    num_output: 96
    kernel_size: 1
    weight_filler {
      type: "xavier"
      std: 0.09
    }
    bias_filler {
      type: "constant"
      value: 0.2
    }
  }
}
layer {
  name: "inception_4a/relu_3x3_reduce"
  type: "ReLU"
  bottom: "inception_4a/3x3_reduce"
  top: "inception_4a/3x3_reduce"
}
layer {
  name: "inception_4a/3x3"
  type: "Convolution"
  bottom: "inception_4a/3x3_reduce"
  top: "inception_4a/3x3"
  param {
    lr_mult: 1
    decay_mult: 1
  }
  param {
    lr_mult: 2
    decay_mult: 0
  }
  convolution_param {
    num_output: 208
    pad: 1
    kernel_size: 3
    weight_filler {
      type: "xavier"
      std: 0.03
    }
    bias_filler {
      type: "constant"
      value: 0.2
    }
  }
}
layer {
  name: "inception_4a/relu_3x3"
  type: "ReLU"
  bottom: "inception_4a/3x3"
  top: "inception_4a/3x3"
}
layer {
  name: "inception_4a/5x5_reduce"
  type: "Convolution"
  bottom: "pool3/3x3_s2"
  top: "inception_4a/5x5_reduce"
  param {
    lr_mult: 1
    decay_mult: 1
  }
  param {
    lr_mult: 2
    decay_mult: 0
  }
  convolution_param {
    num_output: 16
    kernel_size: 1
    weight_filler {
      type: "xavier"
      std: 0.2
    }
    bias_filler {
      type: "constant"
      value: 0.2
    }
  }
}
layer {
  name: "inception_4a/relu_5x5_reduce"
  type: "ReLU"
  bottom: "inception_4a/5x5_reduce"
  top: "inception_4a/5x5_reduce"
}
layer {
  name: "inception_4a/5x5"
  type: "Convolution"
  bottom: "inception_4a/5x5_reduce"
  top: "inception_4a/5x5"
  param {
    lr_mult: 1
    decay_mult: 1
  }
  param {
    lr_mult: 2
    decay_mult: 0
  }
  convolution_param {
    num_output: 48
    pad: 2
    kernel_size: 5
    weight_filler {
      type: "xavier"
      std: 0.03
    }
    bias_filler {
      type: "constant"
      value: 0.2
    }
  }
}
layer {
  name: "inception_4a/relu_5x5"
  type: "ReLU"
  bottom: "inception_4a/5x5"
  top: "inception_4a/5x5"
}
layer {
  name: "inception_4a/pool"
  type: "Pooling"
  bottom: "pool3/3x3_s2"
  top: "inception_4a/pool"
  pooling_param {
    pool: MAX
    kernel_size: 3
    stride: 1
    pad: 1
  }
}
layer {
  name: "inception_4a/pool_proj"
  type: "Convolution"
  bottom: "inception_4a/pool"
  top: "inception_4a/pool_proj"
  param {
    lr_mult: 1
    decay_mult: 1
  }
  param {
    lr_mult: 2
    decay_mult: 0
  }
  convolution_param {
    num_output: 64
    kernel_size: 1
    weight_filler {
      type: "xavier"
      std: 0.1
    }
    bias_filler {
      type: "constant"
      value: 0.2
    }
  }
}
layer {
  name: "inception_4a/relu_pool_proj"
  type: "ReLU"
  bottom: "inception_4a/pool_proj"
  top: "inception_4a/pool_proj"
}
layer {
  name: "inception_4a/output"
  type: "Concat"
  bottom: "inception_4a/1x1"
  bottom: "inception_4a/3x3"
  bottom: "inception_4a/5x5"
  bottom: "inception_4a/pool_proj"
  top: "inception_4a/output"
}
layer {
  name: "loss1/ave_pool"
  type: "Pooling"
  bottom: "inception_4a/output"
  top: "loss1/ave_pool"
  pooling_param {
    pool: AVE
    kernel_size: 5
    stride: 3
  }
}
layer {
  name: "loss1/conv"
  type: "Convolution"
  bottom: "loss1/ave_pool"
  top: "loss1/conv"
  param {
    lr_mult: 1
    decay_mult: 1
  }
  param {
    lr_mult: 2
    decay_mult: 0
  }
  convolution_param {
    num_output: 128
    kernel_size: 1
    weight_filler {
      type: "xavier"
      std: 0.08
    }
    bias_filler {
      type: "constant"
      value: 0.2
    }
  }
}
layer {
  name: "loss1/relu_conv"
  type: "ReLU"
  bottom: "loss1/conv"
  top: "loss1/conv"
}
layer {
  name: "loss1/fc"
  type: "InnerProduct"
  bottom: "loss1/conv"
  top: "loss1/fc"
  param {
    lr_mult: 1
    decay_mult: 1
  }
  param {
    lr_mult: 2
    decay_mult: 0
  }
  inner_product_param {
    num_output: 1024
    weight_filler {
      type: "xavier"
      std: 0.02
    }
    bias_filler {
      type: "constant"
      value: 0.2
    }
  }
}
layer {
  name: "loss1/relu_fc"
  type: "ReLU"
  bottom: "loss1/fc"
  top: "loss1/fc"
}
layer {
  name: "loss1/drop_fc"
  type: "Dropout"
  bottom: "loss1/fc"
  top: "loss1/fc"
  dropout_param {
    dropout_ratio: 0.7
  }
}
layer {
  name: "loss1/classifier_plantvillage"
  type: "InnerProduct"
  bottom: "loss1/fc"
  top: "loss1/classifier_plantvillage"
  param {
    lr_mult: 1
    decay_mult: 1
  }
  param {
    lr_mult: 2
    decay_mult: 0
  }
  inner_product_param {
    num_output: 38
    weight_filler {
      type: "xavier"
      std: 0.0009765625
    }
    bias_filler {
      type: "constant"
      value: 0
    }
  }
}
layer {
  name: "inception_4b/1x1"
  type: "Convolution"
  bottom: "inception_4a/output"
  top: "inception_4b/1x1"
  param {
    lr_mult: 1
    decay_mult: 1
  }
  param {
    lr_mult: 2
    decay_mult: 0
  }
  convolution_param {
    num_output: 160
    kernel_size: 1
    weight_filler {
      type: "xavier"
      std: 0.03
    }
    bias_filler {
      type: "constant"
      value: 0.2
    }
  }
}
layer {
  name: "inception_4b/relu_1x1"
  type: "ReLU"
  bottom: "inception_4b/1x1"
  top: "inception_4b/1x1"
}
layer {
  name: "inception_4b/3x3_reduce"
  type: "Convolution"
  bottom: "inception_4a/output"
  top: "inception_4b/3x3_reduce"
  param {
    lr_mult: 1
    decay_mult: 1
  }
  param {
    lr_mult: 2
    decay_mult: 0
  }
  convolution_param {
    num_output: 112
    kernel_size: 1
    weight_filler {
      type: "xavier"
      std: 0.09
    }
    bias_filler {
      type: "constant"
      value: 0.2
    }
  }
}
layer {
  name: "inception_4b/relu_3x3_reduce"
  type: "ReLU"
  bottom: "inception_4b/3x3_reduce"
  top: "inception_4b/3x3_reduce"
}
layer {
  name: "inception_4b/3x3"
  type: "Convolution"
  bottom: "inception_4b/3x3_reduce"
  top: "inception_4b/3x3"
  param {
    lr_mult: 1
    decay_mult: 1
  }
  param {
    lr_mult: 2
    decay_mult: 0
  }
  convolution_param {
    num_output: 224
    pad: 1
    kernel_size: 3
    weight_filler {
      type: "xavier"
      std: 0.03
    }
    bias_filler {
      type: "constant"
      value: 0.2
    }
  }
}
layer {
  name: "inception_4b/relu_3x3"
  type: "ReLU"
  bottom: "inception_4b/3x3"
  top: "inception_4b/3x3"
}
layer {
  name: "inception_4b/5x5_reduce"
  type: "Convolution"
  bottom: "inception_4a/output"
  top: "inception_4b/5x5_reduce"
  param {
    lr_mult: 1
    decay_mult: 1
  }
  param {
    lr_mult: 2
    decay_mult: 0
  }
  convolution_param {
    num_output: 24
    kernel_size: 1
    weight_filler {
      type: "xavier"
      std: 0.2
    }
    bias_filler {
      type: "constant"
      value: 0.2
    }
  }
}
layer {
  name: "inception_4b/relu_5x5_reduce"
  type: "ReLU"
  bottom: "inception_4b/5x5_reduce"
  top: "inception_4b/5x5_reduce"
}
layer {
  name: "inception_4b/5x5"
  type: "Convolution"
  bottom: "inception_4b/5x5_reduce"
  top: "inception_4b/5x5"
  param {
    lr_mult: 1
    decay_mult: 1
  }
  param {
    lr_mult: 2
    decay_mult: 0
  }
  convolution_param {
    num_output: 64
    pad: 2
    kernel_size: 5
    weight_filler {
      type: "xavier"
      std: 0.03
    }
    bias_filler {
      type: "constant"
      value: 0.2
    }
  }
}
layer {
  name: "inception_4b/relu_5x5"
  type: "ReLU"
  bottom: "inception_4b/5x5"
  top: "inception_4b/5x5"
}
layer {
  name: "inception_4b/pool"
  type: "Pooling"
  bottom: "inception_4a/output"
  top: "inception_4b/pool"
  pooling_param {
    pool: MAX
    kernel_size: 3
    stride: 1
    pad: 1
  }
}
layer {
  name: "inception_4b/pool_proj"
  type: "Convolution"
  bottom: "inception_4b/pool"
  top: "inception_4b/pool_proj"
  param {
    lr_mult: 1
    decay_mult: 1
  }
  param {
    lr_mult: 2
    decay_mult: 0
  }
  convolution_param {
    num_output: 64
    kernel_size: 1
    weight_filler {
      type: "xavier"
      std: 0.1
    }
    bias_filler {
      type: "constant"
      value: 0.2
    }
  }
}
layer {
  name: "inception_4b/relu_pool_proj"
  type: "ReLU"
  bottom: "inception_4b/pool_proj"
  top: "inception_4b/pool_proj"
}
layer {
  name: "inception_4b/output"
  type: "Concat"
  bottom: "inception_4b/1x1"
  bottom: "inception_4b/3x3"
  bottom: "inception_4b/5x5"
  bottom: "inception_4b/pool_proj"
  top: "inception_4b/output"
}
layer {
  name: "inception_4c/1x1"
  type: "Convolution"
  bottom: "inception_4b/output"
  top: "inception_4c/1x1"
  param {
    lr_mult: 1
    decay_mult: 1
  }
  param {
    lr_mult: 2
    decay_mult: 0
  }
  convolution_param {
    num_output: 128
    kernel_size: 1
    weight_filler {
      type: "xavier"
      std: 0.03
    }
    bias_filler {
      type: "constant"
      value: 0.2
    }
  }
}
layer {
  name: "inception_4c/relu_1x1"
  type: "ReLU"
  bottom: "inception_4c/1x1"
  top: "inception_4c/1x1"
}
layer {
  name: "inception_4c/3x3_reduce"
  type: "Convolution"
  bottom: "inception_4b/output"
  top: "inception_4c/3x3_reduce"
  param {
    lr_mult: 1
    decay_mult: 1
  }
  param {
    lr_mult: 2
    decay_mult: 0
  }
  convolution_param {
    num_output: 128
    kernel_size: 1
    weight_filler {
      type: "xavier"
      std: 0.09
    }
    bias_filler {
      type: "constant"
      value: 0.2
    }
  }
}
layer {
  name: "inception_4c/relu_3x3_reduce"
  type: "ReLU"
  bottom: "inception_4c/3x3_reduce"
  top: "inception_4c/3x3_reduce"
}
layer {
  name: "inception_4c/3x3"
  type: "Convolution"
  bottom: "inception_4c/3x3_reduce"
  top: "inception_4c/3x3"
  param {
    lr_mult: 1
    decay_mult: 1
  }
  param {
    lr_mult: 2
    decay_mult: 0
  }
  convolution_param {
    num_output: 256
    pad: 1
    kernel_size: 3
    weight_filler {
      type: "xavier"
      std: 0.03
    }
    bias_filler {
      type: "constant"
      value: 0.2
    }
  }
}
layer {
  name: "inception_4c/relu_3x3"
  type: "ReLU"
  bottom: "inception_4c/3x3"
  top: "inception_4c/3x3"
}
layer {
  name: "inception_4c/5x5_reduce"
  type: "Convolution"
  bottom: "inception_4b/output"
  top: "inception_4c/5x5_reduce"
  param {
    lr_mult: 1
    decay_mult: 1
  }
  param {
    lr_mult: 2
    decay_mult: 0
  }
  convolution_param {
    num_output: 24
    kernel_size: 1
    weight_filler {
      type: "xavier"
      std: 0.2
    }
    bias_filler {
      type: "constant"
      value: 0.2
    }
  }
}
layer {
  name: "inception_4c/relu_5x5_reduce"
  type: "ReLU"
  bottom: "inception_4c/5x5_reduce"
  top: "inception_4c/5x5_reduce"
}
layer {
  name: "inception_4c/5x5"
  type: "Convolution"
  bottom: "inception_4c/5x5_reduce"
  top: "inception_4c/5x5"
  param {
    lr_mult: 1
    decay_mult: 1
  }
  param {
    lr_mult: 2
    decay_mult: 0
  }
  convolution_param {
    num_output: 64
    pad: 2
    kernel_size: 5
    weight_filler {
      type: "xavier"
      std: 0.03
    }
    bias_filler {
      type: "constant"
      value: 0.2
    }
  }
}
layer {
  name: "inception_4c/relu_5x5"
  type: "ReLU"
  bottom: "inception_4c/5x5"
  top: "inception_4c/5x5"
}
layer {
  name: "inception_4c/pool"
  type: "Pooling"
  bottom: "inception_4b/output"
  top: "inception_4c/pool"
  pooling_param {
    pool: MAX
    kernel_size: 3
    stride: 1
    pad: 1
  }
}
layer {
  name: "inception_4c/pool_proj"
  type: "Convolution"
  bottom: "inception_4c/pool"
  top: "inception_4c/pool_proj"
  param {
    lr_mult: 1
    decay_mult: 1
  }
  param {
    lr_mult: 2
    decay_mult: 0
  }
  convolution_param {
    num_output: 64
    kernel_size: 1
    weight_filler {
      type: "xavier"
      std: 0.1
    }
    bias_filler {
      type: "constant"
      value: 0.2
    }
  }
}
layer {
  name: "inception_4c/relu_pool_proj"
  type: "ReLU"
  bottom: "inception_4c/pool_proj"
  top: "inception_4c/pool_proj"
}
layer {
  name: "inception_4c/output"
  type: "Concat"
  bottom: "inception_4c/1x1"
  bottom: "inception_4c/3x3"
  bottom: "inception_4c/5x5"
  bottom: "inception_4c/pool_proj"
  top: "inception_4c/output"
}
layer {
  name: "inception_4d/1x1"
  type: "Convolution"
  bottom: "inception_4c/output"
  top: "inception_4d/1x1"
  param {
    lr_mult: 1
    decay_mult: 1
  }
  param {
    lr_mult: 2
    decay_mult: 0
  }
  convolution_param {
    num_output: 112
    kernel_size: 1
    weight_filler {
      type: "xavier"
      std: 0.03
    }
    bias_filler {
      type: "constant"
      value: 0.2
    }
  }
}
layer {
  name: "inception_4d/relu_1x1"
  type: "ReLU"
  bottom: "inception_4d/1x1"
  top: "inception_4d/1x1"
}
layer {
  name: "inception_4d/3x3_reduce"
  type: "Convolution"
  bottom: "inception_4c/output"
  top: "inception_4d/3x3_reduce"
  param {
    lr_mult: 1
    decay_mult: 1
  }
  param {
    lr_mult: 2
    decay_mult: 0
  }
  convolution_param {
    num_output: 144
    kernel_size: 1
    weight_filler {
      type: "xavier"
      std: 0.09
    }
    bias_filler {
      type: "constant"
      value: 0.2
    }
  }
}
layer {
  name: "inception_4d/relu_3x3_reduce"
  type: "ReLU"
  bottom: "inception_4d/3x3_reduce"
  top: "inception_4d/3x3_reduce"
}
layer {
  name: "inception_4d/3x3"
  type: "Convolution"
  bottom: "inception_4d/3x3_reduce"
  top: "inception_4d/3x3"
  param {
    lr_mult: 1
    decay_mult: 1
  }
  param {
    lr_mult: 2
    decay_mult: 0
  }
  convolution_param {
    num_output: 288
    pad: 1
    kernel_size: 3
    weight_filler {
      type: "xavier"
      std: 0.03
    }
    bias_filler {
      type: "constant"
      value: 0.2
    }
  }
}
layer {
  name: "inception_4d/relu_3x3"
  type: "ReLU"
  bottom: "inception_4d/3x3"
  top: "inception_4d/3x3"
}
layer {
  name: "inception_4d/5x5_reduce"
  type: "Convolution"
  bottom: "inception_4c/output"
  top: "inception_4d/5x5_reduce"
  param {
    lr_mult: 1
    decay_mult: 1
  }
  param {
    lr_mult: 2
    decay_mult: 0
  }
  convolution_param {
    num_output: 32
    kernel_size: 1
    weight_filler {
      type: "xavier"
      std: 0.2
    }
    bias_filler {
      type: "constant"
      value: 0.2
    }
  }
}
layer {
  name: "inception_4d/relu_5x5_reduce"
  type: "ReLU"
  bottom: "inception_4d/5x5_reduce"
  top: "inception_4d/5x5_reduce"
}
layer {
  name: "inception_4d/5x5"
  type: "Convolution"
  bottom: "inception_4d/5x5_reduce"
  top: "inception_4d/5x5"
  param {
    lr_mult: 1
    decay_mult: 1
  }
  param {
    lr_mult: 2
    decay_mult: 0
  }
  convolution_param {
    num_output: 64
    pad: 2
    kernel_size: 5
    weight_filler {
      type: "xavier"
      std: 0.03
    }
    bias_filler {
      type: "constant"
      value: 0.2
    }
  }
}
layer {
  name: "inception_4d/relu_5x5"
  type: "ReLU"
  bottom: "inception_4d/5x5"
  top: "inception_4d/5x5"
}
layer {
  name: "inception_4d/pool"
  type: "Pooling"
  bottom: "inception_4c/output"
  top: "inception_4d/pool"
  pooling_param {
    pool: MAX
    kernel_size: 3
    stride: 1
    pad: 1
  }
}
layer {
  name: "inception_4d/pool_proj"
  type: "Convolution"
  bottom: "inception_4d/pool"
  top: "inception_4d/pool_proj"
  param {
    lr_mult: 1
    decay_mult: 1
  }
  param {
    lr_mult: 2
    decay_mult: 0
  }
  convolution_param {
    num_output: 64
    kernel_size: 1
    weight_filler {
      type: "xavier"
      std: 0.1
    }
    bias_filler {
      type: "constant"
      value: 0.2
    }
  }
}
layer {
  name: "inception_4d/relu_pool_proj"
  type: "ReLU"
  bottom: "inception_4d/pool_proj"
  top: "inception_4d/pool_proj"
}
layer {
  name: "inception_4d/output"
  type: "Concat"
  bottom: "inception_4d/1x1"
  bottom: "inception_4d/3x3"
  bottom: "inception_4d/5x5"
  bottom: "inception_4d/pool_proj"
  top: "inception_4d/output"
}
layer {
  name: "loss2/ave_pool"
  type: "Pooling"
  bottom: "inception_4d/output"
  top: "loss2/ave_pool"
  pooling_param {
    pool: AVE
    kernel_size: 5
    stride: 3
  }
}
layer {
  name: "loss2/conv"
  type: "Convolution"
  bottom: "loss2/ave_pool"
  top: "loss2/conv"
  param {
    lr_mult: 1
    decay_mult: 1
  }
  param {
    lr_mult: 2
    decay_mult: 0
  }
  convolution_param {
    num_output: 128
    kernel_size: 1
    weight_filler {
      type: "xavier"
      std: 0.08
    }
    bias_filler {
      type: "constant"
      value: 0.2
    }
  }
}
layer {
  name: "loss2/relu_conv"
  type: "ReLU"
  bottom: "loss2/conv"
  top: "loss2/conv"
}
layer {
  name: "loss2/fc"
  type: "InnerProduct"
  bottom: "loss2/conv"
  top: "loss2/fc"
  param {
    lr_mult: 1
    decay_mult: 1
  }
  param {
    lr_mult: 2
    decay_mult: 0
  }
  inner_product_param {
    num_output: 1024
    weight_filler {
      type: "xavier"
      std: 0.02
    }
    bias_filler {
      type: "constant"
      value: 0.2
    }
  }
}
layer {
  name: "loss2/relu_fc"
  type: "ReLU"
  bottom: "loss2/fc"
  top: "loss2/fc"
}
layer {
  name: "loss2/drop_fc"
  type: "Dropout"
  bottom: "loss2/fc"
  top: "loss2/fc"
  dropout_param {
    dropout_ratio: 0.7
  }
}
layer {
  name: "loss2/classifier_plantvillage"
  type: "InnerProduct"
  bottom: "loss2/fc"
  top: "loss2/classifier_plantvillage"
  param {
    lr_mult: 1
    decay_mult: 1
  }
  param {
    lr_mult: 2
    decay_mult: 0
  }
  inner_product_param {
    num_output: 38
    weight_filler {
      type: "xavier"
      std: 0.0009765625
    }
    bias_filler {
      type: "constant"
      value: 0
    }
  }
}
layer {
  name: "inception_4e/1x1"
  type: "Convolution"
  bottom: "inception_4d/output"
  top: "inception_4e/1x1"
  param {
    lr_mult: 1
    decay_mult: 1
  }
  param {
    lr_mult: 2
    decay_mult: 0
  }
  convolution_param {
    num_output: 256
    kernel_size: 1
    weight_filler {
      type: "xavier"
      std: 0.03
    }
    bias_filler {
      type: "constant"
      value: 0.2
    }
  }
}
layer {
  name: "inception_4e/relu_1x1"
  type: "ReLU"
  bottom: "inception_4e/1x1"
  top: "inception_4e/1x1"
}
layer {
  name: "inception_4e/3x3_reduce"
  type: "Convolution"
  bottom: "inception_4d/output"
  top: "inception_4e/3x3_reduce"
  param {
    lr_mult: 1
    decay_mult: 1
  }
  param {
    lr_mult: 2
    decay_mult: 0
  }
  convolution_param {
    num_output: 160
    kernel_size: 1
    weight_filler {
      type: "xavier"
      std: 0.09
    }
    bias_filler {
      type: "constant"
      value: 0.2
    }
  }
}
layer {
  name: "inception_4e/relu_3x3_reduce"
  type: "ReLU"
  bottom: "inception_4e/3x3_reduce"
  top: "inception_4e/3x3_reduce"
}
layer {
  name: "inception_4e/3x3"
  type: "Convolution"
  bottom: "inception_4e/3x3_reduce"
  top: "inception_4e/3x3"
  param {
    lr_mult: 1
    decay_mult: 1
  }
  param {
    lr_mult: 2
    decay_mult: 0
  }
  convolution_param {
    num_output: 320
    pad: 1
    kernel_size: 3
    weight_filler {
      type: "xavier"
      std: 0.03
    }
    bias_filler {
      type: "constant"
      value: 0.2
    }
  }
}
layer {
  name: "inception_4e/relu_3x3"
  type: "ReLU"
  bottom: "inception_4e/3x3"
  top: "inception_4e/3x3"
}
layer {
  name: "inception_4e/5x5_reduce"
  type: "Convolution"
  bottom: "inception_4d/output"
  top: "inception_4e/5x5_reduce"
  param {
    lr_mult: 1
    decay_mult: 1
  }
  param {
    lr_mult: 2
    decay_mult: 0
  }
  convolution_param {
    num_output: 32
    kernel_size: 1
    weight_filler {
      type: "xavier"
      std: 0.2
    }
    bias_filler {
      type: "constant"
      value: 0.2
    }
  }
}
layer {
  name: "inception_4e/relu_5x5_reduce"
  type: "ReLU"
  bottom: "inception_4e/5x5_reduce"
  top: "inception_4e/5x5_reduce"
}
layer {
  name: "inception_4e/5x5"
  type: "Convolution"
  bottom: "inception_4e/5x5_reduce"
  top: "inception_4e/
I0403 16:24:44.659490 18040 layer_factory.hpp:77] Creating layer data
I0403 16:24:44.660106 18040 net.cpp:91] Creating Layer data
I0403 16:24:44.660140 18040 net.cpp:399] data -> data
I0403 16:24:44.660192 18040 net.cpp:399] data -> label
I0403 16:24:44.660228 18040 data_transformer.cpp:25] Loading mean file from: /home/mohanty/data/final_dataset/lmdb/segmented-20-80/mean.binaryproto
I0403 16:24:44.661427 18042 db_lmdb.cpp:38] Opened lmdb /home/mohanty/data/final_dataset/lmdb/segmented-20-80/test_db
I0403 16:24:44.673322 18040 data_layer.cpp:41] output data size: 24,3,224,224
I0403 16:24:44.700417 18040 net.cpp:141] Setting up data
I0403 16:24:44.700497 18040 net.cpp:148] Top shape: 24 3 224 224 (3612672)
I0403 16:24:44.700520 18040 net.cpp:148] Top shape: 24 (24)
I0403 16:24:44.700534 18040 net.cpp:156] Memory required for data: 14450784
I0403 16:24:44.700562 18040 layer_factory.hpp:77] Creating layer label_data_1_split
I0403 16:24:44.700592 18040 net.cpp:91] Creating Layer label_data_1_split
I0403 16:24:44.700610 18040 net.cpp:425] label_data_1_split <- label
I0403 16:24:44.700642 18040 net.cpp:399] label_data_1_split -> label_data_1_split_0
I0403 16:24:44.700670 18040 net.cpp:399] label_data_1_split -> label_data_1_split_1
I0403 16:24:44.700688 18040 net.cpp:399] label_data_1_split -> label_data_1_split_2
I0403 16:24:44.700707 18040 net.cpp:399] label_data_1_split -> label_data_1_split_3
I0403 16:24:44.700726 18040 net.cpp:399] label_data_1_split -> label_data_1_split_4
I0403 16:24:44.700744 18040 net.cpp:399] label_data_1_split -> label_data_1_split_5
I0403 16:24:44.700762 18040 net.cpp:399] label_data_1_split -> label_data_1_split_6
I0403 16:24:44.700781 18040 net.cpp:399] label_data_1_split -> label_data_1_split_7
I0403 16:24:44.700799 18040 net.cpp:399] label_data_1_split -> label_data_1_split_8
I0403 16:24:44.700819 18040 net.cpp:399] label_data_1_split -> label_data_1_split_9
I0403 16:24:44.700928 18040 net.cpp:141] Setting up label_data_1_split
I0403 16:24:44.700950 18040 net.cpp:148] Top shape: 24 (24)
I0403 16:24:44.700966 18040 net.cpp:148] Top shape: 24 (24)
I0403 16:24:44.700981 18040 net.cpp:148] Top shape: 24 (24)
I0403 16:24:44.700994 18040 net.cpp:148] Top shape: 24 (24)
I0403 16:24:44.701009 18040 net.cpp:148] Top shape: 24 (24)
I0403 16:24:44.701022 18040 net.cpp:148] Top shape: 24 (24)
I0403 16:24:44.701036 18040 net.cpp:148] Top shape: 24 (24)
I0403 16:24:44.701051 18040 net.cpp:148] Top shape: 24 (24)
I0403 16:24:44.701066 18040 net.cpp:148] Top shape: 24 (24)
I0403 16:24:44.701079 18040 net.cpp:148] Top shape: 24 (24)
I0403 16:24:44.701117 18040 net.cpp:156] Memory required for data: 14451744
I0403 16:24:44.701133 18040 layer_factory.hpp:77] Creating layer conv1/7x7_s2
I0403 16:24:44.701161 18040 net.cpp:91] Creating Layer conv1/7x7_s2
I0403 16:24:44.701179 18040 net.cpp:425] conv1/7x7_s2 <- data
I0403 16:24:44.701196 18040 net.cpp:399] conv1/7x7_s2 -> conv1/7x7_s2
I0403 16:24:44.836549 18040 net.cpp:141] Setting up conv1/7x7_s2
I0403 16:24:44.836628 18040 net.cpp:148] Top shape: 24 64 112 112 (19267584)
I0403 16:24:44.836645 18040 net.cpp:156] Memory required for data: 91522080
I0403 16:24:44.836674 18040 layer_factory.hpp:77] Creating layer conv1/relu_7x7
I0403 16:24:44.836699 18040 net.cpp:91] Creating Layer conv1/relu_7x7
I0403 16:24:44.836717 18040 net.cpp:425] conv1/relu_7x7 <- conv1/7x7_s2
I0403 16:24:44.836735 18040 net.cpp:386] conv1/relu_7x7 -> conv1/7x7_s2 (in-place)
I0403 16:24:44.836978 18040 net.cpp:141] Setting up conv1/relu_7x7
I0403 16:24:44.837004 18040 net.cpp:148] Top shape: 24 64 112 112 (19267584)
I0403 16:24:44.837018 18040 net.cpp:156] Memory required for data: 168592416
I0403 16:24:44.837033 18040 layer_factory.hpp:77] Creating layer pool1/3x3_s2
I0403 16:24:44.837056 18040 net.cpp:91] Creating Layer pool1/3x3_s2
I0403 16:24:44.837072 18040 net.cpp:425] pool1/3x3_s2 <- conv1/7x7_s2
I0403 16:24:44.837090 18040 net.cpp:399] pool1/3x3_s2 -> pool1/3x3_s2
I0403 16:24:44.837162 18040 net.cpp:141] Setting up pool1/3x3_s2
I0403 16:24:44.837183 18040 net.cpp:148] Top shape: 24 64 56 56 (4816896)
I0403 16:24:44.837196 18040 net.cpp:156] Memory required for data: 187860000
I0403 16:24:44.837210 18040 layer_factory.hpp:77] Creating layer pool1/norm1
I0403 16:24:44.837234 18040 net.cpp:91] Creating Layer pool1/norm1
I0403 16:24:44.837250 18040 net.cpp:425] pool1/norm1 <- pool1/3x3_s2
I0403 16:24:44.837267 18040 net.cpp:399] pool1/norm1 -> pool1/norm1
I0403 16:24:44.837538 18040 net.cpp:141] Setting up pool1/norm1
I0403 16:24:44.837564 18040 net.cpp:148] Top shape: 24 64 56 56 (4816896)
I0403 16:24:44.837584 18040 net.cpp:156] Memory required for data: 207127584
I0403 16:24:44.837599 18040 layer_factory.hpp:77] Creating layer conv2/3x3_reduce
I0403 16:24:44.837622 18040 net.cpp:91] Creating Layer conv2/3x3_reduce
I0403 16:24:44.837638 18040 net.cpp:425] conv2/3x3_reduce <- pool1/norm1
I0403 16:24:44.837656 18040 net.cpp:399] conv2/3x3_reduce -> conv2/3x3_reduce
I0403 16:24:44.838935 18040 net.cpp:141] Setting up conv2/3x3_reduce
I0403 16:24:44.838963 18040 net.cpp:148] Top shape: 24 64 56 56 (4816896)
I0403 16:24:44.838979 18040 net.cpp:156] Memory required for data: 226395168
I0403 16:24:44.838999 18040 layer_factory.hpp:77] Creating layer conv2/relu_3x3_reduce
I0403 16:24:44.839015 18040 net.cpp:91] Creating Layer conv2/relu_3x3_reduce
I0403 16:24:44.839030 18040 net.cpp:425] conv2/relu_3x3_reduce <- conv2/3x3_reduce
I0403 16:24:44.839046 18040 net.cpp:386] conv2/relu_3x3_reduce -> conv2/3x3_reduce (in-place)
I0403 16:24:44.839288 18040 net.cpp:141] Setting up conv2/relu_3x3_reduce
I0403 16:24:44.839316 18040 net.cpp:148] Top shape: 24 64 56 56 (4816896)
I0403 16:24:44.839331 18040 net.cpp:156] Memory required for data: 245662752
I0403 16:24:44.839346 18040 layer_factory.hpp:77] Creating layer conv2/3x3
I0403 16:24:44.839368 18040 net.cpp:91] Creating Layer conv2/3x3
I0403 16:24:44.839385 18040 net.cpp:425] conv2/3x3 <- conv2/3x3_reduce
I0403 16:24:44.839402 18040 net.cpp:399] conv2/3x3 -> conv2/3x3
I0403 16:24:44.841610 18040 net.cpp:141] Setting up conv2/3x3
I0403 16:24:44.841641 18040 net.cpp:148] Top shape: 24 192 56 56 (14450688)
I0403 16:24:44.841657 18040 net.cpp:156] Memory required for data: 303465504
I0403 16:24:44.841677 18040 layer_factory.hpp:77] Creating layer conv2/relu_3x3
I0403 16:24:44.841696 18040 net.cpp:91] Creating Layer conv2/relu_3x3
I0403 16:24:44.841711 18040 net.cpp:425] conv2/relu_3x3 <- conv2/3x3
I0403 16:24:44.841730 18040 net.cpp:386] conv2/relu_3x3 -> conv2/3x3 (in-place)
I0403 16:24:44.841897 18040 net.cpp:141] Setting up conv2/relu_3x3
I0403 16:24:44.841920 18040 net.cpp:148] Top shape: 24 192 56 56 (14450688)
I0403 16:24:44.841971 18040 net.cpp:156] Memory required for data: 361268256
I0403 16:24:44.841986 18040 layer_factory.hpp:77] Creating layer conv2/norm2
I0403 16:24:44.842006 18040 net.cpp:91] Creating Layer conv2/norm2
I0403 16:24:44.842021 18040 net.cpp:425] conv2/norm2 <- conv2/3x3
I0403 16:24:44.842038 18040 net.cpp:399] conv2/norm2 -> conv2/norm2
I0403 16:24:44.842330 18040 net.cpp:141] Setting up conv2/norm2
I0403 16:24:44.842356 18040 net.cpp:148] Top shape: 24 192 56 56 (14450688)
I0403 16:24:44.842370 18040 net.cpp:156] Memory required for data: 419071008
I0403 16:24:44.842384 18040 layer_factory.hpp:77] Creating layer pool2/3x3_s2
I0403 16:24:44.842404 18040 net.cpp:91] Creating Layer pool2/3x3_s2
I0403 16:24:44.842419 18040 net.cpp:425] pool2/3x3_s2 <- conv2/norm2
I0403 16:24:44.842437 18040 net.cpp:399] pool2/3x3_s2 -> pool2/3x3_s2
I0403 16:24:44.842489 18040 net.cpp:141] Setting up pool2/3x3_s2
I0403 16:24:44.842509 18040 net.cpp:148] Top shape: 24 192 28 28 (3612672)
I0403 16:24:44.842524 18040 net.cpp:156] Memory required for data: 433521696
I0403 16:24:44.842537 18040 layer_factory.hpp:77] Creating layer pool2/3x3_s2_pool2/3x3_s2_0_split
I0403 16:24:44.842557 18040 net.cpp:91] Creating Layer pool2/3x3_s2_pool2/3x3_s2_0_split
I0403 16:24:44.842576 18040 net.cpp:425] pool2/3x3_s2_pool2/3x3_s2_0_split <- pool2/3x3_s2
I0403 16:24:44.842599 18040 net.cpp:399] pool2/3x3_s2_pool2/3x3_s2_0_split -> pool2/3x3_s2_pool2/3x3_s2_0_split_0
I0403 16:24:44.842618 18040 net.cpp:399] pool2/3x3_s2_pool2/3x3_s2_0_split -> pool2/3x3_s2_pool2/3x3_s2_0_split_1
I0403 16:24:44.842638 18040 net.cpp:399] pool2/3x3_s2_pool2/3x3_s2_0_split -> pool2/3x3_s2_pool2/3x3_s2_0_split_2
I0403 16:24:44.842656 18040 net.cpp:399] pool2/3x3_s2_pool2/3x3_s2_0_split -> pool2/3x3_s2_pool2/3x3_s2_0_split_3
I0403 16:24:44.842725 18040 net.cpp:141] Setting up pool2/3x3_s2_pool2/3x3_s2_0_split
I0403 16:24:44.842746 18040 net.cpp:148] Top shape: 24 192 28 28 (3612672)
I0403 16:24:44.842761 18040 net.cpp:148] Top shape: 24 192 28 28 (3612672)
I0403 16:24:44.842775 18040 net.cpp:148] Top shape: 24 192 28 28 (3612672)
I0403 16:24:44.842789 18040 net.cpp:148] Top shape: 24 192 28 28 (3612672)
I0403 16:24:44.842803 18040 net.cpp:156] Memory required for data: 491324448
I0403 16:24:44.842816 18040 layer_factory.hpp:77] Creating layer inception_3a/1x1
I0403 16:24:44.842838 18040 net.cpp:91] Creating Layer inception_3a/1x1
I0403 16:24:44.842854 18040 net.cpp:425] inception_3a/1x1 <- pool2/3x3_s2_pool2/3x3_s2_0_split_0
I0403 16:24:44.842881 18040 net.cpp:399] inception_3a/1x1 -> inception_3a/1x1
I0403 16:24:44.844358 18040 net.cpp:141] Setting up inception_3a/1x1
I0403 16:24:44.844388 18040 net.cpp:148] Top shape: 24 64 28 28 (1204224)
I0403 16:24:44.844404 18040 net.cpp:156] Memory required for data: 496141344
I0403 16:24:44.844422 18040 layer_factory.hpp:77] Creating layer inception_3a/relu_1x1
I0403 16:24:44.844439 18040 net.cpp:91] Creating Layer inception_3a/relu_1x1
I0403 16:24:44.844454 18040 net.cpp:425] inception_3a/relu_1x1 <- inception_3a/1x1
I0403 16:24:44.844470 18040 net.cpp:386] inception_3a/relu_1x1 -> inception_3a/1x1 (in-place)
I0403 16:24:44.844651 18040 net.cpp:141] Setting up inception_3a/relu_1x1
I0403 16:24:44.844676 18040 net.cpp:148] Top shape: 24 64 28 28 (1204224)
I0403 16:24:44.844691 18040 net.cpp:156] Memory required for data: 500958240
I0403 16:24:44.844703 18040 layer_factory.hpp:77] Creating layer inception_3a/3x3_reduce
I0403 16:24:44.844724 18040 net.cpp:91] Creating Layer inception_3a/3x3_reduce
I0403 16:24:44.844741 18040 net.cpp:425] inception_3a/3x3_reduce <- pool2/3x3_s2_pool2/3x3_s2_0_split_1
I0403 16:24:44.844761 18040 net.cpp:399] inception_3a/3x3_reduce -> inception_3a/3x3_reduce
I0403 16:24:44.846402 18040 net.cpp:141] Setting up inception_3a/3x3_reduce
I0403 16:24:44.846432 18040 net.cpp:148] Top shape: 24 96 28 28 (1806336)
I0403 16:24:44.846448 18040 net.cpp:156] Memory required for data: 508183584
I0403 16:24:44.846469 18040 layer_factory.hpp:77] Creating layer inception_3a/relu_3x3_reduce
I0403 16:24:44.846505 18040 net.cpp:91] Creating Layer inception_3a/relu_3x3_reduce
I0403 16:24:44.846524 18040 net.cpp:425] inception_3a/relu_3x3_reduce <- inception_3a/3x3_reduce
I0403 16:24:44.846540 18040 net.cpp:386] inception_3a/relu_3x3_reduce -> inception_3a/3x3_reduce (in-place)
I0403 16:24:44.846716 18040 net.cpp:141] Setting up inception_3a/relu_3x3_reduce
I0403 16:24:44.846740 18040 net.cpp:148] Top shape: 24 96 28 28 (1806336)
I0403 16:24:44.846755 18040 net.cpp:156] Memory required for data: 515408928
I0403 16:24:44.846768 18040 layer_factory.hpp:77] Creating layer inception_3a/3x3
I0403 16:24:44.846791 18040 net.cpp:91] Creating Layer inception_3a/3x3
I0403 16:24:44.846807 18040 net.cpp:425] inception_3a/3x3 <- inception_3a/3x3_reduce
I0403 16:24:44.846824 18040 net.cpp:399] inception_3a/3x3 -> inception_3a/3x3
I0403 16:24:44.848407 18040 net.cpp:141] Setting up inception_3a/3x3
I0403 16:24:44.848435 18040 net.cpp:148] Top shape: 24 128 28 28 (2408448)
I0403 16:24:44.848450 18040 net.cpp:156] Memory required for data: 525042720
I0403 16:24:44.848467 18040 layer_factory.hpp:77] Creating layer inception_3a/relu_3x3
I0403 16:24:44.848484 18040 net.cpp:91] Creating Layer inception_3a/relu_3x3
I0403 16:24:44.848500 18040 net.cpp:425] inception_3a/relu_3x3 <- inception_3a/3x3
I0403 16:24:44.848518 18040 net.cpp:386] inception_3a/relu_3x3 -> inception_3a/3x3 (in-place)
I0403 16:24:44.848784 18040 net.cpp:141] Setting up inception_3a/relu_3x3
I0403 16:24:44.848809 18040 net.cpp:148] Top shape: 24 128 28 28 (2408448)
I0403 16:24:44.848824 18040 net.cpp:156] Memory required for data: 534676512
I0403 16:24:44.848837 18040 layer_factory.hpp:77] Creating layer inception_3a/5x5_reduce
I0403 16:24:44.848860 18040 net.cpp:91] Creating Layer inception_3a/5x5_reduce
I0403 16:24:44.848875 18040 net.cpp:425] inception_3a/5x5_reduce <- pool2/3x3_s2_pool2/3x3_s2_0_split_2
I0403 16:24:44.848896 18040 net.cpp:399] inception_3a/5x5_reduce -> inception_3a/5x5_reduce
I0403 16:24:44.849834 18040 net.cpp:141] Setting up inception_3a/5x5_reduce
I0403 16:24:44.849863 18040 net.cpp:148] Top shape: 24 16 28 28 (301056)
I0403 16:24:44.849877 18040 net.cpp:156] Memory required for data: 535880736
I0403 16:24:44.849895 18040 layer_factory.hpp:77] Creating layer inception_3a/relu_5x5_reduce
I0403 16:24:44.849913 18040 net.cpp:91] Creating Layer inception_3a/relu_5x5_reduce
I0403 16:24:44.849928 18040 net.cpp:425] inception_3a/relu_5x5_reduce <- inception_3a/5x5_reduce
I0403 16:24:44.849947 18040 net.cpp:386] inception_3a/relu_5x5_reduce -> inception_3a/5x5_reduce (in-place)
I0403 16:24:44.850234 18040 net.cpp:141] Setting up inception_3a/relu_5x5_reduce
I0403 16:24:44.850260 18040 net.cpp:148] Top shape: 24 16 28 28 (301056)
I0403 16:24:44.850275 18040 net.cpp:156] Memory required for data: 537084960
I0403 16:24:44.850288 18040 layer_factory.hpp:77] Creating layer inception_3a/5x5
I0403 16:24:44.850311 18040 net.cpp:91] Creating Layer inception_3a/5x5
I0403 16:24:44.850327 18040 net.cpp:425] inception_3a/5x5 <- inception_3a/5x5_reduce
I0403 16:24:44.850348 18040 net.cpp:399] inception_3a/5x5 -> inception_3a/5x5
I0403 16:24:44.851341 18040 net.cpp:141] Setting up inception_3a/5x5
I0403 16:24:44.851372 18040 net.cpp:148] Top shape: 24 32 28 28 (602112)
I0403 16:24:44.851387 18040 net.cpp:156] Memory required for data: 539493408
I0403 16:24:44.851404 18040 layer_factory.hpp:77] Creating layer inception_3a/relu_5x5
I0403 16:24:44.851423 18040 net.cpp:91] Creating Layer inception_3a/relu_5x5
I0403 16:24:44.851439 18040 net.cpp:425] inception_3a/relu_5x5 <- inception_3a/5x5
I0403 16:24:44.851459 18040 net.cpp:386] inception_3a/relu_5x5 -> inception_3a/5x5 (in-place)
I0403 16:24:44.851632 18040 net.cpp:141] Setting up inception_3a/relu_5x5
I0403 16:24:44.851656 18040 net.cpp:148] Top shape: 24 32 28 28 (602112)
I0403 16:24:44.851671 18040 net.cpp:156] Memory required for data: 541901856
I0403 16:24:44.851685 18040 layer_factory.hpp:77] Creating layer inception_3a/pool
I0403 16:24:44.851704 18040 net.cpp:91] Creating Layer inception_3a/pool
I0403 16:24:44.851734 18040 net.cpp:425] inception_3a/pool <- pool2/3x3_s2_pool2/3x3_s2_0_split_3
I0403 16:24:44.851753 18040 net.cpp:399] inception_3a/pool -> inception_3a/pool
I0403 16:24:44.851809 18040 net.cpp:141] Setting up inception_3a/pool
I0403 16:24:44.851832 18040 net.cpp:148] Top shape: 24 192 28 28 (3612672)
I0403 16:24:44.851846 18040 net.cpp:156] Memory required for data: 556352544
I0403 16:24:44.851861 18040 layer_factory.hpp:77] Creating layer inception_3a/pool_proj
I0403 16:24:44.851882 18040 net.cpp:91] Creating Layer inception_3a/pool_proj
I0403 16:24:44.851899 18040 net.cpp:425] inception_3a/pool_proj <- inception_3a/pool
I0403 16:24:44.851920 18040 net.cpp:399] inception_3a/pool_proj -> inception_3a/pool_proj
I0403 16:24:44.852865 18040 net.cpp:141] Setting up inception_3a/pool_proj
I0403 16:24:44.852893 18040 net.cpp:148] Top shape: 24 32 28 28 (602112)
I0403 16:24:44.852911 18040 net.cpp:156] Memory required for data: 558760992
I0403 16:24:44.852933 18040 layer_factory.hpp:77] Creating layer inception_3a/relu_pool_proj
I0403 16:24:44.852952 18040 net.cpp:91] Creating Layer inception_3a/relu_pool_proj
I0403 16:24:44.852967 18040 net.cpp:425] inception_3a/relu_pool_proj <- inception_3a/pool_proj
I0403 16:24:44.852987 18040 net.cpp:386] inception_3a/relu_pool_proj -> inception_3a/pool_proj (in-place)
I0403 16:24:44.853256 18040 net.cpp:141] Setting up inception_3a/relu_pool_proj
I0403 16:24:44.853282 18040 net.cpp:148] Top shape: 24 32 28 28 (602112)
I0403 16:24:44.853297 18040 net.cpp:156] Memory required for data: 561169440
I0403 16:24:44.853312 18040 layer_factory.hpp:77] Creating layer inception_3a/output
I0403 16:24:44.853328 18040 net.cpp:91] Creating Layer inception_3a/output
I0403 16:24:44.853343 18040 net.cpp:425] inception_3a/output <- inception_3a/1x1
I0403 16:24:44.853359 18040 net.cpp:425] inception_3a/output <- inception_3a/3x3
I0403 16:24:44.853374 18040 net.cpp:425] inception_3a/output <- inception_3a/5x5
I0403 16:24:44.853390 18040 net.cpp:425] inception_3a/output <- inception_3a/pool_proj
I0403 16:24:44.853410 18040 net.cpp:399] inception_3a/output -> inception_3a/output
I0403 16:24:44.853453 18040 net.cpp:141] Setting up inception_3a/output
I0403 16:24:44.853478 18040 net.cpp:148] Top shape: 24 256 28 28 (4816896)
I0403 16:24:44.853493 18040 net.cpp:156] Memory required for data: 580437024
I0403 16:24:44.853507 18040 layer_factory.hpp:77] Creating layer inception_3a/output_inception_3a/output_0_split
I0403 16:24:44.853524 18040 net.cpp:91] Creating Layer inception_3a/output_inception_3a/output_0_split
I0403 16:24:44.853539 18040 net.cpp:425] inception_3a/output_inception_3a/output_0_split <- inception_3a/output
I0403 16:24:44.853555 18040 net.cpp:399] inception_3a/output_inception_3a/output_0_split -> inception_3a/output_inception_3a/output_0_split_0
I0403 16:24:44.853579 18040 net.cpp:399] inception_3a/output_inception_3a/output_0_split -> inception_3a/output_inception_3a/output_0_split_1
I0403 16:24:44.853605 18040 net.cpp:399] inception_3a/output_inception_3a/output_0_split -> inception_3a/output_inception_3a/output_0_split_2
I0403 16:24:44.853626 18040 net.cpp:399] inception_3a/output_inception_3a/output_0_split -> inception_3a/output_inception_3a/output_0_split_3
I0403 16:24:44.853699 18040 net.cpp:141] Setting up inception_3a/output_inception_3a/output_0_split
I0403 16:24:44.853724 18040 net.cpp:148] Top shape: 24 256 28 28 (4816896)
I0403 16:24:44.853741 18040 net.cpp:148] Top shape: 24 256 28 28 (4816896)
I0403 16:24:44.853757 18040 net.cpp:148] Top shape: 24 256 28 28 (4816896)
I0403 16:24:44.853771 18040 net.cpp:148] Top shape: 24 256 28 28 (4816896)
I0403 16:24:44.853785 18040 net.cpp:156] Memory required for data: 657507360
I0403 16:24:44.853798 18040 layer_factory.hpp:77] Creating layer inception_3b/1x1
I0403 16:24:44.853821 18040 net.cpp:91] Creating Layer inception_3b/1x1
I0403 16:24:44.853837 18040 net.cpp:425] inception_3b/1x1 <- inception_3a/output_inception_3a/output_0_split_0
I0403 16:24:44.853854 18040 net.cpp:399] inception_3b/1x1 -> inception_3b/1x1
I0403 16:24:44.854996 18040 net.cpp:141] Setting up inception_3b/1x1
I0403 16:24:44.855038 18040 net.cpp:148] Top shape: 24 128 28 28 (2408448)
I0403 16:24:44.855056 18040 net.cpp:156] Memory required for data: 667141152
I0403 16:24:44.855073 18040 layer_factory.hpp:77] Creating layer inception_3b/relu_1x1
I0403 16:24:44.855092 18040 net.cpp:91] Creating Layer inception_3b/relu_1x1
I0403 16:24:44.855106 18040 net.cpp:425] inception_3b/relu_1x1 <- inception_3b/1x1
I0403 16:24:44.855125 18040 net.cpp:386] inception_3b/relu_1x1 -> inception_3b/1x1 (in-place)
I0403 16:24:44.855299 18040 net.cpp:141] Setting up inception_3b/relu_1x1
I0403 16:24:44.855324 18040 net.cpp:148] Top shape: 24 128 28 28 (2408448)
I0403 16:24:44.855339 18040 net.cpp:156] Memory required for data: 676774944
I0403 16:24:44.855352 18040 layer_factory.hpp:77] Creating layer inception_3b/3x3_reduce
I0403 16:24:44.855375 18040 net.cpp:91] Creating Layer inception_3b/3x3_reduce
I0403 16:24:44.855391 18040 net.cpp:425] inception_3b/3x3_reduce <- inception_3a/output_inception_3a/output_0_split_1
I0403 16:24:44.855412 18040 net.cpp:399] inception_3b/3x3_reduce -> inception_3b/3x3_reduce
I0403 16:24:44.856529 18040 net.cpp:141] Setting up inception_3b/3x3_reduce
I0403 16:24:44.856560 18040 net.cpp:148] Top shape: 24 128 28 28 (2408448)
I0403 16:24:44.856581 18040 net.cpp:156] Memory required for data: 686408736
I0403 16:24:44.856600 18040 layer_factory.hpp:77] Creating layer inception_3b/relu_3x3_reduce
I0403 16:24:44.856617 18040 net.cpp:91] Creating Layer inception_3b/relu_3x3_reduce
I0403 16:24:44.856633 18040 net.cpp:425] inception_3b/relu_3x3_reduce <- inception_3b/3x3_reduce
I0403 16:24:44.856649 18040 net.cpp:386] inception_3b/relu_3x3_reduce -> inception_3b/3x3_reduce (in-place)
I0403 16:24:44.856819 18040 net.cpp:141] Setting up inception_3b/relu_3x3_reduce
I0403 16:24:44.856844 18040 net.cpp:148] Top shape: 24 128 28 28 (2408448)
I0403 16:24:44.856858 18040 net.cpp:156] Memory required for data: 696042528
I0403 16:24:44.856873 18040 layer_factory.hpp:77] Creating layer inception_3b/3x3
I0403 16:24:44.856896 18040 net.cpp:91] Creating Layer inception_3b/3x3
I0403 16:24:44.856914 18040 net.cpp:425] inception_3b/3x3 <- inception_3b/3x3_reduce
I0403 16:24:44.856935 18040 net.cpp:399] inception_3b/3x3 -> inception_3b/3x3
I0403 16:24:44.859858 18040 net.cpp:141] Setting up inception_3b/3x3
I0403 16:24:44.859887 18040 net.cpp:148] Top shape: 24 192 28 28 (3612672)
I0403 16:24:44.859902 18040 net.cpp:156] Memory required for data: 710493216
I0403 16:24:44.859920 18040 layer_factory.hpp:77] Creating layer inception_3b/relu_3x3
I0403 16:24:44.859937 18040 net.cpp:91] Creating Layer inception_3b/relu_3x3
I0403 16:24:44.859952 18040 net.cpp:425] inception_3b/relu_3x3 <- inception_3b/3x3
I0403 16:24:44.859972 18040 net.cpp:386] inception_3b/relu_3x3 -> inception_3b/3x3 (in-place)
I0403 16:24:44.860250 18040 net.cpp:141] Setting up inception_3b/relu_3x3
I0403 16:24:44.860276 18040 net.cpp:148] Top shape: 24 192 28 28 (3612672)
I0403 16:24:44.860291 18040 net.cpp:156] Memory required for data: 724943904
I0403 16:24:44.860306 18040 layer_factory.hpp:77] Creating layer inception_3b/5x5_reduce
I0403 16:24:44.860327 18040 net.cpp:91] Creating Layer inception_3b/5x5_reduce
I0403 16:24:44.860344 18040 net.cpp:425] inception_3b/5x5_reduce <- inception_3a/output_inception_3a/output_0_split_2
I0403 16:24:44.860366 18040 net.cpp:399] inception_3b/5x5_reduce -> inception_3b/5x5_reduce
I0403 16:24:44.861349 18040 net.cpp:141] Setting up inception_3b/5x5_reduce
I0403 16:24:44.861377 18040 net.cpp:148] Top shape: 24 32 28 28 (602112)
I0403 16:24:44.861392 18040 net.cpp:156] Memory required for data: 727352352
I0403 16:24:44.861409 18040 layer_factory.hpp:77] Creating layer inception_3b/relu_5x5_reduce
I0403 16:24:44.861426 18040 net.cpp:91] Creating Layer inception_3b/relu_5x5_reduce
I0403 16:24:44.861443 18040 net.cpp:425] inception_3b/relu_5x5_reduce <- inception_3b/5x5_reduce
I0403 16:24:44.861461 18040 net.cpp:386] inception_3b/relu_5x5_reduce -> inception_3b/5x5_reduce (in-place)
I0403 16:24:44.861656 18040 net.cpp:141] Setting up inception_3b/relu_5x5_reduce
I0403 16:24:44.861681 18040 net.cpp:148] Top shape: 24 32 28 28 (602112)
I0403 16:24:44.861696 18040 net.cpp:156] Memory required for data: 729760800
I0403 16:24:44.861709 18040 layer_factory.hpp:77] Creating layer inception_3b/5x5
I0403 16:24:44.861732 18040 net.cpp:91] Creating Layer inception_3b/5x5
I0403 16:24:44.861748 18040 net.cpp:425] inception_3b/5x5 <- inception_3b/5x5_reduce
I0403 16:24:44.861769 18040 net.cpp:399] inception_3b/5x5 -> inception_3b/5x5
I0403 16:24:44.863718 18040 net.cpp:141] Setting up inception_3b/5x5
I0403 16:24:44.863749 18040 net.cpp:148] Top shape: 24 96 28 28 (1806336)
I0403 16:24:44.863765 18040 net.cpp:156] Memory required for data: 736986144
I0403 16:24:44.863783 18040 layer_factory.hpp:77] Creating layer inception_3b/relu_5x5
I0403 16:24:44.863801 18040 net.cpp:91] Creating Layer inception_3b/relu_5x5
I0403 16:24:44.863816 18040 net.cpp:425] inception_3b/relu_5x5 <- inception_3b/5x5
I0403 16:24:44.863833 18040 net.cpp:386] inception_3b/relu_5x5 -> inception_3b/5x5 (in-place)
I0403 16:24:44.864022 18040 net.cpp:141] Setting up inception_3b/relu_5x5
I0403 16:24:44.864047 18040 net.cpp:148] Top shape: 24 96 28 28 (1806336)
I0403 16:24:44.864060 18040 net.cpp:156] Memory required for data: 744211488
I0403 16:24:44.864075 18040 layer_factory.hpp:77] Creating layer inception_3b/pool
I0403 16:24:44.864092 18040 net.cpp:91] Creating Layer inception_3b/pool
I0403 16:24:44.864109 18040 net.cpp:425] inception_3b/pool <- inception_3a/output_inception_3a/output_0_split_3
I0403 16:24:44.864126 18040 net.cpp:399] inception_3b/pool -> inception_3b/pool
I0403 16:24:44.864181 18040 net.cpp:141] Setting up inception_3b/pool
I0403 16:24:44.864205 18040 net.cpp:148] Top shape: 24 256 28 28 (4816896)
I0403 16:24:44.864220 18040 net.cpp:156] Memory required for data: 763479072
I0403 16:24:44.864234 18040 layer_factory.hpp:77] Creating layer inception_3b/pool_proj
I0403 16:24:44.864256 18040 net.cpp:91] Creating Layer inception_3b/pool_proj
I0403 16:24:44.864274 18040 net.cpp:425] inception_3b/pool_proj <- inception_3b/pool
I0403 16:24:44.864291 18040 net.cpp:399] inception_3b/pool_proj -> inception_3b/pool_proj
I0403 16:24:44.865339 18040 net.cpp:141] Setting up inception_3b/pool_proj
I0403 16:24:44.865365 18040 net.cpp:148] Top shape: 24 64 28 28 (1204224)
I0403 16:24:44.865381 18040 net.cpp:156] Memory required for data: 768295968
I0403 16:24:44.865398 18040 layer_factory.hpp:77] Creating layer inception_3b/relu_pool_proj
I0403 16:24:44.865418 18040 net.cpp:91] Creating Layer inception_3b/relu_pool_proj
I0403 16:24:44.865434 18040 net.cpp:425] inception_3b/relu_pool_proj <- inception_3b/pool_proj
I0403 16:24:44.865452 18040 net.cpp:386] inception_3b/relu_pool_proj -> inception_3b/pool_proj (in-place)
I0403 16:24:44.865839 18040 net.cpp:141] Setting up inception_3b/relu_pool_proj
I0403 16:24:44.865865 18040 net.cpp:148] Top shape: 24 64 28 28 (1204224)
I0403 16:24:44.865880 18040 net.cpp:156] Memory required for data: 773112864
I0403 16:24:44.865893 18040 layer_factory.hpp:77] Creating layer inception_3b/output
I0403 16:24:44.865911 18040 net.cpp:91] Creating Layer inception_3b/output
I0403 16:24:44.865926 18040 net.cpp:425] inception_3b/output <- inception_3b/1x1
I0403 16:24:44.865942 18040 net.cpp:425] inception_3b/output <- inception_3b/3x3
I0403 16:24:44.865957 18040 net.cpp:425] inception_3b/output <- inception_3b/5x5
I0403 16:24:44.865972 18040 net.cpp:425] inception_3b/output <- inception_3b/pool_proj
I0403 16:24:44.865990 18040 net.cpp:399] inception_3b/output -> inception_3b/output
I0403 16:24:44.866034 18040 net.cpp:141] Setting up inception_3b/output
I0403 16:24:44.866061 18040 net.cpp:148] Top shape: 24 480 28 28 (9031680)
I0403 16:24:44.866075 18040 net.cpp:156] Memory required for data: 809239584
I0403 16:24:44.866091 18040 layer_factory.hpp:77] Creating layer pool3/3x3_s2
I0403 16:24:44.866107 18040 net.cpp:91] Creating Layer pool3/3x3_s2
I0403 16:24:44.866122 18040 net.cpp:425] pool3/3x3_s2 <- inception_3b/output
I0403 16:24:44.866158 18040 net.cpp:399] pool3/3x3_s2 -> pool3/3x3_s2
I0403 16:24:44.866214 18040 net.cpp:141] Setting up pool3/3x3_s2
I0403 16:24:44.866237 18040 net.cpp:148] Top shape: 24 480 14 14 (2257920)
I0403 16:24:44.866251 18040 net.cpp:156] Memory required for data: 818271264
I0403 16:24:44.866266 18040 layer_factory.hpp:77] Creating layer pool3/3x3_s2_pool3/3x3_s2_0_split
I0403 16:24:44.866284 18040 net.cpp:91] Creating Layer pool3/3x3_s2_pool3/3x3_s2_0_split
I0403 16:24:44.866300 18040 net.cpp:425] pool3/3x3_s2_pool3/3x3_s2_0_split <- pool3/3x3_s2
I0403 16:24:44.866317 18040 net.cpp:399] pool3/3x3_s2_pool3/3x3_s2_0_split -> pool3/3x3_s2_pool3/3x3_s2_0_split_0
I0403 16:24:44.866336 18040 net.cpp:399] pool3/3x3_s2_pool3/3x3_s2_0_split -> pool3/3x3_s2_pool3/3x3_s2_0_split_1
I0403 16:24:44.866358 18040 net.cpp:399] pool3/3x3_s2_pool3/3x3_s2_0_split -> pool3/3x3_s2_pool3/3x3_s2_0_split_2
I0403 16:24:44.866377 18040 net.cpp:399] pool3/3x3_s2_pool3/3x3_s2_0_split -> pool3/3x3_s2_pool3/3x3_s2_0_split_3
I0403 16:24:44.866451 18040 net.cpp:141] Setting up pool3/3x3_s2_pool3/3x3_s2_0_split
I0403 16:24:44.866474 18040 net.cpp:148] Top shape: 24 480 14 14 (2257920)
I0403 16:24:44.866489 18040 net.cpp:148] Top shape: 24 480 14 14 (2257920)
I0403 16:24:44.866505 18040 net.cpp:148] Top shape: 24 480 14 14 (2257920)
I0403 16:24:44.866520 18040 net.cpp:148] Top shape: 24 480 14 14 (2257920)
I0403 16:24:44.866533 18040 net.cpp:156] Memory required for data: 854397984
I0403 16:24:44.866547 18040 layer_factory.hpp:77] Creating layer inception_4a/1x1
I0403 16:24:44.866575 18040 net.cpp:91] Creating Layer inception_4a/1x1
I0403 16:24:44.866591 18040 net.cpp:425] inception_4a/1x1 <- pool3/3x3_s2_pool3/3x3_s2_0_split_0
I0403 16:24:44.866612 18040 net.cpp:399] inception_4a/1x1 -> inception_4a/1x1
I0403 16:24:44.868213 18040 net.cpp:141] Setting up inception_4a/1x1
I0403 16:24:44.868240 18040 net.cpp:148] Top shape: 24 192 14 14 (903168)
I0403 16:24:44.868260 18040 net.cpp:156] Memory required for data: 858010656
I0403 16:24:44.868278 18040 layer_factory.hpp:77] Creating layer inception_4a/relu_1x1
I0403 16:24:44.868299 18040 net.cpp:91] Creating Layer inception_4a/relu_1x1
I0403 16:24:44.868314 18040 net.cpp:425] inception_4a/relu_1x1 <- inception_4a/1x1
I0403 16:24:44.868331 18040 net.cpp:386] inception_4a/relu_1x1 -> inception_4a/1x1 (in-place)
I0403 16:24:44.868505 18040 net.cpp:141] Setting up inception_4a/relu_1x1
I0403 16:24:44.868552 18040 net.cpp:148] Top shape: 24 192 14 14 (903168)
I0403 16:24:44.868571 18040 net.cpp:156] Memory required for data: 861623328
I0403 16:24:44.868587 18040 layer_factory.hpp:77] Creating layer inception_4a/3x3_reduce
I0403 16:24:44.868608 18040 net.cpp:91] Creating Layer inception_4a/3x3_reduce
I0403 16:24:44.868625 18040 net.cpp:425] inception_4a/3x3_reduce <- pool3/3x3_s2_pool3/3x3_s2_0_split_1
I0403 16:24:44.868643 18040 net.cpp:399] inception_4a/3x3_reduce -> inception_4a/3x3_reduce
I0403 16:24:44.869853 18040 net.cpp:141] Setting up inception_4a/3x3_reduce
I0403 16:24:44.869880 18040 net.cpp:148] Top shape: 24 96 14 14 (451584)
I0403 16:24:44.869895 18040 net.cpp:156] Memory required for data: 863429664
I0403 16:24:44.869918 18040 layer_factory.hpp:77] Creating layer inception_4a/relu_3x3_reduce
I0403 16:24:44.869940 18040 net.cpp:91] Creating Layer inception_4a/relu_3x3_reduce
I0403 16:24:44.869956 18040 net.cpp:425] inception_4a/relu_3x3_reduce <- inception_4a/3x3_reduce
I0403 16:24:44.869971 18040 net.cpp:386] inception_4a/relu_3x3_reduce -> inception_4a/3x3_reduce (in-place)
I0403 16:24:44.870137 18040 net.cpp:141] Setting up inception_4a/relu_3x3_reduce
I0403 16:24:44.870162 18040 net.cpp:148] Top shape: 24 96 14 14 (451584)
I0403 16:24:44.870175 18040 net.cpp:156] Memory required for data: 865236000
I0403 16:24:44.870188 18040 layer_factory.hpp:77] Creating layer inception_4a/3x3
I0403 16:24:44.870211 18040 net.cpp:91] Creating Layer inception_4a/3x3
I0403 16:24:44.870229 18040 net.cpp:425] inception_4a/3x3 <- inception_4a/3x3_reduce
I0403 16:24:44.870245 18040 net.cpp:399] inception_4a/3x3 -> inception_4a/3x3
I0403 16:24:44.872838 18040 net.cpp:141] Setting up inception_4a/3x3
I0403 16:24:44.872869 18040 net.cpp:148] Top shape: 24 208 14 14 (978432)
I0403 16:24:44.872884 18040 net.cpp:156] Memory required for data: 869149728
I0403 16:24:44.872902 18040 layer_factory.hpp:77] Creating layer inception_4a/relu_3x3
I0403 16:24:44.872918 18040 net.cpp:91] Creating Layer inception_4a/relu_3x3
I0403 16:24:44.872933 18040 net.cpp:425] inception_4a/relu_3x3 <- inception_4a/3x3
I0403 16:24:44.872949 18040 net.cpp:386] inception_4a/relu_3x3 -> inception_4a/3x3 (in-place)
I0403 16:24:44.873217 18040 net.cpp:141] Setting up inception_4a/relu_3x3
I0403 16:24:44.873245 18040 net.cpp:148] Top shape: 24 208 14 14 (978432)
I0403 16:24:44.873260 18040 net.cpp:156] Memory required for data: 873063456
I0403 16:24:44.873275 18040 layer_factory.hpp:77] Creating layer inception_4a/5x5_reduce
I0403 16:24:44.873296 18040 net.cpp:91] Creating Layer inception_4a/5x5_reduce
I0403 16:24:44.873312 18040 net.cpp:425] inception_4a/5x5_reduce <- pool3/3x3_s2_pool3/3x3_s2_0_split_2
I0403 16:24:44.873330 18040 net.cpp:399] inception_4a/5x5_reduce -> inception_4a/5x5_reduce
I0403 16:24:44.874310 18040 net.cpp:141] Setting up inception_4a/5x5_reduce
I0403 16:24:44.874338 18040 net.cpp:148] Top shape: 24 16 14 14 (75264)
I0403 16:24:44.874353 18040 net.cpp:156] Memory required for data: 873364512
I0403 16:24:44.874371 18040 layer_factory.hpp:77] Creating layer inception_4a/relu_5x5_reduce
I0403 16:24:44.874387 18040 net.cpp:91] Creating Layer inception_4a/relu_5x5_reduce
I0403 16:24:44.874403 18040 net.cpp:425] inception_4a/relu_5x5_reduce <- inception_4a/5x5_reduce
I0403 16:24:44.874425 18040 net.cpp:386] inception_4a/relu_5x5_reduce -> inception_4a/5x5_reduce (in-place)
I0403 16:24:44.874605 18040 net.cpp:141] Setting up inception_4a/relu_5x5_reduce
I0403 16:24:44.874630 18040 net.cpp:148] Top shape: 24 16 14 14 (75264)
I0403 16:24:44.874644 18040 net.cpp:156] Memory required for data: 873665568
I0403 16:24:44.874658 18040 layer_factory.hpp:77] Creating layer inception_4a/5x5
I0403 16:24:44.874680 18040 net.cpp:91] Creating Layer inception_4a/5x5
I0403 16:24:44.874696 18040 net.cpp:425] inception_4a/5x5 <- inception_4a/5x5_reduce
I0403 16:24:44.874716 18040 net.cpp:399] inception_4a/5x5 -> inception_4a/5x5
I0403 16:24:44.875751 18040 net.cpp:141] Setting up inception_4a/5x5
I0403 16:24:44.875777 18040 net.cpp:148] Top shape: 24 48 14 14 (225792)
I0403 16:24:44.875790 18040 net.cpp:156] Memory required for data: 874568736
I0403 16:24:44.875808 18040 layer_factory.hpp:77] Creating layer inception_4a/relu_5x5
I0403 16:24:44.875828 18040 net.cpp:91] Creating Layer inception_4a/relu_5x5
I0403 16:24:44.875844 18040 net.cpp:425] inception_4a/relu_5x5 <- inception_4a/5x5
I0403 16:24:44.875859 18040 net.cpp:386] inception_4a/relu_5x5 -> inception_4a/5x5 (in-place)
I0403 16:24:44.876024 18040 net.cpp:141] Setting up inception_4a/relu_5x5
I0403 16:24:44.876047 18040 net.cpp:148] Top shape: 24 48 14 14 (225792)
I0403 16:24:44.876065 18040 net.cpp:156] Memory required for data: 875471904
I0403 16:24:44.876078 18040 layer_factory.hpp:77] Creating layer inception_4a/pool
I0403 16:24:44.876096 18040 net.cpp:91] Creating Layer inception_4a/pool
I0403 16:24:44.876109 18040 net.cpp:425] inception_4a/pool <- pool3/3x3_s2_pool3/3x3_s2_0_split_3
I0403 16:24:44.876127 18040 net.cpp:399] inception_4a/pool -> inception_4a/pool
I0403 16:24:44.876184 18040 net.cpp:141] Setting up inception_4a/pool
I0403 16:24:44.876206 18040 net.cpp:148] Top shape: 24 480 14 14 (2257920)
I0403 16:24:44.876221 18040 net.cpp:156] Memory required for data: 884503584
I0403 16:24:44.876235 18040 layer_factory.hpp:77] Creating layer inception_4a/pool_proj
I0403 16:24:44.876255 18040 net.cpp:91] Creating Layer inception_4a/pool_proj
I0403 16:24:44.876272 18040 net.cpp:425] inception_4a/pool_proj <- inception_4a/pool
I0403 16:24:44.876291 18040 net.cpp:399] inception_4a/pool_proj -> inception_4a/pool_proj
I0403 16:24:44.877409 18040 net.cpp:141] Setting up inception_4a/pool_proj
I0403 16:24:44.877436 18040 net.cpp:148] Top shape: 24 64 14 14 (301056)
I0403 16:24:44.877466 18040 net.cpp:156] Memory required for data: 885707808
I0403 16:24:44.877485 18040 layer_factory.hpp:77] Creating layer inception_4a/relu_pool_proj
I0403 16:24:44.877504 18040 net.cpp:91] Creating Layer inception_4a/relu_pool_proj
I0403 16:24:44.877521 18040 net.cpp:425] inception_4a/relu_pool_proj <- inception_4a/pool_proj
I0403 16:24:44.877537 18040 net.cpp:386] inception_4a/relu_pool_proj -> inception_4a/pool_proj (in-place)
I0403 16:24:44.877820 18040 net.cpp:141] Setting up inception_4a/relu_pool_proj
I0403 16:24:44.877845 18040 net.cpp:148] Top shape: 24 64 14 14 (301056)
I0403 16:24:44.877859 18040 net.cpp:156] Memory required for data: 886912032
I0403 16:24:44.877872 18040 layer_factory.hpp:77] Creating layer inception_4a/output
I0403 16:24:44.877890 18040 net.cpp:91] Creating Layer inception_4a/output
I0403 16:24:44.877907 18040 net.cpp:425] inception_4a/output <- inception_4a/1x1
I0403 16:24:44.877923 18040 net.cpp:425] inception_4a/output <- inception_4a/3x3
I0403 16:24:44.877938 18040 net.cpp:425] inception_4a/output <- inception_4a/5x5
I0403 16:24:44.877954 18040 net.cpp:425] inception_4a/output <- inception_4a/pool_proj
I0403 16:24:44.877969 18040 net.cpp:399] inception_4a/output -> inception_4a/output
I0403 16:24:44.878012 18040 net.cpp:141] Setting up inception_4a/output
I0403 16:24:44.878034 18040 net.cpp:148] Top shape: 24 512 14 14 (2408448)
I0403 16:24:44.878048 18040 net.cpp:156] Memory required for data: 896545824
I0403 16:24:44.878062 18040 layer_factory.hpp:77] Creating layer inception_4a/output_inception_4a/output_0_split
I0403 16:24:44.878080 18040 net.cpp:91] Creating Layer inception_4a/output_inception_4a/output_0_split
I0403 16:24:44.878095 18040 net.cpp:425] inception_4a/output_inception_4a/output_0_split <- inception_4a/output
I0403 16:24:44.878113 18040 net.cpp:399] inception_4a/output_inception_4a/output_0_split -> inception_4a/output_inception_4a/output_0_split_0
I0403 16:24:44.878134 18040 net.cpp:399] inception_4a/output_inception_4a/output_0_split -> inception_4a/output_inception_4a/output_0_split_1
I0403 16:24:44.878154 18040 net.cpp:399] inception_4a/output_inception_4a/output_0_split -> inception_4a/output_inception_4a/output_0_split_2
I0403 16:24:44.878172 18040 net.cpp:399] inception_4a/output_inception_4a/output_0_split -> inception_4a/output_inception_4a/output_0_split_3
I0403 16:24:44.878191 18040 net.cpp:399] inception_4a/output_inception_4a/output_0_split -> inception_4a/output_inception_4a/output_0_split_4
I0403 16:24:44.878280 18040 net.cpp:141] Setting up inception_4a/output_inception_4a/output_0_split
I0403 16:24:44.878303 18040 net.cpp:148] Top shape: 24 512 14 14 (2408448)
I0403 16:24:44.878317 18040 net.cpp:148] Top shape: 24 512 14 14 (2408448)
I0403 16:24:44.878332 18040 net.cpp:148] Top shape: 24 512 14 14 (2408448)
I0403 16:24:44.878346 18040 net.cpp:148] Top shape: 24 512 14 14 (2408448)
I0403 16:24:44.878361 18040 net.cpp:148] Top shape: 24 512 14 14 (2408448)
I0403 16:24:44.878374 18040 net.cpp:156] Memory required for data: 944714784
I0403 16:24:44.878387 18040 layer_factory.hpp:77] Creating layer loss1/ave_pool
I0403 16:24:44.878403 18040 net.cpp:91] Creating Layer loss1/ave_pool
I0403 16:24:44.878418 18040 net.cpp:425] loss1/ave_pool <- inception_4a/output_inception_4a/output_0_split_0
I0403 16:24:44.878437 18040 net.cpp:399] loss1/ave_pool -> loss1/ave_pool
I0403 16:24:44.878664 18040 net.cpp:141] Setting up loss1/ave_pool
I0403 16:24:44.878691 18040 net.cpp:148] Top shape: 24 512 4 4 (196608)
I0403 16:24:44.878706 18040 net.cpp:156] Memory required for data: 945501216
I0403 16:24:44.878720 18040 layer_factory.hpp:77] Creating layer loss1/conv
I0403 16:24:44.878743 18040 net.cpp:91] Creating Layer loss1/conv
I0403 16:24:44.878762 18040 net.cpp:425] loss1/conv <- loss1/ave_pool
I0403 16:24:44.878782 18040 net.cpp:399] loss1/conv -> loss1/conv
I0403 16:24:44.880183 18040 net.cpp:141] Setting up loss1/conv
I0403 16:24:44.880213 18040 net.cpp:148] Top shape: 24 128 4 4 (49152)
I0403 16:24:44.880242 18040 net.cpp:156] Memory required for data: 945697824
I0403 16:24:44.880262 18040 layer_factory.hpp:77] Creating layer loss1/relu_conv
I0403 16:24:44.880280 18040 net.cpp:91] Creating Layer loss1/relu_conv
I0403 16:24:44.880296 18040 net.cpp:425] loss1/relu_conv <- loss1/conv
I0403 16:24:44.880313 18040 net.cpp:386] loss1/relu_conv -> loss1/conv (in-place)
I0403 16:24:44.880596 18040 net.cpp:141] Setting up loss1/relu_conv
I0403 16:24:44.880625 18040 net.cpp:148] Top shape: 24 128 4 4 (49152)
I0403 16:24:44.880640 18040 net.cpp:156] Memory required for data: 945894432
I0403 16:24:44.880656 18040 layer_factory.hpp:77] Creating layer loss1/fc
I0403 16:24:44.880678 18040 net.cpp:91] Creating Layer loss1/fc
I0403 16:24:44.880695 18040 net.cpp:425] loss1/fc <- loss1/conv
I0403 16:24:44.880717 18040 net.cpp:399] loss1/fc -> loss1/fc
I0403 16:24:44.898509 18040 net.cpp:141] Setting up loss1/fc
I0403 16:24:44.898541 18040 net.cpp:148] Top shape: 24 1024 (24576)
I0403 16:24:44.898557 18040 net.cpp:156] Memory required for data: 945992736
I0403 16:24:44.898579 18040 layer_factory.hpp:77] Creating layer loss1/relu_fc
I0403 16:24:44.898598 18040 net.cpp:91] Creating Layer loss1/relu_fc
I0403 16:24:44.898613 18040 net.cpp:425] loss1/relu_fc <- loss1/fc
I0403 16:24:44.898630 18040 net.cpp:386] loss1/relu_fc -> loss1/fc (in-place)
I0403 16:24:44.898808 18040 net.cpp:141] Setting up loss1/relu_fc
I0403 16:24:44.898833 18040 net.cpp:148] Top shape: 24 1024 (24576)
I0403 16:24:44.898847 18040 net.cpp:156] Memory required for data: 946091040
I0403 16:24:44.898861 18040 layer_factory.hpp:77] Creating layer loss1/drop_fc
I0403 16:24:44.898885 18040 net.cpp:91] Creating Layer loss1/drop_fc
I0403 16:24:44.898902 18040 net.cpp:425] loss1/drop_fc <- loss1/fc
I0403 16:24:44.898919 18040 net.cpp:386] loss1/drop_fc -> loss1/fc (in-place)
I0403 16:24:44.898969 18040 net.cpp:141] Setting up loss1/drop_fc
I0403 16:24:44.898990 18040 net.cpp:148] Top shape: 24 1024 (24576)
I0403 16:24:44.899004 18040 net.cpp:156] Memory required for data: 946189344
I0403 16:24:44.899019 18040 layer_factory.hpp:77] Creating layer loss1/classifier_plantvillage
I0403 16:24:44.899039 18040 net.cpp:91] Creating Layer loss1/classifier_plantvillage
I0403 16:24:44.899055 18040 net.cpp:425] loss1/classifier_plantvillage <- loss1/fc
I0403 16:24:44.899071 18040 net.cpp:399] loss1/classifier_plantvillage -> loss1/classifier_plantvillage
I0403 16:24:44.900002 18040 net.cpp:141] Setting up loss1/classifier_plantvillage
I0403 16:24:44.900033 18040 net.cpp:148] Top shape: 24 38 (912)
I0403 16:24:44.900048 18040 net.cpp:156] Memory required for data: 946192992
I0403 16:24:44.900066 18040 layer_factory.hpp:77] Creating layer loss1/classifier_plantvillage_loss1/classifier_plantvillage_0_split
I0403 16:24:44.900084 18040 net.cpp:91] Creating Layer loss1/classifier_plantvillage_loss1/classifier_plantvillage_0_split
I0403 16:24:44.900099 18040 net.cpp:425] loss1/classifier_plantvillage_loss1/classifier_plantvillage_0_split <- loss1/classifier_plantvillage
I0403 16:24:44.900116 18040 net.cpp:399] loss1/classifier_plantvillage_loss1/classifier_plantvillage_0_split -> loss1/classifier_plantvillage_loss1/classifier_plantvillage_0_split_0
I0403 16:24:44.900136 18040 net.cpp:399] loss1/classifier_plantvillage_loss1/classifier_plantvillage_0_split -> loss1/classifier_plantvillage_loss1/classifier_plantvillage_0_split_1
I0403 16:24:44.900156 18040 net.cpp:399] loss1/classifier_plantvillage_loss1/classifier_plantvillage_0_split -> loss1/classifier_plantvillage_loss1/classifier_plantvillage_0_split_2
I0403 16:24:44.900220 18040 net.cpp:141] Setting up loss1/classifier_plantvillage_loss1/classifier_plantvillage_0_split
I0403 16:24:44.900243 18040 net.cpp:148] Top shape: 24 38 (912)
I0403 16:24:44.900259 18040 net.cpp:148] Top shape: 24 38 (912)
I0403 16:24:44.900272 18040 net.cpp:148] Top shape: 24 38 (912)
I0403 16:24:44.900285 18040 net.cpp:156] Memory required for data: 946203936
I0403 16:24:44.900301 18040 layer_factory.hpp:77] Creating layer inception_4b/1x1
I0403 16:24:44.900321 18040 net.cpp:91] Creating Layer inception_4b/1x1
I0403 16:24:44.900354 18040 net.cpp:425] inception_4b/1x1 <- inception_4a/output_inception_4a/output_0_split_1
I0403 16:24:44.900375 18040 net.cpp:399] inception_4b/1x1 -> inception_4b/1x1
I0403 16:24:44.901955 18040 net.cpp:141] Setting up inception_4b/1x1
I0403 16:24:44.901986 18040 net.cpp:148] Top shape: 24 160 14 14 (752640)
I0403 16:24:44.902003 18040 net.cpp:156] Memory required for data: 949214496
I0403 16:24:44.902020 18040 layer_factory.hpp:77] Creating layer inception_4b/relu_1x1
I0403 16:24:44.902039 18040 net.cpp:91] Creating Layer inception_4b/relu_1x1
I0403 16:24:44.902053 18040 net.cpp:425] inception_4b/relu_1x1 <- inception_4b/1x1
I0403 16:24:44.902071 18040 net.cpp:386] inception_4b/relu_1x1 -> inception_4b/1x1 (in-place)
I0403 16:24:44.902245 18040 net.cpp:141] Setting up inception_4b/relu_1x1
I0403 16:24:44.902268 18040 net.cpp:148] Top shape: 24 160 14 14 (752640)
I0403 16:24:44.902282 18040 net.cpp:156] Memory required for data: 952225056
I0403 16:24:44.902299 18040 layer_factory.hpp:77] Creating layer inception_4b/3x3_reduce
I0403 16:24:44.902321 18040 net.cpp:91] Creating Layer inception_4b/3x3_reduce
I0403 16:24:44.902338 18040 net.cpp:425] inception_4b/3x3_reduce <- inception_4a/output_inception_4a/output_0_split_2
I0403 16:24:44.902359 18040 net.cpp:399] inception_4b/3x3_reduce -> inception_4b/3x3_reduce
I0403 16:24:44.903664 18040 net.cpp:141] Setting up inception_4b/3x3_reduce
I0403 16:24:44.903692 18040 net.cpp:148] Top shape: 24 112 14 14 (526848)
I0403 16:24:44.903707 18040 net.cpp:156] Memory required for data: 954332448
I0403 16:24:44.903724 18040 layer_factory.hpp:77] Creating layer inception_4b/relu_3x3_reduce
I0403 16:24:44.903744 18040 net.cpp:91] Creating Layer inception_4b/relu_3x3_reduce
I0403 16:24:44.903760 18040 net.cpp:425] inception_4b/relu_3x3_reduce <- inception_4b/3x3_reduce
I0403 16:24:44.903776 18040 net.cpp:386] inception_4b/relu_3x3_reduce -> inception_4b/3x3_reduce (in-place)
I0403 16:24:44.904049 18040 net.cpp:141] Setting up inception_4b/relu_3x3_reduce
I0403 16:24:44.904075 18040 net.cpp:148] Top shape: 24 112 14 14 (526848)
I0403 16:24:44.904090 18040 net.cpp:156] Memory required for data: 956439840
I0403 16:24:44.904104 18040 layer_factory.hpp:77] Creating layer inception_4b/3x3
I0403 16:24:44.904126 18040 net.cpp:91] Creating Layer inception_4b/3x3
I0403 16:24:44.904144 18040 net.cpp:425] inception_4b/3x3 <- inception_4b/3x3_reduce
I0403 16:24:44.904165 18040 net.cpp:399] inception_4b/3x3 -> inception_4b/3x3
I0403 16:24:44.907086 18040 net.cpp:141] Setting up inception_4b/3x3
I0403 16:24:44.907115 18040 net.cpp:148] Top shape: 24 224 14 14 (1053696)
I0403 16:24:44.907130 18040 net.cpp:156] Memory required for data: 960654624
I0403 16:24:44.907147 18040 layer_factory.hpp:77] Creating layer inception_4b/relu_3x3
I0403 16:24:44.907167 18040 net.cpp:91] Creating Layer inception_4b/relu_3x3
I0403 16:24:44.907183 18040 net.cpp:425] inception_4b/relu_3x3 <- inception_4b/3x3
I0403 16:24:44.907201 18040 net.cpp:386] inception_4b/relu_3x3 -> inception_4b/3x3 (in-place)
I0403 16:24:44.907382 18040 net.cpp:141] Setting up inception_4b/relu_3x3
I0403 16:24:44.907408 18040 net.cpp:148] Top shape: 24 224 14 14 (1053696)
I0403 16:24:44.907423 18040 net.cpp:156] Memory required for data: 964869408
I0403 16:24:44.907438 18040 layer_factory.hpp:77] Creating layer inception_4b/5x5_reduce
I0403 16:24:44.907459 18040 net.cpp:91] Creating Layer inception_4b/5x5_reduce
I0403 16:24:44.907475 18040 net.cpp:425] inception_4b/5x5_reduce <- inception_4a/output_inception_4a/output_0_split_3
I0403 16:24:44.907493 18040 net.cpp:399] inception_4b/5x5_reduce -> inception_4b/5x5_reduce
I0403 16:24:44.908545 18040 net.cpp:141] Setting up inception_4b/5x5_reduce
I0403 16:24:44.908576 18040 net.cpp:148] Top shape: 24 24 14 14 (112896)
I0403 16:24:44.908593 18040 net.cpp:156] Memory required for data: 965320992
I0403 16:24:44.908612 18040 layer_factory.hpp:77] Creating layer inception_4b/relu_5x5_reduce
I0403 16:24:44.908629 18040 net.cpp:91] Creating Layer inception_4b/relu_5x5_reduce
I0403 16:24:44.908661 18040 net.cpp:425] inception_4b/relu_5x5_reduce <- inception_4b/5x5_reduce
I0403 16:24:44.908681 18040 net.cpp:386] inception_4b/relu_5x5_reduce -> inception_4b/5x5_reduce (in-place)
I0403 16:24:44.908855 18040 net.cpp:141] Setting up inception_4b/relu_5x5_reduce
I0403 16:24:44.908879 18040 net.cpp:148] Top shape: 24 24 14 14 (112896)
I0403 16:24:44.908893 18040 net.cpp:156] Memory required for data: 965772576
I0403 16:24:44.908906 18040 layer_factory.hpp:77] Creating layer inception_4b/5x5
I0403 16:24:44.908927 18040 net.cpp:91] Creating Layer inception_4b/5x5
I0403 16:24:44.908944 18040 net.cpp:425] inception_4b/5x5 <- inception_4b/5x5_reduce
I0403 16:24:44.908964 18040 net.cpp:399] inception_4b/5x5 -> inception_4b/5x5
I0403 16:24:44.910133 18040 net.cpp:141] Setting up inception_4b/5x5
I0403 16:24:44.910161 18040 net.cpp:148] Top shape: 24 64 14 14 (301056)
I0403 16:24:44.910176 18040 net.cpp:156] Memory required for data: 966976800
I0403 16:24:44.910193 18040 layer_factory.hpp:77] Creating layer inception_4b/relu_5x5
I0403 16:24:44.910212 18040 net.cpp:91] Creating Layer inception_4b/relu_5x5
I0403 16:24:44.910226 18040 net.cpp:425] inception_4b/relu_5x5 <- inception_4b/5x5
I0403 16:24:44.910245 18040 net.cpp:386] inception_4b/relu_5x5 -> inception_4b/5x5 (in-place)
I0403 16:24:44.910516 18040 net.cpp:141] Setting up inception_4b/relu_5x5
I0403 16:24:44.910542 18040 net.cpp:148] Top shape: 24 64 14 14 (301056)
I0403 16:24:44.910557 18040 net.cpp:156] Memory required for data: 968181024
I0403 16:24:44.910575 18040 layer_factory.hpp:77] Creating layer inception_4b/pool
I0403 16:24:44.910603 18040 net.cpp:91] Creating Layer inception_4b/pool
I0403 16:24:44.910619 18040 net.cpp:425] inception_4b/pool <- inception_4a/output_inception_4a/output_0_split_4
I0403 16:24:44.910640 18040 net.cpp:399] inception_4b/pool -> inception_4b/pool
I0403 16:24:44.910701 18040 net.cpp:141] Setting up inception_4b/pool
I0403 16:24:44.910722 18040 net.cpp:148] Top shape: 24 512 14 14 (2408448)
I0403 16:24:44.910737 18040 net.cpp:156] Memory required for data: 977814816
I0403 16:24:44.910749 18040 layer_factory.hpp:77] Creating layer inception_4b/pool_proj
I0403 16:24:44.910773 18040 net.cpp:91] Creating Layer inception_4b/pool_proj
I0403 16:24:44.910790 18040 net.cpp:425] inception_4b/pool_proj <- inception_4b/pool
I0403 16:24:44.910807 18040 net.cpp:399] inception_4b/pool_proj -> inception_4b/pool_proj
I0403 16:24:44.911965 18040 net.cpp:141] Setting up inception_4b/pool_proj
I0403 16:24:44.911993 18040 net.cpp:148] Top shape: 24 64 14 14 (301056)
I0403 16:24:44.912008 18040 net.cpp:156] Memory required for data: 979019040
I0403 16:24:44.912025 18040 layer_factory.hpp:77] Creating layer inception_4b/relu_pool_proj
I0403 16:24:44.912042 18040 net.cpp:91] Creating Layer inception_4b/relu_pool_proj
I0403 16:24:44.912057 18040 net.cpp:425] inception_4b/relu_pool_proj <- inception_4b/pool_proj
I0403 16:24:44.912077 18040 net.cpp:386] inception_4b/relu_pool_proj -> inception_4b/pool_proj (in-place)
I0403 16:24:44.912251 18040 net.cpp:141] Setting up inception_4b/relu_pool_proj
I0403 16:24:44.912274 18040 net.cpp:148] Top shape: 24 64 14 14 (301056)
I0403 16:24:44.912291 18040 net.cpp:156] Memory required for data: 980223264
I0403 16:24:44.912304 18040 layer_factory.hpp:77] Creating layer inception_4b/output
I0403 16:24:44.912322 18040 net.cpp:91] Creating Layer inception_4b/output
I0403 16:24:44.912338 18040 net.cpp:425] inception_4b/output <- inception_4b/1x1
I0403 16:24:44.912353 18040 net.cpp:425] inception_4b/output <- inception_4b/3x3
I0403 16:24:44.912369 18040 net.cpp:425] inception_4b/output <- inception_4b/5x5
I0403 16:24:44.912384 18040 net.cpp:425] inception_4b/output <- inception_4b/pool_proj
I0403 16:24:44.912400 18040 net.cpp:399] inception_4b/output -> inception_4b/output
I0403 16:24:44.912442 18040 net.cpp:141] Setting up inception_4b/output
I0403 16:24:44.912467 18040 net.cpp:148] Top shape: 24 512 14 14 (2408448)
I0403 16:24:44.912480 18040 net.cpp:156] Memory required for data: 989857056
I0403 16:24:44.912508 18040 layer_factory.hpp:77] Creating layer inception_4b/output_inception_4b/output_0_split
I0403 16:24:44.912526 18040 net.cpp:91] Creating Layer inception_4b/output_inception_4b/output_0_split
I0403 16:24:44.912541 18040 net.cpp:425] inception_4b/output_inception_4b/output_0_split <- inception_4b/output
I0403 16:24:44.912560 18040 net.cpp:399] inception_4b/output_inception_4b/output_0_split -> inception_4b/output_inception_4b/output_0_split_0
I0403 16:24:44.912585 18040 net.cpp:399] inception_4b/output_inception_4b/output_0_split -> inception_4b/output_inception_4b/output_0_split_1
I0403 16:24:44.912606 18040 net.cpp:399] inception_4b/output_inception_4b/output_0_split -> inception_4b/output_inception_4b/output_0_split_2
I0403 16:24:44.912626 18040 net.cpp:399] inception_4b/output_inception_4b/output_0_split -> inception_4b/output_inception_4b/output_0_split_3
I0403 16:24:44.912704 18040 net.cpp:141] Setting up inception_4b/output_inception_4b/output_0_split
I0403 16:24:44.912729 18040 net.cpp:148] Top shape: 24 512 14 14 (2408448)
I0403 16:24:44.912745 18040 net.cpp:148] Top shape: 24 512 14 14 (2408448)
I0403 16:24:44.912760 18040 net.cpp:148] Top shape: 24 512 14 14 (2408448)
I0403 16:24:44.912775 18040 net.cpp:148] Top shape: 24 512 14 14 (2408448)
I0403 16:24:44.912788 18040 net.cpp:156] Memory required for data: 1028392224
I0403 16:24:44.912802 18040 layer_factory.hpp:77] Creating layer inception_4c/1x1
I0403 16:24:44.912823 18040 net.cpp:91] Creating Layer inception_4c/1x1
I0403 16:24:44.912840 18040 net.cpp:425] inception_4c/1x1 <- inception_4b/output_inception_4b/output_0_split_0
I0403 16:24:44.912858 18040 net.cpp:399] inception_4c/1x1 -> inception_4c/1x1
I0403 16:24:44.914232 18040 net.cpp:141] Setting up inception_4c/1x1
I0403 16:24:44.914259 18040 net.cpp:148] Top shape: 24 128 14 14 (602112)
I0403 16:24:44.914274 18040 net.cpp:156] Memory required for data: 1030800672
I0403 16:24:44.914291 18040 layer_factory.hpp:77] Creating layer inception_4c/relu_1x1
I0403 16:24:44.914311 18040 net.cpp:91] Creating Layer inception_4c/relu_1x1
I0403 16:24:44.914326 18040 net.cpp:425] inception_4c/relu_1x1 <- inception_4c/1x1
I0403 16:24:44.914343 18040 net.cpp:386] inception_4c/relu_1x1 -> inception_4c/1x1 (in-place)
I0403 16:24:44.914518 18040 net.cpp:141] Setting up inception_4c/relu_1x1
I0403 16:24:44.914544 18040 net.cpp:148] Top shape: 24 128 14 14 (602112)
I0403 16:24:44.914559 18040 net.cpp:156] Memory required for data: 1033209120
I0403 16:24:44.914583 18040 layer_factory.hpp:77] Creating layer inception_4c/3x3_reduce
I0403 16:24:44.914608 18040 net.cpp:91] Creating Layer inception_4c/3x3_reduce
I0403 16:24:44.914624 18040 net.cpp:425] inception_4c/3x3_reduce <- inception_4b/output_inception_4b/output_0_split_1
I0403 16:24:44.914644 18040 net.cpp:399] inception_4c/3x3_reduce -> inception_4c/3x3_reduce
I0403 16:24:44.918004 18040 net.cpp:141] Setting up inception_4c/3x3_reduce
I0403 16:24:44.918035 18040 net.cpp:148] Top shape: 24 128 14 14 (602112)
I0403 16:24:44.918051 18040 net.cpp:156] Memory required for data: 1035617568
I0403 16:24:44.918069 18040 layer_factory.hpp:77] Creating layer inception_4c/relu_3x3_reduce
I0403 16:24:44.918087 18040 net.cpp:91] Creating Layer inception_4c/relu_3x3_reduce
I0403 16:24:44.918102 18040 net.cpp:425] inception_4c/relu_3x3_reduce <- inception_4c/3x3_reduce
I0403 16:24:44.918123 18040 net.cpp:386] inception_4c/relu_3x3_reduce -> inception_4c/3x3_reduce (in-place)
I0403 16:24:44.918406 18040 net.cpp:141] Setting up inception_4c/relu_3x3_reduce
I0403 16:24:44.918433 18040 net.cpp:148] Top shape: 24 128 14 14 (602112)
I0403 16:24:44.918448 18040 net.cpp:156] Memory required for data: 1038026016
I0403 16:24:44.918462 18040 layer_factory.hpp:77] Creating layer inception_4c/3x3
I0403 16:24:44.918484 18040 net.cpp:91] Creating Layer inception_4c/3x3
I0403 16:24:44.918501 18040 net.cpp:425] inception_4c/3x3 <- inception_4c/3x3_reduce
I0403 16:24:44.918519 18040 net.cpp:399] inception_4c/3x3 -> inception_4c/3x3
I0403 16:24:44.922029 18040 net.cpp:141] Setting up inception_4c/3x3
I0403 16:24:44.922068 18040 net.cpp:148] Top shape: 24 256 14 14 (1204224)
I0403 16:24:44.922085 18040 net.cpp:156] Memory required for data: 1042842912
I0403 16:24:44.922116 18040 layer_factory.hpp:77] Creating layer inception_4c/relu_3x3
I0403 16:24:44.922135 18040 net.cpp:91] Creating Layer inception_4c/relu_3x3
I0403 16:24:44.922150 18040 net.cpp:425] inception_4c/relu_3x3 <- inception_4c/3x3
I0403 16:24:44.922169 18040 net.cpp:386] inception_4c/relu_3x3 -> inception_4c/3x3 (in-place)
I0403 16:24:44.922345 18040 net.cpp:141] Setting up inception_4c/relu_3x3
I0403 16:24:44.922369 18040 net.cpp:148] Top shape: 24 256 14 14 (1204224)
I0403 16:24:44.922384 18040 net.cpp:156] Memory required for data: 1047659808
I0403 16:24:44.922396 18040 layer_factory.hpp:77] Creating layer inception_4c/5x5_reduce
I0403 16:24:44.922418 18040 net.cpp:91] Creating Layer inception_4c/5x5_reduce
I0403 16:24:44.922435 18040 net.cpp:425] inception_4c/5x5_reduce <- inception_4b/output_inception_4b/output_0_split_2
I0403 16:24:44.922456 18040 net.cpp:399] inception_4c/5x5_reduce -> inception_4c/5x5_reduce
I0403 16:24:44.923507 18040 net.cpp:141] Setting up inception_4c/5x5_reduce
I0403 16:24:44.923537 18040 net.cpp:148] Top shape: 24 24 14 14 (112896)
I0403 16:24:44.923552 18040 net.cpp:156] Memory required for data: 1048111392
I0403 16:24:44.923573 18040 layer_factory.hpp:77] Creating layer inception_4c/relu_5x5_reduce
I0403 16:24:44.923601 18040 net.cpp:91] Creating Layer inception_4c/relu_5x5_reduce
I0403 16:24:44.923616 18040 net.cpp:425] inception_4c/relu_5x5_reduce <- inception_4c/5x5_reduce
I0403 16:24:44.923635 18040 net.cpp:386] inception_4c/relu_5x5_reduce -> inception_4c/5x5_reduce (in-place)
I0403 16:24:44.923815 18040 net.cpp:141] Setting up inception_4c/relu_5x5_reduce
I0403 16:24:44.923838 18040 net.cpp:148] Top shape: 24 24 14 14 (112896)
I0403 16:24:44.923852 18040 net.cpp:156] Memory required for data: 1048562976
I0403 16:24:44.923866 18040 layer_factory.hpp:77] Creating layer inception_4c/5x5
I0403 16:24:44.923887 18040 net.cpp:91] Creating Layer inception_4c/5x5
I0403 16:24:44.923903 18040 net.cpp:425] inception_4c/5x5 <- inception_4c/5x5_reduce
I0403 16:24:44.923923 18040 net.cpp:399] inception_4c/5x5 -> inception_4c/5x5
I0403 16:24:44.925129 18040 net.cpp:141] Setting up inception_4c/5x5
I0403 16:24:44.925156 18040 net.cpp:148] Top shape: 24 64 14 14 (301056)
I0403 16:24:44.925170 18040 net.cpp:156] Memory required for data: 1049767200
I0403 16:24:44.925187 18040 layer_factory.hpp:77] Creating layer inception_4c/relu_5x5
I0403 16:24:44.925207 18040 net.cpp:91] Creating Layer inception_4c/relu_5x5
I0403 16:24:44.925225 18040 net.cpp:425] inception_4c/relu_5x5 <- inception_4c/5x5
I0403 16:24:44.925240 18040 net.cpp:386] inception_4c/relu_5x5 -> inception_4c/5x5 (in-place)
I0403 16:24:44.925519 18040 net.cpp:141] Setting up inception_4c/relu_5x5
I0403 16:24:44.925544 18040 net.cpp:148] Top shape: 24 64 14 14 (301056)
I0403 16:24:44.925559 18040 net.cpp:156] Memory required for data: 1050971424
I0403 16:24:44.925578 18040 layer_factory.hpp:77] Creating layer inception_4c/pool
I0403 16:24:44.925598 18040 net.cpp:91] Creating Layer inception_4c/pool
I0403 16:24:44.925616 18040 net.cpp:425] inception_4c/pool <- inception_4b/output_inception_4b/output_0_split_3
I0403 16:24:44.925632 18040 net.cpp:399] inception_4c/pool -> inception_4c/pool
I0403 16:24:44.925696 18040 net.cpp:141] Setting up inception_4c/pool
I0403 16:24:44.925719 18040 net.cpp:148] Top shape: 24 512 14 14 (2408448)
I0403 16:24:44.925732 18040 net.cpp:156] Memory required for data: 1060605216
I0403 16:24:44.925746 18040 layer_factory.hpp:77] Creating layer inception_4c/pool_proj
I0403 16:24:44.925767 18040 net.cpp:91] Creating Layer inception_4c/pool_proj
I0403 16:24:44.925784 18040 net.cpp:425] inception_4c/pool_proj <- inception_4c/pool
I0403 16:24:44.925803 18040 net.cpp:399] inception_4c/pool_proj -> inception_4c/pool_proj
I0403 16:24:44.926988 18040 net.cpp:141] Setting up inception_4c/pool_proj
I0403 16:24:44.927016 18040 net.cpp:148] Top shape: 24 64 14 14 (301056)
I0403 16:24:44.927044 18040 net.cpp:156] Memory required for data: 1061809440
I0403 16:24:44.927062 18040 layer_factory.hpp:77] Creating layer inception_4c/relu_pool_proj
I0403 16:24:44.927079 18040 net.cpp:91] Creating Layer inception_4c/relu_pool_proj
I0403 16:24:44.927094 18040 net.cpp:425] inception_4c/relu_pool_proj <- inception_4c/pool_proj
I0403 16:24:44.927114 18040 net.cpp:386] inception_4c/relu_pool_proj -> inception_4c/pool_proj (in-place)
I0403 16:24:44.927294 18040 net.cpp:141] Setting up inception_4c/relu_pool_proj
I0403 16:24:44.927327 18040 net.cpp:148] Top shape: 24 64 14 14 (301056)
I0403 16:24:44.927341 18040 net.cpp:156] Memory required for data: 1063013664
I0403 16:24:44.927356 18040 layer_factory.hpp:77] Creating layer inception_4c/output
I0403 16:24:44.927371 18040 net.cpp:91] Creating Layer inception_4c/output
I0403 16:24:44.927388 18040 net.cpp:425] inception_4c/output <- inception_4c/1x1
I0403 16:24:44.927405 18040 net.cpp:425] inception_4c/output <- inception_4c/3x3
I0403 16:24:44.927420 18040 net.cpp:425] inception_4c/output <- inception_4c/5x5
I0403 16:24:44.927435 18040 net.cpp:425] inception_4c/output <- inception_4c/pool_proj
I0403 16:24:44.927451 18040 net.cpp:399] inception_4c/output -> inception_4c/output
I0403 16:24:44.927495 18040 net.cpp:141] Setting up inception_4c/output
I0403 16:24:44.927520 18040 net.cpp:148] Top shape: 24 512 14 14 (2408448)
I0403 16:24:44.927533 18040 net.cpp:156] Memory required for data: 1072647456
I0403 16:24:44.927547 18040 layer_factory.hpp:77] Creating layer inception_4c/output_inception_4c/output_0_split
I0403 16:24:44.927563 18040 net.cpp:91] Creating Layer inception_4c/output_inception_4c/output_0_split
I0403 16:24:44.927582 18040 net.cpp:425] inception_4c/output_inception_4c/output_0_split <- inception_4c/output
I0403 16:24:44.927603 18040 net.cpp:399] inception_4c/output_inception_4c/output_0_split -> inception_4c/output_inception_4c/output_0_split_0
I0403 16:24:44.927623 18040 net.cpp:399] inception_4c/output_inception_4c/output_0_split -> inception_4c/output_inception_4c/output_0_split_1
I0403 16:24:44.927642 18040 net.cpp:399] inception_4c/output_inception_4c/output_0_split -> inception_4c/output_inception_4c/output_0_split_2
I0403 16:24:44.927662 18040 net.cpp:399] inception_4c/output_inception_4c/output_0_split -> inception_4c/output_inception_4c/output_0_split_3
I0403 16:24:44.927743 18040 net.cpp:141] Setting up inception_4c/output_inception_4c/output_0_split
I0403 16:24:44.927768 18040 net.cpp:148] Top shape: 24 512 14 14 (2408448)
I0403 16:24:44.927785 18040 net.cpp:148] Top shape: 24 512 14 14 (2408448)
I0403 16:24:44.927800 18040 net.cpp:148] Top shape: 24 512 14 14 (2408448)
I0403 16:24:44.927814 18040 net.cpp:148] Top shape: 24 512 14 14 (2408448)
I0403 16:24:44.927826 18040 net.cpp:156] Memory required for data: 1111182624
I0403 16:24:44.927840 18040 layer_factory.hpp:77] Creating layer inception_4d/1x1
I0403 16:24:44.927860 18040 net.cpp:91] Creating Layer inception_4d/1x1
I0403 16:24:44.927877 18040 net.cpp:425] inception_4d/1x1 <- inception_4c/output_inception_4c/output_0_split_0
I0403 16:24:44.927897 18040 net.cpp:399] inception_4d/1x1 -> inception_4d/1x1
I0403 16:24:44.929299 18040 net.cpp:141] Setting up inception_4d/1x1
I0403 16:24:44.929329 18040 net.cpp:148] Top shape: 24 112 14 14 (526848)
I0403 16:24:44.929345 18040 net.cpp:156] Memory required for data: 1113290016
I0403 16:24:44.929363 18040 layer_factory.hpp:77] Creating layer inception_4d/relu_1x1
I0403 16:24:44.929380 18040 net.cpp:91] Creating Layer inception_4d/relu_1x1
I0403 16:24:44.929396 18040 net.cpp:425] inception_4d/relu_1x1 <- inception_4d/1x1
I0403 16:24:44.929414 18040 net.cpp:386] inception_4d/relu_1x1 -> inception_4d/1x1 (in-place)
I0403 16:24:44.929601 18040 net.cpp:141] Setting up inception_4d/relu_1x1
I0403 16:24:44.929628 18040 net.cpp:148] Top shape: 24 112 14 14 (526848)
I0403 16:24:44.929643 18040 net.cpp:156] Memory required for data: 1115397408
I0403 16:24:44.929658 18040 layer_factory.hpp:77] Creating layer inception_4d/3x3_reduce
I0403 16:24:44.929694 18040 net.cpp:91] Creating Layer inception_4d/3x3_reduce
I0403 16:24:44.929713 18040 net.cpp:425] inception_4d/3x3_reduce <- inception_4c/output_inception_4c/output_0_split_1
I0403 16:24:44.929733 18040 net.cpp:399] inception_4d/3x3_reduce -> inception_4d/3x3_reduce
I0403 16:24:44.931246 18040 net.cpp:141] Setting up inception_4d/3x3_reduce
I0403 16:24:44.931272 18040 net.cpp:148] Top shape: 24 144 14 14 (677376)
I0403 16:24:44.931288 18040 net.cpp:156] Memory required for data: 1118106912
I0403 16:24:44.931315 18040 layer_factory.hpp:77] Creating layer inception_4d/relu_3x3_reduce
I0403 16:24:44.931336 18040 net.cpp:91] Creating Layer inception_4d/relu_3x3_reduce
I0403 16:24:44.931354 18040 net.cpp:425] inception_4d/relu_3x3_reduce <- inception_4d/3x3_reduce
I0403 16:24:44.931370 18040 net.cpp:386] inception_4d/relu_3x3_reduce -> inception_4d/3x3_reduce (in-place)
I0403 16:24:44.931665 18040 net.cpp:141] Setting up inception_4d/relu_3x3_reduce
I0403 16:24:44.931692 18040 net.cpp:148] Top shape: 24 144 14 14 (677376)
I0403 16:24:44.931706 18040 net.cpp:156] Memory required for data: 1120816416
I0403 16:24:44.931721 18040 layer_factory.hpp:77] Creating layer inception_4d/3x3
I0403 16:24:44.931743 18040 net.cpp:91] Creating Layer inception_4d/3x3
I0403 16:24:44.931761 18040 net.cpp:425] inception_4d/3x3 <- inception_4d/3x3_reduce
I0403 16:24:44.931782 18040 net.cpp:399] inception_4d/3x3 -> inception_4d/3x3
I0403 16:24:44.936074 18040 net.cpp:141] Setting up inception_4d/3x3
I0403 16:24:44.936105 18040 net.cpp:148] Top shape: 24 288 14 14 (1354752)
I0403 16:24:44.936121 18040 net.cpp:156] Memory required for data: 1126235424
I0403 16:24:44.936141 18040 layer_factory.hpp:77] Creating layer inception_4d/relu_3x3
I0403 16:24:44.936161 18040 net.cpp:91] Creating Layer inception_4d/relu_3x3
I0403 16:24:44.936178 18040 net.cpp:425] inception_4d/relu_3x3 <- inception_4d/3x3
I0403 16:24:44.936197 18040 net.cpp:386] inception_4d/relu_3x3 -> inception_4d/3x3 (in-place)
I0403 16:24:44.936383 18040 net.cpp:141] Setting up inception_4d/relu_3x3
I0403 16:24:44.936408 18040 net.cpp:148] Top shape: 24 288 14 14 (1354752)
I0403 16:24:44.936422 18040 net.cpp:156] Memory required for data: 1131654432
I0403 16:24:44.936436 18040 layer_factory.hpp:77] Creating layer inception_4d/5x5_reduce
I0403 16:24:44.936458 18040 net.cpp:91] Creating Layer inception_4d/5x5_reduce
I0403 16:24:44.936475 18040 net.cpp:425] inception_4d/5x5_reduce <- inception_4c/output_inception_4c/output_0_split_2
I0403 16:24:44.936496 18040 net.cpp:399] inception_4d/5x5_reduce -> inception_4d/5x5_reduce
I0403 16:24:44.937655 18040 net.cpp:141] Setting up inception_4d/5x5_reduce
I0403 16:24:44.937685 18040 net.cpp:148] Top shape: 24 32 14 14 (150528)
I0403 16:24:44.937701 18040 net.cpp:156] Memory required for data: 1132256544
I0403 16:24:44.937718 18040 layer_factory.hpp:77] Creating layer inception_4d/relu_5x5_reduce
I0403 16:24:44.937736 18040 net.cpp:91] Creating Layer inception_4d/relu_5x5_reduce
I0403 16:24:44.937752 18040 net.cpp:425] inception_4d/relu_5x5_reduce <- inception_4d/5x5_reduce
I0403 16:24:44.937769 18040 net.cpp:386] inception_4d/relu_5x5_reduce -> inception_4d/5x5_reduce (in-place)
I0403 16:24:44.937955 18040 net.cpp:141] Setting up inception_4d/relu_5x5_reduce
I0403 16:24:44.937980 18040 net.cpp:148] Top shape: 24 32 14 14 (150528)
I0403 16:24:44.937994 18040 net.cpp:156] Memory required for data: 1132858656
I0403 16:24:44.938009 18040 layer_factory.hpp:77] Creating layer inception_4d/5x5
I0403 16:24:44.938030 18040 net.cpp:91] Creating Layer inception_4d/5x5
I0403 16:24:44.938047 18040 net.cpp:425] inception_4d/5x5 <- inception_4d/5x5_reduce
I0403 16:24:44.938068 18040 net.cpp:399] inception_4d/5x5 -> inception_4d/5x5
I0403 16:24:44.939532 18040 net.cpp:141] Setting up inception_4d/5x5
I0403 16:24:44.939558 18040 net.cpp:148] Top shape: 24 64 14 14 (301056)
I0403 16:24:44.939579 18040 net.cpp:156] Memory required for data: 1134062880
I0403 16:24:44.939606 18040 layer_factory.hpp:77] Creating layer inception_4d/relu_5x5
I0403 16:24:44.939645 18040 net.cpp:91] Creating Layer inception_4d/relu_5x5
I0403 16:24:44.939662 18040 net.cpp:425] inception_4d/relu_5x5 <- inception_4d/5x5
I0403 16:24:44.939679 18040 net.cpp:386] inception_4d/relu_5x5 -> inception_4d/5x5 (in-place)
I0403 16:24:44.939980 18040 net.cpp:141] Setting up inception_4d/relu_5x5
I0403 16:24:44.940006 18040 net.cpp:148] Top shape: 24 64 14 14 (301056)
I0403 16:24:44.940021 18040 net.cpp:156] Memory required for data: 1135267104
I0403 16:24:44.940035 18040 layer_factory.hpp:77] Creating layer inception_4d/pool
I0403 16:24:44.940052 18040 net.cpp:91] Creating Layer inception_4d/pool
I0403 16:24:44.940068 18040 net.cpp:425] inception_4d/pool <- inception_4c/output_inception_4c/output_0_split_3
I0403 16:24:44.940088 18040 net.cpp:399] inception_4d/pool -> inception_4d/pool
I0403 16:24:44.940155 18040 net.cpp:141] Setting up inception_4d/pool
I0403 16:24:44.940181 18040 net.cpp:148] Top shape: 24 512 14 14 (2408448)
I0403 16:24:44.940196 18040 net.cpp:156] Memory required for data: 1144900896
I0403 16:24:44.940208 18040 layer_factory.hpp:77] Creating layer inception_4d/pool_proj
I0403 16:24:44.940230 18040 net.cpp:91] Creating Layer inception_4d/pool_proj
I0403 16:24:44.940248 18040 net.cpp:425] inception_4d/pool_proj <- inception_4d/pool
I0403 16:24:44.940265 18040 net.cpp:399] inception_4d/pool_proj -> inception_4d/pool_proj
I0403 16:24:44.942040 18040 net.cpp:141] Setting up inception_4d/pool_proj
I0403 16:24:44.942072 18040 net.cpp:148] Top shape: 24 64 14 14 (301056)
I0403 16:24:44.942088 18040 net.cpp:156] Memory required for data: 1146105120
I0403 16:24:44.942106 18040 layer_factory.hpp:77] Creating layer inception_4d/relu_pool_proj
I0403 16:24:44.942126 18040 net.cpp:91] Creating Layer inception_4d/relu_pool_proj
I0403 16:24:44.942140 18040 net.cpp:425] inception_4d/relu_pool_proj <- inception_4d/pool_proj
I0403 16:24:44.942160 18040 net.cpp:386] inception_4d/relu_pool_proj -> inception_4d/pool_proj (in-place)
I0403 16:24:44.942348 18040 net.cpp:141] Setting up inception_4d/relu_pool_proj
I0403 16:24:44.942373 18040 net.cpp:148] Top shape: 24 64 14 14 (301056)
I0403 16:24:44.942389 18040 net.cpp:156] Memory required for data: 1147309344
I0403 16:24:44.942402 18040 layer_factory.hpp:77] Creating layer inception_4d/output
I0403 16:24:44.942419 18040 net.cpp:91] Creating Layer inception_4d/output
I0403 16:24:44.942435 18040 net.cpp:425] inception_4d/output <- inception_4d/1x1
I0403 16:24:44.942451 18040 net.cpp:425] inception_4d/output <- inception_4d/3x3
I0403 16:24:44.942466 18040 net.cpp:425] inception_4d/output <- inception_4d/5x5
I0403 16:24:44.942482 18040 net.cpp:425] inception_4d/output <- inception_4d/pool_proj
I0403 16:24:44.942500 18040 net.cpp:399] inception_4d/output -> inception_4d/output
I0403 16:24:44.942548 18040 net.cpp:141] Setting up inception_4d/output
I0403 16:24:44.942577 18040 net.cpp:148] Top shape: 24 528 14 14 (2483712)
I0403 16:24:44.942603 18040 net.cpp:156] Memory required for data: 1157244192
I0403 16:24:44.942617 18040 layer_factory.hpp:77] Creating layer inception_4d/output_inception_4d/output_0_split
I0403 16:24:44.942634 18040 net.cpp:91] Creating Layer inception_4d/output_inception_4d/output_0_split
I0403 16:24:44.942651 18040 net.cpp:425] inception_4d/output_inception_4d/output_0_split <- inception_4d/output
I0403 16:24:44.942667 18040 net.cpp:399] inception_4d/output_inception_4d/output_0_split -> inception_4d/output_inception_4d/output_0_split_0
I0403 16:24:44.942689 18040 net.cpp:399] inception_4d/output_inception_4d/output_0_split -> inception_4d/output_inception_4d/output_0_split_1
I0403 16:24:44.942710 18040 net.cpp:399] inception_4d/output_inception_4d/output_0_split -> inception_4d/output_inception_4d/output_0_split_2
I0403 16:24:44.942730 18040 net.cpp:399] inception_4d/output_inception_4d/output_0_split -> inception_4d/output_inception_4d/output_0_split_3
I0403 16:24:44.942750 18040 net.cpp:399] inception_4d/output_inception_4d/output_0_split -> inception_4d/output_inception_4d/output_0_split_4
I0403 16:24:44.942853 18040 net.cpp:141] Setting up inception_4d/output_inception_4d/output_0_split
I0403 16:24:44.942888 18040 net.cpp:148] Top shape: 24 528 14 14 (2483712)
I0403 16:24:44.942905 18040 net.cpp:148] Top shape: 24 528 14 14 (2483712)
I0403 16:24:44.942924 18040 net.cpp:148] Top shape: 24 528 14 14 (2483712)
I0403 16:24:44.942940 18040 net.cpp:148] Top shape: 24 528 14 14 (2483712)
I0403 16:24:44.942955 18040 net.cpp:148] Top shape: 24 528 14 14 (2483712)
I0403 16:24:44.942967 18040 net.cpp:156] Memory required for data: 1206918432
I0403 16:24:44.942981 18040 layer_factory.hpp:77] Creating layer loss2/ave_pool
I0403 16:24:44.942999 18040 net.cpp:91] Creating Layer loss2/ave_pool
I0403 16:24:44.943014 18040 net.cpp:425] loss2/ave_pool <- inception_4d/output_inception_4d/output_0_split_0
I0403 16:24:44.943032 18040 net.cpp:399] loss2/ave_pool -> loss2/ave_pool
I0403 16:24:44.943343 18040 net.cpp:141] Setting up loss2/ave_pool
I0403 16:24:44.943372 18040 net.cpp:148] Top shape: 24 528 4 4 (202752)
I0403 16:24:44.943387 18040 net.cpp:156] Memory required for data: 1207729440
I0403 16:24:44.943403 18040 layer_factory.hpp:77] Creating layer loss2/conv
I0403 16:24:44.943424 18040 net.cpp:91] Creating Layer loss2/conv
I0403 16:24:44.943441 18040 net.cpp:425] loss2/conv <- loss2/ave_pool
I0403 16:24:44.943460 18040 net.cpp:399] loss2/conv -> loss2/conv
I0403 16:24:44.945371 18040 net.cpp:141] Setting up loss2/conv
I0403 16:24:44.945400 18040 net.cpp:148] Top shape: 24 128 4 4 (49152)
I0403 16:24:44.945416 18040 net.cpp:156] Memory required for data: 1207926048
I0403 16:24:44.945433 18040 layer_factory.hpp:77] Creating layer loss2/relu_conv
I0403 16:24:44.945451 18040 net.cpp:91] Creating Layer loss2/relu_conv
I0403 16:24:44.945467 18040 net.cpp:425] loss2/relu_conv <- loss2/conv
I0403 16:24:44.945487 18040 net.cpp:386] loss2/relu_conv -> loss2/conv (in-place)
I0403 16:24:44.945778 18040 net.cpp:141] Setting up loss2/relu_conv
I0403 16:24:44.945818 18040 net.cpp:148] Top shape: 24 128 4 4 (49152)
I0403 16:24:44.945833 18040 net.cpp:156] Memory required for data: 1208122656
I0403 16:24:44.945847 18040 layer_factory.hpp:77] Creating layer loss2/fc
I0403 16:24:44.945868 18040 net.cpp:91] Creating Layer loss2/fc
I0403 16:24:44.945884 18040 net.cpp:425] loss2/fc <- loss2/conv
I0403 16:24:44.945904 18040 net.cpp:399] loss2/fc -> loss2/fc
I0403 16:24:44.963212 18040 net.cpp:141] Setting up loss2/fc
I0403 16:24:44.963243 18040 net.cpp:148] Top shape: 24 1024 (24576)
I0403 16:24:44.963258 18040 net.cpp:156] Memory required for data: 1208220960
I0403 16:24:44.963275 18040 layer_factory.hpp:77] Creating layer loss2/relu_fc
I0403 16:24:44.963294 18040 net.cpp:91] Creating Layer loss2/relu_fc
I0403 16:24:44.963312 18040 net.cpp:425] loss2/relu_fc <- loss2/fc
I0403 16:24:44.963330 18040 net.cpp:386] loss2/relu_fc -> loss2/fc (in-place)
I0403 16:24:44.963632 18040 net.cpp:141] Setting up loss2/relu_fc
I0403 16:24:44.963660 18040 net.cpp:148] Top shape: 24 1024 (24576)
I0403 16:24:44.963675 18040 net.cpp:156] Memory required for data: 1208319264
I0403 16:24:44.963690 18040 layer_factory.hpp:77] Creating layer loss2/drop_fc
I0403 16:24:44.963706 18040 net.cpp:91] Creating Layer loss2/drop_fc
I0403 16:24:44.963721 18040 net.cpp:425] loss2/drop_fc <- loss2/fc
I0403 16:24:44.963737 18040 net.cpp:386] loss2/drop_fc -> loss2/fc (in-place)
I0403 16:24:44.963788 18040 net.cpp:141] Setting up loss2/drop_fc
I0403 16:24:44.963809 18040 net.cpp:148] Top shape: 24 1024 (24576)
I0403 16:24:44.963824 18040 net.cpp:156] Memory required for data: 1208417568
I0403 16:24:44.963837 18040 layer_factory.hpp:77] Creating layer loss2/classifier_plantvillage
I0403 16:24:44.963857 18040 net.cpp:91] Creating Layer loss2/classifier_plantvillage
I0403 16:24:44.963873 18040 net.cpp:425] loss2/classifier_plantvillage <- loss2/fc
I0403 16:24:44.963891 18040 net.cpp:399] loss2/classifier_plantvillage -> loss2/classifier_plantvillage
I0403 16:24:44.964283 18040 net.cpp:141] Setting up loss2/classifier_plantvillage
I0403 16:24:44.964308 18040 net.cpp:148] Top shape: 24 38 (912)
I0403 16:24:44.964337 18040 net.cpp:156] Memory required for data: 1208421216
I0403 16:24:44.964356 18040 layer_factory.hpp:77] Creating layer loss2/classifier_plantvillage_loss2/classifier_plantvillage_0_split
I0403 16:24:44.964373 18040 net.cpp:91] Creating Layer loss2/classifier_plantvillage_loss2/classifier_plantvillage_0_split
I0403 16:24:44.964390 18040 net.cpp:425] loss2/classifier_plantvillage_loss2/classifier_plantvillage_0_split <- loss2/classifier_plantvillage
I0403 16:24:44.964408 18040 net.cpp:399] loss2/classifier_plantvillage_loss2/classifier_plantvillage_0_split -> loss2/classifier_plantvillage_loss2/classifier_plantvillage_0_split_0
I0403 16:24:44.964429 18040 net.cpp:399] loss2/classifier_plantvillage_loss2/classifier_plantvillage_0_split -> loss2/classifier_plantvillage_loss2/classifier_plantvillage_0_split_1
I0403 16:24:44.964450 18040 net.cpp:399] loss2/classifier_plantvillage_loss2/classifier_plantvillage_0_split -> loss2/classifier_plantvillage_loss2/classifier_plantvillage_0_split_2
I0403 16:24:44.964532 18040 net.cpp:141] Setting up loss2/classifier_plantvillage_loss2/classifier_plantvillage_0_split
I0403 16:24:44.964555 18040 net.cpp:148] Top shape: 24 38 (912)
I0403 16:24:44.964581 18040 net.cpp:148] Top shape: 24 38 (912)
I0403 16:24:44.964597 18040 net.cpp:148] Top shape: 24 38 (912)
I0403 16:24:44.964612 18040 net.cpp:156] Memory required for data: 1208432160
I0403 16:24:44.964625 18040 layer_factory.hpp:77] Creating layer inception_4e/1x1
I0403 16:24:44.964646 18040 net.cpp:91] Creating Layer inception_4e/1x1
I0403 16:24:44.964663 18040 net.cpp:425] inception_4e/1x1 <- inception_4d/output_inception_4d/output_0_split_1
I0403 16:24:44.964681 18040 net.cpp:399] inception_4e/1x1 -> inception_4e/1x1
I0403 16:24:44.966449 18040 net.cpp:141] Setting up inception_4e/1x1
I0403 16:24:44.966476 18040 net.cpp:148] Top shape: 24 256 14 14 (1204224)
I0403 16:24:44.966491 18040 net.cpp:156] Memory required for data: 1213249056
I0403 16:24:44.966508 18040 layer_factory.hpp:77] Creating layer inception_4e/relu_1x1
I0403 16:24:44.966528 18040 net.cpp:91] Creating Layer inception_4e/relu_1x1
I0403 16:24:44.966544 18040 net.cpp:425] inception_4e/relu_1x1 <- inception_4e/1x1
I0403 16:24:44.966562 18040 net.cpp:386] inception_4e/relu_1x1 -> inception_4e/1x1 (in-place)
I0403 16:24:44.966856 18040 net.cpp:141] Setting up inception_4e/relu_1x1
I0403 16:24:44.966881 18040 net.cpp:148] Top shape: 24 256 14 14 (1204224)
I0403 16:24:44.966895 18040 net.cpp:156] Memory required for data: 1218065952
I0403 16:24:44.966909 18040 layer_factory.hpp:77] Creating layer inception_4e/3x3_reduce
I0403 16:24:44.966931 18040 net.cpp:91] Creating Layer inception_4e/3x3_reduce
I0403 16:24:44.966948 18040 net.cpp:425] inception_4e/3x3_reduce <- inception_4d/output_inception_4d/output_0_split_2
I0403 16:24:44.966969 18040 net.cpp:399] inception_4e/3x3_reduce -> inception_4e/3x3_reduce
I0403 16:24:44.969074 18040 net.cpp:141] Setting up inception_4e/3x3_reduce
I0403 16:24:44.969101 18040 net.cpp:148] Top shape: 24 160 14 14 (752640)
I0403 16:24:44.969116 18040 net.cpp:156] Memory required for data: 1221076512
I0403 16:24:44.969133 18040 layer_factory.hpp:77] Creating layer inception_4e/relu_3x3_reduce
I0403 16:24:44.969151 18040 net.cpp:91] Creating Layer inception_4e/relu_3x3_reduce
I0403 16:24:44.969166 18040 net.cpp:425] inception_4e/relu_3x3_reduce <- inception_4e/3x3_reduce
I0403 16:24:44.969185 18040 net.cpp:386] inception_4e/relu_3x3_reduce -> inception_4e/3x3_reduce (in-place)
I0403 16:24:44.969368 18040 net.cpp:141] Setting up inception_4e/relu_3x3_reduce
I0403 16:24:44.969393 18040 net.cpp:148] Top shape: 24 160 14 14 (752640)
I0403 16:24:44.969406 18040 net.cpp:156] Memory required for data: 1224087072
I0403 16:24:44.969419 18040 layer_factory.hpp:77] Creating layer inception_4e/3x3
I0403 16:24:44.969441 18040 net.cpp:91] Creating Layer inception_4e/3x3
I0403 16:24:44.969457 18040 net.cpp:425] inception_4e/3x3 <- inception_4e/3x3_reduce
I0403 16:24:44.969477 18040 net.cpp:399] inception_4e/3x3 -> inception_4e/3x3
I0403 16:24:44.974290 18040 net.cpp:141] Setting up inception_4e/3x3
I0403 16:24:44.974336 18040 net.cpp:148] Top shape: 24 320 14 14 (1505280)
I0403 16:24:44.974352 18040 net.cpp:156] Memory required for data: 1230108192
I0403 16:24:44.974370 18040 layer_factory.hpp:77] Creating layer inception_4e/relu_3x3
I0403 16:24:44.974390 18040 net.cpp:91] Creating Layer inception_4e/relu_3x3
I0403 16:24:44.974406 18040 net.cpp:425] inception_4e/relu_3x3 <- inception_4e/3x3
I0403 16:24:44.974421 18040 net.cpp:386] inception_4e/relu_3x3 -> inception_4e/3x3 (in-place)
I0403 16:24:44.974720 18040 net.cpp:141] Setting up inception_4e/relu_3x3
I0403 16:24:44.974747 18040 net.cpp:148] Top shape: 24 320 14 14 (1505280)
I0403 16:24:44.974762 18040 net.cpp:156] Memory required for data: 1236129312
I0403 16:24:44.974776 18040 layer_factory.hpp:77] Creating layer inception_4e/5x5_reduce
I0403 16:24:44.974797 18040 net.cpp:91] Creating Layer inception_4e/5x5_reduce
I0403 16:24:44.974814 18040 net.cpp:425] inception_4e/5x5_reduce <- inception_4d/output_inception_4d/output_0_split_3
I0403 16:24:44.974831 18040 net.cpp:399] inception_4e/5x5_reduce -> inception_4e/5x5_reduce
I0403 16:24:44.975855 18040 net.cpp:141] Setting up inception_4e/5x5_reduce
I0403 16:24:44.975881 18040 net.cpp:148] Top shape: 24 32 14 14 (150528)
I0403 16:24:44.975895 18040 net.cpp:156] Memory required for data: 1236731424
I0403 16:24:44.975911 18040 layer_factory.hpp:77] Creating layer inception_4e/relu_5x5_reduce
I0403 16:24:44.975929 18040 net.cpp:91] Creating Layer inception_4e/relu_5x5_reduce
I0403 16:24:44.975945 18040 net.cpp:425] inception_4e/relu_5x5_reduce <- inception_4e/5x5_reduce
I0403 16:24:44.975961 18040 net.cpp:386] inception_4e/relu_5x5_reduce -> inception_4e/5x5_reduce (in-place)
I0403 16:24:44.976243 18040 net.cpp:141] Setting up inception_4e/relu_5x5_reduce
I0403 16:24:44.976266 18040 net.cpp:148] Top shape: 24 32 14 14 (150528)
I0403 16:24:44.976280 18040 net.cpp:156] Memory required for data: 1237333536
I0403 16:24:44.976296 18040 layer_factory.hpp:77] Creating layer inception_4e/5x5
I0403 16:24:44.976331 18040 net.cpp:91] Creating Layer inception_4e/5x5
I0403 16:24:44.976348 18040 net.cpp:425] inception_4e/5x5 <- inception_4e/5x5_reduce
I0403 16:24:44.976367 18040 net.cpp:399] inception_4e/5x5 -> inception_4e/5x5
I0403 16:24:44.978107 18040 net.cpp:141] Setting up inception_4e/5x5
I0403 16:24:44.978135 18040 net.cpp:148] Top shape: 24 128 14 14 (602112)
I0403 16:24:44.978152 18040 net.cpp:156] Memory required for data: 1239741984
I0403 16:24:44.978169 18040 layer_factory.hpp:77] Creating layer inception_4e/relu_5x5
I0403 16:24:44.978185 18040 net.cpp:91] Creating Layer inception_4e/relu_5x5
I0403 16:24:44.978200 18040 net.cpp:425] inception_4e/relu_5x5 <- inception_4e/5x5
I0403 16:24:44.978217 18040 net.cpp:386] inception_4e/relu_5x5 -> inception_4e/5x5 (in-place)
I0403 16:24:44.978407 18040 net.cpp:141] Setting up inception_4e/relu_5x5
I0403 16:24:44.978431 18040 net.cpp:148] Top shape: 24 128 14 14 (602112)
I0403 16:24:44.978446 18040 net.cpp:156] Memory required for data: 1242150432
I0403 16:24:44.978459 18040 layer_factory.hpp:77] Creating layer inception_4e/pool
I0403 16:24:44.978476 18040 net.cpp:91] Creating Layer inception_4e/pool
I0403 16:24:44.978490 18040 net.cpp:425] inception_4e/pool <- inception_4d/output_inception_4d/output_0_split_4
I0403 16:24:44.978508 18040 net.cpp:399] inception_4e/pool -> inception_4e/pool
I0403 16:24:44.978579 18040 net.cpp:141] Setting up inception_4e/pool
I0403 16:24:44.978601 18040 net.cpp:148] Top shape: 24 528 14 14 (2483712)
I0403 16:24:44.978615 18040 net.cpp:156] Memory required for data: 1252085280
I0403 16:24:44.978628 18040 layer_factory.hpp:77] Creating layer inception_4e/pool_proj
I0403 16:24:44.978649 18040 net.cpp:91] Creating Layer inception_4e/pool_proj
I0403 16:24:44.978667 18040 net.cpp:425] inception_4e/pool_proj <- inception_4e/pool
I0403 16:24:44.978683 18040 net.cpp:399] inception_4e/pool_proj -> inception_4e/pool_proj
I0403 16:24:44.980151 18040 net.cpp:141] Setting up inception_4e/pool_proj
I0403 16:24:44.980190 18040 net.cpp:148] Top shape: 24 128 14 14 (602112)
I0403 16:24:44.980206 18040 net.cpp:156] Memory required for data: 1254493728
I0403 16:24:44.980223 18040 layer_factory.hpp:77] Creating layer inception_4e/relu_pool_proj
I0403 16:24:44.980240 18040 net.cpp:91] Creating Layer inception_4e/relu_pool_proj
I0403 16:24:44.980255 18040 net.cpp:425] inception_4e/relu_pool_proj <- inception_4e/pool_proj
I0403 16:24:44.980273 18040 net.cpp:386] inception_4e/relu_pool_proj -> inception_4e/pool_proj (in-place)
I0403 16:24:44.980556 18040 net.cpp:141] Setting up inception_4e/relu_pool_proj
I0403 16:24:44.980587 18040 net.cpp:148] Top shape: 24 128 14 14 (602112)
I0403 16:24:44.980602 18040 net.cpp:156] Memory required for data: 1256902176
I0403 16:24:44.980615 18040 layer_factory.hpp:77] Creating layer inception_4e/output
I0403 16:24:44.980633 18040 net.cpp:91] Creating Layer inception_4e/output
I0403 16:24:44.980646 18040 net.cpp:425] inception_4e/output <- inception_4e/1x1
I0403 16:24:44.980662 18040 net.cpp:425] inception_4e/output <- inception_4e/3x3
I0403 16:24:44.980676 18040 net.cpp:425] inception_4e/output <- inception_4e/5x5
I0403 16:24:44.980690 18040 net.cpp:425] inception_4e/output <- inception_4e/pool_proj
I0403 16:24:44.980706 18040 net.cpp:399] inception_4e/output -> inception_4e/output
I0403 16:24:44.980756 18040 net.cpp:141] Setting up inception_4e/output
I0403 16:24:44.980777 18040 net.cpp:148] Top shape: 24 832 14 14 (3913728)
I0403 16:24:44.980792 18040 net.cpp:156] Memory required for data: 1272557088
I0403 16:24:44.980804 18040 layer_factory.hpp:77] Creating layer pool4/3x3_s2
I0403 16:24:44.980823 18040 net.cpp:91] Creating Layer pool4/3x3_s2
I0403 16:24:44.980837 18040 net.cpp:425] pool4/3x3_s2 <- inception_4e/output
I0403 16:24:44.980854 18040 net.cpp:399] pool4/3x3_s2 -> pool4/3x3_s2
I0403 16:24:44.980921 18040 net.cpp:141] Setting up pool4/3x3_s2
I0403 16:24:44.980942 18040 net.cpp:148] Top shape: 24 832 7 7 (978432)
I0403 16:24:44.980955 18040 net.cpp:156] Memory required for data: 1276470816
I0403 16:24:44.980968 18040 layer_factory.hpp:77] Creating layer pool4/3x3_s2_pool4/3x3_s2_0_split
I0403 16:24:44.980984 18040 net.cpp:91] Creating Layer pool4/3x3_s2_pool4/3x3_s2_0_split
I0403 16:24:44.980998 18040 net.cpp:425] pool4/3x3_s2_pool4/3x3_s2_0_split <- pool4/3x3_s2
I0403 16:24:44.981016 18040 net.cpp:399] pool4/3x3_s2_pool4/3x3_s2_0_split -> pool4/3x3_s2_pool4/3x3_s2_0_split_0
I0403 16:24:44.981036 18040 net.cpp:399] pool4/3x3_s2_pool4/3x3_s2_0_split -> pool4/3x3_s2_pool4/3x3_s2_0_split_1
I0403 16:24:44.981055 18040 net.cpp:399] pool4/3x3_s2_pool4/3x3_s2_0_split -> pool4/3x3_s2_pool4/3x3_s2_0_split_2
I0403 16:24:44.981086 18040 net.cpp:399] pool4/3x3_s2_pool4/3x3_s2_0_split -> pool4/3x3_s2_pool4/3x3_s2_0_split_3
I0403 16:24:44.981173 18040 net.cpp:141] Setting up pool4/3x3_s2_pool4/3x3_s2_0_split
I0403 16:24:44.981199 18040 net.cpp:148] Top shape: 24 832 7 7 (978432)
I0403 16:24:44.981215 18040 net.cpp:148] Top shape: 24 832 7 7 (978432)
I0403 16:24:44.981230 18040 net.cpp:148] Top shape: 24 832 7 7 (978432)
I0403 16:24:44.981245 18040 net.cpp:148] Top shape: 24 832 7 7 (978432)
I0403 16:24:44.981257 18040 net.cpp:156] Memory required for data: 1292125728
I0403 16:24:44.981271 18040 layer_factory.hpp:77] Creating layer inception_5a/1x1
I0403 16:24:44.981292 18040 net.cpp:91] Creating Layer inception_5a/1x1
I0403 16:24:44.981308 18040 net.cpp:425] inception_5a/1x1 <- pool4/3x3_s2_pool4/3x3_s2_0_split_0
I0403 16:24:44.981328 18040 net.cpp:399] inception_5a/1x1 -> inception_5a/1x1
I0403 16:24:44.984069 18040 net.cpp:141] Setting up inception_5a/1x1
I0403 16:24:44.984109 18040 net.cpp:148] Top shape: 24 256 7 7 (301056)
I0403 16:24:44.984124 18040 net.cpp:156] Memory required for data: 1293329952
I0403 16:24:44.984143 18040 layer_factory.hpp:77] Creating layer inception_5a/relu_1x1
I0403 16:24:44.984158 18040 net.cpp:91] Creating Layer inception_5a/relu_1x1
I0403 16:24:44.984174 18040 net.cpp:425] inception_5a/relu_1x1 <- inception_5a/1x1
I0403 16:24:44.984194 18040 net.cpp:386] inception_5a/relu_1x1 -> inception_5a/1x1 (in-place)
I0403 16:24:44.984506 18040 net.cpp:141] Setting up inception_5a/relu_1x1
I0403 16:24:44.984531 18040 net.cpp:148] Top shape: 24 256 7 7 (301056)
I0403 16:24:44.984545 18040 net.cpp:156] Memory required for data: 1294534176
I0403 16:24:44.984558 18040 layer_factory.hpp:77] Creating layer inception_5a/3x3_reduce
I0403 16:24:44.984606 18040 net.cpp:91] Creating Layer inception_5a/3x3_reduce
I0403 16:24:44.984625 18040 net.cpp:425] inception_5a/3x3_reduce <- pool4/3x3_s2_pool4/3x3_s2_0_split_1
I0403 16:24:44.984658 18040 net.cpp:399] inception_5a/3x3_reduce -> inception_5a/3x3_reduce
I0403 16:24:44.987076 18040 net.cpp:141] Setting up inception_5a/3x3_reduce
I0403 16:24:44.987103 18040 net.cpp:148] Top shape: 24 160 7 7 (188160)
I0403 16:24:44.987118 18040 net.cpp:156] Memory required for data: 1295286816
I0403 16:24:44.987135 18040 layer_factory.hpp:77] Creating layer inception_5a/relu_3x3_reduce
I0403 16:24:44.987154 18040 net.cpp:91] Creating Layer inception_5a/relu_3x3_reduce
I0403 16:24:44.987170 18040 net.cpp:425] inception_5a/relu_3x3_reduce <- inception_5a/3x3_reduce
I0403 16:24:44.987187 18040 net.cpp:386] inception_5a/relu_3x3_reduce -> inception_5a/3x3_reduce (in-place)
I0403 16:24:44.987375 18040 net.cpp:141] Setting up inception_5a/relu_3x3_reduce
I0403 16:24:44.987399 18040 net.cpp:148] Top shape: 24 160 7 7 (188160)
I0403 16:24:44.987412 18040 net.cpp:156] Memory required for data: 1296039456
I0403 16:24:44.987426 18040 layer_factory.hpp:77] Creating layer inception_5a/3x3
I0403 16:24:44.987448 18040 net.cpp:91] Creating Layer inception_5a/3x3
I0403 16:24:44.987464 18040 net.cpp:425] inception_5a/3x3 <- inception_5a/3x3_reduce
I0403 16:24:44.987484 18040 net.cpp:399] inception_5a/3x3 -> inception_5a/3x3
I0403 16:24:44.992395 18040 net.cpp:141] Setting up inception_5a/3x3
I0403 16:24:44.992426 18040 net.cpp:148] Top shape: 24 320 7 7 (376320)
I0403 16:24:44.992442 18040 net.cpp:156] Memory required for data: 1297544736
I0403 16:24:44.992460 18040 layer_factory.hpp:77] Creating layer inception_5a/relu_3x3
I0403 16:24:44.992477 18040 net.cpp:91] Creating Layer inception_5a/relu_3x3
I0403 16:24:44.992492 18040 net.cpp:425] inception_5a/relu_3x3 <- inception_5a/3x3
I0403 16:24:44.992511 18040 net.cpp:386] inception_5a/relu_3x3 -> inception_5a/3x3 (in-place)
I0403 16:24:44.992805 18040 net.cpp:141] Setting up inception_5a/relu_3x3
I0403 16:24:44.992832 18040 net.cpp:148] Top shape: 24 320 7 7 (376320)
I0403 16:24:44.992847 18040 net.cpp:156] Memory required for data: 1299050016
I0403 16:24:44.992862 18040 layer_factory.hpp:77] Creating layer inception_5a/5x5_reduce
I0403 16:24:44.992884 18040 net.cpp:91] Creating Layer inception_5a/5x5_reduce
I0403 16:24:44.992902 18040 net.cpp:425] inception_5a/5x5_reduce <- pool4/3x3_s2_pool4/3x3_s2_0_split_2
I0403 16:24:44.992919 18040 net.cpp:399] inception_5a/5x5_reduce -> inception_5a/5x5_reduce
I0403 16:24:44.994055 18040 net.cpp:141] Setting up inception_5a/5x5_reduce
I0403 16:24:44.994082 18040 net.cpp:148] Top shape: 24 32 7 7 (37632)
I0403 16:24:44.994097 18040 net.cpp:156] Memory required for data: 1299200544
I0403 16:24:44.994114 18040 layer_factory.hpp:77] Creating layer inception_5a/relu_5x5_reduce
I0403 16:24:44.994132 18040 net.cpp:91] Creating Layer inception_5a/relu_5x5_reduce
I0403 16:24:44.994148 18040 net.cpp:425] inception_5a/relu_5x5_reduce <- inception_5a/5x5_reduce
I0403 16:24:44.994166 18040 net.cpp:386] inception_5a/relu_5x5_reduce -> inception_5a/5x5_reduce (in-place)
I0403 16:24:44.994457 18040 net.cpp:141] Setting up inception_5a/relu_5x5_reduce
I0403 16:24:44.994483 18040 net.cpp:148] Top shape: 24 32 7 7 (37632)
I0403 16:24:44.994498 18040 net.cpp:156] Memory required for data: 1299351072
I0403 16:24:44.994511 18040 layer_factory.hpp:77] Creating layer inception_5a/5x5
I0403 16:24:44.994532 18040 net.cpp:91] Creating Layer inception_5a/5x5
I0403 16:24:44.994549 18040 net.cpp:425] inception_5a/5x5 <- inception_5a/5x5_reduce
I0403 16:24:44.994578 18040 net.cpp:399] inception_5a/5x5 -> inception_5a/5x5
I0403 16:24:44.996270 18040 net.cpp:141] Setting up inception_5a/5x5
I0403 16:24:44.996311 18040 net.cpp:148] Top shape: 24 128 7 7 (150528)
I0403 16:24:44.996327 18040 net.cpp:156] Memory required for data: 1299953184
I0403 16:24:44.996345 18040 layer_factory.hpp:77] Creating layer inception_5a/relu_5x5
I0403 16:24:44.996362 18040 net.cpp:91] Creating Layer inception_5a/relu_5x5
I0403 16:24:44.996377 18040 net.cpp:425] inception_5a/relu_5x5 <- inception_5a/5x5
I0403 16:24:44.996405 18040 net.cpp:386] inception_5a/relu_5x5 -> inception_5a/5x5 (in-place)
I0403 16:24:44.996599 18040 net.cpp:141] Setting up inception_5a/relu_5x5
I0403 16:24:44.996623 18040 net.cpp:148] Top shape: 24 128 7 7 (150528)
I0403 16:24:44.996637 18040 net.cpp:156] Memory required for data: 1300555296
I0403 16:24:44.996651 18040 layer_factory.hpp:77] Creating layer inception_5a/pool
I0403 16:24:44.996667 18040 net.cpp:91] Creating Layer inception_5a/pool
I0403 16:24:44.996683 18040 net.cpp:425] inception_5a/pool <- pool4/3x3_s2_pool4/3x3_s2_0_split_3
I0403 16:24:44.996702 18040 net.cpp:399] inception_5a/pool -> inception_5a/pool
I0403 16:24:44.996772 18040 net.cpp:141] Setting up inception_5a/pool
I0403 16:24:44.996794 18040 net.cpp:148] Top shape: 24 832 7 7 (978432)
I0403 16:24:44.996809 18040 net.cpp:156] Memory required for data: 1304469024
I0403 16:24:44.996821 18040 layer_factory.hpp:77] Creating layer inception_5a/pool_proj
I0403 16:24:44.996845 18040 net.cpp:91] Creating Layer inception_5a/pool_proj
I0403 16:24:44.996862 18040 net.cpp:425] inception_5a/pool_proj <- inception_5a/pool
I0403 16:24:44.996881 18040 net.cpp:399] inception_5a/pool_proj -> inception_5a/pool_proj
I0403 16:24:44.999121 18040 net.cpp:141] Setting up inception_5a/pool_proj
I0403 16:24:44.999152 18040 net.cpp:148] Top shape: 24 128 7 7 (150528)
I0403 16:24:44.999168 18040 net.cpp:156] Memory required for data: 1305071136
I0403 16:24:44.999186 18040 layer_factory.hpp:77] Creating layer inception_5a/relu_pool_proj
I0403 16:24:44.999203 18040 net.cpp:91] Creating Layer inception_5a/relu_pool_proj
I0403 16:24:44.999218 18040 net.cpp:425] inception_5a/relu_pool_proj <- inception_5a/pool_proj
I0403 16:24:44.999234 18040 net.cpp:386] inception_5a/relu_pool_proj -> inception_5a/pool_proj (in-place)
I0403 16:24:44.999528 18040 net.cpp:141] Setting up inception_5a/relu_pool_proj
I0403 16:24:44.999555 18040 net.cpp:148] Top shape: 24 128 7 7 (150528)
I0403 16:24:44.999574 18040 net.cpp:156] Memory required for data: 1305673248
I0403 16:24:44.999598 18040 layer_factory.hpp:77] Creating layer inception_5a/output
I0403 16:24:44.999615 18040 net.cpp:91] Creating Layer inception_5a/output
I0403 16:24:44.999629 18040 net.cpp:425] inception_5a/output <- inception_5a/1x1
I0403 16:24:44.999644 18040 net.cpp:425] inception_5a/output <- inception_5a/3x3
I0403 16:24:44.999660 18040 net.cpp:425] inception_5a/output <- inception_5a/5x5
I0403 16:24:44.999675 18040 net.cpp:425] inception_5a/output <- inception_5a/pool_proj
I0403 16:24:44.999691 18040 net.cpp:399] inception_5a/output -> inception_5a/output
I0403 16:24:44.999739 18040 net.cpp:141] Setting up inception_5a/output
I0403 16:24:44.999763 18040 net.cpp:148] Top shape: 24 832 7 7 (978432)
I0403 16:24:44.999776 18040 net.cpp:156] Memory required for data: 1309586976
I0403 16:24:44.999790 18040 layer_factory.hpp:77] Creating layer inception_5a/output_inception_5a/output_0_split
I0403 16:24:44.999809 18040 net.cpp:91] Creating Layer inception_5a/output_inception_5a/output_0_split
I0403 16:24:44.999825 18040 net.cpp:425] inception_5a/output_inception_5a/output_0_split <- inception_5a/output
I0403 16:24:44.999841 18040 net.cpp:399] inception_5a/output_inception_5a/output_0_split -> inception_5a/output_inception_5a/output_0_split_0
I0403 16:24:44.999861 18040 net.cpp:399] inception_5a/output_inception_5a/output_0_split -> inception_5a/output_inception_5a/output_0_split_1
I0403 16:24:44.999881 18040 net.cpp:399] inception_5a/output_inception_5a/output_0_split -> inception_5a/output_inception_5a/output_0_split_2
I0403 16:24:44.999899 18040 net.cpp:399] inception_5a/output_inception_5a/output_0_split -> inception_5a/output_inception_5a/output_0_split_3
I0403 16:24:45.000013 18040 net.cpp:141] Setting up inception_5a/output_inception_5a/output_0_split
I0403 16:24:45.000036 18040 net.cpp:148] Top shape: 24 832 7 7 (978432)
I0403 16:24:45.000052 18040 net.cpp:148] Top shape: 24 832 7 7 (978432)
I0403 16:24:45.000067 18040 net.cpp:148] Top shape: 24 832 7 7 (978432)
I0403 16:24:45.000082 18040 net.cpp:148] Top shape: 24 832 7 7 (978432)
I0403 16:24:45.000093 18040 net.cpp:156] Memory required for data: 1325241888
I0403 16:24:45.000107 18040 layer_factory.hpp:77] Creating layer inception_5b/1x1
I0403 16:24:45.000128 18040 net.cpp:91] Creating Layer inception_5b/1x1
I0403 16:24:45.000146 18040 net.cpp:425] inception_5b/1x1 <- inception_5a/output_inception_5a/output_0_split_0
I0403 16:24:45.000165 18040 net.cpp:399] inception_5b/1x1 -> inception_5b/1x1
I0403 16:24:45.003861 18040 net.cpp:141] Setting up inception_5b/1x1
I0403 16:24:45.003890 18040 net.cpp:148] Top shape: 24 384 7 7 (451584)
I0403 16:24:45.003904 18040 net.cpp:156] Memory required for data: 1327048224
I0403 16:24:45.003921 18040 layer_factory.hpp:77] Creating layer inception_5b/relu_1x1
I0403 16:24:45.003939 18040 net.cpp:91] Creating Layer inception_5b/relu_1x1
I0403 16:24:45.003957 18040 net.cpp:425] inception_5b/relu_1x1 <- inception_5b/1x1
I0403 16:24:45.003973 18040 net.cpp:386] inception_5b/relu_1x1 -> inception_5b/1x1 (in-place)
I0403 16:24:45.004261 18040 net.cpp:141] Setting up inception_5b/relu_1x1
I0403 16:24:45.004286 18040 net.cpp:148] Top shape: 24 384 7 7 (451584)
I0403 16:24:45.004300 18040 net.cpp:156] Memory required for data: 1328854560
I0403 16:24:45.004314 18040 layer_factory.hpp:77] Creating layer inception_5b/3x3_reduce
I0403 16:24:45.004338 18040 net.cpp:91] Creating Layer inception_5b/3x3_reduce
I0403 16:24:45.004354 18040 net.cpp:425] inception_5b/3x3_reduce <- inception_5a/output_inception_5a/output_0_split_1
I0403 16:24:45.004371 18040 net.cpp:399] inception_5b/3x3_reduce -> inception_5b/3x3_reduce
I0403 16:24:45.006930 18040 net.cpp:141] Setting up inception_5b/3x3_reduce
I0403 16:24:45.006960 18040 net.cpp:148] Top shape: 24 192 7 7 (225792)
I0403 16:24:45.006976 18040 net.cpp:156] Memory required for data: 1329757728
I0403 16:24:45.006994 18040 layer_factory.hpp:77] Creating layer inception_5b/relu_3x3_reduce
I0403 16:24:45.007010 18040 net.cpp:91] Creating Layer inception_5b/relu_3x3_reduce
I0403 16:24:45.007025 18040 net.cpp:425] inception_5b/relu_3x3_reduce <- inception_5b/3x3_reduce
I0403 16:24:45.007041 18040 net.cpp:386] inception_5b/relu_3x3_reduce -> inception_5b/3x3_reduce (in-place)
I0403 16:24:45.007225 18040 net.cpp:141] Setting up inception_5b/relu_3x3_reduce
I0403 16:24:45.007247 18040 net.cpp:148] Top shape: 24 192 7 7 (225792)
I0403 16:24:45.007261 18040 net.cpp:156] Memory required for data: 1330660896
I0403 16:24:45.007274 18040 layer_factory.hpp:77] Creating layer inception_5b/3x3
I0403 16:24:45.007295 18040 net.cpp:91] Creating Layer inception_5b/3x3
I0403 16:24:45.007321 18040 net.cpp:425] inception_5b/3x3 <- inception_5b/3x3_reduce
I0403 16:24:45.007342 18040 net.cpp:399] inception_5b/3x3 -> inception_5b/3x3
I0403 16:24:45.013763 18040 net.cpp:141] Setting up inception_5b/3x3
I0403 16:24:45.013793 18040 net.cpp:148] Top shape: 24 384 7 7 (451584)
I0403 16:24:45.013808 18040 net.cpp:156] Memory required for data: 1332467232
I0403 16:24:45.013825 18040 layer_factory.hpp:77] Creating layer inception_5b/relu_3x3
I0403 16:24:45.013842 18040 net.cpp:91] Creating Layer inception_5b/relu_3x3
I0403 16:24:45.013857 18040 net.cpp:425] inception_5b/relu_3x3 <- inception_5b/3x3
I0403 16:24:45.013873 18040 net.cpp:386] inception_5b/relu_3x3 -> inception_5b/3x3 (in-place)
I0403 16:24:45.014156 18040 net.cpp:141] Setting up inception_5b/relu_3x3
I0403 16:24:45.014183 18040 net.cpp:148] Top shape: 24 384 7 7 (451584)
I0403 16:24:45.014199 18040 net.cpp:156] Memory required for data: 1334273568
I0403 16:24:45.014212 18040 layer_factory.hpp:77] Creating layer inception_5b/5x5_reduce
I0403 16:24:45.014247 18040 net.cpp:91] Creating Layer inception_5b/5x5_reduce
I0403 16:24:45.014266 18040 net.cpp:425] inception_5b/5x5_reduce <- inception_5a/output_inception_5a/output_0_split_2
I0403 16:24:45.014283 18040 net.cpp:399] inception_5b/5x5_reduce -> inception_5b/5x5_reduce
I0403 16:24:45.015509 18040 net.cpp:141] Setting up inception_5b/5x5_reduce
I0403 16:24:45.015538 18040 net.cpp:148] Top shape: 24 48 7 7 (56448)
I0403 16:24:45.015553 18040 net.cpp:156] Memory required for data: 1334499360
I0403 16:24:45.015574 18040 layer_factory.hpp:77] Creating layer inception_5b/relu_5x5_reduce
I0403 16:24:45.015602 18040 net.cpp:91] Creating Layer inception_5b/relu_5x5_reduce
I0403 16:24:45.015617 18040 net.cpp:425] inception_5b/relu_5x5_reduce <- inception_5b/5x5_reduce
I0403 16:24:45.015636 18040 net.cpp:386] inception_5b/relu_5x5_reduce -> inception_5b/5x5_reduce (in-place)
I0403 16:24:45.015996 18040 net.cpp:141] Setting up inception_5b/relu_5x5_reduce
I0403 16:24:45.016021 18040 net.cpp:148] Top shape: 24 48 7 7 (56448)
I0403 16:24:45.016036 18040 net.cpp:156] Memory required for data: 1334725152
I0403 16:24:45.016049 18040 layer_factory.hpp:77] Creating layer inception_5b/5x5
I0403 16:24:45.016067 18040 net.cpp:91] Creating Layer inception_5b/5x5
I0403 16:24:45.016083 18040 net.cpp:425] inception_5b/5x5 <- inception_5b/5x5_reduce
I0403 16:24:45.016100 18040 net.cpp:399] inception_5b/5x5 -> inception_5b/5x5
I0403 16:24:45.018056 18040 net.cpp:141] Setting up inception_5b/5x5
I0403 16:24:45.018084 18040 net.cpp:148] Top shape: 24 128 7 7 (150528)
I0403 16:24:45.018098 18040 net.cpp:156] Memory required for data: 1335327264
I0403 16:24:45.018115 18040 layer_factory.hpp:77] Creating layer inception_5b/relu_5x5
I0403 16:24:45.018133 18040 net.cpp:91] Creating Layer inception_5b/relu_5x5
I0403 16:24:45.018151 18040 net.cpp:425] inception_5b/relu_5x5 <- inception_5b/5x5
I0403 16:24:45.018169 18040 net.cpp:386] inception_5b/relu_5x5 -> inception_5b/5x5 (in-place)
I0403 16:24:45.018373 18040 net.cpp:141] Setting up inception_5b/relu_5x5
I0403 16:24:45.018395 18040 net.cpp:148] Top shape: 24 128 7 7 (150528)
I0403 16:24:45.018409 18040 net.cpp:156] Memory required for data: 1335929376
I0403 16:24:45.018422 18040 layer_factory.hpp:77] Creating layer inception_5b/pool
I0403 16:24:45.018441 18040 net.cpp:91] Creating Layer inception_5b/pool
I0403 16:24:45.018456 18040 net.cpp:425] inception_5b/pool <- inception_5a/output_inception_5a/output_0_split_3
I0403 16:24:45.018473 18040 net.cpp:399] inception_5b/pool -> inception_5b/pool
I0403 16:24:45.018543 18040 net.cpp:141] Setting up inception_5b/pool
I0403 16:24:45.018565 18040 net.cpp:148] Top shape: 24 832 7 7 (978432)
I0403 16:24:45.018582 18040 net.cpp:156] Memory required for data: 1339843104
I0403 16:24:45.018596 18040 layer_factory.hpp:77] Creating layer inception_5b/pool_proj
I0403 16:24:45.018616 18040 net.cpp:91] Creating Layer inception_5b/pool_proj
I0403 16:24:45.018633 18040 net.cpp:425] inception_5b/pool_proj <- inception_5b/pool
I0403 16:24:45.018652 18040 net.cpp:399] inception_5b/pool_proj -> inception_5b/pool_proj
I0403 16:24:45.020859 18040 net.cpp:141] Setting up inception_5b/pool_proj
I0403 16:24:45.020889 18040 net.cpp:148] Top shape: 24 128 7 7 (150528)
I0403 16:24:45.020905 18040 net.cpp:156] Memory required for data: 1340445216
I0403 16:24:45.020922 18040 layer_factory.hpp:77] Creating layer inception_5b/relu_pool_proj
I0403 16:24:45.020939 18040 net.cpp:91] Creating Layer inception_5b/relu_pool_proj
I0403 16:24:45.020954 18040 net.cpp:425] inception_5b/relu_pool_proj <- inception_5b/pool_proj
I0403 16:24:45.020972 18040 net.cpp:386] inception_5b/relu_pool_proj -> inception_5b/pool_proj (in-place)
I0403 16:24:45.021256 18040 net.cpp:141] Setting up inception_5b/relu_pool_proj
I0403 16:24:45.021283 18040 net.cpp:148] Top shape: 24 128 7 7 (150528)
I0403 16:24:45.021299 18040 net.cpp:156] Memory required for data: 1341047328
I0403 16:24:45.021313 18040 layer_factory.hpp:77] Creating layer inception_5b/output
I0403 16:24:45.021329 18040 net.cpp:91] Creating Layer inception_5b/output
I0403 16:24:45.021358 18040 net.cpp:425] inception_5b/output <- inception_5b/1x1
I0403 16:24:45.021373 18040 net.cpp:425] inception_5b/output <- inception_5b/3x3
I0403 16:24:45.021389 18040 net.cpp:425] inception_5b/output <- inception_5b/5x5
I0403 16:24:45.021404 18040 net.cpp:425] inception_5b/output <- inception_5b/pool_proj
I0403 16:24:45.021422 18040 net.cpp:399] inception_5b/output -> inception_5b/output
I0403 16:24:45.021471 18040 net.cpp:141] Setting up inception_5b/output
I0403 16:24:45.021493 18040 net.cpp:148] Top shape: 24 1024 7 7 (1204224)
I0403 16:24:45.021507 18040 net.cpp:156] Memory required for data: 1345864224
I0403 16:24:45.021520 18040 layer_factory.hpp:77] Creating layer pool5/7x7_s1
I0403 16:24:45.021543 18040 net.cpp:91] Creating Layer pool5/7x7_s1
I0403 16:24:45.021559 18040 net.cpp:425] pool5/7x7_s1 <- inception_5b/output
I0403 16:24:45.021579 18040 net.cpp:399] pool5/7x7_s1 -> pool5/7x7_s1
I0403 16:24:45.021785 18040 net.cpp:141] Setting up pool5/7x7_s1
I0403 16:24:45.021811 18040 net.cpp:148] Top shape: 24 1024 1 1 (24576)
I0403 16:24:45.021824 18040 net.cpp:156] Memory required for data: 1345962528
I0403 16:24:45.021838 18040 layer_factory.hpp:77] Creating layer pool5/drop_7x7_s1
I0403 16:24:45.021855 18040 net.cpp:91] Creating Layer pool5/drop_7x7_s1
I0403 16:24:45.021869 18040 net.cpp:425] pool5/drop_7x7_s1 <- pool5/7x7_s1
I0403 16:24:45.021888 18040 net.cpp:386] pool5/drop_7x7_s1 -> pool5/7x7_s1 (in-place)
I0403 16:24:45.021934 18040 net.cpp:141] Setting up pool5/drop_7x7_s1
I0403 16:24:45.021956 18040 net.cpp:148] Top shape: 24 1024 1 1 (24576)
I0403 16:24:45.021970 18040 net.cpp:156] Memory required for data: 1346060832
I0403 16:24:45.021983 18040 layer_factory.hpp:77] Creating layer loss3/classifier_plantvillage
I0403 16:24:45.022002 18040 net.cpp:91] Creating Layer loss3/classifier_plantvillage
I0403 16:24:45.022018 18040 net.cpp:425] loss3/classifier_plantvillage <- pool5/7x7_s1
I0403 16:24:45.022037 18040 net.cpp:399] loss3/classifier_plantvillage -> loss3/classifier_plantvillage
I0403 16:24:45.022440 18040 net.cpp:141] Setting up loss3/classifier_plantvillage
I0403 16:24:45.022462 18040 net.cpp:148] Top shape: 24 38 (912)
I0403 16:24:45.022476 18040 net.cpp:156] Memory required for data: 1346064480
I0403 16:24:45.022492 18040 layer_factory.hpp:77] Creating layer loss3/classifier_plantvillage_loss3/classifier_plantvillage_0_split
I0403 16:24:45.022511 18040 net.cpp:91] Creating Layer loss3/classifier_plantvillage_loss3/classifier_plantvillage_0_split
I0403 16:24:45.022526 18040 net.cpp:425] loss3/classifier_plantvillage_loss3/classifier_plantvillage_0_split <- loss3/classifier_plantvillage
I0403 16:24:45.022542 18040 net.cpp:399] loss3/classifier_plantvillage_loss3/classifier_plantvillage_0_split -> loss3/classifier_plantvillage_loss3/classifier_plantvillage_0_split_0
I0403 16:24:45.022562 18040 net.cpp:399] loss3/classifier_plantvillage_loss3/classifier_plantvillage_0_split -> loss3/classifier_plantvillage_loss3/classifier_plantvillage_0_split_1
I0403 16:24:45.022585 18040 net.cpp:399] loss3/classifier_plantvillage_loss3/classifier_plantvillage_0_split -> loss3/classifier_plantvillage_loss3/classifier_plantvillage_0_split_2
I0403 16:24:45.022604 18040 net.cpp:399] loss3/classifier_plantvillage_loss3/classifier_plantvillage_0_split -> loss3/classifier_plantvillage_loss3/classifier_plantvillage_0_split_3
I0403 16:24:45.022698 18040 net.cpp:141] Setting up loss3/classifier_plantvillage_loss3/classifier_plantvillage_0_split
I0403 16:24:45.022721 18040 net.cpp:148] Top shape: 24 38 (912)
I0403 16:24:45.022735 18040 net.cpp:148] Top shape: 24 38 (912)
I0403 16:24:45.022749 18040 net.cpp:148] Top shape: 24 38 (912)
I0403 16:24:45.022763 18040 net.cpp:148] Top shape: 24 38 (912)
I0403 16:24:45.022776 18040 net.cpp:156] Memory required for data: 1346079072
I0403 16:24:45.022789 18040 layer_factory.hpp:77] Creating layer loss1/loss
I0403 16:24:45.022810 18040 net.cpp:91] Creating Layer loss1/loss
I0403 16:24:45.022826 18040 net.cpp:425] loss1/loss <- loss1/classifier_plantvillage_loss1/classifier_plantvillage_0_split_0
I0403 16:24:45.022855 18040 net.cpp:425] loss1/loss <- label_data_1_split_0
…
