…
I0403 16:05:32.557576 16986 net.cpp:313] The NetState phase (1) differed from the phase (0) specified by a rule in layer data
I0403 16:05:32.559038 16986 net.cpp:49] Initializing net from parameters: 
state {
  phase: TEST
}
layer {
  name: "data"
  type: "Data"
  top: "data"
  top: "label"
  include {
    phase: TEST
  }
  transform_param {
    mirror: false
    crop_size: 224
    mean_file: "/home/mohanty/data/final_dataset/lmdb/segmented-20-80/mean.binaryproto"
  }
  data_param {
    source: "/home/mohanty/data/final_dataset/lmdb/segmented-20-80/test_db"
    batch_size: 24
    backend: LMDB
  }
}
layer {
  name: "conv1/7x7_s2"
  type: "Convolution"
  bottom: "data"
  top: "conv1/7x7_s2"
  param {
    lr_mult: 1
    decay_mult: 1
  }
  param {
    lr_mult: 2
    decay_mult: 0
  }
  convolution_param {
    num_output: 64
    pad: 3
    kernel_size: 7
    stride: 2
    weight_filler {
      type: "xavier"
      std: 0.1
    }
    bias_filler {
      type: "constant"
      value: 0.2
    }
  }
}
layer {
  name: "conv1/relu_7x7"
  type: "ReLU"
  bottom: "conv1/7x7_s2"
  top: "conv1/7x7_s2"
}
layer {
  name: "pool1/3x3_s2"
  type: "Pooling"
  bottom: "conv1/7x7_s2"
  top: "pool1/3x3_s2"
  pooling_param {
    pool: MAX
    kernel_size: 3
    stride: 2
  }
}
layer {
  name: "pool1/norm1"
  type: "LRN"
  bottom: "pool1/3x3_s2"
  top: "pool1/norm1"
  lrn_param {
    local_size: 5
    alpha: 0.0001
    beta: 0.75
  }
}
layer {
  name: "conv2/3x3_reduce"
  type: "Convolution"
  bottom: "pool1/norm1"
  top: "conv2/3x3_reduce"
  param {
    lr_mult: 1
    decay_mult: 1
  }
  param {
    lr_mult: 2
    decay_mult: 0
  }
  convolution_param {
    num_output: 64
    kernel_size: 1
    weight_filler {
      type: "xavier"
      std: 0.1
    }
    bias_filler {
      type: "constant"
      value: 0.2
    }
  }
}
layer {
  name: "conv2/relu_3x3_reduce"
  type: "ReLU"
  bottom: "conv2/3x3_reduce"
  top: "conv2/3x3_reduce"
}
layer {
  name: "conv2/3x3"
  type: "Convolution"
  bottom: "conv2/3x3_reduce"
  top: "conv2/3x3"
  param {
    lr_mult: 1
    decay_mult: 1
  }
  param {
    lr_mult: 2
    decay_mult: 0
  }
  convolution_param {
    num_output: 192
    pad: 1
    kernel_size: 3
    weight_filler {
      type: "xavier"
      std: 0.03
    }
    bias_filler {
      type: "constant"
      value: 0.2
    }
  }
}
layer {
  name: "conv2/relu_3x3"
  type: "ReLU"
  bottom: "conv2/3x3"
  top: "conv2/3x3"
}
layer {
  name: "conv2/norm2"
  type: "LRN"
  bottom: "conv2/3x3"
  top: "conv2/norm2"
  lrn_param {
    local_size: 5
    alpha: 0.0001
    beta: 0.75
  }
}
layer {
  name: "pool2/3x3_s2"
  type: "Pooling"
  bottom: "conv2/norm2"
  top: "pool2/3x3_s2"
  pooling_param {
    pool: MAX
    kernel_size: 3
    stride: 2
  }
}
layer {
  name: "inception_3a/1x1"
  type: "Convolution"
  bottom: "pool2/3x3_s2"
  top: "inception_3a/1x1"
  param {
    lr_mult: 1
    decay_mult: 1
  }
  param {
    lr_mult: 2
    decay_mult: 0
  }
  convolution_param {
    num_output: 64
    kernel_size: 1
    weight_filler {
      type: "xavier"
      std: 0.03
    }
    bias_filler {
      type: "constant"
      value: 0.2
    }
  }
}
layer {
  name: "inception_3a/relu_1x1"
  type: "ReLU"
  bottom: "inception_3a/1x1"
  top: "inception_3a/1x1"
}
layer {
  name: "inception_3a/3x3_reduce"
  type: "Convolution"
  bottom: "pool2/3x3_s2"
  top: "inception_3a/3x3_reduce"
  param {
    lr_mult: 1
    decay_mult: 1
  }
  param {
    lr_mult: 2
    decay_mult: 0
  }
  convolution_param {
    num_output: 96
    kernel_size: 1
    weight_filler {
      type: "xavier"
      std: 0.09
    }
    bias_filler {
      type: "constant"
      value: 0.2
    }
  }
}
layer {
  name: "inception_3a/relu_3x3_reduce"
  type: "ReLU"
  bottom: "inception_3a/3x3_reduce"
  top: "inception_3a/3x3_reduce"
}
layer {
  name: "inception_3a/3x3"
  type: "Convolution"
  bottom: "inception_3a/3x3_reduce"
  top: "inception_3a/3x3"
  param {
    lr_mult: 1
    decay_mult: 1
  }
  param {
    lr_mult: 2
    decay_mult: 0
  }
  convolution_param {
    num_output: 128
    pad: 1
    kernel_size: 3
    weight_filler {
      type: "xavier"
      std: 0.03
    }
    bias_filler {
      type: "constant"
      value: 0.2
    }
  }
}
layer {
  name: "inception_3a/relu_3x3"
  type: "ReLU"
  bottom: "inception_3a/3x3"
  top: "inception_3a/3x3"
}
layer {
  name: "inception_3a/5x5_reduce"
  type: "Convolution"
  bottom: "pool2/3x3_s2"
  top: "inception_3a/5x5_reduce"
  param {
    lr_mult: 1
    decay_mult: 1
  }
  param {
    lr_mult: 2
    decay_mult: 0
  }
  convolution_param {
    num_output: 16
    kernel_size: 1
    weight_filler {
      type: "xavier"
      std: 0.2
    }
    bias_filler {
      type: "constant"
      value: 0.2
    }
  }
}
layer {
  name: "inception_3a/relu_5x5_reduce"
  type: "ReLU"
  bottom: "inception_3a/5x5_reduce"
  top: "inception_3a/5x5_reduce"
}
layer {
  name: "inception_3a/5x5"
  type: "Convolution"
  bottom: "inception_3a/5x5_reduce"
  top: "inception_3a/5x5"
  param {
    lr_mult: 1
    decay_mult: 1
  }
  param {
    lr_mult: 2
    decay_mult: 0
  }
  convolution_param {
    num_output: 32
    pad: 2
    kernel_size: 5
    weight_filler {
      type: "xavier"
      std: 0.03
    }
    bias_filler {
      type: "constant"
      value: 0.2
    }
  }
}
layer {
  name: "inception_3a/relu_5x5"
  type: "ReLU"
  bottom: "inception_3a/5x5"
  top: "inception_3a/5x5"
}
layer {
  name: "inception_3a/pool"
  type: "Pooling"
  bottom: "pool2/3x3_s2"
  top: "inception_3a/pool"
  pooling_param {
    pool: MAX
    kernel_size: 3
    stride: 1
    pad: 1
  }
}
layer {
  name: "inception_3a/pool_proj"
  type: "Convolution"
  bottom: "inception_3a/pool"
  top: "inception_3a/pool_proj"
  param {
    lr_mult: 1
    decay_mult: 1
  }
  param {
    lr_mult: 2
    decay_mult: 0
  }
  convolution_param {
    num_output: 32
    kernel_size: 1
    weight_filler {
      type: "xavier"
      std: 0.1
    }
    bias_filler {
      type: "constant"
      value: 0.2
    }
  }
}
layer {
  name: "inception_3a/relu_pool_proj"
  type: "ReLU"
  bottom: "inception_3a/pool_proj"
  top: "inception_3a/pool_proj"
}
layer {
  name: "inception_3a/output"
  type: "Concat"
  bottom: "inception_3a/1x1"
  bottom: "inception_3a/3x3"
  bottom: "inception_3a/5x5"
  bottom: "inception_3a/pool_proj"
  top: "inception_3a/output"
}
layer {
  name: "inception_3b/1x1"
  type: "Convolution"
  bottom: "inception_3a/output"
  top: "inception_3b/1x1"
  param {
    lr_mult: 1
    decay_mult: 1
  }
  param {
    lr_mult: 2
    decay_mult: 0
  }
  convolution_param {
    num_output: 128
    kernel_size: 1
    weight_filler {
      type: "xavier"
      std: 0.03
    }
    bias_filler {
      type: "constant"
      value: 0.2
    }
  }
}
layer {
  name: "inception_3b/relu_1x1"
  type: "ReLU"
  bottom: "inception_3b/1x1"
  top: "inception_3b/1x1"
}
layer {
  name: "inception_3b/3x3_reduce"
  type: "Convolution"
  bottom: "inception_3a/output"
  top: "inception_3b/3x3_reduce"
  param {
    lr_mult: 1
    decay_mult: 1
  }
  param {
    lr_mult: 2
    decay_mult: 0
  }
  convolution_param {
    num_output: 128
    kernel_size: 1
    weight_filler {
      type: "xavier"
      std: 0.09
    }
    bias_filler {
      type: "constant"
      value: 0.2
    }
  }
}
layer {
  name: "inception_3b/relu_3x3_reduce"
  type: "ReLU"
  bottom: "inception_3b/3x3_reduce"
  top: "inception_3b/3x3_reduce"
}
layer {
  name: "inception_3b/3x3"
  type: "Convolution"
  bottom: "inception_3b/3x3_reduce"
  top: "inception_3b/3x3"
  param {
    lr_mult: 1
    decay_mult: 1
  }
  param {
    lr_mult: 2
    decay_mult: 0
  }
  convolution_param {
    num_output: 192
    pad: 1
    kernel_size: 3
    weight_filler {
      type: "xavier"
      std: 0.03
    }
    bias_filler {
      type: "constant"
      value: 0.2
    }
  }
}
layer {
  name: "inception_3b/relu_3x3"
  type: "ReLU"
  bottom: "inception_3b/3x3"
  top: "inception_3b/3x3"
}
layer {
  name: "inception_3b/5x5_reduce"
  type: "Convolution"
  bottom: "inception_3a/output"
  top: "inception_3b/5x5_reduce"
  param {
    lr_mult: 1
    decay_mult: 1
  }
  param {
    lr_mult: 2
    decay_mult: 0
  }
  convolution_param {
    num_output: 32
    kernel_size: 1
    weight_filler {
      type: "xavier"
      std: 0.2
    }
    bias_filler {
      type: "constant"
      value: 0.2
    }
  }
}
layer {
  name: "inception_3b/relu_5x5_reduce"
  type: "ReLU"
  bottom: "inception_3b/5x5_reduce"
  top: "inception_3b/5x5_reduce"
}
layer {
  name: "inception_3b/5x5"
  type: "Convolution"
  bottom: "inception_3b/5x5_reduce"
  top: "inception_3b/5x5"
  param {
    lr_mult: 1
    decay_mult: 1
  }
  param {
    lr_mult: 2
    decay_mult: 0
  }
  convolution_param {
    num_output: 96
    pad: 2
    kernel_size: 5
    weight_filler {
      type: "xavier"
      std: 0.03
    }
    bias_filler {
      type: "constant"
      value: 0.2
    }
  }
}
layer {
  name: "inception_3b/relu_5x5"
  type: "ReLU"
  bottom: "inception_3b/5x5"
  top: "inception_3b/5x5"
}
layer {
  name: "inception_3b/pool"
  type: "Pooling"
  bottom: "inception_3a/output"
  top: "inception_3b/pool"
  pooling_param {
    pool: MAX
    kernel_size: 3
    stride: 1
    pad: 1
  }
}
layer {
  name: "inception_3b/pool_proj"
  type: "Convolution"
  bottom: "inception_3b/pool"
  top: "inception_3b/pool_proj"
  param {
    lr_mult: 1
    decay_mult: 1
  }
  param {
    lr_mult: 2
    decay_mult: 0
  }
  convolution_param {
    num_output: 64
    kernel_size: 1
    weight_filler {
      type: "xavier"
      std: 0.1
    }
    bias_filler {
      type: "constant"
      value: 0.2
    }
  }
}
layer {
  name: "inception_3b/relu_pool_proj"
  type: "ReLU"
  bottom: "inception_3b/pool_proj"
  top: "inception_3b/pool_proj"
}
layer {
  name: "inception_3b/output"
  type: "Concat"
  bottom: "inception_3b/1x1"
  bottom: "inception_3b/3x3"
  bottom: "inception_3b/5x5"
  bottom: "inception_3b/pool_proj"
  top: "inception_3b/output"
}
layer {
  name: "pool3/3x3_s2"
  type: "Pooling"
  bottom: "inception_3b/output"
  top: "pool3/3x3_s2"
  pooling_param {
    pool: MAX
    kernel_size: 3
    stride: 2
  }
}
layer {
  name: "inception_4a/1x1"
  type: "Convolution"
  bottom: "pool3/3x3_s2"
  top: "inception_4a/1x1"
  param {
    lr_mult: 1
    decay_mult: 1
  }
  param {
    lr_mult: 2
    decay_mult: 0
  }
  convolution_param {
    num_output: 192
    kernel_size: 1
    weight_filler {
      type: "xavier"
      std: 0.03
    }
    bias_filler {
      type: "constant"
      value: 0.2
    }
  }
}
layer {
  name: "inception_4a/relu_1x1"
  type: "ReLU"
  bottom: "inception_4a/1x1"
  top: "inception_4a/1x1"
}
layer {
  name: "inception_4a/3x3_reduce"
  type: "Convolution"
  bottom: "pool3/3x3_s2"
  top: "inception_4a/3x3_reduce"
  param {
    lr_mult: 1
    decay_mult: 1
  }
  param {
    lr_mult: 2
    decay_mult: 0
  }
  convolution_param {
    num_output: 96
    kernel_size: 1
    weight_filler {
      type: "xavier"
      std: 0.09
    }
    bias_filler {
      type: "constant"
      value: 0.2
    }
  }
}
layer {
  name: "inception_4a/relu_3x3_reduce"
  type: "ReLU"
  bottom: "inception_4a/3x3_reduce"
  top: "inception_4a/3x3_reduce"
}
layer {
  name: "inception_4a/3x3"
  type: "Convolution"
  bottom: "inception_4a/3x3_reduce"
  top: "inception_4a/3x3"
  param {
    lr_mult: 1
    decay_mult: 1
  }
  param {
    lr_mult: 2
    decay_mult: 0
  }
  convolution_param {
    num_output: 208
    pad: 1
    kernel_size: 3
    weight_filler {
      type: "xavier"
      std: 0.03
    }
    bias_filler {
      type: "constant"
      value: 0.2
    }
  }
}
layer {
  name: "inception_4a/relu_3x3"
  type: "ReLU"
  bottom: "inception_4a/3x3"
  top: "inception_4a/3x3"
}
layer {
  name: "inception_4a/5x5_reduce"
  type: "Convolution"
  bottom: "pool3/3x3_s2"
  top: "inception_4a/5x5_reduce"
  param {
    lr_mult: 1
    decay_mult: 1
  }
  param {
    lr_mult: 2
    decay_mult: 0
  }
  convolution_param {
    num_output: 16
    kernel_size: 1
    weight_filler {
      type: "xavier"
      std: 0.2
    }
    bias_filler {
      type: "constant"
      value: 0.2
    }
  }
}
layer {
  name: "inception_4a/relu_5x5_reduce"
  type: "ReLU"
  bottom: "inception_4a/5x5_reduce"
  top: "inception_4a/5x5_reduce"
}
layer {
  name: "inception_4a/5x5"
  type: "Convolution"
  bottom: "inception_4a/5x5_reduce"
  top: "inception_4a/5x5"
  param {
    lr_mult: 1
    decay_mult: 1
  }
  param {
    lr_mult: 2
    decay_mult: 0
  }
  convolution_param {
    num_output: 48
    pad: 2
    kernel_size: 5
    weight_filler {
      type: "xavier"
      std: 0.03
    }
    bias_filler {
      type: "constant"
      value: 0.2
    }
  }
}
layer {
  name: "inception_4a/relu_5x5"
  type: "ReLU"
  bottom: "inception_4a/5x5"
  top: "inception_4a/5x5"
}
layer {
  name: "inception_4a/pool"
  type: "Pooling"
  bottom: "pool3/3x3_s2"
  top: "inception_4a/pool"
  pooling_param {
    pool: MAX
    kernel_size: 3
    stride: 1
    pad: 1
  }
}
layer {
  name: "inception_4a/pool_proj"
  type: "Convolution"
  bottom: "inception_4a/pool"
  top: "inception_4a/pool_proj"
  param {
    lr_mult: 1
    decay_mult: 1
  }
  param {
    lr_mult: 2
    decay_mult: 0
  }
  convolution_param {
    num_output: 64
    kernel_size: 1
    weight_filler {
      type: "xavier"
      std: 0.1
    }
    bias_filler {
      type: "constant"
      value: 0.2
    }
  }
}
layer {
  name: "inception_4a/relu_pool_proj"
  type: "ReLU"
  bottom: "inception_4a/pool_proj"
  top: "inception_4a/pool_proj"
}
layer {
  name: "inception_4a/output"
  type: "Concat"
  bottom: "inception_4a/1x1"
  bottom: "inception_4a/3x3"
  bottom: "inception_4a/5x5"
  bottom: "inception_4a/pool_proj"
  top: "inception_4a/output"
}
layer {
  name: "loss1/ave_pool"
  type: "Pooling"
  bottom: "inception_4a/output"
  top: "loss1/ave_pool"
  pooling_param {
    pool: AVE
    kernel_size: 5
    stride: 3
  }
}
layer {
  name: "loss1/conv"
  type: "Convolution"
  bottom: "loss1/ave_pool"
  top: "loss1/conv"
  param {
    lr_mult: 1
    decay_mult: 1
  }
  param {
    lr_mult: 2
    decay_mult: 0
  }
  convolution_param {
    num_output: 128
    kernel_size: 1
    weight_filler {
      type: "xavier"
      std: 0.08
    }
    bias_filler {
      type: "constant"
      value: 0.2
    }
  }
}
layer {
  name: "loss1/relu_conv"
  type: "ReLU"
  bottom: "loss1/conv"
  top: "loss1/conv"
}
layer {
  name: "loss1/fc"
  type: "InnerProduct"
  bottom: "loss1/conv"
  top: "loss1/fc"
  param {
    lr_mult: 1
    decay_mult: 1
  }
  param {
    lr_mult: 2
    decay_mult: 0
  }
  inner_product_param {
    num_output: 1024
    weight_filler {
      type: "xavier"
      std: 0.02
    }
    bias_filler {
      type: "constant"
      value: 0.2
    }
  }
}
layer {
  name: "loss1/relu_fc"
  type: "ReLU"
  bottom: "loss1/fc"
  top: "loss1/fc"
}
layer {
  name: "loss1/drop_fc"
  type: "Dropout"
  bottom: "loss1/fc"
  top: "loss1/fc"
  dropout_param {
    dropout_ratio: 0.7
  }
}
layer {
  name: "loss1/classifier_plantvillage"
  type: "InnerProduct"
  bottom: "loss1/fc"
  top: "loss1/classifier_plantvillage"
  param {
    lr_mult: 1
    decay_mult: 1
  }
  param {
    lr_mult: 2
    decay_mult: 0
  }
  inner_product_param {
    num_output: 38
    weight_filler {
      type: "xavier"
      std: 0.0009765625
    }
    bias_filler {
      type: "constant"
      value: 0
    }
  }
}
layer {
  name: "inception_4b/1x1"
  type: "Convolution"
  bottom: "inception_4a/output"
  top: "inception_4b/1x1"
  param {
    lr_mult: 1
    decay_mult: 1
  }
  param {
    lr_mult: 2
    decay_mult: 0
  }
  convolution_param {
    num_output: 160
    kernel_size: 1
    weight_filler {
      type: "xavier"
      std: 0.03
    }
    bias_filler {
      type: "constant"
      value: 0.2
    }
  }
}
layer {
  name: "inception_4b/relu_1x1"
  type: "ReLU"
  bottom: "inception_4b/1x1"
  top: "inception_4b/1x1"
}
layer {
  name: "inception_4b/3x3_reduce"
  type: "Convolution"
  bottom: "inception_4a/output"
  top: "inception_4b/3x3_reduce"
  param {
    lr_mult: 1
    decay_mult: 1
  }
  param {
    lr_mult: 2
    decay_mult: 0
  }
  convolution_param {
    num_output: 112
    kernel_size: 1
    weight_filler {
      type: "xavier"
      std: 0.09
    }
    bias_filler {
      type: "constant"
      value: 0.2
    }
  }
}
layer {
  name: "inception_4b/relu_3x3_reduce"
  type: "ReLU"
  bottom: "inception_4b/3x3_reduce"
  top: "inception_4b/3x3_reduce"
}
layer {
  name: "inception_4b/3x3"
  type: "Convolution"
  bottom: "inception_4b/3x3_reduce"
  top: "inception_4b/3x3"
  param {
    lr_mult: 1
    decay_mult: 1
  }
  param {
    lr_mult: 2
    decay_mult: 0
  }
  convolution_param {
    num_output: 224
    pad: 1
    kernel_size: 3
    weight_filler {
      type: "xavier"
      std: 0.03
    }
    bias_filler {
      type: "constant"
      value: 0.2
    }
  }
}
layer {
  name: "inception_4b/relu_3x3"
  type: "ReLU"
  bottom: "inception_4b/3x3"
  top: "inception_4b/3x3"
}
layer {
  name: "inception_4b/5x5_reduce"
  type: "Convolution"
  bottom: "inception_4a/output"
  top: "inception_4b/5x5_reduce"
  param {
    lr_mult: 1
    decay_mult: 1
  }
  param {
    lr_mult: 2
    decay_mult: 0
  }
  convolution_param {
    num_output: 24
    kernel_size: 1
    weight_filler {
      type: "xavier"
      std: 0.2
    }
    bias_filler {
      type: "constant"
      value: 0.2
    }
  }
}
layer {
  name: "inception_4b/relu_5x5_reduce"
  type: "ReLU"
  bottom: "inception_4b/5x5_reduce"
  top: "inception_4b/5x5_reduce"
}
layer {
  name: "inception_4b/5x5"
  type: "Convolution"
  bottom: "inception_4b/5x5_reduce"
  top: "inception_4b/5x5"
  param {
    lr_mult: 1
    decay_mult: 1
  }
  param {
    lr_mult: 2
    decay_mult: 0
  }
  convolution_param {
    num_output: 64
    pad: 2
    kernel_size: 5
    weight_filler {
      type: "xavier"
      std: 0.03
    }
    bias_filler {
      type: "constant"
      value: 0.2
    }
  }
}
layer {
  name: "inception_4b/relu_5x5"
  type: "ReLU"
  bottom: "inception_4b/5x5"
  top: "inception_4b/5x5"
}
layer {
  name: "inception_4b/pool"
  type: "Pooling"
  bottom: "inception_4a/output"
  top: "inception_4b/pool"
  pooling_param {
    pool: MAX
    kernel_size: 3
    stride: 1
    pad: 1
  }
}
layer {
  name: "inception_4b/pool_proj"
  type: "Convolution"
  bottom: "inception_4b/pool"
  top: "inception_4b/pool_proj"
  param {
    lr_mult: 1
    decay_mult: 1
  }
  param {
    lr_mult: 2
    decay_mult: 0
  }
  convolution_param {
    num_output: 64
    kernel_size: 1
    weight_filler {
      type: "xavier"
      std: 0.1
    }
    bias_filler {
      type: "constant"
      value: 0.2
    }
  }
}
layer {
  name: "inception_4b/relu_pool_proj"
  type: "ReLU"
  bottom: "inception_4b/pool_proj"
  top: "inception_4b/pool_proj"
}
layer {
  name: "inception_4b/output"
  type: "Concat"
  bottom: "inception_4b/1x1"
  bottom: "inception_4b/3x3"
  bottom: "inception_4b/5x5"
  bottom: "inception_4b/pool_proj"
  top: "inception_4b/output"
}
layer {
  name: "inception_4c/1x1"
  type: "Convolution"
  bottom: "inception_4b/output"
  top: "inception_4c/1x1"
  param {
    lr_mult: 1
    decay_mult: 1
  }
  param {
    lr_mult: 2
    decay_mult: 0
  }
  convolution_param {
    num_output: 128
    kernel_size: 1
    weight_filler {
      type: "xavier"
      std: 0.03
    }
    bias_filler {
      type: "constant"
      value: 0.2
    }
  }
}
layer {
  name: "inception_4c/relu_1x1"
  type: "ReLU"
  bottom: "inception_4c/1x1"
  top: "inception_4c/1x1"
}
layer {
  name: "inception_4c/3x3_reduce"
  type: "Convolution"
  bottom: "inception_4b/output"
  top: "inception_4c/3x3_reduce"
  param {
    lr_mult: 1
    decay_mult: 1
  }
  param {
    lr_mult: 2
    decay_mult: 0
  }
  convolution_param {
    num_output: 128
    kernel_size: 1
    weight_filler {
      type: "xavier"
      std: 0.09
    }
    bias_filler {
      type: "constant"
      value: 0.2
    }
  }
}
layer {
  name: "inception_4c/relu_3x3_reduce"
  type: "ReLU"
  bottom: "inception_4c/3x3_reduce"
  top: "inception_4c/3x3_reduce"
}
layer {
  name: "inception_4c/3x3"
  type: "Convolution"
  bottom: "inception_4c/3x3_reduce"
  top: "inception_4c/3x3"
  param {
    lr_mult: 1
    decay_mult: 1
  }
  param {
    lr_mult: 2
    decay_mult: 0
  }
  convolution_param {
    num_output: 256
    pad: 1
    kernel_size: 3
    weight_filler {
      type: "xavier"
      std: 0.03
    }
    bias_filler {
      type: "constant"
      value: 0.2
    }
  }
}
layer {
  name: "inception_4c/relu_3x3"
  type: "ReLU"
  bottom: "inception_4c/3x3"
  top: "inception_4c/3x3"
}
layer {
  name: "inception_4c/5x5_reduce"
  type: "Convolution"
  bottom: "inception_4b/output"
  top: "inception_4c/5x5_reduce"
  param {
    lr_mult: 1
    decay_mult: 1
  }
  param {
    lr_mult: 2
    decay_mult: 0
  }
  convolution_param {
    num_output: 24
    kernel_size: 1
    weight_filler {
      type: "xavier"
      std: 0.2
    }
    bias_filler {
      type: "constant"
      value: 0.2
    }
  }
}
layer {
  name: "inception_4c/relu_5x5_reduce"
  type: "ReLU"
  bottom: "inception_4c/5x5_reduce"
  top: "inception_4c/5x5_reduce"
}
layer {
  name: "inception_4c/5x5"
  type: "Convolution"
  bottom: "inception_4c/5x5_reduce"
  top: "inception_4c/5x5"
  param {
    lr_mult: 1
    decay_mult: 1
  }
  param {
    lr_mult: 2
    decay_mult: 0
  }
  convolution_param {
    num_output: 64
    pad: 2
    kernel_size: 5
    weight_filler {
      type: "xavier"
      std: 0.03
    }
    bias_filler {
      type: "constant"
      value: 0.2
    }
  }
}
layer {
  name: "inception_4c/relu_5x5"
  type: "ReLU"
  bottom: "inception_4c/5x5"
  top: "inception_4c/5x5"
}
layer {
  name: "inception_4c/pool"
  type: "Pooling"
  bottom: "inception_4b/output"
  top: "inception_4c/pool"
  pooling_param {
    pool: MAX
    kernel_size: 3
    stride: 1
    pad: 1
  }
}
layer {
  name: "inception_4c/pool_proj"
  type: "Convolution"
  bottom: "inception_4c/pool"
  top: "inception_4c/pool_proj"
  param {
    lr_mult: 1
    decay_mult: 1
  }
  param {
    lr_mult: 2
    decay_mult: 0
  }
  convolution_param {
    num_output: 64
    kernel_size: 1
    weight_filler {
      type: "xavier"
      std: 0.1
    }
    bias_filler {
      type: "constant"
      value: 0.2
    }
  }
}
layer {
  name: "inception_4c/relu_pool_proj"
  type: "ReLU"
  bottom: "inception_4c/pool_proj"
  top: "inception_4c/pool_proj"
}
layer {
  name: "inception_4c/output"
  type: "Concat"
  bottom: "inception_4c/1x1"
  bottom: "inception_4c/3x3"
  bottom: "inception_4c/5x5"
  bottom: "inception_4c/pool_proj"
  top: "inception_4c/output"
}
layer {
  name: "inception_4d/1x1"
  type: "Convolution"
  bottom: "inception_4c/output"
  top: "inception_4d/1x1"
  param {
    lr_mult: 1
    decay_mult: 1
  }
  param {
    lr_mult: 2
    decay_mult: 0
  }
  convolution_param {
    num_output: 112
    kernel_size: 1
    weight_filler {
      type: "xavier"
      std: 0.03
    }
    bias_filler {
      type: "constant"
      value: 0.2
    }
  }
}
layer {
  name: "inception_4d/relu_1x1"
  type: "ReLU"
  bottom: "inception_4d/1x1"
  top: "inception_4d/1x1"
}
layer {
  name: "inception_4d/3x3_reduce"
  type: "Convolution"
  bottom: "inception_4c/output"
  top: "inception_4d/3x3_reduce"
  param {
    lr_mult: 1
    decay_mult: 1
  }
  param {
    lr_mult: 2
    decay_mult: 0
  }
  convolution_param {
    num_output: 144
    kernel_size: 1
    weight_filler {
      type: "xavier"
      std: 0.09
    }
    bias_filler {
      type: "constant"
      value: 0.2
    }
  }
}
layer {
  name: "inception_4d/relu_3x3_reduce"
  type: "ReLU"
  bottom: "inception_4d/3x3_reduce"
  top: "inception_4d/3x3_reduce"
}
layer {
  name: "inception_4d/3x3"
  type: "Convolution"
  bottom: "inception_4d/3x3_reduce"
  top: "inception_4d/3x3"
  param {
    lr_mult: 1
    decay_mult: 1
  }
  param {
    lr_mult: 2
    decay_mult: 0
  }
  convolution_param {
    num_output: 288
    pad: 1
    kernel_size: 3
    weight_filler {
      type: "xavier"
      std: 0.03
    }
    bias_filler {
      type: "constant"
      value: 0.2
    }
  }
}
layer {
  name: "inception_4d/relu_3x3"
  type: "ReLU"
  bottom: "inception_4d/3x3"
  top: "inception_4d/3x3"
}
layer {
  name: "inception_4d/5x5_reduce"
  type: "Convolution"
  bottom: "inception_4c/output"
  top: "inception_4d/5x5_reduce"
  param {
    lr_mult: 1
    decay_mult: 1
  }
  param {
    lr_mult: 2
    decay_mult: 0
  }
  convolution_param {
    num_output: 32
    kernel_size: 1
    weight_filler {
      type: "xavier"
      std: 0.2
    }
    bias_filler {
      type: "constant"
      value: 0.2
    }
  }
}
layer {
  name: "inception_4d/relu_5x5_reduce"
  type: "ReLU"
  bottom: "inception_4d/5x5_reduce"
  top: "inception_4d/5x5_reduce"
}
layer {
  name: "inception_4d/5x5"
  type: "Convolution"
  bottom: "inception_4d/5x5_reduce"
  top: "inception_4d/5x5"
  param {
    lr_mult: 1
    decay_mult: 1
  }
  param {
    lr_mult: 2
    decay_mult: 0
  }
  convolution_param {
    num_output: 64
    pad: 2
    kernel_size: 5
    weight_filler {
      type: "xavier"
      std: 0.03
    }
    bias_filler {
      type: "constant"
      value: 0.2
    }
  }
}
layer {
  name: "inception_4d/relu_5x5"
  type: "ReLU"
  bottom: "inception_4d/5x5"
  top: "inception_4d/5x5"
}
layer {
  name: "inception_4d/pool"
  type: "Pooling"
  bottom: "inception_4c/output"
  top: "inception_4d/pool"
  pooling_param {
    pool: MAX
    kernel_size: 3
    stride: 1
    pad: 1
  }
}
layer {
  name: "inception_4d/pool_proj"
  type: "Convolution"
  bottom: "inception_4d/pool"
  top: "inception_4d/pool_proj"
  param {
    lr_mult: 1
    decay_mult: 1
  }
  param {
    lr_mult: 2
    decay_mult: 0
  }
  convolution_param {
    num_output: 64
    kernel_size: 1
    weight_filler {
      type: "xavier"
      std: 0.1
    }
    bias_filler {
      type: "constant"
      value: 0.2
    }
  }
}
layer {
  name: "inception_4d/relu_pool_proj"
  type: "ReLU"
  bottom: "inception_4d/pool_proj"
  top: "inception_4d/pool_proj"
}
layer {
  name: "inception_4d/output"
  type: "Concat"
  bottom: "inception_4d/1x1"
  bottom: "inception_4d/3x3"
  bottom: "inception_4d/5x5"
  bottom: "inception_4d/pool_proj"
  top: "inception_4d/output"
}
layer {
  name: "loss2/ave_pool"
  type: "Pooling"
  bottom: "inception_4d/output"
  top: "loss2/ave_pool"
  pooling_param {
    pool: AVE
    kernel_size: 5
    stride: 3
  }
}
layer {
  name: "loss2/conv"
  type: "Convolution"
  bottom: "loss2/ave_pool"
  top: "loss2/conv"
  param {
    lr_mult: 1
    decay_mult: 1
  }
  param {
    lr_mult: 2
    decay_mult: 0
  }
  convolution_param {
    num_output: 128
    kernel_size: 1
    weight_filler {
      type: "xavier"
      std: 0.08
    }
    bias_filler {
      type: "constant"
      value: 0.2
    }
  }
}
layer {
  name: "loss2/relu_conv"
  type: "ReLU"
  bottom: "loss2/conv"
  top: "loss2/conv"
}
layer {
  name: "loss2/fc"
  type: "InnerProduct"
  bottom: "loss2/conv"
  top: "loss2/fc"
  param {
    lr_mult: 1
    decay_mult: 1
  }
  param {
    lr_mult: 2
    decay_mult: 0
  }
  inner_product_param {
    num_output: 1024
    weight_filler {
      type: "xavier"
      std: 0.02
    }
    bias_filler {
      type: "constant"
      value: 0.2
    }
  }
}
layer {
  name: "loss2/relu_fc"
  type: "ReLU"
  bottom: "loss2/fc"
  top: "loss2/fc"
}
layer {
  name: "loss2/drop_fc"
  type: "Dropout"
  bottom: "loss2/fc"
  top: "loss2/fc"
  dropout_param {
    dropout_ratio: 0.7
  }
}
layer {
  name: "loss2/classifier_plantvillage"
  type: "InnerProduct"
  bottom: "loss2/fc"
  top: "loss2/classifier_plantvillage"
  param {
    lr_mult: 1
    decay_mult: 1
  }
  param {
    lr_mult: 2
    decay_mult: 0
  }
  inner_product_param {
    num_output: 38
    weight_filler {
      type: "xavier"
      std: 0.0009765625
    }
    bias_filler {
      type: "constant"
      value: 0
    }
  }
}
layer {
  name: "inception_4e/1x1"
  type: "Convolution"
  bottom: "inception_4d/output"
  top: "inception_4e/1x1"
  param {
    lr_mult: 1
    decay_mult: 1
  }
  param {
    lr_mult: 2
    decay_mult: 0
  }
  convolution_param {
    num_output: 256
    kernel_size: 1
    weight_filler {
      type: "xavier"
      std: 0.03
    }
    bias_filler {
      type: "constant"
      value: 0.2
    }
  }
}
layer {
  name: "inception_4e/relu_1x1"
  type: "ReLU"
  bottom: "inception_4e/1x1"
  top: "inception_4e/1x1"
}
layer {
  name: "inception_4e/3x3_reduce"
  type: "Convolution"
  bottom: "inception_4d/output"
  top: "inception_4e/3x3_reduce"
  param {
    lr_mult: 1
    decay_mult: 1
  }
  param {
    lr_mult: 2
    decay_mult: 0
  }
  convolution_param {
    num_output: 160
    kernel_size: 1
    weight_filler {
      type: "xavier"
      std: 0.09
    }
    bias_filler {
      type: "constant"
      value: 0.2
    }
  }
}
layer {
  name: "inception_4e/relu_3x3_reduce"
  type: "ReLU"
  bottom: "inception_4e/3x3_reduce"
  top: "inception_4e/3x3_reduce"
}
layer {
  name: "inception_4e/3x3"
  type: "Convolution"
  bottom: "inception_4e/3x3_reduce"
  top: "inception_4e/3x3"
  param {
    lr_mult: 1
    decay_mult: 1
  }
  param {
    lr_mult: 2
    decay_mult: 0
  }
  convolution_param {
    num_output: 320
    pad: 1
    kernel_size: 3
    weight_filler {
      type: "xavier"
      std: 0.03
    }
    bias_filler {
      type: "constant"
      value: 0.2
    }
  }
}
layer {
  name: "inception_4e/relu_3x3"
  type: "ReLU"
  bottom: "inception_4e/3x3"
  top: "inception_4e/3x3"
}
layer {
  name: "inception_4e/5x5_reduce"
  type: "Convolution"
  bottom: "inception_4d/output"
  top: "inception_4e/5x5_reduce"
  param {
    lr_mult: 1
    decay_mult: 1
  }
  param {
    lr_mult: 2
    decay_mult: 0
  }
  convolution_param {
    num_output: 32
    kernel_size: 1
    weight_filler {
      type: "xavier"
      std: 0.2
    }
    bias_filler {
      type: "constant"
      value: 0.2
    }
  }
}
layer {
  name: "inception_4e/relu_5x5_reduce"
  type: "ReLU"
  bottom: "inception_4e/5x5_reduce"
  top: "inception_4e/5x5_reduce"
}
layer {
  name: "inception_4e/5x5"
  type: "Convolution"
  bottom: "inception_4e/5x5_reduce"
  top: "inception_4e/
I0403 16:05:32.560719 16986 layer_factory.hpp:77] Creating layer data
I0403 16:05:32.561432 16986 net.cpp:91] Creating Layer data
I0403 16:05:32.561470 16986 net.cpp:399] data -> data
I0403 16:05:32.561532 16986 net.cpp:399] data -> label
I0403 16:05:32.561581 16986 data_transformer.cpp:25] Loading mean file from: /home/mohanty/data/final_dataset/lmdb/segmented-20-80/mean.binaryproto
I0403 16:05:32.562954 16989 db_lmdb.cpp:38] Opened lmdb /home/mohanty/data/final_dataset/lmdb/segmented-20-80/test_db
I0403 16:05:32.577158 16986 data_layer.cpp:41] output data size: 24,3,224,224
I0403 16:05:32.609359 16986 net.cpp:141] Setting up data
I0403 16:05:32.609453 16986 net.cpp:148] Top shape: 24 3 224 224 (3612672)
I0403 16:05:32.609479 16986 net.cpp:148] Top shape: 24 (24)
I0403 16:05:32.609498 16986 net.cpp:156] Memory required for data: 14450784
I0403 16:05:32.609531 16986 layer_factory.hpp:77] Creating layer label_data_1_split
I0403 16:05:32.609563 16986 net.cpp:91] Creating Layer label_data_1_split
I0403 16:05:32.609591 16986 net.cpp:425] label_data_1_split <- label
I0403 16:05:32.609629 16986 net.cpp:399] label_data_1_split -> label_data_1_split_0
I0403 16:05:32.609664 16986 net.cpp:399] label_data_1_split -> label_data_1_split_1
I0403 16:05:32.609689 16986 net.cpp:399] label_data_1_split -> label_data_1_split_2
I0403 16:05:32.609715 16986 net.cpp:399] label_data_1_split -> label_data_1_split_3
I0403 16:05:32.609740 16986 net.cpp:399] label_data_1_split -> label_data_1_split_4
I0403 16:05:32.609763 16986 net.cpp:399] label_data_1_split -> label_data_1_split_5
I0403 16:05:32.609786 16986 net.cpp:399] label_data_1_split -> label_data_1_split_6
I0403 16:05:32.609812 16986 net.cpp:399] label_data_1_split -> label_data_1_split_7
I0403 16:05:32.609836 16986 net.cpp:399] label_data_1_split -> label_data_1_split_8
I0403 16:05:32.609860 16986 net.cpp:399] label_data_1_split -> label_data_1_split_9
I0403 16:05:32.610008 16986 net.cpp:141] Setting up label_data_1_split
I0403 16:05:32.610038 16986 net.cpp:148] Top shape: 24 (24)
I0403 16:05:32.610059 16986 net.cpp:148] Top shape: 24 (24)
I0403 16:05:32.610079 16986 net.cpp:148] Top shape: 24 (24)
I0403 16:05:32.610096 16986 net.cpp:148] Top shape: 24 (24)
I0403 16:05:32.610116 16986 net.cpp:148] Top shape: 24 (24)
I0403 16:05:32.610136 16986 net.cpp:148] Top shape: 24 (24)
I0403 16:05:32.610157 16986 net.cpp:148] Top shape: 24 (24)
I0403 16:05:32.610175 16986 net.cpp:148] Top shape: 24 (24)
I0403 16:05:32.610193 16986 net.cpp:148] Top shape: 24 (24)
I0403 16:05:32.610218 16986 net.cpp:148] Top shape: 24 (24)
I0403 16:05:32.610291 16986 net.cpp:156] Memory required for data: 14451744
I0403 16:05:32.610311 16986 layer_factory.hpp:77] Creating layer conv1/7x7_s2
I0403 16:05:32.610347 16986 net.cpp:91] Creating Layer conv1/7x7_s2
I0403 16:05:32.610368 16986 net.cpp:425] conv1/7x7_s2 <- data
I0403 16:05:32.610393 16986 net.cpp:399] conv1/7x7_s2 -> conv1/7x7_s2
I0403 16:05:32.776904 16986 net.cpp:141] Setting up conv1/7x7_s2
I0403 16:05:32.776993 16986 net.cpp:148] Top shape: 24 64 112 112 (19267584)
I0403 16:05:32.777014 16986 net.cpp:156] Memory required for data: 91522080
I0403 16:05:32.777048 16986 layer_factory.hpp:77] Creating layer conv1/relu_7x7
I0403 16:05:32.777079 16986 net.cpp:91] Creating Layer conv1/relu_7x7
I0403 16:05:32.777101 16986 net.cpp:425] conv1/relu_7x7 <- conv1/7x7_s2
I0403 16:05:32.777122 16986 net.cpp:386] conv1/relu_7x7 -> conv1/7x7_s2 (in-place)
I0403 16:05:32.777428 16986 net.cpp:141] Setting up conv1/relu_7x7
I0403 16:05:32.777461 16986 net.cpp:148] Top shape: 24 64 112 112 (19267584)
I0403 16:05:32.777479 16986 net.cpp:156] Memory required for data: 168592416
I0403 16:05:32.777497 16986 layer_factory.hpp:77] Creating layer pool1/3x3_s2
I0403 16:05:32.777525 16986 net.cpp:91] Creating Layer pool1/3x3_s2
I0403 16:05:32.777546 16986 net.cpp:425] pool1/3x3_s2 <- conv1/7x7_s2
I0403 16:05:32.777575 16986 net.cpp:399] pool1/3x3_s2 -> pool1/3x3_s2
I0403 16:05:32.777665 16986 net.cpp:141] Setting up pool1/3x3_s2
I0403 16:05:32.777693 16986 net.cpp:148] Top shape: 24 64 56 56 (4816896)
I0403 16:05:32.777712 16986 net.cpp:156] Memory required for data: 187860000
I0403 16:05:32.777729 16986 layer_factory.hpp:77] Creating layer pool1/norm1
I0403 16:05:32.777758 16986 net.cpp:91] Creating Layer pool1/norm1
I0403 16:05:32.777779 16986 net.cpp:425] pool1/norm1 <- pool1/3x3_s2
I0403 16:05:32.777801 16986 net.cpp:399] pool1/norm1 -> pool1/norm1
I0403 16:05:32.778146 16986 net.cpp:141] Setting up pool1/norm1
I0403 16:05:32.778178 16986 net.cpp:148] Top shape: 24 64 56 56 (4816896)
I0403 16:05:32.778198 16986 net.cpp:156] Memory required for data: 207127584
I0403 16:05:32.778215 16986 layer_factory.hpp:77] Creating layer conv2/3x3_reduce
I0403 16:05:32.778244 16986 net.cpp:91] Creating Layer conv2/3x3_reduce
I0403 16:05:32.778266 16986 net.cpp:425] conv2/3x3_reduce <- pool1/norm1
I0403 16:05:32.778288 16986 net.cpp:399] conv2/3x3_reduce -> conv2/3x3_reduce
I0403 16:05:32.779969 16986 net.cpp:141] Setting up conv2/3x3_reduce
I0403 16:05:32.780006 16986 net.cpp:148] Top shape: 24 64 56 56 (4816896)
I0403 16:05:32.780026 16986 net.cpp:156] Memory required for data: 226395168
I0403 16:05:32.780052 16986 layer_factory.hpp:77] Creating layer conv2/relu_3x3_reduce
I0403 16:05:32.780076 16986 net.cpp:91] Creating Layer conv2/relu_3x3_reduce
I0403 16:05:32.780094 16986 net.cpp:425] conv2/relu_3x3_reduce <- conv2/3x3_reduce
I0403 16:05:32.780122 16986 net.cpp:386] conv2/relu_3x3_reduce -> conv2/3x3_reduce (in-place)
I0403 16:05:32.780452 16986 net.cpp:141] Setting up conv2/relu_3x3_reduce
I0403 16:05:32.780483 16986 net.cpp:148] Top shape: 24 64 56 56 (4816896)
I0403 16:05:32.780501 16986 net.cpp:156] Memory required for data: 245662752
I0403 16:05:32.780519 16986 layer_factory.hpp:77] Creating layer conv2/3x3
I0403 16:05:32.780549 16986 net.cpp:91] Creating Layer conv2/3x3
I0403 16:05:32.780575 16986 net.cpp:425] conv2/3x3 <- conv2/3x3_reduce
I0403 16:05:32.780611 16986 net.cpp:399] conv2/3x3 -> conv2/3x3
I0403 16:05:32.783385 16986 net.cpp:141] Setting up conv2/3x3
I0403 16:05:32.783421 16986 net.cpp:148] Top shape: 24 192 56 56 (14450688)
I0403 16:05:32.783442 16986 net.cpp:156] Memory required for data: 303465504
I0403 16:05:32.783468 16986 layer_factory.hpp:77] Creating layer conv2/relu_3x3
I0403 16:05:32.783491 16986 net.cpp:91] Creating Layer conv2/relu_3x3
I0403 16:05:32.783510 16986 net.cpp:425] conv2/relu_3x3 <- conv2/3x3
I0403 16:05:32.783534 16986 net.cpp:386] conv2/relu_3x3 -> conv2/3x3 (in-place)
I0403 16:05:32.783754 16986 net.cpp:141] Setting up conv2/relu_3x3
I0403 16:05:32.783785 16986 net.cpp:148] Top shape: 24 192 56 56 (14450688)
I0403 16:05:32.783854 16986 net.cpp:156] Memory required for data: 361268256
I0403 16:05:32.783879 16986 layer_factory.hpp:77] Creating layer conv2/norm2
I0403 16:05:32.783901 16986 net.cpp:91] Creating Layer conv2/norm2
I0403 16:05:32.783921 16986 net.cpp:425] conv2/norm2 <- conv2/3x3
I0403 16:05:32.783943 16986 net.cpp:399] conv2/norm2 -> conv2/norm2
I0403 16:05:32.784309 16986 net.cpp:141] Setting up conv2/norm2
I0403 16:05:32.784343 16986 net.cpp:148] Top shape: 24 192 56 56 (14450688)
I0403 16:05:32.784363 16986 net.cpp:156] Memory required for data: 419071008
I0403 16:05:32.784381 16986 layer_factory.hpp:77] Creating layer pool2/3x3_s2
I0403 16:05:32.784404 16986 net.cpp:91] Creating Layer pool2/3x3_s2
I0403 16:05:32.784421 16986 net.cpp:425] pool2/3x3_s2 <- conv2/norm2
I0403 16:05:32.784446 16986 net.cpp:399] pool2/3x3_s2 -> pool2/3x3_s2
I0403 16:05:32.784512 16986 net.cpp:141] Setting up pool2/3x3_s2
I0403 16:05:32.784539 16986 net.cpp:148] Top shape: 24 192 28 28 (3612672)
I0403 16:05:32.784559 16986 net.cpp:156] Memory required for data: 433521696
I0403 16:05:32.784590 16986 layer_factory.hpp:77] Creating layer pool2/3x3_s2_pool2/3x3_s2_0_split
I0403 16:05:32.784618 16986 net.cpp:91] Creating Layer pool2/3x3_s2_pool2/3x3_s2_0_split
I0403 16:05:32.784637 16986 net.cpp:425] pool2/3x3_s2_pool2/3x3_s2_0_split <- pool2/3x3_s2
I0403 16:05:32.784659 16986 net.cpp:399] pool2/3x3_s2_pool2/3x3_s2_0_split -> pool2/3x3_s2_pool2/3x3_s2_0_split_0
I0403 16:05:32.784682 16986 net.cpp:399] pool2/3x3_s2_pool2/3x3_s2_0_split -> pool2/3x3_s2_pool2/3x3_s2_0_split_1
I0403 16:05:32.784710 16986 net.cpp:399] pool2/3x3_s2_pool2/3x3_s2_0_split -> pool2/3x3_s2_pool2/3x3_s2_0_split_2
I0403 16:05:32.784734 16986 net.cpp:399] pool2/3x3_s2_pool2/3x3_s2_0_split -> pool2/3x3_s2_pool2/3x3_s2_0_split_3
I0403 16:05:32.784821 16986 net.cpp:141] Setting up pool2/3x3_s2_pool2/3x3_s2_0_split
I0403 16:05:32.784849 16986 net.cpp:148] Top shape: 24 192 28 28 (3612672)
I0403 16:05:32.784870 16986 net.cpp:148] Top shape: 24 192 28 28 (3612672)
I0403 16:05:32.784890 16986 net.cpp:148] Top shape: 24 192 28 28 (3612672)
I0403 16:05:32.784909 16986 net.cpp:148] Top shape: 24 192 28 28 (3612672)
I0403 16:05:32.784925 16986 net.cpp:156] Memory required for data: 491324448
I0403 16:05:32.784942 16986 layer_factory.hpp:77] Creating layer inception_3a/1x1
I0403 16:05:32.784968 16986 net.cpp:91] Creating Layer inception_3a/1x1
I0403 16:05:32.784989 16986 net.cpp:425] inception_3a/1x1 <- pool2/3x3_s2_pool2/3x3_s2_0_split_0
I0403 16:05:32.785014 16986 net.cpp:399] inception_3a/1x1 -> inception_3a/1x1
I0403 16:05:32.786880 16986 net.cpp:141] Setting up inception_3a/1x1
I0403 16:05:32.786916 16986 net.cpp:148] Top shape: 24 64 28 28 (1204224)
I0403 16:05:32.786936 16986 net.cpp:156] Memory required for data: 496141344
I0403 16:05:32.786957 16986 layer_factory.hpp:77] Creating layer inception_3a/relu_1x1
I0403 16:05:32.786979 16986 net.cpp:91] Creating Layer inception_3a/relu_1x1
I0403 16:05:32.786998 16986 net.cpp:425] inception_3a/relu_1x1 <- inception_3a/1x1
I0403 16:05:32.787026 16986 net.cpp:386] inception_3a/relu_1x1 -> inception_3a/1x1 (in-place)
I0403 16:05:32.787235 16986 net.cpp:141] Setting up inception_3a/relu_1x1
I0403 16:05:32.787266 16986 net.cpp:148] Top shape: 24 64 28 28 (1204224)
I0403 16:05:32.787284 16986 net.cpp:156] Memory required for data: 500958240
I0403 16:05:32.787302 16986 layer_factory.hpp:77] Creating layer inception_3a/3x3_reduce
I0403 16:05:32.787328 16986 net.cpp:91] Creating Layer inception_3a/3x3_reduce
I0403 16:05:32.787350 16986 net.cpp:425] inception_3a/3x3_reduce <- pool2/3x3_s2_pool2/3x3_s2_0_split_1
I0403 16:05:32.787375 16986 net.cpp:399] inception_3a/3x3_reduce -> inception_3a/3x3_reduce
I0403 16:05:32.789397 16986 net.cpp:141] Setting up inception_3a/3x3_reduce
I0403 16:05:32.789433 16986 net.cpp:148] Top shape: 24 96 28 28 (1806336)
I0403 16:05:32.789453 16986 net.cpp:156] Memory required for data: 508183584
I0403 16:05:32.789477 16986 layer_factory.hpp:77] Creating layer inception_3a/relu_3x3_reduce
I0403 16:05:32.789522 16986 net.cpp:91] Creating Layer inception_3a/relu_3x3_reduce
I0403 16:05:32.789544 16986 net.cpp:425] inception_3a/relu_3x3_reduce <- inception_3a/3x3_reduce
I0403 16:05:32.789572 16986 net.cpp:386] inception_3a/relu_3x3_reduce -> inception_3a/3x3_reduce (in-place)
I0403 16:05:32.789794 16986 net.cpp:141] Setting up inception_3a/relu_3x3_reduce
I0403 16:05:32.789831 16986 net.cpp:148] Top shape: 24 96 28 28 (1806336)
I0403 16:05:32.789850 16986 net.cpp:156] Memory required for data: 515408928
I0403 16:05:32.789867 16986 layer_factory.hpp:77] Creating layer inception_3a/3x3
I0403 16:05:32.789894 16986 net.cpp:91] Creating Layer inception_3a/3x3
I0403 16:05:32.789914 16986 net.cpp:425] inception_3a/3x3 <- inception_3a/3x3_reduce
I0403 16:05:32.789942 16986 net.cpp:399] inception_3a/3x3 -> inception_3a/3x3
I0403 16:05:32.791936 16986 net.cpp:141] Setting up inception_3a/3x3
I0403 16:05:32.791972 16986 net.cpp:148] Top shape: 24 128 28 28 (2408448)
I0403 16:05:32.791992 16986 net.cpp:156] Memory required for data: 525042720
I0403 16:05:32.792016 16986 layer_factory.hpp:77] Creating layer inception_3a/relu_3x3
I0403 16:05:32.792039 16986 net.cpp:91] Creating Layer inception_3a/relu_3x3
I0403 16:05:32.792059 16986 net.cpp:425] inception_3a/relu_3x3 <- inception_3a/3x3
I0403 16:05:32.792080 16986 net.cpp:386] inception_3a/relu_3x3 -> inception_3a/3x3 (in-place)
I0403 16:05:32.792402 16986 net.cpp:141] Setting up inception_3a/relu_3x3
I0403 16:05:32.792435 16986 net.cpp:148] Top shape: 24 128 28 28 (2408448)
I0403 16:05:32.792454 16986 net.cpp:156] Memory required for data: 534676512
I0403 16:05:32.792471 16986 layer_factory.hpp:77] Creating layer inception_3a/5x5_reduce
I0403 16:05:32.792498 16986 net.cpp:91] Creating Layer inception_3a/5x5_reduce
I0403 16:05:32.792518 16986 net.cpp:425] inception_3a/5x5_reduce <- pool2/3x3_s2_pool2/3x3_s2_0_split_2
I0403 16:05:32.792543 16986 net.cpp:399] inception_3a/5x5_reduce -> inception_3a/5x5_reduce
I0403 16:05:32.793707 16986 net.cpp:141] Setting up inception_3a/5x5_reduce
I0403 16:05:32.793742 16986 net.cpp:148] Top shape: 24 16 28 28 (301056)
I0403 16:05:32.793761 16986 net.cpp:156] Memory required for data: 535880736
I0403 16:05:32.793783 16986 layer_factory.hpp:77] Creating layer inception_3a/relu_5x5_reduce
I0403 16:05:32.793808 16986 net.cpp:91] Creating Layer inception_3a/relu_5x5_reduce
I0403 16:05:32.793828 16986 net.cpp:425] inception_3a/relu_5x5_reduce <- inception_3a/5x5_reduce
I0403 16:05:32.793849 16986 net.cpp:386] inception_3a/relu_5x5_reduce -> inception_3a/5x5_reduce (in-place)
I0403 16:05:32.794200 16986 net.cpp:141] Setting up inception_3a/relu_5x5_reduce
I0403 16:05:32.794239 16986 net.cpp:148] Top shape: 24 16 28 28 (301056)
I0403 16:05:32.794260 16986 net.cpp:156] Memory required for data: 537084960
I0403 16:05:32.794280 16986 layer_factory.hpp:77] Creating layer inception_3a/5x5
I0403 16:05:32.794303 16986 net.cpp:91] Creating Layer inception_3a/5x5
I0403 16:05:32.794323 16986 net.cpp:425] inception_3a/5x5 <- inception_3a/5x5_reduce
I0403 16:05:32.794348 16986 net.cpp:399] inception_3a/5x5 -> inception_3a/5x5
I0403 16:05:32.795596 16986 net.cpp:141] Setting up inception_3a/5x5
I0403 16:05:32.795630 16986 net.cpp:148] Top shape: 24 32 28 28 (602112)
I0403 16:05:32.795650 16986 net.cpp:156] Memory required for data: 539493408
I0403 16:05:32.795672 16986 layer_factory.hpp:77] Creating layer inception_3a/relu_5x5
I0403 16:05:32.795696 16986 net.cpp:91] Creating Layer inception_3a/relu_5x5
I0403 16:05:32.795717 16986 net.cpp:425] inception_3a/relu_5x5 <- inception_3a/5x5
I0403 16:05:32.795738 16986 net.cpp:386] inception_3a/relu_5x5 -> inception_3a/5x5 (in-place)
I0403 16:05:32.795948 16986 net.cpp:141] Setting up inception_3a/relu_5x5
I0403 16:05:32.795979 16986 net.cpp:148] Top shape: 24 32 28 28 (602112)
I0403 16:05:32.795997 16986 net.cpp:156] Memory required for data: 541901856
I0403 16:05:32.796016 16986 layer_factory.hpp:77] Creating layer inception_3a/pool
I0403 16:05:32.796041 16986 net.cpp:91] Creating Layer inception_3a/pool
I0403 16:05:32.796077 16986 net.cpp:425] inception_3a/pool <- pool2/3x3_s2_pool2/3x3_s2_0_split_3
I0403 16:05:32.796100 16986 net.cpp:399] inception_3a/pool -> inception_3a/pool
I0403 16:05:32.796171 16986 net.cpp:141] Setting up inception_3a/pool
I0403 16:05:32.796200 16986 net.cpp:148] Top shape: 24 192 28 28 (3612672)
I0403 16:05:32.796218 16986 net.cpp:156] Memory required for data: 556352544
I0403 16:05:32.796236 16986 layer_factory.hpp:77] Creating layer inception_3a/pool_proj
I0403 16:05:32.796262 16986 net.cpp:91] Creating Layer inception_3a/pool_proj
I0403 16:05:32.796283 16986 net.cpp:425] inception_3a/pool_proj <- inception_3a/pool
I0403 16:05:32.796311 16986 net.cpp:399] inception_3a/pool_proj -> inception_3a/pool_proj
I0403 16:05:32.797473 16986 net.cpp:141] Setting up inception_3a/pool_proj
I0403 16:05:32.797510 16986 net.cpp:148] Top shape: 24 32 28 28 (602112)
I0403 16:05:32.797530 16986 net.cpp:156] Memory required for data: 558760992
I0403 16:05:32.797556 16986 layer_factory.hpp:77] Creating layer inception_3a/relu_pool_proj
I0403 16:05:32.797588 16986 net.cpp:91] Creating Layer inception_3a/relu_pool_proj
I0403 16:05:32.797610 16986 net.cpp:425] inception_3a/relu_pool_proj <- inception_3a/pool_proj
I0403 16:05:32.797631 16986 net.cpp:386] inception_3a/relu_pool_proj -> inception_3a/pool_proj (in-place)
I0403 16:05:32.797965 16986 net.cpp:141] Setting up inception_3a/relu_pool_proj
I0403 16:05:32.797997 16986 net.cpp:148] Top shape: 24 32 28 28 (602112)
I0403 16:05:32.798015 16986 net.cpp:156] Memory required for data: 561169440
I0403 16:05:32.798033 16986 layer_factory.hpp:77] Creating layer inception_3a/output
I0403 16:05:32.798055 16986 net.cpp:91] Creating Layer inception_3a/output
I0403 16:05:32.798074 16986 net.cpp:425] inception_3a/output <- inception_3a/1x1
I0403 16:05:32.798095 16986 net.cpp:425] inception_3a/output <- inception_3a/3x3
I0403 16:05:32.798117 16986 net.cpp:425] inception_3a/output <- inception_3a/5x5
I0403 16:05:32.798137 16986 net.cpp:425] inception_3a/output <- inception_3a/pool_proj
I0403 16:05:32.798158 16986 net.cpp:399] inception_3a/output -> inception_3a/output
I0403 16:05:32.798213 16986 net.cpp:141] Setting up inception_3a/output
I0403 16:05:32.798246 16986 net.cpp:148] Top shape: 24 256 28 28 (4816896)
I0403 16:05:32.798266 16986 net.cpp:156] Memory required for data: 580437024
I0403 16:05:32.798285 16986 layer_factory.hpp:77] Creating layer inception_3a/output_inception_3a/output_0_split
I0403 16:05:32.798305 16986 net.cpp:91] Creating Layer inception_3a/output_inception_3a/output_0_split
I0403 16:05:32.798323 16986 net.cpp:425] inception_3a/output_inception_3a/output_0_split <- inception_3a/output
I0403 16:05:32.798346 16986 net.cpp:399] inception_3a/output_inception_3a/output_0_split -> inception_3a/output_inception_3a/output_0_split_0
I0403 16:05:32.798370 16986 net.cpp:399] inception_3a/output_inception_3a/output_0_split -> inception_3a/output_inception_3a/output_0_split_1
I0403 16:05:32.798398 16986 net.cpp:399] inception_3a/output_inception_3a/output_0_split -> inception_3a/output_inception_3a/output_0_split_2
I0403 16:05:32.798424 16986 net.cpp:399] inception_3a/output_inception_3a/output_0_split -> inception_3a/output_inception_3a/output_0_split_3
I0403 16:05:32.798514 16986 net.cpp:141] Setting up inception_3a/output_inception_3a/output_0_split
I0403 16:05:32.798542 16986 net.cpp:148] Top shape: 24 256 28 28 (4816896)
I0403 16:05:32.798563 16986 net.cpp:148] Top shape: 24 256 28 28 (4816896)
I0403 16:05:32.798594 16986 net.cpp:148] Top shape: 24 256 28 28 (4816896)
I0403 16:05:32.798614 16986 net.cpp:148] Top shape: 24 256 28 28 (4816896)
I0403 16:05:32.798630 16986 net.cpp:156] Memory required for data: 657507360
I0403 16:05:32.798647 16986 layer_factory.hpp:77] Creating layer inception_3b/1x1
I0403 16:05:32.798673 16986 net.cpp:91] Creating Layer inception_3b/1x1
I0403 16:05:32.798694 16986 net.cpp:425] inception_3b/1x1 <- inception_3a/output_inception_3a/output_0_split_0
I0403 16:05:32.798719 16986 net.cpp:399] inception_3b/1x1 -> inception_3b/1x1
I0403 16:05:32.800093 16986 net.cpp:141] Setting up inception_3b/1x1
I0403 16:05:32.800143 16986 net.cpp:148] Top shape: 24 128 28 28 (2408448)
I0403 16:05:32.800163 16986 net.cpp:156] Memory required for data: 667141152
I0403 16:05:32.800184 16986 layer_factory.hpp:77] Creating layer inception_3b/relu_1x1
I0403 16:05:32.800205 16986 net.cpp:91] Creating Layer inception_3b/relu_1x1
I0403 16:05:32.800225 16986 net.cpp:425] inception_3b/relu_1x1 <- inception_3b/1x1
I0403 16:05:32.800247 16986 net.cpp:386] inception_3b/relu_1x1 -> inception_3b/1x1 (in-place)
I0403 16:05:32.800460 16986 net.cpp:141] Setting up inception_3b/relu_1x1
I0403 16:05:32.800490 16986 net.cpp:148] Top shape: 24 128 28 28 (2408448)
I0403 16:05:32.800508 16986 net.cpp:156] Memory required for data: 676774944
I0403 16:05:32.800525 16986 layer_factory.hpp:77] Creating layer inception_3b/3x3_reduce
I0403 16:05:32.800552 16986 net.cpp:91] Creating Layer inception_3b/3x3_reduce
I0403 16:05:32.800580 16986 net.cpp:425] inception_3b/3x3_reduce <- inception_3a/output_inception_3a/output_0_split_1
I0403 16:05:32.800607 16986 net.cpp:399] inception_3b/3x3_reduce -> inception_3b/3x3_reduce
I0403 16:05:32.801977 16986 net.cpp:141] Setting up inception_3b/3x3_reduce
I0403 16:05:32.802013 16986 net.cpp:148] Top shape: 24 128 28 28 (2408448)
I0403 16:05:32.802033 16986 net.cpp:156] Memory required for data: 686408736
I0403 16:05:32.802054 16986 layer_factory.hpp:77] Creating layer inception_3b/relu_3x3_reduce
I0403 16:05:32.802078 16986 net.cpp:91] Creating Layer inception_3b/relu_3x3_reduce
I0403 16:05:32.802096 16986 net.cpp:425] inception_3b/relu_3x3_reduce <- inception_3b/3x3_reduce
I0403 16:05:32.802121 16986 net.cpp:386] inception_3b/relu_3x3_reduce -> inception_3b/3x3_reduce (in-place)
I0403 16:05:32.802338 16986 net.cpp:141] Setting up inception_3b/relu_3x3_reduce
I0403 16:05:32.802369 16986 net.cpp:148] Top shape: 24 128 28 28 (2408448)
I0403 16:05:32.802387 16986 net.cpp:156] Memory required for data: 696042528
I0403 16:05:32.802405 16986 layer_factory.hpp:77] Creating layer inception_3b/3x3
I0403 16:05:32.802436 16986 net.cpp:91] Creating Layer inception_3b/3x3
I0403 16:05:32.802459 16986 net.cpp:425] inception_3b/3x3 <- inception_3b/3x3_reduce
I0403 16:05:32.802481 16986 net.cpp:399] inception_3b/3x3 -> inception_3b/3x3
I0403 16:05:32.806023 16986 net.cpp:141] Setting up inception_3b/3x3
I0403 16:05:32.806059 16986 net.cpp:148] Top shape: 24 192 28 28 (3612672)
I0403 16:05:32.806078 16986 net.cpp:156] Memory required for data: 710493216
I0403 16:05:32.806100 16986 layer_factory.hpp:77] Creating layer inception_3b/relu_3x3
I0403 16:05:32.806125 16986 net.cpp:91] Creating Layer inception_3b/relu_3x3
I0403 16:05:32.806146 16986 net.cpp:425] inception_3b/relu_3x3 <- inception_3b/3x3
I0403 16:05:32.806166 16986 net.cpp:386] inception_3b/relu_3x3 -> inception_3b/3x3 (in-place)
I0403 16:05:32.806493 16986 net.cpp:141] Setting up inception_3b/relu_3x3
I0403 16:05:32.806525 16986 net.cpp:148] Top shape: 24 192 28 28 (3612672)
I0403 16:05:32.806543 16986 net.cpp:156] Memory required for data: 724943904
I0403 16:05:32.806561 16986 layer_factory.hpp:77] Creating layer inception_3b/5x5_reduce
I0403 16:05:32.806607 16986 net.cpp:91] Creating Layer inception_3b/5x5_reduce
I0403 16:05:32.806629 16986 net.cpp:425] inception_3b/5x5_reduce <- inception_3a/output_inception_3a/output_0_split_2
I0403 16:05:32.806655 16986 net.cpp:399] inception_3b/5x5_reduce -> inception_3b/5x5_reduce
I0403 16:05:32.807865 16986 net.cpp:141] Setting up inception_3b/5x5_reduce
I0403 16:05:32.807900 16986 net.cpp:148] Top shape: 24 32 28 28 (602112)
I0403 16:05:32.807920 16986 net.cpp:156] Memory required for data: 727352352
I0403 16:05:32.807942 16986 layer_factory.hpp:77] Creating layer inception_3b/relu_5x5_reduce
I0403 16:05:32.807966 16986 net.cpp:91] Creating Layer inception_3b/relu_5x5_reduce
I0403 16:05:32.807986 16986 net.cpp:425] inception_3b/relu_5x5_reduce <- inception_3b/5x5_reduce
I0403 16:05:32.808007 16986 net.cpp:386] inception_3b/relu_5x5_reduce -> inception_3b/5x5_reduce (in-place)
I0403 16:05:32.808248 16986 net.cpp:141] Setting up inception_3b/relu_5x5_reduce
I0403 16:05:32.808280 16986 net.cpp:148] Top shape: 24 32 28 28 (602112)
I0403 16:05:32.808298 16986 net.cpp:156] Memory required for data: 729760800
I0403 16:05:32.808317 16986 layer_factory.hpp:77] Creating layer inception_3b/5x5
I0403 16:05:32.808343 16986 net.cpp:91] Creating Layer inception_3b/5x5
I0403 16:05:32.808367 16986 net.cpp:425] inception_3b/5x5 <- inception_3b/5x5_reduce
I0403 16:05:32.808389 16986 net.cpp:399] inception_3b/5x5 -> inception_3b/5x5
I0403 16:05:32.810788 16986 net.cpp:141] Setting up inception_3b/5x5
I0403 16:05:32.810828 16986 net.cpp:148] Top shape: 24 96 28 28 (1806336)
I0403 16:05:32.810849 16986 net.cpp:156] Memory required for data: 736986144
I0403 16:05:32.810878 16986 layer_factory.hpp:77] Creating layer inception_3b/relu_5x5
I0403 16:05:32.810899 16986 net.cpp:91] Creating Layer inception_3b/relu_5x5
I0403 16:05:32.810920 16986 net.cpp:425] inception_3b/relu_5x5 <- inception_3b/5x5
I0403 16:05:32.810945 16986 net.cpp:386] inception_3b/relu_5x5 -> inception_3b/5x5 (in-place)
I0403 16:05:32.811182 16986 net.cpp:141] Setting up inception_3b/relu_5x5
I0403 16:05:32.811213 16986 net.cpp:148] Top shape: 24 96 28 28 (1806336)
I0403 16:05:32.811231 16986 net.cpp:156] Memory required for data: 744211488
I0403 16:05:32.811249 16986 layer_factory.hpp:77] Creating layer inception_3b/pool
I0403 16:05:32.811271 16986 net.cpp:91] Creating Layer inception_3b/pool
I0403 16:05:32.811290 16986 net.cpp:425] inception_3b/pool <- inception_3a/output_inception_3a/output_0_split_3
I0403 16:05:32.811312 16986 net.cpp:399] inception_3b/pool -> inception_3b/pool
I0403 16:05:32.811380 16986 net.cpp:141] Setting up inception_3b/pool
I0403 16:05:32.811409 16986 net.cpp:148] Top shape: 24 256 28 28 (4816896)
I0403 16:05:32.811427 16986 net.cpp:156] Memory required for data: 763479072
I0403 16:05:32.811445 16986 layer_factory.hpp:77] Creating layer inception_3b/pool_proj
I0403 16:05:32.811475 16986 net.cpp:91] Creating Layer inception_3b/pool_proj
I0403 16:05:32.811494 16986 net.cpp:425] inception_3b/pool_proj <- inception_3b/pool
I0403 16:05:32.811517 16986 net.cpp:399] inception_3b/pool_proj -> inception_3b/pool_proj
I0403 16:05:32.812801 16986 net.cpp:141] Setting up inception_3b/pool_proj
I0403 16:05:32.812834 16986 net.cpp:148] Top shape: 24 64 28 28 (1204224)
I0403 16:05:32.812854 16986 net.cpp:156] Memory required for data: 768295968
I0403 16:05:32.812882 16986 layer_factory.hpp:77] Creating layer inception_3b/relu_pool_proj
I0403 16:05:32.812907 16986 net.cpp:91] Creating Layer inception_3b/relu_pool_proj
I0403 16:05:32.812927 16986 net.cpp:425] inception_3b/relu_pool_proj <- inception_3b/pool_proj
I0403 16:05:32.812949 16986 net.cpp:386] inception_3b/relu_pool_proj -> inception_3b/pool_proj (in-place)
I0403 16:05:32.813413 16986 net.cpp:141] Setting up inception_3b/relu_pool_proj
I0403 16:05:32.813446 16986 net.cpp:148] Top shape: 24 64 28 28 (1204224)
I0403 16:05:32.813464 16986 net.cpp:156] Memory required for data: 773112864
I0403 16:05:32.813482 16986 layer_factory.hpp:77] Creating layer inception_3b/output
I0403 16:05:32.813506 16986 net.cpp:91] Creating Layer inception_3b/output
I0403 16:05:32.813525 16986 net.cpp:425] inception_3b/output <- inception_3b/1x1
I0403 16:05:32.813545 16986 net.cpp:425] inception_3b/output <- inception_3b/3x3
I0403 16:05:32.813565 16986 net.cpp:425] inception_3b/output <- inception_3b/5x5
I0403 16:05:32.813591 16986 net.cpp:425] inception_3b/output <- inception_3b/pool_proj
I0403 16:05:32.813612 16986 net.cpp:399] inception_3b/output -> inception_3b/output
I0403 16:05:32.813668 16986 net.cpp:141] Setting up inception_3b/output
I0403 16:05:32.813696 16986 net.cpp:148] Top shape: 24 480 28 28 (9031680)
I0403 16:05:32.813714 16986 net.cpp:156] Memory required for data: 809239584
I0403 16:05:32.813732 16986 layer_factory.hpp:77] Creating layer pool3/3x3_s2
I0403 16:05:32.813752 16986 net.cpp:91] Creating Layer pool3/3x3_s2
I0403 16:05:32.813771 16986 net.cpp:425] pool3/3x3_s2 <- inception_3b/output
I0403 16:05:32.813814 16986 net.cpp:399] pool3/3x3_s2 -> pool3/3x3_s2
I0403 16:05:32.813886 16986 net.cpp:141] Setting up pool3/3x3_s2
I0403 16:05:32.813917 16986 net.cpp:148] Top shape: 24 480 14 14 (2257920)
I0403 16:05:32.813938 16986 net.cpp:156] Memory required for data: 818271264
I0403 16:05:32.813956 16986 layer_factory.hpp:77] Creating layer pool3/3x3_s2_pool3/3x3_s2_0_split
I0403 16:05:32.813977 16986 net.cpp:91] Creating Layer pool3/3x3_s2_pool3/3x3_s2_0_split
I0403 16:05:32.813994 16986 net.cpp:425] pool3/3x3_s2_pool3/3x3_s2_0_split <- pool3/3x3_s2
I0403 16:05:32.814015 16986 net.cpp:399] pool3/3x3_s2_pool3/3x3_s2_0_split -> pool3/3x3_s2_pool3/3x3_s2_0_split_0
I0403 16:05:32.814043 16986 net.cpp:399] pool3/3x3_s2_pool3/3x3_s2_0_split -> pool3/3x3_s2_pool3/3x3_s2_0_split_1
I0403 16:05:32.814069 16986 net.cpp:399] pool3/3x3_s2_pool3/3x3_s2_0_split -> pool3/3x3_s2_pool3/3x3_s2_0_split_2
I0403 16:05:32.814095 16986 net.cpp:399] pool3/3x3_s2_pool3/3x3_s2_0_split -> pool3/3x3_s2_pool3/3x3_s2_0_split_3
I0403 16:05:32.814189 16986 net.cpp:141] Setting up pool3/3x3_s2_pool3/3x3_s2_0_split
I0403 16:05:32.814218 16986 net.cpp:148] Top shape: 24 480 14 14 (2257920)
I0403 16:05:32.814237 16986 net.cpp:148] Top shape: 24 480 14 14 (2257920)
I0403 16:05:32.814256 16986 net.cpp:148] Top shape: 24 480 14 14 (2257920)
I0403 16:05:32.814275 16986 net.cpp:148] Top shape: 24 480 14 14 (2257920)
I0403 16:05:32.814291 16986 net.cpp:156] Memory required for data: 854397984
I0403 16:05:32.814307 16986 layer_factory.hpp:77] Creating layer inception_4a/1x1
I0403 16:05:32.814337 16986 net.cpp:91] Creating Layer inception_4a/1x1
I0403 16:05:32.814357 16986 net.cpp:425] inception_4a/1x1 <- pool3/3x3_s2_pool3/3x3_s2_0_split_0
I0403 16:05:32.814379 16986 net.cpp:399] inception_4a/1x1 -> inception_4a/1x1
I0403 16:05:32.816315 16986 net.cpp:141] Setting up inception_4a/1x1
I0403 16:05:32.816349 16986 net.cpp:148] Top shape: 24 192 14 14 (903168)
I0403 16:05:32.816370 16986 net.cpp:156] Memory required for data: 858010656
I0403 16:05:32.816390 16986 layer_factory.hpp:77] Creating layer inception_4a/relu_1x1
I0403 16:05:32.816416 16986 net.cpp:91] Creating Layer inception_4a/relu_1x1
I0403 16:05:32.816437 16986 net.cpp:425] inception_4a/relu_1x1 <- inception_4a/1x1
I0403 16:05:32.816457 16986 net.cpp:386] inception_4a/relu_1x1 -> inception_4a/1x1 (in-place)
I0403 16:05:32.816685 16986 net.cpp:141] Setting up inception_4a/relu_1x1
I0403 16:05:32.816716 16986 net.cpp:148] Top shape: 24 192 14 14 (903168)
I0403 16:05:32.816735 16986 net.cpp:156] Memory required for data: 861623328
I0403 16:05:32.816752 16986 layer_factory.hpp:77] Creating layer inception_4a/3x3_reduce
I0403 16:05:32.816779 16986 net.cpp:91] Creating Layer inception_4a/3x3_reduce
I0403 16:05:32.816802 16986 net.cpp:425] inception_4a/3x3_reduce <- pool3/3x3_s2_pool3/3x3_s2_0_split_1
I0403 16:05:32.816828 16986 net.cpp:399] inception_4a/3x3_reduce -> inception_4a/3x3_reduce
I0403 16:05:32.818368 16986 net.cpp:141] Setting up inception_4a/3x3_reduce
I0403 16:05:32.818405 16986 net.cpp:148] Top shape: 24 96 14 14 (451584)
I0403 16:05:32.818425 16986 net.cpp:156] Memory required for data: 863429664
I0403 16:05:32.818454 16986 layer_factory.hpp:77] Creating layer inception_4a/relu_3x3_reduce
I0403 16:05:32.818480 16986 net.cpp:91] Creating Layer inception_4a/relu_3x3_reduce
I0403 16:05:32.818501 16986 net.cpp:425] inception_4a/relu_3x3_reduce <- inception_4a/3x3_reduce
I0403 16:05:32.818522 16986 net.cpp:386] inception_4a/relu_3x3_reduce -> inception_4a/3x3_reduce (in-place)
I0403 16:05:32.818742 16986 net.cpp:141] Setting up inception_4a/relu_3x3_reduce
I0403 16:05:32.818775 16986 net.cpp:148] Top shape: 24 96 14 14 (451584)
I0403 16:05:32.818794 16986 net.cpp:156] Memory required for data: 865236000
I0403 16:05:32.818812 16986 layer_factory.hpp:77] Creating layer inception_4a/3x3
I0403 16:05:32.818840 16986 net.cpp:91] Creating Layer inception_4a/3x3
I0403 16:05:32.818861 16986 net.cpp:425] inception_4a/3x3 <- inception_4a/3x3_reduce
I0403 16:05:32.818892 16986 net.cpp:399] inception_4a/3x3 -> inception_4a/3x3
I0403 16:05:32.822136 16986 net.cpp:141] Setting up inception_4a/3x3
I0403 16:05:32.822175 16986 net.cpp:148] Top shape: 24 208 14 14 (978432)
I0403 16:05:32.822196 16986 net.cpp:156] Memory required for data: 869149728
I0403 16:05:32.822219 16986 layer_factory.hpp:77] Creating layer inception_4a/relu_3x3
I0403 16:05:32.822240 16986 net.cpp:91] Creating Layer inception_4a/relu_3x3
I0403 16:05:32.822263 16986 net.cpp:425] inception_4a/relu_3x3 <- inception_4a/3x3
I0403 16:05:32.822286 16986 net.cpp:386] inception_4a/relu_3x3 -> inception_4a/3x3 (in-place)
I0403 16:05:32.822628 16986 net.cpp:141] Setting up inception_4a/relu_3x3
I0403 16:05:32.822664 16986 net.cpp:148] Top shape: 24 208 14 14 (978432)
I0403 16:05:32.822685 16986 net.cpp:156] Memory required for data: 873063456
I0403 16:05:32.822703 16986 layer_factory.hpp:77] Creating layer inception_4a/5x5_reduce
I0403 16:05:32.822731 16986 net.cpp:91] Creating Layer inception_4a/5x5_reduce
I0403 16:05:32.822752 16986 net.cpp:425] inception_4a/5x5_reduce <- pool3/3x3_s2_pool3/3x3_s2_0_split_2
I0403 16:05:32.822778 16986 net.cpp:399] inception_4a/5x5_reduce -> inception_4a/5x5_reduce
I0403 16:05:32.824012 16986 net.cpp:141] Setting up inception_4a/5x5_reduce
I0403 16:05:32.824046 16986 net.cpp:148] Top shape: 24 16 14 14 (75264)
I0403 16:05:32.824065 16986 net.cpp:156] Memory required for data: 873364512
I0403 16:05:32.824087 16986 layer_factory.hpp:77] Creating layer inception_4a/relu_5x5_reduce
I0403 16:05:32.824113 16986 net.cpp:91] Creating Layer inception_4a/relu_5x5_reduce
I0403 16:05:32.824133 16986 net.cpp:425] inception_4a/relu_5x5_reduce <- inception_4a/5x5_reduce
I0403 16:05:32.824154 16986 net.cpp:386] inception_4a/relu_5x5_reduce -> inception_4a/5x5_reduce (in-place)
I0403 16:05:32.824369 16986 net.cpp:141] Setting up inception_4a/relu_5x5_reduce
I0403 16:05:32.824399 16986 net.cpp:148] Top shape: 24 16 14 14 (75264)
I0403 16:05:32.824419 16986 net.cpp:156] Memory required for data: 873665568
I0403 16:05:32.824436 16986 layer_factory.hpp:77] Creating layer inception_4a/5x5
I0403 16:05:32.824463 16986 net.cpp:91] Creating Layer inception_4a/5x5
I0403 16:05:32.824486 16986 net.cpp:425] inception_4a/5x5 <- inception_4a/5x5_reduce
I0403 16:05:32.824511 16986 net.cpp:399] inception_4a/5x5 -> inception_4a/5x5
I0403 16:05:32.825845 16986 net.cpp:141] Setting up inception_4a/5x5
I0403 16:05:32.825880 16986 net.cpp:148] Top shape: 24 48 14 14 (225792)
I0403 16:05:32.825898 16986 net.cpp:156] Memory required for data: 874568736
I0403 16:05:32.825920 16986 layer_factory.hpp:77] Creating layer inception_4a/relu_5x5
I0403 16:05:32.825945 16986 net.cpp:91] Creating Layer inception_4a/relu_5x5
I0403 16:05:32.825966 16986 net.cpp:425] inception_4a/relu_5x5 <- inception_4a/5x5
I0403 16:05:32.825989 16986 net.cpp:386] inception_4a/relu_5x5 -> inception_4a/5x5 (in-place)
I0403 16:05:32.826205 16986 net.cpp:141] Setting up inception_4a/relu_5x5
I0403 16:05:32.826238 16986 net.cpp:148] Top shape: 24 48 14 14 (225792)
I0403 16:05:32.826258 16986 net.cpp:156] Memory required for data: 875471904
I0403 16:05:32.826277 16986 layer_factory.hpp:77] Creating layer inception_4a/pool
I0403 16:05:32.826297 16986 net.cpp:91] Creating Layer inception_4a/pool
I0403 16:05:32.826315 16986 net.cpp:425] inception_4a/pool <- pool3/3x3_s2_pool3/3x3_s2_0_split_3
I0403 16:05:32.826340 16986 net.cpp:399] inception_4a/pool -> inception_4a/pool
I0403 16:05:32.826413 16986 net.cpp:141] Setting up inception_4a/pool
I0403 16:05:32.826442 16986 net.cpp:148] Top shape: 24 480 14 14 (2257920)
I0403 16:05:32.826460 16986 net.cpp:156] Memory required for data: 884503584
I0403 16:05:32.826478 16986 layer_factory.hpp:77] Creating layer inception_4a/pool_proj
I0403 16:05:32.826503 16986 net.cpp:91] Creating Layer inception_4a/pool_proj
I0403 16:05:32.826524 16986 net.cpp:425] inception_4a/pool_proj <- inception_4a/pool
I0403 16:05:32.826550 16986 net.cpp:399] inception_4a/pool_proj -> inception_4a/pool_proj
I0403 16:05:32.827955 16986 net.cpp:141] Setting up inception_4a/pool_proj
I0403 16:05:32.827996 16986 net.cpp:148] Top shape: 24 64 14 14 (301056)
I0403 16:05:32.828034 16986 net.cpp:156] Memory required for data: 885707808
I0403 16:05:32.828058 16986 layer_factory.hpp:77] Creating layer inception_4a/relu_pool_proj
I0403 16:05:32.828081 16986 net.cpp:91] Creating Layer inception_4a/relu_pool_proj
I0403 16:05:32.828101 16986 net.cpp:425] inception_4a/relu_pool_proj <- inception_4a/pool_proj
I0403 16:05:32.828124 16986 net.cpp:386] inception_4a/relu_pool_proj -> inception_4a/pool_proj (in-place)
I0403 16:05:32.828459 16986 net.cpp:141] Setting up inception_4a/relu_pool_proj
I0403 16:05:32.828493 16986 net.cpp:148] Top shape: 24 64 14 14 (301056)
I0403 16:05:32.828513 16986 net.cpp:156] Memory required for data: 886912032
I0403 16:05:32.828531 16986 layer_factory.hpp:77] Creating layer inception_4a/output
I0403 16:05:32.828553 16986 net.cpp:91] Creating Layer inception_4a/output
I0403 16:05:32.828577 16986 net.cpp:425] inception_4a/output <- inception_4a/1x1
I0403 16:05:32.828601 16986 net.cpp:425] inception_4a/output <- inception_4a/3x3
I0403 16:05:32.828621 16986 net.cpp:425] inception_4a/output <- inception_4a/5x5
I0403 16:05:32.828641 16986 net.cpp:425] inception_4a/output <- inception_4a/pool_proj
I0403 16:05:32.828661 16986 net.cpp:399] inception_4a/output -> inception_4a/output
I0403 16:05:32.828717 16986 net.cpp:141] Setting up inception_4a/output
I0403 16:05:32.828747 16986 net.cpp:148] Top shape: 24 512 14 14 (2408448)
I0403 16:05:32.828765 16986 net.cpp:156] Memory required for data: 896545824
I0403 16:05:32.828783 16986 layer_factory.hpp:77] Creating layer inception_4a/output_inception_4a/output_0_split
I0403 16:05:32.828806 16986 net.cpp:91] Creating Layer inception_4a/output_inception_4a/output_0_split
I0403 16:05:32.828826 16986 net.cpp:425] inception_4a/output_inception_4a/output_0_split <- inception_4a/output
I0403 16:05:32.828847 16986 net.cpp:399] inception_4a/output_inception_4a/output_0_split -> inception_4a/output_inception_4a/output_0_split_0
I0403 16:05:32.828872 16986 net.cpp:399] inception_4a/output_inception_4a/output_0_split -> inception_4a/output_inception_4a/output_0_split_1
I0403 16:05:32.828901 16986 net.cpp:399] inception_4a/output_inception_4a/output_0_split -> inception_4a/output_inception_4a/output_0_split_2
I0403 16:05:32.828925 16986 net.cpp:399] inception_4a/output_inception_4a/output_0_split -> inception_4a/output_inception_4a/output_0_split_3
I0403 16:05:32.828958 16986 net.cpp:399] inception_4a/output_inception_4a/output_0_split -> inception_4a/output_inception_4a/output_0_split_4
I0403 16:05:32.829074 16986 net.cpp:141] Setting up inception_4a/output_inception_4a/output_0_split
I0403 16:05:32.829103 16986 net.cpp:148] Top shape: 24 512 14 14 (2408448)
I0403 16:05:32.829124 16986 net.cpp:148] Top shape: 24 512 14 14 (2408448)
I0403 16:05:32.829144 16986 net.cpp:148] Top shape: 24 512 14 14 (2408448)
I0403 16:05:32.829164 16986 net.cpp:148] Top shape: 24 512 14 14 (2408448)
I0403 16:05:32.829181 16986 net.cpp:148] Top shape: 24 512 14 14 (2408448)
I0403 16:05:32.829197 16986 net.cpp:156] Memory required for data: 944714784
I0403 16:05:32.829216 16986 layer_factory.hpp:77] Creating layer loss1/ave_pool
I0403 16:05:32.829236 16986 net.cpp:91] Creating Layer loss1/ave_pool
I0403 16:05:32.829257 16986 net.cpp:425] loss1/ave_pool <- inception_4a/output_inception_4a/output_0_split_0
I0403 16:05:32.829282 16986 net.cpp:399] loss1/ave_pool -> loss1/ave_pool
I0403 16:05:32.829524 16986 net.cpp:141] Setting up loss1/ave_pool
I0403 16:05:32.829560 16986 net.cpp:148] Top shape: 24 512 4 4 (196608)
I0403 16:05:32.829584 16986 net.cpp:156] Memory required for data: 945501216
I0403 16:05:32.829604 16986 layer_factory.hpp:77] Creating layer loss1/conv
I0403 16:05:32.829632 16986 net.cpp:91] Creating Layer loss1/conv
I0403 16:05:32.829653 16986 net.cpp:425] loss1/conv <- loss1/ave_pool
I0403 16:05:32.829675 16986 net.cpp:399] loss1/conv -> loss1/conv
I0403 16:05:32.831377 16986 net.cpp:141] Setting up loss1/conv
I0403 16:05:32.831413 16986 net.cpp:148] Top shape: 24 128 4 4 (49152)
I0403 16:05:32.831447 16986 net.cpp:156] Memory required for data: 945697824
I0403 16:05:32.831472 16986 layer_factory.hpp:77] Creating layer loss1/relu_conv
I0403 16:05:32.831495 16986 net.cpp:91] Creating Layer loss1/relu_conv
I0403 16:05:32.831514 16986 net.cpp:425] loss1/relu_conv <- loss1/conv
I0403 16:05:32.831538 16986 net.cpp:386] loss1/relu_conv -> loss1/conv (in-place)
I0403 16:05:32.831878 16986 net.cpp:141] Setting up loss1/relu_conv
I0403 16:05:32.831912 16986 net.cpp:148] Top shape: 24 128 4 4 (49152)
I0403 16:05:32.831929 16986 net.cpp:156] Memory required for data: 945894432
I0403 16:05:32.831948 16986 layer_factory.hpp:77] Creating layer loss1/fc
I0403 16:05:32.831976 16986 net.cpp:91] Creating Layer loss1/fc
I0403 16:05:32.831997 16986 net.cpp:425] loss1/fc <- loss1/conv
I0403 16:05:32.832023 16986 net.cpp:399] loss1/fc -> loss1/fc
I0403 16:05:32.854032 16986 net.cpp:141] Setting up loss1/fc
I0403 16:05:32.854074 16986 net.cpp:148] Top shape: 24 1024 (24576)
I0403 16:05:32.854094 16986 net.cpp:156] Memory required for data: 945992736
I0403 16:05:32.854116 16986 layer_factory.hpp:77] Creating layer loss1/relu_fc
I0403 16:05:32.854141 16986 net.cpp:91] Creating Layer loss1/relu_fc
I0403 16:05:32.854162 16986 net.cpp:425] loss1/relu_fc <- loss1/fc
I0403 16:05:32.854183 16986 net.cpp:386] loss1/relu_fc -> loss1/fc (in-place)
I0403 16:05:32.854410 16986 net.cpp:141] Setting up loss1/relu_fc
I0403 16:05:32.854441 16986 net.cpp:148] Top shape: 24 1024 (24576)
I0403 16:05:32.854460 16986 net.cpp:156] Memory required for data: 946091040
I0403 16:05:32.854477 16986 layer_factory.hpp:77] Creating layer loss1/drop_fc
I0403 16:05:32.854508 16986 net.cpp:91] Creating Layer loss1/drop_fc
I0403 16:05:32.854531 16986 net.cpp:425] loss1/drop_fc <- loss1/fc
I0403 16:05:32.854554 16986 net.cpp:386] loss1/drop_fc -> loss1/fc (in-place)
I0403 16:05:32.854643 16986 net.cpp:141] Setting up loss1/drop_fc
I0403 16:05:32.854672 16986 net.cpp:148] Top shape: 24 1024 (24576)
I0403 16:05:32.854691 16986 net.cpp:156] Memory required for data: 946189344
I0403 16:05:32.854710 16986 layer_factory.hpp:77] Creating layer loss1/classifier_plantvillage
I0403 16:05:32.854737 16986 net.cpp:91] Creating Layer loss1/classifier_plantvillage
I0403 16:05:32.854758 16986 net.cpp:425] loss1/classifier_plantvillage <- loss1/fc
I0403 16:05:32.854784 16986 net.cpp:399] loss1/classifier_plantvillage -> loss1/classifier_plantvillage
I0403 16:05:32.855891 16986 net.cpp:141] Setting up loss1/classifier_plantvillage
I0403 16:05:32.855928 16986 net.cpp:148] Top shape: 24 38 (912)
I0403 16:05:32.855948 16986 net.cpp:156] Memory required for data: 946192992
I0403 16:05:32.855970 16986 layer_factory.hpp:77] Creating layer loss1/classifier_plantvillage_loss1/classifier_plantvillage_0_split
I0403 16:05:32.855993 16986 net.cpp:91] Creating Layer loss1/classifier_plantvillage_loss1/classifier_plantvillage_0_split
I0403 16:05:32.856012 16986 net.cpp:425] loss1/classifier_plantvillage_loss1/classifier_plantvillage_0_split <- loss1/classifier_plantvillage
I0403 16:05:32.856036 16986 net.cpp:399] loss1/classifier_plantvillage_loss1/classifier_plantvillage_0_split -> loss1/classifier_plantvillage_loss1/classifier_plantvillage_0_split_0
I0403 16:05:32.856062 16986 net.cpp:399] loss1/classifier_plantvillage_loss1/classifier_plantvillage_0_split -> loss1/classifier_plantvillage_loss1/classifier_plantvillage_0_split_1
I0403 16:05:32.856087 16986 net.cpp:399] loss1/classifier_plantvillage_loss1/classifier_plantvillage_0_split -> loss1/classifier_plantvillage_loss1/classifier_plantvillage_0_split_2
I0403 16:05:32.856168 16986 net.cpp:141] Setting up loss1/classifier_plantvillage_loss1/classifier_plantvillage_0_split
I0403 16:05:32.856196 16986 net.cpp:148] Top shape: 24 38 (912)
I0403 16:05:32.856215 16986 net.cpp:148] Top shape: 24 38 (912)
I0403 16:05:32.856235 16986 net.cpp:148] Top shape: 24 38 (912)
I0403 16:05:32.856252 16986 net.cpp:156] Memory required for data: 946203936
I0403 16:05:32.856271 16986 layer_factory.hpp:77] Creating layer inception_4b/1x1
I0403 16:05:32.856297 16986 net.cpp:91] Creating Layer inception_4b/1x1
I0403 16:05:32.856335 16986 net.cpp:425] inception_4b/1x1 <- inception_4a/output_inception_4a/output_0_split_1
I0403 16:05:32.856360 16986 net.cpp:399] inception_4b/1x1 -> inception_4b/1x1
I0403 16:05:32.858355 16986 net.cpp:141] Setting up inception_4b/1x1
I0403 16:05:32.858389 16986 net.cpp:148] Top shape: 24 160 14 14 (752640)
I0403 16:05:32.858409 16986 net.cpp:156] Memory required for data: 949214496
I0403 16:05:32.858431 16986 layer_factory.hpp:77] Creating layer inception_4b/relu_1x1
I0403 16:05:32.858453 16986 net.cpp:91] Creating Layer inception_4b/relu_1x1
I0403 16:05:32.858475 16986 net.cpp:425] inception_4b/relu_1x1 <- inception_4b/1x1
I0403 16:05:32.858497 16986 net.cpp:386] inception_4b/relu_1x1 -> inception_4b/1x1 (in-place)
I0403 16:05:32.858726 16986 net.cpp:141] Setting up inception_4b/relu_1x1
I0403 16:05:32.858757 16986 net.cpp:148] Top shape: 24 160 14 14 (752640)
I0403 16:05:32.858774 16986 net.cpp:156] Memory required for data: 952225056
I0403 16:05:32.858793 16986 layer_factory.hpp:77] Creating layer inception_4b/3x3_reduce
I0403 16:05:32.858819 16986 net.cpp:91] Creating Layer inception_4b/3x3_reduce
I0403 16:05:32.858840 16986 net.cpp:425] inception_4b/3x3_reduce <- inception_4a/output_inception_4a/output_0_split_2
I0403 16:05:32.858867 16986 net.cpp:399] inception_4b/3x3_reduce -> inception_4b/3x3_reduce
I0403 16:05:32.860512 16986 net.cpp:141] Setting up inception_4b/3x3_reduce
I0403 16:05:32.860546 16986 net.cpp:148] Top shape: 24 112 14 14 (526848)
I0403 16:05:32.860566 16986 net.cpp:156] Memory required for data: 954332448
I0403 16:05:32.860595 16986 layer_factory.hpp:77] Creating layer inception_4b/relu_3x3_reduce
I0403 16:05:32.860620 16986 net.cpp:91] Creating Layer inception_4b/relu_3x3_reduce
I0403 16:05:32.860641 16986 net.cpp:425] inception_4b/relu_3x3_reduce <- inception_4b/3x3_reduce
I0403 16:05:32.860662 16986 net.cpp:386] inception_4b/relu_3x3_reduce -> inception_4b/3x3_reduce (in-place)
I0403 16:05:32.861001 16986 net.cpp:141] Setting up inception_4b/relu_3x3_reduce
I0403 16:05:32.861034 16986 net.cpp:148] Top shape: 24 112 14 14 (526848)
I0403 16:05:32.861052 16986 net.cpp:156] Memory required for data: 956439840
I0403 16:05:32.861070 16986 layer_factory.hpp:77] Creating layer inception_4b/3x3
I0403 16:05:32.861096 16986 net.cpp:91] Creating Layer inception_4b/3x3
I0403 16:05:32.861119 16986 net.cpp:425] inception_4b/3x3 <- inception_4b/3x3_reduce
I0403 16:05:32.861145 16986 net.cpp:399] inception_4b/3x3 -> inception_4b/3x3
I0403 16:05:32.864796 16986 net.cpp:141] Setting up inception_4b/3x3
I0403 16:05:32.864835 16986 net.cpp:148] Top shape: 24 224 14 14 (1053696)
I0403 16:05:32.864856 16986 net.cpp:156] Memory required for data: 960654624
I0403 16:05:32.864879 16986 layer_factory.hpp:77] Creating layer inception_4b/relu_3x3
I0403 16:05:32.864902 16986 net.cpp:91] Creating Layer inception_4b/relu_3x3
I0403 16:05:32.864922 16986 net.cpp:425] inception_4b/relu_3x3 <- inception_4b/3x3
I0403 16:05:32.864945 16986 net.cpp:386] inception_4b/relu_3x3 -> inception_4b/3x3 (in-place)
I0403 16:05:32.865165 16986 net.cpp:141] Setting up inception_4b/relu_3x3
I0403 16:05:32.865196 16986 net.cpp:148] Top shape: 24 224 14 14 (1053696)
I0403 16:05:32.865214 16986 net.cpp:156] Memory required for data: 964869408
I0403 16:05:32.865233 16986 layer_factory.hpp:77] Creating layer inception_4b/5x5_reduce
I0403 16:05:32.865259 16986 net.cpp:91] Creating Layer inception_4b/5x5_reduce
I0403 16:05:32.865280 16986 net.cpp:425] inception_4b/5x5_reduce <- inception_4a/output_inception_4a/output_0_split_3
I0403 16:05:32.865309 16986 net.cpp:399] inception_4b/5x5_reduce -> inception_4b/5x5_reduce
I0403 16:05:32.866652 16986 net.cpp:141] Setting up inception_4b/5x5_reduce
I0403 16:05:32.866686 16986 net.cpp:148] Top shape: 24 24 14 14 (112896)
I0403 16:05:32.866705 16986 net.cpp:156] Memory required for data: 965320992
I0403 16:05:32.866727 16986 layer_factory.hpp:77] Creating layer inception_4b/relu_5x5_reduce
I0403 16:05:32.866751 16986 net.cpp:91] Creating Layer inception_4b/relu_5x5_reduce
I0403 16:05:32.866799 16986 net.cpp:425] inception_4b/relu_5x5_reduce <- inception_4b/5x5_reduce
I0403 16:05:32.866822 16986 net.cpp:386] inception_4b/relu_5x5_reduce -> inception_4b/5x5_reduce (in-place)
I0403 16:05:32.867059 16986 net.cpp:141] Setting up inception_4b/relu_5x5_reduce
I0403 16:05:32.867091 16986 net.cpp:148] Top shape: 24 24 14 14 (112896)
I0403 16:05:32.867112 16986 net.cpp:156] Memory required for data: 965772576
I0403 16:05:32.867131 16986 layer_factory.hpp:77] Creating layer inception_4b/5x5
I0403 16:05:32.867156 16986 net.cpp:91] Creating Layer inception_4b/5x5
I0403 16:05:32.867177 16986 net.cpp:425] inception_4b/5x5 <- inception_4b/5x5_reduce
I0403 16:05:32.867203 16986 net.cpp:399] inception_4b/5x5 -> inception_4b/5x5
I0403 16:05:32.868726 16986 net.cpp:141] Setting up inception_4b/5x5
I0403 16:05:32.868762 16986 net.cpp:148] Top shape: 24 64 14 14 (301056)
I0403 16:05:32.868782 16986 net.cpp:156] Memory required for data: 966976800
I0403 16:05:32.868804 16986 layer_factory.hpp:77] Creating layer inception_4b/relu_5x5
I0403 16:05:32.868826 16986 net.cpp:91] Creating Layer inception_4b/relu_5x5
I0403 16:05:32.868849 16986 net.cpp:425] inception_4b/relu_5x5 <- inception_4b/5x5
I0403 16:05:32.868870 16986 net.cpp:386] inception_4b/relu_5x5 -> inception_4b/5x5 (in-place)
I0403 16:05:32.869218 16986 net.cpp:141] Setting up inception_4b/relu_5x5
I0403 16:05:32.869251 16986 net.cpp:148] Top shape: 24 64 14 14 (301056)
I0403 16:05:32.869269 16986 net.cpp:156] Memory required for data: 968181024
I0403 16:05:32.869287 16986 layer_factory.hpp:77] Creating layer inception_4b/pool
I0403 16:05:32.869309 16986 net.cpp:91] Creating Layer inception_4b/pool
I0403 16:05:32.869328 16986 net.cpp:425] inception_4b/pool <- inception_4a/output_inception_4a/output_0_split_4
I0403 16:05:32.869352 16986 net.cpp:399] inception_4b/pool -> inception_4b/pool
I0403 16:05:32.869431 16986 net.cpp:141] Setting up inception_4b/pool
I0403 16:05:32.869462 16986 net.cpp:148] Top shape: 24 512 14 14 (2408448)
I0403 16:05:32.869482 16986 net.cpp:156] Memory required for data: 977814816
I0403 16:05:32.869499 16986 layer_factory.hpp:77] Creating layer inception_4b/pool_proj
I0403 16:05:32.869525 16986 net.cpp:91] Creating Layer inception_4b/pool_proj
I0403 16:05:32.869546 16986 net.cpp:425] inception_4b/pool_proj <- inception_4b/pool
I0403 16:05:32.869573 16986 net.cpp:399] inception_4b/pool_proj -> inception_4b/pool_proj
I0403 16:05:32.871052 16986 net.cpp:141] Setting up inception_4b/pool_proj
I0403 16:05:32.871088 16986 net.cpp:148] Top shape: 24 64 14 14 (301056)
I0403 16:05:32.871106 16986 net.cpp:156] Memory required for data: 979019040
I0403 16:05:32.871129 16986 layer_factory.hpp:77] Creating layer inception_4b/relu_pool_proj
I0403 16:05:32.871153 16986 net.cpp:91] Creating Layer inception_4b/relu_pool_proj
I0403 16:05:32.871175 16986 net.cpp:425] inception_4b/relu_pool_proj <- inception_4b/pool_proj
I0403 16:05:32.871196 16986 net.cpp:386] inception_4b/relu_pool_proj -> inception_4b/pool_proj (in-place)
I0403 16:05:32.871415 16986 net.cpp:141] Setting up inception_4b/relu_pool_proj
I0403 16:05:32.871446 16986 net.cpp:148] Top shape: 24 64 14 14 (301056)
I0403 16:05:32.871464 16986 net.cpp:156] Memory required for data: 980223264
I0403 16:05:32.871482 16986 layer_factory.hpp:77] Creating layer inception_4b/output
I0403 16:05:32.871506 16986 net.cpp:91] Creating Layer inception_4b/output
I0403 16:05:32.871526 16986 net.cpp:425] inception_4b/output <- inception_4b/1x1
I0403 16:05:32.871546 16986 net.cpp:425] inception_4b/output <- inception_4b/3x3
I0403 16:05:32.871567 16986 net.cpp:425] inception_4b/output <- inception_4b/5x5
I0403 16:05:32.871593 16986 net.cpp:425] inception_4b/output <- inception_4b/pool_proj
I0403 16:05:32.871615 16986 net.cpp:399] inception_4b/output -> inception_4b/output
I0403 16:05:32.871675 16986 net.cpp:141] Setting up inception_4b/output
I0403 16:05:32.871702 16986 net.cpp:148] Top shape: 24 512 14 14 (2408448)
I0403 16:05:32.871721 16986 net.cpp:156] Memory required for data: 989857056
I0403 16:05:32.871759 16986 layer_factory.hpp:77] Creating layer inception_4b/output_inception_4b/output_0_split
I0403 16:05:32.871781 16986 net.cpp:91] Creating Layer inception_4b/output_inception_4b/output_0_split
I0403 16:05:32.871800 16986 net.cpp:425] inception_4b/output_inception_4b/output_0_split <- inception_4b/output
I0403 16:05:32.871829 16986 net.cpp:399] inception_4b/output_inception_4b/output_0_split -> inception_4b/output_inception_4b/output_0_split_0
I0403 16:05:32.871857 16986 net.cpp:399] inception_4b/output_inception_4b/output_0_split -> inception_4b/output_inception_4b/output_0_split_1
I0403 16:05:32.871883 16986 net.cpp:399] inception_4b/output_inception_4b/output_0_split -> inception_4b/output_inception_4b/output_0_split_2
I0403 16:05:32.871909 16986 net.cpp:399] inception_4b/output_inception_4b/output_0_split -> inception_4b/output_inception_4b/output_0_split_3
I0403 16:05:32.872016 16986 net.cpp:141] Setting up inception_4b/output_inception_4b/output_0_split
I0403 16:05:32.872047 16986 net.cpp:148] Top shape: 24 512 14 14 (2408448)
I0403 16:05:32.872069 16986 net.cpp:148] Top shape: 24 512 14 14 (2408448)
I0403 16:05:32.872088 16986 net.cpp:148] Top shape: 24 512 14 14 (2408448)
I0403 16:05:32.872108 16986 net.cpp:148] Top shape: 24 512 14 14 (2408448)
I0403 16:05:32.872124 16986 net.cpp:156] Memory required for data: 1028392224
I0403 16:05:32.872143 16986 layer_factory.hpp:77] Creating layer inception_4c/1x1
I0403 16:05:32.872171 16986 net.cpp:91] Creating Layer inception_4c/1x1
I0403 16:05:32.872192 16986 net.cpp:425] inception_4c/1x1 <- inception_4b/output_inception_4b/output_0_split_0
I0403 16:05:32.872215 16986 net.cpp:399] inception_4c/1x1 -> inception_4c/1x1
I0403 16:05:32.873987 16986 net.cpp:141] Setting up inception_4c/1x1
I0403 16:05:32.874022 16986 net.cpp:148] Top shape: 24 128 14 14 (602112)
I0403 16:05:32.874040 16986 net.cpp:156] Memory required for data: 1030800672
I0403 16:05:32.874063 16986 layer_factory.hpp:77] Creating layer inception_4c/relu_1x1
I0403 16:05:32.874089 16986 net.cpp:91] Creating Layer inception_4c/relu_1x1
I0403 16:05:32.874109 16986 net.cpp:425] inception_4c/relu_1x1 <- inception_4c/1x1
I0403 16:05:32.874130 16986 net.cpp:386] inception_4c/relu_1x1 -> inception_4c/1x1 (in-place)
I0403 16:05:32.874354 16986 net.cpp:141] Setting up inception_4c/relu_1x1
I0403 16:05:32.874385 16986 net.cpp:148] Top shape: 24 128 14 14 (602112)
I0403 16:05:32.874403 16986 net.cpp:156] Memory required for data: 1033209120
I0403 16:05:32.874421 16986 layer_factory.hpp:77] Creating layer inception_4c/3x3_reduce
I0403 16:05:32.874449 16986 net.cpp:91] Creating Layer inception_4c/3x3_reduce
I0403 16:05:32.874469 16986 net.cpp:425] inception_4c/3x3_reduce <- inception_4b/output_inception_4b/output_0_split_1
I0403 16:05:32.874495 16986 net.cpp:399] inception_4c/3x3_reduce -> inception_4c/3x3_reduce
I0403 16:05:32.876859 16986 net.cpp:141] Setting up inception_4c/3x3_reduce
I0403 16:05:32.876900 16986 net.cpp:148] Top shape: 24 128 14 14 (602112)
I0403 16:05:32.876919 16986 net.cpp:156] Memory required for data: 1035617568
I0403 16:05:32.876941 16986 layer_factory.hpp:77] Creating layer inception_4c/relu_3x3_reduce
I0403 16:05:32.876963 16986 net.cpp:91] Creating Layer inception_4c/relu_3x3_reduce
I0403 16:05:32.876983 16986 net.cpp:425] inception_4c/relu_3x3_reduce <- inception_4c/3x3_reduce
I0403 16:05:32.877007 16986 net.cpp:386] inception_4c/relu_3x3_reduce -> inception_4c/3x3_reduce (in-place)
I0403 16:05:32.877352 16986 net.cpp:141] Setting up inception_4c/relu_3x3_reduce
I0403 16:05:32.877385 16986 net.cpp:148] Top shape: 24 128 14 14 (602112)
I0403 16:05:32.877404 16986 net.cpp:156] Memory required for data: 1038026016
I0403 16:05:32.877424 16986 layer_factory.hpp:77] Creating layer inception_4c/3x3
I0403 16:05:32.877452 16986 net.cpp:91] Creating Layer inception_4c/3x3
I0403 16:05:32.877473 16986 net.cpp:425] inception_4c/3x3 <- inception_4c/3x3_reduce
I0403 16:05:32.877499 16986 net.cpp:399] inception_4c/3x3 -> inception_4c/3x3
I0403 16:05:32.881906 16986 net.cpp:141] Setting up inception_4c/3x3
I0403 16:05:32.881958 16986 net.cpp:148] Top shape: 24 256 14 14 (1204224)
I0403 16:05:32.881978 16986 net.cpp:156] Memory required for data: 1042842912
I0403 16:05:32.882019 16986 layer_factory.hpp:77] Creating layer inception_4c/relu_3x3
I0403 16:05:32.882046 16986 net.cpp:91] Creating Layer inception_4c/relu_3x3
I0403 16:05:32.882068 16986 net.cpp:425] inception_4c/relu_3x3 <- inception_4c/3x3
I0403 16:05:32.882089 16986 net.cpp:386] inception_4c/relu_3x3 -> inception_4c/3x3 (in-place)
I0403 16:05:32.882311 16986 net.cpp:141] Setting up inception_4c/relu_3x3
I0403 16:05:32.882341 16986 net.cpp:148] Top shape: 24 256 14 14 (1204224)
I0403 16:05:32.882360 16986 net.cpp:156] Memory required for data: 1047659808
I0403 16:05:32.882378 16986 layer_factory.hpp:77] Creating layer inception_4c/5x5_reduce
I0403 16:05:32.882406 16986 net.cpp:91] Creating Layer inception_4c/5x5_reduce
I0403 16:05:32.882427 16986 net.cpp:425] inception_4c/5x5_reduce <- inception_4b/output_inception_4b/output_0_split_2
I0403 16:05:32.882454 16986 net.cpp:399] inception_4c/5x5_reduce -> inception_4c/5x5_reduce
I0403 16:05:32.883810 16986 net.cpp:141] Setting up inception_4c/5x5_reduce
I0403 16:05:32.883846 16986 net.cpp:148] Top shape: 24 24 14 14 (112896)
I0403 16:05:32.883867 16986 net.cpp:156] Memory required for data: 1048111392
I0403 16:05:32.883888 16986 layer_factory.hpp:77] Creating layer inception_4c/relu_5x5_reduce
I0403 16:05:32.883909 16986 net.cpp:91] Creating Layer inception_4c/relu_5x5_reduce
I0403 16:05:32.883929 16986 net.cpp:425] inception_4c/relu_5x5_reduce <- inception_4c/5x5_reduce
I0403 16:05:32.883951 16986 net.cpp:386] inception_4c/relu_5x5_reduce -> inception_4c/5x5_reduce (in-place)
I0403 16:05:32.884178 16986 net.cpp:141] Setting up inception_4c/relu_5x5_reduce
I0403 16:05:32.884209 16986 net.cpp:148] Top shape: 24 24 14 14 (112896)
I0403 16:05:32.884227 16986 net.cpp:156] Memory required for data: 1048562976
I0403 16:05:32.884244 16986 layer_factory.hpp:77] Creating layer inception_4c/5x5
I0403 16:05:32.884271 16986 net.cpp:91] Creating Layer inception_4c/5x5
I0403 16:05:32.884294 16986 net.cpp:425] inception_4c/5x5 <- inception_4c/5x5_reduce
I0403 16:05:32.884320 16986 net.cpp:399] inception_4c/5x5 -> inception_4c/5x5
I0403 16:05:32.885875 16986 net.cpp:141] Setting up inception_4c/5x5
I0403 16:05:32.885910 16986 net.cpp:148] Top shape: 24 64 14 14 (301056)
I0403 16:05:32.885929 16986 net.cpp:156] Memory required for data: 1049767200
I0403 16:05:32.885951 16986 layer_factory.hpp:77] Creating layer inception_4c/relu_5x5
I0403 16:05:32.885977 16986 net.cpp:91] Creating Layer inception_4c/relu_5x5
I0403 16:05:32.885998 16986 net.cpp:425] inception_4c/relu_5x5 <- inception_4c/5x5
I0403 16:05:32.886018 16986 net.cpp:386] inception_4c/relu_5x5 -> inception_4c/5x5 (in-place)
I0403 16:05:32.886374 16986 net.cpp:141] Setting up inception_4c/relu_5x5
I0403 16:05:32.886406 16986 net.cpp:148] Top shape: 24 64 14 14 (301056)
I0403 16:05:32.886425 16986 net.cpp:156] Memory required for data: 1050971424
I0403 16:05:32.886441 16986 layer_factory.hpp:77] Creating layer inception_4c/pool
I0403 16:05:32.886466 16986 net.cpp:91] Creating Layer inception_4c/pool
I0403 16:05:32.886487 16986 net.cpp:425] inception_4c/pool <- inception_4b/output_inception_4b/output_0_split_3
I0403 16:05:32.886510 16986 net.cpp:399] inception_4c/pool -> inception_4c/pool
I0403 16:05:32.886600 16986 net.cpp:141] Setting up inception_4c/pool
I0403 16:05:32.886631 16986 net.cpp:148] Top shape: 24 512 14 14 (2408448)
I0403 16:05:32.886649 16986 net.cpp:156] Memory required for data: 1060605216
I0403 16:05:32.886667 16986 layer_factory.hpp:77] Creating layer inception_4c/pool_proj
I0403 16:05:32.886695 16986 net.cpp:91] Creating Layer inception_4c/pool_proj
I0403 16:05:32.886715 16986 net.cpp:425] inception_4c/pool_proj <- inception_4c/pool
I0403 16:05:32.886740 16986 net.cpp:399] inception_4c/pool_proj -> inception_4c/pool_proj
I0403 16:05:32.888232 16986 net.cpp:141] Setting up inception_4c/pool_proj
I0403 16:05:32.888267 16986 net.cpp:148] Top shape: 24 64 14 14 (301056)
I0403 16:05:32.888303 16986 net.cpp:156] Memory required for data: 1061809440
I0403 16:05:32.888327 16986 layer_factory.hpp:77] Creating layer inception_4c/relu_pool_proj
I0403 16:05:32.888353 16986 net.cpp:91] Creating Layer inception_4c/relu_pool_proj
I0403 16:05:32.888375 16986 net.cpp:425] inception_4c/relu_pool_proj <- inception_4c/pool_proj
I0403 16:05:32.888396 16986 net.cpp:386] inception_4c/relu_pool_proj -> inception_4c/pool_proj (in-place)
I0403 16:05:32.888625 16986 net.cpp:141] Setting up inception_4c/relu_pool_proj
I0403 16:05:32.888656 16986 net.cpp:148] Top shape: 24 64 14 14 (301056)
I0403 16:05:32.888674 16986 net.cpp:156] Memory required for data: 1063013664
I0403 16:05:32.888691 16986 layer_factory.hpp:77] Creating layer inception_4c/output
I0403 16:05:32.888716 16986 net.cpp:91] Creating Layer inception_4c/output
I0403 16:05:32.888736 16986 net.cpp:425] inception_4c/output <- inception_4c/1x1
I0403 16:05:32.888756 16986 net.cpp:425] inception_4c/output <- inception_4c/3x3
I0403 16:05:32.888775 16986 net.cpp:425] inception_4c/output <- inception_4c/5x5
I0403 16:05:32.888795 16986 net.cpp:425] inception_4c/output <- inception_4c/pool_proj
I0403 16:05:32.888818 16986 net.cpp:399] inception_4c/output -> inception_4c/output
I0403 16:05:32.888876 16986 net.cpp:141] Setting up inception_4c/output
I0403 16:05:32.888906 16986 net.cpp:148] Top shape: 24 512 14 14 (2408448)
I0403 16:05:32.888923 16986 net.cpp:156] Memory required for data: 1072647456
I0403 16:05:32.888942 16986 layer_factory.hpp:77] Creating layer inception_4c/output_inception_4c/output_0_split
I0403 16:05:32.888962 16986 net.cpp:91] Creating Layer inception_4c/output_inception_4c/output_0_split
I0403 16:05:32.888980 16986 net.cpp:425] inception_4c/output_inception_4c/output_0_split <- inception_4c/output
I0403 16:05:32.889005 16986 net.cpp:399] inception_4c/output_inception_4c/output_0_split -> inception_4c/output_inception_4c/output_0_split_0
I0403 16:05:32.889030 16986 net.cpp:399] inception_4c/output_inception_4c/output_0_split -> inception_4c/output_inception_4c/output_0_split_1
I0403 16:05:32.889056 16986 net.cpp:399] inception_4c/output_inception_4c/output_0_split -> inception_4c/output_inception_4c/output_0_split_2
I0403 16:05:32.889081 16986 net.cpp:399] inception_4c/output_inception_4c/output_0_split -> inception_4c/output_inception_4c/output_0_split_3
I0403 16:05:32.889189 16986 net.cpp:141] Setting up inception_4c/output_inception_4c/output_0_split
I0403 16:05:32.889221 16986 net.cpp:148] Top shape: 24 512 14 14 (2408448)
I0403 16:05:32.889242 16986 net.cpp:148] Top shape: 24 512 14 14 (2408448)
I0403 16:05:32.889262 16986 net.cpp:148] Top shape: 24 512 14 14 (2408448)
I0403 16:05:32.889281 16986 net.cpp:148] Top shape: 24 512 14 14 (2408448)
I0403 16:05:32.889298 16986 net.cpp:156] Memory required for data: 1111182624
I0403 16:05:32.889315 16986 layer_factory.hpp:77] Creating layer inception_4d/1x1
I0403 16:05:32.889343 16986 net.cpp:91] Creating Layer inception_4d/1x1
I0403 16:05:32.889364 16986 net.cpp:425] inception_4d/1x1 <- inception_4c/output_inception_4c/output_0_split_0
I0403 16:05:32.889387 16986 net.cpp:399] inception_4d/1x1 -> inception_4d/1x1
I0403 16:05:32.891086 16986 net.cpp:141] Setting up inception_4d/1x1
I0403 16:05:32.891125 16986 net.cpp:148] Top shape: 24 112 14 14 (526848)
I0403 16:05:32.891144 16986 net.cpp:156] Memory required for data: 1113290016
I0403 16:05:32.891166 16986 layer_factory.hpp:77] Creating layer inception_4d/relu_1x1
I0403 16:05:32.891188 16986 net.cpp:91] Creating Layer inception_4d/relu_1x1
I0403 16:05:32.891209 16986 net.cpp:425] inception_4d/relu_1x1 <- inception_4d/1x1
I0403 16:05:32.891237 16986 net.cpp:386] inception_4d/relu_1x1 -> inception_4d/1x1 (in-place)
I0403 16:05:32.891464 16986 net.cpp:141] Setting up inception_4d/relu_1x1
I0403 16:05:32.891495 16986 net.cpp:148] Top shape: 24 112 14 14 (526848)
I0403 16:05:32.891513 16986 net.cpp:156] Memory required for data: 1115397408
I0403 16:05:32.891531 16986 layer_factory.hpp:77] Creating layer inception_4d/3x3_reduce
I0403 16:05:32.891580 16986 net.cpp:91] Creating Layer inception_4d/3x3_reduce
I0403 16:05:32.891607 16986 net.cpp:425] inception_4d/3x3_reduce <- inception_4c/output_inception_4c/output_0_split_1
I0403 16:05:32.891633 16986 net.cpp:399] inception_4d/3x3_reduce -> inception_4d/3x3_reduce
I0403 16:05:32.893489 16986 net.cpp:141] Setting up inception_4d/3x3_reduce
I0403 16:05:32.893527 16986 net.cpp:148] Top shape: 24 144 14 14 (677376)
I0403 16:05:32.893550 16986 net.cpp:156] Memory required for data: 1118106912
I0403 16:05:32.893579 16986 layer_factory.hpp:77] Creating layer inception_4d/relu_3x3_reduce
I0403 16:05:32.893602 16986 net.cpp:91] Creating Layer inception_4d/relu_3x3_reduce
I0403 16:05:32.893622 16986 net.cpp:425] inception_4d/relu_3x3_reduce <- inception_4d/3x3_reduce
I0403 16:05:32.893645 16986 net.cpp:386] inception_4d/relu_3x3_reduce -> inception_4d/3x3_reduce (in-place)
I0403 16:05:32.893996 16986 net.cpp:141] Setting up inception_4d/relu_3x3_reduce
I0403 16:05:32.894032 16986 net.cpp:148] Top shape: 24 144 14 14 (677376)
I0403 16:05:32.894052 16986 net.cpp:156] Memory required for data: 1120816416
I0403 16:05:32.894070 16986 layer_factory.hpp:77] Creating layer inception_4d/3x3
I0403 16:05:32.894095 16986 net.cpp:91] Creating Layer inception_4d/3x3
I0403 16:05:32.894115 16986 net.cpp:425] inception_4d/3x3 <- inception_4d/3x3_reduce
I0403 16:05:32.894140 16986 net.cpp:399] inception_4d/3x3 -> inception_4d/3x3
I0403 16:05:32.899430 16986 net.cpp:141] Setting up inception_4d/3x3
I0403 16:05:32.899468 16986 net.cpp:148] Top shape: 24 288 14 14 (1354752)
I0403 16:05:32.899488 16986 net.cpp:156] Memory required for data: 1126235424
I0403 16:05:32.899512 16986 layer_factory.hpp:77] Creating layer inception_4d/relu_3x3
I0403 16:05:32.899534 16986 net.cpp:91] Creating Layer inception_4d/relu_3x3
I0403 16:05:32.899554 16986 net.cpp:425] inception_4d/relu_3x3 <- inception_4d/3x3
I0403 16:05:32.899587 16986 net.cpp:386] inception_4d/relu_3x3 -> inception_4d/3x3 (in-place)
I0403 16:05:32.899816 16986 net.cpp:141] Setting up inception_4d/relu_3x3
I0403 16:05:32.899848 16986 net.cpp:148] Top shape: 24 288 14 14 (1354752)
I0403 16:05:32.899868 16986 net.cpp:156] Memory required for data: 1131654432
I0403 16:05:32.899886 16986 layer_factory.hpp:77] Creating layer inception_4d/5x5_reduce
I0403 16:05:32.899912 16986 net.cpp:91] Creating Layer inception_4d/5x5_reduce
I0403 16:05:32.899935 16986 net.cpp:425] inception_4d/5x5_reduce <- inception_4c/output_inception_4c/output_0_split_2
I0403 16:05:32.899963 16986 net.cpp:399] inception_4d/5x5_reduce -> inception_4d/5x5_reduce
I0403 16:05:32.901381 16986 net.cpp:141] Setting up inception_4d/5x5_reduce
I0403 16:05:32.901419 16986 net.cpp:148] Top shape: 24 32 14 14 (150528)
I0403 16:05:32.901438 16986 net.cpp:156] Memory required for data: 1132256544
I0403 16:05:32.901460 16986 layer_factory.hpp:77] Creating layer inception_4d/relu_5x5_reduce
I0403 16:05:32.901484 16986 net.cpp:91] Creating Layer inception_4d/relu_5x5_reduce
I0403 16:05:32.901502 16986 net.cpp:425] inception_4d/relu_5x5_reduce <- inception_4d/5x5_reduce
I0403 16:05:32.901527 16986 net.cpp:386] inception_4d/relu_5x5_reduce -> inception_4d/5x5_reduce (in-place)
I0403 16:05:32.901767 16986 net.cpp:141] Setting up inception_4d/relu_5x5_reduce
I0403 16:05:32.901798 16986 net.cpp:148] Top shape: 24 32 14 14 (150528)
I0403 16:05:32.901816 16986 net.cpp:156] Memory required for data: 1132858656
I0403 16:05:32.901834 16986 layer_factory.hpp:77] Creating layer inception_4d/5x5
I0403 16:05:32.901860 16986 net.cpp:91] Creating Layer inception_4d/5x5
I0403 16:05:32.901881 16986 net.cpp:425] inception_4d/5x5 <- inception_4d/5x5_reduce
I0403 16:05:32.901907 16986 net.cpp:399] inception_4d/5x5 -> inception_4d/5x5
I0403 16:05:32.903713 16986 net.cpp:141] Setting up inception_4d/5x5
I0403 16:05:32.903748 16986 net.cpp:148] Top shape: 24 64 14 14 (301056)
I0403 16:05:32.903769 16986 net.cpp:156] Memory required for data: 1134062880
I0403 16:05:32.903791 16986 layer_factory.hpp:77] Creating layer inception_4d/relu_5x5
I0403 16:05:32.903834 16986 net.cpp:91] Creating Layer inception_4d/relu_5x5
I0403 16:05:32.903857 16986 net.cpp:425] inception_4d/relu_5x5 <- inception_4d/5x5
I0403 16:05:32.903878 16986 net.cpp:386] inception_4d/relu_5x5 -> inception_4d/5x5 (in-place)
I0403 16:05:32.904242 16986 net.cpp:141] Setting up inception_4d/relu_5x5
I0403 16:05:32.904274 16986 net.cpp:148] Top shape: 24 64 14 14 (301056)
I0403 16:05:32.904292 16986 net.cpp:156] Memory required for data: 1135267104
I0403 16:05:32.904310 16986 layer_factory.hpp:77] Creating layer inception_4d/pool
I0403 16:05:32.904335 16986 net.cpp:91] Creating Layer inception_4d/pool
I0403 16:05:32.904357 16986 net.cpp:425] inception_4d/pool <- inception_4c/output_inception_4c/output_0_split_3
I0403 16:05:32.904379 16986 net.cpp:399] inception_4d/pool -> inception_4d/pool
I0403 16:05:32.904467 16986 net.cpp:141] Setting up inception_4d/pool
I0403 16:05:32.904497 16986 net.cpp:148] Top shape: 24 512 14 14 (2408448)
I0403 16:05:32.904515 16986 net.cpp:156] Memory required for data: 1144900896
I0403 16:05:32.904532 16986 layer_factory.hpp:77] Creating layer inception_4d/pool_proj
I0403 16:05:32.904559 16986 net.cpp:91] Creating Layer inception_4d/pool_proj
I0403 16:05:32.904597 16986 net.cpp:425] inception_4d/pool_proj <- inception_4d/pool
I0403 16:05:32.904628 16986 net.cpp:399] inception_4d/pool_proj -> inception_4d/pool_proj
I0403 16:05:32.906798 16986 net.cpp:141] Setting up inception_4d/pool_proj
I0403 16:05:32.906833 16986 net.cpp:148] Top shape: 24 64 14 14 (301056)
I0403 16:05:32.906854 16986 net.cpp:156] Memory required for data: 1146105120
I0403 16:05:32.906877 16986 layer_factory.hpp:77] Creating layer inception_4d/relu_pool_proj
I0403 16:05:32.906898 16986 net.cpp:91] Creating Layer inception_4d/relu_pool_proj
I0403 16:05:32.906919 16986 net.cpp:425] inception_4d/relu_pool_proj <- inception_4d/pool_proj
I0403 16:05:32.906942 16986 net.cpp:386] inception_4d/relu_pool_proj -> inception_4d/pool_proj (in-place)
I0403 16:05:32.907169 16986 net.cpp:141] Setting up inception_4d/relu_pool_proj
I0403 16:05:32.907201 16986 net.cpp:148] Top shape: 24 64 14 14 (301056)
I0403 16:05:32.907218 16986 net.cpp:156] Memory required for data: 1147309344
I0403 16:05:32.907237 16986 layer_factory.hpp:77] Creating layer inception_4d/output
I0403 16:05:32.907258 16986 net.cpp:91] Creating Layer inception_4d/output
I0403 16:05:32.907277 16986 net.cpp:425] inception_4d/output <- inception_4d/1x1
I0403 16:05:32.907301 16986 net.cpp:425] inception_4d/output <- inception_4d/3x3
I0403 16:05:32.907322 16986 net.cpp:425] inception_4d/output <- inception_4d/5x5
I0403 16:05:32.907343 16986 net.cpp:425] inception_4d/output <- inception_4d/pool_proj
I0403 16:05:32.907364 16986 net.cpp:399] inception_4d/output -> inception_4d/output
I0403 16:05:32.907423 16986 net.cpp:141] Setting up inception_4d/output
I0403 16:05:32.907454 16986 net.cpp:148] Top shape: 24 528 14 14 (2483712)
I0403 16:05:32.907474 16986 net.cpp:156] Memory required for data: 1157244192
I0403 16:05:32.907491 16986 layer_factory.hpp:77] Creating layer inception_4d/output_inception_4d/output_0_split
I0403 16:05:32.907513 16986 net.cpp:91] Creating Layer inception_4d/output_inception_4d/output_0_split
I0403 16:05:32.907532 16986 net.cpp:425] inception_4d/output_inception_4d/output_0_split <- inception_4d/output
I0403 16:05:32.907557 16986 net.cpp:399] inception_4d/output_inception_4d/output_0_split -> inception_4d/output_inception_4d/output_0_split_0
I0403 16:05:32.907590 16986 net.cpp:399] inception_4d/output_inception_4d/output_0_split -> inception_4d/output_inception_4d/output_0_split_1
I0403 16:05:32.907619 16986 net.cpp:399] inception_4d/output_inception_4d/output_0_split -> inception_4d/output_inception_4d/output_0_split_2
I0403 16:05:32.907645 16986 net.cpp:399] inception_4d/output_inception_4d/output_0_split -> inception_4d/output_inception_4d/output_0_split_3
I0403 16:05:32.907670 16986 net.cpp:399] inception_4d/output_inception_4d/output_0_split -> inception_4d/output_inception_4d/output_0_split_4
I0403 16:05:32.907800 16986 net.cpp:141] Setting up inception_4d/output_inception_4d/output_0_split
I0403 16:05:32.907845 16986 net.cpp:148] Top shape: 24 528 14 14 (2483712)
I0403 16:05:32.907868 16986 net.cpp:148] Top shape: 24 528 14 14 (2483712)
I0403 16:05:32.907888 16986 net.cpp:148] Top shape: 24 528 14 14 (2483712)
I0403 16:05:32.907907 16986 net.cpp:148] Top shape: 24 528 14 14 (2483712)
I0403 16:05:32.907927 16986 net.cpp:148] Top shape: 24 528 14 14 (2483712)
I0403 16:05:32.907944 16986 net.cpp:156] Memory required for data: 1206918432
I0403 16:05:32.907963 16986 layer_factory.hpp:77] Creating layer loss2/ave_pool
I0403 16:05:32.907984 16986 net.cpp:91] Creating Layer loss2/ave_pool
I0403 16:05:32.908004 16986 net.cpp:425] loss2/ave_pool <- inception_4d/output_inception_4d/output_0_split_0
I0403 16:05:32.908028 16986 net.cpp:399] loss2/ave_pool -> loss2/ave_pool
I0403 16:05:32.908409 16986 net.cpp:141] Setting up loss2/ave_pool
I0403 16:05:32.908442 16986 net.cpp:148] Top shape: 24 528 4 4 (202752)
I0403 16:05:32.908460 16986 net.cpp:156] Memory required for data: 1207729440
I0403 16:05:32.908478 16986 layer_factory.hpp:77] Creating layer loss2/conv
I0403 16:05:32.908506 16986 net.cpp:91] Creating Layer loss2/conv
I0403 16:05:32.908529 16986 net.cpp:425] loss2/conv <- loss2/ave_pool
I0403 16:05:32.908555 16986 net.cpp:399] loss2/conv -> loss2/conv
I0403 16:05:32.914777 16986 net.cpp:141] Setting up loss2/conv
I0403 16:05:32.914835 16986 net.cpp:148] Top shape: 24 128 4 4 (49152)
I0403 16:05:32.914865 16986 net.cpp:156] Memory required for data: 1207926048
I0403 16:05:32.914897 16986 layer_factory.hpp:77] Creating layer loss2/relu_conv
I0403 16:05:32.914933 16986 net.cpp:91] Creating Layer loss2/relu_conv
I0403 16:05:32.914963 16986 net.cpp:425] loss2/relu_conv <- loss2/conv
I0403 16:05:32.914994 16986 net.cpp:386] loss2/relu_conv -> loss2/conv (in-place)
I0403 16:05:32.915494 16986 net.cpp:141] Setting up loss2/relu_conv
I0403 16:05:32.915541 16986 net.cpp:148] Top shape: 24 128 4 4 (49152)
I0403 16:05:32.915577 16986 net.cpp:156] Memory required for data: 1208122656
I0403 16:05:32.915606 16986 layer_factory.hpp:77] Creating layer loss2/fc
I0403 16:05:32.915643 16986 net.cpp:91] Creating Layer loss2/fc
I0403 16:05:32.915673 16986 net.cpp:425] loss2/fc <- loss2/conv
I0403 16:05:32.915706 16986 net.cpp:399] loss2/fc -> loss2/fc
I0403 16:05:32.940165 16986 net.cpp:141] Setting up loss2/fc
I0403 16:05:32.940206 16986 net.cpp:148] Top shape: 24 1024 (24576)
I0403 16:05:32.940227 16986 net.cpp:156] Memory required for data: 1208220960
I0403 16:05:32.940248 16986 layer_factory.hpp:77] Creating layer loss2/relu_fc
I0403 16:05:32.940273 16986 net.cpp:91] Creating Layer loss2/relu_fc
I0403 16:05:32.940292 16986 net.cpp:425] loss2/relu_fc <- loss2/fc
I0403 16:05:32.940317 16986 net.cpp:386] loss2/relu_fc -> loss2/fc (in-place)
I0403 16:05:32.940687 16986 net.cpp:141] Setting up loss2/relu_fc
I0403 16:05:32.940721 16986 net.cpp:148] Top shape: 24 1024 (24576)
I0403 16:05:32.940739 16986 net.cpp:156] Memory required for data: 1208319264
I0403 16:05:32.940757 16986 layer_factory.hpp:77] Creating layer loss2/drop_fc
I0403 16:05:32.940778 16986 net.cpp:91] Creating Layer loss2/drop_fc
I0403 16:05:32.940798 16986 net.cpp:425] loss2/drop_fc <- loss2/fc
I0403 16:05:32.940824 16986 net.cpp:386] loss2/drop_fc -> loss2/fc (in-place)
I0403 16:05:32.940884 16986 net.cpp:141] Setting up loss2/drop_fc
I0403 16:05:32.940913 16986 net.cpp:148] Top shape: 24 1024 (24576)
I0403 16:05:32.940932 16986 net.cpp:156] Memory required for data: 1208417568
I0403 16:05:32.940949 16986 layer_factory.hpp:77] Creating layer loss2/classifier_plantvillage
I0403 16:05:32.940976 16986 net.cpp:91] Creating Layer loss2/classifier_plantvillage
I0403 16:05:32.940997 16986 net.cpp:425] loss2/classifier_plantvillage <- loss2/fc
I0403 16:05:32.941030 16986 net.cpp:399] loss2/classifier_plantvillage -> loss2/classifier_plantvillage
I0403 16:05:32.941524 16986 net.cpp:141] Setting up loss2/classifier_plantvillage
I0403 16:05:32.941565 16986 net.cpp:148] Top shape: 24 38 (912)
I0403 16:05:32.941609 16986 net.cpp:156] Memory required for data: 1208421216
I0403 16:05:32.941633 16986 layer_factory.hpp:77] Creating layer loss2/classifier_plantvillage_loss2/classifier_plantvillage_0_split
I0403 16:05:32.941656 16986 net.cpp:91] Creating Layer loss2/classifier_plantvillage_loss2/classifier_plantvillage_0_split
I0403 16:05:32.941674 16986 net.cpp:425] loss2/classifier_plantvillage_loss2/classifier_plantvillage_0_split <- loss2/classifier_plantvillage
I0403 16:05:32.941696 16986 net.cpp:399] loss2/classifier_plantvillage_loss2/classifier_plantvillage_0_split -> loss2/classifier_plantvillage_loss2/classifier_plantvillage_0_split_0
I0403 16:05:32.941720 16986 net.cpp:399] loss2/classifier_plantvillage_loss2/classifier_plantvillage_0_split -> loss2/classifier_plantvillage_loss2/classifier_plantvillage_0_split_1
I0403 16:05:32.941748 16986 net.cpp:399] loss2/classifier_plantvillage_loss2/classifier_plantvillage_0_split -> loss2/classifier_plantvillage_loss2/classifier_plantvillage_0_split_2
I0403 16:05:32.941845 16986 net.cpp:141] Setting up loss2/classifier_plantvillage_loss2/classifier_plantvillage_0_split
I0403 16:05:32.941874 16986 net.cpp:148] Top shape: 24 38 (912)
I0403 16:05:32.941895 16986 net.cpp:148] Top shape: 24 38 (912)
I0403 16:05:32.941913 16986 net.cpp:148] Top shape: 24 38 (912)
I0403 16:05:32.941929 16986 net.cpp:156] Memory required for data: 1208432160
I0403 16:05:32.941947 16986 layer_factory.hpp:77] Creating layer inception_4e/1x1
I0403 16:05:32.941972 16986 net.cpp:91] Creating Layer inception_4e/1x1
I0403 16:05:32.941993 16986 net.cpp:425] inception_4e/1x1 <- inception_4d/output_inception_4d/output_0_split_1
I0403 16:05:32.942018 16986 net.cpp:399] inception_4e/1x1 -> inception_4e/1x1
I0403 16:05:32.944285 16986 net.cpp:141] Setting up inception_4e/1x1
I0403 16:05:32.944330 16986 net.cpp:148] Top shape: 24 256 14 14 (1204224)
I0403 16:05:32.944350 16986 net.cpp:156] Memory required for data: 1213249056
I0403 16:05:32.944372 16986 layer_factory.hpp:77] Creating layer inception_4e/relu_1x1
I0403 16:05:32.944397 16986 net.cpp:91] Creating Layer inception_4e/relu_1x1
I0403 16:05:32.944419 16986 net.cpp:425] inception_4e/relu_1x1 <- inception_4e/1x1
I0403 16:05:32.944440 16986 net.cpp:386] inception_4e/relu_1x1 -> inception_4e/1x1 (in-place)
I0403 16:05:32.944825 16986 net.cpp:141] Setting up inception_4e/relu_1x1
I0403 16:05:32.944859 16986 net.cpp:148] Top shape: 24 256 14 14 (1204224)
I0403 16:05:32.944876 16986 net.cpp:156] Memory required for data: 1218065952
I0403 16:05:32.944895 16986 layer_factory.hpp:77] Creating layer inception_4e/3x3_reduce
I0403 16:05:32.944926 16986 net.cpp:91] Creating Layer inception_4e/3x3_reduce
I0403 16:05:32.944947 16986 net.cpp:425] inception_4e/3x3_reduce <- inception_4d/output_inception_4d/output_0_split_2
I0403 16:05:32.944972 16986 net.cpp:399] inception_4e/3x3_reduce -> inception_4e/3x3_reduce
I0403 16:05:32.947602 16986 net.cpp:141] Setting up inception_4e/3x3_reduce
I0403 16:05:32.947638 16986 net.cpp:148] Top shape: 24 160 14 14 (752640)
I0403 16:05:32.947659 16986 net.cpp:156] Memory required for data: 1221076512
I0403 16:05:32.947681 16986 layer_factory.hpp:77] Creating layer inception_4e/relu_3x3_reduce
I0403 16:05:32.947706 16986 net.cpp:91] Creating Layer inception_4e/relu_3x3_reduce
I0403 16:05:32.947727 16986 net.cpp:425] inception_4e/relu_3x3_reduce <- inception_4e/3x3_reduce
I0403 16:05:32.947749 16986 net.cpp:386] inception_4e/relu_3x3_reduce -> inception_4e/3x3_reduce (in-place)
I0403 16:05:32.947983 16986 net.cpp:141] Setting up inception_4e/relu_3x3_reduce
I0403 16:05:32.948014 16986 net.cpp:148] Top shape: 24 160 14 14 (752640)
I0403 16:05:32.948032 16986 net.cpp:156] Memory required for data: 1224087072
I0403 16:05:32.948050 16986 layer_factory.hpp:77] Creating layer inception_4e/3x3
I0403 16:05:32.948079 16986 net.cpp:91] Creating Layer inception_4e/3x3
I0403 16:05:32.948101 16986 net.cpp:425] inception_4e/3x3 <- inception_4e/3x3_reduce
I0403 16:05:32.948122 16986 net.cpp:399] inception_4e/3x3 -> inception_4e/3x3
I0403 16:05:32.954313 16986 net.cpp:141] Setting up inception_4e/3x3
I0403 16:05:32.954365 16986 net.cpp:148] Top shape: 24 320 14 14 (1505280)
I0403 16:05:32.954387 16986 net.cpp:156] Memory required for data: 1230108192
I0403 16:05:32.954411 16986 layer_factory.hpp:77] Creating layer inception_4e/relu_3x3
I0403 16:05:32.954437 16986 net.cpp:91] Creating Layer inception_4e/relu_3x3
I0403 16:05:32.954457 16986 net.cpp:425] inception_4e/relu_3x3 <- inception_4e/3x3
I0403 16:05:32.954478 16986 net.cpp:386] inception_4e/relu_3x3 -> inception_4e/3x3 (in-place)
I0403 16:05:32.954861 16986 net.cpp:141] Setting up inception_4e/relu_3x3
I0403 16:05:32.954898 16986 net.cpp:148] Top shape: 24 320 14 14 (1505280)
I0403 16:05:32.954917 16986 net.cpp:156] Memory required for data: 1236129312
I0403 16:05:32.954936 16986 layer_factory.hpp:77] Creating layer inception_4e/5x5_reduce
I0403 16:05:32.954964 16986 net.cpp:91] Creating Layer inception_4e/5x5_reduce
I0403 16:05:32.954988 16986 net.cpp:425] inception_4e/5x5_reduce <- inception_4d/output_inception_4d/output_0_split_3
I0403 16:05:32.955011 16986 net.cpp:399] inception_4e/5x5_reduce -> inception_4e/5x5_reduce
I0403 16:05:32.956341 16986 net.cpp:141] Setting up inception_4e/5x5_reduce
I0403 16:05:32.956375 16986 net.cpp:148] Top shape: 24 32 14 14 (150528)
I0403 16:05:32.956394 16986 net.cpp:156] Memory required for data: 1236731424
I0403 16:05:32.956416 16986 layer_factory.hpp:77] Creating layer inception_4e/relu_5x5_reduce
I0403 16:05:32.956441 16986 net.cpp:91] Creating Layer inception_4e/relu_5x5_reduce
I0403 16:05:32.956461 16986 net.cpp:425] inception_4e/relu_5x5_reduce <- inception_4e/5x5_reduce
I0403 16:05:32.956482 16986 net.cpp:386] inception_4e/relu_5x5_reduce -> inception_4e/5x5_reduce (in-place)
I0403 16:05:32.956853 16986 net.cpp:141] Setting up inception_4e/relu_5x5_reduce
I0403 16:05:32.956887 16986 net.cpp:148] Top shape: 24 32 14 14 (150528)
I0403 16:05:32.956905 16986 net.cpp:156] Memory required for data: 1237333536
I0403 16:05:32.956923 16986 layer_factory.hpp:77] Creating layer inception_4e/5x5
I0403 16:05:32.956967 16986 net.cpp:91] Creating Layer inception_4e/5x5
I0403 16:05:32.956991 16986 net.cpp:425] inception_4e/5x5 <- inception_4e/5x5_reduce
I0403 16:05:32.957015 16986 net.cpp:399] inception_4e/5x5 -> inception_4e/5x5
I0403 16:05:32.959295 16986 net.cpp:141] Setting up inception_4e/5x5
I0403 16:05:32.959331 16986 net.cpp:148] Top shape: 24 128 14 14 (602112)
I0403 16:05:32.959349 16986 net.cpp:156] Memory required for data: 1239741984
I0403 16:05:32.959372 16986 layer_factory.hpp:77] Creating layer inception_4e/relu_5x5
I0403 16:05:32.959395 16986 net.cpp:91] Creating Layer inception_4e/relu_5x5
I0403 16:05:32.959415 16986 net.cpp:425] inception_4e/relu_5x5 <- inception_4e/5x5
I0403 16:05:32.959439 16986 net.cpp:386] inception_4e/relu_5x5 -> inception_4e/5x5 (in-place)
I0403 16:05:32.959692 16986 net.cpp:141] Setting up inception_4e/relu_5x5
I0403 16:05:32.959723 16986 net.cpp:148] Top shape: 24 128 14 14 (602112)
I0403 16:05:32.959743 16986 net.cpp:156] Memory required for data: 1242150432
I0403 16:05:32.959760 16986 layer_factory.hpp:77] Creating layer inception_4e/pool
I0403 16:05:32.959785 16986 net.cpp:91] Creating Layer inception_4e/pool
I0403 16:05:32.959807 16986 net.cpp:425] inception_4e/pool <- inception_4d/output_inception_4d/output_0_split_4
I0403 16:05:32.959830 16986 net.cpp:399] inception_4e/pool -> inception_4e/pool
I0403 16:05:32.959916 16986 net.cpp:141] Setting up inception_4e/pool
I0403 16:05:32.959946 16986 net.cpp:148] Top shape: 24 528 14 14 (2483712)
I0403 16:05:32.959964 16986 net.cpp:156] Memory required for data: 1252085280
I0403 16:05:32.959981 16986 layer_factory.hpp:77] Creating layer inception_4e/pool_proj
I0403 16:05:32.960007 16986 net.cpp:91] Creating Layer inception_4e/pool_proj
I0403 16:05:32.960029 16986 net.cpp:425] inception_4e/pool_proj <- inception_4e/pool
I0403 16:05:32.960054 16986 net.cpp:399] inception_4e/pool_proj -> inception_4e/pool_proj
I0403 16:05:32.961921 16986 net.cpp:141] Setting up inception_4e/pool_proj
I0403 16:05:32.961971 16986 net.cpp:148] Top shape: 24 128 14 14 (602112)
I0403 16:05:32.961990 16986 net.cpp:156] Memory required for data: 1254493728
I0403 16:05:32.962013 16986 layer_factory.hpp:77] Creating layer inception_4e/relu_pool_proj
I0403 16:05:32.962034 16986 net.cpp:91] Creating Layer inception_4e/relu_pool_proj
I0403 16:05:32.962054 16986 net.cpp:425] inception_4e/relu_pool_proj <- inception_4e/pool_proj
I0403 16:05:32.962079 16986 net.cpp:386] inception_4e/relu_pool_proj -> inception_4e/pool_proj (in-place)
I0403 16:05:32.962446 16986 net.cpp:141] Setting up inception_4e/relu_pool_proj
I0403 16:05:32.962479 16986 net.cpp:148] Top shape: 24 128 14 14 (602112)
I0403 16:05:32.962497 16986 net.cpp:156] Memory required for data: 1256902176
I0403 16:05:32.962517 16986 layer_factory.hpp:77] Creating layer inception_4e/output
I0403 16:05:32.962538 16986 net.cpp:91] Creating Layer inception_4e/output
I0403 16:05:32.962556 16986 net.cpp:425] inception_4e/output <- inception_4e/1x1
I0403 16:05:32.962584 16986 net.cpp:425] inception_4e/output <- inception_4e/3x3
I0403 16:05:32.962604 16986 net.cpp:425] inception_4e/output <- inception_4e/5x5
I0403 16:05:32.962625 16986 net.cpp:425] inception_4e/output <- inception_4e/pool_proj
I0403 16:05:32.962649 16986 net.cpp:399] inception_4e/output -> inception_4e/output
I0403 16:05:32.962712 16986 net.cpp:141] Setting up inception_4e/output
I0403 16:05:32.962743 16986 net.cpp:148] Top shape: 24 832 14 14 (3913728)
I0403 16:05:32.962764 16986 net.cpp:156] Memory required for data: 1272557088
I0403 16:05:32.962781 16986 layer_factory.hpp:77] Creating layer pool4/3x3_s2
I0403 16:05:32.962802 16986 net.cpp:91] Creating Layer pool4/3x3_s2
I0403 16:05:32.962822 16986 net.cpp:425] pool4/3x3_s2 <- inception_4e/output
I0403 16:05:32.962843 16986 net.cpp:399] pool4/3x3_s2 -> pool4/3x3_s2
I0403 16:05:32.962929 16986 net.cpp:141] Setting up pool4/3x3_s2
I0403 16:05:32.962957 16986 net.cpp:148] Top shape: 24 832 7 7 (978432)
I0403 16:05:32.962976 16986 net.cpp:156] Memory required for data: 1276470816
I0403 16:05:32.962993 16986 layer_factory.hpp:77] Creating layer pool4/3x3_s2_pool4/3x3_s2_0_split
I0403 16:05:32.963016 16986 net.cpp:91] Creating Layer pool4/3x3_s2_pool4/3x3_s2_0_split
I0403 16:05:32.963034 16986 net.cpp:425] pool4/3x3_s2_pool4/3x3_s2_0_split <- pool4/3x3_s2
I0403 16:05:32.963058 16986 net.cpp:399] pool4/3x3_s2_pool4/3x3_s2_0_split -> pool4/3x3_s2_pool4/3x3_s2_0_split_0
I0403 16:05:32.963083 16986 net.cpp:399] pool4/3x3_s2_pool4/3x3_s2_0_split -> pool4/3x3_s2_pool4/3x3_s2_0_split_1
I0403 16:05:32.963109 16986 net.cpp:399] pool4/3x3_s2_pool4/3x3_s2_0_split -> pool4/3x3_s2_pool4/3x3_s2_0_split_2
I0403 16:05:32.963134 16986 net.cpp:399] pool4/3x3_s2_pool4/3x3_s2_0_split -> pool4/3x3_s2_pool4/3x3_s2_0_split_3
I0403 16:05:32.963251 16986 net.cpp:141] Setting up pool4/3x3_s2_pool4/3x3_s2_0_split
I0403 16:05:32.963284 16986 net.cpp:148] Top shape: 24 832 7 7 (978432)
I0403 16:05:32.963302 16986 net.cpp:148] Top shape: 24 832 7 7 (978432)
I0403 16:05:32.963321 16986 net.cpp:148] Top shape: 24 832 7 7 (978432)
I0403 16:05:32.963340 16986 net.cpp:148] Top shape: 24 832 7 7 (978432)
I0403 16:05:32.963357 16986 net.cpp:156] Memory required for data: 1292125728
I0403 16:05:32.963376 16986 layer_factory.hpp:77] Creating layer inception_5a/1x1
I0403 16:05:32.963402 16986 net.cpp:91] Creating Layer inception_5a/1x1
I0403 16:05:32.963423 16986 net.cpp:425] inception_5a/1x1 <- pool4/3x3_s2_pool4/3x3_s2_0_split_0
I0403 16:05:32.963449 16986 net.cpp:399] inception_5a/1x1 -> inception_5a/1x1
I0403 16:05:32.966975 16986 net.cpp:141] Setting up inception_5a/1x1
I0403 16:05:32.967013 16986 net.cpp:148] Top shape: 24 256 7 7 (301056)
I0403 16:05:32.967033 16986 net.cpp:156] Memory required for data: 1293329952
I0403 16:05:32.967056 16986 layer_factory.hpp:77] Creating layer inception_5a/relu_1x1
I0403 16:05:32.967080 16986 net.cpp:91] Creating Layer inception_5a/relu_1x1
I0403 16:05:32.967102 16986 net.cpp:425] inception_5a/relu_1x1 <- inception_5a/1x1
I0403 16:05:32.967123 16986 net.cpp:386] inception_5a/relu_1x1 -> inception_5a/1x1 (in-place)
I0403 16:05:32.967516 16986 net.cpp:141] Setting up inception_5a/relu_1x1
I0403 16:05:32.967550 16986 net.cpp:148] Top shape: 24 256 7 7 (301056)
I0403 16:05:32.967583 16986 net.cpp:156] Memory required for data: 1294534176
I0403 16:05:32.967603 16986 layer_factory.hpp:77] Creating layer inception_5a/3x3_reduce
I0403 16:05:32.967631 16986 net.cpp:91] Creating Layer inception_5a/3x3_reduce
I0403 16:05:32.967653 16986 net.cpp:425] inception_5a/3x3_reduce <- pool4/3x3_s2_pool4/3x3_s2_0_split_1
I0403 16:05:32.967679 16986 net.cpp:399] inception_5a/3x3_reduce -> inception_5a/3x3_reduce
I0403 16:05:32.970693 16986 net.cpp:141] Setting up inception_5a/3x3_reduce
I0403 16:05:32.970733 16986 net.cpp:148] Top shape: 24 160 7 7 (188160)
I0403 16:05:32.970753 16986 net.cpp:156] Memory required for data: 1295286816
I0403 16:05:32.970777 16986 layer_factory.hpp:77] Creating layer inception_5a/relu_3x3_reduce
I0403 16:05:32.970798 16986 net.cpp:91] Creating Layer inception_5a/relu_3x3_reduce
I0403 16:05:32.970818 16986 net.cpp:425] inception_5a/relu_3x3_reduce <- inception_5a/3x3_reduce
I0403 16:05:32.970839 16986 net.cpp:386] inception_5a/relu_3x3_reduce -> inception_5a/3x3_reduce (in-place)
I0403 16:05:32.971073 16986 net.cpp:141] Setting up inception_5a/relu_3x3_reduce
I0403 16:05:32.971104 16986 net.cpp:148] Top shape: 24 160 7 7 (188160)
I0403 16:05:32.971122 16986 net.cpp:156] Memory required for data: 1296039456
I0403 16:05:32.971139 16986 layer_factory.hpp:77] Creating layer inception_5a/3x3
I0403 16:05:32.971166 16986 net.cpp:91] Creating Layer inception_5a/3x3
I0403 16:05:32.971187 16986 net.cpp:425] inception_5a/3x3 <- inception_5a/3x3_reduce
I0403 16:05:32.971215 16986 net.cpp:399] inception_5a/3x3 -> inception_5a/3x3
I0403 16:05:32.977493 16986 net.cpp:141] Setting up inception_5a/3x3
I0403 16:05:32.977530 16986 net.cpp:148] Top shape: 24 320 7 7 (376320)
I0403 16:05:32.977550 16986 net.cpp:156] Memory required for data: 1297544736
I0403 16:05:32.977583 16986 layer_factory.hpp:77] Creating layer inception_5a/relu_3x3
I0403 16:05:32.977607 16986 net.cpp:91] Creating Layer inception_5a/relu_3x3
I0403 16:05:32.977627 16986 net.cpp:425] inception_5a/relu_3x3 <- inception_5a/3x3
I0403 16:05:32.977653 16986 net.cpp:386] inception_5a/relu_3x3 -> inception_5a/3x3 (in-place)
I0403 16:05:32.978013 16986 net.cpp:141] Setting up inception_5a/relu_3x3
I0403 16:05:32.978045 16986 net.cpp:148] Top shape: 24 320 7 7 (376320)
I0403 16:05:32.978063 16986 net.cpp:156] Memory required for data: 1299050016
I0403 16:05:32.978081 16986 layer_factory.hpp:77] Creating layer inception_5a/5x5_reduce
I0403 16:05:32.978109 16986 net.cpp:91] Creating Layer inception_5a/5x5_reduce
I0403 16:05:32.978130 16986 net.cpp:425] inception_5a/5x5_reduce <- pool4/3x3_s2_pool4/3x3_s2_0_split_2
I0403 16:05:32.978157 16986 net.cpp:399] inception_5a/5x5_reduce -> inception_5a/5x5_reduce
I0403 16:05:32.979627 16986 net.cpp:141] Setting up inception_5a/5x5_reduce
I0403 16:05:32.979665 16986 net.cpp:148] Top shape: 24 32 7 7 (37632)
I0403 16:05:32.979686 16986 net.cpp:156] Memory required for data: 1299200544
I0403 16:05:32.979707 16986 layer_factory.hpp:77] Creating layer inception_5a/relu_5x5_reduce
I0403 16:05:32.979730 16986 net.cpp:91] Creating Layer inception_5a/relu_5x5_reduce
I0403 16:05:32.979750 16986 net.cpp:425] inception_5a/relu_5x5_reduce <- inception_5a/5x5_reduce
I0403 16:05:32.979770 16986 net.cpp:386] inception_5a/relu_5x5_reduce -> inception_5a/5x5_reduce (in-place)
I0403 16:05:32.980139 16986 net.cpp:141] Setting up inception_5a/relu_5x5_reduce
I0403 16:05:32.980170 16986 net.cpp:148] Top shape: 24 32 7 7 (37632)
I0403 16:05:32.980188 16986 net.cpp:156] Memory required for data: 1299351072
I0403 16:05:32.980207 16986 layer_factory.hpp:77] Creating layer inception_5a/5x5
I0403 16:05:32.980234 16986 net.cpp:91] Creating Layer inception_5a/5x5
I0403 16:05:32.980257 16986 net.cpp:425] inception_5a/5x5 <- inception_5a/5x5_reduce
I0403 16:05:32.980283 16986 net.cpp:399] inception_5a/5x5 -> inception_5a/5x5
I0403 16:05:32.982414 16986 net.cpp:141] Setting up inception_5a/5x5
I0403 16:05:32.982463 16986 net.cpp:148] Top shape: 24 128 7 7 (150528)
I0403 16:05:32.982484 16986 net.cpp:156] Memory required for data: 1299953184
I0403 16:05:32.982507 16986 layer_factory.hpp:77] Creating layer inception_5a/relu_5x5
I0403 16:05:32.982529 16986 net.cpp:91] Creating Layer inception_5a/relu_5x5
I0403 16:05:32.982549 16986 net.cpp:425] inception_5a/relu_5x5 <- inception_5a/5x5
I0403 16:05:32.982578 16986 net.cpp:386] inception_5a/relu_5x5 -> inception_5a/5x5 (in-place)
I0403 16:05:32.982820 16986 net.cpp:141] Setting up inception_5a/relu_5x5
I0403 16:05:32.982851 16986 net.cpp:148] Top shape: 24 128 7 7 (150528)
I0403 16:05:32.982869 16986 net.cpp:156] Memory required for data: 1300555296
I0403 16:05:32.982887 16986 layer_factory.hpp:77] Creating layer inception_5a/pool
I0403 16:05:32.982911 16986 net.cpp:91] Creating Layer inception_5a/pool
I0403 16:05:32.982931 16986 net.cpp:425] inception_5a/pool <- pool4/3x3_s2_pool4/3x3_s2_0_split_3
I0403 16:05:32.982954 16986 net.cpp:399] inception_5a/pool -> inception_5a/pool
I0403 16:05:32.983042 16986 net.cpp:141] Setting up inception_5a/pool
I0403 16:05:32.983072 16986 net.cpp:148] Top shape: 24 832 7 7 (978432)
I0403 16:05:32.983089 16986 net.cpp:156] Memory required for data: 1304469024
I0403 16:05:32.983108 16986 layer_factory.hpp:77] Creating layer inception_5a/pool_proj
I0403 16:05:32.983134 16986 net.cpp:91] Creating Layer inception_5a/pool_proj
I0403 16:05:32.983155 16986 net.cpp:425] inception_5a/pool_proj <- inception_5a/pool
I0403 16:05:32.983180 16986 net.cpp:399] inception_5a/pool_proj -> inception_5a/pool_proj
I0403 16:05:32.986018 16986 net.cpp:141] Setting up inception_5a/pool_proj
I0403 16:05:32.986060 16986 net.cpp:148] Top shape: 24 128 7 7 (150528)
I0403 16:05:32.986081 16986 net.cpp:156] Memory required for data: 1305071136
I0403 16:05:32.986104 16986 layer_factory.hpp:77] Creating layer inception_5a/relu_pool_proj
I0403 16:05:32.986126 16986 net.cpp:91] Creating Layer inception_5a/relu_pool_proj
I0403 16:05:32.986146 16986 net.cpp:425] inception_5a/relu_pool_proj <- inception_5a/pool_proj
I0403 16:05:32.986171 16986 net.cpp:386] inception_5a/relu_pool_proj -> inception_5a/pool_proj (in-place)
I0403 16:05:32.986532 16986 net.cpp:141] Setting up inception_5a/relu_pool_proj
I0403 16:05:32.986572 16986 net.cpp:148] Top shape: 24 128 7 7 (150528)
I0403 16:05:32.986593 16986 net.cpp:156] Memory required for data: 1305673248
I0403 16:05:32.986613 16986 layer_factory.hpp:77] Creating layer inception_5a/output
I0403 16:05:32.986634 16986 net.cpp:91] Creating Layer inception_5a/output
I0403 16:05:32.986652 16986 net.cpp:425] inception_5a/output <- inception_5a/1x1
I0403 16:05:32.986673 16986 net.cpp:425] inception_5a/output <- inception_5a/3x3
I0403 16:05:32.986692 16986 net.cpp:425] inception_5a/output <- inception_5a/5x5
I0403 16:05:32.986711 16986 net.cpp:425] inception_5a/output <- inception_5a/pool_proj
I0403 16:05:32.986737 16986 net.cpp:399] inception_5a/output -> inception_5a/output
I0403 16:05:32.986799 16986 net.cpp:141] Setting up inception_5a/output
I0403 16:05:32.986829 16986 net.cpp:148] Top shape: 24 832 7 7 (978432)
I0403 16:05:32.986846 16986 net.cpp:156] Memory required for data: 1309586976
I0403 16:05:32.986865 16986 layer_factory.hpp:77] Creating layer inception_5a/output_inception_5a/output_0_split
I0403 16:05:32.986888 16986 net.cpp:91] Creating Layer inception_5a/output_inception_5a/output_0_split
I0403 16:05:32.986908 16986 net.cpp:425] inception_5a/output_inception_5a/output_0_split <- inception_5a/output
I0403 16:05:32.986929 16986 net.cpp:399] inception_5a/output_inception_5a/output_0_split -> inception_5a/output_inception_5a/output_0_split_0
I0403 16:05:32.986955 16986 net.cpp:399] inception_5a/output_inception_5a/output_0_split -> inception_5a/output_inception_5a/output_0_split_1
I0403 16:05:32.986987 16986 net.cpp:399] inception_5a/output_inception_5a/output_0_split -> inception_5a/output_inception_5a/output_0_split_2
I0403 16:05:32.987013 16986 net.cpp:399] inception_5a/output_inception_5a/output_0_split -> inception_5a/output_inception_5a/output_0_split_3
I0403 16:05:32.987152 16986 net.cpp:141] Setting up inception_5a/output_inception_5a/output_0_split
I0403 16:05:32.987181 16986 net.cpp:148] Top shape: 24 832 7 7 (978432)
I0403 16:05:32.987201 16986 net.cpp:148] Top shape: 24 832 7 7 (978432)
I0403 16:05:32.987221 16986 net.cpp:148] Top shape: 24 832 7 7 (978432)
I0403 16:05:32.987239 16986 net.cpp:148] Top shape: 24 832 7 7 (978432)
I0403 16:05:32.987257 16986 net.cpp:156] Memory required for data: 1325241888
I0403 16:05:32.987278 16986 layer_factory.hpp:77] Creating layer inception_5b/1x1
I0403 16:05:32.987305 16986 net.cpp:91] Creating Layer inception_5b/1x1
I0403 16:05:32.987326 16986 net.cpp:425] inception_5b/1x1 <- inception_5a/output_inception_5a/output_0_split_0
I0403 16:05:32.987352 16986 net.cpp:399] inception_5b/1x1 -> inception_5b/1x1
I0403 16:05:32.992004 16986 net.cpp:141] Setting up inception_5b/1x1
I0403 16:05:32.992044 16986 net.cpp:148] Top shape: 24 384 7 7 (451584)
I0403 16:05:32.992065 16986 net.cpp:156] Memory required for data: 1327048224
I0403 16:05:32.992087 16986 layer_factory.hpp:77] Creating layer inception_5b/relu_1x1
I0403 16:05:32.992110 16986 net.cpp:91] Creating Layer inception_5b/relu_1x1
I0403 16:05:32.992130 16986 net.cpp:425] inception_5b/relu_1x1 <- inception_5b/1x1
I0403 16:05:32.992151 16986 net.cpp:386] inception_5b/relu_1x1 -> inception_5b/1x1 (in-place)
I0403 16:05:32.992533 16986 net.cpp:141] Setting up inception_5b/relu_1x1
I0403 16:05:32.992573 16986 net.cpp:148] Top shape: 24 384 7 7 (451584)
I0403 16:05:32.992595 16986 net.cpp:156] Memory required for data: 1328854560
I0403 16:05:32.992614 16986 layer_factory.hpp:77] Creating layer inception_5b/3x3_reduce
I0403 16:05:32.992640 16986 net.cpp:91] Creating Layer inception_5b/3x3_reduce
I0403 16:05:32.992662 16986 net.cpp:425] inception_5b/3x3_reduce <- inception_5a/output_inception_5a/output_0_split_1
I0403 16:05:32.992686 16986 net.cpp:399] inception_5b/3x3_reduce -> inception_5b/3x3_reduce
I0403 16:05:32.995970 16986 net.cpp:141] Setting up inception_5b/3x3_reduce
I0403 16:05:32.996011 16986 net.cpp:148] Top shape: 24 192 7 7 (225792)
I0403 16:05:32.996031 16986 net.cpp:156] Memory required for data: 1329757728
I0403 16:05:32.996054 16986 layer_factory.hpp:77] Creating layer inception_5b/relu_3x3_reduce
I0403 16:05:32.996076 16986 net.cpp:91] Creating Layer inception_5b/relu_3x3_reduce
I0403 16:05:32.996098 16986 net.cpp:425] inception_5b/relu_3x3_reduce <- inception_5b/3x3_reduce
I0403 16:05:32.996121 16986 net.cpp:386] inception_5b/relu_3x3_reduce -> inception_5b/3x3_reduce (in-place)
I0403 16:05:32.996357 16986 net.cpp:141] Setting up inception_5b/relu_3x3_reduce
I0403 16:05:32.996388 16986 net.cpp:148] Top shape: 24 192 7 7 (225792)
I0403 16:05:32.996407 16986 net.cpp:156] Memory required for data: 1330660896
I0403 16:05:32.996423 16986 layer_factory.hpp:77] Creating layer inception_5b/3x3
I0403 16:05:32.996455 16986 net.cpp:91] Creating Layer inception_5b/3x3
I0403 16:05:32.996479 16986 net.cpp:425] inception_5b/3x3 <- inception_5b/3x3_reduce
I0403 16:05:32.996505 16986 net.cpp:399] inception_5b/3x3 -> inception_5b/3x3
I0403 16:05:33.004889 16986 net.cpp:141] Setting up inception_5b/3x3
I0403 16:05:33.004930 16986 net.cpp:148] Top shape: 24 384 7 7 (451584)
I0403 16:05:33.004951 16986 net.cpp:156] Memory required for data: 1332467232
I0403 16:05:33.004974 16986 layer_factory.hpp:77] Creating layer inception_5b/relu_3x3
I0403 16:05:33.004997 16986 net.cpp:91] Creating Layer inception_5b/relu_3x3
I0403 16:05:33.005017 16986 net.cpp:425] inception_5b/relu_3x3 <- inception_5b/3x3
I0403 16:05:33.005041 16986 net.cpp:386] inception_5b/relu_3x3 -> inception_5b/3x3 (in-place)
I0403 16:05:33.005412 16986 net.cpp:141] Setting up inception_5b/relu_3x3
I0403 16:05:33.005447 16986 net.cpp:148] Top shape: 24 384 7 7 (451584)
I0403 16:05:33.005466 16986 net.cpp:156] Memory required for data: 1334273568
I0403 16:05:33.005486 16986 layer_factory.hpp:77] Creating layer inception_5b/5x5_reduce
I0403 16:05:33.005532 16986 net.cpp:91] Creating Layer inception_5b/5x5_reduce
I0403 16:05:33.005556 16986 net.cpp:425] inception_5b/5x5_reduce <- inception_5a/output_inception_5a/output_0_split_2
I0403 16:05:33.005590 16986 net.cpp:399] inception_5b/5x5_reduce -> inception_5b/5x5_reduce
I0403 16:05:33.007179 16986 net.cpp:141] Setting up inception_5b/5x5_reduce
I0403 16:05:33.007213 16986 net.cpp:148] Top shape: 24 48 7 7 (56448)
I0403 16:05:33.007232 16986 net.cpp:156] Memory required for data: 1334499360
I0403 16:05:33.007254 16986 layer_factory.hpp:77] Creating layer inception_5b/relu_5x5_reduce
I0403 16:05:33.007285 16986 net.cpp:91] Creating Layer inception_5b/relu_5x5_reduce
I0403 16:05:33.007303 16986 net.cpp:425] inception_5b/relu_5x5_reduce <- inception_5b/5x5_reduce
I0403 16:05:33.007328 16986 net.cpp:386] inception_5b/relu_5x5_reduce -> inception_5b/5x5_reduce (in-place)
I0403 16:05:33.007807 16986 net.cpp:141] Setting up inception_5b/relu_5x5_reduce
I0403 16:05:33.007838 16986 net.cpp:148] Top shape: 24 48 7 7 (56448)
I0403 16:05:33.007858 16986 net.cpp:156] Memory required for data: 1334725152
I0403 16:05:33.007876 16986 layer_factory.hpp:77] Creating layer inception_5b/5x5
I0403 16:05:33.007900 16986 net.cpp:91] Creating Layer inception_5b/5x5
I0403 16:05:33.007921 16986 net.cpp:425] inception_5b/5x5 <- inception_5b/5x5_reduce
I0403 16:05:33.007944 16986 net.cpp:399] inception_5b/5x5 -> inception_5b/5x5
I0403 16:05:33.010491 16986 net.cpp:141] Setting up inception_5b/5x5
I0403 16:05:33.010526 16986 net.cpp:148] Top shape: 24 128 7 7 (150528)
I0403 16:05:33.010546 16986 net.cpp:156] Memory required for data: 1335327264
I0403 16:05:33.010573 16986 layer_factory.hpp:77] Creating layer inception_5b/relu_5x5
I0403 16:05:33.010601 16986 net.cpp:91] Creating Layer inception_5b/relu_5x5
I0403 16:05:33.010622 16986 net.cpp:425] inception_5b/relu_5x5 <- inception_5b/5x5
I0403 16:05:33.010643 16986 net.cpp:386] inception_5b/relu_5x5 -> inception_5b/5x5 (in-place)
I0403 16:05:33.010884 16986 net.cpp:141] Setting up inception_5b/relu_5x5
I0403 16:05:33.010913 16986 net.cpp:148] Top shape: 24 128 7 7 (150528)
I0403 16:05:33.010931 16986 net.cpp:156] Memory required for data: 1335929376
I0403 16:05:33.010951 16986 layer_factory.hpp:77] Creating layer inception_5b/pool
I0403 16:05:33.010973 16986 net.cpp:91] Creating Layer inception_5b/pool
I0403 16:05:33.010994 16986 net.cpp:425] inception_5b/pool <- inception_5a/output_inception_5a/output_0_split_3
I0403 16:05:33.011016 16986 net.cpp:399] inception_5b/pool -> inception_5b/pool
I0403 16:05:33.011109 16986 net.cpp:141] Setting up inception_5b/pool
I0403 16:05:33.011139 16986 net.cpp:148] Top shape: 24 832 7 7 (978432)
I0403 16:05:33.011157 16986 net.cpp:156] Memory required for data: 1339843104
I0403 16:05:33.011174 16986 layer_factory.hpp:77] Creating layer inception_5b/pool_proj
I0403 16:05:33.011201 16986 net.cpp:91] Creating Layer inception_5b/pool_proj
I0403 16:05:33.011224 16986 net.cpp:425] inception_5b/pool_proj <- inception_5b/pool
I0403 16:05:33.011250 16986 net.cpp:399] inception_5b/pool_proj -> inception_5b/pool_proj
I0403 16:05:33.014114 16986 net.cpp:141] Setting up inception_5b/pool_proj
I0403 16:05:33.014152 16986 net.cpp:148] Top shape: 24 128 7 7 (150528)
I0403 16:05:33.014171 16986 net.cpp:156] Memory required for data: 1340445216
I0403 16:05:33.014194 16986 layer_factory.hpp:77] Creating layer inception_5b/relu_pool_proj
I0403 16:05:33.014217 16986 net.cpp:91] Creating Layer inception_5b/relu_pool_proj
I0403 16:05:33.014237 16986 net.cpp:425] inception_5b/relu_pool_proj <- inception_5b/pool_proj
I0403 16:05:33.014262 16986 net.cpp:386] inception_5b/relu_pool_proj -> inception_5b/pool_proj (in-place)
I0403 16:05:33.014645 16986 net.cpp:141] Setting up inception_5b/relu_pool_proj
I0403 16:05:33.014678 16986 net.cpp:148] Top shape: 24 128 7 7 (150528)
I0403 16:05:33.014696 16986 net.cpp:156] Memory required for data: 1341047328
I0403 16:05:33.014714 16986 layer_factory.hpp:77] Creating layer inception_5b/output
I0403 16:05:33.014735 16986 net.cpp:91] Creating Layer inception_5b/output
I0403 16:05:33.014772 16986 net.cpp:425] inception_5b/output <- inception_5b/1x1
I0403 16:05:33.014794 16986 net.cpp:425] inception_5b/output <- inception_5b/3x3
I0403 16:05:33.014816 16986 net.cpp:425] inception_5b/output <- inception_5b/5x5
I0403 16:05:33.014835 16986 net.cpp:425] inception_5b/output <- inception_5b/pool_proj
I0403 16:05:33.014859 16986 net.cpp:399] inception_5b/output -> inception_5b/output
I0403 16:05:33.014922 16986 net.cpp:141] Setting up inception_5b/output
I0403 16:05:33.014955 16986 net.cpp:148] Top shape: 24 1024 7 7 (1204224)
I0403 16:05:33.014974 16986 net.cpp:156] Memory required for data: 1345864224
I0403 16:05:33.014992 16986 layer_factory.hpp:77] Creating layer pool5/7x7_s1
I0403 16:05:33.015014 16986 net.cpp:91] Creating Layer pool5/7x7_s1
I0403 16:05:33.015033 16986 net.cpp:425] pool5/7x7_s1 <- inception_5b/output
I0403 16:05:33.015055 16986 net.cpp:399] pool5/7x7_s1 -> pool5/7x7_s1
I0403 16:05:33.015326 16986 net.cpp:141] Setting up pool5/7x7_s1
I0403 16:05:33.015357 16986 net.cpp:148] Top shape: 24 1024 1 1 (24576)
I0403 16:05:33.015377 16986 net.cpp:156] Memory required for data: 1345962528
I0403 16:05:33.015395 16986 layer_factory.hpp:77] Creating layer pool5/drop_7x7_s1
I0403 16:05:33.015418 16986 net.cpp:91] Creating Layer pool5/drop_7x7_s1
I0403 16:05:33.015436 16986 net.cpp:425] pool5/drop_7x7_s1 <- pool5/7x7_s1
I0403 16:05:33.015461 16986 net.cpp:386] pool5/drop_7x7_s1 -> pool5/7x7_s1 (in-place)
I0403 16:05:33.015523 16986 net.cpp:141] Setting up pool5/drop_7x7_s1
I0403 16:05:33.015563 16986 net.cpp:148] Top shape: 24 1024 1 1 (24576)
I0403 16:05:33.015588 16986 net.cpp:156] Memory required for data: 1346060832
I0403 16:05:33.015607 16986 layer_factory.hpp:77] Creating layer loss3/classifier_plantvillage
I0403 16:05:33.015631 16986 net.cpp:91] Creating Layer loss3/classifier_plantvillage
I0403 16:05:33.015651 16986 net.cpp:425] loss3/classifier_plantvillage <- pool5/7x7_s1
I0403 16:05:33.015681 16986 net.cpp:399] loss3/classifier_plantvillage -> loss3/classifier_plantvillage
I0403 16:05:33.016208 16986 net.cpp:141] Setting up loss3/classifier_plantvillage
I0403 16:05:33.016238 16986 net.cpp:148] Top shape: 24 38 (912)
I0403 16:05:33.016258 16986 net.cpp:156] Memory required for data: 1346064480
I0403 16:05:33.016278 16986 layer_factory.hpp:77] Creating layer loss3/classifier_plantvillage_loss3/classifier_plantvillage_0_split
I0403 16:05:33.016304 16986 net.cpp:91] Creating Layer loss3/classifier_plantvillage_loss3/classifier_plantvillage_0_split
I0403 16:05:33.016326 16986 net.cpp:425] loss3/classifier_plantvillage_loss3/classifier_plantvillage_0_split <- loss3/classifier_plantvillage
I0403 16:05:33.016347 16986 net.cpp:399] loss3/classifier_plantvillage_loss3/classifier_plantvillage_0_split -> loss3/classifier_plantvillage_loss3/classifier_plantvillage_0_split_0
I0403 16:05:33.016376 16986 net.cpp:399] loss3/classifier_plantvillage_loss3/classifier_plantvillage_0_split -> loss3/classifier_plantvillage_loss3/classifier_plantvillage_0_split_1
I0403 16:05:33.016402 16986 net.cpp:399] loss3/classifier_plantvillage_loss3/classifier_plantvillage_0_split -> loss3/classifier_plantvillage_loss3/classifier_plantvillage_0_split_2
I0403 16:05:33.016427 16986 net.cpp:399] loss3/classifier_plantvillage_loss3/classifier_plantvillage_0_split -> loss3/classifier_plantvillage_loss3/classifier_plantvillage_0_split_3
I0403 16:05:33.016553 16986 net.cpp:141] Setting up loss3/classifier_plantvillage_loss3/classifier_plantvillage_0_split
I0403 16:05:33.016587 16986 net.cpp:148] Top shape: 24 38 (912)
I0403 16:05:33.016608 16986 net.cpp:148] Top shape: 24 38 (912)
I0403 16:05:33.016626 16986 net.cpp:148] Top shape: 24 38 (912)
I0403 16:05:33.016644 16986 net.cpp:148] Top shape: 24 38 (912)
I0403 16:05:33.016661 16986 net.cpp:156] Memory required for data: 1346079072
I0403 16:05:33.016680 16986 layer_factory.hpp:77] Creating layer loss1/loss
I0403 16:05:33.016706 16986 net.cpp:91] Creating Layer loss1/loss
I0403 16:05:33.016726 16986 net.cpp:425] loss1/loss <- loss1/classifier_plantvillage_loss1/classifier_plantvillage_0_split_0
I0403 16:05:33.016765 16986 net.cpp:425] loss1/loss <- label_data_1_split_0
…
