…
I0403 16:35:43.416502 18643 net.cpp:313] The NetState phase (1) differed from the phase (0) specified by a rule in layer data
I0403 16:35:43.417605 18643 net.cpp:49] Initializing net from parameters: 
state {
  phase: TEST
}
layer {
  name: "data"
  type: "Data"
  top: "data"
  top: "label"
  include {
    phase: TEST
  }
  transform_param {
    mirror: false
    crop_size: 224
    mean_file: "/home/mohanty/data/final_dataset/lmdb/segmented-20-80/mean.binaryproto"
  }
  data_param {
    source: "/home/mohanty/data/final_dataset/lmdb/segmented-20-80/test_db"
    batch_size: 24
    backend: LMDB
  }
}
layer {
  name: "conv1/7x7_s2"
  type: "Convolution"
  bottom: "data"
  top: "conv1/7x7_s2"
  param {
    lr_mult: 1
    decay_mult: 1
  }
  param {
    lr_mult: 2
    decay_mult: 0
  }
  convolution_param {
    num_output: 64
    pad: 3
    kernel_size: 7
    stride: 2
    weight_filler {
      type: "xavier"
      std: 0.1
    }
    bias_filler {
      type: "constant"
      value: 0.2
    }
  }
}
layer {
  name: "conv1/relu_7x7"
  type: "ReLU"
  bottom: "conv1/7x7_s2"
  top: "conv1/7x7_s2"
}
layer {
  name: "pool1/3x3_s2"
  type: "Pooling"
  bottom: "conv1/7x7_s2"
  top: "pool1/3x3_s2"
  pooling_param {
    pool: MAX
    kernel_size: 3
    stride: 2
  }
}
layer {
  name: "pool1/norm1"
  type: "LRN"
  bottom: "pool1/3x3_s2"
  top: "pool1/norm1"
  lrn_param {
    local_size: 5
    alpha: 0.0001
    beta: 0.75
  }
}
layer {
  name: "conv2/3x3_reduce"
  type: "Convolution"
  bottom: "pool1/norm1"
  top: "conv2/3x3_reduce"
  param {
    lr_mult: 1
    decay_mult: 1
  }
  param {
    lr_mult: 2
    decay_mult: 0
  }
  convolution_param {
    num_output: 64
    kernel_size: 1
    weight_filler {
      type: "xavier"
      std: 0.1
    }
    bias_filler {
      type: "constant"
      value: 0.2
    }
  }
}
layer {
  name: "conv2/relu_3x3_reduce"
  type: "ReLU"
  bottom: "conv2/3x3_reduce"
  top: "conv2/3x3_reduce"
}
layer {
  name: "conv2/3x3"
  type: "Convolution"
  bottom: "conv2/3x3_reduce"
  top: "conv2/3x3"
  param {
    lr_mult: 1
    decay_mult: 1
  }
  param {
    lr_mult: 2
    decay_mult: 0
  }
  convolution_param {
    num_output: 192
    pad: 1
    kernel_size: 3
    weight_filler {
      type: "xavier"
      std: 0.03
    }
    bias_filler {
      type: "constant"
      value: 0.2
    }
  }
}
layer {
  name: "conv2/relu_3x3"
  type: "ReLU"
  bottom: "conv2/3x3"
  top: "conv2/3x3"
}
layer {
  name: "conv2/norm2"
  type: "LRN"
  bottom: "conv2/3x3"
  top: "conv2/norm2"
  lrn_param {
    local_size: 5
    alpha: 0.0001
    beta: 0.75
  }
}
layer {
  name: "pool2/3x3_s2"
  type: "Pooling"
  bottom: "conv2/norm2"
  top: "pool2/3x3_s2"
  pooling_param {
    pool: MAX
    kernel_size: 3
    stride: 2
  }
}
layer {
  name: "inception_3a/1x1"
  type: "Convolution"
  bottom: "pool2/3x3_s2"
  top: "inception_3a/1x1"
  param {
    lr_mult: 1
    decay_mult: 1
  }
  param {
    lr_mult: 2
    decay_mult: 0
  }
  convolution_param {
    num_output: 64
    kernel_size: 1
    weight_filler {
      type: "xavier"
      std: 0.03
    }
    bias_filler {
      type: "constant"
      value: 0.2
    }
  }
}
layer {
  name: "inception_3a/relu_1x1"
  type: "ReLU"
  bottom: "inception_3a/1x1"
  top: "inception_3a/1x1"
}
layer {
  name: "inception_3a/3x3_reduce"
  type: "Convolution"
  bottom: "pool2/3x3_s2"
  top: "inception_3a/3x3_reduce"
  param {
    lr_mult: 1
    decay_mult: 1
  }
  param {
    lr_mult: 2
    decay_mult: 0
  }
  convolution_param {
    num_output: 96
    kernel_size: 1
    weight_filler {
      type: "xavier"
      std: 0.09
    }
    bias_filler {
      type: "constant"
      value: 0.2
    }
  }
}
layer {
  name: "inception_3a/relu_3x3_reduce"
  type: "ReLU"
  bottom: "inception_3a/3x3_reduce"
  top: "inception_3a/3x3_reduce"
}
layer {
  name: "inception_3a/3x3"
  type: "Convolution"
  bottom: "inception_3a/3x3_reduce"
  top: "inception_3a/3x3"
  param {
    lr_mult: 1
    decay_mult: 1
  }
  param {
    lr_mult: 2
    decay_mult: 0
  }
  convolution_param {
    num_output: 128
    pad: 1
    kernel_size: 3
    weight_filler {
      type: "xavier"
      std: 0.03
    }
    bias_filler {
      type: "constant"
      value: 0.2
    }
  }
}
layer {
  name: "inception_3a/relu_3x3"
  type: "ReLU"
  bottom: "inception_3a/3x3"
  top: "inception_3a/3x3"
}
layer {
  name: "inception_3a/5x5_reduce"
  type: "Convolution"
  bottom: "pool2/3x3_s2"
  top: "inception_3a/5x5_reduce"
  param {
    lr_mult: 1
    decay_mult: 1
  }
  param {
    lr_mult: 2
    decay_mult: 0
  }
  convolution_param {
    num_output: 16
    kernel_size: 1
    weight_filler {
      type: "xavier"
      std: 0.2
    }
    bias_filler {
      type: "constant"
      value: 0.2
    }
  }
}
layer {
  name: "inception_3a/relu_5x5_reduce"
  type: "ReLU"
  bottom: "inception_3a/5x5_reduce"
  top: "inception_3a/5x5_reduce"
}
layer {
  name: "inception_3a/5x5"
  type: "Convolution"
  bottom: "inception_3a/5x5_reduce"
  top: "inception_3a/5x5"
  param {
    lr_mult: 1
    decay_mult: 1
  }
  param {
    lr_mult: 2
    decay_mult: 0
  }
  convolution_param {
    num_output: 32
    pad: 2
    kernel_size: 5
    weight_filler {
      type: "xavier"
      std: 0.03
    }
    bias_filler {
      type: "constant"
      value: 0.2
    }
  }
}
layer {
  name: "inception_3a/relu_5x5"
  type: "ReLU"
  bottom: "inception_3a/5x5"
  top: "inception_3a/5x5"
}
layer {
  name: "inception_3a/pool"
  type: "Pooling"
  bottom: "pool2/3x3_s2"
  top: "inception_3a/pool"
  pooling_param {
    pool: MAX
    kernel_size: 3
    stride: 1
    pad: 1
  }
}
layer {
  name: "inception_3a/pool_proj"
  type: "Convolution"
  bottom: "inception_3a/pool"
  top: "inception_3a/pool_proj"
  param {
    lr_mult: 1
    decay_mult: 1
  }
  param {
    lr_mult: 2
    decay_mult: 0
  }
  convolution_param {
    num_output: 32
    kernel_size: 1
    weight_filler {
      type: "xavier"
      std: 0.1
    }
    bias_filler {
      type: "constant"
      value: 0.2
    }
  }
}
layer {
  name: "inception_3a/relu_pool_proj"
  type: "ReLU"
  bottom: "inception_3a/pool_proj"
  top: "inception_3a/pool_proj"
}
layer {
  name: "inception_3a/output"
  type: "Concat"
  bottom: "inception_3a/1x1"
  bottom: "inception_3a/3x3"
  bottom: "inception_3a/5x5"
  bottom: "inception_3a/pool_proj"
  top: "inception_3a/output"
}
layer {
  name: "inception_3b/1x1"
  type: "Convolution"
  bottom: "inception_3a/output"
  top: "inception_3b/1x1"
  param {
    lr_mult: 1
    decay_mult: 1
  }
  param {
    lr_mult: 2
    decay_mult: 0
  }
  convolution_param {
    num_output: 128
    kernel_size: 1
    weight_filler {
      type: "xavier"
      std: 0.03
    }
    bias_filler {
      type: "constant"
      value: 0.2
    }
  }
}
layer {
  name: "inception_3b/relu_1x1"
  type: "ReLU"
  bottom: "inception_3b/1x1"
  top: "inception_3b/1x1"
}
layer {
  name: "inception_3b/3x3_reduce"
  type: "Convolution"
  bottom: "inception_3a/output"
  top: "inception_3b/3x3_reduce"
  param {
    lr_mult: 1
    decay_mult: 1
  }
  param {
    lr_mult: 2
    decay_mult: 0
  }
  convolution_param {
    num_output: 128
    kernel_size: 1
    weight_filler {
      type: "xavier"
      std: 0.09
    }
    bias_filler {
      type: "constant"
      value: 0.2
    }
  }
}
layer {
  name: "inception_3b/relu_3x3_reduce"
  type: "ReLU"
  bottom: "inception_3b/3x3_reduce"
  top: "inception_3b/3x3_reduce"
}
layer {
  name: "inception_3b/3x3"
  type: "Convolution"
  bottom: "inception_3b/3x3_reduce"
  top: "inception_3b/3x3"
  param {
    lr_mult: 1
    decay_mult: 1
  }
  param {
    lr_mult: 2
    decay_mult: 0
  }
  convolution_param {
    num_output: 192
    pad: 1
    kernel_size: 3
    weight_filler {
      type: "xavier"
      std: 0.03
    }
    bias_filler {
      type: "constant"
      value: 0.2
    }
  }
}
layer {
  name: "inception_3b/relu_3x3"
  type: "ReLU"
  bottom: "inception_3b/3x3"
  top: "inception_3b/3x3"
}
layer {
  name: "inception_3b/5x5_reduce"
  type: "Convolution"
  bottom: "inception_3a/output"
  top: "inception_3b/5x5_reduce"
  param {
    lr_mult: 1
    decay_mult: 1
  }
  param {
    lr_mult: 2
    decay_mult: 0
  }
  convolution_param {
    num_output: 32
    kernel_size: 1
    weight_filler {
      type: "xavier"
      std: 0.2
    }
    bias_filler {
      type: "constant"
      value: 0.2
    }
  }
}
layer {
  name: "inception_3b/relu_5x5_reduce"
  type: "ReLU"
  bottom: "inception_3b/5x5_reduce"
  top: "inception_3b/5x5_reduce"
}
layer {
  name: "inception_3b/5x5"
  type: "Convolution"
  bottom: "inception_3b/5x5_reduce"
  top: "inception_3b/5x5"
  param {
    lr_mult: 1
    decay_mult: 1
  }
  param {
    lr_mult: 2
    decay_mult: 0
  }
  convolution_param {
    num_output: 96
    pad: 2
    kernel_size: 5
    weight_filler {
      type: "xavier"
      std: 0.03
    }
    bias_filler {
      type: "constant"
      value: 0.2
    }
  }
}
layer {
  name: "inception_3b/relu_5x5"
  type: "ReLU"
  bottom: "inception_3b/5x5"
  top: "inception_3b/5x5"
}
layer {
  name: "inception_3b/pool"
  type: "Pooling"
  bottom: "inception_3a/output"
  top: "inception_3b/pool"
  pooling_param {
    pool: MAX
    kernel_size: 3
    stride: 1
    pad: 1
  }
}
layer {
  name: "inception_3b/pool_proj"
  type: "Convolution"
  bottom: "inception_3b/pool"
  top: "inception_3b/pool_proj"
  param {
    lr_mult: 1
    decay_mult: 1
  }
  param {
    lr_mult: 2
    decay_mult: 0
  }
  convolution_param {
    num_output: 64
    kernel_size: 1
    weight_filler {
      type: "xavier"
      std: 0.1
    }
    bias_filler {
      type: "constant"
      value: 0.2
    }
  }
}
layer {
  name: "inception_3b/relu_pool_proj"
  type: "ReLU"
  bottom: "inception_3b/pool_proj"
  top: "inception_3b/pool_proj"
}
layer {
  name: "inception_3b/output"
  type: "Concat"
  bottom: "inception_3b/1x1"
  bottom: "inception_3b/3x3"
  bottom: "inception_3b/5x5"
  bottom: "inception_3b/pool_proj"
  top: "inception_3b/output"
}
layer {
  name: "pool3/3x3_s2"
  type: "Pooling"
  bottom: "inception_3b/output"
  top: "pool3/3x3_s2"
  pooling_param {
    pool: MAX
    kernel_size: 3
    stride: 2
  }
}
layer {
  name: "inception_4a/1x1"
  type: "Convolution"
  bottom: "pool3/3x3_s2"
  top: "inception_4a/1x1"
  param {
    lr_mult: 1
    decay_mult: 1
  }
  param {
    lr_mult: 2
    decay_mult: 0
  }
  convolution_param {
    num_output: 192
    kernel_size: 1
    weight_filler {
      type: "xavier"
      std: 0.03
    }
    bias_filler {
      type: "constant"
      value: 0.2
    }
  }
}
layer {
  name: "inception_4a/relu_1x1"
  type: "ReLU"
  bottom: "inception_4a/1x1"
  top: "inception_4a/1x1"
}
layer {
  name: "inception_4a/3x3_reduce"
  type: "Convolution"
  bottom: "pool3/3x3_s2"
  top: "inception_4a/3x3_reduce"
  param {
    lr_mult: 1
    decay_mult: 1
  }
  param {
    lr_mult: 2
    decay_mult: 0
  }
  convolution_param {
    num_output: 96
    kernel_size: 1
    weight_filler {
      type: "xavier"
      std: 0.09
    }
    bias_filler {
      type: "constant"
      value: 0.2
    }
  }
}
layer {
  name: "inception_4a/relu_3x3_reduce"
  type: "ReLU"
  bottom: "inception_4a/3x3_reduce"
  top: "inception_4a/3x3_reduce"
}
layer {
  name: "inception_4a/3x3"
  type: "Convolution"
  bottom: "inception_4a/3x3_reduce"
  top: "inception_4a/3x3"
  param {
    lr_mult: 1
    decay_mult: 1
  }
  param {
    lr_mult: 2
    decay_mult: 0
  }
  convolution_param {
    num_output: 208
    pad: 1
    kernel_size: 3
    weight_filler {
      type: "xavier"
      std: 0.03
    }
    bias_filler {
      type: "constant"
      value: 0.2
    }
  }
}
layer {
  name: "inception_4a/relu_3x3"
  type: "ReLU"
  bottom: "inception_4a/3x3"
  top: "inception_4a/3x3"
}
layer {
  name: "inception_4a/5x5_reduce"
  type: "Convolution"
  bottom: "pool3/3x3_s2"
  top: "inception_4a/5x5_reduce"
  param {
    lr_mult: 1
    decay_mult: 1
  }
  param {
    lr_mult: 2
    decay_mult: 0
  }
  convolution_param {
    num_output: 16
    kernel_size: 1
    weight_filler {
      type: "xavier"
      std: 0.2
    }
    bias_filler {
      type: "constant"
      value: 0.2
    }
  }
}
layer {
  name: "inception_4a/relu_5x5_reduce"
  type: "ReLU"
  bottom: "inception_4a/5x5_reduce"
  top: "inception_4a/5x5_reduce"
}
layer {
  name: "inception_4a/5x5"
  type: "Convolution"
  bottom: "inception_4a/5x5_reduce"
  top: "inception_4a/5x5"
  param {
    lr_mult: 1
    decay_mult: 1
  }
  param {
    lr_mult: 2
    decay_mult: 0
  }
  convolution_param {
    num_output: 48
    pad: 2
    kernel_size: 5
    weight_filler {
      type: "xavier"
      std: 0.03
    }
    bias_filler {
      type: "constant"
      value: 0.2
    }
  }
}
layer {
  name: "inception_4a/relu_5x5"
  type: "ReLU"
  bottom: "inception_4a/5x5"
  top: "inception_4a/5x5"
}
layer {
  name: "inception_4a/pool"
  type: "Pooling"
  bottom: "pool3/3x3_s2"
  top: "inception_4a/pool"
  pooling_param {
    pool: MAX
    kernel_size: 3
    stride: 1
    pad: 1
  }
}
layer {
  name: "inception_4a/pool_proj"
  type: "Convolution"
  bottom: "inception_4a/pool"
  top: "inception_4a/pool_proj"
  param {
    lr_mult: 1
    decay_mult: 1
  }
  param {
    lr_mult: 2
    decay_mult: 0
  }
  convolution_param {
    num_output: 64
    kernel_size: 1
    weight_filler {
      type: "xavier"
      std: 0.1
    }
    bias_filler {
      type: "constant"
      value: 0.2
    }
  }
}
layer {
  name: "inception_4a/relu_pool_proj"
  type: "ReLU"
  bottom: "inception_4a/pool_proj"
  top: "inception_4a/pool_proj"
}
layer {
  name: "inception_4a/output"
  type: "Concat"
  bottom: "inception_4a/1x1"
  bottom: "inception_4a/3x3"
  bottom: "inception_4a/5x5"
  bottom: "inception_4a/pool_proj"
  top: "inception_4a/output"
}
layer {
  name: "loss1/ave_pool"
  type: "Pooling"
  bottom: "inception_4a/output"
  top: "loss1/ave_pool"
  pooling_param {
    pool: AVE
    kernel_size: 5
    stride: 3
  }
}
layer {
  name: "loss1/conv"
  type: "Convolution"
  bottom: "loss1/ave_pool"
  top: "loss1/conv"
  param {
    lr_mult: 1
    decay_mult: 1
  }
  param {
    lr_mult: 2
    decay_mult: 0
  }
  convolution_param {
    num_output: 128
    kernel_size: 1
    weight_filler {
      type: "xavier"
      std: 0.08
    }
    bias_filler {
      type: "constant"
      value: 0.2
    }
  }
}
layer {
  name: "loss1/relu_conv"
  type: "ReLU"
  bottom: "loss1/conv"
  top: "loss1/conv"
}
layer {
  name: "loss1/fc"
  type: "InnerProduct"
  bottom: "loss1/conv"
  top: "loss1/fc"
  param {
    lr_mult: 1
    decay_mult: 1
  }
  param {
    lr_mult: 2
    decay_mult: 0
  }
  inner_product_param {
    num_output: 1024
    weight_filler {
      type: "xavier"
      std: 0.02
    }
    bias_filler {
      type: "constant"
      value: 0.2
    }
  }
}
layer {
  name: "loss1/relu_fc"
  type: "ReLU"
  bottom: "loss1/fc"
  top: "loss1/fc"
}
layer {
  name: "loss1/drop_fc"
  type: "Dropout"
  bottom: "loss1/fc"
  top: "loss1/fc"
  dropout_param {
    dropout_ratio: 0.7
  }
}
layer {
  name: "loss1/classifier_plantvillage"
  type: "InnerProduct"
  bottom: "loss1/fc"
  top: "loss1/classifier_plantvillage"
  param {
    lr_mult: 1
    decay_mult: 1
  }
  param {
    lr_mult: 2
    decay_mult: 0
  }
  inner_product_param {
    num_output: 38
    weight_filler {
      type: "xavier"
      std: 0.0009765625
    }
    bias_filler {
      type: "constant"
      value: 0
    }
  }
}
layer {
  name: "inception_4b/1x1"
  type: "Convolution"
  bottom: "inception_4a/output"
  top: "inception_4b/1x1"
  param {
    lr_mult: 1
    decay_mult: 1
  }
  param {
    lr_mult: 2
    decay_mult: 0
  }
  convolution_param {
    num_output: 160
    kernel_size: 1
    weight_filler {
      type: "xavier"
      std: 0.03
    }
    bias_filler {
      type: "constant"
      value: 0.2
    }
  }
}
layer {
  name: "inception_4b/relu_1x1"
  type: "ReLU"
  bottom: "inception_4b/1x1"
  top: "inception_4b/1x1"
}
layer {
  name: "inception_4b/3x3_reduce"
  type: "Convolution"
  bottom: "inception_4a/output"
  top: "inception_4b/3x3_reduce"
  param {
    lr_mult: 1
    decay_mult: 1
  }
  param {
    lr_mult: 2
    decay_mult: 0
  }
  convolution_param {
    num_output: 112
    kernel_size: 1
    weight_filler {
      type: "xavier"
      std: 0.09
    }
    bias_filler {
      type: "constant"
      value: 0.2
    }
  }
}
layer {
  name: "inception_4b/relu_3x3_reduce"
  type: "ReLU"
  bottom: "inception_4b/3x3_reduce"
  top: "inception_4b/3x3_reduce"
}
layer {
  name: "inception_4b/3x3"
  type: "Convolution"
  bottom: "inception_4b/3x3_reduce"
  top: "inception_4b/3x3"
  param {
    lr_mult: 1
    decay_mult: 1
  }
  param {
    lr_mult: 2
    decay_mult: 0
  }
  convolution_param {
    num_output: 224
    pad: 1
    kernel_size: 3
    weight_filler {
      type: "xavier"
      std: 0.03
    }
    bias_filler {
      type: "constant"
      value: 0.2
    }
  }
}
layer {
  name: "inception_4b/relu_3x3"
  type: "ReLU"
  bottom: "inception_4b/3x3"
  top: "inception_4b/3x3"
}
layer {
  name: "inception_4b/5x5_reduce"
  type: "Convolution"
  bottom: "inception_4a/output"
  top: "inception_4b/5x5_reduce"
  param {
    lr_mult: 1
    decay_mult: 1
  }
  param {
    lr_mult: 2
    decay_mult: 0
  }
  convolution_param {
    num_output: 24
    kernel_size: 1
    weight_filler {
      type: "xavier"
      std: 0.2
    }
    bias_filler {
      type: "constant"
      value: 0.2
    }
  }
}
layer {
  name: "inception_4b/relu_5x5_reduce"
  type: "ReLU"
  bottom: "inception_4b/5x5_reduce"
  top: "inception_4b/5x5_reduce"
}
layer {
  name: "inception_4b/5x5"
  type: "Convolution"
  bottom: "inception_4b/5x5_reduce"
  top: "inception_4b/5x5"
  param {
    lr_mult: 1
    decay_mult: 1
  }
  param {
    lr_mult: 2
    decay_mult: 0
  }
  convolution_param {
    num_output: 64
    pad: 2
    kernel_size: 5
    weight_filler {
      type: "xavier"
      std: 0.03
    }
    bias_filler {
      type: "constant"
      value: 0.2
    }
  }
}
layer {
  name: "inception_4b/relu_5x5"
  type: "ReLU"
  bottom: "inception_4b/5x5"
  top: "inception_4b/5x5"
}
layer {
  name: "inception_4b/pool"
  type: "Pooling"
  bottom: "inception_4a/output"
  top: "inception_4b/pool"
  pooling_param {
    pool: MAX
    kernel_size: 3
    stride: 1
    pad: 1
  }
}
layer {
  name: "inception_4b/pool_proj"
  type: "Convolution"
  bottom: "inception_4b/pool"
  top: "inception_4b/pool_proj"
  param {
    lr_mult: 1
    decay_mult: 1
  }
  param {
    lr_mult: 2
    decay_mult: 0
  }
  convolution_param {
    num_output: 64
    kernel_size: 1
    weight_filler {
      type: "xavier"
      std: 0.1
    }
    bias_filler {
      type: "constant"
      value: 0.2
    }
  }
}
layer {
  name: "inception_4b/relu_pool_proj"
  type: "ReLU"
  bottom: "inception_4b/pool_proj"
  top: "inception_4b/pool_proj"
}
layer {
  name: "inception_4b/output"
  type: "Concat"
  bottom: "inception_4b/1x1"
  bottom: "inception_4b/3x3"
  bottom: "inception_4b/5x5"
  bottom: "inception_4b/pool_proj"
  top: "inception_4b/output"
}
layer {
  name: "inception_4c/1x1"
  type: "Convolution"
  bottom: "inception_4b/output"
  top: "inception_4c/1x1"
  param {
    lr_mult: 1
    decay_mult: 1
  }
  param {
    lr_mult: 2
    decay_mult: 0
  }
  convolution_param {
    num_output: 128
    kernel_size: 1
    weight_filler {
      type: "xavier"
      std: 0.03
    }
    bias_filler {
      type: "constant"
      value: 0.2
    }
  }
}
layer {
  name: "inception_4c/relu_1x1"
  type: "ReLU"
  bottom: "inception_4c/1x1"
  top: "inception_4c/1x1"
}
layer {
  name: "inception_4c/3x3_reduce"
  type: "Convolution"
  bottom: "inception_4b/output"
  top: "inception_4c/3x3_reduce"
  param {
    lr_mult: 1
    decay_mult: 1
  }
  param {
    lr_mult: 2
    decay_mult: 0
  }
  convolution_param {
    num_output: 128
    kernel_size: 1
    weight_filler {
      type: "xavier"
      std: 0.09
    }
    bias_filler {
      type: "constant"
      value: 0.2
    }
  }
}
layer {
  name: "inception_4c/relu_3x3_reduce"
  type: "ReLU"
  bottom: "inception_4c/3x3_reduce"
  top: "inception_4c/3x3_reduce"
}
layer {
  name: "inception_4c/3x3"
  type: "Convolution"
  bottom: "inception_4c/3x3_reduce"
  top: "inception_4c/3x3"
  param {
    lr_mult: 1
    decay_mult: 1
  }
  param {
    lr_mult: 2
    decay_mult: 0
  }
  convolution_param {
    num_output: 256
    pad: 1
    kernel_size: 3
    weight_filler {
      type: "xavier"
      std: 0.03
    }
    bias_filler {
      type: "constant"
      value: 0.2
    }
  }
}
layer {
  name: "inception_4c/relu_3x3"
  type: "ReLU"
  bottom: "inception_4c/3x3"
  top: "inception_4c/3x3"
}
layer {
  name: "inception_4c/5x5_reduce"
  type: "Convolution"
  bottom: "inception_4b/output"
  top: "inception_4c/5x5_reduce"
  param {
    lr_mult: 1
    decay_mult: 1
  }
  param {
    lr_mult: 2
    decay_mult: 0
  }
  convolution_param {
    num_output: 24
    kernel_size: 1
    weight_filler {
      type: "xavier"
      std: 0.2
    }
    bias_filler {
      type: "constant"
      value: 0.2
    }
  }
}
layer {
  name: "inception_4c/relu_5x5_reduce"
  type: "ReLU"
  bottom: "inception_4c/5x5_reduce"
  top: "inception_4c/5x5_reduce"
}
layer {
  name: "inception_4c/5x5"
  type: "Convolution"
  bottom: "inception_4c/5x5_reduce"
  top: "inception_4c/5x5"
  param {
    lr_mult: 1
    decay_mult: 1
  }
  param {
    lr_mult: 2
    decay_mult: 0
  }
  convolution_param {
    num_output: 64
    pad: 2
    kernel_size: 5
    weight_filler {
      type: "xavier"
      std: 0.03
    }
    bias_filler {
      type: "constant"
      value: 0.2
    }
  }
}
layer {
  name: "inception_4c/relu_5x5"
  type: "ReLU"
  bottom: "inception_4c/5x5"
  top: "inception_4c/5x5"
}
layer {
  name: "inception_4c/pool"
  type: "Pooling"
  bottom: "inception_4b/output"
  top: "inception_4c/pool"
  pooling_param {
    pool: MAX
    kernel_size: 3
    stride: 1
    pad: 1
  }
}
layer {
  name: "inception_4c/pool_proj"
  type: "Convolution"
  bottom: "inception_4c/pool"
  top: "inception_4c/pool_proj"
  param {
    lr_mult: 1
    decay_mult: 1
  }
  param {
    lr_mult: 2
    decay_mult: 0
  }
  convolution_param {
    num_output: 64
    kernel_size: 1
    weight_filler {
      type: "xavier"
      std: 0.1
    }
    bias_filler {
      type: "constant"
      value: 0.2
    }
  }
}
layer {
  name: "inception_4c/relu_pool_proj"
  type: "ReLU"
  bottom: "inception_4c/pool_proj"
  top: "inception_4c/pool_proj"
}
layer {
  name: "inception_4c/output"
  type: "Concat"
  bottom: "inception_4c/1x1"
  bottom: "inception_4c/3x3"
  bottom: "inception_4c/5x5"
  bottom: "inception_4c/pool_proj"
  top: "inception_4c/output"
}
layer {
  name: "inception_4d/1x1"
  type: "Convolution"
  bottom: "inception_4c/output"
  top: "inception_4d/1x1"
  param {
    lr_mult: 1
    decay_mult: 1
  }
  param {
    lr_mult: 2
    decay_mult: 0
  }
  convolution_param {
    num_output: 112
    kernel_size: 1
    weight_filler {
      type: "xavier"
      std: 0.03
    }
    bias_filler {
      type: "constant"
      value: 0.2
    }
  }
}
layer {
  name: "inception_4d/relu_1x1"
  type: "ReLU"
  bottom: "inception_4d/1x1"
  top: "inception_4d/1x1"
}
layer {
  name: "inception_4d/3x3_reduce"
  type: "Convolution"
  bottom: "inception_4c/output"
  top: "inception_4d/3x3_reduce"
  param {
    lr_mult: 1
    decay_mult: 1
  }
  param {
    lr_mult: 2
    decay_mult: 0
  }
  convolution_param {
    num_output: 144
    kernel_size: 1
    weight_filler {
      type: "xavier"
      std: 0.09
    }
    bias_filler {
      type: "constant"
      value: 0.2
    }
  }
}
layer {
  name: "inception_4d/relu_3x3_reduce"
  type: "ReLU"
  bottom: "inception_4d/3x3_reduce"
  top: "inception_4d/3x3_reduce"
}
layer {
  name: "inception_4d/3x3"
  type: "Convolution"
  bottom: "inception_4d/3x3_reduce"
  top: "inception_4d/3x3"
  param {
    lr_mult: 1
    decay_mult: 1
  }
  param {
    lr_mult: 2
    decay_mult: 0
  }
  convolution_param {
    num_output: 288
    pad: 1
    kernel_size: 3
    weight_filler {
      type: "xavier"
      std: 0.03
    }
    bias_filler {
      type: "constant"
      value: 0.2
    }
  }
}
layer {
  name: "inception_4d/relu_3x3"
  type: "ReLU"
  bottom: "inception_4d/3x3"
  top: "inception_4d/3x3"
}
layer {
  name: "inception_4d/5x5_reduce"
  type: "Convolution"
  bottom: "inception_4c/output"
  top: "inception_4d/5x5_reduce"
  param {
    lr_mult: 1
    decay_mult: 1
  }
  param {
    lr_mult: 2
    decay_mult: 0
  }
  convolution_param {
    num_output: 32
    kernel_size: 1
    weight_filler {
      type: "xavier"
      std: 0.2
    }
    bias_filler {
      type: "constant"
      value: 0.2
    }
  }
}
layer {
  name: "inception_4d/relu_5x5_reduce"
  type: "ReLU"
  bottom: "inception_4d/5x5_reduce"
  top: "inception_4d/5x5_reduce"
}
layer {
  name: "inception_4d/5x5"
  type: "Convolution"
  bottom: "inception_4d/5x5_reduce"
  top: "inception_4d/5x5"
  param {
    lr_mult: 1
    decay_mult: 1
  }
  param {
    lr_mult: 2
    decay_mult: 0
  }
  convolution_param {
    num_output: 64
    pad: 2
    kernel_size: 5
    weight_filler {
      type: "xavier"
      std: 0.03
    }
    bias_filler {
      type: "constant"
      value: 0.2
    }
  }
}
layer {
  name: "inception_4d/relu_5x5"
  type: "ReLU"
  bottom: "inception_4d/5x5"
  top: "inception_4d/5x5"
}
layer {
  name: "inception_4d/pool"
  type: "Pooling"
  bottom: "inception_4c/output"
  top: "inception_4d/pool"
  pooling_param {
    pool: MAX
    kernel_size: 3
    stride: 1
    pad: 1
  }
}
layer {
  name: "inception_4d/pool_proj"
  type: "Convolution"
  bottom: "inception_4d/pool"
  top: "inception_4d/pool_proj"
  param {
    lr_mult: 1
    decay_mult: 1
  }
  param {
    lr_mult: 2
    decay_mult: 0
  }
  convolution_param {
    num_output: 64
    kernel_size: 1
    weight_filler {
      type: "xavier"
      std: 0.1
    }
    bias_filler {
      type: "constant"
      value: 0.2
    }
  }
}
layer {
  name: "inception_4d/relu_pool_proj"
  type: "ReLU"
  bottom: "inception_4d/pool_proj"
  top: "inception_4d/pool_proj"
}
layer {
  name: "inception_4d/output"
  type: "Concat"
  bottom: "inception_4d/1x1"
  bottom: "inception_4d/3x3"
  bottom: "inception_4d/5x5"
  bottom: "inception_4d/pool_proj"
  top: "inception_4d/output"
}
layer {
  name: "loss2/ave_pool"
  type: "Pooling"
  bottom: "inception_4d/output"
  top: "loss2/ave_pool"
  pooling_param {
    pool: AVE
    kernel_size: 5
    stride: 3
  }
}
layer {
  name: "loss2/conv"
  type: "Convolution"
  bottom: "loss2/ave_pool"
  top: "loss2/conv"
  param {
    lr_mult: 1
    decay_mult: 1
  }
  param {
    lr_mult: 2
    decay_mult: 0
  }
  convolution_param {
    num_output: 128
    kernel_size: 1
    weight_filler {
      type: "xavier"
      std: 0.08
    }
    bias_filler {
      type: "constant"
      value: 0.2
    }
  }
}
layer {
  name: "loss2/relu_conv"
  type: "ReLU"
  bottom: "loss2/conv"
  top: "loss2/conv"
}
layer {
  name: "loss2/fc"
  type: "InnerProduct"
  bottom: "loss2/conv"
  top: "loss2/fc"
  param {
    lr_mult: 1
    decay_mult: 1
  }
  param {
    lr_mult: 2
    decay_mult: 0
  }
  inner_product_param {
    num_output: 1024
    weight_filler {
      type: "xavier"
      std: 0.02
    }
    bias_filler {
      type: "constant"
      value: 0.2
    }
  }
}
layer {
  name: "loss2/relu_fc"
  type: "ReLU"
  bottom: "loss2/fc"
  top: "loss2/fc"
}
layer {
  name: "loss2/drop_fc"
  type: "Dropout"
  bottom: "loss2/fc"
  top: "loss2/fc"
  dropout_param {
    dropout_ratio: 0.7
  }
}
layer {
  name: "loss2/classifier_plantvillage"
  type: "InnerProduct"
  bottom: "loss2/fc"
  top: "loss2/classifier_plantvillage"
  param {
    lr_mult: 1
    decay_mult: 1
  }
  param {
    lr_mult: 2
    decay_mult: 0
  }
  inner_product_param {
    num_output: 38
    weight_filler {
      type: "xavier"
      std: 0.0009765625
    }
    bias_filler {
      type: "constant"
      value: 0
    }
  }
}
layer {
  name: "inception_4e/1x1"
  type: "Convolution"
  bottom: "inception_4d/output"
  top: "inception_4e/1x1"
  param {
    lr_mult: 1
    decay_mult: 1
  }
  param {
    lr_mult: 2
    decay_mult: 0
  }
  convolution_param {
    num_output: 256
    kernel_size: 1
    weight_filler {
      type: "xavier"
      std: 0.03
    }
    bias_filler {
      type: "constant"
      value: 0.2
    }
  }
}
layer {
  name: "inception_4e/relu_1x1"
  type: "ReLU"
  bottom: "inception_4e/1x1"
  top: "inception_4e/1x1"
}
layer {
  name: "inception_4e/3x3_reduce"
  type: "Convolution"
  bottom: "inception_4d/output"
  top: "inception_4e/3x3_reduce"
  param {
    lr_mult: 1
    decay_mult: 1
  }
  param {
    lr_mult: 2
    decay_mult: 0
  }
  convolution_param {
    num_output: 160
    kernel_size: 1
    weight_filler {
      type: "xavier"
      std: 0.09
    }
    bias_filler {
      type: "constant"
      value: 0.2
    }
  }
}
layer {
  name: "inception_4e/relu_3x3_reduce"
  type: "ReLU"
  bottom: "inception_4e/3x3_reduce"
  top: "inception_4e/3x3_reduce"
}
layer {
  name: "inception_4e/3x3"
  type: "Convolution"
  bottom: "inception_4e/3x3_reduce"
  top: "inception_4e/3x3"
  param {
    lr_mult: 1
    decay_mult: 1
  }
  param {
    lr_mult: 2
    decay_mult: 0
  }
  convolution_param {
    num_output: 320
    pad: 1
    kernel_size: 3
    weight_filler {
      type: "xavier"
      std: 0.03
    }
    bias_filler {
      type: "constant"
      value: 0.2
    }
  }
}
layer {
  name: "inception_4e/relu_3x3"
  type: "ReLU"
  bottom: "inception_4e/3x3"
  top: "inception_4e/3x3"
}
layer {
  name: "inception_4e/5x5_reduce"
  type: "Convolution"
  bottom: "inception_4d/output"
  top: "inception_4e/5x5_reduce"
  param {
    lr_mult: 1
    decay_mult: 1
  }
  param {
    lr_mult: 2
    decay_mult: 0
  }
  convolution_param {
    num_output: 32
    kernel_size: 1
    weight_filler {
      type: "xavier"
      std: 0.2
    }
    bias_filler {
      type: "constant"
      value: 0.2
    }
  }
}
layer {
  name: "inception_4e/relu_5x5_reduce"
  type: "ReLU"
  bottom: "inception_4e/5x5_reduce"
  top: "inception_4e/5x5_reduce"
}
layer {
  name: "inception_4e/5x5"
  type: "Convolution"
  bottom: "inception_4e/5x5_reduce"
  top: "inception_4e/
I0403 16:35:43.419106 18643 layer_factory.hpp:77] Creating layer data
I0403 16:35:43.419677 18643 net.cpp:91] Creating Layer data
I0403 16:35:43.419709 18643 net.cpp:399] data -> data
I0403 16:35:43.419759 18643 net.cpp:399] data -> label
I0403 16:35:43.419792 18643 data_transformer.cpp:25] Loading mean file from: /home/mohanty/data/final_dataset/lmdb/segmented-20-80/mean.binaryproto
I0403 16:35:43.420987 18646 db_lmdb.cpp:38] Opened lmdb /home/mohanty/data/final_dataset/lmdb/segmented-20-80/test_db
I0403 16:35:43.432195 18643 data_layer.cpp:41] output data size: 24,3,224,224
I0403 16:35:43.458524 18643 net.cpp:141] Setting up data
I0403 16:35:43.458606 18643 net.cpp:148] Top shape: 24 3 224 224 (3612672)
I0403 16:35:43.458629 18643 net.cpp:148] Top shape: 24 (24)
I0403 16:35:43.458645 18643 net.cpp:156] Memory required for data: 14450784
I0403 16:35:43.458673 18643 layer_factory.hpp:77] Creating layer label_data_1_split
I0403 16:35:43.458698 18643 net.cpp:91] Creating Layer label_data_1_split
I0403 16:35:43.458717 18643 net.cpp:425] label_data_1_split <- label
I0403 16:35:43.458750 18643 net.cpp:399] label_data_1_split -> label_data_1_split_0
I0403 16:35:43.458777 18643 net.cpp:399] label_data_1_split -> label_data_1_split_1
I0403 16:35:43.458798 18643 net.cpp:399] label_data_1_split -> label_data_1_split_2
I0403 16:35:43.458820 18643 net.cpp:399] label_data_1_split -> label_data_1_split_3
I0403 16:35:43.458839 18643 net.cpp:399] label_data_1_split -> label_data_1_split_4
I0403 16:35:43.458860 18643 net.cpp:399] label_data_1_split -> label_data_1_split_5
I0403 16:35:43.458878 18643 net.cpp:399] label_data_1_split -> label_data_1_split_6
I0403 16:35:43.458899 18643 net.cpp:399] label_data_1_split -> label_data_1_split_7
I0403 16:35:43.458917 18643 net.cpp:399] label_data_1_split -> label_data_1_split_8
I0403 16:35:43.458936 18643 net.cpp:399] label_data_1_split -> label_data_1_split_9
I0403 16:35:43.459048 18643 net.cpp:141] Setting up label_data_1_split
I0403 16:35:43.459071 18643 net.cpp:148] Top shape: 24 (24)
I0403 16:35:43.459089 18643 net.cpp:148] Top shape: 24 (24)
I0403 16:35:43.459105 18643 net.cpp:148] Top shape: 24 (24)
I0403 16:35:43.459118 18643 net.cpp:148] Top shape: 24 (24)
I0403 16:35:43.459132 18643 net.cpp:148] Top shape: 24 (24)
I0403 16:35:43.459147 18643 net.cpp:148] Top shape: 24 (24)
I0403 16:35:43.459161 18643 net.cpp:148] Top shape: 24 (24)
I0403 16:35:43.459177 18643 net.cpp:148] Top shape: 24 (24)
I0403 16:35:43.459192 18643 net.cpp:148] Top shape: 24 (24)
I0403 16:35:43.459205 18643 net.cpp:148] Top shape: 24 (24)
I0403 16:35:43.459255 18643 net.cpp:156] Memory required for data: 14451744
I0403 16:35:43.459270 18643 layer_factory.hpp:77] Creating layer conv1/7x7_s2
I0403 16:35:43.459303 18643 net.cpp:91] Creating Layer conv1/7x7_s2
I0403 16:35:43.459321 18643 net.cpp:425] conv1/7x7_s2 <- data
I0403 16:35:43.459339 18643 net.cpp:399] conv1/7x7_s2 -> conv1/7x7_s2
I0403 16:35:43.592242 18643 net.cpp:141] Setting up conv1/7x7_s2
I0403 16:35:43.592300 18643 net.cpp:148] Top shape: 24 64 112 112 (19267584)
I0403 16:35:43.592316 18643 net.cpp:156] Memory required for data: 91522080
I0403 16:35:43.592345 18643 layer_factory.hpp:77] Creating layer conv1/relu_7x7
I0403 16:35:43.592370 18643 net.cpp:91] Creating Layer conv1/relu_7x7
I0403 16:35:43.592387 18643 net.cpp:425] conv1/relu_7x7 <- conv1/7x7_s2
I0403 16:35:43.592406 18643 net.cpp:386] conv1/relu_7x7 -> conv1/7x7_s2 (in-place)
I0403 16:35:43.592651 18643 net.cpp:141] Setting up conv1/relu_7x7
I0403 16:35:43.592676 18643 net.cpp:148] Top shape: 24 64 112 112 (19267584)
I0403 16:35:43.592690 18643 net.cpp:156] Memory required for data: 168592416
I0403 16:35:43.592705 18643 layer_factory.hpp:77] Creating layer pool1/3x3_s2
I0403 16:35:43.592728 18643 net.cpp:91] Creating Layer pool1/3x3_s2
I0403 16:35:43.592746 18643 net.cpp:425] pool1/3x3_s2 <- conv1/7x7_s2
I0403 16:35:43.592762 18643 net.cpp:399] pool1/3x3_s2 -> pool1/3x3_s2
I0403 16:35:43.592830 18643 net.cpp:141] Setting up pool1/3x3_s2
I0403 16:35:43.592854 18643 net.cpp:148] Top shape: 24 64 56 56 (4816896)
I0403 16:35:43.592867 18643 net.cpp:156] Memory required for data: 187860000
I0403 16:35:43.592881 18643 layer_factory.hpp:77] Creating layer pool1/norm1
I0403 16:35:43.592903 18643 net.cpp:91] Creating Layer pool1/norm1
I0403 16:35:43.592919 18643 net.cpp:425] pool1/norm1 <- pool1/3x3_s2
I0403 16:35:43.592936 18643 net.cpp:399] pool1/norm1 -> pool1/norm1
I0403 16:35:43.593201 18643 net.cpp:141] Setting up pool1/norm1
I0403 16:35:43.593225 18643 net.cpp:148] Top shape: 24 64 56 56 (4816896)
I0403 16:35:43.593240 18643 net.cpp:156] Memory required for data: 207127584
I0403 16:35:43.593255 18643 layer_factory.hpp:77] Creating layer conv2/3x3_reduce
I0403 16:35:43.593277 18643 net.cpp:91] Creating Layer conv2/3x3_reduce
I0403 16:35:43.593293 18643 net.cpp:425] conv2/3x3_reduce <- pool1/norm1
I0403 16:35:43.593310 18643 net.cpp:399] conv2/3x3_reduce -> conv2/3x3_reduce
I0403 16:35:43.594543 18643 net.cpp:141] Setting up conv2/3x3_reduce
I0403 16:35:43.594580 18643 net.cpp:148] Top shape: 24 64 56 56 (4816896)
I0403 16:35:43.594599 18643 net.cpp:156] Memory required for data: 226395168
I0403 16:35:43.594619 18643 layer_factory.hpp:77] Creating layer conv2/relu_3x3_reduce
I0403 16:35:43.594636 18643 net.cpp:91] Creating Layer conv2/relu_3x3_reduce
I0403 16:35:43.594651 18643 net.cpp:425] conv2/relu_3x3_reduce <- conv2/3x3_reduce
I0403 16:35:43.594666 18643 net.cpp:386] conv2/relu_3x3_reduce -> conv2/3x3_reduce (in-place)
I0403 16:35:43.594900 18643 net.cpp:141] Setting up conv2/relu_3x3_reduce
I0403 16:35:43.594925 18643 net.cpp:148] Top shape: 24 64 56 56 (4816896)
I0403 16:35:43.594939 18643 net.cpp:156] Memory required for data: 245662752
I0403 16:35:43.594954 18643 layer_factory.hpp:77] Creating layer conv2/3x3
I0403 16:35:43.594974 18643 net.cpp:91] Creating Layer conv2/3x3
I0403 16:35:43.594990 18643 net.cpp:425] conv2/3x3 <- conv2/3x3_reduce
I0403 16:35:43.595006 18643 net.cpp:399] conv2/3x3 -> conv2/3x3
I0403 16:35:43.597072 18643 net.cpp:141] Setting up conv2/3x3
I0403 16:35:43.597101 18643 net.cpp:148] Top shape: 24 192 56 56 (14450688)
I0403 16:35:43.597116 18643 net.cpp:156] Memory required for data: 303465504
I0403 16:35:43.597134 18643 layer_factory.hpp:77] Creating layer conv2/relu_3x3
I0403 16:35:43.597152 18643 net.cpp:91] Creating Layer conv2/relu_3x3
I0403 16:35:43.597167 18643 net.cpp:425] conv2/relu_3x3 <- conv2/3x3
I0403 16:35:43.597182 18643 net.cpp:386] conv2/relu_3x3 -> conv2/3x3 (in-place)
I0403 16:35:43.597331 18643 net.cpp:141] Setting up conv2/relu_3x3
I0403 16:35:43.597353 18643 net.cpp:148] Top shape: 24 192 56 56 (14450688)
I0403 16:35:43.597404 18643 net.cpp:156] Memory required for data: 361268256
I0403 16:35:43.597419 18643 layer_factory.hpp:77] Creating layer conv2/norm2
I0403 16:35:43.597436 18643 net.cpp:91] Creating Layer conv2/norm2
I0403 16:35:43.597450 18643 net.cpp:425] conv2/norm2 <- conv2/3x3
I0403 16:35:43.597467 18643 net.cpp:399] conv2/norm2 -> conv2/norm2
I0403 16:35:43.597736 18643 net.cpp:141] Setting up conv2/norm2
I0403 16:35:43.597761 18643 net.cpp:148] Top shape: 24 192 56 56 (14450688)
I0403 16:35:43.597775 18643 net.cpp:156] Memory required for data: 419071008
I0403 16:35:43.597790 18643 layer_factory.hpp:77] Creating layer pool2/3x3_s2
I0403 16:35:43.597807 18643 net.cpp:91] Creating Layer pool2/3x3_s2
I0403 16:35:43.597826 18643 net.cpp:425] pool2/3x3_s2 <- conv2/norm2
I0403 16:35:43.597842 18643 net.cpp:399] pool2/3x3_s2 -> pool2/3x3_s2
I0403 16:35:43.597887 18643 net.cpp:141] Setting up pool2/3x3_s2
I0403 16:35:43.597908 18643 net.cpp:148] Top shape: 24 192 28 28 (3612672)
I0403 16:35:43.597923 18643 net.cpp:156] Memory required for data: 433521696
I0403 16:35:43.597936 18643 layer_factory.hpp:77] Creating layer pool2/3x3_s2_pool2/3x3_s2_0_split
I0403 16:35:43.597952 18643 net.cpp:91] Creating Layer pool2/3x3_s2_pool2/3x3_s2_0_split
I0403 16:35:43.597966 18643 net.cpp:425] pool2/3x3_s2_pool2/3x3_s2_0_split <- pool2/3x3_s2
I0403 16:35:43.597982 18643 net.cpp:399] pool2/3x3_s2_pool2/3x3_s2_0_split -> pool2/3x3_s2_pool2/3x3_s2_0_split_0
I0403 16:35:43.598001 18643 net.cpp:399] pool2/3x3_s2_pool2/3x3_s2_0_split -> pool2/3x3_s2_pool2/3x3_s2_0_split_1
I0403 16:35:43.598019 18643 net.cpp:399] pool2/3x3_s2_pool2/3x3_s2_0_split -> pool2/3x3_s2_pool2/3x3_s2_0_split_2
I0403 16:35:43.598037 18643 net.cpp:399] pool2/3x3_s2_pool2/3x3_s2_0_split -> pool2/3x3_s2_pool2/3x3_s2_0_split_3
I0403 16:35:43.598096 18643 net.cpp:141] Setting up pool2/3x3_s2_pool2/3x3_s2_0_split
I0403 16:35:43.598116 18643 net.cpp:148] Top shape: 24 192 28 28 (3612672)
I0403 16:35:43.598131 18643 net.cpp:148] Top shape: 24 192 28 28 (3612672)
I0403 16:35:43.598146 18643 net.cpp:148] Top shape: 24 192 28 28 (3612672)
I0403 16:35:43.598160 18643 net.cpp:148] Top shape: 24 192 28 28 (3612672)
I0403 16:35:43.598173 18643 net.cpp:156] Memory required for data: 491324448
I0403 16:35:43.598186 18643 layer_factory.hpp:77] Creating layer inception_3a/1x1
I0403 16:35:43.598206 18643 net.cpp:91] Creating Layer inception_3a/1x1
I0403 16:35:43.598222 18643 net.cpp:425] inception_3a/1x1 <- pool2/3x3_s2_pool2/3x3_s2_0_split_0
I0403 16:35:43.598238 18643 net.cpp:399] inception_3a/1x1 -> inception_3a/1x1
I0403 16:35:43.599617 18643 net.cpp:141] Setting up inception_3a/1x1
I0403 16:35:43.599644 18643 net.cpp:148] Top shape: 24 64 28 28 (1204224)
I0403 16:35:43.599660 18643 net.cpp:156] Memory required for data: 496141344
I0403 16:35:43.599678 18643 layer_factory.hpp:77] Creating layer inception_3a/relu_1x1
I0403 16:35:43.599694 18643 net.cpp:91] Creating Layer inception_3a/relu_1x1
I0403 16:35:43.599709 18643 net.cpp:425] inception_3a/relu_1x1 <- inception_3a/1x1
I0403 16:35:43.599725 18643 net.cpp:386] inception_3a/relu_1x1 -> inception_3a/1x1 (in-place)
I0403 16:35:43.599887 18643 net.cpp:141] Setting up inception_3a/relu_1x1
I0403 16:35:43.599910 18643 net.cpp:148] Top shape: 24 64 28 28 (1204224)
I0403 16:35:43.599923 18643 net.cpp:156] Memory required for data: 500958240
I0403 16:35:43.599936 18643 layer_factory.hpp:77] Creating layer inception_3a/3x3_reduce
I0403 16:35:43.599957 18643 net.cpp:91] Creating Layer inception_3a/3x3_reduce
I0403 16:35:43.599972 18643 net.cpp:425] inception_3a/3x3_reduce <- pool2/3x3_s2_pool2/3x3_s2_0_split_1
I0403 16:35:43.599992 18643 net.cpp:399] inception_3a/3x3_reduce -> inception_3a/3x3_reduce
I0403 16:35:43.601586 18643 net.cpp:141] Setting up inception_3a/3x3_reduce
I0403 16:35:43.601615 18643 net.cpp:148] Top shape: 24 96 28 28 (1806336)
I0403 16:35:43.601630 18643 net.cpp:156] Memory required for data: 508183584
I0403 16:35:43.601650 18643 layer_factory.hpp:77] Creating layer inception_3a/relu_3x3_reduce
I0403 16:35:43.601686 18643 net.cpp:91] Creating Layer inception_3a/relu_3x3_reduce
I0403 16:35:43.601703 18643 net.cpp:425] inception_3a/relu_3x3_reduce <- inception_3a/3x3_reduce
I0403 16:35:43.601719 18643 net.cpp:386] inception_3a/relu_3x3_reduce -> inception_3a/3x3_reduce (in-place)
I0403 16:35:43.601886 18643 net.cpp:141] Setting up inception_3a/relu_3x3_reduce
I0403 16:35:43.601912 18643 net.cpp:148] Top shape: 24 96 28 28 (1806336)
I0403 16:35:43.601927 18643 net.cpp:156] Memory required for data: 515408928
I0403 16:35:43.601939 18643 layer_factory.hpp:77] Creating layer inception_3a/3x3
I0403 16:35:43.601960 18643 net.cpp:91] Creating Layer inception_3a/3x3
I0403 16:35:43.601976 18643 net.cpp:425] inception_3a/3x3 <- inception_3a/3x3_reduce
I0403 16:35:43.601994 18643 net.cpp:399] inception_3a/3x3 -> inception_3a/3x3
I0403 16:35:43.603564 18643 net.cpp:141] Setting up inception_3a/3x3
I0403 16:35:43.603593 18643 net.cpp:148] Top shape: 24 128 28 28 (2408448)
I0403 16:35:43.603608 18643 net.cpp:156] Memory required for data: 525042720
I0403 16:35:43.603626 18643 layer_factory.hpp:77] Creating layer inception_3a/relu_3x3
I0403 16:35:43.603642 18643 net.cpp:91] Creating Layer inception_3a/relu_3x3
I0403 16:35:43.603657 18643 net.cpp:425] inception_3a/relu_3x3 <- inception_3a/3x3
I0403 16:35:43.603675 18643 net.cpp:386] inception_3a/relu_3x3 -> inception_3a/3x3 (in-place)
I0403 16:35:43.603930 18643 net.cpp:141] Setting up inception_3a/relu_3x3
I0403 16:35:43.603955 18643 net.cpp:148] Top shape: 24 128 28 28 (2408448)
I0403 16:35:43.603968 18643 net.cpp:156] Memory required for data: 534676512
I0403 16:35:43.603982 18643 layer_factory.hpp:77] Creating layer inception_3a/5x5_reduce
I0403 16:35:43.604004 18643 net.cpp:91] Creating Layer inception_3a/5x5_reduce
I0403 16:35:43.604020 18643 net.cpp:425] inception_3a/5x5_reduce <- pool2/3x3_s2_pool2/3x3_s2_0_split_2
I0403 16:35:43.604040 18643 net.cpp:399] inception_3a/5x5_reduce -> inception_3a/5x5_reduce
I0403 16:35:43.604940 18643 net.cpp:141] Setting up inception_3a/5x5_reduce
I0403 16:35:43.604966 18643 net.cpp:148] Top shape: 24 16 28 28 (301056)
I0403 16:35:43.604980 18643 net.cpp:156] Memory required for data: 535880736
I0403 16:35:43.604997 18643 layer_factory.hpp:77] Creating layer inception_3a/relu_5x5_reduce
I0403 16:35:43.605016 18643 net.cpp:91] Creating Layer inception_3a/relu_5x5_reduce
I0403 16:35:43.605032 18643 net.cpp:425] inception_3a/relu_5x5_reduce <- inception_3a/5x5_reduce
I0403 16:35:43.605048 18643 net.cpp:386] inception_3a/relu_5x5_reduce -> inception_3a/5x5_reduce (in-place)
I0403 16:35:43.605319 18643 net.cpp:141] Setting up inception_3a/relu_5x5_reduce
I0403 16:35:43.605343 18643 net.cpp:148] Top shape: 24 16 28 28 (301056)
I0403 16:35:43.605357 18643 net.cpp:156] Memory required for data: 537084960
I0403 16:35:43.605371 18643 layer_factory.hpp:77] Creating layer inception_3a/5x5
I0403 16:35:43.605392 18643 net.cpp:91] Creating Layer inception_3a/5x5
I0403 16:35:43.605411 18643 net.cpp:425] inception_3a/5x5 <- inception_3a/5x5_reduce
I0403 16:35:43.605428 18643 net.cpp:399] inception_3a/5x5 -> inception_3a/5x5
I0403 16:35:43.606377 18643 net.cpp:141] Setting up inception_3a/5x5
I0403 16:35:43.606402 18643 net.cpp:148] Top shape: 24 32 28 28 (602112)
I0403 16:35:43.606417 18643 net.cpp:156] Memory required for data: 539493408
I0403 16:35:43.606434 18643 layer_factory.hpp:77] Creating layer inception_3a/relu_5x5
I0403 16:35:43.606452 18643 net.cpp:91] Creating Layer inception_3a/relu_5x5
I0403 16:35:43.606467 18643 net.cpp:425] inception_3a/relu_5x5 <- inception_3a/5x5
I0403 16:35:43.606485 18643 net.cpp:386] inception_3a/relu_5x5 -> inception_3a/5x5 (in-place)
I0403 16:35:43.606649 18643 net.cpp:141] Setting up inception_3a/relu_5x5
I0403 16:35:43.606673 18643 net.cpp:148] Top shape: 24 32 28 28 (602112)
I0403 16:35:43.606686 18643 net.cpp:156] Memory required for data: 541901856
I0403 16:35:43.606700 18643 layer_factory.hpp:77] Creating layer inception_3a/pool
I0403 16:35:43.606719 18643 net.cpp:91] Creating Layer inception_3a/pool
I0403 16:35:43.606746 18643 net.cpp:425] inception_3a/pool <- pool2/3x3_s2_pool2/3x3_s2_0_split_3
I0403 16:35:43.606765 18643 net.cpp:399] inception_3a/pool -> inception_3a/pool
I0403 16:35:43.606818 18643 net.cpp:141] Setting up inception_3a/pool
I0403 16:35:43.606840 18643 net.cpp:148] Top shape: 24 192 28 28 (3612672)
I0403 16:35:43.606854 18643 net.cpp:156] Memory required for data: 556352544
I0403 16:35:43.606868 18643 layer_factory.hpp:77] Creating layer inception_3a/pool_proj
I0403 16:35:43.606889 18643 net.cpp:91] Creating Layer inception_3a/pool_proj
I0403 16:35:43.606905 18643 net.cpp:425] inception_3a/pool_proj <- inception_3a/pool
I0403 16:35:43.606926 18643 net.cpp:399] inception_3a/pool_proj -> inception_3a/pool_proj
I0403 16:35:43.607822 18643 net.cpp:141] Setting up inception_3a/pool_proj
I0403 16:35:43.607851 18643 net.cpp:148] Top shape: 24 32 28 28 (602112)
I0403 16:35:43.607867 18643 net.cpp:156] Memory required for data: 558760992
I0403 16:35:43.607887 18643 layer_factory.hpp:77] Creating layer inception_3a/relu_pool_proj
I0403 16:35:43.607906 18643 net.cpp:91] Creating Layer inception_3a/relu_pool_proj
I0403 16:35:43.607921 18643 net.cpp:425] inception_3a/relu_pool_proj <- inception_3a/pool_proj
I0403 16:35:43.607939 18643 net.cpp:386] inception_3a/relu_pool_proj -> inception_3a/pool_proj (in-place)
I0403 16:35:43.608194 18643 net.cpp:141] Setting up inception_3a/relu_pool_proj
I0403 16:35:43.608219 18643 net.cpp:148] Top shape: 24 32 28 28 (602112)
I0403 16:35:43.608233 18643 net.cpp:156] Memory required for data: 561169440
I0403 16:35:43.608247 18643 layer_factory.hpp:77] Creating layer inception_3a/output
I0403 16:35:43.608263 18643 net.cpp:91] Creating Layer inception_3a/output
I0403 16:35:43.608278 18643 net.cpp:425] inception_3a/output <- inception_3a/1x1
I0403 16:35:43.608294 18643 net.cpp:425] inception_3a/output <- inception_3a/3x3
I0403 16:35:43.608309 18643 net.cpp:425] inception_3a/output <- inception_3a/5x5
I0403 16:35:43.608325 18643 net.cpp:425] inception_3a/output <- inception_3a/pool_proj
I0403 16:35:43.608343 18643 net.cpp:399] inception_3a/output -> inception_3a/output
I0403 16:35:43.608386 18643 net.cpp:141] Setting up inception_3a/output
I0403 16:35:43.608408 18643 net.cpp:148] Top shape: 24 256 28 28 (4816896)
I0403 16:35:43.608422 18643 net.cpp:156] Memory required for data: 580437024
I0403 16:35:43.608436 18643 layer_factory.hpp:77] Creating layer inception_3a/output_inception_3a/output_0_split
I0403 16:35:43.608453 18643 net.cpp:91] Creating Layer inception_3a/output_inception_3a/output_0_split
I0403 16:35:43.608466 18643 net.cpp:425] inception_3a/output_inception_3a/output_0_split <- inception_3a/output
I0403 16:35:43.608482 18643 net.cpp:399] inception_3a/output_inception_3a/output_0_split -> inception_3a/output_inception_3a/output_0_split_0
I0403 16:35:43.608502 18643 net.cpp:399] inception_3a/output_inception_3a/output_0_split -> inception_3a/output_inception_3a/output_0_split_1
I0403 16:35:43.608525 18643 net.cpp:399] inception_3a/output_inception_3a/output_0_split -> inception_3a/output_inception_3a/output_0_split_2
I0403 16:35:43.608544 18643 net.cpp:399] inception_3a/output_inception_3a/output_0_split -> inception_3a/output_inception_3a/output_0_split_3
I0403 16:35:43.608645 18643 net.cpp:141] Setting up inception_3a/output_inception_3a/output_0_split
I0403 16:35:43.608671 18643 net.cpp:148] Top shape: 24 256 28 28 (4816896)
I0403 16:35:43.608688 18643 net.cpp:148] Top shape: 24 256 28 28 (4816896)
I0403 16:35:43.608703 18643 net.cpp:148] Top shape: 24 256 28 28 (4816896)
I0403 16:35:43.608718 18643 net.cpp:148] Top shape: 24 256 28 28 (4816896)
I0403 16:35:43.608731 18643 net.cpp:156] Memory required for data: 657507360
I0403 16:35:43.608747 18643 layer_factory.hpp:77] Creating layer inception_3b/1x1
I0403 16:35:43.608767 18643 net.cpp:91] Creating Layer inception_3b/1x1
I0403 16:35:43.608784 18643 net.cpp:425] inception_3b/1x1 <- inception_3a/output_inception_3a/output_0_split_0
I0403 16:35:43.608803 18643 net.cpp:399] inception_3b/1x1 -> inception_3b/1x1
I0403 16:35:43.609876 18643 net.cpp:141] Setting up inception_3b/1x1
I0403 16:35:43.609915 18643 net.cpp:148] Top shape: 24 128 28 28 (2408448)
I0403 16:35:43.609931 18643 net.cpp:156] Memory required for data: 667141152
I0403 16:35:43.609949 18643 layer_factory.hpp:77] Creating layer inception_3b/relu_1x1
I0403 16:35:43.609966 18643 net.cpp:91] Creating Layer inception_3b/relu_1x1
I0403 16:35:43.609980 18643 net.cpp:425] inception_3b/relu_1x1 <- inception_3b/1x1
I0403 16:35:43.609999 18643 net.cpp:386] inception_3b/relu_1x1 -> inception_3b/1x1 (in-place)
I0403 16:35:43.610159 18643 net.cpp:141] Setting up inception_3b/relu_1x1
I0403 16:35:43.610183 18643 net.cpp:148] Top shape: 24 128 28 28 (2408448)
I0403 16:35:43.610196 18643 net.cpp:156] Memory required for data: 676774944
I0403 16:35:43.610209 18643 layer_factory.hpp:77] Creating layer inception_3b/3x3_reduce
I0403 16:35:43.610229 18643 net.cpp:91] Creating Layer inception_3b/3x3_reduce
I0403 16:35:43.610246 18643 net.cpp:425] inception_3b/3x3_reduce <- inception_3a/output_inception_3a/output_0_split_1
I0403 16:35:43.610266 18643 net.cpp:399] inception_3b/3x3_reduce -> inception_3b/3x3_reduce
I0403 16:35:43.611320 18643 net.cpp:141] Setting up inception_3b/3x3_reduce
I0403 16:35:43.611348 18643 net.cpp:148] Top shape: 24 128 28 28 (2408448)
I0403 16:35:43.611363 18643 net.cpp:156] Memory required for data: 686408736
I0403 16:35:43.611379 18643 layer_factory.hpp:77] Creating layer inception_3b/relu_3x3_reduce
I0403 16:35:43.611397 18643 net.cpp:91] Creating Layer inception_3b/relu_3x3_reduce
I0403 16:35:43.611410 18643 net.cpp:425] inception_3b/relu_3x3_reduce <- inception_3b/3x3_reduce
I0403 16:35:43.611428 18643 net.cpp:386] inception_3b/relu_3x3_reduce -> inception_3b/3x3_reduce (in-place)
I0403 16:35:43.611593 18643 net.cpp:141] Setting up inception_3b/relu_3x3_reduce
I0403 16:35:43.611618 18643 net.cpp:148] Top shape: 24 128 28 28 (2408448)
I0403 16:35:43.611630 18643 net.cpp:156] Memory required for data: 696042528
I0403 16:35:43.611645 18643 layer_factory.hpp:77] Creating layer inception_3b/3x3
I0403 16:35:43.611668 18643 net.cpp:91] Creating Layer inception_3b/3x3
I0403 16:35:43.611685 18643 net.cpp:425] inception_3b/3x3 <- inception_3b/3x3_reduce
I0403 16:35:43.611703 18643 net.cpp:399] inception_3b/3x3 -> inception_3b/3x3
I0403 16:35:43.614430 18643 net.cpp:141] Setting up inception_3b/3x3
I0403 16:35:43.614456 18643 net.cpp:148] Top shape: 24 192 28 28 (3612672)
I0403 16:35:43.614471 18643 net.cpp:156] Memory required for data: 710493216
I0403 16:35:43.614488 18643 layer_factory.hpp:77] Creating layer inception_3b/relu_3x3
I0403 16:35:43.614505 18643 net.cpp:91] Creating Layer inception_3b/relu_3x3
I0403 16:35:43.614519 18643 net.cpp:425] inception_3b/relu_3x3 <- inception_3b/3x3
I0403 16:35:43.614537 18643 net.cpp:386] inception_3b/relu_3x3 -> inception_3b/3x3 (in-place)
I0403 16:35:43.614807 18643 net.cpp:141] Setting up inception_3b/relu_3x3
I0403 16:35:43.614831 18643 net.cpp:148] Top shape: 24 192 28 28 (3612672)
I0403 16:35:43.614845 18643 net.cpp:156] Memory required for data: 724943904
I0403 16:35:43.614859 18643 layer_factory.hpp:77] Creating layer inception_3b/5x5_reduce
I0403 16:35:43.614879 18643 net.cpp:91] Creating Layer inception_3b/5x5_reduce
I0403 16:35:43.614897 18643 net.cpp:425] inception_3b/5x5_reduce <- inception_3a/output_inception_3a/output_0_split_2
I0403 16:35:43.614917 18643 net.cpp:399] inception_3b/5x5_reduce -> inception_3b/5x5_reduce
I0403 16:35:43.615849 18643 net.cpp:141] Setting up inception_3b/5x5_reduce
I0403 16:35:43.615875 18643 net.cpp:148] Top shape: 24 32 28 28 (602112)
I0403 16:35:43.615890 18643 net.cpp:156] Memory required for data: 727352352
I0403 16:35:43.615906 18643 layer_factory.hpp:77] Creating layer inception_3b/relu_5x5_reduce
I0403 16:35:43.615923 18643 net.cpp:91] Creating Layer inception_3b/relu_5x5_reduce
I0403 16:35:43.615938 18643 net.cpp:425] inception_3b/relu_5x5_reduce <- inception_3b/5x5_reduce
I0403 16:35:43.615957 18643 net.cpp:386] inception_3b/relu_5x5_reduce -> inception_3b/5x5_reduce (in-place)
I0403 16:35:43.616134 18643 net.cpp:141] Setting up inception_3b/relu_5x5_reduce
I0403 16:35:43.616158 18643 net.cpp:148] Top shape: 24 32 28 28 (602112)
I0403 16:35:43.616173 18643 net.cpp:156] Memory required for data: 729760800
I0403 16:35:43.616185 18643 layer_factory.hpp:77] Creating layer inception_3b/5x5
I0403 16:35:43.616207 18643 net.cpp:91] Creating Layer inception_3b/5x5
I0403 16:35:43.616224 18643 net.cpp:425] inception_3b/5x5 <- inception_3b/5x5_reduce
I0403 16:35:43.616242 18643 net.cpp:399] inception_3b/5x5 -> inception_3b/5x5
I0403 16:35:43.618095 18643 net.cpp:141] Setting up inception_3b/5x5
I0403 16:35:43.618124 18643 net.cpp:148] Top shape: 24 96 28 28 (1806336)
I0403 16:35:43.618140 18643 net.cpp:156] Memory required for data: 736986144
I0403 16:35:43.618157 18643 layer_factory.hpp:77] Creating layer inception_3b/relu_5x5
I0403 16:35:43.618175 18643 net.cpp:91] Creating Layer inception_3b/relu_5x5
I0403 16:35:43.618188 18643 net.cpp:425] inception_3b/relu_5x5 <- inception_3b/5x5
I0403 16:35:43.618204 18643 net.cpp:386] inception_3b/relu_5x5 -> inception_3b/5x5 (in-place)
I0403 16:35:43.618386 18643 net.cpp:141] Setting up inception_3b/relu_5x5
I0403 16:35:43.618409 18643 net.cpp:148] Top shape: 24 96 28 28 (1806336)
I0403 16:35:43.618422 18643 net.cpp:156] Memory required for data: 744211488
I0403 16:35:43.618438 18643 layer_factory.hpp:77] Creating layer inception_3b/pool
I0403 16:35:43.618453 18643 net.cpp:91] Creating Layer inception_3b/pool
I0403 16:35:43.618468 18643 net.cpp:425] inception_3b/pool <- inception_3a/output_inception_3a/output_0_split_3
I0403 16:35:43.618485 18643 net.cpp:399] inception_3b/pool -> inception_3b/pool
I0403 16:35:43.618537 18643 net.cpp:141] Setting up inception_3b/pool
I0403 16:35:43.618561 18643 net.cpp:148] Top shape: 24 256 28 28 (4816896)
I0403 16:35:43.618580 18643 net.cpp:156] Memory required for data: 763479072
I0403 16:35:43.618594 18643 layer_factory.hpp:77] Creating layer inception_3b/pool_proj
I0403 16:35:43.618615 18643 net.cpp:91] Creating Layer inception_3b/pool_proj
I0403 16:35:43.618631 18643 net.cpp:425] inception_3b/pool_proj <- inception_3b/pool
I0403 16:35:43.618649 18643 net.cpp:399] inception_3b/pool_proj -> inception_3b/pool_proj
I0403 16:35:43.619628 18643 net.cpp:141] Setting up inception_3b/pool_proj
I0403 16:35:43.619654 18643 net.cpp:148] Top shape: 24 64 28 28 (1204224)
I0403 16:35:43.619668 18643 net.cpp:156] Memory required for data: 768295968
I0403 16:35:43.619684 18643 layer_factory.hpp:77] Creating layer inception_3b/relu_pool_proj
I0403 16:35:43.619704 18643 net.cpp:91] Creating Layer inception_3b/relu_pool_proj
I0403 16:35:43.619719 18643 net.cpp:425] inception_3b/relu_pool_proj <- inception_3b/pool_proj
I0403 16:35:43.619735 18643 net.cpp:386] inception_3b/relu_pool_proj -> inception_3b/pool_proj (in-place)
I0403 16:35:43.620096 18643 net.cpp:141] Setting up inception_3b/relu_pool_proj
I0403 16:35:43.620121 18643 net.cpp:148] Top shape: 24 64 28 28 (1204224)
I0403 16:35:43.620134 18643 net.cpp:156] Memory required for data: 773112864
I0403 16:35:43.620148 18643 layer_factory.hpp:77] Creating layer inception_3b/output
I0403 16:35:43.620164 18643 net.cpp:91] Creating Layer inception_3b/output
I0403 16:35:43.620179 18643 net.cpp:425] inception_3b/output <- inception_3b/1x1
I0403 16:35:43.620194 18643 net.cpp:425] inception_3b/output <- inception_3b/3x3
I0403 16:35:43.620209 18643 net.cpp:425] inception_3b/output <- inception_3b/5x5
I0403 16:35:43.620224 18643 net.cpp:425] inception_3b/output <- inception_3b/pool_proj
I0403 16:35:43.620241 18643 net.cpp:399] inception_3b/output -> inception_3b/output
I0403 16:35:43.620285 18643 net.cpp:141] Setting up inception_3b/output
I0403 16:35:43.620306 18643 net.cpp:148] Top shape: 24 480 28 28 (9031680)
I0403 16:35:43.620319 18643 net.cpp:156] Memory required for data: 809239584
I0403 16:35:43.620333 18643 layer_factory.hpp:77] Creating layer pool3/3x3_s2
I0403 16:35:43.620349 18643 net.cpp:91] Creating Layer pool3/3x3_s2
I0403 16:35:43.620364 18643 net.cpp:425] pool3/3x3_s2 <- inception_3b/output
I0403 16:35:43.620398 18643 net.cpp:399] pool3/3x3_s2 -> pool3/3x3_s2
I0403 16:35:43.620452 18643 net.cpp:141] Setting up pool3/3x3_s2
I0403 16:35:43.620474 18643 net.cpp:148] Top shape: 24 480 14 14 (2257920)
I0403 16:35:43.620487 18643 net.cpp:156] Memory required for data: 818271264
I0403 16:35:43.620501 18643 layer_factory.hpp:77] Creating layer pool3/3x3_s2_pool3/3x3_s2_0_split
I0403 16:35:43.620518 18643 net.cpp:91] Creating Layer pool3/3x3_s2_pool3/3x3_s2_0_split
I0403 16:35:43.620533 18643 net.cpp:425] pool3/3x3_s2_pool3/3x3_s2_0_split <- pool3/3x3_s2
I0403 16:35:43.620548 18643 net.cpp:399] pool3/3x3_s2_pool3/3x3_s2_0_split -> pool3/3x3_s2_pool3/3x3_s2_0_split_0
I0403 16:35:43.620573 18643 net.cpp:399] pool3/3x3_s2_pool3/3x3_s2_0_split -> pool3/3x3_s2_pool3/3x3_s2_0_split_1
I0403 16:35:43.620594 18643 net.cpp:399] pool3/3x3_s2_pool3/3x3_s2_0_split -> pool3/3x3_s2_pool3/3x3_s2_0_split_2
I0403 16:35:43.620614 18643 net.cpp:399] pool3/3x3_s2_pool3/3x3_s2_0_split -> pool3/3x3_s2_pool3/3x3_s2_0_split_3
I0403 16:35:43.620683 18643 net.cpp:141] Setting up pool3/3x3_s2_pool3/3x3_s2_0_split
I0403 16:35:43.620704 18643 net.cpp:148] Top shape: 24 480 14 14 (2257920)
I0403 16:35:43.620720 18643 net.cpp:148] Top shape: 24 480 14 14 (2257920)
I0403 16:35:43.620735 18643 net.cpp:148] Top shape: 24 480 14 14 (2257920)
I0403 16:35:43.620749 18643 net.cpp:148] Top shape: 24 480 14 14 (2257920)
I0403 16:35:43.620762 18643 net.cpp:156] Memory required for data: 854397984
I0403 16:35:43.620775 18643 layer_factory.hpp:77] Creating layer inception_4a/1x1
I0403 16:35:43.620797 18643 net.cpp:91] Creating Layer inception_4a/1x1
I0403 16:35:43.620813 18643 net.cpp:425] inception_4a/1x1 <- pool3/3x3_s2_pool3/3x3_s2_0_split_0
I0403 16:35:43.620833 18643 net.cpp:399] inception_4a/1x1 -> inception_4a/1x1
I0403 16:35:43.622290 18643 net.cpp:141] Setting up inception_4a/1x1
I0403 16:35:43.622316 18643 net.cpp:148] Top shape: 24 192 14 14 (903168)
I0403 16:35:43.622334 18643 net.cpp:156] Memory required for data: 858010656
I0403 16:35:43.622351 18643 layer_factory.hpp:77] Creating layer inception_4a/relu_1x1
I0403 16:35:43.622369 18643 net.cpp:91] Creating Layer inception_4a/relu_1x1
I0403 16:35:43.622382 18643 net.cpp:425] inception_4a/relu_1x1 <- inception_4a/1x1
I0403 16:35:43.622398 18643 net.cpp:386] inception_4a/relu_1x1 -> inception_4a/1x1 (in-place)
I0403 16:35:43.622565 18643 net.cpp:141] Setting up inception_4a/relu_1x1
I0403 16:35:43.622594 18643 net.cpp:148] Top shape: 24 192 14 14 (903168)
I0403 16:35:43.622609 18643 net.cpp:156] Memory required for data: 861623328
I0403 16:35:43.622623 18643 layer_factory.hpp:77] Creating layer inception_4a/3x3_reduce
I0403 16:35:43.622643 18643 net.cpp:91] Creating Layer inception_4a/3x3_reduce
I0403 16:35:43.622659 18643 net.cpp:425] inception_4a/3x3_reduce <- pool3/3x3_s2_pool3/3x3_s2_0_split_1
I0403 16:35:43.622678 18643 net.cpp:399] inception_4a/3x3_reduce -> inception_4a/3x3_reduce
I0403 16:35:43.623850 18643 net.cpp:141] Setting up inception_4a/3x3_reduce
I0403 16:35:43.623875 18643 net.cpp:148] Top shape: 24 96 14 14 (451584)
I0403 16:35:43.623889 18643 net.cpp:156] Memory required for data: 863429664
I0403 16:35:43.623913 18643 layer_factory.hpp:77] Creating layer inception_4a/relu_3x3_reduce
I0403 16:35:43.623932 18643 net.cpp:91] Creating Layer inception_4a/relu_3x3_reduce
I0403 16:35:43.623949 18643 net.cpp:425] inception_4a/relu_3x3_reduce <- inception_4a/3x3_reduce
I0403 16:35:43.623965 18643 net.cpp:386] inception_4a/relu_3x3_reduce -> inception_4a/3x3_reduce (in-place)
I0403 16:35:43.624126 18643 net.cpp:141] Setting up inception_4a/relu_3x3_reduce
I0403 16:35:43.624152 18643 net.cpp:148] Top shape: 24 96 14 14 (451584)
I0403 16:35:43.624166 18643 net.cpp:156] Memory required for data: 865236000
I0403 16:35:43.624179 18643 layer_factory.hpp:77] Creating layer inception_4a/3x3
I0403 16:35:43.624199 18643 net.cpp:91] Creating Layer inception_4a/3x3
I0403 16:35:43.624217 18643 net.cpp:425] inception_4a/3x3 <- inception_4a/3x3_reduce
I0403 16:35:43.624234 18643 net.cpp:399] inception_4a/3x3 -> inception_4a/3x3
I0403 16:35:43.626761 18643 net.cpp:141] Setting up inception_4a/3x3
I0403 16:35:43.626791 18643 net.cpp:148] Top shape: 24 208 14 14 (978432)
I0403 16:35:43.626807 18643 net.cpp:156] Memory required for data: 869149728
I0403 16:35:43.626824 18643 layer_factory.hpp:77] Creating layer inception_4a/relu_3x3
I0403 16:35:43.626840 18643 net.cpp:91] Creating Layer inception_4a/relu_3x3
I0403 16:35:43.626855 18643 net.cpp:425] inception_4a/relu_3x3 <- inception_4a/3x3
I0403 16:35:43.626873 18643 net.cpp:386] inception_4a/relu_3x3 -> inception_4a/3x3 (in-place)
I0403 16:35:43.627130 18643 net.cpp:141] Setting up inception_4a/relu_3x3
I0403 16:35:43.627156 18643 net.cpp:148] Top shape: 24 208 14 14 (978432)
I0403 16:35:43.627169 18643 net.cpp:156] Memory required for data: 873063456
I0403 16:35:43.627184 18643 layer_factory.hpp:77] Creating layer inception_4a/5x5_reduce
I0403 16:35:43.627205 18643 net.cpp:91] Creating Layer inception_4a/5x5_reduce
I0403 16:35:43.627223 18643 net.cpp:425] inception_4a/5x5_reduce <- pool3/3x3_s2_pool3/3x3_s2_0_split_2
I0403 16:35:43.627243 18643 net.cpp:399] inception_4a/5x5_reduce -> inception_4a/5x5_reduce
I0403 16:35:43.628243 18643 net.cpp:141] Setting up inception_4a/5x5_reduce
I0403 16:35:43.628269 18643 net.cpp:148] Top shape: 24 16 14 14 (75264)
I0403 16:35:43.628283 18643 net.cpp:156] Memory required for data: 873364512
I0403 16:35:43.628300 18643 layer_factory.hpp:77] Creating layer inception_4a/relu_5x5_reduce
I0403 16:35:43.628317 18643 net.cpp:91] Creating Layer inception_4a/relu_5x5_reduce
I0403 16:35:43.628332 18643 net.cpp:425] inception_4a/relu_5x5_reduce <- inception_4a/5x5_reduce
I0403 16:35:43.628350 18643 net.cpp:386] inception_4a/relu_5x5_reduce -> inception_4a/5x5_reduce (in-place)
I0403 16:35:43.628512 18643 net.cpp:141] Setting up inception_4a/relu_5x5_reduce
I0403 16:35:43.628535 18643 net.cpp:148] Top shape: 24 16 14 14 (75264)
I0403 16:35:43.628548 18643 net.cpp:156] Memory required for data: 873665568
I0403 16:35:43.628562 18643 layer_factory.hpp:77] Creating layer inception_4a/5x5
I0403 16:35:43.628587 18643 net.cpp:91] Creating Layer inception_4a/5x5
I0403 16:35:43.628604 18643 net.cpp:425] inception_4a/5x5 <- inception_4a/5x5_reduce
I0403 16:35:43.628623 18643 net.cpp:399] inception_4a/5x5 -> inception_4a/5x5
I0403 16:35:43.629640 18643 net.cpp:141] Setting up inception_4a/5x5
I0403 16:35:43.629667 18643 net.cpp:148] Top shape: 24 48 14 14 (225792)
I0403 16:35:43.629680 18643 net.cpp:156] Memory required for data: 874568736
I0403 16:35:43.629698 18643 layer_factory.hpp:77] Creating layer inception_4a/relu_5x5
I0403 16:35:43.629719 18643 net.cpp:91] Creating Layer inception_4a/relu_5x5
I0403 16:35:43.629734 18643 net.cpp:425] inception_4a/relu_5x5 <- inception_4a/5x5
I0403 16:35:43.629750 18643 net.cpp:386] inception_4a/relu_5x5 -> inception_4a/5x5 (in-place)
I0403 16:35:43.629914 18643 net.cpp:141] Setting up inception_4a/relu_5x5
I0403 16:35:43.629940 18643 net.cpp:148] Top shape: 24 48 14 14 (225792)
I0403 16:35:43.629954 18643 net.cpp:156] Memory required for data: 875471904
I0403 16:35:43.629968 18643 layer_factory.hpp:77] Creating layer inception_4a/pool
I0403 16:35:43.629984 18643 net.cpp:91] Creating Layer inception_4a/pool
I0403 16:35:43.629998 18643 net.cpp:425] inception_4a/pool <- pool3/3x3_s2_pool3/3x3_s2_0_split_3
I0403 16:35:43.630015 18643 net.cpp:399] inception_4a/pool -> inception_4a/pool
I0403 16:35:43.630072 18643 net.cpp:141] Setting up inception_4a/pool
I0403 16:35:43.630095 18643 net.cpp:148] Top shape: 24 480 14 14 (2257920)
I0403 16:35:43.630107 18643 net.cpp:156] Memory required for data: 884503584
I0403 16:35:43.630121 18643 layer_factory.hpp:77] Creating layer inception_4a/pool_proj
I0403 16:35:43.630142 18643 net.cpp:91] Creating Layer inception_4a/pool_proj
I0403 16:35:43.630159 18643 net.cpp:425] inception_4a/pool_proj <- inception_4a/pool
I0403 16:35:43.630178 18643 net.cpp:399] inception_4a/pool_proj -> inception_4a/pool_proj
I0403 16:35:43.631268 18643 net.cpp:141] Setting up inception_4a/pool_proj
I0403 16:35:43.631296 18643 net.cpp:148] Top shape: 24 64 14 14 (301056)
I0403 16:35:43.631325 18643 net.cpp:156] Memory required for data: 885707808
I0403 16:35:43.631343 18643 layer_factory.hpp:77] Creating layer inception_4a/relu_pool_proj
I0403 16:35:43.631363 18643 net.cpp:91] Creating Layer inception_4a/relu_pool_proj
I0403 16:35:43.631379 18643 net.cpp:425] inception_4a/relu_pool_proj <- inception_4a/pool_proj
I0403 16:35:43.631395 18643 net.cpp:386] inception_4a/relu_pool_proj -> inception_4a/pool_proj (in-place)
I0403 16:35:43.631659 18643 net.cpp:141] Setting up inception_4a/relu_pool_proj
I0403 16:35:43.631683 18643 net.cpp:148] Top shape: 24 64 14 14 (301056)
I0403 16:35:43.631697 18643 net.cpp:156] Memory required for data: 886912032
I0403 16:35:43.631711 18643 layer_factory.hpp:77] Creating layer inception_4a/output
I0403 16:35:43.631729 18643 net.cpp:91] Creating Layer inception_4a/output
I0403 16:35:43.631744 18643 net.cpp:425] inception_4a/output <- inception_4a/1x1
I0403 16:35:43.631760 18643 net.cpp:425] inception_4a/output <- inception_4a/3x3
I0403 16:35:43.631777 18643 net.cpp:425] inception_4a/output <- inception_4a/5x5
I0403 16:35:43.631790 18643 net.cpp:425] inception_4a/output <- inception_4a/pool_proj
I0403 16:35:43.631806 18643 net.cpp:399] inception_4a/output -> inception_4a/output
I0403 16:35:43.631850 18643 net.cpp:141] Setting up inception_4a/output
I0403 16:35:43.631871 18643 net.cpp:148] Top shape: 24 512 14 14 (2408448)
I0403 16:35:43.631885 18643 net.cpp:156] Memory required for data: 896545824
I0403 16:35:43.631897 18643 layer_factory.hpp:77] Creating layer inception_4a/output_inception_4a/output_0_split
I0403 16:35:43.631914 18643 net.cpp:91] Creating Layer inception_4a/output_inception_4a/output_0_split
I0403 16:35:43.631928 18643 net.cpp:425] inception_4a/output_inception_4a/output_0_split <- inception_4a/output
I0403 16:35:43.631947 18643 net.cpp:399] inception_4a/output_inception_4a/output_0_split -> inception_4a/output_inception_4a/output_0_split_0
I0403 16:35:43.631966 18643 net.cpp:399] inception_4a/output_inception_4a/output_0_split -> inception_4a/output_inception_4a/output_0_split_1
I0403 16:35:43.631986 18643 net.cpp:399] inception_4a/output_inception_4a/output_0_split -> inception_4a/output_inception_4a/output_0_split_2
I0403 16:35:43.632005 18643 net.cpp:399] inception_4a/output_inception_4a/output_0_split -> inception_4a/output_inception_4a/output_0_split_3
I0403 16:35:43.632028 18643 net.cpp:399] inception_4a/output_inception_4a/output_0_split -> inception_4a/output_inception_4a/output_0_split_4
I0403 16:35:43.632118 18643 net.cpp:141] Setting up inception_4a/output_inception_4a/output_0_split
I0403 16:35:43.632139 18643 net.cpp:148] Top shape: 24 512 14 14 (2408448)
I0403 16:35:43.632154 18643 net.cpp:148] Top shape: 24 512 14 14 (2408448)
I0403 16:35:43.632169 18643 net.cpp:148] Top shape: 24 512 14 14 (2408448)
I0403 16:35:43.632184 18643 net.cpp:148] Top shape: 24 512 14 14 (2408448)
I0403 16:35:43.632199 18643 net.cpp:148] Top shape: 24 512 14 14 (2408448)
I0403 16:35:43.632211 18643 net.cpp:156] Memory required for data: 944714784
I0403 16:35:43.632225 18643 layer_factory.hpp:77] Creating layer loss1/ave_pool
I0403 16:35:43.632241 18643 net.cpp:91] Creating Layer loss1/ave_pool
I0403 16:35:43.632256 18643 net.cpp:425] loss1/ave_pool <- inception_4a/output_inception_4a/output_0_split_0
I0403 16:35:43.632274 18643 net.cpp:399] loss1/ave_pool -> loss1/ave_pool
I0403 16:35:43.632463 18643 net.cpp:141] Setting up loss1/ave_pool
I0403 16:35:43.632488 18643 net.cpp:148] Top shape: 24 512 4 4 (196608)
I0403 16:35:43.632501 18643 net.cpp:156] Memory required for data: 945501216
I0403 16:35:43.632515 18643 layer_factory.hpp:77] Creating layer loss1/conv
I0403 16:35:43.632537 18643 net.cpp:91] Creating Layer loss1/conv
I0403 16:35:43.632555 18643 net.cpp:425] loss1/conv <- loss1/ave_pool
I0403 16:35:43.632575 18643 net.cpp:399] loss1/conv -> loss1/conv
I0403 16:35:43.633877 18643 net.cpp:141] Setting up loss1/conv
I0403 16:35:43.633903 18643 net.cpp:148] Top shape: 24 128 4 4 (49152)
I0403 16:35:43.633931 18643 net.cpp:156] Memory required for data: 945697824
I0403 16:35:43.633950 18643 layer_factory.hpp:77] Creating layer loss1/relu_conv
I0403 16:35:43.633967 18643 net.cpp:91] Creating Layer loss1/relu_conv
I0403 16:35:43.633982 18643 net.cpp:425] loss1/relu_conv <- loss1/conv
I0403 16:35:43.634001 18643 net.cpp:386] loss1/relu_conv -> loss1/conv (in-place)
I0403 16:35:43.634259 18643 net.cpp:141] Setting up loss1/relu_conv
I0403 16:35:43.634284 18643 net.cpp:148] Top shape: 24 128 4 4 (49152)
I0403 16:35:43.634299 18643 net.cpp:156] Memory required for data: 945894432
I0403 16:35:43.634312 18643 layer_factory.hpp:77] Creating layer loss1/fc
I0403 16:35:43.634335 18643 net.cpp:91] Creating Layer loss1/fc
I0403 16:35:43.634351 18643 net.cpp:425] loss1/fc <- loss1/conv
I0403 16:35:43.634369 18643 net.cpp:399] loss1/fc -> loss1/fc
I0403 16:35:43.651140 18643 net.cpp:141] Setting up loss1/fc
I0403 16:35:43.651175 18643 net.cpp:148] Top shape: 24 1024 (24576)
I0403 16:35:43.651190 18643 net.cpp:156] Memory required for data: 945992736
I0403 16:35:43.651207 18643 layer_factory.hpp:77] Creating layer loss1/relu_fc
I0403 16:35:43.651226 18643 net.cpp:91] Creating Layer loss1/relu_fc
I0403 16:35:43.651239 18643 net.cpp:425] loss1/relu_fc <- loss1/fc
I0403 16:35:43.651255 18643 net.cpp:386] loss1/relu_fc -> loss1/fc (in-place)
I0403 16:35:43.651427 18643 net.cpp:141] Setting up loss1/relu_fc
I0403 16:35:43.651451 18643 net.cpp:148] Top shape: 24 1024 (24576)
I0403 16:35:43.651465 18643 net.cpp:156] Memory required for data: 946091040
I0403 16:35:43.651480 18643 layer_factory.hpp:77] Creating layer loss1/drop_fc
I0403 16:35:43.651504 18643 net.cpp:91] Creating Layer loss1/drop_fc
I0403 16:35:43.651520 18643 net.cpp:425] loss1/drop_fc <- loss1/fc
I0403 16:35:43.651536 18643 net.cpp:386] loss1/drop_fc -> loss1/fc (in-place)
I0403 16:35:43.651588 18643 net.cpp:141] Setting up loss1/drop_fc
I0403 16:35:43.651609 18643 net.cpp:148] Top shape: 24 1024 (24576)
I0403 16:35:43.651623 18643 net.cpp:156] Memory required for data: 946189344
I0403 16:35:43.651638 18643 layer_factory.hpp:77] Creating layer loss1/classifier_plantvillage
I0403 16:35:43.651657 18643 net.cpp:91] Creating Layer loss1/classifier_plantvillage
I0403 16:35:43.651672 18643 net.cpp:425] loss1/classifier_plantvillage <- loss1/fc
I0403 16:35:43.651690 18643 net.cpp:399] loss1/classifier_plantvillage -> loss1/classifier_plantvillage
I0403 16:35:43.652551 18643 net.cpp:141] Setting up loss1/classifier_plantvillage
I0403 16:35:43.652595 18643 net.cpp:148] Top shape: 24 38 (912)
I0403 16:35:43.652612 18643 net.cpp:156] Memory required for data: 946192992
I0403 16:35:43.652642 18643 layer_factory.hpp:77] Creating layer loss1/classifier_plantvillage_loss1/classifier_plantvillage_0_split
I0403 16:35:43.652658 18643 net.cpp:91] Creating Layer loss1/classifier_plantvillage_loss1/classifier_plantvillage_0_split
I0403 16:35:43.652673 18643 net.cpp:425] loss1/classifier_plantvillage_loss1/classifier_plantvillage_0_split <- loss1/classifier_plantvillage
I0403 16:35:43.652689 18643 net.cpp:399] loss1/classifier_plantvillage_loss1/classifier_plantvillage_0_split -> loss1/classifier_plantvillage_loss1/classifier_plantvillage_0_split_0
I0403 16:35:43.652709 18643 net.cpp:399] loss1/classifier_plantvillage_loss1/classifier_plantvillage_0_split -> loss1/classifier_plantvillage_loss1/classifier_plantvillage_0_split_1
I0403 16:35:43.652731 18643 net.cpp:399] loss1/classifier_plantvillage_loss1/classifier_plantvillage_0_split -> loss1/classifier_plantvillage_loss1/classifier_plantvillage_0_split_2
I0403 16:35:43.652797 18643 net.cpp:141] Setting up loss1/classifier_plantvillage_loss1/classifier_plantvillage_0_split
I0403 16:35:43.652819 18643 net.cpp:148] Top shape: 24 38 (912)
I0403 16:35:43.652834 18643 net.cpp:148] Top shape: 24 38 (912)
I0403 16:35:43.652849 18643 net.cpp:148] Top shape: 24 38 (912)
I0403 16:35:43.652863 18643 net.cpp:156] Memory required for data: 946203936
I0403 16:35:43.652875 18643 layer_factory.hpp:77] Creating layer inception_4b/1x1
I0403 16:35:43.652906 18643 net.cpp:91] Creating Layer inception_4b/1x1
I0403 16:35:43.652937 18643 net.cpp:425] inception_4b/1x1 <- inception_4a/output_inception_4a/output_0_split_1
I0403 16:35:43.652958 18643 net.cpp:399] inception_4b/1x1 -> inception_4b/1x1
I0403 16:35:43.654485 18643 net.cpp:141] Setting up inception_4b/1x1
I0403 16:35:43.654512 18643 net.cpp:148] Top shape: 24 160 14 14 (752640)
I0403 16:35:43.654526 18643 net.cpp:156] Memory required for data: 949214496
I0403 16:35:43.654543 18643 layer_factory.hpp:77] Creating layer inception_4b/relu_1x1
I0403 16:35:43.654561 18643 net.cpp:91] Creating Layer inception_4b/relu_1x1
I0403 16:35:43.654585 18643 net.cpp:425] inception_4b/relu_1x1 <- inception_4b/1x1
I0403 16:35:43.654606 18643 net.cpp:386] inception_4b/relu_1x1 -> inception_4b/1x1 (in-place)
I0403 16:35:43.654777 18643 net.cpp:141] Setting up inception_4b/relu_1x1
I0403 16:35:43.654800 18643 net.cpp:148] Top shape: 24 160 14 14 (752640)
I0403 16:35:43.654814 18643 net.cpp:156] Memory required for data: 952225056
I0403 16:35:43.654829 18643 layer_factory.hpp:77] Creating layer inception_4b/3x3_reduce
I0403 16:35:43.654849 18643 net.cpp:91] Creating Layer inception_4b/3x3_reduce
I0403 16:35:43.654865 18643 net.cpp:425] inception_4b/3x3_reduce <- inception_4a/output_inception_4a/output_0_split_2
I0403 16:35:43.654886 18643 net.cpp:399] inception_4b/3x3_reduce -> inception_4b/3x3_reduce
I0403 16:35:43.656143 18643 net.cpp:141] Setting up inception_4b/3x3_reduce
I0403 16:35:43.656169 18643 net.cpp:148] Top shape: 24 112 14 14 (526848)
I0403 16:35:43.656183 18643 net.cpp:156] Memory required for data: 954332448
I0403 16:35:43.656200 18643 layer_factory.hpp:77] Creating layer inception_4b/relu_3x3_reduce
I0403 16:35:43.656219 18643 net.cpp:91] Creating Layer inception_4b/relu_3x3_reduce
I0403 16:35:43.656235 18643 net.cpp:425] inception_4b/relu_3x3_reduce <- inception_4b/3x3_reduce
I0403 16:35:43.656251 18643 net.cpp:386] inception_4b/relu_3x3_reduce -> inception_4b/3x3_reduce (in-place)
I0403 16:35:43.656512 18643 net.cpp:141] Setting up inception_4b/relu_3x3_reduce
I0403 16:35:43.656538 18643 net.cpp:148] Top shape: 24 112 14 14 (526848)
I0403 16:35:43.656551 18643 net.cpp:156] Memory required for data: 956439840
I0403 16:35:43.656564 18643 layer_factory.hpp:77] Creating layer inception_4b/3x3
I0403 16:35:43.656590 18643 net.cpp:91] Creating Layer inception_4b/3x3
I0403 16:35:43.656607 18643 net.cpp:425] inception_4b/3x3 <- inception_4b/3x3_reduce
I0403 16:35:43.656627 18643 net.cpp:399] inception_4b/3x3 -> inception_4b/3x3
I0403 16:35:43.659432 18643 net.cpp:141] Setting up inception_4b/3x3
I0403 16:35:43.659462 18643 net.cpp:148] Top shape: 24 224 14 14 (1053696)
I0403 16:35:43.659478 18643 net.cpp:156] Memory required for data: 960654624
I0403 16:35:43.659495 18643 layer_factory.hpp:77] Creating layer inception_4b/relu_3x3
I0403 16:35:43.659512 18643 net.cpp:91] Creating Layer inception_4b/relu_3x3
I0403 16:35:43.659526 18643 net.cpp:425] inception_4b/relu_3x3 <- inception_4b/3x3
I0403 16:35:43.659543 18643 net.cpp:386] inception_4b/relu_3x3 -> inception_4b/3x3 (in-place)
I0403 16:35:43.659715 18643 net.cpp:141] Setting up inception_4b/relu_3x3
I0403 16:35:43.659740 18643 net.cpp:148] Top shape: 24 224 14 14 (1053696)
I0403 16:35:43.659755 18643 net.cpp:156] Memory required for data: 964869408
I0403 16:35:43.659770 18643 layer_factory.hpp:77] Creating layer inception_4b/5x5_reduce
I0403 16:35:43.659790 18643 net.cpp:91] Creating Layer inception_4b/5x5_reduce
I0403 16:35:43.659808 18643 net.cpp:425] inception_4b/5x5_reduce <- inception_4a/output_inception_4a/output_0_split_3
I0403 16:35:43.659827 18643 net.cpp:399] inception_4b/5x5_reduce -> inception_4b/5x5_reduce
I0403 16:35:43.660856 18643 net.cpp:141] Setting up inception_4b/5x5_reduce
I0403 16:35:43.660881 18643 net.cpp:148] Top shape: 24 24 14 14 (112896)
I0403 16:35:43.660895 18643 net.cpp:156] Memory required for data: 965320992
I0403 16:35:43.660912 18643 layer_factory.hpp:77] Creating layer inception_4b/relu_5x5_reduce
I0403 16:35:43.660931 18643 net.cpp:91] Creating Layer inception_4b/relu_5x5_reduce
I0403 16:35:43.660960 18643 net.cpp:425] inception_4b/relu_5x5_reduce <- inception_4b/5x5_reduce
I0403 16:35:43.660979 18643 net.cpp:386] inception_4b/relu_5x5_reduce -> inception_4b/5x5_reduce (in-place)
I0403 16:35:43.661147 18643 net.cpp:141] Setting up inception_4b/relu_5x5_reduce
I0403 16:35:43.661171 18643 net.cpp:148] Top shape: 24 24 14 14 (112896)
I0403 16:35:43.661185 18643 net.cpp:156] Memory required for data: 965772576
I0403 16:35:43.661198 18643 layer_factory.hpp:77] Creating layer inception_4b/5x5
I0403 16:35:43.661218 18643 net.cpp:91] Creating Layer inception_4b/5x5
I0403 16:35:43.661234 18643 net.cpp:425] inception_4b/5x5 <- inception_4b/5x5_reduce
I0403 16:35:43.661253 18643 net.cpp:399] inception_4b/5x5 -> inception_4b/5x5
I0403 16:35:43.662412 18643 net.cpp:141] Setting up inception_4b/5x5
I0403 16:35:43.662438 18643 net.cpp:148] Top shape: 24 64 14 14 (301056)
I0403 16:35:43.662452 18643 net.cpp:156] Memory required for data: 966976800
I0403 16:35:43.662469 18643 layer_factory.hpp:77] Creating layer inception_4b/relu_5x5
I0403 16:35:43.662487 18643 net.cpp:91] Creating Layer inception_4b/relu_5x5
I0403 16:35:43.662502 18643 net.cpp:425] inception_4b/relu_5x5 <- inception_4b/5x5
I0403 16:35:43.662523 18643 net.cpp:386] inception_4b/relu_5x5 -> inception_4b/5x5 (in-place)
I0403 16:35:43.662796 18643 net.cpp:141] Setting up inception_4b/relu_5x5
I0403 16:35:43.662822 18643 net.cpp:148] Top shape: 24 64 14 14 (301056)
I0403 16:35:43.662835 18643 net.cpp:156] Memory required for data: 968181024
I0403 16:35:43.662849 18643 layer_factory.hpp:77] Creating layer inception_4b/pool
I0403 16:35:43.662868 18643 net.cpp:91] Creating Layer inception_4b/pool
I0403 16:35:43.662883 18643 net.cpp:425] inception_4b/pool <- inception_4a/output_inception_4a/output_0_split_4
I0403 16:35:43.662900 18643 net.cpp:399] inception_4b/pool -> inception_4b/pool
I0403 16:35:43.662961 18643 net.cpp:141] Setting up inception_4b/pool
I0403 16:35:43.662982 18643 net.cpp:148] Top shape: 24 512 14 14 (2408448)
I0403 16:35:43.662997 18643 net.cpp:156] Memory required for data: 977814816
I0403 16:35:43.663009 18643 layer_factory.hpp:77] Creating layer inception_4b/pool_proj
I0403 16:35:43.663031 18643 net.cpp:91] Creating Layer inception_4b/pool_proj
I0403 16:35:43.663048 18643 net.cpp:425] inception_4b/pool_proj <- inception_4b/pool
I0403 16:35:43.663065 18643 net.cpp:399] inception_4b/pool_proj -> inception_4b/pool_proj
I0403 16:35:43.664187 18643 net.cpp:141] Setting up inception_4b/pool_proj
I0403 16:35:43.664213 18643 net.cpp:148] Top shape: 24 64 14 14 (301056)
I0403 16:35:43.664227 18643 net.cpp:156] Memory required for data: 979019040
I0403 16:35:43.664243 18643 layer_factory.hpp:77] Creating layer inception_4b/relu_pool_proj
I0403 16:35:43.664260 18643 net.cpp:91] Creating Layer inception_4b/relu_pool_proj
I0403 16:35:43.664275 18643 net.cpp:425] inception_4b/relu_pool_proj <- inception_4b/pool_proj
I0403 16:35:43.664294 18643 net.cpp:386] inception_4b/relu_pool_proj -> inception_4b/pool_proj (in-place)
I0403 16:35:43.664463 18643 net.cpp:141] Setting up inception_4b/relu_pool_proj
I0403 16:35:43.664486 18643 net.cpp:148] Top shape: 24 64 14 14 (301056)
I0403 16:35:43.664500 18643 net.cpp:156] Memory required for data: 980223264
I0403 16:35:43.664513 18643 layer_factory.hpp:77] Creating layer inception_4b/output
I0403 16:35:43.664532 18643 net.cpp:91] Creating Layer inception_4b/output
I0403 16:35:43.664547 18643 net.cpp:425] inception_4b/output <- inception_4b/1x1
I0403 16:35:43.664562 18643 net.cpp:425] inception_4b/output <- inception_4b/3x3
I0403 16:35:43.664588 18643 net.cpp:425] inception_4b/output <- inception_4b/5x5
I0403 16:35:43.664605 18643 net.cpp:425] inception_4b/output <- inception_4b/pool_proj
I0403 16:35:43.664620 18643 net.cpp:399] inception_4b/output -> inception_4b/output
I0403 16:35:43.664664 18643 net.cpp:141] Setting up inception_4b/output
I0403 16:35:43.664685 18643 net.cpp:148] Top shape: 24 512 14 14 (2408448)
I0403 16:35:43.664700 18643 net.cpp:156] Memory required for data: 989857056
I0403 16:35:43.664727 18643 layer_factory.hpp:77] Creating layer inception_4b/output_inception_4b/output_0_split
I0403 16:35:43.664743 18643 net.cpp:91] Creating Layer inception_4b/output_inception_4b/output_0_split
I0403 16:35:43.664757 18643 net.cpp:425] inception_4b/output_inception_4b/output_0_split <- inception_4b/output
I0403 16:35:43.664775 18643 net.cpp:399] inception_4b/output_inception_4b/output_0_split -> inception_4b/output_inception_4b/output_0_split_0
I0403 16:35:43.664795 18643 net.cpp:399] inception_4b/output_inception_4b/output_0_split -> inception_4b/output_inception_4b/output_0_split_1
I0403 16:35:43.664814 18643 net.cpp:399] inception_4b/output_inception_4b/output_0_split -> inception_4b/output_inception_4b/output_0_split_2
I0403 16:35:43.664834 18643 net.cpp:399] inception_4b/output_inception_4b/output_0_split -> inception_4b/output_inception_4b/output_0_split_3
I0403 16:35:43.664909 18643 net.cpp:141] Setting up inception_4b/output_inception_4b/output_0_split
I0403 16:35:43.664934 18643 net.cpp:148] Top shape: 24 512 14 14 (2408448)
I0403 16:35:43.664950 18643 net.cpp:148] Top shape: 24 512 14 14 (2408448)
I0403 16:35:43.664964 18643 net.cpp:148] Top shape: 24 512 14 14 (2408448)
I0403 16:35:43.664978 18643 net.cpp:148] Top shape: 24 512 14 14 (2408448)
I0403 16:35:43.664991 18643 net.cpp:156] Memory required for data: 1028392224
I0403 16:35:43.665004 18643 layer_factory.hpp:77] Creating layer inception_4c/1x1
I0403 16:35:43.665029 18643 net.cpp:91] Creating Layer inception_4c/1x1
I0403 16:35:43.665045 18643 net.cpp:425] inception_4c/1x1 <- inception_4b/output_inception_4b/output_0_split_0
I0403 16:35:43.665062 18643 net.cpp:399] inception_4c/1x1 -> inception_4c/1x1
I0403 16:35:43.666400 18643 net.cpp:141] Setting up inception_4c/1x1
I0403 16:35:43.666426 18643 net.cpp:148] Top shape: 24 128 14 14 (602112)
I0403 16:35:43.666441 18643 net.cpp:156] Memory required for data: 1030800672
I0403 16:35:43.666457 18643 layer_factory.hpp:77] Creating layer inception_4c/relu_1x1
I0403 16:35:43.666477 18643 net.cpp:91] Creating Layer inception_4c/relu_1x1
I0403 16:35:43.666493 18643 net.cpp:425] inception_4c/relu_1x1 <- inception_4c/1x1
I0403 16:35:43.666509 18643 net.cpp:386] inception_4c/relu_1x1 -> inception_4c/1x1 (in-place)
I0403 16:35:43.666682 18643 net.cpp:141] Setting up inception_4c/relu_1x1
I0403 16:35:43.666707 18643 net.cpp:148] Top shape: 24 128 14 14 (602112)
I0403 16:35:43.666723 18643 net.cpp:156] Memory required for data: 1033209120
I0403 16:35:43.666736 18643 layer_factory.hpp:77] Creating layer inception_4c/3x3_reduce
I0403 16:35:43.666756 18643 net.cpp:91] Creating Layer inception_4c/3x3_reduce
I0403 16:35:43.666774 18643 net.cpp:425] inception_4c/3x3_reduce <- inception_4b/output_inception_4b/output_0_split_1
I0403 16:35:43.666791 18643 net.cpp:399] inception_4c/3x3_reduce -> inception_4c/3x3_reduce
I0403 16:35:43.668632 18643 net.cpp:141] Setting up inception_4c/3x3_reduce
I0403 16:35:43.668661 18643 net.cpp:148] Top shape: 24 128 14 14 (602112)
I0403 16:35:43.668676 18643 net.cpp:156] Memory required for data: 1035617568
I0403 16:35:43.668694 18643 layer_factory.hpp:77] Creating layer inception_4c/relu_3x3_reduce
I0403 16:35:43.668710 18643 net.cpp:91] Creating Layer inception_4c/relu_3x3_reduce
I0403 16:35:43.668725 18643 net.cpp:425] inception_4c/relu_3x3_reduce <- inception_4c/3x3_reduce
I0403 16:35:43.668743 18643 net.cpp:386] inception_4c/relu_3x3_reduce -> inception_4c/3x3_reduce (in-place)
I0403 16:35:43.669009 18643 net.cpp:141] Setting up inception_4c/relu_3x3_reduce
I0403 16:35:43.669035 18643 net.cpp:148] Top shape: 24 128 14 14 (602112)
I0403 16:35:43.669050 18643 net.cpp:156] Memory required for data: 1038026016
I0403 16:35:43.669064 18643 layer_factory.hpp:77] Creating layer inception_4c/3x3
I0403 16:35:43.669086 18643 net.cpp:91] Creating Layer inception_4c/3x3
I0403 16:35:43.669102 18643 net.cpp:425] inception_4c/3x3 <- inception_4c/3x3_reduce
I0403 16:35:43.669121 18643 net.cpp:399] inception_4c/3x3 -> inception_4c/3x3
I0403 16:35:43.672596 18643 net.cpp:141] Setting up inception_4c/3x3
I0403 16:35:43.672636 18643 net.cpp:148] Top shape: 24 256 14 14 (1204224)
I0403 16:35:43.672651 18643 net.cpp:156] Memory required for data: 1042842912
I0403 16:35:43.672679 18643 layer_factory.hpp:77] Creating layer inception_4c/relu_3x3
I0403 16:35:43.672699 18643 net.cpp:91] Creating Layer inception_4c/relu_3x3
I0403 16:35:43.672714 18643 net.cpp:425] inception_4c/relu_3x3 <- inception_4c/3x3
I0403 16:35:43.672734 18643 net.cpp:386] inception_4c/relu_3x3 -> inception_4c/3x3 (in-place)
I0403 16:35:43.672907 18643 net.cpp:141] Setting up inception_4c/relu_3x3
I0403 16:35:43.672930 18643 net.cpp:148] Top shape: 24 256 14 14 (1204224)
I0403 16:35:43.672945 18643 net.cpp:156] Memory required for data: 1047659808
I0403 16:35:43.672958 18643 layer_factory.hpp:77] Creating layer inception_4c/5x5_reduce
I0403 16:35:43.672979 18643 net.cpp:91] Creating Layer inception_4c/5x5_reduce
I0403 16:35:43.672996 18643 net.cpp:425] inception_4c/5x5_reduce <- inception_4b/output_inception_4b/output_0_split_2
I0403 16:35:43.673014 18643 net.cpp:399] inception_4c/5x5_reduce -> inception_4c/5x5_reduce
I0403 16:35:43.674049 18643 net.cpp:141] Setting up inception_4c/5x5_reduce
I0403 16:35:43.674075 18643 net.cpp:148] Top shape: 24 24 14 14 (112896)
I0403 16:35:43.674089 18643 net.cpp:156] Memory required for data: 1048111392
I0403 16:35:43.674106 18643 layer_factory.hpp:77] Creating layer inception_4c/relu_5x5_reduce
I0403 16:35:43.674124 18643 net.cpp:91] Creating Layer inception_4c/relu_5x5_reduce
I0403 16:35:43.674141 18643 net.cpp:425] inception_4c/relu_5x5_reduce <- inception_4c/5x5_reduce
I0403 16:35:43.674157 18643 net.cpp:386] inception_4c/relu_5x5_reduce -> inception_4c/5x5_reduce (in-place)
I0403 16:35:43.674331 18643 net.cpp:141] Setting up inception_4c/relu_5x5_reduce
I0403 16:35:43.674355 18643 net.cpp:148] Top shape: 24 24 14 14 (112896)
I0403 16:35:43.674368 18643 net.cpp:156] Memory required for data: 1048562976
I0403 16:35:43.674382 18643 layer_factory.hpp:77] Creating layer inception_4c/5x5
I0403 16:35:43.674403 18643 net.cpp:91] Creating Layer inception_4c/5x5
I0403 16:35:43.674420 18643 net.cpp:425] inception_4c/5x5 <- inception_4c/5x5_reduce
I0403 16:35:43.674439 18643 net.cpp:399] inception_4c/5x5 -> inception_4c/5x5
I0403 16:35:43.675642 18643 net.cpp:141] Setting up inception_4c/5x5
I0403 16:35:43.675668 18643 net.cpp:148] Top shape: 24 64 14 14 (301056)
I0403 16:35:43.675683 18643 net.cpp:156] Memory required for data: 1049767200
I0403 16:35:43.675699 18643 layer_factory.hpp:77] Creating layer inception_4c/relu_5x5
I0403 16:35:43.675719 18643 net.cpp:91] Creating Layer inception_4c/relu_5x5
I0403 16:35:43.675734 18643 net.cpp:425] inception_4c/relu_5x5 <- inception_4c/5x5
I0403 16:35:43.675751 18643 net.cpp:386] inception_4c/relu_5x5 -> inception_4c/5x5 (in-place)
I0403 16:35:43.676031 18643 net.cpp:141] Setting up inception_4c/relu_5x5
I0403 16:35:43.676056 18643 net.cpp:148] Top shape: 24 64 14 14 (301056)
I0403 16:35:43.676079 18643 net.cpp:156] Memory required for data: 1050971424
I0403 16:35:43.676092 18643 layer_factory.hpp:77] Creating layer inception_4c/pool
I0403 16:35:43.676111 18643 net.cpp:91] Creating Layer inception_4c/pool
I0403 16:35:43.676127 18643 net.cpp:425] inception_4c/pool <- inception_4b/output_inception_4b/output_0_split_3
I0403 16:35:43.676144 18643 net.cpp:399] inception_4c/pool -> inception_4c/pool
I0403 16:35:43.676205 18643 net.cpp:141] Setting up inception_4c/pool
I0403 16:35:43.676228 18643 net.cpp:148] Top shape: 24 512 14 14 (2408448)
I0403 16:35:43.676240 18643 net.cpp:156] Memory required for data: 1060605216
I0403 16:35:43.676254 18643 layer_factory.hpp:77] Creating layer inception_4c/pool_proj
I0403 16:35:43.676275 18643 net.cpp:91] Creating Layer inception_4c/pool_proj
I0403 16:35:43.676292 18643 net.cpp:425] inception_4c/pool_proj <- inception_4c/pool
I0403 16:35:43.676311 18643 net.cpp:399] inception_4c/pool_proj -> inception_4c/pool_proj
I0403 16:35:43.677481 18643 net.cpp:141] Setting up inception_4c/pool_proj
I0403 16:35:43.677507 18643 net.cpp:148] Top shape: 24 64 14 14 (301056)
I0403 16:35:43.677536 18643 net.cpp:156] Memory required for data: 1061809440
I0403 16:35:43.677553 18643 layer_factory.hpp:77] Creating layer inception_4c/relu_pool_proj
I0403 16:35:43.677573 18643 net.cpp:91] Creating Layer inception_4c/relu_pool_proj
I0403 16:35:43.677590 18643 net.cpp:425] inception_4c/relu_pool_proj <- inception_4c/pool_proj
I0403 16:35:43.677609 18643 net.cpp:386] inception_4c/relu_pool_proj -> inception_4c/pool_proj (in-place)
I0403 16:35:43.677784 18643 net.cpp:141] Setting up inception_4c/relu_pool_proj
I0403 16:35:43.677808 18643 net.cpp:148] Top shape: 24 64 14 14 (301056)
I0403 16:35:43.677821 18643 net.cpp:156] Memory required for data: 1063013664
I0403 16:35:43.677834 18643 layer_factory.hpp:77] Creating layer inception_4c/output
I0403 16:35:43.677852 18643 net.cpp:91] Creating Layer inception_4c/output
I0403 16:35:43.677867 18643 net.cpp:425] inception_4c/output <- inception_4c/1x1
I0403 16:35:43.677882 18643 net.cpp:425] inception_4c/output <- inception_4c/3x3
I0403 16:35:43.677897 18643 net.cpp:425] inception_4c/output <- inception_4c/5x5
I0403 16:35:43.677913 18643 net.cpp:425] inception_4c/output <- inception_4c/pool_proj
I0403 16:35:43.677928 18643 net.cpp:399] inception_4c/output -> inception_4c/output
I0403 16:35:43.677973 18643 net.cpp:141] Setting up inception_4c/output
I0403 16:35:43.677994 18643 net.cpp:148] Top shape: 24 512 14 14 (2408448)
I0403 16:35:43.678007 18643 net.cpp:156] Memory required for data: 1072647456
I0403 16:35:43.678020 18643 layer_factory.hpp:77] Creating layer inception_4c/output_inception_4c/output_0_split
I0403 16:35:43.678036 18643 net.cpp:91] Creating Layer inception_4c/output_inception_4c/output_0_split
I0403 16:35:43.678050 18643 net.cpp:425] inception_4c/output_inception_4c/output_0_split <- inception_4c/output
I0403 16:35:43.678068 18643 net.cpp:399] inception_4c/output_inception_4c/output_0_split -> inception_4c/output_inception_4c/output_0_split_0
I0403 16:35:43.678087 18643 net.cpp:399] inception_4c/output_inception_4c/output_0_split -> inception_4c/output_inception_4c/output_0_split_1
I0403 16:35:43.678107 18643 net.cpp:399] inception_4c/output_inception_4c/output_0_split -> inception_4c/output_inception_4c/output_0_split_2
I0403 16:35:43.678125 18643 net.cpp:399] inception_4c/output_inception_4c/output_0_split -> inception_4c/output_inception_4c/output_0_split_3
I0403 16:35:43.678202 18643 net.cpp:141] Setting up inception_4c/output_inception_4c/output_0_split
I0403 16:35:43.678227 18643 net.cpp:148] Top shape: 24 512 14 14 (2408448)
I0403 16:35:43.678243 18643 net.cpp:148] Top shape: 24 512 14 14 (2408448)
I0403 16:35:43.678258 18643 net.cpp:148] Top shape: 24 512 14 14 (2408448)
I0403 16:35:43.678272 18643 net.cpp:148] Top shape: 24 512 14 14 (2408448)
I0403 16:35:43.678285 18643 net.cpp:156] Memory required for data: 1111182624
I0403 16:35:43.678298 18643 layer_factory.hpp:77] Creating layer inception_4d/1x1
I0403 16:35:43.678319 18643 net.cpp:91] Creating Layer inception_4d/1x1
I0403 16:35:43.678335 18643 net.cpp:425] inception_4d/1x1 <- inception_4c/output_inception_4c/output_0_split_0
I0403 16:35:43.678354 18643 net.cpp:399] inception_4d/1x1 -> inception_4d/1x1
I0403 16:35:43.679661 18643 net.cpp:141] Setting up inception_4d/1x1
I0403 16:35:43.679689 18643 net.cpp:148] Top shape: 24 112 14 14 (526848)
I0403 16:35:43.679704 18643 net.cpp:156] Memory required for data: 1113290016
I0403 16:35:43.679721 18643 layer_factory.hpp:77] Creating layer inception_4d/relu_1x1
I0403 16:35:43.679738 18643 net.cpp:91] Creating Layer inception_4d/relu_1x1
I0403 16:35:43.679751 18643 net.cpp:425] inception_4d/relu_1x1 <- inception_4d/1x1
I0403 16:35:43.679767 18643 net.cpp:386] inception_4d/relu_1x1 -> inception_4d/1x1 (in-place)
I0403 16:35:43.679945 18643 net.cpp:141] Setting up inception_4d/relu_1x1
I0403 16:35:43.679968 18643 net.cpp:148] Top shape: 24 112 14 14 (526848)
I0403 16:35:43.679982 18643 net.cpp:156] Memory required for data: 1115397408
I0403 16:35:43.679996 18643 layer_factory.hpp:77] Creating layer inception_4d/3x3_reduce
I0403 16:35:43.680032 18643 net.cpp:91] Creating Layer inception_4d/3x3_reduce
I0403 16:35:43.680048 18643 net.cpp:425] inception_4d/3x3_reduce <- inception_4c/output_inception_4c/output_0_split_1
I0403 16:35:43.680068 18643 net.cpp:399] inception_4d/3x3_reduce -> inception_4d/3x3_reduce
I0403 16:35:43.681526 18643 net.cpp:141] Setting up inception_4d/3x3_reduce
I0403 16:35:43.681553 18643 net.cpp:148] Top shape: 24 144 14 14 (677376)
I0403 16:35:43.681571 18643 net.cpp:156] Memory required for data: 1118106912
I0403 16:35:43.681591 18643 layer_factory.hpp:77] Creating layer inception_4d/relu_3x3_reduce
I0403 16:35:43.681612 18643 net.cpp:91] Creating Layer inception_4d/relu_3x3_reduce
I0403 16:35:43.681628 18643 net.cpp:425] inception_4d/relu_3x3_reduce <- inception_4d/3x3_reduce
I0403 16:35:43.681645 18643 net.cpp:386] inception_4d/relu_3x3_reduce -> inception_4d/3x3_reduce (in-place)
I0403 16:35:43.681921 18643 net.cpp:141] Setting up inception_4d/relu_3x3_reduce
I0403 16:35:43.681946 18643 net.cpp:148] Top shape: 24 144 14 14 (677376)
I0403 16:35:43.681959 18643 net.cpp:156] Memory required for data: 1120816416
I0403 16:35:43.681973 18643 layer_factory.hpp:77] Creating layer inception_4d/3x3
I0403 16:35:43.681994 18643 net.cpp:91] Creating Layer inception_4d/3x3
I0403 16:35:43.682010 18643 net.cpp:425] inception_4d/3x3 <- inception_4d/3x3_reduce
I0403 16:35:43.682029 18643 net.cpp:399] inception_4d/3x3 -> inception_4d/3x3
I0403 16:35:43.686064 18643 net.cpp:141] Setting up inception_4d/3x3
I0403 16:35:43.686094 18643 net.cpp:148] Top shape: 24 288 14 14 (1354752)
I0403 16:35:43.686108 18643 net.cpp:156] Memory required for data: 1126235424
I0403 16:35:43.686125 18643 layer_factory.hpp:77] Creating layer inception_4d/relu_3x3
I0403 16:35:43.686142 18643 net.cpp:91] Creating Layer inception_4d/relu_3x3
I0403 16:35:43.686157 18643 net.cpp:425] inception_4d/relu_3x3 <- inception_4d/3x3
I0403 16:35:43.686175 18643 net.cpp:386] inception_4d/relu_3x3 -> inception_4d/3x3 (in-place)
I0403 16:35:43.686350 18643 net.cpp:141] Setting up inception_4d/relu_3x3
I0403 16:35:43.686373 18643 net.cpp:148] Top shape: 24 288 14 14 (1354752)
I0403 16:35:43.686388 18643 net.cpp:156] Memory required for data: 1131654432
I0403 16:35:43.686401 18643 layer_factory.hpp:77] Creating layer inception_4d/5x5_reduce
I0403 16:35:43.686422 18643 net.cpp:91] Creating Layer inception_4d/5x5_reduce
I0403 16:35:43.686439 18643 net.cpp:425] inception_4d/5x5_reduce <- inception_4c/output_inception_4c/output_0_split_2
I0403 16:35:43.686458 18643 net.cpp:399] inception_4d/5x5_reduce -> inception_4d/5x5_reduce
I0403 16:35:43.687547 18643 net.cpp:141] Setting up inception_4d/5x5_reduce
I0403 16:35:43.687579 18643 net.cpp:148] Top shape: 24 32 14 14 (150528)
I0403 16:35:43.687597 18643 net.cpp:156] Memory required for data: 1132256544
I0403 16:35:43.687613 18643 layer_factory.hpp:77] Creating layer inception_4d/relu_5x5_reduce
I0403 16:35:43.687630 18643 net.cpp:91] Creating Layer inception_4d/relu_5x5_reduce
I0403 16:35:43.687644 18643 net.cpp:425] inception_4d/relu_5x5_reduce <- inception_4d/5x5_reduce
I0403 16:35:43.687661 18643 net.cpp:386] inception_4d/relu_5x5_reduce -> inception_4d/5x5_reduce (in-place)
I0403 16:35:43.687839 18643 net.cpp:141] Setting up inception_4d/relu_5x5_reduce
I0403 16:35:43.687862 18643 net.cpp:148] Top shape: 24 32 14 14 (150528)
I0403 16:35:43.687875 18643 net.cpp:156] Memory required for data: 1132858656
I0403 16:35:43.687890 18643 layer_factory.hpp:77] Creating layer inception_4d/5x5
I0403 16:35:43.687909 18643 net.cpp:91] Creating Layer inception_4d/5x5
I0403 16:35:43.687927 18643 net.cpp:425] inception_4d/5x5 <- inception_4d/5x5_reduce
I0403 16:35:43.687945 18643 net.cpp:399] inception_4d/5x5 -> inception_4d/5x5
I0403 16:35:43.689364 18643 net.cpp:141] Setting up inception_4d/5x5
I0403 16:35:43.689390 18643 net.cpp:148] Top shape: 24 64 14 14 (301056)
I0403 16:35:43.689405 18643 net.cpp:156] Memory required for data: 1134062880
I0403 16:35:43.689421 18643 layer_factory.hpp:77] Creating layer inception_4d/relu_5x5
I0403 16:35:43.689455 18643 net.cpp:91] Creating Layer inception_4d/relu_5x5
I0403 16:35:43.689471 18643 net.cpp:425] inception_4d/relu_5x5 <- inception_4d/5x5
I0403 16:35:43.689487 18643 net.cpp:386] inception_4d/relu_5x5 -> inception_4d/5x5 (in-place)
I0403 16:35:43.689780 18643 net.cpp:141] Setting up inception_4d/relu_5x5
I0403 16:35:43.689805 18643 net.cpp:148] Top shape: 24 64 14 14 (301056)
I0403 16:35:43.689820 18643 net.cpp:156] Memory required for data: 1135267104
I0403 16:35:43.689833 18643 layer_factory.hpp:77] Creating layer inception_4d/pool
I0403 16:35:43.689851 18643 net.cpp:91] Creating Layer inception_4d/pool
I0403 16:35:43.689867 18643 net.cpp:425] inception_4d/pool <- inception_4c/output_inception_4c/output_0_split_3
I0403 16:35:43.689885 18643 net.cpp:399] inception_4d/pool -> inception_4d/pool
I0403 16:35:43.689947 18643 net.cpp:141] Setting up inception_4d/pool
I0403 16:35:43.689970 18643 net.cpp:148] Top shape: 24 512 14 14 (2408448)
I0403 16:35:43.689983 18643 net.cpp:156] Memory required for data: 1144900896
I0403 16:35:43.689997 18643 layer_factory.hpp:77] Creating layer inception_4d/pool_proj
I0403 16:35:43.690017 18643 net.cpp:91] Creating Layer inception_4d/pool_proj
I0403 16:35:43.690034 18643 net.cpp:425] inception_4d/pool_proj <- inception_4d/pool
I0403 16:35:43.690054 18643 net.cpp:399] inception_4d/pool_proj -> inception_4d/pool_proj
I0403 16:35:43.691751 18643 net.cpp:141] Setting up inception_4d/pool_proj
I0403 16:35:43.691781 18643 net.cpp:148] Top shape: 24 64 14 14 (301056)
I0403 16:35:43.691797 18643 net.cpp:156] Memory required for data: 1146105120
I0403 16:35:43.691813 18643 layer_factory.hpp:77] Creating layer inception_4d/relu_pool_proj
I0403 16:35:43.691830 18643 net.cpp:91] Creating Layer inception_4d/relu_pool_proj
I0403 16:35:43.691846 18643 net.cpp:425] inception_4d/relu_pool_proj <- inception_4d/pool_proj
I0403 16:35:43.691864 18643 net.cpp:386] inception_4d/relu_pool_proj -> inception_4d/pool_proj (in-place)
I0403 16:35:43.692039 18643 net.cpp:141] Setting up inception_4d/relu_pool_proj
I0403 16:35:43.692062 18643 net.cpp:148] Top shape: 24 64 14 14 (301056)
I0403 16:35:43.692076 18643 net.cpp:156] Memory required for data: 1147309344
I0403 16:35:43.692090 18643 layer_factory.hpp:77] Creating layer inception_4d/output
I0403 16:35:43.692106 18643 net.cpp:91] Creating Layer inception_4d/output
I0403 16:35:43.692121 18643 net.cpp:425] inception_4d/output <- inception_4d/1x1
I0403 16:35:43.692137 18643 net.cpp:425] inception_4d/output <- inception_4d/3x3
I0403 16:35:43.692152 18643 net.cpp:425] inception_4d/output <- inception_4d/5x5
I0403 16:35:43.692167 18643 net.cpp:425] inception_4d/output <- inception_4d/pool_proj
I0403 16:35:43.692184 18643 net.cpp:399] inception_4d/output -> inception_4d/output
I0403 16:35:43.692230 18643 net.cpp:141] Setting up inception_4d/output
I0403 16:35:43.692255 18643 net.cpp:148] Top shape: 24 528 14 14 (2483712)
I0403 16:35:43.692270 18643 net.cpp:156] Memory required for data: 1157244192
I0403 16:35:43.692282 18643 layer_factory.hpp:77] Creating layer inception_4d/output_inception_4d/output_0_split
I0403 16:35:43.692301 18643 net.cpp:91] Creating Layer inception_4d/output_inception_4d/output_0_split
I0403 16:35:43.692317 18643 net.cpp:425] inception_4d/output_inception_4d/output_0_split <- inception_4d/output
I0403 16:35:43.692334 18643 net.cpp:399] inception_4d/output_inception_4d/output_0_split -> inception_4d/output_inception_4d/output_0_split_0
I0403 16:35:43.692354 18643 net.cpp:399] inception_4d/output_inception_4d/output_0_split -> inception_4d/output_inception_4d/output_0_split_1
I0403 16:35:43.692374 18643 net.cpp:399] inception_4d/output_inception_4d/output_0_split -> inception_4d/output_inception_4d/output_0_split_2
I0403 16:35:43.692394 18643 net.cpp:399] inception_4d/output_inception_4d/output_0_split -> inception_4d/output_inception_4d/output_0_split_3
I0403 16:35:43.692414 18643 net.cpp:399] inception_4d/output_inception_4d/output_0_split -> inception_4d/output_inception_4d/output_0_split_4
I0403 16:35:43.692510 18643 net.cpp:141] Setting up inception_4d/output_inception_4d/output_0_split
I0403 16:35:43.692548 18643 net.cpp:148] Top shape: 24 528 14 14 (2483712)
I0403 16:35:43.692564 18643 net.cpp:148] Top shape: 24 528 14 14 (2483712)
I0403 16:35:43.692584 18643 net.cpp:148] Top shape: 24 528 14 14 (2483712)
I0403 16:35:43.692598 18643 net.cpp:148] Top shape: 24 528 14 14 (2483712)
I0403 16:35:43.692612 18643 net.cpp:148] Top shape: 24 528 14 14 (2483712)
I0403 16:35:43.692625 18643 net.cpp:156] Memory required for data: 1206918432
I0403 16:35:43.692638 18643 layer_factory.hpp:77] Creating layer loss2/ave_pool
I0403 16:35:43.692656 18643 net.cpp:91] Creating Layer loss2/ave_pool
I0403 16:35:43.692670 18643 net.cpp:425] loss2/ave_pool <- inception_4d/output_inception_4d/output_0_split_0
I0403 16:35:43.692687 18643 net.cpp:399] loss2/ave_pool -> loss2/ave_pool
I0403 16:35:43.692986 18643 net.cpp:141] Setting up loss2/ave_pool
I0403 16:35:43.693012 18643 net.cpp:148] Top shape: 24 528 4 4 (202752)
I0403 16:35:43.693027 18643 net.cpp:156] Memory required for data: 1207729440
I0403 16:35:43.693042 18643 layer_factory.hpp:77] Creating layer loss2/conv
I0403 16:35:43.693063 18643 net.cpp:91] Creating Layer loss2/conv
I0403 16:35:43.693079 18643 net.cpp:425] loss2/conv <- loss2/ave_pool
I0403 16:35:43.693097 18643 net.cpp:399] loss2/conv -> loss2/conv
I0403 16:35:43.694905 18643 net.cpp:141] Setting up loss2/conv
I0403 16:35:43.694932 18643 net.cpp:148] Top shape: 24 128 4 4 (49152)
I0403 16:35:43.694947 18643 net.cpp:156] Memory required for data: 1207926048
I0403 16:35:43.694965 18643 layer_factory.hpp:77] Creating layer loss2/relu_conv
I0403 16:35:43.694983 18643 net.cpp:91] Creating Layer loss2/relu_conv
I0403 16:35:43.694999 18643 net.cpp:425] loss2/relu_conv <- loss2/conv
I0403 16:35:43.695015 18643 net.cpp:386] loss2/relu_conv -> loss2/conv (in-place)
I0403 16:35:43.695286 18643 net.cpp:141] Setting up loss2/relu_conv
I0403 16:35:43.695312 18643 net.cpp:148] Top shape: 24 128 4 4 (49152)
I0403 16:35:43.695325 18643 net.cpp:156] Memory required for data: 1208122656
I0403 16:35:43.695339 18643 layer_factory.hpp:77] Creating layer loss2/fc
I0403 16:35:43.695358 18643 net.cpp:91] Creating Layer loss2/fc
I0403 16:35:43.695374 18643 net.cpp:425] loss2/fc <- loss2/conv
I0403 16:35:43.695391 18643 net.cpp:399] loss2/fc -> loss2/fc
I0403 16:35:43.712187 18643 net.cpp:141] Setting up loss2/fc
I0403 16:35:43.712218 18643 net.cpp:148] Top shape: 24 1024 (24576)
I0403 16:35:43.712232 18643 net.cpp:156] Memory required for data: 1208220960
I0403 16:35:43.712250 18643 layer_factory.hpp:77] Creating layer loss2/relu_fc
I0403 16:35:43.712268 18643 net.cpp:91] Creating Layer loss2/relu_fc
I0403 16:35:43.712285 18643 net.cpp:425] loss2/relu_fc <- loss2/fc
I0403 16:35:43.712302 18643 net.cpp:386] loss2/relu_fc -> loss2/fc (in-place)
I0403 16:35:43.712589 18643 net.cpp:141] Setting up loss2/relu_fc
I0403 16:35:43.712612 18643 net.cpp:148] Top shape: 24 1024 (24576)
I0403 16:35:43.712626 18643 net.cpp:156] Memory required for data: 1208319264
I0403 16:35:43.712641 18643 layer_factory.hpp:77] Creating layer loss2/drop_fc
I0403 16:35:43.712656 18643 net.cpp:91] Creating Layer loss2/drop_fc
I0403 16:35:43.712671 18643 net.cpp:425] loss2/drop_fc <- loss2/fc
I0403 16:35:43.712689 18643 net.cpp:386] loss2/drop_fc -> loss2/fc (in-place)
I0403 16:35:43.712735 18643 net.cpp:141] Setting up loss2/drop_fc
I0403 16:35:43.712757 18643 net.cpp:148] Top shape: 24 1024 (24576)
I0403 16:35:43.712774 18643 net.cpp:156] Memory required for data: 1208417568
I0403 16:35:43.712787 18643 layer_factory.hpp:77] Creating layer loss2/classifier_plantvillage
I0403 16:35:43.712805 18643 net.cpp:91] Creating Layer loss2/classifier_plantvillage
I0403 16:35:43.712820 18643 net.cpp:425] loss2/classifier_plantvillage <- loss2/fc
I0403 16:35:43.712839 18643 net.cpp:399] loss2/classifier_plantvillage -> loss2/classifier_plantvillage
I0403 16:35:43.713219 18643 net.cpp:141] Setting up loss2/classifier_plantvillage
I0403 16:35:43.713243 18643 net.cpp:148] Top shape: 24 38 (912)
I0403 16:35:43.713271 18643 net.cpp:156] Memory required for data: 1208421216
I0403 16:35:43.713289 18643 layer_factory.hpp:77] Creating layer loss2/classifier_plantvillage_loss2/classifier_plantvillage_0_split
I0403 16:35:43.713309 18643 net.cpp:91] Creating Layer loss2/classifier_plantvillage_loss2/classifier_plantvillage_0_split
I0403 16:35:43.713325 18643 net.cpp:425] loss2/classifier_plantvillage_loss2/classifier_plantvillage_0_split <- loss2/classifier_plantvillage
I0403 16:35:43.713340 18643 net.cpp:399] loss2/classifier_plantvillage_loss2/classifier_plantvillage_0_split -> loss2/classifier_plantvillage_loss2/classifier_plantvillage_0_split_0
I0403 16:35:43.713359 18643 net.cpp:399] loss2/classifier_plantvillage_loss2/classifier_plantvillage_0_split -> loss2/classifier_plantvillage_loss2/classifier_plantvillage_0_split_1
I0403 16:35:43.713378 18643 net.cpp:399] loss2/classifier_plantvillage_loss2/classifier_plantvillage_0_split -> loss2/classifier_plantvillage_loss2/classifier_plantvillage_0_split_2
I0403 16:35:43.713454 18643 net.cpp:141] Setting up loss2/classifier_plantvillage_loss2/classifier_plantvillage_0_split
I0403 16:35:43.713475 18643 net.cpp:148] Top shape: 24 38 (912)
I0403 16:35:43.713490 18643 net.cpp:148] Top shape: 24 38 (912)
I0403 16:35:43.713505 18643 net.cpp:148] Top shape: 24 38 (912)
I0403 16:35:43.713516 18643 net.cpp:156] Memory required for data: 1208432160
I0403 16:35:43.713531 18643 layer_factory.hpp:77] Creating layer inception_4e/1x1
I0403 16:35:43.713551 18643 net.cpp:91] Creating Layer inception_4e/1x1
I0403 16:35:43.713569 18643 net.cpp:425] inception_4e/1x1 <- inception_4d/output_inception_4d/output_0_split_1
I0403 16:35:43.713588 18643 net.cpp:399] inception_4e/1x1 -> inception_4e/1x1
I0403 16:35:43.715306 18643 net.cpp:141] Setting up inception_4e/1x1
I0403 16:35:43.715333 18643 net.cpp:148] Top shape: 24 256 14 14 (1204224)
I0403 16:35:43.715348 18643 net.cpp:156] Memory required for data: 1213249056
I0403 16:35:43.715364 18643 layer_factory.hpp:77] Creating layer inception_4e/relu_1x1
I0403 16:35:43.715384 18643 net.cpp:91] Creating Layer inception_4e/relu_1x1
I0403 16:35:43.715399 18643 net.cpp:425] inception_4e/relu_1x1 <- inception_4e/1x1
I0403 16:35:43.715415 18643 net.cpp:386] inception_4e/relu_1x1 -> inception_4e/1x1 (in-place)
I0403 16:35:43.715700 18643 net.cpp:141] Setting up inception_4e/relu_1x1
I0403 16:35:43.715725 18643 net.cpp:148] Top shape: 24 256 14 14 (1204224)
I0403 16:35:43.715739 18643 net.cpp:156] Memory required for data: 1218065952
I0403 16:35:43.715752 18643 layer_factory.hpp:77] Creating layer inception_4e/3x3_reduce
I0403 16:35:43.715773 18643 net.cpp:91] Creating Layer inception_4e/3x3_reduce
I0403 16:35:43.715790 18643 net.cpp:425] inception_4e/3x3_reduce <- inception_4d/output_inception_4d/output_0_split_2
I0403 16:35:43.715811 18643 net.cpp:399] inception_4e/3x3_reduce -> inception_4e/3x3_reduce
I0403 16:35:43.717831 18643 net.cpp:141] Setting up inception_4e/3x3_reduce
I0403 16:35:43.717859 18643 net.cpp:148] Top shape: 24 160 14 14 (752640)
I0403 16:35:43.717872 18643 net.cpp:156] Memory required for data: 1221076512
I0403 16:35:43.717890 18643 layer_factory.hpp:77] Creating layer inception_4e/relu_3x3_reduce
I0403 16:35:43.717906 18643 net.cpp:91] Creating Layer inception_4e/relu_3x3_reduce
I0403 16:35:43.717921 18643 net.cpp:425] inception_4e/relu_3x3_reduce <- inception_4e/3x3_reduce
I0403 16:35:43.717941 18643 net.cpp:386] inception_4e/relu_3x3_reduce -> inception_4e/3x3_reduce (in-place)
I0403 16:35:43.718116 18643 net.cpp:141] Setting up inception_4e/relu_3x3_reduce
I0403 16:35:43.718139 18643 net.cpp:148] Top shape: 24 160 14 14 (752640)
I0403 16:35:43.718152 18643 net.cpp:156] Memory required for data: 1224087072
I0403 16:35:43.718166 18643 layer_factory.hpp:77] Creating layer inception_4e/3x3
I0403 16:35:43.718188 18643 net.cpp:91] Creating Layer inception_4e/3x3
I0403 16:35:43.718204 18643 net.cpp:425] inception_4e/3x3 <- inception_4e/3x3_reduce
I0403 16:35:43.718222 18643 net.cpp:399] inception_4e/3x3 -> inception_4e/3x3
I0403 16:35:43.722987 18643 net.cpp:141] Setting up inception_4e/3x3
I0403 16:35:43.723026 18643 net.cpp:148] Top shape: 24 320 14 14 (1505280)
I0403 16:35:43.723040 18643 net.cpp:156] Memory required for data: 1230108192
I0403 16:35:43.723057 18643 layer_factory.hpp:77] Creating layer inception_4e/relu_3x3
I0403 16:35:43.723076 18643 net.cpp:91] Creating Layer inception_4e/relu_3x3
I0403 16:35:43.723093 18643 net.cpp:425] inception_4e/relu_3x3 <- inception_4e/3x3
I0403 16:35:43.723109 18643 net.cpp:386] inception_4e/relu_3x3 -> inception_4e/3x3 (in-place)
I0403 16:35:43.723393 18643 net.cpp:141] Setting up inception_4e/relu_3x3
I0403 16:35:43.723420 18643 net.cpp:148] Top shape: 24 320 14 14 (1505280)
I0403 16:35:43.723434 18643 net.cpp:156] Memory required for data: 1236129312
I0403 16:35:43.723449 18643 layer_factory.hpp:77] Creating layer inception_4e/5x5_reduce
I0403 16:35:43.723470 18643 net.cpp:91] Creating Layer inception_4e/5x5_reduce
I0403 16:35:43.723487 18643 net.cpp:425] inception_4e/5x5_reduce <- inception_4d/output_inception_4d/output_0_split_3
I0403 16:35:43.723505 18643 net.cpp:399] inception_4e/5x5_reduce -> inception_4e/5x5_reduce
I0403 16:35:43.724517 18643 net.cpp:141] Setting up inception_4e/5x5_reduce
I0403 16:35:43.724544 18643 net.cpp:148] Top shape: 24 32 14 14 (150528)
I0403 16:35:43.724558 18643 net.cpp:156] Memory required for data: 1236731424
I0403 16:35:43.724584 18643 layer_factory.hpp:77] Creating layer inception_4e/relu_5x5_reduce
I0403 16:35:43.724606 18643 net.cpp:91] Creating Layer inception_4e/relu_5x5_reduce
I0403 16:35:43.724623 18643 net.cpp:425] inception_4e/relu_5x5_reduce <- inception_4e/5x5_reduce
I0403 16:35:43.724638 18643 net.cpp:386] inception_4e/relu_5x5_reduce -> inception_4e/5x5_reduce (in-place)
I0403 16:35:43.724923 18643 net.cpp:141] Setting up inception_4e/relu_5x5_reduce
I0403 16:35:43.724947 18643 net.cpp:148] Top shape: 24 32 14 14 (150528)
I0403 16:35:43.724961 18643 net.cpp:156] Memory required for data: 1237333536
I0403 16:35:43.724975 18643 layer_factory.hpp:77] Creating layer inception_4e/5x5
I0403 16:35:43.725011 18643 net.cpp:91] Creating Layer inception_4e/5x5
I0403 16:35:43.725029 18643 net.cpp:425] inception_4e/5x5 <- inception_4e/5x5_reduce
I0403 16:35:43.725049 18643 net.cpp:399] inception_4e/5x5 -> inception_4e/5x5
I0403 16:35:43.726786 18643 net.cpp:141] Setting up inception_4e/5x5
I0403 16:35:43.726814 18643 net.cpp:148] Top shape: 24 128 14 14 (602112)
I0403 16:35:43.726830 18643 net.cpp:156] Memory required for data: 1239741984
I0403 16:35:43.726846 18643 layer_factory.hpp:77] Creating layer inception_4e/relu_5x5
I0403 16:35:43.726863 18643 net.cpp:91] Creating Layer inception_4e/relu_5x5
I0403 16:35:43.726878 18643 net.cpp:425] inception_4e/relu_5x5 <- inception_4e/5x5
I0403 16:35:43.726897 18643 net.cpp:386] inception_4e/relu_5x5 -> inception_4e/5x5 (in-place)
I0403 16:35:43.727082 18643 net.cpp:141] Setting up inception_4e/relu_5x5
I0403 16:35:43.727105 18643 net.cpp:148] Top shape: 24 128 14 14 (602112)
I0403 16:35:43.727118 18643 net.cpp:156] Memory required for data: 1242150432
I0403 16:35:43.727131 18643 layer_factory.hpp:77] Creating layer inception_4e/pool
I0403 16:35:43.727149 18643 net.cpp:91] Creating Layer inception_4e/pool
I0403 16:35:43.727162 18643 net.cpp:425] inception_4e/pool <- inception_4d/output_inception_4d/output_0_split_4
I0403 16:35:43.727182 18643 net.cpp:399] inception_4e/pool -> inception_4e/pool
I0403 16:35:43.727249 18643 net.cpp:141] Setting up inception_4e/pool
I0403 16:35:43.727272 18643 net.cpp:148] Top shape: 24 528 14 14 (2483712)
I0403 16:35:43.727284 18643 net.cpp:156] Memory required for data: 1252085280
I0403 16:35:43.727298 18643 layer_factory.hpp:77] Creating layer inception_4e/pool_proj
I0403 16:35:43.727319 18643 net.cpp:91] Creating Layer inception_4e/pool_proj
I0403 16:35:43.727335 18643 net.cpp:425] inception_4e/pool_proj <- inception_4e/pool
I0403 16:35:43.727355 18643 net.cpp:399] inception_4e/pool_proj -> inception_4e/pool_proj
I0403 16:35:43.728780 18643 net.cpp:141] Setting up inception_4e/pool_proj
I0403 16:35:43.728818 18643 net.cpp:148] Top shape: 24 128 14 14 (602112)
I0403 16:35:43.728834 18643 net.cpp:156] Memory required for data: 1254493728
I0403 16:35:43.728852 18643 layer_factory.hpp:77] Creating layer inception_4e/relu_pool_proj
I0403 16:35:43.728868 18643 net.cpp:91] Creating Layer inception_4e/relu_pool_proj
I0403 16:35:43.728883 18643 net.cpp:425] inception_4e/relu_pool_proj <- inception_4e/pool_proj
I0403 16:35:43.728901 18643 net.cpp:386] inception_4e/relu_pool_proj -> inception_4e/pool_proj (in-place)
I0403 16:35:43.729182 18643 net.cpp:141] Setting up inception_4e/relu_pool_proj
I0403 16:35:43.729208 18643 net.cpp:148] Top shape: 24 128 14 14 (602112)
I0403 16:35:43.729223 18643 net.cpp:156] Memory required for data: 1256902176
I0403 16:35:43.729236 18643 layer_factory.hpp:77] Creating layer inception_4e/output
I0403 16:35:43.729252 18643 net.cpp:91] Creating Layer inception_4e/output
I0403 16:35:43.729267 18643 net.cpp:425] inception_4e/output <- inception_4e/1x1
I0403 16:35:43.729282 18643 net.cpp:425] inception_4e/output <- inception_4e/3x3
I0403 16:35:43.729300 18643 net.cpp:425] inception_4e/output <- inception_4e/5x5
I0403 16:35:43.729315 18643 net.cpp:425] inception_4e/output <- inception_4e/pool_proj
I0403 16:35:43.729332 18643 net.cpp:399] inception_4e/output -> inception_4e/output
I0403 16:35:43.729378 18643 net.cpp:141] Setting up inception_4e/output
I0403 16:35:43.729400 18643 net.cpp:148] Top shape: 24 832 14 14 (3913728)
I0403 16:35:43.729413 18643 net.cpp:156] Memory required for data: 1272557088
I0403 16:35:43.729428 18643 layer_factory.hpp:77] Creating layer pool4/3x3_s2
I0403 16:35:43.729445 18643 net.cpp:91] Creating Layer pool4/3x3_s2
I0403 16:35:43.729460 18643 net.cpp:425] pool4/3x3_s2 <- inception_4e/output
I0403 16:35:43.729478 18643 net.cpp:399] pool4/3x3_s2 -> pool4/3x3_s2
I0403 16:35:43.729543 18643 net.cpp:141] Setting up pool4/3x3_s2
I0403 16:35:43.729565 18643 net.cpp:148] Top shape: 24 832 7 7 (978432)
I0403 16:35:43.729583 18643 net.cpp:156] Memory required for data: 1276470816
I0403 16:35:43.729598 18643 layer_factory.hpp:77] Creating layer pool4/3x3_s2_pool4/3x3_s2_0_split
I0403 16:35:43.729614 18643 net.cpp:91] Creating Layer pool4/3x3_s2_pool4/3x3_s2_0_split
I0403 16:35:43.729629 18643 net.cpp:425] pool4/3x3_s2_pool4/3x3_s2_0_split <- pool4/3x3_s2
I0403 16:35:43.729647 18643 net.cpp:399] pool4/3x3_s2_pool4/3x3_s2_0_split -> pool4/3x3_s2_pool4/3x3_s2_0_split_0
I0403 16:35:43.729666 18643 net.cpp:399] pool4/3x3_s2_pool4/3x3_s2_0_split -> pool4/3x3_s2_pool4/3x3_s2_0_split_1
I0403 16:35:43.729686 18643 net.cpp:399] pool4/3x3_s2_pool4/3x3_s2_0_split -> pool4/3x3_s2_pool4/3x3_s2_0_split_2
I0403 16:35:43.729703 18643 net.cpp:399] pool4/3x3_s2_pool4/3x3_s2_0_split -> pool4/3x3_s2_pool4/3x3_s2_0_split_3
I0403 16:35:43.729789 18643 net.cpp:141] Setting up pool4/3x3_s2_pool4/3x3_s2_0_split
I0403 16:35:43.729811 18643 net.cpp:148] Top shape: 24 832 7 7 (978432)
I0403 16:35:43.729826 18643 net.cpp:148] Top shape: 24 832 7 7 (978432)
I0403 16:35:43.729840 18643 net.cpp:148] Top shape: 24 832 7 7 (978432)
I0403 16:35:43.729854 18643 net.cpp:148] Top shape: 24 832 7 7 (978432)
I0403 16:35:43.729866 18643 net.cpp:156] Memory required for data: 1292125728
I0403 16:35:43.729881 18643 layer_factory.hpp:77] Creating layer inception_5a/1x1
I0403 16:35:43.729902 18643 net.cpp:91] Creating Layer inception_5a/1x1
I0403 16:35:43.729918 18643 net.cpp:425] inception_5a/1x1 <- pool4/3x3_s2_pool4/3x3_s2_0_split_0
I0403 16:35:43.729938 18643 net.cpp:399] inception_5a/1x1 -> inception_5a/1x1
I0403 16:35:43.732645 18643 net.cpp:141] Setting up inception_5a/1x1
I0403 16:35:43.732671 18643 net.cpp:148] Top shape: 24 256 7 7 (301056)
I0403 16:35:43.732686 18643 net.cpp:156] Memory required for data: 1293329952
I0403 16:35:43.732702 18643 layer_factory.hpp:77] Creating layer inception_5a/relu_1x1
I0403 16:35:43.732718 18643 net.cpp:91] Creating Layer inception_5a/relu_1x1
I0403 16:35:43.732734 18643 net.cpp:425] inception_5a/relu_1x1 <- inception_5a/1x1
I0403 16:35:43.732753 18643 net.cpp:386] inception_5a/relu_1x1 -> inception_5a/1x1 (in-place)
I0403 16:35:43.733067 18643 net.cpp:141] Setting up inception_5a/relu_1x1
I0403 16:35:43.733091 18643 net.cpp:148] Top shape: 24 256 7 7 (301056)
I0403 16:35:43.733105 18643 net.cpp:156] Memory required for data: 1294534176
I0403 16:35:43.733119 18643 layer_factory.hpp:77] Creating layer inception_5a/3x3_reduce
I0403 16:35:43.733141 18643 net.cpp:91] Creating Layer inception_5a/3x3_reduce
I0403 16:35:43.733158 18643 net.cpp:425] inception_5a/3x3_reduce <- pool4/3x3_s2_pool4/3x3_s2_0_split_1
I0403 16:35:43.733178 18643 net.cpp:399] inception_5a/3x3_reduce -> inception_5a/3x3_reduce
I0403 16:35:43.735550 18643 net.cpp:141] Setting up inception_5a/3x3_reduce
I0403 16:35:43.735580 18643 net.cpp:148] Top shape: 24 160 7 7 (188160)
I0403 16:35:43.735595 18643 net.cpp:156] Memory required for data: 1295286816
I0403 16:35:43.735613 18643 layer_factory.hpp:77] Creating layer inception_5a/relu_3x3_reduce
I0403 16:35:43.735632 18643 net.cpp:91] Creating Layer inception_5a/relu_3x3_reduce
I0403 16:35:43.735647 18643 net.cpp:425] inception_5a/relu_3x3_reduce <- inception_5a/3x3_reduce
I0403 16:35:43.735663 18643 net.cpp:386] inception_5a/relu_3x3_reduce -> inception_5a/3x3_reduce (in-place)
I0403 16:35:43.735841 18643 net.cpp:141] Setting up inception_5a/relu_3x3_reduce
I0403 16:35:43.735864 18643 net.cpp:148] Top shape: 24 160 7 7 (188160)
I0403 16:35:43.735878 18643 net.cpp:156] Memory required for data: 1296039456
I0403 16:35:43.735893 18643 layer_factory.hpp:77] Creating layer inception_5a/3x3
I0403 16:35:43.735914 18643 net.cpp:91] Creating Layer inception_5a/3x3
I0403 16:35:43.735930 18643 net.cpp:425] inception_5a/3x3 <- inception_5a/3x3_reduce
I0403 16:35:43.735950 18643 net.cpp:399] inception_5a/3x3 -> inception_5a/3x3
I0403 16:35:43.740739 18643 net.cpp:141] Setting up inception_5a/3x3
I0403 16:35:43.740768 18643 net.cpp:148] Top shape: 24 320 7 7 (376320)
I0403 16:35:43.740783 18643 net.cpp:156] Memory required for data: 1297544736
I0403 16:35:43.740802 18643 layer_factory.hpp:77] Creating layer inception_5a/relu_3x3
I0403 16:35:43.740818 18643 net.cpp:91] Creating Layer inception_5a/relu_3x3
I0403 16:35:43.740833 18643 net.cpp:425] inception_5a/relu_3x3 <- inception_5a/3x3
I0403 16:35:43.740851 18643 net.cpp:386] inception_5a/relu_3x3 -> inception_5a/3x3 (in-place)
I0403 16:35:43.741132 18643 net.cpp:141] Setting up inception_5a/relu_3x3
I0403 16:35:43.741156 18643 net.cpp:148] Top shape: 24 320 7 7 (376320)
I0403 16:35:43.741170 18643 net.cpp:156] Memory required for data: 1299050016
I0403 16:35:43.741183 18643 layer_factory.hpp:77] Creating layer inception_5a/5x5_reduce
I0403 16:35:43.741205 18643 net.cpp:91] Creating Layer inception_5a/5x5_reduce
I0403 16:35:43.741222 18643 net.cpp:425] inception_5a/5x5_reduce <- pool4/3x3_s2_pool4/3x3_s2_0_split_2
I0403 16:35:43.741242 18643 net.cpp:399] inception_5a/5x5_reduce -> inception_5a/5x5_reduce
I0403 16:35:43.742364 18643 net.cpp:141] Setting up inception_5a/5x5_reduce
I0403 16:35:43.742390 18643 net.cpp:148] Top shape: 24 32 7 7 (37632)
I0403 16:35:43.742405 18643 net.cpp:156] Memory required for data: 1299200544
I0403 16:35:43.742421 18643 layer_factory.hpp:77] Creating layer inception_5a/relu_5x5_reduce
I0403 16:35:43.742440 18643 net.cpp:91] Creating Layer inception_5a/relu_5x5_reduce
I0403 16:35:43.742456 18643 net.cpp:425] inception_5a/relu_5x5_reduce <- inception_5a/5x5_reduce
I0403 16:35:43.742473 18643 net.cpp:386] inception_5a/relu_5x5_reduce -> inception_5a/5x5_reduce (in-place)
I0403 16:35:43.742764 18643 net.cpp:141] Setting up inception_5a/relu_5x5_reduce
I0403 16:35:43.742789 18643 net.cpp:148] Top shape: 24 32 7 7 (37632)
I0403 16:35:43.742802 18643 net.cpp:156] Memory required for data: 1299351072
I0403 16:35:43.742816 18643 layer_factory.hpp:77] Creating layer inception_5a/5x5
I0403 16:35:43.742836 18643 net.cpp:91] Creating Layer inception_5a/5x5
I0403 16:35:43.742853 18643 net.cpp:425] inception_5a/5x5 <- inception_5a/5x5_reduce
I0403 16:35:43.742876 18643 net.cpp:399] inception_5a/5x5 -> inception_5a/5x5
I0403 16:35:43.744539 18643 net.cpp:141] Setting up inception_5a/5x5
I0403 16:35:43.744586 18643 net.cpp:148] Top shape: 24 128 7 7 (150528)
I0403 16:35:43.744603 18643 net.cpp:156] Memory required for data: 1299953184
I0403 16:35:43.744621 18643 layer_factory.hpp:77] Creating layer inception_5a/relu_5x5
I0403 16:35:43.744638 18643 net.cpp:91] Creating Layer inception_5a/relu_5x5
I0403 16:35:43.744653 18643 net.cpp:425] inception_5a/relu_5x5 <- inception_5a/5x5
I0403 16:35:43.744673 18643 net.cpp:386] inception_5a/relu_5x5 -> inception_5a/5x5 (in-place)
I0403 16:35:43.744854 18643 net.cpp:141] Setting up inception_5a/relu_5x5
I0403 16:35:43.744879 18643 net.cpp:148] Top shape: 24 128 7 7 (150528)
I0403 16:35:43.744892 18643 net.cpp:156] Memory required for data: 1300555296
I0403 16:35:43.744905 18643 layer_factory.hpp:77] Creating layer inception_5a/pool
I0403 16:35:43.744923 18643 net.cpp:91] Creating Layer inception_5a/pool
I0403 16:35:43.744940 18643 net.cpp:425] inception_5a/pool <- pool4/3x3_s2_pool4/3x3_s2_0_split_3
I0403 16:35:43.744956 18643 net.cpp:399] inception_5a/pool -> inception_5a/pool
I0403 16:35:43.745024 18643 net.cpp:141] Setting up inception_5a/pool
I0403 16:35:43.745048 18643 net.cpp:148] Top shape: 24 832 7 7 (978432)
I0403 16:35:43.745060 18643 net.cpp:156] Memory required for data: 1304469024
I0403 16:35:43.745074 18643 layer_factory.hpp:77] Creating layer inception_5a/pool_proj
I0403 16:35:43.745095 18643 net.cpp:91] Creating Layer inception_5a/pool_proj
I0403 16:35:43.745111 18643 net.cpp:425] inception_5a/pool_proj <- inception_5a/pool
I0403 16:35:43.745131 18643 net.cpp:399] inception_5a/pool_proj -> inception_5a/pool_proj
I0403 16:35:43.747305 18643 net.cpp:141] Setting up inception_5a/pool_proj
I0403 16:35:43.747335 18643 net.cpp:148] Top shape: 24 128 7 7 (150528)
I0403 16:35:43.747350 18643 net.cpp:156] Memory required for data: 1305071136
I0403 16:35:43.747369 18643 layer_factory.hpp:77] Creating layer inception_5a/relu_pool_proj
I0403 16:35:43.747385 18643 net.cpp:91] Creating Layer inception_5a/relu_pool_proj
I0403 16:35:43.747400 18643 net.cpp:425] inception_5a/relu_pool_proj <- inception_5a/pool_proj
I0403 16:35:43.747418 18643 net.cpp:386] inception_5a/relu_pool_proj -> inception_5a/pool_proj (in-place)
I0403 16:35:43.747704 18643 net.cpp:141] Setting up inception_5a/relu_pool_proj
I0403 16:35:43.747730 18643 net.cpp:148] Top shape: 24 128 7 7 (150528)
I0403 16:35:43.747743 18643 net.cpp:156] Memory required for data: 1305673248
I0403 16:35:43.747757 18643 layer_factory.hpp:77] Creating layer inception_5a/output
I0403 16:35:43.747773 18643 net.cpp:91] Creating Layer inception_5a/output
I0403 16:35:43.747788 18643 net.cpp:425] inception_5a/output <- inception_5a/1x1
I0403 16:35:43.747803 18643 net.cpp:425] inception_5a/output <- inception_5a/3x3
I0403 16:35:43.747819 18643 net.cpp:425] inception_5a/output <- inception_5a/5x5
I0403 16:35:43.747834 18643 net.cpp:425] inception_5a/output <- inception_5a/pool_proj
I0403 16:35:43.747850 18643 net.cpp:399] inception_5a/output -> inception_5a/output
I0403 16:35:43.747898 18643 net.cpp:141] Setting up inception_5a/output
I0403 16:35:43.747921 18643 net.cpp:148] Top shape: 24 832 7 7 (978432)
I0403 16:35:43.747936 18643 net.cpp:156] Memory required for data: 1309586976
I0403 16:35:43.747949 18643 layer_factory.hpp:77] Creating layer inception_5a/output_inception_5a/output_0_split
I0403 16:35:43.747967 18643 net.cpp:91] Creating Layer inception_5a/output_inception_5a/output_0_split
I0403 16:35:43.747982 18643 net.cpp:425] inception_5a/output_inception_5a/output_0_split <- inception_5a/output
I0403 16:35:43.747998 18643 net.cpp:399] inception_5a/output_inception_5a/output_0_split -> inception_5a/output_inception_5a/output_0_split_0
I0403 16:35:43.748018 18643 net.cpp:399] inception_5a/output_inception_5a/output_0_split -> inception_5a/output_inception_5a/output_0_split_1
I0403 16:35:43.748037 18643 net.cpp:399] inception_5a/output_inception_5a/output_0_split -> inception_5a/output_inception_5a/output_0_split_2
I0403 16:35:43.748059 18643 net.cpp:399] inception_5a/output_inception_5a/output_0_split -> inception_5a/output_inception_5a/output_0_split_3
I0403 16:35:43.748167 18643 net.cpp:141] Setting up inception_5a/output_inception_5a/output_0_split
I0403 16:35:43.748189 18643 net.cpp:148] Top shape: 24 832 7 7 (978432)
I0403 16:35:43.748204 18643 net.cpp:148] Top shape: 24 832 7 7 (978432)
I0403 16:35:43.748219 18643 net.cpp:148] Top shape: 24 832 7 7 (978432)
I0403 16:35:43.748232 18643 net.cpp:148] Top shape: 24 832 7 7 (978432)
I0403 16:35:43.748245 18643 net.cpp:156] Memory required for data: 1325241888
I0403 16:35:43.748257 18643 layer_factory.hpp:77] Creating layer inception_5b/1x1
I0403 16:35:43.748280 18643 net.cpp:91] Creating Layer inception_5b/1x1
I0403 16:35:43.748298 18643 net.cpp:425] inception_5b/1x1 <- inception_5a/output_inception_5a/output_0_split_0
I0403 16:35:43.748317 18643 net.cpp:399] inception_5b/1x1 -> inception_5b/1x1
I0403 16:35:43.751912 18643 net.cpp:141] Setting up inception_5b/1x1
I0403 16:35:43.751940 18643 net.cpp:148] Top shape: 24 384 7 7 (451584)
I0403 16:35:43.751955 18643 net.cpp:156] Memory required for data: 1327048224
I0403 16:35:43.751973 18643 layer_factory.hpp:77] Creating layer inception_5b/relu_1x1
I0403 16:35:43.751991 18643 net.cpp:91] Creating Layer inception_5b/relu_1x1
I0403 16:35:43.752007 18643 net.cpp:425] inception_5b/relu_1x1 <- inception_5b/1x1
I0403 16:35:43.752022 18643 net.cpp:386] inception_5b/relu_1x1 -> inception_5b/1x1 (in-place)
I0403 16:35:43.752320 18643 net.cpp:141] Setting up inception_5b/relu_1x1
I0403 16:35:43.752344 18643 net.cpp:148] Top shape: 24 384 7 7 (451584)
I0403 16:35:43.752358 18643 net.cpp:156] Memory required for data: 1328854560
I0403 16:35:43.752372 18643 layer_factory.hpp:77] Creating layer inception_5b/3x3_reduce
I0403 16:35:43.752395 18643 net.cpp:91] Creating Layer inception_5b/3x3_reduce
I0403 16:35:43.752413 18643 net.cpp:425] inception_5b/3x3_reduce <- inception_5a/output_inception_5a/output_0_split_1
I0403 16:35:43.752429 18643 net.cpp:399] inception_5b/3x3_reduce -> inception_5b/3x3_reduce
I0403 16:35:43.754986 18643 net.cpp:141] Setting up inception_5b/3x3_reduce
I0403 16:35:43.755014 18643 net.cpp:148] Top shape: 24 192 7 7 (225792)
I0403 16:35:43.755030 18643 net.cpp:156] Memory required for data: 1329757728
I0403 16:35:43.755048 18643 layer_factory.hpp:77] Creating layer inception_5b/relu_3x3_reduce
I0403 16:35:43.755064 18643 net.cpp:91] Creating Layer inception_5b/relu_3x3_reduce
I0403 16:35:43.755079 18643 net.cpp:425] inception_5b/relu_3x3_reduce <- inception_5b/3x3_reduce
I0403 16:35:43.755095 18643 net.cpp:386] inception_5b/relu_3x3_reduce -> inception_5b/3x3_reduce (in-place)
I0403 16:35:43.755277 18643 net.cpp:141] Setting up inception_5b/relu_3x3_reduce
I0403 16:35:43.755302 18643 net.cpp:148] Top shape: 24 192 7 7 (225792)
I0403 16:35:43.755316 18643 net.cpp:156] Memory required for data: 1330660896
I0403 16:35:43.755331 18643 layer_factory.hpp:77] Creating layer inception_5b/3x3
I0403 16:35:43.755352 18643 net.cpp:91] Creating Layer inception_5b/3x3
I0403 16:35:43.755367 18643 net.cpp:425] inception_5b/3x3 <- inception_5b/3x3_reduce
I0403 16:35:43.755388 18643 net.cpp:399] inception_5b/3x3 -> inception_5b/3x3
I0403 16:35:43.761863 18643 net.cpp:141] Setting up inception_5b/3x3
I0403 16:35:43.761893 18643 net.cpp:148] Top shape: 24 384 7 7 (451584)
I0403 16:35:43.761909 18643 net.cpp:156] Memory required for data: 1332467232
I0403 16:35:43.761925 18643 layer_factory.hpp:77] Creating layer inception_5b/relu_3x3
I0403 16:35:43.761942 18643 net.cpp:91] Creating Layer inception_5b/relu_3x3
I0403 16:35:43.761957 18643 net.cpp:425] inception_5b/relu_3x3 <- inception_5b/3x3
I0403 16:35:43.761976 18643 net.cpp:386] inception_5b/relu_3x3 -> inception_5b/3x3 (in-place)
I0403 16:35:43.762260 18643 net.cpp:141] Setting up inception_5b/relu_3x3
I0403 16:35:43.762286 18643 net.cpp:148] Top shape: 24 384 7 7 (451584)
I0403 16:35:43.762300 18643 net.cpp:156] Memory required for data: 1334273568
I0403 16:35:43.762315 18643 layer_factory.hpp:77] Creating layer inception_5b/5x5_reduce
I0403 16:35:43.762351 18643 net.cpp:91] Creating Layer inception_5b/5x5_reduce
I0403 16:35:43.762370 18643 net.cpp:425] inception_5b/5x5_reduce <- inception_5a/output_inception_5a/output_0_split_2
I0403 16:35:43.762390 18643 net.cpp:399] inception_5b/5x5_reduce -> inception_5b/5x5_reduce
I0403 16:35:43.763599 18643 net.cpp:141] Setting up inception_5b/5x5_reduce
I0403 16:35:43.763628 18643 net.cpp:148] Top shape: 24 48 7 7 (56448)
I0403 16:35:43.763643 18643 net.cpp:156] Memory required for data: 1334499360
I0403 16:35:43.763660 18643 layer_factory.hpp:77] Creating layer inception_5b/relu_5x5_reduce
I0403 16:35:43.763677 18643 net.cpp:91] Creating Layer inception_5b/relu_5x5_reduce
I0403 16:35:43.763692 18643 net.cpp:425] inception_5b/relu_5x5_reduce <- inception_5b/5x5_reduce
I0403 16:35:43.763711 18643 net.cpp:386] inception_5b/relu_5x5_reduce -> inception_5b/5x5_reduce (in-place)
I0403 16:35:43.764068 18643 net.cpp:141] Setting up inception_5b/relu_5x5_reduce
I0403 16:35:43.764092 18643 net.cpp:148] Top shape: 24 48 7 7 (56448)
I0403 16:35:43.764107 18643 net.cpp:156] Memory required for data: 1334725152
I0403 16:35:43.764120 18643 layer_factory.hpp:77] Creating layer inception_5b/5x5
I0403 16:35:43.764139 18643 net.cpp:91] Creating Layer inception_5b/5x5
I0403 16:35:43.764155 18643 net.cpp:425] inception_5b/5x5 <- inception_5b/5x5_reduce
I0403 16:35:43.764173 18643 net.cpp:399] inception_5b/5x5 -> inception_5b/5x5
I0403 16:35:43.766124 18643 net.cpp:141] Setting up inception_5b/5x5
I0403 16:35:43.766150 18643 net.cpp:148] Top shape: 24 128 7 7 (150528)
I0403 16:35:43.766165 18643 net.cpp:156] Memory required for data: 1335327264
I0403 16:35:43.766181 18643 layer_factory.hpp:77] Creating layer inception_5b/relu_5x5
I0403 16:35:43.766198 18643 net.cpp:91] Creating Layer inception_5b/relu_5x5
I0403 16:35:43.766213 18643 net.cpp:425] inception_5b/relu_5x5 <- inception_5b/5x5
I0403 16:35:43.766232 18643 net.cpp:386] inception_5b/relu_5x5 -> inception_5b/5x5 (in-place)
I0403 16:35:43.766417 18643 net.cpp:141] Setting up inception_5b/relu_5x5
I0403 16:35:43.766439 18643 net.cpp:148] Top shape: 24 128 7 7 (150528)
I0403 16:35:43.766453 18643 net.cpp:156] Memory required for data: 1335929376
I0403 16:35:43.766468 18643 layer_factory.hpp:77] Creating layer inception_5b/pool
I0403 16:35:43.766485 18643 net.cpp:91] Creating Layer inception_5b/pool
I0403 16:35:43.766501 18643 net.cpp:425] inception_5b/pool <- inception_5a/output_inception_5a/output_0_split_3
I0403 16:35:43.766518 18643 net.cpp:399] inception_5b/pool -> inception_5b/pool
I0403 16:35:43.766590 18643 net.cpp:141] Setting up inception_5b/pool
I0403 16:35:43.766613 18643 net.cpp:148] Top shape: 24 832 7 7 (978432)
I0403 16:35:43.766626 18643 net.cpp:156] Memory required for data: 1339843104
I0403 16:35:43.766639 18643 layer_factory.hpp:77] Creating layer inception_5b/pool_proj
I0403 16:35:43.766659 18643 net.cpp:91] Creating Layer inception_5b/pool_proj
I0403 16:35:43.766676 18643 net.cpp:425] inception_5b/pool_proj <- inception_5b/pool
I0403 16:35:43.766695 18643 net.cpp:399] inception_5b/pool_proj -> inception_5b/pool_proj
I0403 16:35:43.768903 18643 net.cpp:141] Setting up inception_5b/pool_proj
I0403 16:35:43.768932 18643 net.cpp:148] Top shape: 24 128 7 7 (150528)
I0403 16:35:43.768947 18643 net.cpp:156] Memory required for data: 1340445216
I0403 16:35:43.768965 18643 layer_factory.hpp:77] Creating layer inception_5b/relu_pool_proj
I0403 16:35:43.768981 18643 net.cpp:91] Creating Layer inception_5b/relu_pool_proj
I0403 16:35:43.768996 18643 net.cpp:425] inception_5b/relu_pool_proj <- inception_5b/pool_proj
I0403 16:35:43.769014 18643 net.cpp:386] inception_5b/relu_pool_proj -> inception_5b/pool_proj (in-place)
I0403 16:35:43.769296 18643 net.cpp:141] Setting up inception_5b/relu_pool_proj
I0403 16:35:43.769323 18643 net.cpp:148] Top shape: 24 128 7 7 (150528)
I0403 16:35:43.769338 18643 net.cpp:156] Memory required for data: 1341047328
I0403 16:35:43.769351 18643 layer_factory.hpp:77] Creating layer inception_5b/output
I0403 16:35:43.769368 18643 net.cpp:91] Creating Layer inception_5b/output
I0403 16:35:43.769397 18643 net.cpp:425] inception_5b/output <- inception_5b/1x1
I0403 16:35:43.769414 18643 net.cpp:425] inception_5b/output <- inception_5b/3x3
I0403 16:35:43.769430 18643 net.cpp:425] inception_5b/output <- inception_5b/5x5
I0403 16:35:43.769445 18643 net.cpp:425] inception_5b/output <- inception_5b/pool_proj
I0403 16:35:43.769464 18643 net.cpp:399] inception_5b/output -> inception_5b/output
I0403 16:35:43.769512 18643 net.cpp:141] Setting up inception_5b/output
I0403 16:35:43.769534 18643 net.cpp:148] Top shape: 24 1024 7 7 (1204224)
I0403 16:35:43.769548 18643 net.cpp:156] Memory required for data: 1345864224
I0403 16:35:43.769562 18643 layer_factory.hpp:77] Creating layer pool5/7x7_s1
I0403 16:35:43.769585 18643 net.cpp:91] Creating Layer pool5/7x7_s1
I0403 16:35:43.769603 18643 net.cpp:425] pool5/7x7_s1 <- inception_5b/output
I0403 16:35:43.769618 18643 net.cpp:399] pool5/7x7_s1 -> pool5/7x7_s1
I0403 16:35:43.769824 18643 net.cpp:141] Setting up pool5/7x7_s1
I0403 16:35:43.769846 18643 net.cpp:148] Top shape: 24 1024 1 1 (24576)
I0403 16:35:43.769860 18643 net.cpp:156] Memory required for data: 1345962528
I0403 16:35:43.769875 18643 layer_factory.hpp:77] Creating layer pool5/drop_7x7_s1
I0403 16:35:43.769891 18643 net.cpp:91] Creating Layer pool5/drop_7x7_s1
I0403 16:35:43.769906 18643 net.cpp:425] pool5/drop_7x7_s1 <- pool5/7x7_s1
I0403 16:35:43.769923 18643 net.cpp:386] pool5/drop_7x7_s1 -> pool5/7x7_s1 (in-place)
I0403 16:35:43.769969 18643 net.cpp:141] Setting up pool5/drop_7x7_s1
I0403 16:35:43.769991 18643 net.cpp:148] Top shape: 24 1024 1 1 (24576)
I0403 16:35:43.770004 18643 net.cpp:156] Memory required for data: 1346060832
I0403 16:35:43.770018 18643 layer_factory.hpp:77] Creating layer loss3/classifier_plantvillage
I0403 16:35:43.770037 18643 net.cpp:91] Creating Layer loss3/classifier_plantvillage
I0403 16:35:43.770053 18643 net.cpp:425] loss3/classifier_plantvillage <- pool5/7x7_s1
I0403 16:35:43.770072 18643 net.cpp:399] loss3/classifier_plantvillage -> loss3/classifier_plantvillage
I0403 16:35:43.770479 18643 net.cpp:141] Setting up loss3/classifier_plantvillage
I0403 16:35:43.770504 18643 net.cpp:148] Top shape: 24 38 (912)
I0403 16:35:43.770519 18643 net.cpp:156] Memory required for data: 1346064480
I0403 16:35:43.770535 18643 layer_factory.hpp:77] Creating layer loss3/classifier_plantvillage_loss3/classifier_plantvillage_0_split
I0403 16:35:43.770552 18643 net.cpp:91] Creating Layer loss3/classifier_plantvillage_loss3/classifier_plantvillage_0_split
I0403 16:35:43.770570 18643 net.cpp:425] loss3/classifier_plantvillage_loss3/classifier_plantvillage_0_split <- loss3/classifier_plantvillage
I0403 16:35:43.770588 18643 net.cpp:399] loss3/classifier_plantvillage_loss3/classifier_plantvillage_0_split -> loss3/classifier_plantvillage_loss3/classifier_plantvillage_0_split_0
I0403 16:35:43.770607 18643 net.cpp:399] loss3/classifier_plantvillage_loss3/classifier_plantvillage_0_split -> loss3/classifier_plantvillage_loss3/classifier_plantvillage_0_split_1
I0403 16:35:43.770627 18643 net.cpp:399] loss3/classifier_plantvillage_loss3/classifier_plantvillage_0_split -> loss3/classifier_plantvillage_loss3/classifier_plantvillage_0_split_2
I0403 16:35:43.770648 18643 net.cpp:399] loss3/classifier_plantvillage_loss3/classifier_plantvillage_0_split -> loss3/classifier_plantvillage_loss3/classifier_plantvillage_0_split_3
I0403 16:35:43.770741 18643 net.cpp:141] Setting up loss3/classifier_plantvillage_loss3/classifier_plantvillage_0_split
I0403 16:35:43.770762 18643 net.cpp:148] Top shape: 24 38 (912)
I0403 16:35:43.770777 18643 net.cpp:148] Top shape: 24 38 (912)
I0403 16:35:43.770792 18643 net.cpp:148] Top shape: 24 38 (912)
I0403 16:35:43.770807 18643 net.cpp:148] Top shape: 24 38 (912)
I0403 16:35:43.770819 18643 net.cpp:156] Memory required for data: 1346079072
I0403 16:35:43.770833 18643 layer_factory.hpp:77] Creating layer loss1/loss
I0403 16:35:43.770853 18643 net.cpp:91] Creating Layer loss1/loss
I0403 16:35:43.770867 18643 net.cpp:425] loss1/loss <- loss1/classifier_plantvillage_loss1/classifier_plantvillage_0_split_0
I0403 16:35:43.770896 18643 net.cpp:425] loss1/loss <- label_data_1_split_0
…
