…
I0403 15:46:19.276448 16039 net.cpp:313] The NetState phase (1) differed from the phase (0) specified by a rule in layer data
I0403 15:46:19.277668 16039 net.cpp:49] Initializing net from parameters: 
state {
  phase: TEST
}
layer {
  name: "data"
  type: "Data"
  top: "data"
  top: "label"
  include {
    phase: TEST
  }
  transform_param {
    mirror: false
    crop_size: 224
    mean_file: "/home/mohanty/data/final_dataset/lmdb/segmented-20-80/mean.binaryproto"
  }
  data_param {
    source: "/home/mohanty/data/final_dataset/lmdb/segmented-20-80/test_db"
    batch_size: 24
    backend: LMDB
  }
}
layer {
  name: "conv1/7x7_s2"
  type: "Convolution"
  bottom: "data"
  top: "conv1/7x7_s2"
  param {
    lr_mult: 1
    decay_mult: 1
  }
  param {
    lr_mult: 2
    decay_mult: 0
  }
  convolution_param {
    num_output: 64
    pad: 3
    kernel_size: 7
    stride: 2
    weight_filler {
      type: "xavier"
      std: 0.1
    }
    bias_filler {
      type: "constant"
      value: 0.2
    }
  }
}
layer {
  name: "conv1/relu_7x7"
  type: "ReLU"
  bottom: "conv1/7x7_s2"
  top: "conv1/7x7_s2"
}
layer {
  name: "pool1/3x3_s2"
  type: "Pooling"
  bottom: "conv1/7x7_s2"
  top: "pool1/3x3_s2"
  pooling_param {
    pool: MAX
    kernel_size: 3
    stride: 2
  }
}
layer {
  name: "pool1/norm1"
  type: "LRN"
  bottom: "pool1/3x3_s2"
  top: "pool1/norm1"
  lrn_param {
    local_size: 5
    alpha: 0.0001
    beta: 0.75
  }
}
layer {
  name: "conv2/3x3_reduce"
  type: "Convolution"
  bottom: "pool1/norm1"
  top: "conv2/3x3_reduce"
  param {
    lr_mult: 1
    decay_mult: 1
  }
  param {
    lr_mult: 2
    decay_mult: 0
  }
  convolution_param {
    num_output: 64
    kernel_size: 1
    weight_filler {
      type: "xavier"
      std: 0.1
    }
    bias_filler {
      type: "constant"
      value: 0.2
    }
  }
}
layer {
  name: "conv2/relu_3x3_reduce"
  type: "ReLU"
  bottom: "conv2/3x3_reduce"
  top: "conv2/3x3_reduce"
}
layer {
  name: "conv2/3x3"
  type: "Convolution"
  bottom: "conv2/3x3_reduce"
  top: "conv2/3x3"
  param {
    lr_mult: 1
    decay_mult: 1
  }
  param {
    lr_mult: 2
    decay_mult: 0
  }
  convolution_param {
    num_output: 192
    pad: 1
    kernel_size: 3
    weight_filler {
      type: "xavier"
      std: 0.03
    }
    bias_filler {
      type: "constant"
      value: 0.2
    }
  }
}
layer {
  name: "conv2/relu_3x3"
  type: "ReLU"
  bottom: "conv2/3x3"
  top: "conv2/3x3"
}
layer {
  name: "conv2/norm2"
  type: "LRN"
  bottom: "conv2/3x3"
  top: "conv2/norm2"
  lrn_param {
    local_size: 5
    alpha: 0.0001
    beta: 0.75
  }
}
layer {
  name: "pool2/3x3_s2"
  type: "Pooling"
  bottom: "conv2/norm2"
  top: "pool2/3x3_s2"
  pooling_param {
    pool: MAX
    kernel_size: 3
    stride: 2
  }
}
layer {
  name: "inception_3a/1x1"
  type: "Convolution"
  bottom: "pool2/3x3_s2"
  top: "inception_3a/1x1"
  param {
    lr_mult: 1
    decay_mult: 1
  }
  param {
    lr_mult: 2
    decay_mult: 0
  }
  convolution_param {
    num_output: 64
    kernel_size: 1
    weight_filler {
      type: "xavier"
      std: 0.03
    }
    bias_filler {
      type: "constant"
      value: 0.2
    }
  }
}
layer {
  name: "inception_3a/relu_1x1"
  type: "ReLU"
  bottom: "inception_3a/1x1"
  top: "inception_3a/1x1"
}
layer {
  name: "inception_3a/3x3_reduce"
  type: "Convolution"
  bottom: "pool2/3x3_s2"
  top: "inception_3a/3x3_reduce"
  param {
    lr_mult: 1
    decay_mult: 1
  }
  param {
    lr_mult: 2
    decay_mult: 0
  }
  convolution_param {
    num_output: 96
    kernel_size: 1
    weight_filler {
      type: "xavier"
      std: 0.09
    }
    bias_filler {
      type: "constant"
      value: 0.2
    }
  }
}
layer {
  name: "inception_3a/relu_3x3_reduce"
  type: "ReLU"
  bottom: "inception_3a/3x3_reduce"
  top: "inception_3a/3x3_reduce"
}
layer {
  name: "inception_3a/3x3"
  type: "Convolution"
  bottom: "inception_3a/3x3_reduce"
  top: "inception_3a/3x3"
  param {
    lr_mult: 1
    decay_mult: 1
  }
  param {
    lr_mult: 2
    decay_mult: 0
  }
  convolution_param {
    num_output: 128
    pad: 1
    kernel_size: 3
    weight_filler {
      type: "xavier"
      std: 0.03
    }
    bias_filler {
      type: "constant"
      value: 0.2
    }
  }
}
layer {
  name: "inception_3a/relu_3x3"
  type: "ReLU"
  bottom: "inception_3a/3x3"
  top: "inception_3a/3x3"
}
layer {
  name: "inception_3a/5x5_reduce"
  type: "Convolution"
  bottom: "pool2/3x3_s2"
  top: "inception_3a/5x5_reduce"
  param {
    lr_mult: 1
    decay_mult: 1
  }
  param {
    lr_mult: 2
    decay_mult: 0
  }
  convolution_param {
    num_output: 16
    kernel_size: 1
    weight_filler {
      type: "xavier"
      std: 0.2
    }
    bias_filler {
      type: "constant"
      value: 0.2
    }
  }
}
layer {
  name: "inception_3a/relu_5x5_reduce"
  type: "ReLU"
  bottom: "inception_3a/5x5_reduce"
  top: "inception_3a/5x5_reduce"
}
layer {
  name: "inception_3a/5x5"
  type: "Convolution"
  bottom: "inception_3a/5x5_reduce"
  top: "inception_3a/5x5"
  param {
    lr_mult: 1
    decay_mult: 1
  }
  param {
    lr_mult: 2
    decay_mult: 0
  }
  convolution_param {
    num_output: 32
    pad: 2
    kernel_size: 5
    weight_filler {
      type: "xavier"
      std: 0.03
    }
    bias_filler {
      type: "constant"
      value: 0.2
    }
  }
}
layer {
  name: "inception_3a/relu_5x5"
  type: "ReLU"
  bottom: "inception_3a/5x5"
  top: "inception_3a/5x5"
}
layer {
  name: "inception_3a/pool"
  type: "Pooling"
  bottom: "pool2/3x3_s2"
  top: "inception_3a/pool"
  pooling_param {
    pool: MAX
    kernel_size: 3
    stride: 1
    pad: 1
  }
}
layer {
  name: "inception_3a/pool_proj"
  type: "Convolution"
  bottom: "inception_3a/pool"
  top: "inception_3a/pool_proj"
  param {
    lr_mult: 1
    decay_mult: 1
  }
  param {
    lr_mult: 2
    decay_mult: 0
  }
  convolution_param {
    num_output: 32
    kernel_size: 1
    weight_filler {
      type: "xavier"
      std: 0.1
    }
    bias_filler {
      type: "constant"
      value: 0.2
    }
  }
}
layer {
  name: "inception_3a/relu_pool_proj"
  type: "ReLU"
  bottom: "inception_3a/pool_proj"
  top: "inception_3a/pool_proj"
}
layer {
  name: "inception_3a/output"
  type: "Concat"
  bottom: "inception_3a/1x1"
  bottom: "inception_3a/3x3"
  bottom: "inception_3a/5x5"
  bottom: "inception_3a/pool_proj"
  top: "inception_3a/output"
}
layer {
  name: "inception_3b/1x1"
  type: "Convolution"
  bottom: "inception_3a/output"
  top: "inception_3b/1x1"
  param {
    lr_mult: 1
    decay_mult: 1
  }
  param {
    lr_mult: 2
    decay_mult: 0
  }
  convolution_param {
    num_output: 128
    kernel_size: 1
    weight_filler {
      type: "xavier"
      std: 0.03
    }
    bias_filler {
      type: "constant"
      value: 0.2
    }
  }
}
layer {
  name: "inception_3b/relu_1x1"
  type: "ReLU"
  bottom: "inception_3b/1x1"
  top: "inception_3b/1x1"
}
layer {
  name: "inception_3b/3x3_reduce"
  type: "Convolution"
  bottom: "inception_3a/output"
  top: "inception_3b/3x3_reduce"
  param {
    lr_mult: 1
    decay_mult: 1
  }
  param {
    lr_mult: 2
    decay_mult: 0
  }
  convolution_param {
    num_output: 128
    kernel_size: 1
    weight_filler {
      type: "xavier"
      std: 0.09
    }
    bias_filler {
      type: "constant"
      value: 0.2
    }
  }
}
layer {
  name: "inception_3b/relu_3x3_reduce"
  type: "ReLU"
  bottom: "inception_3b/3x3_reduce"
  top: "inception_3b/3x3_reduce"
}
layer {
  name: "inception_3b/3x3"
  type: "Convolution"
  bottom: "inception_3b/3x3_reduce"
  top: "inception_3b/3x3"
  param {
    lr_mult: 1
    decay_mult: 1
  }
  param {
    lr_mult: 2
    decay_mult: 0
  }
  convolution_param {
    num_output: 192
    pad: 1
    kernel_size: 3
    weight_filler {
      type: "xavier"
      std: 0.03
    }
    bias_filler {
      type: "constant"
      value: 0.2
    }
  }
}
layer {
  name: "inception_3b/relu_3x3"
  type: "ReLU"
  bottom: "inception_3b/3x3"
  top: "inception_3b/3x3"
}
layer {
  name: "inception_3b/5x5_reduce"
  type: "Convolution"
  bottom: "inception_3a/output"
  top: "inception_3b/5x5_reduce"
  param {
    lr_mult: 1
    decay_mult: 1
  }
  param {
    lr_mult: 2
    decay_mult: 0
  }
  convolution_param {
    num_output: 32
    kernel_size: 1
    weight_filler {
      type: "xavier"
      std: 0.2
    }
    bias_filler {
      type: "constant"
      value: 0.2
    }
  }
}
layer {
  name: "inception_3b/relu_5x5_reduce"
  type: "ReLU"
  bottom: "inception_3b/5x5_reduce"
  top: "inception_3b/5x5_reduce"
}
layer {
  name: "inception_3b/5x5"
  type: "Convolution"
  bottom: "inception_3b/5x5_reduce"
  top: "inception_3b/5x5"
  param {
    lr_mult: 1
    decay_mult: 1
  }
  param {
    lr_mult: 2
    decay_mult: 0
  }
  convolution_param {
    num_output: 96
    pad: 2
    kernel_size: 5
    weight_filler {
      type: "xavier"
      std: 0.03
    }
    bias_filler {
      type: "constant"
      value: 0.2
    }
  }
}
layer {
  name: "inception_3b/relu_5x5"
  type: "ReLU"
  bottom: "inception_3b/5x5"
  top: "inception_3b/5x5"
}
layer {
  name: "inception_3b/pool"
  type: "Pooling"
  bottom: "inception_3a/output"
  top: "inception_3b/pool"
  pooling_param {
    pool: MAX
    kernel_size: 3
    stride: 1
    pad: 1
  }
}
layer {
  name: "inception_3b/pool_proj"
  type: "Convolution"
  bottom: "inception_3b/pool"
  top: "inception_3b/pool_proj"
  param {
    lr_mult: 1
    decay_mult: 1
  }
  param {
    lr_mult: 2
    decay_mult: 0
  }
  convolution_param {
    num_output: 64
    kernel_size: 1
    weight_filler {
      type: "xavier"
      std: 0.1
    }
    bias_filler {
      type: "constant"
      value: 0.2
    }
  }
}
layer {
  name: "inception_3b/relu_pool_proj"
  type: "ReLU"
  bottom: "inception_3b/pool_proj"
  top: "inception_3b/pool_proj"
}
layer {
  name: "inception_3b/output"
  type: "Concat"
  bottom: "inception_3b/1x1"
  bottom: "inception_3b/3x3"
  bottom: "inception_3b/5x5"
  bottom: "inception_3b/pool_proj"
  top: "inception_3b/output"
}
layer {
  name: "pool3/3x3_s2"
  type: "Pooling"
  bottom: "inception_3b/output"
  top: "pool3/3x3_s2"
  pooling_param {
    pool: MAX
    kernel_size: 3
    stride: 2
  }
}
layer {
  name: "inception_4a/1x1"
  type: "Convolution"
  bottom: "pool3/3x3_s2"
  top: "inception_4a/1x1"
  param {
    lr_mult: 1
    decay_mult: 1
  }
  param {
    lr_mult: 2
    decay_mult: 0
  }
  convolution_param {
    num_output: 192
    kernel_size: 1
    weight_filler {
      type: "xavier"
      std: 0.03
    }
    bias_filler {
      type: "constant"
      value: 0.2
    }
  }
}
layer {
  name: "inception_4a/relu_1x1"
  type: "ReLU"
  bottom: "inception_4a/1x1"
  top: "inception_4a/1x1"
}
layer {
  name: "inception_4a/3x3_reduce"
  type: "Convolution"
  bottom: "pool3/3x3_s2"
  top: "inception_4a/3x3_reduce"
  param {
    lr_mult: 1
    decay_mult: 1
  }
  param {
    lr_mult: 2
    decay_mult: 0
  }
  convolution_param {
    num_output: 96
    kernel_size: 1
    weight_filler {
      type: "xavier"
      std: 0.09
    }
    bias_filler {
      type: "constant"
      value: 0.2
    }
  }
}
layer {
  name: "inception_4a/relu_3x3_reduce"
  type: "ReLU"
  bottom: "inception_4a/3x3_reduce"
  top: "inception_4a/3x3_reduce"
}
layer {
  name: "inception_4a/3x3"
  type: "Convolution"
  bottom: "inception_4a/3x3_reduce"
  top: "inception_4a/3x3"
  param {
    lr_mult: 1
    decay_mult: 1
  }
  param {
    lr_mult: 2
    decay_mult: 0
  }
  convolution_param {
    num_output: 208
    pad: 1
    kernel_size: 3
    weight_filler {
      type: "xavier"
      std: 0.03
    }
    bias_filler {
      type: "constant"
      value: 0.2
    }
  }
}
layer {
  name: "inception_4a/relu_3x3"
  type: "ReLU"
  bottom: "inception_4a/3x3"
  top: "inception_4a/3x3"
}
layer {
  name: "inception_4a/5x5_reduce"
  type: "Convolution"
  bottom: "pool3/3x3_s2"
  top: "inception_4a/5x5_reduce"
  param {
    lr_mult: 1
    decay_mult: 1
  }
  param {
    lr_mult: 2
    decay_mult: 0
  }
  convolution_param {
    num_output: 16
    kernel_size: 1
    weight_filler {
      type: "xavier"
      std: 0.2
    }
    bias_filler {
      type: "constant"
      value: 0.2
    }
  }
}
layer {
  name: "inception_4a/relu_5x5_reduce"
  type: "ReLU"
  bottom: "inception_4a/5x5_reduce"
  top: "inception_4a/5x5_reduce"
}
layer {
  name: "inception_4a/5x5"
  type: "Convolution"
  bottom: "inception_4a/5x5_reduce"
  top: "inception_4a/5x5"
  param {
    lr_mult: 1
    decay_mult: 1
  }
  param {
    lr_mult: 2
    decay_mult: 0
  }
  convolution_param {
    num_output: 48
    pad: 2
    kernel_size: 5
    weight_filler {
      type: "xavier"
      std: 0.03
    }
    bias_filler {
      type: "constant"
      value: 0.2
    }
  }
}
layer {
  name: "inception_4a/relu_5x5"
  type: "ReLU"
  bottom: "inception_4a/5x5"
  top: "inception_4a/5x5"
}
layer {
  name: "inception_4a/pool"
  type: "Pooling"
  bottom: "pool3/3x3_s2"
  top: "inception_4a/pool"
  pooling_param {
    pool: MAX
    kernel_size: 3
    stride: 1
    pad: 1
  }
}
layer {
  name: "inception_4a/pool_proj"
  type: "Convolution"
  bottom: "inception_4a/pool"
  top: "inception_4a/pool_proj"
  param {
    lr_mult: 1
    decay_mult: 1
  }
  param {
    lr_mult: 2
    decay_mult: 0
  }
  convolution_param {
    num_output: 64
    kernel_size: 1
    weight_filler {
      type: "xavier"
      std: 0.1
    }
    bias_filler {
      type: "constant"
      value: 0.2
    }
  }
}
layer {
  name: "inception_4a/relu_pool_proj"
  type: "ReLU"
  bottom: "inception_4a/pool_proj"
  top: "inception_4a/pool_proj"
}
layer {
  name: "inception_4a/output"
  type: "Concat"
  bottom: "inception_4a/1x1"
  bottom: "inception_4a/3x3"
  bottom: "inception_4a/5x5"
  bottom: "inception_4a/pool_proj"
  top: "inception_4a/output"
}
layer {
  name: "loss1/ave_pool"
  type: "Pooling"
  bottom: "inception_4a/output"
  top: "loss1/ave_pool"
  pooling_param {
    pool: AVE
    kernel_size: 5
    stride: 3
  }
}
layer {
  name: "loss1/conv"
  type: "Convolution"
  bottom: "loss1/ave_pool"
  top: "loss1/conv"
  param {
    lr_mult: 1
    decay_mult: 1
  }
  param {
    lr_mult: 2
    decay_mult: 0
  }
  convolution_param {
    num_output: 128
    kernel_size: 1
    weight_filler {
      type: "xavier"
      std: 0.08
    }
    bias_filler {
      type: "constant"
      value: 0.2
    }
  }
}
layer {
  name: "loss1/relu_conv"
  type: "ReLU"
  bottom: "loss1/conv"
  top: "loss1/conv"
}
layer {
  name: "loss1/fc"
  type: "InnerProduct"
  bottom: "loss1/conv"
  top: "loss1/fc"
  param {
    lr_mult: 1
    decay_mult: 1
  }
  param {
    lr_mult: 2
    decay_mult: 0
  }
  inner_product_param {
    num_output: 1024
    weight_filler {
      type: "xavier"
      std: 0.02
    }
    bias_filler {
      type: "constant"
      value: 0.2
    }
  }
}
layer {
  name: "loss1/relu_fc"
  type: "ReLU"
  bottom: "loss1/fc"
  top: "loss1/fc"
}
layer {
  name: "loss1/drop_fc"
  type: "Dropout"
  bottom: "loss1/fc"
  top: "loss1/fc"
  dropout_param {
    dropout_ratio: 0.7
  }
}
layer {
  name: "loss1/classifier_plantvillage"
  type: "InnerProduct"
  bottom: "loss1/fc"
  top: "loss1/classifier_plantvillage"
  param {
    lr_mult: 1
    decay_mult: 1
  }
  param {
    lr_mult: 2
    decay_mult: 0
  }
  inner_product_param {
    num_output: 38
    weight_filler {
      type: "xavier"
      std: 0.0009765625
    }
    bias_filler {
      type: "constant"
      value: 0
    }
  }
}
layer {
  name: "inception_4b/1x1"
  type: "Convolution"
  bottom: "inception_4a/output"
  top: "inception_4b/1x1"
  param {
    lr_mult: 1
    decay_mult: 1
  }
  param {
    lr_mult: 2
    decay_mult: 0
  }
  convolution_param {
    num_output: 160
    kernel_size: 1
    weight_filler {
      type: "xavier"
      std: 0.03
    }
    bias_filler {
      type: "constant"
      value: 0.2
    }
  }
}
layer {
  name: "inception_4b/relu_1x1"
  type: "ReLU"
  bottom: "inception_4b/1x1"
  top: "inception_4b/1x1"
}
layer {
  name: "inception_4b/3x3_reduce"
  type: "Convolution"
  bottom: "inception_4a/output"
  top: "inception_4b/3x3_reduce"
  param {
    lr_mult: 1
    decay_mult: 1
  }
  param {
    lr_mult: 2
    decay_mult: 0
  }
  convolution_param {
    num_output: 112
    kernel_size: 1
    weight_filler {
      type: "xavier"
      std: 0.09
    }
    bias_filler {
      type: "constant"
      value: 0.2
    }
  }
}
layer {
  name: "inception_4b/relu_3x3_reduce"
  type: "ReLU"
  bottom: "inception_4b/3x3_reduce"
  top: "inception_4b/3x3_reduce"
}
layer {
  name: "inception_4b/3x3"
  type: "Convolution"
  bottom: "inception_4b/3x3_reduce"
  top: "inception_4b/3x3"
  param {
    lr_mult: 1
    decay_mult: 1
  }
  param {
    lr_mult: 2
    decay_mult: 0
  }
  convolution_param {
    num_output: 224
    pad: 1
    kernel_size: 3
    weight_filler {
      type: "xavier"
      std: 0.03
    }
    bias_filler {
      type: "constant"
      value: 0.2
    }
  }
}
layer {
  name: "inception_4b/relu_3x3"
  type: "ReLU"
  bottom: "inception_4b/3x3"
  top: "inception_4b/3x3"
}
layer {
  name: "inception_4b/5x5_reduce"
  type: "Convolution"
  bottom: "inception_4a/output"
  top: "inception_4b/5x5_reduce"
  param {
    lr_mult: 1
    decay_mult: 1
  }
  param {
    lr_mult: 2
    decay_mult: 0
  }
  convolution_param {
    num_output: 24
    kernel_size: 1
    weight_filler {
      type: "xavier"
      std: 0.2
    }
    bias_filler {
      type: "constant"
      value: 0.2
    }
  }
}
layer {
  name: "inception_4b/relu_5x5_reduce"
  type: "ReLU"
  bottom: "inception_4b/5x5_reduce"
  top: "inception_4b/5x5_reduce"
}
layer {
  name: "inception_4b/5x5"
  type: "Convolution"
  bottom: "inception_4b/5x5_reduce"
  top: "inception_4b/5x5"
  param {
    lr_mult: 1
    decay_mult: 1
  }
  param {
    lr_mult: 2
    decay_mult: 0
  }
  convolution_param {
    num_output: 64
    pad: 2
    kernel_size: 5
    weight_filler {
      type: "xavier"
      std: 0.03
    }
    bias_filler {
      type: "constant"
      value: 0.2
    }
  }
}
layer {
  name: "inception_4b/relu_5x5"
  type: "ReLU"
  bottom: "inception_4b/5x5"
  top: "inception_4b/5x5"
}
layer {
  name: "inception_4b/pool"
  type: "Pooling"
  bottom: "inception_4a/output"
  top: "inception_4b/pool"
  pooling_param {
    pool: MAX
    kernel_size: 3
    stride: 1
    pad: 1
  }
}
layer {
  name: "inception_4b/pool_proj"
  type: "Convolution"
  bottom: "inception_4b/pool"
  top: "inception_4b/pool_proj"
  param {
    lr_mult: 1
    decay_mult: 1
  }
  param {
    lr_mult: 2
    decay_mult: 0
  }
  convolution_param {
    num_output: 64
    kernel_size: 1
    weight_filler {
      type: "xavier"
      std: 0.1
    }
    bias_filler {
      type: "constant"
      value: 0.2
    }
  }
}
layer {
  name: "inception_4b/relu_pool_proj"
  type: "ReLU"
  bottom: "inception_4b/pool_proj"
  top: "inception_4b/pool_proj"
}
layer {
  name: "inception_4b/output"
  type: "Concat"
  bottom: "inception_4b/1x1"
  bottom: "inception_4b/3x3"
  bottom: "inception_4b/5x5"
  bottom: "inception_4b/pool_proj"
  top: "inception_4b/output"
}
layer {
  name: "inception_4c/1x1"
  type: "Convolution"
  bottom: "inception_4b/output"
  top: "inception_4c/1x1"
  param {
    lr_mult: 1
    decay_mult: 1
  }
  param {
    lr_mult: 2
    decay_mult: 0
  }
  convolution_param {
    num_output: 128
    kernel_size: 1
    weight_filler {
      type: "xavier"
      std: 0.03
    }
    bias_filler {
      type: "constant"
      value: 0.2
    }
  }
}
layer {
  name: "inception_4c/relu_1x1"
  type: "ReLU"
  bottom: "inception_4c/1x1"
  top: "inception_4c/1x1"
}
layer {
  name: "inception_4c/3x3_reduce"
  type: "Convolution"
  bottom: "inception_4b/output"
  top: "inception_4c/3x3_reduce"
  param {
    lr_mult: 1
    decay_mult: 1
  }
  param {
    lr_mult: 2
    decay_mult: 0
  }
  convolution_param {
    num_output: 128
    kernel_size: 1
    weight_filler {
      type: "xavier"
      std: 0.09
    }
    bias_filler {
      type: "constant"
      value: 0.2
    }
  }
}
layer {
  name: "inception_4c/relu_3x3_reduce"
  type: "ReLU"
  bottom: "inception_4c/3x3_reduce"
  top: "inception_4c/3x3_reduce"
}
layer {
  name: "inception_4c/3x3"
  type: "Convolution"
  bottom: "inception_4c/3x3_reduce"
  top: "inception_4c/3x3"
  param {
    lr_mult: 1
    decay_mult: 1
  }
  param {
    lr_mult: 2
    decay_mult: 0
  }
  convolution_param {
    num_output: 256
    pad: 1
    kernel_size: 3
    weight_filler {
      type: "xavier"
      std: 0.03
    }
    bias_filler {
      type: "constant"
      value: 0.2
    }
  }
}
layer {
  name: "inception_4c/relu_3x3"
  type: "ReLU"
  bottom: "inception_4c/3x3"
  top: "inception_4c/3x3"
}
layer {
  name: "inception_4c/5x5_reduce"
  type: "Convolution"
  bottom: "inception_4b/output"
  top: "inception_4c/5x5_reduce"
  param {
    lr_mult: 1
    decay_mult: 1
  }
  param {
    lr_mult: 2
    decay_mult: 0
  }
  convolution_param {
    num_output: 24
    kernel_size: 1
    weight_filler {
      type: "xavier"
      std: 0.2
    }
    bias_filler {
      type: "constant"
      value: 0.2
    }
  }
}
layer {
  name: "inception_4c/relu_5x5_reduce"
  type: "ReLU"
  bottom: "inception_4c/5x5_reduce"
  top: "inception_4c/5x5_reduce"
}
layer {
  name: "inception_4c/5x5"
  type: "Convolution"
  bottom: "inception_4c/5x5_reduce"
  top: "inception_4c/5x5"
  param {
    lr_mult: 1
    decay_mult: 1
  }
  param {
    lr_mult: 2
    decay_mult: 0
  }
  convolution_param {
    num_output: 64
    pad: 2
    kernel_size: 5
    weight_filler {
      type: "xavier"
      std: 0.03
    }
    bias_filler {
      type: "constant"
      value: 0.2
    }
  }
}
layer {
  name: "inception_4c/relu_5x5"
  type: "ReLU"
  bottom: "inception_4c/5x5"
  top: "inception_4c/5x5"
}
layer {
  name: "inception_4c/pool"
  type: "Pooling"
  bottom: "inception_4b/output"
  top: "inception_4c/pool"
  pooling_param {
    pool: MAX
    kernel_size: 3
    stride: 1
    pad: 1
  }
}
layer {
  name: "inception_4c/pool_proj"
  type: "Convolution"
  bottom: "inception_4c/pool"
  top: "inception_4c/pool_proj"
  param {
    lr_mult: 1
    decay_mult: 1
  }
  param {
    lr_mult: 2
    decay_mult: 0
  }
  convolution_param {
    num_output: 64
    kernel_size: 1
    weight_filler {
      type: "xavier"
      std: 0.1
    }
    bias_filler {
      type: "constant"
      value: 0.2
    }
  }
}
layer {
  name: "inception_4c/relu_pool_proj"
  type: "ReLU"
  bottom: "inception_4c/pool_proj"
  top: "inception_4c/pool_proj"
}
layer {
  name: "inception_4c/output"
  type: "Concat"
  bottom: "inception_4c/1x1"
  bottom: "inception_4c/3x3"
  bottom: "inception_4c/5x5"
  bottom: "inception_4c/pool_proj"
  top: "inception_4c/output"
}
layer {
  name: "inception_4d/1x1"
  type: "Convolution"
  bottom: "inception_4c/output"
  top: "inception_4d/1x1"
  param {
    lr_mult: 1
    decay_mult: 1
  }
  param {
    lr_mult: 2
    decay_mult: 0
  }
  convolution_param {
    num_output: 112
    kernel_size: 1
    weight_filler {
      type: "xavier"
      std: 0.03
    }
    bias_filler {
      type: "constant"
      value: 0.2
    }
  }
}
layer {
  name: "inception_4d/relu_1x1"
  type: "ReLU"
  bottom: "inception_4d/1x1"
  top: "inception_4d/1x1"
}
layer {
  name: "inception_4d/3x3_reduce"
  type: "Convolution"
  bottom: "inception_4c/output"
  top: "inception_4d/3x3_reduce"
  param {
    lr_mult: 1
    decay_mult: 1
  }
  param {
    lr_mult: 2
    decay_mult: 0
  }
  convolution_param {
    num_output: 144
    kernel_size: 1
    weight_filler {
      type: "xavier"
      std: 0.09
    }
    bias_filler {
      type: "constant"
      value: 0.2
    }
  }
}
layer {
  name: "inception_4d/relu_3x3_reduce"
  type: "ReLU"
  bottom: "inception_4d/3x3_reduce"
  top: "inception_4d/3x3_reduce"
}
layer {
  name: "inception_4d/3x3"
  type: "Convolution"
  bottom: "inception_4d/3x3_reduce"
  top: "inception_4d/3x3"
  param {
    lr_mult: 1
    decay_mult: 1
  }
  param {
    lr_mult: 2
    decay_mult: 0
  }
  convolution_param {
    num_output: 288
    pad: 1
    kernel_size: 3
    weight_filler {
      type: "xavier"
      std: 0.03
    }
    bias_filler {
      type: "constant"
      value: 0.2
    }
  }
}
layer {
  name: "inception_4d/relu_3x3"
  type: "ReLU"
  bottom: "inception_4d/3x3"
  top: "inception_4d/3x3"
}
layer {
  name: "inception_4d/5x5_reduce"
  type: "Convolution"
  bottom: "inception_4c/output"
  top: "inception_4d/5x5_reduce"
  param {
    lr_mult: 1
    decay_mult: 1
  }
  param {
    lr_mult: 2
    decay_mult: 0
  }
  convolution_param {
    num_output: 32
    kernel_size: 1
    weight_filler {
      type: "xavier"
      std: 0.2
    }
    bias_filler {
      type: "constant"
      value: 0.2
    }
  }
}
layer {
  name: "inception_4d/relu_5x5_reduce"
  type: "ReLU"
  bottom: "inception_4d/5x5_reduce"
  top: "inception_4d/5x5_reduce"
}
layer {
  name: "inception_4d/5x5"
  type: "Convolution"
  bottom: "inception_4d/5x5_reduce"
  top: "inception_4d/5x5"
  param {
    lr_mult: 1
    decay_mult: 1
  }
  param {
    lr_mult: 2
    decay_mult: 0
  }
  convolution_param {
    num_output: 64
    pad: 2
    kernel_size: 5
    weight_filler {
      type: "xavier"
      std: 0.03
    }
    bias_filler {
      type: "constant"
      value: 0.2
    }
  }
}
layer {
  name: "inception_4d/relu_5x5"
  type: "ReLU"
  bottom: "inception_4d/5x5"
  top: "inception_4d/5x5"
}
layer {
  name: "inception_4d/pool"
  type: "Pooling"
  bottom: "inception_4c/output"
  top: "inception_4d/pool"
  pooling_param {
    pool: MAX
    kernel_size: 3
    stride: 1
    pad: 1
  }
}
layer {
  name: "inception_4d/pool_proj"
  type: "Convolution"
  bottom: "inception_4d/pool"
  top: "inception_4d/pool_proj"
  param {
    lr_mult: 1
    decay_mult: 1
  }
  param {
    lr_mult: 2
    decay_mult: 0
  }
  convolution_param {
    num_output: 64
    kernel_size: 1
    weight_filler {
      type: "xavier"
      std: 0.1
    }
    bias_filler {
      type: "constant"
      value: 0.2
    }
  }
}
layer {
  name: "inception_4d/relu_pool_proj"
  type: "ReLU"
  bottom: "inception_4d/pool_proj"
  top: "inception_4d/pool_proj"
}
layer {
  name: "inception_4d/output"
  type: "Concat"
  bottom: "inception_4d/1x1"
  bottom: "inception_4d/3x3"
  bottom: "inception_4d/5x5"
  bottom: "inception_4d/pool_proj"
  top: "inception_4d/output"
}
layer {
  name: "loss2/ave_pool"
  type: "Pooling"
  bottom: "inception_4d/output"
  top: "loss2/ave_pool"
  pooling_param {
    pool: AVE
    kernel_size: 5
    stride: 3
  }
}
layer {
  name: "loss2/conv"
  type: "Convolution"
  bottom: "loss2/ave_pool"
  top: "loss2/conv"
  param {
    lr_mult: 1
    decay_mult: 1
  }
  param {
    lr_mult: 2
    decay_mult: 0
  }
  convolution_param {
    num_output: 128
    kernel_size: 1
    weight_filler {
      type: "xavier"
      std: 0.08
    }
    bias_filler {
      type: "constant"
      value: 0.2
    }
  }
}
layer {
  name: "loss2/relu_conv"
  type: "ReLU"
  bottom: "loss2/conv"
  top: "loss2/conv"
}
layer {
  name: "loss2/fc"
  type: "InnerProduct"
  bottom: "loss2/conv"
  top: "loss2/fc"
  param {
    lr_mult: 1
    decay_mult: 1
  }
  param {
    lr_mult: 2
    decay_mult: 0
  }
  inner_product_param {
    num_output: 1024
    weight_filler {
      type: "xavier"
      std: 0.02
    }
    bias_filler {
      type: "constant"
      value: 0.2
    }
  }
}
layer {
  name: "loss2/relu_fc"
  type: "ReLU"
  bottom: "loss2/fc"
  top: "loss2/fc"
}
layer {
  name: "loss2/drop_fc"
  type: "Dropout"
  bottom: "loss2/fc"
  top: "loss2/fc"
  dropout_param {
    dropout_ratio: 0.7
  }
}
layer {
  name: "loss2/classifier_plantvillage"
  type: "InnerProduct"
  bottom: "loss2/fc"
  top: "loss2/classifier_plantvillage"
  param {
    lr_mult: 1
    decay_mult: 1
  }
  param {
    lr_mult: 2
    decay_mult: 0
  }
  inner_product_param {
    num_output: 38
    weight_filler {
      type: "xavier"
      std: 0.0009765625
    }
    bias_filler {
      type: "constant"
      value: 0
    }
  }
}
layer {
  name: "inception_4e/1x1"
  type: "Convolution"
  bottom: "inception_4d/output"
  top: "inception_4e/1x1"
  param {
    lr_mult: 1
    decay_mult: 1
  }
  param {
    lr_mult: 2
    decay_mult: 0
  }
  convolution_param {
    num_output: 256
    kernel_size: 1
    weight_filler {
      type: "xavier"
      std: 0.03
    }
    bias_filler {
      type: "constant"
      value: 0.2
    }
  }
}
layer {
  name: "inception_4e/relu_1x1"
  type: "ReLU"
  bottom: "inception_4e/1x1"
  top: "inception_4e/1x1"
}
layer {
  name: "inception_4e/3x3_reduce"
  type: "Convolution"
  bottom: "inception_4d/output"
  top: "inception_4e/3x3_reduce"
  param {
    lr_mult: 1
    decay_mult: 1
  }
  param {
    lr_mult: 2
    decay_mult: 0
  }
  convolution_param {
    num_output: 160
    kernel_size: 1
    weight_filler {
      type: "xavier"
      std: 0.09
    }
    bias_filler {
      type: "constant"
      value: 0.2
    }
  }
}
layer {
  name: "inception_4e/relu_3x3_reduce"
  type: "ReLU"
  bottom: "inception_4e/3x3_reduce"
  top: "inception_4e/3x3_reduce"
}
layer {
  name: "inception_4e/3x3"
  type: "Convolution"
  bottom: "inception_4e/3x3_reduce"
  top: "inception_4e/3x3"
  param {
    lr_mult: 1
    decay_mult: 1
  }
  param {
    lr_mult: 2
    decay_mult: 0
  }
  convolution_param {
    num_output: 320
    pad: 1
    kernel_size: 3
    weight_filler {
      type: "xavier"
      std: 0.03
    }
    bias_filler {
      type: "constant"
      value: 0.2
    }
  }
}
layer {
  name: "inception_4e/relu_3x3"
  type: "ReLU"
  bottom: "inception_4e/3x3"
  top: "inception_4e/3x3"
}
layer {
  name: "inception_4e/5x5_reduce"
  type: "Convolution"
  bottom: "inception_4d/output"
  top: "inception_4e/5x5_reduce"
  param {
    lr_mult: 1
    decay_mult: 1
  }
  param {
    lr_mult: 2
    decay_mult: 0
  }
  convolution_param {
    num_output: 32
    kernel_size: 1
    weight_filler {
      type: "xavier"
      std: 0.2
    }
    bias_filler {
      type: "constant"
      value: 0.2
    }
  }
}
layer {
  name: "inception_4e/relu_5x5_reduce"
  type: "ReLU"
  bottom: "inception_4e/5x5_reduce"
  top: "inception_4e/5x5_reduce"
}
layer {
  name: "inception_4e/5x5"
  type: "Convolution"
  bottom: "inception_4e/5x5_reduce"
  top: "inception_4e/
I0403 15:46:19.278971 16039 layer_factory.hpp:77] Creating layer data
I0403 15:46:19.279572 16039 net.cpp:91] Creating Layer data
I0403 15:46:19.279609 16039 net.cpp:399] data -> data
I0403 15:46:19.279660 16039 net.cpp:399] data -> label
I0403 15:46:19.279696 16039 data_transformer.cpp:25] Loading mean file from: /home/mohanty/data/final_dataset/lmdb/segmented-20-80/mean.binaryproto
I0403 15:46:19.280910 16042 db_lmdb.cpp:38] Opened lmdb /home/mohanty/data/final_dataset/lmdb/segmented-20-80/test_db
I0403 15:46:19.292775 16039 data_layer.cpp:41] output data size: 24,3,224,224
I0403 15:46:19.320050 16039 net.cpp:141] Setting up data
I0403 15:46:19.320124 16039 net.cpp:148] Top shape: 24 3 224 224 (3612672)
I0403 15:46:19.320147 16039 net.cpp:148] Top shape: 24 (24)
I0403 15:46:19.320161 16039 net.cpp:156] Memory required for data: 14450784
I0403 15:46:19.320188 16039 layer_factory.hpp:77] Creating layer label_data_1_split
I0403 15:46:19.320214 16039 net.cpp:91] Creating Layer label_data_1_split
I0403 15:46:19.320230 16039 net.cpp:425] label_data_1_split <- label
I0403 15:46:19.320262 16039 net.cpp:399] label_data_1_split -> label_data_1_split_0
I0403 15:46:19.320289 16039 net.cpp:399] label_data_1_split -> label_data_1_split_1
I0403 15:46:19.320309 16039 net.cpp:399] label_data_1_split -> label_data_1_split_2
I0403 15:46:19.320329 16039 net.cpp:399] label_data_1_split -> label_data_1_split_3
I0403 15:46:19.320348 16039 net.cpp:399] label_data_1_split -> label_data_1_split_4
I0403 15:46:19.320368 16039 net.cpp:399] label_data_1_split -> label_data_1_split_5
I0403 15:46:19.320386 16039 net.cpp:399] label_data_1_split -> label_data_1_split_6
I0403 15:46:19.320406 16039 net.cpp:399] label_data_1_split -> label_data_1_split_7
I0403 15:46:19.320425 16039 net.cpp:399] label_data_1_split -> label_data_1_split_8
I0403 15:46:19.320444 16039 net.cpp:399] label_data_1_split -> label_data_1_split_9
I0403 15:46:19.320557 16039 net.cpp:141] Setting up label_data_1_split
I0403 15:46:19.320580 16039 net.cpp:148] Top shape: 24 (24)
I0403 15:46:19.320596 16039 net.cpp:148] Top shape: 24 (24)
I0403 15:46:19.320616 16039 net.cpp:148] Top shape: 24 (24)
I0403 15:46:19.320632 16039 net.cpp:148] Top shape: 24 (24)
I0403 15:46:19.320647 16039 net.cpp:148] Top shape: 24 (24)
I0403 15:46:19.320662 16039 net.cpp:148] Top shape: 24 (24)
I0403 15:46:19.320677 16039 net.cpp:148] Top shape: 24 (24)
I0403 15:46:19.320691 16039 net.cpp:148] Top shape: 24 (24)
I0403 15:46:19.320705 16039 net.cpp:148] Top shape: 24 (24)
I0403 15:46:19.320720 16039 net.cpp:148] Top shape: 24 (24)
I0403 15:46:19.320766 16039 net.cpp:156] Memory required for data: 14451744
I0403 15:46:19.320781 16039 layer_factory.hpp:77] Creating layer conv1/7x7_s2
I0403 15:46:19.320812 16039 net.cpp:91] Creating Layer conv1/7x7_s2
I0403 15:46:19.320830 16039 net.cpp:425] conv1/7x7_s2 <- data
I0403 15:46:19.320849 16039 net.cpp:399] conv1/7x7_s2 -> conv1/7x7_s2
I0403 15:46:19.458812 16039 net.cpp:141] Setting up conv1/7x7_s2
I0403 15:46:19.458889 16039 net.cpp:148] Top shape: 24 64 112 112 (19267584)
I0403 15:46:19.458906 16039 net.cpp:156] Memory required for data: 91522080
I0403 15:46:19.458936 16039 layer_factory.hpp:77] Creating layer conv1/relu_7x7
I0403 15:46:19.458962 16039 net.cpp:91] Creating Layer conv1/relu_7x7
I0403 15:46:19.458981 16039 net.cpp:425] conv1/relu_7x7 <- conv1/7x7_s2
I0403 15:46:19.458999 16039 net.cpp:386] conv1/relu_7x7 -> conv1/7x7_s2 (in-place)
I0403 15:46:19.459251 16039 net.cpp:141] Setting up conv1/relu_7x7
I0403 15:46:19.459278 16039 net.cpp:148] Top shape: 24 64 112 112 (19267584)
I0403 15:46:19.459293 16039 net.cpp:156] Memory required for data: 168592416
I0403 15:46:19.459307 16039 layer_factory.hpp:77] Creating layer pool1/3x3_s2
I0403 15:46:19.459331 16039 net.cpp:91] Creating Layer pool1/3x3_s2
I0403 15:46:19.459348 16039 net.cpp:425] pool1/3x3_s2 <- conv1/7x7_s2
I0403 15:46:19.459367 16039 net.cpp:399] pool1/3x3_s2 -> pool1/3x3_s2
I0403 15:46:19.459437 16039 net.cpp:141] Setting up pool1/3x3_s2
I0403 15:46:19.459460 16039 net.cpp:148] Top shape: 24 64 56 56 (4816896)
I0403 15:46:19.459475 16039 net.cpp:156] Memory required for data: 187860000
I0403 15:46:19.459488 16039 layer_factory.hpp:77] Creating layer pool1/norm1
I0403 15:46:19.459511 16039 net.cpp:91] Creating Layer pool1/norm1
I0403 15:46:19.459527 16039 net.cpp:425] pool1/norm1 <- pool1/3x3_s2
I0403 15:46:19.459547 16039 net.cpp:399] pool1/norm1 -> pool1/norm1
I0403 15:46:19.459832 16039 net.cpp:141] Setting up pool1/norm1
I0403 15:46:19.459859 16039 net.cpp:148] Top shape: 24 64 56 56 (4816896)
I0403 15:46:19.459873 16039 net.cpp:156] Memory required for data: 207127584
I0403 15:46:19.459888 16039 layer_factory.hpp:77] Creating layer conv2/3x3_reduce
I0403 15:46:19.459913 16039 net.cpp:91] Creating Layer conv2/3x3_reduce
I0403 15:46:19.459928 16039 net.cpp:425] conv2/3x3_reduce <- pool1/norm1
I0403 15:46:19.459946 16039 net.cpp:399] conv2/3x3_reduce -> conv2/3x3_reduce
I0403 15:46:19.461256 16039 net.cpp:141] Setting up conv2/3x3_reduce
I0403 15:46:19.461284 16039 net.cpp:148] Top shape: 24 64 56 56 (4816896)
I0403 15:46:19.461299 16039 net.cpp:156] Memory required for data: 226395168
I0403 15:46:19.461320 16039 layer_factory.hpp:77] Creating layer conv2/relu_3x3_reduce
I0403 15:46:19.461338 16039 net.cpp:91] Creating Layer conv2/relu_3x3_reduce
I0403 15:46:19.461354 16039 net.cpp:425] conv2/relu_3x3_reduce <- conv2/3x3_reduce
I0403 15:46:19.461369 16039 net.cpp:386] conv2/relu_3x3_reduce -> conv2/3x3_reduce (in-place)
I0403 15:46:19.461626 16039 net.cpp:141] Setting up conv2/relu_3x3_reduce
I0403 15:46:19.461650 16039 net.cpp:148] Top shape: 24 64 56 56 (4816896)
I0403 15:46:19.461665 16039 net.cpp:156] Memory required for data: 245662752
I0403 15:46:19.461680 16039 layer_factory.hpp:77] Creating layer conv2/3x3
I0403 15:46:19.461701 16039 net.cpp:91] Creating Layer conv2/3x3
I0403 15:46:19.461719 16039 net.cpp:425] conv2/3x3 <- conv2/3x3_reduce
I0403 15:46:19.461736 16039 net.cpp:399] conv2/3x3 -> conv2/3x3
I0403 15:46:19.464015 16039 net.cpp:141] Setting up conv2/3x3
I0403 15:46:19.464047 16039 net.cpp:148] Top shape: 24 192 56 56 (14450688)
I0403 15:46:19.464064 16039 net.cpp:156] Memory required for data: 303465504
I0403 15:46:19.464084 16039 layer_factory.hpp:77] Creating layer conv2/relu_3x3
I0403 15:46:19.464103 16039 net.cpp:91] Creating Layer conv2/relu_3x3
I0403 15:46:19.464118 16039 net.cpp:425] conv2/relu_3x3 <- conv2/3x3
I0403 15:46:19.464135 16039 net.cpp:386] conv2/relu_3x3 -> conv2/3x3 (in-place)
I0403 15:46:19.464313 16039 net.cpp:141] Setting up conv2/relu_3x3
I0403 15:46:19.464339 16039 net.cpp:148] Top shape: 24 192 56 56 (14450688)
I0403 15:46:19.464387 16039 net.cpp:156] Memory required for data: 361268256
I0403 15:46:19.464403 16039 layer_factory.hpp:77] Creating layer conv2/norm2
I0403 15:46:19.464423 16039 net.cpp:91] Creating Layer conv2/norm2
I0403 15:46:19.464440 16039 net.cpp:425] conv2/norm2 <- conv2/3x3
I0403 15:46:19.464457 16039 net.cpp:399] conv2/norm2 -> conv2/norm2
I0403 15:46:19.464771 16039 net.cpp:141] Setting up conv2/norm2
I0403 15:46:19.464797 16039 net.cpp:148] Top shape: 24 192 56 56 (14450688)
I0403 15:46:19.464812 16039 net.cpp:156] Memory required for data: 419071008
I0403 15:46:19.464825 16039 layer_factory.hpp:77] Creating layer pool2/3x3_s2
I0403 15:46:19.464845 16039 net.cpp:91] Creating Layer pool2/3x3_s2
I0403 15:46:19.464862 16039 net.cpp:425] pool2/3x3_s2 <- conv2/norm2
I0403 15:46:19.464879 16039 net.cpp:399] pool2/3x3_s2 -> pool2/3x3_s2
I0403 15:46:19.464931 16039 net.cpp:141] Setting up pool2/3x3_s2
I0403 15:46:19.464956 16039 net.cpp:148] Top shape: 24 192 28 28 (3612672)
I0403 15:46:19.464969 16039 net.cpp:156] Memory required for data: 433521696
I0403 15:46:19.464983 16039 layer_factory.hpp:77] Creating layer pool2/3x3_s2_pool2/3x3_s2_0_split
I0403 15:46:19.465000 16039 net.cpp:91] Creating Layer pool2/3x3_s2_pool2/3x3_s2_0_split
I0403 15:46:19.465014 16039 net.cpp:425] pool2/3x3_s2_pool2/3x3_s2_0_split <- pool2/3x3_s2
I0403 15:46:19.465034 16039 net.cpp:399] pool2/3x3_s2_pool2/3x3_s2_0_split -> pool2/3x3_s2_pool2/3x3_s2_0_split_0
I0403 15:46:19.465054 16039 net.cpp:399] pool2/3x3_s2_pool2/3x3_s2_0_split -> pool2/3x3_s2_pool2/3x3_s2_0_split_1
I0403 15:46:19.465073 16039 net.cpp:399] pool2/3x3_s2_pool2/3x3_s2_0_split -> pool2/3x3_s2_pool2/3x3_s2_0_split_2
I0403 15:46:19.465092 16039 net.cpp:399] pool2/3x3_s2_pool2/3x3_s2_0_split -> pool2/3x3_s2_pool2/3x3_s2_0_split_3
I0403 15:46:19.465162 16039 net.cpp:141] Setting up pool2/3x3_s2_pool2/3x3_s2_0_split
I0403 15:46:19.465188 16039 net.cpp:148] Top shape: 24 192 28 28 (3612672)
I0403 15:46:19.465204 16039 net.cpp:148] Top shape: 24 192 28 28 (3612672)
I0403 15:46:19.465219 16039 net.cpp:148] Top shape: 24 192 28 28 (3612672)
I0403 15:46:19.465234 16039 net.cpp:148] Top shape: 24 192 28 28 (3612672)
I0403 15:46:19.465247 16039 net.cpp:156] Memory required for data: 491324448
I0403 15:46:19.465261 16039 layer_factory.hpp:77] Creating layer inception_3a/1x1
I0403 15:46:19.465286 16039 net.cpp:91] Creating Layer inception_3a/1x1
I0403 15:46:19.465302 16039 net.cpp:425] inception_3a/1x1 <- pool2/3x3_s2_pool2/3x3_s2_0_split_0
I0403 15:46:19.465320 16039 net.cpp:399] inception_3a/1x1 -> inception_3a/1x1
I0403 15:46:19.466840 16039 net.cpp:141] Setting up inception_3a/1x1
I0403 15:46:19.466869 16039 net.cpp:148] Top shape: 24 64 28 28 (1204224)
I0403 15:46:19.466886 16039 net.cpp:156] Memory required for data: 496141344
I0403 15:46:19.466902 16039 layer_factory.hpp:77] Creating layer inception_3a/relu_1x1
I0403 15:46:19.466922 16039 net.cpp:91] Creating Layer inception_3a/relu_1x1
I0403 15:46:19.466938 16039 net.cpp:425] inception_3a/relu_1x1 <- inception_3a/1x1
I0403 15:46:19.466955 16039 net.cpp:386] inception_3a/relu_1x1 -> inception_3a/1x1 (in-place)
I0403 15:46:19.467128 16039 net.cpp:141] Setting up inception_3a/relu_1x1
I0403 15:46:19.467155 16039 net.cpp:148] Top shape: 24 64 28 28 (1204224)
I0403 15:46:19.467170 16039 net.cpp:156] Memory required for data: 500958240
I0403 15:46:19.467183 16039 layer_factory.hpp:77] Creating layer inception_3a/3x3_reduce
I0403 15:46:19.467206 16039 net.cpp:91] Creating Layer inception_3a/3x3_reduce
I0403 15:46:19.467222 16039 net.cpp:425] inception_3a/3x3_reduce <- pool2/3x3_s2_pool2/3x3_s2_0_split_1
I0403 15:46:19.467243 16039 net.cpp:399] inception_3a/3x3_reduce -> inception_3a/3x3_reduce
I0403 15:46:19.468922 16039 net.cpp:141] Setting up inception_3a/3x3_reduce
I0403 15:46:19.468951 16039 net.cpp:148] Top shape: 24 96 28 28 (1806336)
I0403 15:46:19.468971 16039 net.cpp:156] Memory required for data: 508183584
I0403 15:46:19.468991 16039 layer_factory.hpp:77] Creating layer inception_3a/relu_3x3_reduce
I0403 15:46:19.469027 16039 net.cpp:91] Creating Layer inception_3a/relu_3x3_reduce
I0403 15:46:19.469044 16039 net.cpp:425] inception_3a/relu_3x3_reduce <- inception_3a/3x3_reduce
I0403 15:46:19.469063 16039 net.cpp:386] inception_3a/relu_3x3_reduce -> inception_3a/3x3_reduce (in-place)
I0403 15:46:19.469244 16039 net.cpp:141] Setting up inception_3a/relu_3x3_reduce
I0403 15:46:19.469269 16039 net.cpp:148] Top shape: 24 96 28 28 (1806336)
I0403 15:46:19.469283 16039 net.cpp:156] Memory required for data: 515408928
I0403 15:46:19.469297 16039 layer_factory.hpp:77] Creating layer inception_3a/3x3
I0403 15:46:19.469319 16039 net.cpp:91] Creating Layer inception_3a/3x3
I0403 15:46:19.469336 16039 net.cpp:425] inception_3a/3x3 <- inception_3a/3x3_reduce
I0403 15:46:19.469357 16039 net.cpp:399] inception_3a/3x3 -> inception_3a/3x3
I0403 15:46:19.470993 16039 net.cpp:141] Setting up inception_3a/3x3
I0403 15:46:19.471022 16039 net.cpp:148] Top shape: 24 128 28 28 (2408448)
I0403 15:46:19.471038 16039 net.cpp:156] Memory required for data: 525042720
I0403 15:46:19.471057 16039 layer_factory.hpp:77] Creating layer inception_3a/relu_3x3
I0403 15:46:19.471074 16039 net.cpp:91] Creating Layer inception_3a/relu_3x3
I0403 15:46:19.471089 16039 net.cpp:425] inception_3a/relu_3x3 <- inception_3a/3x3
I0403 15:46:19.471108 16039 net.cpp:386] inception_3a/relu_3x3 -> inception_3a/3x3 (in-place)
I0403 15:46:19.471377 16039 net.cpp:141] Setting up inception_3a/relu_3x3
I0403 15:46:19.471405 16039 net.cpp:148] Top shape: 24 128 28 28 (2408448)
I0403 15:46:19.471421 16039 net.cpp:156] Memory required for data: 534676512
I0403 15:46:19.471434 16039 layer_factory.hpp:77] Creating layer inception_3a/5x5_reduce
I0403 15:46:19.471457 16039 net.cpp:91] Creating Layer inception_3a/5x5_reduce
I0403 15:46:19.471473 16039 net.cpp:425] inception_3a/5x5_reduce <- pool2/3x3_s2_pool2/3x3_s2_0_split_2
I0403 15:46:19.471493 16039 net.cpp:399] inception_3a/5x5_reduce -> inception_3a/5x5_reduce
I0403 15:46:19.472455 16039 net.cpp:141] Setting up inception_3a/5x5_reduce
I0403 15:46:19.472484 16039 net.cpp:148] Top shape: 24 16 28 28 (301056)
I0403 15:46:19.472501 16039 net.cpp:156] Memory required for data: 535880736
I0403 15:46:19.472518 16039 layer_factory.hpp:77] Creating layer inception_3a/relu_5x5_reduce
I0403 15:46:19.472535 16039 net.cpp:91] Creating Layer inception_3a/relu_5x5_reduce
I0403 15:46:19.472550 16039 net.cpp:425] inception_3a/relu_5x5_reduce <- inception_3a/5x5_reduce
I0403 15:46:19.472570 16039 net.cpp:386] inception_3a/relu_5x5_reduce -> inception_3a/5x5_reduce (in-place)
I0403 15:46:19.472869 16039 net.cpp:141] Setting up inception_3a/relu_5x5_reduce
I0403 15:46:19.472895 16039 net.cpp:148] Top shape: 24 16 28 28 (301056)
I0403 15:46:19.472910 16039 net.cpp:156] Memory required for data: 537084960
I0403 15:46:19.472924 16039 layer_factory.hpp:77] Creating layer inception_3a/5x5
I0403 15:46:19.472945 16039 net.cpp:91] Creating Layer inception_3a/5x5
I0403 15:46:19.472962 16039 net.cpp:425] inception_3a/5x5 <- inception_3a/5x5_reduce
I0403 15:46:19.472982 16039 net.cpp:399] inception_3a/5x5 -> inception_3a/5x5
I0403 15:46:19.473983 16039 net.cpp:141] Setting up inception_3a/5x5
I0403 15:46:19.474009 16039 net.cpp:148] Top shape: 24 32 28 28 (602112)
I0403 15:46:19.474025 16039 net.cpp:156] Memory required for data: 539493408
I0403 15:46:19.474041 16039 layer_factory.hpp:77] Creating layer inception_3a/relu_5x5
I0403 15:46:19.474061 16039 net.cpp:91] Creating Layer inception_3a/relu_5x5
I0403 15:46:19.474077 16039 net.cpp:425] inception_3a/relu_5x5 <- inception_3a/5x5
I0403 15:46:19.474094 16039 net.cpp:386] inception_3a/relu_5x5 -> inception_3a/5x5 (in-place)
I0403 15:46:19.474267 16039 net.cpp:141] Setting up inception_3a/relu_5x5
I0403 15:46:19.474290 16039 net.cpp:148] Top shape: 24 32 28 28 (602112)
I0403 15:46:19.474304 16039 net.cpp:156] Memory required for data: 541901856
I0403 15:46:19.474318 16039 layer_factory.hpp:77] Creating layer inception_3a/pool
I0403 15:46:19.474334 16039 net.cpp:91] Creating Layer inception_3a/pool
I0403 15:46:19.474364 16039 net.cpp:425] inception_3a/pool <- pool2/3x3_s2_pool2/3x3_s2_0_split_3
I0403 15:46:19.474386 16039 net.cpp:399] inception_3a/pool -> inception_3a/pool
I0403 15:46:19.474443 16039 net.cpp:141] Setting up inception_3a/pool
I0403 15:46:19.474465 16039 net.cpp:148] Top shape: 24 192 28 28 (3612672)
I0403 15:46:19.474480 16039 net.cpp:156] Memory required for data: 556352544
I0403 15:46:19.474494 16039 layer_factory.hpp:77] Creating layer inception_3a/pool_proj
I0403 15:46:19.474519 16039 net.cpp:91] Creating Layer inception_3a/pool_proj
I0403 15:46:19.474535 16039 net.cpp:425] inception_3a/pool_proj <- inception_3a/pool
I0403 15:46:19.474553 16039 net.cpp:399] inception_3a/pool_proj -> inception_3a/pool_proj
I0403 15:46:19.475530 16039 net.cpp:141] Setting up inception_3a/pool_proj
I0403 15:46:19.475559 16039 net.cpp:148] Top shape: 24 32 28 28 (602112)
I0403 15:46:19.475579 16039 net.cpp:156] Memory required for data: 558760992
I0403 15:46:19.475606 16039 layer_factory.hpp:77] Creating layer inception_3a/relu_pool_proj
I0403 15:46:19.475627 16039 net.cpp:91] Creating Layer inception_3a/relu_pool_proj
I0403 15:46:19.475643 16039 net.cpp:425] inception_3a/relu_pool_proj <- inception_3a/pool_proj
I0403 15:46:19.475662 16039 net.cpp:386] inception_3a/relu_pool_proj -> inception_3a/pool_proj (in-place)
I0403 15:46:19.475939 16039 net.cpp:141] Setting up inception_3a/relu_pool_proj
I0403 15:46:19.475966 16039 net.cpp:148] Top shape: 24 32 28 28 (602112)
I0403 15:46:19.475982 16039 net.cpp:156] Memory required for data: 561169440
I0403 15:46:19.475996 16039 layer_factory.hpp:77] Creating layer inception_3a/output
I0403 15:46:19.476013 16039 net.cpp:91] Creating Layer inception_3a/output
I0403 15:46:19.476028 16039 net.cpp:425] inception_3a/output <- inception_3a/1x1
I0403 15:46:19.476044 16039 net.cpp:425] inception_3a/output <- inception_3a/3x3
I0403 15:46:19.476059 16039 net.cpp:425] inception_3a/output <- inception_3a/5x5
I0403 15:46:19.476074 16039 net.cpp:425] inception_3a/output <- inception_3a/pool_proj
I0403 15:46:19.476091 16039 net.cpp:399] inception_3a/output -> inception_3a/output
I0403 15:46:19.476138 16039 net.cpp:141] Setting up inception_3a/output
I0403 15:46:19.476161 16039 net.cpp:148] Top shape: 24 256 28 28 (4816896)
I0403 15:46:19.476174 16039 net.cpp:156] Memory required for data: 580437024
I0403 15:46:19.476188 16039 layer_factory.hpp:77] Creating layer inception_3a/output_inception_3a/output_0_split
I0403 15:46:19.476204 16039 net.cpp:91] Creating Layer inception_3a/output_inception_3a/output_0_split
I0403 15:46:19.476218 16039 net.cpp:425] inception_3a/output_inception_3a/output_0_split <- inception_3a/output
I0403 15:46:19.476238 16039 net.cpp:399] inception_3a/output_inception_3a/output_0_split -> inception_3a/output_inception_3a/output_0_split_0
I0403 15:46:19.476258 16039 net.cpp:399] inception_3a/output_inception_3a/output_0_split -> inception_3a/output_inception_3a/output_0_split_1
I0403 15:46:19.476282 16039 net.cpp:399] inception_3a/output_inception_3a/output_0_split -> inception_3a/output_inception_3a/output_0_split_2
I0403 15:46:19.476305 16039 net.cpp:399] inception_3a/output_inception_3a/output_0_split -> inception_3a/output_inception_3a/output_0_split_3
I0403 15:46:19.476375 16039 net.cpp:141] Setting up inception_3a/output_inception_3a/output_0_split
I0403 15:46:19.476397 16039 net.cpp:148] Top shape: 24 256 28 28 (4816896)
I0403 15:46:19.476415 16039 net.cpp:148] Top shape: 24 256 28 28 (4816896)
I0403 15:46:19.476431 16039 net.cpp:148] Top shape: 24 256 28 28 (4816896)
I0403 15:46:19.476447 16039 net.cpp:148] Top shape: 24 256 28 28 (4816896)
I0403 15:46:19.476460 16039 net.cpp:156] Memory required for data: 657507360
I0403 15:46:19.476475 16039 layer_factory.hpp:77] Creating layer inception_3b/1x1
I0403 15:46:19.476493 16039 net.cpp:91] Creating Layer inception_3b/1x1
I0403 15:46:19.476510 16039 net.cpp:425] inception_3b/1x1 <- inception_3a/output_inception_3a/output_0_split_0
I0403 15:46:19.476529 16039 net.cpp:399] inception_3b/1x1 -> inception_3b/1x1
I0403 15:46:19.477697 16039 net.cpp:141] Setting up inception_3b/1x1
I0403 15:46:19.477737 16039 net.cpp:148] Top shape: 24 128 28 28 (2408448)
I0403 15:46:19.477752 16039 net.cpp:156] Memory required for data: 667141152
I0403 15:46:19.477771 16039 layer_factory.hpp:77] Creating layer inception_3b/relu_1x1
I0403 15:46:19.477790 16039 net.cpp:91] Creating Layer inception_3b/relu_1x1
I0403 15:46:19.477807 16039 net.cpp:425] inception_3b/relu_1x1 <- inception_3b/1x1
I0403 15:46:19.477823 16039 net.cpp:386] inception_3b/relu_1x1 -> inception_3b/1x1 (in-place)
I0403 15:46:19.477998 16039 net.cpp:141] Setting up inception_3b/relu_1x1
I0403 15:46:19.478025 16039 net.cpp:148] Top shape: 24 128 28 28 (2408448)
I0403 15:46:19.478040 16039 net.cpp:156] Memory required for data: 676774944
I0403 15:46:19.478055 16039 layer_factory.hpp:77] Creating layer inception_3b/3x3_reduce
I0403 15:46:19.478080 16039 net.cpp:91] Creating Layer inception_3b/3x3_reduce
I0403 15:46:19.478097 16039 net.cpp:425] inception_3b/3x3_reduce <- inception_3a/output_inception_3a/output_0_split_1
I0403 15:46:19.478116 16039 net.cpp:399] inception_3b/3x3_reduce -> inception_3b/3x3_reduce
I0403 15:46:19.479250 16039 net.cpp:141] Setting up inception_3b/3x3_reduce
I0403 15:46:19.479279 16039 net.cpp:148] Top shape: 24 128 28 28 (2408448)
I0403 15:46:19.479295 16039 net.cpp:156] Memory required for data: 686408736
I0403 15:46:19.479311 16039 layer_factory.hpp:77] Creating layer inception_3b/relu_3x3_reduce
I0403 15:46:19.479331 16039 net.cpp:91] Creating Layer inception_3b/relu_3x3_reduce
I0403 15:46:19.479347 16039 net.cpp:425] inception_3b/relu_3x3_reduce <- inception_3b/3x3_reduce
I0403 15:46:19.479364 16039 net.cpp:386] inception_3b/relu_3x3_reduce -> inception_3b/3x3_reduce (in-place)
I0403 15:46:19.479534 16039 net.cpp:141] Setting up inception_3b/relu_3x3_reduce
I0403 15:46:19.479562 16039 net.cpp:148] Top shape: 24 128 28 28 (2408448)
I0403 15:46:19.479578 16039 net.cpp:156] Memory required for data: 696042528
I0403 15:46:19.479591 16039 layer_factory.hpp:77] Creating layer inception_3b/3x3
I0403 15:46:19.479620 16039 net.cpp:91] Creating Layer inception_3b/3x3
I0403 15:46:19.479640 16039 net.cpp:425] inception_3b/3x3 <- inception_3b/3x3_reduce
I0403 15:46:19.479660 16039 net.cpp:399] inception_3b/3x3 -> inception_3b/3x3
I0403 15:46:19.482657 16039 net.cpp:141] Setting up inception_3b/3x3
I0403 15:46:19.482689 16039 net.cpp:148] Top shape: 24 192 28 28 (3612672)
I0403 15:46:19.482707 16039 net.cpp:156] Memory required for data: 710493216
I0403 15:46:19.482724 16039 layer_factory.hpp:77] Creating layer inception_3b/relu_3x3
I0403 15:46:19.482743 16039 net.cpp:91] Creating Layer inception_3b/relu_3x3
I0403 15:46:19.482758 16039 net.cpp:425] inception_3b/relu_3x3 <- inception_3b/3x3
I0403 15:46:19.482779 16039 net.cpp:386] inception_3b/relu_3x3 -> inception_3b/3x3 (in-place)
I0403 15:46:19.483062 16039 net.cpp:141] Setting up inception_3b/relu_3x3
I0403 15:46:19.483091 16039 net.cpp:148] Top shape: 24 192 28 28 (3612672)
I0403 15:46:19.483108 16039 net.cpp:156] Memory required for data: 724943904
I0403 15:46:19.483122 16039 layer_factory.hpp:77] Creating layer inception_3b/5x5_reduce
I0403 15:46:19.483146 16039 net.cpp:91] Creating Layer inception_3b/5x5_reduce
I0403 15:46:19.483165 16039 net.cpp:425] inception_3b/5x5_reduce <- inception_3a/output_inception_3a/output_0_split_2
I0403 15:46:19.483185 16039 net.cpp:399] inception_3b/5x5_reduce -> inception_3b/5x5_reduce
I0403 15:46:19.484194 16039 net.cpp:141] Setting up inception_3b/5x5_reduce
I0403 15:46:19.484221 16039 net.cpp:148] Top shape: 24 32 28 28 (602112)
I0403 15:46:19.484237 16039 net.cpp:156] Memory required for data: 727352352
I0403 15:46:19.484257 16039 layer_factory.hpp:77] Creating layer inception_3b/relu_5x5_reduce
I0403 15:46:19.484277 16039 net.cpp:91] Creating Layer inception_3b/relu_5x5_reduce
I0403 15:46:19.484293 16039 net.cpp:425] inception_3b/relu_5x5_reduce <- inception_3b/5x5_reduce
I0403 15:46:19.484313 16039 net.cpp:386] inception_3b/relu_5x5_reduce -> inception_3b/5x5_reduce (in-place)
I0403 15:46:19.484513 16039 net.cpp:141] Setting up inception_3b/relu_5x5_reduce
I0403 15:46:19.484539 16039 net.cpp:148] Top shape: 24 32 28 28 (602112)
I0403 15:46:19.484554 16039 net.cpp:156] Memory required for data: 729760800
I0403 15:46:19.484568 16039 layer_factory.hpp:77] Creating layer inception_3b/5x5
I0403 15:46:19.484591 16039 net.cpp:91] Creating Layer inception_3b/5x5
I0403 15:46:19.484621 16039 net.cpp:425] inception_3b/5x5 <- inception_3b/5x5_reduce
I0403 15:46:19.484645 16039 net.cpp:399] inception_3b/5x5 -> inception_3b/5x5
I0403 15:46:19.486661 16039 net.cpp:141] Setting up inception_3b/5x5
I0403 15:46:19.486690 16039 net.cpp:148] Top shape: 24 96 28 28 (1806336)
I0403 15:46:19.486706 16039 net.cpp:156] Memory required for data: 736986144
I0403 15:46:19.486724 16039 layer_factory.hpp:77] Creating layer inception_3b/relu_5x5
I0403 15:46:19.486744 16039 net.cpp:91] Creating Layer inception_3b/relu_5x5
I0403 15:46:19.486763 16039 net.cpp:425] inception_3b/relu_5x5 <- inception_3b/5x5
I0403 15:46:19.486780 16039 net.cpp:386] inception_3b/relu_5x5 -> inception_3b/5x5 (in-place)
I0403 15:46:19.486975 16039 net.cpp:141] Setting up inception_3b/relu_5x5
I0403 15:46:19.487000 16039 net.cpp:148] Top shape: 24 96 28 28 (1806336)
I0403 15:46:19.487015 16039 net.cpp:156] Memory required for data: 744211488
I0403 15:46:19.487030 16039 layer_factory.hpp:77] Creating layer inception_3b/pool
I0403 15:46:19.487047 16039 net.cpp:91] Creating Layer inception_3b/pool
I0403 15:46:19.487063 16039 net.cpp:425] inception_3b/pool <- inception_3a/output_inception_3a/output_0_split_3
I0403 15:46:19.487082 16039 net.cpp:399] inception_3b/pool -> inception_3b/pool
I0403 15:46:19.487138 16039 net.cpp:141] Setting up inception_3b/pool
I0403 15:46:19.487162 16039 net.cpp:148] Top shape: 24 256 28 28 (4816896)
I0403 15:46:19.487176 16039 net.cpp:156] Memory required for data: 763479072
I0403 15:46:19.487191 16039 layer_factory.hpp:77] Creating layer inception_3b/pool_proj
I0403 15:46:19.487213 16039 net.cpp:91] Creating Layer inception_3b/pool_proj
I0403 15:46:19.487231 16039 net.cpp:425] inception_3b/pool_proj <- inception_3b/pool
I0403 15:46:19.487253 16039 net.cpp:399] inception_3b/pool_proj -> inception_3b/pool_proj
I0403 15:46:19.488363 16039 net.cpp:141] Setting up inception_3b/pool_proj
I0403 15:46:19.488391 16039 net.cpp:148] Top shape: 24 64 28 28 (1204224)
I0403 15:46:19.488406 16039 net.cpp:156] Memory required for data: 768295968
I0403 15:46:19.488425 16039 layer_factory.hpp:77] Creating layer inception_3b/relu_pool_proj
I0403 15:46:19.488443 16039 net.cpp:91] Creating Layer inception_3b/relu_pool_proj
I0403 15:46:19.488459 16039 net.cpp:425] inception_3b/relu_pool_proj <- inception_3b/pool_proj
I0403 15:46:19.488481 16039 net.cpp:386] inception_3b/relu_pool_proj -> inception_3b/pool_proj (in-place)
I0403 15:46:19.488888 16039 net.cpp:141] Setting up inception_3b/relu_pool_proj
I0403 15:46:19.488919 16039 net.cpp:148] Top shape: 24 64 28 28 (1204224)
I0403 15:46:19.488937 16039 net.cpp:156] Memory required for data: 773112864
I0403 15:46:19.488952 16039 layer_factory.hpp:77] Creating layer inception_3b/output
I0403 15:46:19.488970 16039 net.cpp:91] Creating Layer inception_3b/output
I0403 15:46:19.488986 16039 net.cpp:425] inception_3b/output <- inception_3b/1x1
I0403 15:46:19.489002 16039 net.cpp:425] inception_3b/output <- inception_3b/3x3
I0403 15:46:19.489018 16039 net.cpp:425] inception_3b/output <- inception_3b/5x5
I0403 15:46:19.489033 16039 net.cpp:425] inception_3b/output <- inception_3b/pool_proj
I0403 15:46:19.489053 16039 net.cpp:399] inception_3b/output -> inception_3b/output
I0403 15:46:19.489096 16039 net.cpp:141] Setting up inception_3b/output
I0403 15:46:19.489120 16039 net.cpp:148] Top shape: 24 480 28 28 (9031680)
I0403 15:46:19.489135 16039 net.cpp:156] Memory required for data: 809239584
I0403 15:46:19.489150 16039 layer_factory.hpp:77] Creating layer pool3/3x3_s2
I0403 15:46:19.489168 16039 net.cpp:91] Creating Layer pool3/3x3_s2
I0403 15:46:19.489186 16039 net.cpp:425] pool3/3x3_s2 <- inception_3b/output
I0403 15:46:19.489223 16039 net.cpp:399] pool3/3x3_s2 -> pool3/3x3_s2
I0403 15:46:19.489284 16039 net.cpp:141] Setting up pool3/3x3_s2
I0403 15:46:19.489322 16039 net.cpp:148] Top shape: 24 480 14 14 (2257920)
I0403 15:46:19.489336 16039 net.cpp:156] Memory required for data: 818271264
I0403 15:46:19.489351 16039 layer_factory.hpp:77] Creating layer pool3/3x3_s2_pool3/3x3_s2_0_split
I0403 15:46:19.489370 16039 net.cpp:91] Creating Layer pool3/3x3_s2_pool3/3x3_s2_0_split
I0403 15:46:19.489388 16039 net.cpp:425] pool3/3x3_s2_pool3/3x3_s2_0_split <- pool3/3x3_s2
I0403 15:46:19.489406 16039 net.cpp:399] pool3/3x3_s2_pool3/3x3_s2_0_split -> pool3/3x3_s2_pool3/3x3_s2_0_split_0
I0403 15:46:19.489426 16039 net.cpp:399] pool3/3x3_s2_pool3/3x3_s2_0_split -> pool3/3x3_s2_pool3/3x3_s2_0_split_1
I0403 15:46:19.489446 16039 net.cpp:399] pool3/3x3_s2_pool3/3x3_s2_0_split -> pool3/3x3_s2_pool3/3x3_s2_0_split_2
I0403 15:46:19.489466 16039 net.cpp:399] pool3/3x3_s2_pool3/3x3_s2_0_split -> pool3/3x3_s2_pool3/3x3_s2_0_split_3
I0403 15:46:19.489557 16039 net.cpp:141] Setting up pool3/3x3_s2_pool3/3x3_s2_0_split
I0403 15:46:19.489580 16039 net.cpp:148] Top shape: 24 480 14 14 (2257920)
I0403 15:46:19.489614 16039 net.cpp:148] Top shape: 24 480 14 14 (2257920)
I0403 15:46:19.489629 16039 net.cpp:148] Top shape: 24 480 14 14 (2257920)
I0403 15:46:19.489644 16039 net.cpp:148] Top shape: 24 480 14 14 (2257920)
I0403 15:46:19.489657 16039 net.cpp:156] Memory required for data: 854397984
I0403 15:46:19.489671 16039 layer_factory.hpp:77] Creating layer inception_4a/1x1
I0403 15:46:19.489693 16039 net.cpp:91] Creating Layer inception_4a/1x1
I0403 15:46:19.489711 16039 net.cpp:425] inception_4a/1x1 <- pool3/3x3_s2_pool3/3x3_s2_0_split_0
I0403 15:46:19.489732 16039 net.cpp:399] inception_4a/1x1 -> inception_4a/1x1
I0403 15:46:19.491288 16039 net.cpp:141] Setting up inception_4a/1x1
I0403 15:46:19.491317 16039 net.cpp:148] Top shape: 24 192 14 14 (903168)
I0403 15:46:19.491331 16039 net.cpp:156] Memory required for data: 858010656
I0403 15:46:19.491349 16039 layer_factory.hpp:77] Creating layer inception_4a/relu_1x1
I0403 15:46:19.491366 16039 net.cpp:91] Creating Layer inception_4a/relu_1x1
I0403 15:46:19.491382 16039 net.cpp:425] inception_4a/relu_1x1 <- inception_4a/1x1
I0403 15:46:19.491401 16039 net.cpp:386] inception_4a/relu_1x1 -> inception_4a/1x1 (in-place)
I0403 15:46:19.491576 16039 net.cpp:141] Setting up inception_4a/relu_1x1
I0403 15:46:19.491605 16039 net.cpp:148] Top shape: 24 192 14 14 (903168)
I0403 15:46:19.491621 16039 net.cpp:156] Memory required for data: 861623328
I0403 15:46:19.491636 16039 layer_factory.hpp:77] Creating layer inception_4a/3x3_reduce
I0403 15:46:19.491657 16039 net.cpp:91] Creating Layer inception_4a/3x3_reduce
I0403 15:46:19.491674 16039 net.cpp:425] inception_4a/3x3_reduce <- pool3/3x3_s2_pool3/3x3_s2_0_split_1
I0403 15:46:19.491695 16039 net.cpp:399] inception_4a/3x3_reduce -> inception_4a/3x3_reduce
I0403 15:46:19.492970 16039 net.cpp:141] Setting up inception_4a/3x3_reduce
I0403 15:46:19.492997 16039 net.cpp:148] Top shape: 24 96 14 14 (451584)
I0403 15:46:19.493012 16039 net.cpp:156] Memory required for data: 863429664
I0403 15:46:19.493038 16039 layer_factory.hpp:77] Creating layer inception_4a/relu_3x3_reduce
I0403 15:46:19.493059 16039 net.cpp:91] Creating Layer inception_4a/relu_3x3_reduce
I0403 15:46:19.493075 16039 net.cpp:425] inception_4a/relu_3x3_reduce <- inception_4a/3x3_reduce
I0403 15:46:19.493094 16039 net.cpp:386] inception_4a/relu_3x3_reduce -> inception_4a/3x3_reduce (in-place)
I0403 15:46:19.493269 16039 net.cpp:141] Setting up inception_4a/relu_3x3_reduce
I0403 15:46:19.493294 16039 net.cpp:148] Top shape: 24 96 14 14 (451584)
I0403 15:46:19.493309 16039 net.cpp:156] Memory required for data: 865236000
I0403 15:46:19.493324 16039 layer_factory.hpp:77] Creating layer inception_4a/3x3
I0403 15:46:19.493345 16039 net.cpp:91] Creating Layer inception_4a/3x3
I0403 15:46:19.493362 16039 net.cpp:425] inception_4a/3x3 <- inception_4a/3x3_reduce
I0403 15:46:19.493383 16039 net.cpp:399] inception_4a/3x3 -> inception_4a/3x3
I0403 15:46:19.496062 16039 net.cpp:141] Setting up inception_4a/3x3
I0403 15:46:19.496089 16039 net.cpp:148] Top shape: 24 208 14 14 (978432)
I0403 15:46:19.496105 16039 net.cpp:156] Memory required for data: 869149728
I0403 15:46:19.496124 16039 layer_factory.hpp:77] Creating layer inception_4a/relu_3x3
I0403 15:46:19.496143 16039 net.cpp:91] Creating Layer inception_4a/relu_3x3
I0403 15:46:19.496160 16039 net.cpp:425] inception_4a/relu_3x3 <- inception_4a/3x3
I0403 15:46:19.496177 16039 net.cpp:386] inception_4a/relu_3x3 -> inception_4a/3x3 (in-place)
I0403 15:46:19.496454 16039 net.cpp:141] Setting up inception_4a/relu_3x3
I0403 15:46:19.496481 16039 net.cpp:148] Top shape: 24 208 14 14 (978432)
I0403 15:46:19.496495 16039 net.cpp:156] Memory required for data: 873063456
I0403 15:46:19.496510 16039 layer_factory.hpp:77] Creating layer inception_4a/5x5_reduce
I0403 15:46:19.496532 16039 net.cpp:91] Creating Layer inception_4a/5x5_reduce
I0403 15:46:19.496551 16039 net.cpp:425] inception_4a/5x5_reduce <- pool3/3x3_s2_pool3/3x3_s2_0_split_2
I0403 15:46:19.496574 16039 net.cpp:399] inception_4a/5x5_reduce -> inception_4a/5x5_reduce
I0403 15:46:19.497589 16039 net.cpp:141] Setting up inception_4a/5x5_reduce
I0403 15:46:19.497622 16039 net.cpp:148] Top shape: 24 16 14 14 (75264)
I0403 15:46:19.497638 16039 net.cpp:156] Memory required for data: 873364512
I0403 15:46:19.497656 16039 layer_factory.hpp:77] Creating layer inception_4a/relu_5x5_reduce
I0403 15:46:19.497678 16039 net.cpp:91] Creating Layer inception_4a/relu_5x5_reduce
I0403 15:46:19.497695 16039 net.cpp:425] inception_4a/relu_5x5_reduce <- inception_4a/5x5_reduce
I0403 15:46:19.497712 16039 net.cpp:386] inception_4a/relu_5x5_reduce -> inception_4a/5x5_reduce (in-place)
I0403 15:46:19.497889 16039 net.cpp:141] Setting up inception_4a/relu_5x5_reduce
I0403 15:46:19.497912 16039 net.cpp:148] Top shape: 24 16 14 14 (75264)
I0403 15:46:19.497927 16039 net.cpp:156] Memory required for data: 873665568
I0403 15:46:19.497942 16039 layer_factory.hpp:77] Creating layer inception_4a/5x5
I0403 15:46:19.497963 16039 net.cpp:91] Creating Layer inception_4a/5x5
I0403 15:46:19.497982 16039 net.cpp:425] inception_4a/5x5 <- inception_4a/5x5_reduce
I0403 15:46:19.498002 16039 net.cpp:399] inception_4a/5x5 -> inception_4a/5x5
I0403 15:46:19.499078 16039 net.cpp:141] Setting up inception_4a/5x5
I0403 15:46:19.499107 16039 net.cpp:148] Top shape: 24 48 14 14 (225792)
I0403 15:46:19.499124 16039 net.cpp:156] Memory required for data: 874568736
I0403 15:46:19.499141 16039 layer_factory.hpp:77] Creating layer inception_4a/relu_5x5
I0403 15:46:19.499161 16039 net.cpp:91] Creating Layer inception_4a/relu_5x5
I0403 15:46:19.499176 16039 net.cpp:425] inception_4a/relu_5x5 <- inception_4a/5x5
I0403 15:46:19.499194 16039 net.cpp:386] inception_4a/relu_5x5 -> inception_4a/5x5 (in-place)
I0403 15:46:19.499382 16039 net.cpp:141] Setting up inception_4a/relu_5x5
I0403 15:46:19.499408 16039 net.cpp:148] Top shape: 24 48 14 14 (225792)
I0403 15:46:19.499423 16039 net.cpp:156] Memory required for data: 875471904
I0403 15:46:19.499438 16039 layer_factory.hpp:77] Creating layer inception_4a/pool
I0403 15:46:19.499457 16039 net.cpp:91] Creating Layer inception_4a/pool
I0403 15:46:19.499475 16039 net.cpp:425] inception_4a/pool <- pool3/3x3_s2_pool3/3x3_s2_0_split_3
I0403 15:46:19.499492 16039 net.cpp:399] inception_4a/pool -> inception_4a/pool
I0403 15:46:19.499557 16039 net.cpp:141] Setting up inception_4a/pool
I0403 15:46:19.499582 16039 net.cpp:148] Top shape: 24 480 14 14 (2257920)
I0403 15:46:19.499596 16039 net.cpp:156] Memory required for data: 884503584
I0403 15:46:19.499629 16039 layer_factory.hpp:77] Creating layer inception_4a/pool_proj
I0403 15:46:19.499650 16039 net.cpp:91] Creating Layer inception_4a/pool_proj
I0403 15:46:19.499668 16039 net.cpp:425] inception_4a/pool_proj <- inception_4a/pool
I0403 15:46:19.499688 16039 net.cpp:399] inception_4a/pool_proj -> inception_4a/pool_proj
I0403 15:46:19.500843 16039 net.cpp:141] Setting up inception_4a/pool_proj
I0403 15:46:19.500869 16039 net.cpp:148] Top shape: 24 64 14 14 (301056)
I0403 15:46:19.500901 16039 net.cpp:156] Memory required for data: 885707808
I0403 15:46:19.500921 16039 layer_factory.hpp:77] Creating layer inception_4a/relu_pool_proj
I0403 15:46:19.500939 16039 net.cpp:91] Creating Layer inception_4a/relu_pool_proj
I0403 15:46:19.500957 16039 net.cpp:425] inception_4a/relu_pool_proj <- inception_4a/pool_proj
I0403 15:46:19.500974 16039 net.cpp:386] inception_4a/relu_pool_proj -> inception_4a/pool_proj (in-place)
I0403 15:46:19.501252 16039 net.cpp:141] Setting up inception_4a/relu_pool_proj
I0403 15:46:19.501279 16039 net.cpp:148] Top shape: 24 64 14 14 (301056)
I0403 15:46:19.501294 16039 net.cpp:156] Memory required for data: 886912032
I0403 15:46:19.501308 16039 layer_factory.hpp:77] Creating layer inception_4a/output
I0403 15:46:19.501324 16039 net.cpp:91] Creating Layer inception_4a/output
I0403 15:46:19.501339 16039 net.cpp:425] inception_4a/output <- inception_4a/1x1
I0403 15:46:19.501355 16039 net.cpp:425] inception_4a/output <- inception_4a/3x3
I0403 15:46:19.501373 16039 net.cpp:425] inception_4a/output <- inception_4a/5x5
I0403 15:46:19.501389 16039 net.cpp:425] inception_4a/output <- inception_4a/pool_proj
I0403 15:46:19.501407 16039 net.cpp:399] inception_4a/output -> inception_4a/output
I0403 15:46:19.501451 16039 net.cpp:141] Setting up inception_4a/output
I0403 15:46:19.501476 16039 net.cpp:148] Top shape: 24 512 14 14 (2408448)
I0403 15:46:19.501492 16039 net.cpp:156] Memory required for data: 896545824
I0403 15:46:19.501505 16039 layer_factory.hpp:77] Creating layer inception_4a/output_inception_4a/output_0_split
I0403 15:46:19.501521 16039 net.cpp:91] Creating Layer inception_4a/output_inception_4a/output_0_split
I0403 15:46:19.501536 16039 net.cpp:425] inception_4a/output_inception_4a/output_0_split <- inception_4a/output
I0403 15:46:19.501556 16039 net.cpp:399] inception_4a/output_inception_4a/output_0_split -> inception_4a/output_inception_4a/output_0_split_0
I0403 15:46:19.501577 16039 net.cpp:399] inception_4a/output_inception_4a/output_0_split -> inception_4a/output_inception_4a/output_0_split_1
I0403 15:46:19.501603 16039 net.cpp:399] inception_4a/output_inception_4a/output_0_split -> inception_4a/output_inception_4a/output_0_split_2
I0403 15:46:19.501624 16039 net.cpp:399] inception_4a/output_inception_4a/output_0_split -> inception_4a/output_inception_4a/output_0_split_3
I0403 15:46:19.501644 16039 net.cpp:399] inception_4a/output_inception_4a/output_0_split -> inception_4a/output_inception_4a/output_0_split_4
I0403 15:46:19.501732 16039 net.cpp:141] Setting up inception_4a/output_inception_4a/output_0_split
I0403 15:46:19.501754 16039 net.cpp:148] Top shape: 24 512 14 14 (2408448)
I0403 15:46:19.501770 16039 net.cpp:148] Top shape: 24 512 14 14 (2408448)
I0403 15:46:19.501785 16039 net.cpp:148] Top shape: 24 512 14 14 (2408448)
I0403 15:46:19.501798 16039 net.cpp:148] Top shape: 24 512 14 14 (2408448)
I0403 15:46:19.501813 16039 net.cpp:148] Top shape: 24 512 14 14 (2408448)
I0403 15:46:19.501827 16039 net.cpp:156] Memory required for data: 944714784
I0403 15:46:19.501839 16039 layer_factory.hpp:77] Creating layer loss1/ave_pool
I0403 15:46:19.501857 16039 net.cpp:91] Creating Layer loss1/ave_pool
I0403 15:46:19.501874 16039 net.cpp:425] loss1/ave_pool <- inception_4a/output_inception_4a/output_0_split_0
I0403 15:46:19.501893 16039 net.cpp:399] loss1/ave_pool -> loss1/ave_pool
I0403 15:46:19.502091 16039 net.cpp:141] Setting up loss1/ave_pool
I0403 15:46:19.502116 16039 net.cpp:148] Top shape: 24 512 4 4 (196608)
I0403 15:46:19.502130 16039 net.cpp:156] Memory required for data: 945501216
I0403 15:46:19.502145 16039 layer_factory.hpp:77] Creating layer loss1/conv
I0403 15:46:19.502166 16039 net.cpp:91] Creating Layer loss1/conv
I0403 15:46:19.502182 16039 net.cpp:425] loss1/conv <- loss1/ave_pool
I0403 15:46:19.502203 16039 net.cpp:399] loss1/conv -> loss1/conv
I0403 15:46:19.503563 16039 net.cpp:141] Setting up loss1/conv
I0403 15:46:19.503590 16039 net.cpp:148] Top shape: 24 128 4 4 (49152)
I0403 15:46:19.503624 16039 net.cpp:156] Memory required for data: 945697824
I0403 15:46:19.503644 16039 layer_factory.hpp:77] Creating layer loss1/relu_conv
I0403 15:46:19.503664 16039 net.cpp:91] Creating Layer loss1/relu_conv
I0403 15:46:19.503680 16039 net.cpp:425] loss1/relu_conv <- loss1/conv
I0403 15:46:19.503696 16039 net.cpp:386] loss1/relu_conv -> loss1/conv (in-place)
I0403 15:46:19.503968 16039 net.cpp:141] Setting up loss1/relu_conv
I0403 15:46:19.503993 16039 net.cpp:148] Top shape: 24 128 4 4 (49152)
I0403 15:46:19.504009 16039 net.cpp:156] Memory required for data: 945894432
I0403 15:46:19.504022 16039 layer_factory.hpp:77] Creating layer loss1/fc
I0403 15:46:19.504046 16039 net.cpp:91] Creating Layer loss1/fc
I0403 15:46:19.504063 16039 net.cpp:425] loss1/fc <- loss1/conv
I0403 15:46:19.504084 16039 net.cpp:399] loss1/fc -> loss1/fc
I0403 15:46:19.521386 16039 net.cpp:141] Setting up loss1/fc
I0403 15:46:19.521416 16039 net.cpp:148] Top shape: 24 1024 (24576)
I0403 15:46:19.521431 16039 net.cpp:156] Memory required for data: 945992736
I0403 15:46:19.521448 16039 layer_factory.hpp:77] Creating layer loss1/relu_fc
I0403 15:46:19.521466 16039 net.cpp:91] Creating Layer loss1/relu_fc
I0403 15:46:19.521482 16039 net.cpp:425] loss1/relu_fc <- loss1/fc
I0403 15:46:19.521502 16039 net.cpp:386] loss1/relu_fc -> loss1/fc (in-place)
I0403 15:46:19.521685 16039 net.cpp:141] Setting up loss1/relu_fc
I0403 15:46:19.521709 16039 net.cpp:148] Top shape: 24 1024 (24576)
I0403 15:46:19.521728 16039 net.cpp:156] Memory required for data: 946091040
I0403 15:46:19.521744 16039 layer_factory.hpp:77] Creating layer loss1/drop_fc
I0403 15:46:19.521769 16039 net.cpp:91] Creating Layer loss1/drop_fc
I0403 15:46:19.521785 16039 net.cpp:425] loss1/drop_fc <- loss1/fc
I0403 15:46:19.521801 16039 net.cpp:386] loss1/drop_fc -> loss1/fc (in-place)
I0403 15:46:19.521852 16039 net.cpp:141] Setting up loss1/drop_fc
I0403 15:46:19.521877 16039 net.cpp:148] Top shape: 24 1024 (24576)
I0403 15:46:19.521890 16039 net.cpp:156] Memory required for data: 946189344
I0403 15:46:19.521904 16039 layer_factory.hpp:77] Creating layer loss1/classifier_plantvillage
I0403 15:46:19.521921 16039 net.cpp:91] Creating Layer loss1/classifier_plantvillage
I0403 15:46:19.521936 16039 net.cpp:425] loss1/classifier_plantvillage <- loss1/fc
I0403 15:46:19.521957 16039 net.cpp:399] loss1/classifier_plantvillage -> loss1/classifier_plantvillage
I0403 15:46:19.522851 16039 net.cpp:141] Setting up loss1/classifier_plantvillage
I0403 15:46:19.522878 16039 net.cpp:148] Top shape: 24 38 (912)
I0403 15:46:19.522893 16039 net.cpp:156] Memory required for data: 946192992
I0403 15:46:19.522910 16039 layer_factory.hpp:77] Creating layer loss1/classifier_plantvillage_loss1/classifier_plantvillage_0_split
I0403 15:46:19.522929 16039 net.cpp:91] Creating Layer loss1/classifier_plantvillage_loss1/classifier_plantvillage_0_split
I0403 15:46:19.522946 16039 net.cpp:425] loss1/classifier_plantvillage_loss1/classifier_plantvillage_0_split <- loss1/classifier_plantvillage
I0403 15:46:19.522964 16039 net.cpp:399] loss1/classifier_plantvillage_loss1/classifier_plantvillage_0_split -> loss1/classifier_plantvillage_loss1/classifier_plantvillage_0_split_0
I0403 15:46:19.522982 16039 net.cpp:399] loss1/classifier_plantvillage_loss1/classifier_plantvillage_0_split -> loss1/classifier_plantvillage_loss1/classifier_plantvillage_0_split_1
I0403 15:46:19.523001 16039 net.cpp:399] loss1/classifier_plantvillage_loss1/classifier_plantvillage_0_split -> loss1/classifier_plantvillage_loss1/classifier_plantvillage_0_split_2
I0403 15:46:19.523068 16039 net.cpp:141] Setting up loss1/classifier_plantvillage_loss1/classifier_plantvillage_0_split
I0403 15:46:19.523092 16039 net.cpp:148] Top shape: 24 38 (912)
I0403 15:46:19.523108 16039 net.cpp:148] Top shape: 24 38 (912)
I0403 15:46:19.523121 16039 net.cpp:148] Top shape: 24 38 (912)
I0403 15:46:19.523134 16039 net.cpp:156] Memory required for data: 946203936
I0403 15:46:19.523147 16039 layer_factory.hpp:77] Creating layer inception_4b/1x1
I0403 15:46:19.523169 16039 net.cpp:91] Creating Layer inception_4b/1x1
I0403 15:46:19.523200 16039 net.cpp:425] inception_4b/1x1 <- inception_4a/output_inception_4a/output_0_split_1
I0403 15:46:19.523219 16039 net.cpp:399] inception_4b/1x1 -> inception_4b/1x1
I0403 15:46:19.524826 16039 net.cpp:141] Setting up inception_4b/1x1
I0403 15:46:19.524853 16039 net.cpp:148] Top shape: 24 160 14 14 (752640)
I0403 15:46:19.524868 16039 net.cpp:156] Memory required for data: 949214496
I0403 15:46:19.524885 16039 layer_factory.hpp:77] Creating layer inception_4b/relu_1x1
I0403 15:46:19.524904 16039 net.cpp:91] Creating Layer inception_4b/relu_1x1
I0403 15:46:19.524920 16039 net.cpp:425] inception_4b/relu_1x1 <- inception_4b/1x1
I0403 15:46:19.524936 16039 net.cpp:386] inception_4b/relu_1x1 -> inception_4b/1x1 (in-place)
I0403 15:46:19.525112 16039 net.cpp:141] Setting up inception_4b/relu_1x1
I0403 15:46:19.525136 16039 net.cpp:148] Top shape: 24 160 14 14 (752640)
I0403 15:46:19.525149 16039 net.cpp:156] Memory required for data: 952225056
I0403 15:46:19.525163 16039 layer_factory.hpp:77] Creating layer inception_4b/3x3_reduce
I0403 15:46:19.525184 16039 net.cpp:91] Creating Layer inception_4b/3x3_reduce
I0403 15:46:19.525202 16039 net.cpp:425] inception_4b/3x3_reduce <- inception_4a/output_inception_4a/output_0_split_2
I0403 15:46:19.525221 16039 net.cpp:399] inception_4b/3x3_reduce -> inception_4b/3x3_reduce
I0403 15:46:19.526540 16039 net.cpp:141] Setting up inception_4b/3x3_reduce
I0403 15:46:19.526571 16039 net.cpp:148] Top shape: 24 112 14 14 (526848)
I0403 15:46:19.526587 16039 net.cpp:156] Memory required for data: 954332448
I0403 15:46:19.526608 16039 layer_factory.hpp:77] Creating layer inception_4b/relu_3x3_reduce
I0403 15:46:19.526626 16039 net.cpp:91] Creating Layer inception_4b/relu_3x3_reduce
I0403 15:46:19.526641 16039 net.cpp:425] inception_4b/relu_3x3_reduce <- inception_4b/3x3_reduce
I0403 15:46:19.526659 16039 net.cpp:386] inception_4b/relu_3x3_reduce -> inception_4b/3x3_reduce (in-place)
I0403 15:46:19.526937 16039 net.cpp:141] Setting up inception_4b/relu_3x3_reduce
I0403 15:46:19.526964 16039 net.cpp:148] Top shape: 24 112 14 14 (526848)
I0403 15:46:19.526979 16039 net.cpp:156] Memory required for data: 956439840
I0403 15:46:19.526994 16039 layer_factory.hpp:77] Creating layer inception_4b/3x3
I0403 15:46:19.527015 16039 net.cpp:91] Creating Layer inception_4b/3x3
I0403 15:46:19.527034 16039 net.cpp:425] inception_4b/3x3 <- inception_4b/3x3_reduce
I0403 15:46:19.527055 16039 net.cpp:399] inception_4b/3x3 -> inception_4b/3x3
I0403 15:46:19.530066 16039 net.cpp:141] Setting up inception_4b/3x3
I0403 15:46:19.530095 16039 net.cpp:148] Top shape: 24 224 14 14 (1053696)
I0403 15:46:19.530112 16039 net.cpp:156] Memory required for data: 960654624
I0403 15:46:19.530129 16039 layer_factory.hpp:77] Creating layer inception_4b/relu_3x3
I0403 15:46:19.530150 16039 net.cpp:91] Creating Layer inception_4b/relu_3x3
I0403 15:46:19.530169 16039 net.cpp:425] inception_4b/relu_3x3 <- inception_4b/3x3
I0403 15:46:19.530186 16039 net.cpp:386] inception_4b/relu_3x3 -> inception_4b/3x3 (in-place)
I0403 15:46:19.530369 16039 net.cpp:141] Setting up inception_4b/relu_3x3
I0403 15:46:19.530397 16039 net.cpp:148] Top shape: 24 224 14 14 (1053696)
I0403 15:46:19.530431 16039 net.cpp:156] Memory required for data: 964869408
I0403 15:46:19.530447 16039 layer_factory.hpp:77] Creating layer inception_4b/5x5_reduce
I0403 15:46:19.530467 16039 net.cpp:91] Creating Layer inception_4b/5x5_reduce
I0403 15:46:19.530483 16039 net.cpp:425] inception_4b/5x5_reduce <- inception_4a/output_inception_4a/output_0_split_3
I0403 15:46:19.530506 16039 net.cpp:399] inception_4b/5x5_reduce -> inception_4b/5x5_reduce
I0403 15:46:19.531617 16039 net.cpp:141] Setting up inception_4b/5x5_reduce
I0403 15:46:19.531651 16039 net.cpp:148] Top shape: 24 24 14 14 (112896)
I0403 15:46:19.531668 16039 net.cpp:156] Memory required for data: 965320992
I0403 15:46:19.531687 16039 layer_factory.hpp:77] Creating layer inception_4b/relu_5x5_reduce
I0403 15:46:19.531704 16039 net.cpp:91] Creating Layer inception_4b/relu_5x5_reduce
I0403 15:46:19.531738 16039 net.cpp:425] inception_4b/relu_5x5_reduce <- inception_4b/5x5_reduce
I0403 15:46:19.531756 16039 net.cpp:386] inception_4b/relu_5x5_reduce -> inception_4b/5x5_reduce (in-place)
I0403 15:46:19.531944 16039 net.cpp:141] Setting up inception_4b/relu_5x5_reduce
I0403 15:46:19.531968 16039 net.cpp:148] Top shape: 24 24 14 14 (112896)
I0403 15:46:19.531983 16039 net.cpp:156] Memory required for data: 965772576
I0403 15:46:19.531997 16039 layer_factory.hpp:77] Creating layer inception_4b/5x5
I0403 15:46:19.532019 16039 net.cpp:91] Creating Layer inception_4b/5x5
I0403 15:46:19.532037 16039 net.cpp:425] inception_4b/5x5 <- inception_4b/5x5_reduce
I0403 15:46:19.532058 16039 net.cpp:399] inception_4b/5x5 -> inception_4b/5x5
I0403 15:46:19.533313 16039 net.cpp:141] Setting up inception_4b/5x5
I0403 15:46:19.533341 16039 net.cpp:148] Top shape: 24 64 14 14 (301056)
I0403 15:46:19.533356 16039 net.cpp:156] Memory required for data: 966976800
I0403 15:46:19.533375 16039 layer_factory.hpp:77] Creating layer inception_4b/relu_5x5
I0403 15:46:19.533396 16039 net.cpp:91] Creating Layer inception_4b/relu_5x5
I0403 15:46:19.533413 16039 net.cpp:425] inception_4b/relu_5x5 <- inception_4b/5x5
I0403 15:46:19.533432 16039 net.cpp:386] inception_4b/relu_5x5 -> inception_4b/5x5 (in-place)
I0403 15:46:19.533720 16039 net.cpp:141] Setting up inception_4b/relu_5x5
I0403 15:46:19.533747 16039 net.cpp:148] Top shape: 24 64 14 14 (301056)
I0403 15:46:19.533761 16039 net.cpp:156] Memory required for data: 968181024
I0403 15:46:19.533776 16039 layer_factory.hpp:77] Creating layer inception_4b/pool
I0403 15:46:19.533797 16039 net.cpp:91] Creating Layer inception_4b/pool
I0403 15:46:19.533814 16039 net.cpp:425] inception_4b/pool <- inception_4a/output_inception_4a/output_0_split_4
I0403 15:46:19.533833 16039 net.cpp:399] inception_4b/pool -> inception_4b/pool
I0403 15:46:19.533897 16039 net.cpp:141] Setting up inception_4b/pool
I0403 15:46:19.533921 16039 net.cpp:148] Top shape: 24 512 14 14 (2408448)
I0403 15:46:19.533936 16039 net.cpp:156] Memory required for data: 977814816
I0403 15:46:19.533949 16039 layer_factory.hpp:77] Creating layer inception_4b/pool_proj
I0403 15:46:19.533972 16039 net.cpp:91] Creating Layer inception_4b/pool_proj
I0403 15:46:19.533989 16039 net.cpp:425] inception_4b/pool_proj <- inception_4b/pool
I0403 15:46:19.534009 16039 net.cpp:399] inception_4b/pool_proj -> inception_4b/pool_proj
I0403 15:46:19.535260 16039 net.cpp:141] Setting up inception_4b/pool_proj
I0403 15:46:19.535295 16039 net.cpp:148] Top shape: 24 64 14 14 (301056)
I0403 15:46:19.535312 16039 net.cpp:156] Memory required for data: 979019040
I0403 15:46:19.535332 16039 layer_factory.hpp:77] Creating layer inception_4b/relu_pool_proj
I0403 15:46:19.535351 16039 net.cpp:91] Creating Layer inception_4b/relu_pool_proj
I0403 15:46:19.535367 16039 net.cpp:425] inception_4b/relu_pool_proj <- inception_4b/pool_proj
I0403 15:46:19.535387 16039 net.cpp:386] inception_4b/relu_pool_proj -> inception_4b/pool_proj (in-place)
I0403 15:46:19.535574 16039 net.cpp:141] Setting up inception_4b/relu_pool_proj
I0403 15:46:19.535606 16039 net.cpp:148] Top shape: 24 64 14 14 (301056)
I0403 15:46:19.535625 16039 net.cpp:156] Memory required for data: 980223264
I0403 15:46:19.535640 16039 layer_factory.hpp:77] Creating layer inception_4b/output
I0403 15:46:19.535657 16039 net.cpp:91] Creating Layer inception_4b/output
I0403 15:46:19.535675 16039 net.cpp:425] inception_4b/output <- inception_4b/1x1
I0403 15:46:19.535691 16039 net.cpp:425] inception_4b/output <- inception_4b/3x3
I0403 15:46:19.535708 16039 net.cpp:425] inception_4b/output <- inception_4b/5x5
I0403 15:46:19.535724 16039 net.cpp:425] inception_4b/output <- inception_4b/pool_proj
I0403 15:46:19.535744 16039 net.cpp:399] inception_4b/output -> inception_4b/output
I0403 15:46:19.535791 16039 net.cpp:141] Setting up inception_4b/output
I0403 15:46:19.535820 16039 net.cpp:148] Top shape: 24 512 14 14 (2408448)
I0403 15:46:19.535835 16039 net.cpp:156] Memory required for data: 989857056
I0403 15:46:19.535867 16039 layer_factory.hpp:77] Creating layer inception_4b/output_inception_4b/output_0_split
I0403 15:46:19.535887 16039 net.cpp:91] Creating Layer inception_4b/output_inception_4b/output_0_split
I0403 15:46:19.535904 16039 net.cpp:425] inception_4b/output_inception_4b/output_0_split <- inception_4b/output
I0403 15:46:19.535923 16039 net.cpp:399] inception_4b/output_inception_4b/output_0_split -> inception_4b/output_inception_4b/output_0_split_0
I0403 15:46:19.535944 16039 net.cpp:399] inception_4b/output_inception_4b/output_0_split -> inception_4b/output_inception_4b/output_0_split_1
I0403 15:46:19.535969 16039 net.cpp:399] inception_4b/output_inception_4b/output_0_split -> inception_4b/output_inception_4b/output_0_split_2
I0403 15:46:19.535990 16039 net.cpp:399] inception_4b/output_inception_4b/output_0_split -> inception_4b/output_inception_4b/output_0_split_3
I0403 15:46:19.536078 16039 net.cpp:141] Setting up inception_4b/output_inception_4b/output_0_split
I0403 15:46:19.536104 16039 net.cpp:148] Top shape: 24 512 14 14 (2408448)
I0403 15:46:19.536120 16039 net.cpp:148] Top shape: 24 512 14 14 (2408448)
I0403 15:46:19.536136 16039 net.cpp:148] Top shape: 24 512 14 14 (2408448)
I0403 15:46:19.536151 16039 net.cpp:148] Top shape: 24 512 14 14 (2408448)
I0403 15:46:19.536165 16039 net.cpp:156] Memory required for data: 1028392224
I0403 15:46:19.536181 16039 layer_factory.hpp:77] Creating layer inception_4c/1x1
I0403 15:46:19.536203 16039 net.cpp:91] Creating Layer inception_4c/1x1
I0403 15:46:19.536222 16039 net.cpp:425] inception_4c/1x1 <- inception_4b/output_inception_4b/output_0_split_0
I0403 15:46:19.536243 16039 net.cpp:399] inception_4c/1x1 -> inception_4c/1x1
I0403 15:46:19.537734 16039 net.cpp:141] Setting up inception_4c/1x1
I0403 15:46:19.537763 16039 net.cpp:148] Top shape: 24 128 14 14 (602112)
I0403 15:46:19.537780 16039 net.cpp:156] Memory required for data: 1030800672
I0403 15:46:19.537798 16039 layer_factory.hpp:77] Creating layer inception_4c/relu_1x1
I0403 15:46:19.537816 16039 net.cpp:91] Creating Layer inception_4c/relu_1x1
I0403 15:46:19.537832 16039 net.cpp:425] inception_4c/relu_1x1 <- inception_4c/1x1
I0403 15:46:19.537850 16039 net.cpp:386] inception_4c/relu_1x1 -> inception_4c/1x1 (in-place)
I0403 15:46:19.538038 16039 net.cpp:141] Setting up inception_4c/relu_1x1
I0403 15:46:19.538064 16039 net.cpp:148] Top shape: 24 128 14 14 (602112)
I0403 15:46:19.538079 16039 net.cpp:156] Memory required for data: 1033209120
I0403 15:46:19.538094 16039 layer_factory.hpp:77] Creating layer inception_4c/3x3_reduce
I0403 15:46:19.538115 16039 net.cpp:91] Creating Layer inception_4c/3x3_reduce
I0403 15:46:19.538133 16039 net.cpp:425] inception_4c/3x3_reduce <- inception_4b/output_inception_4b/output_0_split_1
I0403 15:46:19.538157 16039 net.cpp:399] inception_4c/3x3_reduce -> inception_4c/3x3_reduce
I0403 15:46:19.540172 16039 net.cpp:141] Setting up inception_4c/3x3_reduce
I0403 15:46:19.540202 16039 net.cpp:148] Top shape: 24 128 14 14 (602112)
I0403 15:46:19.540220 16039 net.cpp:156] Memory required for data: 1035617568
I0403 15:46:19.540238 16039 layer_factory.hpp:77] Creating layer inception_4c/relu_3x3_reduce
I0403 15:46:19.540261 16039 net.cpp:91] Creating Layer inception_4c/relu_3x3_reduce
I0403 15:46:19.540278 16039 net.cpp:425] inception_4c/relu_3x3_reduce <- inception_4c/3x3_reduce
I0403 15:46:19.540297 16039 net.cpp:386] inception_4c/relu_3x3_reduce -> inception_4c/3x3_reduce (in-place)
I0403 15:46:19.540592 16039 net.cpp:141] Setting up inception_4c/relu_3x3_reduce
I0403 15:46:19.540626 16039 net.cpp:148] Top shape: 24 128 14 14 (602112)
I0403 15:46:19.540642 16039 net.cpp:156] Memory required for data: 1038026016
I0403 15:46:19.540657 16039 layer_factory.hpp:77] Creating layer inception_4c/3x3
I0403 15:46:19.540680 16039 net.cpp:91] Creating Layer inception_4c/3x3
I0403 15:46:19.540699 16039 net.cpp:425] inception_4c/3x3 <- inception_4c/3x3_reduce
I0403 15:46:19.540720 16039 net.cpp:399] inception_4c/3x3 -> inception_4c/3x3
I0403 15:46:19.544463 16039 net.cpp:141] Setting up inception_4c/3x3
I0403 15:46:19.544507 16039 net.cpp:148] Top shape: 24 256 14 14 (1204224)
I0403 15:46:19.544523 16039 net.cpp:156] Memory required for data: 1042842912
I0403 15:46:19.544556 16039 layer_factory.hpp:77] Creating layer inception_4c/relu_3x3
I0403 15:46:19.544579 16039 net.cpp:91] Creating Layer inception_4c/relu_3x3
I0403 15:46:19.544596 16039 net.cpp:425] inception_4c/relu_3x3 <- inception_4c/3x3
I0403 15:46:19.544628 16039 net.cpp:386] inception_4c/relu_3x3 -> inception_4c/3x3 (in-place)
I0403 15:46:19.544818 16039 net.cpp:141] Setting up inception_4c/relu_3x3
I0403 15:46:19.544847 16039 net.cpp:148] Top shape: 24 256 14 14 (1204224)
I0403 15:46:19.544863 16039 net.cpp:156] Memory required for data: 1047659808
I0403 15:46:19.544878 16039 layer_factory.hpp:77] Creating layer inception_4c/5x5_reduce
I0403 15:46:19.544901 16039 net.cpp:91] Creating Layer inception_4c/5x5_reduce
I0403 15:46:19.544920 16039 net.cpp:425] inception_4c/5x5_reduce <- inception_4b/output_inception_4b/output_0_split_2
I0403 15:46:19.544939 16039 net.cpp:399] inception_4c/5x5_reduce -> inception_4c/5x5_reduce
I0403 15:46:19.546084 16039 net.cpp:141] Setting up inception_4c/5x5_reduce
I0403 15:46:19.546116 16039 net.cpp:148] Top shape: 24 24 14 14 (112896)
I0403 15:46:19.546133 16039 net.cpp:156] Memory required for data: 1048111392
I0403 15:46:19.546152 16039 layer_factory.hpp:77] Creating layer inception_4c/relu_5x5_reduce
I0403 15:46:19.546171 16039 net.cpp:91] Creating Layer inception_4c/relu_5x5_reduce
I0403 15:46:19.546188 16039 net.cpp:425] inception_4c/relu_5x5_reduce <- inception_4c/5x5_reduce
I0403 15:46:19.546206 16039 net.cpp:386] inception_4c/relu_5x5_reduce -> inception_4c/5x5_reduce (in-place)
I0403 15:46:19.546416 16039 net.cpp:141] Setting up inception_4c/relu_5x5_reduce
I0403 15:46:19.546442 16039 net.cpp:148] Top shape: 24 24 14 14 (112896)
I0403 15:46:19.546457 16039 net.cpp:156] Memory required for data: 1048562976
I0403 15:46:19.546470 16039 layer_factory.hpp:77] Creating layer inception_4c/5x5
I0403 15:46:19.546492 16039 net.cpp:91] Creating Layer inception_4c/5x5
I0403 15:46:19.546510 16039 net.cpp:425] inception_4c/5x5 <- inception_4c/5x5_reduce
I0403 15:46:19.546531 16039 net.cpp:399] inception_4c/5x5 -> inception_4c/5x5
I0403 15:46:19.547796 16039 net.cpp:141] Setting up inception_4c/5x5
I0403 15:46:19.547823 16039 net.cpp:148] Top shape: 24 64 14 14 (301056)
I0403 15:46:19.547838 16039 net.cpp:156] Memory required for data: 1049767200
I0403 15:46:19.547855 16039 layer_factory.hpp:77] Creating layer inception_4c/relu_5x5
I0403 15:46:19.547873 16039 net.cpp:91] Creating Layer inception_4c/relu_5x5
I0403 15:46:19.547888 16039 net.cpp:425] inception_4c/relu_5x5 <- inception_4c/5x5
I0403 15:46:19.547907 16039 net.cpp:386] inception_4c/relu_5x5 -> inception_4c/5x5 (in-place)
I0403 15:46:19.548199 16039 net.cpp:141] Setting up inception_4c/relu_5x5
I0403 15:46:19.548225 16039 net.cpp:148] Top shape: 24 64 14 14 (301056)
I0403 15:46:19.548240 16039 net.cpp:156] Memory required for data: 1050971424
I0403 15:46:19.548254 16039 layer_factory.hpp:77] Creating layer inception_4c/pool
I0403 15:46:19.548271 16039 net.cpp:91] Creating Layer inception_4c/pool
I0403 15:46:19.548286 16039 net.cpp:425] inception_4c/pool <- inception_4b/output_inception_4b/output_0_split_3
I0403 15:46:19.548319 16039 net.cpp:399] inception_4c/pool -> inception_4c/pool
I0403 15:46:19.548388 16039 net.cpp:141] Setting up inception_4c/pool
I0403 15:46:19.548411 16039 net.cpp:148] Top shape: 24 512 14 14 (2408448)
I0403 15:46:19.548426 16039 net.cpp:156] Memory required for data: 1060605216
I0403 15:46:19.548440 16039 layer_factory.hpp:77] Creating layer inception_4c/pool_proj
I0403 15:46:19.548463 16039 net.cpp:91] Creating Layer inception_4c/pool_proj
I0403 15:46:19.548481 16039 net.cpp:425] inception_4c/pool_proj <- inception_4c/pool
I0403 15:46:19.548499 16039 net.cpp:399] inception_4c/pool_proj -> inception_4c/pool_proj
I0403 15:46:19.549756 16039 net.cpp:141] Setting up inception_4c/pool_proj
I0403 15:46:19.549783 16039 net.cpp:148] Top shape: 24 64 14 14 (301056)
I0403 15:46:19.549813 16039 net.cpp:156] Memory required for data: 1061809440
I0403 15:46:19.549831 16039 layer_factory.hpp:77] Creating layer inception_4c/relu_pool_proj
I0403 15:46:19.549852 16039 net.cpp:91] Creating Layer inception_4c/relu_pool_proj
I0403 15:46:19.549870 16039 net.cpp:425] inception_4c/relu_pool_proj <- inception_4c/pool_proj
I0403 15:46:19.549885 16039 net.cpp:386] inception_4c/relu_pool_proj -> inception_4c/pool_proj (in-place)
I0403 15:46:19.550079 16039 net.cpp:141] Setting up inception_4c/relu_pool_proj
I0403 15:46:19.550104 16039 net.cpp:148] Top shape: 24 64 14 14 (301056)
I0403 15:46:19.550118 16039 net.cpp:156] Memory required for data: 1063013664
I0403 15:46:19.550132 16039 layer_factory.hpp:77] Creating layer inception_4c/output
I0403 15:46:19.550149 16039 net.cpp:91] Creating Layer inception_4c/output
I0403 15:46:19.550164 16039 net.cpp:425] inception_4c/output <- inception_4c/1x1
I0403 15:46:19.550180 16039 net.cpp:425] inception_4c/output <- inception_4c/3x3
I0403 15:46:19.550195 16039 net.cpp:425] inception_4c/output <- inception_4c/5x5
I0403 15:46:19.550210 16039 net.cpp:425] inception_4c/output <- inception_4c/pool_proj
I0403 15:46:19.550230 16039 net.cpp:399] inception_4c/output -> inception_4c/output
I0403 15:46:19.550276 16039 net.cpp:141] Setting up inception_4c/output
I0403 15:46:19.550302 16039 net.cpp:148] Top shape: 24 512 14 14 (2408448)
I0403 15:46:19.550317 16039 net.cpp:156] Memory required for data: 1072647456
I0403 15:46:19.550330 16039 layer_factory.hpp:77] Creating layer inception_4c/output_inception_4c/output_0_split
I0403 15:46:19.550348 16039 net.cpp:91] Creating Layer inception_4c/output_inception_4c/output_0_split
I0403 15:46:19.550361 16039 net.cpp:425] inception_4c/output_inception_4c/output_0_split <- inception_4c/output
I0403 15:46:19.550379 16039 net.cpp:399] inception_4c/output_inception_4c/output_0_split -> inception_4c/output_inception_4c/output_0_split_0
I0403 15:46:19.550398 16039 net.cpp:399] inception_4c/output_inception_4c/output_0_split -> inception_4c/output_inception_4c/output_0_split_1
I0403 15:46:19.550421 16039 net.cpp:399] inception_4c/output_inception_4c/output_0_split -> inception_4c/output_inception_4c/output_0_split_2
I0403 15:46:19.550442 16039 net.cpp:399] inception_4c/output_inception_4c/output_0_split -> inception_4c/output_inception_4c/output_0_split_3
I0403 15:46:19.550529 16039 net.cpp:141] Setting up inception_4c/output_inception_4c/output_0_split
I0403 15:46:19.550552 16039 net.cpp:148] Top shape: 24 512 14 14 (2408448)
I0403 15:46:19.550567 16039 net.cpp:148] Top shape: 24 512 14 14 (2408448)
I0403 15:46:19.550582 16039 net.cpp:148] Top shape: 24 512 14 14 (2408448)
I0403 15:46:19.550597 16039 net.cpp:148] Top shape: 24 512 14 14 (2408448)
I0403 15:46:19.550616 16039 net.cpp:156] Memory required for data: 1111182624
I0403 15:46:19.550629 16039 layer_factory.hpp:77] Creating layer inception_4d/1x1
I0403 15:46:19.550652 16039 net.cpp:91] Creating Layer inception_4d/1x1
I0403 15:46:19.550668 16039 net.cpp:425] inception_4d/1x1 <- inception_4c/output_inception_4c/output_0_split_0
I0403 15:46:19.550689 16039 net.cpp:399] inception_4d/1x1 -> inception_4d/1x1
I0403 15:46:19.552098 16039 net.cpp:141] Setting up inception_4d/1x1
I0403 15:46:19.552124 16039 net.cpp:148] Top shape: 24 112 14 14 (526848)
I0403 15:46:19.552140 16039 net.cpp:156] Memory required for data: 1113290016
I0403 15:46:19.552158 16039 layer_factory.hpp:77] Creating layer inception_4d/relu_1x1
I0403 15:46:19.552178 16039 net.cpp:91] Creating Layer inception_4d/relu_1x1
I0403 15:46:19.552196 16039 net.cpp:425] inception_4d/relu_1x1 <- inception_4d/1x1
I0403 15:46:19.552214 16039 net.cpp:386] inception_4d/relu_1x1 -> inception_4d/1x1 (in-place)
I0403 15:46:19.552402 16039 net.cpp:141] Setting up inception_4d/relu_1x1
I0403 15:46:19.552428 16039 net.cpp:148] Top shape: 24 112 14 14 (526848)
I0403 15:46:19.552443 16039 net.cpp:156] Memory required for data: 1115397408
I0403 15:46:19.552459 16039 layer_factory.hpp:77] Creating layer inception_4d/3x3_reduce
I0403 15:46:19.552495 16039 net.cpp:91] Creating Layer inception_4d/3x3_reduce
I0403 15:46:19.552513 16039 net.cpp:425] inception_4d/3x3_reduce <- inception_4c/output_inception_4c/output_0_split_1
I0403 15:46:19.552532 16039 net.cpp:399] inception_4d/3x3_reduce -> inception_4d/3x3_reduce
I0403 15:46:19.554110 16039 net.cpp:141] Setting up inception_4d/3x3_reduce
I0403 15:46:19.554137 16039 net.cpp:148] Top shape: 24 144 14 14 (677376)
I0403 15:46:19.554152 16039 net.cpp:156] Memory required for data: 1118106912
I0403 15:46:19.554170 16039 layer_factory.hpp:77] Creating layer inception_4d/relu_3x3_reduce
I0403 15:46:19.554189 16039 net.cpp:91] Creating Layer inception_4d/relu_3x3_reduce
I0403 15:46:19.554206 16039 net.cpp:425] inception_4d/relu_3x3_reduce <- inception_4d/3x3_reduce
I0403 15:46:19.554224 16039 net.cpp:386] inception_4d/relu_3x3_reduce -> inception_4d/3x3_reduce (in-place)
I0403 15:46:19.554522 16039 net.cpp:141] Setting up inception_4d/relu_3x3_reduce
I0403 15:46:19.554550 16039 net.cpp:148] Top shape: 24 144 14 14 (677376)
I0403 15:46:19.554565 16039 net.cpp:156] Memory required for data: 1120816416
I0403 15:46:19.554579 16039 layer_factory.hpp:77] Creating layer inception_4d/3x3
I0403 15:46:19.554612 16039 net.cpp:91] Creating Layer inception_4d/3x3
I0403 15:46:19.554633 16039 net.cpp:425] inception_4d/3x3 <- inception_4d/3x3_reduce
I0403 15:46:19.554654 16039 net.cpp:399] inception_4d/3x3 -> inception_4d/3x3
I0403 15:46:19.558928 16039 net.cpp:141] Setting up inception_4d/3x3
I0403 15:46:19.558956 16039 net.cpp:148] Top shape: 24 288 14 14 (1354752)
I0403 15:46:19.558972 16039 net.cpp:156] Memory required for data: 1126235424
I0403 15:46:19.558990 16039 layer_factory.hpp:77] Creating layer inception_4d/relu_3x3
I0403 15:46:19.559010 16039 net.cpp:91] Creating Layer inception_4d/relu_3x3
I0403 15:46:19.559026 16039 net.cpp:425] inception_4d/relu_3x3 <- inception_4d/3x3
I0403 15:46:19.559043 16039 net.cpp:386] inception_4d/relu_3x3 -> inception_4d/3x3 (in-place)
I0403 15:46:19.559232 16039 net.cpp:141] Setting up inception_4d/relu_3x3
I0403 15:46:19.559258 16039 net.cpp:148] Top shape: 24 288 14 14 (1354752)
I0403 15:46:19.559273 16039 net.cpp:156] Memory required for data: 1131654432
I0403 15:46:19.559288 16039 layer_factory.hpp:77] Creating layer inception_4d/5x5_reduce
I0403 15:46:19.559309 16039 net.cpp:91] Creating Layer inception_4d/5x5_reduce
I0403 15:46:19.559326 16039 net.cpp:425] inception_4d/5x5_reduce <- inception_4c/output_inception_4c/output_0_split_2
I0403 15:46:19.559345 16039 net.cpp:399] inception_4d/5x5_reduce -> inception_4d/5x5_reduce
I0403 15:46:19.560509 16039 net.cpp:141] Setting up inception_4d/5x5_reduce
I0403 15:46:19.560537 16039 net.cpp:148] Top shape: 24 32 14 14 (150528)
I0403 15:46:19.560552 16039 net.cpp:156] Memory required for data: 1132256544
I0403 15:46:19.560570 16039 layer_factory.hpp:77] Creating layer inception_4d/relu_5x5_reduce
I0403 15:46:19.560590 16039 net.cpp:91] Creating Layer inception_4d/relu_5x5_reduce
I0403 15:46:19.560612 16039 net.cpp:425] inception_4d/relu_5x5_reduce <- inception_4d/5x5_reduce
I0403 15:46:19.560631 16039 net.cpp:386] inception_4d/relu_5x5_reduce -> inception_4d/5x5_reduce (in-place)
I0403 15:46:19.560818 16039 net.cpp:141] Setting up inception_4d/relu_5x5_reduce
I0403 15:46:19.560847 16039 net.cpp:148] Top shape: 24 32 14 14 (150528)
I0403 15:46:19.560861 16039 net.cpp:156] Memory required for data: 1132858656
I0403 15:46:19.560876 16039 layer_factory.hpp:77] Creating layer inception_4d/5x5
I0403 15:46:19.560897 16039 net.cpp:91] Creating Layer inception_4d/5x5
I0403 15:46:19.560915 16039 net.cpp:425] inception_4d/5x5 <- inception_4d/5x5_reduce
I0403 15:46:19.560933 16039 net.cpp:399] inception_4d/5x5 -> inception_4d/5x5
I0403 15:46:19.562427 16039 net.cpp:141] Setting up inception_4d/5x5
I0403 15:46:19.562458 16039 net.cpp:148] Top shape: 24 64 14 14 (301056)
I0403 15:46:19.562472 16039 net.cpp:156] Memory required for data: 1134062880
I0403 15:46:19.562490 16039 layer_factory.hpp:77] Creating layer inception_4d/relu_5x5
I0403 15:46:19.562526 16039 net.cpp:91] Creating Layer inception_4d/relu_5x5
I0403 15:46:19.562543 16039 net.cpp:425] inception_4d/relu_5x5 <- inception_4d/5x5
I0403 15:46:19.562562 16039 net.cpp:386] inception_4d/relu_5x5 -> inception_4d/5x5 (in-place)
I0403 15:46:19.562870 16039 net.cpp:141] Setting up inception_4d/relu_5x5
I0403 15:46:19.562899 16039 net.cpp:148] Top shape: 24 64 14 14 (301056)
I0403 15:46:19.562914 16039 net.cpp:156] Memory required for data: 1135267104
I0403 15:46:19.562929 16039 layer_factory.hpp:77] Creating layer inception_4d/pool
I0403 15:46:19.562947 16039 net.cpp:91] Creating Layer inception_4d/pool
I0403 15:46:19.562963 16039 net.cpp:425] inception_4d/pool <- inception_4c/output_inception_4c/output_0_split_3
I0403 15:46:19.562983 16039 net.cpp:399] inception_4d/pool -> inception_4d/pool
I0403 15:46:19.563050 16039 net.cpp:141] Setting up inception_4d/pool
I0403 15:46:19.563072 16039 net.cpp:148] Top shape: 24 512 14 14 (2408448)
I0403 15:46:19.563086 16039 net.cpp:156] Memory required for data: 1144900896
I0403 15:46:19.563100 16039 layer_factory.hpp:77] Creating layer inception_4d/pool_proj
I0403 15:46:19.563123 16039 net.cpp:91] Creating Layer inception_4d/pool_proj
I0403 15:46:19.563140 16039 net.cpp:425] inception_4d/pool_proj <- inception_4d/pool
I0403 15:46:19.563159 16039 net.cpp:399] inception_4d/pool_proj -> inception_4d/pool_proj
I0403 15:46:19.565058 16039 net.cpp:141] Setting up inception_4d/pool_proj
I0403 15:46:19.565088 16039 net.cpp:148] Top shape: 24 64 14 14 (301056)
I0403 15:46:19.565104 16039 net.cpp:156] Memory required for data: 1146105120
I0403 15:46:19.565121 16039 layer_factory.hpp:77] Creating layer inception_4d/relu_pool_proj
I0403 15:46:19.565141 16039 net.cpp:91] Creating Layer inception_4d/relu_pool_proj
I0403 15:46:19.565158 16039 net.cpp:425] inception_4d/relu_pool_proj <- inception_4d/pool_proj
I0403 15:46:19.565176 16039 net.cpp:386] inception_4d/relu_pool_proj -> inception_4d/pool_proj (in-place)
I0403 15:46:19.565371 16039 net.cpp:141] Setting up inception_4d/relu_pool_proj
I0403 15:46:19.565398 16039 net.cpp:148] Top shape: 24 64 14 14 (301056)
I0403 15:46:19.565414 16039 net.cpp:156] Memory required for data: 1147309344
I0403 15:46:19.565429 16039 layer_factory.hpp:77] Creating layer inception_4d/output
I0403 15:46:19.565446 16039 net.cpp:91] Creating Layer inception_4d/output
I0403 15:46:19.565461 16039 net.cpp:425] inception_4d/output <- inception_4d/1x1
I0403 15:46:19.565477 16039 net.cpp:425] inception_4d/output <- inception_4d/3x3
I0403 15:46:19.565492 16039 net.cpp:425] inception_4d/output <- inception_4d/5x5
I0403 15:46:19.565510 16039 net.cpp:425] inception_4d/output <- inception_4d/pool_proj
I0403 15:46:19.565526 16039 net.cpp:399] inception_4d/output -> inception_4d/output
I0403 15:46:19.565578 16039 net.cpp:141] Setting up inception_4d/output
I0403 15:46:19.565608 16039 net.cpp:148] Top shape: 24 528 14 14 (2483712)
I0403 15:46:19.565636 16039 net.cpp:156] Memory required for data: 1157244192
I0403 15:46:19.565651 16039 layer_factory.hpp:77] Creating layer inception_4d/output_inception_4d/output_0_split
I0403 15:46:19.565683 16039 net.cpp:91] Creating Layer inception_4d/output_inception_4d/output_0_split
I0403 15:46:19.565701 16039 net.cpp:425] inception_4d/output_inception_4d/output_0_split <- inception_4d/output
I0403 15:46:19.565719 16039 net.cpp:399] inception_4d/output_inception_4d/output_0_split -> inception_4d/output_inception_4d/output_0_split_0
I0403 15:46:19.565740 16039 net.cpp:399] inception_4d/output_inception_4d/output_0_split -> inception_4d/output_inception_4d/output_0_split_1
I0403 15:46:19.565767 16039 net.cpp:399] inception_4d/output_inception_4d/output_0_split -> inception_4d/output_inception_4d/output_0_split_2
I0403 15:46:19.565789 16039 net.cpp:399] inception_4d/output_inception_4d/output_0_split -> inception_4d/output_inception_4d/output_0_split_3
I0403 15:46:19.565810 16039 net.cpp:399] inception_4d/output_inception_4d/output_0_split -> inception_4d/output_inception_4d/output_0_split_4
I0403 15:46:19.565920 16039 net.cpp:141] Setting up inception_4d/output_inception_4d/output_0_split
I0403 15:46:19.565970 16039 net.cpp:148] Top shape: 24 528 14 14 (2483712)
I0403 15:46:19.565987 16039 net.cpp:148] Top shape: 24 528 14 14 (2483712)
I0403 15:46:19.566004 16039 net.cpp:148] Top shape: 24 528 14 14 (2483712)
I0403 15:46:19.566018 16039 net.cpp:148] Top shape: 24 528 14 14 (2483712)
I0403 15:46:19.566033 16039 net.cpp:148] Top shape: 24 528 14 14 (2483712)
I0403 15:46:19.566046 16039 net.cpp:156] Memory required for data: 1206918432
I0403 15:46:19.566061 16039 layer_factory.hpp:77] Creating layer loss2/ave_pool
I0403 15:46:19.566079 16039 net.cpp:91] Creating Layer loss2/ave_pool
I0403 15:46:19.566095 16039 net.cpp:425] loss2/ave_pool <- inception_4d/output_inception_4d/output_0_split_0
I0403 15:46:19.566117 16039 net.cpp:399] loss2/ave_pool -> loss2/ave_pool
I0403 15:46:19.566447 16039 net.cpp:141] Setting up loss2/ave_pool
I0403 15:46:19.566473 16039 net.cpp:148] Top shape: 24 528 4 4 (202752)
I0403 15:46:19.566489 16039 net.cpp:156] Memory required for data: 1207729440
I0403 15:46:19.566504 16039 layer_factory.hpp:77] Creating layer loss2/conv
I0403 15:46:19.566526 16039 net.cpp:91] Creating Layer loss2/conv
I0403 15:46:19.566546 16039 net.cpp:425] loss2/conv <- loss2/ave_pool
I0403 15:46:19.566567 16039 net.cpp:399] loss2/conv -> loss2/conv
I0403 15:46:19.568557 16039 net.cpp:141] Setting up loss2/conv
I0403 15:46:19.568588 16039 net.cpp:148] Top shape: 24 128 4 4 (49152)
I0403 15:46:19.568609 16039 net.cpp:156] Memory required for data: 1207926048
I0403 15:46:19.568632 16039 layer_factory.hpp:77] Creating layer loss2/relu_conv
I0403 15:46:19.568651 16039 net.cpp:91] Creating Layer loss2/relu_conv
I0403 15:46:19.568667 16039 net.cpp:425] loss2/relu_conv <- loss2/conv
I0403 15:46:19.568691 16039 net.cpp:386] loss2/relu_conv -> loss2/conv (in-place)
I0403 15:46:19.568989 16039 net.cpp:141] Setting up loss2/relu_conv
I0403 15:46:19.569018 16039 net.cpp:148] Top shape: 24 128 4 4 (49152)
I0403 15:46:19.569034 16039 net.cpp:156] Memory required for data: 1208122656
I0403 15:46:19.569049 16039 layer_factory.hpp:77] Creating layer loss2/fc
I0403 15:46:19.569068 16039 net.cpp:91] Creating Layer loss2/fc
I0403 15:46:19.569084 16039 net.cpp:425] loss2/fc <- loss2/conv
I0403 15:46:19.569106 16039 net.cpp:399] loss2/fc -> loss2/fc
I0403 15:46:19.587244 16039 net.cpp:141] Setting up loss2/fc
I0403 15:46:19.587282 16039 net.cpp:148] Top shape: 24 1024 (24576)
I0403 15:46:19.587296 16039 net.cpp:156] Memory required for data: 1208220960
I0403 15:46:19.587314 16039 layer_factory.hpp:77] Creating layer loss2/relu_fc
I0403 15:46:19.587335 16039 net.cpp:91] Creating Layer loss2/relu_fc
I0403 15:46:19.587352 16039 net.cpp:425] loss2/relu_fc <- loss2/fc
I0403 15:46:19.587368 16039 net.cpp:386] loss2/relu_fc -> loss2/fc (in-place)
I0403 15:46:19.587693 16039 net.cpp:141] Setting up loss2/relu_fc
I0403 15:46:19.587718 16039 net.cpp:148] Top shape: 24 1024 (24576)
I0403 15:46:19.587733 16039 net.cpp:156] Memory required for data: 1208319264
I0403 15:46:19.587748 16039 layer_factory.hpp:77] Creating layer loss2/drop_fc
I0403 15:46:19.587766 16039 net.cpp:91] Creating Layer loss2/drop_fc
I0403 15:46:19.587784 16039 net.cpp:425] loss2/drop_fc <- loss2/fc
I0403 15:46:19.587800 16039 net.cpp:386] loss2/drop_fc -> loss2/fc (in-place)
I0403 15:46:19.587851 16039 net.cpp:141] Setting up loss2/drop_fc
I0403 15:46:19.587872 16039 net.cpp:148] Top shape: 24 1024 (24576)
I0403 15:46:19.587887 16039 net.cpp:156] Memory required for data: 1208417568
I0403 15:46:19.587899 16039 layer_factory.hpp:77] Creating layer loss2/classifier_plantvillage
I0403 15:46:19.587916 16039 net.cpp:91] Creating Layer loss2/classifier_plantvillage
I0403 15:46:19.587931 16039 net.cpp:425] loss2/classifier_plantvillage <- loss2/fc
I0403 15:46:19.587951 16039 net.cpp:399] loss2/classifier_plantvillage -> loss2/classifier_plantvillage
I0403 15:46:19.588352 16039 net.cpp:141] Setting up loss2/classifier_plantvillage
I0403 15:46:19.588376 16039 net.cpp:148] Top shape: 24 38 (912)
I0403 15:46:19.588412 16039 net.cpp:156] Memory required for data: 1208421216
I0403 15:46:19.588429 16039 layer_factory.hpp:77] Creating layer loss2/classifier_plantvillage_loss2/classifier_plantvillage_0_split
I0403 15:46:19.588446 16039 net.cpp:91] Creating Layer loss2/classifier_plantvillage_loss2/classifier_plantvillage_0_split
I0403 15:46:19.588461 16039 net.cpp:425] loss2/classifier_plantvillage_loss2/classifier_plantvillage_0_split <- loss2/classifier_plantvillage
I0403 15:46:19.588480 16039 net.cpp:399] loss2/classifier_plantvillage_loss2/classifier_plantvillage_0_split -> loss2/classifier_plantvillage_loss2/classifier_plantvillage_0_split_0
I0403 15:46:19.588500 16039 net.cpp:399] loss2/classifier_plantvillage_loss2/classifier_plantvillage_0_split -> loss2/classifier_plantvillage_loss2/classifier_plantvillage_0_split_1
I0403 15:46:19.588521 16039 net.cpp:399] loss2/classifier_plantvillage_loss2/classifier_plantvillage_0_split -> loss2/classifier_plantvillage_loss2/classifier_plantvillage_0_split_2
I0403 15:46:19.588596 16039 net.cpp:141] Setting up loss2/classifier_plantvillage_loss2/classifier_plantvillage_0_split
I0403 15:46:19.588625 16039 net.cpp:148] Top shape: 24 38 (912)
I0403 15:46:19.588642 16039 net.cpp:148] Top shape: 24 38 (912)
I0403 15:46:19.588656 16039 net.cpp:148] Top shape: 24 38 (912)
I0403 15:46:19.588670 16039 net.cpp:156] Memory required for data: 1208432160
I0403 15:46:19.588683 16039 layer_factory.hpp:77] Creating layer inception_4e/1x1
I0403 15:46:19.588703 16039 net.cpp:91] Creating Layer inception_4e/1x1
I0403 15:46:19.588719 16039 net.cpp:425] inception_4e/1x1 <- inception_4d/output_inception_4d/output_0_split_1
I0403 15:46:19.588737 16039 net.cpp:399] inception_4e/1x1 -> inception_4e/1x1
I0403 15:46:19.590545 16039 net.cpp:141] Setting up inception_4e/1x1
I0403 15:46:19.590572 16039 net.cpp:148] Top shape: 24 256 14 14 (1204224)
I0403 15:46:19.590587 16039 net.cpp:156] Memory required for data: 1213249056
I0403 15:46:19.590610 16039 layer_factory.hpp:77] Creating layer inception_4e/relu_1x1
I0403 15:46:19.590628 16039 net.cpp:91] Creating Layer inception_4e/relu_1x1
I0403 15:46:19.590643 16039 net.cpp:425] inception_4e/relu_1x1 <- inception_4e/1x1
I0403 15:46:19.590662 16039 net.cpp:386] inception_4e/relu_1x1 -> inception_4e/1x1 (in-place)
I0403 15:46:19.590955 16039 net.cpp:141] Setting up inception_4e/relu_1x1
I0403 15:46:19.590981 16039 net.cpp:148] Top shape: 24 256 14 14 (1204224)
I0403 15:46:19.590996 16039 net.cpp:156] Memory required for data: 1218065952
I0403 15:46:19.591009 16039 layer_factory.hpp:77] Creating layer inception_4e/3x3_reduce
I0403 15:46:19.591030 16039 net.cpp:91] Creating Layer inception_4e/3x3_reduce
I0403 15:46:19.591048 16039 net.cpp:425] inception_4e/3x3_reduce <- inception_4d/output_inception_4d/output_0_split_2
I0403 15:46:19.591069 16039 net.cpp:399] inception_4e/3x3_reduce -> inception_4e/3x3_reduce
I0403 15:46:19.593160 16039 net.cpp:141] Setting up inception_4e/3x3_reduce
I0403 15:46:19.593190 16039 net.cpp:148] Top shape: 24 160 14 14 (752640)
I0403 15:46:19.593206 16039 net.cpp:156] Memory required for data: 1221076512
I0403 15:46:19.593224 16039 layer_factory.hpp:77] Creating layer inception_4e/relu_3x3_reduce
I0403 15:46:19.593240 16039 net.cpp:91] Creating Layer inception_4e/relu_3x3_reduce
I0403 15:46:19.593256 16039 net.cpp:425] inception_4e/relu_3x3_reduce <- inception_4e/3x3_reduce
I0403 15:46:19.593274 16039 net.cpp:386] inception_4e/relu_3x3_reduce -> inception_4e/3x3_reduce (in-place)
I0403 15:46:19.593461 16039 net.cpp:141] Setting up inception_4e/relu_3x3_reduce
I0403 15:46:19.593485 16039 net.cpp:148] Top shape: 24 160 14 14 (752640)
I0403 15:46:19.593499 16039 net.cpp:156] Memory required for data: 1224087072
I0403 15:46:19.593513 16039 layer_factory.hpp:77] Creating layer inception_4e/3x3
I0403 15:46:19.593533 16039 net.cpp:91] Creating Layer inception_4e/3x3
I0403 15:46:19.593550 16039 net.cpp:425] inception_4e/3x3 <- inception_4e/3x3_reduce
I0403 15:46:19.593572 16039 net.cpp:399] inception_4e/3x3 -> inception_4e/3x3
I0403 15:46:19.598462 16039 net.cpp:141] Setting up inception_4e/3x3
I0403 15:46:19.598503 16039 net.cpp:148] Top shape: 24 320 14 14 (1505280)
I0403 15:46:19.598518 16039 net.cpp:156] Memory required for data: 1230108192
I0403 15:46:19.598536 16039 layer_factory.hpp:77] Creating layer inception_4e/relu_3x3
I0403 15:46:19.598553 16039 net.cpp:91] Creating Layer inception_4e/relu_3x3
I0403 15:46:19.598568 16039 net.cpp:425] inception_4e/relu_3x3 <- inception_4e/3x3
I0403 15:46:19.598588 16039 net.cpp:386] inception_4e/relu_3x3 -> inception_4e/3x3 (in-place)
I0403 15:46:19.598891 16039 net.cpp:141] Setting up inception_4e/relu_3x3
I0403 15:46:19.598915 16039 net.cpp:148] Top shape: 24 320 14 14 (1505280)
I0403 15:46:19.598929 16039 net.cpp:156] Memory required for data: 1236129312
I0403 15:46:19.598943 16039 layer_factory.hpp:77] Creating layer inception_4e/5x5_reduce
I0403 15:46:19.598966 16039 net.cpp:91] Creating Layer inception_4e/5x5_reduce
I0403 15:46:19.598985 16039 net.cpp:425] inception_4e/5x5_reduce <- inception_4d/output_inception_4d/output_0_split_3
I0403 15:46:19.599007 16039 net.cpp:399] inception_4e/5x5_reduce -> inception_4e/5x5_reduce
I0403 15:46:19.600074 16039 net.cpp:141] Setting up inception_4e/5x5_reduce
I0403 15:46:19.600102 16039 net.cpp:148] Top shape: 24 32 14 14 (150528)
I0403 15:46:19.600118 16039 net.cpp:156] Memory required for data: 1236731424
I0403 15:46:19.600136 16039 layer_factory.hpp:77] Creating layer inception_4e/relu_5x5_reduce
I0403 15:46:19.600152 16039 net.cpp:91] Creating Layer inception_4e/relu_5x5_reduce
I0403 15:46:19.600167 16039 net.cpp:425] inception_4e/relu_5x5_reduce <- inception_4e/5x5_reduce
I0403 15:46:19.600185 16039 net.cpp:386] inception_4e/relu_5x5_reduce -> inception_4e/5x5_reduce (in-place)
I0403 15:46:19.600481 16039 net.cpp:141] Setting up inception_4e/relu_5x5_reduce
I0403 15:46:19.600508 16039 net.cpp:148] Top shape: 24 32 14 14 (150528)
I0403 15:46:19.600523 16039 net.cpp:156] Memory required for data: 1237333536
I0403 15:46:19.600538 16039 layer_factory.hpp:77] Creating layer inception_4e/5x5
I0403 15:46:19.600575 16039 net.cpp:91] Creating Layer inception_4e/5x5
I0403 15:46:19.600594 16039 net.cpp:425] inception_4e/5x5 <- inception_4e/5x5_reduce
I0403 15:46:19.600618 16039 net.cpp:399] inception_4e/5x5 -> inception_4e/5x5
I0403 15:46:19.602430 16039 net.cpp:141] Setting up inception_4e/5x5
I0403 15:46:19.602458 16039 net.cpp:148] Top shape: 24 128 14 14 (602112)
I0403 15:46:19.602475 16039 net.cpp:156] Memory required for data: 1239741984
I0403 15:46:19.602494 16039 layer_factory.hpp:77] Creating layer inception_4e/relu_5x5
I0403 15:46:19.602511 16039 net.cpp:91] Creating Layer inception_4e/relu_5x5
I0403 15:46:19.602526 16039 net.cpp:425] inception_4e/relu_5x5 <- inception_4e/5x5
I0403 15:46:19.602545 16039 net.cpp:386] inception_4e/relu_5x5 -> inception_4e/5x5 (in-place)
I0403 15:46:19.602747 16039 net.cpp:141] Setting up inception_4e/relu_5x5
I0403 15:46:19.602773 16039 net.cpp:148] Top shape: 24 128 14 14 (602112)
I0403 15:46:19.602789 16039 net.cpp:156] Memory required for data: 1242150432
I0403 15:46:19.602802 16039 layer_factory.hpp:77] Creating layer inception_4e/pool
I0403 15:46:19.602820 16039 net.cpp:91] Creating Layer inception_4e/pool
I0403 15:46:19.602835 16039 net.cpp:425] inception_4e/pool <- inception_4d/output_inception_4d/output_0_split_4
I0403 15:46:19.602854 16039 net.cpp:399] inception_4e/pool -> inception_4e/pool
I0403 15:46:19.602921 16039 net.cpp:141] Setting up inception_4e/pool
I0403 15:46:19.602947 16039 net.cpp:148] Top shape: 24 528 14 14 (2483712)
I0403 15:46:19.602962 16039 net.cpp:156] Memory required for data: 1252085280
I0403 15:46:19.602975 16039 layer_factory.hpp:77] Creating layer inception_4e/pool_proj
I0403 15:46:19.602993 16039 net.cpp:91] Creating Layer inception_4e/pool_proj
I0403 15:46:19.603009 16039 net.cpp:425] inception_4e/pool_proj <- inception_4e/pool
I0403 15:46:19.603029 16039 net.cpp:399] inception_4e/pool_proj -> inception_4e/pool_proj
I0403 15:46:19.604504 16039 net.cpp:141] Setting up inception_4e/pool_proj
I0403 15:46:19.604542 16039 net.cpp:148] Top shape: 24 128 14 14 (602112)
I0403 15:46:19.604557 16039 net.cpp:156] Memory required for data: 1254493728
I0403 15:46:19.604574 16039 layer_factory.hpp:77] Creating layer inception_4e/relu_pool_proj
I0403 15:46:19.604594 16039 net.cpp:91] Creating Layer inception_4e/relu_pool_proj
I0403 15:46:19.604622 16039 net.cpp:425] inception_4e/relu_pool_proj <- inception_4e/pool_proj
I0403 15:46:19.604640 16039 net.cpp:386] inception_4e/relu_pool_proj -> inception_4e/pool_proj (in-place)
I0403 15:46:19.604933 16039 net.cpp:141] Setting up inception_4e/relu_pool_proj
I0403 15:46:19.604959 16039 net.cpp:148] Top shape: 24 128 14 14 (602112)
I0403 15:46:19.604974 16039 net.cpp:156] Memory required for data: 1256902176
I0403 15:46:19.604986 16039 layer_factory.hpp:77] Creating layer inception_4e/output
I0403 15:46:19.605005 16039 net.cpp:91] Creating Layer inception_4e/output
I0403 15:46:19.605021 16039 net.cpp:425] inception_4e/output <- inception_4e/1x1
I0403 15:46:19.605038 16039 net.cpp:425] inception_4e/output <- inception_4e/3x3
I0403 15:46:19.605053 16039 net.cpp:425] inception_4e/output <- inception_4e/5x5
I0403 15:46:19.605067 16039 net.cpp:425] inception_4e/output <- inception_4e/pool_proj
I0403 15:46:19.605083 16039 net.cpp:399] inception_4e/output -> inception_4e/output
I0403 15:46:19.605134 16039 net.cpp:141] Setting up inception_4e/output
I0403 15:46:19.605155 16039 net.cpp:148] Top shape: 24 832 14 14 (3913728)
I0403 15:46:19.605170 16039 net.cpp:156] Memory required for data: 1272557088
I0403 15:46:19.605182 16039 layer_factory.hpp:77] Creating layer pool4/3x3_s2
I0403 15:46:19.605198 16039 net.cpp:91] Creating Layer pool4/3x3_s2
I0403 15:46:19.605213 16039 net.cpp:425] pool4/3x3_s2 <- inception_4e/output
I0403 15:46:19.605232 16039 net.cpp:399] pool4/3x3_s2 -> pool4/3x3_s2
I0403 15:46:19.605298 16039 net.cpp:141] Setting up pool4/3x3_s2
I0403 15:46:19.605322 16039 net.cpp:148] Top shape: 24 832 7 7 (978432)
I0403 15:46:19.605336 16039 net.cpp:156] Memory required for data: 1276470816
I0403 15:46:19.605350 16039 layer_factory.hpp:77] Creating layer pool4/3x3_s2_pool4/3x3_s2_0_split
I0403 15:46:19.605366 16039 net.cpp:91] Creating Layer pool4/3x3_s2_pool4/3x3_s2_0_split
I0403 15:46:19.605381 16039 net.cpp:425] pool4/3x3_s2_pool4/3x3_s2_0_split <- pool4/3x3_s2
I0403 15:46:19.605397 16039 net.cpp:399] pool4/3x3_s2_pool4/3x3_s2_0_split -> pool4/3x3_s2_pool4/3x3_s2_0_split_0
I0403 15:46:19.605418 16039 net.cpp:399] pool4/3x3_s2_pool4/3x3_s2_0_split -> pool4/3x3_s2_pool4/3x3_s2_0_split_1
I0403 15:46:19.605439 16039 net.cpp:399] pool4/3x3_s2_pool4/3x3_s2_0_split -> pool4/3x3_s2_pool4/3x3_s2_0_split_2
I0403 15:46:19.605458 16039 net.cpp:399] pool4/3x3_s2_pool4/3x3_s2_0_split -> pool4/3x3_s2_pool4/3x3_s2_0_split_3
I0403 15:46:19.605548 16039 net.cpp:141] Setting up pool4/3x3_s2_pool4/3x3_s2_0_split
I0403 15:46:19.605571 16039 net.cpp:148] Top shape: 24 832 7 7 (978432)
I0403 15:46:19.605586 16039 net.cpp:148] Top shape: 24 832 7 7 (978432)
I0403 15:46:19.605603 16039 net.cpp:148] Top shape: 24 832 7 7 (978432)
I0403 15:46:19.605620 16039 net.cpp:148] Top shape: 24 832 7 7 (978432)
I0403 15:46:19.605633 16039 net.cpp:156] Memory required for data: 1292125728
I0403 15:46:19.605646 16039 layer_factory.hpp:77] Creating layer inception_5a/1x1
I0403 15:46:19.605669 16039 net.cpp:91] Creating Layer inception_5a/1x1
I0403 15:46:19.605685 16039 net.cpp:425] inception_5a/1x1 <- pool4/3x3_s2_pool4/3x3_s2_0_split_0
I0403 15:46:19.605703 16039 net.cpp:399] inception_5a/1x1 -> inception_5a/1x1
I0403 15:46:19.608548 16039 net.cpp:141] Setting up inception_5a/1x1
I0403 15:46:19.608578 16039 net.cpp:148] Top shape: 24 256 7 7 (301056)
I0403 15:46:19.608594 16039 net.cpp:156] Memory required for data: 1293329952
I0403 15:46:19.608618 16039 layer_factory.hpp:77] Creating layer inception_5a/relu_1x1
I0403 15:46:19.608635 16039 net.cpp:91] Creating Layer inception_5a/relu_1x1
I0403 15:46:19.608650 16039 net.cpp:425] inception_5a/relu_1x1 <- inception_5a/1x1
I0403 15:46:19.608669 16039 net.cpp:386] inception_5a/relu_1x1 -> inception_5a/1x1 (in-place)
I0403 15:46:19.608974 16039 net.cpp:141] Setting up inception_5a/relu_1x1
I0403 15:46:19.609002 16039 net.cpp:148] Top shape: 24 256 7 7 (301056)
I0403 15:46:19.609017 16039 net.cpp:156] Memory required for data: 1294534176
I0403 15:46:19.609031 16039 layer_factory.hpp:77] Creating layer inception_5a/3x3_reduce
I0403 15:46:19.609052 16039 net.cpp:91] Creating Layer inception_5a/3x3_reduce
I0403 15:46:19.609071 16039 net.cpp:425] inception_5a/3x3_reduce <- pool4/3x3_s2_pool4/3x3_s2_0_split_1
I0403 15:46:19.609088 16039 net.cpp:399] inception_5a/3x3_reduce -> inception_5a/3x3_reduce
I0403 15:46:19.611526 16039 net.cpp:141] Setting up inception_5a/3x3_reduce
I0403 15:46:19.611554 16039 net.cpp:148] Top shape: 24 160 7 7 (188160)
I0403 15:46:19.611568 16039 net.cpp:156] Memory required for data: 1295286816
I0403 15:46:19.611585 16039 layer_factory.hpp:77] Creating layer inception_5a/relu_3x3_reduce
I0403 15:46:19.611610 16039 net.cpp:91] Creating Layer inception_5a/relu_3x3_reduce
I0403 15:46:19.611629 16039 net.cpp:425] inception_5a/relu_3x3_reduce <- inception_5a/3x3_reduce
I0403 15:46:19.611645 16039 net.cpp:386] inception_5a/relu_3x3_reduce -> inception_5a/3x3_reduce (in-place)
I0403 15:46:19.611835 16039 net.cpp:141] Setting up inception_5a/relu_3x3_reduce
I0403 15:46:19.611860 16039 net.cpp:148] Top shape: 24 160 7 7 (188160)
I0403 15:46:19.611873 16039 net.cpp:156] Memory required for data: 1296039456
I0403 15:46:19.611887 16039 layer_factory.hpp:77] Creating layer inception_5a/3x3
I0403 15:46:19.611910 16039 net.cpp:91] Creating Layer inception_5a/3x3
I0403 15:46:19.611927 16039 net.cpp:425] inception_5a/3x3 <- inception_5a/3x3_reduce
I0403 15:46:19.611944 16039 net.cpp:399] inception_5a/3x3 -> inception_5a/3x3
I0403 15:46:19.616896 16039 net.cpp:141] Setting up inception_5a/3x3
I0403 15:46:19.616926 16039 net.cpp:148] Top shape: 24 320 7 7 (376320)
I0403 15:46:19.616942 16039 net.cpp:156] Memory required for data: 1297544736
I0403 15:46:19.616961 16039 layer_factory.hpp:77] Creating layer inception_5a/relu_3x3
I0403 15:46:19.616977 16039 net.cpp:91] Creating Layer inception_5a/relu_3x3
I0403 15:46:19.616992 16039 net.cpp:425] inception_5a/relu_3x3 <- inception_5a/3x3
I0403 15:46:19.617008 16039 net.cpp:386] inception_5a/relu_3x3 -> inception_5a/3x3 (in-place)
I0403 15:46:19.617302 16039 net.cpp:141] Setting up inception_5a/relu_3x3
I0403 15:46:19.617331 16039 net.cpp:148] Top shape: 24 320 7 7 (376320)
I0403 15:46:19.617346 16039 net.cpp:156] Memory required for data: 1299050016
I0403 15:46:19.617359 16039 layer_factory.hpp:77] Creating layer inception_5a/5x5_reduce
I0403 15:46:19.617380 16039 net.cpp:91] Creating Layer inception_5a/5x5_reduce
I0403 15:46:19.617398 16039 net.cpp:425] inception_5a/5x5_reduce <- pool4/3x3_s2_pool4/3x3_s2_0_split_2
I0403 15:46:19.617418 16039 net.cpp:399] inception_5a/5x5_reduce -> inception_5a/5x5_reduce
I0403 15:46:19.618607 16039 net.cpp:141] Setting up inception_5a/5x5_reduce
I0403 15:46:19.618638 16039 net.cpp:148] Top shape: 24 32 7 7 (37632)
I0403 15:46:19.618654 16039 net.cpp:156] Memory required for data: 1299200544
I0403 15:46:19.618671 16039 layer_factory.hpp:77] Creating layer inception_5a/relu_5x5_reduce
I0403 15:46:19.618687 16039 net.cpp:91] Creating Layer inception_5a/relu_5x5_reduce
I0403 15:46:19.618702 16039 net.cpp:425] inception_5a/relu_5x5_reduce <- inception_5a/5x5_reduce
I0403 15:46:19.618721 16039 net.cpp:386] inception_5a/relu_5x5_reduce -> inception_5a/5x5_reduce (in-place)
I0403 15:46:19.619014 16039 net.cpp:141] Setting up inception_5a/relu_5x5_reduce
I0403 15:46:19.619040 16039 net.cpp:148] Top shape: 24 32 7 7 (37632)
I0403 15:46:19.619055 16039 net.cpp:156] Memory required for data: 1299351072
I0403 15:46:19.619071 16039 layer_factory.hpp:77] Creating layer inception_5a/5x5
I0403 15:46:19.619091 16039 net.cpp:91] Creating Layer inception_5a/5x5
I0403 15:46:19.619108 16039 net.cpp:425] inception_5a/5x5 <- inception_5a/5x5_reduce
I0403 15:46:19.619127 16039 net.cpp:399] inception_5a/5x5 -> inception_5a/5x5
I0403 15:46:19.620820 16039 net.cpp:141] Setting up inception_5a/5x5
I0403 15:46:19.620862 16039 net.cpp:148] Top shape: 24 128 7 7 (150528)
I0403 15:46:19.620877 16039 net.cpp:156] Memory required for data: 1299953184
I0403 15:46:19.620895 16039 layer_factory.hpp:77] Creating layer inception_5a/relu_5x5
I0403 15:46:19.620913 16039 net.cpp:91] Creating Layer inception_5a/relu_5x5
I0403 15:46:19.620928 16039 net.cpp:425] inception_5a/relu_5x5 <- inception_5a/5x5
I0403 15:46:19.620944 16039 net.cpp:386] inception_5a/relu_5x5 -> inception_5a/5x5 (in-place)
I0403 15:46:19.621139 16039 net.cpp:141] Setting up inception_5a/relu_5x5
I0403 15:46:19.621165 16039 net.cpp:148] Top shape: 24 128 7 7 (150528)
I0403 15:46:19.621178 16039 net.cpp:156] Memory required for data: 1300555296
I0403 15:46:19.621192 16039 layer_factory.hpp:77] Creating layer inception_5a/pool
I0403 15:46:19.621208 16039 net.cpp:91] Creating Layer inception_5a/pool
I0403 15:46:19.621224 16039 net.cpp:425] inception_5a/pool <- pool4/3x3_s2_pool4/3x3_s2_0_split_3
I0403 15:46:19.621244 16039 net.cpp:399] inception_5a/pool -> inception_5a/pool
I0403 15:46:19.621311 16039 net.cpp:141] Setting up inception_5a/pool
I0403 15:46:19.621336 16039 net.cpp:148] Top shape: 24 832 7 7 (978432)
I0403 15:46:19.621351 16039 net.cpp:156] Memory required for data: 1304469024
I0403 15:46:19.621364 16039 layer_factory.hpp:77] Creating layer inception_5a/pool_proj
I0403 15:46:19.621386 16039 net.cpp:91] Creating Layer inception_5a/pool_proj
I0403 15:46:19.621402 16039 net.cpp:425] inception_5a/pool_proj <- inception_5a/pool
I0403 15:46:19.621420 16039 net.cpp:399] inception_5a/pool_proj -> inception_5a/pool_proj
I0403 15:46:19.623688 16039 net.cpp:141] Setting up inception_5a/pool_proj
I0403 15:46:19.623718 16039 net.cpp:148] Top shape: 24 128 7 7 (150528)
I0403 15:46:19.623733 16039 net.cpp:156] Memory required for data: 1305071136
I0403 15:46:19.623751 16039 layer_factory.hpp:77] Creating layer inception_5a/relu_pool_proj
I0403 15:46:19.623771 16039 net.cpp:91] Creating Layer inception_5a/relu_pool_proj
I0403 15:46:19.623788 16039 net.cpp:425] inception_5a/relu_pool_proj <- inception_5a/pool_proj
I0403 15:46:19.623805 16039 net.cpp:386] inception_5a/relu_pool_proj -> inception_5a/pool_proj (in-place)
I0403 15:46:19.624107 16039 net.cpp:141] Setting up inception_5a/relu_pool_proj
I0403 15:46:19.624135 16039 net.cpp:148] Top shape: 24 128 7 7 (150528)
I0403 15:46:19.624150 16039 net.cpp:156] Memory required for data: 1305673248
I0403 15:46:19.624164 16039 layer_factory.hpp:77] Creating layer inception_5a/output
I0403 15:46:19.624183 16039 net.cpp:91] Creating Layer inception_5a/output
I0403 15:46:19.624199 16039 net.cpp:425] inception_5a/output <- inception_5a/1x1
I0403 15:46:19.624215 16039 net.cpp:425] inception_5a/output <- inception_5a/3x3
I0403 15:46:19.624231 16039 net.cpp:425] inception_5a/output <- inception_5a/5x5
I0403 15:46:19.624246 16039 net.cpp:425] inception_5a/output <- inception_5a/pool_proj
I0403 15:46:19.624264 16039 net.cpp:399] inception_5a/output -> inception_5a/output
I0403 15:46:19.624317 16039 net.cpp:141] Setting up inception_5a/output
I0403 15:46:19.624341 16039 net.cpp:148] Top shape: 24 832 7 7 (978432)
I0403 15:46:19.624356 16039 net.cpp:156] Memory required for data: 1309586976
I0403 15:46:19.624368 16039 layer_factory.hpp:77] Creating layer inception_5a/output_inception_5a/output_0_split
I0403 15:46:19.624384 16039 net.cpp:91] Creating Layer inception_5a/output_inception_5a/output_0_split
I0403 15:46:19.624400 16039 net.cpp:425] inception_5a/output_inception_5a/output_0_split <- inception_5a/output
I0403 15:46:19.624419 16039 net.cpp:399] inception_5a/output_inception_5a/output_0_split -> inception_5a/output_inception_5a/output_0_split_0
I0403 15:46:19.624440 16039 net.cpp:399] inception_5a/output_inception_5a/output_0_split -> inception_5a/output_inception_5a/output_0_split_1
I0403 15:46:19.624461 16039 net.cpp:399] inception_5a/output_inception_5a/output_0_split -> inception_5a/output_inception_5a/output_0_split_2
I0403 15:46:19.624480 16039 net.cpp:399] inception_5a/output_inception_5a/output_0_split -> inception_5a/output_inception_5a/output_0_split_3
I0403 15:46:19.624608 16039 net.cpp:141] Setting up inception_5a/output_inception_5a/output_0_split
I0403 15:46:19.624649 16039 net.cpp:148] Top shape: 24 832 7 7 (978432)
I0403 15:46:19.624666 16039 net.cpp:148] Top shape: 24 832 7 7 (978432)
I0403 15:46:19.624694 16039 net.cpp:148] Top shape: 24 832 7 7 (978432)
I0403 15:46:19.624711 16039 net.cpp:148] Top shape: 24 832 7 7 (978432)
I0403 15:46:19.624724 16039 net.cpp:156] Memory required for data: 1325241888
I0403 15:46:19.624739 16039 layer_factory.hpp:77] Creating layer inception_5b/1x1
I0403 15:46:19.624763 16039 net.cpp:91] Creating Layer inception_5b/1x1
I0403 15:46:19.624783 16039 net.cpp:425] inception_5b/1x1 <- inception_5a/output_inception_5a/output_0_split_0
I0403 15:46:19.624802 16039 net.cpp:399] inception_5b/1x1 -> inception_5b/1x1
I0403 15:46:19.628734 16039 net.cpp:141] Setting up inception_5b/1x1
I0403 15:46:19.628765 16039 net.cpp:148] Top shape: 24 384 7 7 (451584)
I0403 15:46:19.628780 16039 net.cpp:156] Memory required for data: 1327048224
I0403 15:46:19.628798 16039 layer_factory.hpp:77] Creating layer inception_5b/relu_1x1
I0403 15:46:19.628819 16039 net.cpp:91] Creating Layer inception_5b/relu_1x1
I0403 15:46:19.628837 16039 net.cpp:425] inception_5b/relu_1x1 <- inception_5b/1x1
I0403 15:46:19.628856 16039 net.cpp:386] inception_5b/relu_1x1 -> inception_5b/1x1 (in-place)
I0403 15:46:19.629174 16039 net.cpp:141] Setting up inception_5b/relu_1x1
I0403 15:46:19.629201 16039 net.cpp:148] Top shape: 24 384 7 7 (451584)
I0403 15:46:19.629217 16039 net.cpp:156] Memory required for data: 1328854560
I0403 15:46:19.629232 16039 layer_factory.hpp:77] Creating layer inception_5b/3x3_reduce
I0403 15:46:19.629254 16039 net.cpp:91] Creating Layer inception_5b/3x3_reduce
I0403 15:46:19.629274 16039 net.cpp:425] inception_5b/3x3_reduce <- inception_5a/output_inception_5a/output_0_split_1
I0403 15:46:19.629297 16039 net.cpp:399] inception_5b/3x3_reduce -> inception_5b/3x3_reduce
I0403 15:46:19.632110 16039 net.cpp:141] Setting up inception_5b/3x3_reduce
I0403 15:46:19.632140 16039 net.cpp:148] Top shape: 24 192 7 7 (225792)
I0403 15:46:19.632156 16039 net.cpp:156] Memory required for data: 1329757728
I0403 15:46:19.632175 16039 layer_factory.hpp:77] Creating layer inception_5b/relu_3x3_reduce
I0403 15:46:19.632195 16039 net.cpp:91] Creating Layer inception_5b/relu_3x3_reduce
I0403 15:46:19.632212 16039 net.cpp:425] inception_5b/relu_3x3_reduce <- inception_5b/3x3_reduce
I0403 15:46:19.632230 16039 net.cpp:386] inception_5b/relu_3x3_reduce -> inception_5b/3x3_reduce (in-place)
I0403 15:46:19.632431 16039 net.cpp:141] Setting up inception_5b/relu_3x3_reduce
I0403 15:46:19.632459 16039 net.cpp:148] Top shape: 24 192 7 7 (225792)
I0403 15:46:19.632475 16039 net.cpp:156] Memory required for data: 1330660896
I0403 15:46:19.632489 16039 layer_factory.hpp:77] Creating layer inception_5b/3x3
I0403 15:46:19.632511 16039 net.cpp:91] Creating Layer inception_5b/3x3
I0403 15:46:19.632529 16039 net.cpp:425] inception_5b/3x3 <- inception_5b/3x3_reduce
I0403 15:46:19.632550 16039 net.cpp:399] inception_5b/3x3 -> inception_5b/3x3
I0403 15:46:19.639549 16039 net.cpp:141] Setting up inception_5b/3x3
I0403 15:46:19.639580 16039 net.cpp:148] Top shape: 24 384 7 7 (451584)
I0403 15:46:19.639595 16039 net.cpp:156] Memory required for data: 1332467232
I0403 15:46:19.639621 16039 layer_factory.hpp:77] Creating layer inception_5b/relu_3x3
I0403 15:46:19.639642 16039 net.cpp:91] Creating Layer inception_5b/relu_3x3
I0403 15:46:19.639659 16039 net.cpp:425] inception_5b/relu_3x3 <- inception_5b/3x3
I0403 15:46:19.639677 16039 net.cpp:386] inception_5b/relu_3x3 -> inception_5b/3x3 (in-place)
I0403 15:46:19.639989 16039 net.cpp:141] Setting up inception_5b/relu_3x3
I0403 15:46:19.640017 16039 net.cpp:148] Top shape: 24 384 7 7 (451584)
I0403 15:46:19.640032 16039 net.cpp:156] Memory required for data: 1334273568
I0403 15:46:19.640046 16039 layer_factory.hpp:77] Creating layer inception_5b/5x5_reduce
I0403 15:46:19.640092 16039 net.cpp:91] Creating Layer inception_5b/5x5_reduce
I0403 15:46:19.640115 16039 net.cpp:425] inception_5b/5x5_reduce <- inception_5a/output_inception_5a/output_0_split_2
I0403 15:46:19.640135 16039 net.cpp:399] inception_5b/5x5_reduce -> inception_5b/5x5_reduce
I0403 15:46:19.641490 16039 net.cpp:141] Setting up inception_5b/5x5_reduce
I0403 15:46:19.641520 16039 net.cpp:148] Top shape: 24 48 7 7 (56448)
I0403 15:46:19.641536 16039 net.cpp:156] Memory required for data: 1334499360
I0403 15:46:19.641556 16039 layer_factory.hpp:77] Creating layer inception_5b/relu_5x5_reduce
I0403 15:46:19.641577 16039 net.cpp:91] Creating Layer inception_5b/relu_5x5_reduce
I0403 15:46:19.641610 16039 net.cpp:425] inception_5b/relu_5x5_reduce <- inception_5b/5x5_reduce
I0403 15:46:19.641629 16039 net.cpp:386] inception_5b/relu_5x5_reduce -> inception_5b/5x5_reduce (in-place)
I0403 15:46:19.642032 16039 net.cpp:141] Setting up inception_5b/relu_5x5_reduce
I0403 15:46:19.642060 16039 net.cpp:148] Top shape: 24 48 7 7 (56448)
I0403 15:46:19.642074 16039 net.cpp:156] Memory required for data: 1334725152
I0403 15:46:19.642088 16039 layer_factory.hpp:77] Creating layer inception_5b/5x5
I0403 15:46:19.642109 16039 net.cpp:91] Creating Layer inception_5b/5x5
I0403 15:46:19.642127 16039 net.cpp:425] inception_5b/5x5 <- inception_5b/5x5_reduce
I0403 15:46:19.642144 16039 net.cpp:399] inception_5b/5x5 -> inception_5b/5x5
I0403 15:46:19.644336 16039 net.cpp:141] Setting up inception_5b/5x5
I0403 15:46:19.644366 16039 net.cpp:148] Top shape: 24 128 7 7 (150528)
I0403 15:46:19.644381 16039 net.cpp:156] Memory required for data: 1335327264
I0403 15:46:19.644399 16039 layer_factory.hpp:77] Creating layer inception_5b/relu_5x5
I0403 15:46:19.644418 16039 net.cpp:91] Creating Layer inception_5b/relu_5x5
I0403 15:46:19.644433 16039 net.cpp:425] inception_5b/relu_5x5 <- inception_5b/5x5
I0403 15:46:19.644451 16039 net.cpp:386] inception_5b/relu_5x5 -> inception_5b/5x5 (in-place)
I0403 15:46:19.644665 16039 net.cpp:141] Setting up inception_5b/relu_5x5
I0403 15:46:19.644691 16039 net.cpp:148] Top shape: 24 128 7 7 (150528)
I0403 15:46:19.644706 16039 net.cpp:156] Memory required for data: 1335929376
I0403 15:46:19.644721 16039 layer_factory.hpp:77] Creating layer inception_5b/pool
I0403 15:46:19.644738 16039 net.cpp:91] Creating Layer inception_5b/pool
I0403 15:46:19.644753 16039 net.cpp:425] inception_5b/pool <- inception_5a/output_inception_5a/output_0_split_3
I0403 15:46:19.644774 16039 net.cpp:399] inception_5b/pool -> inception_5b/pool
I0403 15:46:19.644850 16039 net.cpp:141] Setting up inception_5b/pool
I0403 15:46:19.644872 16039 net.cpp:148] Top shape: 24 832 7 7 (978432)
I0403 15:46:19.644887 16039 net.cpp:156] Memory required for data: 1339843104
I0403 15:46:19.644901 16039 layer_factory.hpp:77] Creating layer inception_5b/pool_proj
I0403 15:46:19.644924 16039 net.cpp:91] Creating Layer inception_5b/pool_proj
I0403 15:46:19.644943 16039 net.cpp:425] inception_5b/pool_proj <- inception_5b/pool
I0403 15:46:19.644961 16039 net.cpp:399] inception_5b/pool_proj -> inception_5b/pool_proj
I0403 15:46:19.647337 16039 net.cpp:141] Setting up inception_5b/pool_proj
I0403 15:46:19.647366 16039 net.cpp:148] Top shape: 24 128 7 7 (150528)
I0403 15:46:19.647382 16039 net.cpp:156] Memory required for data: 1340445216
I0403 15:46:19.647399 16039 layer_factory.hpp:77] Creating layer inception_5b/relu_pool_proj
I0403 15:46:19.647421 16039 net.cpp:91] Creating Layer inception_5b/relu_pool_proj
I0403 15:46:19.647439 16039 net.cpp:425] inception_5b/relu_pool_proj <- inception_5b/pool_proj
I0403 15:46:19.647455 16039 net.cpp:386] inception_5b/relu_pool_proj -> inception_5b/pool_proj (in-place)
I0403 15:46:19.647764 16039 net.cpp:141] Setting up inception_5b/relu_pool_proj
I0403 15:46:19.647790 16039 net.cpp:148] Top shape: 24 128 7 7 (150528)
I0403 15:46:19.647809 16039 net.cpp:156] Memory required for data: 1341047328
I0403 15:46:19.647822 16039 layer_factory.hpp:77] Creating layer inception_5b/output
I0403 15:46:19.647840 16039 net.cpp:91] Creating Layer inception_5b/output
I0403 15:46:19.647871 16039 net.cpp:425] inception_5b/output <- inception_5b/1x1
I0403 15:46:19.647889 16039 net.cpp:425] inception_5b/output <- inception_5b/3x3
I0403 15:46:19.647905 16039 net.cpp:425] inception_5b/output <- inception_5b/5x5
I0403 15:46:19.647922 16039 net.cpp:425] inception_5b/output <- inception_5b/pool_proj
I0403 15:46:19.647938 16039 net.cpp:399] inception_5b/output -> inception_5b/output
I0403 15:46:19.647994 16039 net.cpp:141] Setting up inception_5b/output
I0403 15:46:19.648018 16039 net.cpp:148] Top shape: 24 1024 7 7 (1204224)
I0403 15:46:19.648032 16039 net.cpp:156] Memory required for data: 1345864224
I0403 15:46:19.648046 16039 layer_factory.hpp:77] Creating layer pool5/7x7_s1
I0403 15:46:19.648066 16039 net.cpp:91] Creating Layer pool5/7x7_s1
I0403 15:46:19.648082 16039 net.cpp:425] pool5/7x7_s1 <- inception_5b/output
I0403 15:46:19.648102 16039 net.cpp:399] pool5/7x7_s1 -> pool5/7x7_s1
I0403 15:46:19.648324 16039 net.cpp:141] Setting up pool5/7x7_s1
I0403 15:46:19.648350 16039 net.cpp:148] Top shape: 24 1024 1 1 (24576)
I0403 15:46:19.648365 16039 net.cpp:156] Memory required for data: 1345962528
I0403 15:46:19.648380 16039 layer_factory.hpp:77] Creating layer pool5/drop_7x7_s1
I0403 15:46:19.648397 16039 net.cpp:91] Creating Layer pool5/drop_7x7_s1
I0403 15:46:19.648413 16039 net.cpp:425] pool5/drop_7x7_s1 <- pool5/7x7_s1
I0403 15:46:19.648430 16039 net.cpp:386] pool5/drop_7x7_s1 -> pool5/7x7_s1 (in-place)
I0403 15:46:19.648481 16039 net.cpp:141] Setting up pool5/drop_7x7_s1
I0403 15:46:19.648504 16039 net.cpp:148] Top shape: 24 1024 1 1 (24576)
I0403 15:46:19.648519 16039 net.cpp:156] Memory required for data: 1346060832
I0403 15:46:19.648532 16039 layer_factory.hpp:77] Creating layer loss3/classifier_plantvillage
I0403 15:46:19.648553 16039 net.cpp:91] Creating Layer loss3/classifier_plantvillage
I0403 15:46:19.648571 16039 net.cpp:425] loss3/classifier_plantvillage <- pool5/7x7_s1
I0403 15:46:19.648588 16039 net.cpp:399] loss3/classifier_plantvillage -> loss3/classifier_plantvillage
I0403 15:46:19.649024 16039 net.cpp:141] Setting up loss3/classifier_plantvillage
I0403 15:46:19.649049 16039 net.cpp:148] Top shape: 24 38 (912)
I0403 15:46:19.649062 16039 net.cpp:156] Memory required for data: 1346064480
I0403 15:46:19.649080 16039 layer_factory.hpp:77] Creating layer loss3/classifier_plantvillage_loss3/classifier_plantvillage_0_split
I0403 15:46:19.649098 16039 net.cpp:91] Creating Layer loss3/classifier_plantvillage_loss3/classifier_plantvillage_0_split
I0403 15:46:19.649114 16039 net.cpp:425] loss3/classifier_plantvillage_loss3/classifier_plantvillage_0_split <- loss3/classifier_plantvillage
I0403 15:46:19.649135 16039 net.cpp:399] loss3/classifier_plantvillage_loss3/classifier_plantvillage_0_split -> loss3/classifier_plantvillage_loss3/classifier_plantvillage_0_split_0
I0403 15:46:19.649157 16039 net.cpp:399] loss3/classifier_plantvillage_loss3/classifier_plantvillage_0_split -> loss3/classifier_plantvillage_loss3/classifier_plantvillage_0_split_1
I0403 15:46:19.649178 16039 net.cpp:399] loss3/classifier_plantvillage_loss3/classifier_plantvillage_0_split -> loss3/classifier_plantvillage_loss3/classifier_plantvillage_0_split_2
I0403 15:46:19.649197 16039 net.cpp:399] loss3/classifier_plantvillage_loss3/classifier_plantvillage_0_split -> loss3/classifier_plantvillage_loss3/classifier_plantvillage_0_split_3
I0403 15:46:19.649302 16039 net.cpp:141] Setting up loss3/classifier_plantvillage_loss3/classifier_plantvillage_0_split
I0403 15:46:19.649327 16039 net.cpp:148] Top shape: 24 38 (912)
I0403 15:46:19.649343 16039 net.cpp:148] Top shape: 24 38 (912)
I0403 15:46:19.649358 16039 net.cpp:148] Top shape: 24 38 (912)
I0403 15:46:19.649372 16039 net.cpp:148] Top shape: 24 38 (912)
I0403 15:46:19.649385 16039 net.cpp:156] Memory required for data: 1346079072
I0403 15:46:19.649399 16039 layer_factory.hpp:77] Creating layer loss1/loss
I0403 15:46:19.649420 16039 net.cpp:91] Creating Layer loss1/loss
I0403 15:46:19.649435 16039 net.cpp:425] loss1/loss <- loss1/classifier_plantvillage_loss1/classifier_plantvillage_0_split_0
I0403 15:46:19.649467 16039 net.cpp:425] loss1/loss <- label_data_1_split_0
…
