…
I0403 16:22:00.654973 17899 net.cpp:313] The NetState phase (1) differed from the phase (0) specified by a rule in layer data
I0403 16:22:00.656406 17899 net.cpp:49] Initializing net from parameters: 
state {
  phase: TEST
}
layer {
  name: "data"
  type: "Data"
  top: "data"
  top: "label"
  include {
    phase: TEST
  }
  transform_param {
    mirror: false
    crop_size: 224
    mean_file: "/home/mohanty/data/final_dataset/lmdb/segmented-20-80/mean.binaryproto"
  }
  data_param {
    source: "/home/mohanty/data/final_dataset/lmdb/segmented-20-80/test_db"
    batch_size: 24
    backend: LMDB
  }
}
layer {
  name: "conv1/7x7_s2"
  type: "Convolution"
  bottom: "data"
  top: "conv1/7x7_s2"
  param {
    lr_mult: 1
    decay_mult: 1
  }
  param {
    lr_mult: 2
    decay_mult: 0
  }
  convolution_param {
    num_output: 64
    pad: 3
    kernel_size: 7
    stride: 2
    weight_filler {
      type: "xavier"
      std: 0.1
    }
    bias_filler {
      type: "constant"
      value: 0.2
    }
  }
}
layer {
  name: "conv1/relu_7x7"
  type: "ReLU"
  bottom: "conv1/7x7_s2"
  top: "conv1/7x7_s2"
}
layer {
  name: "pool1/3x3_s2"
  type: "Pooling"
  bottom: "conv1/7x7_s2"
  top: "pool1/3x3_s2"
  pooling_param {
    pool: MAX
    kernel_size: 3
    stride: 2
  }
}
layer {
  name: "pool1/norm1"
  type: "LRN"
  bottom: "pool1/3x3_s2"
  top: "pool1/norm1"
  lrn_param {
    local_size: 5
    alpha: 0.0001
    beta: 0.75
  }
}
layer {
  name: "conv2/3x3_reduce"
  type: "Convolution"
  bottom: "pool1/norm1"
  top: "conv2/3x3_reduce"
  param {
    lr_mult: 1
    decay_mult: 1
  }
  param {
    lr_mult: 2
    decay_mult: 0
  }
  convolution_param {
    num_output: 64
    kernel_size: 1
    weight_filler {
      type: "xavier"
      std: 0.1
    }
    bias_filler {
      type: "constant"
      value: 0.2
    }
  }
}
layer {
  name: "conv2/relu_3x3_reduce"
  type: "ReLU"
  bottom: "conv2/3x3_reduce"
  top: "conv2/3x3_reduce"
}
layer {
  name: "conv2/3x3"
  type: "Convolution"
  bottom: "conv2/3x3_reduce"
  top: "conv2/3x3"
  param {
    lr_mult: 1
    decay_mult: 1
  }
  param {
    lr_mult: 2
    decay_mult: 0
  }
  convolution_param {
    num_output: 192
    pad: 1
    kernel_size: 3
    weight_filler {
      type: "xavier"
      std: 0.03
    }
    bias_filler {
      type: "constant"
      value: 0.2
    }
  }
}
layer {
  name: "conv2/relu_3x3"
  type: "ReLU"
  bottom: "conv2/3x3"
  top: "conv2/3x3"
}
layer {
  name: "conv2/norm2"
  type: "LRN"
  bottom: "conv2/3x3"
  top: "conv2/norm2"
  lrn_param {
    local_size: 5
    alpha: 0.0001
    beta: 0.75
  }
}
layer {
  name: "pool2/3x3_s2"
  type: "Pooling"
  bottom: "conv2/norm2"
  top: "pool2/3x3_s2"
  pooling_param {
    pool: MAX
    kernel_size: 3
    stride: 2
  }
}
layer {
  name: "inception_3a/1x1"
  type: "Convolution"
  bottom: "pool2/3x3_s2"
  top: "inception_3a/1x1"
  param {
    lr_mult: 1
    decay_mult: 1
  }
  param {
    lr_mult: 2
    decay_mult: 0
  }
  convolution_param {
    num_output: 64
    kernel_size: 1
    weight_filler {
      type: "xavier"
      std: 0.03
    }
    bias_filler {
      type: "constant"
      value: 0.2
    }
  }
}
layer {
  name: "inception_3a/relu_1x1"
  type: "ReLU"
  bottom: "inception_3a/1x1"
  top: "inception_3a/1x1"
}
layer {
  name: "inception_3a/3x3_reduce"
  type: "Convolution"
  bottom: "pool2/3x3_s2"
  top: "inception_3a/3x3_reduce"
  param {
    lr_mult: 1
    decay_mult: 1
  }
  param {
    lr_mult: 2
    decay_mult: 0
  }
  convolution_param {
    num_output: 96
    kernel_size: 1
    weight_filler {
      type: "xavier"
      std: 0.09
    }
    bias_filler {
      type: "constant"
      value: 0.2
    }
  }
}
layer {
  name: "inception_3a/relu_3x3_reduce"
  type: "ReLU"
  bottom: "inception_3a/3x3_reduce"
  top: "inception_3a/3x3_reduce"
}
layer {
  name: "inception_3a/3x3"
  type: "Convolution"
  bottom: "inception_3a/3x3_reduce"
  top: "inception_3a/3x3"
  param {
    lr_mult: 1
    decay_mult: 1
  }
  param {
    lr_mult: 2
    decay_mult: 0
  }
  convolution_param {
    num_output: 128
    pad: 1
    kernel_size: 3
    weight_filler {
      type: "xavier"
      std: 0.03
    }
    bias_filler {
      type: "constant"
      value: 0.2
    }
  }
}
layer {
  name: "inception_3a/relu_3x3"
  type: "ReLU"
  bottom: "inception_3a/3x3"
  top: "inception_3a/3x3"
}
layer {
  name: "inception_3a/5x5_reduce"
  type: "Convolution"
  bottom: "pool2/3x3_s2"
  top: "inception_3a/5x5_reduce"
  param {
    lr_mult: 1
    decay_mult: 1
  }
  param {
    lr_mult: 2
    decay_mult: 0
  }
  convolution_param {
    num_output: 16
    kernel_size: 1
    weight_filler {
      type: "xavier"
      std: 0.2
    }
    bias_filler {
      type: "constant"
      value: 0.2
    }
  }
}
layer {
  name: "inception_3a/relu_5x5_reduce"
  type: "ReLU"
  bottom: "inception_3a/5x5_reduce"
  top: "inception_3a/5x5_reduce"
}
layer {
  name: "inception_3a/5x5"
  type: "Convolution"
  bottom: "inception_3a/5x5_reduce"
  top: "inception_3a/5x5"
  param {
    lr_mult: 1
    decay_mult: 1
  }
  param {
    lr_mult: 2
    decay_mult: 0
  }
  convolution_param {
    num_output: 32
    pad: 2
    kernel_size: 5
    weight_filler {
      type: "xavier"
      std: 0.03
    }
    bias_filler {
      type: "constant"
      value: 0.2
    }
  }
}
layer {
  name: "inception_3a/relu_5x5"
  type: "ReLU"
  bottom: "inception_3a/5x5"
  top: "inception_3a/5x5"
}
layer {
  name: "inception_3a/pool"
  type: "Pooling"
  bottom: "pool2/3x3_s2"
  top: "inception_3a/pool"
  pooling_param {
    pool: MAX
    kernel_size: 3
    stride: 1
    pad: 1
  }
}
layer {
  name: "inception_3a/pool_proj"
  type: "Convolution"
  bottom: "inception_3a/pool"
  top: "inception_3a/pool_proj"
  param {
    lr_mult: 1
    decay_mult: 1
  }
  param {
    lr_mult: 2
    decay_mult: 0
  }
  convolution_param {
    num_output: 32
    kernel_size: 1
    weight_filler {
      type: "xavier"
      std: 0.1
    }
    bias_filler {
      type: "constant"
      value: 0.2
    }
  }
}
layer {
  name: "inception_3a/relu_pool_proj"
  type: "ReLU"
  bottom: "inception_3a/pool_proj"
  top: "inception_3a/pool_proj"
}
layer {
  name: "inception_3a/output"
  type: "Concat"
  bottom: "inception_3a/1x1"
  bottom: "inception_3a/3x3"
  bottom: "inception_3a/5x5"
  bottom: "inception_3a/pool_proj"
  top: "inception_3a/output"
}
layer {
  name: "inception_3b/1x1"
  type: "Convolution"
  bottom: "inception_3a/output"
  top: "inception_3b/1x1"
  param {
    lr_mult: 1
    decay_mult: 1
  }
  param {
    lr_mult: 2
    decay_mult: 0
  }
  convolution_param {
    num_output: 128
    kernel_size: 1
    weight_filler {
      type: "xavier"
      std: 0.03
    }
    bias_filler {
      type: "constant"
      value: 0.2
    }
  }
}
layer {
  name: "inception_3b/relu_1x1"
  type: "ReLU"
  bottom: "inception_3b/1x1"
  top: "inception_3b/1x1"
}
layer {
  name: "inception_3b/3x3_reduce"
  type: "Convolution"
  bottom: "inception_3a/output"
  top: "inception_3b/3x3_reduce"
  param {
    lr_mult: 1
    decay_mult: 1
  }
  param {
    lr_mult: 2
    decay_mult: 0
  }
  convolution_param {
    num_output: 128
    kernel_size: 1
    weight_filler {
      type: "xavier"
      std: 0.09
    }
    bias_filler {
      type: "constant"
      value: 0.2
    }
  }
}
layer {
  name: "inception_3b/relu_3x3_reduce"
  type: "ReLU"
  bottom: "inception_3b/3x3_reduce"
  top: "inception_3b/3x3_reduce"
}
layer {
  name: "inception_3b/3x3"
  type: "Convolution"
  bottom: "inception_3b/3x3_reduce"
  top: "inception_3b/3x3"
  param {
    lr_mult: 1
    decay_mult: 1
  }
  param {
    lr_mult: 2
    decay_mult: 0
  }
  convolution_param {
    num_output: 192
    pad: 1
    kernel_size: 3
    weight_filler {
      type: "xavier"
      std: 0.03
    }
    bias_filler {
      type: "constant"
      value: 0.2
    }
  }
}
layer {
  name: "inception_3b/relu_3x3"
  type: "ReLU"
  bottom: "inception_3b/3x3"
  top: "inception_3b/3x3"
}
layer {
  name: "inception_3b/5x5_reduce"
  type: "Convolution"
  bottom: "inception_3a/output"
  top: "inception_3b/5x5_reduce"
  param {
    lr_mult: 1
    decay_mult: 1
  }
  param {
    lr_mult: 2
    decay_mult: 0
  }
  convolution_param {
    num_output: 32
    kernel_size: 1
    weight_filler {
      type: "xavier"
      std: 0.2
    }
    bias_filler {
      type: "constant"
      value: 0.2
    }
  }
}
layer {
  name: "inception_3b/relu_5x5_reduce"
  type: "ReLU"
  bottom: "inception_3b/5x5_reduce"
  top: "inception_3b/5x5_reduce"
}
layer {
  name: "inception_3b/5x5"
  type: "Convolution"
  bottom: "inception_3b/5x5_reduce"
  top: "inception_3b/5x5"
  param {
    lr_mult: 1
    decay_mult: 1
  }
  param {
    lr_mult: 2
    decay_mult: 0
  }
  convolution_param {
    num_output: 96
    pad: 2
    kernel_size: 5
    weight_filler {
      type: "xavier"
      std: 0.03
    }
    bias_filler {
      type: "constant"
      value: 0.2
    }
  }
}
layer {
  name: "inception_3b/relu_5x5"
  type: "ReLU"
  bottom: "inception_3b/5x5"
  top: "inception_3b/5x5"
}
layer {
  name: "inception_3b/pool"
  type: "Pooling"
  bottom: "inception_3a/output"
  top: "inception_3b/pool"
  pooling_param {
    pool: MAX
    kernel_size: 3
    stride: 1
    pad: 1
  }
}
layer {
  name: "inception_3b/pool_proj"
  type: "Convolution"
  bottom: "inception_3b/pool"
  top: "inception_3b/pool_proj"
  param {
    lr_mult: 1
    decay_mult: 1
  }
  param {
    lr_mult: 2
    decay_mult: 0
  }
  convolution_param {
    num_output: 64
    kernel_size: 1
    weight_filler {
      type: "xavier"
      std: 0.1
    }
    bias_filler {
      type: "constant"
      value: 0.2
    }
  }
}
layer {
  name: "inception_3b/relu_pool_proj"
  type: "ReLU"
  bottom: "inception_3b/pool_proj"
  top: "inception_3b/pool_proj"
}
layer {
  name: "inception_3b/output"
  type: "Concat"
  bottom: "inception_3b/1x1"
  bottom: "inception_3b/3x3"
  bottom: "inception_3b/5x5"
  bottom: "inception_3b/pool_proj"
  top: "inception_3b/output"
}
layer {
  name: "pool3/3x3_s2"
  type: "Pooling"
  bottom: "inception_3b/output"
  top: "pool3/3x3_s2"
  pooling_param {
    pool: MAX
    kernel_size: 3
    stride: 2
  }
}
layer {
  name: "inception_4a/1x1"
  type: "Convolution"
  bottom: "pool3/3x3_s2"
  top: "inception_4a/1x1"
  param {
    lr_mult: 1
    decay_mult: 1
  }
  param {
    lr_mult: 2
    decay_mult: 0
  }
  convolution_param {
    num_output: 192
    kernel_size: 1
    weight_filler {
      type: "xavier"
      std: 0.03
    }
    bias_filler {
      type: "constant"
      value: 0.2
    }
  }
}
layer {
  name: "inception_4a/relu_1x1"
  type: "ReLU"
  bottom: "inception_4a/1x1"
  top: "inception_4a/1x1"
}
layer {
  name: "inception_4a/3x3_reduce"
  type: "Convolution"
  bottom: "pool3/3x3_s2"
  top: "inception_4a/3x3_reduce"
  param {
    lr_mult: 1
    decay_mult: 1
  }
  param {
    lr_mult: 2
    decay_mult: 0
  }
  convolution_param {
    num_output: 96
    kernel_size: 1
    weight_filler {
      type: "xavier"
      std: 0.09
    }
    bias_filler {
      type: "constant"
      value: 0.2
    }
  }
}
layer {
  name: "inception_4a/relu_3x3_reduce"
  type: "ReLU"
  bottom: "inception_4a/3x3_reduce"
  top: "inception_4a/3x3_reduce"
}
layer {
  name: "inception_4a/3x3"
  type: "Convolution"
  bottom: "inception_4a/3x3_reduce"
  top: "inception_4a/3x3"
  param {
    lr_mult: 1
    decay_mult: 1
  }
  param {
    lr_mult: 2
    decay_mult: 0
  }
  convolution_param {
    num_output: 208
    pad: 1
    kernel_size: 3
    weight_filler {
      type: "xavier"
      std: 0.03
    }
    bias_filler {
      type: "constant"
      value: 0.2
    }
  }
}
layer {
  name: "inception_4a/relu_3x3"
  type: "ReLU"
  bottom: "inception_4a/3x3"
  top: "inception_4a/3x3"
}
layer {
  name: "inception_4a/5x5_reduce"
  type: "Convolution"
  bottom: "pool3/3x3_s2"
  top: "inception_4a/5x5_reduce"
  param {
    lr_mult: 1
    decay_mult: 1
  }
  param {
    lr_mult: 2
    decay_mult: 0
  }
  convolution_param {
    num_output: 16
    kernel_size: 1
    weight_filler {
      type: "xavier"
      std: 0.2
    }
    bias_filler {
      type: "constant"
      value: 0.2
    }
  }
}
layer {
  name: "inception_4a/relu_5x5_reduce"
  type: "ReLU"
  bottom: "inception_4a/5x5_reduce"
  top: "inception_4a/5x5_reduce"
}
layer {
  name: "inception_4a/5x5"
  type: "Convolution"
  bottom: "inception_4a/5x5_reduce"
  top: "inception_4a/5x5"
  param {
    lr_mult: 1
    decay_mult: 1
  }
  param {
    lr_mult: 2
    decay_mult: 0
  }
  convolution_param {
    num_output: 48
    pad: 2
    kernel_size: 5
    weight_filler {
      type: "xavier"
      std: 0.03
    }
    bias_filler {
      type: "constant"
      value: 0.2
    }
  }
}
layer {
  name: "inception_4a/relu_5x5"
  type: "ReLU"
  bottom: "inception_4a/5x5"
  top: "inception_4a/5x5"
}
layer {
  name: "inception_4a/pool"
  type: "Pooling"
  bottom: "pool3/3x3_s2"
  top: "inception_4a/pool"
  pooling_param {
    pool: MAX
    kernel_size: 3
    stride: 1
    pad: 1
  }
}
layer {
  name: "inception_4a/pool_proj"
  type: "Convolution"
  bottom: "inception_4a/pool"
  top: "inception_4a/pool_proj"
  param {
    lr_mult: 1
    decay_mult: 1
  }
  param {
    lr_mult: 2
    decay_mult: 0
  }
  convolution_param {
    num_output: 64
    kernel_size: 1
    weight_filler {
      type: "xavier"
      std: 0.1
    }
    bias_filler {
      type: "constant"
      value: 0.2
    }
  }
}
layer {
  name: "inception_4a/relu_pool_proj"
  type: "ReLU"
  bottom: "inception_4a/pool_proj"
  top: "inception_4a/pool_proj"
}
layer {
  name: "inception_4a/output"
  type: "Concat"
  bottom: "inception_4a/1x1"
  bottom: "inception_4a/3x3"
  bottom: "inception_4a/5x5"
  bottom: "inception_4a/pool_proj"
  top: "inception_4a/output"
}
layer {
  name: "loss1/ave_pool"
  type: "Pooling"
  bottom: "inception_4a/output"
  top: "loss1/ave_pool"
  pooling_param {
    pool: AVE
    kernel_size: 5
    stride: 3
  }
}
layer {
  name: "loss1/conv"
  type: "Convolution"
  bottom: "loss1/ave_pool"
  top: "loss1/conv"
  param {
    lr_mult: 1
    decay_mult: 1
  }
  param {
    lr_mult: 2
    decay_mult: 0
  }
  convolution_param {
    num_output: 128
    kernel_size: 1
    weight_filler {
      type: "xavier"
      std: 0.08
    }
    bias_filler {
      type: "constant"
      value: 0.2
    }
  }
}
layer {
  name: "loss1/relu_conv"
  type: "ReLU"
  bottom: "loss1/conv"
  top: "loss1/conv"
}
layer {
  name: "loss1/fc"
  type: "InnerProduct"
  bottom: "loss1/conv"
  top: "loss1/fc"
  param {
    lr_mult: 1
    decay_mult: 1
  }
  param {
    lr_mult: 2
    decay_mult: 0
  }
  inner_product_param {
    num_output: 1024
    weight_filler {
      type: "xavier"
      std: 0.02
    }
    bias_filler {
      type: "constant"
      value: 0.2
    }
  }
}
layer {
  name: "loss1/relu_fc"
  type: "ReLU"
  bottom: "loss1/fc"
  top: "loss1/fc"
}
layer {
  name: "loss1/drop_fc"
  type: "Dropout"
  bottom: "loss1/fc"
  top: "loss1/fc"
  dropout_param {
    dropout_ratio: 0.7
  }
}
layer {
  name: "loss1/classifier_plantvillage"
  type: "InnerProduct"
  bottom: "loss1/fc"
  top: "loss1/classifier_plantvillage"
  param {
    lr_mult: 1
    decay_mult: 1
  }
  param {
    lr_mult: 2
    decay_mult: 0
  }
  inner_product_param {
    num_output: 38
    weight_filler {
      type: "xavier"
      std: 0.0009765625
    }
    bias_filler {
      type: "constant"
      value: 0
    }
  }
}
layer {
  name: "inception_4b/1x1"
  type: "Convolution"
  bottom: "inception_4a/output"
  top: "inception_4b/1x1"
  param {
    lr_mult: 1
    decay_mult: 1
  }
  param {
    lr_mult: 2
    decay_mult: 0
  }
  convolution_param {
    num_output: 160
    kernel_size: 1
    weight_filler {
      type: "xavier"
      std: 0.03
    }
    bias_filler {
      type: "constant"
      value: 0.2
    }
  }
}
layer {
  name: "inception_4b/relu_1x1"
  type: "ReLU"
  bottom: "inception_4b/1x1"
  top: "inception_4b/1x1"
}
layer {
  name: "inception_4b/3x3_reduce"
  type: "Convolution"
  bottom: "inception_4a/output"
  top: "inception_4b/3x3_reduce"
  param {
    lr_mult: 1
    decay_mult: 1
  }
  param {
    lr_mult: 2
    decay_mult: 0
  }
  convolution_param {
    num_output: 112
    kernel_size: 1
    weight_filler {
      type: "xavier"
      std: 0.09
    }
    bias_filler {
      type: "constant"
      value: 0.2
    }
  }
}
layer {
  name: "inception_4b/relu_3x3_reduce"
  type: "ReLU"
  bottom: "inception_4b/3x3_reduce"
  top: "inception_4b/3x3_reduce"
}
layer {
  name: "inception_4b/3x3"
  type: "Convolution"
  bottom: "inception_4b/3x3_reduce"
  top: "inception_4b/3x3"
  param {
    lr_mult: 1
    decay_mult: 1
  }
  param {
    lr_mult: 2
    decay_mult: 0
  }
  convolution_param {
    num_output: 224
    pad: 1
    kernel_size: 3
    weight_filler {
      type: "xavier"
      std: 0.03
    }
    bias_filler {
      type: "constant"
      value: 0.2
    }
  }
}
layer {
  name: "inception_4b/relu_3x3"
  type: "ReLU"
  bottom: "inception_4b/3x3"
  top: "inception_4b/3x3"
}
layer {
  name: "inception_4b/5x5_reduce"
  type: "Convolution"
  bottom: "inception_4a/output"
  top: "inception_4b/5x5_reduce"
  param {
    lr_mult: 1
    decay_mult: 1
  }
  param {
    lr_mult: 2
    decay_mult: 0
  }
  convolution_param {
    num_output: 24
    kernel_size: 1
    weight_filler {
      type: "xavier"
      std: 0.2
    }
    bias_filler {
      type: "constant"
      value: 0.2
    }
  }
}
layer {
  name: "inception_4b/relu_5x5_reduce"
  type: "ReLU"
  bottom: "inception_4b/5x5_reduce"
  top: "inception_4b/5x5_reduce"
}
layer {
  name: "inception_4b/5x5"
  type: "Convolution"
  bottom: "inception_4b/5x5_reduce"
  top: "inception_4b/5x5"
  param {
    lr_mult: 1
    decay_mult: 1
  }
  param {
    lr_mult: 2
    decay_mult: 0
  }
  convolution_param {
    num_output: 64
    pad: 2
    kernel_size: 5
    weight_filler {
      type: "xavier"
      std: 0.03
    }
    bias_filler {
      type: "constant"
      value: 0.2
    }
  }
}
layer {
  name: "inception_4b/relu_5x5"
  type: "ReLU"
  bottom: "inception_4b/5x5"
  top: "inception_4b/5x5"
}
layer {
  name: "inception_4b/pool"
  type: "Pooling"
  bottom: "inception_4a/output"
  top: "inception_4b/pool"
  pooling_param {
    pool: MAX
    kernel_size: 3
    stride: 1
    pad: 1
  }
}
layer {
  name: "inception_4b/pool_proj"
  type: "Convolution"
  bottom: "inception_4b/pool"
  top: "inception_4b/pool_proj"
  param {
    lr_mult: 1
    decay_mult: 1
  }
  param {
    lr_mult: 2
    decay_mult: 0
  }
  convolution_param {
    num_output: 64
    kernel_size: 1
    weight_filler {
      type: "xavier"
      std: 0.1
    }
    bias_filler {
      type: "constant"
      value: 0.2
    }
  }
}
layer {
  name: "inception_4b/relu_pool_proj"
  type: "ReLU"
  bottom: "inception_4b/pool_proj"
  top: "inception_4b/pool_proj"
}
layer {
  name: "inception_4b/output"
  type: "Concat"
  bottom: "inception_4b/1x1"
  bottom: "inception_4b/3x3"
  bottom: "inception_4b/5x5"
  bottom: "inception_4b/pool_proj"
  top: "inception_4b/output"
}
layer {
  name: "inception_4c/1x1"
  type: "Convolution"
  bottom: "inception_4b/output"
  top: "inception_4c/1x1"
  param {
    lr_mult: 1
    decay_mult: 1
  }
  param {
    lr_mult: 2
    decay_mult: 0
  }
  convolution_param {
    num_output: 128
    kernel_size: 1
    weight_filler {
      type: "xavier"
      std: 0.03
    }
    bias_filler {
      type: "constant"
      value: 0.2
    }
  }
}
layer {
  name: "inception_4c/relu_1x1"
  type: "ReLU"
  bottom: "inception_4c/1x1"
  top: "inception_4c/1x1"
}
layer {
  name: "inception_4c/3x3_reduce"
  type: "Convolution"
  bottom: "inception_4b/output"
  top: "inception_4c/3x3_reduce"
  param {
    lr_mult: 1
    decay_mult: 1
  }
  param {
    lr_mult: 2
    decay_mult: 0
  }
  convolution_param {
    num_output: 128
    kernel_size: 1
    weight_filler {
      type: "xavier"
      std: 0.09
    }
    bias_filler {
      type: "constant"
      value: 0.2
    }
  }
}
layer {
  name: "inception_4c/relu_3x3_reduce"
  type: "ReLU"
  bottom: "inception_4c/3x3_reduce"
  top: "inception_4c/3x3_reduce"
}
layer {
  name: "inception_4c/3x3"
  type: "Convolution"
  bottom: "inception_4c/3x3_reduce"
  top: "inception_4c/3x3"
  param {
    lr_mult: 1
    decay_mult: 1
  }
  param {
    lr_mult: 2
    decay_mult: 0
  }
  convolution_param {
    num_output: 256
    pad: 1
    kernel_size: 3
    weight_filler {
      type: "xavier"
      std: 0.03
    }
    bias_filler {
      type: "constant"
      value: 0.2
    }
  }
}
layer {
  name: "inception_4c/relu_3x3"
  type: "ReLU"
  bottom: "inception_4c/3x3"
  top: "inception_4c/3x3"
}
layer {
  name: "inception_4c/5x5_reduce"
  type: "Convolution"
  bottom: "inception_4b/output"
  top: "inception_4c/5x5_reduce"
  param {
    lr_mult: 1
    decay_mult: 1
  }
  param {
    lr_mult: 2
    decay_mult: 0
  }
  convolution_param {
    num_output: 24
    kernel_size: 1
    weight_filler {
      type: "xavier"
      std: 0.2
    }
    bias_filler {
      type: "constant"
      value: 0.2
    }
  }
}
layer {
  name: "inception_4c/relu_5x5_reduce"
  type: "ReLU"
  bottom: "inception_4c/5x5_reduce"
  top: "inception_4c/5x5_reduce"
}
layer {
  name: "inception_4c/5x5"
  type: "Convolution"
  bottom: "inception_4c/5x5_reduce"
  top: "inception_4c/5x5"
  param {
    lr_mult: 1
    decay_mult: 1
  }
  param {
    lr_mult: 2
    decay_mult: 0
  }
  convolution_param {
    num_output: 64
    pad: 2
    kernel_size: 5
    weight_filler {
      type: "xavier"
      std: 0.03
    }
    bias_filler {
      type: "constant"
      value: 0.2
    }
  }
}
layer {
  name: "inception_4c/relu_5x5"
  type: "ReLU"
  bottom: "inception_4c/5x5"
  top: "inception_4c/5x5"
}
layer {
  name: "inception_4c/pool"
  type: "Pooling"
  bottom: "inception_4b/output"
  top: "inception_4c/pool"
  pooling_param {
    pool: MAX
    kernel_size: 3
    stride: 1
    pad: 1
  }
}
layer {
  name: "inception_4c/pool_proj"
  type: "Convolution"
  bottom: "inception_4c/pool"
  top: "inception_4c/pool_proj"
  param {
    lr_mult: 1
    decay_mult: 1
  }
  param {
    lr_mult: 2
    decay_mult: 0
  }
  convolution_param {
    num_output: 64
    kernel_size: 1
    weight_filler {
      type: "xavier"
      std: 0.1
    }
    bias_filler {
      type: "constant"
      value: 0.2
    }
  }
}
layer {
  name: "inception_4c/relu_pool_proj"
  type: "ReLU"
  bottom: "inception_4c/pool_proj"
  top: "inception_4c/pool_proj"
}
layer {
  name: "inception_4c/output"
  type: "Concat"
  bottom: "inception_4c/1x1"
  bottom: "inception_4c/3x3"
  bottom: "inception_4c/5x5"
  bottom: "inception_4c/pool_proj"
  top: "inception_4c/output"
}
layer {
  name: "inception_4d/1x1"
  type: "Convolution"
  bottom: "inception_4c/output"
  top: "inception_4d/1x1"
  param {
    lr_mult: 1
    decay_mult: 1
  }
  param {
    lr_mult: 2
    decay_mult: 0
  }
  convolution_param {
    num_output: 112
    kernel_size: 1
    weight_filler {
      type: "xavier"
      std: 0.03
    }
    bias_filler {
      type: "constant"
      value: 0.2
    }
  }
}
layer {
  name: "inception_4d/relu_1x1"
  type: "ReLU"
  bottom: "inception_4d/1x1"
  top: "inception_4d/1x1"
}
layer {
  name: "inception_4d/3x3_reduce"
  type: "Convolution"
  bottom: "inception_4c/output"
  top: "inception_4d/3x3_reduce"
  param {
    lr_mult: 1
    decay_mult: 1
  }
  param {
    lr_mult: 2
    decay_mult: 0
  }
  convolution_param {
    num_output: 144
    kernel_size: 1
    weight_filler {
      type: "xavier"
      std: 0.09
    }
    bias_filler {
      type: "constant"
      value: 0.2
    }
  }
}
layer {
  name: "inception_4d/relu_3x3_reduce"
  type: "ReLU"
  bottom: "inception_4d/3x3_reduce"
  top: "inception_4d/3x3_reduce"
}
layer {
  name: "inception_4d/3x3"
  type: "Convolution"
  bottom: "inception_4d/3x3_reduce"
  top: "inception_4d/3x3"
  param {
    lr_mult: 1
    decay_mult: 1
  }
  param {
    lr_mult: 2
    decay_mult: 0
  }
  convolution_param {
    num_output: 288
    pad: 1
    kernel_size: 3
    weight_filler {
      type: "xavier"
      std: 0.03
    }
    bias_filler {
      type: "constant"
      value: 0.2
    }
  }
}
layer {
  name: "inception_4d/relu_3x3"
  type: "ReLU"
  bottom: "inception_4d/3x3"
  top: "inception_4d/3x3"
}
layer {
  name: "inception_4d/5x5_reduce"
  type: "Convolution"
  bottom: "inception_4c/output"
  top: "inception_4d/5x5_reduce"
  param {
    lr_mult: 1
    decay_mult: 1
  }
  param {
    lr_mult: 2
    decay_mult: 0
  }
  convolution_param {
    num_output: 32
    kernel_size: 1
    weight_filler {
      type: "xavier"
      std: 0.2
    }
    bias_filler {
      type: "constant"
      value: 0.2
    }
  }
}
layer {
  name: "inception_4d/relu_5x5_reduce"
  type: "ReLU"
  bottom: "inception_4d/5x5_reduce"
  top: "inception_4d/5x5_reduce"
}
layer {
  name: "inception_4d/5x5"
  type: "Convolution"
  bottom: "inception_4d/5x5_reduce"
  top: "inception_4d/5x5"
  param {
    lr_mult: 1
    decay_mult: 1
  }
  param {
    lr_mult: 2
    decay_mult: 0
  }
  convolution_param {
    num_output: 64
    pad: 2
    kernel_size: 5
    weight_filler {
      type: "xavier"
      std: 0.03
    }
    bias_filler {
      type: "constant"
      value: 0.2
    }
  }
}
layer {
  name: "inception_4d/relu_5x5"
  type: "ReLU"
  bottom: "inception_4d/5x5"
  top: "inception_4d/5x5"
}
layer {
  name: "inception_4d/pool"
  type: "Pooling"
  bottom: "inception_4c/output"
  top: "inception_4d/pool"
  pooling_param {
    pool: MAX
    kernel_size: 3
    stride: 1
    pad: 1
  }
}
layer {
  name: "inception_4d/pool_proj"
  type: "Convolution"
  bottom: "inception_4d/pool"
  top: "inception_4d/pool_proj"
  param {
    lr_mult: 1
    decay_mult: 1
  }
  param {
    lr_mult: 2
    decay_mult: 0
  }
  convolution_param {
    num_output: 64
    kernel_size: 1
    weight_filler {
      type: "xavier"
      std: 0.1
    }
    bias_filler {
      type: "constant"
      value: 0.2
    }
  }
}
layer {
  name: "inception_4d/relu_pool_proj"
  type: "ReLU"
  bottom: "inception_4d/pool_proj"
  top: "inception_4d/pool_proj"
}
layer {
  name: "inception_4d/output"
  type: "Concat"
  bottom: "inception_4d/1x1"
  bottom: "inception_4d/3x3"
  bottom: "inception_4d/5x5"
  bottom: "inception_4d/pool_proj"
  top: "inception_4d/output"
}
layer {
  name: "loss2/ave_pool"
  type: "Pooling"
  bottom: "inception_4d/output"
  top: "loss2/ave_pool"
  pooling_param {
    pool: AVE
    kernel_size: 5
    stride: 3
  }
}
layer {
  name: "loss2/conv"
  type: "Convolution"
  bottom: "loss2/ave_pool"
  top: "loss2/conv"
  param {
    lr_mult: 1
    decay_mult: 1
  }
  param {
    lr_mult: 2
    decay_mult: 0
  }
  convolution_param {
    num_output: 128
    kernel_size: 1
    weight_filler {
      type: "xavier"
      std: 0.08
    }
    bias_filler {
      type: "constant"
      value: 0.2
    }
  }
}
layer {
  name: "loss2/relu_conv"
  type: "ReLU"
  bottom: "loss2/conv"
  top: "loss2/conv"
}
layer {
  name: "loss2/fc"
  type: "InnerProduct"
  bottom: "loss2/conv"
  top: "loss2/fc"
  param {
    lr_mult: 1
    decay_mult: 1
  }
  param {
    lr_mult: 2
    decay_mult: 0
  }
  inner_product_param {
    num_output: 1024
    weight_filler {
      type: "xavier"
      std: 0.02
    }
    bias_filler {
      type: "constant"
      value: 0.2
    }
  }
}
layer {
  name: "loss2/relu_fc"
  type: "ReLU"
  bottom: "loss2/fc"
  top: "loss2/fc"
}
layer {
  name: "loss2/drop_fc"
  type: "Dropout"
  bottom: "loss2/fc"
  top: "loss2/fc"
  dropout_param {
    dropout_ratio: 0.7
  }
}
layer {
  name: "loss2/classifier_plantvillage"
  type: "InnerProduct"
  bottom: "loss2/fc"
  top: "loss2/classifier_plantvillage"
  param {
    lr_mult: 1
    decay_mult: 1
  }
  param {
    lr_mult: 2
    decay_mult: 0
  }
  inner_product_param {
    num_output: 38
    weight_filler {
      type: "xavier"
      std: 0.0009765625
    }
    bias_filler {
      type: "constant"
      value: 0
    }
  }
}
layer {
  name: "inception_4e/1x1"
  type: "Convolution"
  bottom: "inception_4d/output"
  top: "inception_4e/1x1"
  param {
    lr_mult: 1
    decay_mult: 1
  }
  param {
    lr_mult: 2
    decay_mult: 0
  }
  convolution_param {
    num_output: 256
    kernel_size: 1
    weight_filler {
      type: "xavier"
      std: 0.03
    }
    bias_filler {
      type: "constant"
      value: 0.2
    }
  }
}
layer {
  name: "inception_4e/relu_1x1"
  type: "ReLU"
  bottom: "inception_4e/1x1"
  top: "inception_4e/1x1"
}
layer {
  name: "inception_4e/3x3_reduce"
  type: "Convolution"
  bottom: "inception_4d/output"
  top: "inception_4e/3x3_reduce"
  param {
    lr_mult: 1
    decay_mult: 1
  }
  param {
    lr_mult: 2
    decay_mult: 0
  }
  convolution_param {
    num_output: 160
    kernel_size: 1
    weight_filler {
      type: "xavier"
      std: 0.09
    }
    bias_filler {
      type: "constant"
      value: 0.2
    }
  }
}
layer {
  name: "inception_4e/relu_3x3_reduce"
  type: "ReLU"
  bottom: "inception_4e/3x3_reduce"
  top: "inception_4e/3x3_reduce"
}
layer {
  name: "inception_4e/3x3"
  type: "Convolution"
  bottom: "inception_4e/3x3_reduce"
  top: "inception_4e/3x3"
  param {
    lr_mult: 1
    decay_mult: 1
  }
  param {
    lr_mult: 2
    decay_mult: 0
  }
  convolution_param {
    num_output: 320
    pad: 1
    kernel_size: 3
    weight_filler {
      type: "xavier"
      std: 0.03
    }
    bias_filler {
      type: "constant"
      value: 0.2
    }
  }
}
layer {
  name: "inception_4e/relu_3x3"
  type: "ReLU"
  bottom: "inception_4e/3x3"
  top: "inception_4e/3x3"
}
layer {
  name: "inception_4e/5x5_reduce"
  type: "Convolution"
  bottom: "inception_4d/output"
  top: "inception_4e/5x5_reduce"
  param {
    lr_mult: 1
    decay_mult: 1
  }
  param {
    lr_mult: 2
    decay_mult: 0
  }
  convolution_param {
    num_output: 32
    kernel_size: 1
    weight_filler {
      type: "xavier"
      std: 0.2
    }
    bias_filler {
      type: "constant"
      value: 0.2
    }
  }
}
layer {
  name: "inception_4e/relu_5x5_reduce"
  type: "ReLU"
  bottom: "inception_4e/5x5_reduce"
  top: "inception_4e/5x5_reduce"
}
layer {
  name: "inception_4e/5x5"
  type: "Convolution"
  bottom: "inception_4e/5x5_reduce"
  top: "inception_4e/
I0403 16:22:00.658118 17899 layer_factory.hpp:77] Creating layer data
I0403 16:22:00.658855 17899 net.cpp:91] Creating Layer data
I0403 16:22:00.658895 17899 net.cpp:399] data -> data
I0403 16:22:00.658957 17899 net.cpp:399] data -> label
I0403 16:22:00.659000 17899 data_transformer.cpp:25] Loading mean file from: /home/mohanty/data/final_dataset/lmdb/segmented-20-80/mean.binaryproto
I0403 16:22:00.660418 17901 db_lmdb.cpp:38] Opened lmdb /home/mohanty/data/final_dataset/lmdb/segmented-20-80/test_db
I0403 16:22:00.674720 17899 data_layer.cpp:41] output data size: 24,3,224,224
I0403 16:22:00.706892 17899 net.cpp:141] Setting up data
I0403 16:22:00.706984 17899 net.cpp:148] Top shape: 24 3 224 224 (3612672)
I0403 16:22:00.707013 17899 net.cpp:148] Top shape: 24 (24)
I0403 16:22:00.707031 17899 net.cpp:156] Memory required for data: 14450784
I0403 16:22:00.707065 17899 layer_factory.hpp:77] Creating layer label_data_1_split
I0403 16:22:00.707099 17899 net.cpp:91] Creating Layer label_data_1_split
I0403 16:22:00.707120 17899 net.cpp:425] label_data_1_split <- label
I0403 16:22:00.707159 17899 net.cpp:399] label_data_1_split -> label_data_1_split_0
I0403 16:22:00.707193 17899 net.cpp:399] label_data_1_split -> label_data_1_split_1
I0403 16:22:00.707218 17899 net.cpp:399] label_data_1_split -> label_data_1_split_2
I0403 16:22:00.707245 17899 net.cpp:399] label_data_1_split -> label_data_1_split_3
I0403 16:22:00.707270 17899 net.cpp:399] label_data_1_split -> label_data_1_split_4
I0403 16:22:00.707295 17899 net.cpp:399] label_data_1_split -> label_data_1_split_5
I0403 16:22:00.707319 17899 net.cpp:399] label_data_1_split -> label_data_1_split_6
I0403 16:22:00.707343 17899 net.cpp:399] label_data_1_split -> label_data_1_split_7
I0403 16:22:00.707366 17899 net.cpp:399] label_data_1_split -> label_data_1_split_8
I0403 16:22:00.707389 17899 net.cpp:399] label_data_1_split -> label_data_1_split_9
I0403 16:22:00.707530 17899 net.cpp:141] Setting up label_data_1_split
I0403 16:22:00.707559 17899 net.cpp:148] Top shape: 24 (24)
I0403 16:22:00.707587 17899 net.cpp:148] Top shape: 24 (24)
I0403 16:22:00.707607 17899 net.cpp:148] Top shape: 24 (24)
I0403 16:22:00.707626 17899 net.cpp:148] Top shape: 24 (24)
I0403 16:22:00.707644 17899 net.cpp:148] Top shape: 24 (24)
I0403 16:22:00.707662 17899 net.cpp:148] Top shape: 24 (24)
I0403 16:22:00.707682 17899 net.cpp:148] Top shape: 24 (24)
I0403 16:22:00.707701 17899 net.cpp:148] Top shape: 24 (24)
I0403 16:22:00.707720 17899 net.cpp:148] Top shape: 24 (24)
I0403 16:22:00.707741 17899 net.cpp:148] Top shape: 24 (24)
I0403 16:22:00.707790 17899 net.cpp:156] Memory required for data: 14451744
I0403 16:22:00.707809 17899 layer_factory.hpp:77] Creating layer conv1/7x7_s2
I0403 16:22:00.707847 17899 net.cpp:91] Creating Layer conv1/7x7_s2
I0403 16:22:00.707870 17899 net.cpp:425] conv1/7x7_s2 <- data
I0403 16:22:00.707893 17899 net.cpp:399] conv1/7x7_s2 -> conv1/7x7_s2
I0403 16:22:00.873617 17899 net.cpp:141] Setting up conv1/7x7_s2
I0403 16:22:00.873708 17899 net.cpp:148] Top shape: 24 64 112 112 (19267584)
I0403 16:22:00.873730 17899 net.cpp:156] Memory required for data: 91522080
I0403 16:22:00.873769 17899 layer_factory.hpp:77] Creating layer conv1/relu_7x7
I0403 16:22:00.873805 17899 net.cpp:91] Creating Layer conv1/relu_7x7
I0403 16:22:00.873827 17899 net.cpp:425] conv1/relu_7x7 <- conv1/7x7_s2
I0403 16:22:00.873852 17899 net.cpp:386] conv1/relu_7x7 -> conv1/7x7_s2 (in-place)
I0403 16:22:00.874235 17899 net.cpp:141] Setting up conv1/relu_7x7
I0403 16:22:00.874274 17899 net.cpp:148] Top shape: 24 64 112 112 (19267584)
I0403 16:22:00.874295 17899 net.cpp:156] Memory required for data: 168592416
I0403 16:22:00.874313 17899 layer_factory.hpp:77] Creating layer pool1/3x3_s2
I0403 16:22:00.874343 17899 net.cpp:91] Creating Layer pool1/3x3_s2
I0403 16:22:00.874366 17899 net.cpp:425] pool1/3x3_s2 <- conv1/7x7_s2
I0403 16:22:00.874390 17899 net.cpp:399] pool1/3x3_s2 -> pool1/3x3_s2
I0403 16:22:00.874482 17899 net.cpp:141] Setting up pool1/3x3_s2
I0403 16:22:00.874511 17899 net.cpp:148] Top shape: 24 64 56 56 (4816896)
I0403 16:22:00.874531 17899 net.cpp:156] Memory required for data: 187860000
I0403 16:22:00.874547 17899 layer_factory.hpp:77] Creating layer pool1/norm1
I0403 16:22:00.874593 17899 net.cpp:91] Creating Layer pool1/norm1
I0403 16:22:00.874617 17899 net.cpp:425] pool1/norm1 <- pool1/3x3_s2
I0403 16:22:00.874639 17899 net.cpp:399] pool1/norm1 -> pool1/norm1
I0403 16:22:00.875000 17899 net.cpp:141] Setting up pool1/norm1
I0403 16:22:00.875035 17899 net.cpp:148] Top shape: 24 64 56 56 (4816896)
I0403 16:22:00.875054 17899 net.cpp:156] Memory required for data: 207127584
I0403 16:22:00.875072 17899 layer_factory.hpp:77] Creating layer conv2/3x3_reduce
I0403 16:22:00.875104 17899 net.cpp:91] Creating Layer conv2/3x3_reduce
I0403 16:22:00.875125 17899 net.cpp:425] conv2/3x3_reduce <- pool1/norm1
I0403 16:22:00.875147 17899 net.cpp:399] conv2/3x3_reduce -> conv2/3x3_reduce
I0403 16:22:00.876886 17899 net.cpp:141] Setting up conv2/3x3_reduce
I0403 16:22:00.876924 17899 net.cpp:148] Top shape: 24 64 56 56 (4816896)
I0403 16:22:00.876945 17899 net.cpp:156] Memory required for data: 226395168
I0403 16:22:00.876971 17899 layer_factory.hpp:77] Creating layer conv2/relu_3x3_reduce
I0403 16:22:00.876996 17899 net.cpp:91] Creating Layer conv2/relu_3x3_reduce
I0403 16:22:00.877017 17899 net.cpp:425] conv2/relu_3x3_reduce <- conv2/3x3_reduce
I0403 16:22:00.877039 17899 net.cpp:386] conv2/relu_3x3_reduce -> conv2/3x3_reduce (in-place)
I0403 16:22:00.877359 17899 net.cpp:141] Setting up conv2/relu_3x3_reduce
I0403 16:22:00.877393 17899 net.cpp:148] Top shape: 24 64 56 56 (4816896)
I0403 16:22:00.877413 17899 net.cpp:156] Memory required for data: 245662752
I0403 16:22:00.877434 17899 layer_factory.hpp:77] Creating layer conv2/3x3
I0403 16:22:00.877465 17899 net.cpp:91] Creating Layer conv2/3x3
I0403 16:22:00.877488 17899 net.cpp:425] conv2/3x3 <- conv2/3x3_reduce
I0403 16:22:00.877516 17899 net.cpp:399] conv2/3x3 -> conv2/3x3
I0403 16:22:00.880276 17899 net.cpp:141] Setting up conv2/3x3
I0403 16:22:00.880312 17899 net.cpp:148] Top shape: 24 192 56 56 (14450688)
I0403 16:22:00.880333 17899 net.cpp:156] Memory required for data: 303465504
I0403 16:22:00.880359 17899 layer_factory.hpp:77] Creating layer conv2/relu_3x3
I0403 16:22:00.880386 17899 net.cpp:91] Creating Layer conv2/relu_3x3
I0403 16:22:00.880408 17899 net.cpp:425] conv2/relu_3x3 <- conv2/3x3
I0403 16:22:00.880429 17899 net.cpp:386] conv2/relu_3x3 -> conv2/3x3 (in-place)
I0403 16:22:00.880645 17899 net.cpp:141] Setting up conv2/relu_3x3
I0403 16:22:00.880677 17899 net.cpp:148] Top shape: 24 192 56 56 (14450688)
I0403 16:22:00.880741 17899 net.cpp:156] Memory required for data: 361268256
I0403 16:22:00.880760 17899 layer_factory.hpp:77] Creating layer conv2/norm2
I0403 16:22:00.880781 17899 net.cpp:91] Creating Layer conv2/norm2
I0403 16:22:00.880800 17899 net.cpp:425] conv2/norm2 <- conv2/3x3
I0403 16:22:00.880825 17899 net.cpp:399] conv2/norm2 -> conv2/norm2
I0403 16:22:00.881186 17899 net.cpp:141] Setting up conv2/norm2
I0403 16:22:00.881218 17899 net.cpp:148] Top shape: 24 192 56 56 (14450688)
I0403 16:22:00.881237 17899 net.cpp:156] Memory required for data: 419071008
I0403 16:22:00.881255 17899 layer_factory.hpp:77] Creating layer pool2/3x3_s2
I0403 16:22:00.881278 17899 net.cpp:91] Creating Layer pool2/3x3_s2
I0403 16:22:00.881295 17899 net.cpp:425] pool2/3x3_s2 <- conv2/norm2
I0403 16:22:00.881319 17899 net.cpp:399] pool2/3x3_s2 -> pool2/3x3_s2
I0403 16:22:00.881384 17899 net.cpp:141] Setting up pool2/3x3_s2
I0403 16:22:00.881413 17899 net.cpp:148] Top shape: 24 192 28 28 (3612672)
I0403 16:22:00.881431 17899 net.cpp:156] Memory required for data: 433521696
I0403 16:22:00.881449 17899 layer_factory.hpp:77] Creating layer pool2/3x3_s2_pool2/3x3_s2_0_split
I0403 16:22:00.881474 17899 net.cpp:91] Creating Layer pool2/3x3_s2_pool2/3x3_s2_0_split
I0403 16:22:00.881494 17899 net.cpp:425] pool2/3x3_s2_pool2/3x3_s2_0_split <- pool2/3x3_s2
I0403 16:22:00.881518 17899 net.cpp:399] pool2/3x3_s2_pool2/3x3_s2_0_split -> pool2/3x3_s2_pool2/3x3_s2_0_split_0
I0403 16:22:00.881544 17899 net.cpp:399] pool2/3x3_s2_pool2/3x3_s2_0_split -> pool2/3x3_s2_pool2/3x3_s2_0_split_1
I0403 16:22:00.881574 17899 net.cpp:399] pool2/3x3_s2_pool2/3x3_s2_0_split -> pool2/3x3_s2_pool2/3x3_s2_0_split_2
I0403 16:22:00.881602 17899 net.cpp:399] pool2/3x3_s2_pool2/3x3_s2_0_split -> pool2/3x3_s2_pool2/3x3_s2_0_split_3
I0403 16:22:00.881686 17899 net.cpp:141] Setting up pool2/3x3_s2_pool2/3x3_s2_0_split
I0403 16:22:00.881714 17899 net.cpp:148] Top shape: 24 192 28 28 (3612672)
I0403 16:22:00.881738 17899 net.cpp:148] Top shape: 24 192 28 28 (3612672)
I0403 16:22:00.881757 17899 net.cpp:148] Top shape: 24 192 28 28 (3612672)
I0403 16:22:00.881777 17899 net.cpp:148] Top shape: 24 192 28 28 (3612672)
I0403 16:22:00.881793 17899 net.cpp:156] Memory required for data: 491324448
I0403 16:22:00.881810 17899 layer_factory.hpp:77] Creating layer inception_3a/1x1
I0403 16:22:00.881835 17899 net.cpp:91] Creating Layer inception_3a/1x1
I0403 16:22:00.881855 17899 net.cpp:425] inception_3a/1x1 <- pool2/3x3_s2_pool2/3x3_s2_0_split_0
I0403 16:22:00.881883 17899 net.cpp:399] inception_3a/1x1 -> inception_3a/1x1
I0403 16:22:00.883718 17899 net.cpp:141] Setting up inception_3a/1x1
I0403 16:22:00.883754 17899 net.cpp:148] Top shape: 24 64 28 28 (1204224)
I0403 16:22:00.883774 17899 net.cpp:156] Memory required for data: 496141344
I0403 16:22:00.883797 17899 layer_factory.hpp:77] Creating layer inception_3a/relu_1x1
I0403 16:22:00.883823 17899 net.cpp:91] Creating Layer inception_3a/relu_1x1
I0403 16:22:00.883843 17899 net.cpp:425] inception_3a/relu_1x1 <- inception_3a/1x1
I0403 16:22:00.883865 17899 net.cpp:386] inception_3a/relu_1x1 -> inception_3a/1x1 (in-place)
I0403 16:22:00.884078 17899 net.cpp:141] Setting up inception_3a/relu_1x1
I0403 16:22:00.884109 17899 net.cpp:148] Top shape: 24 64 28 28 (1204224)
I0403 16:22:00.884125 17899 net.cpp:156] Memory required for data: 500958240
I0403 16:22:00.884142 17899 layer_factory.hpp:77] Creating layer inception_3a/3x3_reduce
I0403 16:22:00.884171 17899 net.cpp:91] Creating Layer inception_3a/3x3_reduce
I0403 16:22:00.884193 17899 net.cpp:425] inception_3a/3x3_reduce <- pool2/3x3_s2_pool2/3x3_s2_0_split_1
I0403 16:22:00.884217 17899 net.cpp:399] inception_3a/3x3_reduce -> inception_3a/3x3_reduce
I0403 16:22:00.886255 17899 net.cpp:141] Setting up inception_3a/3x3_reduce
I0403 16:22:00.886291 17899 net.cpp:148] Top shape: 24 96 28 28 (1806336)
I0403 16:22:00.886312 17899 net.cpp:156] Memory required for data: 508183584
I0403 16:22:00.886337 17899 layer_factory.hpp:77] Creating layer inception_3a/relu_3x3_reduce
I0403 16:22:00.886382 17899 net.cpp:91] Creating Layer inception_3a/relu_3x3_reduce
I0403 16:22:00.886404 17899 net.cpp:425] inception_3a/relu_3x3_reduce <- inception_3a/3x3_reduce
I0403 16:22:00.886426 17899 net.cpp:386] inception_3a/relu_3x3_reduce -> inception_3a/3x3_reduce (in-place)
I0403 16:22:00.886656 17899 net.cpp:141] Setting up inception_3a/relu_3x3_reduce
I0403 16:22:00.886687 17899 net.cpp:148] Top shape: 24 96 28 28 (1806336)
I0403 16:22:00.886704 17899 net.cpp:156] Memory required for data: 515408928
I0403 16:22:00.886723 17899 layer_factory.hpp:77] Creating layer inception_3a/3x3
I0403 16:22:00.886749 17899 net.cpp:91] Creating Layer inception_3a/3x3
I0403 16:22:00.886770 17899 net.cpp:425] inception_3a/3x3 <- inception_3a/3x3_reduce
I0403 16:22:00.886798 17899 net.cpp:399] inception_3a/3x3 -> inception_3a/3x3
I0403 16:22:00.888792 17899 net.cpp:141] Setting up inception_3a/3x3
I0403 16:22:00.888828 17899 net.cpp:148] Top shape: 24 128 28 28 (2408448)
I0403 16:22:00.888847 17899 net.cpp:156] Memory required for data: 525042720
I0403 16:22:00.888870 17899 layer_factory.hpp:77] Creating layer inception_3a/relu_3x3
I0403 16:22:00.888895 17899 net.cpp:91] Creating Layer inception_3a/relu_3x3
I0403 16:22:00.888916 17899 net.cpp:425] inception_3a/relu_3x3 <- inception_3a/3x3
I0403 16:22:00.888938 17899 net.cpp:386] inception_3a/relu_3x3 -> inception_3a/3x3 (in-place)
I0403 16:22:00.889266 17899 net.cpp:141] Setting up inception_3a/relu_3x3
I0403 16:22:00.889298 17899 net.cpp:148] Top shape: 24 128 28 28 (2408448)
I0403 16:22:00.889318 17899 net.cpp:156] Memory required for data: 534676512
I0403 16:22:00.889335 17899 layer_factory.hpp:77] Creating layer inception_3a/5x5_reduce
I0403 16:22:00.889364 17899 net.cpp:91] Creating Layer inception_3a/5x5_reduce
I0403 16:22:00.889385 17899 net.cpp:425] inception_3a/5x5_reduce <- pool2/3x3_s2_pool2/3x3_s2_0_split_2
I0403 16:22:00.889410 17899 net.cpp:399] inception_3a/5x5_reduce -> inception_3a/5x5_reduce
I0403 16:22:00.890576 17899 net.cpp:141] Setting up inception_3a/5x5_reduce
I0403 16:22:00.890614 17899 net.cpp:148] Top shape: 24 16 28 28 (301056)
I0403 16:22:00.890635 17899 net.cpp:156] Memory required for data: 535880736
I0403 16:22:00.890657 17899 layer_factory.hpp:77] Creating layer inception_3a/relu_5x5_reduce
I0403 16:22:00.890681 17899 net.cpp:91] Creating Layer inception_3a/relu_5x5_reduce
I0403 16:22:00.890702 17899 net.cpp:425] inception_3a/relu_5x5_reduce <- inception_3a/5x5_reduce
I0403 16:22:00.890722 17899 net.cpp:386] inception_3a/relu_5x5_reduce -> inception_3a/5x5_reduce (in-place)
I0403 16:22:00.891067 17899 net.cpp:141] Setting up inception_3a/relu_5x5_reduce
I0403 16:22:00.891103 17899 net.cpp:148] Top shape: 24 16 28 28 (301056)
I0403 16:22:00.891122 17899 net.cpp:156] Memory required for data: 537084960
I0403 16:22:00.891141 17899 layer_factory.hpp:77] Creating layer inception_3a/5x5
I0403 16:22:00.891168 17899 net.cpp:91] Creating Layer inception_3a/5x5
I0403 16:22:00.891190 17899 net.cpp:425] inception_3a/5x5 <- inception_3a/5x5_reduce
I0403 16:22:00.891212 17899 net.cpp:399] inception_3a/5x5 -> inception_3a/5x5
I0403 16:22:00.892429 17899 net.cpp:141] Setting up inception_3a/5x5
I0403 16:22:00.892464 17899 net.cpp:148] Top shape: 24 32 28 28 (602112)
I0403 16:22:00.892483 17899 net.cpp:156] Memory required for data: 539493408
I0403 16:22:00.892505 17899 layer_factory.hpp:77] Creating layer inception_3a/relu_5x5
I0403 16:22:00.892531 17899 net.cpp:91] Creating Layer inception_3a/relu_5x5
I0403 16:22:00.892552 17899 net.cpp:425] inception_3a/relu_5x5 <- inception_3a/5x5
I0403 16:22:00.892578 17899 net.cpp:386] inception_3a/relu_5x5 -> inception_3a/5x5 (in-place)
I0403 16:22:00.892789 17899 net.cpp:141] Setting up inception_3a/relu_5x5
I0403 16:22:00.892819 17899 net.cpp:148] Top shape: 24 32 28 28 (602112)
I0403 16:22:00.892838 17899 net.cpp:156] Memory required for data: 541901856
I0403 16:22:00.892856 17899 layer_factory.hpp:77] Creating layer inception_3a/pool
I0403 16:22:00.892880 17899 net.cpp:91] Creating Layer inception_3a/pool
I0403 16:22:00.892917 17899 net.cpp:425] inception_3a/pool <- pool2/3x3_s2_pool2/3x3_s2_0_split_3
I0403 16:22:00.892942 17899 net.cpp:399] inception_3a/pool -> inception_3a/pool
I0403 16:22:00.893013 17899 net.cpp:141] Setting up inception_3a/pool
I0403 16:22:00.893041 17899 net.cpp:148] Top shape: 24 192 28 28 (3612672)
I0403 16:22:00.893060 17899 net.cpp:156] Memory required for data: 556352544
I0403 16:22:00.893079 17899 layer_factory.hpp:77] Creating layer inception_3a/pool_proj
I0403 16:22:00.893105 17899 net.cpp:91] Creating Layer inception_3a/pool_proj
I0403 16:22:00.893126 17899 net.cpp:425] inception_3a/pool_proj <- inception_3a/pool
I0403 16:22:00.893157 17899 net.cpp:399] inception_3a/pool_proj -> inception_3a/pool_proj
I0403 16:22:00.894312 17899 net.cpp:141] Setting up inception_3a/pool_proj
I0403 16:22:00.894347 17899 net.cpp:148] Top shape: 24 32 28 28 (602112)
I0403 16:22:00.894367 17899 net.cpp:156] Memory required for data: 558760992
I0403 16:22:00.894397 17899 layer_factory.hpp:77] Creating layer inception_3a/relu_pool_proj
I0403 16:22:00.894421 17899 net.cpp:91] Creating Layer inception_3a/relu_pool_proj
I0403 16:22:00.894440 17899 net.cpp:425] inception_3a/relu_pool_proj <- inception_3a/pool_proj
I0403 16:22:00.894461 17899 net.cpp:386] inception_3a/relu_pool_proj -> inception_3a/pool_proj (in-place)
I0403 16:22:00.894804 17899 net.cpp:141] Setting up inception_3a/relu_pool_proj
I0403 16:22:00.894836 17899 net.cpp:148] Top shape: 24 32 28 28 (602112)
I0403 16:22:00.894855 17899 net.cpp:156] Memory required for data: 561169440
I0403 16:22:00.894873 17899 layer_factory.hpp:77] Creating layer inception_3a/output
I0403 16:22:00.894897 17899 net.cpp:91] Creating Layer inception_3a/output
I0403 16:22:00.894918 17899 net.cpp:425] inception_3a/output <- inception_3a/1x1
I0403 16:22:00.894939 17899 net.cpp:425] inception_3a/output <- inception_3a/3x3
I0403 16:22:00.894959 17899 net.cpp:425] inception_3a/output <- inception_3a/5x5
I0403 16:22:00.894979 17899 net.cpp:425] inception_3a/output <- inception_3a/pool_proj
I0403 16:22:00.894999 17899 net.cpp:399] inception_3a/output -> inception_3a/output
I0403 16:22:00.895056 17899 net.cpp:141] Setting up inception_3a/output
I0403 16:22:00.895084 17899 net.cpp:148] Top shape: 24 256 28 28 (4816896)
I0403 16:22:00.895102 17899 net.cpp:156] Memory required for data: 580437024
I0403 16:22:00.895120 17899 layer_factory.hpp:77] Creating layer inception_3a/output_inception_3a/output_0_split
I0403 16:22:00.895141 17899 net.cpp:91] Creating Layer inception_3a/output_inception_3a/output_0_split
I0403 16:22:00.895160 17899 net.cpp:425] inception_3a/output_inception_3a/output_0_split <- inception_3a/output
I0403 16:22:00.895182 17899 net.cpp:399] inception_3a/output_inception_3a/output_0_split -> inception_3a/output_inception_3a/output_0_split_0
I0403 16:22:00.895208 17899 net.cpp:399] inception_3a/output_inception_3a/output_0_split -> inception_3a/output_inception_3a/output_0_split_1
I0403 16:22:00.895234 17899 net.cpp:399] inception_3a/output_inception_3a/output_0_split -> inception_3a/output_inception_3a/output_0_split_2
I0403 16:22:00.895263 17899 net.cpp:399] inception_3a/output_inception_3a/output_0_split -> inception_3a/output_inception_3a/output_0_split_3
I0403 16:22:00.895355 17899 net.cpp:141] Setting up inception_3a/output_inception_3a/output_0_split
I0403 16:22:00.895385 17899 net.cpp:148] Top shape: 24 256 28 28 (4816896)
I0403 16:22:00.895404 17899 net.cpp:148] Top shape: 24 256 28 28 (4816896)
I0403 16:22:00.895423 17899 net.cpp:148] Top shape: 24 256 28 28 (4816896)
I0403 16:22:00.895442 17899 net.cpp:148] Top shape: 24 256 28 28 (4816896)
I0403 16:22:00.895459 17899 net.cpp:156] Memory required for data: 657507360
I0403 16:22:00.895478 17899 layer_factory.hpp:77] Creating layer inception_3b/1x1
I0403 16:22:00.895503 17899 net.cpp:91] Creating Layer inception_3b/1x1
I0403 16:22:00.895525 17899 net.cpp:425] inception_3b/1x1 <- inception_3a/output_inception_3a/output_0_split_0
I0403 16:22:00.895550 17899 net.cpp:399] inception_3b/1x1 -> inception_3b/1x1
I0403 16:22:00.896924 17899 net.cpp:141] Setting up inception_3b/1x1
I0403 16:22:00.896973 17899 net.cpp:148] Top shape: 24 128 28 28 (2408448)
I0403 16:22:00.896993 17899 net.cpp:156] Memory required for data: 667141152
I0403 16:22:00.897017 17899 layer_factory.hpp:77] Creating layer inception_3b/relu_1x1
I0403 16:22:00.897039 17899 net.cpp:91] Creating Layer inception_3b/relu_1x1
I0403 16:22:00.897058 17899 net.cpp:425] inception_3b/relu_1x1 <- inception_3b/1x1
I0403 16:22:00.897083 17899 net.cpp:386] inception_3b/relu_1x1 -> inception_3b/1x1 (in-place)
I0403 16:22:00.897294 17899 net.cpp:141] Setting up inception_3b/relu_1x1
I0403 16:22:00.897325 17899 net.cpp:148] Top shape: 24 128 28 28 (2408448)
I0403 16:22:00.897342 17899 net.cpp:156] Memory required for data: 676774944
I0403 16:22:00.897361 17899 layer_factory.hpp:77] Creating layer inception_3b/3x3_reduce
I0403 16:22:00.897387 17899 net.cpp:91] Creating Layer inception_3b/3x3_reduce
I0403 16:22:00.897408 17899 net.cpp:425] inception_3b/3x3_reduce <- inception_3a/output_inception_3a/output_0_split_1
I0403 16:22:00.897439 17899 net.cpp:399] inception_3b/3x3_reduce -> inception_3b/3x3_reduce
I0403 16:22:00.898814 17899 net.cpp:141] Setting up inception_3b/3x3_reduce
I0403 16:22:00.898849 17899 net.cpp:148] Top shape: 24 128 28 28 (2408448)
I0403 16:22:00.898869 17899 net.cpp:156] Memory required for data: 686408736
I0403 16:22:00.898890 17899 layer_factory.hpp:77] Creating layer inception_3b/relu_3x3_reduce
I0403 16:22:00.898916 17899 net.cpp:91] Creating Layer inception_3b/relu_3x3_reduce
I0403 16:22:00.898936 17899 net.cpp:425] inception_3b/relu_3x3_reduce <- inception_3b/3x3_reduce
I0403 16:22:00.898957 17899 net.cpp:386] inception_3b/relu_3x3_reduce -> inception_3b/3x3_reduce (in-place)
I0403 16:22:00.899163 17899 net.cpp:141] Setting up inception_3b/relu_3x3_reduce
I0403 16:22:00.899194 17899 net.cpp:148] Top shape: 24 128 28 28 (2408448)
I0403 16:22:00.899212 17899 net.cpp:156] Memory required for data: 696042528
I0403 16:22:00.899230 17899 layer_factory.hpp:77] Creating layer inception_3b/3x3
I0403 16:22:00.899260 17899 net.cpp:91] Creating Layer inception_3b/3x3
I0403 16:22:00.899283 17899 net.cpp:425] inception_3b/3x3 <- inception_3b/3x3_reduce
I0403 16:22:00.899307 17899 net.cpp:399] inception_3b/3x3 -> inception_3b/3x3
I0403 16:22:00.902832 17899 net.cpp:141] Setting up inception_3b/3x3
I0403 16:22:00.902868 17899 net.cpp:148] Top shape: 24 192 28 28 (3612672)
I0403 16:22:00.902889 17899 net.cpp:156] Memory required for data: 710493216
I0403 16:22:00.902910 17899 layer_factory.hpp:77] Creating layer inception_3b/relu_3x3
I0403 16:22:00.902935 17899 net.cpp:91] Creating Layer inception_3b/relu_3x3
I0403 16:22:00.902956 17899 net.cpp:425] inception_3b/relu_3x3 <- inception_3b/3x3
I0403 16:22:00.902978 17899 net.cpp:386] inception_3b/relu_3x3 -> inception_3b/3x3 (in-place)
I0403 16:22:00.903312 17899 net.cpp:141] Setting up inception_3b/relu_3x3
I0403 16:22:00.903345 17899 net.cpp:148] Top shape: 24 192 28 28 (3612672)
I0403 16:22:00.903364 17899 net.cpp:156] Memory required for data: 724943904
I0403 16:22:00.903381 17899 layer_factory.hpp:77] Creating layer inception_3b/5x5_reduce
I0403 16:22:00.903409 17899 net.cpp:91] Creating Layer inception_3b/5x5_reduce
I0403 16:22:00.903430 17899 net.cpp:425] inception_3b/5x5_reduce <- inception_3a/output_inception_3a/output_0_split_2
I0403 16:22:00.903456 17899 net.cpp:399] inception_3b/5x5_reduce -> inception_3b/5x5_reduce
I0403 16:22:00.904660 17899 net.cpp:141] Setting up inception_3b/5x5_reduce
I0403 16:22:00.904696 17899 net.cpp:148] Top shape: 24 32 28 28 (602112)
I0403 16:22:00.904716 17899 net.cpp:156] Memory required for data: 727352352
I0403 16:22:00.904739 17899 layer_factory.hpp:77] Creating layer inception_3b/relu_5x5_reduce
I0403 16:22:00.904765 17899 net.cpp:91] Creating Layer inception_3b/relu_5x5_reduce
I0403 16:22:00.904785 17899 net.cpp:425] inception_3b/relu_5x5_reduce <- inception_3b/5x5_reduce
I0403 16:22:00.904806 17899 net.cpp:386] inception_3b/relu_5x5_reduce -> inception_3b/5x5_reduce (in-place)
I0403 16:22:00.905040 17899 net.cpp:141] Setting up inception_3b/relu_5x5_reduce
I0403 16:22:00.905072 17899 net.cpp:148] Top shape: 24 32 28 28 (602112)
I0403 16:22:00.905092 17899 net.cpp:156] Memory required for data: 729760800
I0403 16:22:00.905110 17899 layer_factory.hpp:77] Creating layer inception_3b/5x5
I0403 16:22:00.905138 17899 net.cpp:91] Creating Layer inception_3b/5x5
I0403 16:22:00.905159 17899 net.cpp:425] inception_3b/5x5 <- inception_3b/5x5_reduce
I0403 16:22:00.905182 17899 net.cpp:399] inception_3b/5x5 -> inception_3b/5x5
I0403 16:22:00.907552 17899 net.cpp:141] Setting up inception_3b/5x5
I0403 16:22:00.907593 17899 net.cpp:148] Top shape: 24 96 28 28 (1806336)
I0403 16:22:00.907613 17899 net.cpp:156] Memory required for data: 736986144
I0403 16:22:00.907636 17899 layer_factory.hpp:77] Creating layer inception_3b/relu_5x5
I0403 16:22:00.907661 17899 net.cpp:91] Creating Layer inception_3b/relu_5x5
I0403 16:22:00.907682 17899 net.cpp:425] inception_3b/relu_5x5 <- inception_3b/5x5
I0403 16:22:00.907703 17899 net.cpp:386] inception_3b/relu_5x5 -> inception_3b/5x5 (in-place)
I0403 16:22:00.907932 17899 net.cpp:141] Setting up inception_3b/relu_5x5
I0403 16:22:00.907963 17899 net.cpp:148] Top shape: 24 96 28 28 (1806336)
I0403 16:22:00.907980 17899 net.cpp:156] Memory required for data: 744211488
I0403 16:22:00.907999 17899 layer_factory.hpp:77] Creating layer inception_3b/pool
I0403 16:22:00.908021 17899 net.cpp:91] Creating Layer inception_3b/pool
I0403 16:22:00.908041 17899 net.cpp:425] inception_3b/pool <- inception_3a/output_inception_3a/output_0_split_3
I0403 16:22:00.908061 17899 net.cpp:399] inception_3b/pool -> inception_3b/pool
I0403 16:22:00.908133 17899 net.cpp:141] Setting up inception_3b/pool
I0403 16:22:00.908162 17899 net.cpp:148] Top shape: 24 256 28 28 (4816896)
I0403 16:22:00.908179 17899 net.cpp:156] Memory required for data: 763479072
I0403 16:22:00.908196 17899 layer_factory.hpp:77] Creating layer inception_3b/pool_proj
I0403 16:22:00.908223 17899 net.cpp:91] Creating Layer inception_3b/pool_proj
I0403 16:22:00.908244 17899 net.cpp:425] inception_3b/pool_proj <- inception_3b/pool
I0403 16:22:00.908272 17899 net.cpp:399] inception_3b/pool_proj -> inception_3b/pool_proj
I0403 16:22:00.909539 17899 net.cpp:141] Setting up inception_3b/pool_proj
I0403 16:22:00.909582 17899 net.cpp:148] Top shape: 24 64 28 28 (1204224)
I0403 16:22:00.909605 17899 net.cpp:156] Memory required for data: 768295968
I0403 16:22:00.909627 17899 layer_factory.hpp:77] Creating layer inception_3b/relu_pool_proj
I0403 16:22:00.909651 17899 net.cpp:91] Creating Layer inception_3b/relu_pool_proj
I0403 16:22:00.909669 17899 net.cpp:425] inception_3b/relu_pool_proj <- inception_3b/pool_proj
I0403 16:22:00.909693 17899 net.cpp:386] inception_3b/relu_pool_proj -> inception_3b/pool_proj (in-place)
I0403 16:22:00.910148 17899 net.cpp:141] Setting up inception_3b/relu_pool_proj
I0403 16:22:00.910187 17899 net.cpp:148] Top shape: 24 64 28 28 (1204224)
I0403 16:22:00.910207 17899 net.cpp:156] Memory required for data: 773112864
I0403 16:22:00.910224 17899 layer_factory.hpp:77] Creating layer inception_3b/output
I0403 16:22:00.910246 17899 net.cpp:91] Creating Layer inception_3b/output
I0403 16:22:00.910267 17899 net.cpp:425] inception_3b/output <- inception_3b/1x1
I0403 16:22:00.910287 17899 net.cpp:425] inception_3b/output <- inception_3b/3x3
I0403 16:22:00.910307 17899 net.cpp:425] inception_3b/output <- inception_3b/5x5
I0403 16:22:00.910326 17899 net.cpp:425] inception_3b/output <- inception_3b/pool_proj
I0403 16:22:00.910346 17899 net.cpp:399] inception_3b/output -> inception_3b/output
I0403 16:22:00.910401 17899 net.cpp:141] Setting up inception_3b/output
I0403 16:22:00.910429 17899 net.cpp:148] Top shape: 24 480 28 28 (9031680)
I0403 16:22:00.910447 17899 net.cpp:156] Memory required for data: 809239584
I0403 16:22:00.910465 17899 layer_factory.hpp:77] Creating layer pool3/3x3_s2
I0403 16:22:00.910490 17899 net.cpp:91] Creating Layer pool3/3x3_s2
I0403 16:22:00.910509 17899 net.cpp:425] pool3/3x3_s2 <- inception_3b/output
I0403 16:22:00.910549 17899 net.cpp:399] pool3/3x3_s2 -> pool3/3x3_s2
I0403 16:22:00.910627 17899 net.cpp:141] Setting up pool3/3x3_s2
I0403 16:22:00.910658 17899 net.cpp:148] Top shape: 24 480 14 14 (2257920)
I0403 16:22:00.910676 17899 net.cpp:156] Memory required for data: 818271264
I0403 16:22:00.910694 17899 layer_factory.hpp:77] Creating layer pool3/3x3_s2_pool3/3x3_s2_0_split
I0403 16:22:00.910715 17899 net.cpp:91] Creating Layer pool3/3x3_s2_pool3/3x3_s2_0_split
I0403 16:22:00.910734 17899 net.cpp:425] pool3/3x3_s2_pool3/3x3_s2_0_split <- pool3/3x3_s2
I0403 16:22:00.910758 17899 net.cpp:399] pool3/3x3_s2_pool3/3x3_s2_0_split -> pool3/3x3_s2_pool3/3x3_s2_0_split_0
I0403 16:22:00.910784 17899 net.cpp:399] pool3/3x3_s2_pool3/3x3_s2_0_split -> pool3/3x3_s2_pool3/3x3_s2_0_split_1
I0403 16:22:00.910807 17899 net.cpp:399] pool3/3x3_s2_pool3/3x3_s2_0_split -> pool3/3x3_s2_pool3/3x3_s2_0_split_2
I0403 16:22:00.910832 17899 net.cpp:399] pool3/3x3_s2_pool3/3x3_s2_0_split -> pool3/3x3_s2_pool3/3x3_s2_0_split_3
I0403 16:22:00.910926 17899 net.cpp:141] Setting up pool3/3x3_s2_pool3/3x3_s2_0_split
I0403 16:22:00.910956 17899 net.cpp:148] Top shape: 24 480 14 14 (2257920)
I0403 16:22:00.910977 17899 net.cpp:148] Top shape: 24 480 14 14 (2257920)
I0403 16:22:00.910996 17899 net.cpp:148] Top shape: 24 480 14 14 (2257920)
I0403 16:22:00.911015 17899 net.cpp:148] Top shape: 24 480 14 14 (2257920)
I0403 16:22:00.911031 17899 net.cpp:156] Memory required for data: 854397984
I0403 16:22:00.911049 17899 layer_factory.hpp:77] Creating layer inception_4a/1x1
I0403 16:22:00.911077 17899 net.cpp:91] Creating Layer inception_4a/1x1
I0403 16:22:00.911098 17899 net.cpp:425] inception_4a/1x1 <- pool3/3x3_s2_pool3/3x3_s2_0_split_0
I0403 16:22:00.911121 17899 net.cpp:399] inception_4a/1x1 -> inception_4a/1x1
I0403 16:22:00.913028 17899 net.cpp:141] Setting up inception_4a/1x1
I0403 16:22:00.913064 17899 net.cpp:148] Top shape: 24 192 14 14 (903168)
I0403 16:22:00.913085 17899 net.cpp:156] Memory required for data: 858010656
I0403 16:22:00.913106 17899 layer_factory.hpp:77] Creating layer inception_4a/relu_1x1
I0403 16:22:00.913128 17899 net.cpp:91] Creating Layer inception_4a/relu_1x1
I0403 16:22:00.913148 17899 net.cpp:425] inception_4a/relu_1x1 <- inception_4a/1x1
I0403 16:22:00.913172 17899 net.cpp:386] inception_4a/relu_1x1 -> inception_4a/1x1 (in-place)
I0403 16:22:00.913385 17899 net.cpp:141] Setting up inception_4a/relu_1x1
I0403 16:22:00.913416 17899 net.cpp:148] Top shape: 24 192 14 14 (903168)
I0403 16:22:00.913434 17899 net.cpp:156] Memory required for data: 861623328
I0403 16:22:00.913451 17899 layer_factory.hpp:77] Creating layer inception_4a/3x3_reduce
I0403 16:22:00.913480 17899 net.cpp:91] Creating Layer inception_4a/3x3_reduce
I0403 16:22:00.913501 17899 net.cpp:425] inception_4a/3x3_reduce <- pool3/3x3_s2_pool3/3x3_s2_0_split_1
I0403 16:22:00.913527 17899 net.cpp:399] inception_4a/3x3_reduce -> inception_4a/3x3_reduce
I0403 16:22:00.915072 17899 net.cpp:141] Setting up inception_4a/3x3_reduce
I0403 16:22:00.915108 17899 net.cpp:148] Top shape: 24 96 14 14 (451584)
I0403 16:22:00.915128 17899 net.cpp:156] Memory required for data: 863429664
I0403 16:22:00.915155 17899 layer_factory.hpp:77] Creating layer inception_4a/relu_3x3_reduce
I0403 16:22:00.915181 17899 net.cpp:91] Creating Layer inception_4a/relu_3x3_reduce
I0403 16:22:00.915204 17899 net.cpp:425] inception_4a/relu_3x3_reduce <- inception_4a/3x3_reduce
I0403 16:22:00.915225 17899 net.cpp:386] inception_4a/relu_3x3_reduce -> inception_4a/3x3_reduce (in-place)
I0403 16:22:00.915442 17899 net.cpp:141] Setting up inception_4a/relu_3x3_reduce
I0403 16:22:00.915472 17899 net.cpp:148] Top shape: 24 96 14 14 (451584)
I0403 16:22:00.915490 17899 net.cpp:156] Memory required for data: 865236000
I0403 16:22:00.915508 17899 layer_factory.hpp:77] Creating layer inception_4a/3x3
I0403 16:22:00.915534 17899 net.cpp:91] Creating Layer inception_4a/3x3
I0403 16:22:00.915557 17899 net.cpp:425] inception_4a/3x3 <- inception_4a/3x3_reduce
I0403 16:22:00.915590 17899 net.cpp:399] inception_4a/3x3 -> inception_4a/3x3
I0403 16:22:00.918844 17899 net.cpp:141] Setting up inception_4a/3x3
I0403 16:22:00.918882 17899 net.cpp:148] Top shape: 24 208 14 14 (978432)
I0403 16:22:00.918901 17899 net.cpp:156] Memory required for data: 869149728
I0403 16:22:00.918923 17899 layer_factory.hpp:77] Creating layer inception_4a/relu_3x3
I0403 16:22:00.918948 17899 net.cpp:91] Creating Layer inception_4a/relu_3x3
I0403 16:22:00.918970 17899 net.cpp:425] inception_4a/relu_3x3 <- inception_4a/3x3
I0403 16:22:00.918992 17899 net.cpp:386] inception_4a/relu_3x3 -> inception_4a/3x3 (in-place)
I0403 16:22:00.919323 17899 net.cpp:141] Setting up inception_4a/relu_3x3
I0403 16:22:00.919355 17899 net.cpp:148] Top shape: 24 208 14 14 (978432)
I0403 16:22:00.919374 17899 net.cpp:156] Memory required for data: 873063456
I0403 16:22:00.919392 17899 layer_factory.hpp:77] Creating layer inception_4a/5x5_reduce
I0403 16:22:00.919421 17899 net.cpp:91] Creating Layer inception_4a/5x5_reduce
I0403 16:22:00.919443 17899 net.cpp:425] inception_4a/5x5_reduce <- pool3/3x3_s2_pool3/3x3_s2_0_split_2
I0403 16:22:00.919469 17899 net.cpp:399] inception_4a/5x5_reduce -> inception_4a/5x5_reduce
I0403 16:22:00.920707 17899 net.cpp:141] Setting up inception_4a/5x5_reduce
I0403 16:22:00.920742 17899 net.cpp:148] Top shape: 24 16 14 14 (75264)
I0403 16:22:00.920761 17899 net.cpp:156] Memory required for data: 873364512
I0403 16:22:00.920784 17899 layer_factory.hpp:77] Creating layer inception_4a/relu_5x5_reduce
I0403 16:22:00.920810 17899 net.cpp:91] Creating Layer inception_4a/relu_5x5_reduce
I0403 16:22:00.920832 17899 net.cpp:425] inception_4a/relu_5x5_reduce <- inception_4a/5x5_reduce
I0403 16:22:00.920853 17899 net.cpp:386] inception_4a/relu_5x5_reduce -> inception_4a/5x5_reduce (in-place)
I0403 16:22:00.921072 17899 net.cpp:141] Setting up inception_4a/relu_5x5_reduce
I0403 16:22:00.921103 17899 net.cpp:148] Top shape: 24 16 14 14 (75264)
I0403 16:22:00.921120 17899 net.cpp:156] Memory required for data: 873665568
I0403 16:22:00.921139 17899 layer_factory.hpp:77] Creating layer inception_4a/5x5
I0403 16:22:00.921169 17899 net.cpp:91] Creating Layer inception_4a/5x5
I0403 16:22:00.921190 17899 net.cpp:425] inception_4a/5x5 <- inception_4a/5x5_reduce
I0403 16:22:00.921213 17899 net.cpp:399] inception_4a/5x5 -> inception_4a/5x5
I0403 16:22:00.922523 17899 net.cpp:141] Setting up inception_4a/5x5
I0403 16:22:00.922560 17899 net.cpp:148] Top shape: 24 48 14 14 (225792)
I0403 16:22:00.922587 17899 net.cpp:156] Memory required for data: 874568736
I0403 16:22:00.922611 17899 layer_factory.hpp:77] Creating layer inception_4a/relu_5x5
I0403 16:22:00.922634 17899 net.cpp:91] Creating Layer inception_4a/relu_5x5
I0403 16:22:00.922654 17899 net.cpp:425] inception_4a/relu_5x5 <- inception_4a/5x5
I0403 16:22:00.922674 17899 net.cpp:386] inception_4a/relu_5x5 -> inception_4a/5x5 (in-place)
I0403 16:22:00.922894 17899 net.cpp:141] Setting up inception_4a/relu_5x5
I0403 16:22:00.922924 17899 net.cpp:148] Top shape: 24 48 14 14 (225792)
I0403 16:22:00.922945 17899 net.cpp:156] Memory required for data: 875471904
I0403 16:22:00.922961 17899 layer_factory.hpp:77] Creating layer inception_4a/pool
I0403 16:22:00.922983 17899 net.cpp:91] Creating Layer inception_4a/pool
I0403 16:22:00.923002 17899 net.cpp:425] inception_4a/pool <- pool3/3x3_s2_pool3/3x3_s2_0_split_3
I0403 16:22:00.923027 17899 net.cpp:399] inception_4a/pool -> inception_4a/pool
I0403 16:22:00.923099 17899 net.cpp:141] Setting up inception_4a/pool
I0403 16:22:00.923131 17899 net.cpp:148] Top shape: 24 480 14 14 (2257920)
I0403 16:22:00.923151 17899 net.cpp:156] Memory required for data: 884503584
I0403 16:22:00.923168 17899 layer_factory.hpp:77] Creating layer inception_4a/pool_proj
I0403 16:22:00.923194 17899 net.cpp:91] Creating Layer inception_4a/pool_proj
I0403 16:22:00.923216 17899 net.cpp:425] inception_4a/pool_proj <- inception_4a/pool
I0403 16:22:00.923238 17899 net.cpp:399] inception_4a/pool_proj -> inception_4a/pool_proj
I0403 16:22:00.924659 17899 net.cpp:141] Setting up inception_4a/pool_proj
I0403 16:22:00.924697 17899 net.cpp:148] Top shape: 24 64 14 14 (301056)
I0403 16:22:00.924741 17899 net.cpp:156] Memory required for data: 885707808
I0403 16:22:00.924764 17899 layer_factory.hpp:77] Creating layer inception_4a/relu_pool_proj
I0403 16:22:00.924787 17899 net.cpp:91] Creating Layer inception_4a/relu_pool_proj
I0403 16:22:00.924806 17899 net.cpp:425] inception_4a/relu_pool_proj <- inception_4a/pool_proj
I0403 16:22:00.924831 17899 net.cpp:386] inception_4a/relu_pool_proj -> inception_4a/pool_proj (in-place)
I0403 16:22:00.925168 17899 net.cpp:141] Setting up inception_4a/relu_pool_proj
I0403 16:22:00.925201 17899 net.cpp:148] Top shape: 24 64 14 14 (301056)
I0403 16:22:00.925220 17899 net.cpp:156] Memory required for data: 886912032
I0403 16:22:00.925238 17899 layer_factory.hpp:77] Creating layer inception_4a/output
I0403 16:22:00.925261 17899 net.cpp:91] Creating Layer inception_4a/output
I0403 16:22:00.925279 17899 net.cpp:425] inception_4a/output <- inception_4a/1x1
I0403 16:22:00.925299 17899 net.cpp:425] inception_4a/output <- inception_4a/3x3
I0403 16:22:00.925319 17899 net.cpp:425] inception_4a/output <- inception_4a/5x5
I0403 16:22:00.925338 17899 net.cpp:425] inception_4a/output <- inception_4a/pool_proj
I0403 16:22:00.925359 17899 net.cpp:399] inception_4a/output -> inception_4a/output
I0403 16:22:00.925415 17899 net.cpp:141] Setting up inception_4a/output
I0403 16:22:00.925446 17899 net.cpp:148] Top shape: 24 512 14 14 (2408448)
I0403 16:22:00.925464 17899 net.cpp:156] Memory required for data: 896545824
I0403 16:22:00.925482 17899 layer_factory.hpp:77] Creating layer inception_4a/output_inception_4a/output_0_split
I0403 16:22:00.925506 17899 net.cpp:91] Creating Layer inception_4a/output_inception_4a/output_0_split
I0403 16:22:00.925526 17899 net.cpp:425] inception_4a/output_inception_4a/output_0_split <- inception_4a/output
I0403 16:22:00.925549 17899 net.cpp:399] inception_4a/output_inception_4a/output_0_split -> inception_4a/output_inception_4a/output_0_split_0
I0403 16:22:00.925578 17899 net.cpp:399] inception_4a/output_inception_4a/output_0_split -> inception_4a/output_inception_4a/output_0_split_1
I0403 16:22:00.925611 17899 net.cpp:399] inception_4a/output_inception_4a/output_0_split -> inception_4a/output_inception_4a/output_0_split_2
I0403 16:22:00.925638 17899 net.cpp:399] inception_4a/output_inception_4a/output_0_split -> inception_4a/output_inception_4a/output_0_split_3
I0403 16:22:00.925663 17899 net.cpp:399] inception_4a/output_inception_4a/output_0_split -> inception_4a/output_inception_4a/output_0_split_4
I0403 16:22:00.925778 17899 net.cpp:141] Setting up inception_4a/output_inception_4a/output_0_split
I0403 16:22:00.925807 17899 net.cpp:148] Top shape: 24 512 14 14 (2408448)
I0403 16:22:00.925827 17899 net.cpp:148] Top shape: 24 512 14 14 (2408448)
I0403 16:22:00.925846 17899 net.cpp:148] Top shape: 24 512 14 14 (2408448)
I0403 16:22:00.925864 17899 net.cpp:148] Top shape: 24 512 14 14 (2408448)
I0403 16:22:00.925884 17899 net.cpp:148] Top shape: 24 512 14 14 (2408448)
I0403 16:22:00.925902 17899 net.cpp:156] Memory required for data: 944714784
I0403 16:22:00.925920 17899 layer_factory.hpp:77] Creating layer loss1/ave_pool
I0403 16:22:00.925945 17899 net.cpp:91] Creating Layer loss1/ave_pool
I0403 16:22:00.925966 17899 net.cpp:425] loss1/ave_pool <- inception_4a/output_inception_4a/output_0_split_0
I0403 16:22:00.925988 17899 net.cpp:399] loss1/ave_pool -> loss1/ave_pool
I0403 16:22:00.926235 17899 net.cpp:141] Setting up loss1/ave_pool
I0403 16:22:00.926266 17899 net.cpp:148] Top shape: 24 512 4 4 (196608)
I0403 16:22:00.926285 17899 net.cpp:156] Memory required for data: 945501216
I0403 16:22:00.926302 17899 layer_factory.hpp:77] Creating layer loss1/conv
I0403 16:22:00.926329 17899 net.cpp:91] Creating Layer loss1/conv
I0403 16:22:00.926352 17899 net.cpp:425] loss1/conv <- loss1/ave_pool
I0403 16:22:00.926378 17899 net.cpp:399] loss1/conv -> loss1/conv
I0403 16:22:00.928083 17899 net.cpp:141] Setting up loss1/conv
I0403 16:22:00.928119 17899 net.cpp:148] Top shape: 24 128 4 4 (49152)
I0403 16:22:00.928155 17899 net.cpp:156] Memory required for data: 945697824
I0403 16:22:00.928179 17899 layer_factory.hpp:77] Creating layer loss1/relu_conv
I0403 16:22:00.928205 17899 net.cpp:91] Creating Layer loss1/relu_conv
I0403 16:22:00.928227 17899 net.cpp:425] loss1/relu_conv <- loss1/conv
I0403 16:22:00.928249 17899 net.cpp:386] loss1/relu_conv -> loss1/conv (in-place)
I0403 16:22:00.928597 17899 net.cpp:141] Setting up loss1/relu_conv
I0403 16:22:00.928629 17899 net.cpp:148] Top shape: 24 128 4 4 (49152)
I0403 16:22:00.928648 17899 net.cpp:156] Memory required for data: 945894432
I0403 16:22:00.928666 17899 layer_factory.hpp:77] Creating layer loss1/fc
I0403 16:22:00.928699 17899 net.cpp:91] Creating Layer loss1/fc
I0403 16:22:00.928721 17899 net.cpp:425] loss1/fc <- loss1/conv
I0403 16:22:00.928743 17899 net.cpp:399] loss1/fc -> loss1/fc
I0403 16:22:00.950773 17899 net.cpp:141] Setting up loss1/fc
I0403 16:22:00.950811 17899 net.cpp:148] Top shape: 24 1024 (24576)
I0403 16:22:00.950832 17899 net.cpp:156] Memory required for data: 945992736
I0403 16:22:00.950857 17899 layer_factory.hpp:77] Creating layer loss1/relu_fc
I0403 16:22:00.950881 17899 net.cpp:91] Creating Layer loss1/relu_fc
I0403 16:22:00.950903 17899 net.cpp:425] loss1/relu_fc <- loss1/fc
I0403 16:22:00.950928 17899 net.cpp:386] loss1/relu_fc -> loss1/fc (in-place)
I0403 16:22:00.951160 17899 net.cpp:141] Setting up loss1/relu_fc
I0403 16:22:00.951191 17899 net.cpp:148] Top shape: 24 1024 (24576)
I0403 16:22:00.951210 17899 net.cpp:156] Memory required for data: 946091040
I0403 16:22:00.951228 17899 layer_factory.hpp:77] Creating layer loss1/drop_fc
I0403 16:22:00.951261 17899 net.cpp:91] Creating Layer loss1/drop_fc
I0403 16:22:00.951283 17899 net.cpp:425] loss1/drop_fc <- loss1/fc
I0403 16:22:00.951305 17899 net.cpp:386] loss1/drop_fc -> loss1/fc (in-place)
I0403 16:22:00.951367 17899 net.cpp:141] Setting up loss1/drop_fc
I0403 16:22:00.951395 17899 net.cpp:148] Top shape: 24 1024 (24576)
I0403 16:22:00.951414 17899 net.cpp:156] Memory required for data: 946189344
I0403 16:22:00.951433 17899 layer_factory.hpp:77] Creating layer loss1/classifier_plantvillage
I0403 16:22:00.951459 17899 net.cpp:91] Creating Layer loss1/classifier_plantvillage
I0403 16:22:00.951478 17899 net.cpp:425] loss1/classifier_plantvillage <- loss1/fc
I0403 16:22:00.951503 17899 net.cpp:399] loss1/classifier_plantvillage -> loss1/classifier_plantvillage
I0403 16:22:00.952615 17899 net.cpp:141] Setting up loss1/classifier_plantvillage
I0403 16:22:00.952649 17899 net.cpp:148] Top shape: 24 38 (912)
I0403 16:22:00.952669 17899 net.cpp:156] Memory required for data: 946192992
I0403 16:22:00.952692 17899 layer_factory.hpp:77] Creating layer loss1/classifier_plantvillage_loss1/classifier_plantvillage_0_split
I0403 16:22:00.952713 17899 net.cpp:91] Creating Layer loss1/classifier_plantvillage_loss1/classifier_plantvillage_0_split
I0403 16:22:00.952733 17899 net.cpp:425] loss1/classifier_plantvillage_loss1/classifier_plantvillage_0_split <- loss1/classifier_plantvillage
I0403 16:22:00.952757 17899 net.cpp:399] loss1/classifier_plantvillage_loss1/classifier_plantvillage_0_split -> loss1/classifier_plantvillage_loss1/classifier_plantvillage_0_split_0
I0403 16:22:00.952785 17899 net.cpp:399] loss1/classifier_plantvillage_loss1/classifier_plantvillage_0_split -> loss1/classifier_plantvillage_loss1/classifier_plantvillage_0_split_1
I0403 16:22:00.952810 17899 net.cpp:399] loss1/classifier_plantvillage_loss1/classifier_plantvillage_0_split -> loss1/classifier_plantvillage_loss1/classifier_plantvillage_0_split_2
I0403 16:22:00.952890 17899 net.cpp:141] Setting up loss1/classifier_plantvillage_loss1/classifier_plantvillage_0_split
I0403 16:22:00.952920 17899 net.cpp:148] Top shape: 24 38 (912)
I0403 16:22:00.952941 17899 net.cpp:148] Top shape: 24 38 (912)
I0403 16:22:00.952960 17899 net.cpp:148] Top shape: 24 38 (912)
I0403 16:22:00.952977 17899 net.cpp:156] Memory required for data: 946203936
I0403 16:22:00.952996 17899 layer_factory.hpp:77] Creating layer inception_4b/1x1
I0403 16:22:00.953019 17899 net.cpp:91] Creating Layer inception_4b/1x1
I0403 16:22:00.953058 17899 net.cpp:425] inception_4b/1x1 <- inception_4a/output_inception_4a/output_0_split_1
I0403 16:22:00.953083 17899 net.cpp:399] inception_4b/1x1 -> inception_4b/1x1
I0403 16:22:00.955082 17899 net.cpp:141] Setting up inception_4b/1x1
I0403 16:22:00.955118 17899 net.cpp:148] Top shape: 24 160 14 14 (752640)
I0403 16:22:00.955138 17899 net.cpp:156] Memory required for data: 949214496
I0403 16:22:00.955162 17899 layer_factory.hpp:77] Creating layer inception_4b/relu_1x1
I0403 16:22:00.955186 17899 net.cpp:91] Creating Layer inception_4b/relu_1x1
I0403 16:22:00.955206 17899 net.cpp:425] inception_4b/relu_1x1 <- inception_4b/1x1
I0403 16:22:00.955227 17899 net.cpp:386] inception_4b/relu_1x1 -> inception_4b/1x1 (in-place)
I0403 16:22:00.955447 17899 net.cpp:141] Setting up inception_4b/relu_1x1
I0403 16:22:00.955478 17899 net.cpp:148] Top shape: 24 160 14 14 (752640)
I0403 16:22:00.955497 17899 net.cpp:156] Memory required for data: 952225056
I0403 16:22:00.955513 17899 layer_factory.hpp:77] Creating layer inception_4b/3x3_reduce
I0403 16:22:00.955543 17899 net.cpp:91] Creating Layer inception_4b/3x3_reduce
I0403 16:22:00.955565 17899 net.cpp:425] inception_4b/3x3_reduce <- inception_4a/output_inception_4a/output_0_split_2
I0403 16:22:00.955595 17899 net.cpp:399] inception_4b/3x3_reduce -> inception_4b/3x3_reduce
I0403 16:22:00.957238 17899 net.cpp:141] Setting up inception_4b/3x3_reduce
I0403 16:22:00.957274 17899 net.cpp:148] Top shape: 24 112 14 14 (526848)
I0403 16:22:00.957293 17899 net.cpp:156] Memory required for data: 954332448
I0403 16:22:00.957314 17899 layer_factory.hpp:77] Creating layer inception_4b/relu_3x3_reduce
I0403 16:22:00.957340 17899 net.cpp:91] Creating Layer inception_4b/relu_3x3_reduce
I0403 16:22:00.957362 17899 net.cpp:425] inception_4b/relu_3x3_reduce <- inception_4b/3x3_reduce
I0403 16:22:00.957383 17899 net.cpp:386] inception_4b/relu_3x3_reduce -> inception_4b/3x3_reduce (in-place)
I0403 16:22:00.957736 17899 net.cpp:141] Setting up inception_4b/relu_3x3_reduce
I0403 16:22:00.957768 17899 net.cpp:148] Top shape: 24 112 14 14 (526848)
I0403 16:22:00.957788 17899 net.cpp:156] Memory required for data: 956439840
I0403 16:22:00.957805 17899 layer_factory.hpp:77] Creating layer inception_4b/3x3
I0403 16:22:00.957834 17899 net.cpp:91] Creating Layer inception_4b/3x3
I0403 16:22:00.957856 17899 net.cpp:425] inception_4b/3x3 <- inception_4b/3x3_reduce
I0403 16:22:00.957880 17899 net.cpp:399] inception_4b/3x3 -> inception_4b/3x3
I0403 16:22:00.961527 17899 net.cpp:141] Setting up inception_4b/3x3
I0403 16:22:00.961570 17899 net.cpp:148] Top shape: 24 224 14 14 (1053696)
I0403 16:22:00.961593 17899 net.cpp:156] Memory required for data: 960654624
I0403 16:22:00.961616 17899 layer_factory.hpp:77] Creating layer inception_4b/relu_3x3
I0403 16:22:00.961639 17899 net.cpp:91] Creating Layer inception_4b/relu_3x3
I0403 16:22:00.961660 17899 net.cpp:425] inception_4b/relu_3x3 <- inception_4b/3x3
I0403 16:22:00.961684 17899 net.cpp:386] inception_4b/relu_3x3 -> inception_4b/3x3 (in-place)
I0403 16:22:00.961906 17899 net.cpp:141] Setting up inception_4b/relu_3x3
I0403 16:22:00.961938 17899 net.cpp:148] Top shape: 24 224 14 14 (1053696)
I0403 16:22:00.961956 17899 net.cpp:156] Memory required for data: 964869408
I0403 16:22:00.961974 17899 layer_factory.hpp:77] Creating layer inception_4b/5x5_reduce
I0403 16:22:00.962002 17899 net.cpp:91] Creating Layer inception_4b/5x5_reduce
I0403 16:22:00.962023 17899 net.cpp:425] inception_4b/5x5_reduce <- inception_4a/output_inception_4a/output_0_split_3
I0403 16:22:00.962050 17899 net.cpp:399] inception_4b/5x5_reduce -> inception_4b/5x5_reduce
I0403 16:22:00.963387 17899 net.cpp:141] Setting up inception_4b/5x5_reduce
I0403 16:22:00.963423 17899 net.cpp:148] Top shape: 24 24 14 14 (112896)
I0403 16:22:00.963441 17899 net.cpp:156] Memory required for data: 965320992
I0403 16:22:00.963464 17899 layer_factory.hpp:77] Creating layer inception_4b/relu_5x5_reduce
I0403 16:22:00.963490 17899 net.cpp:91] Creating Layer inception_4b/relu_5x5_reduce
I0403 16:22:00.963527 17899 net.cpp:425] inception_4b/relu_5x5_reduce <- inception_4b/5x5_reduce
I0403 16:22:00.963549 17899 net.cpp:386] inception_4b/relu_5x5_reduce -> inception_4b/5x5_reduce (in-place)
I0403 16:22:00.963775 17899 net.cpp:141] Setting up inception_4b/relu_5x5_reduce
I0403 16:22:00.963810 17899 net.cpp:148] Top shape: 24 24 14 14 (112896)
I0403 16:22:00.963829 17899 net.cpp:156] Memory required for data: 965772576
I0403 16:22:00.963848 17899 layer_factory.hpp:77] Creating layer inception_4b/5x5
I0403 16:22:00.963876 17899 net.cpp:91] Creating Layer inception_4b/5x5
I0403 16:22:00.963897 17899 net.cpp:425] inception_4b/5x5 <- inception_4b/5x5_reduce
I0403 16:22:00.963920 17899 net.cpp:399] inception_4b/5x5 -> inception_4b/5x5
I0403 16:22:00.965422 17899 net.cpp:141] Setting up inception_4b/5x5
I0403 16:22:00.965458 17899 net.cpp:148] Top shape: 24 64 14 14 (301056)
I0403 16:22:00.965478 17899 net.cpp:156] Memory required for data: 966976800
I0403 16:22:00.965500 17899 layer_factory.hpp:77] Creating layer inception_4b/relu_5x5
I0403 16:22:00.965528 17899 net.cpp:91] Creating Layer inception_4b/relu_5x5
I0403 16:22:00.965548 17899 net.cpp:425] inception_4b/relu_5x5 <- inception_4b/5x5
I0403 16:22:00.965574 17899 net.cpp:386] inception_4b/relu_5x5 -> inception_4b/5x5 (in-place)
I0403 16:22:00.965925 17899 net.cpp:141] Setting up inception_4b/relu_5x5
I0403 16:22:00.965957 17899 net.cpp:148] Top shape: 24 64 14 14 (301056)
I0403 16:22:00.965976 17899 net.cpp:156] Memory required for data: 968181024
I0403 16:22:00.965996 17899 layer_factory.hpp:77] Creating layer inception_4b/pool
I0403 16:22:00.966019 17899 net.cpp:91] Creating Layer inception_4b/pool
I0403 16:22:00.966040 17899 net.cpp:425] inception_4b/pool <- inception_4a/output_inception_4a/output_0_split_4
I0403 16:22:00.966063 17899 net.cpp:399] inception_4b/pool -> inception_4b/pool
I0403 16:22:00.966140 17899 net.cpp:141] Setting up inception_4b/pool
I0403 16:22:00.966171 17899 net.cpp:148] Top shape: 24 512 14 14 (2408448)
I0403 16:22:00.966189 17899 net.cpp:156] Memory required for data: 977814816
I0403 16:22:00.966207 17899 layer_factory.hpp:77] Creating layer inception_4b/pool_proj
I0403 16:22:00.966234 17899 net.cpp:91] Creating Layer inception_4b/pool_proj
I0403 16:22:00.966256 17899 net.cpp:425] inception_4b/pool_proj <- inception_4b/pool
I0403 16:22:00.966282 17899 net.cpp:399] inception_4b/pool_proj -> inception_4b/pool_proj
I0403 16:22:00.967753 17899 net.cpp:141] Setting up inception_4b/pool_proj
I0403 16:22:00.967788 17899 net.cpp:148] Top shape: 24 64 14 14 (301056)
I0403 16:22:00.967808 17899 net.cpp:156] Memory required for data: 979019040
I0403 16:22:00.967830 17899 layer_factory.hpp:77] Creating layer inception_4b/relu_pool_proj
I0403 16:22:00.967861 17899 net.cpp:91] Creating Layer inception_4b/relu_pool_proj
I0403 16:22:00.967883 17899 net.cpp:425] inception_4b/relu_pool_proj <- inception_4b/pool_proj
I0403 16:22:00.967905 17899 net.cpp:386] inception_4b/relu_pool_proj -> inception_4b/pool_proj (in-place)
I0403 16:22:00.968129 17899 net.cpp:141] Setting up inception_4b/relu_pool_proj
I0403 16:22:00.968163 17899 net.cpp:148] Top shape: 24 64 14 14 (301056)
I0403 16:22:00.968181 17899 net.cpp:156] Memory required for data: 980223264
I0403 16:22:00.968199 17899 layer_factory.hpp:77] Creating layer inception_4b/output
I0403 16:22:00.968220 17899 net.cpp:91] Creating Layer inception_4b/output
I0403 16:22:00.968240 17899 net.cpp:425] inception_4b/output <- inception_4b/1x1
I0403 16:22:00.968261 17899 net.cpp:425] inception_4b/output <- inception_4b/3x3
I0403 16:22:00.968281 17899 net.cpp:425] inception_4b/output <- inception_4b/5x5
I0403 16:22:00.968299 17899 net.cpp:425] inception_4b/output <- inception_4b/pool_proj
I0403 16:22:00.968322 17899 net.cpp:399] inception_4b/output -> inception_4b/output
I0403 16:22:00.968379 17899 net.cpp:141] Setting up inception_4b/output
I0403 16:22:00.968406 17899 net.cpp:148] Top shape: 24 512 14 14 (2408448)
I0403 16:22:00.968425 17899 net.cpp:156] Memory required for data: 989857056
I0403 16:22:00.968462 17899 layer_factory.hpp:77] Creating layer inception_4b/output_inception_4b/output_0_split
I0403 16:22:00.968488 17899 net.cpp:91] Creating Layer inception_4b/output_inception_4b/output_0_split
I0403 16:22:00.968508 17899 net.cpp:425] inception_4b/output_inception_4b/output_0_split <- inception_4b/output
I0403 16:22:00.968530 17899 net.cpp:399] inception_4b/output_inception_4b/output_0_split -> inception_4b/output_inception_4b/output_0_split_0
I0403 16:22:00.968555 17899 net.cpp:399] inception_4b/output_inception_4b/output_0_split -> inception_4b/output_inception_4b/output_0_split_1
I0403 16:22:00.968587 17899 net.cpp:399] inception_4b/output_inception_4b/output_0_split -> inception_4b/output_inception_4b/output_0_split_2
I0403 16:22:00.968618 17899 net.cpp:399] inception_4b/output_inception_4b/output_0_split -> inception_4b/output_inception_4b/output_0_split_3
I0403 16:22:00.968721 17899 net.cpp:141] Setting up inception_4b/output_inception_4b/output_0_split
I0403 16:22:00.968750 17899 net.cpp:148] Top shape: 24 512 14 14 (2408448)
I0403 16:22:00.968770 17899 net.cpp:148] Top shape: 24 512 14 14 (2408448)
I0403 16:22:00.968788 17899 net.cpp:148] Top shape: 24 512 14 14 (2408448)
I0403 16:22:00.968808 17899 net.cpp:148] Top shape: 24 512 14 14 (2408448)
I0403 16:22:00.968827 17899 net.cpp:156] Memory required for data: 1028392224
I0403 16:22:00.968845 17899 layer_factory.hpp:77] Creating layer inception_4c/1x1
I0403 16:22:00.968871 17899 net.cpp:91] Creating Layer inception_4c/1x1
I0403 16:22:00.968891 17899 net.cpp:425] inception_4c/1x1 <- inception_4b/output_inception_4b/output_0_split_0
I0403 16:22:00.968917 17899 net.cpp:399] inception_4c/1x1 -> inception_4c/1x1
I0403 16:22:00.970677 17899 net.cpp:141] Setting up inception_4c/1x1
I0403 16:22:00.970716 17899 net.cpp:148] Top shape: 24 128 14 14 (602112)
I0403 16:22:00.970737 17899 net.cpp:156] Memory required for data: 1030800672
I0403 16:22:00.970760 17899 layer_factory.hpp:77] Creating layer inception_4c/relu_1x1
I0403 16:22:00.970782 17899 net.cpp:91] Creating Layer inception_4c/relu_1x1
I0403 16:22:00.970801 17899 net.cpp:425] inception_4c/relu_1x1 <- inception_4c/1x1
I0403 16:22:00.970825 17899 net.cpp:386] inception_4c/relu_1x1 -> inception_4c/1x1 (in-place)
I0403 16:22:00.971050 17899 net.cpp:141] Setting up inception_4c/relu_1x1
I0403 16:22:00.971081 17899 net.cpp:148] Top shape: 24 128 14 14 (602112)
I0403 16:22:00.971098 17899 net.cpp:156] Memory required for data: 1033209120
I0403 16:22:00.971115 17899 layer_factory.hpp:77] Creating layer inception_4c/3x3_reduce
I0403 16:22:00.971143 17899 net.cpp:91] Creating Layer inception_4c/3x3_reduce
I0403 16:22:00.971164 17899 net.cpp:425] inception_4c/3x3_reduce <- inception_4b/output_inception_4b/output_0_split_1
I0403 16:22:00.971190 17899 net.cpp:399] inception_4c/3x3_reduce -> inception_4c/3x3_reduce
I0403 16:22:00.973565 17899 net.cpp:141] Setting up inception_4c/3x3_reduce
I0403 16:22:00.973606 17899 net.cpp:148] Top shape: 24 128 14 14 (602112)
I0403 16:22:00.973625 17899 net.cpp:156] Memory required for data: 1035617568
I0403 16:22:00.973647 17899 layer_factory.hpp:77] Creating layer inception_4c/relu_3x3_reduce
I0403 16:22:00.973672 17899 net.cpp:91] Creating Layer inception_4c/relu_3x3_reduce
I0403 16:22:00.973693 17899 net.cpp:425] inception_4c/relu_3x3_reduce <- inception_4c/3x3_reduce
I0403 16:22:00.973714 17899 net.cpp:386] inception_4c/relu_3x3_reduce -> inception_4c/3x3_reduce (in-place)
I0403 16:22:00.974061 17899 net.cpp:141] Setting up inception_4c/relu_3x3_reduce
I0403 16:22:00.974093 17899 net.cpp:148] Top shape: 24 128 14 14 (602112)
I0403 16:22:00.974112 17899 net.cpp:156] Memory required for data: 1038026016
I0403 16:22:00.974129 17899 layer_factory.hpp:77] Creating layer inception_4c/3x3
I0403 16:22:00.974158 17899 net.cpp:91] Creating Layer inception_4c/3x3
I0403 16:22:00.974180 17899 net.cpp:425] inception_4c/3x3 <- inception_4c/3x3_reduce
I0403 16:22:00.974207 17899 net.cpp:399] inception_4c/3x3 -> inception_4c/3x3
I0403 16:22:00.978658 17899 net.cpp:141] Setting up inception_4c/3x3
I0403 16:22:00.978708 17899 net.cpp:148] Top shape: 24 256 14 14 (1204224)
I0403 16:22:00.978729 17899 net.cpp:156] Memory required for data: 1042842912
I0403 16:22:00.978766 17899 layer_factory.hpp:77] Creating layer inception_4c/relu_3x3
I0403 16:22:00.978795 17899 net.cpp:91] Creating Layer inception_4c/relu_3x3
I0403 16:22:00.978816 17899 net.cpp:425] inception_4c/relu_3x3 <- inception_4c/3x3
I0403 16:22:00.978837 17899 net.cpp:386] inception_4c/relu_3x3 -> inception_4c/3x3 (in-place)
I0403 16:22:00.979063 17899 net.cpp:141] Setting up inception_4c/relu_3x3
I0403 16:22:00.979092 17899 net.cpp:148] Top shape: 24 256 14 14 (1204224)
I0403 16:22:00.979111 17899 net.cpp:156] Memory required for data: 1047659808
I0403 16:22:00.979130 17899 layer_factory.hpp:77] Creating layer inception_4c/5x5_reduce
I0403 16:22:00.979156 17899 net.cpp:91] Creating Layer inception_4c/5x5_reduce
I0403 16:22:00.979182 17899 net.cpp:425] inception_4c/5x5_reduce <- inception_4b/output_inception_4b/output_0_split_2
I0403 16:22:00.979205 17899 net.cpp:399] inception_4c/5x5_reduce -> inception_4c/5x5_reduce
I0403 16:22:00.980535 17899 net.cpp:141] Setting up inception_4c/5x5_reduce
I0403 16:22:00.980576 17899 net.cpp:148] Top shape: 24 24 14 14 (112896)
I0403 16:22:00.980597 17899 net.cpp:156] Memory required for data: 1048111392
I0403 16:22:00.980620 17899 layer_factory.hpp:77] Creating layer inception_4c/relu_5x5_reduce
I0403 16:22:00.980645 17899 net.cpp:91] Creating Layer inception_4c/relu_5x5_reduce
I0403 16:22:00.980667 17899 net.cpp:425] inception_4c/relu_5x5_reduce <- inception_4c/5x5_reduce
I0403 16:22:00.980689 17899 net.cpp:386] inception_4c/relu_5x5_reduce -> inception_4c/5x5_reduce (in-place)
I0403 16:22:00.980919 17899 net.cpp:141] Setting up inception_4c/relu_5x5_reduce
I0403 16:22:00.980952 17899 net.cpp:148] Top shape: 24 24 14 14 (112896)
I0403 16:22:00.980973 17899 net.cpp:156] Memory required for data: 1048562976
I0403 16:22:00.980991 17899 layer_factory.hpp:77] Creating layer inception_4c/5x5
I0403 16:22:00.981019 17899 net.cpp:91] Creating Layer inception_4c/5x5
I0403 16:22:00.981040 17899 net.cpp:425] inception_4c/5x5 <- inception_4c/5x5_reduce
I0403 16:22:00.981063 17899 net.cpp:399] inception_4c/5x5 -> inception_4c/5x5
I0403 16:22:00.982590 17899 net.cpp:141] Setting up inception_4c/5x5
I0403 16:22:00.982627 17899 net.cpp:148] Top shape: 24 64 14 14 (301056)
I0403 16:22:00.982648 17899 net.cpp:156] Memory required for data: 1049767200
I0403 16:22:00.982671 17899 layer_factory.hpp:77] Creating layer inception_4c/relu_5x5
I0403 16:22:00.982693 17899 net.cpp:91] Creating Layer inception_4c/relu_5x5
I0403 16:22:00.982712 17899 net.cpp:425] inception_4c/relu_5x5 <- inception_4c/5x5
I0403 16:22:00.982735 17899 net.cpp:386] inception_4c/relu_5x5 -> inception_4c/5x5 (in-place)
I0403 16:22:00.983085 17899 net.cpp:141] Setting up inception_4c/relu_5x5
I0403 16:22:00.983120 17899 net.cpp:148] Top shape: 24 64 14 14 (301056)
I0403 16:22:00.983139 17899 net.cpp:156] Memory required for data: 1050971424
I0403 16:22:00.983157 17899 layer_factory.hpp:77] Creating layer inception_4c/pool
I0403 16:22:00.983180 17899 net.cpp:91] Creating Layer inception_4c/pool
I0403 16:22:00.983199 17899 net.cpp:425] inception_4c/pool <- inception_4b/output_inception_4b/output_0_split_3
I0403 16:22:00.983223 17899 net.cpp:399] inception_4c/pool -> inception_4c/pool
I0403 16:22:00.983304 17899 net.cpp:141] Setting up inception_4c/pool
I0403 16:22:00.983332 17899 net.cpp:148] Top shape: 24 512 14 14 (2408448)
I0403 16:22:00.983350 17899 net.cpp:156] Memory required for data: 1060605216
I0403 16:22:00.983367 17899 layer_factory.hpp:77] Creating layer inception_4c/pool_proj
I0403 16:22:00.983393 17899 net.cpp:91] Creating Layer inception_4c/pool_proj
I0403 16:22:00.983415 17899 net.cpp:425] inception_4c/pool_proj <- inception_4c/pool
I0403 16:22:00.983440 17899 net.cpp:399] inception_4c/pool_proj -> inception_4c/pool_proj
I0403 16:22:00.984946 17899 net.cpp:141] Setting up inception_4c/pool_proj
I0403 16:22:00.984982 17899 net.cpp:148] Top shape: 24 64 14 14 (301056)
I0403 16:22:00.985018 17899 net.cpp:156] Memory required for data: 1061809440
I0403 16:22:00.985043 17899 layer_factory.hpp:77] Creating layer inception_4c/relu_pool_proj
I0403 16:22:00.985069 17899 net.cpp:91] Creating Layer inception_4c/relu_pool_proj
I0403 16:22:00.985090 17899 net.cpp:425] inception_4c/relu_pool_proj <- inception_4c/pool_proj
I0403 16:22:00.985112 17899 net.cpp:386] inception_4c/relu_pool_proj -> inception_4c/pool_proj (in-place)
I0403 16:22:00.985340 17899 net.cpp:141] Setting up inception_4c/relu_pool_proj
I0403 16:22:00.985373 17899 net.cpp:148] Top shape: 24 64 14 14 (301056)
I0403 16:22:00.985394 17899 net.cpp:156] Memory required for data: 1063013664
I0403 16:22:00.985410 17899 layer_factory.hpp:77] Creating layer inception_4c/output
I0403 16:22:00.985432 17899 net.cpp:91] Creating Layer inception_4c/output
I0403 16:22:00.985451 17899 net.cpp:425] inception_4c/output <- inception_4c/1x1
I0403 16:22:00.985471 17899 net.cpp:425] inception_4c/output <- inception_4c/3x3
I0403 16:22:00.985491 17899 net.cpp:425] inception_4c/output <- inception_4c/5x5
I0403 16:22:00.985508 17899 net.cpp:425] inception_4c/output <- inception_4c/pool_proj
I0403 16:22:00.985529 17899 net.cpp:399] inception_4c/output -> inception_4c/output
I0403 16:22:00.985594 17899 net.cpp:141] Setting up inception_4c/output
I0403 16:22:00.985623 17899 net.cpp:148] Top shape: 24 512 14 14 (2408448)
I0403 16:22:00.985641 17899 net.cpp:156] Memory required for data: 1072647456
I0403 16:22:00.985659 17899 layer_factory.hpp:77] Creating layer inception_4c/output_inception_4c/output_0_split
I0403 16:22:00.985680 17899 net.cpp:91] Creating Layer inception_4c/output_inception_4c/output_0_split
I0403 16:22:00.985699 17899 net.cpp:425] inception_4c/output_inception_4c/output_0_split <- inception_4c/output
I0403 16:22:00.985723 17899 net.cpp:399] inception_4c/output_inception_4c/output_0_split -> inception_4c/output_inception_4c/output_0_split_0
I0403 16:22:00.985749 17899 net.cpp:399] inception_4c/output_inception_4c/output_0_split -> inception_4c/output_inception_4c/output_0_split_1
I0403 16:22:00.985774 17899 net.cpp:399] inception_4c/output_inception_4c/output_0_split -> inception_4c/output_inception_4c/output_0_split_2
I0403 16:22:00.985803 17899 net.cpp:399] inception_4c/output_inception_4c/output_0_split -> inception_4c/output_inception_4c/output_0_split_3
I0403 16:22:00.985913 17899 net.cpp:141] Setting up inception_4c/output_inception_4c/output_0_split
I0403 16:22:00.985941 17899 net.cpp:148] Top shape: 24 512 14 14 (2408448)
I0403 16:22:00.985961 17899 net.cpp:148] Top shape: 24 512 14 14 (2408448)
I0403 16:22:00.985980 17899 net.cpp:148] Top shape: 24 512 14 14 (2408448)
I0403 16:22:00.985999 17899 net.cpp:148] Top shape: 24 512 14 14 (2408448)
I0403 16:22:00.986016 17899 net.cpp:156] Memory required for data: 1111182624
I0403 16:22:00.986032 17899 layer_factory.hpp:77] Creating layer inception_4d/1x1
I0403 16:22:00.986059 17899 net.cpp:91] Creating Layer inception_4d/1x1
I0403 16:22:00.986081 17899 net.cpp:425] inception_4d/1x1 <- inception_4c/output_inception_4c/output_0_split_0
I0403 16:22:00.986107 17899 net.cpp:399] inception_4d/1x1 -> inception_4d/1x1
I0403 16:22:00.987802 17899 net.cpp:141] Setting up inception_4d/1x1
I0403 16:22:00.987836 17899 net.cpp:148] Top shape: 24 112 14 14 (526848)
I0403 16:22:00.987856 17899 net.cpp:156] Memory required for data: 1113290016
I0403 16:22:00.987879 17899 layer_factory.hpp:77] Creating layer inception_4d/relu_1x1
I0403 16:22:00.987900 17899 net.cpp:91] Creating Layer inception_4d/relu_1x1
I0403 16:22:00.987925 17899 net.cpp:425] inception_4d/relu_1x1 <- inception_4d/1x1
I0403 16:22:00.987946 17899 net.cpp:386] inception_4d/relu_1x1 -> inception_4d/1x1 (in-place)
I0403 16:22:00.988171 17899 net.cpp:141] Setting up inception_4d/relu_1x1
I0403 16:22:00.988203 17899 net.cpp:148] Top shape: 24 112 14 14 (526848)
I0403 16:22:00.988220 17899 net.cpp:156] Memory required for data: 1115397408
I0403 16:22:00.988239 17899 layer_factory.hpp:77] Creating layer inception_4d/3x3_reduce
I0403 16:22:00.988286 17899 net.cpp:91] Creating Layer inception_4d/3x3_reduce
I0403 16:22:00.988308 17899 net.cpp:425] inception_4d/3x3_reduce <- inception_4c/output_inception_4c/output_0_split_1
I0403 16:22:00.988334 17899 net.cpp:399] inception_4d/3x3_reduce -> inception_4d/3x3_reduce
I0403 16:22:00.990176 17899 net.cpp:141] Setting up inception_4d/3x3_reduce
I0403 16:22:00.990213 17899 net.cpp:148] Top shape: 24 144 14 14 (677376)
I0403 16:22:00.990233 17899 net.cpp:156] Memory required for data: 1118106912
I0403 16:22:00.990255 17899 layer_factory.hpp:77] Creating layer inception_4d/relu_3x3_reduce
I0403 16:22:00.990278 17899 net.cpp:91] Creating Layer inception_4d/relu_3x3_reduce
I0403 16:22:00.990298 17899 net.cpp:425] inception_4d/relu_3x3_reduce <- inception_4d/3x3_reduce
I0403 16:22:00.990321 17899 net.cpp:386] inception_4d/relu_3x3_reduce -> inception_4d/3x3_reduce (in-place)
I0403 16:22:00.990682 17899 net.cpp:141] Setting up inception_4d/relu_3x3_reduce
I0403 16:22:00.990717 17899 net.cpp:148] Top shape: 24 144 14 14 (677376)
I0403 16:22:00.990736 17899 net.cpp:156] Memory required for data: 1120816416
I0403 16:22:00.990754 17899 layer_factory.hpp:77] Creating layer inception_4d/3x3
I0403 16:22:00.990782 17899 net.cpp:91] Creating Layer inception_4d/3x3
I0403 16:22:00.990803 17899 net.cpp:425] inception_4d/3x3 <- inception_4d/3x3_reduce
I0403 16:22:00.990828 17899 net.cpp:399] inception_4d/3x3 -> inception_4d/3x3
I0403 16:22:00.996665 17899 net.cpp:141] Setting up inception_4d/3x3
I0403 16:22:00.996702 17899 net.cpp:148] Top shape: 24 288 14 14 (1354752)
I0403 16:22:00.996721 17899 net.cpp:156] Memory required for data: 1126235424
I0403 16:22:00.996743 17899 layer_factory.hpp:77] Creating layer inception_4d/relu_3x3
I0403 16:22:00.996767 17899 net.cpp:91] Creating Layer inception_4d/relu_3x3
I0403 16:22:00.996786 17899 net.cpp:425] inception_4d/relu_3x3 <- inception_4d/3x3
I0403 16:22:00.996810 17899 net.cpp:386] inception_4d/relu_3x3 -> inception_4d/3x3 (in-place)
I0403 16:22:00.997033 17899 net.cpp:141] Setting up inception_4d/relu_3x3
I0403 16:22:00.997063 17899 net.cpp:148] Top shape: 24 288 14 14 (1354752)
I0403 16:22:00.997081 17899 net.cpp:156] Memory required for data: 1131654432
I0403 16:22:00.997100 17899 layer_factory.hpp:77] Creating layer inception_4d/5x5_reduce
I0403 16:22:00.997126 17899 net.cpp:91] Creating Layer inception_4d/5x5_reduce
I0403 16:22:00.997148 17899 net.cpp:425] inception_4d/5x5_reduce <- inception_4c/output_inception_4c/output_0_split_2
I0403 16:22:00.997174 17899 net.cpp:399] inception_4d/5x5_reduce -> inception_4d/5x5_reduce
I0403 16:22:00.998563 17899 net.cpp:141] Setting up inception_4d/5x5_reduce
I0403 16:22:00.998600 17899 net.cpp:148] Top shape: 24 32 14 14 (150528)
I0403 16:22:00.998620 17899 net.cpp:156] Memory required for data: 1132256544
I0403 16:22:00.998641 17899 layer_factory.hpp:77] Creating layer inception_4d/relu_5x5_reduce
I0403 16:22:00.998667 17899 net.cpp:91] Creating Layer inception_4d/relu_5x5_reduce
I0403 16:22:00.998688 17899 net.cpp:425] inception_4d/relu_5x5_reduce <- inception_4d/5x5_reduce
I0403 16:22:00.998708 17899 net.cpp:386] inception_4d/relu_5x5_reduce -> inception_4d/5x5_reduce (in-place)
I0403 16:22:00.998935 17899 net.cpp:141] Setting up inception_4d/relu_5x5_reduce
I0403 16:22:00.998966 17899 net.cpp:148] Top shape: 24 32 14 14 (150528)
I0403 16:22:00.998986 17899 net.cpp:156] Memory required for data: 1132858656
I0403 16:22:00.999003 17899 layer_factory.hpp:77] Creating layer inception_4d/5x5
I0403 16:22:00.999032 17899 net.cpp:91] Creating Layer inception_4d/5x5
I0403 16:22:00.999053 17899 net.cpp:425] inception_4d/5x5 <- inception_4d/5x5_reduce
I0403 16:22:00.999078 17899 net.cpp:399] inception_4d/5x5 -> inception_4d/5x5
I0403 16:22:01.000859 17899 net.cpp:141] Setting up inception_4d/5x5
I0403 16:22:01.000892 17899 net.cpp:148] Top shape: 24 64 14 14 (301056)
I0403 16:22:01.000912 17899 net.cpp:156] Memory required for data: 1134062880
I0403 16:22:01.000934 17899 layer_factory.hpp:77] Creating layer inception_4d/relu_5x5
I0403 16:22:01.000983 17899 net.cpp:91] Creating Layer inception_4d/relu_5x5
I0403 16:22:01.001005 17899 net.cpp:425] inception_4d/relu_5x5 <- inception_4d/5x5
I0403 16:22:01.001027 17899 net.cpp:386] inception_4d/relu_5x5 -> inception_4d/5x5 (in-place)
I0403 16:22:01.001389 17899 net.cpp:141] Setting up inception_4d/relu_5x5
I0403 16:22:01.001422 17899 net.cpp:148] Top shape: 24 64 14 14 (301056)
I0403 16:22:01.001441 17899 net.cpp:156] Memory required for data: 1135267104
I0403 16:22:01.001459 17899 layer_factory.hpp:77] Creating layer inception_4d/pool
I0403 16:22:01.001482 17899 net.cpp:91] Creating Layer inception_4d/pool
I0403 16:22:01.001504 17899 net.cpp:425] inception_4d/pool <- inception_4c/output_inception_4c/output_0_split_3
I0403 16:22:01.001528 17899 net.cpp:399] inception_4d/pool -> inception_4d/pool
I0403 16:22:01.001617 17899 net.cpp:141] Setting up inception_4d/pool
I0403 16:22:01.001648 17899 net.cpp:148] Top shape: 24 512 14 14 (2408448)
I0403 16:22:01.001665 17899 net.cpp:156] Memory required for data: 1144900896
I0403 16:22:01.001683 17899 layer_factory.hpp:77] Creating layer inception_4d/pool_proj
I0403 16:22:01.001710 17899 net.cpp:91] Creating Layer inception_4d/pool_proj
I0403 16:22:01.001732 17899 net.cpp:425] inception_4d/pool_proj <- inception_4d/pool
I0403 16:22:01.001757 17899 net.cpp:399] inception_4d/pool_proj -> inception_4d/pool_proj
I0403 16:22:01.003896 17899 net.cpp:141] Setting up inception_4d/pool_proj
I0403 16:22:01.003932 17899 net.cpp:148] Top shape: 24 64 14 14 (301056)
I0403 16:22:01.003952 17899 net.cpp:156] Memory required for data: 1146105120
I0403 16:22:01.003975 17899 layer_factory.hpp:77] Creating layer inception_4d/relu_pool_proj
I0403 16:22:01.003998 17899 net.cpp:91] Creating Layer inception_4d/relu_pool_proj
I0403 16:22:01.004019 17899 net.cpp:425] inception_4d/relu_pool_proj <- inception_4d/pool_proj
I0403 16:22:01.004043 17899 net.cpp:386] inception_4d/relu_pool_proj -> inception_4d/pool_proj (in-place)
I0403 16:22:01.004272 17899 net.cpp:141] Setting up inception_4d/relu_pool_proj
I0403 16:22:01.004303 17899 net.cpp:148] Top shape: 24 64 14 14 (301056)
I0403 16:22:01.004322 17899 net.cpp:156] Memory required for data: 1147309344
I0403 16:22:01.004339 17899 layer_factory.hpp:77] Creating layer inception_4d/output
I0403 16:22:01.004364 17899 net.cpp:91] Creating Layer inception_4d/output
I0403 16:22:01.004382 17899 net.cpp:425] inception_4d/output <- inception_4d/1x1
I0403 16:22:01.004401 17899 net.cpp:425] inception_4d/output <- inception_4d/3x3
I0403 16:22:01.004421 17899 net.cpp:425] inception_4d/output <- inception_4d/5x5
I0403 16:22:01.004441 17899 net.cpp:425] inception_4d/output <- inception_4d/pool_proj
I0403 16:22:01.004461 17899 net.cpp:399] inception_4d/output -> inception_4d/output
I0403 16:22:01.004519 17899 net.cpp:141] Setting up inception_4d/output
I0403 16:22:01.004549 17899 net.cpp:148] Top shape: 24 528 14 14 (2483712)
I0403 16:22:01.004578 17899 net.cpp:156] Memory required for data: 1157244192
I0403 16:22:01.004601 17899 layer_factory.hpp:77] Creating layer inception_4d/output_inception_4d/output_0_split
I0403 16:22:01.004623 17899 net.cpp:91] Creating Layer inception_4d/output_inception_4d/output_0_split
I0403 16:22:01.004642 17899 net.cpp:425] inception_4d/output_inception_4d/output_0_split <- inception_4d/output
I0403 16:22:01.004667 17899 net.cpp:399] inception_4d/output_inception_4d/output_0_split -> inception_4d/output_inception_4d/output_0_split_0
I0403 16:22:01.004693 17899 net.cpp:399] inception_4d/output_inception_4d/output_0_split -> inception_4d/output_inception_4d/output_0_split_1
I0403 16:22:01.004717 17899 net.cpp:399] inception_4d/output_inception_4d/output_0_split -> inception_4d/output_inception_4d/output_0_split_2
I0403 16:22:01.004742 17899 net.cpp:399] inception_4d/output_inception_4d/output_0_split -> inception_4d/output_inception_4d/output_0_split_3
I0403 16:22:01.004766 17899 net.cpp:399] inception_4d/output_inception_4d/output_0_split -> inception_4d/output_inception_4d/output_0_split_4
I0403 16:22:01.004894 17899 net.cpp:141] Setting up inception_4d/output_inception_4d/output_0_split
I0403 16:22:01.004938 17899 net.cpp:148] Top shape: 24 528 14 14 (2483712)
I0403 16:22:01.004959 17899 net.cpp:148] Top shape: 24 528 14 14 (2483712)
I0403 16:22:01.004978 17899 net.cpp:148] Top shape: 24 528 14 14 (2483712)
I0403 16:22:01.004997 17899 net.cpp:148] Top shape: 24 528 14 14 (2483712)
I0403 16:22:01.005014 17899 net.cpp:148] Top shape: 24 528 14 14 (2483712)
I0403 16:22:01.005031 17899 net.cpp:156] Memory required for data: 1206918432
I0403 16:22:01.005048 17899 layer_factory.hpp:77] Creating layer loss2/ave_pool
I0403 16:22:01.005071 17899 net.cpp:91] Creating Layer loss2/ave_pool
I0403 16:22:01.005091 17899 net.cpp:425] loss2/ave_pool <- inception_4d/output_inception_4d/output_0_split_0
I0403 16:22:01.005116 17899 net.cpp:399] loss2/ave_pool -> loss2/ave_pool
I0403 16:22:01.005503 17899 net.cpp:141] Setting up loss2/ave_pool
I0403 16:22:01.005534 17899 net.cpp:148] Top shape: 24 528 4 4 (202752)
I0403 16:22:01.005554 17899 net.cpp:156] Memory required for data: 1207729440
I0403 16:22:01.005578 17899 layer_factory.hpp:77] Creating layer loss2/conv
I0403 16:22:01.005607 17899 net.cpp:91] Creating Layer loss2/conv
I0403 16:22:01.005630 17899 net.cpp:425] loss2/conv <- loss2/ave_pool
I0403 16:22:01.005656 17899 net.cpp:399] loss2/conv -> loss2/conv
I0403 16:22:01.007982 17899 net.cpp:141] Setting up loss2/conv
I0403 16:22:01.008020 17899 net.cpp:148] Top shape: 24 128 4 4 (49152)
I0403 16:22:01.008041 17899 net.cpp:156] Memory required for data: 1207926048
I0403 16:22:01.008064 17899 layer_factory.hpp:77] Creating layer loss2/relu_conv
I0403 16:22:01.008087 17899 net.cpp:91] Creating Layer loss2/relu_conv
I0403 16:22:01.008107 17899 net.cpp:425] loss2/relu_conv <- loss2/conv
I0403 16:22:01.008128 17899 net.cpp:386] loss2/relu_conv -> loss2/conv (in-place)
I0403 16:22:01.008479 17899 net.cpp:141] Setting up loss2/relu_conv
I0403 16:22:01.008515 17899 net.cpp:148] Top shape: 24 128 4 4 (49152)
I0403 16:22:01.008535 17899 net.cpp:156] Memory required for data: 1208122656
I0403 16:22:01.008554 17899 layer_factory.hpp:77] Creating layer loss2/fc
I0403 16:22:01.008584 17899 net.cpp:91] Creating Layer loss2/fc
I0403 16:22:01.008606 17899 net.cpp:425] loss2/fc <- loss2/conv
I0403 16:22:01.008631 17899 net.cpp:399] loss2/fc -> loss2/fc
I0403 16:22:01.030576 17899 net.cpp:141] Setting up loss2/fc
I0403 16:22:01.030616 17899 net.cpp:148] Top shape: 24 1024 (24576)
I0403 16:22:01.030635 17899 net.cpp:156] Memory required for data: 1208220960
I0403 16:22:01.030658 17899 layer_factory.hpp:77] Creating layer loss2/relu_fc
I0403 16:22:01.030683 17899 net.cpp:91] Creating Layer loss2/relu_fc
I0403 16:22:01.030705 17899 net.cpp:425] loss2/relu_fc <- loss2/fc
I0403 16:22:01.030726 17899 net.cpp:386] loss2/relu_fc -> loss2/fc (in-place)
I0403 16:22:01.031085 17899 net.cpp:141] Setting up loss2/relu_fc
I0403 16:22:01.031117 17899 net.cpp:148] Top shape: 24 1024 (24576)
I0403 16:22:01.031136 17899 net.cpp:156] Memory required for data: 1208319264
I0403 16:22:01.031153 17899 layer_factory.hpp:77] Creating layer loss2/drop_fc
I0403 16:22:01.031178 17899 net.cpp:91] Creating Layer loss2/drop_fc
I0403 16:22:01.031198 17899 net.cpp:425] loss2/drop_fc <- loss2/fc
I0403 16:22:01.031219 17899 net.cpp:386] loss2/drop_fc -> loss2/fc (in-place)
I0403 16:22:01.031280 17899 net.cpp:141] Setting up loss2/drop_fc
I0403 16:22:01.031312 17899 net.cpp:148] Top shape: 24 1024 (24576)
I0403 16:22:01.031332 17899 net.cpp:156] Memory required for data: 1208417568
I0403 16:22:01.031349 17899 layer_factory.hpp:77] Creating layer loss2/classifier_plantvillage
I0403 16:22:01.031371 17899 net.cpp:91] Creating Layer loss2/classifier_plantvillage
I0403 16:22:01.031390 17899 net.cpp:425] loss2/classifier_plantvillage <- loss2/fc
I0403 16:22:01.031415 17899 net.cpp:399] loss2/classifier_plantvillage -> loss2/classifier_plantvillage
I0403 16:22:01.031913 17899 net.cpp:141] Setting up loss2/classifier_plantvillage
I0403 16:22:01.031944 17899 net.cpp:148] Top shape: 24 38 (912)
I0403 16:22:01.031983 17899 net.cpp:156] Memory required for data: 1208421216
I0403 16:22:01.032006 17899 layer_factory.hpp:77] Creating layer loss2/classifier_plantvillage_loss2/classifier_plantvillage_0_split
I0403 16:22:01.032029 17899 net.cpp:91] Creating Layer loss2/classifier_plantvillage_loss2/classifier_plantvillage_0_split
I0403 16:22:01.032049 17899 net.cpp:425] loss2/classifier_plantvillage_loss2/classifier_plantvillage_0_split <- loss2/classifier_plantvillage
I0403 16:22:01.032071 17899 net.cpp:399] loss2/classifier_plantvillage_loss2/classifier_plantvillage_0_split -> loss2/classifier_plantvillage_loss2/classifier_plantvillage_0_split_0
I0403 16:22:01.032104 17899 net.cpp:399] loss2/classifier_plantvillage_loss2/classifier_plantvillage_0_split -> loss2/classifier_plantvillage_loss2/classifier_plantvillage_0_split_1
I0403 16:22:01.032130 17899 net.cpp:399] loss2/classifier_plantvillage_loss2/classifier_plantvillage_0_split -> loss2/classifier_plantvillage_loss2/classifier_plantvillage_0_split_2
I0403 16:22:01.032227 17899 net.cpp:141] Setting up loss2/classifier_plantvillage_loss2/classifier_plantvillage_0_split
I0403 16:22:01.032255 17899 net.cpp:148] Top shape: 24 38 (912)
I0403 16:22:01.032276 17899 net.cpp:148] Top shape: 24 38 (912)
I0403 16:22:01.032299 17899 net.cpp:148] Top shape: 24 38 (912)
I0403 16:22:01.032315 17899 net.cpp:156] Memory required for data: 1208432160
I0403 16:22:01.032333 17899 layer_factory.hpp:77] Creating layer inception_4e/1x1
I0403 16:22:01.032359 17899 net.cpp:91] Creating Layer inception_4e/1x1
I0403 16:22:01.032380 17899 net.cpp:425] inception_4e/1x1 <- inception_4d/output_inception_4d/output_0_split_1
I0403 16:22:01.032405 17899 net.cpp:399] inception_4e/1x1 -> inception_4e/1x1
I0403 16:22:01.034657 17899 net.cpp:141] Setting up inception_4e/1x1
I0403 16:22:01.034694 17899 net.cpp:148] Top shape: 24 256 14 14 (1204224)
I0403 16:22:01.034715 17899 net.cpp:156] Memory required for data: 1213249056
I0403 16:22:01.034737 17899 layer_factory.hpp:77] Creating layer inception_4e/relu_1x1
I0403 16:22:01.034760 17899 net.cpp:91] Creating Layer inception_4e/relu_1x1
I0403 16:22:01.034780 17899 net.cpp:425] inception_4e/relu_1x1 <- inception_4e/1x1
I0403 16:22:01.034804 17899 net.cpp:386] inception_4e/relu_1x1 -> inception_4e/1x1 (in-place)
I0403 16:22:01.035161 17899 net.cpp:141] Setting up inception_4e/relu_1x1
I0403 16:22:01.035194 17899 net.cpp:148] Top shape: 24 256 14 14 (1204224)
I0403 16:22:01.035214 17899 net.cpp:156] Memory required for data: 1218065952
I0403 16:22:01.035233 17899 layer_factory.hpp:77] Creating layer inception_4e/3x3_reduce
I0403 16:22:01.035261 17899 net.cpp:91] Creating Layer inception_4e/3x3_reduce
I0403 16:22:01.035284 17899 net.cpp:425] inception_4e/3x3_reduce <- inception_4d/output_inception_4d/output_0_split_2
I0403 16:22:01.035307 17899 net.cpp:399] inception_4e/3x3_reduce -> inception_4e/3x3_reduce
I0403 16:22:01.037904 17899 net.cpp:141] Setting up inception_4e/3x3_reduce
I0403 16:22:01.037940 17899 net.cpp:148] Top shape: 24 160 14 14 (752640)
I0403 16:22:01.037960 17899 net.cpp:156] Memory required for data: 1221076512
I0403 16:22:01.037981 17899 layer_factory.hpp:77] Creating layer inception_4e/relu_3x3_reduce
I0403 16:22:01.038007 17899 net.cpp:91] Creating Layer inception_4e/relu_3x3_reduce
I0403 16:22:01.038029 17899 net.cpp:425] inception_4e/relu_3x3_reduce <- inception_4e/3x3_reduce
I0403 16:22:01.038050 17899 net.cpp:386] inception_4e/relu_3x3_reduce -> inception_4e/3x3_reduce (in-place)
I0403 16:22:01.038282 17899 net.cpp:141] Setting up inception_4e/relu_3x3_reduce
I0403 16:22:01.038316 17899 net.cpp:148] Top shape: 24 160 14 14 (752640)
I0403 16:22:01.038334 17899 net.cpp:156] Memory required for data: 1224087072
I0403 16:22:01.038352 17899 layer_factory.hpp:77] Creating layer inception_4e/3x3
I0403 16:22:01.038380 17899 net.cpp:91] Creating Layer inception_4e/3x3
I0403 16:22:01.038401 17899 net.cpp:425] inception_4e/3x3 <- inception_4e/3x3_reduce
I0403 16:22:01.038424 17899 net.cpp:399] inception_4e/3x3 -> inception_4e/3x3
I0403 16:22:01.044646 17899 net.cpp:141] Setting up inception_4e/3x3
I0403 16:22:01.044700 17899 net.cpp:148] Top shape: 24 320 14 14 (1505280)
I0403 16:22:01.044723 17899 net.cpp:156] Memory required for data: 1230108192
I0403 16:22:01.044749 17899 layer_factory.hpp:77] Creating layer inception_4e/relu_3x3
I0403 16:22:01.044771 17899 net.cpp:91] Creating Layer inception_4e/relu_3x3
I0403 16:22:01.044793 17899 net.cpp:425] inception_4e/relu_3x3 <- inception_4e/3x3
I0403 16:22:01.044818 17899 net.cpp:386] inception_4e/relu_3x3 -> inception_4e/3x3 (in-place)
I0403 16:22:01.045188 17899 net.cpp:141] Setting up inception_4e/relu_3x3
I0403 16:22:01.045222 17899 net.cpp:148] Top shape: 24 320 14 14 (1505280)
I0403 16:22:01.045240 17899 net.cpp:156] Memory required for data: 1236129312
I0403 16:22:01.045259 17899 layer_factory.hpp:77] Creating layer inception_4e/5x5_reduce
I0403 16:22:01.045286 17899 net.cpp:91] Creating Layer inception_4e/5x5_reduce
I0403 16:22:01.045310 17899 net.cpp:425] inception_4e/5x5_reduce <- inception_4d/output_inception_4d/output_0_split_3
I0403 16:22:01.045334 17899 net.cpp:399] inception_4e/5x5_reduce -> inception_4e/5x5_reduce
I0403 16:22:01.046651 17899 net.cpp:141] Setting up inception_4e/5x5_reduce
I0403 16:22:01.046686 17899 net.cpp:148] Top shape: 24 32 14 14 (150528)
I0403 16:22:01.046705 17899 net.cpp:156] Memory required for data: 1236731424
I0403 16:22:01.046728 17899 layer_factory.hpp:77] Creating layer inception_4e/relu_5x5_reduce
I0403 16:22:01.046754 17899 net.cpp:91] Creating Layer inception_4e/relu_5x5_reduce
I0403 16:22:01.046774 17899 net.cpp:425] inception_4e/relu_5x5_reduce <- inception_4e/5x5_reduce
I0403 16:22:01.046795 17899 net.cpp:386] inception_4e/relu_5x5_reduce -> inception_4e/5x5_reduce (in-place)
I0403 16:22:01.047157 17899 net.cpp:141] Setting up inception_4e/relu_5x5_reduce
I0403 16:22:01.047189 17899 net.cpp:148] Top shape: 24 32 14 14 (150528)
I0403 16:22:01.047209 17899 net.cpp:156] Memory required for data: 1237333536
I0403 16:22:01.047226 17899 layer_factory.hpp:77] Creating layer inception_4e/5x5
I0403 16:22:01.047272 17899 net.cpp:91] Creating Layer inception_4e/5x5
I0403 16:22:01.047298 17899 net.cpp:425] inception_4e/5x5 <- inception_4e/5x5_reduce
I0403 16:22:01.047322 17899 net.cpp:399] inception_4e/5x5 -> inception_4e/5x5
I0403 16:22:01.049577 17899 net.cpp:141] Setting up inception_4e/5x5
I0403 16:22:01.049613 17899 net.cpp:148] Top shape: 24 128 14 14 (602112)
I0403 16:22:01.049633 17899 net.cpp:156] Memory required for data: 1239741984
I0403 16:22:01.049655 17899 layer_factory.hpp:77] Creating layer inception_4e/relu_5x5
I0403 16:22:01.049680 17899 net.cpp:91] Creating Layer inception_4e/relu_5x5
I0403 16:22:01.049702 17899 net.cpp:425] inception_4e/relu_5x5 <- inception_4e/5x5
I0403 16:22:01.049723 17899 net.cpp:386] inception_4e/relu_5x5 -> inception_4e/5x5 (in-place)
I0403 16:22:01.049968 17899 net.cpp:141] Setting up inception_4e/relu_5x5
I0403 16:22:01.050000 17899 net.cpp:148] Top shape: 24 128 14 14 (602112)
I0403 16:22:01.050019 17899 net.cpp:156] Memory required for data: 1242150432
I0403 16:22:01.050036 17899 layer_factory.hpp:77] Creating layer inception_4e/pool
I0403 16:22:01.050058 17899 net.cpp:91] Creating Layer inception_4e/pool
I0403 16:22:01.050079 17899 net.cpp:425] inception_4e/pool <- inception_4d/output_inception_4d/output_0_split_4
I0403 16:22:01.050101 17899 net.cpp:399] inception_4e/pool -> inception_4e/pool
I0403 16:22:01.050187 17899 net.cpp:141] Setting up inception_4e/pool
I0403 16:22:01.050216 17899 net.cpp:148] Top shape: 24 528 14 14 (2483712)
I0403 16:22:01.050235 17899 net.cpp:156] Memory required for data: 1252085280
I0403 16:22:01.050252 17899 layer_factory.hpp:77] Creating layer inception_4e/pool_proj
I0403 16:22:01.050279 17899 net.cpp:91] Creating Layer inception_4e/pool_proj
I0403 16:22:01.050302 17899 net.cpp:425] inception_4e/pool_proj <- inception_4e/pool
I0403 16:22:01.050328 17899 net.cpp:399] inception_4e/pool_proj -> inception_4e/pool_proj
I0403 16:22:01.052177 17899 net.cpp:141] Setting up inception_4e/pool_proj
I0403 16:22:01.052227 17899 net.cpp:148] Top shape: 24 128 14 14 (602112)
I0403 16:22:01.052248 17899 net.cpp:156] Memory required for data: 1254493728
I0403 16:22:01.052269 17899 layer_factory.hpp:77] Creating layer inception_4e/relu_pool_proj
I0403 16:22:01.052295 17899 net.cpp:91] Creating Layer inception_4e/relu_pool_proj
I0403 16:22:01.052316 17899 net.cpp:425] inception_4e/relu_pool_proj <- inception_4e/pool_proj
I0403 16:22:01.052337 17899 net.cpp:386] inception_4e/relu_pool_proj -> inception_4e/pool_proj (in-place)
I0403 16:22:01.052700 17899 net.cpp:141] Setting up inception_4e/relu_pool_proj
I0403 16:22:01.052733 17899 net.cpp:148] Top shape: 24 128 14 14 (602112)
I0403 16:22:01.052752 17899 net.cpp:156] Memory required for data: 1256902176
I0403 16:22:01.052770 17899 layer_factory.hpp:77] Creating layer inception_4e/output
I0403 16:22:01.052790 17899 net.cpp:91] Creating Layer inception_4e/output
I0403 16:22:01.052810 17899 net.cpp:425] inception_4e/output <- inception_4e/1x1
I0403 16:22:01.052830 17899 net.cpp:425] inception_4e/output <- inception_4e/3x3
I0403 16:22:01.052850 17899 net.cpp:425] inception_4e/output <- inception_4e/5x5
I0403 16:22:01.052870 17899 net.cpp:425] inception_4e/output <- inception_4e/pool_proj
I0403 16:22:01.052892 17899 net.cpp:399] inception_4e/output -> inception_4e/output
I0403 16:22:01.052954 17899 net.cpp:141] Setting up inception_4e/output
I0403 16:22:01.052986 17899 net.cpp:148] Top shape: 24 832 14 14 (3913728)
I0403 16:22:01.053004 17899 net.cpp:156] Memory required for data: 1272557088
I0403 16:22:01.053021 17899 layer_factory.hpp:77] Creating layer pool4/3x3_s2
I0403 16:22:01.053043 17899 net.cpp:91] Creating Layer pool4/3x3_s2
I0403 16:22:01.053063 17899 net.cpp:425] pool4/3x3_s2 <- inception_4e/output
I0403 16:22:01.053088 17899 net.cpp:399] pool4/3x3_s2 -> pool4/3x3_s2
I0403 16:22:01.053171 17899 net.cpp:141] Setting up pool4/3x3_s2
I0403 16:22:01.053201 17899 net.cpp:148] Top shape: 24 832 7 7 (978432)
I0403 16:22:01.053220 17899 net.cpp:156] Memory required for data: 1276470816
I0403 16:22:01.053237 17899 layer_factory.hpp:77] Creating layer pool4/3x3_s2_pool4/3x3_s2_0_split
I0403 16:22:01.053261 17899 net.cpp:91] Creating Layer pool4/3x3_s2_pool4/3x3_s2_0_split
I0403 16:22:01.053282 17899 net.cpp:425] pool4/3x3_s2_pool4/3x3_s2_0_split <- pool4/3x3_s2
I0403 16:22:01.053305 17899 net.cpp:399] pool4/3x3_s2_pool4/3x3_s2_0_split -> pool4/3x3_s2_pool4/3x3_s2_0_split_0
I0403 16:22:01.053328 17899 net.cpp:399] pool4/3x3_s2_pool4/3x3_s2_0_split -> pool4/3x3_s2_pool4/3x3_s2_0_split_1
I0403 16:22:01.053355 17899 net.cpp:399] pool4/3x3_s2_pool4/3x3_s2_0_split -> pool4/3x3_s2_pool4/3x3_s2_0_split_2
I0403 16:22:01.053381 17899 net.cpp:399] pool4/3x3_s2_pool4/3x3_s2_0_split -> pool4/3x3_s2_pool4/3x3_s2_0_split_3
I0403 16:22:01.053489 17899 net.cpp:141] Setting up pool4/3x3_s2_pool4/3x3_s2_0_split
I0403 16:22:01.053519 17899 net.cpp:148] Top shape: 24 832 7 7 (978432)
I0403 16:22:01.053539 17899 net.cpp:148] Top shape: 24 832 7 7 (978432)
I0403 16:22:01.053558 17899 net.cpp:148] Top shape: 24 832 7 7 (978432)
I0403 16:22:01.053585 17899 net.cpp:148] Top shape: 24 832 7 7 (978432)
I0403 16:22:01.053602 17899 net.cpp:156] Memory required for data: 1292125728
I0403 16:22:01.053620 17899 layer_factory.hpp:77] Creating layer inception_5a/1x1
I0403 16:22:01.053648 17899 net.cpp:91] Creating Layer inception_5a/1x1
I0403 16:22:01.053669 17899 net.cpp:425] inception_5a/1x1 <- pool4/3x3_s2_pool4/3x3_s2_0_split_0
I0403 16:22:01.053694 17899 net.cpp:399] inception_5a/1x1 -> inception_5a/1x1
I0403 16:22:01.057210 17899 net.cpp:141] Setting up inception_5a/1x1
I0403 16:22:01.057247 17899 net.cpp:148] Top shape: 24 256 7 7 (301056)
I0403 16:22:01.057267 17899 net.cpp:156] Memory required for data: 1293329952
I0403 16:22:01.057289 17899 layer_factory.hpp:77] Creating layer inception_5a/relu_1x1
I0403 16:22:01.057315 17899 net.cpp:91] Creating Layer inception_5a/relu_1x1
I0403 16:22:01.057337 17899 net.cpp:425] inception_5a/relu_1x1 <- inception_5a/1x1
I0403 16:22:01.057359 17899 net.cpp:386] inception_5a/relu_1x1 -> inception_5a/1x1 (in-place)
I0403 16:22:01.057742 17899 net.cpp:141] Setting up inception_5a/relu_1x1
I0403 16:22:01.057775 17899 net.cpp:148] Top shape: 24 256 7 7 (301056)
I0403 16:22:01.057795 17899 net.cpp:156] Memory required for data: 1294534176
I0403 16:22:01.057812 17899 layer_factory.hpp:77] Creating layer inception_5a/3x3_reduce
I0403 16:22:01.057840 17899 net.cpp:91] Creating Layer inception_5a/3x3_reduce
I0403 16:22:01.057862 17899 net.cpp:425] inception_5a/3x3_reduce <- pool4/3x3_s2_pool4/3x3_s2_0_split_1
I0403 16:22:01.057888 17899 net.cpp:399] inception_5a/3x3_reduce -> inception_5a/3x3_reduce
I0403 16:22:01.060911 17899 net.cpp:141] Setting up inception_5a/3x3_reduce
I0403 16:22:01.060947 17899 net.cpp:148] Top shape: 24 160 7 7 (188160)
I0403 16:22:01.060968 17899 net.cpp:156] Memory required for data: 1295286816
I0403 16:22:01.060992 17899 layer_factory.hpp:77] Creating layer inception_5a/relu_3x3_reduce
I0403 16:22:01.061013 17899 net.cpp:91] Creating Layer inception_5a/relu_3x3_reduce
I0403 16:22:01.061033 17899 net.cpp:425] inception_5a/relu_3x3_reduce <- inception_5a/3x3_reduce
I0403 16:22:01.061061 17899 net.cpp:386] inception_5a/relu_3x3_reduce -> inception_5a/3x3_reduce (in-place)
I0403 16:22:01.061292 17899 net.cpp:141] Setting up inception_5a/relu_3x3_reduce
I0403 16:22:01.061323 17899 net.cpp:148] Top shape: 24 160 7 7 (188160)
I0403 16:22:01.061342 17899 net.cpp:156] Memory required for data: 1296039456
I0403 16:22:01.061362 17899 layer_factory.hpp:77] Creating layer inception_5a/3x3
I0403 16:22:01.061388 17899 net.cpp:91] Creating Layer inception_5a/3x3
I0403 16:22:01.061410 17899 net.cpp:425] inception_5a/3x3 <- inception_5a/3x3_reduce
I0403 16:22:01.061437 17899 net.cpp:399] inception_5a/3x3 -> inception_5a/3x3
I0403 16:22:01.067704 17899 net.cpp:141] Setting up inception_5a/3x3
I0403 16:22:01.067742 17899 net.cpp:148] Top shape: 24 320 7 7 (376320)
I0403 16:22:01.067762 17899 net.cpp:156] Memory required for data: 1297544736
I0403 16:22:01.067785 17899 layer_factory.hpp:77] Creating layer inception_5a/relu_3x3
I0403 16:22:01.067809 17899 net.cpp:91] Creating Layer inception_5a/relu_3x3
I0403 16:22:01.067831 17899 net.cpp:425] inception_5a/relu_3x3 <- inception_5a/3x3
I0403 16:22:01.067852 17899 net.cpp:386] inception_5a/relu_3x3 -> inception_5a/3x3 (in-place)
I0403 16:22:01.068217 17899 net.cpp:141] Setting up inception_5a/relu_3x3
I0403 16:22:01.068248 17899 net.cpp:148] Top shape: 24 320 7 7 (376320)
I0403 16:22:01.068267 17899 net.cpp:156] Memory required for data: 1299050016
I0403 16:22:01.068285 17899 layer_factory.hpp:77] Creating layer inception_5a/5x5_reduce
I0403 16:22:01.068311 17899 net.cpp:91] Creating Layer inception_5a/5x5_reduce
I0403 16:22:01.068333 17899 net.cpp:425] inception_5a/5x5_reduce <- pool4/3x3_s2_pool4/3x3_s2_0_split_2
I0403 16:22:01.068361 17899 net.cpp:399] inception_5a/5x5_reduce -> inception_5a/5x5_reduce
I0403 16:22:01.069813 17899 net.cpp:141] Setting up inception_5a/5x5_reduce
I0403 16:22:01.069851 17899 net.cpp:148] Top shape: 24 32 7 7 (37632)
I0403 16:22:01.069872 17899 net.cpp:156] Memory required for data: 1299200544
I0403 16:22:01.069895 17899 layer_factory.hpp:77] Creating layer inception_5a/relu_5x5_reduce
I0403 16:22:01.069917 17899 net.cpp:91] Creating Layer inception_5a/relu_5x5_reduce
I0403 16:22:01.069937 17899 net.cpp:425] inception_5a/relu_5x5_reduce <- inception_5a/5x5_reduce
I0403 16:22:01.069958 17899 net.cpp:386] inception_5a/relu_5x5_reduce -> inception_5a/5x5_reduce (in-place)
I0403 16:22:01.070323 17899 net.cpp:141] Setting up inception_5a/relu_5x5_reduce
I0403 16:22:01.070358 17899 net.cpp:148] Top shape: 24 32 7 7 (37632)
I0403 16:22:01.070377 17899 net.cpp:156] Memory required for data: 1299351072
I0403 16:22:01.070395 17899 layer_factory.hpp:77] Creating layer inception_5a/5x5
I0403 16:22:01.070423 17899 net.cpp:91] Creating Layer inception_5a/5x5
I0403 16:22:01.070446 17899 net.cpp:425] inception_5a/5x5 <- inception_5a/5x5_reduce
I0403 16:22:01.070468 17899 net.cpp:399] inception_5a/5x5 -> inception_5a/5x5
I0403 16:22:01.072597 17899 net.cpp:141] Setting up inception_5a/5x5
I0403 16:22:01.072644 17899 net.cpp:148] Top shape: 24 128 7 7 (150528)
I0403 16:22:01.072664 17899 net.cpp:156] Memory required for data: 1299953184
I0403 16:22:01.072686 17899 layer_factory.hpp:77] Creating layer inception_5a/relu_5x5
I0403 16:22:01.072713 17899 net.cpp:91] Creating Layer inception_5a/relu_5x5
I0403 16:22:01.072736 17899 net.cpp:425] inception_5a/relu_5x5 <- inception_5a/5x5
I0403 16:22:01.072757 17899 net.cpp:386] inception_5a/relu_5x5 -> inception_5a/5x5 (in-place)
I0403 16:22:01.072994 17899 net.cpp:141] Setting up inception_5a/relu_5x5
I0403 16:22:01.073029 17899 net.cpp:148] Top shape: 24 128 7 7 (150528)
I0403 16:22:01.073046 17899 net.cpp:156] Memory required for data: 1300555296
I0403 16:22:01.073065 17899 layer_factory.hpp:77] Creating layer inception_5a/pool
I0403 16:22:01.073087 17899 net.cpp:91] Creating Layer inception_5a/pool
I0403 16:22:01.073107 17899 net.cpp:425] inception_5a/pool <- pool4/3x3_s2_pool4/3x3_s2_0_split_3
I0403 16:22:01.073128 17899 net.cpp:399] inception_5a/pool -> inception_5a/pool
I0403 16:22:01.073215 17899 net.cpp:141] Setting up inception_5a/pool
I0403 16:22:01.073246 17899 net.cpp:148] Top shape: 24 832 7 7 (978432)
I0403 16:22:01.073263 17899 net.cpp:156] Memory required for data: 1304469024
I0403 16:22:01.073282 17899 layer_factory.hpp:77] Creating layer inception_5a/pool_proj
I0403 16:22:01.073309 17899 net.cpp:91] Creating Layer inception_5a/pool_proj
I0403 16:22:01.073330 17899 net.cpp:425] inception_5a/pool_proj <- inception_5a/pool
I0403 16:22:01.073355 17899 net.cpp:399] inception_5a/pool_proj -> inception_5a/pool_proj
I0403 16:22:01.076172 17899 net.cpp:141] Setting up inception_5a/pool_proj
I0403 16:22:01.076211 17899 net.cpp:148] Top shape: 24 128 7 7 (150528)
I0403 16:22:01.076232 17899 net.cpp:156] Memory required for data: 1305071136
I0403 16:22:01.076254 17899 layer_factory.hpp:77] Creating layer inception_5a/relu_pool_proj
I0403 16:22:01.076280 17899 net.cpp:91] Creating Layer inception_5a/relu_pool_proj
I0403 16:22:01.076303 17899 net.cpp:425] inception_5a/relu_pool_proj <- inception_5a/pool_proj
I0403 16:22:01.076325 17899 net.cpp:386] inception_5a/relu_pool_proj -> inception_5a/pool_proj (in-place)
I0403 16:22:01.076688 17899 net.cpp:141] Setting up inception_5a/relu_pool_proj
I0403 16:22:01.076720 17899 net.cpp:148] Top shape: 24 128 7 7 (150528)
I0403 16:22:01.076738 17899 net.cpp:156] Memory required for data: 1305673248
I0403 16:22:01.076756 17899 layer_factory.hpp:77] Creating layer inception_5a/output
I0403 16:22:01.076778 17899 net.cpp:91] Creating Layer inception_5a/output
I0403 16:22:01.076797 17899 net.cpp:425] inception_5a/output <- inception_5a/1x1
I0403 16:22:01.076817 17899 net.cpp:425] inception_5a/output <- inception_5a/3x3
I0403 16:22:01.076845 17899 net.cpp:425] inception_5a/output <- inception_5a/5x5
I0403 16:22:01.076866 17899 net.cpp:425] inception_5a/output <- inception_5a/pool_proj
I0403 16:22:01.076887 17899 net.cpp:399] inception_5a/output -> inception_5a/output
I0403 16:22:01.076947 17899 net.cpp:141] Setting up inception_5a/output
I0403 16:22:01.076980 17899 net.cpp:148] Top shape: 24 832 7 7 (978432)
I0403 16:22:01.077000 17899 net.cpp:156] Memory required for data: 1309586976
I0403 16:22:01.077018 17899 layer_factory.hpp:77] Creating layer inception_5a/output_inception_5a/output_0_split
I0403 16:22:01.077040 17899 net.cpp:91] Creating Layer inception_5a/output_inception_5a/output_0_split
I0403 16:22:01.077059 17899 net.cpp:425] inception_5a/output_inception_5a/output_0_split <- inception_5a/output
I0403 16:22:01.077085 17899 net.cpp:399] inception_5a/output_inception_5a/output_0_split -> inception_5a/output_inception_5a/output_0_split_0
I0403 16:22:01.077111 17899 net.cpp:399] inception_5a/output_inception_5a/output_0_split -> inception_5a/output_inception_5a/output_0_split_1
I0403 16:22:01.077136 17899 net.cpp:399] inception_5a/output_inception_5a/output_0_split -> inception_5a/output_inception_5a/output_0_split_2
I0403 16:22:01.077159 17899 net.cpp:399] inception_5a/output_inception_5a/output_0_split -> inception_5a/output_inception_5a/output_0_split_3
I0403 16:22:01.077296 17899 net.cpp:141] Setting up inception_5a/output_inception_5a/output_0_split
I0403 16:22:01.077328 17899 net.cpp:148] Top shape: 24 832 7 7 (978432)
I0403 16:22:01.077350 17899 net.cpp:148] Top shape: 24 832 7 7 (978432)
I0403 16:22:01.077369 17899 net.cpp:148] Top shape: 24 832 7 7 (978432)
I0403 16:22:01.077389 17899 net.cpp:148] Top shape: 24 832 7 7 (978432)
I0403 16:22:01.077404 17899 net.cpp:156] Memory required for data: 1325241888
I0403 16:22:01.077422 17899 layer_factory.hpp:77] Creating layer inception_5b/1x1
I0403 16:22:01.077447 17899 net.cpp:91] Creating Layer inception_5b/1x1
I0403 16:22:01.077467 17899 net.cpp:425] inception_5b/1x1 <- inception_5a/output_inception_5a/output_0_split_0
I0403 16:22:01.077492 17899 net.cpp:399] inception_5b/1x1 -> inception_5b/1x1
I0403 16:22:01.082145 17899 net.cpp:141] Setting up inception_5b/1x1
I0403 16:22:01.082181 17899 net.cpp:148] Top shape: 24 384 7 7 (451584)
I0403 16:22:01.082202 17899 net.cpp:156] Memory required for data: 1327048224
I0403 16:22:01.082226 17899 layer_factory.hpp:77] Creating layer inception_5b/relu_1x1
I0403 16:22:01.082247 17899 net.cpp:91] Creating Layer inception_5b/relu_1x1
I0403 16:22:01.082267 17899 net.cpp:425] inception_5b/relu_1x1 <- inception_5b/1x1
I0403 16:22:01.082293 17899 net.cpp:386] inception_5b/relu_1x1 -> inception_5b/1x1 (in-place)
I0403 16:22:01.082674 17899 net.cpp:141] Setting up inception_5b/relu_1x1
I0403 16:22:01.082707 17899 net.cpp:148] Top shape: 24 384 7 7 (451584)
I0403 16:22:01.082726 17899 net.cpp:156] Memory required for data: 1328854560
I0403 16:22:01.082744 17899 layer_factory.hpp:77] Creating layer inception_5b/3x3_reduce
I0403 16:22:01.082772 17899 net.cpp:91] Creating Layer inception_5b/3x3_reduce
I0403 16:22:01.082794 17899 net.cpp:425] inception_5b/3x3_reduce <- inception_5a/output_inception_5a/output_0_split_1
I0403 16:22:01.082821 17899 net.cpp:399] inception_5b/3x3_reduce -> inception_5b/3x3_reduce
I0403 16:22:01.086117 17899 net.cpp:141] Setting up inception_5b/3x3_reduce
I0403 16:22:01.086154 17899 net.cpp:148] Top shape: 24 192 7 7 (225792)
I0403 16:22:01.086174 17899 net.cpp:156] Memory required for data: 1329757728
I0403 16:22:01.086196 17899 layer_factory.hpp:77] Creating layer inception_5b/relu_3x3_reduce
I0403 16:22:01.086221 17899 net.cpp:91] Creating Layer inception_5b/relu_3x3_reduce
I0403 16:22:01.086244 17899 net.cpp:425] inception_5b/relu_3x3_reduce <- inception_5b/3x3_reduce
I0403 16:22:01.086266 17899 net.cpp:386] inception_5b/relu_3x3_reduce -> inception_5b/3x3_reduce (in-place)
I0403 16:22:01.086500 17899 net.cpp:141] Setting up inception_5b/relu_3x3_reduce
I0403 16:22:01.086532 17899 net.cpp:148] Top shape: 24 192 7 7 (225792)
I0403 16:22:01.086549 17899 net.cpp:156] Memory required for data: 1330660896
I0403 16:22:01.086570 17899 layer_factory.hpp:77] Creating layer inception_5b/3x3
I0403 16:22:01.086599 17899 net.cpp:91] Creating Layer inception_5b/3x3
I0403 16:22:01.086622 17899 net.cpp:425] inception_5b/3x3 <- inception_5b/3x3_reduce
I0403 16:22:01.086650 17899 net.cpp:399] inception_5b/3x3 -> inception_5b/3x3
I0403 16:22:01.095018 17899 net.cpp:141] Setting up inception_5b/3x3
I0403 16:22:01.095054 17899 net.cpp:148] Top shape: 24 384 7 7 (451584)
I0403 16:22:01.095075 17899 net.cpp:156] Memory required for data: 1332467232
I0403 16:22:01.095098 17899 layer_factory.hpp:77] Creating layer inception_5b/relu_3x3
I0403 16:22:01.095123 17899 net.cpp:91] Creating Layer inception_5b/relu_3x3
I0403 16:22:01.095144 17899 net.cpp:425] inception_5b/relu_3x3 <- inception_5b/3x3
I0403 16:22:01.095165 17899 net.cpp:386] inception_5b/relu_3x3 -> inception_5b/3x3 (in-place)
I0403 16:22:01.095523 17899 net.cpp:141] Setting up inception_5b/relu_3x3
I0403 16:22:01.095556 17899 net.cpp:148] Top shape: 24 384 7 7 (451584)
I0403 16:22:01.095582 17899 net.cpp:156] Memory required for data: 1334273568
I0403 16:22:01.095600 17899 layer_factory.hpp:77] Creating layer inception_5b/5x5_reduce
I0403 16:22:01.095646 17899 net.cpp:91] Creating Layer inception_5b/5x5_reduce
I0403 16:22:01.095671 17899 net.cpp:425] inception_5b/5x5_reduce <- inception_5a/output_inception_5a/output_0_split_2
I0403 16:22:01.095700 17899 net.cpp:399] inception_5b/5x5_reduce -> inception_5b/5x5_reduce
I0403 16:22:01.097272 17899 net.cpp:141] Setting up inception_5b/5x5_reduce
I0403 16:22:01.097309 17899 net.cpp:148] Top shape: 24 48 7 7 (56448)
I0403 16:22:01.097327 17899 net.cpp:156] Memory required for data: 1334499360
I0403 16:22:01.097349 17899 layer_factory.hpp:77] Creating layer inception_5b/relu_5x5_reduce
I0403 16:22:01.097374 17899 net.cpp:91] Creating Layer inception_5b/relu_5x5_reduce
I0403 16:22:01.097396 17899 net.cpp:425] inception_5b/relu_5x5_reduce <- inception_5b/5x5_reduce
I0403 16:22:01.097419 17899 net.cpp:386] inception_5b/relu_5x5_reduce -> inception_5b/5x5_reduce (in-place)
I0403 16:22:01.097895 17899 net.cpp:141] Setting up inception_5b/relu_5x5_reduce
I0403 16:22:01.097929 17899 net.cpp:148] Top shape: 24 48 7 7 (56448)
I0403 16:22:01.097946 17899 net.cpp:156] Memory required for data: 1334725152
I0403 16:22:01.097965 17899 layer_factory.hpp:77] Creating layer inception_5b/5x5
I0403 16:22:01.097990 17899 net.cpp:91] Creating Layer inception_5b/5x5
I0403 16:22:01.098011 17899 net.cpp:425] inception_5b/5x5 <- inception_5b/5x5_reduce
I0403 16:22:01.098034 17899 net.cpp:399] inception_5b/5x5 -> inception_5b/5x5
I0403 16:22:01.100565 17899 net.cpp:141] Setting up inception_5b/5x5
I0403 16:22:01.100605 17899 net.cpp:148] Top shape: 24 128 7 7 (150528)
I0403 16:22:01.100623 17899 net.cpp:156] Memory required for data: 1335327264
I0403 16:22:01.100646 17899 layer_factory.hpp:77] Creating layer inception_5b/relu_5x5
I0403 16:22:01.100672 17899 net.cpp:91] Creating Layer inception_5b/relu_5x5
I0403 16:22:01.100692 17899 net.cpp:425] inception_5b/relu_5x5 <- inception_5b/5x5
I0403 16:22:01.100713 17899 net.cpp:386] inception_5b/relu_5x5 -> inception_5b/5x5 (in-place)
I0403 16:22:01.100956 17899 net.cpp:141] Setting up inception_5b/relu_5x5
I0403 16:22:01.100989 17899 net.cpp:148] Top shape: 24 128 7 7 (150528)
I0403 16:22:01.101009 17899 net.cpp:156] Memory required for data: 1335929376
I0403 16:22:01.101027 17899 layer_factory.hpp:77] Creating layer inception_5b/pool
I0403 16:22:01.101049 17899 net.cpp:91] Creating Layer inception_5b/pool
I0403 16:22:01.101069 17899 net.cpp:425] inception_5b/pool <- inception_5a/output_inception_5a/output_0_split_3
I0403 16:22:01.101094 17899 net.cpp:399] inception_5b/pool -> inception_5b/pool
I0403 16:22:01.101183 17899 net.cpp:141] Setting up inception_5b/pool
I0403 16:22:01.101214 17899 net.cpp:148] Top shape: 24 832 7 7 (978432)
I0403 16:22:01.101233 17899 net.cpp:156] Memory required for data: 1339843104
I0403 16:22:01.101250 17899 layer_factory.hpp:77] Creating layer inception_5b/pool_proj
I0403 16:22:01.101276 17899 net.cpp:91] Creating Layer inception_5b/pool_proj
I0403 16:22:01.101300 17899 net.cpp:425] inception_5b/pool_proj <- inception_5b/pool
I0403 16:22:01.101325 17899 net.cpp:399] inception_5b/pool_proj -> inception_5b/pool_proj
I0403 16:22:01.104163 17899 net.cpp:141] Setting up inception_5b/pool_proj
I0403 16:22:01.104200 17899 net.cpp:148] Top shape: 24 128 7 7 (150528)
I0403 16:22:01.104223 17899 net.cpp:156] Memory required for data: 1340445216
I0403 16:22:01.104244 17899 layer_factory.hpp:77] Creating layer inception_5b/relu_pool_proj
I0403 16:22:01.104269 17899 net.cpp:91] Creating Layer inception_5b/relu_pool_proj
I0403 16:22:01.104293 17899 net.cpp:425] inception_5b/relu_pool_proj <- inception_5b/pool_proj
I0403 16:22:01.104315 17899 net.cpp:386] inception_5b/relu_pool_proj -> inception_5b/pool_proj (in-place)
I0403 16:22:01.104691 17899 net.cpp:141] Setting up inception_5b/relu_pool_proj
I0403 16:22:01.104725 17899 net.cpp:148] Top shape: 24 128 7 7 (150528)
I0403 16:22:01.104744 17899 net.cpp:156] Memory required for data: 1341047328
I0403 16:22:01.104763 17899 layer_factory.hpp:77] Creating layer inception_5b/output
I0403 16:22:01.104784 17899 net.cpp:91] Creating Layer inception_5b/output
I0403 16:22:01.104820 17899 net.cpp:425] inception_5b/output <- inception_5b/1x1
I0403 16:22:01.104842 17899 net.cpp:425] inception_5b/output <- inception_5b/3x3
I0403 16:22:01.104862 17899 net.cpp:425] inception_5b/output <- inception_5b/5x5
I0403 16:22:01.104882 17899 net.cpp:425] inception_5b/output <- inception_5b/pool_proj
I0403 16:22:01.104910 17899 net.cpp:399] inception_5b/output -> inception_5b/output
I0403 16:22:01.104979 17899 net.cpp:141] Setting up inception_5b/output
I0403 16:22:01.105007 17899 net.cpp:148] Top shape: 24 1024 7 7 (1204224)
I0403 16:22:01.105026 17899 net.cpp:156] Memory required for data: 1345864224
I0403 16:22:01.105043 17899 layer_factory.hpp:77] Creating layer pool5/7x7_s1
I0403 16:22:01.105065 17899 net.cpp:91] Creating Layer pool5/7x7_s1
I0403 16:22:01.105084 17899 net.cpp:425] pool5/7x7_s1 <- inception_5b/output
I0403 16:22:01.105108 17899 net.cpp:399] pool5/7x7_s1 -> pool5/7x7_s1
I0403 16:22:01.105377 17899 net.cpp:141] Setting up pool5/7x7_s1
I0403 16:22:01.105408 17899 net.cpp:148] Top shape: 24 1024 1 1 (24576)
I0403 16:22:01.105427 17899 net.cpp:156] Memory required for data: 1345962528
I0403 16:22:01.105445 17899 layer_factory.hpp:77] Creating layer pool5/drop_7x7_s1
I0403 16:22:01.105470 17899 net.cpp:91] Creating Layer pool5/drop_7x7_s1
I0403 16:22:01.105491 17899 net.cpp:425] pool5/drop_7x7_s1 <- pool5/7x7_s1
I0403 16:22:01.105511 17899 net.cpp:386] pool5/drop_7x7_s1 -> pool5/7x7_s1 (in-place)
I0403 16:22:01.105581 17899 net.cpp:141] Setting up pool5/drop_7x7_s1
I0403 16:22:01.105609 17899 net.cpp:148] Top shape: 24 1024 1 1 (24576)
I0403 16:22:01.105628 17899 net.cpp:156] Memory required for data: 1346060832
I0403 16:22:01.105645 17899 layer_factory.hpp:77] Creating layer loss3/classifier_plantvillage
I0403 16:22:01.105669 17899 net.cpp:91] Creating Layer loss3/classifier_plantvillage
I0403 16:22:01.105689 17899 net.cpp:425] loss3/classifier_plantvillage <- pool5/7x7_s1
I0403 16:22:01.105712 17899 net.cpp:399] loss3/classifier_plantvillage -> loss3/classifier_plantvillage
I0403 16:22:01.106242 17899 net.cpp:141] Setting up loss3/classifier_plantvillage
I0403 16:22:01.106272 17899 net.cpp:148] Top shape: 24 38 (912)
I0403 16:22:01.106293 17899 net.cpp:156] Memory required for data: 1346064480
I0403 16:22:01.106314 17899 layer_factory.hpp:77] Creating layer loss3/classifier_plantvillage_loss3/classifier_plantvillage_0_split
I0403 16:22:01.106338 17899 net.cpp:91] Creating Layer loss3/classifier_plantvillage_loss3/classifier_plantvillage_0_split
I0403 16:22:01.106358 17899 net.cpp:425] loss3/classifier_plantvillage_loss3/classifier_plantvillage_0_split <- loss3/classifier_plantvillage
I0403 16:22:01.106381 17899 net.cpp:399] loss3/classifier_plantvillage_loss3/classifier_plantvillage_0_split -> loss3/classifier_plantvillage_loss3/classifier_plantvillage_0_split_0
I0403 16:22:01.106408 17899 net.cpp:399] loss3/classifier_plantvillage_loss3/classifier_plantvillage_0_split -> loss3/classifier_plantvillage_loss3/classifier_plantvillage_0_split_1
I0403 16:22:01.106433 17899 net.cpp:399] loss3/classifier_plantvillage_loss3/classifier_plantvillage_0_split -> loss3/classifier_plantvillage_loss3/classifier_plantvillage_0_split_2
I0403 16:22:01.106458 17899 net.cpp:399] loss3/classifier_plantvillage_loss3/classifier_plantvillage_0_split -> loss3/classifier_plantvillage_loss3/classifier_plantvillage_0_split_3
I0403 16:22:01.106590 17899 net.cpp:141] Setting up loss3/classifier_plantvillage_loss3/classifier_plantvillage_0_split
I0403 16:22:01.106618 17899 net.cpp:148] Top shape: 24 38 (912)
I0403 16:22:01.106638 17899 net.cpp:148] Top shape: 24 38 (912)
I0403 16:22:01.106658 17899 net.cpp:148] Top shape: 24 38 (912)
I0403 16:22:01.106676 17899 net.cpp:148] Top shape: 24 38 (912)
I0403 16:22:01.106693 17899 net.cpp:156] Memory required for data: 1346079072
I0403 16:22:01.106709 17899 layer_factory.hpp:77] Creating layer loss1/loss
I0403 16:22:01.106735 17899 net.cpp:91] Creating Layer loss1/loss
I0403 16:22:01.106757 17899 net.cpp:425] loss1/loss <- loss1/classifier_plantvillage_loss1/classifier_plantvillage_0_split_0
I0403 16:22:01.106796 17899 net.cpp:425] loss1/loss <- label_data_1_split_0
…
