…
I0403 16:02:47.852908 16832 net.cpp:313] The NetState phase (1) differed from the phase (0) specified by a rule in layer data
I0403 16:02:47.855099 16832 net.cpp:49] Initializing net from parameters: 
state {
  phase: TEST
}
layer {
  name: "data"
  type: "Data"
  top: "data"
  top: "label"
  include {
    phase: TEST
  }
  transform_param {
    mirror: false
    crop_size: 224
    mean_file: "/home/mohanty/data/final_dataset/lmdb/segmented-20-80/mean.binaryproto"
  }
  data_param {
    source: "/home/mohanty/data/final_dataset/lmdb/segmented-20-80/test_db"
    batch_size: 24
    backend: LMDB
  }
}
layer {
  name: "conv1/7x7_s2"
  type: "Convolution"
  bottom: "data"
  top: "conv1/7x7_s2"
  param {
    lr_mult: 1
    decay_mult: 1
  }
  param {
    lr_mult: 2
    decay_mult: 0
  }
  convolution_param {
    num_output: 64
    pad: 3
    kernel_size: 7
    stride: 2
    weight_filler {
      type: "xavier"
      std: 0.1
    }
    bias_filler {
      type: "constant"
      value: 0.2
    }
  }
}
layer {
  name: "conv1/relu_7x7"
  type: "ReLU"
  bottom: "conv1/7x7_s2"
  top: "conv1/7x7_s2"
}
layer {
  name: "pool1/3x3_s2"
  type: "Pooling"
  bottom: "conv1/7x7_s2"
  top: "pool1/3x3_s2"
  pooling_param {
    pool: MAX
    kernel_size: 3
    stride: 2
  }
}
layer {
  name: "pool1/norm1"
  type: "LRN"
  bottom: "pool1/3x3_s2"
  top: "pool1/norm1"
  lrn_param {
    local_size: 5
    alpha: 0.0001
    beta: 0.75
  }
}
layer {
  name: "conv2/3x3_reduce"
  type: "Convolution"
  bottom: "pool1/norm1"
  top: "conv2/3x3_reduce"
  param {
    lr_mult: 1
    decay_mult: 1
  }
  param {
    lr_mult: 2
    decay_mult: 0
  }
  convolution_param {
    num_output: 64
    kernel_size: 1
    weight_filler {
      type: "xavier"
      std: 0.1
    }
    bias_filler {
      type: "constant"
      value: 0.2
    }
  }
}
layer {
  name: "conv2/relu_3x3_reduce"
  type: "ReLU"
  bottom: "conv2/3x3_reduce"
  top: "conv2/3x3_reduce"
}
layer {
  name: "conv2/3x3"
  type: "Convolution"
  bottom: "conv2/3x3_reduce"
  top: "conv2/3x3"
  param {
    lr_mult: 1
    decay_mult: 1
  }
  param {
    lr_mult: 2
    decay_mult: 0
  }
  convolution_param {
    num_output: 192
    pad: 1
    kernel_size: 3
    weight_filler {
      type: "xavier"
      std: 0.03
    }
    bias_filler {
      type: "constant"
      value: 0.2
    }
  }
}
layer {
  name: "conv2/relu_3x3"
  type: "ReLU"
  bottom: "conv2/3x3"
  top: "conv2/3x3"
}
layer {
  name: "conv2/norm2"
  type: "LRN"
  bottom: "conv2/3x3"
  top: "conv2/norm2"
  lrn_param {
    local_size: 5
    alpha: 0.0001
    beta: 0.75
  }
}
layer {
  name: "pool2/3x3_s2"
  type: "Pooling"
  bottom: "conv2/norm2"
  top: "pool2/3x3_s2"
  pooling_param {
    pool: MAX
    kernel_size: 3
    stride: 2
  }
}
layer {
  name: "inception_3a/1x1"
  type: "Convolution"
  bottom: "pool2/3x3_s2"
  top: "inception_3a/1x1"
  param {
    lr_mult: 1
    decay_mult: 1
  }
  param {
    lr_mult: 2
    decay_mult: 0
  }
  convolution_param {
    num_output: 64
    kernel_size: 1
    weight_filler {
      type: "xavier"
      std: 0.03
    }
    bias_filler {
      type: "constant"
      value: 0.2
    }
  }
}
layer {
  name: "inception_3a/relu_1x1"
  type: "ReLU"
  bottom: "inception_3a/1x1"
  top: "inception_3a/1x1"
}
layer {
  name: "inception_3a/3x3_reduce"
  type: "Convolution"
  bottom: "pool2/3x3_s2"
  top: "inception_3a/3x3_reduce"
  param {
    lr_mult: 1
    decay_mult: 1
  }
  param {
    lr_mult: 2
    decay_mult: 0
  }
  convolution_param {
    num_output: 96
    kernel_size: 1
    weight_filler {
      type: "xavier"
      std: 0.09
    }
    bias_filler {
      type: "constant"
      value: 0.2
    }
  }
}
layer {
  name: "inception_3a/relu_3x3_reduce"
  type: "ReLU"
  bottom: "inception_3a/3x3_reduce"
  top: "inception_3a/3x3_reduce"
}
layer {
  name: "inception_3a/3x3"
  type: "Convolution"
  bottom: "inception_3a/3x3_reduce"
  top: "inception_3a/3x3"
  param {
    lr_mult: 1
    decay_mult: 1
  }
  param {
    lr_mult: 2
    decay_mult: 0
  }
  convolution_param {
    num_output: 128
    pad: 1
    kernel_size: 3
    weight_filler {
      type: "xavier"
      std: 0.03
    }
    bias_filler {
      type: "constant"
      value: 0.2
    }
  }
}
layer {
  name: "inception_3a/relu_3x3"
  type: "ReLU"
  bottom: "inception_3a/3x3"
  top: "inception_3a/3x3"
}
layer {
  name: "inception_3a/5x5_reduce"
  type: "Convolution"
  bottom: "pool2/3x3_s2"
  top: "inception_3a/5x5_reduce"
  param {
    lr_mult: 1
    decay_mult: 1
  }
  param {
    lr_mult: 2
    decay_mult: 0
  }
  convolution_param {
    num_output: 16
    kernel_size: 1
    weight_filler {
      type: "xavier"
      std: 0.2
    }
    bias_filler {
      type: "constant"
      value: 0.2
    }
  }
}
layer {
  name: "inception_3a/relu_5x5_reduce"
  type: "ReLU"
  bottom: "inception_3a/5x5_reduce"
  top: "inception_3a/5x5_reduce"
}
layer {
  name: "inception_3a/5x5"
  type: "Convolution"
  bottom: "inception_3a/5x5_reduce"
  top: "inception_3a/5x5"
  param {
    lr_mult: 1
    decay_mult: 1
  }
  param {
    lr_mult: 2
    decay_mult: 0
  }
  convolution_param {
    num_output: 32
    pad: 2
    kernel_size: 5
    weight_filler {
      type: "xavier"
      std: 0.03
    }
    bias_filler {
      type: "constant"
      value: 0.2
    }
  }
}
layer {
  name: "inception_3a/relu_5x5"
  type: "ReLU"
  bottom: "inception_3a/5x5"
  top: "inception_3a/5x5"
}
layer {
  name: "inception_3a/pool"
  type: "Pooling"
  bottom: "pool2/3x3_s2"
  top: "inception_3a/pool"
  pooling_param {
    pool: MAX
    kernel_size: 3
    stride: 1
    pad: 1
  }
}
layer {
  name: "inception_3a/pool_proj"
  type: "Convolution"
  bottom: "inception_3a/pool"
  top: "inception_3a/pool_proj"
  param {
    lr_mult: 1
    decay_mult: 1
  }
  param {
    lr_mult: 2
    decay_mult: 0
  }
  convolution_param {
    num_output: 32
    kernel_size: 1
    weight_filler {
      type: "xavier"
      std: 0.1
    }
    bias_filler {
      type: "constant"
      value: 0.2
    }
  }
}
layer {
  name: "inception_3a/relu_pool_proj"
  type: "ReLU"
  bottom: "inception_3a/pool_proj"
  top: "inception_3a/pool_proj"
}
layer {
  name: "inception_3a/output"
  type: "Concat"
  bottom: "inception_3a/1x1"
  bottom: "inception_3a/3x3"
  bottom: "inception_3a/5x5"
  bottom: "inception_3a/pool_proj"
  top: "inception_3a/output"
}
layer {
  name: "inception_3b/1x1"
  type: "Convolution"
  bottom: "inception_3a/output"
  top: "inception_3b/1x1"
  param {
    lr_mult: 1
    decay_mult: 1
  }
  param {
    lr_mult: 2
    decay_mult: 0
  }
  convolution_param {
    num_output: 128
    kernel_size: 1
    weight_filler {
      type: "xavier"
      std: 0.03
    }
    bias_filler {
      type: "constant"
      value: 0.2
    }
  }
}
layer {
  name: "inception_3b/relu_1x1"
  type: "ReLU"
  bottom: "inception_3b/1x1"
  top: "inception_3b/1x1"
}
layer {
  name: "inception_3b/3x3_reduce"
  type: "Convolution"
  bottom: "inception_3a/output"
  top: "inception_3b/3x3_reduce"
  param {
    lr_mult: 1
    decay_mult: 1
  }
  param {
    lr_mult: 2
    decay_mult: 0
  }
  convolution_param {
    num_output: 128
    kernel_size: 1
    weight_filler {
      type: "xavier"
      std: 0.09
    }
    bias_filler {
      type: "constant"
      value: 0.2
    }
  }
}
layer {
  name: "inception_3b/relu_3x3_reduce"
  type: "ReLU"
  bottom: "inception_3b/3x3_reduce"
  top: "inception_3b/3x3_reduce"
}
layer {
  name: "inception_3b/3x3"
  type: "Convolution"
  bottom: "inception_3b/3x3_reduce"
  top: "inception_3b/3x3"
  param {
    lr_mult: 1
    decay_mult: 1
  }
  param {
    lr_mult: 2
    decay_mult: 0
  }
  convolution_param {
    num_output: 192
    pad: 1
    kernel_size: 3
    weight_filler {
      type: "xavier"
      std: 0.03
    }
    bias_filler {
      type: "constant"
      value: 0.2
    }
  }
}
layer {
  name: "inception_3b/relu_3x3"
  type: "ReLU"
  bottom: "inception_3b/3x3"
  top: "inception_3b/3x3"
}
layer {
  name: "inception_3b/5x5_reduce"
  type: "Convolution"
  bottom: "inception_3a/output"
  top: "inception_3b/5x5_reduce"
  param {
    lr_mult: 1
    decay_mult: 1
  }
  param {
    lr_mult: 2
    decay_mult: 0
  }
  convolution_param {
    num_output: 32
    kernel_size: 1
    weight_filler {
      type: "xavier"
      std: 0.2
    }
    bias_filler {
      type: "constant"
      value: 0.2
    }
  }
}
layer {
  name: "inception_3b/relu_5x5_reduce"
  type: "ReLU"
  bottom: "inception_3b/5x5_reduce"
  top: "inception_3b/5x5_reduce"
}
layer {
  name: "inception_3b/5x5"
  type: "Convolution"
  bottom: "inception_3b/5x5_reduce"
  top: "inception_3b/5x5"
  param {
    lr_mult: 1
    decay_mult: 1
  }
  param {
    lr_mult: 2
    decay_mult: 0
  }
  convolution_param {
    num_output: 96
    pad: 2
    kernel_size: 5
    weight_filler {
      type: "xavier"
      std: 0.03
    }
    bias_filler {
      type: "constant"
      value: 0.2
    }
  }
}
layer {
  name: "inception_3b/relu_5x5"
  type: "ReLU"
  bottom: "inception_3b/5x5"
  top: "inception_3b/5x5"
}
layer {
  name: "inception_3b/pool"
  type: "Pooling"
  bottom: "inception_3a/output"
  top: "inception_3b/pool"
  pooling_param {
    pool: MAX
    kernel_size: 3
    stride: 1
    pad: 1
  }
}
layer {
  name: "inception_3b/pool_proj"
  type: "Convolution"
  bottom: "inception_3b/pool"
  top: "inception_3b/pool_proj"
  param {
    lr_mult: 1
    decay_mult: 1
  }
  param {
    lr_mult: 2
    decay_mult: 0
  }
  convolution_param {
    num_output: 64
    kernel_size: 1
    weight_filler {
      type: "xavier"
      std: 0.1
    }
    bias_filler {
      type: "constant"
      value: 0.2
    }
  }
}
layer {
  name: "inception_3b/relu_pool_proj"
  type: "ReLU"
  bottom: "inception_3b/pool_proj"
  top: "inception_3b/pool_proj"
}
layer {
  name: "inception_3b/output"
  type: "Concat"
  bottom: "inception_3b/1x1"
  bottom: "inception_3b/3x3"
  bottom: "inception_3b/5x5"
  bottom: "inception_3b/pool_proj"
  top: "inception_3b/output"
}
layer {
  name: "pool3/3x3_s2"
  type: "Pooling"
  bottom: "inception_3b/output"
  top: "pool3/3x3_s2"
  pooling_param {
    pool: MAX
    kernel_size: 3
    stride: 2
  }
}
layer {
  name: "inception_4a/1x1"
  type: "Convolution"
  bottom: "pool3/3x3_s2"
  top: "inception_4a/1x1"
  param {
    lr_mult: 1
    decay_mult: 1
  }
  param {
    lr_mult: 2
    decay_mult: 0
  }
  convolution_param {
    num_output: 192
    kernel_size: 1
    weight_filler {
      type: "xavier"
      std: 0.03
    }
    bias_filler {
      type: "constant"
      value: 0.2
    }
  }
}
layer {
  name: "inception_4a/relu_1x1"
  type: "ReLU"
  bottom: "inception_4a/1x1"
  top: "inception_4a/1x1"
}
layer {
  name: "inception_4a/3x3_reduce"
  type: "Convolution"
  bottom: "pool3/3x3_s2"
  top: "inception_4a/3x3_reduce"
  param {
    lr_mult: 1
    decay_mult: 1
  }
  param {
    lr_mult: 2
    decay_mult: 0
  }
  convolution_param {
    num_output: 96
    kernel_size: 1
    weight_filler {
      type: "xavier"
      std: 0.09
    }
    bias_filler {
      type: "constant"
      value: 0.2
    }
  }
}
layer {
  name: "inception_4a/relu_3x3_reduce"
  type: "ReLU"
  bottom: "inception_4a/3x3_reduce"
  top: "inception_4a/3x3_reduce"
}
layer {
  name: "inception_4a/3x3"
  type: "Convolution"
  bottom: "inception_4a/3x3_reduce"
  top: "inception_4a/3x3"
  param {
    lr_mult: 1
    decay_mult: 1
  }
  param {
    lr_mult: 2
    decay_mult: 0
  }
  convolution_param {
    num_output: 208
    pad: 1
    kernel_size: 3
    weight_filler {
      type: "xavier"
      std: 0.03
    }
    bias_filler {
      type: "constant"
      value: 0.2
    }
  }
}
layer {
  name: "inception_4a/relu_3x3"
  type: "ReLU"
  bottom: "inception_4a/3x3"
  top: "inception_4a/3x3"
}
layer {
  name: "inception_4a/5x5_reduce"
  type: "Convolution"
  bottom: "pool3/3x3_s2"
  top: "inception_4a/5x5_reduce"
  param {
    lr_mult: 1
    decay_mult: 1
  }
  param {
    lr_mult: 2
    decay_mult: 0
  }
  convolution_param {
    num_output: 16
    kernel_size: 1
    weight_filler {
      type: "xavier"
      std: 0.2
    }
    bias_filler {
      type: "constant"
      value: 0.2
    }
  }
}
layer {
  name: "inception_4a/relu_5x5_reduce"
  type: "ReLU"
  bottom: "inception_4a/5x5_reduce"
  top: "inception_4a/5x5_reduce"
}
layer {
  name: "inception_4a/5x5"
  type: "Convolution"
  bottom: "inception_4a/5x5_reduce"
  top: "inception_4a/5x5"
  param {
    lr_mult: 1
    decay_mult: 1
  }
  param {
    lr_mult: 2
    decay_mult: 0
  }
  convolution_param {
    num_output: 48
    pad: 2
    kernel_size: 5
    weight_filler {
      type: "xavier"
      std: 0.03
    }
    bias_filler {
      type: "constant"
      value: 0.2
    }
  }
}
layer {
  name: "inception_4a/relu_5x5"
  type: "ReLU"
  bottom: "inception_4a/5x5"
  top: "inception_4a/5x5"
}
layer {
  name: "inception_4a/pool"
  type: "Pooling"
  bottom: "pool3/3x3_s2"
  top: "inception_4a/pool"
  pooling_param {
    pool: MAX
    kernel_size: 3
    stride: 1
    pad: 1
  }
}
layer {
  name: "inception_4a/pool_proj"
  type: "Convolution"
  bottom: "inception_4a/pool"
  top: "inception_4a/pool_proj"
  param {
    lr_mult: 1
    decay_mult: 1
  }
  param {
    lr_mult: 2
    decay_mult: 0
  }
  convolution_param {
    num_output: 64
    kernel_size: 1
    weight_filler {
      type: "xavier"
      std: 0.1
    }
    bias_filler {
      type: "constant"
      value: 0.2
    }
  }
}
layer {
  name: "inception_4a/relu_pool_proj"
  type: "ReLU"
  bottom: "inception_4a/pool_proj"
  top: "inception_4a/pool_proj"
}
layer {
  name: "inception_4a/output"
  type: "Concat"
  bottom: "inception_4a/1x1"
  bottom: "inception_4a/3x3"
  bottom: "inception_4a/5x5"
  bottom: "inception_4a/pool_proj"
  top: "inception_4a/output"
}
layer {
  name: "loss1/ave_pool"
  type: "Pooling"
  bottom: "inception_4a/output"
  top: "loss1/ave_pool"
  pooling_param {
    pool: AVE
    kernel_size: 5
    stride: 3
  }
}
layer {
  name: "loss1/conv"
  type: "Convolution"
  bottom: "loss1/ave_pool"
  top: "loss1/conv"
  param {
    lr_mult: 1
    decay_mult: 1
  }
  param {
    lr_mult: 2
    decay_mult: 0
  }
  convolution_param {
    num_output: 128
    kernel_size: 1
    weight_filler {
      type: "xavier"
      std: 0.08
    }
    bias_filler {
      type: "constant"
      value: 0.2
    }
  }
}
layer {
  name: "loss1/relu_conv"
  type: "ReLU"
  bottom: "loss1/conv"
  top: "loss1/conv"
}
layer {
  name: "loss1/fc"
  type: "InnerProduct"
  bottom: "loss1/conv"
  top: "loss1/fc"
  param {
    lr_mult: 1
    decay_mult: 1
  }
  param {
    lr_mult: 2
    decay_mult: 0
  }
  inner_product_param {
    num_output: 1024
    weight_filler {
      type: "xavier"
      std: 0.02
    }
    bias_filler {
      type: "constant"
      value: 0.2
    }
  }
}
layer {
  name: "loss1/relu_fc"
  type: "ReLU"
  bottom: "loss1/fc"
  top: "loss1/fc"
}
layer {
  name: "loss1/drop_fc"
  type: "Dropout"
  bottom: "loss1/fc"
  top: "loss1/fc"
  dropout_param {
    dropout_ratio: 0.7
  }
}
layer {
  name: "loss1/classifier_plantvillage"
  type: "InnerProduct"
  bottom: "loss1/fc"
  top: "loss1/classifier_plantvillage"
  param {
    lr_mult: 1
    decay_mult: 1
  }
  param {
    lr_mult: 2
    decay_mult: 0
  }
  inner_product_param {
    num_output: 38
    weight_filler {
      type: "xavier"
      std: 0.0009765625
    }
    bias_filler {
      type: "constant"
      value: 0
    }
  }
}
layer {
  name: "inception_4b/1x1"
  type: "Convolution"
  bottom: "inception_4a/output"
  top: "inception_4b/1x1"
  param {
    lr_mult: 1
    decay_mult: 1
  }
  param {
    lr_mult: 2
    decay_mult: 0
  }
  convolution_param {
    num_output: 160
    kernel_size: 1
    weight_filler {
      type: "xavier"
      std: 0.03
    }
    bias_filler {
      type: "constant"
      value: 0.2
    }
  }
}
layer {
  name: "inception_4b/relu_1x1"
  type: "ReLU"
  bottom: "inception_4b/1x1"
  top: "inception_4b/1x1"
}
layer {
  name: "inception_4b/3x3_reduce"
  type: "Convolution"
  bottom: "inception_4a/output"
  top: "inception_4b/3x3_reduce"
  param {
    lr_mult: 1
    decay_mult: 1
  }
  param {
    lr_mult: 2
    decay_mult: 0
  }
  convolution_param {
    num_output: 112
    kernel_size: 1
    weight_filler {
      type: "xavier"
      std: 0.09
    }
    bias_filler {
      type: "constant"
      value: 0.2
    }
  }
}
layer {
  name: "inception_4b/relu_3x3_reduce"
  type: "ReLU"
  bottom: "inception_4b/3x3_reduce"
  top: "inception_4b/3x3_reduce"
}
layer {
  name: "inception_4b/3x3"
  type: "Convolution"
  bottom: "inception_4b/3x3_reduce"
  top: "inception_4b/3x3"
  param {
    lr_mult: 1
    decay_mult: 1
  }
  param {
    lr_mult: 2
    decay_mult: 0
  }
  convolution_param {
    num_output: 224
    pad: 1
    kernel_size: 3
    weight_filler {
      type: "xavier"
      std: 0.03
    }
    bias_filler {
      type: "constant"
      value: 0.2
    }
  }
}
layer {
  name: "inception_4b/relu_3x3"
  type: "ReLU"
  bottom: "inception_4b/3x3"
  top: "inception_4b/3x3"
}
layer {
  name: "inception_4b/5x5_reduce"
  type: "Convolution"
  bottom: "inception_4a/output"
  top: "inception_4b/5x5_reduce"
  param {
    lr_mult: 1
    decay_mult: 1
  }
  param {
    lr_mult: 2
    decay_mult: 0
  }
  convolution_param {
    num_output: 24
    kernel_size: 1
    weight_filler {
      type: "xavier"
      std: 0.2
    }
    bias_filler {
      type: "constant"
      value: 0.2
    }
  }
}
layer {
  name: "inception_4b/relu_5x5_reduce"
  type: "ReLU"
  bottom: "inception_4b/5x5_reduce"
  top: "inception_4b/5x5_reduce"
}
layer {
  name: "inception_4b/5x5"
  type: "Convolution"
  bottom: "inception_4b/5x5_reduce"
  top: "inception_4b/5x5"
  param {
    lr_mult: 1
    decay_mult: 1
  }
  param {
    lr_mult: 2
    decay_mult: 0
  }
  convolution_param {
    num_output: 64
    pad: 2
    kernel_size: 5
    weight_filler {
      type: "xavier"
      std: 0.03
    }
    bias_filler {
      type: "constant"
      value: 0.2
    }
  }
}
layer {
  name: "inception_4b/relu_5x5"
  type: "ReLU"
  bottom: "inception_4b/5x5"
  top: "inception_4b/5x5"
}
layer {
  name: "inception_4b/pool"
  type: "Pooling"
  bottom: "inception_4a/output"
  top: "inception_4b/pool"
  pooling_param {
    pool: MAX
    kernel_size: 3
    stride: 1
    pad: 1
  }
}
layer {
  name: "inception_4b/pool_proj"
  type: "Convolution"
  bottom: "inception_4b/pool"
  top: "inception_4b/pool_proj"
  param {
    lr_mult: 1
    decay_mult: 1
  }
  param {
    lr_mult: 2
    decay_mult: 0
  }
  convolution_param {
    num_output: 64
    kernel_size: 1
    weight_filler {
      type: "xavier"
      std: 0.1
    }
    bias_filler {
      type: "constant"
      value: 0.2
    }
  }
}
layer {
  name: "inception_4b/relu_pool_proj"
  type: "ReLU"
  bottom: "inception_4b/pool_proj"
  top: "inception_4b/pool_proj"
}
layer {
  name: "inception_4b/output"
  type: "Concat"
  bottom: "inception_4b/1x1"
  bottom: "inception_4b/3x3"
  bottom: "inception_4b/5x5"
  bottom: "inception_4b/pool_proj"
  top: "inception_4b/output"
}
layer {
  name: "inception_4c/1x1"
  type: "Convolution"
  bottom: "inception_4b/output"
  top: "inception_4c/1x1"
  param {
    lr_mult: 1
    decay_mult: 1
  }
  param {
    lr_mult: 2
    decay_mult: 0
  }
  convolution_param {
    num_output: 128
    kernel_size: 1
    weight_filler {
      type: "xavier"
      std: 0.03
    }
    bias_filler {
      type: "constant"
      value: 0.2
    }
  }
}
layer {
  name: "inception_4c/relu_1x1"
  type: "ReLU"
  bottom: "inception_4c/1x1"
  top: "inception_4c/1x1"
}
layer {
  name: "inception_4c/3x3_reduce"
  type: "Convolution"
  bottom: "inception_4b/output"
  top: "inception_4c/3x3_reduce"
  param {
    lr_mult: 1
    decay_mult: 1
  }
  param {
    lr_mult: 2
    decay_mult: 0
  }
  convolution_param {
    num_output: 128
    kernel_size: 1
    weight_filler {
      type: "xavier"
      std: 0.09
    }
    bias_filler {
      type: "constant"
      value: 0.2
    }
  }
}
layer {
  name: "inception_4c/relu_3x3_reduce"
  type: "ReLU"
  bottom: "inception_4c/3x3_reduce"
  top: "inception_4c/3x3_reduce"
}
layer {
  name: "inception_4c/3x3"
  type: "Convolution"
  bottom: "inception_4c/3x3_reduce"
  top: "inception_4c/3x3"
  param {
    lr_mult: 1
    decay_mult: 1
  }
  param {
    lr_mult: 2
    decay_mult: 0
  }
  convolution_param {
    num_output: 256
    pad: 1
    kernel_size: 3
    weight_filler {
      type: "xavier"
      std: 0.03
    }
    bias_filler {
      type: "constant"
      value: 0.2
    }
  }
}
layer {
  name: "inception_4c/relu_3x3"
  type: "ReLU"
  bottom: "inception_4c/3x3"
  top: "inception_4c/3x3"
}
layer {
  name: "inception_4c/5x5_reduce"
  type: "Convolution"
  bottom: "inception_4b/output"
  top: "inception_4c/5x5_reduce"
  param {
    lr_mult: 1
    decay_mult: 1
  }
  param {
    lr_mult: 2
    decay_mult: 0
  }
  convolution_param {
    num_output: 24
    kernel_size: 1
    weight_filler {
      type: "xavier"
      std: 0.2
    }
    bias_filler {
      type: "constant"
      value: 0.2
    }
  }
}
layer {
  name: "inception_4c/relu_5x5_reduce"
  type: "ReLU"
  bottom: "inception_4c/5x5_reduce"
  top: "inception_4c/5x5_reduce"
}
layer {
  name: "inception_4c/5x5"
  type: "Convolution"
  bottom: "inception_4c/5x5_reduce"
  top: "inception_4c/5x5"
  param {
    lr_mult: 1
    decay_mult: 1
  }
  param {
    lr_mult: 2
    decay_mult: 0
  }
  convolution_param {
    num_output: 64
    pad: 2
    kernel_size: 5
    weight_filler {
      type: "xavier"
      std: 0.03
    }
    bias_filler {
      type: "constant"
      value: 0.2
    }
  }
}
layer {
  name: "inception_4c/relu_5x5"
  type: "ReLU"
  bottom: "inception_4c/5x5"
  top: "inception_4c/5x5"
}
layer {
  name: "inception_4c/pool"
  type: "Pooling"
  bottom: "inception_4b/output"
  top: "inception_4c/pool"
  pooling_param {
    pool: MAX
    kernel_size: 3
    stride: 1
    pad: 1
  }
}
layer {
  name: "inception_4c/pool_proj"
  type: "Convolution"
  bottom: "inception_4c/pool"
  top: "inception_4c/pool_proj"
  param {
    lr_mult: 1
    decay_mult: 1
  }
  param {
    lr_mult: 2
    decay_mult: 0
  }
  convolution_param {
    num_output: 64
    kernel_size: 1
    weight_filler {
      type: "xavier"
      std: 0.1
    }
    bias_filler {
      type: "constant"
      value: 0.2
    }
  }
}
layer {
  name: "inception_4c/relu_pool_proj"
  type: "ReLU"
  bottom: "inception_4c/pool_proj"
  top: "inception_4c/pool_proj"
}
layer {
  name: "inception_4c/output"
  type: "Concat"
  bottom: "inception_4c/1x1"
  bottom: "inception_4c/3x3"
  bottom: "inception_4c/5x5"
  bottom: "inception_4c/pool_proj"
  top: "inception_4c/output"
}
layer {
  name: "inception_4d/1x1"
  type: "Convolution"
  bottom: "inception_4c/output"
  top: "inception_4d/1x1"
  param {
    lr_mult: 1
    decay_mult: 1
  }
  param {
    lr_mult: 2
    decay_mult: 0
  }
  convolution_param {
    num_output: 112
    kernel_size: 1
    weight_filler {
      type: "xavier"
      std: 0.03
    }
    bias_filler {
      type: "constant"
      value: 0.2
    }
  }
}
layer {
  name: "inception_4d/relu_1x1"
  type: "ReLU"
  bottom: "inception_4d/1x1"
  top: "inception_4d/1x1"
}
layer {
  name: "inception_4d/3x3_reduce"
  type: "Convolution"
  bottom: "inception_4c/output"
  top: "inception_4d/3x3_reduce"
  param {
    lr_mult: 1
    decay_mult: 1
  }
  param {
    lr_mult: 2
    decay_mult: 0
  }
  convolution_param {
    num_output: 144
    kernel_size: 1
    weight_filler {
      type: "xavier"
      std: 0.09
    }
    bias_filler {
      type: "constant"
      value: 0.2
    }
  }
}
layer {
  name: "inception_4d/relu_3x3_reduce"
  type: "ReLU"
  bottom: "inception_4d/3x3_reduce"
  top: "inception_4d/3x3_reduce"
}
layer {
  name: "inception_4d/3x3"
  type: "Convolution"
  bottom: "inception_4d/3x3_reduce"
  top: "inception_4d/3x3"
  param {
    lr_mult: 1
    decay_mult: 1
  }
  param {
    lr_mult: 2
    decay_mult: 0
  }
  convolution_param {
    num_output: 288
    pad: 1
    kernel_size: 3
    weight_filler {
      type: "xavier"
      std: 0.03
    }
    bias_filler {
      type: "constant"
      value: 0.2
    }
  }
}
layer {
  name: "inception_4d/relu_3x3"
  type: "ReLU"
  bottom: "inception_4d/3x3"
  top: "inception_4d/3x3"
}
layer {
  name: "inception_4d/5x5_reduce"
  type: "Convolution"
  bottom: "inception_4c/output"
  top: "inception_4d/5x5_reduce"
  param {
    lr_mult: 1
    decay_mult: 1
  }
  param {
    lr_mult: 2
    decay_mult: 0
  }
  convolution_param {
    num_output: 32
    kernel_size: 1
    weight_filler {
      type: "xavier"
      std: 0.2
    }
    bias_filler {
      type: "constant"
      value: 0.2
    }
  }
}
layer {
  name: "inception_4d/relu_5x5_reduce"
  type: "ReLU"
  bottom: "inception_4d/5x5_reduce"
  top: "inception_4d/5x5_reduce"
}
layer {
  name: "inception_4d/5x5"
  type: "Convolution"
  bottom: "inception_4d/5x5_reduce"
  top: "inception_4d/5x5"
  param {
    lr_mult: 1
    decay_mult: 1
  }
  param {
    lr_mult: 2
    decay_mult: 0
  }
  convolution_param {
    num_output: 64
    pad: 2
    kernel_size: 5
    weight_filler {
      type: "xavier"
      std: 0.03
    }
    bias_filler {
      type: "constant"
      value: 0.2
    }
  }
}
layer {
  name: "inception_4d/relu_5x5"
  type: "ReLU"
  bottom: "inception_4d/5x5"
  top: "inception_4d/5x5"
}
layer {
  name: "inception_4d/pool"
  type: "Pooling"
  bottom: "inception_4c/output"
  top: "inception_4d/pool"
  pooling_param {
    pool: MAX
    kernel_size: 3
    stride: 1
    pad: 1
  }
}
layer {
  name: "inception_4d/pool_proj"
  type: "Convolution"
  bottom: "inception_4d/pool"
  top: "inception_4d/pool_proj"
  param {
    lr_mult: 1
    decay_mult: 1
  }
  param {
    lr_mult: 2
    decay_mult: 0
  }
  convolution_param {
    num_output: 64
    kernel_size: 1
    weight_filler {
      type: "xavier"
      std: 0.1
    }
    bias_filler {
      type: "constant"
      value: 0.2
    }
  }
}
layer {
  name: "inception_4d/relu_pool_proj"
  type: "ReLU"
  bottom: "inception_4d/pool_proj"
  top: "inception_4d/pool_proj"
}
layer {
  name: "inception_4d/output"
  type: "Concat"
  bottom: "inception_4d/1x1"
  bottom: "inception_4d/3x3"
  bottom: "inception_4d/5x5"
  bottom: "inception_4d/pool_proj"
  top: "inception_4d/output"
}
layer {
  name: "loss2/ave_pool"
  type: "Pooling"
  bottom: "inception_4d/output"
  top: "loss2/ave_pool"
  pooling_param {
    pool: AVE
    kernel_size: 5
    stride: 3
  }
}
layer {
  name: "loss2/conv"
  type: "Convolution"
  bottom: "loss2/ave_pool"
  top: "loss2/conv"
  param {
    lr_mult: 1
    decay_mult: 1
  }
  param {
    lr_mult: 2
    decay_mult: 0
  }
  convolution_param {
    num_output: 128
    kernel_size: 1
    weight_filler {
      type: "xavier"
      std: 0.08
    }
    bias_filler {
      type: "constant"
      value: 0.2
    }
  }
}
layer {
  name: "loss2/relu_conv"
  type: "ReLU"
  bottom: "loss2/conv"
  top: "loss2/conv"
}
layer {
  name: "loss2/fc"
  type: "InnerProduct"
  bottom: "loss2/conv"
  top: "loss2/fc"
  param {
    lr_mult: 1
    decay_mult: 1
  }
  param {
    lr_mult: 2
    decay_mult: 0
  }
  inner_product_param {
    num_output: 1024
    weight_filler {
      type: "xavier"
      std: 0.02
    }
    bias_filler {
      type: "constant"
      value: 0.2
    }
  }
}
layer {
  name: "loss2/relu_fc"
  type: "ReLU"
  bottom: "loss2/fc"
  top: "loss2/fc"
}
layer {
  name: "loss2/drop_fc"
  type: "Dropout"
  bottom: "loss2/fc"
  top: "loss2/fc"
  dropout_param {
    dropout_ratio: 0.7
  }
}
layer {
  name: "loss2/classifier_plantvillage"
  type: "InnerProduct"
  bottom: "loss2/fc"
  top: "loss2/classifier_plantvillage"
  param {
    lr_mult: 1
    decay_mult: 1
  }
  param {
    lr_mult: 2
    decay_mult: 0
  }
  inner_product_param {
    num_output: 38
    weight_filler {
      type: "xavier"
      std: 0.0009765625
    }
    bias_filler {
      type: "constant"
      value: 0
    }
  }
}
layer {
  name: "inception_4e/1x1"
  type: "Convolution"
  bottom: "inception_4d/output"
  top: "inception_4e/1x1"
  param {
    lr_mult: 1
    decay_mult: 1
  }
  param {
    lr_mult: 2
    decay_mult: 0
  }
  convolution_param {
    num_output: 256
    kernel_size: 1
    weight_filler {
      type: "xavier"
      std: 0.03
    }
    bias_filler {
      type: "constant"
      value: 0.2
    }
  }
}
layer {
  name: "inception_4e/relu_1x1"
  type: "ReLU"
  bottom: "inception_4e/1x1"
  top: "inception_4e/1x1"
}
layer {
  name: "inception_4e/3x3_reduce"
  type: "Convolution"
  bottom: "inception_4d/output"
  top: "inception_4e/3x3_reduce"
  param {
    lr_mult: 1
    decay_mult: 1
  }
  param {
    lr_mult: 2
    decay_mult: 0
  }
  convolution_param {
    num_output: 160
    kernel_size: 1
    weight_filler {
      type: "xavier"
      std: 0.09
    }
    bias_filler {
      type: "constant"
      value: 0.2
    }
  }
}
layer {
  name: "inception_4e/relu_3x3_reduce"
  type: "ReLU"
  bottom: "inception_4e/3x3_reduce"
  top: "inception_4e/3x3_reduce"
}
layer {
  name: "inception_4e/3x3"
  type: "Convolution"
  bottom: "inception_4e/3x3_reduce"
  top: "inception_4e/3x3"
  param {
    lr_mult: 1
    decay_mult: 1
  }
  param {
    lr_mult: 2
    decay_mult: 0
  }
  convolution_param {
    num_output: 320
    pad: 1
    kernel_size: 3
    weight_filler {
      type: "xavier"
      std: 0.03
    }
    bias_filler {
      type: "constant"
      value: 0.2
    }
  }
}
layer {
  name: "inception_4e/relu_3x3"
  type: "ReLU"
  bottom: "inception_4e/3x3"
  top: "inception_4e/3x3"
}
layer {
  name: "inception_4e/5x5_reduce"
  type: "Convolution"
  bottom: "inception_4d/output"
  top: "inception_4e/5x5_reduce"
  param {
    lr_mult: 1
    decay_mult: 1
  }
  param {
    lr_mult: 2
    decay_mult: 0
  }
  convolution_param {
    num_output: 32
    kernel_size: 1
    weight_filler {
      type: "xavier"
      std: 0.2
    }
    bias_filler {
      type: "constant"
      value: 0.2
    }
  }
}
layer {
  name: "inception_4e/relu_5x5_reduce"
  type: "ReLU"
  bottom: "inception_4e/5x5_reduce"
  top: "inception_4e/5x5_reduce"
}
layer {
  name: "inception_4e/5x5"
  type: "Convolution"
  bottom: "inception_4e/5x5_reduce"
  top: "inception_4e/
I0403 16:02:47.856786 16832 layer_factory.hpp:77] Creating layer data
I0403 16:02:47.857384 16832 net.cpp:91] Creating Layer data
I0403 16:02:47.857416 16832 net.cpp:399] data -> data
I0403 16:02:47.857467 16832 net.cpp:399] data -> label
I0403 16:02:47.857506 16832 data_transformer.cpp:25] Loading mean file from: /home/mohanty/data/final_dataset/lmdb/segmented-20-80/mean.binaryproto
I0403 16:02:47.858752 16835 db_lmdb.cpp:38] Opened lmdb /home/mohanty/data/final_dataset/lmdb/segmented-20-80/test_db
I0403 16:02:47.870771 16832 data_layer.cpp:41] output data size: 24,3,224,224
I0403 16:02:47.898761 16832 net.cpp:141] Setting up data
I0403 16:02:47.898844 16832 net.cpp:148] Top shape: 24 3 224 224 (3612672)
I0403 16:02:47.898869 16832 net.cpp:148] Top shape: 24 (24)
I0403 16:02:47.898887 16832 net.cpp:156] Memory required for data: 14450784
I0403 16:02:47.898917 16832 layer_factory.hpp:77] Creating layer label_data_1_split
I0403 16:02:47.898947 16832 net.cpp:91] Creating Layer label_data_1_split
I0403 16:02:47.898965 16832 net.cpp:425] label_data_1_split <- label
I0403 16:02:47.898999 16832 net.cpp:399] label_data_1_split -> label_data_1_split_0
I0403 16:02:47.899029 16832 net.cpp:399] label_data_1_split -> label_data_1_split_1
I0403 16:02:47.899055 16832 net.cpp:399] label_data_1_split -> label_data_1_split_2
I0403 16:02:47.899078 16832 net.cpp:399] label_data_1_split -> label_data_1_split_3
I0403 16:02:47.899101 16832 net.cpp:399] label_data_1_split -> label_data_1_split_4
I0403 16:02:47.899123 16832 net.cpp:399] label_data_1_split -> label_data_1_split_5
I0403 16:02:47.899144 16832 net.cpp:399] label_data_1_split -> label_data_1_split_6
I0403 16:02:47.899168 16832 net.cpp:399] label_data_1_split -> label_data_1_split_7
I0403 16:02:47.899189 16832 net.cpp:399] label_data_1_split -> label_data_1_split_8
I0403 16:02:47.899212 16832 net.cpp:399] label_data_1_split -> label_data_1_split_9
I0403 16:02:47.899332 16832 net.cpp:141] Setting up label_data_1_split
I0403 16:02:47.899356 16832 net.cpp:148] Top shape: 24 (24)
I0403 16:02:47.899375 16832 net.cpp:148] Top shape: 24 (24)
I0403 16:02:47.899394 16832 net.cpp:148] Top shape: 24 (24)
I0403 16:02:47.899411 16832 net.cpp:148] Top shape: 24 (24)
I0403 16:02:47.899427 16832 net.cpp:148] Top shape: 24 (24)
I0403 16:02:47.899444 16832 net.cpp:148] Top shape: 24 (24)
I0403 16:02:47.899461 16832 net.cpp:148] Top shape: 24 (24)
I0403 16:02:47.899478 16832 net.cpp:148] Top shape: 24 (24)
I0403 16:02:47.899495 16832 net.cpp:148] Top shape: 24 (24)
I0403 16:02:47.899513 16832 net.cpp:148] Top shape: 24 (24)
I0403 16:02:47.899576 16832 net.cpp:156] Memory required for data: 14451744
I0403 16:02:47.899595 16832 layer_factory.hpp:77] Creating layer conv1/7x7_s2
I0403 16:02:47.899628 16832 net.cpp:91] Creating Layer conv1/7x7_s2
I0403 16:02:47.899648 16832 net.cpp:425] conv1/7x7_s2 <- data
I0403 16:02:47.899668 16832 net.cpp:399] conv1/7x7_s2 -> conv1/7x7_s2
I0403 16:02:48.105064 16832 net.cpp:141] Setting up conv1/7x7_s2
I0403 16:02:48.105123 16832 net.cpp:148] Top shape: 24 64 112 112 (19267584)
I0403 16:02:48.105142 16832 net.cpp:156] Memory required for data: 91522080
I0403 16:02:48.105175 16832 layer_factory.hpp:77] Creating layer conv1/relu_7x7
I0403 16:02:48.105203 16832 net.cpp:91] Creating Layer conv1/relu_7x7
I0403 16:02:48.105224 16832 net.cpp:425] conv1/relu_7x7 <- conv1/7x7_s2
I0403 16:02:48.105245 16832 net.cpp:386] conv1/relu_7x7 -> conv1/7x7_s2 (in-place)
I0403 16:02:48.105515 16832 net.cpp:141] Setting up conv1/relu_7x7
I0403 16:02:48.105543 16832 net.cpp:148] Top shape: 24 64 112 112 (19267584)
I0403 16:02:48.105561 16832 net.cpp:156] Memory required for data: 168592416
I0403 16:02:48.105583 16832 layer_factory.hpp:77] Creating layer pool1/3x3_s2
I0403 16:02:48.105610 16832 net.cpp:91] Creating Layer pool1/3x3_s2
I0403 16:02:48.105630 16832 net.cpp:425] pool1/3x3_s2 <- conv1/7x7_s2
I0403 16:02:48.105651 16832 net.cpp:399] pool1/3x3_s2 -> pool1/3x3_s2
I0403 16:02:48.105731 16832 net.cpp:141] Setting up pool1/3x3_s2
I0403 16:02:48.105756 16832 net.cpp:148] Top shape: 24 64 56 56 (4816896)
I0403 16:02:48.105772 16832 net.cpp:156] Memory required for data: 187860000
I0403 16:02:48.105789 16832 layer_factory.hpp:77] Creating layer pool1/norm1
I0403 16:02:48.105815 16832 net.cpp:91] Creating Layer pool1/norm1
I0403 16:02:48.105835 16832 net.cpp:425] pool1/norm1 <- pool1/3x3_s2
I0403 16:02:48.105854 16832 net.cpp:399] pool1/norm1 -> pool1/norm1
I0403 16:02:48.106153 16832 net.cpp:141] Setting up pool1/norm1
I0403 16:02:48.106183 16832 net.cpp:148] Top shape: 24 64 56 56 (4816896)
I0403 16:02:48.106199 16832 net.cpp:156] Memory required for data: 207127584
I0403 16:02:48.106215 16832 layer_factory.hpp:77] Creating layer conv2/3x3_reduce
I0403 16:02:48.106242 16832 net.cpp:91] Creating Layer conv2/3x3_reduce
I0403 16:02:48.106261 16832 net.cpp:425] conv2/3x3_reduce <- pool1/norm1
I0403 16:02:48.106281 16832 net.cpp:399] conv2/3x3_reduce -> conv2/3x3_reduce
I0403 16:02:48.107676 16832 net.cpp:141] Setting up conv2/3x3_reduce
I0403 16:02:48.107707 16832 net.cpp:148] Top shape: 24 64 56 56 (4816896)
I0403 16:02:48.107725 16832 net.cpp:156] Memory required for data: 226395168
I0403 16:02:48.107748 16832 layer_factory.hpp:77] Creating layer conv2/relu_3x3_reduce
I0403 16:02:48.107769 16832 net.cpp:91] Creating Layer conv2/relu_3x3_reduce
I0403 16:02:48.107787 16832 net.cpp:425] conv2/relu_3x3_reduce <- conv2/3x3_reduce
I0403 16:02:48.107805 16832 net.cpp:386] conv2/relu_3x3_reduce -> conv2/3x3_reduce (in-place)
I0403 16:02:48.108068 16832 net.cpp:141] Setting up conv2/relu_3x3_reduce
I0403 16:02:48.108096 16832 net.cpp:148] Top shape: 24 64 56 56 (4816896)
I0403 16:02:48.108114 16832 net.cpp:156] Memory required for data: 245662752
I0403 16:02:48.108129 16832 layer_factory.hpp:77] Creating layer conv2/3x3
I0403 16:02:48.108153 16832 net.cpp:91] Creating Layer conv2/3x3
I0403 16:02:48.108172 16832 net.cpp:425] conv2/3x3 <- conv2/3x3_reduce
I0403 16:02:48.108193 16832 net.cpp:399] conv2/3x3 -> conv2/3x3
I0403 16:02:48.110532 16832 net.cpp:141] Setting up conv2/3x3
I0403 16:02:48.110565 16832 net.cpp:148] Top shape: 24 192 56 56 (14450688)
I0403 16:02:48.110589 16832 net.cpp:156] Memory required for data: 303465504
I0403 16:02:48.110612 16832 layer_factory.hpp:77] Creating layer conv2/relu_3x3
I0403 16:02:48.110632 16832 net.cpp:91] Creating Layer conv2/relu_3x3
I0403 16:02:48.110651 16832 net.cpp:425] conv2/relu_3x3 <- conv2/3x3
I0403 16:02:48.110671 16832 net.cpp:386] conv2/relu_3x3 -> conv2/3x3 (in-place)
I0403 16:02:48.110853 16832 net.cpp:141] Setting up conv2/relu_3x3
I0403 16:02:48.110880 16832 net.cpp:148] Top shape: 24 192 56 56 (14450688)
I0403 16:02:48.110925 16832 net.cpp:156] Memory required for data: 361268256
I0403 16:02:48.110944 16832 layer_factory.hpp:77] Creating layer conv2/norm2
I0403 16:02:48.110963 16832 net.cpp:91] Creating Layer conv2/norm2
I0403 16:02:48.110981 16832 net.cpp:425] conv2/norm2 <- conv2/3x3
I0403 16:02:48.111003 16832 net.cpp:399] conv2/norm2 -> conv2/norm2
I0403 16:02:48.111327 16832 net.cpp:141] Setting up conv2/norm2
I0403 16:02:48.111357 16832 net.cpp:148] Top shape: 24 192 56 56 (14450688)
I0403 16:02:48.111374 16832 net.cpp:156] Memory required for data: 419071008
I0403 16:02:48.111392 16832 layer_factory.hpp:77] Creating layer pool2/3x3_s2
I0403 16:02:48.111412 16832 net.cpp:91] Creating Layer pool2/3x3_s2
I0403 16:02:48.111429 16832 net.cpp:425] pool2/3x3_s2 <- conv2/norm2
I0403 16:02:48.111451 16832 net.cpp:399] pool2/3x3_s2 -> pool2/3x3_s2
I0403 16:02:48.111508 16832 net.cpp:141] Setting up pool2/3x3_s2
I0403 16:02:48.111533 16832 net.cpp:148] Top shape: 24 192 28 28 (3612672)
I0403 16:02:48.111549 16832 net.cpp:156] Memory required for data: 433521696
I0403 16:02:48.111567 16832 layer_factory.hpp:77] Creating layer pool2/3x3_s2_pool2/3x3_s2_0_split
I0403 16:02:48.111596 16832 net.cpp:91] Creating Layer pool2/3x3_s2_pool2/3x3_s2_0_split
I0403 16:02:48.111615 16832 net.cpp:425] pool2/3x3_s2_pool2/3x3_s2_0_split <- pool2/3x3_s2
I0403 16:02:48.111634 16832 net.cpp:399] pool2/3x3_s2_pool2/3x3_s2_0_split -> pool2/3x3_s2_pool2/3x3_s2_0_split_0
I0403 16:02:48.111656 16832 net.cpp:399] pool2/3x3_s2_pool2/3x3_s2_0_split -> pool2/3x3_s2_pool2/3x3_s2_0_split_1
I0403 16:02:48.111681 16832 net.cpp:399] pool2/3x3_s2_pool2/3x3_s2_0_split -> pool2/3x3_s2_pool2/3x3_s2_0_split_2
I0403 16:02:48.111703 16832 net.cpp:399] pool2/3x3_s2_pool2/3x3_s2_0_split -> pool2/3x3_s2_pool2/3x3_s2_0_split_3
I0403 16:02:48.111779 16832 net.cpp:141] Setting up pool2/3x3_s2_pool2/3x3_s2_0_split
I0403 16:02:48.111804 16832 net.cpp:148] Top shape: 24 192 28 28 (3612672)
I0403 16:02:48.111821 16832 net.cpp:148] Top shape: 24 192 28 28 (3612672)
I0403 16:02:48.111838 16832 net.cpp:148] Top shape: 24 192 28 28 (3612672)
I0403 16:02:48.111855 16832 net.cpp:148] Top shape: 24 192 28 28 (3612672)
I0403 16:02:48.111871 16832 net.cpp:156] Memory required for data: 491324448
I0403 16:02:48.111887 16832 layer_factory.hpp:77] Creating layer inception_3a/1x1
I0403 16:02:48.111912 16832 net.cpp:91] Creating Layer inception_3a/1x1
I0403 16:02:48.111932 16832 net.cpp:425] inception_3a/1x1 <- pool2/3x3_s2_pool2/3x3_s2_0_split_0
I0403 16:02:48.111954 16832 net.cpp:399] inception_3a/1x1 -> inception_3a/1x1
I0403 16:02:48.113571 16832 net.cpp:141] Setting up inception_3a/1x1
I0403 16:02:48.113602 16832 net.cpp:148] Top shape: 24 64 28 28 (1204224)
I0403 16:02:48.113620 16832 net.cpp:156] Memory required for data: 496141344
I0403 16:02:48.113641 16832 layer_factory.hpp:77] Creating layer inception_3a/relu_1x1
I0403 16:02:48.113662 16832 net.cpp:91] Creating Layer inception_3a/relu_1x1
I0403 16:02:48.113679 16832 net.cpp:425] inception_3a/relu_1x1 <- inception_3a/1x1
I0403 16:02:48.113701 16832 net.cpp:386] inception_3a/relu_1x1 -> inception_3a/1x1 (in-place)
I0403 16:02:48.113885 16832 net.cpp:141] Setting up inception_3a/relu_1x1
I0403 16:02:48.113912 16832 net.cpp:148] Top shape: 24 64 28 28 (1204224)
I0403 16:02:48.113929 16832 net.cpp:156] Memory required for data: 500958240
I0403 16:02:48.113945 16832 layer_factory.hpp:77] Creating layer inception_3a/3x3_reduce
I0403 16:02:48.113970 16832 net.cpp:91] Creating Layer inception_3a/3x3_reduce
I0403 16:02:48.113988 16832 net.cpp:425] inception_3a/3x3_reduce <- pool2/3x3_s2_pool2/3x3_s2_0_split_1
I0403 16:02:48.114012 16832 net.cpp:399] inception_3a/3x3_reduce -> inception_3a/3x3_reduce
I0403 16:02:48.115813 16832 net.cpp:141] Setting up inception_3a/3x3_reduce
I0403 16:02:48.115844 16832 net.cpp:148] Top shape: 24 96 28 28 (1806336)
I0403 16:02:48.115861 16832 net.cpp:156] Memory required for data: 508183584
I0403 16:02:48.115885 16832 layer_factory.hpp:77] Creating layer inception_3a/relu_3x3_reduce
I0403 16:02:48.115926 16832 net.cpp:91] Creating Layer inception_3a/relu_3x3_reduce
I0403 16:02:48.115947 16832 net.cpp:425] inception_3a/relu_3x3_reduce <- inception_3a/3x3_reduce
I0403 16:02:48.115967 16832 net.cpp:386] inception_3a/relu_3x3_reduce -> inception_3a/3x3_reduce (in-place)
I0403 16:02:48.116159 16832 net.cpp:141] Setting up inception_3a/relu_3x3_reduce
I0403 16:02:48.116189 16832 net.cpp:148] Top shape: 24 96 28 28 (1806336)
I0403 16:02:48.116206 16832 net.cpp:156] Memory required for data: 515408928
I0403 16:02:48.116222 16832 layer_factory.hpp:77] Creating layer inception_3a/3x3
I0403 16:02:48.116247 16832 net.cpp:91] Creating Layer inception_3a/3x3
I0403 16:02:48.116267 16832 net.cpp:425] inception_3a/3x3 <- inception_3a/3x3_reduce
I0403 16:02:48.116291 16832 net.cpp:399] inception_3a/3x3 -> inception_3a/3x3
I0403 16:02:48.118042 16832 net.cpp:141] Setting up inception_3a/3x3
I0403 16:02:48.118072 16832 net.cpp:148] Top shape: 24 128 28 28 (2408448)
I0403 16:02:48.118090 16832 net.cpp:156] Memory required for data: 525042720
I0403 16:02:48.118110 16832 layer_factory.hpp:77] Creating layer inception_3a/relu_3x3
I0403 16:02:48.118132 16832 net.cpp:91] Creating Layer inception_3a/relu_3x3
I0403 16:02:48.118151 16832 net.cpp:425] inception_3a/relu_3x3 <- inception_3a/3x3
I0403 16:02:48.118170 16832 net.cpp:386] inception_3a/relu_3x3 -> inception_3a/3x3 (in-place)
I0403 16:02:48.118458 16832 net.cpp:141] Setting up inception_3a/relu_3x3
I0403 16:02:48.118486 16832 net.cpp:148] Top shape: 24 128 28 28 (2408448)
I0403 16:02:48.118504 16832 net.cpp:156] Memory required for data: 534676512
I0403 16:02:48.118520 16832 layer_factory.hpp:77] Creating layer inception_3a/5x5_reduce
I0403 16:02:48.118546 16832 net.cpp:91] Creating Layer inception_3a/5x5_reduce
I0403 16:02:48.118564 16832 net.cpp:425] inception_3a/5x5_reduce <- pool2/3x3_s2_pool2/3x3_s2_0_split_2
I0403 16:02:48.118594 16832 net.cpp:399] inception_3a/5x5_reduce -> inception_3a/5x5_reduce
I0403 16:02:48.119613 16832 net.cpp:141] Setting up inception_3a/5x5_reduce
I0403 16:02:48.119643 16832 net.cpp:148] Top shape: 24 16 28 28 (301056)
I0403 16:02:48.119660 16832 net.cpp:156] Memory required for data: 535880736
I0403 16:02:48.119681 16832 layer_factory.hpp:77] Creating layer inception_3a/relu_5x5_reduce
I0403 16:02:48.119704 16832 net.cpp:91] Creating Layer inception_3a/relu_5x5_reduce
I0403 16:02:48.119722 16832 net.cpp:425] inception_3a/relu_5x5_reduce <- inception_3a/5x5_reduce
I0403 16:02:48.119742 16832 net.cpp:386] inception_3a/relu_5x5_reduce -> inception_3a/5x5_reduce (in-place)
I0403 16:02:48.120053 16832 net.cpp:141] Setting up inception_3a/relu_5x5_reduce
I0403 16:02:48.120082 16832 net.cpp:148] Top shape: 24 16 28 28 (301056)
I0403 16:02:48.120100 16832 net.cpp:156] Memory required for data: 537084960
I0403 16:02:48.120117 16832 layer_factory.hpp:77] Creating layer inception_3a/5x5
I0403 16:02:48.120141 16832 net.cpp:91] Creating Layer inception_3a/5x5
I0403 16:02:48.120158 16832 net.cpp:425] inception_3a/5x5 <- inception_3a/5x5_reduce
I0403 16:02:48.120182 16832 net.cpp:399] inception_3a/5x5 -> inception_3a/5x5
I0403 16:02:48.121251 16832 net.cpp:141] Setting up inception_3a/5x5
I0403 16:02:48.121281 16832 net.cpp:148] Top shape: 24 32 28 28 (602112)
I0403 16:02:48.121300 16832 net.cpp:156] Memory required for data: 539493408
I0403 16:02:48.121320 16832 layer_factory.hpp:77] Creating layer inception_3a/relu_5x5
I0403 16:02:48.121343 16832 net.cpp:91] Creating Layer inception_3a/relu_5x5
I0403 16:02:48.121363 16832 net.cpp:425] inception_3a/relu_5x5 <- inception_3a/5x5
I0403 16:02:48.121383 16832 net.cpp:386] inception_3a/relu_5x5 -> inception_3a/5x5 (in-place)
I0403 16:02:48.121570 16832 net.cpp:141] Setting up inception_3a/relu_5x5
I0403 16:02:48.121598 16832 net.cpp:148] Top shape: 24 32 28 28 (602112)
I0403 16:02:48.121613 16832 net.cpp:156] Memory required for data: 541901856
I0403 16:02:48.121630 16832 layer_factory.hpp:77] Creating layer inception_3a/pool
I0403 16:02:48.121665 16832 net.cpp:91] Creating Layer inception_3a/pool
I0403 16:02:48.121696 16832 net.cpp:425] inception_3a/pool <- pool2/3x3_s2_pool2/3x3_s2_0_split_3
I0403 16:02:48.121731 16832 net.cpp:399] inception_3a/pool -> inception_3a/pool
I0403 16:02:48.121793 16832 net.cpp:141] Setting up inception_3a/pool
I0403 16:02:48.121817 16832 net.cpp:148] Top shape: 24 192 28 28 (3612672)
I0403 16:02:48.121834 16832 net.cpp:156] Memory required for data: 556352544
I0403 16:02:48.121850 16832 layer_factory.hpp:77] Creating layer inception_3a/pool_proj
I0403 16:02:48.121876 16832 net.cpp:91] Creating Layer inception_3a/pool_proj
I0403 16:02:48.121894 16832 net.cpp:425] inception_3a/pool_proj <- inception_3a/pool
I0403 16:02:48.121917 16832 net.cpp:399] inception_3a/pool_proj -> inception_3a/pool_proj
I0403 16:02:48.122917 16832 net.cpp:141] Setting up inception_3a/pool_proj
I0403 16:02:48.122948 16832 net.cpp:148] Top shape: 24 32 28 28 (602112)
I0403 16:02:48.122967 16832 net.cpp:156] Memory required for data: 558760992
I0403 16:02:48.122990 16832 layer_factory.hpp:77] Creating layer inception_3a/relu_pool_proj
I0403 16:02:48.123013 16832 net.cpp:91] Creating Layer inception_3a/relu_pool_proj
I0403 16:02:48.123031 16832 net.cpp:425] inception_3a/relu_pool_proj <- inception_3a/pool_proj
I0403 16:02:48.123050 16832 net.cpp:386] inception_3a/relu_pool_proj -> inception_3a/pool_proj (in-place)
I0403 16:02:48.123332 16832 net.cpp:141] Setting up inception_3a/relu_pool_proj
I0403 16:02:48.123359 16832 net.cpp:148] Top shape: 24 32 28 28 (602112)
I0403 16:02:48.123375 16832 net.cpp:156] Memory required for data: 561169440
I0403 16:02:48.123392 16832 layer_factory.hpp:77] Creating layer inception_3a/output
I0403 16:02:48.123411 16832 net.cpp:91] Creating Layer inception_3a/output
I0403 16:02:48.123428 16832 net.cpp:425] inception_3a/output <- inception_3a/1x1
I0403 16:02:48.123446 16832 net.cpp:425] inception_3a/output <- inception_3a/3x3
I0403 16:02:48.123467 16832 net.cpp:425] inception_3a/output <- inception_3a/5x5
I0403 16:02:48.123484 16832 net.cpp:425] inception_3a/output <- inception_3a/pool_proj
I0403 16:02:48.123502 16832 net.cpp:399] inception_3a/output -> inception_3a/output
I0403 16:02:48.123548 16832 net.cpp:141] Setting up inception_3a/output
I0403 16:02:48.123594 16832 net.cpp:148] Top shape: 24 256 28 28 (4816896)
I0403 16:02:48.123613 16832 net.cpp:156] Memory required for data: 580437024
I0403 16:02:48.123630 16832 layer_factory.hpp:77] Creating layer inception_3a/output_inception_3a/output_0_split
I0403 16:02:48.123648 16832 net.cpp:91] Creating Layer inception_3a/output_inception_3a/output_0_split
I0403 16:02:48.123667 16832 net.cpp:425] inception_3a/output_inception_3a/output_0_split <- inception_3a/output
I0403 16:02:48.123687 16832 net.cpp:399] inception_3a/output_inception_3a/output_0_split -> inception_3a/output_inception_3a/output_0_split_0
I0403 16:02:48.123710 16832 net.cpp:399] inception_3a/output_inception_3a/output_0_split -> inception_3a/output_inception_3a/output_0_split_1
I0403 16:02:48.123735 16832 net.cpp:399] inception_3a/output_inception_3a/output_0_split -> inception_3a/output_inception_3a/output_0_split_2
I0403 16:02:48.123759 16832 net.cpp:399] inception_3a/output_inception_3a/output_0_split -> inception_3a/output_inception_3a/output_0_split_3
I0403 16:02:48.123839 16832 net.cpp:141] Setting up inception_3a/output_inception_3a/output_0_split
I0403 16:02:48.123863 16832 net.cpp:148] Top shape: 24 256 28 28 (4816896)
I0403 16:02:48.123893 16832 net.cpp:148] Top shape: 24 256 28 28 (4816896)
I0403 16:02:48.123909 16832 net.cpp:148] Top shape: 24 256 28 28 (4816896)
I0403 16:02:48.123926 16832 net.cpp:148] Top shape: 24 256 28 28 (4816896)
I0403 16:02:48.123941 16832 net.cpp:156] Memory required for data: 657507360
I0403 16:02:48.123956 16832 layer_factory.hpp:77] Creating layer inception_3b/1x1
I0403 16:02:48.123980 16832 net.cpp:91] Creating Layer inception_3b/1x1
I0403 16:02:48.123999 16832 net.cpp:425] inception_3b/1x1 <- inception_3a/output_inception_3a/output_0_split_0
I0403 16:02:48.124022 16832 net.cpp:399] inception_3b/1x1 -> inception_3b/1x1
I0403 16:02:48.125193 16832 net.cpp:141] Setting up inception_3b/1x1
I0403 16:02:48.125234 16832 net.cpp:148] Top shape: 24 128 28 28 (2408448)
I0403 16:02:48.125252 16832 net.cpp:156] Memory required for data: 667141152
I0403 16:02:48.125272 16832 layer_factory.hpp:77] Creating layer inception_3b/relu_1x1
I0403 16:02:48.125290 16832 net.cpp:91] Creating Layer inception_3b/relu_1x1
I0403 16:02:48.125308 16832 net.cpp:425] inception_3b/relu_1x1 <- inception_3b/1x1
I0403 16:02:48.125329 16832 net.cpp:386] inception_3b/relu_1x1 -> inception_3b/1x1 (in-place)
I0403 16:02:48.125509 16832 net.cpp:141] Setting up inception_3b/relu_1x1
I0403 16:02:48.125535 16832 net.cpp:148] Top shape: 24 128 28 28 (2408448)
I0403 16:02:48.125551 16832 net.cpp:156] Memory required for data: 676774944
I0403 16:02:48.125571 16832 layer_factory.hpp:77] Creating layer inception_3b/3x3_reduce
I0403 16:02:48.125597 16832 net.cpp:91] Creating Layer inception_3b/3x3_reduce
I0403 16:02:48.125615 16832 net.cpp:425] inception_3b/3x3_reduce <- inception_3a/output_inception_3a/output_0_split_1
I0403 16:02:48.125638 16832 net.cpp:399] inception_3b/3x3_reduce -> inception_3b/3x3_reduce
I0403 16:02:48.126803 16832 net.cpp:141] Setting up inception_3b/3x3_reduce
I0403 16:02:48.126834 16832 net.cpp:148] Top shape: 24 128 28 28 (2408448)
I0403 16:02:48.126852 16832 net.cpp:156] Memory required for data: 686408736
I0403 16:02:48.126873 16832 layer_factory.hpp:77] Creating layer inception_3b/relu_3x3_reduce
I0403 16:02:48.126891 16832 net.cpp:91] Creating Layer inception_3b/relu_3x3_reduce
I0403 16:02:48.126909 16832 net.cpp:425] inception_3b/relu_3x3_reduce <- inception_3b/3x3_reduce
I0403 16:02:48.126929 16832 net.cpp:386] inception_3b/relu_3x3_reduce -> inception_3b/3x3_reduce (in-place)
I0403 16:02:48.127112 16832 net.cpp:141] Setting up inception_3b/relu_3x3_reduce
I0403 16:02:48.127138 16832 net.cpp:148] Top shape: 24 128 28 28 (2408448)
I0403 16:02:48.127154 16832 net.cpp:156] Memory required for data: 696042528
I0403 16:02:48.127171 16832 layer_factory.hpp:77] Creating layer inception_3b/3x3
I0403 16:02:48.127198 16832 net.cpp:91] Creating Layer inception_3b/3x3
I0403 16:02:48.127218 16832 net.cpp:425] inception_3b/3x3 <- inception_3b/3x3_reduce
I0403 16:02:48.127238 16832 net.cpp:399] inception_3b/3x3 -> inception_3b/3x3
I0403 16:02:48.130223 16832 net.cpp:141] Setting up inception_3b/3x3
I0403 16:02:48.130252 16832 net.cpp:148] Top shape: 24 192 28 28 (3612672)
I0403 16:02:48.130270 16832 net.cpp:156] Memory required for data: 710493216
I0403 16:02:48.130290 16832 layer_factory.hpp:77] Creating layer inception_3b/relu_3x3
I0403 16:02:48.130311 16832 net.cpp:91] Creating Layer inception_3b/relu_3x3
I0403 16:02:48.130328 16832 net.cpp:425] inception_3b/relu_3x3 <- inception_3b/3x3
I0403 16:02:48.130347 16832 net.cpp:386] inception_3b/relu_3x3 -> inception_3b/3x3 (in-place)
I0403 16:02:48.130635 16832 net.cpp:141] Setting up inception_3b/relu_3x3
I0403 16:02:48.130663 16832 net.cpp:148] Top shape: 24 192 28 28 (3612672)
I0403 16:02:48.130679 16832 net.cpp:156] Memory required for data: 724943904
I0403 16:02:48.130697 16832 layer_factory.hpp:77] Creating layer inception_3b/5x5_reduce
I0403 16:02:48.130722 16832 net.cpp:91] Creating Layer inception_3b/5x5_reduce
I0403 16:02:48.130741 16832 net.cpp:425] inception_3b/5x5_reduce <- inception_3a/output_inception_3a/output_0_split_2
I0403 16:02:48.130769 16832 net.cpp:399] inception_3b/5x5_reduce -> inception_3b/5x5_reduce
I0403 16:02:48.131811 16832 net.cpp:141] Setting up inception_3b/5x5_reduce
I0403 16:02:48.131841 16832 net.cpp:148] Top shape: 24 32 28 28 (602112)
I0403 16:02:48.131860 16832 net.cpp:156] Memory required for data: 727352352
I0403 16:02:48.131880 16832 layer_factory.hpp:77] Creating layer inception_3b/relu_5x5_reduce
I0403 16:02:48.131901 16832 net.cpp:91] Creating Layer inception_3b/relu_5x5_reduce
I0403 16:02:48.131921 16832 net.cpp:425] inception_3b/relu_5x5_reduce <- inception_3b/5x5_reduce
I0403 16:02:48.131940 16832 net.cpp:386] inception_3b/relu_5x5_reduce -> inception_3b/5x5_reduce (in-place)
I0403 16:02:48.132143 16832 net.cpp:141] Setting up inception_3b/relu_5x5_reduce
I0403 16:02:48.132169 16832 net.cpp:148] Top shape: 24 32 28 28 (602112)
I0403 16:02:48.132186 16832 net.cpp:156] Memory required for data: 729760800
I0403 16:02:48.132203 16832 layer_factory.hpp:77] Creating layer inception_3b/5x5
I0403 16:02:48.132227 16832 net.cpp:91] Creating Layer inception_3b/5x5
I0403 16:02:48.132248 16832 net.cpp:425] inception_3b/5x5 <- inception_3b/5x5_reduce
I0403 16:02:48.132269 16832 net.cpp:399] inception_3b/5x5 -> inception_3b/5x5
I0403 16:02:48.134366 16832 net.cpp:141] Setting up inception_3b/5x5
I0403 16:02:48.134397 16832 net.cpp:148] Top shape: 24 96 28 28 (1806336)
I0403 16:02:48.134415 16832 net.cpp:156] Memory required for data: 736986144
I0403 16:02:48.134436 16832 layer_factory.hpp:77] Creating layer inception_3b/relu_5x5
I0403 16:02:48.134456 16832 net.cpp:91] Creating Layer inception_3b/relu_5x5
I0403 16:02:48.134474 16832 net.cpp:425] inception_3b/relu_5x5 <- inception_3b/5x5
I0403 16:02:48.134495 16832 net.cpp:386] inception_3b/relu_5x5 -> inception_3b/5x5 (in-place)
I0403 16:02:48.134716 16832 net.cpp:141] Setting up inception_3b/relu_5x5
I0403 16:02:48.134743 16832 net.cpp:148] Top shape: 24 96 28 28 (1806336)
I0403 16:02:48.134759 16832 net.cpp:156] Memory required for data: 744211488
I0403 16:02:48.134778 16832 layer_factory.hpp:77] Creating layer inception_3b/pool
I0403 16:02:48.134796 16832 net.cpp:91] Creating Layer inception_3b/pool
I0403 16:02:48.134814 16832 net.cpp:425] inception_3b/pool <- inception_3a/output_inception_3a/output_0_split_3
I0403 16:02:48.134835 16832 net.cpp:399] inception_3b/pool -> inception_3b/pool
I0403 16:02:48.134894 16832 net.cpp:141] Setting up inception_3b/pool
I0403 16:02:48.134919 16832 net.cpp:148] Top shape: 24 256 28 28 (4816896)
I0403 16:02:48.134937 16832 net.cpp:156] Memory required for data: 763479072
I0403 16:02:48.134953 16832 layer_factory.hpp:77] Creating layer inception_3b/pool_proj
I0403 16:02:48.134979 16832 net.cpp:91] Creating Layer inception_3b/pool_proj
I0403 16:02:48.134999 16832 net.cpp:425] inception_3b/pool_proj <- inception_3b/pool
I0403 16:02:48.135020 16832 net.cpp:399] inception_3b/pool_proj -> inception_3b/pool_proj
I0403 16:02:48.136135 16832 net.cpp:141] Setting up inception_3b/pool_proj
I0403 16:02:48.136164 16832 net.cpp:148] Top shape: 24 64 28 28 (1204224)
I0403 16:02:48.136181 16832 net.cpp:156] Memory required for data: 768295968
I0403 16:02:48.136201 16832 layer_factory.hpp:77] Creating layer inception_3b/relu_pool_proj
I0403 16:02:48.136224 16832 net.cpp:91] Creating Layer inception_3b/relu_pool_proj
I0403 16:02:48.136243 16832 net.cpp:425] inception_3b/relu_pool_proj <- inception_3b/pool_proj
I0403 16:02:48.136262 16832 net.cpp:386] inception_3b/relu_pool_proj -> inception_3b/pool_proj (in-place)
I0403 16:02:48.136672 16832 net.cpp:141] Setting up inception_3b/relu_pool_proj
I0403 16:02:48.136700 16832 net.cpp:148] Top shape: 24 64 28 28 (1204224)
I0403 16:02:48.136718 16832 net.cpp:156] Memory required for data: 773112864
I0403 16:02:48.136734 16832 layer_factory.hpp:77] Creating layer inception_3b/output
I0403 16:02:48.136755 16832 net.cpp:91] Creating Layer inception_3b/output
I0403 16:02:48.136775 16832 net.cpp:425] inception_3b/output <- inception_3b/1x1
I0403 16:02:48.136793 16832 net.cpp:425] inception_3b/output <- inception_3b/3x3
I0403 16:02:48.136811 16832 net.cpp:425] inception_3b/output <- inception_3b/5x5
I0403 16:02:48.136829 16832 net.cpp:425] inception_3b/output <- inception_3b/pool_proj
I0403 16:02:48.136848 16832 net.cpp:399] inception_3b/output -> inception_3b/output
I0403 16:02:48.136898 16832 net.cpp:141] Setting up inception_3b/output
I0403 16:02:48.136922 16832 net.cpp:148] Top shape: 24 480 28 28 (9031680)
I0403 16:02:48.136940 16832 net.cpp:156] Memory required for data: 809239584
I0403 16:02:48.136955 16832 layer_factory.hpp:77] Creating layer pool3/3x3_s2
I0403 16:02:48.136975 16832 net.cpp:91] Creating Layer pool3/3x3_s2
I0403 16:02:48.136992 16832 net.cpp:425] pool3/3x3_s2 <- inception_3b/output
I0403 16:02:48.137030 16832 net.cpp:399] pool3/3x3_s2 -> pool3/3x3_s2
I0403 16:02:48.137094 16832 net.cpp:141] Setting up pool3/3x3_s2
I0403 16:02:48.137120 16832 net.cpp:148] Top shape: 24 480 14 14 (2257920)
I0403 16:02:48.137137 16832 net.cpp:156] Memory required for data: 818271264
I0403 16:02:48.137154 16832 layer_factory.hpp:77] Creating layer pool3/3x3_s2_pool3/3x3_s2_0_split
I0403 16:02:48.137173 16832 net.cpp:91] Creating Layer pool3/3x3_s2_pool3/3x3_s2_0_split
I0403 16:02:48.137190 16832 net.cpp:425] pool3/3x3_s2_pool3/3x3_s2_0_split <- pool3/3x3_s2
I0403 16:02:48.137209 16832 net.cpp:399] pool3/3x3_s2_pool3/3x3_s2_0_split -> pool3/3x3_s2_pool3/3x3_s2_0_split_0
I0403 16:02:48.137234 16832 net.cpp:399] pool3/3x3_s2_pool3/3x3_s2_0_split -> pool3/3x3_s2_pool3/3x3_s2_0_split_1
I0403 16:02:48.137256 16832 net.cpp:399] pool3/3x3_s2_pool3/3x3_s2_0_split -> pool3/3x3_s2_pool3/3x3_s2_0_split_2
I0403 16:02:48.137279 16832 net.cpp:399] pool3/3x3_s2_pool3/3x3_s2_0_split -> pool3/3x3_s2_pool3/3x3_s2_0_split_3
I0403 16:02:48.137367 16832 net.cpp:141] Setting up pool3/3x3_s2_pool3/3x3_s2_0_split
I0403 16:02:48.137392 16832 net.cpp:148] Top shape: 24 480 14 14 (2257920)
I0403 16:02:48.137409 16832 net.cpp:148] Top shape: 24 480 14 14 (2257920)
I0403 16:02:48.137426 16832 net.cpp:148] Top shape: 24 480 14 14 (2257920)
I0403 16:02:48.137444 16832 net.cpp:148] Top shape: 24 480 14 14 (2257920)
I0403 16:02:48.137459 16832 net.cpp:156] Memory required for data: 854397984
I0403 16:02:48.137475 16832 layer_factory.hpp:77] Creating layer inception_4a/1x1
I0403 16:02:48.137500 16832 net.cpp:91] Creating Layer inception_4a/1x1
I0403 16:02:48.137521 16832 net.cpp:425] inception_4a/1x1 <- pool3/3x3_s2_pool3/3x3_s2_0_split_0
I0403 16:02:48.137542 16832 net.cpp:399] inception_4a/1x1 -> inception_4a/1x1
I0403 16:02:48.139205 16832 net.cpp:141] Setting up inception_4a/1x1
I0403 16:02:48.139235 16832 net.cpp:148] Top shape: 24 192 14 14 (903168)
I0403 16:02:48.139252 16832 net.cpp:156] Memory required for data: 858010656
I0403 16:02:48.139272 16832 layer_factory.hpp:77] Creating layer inception_4a/relu_1x1
I0403 16:02:48.139295 16832 net.cpp:91] Creating Layer inception_4a/relu_1x1
I0403 16:02:48.139313 16832 net.cpp:425] inception_4a/relu_1x1 <- inception_4a/1x1
I0403 16:02:48.139333 16832 net.cpp:386] inception_4a/relu_1x1 -> inception_4a/1x1 (in-place)
I0403 16:02:48.139523 16832 net.cpp:141] Setting up inception_4a/relu_1x1
I0403 16:02:48.139550 16832 net.cpp:148] Top shape: 24 192 14 14 (903168)
I0403 16:02:48.139570 16832 net.cpp:156] Memory required for data: 861623328
I0403 16:02:48.139588 16832 layer_factory.hpp:77] Creating layer inception_4a/3x3_reduce
I0403 16:02:48.139613 16832 net.cpp:91] Creating Layer inception_4a/3x3_reduce
I0403 16:02:48.139632 16832 net.cpp:425] inception_4a/3x3_reduce <- pool3/3x3_s2_pool3/3x3_s2_0_split_1
I0403 16:02:48.139657 16832 net.cpp:399] inception_4a/3x3_reduce -> inception_4a/3x3_reduce
I0403 16:02:48.141003 16832 net.cpp:141] Setting up inception_4a/3x3_reduce
I0403 16:02:48.141036 16832 net.cpp:148] Top shape: 24 96 14 14 (451584)
I0403 16:02:48.141054 16832 net.cpp:156] Memory required for data: 863429664
I0403 16:02:48.141079 16832 layer_factory.hpp:77] Creating layer inception_4a/relu_3x3_reduce
I0403 16:02:48.141103 16832 net.cpp:91] Creating Layer inception_4a/relu_3x3_reduce
I0403 16:02:48.141121 16832 net.cpp:425] inception_4a/relu_3x3_reduce <- inception_4a/3x3_reduce
I0403 16:02:48.141140 16832 net.cpp:386] inception_4a/relu_3x3_reduce -> inception_4a/3x3_reduce (in-place)
I0403 16:02:48.141330 16832 net.cpp:141] Setting up inception_4a/relu_3x3_reduce
I0403 16:02:48.141358 16832 net.cpp:148] Top shape: 24 96 14 14 (451584)
I0403 16:02:48.141376 16832 net.cpp:156] Memory required for data: 865236000
I0403 16:02:48.141392 16832 layer_factory.hpp:77] Creating layer inception_4a/3x3
I0403 16:02:48.141417 16832 net.cpp:91] Creating Layer inception_4a/3x3
I0403 16:02:48.141435 16832 net.cpp:425] inception_4a/3x3 <- inception_4a/3x3_reduce
I0403 16:02:48.141459 16832 net.cpp:399] inception_4a/3x3 -> inception_4a/3x3
I0403 16:02:48.144305 16832 net.cpp:141] Setting up inception_4a/3x3
I0403 16:02:48.144338 16832 net.cpp:148] Top shape: 24 208 14 14 (978432)
I0403 16:02:48.144356 16832 net.cpp:156] Memory required for data: 869149728
I0403 16:02:48.144377 16832 layer_factory.hpp:77] Creating layer inception_4a/relu_3x3
I0403 16:02:48.144397 16832 net.cpp:91] Creating Layer inception_4a/relu_3x3
I0403 16:02:48.144415 16832 net.cpp:425] inception_4a/relu_3x3 <- inception_4a/3x3
I0403 16:02:48.144438 16832 net.cpp:386] inception_4a/relu_3x3 -> inception_4a/3x3 (in-place)
I0403 16:02:48.144742 16832 net.cpp:141] Setting up inception_4a/relu_3x3
I0403 16:02:48.144772 16832 net.cpp:148] Top shape: 24 208 14 14 (978432)
I0403 16:02:48.144789 16832 net.cpp:156] Memory required for data: 873063456
I0403 16:02:48.144806 16832 layer_factory.hpp:77] Creating layer inception_4a/5x5_reduce
I0403 16:02:48.144832 16832 net.cpp:91] Creating Layer inception_4a/5x5_reduce
I0403 16:02:48.144852 16832 net.cpp:425] inception_4a/5x5_reduce <- pool3/3x3_s2_pool3/3x3_s2_0_split_2
I0403 16:02:48.144877 16832 net.cpp:399] inception_4a/5x5_reduce -> inception_4a/5x5_reduce
I0403 16:02:48.145967 16832 net.cpp:141] Setting up inception_4a/5x5_reduce
I0403 16:02:48.145998 16832 net.cpp:148] Top shape: 24 16 14 14 (75264)
I0403 16:02:48.146014 16832 net.cpp:156] Memory required for data: 873364512
I0403 16:02:48.146034 16832 layer_factory.hpp:77] Creating layer inception_4a/relu_5x5_reduce
I0403 16:02:48.146057 16832 net.cpp:91] Creating Layer inception_4a/relu_5x5_reduce
I0403 16:02:48.146075 16832 net.cpp:425] inception_4a/relu_5x5_reduce <- inception_4a/5x5_reduce
I0403 16:02:48.146095 16832 net.cpp:386] inception_4a/relu_5x5_reduce -> inception_4a/5x5_reduce (in-place)
I0403 16:02:48.146289 16832 net.cpp:141] Setting up inception_4a/relu_5x5_reduce
I0403 16:02:48.146317 16832 net.cpp:148] Top shape: 24 16 14 14 (75264)
I0403 16:02:48.146332 16832 net.cpp:156] Memory required for data: 873665568
I0403 16:02:48.146349 16832 layer_factory.hpp:77] Creating layer inception_4a/5x5
I0403 16:02:48.146373 16832 net.cpp:91] Creating Layer inception_4a/5x5
I0403 16:02:48.146392 16832 net.cpp:425] inception_4a/5x5 <- inception_4a/5x5_reduce
I0403 16:02:48.146416 16832 net.cpp:399] inception_4a/5x5 -> inception_4a/5x5
I0403 16:02:48.147583 16832 net.cpp:141] Setting up inception_4a/5x5
I0403 16:02:48.147611 16832 net.cpp:148] Top shape: 24 48 14 14 (225792)
I0403 16:02:48.147629 16832 net.cpp:156] Memory required for data: 874568736
I0403 16:02:48.147650 16832 layer_factory.hpp:77] Creating layer inception_4a/relu_5x5
I0403 16:02:48.147671 16832 net.cpp:91] Creating Layer inception_4a/relu_5x5
I0403 16:02:48.147691 16832 net.cpp:425] inception_4a/relu_5x5 <- inception_4a/5x5
I0403 16:02:48.147709 16832 net.cpp:386] inception_4a/relu_5x5 -> inception_4a/5x5 (in-place)
I0403 16:02:48.147903 16832 net.cpp:141] Setting up inception_4a/relu_5x5
I0403 16:02:48.147932 16832 net.cpp:148] Top shape: 24 48 14 14 (225792)
I0403 16:02:48.147949 16832 net.cpp:156] Memory required for data: 875471904
I0403 16:02:48.147966 16832 layer_factory.hpp:77] Creating layer inception_4a/pool
I0403 16:02:48.147986 16832 net.cpp:91] Creating Layer inception_4a/pool
I0403 16:02:48.148005 16832 net.cpp:425] inception_4a/pool <- pool3/3x3_s2_pool3/3x3_s2_0_split_3
I0403 16:02:48.148026 16832 net.cpp:399] inception_4a/pool -> inception_4a/pool
I0403 16:02:48.148092 16832 net.cpp:141] Setting up inception_4a/pool
I0403 16:02:48.148116 16832 net.cpp:148] Top shape: 24 480 14 14 (2257920)
I0403 16:02:48.148133 16832 net.cpp:156] Memory required for data: 884503584
I0403 16:02:48.148149 16832 layer_factory.hpp:77] Creating layer inception_4a/pool_proj
I0403 16:02:48.148174 16832 net.cpp:91] Creating Layer inception_4a/pool_proj
I0403 16:02:48.148193 16832 net.cpp:425] inception_4a/pool_proj <- inception_4a/pool
I0403 16:02:48.148216 16832 net.cpp:399] inception_4a/pool_proj -> inception_4a/pool_proj
I0403 16:02:48.149461 16832 net.cpp:141] Setting up inception_4a/pool_proj
I0403 16:02:48.149494 16832 net.cpp:148] Top shape: 24 64 14 14 (301056)
I0403 16:02:48.149528 16832 net.cpp:156] Memory required for data: 885707808
I0403 16:02:48.149549 16832 layer_factory.hpp:77] Creating layer inception_4a/relu_pool_proj
I0403 16:02:48.149574 16832 net.cpp:91] Creating Layer inception_4a/relu_pool_proj
I0403 16:02:48.149592 16832 net.cpp:425] inception_4a/relu_pool_proj <- inception_4a/pool_proj
I0403 16:02:48.149612 16832 net.cpp:386] inception_4a/relu_pool_proj -> inception_4a/pool_proj (in-place)
I0403 16:02:48.149916 16832 net.cpp:141] Setting up inception_4a/relu_pool_proj
I0403 16:02:48.149946 16832 net.cpp:148] Top shape: 24 64 14 14 (301056)
I0403 16:02:48.149965 16832 net.cpp:156] Memory required for data: 886912032
I0403 16:02:48.149981 16832 layer_factory.hpp:77] Creating layer inception_4a/output
I0403 16:02:48.150001 16832 net.cpp:91] Creating Layer inception_4a/output
I0403 16:02:48.150018 16832 net.cpp:425] inception_4a/output <- inception_4a/1x1
I0403 16:02:48.150038 16832 net.cpp:425] inception_4a/output <- inception_4a/3x3
I0403 16:02:48.150055 16832 net.cpp:425] inception_4a/output <- inception_4a/5x5
I0403 16:02:48.150074 16832 net.cpp:425] inception_4a/output <- inception_4a/pool_proj
I0403 16:02:48.150092 16832 net.cpp:399] inception_4a/output -> inception_4a/output
I0403 16:02:48.150142 16832 net.cpp:141] Setting up inception_4a/output
I0403 16:02:48.150166 16832 net.cpp:148] Top shape: 24 512 14 14 (2408448)
I0403 16:02:48.150183 16832 net.cpp:156] Memory required for data: 896545824
I0403 16:02:48.150199 16832 layer_factory.hpp:77] Creating layer inception_4a/output_inception_4a/output_0_split
I0403 16:02:48.150221 16832 net.cpp:91] Creating Layer inception_4a/output_inception_4a/output_0_split
I0403 16:02:48.150239 16832 net.cpp:425] inception_4a/output_inception_4a/output_0_split <- inception_4a/output
I0403 16:02:48.150259 16832 net.cpp:399] inception_4a/output_inception_4a/output_0_split -> inception_4a/output_inception_4a/output_0_split_0
I0403 16:02:48.150280 16832 net.cpp:399] inception_4a/output_inception_4a/output_0_split -> inception_4a/output_inception_4a/output_0_split_1
I0403 16:02:48.150305 16832 net.cpp:399] inception_4a/output_inception_4a/output_0_split -> inception_4a/output_inception_4a/output_0_split_2
I0403 16:02:48.150327 16832 net.cpp:399] inception_4a/output_inception_4a/output_0_split -> inception_4a/output_inception_4a/output_0_split_3
I0403 16:02:48.150352 16832 net.cpp:399] inception_4a/output_inception_4a/output_0_split -> inception_4a/output_inception_4a/output_0_split_4
I0403 16:02:48.150454 16832 net.cpp:141] Setting up inception_4a/output_inception_4a/output_0_split
I0403 16:02:48.150480 16832 net.cpp:148] Top shape: 24 512 14 14 (2408448)
I0403 16:02:48.150498 16832 net.cpp:148] Top shape: 24 512 14 14 (2408448)
I0403 16:02:48.150516 16832 net.cpp:148] Top shape: 24 512 14 14 (2408448)
I0403 16:02:48.150533 16832 net.cpp:148] Top shape: 24 512 14 14 (2408448)
I0403 16:02:48.150550 16832 net.cpp:148] Top shape: 24 512 14 14 (2408448)
I0403 16:02:48.150566 16832 net.cpp:156] Memory required for data: 944714784
I0403 16:02:48.150588 16832 layer_factory.hpp:77] Creating layer loss1/ave_pool
I0403 16:02:48.150607 16832 net.cpp:91] Creating Layer loss1/ave_pool
I0403 16:02:48.150625 16832 net.cpp:425] loss1/ave_pool <- inception_4a/output_inception_4a/output_0_split_0
I0403 16:02:48.150647 16832 net.cpp:399] loss1/ave_pool -> loss1/ave_pool
I0403 16:02:48.150864 16832 net.cpp:141] Setting up loss1/ave_pool
I0403 16:02:48.150894 16832 net.cpp:148] Top shape: 24 512 4 4 (196608)
I0403 16:02:48.150912 16832 net.cpp:156] Memory required for data: 945501216
I0403 16:02:48.150928 16832 layer_factory.hpp:77] Creating layer loss1/conv
I0403 16:02:48.150952 16832 net.cpp:91] Creating Layer loss1/conv
I0403 16:02:48.150971 16832 net.cpp:425] loss1/conv <- loss1/ave_pool
I0403 16:02:48.150992 16832 net.cpp:399] loss1/conv -> loss1/conv
I0403 16:02:48.152487 16832 net.cpp:141] Setting up loss1/conv
I0403 16:02:48.152518 16832 net.cpp:148] Top shape: 24 128 4 4 (49152)
I0403 16:02:48.152560 16832 net.cpp:156] Memory required for data: 945697824
I0403 16:02:48.152586 16832 layer_factory.hpp:77] Creating layer loss1/relu_conv
I0403 16:02:48.152607 16832 net.cpp:91] Creating Layer loss1/relu_conv
I0403 16:02:48.152624 16832 net.cpp:425] loss1/relu_conv <- loss1/conv
I0403 16:02:48.152645 16832 net.cpp:386] loss1/relu_conv -> loss1/conv (in-place)
I0403 16:02:48.152938 16832 net.cpp:141] Setting up loss1/relu_conv
I0403 16:02:48.152964 16832 net.cpp:148] Top shape: 24 128 4 4 (49152)
I0403 16:02:48.152981 16832 net.cpp:156] Memory required for data: 945894432
I0403 16:02:48.152997 16832 layer_factory.hpp:77] Creating layer loss1/fc
I0403 16:02:48.153023 16832 net.cpp:91] Creating Layer loss1/fc
I0403 16:02:48.153043 16832 net.cpp:425] loss1/fc <- loss1/conv
I0403 16:02:48.153066 16832 net.cpp:399] loss1/fc -> loss1/fc
I0403 16:02:48.171501 16832 net.cpp:141] Setting up loss1/fc
I0403 16:02:48.171533 16832 net.cpp:148] Top shape: 24 1024 (24576)
I0403 16:02:48.171550 16832 net.cpp:156] Memory required for data: 945992736
I0403 16:02:48.171573 16832 layer_factory.hpp:77] Creating layer loss1/relu_fc
I0403 16:02:48.171597 16832 net.cpp:91] Creating Layer loss1/relu_fc
I0403 16:02:48.171617 16832 net.cpp:425] loss1/relu_fc <- loss1/fc
I0403 16:02:48.171635 16832 net.cpp:386] loss1/relu_fc -> loss1/fc (in-place)
I0403 16:02:48.171828 16832 net.cpp:141] Setting up loss1/relu_fc
I0403 16:02:48.171855 16832 net.cpp:148] Top shape: 24 1024 (24576)
I0403 16:02:48.171871 16832 net.cpp:156] Memory required for data: 946091040
I0403 16:02:48.171887 16832 layer_factory.hpp:77] Creating layer loss1/drop_fc
I0403 16:02:48.171913 16832 net.cpp:91] Creating Layer loss1/drop_fc
I0403 16:02:48.171932 16832 net.cpp:425] loss1/drop_fc <- loss1/fc
I0403 16:02:48.171953 16832 net.cpp:386] loss1/drop_fc -> loss1/fc (in-place)
I0403 16:02:48.172008 16832 net.cpp:141] Setting up loss1/drop_fc
I0403 16:02:48.172031 16832 net.cpp:148] Top shape: 24 1024 (24576)
I0403 16:02:48.172046 16832 net.cpp:156] Memory required for data: 946189344
I0403 16:02:48.172063 16832 layer_factory.hpp:77] Creating layer loss1/classifier_plantvillage
I0403 16:02:48.172087 16832 net.cpp:91] Creating Layer loss1/classifier_plantvillage
I0403 16:02:48.172106 16832 net.cpp:425] loss1/classifier_plantvillage <- loss1/fc
I0403 16:02:48.172127 16832 net.cpp:399] loss1/classifier_plantvillage -> loss1/classifier_plantvillage
I0403 16:02:48.173065 16832 net.cpp:141] Setting up loss1/classifier_plantvillage
I0403 16:02:48.173099 16832 net.cpp:148] Top shape: 24 38 (912)
I0403 16:02:48.173116 16832 net.cpp:156] Memory required for data: 946192992
I0403 16:02:48.173136 16832 layer_factory.hpp:77] Creating layer loss1/classifier_plantvillage_loss1/classifier_plantvillage_0_split
I0403 16:02:48.173156 16832 net.cpp:91] Creating Layer loss1/classifier_plantvillage_loss1/classifier_plantvillage_0_split
I0403 16:02:48.173172 16832 net.cpp:425] loss1/classifier_plantvillage_loss1/classifier_plantvillage_0_split <- loss1/classifier_plantvillage
I0403 16:02:48.173193 16832 net.cpp:399] loss1/classifier_plantvillage_loss1/classifier_plantvillage_0_split -> loss1/classifier_plantvillage_loss1/classifier_plantvillage_0_split_0
I0403 16:02:48.173215 16832 net.cpp:399] loss1/classifier_plantvillage_loss1/classifier_plantvillage_0_split -> loss1/classifier_plantvillage_loss1/classifier_plantvillage_0_split_1
I0403 16:02:48.173250 16832 net.cpp:399] loss1/classifier_plantvillage_loss1/classifier_plantvillage_0_split -> loss1/classifier_plantvillage_loss1/classifier_plantvillage_0_split_2
I0403 16:02:48.173322 16832 net.cpp:141] Setting up loss1/classifier_plantvillage_loss1/classifier_plantvillage_0_split
I0403 16:02:48.173346 16832 net.cpp:148] Top shape: 24 38 (912)
I0403 16:02:48.173364 16832 net.cpp:148] Top shape: 24 38 (912)
I0403 16:02:48.173382 16832 net.cpp:148] Top shape: 24 38 (912)
I0403 16:02:48.173396 16832 net.cpp:156] Memory required for data: 946203936
I0403 16:02:48.173413 16832 layer_factory.hpp:77] Creating layer inception_4b/1x1
I0403 16:02:48.173436 16832 net.cpp:91] Creating Layer inception_4b/1x1
I0403 16:02:48.173471 16832 net.cpp:425] inception_4b/1x1 <- inception_4a/output_inception_4a/output_0_split_1
I0403 16:02:48.173493 16832 net.cpp:399] inception_4b/1x1 -> inception_4b/1x1
I0403 16:02:48.175163 16832 net.cpp:141] Setting up inception_4b/1x1
I0403 16:02:48.175191 16832 net.cpp:148] Top shape: 24 160 14 14 (752640)
I0403 16:02:48.175207 16832 net.cpp:156] Memory required for data: 949214496
I0403 16:02:48.175226 16832 layer_factory.hpp:77] Creating layer inception_4b/relu_1x1
I0403 16:02:48.175246 16832 net.cpp:91] Creating Layer inception_4b/relu_1x1
I0403 16:02:48.175266 16832 net.cpp:425] inception_4b/relu_1x1 <- inception_4b/1x1
I0403 16:02:48.175283 16832 net.cpp:386] inception_4b/relu_1x1 -> inception_4b/1x1 (in-place)
I0403 16:02:48.175465 16832 net.cpp:141] Setting up inception_4b/relu_1x1
I0403 16:02:48.175490 16832 net.cpp:148] Top shape: 24 160 14 14 (752640)
I0403 16:02:48.175505 16832 net.cpp:156] Memory required for data: 952225056
I0403 16:02:48.175521 16832 layer_factory.hpp:77] Creating layer inception_4b/3x3_reduce
I0403 16:02:48.175544 16832 net.cpp:91] Creating Layer inception_4b/3x3_reduce
I0403 16:02:48.175564 16832 net.cpp:425] inception_4b/3x3_reduce <- inception_4a/output_inception_4a/output_0_split_2
I0403 16:02:48.175593 16832 net.cpp:399] inception_4b/3x3_reduce -> inception_4b/3x3_reduce
I0403 16:02:48.176964 16832 net.cpp:141] Setting up inception_4b/3x3_reduce
I0403 16:02:48.176991 16832 net.cpp:148] Top shape: 24 112 14 14 (526848)
I0403 16:02:48.177008 16832 net.cpp:156] Memory required for data: 954332448
I0403 16:02:48.177027 16832 layer_factory.hpp:77] Creating layer inception_4b/relu_3x3_reduce
I0403 16:02:48.177049 16832 net.cpp:91] Creating Layer inception_4b/relu_3x3_reduce
I0403 16:02:48.177067 16832 net.cpp:425] inception_4b/relu_3x3_reduce <- inception_4b/3x3_reduce
I0403 16:02:48.177086 16832 net.cpp:386] inception_4b/relu_3x3_reduce -> inception_4b/3x3_reduce (in-place)
I0403 16:02:48.177372 16832 net.cpp:141] Setting up inception_4b/relu_3x3_reduce
I0403 16:02:48.177399 16832 net.cpp:148] Top shape: 24 112 14 14 (526848)
I0403 16:02:48.177414 16832 net.cpp:156] Memory required for data: 956439840
I0403 16:02:48.177430 16832 layer_factory.hpp:77] Creating layer inception_4b/3x3
I0403 16:02:48.177453 16832 net.cpp:91] Creating Layer inception_4b/3x3
I0403 16:02:48.177472 16832 net.cpp:425] inception_4b/3x3 <- inception_4b/3x3_reduce
I0403 16:02:48.177495 16832 net.cpp:399] inception_4b/3x3 -> inception_4b/3x3
I0403 16:02:48.180538 16832 net.cpp:141] Setting up inception_4b/3x3
I0403 16:02:48.180577 16832 net.cpp:148] Top shape: 24 224 14 14 (1053696)
I0403 16:02:48.180595 16832 net.cpp:156] Memory required for data: 960654624
I0403 16:02:48.180615 16832 layer_factory.hpp:77] Creating layer inception_4b/relu_3x3
I0403 16:02:48.180634 16832 net.cpp:91] Creating Layer inception_4b/relu_3x3
I0403 16:02:48.180651 16832 net.cpp:425] inception_4b/relu_3x3 <- inception_4b/3x3
I0403 16:02:48.180671 16832 net.cpp:386] inception_4b/relu_3x3 -> inception_4b/3x3 (in-place)
I0403 16:02:48.180855 16832 net.cpp:141] Setting up inception_4b/relu_3x3
I0403 16:02:48.180881 16832 net.cpp:148] Top shape: 24 224 14 14 (1053696)
I0403 16:02:48.180896 16832 net.cpp:156] Memory required for data: 964869408
I0403 16:02:48.180910 16832 layer_factory.hpp:77] Creating layer inception_4b/5x5_reduce
I0403 16:02:48.180933 16832 net.cpp:91] Creating Layer inception_4b/5x5_reduce
I0403 16:02:48.180951 16832 net.cpp:425] inception_4b/5x5_reduce <- inception_4a/output_inception_4a/output_0_split_3
I0403 16:02:48.180975 16832 net.cpp:399] inception_4b/5x5_reduce -> inception_4b/5x5_reduce
I0403 16:02:48.182077 16832 net.cpp:141] Setting up inception_4b/5x5_reduce
I0403 16:02:48.182106 16832 net.cpp:148] Top shape: 24 24 14 14 (112896)
I0403 16:02:48.182121 16832 net.cpp:156] Memory required for data: 965320992
I0403 16:02:48.182140 16832 layer_factory.hpp:77] Creating layer inception_4b/relu_5x5_reduce
I0403 16:02:48.182163 16832 net.cpp:91] Creating Layer inception_4b/relu_5x5_reduce
I0403 16:02:48.182195 16832 net.cpp:425] inception_4b/relu_5x5_reduce <- inception_4b/5x5_reduce
I0403 16:02:48.182214 16832 net.cpp:386] inception_4b/relu_5x5_reduce -> inception_4b/5x5_reduce (in-place)
I0403 16:02:48.182404 16832 net.cpp:141] Setting up inception_4b/relu_5x5_reduce
I0403 16:02:48.182430 16832 net.cpp:148] Top shape: 24 24 14 14 (112896)
I0403 16:02:48.182446 16832 net.cpp:156] Memory required for data: 965772576
I0403 16:02:48.182461 16832 layer_factory.hpp:77] Creating layer inception_4b/5x5
I0403 16:02:48.182483 16832 net.cpp:91] Creating Layer inception_4b/5x5
I0403 16:02:48.182502 16832 net.cpp:425] inception_4b/5x5 <- inception_4b/5x5_reduce
I0403 16:02:48.182524 16832 net.cpp:399] inception_4b/5x5 -> inception_4b/5x5
I0403 16:02:48.183845 16832 net.cpp:141] Setting up inception_4b/5x5
I0403 16:02:48.183874 16832 net.cpp:148] Top shape: 24 64 14 14 (301056)
I0403 16:02:48.183890 16832 net.cpp:156] Memory required for data: 966976800
I0403 16:02:48.183910 16832 layer_factory.hpp:77] Creating layer inception_4b/relu_5x5
I0403 16:02:48.183930 16832 net.cpp:91] Creating Layer inception_4b/relu_5x5
I0403 16:02:48.183981 16832 net.cpp:425] inception_4b/relu_5x5 <- inception_4b/5x5
I0403 16:02:48.184000 16832 net.cpp:386] inception_4b/relu_5x5 -> inception_4b/5x5 (in-place)
I0403 16:02:48.184315 16832 net.cpp:141] Setting up inception_4b/relu_5x5
I0403 16:02:48.184343 16832 net.cpp:148] Top shape: 24 64 14 14 (301056)
I0403 16:02:48.184360 16832 net.cpp:156] Memory required for data: 968181024
I0403 16:02:48.184376 16832 layer_factory.hpp:77] Creating layer inception_4b/pool
I0403 16:02:48.184394 16832 net.cpp:91] Creating Layer inception_4b/pool
I0403 16:02:48.184412 16832 net.cpp:425] inception_4b/pool <- inception_4a/output_inception_4a/output_0_split_4
I0403 16:02:48.184433 16832 net.cpp:399] inception_4b/pool -> inception_4b/pool
I0403 16:02:48.184500 16832 net.cpp:141] Setting up inception_4b/pool
I0403 16:02:48.184527 16832 net.cpp:148] Top shape: 24 512 14 14 (2408448)
I0403 16:02:48.184545 16832 net.cpp:156] Memory required for data: 977814816
I0403 16:02:48.184561 16832 layer_factory.hpp:77] Creating layer inception_4b/pool_proj
I0403 16:02:48.184599 16832 net.cpp:91] Creating Layer inception_4b/pool_proj
I0403 16:02:48.184620 16832 net.cpp:425] inception_4b/pool_proj <- inception_4b/pool
I0403 16:02:48.184640 16832 net.cpp:399] inception_4b/pool_proj -> inception_4b/pool_proj
I0403 16:02:48.186033 16832 net.cpp:141] Setting up inception_4b/pool_proj
I0403 16:02:48.186064 16832 net.cpp:148] Top shape: 24 64 14 14 (301056)
I0403 16:02:48.186080 16832 net.cpp:156] Memory required for data: 979019040
I0403 16:02:48.186100 16832 layer_factory.hpp:77] Creating layer inception_4b/relu_pool_proj
I0403 16:02:48.186121 16832 net.cpp:91] Creating Layer inception_4b/relu_pool_proj
I0403 16:02:48.186139 16832 net.cpp:425] inception_4b/relu_pool_proj <- inception_4b/pool_proj
I0403 16:02:48.186158 16832 net.cpp:386] inception_4b/relu_pool_proj -> inception_4b/pool_proj (in-place)
I0403 16:02:48.186347 16832 net.cpp:141] Setting up inception_4b/relu_pool_proj
I0403 16:02:48.186374 16832 net.cpp:148] Top shape: 24 64 14 14 (301056)
I0403 16:02:48.186389 16832 net.cpp:156] Memory required for data: 980223264
I0403 16:02:48.186405 16832 layer_factory.hpp:77] Creating layer inception_4b/output
I0403 16:02:48.186427 16832 net.cpp:91] Creating Layer inception_4b/output
I0403 16:02:48.186445 16832 net.cpp:425] inception_4b/output <- inception_4b/1x1
I0403 16:02:48.186463 16832 net.cpp:425] inception_4b/output <- inception_4b/3x3
I0403 16:02:48.186480 16832 net.cpp:425] inception_4b/output <- inception_4b/5x5
I0403 16:02:48.186498 16832 net.cpp:425] inception_4b/output <- inception_4b/pool_proj
I0403 16:02:48.186532 16832 net.cpp:399] inception_4b/output -> inception_4b/output
I0403 16:02:48.186586 16832 net.cpp:141] Setting up inception_4b/output
I0403 16:02:48.186612 16832 net.cpp:148] Top shape: 24 512 14 14 (2408448)
I0403 16:02:48.186628 16832 net.cpp:156] Memory required for data: 989857056
I0403 16:02:48.186661 16832 layer_factory.hpp:77] Creating layer inception_4b/output_inception_4b/output_0_split
I0403 16:02:48.186681 16832 net.cpp:91] Creating Layer inception_4b/output_inception_4b/output_0_split
I0403 16:02:48.186699 16832 net.cpp:425] inception_4b/output_inception_4b/output_0_split <- inception_4b/output
I0403 16:02:48.186722 16832 net.cpp:399] inception_4b/output_inception_4b/output_0_split -> inception_4b/output_inception_4b/output_0_split_0
I0403 16:02:48.186744 16832 net.cpp:399] inception_4b/output_inception_4b/output_0_split -> inception_4b/output_inception_4b/output_0_split_1
I0403 16:02:48.186769 16832 net.cpp:399] inception_4b/output_inception_4b/output_0_split -> inception_4b/output_inception_4b/output_0_split_2
I0403 16:02:48.186791 16832 net.cpp:399] inception_4b/output_inception_4b/output_0_split -> inception_4b/output_inception_4b/output_0_split_3
I0403 16:02:48.186893 16832 net.cpp:141] Setting up inception_4b/output_inception_4b/output_0_split
I0403 16:02:48.186919 16832 net.cpp:148] Top shape: 24 512 14 14 (2408448)
I0403 16:02:48.186939 16832 net.cpp:148] Top shape: 24 512 14 14 (2408448)
I0403 16:02:48.186954 16832 net.cpp:148] Top shape: 24 512 14 14 (2408448)
I0403 16:02:48.186970 16832 net.cpp:148] Top shape: 24 512 14 14 (2408448)
I0403 16:02:48.186985 16832 net.cpp:156] Memory required for data: 1028392224
I0403 16:02:48.187001 16832 layer_factory.hpp:77] Creating layer inception_4c/1x1
I0403 16:02:48.187024 16832 net.cpp:91] Creating Layer inception_4c/1x1
I0403 16:02:48.187043 16832 net.cpp:425] inception_4c/1x1 <- inception_4b/output_inception_4b/output_0_split_0
I0403 16:02:48.187063 16832 net.cpp:399] inception_4c/1x1 -> inception_4c/1x1
I0403 16:02:48.188549 16832 net.cpp:141] Setting up inception_4c/1x1
I0403 16:02:48.188581 16832 net.cpp:148] Top shape: 24 128 14 14 (602112)
I0403 16:02:48.188599 16832 net.cpp:156] Memory required for data: 1030800672
I0403 16:02:48.188619 16832 layer_factory.hpp:77] Creating layer inception_4c/relu_1x1
I0403 16:02:48.188642 16832 net.cpp:91] Creating Layer inception_4c/relu_1x1
I0403 16:02:48.188662 16832 net.cpp:425] inception_4c/relu_1x1 <- inception_4c/1x1
I0403 16:02:48.188679 16832 net.cpp:386] inception_4c/relu_1x1 -> inception_4c/1x1 (in-place)
I0403 16:02:48.188874 16832 net.cpp:141] Setting up inception_4c/relu_1x1
I0403 16:02:48.188899 16832 net.cpp:148] Top shape: 24 128 14 14 (602112)
I0403 16:02:48.188915 16832 net.cpp:156] Memory required for data: 1033209120
I0403 16:02:48.188930 16832 layer_factory.hpp:77] Creating layer inception_4c/3x3_reduce
I0403 16:02:48.188954 16832 net.cpp:91] Creating Layer inception_4c/3x3_reduce
I0403 16:02:48.188973 16832 net.cpp:425] inception_4c/3x3_reduce <- inception_4b/output_inception_4b/output_0_split_1
I0403 16:02:48.188995 16832 net.cpp:399] inception_4c/3x3_reduce -> inception_4c/3x3_reduce
I0403 16:02:48.191021 16832 net.cpp:141] Setting up inception_4c/3x3_reduce
I0403 16:02:48.191051 16832 net.cpp:148] Top shape: 24 128 14 14 (602112)
I0403 16:02:48.191067 16832 net.cpp:156] Memory required for data: 1035617568
I0403 16:02:48.191087 16832 layer_factory.hpp:77] Creating layer inception_4c/relu_3x3_reduce
I0403 16:02:48.191105 16832 net.cpp:91] Creating Layer inception_4c/relu_3x3_reduce
I0403 16:02:48.191123 16832 net.cpp:425] inception_4c/relu_3x3_reduce <- inception_4c/3x3_reduce
I0403 16:02:48.191143 16832 net.cpp:386] inception_4c/relu_3x3_reduce -> inception_4c/3x3_reduce (in-place)
I0403 16:02:48.191436 16832 net.cpp:141] Setting up inception_4c/relu_3x3_reduce
I0403 16:02:48.191462 16832 net.cpp:148] Top shape: 24 128 14 14 (602112)
I0403 16:02:48.191478 16832 net.cpp:156] Memory required for data: 1038026016
I0403 16:02:48.191493 16832 layer_factory.hpp:77] Creating layer inception_4c/3x3
I0403 16:02:48.191519 16832 net.cpp:91] Creating Layer inception_4c/3x3
I0403 16:02:48.191539 16832 net.cpp:425] inception_4c/3x3 <- inception_4c/3x3_reduce
I0403 16:02:48.191560 16832 net.cpp:399] inception_4c/3x3 -> inception_4c/3x3
I0403 16:02:48.195245 16832 net.cpp:141] Setting up inception_4c/3x3
I0403 16:02:48.195289 16832 net.cpp:148] Top shape: 24 256 14 14 (1204224)
I0403 16:02:48.195307 16832 net.cpp:156] Memory required for data: 1042842912
I0403 16:02:48.195339 16832 layer_factory.hpp:77] Creating layer inception_4c/relu_3x3
I0403 16:02:48.195363 16832 net.cpp:91] Creating Layer inception_4c/relu_3x3
I0403 16:02:48.195380 16832 net.cpp:425] inception_4c/relu_3x3 <- inception_4c/3x3
I0403 16:02:48.195399 16832 net.cpp:386] inception_4c/relu_3x3 -> inception_4c/3x3 (in-place)
I0403 16:02:48.195603 16832 net.cpp:141] Setting up inception_4c/relu_3x3
I0403 16:02:48.195631 16832 net.cpp:148] Top shape: 24 256 14 14 (1204224)
I0403 16:02:48.195647 16832 net.cpp:156] Memory required for data: 1047659808
I0403 16:02:48.195662 16832 layer_factory.hpp:77] Creating layer inception_4c/5x5_reduce
I0403 16:02:48.195688 16832 net.cpp:91] Creating Layer inception_4c/5x5_reduce
I0403 16:02:48.195708 16832 net.cpp:425] inception_4c/5x5_reduce <- inception_4b/output_inception_4b/output_0_split_2
I0403 16:02:48.195730 16832 net.cpp:399] inception_4c/5x5_reduce -> inception_4c/5x5_reduce
I0403 16:02:48.196851 16832 net.cpp:141] Setting up inception_4c/5x5_reduce
I0403 16:02:48.196879 16832 net.cpp:148] Top shape: 24 24 14 14 (112896)
I0403 16:02:48.196895 16832 net.cpp:156] Memory required for data: 1048111392
I0403 16:02:48.196914 16832 layer_factory.hpp:77] Creating layer inception_4c/relu_5x5_reduce
I0403 16:02:48.196934 16832 net.cpp:91] Creating Layer inception_4c/relu_5x5_reduce
I0403 16:02:48.196951 16832 net.cpp:425] inception_4c/relu_5x5_reduce <- inception_4c/5x5_reduce
I0403 16:02:48.196972 16832 net.cpp:386] inception_4c/relu_5x5_reduce -> inception_4c/5x5_reduce (in-place)
I0403 16:02:48.197161 16832 net.cpp:141] Setting up inception_4c/relu_5x5_reduce
I0403 16:02:48.197187 16832 net.cpp:148] Top shape: 24 24 14 14 (112896)
I0403 16:02:48.197203 16832 net.cpp:156] Memory required for data: 1048562976
I0403 16:02:48.197219 16832 layer_factory.hpp:77] Creating layer inception_4c/5x5
I0403 16:02:48.197242 16832 net.cpp:91] Creating Layer inception_4c/5x5
I0403 16:02:48.197260 16832 net.cpp:425] inception_4c/5x5 <- inception_4c/5x5_reduce
I0403 16:02:48.197281 16832 net.cpp:399] inception_4c/5x5 -> inception_4c/5x5
I0403 16:02:48.198592 16832 net.cpp:141] Setting up inception_4c/5x5
I0403 16:02:48.198621 16832 net.cpp:148] Top shape: 24 64 14 14 (301056)
I0403 16:02:48.198638 16832 net.cpp:156] Memory required for data: 1049767200
I0403 16:02:48.198658 16832 layer_factory.hpp:77] Creating layer inception_4c/relu_5x5
I0403 16:02:48.198680 16832 net.cpp:91] Creating Layer inception_4c/relu_5x5
I0403 16:02:48.198698 16832 net.cpp:425] inception_4c/relu_5x5 <- inception_4c/5x5
I0403 16:02:48.198717 16832 net.cpp:386] inception_4c/relu_5x5 -> inception_4c/5x5 (in-place)
I0403 16:02:48.199020 16832 net.cpp:141] Setting up inception_4c/relu_5x5
I0403 16:02:48.199046 16832 net.cpp:148] Top shape: 24 64 14 14 (301056)
I0403 16:02:48.199062 16832 net.cpp:156] Memory required for data: 1050971424
I0403 16:02:48.199079 16832 layer_factory.hpp:77] Creating layer inception_4c/pool
I0403 16:02:48.199098 16832 net.cpp:91] Creating Layer inception_4c/pool
I0403 16:02:48.199116 16832 net.cpp:425] inception_4c/pool <- inception_4b/output_inception_4b/output_0_split_3
I0403 16:02:48.199136 16832 net.cpp:399] inception_4c/pool -> inception_4c/pool
I0403 16:02:48.199204 16832 net.cpp:141] Setting up inception_4c/pool
I0403 16:02:48.199229 16832 net.cpp:148] Top shape: 24 512 14 14 (2408448)
I0403 16:02:48.199244 16832 net.cpp:156] Memory required for data: 1060605216
I0403 16:02:48.199259 16832 layer_factory.hpp:77] Creating layer inception_4c/pool_proj
I0403 16:02:48.199282 16832 net.cpp:91] Creating Layer inception_4c/pool_proj
I0403 16:02:48.199301 16832 net.cpp:425] inception_4c/pool_proj <- inception_4c/pool
I0403 16:02:48.199322 16832 net.cpp:399] inception_4c/pool_proj -> inception_4c/pool_proj
I0403 16:02:48.200594 16832 net.cpp:141] Setting up inception_4c/pool_proj
I0403 16:02:48.200623 16832 net.cpp:148] Top shape: 24 64 14 14 (301056)
I0403 16:02:48.200652 16832 net.cpp:156] Memory required for data: 1061809440
I0403 16:02:48.200672 16832 layer_factory.hpp:77] Creating layer inception_4c/relu_pool_proj
I0403 16:02:48.200695 16832 net.cpp:91] Creating Layer inception_4c/relu_pool_proj
I0403 16:02:48.200712 16832 net.cpp:425] inception_4c/relu_pool_proj <- inception_4c/pool_proj
I0403 16:02:48.200731 16832 net.cpp:386] inception_4c/relu_pool_proj -> inception_4c/pool_proj (in-place)
I0403 16:02:48.200916 16832 net.cpp:141] Setting up inception_4c/relu_pool_proj
I0403 16:02:48.200940 16832 net.cpp:148] Top shape: 24 64 14 14 (301056)
I0403 16:02:48.200955 16832 net.cpp:156] Memory required for data: 1063013664
I0403 16:02:48.200971 16832 layer_factory.hpp:77] Creating layer inception_4c/output
I0403 16:02:48.200991 16832 net.cpp:91] Creating Layer inception_4c/output
I0403 16:02:48.201009 16832 net.cpp:425] inception_4c/output <- inception_4c/1x1
I0403 16:02:48.201027 16832 net.cpp:425] inception_4c/output <- inception_4c/3x3
I0403 16:02:48.201045 16832 net.cpp:425] inception_4c/output <- inception_4c/5x5
I0403 16:02:48.201073 16832 net.cpp:425] inception_4c/output <- inception_4c/pool_proj
I0403 16:02:48.201092 16832 net.cpp:399] inception_4c/output -> inception_4c/output
I0403 16:02:48.201143 16832 net.cpp:141] Setting up inception_4c/output
I0403 16:02:48.201167 16832 net.cpp:148] Top shape: 24 512 14 14 (2408448)
I0403 16:02:48.201184 16832 net.cpp:156] Memory required for data: 1072647456
I0403 16:02:48.201200 16832 layer_factory.hpp:77] Creating layer inception_4c/output_inception_4c/output_0_split
I0403 16:02:48.201218 16832 net.cpp:91] Creating Layer inception_4c/output_inception_4c/output_0_split
I0403 16:02:48.201234 16832 net.cpp:425] inception_4c/output_inception_4c/output_0_split <- inception_4c/output
I0403 16:02:48.201256 16832 net.cpp:399] inception_4c/output_inception_4c/output_0_split -> inception_4c/output_inception_4c/output_0_split_0
I0403 16:02:48.201278 16832 net.cpp:399] inception_4c/output_inception_4c/output_0_split -> inception_4c/output_inception_4c/output_0_split_1
I0403 16:02:48.201303 16832 net.cpp:399] inception_4c/output_inception_4c/output_0_split -> inception_4c/output_inception_4c/output_0_split_2
I0403 16:02:48.201336 16832 net.cpp:399] inception_4c/output_inception_4c/output_0_split -> inception_4c/output_inception_4c/output_0_split_3
I0403 16:02:48.201442 16832 net.cpp:141] Setting up inception_4c/output_inception_4c/output_0_split
I0403 16:02:48.201480 16832 net.cpp:148] Top shape: 24 512 14 14 (2408448)
I0403 16:02:48.201498 16832 net.cpp:148] Top shape: 24 512 14 14 (2408448)
I0403 16:02:48.201514 16832 net.cpp:148] Top shape: 24 512 14 14 (2408448)
I0403 16:02:48.201530 16832 net.cpp:148] Top shape: 24 512 14 14 (2408448)
I0403 16:02:48.201545 16832 net.cpp:156] Memory required for data: 1111182624
I0403 16:02:48.201561 16832 layer_factory.hpp:77] Creating layer inception_4d/1x1
I0403 16:02:48.201588 16832 net.cpp:91] Creating Layer inception_4d/1x1
I0403 16:02:48.201608 16832 net.cpp:425] inception_4d/1x1 <- inception_4c/output_inception_4c/output_0_split_0
I0403 16:02:48.201627 16832 net.cpp:399] inception_4d/1x1 -> inception_4d/1x1
I0403 16:02:48.203023 16832 net.cpp:141] Setting up inception_4d/1x1
I0403 16:02:48.203052 16832 net.cpp:148] Top shape: 24 112 14 14 (526848)
I0403 16:02:48.203069 16832 net.cpp:156] Memory required for data: 1113290016
I0403 16:02:48.203088 16832 layer_factory.hpp:77] Creating layer inception_4d/relu_1x1
I0403 16:02:48.203106 16832 net.cpp:91] Creating Layer inception_4d/relu_1x1
I0403 16:02:48.203122 16832 net.cpp:425] inception_4d/relu_1x1 <- inception_4d/1x1
I0403 16:02:48.203142 16832 net.cpp:386] inception_4d/relu_1x1 -> inception_4d/1x1 (in-place)
I0403 16:02:48.203322 16832 net.cpp:141] Setting up inception_4d/relu_1x1
I0403 16:02:48.203346 16832 net.cpp:148] Top shape: 24 112 14 14 (526848)
I0403 16:02:48.203361 16832 net.cpp:156] Memory required for data: 1115397408
I0403 16:02:48.203377 16832 layer_factory.hpp:77] Creating layer inception_4d/3x3_reduce
I0403 16:02:48.203414 16832 net.cpp:91] Creating Layer inception_4d/3x3_reduce
I0403 16:02:48.203433 16832 net.cpp:425] inception_4d/3x3_reduce <- inception_4c/output_inception_4c/output_0_split_1
I0403 16:02:48.203454 16832 net.cpp:399] inception_4d/3x3_reduce -> inception_4d/3x3_reduce
I0403 16:02:48.204943 16832 net.cpp:141] Setting up inception_4d/3x3_reduce
I0403 16:02:48.204972 16832 net.cpp:148] Top shape: 24 144 14 14 (677376)
I0403 16:02:48.204990 16832 net.cpp:156] Memory required for data: 1118106912
I0403 16:02:48.205009 16832 layer_factory.hpp:77] Creating layer inception_4d/relu_3x3_reduce
I0403 16:02:48.205027 16832 net.cpp:91] Creating Layer inception_4d/relu_3x3_reduce
I0403 16:02:48.205044 16832 net.cpp:425] inception_4d/relu_3x3_reduce <- inception_4d/3x3_reduce
I0403 16:02:48.205061 16832 net.cpp:386] inception_4d/relu_3x3_reduce -> inception_4d/3x3_reduce (in-place)
I0403 16:02:48.205344 16832 net.cpp:141] Setting up inception_4d/relu_3x3_reduce
I0403 16:02:48.205370 16832 net.cpp:148] Top shape: 24 144 14 14 (677376)
I0403 16:02:48.205389 16832 net.cpp:156] Memory required for data: 1120816416
I0403 16:02:48.205405 16832 layer_factory.hpp:77] Creating layer inception_4d/3x3
I0403 16:02:48.205425 16832 net.cpp:91] Creating Layer inception_4d/3x3
I0403 16:02:48.205443 16832 net.cpp:425] inception_4d/3x3 <- inception_4d/3x3_reduce
I0403 16:02:48.205464 16832 net.cpp:399] inception_4d/3x3 -> inception_4d/3x3
I0403 16:02:48.209681 16832 net.cpp:141] Setting up inception_4d/3x3
I0403 16:02:48.209712 16832 net.cpp:148] Top shape: 24 288 14 14 (1354752)
I0403 16:02:48.209728 16832 net.cpp:156] Memory required for data: 1126235424
I0403 16:02:48.209745 16832 layer_factory.hpp:77] Creating layer inception_4d/relu_3x3
I0403 16:02:48.209764 16832 net.cpp:91] Creating Layer inception_4d/relu_3x3
I0403 16:02:48.209780 16832 net.cpp:425] inception_4d/relu_3x3 <- inception_4d/3x3
I0403 16:02:48.209800 16832 net.cpp:386] inception_4d/relu_3x3 -> inception_4d/3x3 (in-place)
I0403 16:02:48.209986 16832 net.cpp:141] Setting up inception_4d/relu_3x3
I0403 16:02:48.210011 16832 net.cpp:148] Top shape: 24 288 14 14 (1354752)
I0403 16:02:48.210026 16832 net.cpp:156] Memory required for data: 1131654432
I0403 16:02:48.210042 16832 layer_factory.hpp:77] Creating layer inception_4d/5x5_reduce
I0403 16:02:48.210065 16832 net.cpp:91] Creating Layer inception_4d/5x5_reduce
I0403 16:02:48.210083 16832 net.cpp:425] inception_4d/5x5_reduce <- inception_4c/output_inception_4c/output_0_split_2
I0403 16:02:48.210106 16832 net.cpp:399] inception_4d/5x5_reduce -> inception_4d/5x5_reduce
I0403 16:02:48.211261 16832 net.cpp:141] Setting up inception_4d/5x5_reduce
I0403 16:02:48.211290 16832 net.cpp:148] Top shape: 24 32 14 14 (150528)
I0403 16:02:48.211308 16832 net.cpp:156] Memory required for data: 1132256544
I0403 16:02:48.211326 16832 layer_factory.hpp:77] Creating layer inception_4d/relu_5x5_reduce
I0403 16:02:48.211345 16832 net.cpp:91] Creating Layer inception_4d/relu_5x5_reduce
I0403 16:02:48.211361 16832 net.cpp:425] inception_4d/relu_5x5_reduce <- inception_4d/5x5_reduce
I0403 16:02:48.211381 16832 net.cpp:386] inception_4d/relu_5x5_reduce -> inception_4d/5x5_reduce (in-place)
I0403 16:02:48.211565 16832 net.cpp:141] Setting up inception_4d/relu_5x5_reduce
I0403 16:02:48.211593 16832 net.cpp:148] Top shape: 24 32 14 14 (150528)
I0403 16:02:48.211609 16832 net.cpp:156] Memory required for data: 1132858656
I0403 16:02:48.211624 16832 layer_factory.hpp:77] Creating layer inception_4d/5x5
I0403 16:02:48.211647 16832 net.cpp:91] Creating Layer inception_4d/5x5
I0403 16:02:48.211665 16832 net.cpp:425] inception_4d/5x5 <- inception_4d/5x5_reduce
I0403 16:02:48.211688 16832 net.cpp:399] inception_4d/5x5 -> inception_4d/5x5
I0403 16:02:48.213157 16832 net.cpp:141] Setting up inception_4d/5x5
I0403 16:02:48.213186 16832 net.cpp:148] Top shape: 24 64 14 14 (301056)
I0403 16:02:48.213201 16832 net.cpp:156] Memory required for data: 1134062880
I0403 16:02:48.213220 16832 layer_factory.hpp:77] Creating layer inception_4d/relu_5x5
I0403 16:02:48.213255 16832 net.cpp:91] Creating Layer inception_4d/relu_5x5
I0403 16:02:48.213274 16832 net.cpp:425] inception_4d/relu_5x5 <- inception_4d/5x5
I0403 16:02:48.213291 16832 net.cpp:386] inception_4d/relu_5x5 -> inception_4d/5x5 (in-place)
I0403 16:02:48.213594 16832 net.cpp:141] Setting up inception_4d/relu_5x5
I0403 16:02:48.213620 16832 net.cpp:148] Top shape: 24 64 14 14 (301056)
I0403 16:02:48.213635 16832 net.cpp:156] Memory required for data: 1135267104
I0403 16:02:48.213651 16832 layer_factory.hpp:77] Creating layer inception_4d/pool
I0403 16:02:48.213671 16832 net.cpp:91] Creating Layer inception_4d/pool
I0403 16:02:48.213690 16832 net.cpp:425] inception_4d/pool <- inception_4c/output_inception_4c/output_0_split_3
I0403 16:02:48.213708 16832 net.cpp:399] inception_4d/pool -> inception_4d/pool
I0403 16:02:48.213775 16832 net.cpp:141] Setting up inception_4d/pool
I0403 16:02:48.213799 16832 net.cpp:148] Top shape: 24 512 14 14 (2408448)
I0403 16:02:48.213814 16832 net.cpp:156] Memory required for data: 1144900896
I0403 16:02:48.213829 16832 layer_factory.hpp:77] Creating layer inception_4d/pool_proj
I0403 16:02:48.213851 16832 net.cpp:91] Creating Layer inception_4d/pool_proj
I0403 16:02:48.213870 16832 net.cpp:425] inception_4d/pool_proj <- inception_4d/pool
I0403 16:02:48.213891 16832 net.cpp:399] inception_4d/pool_proj -> inception_4d/pool_proj
I0403 16:02:48.215674 16832 net.cpp:141] Setting up inception_4d/pool_proj
I0403 16:02:48.215704 16832 net.cpp:148] Top shape: 24 64 14 14 (301056)
I0403 16:02:48.215720 16832 net.cpp:156] Memory required for data: 1146105120
I0403 16:02:48.215739 16832 layer_factory.hpp:77] Creating layer inception_4d/relu_pool_proj
I0403 16:02:48.215757 16832 net.cpp:91] Creating Layer inception_4d/relu_pool_proj
I0403 16:02:48.215775 16832 net.cpp:425] inception_4d/relu_pool_proj <- inception_4d/pool_proj
I0403 16:02:48.215795 16832 net.cpp:386] inception_4d/relu_pool_proj -> inception_4d/pool_proj (in-place)
I0403 16:02:48.215980 16832 net.cpp:141] Setting up inception_4d/relu_pool_proj
I0403 16:02:48.216004 16832 net.cpp:148] Top shape: 24 64 14 14 (301056)
I0403 16:02:48.216020 16832 net.cpp:156] Memory required for data: 1147309344
I0403 16:02:48.216035 16832 layer_factory.hpp:77] Creating layer inception_4d/output
I0403 16:02:48.216053 16832 net.cpp:91] Creating Layer inception_4d/output
I0403 16:02:48.216070 16832 net.cpp:425] inception_4d/output <- inception_4d/1x1
I0403 16:02:48.216087 16832 net.cpp:425] inception_4d/output <- inception_4d/3x3
I0403 16:02:48.216107 16832 net.cpp:425] inception_4d/output <- inception_4d/5x5
I0403 16:02:48.216123 16832 net.cpp:425] inception_4d/output <- inception_4d/pool_proj
I0403 16:02:48.216140 16832 net.cpp:399] inception_4d/output -> inception_4d/output
I0403 16:02:48.216187 16832 net.cpp:141] Setting up inception_4d/output
I0403 16:02:48.216212 16832 net.cpp:148] Top shape: 24 528 14 14 (2483712)
I0403 16:02:48.216229 16832 net.cpp:156] Memory required for data: 1157244192
I0403 16:02:48.216243 16832 layer_factory.hpp:77] Creating layer inception_4d/output_inception_4d/output_0_split
I0403 16:02:48.216262 16832 net.cpp:91] Creating Layer inception_4d/output_inception_4d/output_0_split
I0403 16:02:48.216279 16832 net.cpp:425] inception_4d/output_inception_4d/output_0_split <- inception_4d/output
I0403 16:02:48.216300 16832 net.cpp:399] inception_4d/output_inception_4d/output_0_split -> inception_4d/output_inception_4d/output_0_split_0
I0403 16:02:48.216322 16832 net.cpp:399] inception_4d/output_inception_4d/output_0_split -> inception_4d/output_inception_4d/output_0_split_1
I0403 16:02:48.216343 16832 net.cpp:399] inception_4d/output_inception_4d/output_0_split -> inception_4d/output_inception_4d/output_0_split_2
I0403 16:02:48.216364 16832 net.cpp:399] inception_4d/output_inception_4d/output_0_split -> inception_4d/output_inception_4d/output_0_split_3
I0403 16:02:48.216384 16832 net.cpp:399] inception_4d/output_inception_4d/output_0_split -> inception_4d/output_inception_4d/output_0_split_4
I0403 16:02:48.216491 16832 net.cpp:141] Setting up inception_4d/output_inception_4d/output_0_split
I0403 16:02:48.216526 16832 net.cpp:148] Top shape: 24 528 14 14 (2483712)
I0403 16:02:48.216547 16832 net.cpp:148] Top shape: 24 528 14 14 (2483712)
I0403 16:02:48.216563 16832 net.cpp:148] Top shape: 24 528 14 14 (2483712)
I0403 16:02:48.216585 16832 net.cpp:148] Top shape: 24 528 14 14 (2483712)
I0403 16:02:48.216601 16832 net.cpp:148] Top shape: 24 528 14 14 (2483712)
I0403 16:02:48.216615 16832 net.cpp:156] Memory required for data: 1206918432
I0403 16:02:48.216630 16832 layer_factory.hpp:77] Creating layer loss2/ave_pool
I0403 16:02:48.216648 16832 net.cpp:91] Creating Layer loss2/ave_pool
I0403 16:02:48.216665 16832 net.cpp:425] loss2/ave_pool <- inception_4d/output_inception_4d/output_0_split_0
I0403 16:02:48.216686 16832 net.cpp:399] loss2/ave_pool -> loss2/ave_pool
I0403 16:02:48.216989 16832 net.cpp:141] Setting up loss2/ave_pool
I0403 16:02:48.217015 16832 net.cpp:148] Top shape: 24 528 4 4 (202752)
I0403 16:02:48.217031 16832 net.cpp:156] Memory required for data: 1207729440
I0403 16:02:48.217046 16832 layer_factory.hpp:77] Creating layer loss2/conv
I0403 16:02:48.217068 16832 net.cpp:91] Creating Layer loss2/conv
I0403 16:02:48.217087 16832 net.cpp:425] loss2/conv <- loss2/ave_pool
I0403 16:02:48.217108 16832 net.cpp:399] loss2/conv -> loss2/conv
I0403 16:02:48.219014 16832 net.cpp:141] Setting up loss2/conv
I0403 16:02:48.219043 16832 net.cpp:148] Top shape: 24 128 4 4 (49152)
I0403 16:02:48.219059 16832 net.cpp:156] Memory required for data: 1207926048
I0403 16:02:48.219079 16832 layer_factory.hpp:77] Creating layer loss2/relu_conv
I0403 16:02:48.219099 16832 net.cpp:91] Creating Layer loss2/relu_conv
I0403 16:02:48.219117 16832 net.cpp:425] loss2/relu_conv <- loss2/conv
I0403 16:02:48.219135 16832 net.cpp:386] loss2/relu_conv -> loss2/conv (in-place)
I0403 16:02:48.219420 16832 net.cpp:141] Setting up loss2/relu_conv
I0403 16:02:48.219446 16832 net.cpp:148] Top shape: 24 128 4 4 (49152)
I0403 16:02:48.219461 16832 net.cpp:156] Memory required for data: 1208122656
I0403 16:02:48.219477 16832 layer_factory.hpp:77] Creating layer loss2/fc
I0403 16:02:48.219498 16832 net.cpp:91] Creating Layer loss2/fc
I0403 16:02:48.219516 16832 net.cpp:425] loss2/fc <- loss2/conv
I0403 16:02:48.219535 16832 net.cpp:399] loss2/fc -> loss2/fc
I0403 16:02:48.237574 16832 net.cpp:141] Setting up loss2/fc
I0403 16:02:48.237609 16832 net.cpp:148] Top shape: 24 1024 (24576)
I0403 16:02:48.237627 16832 net.cpp:156] Memory required for data: 1208220960
I0403 16:02:48.237658 16832 layer_factory.hpp:77] Creating layer loss2/relu_fc
I0403 16:02:48.237675 16832 net.cpp:91] Creating Layer loss2/relu_fc
I0403 16:02:48.237692 16832 net.cpp:425] loss2/relu_fc <- loss2/fc
I0403 16:02:48.237712 16832 net.cpp:386] loss2/relu_fc -> loss2/fc (in-place)
I0403 16:02:48.238015 16832 net.cpp:141] Setting up loss2/relu_fc
I0403 16:02:48.238041 16832 net.cpp:148] Top shape: 24 1024 (24576)
I0403 16:02:48.238057 16832 net.cpp:156] Memory required for data: 1208319264
I0403 16:02:48.238072 16832 layer_factory.hpp:77] Creating layer loss2/drop_fc
I0403 16:02:48.238090 16832 net.cpp:91] Creating Layer loss2/drop_fc
I0403 16:02:48.238107 16832 net.cpp:425] loss2/drop_fc <- loss2/fc
I0403 16:02:48.238126 16832 net.cpp:386] loss2/drop_fc -> loss2/fc (in-place)
I0403 16:02:48.238176 16832 net.cpp:141] Setting up loss2/drop_fc
I0403 16:02:48.238198 16832 net.cpp:148] Top shape: 24 1024 (24576)
I0403 16:02:48.238214 16832 net.cpp:156] Memory required for data: 1208417568
I0403 16:02:48.238229 16832 layer_factory.hpp:77] Creating layer loss2/classifier_plantvillage
I0403 16:02:48.238250 16832 net.cpp:91] Creating Layer loss2/classifier_plantvillage
I0403 16:02:48.238268 16832 net.cpp:425] loss2/classifier_plantvillage <- loss2/fc
I0403 16:02:48.238291 16832 net.cpp:399] loss2/classifier_plantvillage -> loss2/classifier_plantvillage
I0403 16:02:48.238703 16832 net.cpp:141] Setting up loss2/classifier_plantvillage
I0403 16:02:48.238731 16832 net.cpp:148] Top shape: 24 38 (912)
I0403 16:02:48.238762 16832 net.cpp:156] Memory required for data: 1208421216
I0403 16:02:48.238782 16832 layer_factory.hpp:77] Creating layer loss2/classifier_plantvillage_loss2/classifier_plantvillage_0_split
I0403 16:02:48.238802 16832 net.cpp:91] Creating Layer loss2/classifier_plantvillage_loss2/classifier_plantvillage_0_split
I0403 16:02:48.238818 16832 net.cpp:425] loss2/classifier_plantvillage_loss2/classifier_plantvillage_0_split <- loss2/classifier_plantvillage
I0403 16:02:48.238837 16832 net.cpp:399] loss2/classifier_plantvillage_loss2/classifier_plantvillage_0_split -> loss2/classifier_plantvillage_loss2/classifier_plantvillage_0_split_0
I0403 16:02:48.238859 16832 net.cpp:399] loss2/classifier_plantvillage_loss2/classifier_plantvillage_0_split -> loss2/classifier_plantvillage_loss2/classifier_plantvillage_0_split_1
I0403 16:02:48.238893 16832 net.cpp:399] loss2/classifier_plantvillage_loss2/classifier_plantvillage_0_split -> loss2/classifier_plantvillage_loss2/classifier_plantvillage_0_split_2
I0403 16:02:48.238970 16832 net.cpp:141] Setting up loss2/classifier_plantvillage_loss2/classifier_plantvillage_0_split
I0403 16:02:48.238993 16832 net.cpp:148] Top shape: 24 38 (912)
I0403 16:02:48.239009 16832 net.cpp:148] Top shape: 24 38 (912)
I0403 16:02:48.239025 16832 net.cpp:148] Top shape: 24 38 (912)
I0403 16:02:48.239040 16832 net.cpp:156] Memory required for data: 1208432160
I0403 16:02:48.239055 16832 layer_factory.hpp:77] Creating layer inception_4e/1x1
I0403 16:02:48.239075 16832 net.cpp:91] Creating Layer inception_4e/1x1
I0403 16:02:48.239092 16832 net.cpp:425] inception_4e/1x1 <- inception_4d/output_inception_4d/output_0_split_1
I0403 16:02:48.239114 16832 net.cpp:399] inception_4e/1x1 -> inception_4e/1x1
I0403 16:02:48.240907 16832 net.cpp:141] Setting up inception_4e/1x1
I0403 16:02:48.240936 16832 net.cpp:148] Top shape: 24 256 14 14 (1204224)
I0403 16:02:48.240952 16832 net.cpp:156] Memory required for data: 1213249056
I0403 16:02:48.240969 16832 layer_factory.hpp:77] Creating layer inception_4e/relu_1x1
I0403 16:02:48.240990 16832 net.cpp:91] Creating Layer inception_4e/relu_1x1
I0403 16:02:48.241008 16832 net.cpp:425] inception_4e/relu_1x1 <- inception_4e/1x1
I0403 16:02:48.241027 16832 net.cpp:386] inception_4e/relu_1x1 -> inception_4e/1x1 (in-place)
I0403 16:02:48.241322 16832 net.cpp:141] Setting up inception_4e/relu_1x1
I0403 16:02:48.241348 16832 net.cpp:148] Top shape: 24 256 14 14 (1204224)
I0403 16:02:48.241363 16832 net.cpp:156] Memory required for data: 1218065952
I0403 16:02:48.241377 16832 layer_factory.hpp:77] Creating layer inception_4e/3x3_reduce
I0403 16:02:48.241400 16832 net.cpp:91] Creating Layer inception_4e/3x3_reduce
I0403 16:02:48.241418 16832 net.cpp:425] inception_4e/3x3_reduce <- inception_4d/output_inception_4d/output_0_split_2
I0403 16:02:48.241439 16832 net.cpp:399] inception_4e/3x3_reduce -> inception_4e/3x3_reduce
I0403 16:02:48.243577 16832 net.cpp:141] Setting up inception_4e/3x3_reduce
I0403 16:02:48.243605 16832 net.cpp:148] Top shape: 24 160 14 14 (752640)
I0403 16:02:48.243623 16832 net.cpp:156] Memory required for data: 1221076512
I0403 16:02:48.243641 16832 layer_factory.hpp:77] Creating layer inception_4e/relu_3x3_reduce
I0403 16:02:48.243662 16832 net.cpp:91] Creating Layer inception_4e/relu_3x3_reduce
I0403 16:02:48.243680 16832 net.cpp:425] inception_4e/relu_3x3_reduce <- inception_4e/3x3_reduce
I0403 16:02:48.243698 16832 net.cpp:386] inception_4e/relu_3x3_reduce -> inception_4e/3x3_reduce (in-place)
I0403 16:02:48.243885 16832 net.cpp:141] Setting up inception_4e/relu_3x3_reduce
I0403 16:02:48.243909 16832 net.cpp:148] Top shape: 24 160 14 14 (752640)
I0403 16:02:48.243924 16832 net.cpp:156] Memory required for data: 1224087072
I0403 16:02:48.243939 16832 layer_factory.hpp:77] Creating layer inception_4e/3x3
I0403 16:02:48.243963 16832 net.cpp:91] Creating Layer inception_4e/3x3
I0403 16:02:48.243981 16832 net.cpp:425] inception_4e/3x3 <- inception_4e/3x3_reduce
I0403 16:02:48.244001 16832 net.cpp:399] inception_4e/3x3 -> inception_4e/3x3
I0403 16:02:48.248960 16832 net.cpp:141] Setting up inception_4e/3x3
I0403 16:02:48.249001 16832 net.cpp:148] Top shape: 24 320 14 14 (1505280)
I0403 16:02:48.249017 16832 net.cpp:156] Memory required for data: 1230108192
I0403 16:02:48.249037 16832 layer_factory.hpp:77] Creating layer inception_4e/relu_3x3
I0403 16:02:48.249058 16832 net.cpp:91] Creating Layer inception_4e/relu_3x3
I0403 16:02:48.249076 16832 net.cpp:425] inception_4e/relu_3x3 <- inception_4e/3x3
I0403 16:02:48.249094 16832 net.cpp:386] inception_4e/relu_3x3 -> inception_4e/3x3 (in-place)
I0403 16:02:48.249390 16832 net.cpp:141] Setting up inception_4e/relu_3x3
I0403 16:02:48.249418 16832 net.cpp:148] Top shape: 24 320 14 14 (1505280)
I0403 16:02:48.249435 16832 net.cpp:156] Memory required for data: 1236129312
I0403 16:02:48.249450 16832 layer_factory.hpp:77] Creating layer inception_4e/5x5_reduce
I0403 16:02:48.249475 16832 net.cpp:91] Creating Layer inception_4e/5x5_reduce
I0403 16:02:48.249493 16832 net.cpp:425] inception_4e/5x5_reduce <- inception_4d/output_inception_4d/output_0_split_3
I0403 16:02:48.249512 16832 net.cpp:399] inception_4e/5x5_reduce -> inception_4e/5x5_reduce
I0403 16:02:48.250594 16832 net.cpp:141] Setting up inception_4e/5x5_reduce
I0403 16:02:48.250622 16832 net.cpp:148] Top shape: 24 32 14 14 (150528)
I0403 16:02:48.250638 16832 net.cpp:156] Memory required for data: 1236731424
I0403 16:02:48.250658 16832 layer_factory.hpp:77] Creating layer inception_4e/relu_5x5_reduce
I0403 16:02:48.250680 16832 net.cpp:91] Creating Layer inception_4e/relu_5x5_reduce
I0403 16:02:48.250699 16832 net.cpp:425] inception_4e/relu_5x5_reduce <- inception_4e/5x5_reduce
I0403 16:02:48.250716 16832 net.cpp:386] inception_4e/relu_5x5_reduce -> inception_4e/5x5_reduce (in-place)
I0403 16:02:48.251024 16832 net.cpp:141] Setting up inception_4e/relu_5x5_reduce
I0403 16:02:48.251050 16832 net.cpp:148] Top shape: 24 32 14 14 (150528)
I0403 16:02:48.251065 16832 net.cpp:156] Memory required for data: 1237333536
I0403 16:02:48.251081 16832 layer_factory.hpp:77] Creating layer inception_4e/5x5
I0403 16:02:48.251119 16832 net.cpp:91] Creating Layer inception_4e/5x5
I0403 16:02:48.251138 16832 net.cpp:425] inception_4e/5x5 <- inception_4e/5x5_reduce
I0403 16:02:48.251158 16832 net.cpp:399] inception_4e/5x5 -> inception_4e/5x5
I0403 16:02:48.253021 16832 net.cpp:141] Setting up inception_4e/5x5
I0403 16:02:48.253048 16832 net.cpp:148] Top shape: 24 128 14 14 (602112)
I0403 16:02:48.253065 16832 net.cpp:156] Memory required for data: 1239741984
I0403 16:02:48.253084 16832 layer_factory.hpp:77] Creating layer inception_4e/relu_5x5
I0403 16:02:48.253103 16832 net.cpp:91] Creating Layer inception_4e/relu_5x5
I0403 16:02:48.253119 16832 net.cpp:425] inception_4e/relu_5x5 <- inception_4e/5x5
I0403 16:02:48.253139 16832 net.cpp:386] inception_4e/relu_5x5 -> inception_4e/5x5 (in-place)
I0403 16:02:48.253334 16832 net.cpp:141] Setting up inception_4e/relu_5x5
I0403 16:02:48.253360 16832 net.cpp:148] Top shape: 24 128 14 14 (602112)
I0403 16:02:48.253374 16832 net.cpp:156] Memory required for data: 1242150432
I0403 16:02:48.253389 16832 layer_factory.hpp:77] Creating layer inception_4e/pool
I0403 16:02:48.253410 16832 net.cpp:91] Creating Layer inception_4e/pool
I0403 16:02:48.253427 16832 net.cpp:425] inception_4e/pool <- inception_4d/output_inception_4d/output_0_split_4
I0403 16:02:48.253446 16832 net.cpp:399] inception_4e/pool -> inception_4e/pool
I0403 16:02:48.253516 16832 net.cpp:141] Setting up inception_4e/pool
I0403 16:02:48.253540 16832 net.cpp:148] Top shape: 24 528 14 14 (2483712)
I0403 16:02:48.253556 16832 net.cpp:156] Memory required for data: 1252085280
I0403 16:02:48.253574 16832 layer_factory.hpp:77] Creating layer inception_4e/pool_proj
I0403 16:02:48.253598 16832 net.cpp:91] Creating Layer inception_4e/pool_proj
I0403 16:02:48.253618 16832 net.cpp:425] inception_4e/pool_proj <- inception_4e/pool
I0403 16:02:48.253643 16832 net.cpp:399] inception_4e/pool_proj -> inception_4e/pool_proj
I0403 16:02:48.255173 16832 net.cpp:141] Setting up inception_4e/pool_proj
I0403 16:02:48.255213 16832 net.cpp:148] Top shape: 24 128 14 14 (602112)
I0403 16:02:48.255229 16832 net.cpp:156] Memory required for data: 1254493728
I0403 16:02:48.255249 16832 layer_factory.hpp:77] Creating layer inception_4e/relu_pool_proj
I0403 16:02:48.255266 16832 net.cpp:91] Creating Layer inception_4e/relu_pool_proj
I0403 16:02:48.255283 16832 net.cpp:425] inception_4e/relu_pool_proj <- inception_4e/pool_proj
I0403 16:02:48.255306 16832 net.cpp:386] inception_4e/relu_pool_proj -> inception_4e/pool_proj (in-place)
I0403 16:02:48.255605 16832 net.cpp:141] Setting up inception_4e/relu_pool_proj
I0403 16:02:48.255631 16832 net.cpp:148] Top shape: 24 128 14 14 (602112)
I0403 16:02:48.255646 16832 net.cpp:156] Memory required for data: 1256902176
I0403 16:02:48.255662 16832 layer_factory.hpp:77] Creating layer inception_4e/output
I0403 16:02:48.255681 16832 net.cpp:91] Creating Layer inception_4e/output
I0403 16:02:48.255697 16832 net.cpp:425] inception_4e/output <- inception_4e/1x1
I0403 16:02:48.255713 16832 net.cpp:425] inception_4e/output <- inception_4e/3x3
I0403 16:02:48.255730 16832 net.cpp:425] inception_4e/output <- inception_4e/5x5
I0403 16:02:48.255746 16832 net.cpp:425] inception_4e/output <- inception_4e/pool_proj
I0403 16:02:48.255766 16832 net.cpp:399] inception_4e/output -> inception_4e/output
I0403 16:02:48.255815 16832 net.cpp:141] Setting up inception_4e/output
I0403 16:02:48.255841 16832 net.cpp:148] Top shape: 24 832 14 14 (3913728)
I0403 16:02:48.255858 16832 net.cpp:156] Memory required for data: 1272557088
I0403 16:02:48.255873 16832 layer_factory.hpp:77] Creating layer pool4/3x3_s2
I0403 16:02:48.255892 16832 net.cpp:91] Creating Layer pool4/3x3_s2
I0403 16:02:48.255906 16832 net.cpp:425] pool4/3x3_s2 <- inception_4e/output
I0403 16:02:48.255925 16832 net.cpp:399] pool4/3x3_s2 -> pool4/3x3_s2
I0403 16:02:48.255993 16832 net.cpp:141] Setting up pool4/3x3_s2
I0403 16:02:48.256017 16832 net.cpp:148] Top shape: 24 832 7 7 (978432)
I0403 16:02:48.256031 16832 net.cpp:156] Memory required for data: 1276470816
I0403 16:02:48.256047 16832 layer_factory.hpp:77] Creating layer pool4/3x3_s2_pool4/3x3_s2_0_split
I0403 16:02:48.256063 16832 net.cpp:91] Creating Layer pool4/3x3_s2_pool4/3x3_s2_0_split
I0403 16:02:48.256079 16832 net.cpp:425] pool4/3x3_s2_pool4/3x3_s2_0_split <- pool4/3x3_s2
I0403 16:02:48.256100 16832 net.cpp:399] pool4/3x3_s2_pool4/3x3_s2_0_split -> pool4/3x3_s2_pool4/3x3_s2_0_split_0
I0403 16:02:48.256121 16832 net.cpp:399] pool4/3x3_s2_pool4/3x3_s2_0_split -> pool4/3x3_s2_pool4/3x3_s2_0_split_1
I0403 16:02:48.256142 16832 net.cpp:399] pool4/3x3_s2_pool4/3x3_s2_0_split -> pool4/3x3_s2_pool4/3x3_s2_0_split_2
I0403 16:02:48.256162 16832 net.cpp:399] pool4/3x3_s2_pool4/3x3_s2_0_split -> pool4/3x3_s2_pool4/3x3_s2_0_split_3
I0403 16:02:48.256255 16832 net.cpp:141] Setting up pool4/3x3_s2_pool4/3x3_s2_0_split
I0403 16:02:48.256278 16832 net.cpp:148] Top shape: 24 832 7 7 (978432)
I0403 16:02:48.256299 16832 net.cpp:148] Top shape: 24 832 7 7 (978432)
I0403 16:02:48.256314 16832 net.cpp:148] Top shape: 24 832 7 7 (978432)
I0403 16:02:48.256330 16832 net.cpp:148] Top shape: 24 832 7 7 (978432)
I0403 16:02:48.256343 16832 net.cpp:156] Memory required for data: 1292125728
I0403 16:02:48.256359 16832 layer_factory.hpp:77] Creating layer inception_5a/1x1
I0403 16:02:48.256381 16832 net.cpp:91] Creating Layer inception_5a/1x1
I0403 16:02:48.256399 16832 net.cpp:425] inception_5a/1x1 <- pool4/3x3_s2_pool4/3x3_s2_0_split_0
I0403 16:02:48.256422 16832 net.cpp:399] inception_5a/1x1 -> inception_5a/1x1
I0403 16:02:48.259276 16832 net.cpp:141] Setting up inception_5a/1x1
I0403 16:02:48.259306 16832 net.cpp:148] Top shape: 24 256 7 7 (301056)
I0403 16:02:48.259323 16832 net.cpp:156] Memory required for data: 1293329952
I0403 16:02:48.259341 16832 layer_factory.hpp:77] Creating layer inception_5a/relu_1x1
I0403 16:02:48.259366 16832 net.cpp:91] Creating Layer inception_5a/relu_1x1
I0403 16:02:48.259383 16832 net.cpp:425] inception_5a/relu_1x1 <- inception_5a/1x1
I0403 16:02:48.259402 16832 net.cpp:386] inception_5a/relu_1x1 -> inception_5a/1x1 (in-place)
I0403 16:02:48.259712 16832 net.cpp:141] Setting up inception_5a/relu_1x1
I0403 16:02:48.259738 16832 net.cpp:148] Top shape: 24 256 7 7 (301056)
I0403 16:02:48.259753 16832 net.cpp:156] Memory required for data: 1294534176
I0403 16:02:48.259768 16832 layer_factory.hpp:77] Creating layer inception_5a/3x3_reduce
I0403 16:02:48.259791 16832 net.cpp:91] Creating Layer inception_5a/3x3_reduce
I0403 16:02:48.259809 16832 net.cpp:425] inception_5a/3x3_reduce <- pool4/3x3_s2_pool4/3x3_s2_0_split_1
I0403 16:02:48.259831 16832 net.cpp:399] inception_5a/3x3_reduce -> inception_5a/3x3_reduce
I0403 16:02:48.262249 16832 net.cpp:141] Setting up inception_5a/3x3_reduce
I0403 16:02:48.262280 16832 net.cpp:148] Top shape: 24 160 7 7 (188160)
I0403 16:02:48.262298 16832 net.cpp:156] Memory required for data: 1295286816
I0403 16:02:48.262317 16832 layer_factory.hpp:77] Creating layer inception_5a/relu_3x3_reduce
I0403 16:02:48.262336 16832 net.cpp:91] Creating Layer inception_5a/relu_3x3_reduce
I0403 16:02:48.262353 16832 net.cpp:425] inception_5a/relu_3x3_reduce <- inception_5a/3x3_reduce
I0403 16:02:48.262370 16832 net.cpp:386] inception_5a/relu_3x3_reduce -> inception_5a/3x3_reduce (in-place)
I0403 16:02:48.262560 16832 net.cpp:141] Setting up inception_5a/relu_3x3_reduce
I0403 16:02:48.262603 16832 net.cpp:148] Top shape: 24 160 7 7 (188160)
I0403 16:02:48.262619 16832 net.cpp:156] Memory required for data: 1296039456
I0403 16:02:48.262634 16832 layer_factory.hpp:77] Creating layer inception_5a/3x3
I0403 16:02:48.262657 16832 net.cpp:91] Creating Layer inception_5a/3x3
I0403 16:02:48.262677 16832 net.cpp:425] inception_5a/3x3 <- inception_5a/3x3_reduce
I0403 16:02:48.262701 16832 net.cpp:399] inception_5a/3x3 -> inception_5a/3x3
I0403 16:02:48.267745 16832 net.cpp:141] Setting up inception_5a/3x3
I0403 16:02:48.267773 16832 net.cpp:148] Top shape: 24 320 7 7 (376320)
I0403 16:02:48.267789 16832 net.cpp:156] Memory required for data: 1297544736
I0403 16:02:48.267808 16832 layer_factory.hpp:77] Creating layer inception_5a/relu_3x3
I0403 16:02:48.267827 16832 net.cpp:91] Creating Layer inception_5a/relu_3x3
I0403 16:02:48.267843 16832 net.cpp:425] inception_5a/relu_3x3 <- inception_5a/3x3
I0403 16:02:48.267863 16832 net.cpp:386] inception_5a/relu_3x3 -> inception_5a/3x3 (in-place)
I0403 16:02:48.268162 16832 net.cpp:141] Setting up inception_5a/relu_3x3
I0403 16:02:48.268188 16832 net.cpp:148] Top shape: 24 320 7 7 (376320)
I0403 16:02:48.268204 16832 net.cpp:156] Memory required for data: 1299050016
I0403 16:02:48.268220 16832 layer_factory.hpp:77] Creating layer inception_5a/5x5_reduce
I0403 16:02:48.268244 16832 net.cpp:91] Creating Layer inception_5a/5x5_reduce
I0403 16:02:48.268262 16832 net.cpp:425] inception_5a/5x5_reduce <- pool4/3x3_s2_pool4/3x3_s2_0_split_2
I0403 16:02:48.268285 16832 net.cpp:399] inception_5a/5x5_reduce -> inception_5a/5x5_reduce
I0403 16:02:48.269451 16832 net.cpp:141] Setting up inception_5a/5x5_reduce
I0403 16:02:48.269481 16832 net.cpp:148] Top shape: 24 32 7 7 (37632)
I0403 16:02:48.269498 16832 net.cpp:156] Memory required for data: 1299200544
I0403 16:02:48.269517 16832 layer_factory.hpp:77] Creating layer inception_5a/relu_5x5_reduce
I0403 16:02:48.269536 16832 net.cpp:91] Creating Layer inception_5a/relu_5x5_reduce
I0403 16:02:48.269552 16832 net.cpp:425] inception_5a/relu_5x5_reduce <- inception_5a/5x5_reduce
I0403 16:02:48.269574 16832 net.cpp:386] inception_5a/relu_5x5_reduce -> inception_5a/5x5_reduce (in-place)
I0403 16:02:48.269873 16832 net.cpp:141] Setting up inception_5a/relu_5x5_reduce
I0403 16:02:48.269899 16832 net.cpp:148] Top shape: 24 32 7 7 (37632)
I0403 16:02:48.269914 16832 net.cpp:156] Memory required for data: 1299351072
I0403 16:02:48.269930 16832 layer_factory.hpp:77] Creating layer inception_5a/5x5
I0403 16:02:48.269953 16832 net.cpp:91] Creating Layer inception_5a/5x5
I0403 16:02:48.269973 16832 net.cpp:425] inception_5a/5x5 <- inception_5a/5x5_reduce
I0403 16:02:48.269994 16832 net.cpp:399] inception_5a/5x5 -> inception_5a/5x5
I0403 16:02:48.271728 16832 net.cpp:141] Setting up inception_5a/5x5
I0403 16:02:48.271767 16832 net.cpp:148] Top shape: 24 128 7 7 (150528)
I0403 16:02:48.271783 16832 net.cpp:156] Memory required for data: 1299953184
I0403 16:02:48.271802 16832 layer_factory.hpp:77] Creating layer inception_5a/relu_5x5
I0403 16:02:48.271821 16832 net.cpp:91] Creating Layer inception_5a/relu_5x5
I0403 16:02:48.271836 16832 net.cpp:425] inception_5a/relu_5x5 <- inception_5a/5x5
I0403 16:02:48.271857 16832 net.cpp:386] inception_5a/relu_5x5 -> inception_5a/5x5 (in-place)
I0403 16:02:48.272044 16832 net.cpp:141] Setting up inception_5a/relu_5x5
I0403 16:02:48.272069 16832 net.cpp:148] Top shape: 24 128 7 7 (150528)
I0403 16:02:48.272084 16832 net.cpp:156] Memory required for data: 1300555296
I0403 16:02:48.272099 16832 layer_factory.hpp:77] Creating layer inception_5a/pool
I0403 16:02:48.272119 16832 net.cpp:91] Creating Layer inception_5a/pool
I0403 16:02:48.272137 16832 net.cpp:425] inception_5a/pool <- pool4/3x3_s2_pool4/3x3_s2_0_split_3
I0403 16:02:48.272156 16832 net.cpp:399] inception_5a/pool -> inception_5a/pool
I0403 16:02:48.272231 16832 net.cpp:141] Setting up inception_5a/pool
I0403 16:02:48.272255 16832 net.cpp:148] Top shape: 24 832 7 7 (978432)
I0403 16:02:48.272270 16832 net.cpp:156] Memory required for data: 1304469024
I0403 16:02:48.272285 16832 layer_factory.hpp:77] Creating layer inception_5a/pool_proj
I0403 16:02:48.272308 16832 net.cpp:91] Creating Layer inception_5a/pool_proj
I0403 16:02:48.272327 16832 net.cpp:425] inception_5a/pool_proj <- inception_5a/pool
I0403 16:02:48.272349 16832 net.cpp:399] inception_5a/pool_proj -> inception_5a/pool_proj
I0403 16:02:48.274628 16832 net.cpp:141] Setting up inception_5a/pool_proj
I0403 16:02:48.274662 16832 net.cpp:148] Top shape: 24 128 7 7 (150528)
I0403 16:02:48.274678 16832 net.cpp:156] Memory required for data: 1305071136
I0403 16:02:48.274698 16832 layer_factory.hpp:77] Creating layer inception_5a/relu_pool_proj
I0403 16:02:48.274718 16832 net.cpp:91] Creating Layer inception_5a/relu_pool_proj
I0403 16:02:48.274734 16832 net.cpp:425] inception_5a/relu_pool_proj <- inception_5a/pool_proj
I0403 16:02:48.274755 16832 net.cpp:386] inception_5a/relu_pool_proj -> inception_5a/pool_proj (in-place)
I0403 16:02:48.275060 16832 net.cpp:141] Setting up inception_5a/relu_pool_proj
I0403 16:02:48.275089 16832 net.cpp:148] Top shape: 24 128 7 7 (150528)
I0403 16:02:48.275104 16832 net.cpp:156] Memory required for data: 1305673248
I0403 16:02:48.275120 16832 layer_factory.hpp:77] Creating layer inception_5a/output
I0403 16:02:48.275137 16832 net.cpp:91] Creating Layer inception_5a/output
I0403 16:02:48.275154 16832 net.cpp:425] inception_5a/output <- inception_5a/1x1
I0403 16:02:48.275172 16832 net.cpp:425] inception_5a/output <- inception_5a/3x3
I0403 16:02:48.275188 16832 net.cpp:425] inception_5a/output <- inception_5a/5x5
I0403 16:02:48.275205 16832 net.cpp:425] inception_5a/output <- inception_5a/pool_proj
I0403 16:02:48.275225 16832 net.cpp:399] inception_5a/output -> inception_5a/output
I0403 16:02:48.275274 16832 net.cpp:141] Setting up inception_5a/output
I0403 16:02:48.275298 16832 net.cpp:148] Top shape: 24 832 7 7 (978432)
I0403 16:02:48.275313 16832 net.cpp:156] Memory required for data: 1309586976
I0403 16:02:48.275328 16832 layer_factory.hpp:77] Creating layer inception_5a/output_inception_5a/output_0_split
I0403 16:02:48.275349 16832 net.cpp:91] Creating Layer inception_5a/output_inception_5a/output_0_split
I0403 16:02:48.275367 16832 net.cpp:425] inception_5a/output_inception_5a/output_0_split <- inception_5a/output
I0403 16:02:48.275385 16832 net.cpp:399] inception_5a/output_inception_5a/output_0_split -> inception_5a/output_inception_5a/output_0_split_0
I0403 16:02:48.275406 16832 net.cpp:399] inception_5a/output_inception_5a/output_0_split -> inception_5a/output_inception_5a/output_0_split_1
I0403 16:02:48.275430 16832 net.cpp:399] inception_5a/output_inception_5a/output_0_split -> inception_5a/output_inception_5a/output_0_split_2
I0403 16:02:48.275451 16832 net.cpp:399] inception_5a/output_inception_5a/output_0_split -> inception_5a/output_inception_5a/output_0_split_3
I0403 16:02:48.275560 16832 net.cpp:141] Setting up inception_5a/output_inception_5a/output_0_split
I0403 16:02:48.275588 16832 net.cpp:148] Top shape: 24 832 7 7 (978432)
I0403 16:02:48.275605 16832 net.cpp:148] Top shape: 24 832 7 7 (978432)
I0403 16:02:48.275620 16832 net.cpp:148] Top shape: 24 832 7 7 (978432)
I0403 16:02:48.275636 16832 net.cpp:148] Top shape: 24 832 7 7 (978432)
I0403 16:02:48.275650 16832 net.cpp:156] Memory required for data: 1325241888
I0403 16:02:48.275665 16832 layer_factory.hpp:77] Creating layer inception_5b/1x1
I0403 16:02:48.275687 16832 net.cpp:91] Creating Layer inception_5b/1x1
I0403 16:02:48.275706 16832 net.cpp:425] inception_5b/1x1 <- inception_5a/output_inception_5a/output_0_split_0
I0403 16:02:48.275730 16832 net.cpp:399] inception_5b/1x1 -> inception_5b/1x1
I0403 16:02:48.279498 16832 net.cpp:141] Setting up inception_5b/1x1
I0403 16:02:48.279530 16832 net.cpp:148] Top shape: 24 384 7 7 (451584)
I0403 16:02:48.279547 16832 net.cpp:156] Memory required for data: 1327048224
I0403 16:02:48.279567 16832 layer_factory.hpp:77] Creating layer inception_5b/relu_1x1
I0403 16:02:48.279590 16832 net.cpp:91] Creating Layer inception_5b/relu_1x1
I0403 16:02:48.279608 16832 net.cpp:425] inception_5b/relu_1x1 <- inception_5b/1x1
I0403 16:02:48.279624 16832 net.cpp:386] inception_5b/relu_1x1 -> inception_5b/1x1 (in-place)
I0403 16:02:48.279924 16832 net.cpp:141] Setting up inception_5b/relu_1x1
I0403 16:02:48.279953 16832 net.cpp:148] Top shape: 24 384 7 7 (451584)
I0403 16:02:48.279969 16832 net.cpp:156] Memory required for data: 1328854560
I0403 16:02:48.279984 16832 layer_factory.hpp:77] Creating layer inception_5b/3x3_reduce
I0403 16:02:48.280007 16832 net.cpp:91] Creating Layer inception_5b/3x3_reduce
I0403 16:02:48.280026 16832 net.cpp:425] inception_5b/3x3_reduce <- inception_5a/output_inception_5a/output_0_split_1
I0403 16:02:48.280045 16832 net.cpp:399] inception_5b/3x3_reduce -> inception_5b/3x3_reduce
I0403 16:02:48.282701 16832 net.cpp:141] Setting up inception_5b/3x3_reduce
I0403 16:02:48.282732 16832 net.cpp:148] Top shape: 24 192 7 7 (225792)
I0403 16:02:48.282750 16832 net.cpp:156] Memory required for data: 1329757728
I0403 16:02:48.282771 16832 layer_factory.hpp:77] Creating layer inception_5b/relu_3x3_reduce
I0403 16:02:48.282791 16832 net.cpp:91] Creating Layer inception_5b/relu_3x3_reduce
I0403 16:02:48.282809 16832 net.cpp:425] inception_5b/relu_3x3_reduce <- inception_5b/3x3_reduce
I0403 16:02:48.282829 16832 net.cpp:386] inception_5b/relu_3x3_reduce -> inception_5b/3x3_reduce (in-place)
I0403 16:02:48.283035 16832 net.cpp:141] Setting up inception_5b/relu_3x3_reduce
I0403 16:02:48.283061 16832 net.cpp:148] Top shape: 24 192 7 7 (225792)
I0403 16:02:48.283076 16832 net.cpp:156] Memory required for data: 1330660896
I0403 16:02:48.283092 16832 layer_factory.hpp:77] Creating layer inception_5b/3x3
I0403 16:02:48.283113 16832 net.cpp:91] Creating Layer inception_5b/3x3
I0403 16:02:48.283133 16832 net.cpp:425] inception_5b/3x3 <- inception_5b/3x3_reduce
I0403 16:02:48.283154 16832 net.cpp:399] inception_5b/3x3 -> inception_5b/3x3
I0403 16:02:48.289861 16832 net.cpp:141] Setting up inception_5b/3x3
I0403 16:02:48.289891 16832 net.cpp:148] Top shape: 24 384 7 7 (451584)
I0403 16:02:48.289909 16832 net.cpp:156] Memory required for data: 1332467232
I0403 16:02:48.289928 16832 layer_factory.hpp:77] Creating layer inception_5b/relu_3x3
I0403 16:02:48.289947 16832 net.cpp:91] Creating Layer inception_5b/relu_3x3
I0403 16:02:48.289963 16832 net.cpp:425] inception_5b/relu_3x3 <- inception_5b/3x3
I0403 16:02:48.289983 16832 net.cpp:386] inception_5b/relu_3x3 -> inception_5b/3x3 (in-place)
I0403 16:02:48.290277 16832 net.cpp:141] Setting up inception_5b/relu_3x3
I0403 16:02:48.290307 16832 net.cpp:148] Top shape: 24 384 7 7 (451584)
I0403 16:02:48.290323 16832 net.cpp:156] Memory required for data: 1334273568
I0403 16:02:48.290338 16832 layer_factory.hpp:77] Creating layer inception_5b/5x5_reduce
I0403 16:02:48.290377 16832 net.cpp:91] Creating Layer inception_5b/5x5_reduce
I0403 16:02:48.290396 16832 net.cpp:425] inception_5b/5x5_reduce <- inception_5a/output_inception_5a/output_0_split_2
I0403 16:02:48.290421 16832 net.cpp:399] inception_5b/5x5_reduce -> inception_5b/5x5_reduce
I0403 16:02:48.291723 16832 net.cpp:141] Setting up inception_5b/5x5_reduce
I0403 16:02:48.291750 16832 net.cpp:148] Top shape: 24 48 7 7 (56448)
I0403 16:02:48.291766 16832 net.cpp:156] Memory required for data: 1334499360
I0403 16:02:48.291785 16832 layer_factory.hpp:77] Creating layer inception_5b/relu_5x5_reduce
I0403 16:02:48.291803 16832 net.cpp:91] Creating Layer inception_5b/relu_5x5_reduce
I0403 16:02:48.291821 16832 net.cpp:425] inception_5b/relu_5x5_reduce <- inception_5b/5x5_reduce
I0403 16:02:48.291841 16832 net.cpp:386] inception_5b/relu_5x5_reduce -> inception_5b/5x5_reduce (in-place)
I0403 16:02:48.292214 16832 net.cpp:141] Setting up inception_5b/relu_5x5_reduce
I0403 16:02:48.292242 16832 net.cpp:148] Top shape: 24 48 7 7 (56448)
I0403 16:02:48.292256 16832 net.cpp:156] Memory required for data: 1334725152
I0403 16:02:48.292271 16832 layer_factory.hpp:77] Creating layer inception_5b/5x5
I0403 16:02:48.292291 16832 net.cpp:91] Creating Layer inception_5b/5x5
I0403 16:02:48.292309 16832 net.cpp:425] inception_5b/5x5 <- inception_5b/5x5_reduce
I0403 16:02:48.292328 16832 net.cpp:399] inception_5b/5x5 -> inception_5b/5x5
I0403 16:02:48.294349 16832 net.cpp:141] Setting up inception_5b/5x5
I0403 16:02:48.294378 16832 net.cpp:148] Top shape: 24 128 7 7 (150528)
I0403 16:02:48.294394 16832 net.cpp:156] Memory required for data: 1335327264
I0403 16:02:48.294411 16832 layer_factory.hpp:77] Creating layer inception_5b/relu_5x5
I0403 16:02:48.294432 16832 net.cpp:91] Creating Layer inception_5b/relu_5x5
I0403 16:02:48.294450 16832 net.cpp:425] inception_5b/relu_5x5 <- inception_5b/5x5
I0403 16:02:48.294468 16832 net.cpp:386] inception_5b/relu_5x5 -> inception_5b/5x5 (in-place)
I0403 16:02:48.294687 16832 net.cpp:141] Setting up inception_5b/relu_5x5
I0403 16:02:48.294713 16832 net.cpp:148] Top shape: 24 128 7 7 (150528)
I0403 16:02:48.294728 16832 net.cpp:156] Memory required for data: 1335929376
I0403 16:02:48.294744 16832 layer_factory.hpp:77] Creating layer inception_5b/pool
I0403 16:02:48.294765 16832 net.cpp:91] Creating Layer inception_5b/pool
I0403 16:02:48.294785 16832 net.cpp:425] inception_5b/pool <- inception_5a/output_inception_5a/output_0_split_3
I0403 16:02:48.294803 16832 net.cpp:399] inception_5b/pool -> inception_5b/pool
I0403 16:02:48.294894 16832 net.cpp:141] Setting up inception_5b/pool
I0403 16:02:48.294919 16832 net.cpp:148] Top shape: 24 832 7 7 (978432)
I0403 16:02:48.294934 16832 net.cpp:156] Memory required for data: 1339843104
I0403 16:02:48.294950 16832 layer_factory.hpp:77] Creating layer inception_5b/pool_proj
I0403 16:02:48.294972 16832 net.cpp:91] Creating Layer inception_5b/pool_proj
I0403 16:02:48.294991 16832 net.cpp:425] inception_5b/pool_proj <- inception_5b/pool
I0403 16:02:48.295012 16832 net.cpp:399] inception_5b/pool_proj -> inception_5b/pool_proj
I0403 16:02:48.297324 16832 net.cpp:141] Setting up inception_5b/pool_proj
I0403 16:02:48.297353 16832 net.cpp:148] Top shape: 24 128 7 7 (150528)
I0403 16:02:48.297369 16832 net.cpp:156] Memory required for data: 1340445216
I0403 16:02:48.297389 16832 layer_factory.hpp:77] Creating layer inception_5b/relu_pool_proj
I0403 16:02:48.297406 16832 net.cpp:91] Creating Layer inception_5b/relu_pool_proj
I0403 16:02:48.297423 16832 net.cpp:425] inception_5b/relu_pool_proj <- inception_5b/pool_proj
I0403 16:02:48.297443 16832 net.cpp:386] inception_5b/relu_pool_proj -> inception_5b/pool_proj (in-place)
I0403 16:02:48.297745 16832 net.cpp:141] Setting up inception_5b/relu_pool_proj
I0403 16:02:48.297772 16832 net.cpp:148] Top shape: 24 128 7 7 (150528)
I0403 16:02:48.297787 16832 net.cpp:156] Memory required for data: 1341047328
I0403 16:02:48.297802 16832 layer_factory.hpp:77] Creating layer inception_5b/output
I0403 16:02:48.297821 16832 net.cpp:91] Creating Layer inception_5b/output
I0403 16:02:48.297852 16832 net.cpp:425] inception_5b/output <- inception_5b/1x1
I0403 16:02:48.297869 16832 net.cpp:425] inception_5b/output <- inception_5b/3x3
I0403 16:02:48.297888 16832 net.cpp:425] inception_5b/output <- inception_5b/5x5
I0403 16:02:48.297904 16832 net.cpp:425] inception_5b/output <- inception_5b/pool_proj
I0403 16:02:48.297924 16832 net.cpp:399] inception_5b/output -> inception_5b/output
I0403 16:02:48.297976 16832 net.cpp:141] Setting up inception_5b/output
I0403 16:02:48.298002 16832 net.cpp:148] Top shape: 24 1024 7 7 (1204224)
I0403 16:02:48.298018 16832 net.cpp:156] Memory required for data: 1345864224
I0403 16:02:48.298033 16832 layer_factory.hpp:77] Creating layer pool5/7x7_s1
I0403 16:02:48.298051 16832 net.cpp:91] Creating Layer pool5/7x7_s1
I0403 16:02:48.298068 16832 net.cpp:425] pool5/7x7_s1 <- inception_5b/output
I0403 16:02:48.298085 16832 net.cpp:399] pool5/7x7_s1 -> pool5/7x7_s1
I0403 16:02:48.298305 16832 net.cpp:141] Setting up pool5/7x7_s1
I0403 16:02:48.298329 16832 net.cpp:148] Top shape: 24 1024 1 1 (24576)
I0403 16:02:48.298344 16832 net.cpp:156] Memory required for data: 1345962528
I0403 16:02:48.298359 16832 layer_factory.hpp:77] Creating layer pool5/drop_7x7_s1
I0403 16:02:48.298378 16832 net.cpp:91] Creating Layer pool5/drop_7x7_s1
I0403 16:02:48.298394 16832 net.cpp:425] pool5/drop_7x7_s1 <- pool5/7x7_s1
I0403 16:02:48.298413 16832 net.cpp:386] pool5/drop_7x7_s1 -> pool5/7x7_s1 (in-place)
I0403 16:02:48.298462 16832 net.cpp:141] Setting up pool5/drop_7x7_s1
I0403 16:02:48.298487 16832 net.cpp:148] Top shape: 24 1024 1 1 (24576)
I0403 16:02:48.298503 16832 net.cpp:156] Memory required for data: 1346060832
I0403 16:02:48.298518 16832 layer_factory.hpp:77] Creating layer loss3/classifier_plantvillage
I0403 16:02:48.298538 16832 net.cpp:91] Creating Layer loss3/classifier_plantvillage
I0403 16:02:48.298554 16832 net.cpp:425] loss3/classifier_plantvillage <- pool5/7x7_s1
I0403 16:02:48.298591 16832 net.cpp:399] loss3/classifier_plantvillage -> loss3/classifier_plantvillage
I0403 16:02:48.299029 16832 net.cpp:141] Setting up loss3/classifier_plantvillage
I0403 16:02:48.299053 16832 net.cpp:148] Top shape: 24 38 (912)
I0403 16:02:48.299068 16832 net.cpp:156] Memory required for data: 1346064480
I0403 16:02:48.299088 16832 layer_factory.hpp:77] Creating layer loss3/classifier_plantvillage_loss3/classifier_plantvillage_0_split
I0403 16:02:48.299108 16832 net.cpp:91] Creating Layer loss3/classifier_plantvillage_loss3/classifier_plantvillage_0_split
I0403 16:02:48.299126 16832 net.cpp:425] loss3/classifier_plantvillage_loss3/classifier_plantvillage_0_split <- loss3/classifier_plantvillage
I0403 16:02:48.299144 16832 net.cpp:399] loss3/classifier_plantvillage_loss3/classifier_plantvillage_0_split -> loss3/classifier_plantvillage_loss3/classifier_plantvillage_0_split_0
I0403 16:02:48.299167 16832 net.cpp:399] loss3/classifier_plantvillage_loss3/classifier_plantvillage_0_split -> loss3/classifier_plantvillage_loss3/classifier_plantvillage_0_split_1
I0403 16:02:48.299190 16832 net.cpp:399] loss3/classifier_plantvillage_loss3/classifier_plantvillage_0_split -> loss3/classifier_plantvillage_loss3/classifier_plantvillage_0_split_2
I0403 16:02:48.299211 16832 net.cpp:399] loss3/classifier_plantvillage_loss3/classifier_plantvillage_0_split -> loss3/classifier_plantvillage_loss3/classifier_plantvillage_0_split_3
I0403 16:02:48.299309 16832 net.cpp:141] Setting up loss3/classifier_plantvillage_loss3/classifier_plantvillage_0_split
I0403 16:02:48.299334 16832 net.cpp:148] Top shape: 24 38 (912)
I0403 16:02:48.299350 16832 net.cpp:148] Top shape: 24 38 (912)
I0403 16:02:48.299365 16832 net.cpp:148] Top shape: 24 38 (912)
I0403 16:02:48.299381 16832 net.cpp:148] Top shape: 24 38 (912)
I0403 16:02:48.299396 16832 net.cpp:156] Memory required for data: 1346079072
I0403 16:02:48.299410 16832 layer_factory.hpp:77] Creating layer loss1/loss
I0403 16:02:48.299432 16832 net.cpp:91] Creating Layer loss1/loss
I0403 16:02:48.299449 16832 net.cpp:425] loss1/loss <- loss1/classifier_plantvillage_loss1/classifier_plantvillage_0_split_0
I0403 16:02:48.299480 16832 net.cpp:425] loss1/loss <- label_data_1_split_0
…
