…
I0403 16:00:03.443974 16601 net.cpp:313] The NetState phase (1) differed from the phase (0) specified by a rule in layer data
I0403 16:00:03.445261 16601 net.cpp:49] Initializing net from parameters: 
state {
  phase: TEST
}
layer {
  name: "data"
  type: "Data"
  top: "data"
  top: "label"
  include {
    phase: TEST
  }
  transform_param {
    mirror: false
    crop_size: 224
    mean_file: "/home/mohanty/data/final_dataset/lmdb/segmented-20-80/mean.binaryproto"
  }
  data_param {
    source: "/home/mohanty/data/final_dataset/lmdb/segmented-20-80/test_db"
    batch_size: 24
    backend: LMDB
  }
}
layer {
  name: "conv1/7x7_s2"
  type: "Convolution"
  bottom: "data"
  top: "conv1/7x7_s2"
  param {
    lr_mult: 1
    decay_mult: 1
  }
  param {
    lr_mult: 2
    decay_mult: 0
  }
  convolution_param {
    num_output: 64
    pad: 3
    kernel_size: 7
    stride: 2
    weight_filler {
      type: "xavier"
      std: 0.1
    }
    bias_filler {
      type: "constant"
      value: 0.2
    }
  }
}
layer {
  name: "conv1/relu_7x7"
  type: "ReLU"
  bottom: "conv1/7x7_s2"
  top: "conv1/7x7_s2"
}
layer {
  name: "pool1/3x3_s2"
  type: "Pooling"
  bottom: "conv1/7x7_s2"
  top: "pool1/3x3_s2"
  pooling_param {
    pool: MAX
    kernel_size: 3
    stride: 2
  }
}
layer {
  name: "pool1/norm1"
  type: "LRN"
  bottom: "pool1/3x3_s2"
  top: "pool1/norm1"
  lrn_param {
    local_size: 5
    alpha: 0.0001
    beta: 0.75
  }
}
layer {
  name: "conv2/3x3_reduce"
  type: "Convolution"
  bottom: "pool1/norm1"
  top: "conv2/3x3_reduce"
  param {
    lr_mult: 1
    decay_mult: 1
  }
  param {
    lr_mult: 2
    decay_mult: 0
  }
  convolution_param {
    num_output: 64
    kernel_size: 1
    weight_filler {
      type: "xavier"
      std: 0.1
    }
    bias_filler {
      type: "constant"
      value: 0.2
    }
  }
}
layer {
  name: "conv2/relu_3x3_reduce"
  type: "ReLU"
  bottom: "conv2/3x3_reduce"
  top: "conv2/3x3_reduce"
}
layer {
  name: "conv2/3x3"
  type: "Convolution"
  bottom: "conv2/3x3_reduce"
  top: "conv2/3x3"
  param {
    lr_mult: 1
    decay_mult: 1
  }
  param {
    lr_mult: 2
    decay_mult: 0
  }
  convolution_param {
    num_output: 192
    pad: 1
    kernel_size: 3
    weight_filler {
      type: "xavier"
      std: 0.03
    }
    bias_filler {
      type: "constant"
      value: 0.2
    }
  }
}
layer {
  name: "conv2/relu_3x3"
  type: "ReLU"
  bottom: "conv2/3x3"
  top: "conv2/3x3"
}
layer {
  name: "conv2/norm2"
  type: "LRN"
  bottom: "conv2/3x3"
  top: "conv2/norm2"
  lrn_param {
    local_size: 5
    alpha: 0.0001
    beta: 0.75
  }
}
layer {
  name: "pool2/3x3_s2"
  type: "Pooling"
  bottom: "conv2/norm2"
  top: "pool2/3x3_s2"
  pooling_param {
    pool: MAX
    kernel_size: 3
    stride: 2
  }
}
layer {
  name: "inception_3a/1x1"
  type: "Convolution"
  bottom: "pool2/3x3_s2"
  top: "inception_3a/1x1"
  param {
    lr_mult: 1
    decay_mult: 1
  }
  param {
    lr_mult: 2
    decay_mult: 0
  }
  convolution_param {
    num_output: 64
    kernel_size: 1
    weight_filler {
      type: "xavier"
      std: 0.03
    }
    bias_filler {
      type: "constant"
      value: 0.2
    }
  }
}
layer {
  name: "inception_3a/relu_1x1"
  type: "ReLU"
  bottom: "inception_3a/1x1"
  top: "inception_3a/1x1"
}
layer {
  name: "inception_3a/3x3_reduce"
  type: "Convolution"
  bottom: "pool2/3x3_s2"
  top: "inception_3a/3x3_reduce"
  param {
    lr_mult: 1
    decay_mult: 1
  }
  param {
    lr_mult: 2
    decay_mult: 0
  }
  convolution_param {
    num_output: 96
    kernel_size: 1
    weight_filler {
      type: "xavier"
      std: 0.09
    }
    bias_filler {
      type: "constant"
      value: 0.2
    }
  }
}
layer {
  name: "inception_3a/relu_3x3_reduce"
  type: "ReLU"
  bottom: "inception_3a/3x3_reduce"
  top: "inception_3a/3x3_reduce"
}
layer {
  name: "inception_3a/3x3"
  type: "Convolution"
  bottom: "inception_3a/3x3_reduce"
  top: "inception_3a/3x3"
  param {
    lr_mult: 1
    decay_mult: 1
  }
  param {
    lr_mult: 2
    decay_mult: 0
  }
  convolution_param {
    num_output: 128
    pad: 1
    kernel_size: 3
    weight_filler {
      type: "xavier"
      std: 0.03
    }
    bias_filler {
      type: "constant"
      value: 0.2
    }
  }
}
layer {
  name: "inception_3a/relu_3x3"
  type: "ReLU"
  bottom: "inception_3a/3x3"
  top: "inception_3a/3x3"
}
layer {
  name: "inception_3a/5x5_reduce"
  type: "Convolution"
  bottom: "pool2/3x3_s2"
  top: "inception_3a/5x5_reduce"
  param {
    lr_mult: 1
    decay_mult: 1
  }
  param {
    lr_mult: 2
    decay_mult: 0
  }
  convolution_param {
    num_output: 16
    kernel_size: 1
    weight_filler {
      type: "xavier"
      std: 0.2
    }
    bias_filler {
      type: "constant"
      value: 0.2
    }
  }
}
layer {
  name: "inception_3a/relu_5x5_reduce"
  type: "ReLU"
  bottom: "inception_3a/5x5_reduce"
  top: "inception_3a/5x5_reduce"
}
layer {
  name: "inception_3a/5x5"
  type: "Convolution"
  bottom: "inception_3a/5x5_reduce"
  top: "inception_3a/5x5"
  param {
    lr_mult: 1
    decay_mult: 1
  }
  param {
    lr_mult: 2
    decay_mult: 0
  }
  convolution_param {
    num_output: 32
    pad: 2
    kernel_size: 5
    weight_filler {
      type: "xavier"
      std: 0.03
    }
    bias_filler {
      type: "constant"
      value: 0.2
    }
  }
}
layer {
  name: "inception_3a/relu_5x5"
  type: "ReLU"
  bottom: "inception_3a/5x5"
  top: "inception_3a/5x5"
}
layer {
  name: "inception_3a/pool"
  type: "Pooling"
  bottom: "pool2/3x3_s2"
  top: "inception_3a/pool"
  pooling_param {
    pool: MAX
    kernel_size: 3
    stride: 1
    pad: 1
  }
}
layer {
  name: "inception_3a/pool_proj"
  type: "Convolution"
  bottom: "inception_3a/pool"
  top: "inception_3a/pool_proj"
  param {
    lr_mult: 1
    decay_mult: 1
  }
  param {
    lr_mult: 2
    decay_mult: 0
  }
  convolution_param {
    num_output: 32
    kernel_size: 1
    weight_filler {
      type: "xavier"
      std: 0.1
    }
    bias_filler {
      type: "constant"
      value: 0.2
    }
  }
}
layer {
  name: "inception_3a/relu_pool_proj"
  type: "ReLU"
  bottom: "inception_3a/pool_proj"
  top: "inception_3a/pool_proj"
}
layer {
  name: "inception_3a/output"
  type: "Concat"
  bottom: "inception_3a/1x1"
  bottom: "inception_3a/3x3"
  bottom: "inception_3a/5x5"
  bottom: "inception_3a/pool_proj"
  top: "inception_3a/output"
}
layer {
  name: "inception_3b/1x1"
  type: "Convolution"
  bottom: "inception_3a/output"
  top: "inception_3b/1x1"
  param {
    lr_mult: 1
    decay_mult: 1
  }
  param {
    lr_mult: 2
    decay_mult: 0
  }
  convolution_param {
    num_output: 128
    kernel_size: 1
    weight_filler {
      type: "xavier"
      std: 0.03
    }
    bias_filler {
      type: "constant"
      value: 0.2
    }
  }
}
layer {
  name: "inception_3b/relu_1x1"
  type: "ReLU"
  bottom: "inception_3b/1x1"
  top: "inception_3b/1x1"
}
layer {
  name: "inception_3b/3x3_reduce"
  type: "Convolution"
  bottom: "inception_3a/output"
  top: "inception_3b/3x3_reduce"
  param {
    lr_mult: 1
    decay_mult: 1
  }
  param {
    lr_mult: 2
    decay_mult: 0
  }
  convolution_param {
    num_output: 128
    kernel_size: 1
    weight_filler {
      type: "xavier"
      std: 0.09
    }
    bias_filler {
      type: "constant"
      value: 0.2
    }
  }
}
layer {
  name: "inception_3b/relu_3x3_reduce"
  type: "ReLU"
  bottom: "inception_3b/3x3_reduce"
  top: "inception_3b/3x3_reduce"
}
layer {
  name: "inception_3b/3x3"
  type: "Convolution"
  bottom: "inception_3b/3x3_reduce"
  top: "inception_3b/3x3"
  param {
    lr_mult: 1
    decay_mult: 1
  }
  param {
    lr_mult: 2
    decay_mult: 0
  }
  convolution_param {
    num_output: 192
    pad: 1
    kernel_size: 3
    weight_filler {
      type: "xavier"
      std: 0.03
    }
    bias_filler {
      type: "constant"
      value: 0.2
    }
  }
}
layer {
  name: "inception_3b/relu_3x3"
  type: "ReLU"
  bottom: "inception_3b/3x3"
  top: "inception_3b/3x3"
}
layer {
  name: "inception_3b/5x5_reduce"
  type: "Convolution"
  bottom: "inception_3a/output"
  top: "inception_3b/5x5_reduce"
  param {
    lr_mult: 1
    decay_mult: 1
  }
  param {
    lr_mult: 2
    decay_mult: 0
  }
  convolution_param {
    num_output: 32
    kernel_size: 1
    weight_filler {
      type: "xavier"
      std: 0.2
    }
    bias_filler {
      type: "constant"
      value: 0.2
    }
  }
}
layer {
  name: "inception_3b/relu_5x5_reduce"
  type: "ReLU"
  bottom: "inception_3b/5x5_reduce"
  top: "inception_3b/5x5_reduce"
}
layer {
  name: "inception_3b/5x5"
  type: "Convolution"
  bottom: "inception_3b/5x5_reduce"
  top: "inception_3b/5x5"
  param {
    lr_mult: 1
    decay_mult: 1
  }
  param {
    lr_mult: 2
    decay_mult: 0
  }
  convolution_param {
    num_output: 96
    pad: 2
    kernel_size: 5
    weight_filler {
      type: "xavier"
      std: 0.03
    }
    bias_filler {
      type: "constant"
      value: 0.2
    }
  }
}
layer {
  name: "inception_3b/relu_5x5"
  type: "ReLU"
  bottom: "inception_3b/5x5"
  top: "inception_3b/5x5"
}
layer {
  name: "inception_3b/pool"
  type: "Pooling"
  bottom: "inception_3a/output"
  top: "inception_3b/pool"
  pooling_param {
    pool: MAX
    kernel_size: 3
    stride: 1
    pad: 1
  }
}
layer {
  name: "inception_3b/pool_proj"
  type: "Convolution"
  bottom: "inception_3b/pool"
  top: "inception_3b/pool_proj"
  param {
    lr_mult: 1
    decay_mult: 1
  }
  param {
    lr_mult: 2
    decay_mult: 0
  }
  convolution_param {
    num_output: 64
    kernel_size: 1
    weight_filler {
      type: "xavier"
      std: 0.1
    }
    bias_filler {
      type: "constant"
      value: 0.2
    }
  }
}
layer {
  name: "inception_3b/relu_pool_proj"
  type: "ReLU"
  bottom: "inception_3b/pool_proj"
  top: "inception_3b/pool_proj"
}
layer {
  name: "inception_3b/output"
  type: "Concat"
  bottom: "inception_3b/1x1"
  bottom: "inception_3b/3x3"
  bottom: "inception_3b/5x5"
  bottom: "inception_3b/pool_proj"
  top: "inception_3b/output"
}
layer {
  name: "pool3/3x3_s2"
  type: "Pooling"
  bottom: "inception_3b/output"
  top: "pool3/3x3_s2"
  pooling_param {
    pool: MAX
    kernel_size: 3
    stride: 2
  }
}
layer {
  name: "inception_4a/1x1"
  type: "Convolution"
  bottom: "pool3/3x3_s2"
  top: "inception_4a/1x1"
  param {
    lr_mult: 1
    decay_mult: 1
  }
  param {
    lr_mult: 2
    decay_mult: 0
  }
  convolution_param {
    num_output: 192
    kernel_size: 1
    weight_filler {
      type: "xavier"
      std: 0.03
    }
    bias_filler {
      type: "constant"
      value: 0.2
    }
  }
}
layer {
  name: "inception_4a/relu_1x1"
  type: "ReLU"
  bottom: "inception_4a/1x1"
  top: "inception_4a/1x1"
}
layer {
  name: "inception_4a/3x3_reduce"
  type: "Convolution"
  bottom: "pool3/3x3_s2"
  top: "inception_4a/3x3_reduce"
  param {
    lr_mult: 1
    decay_mult: 1
  }
  param {
    lr_mult: 2
    decay_mult: 0
  }
  convolution_param {
    num_output: 96
    kernel_size: 1
    weight_filler {
      type: "xavier"
      std: 0.09
    }
    bias_filler {
      type: "constant"
      value: 0.2
    }
  }
}
layer {
  name: "inception_4a/relu_3x3_reduce"
  type: "ReLU"
  bottom: "inception_4a/3x3_reduce"
  top: "inception_4a/3x3_reduce"
}
layer {
  name: "inception_4a/3x3"
  type: "Convolution"
  bottom: "inception_4a/3x3_reduce"
  top: "inception_4a/3x3"
  param {
    lr_mult: 1
    decay_mult: 1
  }
  param {
    lr_mult: 2
    decay_mult: 0
  }
  convolution_param {
    num_output: 208
    pad: 1
    kernel_size: 3
    weight_filler {
      type: "xavier"
      std: 0.03
    }
    bias_filler {
      type: "constant"
      value: 0.2
    }
  }
}
layer {
  name: "inception_4a/relu_3x3"
  type: "ReLU"
  bottom: "inception_4a/3x3"
  top: "inception_4a/3x3"
}
layer {
  name: "inception_4a/5x5_reduce"
  type: "Convolution"
  bottom: "pool3/3x3_s2"
  top: "inception_4a/5x5_reduce"
  param {
    lr_mult: 1
    decay_mult: 1
  }
  param {
    lr_mult: 2
    decay_mult: 0
  }
  convolution_param {
    num_output: 16
    kernel_size: 1
    weight_filler {
      type: "xavier"
      std: 0.2
    }
    bias_filler {
      type: "constant"
      value: 0.2
    }
  }
}
layer {
  name: "inception_4a/relu_5x5_reduce"
  type: "ReLU"
  bottom: "inception_4a/5x5_reduce"
  top: "inception_4a/5x5_reduce"
}
layer {
  name: "inception_4a/5x5"
  type: "Convolution"
  bottom: "inception_4a/5x5_reduce"
  top: "inception_4a/5x5"
  param {
    lr_mult: 1
    decay_mult: 1
  }
  param {
    lr_mult: 2
    decay_mult: 0
  }
  convolution_param {
    num_output: 48
    pad: 2
    kernel_size: 5
    weight_filler {
      type: "xavier"
      std: 0.03
    }
    bias_filler {
      type: "constant"
      value: 0.2
    }
  }
}
layer {
  name: "inception_4a/relu_5x5"
  type: "ReLU"
  bottom: "inception_4a/5x5"
  top: "inception_4a/5x5"
}
layer {
  name: "inception_4a/pool"
  type: "Pooling"
  bottom: "pool3/3x3_s2"
  top: "inception_4a/pool"
  pooling_param {
    pool: MAX
    kernel_size: 3
    stride: 1
    pad: 1
  }
}
layer {
  name: "inception_4a/pool_proj"
  type: "Convolution"
  bottom: "inception_4a/pool"
  top: "inception_4a/pool_proj"
  param {
    lr_mult: 1
    decay_mult: 1
  }
  param {
    lr_mult: 2
    decay_mult: 0
  }
  convolution_param {
    num_output: 64
    kernel_size: 1
    weight_filler {
      type: "xavier"
      std: 0.1
    }
    bias_filler {
      type: "constant"
      value: 0.2
    }
  }
}
layer {
  name: "inception_4a/relu_pool_proj"
  type: "ReLU"
  bottom: "inception_4a/pool_proj"
  top: "inception_4a/pool_proj"
}
layer {
  name: "inception_4a/output"
  type: "Concat"
  bottom: "inception_4a/1x1"
  bottom: "inception_4a/3x3"
  bottom: "inception_4a/5x5"
  bottom: "inception_4a/pool_proj"
  top: "inception_4a/output"
}
layer {
  name: "loss1/ave_pool"
  type: "Pooling"
  bottom: "inception_4a/output"
  top: "loss1/ave_pool"
  pooling_param {
    pool: AVE
    kernel_size: 5
    stride: 3
  }
}
layer {
  name: "loss1/conv"
  type: "Convolution"
  bottom: "loss1/ave_pool"
  top: "loss1/conv"
  param {
    lr_mult: 1
    decay_mult: 1
  }
  param {
    lr_mult: 2
    decay_mult: 0
  }
  convolution_param {
    num_output: 128
    kernel_size: 1
    weight_filler {
      type: "xavier"
      std: 0.08
    }
    bias_filler {
      type: "constant"
      value: 0.2
    }
  }
}
layer {
  name: "loss1/relu_conv"
  type: "ReLU"
  bottom: "loss1/conv"
  top: "loss1/conv"
}
layer {
  name: "loss1/fc"
  type: "InnerProduct"
  bottom: "loss1/conv"
  top: "loss1/fc"
  param {
    lr_mult: 1
    decay_mult: 1
  }
  param {
    lr_mult: 2
    decay_mult: 0
  }
  inner_product_param {
    num_output: 1024
    weight_filler {
      type: "xavier"
      std: 0.02
    }
    bias_filler {
      type: "constant"
      value: 0.2
    }
  }
}
layer {
  name: "loss1/relu_fc"
  type: "ReLU"
  bottom: "loss1/fc"
  top: "loss1/fc"
}
layer {
  name: "loss1/drop_fc"
  type: "Dropout"
  bottom: "loss1/fc"
  top: "loss1/fc"
  dropout_param {
    dropout_ratio: 0.7
  }
}
layer {
  name: "loss1/classifier_plantvillage"
  type: "InnerProduct"
  bottom: "loss1/fc"
  top: "loss1/classifier_plantvillage"
  param {
    lr_mult: 1
    decay_mult: 1
  }
  param {
    lr_mult: 2
    decay_mult: 0
  }
  inner_product_param {
    num_output: 38
    weight_filler {
      type: "xavier"
      std: 0.0009765625
    }
    bias_filler {
      type: "constant"
      value: 0
    }
  }
}
layer {
  name: "inception_4b/1x1"
  type: "Convolution"
  bottom: "inception_4a/output"
  top: "inception_4b/1x1"
  param {
    lr_mult: 1
    decay_mult: 1
  }
  param {
    lr_mult: 2
    decay_mult: 0
  }
  convolution_param {
    num_output: 160
    kernel_size: 1
    weight_filler {
      type: "xavier"
      std: 0.03
    }
    bias_filler {
      type: "constant"
      value: 0.2
    }
  }
}
layer {
  name: "inception_4b/relu_1x1"
  type: "ReLU"
  bottom: "inception_4b/1x1"
  top: "inception_4b/1x1"
}
layer {
  name: "inception_4b/3x3_reduce"
  type: "Convolution"
  bottom: "inception_4a/output"
  top: "inception_4b/3x3_reduce"
  param {
    lr_mult: 1
    decay_mult: 1
  }
  param {
    lr_mult: 2
    decay_mult: 0
  }
  convolution_param {
    num_output: 112
    kernel_size: 1
    weight_filler {
      type: "xavier"
      std: 0.09
    }
    bias_filler {
      type: "constant"
      value: 0.2
    }
  }
}
layer {
  name: "inception_4b/relu_3x3_reduce"
  type: "ReLU"
  bottom: "inception_4b/3x3_reduce"
  top: "inception_4b/3x3_reduce"
}
layer {
  name: "inception_4b/3x3"
  type: "Convolution"
  bottom: "inception_4b/3x3_reduce"
  top: "inception_4b/3x3"
  param {
    lr_mult: 1
    decay_mult: 1
  }
  param {
    lr_mult: 2
    decay_mult: 0
  }
  convolution_param {
    num_output: 224
    pad: 1
    kernel_size: 3
    weight_filler {
      type: "xavier"
      std: 0.03
    }
    bias_filler {
      type: "constant"
      value: 0.2
    }
  }
}
layer {
  name: "inception_4b/relu_3x3"
  type: "ReLU"
  bottom: "inception_4b/3x3"
  top: "inception_4b/3x3"
}
layer {
  name: "inception_4b/5x5_reduce"
  type: "Convolution"
  bottom: "inception_4a/output"
  top: "inception_4b/5x5_reduce"
  param {
    lr_mult: 1
    decay_mult: 1
  }
  param {
    lr_mult: 2
    decay_mult: 0
  }
  convolution_param {
    num_output: 24
    kernel_size: 1
    weight_filler {
      type: "xavier"
      std: 0.2
    }
    bias_filler {
      type: "constant"
      value: 0.2
    }
  }
}
layer {
  name: "inception_4b/relu_5x5_reduce"
  type: "ReLU"
  bottom: "inception_4b/5x5_reduce"
  top: "inception_4b/5x5_reduce"
}
layer {
  name: "inception_4b/5x5"
  type: "Convolution"
  bottom: "inception_4b/5x5_reduce"
  top: "inception_4b/5x5"
  param {
    lr_mult: 1
    decay_mult: 1
  }
  param {
    lr_mult: 2
    decay_mult: 0
  }
  convolution_param {
    num_output: 64
    pad: 2
    kernel_size: 5
    weight_filler {
      type: "xavier"
      std: 0.03
    }
    bias_filler {
      type: "constant"
      value: 0.2
    }
  }
}
layer {
  name: "inception_4b/relu_5x5"
  type: "ReLU"
  bottom: "inception_4b/5x5"
  top: "inception_4b/5x5"
}
layer {
  name: "inception_4b/pool"
  type: "Pooling"
  bottom: "inception_4a/output"
  top: "inception_4b/pool"
  pooling_param {
    pool: MAX
    kernel_size: 3
    stride: 1
    pad: 1
  }
}
layer {
  name: "inception_4b/pool_proj"
  type: "Convolution"
  bottom: "inception_4b/pool"
  top: "inception_4b/pool_proj"
  param {
    lr_mult: 1
    decay_mult: 1
  }
  param {
    lr_mult: 2
    decay_mult: 0
  }
  convolution_param {
    num_output: 64
    kernel_size: 1
    weight_filler {
      type: "xavier"
      std: 0.1
    }
    bias_filler {
      type: "constant"
      value: 0.2
    }
  }
}
layer {
  name: "inception_4b/relu_pool_proj"
  type: "ReLU"
  bottom: "inception_4b/pool_proj"
  top: "inception_4b/pool_proj"
}
layer {
  name: "inception_4b/output"
  type: "Concat"
  bottom: "inception_4b/1x1"
  bottom: "inception_4b/3x3"
  bottom: "inception_4b/5x5"
  bottom: "inception_4b/pool_proj"
  top: "inception_4b/output"
}
layer {
  name: "inception_4c/1x1"
  type: "Convolution"
  bottom: "inception_4b/output"
  top: "inception_4c/1x1"
  param {
    lr_mult: 1
    decay_mult: 1
  }
  param {
    lr_mult: 2
    decay_mult: 0
  }
  convolution_param {
    num_output: 128
    kernel_size: 1
    weight_filler {
      type: "xavier"
      std: 0.03
    }
    bias_filler {
      type: "constant"
      value: 0.2
    }
  }
}
layer {
  name: "inception_4c/relu_1x1"
  type: "ReLU"
  bottom: "inception_4c/1x1"
  top: "inception_4c/1x1"
}
layer {
  name: "inception_4c/3x3_reduce"
  type: "Convolution"
  bottom: "inception_4b/output"
  top: "inception_4c/3x3_reduce"
  param {
    lr_mult: 1
    decay_mult: 1
  }
  param {
    lr_mult: 2
    decay_mult: 0
  }
  convolution_param {
    num_output: 128
    kernel_size: 1
    weight_filler {
      type: "xavier"
      std: 0.09
    }
    bias_filler {
      type: "constant"
      value: 0.2
    }
  }
}
layer {
  name: "inception_4c/relu_3x3_reduce"
  type: "ReLU"
  bottom: "inception_4c/3x3_reduce"
  top: "inception_4c/3x3_reduce"
}
layer {
  name: "inception_4c/3x3"
  type: "Convolution"
  bottom: "inception_4c/3x3_reduce"
  top: "inception_4c/3x3"
  param {
    lr_mult: 1
    decay_mult: 1
  }
  param {
    lr_mult: 2
    decay_mult: 0
  }
  convolution_param {
    num_output: 256
    pad: 1
    kernel_size: 3
    weight_filler {
      type: "xavier"
      std: 0.03
    }
    bias_filler {
      type: "constant"
      value: 0.2
    }
  }
}
layer {
  name: "inception_4c/relu_3x3"
  type: "ReLU"
  bottom: "inception_4c/3x3"
  top: "inception_4c/3x3"
}
layer {
  name: "inception_4c/5x5_reduce"
  type: "Convolution"
  bottom: "inception_4b/output"
  top: "inception_4c/5x5_reduce"
  param {
    lr_mult: 1
    decay_mult: 1
  }
  param {
    lr_mult: 2
    decay_mult: 0
  }
  convolution_param {
    num_output: 24
    kernel_size: 1
    weight_filler {
      type: "xavier"
      std: 0.2
    }
    bias_filler {
      type: "constant"
      value: 0.2
    }
  }
}
layer {
  name: "inception_4c/relu_5x5_reduce"
  type: "ReLU"
  bottom: "inception_4c/5x5_reduce"
  top: "inception_4c/5x5_reduce"
}
layer {
  name: "inception_4c/5x5"
  type: "Convolution"
  bottom: "inception_4c/5x5_reduce"
  top: "inception_4c/5x5"
  param {
    lr_mult: 1
    decay_mult: 1
  }
  param {
    lr_mult: 2
    decay_mult: 0
  }
  convolution_param {
    num_output: 64
    pad: 2
    kernel_size: 5
    weight_filler {
      type: "xavier"
      std: 0.03
    }
    bias_filler {
      type: "constant"
      value: 0.2
    }
  }
}
layer {
  name: "inception_4c/relu_5x5"
  type: "ReLU"
  bottom: "inception_4c/5x5"
  top: "inception_4c/5x5"
}
layer {
  name: "inception_4c/pool"
  type: "Pooling"
  bottom: "inception_4b/output"
  top: "inception_4c/pool"
  pooling_param {
    pool: MAX
    kernel_size: 3
    stride: 1
    pad: 1
  }
}
layer {
  name: "inception_4c/pool_proj"
  type: "Convolution"
  bottom: "inception_4c/pool"
  top: "inception_4c/pool_proj"
  param {
    lr_mult: 1
    decay_mult: 1
  }
  param {
    lr_mult: 2
    decay_mult: 0
  }
  convolution_param {
    num_output: 64
    kernel_size: 1
    weight_filler {
      type: "xavier"
      std: 0.1
    }
    bias_filler {
      type: "constant"
      value: 0.2
    }
  }
}
layer {
  name: "inception_4c/relu_pool_proj"
  type: "ReLU"
  bottom: "inception_4c/pool_proj"
  top: "inception_4c/pool_proj"
}
layer {
  name: "inception_4c/output"
  type: "Concat"
  bottom: "inception_4c/1x1"
  bottom: "inception_4c/3x3"
  bottom: "inception_4c/5x5"
  bottom: "inception_4c/pool_proj"
  top: "inception_4c/output"
}
layer {
  name: "inception_4d/1x1"
  type: "Convolution"
  bottom: "inception_4c/output"
  top: "inception_4d/1x1"
  param {
    lr_mult: 1
    decay_mult: 1
  }
  param {
    lr_mult: 2
    decay_mult: 0
  }
  convolution_param {
    num_output: 112
    kernel_size: 1
    weight_filler {
      type: "xavier"
      std: 0.03
    }
    bias_filler {
      type: "constant"
      value: 0.2
    }
  }
}
layer {
  name: "inception_4d/relu_1x1"
  type: "ReLU"
  bottom: "inception_4d/1x1"
  top: "inception_4d/1x1"
}
layer {
  name: "inception_4d/3x3_reduce"
  type: "Convolution"
  bottom: "inception_4c/output"
  top: "inception_4d/3x3_reduce"
  param {
    lr_mult: 1
    decay_mult: 1
  }
  param {
    lr_mult: 2
    decay_mult: 0
  }
  convolution_param {
    num_output: 144
    kernel_size: 1
    weight_filler {
      type: "xavier"
      std: 0.09
    }
    bias_filler {
      type: "constant"
      value: 0.2
    }
  }
}
layer {
  name: "inception_4d/relu_3x3_reduce"
  type: "ReLU"
  bottom: "inception_4d/3x3_reduce"
  top: "inception_4d/3x3_reduce"
}
layer {
  name: "inception_4d/3x3"
  type: "Convolution"
  bottom: "inception_4d/3x3_reduce"
  top: "inception_4d/3x3"
  param {
    lr_mult: 1
    decay_mult: 1
  }
  param {
    lr_mult: 2
    decay_mult: 0
  }
  convolution_param {
    num_output: 288
    pad: 1
    kernel_size: 3
    weight_filler {
      type: "xavier"
      std: 0.03
    }
    bias_filler {
      type: "constant"
      value: 0.2
    }
  }
}
layer {
  name: "inception_4d/relu_3x3"
  type: "ReLU"
  bottom: "inception_4d/3x3"
  top: "inception_4d/3x3"
}
layer {
  name: "inception_4d/5x5_reduce"
  type: "Convolution"
  bottom: "inception_4c/output"
  top: "inception_4d/5x5_reduce"
  param {
    lr_mult: 1
    decay_mult: 1
  }
  param {
    lr_mult: 2
    decay_mult: 0
  }
  convolution_param {
    num_output: 32
    kernel_size: 1
    weight_filler {
      type: "xavier"
      std: 0.2
    }
    bias_filler {
      type: "constant"
      value: 0.2
    }
  }
}
layer {
  name: "inception_4d/relu_5x5_reduce"
  type: "ReLU"
  bottom: "inception_4d/5x5_reduce"
  top: "inception_4d/5x5_reduce"
}
layer {
  name: "inception_4d/5x5"
  type: "Convolution"
  bottom: "inception_4d/5x5_reduce"
  top: "inception_4d/5x5"
  param {
    lr_mult: 1
    decay_mult: 1
  }
  param {
    lr_mult: 2
    decay_mult: 0
  }
  convolution_param {
    num_output: 64
    pad: 2
    kernel_size: 5
    weight_filler {
      type: "xavier"
      std: 0.03
    }
    bias_filler {
      type: "constant"
      value: 0.2
    }
  }
}
layer {
  name: "inception_4d/relu_5x5"
  type: "ReLU"
  bottom: "inception_4d/5x5"
  top: "inception_4d/5x5"
}
layer {
  name: "inception_4d/pool"
  type: "Pooling"
  bottom: "inception_4c/output"
  top: "inception_4d/pool"
  pooling_param {
    pool: MAX
    kernel_size: 3
    stride: 1
    pad: 1
  }
}
layer {
  name: "inception_4d/pool_proj"
  type: "Convolution"
  bottom: "inception_4d/pool"
  top: "inception_4d/pool_proj"
  param {
    lr_mult: 1
    decay_mult: 1
  }
  param {
    lr_mult: 2
    decay_mult: 0
  }
  convolution_param {
    num_output: 64
    kernel_size: 1
    weight_filler {
      type: "xavier"
      std: 0.1
    }
    bias_filler {
      type: "constant"
      value: 0.2
    }
  }
}
layer {
  name: "inception_4d/relu_pool_proj"
  type: "ReLU"
  bottom: "inception_4d/pool_proj"
  top: "inception_4d/pool_proj"
}
layer {
  name: "inception_4d/output"
  type: "Concat"
  bottom: "inception_4d/1x1"
  bottom: "inception_4d/3x3"
  bottom: "inception_4d/5x5"
  bottom: "inception_4d/pool_proj"
  top: "inception_4d/output"
}
layer {
  name: "loss2/ave_pool"
  type: "Pooling"
  bottom: "inception_4d/output"
  top: "loss2/ave_pool"
  pooling_param {
    pool: AVE
    kernel_size: 5
    stride: 3
  }
}
layer {
  name: "loss2/conv"
  type: "Convolution"
  bottom: "loss2/ave_pool"
  top: "loss2/conv"
  param {
    lr_mult: 1
    decay_mult: 1
  }
  param {
    lr_mult: 2
    decay_mult: 0
  }
  convolution_param {
    num_output: 128
    kernel_size: 1
    weight_filler {
      type: "xavier"
      std: 0.08
    }
    bias_filler {
      type: "constant"
      value: 0.2
    }
  }
}
layer {
  name: "loss2/relu_conv"
  type: "ReLU"
  bottom: "loss2/conv"
  top: "loss2/conv"
}
layer {
  name: "loss2/fc"
  type: "InnerProduct"
  bottom: "loss2/conv"
  top: "loss2/fc"
  param {
    lr_mult: 1
    decay_mult: 1
  }
  param {
    lr_mult: 2
    decay_mult: 0
  }
  inner_product_param {
    num_output: 1024
    weight_filler {
      type: "xavier"
      std: 0.02
    }
    bias_filler {
      type: "constant"
      value: 0.2
    }
  }
}
layer {
  name: "loss2/relu_fc"
  type: "ReLU"
  bottom: "loss2/fc"
  top: "loss2/fc"
}
layer {
  name: "loss2/drop_fc"
  type: "Dropout"
  bottom: "loss2/fc"
  top: "loss2/fc"
  dropout_param {
    dropout_ratio: 0.7
  }
}
layer {
  name: "loss2/classifier_plantvillage"
  type: "InnerProduct"
  bottom: "loss2/fc"
  top: "loss2/classifier_plantvillage"
  param {
    lr_mult: 1
    decay_mult: 1
  }
  param {
    lr_mult: 2
    decay_mult: 0
  }
  inner_product_param {
    num_output: 38
    weight_filler {
      type: "xavier"
      std: 0.0009765625
    }
    bias_filler {
      type: "constant"
      value: 0
    }
  }
}
layer {
  name: "inception_4e/1x1"
  type: "Convolution"
  bottom: "inception_4d/output"
  top: "inception_4e/1x1"
  param {
    lr_mult: 1
    decay_mult: 1
  }
  param {
    lr_mult: 2
    decay_mult: 0
  }
  convolution_param {
    num_output: 256
    kernel_size: 1
    weight_filler {
      type: "xavier"
      std: 0.03
    }
    bias_filler {
      type: "constant"
      value: 0.2
    }
  }
}
layer {
  name: "inception_4e/relu_1x1"
  type: "ReLU"
  bottom: "inception_4e/1x1"
  top: "inception_4e/1x1"
}
layer {
  name: "inception_4e/3x3_reduce"
  type: "Convolution"
  bottom: "inception_4d/output"
  top: "inception_4e/3x3_reduce"
  param {
    lr_mult: 1
    decay_mult: 1
  }
  param {
    lr_mult: 2
    decay_mult: 0
  }
  convolution_param {
    num_output: 160
    kernel_size: 1
    weight_filler {
      type: "xavier"
      std: 0.09
    }
    bias_filler {
      type: "constant"
      value: 0.2
    }
  }
}
layer {
  name: "inception_4e/relu_3x3_reduce"
  type: "ReLU"
  bottom: "inception_4e/3x3_reduce"
  top: "inception_4e/3x3_reduce"
}
layer {
  name: "inception_4e/3x3"
  type: "Convolution"
  bottom: "inception_4e/3x3_reduce"
  top: "inception_4e/3x3"
  param {
    lr_mult: 1
    decay_mult: 1
  }
  param {
    lr_mult: 2
    decay_mult: 0
  }
  convolution_param {
    num_output: 320
    pad: 1
    kernel_size: 3
    weight_filler {
      type: "xavier"
      std: 0.03
    }
    bias_filler {
      type: "constant"
      value: 0.2
    }
  }
}
layer {
  name: "inception_4e/relu_3x3"
  type: "ReLU"
  bottom: "inception_4e/3x3"
  top: "inception_4e/3x3"
}
layer {
  name: "inception_4e/5x5_reduce"
  type: "Convolution"
  bottom: "inception_4d/output"
  top: "inception_4e/5x5_reduce"
  param {
    lr_mult: 1
    decay_mult: 1
  }
  param {
    lr_mult: 2
    decay_mult: 0
  }
  convolution_param {
    num_output: 32
    kernel_size: 1
    weight_filler {
      type: "xavier"
      std: 0.2
    }
    bias_filler {
      type: "constant"
      value: 0.2
    }
  }
}
layer {
  name: "inception_4e/relu_5x5_reduce"
  type: "ReLU"
  bottom: "inception_4e/5x5_reduce"
  top: "inception_4e/5x5_reduce"
}
layer {
  name: "inception_4e/5x5"
  type: "Convolution"
  bottom: "inception_4e/5x5_reduce"
  top: "inception_4e/
I0403 16:00:03.446614 16601 layer_factory.hpp:77] Creating layer data
I0403 16:00:03.447335 16601 net.cpp:91] Creating Layer data
I0403 16:00:03.447368 16601 net.cpp:399] data -> data
I0403 16:00:03.447453 16601 net.cpp:399] data -> label
I0403 16:00:03.447504 16601 data_transformer.cpp:25] Loading mean file from: /home/mohanty/data/final_dataset/lmdb/segmented-20-80/mean.binaryproto
I0403 16:00:03.448635 16607 db_lmdb.cpp:38] Opened lmdb /home/mohanty/data/final_dataset/lmdb/segmented-20-80/test_db
I0403 16:00:03.464668 16601 data_layer.cpp:41] output data size: 24,3,224,224
I0403 16:00:03.492342 16601 net.cpp:141] Setting up data
I0403 16:00:03.492422 16601 net.cpp:148] Top shape: 24 3 224 224 (3612672)
I0403 16:00:03.492447 16601 net.cpp:148] Top shape: 24 (24)
I0403 16:00:03.492463 16601 net.cpp:156] Memory required for data: 14450784
I0403 16:00:03.492492 16601 layer_factory.hpp:77] Creating layer label_data_1_split
I0403 16:00:03.492521 16601 net.cpp:91] Creating Layer label_data_1_split
I0403 16:00:03.492538 16601 net.cpp:425] label_data_1_split <- label
I0403 16:00:03.492578 16601 net.cpp:399] label_data_1_split -> label_data_1_split_0
I0403 16:00:03.492609 16601 net.cpp:399] label_data_1_split -> label_data_1_split_1
I0403 16:00:03.492631 16601 net.cpp:399] label_data_1_split -> label_data_1_split_2
I0403 16:00:03.492653 16601 net.cpp:399] label_data_1_split -> label_data_1_split_3
I0403 16:00:03.492673 16601 net.cpp:399] label_data_1_split -> label_data_1_split_4
I0403 16:00:03.492693 16601 net.cpp:399] label_data_1_split -> label_data_1_split_5
I0403 16:00:03.492713 16601 net.cpp:399] label_data_1_split -> label_data_1_split_6
I0403 16:00:03.492733 16601 net.cpp:399] label_data_1_split -> label_data_1_split_7
I0403 16:00:03.492753 16601 net.cpp:399] label_data_1_split -> label_data_1_split_8
I0403 16:00:03.492774 16601 net.cpp:399] label_data_1_split -> label_data_1_split_9
I0403 16:00:03.492894 16601 net.cpp:141] Setting up label_data_1_split
I0403 16:00:03.492918 16601 net.cpp:148] Top shape: 24 (24)
I0403 16:00:03.492936 16601 net.cpp:148] Top shape: 24 (24)
I0403 16:00:03.492952 16601 net.cpp:148] Top shape: 24 (24)
I0403 16:00:03.492969 16601 net.cpp:148] Top shape: 24 (24)
I0403 16:00:03.492983 16601 net.cpp:148] Top shape: 24 (24)
I0403 16:00:03.493000 16601 net.cpp:148] Top shape: 24 (24)
I0403 16:00:03.493016 16601 net.cpp:148] Top shape: 24 (24)
I0403 16:00:03.493031 16601 net.cpp:148] Top shape: 24 (24)
I0403 16:00:03.493046 16601 net.cpp:148] Top shape: 24 (24)
I0403 16:00:03.493062 16601 net.cpp:148] Top shape: 24 (24)
I0403 16:00:03.493109 16601 net.cpp:156] Memory required for data: 14451744
I0403 16:00:03.493126 16601 layer_factory.hpp:77] Creating layer conv1/7x7_s2
I0403 16:00:03.493186 16601 net.cpp:91] Creating Layer conv1/7x7_s2
I0403 16:00:03.493207 16601 net.cpp:425] conv1/7x7_s2 <- data
I0403 16:00:03.493227 16601 net.cpp:399] conv1/7x7_s2 -> conv1/7x7_s2
I0403 16:00:03.635478 16601 net.cpp:141] Setting up conv1/7x7_s2
I0403 16:00:03.635541 16601 net.cpp:148] Top shape: 24 64 112 112 (19267584)
I0403 16:00:03.635557 16601 net.cpp:156] Memory required for data: 91522080
I0403 16:00:03.635592 16601 layer_factory.hpp:77] Creating layer conv1/relu_7x7
I0403 16:00:03.635620 16601 net.cpp:91] Creating Layer conv1/relu_7x7
I0403 16:00:03.635638 16601 net.cpp:425] conv1/relu_7x7 <- conv1/7x7_s2
I0403 16:00:03.635656 16601 net.cpp:386] conv1/relu_7x7 -> conv1/7x7_s2 (in-place)
I0403 16:00:03.635908 16601 net.cpp:141] Setting up conv1/relu_7x7
I0403 16:00:03.635934 16601 net.cpp:148] Top shape: 24 64 112 112 (19267584)
I0403 16:00:03.635949 16601 net.cpp:156] Memory required for data: 168592416
I0403 16:00:03.635964 16601 layer_factory.hpp:77] Creating layer pool1/3x3_s2
I0403 16:00:03.636003 16601 net.cpp:91] Creating Layer pool1/3x3_s2
I0403 16:00:03.636023 16601 net.cpp:425] pool1/3x3_s2 <- conv1/7x7_s2
I0403 16:00:03.636040 16601 net.cpp:399] pool1/3x3_s2 -> pool1/3x3_s2
I0403 16:00:03.636111 16601 net.cpp:141] Setting up pool1/3x3_s2
I0403 16:00:03.636135 16601 net.cpp:148] Top shape: 24 64 56 56 (4816896)
I0403 16:00:03.636149 16601 net.cpp:156] Memory required for data: 187860000
I0403 16:00:03.636163 16601 layer_factory.hpp:77] Creating layer pool1/norm1
I0403 16:00:03.636199 16601 net.cpp:91] Creating Layer pool1/norm1
I0403 16:00:03.636219 16601 net.cpp:425] pool1/norm1 <- pool1/3x3_s2
I0403 16:00:03.636235 16601 net.cpp:399] pool1/norm1 -> pool1/norm1
I0403 16:00:03.636528 16601 net.cpp:141] Setting up pool1/norm1
I0403 16:00:03.636555 16601 net.cpp:148] Top shape: 24 64 56 56 (4816896)
I0403 16:00:03.636574 16601 net.cpp:156] Memory required for data: 207127584
I0403 16:00:03.636590 16601 layer_factory.hpp:77] Creating layer conv2/3x3_reduce
I0403 16:00:03.636615 16601 net.cpp:91] Creating Layer conv2/3x3_reduce
I0403 16:00:03.636631 16601 net.cpp:425] conv2/3x3_reduce <- pool1/norm1
I0403 16:00:03.636648 16601 net.cpp:399] conv2/3x3_reduce -> conv2/3x3_reduce
I0403 16:00:03.637951 16601 net.cpp:141] Setting up conv2/3x3_reduce
I0403 16:00:03.637981 16601 net.cpp:148] Top shape: 24 64 56 56 (4816896)
I0403 16:00:03.637997 16601 net.cpp:156] Memory required for data: 226395168
I0403 16:00:03.638017 16601 layer_factory.hpp:77] Creating layer conv2/relu_3x3_reduce
I0403 16:00:03.638036 16601 net.cpp:91] Creating Layer conv2/relu_3x3_reduce
I0403 16:00:03.638051 16601 net.cpp:425] conv2/relu_3x3_reduce <- conv2/3x3_reduce
I0403 16:00:03.638067 16601 net.cpp:386] conv2/relu_3x3_reduce -> conv2/3x3_reduce (in-place)
I0403 16:00:03.638314 16601 net.cpp:141] Setting up conv2/relu_3x3_reduce
I0403 16:00:03.638339 16601 net.cpp:148] Top shape: 24 64 56 56 (4816896)
I0403 16:00:03.638353 16601 net.cpp:156] Memory required for data: 245662752
I0403 16:00:03.638367 16601 layer_factory.hpp:77] Creating layer conv2/3x3
I0403 16:00:03.638389 16601 net.cpp:91] Creating Layer conv2/3x3
I0403 16:00:03.638406 16601 net.cpp:425] conv2/3x3 <- conv2/3x3_reduce
I0403 16:00:03.638424 16601 net.cpp:399] conv2/3x3 -> conv2/3x3
I0403 16:00:03.640687 16601 net.cpp:141] Setting up conv2/3x3
I0403 16:00:03.640717 16601 net.cpp:148] Top shape: 24 192 56 56 (14450688)
I0403 16:00:03.640733 16601 net.cpp:156] Memory required for data: 303465504
I0403 16:00:03.640756 16601 layer_factory.hpp:77] Creating layer conv2/relu_3x3
I0403 16:00:03.640775 16601 net.cpp:91] Creating Layer conv2/relu_3x3
I0403 16:00:03.640791 16601 net.cpp:425] conv2/relu_3x3 <- conv2/3x3
I0403 16:00:03.640808 16601 net.cpp:386] conv2/relu_3x3 -> conv2/3x3 (in-place)
I0403 16:00:03.640985 16601 net.cpp:141] Setting up conv2/relu_3x3
I0403 16:00:03.641012 16601 net.cpp:148] Top shape: 24 192 56 56 (14450688)
I0403 16:00:03.641060 16601 net.cpp:156] Memory required for data: 361268256
I0403 16:00:03.641075 16601 layer_factory.hpp:77] Creating layer conv2/norm2
I0403 16:00:03.641093 16601 net.cpp:91] Creating Layer conv2/norm2
I0403 16:00:03.641108 16601 net.cpp:425] conv2/norm2 <- conv2/3x3
I0403 16:00:03.641127 16601 net.cpp:399] conv2/norm2 -> conv2/norm2
I0403 16:00:03.641432 16601 net.cpp:141] Setting up conv2/norm2
I0403 16:00:03.641458 16601 net.cpp:148] Top shape: 24 192 56 56 (14450688)
I0403 16:00:03.641474 16601 net.cpp:156] Memory required for data: 419071008
I0403 16:00:03.641489 16601 layer_factory.hpp:77] Creating layer pool2/3x3_s2
I0403 16:00:03.641505 16601 net.cpp:91] Creating Layer pool2/3x3_s2
I0403 16:00:03.641525 16601 net.cpp:425] pool2/3x3_s2 <- conv2/norm2
I0403 16:00:03.641544 16601 net.cpp:399] pool2/3x3_s2 -> pool2/3x3_s2
I0403 16:00:03.641605 16601 net.cpp:141] Setting up pool2/3x3_s2
I0403 16:00:03.641629 16601 net.cpp:148] Top shape: 24 192 28 28 (3612672)
I0403 16:00:03.641644 16601 net.cpp:156] Memory required for data: 433521696
I0403 16:00:03.641659 16601 layer_factory.hpp:77] Creating layer pool2/3x3_s2_pool2/3x3_s2_0_split
I0403 16:00:03.641675 16601 net.cpp:91] Creating Layer pool2/3x3_s2_pool2/3x3_s2_0_split
I0403 16:00:03.641690 16601 net.cpp:425] pool2/3x3_s2_pool2/3x3_s2_0_split <- pool2/3x3_s2
I0403 16:00:03.641710 16601 net.cpp:399] pool2/3x3_s2_pool2/3x3_s2_0_split -> pool2/3x3_s2_pool2/3x3_s2_0_split_0
I0403 16:00:03.641729 16601 net.cpp:399] pool2/3x3_s2_pool2/3x3_s2_0_split -> pool2/3x3_s2_pool2/3x3_s2_0_split_1
I0403 16:00:03.641749 16601 net.cpp:399] pool2/3x3_s2_pool2/3x3_s2_0_split -> pool2/3x3_s2_pool2/3x3_s2_0_split_2
I0403 16:00:03.641769 16601 net.cpp:399] pool2/3x3_s2_pool2/3x3_s2_0_split -> pool2/3x3_s2_pool2/3x3_s2_0_split_3
I0403 16:00:03.641840 16601 net.cpp:141] Setting up pool2/3x3_s2_pool2/3x3_s2_0_split
I0403 16:00:03.641863 16601 net.cpp:148] Top shape: 24 192 28 28 (3612672)
I0403 16:00:03.641880 16601 net.cpp:148] Top shape: 24 192 28 28 (3612672)
I0403 16:00:03.641894 16601 net.cpp:148] Top shape: 24 192 28 28 (3612672)
I0403 16:00:03.641909 16601 net.cpp:148] Top shape: 24 192 28 28 (3612672)
I0403 16:00:03.641922 16601 net.cpp:156] Memory required for data: 491324448
I0403 16:00:03.641937 16601 layer_factory.hpp:77] Creating layer inception_3a/1x1
I0403 16:00:03.641960 16601 net.cpp:91] Creating Layer inception_3a/1x1
I0403 16:00:03.641976 16601 net.cpp:425] inception_3a/1x1 <- pool2/3x3_s2_pool2/3x3_s2_0_split_0
I0403 16:00:03.641995 16601 net.cpp:399] inception_3a/1x1 -> inception_3a/1x1
I0403 16:00:03.643532 16601 net.cpp:141] Setting up inception_3a/1x1
I0403 16:00:03.643560 16601 net.cpp:148] Top shape: 24 64 28 28 (1204224)
I0403 16:00:03.643580 16601 net.cpp:156] Memory required for data: 496141344
I0403 16:00:03.643599 16601 layer_factory.hpp:77] Creating layer inception_3a/relu_1x1
I0403 16:00:03.643620 16601 net.cpp:91] Creating Layer inception_3a/relu_1x1
I0403 16:00:03.643636 16601 net.cpp:425] inception_3a/relu_1x1 <- inception_3a/1x1
I0403 16:00:03.643653 16601 net.cpp:386] inception_3a/relu_1x1 -> inception_3a/1x1 (in-place)
I0403 16:00:03.643823 16601 net.cpp:141] Setting up inception_3a/relu_1x1
I0403 16:00:03.643851 16601 net.cpp:148] Top shape: 24 64 28 28 (1204224)
I0403 16:00:03.643865 16601 net.cpp:156] Memory required for data: 500958240
I0403 16:00:03.643880 16601 layer_factory.hpp:77] Creating layer inception_3a/3x3_reduce
I0403 16:00:03.643901 16601 net.cpp:91] Creating Layer inception_3a/3x3_reduce
I0403 16:00:03.643918 16601 net.cpp:425] inception_3a/3x3_reduce <- pool2/3x3_s2_pool2/3x3_s2_0_split_1
I0403 16:00:03.643937 16601 net.cpp:399] inception_3a/3x3_reduce -> inception_3a/3x3_reduce
I0403 16:00:03.645619 16601 net.cpp:141] Setting up inception_3a/3x3_reduce
I0403 16:00:03.645648 16601 net.cpp:148] Top shape: 24 96 28 28 (1806336)
I0403 16:00:03.645664 16601 net.cpp:156] Memory required for data: 508183584
I0403 16:00:03.645687 16601 layer_factory.hpp:77] Creating layer inception_3a/relu_3x3_reduce
I0403 16:00:03.645722 16601 net.cpp:91] Creating Layer inception_3a/relu_3x3_reduce
I0403 16:00:03.645740 16601 net.cpp:425] inception_3a/relu_3x3_reduce <- inception_3a/3x3_reduce
I0403 16:00:03.645756 16601 net.cpp:386] inception_3a/relu_3x3_reduce -> inception_3a/3x3_reduce (in-place)
I0403 16:00:03.645939 16601 net.cpp:141] Setting up inception_3a/relu_3x3_reduce
I0403 16:00:03.645964 16601 net.cpp:148] Top shape: 24 96 28 28 (1806336)
I0403 16:00:03.645979 16601 net.cpp:156] Memory required for data: 515408928
I0403 16:00:03.645993 16601 layer_factory.hpp:77] Creating layer inception_3a/3x3
I0403 16:00:03.646016 16601 net.cpp:91] Creating Layer inception_3a/3x3
I0403 16:00:03.646034 16601 net.cpp:425] inception_3a/3x3 <- inception_3a/3x3_reduce
I0403 16:00:03.646054 16601 net.cpp:399] inception_3a/3x3 -> inception_3a/3x3
I0403 16:00:03.647666 16601 net.cpp:141] Setting up inception_3a/3x3
I0403 16:00:03.647693 16601 net.cpp:148] Top shape: 24 128 28 28 (2408448)
I0403 16:00:03.647709 16601 net.cpp:156] Memory required for data: 525042720
I0403 16:00:03.647727 16601 layer_factory.hpp:77] Creating layer inception_3a/relu_3x3
I0403 16:00:03.647745 16601 net.cpp:91] Creating Layer inception_3a/relu_3x3
I0403 16:00:03.647761 16601 net.cpp:425] inception_3a/relu_3x3 <- inception_3a/3x3
I0403 16:00:03.647778 16601 net.cpp:386] inception_3a/relu_3x3 -> inception_3a/3x3 (in-place)
I0403 16:00:03.648041 16601 net.cpp:141] Setting up inception_3a/relu_3x3
I0403 16:00:03.648067 16601 net.cpp:148] Top shape: 24 128 28 28 (2408448)
I0403 16:00:03.648082 16601 net.cpp:156] Memory required for data: 534676512
I0403 16:00:03.648095 16601 layer_factory.hpp:77] Creating layer inception_3a/5x5_reduce
I0403 16:00:03.648119 16601 net.cpp:91] Creating Layer inception_3a/5x5_reduce
I0403 16:00:03.648135 16601 net.cpp:425] inception_3a/5x5_reduce <- pool2/3x3_s2_pool2/3x3_s2_0_split_2
I0403 16:00:03.648154 16601 net.cpp:399] inception_3a/5x5_reduce -> inception_3a/5x5_reduce
I0403 16:00:03.649080 16601 net.cpp:141] Setting up inception_3a/5x5_reduce
I0403 16:00:03.649106 16601 net.cpp:148] Top shape: 24 16 28 28 (301056)
I0403 16:00:03.649121 16601 net.cpp:156] Memory required for data: 535880736
I0403 16:00:03.649142 16601 layer_factory.hpp:77] Creating layer inception_3a/relu_5x5_reduce
I0403 16:00:03.649158 16601 net.cpp:91] Creating Layer inception_3a/relu_5x5_reduce
I0403 16:00:03.649174 16601 net.cpp:425] inception_3a/relu_5x5_reduce <- inception_3a/5x5_reduce
I0403 16:00:03.649191 16601 net.cpp:386] inception_3a/relu_5x5_reduce -> inception_3a/5x5_reduce (in-place)
I0403 16:00:03.649489 16601 net.cpp:141] Setting up inception_3a/relu_5x5_reduce
I0403 16:00:03.649518 16601 net.cpp:148] Top shape: 24 16 28 28 (301056)
I0403 16:00:03.649533 16601 net.cpp:156] Memory required for data: 537084960
I0403 16:00:03.649547 16601 layer_factory.hpp:77] Creating layer inception_3a/5x5
I0403 16:00:03.649586 16601 net.cpp:91] Creating Layer inception_3a/5x5
I0403 16:00:03.649605 16601 net.cpp:425] inception_3a/5x5 <- inception_3a/5x5_reduce
I0403 16:00:03.649622 16601 net.cpp:399] inception_3a/5x5 -> inception_3a/5x5
I0403 16:00:03.650593 16601 net.cpp:141] Setting up inception_3a/5x5
I0403 16:00:03.650619 16601 net.cpp:148] Top shape: 24 32 28 28 (602112)
I0403 16:00:03.650634 16601 net.cpp:156] Memory required for data: 539493408
I0403 16:00:03.650650 16601 layer_factory.hpp:77] Creating layer inception_3a/relu_5x5
I0403 16:00:03.650671 16601 net.cpp:91] Creating Layer inception_3a/relu_5x5
I0403 16:00:03.650686 16601 net.cpp:425] inception_3a/relu_5x5 <- inception_3a/5x5
I0403 16:00:03.650703 16601 net.cpp:386] inception_3a/relu_5x5 -> inception_3a/5x5 (in-place)
I0403 16:00:03.650867 16601 net.cpp:141] Setting up inception_3a/relu_5x5
I0403 16:00:03.650894 16601 net.cpp:148] Top shape: 24 32 28 28 (602112)
I0403 16:00:03.650908 16601 net.cpp:156] Memory required for data: 541901856
I0403 16:00:03.650923 16601 layer_factory.hpp:77] Creating layer inception_3a/pool
I0403 16:00:03.650939 16601 net.cpp:91] Creating Layer inception_3a/pool
I0403 16:00:03.650969 16601 net.cpp:425] inception_3a/pool <- pool2/3x3_s2_pool2/3x3_s2_0_split_3
I0403 16:00:03.650986 16601 net.cpp:399] inception_3a/pool -> inception_3a/pool
I0403 16:00:03.651042 16601 net.cpp:141] Setting up inception_3a/pool
I0403 16:00:03.651064 16601 net.cpp:148] Top shape: 24 192 28 28 (3612672)
I0403 16:00:03.651077 16601 net.cpp:156] Memory required for data: 556352544
I0403 16:00:03.651093 16601 layer_factory.hpp:77] Creating layer inception_3a/pool_proj
I0403 16:00:03.651113 16601 net.cpp:91] Creating Layer inception_3a/pool_proj
I0403 16:00:03.651129 16601 net.cpp:425] inception_3a/pool_proj <- inception_3a/pool
I0403 16:00:03.651154 16601 net.cpp:399] inception_3a/pool_proj -> inception_3a/pool_proj
I0403 16:00:03.652082 16601 net.cpp:141] Setting up inception_3a/pool_proj
I0403 16:00:03.652109 16601 net.cpp:148] Top shape: 24 32 28 28 (602112)
I0403 16:00:03.652123 16601 net.cpp:156] Memory required for data: 558760992
I0403 16:00:03.652146 16601 layer_factory.hpp:77] Creating layer inception_3a/relu_pool_proj
I0403 16:00:03.652164 16601 net.cpp:91] Creating Layer inception_3a/relu_pool_proj
I0403 16:00:03.652180 16601 net.cpp:425] inception_3a/relu_pool_proj <- inception_3a/pool_proj
I0403 16:00:03.652199 16601 net.cpp:386] inception_3a/relu_pool_proj -> inception_3a/pool_proj (in-place)
I0403 16:00:03.652462 16601 net.cpp:141] Setting up inception_3a/relu_pool_proj
I0403 16:00:03.652487 16601 net.cpp:148] Top shape: 24 32 28 28 (602112)
I0403 16:00:03.652500 16601 net.cpp:156] Memory required for data: 561169440
I0403 16:00:03.652514 16601 layer_factory.hpp:77] Creating layer inception_3a/output
I0403 16:00:03.652534 16601 net.cpp:91] Creating Layer inception_3a/output
I0403 16:00:03.652550 16601 net.cpp:425] inception_3a/output <- inception_3a/1x1
I0403 16:00:03.652566 16601 net.cpp:425] inception_3a/output <- inception_3a/3x3
I0403 16:00:03.652587 16601 net.cpp:425] inception_3a/output <- inception_3a/5x5
I0403 16:00:03.652603 16601 net.cpp:425] inception_3a/output <- inception_3a/pool_proj
I0403 16:00:03.652619 16601 net.cpp:399] inception_3a/output -> inception_3a/output
I0403 16:00:03.652664 16601 net.cpp:141] Setting up inception_3a/output
I0403 16:00:03.652685 16601 net.cpp:148] Top shape: 24 256 28 28 (4816896)
I0403 16:00:03.652699 16601 net.cpp:156] Memory required for data: 580437024
I0403 16:00:03.652712 16601 layer_factory.hpp:77] Creating layer inception_3a/output_inception_3a/output_0_split
I0403 16:00:03.652729 16601 net.cpp:91] Creating Layer inception_3a/output_inception_3a/output_0_split
I0403 16:00:03.652743 16601 net.cpp:425] inception_3a/output_inception_3a/output_0_split <- inception_3a/output
I0403 16:00:03.652761 16601 net.cpp:399] inception_3a/output_inception_3a/output_0_split -> inception_3a/output_inception_3a/output_0_split_0
I0403 16:00:03.652781 16601 net.cpp:399] inception_3a/output_inception_3a/output_0_split -> inception_3a/output_inception_3a/output_0_split_1
I0403 16:00:03.652804 16601 net.cpp:399] inception_3a/output_inception_3a/output_0_split -> inception_3a/output_inception_3a/output_0_split_2
I0403 16:00:03.652825 16601 net.cpp:399] inception_3a/output_inception_3a/output_0_split -> inception_3a/output_inception_3a/output_0_split_3
I0403 16:00:03.652895 16601 net.cpp:141] Setting up inception_3a/output_inception_3a/output_0_split
I0403 16:00:03.652916 16601 net.cpp:148] Top shape: 24 256 28 28 (4816896)
I0403 16:00:03.652932 16601 net.cpp:148] Top shape: 24 256 28 28 (4816896)
I0403 16:00:03.652946 16601 net.cpp:148] Top shape: 24 256 28 28 (4816896)
I0403 16:00:03.652961 16601 net.cpp:148] Top shape: 24 256 28 28 (4816896)
I0403 16:00:03.652974 16601 net.cpp:156] Memory required for data: 657507360
I0403 16:00:03.652988 16601 layer_factory.hpp:77] Creating layer inception_3b/1x1
I0403 16:00:03.653009 16601 net.cpp:91] Creating Layer inception_3b/1x1
I0403 16:00:03.653025 16601 net.cpp:425] inception_3b/1x1 <- inception_3a/output_inception_3a/output_0_split_0
I0403 16:00:03.653045 16601 net.cpp:399] inception_3b/1x1 -> inception_3b/1x1
I0403 16:00:03.654135 16601 net.cpp:141] Setting up inception_3b/1x1
I0403 16:00:03.654173 16601 net.cpp:148] Top shape: 24 128 28 28 (2408448)
I0403 16:00:03.654189 16601 net.cpp:156] Memory required for data: 667141152
I0403 16:00:03.654208 16601 layer_factory.hpp:77] Creating layer inception_3b/relu_1x1
I0403 16:00:03.654229 16601 net.cpp:91] Creating Layer inception_3b/relu_1x1
I0403 16:00:03.654245 16601 net.cpp:425] inception_3b/relu_1x1 <- inception_3b/1x1
I0403 16:00:03.654263 16601 net.cpp:386] inception_3b/relu_1x1 -> inception_3b/1x1 (in-place)
I0403 16:00:03.654429 16601 net.cpp:141] Setting up inception_3b/relu_1x1
I0403 16:00:03.654453 16601 net.cpp:148] Top shape: 24 128 28 28 (2408448)
I0403 16:00:03.654466 16601 net.cpp:156] Memory required for data: 676774944
I0403 16:00:03.654480 16601 layer_factory.hpp:77] Creating layer inception_3b/3x3_reduce
I0403 16:00:03.654506 16601 net.cpp:91] Creating Layer inception_3b/3x3_reduce
I0403 16:00:03.654523 16601 net.cpp:425] inception_3b/3x3_reduce <- inception_3a/output_inception_3a/output_0_split_1
I0403 16:00:03.654542 16601 net.cpp:399] inception_3b/3x3_reduce -> inception_3b/3x3_reduce
I0403 16:00:03.655650 16601 net.cpp:141] Setting up inception_3b/3x3_reduce
I0403 16:00:03.655678 16601 net.cpp:148] Top shape: 24 128 28 28 (2408448)
I0403 16:00:03.655692 16601 net.cpp:156] Memory required for data: 686408736
I0403 16:00:03.655709 16601 layer_factory.hpp:77] Creating layer inception_3b/relu_3x3_reduce
I0403 16:00:03.655730 16601 net.cpp:91] Creating Layer inception_3b/relu_3x3_reduce
I0403 16:00:03.655746 16601 net.cpp:425] inception_3b/relu_3x3_reduce <- inception_3b/3x3_reduce
I0403 16:00:03.655762 16601 net.cpp:386] inception_3b/relu_3x3_reduce -> inception_3b/3x3_reduce (in-place)
I0403 16:00:03.655928 16601 net.cpp:141] Setting up inception_3b/relu_3x3_reduce
I0403 16:00:03.655952 16601 net.cpp:148] Top shape: 24 128 28 28 (2408448)
I0403 16:00:03.655969 16601 net.cpp:156] Memory required for data: 696042528
I0403 16:00:03.655982 16601 layer_factory.hpp:77] Creating layer inception_3b/3x3
I0403 16:00:03.656007 16601 net.cpp:91] Creating Layer inception_3b/3x3
I0403 16:00:03.656023 16601 net.cpp:425] inception_3b/3x3 <- inception_3b/3x3_reduce
I0403 16:00:03.656044 16601 net.cpp:399] inception_3b/3x3 -> inception_3b/3x3
I0403 16:00:03.658859 16601 net.cpp:141] Setting up inception_3b/3x3
I0403 16:00:03.658886 16601 net.cpp:148] Top shape: 24 192 28 28 (3612672)
I0403 16:00:03.658902 16601 net.cpp:156] Memory required for data: 710493216
I0403 16:00:03.658920 16601 layer_factory.hpp:77] Creating layer inception_3b/relu_3x3
I0403 16:00:03.658939 16601 net.cpp:91] Creating Layer inception_3b/relu_3x3
I0403 16:00:03.658956 16601 net.cpp:425] inception_3b/relu_3x3 <- inception_3b/3x3
I0403 16:00:03.658973 16601 net.cpp:386] inception_3b/relu_3x3 -> inception_3b/3x3 (in-place)
I0403 16:00:03.659240 16601 net.cpp:141] Setting up inception_3b/relu_3x3
I0403 16:00:03.659266 16601 net.cpp:148] Top shape: 24 192 28 28 (3612672)
I0403 16:00:03.659281 16601 net.cpp:156] Memory required for data: 724943904
I0403 16:00:03.659294 16601 layer_factory.hpp:77] Creating layer inception_3b/5x5_reduce
I0403 16:00:03.659318 16601 net.cpp:91] Creating Layer inception_3b/5x5_reduce
I0403 16:00:03.659335 16601 net.cpp:425] inception_3b/5x5_reduce <- inception_3a/output_inception_3a/output_0_split_2
I0403 16:00:03.659354 16601 net.cpp:399] inception_3b/5x5_reduce -> inception_3b/5x5_reduce
I0403 16:00:03.660317 16601 net.cpp:141] Setting up inception_3b/5x5_reduce
I0403 16:00:03.660344 16601 net.cpp:148] Top shape: 24 32 28 28 (602112)
I0403 16:00:03.660359 16601 net.cpp:156] Memory required for data: 727352352
I0403 16:00:03.660377 16601 layer_factory.hpp:77] Creating layer inception_3b/relu_5x5_reduce
I0403 16:00:03.660397 16601 net.cpp:91] Creating Layer inception_3b/relu_5x5_reduce
I0403 16:00:03.660413 16601 net.cpp:425] inception_3b/relu_5x5_reduce <- inception_3b/5x5_reduce
I0403 16:00:03.660429 16601 net.cpp:386] inception_3b/relu_5x5_reduce -> inception_3b/5x5_reduce (in-place)
I0403 16:00:03.660616 16601 net.cpp:141] Setting up inception_3b/relu_5x5_reduce
I0403 16:00:03.660642 16601 net.cpp:148] Top shape: 24 32 28 28 (602112)
I0403 16:00:03.660657 16601 net.cpp:156] Memory required for data: 729760800
I0403 16:00:03.660672 16601 layer_factory.hpp:77] Creating layer inception_3b/5x5
I0403 16:00:03.660693 16601 net.cpp:91] Creating Layer inception_3b/5x5
I0403 16:00:03.660711 16601 net.cpp:425] inception_3b/5x5 <- inception_3b/5x5_reduce
I0403 16:00:03.660728 16601 net.cpp:399] inception_3b/5x5 -> inception_3b/5x5
I0403 16:00:03.662642 16601 net.cpp:141] Setting up inception_3b/5x5
I0403 16:00:03.662670 16601 net.cpp:148] Top shape: 24 96 28 28 (1806336)
I0403 16:00:03.662685 16601 net.cpp:156] Memory required for data: 736986144
I0403 16:00:03.662703 16601 layer_factory.hpp:77] Creating layer inception_3b/relu_5x5
I0403 16:00:03.662719 16601 net.cpp:91] Creating Layer inception_3b/relu_5x5
I0403 16:00:03.662735 16601 net.cpp:425] inception_3b/relu_5x5 <- inception_3b/5x5
I0403 16:00:03.662753 16601 net.cpp:386] inception_3b/relu_5x5 -> inception_3b/5x5 (in-place)
I0403 16:00:03.662938 16601 net.cpp:141] Setting up inception_3b/relu_5x5
I0403 16:00:03.662962 16601 net.cpp:148] Top shape: 24 96 28 28 (1806336)
I0403 16:00:03.662976 16601 net.cpp:156] Memory required for data: 744211488
I0403 16:00:03.662991 16601 layer_factory.hpp:77] Creating layer inception_3b/pool
I0403 16:00:03.663008 16601 net.cpp:91] Creating Layer inception_3b/pool
I0403 16:00:03.663023 16601 net.cpp:425] inception_3b/pool <- inception_3a/output_inception_3a/output_0_split_3
I0403 16:00:03.663040 16601 net.cpp:399] inception_3b/pool -> inception_3b/pool
I0403 16:00:03.663094 16601 net.cpp:141] Setting up inception_3b/pool
I0403 16:00:03.663115 16601 net.cpp:148] Top shape: 24 256 28 28 (4816896)
I0403 16:00:03.663130 16601 net.cpp:156] Memory required for data: 763479072
I0403 16:00:03.663143 16601 layer_factory.hpp:77] Creating layer inception_3b/pool_proj
I0403 16:00:03.663164 16601 net.cpp:91] Creating Layer inception_3b/pool_proj
I0403 16:00:03.663180 16601 net.cpp:425] inception_3b/pool_proj <- inception_3b/pool
I0403 16:00:03.663199 16601 net.cpp:399] inception_3b/pool_proj -> inception_3b/pool_proj
I0403 16:00:03.664203 16601 net.cpp:141] Setting up inception_3b/pool_proj
I0403 16:00:03.664232 16601 net.cpp:148] Top shape: 24 64 28 28 (1204224)
I0403 16:00:03.664247 16601 net.cpp:156] Memory required for data: 768295968
I0403 16:00:03.664264 16601 layer_factory.hpp:77] Creating layer inception_3b/relu_pool_proj
I0403 16:00:03.664281 16601 net.cpp:91] Creating Layer inception_3b/relu_pool_proj
I0403 16:00:03.664296 16601 net.cpp:425] inception_3b/relu_pool_proj <- inception_3b/pool_proj
I0403 16:00:03.664315 16601 net.cpp:386] inception_3b/relu_pool_proj -> inception_3b/pool_proj (in-place)
I0403 16:00:03.664698 16601 net.cpp:141] Setting up inception_3b/relu_pool_proj
I0403 16:00:03.664726 16601 net.cpp:148] Top shape: 24 64 28 28 (1204224)
I0403 16:00:03.664741 16601 net.cpp:156] Memory required for data: 773112864
I0403 16:00:03.664755 16601 layer_factory.hpp:77] Creating layer inception_3b/output
I0403 16:00:03.664772 16601 net.cpp:91] Creating Layer inception_3b/output
I0403 16:00:03.664788 16601 net.cpp:425] inception_3b/output <- inception_3b/1x1
I0403 16:00:03.664803 16601 net.cpp:425] inception_3b/output <- inception_3b/3x3
I0403 16:00:03.664819 16601 net.cpp:425] inception_3b/output <- inception_3b/5x5
I0403 16:00:03.664834 16601 net.cpp:425] inception_3b/output <- inception_3b/pool_proj
I0403 16:00:03.664849 16601 net.cpp:399] inception_3b/output -> inception_3b/output
I0403 16:00:03.664893 16601 net.cpp:141] Setting up inception_3b/output
I0403 16:00:03.664914 16601 net.cpp:148] Top shape: 24 480 28 28 (9031680)
I0403 16:00:03.664928 16601 net.cpp:156] Memory required for data: 809239584
I0403 16:00:03.664942 16601 layer_factory.hpp:77] Creating layer pool3/3x3_s2
I0403 16:00:03.664961 16601 net.cpp:91] Creating Layer pool3/3x3_s2
I0403 16:00:03.664976 16601 net.cpp:425] pool3/3x3_s2 <- inception_3b/output
I0403 16:00:03.665009 16601 net.cpp:399] pool3/3x3_s2 -> pool3/3x3_s2
I0403 16:00:03.665066 16601 net.cpp:141] Setting up pool3/3x3_s2
I0403 16:00:03.665088 16601 net.cpp:148] Top shape: 24 480 14 14 (2257920)
I0403 16:00:03.665102 16601 net.cpp:156] Memory required for data: 818271264
I0403 16:00:03.665117 16601 layer_factory.hpp:77] Creating layer pool3/3x3_s2_pool3/3x3_s2_0_split
I0403 16:00:03.665132 16601 net.cpp:91] Creating Layer pool3/3x3_s2_pool3/3x3_s2_0_split
I0403 16:00:03.665146 16601 net.cpp:425] pool3/3x3_s2_pool3/3x3_s2_0_split <- pool3/3x3_s2
I0403 16:00:03.665164 16601 net.cpp:399] pool3/3x3_s2_pool3/3x3_s2_0_split -> pool3/3x3_s2_pool3/3x3_s2_0_split_0
I0403 16:00:03.665184 16601 net.cpp:399] pool3/3x3_s2_pool3/3x3_s2_0_split -> pool3/3x3_s2_pool3/3x3_s2_0_split_1
I0403 16:00:03.665202 16601 net.cpp:399] pool3/3x3_s2_pool3/3x3_s2_0_split -> pool3/3x3_s2_pool3/3x3_s2_0_split_2
I0403 16:00:03.665221 16601 net.cpp:399] pool3/3x3_s2_pool3/3x3_s2_0_split -> pool3/3x3_s2_pool3/3x3_s2_0_split_3
I0403 16:00:03.665293 16601 net.cpp:141] Setting up pool3/3x3_s2_pool3/3x3_s2_0_split
I0403 16:00:03.665318 16601 net.cpp:148] Top shape: 24 480 14 14 (2257920)
I0403 16:00:03.665333 16601 net.cpp:148] Top shape: 24 480 14 14 (2257920)
I0403 16:00:03.665349 16601 net.cpp:148] Top shape: 24 480 14 14 (2257920)
I0403 16:00:03.665362 16601 net.cpp:148] Top shape: 24 480 14 14 (2257920)
I0403 16:00:03.665375 16601 net.cpp:156] Memory required for data: 854397984
I0403 16:00:03.665390 16601 layer_factory.hpp:77] Creating layer inception_4a/1x1
I0403 16:00:03.665410 16601 net.cpp:91] Creating Layer inception_4a/1x1
I0403 16:00:03.665426 16601 net.cpp:425] inception_4a/1x1 <- pool3/3x3_s2_pool3/3x3_s2_0_split_0
I0403 16:00:03.665444 16601 net.cpp:399] inception_4a/1x1 -> inception_4a/1x1
I0403 16:00:03.666955 16601 net.cpp:141] Setting up inception_4a/1x1
I0403 16:00:03.666981 16601 net.cpp:148] Top shape: 24 192 14 14 (903168)
I0403 16:00:03.666996 16601 net.cpp:156] Memory required for data: 858010656
I0403 16:00:03.667013 16601 layer_factory.hpp:77] Creating layer inception_4a/relu_1x1
I0403 16:00:03.667032 16601 net.cpp:91] Creating Layer inception_4a/relu_1x1
I0403 16:00:03.667047 16601 net.cpp:425] inception_4a/relu_1x1 <- inception_4a/1x1
I0403 16:00:03.667064 16601 net.cpp:386] inception_4a/relu_1x1 -> inception_4a/1x1 (in-place)
I0403 16:00:03.667232 16601 net.cpp:141] Setting up inception_4a/relu_1x1
I0403 16:00:03.667255 16601 net.cpp:148] Top shape: 24 192 14 14 (903168)
I0403 16:00:03.667269 16601 net.cpp:156] Memory required for data: 861623328
I0403 16:00:03.667284 16601 layer_factory.hpp:77] Creating layer inception_4a/3x3_reduce
I0403 16:00:03.667304 16601 net.cpp:91] Creating Layer inception_4a/3x3_reduce
I0403 16:00:03.667320 16601 net.cpp:425] inception_4a/3x3_reduce <- pool3/3x3_s2_pool3/3x3_s2_0_split_1
I0403 16:00:03.667340 16601 net.cpp:399] inception_4a/3x3_reduce -> inception_4a/3x3_reduce
I0403 16:00:03.668558 16601 net.cpp:141] Setting up inception_4a/3x3_reduce
I0403 16:00:03.668591 16601 net.cpp:148] Top shape: 24 96 14 14 (451584)
I0403 16:00:03.668607 16601 net.cpp:156] Memory required for data: 863429664
I0403 16:00:03.668632 16601 layer_factory.hpp:77] Creating layer inception_4a/relu_3x3_reduce
I0403 16:00:03.668649 16601 net.cpp:91] Creating Layer inception_4a/relu_3x3_reduce
I0403 16:00:03.668665 16601 net.cpp:425] inception_4a/relu_3x3_reduce <- inception_4a/3x3_reduce
I0403 16:00:03.668681 16601 net.cpp:386] inception_4a/relu_3x3_reduce -> inception_4a/3x3_reduce (in-place)
I0403 16:00:03.668855 16601 net.cpp:141] Setting up inception_4a/relu_3x3_reduce
I0403 16:00:03.668879 16601 net.cpp:148] Top shape: 24 96 14 14 (451584)
I0403 16:00:03.668894 16601 net.cpp:156] Memory required for data: 865236000
I0403 16:00:03.668907 16601 layer_factory.hpp:77] Creating layer inception_4a/3x3
I0403 16:00:03.668928 16601 net.cpp:91] Creating Layer inception_4a/3x3
I0403 16:00:03.668946 16601 net.cpp:425] inception_4a/3x3 <- inception_4a/3x3_reduce
I0403 16:00:03.668965 16601 net.cpp:399] inception_4a/3x3 -> inception_4a/3x3
I0403 16:00:03.671571 16601 net.cpp:141] Setting up inception_4a/3x3
I0403 16:00:03.671600 16601 net.cpp:148] Top shape: 24 208 14 14 (978432)
I0403 16:00:03.671627 16601 net.cpp:156] Memory required for data: 869149728
I0403 16:00:03.671643 16601 layer_factory.hpp:77] Creating layer inception_4a/relu_3x3
I0403 16:00:03.671664 16601 net.cpp:91] Creating Layer inception_4a/relu_3x3
I0403 16:00:03.671680 16601 net.cpp:425] inception_4a/relu_3x3 <- inception_4a/3x3
I0403 16:00:03.671697 16601 net.cpp:386] inception_4a/relu_3x3 -> inception_4a/3x3 (in-place)
I0403 16:00:03.671967 16601 net.cpp:141] Setting up inception_4a/relu_3x3
I0403 16:00:03.671993 16601 net.cpp:148] Top shape: 24 208 14 14 (978432)
I0403 16:00:03.672006 16601 net.cpp:156] Memory required for data: 873063456
I0403 16:00:03.672020 16601 layer_factory.hpp:77] Creating layer inception_4a/5x5_reduce
I0403 16:00:03.672042 16601 net.cpp:91] Creating Layer inception_4a/5x5_reduce
I0403 16:00:03.672060 16601 net.cpp:425] inception_4a/5x5_reduce <- pool3/3x3_s2_pool3/3x3_s2_0_split_2
I0403 16:00:03.672080 16601 net.cpp:399] inception_4a/5x5_reduce -> inception_4a/5x5_reduce
I0403 16:00:03.673059 16601 net.cpp:141] Setting up inception_4a/5x5_reduce
I0403 16:00:03.673086 16601 net.cpp:148] Top shape: 24 16 14 14 (75264)
I0403 16:00:03.673101 16601 net.cpp:156] Memory required for data: 873364512
I0403 16:00:03.673117 16601 layer_factory.hpp:77] Creating layer inception_4a/relu_5x5_reduce
I0403 16:00:03.673137 16601 net.cpp:91] Creating Layer inception_4a/relu_5x5_reduce
I0403 16:00:03.673154 16601 net.cpp:425] inception_4a/relu_5x5_reduce <- inception_4a/5x5_reduce
I0403 16:00:03.673171 16601 net.cpp:386] inception_4a/relu_5x5_reduce -> inception_4a/5x5_reduce (in-place)
I0403 16:00:03.673337 16601 net.cpp:141] Setting up inception_4a/relu_5x5_reduce
I0403 16:00:03.673365 16601 net.cpp:148] Top shape: 24 16 14 14 (75264)
I0403 16:00:03.673380 16601 net.cpp:156] Memory required for data: 873665568
I0403 16:00:03.673394 16601 layer_factory.hpp:77] Creating layer inception_4a/5x5
I0403 16:00:03.673415 16601 net.cpp:91] Creating Layer inception_4a/5x5
I0403 16:00:03.673431 16601 net.cpp:425] inception_4a/5x5 <- inception_4a/5x5_reduce
I0403 16:00:03.673450 16601 net.cpp:399] inception_4a/5x5 -> inception_4a/5x5
I0403 16:00:03.674494 16601 net.cpp:141] Setting up inception_4a/5x5
I0403 16:00:03.674522 16601 net.cpp:148] Top shape: 24 48 14 14 (225792)
I0403 16:00:03.674537 16601 net.cpp:156] Memory required for data: 874568736
I0403 16:00:03.674554 16601 layer_factory.hpp:77] Creating layer inception_4a/relu_5x5
I0403 16:00:03.674587 16601 net.cpp:91] Creating Layer inception_4a/relu_5x5
I0403 16:00:03.674604 16601 net.cpp:425] inception_4a/relu_5x5 <- inception_4a/5x5
I0403 16:00:03.674624 16601 net.cpp:386] inception_4a/relu_5x5 -> inception_4a/5x5 (in-place)
I0403 16:00:03.674793 16601 net.cpp:141] Setting up inception_4a/relu_5x5
I0403 16:00:03.674818 16601 net.cpp:148] Top shape: 24 48 14 14 (225792)
I0403 16:00:03.674831 16601 net.cpp:156] Memory required for data: 875471904
I0403 16:00:03.674845 16601 layer_factory.hpp:77] Creating layer inception_4a/pool
I0403 16:00:03.674862 16601 net.cpp:91] Creating Layer inception_4a/pool
I0403 16:00:03.674877 16601 net.cpp:425] inception_4a/pool <- pool3/3x3_s2_pool3/3x3_s2_0_split_3
I0403 16:00:03.674896 16601 net.cpp:399] inception_4a/pool -> inception_4a/pool
I0403 16:00:03.674954 16601 net.cpp:141] Setting up inception_4a/pool
I0403 16:00:03.674976 16601 net.cpp:148] Top shape: 24 480 14 14 (2257920)
I0403 16:00:03.674990 16601 net.cpp:156] Memory required for data: 884503584
I0403 16:00:03.675005 16601 layer_factory.hpp:77] Creating layer inception_4a/pool_proj
I0403 16:00:03.675027 16601 net.cpp:91] Creating Layer inception_4a/pool_proj
I0403 16:00:03.675045 16601 net.cpp:425] inception_4a/pool_proj <- inception_4a/pool
I0403 16:00:03.675062 16601 net.cpp:399] inception_4a/pool_proj -> inception_4a/pool_proj
I0403 16:00:03.676203 16601 net.cpp:141] Setting up inception_4a/pool_proj
I0403 16:00:03.676234 16601 net.cpp:148] Top shape: 24 64 14 14 (301056)
I0403 16:00:03.676265 16601 net.cpp:156] Memory required for data: 885707808
I0403 16:00:03.676282 16601 layer_factory.hpp:77] Creating layer inception_4a/relu_pool_proj
I0403 16:00:03.676301 16601 net.cpp:91] Creating Layer inception_4a/relu_pool_proj
I0403 16:00:03.676316 16601 net.cpp:425] inception_4a/relu_pool_proj <- inception_4a/pool_proj
I0403 16:00:03.676337 16601 net.cpp:386] inception_4a/relu_pool_proj -> inception_4a/pool_proj (in-place)
I0403 16:00:03.676607 16601 net.cpp:141] Setting up inception_4a/relu_pool_proj
I0403 16:00:03.676635 16601 net.cpp:148] Top shape: 24 64 14 14 (301056)
I0403 16:00:03.676650 16601 net.cpp:156] Memory required for data: 886912032
I0403 16:00:03.676663 16601 layer_factory.hpp:77] Creating layer inception_4a/output
I0403 16:00:03.676679 16601 net.cpp:91] Creating Layer inception_4a/output
I0403 16:00:03.676693 16601 net.cpp:425] inception_4a/output <- inception_4a/1x1
I0403 16:00:03.676709 16601 net.cpp:425] inception_4a/output <- inception_4a/3x3
I0403 16:00:03.676724 16601 net.cpp:425] inception_4a/output <- inception_4a/5x5
I0403 16:00:03.676739 16601 net.cpp:425] inception_4a/output <- inception_4a/pool_proj
I0403 16:00:03.676758 16601 net.cpp:399] inception_4a/output -> inception_4a/output
I0403 16:00:03.676800 16601 net.cpp:141] Setting up inception_4a/output
I0403 16:00:03.676821 16601 net.cpp:148] Top shape: 24 512 14 14 (2408448)
I0403 16:00:03.676836 16601 net.cpp:156] Memory required for data: 896545824
I0403 16:00:03.676849 16601 layer_factory.hpp:77] Creating layer inception_4a/output_inception_4a/output_0_split
I0403 16:00:03.676869 16601 net.cpp:91] Creating Layer inception_4a/output_inception_4a/output_0_split
I0403 16:00:03.676884 16601 net.cpp:425] inception_4a/output_inception_4a/output_0_split <- inception_4a/output
I0403 16:00:03.676901 16601 net.cpp:399] inception_4a/output_inception_4a/output_0_split -> inception_4a/output_inception_4a/output_0_split_0
I0403 16:00:03.676924 16601 net.cpp:399] inception_4a/output_inception_4a/output_0_split -> inception_4a/output_inception_4a/output_0_split_1
I0403 16:00:03.676944 16601 net.cpp:399] inception_4a/output_inception_4a/output_0_split -> inception_4a/output_inception_4a/output_0_split_2
I0403 16:00:03.676964 16601 net.cpp:399] inception_4a/output_inception_4a/output_0_split -> inception_4a/output_inception_4a/output_0_split_3
I0403 16:00:03.676982 16601 net.cpp:399] inception_4a/output_inception_4a/output_0_split -> inception_4a/output_inception_4a/output_0_split_4
I0403 16:00:03.677070 16601 net.cpp:141] Setting up inception_4a/output_inception_4a/output_0_split
I0403 16:00:03.677093 16601 net.cpp:148] Top shape: 24 512 14 14 (2408448)
I0403 16:00:03.677109 16601 net.cpp:148] Top shape: 24 512 14 14 (2408448)
I0403 16:00:03.677124 16601 net.cpp:148] Top shape: 24 512 14 14 (2408448)
I0403 16:00:03.677139 16601 net.cpp:148] Top shape: 24 512 14 14 (2408448)
I0403 16:00:03.677152 16601 net.cpp:148] Top shape: 24 512 14 14 (2408448)
I0403 16:00:03.677165 16601 net.cpp:156] Memory required for data: 944714784
I0403 16:00:03.677178 16601 layer_factory.hpp:77] Creating layer loss1/ave_pool
I0403 16:00:03.677197 16601 net.cpp:91] Creating Layer loss1/ave_pool
I0403 16:00:03.677213 16601 net.cpp:425] loss1/ave_pool <- inception_4a/output_inception_4a/output_0_split_0
I0403 16:00:03.677230 16601 net.cpp:399] loss1/ave_pool -> loss1/ave_pool
I0403 16:00:03.677423 16601 net.cpp:141] Setting up loss1/ave_pool
I0403 16:00:03.677450 16601 net.cpp:148] Top shape: 24 512 4 4 (196608)
I0403 16:00:03.677464 16601 net.cpp:156] Memory required for data: 945501216
I0403 16:00:03.677479 16601 layer_factory.hpp:77] Creating layer loss1/conv
I0403 16:00:03.677500 16601 net.cpp:91] Creating Layer loss1/conv
I0403 16:00:03.677515 16601 net.cpp:425] loss1/conv <- loss1/ave_pool
I0403 16:00:03.677536 16601 net.cpp:399] loss1/conv -> loss1/conv
I0403 16:00:03.678879 16601 net.cpp:141] Setting up loss1/conv
I0403 16:00:03.678905 16601 net.cpp:148] Top shape: 24 128 4 4 (49152)
I0403 16:00:03.678933 16601 net.cpp:156] Memory required for data: 945697824
I0403 16:00:03.678952 16601 layer_factory.hpp:77] Creating layer loss1/relu_conv
I0403 16:00:03.678972 16601 net.cpp:91] Creating Layer loss1/relu_conv
I0403 16:00:03.678988 16601 net.cpp:425] loss1/relu_conv <- loss1/conv
I0403 16:00:03.679004 16601 net.cpp:386] loss1/relu_conv -> loss1/conv (in-place)
I0403 16:00:03.679276 16601 net.cpp:141] Setting up loss1/relu_conv
I0403 16:00:03.679301 16601 net.cpp:148] Top shape: 24 128 4 4 (49152)
I0403 16:00:03.679316 16601 net.cpp:156] Memory required for data: 945894432
I0403 16:00:03.679330 16601 layer_factory.hpp:77] Creating layer loss1/fc
I0403 16:00:03.679370 16601 net.cpp:91] Creating Layer loss1/fc
I0403 16:00:03.679389 16601 net.cpp:425] loss1/fc <- loss1/conv
I0403 16:00:03.679406 16601 net.cpp:399] loss1/fc -> loss1/fc
I0403 16:00:03.696697 16601 net.cpp:141] Setting up loss1/fc
I0403 16:00:03.696732 16601 net.cpp:148] Top shape: 24 1024 (24576)
I0403 16:00:03.696746 16601 net.cpp:156] Memory required for data: 945992736
I0403 16:00:03.696763 16601 layer_factory.hpp:77] Creating layer loss1/relu_fc
I0403 16:00:03.696780 16601 net.cpp:91] Creating Layer loss1/relu_fc
I0403 16:00:03.696795 16601 net.cpp:425] loss1/relu_fc <- loss1/fc
I0403 16:00:03.696815 16601 net.cpp:386] loss1/relu_fc -> loss1/fc (in-place)
I0403 16:00:03.696991 16601 net.cpp:141] Setting up loss1/relu_fc
I0403 16:00:03.697016 16601 net.cpp:148] Top shape: 24 1024 (24576)
I0403 16:00:03.697031 16601 net.cpp:156] Memory required for data: 946091040
I0403 16:00:03.697044 16601 layer_factory.hpp:77] Creating layer loss1/drop_fc
I0403 16:00:03.697068 16601 net.cpp:91] Creating Layer loss1/drop_fc
I0403 16:00:03.697085 16601 net.cpp:425] loss1/drop_fc <- loss1/fc
I0403 16:00:03.697103 16601 net.cpp:386] loss1/drop_fc -> loss1/fc (in-place)
I0403 16:00:03.697152 16601 net.cpp:141] Setting up loss1/drop_fc
I0403 16:00:03.697177 16601 net.cpp:148] Top shape: 24 1024 (24576)
I0403 16:00:03.697192 16601 net.cpp:156] Memory required for data: 946189344
I0403 16:00:03.697206 16601 layer_factory.hpp:77] Creating layer loss1/classifier_plantvillage
I0403 16:00:03.697224 16601 net.cpp:91] Creating Layer loss1/classifier_plantvillage
I0403 16:00:03.697238 16601 net.cpp:425] loss1/classifier_plantvillage <- loss1/fc
I0403 16:00:03.697258 16601 net.cpp:399] loss1/classifier_plantvillage -> loss1/classifier_plantvillage
I0403 16:00:03.698151 16601 net.cpp:141] Setting up loss1/classifier_plantvillage
I0403 16:00:03.698179 16601 net.cpp:148] Top shape: 24 38 (912)
I0403 16:00:03.698192 16601 net.cpp:156] Memory required for data: 946192992
I0403 16:00:03.698210 16601 layer_factory.hpp:77] Creating layer loss1/classifier_plantvillage_loss1/classifier_plantvillage_0_split
I0403 16:00:03.698226 16601 net.cpp:91] Creating Layer loss1/classifier_plantvillage_loss1/classifier_plantvillage_0_split
I0403 16:00:03.698242 16601 net.cpp:425] loss1/classifier_plantvillage_loss1/classifier_plantvillage_0_split <- loss1/classifier_plantvillage
I0403 16:00:03.698269 16601 net.cpp:399] loss1/classifier_plantvillage_loss1/classifier_plantvillage_0_split -> loss1/classifier_plantvillage_loss1/classifier_plantvillage_0_split_0
I0403 16:00:03.698290 16601 net.cpp:399] loss1/classifier_plantvillage_loss1/classifier_plantvillage_0_split -> loss1/classifier_plantvillage_loss1/classifier_plantvillage_0_split_1
I0403 16:00:03.698310 16601 net.cpp:399] loss1/classifier_plantvillage_loss1/classifier_plantvillage_0_split -> loss1/classifier_plantvillage_loss1/classifier_plantvillage_0_split_2
I0403 16:00:03.698375 16601 net.cpp:141] Setting up loss1/classifier_plantvillage_loss1/classifier_plantvillage_0_split
I0403 16:00:03.698397 16601 net.cpp:148] Top shape: 24 38 (912)
I0403 16:00:03.698412 16601 net.cpp:148] Top shape: 24 38 (912)
I0403 16:00:03.698427 16601 net.cpp:148] Top shape: 24 38 (912)
I0403 16:00:03.698441 16601 net.cpp:156] Memory required for data: 946203936
I0403 16:00:03.698453 16601 layer_factory.hpp:77] Creating layer inception_4b/1x1
I0403 16:00:03.698475 16601 net.cpp:91] Creating Layer inception_4b/1x1
I0403 16:00:03.698508 16601 net.cpp:425] inception_4b/1x1 <- inception_4a/output_inception_4a/output_0_split_1
I0403 16:00:03.698528 16601 net.cpp:399] inception_4b/1x1 -> inception_4b/1x1
I0403 16:00:03.700130 16601 net.cpp:141] Setting up inception_4b/1x1
I0403 16:00:03.700157 16601 net.cpp:148] Top shape: 24 160 14 14 (752640)
I0403 16:00:03.700172 16601 net.cpp:156] Memory required for data: 949214496
I0403 16:00:03.700189 16601 layer_factory.hpp:77] Creating layer inception_4b/relu_1x1
I0403 16:00:03.700208 16601 net.cpp:91] Creating Layer inception_4b/relu_1x1
I0403 16:00:03.700225 16601 net.cpp:425] inception_4b/relu_1x1 <- inception_4b/1x1
I0403 16:00:03.700242 16601 net.cpp:386] inception_4b/relu_1x1 -> inception_4b/1x1 (in-place)
I0403 16:00:03.700412 16601 net.cpp:141] Setting up inception_4b/relu_1x1
I0403 16:00:03.700438 16601 net.cpp:148] Top shape: 24 160 14 14 (752640)
I0403 16:00:03.700451 16601 net.cpp:156] Memory required for data: 952225056
I0403 16:00:03.700465 16601 layer_factory.hpp:77] Creating layer inception_4b/3x3_reduce
I0403 16:00:03.700489 16601 net.cpp:91] Creating Layer inception_4b/3x3_reduce
I0403 16:00:03.700505 16601 net.cpp:425] inception_4b/3x3_reduce <- inception_4a/output_inception_4a/output_0_split_2
I0403 16:00:03.700525 16601 net.cpp:399] inception_4b/3x3_reduce -> inception_4b/3x3_reduce
I0403 16:00:03.701838 16601 net.cpp:141] Setting up inception_4b/3x3_reduce
I0403 16:00:03.701866 16601 net.cpp:148] Top shape: 24 112 14 14 (526848)
I0403 16:00:03.701882 16601 net.cpp:156] Memory required for data: 954332448
I0403 16:00:03.701900 16601 layer_factory.hpp:77] Creating layer inception_4b/relu_3x3_reduce
I0403 16:00:03.701916 16601 net.cpp:91] Creating Layer inception_4b/relu_3x3_reduce
I0403 16:00:03.701931 16601 net.cpp:425] inception_4b/relu_3x3_reduce <- inception_4b/3x3_reduce
I0403 16:00:03.701948 16601 net.cpp:386] inception_4b/relu_3x3_reduce -> inception_4b/3x3_reduce (in-place)
I0403 16:00:03.702225 16601 net.cpp:141] Setting up inception_4b/relu_3x3_reduce
I0403 16:00:03.702252 16601 net.cpp:148] Top shape: 24 112 14 14 (526848)
I0403 16:00:03.702268 16601 net.cpp:156] Memory required for data: 956439840
I0403 16:00:03.702282 16601 layer_factory.hpp:77] Creating layer inception_4b/3x3
I0403 16:00:03.702303 16601 net.cpp:91] Creating Layer inception_4b/3x3
I0403 16:00:03.702321 16601 net.cpp:425] inception_4b/3x3 <- inception_4b/3x3_reduce
I0403 16:00:03.702339 16601 net.cpp:399] inception_4b/3x3 -> inception_4b/3x3
I0403 16:00:03.705296 16601 net.cpp:141] Setting up inception_4b/3x3
I0403 16:00:03.705325 16601 net.cpp:148] Top shape: 24 224 14 14 (1053696)
I0403 16:00:03.705340 16601 net.cpp:156] Memory required for data: 960654624
I0403 16:00:03.705358 16601 layer_factory.hpp:77] Creating layer inception_4b/relu_3x3
I0403 16:00:03.705375 16601 net.cpp:91] Creating Layer inception_4b/relu_3x3
I0403 16:00:03.705390 16601 net.cpp:425] inception_4b/relu_3x3 <- inception_4b/3x3
I0403 16:00:03.705410 16601 net.cpp:386] inception_4b/relu_3x3 -> inception_4b/3x3 (in-place)
I0403 16:00:03.705588 16601 net.cpp:141] Setting up inception_4b/relu_3x3
I0403 16:00:03.705611 16601 net.cpp:148] Top shape: 24 224 14 14 (1053696)
I0403 16:00:03.705626 16601 net.cpp:156] Memory required for data: 964869408
I0403 16:00:03.705639 16601 layer_factory.hpp:77] Creating layer inception_4b/5x5_reduce
I0403 16:00:03.705660 16601 net.cpp:91] Creating Layer inception_4b/5x5_reduce
I0403 16:00:03.705677 16601 net.cpp:425] inception_4b/5x5_reduce <- inception_4a/output_inception_4a/output_0_split_3
I0403 16:00:03.705698 16601 net.cpp:399] inception_4b/5x5_reduce -> inception_4b/5x5_reduce
I0403 16:00:03.706743 16601 net.cpp:141] Setting up inception_4b/5x5_reduce
I0403 16:00:03.706770 16601 net.cpp:148] Top shape: 24 24 14 14 (112896)
I0403 16:00:03.706785 16601 net.cpp:156] Memory required for data: 965320992
I0403 16:00:03.706802 16601 layer_factory.hpp:77] Creating layer inception_4b/relu_5x5_reduce
I0403 16:00:03.706822 16601 net.cpp:91] Creating Layer inception_4b/relu_5x5_reduce
I0403 16:00:03.706852 16601 net.cpp:425] inception_4b/relu_5x5_reduce <- inception_4b/5x5_reduce
I0403 16:00:03.706871 16601 net.cpp:386] inception_4b/relu_5x5_reduce -> inception_4b/5x5_reduce (in-place)
I0403 16:00:03.707046 16601 net.cpp:141] Setting up inception_4b/relu_5x5_reduce
I0403 16:00:03.707072 16601 net.cpp:148] Top shape: 24 24 14 14 (112896)
I0403 16:00:03.707087 16601 net.cpp:156] Memory required for data: 965772576
I0403 16:00:03.707100 16601 layer_factory.hpp:77] Creating layer inception_4b/5x5
I0403 16:00:03.707121 16601 net.cpp:91] Creating Layer inception_4b/5x5
I0403 16:00:03.707137 16601 net.cpp:425] inception_4b/5x5 <- inception_4b/5x5_reduce
I0403 16:00:03.707155 16601 net.cpp:399] inception_4b/5x5 -> inception_4b/5x5
I0403 16:00:03.708340 16601 net.cpp:141] Setting up inception_4b/5x5
I0403 16:00:03.708366 16601 net.cpp:148] Top shape: 24 64 14 14 (301056)
I0403 16:00:03.708382 16601 net.cpp:156] Memory required for data: 966976800
I0403 16:00:03.708400 16601 layer_factory.hpp:77] Creating layer inception_4b/relu_5x5
I0403 16:00:03.708420 16601 net.cpp:91] Creating Layer inception_4b/relu_5x5
I0403 16:00:03.708437 16601 net.cpp:425] inception_4b/relu_5x5 <- inception_4b/5x5
I0403 16:00:03.708454 16601 net.cpp:386] inception_4b/relu_5x5 -> inception_4b/5x5 (in-place)
I0403 16:00:03.708744 16601 net.cpp:141] Setting up inception_4b/relu_5x5
I0403 16:00:03.708770 16601 net.cpp:148] Top shape: 24 64 14 14 (301056)
I0403 16:00:03.708783 16601 net.cpp:156] Memory required for data: 968181024
I0403 16:00:03.708798 16601 layer_factory.hpp:77] Creating layer inception_4b/pool
I0403 16:00:03.708817 16601 net.cpp:91] Creating Layer inception_4b/pool
I0403 16:00:03.708833 16601 net.cpp:425] inception_4b/pool <- inception_4a/output_inception_4a/output_0_split_4
I0403 16:00:03.708852 16601 net.cpp:399] inception_4b/pool -> inception_4b/pool
I0403 16:00:03.708912 16601 net.cpp:141] Setting up inception_4b/pool
I0403 16:00:03.708935 16601 net.cpp:148] Top shape: 24 512 14 14 (2408448)
I0403 16:00:03.708950 16601 net.cpp:156] Memory required for data: 977814816
I0403 16:00:03.708962 16601 layer_factory.hpp:77] Creating layer inception_4b/pool_proj
I0403 16:00:03.708983 16601 net.cpp:91] Creating Layer inception_4b/pool_proj
I0403 16:00:03.709000 16601 net.cpp:425] inception_4b/pool_proj <- inception_4b/pool
I0403 16:00:03.709020 16601 net.cpp:399] inception_4b/pool_proj -> inception_4b/pool_proj
I0403 16:00:03.710175 16601 net.cpp:141] Setting up inception_4b/pool_proj
I0403 16:00:03.710202 16601 net.cpp:148] Top shape: 24 64 14 14 (301056)
I0403 16:00:03.710216 16601 net.cpp:156] Memory required for data: 979019040
I0403 16:00:03.710234 16601 layer_factory.hpp:77] Creating layer inception_4b/relu_pool_proj
I0403 16:00:03.710253 16601 net.cpp:91] Creating Layer inception_4b/relu_pool_proj
I0403 16:00:03.710269 16601 net.cpp:425] inception_4b/relu_pool_proj <- inception_4b/pool_proj
I0403 16:00:03.710288 16601 net.cpp:386] inception_4b/relu_pool_proj -> inception_4b/pool_proj (in-place)
I0403 16:00:03.710458 16601 net.cpp:141] Setting up inception_4b/relu_pool_proj
I0403 16:00:03.710484 16601 net.cpp:148] Top shape: 24 64 14 14 (301056)
I0403 16:00:03.710500 16601 net.cpp:156] Memory required for data: 980223264
I0403 16:00:03.710512 16601 layer_factory.hpp:77] Creating layer inception_4b/output
I0403 16:00:03.710530 16601 net.cpp:91] Creating Layer inception_4b/output
I0403 16:00:03.710546 16601 net.cpp:425] inception_4b/output <- inception_4b/1x1
I0403 16:00:03.710562 16601 net.cpp:425] inception_4b/output <- inception_4b/3x3
I0403 16:00:03.710582 16601 net.cpp:425] inception_4b/output <- inception_4b/5x5
I0403 16:00:03.710598 16601 net.cpp:425] inception_4b/output <- inception_4b/pool_proj
I0403 16:00:03.710615 16601 net.cpp:399] inception_4b/output -> inception_4b/output
I0403 16:00:03.710661 16601 net.cpp:141] Setting up inception_4b/output
I0403 16:00:03.710682 16601 net.cpp:148] Top shape: 24 512 14 14 (2408448)
I0403 16:00:03.710697 16601 net.cpp:156] Memory required for data: 989857056
I0403 16:00:03.710726 16601 layer_factory.hpp:77] Creating layer inception_4b/output_inception_4b/output_0_split
I0403 16:00:03.710744 16601 net.cpp:91] Creating Layer inception_4b/output_inception_4b/output_0_split
I0403 16:00:03.710760 16601 net.cpp:425] inception_4b/output_inception_4b/output_0_split <- inception_4b/output
I0403 16:00:03.710777 16601 net.cpp:399] inception_4b/output_inception_4b/output_0_split -> inception_4b/output_inception_4b/output_0_split_0
I0403 16:00:03.710796 16601 net.cpp:399] inception_4b/output_inception_4b/output_0_split -> inception_4b/output_inception_4b/output_0_split_1
I0403 16:00:03.710815 16601 net.cpp:399] inception_4b/output_inception_4b/output_0_split -> inception_4b/output_inception_4b/output_0_split_2
I0403 16:00:03.710837 16601 net.cpp:399] inception_4b/output_inception_4b/output_0_split -> inception_4b/output_inception_4b/output_0_split_3
I0403 16:00:03.710919 16601 net.cpp:141] Setting up inception_4b/output_inception_4b/output_0_split
I0403 16:00:03.710942 16601 net.cpp:148] Top shape: 24 512 14 14 (2408448)
I0403 16:00:03.710957 16601 net.cpp:148] Top shape: 24 512 14 14 (2408448)
I0403 16:00:03.710971 16601 net.cpp:148] Top shape: 24 512 14 14 (2408448)
I0403 16:00:03.710986 16601 net.cpp:148] Top shape: 24 512 14 14 (2408448)
I0403 16:00:03.711000 16601 net.cpp:156] Memory required for data: 1028392224
I0403 16:00:03.711014 16601 layer_factory.hpp:77] Creating layer inception_4c/1x1
I0403 16:00:03.711035 16601 net.cpp:91] Creating Layer inception_4c/1x1
I0403 16:00:03.711051 16601 net.cpp:425] inception_4c/1x1 <- inception_4b/output_inception_4b/output_0_split_0
I0403 16:00:03.711071 16601 net.cpp:399] inception_4c/1x1 -> inception_4c/1x1
I0403 16:00:03.712447 16601 net.cpp:141] Setting up inception_4c/1x1
I0403 16:00:03.712477 16601 net.cpp:148] Top shape: 24 128 14 14 (602112)
I0403 16:00:03.712491 16601 net.cpp:156] Memory required for data: 1030800672
I0403 16:00:03.712508 16601 layer_factory.hpp:77] Creating layer inception_4c/relu_1x1
I0403 16:00:03.712525 16601 net.cpp:91] Creating Layer inception_4c/relu_1x1
I0403 16:00:03.712541 16601 net.cpp:425] inception_4c/relu_1x1 <- inception_4c/1x1
I0403 16:00:03.712560 16601 net.cpp:386] inception_4c/relu_1x1 -> inception_4c/1x1 (in-place)
I0403 16:00:03.712744 16601 net.cpp:141] Setting up inception_4c/relu_1x1
I0403 16:00:03.712767 16601 net.cpp:148] Top shape: 24 128 14 14 (602112)
I0403 16:00:03.712781 16601 net.cpp:156] Memory required for data: 1033209120
I0403 16:00:03.712796 16601 layer_factory.hpp:77] Creating layer inception_4c/3x3_reduce
I0403 16:00:03.712817 16601 net.cpp:91] Creating Layer inception_4c/3x3_reduce
I0403 16:00:03.712833 16601 net.cpp:425] inception_4c/3x3_reduce <- inception_4b/output_inception_4b/output_0_split_1
I0403 16:00:03.712854 16601 net.cpp:399] inception_4c/3x3_reduce -> inception_4c/3x3_reduce
I0403 16:00:03.714751 16601 net.cpp:141] Setting up inception_4c/3x3_reduce
I0403 16:00:03.714779 16601 net.cpp:148] Top shape: 24 128 14 14 (602112)
I0403 16:00:03.714794 16601 net.cpp:156] Memory required for data: 1035617568
I0403 16:00:03.714812 16601 layer_factory.hpp:77] Creating layer inception_4c/relu_3x3_reduce
I0403 16:00:03.714831 16601 net.cpp:91] Creating Layer inception_4c/relu_3x3_reduce
I0403 16:00:03.714848 16601 net.cpp:425] inception_4c/relu_3x3_reduce <- inception_4c/3x3_reduce
I0403 16:00:03.714864 16601 net.cpp:386] inception_4c/relu_3x3_reduce -> inception_4c/3x3_reduce (in-place)
I0403 16:00:03.715142 16601 net.cpp:141] Setting up inception_4c/relu_3x3_reduce
I0403 16:00:03.715167 16601 net.cpp:148] Top shape: 24 128 14 14 (602112)
I0403 16:00:03.715181 16601 net.cpp:156] Memory required for data: 1038026016
I0403 16:00:03.715194 16601 layer_factory.hpp:77] Creating layer inception_4c/3x3
I0403 16:00:03.715216 16601 net.cpp:91] Creating Layer inception_4c/3x3
I0403 16:00:03.715234 16601 net.cpp:425] inception_4c/3x3 <- inception_4c/3x3_reduce
I0403 16:00:03.715253 16601 net.cpp:399] inception_4c/3x3 -> inception_4c/3x3
I0403 16:00:03.718760 16601 net.cpp:141] Setting up inception_4c/3x3
I0403 16:00:03.718799 16601 net.cpp:148] Top shape: 24 256 14 14 (1204224)
I0403 16:00:03.718816 16601 net.cpp:156] Memory required for data: 1042842912
I0403 16:00:03.718847 16601 layer_factory.hpp:77] Creating layer inception_4c/relu_3x3
I0403 16:00:03.718868 16601 net.cpp:91] Creating Layer inception_4c/relu_3x3
I0403 16:00:03.718884 16601 net.cpp:425] inception_4c/relu_3x3 <- inception_4c/3x3
I0403 16:00:03.718900 16601 net.cpp:386] inception_4c/relu_3x3 -> inception_4c/3x3 (in-place)
I0403 16:00:03.719070 16601 net.cpp:141] Setting up inception_4c/relu_3x3
I0403 16:00:03.719094 16601 net.cpp:148] Top shape: 24 256 14 14 (1204224)
I0403 16:00:03.719108 16601 net.cpp:156] Memory required for data: 1047659808
I0403 16:00:03.719122 16601 layer_factory.hpp:77] Creating layer inception_4c/5x5_reduce
I0403 16:00:03.719144 16601 net.cpp:91] Creating Layer inception_4c/5x5_reduce
I0403 16:00:03.719161 16601 net.cpp:425] inception_4c/5x5_reduce <- inception_4b/output_inception_4b/output_0_split_2
I0403 16:00:03.719182 16601 net.cpp:399] inception_4c/5x5_reduce -> inception_4c/5x5_reduce
I0403 16:00:03.720229 16601 net.cpp:141] Setting up inception_4c/5x5_reduce
I0403 16:00:03.720257 16601 net.cpp:148] Top shape: 24 24 14 14 (112896)
I0403 16:00:03.720273 16601 net.cpp:156] Memory required for data: 1048111392
I0403 16:00:03.720290 16601 layer_factory.hpp:77] Creating layer inception_4c/relu_5x5_reduce
I0403 16:00:03.720310 16601 net.cpp:91] Creating Layer inception_4c/relu_5x5_reduce
I0403 16:00:03.720325 16601 net.cpp:425] inception_4c/relu_5x5_reduce <- inception_4c/5x5_reduce
I0403 16:00:03.720342 16601 net.cpp:386] inception_4c/relu_5x5_reduce -> inception_4c/5x5_reduce (in-place)
I0403 16:00:03.720520 16601 net.cpp:141] Setting up inception_4c/relu_5x5_reduce
I0403 16:00:03.720546 16601 net.cpp:148] Top shape: 24 24 14 14 (112896)
I0403 16:00:03.720561 16601 net.cpp:156] Memory required for data: 1048562976
I0403 16:00:03.720580 16601 layer_factory.hpp:77] Creating layer inception_4c/5x5
I0403 16:00:03.720602 16601 net.cpp:91] Creating Layer inception_4c/5x5
I0403 16:00:03.720619 16601 net.cpp:425] inception_4c/5x5 <- inception_4c/5x5_reduce
I0403 16:00:03.720638 16601 net.cpp:399] inception_4c/5x5 -> inception_4c/5x5
I0403 16:00:03.721830 16601 net.cpp:141] Setting up inception_4c/5x5
I0403 16:00:03.721859 16601 net.cpp:148] Top shape: 24 64 14 14 (301056)
I0403 16:00:03.721875 16601 net.cpp:156] Memory required for data: 1049767200
I0403 16:00:03.721892 16601 layer_factory.hpp:77] Creating layer inception_4c/relu_5x5
I0403 16:00:03.721909 16601 net.cpp:91] Creating Layer inception_4c/relu_5x5
I0403 16:00:03.721925 16601 net.cpp:425] inception_4c/relu_5x5 <- inception_4c/5x5
I0403 16:00:03.721943 16601 net.cpp:386] inception_4c/relu_5x5 -> inception_4c/5x5 (in-place)
I0403 16:00:03.722218 16601 net.cpp:141] Setting up inception_4c/relu_5x5
I0403 16:00:03.722245 16601 net.cpp:148] Top shape: 24 64 14 14 (301056)
I0403 16:00:03.722260 16601 net.cpp:156] Memory required for data: 1050971424
I0403 16:00:03.722275 16601 layer_factory.hpp:77] Creating layer inception_4c/pool
I0403 16:00:03.722293 16601 net.cpp:91] Creating Layer inception_4c/pool
I0403 16:00:03.722307 16601 net.cpp:425] inception_4c/pool <- inception_4b/output_inception_4b/output_0_split_3
I0403 16:00:03.722327 16601 net.cpp:399] inception_4c/pool -> inception_4c/pool
I0403 16:00:03.722390 16601 net.cpp:141] Setting up inception_4c/pool
I0403 16:00:03.722414 16601 net.cpp:148] Top shape: 24 512 14 14 (2408448)
I0403 16:00:03.722427 16601 net.cpp:156] Memory required for data: 1060605216
I0403 16:00:03.722441 16601 layer_factory.hpp:77] Creating layer inception_4c/pool_proj
I0403 16:00:03.722462 16601 net.cpp:91] Creating Layer inception_4c/pool_proj
I0403 16:00:03.722481 16601 net.cpp:425] inception_4c/pool_proj <- inception_4c/pool
I0403 16:00:03.722499 16601 net.cpp:399] inception_4c/pool_proj -> inception_4c/pool_proj
I0403 16:00:03.723690 16601 net.cpp:141] Setting up inception_4c/pool_proj
I0403 16:00:03.723717 16601 net.cpp:148] Top shape: 24 64 14 14 (301056)
I0403 16:00:03.723747 16601 net.cpp:156] Memory required for data: 1061809440
I0403 16:00:03.723764 16601 layer_factory.hpp:77] Creating layer inception_4c/relu_pool_proj
I0403 16:00:03.723784 16601 net.cpp:91] Creating Layer inception_4c/relu_pool_proj
I0403 16:00:03.723801 16601 net.cpp:425] inception_4c/relu_pool_proj <- inception_4c/pool_proj
I0403 16:00:03.723817 16601 net.cpp:386] inception_4c/relu_pool_proj -> inception_4c/pool_proj (in-place)
I0403 16:00:03.723997 16601 net.cpp:141] Setting up inception_4c/relu_pool_proj
I0403 16:00:03.724023 16601 net.cpp:148] Top shape: 24 64 14 14 (301056)
I0403 16:00:03.724038 16601 net.cpp:156] Memory required for data: 1063013664
I0403 16:00:03.724052 16601 layer_factory.hpp:77] Creating layer inception_4c/output
I0403 16:00:03.724069 16601 net.cpp:91] Creating Layer inception_4c/output
I0403 16:00:03.724083 16601 net.cpp:425] inception_4c/output <- inception_4c/1x1
I0403 16:00:03.724098 16601 net.cpp:425] inception_4c/output <- inception_4c/3x3
I0403 16:00:03.724114 16601 net.cpp:425] inception_4c/output <- inception_4c/5x5
I0403 16:00:03.724129 16601 net.cpp:425] inception_4c/output <- inception_4c/pool_proj
I0403 16:00:03.724145 16601 net.cpp:399] inception_4c/output -> inception_4c/output
I0403 16:00:03.724190 16601 net.cpp:141] Setting up inception_4c/output
I0403 16:00:03.724213 16601 net.cpp:148] Top shape: 24 512 14 14 (2408448)
I0403 16:00:03.724226 16601 net.cpp:156] Memory required for data: 1072647456
I0403 16:00:03.724239 16601 layer_factory.hpp:77] Creating layer inception_4c/output_inception_4c/output_0_split
I0403 16:00:03.724258 16601 net.cpp:91] Creating Layer inception_4c/output_inception_4c/output_0_split
I0403 16:00:03.724274 16601 net.cpp:425] inception_4c/output_inception_4c/output_0_split <- inception_4c/output
I0403 16:00:03.724292 16601 net.cpp:399] inception_4c/output_inception_4c/output_0_split -> inception_4c/output_inception_4c/output_0_split_0
I0403 16:00:03.724310 16601 net.cpp:399] inception_4c/output_inception_4c/output_0_split -> inception_4c/output_inception_4c/output_0_split_1
I0403 16:00:03.724329 16601 net.cpp:399] inception_4c/output_inception_4c/output_0_split -> inception_4c/output_inception_4c/output_0_split_2
I0403 16:00:03.724349 16601 net.cpp:399] inception_4c/output_inception_4c/output_0_split -> inception_4c/output_inception_4c/output_0_split_3
I0403 16:00:03.724432 16601 net.cpp:141] Setting up inception_4c/output_inception_4c/output_0_split
I0403 16:00:03.724454 16601 net.cpp:148] Top shape: 24 512 14 14 (2408448)
I0403 16:00:03.724470 16601 net.cpp:148] Top shape: 24 512 14 14 (2408448)
I0403 16:00:03.724485 16601 net.cpp:148] Top shape: 24 512 14 14 (2408448)
I0403 16:00:03.724499 16601 net.cpp:148] Top shape: 24 512 14 14 (2408448)
I0403 16:00:03.724512 16601 net.cpp:156] Memory required for data: 1111182624
I0403 16:00:03.724526 16601 layer_factory.hpp:77] Creating layer inception_4d/1x1
I0403 16:00:03.724548 16601 net.cpp:91] Creating Layer inception_4d/1x1
I0403 16:00:03.724565 16601 net.cpp:425] inception_4d/1x1 <- inception_4c/output_inception_4c/output_0_split_0
I0403 16:00:03.724598 16601 net.cpp:399] inception_4d/1x1 -> inception_4d/1x1
I0403 16:00:03.725937 16601 net.cpp:141] Setting up inception_4d/1x1
I0403 16:00:03.725965 16601 net.cpp:148] Top shape: 24 112 14 14 (526848)
I0403 16:00:03.725980 16601 net.cpp:156] Memory required for data: 1113290016
I0403 16:00:03.725996 16601 layer_factory.hpp:77] Creating layer inception_4d/relu_1x1
I0403 16:00:03.726013 16601 net.cpp:91] Creating Layer inception_4d/relu_1x1
I0403 16:00:03.726029 16601 net.cpp:425] inception_4d/relu_1x1 <- inception_4d/1x1
I0403 16:00:03.726048 16601 net.cpp:386] inception_4d/relu_1x1 -> inception_4d/1x1 (in-place)
I0403 16:00:03.726227 16601 net.cpp:141] Setting up inception_4d/relu_1x1
I0403 16:00:03.726251 16601 net.cpp:148] Top shape: 24 112 14 14 (526848)
I0403 16:00:03.726265 16601 net.cpp:156] Memory required for data: 1115397408
I0403 16:00:03.726279 16601 layer_factory.hpp:77] Creating layer inception_4d/3x3_reduce
I0403 16:00:03.726315 16601 net.cpp:91] Creating Layer inception_4d/3x3_reduce
I0403 16:00:03.726333 16601 net.cpp:425] inception_4d/3x3_reduce <- inception_4c/output_inception_4c/output_0_split_1
I0403 16:00:03.726354 16601 net.cpp:399] inception_4d/3x3_reduce -> inception_4d/3x3_reduce
I0403 16:00:03.727820 16601 net.cpp:141] Setting up inception_4d/3x3_reduce
I0403 16:00:03.727849 16601 net.cpp:148] Top shape: 24 144 14 14 (677376)
I0403 16:00:03.727864 16601 net.cpp:156] Memory required for data: 1118106912
I0403 16:00:03.727882 16601 layer_factory.hpp:77] Creating layer inception_4d/relu_3x3_reduce
I0403 16:00:03.727900 16601 net.cpp:91] Creating Layer inception_4d/relu_3x3_reduce
I0403 16:00:03.727915 16601 net.cpp:425] inception_4d/relu_3x3_reduce <- inception_4d/3x3_reduce
I0403 16:00:03.727932 16601 net.cpp:386] inception_4d/relu_3x3_reduce -> inception_4d/3x3_reduce (in-place)
I0403 16:00:03.728217 16601 net.cpp:141] Setting up inception_4d/relu_3x3_reduce
I0403 16:00:03.728245 16601 net.cpp:148] Top shape: 24 144 14 14 (677376)
I0403 16:00:03.728260 16601 net.cpp:156] Memory required for data: 1120816416
I0403 16:00:03.728273 16601 layer_factory.hpp:77] Creating layer inception_4d/3x3
I0403 16:00:03.728296 16601 net.cpp:91] Creating Layer inception_4d/3x3
I0403 16:00:03.728312 16601 net.cpp:425] inception_4d/3x3 <- inception_4d/3x3_reduce
I0403 16:00:03.728329 16601 net.cpp:399] inception_4d/3x3 -> inception_4d/3x3
I0403 16:00:03.732482 16601 net.cpp:141] Setting up inception_4d/3x3
I0403 16:00:03.732511 16601 net.cpp:148] Top shape: 24 288 14 14 (1354752)
I0403 16:00:03.732525 16601 net.cpp:156] Memory required for data: 1126235424
I0403 16:00:03.732545 16601 layer_factory.hpp:77] Creating layer inception_4d/relu_3x3
I0403 16:00:03.732564 16601 net.cpp:91] Creating Layer inception_4d/relu_3x3
I0403 16:00:03.732585 16601 net.cpp:425] inception_4d/relu_3x3 <- inception_4d/3x3
I0403 16:00:03.732602 16601 net.cpp:386] inception_4d/relu_3x3 -> inception_4d/3x3 (in-place)
I0403 16:00:03.732777 16601 net.cpp:141] Setting up inception_4d/relu_3x3
I0403 16:00:03.732801 16601 net.cpp:148] Top shape: 24 288 14 14 (1354752)
I0403 16:00:03.732816 16601 net.cpp:156] Memory required for data: 1131654432
I0403 16:00:03.732831 16601 layer_factory.hpp:77] Creating layer inception_4d/5x5_reduce
I0403 16:00:03.732853 16601 net.cpp:91] Creating Layer inception_4d/5x5_reduce
I0403 16:00:03.732869 16601 net.cpp:425] inception_4d/5x5_reduce <- inception_4c/output_inception_4c/output_0_split_2
I0403 16:00:03.732887 16601 net.cpp:399] inception_4d/5x5_reduce -> inception_4d/5x5_reduce
I0403 16:00:03.734004 16601 net.cpp:141] Setting up inception_4d/5x5_reduce
I0403 16:00:03.734032 16601 net.cpp:148] Top shape: 24 32 14 14 (150528)
I0403 16:00:03.734047 16601 net.cpp:156] Memory required for data: 1132256544
I0403 16:00:03.734064 16601 layer_factory.hpp:77] Creating layer inception_4d/relu_5x5_reduce
I0403 16:00:03.734081 16601 net.cpp:91] Creating Layer inception_4d/relu_5x5_reduce
I0403 16:00:03.734096 16601 net.cpp:425] inception_4d/relu_5x5_reduce <- inception_4d/5x5_reduce
I0403 16:00:03.734114 16601 net.cpp:386] inception_4d/relu_5x5_reduce -> inception_4d/5x5_reduce (in-place)
I0403 16:00:03.734295 16601 net.cpp:141] Setting up inception_4d/relu_5x5_reduce
I0403 16:00:03.734319 16601 net.cpp:148] Top shape: 24 32 14 14 (150528)
I0403 16:00:03.734333 16601 net.cpp:156] Memory required for data: 1132858656
I0403 16:00:03.734346 16601 layer_factory.hpp:77] Creating layer inception_4d/5x5
I0403 16:00:03.734369 16601 net.cpp:91] Creating Layer inception_4d/5x5
I0403 16:00:03.734385 16601 net.cpp:425] inception_4d/5x5 <- inception_4d/5x5_reduce
I0403 16:00:03.734405 16601 net.cpp:399] inception_4d/5x5 -> inception_4d/5x5
I0403 16:00:03.735837 16601 net.cpp:141] Setting up inception_4d/5x5
I0403 16:00:03.735867 16601 net.cpp:148] Top shape: 24 64 14 14 (301056)
I0403 16:00:03.735882 16601 net.cpp:156] Memory required for data: 1134062880
I0403 16:00:03.735901 16601 layer_factory.hpp:77] Creating layer inception_4d/relu_5x5
I0403 16:00:03.735932 16601 net.cpp:91] Creating Layer inception_4d/relu_5x5
I0403 16:00:03.735950 16601 net.cpp:425] inception_4d/relu_5x5 <- inception_4d/5x5
I0403 16:00:03.735967 16601 net.cpp:386] inception_4d/relu_5x5 -> inception_4d/5x5 (in-place)
I0403 16:00:03.736258 16601 net.cpp:141] Setting up inception_4d/relu_5x5
I0403 16:00:03.736285 16601 net.cpp:148] Top shape: 24 64 14 14 (301056)
I0403 16:00:03.736313 16601 net.cpp:156] Memory required for data: 1135267104
I0403 16:00:03.736328 16601 layer_factory.hpp:77] Creating layer inception_4d/pool
I0403 16:00:03.736346 16601 net.cpp:91] Creating Layer inception_4d/pool
I0403 16:00:03.736361 16601 net.cpp:425] inception_4d/pool <- inception_4c/output_inception_4c/output_0_split_3
I0403 16:00:03.736379 16601 net.cpp:399] inception_4d/pool -> inception_4d/pool
I0403 16:00:03.736446 16601 net.cpp:141] Setting up inception_4d/pool
I0403 16:00:03.736469 16601 net.cpp:148] Top shape: 24 512 14 14 (2408448)
I0403 16:00:03.736485 16601 net.cpp:156] Memory required for data: 1144900896
I0403 16:00:03.736498 16601 layer_factory.hpp:77] Creating layer inception_4d/pool_proj
I0403 16:00:03.736520 16601 net.cpp:91] Creating Layer inception_4d/pool_proj
I0403 16:00:03.736536 16601 net.cpp:425] inception_4d/pool_proj <- inception_4d/pool
I0403 16:00:03.736557 16601 net.cpp:399] inception_4d/pool_proj -> inception_4d/pool_proj
I0403 16:00:03.738297 16601 net.cpp:141] Setting up inception_4d/pool_proj
I0403 16:00:03.738325 16601 net.cpp:148] Top shape: 24 64 14 14 (301056)
I0403 16:00:03.738339 16601 net.cpp:156] Memory required for data: 1146105120
I0403 16:00:03.738358 16601 layer_factory.hpp:77] Creating layer inception_4d/relu_pool_proj
I0403 16:00:03.738378 16601 net.cpp:91] Creating Layer inception_4d/relu_pool_proj
I0403 16:00:03.738394 16601 net.cpp:425] inception_4d/relu_pool_proj <- inception_4d/pool_proj
I0403 16:00:03.738410 16601 net.cpp:386] inception_4d/relu_pool_proj -> inception_4d/pool_proj (in-place)
I0403 16:00:03.738596 16601 net.cpp:141] Setting up inception_4d/relu_pool_proj
I0403 16:00:03.738620 16601 net.cpp:148] Top shape: 24 64 14 14 (301056)
I0403 16:00:03.738634 16601 net.cpp:156] Memory required for data: 1147309344
I0403 16:00:03.738648 16601 layer_factory.hpp:77] Creating layer inception_4d/output
I0403 16:00:03.738667 16601 net.cpp:91] Creating Layer inception_4d/output
I0403 16:00:03.738683 16601 net.cpp:425] inception_4d/output <- inception_4d/1x1
I0403 16:00:03.738698 16601 net.cpp:425] inception_4d/output <- inception_4d/3x3
I0403 16:00:03.738714 16601 net.cpp:425] inception_4d/output <- inception_4d/5x5
I0403 16:00:03.738729 16601 net.cpp:425] inception_4d/output <- inception_4d/pool_proj
I0403 16:00:03.738745 16601 net.cpp:399] inception_4d/output -> inception_4d/output
I0403 16:00:03.738792 16601 net.cpp:141] Setting up inception_4d/output
I0403 16:00:03.738814 16601 net.cpp:148] Top shape: 24 528 14 14 (2483712)
I0403 16:00:03.738828 16601 net.cpp:156] Memory required for data: 1157244192
I0403 16:00:03.738842 16601 layer_factory.hpp:77] Creating layer inception_4d/output_inception_4d/output_0_split
I0403 16:00:03.738858 16601 net.cpp:91] Creating Layer inception_4d/output_inception_4d/output_0_split
I0403 16:00:03.738873 16601 net.cpp:425] inception_4d/output_inception_4d/output_0_split <- inception_4d/output
I0403 16:00:03.738893 16601 net.cpp:399] inception_4d/output_inception_4d/output_0_split -> inception_4d/output_inception_4d/output_0_split_0
I0403 16:00:03.738914 16601 net.cpp:399] inception_4d/output_inception_4d/output_0_split -> inception_4d/output_inception_4d/output_0_split_1
I0403 16:00:03.738934 16601 net.cpp:399] inception_4d/output_inception_4d/output_0_split -> inception_4d/output_inception_4d/output_0_split_2
I0403 16:00:03.738953 16601 net.cpp:399] inception_4d/output_inception_4d/output_0_split -> inception_4d/output_inception_4d/output_0_split_3
I0403 16:00:03.738977 16601 net.cpp:399] inception_4d/output_inception_4d/output_0_split -> inception_4d/output_inception_4d/output_0_split_4
I0403 16:00:03.739075 16601 net.cpp:141] Setting up inception_4d/output_inception_4d/output_0_split
I0403 16:00:03.739109 16601 net.cpp:148] Top shape: 24 528 14 14 (2483712)
I0403 16:00:03.739125 16601 net.cpp:148] Top shape: 24 528 14 14 (2483712)
I0403 16:00:03.739140 16601 net.cpp:148] Top shape: 24 528 14 14 (2483712)
I0403 16:00:03.739153 16601 net.cpp:148] Top shape: 24 528 14 14 (2483712)
I0403 16:00:03.739168 16601 net.cpp:148] Top shape: 24 528 14 14 (2483712)
I0403 16:00:03.739181 16601 net.cpp:156] Memory required for data: 1206918432
I0403 16:00:03.739195 16601 layer_factory.hpp:77] Creating layer loss2/ave_pool
I0403 16:00:03.739212 16601 net.cpp:91] Creating Layer loss2/ave_pool
I0403 16:00:03.739228 16601 net.cpp:425] loss2/ave_pool <- inception_4d/output_inception_4d/output_0_split_0
I0403 16:00:03.739246 16601 net.cpp:399] loss2/ave_pool -> loss2/ave_pool
I0403 16:00:03.739548 16601 net.cpp:141] Setting up loss2/ave_pool
I0403 16:00:03.739578 16601 net.cpp:148] Top shape: 24 528 4 4 (202752)
I0403 16:00:03.739594 16601 net.cpp:156] Memory required for data: 1207729440
I0403 16:00:03.739609 16601 layer_factory.hpp:77] Creating layer loss2/conv
I0403 16:00:03.739630 16601 net.cpp:91] Creating Layer loss2/conv
I0403 16:00:03.739646 16601 net.cpp:425] loss2/conv <- loss2/ave_pool
I0403 16:00:03.739667 16601 net.cpp:399] loss2/conv -> loss2/conv
I0403 16:00:03.741613 16601 net.cpp:141] Setting up loss2/conv
I0403 16:00:03.741642 16601 net.cpp:148] Top shape: 24 128 4 4 (49152)
I0403 16:00:03.741657 16601 net.cpp:156] Memory required for data: 1207926048
I0403 16:00:03.741675 16601 layer_factory.hpp:77] Creating layer loss2/relu_conv
I0403 16:00:03.741695 16601 net.cpp:91] Creating Layer loss2/relu_conv
I0403 16:00:03.741711 16601 net.cpp:425] loss2/relu_conv <- loss2/conv
I0403 16:00:03.741727 16601 net.cpp:386] loss2/relu_conv -> loss2/conv (in-place)
I0403 16:00:03.742002 16601 net.cpp:141] Setting up loss2/relu_conv
I0403 16:00:03.742028 16601 net.cpp:148] Top shape: 24 128 4 4 (49152)
I0403 16:00:03.742043 16601 net.cpp:156] Memory required for data: 1208122656
I0403 16:00:03.742058 16601 layer_factory.hpp:77] Creating layer loss2/fc
I0403 16:00:03.742077 16601 net.cpp:91] Creating Layer loss2/fc
I0403 16:00:03.742094 16601 net.cpp:425] loss2/fc <- loss2/conv
I0403 16:00:03.742113 16601 net.cpp:399] loss2/fc -> loss2/fc
I0403 16:00:03.759335 16601 net.cpp:141] Setting up loss2/fc
I0403 16:00:03.759371 16601 net.cpp:148] Top shape: 24 1024 (24576)
I0403 16:00:03.759385 16601 net.cpp:156] Memory required for data: 1208220960
I0403 16:00:03.759403 16601 layer_factory.hpp:77] Creating layer loss2/relu_fc
I0403 16:00:03.759420 16601 net.cpp:91] Creating Layer loss2/relu_fc
I0403 16:00:03.759436 16601 net.cpp:425] loss2/relu_fc <- loss2/fc
I0403 16:00:03.759455 16601 net.cpp:386] loss2/relu_fc -> loss2/fc (in-place)
I0403 16:00:03.759748 16601 net.cpp:141] Setting up loss2/relu_fc
I0403 16:00:03.759773 16601 net.cpp:148] Top shape: 24 1024 (24576)
I0403 16:00:03.759788 16601 net.cpp:156] Memory required for data: 1208319264
I0403 16:00:03.759802 16601 layer_factory.hpp:77] Creating layer loss2/drop_fc
I0403 16:00:03.759819 16601 net.cpp:91] Creating Layer loss2/drop_fc
I0403 16:00:03.759835 16601 net.cpp:425] loss2/drop_fc <- loss2/fc
I0403 16:00:03.759855 16601 net.cpp:386] loss2/drop_fc -> loss2/fc (in-place)
I0403 16:00:03.759905 16601 net.cpp:141] Setting up loss2/drop_fc
I0403 16:00:03.759927 16601 net.cpp:148] Top shape: 24 1024 (24576)
I0403 16:00:03.759941 16601 net.cpp:156] Memory required for data: 1208417568
I0403 16:00:03.759955 16601 layer_factory.hpp:77] Creating layer loss2/classifier_plantvillage
I0403 16:00:03.759973 16601 net.cpp:91] Creating Layer loss2/classifier_plantvillage
I0403 16:00:03.759989 16601 net.cpp:425] loss2/classifier_plantvillage <- loss2/fc
I0403 16:00:03.760009 16601 net.cpp:399] loss2/classifier_plantvillage -> loss2/classifier_plantvillage
I0403 16:00:03.760404 16601 net.cpp:141] Setting up loss2/classifier_plantvillage
I0403 16:00:03.760428 16601 net.cpp:148] Top shape: 24 38 (912)
I0403 16:00:03.760459 16601 net.cpp:156] Memory required for data: 1208421216
I0403 16:00:03.760478 16601 layer_factory.hpp:77] Creating layer loss2/classifier_plantvillage_loss2/classifier_plantvillage_0_split
I0403 16:00:03.760499 16601 net.cpp:91] Creating Layer loss2/classifier_plantvillage_loss2/classifier_plantvillage_0_split
I0403 16:00:03.760514 16601 net.cpp:425] loss2/classifier_plantvillage_loss2/classifier_plantvillage_0_split <- loss2/classifier_plantvillage
I0403 16:00:03.760534 16601 net.cpp:399] loss2/classifier_plantvillage_loss2/classifier_plantvillage_0_split -> loss2/classifier_plantvillage_loss2/classifier_plantvillage_0_split_0
I0403 16:00:03.760555 16601 net.cpp:399] loss2/classifier_plantvillage_loss2/classifier_plantvillage_0_split -> loss2/classifier_plantvillage_loss2/classifier_plantvillage_0_split_1
I0403 16:00:03.760579 16601 net.cpp:399] loss2/classifier_plantvillage_loss2/classifier_plantvillage_0_split -> loss2/classifier_plantvillage_loss2/classifier_plantvillage_0_split_2
I0403 16:00:03.760655 16601 net.cpp:141] Setting up loss2/classifier_plantvillage_loss2/classifier_plantvillage_0_split
I0403 16:00:03.760678 16601 net.cpp:148] Top shape: 24 38 (912)
I0403 16:00:03.760692 16601 net.cpp:148] Top shape: 24 38 (912)
I0403 16:00:03.760707 16601 net.cpp:148] Top shape: 24 38 (912)
I0403 16:00:03.760720 16601 net.cpp:156] Memory required for data: 1208432160
I0403 16:00:03.760733 16601 layer_factory.hpp:77] Creating layer inception_4e/1x1
I0403 16:00:03.760754 16601 net.cpp:91] Creating Layer inception_4e/1x1
I0403 16:00:03.760771 16601 net.cpp:425] inception_4e/1x1 <- inception_4d/output_inception_4d/output_0_split_1
I0403 16:00:03.760790 16601 net.cpp:399] inception_4e/1x1 -> inception_4e/1x1
I0403 16:00:03.762547 16601 net.cpp:141] Setting up inception_4e/1x1
I0403 16:00:03.762580 16601 net.cpp:148] Top shape: 24 256 14 14 (1204224)
I0403 16:00:03.762598 16601 net.cpp:156] Memory required for data: 1213249056
I0403 16:00:03.762614 16601 layer_factory.hpp:77] Creating layer inception_4e/relu_1x1
I0403 16:00:03.762631 16601 net.cpp:91] Creating Layer inception_4e/relu_1x1
I0403 16:00:03.762647 16601 net.cpp:425] inception_4e/relu_1x1 <- inception_4e/1x1
I0403 16:00:03.762663 16601 net.cpp:386] inception_4e/relu_1x1 -> inception_4e/1x1 (in-place)
I0403 16:00:03.762950 16601 net.cpp:141] Setting up inception_4e/relu_1x1
I0403 16:00:03.762977 16601 net.cpp:148] Top shape: 24 256 14 14 (1204224)
I0403 16:00:03.762994 16601 net.cpp:156] Memory required for data: 1218065952
I0403 16:00:03.763007 16601 layer_factory.hpp:77] Creating layer inception_4e/3x3_reduce
I0403 16:00:03.763028 16601 net.cpp:91] Creating Layer inception_4e/3x3_reduce
I0403 16:00:03.763046 16601 net.cpp:425] inception_4e/3x3_reduce <- inception_4d/output_inception_4d/output_0_split_2
I0403 16:00:03.763064 16601 net.cpp:399] inception_4e/3x3_reduce -> inception_4e/3x3_reduce
I0403 16:00:03.765275 16601 net.cpp:141] Setting up inception_4e/3x3_reduce
I0403 16:00:03.765301 16601 net.cpp:148] Top shape: 24 160 14 14 (752640)
I0403 16:00:03.765316 16601 net.cpp:156] Memory required for data: 1221076512
I0403 16:00:03.765333 16601 layer_factory.hpp:77] Creating layer inception_4e/relu_3x3_reduce
I0403 16:00:03.765354 16601 net.cpp:91] Creating Layer inception_4e/relu_3x3_reduce
I0403 16:00:03.765370 16601 net.cpp:425] inception_4e/relu_3x3_reduce <- inception_4e/3x3_reduce
I0403 16:00:03.765388 16601 net.cpp:386] inception_4e/relu_3x3_reduce -> inception_4e/3x3_reduce (in-place)
I0403 16:00:03.765573 16601 net.cpp:141] Setting up inception_4e/relu_3x3_reduce
I0403 16:00:03.765597 16601 net.cpp:148] Top shape: 24 160 14 14 (752640)
I0403 16:00:03.765612 16601 net.cpp:156] Memory required for data: 1224087072
I0403 16:00:03.765626 16601 layer_factory.hpp:77] Creating layer inception_4e/3x3
I0403 16:00:03.765647 16601 net.cpp:91] Creating Layer inception_4e/3x3
I0403 16:00:03.765664 16601 net.cpp:425] inception_4e/3x3 <- inception_4e/3x3_reduce
I0403 16:00:03.765686 16601 net.cpp:399] inception_4e/3x3 -> inception_4e/3x3
I0403 16:00:03.770557 16601 net.cpp:141] Setting up inception_4e/3x3
I0403 16:00:03.770601 16601 net.cpp:148] Top shape: 24 320 14 14 (1505280)
I0403 16:00:03.770618 16601 net.cpp:156] Memory required for data: 1230108192
I0403 16:00:03.770637 16601 layer_factory.hpp:77] Creating layer inception_4e/relu_3x3
I0403 16:00:03.770653 16601 net.cpp:91] Creating Layer inception_4e/relu_3x3
I0403 16:00:03.770668 16601 net.cpp:425] inception_4e/relu_3x3 <- inception_4e/3x3
I0403 16:00:03.770687 16601 net.cpp:386] inception_4e/relu_3x3 -> inception_4e/3x3 (in-place)
I0403 16:00:03.770983 16601 net.cpp:141] Setting up inception_4e/relu_3x3
I0403 16:00:03.771009 16601 net.cpp:148] Top shape: 24 320 14 14 (1505280)
I0403 16:00:03.771024 16601 net.cpp:156] Memory required for data: 1236129312
I0403 16:00:03.771039 16601 layer_factory.hpp:77] Creating layer inception_4e/5x5_reduce
I0403 16:00:03.771060 16601 net.cpp:91] Creating Layer inception_4e/5x5_reduce
I0403 16:00:03.771078 16601 net.cpp:425] inception_4e/5x5_reduce <- inception_4d/output_inception_4d/output_0_split_3
I0403 16:00:03.771098 16601 net.cpp:399] inception_4e/5x5_reduce -> inception_4e/5x5_reduce
I0403 16:00:03.772174 16601 net.cpp:141] Setting up inception_4e/5x5_reduce
I0403 16:00:03.772203 16601 net.cpp:148] Top shape: 24 32 14 14 (150528)
I0403 16:00:03.772218 16601 net.cpp:156] Memory required for data: 1236731424
I0403 16:00:03.772235 16601 layer_factory.hpp:77] Creating layer inception_4e/relu_5x5_reduce
I0403 16:00:03.772253 16601 net.cpp:91] Creating Layer inception_4e/relu_5x5_reduce
I0403 16:00:03.772269 16601 net.cpp:425] inception_4e/relu_5x5_reduce <- inception_4e/5x5_reduce
I0403 16:00:03.772284 16601 net.cpp:386] inception_4e/relu_5x5_reduce -> inception_4e/5x5_reduce (in-place)
I0403 16:00:03.772579 16601 net.cpp:141] Setting up inception_4e/relu_5x5_reduce
I0403 16:00:03.772606 16601 net.cpp:148] Top shape: 24 32 14 14 (150528)
I0403 16:00:03.772621 16601 net.cpp:156] Memory required for data: 1237333536
I0403 16:00:03.772635 16601 layer_factory.hpp:77] Creating layer inception_4e/5x5
I0403 16:00:03.772671 16601 net.cpp:91] Creating Layer inception_4e/5x5
I0403 16:00:03.772691 16601 net.cpp:425] inception_4e/5x5 <- inception_4e/5x5_reduce
I0403 16:00:03.772711 16601 net.cpp:399] inception_4e/5x5 -> inception_4e/5x5
I0403 16:00:03.774531 16601 net.cpp:141] Setting up inception_4e/5x5
I0403 16:00:03.774559 16601 net.cpp:148] Top shape: 24 128 14 14 (602112)
I0403 16:00:03.774585 16601 net.cpp:156] Memory required for data: 1239741984
I0403 16:00:03.774605 16601 layer_factory.hpp:77] Creating layer inception_4e/relu_5x5
I0403 16:00:03.774626 16601 net.cpp:91] Creating Layer inception_4e/relu_5x5
I0403 16:00:03.774641 16601 net.cpp:425] inception_4e/relu_5x5 <- inception_4e/5x5
I0403 16:00:03.774658 16601 net.cpp:386] inception_4e/relu_5x5 -> inception_4e/5x5 (in-place)
I0403 16:00:03.774854 16601 net.cpp:141] Setting up inception_4e/relu_5x5
I0403 16:00:03.774878 16601 net.cpp:148] Top shape: 24 128 14 14 (602112)
I0403 16:00:03.774893 16601 net.cpp:156] Memory required for data: 1242150432
I0403 16:00:03.774905 16601 layer_factory.hpp:77] Creating layer inception_4e/pool
I0403 16:00:03.774925 16601 net.cpp:91] Creating Layer inception_4e/pool
I0403 16:00:03.774941 16601 net.cpp:425] inception_4e/pool <- inception_4d/output_inception_4d/output_0_split_4
I0403 16:00:03.774961 16601 net.cpp:399] inception_4e/pool -> inception_4e/pool
I0403 16:00:03.775028 16601 net.cpp:141] Setting up inception_4e/pool
I0403 16:00:03.775050 16601 net.cpp:148] Top shape: 24 528 14 14 (2483712)
I0403 16:00:03.775066 16601 net.cpp:156] Memory required for data: 1252085280
I0403 16:00:03.775080 16601 layer_factory.hpp:77] Creating layer inception_4e/pool_proj
I0403 16:00:03.775101 16601 net.cpp:91] Creating Layer inception_4e/pool_proj
I0403 16:00:03.775117 16601 net.cpp:425] inception_4e/pool_proj <- inception_4e/pool
I0403 16:00:03.775138 16601 net.cpp:399] inception_4e/pool_proj -> inception_4e/pool_proj
I0403 16:00:03.776613 16601 net.cpp:141] Setting up inception_4e/pool_proj
I0403 16:00:03.776651 16601 net.cpp:148] Top shape: 24 128 14 14 (602112)
I0403 16:00:03.776666 16601 net.cpp:156] Memory required for data: 1254493728
I0403 16:00:03.776684 16601 layer_factory.hpp:77] Creating layer inception_4e/relu_pool_proj
I0403 16:00:03.776703 16601 net.cpp:91] Creating Layer inception_4e/relu_pool_proj
I0403 16:00:03.776721 16601 net.cpp:425] inception_4e/relu_pool_proj <- inception_4e/pool_proj
I0403 16:00:03.776737 16601 net.cpp:386] inception_4e/relu_pool_proj -> inception_4e/pool_proj (in-place)
I0403 16:00:03.777027 16601 net.cpp:141] Setting up inception_4e/relu_pool_proj
I0403 16:00:03.777052 16601 net.cpp:148] Top shape: 24 128 14 14 (602112)
I0403 16:00:03.777066 16601 net.cpp:156] Memory required for data: 1256902176
I0403 16:00:03.777081 16601 layer_factory.hpp:77] Creating layer inception_4e/output
I0403 16:00:03.777098 16601 net.cpp:91] Creating Layer inception_4e/output
I0403 16:00:03.777113 16601 net.cpp:425] inception_4e/output <- inception_4e/1x1
I0403 16:00:03.777132 16601 net.cpp:425] inception_4e/output <- inception_4e/3x3
I0403 16:00:03.777148 16601 net.cpp:425] inception_4e/output <- inception_4e/5x5
I0403 16:00:03.777163 16601 net.cpp:425] inception_4e/output <- inception_4e/pool_proj
I0403 16:00:03.777180 16601 net.cpp:399] inception_4e/output -> inception_4e/output
I0403 16:00:03.777227 16601 net.cpp:141] Setting up inception_4e/output
I0403 16:00:03.777252 16601 net.cpp:148] Top shape: 24 832 14 14 (3913728)
I0403 16:00:03.777267 16601 net.cpp:156] Memory required for data: 1272557088
I0403 16:00:03.777281 16601 layer_factory.hpp:77] Creating layer pool4/3x3_s2
I0403 16:00:03.777297 16601 net.cpp:91] Creating Layer pool4/3x3_s2
I0403 16:00:03.777313 16601 net.cpp:425] pool4/3x3_s2 <- inception_4e/output
I0403 16:00:03.777333 16601 net.cpp:399] pool4/3x3_s2 -> pool4/3x3_s2
I0403 16:00:03.777397 16601 net.cpp:141] Setting up pool4/3x3_s2
I0403 16:00:03.777422 16601 net.cpp:148] Top shape: 24 832 7 7 (978432)
I0403 16:00:03.777436 16601 net.cpp:156] Memory required for data: 1276470816
I0403 16:00:03.777451 16601 layer_factory.hpp:77] Creating layer pool4/3x3_s2_pool4/3x3_s2_0_split
I0403 16:00:03.777467 16601 net.cpp:91] Creating Layer pool4/3x3_s2_pool4/3x3_s2_0_split
I0403 16:00:03.777482 16601 net.cpp:425] pool4/3x3_s2_pool4/3x3_s2_0_split <- pool4/3x3_s2
I0403 16:00:03.777498 16601 net.cpp:399] pool4/3x3_s2_pool4/3x3_s2_0_split -> pool4/3x3_s2_pool4/3x3_s2_0_split_0
I0403 16:00:03.777518 16601 net.cpp:399] pool4/3x3_s2_pool4/3x3_s2_0_split -> pool4/3x3_s2_pool4/3x3_s2_0_split_1
I0403 16:00:03.777536 16601 net.cpp:399] pool4/3x3_s2_pool4/3x3_s2_0_split -> pool4/3x3_s2_pool4/3x3_s2_0_split_2
I0403 16:00:03.777557 16601 net.cpp:399] pool4/3x3_s2_pool4/3x3_s2_0_split -> pool4/3x3_s2_pool4/3x3_s2_0_split_3
I0403 16:00:03.777652 16601 net.cpp:141] Setting up pool4/3x3_s2_pool4/3x3_s2_0_split
I0403 16:00:03.777674 16601 net.cpp:148] Top shape: 24 832 7 7 (978432)
I0403 16:00:03.777689 16601 net.cpp:148] Top shape: 24 832 7 7 (978432)
I0403 16:00:03.777704 16601 net.cpp:148] Top shape: 24 832 7 7 (978432)
I0403 16:00:03.777719 16601 net.cpp:148] Top shape: 24 832 7 7 (978432)
I0403 16:00:03.777731 16601 net.cpp:156] Memory required for data: 1292125728
I0403 16:00:03.777745 16601 layer_factory.hpp:77] Creating layer inception_5a/1x1
I0403 16:00:03.777766 16601 net.cpp:91] Creating Layer inception_5a/1x1
I0403 16:00:03.777783 16601 net.cpp:425] inception_5a/1x1 <- pool4/3x3_s2_pool4/3x3_s2_0_split_0
I0403 16:00:03.777807 16601 net.cpp:399] inception_5a/1x1 -> inception_5a/1x1
I0403 16:00:03.780642 16601 net.cpp:141] Setting up inception_5a/1x1
I0403 16:00:03.780670 16601 net.cpp:148] Top shape: 24 256 7 7 (301056)
I0403 16:00:03.780685 16601 net.cpp:156] Memory required for data: 1293329952
I0403 16:00:03.780704 16601 layer_factory.hpp:77] Creating layer inception_5a/relu_1x1
I0403 16:00:03.780722 16601 net.cpp:91] Creating Layer inception_5a/relu_1x1
I0403 16:00:03.780738 16601 net.cpp:425] inception_5a/relu_1x1 <- inception_5a/1x1
I0403 16:00:03.780755 16601 net.cpp:386] inception_5a/relu_1x1 -> inception_5a/1x1 (in-place)
I0403 16:00:03.781060 16601 net.cpp:141] Setting up inception_5a/relu_1x1
I0403 16:00:03.781086 16601 net.cpp:148] Top shape: 24 256 7 7 (301056)
I0403 16:00:03.781100 16601 net.cpp:156] Memory required for data: 1294534176
I0403 16:00:03.781114 16601 layer_factory.hpp:77] Creating layer inception_5a/3x3_reduce
I0403 16:00:03.781136 16601 net.cpp:91] Creating Layer inception_5a/3x3_reduce
I0403 16:00:03.781153 16601 net.cpp:425] inception_5a/3x3_reduce <- pool4/3x3_s2_pool4/3x3_s2_0_split_1
I0403 16:00:03.781175 16601 net.cpp:399] inception_5a/3x3_reduce -> inception_5a/3x3_reduce
I0403 16:00:03.783586 16601 net.cpp:141] Setting up inception_5a/3x3_reduce
I0403 16:00:03.783615 16601 net.cpp:148] Top shape: 24 160 7 7 (188160)
I0403 16:00:03.783630 16601 net.cpp:156] Memory required for data: 1295286816
I0403 16:00:03.783649 16601 layer_factory.hpp:77] Creating layer inception_5a/relu_3x3_reduce
I0403 16:00:03.783666 16601 net.cpp:91] Creating Layer inception_5a/relu_3x3_reduce
I0403 16:00:03.783685 16601 net.cpp:425] inception_5a/relu_3x3_reduce <- inception_5a/3x3_reduce
I0403 16:00:03.783702 16601 net.cpp:386] inception_5a/relu_3x3_reduce -> inception_5a/3x3_reduce (in-place)
I0403 16:00:03.783885 16601 net.cpp:141] Setting up inception_5a/relu_3x3_reduce
I0403 16:00:03.783910 16601 net.cpp:148] Top shape: 24 160 7 7 (188160)
I0403 16:00:03.783924 16601 net.cpp:156] Memory required for data: 1296039456
I0403 16:00:03.783939 16601 layer_factory.hpp:77] Creating layer inception_5a/3x3
I0403 16:00:03.783960 16601 net.cpp:91] Creating Layer inception_5a/3x3
I0403 16:00:03.783977 16601 net.cpp:425] inception_5a/3x3 <- inception_5a/3x3_reduce
I0403 16:00:03.783998 16601 net.cpp:399] inception_5a/3x3 -> inception_5a/3x3
I0403 16:00:03.788915 16601 net.cpp:141] Setting up inception_5a/3x3
I0403 16:00:03.788944 16601 net.cpp:148] Top shape: 24 320 7 7 (376320)
I0403 16:00:03.788959 16601 net.cpp:156] Memory required for data: 1297544736
I0403 16:00:03.788976 16601 layer_factory.hpp:77] Creating layer inception_5a/relu_3x3
I0403 16:00:03.789000 16601 net.cpp:91] Creating Layer inception_5a/relu_3x3
I0403 16:00:03.789016 16601 net.cpp:425] inception_5a/relu_3x3 <- inception_5a/3x3
I0403 16:00:03.789032 16601 net.cpp:386] inception_5a/relu_3x3 -> inception_5a/3x3 (in-place)
I0403 16:00:03.789319 16601 net.cpp:141] Setting up inception_5a/relu_3x3
I0403 16:00:03.789343 16601 net.cpp:148] Top shape: 24 320 7 7 (376320)
I0403 16:00:03.789358 16601 net.cpp:156] Memory required for data: 1299050016
I0403 16:00:03.789372 16601 layer_factory.hpp:77] Creating layer inception_5a/5x5_reduce
I0403 16:00:03.789393 16601 net.cpp:91] Creating Layer inception_5a/5x5_reduce
I0403 16:00:03.789410 16601 net.cpp:425] inception_5a/5x5_reduce <- pool4/3x3_s2_pool4/3x3_s2_0_split_2
I0403 16:00:03.789430 16601 net.cpp:399] inception_5a/5x5_reduce -> inception_5a/5x5_reduce
I0403 16:00:03.790611 16601 net.cpp:141] Setting up inception_5a/5x5_reduce
I0403 16:00:03.790638 16601 net.cpp:148] Top shape: 24 32 7 7 (37632)
I0403 16:00:03.790652 16601 net.cpp:156] Memory required for data: 1299200544
I0403 16:00:03.790670 16601 layer_factory.hpp:77] Creating layer inception_5a/relu_5x5_reduce
I0403 16:00:03.790689 16601 net.cpp:91] Creating Layer inception_5a/relu_5x5_reduce
I0403 16:00:03.790705 16601 net.cpp:425] inception_5a/relu_5x5_reduce <- inception_5a/5x5_reduce
I0403 16:00:03.790722 16601 net.cpp:386] inception_5a/relu_5x5_reduce -> inception_5a/5x5_reduce (in-place)
I0403 16:00:03.791018 16601 net.cpp:141] Setting up inception_5a/relu_5x5_reduce
I0403 16:00:03.791043 16601 net.cpp:148] Top shape: 24 32 7 7 (37632)
I0403 16:00:03.791057 16601 net.cpp:156] Memory required for data: 1299351072
I0403 16:00:03.791071 16601 layer_factory.hpp:77] Creating layer inception_5a/5x5
I0403 16:00:03.791095 16601 net.cpp:91] Creating Layer inception_5a/5x5
I0403 16:00:03.791112 16601 net.cpp:425] inception_5a/5x5 <- inception_5a/5x5_reduce
I0403 16:00:03.791129 16601 net.cpp:399] inception_5a/5x5 -> inception_5a/5x5
I0403 16:00:03.792820 16601 net.cpp:141] Setting up inception_5a/5x5
I0403 16:00:03.792858 16601 net.cpp:148] Top shape: 24 128 7 7 (150528)
I0403 16:00:03.792873 16601 net.cpp:156] Memory required for data: 1299953184
I0403 16:00:03.792891 16601 layer_factory.hpp:77] Creating layer inception_5a/relu_5x5
I0403 16:00:03.792911 16601 net.cpp:91] Creating Layer inception_5a/relu_5x5
I0403 16:00:03.792927 16601 net.cpp:425] inception_5a/relu_5x5 <- inception_5a/5x5
I0403 16:00:03.792953 16601 net.cpp:386] inception_5a/relu_5x5 -> inception_5a/5x5 (in-place)
I0403 16:00:03.793144 16601 net.cpp:141] Setting up inception_5a/relu_5x5
I0403 16:00:03.793170 16601 net.cpp:148] Top shape: 24 128 7 7 (150528)
I0403 16:00:03.793185 16601 net.cpp:156] Memory required for data: 1300555296
I0403 16:00:03.793200 16601 layer_factory.hpp:77] Creating layer inception_5a/pool
I0403 16:00:03.793216 16601 net.cpp:91] Creating Layer inception_5a/pool
I0403 16:00:03.793232 16601 net.cpp:425] inception_5a/pool <- pool4/3x3_s2_pool4/3x3_s2_0_split_3
I0403 16:00:03.793252 16601 net.cpp:399] inception_5a/pool -> inception_5a/pool
I0403 16:00:03.793321 16601 net.cpp:141] Setting up inception_5a/pool
I0403 16:00:03.793344 16601 net.cpp:148] Top shape: 24 832 7 7 (978432)
I0403 16:00:03.793357 16601 net.cpp:156] Memory required for data: 1304469024
I0403 16:00:03.793371 16601 layer_factory.hpp:77] Creating layer inception_5a/pool_proj
I0403 16:00:03.793393 16601 net.cpp:91] Creating Layer inception_5a/pool_proj
I0403 16:00:03.793409 16601 net.cpp:425] inception_5a/pool_proj <- inception_5a/pool
I0403 16:00:03.793429 16601 net.cpp:399] inception_5a/pool_proj -> inception_5a/pool_proj
I0403 16:00:03.795725 16601 net.cpp:141] Setting up inception_5a/pool_proj
I0403 16:00:03.795754 16601 net.cpp:148] Top shape: 24 128 7 7 (150528)
I0403 16:00:03.795769 16601 net.cpp:156] Memory required for data: 1305071136
I0403 16:00:03.795788 16601 layer_factory.hpp:77] Creating layer inception_5a/relu_pool_proj
I0403 16:00:03.795806 16601 net.cpp:91] Creating Layer inception_5a/relu_pool_proj
I0403 16:00:03.795824 16601 net.cpp:425] inception_5a/relu_pool_proj <- inception_5a/pool_proj
I0403 16:00:03.795840 16601 net.cpp:386] inception_5a/relu_pool_proj -> inception_5a/pool_proj (in-place)
I0403 16:00:03.796130 16601 net.cpp:141] Setting up inception_5a/relu_pool_proj
I0403 16:00:03.796155 16601 net.cpp:148] Top shape: 24 128 7 7 (150528)
I0403 16:00:03.796169 16601 net.cpp:156] Memory required for data: 1305673248
I0403 16:00:03.796183 16601 layer_factory.hpp:77] Creating layer inception_5a/output
I0403 16:00:03.796200 16601 net.cpp:91] Creating Layer inception_5a/output
I0403 16:00:03.796214 16601 net.cpp:425] inception_5a/output <- inception_5a/1x1
I0403 16:00:03.796231 16601 net.cpp:425] inception_5a/output <- inception_5a/3x3
I0403 16:00:03.796247 16601 net.cpp:425] inception_5a/output <- inception_5a/5x5
I0403 16:00:03.796262 16601 net.cpp:425] inception_5a/output <- inception_5a/pool_proj
I0403 16:00:03.796282 16601 net.cpp:399] inception_5a/output -> inception_5a/output
I0403 16:00:03.796332 16601 net.cpp:141] Setting up inception_5a/output
I0403 16:00:03.796355 16601 net.cpp:148] Top shape: 24 832 7 7 (978432)
I0403 16:00:03.796368 16601 net.cpp:156] Memory required for data: 1309586976
I0403 16:00:03.796382 16601 layer_factory.hpp:77] Creating layer inception_5a/output_inception_5a/output_0_split
I0403 16:00:03.796399 16601 net.cpp:91] Creating Layer inception_5a/output_inception_5a/output_0_split
I0403 16:00:03.796413 16601 net.cpp:425] inception_5a/output_inception_5a/output_0_split <- inception_5a/output
I0403 16:00:03.796432 16601 net.cpp:399] inception_5a/output_inception_5a/output_0_split -> inception_5a/output_inception_5a/output_0_split_0
I0403 16:00:03.796452 16601 net.cpp:399] inception_5a/output_inception_5a/output_0_split -> inception_5a/output_inception_5a/output_0_split_1
I0403 16:00:03.796473 16601 net.cpp:399] inception_5a/output_inception_5a/output_0_split -> inception_5a/output_inception_5a/output_0_split_2
I0403 16:00:03.796492 16601 net.cpp:399] inception_5a/output_inception_5a/output_0_split -> inception_5a/output_inception_5a/output_0_split_3
I0403 16:00:03.796610 16601 net.cpp:141] Setting up inception_5a/output_inception_5a/output_0_split
I0403 16:00:03.796633 16601 net.cpp:148] Top shape: 24 832 7 7 (978432)
I0403 16:00:03.796649 16601 net.cpp:148] Top shape: 24 832 7 7 (978432)
I0403 16:00:03.796664 16601 net.cpp:148] Top shape: 24 832 7 7 (978432)
I0403 16:00:03.796679 16601 net.cpp:148] Top shape: 24 832 7 7 (978432)
I0403 16:00:03.796691 16601 net.cpp:156] Memory required for data: 1325241888
I0403 16:00:03.796705 16601 layer_factory.hpp:77] Creating layer inception_5b/1x1
I0403 16:00:03.796728 16601 net.cpp:91] Creating Layer inception_5b/1x1
I0403 16:00:03.796746 16601 net.cpp:425] inception_5b/1x1 <- inception_5a/output_inception_5a/output_0_split_0
I0403 16:00:03.796766 16601 net.cpp:399] inception_5b/1x1 -> inception_5b/1x1
I0403 16:00:03.800442 16601 net.cpp:141] Setting up inception_5b/1x1
I0403 16:00:03.800470 16601 net.cpp:148] Top shape: 24 384 7 7 (451584)
I0403 16:00:03.800485 16601 net.cpp:156] Memory required for data: 1327048224
I0403 16:00:03.800503 16601 layer_factory.hpp:77] Creating layer inception_5b/relu_1x1
I0403 16:00:03.800521 16601 net.cpp:91] Creating Layer inception_5b/relu_1x1
I0403 16:00:03.800541 16601 net.cpp:425] inception_5b/relu_1x1 <- inception_5b/1x1
I0403 16:00:03.800559 16601 net.cpp:386] inception_5b/relu_1x1 -> inception_5b/1x1 (in-place)
I0403 16:00:03.800860 16601 net.cpp:141] Setting up inception_5b/relu_1x1
I0403 16:00:03.800885 16601 net.cpp:148] Top shape: 24 384 7 7 (451584)
I0403 16:00:03.800900 16601 net.cpp:156] Memory required for data: 1328854560
I0403 16:00:03.800915 16601 layer_factory.hpp:77] Creating layer inception_5b/3x3_reduce
I0403 16:00:03.800936 16601 net.cpp:91] Creating Layer inception_5b/3x3_reduce
I0403 16:00:03.800953 16601 net.cpp:425] inception_5b/3x3_reduce <- inception_5a/output_inception_5a/output_0_split_1
I0403 16:00:03.800976 16601 net.cpp:399] inception_5b/3x3_reduce -> inception_5b/3x3_reduce
I0403 16:00:03.803613 16601 net.cpp:141] Setting up inception_5b/3x3_reduce
I0403 16:00:03.803653 16601 net.cpp:148] Top shape: 24 192 7 7 (225792)
I0403 16:00:03.803669 16601 net.cpp:156] Memory required for data: 1329757728
I0403 16:00:03.803686 16601 layer_factory.hpp:77] Creating layer inception_5b/relu_3x3_reduce
I0403 16:00:03.803704 16601 net.cpp:91] Creating Layer inception_5b/relu_3x3_reduce
I0403 16:00:03.803719 16601 net.cpp:425] inception_5b/relu_3x3_reduce <- inception_5b/3x3_reduce
I0403 16:00:03.803738 16601 net.cpp:386] inception_5b/relu_3x3_reduce -> inception_5b/3x3_reduce (in-place)
I0403 16:00:03.803923 16601 net.cpp:141] Setting up inception_5b/relu_3x3_reduce
I0403 16:00:03.803947 16601 net.cpp:148] Top shape: 24 192 7 7 (225792)
I0403 16:00:03.803961 16601 net.cpp:156] Memory required for data: 1330660896
I0403 16:00:03.803977 16601 layer_factory.hpp:77] Creating layer inception_5b/3x3
I0403 16:00:03.803997 16601 net.cpp:91] Creating Layer inception_5b/3x3
I0403 16:00:03.804014 16601 net.cpp:425] inception_5b/3x3 <- inception_5b/3x3_reduce
I0403 16:00:03.804034 16601 net.cpp:399] inception_5b/3x3 -> inception_5b/3x3
I0403 16:00:03.810631 16601 net.cpp:141] Setting up inception_5b/3x3
I0403 16:00:03.810660 16601 net.cpp:148] Top shape: 24 384 7 7 (451584)
I0403 16:00:03.810674 16601 net.cpp:156] Memory required for data: 1332467232
I0403 16:00:03.810691 16601 layer_factory.hpp:77] Creating layer inception_5b/relu_3x3
I0403 16:00:03.810711 16601 net.cpp:91] Creating Layer inception_5b/relu_3x3
I0403 16:00:03.810729 16601 net.cpp:425] inception_5b/relu_3x3 <- inception_5b/3x3
I0403 16:00:03.810745 16601 net.cpp:386] inception_5b/relu_3x3 -> inception_5b/3x3 (in-place)
I0403 16:00:03.811035 16601 net.cpp:141] Setting up inception_5b/relu_3x3
I0403 16:00:03.811060 16601 net.cpp:148] Top shape: 24 384 7 7 (451584)
I0403 16:00:03.811074 16601 net.cpp:156] Memory required for data: 1334273568
I0403 16:00:03.811089 16601 layer_factory.hpp:77] Creating layer inception_5b/5x5_reduce
I0403 16:00:03.811126 16601 net.cpp:91] Creating Layer inception_5b/5x5_reduce
I0403 16:00:03.811144 16601 net.cpp:425] inception_5b/5x5_reduce <- inception_5a/output_inception_5a/output_0_split_2
I0403 16:00:03.811167 16601 net.cpp:399] inception_5b/5x5_reduce -> inception_5b/5x5_reduce
I0403 16:00:03.812412 16601 net.cpp:141] Setting up inception_5b/5x5_reduce
I0403 16:00:03.812439 16601 net.cpp:148] Top shape: 24 48 7 7 (56448)
I0403 16:00:03.812454 16601 net.cpp:156] Memory required for data: 1334499360
I0403 16:00:03.812471 16601 layer_factory.hpp:77] Creating layer inception_5b/relu_5x5_reduce
I0403 16:00:03.812491 16601 net.cpp:91] Creating Layer inception_5b/relu_5x5_reduce
I0403 16:00:03.812508 16601 net.cpp:425] inception_5b/relu_5x5_reduce <- inception_5b/5x5_reduce
I0403 16:00:03.812525 16601 net.cpp:386] inception_5b/relu_5x5_reduce -> inception_5b/5x5_reduce (in-place)
I0403 16:00:03.812896 16601 net.cpp:141] Setting up inception_5b/relu_5x5_reduce
I0403 16:00:03.812921 16601 net.cpp:148] Top shape: 24 48 7 7 (56448)
I0403 16:00:03.812935 16601 net.cpp:156] Memory required for data: 1334725152
I0403 16:00:03.812949 16601 layer_factory.hpp:77] Creating layer inception_5b/5x5
I0403 16:00:03.812969 16601 net.cpp:91] Creating Layer inception_5b/5x5
I0403 16:00:03.812986 16601 net.cpp:425] inception_5b/5x5 <- inception_5b/5x5_reduce
I0403 16:00:03.813004 16601 net.cpp:399] inception_5b/5x5 -> inception_5b/5x5
I0403 16:00:03.815011 16601 net.cpp:141] Setting up inception_5b/5x5
I0403 16:00:03.815039 16601 net.cpp:148] Top shape: 24 128 7 7 (150528)
I0403 16:00:03.815055 16601 net.cpp:156] Memory required for data: 1335327264
I0403 16:00:03.815074 16601 layer_factory.hpp:77] Creating layer inception_5b/relu_5x5
I0403 16:00:03.815094 16601 net.cpp:91] Creating Layer inception_5b/relu_5x5
I0403 16:00:03.815112 16601 net.cpp:425] inception_5b/relu_5x5 <- inception_5b/5x5
I0403 16:00:03.815130 16601 net.cpp:386] inception_5b/relu_5x5 -> inception_5b/5x5 (in-place)
I0403 16:00:03.815322 16601 net.cpp:141] Setting up inception_5b/relu_5x5
I0403 16:00:03.815348 16601 net.cpp:148] Top shape: 24 128 7 7 (150528)
I0403 16:00:03.815363 16601 net.cpp:156] Memory required for data: 1335929376
I0403 16:00:03.815377 16601 layer_factory.hpp:77] Creating layer inception_5b/pool
I0403 16:00:03.815394 16601 net.cpp:91] Creating Layer inception_5b/pool
I0403 16:00:03.815409 16601 net.cpp:425] inception_5b/pool <- inception_5a/output_inception_5a/output_0_split_3
I0403 16:00:03.815428 16601 net.cpp:399] inception_5b/pool -> inception_5b/pool
I0403 16:00:03.815500 16601 net.cpp:141] Setting up inception_5b/pool
I0403 16:00:03.815522 16601 net.cpp:148] Top shape: 24 832 7 7 (978432)
I0403 16:00:03.815536 16601 net.cpp:156] Memory required for data: 1339843104
I0403 16:00:03.815551 16601 layer_factory.hpp:77] Creating layer inception_5b/pool_proj
I0403 16:00:03.815575 16601 net.cpp:91] Creating Layer inception_5b/pool_proj
I0403 16:00:03.815595 16601 net.cpp:425] inception_5b/pool_proj <- inception_5b/pool
I0403 16:00:03.815613 16601 net.cpp:399] inception_5b/pool_proj -> inception_5b/pool_proj
I0403 16:00:03.817862 16601 net.cpp:141] Setting up inception_5b/pool_proj
I0403 16:00:03.817889 16601 net.cpp:148] Top shape: 24 128 7 7 (150528)
I0403 16:00:03.817904 16601 net.cpp:156] Memory required for data: 1340445216
I0403 16:00:03.817921 16601 layer_factory.hpp:77] Creating layer inception_5b/relu_pool_proj
I0403 16:00:03.817941 16601 net.cpp:91] Creating Layer inception_5b/relu_pool_proj
I0403 16:00:03.817958 16601 net.cpp:425] inception_5b/relu_pool_proj <- inception_5b/pool_proj
I0403 16:00:03.817975 16601 net.cpp:386] inception_5b/relu_pool_proj -> inception_5b/pool_proj (in-place)
I0403 16:00:03.818265 16601 net.cpp:141] Setting up inception_5b/relu_pool_proj
I0403 16:00:03.818290 16601 net.cpp:148] Top shape: 24 128 7 7 (150528)
I0403 16:00:03.818305 16601 net.cpp:156] Memory required for data: 1341047328
I0403 16:00:03.818320 16601 layer_factory.hpp:77] Creating layer inception_5b/output
I0403 16:00:03.818341 16601 net.cpp:91] Creating Layer inception_5b/output
I0403 16:00:03.818372 16601 net.cpp:425] inception_5b/output <- inception_5b/1x1
I0403 16:00:03.818389 16601 net.cpp:425] inception_5b/output <- inception_5b/3x3
I0403 16:00:03.818405 16601 net.cpp:425] inception_5b/output <- inception_5b/5x5
I0403 16:00:03.818421 16601 net.cpp:425] inception_5b/output <- inception_5b/pool_proj
I0403 16:00:03.818438 16601 net.cpp:399] inception_5b/output -> inception_5b/output
I0403 16:00:03.818487 16601 net.cpp:141] Setting up inception_5b/output
I0403 16:00:03.818512 16601 net.cpp:148] Top shape: 24 1024 7 7 (1204224)
I0403 16:00:03.818527 16601 net.cpp:156] Memory required for data: 1345864224
I0403 16:00:03.818542 16601 layer_factory.hpp:77] Creating layer pool5/7x7_s1
I0403 16:00:03.818559 16601 net.cpp:91] Creating Layer pool5/7x7_s1
I0403 16:00:03.818579 16601 net.cpp:425] pool5/7x7_s1 <- inception_5b/output
I0403 16:00:03.818599 16601 net.cpp:399] pool5/7x7_s1 -> pool5/7x7_s1
I0403 16:00:03.818809 16601 net.cpp:141] Setting up pool5/7x7_s1
I0403 16:00:03.818833 16601 net.cpp:148] Top shape: 24 1024 1 1 (24576)
I0403 16:00:03.818848 16601 net.cpp:156] Memory required for data: 1345962528
I0403 16:00:03.818861 16601 layer_factory.hpp:77] Creating layer pool5/drop_7x7_s1
I0403 16:00:03.818881 16601 net.cpp:91] Creating Layer pool5/drop_7x7_s1
I0403 16:00:03.818897 16601 net.cpp:425] pool5/drop_7x7_s1 <- pool5/7x7_s1
I0403 16:00:03.818912 16601 net.cpp:386] pool5/drop_7x7_s1 -> pool5/7x7_s1 (in-place)
I0403 16:00:03.818963 16601 net.cpp:141] Setting up pool5/drop_7x7_s1
I0403 16:00:03.818985 16601 net.cpp:148] Top shape: 24 1024 1 1 (24576)
I0403 16:00:03.819000 16601 net.cpp:156] Memory required for data: 1346060832
I0403 16:00:03.819013 16601 layer_factory.hpp:77] Creating layer loss3/classifier_plantvillage
I0403 16:00:03.819031 16601 net.cpp:91] Creating Layer loss3/classifier_plantvillage
I0403 16:00:03.819049 16601 net.cpp:425] loss3/classifier_plantvillage <- pool5/7x7_s1
I0403 16:00:03.819067 16601 net.cpp:399] loss3/classifier_plantvillage -> loss3/classifier_plantvillage
I0403 16:00:03.819483 16601 net.cpp:141] Setting up loss3/classifier_plantvillage
I0403 16:00:03.819506 16601 net.cpp:148] Top shape: 24 38 (912)
I0403 16:00:03.819520 16601 net.cpp:156] Memory required for data: 1346064480
I0403 16:00:03.819538 16601 layer_factory.hpp:77] Creating layer loss3/classifier_plantvillage_loss3/classifier_plantvillage_0_split
I0403 16:00:03.819555 16601 net.cpp:91] Creating Layer loss3/classifier_plantvillage_loss3/classifier_plantvillage_0_split
I0403 16:00:03.819573 16601 net.cpp:425] loss3/classifier_plantvillage_loss3/classifier_plantvillage_0_split <- loss3/classifier_plantvillage
I0403 16:00:03.819596 16601 net.cpp:399] loss3/classifier_plantvillage_loss3/classifier_plantvillage_0_split -> loss3/classifier_plantvillage_loss3/classifier_plantvillage_0_split_0
I0403 16:00:03.819617 16601 net.cpp:399] loss3/classifier_plantvillage_loss3/classifier_plantvillage_0_split -> loss3/classifier_plantvillage_loss3/classifier_plantvillage_0_split_1
I0403 16:00:03.819635 16601 net.cpp:399] loss3/classifier_plantvillage_loss3/classifier_plantvillage_0_split -> loss3/classifier_plantvillage_loss3/classifier_plantvillage_0_split_2
I0403 16:00:03.819655 16601 net.cpp:399] loss3/classifier_plantvillage_loss3/classifier_plantvillage_0_split -> loss3/classifier_plantvillage_loss3/classifier_plantvillage_0_split_3
I0403 16:00:03.819756 16601 net.cpp:141] Setting up loss3/classifier_plantvillage_loss3/classifier_plantvillage_0_split
I0403 16:00:03.819778 16601 net.cpp:148] Top shape: 24 38 (912)
I0403 16:00:03.819802 16601 net.cpp:148] Top shape: 24 38 (912)
I0403 16:00:03.819816 16601 net.cpp:148] Top shape: 24 38 (912)
I0403 16:00:03.819831 16601 net.cpp:148] Top shape: 24 38 (912)
I0403 16:00:03.819844 16601 net.cpp:156] Memory required for data: 1346079072
I0403 16:00:03.819857 16601 layer_factory.hpp:77] Creating layer loss1/loss
I0403 16:00:03.819905 16601 net.cpp:91] Creating Layer loss1/loss
I0403 16:00:03.819923 16601 net.cpp:425] loss1/loss <- loss1/classifier_plantvillage_loss1/classifier_plantvillage_0_split_0
I0403 16:00:03.819952 16601 net.cpp:425] loss1/loss <- label_data_1_split_0
…
