…
I0403 11:13:28.559667 31624 net.cpp:313] The NetState phase (0) differed from the phase (1) specified by a rule in layer loss3/top-5
I0403 11:13:28.563433 31624 net.cpp:49] Initializing net from parameters: 
state {
  phase: TRAIN
}
layer {
  name: "data"
  type: "Data"
  top: "data"
  top: "label"
  include {
    phase: TRAIN
  }
  transform_param {
    mirror: true
    crop_size: 224
    mean_file: "/home/mohanty/data/final_dataset/lmdb/grayscale-40-60/mean.binaryproto"
  }
  data_param {
    source: "/home/mohanty/data/final_dataset/lmdb/grayscale-40-60/train_db"
    batch_size: 24
    backend: LMDB
  }
}
layer {
  name: "conv1/7x7_s2"
  type: "Convolution"
  bottom: "data"
  top: "conv1/7x7_s2"
  param {
    lr_mult: 1
    decay_mult: 1
  }
  param {
    lr_mult: 2
    decay_mult: 0
  }
  convolution_param {
    num_output: 64
    pad: 3
    kernel_size: 7
    stride: 2
    weight_filler {
      type: "xavier"
      std: 0.1
    }
    bias_filler {
      type: "constant"
      value: 0.2
    }
  }
}
layer {
  name: "conv1/relu_7x7"
  type: "ReLU"
  bottom: "conv1/7x7_s2"
  top: "conv1/7x7_s2"
}
layer {
  name: "pool1/3x3_s2"
  type: "Pooling"
  bottom: "conv1/7x7_s2"
  top: "pool1/3x3_s2"
  pooling_param {
    pool: MAX
    kernel_size: 3
    stride: 2
  }
}
layer {
  name: "pool1/norm1"
  type: "LRN"
  bottom: "pool1/3x3_s2"
  top: "pool1/norm1"
  lrn_param {
    local_size: 5
    alpha: 0.0001
    beta: 0.75
  }
}
layer {
  name: "conv2/3x3_reduce"
  type: "Convolution"
  bottom: "pool1/norm1"
  top: "conv2/3x3_reduce"
  param {
    lr_mult: 1
    decay_mult: 1
  }
  param {
    lr_mult: 2
    decay_mult: 0
  }
  convolution_param {
    num_output: 64
    kernel_size: 1
    weight_filler {
      type: "xavier"
      std: 0.1
    }
    bias_filler {
      type: "constant"
      value: 0.2
    }
  }
}
layer {
  name: "conv2/relu_3x3_reduce"
  type: "ReLU"
  bottom: "conv2/3x3_reduce"
  top: "conv2/3x3_reduce"
}
layer {
  name: "conv2/3x3"
  type: "Convolution"
  bottom: "conv2/3x3_reduce"
  top: "conv2/3x3"
  param {
    lr_mult: 1
    decay_mult: 1
  }
  param {
    lr_mult: 2
    decay_mult: 0
  }
  convolution_param {
    num_output: 192
    pad: 1
    kernel_size: 3
    weight_filler {
      type: "xavier"
      std: 0.03
    }
    bias_filler {
      type: "constant"
      value: 0.2
    }
  }
}
layer {
  name: "conv2/relu_3x3"
  type: "ReLU"
  bottom: "conv2/3x3"
  top: "conv2/3x3"
}
layer {
  name: "conv2/norm2"
  type: "LRN"
  bottom: "conv2/3x3"
  top: "conv2/norm2"
  lrn_param {
    local_size: 5
    alpha: 0.0001
    beta: 0.75
  }
}
layer {
  name: "pool2/3x3_s2"
  type: "Pooling"
  bottom: "conv2/norm2"
  top: "pool2/3x3_s2"
  pooling_param {
    pool: MAX
    kernel_size: 3
    stride: 2
  }
}
layer {
  name: "inception_3a/1x1"
  type: "Convolution"
  bottom: "pool2/3x3_s2"
  top: "inception_3a/1x1"
  param {
    lr_mult: 1
    decay_mult: 1
  }
  param {
    lr_mult: 2
    decay_mult: 0
  }
  convolution_param {
    num_output: 64
    kernel_size: 1
    weight_filler {
      type: "xavier"
      std: 0.03
    }
    bias_filler {
      type: "constant"
      value: 0.2
    }
  }
}
layer {
  name: "inception_3a/relu_1x1"
  type: "ReLU"
  bottom: "inception_3a/1x1"
  top: "inception_3a/1x1"
}
layer {
  name: "inception_3a/3x3_reduce"
  type: "Convolution"
  bottom: "pool2/3x3_s2"
  top: "inception_3a/3x3_reduce"
  param {
    lr_mult: 1
    decay_mult: 1
  }
  param {
    lr_mult: 2
    decay_mult: 0
  }
  convolution_param {
    num_output: 96
    kernel_size: 1
    weight_filler {
      type: "xavier"
      std: 0.09
    }
    bias_filler {
      type: "constant"
      value: 0.2
    }
  }
}
layer {
  name: "inception_3a/relu_3x3_reduce"
  type: "ReLU"
  bottom: "inception_3a/3x3_reduce"
  top: "inception_3a/3x3_reduce"
}
layer {
  name: "inception_3a/3x3"
  type: "Convolution"
  bottom: "inception_3a/3x3_reduce"
  top: "inception_3a/3x3"
  param {
    lr_mult: 1
    decay_mult: 1
  }
  param {
    lr_mult: 2
    decay_mult: 0
  }
  convolution_param {
    num_output: 128
    pad: 1
    kernel_size: 3
    weight_filler {
      type: "xavier"
      std: 0.03
    }
    bias_filler {
      type: "constant"
      value: 0.2
    }
  }
}
layer {
  name: "inception_3a/relu_3x3"
  type: "ReLU"
  bottom: "inception_3a/3x3"
  top: "inception_3a/3x3"
}
layer {
  name: "inception_3a/5x5_reduce"
  type: "Convolution"
  bottom: "pool2/3x3_s2"
  top: "inception_3a/5x5_reduce"
  param {
    lr_mult: 1
    decay_mult: 1
  }
  param {
    lr_mult: 2
    decay_mult: 0
  }
  convolution_param {
    num_output: 16
    kernel_size: 1
    weight_filler {
      type: "xavier"
      std: 0.2
    }
    bias_filler {
      type: "constant"
      value: 0.2
    }
  }
}
layer {
  name: "inception_3a/relu_5x5_reduce"
  type: "ReLU"
  bottom: "inception_3a/5x5_reduce"
  top: "inception_3a/5x5_reduce"
}
layer {
  name: "inception_3a/5x5"
  type: "Convolution"
  bottom: "inception_3a/5x5_reduce"
  top: "inception_3a/5x5"
  param {
    lr_mult: 1
    decay_mult: 1
  }
  param {
    lr_mult: 2
    decay_mult: 0
  }
  convolution_param {
    num_output: 32
    pad: 2
    kernel_size: 5
    weight_filler {
      type: "xavier"
      std: 0.03
    }
    bias_filler {
      type: "constant"
      value: 0.2
    }
  }
}
layer {
  name: "inception_3a/relu_5x5"
  type: "ReLU"
  bottom: "inception_3a/5x5"
  top: "inception_3a/5x5"
}
layer {
  name: "inception_3a/pool"
  type: "Pooling"
  bottom: "pool2/3x3_s2"
  top: "inception_3a/pool"
  pooling_param {
    pool: MAX
    kernel_size: 3
    stride: 1
    pad: 1
  }
}
layer {
  name: "inception_3a/pool_proj"
  type: "Convolution"
  bottom: "inception_3a/pool"
  top: "inception_3a/pool_proj"
  param {
    lr_mult: 1
    decay_mult: 1
  }
  param {
    lr_mult: 2
    decay_mult: 0
  }
  convolution_param {
    num_output: 32
    kernel_size: 1
    weight_filler {
      type: "xavier"
      std: 0.1
    }
    bias_filler {
      type: "constant"
      value: 0.2
    }
  }
}
layer {
  name: "inception_3a/relu_pool_proj"
  type: "ReLU"
  bottom: "inception_3a/pool_proj"
  top: "inception_3a/pool_proj"
}
layer {
  name: "inception_3a/output"
  type: "Concat"
  bottom: "inception_3a/1x1"
  bottom: "inception_3a/3x3"
  bottom: "inception_3a/5x5"
  bottom: "inception_3a/pool_proj"
  top: "inception_3a/output"
}
layer {
  name: "inception_3b/1x1"
  type: "Convolution"
  bottom: "inception_3a/output"
  top: "inception_3b/1x1"
  param {
    lr_mult: 1
    decay_mult: 1
  }
  param {
    lr_mult: 2
    decay_mult: 0
  }
  convolution_param {
    num_output: 128
    kernel_size: 1
    weight_filler {
      type: "xavier"
      std: 0.03
    }
    bias_filler {
      type: "constant"
      value: 0.2
    }
  }
}
layer {
  name: "inception_3b/relu_1x1"
  type: "ReLU"
  bottom: "inception_3b/1x1"
  top: "inception_3b/1x1"
}
layer {
  name: "inception_3b/3x3_reduce"
  type: "Convolution"
  bottom: "inception_3a/output"
  top: "inception_3b/3x3_reduce"
  param {
    lr_mult: 1
    decay_mult: 1
  }
  param {
    lr_mult: 2
    decay_mult: 0
  }
  convolution_param {
    num_output: 128
    kernel_size: 1
    weight_filler {
      type: "xavier"
      std: 0.09
    }
    bias_filler {
      type: "constant"
      value: 0.2
    }
  }
}
layer {
  name: "inception_3b/relu_3x3_reduce"
  type: "ReLU"
  bottom: "inception_3b/3x3_reduce"
  top: "inception_3b/3x3_reduce"
}
layer {
  name: "inception_3b/3x3"
  type: "Convolution"
  bottom: "inception_3b/3x3_reduce"
  top: "inception_3b/3x3"
  param {
    lr_mult: 1
    decay_mult: 1
  }
  param {
    lr_mult: 2
    decay_mult: 0
  }
  convolution_param {
    num_output: 192
    pad: 1
    kernel_size: 3
    weight_filler {
      type: "xavier"
      std: 0.03
    }
    bias_filler {
      type: "constant"
      value: 0.2
    }
  }
}
layer {
  name: "inception_3b/relu_3x3"
  type: "ReLU"
  bottom: "inception_3b/3x3"
  top: "inception_3b/3x3"
}
layer {
  name: "inception_3b/5x5_reduce"
  type: "Convolution"
  bottom: "inception_3a/output"
  top: "inception_3b/5x5_reduce"
  param {
    lr_mult: 1
    decay_mult: 1
  }
  param {
    lr_mult: 2
    decay_mult: 0
  }
  convolution_param {
    num_output: 32
    kernel_size: 1
    weight_filler {
      type: "xavier"
      std: 0.2
    }
    bias_filler {
      type: "constant"
      value: 0.2
    }
  }
}
layer {
  name: "inception_3b/relu_5x5_reduce"
  type: "ReLU"
  bottom: "inception_3b/5x5_reduce"
  top: "inception_3b/5x5_reduce"
}
layer {
  name: "inception_3b/5x5"
  type: "Convolution"
  bottom: "inception_3b/5x5_reduce"
  top: "inception_3b/5x5"
  param {
    lr_mult: 1
    decay_mult: 1
  }
  param {
    lr_mult: 2
    decay_mult: 0
  }
  convolution_param {
    num_output: 96
    pad: 2
    kernel_size: 5
    weight_filler {
      type: "xavier"
      std: 0.03
    }
    bias_filler {
      type: "constant"
      value: 0.2
    }
  }
}
layer {
  name: "inception_3b/relu_5x5"
  type: "ReLU"
  bottom: "inception_3b/5x5"
  top: "inception_3b/5x5"
}
layer {
  name: "inception_3b/pool"
  type: "Pooling"
  bottom: "inception_3a/output"
  top: "inception_3b/pool"
  pooling_param {
    pool: MAX
    kernel_size: 3
    stride: 1
    pad: 1
  }
}
layer {
  name: "inception_3b/pool_proj"
  type: "Convolution"
  bottom: "inception_3b/pool"
  top: "inception_3b/pool_proj"
  param {
    lr_mult: 1
    decay_mult: 1
  }
  param {
    lr_mult: 2
    decay_mult: 0
  }
  convolution_param {
    num_output: 64
    kernel_size: 1
    weight_filler {
      type: "xavier"
      std: 0.1
    }
    bias_filler {
      type: "constant"
      value: 0.2
    }
  }
}
layer {
  name: "inception_3b/relu_pool_proj"
  type: "ReLU"
  bottom: "inception_3b/pool_proj"
  top: "inception_3b/pool_proj"
}
layer {
  name: "inception_3b/output"
  type: "Concat"
  bottom: "inception_3b/1x1"
  bottom: "inception_3b/3x3"
  bottom: "inception_3b/5x5"
  bottom: "inception_3b/pool_proj"
  top: "inception_3b/output"
}
layer {
  name: "pool3/3x3_s2"
  type: "Pooling"
  bottom: "inception_3b/output"
  top: "pool3/3x3_s2"
  pooling_param {
    pool: MAX
    kernel_size: 3
    stride: 2
  }
}
layer {
  name: "inception_4a/1x1"
  type: "Convolution"
  bottom: "pool3/3x3_s2"
  top: "inception_4a/1x1"
  param {
    lr_mult: 1
    decay_mult: 1
  }
  param {
    lr_mult: 2
    decay_mult: 0
  }
  convolution_param {
    num_output: 192
    kernel_size: 1
    weight_filler {
      type: "xavier"
      std: 0.03
    }
    bias_filler {
      type: "constant"
      value: 0.2
    }
  }
}
layer {
  name: "inception_4a/relu_1x1"
  type: "ReLU"
  bottom: "inception_4a/1x1"
  top: "inception_4a/1x1"
}
layer {
  name: "inception_4a/3x3_reduce"
  type: "Convolution"
  bottom: "pool3/3x3_s2"
  top: "inception_4a/3x3_reduce"
  param {
    lr_mult: 1
    decay_mult: 1
  }
  param {
    lr_mult: 2
    decay_mult: 0
  }
  convolution_param {
    num_output: 96
    kernel_size: 1
    weight_filler {
      type: "xavier"
      std: 0.09
    }
    bias_filler {
      type: "constant"
      value: 0.2
    }
  }
}
layer {
  name: "inception_4a/relu_3x3_reduce"
  type: "ReLU"
  bottom: "inception_4a/3x3_reduce"
  top: "inception_4a/3x3_reduce"
}
layer {
  name: "inception_4a/3x3"
  type: "Convolution"
  bottom: "inception_4a/3x3_reduce"
  top: "inception_4a/3x3"
  param {
    lr_mult: 1
    decay_mult: 1
  }
  param {
    lr_mult: 2
    decay_mult: 0
  }
  convolution_param {
    num_output: 208
    pad: 1
    kernel_size: 3
    weight_filler {
      type: "xavier"
      std: 0.03
    }
    bias_filler {
      type: "constant"
      value: 0.2
    }
  }
}
layer {
  name: "inception_4a/relu_3x3"
  type: "ReLU"
  bottom: "inception_4a/3x3"
  top: "inception_4a/3x3"
}
layer {
  name: "inception_4a/5x5_reduce"
  type: "Convolution"
  bottom: "pool3/3x3_s2"
  top: "inception_4a/5x5_reduce"
  param {
    lr_mult: 1
    decay_mult: 1
  }
  param {
    lr_mult: 2
    decay_mult: 0
  }
  convolution_param {
    num_output: 16
    kernel_size: 1
    weight_filler {
      type: "xavier"
      std: 0.2
    }
    bias_filler {
      type: "constant"
      value: 0.2
    }
  }
}
layer {
  name: "inception_4a/relu_5x5_reduce"
  type: "ReLU"
  bottom: "inception_4a/5x5_reduce"
  top: "inception_4a/5x5_reduce"
}
layer {
  name: "inception_4a/5x5"
  type: "Convolution"
  bottom: "inception_4a/5x5_reduce"
  top: "inception_4a/5x5"
  param {
    lr_mult: 1
    decay_mult: 1
  }
  param {
    lr_mult: 2
    decay_mult: 0
  }
  convolution_param {
    num_output: 48
    pad: 2
    kernel_size: 5
    weight_filler {
      type: "xavier"
      std: 0.03
    }
    bias_filler {
      type: "constant"
      value: 0.2
    }
  }
}
layer {
  name: "inception_4a/relu_5x5"
  type: "ReLU"
  bottom: "inception_4a/5x5"
  top: "inception_4a/5x5"
}
layer {
  name: "inception_4a/pool"
  type: "Pooling"
  bottom: "pool3/3x3_s2"
  top: "inception_4a/pool"
  pooling_param {
    pool: MAX
    kernel_size: 3
    stride: 1
    pad: 1
  }
}
layer {
  name: "inception_4a/pool_proj"
  type: "Convolution"
  bottom: "inception_4a/pool"
  top: "inception_4a/pool_proj"
  param {
    lr_mult: 1
    decay_mult: 1
  }
  param {
    lr_mult: 2
    decay_mult: 0
  }
  convolution_param {
    num_output: 64
    kernel_size: 1
    weight_filler {
      type: "xavier"
      std: 0.1
    }
    bias_filler {
      type: "constant"
      value: 0.2
    }
  }
}
layer {
  name: "inception_4a/relu_pool_proj"
  type: "ReLU"
  bottom: "inception_4a/pool_proj"
  top: "inception_4a/pool_proj"
}
layer {
  name: "inception_4a/output"
  type: "Concat"
  bottom: "inception_4a/1x1"
  bottom: "inception_4a/3x3"
  bottom: "inception_4a/5x5"
  bottom: "inception_4a/pool_proj"
  top: "inception_4a/output"
}
layer {
  name: "loss1/ave_pool"
  type: "Pooling"
  bottom: "inception_4a/output"
  top: "loss1/ave_pool"
  pooling_param {
    pool: AVE
    kernel_size: 5
    stride: 3
  }
}
layer {
  name: "loss1/conv"
  type: "Convolution"
  bottom: "loss1/ave_pool"
  top: "loss1/conv"
  param {
    lr_mult: 1
    decay_mult: 1
  }
  param {
    lr_mult: 2
    decay_mult: 0
  }
  convolution_param {
    num_output: 128
    kernel_size: 1
    weight_filler {
      type: "xavier"
      std: 0.08
    }
    bias_filler {
      type: "constant"
      value: 0.2
    }
  }
}
layer {
  name: "loss1/relu_conv"
  type: "ReLU"
  bottom: "loss1/conv"
  top: "loss1/conv"
}
layer {
  name: "loss1/fc"
  type: "InnerProduct"
  bottom: "loss1/conv"
  top: "loss1/fc"
  param {
    lr_mult: 1
    decay_mult: 1
  }
  param {
    lr_mult: 2
    decay_mult: 0
  }
  inner_product_param {
    num_output: 1024
    weight_filler {
      type: "xavier"
      std: 0.02
    }
    bias_filler {
      type: "constant"
      value: 0.2
    }
  }
}
layer {
  name: "loss1/relu_fc"
  type: "ReLU"
  bottom: "loss1/fc"
  top: "loss1/fc"
}
layer {
  name: "loss1/drop_fc"
  type: "Dropout"
  bottom: "loss1/fc"
  top: "loss1/fc"
  dropout_param {
    dropout_ratio: 0.7
  }
}
layer {
  name: "loss1/classifier_plantvillage"
  type: "InnerProduct"
  bottom: "loss1/fc"
  top: "loss1/classifier_plantvillage"
  param {
    lr_mult: 1
    decay_mult: 1
  }
  param {
    lr_mult: 2
    decay_mult: 0
  }
  inner_product_param {
    num_output: 38
    weight_filler {
      type: "xavier"
      std: 0.0009765625
    }
    bias_filler {
      type: "constant"
      value: 0
    }
  }
}
layer {
  name: "inception_4b/1x1"
  type: "Convolution"
  bottom: "inception_4a/output"
  top: "inception_4b/1x1"
  param {
    lr_mult: 1
    decay_mult: 1
  }
  param {
    lr_mult: 2
    decay_mult: 0
  }
  convolution_param {
    num_output: 160
    kernel_size: 1
    weight_filler {
      type: "xavier"
      std: 0.03
    }
    bias_filler {
      type: "constant"
      value: 0.2
    }
  }
}
layer {
  name: "inception_4b/relu_1x1"
  type: "ReLU"
  bottom: "inception_4b/1x1"
  top: "inception_4b/1x1"
}
layer {
  name: "inception_4b/3x3_reduce"
  type: "Convolution"
  bottom: "inception_4a/output"
  top: "inception_4b/3x3_reduce"
  param {
    lr_mult: 1
    decay_mult: 1
  }
  param {
    lr_mult: 2
    decay_mult: 0
  }
  convolution_param {
    num_output: 112
    kernel_size: 1
    weight_filler {
      type: "xavier"
      std: 0.09
    }
    bias_filler {
      type: "constant"
      value: 0.2
    }
  }
}
layer {
  name: "inception_4b/relu_3x3_reduce"
  type: "ReLU"
  bottom: "inception_4b/3x3_reduce"
  top: "inception_4b/3x3_reduce"
}
layer {
  name: "inception_4b/3x3"
  type: "Convolution"
  bottom: "inception_4b/3x3_reduce"
  top: "inception_4b/3x3"
  param {
    lr_mult: 1
    decay_mult: 1
  }
  param {
    lr_mult: 2
    decay_mult: 0
  }
  convolution_param {
    num_output: 224
    pad: 1
    kernel_size: 3
    weight_filler {
      type: "xavier"
      std: 0.03
    }
    bias_filler {
      type: "constant"
      value: 0.2
    }
  }
}
layer {
  name: "inception_4b/relu_3x3"
  type: "ReLU"
  bottom: "inception_4b/3x3"
  top: "inception_4b/3x3"
}
layer {
  name: "inception_4b/5x5_reduce"
  type: "Convolution"
  bottom: "inception_4a/output"
  top: "inception_4b/5x5_reduce"
  param {
    lr_mult: 1
    decay_mult: 1
  }
  param {
    lr_mult: 2
    decay_mult: 0
  }
  convolution_param {
    num_output: 24
    kernel_size: 1
    weight_filler {
      type: "xavier"
      std: 0.2
    }
    bias_filler {
      type: "constant"
      value: 0.2
    }
  }
}
layer {
  name: "inception_4b/relu_5x5_reduce"
  type: "ReLU"
  bottom: "inception_4b/5x5_reduce"
  top: "inception_4b/5x5_reduce"
}
layer {
  name: "inception_4b/5x5"
  type: "Convolution"
  bottom: "inception_4b/5x5_reduce"
  top: "inception_4b/5x5"
  param {
    lr_mult: 1
    decay_mult: 1
  }
  param {
    lr_mult: 2
    decay_mult: 0
  }
  convolution_param {
    num_output: 64
    pad: 2
    kernel_size: 5
    weight_filler {
      type: "xavier"
      std: 0.03
    }
    bias_filler {
      type: "constant"
      value: 0.2
    }
  }
}
layer {
  name: "inception_4b/relu_5x5"
  type: "ReLU"
  bottom: "inception_4b/5x5"
  top: "inception_4b/5x5"
}
layer {
  name: "inception_4b/pool"
  type: "Pooling"
  bottom: "inception_4a/output"
  top: "inception_4b/pool"
  pooling_param {
    pool: MAX
    kernel_size: 3
    stride: 1
    pad: 1
  }
}
layer {
  name: "inception_4b/pool_proj"
  type: "Convolution"
  bottom: "inception_4b/pool"
  top: "inception_4b/pool_proj"
  param {
    lr_mult: 1
    decay_mult: 1
  }
  param {
    lr_mult: 2
    decay_mult: 0
  }
  convolution_param {
    num_output: 64
    kernel_size: 1
    weight_filler {
      type: "xavier"
      std: 0.1
    }
    bias_filler {
      type: "constant"
      value: 0.2
    }
  }
}
layer {
  name: "inception_4b/relu_pool_proj"
  type: "ReLU"
  bottom: "inception_4b/pool_proj"
  top: "inception_4b/pool_proj"
}
layer {
  name: "inception_4b/output"
  type: "Concat"
  bottom: "inception_4b/1x1"
  bottom: "inception_4b/3x3"
  bottom: "inception_4b/5x5"
  bottom: "inception_4b/pool_proj"
  top: "inception_4b/output"
}
layer {
  name: "inception_4c/1x1"
  type: "Convolution"
  bottom: "inception_4b/output"
  top: "inception_4c/1x1"
  param {
    lr_mult: 1
    decay_mult: 1
  }
  param {
    lr_mult: 2
    decay_mult: 0
  }
  convolution_param {
    num_output: 128
    kernel_size: 1
    weight_filler {
      type: "xavier"
      std: 0.03
    }
    bias_filler {
      type: "constant"
      value: 0.2
    }
  }
}
layer {
  name: "inception_4c/relu_1x1"
  type: "ReLU"
  bottom: "inception_4c/1x1"
  top: "inception_4c/1x1"
}
layer {
  name: "inception_4c/3x3_reduce"
  type: "Convolution"
  bottom: "inception_4b/output"
  top: "inception_4c/3x3_reduce"
  param {
    lr_mult: 1
    decay_mult: 1
  }
  param {
    lr_mult: 2
    decay_mult: 0
  }
  convolution_param {
    num_output: 128
    kernel_size: 1
    weight_filler {
      type: "xavier"
      std: 0.09
    }
    bias_filler {
      type: "constant"
      value: 0.2
    }
  }
}
layer {
  name: "inception_4c/relu_3x3_reduce"
  type: "ReLU"
  bottom: "inception_4c/3x3_reduce"
  top: "inception_4c/3x3_reduce"
}
layer {
  name: "inception_4c/3x3"
  type: "Convolution"
  bottom: "inception_4c/3x3_reduce"
  top: "inception_4c/3x3"
  param {
    lr_mult: 1
    decay_mult: 1
  }
  param {
    lr_mult: 2
    decay_mult: 0
  }
  convolution_param {
    num_output: 256
    pad: 1
    kernel_size: 3
    weight_filler {
      type: "xavier"
      std: 0.03
    }
    bias_filler {
      type: "constant"
      value: 0.2
    }
  }
}
layer {
  name: "inception_4c/relu_3x3"
  type: "ReLU"
  bottom: "inception_4c/3x3"
  top: "inception_4c/3x3"
}
layer {
  name: "inception_4c/5x5_reduce"
  type: "Convolution"
  bottom: "inception_4b/output"
  top: "inception_4c/5x5_reduce"
  param {
    lr_mult: 1
    decay_mult: 1
  }
  param {
    lr_mult: 2
    decay_mult: 0
  }
  convolution_param {
    num_output: 24
    kernel_size: 1
    weight_filler {
      type: "xavier"
      std: 0.2
    }
    bias_filler {
      type: "constant"
      value: 0.2
    }
  }
}
layer {
  name: "inception_4c/relu_5x5_reduce"
  type: "ReLU"
  bottom: "inception_4c/5x5_reduce"
  top: "inception_4c/5x5_reduce"
}
layer {
  name: "inception_4c/5x5"
  type: "Convolution"
  bottom: "inception_4c/5x5_reduce"
  top: "inception_4c/5x5"
  param {
    lr_mult: 1
    decay_mult: 1
  }
  param {
    lr_mult: 2
    decay_mult: 0
  }
  convolution_param {
    num_output: 64
    pad: 2
    kernel_size: 5
    weight_filler {
      type: "xavier"
      std: 0.03
    }
    bias_filler {
      type: "constant"
      value: 0.2
    }
  }
}
layer {
  name: "inception_4c/relu_5x5"
  type: "ReLU"
  bottom: "inception_4c/5x5"
  top: "inception_4c/5x5"
}
layer {
  name: "inception_4c/pool"
  type: "Pooling"
  bottom: "inception_4b/output"
  top: "inception_4c/pool"
  pooling_param {
    pool: MAX
    kernel_size: 3
    stride: 1
    pad: 1
  }
}
layer {
  name: "inception_4c/pool_proj"
  type: "Convolution"
  bottom: "inception_4c/pool"
  top: "inception_4c/pool_proj"
  param {
    lr_mult: 1
    decay_mult: 1
  }
  param {
    lr_mult: 2
    decay_mult: 0
  }
  convolution_param {
    num_output: 64
    kernel_size: 1
    weight_filler {
      type: "xavier"
      std: 0.1
    }
    bias_filler {
      type: "constant"
      value: 0.2
    }
  }
}
layer {
  name: "inception_4c/relu_pool_proj"
  type: "ReLU"
  bottom: "inception_4c/pool_proj"
  top: "inception_4c/pool_proj"
}
layer {
  name: "inception_4c/output"
  type: "Concat"
  bottom: "inception_4c/1x1"
  bottom: "inception_4c/3x3"
  bottom: "inception_4c/5x5"
  bottom: "inception_4c/pool_proj"
  top: "inception_4c/output"
}
layer {
  name: "inception_4d/1x1"
  type: "Convolution"
  bottom: "inception_4c/output"
  top: "inception_4d/1x1"
  param {
    lr_mult: 1
    decay_mult: 1
  }
  param {
    lr_mult: 2
    decay_mult: 0
  }
  convolution_param {
    num_output: 112
    kernel_size: 1
    weight_filler {
      type: "xavier"
      std: 0.03
    }
    bias_filler {
      type: "constant"
      value: 0.2
    }
  }
}
layer {
  name: "inception_4d/relu_1x1"
  type: "ReLU"
  bottom: "inception_4d/1x1"
  top: "inception_4d/1x1"
}
layer {
  name: "inception_4d/3x3_reduce"
  type: "Convolution"
  bottom: "inception_4c/output"
  top: "inception_4d/3x3_reduce"
  param {
    lr_mult: 1
    decay_mult: 1
  }
  param {
    lr_mult: 2
    decay_mult: 0
  }
  convolution_param {
    num_output: 144
    kernel_size: 1
    weight_filler {
      type: "xavier"
      std: 0.09
    }
    bias_filler {
      type: "constant"
      value: 0.2
    }
  }
}
layer {
  name: "inception_4d/relu_3x3_reduce"
  type: "ReLU"
  bottom: "inception_4d/3x3_reduce"
  top: "inception_4d/3x3_reduce"
}
layer {
  name: "inception_4d/3x3"
  type: "Convolution"
  bottom: "inception_4d/3x3_reduce"
  top: "inception_4d/3x3"
  param {
    lr_mult: 1
    decay_mult: 1
  }
  param {
    lr_mult: 2
    decay_mult: 0
  }
  convolution_param {
    num_output: 288
    pad: 1
    kernel_size: 3
    weight_filler {
      type: "xavier"
      std: 0.03
    }
    bias_filler {
      type: "constant"
      value: 0.2
    }
  }
}
layer {
  name: "inception_4d/relu_3x3"
  type: "ReLU"
  bottom: "inception_4d/3x3"
  top: "inception_4d/3x3"
}
layer {
  name: "inception_4d/5x5_reduce"
  type: "Convolution"
  bottom: "inception_4c/output"
  top: "inception_4d/5x5_reduce"
  param {
    lr_mult: 1
    decay_mult: 1
  }
  param {
    lr_mult: 2
    decay_mult: 0
  }
  convolution_param {
    num_output: 32
    kernel_size: 1
    weight_filler {
      type: "xavier"
      std: 0.2
    }
    bias_filler {
      type: "constant"
      value: 0.2
    }
  }
}
layer {
  name: "inception_4d/relu_5x5_reduce"
  type: "ReLU"
  bottom: "inception_4d/5x5_reduce"
  top: "inception_4d/5x5_reduce"
}
layer {
  name: "inception_4d/5x5"
  type: "Convolution"
  bottom: "inception_4d/5x5_reduce"
  top: "inception_4d/5x5"
  param {
    lr_mult: 1
    decay_mult: 1
  }
  param {
    lr_mult: 2
    decay_mult: 0
  }
  convolution_param {
    num_output: 64
    pad: 2
    kernel_size: 5
    weight_filler {
      type: "xavier"
      std: 0.03
    }
    bias_filler {
      type: "constant"
      value: 0.2
    }
  }
}
layer {
  name: "inception_4d/relu_5x5"
  type: "ReLU"
  bottom: "inception_4d/5x5"
  top: "inception_4d/5x5"
}
layer {
  name: "inception_4d/pool"
  type: "Pooling"
  bottom: "inception_4c/output"
  top: "inception_4d/pool"
  pooling_param {
    pool: MAX
    kernel_size: 3
    stride: 1
    pad: 1
  }
}
layer {
  name: "inception_4d/pool_proj"
  type: "Convolution"
  bottom: "inception_4d/pool"
  top: "inception_4d/pool_proj"
  param {
    lr_mult: 1
    decay_mult: 1
  }
  param {
    lr_mult: 2
    decay_mult: 0
  }
  convolution_param {
    num_output: 64
    kernel_size: 1
    weight_filler {
      type: "xavier"
      std: 0.1
    }
    bias_filler {
      type: "constant"
      value: 0.2
    }
  }
}
layer {
  name: "inception_4d/relu_pool_proj"
  type: "ReLU"
  bottom: "inception_4d/pool_proj"
  top: "inception_4d/pool_proj"
}
layer {
  name: "inception_4d/output"
  type: "Concat"
  bottom: "inception_4d/1x1"
  bottom: "inception_4d/3x3"
  bottom: "inception_4d/5x5"
  bottom: "inception_4d/pool_proj"
  top: "inception_4d/output"
}
layer {
  name: "loss2/ave_pool"
  type: "Pooling"
  bottom: "inception_4d/output"
  top: "loss2/ave_pool"
  pooling_param {
    pool: AVE
    kernel_size: 5
    stride: 3
  }
}
layer {
  name: "loss2/conv"
  type: "Convolution"
  bottom: "loss2/ave_pool"
  top: "loss2/conv"
  param {
    lr_mult: 1
    decay_mult: 1
  }
  param {
    lr_mult: 2
    decay_mult: 0
  }
  convolution_param {
    num_output: 128
    kernel_size: 1
    weight_filler {
      type: "xavier"
      std: 0.08
    }
    bias_filler {
      type: "constant"
      value: 0.2
    }
  }
}
layer {
  name: "loss2/relu_conv"
  type: "ReLU"
  bottom: "loss2/conv"
  top: "loss2/conv"
}
layer {
  name: "loss2/fc"
  type: "InnerProduct"
  bottom: "loss2/conv"
  top: "loss2/fc"
  param {
    lr_mult: 1
    decay_mult: 1
  }
  param {
    lr_mult: 2
    decay_mult: 0
  }
  inner_product_param {
    num_output: 1024
    weight_filler {
      type: "xavier"
      std: 0.02
    }
    bias_filler {
      type: "constant"
      value: 0.2
    }
  }
}
layer {
  name: "loss2/relu_fc"
  type: "ReLU"
  bottom: "loss2/fc"
  top: "loss2/fc"
}
layer {
  name: "loss2/drop_fc"
  type: "Dropout"
  bottom: "loss2/fc"
  top: "loss2/fc"
  dropout_param {
    dropout_ratio: 0.7
  }
}
layer {
  name: "loss2/classifier_plantvillage"
  type: "InnerProduct"
  bottom: "loss2/fc"
  top: "loss2/classifier_plantvillage"
  param {
    lr_mult: 1
    decay_mult: 1
  }
  param {
    lr_mult: 2
    decay_mult: 0
  }
  inner_product_param {
    num_output: 38
    weight_filler {
      type: "xavier"
      std: 0.0009765625
    }
    bias_filler {
      type: "constant"
      value: 0
    }
  }
}
layer {
  name: "inception_4e/1x1"
  type: "Convolution"
  bottom: "inception_4d/output"
  top: "inception_4e/1x1"
  param {
    lr_mult: 1
    decay_mult: 1
  }
  param {
    lr_mult: 2
    decay_mult: 0
  }
  convolution_param {
    num_output: 256
    kernel_size: 1
    weight_filler {
      type: "xavier"
      std: 0.03
    }
    bias_filler {
      type: "constant"
      value: 0.2
    }
  }
}
layer {
  name: "inception_4e/relu_1x1"
  type: "ReLU"
  bottom: "inception_4e/1x1"
  top: "inception_4e/1x1"
}
layer {
  name: "inception_4e/3x3_reduce"
  type: "Convolution"
  bottom: "inception_4d/output"
  top: "inception_4e/3x3_reduce"
  param {
    lr_mult: 1
    decay_mult: 1
  }
  param {
    lr_mult: 2
    decay_mult: 0
  }
  convolution_param {
    num_output: 160
    kernel_size: 1
    weight_filler {
      type: "xavier"
      std: 0.09
    }
    bias_filler {
      type: "constant"
      value: 0.2
    }
  }
}
layer {
  name: "inception_4e/relu_3x3_reduce"
  type: "ReLU"
  bottom: "inception_4e/3x3_reduce"
  top: "inception_4e/3x3_reduce"
}
layer {
  name: "inception_4e/3x3"
  type: "Convolution"
  bottom: "inception_4e/3x3_reduce"
  top: "inception_4e/3x3"
  param {
    lr_mult: 1
    decay_mult: 1
  }
  param {
    lr_mult: 2
    decay_mult: 0
  }
  convolution_param {
    num_output: 320
    pad: 1
    kernel_size: 3
    weight_filler {
      type: "xavier"
      std: 0.03
    }
    bias_filler {
      type: "constant"
      value: 0.2
    }
  }
}
layer {
  name: "inception_4e/relu_3x3"
  type: "ReLU"
  bottom: "inception_4e/3x3"
  top: "inception_4e/3x3"
}
layer {
  name: "inception_4e/5x5_reduce"
  type: "Convolution"
  bottom: "inception_4d/output"
  top: "inception_4e/5x5_reduce"
  param {
    lr_mult: 1
    decay_mult: 1
  }
  param {
    lr_mult: 2
    decay_mult: 0
  }
  convolution_param {
    num_output: 32
    kernel_size: 1
    weight_filler {
      type: "xavier"
      std: 0.2
    }
    bias_filler {
      type: "constant"
      value: 0.2
    }
  }
}
layer {
  name: "inception_4e/relu_5x5_reduce"
  type: "ReLU"
  bottom: "inception_4e/5x5_reduce"
  top: "inception_4e/5x5_reduce"
}
layer {
  name: "inception_4e/5x5"
  type: "Convolution"
  bottom: "inception_4e/5x5_reduce"
  top: "inception_4
I0403 11:13:28.564673 31624 layer_factory.hpp:77] Creating layer data
I0403 11:13:28.565323 31624 net.cpp:91] Creating Layer data
I0403 11:13:28.565361 31624 net.cpp:399] data -> data
I0403 11:13:28.565414 31624 net.cpp:399] data -> label
I0403 11:13:28.565448 31624 data_transformer.cpp:25] Loading mean file from: /home/mohanty/data/final_dataset/lmdb/grayscale-40-60/mean.binaryproto
I0403 11:13:28.637970 31630 db_lmdb.cpp:38] Opened lmdb /home/mohanty/data/final_dataset/lmdb/grayscale-40-60/train_db
I0403 11:13:28.655064 31624 data_layer.cpp:41] output data size: 24,3,224,224
I0403 11:13:28.684346 31624 net.cpp:141] Setting up data
I0403 11:13:28.684417 31624 net.cpp:148] Top shape: 24 3 224 224 (3612672)
I0403 11:13:28.684438 31624 net.cpp:148] Top shape: 24 (24)
I0403 11:13:28.684454 31624 net.cpp:156] Memory required for data: 14450784
I0403 11:13:28.684514 31624 layer_factory.hpp:77] Creating layer label_data_1_split
I0403 11:13:28.684543 31624 net.cpp:91] Creating Layer label_data_1_split
I0403 11:13:28.684563 31624 net.cpp:425] label_data_1_split <- label
I0403 11:13:28.684593 31624 net.cpp:399] label_data_1_split -> label_data_1_split_0
I0403 11:13:28.684619 31624 net.cpp:399] label_data_1_split -> label_data_1_split_1
I0403 11:13:28.684640 31624 net.cpp:399] label_data_1_split -> label_data_1_split_2
I0403 11:13:28.684705 31624 net.cpp:141] Setting up label_data_1_split
I0403 11:13:28.684730 31624 net.cpp:148] Top shape: 24 (24)
I0403 11:13:28.684746 31624 net.cpp:148] Top shape: 24 (24)
I0403 11:13:28.684762 31624 net.cpp:148] Top shape: 24 (24)
I0403 11:13:28.684775 31624 net.cpp:156] Memory required for data: 14451072
I0403 11:13:28.684790 31624 layer_factory.hpp:77] Creating layer conv1/7x7_s2
I0403 11:13:28.684823 31624 net.cpp:91] Creating Layer conv1/7x7_s2
I0403 11:13:28.684841 31624 net.cpp:425] conv1/7x7_s2 <- data
I0403 11:13:28.684861 31624 net.cpp:399] conv1/7x7_s2 -> conv1/7x7_s2
I0403 11:13:28.685809 31624 net.cpp:141] Setting up conv1/7x7_s2
I0403 11:13:28.685838 31624 net.cpp:148] Top shape: 24 64 112 112 (19267584)
I0403 11:13:28.685854 31624 net.cpp:156] Memory required for data: 91521408
I0403 11:13:28.685890 31624 layer_factory.hpp:77] Creating layer conv1/relu_7x7
I0403 11:13:28.685915 31624 net.cpp:91] Creating Layer conv1/relu_7x7
I0403 11:13:28.685935 31624 net.cpp:425] conv1/relu_7x7 <- conv1/7x7_s2
I0403 11:13:28.685952 31624 net.cpp:386] conv1/relu_7x7 -> conv1/7x7_s2 (in-place)
I0403 11:13:28.685981 31624 net.cpp:141] Setting up conv1/relu_7x7
I0403 11:13:28.686000 31624 net.cpp:148] Top shape: 24 64 112 112 (19267584)
I0403 11:13:28.686014 31624 net.cpp:156] Memory required for data: 168591744
I0403 11:13:28.686029 31624 layer_factory.hpp:77] Creating layer pool1/3x3_s2
I0403 11:13:28.686049 31624 net.cpp:91] Creating Layer pool1/3x3_s2
I0403 11:13:28.686066 31624 net.cpp:425] pool1/3x3_s2 <- conv1/7x7_s2
I0403 11:13:28.686084 31624 net.cpp:399] pool1/3x3_s2 -> pool1/3x3_s2
I0403 11:13:28.686148 31624 net.cpp:141] Setting up pool1/3x3_s2
I0403 11:13:28.686172 31624 net.cpp:148] Top shape: 24 64 56 56 (4816896)
I0403 11:13:28.686188 31624 net.cpp:156] Memory required for data: 187859328
I0403 11:13:28.686203 31624 layer_factory.hpp:77] Creating layer pool1/norm1
I0403 11:13:28.686223 31624 net.cpp:91] Creating Layer pool1/norm1
I0403 11:13:28.686239 31624 net.cpp:425] pool1/norm1 <- pool1/3x3_s2
I0403 11:13:28.686269 31624 net.cpp:399] pool1/norm1 -> pool1/norm1
I0403 11:13:28.686321 31624 net.cpp:141] Setting up pool1/norm1
I0403 11:13:28.686342 31624 net.cpp:148] Top shape: 24 64 56 56 (4816896)
I0403 11:13:28.686357 31624 net.cpp:156] Memory required for data: 207126912
I0403 11:13:28.686372 31624 layer_factory.hpp:77] Creating layer conv2/3x3_reduce
I0403 11:13:28.686393 31624 net.cpp:91] Creating Layer conv2/3x3_reduce
I0403 11:13:28.686408 31624 net.cpp:425] conv2/3x3_reduce <- pool1/norm1
I0403 11:13:28.686427 31624 net.cpp:399] conv2/3x3_reduce -> conv2/3x3_reduce
I0403 11:13:28.688663 31624 net.cpp:141] Setting up conv2/3x3_reduce
I0403 11:13:28.688691 31624 net.cpp:148] Top shape: 24 64 56 56 (4816896)
I0403 11:13:28.688707 31624 net.cpp:156] Memory required for data: 226394496
I0403 11:13:28.688729 31624 layer_factory.hpp:77] Creating layer conv2/relu_3x3_reduce
I0403 11:13:28.688748 31624 net.cpp:91] Creating Layer conv2/relu_3x3_reduce
I0403 11:13:28.688763 31624 net.cpp:425] conv2/relu_3x3_reduce <- conv2/3x3_reduce
I0403 11:13:28.688781 31624 net.cpp:386] conv2/relu_3x3_reduce -> conv2/3x3_reduce (in-place)
I0403 11:13:28.688799 31624 net.cpp:141] Setting up conv2/relu_3x3_reduce
I0403 11:13:28.688817 31624 net.cpp:148] Top shape: 24 64 56 56 (4816896)
I0403 11:13:28.688830 31624 net.cpp:156] Memory required for data: 245662080
I0403 11:13:28.688844 31624 layer_factory.hpp:77] Creating layer conv2/3x3
I0403 11:13:28.688868 31624 net.cpp:91] Creating Layer conv2/3x3
I0403 11:13:28.688884 31624 net.cpp:425] conv2/3x3 <- conv2/3x3_reduce
I0403 11:13:28.688930 31624 net.cpp:399] conv2/3x3 -> conv2/3x3
I0403 11:13:28.690523 31624 net.cpp:141] Setting up conv2/3x3
I0403 11:13:28.690551 31624 net.cpp:148] Top shape: 24 192 56 56 (14450688)
I0403 11:13:28.690567 31624 net.cpp:156] Memory required for data: 303464832
I0403 11:13:28.690587 31624 layer_factory.hpp:77] Creating layer conv2/relu_3x3
I0403 11:13:28.690608 31624 net.cpp:91] Creating Layer conv2/relu_3x3
I0403 11:13:28.690623 31624 net.cpp:425] conv2/relu_3x3 <- conv2/3x3
I0403 11:13:28.690639 31624 net.cpp:386] conv2/relu_3x3 -> conv2/3x3 (in-place)
I0403 11:13:28.690649 31631 blocking_queue.cpp:50] Waiting for data
I0403 11:13:28.690657 31624 net.cpp:141] Setting up conv2/relu_3x3
I0403 11:13:28.690738 31624 net.cpp:148] Top shape: 24 192 56 56 (14450688)
I0403 11:13:28.690773 31624 net.cpp:156] Memory required for data: 361267584
I0403 11:13:28.690788 31624 layer_factory.hpp:77] Creating layer conv2/norm2
I0403 11:13:28.690806 31624 net.cpp:91] Creating Layer conv2/norm2
I0403 11:13:28.690821 31624 net.cpp:425] conv2/norm2 <- conv2/3x3
I0403 11:13:28.690840 31624 net.cpp:399] conv2/norm2 -> conv2/norm2
I0403 11:13:28.690886 31624 net.cpp:141] Setting up conv2/norm2
I0403 11:13:28.690907 31624 net.cpp:148] Top shape: 24 192 56 56 (14450688)
I0403 11:13:28.690922 31624 net.cpp:156] Memory required for data: 419070336
I0403 11:13:28.690935 31624 layer_factory.hpp:77] Creating layer pool2/3x3_s2
I0403 11:13:28.690953 31624 net.cpp:91] Creating Layer pool2/3x3_s2
I0403 11:13:28.690973 31624 net.cpp:425] pool2/3x3_s2 <- conv2/norm2
I0403 11:13:28.690991 31624 net.cpp:399] pool2/3x3_s2 -> pool2/3x3_s2
I0403 11:13:28.691035 31624 net.cpp:141] Setting up pool2/3x3_s2
I0403 11:13:28.691056 31624 net.cpp:148] Top shape: 24 192 28 28 (3612672)
I0403 11:13:28.691071 31624 net.cpp:156] Memory required for data: 433521024
I0403 11:13:28.691084 31624 layer_factory.hpp:77] Creating layer pool2/3x3_s2_pool2/3x3_s2_0_split
I0403 11:13:28.691102 31624 net.cpp:91] Creating Layer pool2/3x3_s2_pool2/3x3_s2_0_split
I0403 11:13:28.691118 31624 net.cpp:425] pool2/3x3_s2_pool2/3x3_s2_0_split <- pool2/3x3_s2
I0403 11:13:28.691134 31624 net.cpp:399] pool2/3x3_s2_pool2/3x3_s2_0_split -> pool2/3x3_s2_pool2/3x3_s2_0_split_0
I0403 11:13:28.691154 31624 net.cpp:399] pool2/3x3_s2_pool2/3x3_s2_0_split -> pool2/3x3_s2_pool2/3x3_s2_0_split_1
I0403 11:13:28.691174 31624 net.cpp:399] pool2/3x3_s2_pool2/3x3_s2_0_split -> pool2/3x3_s2_pool2/3x3_s2_0_split_2
I0403 11:13:28.691205 31624 net.cpp:399] pool2/3x3_s2_pool2/3x3_s2_0_split -> pool2/3x3_s2_pool2/3x3_s2_0_split_3
I0403 11:13:28.691259 31624 net.cpp:141] Setting up pool2/3x3_s2_pool2/3x3_s2_0_split
I0403 11:13:28.691282 31624 net.cpp:148] Top shape: 24 192 28 28 (3612672)
I0403 11:13:28.691296 31624 net.cpp:148] Top shape: 24 192 28 28 (3612672)
I0403 11:13:28.691310 31624 net.cpp:148] Top shape: 24 192 28 28 (3612672)
I0403 11:13:28.691324 31624 net.cpp:148] Top shape: 24 192 28 28 (3612672)
I0403 11:13:28.691337 31624 net.cpp:156] Memory required for data: 491323776
I0403 11:13:28.691350 31624 layer_factory.hpp:77] Creating layer inception_3a/1x1
I0403 11:13:28.691370 31624 net.cpp:91] Creating Layer inception_3a/1x1
I0403 11:13:28.691400 31624 net.cpp:425] inception_3a/1x1 <- pool2/3x3_s2_pool2/3x3_s2_0_split_0
I0403 11:13:28.691418 31624 net.cpp:399] inception_3a/1x1 -> inception_3a/1x1
I0403 11:13:28.692234 31624 net.cpp:141] Setting up inception_3a/1x1
I0403 11:13:28.692272 31624 net.cpp:148] Top shape: 24 64 28 28 (1204224)
I0403 11:13:28.692287 31624 net.cpp:156] Memory required for data: 496140672
I0403 11:13:28.692304 31624 layer_factory.hpp:77] Creating layer inception_3a/relu_1x1
I0403 11:13:28.692322 31624 net.cpp:91] Creating Layer inception_3a/relu_1x1
I0403 11:13:28.692338 31624 net.cpp:425] inception_3a/relu_1x1 <- inception_3a/1x1
I0403 11:13:28.692355 31624 net.cpp:386] inception_3a/relu_1x1 -> inception_3a/1x1 (in-place)
I0403 11:13:28.692374 31624 net.cpp:141] Setting up inception_3a/relu_1x1
I0403 11:13:28.692390 31624 net.cpp:148] Top shape: 24 64 28 28 (1204224)
I0403 11:13:28.692419 31624 net.cpp:156] Memory required for data: 500957568
I0403 11:13:28.692432 31624 layer_factory.hpp:77] Creating layer inception_3a/3x3_reduce
I0403 11:13:28.692453 31624 net.cpp:91] Creating Layer inception_3a/3x3_reduce
I0403 11:13:28.692471 31624 net.cpp:425] inception_3a/3x3_reduce <- pool2/3x3_s2_pool2/3x3_s2_0_split_1
I0403 11:13:28.692488 31624 net.cpp:399] inception_3a/3x3_reduce -> inception_3a/3x3_reduce
I0403 11:13:28.693323 31624 net.cpp:141] Setting up inception_3a/3x3_reduce
I0403 11:13:28.693349 31624 net.cpp:148] Top shape: 24 96 28 28 (1806336)
I0403 11:13:28.693364 31624 net.cpp:156] Memory required for data: 508182912
I0403 11:13:28.693384 31624 layer_factory.hpp:77] Creating layer inception_3a/relu_3x3_reduce
I0403 11:13:28.693408 31624 net.cpp:91] Creating Layer inception_3a/relu_3x3_reduce
I0403 11:13:28.693424 31624 net.cpp:425] inception_3a/relu_3x3_reduce <- inception_3a/3x3_reduce
I0403 11:13:28.693441 31624 net.cpp:386] inception_3a/relu_3x3_reduce -> inception_3a/3x3_reduce (in-place)
I0403 11:13:28.693460 31624 net.cpp:141] Setting up inception_3a/relu_3x3_reduce
I0403 11:13:28.693476 31624 net.cpp:148] Top shape: 24 96 28 28 (1806336)
I0403 11:13:28.693490 31624 net.cpp:156] Memory required for data: 515408256
I0403 11:13:28.693505 31624 layer_factory.hpp:77] Creating layer inception_3a/3x3
I0403 11:13:28.693526 31624 net.cpp:91] Creating Layer inception_3a/3x3
I0403 11:13:28.693542 31624 net.cpp:425] inception_3a/3x3 <- inception_3a/3x3_reduce
I0403 11:13:28.693563 31624 net.cpp:399] inception_3a/3x3 -> inception_3a/3x3
I0403 11:13:28.694375 31624 net.cpp:141] Setting up inception_3a/3x3
I0403 11:13:28.694399 31624 net.cpp:148] Top shape: 24 128 28 28 (2408448)
I0403 11:13:28.694414 31624 net.cpp:156] Memory required for data: 525042048
I0403 11:13:28.694432 31624 layer_factory.hpp:77] Creating layer inception_3a/relu_3x3
I0403 11:13:28.694448 31624 net.cpp:91] Creating Layer inception_3a/relu_3x3
I0403 11:13:28.694463 31624 net.cpp:425] inception_3a/relu_3x3 <- inception_3a/3x3
I0403 11:13:28.694480 31624 net.cpp:386] inception_3a/relu_3x3 -> inception_3a/3x3 (in-place)
I0403 11:13:28.694497 31624 net.cpp:141] Setting up inception_3a/relu_3x3
I0403 11:13:28.694515 31624 net.cpp:148] Top shape: 24 128 28 28 (2408448)
I0403 11:13:28.694530 31624 net.cpp:156] Memory required for data: 534675840
I0403 11:13:28.694542 31624 layer_factory.hpp:77] Creating layer inception_3a/5x5_reduce
I0403 11:13:28.694564 31624 net.cpp:91] Creating Layer inception_3a/5x5_reduce
I0403 11:13:28.694581 31624 net.cpp:425] inception_3a/5x5_reduce <- pool2/3x3_s2_pool2/3x3_s2_0_split_2
I0403 11:13:28.694599 31624 net.cpp:399] inception_3a/5x5_reduce -> inception_3a/5x5_reduce
I0403 11:13:28.694818 31624 net.cpp:141] Setting up inception_3a/5x5_reduce
I0403 11:13:28.694841 31624 net.cpp:148] Top shape: 24 16 28 28 (301056)
I0403 11:13:28.694855 31624 net.cpp:156] Memory required for data: 535880064
I0403 11:13:28.694872 31624 layer_factory.hpp:77] Creating layer inception_3a/relu_5x5_reduce
I0403 11:13:28.694891 31624 net.cpp:91] Creating Layer inception_3a/relu_5x5_reduce
I0403 11:13:28.694919 31624 net.cpp:425] inception_3a/relu_5x5_reduce <- inception_3a/5x5_reduce
I0403 11:13:28.694938 31624 net.cpp:386] inception_3a/relu_5x5_reduce -> inception_3a/5x5_reduce (in-place)
I0403 11:13:28.694960 31624 net.cpp:141] Setting up inception_3a/relu_5x5_reduce
I0403 11:13:28.694979 31624 net.cpp:148] Top shape: 24 16 28 28 (301056)
I0403 11:13:28.694993 31624 net.cpp:156] Memory required for data: 537084288
I0403 11:13:28.695008 31624 layer_factory.hpp:77] Creating layer inception_3a/5x5
I0403 11:13:28.695030 31624 net.cpp:91] Creating Layer inception_3a/5x5
I0403 11:13:28.695047 31624 net.cpp:425] inception_3a/5x5 <- inception_3a/5x5_reduce
I0403 11:13:28.695068 31624 net.cpp:399] inception_3a/5x5 -> inception_3a/5x5
I0403 11:13:28.695360 31624 net.cpp:141] Setting up inception_3a/5x5
I0403 11:13:28.695384 31624 net.cpp:148] Top shape: 24 32 28 28 (602112)
I0403 11:13:28.695410 31624 net.cpp:156] Memory required for data: 539492736
I0403 11:13:28.695427 31624 layer_factory.hpp:77] Creating layer inception_3a/relu_5x5
I0403 11:13:28.695446 31624 net.cpp:91] Creating Layer inception_3a/relu_5x5
I0403 11:13:28.695461 31624 net.cpp:425] inception_3a/relu_5x5 <- inception_3a/5x5
I0403 11:13:28.695477 31624 net.cpp:386] inception_3a/relu_5x5 -> inception_3a/5x5 (in-place)
I0403 11:13:28.695494 31624 net.cpp:141] Setting up inception_3a/relu_5x5
I0403 11:13:28.695509 31624 net.cpp:148] Top shape: 24 32 28 28 (602112)
I0403 11:13:28.695523 31624 net.cpp:156] Memory required for data: 541901184
I0403 11:13:28.695536 31624 layer_factory.hpp:77] Creating layer inception_3a/pool
I0403 11:13:28.695555 31624 net.cpp:91] Creating Layer inception_3a/pool
I0403 11:13:28.695571 31624 net.cpp:425] inception_3a/pool <- pool2/3x3_s2_pool2/3x3_s2_0_split_3
I0403 11:13:28.695588 31624 net.cpp:399] inception_3a/pool -> inception_3a/pool
I0403 11:13:28.695633 31624 net.cpp:141] Setting up inception_3a/pool
I0403 11:13:28.695654 31624 net.cpp:148] Top shape: 24 192 28 28 (3612672)
I0403 11:13:28.695667 31624 net.cpp:156] Memory required for data: 556351872
I0403 11:13:28.695680 31624 layer_factory.hpp:77] Creating layer inception_3a/pool_proj
I0403 11:13:28.695703 31624 net.cpp:91] Creating Layer inception_3a/pool_proj
I0403 11:13:28.695719 31624 net.cpp:425] inception_3a/pool_proj <- inception_3a/pool
I0403 11:13:28.695737 31624 net.cpp:399] inception_3a/pool_proj -> inception_3a/pool_proj
I0403 11:13:28.695968 31624 net.cpp:141] Setting up inception_3a/pool_proj
I0403 11:13:28.695992 31624 net.cpp:148] Top shape: 24 32 28 28 (602112)
I0403 11:13:28.696007 31624 net.cpp:156] Memory required for data: 558760320
I0403 11:13:28.696028 31624 layer_factory.hpp:77] Creating layer inception_3a/relu_pool_proj
I0403 11:13:28.696048 31624 net.cpp:91] Creating Layer inception_3a/relu_pool_proj
I0403 11:13:28.696063 31624 net.cpp:425] inception_3a/relu_pool_proj <- inception_3a/pool_proj
I0403 11:13:28.696079 31624 net.cpp:386] inception_3a/relu_pool_proj -> inception_3a/pool_proj (in-place)
I0403 11:13:28.696097 31624 net.cpp:141] Setting up inception_3a/relu_pool_proj
I0403 11:13:28.696115 31624 net.cpp:148] Top shape: 24 32 28 28 (602112)
I0403 11:13:28.696127 31624 net.cpp:156] Memory required for data: 561168768
I0403 11:13:28.696141 31624 layer_factory.hpp:77] Creating layer inception_3a/output
I0403 11:13:28.696157 31624 net.cpp:91] Creating Layer inception_3a/output
I0403 11:13:28.696172 31624 net.cpp:425] inception_3a/output <- inception_3a/1x1
I0403 11:13:28.696187 31624 net.cpp:425] inception_3a/output <- inception_3a/3x3
I0403 11:13:28.696214 31624 net.cpp:425] inception_3a/output <- inception_3a/5x5
I0403 11:13:28.696229 31624 net.cpp:425] inception_3a/output <- inception_3a/pool_proj
I0403 11:13:28.696249 31624 net.cpp:399] inception_3a/output -> inception_3a/output
I0403 11:13:28.696290 31624 net.cpp:141] Setting up inception_3a/output
I0403 11:13:28.696311 31624 net.cpp:148] Top shape: 24 256 28 28 (4816896)
I0403 11:13:28.696326 31624 net.cpp:156] Memory required for data: 580436352
I0403 11:13:28.696338 31624 layer_factory.hpp:77] Creating layer inception_3a/output_inception_3a/output_0_split
I0403 11:13:28.696354 31624 net.cpp:91] Creating Layer inception_3a/output_inception_3a/output_0_split
I0403 11:13:28.696369 31624 net.cpp:425] inception_3a/output_inception_3a/output_0_split <- inception_3a/output
I0403 11:13:28.696385 31624 net.cpp:399] inception_3a/output_inception_3a/output_0_split -> inception_3a/output_inception_3a/output_0_split_0
I0403 11:13:28.696405 31624 net.cpp:399] inception_3a/output_inception_3a/output_0_split -> inception_3a/output_inception_3a/output_0_split_1
I0403 11:13:28.696426 31624 net.cpp:399] inception_3a/output_inception_3a/output_0_split -> inception_3a/output_inception_3a/output_0_split_2
I0403 11:13:28.696445 31624 net.cpp:399] inception_3a/output_inception_3a/output_0_split -> inception_3a/output_inception_3a/output_0_split_3
I0403 11:13:28.696506 31624 net.cpp:141] Setting up inception_3a/output_inception_3a/output_0_split
I0403 11:13:28.696538 31624 net.cpp:148] Top shape: 24 256 28 28 (4816896)
I0403 11:13:28.696554 31624 net.cpp:148] Top shape: 24 256 28 28 (4816896)
I0403 11:13:28.696569 31624 net.cpp:148] Top shape: 24 256 28 28 (4816896)
I0403 11:13:28.696583 31624 net.cpp:148] Top shape: 24 256 28 28 (4816896)
I0403 11:13:28.696595 31624 net.cpp:156] Memory required for data: 657506688
I0403 11:13:28.696609 31624 layer_factory.hpp:77] Creating layer inception_3b/1x1
I0403 11:13:28.696630 31624 net.cpp:91] Creating Layer inception_3b/1x1
I0403 11:13:28.696648 31624 net.cpp:425] inception_3b/1x1 <- inception_3a/output_inception_3a/output_0_split_0
I0403 11:13:28.696666 31624 net.cpp:399] inception_3b/1x1 -> inception_3b/1x1
I0403 11:13:28.697036 31624 net.cpp:141] Setting up inception_3b/1x1
I0403 11:13:28.697058 31624 net.cpp:148] Top shape: 24 128 28 28 (2408448)
I0403 11:13:28.697073 31624 net.cpp:156] Memory required for data: 667140480
I0403 11:13:28.697090 31624 layer_factory.hpp:77] Creating layer inception_3b/relu_1x1
I0403 11:13:28.697110 31624 net.cpp:91] Creating Layer inception_3b/relu_1x1
I0403 11:13:28.697126 31624 net.cpp:425] inception_3b/relu_1x1 <- inception_3b/1x1
I0403 11:13:28.697144 31624 net.cpp:386] inception_3b/relu_1x1 -> inception_3b/1x1 (in-place)
I0403 11:13:28.697161 31624 net.cpp:141] Setting up inception_3b/relu_1x1
I0403 11:13:28.697177 31624 net.cpp:148] Top shape: 24 128 28 28 (2408448)
I0403 11:13:28.697204 31624 net.cpp:156] Memory required for data: 676774272
I0403 11:13:28.697217 31624 layer_factory.hpp:77] Creating layer inception_3b/3x3_reduce
I0403 11:13:28.697238 31624 net.cpp:91] Creating Layer inception_3b/3x3_reduce
I0403 11:13:28.697254 31624 net.cpp:425] inception_3b/3x3_reduce <- inception_3a/output_inception_3a/output_0_split_1
I0403 11:13:28.697273 31624 net.cpp:399] inception_3b/3x3_reduce -> inception_3b/3x3_reduce
I0403 11:13:28.697630 31624 net.cpp:141] Setting up inception_3b/3x3_reduce
I0403 11:13:28.697654 31624 net.cpp:148] Top shape: 24 128 28 28 (2408448)
I0403 11:13:28.697667 31624 net.cpp:156] Memory required for data: 686408064
I0403 11:13:28.697684 31624 layer_factory.hpp:77] Creating layer inception_3b/relu_3x3_reduce
I0403 11:13:28.697700 31624 net.cpp:91] Creating Layer inception_3b/relu_3x3_reduce
I0403 11:13:28.697715 31624 net.cpp:425] inception_3b/relu_3x3_reduce <- inception_3b/3x3_reduce
I0403 11:13:28.697731 31624 net.cpp:386] inception_3b/relu_3x3_reduce -> inception_3b/3x3_reduce (in-place)
I0403 11:13:28.697748 31624 net.cpp:141] Setting up inception_3b/relu_3x3_reduce
I0403 11:13:28.697764 31624 net.cpp:148] Top shape: 24 128 28 28 (2408448)
I0403 11:13:28.697779 31624 net.cpp:156] Memory required for data: 696041856
I0403 11:13:28.697793 31624 layer_factory.hpp:77] Creating layer inception_3b/3x3
I0403 11:13:28.697815 31624 net.cpp:91] Creating Layer inception_3b/3x3
I0403 11:13:28.697832 31624 net.cpp:425] inception_3b/3x3 <- inception_3b/3x3_reduce
I0403 11:13:28.697852 31624 net.cpp:399] inception_3b/3x3 -> inception_3b/3x3
I0403 11:13:28.699759 31624 net.cpp:141] Setting up inception_3b/3x3
I0403 11:13:28.699786 31624 net.cpp:148] Top shape: 24 192 28 28 (3612672)
I0403 11:13:28.699801 31624 net.cpp:156] Memory required for data: 710492544
I0403 11:13:28.699818 31624 layer_factory.hpp:77] Creating layer inception_3b/relu_3x3
I0403 11:13:28.699836 31624 net.cpp:91] Creating Layer inception_3b/relu_3x3
I0403 11:13:28.699851 31624 net.cpp:425] inception_3b/relu_3x3 <- inception_3b/3x3
I0403 11:13:28.699868 31624 net.cpp:386] inception_3b/relu_3x3 -> inception_3b/3x3 (in-place)
I0403 11:13:28.699887 31624 net.cpp:141] Setting up inception_3b/relu_3x3
I0403 11:13:28.699903 31624 net.cpp:148] Top shape: 24 192 28 28 (3612672)
I0403 11:13:28.699916 31624 net.cpp:156] Memory required for data: 724943232
I0403 11:13:28.699930 31624 layer_factory.hpp:77] Creating layer inception_3b/5x5_reduce
I0403 11:13:28.699952 31624 net.cpp:91] Creating Layer inception_3b/5x5_reduce
I0403 11:13:28.699973 31624 net.cpp:425] inception_3b/5x5_reduce <- inception_3a/output_inception_3a/output_0_split_2
I0403 11:13:28.700009 31624 net.cpp:399] inception_3b/5x5_reduce -> inception_3b/5x5_reduce
I0403 11:13:28.700255 31624 net.cpp:141] Setting up inception_3b/5x5_reduce
I0403 11:13:28.700279 31624 net.cpp:148] Top shape: 24 32 28 28 (602112)
I0403 11:13:28.700294 31624 net.cpp:156] Memory required for data: 727351680
I0403 11:13:28.700310 31624 layer_factory.hpp:77] Creating layer inception_3b/relu_5x5_reduce
I0403 11:13:28.700330 31624 net.cpp:91] Creating Layer inception_3b/relu_5x5_reduce
I0403 11:13:28.700346 31624 net.cpp:425] inception_3b/relu_5x5_reduce <- inception_3b/5x5_reduce
I0403 11:13:28.700363 31624 net.cpp:386] inception_3b/relu_5x5_reduce -> inception_3b/5x5_reduce (in-place)
I0403 11:13:28.700382 31624 net.cpp:141] Setting up inception_3b/relu_5x5_reduce
I0403 11:13:28.700398 31624 net.cpp:148] Top shape: 24 32 28 28 (602112)
I0403 11:13:28.700412 31624 net.cpp:156] Memory required for data: 729760128
I0403 11:13:28.700425 31624 layer_factory.hpp:77] Creating layer inception_3b/5x5
I0403 11:13:28.700451 31624 net.cpp:91] Creating Layer inception_3b/5x5
I0403 11:13:28.700469 31624 net.cpp:425] inception_3b/5x5 <- inception_3b/5x5_reduce
I0403 11:13:28.700490 31624 net.cpp:399] inception_3b/5x5 -> inception_3b/5x5
I0403 11:13:28.701617 31624 net.cpp:141] Setting up inception_3b/5x5
I0403 11:13:28.701644 31624 net.cpp:148] Top shape: 24 96 28 28 (1806336)
I0403 11:13:28.701658 31624 net.cpp:156] Memory required for data: 736985472
I0403 11:13:28.701676 31624 layer_factory.hpp:77] Creating layer inception_3b/relu_5x5
I0403 11:13:28.701694 31624 net.cpp:91] Creating Layer inception_3b/relu_5x5
I0403 11:13:28.701709 31624 net.cpp:425] inception_3b/relu_5x5 <- inception_3b/5x5
I0403 11:13:28.701728 31624 net.cpp:386] inception_3b/relu_5x5 -> inception_3b/5x5 (in-place)
I0403 11:13:28.701748 31624 net.cpp:141] Setting up inception_3b/relu_5x5
I0403 11:13:28.701764 31624 net.cpp:148] Top shape: 24 96 28 28 (1806336)
I0403 11:13:28.701778 31624 net.cpp:156] Memory required for data: 744210816
I0403 11:13:28.701792 31624 layer_factory.hpp:77] Creating layer inception_3b/pool
I0403 11:13:28.701809 31624 net.cpp:91] Creating Layer inception_3b/pool
I0403 11:13:28.701824 31624 net.cpp:425] inception_3b/pool <- inception_3a/output_inception_3a/output_0_split_3
I0403 11:13:28.701841 31624 net.cpp:399] inception_3b/pool -> inception_3b/pool
I0403 11:13:28.701890 31624 net.cpp:141] Setting up inception_3b/pool
I0403 11:13:28.701912 31624 net.cpp:148] Top shape: 24 256 28 28 (4816896)
I0403 11:13:28.701926 31624 net.cpp:156] Memory required for data: 763478400
I0403 11:13:28.701941 31624 layer_factory.hpp:77] Creating layer inception_3b/pool_proj
I0403 11:13:28.701966 31624 net.cpp:91] Creating Layer inception_3b/pool_proj
I0403 11:13:28.701983 31624 net.cpp:425] inception_3b/pool_proj <- inception_3b/pool
I0403 11:13:28.702004 31624 net.cpp:399] inception_3b/pool_proj -> inception_3b/pool_proj
I0403 11:13:28.702292 31624 net.cpp:141] Setting up inception_3b/pool_proj
I0403 11:13:28.702316 31624 net.cpp:148] Top shape: 24 64 28 28 (1204224)
I0403 11:13:28.702330 31624 net.cpp:156] Memory required for data: 768295296
I0403 11:13:28.702347 31624 layer_factory.hpp:77] Creating layer inception_3b/relu_pool_proj
I0403 11:13:28.702363 31624 net.cpp:91] Creating Layer inception_3b/relu_pool_proj
I0403 11:13:28.702379 31624 net.cpp:425] inception_3b/relu_pool_proj <- inception_3b/pool_proj
I0403 11:13:28.702395 31624 net.cpp:386] inception_3b/relu_pool_proj -> inception_3b/pool_proj (in-place)
I0403 11:13:28.702414 31624 net.cpp:141] Setting up inception_3b/relu_pool_proj
I0403 11:13:28.702431 31624 net.cpp:148] Top shape: 24 64 28 28 (1204224)
I0403 11:13:28.702445 31624 net.cpp:156] Memory required for data: 773112192
I0403 11:13:28.702458 31624 layer_factory.hpp:77] Creating layer inception_3b/output
I0403 11:13:28.702478 31624 net.cpp:91] Creating Layer inception_3b/output
I0403 11:13:28.702496 31624 net.cpp:425] inception_3b/output <- inception_3b/1x1
I0403 11:13:28.702524 31624 net.cpp:425] inception_3b/output <- inception_3b/3x3
I0403 11:13:28.702541 31624 net.cpp:425] inception_3b/output <- inception_3b/5x5
I0403 11:13:28.702556 31624 net.cpp:425] inception_3b/output <- inception_3b/pool_proj
I0403 11:13:28.702574 31624 net.cpp:399] inception_3b/output -> inception_3b/output
I0403 11:13:28.702608 31624 net.cpp:141] Setting up inception_3b/output
I0403 11:13:28.702631 31624 net.cpp:148] Top shape: 24 480 28 28 (9031680)
I0403 11:13:28.702646 31624 net.cpp:156] Memory required for data: 809238912
I0403 11:13:28.702661 31624 layer_factory.hpp:77] Creating layer pool3/3x3_s2
I0403 11:13:28.702677 31624 net.cpp:91] Creating Layer pool3/3x3_s2
I0403 11:13:28.702692 31624 net.cpp:425] pool3/3x3_s2 <- inception_3b/output
I0403 11:13:28.702711 31624 net.cpp:399] pool3/3x3_s2 -> pool3/3x3_s2
I0403 11:13:28.702760 31624 net.cpp:141] Setting up pool3/3x3_s2
I0403 11:13:28.702781 31624 net.cpp:148] Top shape: 24 480 14 14 (2257920)
I0403 11:13:28.702796 31624 net.cpp:156] Memory required for data: 818270592
I0403 11:13:28.702810 31624 layer_factory.hpp:77] Creating layer pool3/3x3_s2_pool3/3x3_s2_0_split
I0403 11:13:28.702828 31624 net.cpp:91] Creating Layer pool3/3x3_s2_pool3/3x3_s2_0_split
I0403 11:13:28.702843 31624 net.cpp:425] pool3/3x3_s2_pool3/3x3_s2_0_split <- pool3/3x3_s2
I0403 11:13:28.702860 31624 net.cpp:399] pool3/3x3_s2_pool3/3x3_s2_0_split -> pool3/3x3_s2_pool3/3x3_s2_0_split_0
I0403 11:13:28.702879 31624 net.cpp:399] pool3/3x3_s2_pool3/3x3_s2_0_split -> pool3/3x3_s2_pool3/3x3_s2_0_split_1
I0403 11:13:28.702899 31624 net.cpp:399] pool3/3x3_s2_pool3/3x3_s2_0_split -> pool3/3x3_s2_pool3/3x3_s2_0_split_2
I0403 11:13:28.702919 31624 net.cpp:399] pool3/3x3_s2_pool3/3x3_s2_0_split -> pool3/3x3_s2_pool3/3x3_s2_0_split_3
I0403 11:13:28.702986 31624 net.cpp:141] Setting up pool3/3x3_s2_pool3/3x3_s2_0_split
I0403 11:13:28.703007 31624 net.cpp:148] Top shape: 24 480 14 14 (2257920)
I0403 11:13:28.703023 31624 net.cpp:148] Top shape: 24 480 14 14 (2257920)
I0403 11:13:28.703037 31624 net.cpp:148] Top shape: 24 480 14 14 (2257920)
I0403 11:13:28.703052 31624 net.cpp:148] Top shape: 24 480 14 14 (2257920)
I0403 11:13:28.703064 31624 net.cpp:156] Memory required for data: 854397312
I0403 11:13:28.703078 31624 layer_factory.hpp:77] Creating layer inception_4a/1x1
I0403 11:13:28.703101 31624 net.cpp:91] Creating Layer inception_4a/1x1
I0403 11:13:28.703119 31624 net.cpp:425] inception_4a/1x1 <- pool3/3x3_s2_pool3/3x3_s2_0_split_0
I0403 11:13:28.703140 31624 net.cpp:399] inception_4a/1x1 -> inception_4a/1x1
I0403 11:13:28.703816 31624 net.cpp:141] Setting up inception_4a/1x1
I0403 11:13:28.703840 31624 net.cpp:148] Top shape: 24 192 14 14 (903168)
I0403 11:13:28.703855 31624 net.cpp:156] Memory required for data: 858009984
I0403 11:13:28.703871 31624 layer_factory.hpp:77] Creating layer inception_4a/relu_1x1
I0403 11:13:28.703889 31624 net.cpp:91] Creating Layer inception_4a/relu_1x1
I0403 11:13:28.703905 31624 net.cpp:425] inception_4a/relu_1x1 <- inception_4a/1x1
I0403 11:13:28.703922 31624 net.cpp:386] inception_4a/relu_1x1 -> inception_4a/1x1 (in-place)
I0403 11:13:28.703940 31624 net.cpp:141] Setting up inception_4a/relu_1x1
I0403 11:13:28.703960 31624 net.cpp:148] Top shape: 24 192 14 14 (903168)
I0403 11:13:28.703975 31624 net.cpp:156] Memory required for data: 861622656
I0403 11:13:28.703989 31624 layer_factory.hpp:77] Creating layer inception_4a/3x3_reduce
I0403 11:13:28.704010 31624 net.cpp:91] Creating Layer inception_4a/3x3_reduce
I0403 11:13:28.704027 31624 net.cpp:425] inception_4a/3x3_reduce <- pool3/3x3_s2_pool3/3x3_s2_0_split_1
I0403 11:13:28.704049 31624 net.cpp:399] inception_4a/3x3_reduce -> inception_4a/3x3_reduce
I0403 11:13:28.704496 31624 net.cpp:141] Setting up inception_4a/3x3_reduce
I0403 11:13:28.704519 31624 net.cpp:148] Top shape: 24 96 14 14 (451584)
I0403 11:13:28.704533 31624 net.cpp:156] Memory required for data: 863428992
I0403 11:13:28.704553 31624 layer_factory.hpp:77] Creating layer inception_4a/relu_3x3_reduce
I0403 11:13:28.704587 31624 net.cpp:91] Creating Layer inception_4a/relu_3x3_reduce
I0403 11:13:28.704605 31624 net.cpp:425] inception_4a/relu_3x3_reduce <- inception_4a/3x3_reduce
I0403 11:13:28.704622 31624 net.cpp:386] inception_4a/relu_3x3_reduce -> inception_4a/3x3_reduce (in-place)
I0403 11:13:28.704641 31624 net.cpp:141] Setting up inception_4a/relu_3x3_reduce
I0403 11:13:28.704658 31624 net.cpp:148] Top shape: 24 96 14 14 (451584)
I0403 11:13:28.704670 31624 net.cpp:156] Memory required for data: 865235328
I0403 11:13:28.704684 31624 layer_factory.hpp:77] Creating layer inception_4a/3x3
I0403 11:13:28.704706 31624 net.cpp:91] Creating Layer inception_4a/3x3
I0403 11:13:28.704723 31624 net.cpp:425] inception_4a/3x3 <- inception_4a/3x3_reduce
I0403 11:13:28.704741 31624 net.cpp:399] inception_4a/3x3 -> inception_4a/3x3
I0403 11:13:28.706445 31624 net.cpp:141] Setting up inception_4a/3x3
I0403 11:13:28.706472 31624 net.cpp:148] Top shape: 24 208 14 14 (978432)
I0403 11:13:28.706487 31624 net.cpp:156] Memory required for data: 869149056
I0403 11:13:28.706504 31624 layer_factory.hpp:77] Creating layer inception_4a/relu_3x3
I0403 11:13:28.706524 31624 net.cpp:91] Creating Layer inception_4a/relu_3x3
I0403 11:13:28.706542 31624 net.cpp:425] inception_4a/relu_3x3 <- inception_4a/3x3
I0403 11:13:28.706558 31624 net.cpp:386] inception_4a/relu_3x3 -> inception_4a/3x3 (in-place)
I0403 11:13:28.706576 31624 net.cpp:141] Setting up inception_4a/relu_3x3
I0403 11:13:28.706593 31624 net.cpp:148] Top shape: 24 208 14 14 (978432)
I0403 11:13:28.706606 31624 net.cpp:156] Memory required for data: 873062784
I0403 11:13:28.706620 31624 layer_factory.hpp:77] Creating layer inception_4a/5x5_reduce
I0403 11:13:28.706642 31624 net.cpp:91] Creating Layer inception_4a/5x5_reduce
I0403 11:13:28.706660 31624 net.cpp:425] inception_4a/5x5_reduce <- pool3/3x3_s2_pool3/3x3_s2_0_split_2
I0403 11:13:28.706677 31624 net.cpp:399] inception_4a/5x5_reduce -> inception_4a/5x5_reduce
I0403 11:13:28.706920 31624 net.cpp:141] Setting up inception_4a/5x5_reduce
I0403 11:13:28.706946 31624 net.cpp:148] Top shape: 24 16 14 14 (75264)
I0403 11:13:28.706966 31624 net.cpp:156] Memory required for data: 873363840
I0403 11:13:28.706984 31624 layer_factory.hpp:77] Creating layer inception_4a/relu_5x5_reduce
I0403 11:13:28.707002 31624 net.cpp:91] Creating Layer inception_4a/relu_5x5_reduce
I0403 11:13:28.707018 31624 net.cpp:425] inception_4a/relu_5x5_reduce <- inception_4a/5x5_reduce
I0403 11:13:28.707034 31624 net.cpp:386] inception_4a/relu_5x5_reduce -> inception_4a/5x5_reduce (in-place)
I0403 11:13:28.707052 31624 net.cpp:141] Setting up inception_4a/relu_5x5_reduce
I0403 11:13:28.707069 31624 net.cpp:148] Top shape: 24 16 14 14 (75264)
I0403 11:13:28.707083 31624 net.cpp:156] Memory required for data: 873664896
I0403 11:13:28.707098 31624 layer_factory.hpp:77] Creating layer inception_4a/5x5
I0403 11:13:28.707118 31624 net.cpp:91] Creating Layer inception_4a/5x5
I0403 11:13:28.707135 31624 net.cpp:425] inception_4a/5x5 <- inception_4a/5x5_reduce
I0403 11:13:28.707154 31624 net.cpp:399] inception_4a/5x5 -> inception_4a/5x5
I0403 11:13:28.707460 31624 net.cpp:141] Setting up inception_4a/5x5
I0403 11:13:28.707484 31624 net.cpp:148] Top shape: 24 48 14 14 (225792)
I0403 11:13:28.707499 31624 net.cpp:156] Memory required for data: 874568064
I0403 11:13:28.707515 31624 layer_factory.hpp:77] Creating layer inception_4a/relu_5x5
I0403 11:13:28.707532 31624 net.cpp:91] Creating Layer inception_4a/relu_5x5
I0403 11:13:28.707547 31624 net.cpp:425] inception_4a/relu_5x5 <- inception_4a/5x5
I0403 11:13:28.707566 31624 net.cpp:386] inception_4a/relu_5x5 -> inception_4a/5x5 (in-place)
I0403 11:13:28.707586 31624 net.cpp:141] Setting up inception_4a/relu_5x5
I0403 11:13:28.707602 31624 net.cpp:148] Top shape: 24 48 14 14 (225792)
I0403 11:13:28.707615 31624 net.cpp:156] Memory required for data: 875471232
I0403 11:13:28.707628 31624 layer_factory.hpp:77] Creating layer inception_4a/pool
I0403 11:13:28.707645 31624 net.cpp:91] Creating Layer inception_4a/pool
I0403 11:13:28.707664 31624 net.cpp:425] inception_4a/pool <- pool3/3x3_s2_pool3/3x3_s2_0_split_3
I0403 11:13:28.707696 31624 net.cpp:399] inception_4a/pool -> inception_4a/pool
I0403 11:13:28.707746 31624 net.cpp:141] Setting up inception_4a/pool
I0403 11:13:28.707769 31624 net.cpp:148] Top shape: 24 480 14 14 (2257920)
I0403 11:13:28.707785 31624 net.cpp:156] Memory required for data: 884502912
I0403 11:13:28.707798 31624 layer_factory.hpp:77] Creating layer inception_4a/pool_proj
I0403 11:13:28.707818 31624 net.cpp:91] Creating Layer inception_4a/pool_proj
I0403 11:13:28.707834 31624 net.cpp:425] inception_4a/pool_proj <- inception_4a/pool
I0403 11:13:28.707855 31624 net.cpp:399] inception_4a/pool_proj -> inception_4a/pool_proj
I0403 11:13:28.708232 31624 net.cpp:141] Setting up inception_4a/pool_proj
I0403 11:13:28.708256 31624 net.cpp:148] Top shape: 24 64 14 14 (301056)
I0403 11:13:28.708271 31624 net.cpp:156] Memory required for data: 885707136
I0403 11:13:28.708287 31624 layer_factory.hpp:77] Creating layer inception_4a/relu_pool_proj
I0403 11:13:28.708305 31624 net.cpp:91] Creating Layer inception_4a/relu_pool_proj
I0403 11:13:28.708320 31624 net.cpp:425] inception_4a/relu_pool_proj <- inception_4a/pool_proj
I0403 11:13:28.708338 31624 net.cpp:386] inception_4a/relu_pool_proj -> inception_4a/pool_proj (in-place)
I0403 11:13:28.708359 31624 net.cpp:141] Setting up inception_4a/relu_pool_proj
I0403 11:13:28.708376 31624 net.cpp:148] Top shape: 24 64 14 14 (301056)
I0403 11:13:28.708389 31624 net.cpp:156] Memory required for data: 886911360
I0403 11:13:28.708403 31624 layer_factory.hpp:77] Creating layer inception_4a/output
I0403 11:13:28.708420 31624 net.cpp:91] Creating Layer inception_4a/output
I0403 11:13:28.708434 31624 net.cpp:425] inception_4a/output <- inception_4a/1x1
I0403 11:13:28.708449 31624 net.cpp:425] inception_4a/output <- inception_4a/3x3
I0403 11:13:28.708464 31624 net.cpp:425] inception_4a/output <- inception_4a/5x5
I0403 11:13:28.708479 31624 net.cpp:425] inception_4a/output <- inception_4a/pool_proj
I0403 11:13:28.708495 31624 net.cpp:399] inception_4a/output -> inception_4a/output
I0403 11:13:28.708534 31624 net.cpp:141] Setting up inception_4a/output
I0403 11:13:28.708555 31624 net.cpp:148] Top shape: 24 512 14 14 (2408448)
I0403 11:13:28.708570 31624 net.cpp:156] Memory required for data: 896545152
I0403 11:13:28.708583 31624 layer_factory.hpp:77] Creating layer inception_4a/output_inception_4a/output_0_split
I0403 11:13:28.708600 31624 net.cpp:91] Creating Layer inception_4a/output_inception_4a/output_0_split
I0403 11:13:28.708614 31624 net.cpp:425] inception_4a/output_inception_4a/output_0_split <- inception_4a/output
I0403 11:13:28.708633 31624 net.cpp:399] inception_4a/output_inception_4a/output_0_split -> inception_4a/output_inception_4a/output_0_split_0
I0403 11:13:28.708653 31624 net.cpp:399] inception_4a/output_inception_4a/output_0_split -> inception_4a/output_inception_4a/output_0_split_1
I0403 11:13:28.708674 31624 net.cpp:399] inception_4a/output_inception_4a/output_0_split -> inception_4a/output_inception_4a/output_0_split_2
I0403 11:13:28.708694 31624 net.cpp:399] inception_4a/output_inception_4a/output_0_split -> inception_4a/output_inception_4a/output_0_split_3
I0403 11:13:28.708712 31624 net.cpp:399] inception_4a/output_inception_4a/output_0_split -> inception_4a/output_inception_4a/output_0_split_4
I0403 11:13:28.708786 31624 net.cpp:141] Setting up inception_4a/output_inception_4a/output_0_split
I0403 11:13:28.708808 31624 net.cpp:148] Top shape: 24 512 14 14 (2408448)
I0403 11:13:28.708823 31624 net.cpp:148] Top shape: 24 512 14 14 (2408448)
I0403 11:13:28.708838 31624 net.cpp:148] Top shape: 24 512 14 14 (2408448)
I0403 11:13:28.708853 31624 net.cpp:148] Top shape: 24 512 14 14 (2408448)
I0403 11:13:28.708866 31624 net.cpp:148] Top shape: 24 512 14 14 (2408448)
I0403 11:13:28.708878 31624 net.cpp:156] Memory required for data: 944714112
I0403 11:13:28.708891 31624 layer_factory.hpp:77] Creating layer loss1/ave_pool
I0403 11:13:28.708909 31624 net.cpp:91] Creating Layer loss1/ave_pool
I0403 11:13:28.708936 31624 net.cpp:425] loss1/ave_pool <- inception_4a/output_inception_4a/output_0_split_0
I0403 11:13:28.708961 31624 net.cpp:399] loss1/ave_pool -> loss1/ave_pool
I0403 11:13:28.708999 31624 net.cpp:141] Setting up loss1/ave_pool
I0403 11:13:28.709022 31624 net.cpp:148] Top shape: 24 512 4 4 (196608)
I0403 11:13:28.709038 31624 net.cpp:156] Memory required for data: 945500544
I0403 11:13:28.709051 31624 layer_factory.hpp:77] Creating layer loss1/conv
I0403 11:13:28.709071 31624 net.cpp:91] Creating Layer loss1/conv
I0403 11:13:28.709087 31624 net.cpp:425] loss1/conv <- loss1/ave_pool
I0403 11:13:28.709107 31624 net.cpp:399] loss1/conv -> loss1/conv
I0403 11:13:28.709646 31624 net.cpp:141] Setting up loss1/conv
I0403 11:13:28.709671 31624 net.cpp:148] Top shape: 24 128 4 4 (49152)
I0403 11:13:28.709684 31624 net.cpp:156] Memory required for data: 945697152
I0403 11:13:28.709700 31624 layer_factory.hpp:77] Creating layer loss1/relu_conv
I0403 11:13:28.709718 31624 net.cpp:91] Creating Layer loss1/relu_conv
I0403 11:13:28.709733 31624 net.cpp:425] loss1/relu_conv <- loss1/conv
I0403 11:13:28.709749 31624 net.cpp:386] loss1/relu_conv -> loss1/conv (in-place)
I0403 11:13:28.709766 31624 net.cpp:141] Setting up loss1/relu_conv
I0403 11:13:28.709784 31624 net.cpp:148] Top shape: 24 128 4 4 (49152)
I0403 11:13:28.709796 31624 net.cpp:156] Memory required for data: 945893760
I0403 11:13:28.709810 31624 layer_factory.hpp:77] Creating layer loss1/fc
I0403 11:13:28.709833 31624 net.cpp:91] Creating Layer loss1/fc
I0403 11:13:28.709851 31624 net.cpp:425] loss1/fc <- loss1/conv
I0403 11:13:28.709867 31624 net.cpp:399] loss1/fc -> loss1/fc
I0403 11:13:28.726006 31624 net.cpp:141] Setting up loss1/fc
I0403 11:13:28.726043 31624 net.cpp:148] Top shape: 24 1024 (24576)
I0403 11:13:28.726059 31624 net.cpp:156] Memory required for data: 945992064
I0403 11:13:28.726076 31624 layer_factory.hpp:77] Creating layer loss1/relu_fc
I0403 11:13:28.726094 31624 net.cpp:91] Creating Layer loss1/relu_fc
I0403 11:13:28.726110 31624 net.cpp:425] loss1/relu_fc <- loss1/fc
I0403 11:13:28.726126 31624 net.cpp:386] loss1/relu_fc -> loss1/fc (in-place)
I0403 11:13:28.726147 31624 net.cpp:141] Setting up loss1/relu_fc
I0403 11:13:28.726164 31624 net.cpp:148] Top shape: 24 1024 (24576)
I0403 11:13:28.726181 31624 net.cpp:156] Memory required for data: 946090368
I0403 11:13:28.726193 31624 layer_factory.hpp:77] Creating layer loss1/drop_fc
I0403 11:13:28.726222 31624 net.cpp:91] Creating Layer loss1/drop_fc
I0403 11:13:28.726238 31624 net.cpp:425] loss1/drop_fc <- loss1/fc
I0403 11:13:28.726255 31624 net.cpp:386] loss1/drop_fc -> loss1/fc (in-place)
I0403 11:13:28.726297 31624 net.cpp:141] Setting up loss1/drop_fc
I0403 11:13:28.726321 31624 net.cpp:148] Top shape: 24 1024 (24576)
I0403 11:13:28.726336 31624 net.cpp:156] Memory required for data: 946188672
I0403 11:13:28.726351 31624 layer_factory.hpp:77] Creating layer loss1/classifier_plantvillage
I0403 11:13:28.726368 31624 net.cpp:91] Creating Layer loss1/classifier_plantvillage
I0403 11:13:28.726382 31624 net.cpp:425] loss1/classifier_plantvillage <- loss1/fc
I0403 11:13:28.726402 31624 net.cpp:399] loss1/classifier_plantvillage -> loss1/classifier_plantvillage
I0403 11:13:28.727206 31624 net.cpp:141] Setting up loss1/classifier_plantvillage
I0403 11:13:28.727232 31624 net.cpp:148] Top shape: 24 38 (912)
I0403 11:13:28.727247 31624 net.cpp:156] Memory required for data: 946192320
I0403 11:13:28.727264 31624 layer_factory.hpp:77] Creating layer inception_4b/1x1
I0403 11:13:28.727288 31624 net.cpp:91] Creating Layer inception_4b/1x1
I0403 11:13:28.727304 31624 net.cpp:425] inception_4b/1x1 <- inception_4a/output_inception_4a/output_0_split_1
I0403 11:13:28.727324 31624 net.cpp:399] inception_4b/1x1 -> inception_4b/1x1
I0403 11:13:28.727946 31624 net.cpp:141] Setting up inception_4b/1x1
I0403 11:13:28.727979 31624 net.cpp:148] Top shape: 24 160 14 14 (752640)
I0403 11:13:28.727995 31624 net.cpp:156] Memory required for data: 949202880
I0403 11:13:28.728011 31624 layer_factory.hpp:77] Creating layer inception_4b/relu_1x1
I0403 11:13:28.728049 31624 net.cpp:91] Creating Layer inception_4b/relu_1x1
I0403 11:13:28.728065 31624 net.cpp:425] inception_4b/relu_1x1 <- inception_4b/1x1
I0403 11:13:28.728081 31624 net.cpp:386] inception_4b/relu_1x1 -> inception_4b/1x1 (in-place)
I0403 11:13:28.728101 31624 net.cpp:141] Setting up inception_4b/relu_1x1
I0403 11:13:28.728117 31624 net.cpp:148] Top shape: 24 160 14 14 (752640)
I0403 11:13:28.728130 31624 net.cpp:156] Memory required for data: 952213440
I0403 11:13:28.728143 31624 layer_factory.hpp:77] Creating layer inception_4b/3x3_reduce
I0403 11:13:28.728164 31624 net.cpp:91] Creating Layer inception_4b/3x3_reduce
I0403 11:13:28.728181 31624 net.cpp:425] inception_4b/3x3_reduce <- inception_4a/output_inception_4a/output_0_split_2
I0403 11:13:28.728201 31624 net.cpp:399] inception_4b/3x3_reduce -> inception_4b/3x3_reduce
I0403 11:13:28.728694 31624 net.cpp:141] Setting up inception_4b/3x3_reduce
I0403 11:13:28.728718 31624 net.cpp:148] Top shape: 24 112 14 14 (526848)
I0403 11:13:28.728731 31624 net.cpp:156] Memory required for data: 954320832
I0403 11:13:28.728747 31624 layer_factory.hpp:77] Creating layer inception_4b/relu_3x3_reduce
I0403 11:13:28.728765 31624 net.cpp:91] Creating Layer inception_4b/relu_3x3_reduce
I0403 11:13:28.728780 31624 net.cpp:425] inception_4b/relu_3x3_reduce <- inception_4b/3x3_reduce
I0403 11:13:28.728796 31624 net.cpp:386] inception_4b/relu_3x3_reduce -> inception_4b/3x3_reduce (in-place)
I0403 11:13:28.728813 31624 net.cpp:141] Setting up inception_4b/relu_3x3_reduce
I0403 11:13:28.728829 31624 net.cpp:148] Top shape: 24 112 14 14 (526848)
I0403 11:13:28.728842 31624 net.cpp:156] Memory required for data: 956428224
I0403 11:13:28.728855 31624 layer_factory.hpp:77] Creating layer inception_4b/3x3
I0403 11:13:28.728876 31624 net.cpp:91] Creating Layer inception_4b/3x3
I0403 11:13:28.728893 31624 net.cpp:425] inception_4b/3x3 <- inception_4b/3x3_reduce
I0403 11:13:28.728912 31624 net.cpp:399] inception_4b/3x3 -> inception_4b/3x3
I0403 11:13:28.730778 31624 net.cpp:141] Setting up inception_4b/3x3
I0403 11:13:28.730805 31624 net.cpp:148] Top shape: 24 224 14 14 (1053696)
I0403 11:13:28.730819 31624 net.cpp:156] Memory required for data: 960643008
I0403 11:13:28.730836 31624 layer_factory.hpp:77] Creating layer inception_4b/relu_3x3
I0403 11:13:28.730854 31624 net.cpp:91] Creating Layer inception_4b/relu_3x3
I0403 11:13:28.730870 31624 net.cpp:425] inception_4b/relu_3x3 <- inception_4b/3x3
I0403 11:13:28.730885 31624 net.cpp:386] inception_4b/relu_3x3 -> inception_4b/3x3 (in-place)
I0403 11:13:28.730903 31624 net.cpp:141] Setting up inception_4b/relu_3x3
I0403 11:13:28.730919 31624 net.cpp:148] Top shape: 24 224 14 14 (1053696)
I0403 11:13:28.730932 31624 net.cpp:156] Memory required for data: 964857792
I0403 11:13:28.730945 31624 layer_factory.hpp:77] Creating layer inception_4b/5x5_reduce
I0403 11:13:28.730972 31624 net.cpp:91] Creating Layer inception_4b/5x5_reduce
I0403 11:13:28.730989 31624 net.cpp:425] inception_4b/5x5_reduce <- inception_4a/output_inception_4a/output_0_split_3
I0403 11:13:28.731009 31624 net.cpp:399] inception_4b/5x5_reduce -> inception_4b/5x5_reduce
I0403 11:13:28.731281 31624 net.cpp:141] Setting up inception_4b/5x5_reduce
I0403 11:13:28.731303 31624 net.cpp:148] Top shape: 24 24 14 14 (112896)
I0403 11:13:28.731317 31624 net.cpp:156] Memory required for data: 965309376
I0403 11:13:28.731334 31624 layer_factory.hpp:77] Creating layer inception_4b/relu_5x5_reduce
I0403 11:13:28.731353 31624 net.cpp:91] Creating Layer inception_4b/relu_5x5_reduce
I0403 11:13:28.731370 31624 net.cpp:425] inception_4b/relu_5x5_reduce <- inception_4b/5x5_reduce
I0403 11:13:28.731386 31624 net.cpp:386] inception_4b/relu_5x5_reduce -> inception_4b/5x5_reduce (in-place)
I0403 11:13:28.731405 31624 net.cpp:141] Setting up inception_4b/relu_5x5_reduce
I0403 11:13:28.731420 31624 net.cpp:148] Top shape: 24 24 14 14 (112896)
I0403 11:13:28.731434 31624 net.cpp:156] Memory required for data: 965760960
I0403 11:13:28.731447 31624 layer_factory.hpp:77] Creating layer inception_4b/5x5
I0403 11:13:28.731482 31624 net.cpp:91] Creating Layer inception_4b/5x5
I0403 11:13:28.731499 31624 net.cpp:425] inception_4b/5x5 <- inception_4b/5x5_reduce
I0403 11:13:28.731521 31624 net.cpp:399] inception_4b/5x5 -> inception_4b/5x5
I0403 11:13:28.731932 31624 net.cpp:141] Setting up inception_4b/5x5
I0403 11:13:28.731961 31624 net.cpp:148] Top shape: 24 64 14 14 (301056)
I0403 11:13:28.731989 31624 net.cpp:156] Memory required for data: 966965184
I0403 11:13:28.732007 31624 layer_factory.hpp:77] Creating layer inception_4b/relu_5x5
I0403 11:13:28.732034 31624 net.cpp:91] Creating Layer inception_4b/relu_5x5
I0403 11:13:28.732050 31624 net.cpp:425] inception_4b/relu_5x5 <- inception_4b/5x5
I0403 11:13:28.732067 31624 net.cpp:386] inception_4b/relu_5x5 -> inception_4b/5x5 (in-place)
I0403 11:13:28.732086 31624 net.cpp:141] Setting up inception_4b/relu_5x5
I0403 11:13:28.732103 31624 net.cpp:148] Top shape: 24 64 14 14 (301056)
I0403 11:13:28.732117 31624 net.cpp:156] Memory required for data: 968169408
I0403 11:13:28.732131 31624 layer_factory.hpp:77] Creating layer inception_4b/pool
I0403 11:13:28.732151 31624 net.cpp:91] Creating Layer inception_4b/pool
I0403 11:13:28.732167 31624 net.cpp:425] inception_4b/pool <- inception_4a/output_inception_4a/output_0_split_4
I0403 11:13:28.732187 31624 net.cpp:399] inception_4b/pool -> inception_4b/pool
I0403 11:13:28.732249 31624 net.cpp:141] Setting up inception_4b/pool
I0403 11:13:28.732270 31624 net.cpp:148] Top shape: 24 512 14 14 (2408448)
I0403 11:13:28.732285 31624 net.cpp:156] Memory required for data: 977803200
I0403 11:13:28.732307 31624 layer_factory.hpp:77] Creating layer inception_4b/pool_proj
I0403 11:13:28.732331 31624 net.cpp:91] Creating Layer inception_4b/pool_proj
I0403 11:13:28.732347 31624 net.cpp:425] inception_4b/pool_proj <- inception_4b/pool
I0403 11:13:28.732365 31624 net.cpp:399] inception_4b/pool_proj -> inception_4b/pool_proj
I0403 11:13:28.732756 31624 net.cpp:141] Setting up inception_4b/pool_proj
I0403 11:13:28.732780 31624 net.cpp:148] Top shape: 24 64 14 14 (301056)
I0403 11:13:28.732795 31624 net.cpp:156] Memory required for data: 979007424
I0403 11:13:28.732811 31624 layer_factory.hpp:77] Creating layer inception_4b/relu_pool_proj
I0403 11:13:28.732828 31624 net.cpp:91] Creating Layer inception_4b/relu_pool_proj
I0403 11:13:28.732844 31624 net.cpp:425] inception_4b/relu_pool_proj <- inception_4b/pool_proj
I0403 11:13:28.732863 31624 net.cpp:386] inception_4b/relu_pool_proj -> inception_4b/pool_proj (in-place)
I0403 11:13:28.732882 31624 net.cpp:141] Setting up inception_4b/relu_pool_proj
I0403 11:13:28.732898 31624 net.cpp:148] Top shape: 24 64 14 14 (301056)
I0403 11:13:28.732911 31624 net.cpp:156] Memory required for data: 980211648
I0403 11:13:28.732925 31624 layer_factory.hpp:77] Creating layer inception_4b/output
I0403 11:13:28.732941 31624 net.cpp:91] Creating Layer inception_4b/output
I0403 11:13:28.732959 31624 net.cpp:425] inception_4b/output <- inception_4b/1x1
I0403 11:13:28.732975 31624 net.cpp:425] inception_4b/output <- inception_4b/3x3
I0403 11:13:28.732991 31624 net.cpp:425] inception_4b/output <- inception_4b/5x5
I0403 11:13:28.733006 31624 net.cpp:425] inception_4b/output <- inception_4b/pool_proj
I0403 11:13:28.733023 31624 net.cpp:399] inception_4b/output -> inception_4b/output
I0403 11:13:28.733062 31624 net.cpp:141] Setting up inception_4b/output
I0403 11:13:28.733084 31624 net.cpp:148] Top shape: 24 512 14 14 (2408448)
I0403 11:13:28.733098 31624 net.cpp:156] Memory required for data: 989845440
I0403 11:13:28.733111 31624 layer_factory.hpp:77] Creating layer inception_4b/output_inception_4b/output_0_split
I0403 11:13:28.733129 31624 net.cpp:91] Creating Layer inception_4b/output_inception_4b/output_0_split
I0403 11:13:28.733144 31624 net.cpp:425] inception_4b/output_inception_4b/output_0_split <- inception_4b/output
I0403 11:13:28.733162 31624 net.cpp:399] inception_4b/output_inception_4b/output_0_split -> inception_4b/output_inception_4b/output_0_split_0
I0403 11:13:28.733185 31624 net.cpp:399] inception_4b/output_inception_4b/output_0_split -> inception_4b/output_inception_4b/output_0_split_1
I0403 11:13:28.733218 31624 net.cpp:399] inception_4b/output_inception_4b/output_0_split -> inception_4b/output_inception_4b/output_0_split_2
I0403 11:13:28.733239 31624 net.cpp:399] inception_4b/output_inception_4b/output_0_split -> inception_4b/output_inception_4b/output_0_split_3
I0403 11:13:28.733309 31624 net.cpp:141] Setting up inception_4b/output_inception_4b/output_0_split
I0403 11:13:28.733330 31624 net.cpp:148] Top shape: 24 512 14 14 (2408448)
I0403 11:13:28.733345 31624 net.cpp:148] Top shape: 24 512 14 14 (2408448)
I0403 11:13:28.733360 31624 net.cpp:148] Top shape: 24 512 14 14 (2408448)
I0403 11:13:28.733373 31624 net.cpp:148] Top shape: 24 512 14 14 (2408448)
I0403 11:13:28.733386 31624 net.cpp:156] Memory required for data: 1028380608
I0403 11:13:28.733400 31624 layer_factory.hpp:77] Creating layer inception_4c/1x1
I0403 11:13:28.733422 31624 net.cpp:91] Creating Layer inception_4c/1x1
I0403 11:13:28.733438 31624 net.cpp:425] inception_4c/1x1 <- inception_4b/output_inception_4b/output_0_split_0
I0403 11:13:28.733458 31624 net.cpp:399] inception_4c/1x1 -> inception_4c/1x1
I0403 11:13:28.734002 31624 net.cpp:141] Setting up inception_4c/1x1
I0403 11:13:28.734026 31624 net.cpp:148] Top shape: 24 128 14 14 (602112)
I0403 11:13:28.734040 31624 net.cpp:156] Memory required for data: 1030789056
I0403 11:13:28.734057 31624 layer_factory.hpp:77] Creating layer inception_4c/relu_1x1
I0403 11:13:28.734076 31624 net.cpp:91] Creating Layer inception_4c/relu_1x1
I0403 11:13:28.734091 31624 net.cpp:425] inception_4c/relu_1x1 <- inception_4c/1x1
I0403 11:13:28.734112 31624 net.cpp:386] inception_4c/relu_1x1 -> inception_4c/1x1 (in-place)
I0403 11:13:28.734130 31624 net.cpp:141] Setting up inception_4c/relu_1x1
I0403 11:13:28.734146 31624 net.cpp:148] Top shape: 24 128 14 14 (602112)
I0403 11:13:28.734160 31624 net.cpp:156] Memory required for data: 1033197504
I0403 11:13:28.734174 31624 layer_factory.hpp:77] Creating layer inception_4c/3x3_reduce
I0403 11:13:28.734195 31624 net.cpp:91] Creating Layer inception_4c/3x3_reduce
I0403 11:13:28.734211 31624 net.cpp:425] inception_4c/3x3_reduce <- inception_4b/output_inception_4b/output_0_split_1
I0403 11:13:28.734230 31624 net.cpp:399] inception_4c/3x3_reduce -> inception_4c/3x3_reduce
I0403 11:13:28.735307 31624 net.cpp:141] Setting up inception_4c/3x3_reduce
I0403 11:13:28.735334 31624 net.cpp:148] Top shape: 24 128 14 14 (602112)
I0403 11:13:28.735349 31624 net.cpp:156] Memory required for data: 1035605952
I0403 11:13:28.735366 31624 layer_factory.hpp:77] Creating layer inception_4c/relu_3x3_reduce
I0403 11:13:28.735384 31624 net.cpp:91] Creating Layer inception_4c/relu_3x3_reduce
I0403 11:13:28.735400 31624 net.cpp:425] inception_4c/relu_3x3_reduce <- inception_4c/3x3_reduce
I0403 11:13:28.735416 31624 net.cpp:386] inception_4c/relu_3x3_reduce -> inception_4c/3x3_reduce (in-place)
I0403 11:13:28.735435 31624 net.cpp:141] Setting up inception_4c/relu_3x3_reduce
I0403 11:13:28.735450 31624 net.cpp:148] Top shape: 24 128 14 14 (602112)
I0403 11:13:28.735465 31624 net.cpp:156] Memory required for data: 1038014400
I0403 11:13:28.735477 31624 layer_factory.hpp:77] Creating layer inception_4c/3x3
I0403 11:13:28.735501 31624 net.cpp:91] Creating Layer inception_4c/3x3
I0403 11:13:28.735517 31624 net.cpp:425] inception_4c/3x3 <- inception_4c/3x3_reduce
I0403 11:13:28.735537 31624 net.cpp:399] inception_4c/3x3 -> inception_4c/3x3
I0403 11:13:28.737861 31624 net.cpp:141] Setting up inception_4c/3x3
I0403 11:13:28.737887 31624 net.cpp:148] Top shape: 24 256 14 14 (1204224)
I0403 11:13:28.737903 31624 net.cpp:156] Memory required for data: 1042831296
I0403 11:13:28.737933 31624 layer_factory.hpp:77] Creating layer inception_4c/relu_3x3
I0403 11:13:28.737964 31624 net.cpp:91] Creating Layer inception_4c/relu_3x3
I0403 11:13:28.737983 31624 net.cpp:425] inception_4c/relu_3x3 <- inception_4c/3x3
I0403 11:13:28.738001 31624 net.cpp:386] inception_4c/relu_3x3 -> inception_4c/3x3 (in-place)
I0403 11:13:28.738035 31624 net.cpp:141] Setting up inception_4c/relu_3x3
I0403 11:13:28.738054 31624 net.cpp:148] Top shape: 24 256 14 14 (1204224)
I0403 11:13:28.738067 31624 net.cpp:156] Memory required for data: 1047648192
I0403 11:13:28.738081 31624 layer_factory.hpp:77] Creating layer inception_4c/5x5_reduce
I0403 11:13:28.738103 31624 net.cpp:91] Creating Layer inception_4c/5x5_reduce
I0403 11:13:28.738121 31624 net.cpp:425] inception_4c/5x5_reduce <- inception_4b/output_inception_4b/output_0_split_2
I0403 11:13:28.738139 31624 net.cpp:399] inception_4c/5x5_reduce -> inception_4c/5x5_reduce
I0403 11:13:28.738416 31624 net.cpp:141] Setting up inception_4c/5x5_reduce
I0403 11:13:28.738440 31624 net.cpp:148] Top shape: 24 24 14 14 (112896)
I0403 11:13:28.738454 31624 net.cpp:156] Memory required for data: 1048099776
I0403 11:13:28.738471 31624 layer_factory.hpp:77] Creating layer inception_4c/relu_5x5_reduce
I0403 11:13:28.738488 31624 net.cpp:91] Creating Layer inception_4c/relu_5x5_reduce
I0403 11:13:28.738503 31624 net.cpp:425] inception_4c/relu_5x5_reduce <- inception_4c/5x5_reduce
I0403 11:13:28.738526 31624 net.cpp:386] inception_4c/relu_5x5_reduce -> inception_4c/5x5_reduce (in-place)
I0403 11:13:28.738545 31624 net.cpp:141] Setting up inception_4c/relu_5x5_reduce
I0403 11:13:28.738562 31624 net.cpp:148] Top shape: 24 24 14 14 (112896)
I0403 11:13:28.738575 31624 net.cpp:156] Memory required for data: 1048551360
I0403 11:13:28.738589 31624 layer_factory.hpp:77] Creating layer inception_4c/5x5
I0403 11:13:28.738610 31624 net.cpp:91] Creating Layer inception_4c/5x5
I0403 11:13:28.738627 31624 net.cpp:425] inception_4c/5x5 <- inception_4c/5x5_reduce
I0403 11:13:28.738646 31624 net.cpp:399] inception_4c/5x5 -> inception_4c/5x5
I0403 11:13:28.739084 31624 net.cpp:141] Setting up inception_4c/5x5
I0403 11:13:28.739109 31624 net.cpp:148] Top shape: 24 64 14 14 (301056)
I0403 11:13:28.739123 31624 net.cpp:156] Memory required for data: 1049755584
I0403 11:13:28.739140 31624 layer_factory.hpp:77] Creating layer inception_4c/relu_5x5
I0403 11:13:28.739158 31624 net.cpp:91] Creating Layer inception_4c/relu_5x5
I0403 11:13:28.739173 31624 net.cpp:425] inception_4c/relu_5x5 <- inception_4c/5x5
I0403 11:13:28.739193 31624 net.cpp:386] inception_4c/relu_5x5 -> inception_4c/5x5 (in-place)
I0403 11:13:28.739213 31624 net.cpp:141] Setting up inception_4c/relu_5x5
I0403 11:13:28.739230 31624 net.cpp:148] Top shape: 24 64 14 14 (301056)
I0403 11:13:28.739244 31624 net.cpp:156] Memory required for data: 1050959808
I0403 11:13:28.739259 31624 layer_factory.hpp:77] Creating layer inception_4c/pool
I0403 11:13:28.739275 31624 net.cpp:91] Creating Layer inception_4c/pool
I0403 11:13:28.739303 31624 net.cpp:425] inception_4c/pool <- inception_4b/output_inception_4b/output_0_split_3
I0403 11:13:28.739323 31624 net.cpp:399] inception_4c/pool -> inception_4c/pool
I0403 11:13:28.739373 31624 net.cpp:141] Setting up inception_4c/pool
I0403 11:13:28.739395 31624 net.cpp:148] Top shape: 24 512 14 14 (2408448)
I0403 11:13:28.739409 31624 net.cpp:156] Memory required for data: 1060593600
I0403 11:13:28.739423 31624 layer_factory.hpp:77] Creating layer inception_4c/pool_proj
I0403 11:13:28.739445 31624 net.cpp:91] Creating Layer inception_4c/pool_proj
I0403 11:13:28.739462 31624 net.cpp:425] inception_4c/pool_proj <- inception_4c/pool
I0403 11:13:28.739482 31624 net.cpp:399] inception_4c/pool_proj -> inception_4c/pool_proj
I0403 11:13:28.739866 31624 net.cpp:141] Setting up inception_4c/pool_proj
I0403 11:13:28.739889 31624 net.cpp:148] Top shape: 24 64 14 14 (301056)
I0403 11:13:28.739903 31624 net.cpp:156] Memory required for data: 1061797824
I0403 11:13:28.739920 31624 layer_factory.hpp:77] Creating layer inception_4c/relu_pool_proj
I0403 11:13:28.739936 31624 net.cpp:91] Creating Layer inception_4c/relu_pool_proj
I0403 11:13:28.739951 31624 net.cpp:425] inception_4c/relu_pool_proj <- inception_4c/pool_proj
I0403 11:13:28.739974 31624 net.cpp:386] inception_4c/relu_pool_proj -> inception_4c/pool_proj (in-place)
I0403 11:13:28.739992 31624 net.cpp:141] Setting up inception_4c/relu_pool_proj
I0403 11:13:28.740034 31624 net.cpp:148] Top shape: 24 64 14 14 (301056)
I0403 11:13:28.740049 31624 net.cpp:156] Memory required for data: 1063002048
I0403 11:13:28.740063 31624 layer_factory.hpp:77] Creating layer inception_4c/output
I0403 11:13:28.740082 31624 net.cpp:91] Creating Layer inception_4c/output
I0403 11:13:28.740098 31624 net.cpp:425] inception_4c/output <- inception_4c/1x1
I0403 11:13:28.740115 31624 net.cpp:425] inception_4c/output <- inception_4c/3x3
I0403 11:13:28.740130 31624 net.cpp:425] inception_4c/output <- inception_4c/5x5
I0403 11:13:28.740147 31624 net.cpp:425] inception_4c/output <- inception_4c/pool_proj
I0403 11:13:28.740165 31624 net.cpp:399] inception_4c/output -> inception_4c/output
I0403 11:13:28.740206 31624 net.cpp:141] Setting up inception_4c/output
I0403 11:13:28.740229 31624 net.cpp:148] Top shape: 24 512 14 14 (2408448)
I0403 11:13:28.740243 31624 net.cpp:156] Memory required for data: 1072635840
I0403 11:13:28.740257 31624 layer_factory.hpp:77] Creating layer inception_4c/output_inception_4c/output_0_split
I0403 11:13:28.740275 31624 net.cpp:91] Creating Layer inception_4c/output_inception_4c/output_0_split
I0403 11:13:28.740303 31624 net.cpp:425] inception_4c/output_inception_4c/output_0_split <- inception_4c/output
I0403 11:13:28.740322 31624 net.cpp:399] inception_4c/output_inception_4c/output_0_split -> inception_4c/output_inception_4c/output_0_split_0
I0403 11:13:28.740344 31624 net.cpp:399] inception_4c/output_inception_4c/output_0_split -> inception_4c/output_inception_4c/output_0_split_1
I0403 11:13:28.740363 31624 net.cpp:399] inception_4c/output_inception_4c/output_0_split -> inception_4c/output_inception_4c/output_0_split_2
I0403 11:13:28.740383 31624 net.cpp:399] inception_4c/output_inception_4c/output_0_split -> inception_4c/output_inception_4c/output_0_split_3
I0403 11:13:28.740450 31624 net.cpp:141] Setting up inception_4c/output_inception_4c/output_0_split
I0403 11:13:28.740473 31624 net.cpp:148] Top shape: 24 512 14 14 (2408448)
I0403 11:13:28.740489 31624 net.cpp:148] Top shape: 24 512 14 14 (2408448)
I0403 11:13:28.740502 31624 net.cpp:148] Top shape: 24 512 14 14 (2408448)
I0403 11:13:28.740516 31624 net.cpp:148] Top shape: 24 512 14 14 (2408448)
I0403 11:13:28.740528 31624 net.cpp:156] Memory required for data: 1111171008
I0403 11:13:28.740542 31624 layer_factory.hpp:77] Creating layer inception_4d/1x1
I0403 11:13:28.740566 31624 net.cpp:91] Creating Layer inception_4d/1x1
I0403 11:13:28.740583 31624 net.cpp:425] inception_4d/1x1 <- inception_4c/output_inception_4c/output_0_split_0
I0403 11:13:28.740602 31624 net.cpp:399] inception_4d/1x1 -> inception_4d/1x1
I0403 11:13:28.741127 31624 net.cpp:141] Setting up inception_4d/1x1
I0403 11:13:28.741152 31624 net.cpp:148] Top shape: 24 112 14 14 (526848)
I0403 11:13:28.741166 31624 net.cpp:156] Memory required for data: 1113278400
I0403 11:13:28.741185 31624 layer_factory.hpp:77] Creating layer inception_4d/relu_1x1
I0403 11:13:28.741204 31624 net.cpp:91] Creating Layer inception_4d/relu_1x1
I0403 11:13:28.741219 31624 net.cpp:425] inception_4d/relu_1x1 <- inception_4d/1x1
I0403 11:13:28.741243 31624 net.cpp:386] inception_4d/relu_1x1 -> inception_4d/1x1 (in-place)
I0403 11:13:28.741263 31624 net.cpp:141] Setting up inception_4d/relu_1x1
I0403 11:13:28.741281 31624 net.cpp:148] Top shape: 24 112 14 14 (526848)
I0403 11:13:28.741307 31624 net.cpp:156] Memory required for data: 1115385792
I0403 11:13:28.741320 31624 layer_factory.hpp:77] Creating layer inception_4d/3x3_reduce
I0403 11:13:28.741340 31624 net.cpp:91] Creating Layer inception_4d/3x3_reduce
I0403 11:13:28.741356 31624 net.cpp:425] inception_4d/3x3_reduce <- inception_4c/output_inception_4c/output_0_split_1
I0403 11:13:28.741376 31624 net.cpp:399] inception_4d/3x3_reduce -> inception_4d/3x3_reduce
I0403 11:13:28.741997 31624 net.cpp:141] Setting up inception_4d/3x3_reduce
I0403 11:13:28.742020 31624 net.cpp:148] Top shape: 24 144 14 14 (677376)
I0403 11:13:28.742035 31624 net.cpp:156] Memory required for data: 1118095296
I0403 11:13:28.742065 31624 layer_factory.hpp:77] Creating layer inception_4d/relu_3x3_reduce
I0403 11:13:28.742084 31624 net.cpp:91] Creating Layer inception_4d/relu_3x3_reduce
I0403 11:13:28.742100 31624 net.cpp:425] inception_4d/relu_3x3_reduce <- inception_4d/3x3_reduce
I0403 11:13:28.742116 31624 net.cpp:386] inception_4d/relu_3x3_reduce -> inception_4d/3x3_reduce (in-place)
I0403 11:13:28.742137 31624 net.cpp:141] Setting up inception_4d/relu_3x3_reduce
I0403 11:13:28.742156 31624 net.cpp:148] Top shape: 24 144 14 14 (677376)
I0403 11:13:28.742169 31624 net.cpp:156] Memory required for data: 1120804800
I0403 11:13:28.742183 31624 layer_factory.hpp:77] Creating layer inception_4d/3x3
I0403 11:13:28.742205 31624 net.cpp:91] Creating Layer inception_4d/3x3
I0403 11:13:28.742223 31624 net.cpp:425] inception_4d/3x3 <- inception_4d/3x3_reduce
I0403 11:13:28.742240 31624 net.cpp:399] inception_4d/3x3 -> inception_4d/3x3
I0403 11:13:28.745262 31624 net.cpp:141] Setting up inception_4d/3x3
I0403 11:13:28.745291 31624 net.cpp:148] Top shape: 24 288 14 14 (1354752)
I0403 11:13:28.745307 31624 net.cpp:156] Memory required for data: 1126223808
I0403 11:13:28.745324 31624 layer_factory.hpp:77] Creating layer inception_4d/relu_3x3
I0403 11:13:28.745342 31624 net.cpp:91] Creating Layer inception_4d/relu_3x3
I0403 11:13:28.745357 31624 net.cpp:425] inception_4d/relu_3x3 <- inception_4d/3x3
I0403 11:13:28.745374 31624 net.cpp:386] inception_4d/relu_3x3 -> inception_4d/3x3 (in-place)
I0403 11:13:28.745393 31624 net.cpp:141] Setting up inception_4d/relu_3x3
I0403 11:13:28.745409 31624 net.cpp:148] Top shape: 24 288 14 14 (1354752)
I0403 11:13:28.745424 31624 net.cpp:156] Memory required for data: 1131642816
I0403 11:13:28.745436 31624 layer_factory.hpp:77] Creating layer inception_4d/5x5_reduce
I0403 11:13:28.745458 31624 net.cpp:91] Creating Layer inception_4d/5x5_reduce
I0403 11:13:28.745476 31624 net.cpp:425] inception_4d/5x5_reduce <- inception_4c/output_inception_4c/output_0_split_2
I0403 11:13:28.745496 31624 net.cpp:399] inception_4d/5x5_reduce -> inception_4d/5x5_reduce
I0403 11:13:28.745802 31624 net.cpp:141] Setting up inception_4d/5x5_reduce
I0403 11:13:28.745826 31624 net.cpp:148] Top shape: 24 32 14 14 (150528)
I0403 11:13:28.745841 31624 net.cpp:156] Memory required for data: 1132244928
I0403 11:13:28.745857 31624 layer_factory.hpp:77] Creating layer inception_4d/relu_5x5_reduce
I0403 11:13:28.745877 31624 net.cpp:91] Creating Layer inception_4d/relu_5x5_reduce
I0403 11:13:28.745893 31624 net.cpp:425] inception_4d/relu_5x5_reduce <- inception_4d/5x5_reduce
I0403 11:13:28.745923 31624 net.cpp:386] inception_4d/relu_5x5_reduce -> inception_4d/5x5_reduce (in-place)
I0403 11:13:28.745944 31624 net.cpp:141] Setting up inception_4d/relu_5x5_reduce
I0403 11:13:28.745965 31624 net.cpp:148] Top shape: 24 32 14 14 (150528)
I0403 11:13:28.745980 31624 net.cpp:156] Memory required for data: 1132847040
I0403 11:13:28.745995 31624 layer_factory.hpp:77] Creating layer inception_4d/5x5
I0403 11:13:28.746017 31624 net.cpp:91] Creating Layer inception_4d/5x5
I0403 11:13:28.746034 31624 net.cpp:425] inception_4d/5x5 <- inception_4d/5x5_reduce
I0403 11:13:28.746053 31624 net.cpp:399] inception_4d/5x5 -> inception_4d/5x5
I0403 11:13:28.746549 31624 net.cpp:141] Setting up inception_4d/5x5
I0403 11:13:28.746575 31624 net.cpp:148] Top shape: 24 64 14 14 (301056)
I0403 11:13:28.746590 31624 net.cpp:156] Memory required for data: 1134051264
I0403 11:13:28.746608 31624 layer_factory.hpp:77] Creating layer inception_4d/relu_5x5
I0403 11:13:28.746624 31624 net.cpp:91] Creating Layer inception_4d/relu_5x5
I0403 11:13:28.746640 31624 net.cpp:425] inception_4d/relu_5x5 <- inception_4d/5x5
I0403 11:13:28.746656 31624 net.cpp:386] inception_4d/relu_5x5 -> inception_4d/5x5 (in-place)
I0403 11:13:28.746675 31624 net.cpp:141] Setting up inception_4d/relu_5x5
I0403 11:13:28.746691 31624 net.cpp:148] Top shape: 24 64 14 14 (301056)
I0403 11:13:28.746706 31624 net.cpp:156] Memory required for data: 1135255488
I0403 11:13:28.746721 31624 layer_factory.hpp:77] Creating layer inception_4d/pool
I0403 11:13:28.746750 31624 net.cpp:91] Creating Layer inception_4d/pool
I0403 11:13:28.746767 31624 net.cpp:425] inception_4d/pool <- inception_4c/output_inception_4c/output_0_split_3
I0403 11:13:28.746786 31624 net.cpp:399] inception_4d/pool -> inception_4d/pool
I0403 11:13:28.746841 31624 net.cpp:141] Setting up inception_4d/pool
I0403 11:13:28.746863 31624 net.cpp:148] Top shape: 24 512 14 14 (2408448)
I0403 11:13:28.746877 31624 net.cpp:156] Memory required for data: 1144889280
I0403 11:13:28.746891 31624 layer_factory.hpp:77] Creating layer inception_4d/pool_proj
I0403 11:13:28.746915 31624 net.cpp:91] Creating Layer inception_4d/pool_proj
I0403 11:13:28.746932 31624 net.cpp:425] inception_4d/pool_proj <- inception_4d/pool
I0403 11:13:28.746951 31624 net.cpp:399] inception_4d/pool_proj -> inception_4d/pool_proj
I0403 11:13:28.747856 31624 net.cpp:141] Setting up inception_4d/pool_proj
I0403 11:13:28.747882 31624 net.cpp:148] Top shape: 24 64 14 14 (301056)
I0403 11:13:28.747897 31624 net.cpp:156] Memory required for data: 1146093504
I0403 11:13:28.747915 31624 layer_factory.hpp:77] Creating layer inception_4d/relu_pool_proj
I0403 11:13:28.747932 31624 net.cpp:91] Creating Layer inception_4d/relu_pool_proj
I0403 11:13:28.747948 31624 net.cpp:425] inception_4d/relu_pool_proj <- inception_4d/pool_proj
I0403 11:13:28.747977 31624 net.cpp:386] inception_4d/relu_pool_proj -> inception_4d/pool_proj (in-place)
I0403 11:13:28.748000 31624 net.cpp:141] Setting up inception_4d/relu_pool_proj
I0403 11:13:28.748018 31624 net.cpp:148] Top shape: 24 64 14 14 (301056)
I0403 11:13:28.748033 31624 net.cpp:156] Memory required for data: 1147297728
I0403 11:13:28.748045 31624 layer_factory.hpp:77] Creating layer inception_4d/output
I0403 11:13:28.748062 31624 net.cpp:91] Creating Layer inception_4d/output
I0403 11:13:28.748077 31624 net.cpp:425] inception_4d/output <- inception_4d/1x1
I0403 11:13:28.748093 31624 net.cpp:425] inception_4d/output <- inception_4d/3x3
I0403 11:13:28.748108 31624 net.cpp:425] inception_4d/output <- inception_4d/5x5
I0403 11:13:28.748123 31624 net.cpp:425] inception_4d/output <- inception_4d/pool_proj
I0403 11:13:28.748141 31624 net.cpp:399] inception_4d/output -> inception_4d/output
I0403 11:13:28.748179 31624 net.cpp:141] Setting up inception_4d/output
I0403 11:13:28.748201 31624 net.cpp:148] Top shape: 24 528 14 14 (2483712)
I0403 11:13:28.748215 31624 net.cpp:156] Memory required for data: 1157232576
I0403 11:13:28.748229 31624 layer_factory.hpp:77] Creating layer inception_4d/output_inception_4d/output_0_split
I0403 11:13:28.748246 31624 net.cpp:91] Creating Layer inception_4d/output_inception_4d/output_0_split
I0403 11:13:28.748261 31624 net.cpp:425] inception_4d/output_inception_4d/output_0_split <- inception_4d/output
I0403 11:13:28.748281 31624 net.cpp:399] inception_4d/output_inception_4d/output_0_split -> inception_4d/output_inception_4d/output_0_split_0
I0403 11:13:28.748303 31624 net.cpp:399] inception_4d/output_inception_4d/output_0_split -> inception_4d/output_inception_4d/output_0_split_1
I0403 11:13:28.748323 31624 net.cpp:399] inception_4d/output_inception_4d/output_0_split -> inception_4d/output_inception_4d/output_0_split_2
I0403 11:13:28.748343 31624 net.cpp:399] inception_4d/output_inception_4d/output_0_split -> inception_4d/output_inception_4d/output_0_split_3
I0403 11:13:28.748363 31624 net.cpp:399] inception_4d/output_inception_4d/output_0_split -> inception_4d/output_inception_4d/output_0_split_4
I0403 11:13:28.748438 31624 net.cpp:141] Setting up inception_4d/output_inception_4d/output_0_split
I0403 11:13:28.748459 31624 net.cpp:148] Top shape: 24 528 14 14 (2483712)
I0403 11:13:28.748476 31624 net.cpp:148] Top shape: 24 528 14 14 (2483712)
I0403 11:13:28.748491 31624 net.cpp:148] Top shape: 24 528 14 14 (2483712)
I0403 11:13:28.748504 31624 net.cpp:148] Top shape: 24 528 14 14 (2483712)
I0403 11:13:28.748519 31624 net.cpp:148] Top shape: 24 528 14 14 (2483712)
I0403 11:13:28.748533 31624 net.cpp:156] Memory required for data: 1206906816
I0403 11:13:28.748560 31624 layer_factory.hpp:77] Creating layer loss2/ave_pool
I0403 11:13:28.748579 31624 net.cpp:91] Creating Layer loss2/ave_pool
I0403 11:13:28.748594 31624 net.cpp:425] loss2/ave_pool <- inception_4d/output_inception_4d/output_0_split_0
I0403 11:13:28.748613 31624 net.cpp:399] loss2/ave_pool -> loss2/ave_pool
I0403 11:13:28.748651 31624 net.cpp:141] Setting up loss2/ave_pool
I0403 11:13:28.748674 31624 net.cpp:148] Top shape: 24 528 4 4 (202752)
I0403 11:13:28.748689 31624 net.cpp:156] Memory required for data: 1207717824
I0403 11:13:28.748703 31624 layer_factory.hpp:77] Creating layer loss2/conv
I0403 11:13:28.748723 31624 net.cpp:91] Creating Layer loss2/conv
I0403 11:13:28.748739 31624 net.cpp:425] loss2/conv <- loss2/ave_pool
I0403 11:13:28.748759 31624 net.cpp:399] loss2/conv -> loss2/conv
I0403 11:13:28.749856 31624 net.cpp:141] Setting up loss2/conv
I0403 11:13:28.749882 31624 net.cpp:148] Top shape: 24 128 4 4 (49152)
I0403 11:13:28.749897 31624 net.cpp:156] Memory required for data: 1207914432
I0403 11:13:28.749914 31624 layer_factory.hpp:77] Creating layer loss2/relu_conv
I0403 11:13:28.749935 31624 net.cpp:91] Creating Layer loss2/relu_conv
I0403 11:13:28.749953 31624 net.cpp:425] loss2/relu_conv <- loss2/conv
I0403 11:13:28.749974 31624 net.cpp:386] loss2/relu_conv -> loss2/conv (in-place)
I0403 11:13:28.749994 31624 net.cpp:141] Setting up loss2/relu_conv
I0403 11:13:28.750010 31624 net.cpp:148] Top shape: 24 128 4 4 (49152)
I0403 11:13:28.750025 31624 net.cpp:156] Memory required for data: 1208111040
I0403 11:13:28.750037 31624 layer_factory.hpp:77] Creating layer loss2/fc
I0403 11:13:28.750058 31624 net.cpp:91] Creating Layer loss2/fc
I0403 11:13:28.750074 31624 net.cpp:425] loss2/fc <- loss2/conv
I0403 11:13:28.750092 31624 net.cpp:399] loss2/fc -> loss2/fc
I0403 11:13:28.765431 31624 net.cpp:141] Setting up loss2/fc
I0403 11:13:28.765465 31624 net.cpp:148] Top shape: 24 1024 (24576)
I0403 11:13:28.765480 31624 net.cpp:156] Memory required for data: 1208209344
I0403 11:13:28.765498 31624 layer_factory.hpp:77] Creating layer loss2/relu_fc
I0403 11:13:28.765517 31624 net.cpp:91] Creating Layer loss2/relu_fc
I0403 11:13:28.765533 31624 net.cpp:425] loss2/relu_fc <- loss2/fc
I0403 11:13:28.765550 31624 net.cpp:386] loss2/relu_fc -> loss2/fc (in-place)
I0403 11:13:28.765573 31624 net.cpp:141] Setting up loss2/relu_fc
I0403 11:13:28.765588 31624 net.cpp:148] Top shape: 24 1024 (24576)
I0403 11:13:28.765602 31624 net.cpp:156] Memory required for data: 1208307648
I0403 11:13:28.765616 31624 layer_factory.hpp:77] Creating layer loss2/drop_fc
I0403 11:13:28.765633 31624 net.cpp:91] Creating Layer loss2/drop_fc
I0403 11:13:28.765656 31624 net.cpp:425] loss2/drop_fc <- loss2/fc
I0403 11:13:28.765672 31624 net.cpp:386] loss2/drop_fc -> loss2/fc (in-place)
I0403 11:13:28.765713 31624 net.cpp:141] Setting up loss2/drop_fc
I0403 11:13:28.765734 31624 net.cpp:148] Top shape: 24 1024 (24576)
I0403 11:13:28.765749 31624 net.cpp:156] Memory required for data: 1208405952
I0403 11:13:28.765763 31624 layer_factory.hpp:77] Creating layer loss2/classifier_plantvillage
I0403 11:13:28.765781 31624 net.cpp:91] Creating Layer loss2/classifier_plantvillage
I0403 11:13:28.765800 31624 net.cpp:425] loss2/classifier_plantvillage <- loss2/fc
I0403 11:13:28.765818 31624 net.cpp:399] loss2/classifier_plantvillage -> loss2/classifier_plantvillage
I0403 11:13:28.766137 31624 net.cpp:141] Setting up loss2/classifier_plantvillage
I0403 11:13:28.766161 31624 net.cpp:148] Top shape: 24 38 (912)
I0403 11:13:28.766176 31624 net.cpp:156] Memory required for data: 1208409600
I0403 11:13:28.766214 31624 layer_factory.hpp:77] Creating layer inception_4e/1x1
I0403 11:13:28.766238 31624 net.cpp:91] Creating Layer inception_4e/1x1
I0403 11:13:28.766255 31624 net.cpp:425] inception_4e/1x1 <- inception_4d/output_inception_4d/output_0_split_1
I0403 11:13:28.766273 31624 net.cpp:399] inception_4e/1x1 -> inception_4e/1x1
I0403 11:13:28.767174 31624 net.cpp:141] Setting up inception_4e/1x1
I0403 11:13:28.767199 31624 net.cpp:148] Top shape: 24 256 14 14 (1204224)
I0403 11:13:28.767228 31624 net.cpp:156] Memory required for data: 1213226496
I0403 11:13:28.767246 31624 layer_factory.hpp:77] Creating layer inception_4e/relu_1x1
I0403 11:13:28.767263 31624 net.cpp:91] Creating Layer inception_4e/relu_1x1
I0403 11:13:28.767278 31624 net.cpp:425] inception_4e/relu_1x1 <- inception_4e/1x1
I0403 11:13:28.767293 31624 net.cpp:386] inception_4e/relu_1x1 -> inception_4e/1x1 (in-place)
I0403 11:13:28.767312 31624 net.cpp:141] Setting up inception_4e/relu_1x1
I0403 11:13:28.767328 31624 net.cpp:148] Top shape: 24 256 14 14 (1204224)
I0403 11:13:28.767341 31624 net.cpp:156] Memory required for data: 1218043392
I0403 11:13:28.767354 31624 layer_factory.hpp:77] Creating layer inception_4e/3x3_reduce
I0403 11:13:28.767375 31624 net.cpp:91] Creating Layer inception_4e/3x3_reduce
I0403 11:13:28.767391 31624 net.cpp:425] inception_4e/3x3_reduce <- inception_4d/output_inception_4d/output_0_split_2
I0403 11:13:28.767412 31624 net.cpp:399] inception_4e/3x3_reduce -> inception_4e/3x3_reduce
I0403 11:13:28.768597 31624 net.cpp:141] Setting up inception_4e/3x3_reduce
I0403 11:13:28.768625 31624 net.cpp:148] Top shape: 24 160 14 14 (752640)
I0403 11:13:28.768640 31624 net.cpp:156] Memory required for data: 1221053952
I0403 11:13:28.768657 31624 layer_factory.hpp:77] Creating layer inception_4e/relu_3x3_reduce
I0403 11:13:28.768674 31624 net.cpp:91] Creating Layer inception_4e/relu_3x3_reduce
I0403 11:13:28.768690 31624 net.cpp:425] inception_4e/relu_3x3_reduce <- inception_4e/3x3_reduce
I0403 11:13:28.768707 31624 net.cpp:386] inception_4e/relu_3x3_reduce -> inception_4e/3x3_reduce (in-place)
I0403 11:13:28.768725 31624 net.cpp:141] Setting up inception_4e/relu_3x3_reduce
I0403 11:13:28.768740 31624 net.cpp:148] Top shape: 24 160 14 14 (752640)
I0403 11:13:28.768754 31624 net.cpp:156] Memory required for data: 1224064512
I0403 11:13:28.768766 31624 layer_factory.hpp:77] Creating layer inception_4e/3x3
I0403 11:13:28.768789 31624 net.cpp:91] Creating Layer inception_4e/3x3
I0403 11:13:28.768805 31624 net.cpp:425] inception_4e/3x3 <- inception_4e/3x3_reduce
I0403 11:13:28.768826 31624 net.cpp:399] inception_4e/3x3 -> inception_4e/3x3
I0403 11:13:28.772385 31624 net.cpp:141] Setting up inception_4e/3x3
I0403 11:13:28.772413 31624 net.cpp:148] Top shape: 24 320 14 14 (1505280)
I0403 11:13:28.772428 31624 net.cpp:156] Memory required for data: 1230085632
I0403 11:13:28.772444 31624 layer_factory.hpp:77] Creating layer inception_4e/relu_3x3
I0403 11:13:28.772461 31624 net.cpp:91] Creating Layer inception_4e/relu_3x3
I0403 11:13:28.772477 31624 net.cpp:425] inception_4e/relu_3x3 <- inception_4e/3x3
I0403 11:13:28.772496 31624 net.cpp:386] inception_4e/relu_3x3 -> inception_4e/3x3 (in-place)
I0403 11:13:28.772516 31624 net.cpp:141] Setting up inception_4e/relu_3x3
I0403 11:13:28.772531 31624 net.cpp:148] Top shape: 24 320 14 14 (1505280)
I0403 11:13:28.772544 31624 net.cpp:156] Memory required for data: 1236106752
I0403 11:13:28.772557 31624 layer_factory.hpp:77] Creating layer inception_4e/5x5_reduce
I0403 11:13:28.772579 31624 net.cpp:91] Creating Layer inception_4e/5x5_reduce
I0403 11:13:28.772595 31624 net.cpp:425] inception_4e/5x5_reduce <- inception_4d/output_inception_4d/output_0_split_3
I0403 11:13:28.772614 31624 net.cpp:399] inception_4e/5x5_reduce -> inception_4e/5x5_reduce
I0403 11:13:28.772913 31624 net.cpp:141] Setting up inception_4e/5x5_reduce
I0403 11:13:28.772936 31624 net.cpp:148] Top shape: 24 32 14 14 (150528)
I0403 11:13:28.772951 31624 net.cpp:156] Memory required for data: 1236708864
I0403 11:13:28.772974 31624 layer_factory.hpp:77] Creating layer inception_4e/relu_5x5_reduce
I0403 11:13:28.772991 31624 net.cpp:91] Creating Layer inception_4e/relu_5x5_reduce
I0403 11:13:28.773006 31624 net.cpp:425] inception_4e/relu_5x5_reduce <- inception_4e/5x5_reduce
I0403 11:13:28.773025 31624 net.cpp:386] inception_4e/relu_5x5_reduce -> inception_4e/5x5_reduce (in-place)
I0403 11:13:28.773044 31624 net.cpp:141] Setting up inception_4e/relu_5x5_reduce
I0403 11:13:28.773073 31624 net.cpp:148] Top shape: 24 32 14 14 (150528)
I0403 11:13:28.773088 31624 net.cpp:156] Memory required for data: 1237310976
I0403 11:13:28.773102 31624 layer_factory.hpp:77] Creating layer inception_4e/5x5
I0403 11:13:28.773124 31624 net.cpp:91] Creating Layer inception_4e/5x5
I0403 11:13:28.773140 31624 net.cpp:425] inception_4e/5x5 <- inception_4e/5x5_reduce
I0403 11:13:28.773157 31624 net.cpp:399] inception_4e/5x5 -> inception_4e/5x5
I0403 11:13:28.773887 31624 net.cpp:141] Setting up inception_4e/5x5
I0403 11:13:28.773911 31624 net.cpp:148] Top shape: 24 128 14 14 (602112)
I0403 11:13:28.773926 31624 net.cpp:156] Memory required for data: 1239719424
I0403 11:13:28.773942 31624 layer_factory.hpp:77] Creating layer inception_4e/relu_5x5
I0403 11:13:28.773962 31624 net.cpp:91] Creating Layer inception_4e/relu_5x5
I0403 11:13:28.773979 31624 net.cpp:425] inception_4e/relu_5x5 <- inception_4e/5x5
I0403 11:13:28.773998 31624 net.cpp:386] inception_4e/relu_5x5 -> inception_4e/5x5 (in-place)
I0403 11:13:28.774018 31624 net.cpp:141] Setting up inception_4e/relu_5x5
I0403 11:13:28.774034 31624 net.cpp:148] Top shape: 24 128 14 14 (602112)
I0403 11:13:28.774047 31624 net.cpp:156] Memory required for data: 1242127872
I0403 11:13:28.774060 31624 layer_factory.hpp:77] Creating layer inception_4e/pool
I0403 11:13:28.774093 31624 net.cpp:91] Creating Layer inception_4e/pool
I0403 11:13:28.774111 31624 net.cpp:425] inception_4e/pool <- inception_4d/output_inception_4d/output_0_split_4
I0403 11:13:28.774129 31624 net.cpp:399] inception_4e/pool -> inception_4e/pool
I0403 11:13:28.774178 31624 net.cpp:141] Setting up inception_4e/pool
I0403 11:13:28.774202 31624 net.cpp:148] Top shape: 24 528 14 14 (2483712)
I0403 11:13:28.774217 31624 net.cpp:156] Memory required for data: 1252062720
I0403 11:13:28.774231 31624 layer_factory.hpp:77] Creating layer inception_4e/pool_proj
I0403 11:13:28.774250 31624 net.cpp:91] Creating Layer inception_4e/pool_proj
I0403 11:13:28.774266 31624 net.cpp:425] inception_4e/pool_proj <- inception_4e/pool
I0403 11:13:28.774289 31624 net.cpp:399] inception_4e/pool_proj -> inception_4e/pool_proj
I0403 11:13:28.774837 31624 net.cpp:141] Setting up inception_4e/pool_proj
I0403 11:13:28.774859 31624 net.cpp:148] Top shape: 24 128 14 14 (602112)
I0403 11:13:28.774873 31624 net.cpp:156] Memory required for data: 1254471168
I0403 11:13:28.774890 31624 layer_factory.hpp:77] Creating layer inception_4e/relu_pool_proj
I0403 11:13:28.774906 31624 net.cpp:91] Creating Layer inception_4e/relu_pool_proj
I0403 11:13:28.774922 31624 net.cpp:425] inception_4e/relu_pool_proj <- inception_4e/pool_proj
I0403 11:13:28.774938 31624 net.cpp:386] inception_4e/relu_pool_proj -> inception_4e/pool_proj (in-place)
I0403 11:13:28.774960 31624 net.cpp:141] Setting up inception_4e/relu_pool_proj
I0403 11:13:28.774976 31624 net.cpp:148] Top shape: 24 128 14 14 (602112)
I0403 11:13:28.774989 31624 net.cpp:156] Memory required for data: 1256879616
I0403 11:13:28.775003 31624 layer_factory.hpp:77] Creating layer inception_4e/output
I0403 11:13:28.775022 31624 net.cpp:91] Creating Layer inception_4e/output
I0403 11:13:28.775037 31624 net.cpp:425] inception_4e/output <- inception_4e/1x1
I0403 11:13:28.775053 31624 net.cpp:425] inception_4e/output <- inception_4e/3x3
I0403 11:13:28.775066 31624 net.cpp:425] inception_4e/output <- inception_4e/5x5
I0403 11:13:28.775080 31624 net.cpp:425] inception_4e/output <- inception_4e/pool_proj
I0403 11:13:28.775096 31624 net.cpp:399] inception_4e/output -> inception_4e/output
I0403 11:13:28.775135 31624 net.cpp:141] Setting up inception_4e/output
I0403 11:13:28.775156 31624 net.cpp:148] Top shape: 24 832 14 14 (3913728)
I0403 11:13:28.775171 31624 net.cpp:156] Memory required for data: 1272534528
I0403 11:13:28.775185 31624 layer_factory.hpp:77] Creating layer pool4/3x3_s2
I0403 11:13:28.775202 31624 net.cpp:91] Creating Layer pool4/3x3_s2
I0403 11:13:28.775216 31624 net.cpp:425] pool4/3x3_s2 <- inception_4e/output
I0403 11:13:28.775234 31624 net.cpp:399] pool4/3x3_s2 -> pool4/3x3_s2
I0403 11:13:28.775295 31624 net.cpp:141] Setting up pool4/3x3_s2
I0403 11:13:28.775316 31624 net.cpp:148] Top shape: 24 832 7 7 (978432)
I0403 11:13:28.775331 31624 net.cpp:156] Memory required for data: 1276448256
I0403 11:13:28.775343 31624 layer_factory.hpp:77] Creating layer pool4/3x3_s2_pool4/3x3_s2_0_split
I0403 11:13:28.775362 31624 net.cpp:91] Creating Layer pool4/3x3_s2_pool4/3x3_s2_0_split
I0403 11:13:28.775378 31624 net.cpp:425] pool4/3x3_s2_pool4/3x3_s2_0_split <- pool4/3x3_s2
I0403 11:13:28.775395 31624 net.cpp:399] pool4/3x3_s2_pool4/3x3_s2_0_split -> pool4/3x3_s2_pool4/3x3_s2_0_split_0
I0403 11:13:28.775413 31624 net.cpp:399] pool4/3x3_s2_pool4/3x3_s2_0_split -> pool4/3x3_s2_pool4/3x3_s2_0_split_1
I0403 11:13:28.775434 31624 net.cpp:399] pool4/3x3_s2_pool4/3x3_s2_0_split -> pool4/3x3_s2_pool4/3x3_s2_0_split_2
I0403 11:13:28.775455 31624 net.cpp:399] pool4/3x3_s2_pool4/3x3_s2_0_split -> pool4/3x3_s2_pool4/3x3_s2_0_split_3
I0403 11:13:28.775519 31624 net.cpp:141] Setting up pool4/3x3_s2_pool4/3x3_s2_0_split
I0403 11:13:28.775540 31624 net.cpp:148] Top shape: 24 832 7 7 (978432)
I0403 11:13:28.775555 31624 net.cpp:148] Top shape: 24 832 7 7 (978432)
I0403 11:13:28.775570 31624 net.cpp:148] Top shape: 24 832 7 7 (978432)
I0403 11:13:28.775583 31624 net.cpp:148] Top shape: 24 832 7 7 (978432)
I0403 11:13:28.775595 31624 net.cpp:156] Memory required for data: 1292103168
I0403 11:13:28.775609 31624 layer_factory.hpp:77] Creating layer inception_5a/1x1
I0403 11:13:28.775630 31624 net.cpp:91] Creating Layer inception_5a/1x1
I0403 11:13:28.775647 31624 net.cpp:425] inception_5a/1x1 <- pool4/3x3_s2_pool4/3x3_s2_0_split_0
I0403 11:13:28.775670 31624 net.cpp:399] inception_5a/1x1 -> inception_5a/1x1
I0403 11:13:28.777487 31624 net.cpp:141] Setting up inception_5a/1x1
I0403 11:13:28.777513 31624 net.cpp:148] Top shape: 24 256 7 7 (301056)
I0403 11:13:28.777528 31624 net.cpp:156] Memory required for data: 1293307392
I0403 11:13:28.777544 31624 layer_factory.hpp:77] Creating layer inception_5a/relu_1x1
I0403 11:13:28.777562 31624 net.cpp:91] Creating Layer inception_5a/relu_1x1
I0403 11:13:28.777577 31624 net.cpp:425] inception_5a/relu_1x1 <- inception_5a/1x1
I0403 11:13:28.777596 31624 net.cpp:386] inception_5a/relu_1x1 -> inception_5a/1x1 (in-place)
I0403 11:13:28.777616 31624 net.cpp:141] Setting up inception_5a/relu_1x1
I0403 11:13:28.777631 31624 net.cpp:148] Top shape: 24 256 7 7 (301056)
I0403 11:13:28.777644 31624 net.cpp:156] Memory required for data: 1294511616
I0403 11:13:28.777658 31624 layer_factory.hpp:77] Creating layer inception_5a/3x3_reduce
I0403 11:13:28.777679 31624 net.cpp:91] Creating Layer inception_5a/3x3_reduce
I0403 11:13:28.777696 31624 net.cpp:425] inception_5a/3x3_reduce <- pool4/3x3_s2_pool4/3x3_s2_0_split_1
I0403 11:13:28.777714 31624 net.cpp:399] inception_5a/3x3_reduce -> inception_5a/3x3_reduce
I0403 11:13:28.779140 31624 net.cpp:141] Setting up inception_5a/3x3_reduce
I0403 11:13:28.779166 31624 net.cpp:148] Top shape: 24 160 7 7 (188160)
I0403 11:13:28.779182 31624 net.cpp:156] Memory required for data: 1295264256
I0403 11:13:28.779199 31624 layer_factory.hpp:77] Creating layer inception_5a/relu_3x3_reduce
I0403 11:13:28.779217 31624 net.cpp:91] Creating Layer inception_5a/relu_3x3_reduce
I0403 11:13:28.779232 31624 net.cpp:425] inception_5a/relu_3x3_reduce <- inception_5a/3x3_reduce
I0403 11:13:28.779250 31624 net.cpp:386] inception_5a/relu_3x3_reduce -> inception_5a/3x3_reduce (in-place)
I0403 11:13:28.779270 31624 net.cpp:141] Setting up inception_5a/relu_3x3_reduce
I0403 11:13:28.779285 31624 net.cpp:148] Top shape: 24 160 7 7 (188160)
I0403 11:13:28.779299 31624 net.cpp:156] Memory required for data: 1296016896
I0403 11:13:28.779312 31624 layer_factory.hpp:77] Creating layer inception_5a/3x3
I0403 11:13:28.779333 31624 net.cpp:91] Creating Layer inception_5a/3x3
I0403 11:13:28.779350 31624 net.cpp:425] inception_5a/3x3 <- inception_5a/3x3_reduce
I0403 11:13:28.779367 31624 net.cpp:399] inception_5a/3x3 -> inception_5a/3x3
I0403 11:13:28.782928 31624 net.cpp:141] Setting up inception_5a/3x3
I0403 11:13:28.782968 31624 net.cpp:148] Top shape: 24 320 7 7 (376320)
I0403 11:13:28.782984 31624 net.cpp:156] Memory required for data: 1297522176
I0403 11:13:28.783001 31624 layer_factory.hpp:77] Creating layer inception_5a/relu_3x3
I0403 11:13:28.783018 31624 net.cpp:91] Creating Layer inception_5a/relu_3x3
I0403 11:13:28.783035 31624 net.cpp:425] inception_5a/relu_3x3 <- inception_5a/3x3
I0403 11:13:28.783052 31624 net.cpp:386] inception_5a/relu_3x3 -> inception_5a/3x3 (in-place)
I0403 11:13:28.783072 31624 net.cpp:141] Setting up inception_5a/relu_3x3
I0403 11:13:28.783089 31624 net.cpp:148] Top shape: 24 320 7 7 (376320)
I0403 11:13:28.783102 31624 net.cpp:156] Memory required for data: 1299027456
I0403 11:13:28.783115 31624 layer_factory.hpp:77] Creating layer inception_5a/5x5_reduce
I0403 11:13:28.783136 31624 net.cpp:91] Creating Layer inception_5a/5x5_reduce
I0403 11:13:28.783154 31624 net.cpp:425] inception_5a/5x5_reduce <- pool4/3x3_s2_pool4/3x3_s2_0_split_2
I0403 11:13:28.783171 31624 net.cpp:399] inception_5a/5x5_reduce -> inception_5a/5x5_reduce
I0403 11:13:28.783531 31624 net.cpp:141] Setting up inception_5a/5x5_reduce
I0403 11:13:28.783555 31624 net.cpp:148] Top shape: 24 32 7 7 (37632)
I0403 11:13:28.783568 31624 net.cpp:156] Memory required for data: 1299177984
I0403 11:13:28.783586 31624 layer_factory.hpp:77] Creating layer inception_5a/relu_5x5_reduce
I0403 11:13:28.783602 31624 net.cpp:91] Creating Layer inception_5a/relu_5x5_reduce
I0403 11:13:28.783617 31624 net.cpp:425] inception_5a/relu_5x5_reduce <- inception_5a/5x5_reduce
I0403 11:13:28.783638 31624 net.cpp:386] inception_5a/relu_5x5_reduce -> inception_5a/5x5_reduce (in-place)
I0403 11:13:28.783656 31624 net.cpp:141] Setting up inception_5a/relu_5x5_reduce
I0403 11:13:28.783673 31624 net.cpp:148] Top shape: 24 32 7 7 (37632)
I0403 11:13:28.783685 31624 net.cpp:156] Memory required for data: 1299328512
I0403 11:13:28.783699 31624 layer_factory.hpp:77] Creating layer inception_5a/5x5
I0403 11:13:28.783718 31624 net.cpp:91] Creating Layer inception_5a/5x5
I0403 11:13:28.783733 31624 net.cpp:425] inception_5a/5x5 <- inception_5a/5x5_reduce
I0403 11:13:28.783754 31624 net.cpp:399] inception_5a/5x5 -> inception_5a/5x5
I0403 11:13:28.784493 31624 net.cpp:141] Setting up inception_5a/5x5
I0403 11:13:28.784526 31624 net.cpp:148] Top shape: 24 128 7 7 (150528)
I0403 11:13:28.784540 31624 net.cpp:156] Memory required for data: 1299930624
I0403 11:13:28.784556 31624 layer_factory.hpp:77] Creating layer inception_5a/relu_5x5
I0403 11:13:28.784574 31624 net.cpp:91] Creating Layer inception_5a/relu_5x5
I0403 11:13:28.784590 31624 net.cpp:425] inception_5a/relu_5x5 <- inception_5a/5x5
I0403 11:13:28.784605 31624 net.cpp:386] inception_5a/relu_5x5 -> inception_5a/5x5 (in-place)
I0403 11:13:28.784624 31624 net.cpp:141] Setting up inception_5a/relu_5x5
I0403 11:13:28.784639 31624 net.cpp:148] Top shape: 24 128 7 7 (150528)
I0403 11:13:28.784653 31624 net.cpp:156] Memory required for data: 1300532736
I0403 11:13:28.784665 31624 layer_factory.hpp:77] Creating layer inception_5a/pool
I0403 11:13:28.784684 31624 net.cpp:91] Creating Layer inception_5a/pool
I0403 11:13:28.784700 31624 net.cpp:425] inception_5a/pool <- pool4/3x3_s2_pool4/3x3_s2_0_split_3
I0403 11:13:28.784718 31624 net.cpp:399] inception_5a/pool -> inception_5a/pool
I0403 11:13:28.784768 31624 net.cpp:141] Setting up inception_5a/pool
I0403 11:13:28.784790 31624 net.cpp:148] Top shape: 24 832 7 7 (978432)
I0403 11:13:28.784803 31624 net.cpp:156] Memory required for data: 1304446464
I0403 11:13:28.784817 31624 layer_factory.hpp:77] Creating layer inception_5a/pool_proj
I0403 11:13:28.784838 31624 net.cpp:91] Creating Layer inception_5a/pool_proj
I0403 11:13:28.784855 31624 net.cpp:425] inception_5a/pool_proj <- inception_5a/pool
I0403 11:13:28.784873 31624 net.cpp:399] inception_5a/pool_proj -> inception_5a/pool_proj
I0403 11:13:28.786149 31624 net.cpp:141] Setting up inception_5a/pool_proj
I0403 11:13:28.786177 31624 net.cpp:148] Top shape: 24 128 7 7 (150528)
I0403 11:13:28.786191 31624 net.cpp:156] Memory required for data: 1305048576
I0403 11:13:28.786222 31624 layer_factory.hpp:77] Creating layer inception_5a/relu_pool_proj
I0403 11:13:28.786240 31624 net.cpp:91] Creating Layer inception_5a/relu_pool_proj
I0403 11:13:28.786255 31624 net.cpp:425] inception_5a/relu_pool_proj <- inception_5a/pool_proj
I0403 11:13:28.786274 31624 net.cpp:386] inception_5a/relu_pool_proj -> inception_5a/pool_proj (in-place)
I0403 11:13:28.786294 31624 net.cpp:141] Setting up inception_5a/relu_pool_proj
I0403 11:13:28.786310 31624 net.cpp:148] Top shape: 24 128 7 7 (150528)
I0403 11:13:28.786324 31624 net.cpp:156] Memory required for data: 1305650688
I0403 11:13:28.786337 31624 layer_factory.hpp:77] Creating layer inception_5a/output
I0403 11:13:28.786353 31624 net.cpp:91] Creating Layer inception_5a/output
I0403 11:13:28.786367 31624 net.cpp:425] inception_5a/output <- inception_5a/1x1
I0403 11:13:28.786382 31624 net.cpp:425] inception_5a/output <- inception_5a/3x3
I0403 11:13:28.786397 31624 net.cpp:425] inception_5a/output <- inception_5a/5x5
I0403 11:13:28.786412 31624 net.cpp:425] inception_5a/output <- inception_5a/pool_proj
I0403 11:13:28.786428 31624 net.cpp:399] inception_5a/output -> inception_5a/output
I0403 11:13:28.786466 31624 net.cpp:141] Setting up inception_5a/output
I0403 11:13:28.786489 31624 net.cpp:148] Top shape: 24 832 7 7 (978432)
I0403 11:13:28.786501 31624 net.cpp:156] Memory required for data: 1309564416
I0403 11:13:28.786515 31624 layer_factory.hpp:77] Creating layer inception_5a/output_inception_5a/output_0_split
I0403 11:13:28.786531 31624 net.cpp:91] Creating Layer inception_5a/output_inception_5a/output_0_split
I0403 11:13:28.786546 31624 net.cpp:425] inception_5a/output_inception_5a/output_0_split <- inception_5a/output
I0403 11:13:28.786566 31624 net.cpp:399] inception_5a/output_inception_5a/output_0_split -> inception_5a/output_inception_5a/output_0_split_0
I0403 11:13:28.786586 31624 net.cpp:399] inception_5a/output_inception_5a/output_0_split -> inception_5a/output_inception_5a/output_0_split_1
I0403 11:13:28.786607 31624 net.cpp:399] inception_5a/output_inception_5a/output_0_split -> inception_5a/output_inception_5a/output_0_split_2
I0403 11:13:28.786626 31624 net.cpp:399] inception_5a/output_inception_5a/output_0_split -> inception_5a/output_inception_5a/output_0_split_3
I0403 11:13:28.786692 31624 net.cpp:141] Setting up inception_5a/output_inception_5a/output_0_split
I0403 11:13:28.786716 31624 net.cpp:148] Top shape: 24 832 7 7 (978432)
I0403 11:13:28.786732 31624 net.cpp:148] Top shape: 24 832 7 7 (978432)
I0403 11:13:28.786746 31624 net.cpp:148] Top shape: 24 832 7 7 (978432)
I0403 11:13:28.786761 31624 net.cpp:148] Top shape: 24 832 7 7 (978432)
I0403 11:13:28.786772 31624 net.cpp:156] Memory required for data: 1325219328
I0403 11:13:28.786787 31624 layer_factory.hpp:77] Creating layer inception_5b/1x1
I0403 11:13:28.786808 31624 net.cpp:91] Creating Layer inception_5b/1x1
I0403 11:13:28.786824 31624 net.cpp:425] inception_5b/1x1 <- inception_5a/output_inception_5a/output_0_split_0
I0403 11:13:28.786842 31624 net.cpp:399] inception_5b/1x1 -> inception_5b/1x1
I0403 11:13:28.789451 31624 net.cpp:141] Setting up inception_5b/1x1
I0403 11:13:28.789477 31624 net.cpp:148] Top shape: 24 384 7 7 (451584)
I0403 11:13:28.789492 31624 net.cpp:156] Memory required for data: 1327025664
I0403 11:13:28.789510 31624 layer_factory.hpp:77] Creating layer inception_5b/relu_1x1
I0403 11:13:28.789526 31624 net.cpp:91] Creating Layer inception_5b/relu_1x1
I0403 11:13:28.789541 31624 net.cpp:425] inception_5b/relu_1x1 <- inception_5b/1x1
I0403 11:13:28.789561 31624 net.cpp:386] inception_5b/relu_1x1 -> inception_5b/1x1 (in-place)
I0403 11:13:28.789579 31624 net.cpp:141] Setting up inception_5b/relu_1x1
I0403 11:13:28.789595 31624 net.cpp:148] Top shape: 24 384 7 7 (451584)
I0403 11:13:28.789608 31624 net.cpp:156] Memory required for data: 1328832000
I0403 11:13:28.789623 31624 layer_factory.hpp:77] Creating layer inception_5b/3x3_reduce
I0403 11:13:28.789644 31624 net.cpp:91] Creating Layer inception_5b/3x3_reduce
I0403 11:13:28.789671 31624 net.cpp:425] inception_5b/3x3_reduce <- inception_5a/output_inception_5a/output_0_split_1
I0403 11:13:28.789691 31624 net.cpp:399] inception_5b/3x3_reduce -> inception_5b/3x3_reduce
I0403 11:13:28.791265 31624 net.cpp:141] Setting up inception_5b/3x3_reduce
I0403 11:13:28.791292 31624 net.cpp:148] Top shape: 24 192 7 7 (225792)
I0403 11:13:28.791307 31624 net.cpp:156] Memory required for data: 1329735168
I0403 11:13:28.791324 31624 layer_factory.hpp:77] Creating layer inception_5b/relu_3x3_reduce
I0403 11:13:28.791342 31624 net.cpp:91] Creating Layer inception_5b/relu_3x3_reduce
I0403 11:13:28.791358 31624 net.cpp:425] inception_5b/relu_3x3_reduce <- inception_5b/3x3_reduce
I0403 11:13:28.791378 31624 net.cpp:386] inception_5b/relu_3x3_reduce -> inception_5b/3x3_reduce (in-place)
I0403 11:13:28.791399 31624 net.cpp:141] Setting up inception_5b/relu_3x3_reduce
I0403 11:13:28.791415 31624 net.cpp:148] Top shape: 24 192 7 7 (225792)
I0403 11:13:28.791430 31624 net.cpp:156] Memory required for data: 1330638336
I0403 11:13:28.791445 31624 layer_factory.hpp:77] Creating layer inception_5b/3x3
I0403 11:13:28.791478 31624 net.cpp:91] Creating Layer inception_5b/3x3
I0403 11:13:28.791496 31624 net.cpp:425] inception_5b/3x3 <- inception_5b/3x3_reduce
I0403 11:13:28.791513 31624 net.cpp:399] inception_5b/3x3 -> inception_5b/3x3
I0403 11:13:28.796680 31624 net.cpp:141] Setting up inception_5b/3x3
I0403 11:13:28.796707 31624 net.cpp:148] Top shape: 24 384 7 7 (451584)
I0403 11:13:28.796721 31624 net.cpp:156] Memory required for data: 1332444672
I0403 11:13:28.796738 31624 layer_factory.hpp:77] Creating layer inception_5b/relu_3x3
I0403 11:13:28.796756 31624 net.cpp:91] Creating Layer inception_5b/relu_3x3
I0403 11:13:28.796772 31624 net.cpp:425] inception_5b/relu_3x3 <- inception_5b/3x3
I0403 11:13:28.796789 31624 net.cpp:386] inception_5b/relu_3x3 -> inception_5b/3x3 (in-place)
I0403 11:13:28.796808 31624 net.cpp:141] Setting up inception_5b/relu_3x3
I0403 11:13:28.796824 31624 net.cpp:148] Top shape: 24 384 7 7 (451584)
I0403 11:13:28.796838 31624 net.cpp:156] Memory required for data: 1334251008
I0403 11:13:28.796850 31624 layer_factory.hpp:77] Creating layer inception_5b/5x5_reduce
I0403 11:13:28.796872 31624 net.cpp:91] Creating Layer inception_5b/5x5_reduce
I0403 11:13:28.796890 31624 net.cpp:425] inception_5b/5x5_reduce <- inception_5a/output_inception_5a/output_0_split_2
I0403 11:13:28.796911 31624 net.cpp:399] inception_5b/5x5_reduce -> inception_5b/5x5_reduce
I0403 11:13:28.797360 31624 net.cpp:141] Setting up inception_5b/5x5_reduce
I0403 11:13:28.797385 31624 net.cpp:148] Top shape: 24 48 7 7 (56448)
I0403 11:13:28.797399 31624 net.cpp:156] Memory required for data: 1334476800
I0403 11:13:28.797417 31624 layer_factory.hpp:77] Creating layer inception_5b/relu_5x5_reduce
I0403 11:13:28.797437 31624 net.cpp:91] Creating Layer inception_5b/relu_5x5_reduce
I0403 11:13:28.797454 31624 net.cpp:425] inception_5b/relu_5x5_reduce <- inception_5b/5x5_reduce
I0403 11:13:28.797472 31624 net.cpp:386] inception_5b/relu_5x5_reduce -> inception_5b/5x5_reduce (in-place)
I0403 11:13:28.797489 31624 net.cpp:141] Setting up inception_5b/relu_5x5_reduce
I0403 11:13:28.797507 31624 net.cpp:148] Top shape: 24 48 7 7 (56448)
I0403 11:13:28.797520 31624 net.cpp:156] Memory required for data: 1334702592
I0403 11:13:28.797533 31624 layer_factory.hpp:77] Creating layer inception_5b/5x5
I0403 11:13:28.797556 31624 net.cpp:91] Creating Layer inception_5b/5x5
I0403 11:13:28.797574 31624 net.cpp:425] inception_5b/5x5 <- inception_5b/5x5_reduce
I0403 11:13:28.797595 31624 net.cpp:399] inception_5b/5x5 -> inception_5b/5x5
I0403 11:13:28.798727 31624 net.cpp:141] Setting up inception_5b/5x5
I0403 11:13:28.798754 31624 net.cpp:148] Top shape: 24 128 7 7 (150528)
I0403 11:13:28.798769 31624 net.cpp:156] Memory required for data: 1335304704
I0403 11:13:28.798787 31624 layer_factory.hpp:77] Creating layer inception_5b/relu_5x5
I0403 11:13:28.798805 31624 net.cpp:91] Creating Layer inception_5b/relu_5x5
I0403 11:13:28.798821 31624 net.cpp:425] inception_5b/relu_5x5 <- inception_5b/5x5
I0403 11:13:28.798852 31624 net.cpp:386] inception_5b/relu_5x5 -> inception_5b/5x5 (in-place)
I0403 11:13:28.798872 31624 net.cpp:141] Setting up inception_5b/relu_5x5
I0403 11:13:28.798889 31624 net.cpp:148] Top shape: 24 128 7 7 (150528)
I0403 11:13:28.798903 31624 net.cpp:156] Memory required for data: 1335906816
I0403 11:13:28.798918 31624 layer_factory.hpp:77] Creating layer inception_5b/pool
I0403 11:13:28.798933 31624 net.cpp:91] Creating Layer inception_5b/pool
I0403 11:13:28.798949 31624 net.cpp:425] inception_5b/pool <- inception_5a/output_inception_5a/output_0_split_3
I0403 11:13:28.798971 31624 net.cpp:399] inception_5b/pool -> inception_5b/pool
I0403 11:13:28.799026 31624 net.cpp:141] Setting up inception_5b/pool
I0403 11:13:28.799047 31624 net.cpp:148] Top shape: 24 832 7 7 (978432)
I0403 11:13:28.799062 31624 net.cpp:156] Memory required for data: 1339820544
I0403 11:13:28.799075 31624 layer_factory.hpp:77] Creating layer inception_5b/pool_proj
I0403 11:13:28.799098 31624 net.cpp:91] Creating Layer inception_5b/pool_proj
I0403 11:13:28.799115 31624 net.cpp:425] inception_5b/pool_proj <- inception_5b/pool
I0403 11:13:28.799135 31624 net.cpp:399] inception_5b/pool_proj -> inception_5b/pool_proj
I0403 11:13:28.800432 31624 net.cpp:141] Setting up inception_5b/pool_proj
I0403 11:13:28.800462 31624 net.cpp:148] Top shape: 24 128 7 7 (150528)
I0403 11:13:28.800489 31624 net.cpp:156] Memory required for data: 1340422656
I0403 11:13:28.800506 31624 layer_factory.hpp:77] Creating layer inception_5b/relu_pool_proj
I0403 11:13:28.800524 31624 net.cpp:91] Creating Layer inception_5b/relu_pool_proj
I0403 11:13:28.800540 31624 net.cpp:425] inception_5b/relu_pool_proj <- inception_5b/pool_proj
I0403 11:13:28.800559 31624 net.cpp:386] inception_5b/relu_pool_proj -> inception_5b/pool_proj (in-place)
I0403 11:13:28.800578 31624 net.cpp:141] Setting up inception_5b/relu_pool_proj
I0403 11:13:28.800595 31624 net.cpp:148] Top shape: 24 128 7 7 (150528)
I0403 11:13:28.800611 31624 net.cpp:156] Memory required for data: 1341024768
I0403 11:13:28.800623 31624 layer_factory.hpp:77] Creating layer inception_5b/output
I0403 11:13:28.800642 31624 net.cpp:91] Creating Layer inception_5b/output
I0403 11:13:28.800657 31624 net.cpp:425] inception_5b/output <- inception_5b/1x1
I0403 11:13:28.800673 31624 net.cpp:425] inception_5b/output <- inception_5b/3x3
I0403 11:13:28.800688 31624 net.cpp:425] inception_5b/output <- inception_5b/5x5
I0403 11:13:28.800704 31624 net.cpp:425] inception_5b/output <- inception_5b/pool_proj
I0403 11:13:28.800724 31624 net.cpp:399] inception_5b/output -> inception_5b/output
I0403 11:13:28.800762 31624 net.cpp:141] Setting up inception_5b/output
I0403 11:13:28.800799 31624 net.cpp:148] Top shape: 24 1024 7 7 (1204224)
I0403 11:13:28.800814 31624 net.cpp:156] Memory required for data: 1345841664
I0403 11:13:28.800828 31624 layer_factory.hpp:77] Creating layer pool5/7x7_s1
I0403 11:13:28.800845 31624 net.cpp:91] Creating Layer pool5/7x7_s1
I0403 11:13:28.800860 31624 net.cpp:425] pool5/7x7_s1 <- inception_5b/output
I0403 11:13:28.800878 31624 net.cpp:399] pool5/7x7_s1 -> pool5/7x7_s1
I0403 11:13:28.800916 31624 net.cpp:141] Setting up pool5/7x7_s1
I0403 11:13:28.800938 31624 net.cpp:148] Top shape: 24 1024 1 1 (24576)
I0403 11:13:28.800952 31624 net.cpp:156] Memory required for data: 1345939968
I0403 11:13:28.800971 31624 layer_factory.hpp:77] Creating layer pool5/drop_7x7_s1
I0403 11:13:28.800992 31624 net.cpp:91] Creating Layer pool5/drop_7x7_s1
I0403 11:13:28.801007 31624 net.cpp:425] pool5/drop_7x7_s1 <- pool5/7x7_s1
I0403 11:13:28.801024 31624 net.cpp:386] pool5/drop_7x7_s1 -> pool5/7x7_s1 (in-place)
I0403 11:13:28.801062 31624 net.cpp:141] Setting up pool5/drop_7x7_s1
I0403 11:13:28.801084 31624 net.cpp:148] Top shape: 24 1024 1 1 (24576)
I0403 11:13:28.801100 31624 net.cpp:156] Memory required for data: 1346038272
I0403 11:13:28.801112 31624 layer_factory.hpp:77] Creating layer loss3/classifier_plantvillage
I0403 11:13:28.801131 31624 net.cpp:91] Creating Layer loss3/classifier_plantvillage
I0403 11:13:28.801163 31624 net.cpp:425] loss3/classifier_plantvillage <- pool5/7x7_s1
I0403 11:13:28.801187 31624 net.cpp:399] loss3/classifier_plantvillage -> loss3/classifier_plantvillage
I0403 11:13:28.801520 31624 net.cpp:141] Setting up loss3/classifier_plantvillage
I0403 11:13:28.801544 31624 net.cpp:148] Top shape: 24 38 (912)
I0403 11:13:28.801558 31624 net.cpp:156] Memory required for data: 1346041920
I0403 11:13:28.801575 31624 layer_factory.hpp:77] Creating layer loss1/loss
I0403 11:13:28.801599 31624 net.cpp:91] Creating Layer loss1/loss
I0403 11:13:28.801616 31624 net.cpp:425] loss1/loss <- loss1/classifier_plantvillage
I0403 11:13:28.801632 31624 net.cpp:425] loss1/loss <- label_data_1_split_0
I0403 11:13:28.801650 31624 net.cpp:399] loss1/loss -> loss1/loss
…
I0403 11:13:28.811152 31624 net.cpp:313] The NetState phase (1) differed from the phase (0) specified by a rule in layer data
I0403 11:13:28.814793 31624 net.cpp:49] Initializing net from parameters: 
state {
  phase: TEST
}
layer {
  name: "data"
  type: "Data"
  top: "data"
  top: "label"
  include {
    phase: TEST
  }
  transform_param {
    mirror: false
    crop_size: 224
    mean_file: "/home/mohanty/data/final_dataset/lmdb/grayscale-40-60/mean.binaryproto"
  }
  data_param {
    source: "/home/mohanty/data/final_dataset/lmdb/grayscale-40-60/test_db"
    batch_size: 24
    backend: LMDB
  }
}
layer {
  name: "conv1/7x7_s2"
  type: "Convolution"
  bottom: "data"
  top: "conv1/7x7_s2"
  param {
    lr_mult: 1
    decay_mult: 1
  }
  param {
    lr_mult: 2
    decay_mult: 0
  }
  convolution_param {
    num_output: 64
    pad: 3
    kernel_size: 7
    stride: 2
    weight_filler {
      type: "xavier"
      std: 0.1
    }
    bias_filler {
      type: "constant"
      value: 0.2
    }
  }
}
layer {
  name: "conv1/relu_7x7"
  type: "ReLU"
  bottom: "conv1/7x7_s2"
  top: "conv1/7x7_s2"
}
layer {
  name: "pool1/3x3_s2"
  type: "Pooling"
  bottom: "conv1/7x7_s2"
  top: "pool1/3x3_s2"
  pooling_param {
    pool: MAX
    kernel_size: 3
    stride: 2
  }
}
layer {
  name: "pool1/norm1"
  type: "LRN"
  bottom: "pool1/3x3_s2"
  top: "pool1/norm1"
  lrn_param {
    local_size: 5
    alpha: 0.0001
    beta: 0.75
  }
}
layer {
  name: "conv2/3x3_reduce"
  type: "Convolution"
  bottom: "pool1/norm1"
  top: "conv2/3x3_reduce"
  param {
    lr_mult: 1
    decay_mult: 1
  }
  param {
    lr_mult: 2
    decay_mult: 0
  }
  convolution_param {
    num_output: 64
    kernel_size: 1
    weight_filler {
      type: "xavier"
      std: 0.1
    }
    bias_filler {
      type: "constant"
      value: 0.2
    }
  }
}
layer {
  name: "conv2/relu_3x3_reduce"
  type: "ReLU"
  bottom: "conv2/3x3_reduce"
  top: "conv2/3x3_reduce"
}
layer {
  name: "conv2/3x3"
  type: "Convolution"
  bottom: "conv2/3x3_reduce"
  top: "conv2/3x3"
  param {
    lr_mult: 1
    decay_mult: 1
  }
  param {
    lr_mult: 2
    decay_mult: 0
  }
  convolution_param {
    num_output: 192
    pad: 1
    kernel_size: 3
    weight_filler {
      type: "xavier"
      std: 0.03
    }
    bias_filler {
      type: "constant"
      value: 0.2
    }
  }
}
layer {
  name: "conv2/relu_3x3"
  type: "ReLU"
  bottom: "conv2/3x3"
  top: "conv2/3x3"
}
layer {
  name: "conv2/norm2"
  type: "LRN"
  bottom: "conv2/3x3"
  top: "conv2/norm2"
  lrn_param {
    local_size: 5
    alpha: 0.0001
    beta: 0.75
  }
}
layer {
  name: "pool2/3x3_s2"
  type: "Pooling"
  bottom: "conv2/norm2"
  top: "pool2/3x3_s2"
  pooling_param {
    pool: MAX
    kernel_size: 3
    stride: 2
  }
}
layer {
  name: "inception_3a/1x1"
  type: "Convolution"
  bottom: "pool2/3x3_s2"
  top: "inception_3a/1x1"
  param {
    lr_mult: 1
    decay_mult: 1
  }
  param {
    lr_mult: 2
    decay_mult: 0
  }
  convolution_param {
    num_output: 64
    kernel_size: 1
    weight_filler {
      type: "xavier"
      std: 0.03
    }
    bias_filler {
      type: "constant"
      value: 0.2
    }
  }
}
layer {
  name: "inception_3a/relu_1x1"
  type: "ReLU"
  bottom: "inception_3a/1x1"
  top: "inception_3a/1x1"
}
layer {
  name: "inception_3a/3x3_reduce"
  type: "Convolution"
  bottom: "pool2/3x3_s2"
  top: "inception_3a/3x3_reduce"
  param {
    lr_mult: 1
    decay_mult: 1
  }
  param {
    lr_mult: 2
    decay_mult: 0
  }
  convolution_param {
    num_output: 96
    kernel_size: 1
    weight_filler {
      type: "xavier"
      std: 0.09
    }
    bias_filler {
      type: "constant"
      value: 0.2
    }
  }
}
layer {
  name: "inception_3a/relu_3x3_reduce"
  type: "ReLU"
  bottom: "inception_3a/3x3_reduce"
  top: "inception_3a/3x3_reduce"
}
layer {
  name: "inception_3a/3x3"
  type: "Convolution"
  bottom: "inception_3a/3x3_reduce"
  top: "inception_3a/3x3"
  param {
    lr_mult: 1
    decay_mult: 1
  }
  param {
    lr_mult: 2
    decay_mult: 0
  }
  convolution_param {
    num_output: 128
    pad: 1
    kernel_size: 3
    weight_filler {
      type: "xavier"
      std: 0.03
    }
    bias_filler {
      type: "constant"
      value: 0.2
    }
  }
}
layer {
  name: "inception_3a/relu_3x3"
  type: "ReLU"
  bottom: "inception_3a/3x3"
  top: "inception_3a/3x3"
}
layer {
  name: "inception_3a/5x5_reduce"
  type: "Convolution"
  bottom: "pool2/3x3_s2"
  top: "inception_3a/5x5_reduce"
  param {
    lr_mult: 1
    decay_mult: 1
  }
  param {
    lr_mult: 2
    decay_mult: 0
  }
  convolution_param {
    num_output: 16
    kernel_size: 1
    weight_filler {
      type: "xavier"
      std: 0.2
    }
    bias_filler {
      type: "constant"
      value: 0.2
    }
  }
}
layer {
  name: "inception_3a/relu_5x5_reduce"
  type: "ReLU"
  bottom: "inception_3a/5x5_reduce"
  top: "inception_3a/5x5_reduce"
}
layer {
  name: "inception_3a/5x5"
  type: "Convolution"
  bottom: "inception_3a/5x5_reduce"
  top: "inception_3a/5x5"
  param {
    lr_mult: 1
    decay_mult: 1
  }
  param {
    lr_mult: 2
    decay_mult: 0
  }
  convolution_param {
    num_output: 32
    pad: 2
    kernel_size: 5
    weight_filler {
      type: "xavier"
      std: 0.03
    }
    bias_filler {
      type: "constant"
      value: 0.2
    }
  }
}
layer {
  name: "inception_3a/relu_5x5"
  type: "ReLU"
  bottom: "inception_3a/5x5"
  top: "inception_3a/5x5"
}
layer {
  name: "inception_3a/pool"
  type: "Pooling"
  bottom: "pool2/3x3_s2"
  top: "inception_3a/pool"
  pooling_param {
    pool: MAX
    kernel_size: 3
    stride: 1
    pad: 1
  }
}
layer {
  name: "inception_3a/pool_proj"
  type: "Convolution"
  bottom: "inception_3a/pool"
  top: "inception_3a/pool_proj"
  param {
    lr_mult: 1
    decay_mult: 1
  }
  param {
    lr_mult: 2
    decay_mult: 0
  }
  convolution_param {
    num_output: 32
    kernel_size: 1
    weight_filler {
      type: "xavier"
      std: 0.1
    }
    bias_filler {
      type: "constant"
      value: 0.2
    }
  }
}
layer {
  name: "inception_3a/relu_pool_proj"
  type: "ReLU"
  bottom: "inception_3a/pool_proj"
  top: "inception_3a/pool_proj"
}
layer {
  name: "inception_3a/output"
  type: "Concat"
  bottom: "inception_3a/1x1"
  bottom: "inception_3a/3x3"
  bottom: "inception_3a/5x5"
  bottom: "inception_3a/pool_proj"
  top: "inception_3a/output"
}
layer {
  name: "inception_3b/1x1"
  type: "Convolution"
  bottom: "inception_3a/output"
  top: "inception_3b/1x1"
  param {
    lr_mult: 1
    decay_mult: 1
  }
  param {
    lr_mult: 2
    decay_mult: 0
  }
  convolution_param {
    num_output: 128
    kernel_size: 1
    weight_filler {
      type: "xavier"
      std: 0.03
    }
    bias_filler {
      type: "constant"
      value: 0.2
    }
  }
}
layer {
  name: "inception_3b/relu_1x1"
  type: "ReLU"
  bottom: "inception_3b/1x1"
  top: "inception_3b/1x1"
}
layer {
  name: "inception_3b/3x3_reduce"
  type: "Convolution"
  bottom: "inception_3a/output"
  top: "inception_3b/3x3_reduce"
  param {
    lr_mult: 1
    decay_mult: 1
  }
  param {
    lr_mult: 2
    decay_mult: 0
  }
  convolution_param {
    num_output: 128
    kernel_size: 1
    weight_filler {
      type: "xavier"
      std: 0.09
    }
    bias_filler {
      type: "constant"
      value: 0.2
    }
  }
}
layer {
  name: "inception_3b/relu_3x3_reduce"
  type: "ReLU"
  bottom: "inception_3b/3x3_reduce"
  top: "inception_3b/3x3_reduce"
}
layer {
  name: "inception_3b/3x3"
  type: "Convolution"
  bottom: "inception_3b/3x3_reduce"
  top: "inception_3b/3x3"
  param {
    lr_mult: 1
    decay_mult: 1
  }
  param {
    lr_mult: 2
    decay_mult: 0
  }
  convolution_param {
    num_output: 192
    pad: 1
    kernel_size: 3
    weight_filler {
      type: "xavier"
      std: 0.03
    }
    bias_filler {
      type: "constant"
      value: 0.2
    }
  }
}
layer {
  name: "inception_3b/relu_3x3"
  type: "ReLU"
  bottom: "inception_3b/3x3"
  top: "inception_3b/3x3"
}
layer {
  name: "inception_3b/5x5_reduce"
  type: "Convolution"
  bottom: "inception_3a/output"
  top: "inception_3b/5x5_reduce"
  param {
    lr_mult: 1
    decay_mult: 1
  }
  param {
    lr_mult: 2
    decay_mult: 0
  }
  convolution_param {
    num_output: 32
    kernel_size: 1
    weight_filler {
      type: "xavier"
      std: 0.2
    }
    bias_filler {
      type: "constant"
      value: 0.2
    }
  }
}
layer {
  name: "inception_3b/relu_5x5_reduce"
  type: "ReLU"
  bottom: "inception_3b/5x5_reduce"
  top: "inception_3b/5x5_reduce"
}
layer {
  name: "inception_3b/5x5"
  type: "Convolution"
  bottom: "inception_3b/5x5_reduce"
  top: "inception_3b/5x5"
  param {
    lr_mult: 1
    decay_mult: 1
  }
  param {
    lr_mult: 2
    decay_mult: 0
  }
  convolution_param {
    num_output: 96
    pad: 2
    kernel_size: 5
    weight_filler {
      type: "xavier"
      std: 0.03
    }
    bias_filler {
      type: "constant"
      value: 0.2
    }
  }
}
layer {
  name: "inception_3b/relu_5x5"
  type: "ReLU"
  bottom: "inception_3b/5x5"
  top: "inception_3b/5x5"
}
layer {
  name: "inception_3b/pool"
  type: "Pooling"
  bottom: "inception_3a/output"
  top: "inception_3b/pool"
  pooling_param {
    pool: MAX
    kernel_size: 3
    stride: 1
    pad: 1
  }
}
layer {
  name: "inception_3b/pool_proj"
  type: "Convolution"
  bottom: "inception_3b/pool"
  top: "inception_3b/pool_proj"
  param {
    lr_mult: 1
    decay_mult: 1
  }
  param {
    lr_mult: 2
    decay_mult: 0
  }
  convolution_param {
    num_output: 64
    kernel_size: 1
    weight_filler {
      type: "xavier"
      std: 0.1
    }
    bias_filler {
      type: "constant"
      value: 0.2
    }
  }
}
layer {
  name: "inception_3b/relu_pool_proj"
  type: "ReLU"
  bottom: "inception_3b/pool_proj"
  top: "inception_3b/pool_proj"
}
layer {
  name: "inception_3b/output"
  type: "Concat"
  bottom: "inception_3b/1x1"
  bottom: "inception_3b/3x3"
  bottom: "inception_3b/5x5"
  bottom: "inception_3b/pool_proj"
  top: "inception_3b/output"
}
layer {
  name: "pool3/3x3_s2"
  type: "Pooling"
  bottom: "inception_3b/output"
  top: "pool3/3x3_s2"
  pooling_param {
    pool: MAX
    kernel_size: 3
    stride: 2
  }
}
layer {
  name: "inception_4a/1x1"
  type: "Convolution"
  bottom: "pool3/3x3_s2"
  top: "inception_4a/1x1"
  param {
    lr_mult: 1
    decay_mult: 1
  }
  param {
    lr_mult: 2
    decay_mult: 0
  }
  convolution_param {
    num_output: 192
    kernel_size: 1
    weight_filler {
      type: "xavier"
      std: 0.03
    }
    bias_filler {
      type: "constant"
      value: 0.2
    }
  }
}
layer {
  name: "inception_4a/relu_1x1"
  type: "ReLU"
  bottom: "inception_4a/1x1"
  top: "inception_4a/1x1"
}
layer {
  name: "inception_4a/3x3_reduce"
  type: "Convolution"
  bottom: "pool3/3x3_s2"
  top: "inception_4a/3x3_reduce"
  param {
    lr_mult: 1
    decay_mult: 1
  }
  param {
    lr_mult: 2
    decay_mult: 0
  }
  convolution_param {
    num_output: 96
    kernel_size: 1
    weight_filler {
      type: "xavier"
      std: 0.09
    }
    bias_filler {
      type: "constant"
      value: 0.2
    }
  }
}
layer {
  name: "inception_4a/relu_3x3_reduce"
  type: "ReLU"
  bottom: "inception_4a/3x3_reduce"
  top: "inception_4a/3x3_reduce"
}
layer {
  name: "inception_4a/3x3"
  type: "Convolution"
  bottom: "inception_4a/3x3_reduce"
  top: "inception_4a/3x3"
  param {
    lr_mult: 1
    decay_mult: 1
  }
  param {
    lr_mult: 2
    decay_mult: 0
  }
  convolution_param {
    num_output: 208
    pad: 1
    kernel_size: 3
    weight_filler {
      type: "xavier"
      std: 0.03
    }
    bias_filler {
      type: "constant"
      value: 0.2
    }
  }
}
layer {
  name: "inception_4a/relu_3x3"
  type: "ReLU"
  bottom: "inception_4a/3x3"
  top: "inception_4a/3x3"
}
layer {
  name: "inception_4a/5x5_reduce"
  type: "Convolution"
  bottom: "pool3/3x3_s2"
  top: "inception_4a/5x5_reduce"
  param {
    lr_mult: 1
    decay_mult: 1
  }
  param {
    lr_mult: 2
    decay_mult: 0
  }
  convolution_param {
    num_output: 16
    kernel_size: 1
    weight_filler {
      type: "xavier"
      std: 0.2
    }
    bias_filler {
      type: "constant"
      value: 0.2
    }
  }
}
layer {
  name: "inception_4a/relu_5x5_reduce"
  type: "ReLU"
  bottom: "inception_4a/5x5_reduce"
  top: "inception_4a/5x5_reduce"
}
layer {
  name: "inception_4a/5x5"
  type: "Convolution"
  bottom: "inception_4a/5x5_reduce"
  top: "inception_4a/5x5"
  param {
    lr_mult: 1
    decay_mult: 1
  }
  param {
    lr_mult: 2
    decay_mult: 0
  }
  convolution_param {
    num_output: 48
    pad: 2
    kernel_size: 5
    weight_filler {
      type: "xavier"
      std: 0.03
    }
    bias_filler {
      type: "constant"
      value: 0.2
    }
  }
}
layer {
  name: "inception_4a/relu_5x5"
  type: "ReLU"
  bottom: "inception_4a/5x5"
  top: "inception_4a/5x5"
}
layer {
  name: "inception_4a/pool"
  type: "Pooling"
  bottom: "pool3/3x3_s2"
  top: "inception_4a/pool"
  pooling_param {
    pool: MAX
    kernel_size: 3
    stride: 1
    pad: 1
  }
}
layer {
  name: "inception_4a/pool_proj"
  type: "Convolution"
  bottom: "inception_4a/pool"
  top: "inception_4a/pool_proj"
  param {
    lr_mult: 1
    decay_mult: 1
  }
  param {
    lr_mult: 2
    decay_mult: 0
  }
  convolution_param {
    num_output: 64
    kernel_size: 1
    weight_filler {
      type: "xavier"
      std: 0.1
    }
    bias_filler {
      type: "constant"
      value: 0.2
    }
  }
}
layer {
  name: "inception_4a/relu_pool_proj"
  type: "ReLU"
  bottom: "inception_4a/pool_proj"
  top: "inception_4a/pool_proj"
}
layer {
  name: "inception_4a/output"
  type: "Concat"
  bottom: "inception_4a/1x1"
  bottom: "inception_4a/3x3"
  bottom: "inception_4a/5x5"
  bottom: "inception_4a/pool_proj"
  top: "inception_4a/output"
}
layer {
  name: "loss1/ave_pool"
  type: "Pooling"
  bottom: "inception_4a/output"
  top: "loss1/ave_pool"
  pooling_param {
    pool: AVE
    kernel_size: 5
    stride: 3
  }
}
layer {
  name: "loss1/conv"
  type: "Convolution"
  bottom: "loss1/ave_pool"
  top: "loss1/conv"
  param {
    lr_mult: 1
    decay_mult: 1
  }
  param {
    lr_mult: 2
    decay_mult: 0
  }
  convolution_param {
    num_output: 128
    kernel_size: 1
    weight_filler {
      type: "xavier"
      std: 0.08
    }
    bias_filler {
      type: "constant"
      value: 0.2
    }
  }
}
layer {
  name: "loss1/relu_conv"
  type: "ReLU"
  bottom: "loss1/conv"
  top: "loss1/conv"
}
layer {
  name: "loss1/fc"
  type: "InnerProduct"
  bottom: "loss1/conv"
  top: "loss1/fc"
  param {
    lr_mult: 1
    decay_mult: 1
  }
  param {
    lr_mult: 2
    decay_mult: 0
  }
  inner_product_param {
    num_output: 1024
    weight_filler {
      type: "xavier"
      std: 0.02
    }
    bias_filler {
      type: "constant"
      value: 0.2
    }
  }
}
layer {
  name: "loss1/relu_fc"
  type: "ReLU"
  bottom: "loss1/fc"
  top: "loss1/fc"
}
layer {
  name: "loss1/drop_fc"
  type: "Dropout"
  bottom: "loss1/fc"
  top: "loss1/fc"
  dropout_param {
    dropout_ratio: 0.7
  }
}
layer {
  name: "loss1/classifier_plantvillage"
  type: "InnerProduct"
  bottom: "loss1/fc"
  top: "loss1/classifier_plantvillage"
  param {
    lr_mult: 1
    decay_mult: 1
  }
  param {
    lr_mult: 2
    decay_mult: 0
  }
  inner_product_param {
    num_output: 38
    weight_filler {
      type: "xavier"
      std: 0.0009765625
    }
    bias_filler {
      type: "constant"
      value: 0
    }
  }
}
layer {
  name: "inception_4b/1x1"
  type: "Convolution"
  bottom: "inception_4a/output"
  top: "inception_4b/1x1"
  param {
    lr_mult: 1
    decay_mult: 1
  }
  param {
    lr_mult: 2
    decay_mult: 0
  }
  convolution_param {
    num_output: 160
    kernel_size: 1
    weight_filler {
      type: "xavier"
      std: 0.03
    }
    bias_filler {
      type: "constant"
      value: 0.2
    }
  }
}
layer {
…
I0403 11:13:29.016046 31624 layer_factory.hpp:77] Creating layer inception_4c/pool
I0403 11:13:29.016063 31624 net.cpp:91] Creating Layer inception_4c/pool
I0403 11:13:29.016080 31624 net.cpp:425] inception_4c/pool <- inception_4b/output_inception_4b/output_0_split_3
I0403 11:13:29.016099 31624 net.cpp:399] inception_4c/pool -> inception_4c/pool
I0403 11:13:29.016161 31624 net.cpp:141] Setting up inception_4c/pool
I0403 11:13:29.016187 31624 net.cpp:148] Top shape: 24 512 14 14 (2408448)
I0403 11:13:29.016202 31624 net.cpp:156] Memory required for data: 1060605120
I0403 11:13:29.016218 31624 layer_factory.hpp:77] Creating layer inception_4c/pool_proj
I0403 11:13:29.016242 31624 net.cpp:91] Creating Layer inception_4c/pool_proj
I0403 11:13:29.016260 31624 net.cpp:425] inception_4c/pool_proj <- inception_4c/pool
I0403 11:13:29.016283 31624 net.cpp:399] inception_4c/pool_proj -> inception_4c/pool_proj
I0403 11:13:29.016741 31624 net.cpp:141] Setting up inception_4c/pool_proj
I0403 11:13:29.016767 31624 net.cpp:148] Top shape: 24 64 14 14 (301056)
I0403 11:13:29.016783 31624 net.cpp:156] Memory required for data: 1061809344
I0403 11:13:29.016801 31624 layer_factory.hpp:77] Creating layer inception_4c/relu_pool_proj
I0403 11:13:29.016820 31624 net.cpp:91] Creating Layer inception_4c/relu_pool_proj
I0403 11:13:29.016839 31624 net.cpp:425] inception_4c/relu_pool_proj <- inception_4c/pool_proj
I0403 11:13:29.016857 31624 net.cpp:386] inception_4c/relu_pool_proj -> inception_4c/pool_proj (in-place)
I0403 11:13:29.016877 31624 net.cpp:141] Setting up inception_4c/relu_pool_proj
I0403 11:13:29.016896 31624 net.cpp:148] Top shape: 24 64 14 14 (301056)
I0403 11:13:29.016911 31624 net.cpp:156] Memory required for data: 1063013568
I0403 11:13:29.016927 31624 layer_factory.hpp:77] Creating layer inception_4c/output
I0403 11:13:29.016947 31624 net.cpp:91] Creating Layer inception_4c/output
I0403 11:13:29.016969 31624 net.cpp:425] inception_4c/output <- inception_4c/1x1
I0403 11:13:29.016988 31624 net.cpp:425] inception_4c/output <- inception_4c/3x3
I0403 11:13:29.017005 31624 net.cpp:425] inception_4c/output <- inception_4c/5x5
I0403 11:13:29.017024 31624 net.cpp:425] inception_4c/output <- inception_4c/pool_proj
I0403 11:13:29.017045 31624 net.cpp:399] inception_4c/output -> inception_4c/output
I0403 11:13:29.017099 31624 net.cpp:141] Setting up inception_4c/output
I0403 11:13:29.017125 31624 net.cpp:148] Top shape: 24 512 14 14 (2408448)
I0403 11:13:29.017148 31624 net.cpp:156] Memory required for data: 1072647360
I0403 11:13:29.017163 31624 layer_factory.hpp:77] Creating layer inception_4c/output_inception_4c/output_0_split
I0403 11:13:29.017182 31624 net.cpp:91] Creating Layer inception_4c/output_inception_4c/output_0_split
I0403 11:13:29.017199 31624 net.cpp:425] inception_4c/output_inception_4c/output_0_split <- inception_4c/output
I0403 11:13:29.017220 31624 net.cpp:399] inception_4c/output_inception_4c/output_0_split -> inception_4c/output_inception_4c/output_0_split_0
I0403 11:13:29.017243 31624 net.cpp:399] inception_4c/output_inception_4c/output_0_split -> inception_4c/output_inception_4c/output_0_split_1
I0403 11:13:29.017266 31624 net.cpp:399] inception_4c/output_inception_4c/output_0_split -> inception_4c/output_inception_4c/output_0_split_2
I0403 11:13:29.017288 31624 net.cpp:399] inception_4c/output_inception_4c/output_0_split -> inception_4c/output_inception_4c/output_0_split_3
I0403 11:13:29.017385 31624 net.cpp:141] Setting up inception_4c/output_inception_4c/output_0_split
I0403 11:13:29.017411 31624 net.cpp:148] Top shape: 24 512 14 14 (2408448)
I0403 11:13:29.017429 31624 net.cpp:148] Top shape: 24 512 14 14 (2408448)
I0403 11:13:29.017446 31624 net.cpp:148] Top shape: 24 512 14 14 (2408448)
I0403 11:13:29.017462 31624 net.cpp:148] Top shape: 24 512 14 14 (2408448)
I0403 11:13:29.017477 31624 net.cpp:156] Memory required for data: 1111182528
I0403 11:13:29.017491 31624 layer_factory.hpp:77] Creating layer inception_4d/1x1
I0403 11:13:29.017514 31624 net.cpp:91] Creating Layer inception_4d/1x1
I0403 11:13:29.017532 31624 net.cpp:425] inception_4d/1x1 <- inception_4c/output_inception_4c/output_0_split_0
I0403 11:13:29.017554 31624 net.cpp:399] inception_4d/1x1 -> inception_4d/1x1
I0403 11:13:29.018178 31624 net.cpp:141] Setting up inception_4d/1x1
I0403 11:13:29.018205 31624 net.cpp:148] Top shape: 24 112 14 14 (526848)
I0403 11:13:29.018221 31624 net.cpp:156] Memory required for data: 1113289920
I0403 11:13:29.018240 31624 layer_factory.hpp:77] Creating layer inception_4d/relu_1x1
I0403 11:13:29.018260 31624 net.cpp:91] Creating Layer inception_4d/relu_1x1
I0403 11:13:29.018276 31624 net.cpp:425] inception_4d/relu_1x1 <- inception_4d/1x1
I0403 11:13:29.018298 31624 net.cpp:386] inception_4d/relu_1x1 -> inception_4d/1x1 (in-place)
I0403 11:13:29.018321 31624 net.cpp:141] Setting up inception_4d/relu_1x1
I0403 11:13:29.018338 31624 net.cpp:148] Top shape: 24 112 14 14 (526848)
I0403 11:13:29.018352 31624 net.cpp:156] Memory required for data: 1115397312
I0403 11:13:29.018368 31624 layer_factory.hpp:77] Creating layer inception_4d/3x3_reduce
I0403 11:13:29.018391 31624 net.cpp:91] Creating Layer inception_4d/3x3_reduce
I0403 11:13:29.018410 31624 net.cpp:425] inception_4d/3x3_reduce <- inception_4c/output_inception_4c/output_0_split_1
I0403 11:13:29.018430 31624 net.cpp:399] inception_4d/3x3_reduce -> inception_4d/3x3_reduce
I0403 11:13:29.019158 31624 net.cpp:141] Setting up inception_4d/3x3_reduce
I0403 11:13:29.019186 31624 net.cpp:148] Top shape: 24 144 14 14 (677376)
I0403 11:13:29.019201 31624 net.cpp:156] Memory required for data: 1118106816
I0403 11:13:29.019219 31624 layer_factory.hpp:77] Creating layer inception_4d/relu_3x3_reduce
I0403 11:13:29.019239 31624 net.cpp:91] Creating Layer inception_4d/relu_3x3_reduce
I0403 11:13:29.019256 31624 net.cpp:425] inception_4d/relu_3x3_reduce <- inception_4d/3x3_reduce
I0403 11:13:29.019278 31624 net.cpp:386] inception_4d/relu_3x3_reduce -> inception_4d/3x3_reduce (in-place)
I0403 11:13:29.019299 31624 net.cpp:141] Setting up inception_4d/relu_3x3_reduce
I0403 11:13:29.019316 31624 net.cpp:148] Top shape: 24 144 14 14 (677376)
I0403 11:13:29.019331 31624 net.cpp:156] Memory required for data: 1120816320
I0403 11:13:29.019346 31624 layer_factory.hpp:77] Creating layer inception_4d/3x3
I0403 11:13:29.019367 31624 net.cpp:91] Creating Layer inception_4d/3x3
I0403 11:13:29.019386 31624 net.cpp:425] inception_4d/3x3 <- inception_4d/3x3_reduce
I0403 11:13:29.019407 31624 net.cpp:399] inception_4d/3x3 -> inception_4d/3x3
I0403 11:13:29.022790 31624 net.cpp:141] Setting up inception_4d/3x3
I0403 11:13:29.022820 31624 net.cpp:148] Top shape: 24 288 14 14 (1354752)
I0403 11:13:29.022837 31624 net.cpp:156] Memory required for data: 1126235328
I0403 11:13:29.022855 31624 layer_factory.hpp:77] Creating layer inception_4d/relu_3x3
I0403 11:13:29.022878 31624 net.cpp:91] Creating Layer inception_4d/relu_3x3
I0403 11:13:29.022897 31624 net.cpp:425] inception_4d/relu_3x3 <- inception_4d/3x3
I0403 11:13:29.022914 31624 net.cpp:386] inception_4d/relu_3x3 -> inception_4d/3x3 (in-place)
I0403 11:13:29.022935 31624 net.cpp:141] Setting up inception_4d/relu_3x3
I0403 11:13:29.022953 31624 net.cpp:148] Top shape: 24 288 14 14 (1354752)
I0403 11:13:29.022974 31624 net.cpp:156] Memory required for data: 1131654336
I0403 11:13:29.022989 31624 layer_factory.hpp:77] Creating layer inception_4d/5x5_reduce
I0403 11:13:29.023030 31624 net.cpp:91] Creating Layer inception_4d/5x5_reduce
I0403 11:13:29.023051 31624 net.cpp:425] inception_4d/5x5_reduce <- inception_4c/output_inception_4c/output_0_split_2
I0403 11:13:29.023073 31624 net.cpp:399] inception_4d/5x5_reduce -> inception_4d/5x5_reduce
I0403 11:13:29.023440 31624 net.cpp:141] Setting up inception_4d/5x5_reduce
I0403 11:13:29.023468 31624 net.cpp:148] Top shape: 24 32 14 14 (150528)
I0403 11:13:29.023483 31624 net.cpp:156] Memory required for data: 1132256448
I0403 11:13:29.023501 31624 layer_factory.hpp:77] Creating layer inception_4d/relu_5x5_reduce
I0403 11:13:29.023520 31624 net.cpp:91] Creating Layer inception_4d/relu_5x5_reduce
I0403 11:13:29.023538 31624 net.cpp:425] inception_4d/relu_5x5_reduce <- inception_4d/5x5_reduce
I0403 11:13:29.023556 31624 net.cpp:386] inception_4d/relu_5x5_reduce -> inception_4d/5x5_reduce (in-place)
I0403 11:13:29.023576 31624 net.cpp:141] Setting up inception_4d/relu_5x5_reduce
I0403 11:13:29.023596 31624 net.cpp:148] Top shape: 24 32 14 14 (150528)
I0403 11:13:29.023610 31624 net.cpp:156] Memory required for data: 1132858560
I0403 11:13:29.023625 31624 layer_factory.hpp:77] Creating layer inception_4d/5x5
I0403 11:13:29.023649 31624 net.cpp:91] Creating Layer inception_4d/5x5
I0403 11:13:29.023669 31624 net.cpp:425] inception_4d/5x5 <- inception_4d/5x5_reduce
I0403 11:13:29.023692 31624 net.cpp:399] inception_4d/5x5 -> inception_4d/5x5
I0403 11:13:29.024266 31624 net.cpp:141] Setting up inception_4d/5x5
I0403 11:13:29.024291 31624 net.cpp:148] Top shape: 24 64 14 14 (301056)
I0403 11:13:29.024307 31624 net.cpp:156] Memory required for data: 1134062784
I0403 11:13:29.024325 31624 layer_factory.hpp:77] Creating layer inception_4d/relu_5x5
I0403 11:13:29.024346 31624 net.cpp:91] Creating Layer inception_4d/relu_5x5
I0403 11:13:29.024364 31624 net.cpp:425] inception_4d/relu_5x5 <- inception_4d/5x5
I0403 11:13:29.024384 31624 net.cpp:386] inception_4d/relu_5x5 -> inception_4d/5x5 (in-place)
I0403 11:13:29.024405 31624 net.cpp:141] Setting up inception_4d/relu_5x5
I0403 11:13:29.024422 31624 net.cpp:148] Top shape: 24 64 14 14 (301056)
I0403 11:13:29.024437 31624 net.cpp:156] Memory required for data: 1135267008
I0403 11:13:29.024453 31624 layer_factory.hpp:77] Creating layer inception_4d/pool
I0403 11:13:29.024626 31624 net.cpp:91] Creating Layer inception_4d/pool
I0403 11:13:29.024644 31624 net.cpp:425] inception_4d/pool <- inception_4c/output_inception_4c/output_0_split_3
I0403 11:13:29.024664 31624 net.cpp:399] inception_4d/pool -> inception_4d/pool
I0403 11:13:29.024726 31624 net.cpp:141] Setting up inception_4d/pool
I0403 11:13:29.024751 31624 net.cpp:148] Top shape: 24 512 14 14 (2408448)
I0403 11:13:29.024767 31624 net.cpp:156] Memory required for data: 1144900800
I0403 11:13:29.024782 31624 layer_factory.hpp:77] Creating layer inception_4d/pool_proj
I0403 11:13:29.024806 31624 net.cpp:91] Creating Layer inception_4d/pool_proj
I0403 11:13:29.024826 31624 net.cpp:425] inception_4d/pool_proj <- inception_4d/pool
I0403 11:13:29.024845 31624 net.cpp:399] inception_4d/pool_proj -> inception_4d/pool_proj
I0403 11:13:29.025306 31624 net.cpp:141] Setting up inception_4d/pool_proj
I0403 11:13:29.025332 31624 net.cpp:148] Top shape: 24 64 14 14 (301056)
I0403 11:13:29.025348 31624 net.cpp:156] Memory required for data: 1146105024
I0403 11:13:29.025367 31624 layer_factory.hpp:77] Creating layer inception_4d/relu_pool_proj
I0403 11:13:29.025385 31624 net.cpp:91] Creating Layer inception_4d/relu_pool_proj
I0403 11:13:29.025403 31624 net.cpp:425] inception_4d/relu_pool_proj <- inception_4d/pool_proj
I0403 11:13:29.025424 31624 net.cpp:386] inception_4d/relu_pool_proj -> inception_4d/pool_proj (in-place)
I0403 11:13:29.025446 31624 net.cpp:141] Setting up inception_4d/relu_pool_proj
I0403 11:13:29.025465 31624 net.cpp:148] Top shape: 24 64 14 14 (301056)
I0403 11:13:29.025480 31624 net.cpp:156] Memory required for data: 1147309248
I0403 11:13:29.025493 31624 layer_factory.hpp:77] Creating layer inception_4d/output
I0403 11:13:29.025527 31624 net.cpp:91] Creating Layer inception_4d/output
I0403 11:13:29.025545 31624 net.cpp:425] inception_4d/output <- inception_4d/1x1
I0403 11:13:29.025563 31624 net.cpp:425] inception_4d/output <- inception_4d/3x3
I0403 11:13:29.025579 31624 net.cpp:425] inception_4d/output <- inception_4d/5x5
I0403 11:13:29.025598 31624 net.cpp:425] inception_4d/output <- inception_4d/pool_proj
I0403 11:13:29.025619 31624 net.cpp:399] inception_4d/output -> inception_4d/output
I0403 11:13:29.025662 31624 net.cpp:141] Setting up inception_4d/output
I0403 11:13:29.025687 31624 net.cpp:148] Top shape: 24 528 14 14 (2483712)
I0403 11:13:29.025702 31624 net.cpp:156] Memory required for data: 1157244096
I0403 11:13:29.025717 31624 layer_factory.hpp:77] Creating layer inception_4d/output_inception_4d/output_0_split
I0403 11:13:29.025739 31624 net.cpp:91] Creating Layer inception_4d/output_inception_4d/output_0_split
I0403 11:13:29.025758 31624 net.cpp:425] inception_4d/output_inception_4d/output_0_split <- inception_4d/output
I0403 11:13:29.025776 31624 net.cpp:399] inception_4d/output_inception_4d/output_0_split -> inception_4d/output_inception_4d/output_0_split_0
I0403 11:13:29.025797 31624 net.cpp:399] inception_4d/output_inception_4d/output_0_split -> inception_4d/output_inception_4d/output_0_split_1
I0403 11:13:29.025820 31624 net.cpp:399] inception_4d/output_inception_4d/output_0_split -> inception_4d/output_inception_4d/output_0_split_2
I0403 11:13:29.025845 31624 net.cpp:399] inception_4d/output_inception_4d/output_0_split -> inception_4d/output_inception_4d/output_0_split_3
I0403 11:13:29.025866 31624 net.cpp:399] inception_4d/output_inception_4d/output_0_split -> inception_4d/output_inception_4d/output_0_split_4
I0403 11:13:29.025964 31624 net.cpp:141] Setting up inception_4d/output_inception_4d/output_0_split
I0403 11:13:29.025988 31624 net.cpp:148] Top shape: 24 528 14 14 (2483712)
I0403 11:13:29.026005 31624 net.cpp:148] Top shape: 24 528 14 14 (2483712)
I0403 11:13:29.026021 31624 net.cpp:148] Top shape: 24 528 14 14 (2483712)
I0403 11:13:29.026036 31624 net.cpp:148] Top shape: 24 528 14 14 (2483712)
I0403 11:13:29.026052 31624 net.cpp:148] Top shape: 24 528 14 14 (2483712)
I0403 11:13:29.026067 31624 net.cpp:156] Memory required for data: 1206918336
I0403 11:13:29.026082 31624 layer_factory.hpp:77] Creating layer loss2/ave_pool
I0403 11:13:29.026099 31624 net.cpp:91] Creating Layer loss2/ave_pool
I0403 11:13:29.026115 31624 net.cpp:425] loss2/ave_pool <- inception_4d/output_inception_4d/output_0_split_0
I0403 11:13:29.026137 31624 net.cpp:399] loss2/ave_pool -> loss2/ave_pool
I0403 11:13:29.026316 31624 net.cpp:141] Setting up loss2/ave_pool
I0403 11:13:29.026342 31624 net.cpp:148] Top shape: 24 528 4 4 (202752)
I0403 11:13:29.026358 31624 net.cpp:156] Memory required for data: 1207729344
I0403 11:13:29.026374 31624 layer_factory.hpp:77] Creating layer loss2/conv
I0403 11:13:29.026399 31624 net.cpp:91] Creating Layer loss2/conv
I0403 11:13:29.026419 31624 net.cpp:425] loss2/conv <- loss2/ave_pool
I0403 11:13:29.026440 31624 net.cpp:399] loss2/conv -> loss2/conv
I0403 11:13:29.027667 31624 net.cpp:141] Setting up loss2/conv
I0403 11:13:29.027696 31624 net.cpp:148] Top shape: 24 128 4 4 (49152)
I0403 11:13:29.027714 31624 net.cpp:156] Memory required for data: 1207925952
I0403 11:13:29.027732 31624 layer_factory.hpp:77] Creating layer loss2/relu_conv
I0403 11:13:29.027752 31624 net.cpp:91] Creating Layer loss2/relu_conv
I0403 11:13:29.027770 31624 net.cpp:425] loss2/relu_conv <- loss2/conv
I0403 11:13:29.027791 31624 net.cpp:386] loss2/relu_conv -> loss2/conv (in-place)
I0403 11:13:29.027812 31624 net.cpp:141] Setting up loss2/relu_conv
I0403 11:13:29.027832 31624 net.cpp:148] Top shape: 24 128 4 4 (49152)
I0403 11:13:29.027848 31624 net.cpp:156] Memory required for data: 1208122560
I0403 11:13:29.027863 31624 layer_factory.hpp:77] Creating layer loss2/fc
I0403 11:13:29.027884 31624 net.cpp:91] Creating Layer loss2/fc
I0403 11:13:29.027900 31624 net.cpp:425] loss2/fc <- loss2/conv
I0403 11:13:29.027979 31624 net.cpp:399] loss2/fc -> loss2/fc
I0403 11:13:29.044828 31624 net.cpp:141] Setting up loss2/fc
I0403 11:13:29.044873 31624 net.cpp:148] Top shape: 24 1024 (24576)
I0403 11:13:29.044890 31624 net.cpp:156] Memory required for data: 1208220864
I0403 11:13:29.044909 31624 layer_factory.hpp:77] Creating layer loss2/relu_fc
I0403 11:13:29.044931 31624 net.cpp:91] Creating Layer loss2/relu_fc
I0403 11:13:29.044950 31624 net.cpp:425] loss2/relu_fc <- loss2/fc
I0403 11:13:29.044977 31624 net.cpp:386] loss2/relu_fc -> loss2/fc (in-place)
I0403 11:13:29.045001 31624 net.cpp:141] Setting up loss2/relu_fc
I0403 11:13:29.045019 31624 net.cpp:148] Top shape: 24 1024 (24576)
I0403 11:13:29.045034 31624 net.cpp:156] Memory required for data: 1208319168
I0403 11:13:29.045050 31624 layer_factory.hpp:77] Creating layer loss2/drop_fc
I0403 11:13:29.045069 31624 net.cpp:91] Creating Layer loss2/drop_fc
I0403 11:13:29.045086 31624 net.cpp:425] loss2/drop_fc <- loss2/fc
I0403 11:13:29.045105 31624 net.cpp:386] loss2/drop_fc -> loss2/fc (in-place)
I0403 11:13:29.045153 31624 net.cpp:141] Setting up loss2/drop_fc
I0403 11:13:29.045177 31624 net.cpp:148] Top shape: 24 1024 (24576)
I0403 11:13:29.045193 31624 net.cpp:156] Memory required for data: 1208417472
I0403 11:13:29.045208 31624 layer_factory.hpp:77] Creating layer loss2/classifier_plantvillage
I0403 11:13:29.045233 31624 net.cpp:91] Creating Layer loss2/classifier_plantvillage
I0403 11:13:29.045249 31624 net.cpp:425] loss2/classifier_plantvillage <- loss2/fc
I0403 11:13:29.045269 31624 net.cpp:399] loss2/classifier_plantvillage -> loss2/classifier_plantvillage
I0403 11:13:29.045647 31624 net.cpp:141] Setting up loss2/classifier_plantvillage
I0403 11:13:29.045675 31624 net.cpp:148] Top shape: 24 38 (912)
I0403 11:13:29.045689 31624 net.cpp:156] Memory required for data: 1208421120
I0403 11:13:29.045708 31624 layer_factory.hpp:77] Creating layer loss2/classifier_plantvillage_loss2/classifier_plantvillage_0_split
I0403 11:13:29.045729 31624 net.cpp:91] Creating Layer loss2/classifier_plantvillage_loss2/classifier_plantvillage_0_split
I0403 11:13:29.045747 31624 net.cpp:425] loss2/classifier_plantvillage_loss2/classifier_plantvillage_0_split <- loss2/classifier_plantvillage
I0403 11:13:29.045765 31624 net.cpp:399] loss2/classifier_plantvillage_loss2/classifier_plantvillage_0_split -> loss2/classifier_plantvillage_loss2/classifier_plantvillage_0_split_0
I0403 11:13:29.045790 31624 net.cpp:399] loss2/classifier_plantvillage_loss2/classifier_plantvillage_0_split -> loss2/classifier_plantvillage_loss2/classifier_plantvillage_0_split_1
I0403 11:13:29.045814 31624 net.cpp:399] loss2/classifier_plantvillage_loss2/classifier_plantvillage_0_split -> loss2/classifier_plantvillage_loss2/classifier_plantvillage_0_split_2
I0403 11:13:29.045886 31624 net.cpp:141] Setting up loss2/classifier_plantvillage_loss2/classifier_plantvillage_0_split
I0403 11:13:29.045912 31624 net.cpp:148] Top shape: 24 38 (912)
I0403 11:13:29.045928 31624 net.cpp:148] Top shape: 24 38 (912)
I0403 11:13:29.045944 31624 net.cpp:148] Top shape: 24 38 (912)
I0403 11:13:29.045963 31624 net.cpp:156] Memory required for data: 1208432064
I0403 11:13:29.045980 31624 layer_factory.hpp:77] Creating layer inception_4e/1x1
I0403 11:13:29.046011 31624 net.cpp:91] Creating Layer inception_4e/1x1
I0403 11:13:29.046037 31624 net.cpp:425] inception_4e/1x1 <- inception_4d/output_inception_4d/output_0_split_1
I0403 11:13:29.046067 31624 net.cpp:399] inception_4e/1x1 -> inception_4e/1x1
I0403 11:13:29.047158 31624 net.cpp:141] Setting up inception_4e/1x1
I0403 11:13:29.047184 31624 net.cpp:148] Top shape: 24 256 14 14 (1204224)
I0403 11:13:29.047199 31624 net.cpp:156] Memory required for data: 1213248960
I0403 11:13:29.047217 31624 layer_factory.hpp:77] Creating layer inception_4e/relu_1x1
I0403 11:13:29.047237 31624 net.cpp:91] Creating Layer inception_4e/relu_1x1
I0403 11:13:29.047255 31624 net.cpp:425] inception_4e/relu_1x1 <- inception_4e/1x1
I0403 11:13:29.047273 31624 net.cpp:386] inception_4e/relu_1x1 -> inception_4e/1x1 (in-place)
I0403 11:13:29.047318 31624 net.cpp:141] Setting up inception_4e/relu_1x1
I0403 11:13:29.047338 31624 net.cpp:148] Top shape: 24 256 14 14 (1204224)
I0403 11:13:29.047353 31624 net.cpp:156] Memory required for data: 1218065856
I0403 11:13:29.047369 31624 layer_factory.hpp:77] Creating layer inception_4e/3x3_reduce
I0403 11:13:29.047392 31624 net.cpp:91] Creating Layer inception_4e/3x3_reduce
I0403 11:13:29.047411 31624 net.cpp:425] inception_4e/3x3_reduce <- inception_4d/output_inception_4d/output_0_split_2
I0403 11:13:29.047435 31624 net.cpp:399] inception_4e/3x3_reduce -> inception_4e/3x3_reduce
I0403 11:13:29.048804 31624 net.cpp:141] Setting up inception_4e/3x3_reduce
I0403 11:13:29.048835 31624 net.cpp:148] Top shape: 24 160 14 14 (752640)
I0403 11:13:29.048851 31624 net.cpp:156] Memory required for data: 1221076416
I0403 11:13:29.048869 31624 layer_factory.hpp:77] Creating layer inception_4e/relu_3x3_reduce
I0403 11:13:29.048892 31624 net.cpp:91] Creating Layer inception_4e/relu_3x3_reduce
I0403 11:13:29.048910 31624 net.cpp:425] inception_4e/relu_3x3_reduce <- inception_4e/3x3_reduce
I0403 11:13:29.048929 31624 net.cpp:386] inception_4e/relu_3x3_reduce -> inception_4e/3x3_reduce (in-place)
I0403 11:13:29.048950 31624 net.cpp:141] Setting up inception_4e/relu_3x3_reduce
I0403 11:13:29.048974 31624 net.cpp:148] Top shape: 24 160 14 14 (752640)
I0403 11:13:29.048990 31624 net.cpp:156] Memory required for data: 1224086976
I0403 11:13:29.049005 31624 layer_factory.hpp:77] Creating layer inception_4e/3x3
I0403 11:13:29.049031 31624 net.cpp:91] Creating Layer inception_4e/3x3
I0403 11:13:29.049048 31624 net.cpp:425] inception_4e/3x3 <- inception_4e/3x3_reduce
I0403 11:13:29.049069 31624 net.cpp:399] inception_4e/3x3 -> inception_4e/3x3
I0403 11:13:29.053125 31624 net.cpp:141] Setting up inception_4e/3x3
I0403 11:13:29.053156 31624 net.cpp:148] Top shape: 24 320 14 14 (1505280)
I0403 11:13:29.053174 31624 net.cpp:156] Memory required for data: 1230108096
I0403 11:13:29.053194 31624 layer_factory.hpp:77] Creating layer inception_4e/relu_3x3
I0403 11:13:29.053212 31624 net.cpp:91] Creating Layer inception_4e/relu_3x3
I0403 11:13:29.053231 31624 net.cpp:425] inception_4e/relu_3x3 <- inception_4e/3x3
I0403 11:13:29.053248 31624 net.cpp:386] inception_4e/relu_3x3 -> inception_4e/3x3 (in-place)
I0403 11:13:29.053272 31624 net.cpp:141] Setting up inception_4e/relu_3x3
I0403 11:13:29.053292 31624 net.cpp:148] Top shape: 24 320 14 14 (1505280)
I0403 11:13:29.053305 31624 net.cpp:156] Memory required for data: 1236129216
I0403 11:13:29.053321 31624 layer_factory.hpp:77] Creating layer inception_4e/5x5_reduce
I0403 11:13:29.053342 31624 net.cpp:91] Creating Layer inception_4e/5x5_reduce
I0403 11:13:29.053360 31624 net.cpp:425] inception_4e/5x5_reduce <- inception_4d/output_inception_4d/output_0_split_3
I0403 11:13:29.053382 31624 net.cpp:399] inception_4e/5x5_reduce -> inception_4e/5x5_reduce
I0403 11:13:29.054317 31624 net.cpp:141] Setting up inception_4e/5x5_reduce
I0403 11:13:29.054347 31624 net.cpp:148] Top shape: 24 32 14 14 (150528)
I0403 11:13:29.054364 31624 net.cpp:156] Memory required for data: 1236731328
I0403 11:13:29.054383 31624 layer_factory.hpp:77] Creating layer inception_4e/relu_5x5_reduce
I0403 11:13:29.054404 31624 net.cpp:91] Creating Layer inception_4e/relu_5x5_reduce
I0403 11:13:29.054424 31624 net.cpp:425] inception_4e/relu_5x5_reduce <- inception_4e/5x5_reduce
I0403 11:13:29.054442 31624 net.cpp:386] inception_4e/relu_5x5_reduce -> inception_4e/5x5_reduce (in-place)
I0403 11:13:29.054463 31624 net.cpp:141] Setting up inception_4e/relu_5x5_reduce
I0403 11:13:29.054482 31624 net.cpp:148] Top shape: 24 32 14 14 (150528)
I0403 11:13:29.054497 31624 net.cpp:156] Memory required for data: 1237333440
I0403 11:13:29.054512 31624 layer_factory.hpp:77] Creating layer inception_4e/5x5
I0403 11:13:29.054555 31624 net.cpp:91] Creating Layer inception_4e/5x5
I0403 11:13:29.054576 31624 net.cpp:425] inception_4e/5x5 <- inception_4e/5x5_reduce
I0403 11:13:29.054597 31624 net.cpp:399] inception_4e/5x5 -> inception_4e/5x5
I0403 11:13:29.055439 31624 net.cpp:141] Setting up inception_4e/5x5
I0403 11:13:29.055467 31624 net.cpp:148] Top shape: 24 128 14 14 (602112)
I0403 11:13:29.055482 31624 net.cpp:156] Memory required for data: 1239741888
I0403 11:13:29.055501 31624 layer_factory.hpp:77] Creating layer inception_4e/relu_5x5
I0403 11:13:29.055524 31624 net.cpp:91] Creating Layer inception_4e/relu_5x5
I0403 11:13:29.055542 31624 net.cpp:425] inception_4e/relu_5x5 <- inception_4e/5x5
I0403 11:13:29.055560 31624 net.cpp:386] inception_4e/relu_5x5 -> inception_4e/5x5 (in-place)
I0403 11:13:29.055580 31624 net.cpp:141] Setting up inception_4e/relu_5x5
I0403 11:13:29.055598 31624 net.cpp:148] Top shape: 24 128 14 14 (602112)
I0403 11:13:29.055613 31624 net.cpp:156] Memory required for data: 1242150336
I0403 11:13:29.055629 31624 layer_factory.hpp:77] Creating layer inception_4e/pool
I0403 11:13:29.055649 31624 net.cpp:91] Creating Layer inception_4e/pool
I0403 11:13:29.055667 31624 net.cpp:425] inception_4e/pool <- inception_4d/output_inception_4d/output_0_split_4
I0403 11:13:29.055686 31624 net.cpp:399] inception_4e/pool -> inception_4e/pool
I0403 11:13:29.055744 31624 net.cpp:141] Setting up inception_4e/pool
I0403 11:13:29.055768 31624 net.cpp:148] Top shape: 24 528 14 14 (2483712)
I0403 11:13:29.055783 31624 net.cpp:156] Memory required for data: 1252085184
I0403 11:13:29.055799 31624 layer_factory.hpp:77] Creating layer inception_4e/pool_proj
I0403 11:13:29.055822 31624 net.cpp:91] Creating Layer inception_4e/pool_proj
I0403 11:13:29.055841 31624 net.cpp:425] inception_4e/pool_proj <- inception_4e/pool
I0403 11:13:29.055861 31624 net.cpp:399] inception_4e/pool_proj -> inception_4e/pool_proj
I0403 11:13:29.056504 31624 net.cpp:141] Setting up inception_4e/pool_proj
I0403 11:13:29.056530 31624 net.cpp:148] Top shape: 24 128 14 14 (602112)
I0403 11:13:29.056546 31624 net.cpp:156] Memory required for data: 1254493632
I0403 11:13:29.056565 31624 layer_factory.hpp:77] Creating layer inception_4e/relu_pool_proj
I0403 11:13:29.056584 31624 net.cpp:91] Creating Layer inception_4e/relu_pool_proj
I0403 11:13:29.056602 31624 net.cpp:425] inception_4e/relu_pool_proj <- inception_4e/pool_proj
I0403 11:13:29.056623 31624 net.cpp:386] inception_4e/relu_pool_proj -> inception_4e/pool_proj (in-place)
I0403 11:13:29.056644 31624 net.cpp:141] Setting up inception_4e/relu_pool_proj
I0403 11:13:29.056663 31624 net.cpp:148] Top shape: 24 128 14 14 (602112)
I0403 11:13:29.056679 31624 net.cpp:156] Memory required for data: 1256902080
I0403 11:13:29.056694 31624 layer_factory.hpp:77] Creating layer inception_4e/output
I0403 11:13:29.056712 31624 net.cpp:91] Creating Layer inception_4e/output
I0403 11:13:29.056728 31624 net.cpp:425] inception_4e/output <- inception_4e/1x1
I0403 11:13:29.056745 31624 net.cpp:425] inception_4e/output <- inception_4e/3x3
I0403 11:13:29.056761 31624 net.cpp:425] inception_4e/output <- inception_4e/5x5
I0403 11:13:29.056778 31624 net.cpp:425] inception_4e/output <- inception_4e/pool_proj
I0403 11:13:29.056797 31624 net.cpp:399] inception_4e/output -> inception_4e/output
I0403 11:13:29.056840 31624 net.cpp:141] Setting up inception_4e/output
I0403 11:13:29.056864 31624 net.cpp:148] Top shape: 24 832 14 14 (3913728)
I0403 11:13:29.056879 31624 net.cpp:156] Memory required for data: 1272556992
I0403 11:13:29.056895 31624 layer_factory.hpp:77] Creating layer pool4/3x3_s2
I0403 11:13:29.056913 31624 net.cpp:91] Creating Layer pool4/3x3_s2
I0403 11:13:29.056929 31624 net.cpp:425] pool4/3x3_s2 <- inception_4e/output
I0403 11:13:29.056952 31624 net.cpp:399] pool4/3x3_s2 -> pool4/3x3_s2
I0403 11:13:29.057013 31624 net.cpp:141] Setting up pool4/3x3_s2
I0403 11:13:29.057037 31624 net.cpp:148] Top shape: 24 832 7 7 (978432)
I0403 11:13:29.057054 31624 net.cpp:156] Memory required for data: 1276470720
I0403 11:13:29.057068 31624 layer_factory.hpp:77] Creating layer pool4/3x3_s2_pool4/3x3_s2_0_split
I0403 11:13:29.057090 31624 net.cpp:91] Creating Layer pool4/3x3_s2_pool4/3x3_s2_0_split
I0403 11:13:29.057107 31624 net.cpp:425] pool4/3x3_s2_pool4/3x3_s2_0_split <- pool4/3x3_s2
I0403 11:13:29.057144 31624 net.cpp:399] pool4/3x3_s2_pool4/3x3_s2_0_split -> pool4/3x3_s2_pool4/3x3_s2_0_split_0
I0403 11:13:29.057168 31624 net.cpp:399] pool4/3x3_s2_pool4/3x3_s2_0_split -> pool4/3x3_s2_pool4/3x3_s2_0_split_1
I0403 11:13:29.057191 31624 net.cpp:399] pool4/3x3_s2_pool4/3x3_s2_0_split -> pool4/3x3_s2_pool4/3x3_s2_0_split_2
I0403 11:13:29.057212 31624 net.cpp:399] pool4/3x3_s2_pool4/3x3_s2_0_split -> pool4/3x3_s2_pool4/3x3_s2_0_split_3
I0403 11:13:29.057282 31624 net.cpp:141] Setting up pool4/3x3_s2_pool4/3x3_s2_0_split
I0403 11:13:29.057307 31624 net.cpp:148] Top shape: 24 832 7 7 (978432)
I0403 11:13:29.057327 31624 net.cpp:148] Top shape: 24 832 7 7 (978432)
I0403 11:13:29.057344 31624 net.cpp:148] Top shape: 24 832 7 7 (978432)
I0403 11:13:29.057360 31624 net.cpp:148] Top shape: 24 832 7 7 (978432)
I0403 11:13:29.057374 31624 net.cpp:156] Memory required for data: 1292125632
I0403 11:13:29.057389 31624 layer_factory.hpp:77] Creating layer inception_5a/1x1
I0403 11:13:29.057411 31624 net.cpp:91] Creating Layer inception_5a/1x1
I0403 11:13:29.057428 31624 net.cpp:425] inception_5a/1x1 <- pool4/3x3_s2_pool4/3x3_s2_0_split_0
I0403 11:13:29.057451 31624 net.cpp:399] inception_5a/1x1 -> inception_5a/1x1
I0403 11:13:29.059491 31624 net.cpp:141] Setting up inception_5a/1x1
I0403 11:13:29.059522 31624 net.cpp:148] Top shape: 24 256 7 7 (301056)
I0403 11:13:29.059538 31624 net.cpp:156] Memory required for data: 1293329856
I0403 11:13:29.059557 31624 layer_factory.hpp:77] Creating layer inception_5a/relu_1x1
I0403 11:13:29.059579 31624 net.cpp:91] Creating Layer inception_5a/relu_1x1
I0403 11:13:29.059597 31624 net.cpp:425] inception_5a/relu_1x1 <- inception_5a/1x1
I0403 11:13:29.059617 31624 net.cpp:386] inception_5a/relu_1x1 -> inception_5a/1x1 (in-place)
I0403 11:13:29.059638 31624 net.cpp:141] Setting up inception_5a/relu_1x1
I0403 11:13:29.059655 31624 net.cpp:148] Top shape: 24 256 7 7 (301056)
I0403 11:13:29.059670 31624 net.cpp:156] Memory required for data: 1294534080
I0403 11:13:29.059685 31624 layer_factory.hpp:77] Creating layer inception_5a/3x3_reduce
I0403 11:13:29.059710 31624 net.cpp:91] Creating Layer inception_5a/3x3_reduce
I0403 11:13:29.059728 31624 net.cpp:425] inception_5a/3x3_reduce <- pool4/3x3_s2_pool4/3x3_s2_0_split_1
I0403 11:13:29.059751 31624 net.cpp:399] inception_5a/3x3_reduce -> inception_5a/3x3_reduce
I0403 11:13:29.061354 31624 net.cpp:141] Setting up inception_5a/3x3_reduce
I0403 11:13:29.061384 31624 net.cpp:148] Top shape: 24 160 7 7 (188160)
I0403 11:13:29.061400 31624 net.cpp:156] Memory required for data: 1295286720
I0403 11:13:29.061419 31624 layer_factory.hpp:77] Creating layer inception_5a/relu_3x3_reduce
I0403 11:13:29.061441 31624 net.cpp:91] Creating Layer inception_5a/relu_3x3_reduce
I0403 11:13:29.061460 31624 net.cpp:425] inception_5a/relu_3x3_reduce <- inception_5a/3x3_reduce
I0403 11:13:29.061478 31624 net.cpp:386] inception_5a/relu_3x3_reduce -> inception_5a/3x3_reduce (in-place)
I0403 11:13:29.061499 31624 net.cpp:141] Setting up inception_5a/relu_3x3_reduce
I0403 11:13:29.061517 31624 net.cpp:148] Top shape: 24 160 7 7 (188160)
I0403 11:13:29.061532 31624 net.cpp:156] Memory required for data: 1296039360
I0403 11:13:29.061547 31624 layer_factory.hpp:77] Creating layer inception_5a/3x3
I0403 11:13:29.061573 31624 net.cpp:91] Creating Layer inception_5a/3x3
I0403 11:13:29.061590 31624 net.cpp:425] inception_5a/3x3 <- inception_5a/3x3_reduce
I0403 11:13:29.061611 31624 net.cpp:399] inception_5a/3x3 -> inception_5a/3x3
I0403 11:13:29.065637 31624 net.cpp:141] Setting up inception_5a/3x3
I0403 11:13:29.065668 31624 net.cpp:148] Top shape: 24 320 7 7 (376320)
I0403 11:13:29.065685 31624 net.cpp:156] Memory required for data: 1297544640
I0403 11:13:29.065704 31624 layer_factory.hpp:77] Creating layer inception_5a/relu_3x3
I0403 11:13:29.065723 31624 net.cpp:91] Creating Layer inception_5a/relu_3x3
I0403 11:13:29.065740 31624 net.cpp:425] inception_5a/relu_3x3 <- inception_5a/3x3
I0403 11:13:29.065762 31624 net.cpp:386] inception_5a/relu_3x3 -> inception_5a/3x3 (in-place)
I0403 11:13:29.065798 31624 net.cpp:141] Setting up inception_5a/relu_3x3
I0403 11:13:29.065819 31624 net.cpp:148] Top shape: 24 320 7 7 (376320)
I0403 11:13:29.065834 31624 net.cpp:156] Memory required for data: 1299049920
I0403 11:13:29.065848 31624 layer_factory.hpp:77] Creating layer inception_5a/5x5_reduce
I0403 11:13:29.065873 31624 net.cpp:91] Creating Layer inception_5a/5x5_reduce
I0403 11:13:29.065892 31624 net.cpp:425] inception_5a/5x5_reduce <- pool4/3x3_s2_pool4/3x3_s2_0_split_2
I0403 11:13:29.065913 31624 net.cpp:399] inception_5a/5x5_reduce -> inception_5a/5x5_reduce
I0403 11:13:29.066336 31624 net.cpp:141] Setting up inception_5a/5x5_reduce
I0403 11:13:29.066365 31624 net.cpp:148] Top shape: 24 32 7 7 (37632)
I0403 11:13:29.066381 31624 net.cpp:156] Memory required for data: 1299200448
I0403 11:13:29.066401 31624 layer_factory.hpp:77] Creating layer inception_5a/relu_5x5_reduce
I0403 11:13:29.066419 31624 net.cpp:91] Creating Layer inception_5a/relu_5x5_reduce
I0403 11:13:29.066437 31624 net.cpp:425] inception_5a/relu_5x5_reduce <- inception_5a/5x5_reduce
I0403 11:13:29.066455 31624 net.cpp:386] inception_5a/relu_5x5_reduce -> inception_5a/5x5_reduce (in-place)
I0403 11:13:29.066476 31624 net.cpp:141] Setting up inception_5a/relu_5x5_reduce
I0403 11:13:29.066495 31624 net.cpp:148] Top shape: 24 32 7 7 (37632)
I0403 11:13:29.066509 31624 net.cpp:156] Memory required for data: 1299350976
I0403 11:13:29.066524 31624 layer_factory.hpp:77] Creating layer inception_5a/5x5
I0403 11:13:29.066548 31624 net.cpp:91] Creating Layer inception_5a/5x5
I0403 11:13:29.066566 31624 net.cpp:425] inception_5a/5x5 <- inception_5a/5x5_reduce
I0403 11:13:29.066587 31624 net.cpp:399] inception_5a/5x5 -> inception_5a/5x5
I0403 11:13:29.067456 31624 net.cpp:141] Setting up inception_5a/5x5
I0403 11:13:29.067487 31624 net.cpp:148] Top shape: 24 128 7 7 (150528)
I0403 11:13:29.067502 31624 net.cpp:156] Memory required for data: 1299953088
I0403 11:13:29.067520 31624 layer_factory.hpp:77] Creating layer inception_5a/relu_5x5
I0403 11:13:29.067540 31624 net.cpp:91] Creating Layer inception_5a/relu_5x5
I0403 11:13:29.067558 31624 net.cpp:425] inception_5a/relu_5x5 <- inception_5a/5x5
I0403 11:13:29.067589 31624 net.cpp:386] inception_5a/relu_5x5 -> inception_5a/5x5 (in-place)
I0403 11:13:29.067610 31624 net.cpp:141] Setting up inception_5a/relu_5x5
I0403 11:13:29.067628 31624 net.cpp:148] Top shape: 24 128 7 7 (150528)
I0403 11:13:29.067643 31624 net.cpp:156] Memory required for data: 1300555200
I0403 11:13:29.067657 31624 layer_factory.hpp:77] Creating layer inception_5a/pool
I0403 11:13:29.067675 31624 net.cpp:91] Creating Layer inception_5a/pool
I0403 11:13:29.067692 31624 net.cpp:425] inception_5a/pool <- pool4/3x3_s2_pool4/3x3_s2_0_split_3
I0403 11:13:29.067711 31624 net.cpp:399] inception_5a/pool -> inception_5a/pool
I0403 11:13:29.067770 31624 net.cpp:141] Setting up inception_5a/pool
I0403 11:13:29.067795 31624 net.cpp:148] Top shape: 24 832 7 7 (978432)
I0403 11:13:29.067811 31624 net.cpp:156] Memory required for data: 1304468928
I0403 11:13:29.067826 31624 layer_factory.hpp:77] Creating layer inception_5a/pool_proj
I0403 11:13:29.067850 31624 net.cpp:91] Creating Layer inception_5a/pool_proj
I0403 11:13:29.067869 31624 net.cpp:425] inception_5a/pool_proj <- inception_5a/pool
I0403 11:13:29.067890 31624 net.cpp:399] inception_5a/pool_proj -> inception_5a/pool_proj
I0403 11:13:29.069344 31624 net.cpp:141] Setting up inception_5a/pool_proj
I0403 11:13:29.069373 31624 net.cpp:148] Top shape: 24 128 7 7 (150528)
I0403 11:13:29.069391 31624 net.cpp:156] Memory required for data: 1305071040
I0403 11:13:29.069409 31624 layer_factory.hpp:77] Creating layer inception_5a/relu_pool_proj
I0403 11:13:29.069429 31624 net.cpp:91] Creating Layer inception_5a/relu_pool_proj
I0403 11:13:29.069447 31624 net.cpp:425] inception_5a/relu_pool_proj <- inception_5a/pool_proj
I0403 11:13:29.069468 31624 net.cpp:386] inception_5a/relu_pool_proj -> inception_5a/pool_proj (in-place)
I0403 11:13:29.069490 31624 net.cpp:141] Setting up inception_5a/relu_pool_proj
I0403 11:13:29.069525 31624 net.cpp:148] Top shape: 24 128 7 7 (150528)
I0403 11:13:29.069541 31624 net.cpp:156] Memory required for data: 1305673152
I0403 11:13:29.069556 31624 layer_factory.hpp:77] Creating layer inception_5a/output
I0403 11:13:29.069576 31624 net.cpp:91] Creating Layer inception_5a/output
I0403 11:13:29.069592 31624 net.cpp:425] inception_5a/output <- inception_5a/1x1
I0403 11:13:29.069610 31624 net.cpp:425] inception_5a/output <- inception_5a/3x3
I0403 11:13:29.069628 31624 net.cpp:425] inception_5a/output <- inception_5a/5x5
I0403 11:13:29.069644 31624 net.cpp:425] inception_5a/output <- inception_5a/pool_proj
I0403 11:13:29.069664 31624 net.cpp:399] inception_5a/output -> inception_5a/output
I0403 11:13:29.069706 31624 net.cpp:141] Setting up inception_5a/output
I0403 11:13:29.069730 31624 net.cpp:148] Top shape: 24 832 7 7 (978432)
I0403 11:13:29.069746 31624 net.cpp:156] Memory required for data: 1309586880
I0403 11:13:29.069762 31624 layer_factory.hpp:77] Creating layer inception_5a/output_inception_5a/output_0_split
I0403 11:13:29.069780 31624 net.cpp:91] Creating Layer inception_5a/output_inception_5a/output_0_split
I0403 11:13:29.069797 31624 net.cpp:425] inception_5a/output_inception_5a/output_0_split <- inception_5a/output
I0403 11:13:29.069819 31624 net.cpp:399] inception_5a/output_inception_5a/output_0_split -> inception_5a/output_inception_5a/output_0_split_0
I0403 11:13:29.069844 31624 net.cpp:399] inception_5a/output_inception_5a/output_0_split -> inception_5a/output_inception_5a/output_0_split_1
I0403 11:13:29.069865 31624 net.cpp:399] inception_5a/output_inception_5a/output_0_split -> inception_5a/output_inception_5a/output_0_split_2
I0403 11:13:29.069887 31624 net.cpp:399] inception_5a/output_inception_5a/output_0_split -> inception_5a/output_inception_5a/output_0_split_3
I0403 11:13:29.069970 31624 net.cpp:141] Setting up inception_5a/output_inception_5a/output_0_split
I0403 11:13:29.069995 31624 net.cpp:148] Top shape: 24 832 7 7 (978432)
I0403 11:13:29.070013 31624 net.cpp:148] Top shape: 24 832 7 7 (978432)
I0403 11:13:29.070029 31624 net.cpp:148] Top shape: 24 832 7 7 (978432)
I0403 11:13:29.070045 31624 net.cpp:148] Top shape: 24 832 7 7 (978432)
I0403 11:13:29.070060 31624 net.cpp:156] Memory required for data: 1325241792
I0403 11:13:29.070075 31624 layer_factory.hpp:77] Creating layer inception_5b/1x1
I0403 11:13:29.070101 31624 net.cpp:91] Creating Layer inception_5b/1x1
I0403 11:13:29.070119 31624 net.cpp:425] inception_5b/1x1 <- inception_5a/output_inception_5a/output_0_split_0
I0403 11:13:29.070140 31624 net.cpp:399] inception_5b/1x1 -> inception_5b/1x1
I0403 11:13:29.072917 31624 net.cpp:141] Setting up inception_5b/1x1
I0403 11:13:29.072947 31624 net.cpp:148] Top shape: 24 384 7 7 (451584)
I0403 11:13:29.072968 31624 net.cpp:156] Memory required for data: 1327048128
I0403 11:13:29.072988 31624 layer_factory.hpp:77] Creating layer inception_5b/relu_1x1
I0403 11:13:29.073007 31624 net.cpp:91] Creating Layer inception_5b/relu_1x1
I0403 11:13:29.073024 31624 net.cpp:425] inception_5b/relu_1x1 <- inception_5b/1x1
I0403 11:13:29.073045 31624 net.cpp:386] inception_5b/relu_1x1 -> inception_5b/1x1 (in-place)
I0403 11:13:29.073066 31624 net.cpp:141] Setting up inception_5b/relu_1x1
I0403 11:13:29.073086 31624 net.cpp:148] Top shape: 24 384 7 7 (451584)
I0403 11:13:29.073101 31624 net.cpp:156] Memory required for data: 1328854464
I0403 11:13:29.073115 31624 layer_factory.hpp:77] Creating layer inception_5b/3x3_reduce
I0403 11:13:29.073140 31624 net.cpp:91] Creating Layer inception_5b/3x3_reduce
I0403 11:13:29.073159 31624 net.cpp:425] inception_5b/3x3_reduce <- inception_5a/output_inception_5a/output_0_split_1
I0403 11:13:29.073179 31624 net.cpp:399] inception_5b/3x3_reduce -> inception_5b/3x3_reduce
I0403 11:13:29.077198 31624 net.cpp:141] Setting up inception_5b/3x3_reduce
I0403 11:13:29.077229 31624 net.cpp:148] Top shape: 24 192 7 7 (225792)
I0403 11:13:29.077244 31624 net.cpp:156] Memory required for data: 1329757632
I0403 11:13:29.077272 31624 layer_factory.hpp:77] Creating layer inception_5b/relu_3x3_reduce
I0403 11:13:29.077307 31624 net.cpp:91] Creating Layer inception_5b/relu_3x3_reduce
I0403 11:13:29.077325 31624 net.cpp:425] inception_5b/relu_3x3_reduce <- inception_5b/3x3_reduce
I0403 11:13:29.077347 31624 net.cpp:386] inception_5b/relu_3x3_reduce -> inception_5b/3x3_reduce (in-place)
I0403 11:13:29.077369 31624 net.cpp:141] Setting up inception_5b/relu_3x3_reduce
I0403 11:13:29.077388 31624 net.cpp:148] Top shape: 24 192 7 7 (225792)
I0403 11:13:29.077402 31624 net.cpp:156] Memory required for data: 1330660800
I0403 11:13:29.077417 31624 layer_factory.hpp:77] Creating layer inception_5b/3x3
I0403 11:13:29.077442 31624 net.cpp:91] Creating Layer inception_5b/3x3
I0403 11:13:29.077461 31624 net.cpp:425] inception_5b/3x3 <- inception_5b/3x3_reduce
I0403 11:13:29.077481 31624 net.cpp:399] inception_5b/3x3 -> inception_5b/3x3
I0403 11:13:29.083107 31624 net.cpp:141] Setting up inception_5b/3x3
I0403 11:13:29.083138 31624 net.cpp:148] Top shape: 24 384 7 7 (451584)
I0403 11:13:29.083154 31624 net.cpp:156] Memory required for data: 1332467136
I0403 11:13:29.083173 31624 layer_factory.hpp:77] Creating layer inception_5b/relu_3x3
I0403 11:13:29.083194 31624 net.cpp:91] Creating Layer inception_5b/relu_3x3
I0403 11:13:29.083212 31624 net.cpp:425] inception_5b/relu_3x3 <- inception_5b/3x3
I0403 11:13:29.083230 31624 net.cpp:386] inception_5b/relu_3x3 -> inception_5b/3x3 (in-place)
I0403 11:13:29.083250 31624 net.cpp:141] Setting up inception_5b/relu_3x3
I0403 11:13:29.083268 31624 net.cpp:148] Top shape: 24 384 7 7 (451584)
I0403 11:13:29.083283 31624 net.cpp:156] Memory required for data: 1334273472
I0403 11:13:29.083298 31624 layer_factory.hpp:77] Creating layer inception_5b/5x5_reduce
I0403 11:13:29.083323 31624 net.cpp:91] Creating Layer inception_5b/5x5_reduce
I0403 11:13:29.083341 31624 net.cpp:425] inception_5b/5x5_reduce <- inception_5a/output_inception_5a/output_0_split_2
I0403 11:13:29.083364 31624 net.cpp:399] inception_5b/5x5_reduce -> inception_5b/5x5_reduce
I0403 11:13:29.084414 31624 net.cpp:141] Setting up inception_5b/5x5_reduce
I0403 11:13:29.084451 31624 net.cpp:148] Top shape: 24 48 7 7 (56448)
I0403 11:13:29.084475 31624 net.cpp:156] Memory required for data: 1334499264
I0403 11:13:29.084501 31624 layer_factory.hpp:77] Creating layer inception_5b/relu_5x5_reduce
I0403 11:13:29.084522 31624 net.cpp:91] Creating Layer inception_5b/relu_5x5_reduce
I0403 11:13:29.084542 31624 net.cpp:425] inception_5b/relu_5x5_reduce <- inception_5b/5x5_reduce
I0403 11:13:29.084561 31624 net.cpp:386] inception_5b/relu_5x5_reduce -> inception_5b/5x5_reduce (in-place)
I0403 11:13:29.084583 31624 net.cpp:141] Setting up inception_5b/relu_5x5_reduce
I0403 11:13:29.084601 31624 net.cpp:148] Top shape: 24 48 7 7 (56448)
I0403 11:13:29.084616 31624 net.cpp:156] Memory required for data: 1334725056
I0403 11:13:29.084630 31624 layer_factory.hpp:77] Creating layer inception_5b/5x5
I0403 11:13:29.084656 31624 net.cpp:91] Creating Layer inception_5b/5x5
I0403 11:13:29.084674 31624 net.cpp:425] inception_5b/5x5 <- inception_5b/5x5_reduce
I0403 11:13:29.084697 31624 net.cpp:399] inception_5b/5x5 -> inception_5b/5x5
I0403 11:13:29.085845 31624 net.cpp:141] Setting up inception_5b/5x5
I0403 11:13:29.085872 31624 net.cpp:148] Top shape: 24 128 7 7 (150528)
I0403 11:13:29.085888 31624 net.cpp:156] Memory required for data: 1335327168
I0403 11:13:29.085906 31624 layer_factory.hpp:77] Creating layer inception_5b/relu_5x5
I0403 11:13:29.085928 31624 net.cpp:91] Creating Layer inception_5b/relu_5x5
I0403 11:13:29.085947 31624 net.cpp:425] inception_5b/relu_5x5 <- inception_5b/5x5
I0403 11:13:29.085970 31624 net.cpp:386] inception_5b/relu_5x5 -> inception_5b/5x5 (in-place)
I0403 11:13:29.085993 31624 net.cpp:141] Setting up inception_5b/relu_5x5
I0403 11:13:29.086010 31624 net.cpp:148] Top shape: 24 128 7 7 (150528)
I0403 11:13:29.086025 31624 net.cpp:156] Memory required for data: 1335929280
I0403 11:13:29.086040 31624 layer_factory.hpp:77] Creating layer inception_5b/pool
I0403 11:13:29.086078 31624 net.cpp:91] Creating Layer inception_5b/pool
I0403 11:13:29.086097 31624 net.cpp:425] inception_5b/pool <- inception_5a/output_inception_5a/output_0_split_3
I0403 11:13:29.086117 31624 net.cpp:399] inception_5b/pool -> inception_5b/pool
I0403 11:13:29.086179 31624 net.cpp:141] Setting up inception_5b/pool
I0403 11:13:29.086213 31624 net.cpp:148] Top shape: 24 832 7 7 (978432)
I0403 11:13:29.086233 31624 net.cpp:156] Memory required for data: 1339843008
I0403 11:13:29.086249 31624 layer_factory.hpp:77] Creating layer inception_5b/pool_proj
I0403 11:13:29.086274 31624 net.cpp:91] Creating Layer inception_5b/pool_proj
I0403 11:13:29.086292 31624 net.cpp:425] inception_5b/pool_proj <- inception_5b/pool
I0403 11:13:29.086315 31624 net.cpp:399] inception_5b/pool_proj -> inception_5b/pool_proj
I0403 11:13:29.087730 31624 net.cpp:141] Setting up inception_5b/pool_proj
I0403 11:13:29.087760 31624 net.cpp:148] Top shape: 24 128 7 7 (150528)
I0403 11:13:29.087776 31624 net.cpp:156] Memory required for data: 1340445120
I0403 11:13:29.087795 31624 layer_factory.hpp:77] Creating layer inception_5b/relu_pool_proj
I0403 11:13:29.087815 31624 net.cpp:91] Creating Layer inception_5b/relu_pool_proj
I0403 11:13:29.087831 31624 net.cpp:425] inception_5b/relu_pool_proj <- inception_5b/pool_proj
I0403 11:13:29.087851 31624 net.cpp:386] inception_5b/relu_pool_proj -> inception_5b/pool_proj (in-place)
I0403 11:13:29.087870 31624 net.cpp:141] Setting up inception_5b/relu_pool_proj
I0403 11:13:29.087889 31624 net.cpp:148] Top shape: 24 128 7 7 (150528)
I0403 11:13:29.087904 31624 net.cpp:156] Memory required for data: 1341047232
I0403 11:13:29.087919 31624 layer_factory.hpp:77] Creating layer inception_5b/output
I0403 11:13:29.087940 31624 net.cpp:91] Creating Layer inception_5b/output
I0403 11:13:29.087968 31624 net.cpp:425] inception_5b/output <- inception_5b/1x1
I0403 11:13:29.087990 31624 net.cpp:425] inception_5b/output <- inception_5b/3x3
I0403 11:13:29.088006 31624 net.cpp:425] inception_5b/output <- inception_5b/5x5
I0403 11:13:29.088024 31624 net.cpp:425] inception_5b/output <- inception_5b/pool_proj
I0403 11:13:29.088043 31624 net.cpp:399] inception_5b/output -> inception_5b/output
I0403 11:13:29.088088 31624 net.cpp:141] Setting up inception_5b/output
I0403 11:13:29.088114 31624 net.cpp:148] Top shape: 24 1024 7 7 (1204224)
I0403 11:13:29.088130 31624 net.cpp:156] Memory required for data: 1345864128
I0403 11:13:29.088155 31624 layer_factory.hpp:77] Creating layer pool5/7x7_s1
I0403 11:13:29.088181 31624 net.cpp:91] Creating Layer pool5/7x7_s1
I0403 11:13:29.088206 31624 net.cpp:425] pool5/7x7_s1 <- inception_5b/output
I0403 11:13:29.088237 31624 net.cpp:399] pool5/7x7_s1 -> pool5/7x7_s1
I0403 11:13:29.088285 31624 net.cpp:141] Setting up pool5/7x7_s1
I0403 11:13:29.088312 31624 net.cpp:148] Top shape: 24 1024 1 1 (24576)
I0403 11:13:29.088327 31624 net.cpp:156] Memory required for data: 1345962432
I0403 11:13:29.088343 31624 layer_factory.hpp:77] Creating layer pool5/drop_7x7_s1
I0403 11:13:29.088366 31624 net.cpp:91] Creating Layer pool5/drop_7x7_s1
I0403 11:13:29.088383 31624 net.cpp:425] pool5/drop_7x7_s1 <- pool5/7x7_s1
I0403 11:13:29.088402 31624 net.cpp:386] pool5/drop_7x7_s1 -> pool5/7x7_s1 (in-place)
I0403 11:13:29.088444 31624 net.cpp:141] Setting up pool5/drop_7x7_s1
I0403 11:13:29.088469 31624 net.cpp:148] Top shape: 24 1024 1 1 (24576)
I0403 11:13:29.088484 31624 net.cpp:156] Memory required for data: 1346060736
I0403 11:13:29.088498 31624 layer_factory.hpp:77] Creating layer loss3/classifier_plantvillage
I0403 11:13:29.088521 31624 net.cpp:91] Creating Layer loss3/classifier_plantvillage
I0403 11:13:29.088538 31624 net.cpp:425] loss3/classifier_plantvillage <- pool5/7x7_s1
I0403 11:13:29.088558 31624 net.cpp:399] loss3/classifier_plantvillage -> loss3/classifier_plantvillage
I0403 11:13:29.088912 31624 net.cpp:141] Setting up loss3/classifier_plantvillage
I0403 11:13:29.088938 31624 net.cpp:148] Top shape: 24 38 (912)
I0403 11:13:29.088954 31624 net.cpp:156] Memory required for data: 1346064384
I0403 11:13:29.088994 31624 layer_factory.hpp:77] Creating layer loss3/classifier_plantvillage_loss3/classifier_plantvillage_0_split
I0403 11:13:29.089016 31624 net.cpp:91] Creating Layer loss3/classifier_plantvillage_loss3/classifier_plantvillage_0_split
I0403 11:13:29.089033 31624 net.cpp:425] loss3/classifier_plantvillage_loss3/classifier_plantvillage_0_split <- loss3/classifier_plantvillage
I0403 11:13:29.089052 31624 net.cpp:399] loss3/classifier_plantvillage_loss3/classifier_plantvillage_0_split -> loss3/classifier_plantvillage_loss3/classifier_plantvillage_0_split_0
I0403 11:13:29.089074 31624 net.cpp:399] loss3/classifier_plantvillage_loss3/classifier_plantvillage_0_split -> loss3/classifier_plantvillage_loss3/classifier_plantvillage_0_split_1
I0403 11:13:29.089097 31624 net.cpp:399] loss3/classifier_plantvillage_loss3/classifier_plantvillage_0_split -> loss3/classifier_plantvillage_loss3/classifier_plantvillage_0_split_2
I0403 11:13:29.089164 31624 net.cpp:141] Setting up loss3/classifier_plantvillage_loss3/classifier_plantvillage_0_split
I0403 11:13:29.089189 31624 net.cpp:148] Top shape: 24 38 (912)
I0403 11:13:29.089205 31624 net.cpp:148] Top shape: 24 38 (912)
I0403 11:13:29.089222 31624 net.cpp:148] Top shape: 24 38 (912)
I0403 11:13:29.089236 31624 net.cpp:156] Memory required for data: 1346075328
I0403 11:13:29.089251 31624 layer_factory.hpp:77] Creating layer loss1/loss
I0403 11:13:29.089273 31624 net.cpp:91] Creating Layer loss1/loss
I0403 11:13:29.089292 31624 net.cpp:425] loss1/loss <- loss1/classifier_plantvillage_loss1/classifier_plantvillage_0_split_0
I0403 11:13:29.089308 31624 net.cpp:425] loss1/loss <- label_data_1_split_0
…
