…
I0403 09:57:21.698477 31906 net.cpp:313] The NetState phase (0) differed from the phase (1) specified by a rule in layer loss3/top-5
I0403 09:57:21.702224 31906 net.cpp:49] Initializing net from parameters: 
state {
  phase: TRAIN
}
layer {
  name: "data"
  type: "Data"
  top: "data"
  top: "label"
  include {
    phase: TRAIN
  }
  transform_param {
    mirror: true
    crop_size: 224
    mean_file: "/home/mohanty/data/final_dataset/lmdb/grayscale-80-20/mean.binaryproto"
  }
  data_param {
    source: "/home/mohanty/data/final_dataset/lmdb/grayscale-80-20/train_db"
    batch_size: 24
    backend: LMDB
  }
}
layer {
  name: "conv1/7x7_s2"
  type: "Convolution"
  bottom: "data"
  top: "conv1/7x7_s2"
  param {
    lr_mult: 1
    decay_mult: 1
  }
  param {
    lr_mult: 2
    decay_mult: 0
  }
  convolution_param {
    num_output: 64
    pad: 3
    kernel_size: 7
    stride: 2
    weight_filler {
      type: "xavier"
      std: 0.1
    }
    bias_filler {
      type: "constant"
      value: 0.2
    }
  }
}
layer {
  name: "conv1/relu_7x7"
  type: "ReLU"
  bottom: "conv1/7x7_s2"
  top: "conv1/7x7_s2"
}
layer {
  name: "pool1/3x3_s2"
  type: "Pooling"
  bottom: "conv1/7x7_s2"
  top: "pool1/3x3_s2"
  pooling_param {
    pool: MAX
    kernel_size: 3
    stride: 2
  }
}
layer {
  name: "pool1/norm1"
  type: "LRN"
  bottom: "pool1/3x3_s2"
  top: "pool1/norm1"
  lrn_param {
    local_size: 5
    alpha: 0.0001
    beta: 0.75
  }
}
layer {
  name: "conv2/3x3_reduce"
  type: "Convolution"
  bottom: "pool1/norm1"
  top: "conv2/3x3_reduce"
  param {
    lr_mult: 1
    decay_mult: 1
  }
  param {
    lr_mult: 2
    decay_mult: 0
  }
  convolution_param {
    num_output: 64
    kernel_size: 1
    weight_filler {
      type: "xavier"
      std: 0.1
    }
    bias_filler {
      type: "constant"
      value: 0.2
    }
  }
}
layer {
  name: "conv2/relu_3x3_reduce"
  type: "ReLU"
  bottom: "conv2/3x3_reduce"
  top: "conv2/3x3_reduce"
}
layer {
  name: "conv2/3x3"
  type: "Convolution"
  bottom: "conv2/3x3_reduce"
  top: "conv2/3x3"
  param {
    lr_mult: 1
    decay_mult: 1
  }
  param {
    lr_mult: 2
    decay_mult: 0
  }
  convolution_param {
    num_output: 192
    pad: 1
    kernel_size: 3
    weight_filler {
      type: "xavier"
      std: 0.03
    }
    bias_filler {
      type: "constant"
      value: 0.2
    }
  }
}
layer {
  name: "conv2/relu_3x3"
  type: "ReLU"
  bottom: "conv2/3x3"
  top: "conv2/3x3"
}
layer {
  name: "conv2/norm2"
  type: "LRN"
  bottom: "conv2/3x3"
  top: "conv2/norm2"
  lrn_param {
    local_size: 5
    alpha: 0.0001
    beta: 0.75
  }
}
layer {
  name: "pool2/3x3_s2"
  type: "Pooling"
  bottom: "conv2/norm2"
  top: "pool2/3x3_s2"
  pooling_param {
    pool: MAX
    kernel_size: 3
    stride: 2
  }
}
layer {
  name: "inception_3a/1x1"
  type: "Convolution"
  bottom: "pool2/3x3_s2"
  top: "inception_3a/1x1"
  param {
    lr_mult: 1
    decay_mult: 1
  }
  param {
    lr_mult: 2
    decay_mult: 0
  }
  convolution_param {
    num_output: 64
    kernel_size: 1
    weight_filler {
      type: "xavier"
      std: 0.03
    }
    bias_filler {
      type: "constant"
      value: 0.2
    }
  }
}
layer {
  name: "inception_3a/relu_1x1"
  type: "ReLU"
  bottom: "inception_3a/1x1"
  top: "inception_3a/1x1"
}
layer {
  name: "inception_3a/3x3_reduce"
  type: "Convolution"
  bottom: "pool2/3x3_s2"
  top: "inception_3a/3x3_reduce"
  param {
    lr_mult: 1
    decay_mult: 1
  }
  param {
    lr_mult: 2
    decay_mult: 0
  }
  convolution_param {
    num_output: 96
    kernel_size: 1
    weight_filler {
      type: "xavier"
      std: 0.09
    }
    bias_filler {
      type: "constant"
      value: 0.2
    }
  }
}
layer {
  name: "inception_3a/relu_3x3_reduce"
  type: "ReLU"
  bottom: "inception_3a/3x3_reduce"
  top: "inception_3a/3x3_reduce"
}
layer {
  name: "inception_3a/3x3"
  type: "Convolution"
  bottom: "inception_3a/3x3_reduce"
  top: "inception_3a/3x3"
  param {
    lr_mult: 1
    decay_mult: 1
  }
  param {
    lr_mult: 2
    decay_mult: 0
  }
  convolution_param {
    num_output: 128
    pad: 1
    kernel_size: 3
    weight_filler {
      type: "xavier"
      std: 0.03
    }
    bias_filler {
      type: "constant"
      value: 0.2
    }
  }
}
layer {
  name: "inception_3a/relu_3x3"
  type: "ReLU"
  bottom: "inception_3a/3x3"
  top: "inception_3a/3x3"
}
layer {
  name: "inception_3a/5x5_reduce"
  type: "Convolution"
  bottom: "pool2/3x3_s2"
  top: "inception_3a/5x5_reduce"
  param {
    lr_mult: 1
    decay_mult: 1
  }
  param {
    lr_mult: 2
    decay_mult: 0
  }
  convolution_param {
    num_output: 16
    kernel_size: 1
    weight_filler {
      type: "xavier"
      std: 0.2
    }
    bias_filler {
      type: "constant"
      value: 0.2
    }
  }
}
layer {
  name: "inception_3a/relu_5x5_reduce"
  type: "ReLU"
  bottom: "inception_3a/5x5_reduce"
  top: "inception_3a/5x5_reduce"
}
layer {
  name: "inception_3a/5x5"
  type: "Convolution"
  bottom: "inception_3a/5x5_reduce"
  top: "inception_3a/5x5"
  param {
    lr_mult: 1
    decay_mult: 1
  }
  param {
    lr_mult: 2
    decay_mult: 0
  }
  convolution_param {
    num_output: 32
    pad: 2
    kernel_size: 5
    weight_filler {
      type: "xavier"
      std: 0.03
    }
    bias_filler {
      type: "constant"
      value: 0.2
    }
  }
}
layer {
  name: "inception_3a/relu_5x5"
  type: "ReLU"
  bottom: "inception_3a/5x5"
  top: "inception_3a/5x5"
}
layer {
  name: "inception_3a/pool"
  type: "Pooling"
  bottom: "pool2/3x3_s2"
  top: "inception_3a/pool"
  pooling_param {
    pool: MAX
    kernel_size: 3
    stride: 1
    pad: 1
  }
}
layer {
  name: "inception_3a/pool_proj"
  type: "Convolution"
  bottom: "inception_3a/pool"
  top: "inception_3a/pool_proj"
  param {
    lr_mult: 1
    decay_mult: 1
  }
  param {
    lr_mult: 2
    decay_mult: 0
  }
  convolution_param {
    num_output: 32
    kernel_size: 1
    weight_filler {
      type: "xavier"
      std: 0.1
    }
    bias_filler {
      type: "constant"
      value: 0.2
    }
  }
}
layer {
  name: "inception_3a/relu_pool_proj"
  type: "ReLU"
  bottom: "inception_3a/pool_proj"
  top: "inception_3a/pool_proj"
}
layer {
  name: "inception_3a/output"
  type: "Concat"
  bottom: "inception_3a/1x1"
  bottom: "inception_3a/3x3"
  bottom: "inception_3a/5x5"
  bottom: "inception_3a/pool_proj"
  top: "inception_3a/output"
}
layer {
  name: "inception_3b/1x1"
  type: "Convolution"
  bottom: "inception_3a/output"
  top: "inception_3b/1x1"
  param {
    lr_mult: 1
    decay_mult: 1
  }
  param {
    lr_mult: 2
    decay_mult: 0
  }
  convolution_param {
    num_output: 128
    kernel_size: 1
    weight_filler {
      type: "xavier"
      std: 0.03
    }
    bias_filler {
      type: "constant"
      value: 0.2
    }
  }
}
layer {
  name: "inception_3b/relu_1x1"
  type: "ReLU"
  bottom: "inception_3b/1x1"
  top: "inception_3b/1x1"
}
layer {
  name: "inception_3b/3x3_reduce"
  type: "Convolution"
  bottom: "inception_3a/output"
  top: "inception_3b/3x3_reduce"
  param {
    lr_mult: 1
    decay_mult: 1
  }
  param {
    lr_mult: 2
    decay_mult: 0
  }
  convolution_param {
    num_output: 128
    kernel_size: 1
    weight_filler {
      type: "xavier"
      std: 0.09
    }
    bias_filler {
      type: "constant"
      value: 0.2
    }
  }
}
layer {
  name: "inception_3b/relu_3x3_reduce"
  type: "ReLU"
  bottom: "inception_3b/3x3_reduce"
  top: "inception_3b/3x3_reduce"
}
layer {
  name: "inception_3b/3x3"
  type: "Convolution"
  bottom: "inception_3b/3x3_reduce"
  top: "inception_3b/3x3"
  param {
    lr_mult: 1
    decay_mult: 1
  }
  param {
    lr_mult: 2
    decay_mult: 0
  }
  convolution_param {
    num_output: 192
    pad: 1
    kernel_size: 3
    weight_filler {
      type: "xavier"
      std: 0.03
    }
    bias_filler {
      type: "constant"
      value: 0.2
    }
  }
}
layer {
  name: "inception_3b/relu_3x3"
  type: "ReLU"
  bottom: "inception_3b/3x3"
  top: "inception_3b/3x3"
}
layer {
  name: "inception_3b/5x5_reduce"
  type: "Convolution"
  bottom: "inception_3a/output"
  top: "inception_3b/5x5_reduce"
  param {
    lr_mult: 1
    decay_mult: 1
  }
  param {
    lr_mult: 2
    decay_mult: 0
  }
  convolution_param {
    num_output: 32
    kernel_size: 1
    weight_filler {
      type: "xavier"
      std: 0.2
    }
    bias_filler {
      type: "constant"
      value: 0.2
    }
  }
}
layer {
  name: "inception_3b/relu_5x5_reduce"
  type: "ReLU"
  bottom: "inception_3b/5x5_reduce"
  top: "inception_3b/5x5_reduce"
}
layer {
  name: "inception_3b/5x5"
  type: "Convolution"
  bottom: "inception_3b/5x5_reduce"
  top: "inception_3b/5x5"
  param {
    lr_mult: 1
    decay_mult: 1
  }
  param {
    lr_mult: 2
    decay_mult: 0
  }
  convolution_param {
    num_output: 96
    pad: 2
    kernel_size: 5
    weight_filler {
      type: "xavier"
      std: 0.03
    }
    bias_filler {
      type: "constant"
      value: 0.2
    }
  }
}
layer {
  name: "inception_3b/relu_5x5"
  type: "ReLU"
  bottom: "inception_3b/5x5"
  top: "inception_3b/5x5"
}
layer {
  name: "inception_3b/pool"
  type: "Pooling"
  bottom: "inception_3a/output"
  top: "inception_3b/pool"
  pooling_param {
    pool: MAX
    kernel_size: 3
    stride: 1
    pad: 1
  }
}
layer {
  name: "inception_3b/pool_proj"
  type: "Convolution"
  bottom: "inception_3b/pool"
  top: "inception_3b/pool_proj"
  param {
    lr_mult: 1
    decay_mult: 1
  }
  param {
    lr_mult: 2
    decay_mult: 0
  }
  convolution_param {
    num_output: 64
    kernel_size: 1
    weight_filler {
      type: "xavier"
      std: 0.1
    }
    bias_filler {
      type: "constant"
      value: 0.2
    }
  }
}
layer {
  name: "inception_3b/relu_pool_proj"
  type: "ReLU"
  bottom: "inception_3b/pool_proj"
  top: "inception_3b/pool_proj"
}
layer {
  name: "inception_3b/output"
  type: "Concat"
  bottom: "inception_3b/1x1"
  bottom: "inception_3b/3x3"
  bottom: "inception_3b/5x5"
  bottom: "inception_3b/pool_proj"
  top: "inception_3b/output"
}
layer {
  name: "pool3/3x3_s2"
  type: "Pooling"
  bottom: "inception_3b/output"
  top: "pool3/3x3_s2"
  pooling_param {
    pool: MAX
    kernel_size: 3
    stride: 2
  }
}
layer {
  name: "inception_4a/1x1"
  type: "Convolution"
  bottom: "pool3/3x3_s2"
  top: "inception_4a/1x1"
  param {
    lr_mult: 1
    decay_mult: 1
  }
  param {
    lr_mult: 2
    decay_mult: 0
  }
  convolution_param {
    num_output: 192
    kernel_size: 1
    weight_filler {
      type: "xavier"
      std: 0.03
    }
    bias_filler {
      type: "constant"
      value: 0.2
    }
  }
}
layer {
  name: "inception_4a/relu_1x1"
  type: "ReLU"
  bottom: "inception_4a/1x1"
  top: "inception_4a/1x1"
}
layer {
  name: "inception_4a/3x3_reduce"
  type: "Convolution"
  bottom: "pool3/3x3_s2"
  top: "inception_4a/3x3_reduce"
  param {
    lr_mult: 1
    decay_mult: 1
  }
  param {
    lr_mult: 2
    decay_mult: 0
  }
  convolution_param {
    num_output: 96
    kernel_size: 1
    weight_filler {
      type: "xavier"
      std: 0.09
    }
    bias_filler {
      type: "constant"
      value: 0.2
    }
  }
}
layer {
  name: "inception_4a/relu_3x3_reduce"
  type: "ReLU"
  bottom: "inception_4a/3x3_reduce"
  top: "inception_4a/3x3_reduce"
}
layer {
  name: "inception_4a/3x3"
  type: "Convolution"
  bottom: "inception_4a/3x3_reduce"
  top: "inception_4a/3x3"
  param {
    lr_mult: 1
    decay_mult: 1
  }
  param {
    lr_mult: 2
    decay_mult: 0
  }
  convolution_param {
    num_output: 208
    pad: 1
    kernel_size: 3
    weight_filler {
      type: "xavier"
      std: 0.03
    }
    bias_filler {
      type: "constant"
      value: 0.2
    }
  }
}
layer {
  name: "inception_4a/relu_3x3"
  type: "ReLU"
  bottom: "inception_4a/3x3"
  top: "inception_4a/3x3"
}
layer {
  name: "inception_4a/5x5_reduce"
  type: "Convolution"
  bottom: "pool3/3x3_s2"
  top: "inception_4a/5x5_reduce"
  param {
    lr_mult: 1
    decay_mult: 1
  }
  param {
    lr_mult: 2
    decay_mult: 0
  }
  convolution_param {
    num_output: 16
    kernel_size: 1
    weight_filler {
      type: "xavier"
      std: 0.2
    }
    bias_filler {
      type: "constant"
      value: 0.2
    }
  }
}
layer {
  name: "inception_4a/relu_5x5_reduce"
  type: "ReLU"
  bottom: "inception_4a/5x5_reduce"
  top: "inception_4a/5x5_reduce"
}
layer {
  name: "inception_4a/5x5"
  type: "Convolution"
  bottom: "inception_4a/5x5_reduce"
  top: "inception_4a/5x5"
  param {
    lr_mult: 1
    decay_mult: 1
  }
  param {
    lr_mult: 2
    decay_mult: 0
  }
  convolution_param {
    num_output: 48
    pad: 2
    kernel_size: 5
    weight_filler {
      type: "xavier"
      std: 0.03
    }
    bias_filler {
      type: "constant"
      value: 0.2
    }
  }
}
layer {
  name: "inception_4a/relu_5x5"
  type: "ReLU"
  bottom: "inception_4a/5x5"
  top: "inception_4a/5x5"
}
layer {
  name: "inception_4a/pool"
  type: "Pooling"
  bottom: "pool3/3x3_s2"
  top: "inception_4a/pool"
  pooling_param {
    pool: MAX
    kernel_size: 3
    stride: 1
    pad: 1
  }
}
layer {
  name: "inception_4a/pool_proj"
  type: "Convolution"
  bottom: "inception_4a/pool"
  top: "inception_4a/pool_proj"
  param {
    lr_mult: 1
    decay_mult: 1
  }
  param {
    lr_mult: 2
    decay_mult: 0
  }
  convolution_param {
    num_output: 64
    kernel_size: 1
    weight_filler {
      type: "xavier"
      std: 0.1
    }
    bias_filler {
      type: "constant"
      value: 0.2
    }
  }
}
layer {
  name: "inception_4a/relu_pool_proj"
  type: "ReLU"
  bottom: "inception_4a/pool_proj"
  top: "inception_4a/pool_proj"
}
layer {
  name: "inception_4a/output"
  type: "Concat"
  bottom: "inception_4a/1x1"
  bottom: "inception_4a/3x3"
  bottom: "inception_4a/5x5"
  bottom: "inception_4a/pool_proj"
  top: "inception_4a/output"
}
layer {
  name: "loss1/ave_pool"
  type: "Pooling"
  bottom: "inception_4a/output"
  top: "loss1/ave_pool"
  pooling_param {
    pool: AVE
    kernel_size: 5
    stride: 3
  }
}
layer {
  name: "loss1/conv"
  type: "Convolution"
  bottom: "loss1/ave_pool"
  top: "loss1/conv"
  param {
    lr_mult: 1
    decay_mult: 1
  }
  param {
    lr_mult: 2
    decay_mult: 0
  }
  convolution_param {
    num_output: 128
    kernel_size: 1
    weight_filler {
      type: "xavier"
      std: 0.08
    }
    bias_filler {
      type: "constant"
      value: 0.2
    }
  }
}
layer {
  name: "loss1/relu_conv"
  type: "ReLU"
  bottom: "loss1/conv"
  top: "loss1/conv"
}
layer {
  name: "loss1/fc"
  type: "InnerProduct"
  bottom: "loss1/conv"
  top: "loss1/fc"
  param {
    lr_mult: 1
    decay_mult: 1
  }
  param {
    lr_mult: 2
    decay_mult: 0
  }
  inner_product_param {
    num_output: 1024
    weight_filler {
      type: "xavier"
      std: 0.02
    }
    bias_filler {
      type: "constant"
      value: 0.2
    }
  }
}
layer {
  name: "loss1/relu_fc"
  type: "ReLU"
  bottom: "loss1/fc"
  top: "loss1/fc"
}
layer {
  name: "loss1/drop_fc"
  type: "Dropout"
  bottom: "loss1/fc"
  top: "loss1/fc"
  dropout_param {
    dropout_ratio: 0.7
  }
}
layer {
  name: "loss1/classifier_plantvillage"
  type: "InnerProduct"
  bottom: "loss1/fc"
  top: "loss1/classifier_plantvillage"
  param {
    lr_mult: 1
    decay_mult: 1
  }
  param {
    lr_mult: 2
    decay_mult: 0
  }
  inner_product_param {
    num_output: 38
    weight_filler {
      type: "xavier"
      std: 0.0009765625
    }
    bias_filler {
      type: "constant"
      value: 0
    }
  }
}
layer {
  name: "inception_4b/1x1"
  type: "Convolution"
  bottom: "inception_4a/output"
  top: "inception_4b/1x1"
  param {
    lr_mult: 1
    decay_mult: 1
  }
  param {
    lr_mult: 2
    decay_mult: 0
  }
  convolution_param {
    num_output: 160
    kernel_size: 1
    weight_filler {
      type: "xavier"
      std: 0.03
    }
    bias_filler {
      type: "constant"
      value: 0.2
    }
  }
}
layer {
  name: "inception_4b/relu_1x1"
  type: "ReLU"
  bottom: "inception_4b/1x1"
  top: "inception_4b/1x1"
}
layer {
  name: "inception_4b/3x3_reduce"
  type: "Convolution"
  bottom: "inception_4a/output"
  top: "inception_4b/3x3_reduce"
  param {
    lr_mult: 1
    decay_mult: 1
  }
  param {
    lr_mult: 2
    decay_mult: 0
  }
  convolution_param {
    num_output: 112
    kernel_size: 1
    weight_filler {
      type: "xavier"
      std: 0.09
    }
    bias_filler {
      type: "constant"
      value: 0.2
    }
  }
}
layer {
  name: "inception_4b/relu_3x3_reduce"
  type: "ReLU"
  bottom: "inception_4b/3x3_reduce"
  top: "inception_4b/3x3_reduce"
}
layer {
  name: "inception_4b/3x3"
  type: "Convolution"
  bottom: "inception_4b/3x3_reduce"
  top: "inception_4b/3x3"
  param {
    lr_mult: 1
    decay_mult: 1
  }
  param {
    lr_mult: 2
    decay_mult: 0
  }
  convolution_param {
    num_output: 224
    pad: 1
    kernel_size: 3
    weight_filler {
      type: "xavier"
      std: 0.03
    }
    bias_filler {
      type: "constant"
      value: 0.2
    }
  }
}
layer {
  name: "inception_4b/relu_3x3"
  type: "ReLU"
  bottom: "inception_4b/3x3"
  top: "inception_4b/3x3"
}
layer {
  name: "inception_4b/5x5_reduce"
  type: "Convolution"
  bottom: "inception_4a/output"
  top: "inception_4b/5x5_reduce"
  param {
    lr_mult: 1
    decay_mult: 1
  }
  param {
    lr_mult: 2
    decay_mult: 0
  }
  convolution_param {
    num_output: 24
    kernel_size: 1
    weight_filler {
      type: "xavier"
      std: 0.2
    }
    bias_filler {
      type: "constant"
      value: 0.2
    }
  }
}
layer {
  name: "inception_4b/relu_5x5_reduce"
  type: "ReLU"
  bottom: "inception_4b/5x5_reduce"
  top: "inception_4b/5x5_reduce"
}
layer {
  name: "inception_4b/5x5"
  type: "Convolution"
  bottom: "inception_4b/5x5_reduce"
  top: "inception_4b/5x5"
  param {
    lr_mult: 1
    decay_mult: 1
  }
  param {
    lr_mult: 2
    decay_mult: 0
  }
  convolution_param {
    num_output: 64
    pad: 2
    kernel_size: 5
    weight_filler {
      type: "xavier"
      std: 0.03
    }
    bias_filler {
      type: "constant"
      value: 0.2
    }
  }
}
layer {
  name: "inception_4b/relu_5x5"
  type: "ReLU"
  bottom: "inception_4b/5x5"
  top: "inception_4b/5x5"
}
layer {
  name: "inception_4b/pool"
  type: "Pooling"
  bottom: "inception_4a/output"
  top: "inception_4b/pool"
  pooling_param {
    pool: MAX
    kernel_size: 3
    stride: 1
    pad: 1
  }
}
layer {
  name: "inception_4b/pool_proj"
  type: "Convolution"
  bottom: "inception_4b/pool"
  top: "inception_4b/pool_proj"
  param {
    lr_mult: 1
    decay_mult: 1
  }
  param {
    lr_mult: 2
    decay_mult: 0
  }
  convolution_param {
    num_output: 64
    kernel_size: 1
    weight_filler {
      type: "xavier"
      std: 0.1
    }
    bias_filler {
      type: "constant"
      value: 0.2
    }
  }
}
layer {
  name: "inception_4b/relu_pool_proj"
  type: "ReLU"
  bottom: "inception_4b/pool_proj"
  top: "inception_4b/pool_proj"
}
layer {
  name: "inception_4b/output"
  type: "Concat"
  bottom: "inception_4b/1x1"
  bottom: "inception_4b/3x3"
  bottom: "inception_4b/5x5"
  bottom: "inception_4b/pool_proj"
  top: "inception_4b/output"
}
layer {
  name: "inception_4c/1x1"
  type: "Convolution"
  bottom: "inception_4b/output"
  top: "inception_4c/1x1"
  param {
    lr_mult: 1
    decay_mult: 1
  }
  param {
    lr_mult: 2
    decay_mult: 0
  }
  convolution_param {
    num_output: 128
    kernel_size: 1
    weight_filler {
      type: "xavier"
      std: 0.03
    }
    bias_filler {
      type: "constant"
      value: 0.2
    }
  }
}
layer {
  name: "inception_4c/relu_1x1"
  type: "ReLU"
  bottom: "inception_4c/1x1"
  top: "inception_4c/1x1"
}
layer {
  name: "inception_4c/3x3_reduce"
  type: "Convolution"
  bottom: "inception_4b/output"
  top: "inception_4c/3x3_reduce"
  param {
    lr_mult: 1
    decay_mult: 1
  }
  param {
    lr_mult: 2
    decay_mult: 0
  }
  convolution_param {
    num_output: 128
    kernel_size: 1
    weight_filler {
      type: "xavier"
      std: 0.09
    }
    bias_filler {
      type: "constant"
      value: 0.2
    }
  }
}
layer {
  name: "inception_4c/relu_3x3_reduce"
  type: "ReLU"
  bottom: "inception_4c/3x3_reduce"
  top: "inception_4c/3x3_reduce"
}
layer {
  name: "inception_4c/3x3"
  type: "Convolution"
  bottom: "inception_4c/3x3_reduce"
  top: "inception_4c/3x3"
  param {
    lr_mult: 1
    decay_mult: 1
  }
  param {
    lr_mult: 2
    decay_mult: 0
  }
  convolution_param {
    num_output: 256
    pad: 1
    kernel_size: 3
    weight_filler {
      type: "xavier"
      std: 0.03
    }
    bias_filler {
      type: "constant"
      value: 0.2
    }
  }
}
layer {
  name: "inception_4c/relu_3x3"
  type: "ReLU"
  bottom: "inception_4c/3x3"
  top: "inception_4c/3x3"
}
layer {
  name: "inception_4c/5x5_reduce"
  type: "Convolution"
  bottom: "inception_4b/output"
  top: "inception_4c/5x5_reduce"
  param {
    lr_mult: 1
    decay_mult: 1
  }
  param {
    lr_mult: 2
    decay_mult: 0
  }
  convolution_param {
    num_output: 24
    kernel_size: 1
    weight_filler {
      type: "xavier"
      std: 0.2
    }
    bias_filler {
      type: "constant"
      value: 0.2
    }
  }
}
layer {
  name: "inception_4c/relu_5x5_reduce"
  type: "ReLU"
  bottom: "inception_4c/5x5_reduce"
  top: "inception_4c/5x5_reduce"
}
layer {
  name: "inception_4c/5x5"
  type: "Convolution"
  bottom: "inception_4c/5x5_reduce"
  top: "inception_4c/5x5"
  param {
    lr_mult: 1
    decay_mult: 1
  }
  param {
    lr_mult: 2
    decay_mult: 0
  }
  convolution_param {
    num_output: 64
    pad: 2
    kernel_size: 5
    weight_filler {
      type: "xavier"
      std: 0.03
    }
    bias_filler {
      type: "constant"
      value: 0.2
    }
  }
}
layer {
  name: "inception_4c/relu_5x5"
  type: "ReLU"
  bottom: "inception_4c/5x5"
  top: "inception_4c/5x5"
}
layer {
  name: "inception_4c/pool"
  type: "Pooling"
  bottom: "inception_4b/output"
  top: "inception_4c/pool"
  pooling_param {
    pool: MAX
    kernel_size: 3
    stride: 1
    pad: 1
  }
}
layer {
  name: "inception_4c/pool_proj"
  type: "Convolution"
  bottom: "inception_4c/pool"
  top: "inception_4c/pool_proj"
  param {
    lr_mult: 1
    decay_mult: 1
  }
  param {
    lr_mult: 2
    decay_mult: 0
  }
  convolution_param {
    num_output: 64
    kernel_size: 1
    weight_filler {
      type: "xavier"
      std: 0.1
    }
    bias_filler {
      type: "constant"
      value: 0.2
    }
  }
}
layer {
  name: "inception_4c/relu_pool_proj"
  type: "ReLU"
  bottom: "inception_4c/pool_proj"
  top: "inception_4c/pool_proj"
}
layer {
  name: "inception_4c/output"
  type: "Concat"
  bottom: "inception_4c/1x1"
  bottom: "inception_4c/3x3"
  bottom: "inception_4c/5x5"
  bottom: "inception_4c/pool_proj"
  top: "inception_4c/output"
}
layer {
  name: "inception_4d/1x1"
  type: "Convolution"
  bottom: "inception_4c/output"
  top: "inception_4d/1x1"
  param {
    lr_mult: 1
    decay_mult: 1
  }
  param {
    lr_mult: 2
    decay_mult: 0
  }
  convolution_param {
    num_output: 112
    kernel_size: 1
    weight_filler {
      type: "xavier"
      std: 0.03
    }
    bias_filler {
      type: "constant"
      value: 0.2
    }
  }
}
layer {
  name: "inception_4d/relu_1x1"
  type: "ReLU"
  bottom: "inception_4d/1x1"
  top: "inception_4d/1x1"
}
layer {
  name: "inception_4d/3x3_reduce"
  type: "Convolution"
  bottom: "inception_4c/output"
  top: "inception_4d/3x3_reduce"
  param {
    lr_mult: 1
    decay_mult: 1
  }
  param {
    lr_mult: 2
    decay_mult: 0
  }
  convolution_param {
    num_output: 144
    kernel_size: 1
    weight_filler {
      type: "xavier"
      std: 0.09
    }
    bias_filler {
      type: "constant"
      value: 0.2
    }
  }
}
layer {
  name: "inception_4d/relu_3x3_reduce"
  type: "ReLU"
  bottom: "inception_4d/3x3_reduce"
  top: "inception_4d/3x3_reduce"
}
layer {
  name: "inception_4d/3x3"
  type: "Convolution"
  bottom: "inception_4d/3x3_reduce"
  top: "inception_4d/3x3"
  param {
    lr_mult: 1
    decay_mult: 1
  }
  param {
    lr_mult: 2
    decay_mult: 0
  }
  convolution_param {
    num_output: 288
    pad: 1
    kernel_size: 3
    weight_filler {
      type: "xavier"
      std: 0.03
    }
    bias_filler {
      type: "constant"
      value: 0.2
    }
  }
}
layer {
  name: "inception_4d/relu_3x3"
  type: "ReLU"
  bottom: "inception_4d/3x3"
  top: "inception_4d/3x3"
}
layer {
  name: "inception_4d/5x5_reduce"
  type: "Convolution"
  bottom: "inception_4c/output"
  top: "inception_4d/5x5_reduce"
  param {
    lr_mult: 1
    decay_mult: 1
  }
  param {
    lr_mult: 2
    decay_mult: 0
  }
  convolution_param {
    num_output: 32
    kernel_size: 1
    weight_filler {
      type: "xavier"
      std: 0.2
    }
    bias_filler {
      type: "constant"
      value: 0.2
    }
  }
}
layer {
  name: "inception_4d/relu_5x5_reduce"
  type: "ReLU"
  bottom: "inception_4d/5x5_reduce"
  top: "inception_4d/5x5_reduce"
}
layer {
  name: "inception_4d/5x5"
  type: "Convolution"
  bottom: "inception_4d/5x5_reduce"
  top: "inception_4d/5x5"
  param {
    lr_mult: 1
    decay_mult: 1
  }
  param {
    lr_mult: 2
    decay_mult: 0
  }
  convolution_param {
    num_output: 64
    pad: 2
    kernel_size: 5
    weight_filler {
      type: "xavier"
      std: 0.03
    }
    bias_filler {
      type: "constant"
      value: 0.2
    }
  }
}
layer {
  name: "inception_4d/relu_5x5"
  type: "ReLU"
  bottom: "inception_4d/5x5"
  top: "inception_4d/5x5"
}
layer {
  name: "inception_4d/pool"
  type: "Pooling"
  bottom: "inception_4c/output"
  top: "inception_4d/pool"
  pooling_param {
    pool: MAX
    kernel_size: 3
    stride: 1
    pad: 1
  }
}
layer {
  name: "inception_4d/pool_proj"
  type: "Convolution"
  bottom: "inception_4d/pool"
  top: "inception_4d/pool_proj"
  param {
    lr_mult: 1
    decay_mult: 1
  }
  param {
    lr_mult: 2
    decay_mult: 0
  }
  convolution_param {
    num_output: 64
    kernel_size: 1
    weight_filler {
      type: "xavier"
      std: 0.1
    }
    bias_filler {
      type: "constant"
      value: 0.2
    }
  }
}
layer {
  name: "inception_4d/relu_pool_proj"
  type: "ReLU"
  bottom: "inception_4d/pool_proj"
  top: "inception_4d/pool_proj"
}
layer {
  name: "inception_4d/output"
  type: "Concat"
  bottom: "inception_4d/1x1"
  bottom: "inception_4d/3x3"
  bottom: "inception_4d/5x5"
  bottom: "inception_4d/pool_proj"
  top: "inception_4d/output"
}
layer {
  name: "loss2/ave_pool"
  type: "Pooling"
  bottom: "inception_4d/output"
  top: "loss2/ave_pool"
  pooling_param {
    pool: AVE
    kernel_size: 5
    stride: 3
  }
}
layer {
  name: "loss2/conv"
  type: "Convolution"
  bottom: "loss2/ave_pool"
  top: "loss2/conv"
  param {
    lr_mult: 1
    decay_mult: 1
  }
  param {
    lr_mult: 2
    decay_mult: 0
  }
  convolution_param {
    num_output: 128
    kernel_size: 1
    weight_filler {
      type: "xavier"
      std: 0.08
    }
    bias_filler {
      type: "constant"
      value: 0.2
    }
  }
}
layer {
  name: "loss2/relu_conv"
  type: "ReLU"
  bottom: "loss2/conv"
  top: "loss2/conv"
}
layer {
  name: "loss2/fc"
  type: "InnerProduct"
  bottom: "loss2/conv"
  top: "loss2/fc"
  param {
    lr_mult: 1
    decay_mult: 1
  }
  param {
    lr_mult: 2
    decay_mult: 0
  }
  inner_product_param {
    num_output: 1024
    weight_filler {
      type: "xavier"
      std: 0.02
    }
    bias_filler {
      type: "constant"
      value: 0.2
    }
  }
}
layer {
  name: "loss2/relu_fc"
  type: "ReLU"
  bottom: "loss2/fc"
  top: "loss2/fc"
}
layer {
  name: "loss2/drop_fc"
  type: "Dropout"
  bottom: "loss2/fc"
  top: "loss2/fc"
  dropout_param {
    dropout_ratio: 0.7
  }
}
layer {
  name: "loss2/classifier_plantvillage"
  type: "InnerProduct"
  bottom: "loss2/fc"
  top: "loss2/classifier_plantvillage"
  param {
    lr_mult: 1
    decay_mult: 1
  }
  param {
    lr_mult: 2
    decay_mult: 0
  }
  inner_product_param {
    num_output: 38
    weight_filler {
      type: "xavier"
      std: 0.0009765625
    }
    bias_filler {
      type: "constant"
      value: 0
    }
  }
}
layer {
  name: "inception_4e/1x1"
  type: "Convolution"
  bottom: "inception_4d/output"
  top: "inception_4e/1x1"
  param {
    lr_mult: 1
    decay_mult: 1
  }
  param {
    lr_mult: 2
    decay_mult: 0
  }
  convolution_param {
    num_output: 256
    kernel_size: 1
    weight_filler {
      type: "xavier"
      std: 0.03
    }
    bias_filler {
      type: "constant"
      value: 0.2
    }
  }
}
layer {
  name: "inception_4e/relu_1x1"
  type: "ReLU"
  bottom: "inception_4e/1x1"
  top: "inception_4e/1x1"
}
layer {
  name: "inception_4e/3x3_reduce"
  type: "Convolution"
  bottom: "inception_4d/output"
  top: "inception_4e/3x3_reduce"
  param {
    lr_mult: 1
    decay_mult: 1
  }
  param {
    lr_mult: 2
    decay_mult: 0
  }
  convolution_param {
    num_output: 160
    kernel_size: 1
    weight_filler {
      type: "xavier"
      std: 0.09
    }
    bias_filler {
      type: "constant"
      value: 0.2
    }
  }
}
layer {
  name: "inception_4e/relu_3x3_reduce"
  type: "ReLU"
  bottom: "inception_4e/3x3_reduce"
  top: "inception_4e/3x3_reduce"
}
layer {
  name: "inception_4e/3x3"
  type: "Convolution"
  bottom: "inception_4e/3x3_reduce"
  top: "inception_4e/3x3"
  param {
    lr_mult: 1
    decay_mult: 1
  }
  param {
    lr_mult: 2
    decay_mult: 0
  }
  convolution_param {
    num_output: 320
    pad: 1
    kernel_size: 3
    weight_filler {
      type: "xavier"
      std: 0.03
    }
    bias_filler {
      type: "constant"
      value: 0.2
    }
  }
}
layer {
  name: "inception_4e/relu_3x3"
  type: "ReLU"
  bottom: "inception_4e/3x3"
  top: "inception_4e/3x3"
}
layer {
  name: "inception_4e/5x5_reduce"
  type: "Convolution"
  bottom: "inception_4d/output"
  top: "inception_4e/5x5_reduce"
  param {
    lr_mult: 1
    decay_mult: 1
  }
  param {
    lr_mult: 2
    decay_mult: 0
  }
  convolution_param {
    num_output: 32
    kernel_size: 1
    weight_filler {
      type: "xavier"
      std: 0.2
    }
    bias_filler {
      type: "constant"
      value: 0.2
    }
  }
}
layer {
  name: "inception_4e/relu_5x5_reduce"
  type: "ReLU"
  bottom: "inception_4e/5x5_reduce"
  top: "inception_4e/5x5_reduce"
}
layer {
  name: "inception_4e/5x5"
  type: "Convolution"
  bottom: "inception_4e/5x5_reduce"
  top: "inception_4
I0403 09:57:21.703289 31906 layer_factory.hpp:77] Creating layer data
I0403 09:57:21.703914 31906 net.cpp:91] Creating Layer data
I0403 09:57:21.703955 31906 net.cpp:399] data -> data
I0403 09:57:21.704010 31906 net.cpp:399] data -> label
I0403 09:57:21.704047 31906 data_transformer.cpp:25] Loading mean file from: /home/mohanty/data/final_dataset/lmdb/grayscale-80-20/mean.binaryproto
I0403 09:57:21.747848 31911 db_lmdb.cpp:38] Opened lmdb /home/mohanty/data/final_dataset/lmdb/grayscale-80-20/train_db
I0403 09:57:21.752079 31906 data_layer.cpp:41] output data size: 24,3,224,224
I0403 09:57:21.781477 31906 net.cpp:141] Setting up data
I0403 09:57:21.781553 31906 net.cpp:148] Top shape: 24 3 224 224 (3612672)
I0403 09:57:21.781577 31906 net.cpp:148] Top shape: 24 (24)
I0403 09:57:21.781594 31906 net.cpp:156] Memory required for data: 14450784
I0403 09:57:21.781677 31906 layer_factory.hpp:77] Creating layer label_data_1_split
I0403 09:57:21.781710 31906 net.cpp:91] Creating Layer label_data_1_split
I0403 09:57:21.781733 31906 net.cpp:425] label_data_1_split <- label
I0403 09:57:21.781765 31906 net.cpp:399] label_data_1_split -> label_data_1_split_0
I0403 09:57:21.781795 31906 net.cpp:399] label_data_1_split -> label_data_1_split_1
I0403 09:57:21.781817 31906 net.cpp:399] label_data_1_split -> label_data_1_split_2
I0403 09:57:21.781884 31906 net.cpp:141] Setting up label_data_1_split
I0403 09:57:21.781910 31906 net.cpp:148] Top shape: 24 (24)
I0403 09:57:21.781927 31906 net.cpp:148] Top shape: 24 (24)
I0403 09:57:21.781944 31906 net.cpp:148] Top shape: 24 (24)
I0403 09:57:21.781960 31906 net.cpp:156] Memory required for data: 14451072
I0403 09:57:21.781975 31906 layer_factory.hpp:77] Creating layer conv1/7x7_s2
I0403 09:57:21.782011 31906 net.cpp:91] Creating Layer conv1/7x7_s2
I0403 09:57:21.782032 31906 net.cpp:425] conv1/7x7_s2 <- data
I0403 09:57:21.782052 31906 net.cpp:399] conv1/7x7_s2 -> conv1/7x7_s2
I0403 09:57:21.783033 31906 net.cpp:141] Setting up conv1/7x7_s2
I0403 09:57:21.783064 31906 net.cpp:148] Top shape: 24 64 112 112 (19267584)
I0403 09:57:21.783082 31906 net.cpp:156] Memory required for data: 91521408
I0403 09:57:21.783123 31906 layer_factory.hpp:77] Creating layer conv1/relu_7x7
I0403 09:57:21.783151 31906 net.cpp:91] Creating Layer conv1/relu_7x7
I0403 09:57:21.783172 31906 net.cpp:425] conv1/relu_7x7 <- conv1/7x7_s2
I0403 09:57:21.783191 31906 net.cpp:386] conv1/relu_7x7 -> conv1/7x7_s2 (in-place)
I0403 09:57:21.783215 31906 net.cpp:141] Setting up conv1/relu_7x7
I0403 09:57:21.783236 31906 net.cpp:148] Top shape: 24 64 112 112 (19267584)
I0403 09:57:21.783252 31906 net.cpp:156] Memory required for data: 168591744
I0403 09:57:21.783267 31906 layer_factory.hpp:77] Creating layer pool1/3x3_s2
I0403 09:57:21.783288 31906 net.cpp:91] Creating Layer pool1/3x3_s2
I0403 09:57:21.783306 31906 net.cpp:425] pool1/3x3_s2 <- conv1/7x7_s2
I0403 09:57:21.783326 31906 net.cpp:399] pool1/3x3_s2 -> pool1/3x3_s2
I0403 09:57:21.783390 31906 net.cpp:141] Setting up pool1/3x3_s2
I0403 09:57:21.783416 31906 net.cpp:148] Top shape: 24 64 56 56 (4816896)
I0403 09:57:21.783432 31906 net.cpp:156] Memory required for data: 187859328
I0403 09:57:21.783448 31906 layer_factory.hpp:77] Creating layer pool1/norm1
I0403 09:57:21.783469 31906 net.cpp:91] Creating Layer pool1/norm1
I0403 09:57:21.783486 31906 net.cpp:425] pool1/norm1 <- pool1/3x3_s2
I0403 09:57:21.783505 31906 net.cpp:399] pool1/norm1 -> pool1/norm1
I0403 09:57:21.783560 31906 net.cpp:141] Setting up pool1/norm1
I0403 09:57:21.783584 31906 net.cpp:148] Top shape: 24 64 56 56 (4816896)
I0403 09:57:21.783601 31906 net.cpp:156] Memory required for data: 207126912
I0403 09:57:21.783617 31906 layer_factory.hpp:77] Creating layer conv2/3x3_reduce
I0403 09:57:21.783640 31906 net.cpp:91] Creating Layer conv2/3x3_reduce
I0403 09:57:21.783658 31906 net.cpp:425] conv2/3x3_reduce <- pool1/norm1
I0403 09:57:21.783679 31906 net.cpp:399] conv2/3x3_reduce -> conv2/3x3_reduce
I0403 09:57:21.785979 31906 net.cpp:141] Setting up conv2/3x3_reduce
I0403 09:57:21.786018 31906 net.cpp:148] Top shape: 24 64 56 56 (4816896)
I0403 09:57:21.786036 31906 net.cpp:156] Memory required for data: 226394496
I0403 09:57:21.786061 31906 layer_factory.hpp:77] Creating layer conv2/relu_3x3_reduce
I0403 09:57:21.786082 31906 net.cpp:91] Creating Layer conv2/relu_3x3_reduce
I0403 09:57:21.786099 31906 net.cpp:425] conv2/relu_3x3_reduce <- conv2/3x3_reduce
I0403 09:57:21.786126 31906 net.cpp:386] conv2/relu_3x3_reduce -> conv2/3x3_reduce (in-place)
I0403 09:57:21.786149 31906 net.cpp:141] Setting up conv2/relu_3x3_reduce
I0403 09:57:21.786169 31906 net.cpp:148] Top shape: 24 64 56 56 (4816896)
I0403 09:57:21.786185 31906 net.cpp:156] Memory required for data: 245662080
I0403 09:57:21.786201 31906 layer_factory.hpp:77] Creating layer conv2/3x3
I0403 09:57:21.786226 31906 net.cpp:91] Creating Layer conv2/3x3
I0403 09:57:21.786244 31906 net.cpp:425] conv2/3x3 <- conv2/3x3_reduce
I0403 09:57:21.786285 31906 net.cpp:399] conv2/3x3 -> conv2/3x3
I0403 09:57:21.787700 31906 net.cpp:141] Setting up conv2/3x3
I0403 09:57:21.787732 31906 net.cpp:148] Top shape: 24 192 56 56 (14450688)
I0403 09:57:21.787750 31906 net.cpp:156] Memory required for data: 303464832
I0403 09:57:21.787773 31906 layer_factory.hpp:77] Creating layer conv2/relu_3x3
I0403 09:57:21.787771 31913 blocking_queue.cpp:50] Waiting for data
I0403 09:57:21.787796 31906 net.cpp:91] Creating Layer conv2/relu_3x3
I0403 09:57:21.787842 31906 net.cpp:425] conv2/relu_3x3 <- conv2/3x3
I0403 09:57:21.787863 31906 net.cpp:386] conv2/relu_3x3 -> conv2/3x3 (in-place)
I0403 09:57:21.787885 31906 net.cpp:141] Setting up conv2/relu_3x3
I0403 09:57:21.787905 31906 net.cpp:148] Top shape: 24 192 56 56 (14450688)
I0403 09:57:21.787921 31906 net.cpp:156] Memory required for data: 361267584
I0403 09:57:21.787937 31906 layer_factory.hpp:77] Creating layer conv2/norm2
I0403 09:57:21.787956 31906 net.cpp:91] Creating Layer conv2/norm2
I0403 09:57:21.787972 31906 net.cpp:425] conv2/norm2 <- conv2/3x3
I0403 09:57:21.787991 31906 net.cpp:399] conv2/norm2 -> conv2/norm2
I0403 09:57:21.788040 31906 net.cpp:141] Setting up conv2/norm2
I0403 09:57:21.788065 31906 net.cpp:148] Top shape: 24 192 56 56 (14450688)
I0403 09:57:21.788080 31906 net.cpp:156] Memory required for data: 419070336
I0403 09:57:21.788095 31906 layer_factory.hpp:77] Creating layer pool2/3x3_s2
I0403 09:57:21.788121 31906 net.cpp:91] Creating Layer pool2/3x3_s2
I0403 09:57:21.788141 31906 net.cpp:425] pool2/3x3_s2 <- conv2/norm2
I0403 09:57:21.788161 31906 net.cpp:399] pool2/3x3_s2 -> pool2/3x3_s2
I0403 09:57:21.788208 31906 net.cpp:141] Setting up pool2/3x3_s2
I0403 09:57:21.788231 31906 net.cpp:148] Top shape: 24 192 28 28 (3612672)
I0403 09:57:21.788247 31906 net.cpp:156] Memory required for data: 433521024
I0403 09:57:21.788262 31906 layer_factory.hpp:77] Creating layer pool2/3x3_s2_pool2/3x3_s2_0_split
I0403 09:57:21.788281 31906 net.cpp:91] Creating Layer pool2/3x3_s2_pool2/3x3_s2_0_split
I0403 09:57:21.788298 31906 net.cpp:425] pool2/3x3_s2_pool2/3x3_s2_0_split <- pool2/3x3_s2
I0403 09:57:21.788318 31906 net.cpp:399] pool2/3x3_s2_pool2/3x3_s2_0_split -> pool2/3x3_s2_pool2/3x3_s2_0_split_0
I0403 09:57:21.788341 31906 net.cpp:399] pool2/3x3_s2_pool2/3x3_s2_0_split -> pool2/3x3_s2_pool2/3x3_s2_0_split_1
I0403 09:57:21.788362 31906 net.cpp:399] pool2/3x3_s2_pool2/3x3_s2_0_split -> pool2/3x3_s2_pool2/3x3_s2_0_split_2
I0403 09:57:21.788383 31906 net.cpp:399] pool2/3x3_s2_pool2/3x3_s2_0_split -> pool2/3x3_s2_pool2/3x3_s2_0_split_3
I0403 09:57:21.788445 31906 net.cpp:141] Setting up pool2/3x3_s2_pool2/3x3_s2_0_split
I0403 09:57:21.788470 31906 net.cpp:148] Top shape: 24 192 28 28 (3612672)
I0403 09:57:21.788486 31906 net.cpp:148] Top shape: 24 192 28 28 (3612672)
I0403 09:57:21.788503 31906 net.cpp:148] Top shape: 24 192 28 28 (3612672)
I0403 09:57:21.788521 31906 net.cpp:148] Top shape: 24 192 28 28 (3612672)
I0403 09:57:21.788535 31906 net.cpp:156] Memory required for data: 491323776
I0403 09:57:21.788550 31906 layer_factory.hpp:77] Creating layer inception_3a/1x1
I0403 09:57:21.788573 31906 net.cpp:91] Creating Layer inception_3a/1x1
I0403 09:57:21.788592 31906 net.cpp:425] inception_3a/1x1 <- pool2/3x3_s2_pool2/3x3_s2_0_split_0
I0403 09:57:21.788612 31906 net.cpp:399] inception_3a/1x1 -> inception_3a/1x1
I0403 09:57:21.789436 31906 net.cpp:141] Setting up inception_3a/1x1
I0403 09:57:21.789468 31906 net.cpp:148] Top shape: 24 64 28 28 (1204224)
I0403 09:57:21.789484 31906 net.cpp:156] Memory required for data: 496140672
I0403 09:57:21.789505 31906 layer_factory.hpp:77] Creating layer inception_3a/relu_1x1
I0403 09:57:21.789525 31906 net.cpp:91] Creating Layer inception_3a/relu_1x1
I0403 09:57:21.789544 31906 net.cpp:425] inception_3a/relu_1x1 <- inception_3a/1x1
I0403 09:57:21.789564 31906 net.cpp:386] inception_3a/relu_1x1 -> inception_3a/1x1 (in-place)
I0403 09:57:21.789585 31906 net.cpp:141] Setting up inception_3a/relu_1x1
I0403 09:57:21.789603 31906 net.cpp:148] Top shape: 24 64 28 28 (1204224)
I0403 09:57:21.789635 31906 net.cpp:156] Memory required for data: 500957568
I0403 09:57:21.789654 31906 layer_factory.hpp:77] Creating layer inception_3a/3x3_reduce
I0403 09:57:21.789677 31906 net.cpp:91] Creating Layer inception_3a/3x3_reduce
I0403 09:57:21.789695 31906 net.cpp:425] inception_3a/3x3_reduce <- pool2/3x3_s2_pool2/3x3_s2_0_split_1
I0403 09:57:21.789716 31906 net.cpp:399] inception_3a/3x3_reduce -> inception_3a/3x3_reduce
I0403 09:57:21.790578 31906 net.cpp:141] Setting up inception_3a/3x3_reduce
I0403 09:57:21.790608 31906 net.cpp:148] Top shape: 24 96 28 28 (1806336)
I0403 09:57:21.790626 31906 net.cpp:156] Memory required for data: 508182912
I0403 09:57:21.790648 31906 layer_factory.hpp:77] Creating layer inception_3a/relu_3x3_reduce
I0403 09:57:21.790671 31906 net.cpp:91] Creating Layer inception_3a/relu_3x3_reduce
I0403 09:57:21.790690 31906 net.cpp:425] inception_3a/relu_3x3_reduce <- inception_3a/3x3_reduce
I0403 09:57:21.790712 31906 net.cpp:386] inception_3a/relu_3x3_reduce -> inception_3a/3x3_reduce (in-place)
I0403 09:57:21.790735 31906 net.cpp:141] Setting up inception_3a/relu_3x3_reduce
I0403 09:57:21.790753 31906 net.cpp:148] Top shape: 24 96 28 28 (1806336)
I0403 09:57:21.790769 31906 net.cpp:156] Memory required for data: 515408256
I0403 09:57:21.790786 31906 layer_factory.hpp:77] Creating layer inception_3a/3x3
I0403 09:57:21.790808 31906 net.cpp:91] Creating Layer inception_3a/3x3
I0403 09:57:21.790832 31906 net.cpp:425] inception_3a/3x3 <- inception_3a/3x3_reduce
I0403 09:57:21.790851 31906 net.cpp:399] inception_3a/3x3 -> inception_3a/3x3
I0403 09:57:21.791698 31906 net.cpp:141] Setting up inception_3a/3x3
I0403 09:57:21.791725 31906 net.cpp:148] Top shape: 24 128 28 28 (2408448)
I0403 09:57:21.791743 31906 net.cpp:156] Memory required for data: 525042048
I0403 09:57:21.791761 31906 layer_factory.hpp:77] Creating layer inception_3a/relu_3x3
I0403 09:57:21.791784 31906 net.cpp:91] Creating Layer inception_3a/relu_3x3
I0403 09:57:21.791801 31906 net.cpp:425] inception_3a/relu_3x3 <- inception_3a/3x3
I0403 09:57:21.791820 31906 net.cpp:386] inception_3a/relu_3x3 -> inception_3a/3x3 (in-place)
I0403 09:57:21.791841 31906 net.cpp:141] Setting up inception_3a/relu_3x3
I0403 09:57:21.791858 31906 net.cpp:148] Top shape: 24 128 28 28 (2408448)
I0403 09:57:21.791874 31906 net.cpp:156] Memory required for data: 534675840
I0403 09:57:21.791890 31906 layer_factory.hpp:77] Creating layer inception_3a/5x5_reduce
I0403 09:57:21.791914 31906 net.cpp:91] Creating Layer inception_3a/5x5_reduce
I0403 09:57:21.791934 31906 net.cpp:425] inception_3a/5x5_reduce <- pool2/3x3_s2_pool2/3x3_s2_0_split_2
I0403 09:57:21.791957 31906 net.cpp:399] inception_3a/5x5_reduce -> inception_3a/5x5_reduce
I0403 09:57:21.792198 31906 net.cpp:141] Setting up inception_3a/5x5_reduce
I0403 09:57:21.792225 31906 net.cpp:148] Top shape: 24 16 28 28 (301056)
I0403 09:57:21.792243 31906 net.cpp:156] Memory required for data: 535880064
I0403 09:57:21.792260 31906 layer_factory.hpp:77] Creating layer inception_3a/relu_5x5_reduce
I0403 09:57:21.792280 31906 net.cpp:91] Creating Layer inception_3a/relu_5x5_reduce
I0403 09:57:21.792299 31906 net.cpp:425] inception_3a/relu_5x5_reduce <- inception_3a/5x5_reduce
I0403 09:57:21.792317 31906 net.cpp:386] inception_3a/relu_5x5_reduce -> inception_3a/5x5_reduce (in-place)
I0403 09:57:21.792337 31906 net.cpp:141] Setting up inception_3a/relu_5x5_reduce
I0403 09:57:21.792357 31906 net.cpp:148] Top shape: 24 16 28 28 (301056)
I0403 09:57:21.792371 31906 net.cpp:156] Memory required for data: 537084288
I0403 09:57:21.792387 31906 layer_factory.hpp:77] Creating layer inception_3a/5x5
I0403 09:57:21.792412 31906 net.cpp:91] Creating Layer inception_3a/5x5
I0403 09:57:21.792430 31906 net.cpp:425] inception_3a/5x5 <- inception_3a/5x5_reduce
I0403 09:57:21.792459 31906 net.cpp:399] inception_3a/5x5 -> inception_3a/5x5
I0403 09:57:21.792742 31906 net.cpp:141] Setting up inception_3a/5x5
I0403 09:57:21.792769 31906 net.cpp:148] Top shape: 24 32 28 28 (602112)
I0403 09:57:21.792801 31906 net.cpp:156] Memory required for data: 539492736
I0403 09:57:21.792822 31906 layer_factory.hpp:77] Creating layer inception_3a/relu_5x5
I0403 09:57:21.792842 31906 net.cpp:91] Creating Layer inception_3a/relu_5x5
I0403 09:57:21.792860 31906 net.cpp:425] inception_3a/relu_5x5 <- inception_3a/5x5
I0403 09:57:21.792883 31906 net.cpp:386] inception_3a/relu_5x5 -> inception_3a/5x5 (in-place)
I0403 09:57:21.792906 31906 net.cpp:141] Setting up inception_3a/relu_5x5
I0403 09:57:21.792925 31906 net.cpp:148] Top shape: 24 32 28 28 (602112)
I0403 09:57:21.792940 31906 net.cpp:156] Memory required for data: 541901184
I0403 09:57:21.792956 31906 layer_factory.hpp:77] Creating layer inception_3a/pool
I0403 09:57:21.792975 31906 net.cpp:91] Creating Layer inception_3a/pool
I0403 09:57:21.792994 31906 net.cpp:425] inception_3a/pool <- pool2/3x3_s2_pool2/3x3_s2_0_split_3
I0403 09:57:21.793011 31906 net.cpp:399] inception_3a/pool -> inception_3a/pool
I0403 09:57:21.793064 31906 net.cpp:141] Setting up inception_3a/pool
I0403 09:57:21.793090 31906 net.cpp:148] Top shape: 24 192 28 28 (3612672)
I0403 09:57:21.793107 31906 net.cpp:156] Memory required for data: 556351872
I0403 09:57:21.793129 31906 layer_factory.hpp:77] Creating layer inception_3a/pool_proj
I0403 09:57:21.793154 31906 net.cpp:91] Creating Layer inception_3a/pool_proj
I0403 09:57:21.793174 31906 net.cpp:425] inception_3a/pool_proj <- inception_3a/pool
I0403 09:57:21.793197 31906 net.cpp:399] inception_3a/pool_proj -> inception_3a/pool_proj
I0403 09:57:21.793436 31906 net.cpp:141] Setting up inception_3a/pool_proj
I0403 09:57:21.793463 31906 net.cpp:148] Top shape: 24 32 28 28 (602112)
I0403 09:57:21.793479 31906 net.cpp:156] Memory required for data: 558760320
I0403 09:57:21.793504 31906 layer_factory.hpp:77] Creating layer inception_3a/relu_pool_proj
I0403 09:57:21.793525 31906 net.cpp:91] Creating Layer inception_3a/relu_pool_proj
I0403 09:57:21.793542 31906 net.cpp:425] inception_3a/relu_pool_proj <- inception_3a/pool_proj
I0403 09:57:21.793563 31906 net.cpp:386] inception_3a/relu_pool_proj -> inception_3a/pool_proj (in-place)
I0403 09:57:21.793586 31906 net.cpp:141] Setting up inception_3a/relu_pool_proj
I0403 09:57:21.793604 31906 net.cpp:148] Top shape: 24 32 28 28 (602112)
I0403 09:57:21.793619 31906 net.cpp:156] Memory required for data: 561168768
I0403 09:57:21.793635 31906 layer_factory.hpp:77] Creating layer inception_3a/output
I0403 09:57:21.793654 31906 net.cpp:91] Creating Layer inception_3a/output
I0403 09:57:21.793671 31906 net.cpp:425] inception_3a/output <- inception_3a/1x1
I0403 09:57:21.793689 31906 net.cpp:425] inception_3a/output <- inception_3a/3x3
I0403 09:57:21.793705 31906 net.cpp:425] inception_3a/output <- inception_3a/5x5
I0403 09:57:21.793722 31906 net.cpp:425] inception_3a/output <- inception_3a/pool_proj
I0403 09:57:21.793741 31906 net.cpp:399] inception_3a/output -> inception_3a/output
I0403 09:57:21.793788 31906 net.cpp:141] Setting up inception_3a/output
I0403 09:57:21.793814 31906 net.cpp:148] Top shape: 24 256 28 28 (4816896)
I0403 09:57:21.793830 31906 net.cpp:156] Memory required for data: 580436352
I0403 09:57:21.793846 31906 layer_factory.hpp:77] Creating layer inception_3a/output_inception_3a/output_0_split
I0403 09:57:21.793865 31906 net.cpp:91] Creating Layer inception_3a/output_inception_3a/output_0_split
I0403 09:57:21.793882 31906 net.cpp:425] inception_3a/output_inception_3a/output_0_split <- inception_3a/output
I0403 09:57:21.793905 31906 net.cpp:399] inception_3a/output_inception_3a/output_0_split -> inception_3a/output_inception_3a/output_0_split_0
I0403 09:57:21.793927 31906 net.cpp:399] inception_3a/output_inception_3a/output_0_split -> inception_3a/output_inception_3a/output_0_split_1
I0403 09:57:21.793951 31906 net.cpp:399] inception_3a/output_inception_3a/output_0_split -> inception_3a/output_inception_3a/output_0_split_2
I0403 09:57:21.793972 31906 net.cpp:399] inception_3a/output_inception_3a/output_0_split -> inception_3a/output_inception_3a/output_0_split_3
I0403 09:57:21.794042 31906 net.cpp:141] Setting up inception_3a/output_inception_3a/output_0_split
I0403 09:57:21.794080 31906 net.cpp:148] Top shape: 24 256 28 28 (4816896)
I0403 09:57:21.794100 31906 net.cpp:148] Top shape: 24 256 28 28 (4816896)
I0403 09:57:21.794123 31906 net.cpp:148] Top shape: 24 256 28 28 (4816896)
I0403 09:57:21.794142 31906 net.cpp:148] Top shape: 24 256 28 28 (4816896)
I0403 09:57:21.794155 31906 net.cpp:156] Memory required for data: 657506688
I0403 09:57:21.794172 31906 layer_factory.hpp:77] Creating layer inception_3b/1x1
I0403 09:57:21.794195 31906 net.cpp:91] Creating Layer inception_3b/1x1
I0403 09:57:21.794216 31906 net.cpp:425] inception_3b/1x1 <- inception_3a/output_inception_3a/output_0_split_0
I0403 09:57:21.794237 31906 net.cpp:399] inception_3b/1x1 -> inception_3b/1x1
I0403 09:57:21.794628 31906 net.cpp:141] Setting up inception_3b/1x1
I0403 09:57:21.794656 31906 net.cpp:148] Top shape: 24 128 28 28 (2408448)
I0403 09:57:21.794672 31906 net.cpp:156] Memory required for data: 667140480
I0403 09:57:21.794690 31906 layer_factory.hpp:77] Creating layer inception_3b/relu_1x1
I0403 09:57:21.794709 31906 net.cpp:91] Creating Layer inception_3b/relu_1x1
I0403 09:57:21.794728 31906 net.cpp:425] inception_3b/relu_1x1 <- inception_3b/1x1
I0403 09:57:21.794745 31906 net.cpp:386] inception_3b/relu_1x1 -> inception_3b/1x1 (in-place)
I0403 09:57:21.794770 31906 net.cpp:141] Setting up inception_3b/relu_1x1
I0403 09:57:21.794790 31906 net.cpp:148] Top shape: 24 128 28 28 (2408448)
I0403 09:57:21.794806 31906 net.cpp:156] Memory required for data: 676774272
I0403 09:57:21.794822 31906 layer_factory.hpp:77] Creating layer inception_3b/3x3_reduce
I0403 09:57:21.794843 31906 net.cpp:91] Creating Layer inception_3b/3x3_reduce
I0403 09:57:21.794865 31906 net.cpp:425] inception_3b/3x3_reduce <- inception_3a/output_inception_3a/output_0_split_1
I0403 09:57:21.794886 31906 net.cpp:399] inception_3b/3x3_reduce -> inception_3b/3x3_reduce
I0403 09:57:21.795284 31906 net.cpp:141] Setting up inception_3b/3x3_reduce
I0403 09:57:21.795311 31906 net.cpp:148] Top shape: 24 128 28 28 (2408448)
I0403 09:57:21.795328 31906 net.cpp:156] Memory required for data: 686408064
I0403 09:57:21.795347 31906 layer_factory.hpp:77] Creating layer inception_3b/relu_3x3_reduce
I0403 09:57:21.795369 31906 net.cpp:91] Creating Layer inception_3b/relu_3x3_reduce
I0403 09:57:21.795389 31906 net.cpp:425] inception_3b/relu_3x3_reduce <- inception_3b/3x3_reduce
I0403 09:57:21.795408 31906 net.cpp:386] inception_3b/relu_3x3_reduce -> inception_3b/3x3_reduce (in-place)
I0403 09:57:21.795428 31906 net.cpp:141] Setting up inception_3b/relu_3x3_reduce
I0403 09:57:21.795447 31906 net.cpp:148] Top shape: 24 128 28 28 (2408448)
I0403 09:57:21.795464 31906 net.cpp:156] Memory required for data: 696041856
I0403 09:57:21.795480 31906 layer_factory.hpp:77] Creating layer inception_3b/3x3
I0403 09:57:21.795507 31906 net.cpp:91] Creating Layer inception_3b/3x3
I0403 09:57:21.795528 31906 net.cpp:425] inception_3b/3x3 <- inception_3b/3x3_reduce
I0403 09:57:21.795549 31906 net.cpp:399] inception_3b/3x3 -> inception_3b/3x3
I0403 09:57:21.797610 31906 net.cpp:141] Setting up inception_3b/3x3
I0403 09:57:21.797641 31906 net.cpp:148] Top shape: 24 192 28 28 (3612672)
I0403 09:57:21.797657 31906 net.cpp:156] Memory required for data: 710492544
I0403 09:57:21.797677 31906 layer_factory.hpp:77] Creating layer inception_3b/relu_3x3
I0403 09:57:21.797696 31906 net.cpp:91] Creating Layer inception_3b/relu_3x3
I0403 09:57:21.797714 31906 net.cpp:425] inception_3b/relu_3x3 <- inception_3b/3x3
I0403 09:57:21.797736 31906 net.cpp:386] inception_3b/relu_3x3 -> inception_3b/3x3 (in-place)
I0403 09:57:21.797758 31906 net.cpp:141] Setting up inception_3b/relu_3x3
I0403 09:57:21.797777 31906 net.cpp:148] Top shape: 24 192 28 28 (3612672)
I0403 09:57:21.797792 31906 net.cpp:156] Memory required for data: 724943232
I0403 09:57:21.797807 31906 layer_factory.hpp:77] Creating layer inception_3b/5x5_reduce
I0403 09:57:21.797829 31906 net.cpp:91] Creating Layer inception_3b/5x5_reduce
I0403 09:57:21.797863 31906 net.cpp:425] inception_3b/5x5_reduce <- inception_3a/output_inception_3a/output_0_split_2
I0403 09:57:21.797888 31906 net.cpp:399] inception_3b/5x5_reduce -> inception_3b/5x5_reduce
I0403 09:57:21.798162 31906 net.cpp:141] Setting up inception_3b/5x5_reduce
I0403 09:57:21.798190 31906 net.cpp:148] Top shape: 24 32 28 28 (602112)
I0403 09:57:21.798207 31906 net.cpp:156] Memory required for data: 727351680
I0403 09:57:21.798226 31906 layer_factory.hpp:77] Creating layer inception_3b/relu_5x5_reduce
I0403 09:57:21.798248 31906 net.cpp:91] Creating Layer inception_3b/relu_5x5_reduce
I0403 09:57:21.798265 31906 net.cpp:425] inception_3b/relu_5x5_reduce <- inception_3b/5x5_reduce
I0403 09:57:21.798285 31906 net.cpp:386] inception_3b/relu_5x5_reduce -> inception_3b/5x5_reduce (in-place)
I0403 09:57:21.798308 31906 net.cpp:141] Setting up inception_3b/relu_5x5_reduce
I0403 09:57:21.798327 31906 net.cpp:148] Top shape: 24 32 28 28 (602112)
I0403 09:57:21.798343 31906 net.cpp:156] Memory required for data: 729760128
I0403 09:57:21.798359 31906 layer_factory.hpp:77] Creating layer inception_3b/5x5
I0403 09:57:21.798383 31906 net.cpp:91] Creating Layer inception_3b/5x5
I0403 09:57:21.798403 31906 net.cpp:425] inception_3b/5x5 <- inception_3b/5x5_reduce
I0403 09:57:21.798424 31906 net.cpp:399] inception_3b/5x5 -> inception_3b/5x5
I0403 09:57:21.799641 31906 net.cpp:141] Setting up inception_3b/5x5
I0403 09:57:21.799672 31906 net.cpp:148] Top shape: 24 96 28 28 (1806336)
I0403 09:57:21.799690 31906 net.cpp:156] Memory required for data: 736985472
I0403 09:57:21.799710 31906 layer_factory.hpp:77] Creating layer inception_3b/relu_5x5
I0403 09:57:21.799732 31906 net.cpp:91] Creating Layer inception_3b/relu_5x5
I0403 09:57:21.799751 31906 net.cpp:425] inception_3b/relu_5x5 <- inception_3b/5x5
I0403 09:57:21.799769 31906 net.cpp:386] inception_3b/relu_5x5 -> inception_3b/5x5 (in-place)
I0403 09:57:21.799789 31906 net.cpp:141] Setting up inception_3b/relu_5x5
I0403 09:57:21.799808 31906 net.cpp:148] Top shape: 24 96 28 28 (1806336)
I0403 09:57:21.799823 31906 net.cpp:156] Memory required for data: 744210816
I0403 09:57:21.799839 31906 layer_factory.hpp:77] Creating layer inception_3b/pool
I0403 09:57:21.799861 31906 net.cpp:91] Creating Layer inception_3b/pool
I0403 09:57:21.799880 31906 net.cpp:425] inception_3b/pool <- inception_3a/output_inception_3a/output_0_split_3
I0403 09:57:21.799899 31906 net.cpp:399] inception_3b/pool -> inception_3b/pool
I0403 09:57:21.799952 31906 net.cpp:141] Setting up inception_3b/pool
I0403 09:57:21.799980 31906 net.cpp:148] Top shape: 24 256 28 28 (4816896)
I0403 09:57:21.799998 31906 net.cpp:156] Memory required for data: 763478400
I0403 09:57:21.800014 31906 layer_factory.hpp:77] Creating layer inception_3b/pool_proj
I0403 09:57:21.800036 31906 net.cpp:91] Creating Layer inception_3b/pool_proj
I0403 09:57:21.800055 31906 net.cpp:425] inception_3b/pool_proj <- inception_3b/pool
I0403 09:57:21.800077 31906 net.cpp:399] inception_3b/pool_proj -> inception_3b/pool_proj
I0403 09:57:21.800390 31906 net.cpp:141] Setting up inception_3b/pool_proj
I0403 09:57:21.800417 31906 net.cpp:148] Top shape: 24 64 28 28 (1204224)
I0403 09:57:21.800433 31906 net.cpp:156] Memory required for data: 768295296
I0403 09:57:21.800453 31906 layer_factory.hpp:77] Creating layer inception_3b/relu_pool_proj
I0403 09:57:21.800472 31906 net.cpp:91] Creating Layer inception_3b/relu_pool_proj
I0403 09:57:21.800489 31906 net.cpp:425] inception_3b/relu_pool_proj <- inception_3b/pool_proj
I0403 09:57:21.800508 31906 net.cpp:386] inception_3b/relu_pool_proj -> inception_3b/pool_proj (in-place)
I0403 09:57:21.800535 31906 net.cpp:141] Setting up inception_3b/relu_pool_proj
I0403 09:57:21.800557 31906 net.cpp:148] Top shape: 24 64 28 28 (1204224)
I0403 09:57:21.800572 31906 net.cpp:156] Memory required for data: 773112192
I0403 09:57:21.800588 31906 layer_factory.hpp:77] Creating layer inception_3b/output
I0403 09:57:21.800607 31906 net.cpp:91] Creating Layer inception_3b/output
I0403 09:57:21.800624 31906 net.cpp:425] inception_3b/output <- inception_3b/1x1
I0403 09:57:21.800657 31906 net.cpp:425] inception_3b/output <- inception_3b/3x3
I0403 09:57:21.800678 31906 net.cpp:425] inception_3b/output <- inception_3b/5x5
I0403 09:57:21.800695 31906 net.cpp:425] inception_3b/output <- inception_3b/pool_proj
I0403 09:57:21.800714 31906 net.cpp:399] inception_3b/output -> inception_3b/output
I0403 09:57:21.800756 31906 net.cpp:141] Setting up inception_3b/output
I0403 09:57:21.800781 31906 net.cpp:148] Top shape: 24 480 28 28 (9031680)
I0403 09:57:21.800797 31906 net.cpp:156] Memory required for data: 809238912
I0403 09:57:21.800813 31906 layer_factory.hpp:77] Creating layer pool3/3x3_s2
I0403 09:57:21.800832 31906 net.cpp:91] Creating Layer pool3/3x3_s2
I0403 09:57:21.800848 31906 net.cpp:425] pool3/3x3_s2 <- inception_3b/output
I0403 09:57:21.800869 31906 net.cpp:399] pool3/3x3_s2 -> pool3/3x3_s2
I0403 09:57:21.800922 31906 net.cpp:141] Setting up pool3/3x3_s2
I0403 09:57:21.800947 31906 net.cpp:148] Top shape: 24 480 14 14 (2257920)
I0403 09:57:21.800964 31906 net.cpp:156] Memory required for data: 818270592
I0403 09:57:21.800981 31906 layer_factory.hpp:77] Creating layer pool3/3x3_s2_pool3/3x3_s2_0_split
I0403 09:57:21.801002 31906 net.cpp:91] Creating Layer pool3/3x3_s2_pool3/3x3_s2_0_split
I0403 09:57:21.801020 31906 net.cpp:425] pool3/3x3_s2_pool3/3x3_s2_0_split <- pool3/3x3_s2
I0403 09:57:21.801040 31906 net.cpp:399] pool3/3x3_s2_pool3/3x3_s2_0_split -> pool3/3x3_s2_pool3/3x3_s2_0_split_0
I0403 09:57:21.801064 31906 net.cpp:399] pool3/3x3_s2_pool3/3x3_s2_0_split -> pool3/3x3_s2_pool3/3x3_s2_0_split_1
I0403 09:57:21.801086 31906 net.cpp:399] pool3/3x3_s2_pool3/3x3_s2_0_split -> pool3/3x3_s2_pool3/3x3_s2_0_split_2
I0403 09:57:21.801112 31906 net.cpp:399] pool3/3x3_s2_pool3/3x3_s2_0_split -> pool3/3x3_s2_pool3/3x3_s2_0_split_3
I0403 09:57:21.801182 31906 net.cpp:141] Setting up pool3/3x3_s2_pool3/3x3_s2_0_split
I0403 09:57:21.801206 31906 net.cpp:148] Top shape: 24 480 14 14 (2257920)
I0403 09:57:21.801224 31906 net.cpp:148] Top shape: 24 480 14 14 (2257920)
I0403 09:57:21.801240 31906 net.cpp:148] Top shape: 24 480 14 14 (2257920)
I0403 09:57:21.801257 31906 net.cpp:148] Top shape: 24 480 14 14 (2257920)
I0403 09:57:21.801272 31906 net.cpp:156] Memory required for data: 854397312
I0403 09:57:21.801288 31906 layer_factory.hpp:77] Creating layer inception_4a/1x1
I0403 09:57:21.801313 31906 net.cpp:91] Creating Layer inception_4a/1x1
I0403 09:57:21.801334 31906 net.cpp:425] inception_4a/1x1 <- pool3/3x3_s2_pool3/3x3_s2_0_split_0
I0403 09:57:21.801360 31906 net.cpp:399] inception_4a/1x1 -> inception_4a/1x1
I0403 09:57:21.802101 31906 net.cpp:141] Setting up inception_4a/1x1
I0403 09:57:21.802134 31906 net.cpp:148] Top shape: 24 192 14 14 (903168)
I0403 09:57:21.802151 31906 net.cpp:156] Memory required for data: 858009984
I0403 09:57:21.802170 31906 layer_factory.hpp:77] Creating layer inception_4a/relu_1x1
I0403 09:57:21.802191 31906 net.cpp:91] Creating Layer inception_4a/relu_1x1
I0403 09:57:21.802208 31906 net.cpp:425] inception_4a/relu_1x1 <- inception_4a/1x1
I0403 09:57:21.802227 31906 net.cpp:386] inception_4a/relu_1x1 -> inception_4a/1x1 (in-place)
I0403 09:57:21.802247 31906 net.cpp:141] Setting up inception_4a/relu_1x1
I0403 09:57:21.802265 31906 net.cpp:148] Top shape: 24 192 14 14 (903168)
I0403 09:57:21.802280 31906 net.cpp:156] Memory required for data: 861622656
I0403 09:57:21.802296 31906 layer_factory.hpp:77] Creating layer inception_4a/3x3_reduce
I0403 09:57:21.802321 31906 net.cpp:91] Creating Layer inception_4a/3x3_reduce
I0403 09:57:21.802342 31906 net.cpp:425] inception_4a/3x3_reduce <- pool3/3x3_s2_pool3/3x3_s2_0_split_1
I0403 09:57:21.802366 31906 net.cpp:399] inception_4a/3x3_reduce -> inception_4a/3x3_reduce
I0403 09:57:21.802851 31906 net.cpp:141] Setting up inception_4a/3x3_reduce
I0403 09:57:21.802878 31906 net.cpp:148] Top shape: 24 96 14 14 (451584)
I0403 09:57:21.802896 31906 net.cpp:156] Memory required for data: 863428992
I0403 09:57:21.802920 31906 layer_factory.hpp:77] Creating layer inception_4a/relu_3x3_reduce
I0403 09:57:21.802956 31906 net.cpp:91] Creating Layer inception_4a/relu_3x3_reduce
I0403 09:57:21.802975 31906 net.cpp:425] inception_4a/relu_3x3_reduce <- inception_4a/3x3_reduce
I0403 09:57:21.802995 31906 net.cpp:386] inception_4a/relu_3x3_reduce -> inception_4a/3x3_reduce (in-place)
I0403 09:57:21.803015 31906 net.cpp:141] Setting up inception_4a/relu_3x3_reduce
I0403 09:57:21.803033 31906 net.cpp:148] Top shape: 24 96 14 14 (451584)
I0403 09:57:21.803048 31906 net.cpp:156] Memory required for data: 865235328
I0403 09:57:21.803063 31906 layer_factory.hpp:77] Creating layer inception_4a/3x3
I0403 09:57:21.803088 31906 net.cpp:91] Creating Layer inception_4a/3x3
I0403 09:57:21.803112 31906 net.cpp:425] inception_4a/3x3 <- inception_4a/3x3_reduce
I0403 09:57:21.803138 31906 net.cpp:399] inception_4a/3x3 -> inception_4a/3x3
I0403 09:57:21.804955 31906 net.cpp:141] Setting up inception_4a/3x3
I0403 09:57:21.804987 31906 net.cpp:148] Top shape: 24 208 14 14 (978432)
I0403 09:57:21.805004 31906 net.cpp:156] Memory required for data: 869149056
I0403 09:57:21.805024 31906 layer_factory.hpp:77] Creating layer inception_4a/relu_3x3
I0403 09:57:21.805043 31906 net.cpp:91] Creating Layer inception_4a/relu_3x3
I0403 09:57:21.805061 31906 net.cpp:425] inception_4a/relu_3x3 <- inception_4a/3x3
I0403 09:57:21.805079 31906 net.cpp:386] inception_4a/relu_3x3 -> inception_4a/3x3 (in-place)
I0403 09:57:21.805099 31906 net.cpp:141] Setting up inception_4a/relu_3x3
I0403 09:57:21.805124 31906 net.cpp:148] Top shape: 24 208 14 14 (978432)
I0403 09:57:21.805140 31906 net.cpp:156] Memory required for data: 873062784
I0403 09:57:21.805155 31906 layer_factory.hpp:77] Creating layer inception_4a/5x5_reduce
I0403 09:57:21.805181 31906 net.cpp:91] Creating Layer inception_4a/5x5_reduce
I0403 09:57:21.805199 31906 net.cpp:425] inception_4a/5x5_reduce <- pool3/3x3_s2_pool3/3x3_s2_0_split_2
I0403 09:57:21.805222 31906 net.cpp:399] inception_4a/5x5_reduce -> inception_4a/5x5_reduce
I0403 09:57:21.805483 31906 net.cpp:141] Setting up inception_4a/5x5_reduce
I0403 09:57:21.805510 31906 net.cpp:148] Top shape: 24 16 14 14 (75264)
I0403 09:57:21.805526 31906 net.cpp:156] Memory required for data: 873363840
I0403 09:57:21.805546 31906 layer_factory.hpp:77] Creating layer inception_4a/relu_5x5_reduce
I0403 09:57:21.805568 31906 net.cpp:91] Creating Layer inception_4a/relu_5x5_reduce
I0403 09:57:21.805586 31906 net.cpp:425] inception_4a/relu_5x5_reduce <- inception_4a/5x5_reduce
I0403 09:57:21.805606 31906 net.cpp:386] inception_4a/relu_5x5_reduce -> inception_4a/5x5_reduce (in-place)
I0403 09:57:21.805626 31906 net.cpp:141] Setting up inception_4a/relu_5x5_reduce
I0403 09:57:21.805644 31906 net.cpp:148] Top shape: 24 16 14 14 (75264)
I0403 09:57:21.805660 31906 net.cpp:156] Memory required for data: 873664896
I0403 09:57:21.805676 31906 layer_factory.hpp:77] Creating layer inception_4a/5x5
I0403 09:57:21.805701 31906 net.cpp:91] Creating Layer inception_4a/5x5
I0403 09:57:21.805721 31906 net.cpp:425] inception_4a/5x5 <- inception_4a/5x5_reduce
I0403 09:57:21.805743 31906 net.cpp:399] inception_4a/5x5 -> inception_4a/5x5
I0403 09:57:21.806069 31906 net.cpp:141] Setting up inception_4a/5x5
I0403 09:57:21.806097 31906 net.cpp:148] Top shape: 24 48 14 14 (225792)
I0403 09:57:21.806118 31906 net.cpp:156] Memory required for data: 874568064
I0403 09:57:21.806138 31906 layer_factory.hpp:77] Creating layer inception_4a/relu_5x5
I0403 09:57:21.806157 31906 net.cpp:91] Creating Layer inception_4a/relu_5x5
I0403 09:57:21.806174 31906 net.cpp:425] inception_4a/relu_5x5 <- inception_4a/5x5
I0403 09:57:21.806192 31906 net.cpp:386] inception_4a/relu_5x5 -> inception_4a/5x5 (in-place)
I0403 09:57:21.806212 31906 net.cpp:141] Setting up inception_4a/relu_5x5
I0403 09:57:21.806232 31906 net.cpp:148] Top shape: 24 48 14 14 (225792)
I0403 09:57:21.806246 31906 net.cpp:156] Memory required for data: 875471232
I0403 09:57:21.806262 31906 layer_factory.hpp:77] Creating layer inception_4a/pool
I0403 09:57:21.806285 31906 net.cpp:91] Creating Layer inception_4a/pool
I0403 09:57:21.806304 31906 net.cpp:425] inception_4a/pool <- pool3/3x3_s2_pool3/3x3_s2_0_split_3
I0403 09:57:21.806341 31906 net.cpp:399] inception_4a/pool -> inception_4a/pool
I0403 09:57:21.806397 31906 net.cpp:141] Setting up inception_4a/pool
I0403 09:57:21.806422 31906 net.cpp:148] Top shape: 24 480 14 14 (2257920)
I0403 09:57:21.806439 31906 net.cpp:156] Memory required for data: 884502912
I0403 09:57:21.806454 31906 layer_factory.hpp:77] Creating layer inception_4a/pool_proj
I0403 09:57:21.806485 31906 net.cpp:91] Creating Layer inception_4a/pool_proj
I0403 09:57:21.806505 31906 net.cpp:425] inception_4a/pool_proj <- inception_4a/pool
I0403 09:57:21.806527 31906 net.cpp:399] inception_4a/pool_proj -> inception_4a/pool_proj
I0403 09:57:21.806917 31906 net.cpp:141] Setting up inception_4a/pool_proj
I0403 09:57:21.806944 31906 net.cpp:148] Top shape: 24 64 14 14 (301056)
I0403 09:57:21.806960 31906 net.cpp:156] Memory required for data: 885707136
I0403 09:57:21.806979 31906 layer_factory.hpp:77] Creating layer inception_4a/relu_pool_proj
I0403 09:57:21.807001 31906 net.cpp:91] Creating Layer inception_4a/relu_pool_proj
I0403 09:57:21.807020 31906 net.cpp:425] inception_4a/relu_pool_proj <- inception_4a/pool_proj
I0403 09:57:21.807039 31906 net.cpp:386] inception_4a/relu_pool_proj -> inception_4a/pool_proj (in-place)
I0403 09:57:21.807060 31906 net.cpp:141] Setting up inception_4a/relu_pool_proj
I0403 09:57:21.807077 31906 net.cpp:148] Top shape: 24 64 14 14 (301056)
I0403 09:57:21.807093 31906 net.cpp:156] Memory required for data: 886911360
I0403 09:57:21.807121 31906 layer_factory.hpp:77] Creating layer inception_4a/output
I0403 09:57:21.807144 31906 net.cpp:91] Creating Layer inception_4a/output
I0403 09:57:21.807163 31906 net.cpp:425] inception_4a/output <- inception_4a/1x1
I0403 09:57:21.807181 31906 net.cpp:425] inception_4a/output <- inception_4a/3x3
I0403 09:57:21.807199 31906 net.cpp:425] inception_4a/output <- inception_4a/5x5
I0403 09:57:21.807215 31906 net.cpp:425] inception_4a/output <- inception_4a/pool_proj
I0403 09:57:21.807234 31906 net.cpp:399] inception_4a/output -> inception_4a/output
I0403 09:57:21.807276 31906 net.cpp:141] Setting up inception_4a/output
I0403 09:57:21.807302 31906 net.cpp:148] Top shape: 24 512 14 14 (2408448)
I0403 09:57:21.807319 31906 net.cpp:156] Memory required for data: 896545152
I0403 09:57:21.807334 31906 layer_factory.hpp:77] Creating layer inception_4a/output_inception_4a/output_0_split
I0403 09:57:21.807356 31906 net.cpp:91] Creating Layer inception_4a/output_inception_4a/output_0_split
I0403 09:57:21.807374 31906 net.cpp:425] inception_4a/output_inception_4a/output_0_split <- inception_4a/output
I0403 09:57:21.807394 31906 net.cpp:399] inception_4a/output_inception_4a/output_0_split -> inception_4a/output_inception_4a/output_0_split_0
I0403 09:57:21.807415 31906 net.cpp:399] inception_4a/output_inception_4a/output_0_split -> inception_4a/output_inception_4a/output_0_split_1
I0403 09:57:21.807437 31906 net.cpp:399] inception_4a/output_inception_4a/output_0_split -> inception_4a/output_inception_4a/output_0_split_2
I0403 09:57:21.807458 31906 net.cpp:399] inception_4a/output_inception_4a/output_0_split -> inception_4a/output_inception_4a/output_0_split_3
I0403 09:57:21.807482 31906 net.cpp:399] inception_4a/output_inception_4a/output_0_split -> inception_4a/output_inception_4a/output_0_split_4
I0403 09:57:21.807564 31906 net.cpp:141] Setting up inception_4a/output_inception_4a/output_0_split
I0403 09:57:21.807590 31906 net.cpp:148] Top shape: 24 512 14 14 (2408448)
I0403 09:57:21.807607 31906 net.cpp:148] Top shape: 24 512 14 14 (2408448)
I0403 09:57:21.807624 31906 net.cpp:148] Top shape: 24 512 14 14 (2408448)
I0403 09:57:21.807641 31906 net.cpp:148] Top shape: 24 512 14 14 (2408448)
I0403 09:57:21.807657 31906 net.cpp:148] Top shape: 24 512 14 14 (2408448)
I0403 09:57:21.807672 31906 net.cpp:156] Memory required for data: 944714112
I0403 09:57:21.807687 31906 layer_factory.hpp:77] Creating layer loss1/ave_pool
I0403 09:57:21.807706 31906 net.cpp:91] Creating Layer loss1/ave_pool
I0403 09:57:21.807741 31906 net.cpp:425] loss1/ave_pool <- inception_4a/output_inception_4a/output_0_split_0
I0403 09:57:21.807762 31906 net.cpp:399] loss1/ave_pool -> loss1/ave_pool
I0403 09:57:21.807803 31906 net.cpp:141] Setting up loss1/ave_pool
I0403 09:57:21.807828 31906 net.cpp:148] Top shape: 24 512 4 4 (196608)
I0403 09:57:21.807843 31906 net.cpp:156] Memory required for data: 945500544
I0403 09:57:21.807860 31906 layer_factory.hpp:77] Creating layer loss1/conv
I0403 09:57:21.807884 31906 net.cpp:91] Creating Layer loss1/conv
I0403 09:57:21.807903 31906 net.cpp:425] loss1/conv <- loss1/ave_pool
I0403 09:57:21.807924 31906 net.cpp:399] loss1/conv -> loss1/conv
I0403 09:57:21.808511 31906 net.cpp:141] Setting up loss1/conv
I0403 09:57:21.808538 31906 net.cpp:148] Top shape: 24 128 4 4 (49152)
I0403 09:57:21.808554 31906 net.cpp:156] Memory required for data: 945697152
I0403 09:57:21.808573 31906 layer_factory.hpp:77] Creating layer loss1/relu_conv
I0403 09:57:21.808593 31906 net.cpp:91] Creating Layer loss1/relu_conv
I0403 09:57:21.808609 31906 net.cpp:425] loss1/relu_conv <- loss1/conv
I0403 09:57:21.808632 31906 net.cpp:386] loss1/relu_conv -> loss1/conv (in-place)
I0403 09:57:21.808655 31906 net.cpp:141] Setting up loss1/relu_conv
I0403 09:57:21.808675 31906 net.cpp:148] Top shape: 24 128 4 4 (49152)
I0403 09:57:21.808691 31906 net.cpp:156] Memory required for data: 945893760
I0403 09:57:21.808706 31906 layer_factory.hpp:77] Creating layer loss1/fc
I0403 09:57:21.808730 31906 net.cpp:91] Creating Layer loss1/fc
I0403 09:57:21.808749 31906 net.cpp:425] loss1/fc <- loss1/conv
I0403 09:57:21.808774 31906 net.cpp:399] loss1/fc -> loss1/fc
I0403 09:57:21.825444 31906 net.cpp:141] Setting up loss1/fc
I0403 09:57:21.825486 31906 net.cpp:148] Top shape: 24 1024 (24576)
I0403 09:57:21.825505 31906 net.cpp:156] Memory required for data: 945992064
I0403 09:57:21.825526 31906 layer_factory.hpp:77] Creating layer loss1/relu_fc
I0403 09:57:21.825547 31906 net.cpp:91] Creating Layer loss1/relu_fc
I0403 09:57:21.825567 31906 net.cpp:425] loss1/relu_fc <- loss1/fc
I0403 09:57:21.825587 31906 net.cpp:386] loss1/relu_fc -> loss1/fc (in-place)
I0403 09:57:21.825610 31906 net.cpp:141] Setting up loss1/relu_fc
I0403 09:57:21.825629 31906 net.cpp:148] Top shape: 24 1024 (24576)
I0403 09:57:21.825645 31906 net.cpp:156] Memory required for data: 946090368
I0403 09:57:21.825661 31906 layer_factory.hpp:77] Creating layer loss1/drop_fc
I0403 09:57:21.825692 31906 net.cpp:91] Creating Layer loss1/drop_fc
I0403 09:57:21.825713 31906 net.cpp:425] loss1/drop_fc <- loss1/fc
I0403 09:57:21.825734 31906 net.cpp:386] loss1/drop_fc -> loss1/fc (in-place)
I0403 09:57:21.825783 31906 net.cpp:141] Setting up loss1/drop_fc
I0403 09:57:21.825809 31906 net.cpp:148] Top shape: 24 1024 (24576)
I0403 09:57:21.825825 31906 net.cpp:156] Memory required for data: 946188672
I0403 09:57:21.825841 31906 layer_factory.hpp:77] Creating layer loss1/classifier_plantvillage
I0403 09:57:21.825862 31906 net.cpp:91] Creating Layer loss1/classifier_plantvillage
I0403 09:57:21.825881 31906 net.cpp:425] loss1/classifier_plantvillage <- loss1/fc
I0403 09:57:21.825906 31906 net.cpp:399] loss1/classifier_plantvillage -> loss1/classifier_plantvillage
I0403 09:57:21.826789 31906 net.cpp:141] Setting up loss1/classifier_plantvillage
I0403 09:57:21.826822 31906 net.cpp:148] Top shape: 24 38 (912)
I0403 09:57:21.826841 31906 net.cpp:156] Memory required for data: 946192320
I0403 09:57:21.826861 31906 layer_factory.hpp:77] Creating layer inception_4b/1x1
I0403 09:57:21.826885 31906 net.cpp:91] Creating Layer inception_4b/1x1
I0403 09:57:21.826905 31906 net.cpp:425] inception_4b/1x1 <- inception_4a/output_inception_4a/output_0_split_1
I0403 09:57:21.826930 31906 net.cpp:399] inception_4b/1x1 -> inception_4b/1x1
I0403 09:57:21.827642 31906 net.cpp:141] Setting up inception_4b/1x1
I0403 09:57:21.827669 31906 net.cpp:148] Top shape: 24 160 14 14 (752640)
I0403 09:57:21.827687 31906 net.cpp:156] Memory required for data: 949202880
I0403 09:57:21.827705 31906 layer_factory.hpp:77] Creating layer inception_4b/relu_1x1
I0403 09:57:21.827742 31906 net.cpp:91] Creating Layer inception_4b/relu_1x1
I0403 09:57:21.827761 31906 net.cpp:425] inception_4b/relu_1x1 <- inception_4b/1x1
I0403 09:57:21.827781 31906 net.cpp:386] inception_4b/relu_1x1 -> inception_4b/1x1 (in-place)
I0403 09:57:21.827805 31906 net.cpp:141] Setting up inception_4b/relu_1x1
I0403 09:57:21.827823 31906 net.cpp:148] Top shape: 24 160 14 14 (752640)
I0403 09:57:21.827839 31906 net.cpp:156] Memory required for data: 952213440
I0403 09:57:21.827855 31906 layer_factory.hpp:77] Creating layer inception_4b/3x3_reduce
I0403 09:57:21.827880 31906 net.cpp:91] Creating Layer inception_4b/3x3_reduce
I0403 09:57:21.827900 31906 net.cpp:425] inception_4b/3x3_reduce <- inception_4a/output_inception_4a/output_0_split_2
I0403 09:57:21.827921 31906 net.cpp:399] inception_4b/3x3_reduce -> inception_4b/3x3_reduce
I0403 09:57:21.828474 31906 net.cpp:141] Setting up inception_4b/3x3_reduce
I0403 09:57:21.828502 31906 net.cpp:148] Top shape: 24 112 14 14 (526848)
I0403 09:57:21.828519 31906 net.cpp:156] Memory required for data: 954320832
I0403 09:57:21.828538 31906 layer_factory.hpp:77] Creating layer inception_4b/relu_3x3_reduce
I0403 09:57:21.828558 31906 net.cpp:91] Creating Layer inception_4b/relu_3x3_reduce
I0403 09:57:21.828577 31906 net.cpp:425] inception_4b/relu_3x3_reduce <- inception_4b/3x3_reduce
I0403 09:57:21.828598 31906 net.cpp:386] inception_4b/relu_3x3_reduce -> inception_4b/3x3_reduce (in-place)
I0403 09:57:21.828620 31906 net.cpp:141] Setting up inception_4b/relu_3x3_reduce
I0403 09:57:21.828639 31906 net.cpp:148] Top shape: 24 112 14 14 (526848)
I0403 09:57:21.828655 31906 net.cpp:156] Memory required for data: 956428224
I0403 09:57:21.828670 31906 layer_factory.hpp:77] Creating layer inception_4b/3x3
I0403 09:57:21.828692 31906 net.cpp:91] Creating Layer inception_4b/3x3
I0403 09:57:21.828709 31906 net.cpp:425] inception_4b/3x3 <- inception_4b/3x3_reduce
I0403 09:57:21.828732 31906 net.cpp:399] inception_4b/3x3 -> inception_4b/3x3
I0403 09:57:21.830811 31906 net.cpp:141] Setting up inception_4b/3x3
I0403 09:57:21.830840 31906 net.cpp:148] Top shape: 24 224 14 14 (1053696)
I0403 09:57:21.830858 31906 net.cpp:156] Memory required for data: 960643008
I0403 09:57:21.830878 31906 layer_factory.hpp:77] Creating layer inception_4b/relu_3x3
I0403 09:57:21.830899 31906 net.cpp:91] Creating Layer inception_4b/relu_3x3
I0403 09:57:21.830917 31906 net.cpp:425] inception_4b/relu_3x3 <- inception_4b/3x3
I0403 09:57:21.830940 31906 net.cpp:386] inception_4b/relu_3x3 -> inception_4b/3x3 (in-place)
I0403 09:57:21.830962 31906 net.cpp:141] Setting up inception_4b/relu_3x3
I0403 09:57:21.830981 31906 net.cpp:148] Top shape: 24 224 14 14 (1053696)
I0403 09:57:21.830996 31906 net.cpp:156] Memory required for data: 964857792
I0403 09:57:21.831012 31906 layer_factory.hpp:77] Creating layer inception_4b/5x5_reduce
I0403 09:57:21.831033 31906 net.cpp:91] Creating Layer inception_4b/5x5_reduce
I0403 09:57:21.831051 31906 net.cpp:425] inception_4b/5x5_reduce <- inception_4a/output_inception_4a/output_0_split_3
I0403 09:57:21.831074 31906 net.cpp:399] inception_4b/5x5_reduce -> inception_4b/5x5_reduce
I0403 09:57:21.831373 31906 net.cpp:141] Setting up inception_4b/5x5_reduce
I0403 09:57:21.831400 31906 net.cpp:148] Top shape: 24 24 14 14 (112896)
I0403 09:57:21.831416 31906 net.cpp:156] Memory required for data: 965309376
I0403 09:57:21.831436 31906 layer_factory.hpp:77] Creating layer inception_4b/relu_5x5_reduce
I0403 09:57:21.831455 31906 net.cpp:91] Creating Layer inception_4b/relu_5x5_reduce
I0403 09:57:21.831472 31906 net.cpp:425] inception_4b/relu_5x5_reduce <- inception_4b/5x5_reduce
I0403 09:57:21.831491 31906 net.cpp:386] inception_4b/relu_5x5_reduce -> inception_4b/5x5_reduce (in-place)
I0403 09:57:21.831512 31906 net.cpp:141] Setting up inception_4b/relu_5x5_reduce
I0403 09:57:21.831532 31906 net.cpp:148] Top shape: 24 24 14 14 (112896)
I0403 09:57:21.831548 31906 net.cpp:156] Memory required for data: 965760960
I0403 09:57:21.831563 31906 layer_factory.hpp:77] Creating layer inception_4b/5x5
I0403 09:57:21.831604 31906 net.cpp:91] Creating Layer inception_4b/5x5
I0403 09:57:21.831629 31906 net.cpp:425] inception_4b/5x5 <- inception_4b/5x5_reduce
I0403 09:57:21.831651 31906 net.cpp:399] inception_4b/5x5 -> inception_4b/5x5
I0403 09:57:21.832095 31906 net.cpp:141] Setting up inception_4b/5x5
I0403 09:57:21.832128 31906 net.cpp:148] Top shape: 24 64 14 14 (301056)
I0403 09:57:21.832145 31906 net.cpp:156] Memory required for data: 966965184
I0403 09:57:21.832165 31906 layer_factory.hpp:77] Creating layer inception_4b/relu_5x5
I0403 09:57:21.832183 31906 net.cpp:91] Creating Layer inception_4b/relu_5x5
I0403 09:57:21.832201 31906 net.cpp:425] inception_4b/relu_5x5 <- inception_4b/5x5
I0403 09:57:21.832226 31906 net.cpp:386] inception_4b/relu_5x5 -> inception_4b/5x5 (in-place)
I0403 09:57:21.832247 31906 net.cpp:141] Setting up inception_4b/relu_5x5
I0403 09:57:21.832267 31906 net.cpp:148] Top shape: 24 64 14 14 (301056)
I0403 09:57:21.832281 31906 net.cpp:156] Memory required for data: 968169408
I0403 09:57:21.832296 31906 layer_factory.hpp:77] Creating layer inception_4b/pool
I0403 09:57:21.832315 31906 net.cpp:91] Creating Layer inception_4b/pool
I0403 09:57:21.832334 31906 net.cpp:425] inception_4b/pool <- inception_4a/output_inception_4a/output_0_split_4
I0403 09:57:21.832355 31906 net.cpp:399] inception_4b/pool -> inception_4b/pool
I0403 09:57:21.832409 31906 net.cpp:141] Setting up inception_4b/pool
I0403 09:57:21.832434 31906 net.cpp:148] Top shape: 24 512 14 14 (2408448)
I0403 09:57:21.832450 31906 net.cpp:156] Memory required for data: 977803200
I0403 09:57:21.832466 31906 layer_factory.hpp:77] Creating layer inception_4b/pool_proj
I0403 09:57:21.832491 31906 net.cpp:91] Creating Layer inception_4b/pool_proj
I0403 09:57:21.832510 31906 net.cpp:425] inception_4b/pool_proj <- inception_4b/pool
I0403 09:57:21.832535 31906 net.cpp:399] inception_4b/pool_proj -> inception_4b/pool_proj
I0403 09:57:21.832948 31906 net.cpp:141] Setting up inception_4b/pool_proj
I0403 09:57:21.832978 31906 net.cpp:148] Top shape: 24 64 14 14 (301056)
I0403 09:57:21.832996 31906 net.cpp:156] Memory required for data: 979007424
I0403 09:57:21.833016 31906 layer_factory.hpp:77] Creating layer inception_4b/relu_pool_proj
I0403 09:57:21.833036 31906 net.cpp:91] Creating Layer inception_4b/relu_pool_proj
I0403 09:57:21.833055 31906 net.cpp:425] inception_4b/relu_pool_proj <- inception_4b/pool_proj
I0403 09:57:21.833076 31906 net.cpp:386] inception_4b/relu_pool_proj -> inception_4b/pool_proj (in-place)
I0403 09:57:21.833096 31906 net.cpp:141] Setting up inception_4b/relu_pool_proj
I0403 09:57:21.833119 31906 net.cpp:148] Top shape: 24 64 14 14 (301056)
I0403 09:57:21.833137 31906 net.cpp:156] Memory required for data: 980211648
I0403 09:57:21.833153 31906 layer_factory.hpp:77] Creating layer inception_4b/output
I0403 09:57:21.833173 31906 net.cpp:91] Creating Layer inception_4b/output
I0403 09:57:21.833189 31906 net.cpp:425] inception_4b/output <- inception_4b/1x1
I0403 09:57:21.833206 31906 net.cpp:425] inception_4b/output <- inception_4b/3x3
I0403 09:57:21.833223 31906 net.cpp:425] inception_4b/output <- inception_4b/5x5
I0403 09:57:21.833240 31906 net.cpp:425] inception_4b/output <- inception_4b/pool_proj
I0403 09:57:21.833262 31906 net.cpp:399] inception_4b/output -> inception_4b/output
I0403 09:57:21.833302 31906 net.cpp:141] Setting up inception_4b/output
I0403 09:57:21.833330 31906 net.cpp:148] Top shape: 24 512 14 14 (2408448)
I0403 09:57:21.833348 31906 net.cpp:156] Memory required for data: 989845440
I0403 09:57:21.833364 31906 layer_factory.hpp:77] Creating layer inception_4b/output_inception_4b/output_0_split
I0403 09:57:21.833384 31906 net.cpp:91] Creating Layer inception_4b/output_inception_4b/output_0_split
I0403 09:57:21.833401 31906 net.cpp:425] inception_4b/output_inception_4b/output_0_split <- inception_4b/output
I0403 09:57:21.833421 31906 net.cpp:399] inception_4b/output_inception_4b/output_0_split -> inception_4b/output_inception_4b/output_0_split_0
I0403 09:57:21.833442 31906 net.cpp:399] inception_4b/output_inception_4b/output_0_split -> inception_4b/output_inception_4b/output_0_split_1
I0403 09:57:21.833479 31906 net.cpp:399] inception_4b/output_inception_4b/output_0_split -> inception_4b/output_inception_4b/output_0_split_2
I0403 09:57:21.833506 31906 net.cpp:399] inception_4b/output_inception_4b/output_0_split -> inception_4b/output_inception_4b/output_0_split_3
I0403 09:57:21.833580 31906 net.cpp:141] Setting up inception_4b/output_inception_4b/output_0_split
I0403 09:57:21.833605 31906 net.cpp:148] Top shape: 24 512 14 14 (2408448)
I0403 09:57:21.833622 31906 net.cpp:148] Top shape: 24 512 14 14 (2408448)
I0403 09:57:21.833641 31906 net.cpp:148] Top shape: 24 512 14 14 (2408448)
I0403 09:57:21.833657 31906 net.cpp:148] Top shape: 24 512 14 14 (2408448)
I0403 09:57:21.833672 31906 net.cpp:156] Memory required for data: 1028380608
I0403 09:57:21.833686 31906 layer_factory.hpp:77] Creating layer inception_4c/1x1
I0403 09:57:21.833711 31906 net.cpp:91] Creating Layer inception_4c/1x1
I0403 09:57:21.833732 31906 net.cpp:425] inception_4c/1x1 <- inception_4b/output_inception_4b/output_0_split_0
I0403 09:57:21.833755 31906 net.cpp:399] inception_4c/1x1 -> inception_4c/1x1
I0403 09:57:21.834350 31906 net.cpp:141] Setting up inception_4c/1x1
I0403 09:57:21.834378 31906 net.cpp:148] Top shape: 24 128 14 14 (602112)
I0403 09:57:21.834394 31906 net.cpp:156] Memory required for data: 1030789056
I0403 09:57:21.834414 31906 layer_factory.hpp:77] Creating layer inception_4c/relu_1x1
I0403 09:57:21.834437 31906 net.cpp:91] Creating Layer inception_4c/relu_1x1
I0403 09:57:21.834457 31906 net.cpp:425] inception_4c/relu_1x1 <- inception_4c/1x1
I0403 09:57:21.834476 31906 net.cpp:386] inception_4c/relu_1x1 -> inception_4c/1x1 (in-place)
I0403 09:57:21.834496 31906 net.cpp:141] Setting up inception_4c/relu_1x1
I0403 09:57:21.834516 31906 net.cpp:148] Top shape: 24 128 14 14 (602112)
I0403 09:57:21.834530 31906 net.cpp:156] Memory required for data: 1033197504
I0403 09:57:21.834547 31906 layer_factory.hpp:77] Creating layer inception_4c/3x3_reduce
I0403 09:57:21.834570 31906 net.cpp:91] Creating Layer inception_4c/3x3_reduce
I0403 09:57:21.834589 31906 net.cpp:425] inception_4c/3x3_reduce <- inception_4b/output_inception_4b/output_0_split_1
I0403 09:57:21.834609 31906 net.cpp:399] inception_4c/3x3_reduce -> inception_4c/3x3_reduce
I0403 09:57:21.835754 31906 net.cpp:141] Setting up inception_4c/3x3_reduce
I0403 09:57:21.835785 31906 net.cpp:148] Top shape: 24 128 14 14 (602112)
I0403 09:57:21.835803 31906 net.cpp:156] Memory required for data: 1035605952
I0403 09:57:21.835824 31906 layer_factory.hpp:77] Creating layer inception_4c/relu_3x3_reduce
I0403 09:57:21.835844 31906 net.cpp:91] Creating Layer inception_4c/relu_3x3_reduce
I0403 09:57:21.835862 31906 net.cpp:425] inception_4c/relu_3x3_reduce <- inception_4c/3x3_reduce
I0403 09:57:21.835886 31906 net.cpp:386] inception_4c/relu_3x3_reduce -> inception_4c/3x3_reduce (in-place)
I0403 09:57:21.835907 31906 net.cpp:141] Setting up inception_4c/relu_3x3_reduce
I0403 09:57:21.835927 31906 net.cpp:148] Top shape: 24 128 14 14 (602112)
I0403 09:57:21.835942 31906 net.cpp:156] Memory required for data: 1038014400
I0403 09:57:21.835958 31906 layer_factory.hpp:77] Creating layer inception_4c/3x3
I0403 09:57:21.835983 31906 net.cpp:91] Creating Layer inception_4c/3x3
I0403 09:57:21.836002 31906 net.cpp:425] inception_4c/3x3 <- inception_4c/3x3_reduce
I0403 09:57:21.836024 31906 net.cpp:399] inception_4c/3x3 -> inception_4c/3x3
I0403 09:57:21.838546 31906 net.cpp:141] Setting up inception_4c/3x3
I0403 09:57:21.838579 31906 net.cpp:148] Top shape: 24 256 14 14 (1204224)
I0403 09:57:21.838596 31906 net.cpp:156] Memory required for data: 1042831296
I0403 09:57:21.838629 31906 layer_factory.hpp:77] Creating layer inception_4c/relu_3x3
I0403 09:57:21.838651 31906 net.cpp:91] Creating Layer inception_4c/relu_3x3
I0403 09:57:21.838670 31906 net.cpp:425] inception_4c/relu_3x3 <- inception_4c/3x3
I0403 09:57:21.838688 31906 net.cpp:386] inception_4c/relu_3x3 -> inception_4c/3x3 (in-place)
I0403 09:57:21.838726 31906 net.cpp:141] Setting up inception_4c/relu_3x3
I0403 09:57:21.838747 31906 net.cpp:148] Top shape: 24 256 14 14 (1204224)
I0403 09:57:21.838763 31906 net.cpp:156] Memory required for data: 1047648192
I0403 09:57:21.838778 31906 layer_factory.hpp:77] Creating layer inception_4c/5x5_reduce
I0403 09:57:21.838804 31906 net.cpp:91] Creating Layer inception_4c/5x5_reduce
I0403 09:57:21.838824 31906 net.cpp:425] inception_4c/5x5_reduce <- inception_4b/output_inception_4b/output_0_split_2
I0403 09:57:21.838846 31906 net.cpp:399] inception_4c/5x5_reduce -> inception_4c/5x5_reduce
I0403 09:57:21.839154 31906 net.cpp:141] Setting up inception_4c/5x5_reduce
I0403 09:57:21.839181 31906 net.cpp:148] Top shape: 24 24 14 14 (112896)
I0403 09:57:21.839197 31906 net.cpp:156] Memory required for data: 1048099776
I0403 09:57:21.839216 31906 layer_factory.hpp:77] Creating layer inception_4c/relu_5x5_reduce
I0403 09:57:21.839237 31906 net.cpp:91] Creating Layer inception_4c/relu_5x5_reduce
I0403 09:57:21.839257 31906 net.cpp:425] inception_4c/relu_5x5_reduce <- inception_4c/5x5_reduce
I0403 09:57:21.839277 31906 net.cpp:386] inception_4c/relu_5x5_reduce -> inception_4c/5x5_reduce (in-place)
I0403 09:57:21.839296 31906 net.cpp:141] Setting up inception_4c/relu_5x5_reduce
I0403 09:57:21.839315 31906 net.cpp:148] Top shape: 24 24 14 14 (112896)
I0403 09:57:21.839332 31906 net.cpp:156] Memory required for data: 1048551360
I0403 09:57:21.839349 31906 layer_factory.hpp:77] Creating layer inception_4c/5x5
I0403 09:57:21.839375 31906 net.cpp:91] Creating Layer inception_4c/5x5
I0403 09:57:21.839395 31906 net.cpp:425] inception_4c/5x5 <- inception_4c/5x5_reduce
I0403 09:57:21.839416 31906 net.cpp:399] inception_4c/5x5 -> inception_4c/5x5
I0403 09:57:21.839862 31906 net.cpp:141] Setting up inception_4c/5x5
I0403 09:57:21.839892 31906 net.cpp:148] Top shape: 24 64 14 14 (301056)
I0403 09:57:21.839910 31906 net.cpp:156] Memory required for data: 1049755584
I0403 09:57:21.839929 31906 layer_factory.hpp:77] Creating layer inception_4c/relu_5x5
I0403 09:57:21.839949 31906 net.cpp:91] Creating Layer inception_4c/relu_5x5
I0403 09:57:21.839967 31906 net.cpp:425] inception_4c/relu_5x5 <- inception_4c/5x5
I0403 09:57:21.839987 31906 net.cpp:386] inception_4c/relu_5x5 -> inception_4c/5x5 (in-place)
I0403 09:57:21.840006 31906 net.cpp:141] Setting up inception_4c/relu_5x5
I0403 09:57:21.840025 31906 net.cpp:148] Top shape: 24 64 14 14 (301056)
I0403 09:57:21.840041 31906 net.cpp:156] Memory required for data: 1050959808
I0403 09:57:21.840057 31906 layer_factory.hpp:77] Creating layer inception_4c/pool
I0403 09:57:21.840076 31906 net.cpp:91] Creating Layer inception_4c/pool
I0403 09:57:21.840093 31906 net.cpp:425] inception_4c/pool <- inception_4b/output_inception_4b/output_0_split_3
I0403 09:57:21.840118 31906 net.cpp:399] inception_4c/pool -> inception_4c/pool
I0403 09:57:21.840176 31906 net.cpp:141] Setting up inception_4c/pool
I0403 09:57:21.840203 31906 net.cpp:148] Top shape: 24 512 14 14 (2408448)
I0403 09:57:21.840219 31906 net.cpp:156] Memory required for data: 1060593600
I0403 09:57:21.840234 31906 layer_factory.hpp:77] Creating layer inception_4c/pool_proj
I0403 09:57:21.840261 31906 net.cpp:91] Creating Layer inception_4c/pool_proj
I0403 09:57:21.840281 31906 net.cpp:425] inception_4c/pool_proj <- inception_4c/pool
I0403 09:57:21.840302 31906 net.cpp:399] inception_4c/pool_proj -> inception_4c/pool_proj
I0403 09:57:21.840711 31906 net.cpp:141] Setting up inception_4c/pool_proj
I0403 09:57:21.840739 31906 net.cpp:148] Top shape: 24 64 14 14 (301056)
I0403 09:57:21.840755 31906 net.cpp:156] Memory required for data: 1061797824
I0403 09:57:21.840775 31906 layer_factory.hpp:77] Creating layer inception_4c/relu_pool_proj
I0403 09:57:21.840795 31906 net.cpp:91] Creating Layer inception_4c/relu_pool_proj
I0403 09:57:21.840811 31906 net.cpp:425] inception_4c/relu_pool_proj <- inception_4c/pool_proj
I0403 09:57:21.840832 31906 net.cpp:386] inception_4c/relu_pool_proj -> inception_4c/pool_proj (in-place)
I0403 09:57:21.840854 31906 net.cpp:141] Setting up inception_4c/relu_pool_proj
I0403 09:57:21.840888 31906 net.cpp:148] Top shape: 24 64 14 14 (301056)
I0403 09:57:21.840906 31906 net.cpp:156] Memory required for data: 1063002048
I0403 09:57:21.840922 31906 layer_factory.hpp:77] Creating layer inception_4c/output
I0403 09:57:21.840942 31906 net.cpp:91] Creating Layer inception_4c/output
I0403 09:57:21.840960 31906 net.cpp:425] inception_4c/output <- inception_4c/1x1
I0403 09:57:21.840976 31906 net.cpp:425] inception_4c/output <- inception_4c/3x3
I0403 09:57:21.840994 31906 net.cpp:425] inception_4c/output <- inception_4c/5x5
I0403 09:57:21.841012 31906 net.cpp:425] inception_4c/output <- inception_4c/pool_proj
I0403 09:57:21.841030 31906 net.cpp:399] inception_4c/output -> inception_4c/output
I0403 09:57:21.841073 31906 net.cpp:141] Setting up inception_4c/output
I0403 09:57:21.841097 31906 net.cpp:148] Top shape: 24 512 14 14 (2408448)
I0403 09:57:21.841119 31906 net.cpp:156] Memory required for data: 1072635840
I0403 09:57:21.841135 31906 layer_factory.hpp:77] Creating layer inception_4c/output_inception_4c/output_0_split
I0403 09:57:21.841156 31906 net.cpp:91] Creating Layer inception_4c/output_inception_4c/output_0_split
I0403 09:57:21.841171 31906 net.cpp:425] inception_4c/output_inception_4c/output_0_split <- inception_4c/output
I0403 09:57:21.841193 31906 net.cpp:399] inception_4c/output_inception_4c/output_0_split -> inception_4c/output_inception_4c/output_0_split_0
I0403 09:57:21.841214 31906 net.cpp:399] inception_4c/output_inception_4c/output_0_split -> inception_4c/output_inception_4c/output_0_split_1
I0403 09:57:21.841236 31906 net.cpp:399] inception_4c/output_inception_4c/output_0_split -> inception_4c/output_inception_4c/output_0_split_2
I0403 09:57:21.841258 31906 net.cpp:399] inception_4c/output_inception_4c/output_0_split -> inception_4c/output_inception_4c/output_0_split_3
I0403 09:57:21.841331 31906 net.cpp:141] Setting up inception_4c/output_inception_4c/output_0_split
I0403 09:57:21.841356 31906 net.cpp:148] Top shape: 24 512 14 14 (2408448)
I0403 09:57:21.841373 31906 net.cpp:148] Top shape: 24 512 14 14 (2408448)
I0403 09:57:21.841389 31906 net.cpp:148] Top shape: 24 512 14 14 (2408448)
I0403 09:57:21.841405 31906 net.cpp:148] Top shape: 24 512 14 14 (2408448)
I0403 09:57:21.841420 31906 net.cpp:156] Memory required for data: 1111171008
I0403 09:57:21.841436 31906 layer_factory.hpp:77] Creating layer inception_4d/1x1
I0403 09:57:21.841461 31906 net.cpp:91] Creating Layer inception_4d/1x1
I0403 09:57:21.841481 31906 net.cpp:425] inception_4d/1x1 <- inception_4c/output_inception_4c/output_0_split_0
I0403 09:57:21.841501 31906 net.cpp:399] inception_4d/1x1 -> inception_4d/1x1
I0403 09:57:21.842057 31906 net.cpp:141] Setting up inception_4d/1x1
I0403 09:57:21.842084 31906 net.cpp:148] Top shape: 24 112 14 14 (526848)
I0403 09:57:21.842100 31906 net.cpp:156] Memory required for data: 1113278400
I0403 09:57:21.842125 31906 layer_factory.hpp:77] Creating layer inception_4d/relu_1x1
I0403 09:57:21.842147 31906 net.cpp:91] Creating Layer inception_4d/relu_1x1
I0403 09:57:21.842164 31906 net.cpp:425] inception_4d/relu_1x1 <- inception_4d/1x1
I0403 09:57:21.842185 31906 net.cpp:386] inception_4d/relu_1x1 -> inception_4d/1x1 (in-place)
I0403 09:57:21.842206 31906 net.cpp:141] Setting up inception_4d/relu_1x1
I0403 09:57:21.842226 31906 net.cpp:148] Top shape: 24 112 14 14 (526848)
I0403 09:57:21.842241 31906 net.cpp:156] Memory required for data: 1115385792
I0403 09:57:21.842257 31906 layer_factory.hpp:77] Creating layer inception_4d/3x3_reduce
I0403 09:57:21.842281 31906 net.cpp:91] Creating Layer inception_4d/3x3_reduce
I0403 09:57:21.842300 31906 net.cpp:425] inception_4d/3x3_reduce <- inception_4c/output_inception_4c/output_0_split_1
I0403 09:57:21.842320 31906 net.cpp:399] inception_4d/3x3_reduce -> inception_4d/3x3_reduce
I0403 09:57:21.842985 31906 net.cpp:141] Setting up inception_4d/3x3_reduce
I0403 09:57:21.843013 31906 net.cpp:148] Top shape: 24 144 14 14 (677376)
I0403 09:57:21.843029 31906 net.cpp:156] Memory required for data: 1118095296
I0403 09:57:21.843063 31906 layer_factory.hpp:77] Creating layer inception_4d/relu_3x3_reduce
I0403 09:57:21.843087 31906 net.cpp:91] Creating Layer inception_4d/relu_3x3_reduce
I0403 09:57:21.843112 31906 net.cpp:425] inception_4d/relu_3x3_reduce <- inception_4d/3x3_reduce
I0403 09:57:21.843134 31906 net.cpp:386] inception_4d/relu_3x3_reduce -> inception_4d/3x3_reduce (in-place)
I0403 09:57:21.843155 31906 net.cpp:141] Setting up inception_4d/relu_3x3_reduce
I0403 09:57:21.843175 31906 net.cpp:148] Top shape: 24 144 14 14 (677376)
I0403 09:57:21.843192 31906 net.cpp:156] Memory required for data: 1120804800
I0403 09:57:21.843209 31906 layer_factory.hpp:77] Creating layer inception_4d/3x3
I0403 09:57:21.843233 31906 net.cpp:91] Creating Layer inception_4d/3x3
I0403 09:57:21.843252 31906 net.cpp:425] inception_4d/3x3 <- inception_4d/3x3_reduce
I0403 09:57:21.843273 31906 net.cpp:399] inception_4d/3x3 -> inception_4d/3x3
I0403 09:57:21.846540 31906 net.cpp:141] Setting up inception_4d/3x3
I0403 09:57:21.846570 31906 net.cpp:148] Top shape: 24 288 14 14 (1354752)
I0403 09:57:21.846587 31906 net.cpp:156] Memory required for data: 1126223808
I0403 09:57:21.846606 31906 layer_factory.hpp:77] Creating layer inception_4d/relu_3x3
I0403 09:57:21.846629 31906 net.cpp:91] Creating Layer inception_4d/relu_3x3
I0403 09:57:21.846648 31906 net.cpp:425] inception_4d/relu_3x3 <- inception_4d/3x3
I0403 09:57:21.846668 31906 net.cpp:386] inception_4d/relu_3x3 -> inception_4d/3x3 (in-place)
I0403 09:57:21.846690 31906 net.cpp:141] Setting up inception_4d/relu_3x3
I0403 09:57:21.846709 31906 net.cpp:148] Top shape: 24 288 14 14 (1354752)
I0403 09:57:21.846724 31906 net.cpp:156] Memory required for data: 1131642816
I0403 09:57:21.846740 31906 layer_factory.hpp:77] Creating layer inception_4d/5x5_reduce
I0403 09:57:21.846765 31906 net.cpp:91] Creating Layer inception_4d/5x5_reduce
I0403 09:57:21.846784 31906 net.cpp:425] inception_4d/5x5_reduce <- inception_4c/output_inception_4c/output_0_split_2
I0403 09:57:21.846807 31906 net.cpp:399] inception_4d/5x5_reduce -> inception_4d/5x5_reduce
I0403 09:57:21.847144 31906 net.cpp:141] Setting up inception_4d/5x5_reduce
I0403 09:57:21.847172 31906 net.cpp:148] Top shape: 24 32 14 14 (150528)
I0403 09:57:21.847189 31906 net.cpp:156] Memory required for data: 1132244928
I0403 09:57:21.847208 31906 layer_factory.hpp:77] Creating layer inception_4d/relu_5x5_reduce
I0403 09:57:21.847229 31906 net.cpp:91] Creating Layer inception_4d/relu_5x5_reduce
I0403 09:57:21.847249 31906 net.cpp:425] inception_4d/relu_5x5_reduce <- inception_4d/5x5_reduce
I0403 09:57:21.847267 31906 net.cpp:386] inception_4d/relu_5x5_reduce -> inception_4d/5x5_reduce (in-place)
I0403 09:57:21.847288 31906 net.cpp:141] Setting up inception_4d/relu_5x5_reduce
I0403 09:57:21.847306 31906 net.cpp:148] Top shape: 24 32 14 14 (150528)
I0403 09:57:21.847321 31906 net.cpp:156] Memory required for data: 1132847040
I0403 09:57:21.847339 31906 layer_factory.hpp:77] Creating layer inception_4d/5x5
I0403 09:57:21.847363 31906 net.cpp:91] Creating Layer inception_4d/5x5
I0403 09:57:21.847381 31906 net.cpp:425] inception_4d/5x5 <- inception_4d/5x5_reduce
I0403 09:57:21.847406 31906 net.cpp:399] inception_4d/5x5 -> inception_4d/5x5
I0403 09:57:21.847929 31906 net.cpp:141] Setting up inception_4d/5x5
I0403 09:57:21.847956 31906 net.cpp:148] Top shape: 24 64 14 14 (301056)
I0403 09:57:21.847973 31906 net.cpp:156] Memory required for data: 1134051264
I0403 09:57:21.847992 31906 layer_factory.hpp:77] Creating layer inception_4d/relu_5x5
I0403 09:57:21.848014 31906 net.cpp:91] Creating Layer inception_4d/relu_5x5
I0403 09:57:21.848033 31906 net.cpp:425] inception_4d/relu_5x5 <- inception_4d/5x5
I0403 09:57:21.848052 31906 net.cpp:386] inception_4d/relu_5x5 -> inception_4d/5x5 (in-place)
I0403 09:57:21.848073 31906 net.cpp:141] Setting up inception_4d/relu_5x5
I0403 09:57:21.848091 31906 net.cpp:148] Top shape: 24 64 14 14 (301056)
I0403 09:57:21.848111 31906 net.cpp:156] Memory required for data: 1135255488
I0403 09:57:21.848129 31906 layer_factory.hpp:77] Creating layer inception_4d/pool
I0403 09:57:21.848166 31906 net.cpp:91] Creating Layer inception_4d/pool
I0403 09:57:21.848186 31906 net.cpp:425] inception_4d/pool <- inception_4c/output_inception_4c/output_0_split_3
I0403 09:57:21.848207 31906 net.cpp:399] inception_4d/pool -> inception_4d/pool
I0403 09:57:21.848263 31906 net.cpp:141] Setting up inception_4d/pool
I0403 09:57:21.848289 31906 net.cpp:148] Top shape: 24 512 14 14 (2408448)
I0403 09:57:21.848306 31906 net.cpp:156] Memory required for data: 1144889280
I0403 09:57:21.848322 31906 layer_factory.hpp:77] Creating layer inception_4d/pool_proj
I0403 09:57:21.848347 31906 net.cpp:91] Creating Layer inception_4d/pool_proj
I0403 09:57:21.848367 31906 net.cpp:425] inception_4d/pool_proj <- inception_4d/pool
I0403 09:57:21.848388 31906 net.cpp:399] inception_4d/pool_proj -> inception_4d/pool_proj
I0403 09:57:21.849347 31906 net.cpp:141] Setting up inception_4d/pool_proj
I0403 09:57:21.849378 31906 net.cpp:148] Top shape: 24 64 14 14 (301056)
I0403 09:57:21.849396 31906 net.cpp:156] Memory required for data: 1146093504
I0403 09:57:21.849416 31906 layer_factory.hpp:77] Creating layer inception_4d/relu_pool_proj
I0403 09:57:21.849437 31906 net.cpp:91] Creating Layer inception_4d/relu_pool_proj
I0403 09:57:21.849457 31906 net.cpp:425] inception_4d/relu_pool_proj <- inception_4d/pool_proj
I0403 09:57:21.849477 31906 net.cpp:386] inception_4d/relu_pool_proj -> inception_4d/pool_proj (in-place)
I0403 09:57:21.849498 31906 net.cpp:141] Setting up inception_4d/relu_pool_proj
I0403 09:57:21.849516 31906 net.cpp:148] Top shape: 24 64 14 14 (301056)
I0403 09:57:21.849531 31906 net.cpp:156] Memory required for data: 1147297728
I0403 09:57:21.849547 31906 layer_factory.hpp:77] Creating layer inception_4d/output
I0403 09:57:21.849565 31906 net.cpp:91] Creating Layer inception_4d/output
I0403 09:57:21.849582 31906 net.cpp:425] inception_4d/output <- inception_4d/1x1
I0403 09:57:21.849601 31906 net.cpp:425] inception_4d/output <- inception_4d/3x3
I0403 09:57:21.849617 31906 net.cpp:425] inception_4d/output <- inception_4d/5x5
I0403 09:57:21.849634 31906 net.cpp:425] inception_4d/output <- inception_4d/pool_proj
I0403 09:57:21.849653 31906 net.cpp:399] inception_4d/output -> inception_4d/output
I0403 09:57:21.849695 31906 net.cpp:141] Setting up inception_4d/output
I0403 09:57:21.849721 31906 net.cpp:148] Top shape: 24 528 14 14 (2483712)
I0403 09:57:21.849737 31906 net.cpp:156] Memory required for data: 1157232576
I0403 09:57:21.849755 31906 layer_factory.hpp:77] Creating layer inception_4d/output_inception_4d/output_0_split
I0403 09:57:21.849776 31906 net.cpp:91] Creating Layer inception_4d/output_inception_4d/output_0_split
I0403 09:57:21.849795 31906 net.cpp:425] inception_4d/output_inception_4d/output_0_split <- inception_4d/output
I0403 09:57:21.849814 31906 net.cpp:399] inception_4d/output_inception_4d/output_0_split -> inception_4d/output_inception_4d/output_0_split_0
I0403 09:57:21.849836 31906 net.cpp:399] inception_4d/output_inception_4d/output_0_split -> inception_4d/output_inception_4d/output_0_split_1
I0403 09:57:21.849859 31906 net.cpp:399] inception_4d/output_inception_4d/output_0_split -> inception_4d/output_inception_4d/output_0_split_2
I0403 09:57:21.849884 31906 net.cpp:399] inception_4d/output_inception_4d/output_0_split -> inception_4d/output_inception_4d/output_0_split_3
I0403 09:57:21.849907 31906 net.cpp:399] inception_4d/output_inception_4d/output_0_split -> inception_4d/output_inception_4d/output_0_split_4
I0403 09:57:21.849992 31906 net.cpp:141] Setting up inception_4d/output_inception_4d/output_0_split
I0403 09:57:21.850018 31906 net.cpp:148] Top shape: 24 528 14 14 (2483712)
I0403 09:57:21.850035 31906 net.cpp:148] Top shape: 24 528 14 14 (2483712)
I0403 09:57:21.850052 31906 net.cpp:148] Top shape: 24 528 14 14 (2483712)
I0403 09:57:21.850069 31906 net.cpp:148] Top shape: 24 528 14 14 (2483712)
I0403 09:57:21.850085 31906 net.cpp:148] Top shape: 24 528 14 14 (2483712)
I0403 09:57:21.850100 31906 net.cpp:156] Memory required for data: 1206906816
I0403 09:57:21.850136 31906 layer_factory.hpp:77] Creating layer loss2/ave_pool
I0403 09:57:21.850158 31906 net.cpp:91] Creating Layer loss2/ave_pool
I0403 09:57:21.850181 31906 net.cpp:425] loss2/ave_pool <- inception_4d/output_inception_4d/output_0_split_0
I0403 09:57:21.850203 31906 net.cpp:399] loss2/ave_pool -> loss2/ave_pool
I0403 09:57:21.850247 31906 net.cpp:141] Setting up loss2/ave_pool
I0403 09:57:21.850273 31906 net.cpp:148] Top shape: 24 528 4 4 (202752)
I0403 09:57:21.850289 31906 net.cpp:156] Memory required for data: 1207717824
I0403 09:57:21.850306 31906 layer_factory.hpp:77] Creating layer loss2/conv
I0403 09:57:21.850332 31906 net.cpp:91] Creating Layer loss2/conv
I0403 09:57:21.850353 31906 net.cpp:425] loss2/conv <- loss2/ave_pool
I0403 09:57:21.850375 31906 net.cpp:399] loss2/conv -> loss2/conv
I0403 09:57:21.851531 31906 net.cpp:141] Setting up loss2/conv
I0403 09:57:21.851562 31906 net.cpp:148] Top shape: 24 128 4 4 (49152)
I0403 09:57:21.851579 31906 net.cpp:156] Memory required for data: 1207914432
I0403 09:57:21.851598 31906 layer_factory.hpp:77] Creating layer loss2/relu_conv
I0403 09:57:21.851619 31906 net.cpp:91] Creating Layer loss2/relu_conv
I0403 09:57:21.851639 31906 net.cpp:425] loss2/relu_conv <- loss2/conv
I0403 09:57:21.851658 31906 net.cpp:386] loss2/relu_conv -> loss2/conv (in-place)
I0403 09:57:21.851680 31906 net.cpp:141] Setting up loss2/relu_conv
I0403 09:57:21.851701 31906 net.cpp:148] Top shape: 24 128 4 4 (49152)
I0403 09:57:21.851716 31906 net.cpp:156] Memory required for data: 1208111040
I0403 09:57:21.851732 31906 layer_factory.hpp:77] Creating layer loss2/fc
I0403 09:57:21.851752 31906 net.cpp:91] Creating Layer loss2/fc
I0403 09:57:21.851769 31906 net.cpp:425] loss2/fc <- loss2/conv
I0403 09:57:21.851794 31906 net.cpp:399] loss2/fc -> loss2/fc
I0403 09:57:21.868305 31906 net.cpp:141] Setting up loss2/fc
I0403 09:57:21.868345 31906 net.cpp:148] Top shape: 24 1024 (24576)
I0403 09:57:21.868361 31906 net.cpp:156] Memory required for data: 1208209344
I0403 09:57:21.868382 31906 layer_factory.hpp:77] Creating layer loss2/relu_fc
I0403 09:57:21.868403 31906 net.cpp:91] Creating Layer loss2/relu_fc
I0403 09:57:21.868420 31906 net.cpp:425] loss2/relu_fc <- loss2/fc
I0403 09:57:21.868443 31906 net.cpp:386] loss2/relu_fc -> loss2/fc (in-place)
I0403 09:57:21.868464 31906 net.cpp:141] Setting up loss2/relu_fc
I0403 09:57:21.868484 31906 net.cpp:148] Top shape: 24 1024 (24576)
I0403 09:57:21.868499 31906 net.cpp:156] Memory required for data: 1208307648
I0403 09:57:21.868515 31906 layer_factory.hpp:77] Creating layer loss2/drop_fc
I0403 09:57:21.868535 31906 net.cpp:91] Creating Layer loss2/drop_fc
I0403 09:57:21.868552 31906 net.cpp:425] loss2/drop_fc <- loss2/fc
I0403 09:57:21.868574 31906 net.cpp:386] loss2/drop_fc -> loss2/fc (in-place)
I0403 09:57:21.868618 31906 net.cpp:141] Setting up loss2/drop_fc
I0403 09:57:21.868641 31906 net.cpp:148] Top shape: 24 1024 (24576)
I0403 09:57:21.868659 31906 net.cpp:156] Memory required for data: 1208405952
I0403 09:57:21.868674 31906 layer_factory.hpp:77] Creating layer loss2/classifier_plantvillage
I0403 09:57:21.868697 31906 net.cpp:91] Creating Layer loss2/classifier_plantvillage
I0403 09:57:21.868717 31906 net.cpp:425] loss2/classifier_plantvillage <- loss2/fc
I0403 09:57:21.868738 31906 net.cpp:399] loss2/classifier_plantvillage -> loss2/classifier_plantvillage
I0403 09:57:21.869079 31906 net.cpp:141] Setting up loss2/classifier_plantvillage
I0403 09:57:21.869107 31906 net.cpp:148] Top shape: 24 38 (912)
I0403 09:57:21.869130 31906 net.cpp:156] Memory required for data: 1208409600
I0403 09:57:21.869149 31906 layer_factory.hpp:77] Creating layer inception_4e/1x1
I0403 09:57:21.869175 31906 net.cpp:91] Creating Layer inception_4e/1x1
I0403 09:57:21.869195 31906 net.cpp:425] inception_4e/1x1 <- inception_4d/output_inception_4d/output_0_split_1
I0403 09:57:21.869218 31906 net.cpp:399] inception_4e/1x1 -> inception_4e/1x1
I0403 09:57:21.870234 31906 net.cpp:141] Setting up inception_4e/1x1
I0403 09:57:21.870262 31906 net.cpp:148] Top shape: 24 256 14 14 (1204224)
I0403 09:57:21.870296 31906 net.cpp:156] Memory required for data: 1213226496
I0403 09:57:21.870317 31906 layer_factory.hpp:77] Creating layer inception_4e/relu_1x1
I0403 09:57:21.870338 31906 net.cpp:91] Creating Layer inception_4e/relu_1x1
I0403 09:57:21.870357 31906 net.cpp:425] inception_4e/relu_1x1 <- inception_4e/1x1
I0403 09:57:21.870376 31906 net.cpp:386] inception_4e/relu_1x1 -> inception_4e/1x1 (in-place)
I0403 09:57:21.870396 31906 net.cpp:141] Setting up inception_4e/relu_1x1
I0403 09:57:21.870415 31906 net.cpp:148] Top shape: 24 256 14 14 (1204224)
I0403 09:57:21.870430 31906 net.cpp:156] Memory required for data: 1218043392
I0403 09:57:21.870446 31906 layer_factory.hpp:77] Creating layer inception_4e/3x3_reduce
I0403 09:57:21.870471 31906 net.cpp:91] Creating Layer inception_4e/3x3_reduce
I0403 09:57:21.870491 31906 net.cpp:425] inception_4e/3x3_reduce <- inception_4d/output_inception_4d/output_0_split_2
I0403 09:57:21.870512 31906 net.cpp:399] inception_4e/3x3_reduce -> inception_4e/3x3_reduce
I0403 09:57:21.871773 31906 net.cpp:141] Setting up inception_4e/3x3_reduce
I0403 09:57:21.871803 31906 net.cpp:148] Top shape: 24 160 14 14 (752640)
I0403 09:57:21.871820 31906 net.cpp:156] Memory required for data: 1221053952
I0403 09:57:21.871840 31906 layer_factory.hpp:77] Creating layer inception_4e/relu_3x3_reduce
I0403 09:57:21.871860 31906 net.cpp:91] Creating Layer inception_4e/relu_3x3_reduce
I0403 09:57:21.871881 31906 net.cpp:425] inception_4e/relu_3x3_reduce <- inception_4e/3x3_reduce
I0403 09:57:21.871899 31906 net.cpp:386] inception_4e/relu_3x3_reduce -> inception_4e/3x3_reduce (in-place)
I0403 09:57:21.871924 31906 net.cpp:141] Setting up inception_4e/relu_3x3_reduce
I0403 09:57:21.871944 31906 net.cpp:148] Top shape: 24 160 14 14 (752640)
I0403 09:57:21.871960 31906 net.cpp:156] Memory required for data: 1224064512
I0403 09:57:21.871976 31906 layer_factory.hpp:77] Creating layer inception_4e/3x3
I0403 09:57:21.871999 31906 net.cpp:91] Creating Layer inception_4e/3x3
I0403 09:57:21.872016 31906 net.cpp:425] inception_4e/3x3 <- inception_4e/3x3_reduce
I0403 09:57:21.872040 31906 net.cpp:399] inception_4e/3x3 -> inception_4e/3x3
I0403 09:57:21.875979 31906 net.cpp:141] Setting up inception_4e/3x3
I0403 09:57:21.876011 31906 net.cpp:148] Top shape: 24 320 14 14 (1505280)
I0403 09:57:21.876029 31906 net.cpp:156] Memory required for data: 1230085632
I0403 09:57:21.876049 31906 layer_factory.hpp:77] Creating layer inception_4e/relu_3x3
I0403 09:57:21.876071 31906 net.cpp:91] Creating Layer inception_4e/relu_3x3
I0403 09:57:21.876092 31906 net.cpp:425] inception_4e/relu_3x3 <- inception_4e/3x3
I0403 09:57:21.876116 31906 net.cpp:386] inception_4e/relu_3x3 -> inception_4e/3x3 (in-place)
I0403 09:57:21.876138 31906 net.cpp:141] Setting up inception_4e/relu_3x3
I0403 09:57:21.876157 31906 net.cpp:148] Top shape: 24 320 14 14 (1505280)
I0403 09:57:21.876173 31906 net.cpp:156] Memory required for data: 1236106752
I0403 09:57:21.876188 31906 layer_factory.hpp:77] Creating layer inception_4e/5x5_reduce
I0403 09:57:21.876214 31906 net.cpp:91] Creating Layer inception_4e/5x5_reduce
I0403 09:57:21.876233 31906 net.cpp:425] inception_4e/5x5_reduce <- inception_4d/output_inception_4d/output_0_split_3
I0403 09:57:21.876255 31906 net.cpp:399] inception_4e/5x5_reduce -> inception_4e/5x5_reduce
I0403 09:57:21.876591 31906 net.cpp:141] Setting up inception_4e/5x5_reduce
I0403 09:57:21.876621 31906 net.cpp:148] Top shape: 24 32 14 14 (150528)
I0403 09:57:21.876639 31906 net.cpp:156] Memory required for data: 1236708864
I0403 09:57:21.876659 31906 layer_factory.hpp:77] Creating layer inception_4e/relu_5x5_reduce
I0403 09:57:21.876678 31906 net.cpp:91] Creating Layer inception_4e/relu_5x5_reduce
I0403 09:57:21.876695 31906 net.cpp:425] inception_4e/relu_5x5_reduce <- inception_4e/5x5_reduce
I0403 09:57:21.876714 31906 net.cpp:386] inception_4e/relu_5x5_reduce -> inception_4e/5x5_reduce (in-place)
I0403 09:57:21.876735 31906 net.cpp:141] Setting up inception_4e/relu_5x5_reduce
I0403 09:57:21.876770 31906 net.cpp:148] Top shape: 24 32 14 14 (150528)
I0403 09:57:21.876788 31906 net.cpp:156] Memory required for data: 1237310976
I0403 09:57:21.876806 31906 layer_factory.hpp:77] Creating layer inception_4e/5x5
I0403 09:57:21.876830 31906 net.cpp:91] Creating Layer inception_4e/5x5
I0403 09:57:21.876850 31906 net.cpp:425] inception_4e/5x5 <- inception_4e/5x5_reduce
I0403 09:57:21.876874 31906 net.cpp:399] inception_4e/5x5 -> inception_4e/5x5
I0403 09:57:21.877712 31906 net.cpp:141] Setting up inception_4e/5x5
I0403 09:57:21.877739 31906 net.cpp:148] Top shape: 24 128 14 14 (602112)
I0403 09:57:21.877755 31906 net.cpp:156] Memory required for data: 1239719424
I0403 09:57:21.877774 31906 layer_factory.hpp:77] Creating layer inception_4e/relu_5x5
I0403 09:57:21.877794 31906 net.cpp:91] Creating Layer inception_4e/relu_5x5
I0403 09:57:21.877812 31906 net.cpp:425] inception_4e/relu_5x5 <- inception_4e/5x5
I0403 09:57:21.877835 31906 net.cpp:386] inception_4e/relu_5x5 -> inception_4e/5x5 (in-place)
I0403 09:57:21.877858 31906 net.cpp:141] Setting up inception_4e/relu_5x5
I0403 09:57:21.877877 31906 net.cpp:148] Top shape: 24 128 14 14 (602112)
I0403 09:57:21.877892 31906 net.cpp:156] Memory required for data: 1242127872
I0403 09:57:21.877907 31906 layer_factory.hpp:77] Creating layer inception_4e/pool
I0403 09:57:21.877946 31906 net.cpp:91] Creating Layer inception_4e/pool
I0403 09:57:21.877967 31906 net.cpp:425] inception_4e/pool <- inception_4d/output_inception_4d/output_0_split_4
I0403 09:57:21.877988 31906 net.cpp:399] inception_4e/pool -> inception_4e/pool
I0403 09:57:21.878046 31906 net.cpp:141] Setting up inception_4e/pool
I0403 09:57:21.878072 31906 net.cpp:148] Top shape: 24 528 14 14 (2483712)
I0403 09:57:21.878089 31906 net.cpp:156] Memory required for data: 1252062720
I0403 09:57:21.878105 31906 layer_factory.hpp:77] Creating layer inception_4e/pool_proj
I0403 09:57:21.878136 31906 net.cpp:91] Creating Layer inception_4e/pool_proj
I0403 09:57:21.878156 31906 net.cpp:425] inception_4e/pool_proj <- inception_4e/pool
I0403 09:57:21.878178 31906 net.cpp:399] inception_4e/pool_proj -> inception_4e/pool_proj
I0403 09:57:21.878794 31906 net.cpp:141] Setting up inception_4e/pool_proj
I0403 09:57:21.878823 31906 net.cpp:148] Top shape: 24 128 14 14 (602112)
I0403 09:57:21.878839 31906 net.cpp:156] Memory required for data: 1254471168
I0403 09:57:21.878857 31906 layer_factory.hpp:77] Creating layer inception_4e/relu_pool_proj
I0403 09:57:21.878877 31906 net.cpp:91] Creating Layer inception_4e/relu_pool_proj
I0403 09:57:21.878895 31906 net.cpp:425] inception_4e/relu_pool_proj <- inception_4e/pool_proj
I0403 09:57:21.878918 31906 net.cpp:386] inception_4e/relu_pool_proj -> inception_4e/pool_proj (in-place)
I0403 09:57:21.878942 31906 net.cpp:141] Setting up inception_4e/relu_pool_proj
I0403 09:57:21.878960 31906 net.cpp:148] Top shape: 24 128 14 14 (602112)
I0403 09:57:21.878975 31906 net.cpp:156] Memory required for data: 1256879616
I0403 09:57:21.878991 31906 layer_factory.hpp:77] Creating layer inception_4e/output
I0403 09:57:21.879010 31906 net.cpp:91] Creating Layer inception_4e/output
I0403 09:57:21.879027 31906 net.cpp:425] inception_4e/output <- inception_4e/1x1
I0403 09:57:21.879045 31906 net.cpp:425] inception_4e/output <- inception_4e/3x3
I0403 09:57:21.879062 31906 net.cpp:425] inception_4e/output <- inception_4e/5x5
I0403 09:57:21.879079 31906 net.cpp:425] inception_4e/output <- inception_4e/pool_proj
I0403 09:57:21.879098 31906 net.cpp:399] inception_4e/output -> inception_4e/output
I0403 09:57:21.879148 31906 net.cpp:141] Setting up inception_4e/output
I0403 09:57:21.879173 31906 net.cpp:148] Top shape: 24 832 14 14 (3913728)
I0403 09:57:21.879190 31906 net.cpp:156] Memory required for data: 1272534528
I0403 09:57:21.879206 31906 layer_factory.hpp:77] Creating layer pool4/3x3_s2
I0403 09:57:21.879225 31906 net.cpp:91] Creating Layer pool4/3x3_s2
I0403 09:57:21.879246 31906 net.cpp:425] pool4/3x3_s2 <- inception_4e/output
I0403 09:57:21.879267 31906 net.cpp:399] pool4/3x3_s2 -> pool4/3x3_s2
I0403 09:57:21.879336 31906 net.cpp:141] Setting up pool4/3x3_s2
I0403 09:57:21.879364 31906 net.cpp:148] Top shape: 24 832 7 7 (978432)
I0403 09:57:21.879380 31906 net.cpp:156] Memory required for data: 1276448256
I0403 09:57:21.879396 31906 layer_factory.hpp:77] Creating layer pool4/3x3_s2_pool4/3x3_s2_0_split
I0403 09:57:21.879416 31906 net.cpp:91] Creating Layer pool4/3x3_s2_pool4/3x3_s2_0_split
I0403 09:57:21.879434 31906 net.cpp:425] pool4/3x3_s2_pool4/3x3_s2_0_split <- pool4/3x3_s2
I0403 09:57:21.879454 31906 net.cpp:399] pool4/3x3_s2_pool4/3x3_s2_0_split -> pool4/3x3_s2_pool4/3x3_s2_0_split_0
I0403 09:57:21.879479 31906 net.cpp:399] pool4/3x3_s2_pool4/3x3_s2_0_split -> pool4/3x3_s2_pool4/3x3_s2_0_split_1
I0403 09:57:21.879503 31906 net.cpp:399] pool4/3x3_s2_pool4/3x3_s2_0_split -> pool4/3x3_s2_pool4/3x3_s2_0_split_2
I0403 09:57:21.879526 31906 net.cpp:399] pool4/3x3_s2_pool4/3x3_s2_0_split -> pool4/3x3_s2_pool4/3x3_s2_0_split_3
I0403 09:57:21.879598 31906 net.cpp:141] Setting up pool4/3x3_s2_pool4/3x3_s2_0_split
I0403 09:57:21.879624 31906 net.cpp:148] Top shape: 24 832 7 7 (978432)
I0403 09:57:21.879642 31906 net.cpp:148] Top shape: 24 832 7 7 (978432)
I0403 09:57:21.879659 31906 net.cpp:148] Top shape: 24 832 7 7 (978432)
I0403 09:57:21.879675 31906 net.cpp:148] Top shape: 24 832 7 7 (978432)
I0403 09:57:21.879690 31906 net.cpp:156] Memory required for data: 1292103168
I0403 09:57:21.879706 31906 layer_factory.hpp:77] Creating layer inception_5a/1x1
I0403 09:57:21.879731 31906 net.cpp:91] Creating Layer inception_5a/1x1
I0403 09:57:21.879750 31906 net.cpp:425] inception_5a/1x1 <- pool4/3x3_s2_pool4/3x3_s2_0_split_0
I0403 09:57:21.879776 31906 net.cpp:399] inception_5a/1x1 -> inception_5a/1x1
I0403 09:57:21.881783 31906 net.cpp:141] Setting up inception_5a/1x1
I0403 09:57:21.881819 31906 net.cpp:148] Top shape: 24 256 7 7 (301056)
I0403 09:57:21.881837 31906 net.cpp:156] Memory required for data: 1293307392
I0403 09:57:21.881857 31906 layer_factory.hpp:77] Creating layer inception_5a/relu_1x1
I0403 09:57:21.881877 31906 net.cpp:91] Creating Layer inception_5a/relu_1x1
I0403 09:57:21.881897 31906 net.cpp:425] inception_5a/relu_1x1 <- inception_5a/1x1
I0403 09:57:21.881916 31906 net.cpp:386] inception_5a/relu_1x1 -> inception_5a/1x1 (in-place)
I0403 09:57:21.881937 31906 net.cpp:141] Setting up inception_5a/relu_1x1
I0403 09:57:21.881955 31906 net.cpp:148] Top shape: 24 256 7 7 (301056)
I0403 09:57:21.881971 31906 net.cpp:156] Memory required for data: 1294511616
I0403 09:57:21.881986 31906 layer_factory.hpp:77] Creating layer inception_5a/3x3_reduce
I0403 09:57:21.882011 31906 net.cpp:91] Creating Layer inception_5a/3x3_reduce
I0403 09:57:21.882031 31906 net.cpp:425] inception_5a/3x3_reduce <- pool4/3x3_s2_pool4/3x3_s2_0_split_1
I0403 09:57:21.882055 31906 net.cpp:399] inception_5a/3x3_reduce -> inception_5a/3x3_reduce
I0403 09:57:21.883605 31906 net.cpp:141] Setting up inception_5a/3x3_reduce
I0403 09:57:21.883637 31906 net.cpp:148] Top shape: 24 160 7 7 (188160)
I0403 09:57:21.883654 31906 net.cpp:156] Memory required for data: 1295264256
I0403 09:57:21.883676 31906 layer_factory.hpp:77] Creating layer inception_5a/relu_3x3_reduce
I0403 09:57:21.883693 31906 net.cpp:91] Creating Layer inception_5a/relu_3x3_reduce
I0403 09:57:21.883711 31906 net.cpp:425] inception_5a/relu_3x3_reduce <- inception_5a/3x3_reduce
I0403 09:57:21.883730 31906 net.cpp:386] inception_5a/relu_3x3_reduce -> inception_5a/3x3_reduce (in-place)
I0403 09:57:21.883751 31906 net.cpp:141] Setting up inception_5a/relu_3x3_reduce
I0403 09:57:21.883770 31906 net.cpp:148] Top shape: 24 160 7 7 (188160)
I0403 09:57:21.883786 31906 net.cpp:156] Memory required for data: 1296016896
I0403 09:57:21.883802 31906 layer_factory.hpp:77] Creating layer inception_5a/3x3
I0403 09:57:21.883827 31906 net.cpp:91] Creating Layer inception_5a/3x3
I0403 09:57:21.883846 31906 net.cpp:425] inception_5a/3x3 <- inception_5a/3x3_reduce
I0403 09:57:21.883867 31906 net.cpp:399] inception_5a/3x3 -> inception_5a/3x3
I0403 09:57:21.887811 31906 net.cpp:141] Setting up inception_5a/3x3
I0403 09:57:21.887855 31906 net.cpp:148] Top shape: 24 320 7 7 (376320)
I0403 09:57:21.887873 31906 net.cpp:156] Memory required for data: 1297522176
I0403 09:57:21.887893 31906 layer_factory.hpp:77] Creating layer inception_5a/relu_3x3
I0403 09:57:21.887915 31906 net.cpp:91] Creating Layer inception_5a/relu_3x3
I0403 09:57:21.887935 31906 net.cpp:425] inception_5a/relu_3x3 <- inception_5a/3x3
I0403 09:57:21.887954 31906 net.cpp:386] inception_5a/relu_3x3 -> inception_5a/3x3 (in-place)
I0403 09:57:21.887976 31906 net.cpp:141] Setting up inception_5a/relu_3x3
I0403 09:57:21.887995 31906 net.cpp:148] Top shape: 24 320 7 7 (376320)
I0403 09:57:21.888011 31906 net.cpp:156] Memory required for data: 1299027456
I0403 09:57:21.888026 31906 layer_factory.hpp:77] Creating layer inception_5a/5x5_reduce
I0403 09:57:21.888051 31906 net.cpp:91] Creating Layer inception_5a/5x5_reduce
I0403 09:57:21.888077 31906 net.cpp:425] inception_5a/5x5_reduce <- pool4/3x3_s2_pool4/3x3_s2_0_split_2
I0403 09:57:21.888099 31906 net.cpp:399] inception_5a/5x5_reduce -> inception_5a/5x5_reduce
I0403 09:57:21.888510 31906 net.cpp:141] Setting up inception_5a/5x5_reduce
I0403 09:57:21.888537 31906 net.cpp:148] Top shape: 24 32 7 7 (37632)
I0403 09:57:21.888555 31906 net.cpp:156] Memory required for data: 1299177984
I0403 09:57:21.888573 31906 layer_factory.hpp:77] Creating layer inception_5a/relu_5x5_reduce
I0403 09:57:21.888593 31906 net.cpp:91] Creating Layer inception_5a/relu_5x5_reduce
I0403 09:57:21.888612 31906 net.cpp:425] inception_5a/relu_5x5_reduce <- inception_5a/5x5_reduce
I0403 09:57:21.888634 31906 net.cpp:386] inception_5a/relu_5x5_reduce -> inception_5a/5x5_reduce (in-place)
I0403 09:57:21.888656 31906 net.cpp:141] Setting up inception_5a/relu_5x5_reduce
I0403 09:57:21.888675 31906 net.cpp:148] Top shape: 24 32 7 7 (37632)
I0403 09:57:21.888691 31906 net.cpp:156] Memory required for data: 1299328512
I0403 09:57:21.888707 31906 layer_factory.hpp:77] Creating layer inception_5a/5x5
I0403 09:57:21.888733 31906 net.cpp:91] Creating Layer inception_5a/5x5
I0403 09:57:21.888754 31906 net.cpp:425] inception_5a/5x5 <- inception_5a/5x5_reduce
I0403 09:57:21.888775 31906 net.cpp:399] inception_5a/5x5 -> inception_5a/5x5
I0403 09:57:21.889600 31906 net.cpp:141] Setting up inception_5a/5x5
I0403 09:57:21.889628 31906 net.cpp:148] Top shape: 24 128 7 7 (150528)
I0403 09:57:21.889645 31906 net.cpp:156] Memory required for data: 1299930624
I0403 09:57:21.889665 31906 layer_factory.hpp:77] Creating layer inception_5a/relu_5x5
I0403 09:57:21.889685 31906 net.cpp:91] Creating Layer inception_5a/relu_5x5
I0403 09:57:21.889703 31906 net.cpp:425] inception_5a/relu_5x5 <- inception_5a/5x5
I0403 09:57:21.889724 31906 net.cpp:386] inception_5a/relu_5x5 -> inception_5a/5x5 (in-place)
I0403 09:57:21.889746 31906 net.cpp:141] Setting up inception_5a/relu_5x5
I0403 09:57:21.889766 31906 net.cpp:148] Top shape: 24 128 7 7 (150528)
I0403 09:57:21.889781 31906 net.cpp:156] Memory required for data: 1300532736
I0403 09:57:21.889797 31906 layer_factory.hpp:77] Creating layer inception_5a/pool
I0403 09:57:21.889816 31906 net.cpp:91] Creating Layer inception_5a/pool
I0403 09:57:21.889834 31906 net.cpp:425] inception_5a/pool <- pool4/3x3_s2_pool4/3x3_s2_0_split_3
I0403 09:57:21.889853 31906 net.cpp:399] inception_5a/pool -> inception_5a/pool
I0403 09:57:21.889911 31906 net.cpp:141] Setting up inception_5a/pool
I0403 09:57:21.889937 31906 net.cpp:148] Top shape: 24 832 7 7 (978432)
I0403 09:57:21.889953 31906 net.cpp:156] Memory required for data: 1304446464
I0403 09:57:21.889969 31906 layer_factory.hpp:77] Creating layer inception_5a/pool_proj
I0403 09:57:21.889994 31906 net.cpp:91] Creating Layer inception_5a/pool_proj
I0403 09:57:21.890014 31906 net.cpp:425] inception_5a/pool_proj <- inception_5a/pool
I0403 09:57:21.890038 31906 net.cpp:399] inception_5a/pool_proj -> inception_5a/pool_proj
I0403 09:57:21.891432 31906 net.cpp:141] Setting up inception_5a/pool_proj
I0403 09:57:21.891464 31906 net.cpp:148] Top shape: 24 128 7 7 (150528)
I0403 09:57:21.891484 31906 net.cpp:156] Memory required for data: 1305048576
I0403 09:57:21.891518 31906 layer_factory.hpp:77] Creating layer inception_5a/relu_pool_proj
I0403 09:57:21.891541 31906 net.cpp:91] Creating Layer inception_5a/relu_pool_proj
I0403 09:57:21.891559 31906 net.cpp:425] inception_5a/relu_pool_proj <- inception_5a/pool_proj
I0403 09:57:21.891578 31906 net.cpp:386] inception_5a/relu_pool_proj -> inception_5a/pool_proj (in-place)
I0403 09:57:21.891600 31906 net.cpp:141] Setting up inception_5a/relu_pool_proj
I0403 09:57:21.891621 31906 net.cpp:148] Top shape: 24 128 7 7 (150528)
I0403 09:57:21.891638 31906 net.cpp:156] Memory required for data: 1305650688
I0403 09:57:21.891654 31906 layer_factory.hpp:77] Creating layer inception_5a/output
I0403 09:57:21.891672 31906 net.cpp:91] Creating Layer inception_5a/output
I0403 09:57:21.891690 31906 net.cpp:425] inception_5a/output <- inception_5a/1x1
I0403 09:57:21.891706 31906 net.cpp:425] inception_5a/output <- inception_5a/3x3
I0403 09:57:21.891724 31906 net.cpp:425] inception_5a/output <- inception_5a/5x5
I0403 09:57:21.891742 31906 net.cpp:425] inception_5a/output <- inception_5a/pool_proj
I0403 09:57:21.891762 31906 net.cpp:399] inception_5a/output -> inception_5a/output
I0403 09:57:21.891805 31906 net.cpp:141] Setting up inception_5a/output
I0403 09:57:21.891834 31906 net.cpp:148] Top shape: 24 832 7 7 (978432)
I0403 09:57:21.891851 31906 net.cpp:156] Memory required for data: 1309564416
I0403 09:57:21.891868 31906 layer_factory.hpp:77] Creating layer inception_5a/output_inception_5a/output_0_split
I0403 09:57:21.891888 31906 net.cpp:91] Creating Layer inception_5a/output_inception_5a/output_0_split
I0403 09:57:21.891906 31906 net.cpp:425] inception_5a/output_inception_5a/output_0_split <- inception_5a/output
I0403 09:57:21.891924 31906 net.cpp:399] inception_5a/output_inception_5a/output_0_split -> inception_5a/output_inception_5a/output_0_split_0
I0403 09:57:21.891947 31906 net.cpp:399] inception_5a/output_inception_5a/output_0_split -> inception_5a/output_inception_5a/output_0_split_1
I0403 09:57:21.891969 31906 net.cpp:399] inception_5a/output_inception_5a/output_0_split -> inception_5a/output_inception_5a/output_0_split_2
I0403 09:57:21.891994 31906 net.cpp:399] inception_5a/output_inception_5a/output_0_split -> inception_5a/output_inception_5a/output_0_split_3
I0403 09:57:21.892076 31906 net.cpp:141] Setting up inception_5a/output_inception_5a/output_0_split
I0403 09:57:21.892102 31906 net.cpp:148] Top shape: 24 832 7 7 (978432)
I0403 09:57:21.892124 31906 net.cpp:148] Top shape: 24 832 7 7 (978432)
I0403 09:57:21.892143 31906 net.cpp:148] Top shape: 24 832 7 7 (978432)
I0403 09:57:21.892159 31906 net.cpp:148] Top shape: 24 832 7 7 (978432)
I0403 09:57:21.892174 31906 net.cpp:156] Memory required for data: 1325219328
I0403 09:57:21.892190 31906 layer_factory.hpp:77] Creating layer inception_5b/1x1
I0403 09:57:21.892215 31906 net.cpp:91] Creating Layer inception_5b/1x1
I0403 09:57:21.892235 31906 net.cpp:425] inception_5b/1x1 <- inception_5a/output_inception_5a/output_0_split_0
I0403 09:57:21.892259 31906 net.cpp:399] inception_5b/1x1 -> inception_5b/1x1
I0403 09:57:21.894969 31906 net.cpp:141] Setting up inception_5b/1x1
I0403 09:57:21.895006 31906 net.cpp:148] Top shape: 24 384 7 7 (451584)
I0403 09:57:21.895025 31906 net.cpp:156] Memory required for data: 1327025664
I0403 09:57:21.895045 31906 layer_factory.hpp:77] Creating layer inception_5b/relu_1x1
I0403 09:57:21.895064 31906 net.cpp:91] Creating Layer inception_5b/relu_1x1
I0403 09:57:21.895082 31906 net.cpp:425] inception_5b/relu_1x1 <- inception_5b/1x1
I0403 09:57:21.895102 31906 net.cpp:386] inception_5b/relu_1x1 -> inception_5b/1x1 (in-place)
I0403 09:57:21.895128 31906 net.cpp:141] Setting up inception_5b/relu_1x1
I0403 09:57:21.895148 31906 net.cpp:148] Top shape: 24 384 7 7 (451584)
I0403 09:57:21.895164 31906 net.cpp:156] Memory required for data: 1328832000
I0403 09:57:21.895179 31906 layer_factory.hpp:77] Creating layer inception_5b/3x3_reduce
I0403 09:57:21.895205 31906 net.cpp:91] Creating Layer inception_5b/3x3_reduce
I0403 09:57:21.895238 31906 net.cpp:425] inception_5b/3x3_reduce <- inception_5a/output_inception_5a/output_0_split_1
I0403 09:57:21.895263 31906 net.cpp:399] inception_5b/3x3_reduce -> inception_5b/3x3_reduce
I0403 09:57:21.896972 31906 net.cpp:141] Setting up inception_5b/3x3_reduce
I0403 09:57:21.897006 31906 net.cpp:148] Top shape: 24 192 7 7 (225792)
I0403 09:57:21.897027 31906 net.cpp:156] Memory required for data: 1329735168
I0403 09:57:21.897047 31906 layer_factory.hpp:77] Creating layer inception_5b/relu_3x3_reduce
I0403 09:57:21.897068 31906 net.cpp:91] Creating Layer inception_5b/relu_3x3_reduce
I0403 09:57:21.897085 31906 net.cpp:425] inception_5b/relu_3x3_reduce <- inception_5b/3x3_reduce
I0403 09:57:21.897104 31906 net.cpp:386] inception_5b/relu_3x3_reduce -> inception_5b/3x3_reduce (in-place)
I0403 09:57:21.897140 31906 net.cpp:141] Setting up inception_5b/relu_3x3_reduce
I0403 09:57:21.897161 31906 net.cpp:148] Top shape: 24 192 7 7 (225792)
I0403 09:57:21.897178 31906 net.cpp:156] Memory required for data: 1330638336
I0403 09:57:21.897193 31906 layer_factory.hpp:77] Creating layer inception_5b/3x3
I0403 09:57:21.897218 31906 net.cpp:91] Creating Layer inception_5b/3x3
I0403 09:57:21.897239 31906 net.cpp:425] inception_5b/3x3 <- inception_5b/3x3_reduce
I0403 09:57:21.897263 31906 net.cpp:399] inception_5b/3x3 -> inception_5b/3x3
I0403 09:57:21.902786 31906 net.cpp:141] Setting up inception_5b/3x3
I0403 09:57:21.902815 31906 net.cpp:148] Top shape: 24 384 7 7 (451584)
I0403 09:57:21.902832 31906 net.cpp:156] Memory required for data: 1332444672
I0403 09:57:21.902853 31906 layer_factory.hpp:77] Creating layer inception_5b/relu_3x3
I0403 09:57:21.902873 31906 net.cpp:91] Creating Layer inception_5b/relu_3x3
I0403 09:57:21.902891 31906 net.cpp:425] inception_5b/relu_3x3 <- inception_5b/3x3
I0403 09:57:21.902914 31906 net.cpp:386] inception_5b/relu_3x3 -> inception_5b/3x3 (in-place)
I0403 09:57:21.902935 31906 net.cpp:141] Setting up inception_5b/relu_3x3
I0403 09:57:21.902954 31906 net.cpp:148] Top shape: 24 384 7 7 (451584)
I0403 09:57:21.902971 31906 net.cpp:156] Memory required for data: 1334251008
I0403 09:57:21.902986 31906 layer_factory.hpp:77] Creating layer inception_5b/5x5_reduce
I0403 09:57:21.903008 31906 net.cpp:91] Creating Layer inception_5b/5x5_reduce
I0403 09:57:21.903028 31906 net.cpp:425] inception_5b/5x5_reduce <- inception_5a/output_inception_5a/output_0_split_2
I0403 09:57:21.903051 31906 net.cpp:399] inception_5b/5x5_reduce -> inception_5b/5x5_reduce
I0403 09:57:21.903547 31906 net.cpp:141] Setting up inception_5b/5x5_reduce
I0403 09:57:21.903574 31906 net.cpp:148] Top shape: 24 48 7 7 (56448)
I0403 09:57:21.903591 31906 net.cpp:156] Memory required for data: 1334476800
I0403 09:57:21.903611 31906 layer_factory.hpp:77] Creating layer inception_5b/relu_5x5_reduce
I0403 09:57:21.903630 31906 net.cpp:91] Creating Layer inception_5b/relu_5x5_reduce
I0403 09:57:21.903650 31906 net.cpp:425] inception_5b/relu_5x5_reduce <- inception_5b/5x5_reduce
I0403 09:57:21.903669 31906 net.cpp:386] inception_5b/relu_5x5_reduce -> inception_5b/5x5_reduce (in-place)
I0403 09:57:21.903693 31906 net.cpp:141] Setting up inception_5b/relu_5x5_reduce
I0403 09:57:21.903714 31906 net.cpp:148] Top shape: 24 48 7 7 (56448)
I0403 09:57:21.903729 31906 net.cpp:156] Memory required for data: 1334702592
I0403 09:57:21.903745 31906 layer_factory.hpp:77] Creating layer inception_5b/5x5
I0403 09:57:21.903772 31906 net.cpp:91] Creating Layer inception_5b/5x5
I0403 09:57:21.903791 31906 net.cpp:425] inception_5b/5x5 <- inception_5b/5x5_reduce
I0403 09:57:21.903811 31906 net.cpp:399] inception_5b/5x5 -> inception_5b/5x5
I0403 09:57:21.904937 31906 net.cpp:141] Setting up inception_5b/5x5
I0403 09:57:21.904966 31906 net.cpp:148] Top shape: 24 128 7 7 (150528)
I0403 09:57:21.904983 31906 net.cpp:156] Memory required for data: 1335304704
I0403 09:57:21.905002 31906 layer_factory.hpp:77] Creating layer inception_5b/relu_5x5
I0403 09:57:21.905022 31906 net.cpp:91] Creating Layer inception_5b/relu_5x5
I0403 09:57:21.905038 31906 net.cpp:425] inception_5b/relu_5x5 <- inception_5b/5x5
I0403 09:57:21.905073 31906 net.cpp:386] inception_5b/relu_5x5 -> inception_5b/5x5 (in-place)
I0403 09:57:21.905095 31906 net.cpp:141] Setting up inception_5b/relu_5x5
I0403 09:57:21.905118 31906 net.cpp:148] Top shape: 24 128 7 7 (150528)
I0403 09:57:21.905135 31906 net.cpp:156] Memory required for data: 1335906816
I0403 09:57:21.905151 31906 layer_factory.hpp:77] Creating layer inception_5b/pool
I0403 09:57:21.905170 31906 net.cpp:91] Creating Layer inception_5b/pool
I0403 09:57:21.905187 31906 net.cpp:425] inception_5b/pool <- inception_5a/output_inception_5a/output_0_split_3
I0403 09:57:21.905208 31906 net.cpp:399] inception_5b/pool -> inception_5b/pool
I0403 09:57:21.905266 31906 net.cpp:141] Setting up inception_5b/pool
I0403 09:57:21.905293 31906 net.cpp:148] Top shape: 24 832 7 7 (978432)
I0403 09:57:21.905310 31906 net.cpp:156] Memory required for data: 1339820544
I0403 09:57:21.905328 31906 layer_factory.hpp:77] Creating layer inception_5b/pool_proj
I0403 09:57:21.905350 31906 net.cpp:91] Creating Layer inception_5b/pool_proj
I0403 09:57:21.905370 31906 net.cpp:425] inception_5b/pool_proj <- inception_5b/pool
I0403 09:57:21.905390 31906 net.cpp:399] inception_5b/pool_proj -> inception_5b/pool_proj
I0403 09:57:21.906746 31906 net.cpp:141] Setting up inception_5b/pool_proj
I0403 09:57:21.906776 31906 net.cpp:148] Top shape: 24 128 7 7 (150528)
I0403 09:57:21.906793 31906 net.cpp:156] Memory required for data: 1340422656
I0403 09:57:21.906811 31906 layer_factory.hpp:77] Creating layer inception_5b/relu_pool_proj
I0403 09:57:21.906831 31906 net.cpp:91] Creating Layer inception_5b/relu_pool_proj
I0403 09:57:21.906849 31906 net.cpp:425] inception_5b/relu_pool_proj <- inception_5b/pool_proj
I0403 09:57:21.906868 31906 net.cpp:386] inception_5b/relu_pool_proj -> inception_5b/pool_proj (in-place)
I0403 09:57:21.906889 31906 net.cpp:141] Setting up inception_5b/relu_pool_proj
I0403 09:57:21.906908 31906 net.cpp:148] Top shape: 24 128 7 7 (150528)
I0403 09:57:21.906924 31906 net.cpp:156] Memory required for data: 1341024768
I0403 09:57:21.906939 31906 layer_factory.hpp:77] Creating layer inception_5b/output
I0403 09:57:21.906961 31906 net.cpp:91] Creating Layer inception_5b/output
I0403 09:57:21.906980 31906 net.cpp:425] inception_5b/output <- inception_5b/1x1
I0403 09:57:21.906997 31906 net.cpp:425] inception_5b/output <- inception_5b/3x3
I0403 09:57:21.907013 31906 net.cpp:425] inception_5b/output <- inception_5b/5x5
I0403 09:57:21.907030 31906 net.cpp:425] inception_5b/output <- inception_5b/pool_proj
I0403 09:57:21.907049 31906 net.cpp:399] inception_5b/output -> inception_5b/output
I0403 09:57:21.907093 31906 net.cpp:141] Setting up inception_5b/output
I0403 09:57:21.907129 31906 net.cpp:148] Top shape: 24 1024 7 7 (1204224)
I0403 09:57:21.907147 31906 net.cpp:156] Memory required for data: 1345841664
I0403 09:57:21.907165 31906 layer_factory.hpp:77] Creating layer pool5/7x7_s1
I0403 09:57:21.907182 31906 net.cpp:91] Creating Layer pool5/7x7_s1
I0403 09:57:21.907201 31906 net.cpp:425] pool5/7x7_s1 <- inception_5b/output
I0403 09:57:21.907222 31906 net.cpp:399] pool5/7x7_s1 -> pool5/7x7_s1
I0403 09:57:21.907263 31906 net.cpp:141] Setting up pool5/7x7_s1
I0403 09:57:21.907287 31906 net.cpp:148] Top shape: 24 1024 1 1 (24576)
I0403 09:57:21.907304 31906 net.cpp:156] Memory required for data: 1345939968
I0403 09:57:21.907320 31906 layer_factory.hpp:77] Creating layer pool5/drop_7x7_s1
I0403 09:57:21.907342 31906 net.cpp:91] Creating Layer pool5/drop_7x7_s1
I0403 09:57:21.907361 31906 net.cpp:425] pool5/drop_7x7_s1 <- pool5/7x7_s1
I0403 09:57:21.907378 31906 net.cpp:386] pool5/drop_7x7_s1 -> pool5/7x7_s1 (in-place)
I0403 09:57:21.907419 31906 net.cpp:141] Setting up pool5/drop_7x7_s1
I0403 09:57:21.907444 31906 net.cpp:148] Top shape: 24 1024 1 1 (24576)
I0403 09:57:21.907459 31906 net.cpp:156] Memory required for data: 1346038272
I0403 09:57:21.907474 31906 layer_factory.hpp:77] Creating layer loss3/classifier_plantvillage
I0403 09:57:21.907496 31906 net.cpp:91] Creating Layer loss3/classifier_plantvillage
I0403 09:57:21.907528 31906 net.cpp:425] loss3/classifier_plantvillage <- pool5/7x7_s1
I0403 09:57:21.907551 31906 net.cpp:399] loss3/classifier_plantvillage -> loss3/classifier_plantvillage
I0403 09:57:21.907905 31906 net.cpp:141] Setting up loss3/classifier_plantvillage
I0403 09:57:21.907932 31906 net.cpp:148] Top shape: 24 38 (912)
I0403 09:57:21.907948 31906 net.cpp:156] Memory required for data: 1346041920
I0403 09:57:21.907965 31906 layer_factory.hpp:77] Creating layer loss1/loss
I0403 09:57:21.907991 31906 net.cpp:91] Creating Layer loss1/loss
I0403 09:57:21.908010 31906 net.cpp:425] loss1/loss <- loss1/classifier_plantvillage
I0403 09:57:21.908027 31906 net.cpp:425] loss1/loss <- label_data_1_split_0
I0403 09:57:21.908047 31906 net.cpp:399] loss1/loss -> loss1/loss
…
I0403 09:57:21.918339 31906 net.cpp:313] The NetState phase (1) differed from the phase (0) specified by a rule in layer data
I0403 09:57:21.922461 31906 net.cpp:49] Initializing net from parameters: 
state {
  phase: TEST
}
layer {
  name: "data"
  type: "Data"
  top: "data"
  top: "label"
  include {
    phase: TEST
  }
  transform_param {
    mirror: false
    crop_size: 224
    mean_file: "/home/mohanty/data/final_dataset/lmdb/grayscale-80-20/mean.binaryproto"
  }
  data_param {
    source: "/home/mohanty/data/final_dataset/lmdb/grayscale-80-20/test_db"
    batch_size: 24
    backend: LMDB
  }
}
layer {
  name: "conv1/7x7_s2"
  type: "Convolution"
  bottom: "data"
  top: "conv1/7x7_s2"
  param {
    lr_mult: 1
    decay_mult: 1
  }
  param {
    lr_mult: 2
    decay_mult: 0
  }
  convolution_param {
    num_output: 64
    pad: 3
    kernel_size: 7
    stride: 2
    weight_filler {
      type: "xavier"
      std: 0.1
    }
    bias_filler {
      type: "constant"
      value: 0.2
    }
  }
}
layer {
  name: "conv1/relu_7x7"
  type: "ReLU"
  bottom: "conv1/7x7_s2"
  top: "conv1/7x7_s2"
}
layer {
  name: "pool1/3x3_s2"
  type: "Pooling"
  bottom: "conv1/7x7_s2"
  top: "pool1/3x3_s2"
  pooling_param {
    pool: MAX
    kernel_size: 3
    stride: 2
  }
}
layer {
  name: "pool1/norm1"
  type: "LRN"
  bottom: "pool1/3x3_s2"
  top: "pool1/norm1"
  lrn_param {
    local_size: 5
    alpha: 0.0001
    beta: 0.75
  }
}
layer {
  name: "conv2/3x3_reduce"
  type: "Convolution"
  bottom: "pool1/norm1"
  top: "conv2/3x3_reduce"
  param {
    lr_mult: 1
    decay_mult: 1
  }
  param {
    lr_mult: 2
    decay_mult: 0
  }
  convolution_param {
    num_output: 64
    kernel_size: 1
    weight_filler {
      type: "xavier"
      std: 0.1
    }
    bias_filler {
      type: "constant"
      value: 0.2
    }
  }
}
layer {
  name: "conv2/relu_3x3_reduce"
  type: "ReLU"
  bottom: "conv2/3x3_reduce"
  top: "conv2/3x3_reduce"
}
layer {
  name: "conv2/3x3"
  type: "Convolution"
  bottom: "conv2/3x3_reduce"
  top: "conv2/3x3"
  param {
    lr_mult: 1
    decay_mult: 1
  }
  param {
    lr_mult: 2
    decay_mult: 0
  }
  convolution_param {
    num_output: 192
    pad: 1
    kernel_size: 3
    weight_filler {
      type: "xavier"
      std: 0.03
    }
    bias_filler {
      type: "constant"
      value: 0.2
    }
  }
}
layer {
  name: "conv2/relu_3x3"
  type: "ReLU"
  bottom: "conv2/3x3"
  top: "conv2/3x3"
}
layer {
  name: "conv2/norm2"
  type: "LRN"
  bottom: "conv2/3x3"
  top: "conv2/norm2"
  lrn_param {
    local_size: 5
    alpha: 0.0001
    beta: 0.75
  }
}
layer {
  name: "pool2/3x3_s2"
  type: "Pooling"
  bottom: "conv2/norm2"
  top: "pool2/3x3_s2"
  pooling_param {
    pool: MAX
    kernel_size: 3
    stride: 2
  }
}
layer {
  name: "inception_3a/1x1"
  type: "Convolution"
  bottom: "pool2/3x3_s2"
  top: "inception_3a/1x1"
  param {
    lr_mult: 1
    decay_mult: 1
  }
  param {
    lr_mult: 2
    decay_mult: 0
  }
  convolution_param {
    num_output: 64
    kernel_size: 1
    weight_filler {
      type: "xavier"
      std: 0.03
    }
    bias_filler {
      type: "constant"
      value: 0.2
    }
  }
}
layer {
  name: "inception_3a/relu_1x1"
  type: "ReLU"
  bottom: "inception_3a/1x1"
  top: "inception_3a/1x1"
}
layer {
  name: "inception_3a/3x3_reduce"
  type: "Convolution"
  bottom: "pool2/3x3_s2"
  top: "inception_3a/3x3_reduce"
  param {
    lr_mult: 1
    decay_mult: 1
  }
  param {
    lr_mult: 2
    decay_mult: 0
  }
  convolution_param {
    num_output: 96
    kernel_size: 1
    weight_filler {
      type: "xavier"
      std: 0.09
    }
    bias_filler {
      type: "constant"
      value: 0.2
    }
  }
}
layer {
  name: "inception_3a/relu_3x3_reduce"
  type: "ReLU"
  bottom: "inception_3a/3x3_reduce"
  top: "inception_3a/3x3_reduce"
}
layer {
  name: "inception_3a/3x3"
  type: "Convolution"
  bottom: "inception_3a/3x3_reduce"
  top: "inception_3a/3x3"
  param {
    lr_mult: 1
    decay_mult: 1
  }
  param {
    lr_mult: 2
    decay_mult: 0
  }
  convolution_param {
    num_output: 128
    pad: 1
    kernel_size: 3
    weight_filler {
      type: "xavier"
      std: 0.03
    }
    bias_filler {
      type: "constant"
      value: 0.2
    }
  }
}
layer {
  name: "inception_3a/relu_3x3"
  type: "ReLU"
  bottom: "inception_3a/3x3"
  top: "inception_3a/3x3"
}
layer {
  name: "inception_3a/5x5_reduce"
  type: "Convolution"
  bottom: "pool2/3x3_s2"
  top: "inception_3a/5x5_reduce"
  param {
    lr_mult: 1
    decay_mult: 1
  }
  param {
    lr_mult: 2
    decay_mult: 0
  }
  convolution_param {
    num_output: 16
    kernel_size: 1
    weight_filler {
      type: "xavier"
      std: 0.2
    }
    bias_filler {
      type: "constant"
      value: 0.2
    }
  }
}
layer {
  name: "inception_3a/relu_5x5_reduce"
  type: "ReLU"
  bottom: "inception_3a/5x5_reduce"
  top: "inception_3a/5x5_reduce"
}
layer {
  name: "inception_3a/5x5"
  type: "Convolution"
  bottom: "inception_3a/5x5_reduce"
  top: "inception_3a/5x5"
  param {
    lr_mult: 1
    decay_mult: 1
  }
  param {
    lr_mult: 2
    decay_mult: 0
  }
  convolution_param {
    num_output: 32
    pad: 2
    kernel_size: 5
    weight_filler {
      type: "xavier"
      std: 0.03
    }
    bias_filler {
      type: "constant"
      value: 0.2
    }
  }
}
layer {
  name: "inception_3a/relu_5x5"
  type: "ReLU"
  bottom: "inception_3a/5x5"
  top: "inception_3a/5x5"
}
layer {
  name: "inception_3a/pool"
  type: "Pooling"
  bottom: "pool2/3x3_s2"
  top: "inception_3a/pool"
  pooling_param {
    pool: MAX
    kernel_size: 3
    stride: 1
    pad: 1
  }
}
layer {
  name: "inception_3a/pool_proj"
  type: "Convolution"
  bottom: "inception_3a/pool"
  top: "inception_3a/pool_proj"
  param {
    lr_mult: 1
    decay_mult: 1
  }
  param {
    lr_mult: 2
    decay_mult: 0
  }
  convolution_param {
    num_output: 32
    kernel_size: 1
    weight_filler {
      type: "xavier"
      std: 0.1
    }
    bias_filler {
      type: "constant"
      value: 0.2
    }
  }
}
layer {
  name: "inception_3a/relu_pool_proj"
  type: "ReLU"
  bottom: "inception_3a/pool_proj"
  top: "inception_3a/pool_proj"
}
layer {
  name: "inception_3a/output"
  type: "Concat"
  bottom: "inception_3a/1x1"
  bottom: "inception_3a/3x3"
  bottom: "inception_3a/5x5"
  bottom: "inception_3a/pool_proj"
  top: "inception_3a/output"
}
layer {
  name: "inception_3b/1x1"
  type: "Convolution"
  bottom: "inception_3a/output"
  top: "inception_3b/1x1"
  param {
    lr_mult: 1
    decay_mult: 1
  }
  param {
    lr_mult: 2
    decay_mult: 0
  }
  convolution_param {
    num_output: 128
    kernel_size: 1
    weight_filler {
      type: "xavier"
      std: 0.03
    }
    bias_filler {
      type: "constant"
      value: 0.2
    }
  }
}
layer {
  name: "inception_3b/relu_1x1"
  type: "ReLU"
  bottom: "inception_3b/1x1"
  top: "inception_3b/1x1"
}
layer {
  name: "inception_3b/3x3_reduce"
  type: "Convolution"
  bottom: "inception_3a/output"
  top: "inception_3b/3x3_reduce"
  param {
    lr_mult: 1
    decay_mult: 1
  }
  param {
    lr_mult: 2
    decay_mult: 0
  }
  convolution_param {
    num_output: 128
    kernel_size: 1
    weight_filler {
      type: "xavier"
      std: 0.09
    }
    bias_filler {
      type: "constant"
      value: 0.2
    }
  }
}
layer {
  name: "inception_3b/relu_3x3_reduce"
  type: "ReLU"
  bottom: "inception_3b/3x3_reduce"
  top: "inception_3b/3x3_reduce"
}
layer {
  name: "inception_3b/3x3"
  type: "Convolution"
  bottom: "inception_3b/3x3_reduce"
  top: "inception_3b/3x3"
  param {
    lr_mult: 1
    decay_mult: 1
  }
  param {
    lr_mult: 2
    decay_mult: 0
  }
  convolution_param {
    num_output: 192
    pad: 1
    kernel_size: 3
    weight_filler {
      type: "xavier"
      std: 0.03
    }
    bias_filler {
      type: "constant"
      value: 0.2
    }
  }
}
layer {
  name: "inception_3b/relu_3x3"
  type: "ReLU"
  bottom: "inception_3b/3x3"
  top: "inception_3b/3x3"
}
layer {
  name: "inception_3b/5x5_reduce"
  type: "Convolution"
  bottom: "inception_3a/output"
  top: "inception_3b/5x5_reduce"
  param {
    lr_mult: 1
    decay_mult: 1
  }
  param {
    lr_mult: 2
    decay_mult: 0
  }
  convolution_param {
    num_output: 32
    kernel_size: 1
    weight_filler {
      type: "xavier"
      std: 0.2
    }
    bias_filler {
      type: "constant"
      value: 0.2
    }
  }
}
layer {
  name: "inception_3b/relu_5x5_reduce"
  type: "ReLU"
  bottom: "inception_3b/5x5_reduce"
  top: "inception_3b/5x5_reduce"
}
layer {
  name: "inception_3b/5x5"
  type: "Convolution"
  bottom: "inception_3b/5x5_reduce"
  top: "inception_3b/5x5"
  param {
    lr_mult: 1
    decay_mult: 1
  }
  param {
    lr_mult: 2
    decay_mult: 0
  }
  convolution_param {
    num_output: 96
    pad: 2
    kernel_size: 5
    weight_filler {
      type: "xavier"
      std: 0.03
    }
    bias_filler {
      type: "constant"
      value: 0.2
    }
  }
}
layer {
  name: "inception_3b/relu_5x5"
  type: "ReLU"
  bottom: "inception_3b/5x5"
  top: "inception_3b/5x5"
}
layer {
  name: "inception_3b/pool"
  type: "Pooling"
  bottom: "inception_3a/output"
  top: "inception_3b/pool"
  pooling_param {
    pool: MAX
    kernel_size: 3
    stride: 1
    pad: 1
  }
}
layer {
  name: "inception_3b/pool_proj"
  type: "Convolution"
  bottom: "inception_3b/pool"
  top: "inception_3b/pool_proj"
  param {
    lr_mult: 1
    decay_mult: 1
  }
  param {
    lr_mult: 2
    decay_mult: 0
  }
  convolution_param {
    num_output: 64
    kernel_size: 1
    weight_filler {
      type: "xavier"
      std: 0.1
    }
    bias_filler {
      type: "constant"
      value: 0.2
    }
  }
}
layer {
  name: "inception_3b/relu_pool_proj"
  type: "ReLU"
  bottom: "inception_3b/pool_proj"
  top: "inception_3b/pool_proj"
}
layer {
  name: "inception_3b/output"
  type: "Concat"
  bottom: "inception_3b/1x1"
  bottom: "inception_3b/3x3"
  bottom: "inception_3b/5x5"
  bottom: "inception_3b/pool_proj"
  top: "inception_3b/output"
}
layer {
  name: "pool3/3x3_s2"
  type: "Pooling"
  bottom: "inception_3b/output"
  top: "pool3/3x3_s2"
  pooling_param {
    pool: MAX
    kernel_size: 3
    stride: 2
  }
}
layer {
  name: "inception_4a/1x1"
  type: "Convolution"
  bottom: "pool3/3x3_s2"
  top: "inception_4a/1x1"
  param {
    lr_mult: 1
    decay_mult: 1
  }
  param {
    lr_mult: 2
    decay_mult: 0
  }
  convolution_param {
    num_output: 192
    kernel_size: 1
    weight_filler {
      type: "xavier"
      std: 0.03
    }
    bias_filler {
      type: "constant"
      value: 0.2
    }
  }
}
layer {
  name: "inception_4a/relu_1x1"
  type: "ReLU"
  bottom: "inception_4a/1x1"
  top: "inception_4a/1x1"
}
layer {
  name: "inception_4a/3x3_reduce"
  type: "Convolution"
  bottom: "pool3/3x3_s2"
  top: "inception_4a/3x3_reduce"
  param {
    lr_mult: 1
    decay_mult: 1
  }
  param {
    lr_mult: 2
    decay_mult: 0
  }
  convolution_param {
    num_output: 96
    kernel_size: 1
    weight_filler {
      type: "xavier"
      std: 0.09
    }
    bias_filler {
      type: "constant"
      value: 0.2
    }
  }
}
layer {
  name: "inception_4a/relu_3x3_reduce"
  type: "ReLU"
  bottom: "inception_4a/3x3_reduce"
  top: "inception_4a/3x3_reduce"
}
layer {
  name: "inception_4a/3x3"
  type: "Convolution"
  bottom: "inception_4a/3x3_reduce"
  top: "inception_4a/3x3"
  param {
    lr_mult: 1
    decay_mult: 1
  }
  param {
    lr_mult: 2
    decay_mult: 0
  }
  convolution_param {
    num_output: 208
    pad: 1
    kernel_size: 3
    weight_filler {
      type: "xavier"
      std: 0.03
    }
    bias_filler {
      type: "constant"
      value: 0.2
    }
  }
}
layer {
  name: "inception_4a/relu_3x3"
  type: "ReLU"
  bottom: "inception_4a/3x3"
  top: "inception_4a/3x3"
}
layer {
  name: "inception_4a/5x5_reduce"
  type: "Convolution"
  bottom: "pool3/3x3_s2"
  top: "inception_4a/5x5_reduce"
  param {
    lr_mult: 1
    decay_mult: 1
  }
  param {
    lr_mult: 2
    decay_mult: 0
  }
  convolution_param {
    num_output: 16
    kernel_size: 1
    weight_filler {
      type: "xavier"
      std: 0.2
    }
    bias_filler {
      type: "constant"
      value: 0.2
    }
  }
}
layer {
  name: "inception_4a/relu_5x5_reduce"
  type: "ReLU"
  bottom: "inception_4a/5x5_reduce"
  top: "inception_4a/5x5_reduce"
}
layer {
  name: "inception_4a/5x5"
  type: "Convolution"
  bottom: "inception_4a/5x5_reduce"
  top: "inception_4a/5x5"
  param {
    lr_mult: 1
    decay_mult: 1
  }
  param {
    lr_mult: 2
    decay_mult: 0
  }
  convolution_param {
    num_output: 48
    pad: 2
    kernel_size: 5
    weight_filler {
      type: "xavier"
      std: 0.03
    }
    bias_filler {
      type: "constant"
      value: 0.2
    }
  }
}
layer {
  name: "inception_4a/relu_5x5"
  type: "ReLU"
  bottom: "inception_4a/5x5"
  top: "inception_4a/5x5"
}
layer {
  name: "inception_4a/pool"
  type: "Pooling"
  bottom: "pool3/3x3_s2"
  top: "inception_4a/pool"
  pooling_param {
    pool: MAX
    kernel_size: 3
    stride: 1
    pad: 1
  }
}
layer {
  name: "inception_4a/pool_proj"
  type: "Convolution"
  bottom: "inception_4a/pool"
  top: "inception_4a/pool_proj"
  param {
    lr_mult: 1
    decay_mult: 1
  }
  param {
    lr_mult: 2
    decay_mult: 0
  }
  convolution_param {
    num_output: 64
    kernel_size: 1
    weight_filler {
      type: "xavier"
      std: 0.1
    }
    bias_filler {
      type: "constant"
      value: 0.2
    }
  }
}
layer {
  name: "inception_4a/relu_pool_proj"
  type: "ReLU"
  bottom: "inception_4a/pool_proj"
  top: "inception_4a/pool_proj"
}
layer {
  name: "inception_4a/output"
  type: "Concat"
  bottom: "inception_4a/1x1"
  bottom: "inception_4a/3x3"
  bottom: "inception_4a/5x5"
  bottom: "inception_4a/pool_proj"
  top: "inception_4a/output"
}
layer {
  name: "loss1/ave_pool"
  type: "Pooling"
  bottom: "inception_4a/output"
  top: "loss1/ave_pool"
  pooling_param {
    pool: AVE
    kernel_size: 5
    stride: 3
  }
}
layer {
  name: "loss1/conv"
  type: "Convolution"
  bottom: "loss1/ave_pool"
  top: "loss1/conv"
  param {
    lr_mult: 1
    decay_mult: 1
  }
  param {
    lr_mult: 2
    decay_mult: 0
  }
  convolution_param {
    num_output: 128
    kernel_size: 1
    weight_filler {
      type: "xavier"
      std: 0.08
    }
    bias_filler {
      type: "constant"
      value: 0.2
    }
  }
}
layer {
  name: "loss1/relu_conv"
  type: "ReLU"
  bottom: "loss1/conv"
  top: "loss1/conv"
}
layer {
  name: "loss1/fc"
  type: "InnerProduct"
  bottom: "loss1/conv"
  top: "loss1/fc"
  param {
    lr_mult: 1
    decay_mult: 1
  }
  param {
    lr_mult: 2
    decay_mult: 0
  }
  inner_product_param {
    num_output: 1024
    weight_filler {
      type: "xavier"
      std: 0.02
    }
    bias_filler {
      type: "constant"
      value: 0.2
    }
  }
}
layer {
  name: "loss1/relu_fc"
  type: "ReLU"
  bottom: "loss1/fc"
  top: "loss1/fc"
}
layer {
  name: "loss1/drop_fc"
  type: "Dropout"
  bottom: "loss1/fc"
  top: "loss1/fc"
  dropout_param {
    dropout_ratio: 0.7
  }
}
layer {
  name: "loss1/classifier_plantvillage"
  type: "InnerProduct"
  bottom: "loss1/fc"
  top: "loss1/classifier_plantvillage"
  param {
    lr_mult: 1
    decay_mult: 1
  }
  param {
    lr_mult: 2
    decay_mult: 0
  }
  inner_product_param {
    num_output: 38
    weight_filler {
      type: "xavier"
      std: 0.0009765625
    }
    bias_filler {
      type: "constant"
      value: 0
    }
  }
}
layer {
  name: "inception_4b/1x1"
  type: "Convolution"
  bottom: "inception_4a/output"
  top: "inception_4b/1x1"
  param {
    lr_mult: 1
    decay_mult: 1
  }
  param {
    lr_mult: 2
    decay_mult: 0
  }
  convolution_param {
    num_output: 160
    kernel_size: 1
    weight_filler {
      type: "xavier"
      std: 0.03
    }
    bias_filler {
      type: "constant"
      value: 0.2
    }
  }
}
layer {
…
I0403 09:57:22.068629 31906 layer_factory.hpp:77] Creating layer inception_4c/pool
I0403 09:57:22.068650 31906 net.cpp:91] Creating Layer inception_4c/pool
I0403 09:57:22.068668 31906 net.cpp:425] inception_4c/pool <- inception_4b/output_inception_4b/output_0_split_3
I0403 09:57:22.068687 31906 net.cpp:399] inception_4c/pool -> inception_4c/pool
I0403 09:57:22.068747 31906 net.cpp:141] Setting up inception_4c/pool
I0403 09:57:22.068775 31906 net.cpp:148] Top shape: 24 512 14 14 (2408448)
I0403 09:57:22.068791 31906 net.cpp:156] Memory required for data: 1060605120
I0403 09:57:22.068807 31906 layer_factory.hpp:77] Creating layer inception_4c/pool_proj
I0403 09:57:22.068830 31906 net.cpp:91] Creating Layer inception_4c/pool_proj
I0403 09:57:22.068847 31906 net.cpp:425] inception_4c/pool_proj <- inception_4c/pool
I0403 09:57:22.068871 31906 net.cpp:399] inception_4c/pool_proj -> inception_4c/pool_proj
I0403 09:57:22.069310 31906 net.cpp:141] Setting up inception_4c/pool_proj
I0403 09:57:22.069337 31906 net.cpp:148] Top shape: 24 64 14 14 (301056)
I0403 09:57:22.069352 31906 net.cpp:156] Memory required for data: 1061809344
I0403 09:57:22.069371 31906 layer_factory.hpp:77] Creating layer inception_4c/relu_pool_proj
I0403 09:57:22.069391 31906 net.cpp:91] Creating Layer inception_4c/relu_pool_proj
I0403 09:57:22.069407 31906 net.cpp:425] inception_4c/relu_pool_proj <- inception_4c/pool_proj
I0403 09:57:22.069428 31906 net.cpp:386] inception_4c/relu_pool_proj -> inception_4c/pool_proj (in-place)
I0403 09:57:22.069449 31906 net.cpp:141] Setting up inception_4c/relu_pool_proj
I0403 09:57:22.069468 31906 net.cpp:148] Top shape: 24 64 14 14 (301056)
I0403 09:57:22.069483 31906 net.cpp:156] Memory required for data: 1063013568
I0403 09:57:22.069499 31906 layer_factory.hpp:77] Creating layer inception_4c/output
I0403 09:57:22.069519 31906 net.cpp:91] Creating Layer inception_4c/output
I0403 09:57:22.069535 31906 net.cpp:425] inception_4c/output <- inception_4c/1x1
I0403 09:57:22.069553 31906 net.cpp:425] inception_4c/output <- inception_4c/3x3
I0403 09:57:22.069571 31906 net.cpp:425] inception_4c/output <- inception_4c/5x5
I0403 09:57:22.069587 31906 net.cpp:425] inception_4c/output <- inception_4c/pool_proj
I0403 09:57:22.069607 31906 net.cpp:399] inception_4c/output -> inception_4c/output
I0403 09:57:22.069655 31906 net.cpp:141] Setting up inception_4c/output
I0403 09:57:22.069680 31906 net.cpp:148] Top shape: 24 512 14 14 (2408448)
I0403 09:57:22.069700 31906 net.cpp:156] Memory required for data: 1072647360
I0403 09:57:22.069716 31906 layer_factory.hpp:77] Creating layer inception_4c/output_inception_4c/output_0_split
I0403 09:57:22.069741 31906 net.cpp:91] Creating Layer inception_4c/output_inception_4c/output_0_split
I0403 09:57:22.069759 31906 net.cpp:425] inception_4c/output_inception_4c/output_0_split <- inception_4c/output
I0403 09:57:22.069782 31906 net.cpp:399] inception_4c/output_inception_4c/output_0_split -> inception_4c/output_inception_4c/output_0_split_0
I0403 09:57:22.069805 31906 net.cpp:399] inception_4c/output_inception_4c/output_0_split -> inception_4c/output_inception_4c/output_0_split_1
I0403 09:57:22.069828 31906 net.cpp:399] inception_4c/output_inception_4c/output_0_split -> inception_4c/output_inception_4c/output_0_split_2
I0403 09:57:22.069849 31906 net.cpp:399] inception_4c/output_inception_4c/output_0_split -> inception_4c/output_inception_4c/output_0_split_3
I0403 09:57:22.069944 31906 net.cpp:141] Setting up inception_4c/output_inception_4c/output_0_split
I0403 09:57:22.069973 31906 net.cpp:148] Top shape: 24 512 14 14 (2408448)
I0403 09:57:22.069993 31906 net.cpp:148] Top shape: 24 512 14 14 (2408448)
I0403 09:57:22.070009 31906 net.cpp:148] Top shape: 24 512 14 14 (2408448)
I0403 09:57:22.070025 31906 net.cpp:148] Top shape: 24 512 14 14 (2408448)
I0403 09:57:22.070040 31906 net.cpp:156] Memory required for data: 1111182528
I0403 09:57:22.070056 31906 layer_factory.hpp:77] Creating layer inception_4d/1x1
I0403 09:57:22.070080 31906 net.cpp:91] Creating Layer inception_4d/1x1
I0403 09:57:22.070101 31906 net.cpp:425] inception_4d/1x1 <- inception_4c/output_inception_4c/output_0_split_0
I0403 09:57:22.070140 31906 net.cpp:399] inception_4d/1x1 -> inception_4d/1x1
I0403 09:57:22.070732 31906 net.cpp:141] Setting up inception_4d/1x1
I0403 09:57:22.070760 31906 net.cpp:148] Top shape: 24 112 14 14 (526848)
I0403 09:57:22.070777 31906 net.cpp:156] Memory required for data: 1113289920
I0403 09:57:22.070797 31906 layer_factory.hpp:77] Creating layer inception_4d/relu_1x1
I0403 09:57:22.070818 31906 net.cpp:91] Creating Layer inception_4d/relu_1x1
I0403 09:57:22.070837 31906 net.cpp:425] inception_4d/relu_1x1 <- inception_4d/1x1
I0403 09:57:22.070855 31906 net.cpp:386] inception_4d/relu_1x1 -> inception_4d/1x1 (in-place)
I0403 09:57:22.070876 31906 net.cpp:141] Setting up inception_4d/relu_1x1
I0403 09:57:22.070896 31906 net.cpp:148] Top shape: 24 112 14 14 (526848)
I0403 09:57:22.070912 31906 net.cpp:156] Memory required for data: 1115397312
I0403 09:57:22.070927 31906 layer_factory.hpp:77] Creating layer inception_4d/3x3_reduce
I0403 09:57:22.070951 31906 net.cpp:91] Creating Layer inception_4d/3x3_reduce
I0403 09:57:22.070971 31906 net.cpp:425] inception_4d/3x3_reduce <- inception_4c/output_inception_4c/output_0_split_1
I0403 09:57:22.070991 31906 net.cpp:399] inception_4d/3x3_reduce -> inception_4d/3x3_reduce
I0403 09:57:22.071707 31906 net.cpp:141] Setting up inception_4d/3x3_reduce
I0403 09:57:22.071735 31906 net.cpp:148] Top shape: 24 144 14 14 (677376)
I0403 09:57:22.071754 31906 net.cpp:156] Memory required for data: 1118106816
I0403 09:57:22.071776 31906 layer_factory.hpp:77] Creating layer inception_4d/relu_3x3_reduce
I0403 09:57:22.071799 31906 net.cpp:91] Creating Layer inception_4d/relu_3x3_reduce
I0403 09:57:22.071817 31906 net.cpp:425] inception_4d/relu_3x3_reduce <- inception_4d/3x3_reduce
I0403 09:57:22.071840 31906 net.cpp:386] inception_4d/relu_3x3_reduce -> inception_4d/3x3_reduce (in-place)
I0403 09:57:22.071861 31906 net.cpp:141] Setting up inception_4d/relu_3x3_reduce
I0403 09:57:22.071882 31906 net.cpp:148] Top shape: 24 144 14 14 (677376)
I0403 09:57:22.071897 31906 net.cpp:156] Memory required for data: 1120816320
I0403 09:57:22.071913 31906 layer_factory.hpp:77] Creating layer inception_4d/3x3
I0403 09:57:22.071935 31906 net.cpp:91] Creating Layer inception_4d/3x3
I0403 09:57:22.071956 31906 net.cpp:425] inception_4d/3x3 <- inception_4d/3x3_reduce
I0403 09:57:22.071976 31906 net.cpp:399] inception_4d/3x3 -> inception_4d/3x3
I0403 09:57:22.075320 31906 net.cpp:141] Setting up inception_4d/3x3
I0403 09:57:22.075352 31906 net.cpp:148] Top shape: 24 288 14 14 (1354752)
I0403 09:57:22.075369 31906 net.cpp:156] Memory required for data: 1126235328
I0403 09:57:22.075390 31906 layer_factory.hpp:77] Creating layer inception_4d/relu_3x3
I0403 09:57:22.075409 31906 net.cpp:91] Creating Layer inception_4d/relu_3x3
I0403 09:57:22.075429 31906 net.cpp:425] inception_4d/relu_3x3 <- inception_4d/3x3
I0403 09:57:22.075449 31906 net.cpp:386] inception_4d/relu_3x3 -> inception_4d/3x3 (in-place)
I0403 09:57:22.075474 31906 net.cpp:141] Setting up inception_4d/relu_3x3
I0403 09:57:22.075495 31906 net.cpp:148] Top shape: 24 288 14 14 (1354752)
I0403 09:57:22.075511 31906 net.cpp:156] Memory required for data: 1131654336
I0403 09:57:22.075527 31906 layer_factory.hpp:77] Creating layer inception_4d/5x5_reduce
I0403 09:57:22.075567 31906 net.cpp:91] Creating Layer inception_4d/5x5_reduce
I0403 09:57:22.075590 31906 net.cpp:425] inception_4d/5x5_reduce <- inception_4c/output_inception_4c/output_0_split_2
I0403 09:57:22.075613 31906 net.cpp:399] inception_4d/5x5_reduce -> inception_4d/5x5_reduce
I0403 09:57:22.075975 31906 net.cpp:141] Setting up inception_4d/5x5_reduce
I0403 09:57:22.076002 31906 net.cpp:148] Top shape: 24 32 14 14 (150528)
I0403 09:57:22.076020 31906 net.cpp:156] Memory required for data: 1132256448
I0403 09:57:22.076040 31906 layer_factory.hpp:77] Creating layer inception_4d/relu_5x5_reduce
I0403 09:57:22.076059 31906 net.cpp:91] Creating Layer inception_4d/relu_5x5_reduce
I0403 09:57:22.076076 31906 net.cpp:425] inception_4d/relu_5x5_reduce <- inception_4d/5x5_reduce
I0403 09:57:22.076102 31906 net.cpp:386] inception_4d/relu_5x5_reduce -> inception_4d/5x5_reduce (in-place)
I0403 09:57:22.076129 31906 net.cpp:141] Setting up inception_4d/relu_5x5_reduce
I0403 09:57:22.076150 31906 net.cpp:148] Top shape: 24 32 14 14 (150528)
I0403 09:57:22.076166 31906 net.cpp:156] Memory required for data: 1132858560
I0403 09:57:22.076182 31906 layer_factory.hpp:77] Creating layer inception_4d/5x5
I0403 09:57:22.076203 31906 net.cpp:91] Creating Layer inception_4d/5x5
I0403 09:57:22.076222 31906 net.cpp:425] inception_4d/5x5 <- inception_4d/5x5_reduce
I0403 09:57:22.076246 31906 net.cpp:399] inception_4d/5x5 -> inception_4d/5x5
I0403 09:57:22.076807 31906 net.cpp:141] Setting up inception_4d/5x5
I0403 09:57:22.076835 31906 net.cpp:148] Top shape: 24 64 14 14 (301056)
I0403 09:57:22.076853 31906 net.cpp:156] Memory required for data: 1134062784
I0403 09:57:22.076872 31906 layer_factory.hpp:77] Creating layer inception_4d/relu_5x5
I0403 09:57:22.076892 31906 net.cpp:91] Creating Layer inception_4d/relu_5x5
I0403 09:57:22.076910 31906 net.cpp:425] inception_4d/relu_5x5 <- inception_4d/5x5
I0403 09:57:22.076930 31906 net.cpp:386] inception_4d/relu_5x5 -> inception_4d/5x5 (in-place)
I0403 09:57:22.076953 31906 net.cpp:141] Setting up inception_4d/relu_5x5
I0403 09:57:22.076973 31906 net.cpp:148] Top shape: 24 64 14 14 (301056)
I0403 09:57:22.076990 31906 net.cpp:156] Memory required for data: 1135267008
I0403 09:57:22.077006 31906 layer_factory.hpp:77] Creating layer inception_4d/pool
I0403 09:57:22.077025 31906 net.cpp:91] Creating Layer inception_4d/pool
I0403 09:57:22.077044 31906 net.cpp:425] inception_4d/pool <- inception_4c/output_inception_4c/output_0_split_3
I0403 09:57:22.077064 31906 net.cpp:399] inception_4d/pool -> inception_4d/pool
I0403 09:57:22.077138 31906 net.cpp:141] Setting up inception_4d/pool
I0403 09:57:22.077165 31906 net.cpp:148] Top shape: 24 512 14 14 (2408448)
I0403 09:57:22.077184 31906 net.cpp:156] Memory required for data: 1144900800
I0403 09:57:22.077201 31906 layer_factory.hpp:77] Creating layer inception_4d/pool_proj
I0403 09:57:22.077229 31906 net.cpp:91] Creating Layer inception_4d/pool_proj
I0403 09:57:22.077253 31906 net.cpp:425] inception_4d/pool_proj <- inception_4d/pool
I0403 09:57:22.077278 31906 net.cpp:399] inception_4d/pool_proj -> inception_4d/pool_proj
I0403 09:57:22.077724 31906 net.cpp:141] Setting up inception_4d/pool_proj
I0403 09:57:22.077752 31906 net.cpp:148] Top shape: 24 64 14 14 (301056)
I0403 09:57:22.077769 31906 net.cpp:156] Memory required for data: 1146105024
I0403 09:57:22.077788 31906 layer_factory.hpp:77] Creating layer inception_4d/relu_pool_proj
I0403 09:57:22.077807 31906 net.cpp:91] Creating Layer inception_4d/relu_pool_proj
I0403 09:57:22.077826 31906 net.cpp:425] inception_4d/relu_pool_proj <- inception_4d/pool_proj
I0403 09:57:22.077846 31906 net.cpp:386] inception_4d/relu_pool_proj -> inception_4d/pool_proj (in-place)
I0403 09:57:22.077867 31906 net.cpp:141] Setting up inception_4d/relu_pool_proj
I0403 09:57:22.077885 31906 net.cpp:148] Top shape: 24 64 14 14 (301056)
I0403 09:57:22.077901 31906 net.cpp:156] Memory required for data: 1147309248
I0403 09:57:22.077916 31906 layer_factory.hpp:77] Creating layer inception_4d/output
I0403 09:57:22.077953 31906 net.cpp:91] Creating Layer inception_4d/output
I0403 09:57:22.077975 31906 net.cpp:425] inception_4d/output <- inception_4d/1x1
I0403 09:57:22.077992 31906 net.cpp:425] inception_4d/output <- inception_4d/3x3
I0403 09:57:22.078011 31906 net.cpp:425] inception_4d/output <- inception_4d/5x5
I0403 09:57:22.078029 31906 net.cpp:425] inception_4d/output <- inception_4d/pool_proj
I0403 09:57:22.078048 31906 net.cpp:399] inception_4d/output -> inception_4d/output
I0403 09:57:22.078091 31906 net.cpp:141] Setting up inception_4d/output
I0403 09:57:22.078126 31906 net.cpp:148] Top shape: 24 528 14 14 (2483712)
I0403 09:57:22.078143 31906 net.cpp:156] Memory required for data: 1157244096
I0403 09:57:22.078160 31906 layer_factory.hpp:77] Creating layer inception_4d/output_inception_4d/output_0_split
I0403 09:57:22.078178 31906 net.cpp:91] Creating Layer inception_4d/output_inception_4d/output_0_split
I0403 09:57:22.078196 31906 net.cpp:425] inception_4d/output_inception_4d/output_0_split <- inception_4d/output
I0403 09:57:22.078215 31906 net.cpp:399] inception_4d/output_inception_4d/output_0_split -> inception_4d/output_inception_4d/output_0_split_0
I0403 09:57:22.078241 31906 net.cpp:399] inception_4d/output_inception_4d/output_0_split -> inception_4d/output_inception_4d/output_0_split_1
I0403 09:57:22.078266 31906 net.cpp:399] inception_4d/output_inception_4d/output_0_split -> inception_4d/output_inception_4d/output_0_split_2
I0403 09:57:22.078289 31906 net.cpp:399] inception_4d/output_inception_4d/output_0_split -> inception_4d/output_inception_4d/output_0_split_3
I0403 09:57:22.078310 31906 net.cpp:399] inception_4d/output_inception_4d/output_0_split -> inception_4d/output_inception_4d/output_0_split_4
I0403 09:57:22.078402 31906 net.cpp:141] Setting up inception_4d/output_inception_4d/output_0_split
I0403 09:57:22.078428 31906 net.cpp:148] Top shape: 24 528 14 14 (2483712)
I0403 09:57:22.078446 31906 net.cpp:148] Top shape: 24 528 14 14 (2483712)
I0403 09:57:22.078464 31906 net.cpp:148] Top shape: 24 528 14 14 (2483712)
I0403 09:57:22.078480 31906 net.cpp:148] Top shape: 24 528 14 14 (2483712)
I0403 09:57:22.078498 31906 net.cpp:148] Top shape: 24 528 14 14 (2483712)
I0403 09:57:22.078513 31906 net.cpp:156] Memory required for data: 1206918336
I0403 09:57:22.078529 31906 layer_factory.hpp:77] Creating layer loss2/ave_pool
I0403 09:57:22.078552 31906 net.cpp:91] Creating Layer loss2/ave_pool
I0403 09:57:22.078572 31906 net.cpp:425] loss2/ave_pool <- inception_4d/output_inception_4d/output_0_split_0
I0403 09:57:22.078593 31906 net.cpp:399] loss2/ave_pool -> loss2/ave_pool
I0403 09:57:22.078636 31906 net.cpp:141] Setting up loss2/ave_pool
I0403 09:57:22.078663 31906 net.cpp:148] Top shape: 24 528 4 4 (202752)
I0403 09:57:22.078680 31906 net.cpp:156] Memory required for data: 1207729344
I0403 09:57:22.078696 31906 layer_factory.hpp:77] Creating layer loss2/conv
I0403 09:57:22.078722 31906 net.cpp:91] Creating Layer loss2/conv
I0403 09:57:22.078742 31906 net.cpp:425] loss2/conv <- loss2/ave_pool
I0403 09:57:22.078768 31906 net.cpp:399] loss2/conv -> loss2/conv
I0403 09:57:22.079993 31906 net.cpp:141] Setting up loss2/conv
I0403 09:57:22.080024 31906 net.cpp:148] Top shape: 24 128 4 4 (49152)
I0403 09:57:22.080044 31906 net.cpp:156] Memory required for data: 1207925952
I0403 09:57:22.080062 31906 layer_factory.hpp:77] Creating layer loss2/relu_conv
I0403 09:57:22.080082 31906 net.cpp:91] Creating Layer loss2/relu_conv
I0403 09:57:22.080101 31906 net.cpp:425] loss2/relu_conv <- loss2/conv
I0403 09:57:22.080129 31906 net.cpp:386] loss2/relu_conv -> loss2/conv (in-place)
I0403 09:57:22.080152 31906 net.cpp:141] Setting up loss2/relu_conv
I0403 09:57:22.080171 31906 net.cpp:148] Top shape: 24 128 4 4 (49152)
I0403 09:57:22.080188 31906 net.cpp:156] Memory required for data: 1208122560
I0403 09:57:22.080204 31906 layer_factory.hpp:77] Creating layer loss2/fc
I0403 09:57:22.080225 31906 net.cpp:91] Creating Layer loss2/fc
I0403 09:57:22.080245 31906 net.cpp:425] loss2/fc <- loss2/conv
I0403 09:57:22.080267 31906 net.cpp:399] loss2/fc -> loss2/fc
I0403 09:57:22.096715 31906 net.cpp:141] Setting up loss2/fc
I0403 09:57:22.096762 31906 net.cpp:148] Top shape: 24 1024 (24576)
I0403 09:57:22.096781 31906 net.cpp:156] Memory required for data: 1208220864
I0403 09:57:22.096802 31906 layer_factory.hpp:77] Creating layer loss2/relu_fc
I0403 09:57:22.096827 31906 net.cpp:91] Creating Layer loss2/relu_fc
I0403 09:57:22.096849 31906 net.cpp:425] loss2/relu_fc <- loss2/fc
I0403 09:57:22.096874 31906 net.cpp:386] loss2/relu_fc -> loss2/fc (in-place)
I0403 09:57:22.096902 31906 net.cpp:141] Setting up loss2/relu_fc
I0403 09:57:22.096923 31906 net.cpp:148] Top shape: 24 1024 (24576)
I0403 09:57:22.096940 31906 net.cpp:156] Memory required for data: 1208319168
I0403 09:57:22.096956 31906 layer_factory.hpp:77] Creating layer loss2/drop_fc
I0403 09:57:22.096976 31906 net.cpp:91] Creating Layer loss2/drop_fc
I0403 09:57:22.096993 31906 net.cpp:425] loss2/drop_fc <- loss2/fc
I0403 09:57:22.097017 31906 net.cpp:386] loss2/drop_fc -> loss2/fc (in-place)
I0403 09:57:22.097065 31906 net.cpp:141] Setting up loss2/drop_fc
I0403 09:57:22.097090 31906 net.cpp:148] Top shape: 24 1024 (24576)
I0403 09:57:22.097116 31906 net.cpp:156] Memory required for data: 1208417472
I0403 09:57:22.097136 31906 layer_factory.hpp:77] Creating layer loss2/classifier_plantvillage
I0403 09:57:22.097162 31906 net.cpp:91] Creating Layer loss2/classifier_plantvillage
I0403 09:57:22.097182 31906 net.cpp:425] loss2/classifier_plantvillage <- loss2/fc
I0403 09:57:22.097204 31906 net.cpp:399] loss2/classifier_plantvillage -> loss2/classifier_plantvillage
I0403 09:57:22.097579 31906 net.cpp:141] Setting up loss2/classifier_plantvillage
I0403 09:57:22.097607 31906 net.cpp:148] Top shape: 24 38 (912)
I0403 09:57:22.097625 31906 net.cpp:156] Memory required for data: 1208421120
I0403 09:57:22.097645 31906 layer_factory.hpp:77] Creating layer loss2/classifier_plantvillage_loss2/classifier_plantvillage_0_split
I0403 09:57:22.097666 31906 net.cpp:91] Creating Layer loss2/classifier_plantvillage_loss2/classifier_plantvillage_0_split
I0403 09:57:22.097683 31906 net.cpp:425] loss2/classifier_plantvillage_loss2/classifier_plantvillage_0_split <- loss2/classifier_plantvillage
I0403 09:57:22.097707 31906 net.cpp:399] loss2/classifier_plantvillage_loss2/classifier_plantvillage_0_split -> loss2/classifier_plantvillage_loss2/classifier_plantvillage_0_split_0
I0403 09:57:22.097731 31906 net.cpp:399] loss2/classifier_plantvillage_loss2/classifier_plantvillage_0_split -> loss2/classifier_plantvillage_loss2/classifier_plantvillage_0_split_1
I0403 09:57:22.097756 31906 net.cpp:399] loss2/classifier_plantvillage_loss2/classifier_plantvillage_0_split -> loss2/classifier_plantvillage_loss2/classifier_plantvillage_0_split_2
I0403 09:57:22.097831 31906 net.cpp:141] Setting up loss2/classifier_plantvillage_loss2/classifier_plantvillage_0_split
I0403 09:57:22.097858 31906 net.cpp:148] Top shape: 24 38 (912)
I0403 09:57:22.097877 31906 net.cpp:148] Top shape: 24 38 (912)
I0403 09:57:22.097895 31906 net.cpp:148] Top shape: 24 38 (912)
I0403 09:57:22.097910 31906 net.cpp:156] Memory required for data: 1208432064
I0403 09:57:22.097928 31906 layer_factory.hpp:77] Creating layer inception_4e/1x1
I0403 09:57:22.097951 31906 net.cpp:91] Creating Layer inception_4e/1x1
I0403 09:57:22.097971 31906 net.cpp:425] inception_4e/1x1 <- inception_4d/output_inception_4d/output_0_split_1
I0403 09:57:22.097992 31906 net.cpp:399] inception_4e/1x1 -> inception_4e/1x1
I0403 09:57:22.099071 31906 net.cpp:141] Setting up inception_4e/1x1
I0403 09:57:22.099099 31906 net.cpp:148] Top shape: 24 256 14 14 (1204224)
I0403 09:57:22.099122 31906 net.cpp:156] Memory required for data: 1213248960
I0403 09:57:22.099141 31906 layer_factory.hpp:77] Creating layer inception_4e/relu_1x1
I0403 09:57:22.099162 31906 net.cpp:91] Creating Layer inception_4e/relu_1x1
I0403 09:57:22.099181 31906 net.cpp:425] inception_4e/relu_1x1 <- inception_4e/1x1
I0403 09:57:22.099207 31906 net.cpp:386] inception_4e/relu_1x1 -> inception_4e/1x1 (in-place)
I0403 09:57:22.099252 31906 net.cpp:141] Setting up inception_4e/relu_1x1
I0403 09:57:22.099274 31906 net.cpp:148] Top shape: 24 256 14 14 (1204224)
I0403 09:57:22.099290 31906 net.cpp:156] Memory required for data: 1218065856
I0403 09:57:22.099306 31906 layer_factory.hpp:77] Creating layer inception_4e/3x3_reduce
I0403 09:57:22.099330 31906 net.cpp:91] Creating Layer inception_4e/3x3_reduce
I0403 09:57:22.099349 31906 net.cpp:425] inception_4e/3x3_reduce <- inception_4d/output_inception_4d/output_0_split_2
I0403 09:57:22.099373 31906 net.cpp:399] inception_4e/3x3_reduce -> inception_4e/3x3_reduce
I0403 09:57:22.100705 31906 net.cpp:141] Setting up inception_4e/3x3_reduce
I0403 09:57:22.100736 31906 net.cpp:148] Top shape: 24 160 14 14 (752640)
I0403 09:57:22.100754 31906 net.cpp:156] Memory required for data: 1221076416
I0403 09:57:22.100774 31906 layer_factory.hpp:77] Creating layer inception_4e/relu_3x3_reduce
I0403 09:57:22.100798 31906 net.cpp:91] Creating Layer inception_4e/relu_3x3_reduce
I0403 09:57:22.100818 31906 net.cpp:425] inception_4e/relu_3x3_reduce <- inception_4e/3x3_reduce
I0403 09:57:22.100837 31906 net.cpp:386] inception_4e/relu_3x3_reduce -> inception_4e/3x3_reduce (in-place)
I0403 09:57:22.100858 31906 net.cpp:141] Setting up inception_4e/relu_3x3_reduce
I0403 09:57:22.100878 31906 net.cpp:148] Top shape: 24 160 14 14 (752640)
I0403 09:57:22.100893 31906 net.cpp:156] Memory required for data: 1224086976
I0403 09:57:22.100909 31906 layer_factory.hpp:77] Creating layer inception_4e/3x3
I0403 09:57:22.100935 31906 net.cpp:91] Creating Layer inception_4e/3x3
I0403 09:57:22.100955 31906 net.cpp:425] inception_4e/3x3 <- inception_4e/3x3_reduce
I0403 09:57:22.100978 31906 net.cpp:399] inception_4e/3x3 -> inception_4e/3x3
I0403 09:57:22.104990 31906 net.cpp:141] Setting up inception_4e/3x3
I0403 09:57:22.105020 31906 net.cpp:148] Top shape: 24 320 14 14 (1505280)
I0403 09:57:22.105038 31906 net.cpp:156] Memory required for data: 1230108096
I0403 09:57:22.105058 31906 layer_factory.hpp:77] Creating layer inception_4e/relu_3x3
I0403 09:57:22.105080 31906 net.cpp:91] Creating Layer inception_4e/relu_3x3
I0403 09:57:22.105099 31906 net.cpp:425] inception_4e/relu_3x3 <- inception_4e/3x3
I0403 09:57:22.105126 31906 net.cpp:386] inception_4e/relu_3x3 -> inception_4e/3x3 (in-place)
I0403 09:57:22.105150 31906 net.cpp:141] Setting up inception_4e/relu_3x3
I0403 09:57:22.105170 31906 net.cpp:148] Top shape: 24 320 14 14 (1505280)
I0403 09:57:22.105186 31906 net.cpp:156] Memory required for data: 1236129216
I0403 09:57:22.105202 31906 layer_factory.hpp:77] Creating layer inception_4e/5x5_reduce
I0403 09:57:22.105227 31906 net.cpp:91] Creating Layer inception_4e/5x5_reduce
I0403 09:57:22.105247 31906 net.cpp:425] inception_4e/5x5_reduce <- inception_4d/output_inception_4d/output_0_split_3
I0403 09:57:22.105268 31906 net.cpp:399] inception_4e/5x5_reduce -> inception_4e/5x5_reduce
I0403 09:57:22.106160 31906 net.cpp:141] Setting up inception_4e/5x5_reduce
I0403 09:57:22.106191 31906 net.cpp:148] Top shape: 24 32 14 14 (150528)
I0403 09:57:22.106209 31906 net.cpp:156] Memory required for data: 1236731328
I0403 09:57:22.106228 31906 layer_factory.hpp:77] Creating layer inception_4e/relu_5x5_reduce
I0403 09:57:22.106248 31906 net.cpp:91] Creating Layer inception_4e/relu_5x5_reduce
I0403 09:57:22.106266 31906 net.cpp:425] inception_4e/relu_5x5_reduce <- inception_4e/5x5_reduce
I0403 09:57:22.106283 31906 net.cpp:386] inception_4e/relu_5x5_reduce -> inception_4e/5x5_reduce (in-place)
I0403 09:57:22.106304 31906 net.cpp:141] Setting up inception_4e/relu_5x5_reduce
I0403 09:57:22.106323 31906 net.cpp:148] Top shape: 24 32 14 14 (150528)
I0403 09:57:22.106339 31906 net.cpp:156] Memory required for data: 1237333440
I0403 09:57:22.106355 31906 layer_factory.hpp:77] Creating layer inception_4e/5x5
I0403 09:57:22.106397 31906 net.cpp:91] Creating Layer inception_4e/5x5
I0403 09:57:22.106418 31906 net.cpp:425] inception_4e/5x5 <- inception_4e/5x5_reduce
I0403 09:57:22.106441 31906 net.cpp:399] inception_4e/5x5 -> inception_4e/5x5
I0403 09:57:22.107261 31906 net.cpp:141] Setting up inception_4e/5x5
I0403 09:57:22.107290 31906 net.cpp:148] Top shape: 24 128 14 14 (602112)
I0403 09:57:22.107306 31906 net.cpp:156] Memory required for data: 1239741888
I0403 09:57:22.107326 31906 layer_factory.hpp:77] Creating layer inception_4e/relu_5x5
I0403 09:57:22.107347 31906 net.cpp:91] Creating Layer inception_4e/relu_5x5
I0403 09:57:22.107364 31906 net.cpp:425] inception_4e/relu_5x5 <- inception_4e/5x5
I0403 09:57:22.107385 31906 net.cpp:386] inception_4e/relu_5x5 -> inception_4e/5x5 (in-place)
I0403 09:57:22.107414 31906 net.cpp:141] Setting up inception_4e/relu_5x5
I0403 09:57:22.107434 31906 net.cpp:148] Top shape: 24 128 14 14 (602112)
I0403 09:57:22.107450 31906 net.cpp:156] Memory required for data: 1242150336
I0403 09:57:22.107470 31906 layer_factory.hpp:77] Creating layer inception_4e/pool
I0403 09:57:22.107489 31906 net.cpp:91] Creating Layer inception_4e/pool
I0403 09:57:22.107508 31906 net.cpp:425] inception_4e/pool <- inception_4d/output_inception_4d/output_0_split_4
I0403 09:57:22.107528 31906 net.cpp:399] inception_4e/pool -> inception_4e/pool
I0403 09:57:22.107585 31906 net.cpp:141] Setting up inception_4e/pool
I0403 09:57:22.107610 31906 net.cpp:148] Top shape: 24 528 14 14 (2483712)
I0403 09:57:22.107626 31906 net.cpp:156] Memory required for data: 1252085184
I0403 09:57:22.107642 31906 layer_factory.hpp:77] Creating layer inception_4e/pool_proj
I0403 09:57:22.107667 31906 net.cpp:91] Creating Layer inception_4e/pool_proj
I0403 09:57:22.107687 31906 net.cpp:425] inception_4e/pool_proj <- inception_4e/pool
I0403 09:57:22.107710 31906 net.cpp:399] inception_4e/pool_proj -> inception_4e/pool_proj
I0403 09:57:22.108309 31906 net.cpp:141] Setting up inception_4e/pool_proj
I0403 09:57:22.108336 31906 net.cpp:148] Top shape: 24 128 14 14 (602112)
I0403 09:57:22.108352 31906 net.cpp:156] Memory required for data: 1254493632
I0403 09:57:22.108371 31906 layer_factory.hpp:77] Creating layer inception_4e/relu_pool_proj
I0403 09:57:22.108392 31906 net.cpp:91] Creating Layer inception_4e/relu_pool_proj
I0403 09:57:22.108410 31906 net.cpp:425] inception_4e/relu_pool_proj <- inception_4e/pool_proj
I0403 09:57:22.108429 31906 net.cpp:386] inception_4e/relu_pool_proj -> inception_4e/pool_proj (in-place)
I0403 09:57:22.108449 31906 net.cpp:141] Setting up inception_4e/relu_pool_proj
I0403 09:57:22.108469 31906 net.cpp:148] Top shape: 24 128 14 14 (602112)
I0403 09:57:22.108485 31906 net.cpp:156] Memory required for data: 1256902080
I0403 09:57:22.108500 31906 layer_factory.hpp:77] Creating layer inception_4e/output
I0403 09:57:22.108520 31906 net.cpp:91] Creating Layer inception_4e/output
I0403 09:57:22.108536 31906 net.cpp:425] inception_4e/output <- inception_4e/1x1
I0403 09:57:22.108553 31906 net.cpp:425] inception_4e/output <- inception_4e/3x3
I0403 09:57:22.108571 31906 net.cpp:425] inception_4e/output <- inception_4e/5x5
I0403 09:57:22.108588 31906 net.cpp:425] inception_4e/output <- inception_4e/pool_proj
I0403 09:57:22.108609 31906 net.cpp:399] inception_4e/output -> inception_4e/output
I0403 09:57:22.108649 31906 net.cpp:141] Setting up inception_4e/output
I0403 09:57:22.108677 31906 net.cpp:148] Top shape: 24 832 14 14 (3913728)
I0403 09:57:22.108695 31906 net.cpp:156] Memory required for data: 1272556992
I0403 09:57:22.108712 31906 layer_factory.hpp:77] Creating layer pool4/3x3_s2
I0403 09:57:22.108731 31906 net.cpp:91] Creating Layer pool4/3x3_s2
I0403 09:57:22.108749 31906 net.cpp:425] pool4/3x3_s2 <- inception_4e/output
I0403 09:57:22.108768 31906 net.cpp:399] pool4/3x3_s2 -> pool4/3x3_s2
I0403 09:57:22.108821 31906 net.cpp:141] Setting up pool4/3x3_s2
I0403 09:57:22.108846 31906 net.cpp:148] Top shape: 24 832 7 7 (978432)
I0403 09:57:22.108862 31906 net.cpp:156] Memory required for data: 1276470720
I0403 09:57:22.108878 31906 layer_factory.hpp:77] Creating layer pool4/3x3_s2_pool4/3x3_s2_0_split
I0403 09:57:22.108897 31906 net.cpp:91] Creating Layer pool4/3x3_s2_pool4/3x3_s2_0_split
I0403 09:57:22.108916 31906 net.cpp:425] pool4/3x3_s2_pool4/3x3_s2_0_split <- pool4/3x3_s2
I0403 09:57:22.108952 31906 net.cpp:399] pool4/3x3_s2_pool4/3x3_s2_0_split -> pool4/3x3_s2_pool4/3x3_s2_0_split_0
I0403 09:57:22.108978 31906 net.cpp:399] pool4/3x3_s2_pool4/3x3_s2_0_split -> pool4/3x3_s2_pool4/3x3_s2_0_split_1
I0403 09:57:22.109004 31906 net.cpp:399] pool4/3x3_s2_pool4/3x3_s2_0_split -> pool4/3x3_s2_pool4/3x3_s2_0_split_2
I0403 09:57:22.109028 31906 net.cpp:399] pool4/3x3_s2_pool4/3x3_s2_0_split -> pool4/3x3_s2_pool4/3x3_s2_0_split_3
I0403 09:57:22.109102 31906 net.cpp:141] Setting up pool4/3x3_s2_pool4/3x3_s2_0_split
I0403 09:57:22.109148 31906 net.cpp:148] Top shape: 24 832 7 7 (978432)
I0403 09:57:22.109169 31906 net.cpp:148] Top shape: 24 832 7 7 (978432)
I0403 09:57:22.109186 31906 net.cpp:148] Top shape: 24 832 7 7 (978432)
I0403 09:57:22.109203 31906 net.cpp:148] Top shape: 24 832 7 7 (978432)
I0403 09:57:22.109218 31906 net.cpp:156] Memory required for data: 1292125632
I0403 09:57:22.109235 31906 layer_factory.hpp:77] Creating layer inception_5a/1x1
I0403 09:57:22.109259 31906 net.cpp:91] Creating Layer inception_5a/1x1
I0403 09:57:22.109280 31906 net.cpp:425] inception_5a/1x1 <- pool4/3x3_s2_pool4/3x3_s2_0_split_0
I0403 09:57:22.109302 31906 net.cpp:399] inception_5a/1x1 -> inception_5a/1x1
I0403 09:57:22.111312 31906 net.cpp:141] Setting up inception_5a/1x1
I0403 09:57:22.111346 31906 net.cpp:148] Top shape: 24 256 7 7 (301056)
I0403 09:57:22.111362 31906 net.cpp:156] Memory required for data: 1293329856
I0403 09:57:22.111382 31906 layer_factory.hpp:77] Creating layer inception_5a/relu_1x1
I0403 09:57:22.111402 31906 net.cpp:91] Creating Layer inception_5a/relu_1x1
I0403 09:57:22.111420 31906 net.cpp:425] inception_5a/relu_1x1 <- inception_5a/1x1
I0403 09:57:22.111440 31906 net.cpp:386] inception_5a/relu_1x1 -> inception_5a/1x1 (in-place)
I0403 09:57:22.111461 31906 net.cpp:141] Setting up inception_5a/relu_1x1
I0403 09:57:22.111479 31906 net.cpp:148] Top shape: 24 256 7 7 (301056)
I0403 09:57:22.111495 31906 net.cpp:156] Memory required for data: 1294534080
I0403 09:57:22.111511 31906 layer_factory.hpp:77] Creating layer inception_5a/3x3_reduce
I0403 09:57:22.111536 31906 net.cpp:91] Creating Layer inception_5a/3x3_reduce
I0403 09:57:22.111557 31906 net.cpp:425] inception_5a/3x3_reduce <- pool4/3x3_s2_pool4/3x3_s2_0_split_1
I0403 09:57:22.111580 31906 net.cpp:399] inception_5a/3x3_reduce -> inception_5a/3x3_reduce
I0403 09:57:22.113143 31906 net.cpp:141] Setting up inception_5a/3x3_reduce
I0403 09:57:22.113174 31906 net.cpp:148] Top shape: 24 160 7 7 (188160)
I0403 09:57:22.113191 31906 net.cpp:156] Memory required for data: 1295286720
I0403 09:57:22.113211 31906 layer_factory.hpp:77] Creating layer inception_5a/relu_3x3_reduce
I0403 09:57:22.113231 31906 net.cpp:91] Creating Layer inception_5a/relu_3x3_reduce
I0403 09:57:22.113250 31906 net.cpp:425] inception_5a/relu_3x3_reduce <- inception_5a/3x3_reduce
I0403 09:57:22.113270 31906 net.cpp:386] inception_5a/relu_3x3_reduce -> inception_5a/3x3_reduce (in-place)
I0403 09:57:22.113292 31906 net.cpp:141] Setting up inception_5a/relu_3x3_reduce
I0403 09:57:22.113312 31906 net.cpp:148] Top shape: 24 160 7 7 (188160)
I0403 09:57:22.113327 31906 net.cpp:156] Memory required for data: 1296039360
I0403 09:57:22.113343 31906 layer_factory.hpp:77] Creating layer inception_5a/3x3
I0403 09:57:22.113368 31906 net.cpp:91] Creating Layer inception_5a/3x3
I0403 09:57:22.113390 31906 net.cpp:425] inception_5a/3x3 <- inception_5a/3x3_reduce
I0403 09:57:22.113414 31906 net.cpp:399] inception_5a/3x3 -> inception_5a/3x3
I0403 09:57:22.117422 31906 net.cpp:141] Setting up inception_5a/3x3
I0403 09:57:22.117456 31906 net.cpp:148] Top shape: 24 320 7 7 (376320)
I0403 09:57:22.117475 31906 net.cpp:156] Memory required for data: 1297544640
I0403 09:57:22.117494 31906 layer_factory.hpp:77] Creating layer inception_5a/relu_3x3
I0403 09:57:22.117516 31906 net.cpp:91] Creating Layer inception_5a/relu_3x3
I0403 09:57:22.117535 31906 net.cpp:425] inception_5a/relu_3x3 <- inception_5a/3x3
I0403 09:57:22.117555 31906 net.cpp:386] inception_5a/relu_3x3 -> inception_5a/3x3 (in-place)
I0403 09:57:22.117594 31906 net.cpp:141] Setting up inception_5a/relu_3x3
I0403 09:57:22.117615 31906 net.cpp:148] Top shape: 24 320 7 7 (376320)
I0403 09:57:22.117631 31906 net.cpp:156] Memory required for data: 1299049920
I0403 09:57:22.117647 31906 layer_factory.hpp:77] Creating layer inception_5a/5x5_reduce
I0403 09:57:22.117673 31906 net.cpp:91] Creating Layer inception_5a/5x5_reduce
I0403 09:57:22.117693 31906 net.cpp:425] inception_5a/5x5_reduce <- pool4/3x3_s2_pool4/3x3_s2_0_split_2
I0403 09:57:22.117717 31906 net.cpp:399] inception_5a/5x5_reduce -> inception_5a/5x5_reduce
I0403 09:57:22.118122 31906 net.cpp:141] Setting up inception_5a/5x5_reduce
I0403 09:57:22.118150 31906 net.cpp:148] Top shape: 24 32 7 7 (37632)
I0403 09:57:22.118167 31906 net.cpp:156] Memory required for data: 1299200448
I0403 09:57:22.118188 31906 layer_factory.hpp:77] Creating layer inception_5a/relu_5x5_reduce
I0403 09:57:22.118211 31906 net.cpp:91] Creating Layer inception_5a/relu_5x5_reduce
I0403 09:57:22.118230 31906 net.cpp:425] inception_5a/relu_5x5_reduce <- inception_5a/5x5_reduce
I0403 09:57:22.118250 31906 net.cpp:386] inception_5a/relu_5x5_reduce -> inception_5a/5x5_reduce (in-place)
I0403 09:57:22.118273 31906 net.cpp:141] Setting up inception_5a/relu_5x5_reduce
I0403 09:57:22.118291 31906 net.cpp:148] Top shape: 24 32 7 7 (37632)
I0403 09:57:22.118309 31906 net.cpp:156] Memory required for data: 1299350976
I0403 09:57:22.118324 31906 layer_factory.hpp:77] Creating layer inception_5a/5x5
I0403 09:57:22.118348 31906 net.cpp:91] Creating Layer inception_5a/5x5
I0403 09:57:22.118367 31906 net.cpp:425] inception_5a/5x5 <- inception_5a/5x5_reduce
I0403 09:57:22.118396 31906 net.cpp:399] inception_5a/5x5 -> inception_5a/5x5
I0403 09:57:22.119248 31906 net.cpp:141] Setting up inception_5a/5x5
I0403 09:57:22.119280 31906 net.cpp:148] Top shape: 24 128 7 7 (150528)
I0403 09:57:22.119297 31906 net.cpp:156] Memory required for data: 1299953088
I0403 09:57:22.119318 31906 layer_factory.hpp:77] Creating layer inception_5a/relu_5x5
I0403 09:57:22.119340 31906 net.cpp:91] Creating Layer inception_5a/relu_5x5
I0403 09:57:22.119359 31906 net.cpp:425] inception_5a/relu_5x5 <- inception_5a/5x5
I0403 09:57:22.119379 31906 net.cpp:386] inception_5a/relu_5x5 -> inception_5a/5x5 (in-place)
I0403 09:57:22.119400 31906 net.cpp:141] Setting up inception_5a/relu_5x5
I0403 09:57:22.119420 31906 net.cpp:148] Top shape: 24 128 7 7 (150528)
I0403 09:57:22.119436 31906 net.cpp:156] Memory required for data: 1300555200
I0403 09:57:22.119452 31906 layer_factory.hpp:77] Creating layer inception_5a/pool
I0403 09:57:22.119472 31906 net.cpp:91] Creating Layer inception_5a/pool
I0403 09:57:22.119489 31906 net.cpp:425] inception_5a/pool <- pool4/3x3_s2_pool4/3x3_s2_0_split_3
I0403 09:57:22.119509 31906 net.cpp:399] inception_5a/pool -> inception_5a/pool
I0403 09:57:22.119568 31906 net.cpp:141] Setting up inception_5a/pool
I0403 09:57:22.119593 31906 net.cpp:148] Top shape: 24 832 7 7 (978432)
I0403 09:57:22.119611 31906 net.cpp:156] Memory required for data: 1304468928
I0403 09:57:22.119626 31906 layer_factory.hpp:77] Creating layer inception_5a/pool_proj
I0403 09:57:22.119652 31906 net.cpp:91] Creating Layer inception_5a/pool_proj
I0403 09:57:22.119671 31906 net.cpp:425] inception_5a/pool_proj <- inception_5a/pool
I0403 09:57:22.119695 31906 net.cpp:399] inception_5a/pool_proj -> inception_5a/pool_proj
I0403 09:57:22.121098 31906 net.cpp:141] Setting up inception_5a/pool_proj
I0403 09:57:22.121134 31906 net.cpp:148] Top shape: 24 128 7 7 (150528)
I0403 09:57:22.121152 31906 net.cpp:156] Memory required for data: 1305071040
I0403 09:57:22.121173 31906 layer_factory.hpp:77] Creating layer inception_5a/relu_pool_proj
I0403 09:57:22.121193 31906 net.cpp:91] Creating Layer inception_5a/relu_pool_proj
I0403 09:57:22.121212 31906 net.cpp:425] inception_5a/relu_pool_proj <- inception_5a/pool_proj
I0403 09:57:22.121232 31906 net.cpp:386] inception_5a/relu_pool_proj -> inception_5a/pool_proj (in-place)
I0403 09:57:22.121254 31906 net.cpp:141] Setting up inception_5a/relu_pool_proj
I0403 09:57:22.121289 31906 net.cpp:148] Top shape: 24 128 7 7 (150528)
I0403 09:57:22.121307 31906 net.cpp:156] Memory required for data: 1305673152
I0403 09:57:22.121325 31906 layer_factory.hpp:77] Creating layer inception_5a/output
I0403 09:57:22.121345 31906 net.cpp:91] Creating Layer inception_5a/output
I0403 09:57:22.121361 31906 net.cpp:425] inception_5a/output <- inception_5a/1x1
I0403 09:57:22.121379 31906 net.cpp:425] inception_5a/output <- inception_5a/3x3
I0403 09:57:22.121397 31906 net.cpp:425] inception_5a/output <- inception_5a/5x5
I0403 09:57:22.121417 31906 net.cpp:425] inception_5a/output <- inception_5a/pool_proj
I0403 09:57:22.121439 31906 net.cpp:399] inception_5a/output -> inception_5a/output
I0403 09:57:22.121482 31906 net.cpp:141] Setting up inception_5a/output
I0403 09:57:22.121511 31906 net.cpp:148] Top shape: 24 832 7 7 (978432)
I0403 09:57:22.121529 31906 net.cpp:156] Memory required for data: 1309586880
I0403 09:57:22.121546 31906 layer_factory.hpp:77] Creating layer inception_5a/output_inception_5a/output_0_split
I0403 09:57:22.121565 31906 net.cpp:91] Creating Layer inception_5a/output_inception_5a/output_0_split
I0403 09:57:22.121585 31906 net.cpp:425] inception_5a/output_inception_5a/output_0_split <- inception_5a/output
I0403 09:57:22.121604 31906 net.cpp:399] inception_5a/output_inception_5a/output_0_split -> inception_5a/output_inception_5a/output_0_split_0
I0403 09:57:22.121626 31906 net.cpp:399] inception_5a/output_inception_5a/output_0_split -> inception_5a/output_inception_5a/output_0_split_1
I0403 09:57:22.121650 31906 net.cpp:399] inception_5a/output_inception_5a/output_0_split -> inception_5a/output_inception_5a/output_0_split_2
I0403 09:57:22.121675 31906 net.cpp:399] inception_5a/output_inception_5a/output_0_split -> inception_5a/output_inception_5a/output_0_split_3
I0403 09:57:22.121754 31906 net.cpp:141] Setting up inception_5a/output_inception_5a/output_0_split
I0403 09:57:22.121780 31906 net.cpp:148] Top shape: 24 832 7 7 (978432)
I0403 09:57:22.121799 31906 net.cpp:148] Top shape: 24 832 7 7 (978432)
I0403 09:57:22.121816 31906 net.cpp:148] Top shape: 24 832 7 7 (978432)
I0403 09:57:22.121834 31906 net.cpp:148] Top shape: 24 832 7 7 (978432)
I0403 09:57:22.121848 31906 net.cpp:156] Memory required for data: 1325241792
I0403 09:57:22.121865 31906 layer_factory.hpp:77] Creating layer inception_5b/1x1
I0403 09:57:22.121891 31906 net.cpp:91] Creating Layer inception_5b/1x1
I0403 09:57:22.121912 31906 net.cpp:425] inception_5b/1x1 <- inception_5a/output_inception_5a/output_0_split_0
I0403 09:57:22.121935 31906 net.cpp:399] inception_5b/1x1 -> inception_5b/1x1
I0403 09:57:22.124663 31906 net.cpp:141] Setting up inception_5b/1x1
I0403 09:57:22.124696 31906 net.cpp:148] Top shape: 24 384 7 7 (451584)
I0403 09:57:22.124716 31906 net.cpp:156] Memory required for data: 1327048128
I0403 09:57:22.124735 31906 layer_factory.hpp:77] Creating layer inception_5b/relu_1x1
I0403 09:57:22.124755 31906 net.cpp:91] Creating Layer inception_5b/relu_1x1
I0403 09:57:22.124774 31906 net.cpp:425] inception_5b/relu_1x1 <- inception_5b/1x1
I0403 09:57:22.124794 31906 net.cpp:386] inception_5b/relu_1x1 -> inception_5b/1x1 (in-place)
I0403 09:57:22.124817 31906 net.cpp:141] Setting up inception_5b/relu_1x1
I0403 09:57:22.124837 31906 net.cpp:148] Top shape: 24 384 7 7 (451584)
I0403 09:57:22.124853 31906 net.cpp:156] Memory required for data: 1328854464
I0403 09:57:22.124869 31906 layer_factory.hpp:77] Creating layer inception_5b/3x3_reduce
I0403 09:57:22.124896 31906 net.cpp:91] Creating Layer inception_5b/3x3_reduce
I0403 09:57:22.124917 31906 net.cpp:425] inception_5b/3x3_reduce <- inception_5a/output_inception_5a/output_0_split_1
I0403 09:57:22.124941 31906 net.cpp:399] inception_5b/3x3_reduce -> inception_5b/3x3_reduce
I0403 09:57:22.126649 31906 net.cpp:141] Setting up inception_5b/3x3_reduce
I0403 09:57:22.126683 31906 net.cpp:148] Top shape: 24 192 7 7 (225792)
I0403 09:57:22.126701 31906 net.cpp:156] Memory required for data: 1329757632
I0403 09:57:22.126723 31906 layer_factory.hpp:77] Creating layer inception_5b/relu_3x3_reduce
I0403 09:57:22.126760 31906 net.cpp:91] Creating Layer inception_5b/relu_3x3_reduce
I0403 09:57:22.126780 31906 net.cpp:425] inception_5b/relu_3x3_reduce <- inception_5b/3x3_reduce
I0403 09:57:22.126799 31906 net.cpp:386] inception_5b/relu_3x3_reduce -> inception_5b/3x3_reduce (in-place)
I0403 09:57:22.126821 31906 net.cpp:141] Setting up inception_5b/relu_3x3_reduce
I0403 09:57:22.126842 31906 net.cpp:148] Top shape: 24 192 7 7 (225792)
I0403 09:57:22.126857 31906 net.cpp:156] Memory required for data: 1330660800
I0403 09:57:22.126873 31906 layer_factory.hpp:77] Creating layer inception_5b/3x3
I0403 09:57:22.126899 31906 net.cpp:91] Creating Layer inception_5b/3x3
I0403 09:57:22.126919 31906 net.cpp:425] inception_5b/3x3 <- inception_5b/3x3_reduce
I0403 09:57:22.126942 31906 net.cpp:399] inception_5b/3x3 -> inception_5b/3x3
I0403 09:57:22.132387 31906 net.cpp:141] Setting up inception_5b/3x3
I0403 09:57:22.132418 31906 net.cpp:148] Top shape: 24 384 7 7 (451584)
I0403 09:57:22.132434 31906 net.cpp:156] Memory required for data: 1332467136
I0403 09:57:22.132454 31906 layer_factory.hpp:77] Creating layer inception_5b/relu_3x3
I0403 09:57:22.132474 31906 net.cpp:91] Creating Layer inception_5b/relu_3x3
I0403 09:57:22.132493 31906 net.cpp:425] inception_5b/relu_3x3 <- inception_5b/3x3
I0403 09:57:22.132515 31906 net.cpp:386] inception_5b/relu_3x3 -> inception_5b/3x3 (in-place)
I0403 09:57:22.132539 31906 net.cpp:141] Setting up inception_5b/relu_3x3
I0403 09:57:22.132557 31906 net.cpp:148] Top shape: 24 384 7 7 (451584)
I0403 09:57:22.132572 31906 net.cpp:156] Memory required for data: 1334273472
I0403 09:57:22.132588 31906 layer_factory.hpp:77] Creating layer inception_5b/5x5_reduce
I0403 09:57:22.132611 31906 net.cpp:91] Creating Layer inception_5b/5x5_reduce
I0403 09:57:22.132628 31906 net.cpp:425] inception_5b/5x5_reduce <- inception_5a/output_inception_5a/output_0_split_2
I0403 09:57:22.132650 31906 net.cpp:399] inception_5b/5x5_reduce -> inception_5b/5x5_reduce
I0403 09:57:22.133658 31906 net.cpp:141] Setting up inception_5b/5x5_reduce
I0403 09:57:22.133688 31906 net.cpp:148] Top shape: 24 48 7 7 (56448)
I0403 09:57:22.133705 31906 net.cpp:156] Memory required for data: 1334499264
I0403 09:57:22.133725 31906 layer_factory.hpp:77] Creating layer inception_5b/relu_5x5_reduce
I0403 09:57:22.133745 31906 net.cpp:91] Creating Layer inception_5b/relu_5x5_reduce
I0403 09:57:22.133762 31906 net.cpp:425] inception_5b/relu_5x5_reduce <- inception_5b/5x5_reduce
I0403 09:57:22.133785 31906 net.cpp:386] inception_5b/relu_5x5_reduce -> inception_5b/5x5_reduce (in-place)
I0403 09:57:22.133807 31906 net.cpp:141] Setting up inception_5b/relu_5x5_reduce
I0403 09:57:22.133826 31906 net.cpp:148] Top shape: 24 48 7 7 (56448)
I0403 09:57:22.133841 31906 net.cpp:156] Memory required for data: 1334725056
I0403 09:57:22.133857 31906 layer_factory.hpp:77] Creating layer inception_5b/5x5
I0403 09:57:22.133878 31906 net.cpp:91] Creating Layer inception_5b/5x5
I0403 09:57:22.133895 31906 net.cpp:425] inception_5b/5x5 <- inception_5b/5x5_reduce
I0403 09:57:22.133919 31906 net.cpp:399] inception_5b/5x5 -> inception_5b/5x5
I0403 09:57:22.135017 31906 net.cpp:141] Setting up inception_5b/5x5
I0403 09:57:22.135045 31906 net.cpp:148] Top shape: 24 128 7 7 (150528)
I0403 09:57:22.135061 31906 net.cpp:156] Memory required for data: 1335327168
I0403 09:57:22.135081 31906 layer_factory.hpp:77] Creating layer inception_5b/relu_5x5
I0403 09:57:22.135099 31906 net.cpp:91] Creating Layer inception_5b/relu_5x5
I0403 09:57:22.135123 31906 net.cpp:425] inception_5b/relu_5x5 <- inception_5b/5x5
I0403 09:57:22.135141 31906 net.cpp:386] inception_5b/relu_5x5 -> inception_5b/5x5 (in-place)
I0403 09:57:22.135162 31906 net.cpp:141] Setting up inception_5b/relu_5x5
I0403 09:57:22.135182 31906 net.cpp:148] Top shape: 24 128 7 7 (150528)
I0403 09:57:22.135198 31906 net.cpp:156] Memory required for data: 1335929280
I0403 09:57:22.135213 31906 layer_factory.hpp:77] Creating layer inception_5b/pool
I0403 09:57:22.135251 31906 net.cpp:91] Creating Layer inception_5b/pool
I0403 09:57:22.135272 31906 net.cpp:425] inception_5b/pool <- inception_5a/output_inception_5a/output_0_split_3
I0403 09:57:22.135293 31906 net.cpp:399] inception_5b/pool -> inception_5b/pool
I0403 09:57:22.135360 31906 net.cpp:141] Setting up inception_5b/pool
I0403 09:57:22.135386 31906 net.cpp:148] Top shape: 24 832 7 7 (978432)
I0403 09:57:22.135406 31906 net.cpp:156] Memory required for data: 1339843008
I0403 09:57:22.135422 31906 layer_factory.hpp:77] Creating layer inception_5b/pool_proj
I0403 09:57:22.135447 31906 net.cpp:91] Creating Layer inception_5b/pool_proj
I0403 09:57:22.135467 31906 net.cpp:425] inception_5b/pool_proj <- inception_5b/pool
I0403 09:57:22.135488 31906 net.cpp:399] inception_5b/pool_proj -> inception_5b/pool_proj
I0403 09:57:22.136840 31906 net.cpp:141] Setting up inception_5b/pool_proj
I0403 09:57:22.136883 31906 net.cpp:148] Top shape: 24 128 7 7 (150528)
I0403 09:57:22.136901 31906 net.cpp:156] Memory required for data: 1340445120
I0403 09:57:22.136920 31906 layer_factory.hpp:77] Creating layer inception_5b/relu_pool_proj
I0403 09:57:22.136940 31906 net.cpp:91] Creating Layer inception_5b/relu_pool_proj
I0403 09:57:22.136960 31906 net.cpp:425] inception_5b/relu_pool_proj <- inception_5b/pool_proj
I0403 09:57:22.136981 31906 net.cpp:386] inception_5b/relu_pool_proj -> inception_5b/pool_proj (in-place)
I0403 09:57:22.137017 31906 net.cpp:141] Setting up inception_5b/relu_pool_proj
I0403 09:57:22.137035 31906 net.cpp:148] Top shape: 24 128 7 7 (150528)
I0403 09:57:22.137050 31906 net.cpp:156] Memory required for data: 1341047232
I0403 09:57:22.137065 31906 layer_factory.hpp:77] Creating layer inception_5b/output
I0403 09:57:22.137084 31906 net.cpp:91] Creating Layer inception_5b/output
I0403 09:57:22.137100 31906 net.cpp:425] inception_5b/output <- inception_5b/1x1
I0403 09:57:22.137130 31906 net.cpp:425] inception_5b/output <- inception_5b/3x3
I0403 09:57:22.137151 31906 net.cpp:425] inception_5b/output <- inception_5b/5x5
I0403 09:57:22.137179 31906 net.cpp:425] inception_5b/output <- inception_5b/pool_proj
I0403 09:57:22.137197 31906 net.cpp:399] inception_5b/output -> inception_5b/output
I0403 09:57:22.137241 31906 net.cpp:141] Setting up inception_5b/output
I0403 09:57:22.137267 31906 net.cpp:148] Top shape: 24 1024 7 7 (1204224)
I0403 09:57:22.137284 31906 net.cpp:156] Memory required for data: 1345864128
I0403 09:57:22.137300 31906 layer_factory.hpp:77] Creating layer pool5/7x7_s1
I0403 09:57:22.137320 31906 net.cpp:91] Creating Layer pool5/7x7_s1
I0403 09:57:22.137336 31906 net.cpp:425] pool5/7x7_s1 <- inception_5b/output
I0403 09:57:22.137357 31906 net.cpp:399] pool5/7x7_s1 -> pool5/7x7_s1
I0403 09:57:22.137400 31906 net.cpp:141] Setting up pool5/7x7_s1
I0403 09:57:22.137424 31906 net.cpp:148] Top shape: 24 1024 1 1 (24576)
I0403 09:57:22.137440 31906 net.cpp:156] Memory required for data: 1345962432
I0403 09:57:22.137455 31906 layer_factory.hpp:77] Creating layer pool5/drop_7x7_s1
I0403 09:57:22.137475 31906 net.cpp:91] Creating Layer pool5/drop_7x7_s1
I0403 09:57:22.137490 31906 net.cpp:425] pool5/drop_7x7_s1 <- pool5/7x7_s1
I0403 09:57:22.137509 31906 net.cpp:386] pool5/drop_7x7_s1 -> pool5/7x7_s1 (in-place)
I0403 09:57:22.137549 31906 net.cpp:141] Setting up pool5/drop_7x7_s1
I0403 09:57:22.137573 31906 net.cpp:148] Top shape: 24 1024 1 1 (24576)
I0403 09:57:22.137591 31906 net.cpp:156] Memory required for data: 1346060736
I0403 09:57:22.137608 31906 layer_factory.hpp:77] Creating layer loss3/classifier_plantvillage
I0403 09:57:22.137629 31906 net.cpp:91] Creating Layer loss3/classifier_plantvillage
I0403 09:57:22.137645 31906 net.cpp:425] loss3/classifier_plantvillage <- pool5/7x7_s1
I0403 09:57:22.137665 31906 net.cpp:399] loss3/classifier_plantvillage -> loss3/classifier_plantvillage
I0403 09:57:22.137995 31906 net.cpp:141] Setting up loss3/classifier_plantvillage
I0403 09:57:22.138020 31906 net.cpp:148] Top shape: 24 38 (912)
I0403 09:57:22.138037 31906 net.cpp:156] Memory required for data: 1346064384
I0403 09:57:22.138072 31906 layer_factory.hpp:77] Creating layer loss3/classifier_plantvillage_loss3/classifier_plantvillage_0_split
I0403 09:57:22.138094 31906 net.cpp:91] Creating Layer loss3/classifier_plantvillage_loss3/classifier_plantvillage_0_split
I0403 09:57:22.138115 31906 net.cpp:425] loss3/classifier_plantvillage_loss3/classifier_plantvillage_0_split <- loss3/classifier_plantvillage
I0403 09:57:22.138139 31906 net.cpp:399] loss3/classifier_plantvillage_loss3/classifier_plantvillage_0_split -> loss3/classifier_plantvillage_loss3/classifier_plantvillage_0_split_0
I0403 09:57:22.138161 31906 net.cpp:399] loss3/classifier_plantvillage_loss3/classifier_plantvillage_0_split -> loss3/classifier_plantvillage_loss3/classifier_plantvillage_0_split_1
I0403 09:57:22.138185 31906 net.cpp:399] loss3/classifier_plantvillage_loss3/classifier_plantvillage_0_split -> loss3/classifier_plantvillage_loss3/classifier_plantvillage_0_split_2
I0403 09:57:22.138252 31906 net.cpp:141] Setting up loss3/classifier_plantvillage_loss3/classifier_plantvillage_0_split
I0403 09:57:22.138275 31906 net.cpp:148] Top shape: 24 38 (912)
I0403 09:57:22.138293 31906 net.cpp:148] Top shape: 24 38 (912)
I0403 09:57:22.138309 31906 net.cpp:148] Top shape: 24 38 (912)
I0403 09:57:22.138324 31906 net.cpp:156] Memory required for data: 1346075328
I0403 09:57:22.138341 31906 layer_factory.hpp:77] Creating layer loss1/loss
I0403 09:57:22.138360 31906 net.cpp:91] Creating Layer loss1/loss
I0403 09:57:22.138377 31906 net.cpp:425] loss1/loss <- loss1/classifier_plantvillage_loss1/classifier_plantvillage_0_split_0
I0403 09:57:22.138396 31906 net.cpp:425] loss1/loss <- label_data_1_split_0
…
