…
I0403 02:30:37.104280 23741 net.cpp:313] The NetState phase (0) differed from the phase (1) specified by a rule in layer accuracy
I0403 02:30:37.105991 23741 net.cpp:49] Initializing net from parameters: 
state {
  phase: TRAIN
}
layer {
  name: "data"
  type: "Data"
  top: "data"
  top: "label"
  include {
    phase: TRAIN
  }
  transform_param {
    mirror: true
    crop_size: 227
    mean_file: "/home/mohanty/data/final_dataset/lmdb/grayscale-50-50/mean.binaryproto"
  }
  data_param {
    source: "/home/mohanty/data/final_dataset/lmdb/grayscale-50-50/train_db"
    batch_size: 100
    backend: LMDB
  }
}
layer {
  name: "conv1"
  type: "Convolution"
  bottom: "data"
  top: "conv1"
  param {
    lr_mult: 1
    decay_mult: 1
  }
  param {
    lr_mult: 2
    decay_mult: 0
  }
  convolution_param {
    num_output: 96
    kernel_size: 11
    stride: 4
    weight_filler {
      type: "gaussian"
      std: 0.01
    }
    bias_filler {
      type: "constant"
      value: 0
    }
  }
}
layer {
  name: "relu1"
  type: "ReLU"
  bottom: "conv1"
  top: "conv1"
}
layer {
  name: "norm1"
  type: "LRN"
  bottom: "conv1"
  top: "norm1"
  lrn_param {
    local_size: 5
    alpha: 0.0001
    beta: 0.75
  }
}
layer {
  name: "pool1"
  type: "Pooling"
  bottom: "norm1"
  top: "pool1"
  pooling_param {
    pool: MAX
    kernel_size: 3
    stride: 2
  }
}
layer {
  name: "conv2"
  type: "Convolution"
  bottom: "pool1"
  top: "conv2"
  param {
    lr_mult: 1
    decay_mult: 1
  }
  param {
    lr_mult: 2
    decay_mult: 0
  }
  convolution_param {
    num_output: 256
    pad: 2
    kernel_size: 5
    group: 2
    weight_filler {
      type: "gaussian"
      std: 0.01
    }
    bias_filler {
      type: "constant"
      value: 0.1
    }
  }
}
layer {
  name: "relu2"
  type: "ReLU"
  bottom: "conv2"
  top: "conv2"
}
layer {
  name: "norm2"
  type: "LRN"
  bottom: "conv2"
  top: "norm2"
  lrn_param {
    local_size: 5
    alpha: 0.0001
    beta: 0.75
  }
}
layer {
  name: "pool2"
  type: "Pooling"
  bottom: "norm2"
  top: "pool2"
  pooling_param {
    pool: MAX
    kernel_size: 3
    stride: 2
  }
}
layer {
  name: "conv3"
  type: "Convolution"
  bottom: "pool2"
  top: "conv3"
  param {
    lr_mult: 1
    decay_mult: 1
  }
  param {
    lr_mult: 2
    decay_mult: 0
  }
  convolution_param {
    num_output: 384
    pad: 1
    kernel_size: 3
    weight_filler {
      type: "gaussian"
      std: 0.01
    }
    bias_filler {
      type: "constant"
      value: 0
    }
  }
}
layer {
  name: "relu3"
  type: "ReLU"
  bottom: "conv3"
  top: "conv3"
}
layer {
  name: "conv4"
  type: "Convolution"
  bottom: "conv3"
  top: "conv4"
  param {
    lr_mult: 1
    decay_mult: 1
  }
  param {
    lr_mult: 2
    decay_mult: 0
  }
  convolution_param {
    num_output: 384
    pad: 1
    kernel_size: 3
    group: 2
    weight_filler {
      type: "gaussian"
      std: 0.01
    }
    bias_filler {
      type: "constant"
      value: 0.1
    }
  }
}
layer {
  name: "relu4"
  type: "ReLU"
  bottom: "conv4"
  top: "conv4"
}
layer {
  name: "conv5"
  type: "Convolution"
  bottom: "conv4"
  top: "conv5"
  param {
    lr_mult: 1
    decay_mult: 1
  }
  param {
    lr_mult: 2
    decay_mult: 0
  }
  convolution_param {
    num_output: 256
    pad: 1
    kernel_size: 3
    group: 2
    weight_filler {
      type: "gaussian"
      std: 0.01
    }
    bias_filler {
      type: "constant"
      value: 0.1
    }
  }
}
layer {
  name: "relu5"
  type: "ReLU"
  bottom: "conv5"
  top: "conv5"
}
layer {
  name: "pool5"
  type: "Pooling"
  bottom: "conv5"
  top: "pool5"
  pooling_param {
    pool: MAX
    kernel_size: 3
    stride: 2
  }
}
layer {
  name: "fc6"
  type: "InnerProduct"
  bottom: "pool5"
  top: "fc6"
  param {
    lr_mult: 1
    decay_mult: 1
  }
  param {
    lr_mult: 2
    decay_mult: 0
  }
  inner_product_param {
    num_output: 4096
    weight_filler {
      type: "gaussian"
      std: 0.005
    }
    bias_filler {
      type: "constant"
      value: 0.1
    }
  }
}
layer {
  name: "relu6"
  type: "ReLU"
  bottom: "fc6"
  top: "fc6"
}
layer {
  name: "drop6"
  type: "Dropout"
  bottom: "fc6"
  top: "fc6"
  dropout_param {
    dropout_ratio: 0.5
  }
}
layer {
  name: "fc7"
  type: "InnerProduct"
  bottom: "fc6"
  top: "fc7"
  param {
    lr_mult: 1
    decay_mult: 1
  }
  param {
    lr_mult: 2
    decay_mult: 0
  }
  inner_product_param {
    num_output: 4096
    weight_filler {
      type: "gaussian"
      std: 0.005
    }
    bias_filler {
      type: "constant"
      value: 0.1
    }
  }
}
layer {
  name: "relu7"
  type: "ReLU"
  bottom: "fc7"
  top: "fc7"
}
layer {
  name: "drop7"
  type: "Dropout"
  bottom: "fc7"
  top: "fc7"
  dropout_param {
    dropout_ratio: 0.5
  }
}
layer {
  name: "fc8_plantvillage"
  type: "InnerProduct"
  bottom: "fc7"
  top: "fc8_plantvillage"
  param {
    lr_mult: 1
    decay_mult: 1
  }
  param {
    lr_mult: 2
    decay_mult: 0
  }
  inner_product_param {
    num_output: 38
    weight_filler {
      type: "gaussian"
      std: 0.01
    }
    bias_filler {
      type: "constant"
      value: 0
    }
  }
}
layer {
  name: "loss"
  type: "SoftmaxWithLoss"
  bottom: "fc8_plantvillage"
  bottom: "label"
  top: "loss"
}
I0403 02:30:37.107110 23741 layer_factory.hpp:77] Creating layer data
I0403 02:30:37.108934 23741 net.cpp:91] Creating Layer data
I0403 02:30:37.109031 23741 net.cpp:399] data -> data
I0403 02:30:37.109153 23741 net.cpp:399] data -> label
I0403 02:30:37.109244 23741 data_transformer.cpp:25] Loading mean file from: /home/mohanty/data/final_dataset/lmdb/grayscale-50-50/mean.binaryproto
I0403 02:30:37.141445 23748 db_lmdb.cpp:38] Opened lmdb /home/mohanty/data/final_dataset/lmdb/grayscale-50-50/train_db
I0403 02:30:37.147161 23741 data_layer.cpp:41] output data size: 100,3,227,227
I0403 02:30:37.288169 23741 net.cpp:141] Setting up data
I0403 02:30:37.288272 23741 net.cpp:148] Top shape: 100 3 227 227 (15458700)
I0403 02:30:37.288300 23741 net.cpp:148] Top shape: 100 (100)
I0403 02:30:37.288319 23741 net.cpp:156] Memory required for data: 61835200
I0403 02:30:37.288353 23741 layer_factory.hpp:77] Creating layer conv1
I0403 02:30:37.288403 23741 net.cpp:91] Creating Layer conv1
I0403 02:30:37.288430 23741 net.cpp:425] conv1 <- data
I0403 02:30:37.288492 23741 net.cpp:399] conv1 -> conv1
I0403 02:30:37.291708 23741 net.cpp:141] Setting up conv1
I0403 02:30:37.291745 23741 net.cpp:148] Top shape: 100 96 55 55 (29040000)
I0403 02:30:37.291766 23741 net.cpp:156] Memory required for data: 177995200
I0403 02:30:37.291832 23741 layer_factory.hpp:77] Creating layer relu1
I0403 02:30:37.291882 23741 net.cpp:91] Creating Layer relu1
I0403 02:30:37.291908 23741 net.cpp:425] relu1 <- conv1
I0403 02:30:37.291929 23741 net.cpp:386] relu1 -> conv1 (in-place)
I0403 02:30:37.291975 23741 net.cpp:141] Setting up relu1
I0403 02:30:37.292001 23741 net.cpp:148] Top shape: 100 96 55 55 (29040000)
I0403 02:30:37.292018 23741 net.cpp:156] Memory required for data: 294155200
I0403 02:30:37.292037 23741 layer_factory.hpp:77] Creating layer norm1
I0403 02:30:37.292059 23741 net.cpp:91] Creating Layer norm1
I0403 02:30:37.292124 23741 net.cpp:425] norm1 <- conv1
I0403 02:30:37.292150 23741 net.cpp:399] norm1 -> norm1
I0403 02:30:37.297699 23741 net.cpp:141] Setting up norm1
I0403 02:30:37.297744 23741 net.cpp:148] Top shape: 100 96 55 55 (29040000)
I0403 02:30:37.297766 23741 net.cpp:156] Memory required for data: 410315200
I0403 02:30:37.297785 23741 layer_factory.hpp:77] Creating layer pool1
I0403 02:30:37.297812 23741 net.cpp:91] Creating Layer pool1
I0403 02:30:37.297834 23741 net.cpp:425] pool1 <- norm1
I0403 02:30:37.297858 23741 net.cpp:399] pool1 -> pool1
I0403 02:30:37.297937 23741 net.cpp:141] Setting up pool1
I0403 02:30:37.297979 23741 net.cpp:148] Top shape: 100 96 27 27 (6998400)
I0403 02:30:37.298001 23741 net.cpp:156] Memory required for data: 438308800
I0403 02:30:37.298020 23741 layer_factory.hpp:77] Creating layer conv2
I0403 02:30:37.298048 23741 net.cpp:91] Creating Layer conv2
I0403 02:30:37.298068 23741 net.cpp:425] conv2 <- pool1
I0403 02:30:37.298092 23741 net.cpp:399] conv2 -> conv2
I0403 02:30:37.299814 23750 blocking_queue.cpp:50] Waiting for data
I0403 02:30:37.316004 23741 net.cpp:141] Setting up conv2
I0403 02:30:37.316043 23741 net.cpp:148] Top shape: 100 256 27 27 (18662400)
I0403 02:30:37.316064 23741 net.cpp:156] Memory required for data: 512958400
I0403 02:30:37.316090 23741 layer_factory.hpp:77] Creating layer relu2
I0403 02:30:37.316115 23741 net.cpp:91] Creating Layer relu2
I0403 02:30:37.316135 23741 net.cpp:425] relu2 <- conv2
I0403 02:30:37.316157 23741 net.cpp:386] relu2 -> conv2 (in-place)
I0403 02:30:37.316189 23741 net.cpp:141] Setting up relu2
I0403 02:30:37.316213 23741 net.cpp:148] Top shape: 100 256 27 27 (18662400)
I0403 02:30:37.316231 23741 net.cpp:156] Memory required for data: 587608000
I0403 02:30:37.316248 23741 layer_factory.hpp:77] Creating layer norm2
I0403 02:30:37.316270 23741 net.cpp:91] Creating Layer norm2
I0403 02:30:37.316289 23741 net.cpp:425] norm2 <- conv2
I0403 02:30:37.316313 23741 net.cpp:399] norm2 -> norm2
I0403 02:30:37.316368 23741 net.cpp:141] Setting up norm2
I0403 02:30:37.316397 23741 net.cpp:148] Top shape: 100 256 27 27 (18662400)
I0403 02:30:37.316416 23741 net.cpp:156] Memory required for data: 662257600
I0403 02:30:37.316433 23741 layer_factory.hpp:77] Creating layer pool2
I0403 02:30:37.316458 23741 net.cpp:91] Creating Layer pool2
I0403 02:30:37.316478 23741 net.cpp:425] pool2 <- norm2
I0403 02:30:37.316501 23741 net.cpp:399] pool2 -> pool2
I0403 02:30:37.316557 23741 net.cpp:141] Setting up pool2
I0403 02:30:37.316586 23741 net.cpp:148] Top shape: 100 256 13 13 (4326400)
I0403 02:30:37.316604 23741 net.cpp:156] Memory required for data: 679563200
I0403 02:30:37.316622 23741 layer_factory.hpp:77] Creating layer conv3
I0403 02:30:37.316649 23741 net.cpp:91] Creating Layer conv3
I0403 02:30:37.316669 23741 net.cpp:425] conv3 <- pool2
I0403 02:30:37.316694 23741 net.cpp:399] conv3 -> conv3
I0403 02:30:37.358295 23741 net.cpp:141] Setting up conv3
I0403 02:30:37.358337 23741 net.cpp:148] Top shape: 100 384 13 13 (6489600)
I0403 02:30:37.358358 23741 net.cpp:156] Memory required for data: 705521600
I0403 02:30:37.358384 23741 layer_factory.hpp:77] Creating layer relu3
I0403 02:30:37.358410 23741 net.cpp:91] Creating Layer relu3
I0403 02:30:37.358429 23741 net.cpp:425] relu3 <- conv3
I0403 02:30:37.358453 23741 net.cpp:386] relu3 -> conv3 (in-place)
I0403 02:30:37.358475 23741 net.cpp:141] Setting up relu3
I0403 02:30:37.358497 23741 net.cpp:148] Top shape: 100 384 13 13 (6489600)
I0403 02:30:37.358515 23741 net.cpp:156] Memory required for data: 731480000
I0403 02:30:37.358532 23741 layer_factory.hpp:77] Creating layer conv4
I0403 02:30:37.358558 23741 net.cpp:91] Creating Layer conv4
I0403 02:30:37.358579 23741 net.cpp:425] conv4 <- conv3
I0403 02:30:37.358603 23741 net.cpp:399] conv4 -> conv4
I0403 02:30:37.389940 23741 net.cpp:141] Setting up conv4
I0403 02:30:37.389981 23741 net.cpp:148] Top shape: 100 384 13 13 (6489600)
I0403 02:30:37.390003 23741 net.cpp:156] Memory required for data: 757438400
I0403 02:30:37.390048 23741 layer_factory.hpp:77] Creating layer relu4
I0403 02:30:37.390074 23741 net.cpp:91] Creating Layer relu4
I0403 02:30:37.390094 23741 net.cpp:425] relu4 <- conv4
I0403 02:30:37.390117 23741 net.cpp:386] relu4 -> conv4 (in-place)
I0403 02:30:37.390139 23741 net.cpp:141] Setting up relu4
I0403 02:30:37.390161 23741 net.cpp:148] Top shape: 100 384 13 13 (6489600)
I0403 02:30:37.390184 23741 net.cpp:156] Memory required for data: 783396800
I0403 02:30:37.390203 23741 layer_factory.hpp:77] Creating layer conv5
I0403 02:30:37.390231 23741 net.cpp:91] Creating Layer conv5
I0403 02:30:37.390251 23741 net.cpp:425] conv5 <- conv4
I0403 02:30:37.390277 23741 net.cpp:399] conv5 -> conv5
I0403 02:30:37.411314 23741 net.cpp:141] Setting up conv5
I0403 02:30:37.411351 23741 net.cpp:148] Top shape: 100 256 13 13 (4326400)
I0403 02:30:37.411371 23741 net.cpp:156] Memory required for data: 800702400
I0403 02:30:37.411401 23741 layer_factory.hpp:77] Creating layer relu5
I0403 02:30:37.411425 23741 net.cpp:91] Creating Layer relu5
I0403 02:30:37.411447 23741 net.cpp:425] relu5 <- conv5
I0403 02:30:37.411468 23741 net.cpp:386] relu5 -> conv5 (in-place)
I0403 02:30:37.411491 23741 net.cpp:141] Setting up relu5
I0403 02:30:37.411512 23741 net.cpp:148] Top shape: 100 256 13 13 (4326400)
I0403 02:30:37.411530 23741 net.cpp:156] Memory required for data: 818008000
I0403 02:30:37.411548 23741 layer_factory.hpp:77] Creating layer pool5
I0403 02:30:37.411569 23741 net.cpp:91] Creating Layer pool5
I0403 02:30:37.411587 23741 net.cpp:425] pool5 <- conv5
I0403 02:30:37.411607 23741 net.cpp:399] pool5 -> pool5
I0403 02:30:37.411669 23741 net.cpp:141] Setting up pool5
I0403 02:30:37.411696 23741 net.cpp:148] Top shape: 100 256 6 6 (921600)
I0403 02:30:37.411715 23741 net.cpp:156] Memory required for data: 821694400
I0403 02:30:37.411732 23741 layer_factory.hpp:77] Creating layer fc6
I0403 02:30:37.411767 23741 net.cpp:91] Creating Layer fc6
I0403 02:30:37.411790 23741 net.cpp:425] fc6 <- pool5
I0403 02:30:37.411813 23741 net.cpp:399] fc6 -> fc6
I0403 02:30:38.943058 23741 net.cpp:141] Setting up fc6
I0403 02:30:38.943159 23741 net.cpp:148] Top shape: 100 4096 (409600)
I0403 02:30:38.943181 23741 net.cpp:156] Memory required for data: 823332800
I0403 02:30:38.943204 23741 layer_factory.hpp:77] Creating layer relu6
I0403 02:30:38.943229 23741 net.cpp:91] Creating Layer relu6
I0403 02:30:38.943246 23741 net.cpp:425] relu6 <- fc6
I0403 02:30:38.943265 23741 net.cpp:386] relu6 -> fc6 (in-place)
I0403 02:30:38.943289 23741 net.cpp:141] Setting up relu6
I0403 02:30:38.943305 23741 net.cpp:148] Top shape: 100 4096 (409600)
I0403 02:30:38.943320 23741 net.cpp:156] Memory required for data: 824971200
I0403 02:30:38.943333 23741 layer_factory.hpp:77] Creating layer drop6
I0403 02:30:38.943390 23741 net.cpp:91] Creating Layer drop6
I0403 02:30:38.943409 23741 net.cpp:425] drop6 <- fc6
I0403 02:30:38.943426 23741 net.cpp:386] drop6 -> fc6 (in-place)
I0403 02:30:38.943485 23741 net.cpp:141] Setting up drop6
I0403 02:30:38.943506 23741 net.cpp:148] Top shape: 100 4096 (409600)
I0403 02:30:38.943521 23741 net.cpp:156] Memory required for data: 826609600
I0403 02:30:38.943534 23741 layer_factory.hpp:77] Creating layer fc7
I0403 02:30:38.943554 23741 net.cpp:91] Creating Layer fc7
I0403 02:30:38.943568 23741 net.cpp:425] fc7 <- fc6
I0403 02:30:38.943588 23741 net.cpp:399] fc7 -> fc7
I0403 02:30:39.546146 23741 net.cpp:141] Setting up fc7
I0403 02:30:39.546249 23741 net.cpp:148] Top shape: 100 4096 (409600)
I0403 02:30:39.546267 23741 net.cpp:156] Memory required for data: 828248000
I0403 02:30:39.546289 23741 layer_factory.hpp:77] Creating layer relu7
I0403 02:30:39.546314 23741 net.cpp:91] Creating Layer relu7
I0403 02:30:39.546330 23741 net.cpp:425] relu7 <- fc7
I0403 02:30:39.546352 23741 net.cpp:386] relu7 -> fc7 (in-place)
I0403 02:30:39.546376 23741 net.cpp:141] Setting up relu7
I0403 02:30:39.546393 23741 net.cpp:148] Top shape: 100 4096 (409600)
I0403 02:30:39.546406 23741 net.cpp:156] Memory required for data: 829886400
I0403 02:30:39.546419 23741 layer_factory.hpp:77] Creating layer drop7
I0403 02:30:39.550482 23741 net.cpp:91] Creating Layer drop7
I0403 02:30:39.550503 23741 net.cpp:425] drop7 <- fc7
I0403 02:30:39.550521 23741 net.cpp:386] drop7 -> fc7 (in-place)
I0403 02:30:39.550570 23741 net.cpp:141] Setting up drop7
I0403 02:30:39.550592 23741 net.cpp:148] Top shape: 100 4096 (409600)
I0403 02:30:39.550606 23741 net.cpp:156] Memory required for data: 831524800
I0403 02:30:39.550619 23741 layer_factory.hpp:77] Creating layer fc8_plantvillage
I0403 02:30:39.550642 23741 net.cpp:91] Creating Layer fc8_plantvillage
I0403 02:30:39.550668 23741 net.cpp:425] fc8_plantvillage <- fc7
I0403 02:30:39.550686 23741 net.cpp:399] fc8_plantvillage -> fc8_plantvillage
I0403 02:30:39.556651 23741 net.cpp:141] Setting up fc8_plantvillage
I0403 02:30:39.556680 23741 net.cpp:148] Top shape: 100 38 (3800)
I0403 02:30:39.556695 23741 net.cpp:156] Memory required for data: 831540000
I0403 02:30:39.556713 23741 layer_factory.hpp:77] Creating layer loss
I0403 02:30:39.556761 23741 net.cpp:91] Creating Layer loss
I0403 02:30:39.556779 23741 net.cpp:425] loss <- fc8_plantvillage
I0403 02:30:39.556795 23741 net.cpp:425] loss <- label
I0403 02:30:39.556816 23741 net.cpp:399] loss -> loss
I0403 02:30:39.556859 23741 layer_factory.hpp:77] Creating layer loss
…
I0403 02:30:39.558634 23741 net.cpp:313] The NetState phase (1) differed from the phase (0) specified by a rule in layer data
I0403 02:30:39.559258 23741 net.cpp:49] Initializing net from parameters: 
state {
  phase: TEST
}
layer {
  name: "data"
  type: "Data"
  top: "data"
  top: "label"
  include {
    phase: TEST
  }
  transform_param {
    crop_size: 227
    mean_file: "/home/mohanty/data/final_dataset/lmdb/grayscale-50-50/mean.binaryproto"
  }
  data_param {
    source: "/home/mohanty/data/final_dataset/lmdb/grayscale-50-50/test_db"
    batch_size: 100
    backend: LMDB
  }
}
layer {
  name: "conv1"
  type: "Convolution"
  bottom: "data"
  top: "conv1"
  param {
    lr_mult: 1
    decay_mult: 1
  }
  param {
    lr_mult: 2
    decay_mult: 0
  }
  convolution_param {
    num_output: 96
    kernel_size: 11
    stride: 4
    weight_filler {
      type: "gaussian"
      std: 0.01
    }
    bias_filler {
      type: "constant"
      value: 0
    }
  }
}
layer {
  name: "relu1"
  type: "ReLU"
  bottom: "conv1"
  top: "conv1"
}
layer {
  name: "norm1"
  type: "LRN"
  bottom: "conv1"
  top: "norm1"
  lrn_param {
    local_size: 5
    alpha: 0.0001
    beta: 0.75
  }
}
layer {
  name: "pool1"
  type: "Pooling"
  bottom: "norm1"
  top: "pool1"
  pooling_param {
    pool: MAX
    kernel_size: 3
    stride: 2
  }
}
layer {
  name: "conv2"
  type: "Convolution"
  bottom: "pool1"
  top: "conv2"
  param {
    lr_mult: 1
    decay_mult: 1
  }
  param {
    lr_mult: 2
    decay_mult: 0
  }
  convolution_param {
    num_output: 256
    pad: 2
    kernel_size: 5
    group: 2
    weight_filler {
      type: "gaussian"
      std: 0.01
    }
    bias_filler {
      type: "constant"
      value: 0.1
    }
  }
}
layer {
  name: "relu2"
  type: "ReLU"
  bottom: "conv2"
  top: "conv2"
}
layer {
  name: "norm2"
  type: "LRN"
  bottom: "conv2"
  top: "norm2"
  lrn_param {
    local_size: 5
    alpha: 0.0001
    beta: 0.75
  }
}
layer {
  name: "pool2"
  type: "Pooling"
  bottom: "norm2"
  top: "pool2"
  pooling_param {
    pool: MAX
    kernel_size: 3
    stride: 2
  }
}
layer {
  name: "conv3"
  type: "Convolution"
  bottom: "pool2"
  top: "conv3"
  param {
    lr_mult: 1
    decay_mult: 1
  }
  param {
    lr_mult: 2
    decay_mult: 0
  }
  convolution_param {
    num_output: 384
    pad: 1
    kernel_size: 3
    weight_filler {
      type: "gaussian"
      std: 0.01
    }
    bias_filler {
      type: "constant"
      value: 0
    }
  }
}
layer {
  name: "relu3"
  type: "ReLU"
  bottom: "conv3"
  top: "conv3"
}
layer {
  name: "conv4"
  type: "Convolution"
  bottom: "conv3"
  top: "conv4"
  param {
    lr_mult: 1
    decay_mult: 1
  }
  param {
    lr_mult: 2
    decay_mult: 0
  }
  convolution_param {
    num_output: 384
    pad: 1
    kernel_size: 3
    group: 2
    weight_filler {
      type: "gaussian"
      std: 0.01
    }
    bias_filler {
      type: "constant"
      value: 0.1
    }
  }
}
layer {
  name: "relu4"
  type: "ReLU"
  bottom: "conv4"
  top: "conv4"
}
layer {
  name: "conv5"
  type: "Convolution"
  bottom: "conv4"
  top: "conv5"
  param {
    lr_mult: 1
    decay_mult: 1
  }
  param {
    lr_mult: 2
    decay_mult: 0
  }
  convolution_param {
    num_output: 256
    pad: 1
    kernel_size: 3
    group: 2
    weight_filler {
      type: "gaussian"
      std: 0.01
    }
    bias_filler {
      type: "constant"
      value: 0.1
    }
  }
}
layer {
  name: "relu5"
  type: "ReLU"
  bottom: "conv5"
  top: "conv5"
}
layer {
  name: "pool5"
  type: "Pooling"
  bottom: "conv5"
  top: "pool5"
  pooling_param {
    pool: MAX
    kernel_size: 3
    stride: 2
  }
}
layer {
  name: "fc6"
  type: "InnerProduct"
  bottom: "pool5"
  top: "fc6"
  param {
    lr_mult: 1
    decay_mult: 1
  }
  param {
    lr_mult: 2
    decay_mult: 0
  }
  inner_product_param {
    num_output: 4096
    weight_filler {
      type: "gaussian"
      std: 0.005
    }
    bias_filler {
      type: "constant"
      value: 0.1
    }
  }
}
layer {
  name: "relu6"
  type: "ReLU"
  bottom: "fc6"
  top: "fc6"
}
layer {
  name: "drop6"
  type: "Dropout"
  bottom: "fc6"
  top: "fc6"
  dropout_param {
    dropout_ratio: 0.5
  }
}
layer {
  name: "fc7"
  type: "InnerProduct"
  bottom: "fc6"
  top: "fc7"
  param {
    lr_mult: 1
    decay_mult: 1
  }
  param {
    lr_mult: 2
    decay_mult: 0
  }
  inner_product_param {
    num_output: 4096
    weight_filler {
      type: "gaussian"
      std: 0.005
    }
    bias_filler {
      type: "constant"
      value: 0.1
    }
  }
}
layer {
  name: "relu7"
  type: "ReLU"
  bottom: "fc7"
  top: "fc7"
}
layer {
  name: "drop7"
  type: "Dropout"
  bottom: "fc7"
  top: "fc7"
  dropout_param {
    dropout_ratio: 0.5
  }
}
layer {
  name: "fc8_plantvillage"
  type: "InnerProduct"
  bottom: "fc7"
  top: "fc8_plantvillage"
  param {
    lr_mult: 1
    decay_mult: 1
  }
  param {
    lr_mult: 2
    decay_mult: 0
  }
  inner_product_param {
    num_output: 38
    weight_filler {
      type: "gaussian"
      std: 0.01
    }
    bias_filler {
      type: "constant"
      value: 0
    }
  }
}
layer {
  name: "loss"
  type: "SoftmaxWithLoss"
  bottom: "fc8_plantvillage"
  bottom: "label"
  top: "loss"
}
layer {
  name: "accuracy"
  type: "Accuracy"
  bottom: "fc8_plantvillage"
  bottom: "label"
  top: "accuracy"
  include {
    phase: TEST
  }
}
I0403 02:30:39.559429 23741 layer_factory.hpp:77] Creating layer data
I0403 02:30:39.559594 23741 net.cpp:91] Creating Layer data
I0403 02:30:39.559620 23741 net.cpp:399] data -> data
I0403 02:30:39.559643 23741 net.cpp:399] data -> label
I0403 02:30:39.559665 23741 data_transformer.cpp:25] Loading mean file from: /home/mohanty/data/final_dataset/lmdb/grayscale-50-50/mean.binaryproto
I0403 02:30:39.572471 23751 db_lmdb.cpp:38] Opened lmdb /home/mohanty/data/final_dataset/lmdb/grayscale-50-50/test_db
I0403 02:30:39.575705 23741 data_layer.cpp:41] output data size: 100,3,227,227
I0403 02:30:39.762537 23741 net.cpp:141] Setting up data
I0403 02:30:39.762658 23741 net.cpp:148] Top shape: 100 3 227 227 (15458700)
I0403 02:30:39.762694 23741 net.cpp:148] Top shape: 100 (100)
I0403 02:30:39.762780 23741 net.cpp:156] Memory required for data: 61835200
I0403 02:30:39.762850 23741 layer_factory.hpp:77] Creating layer label_data_1_split
I0403 02:30:39.762954 23741 net.cpp:91] Creating Layer label_data_1_split
I0403 02:30:39.763036 23741 net.cpp:425] label_data_1_split <- label
I0403 02:30:39.763094 23741 net.cpp:399] label_data_1_split -> label_data_1_split_0
I0403 02:30:39.763183 23741 net.cpp:399] label_data_1_split -> label_data_1_split_1
I0403 02:30:39.763408 23741 net.cpp:141] Setting up label_data_1_split
I0403 02:30:39.763564 23741 net.cpp:148] Top shape: 100 (100)
I0403 02:30:39.763715 23741 net.cpp:148] Top shape: 100 (100)
I0403 02:30:39.763849 23741 net.cpp:156] Memory required for data: 61836000
I0403 02:30:39.764011 23741 layer_factory.hpp:77] Creating layer conv1
I0403 02:30:39.764199 23741 net.cpp:91] Creating Layer conv1
I0403 02:30:39.764384 23741 net.cpp:425] conv1 <- data
I0403 02:30:39.764538 23741 net.cpp:399] conv1 -> conv1
I0403 02:30:39.767817 23741 net.cpp:141] Setting up conv1
I0403 02:30:39.767902 23741 net.cpp:148] Top shape: 100 96 55 55 (29040000)
I0403 02:30:39.767956 23741 net.cpp:156] Memory required for data: 177996000
I0403 02:30:39.768044 23741 layer_factory.hpp:77] Creating layer relu1
I0403 02:30:39.768134 23741 net.cpp:91] Creating Layer relu1
I0403 02:30:39.768174 23741 net.cpp:425] relu1 <- conv1
I0403 02:30:39.768265 23741 net.cpp:386] relu1 -> conv1 (in-place)
I0403 02:30:39.768354 23741 net.cpp:141] Setting up relu1
I0403 02:30:39.768395 23741 net.cpp:148] Top shape: 100 96 55 55 (29040000)
I0403 02:30:39.768481 23741 net.cpp:156] Memory required for data: 294156000
I0403 02:30:39.768566 23741 layer_factory.hpp:77] Creating layer norm1
I0403 02:30:39.768658 23741 net.cpp:91] Creating Layer norm1
I0403 02:30:39.768738 23741 net.cpp:425] norm1 <- conv1
I0403 02:30:39.768829 23741 net.cpp:399] norm1 -> norm1
I0403 02:30:39.768949 23741 net.cpp:141] Setting up norm1
I0403 02:30:39.769027 23741 net.cpp:148] Top shape: 100 96 55 55 (29040000)
I0403 02:30:39.769083 23741 net.cpp:156] Memory required for data: 410316000
I0403 02:30:39.769167 23741 layer_factory.hpp:77] Creating layer pool1
I0403 02:30:39.769228 23741 net.cpp:91] Creating Layer pool1
I0403 02:30:39.769302 23741 net.cpp:425] pool1 <- norm1
I0403 02:30:39.769389 23741 net.cpp:399] pool1 -> pool1
I0403 02:30:39.769443 23741 net.cpp:141] Setting up pool1
I0403 02:30:39.769469 23741 net.cpp:148] Top shape: 100 96 27 27 (6998400)
I0403 02:30:39.769484 23741 net.cpp:156] Memory required for data: 438309600
I0403 02:30:39.769526 23741 layer_factory.hpp:77] Creating layer conv2
I0403 02:30:39.769551 23741 net.cpp:91] Creating Layer conv2
I0403 02:30:39.769568 23741 net.cpp:425] conv2 <- pool1
I0403 02:30:39.769588 23741 net.cpp:399] conv2 -> conv2
I0403 02:30:39.795457 23741 net.cpp:141] Setting up conv2
I0403 02:30:39.805383 23741 net.cpp:148] Top shape: 100 256 27 27 (18662400)
I0403 02:30:39.805456 23741 net.cpp:156] Memory required for data: 512959200
I0403 02:30:39.805543 23741 layer_factory.hpp:77] Creating layer relu2
I0403 02:30:39.805618 23741 net.cpp:91] Creating Layer relu2
I0403 02:30:39.805711 23741 net.cpp:425] relu2 <- conv2
I0403 02:30:39.805796 23741 net.cpp:386] relu2 -> conv2 (in-place)
I0403 02:30:39.805891 23741 net.cpp:141] Setting up relu2
I0403 02:30:39.805994 23741 net.cpp:148] Top shape: 100 256 27 27 (18662400)
I0403 02:30:39.806071 23741 net.cpp:156] Memory required for data: 587608800
I0403 02:30:39.806150 23741 layer_factory.hpp:77] Creating layer norm2
I0403 02:30:39.806254 23741 net.cpp:91] Creating Layer norm2
I0403 02:30:39.806329 23741 net.cpp:425] norm2 <- conv2
I0403 02:30:39.806411 23741 net.cpp:399] norm2 -> norm2
I0403 02:30:39.806587 23741 net.cpp:141] Setting up norm2
I0403 02:30:39.806661 23741 net.cpp:148] Top shape: 100 256 27 27 (18662400)
I0403 02:30:39.806730 23741 net.cpp:156] Memory required for data: 662258400
I0403 02:30:39.806802 23741 layer_factory.hpp:77] Creating layer pool2
I0403 02:30:39.806880 23741 net.cpp:91] Creating Layer pool2
I0403 02:30:39.806960 23741 net.cpp:425] pool2 <- norm2
I0403 02:30:39.807044 23741 net.cpp:399] pool2 -> pool2
I0403 02:30:39.807201 23741 net.cpp:141] Setting up pool2
I0403 02:30:39.807417 23741 net.cpp:148] Top shape: 100 256 13 13 (4326400)
I0403 02:30:39.807435 23741 net.cpp:156] Memory required for data: 679564000
I0403 02:30:39.807449 23741 layer_factory.hpp:77] Creating layer conv3
I0403 02:30:39.807472 23741 net.cpp:91] Creating Layer conv3
I0403 02:30:39.807490 23741 net.cpp:425] conv3 <- pool2
I0403 02:30:39.807510 23741 net.cpp:399] conv3 -> conv3
I0403 02:30:39.844969 23741 net.cpp:141] Setting up conv3
I0403 02:30:39.853525 23741 net.cpp:148] Top shape: 100 384 13 13 (6489600)
I0403 02:30:39.853585 23741 net.cpp:156] Memory required for data: 705522400
I0403 02:30:39.853668 23741 layer_factory.hpp:77] Creating layer relu3
I0403 02:30:39.853762 23741 net.cpp:91] Creating Layer relu3
I0403 02:30:39.853826 23741 net.cpp:425] relu3 <- conv3
I0403 02:30:39.853899 23741 net.cpp:386] relu3 -> conv3 (in-place)
I0403 02:30:39.853996 23741 net.cpp:141] Setting up relu3
I0403 02:30:39.854063 23741 net.cpp:148] Top shape: 100 384 13 13 (6489600)
I0403 02:30:39.854145 23741 net.cpp:156] Memory required for data: 731480800
I0403 02:30:39.854252 23741 layer_factory.hpp:77] Creating layer conv4
I0403 02:30:39.854343 23741 net.cpp:91] Creating Layer conv4
I0403 02:30:39.854426 23741 net.cpp:425] conv4 <- conv3
I0403 02:30:39.854509 23741 net.cpp:399] conv4 -> conv4
I0403 02:30:39.909308 23741 net.cpp:141] Setting up conv4
I0403 02:30:39.909356 23741 net.cpp:148] Top shape: 100 384 13 13 (6489600)
I0403 02:30:39.909373 23741 net.cpp:156] Memory required for data: 757439200
I0403 02:30:39.909392 23741 layer_factory.hpp:77] Creating layer relu4
I0403 02:30:39.909414 23741 net.cpp:91] Creating Layer relu4
I0403 02:30:39.909430 23741 net.cpp:425] relu4 <- conv4
I0403 02:30:39.909449 23741 net.cpp:386] relu4 -> conv4 (in-place)
I0403 02:30:39.909469 23741 net.cpp:141] Setting up relu4
I0403 02:30:39.909487 23741 net.cpp:148] Top shape: 100 384 13 13 (6489600)
I0403 02:30:39.909499 23741 net.cpp:156] Memory required for data: 783397600
I0403 02:30:39.909513 23741 layer_factory.hpp:77] Creating layer conv5
I0403 02:30:39.909534 23741 net.cpp:91] Creating Layer conv5
I0403 02:30:39.909550 23741 net.cpp:425] conv5 <- conv4
I0403 02:30:39.909569 23741 net.cpp:399] conv5 -> conv5
I0403 02:30:39.935716 23741 net.cpp:141] Setting up conv5
I0403 02:30:39.935750 23741 net.cpp:148] Top shape: 100 256 13 13 (4326400)
I0403 02:30:39.935791 23741 net.cpp:156] Memory required for data: 800703200
I0403 02:30:39.935816 23741 layer_factory.hpp:77] Creating layer relu5
I0403 02:30:39.935835 23741 net.cpp:91] Creating Layer relu5
I0403 02:30:39.935852 23741 net.cpp:425] relu5 <- conv5
I0403 02:30:39.935868 23741 net.cpp:386] relu5 -> conv5 (in-place)
I0403 02:30:39.935889 23741 net.cpp:141] Setting up relu5
I0403 02:30:39.935907 23741 net.cpp:148] Top shape: 100 256 13 13 (4326400)
I0403 02:30:39.935921 23741 net.cpp:156] Memory required for data: 818008800
I0403 02:30:39.935936 23741 layer_factory.hpp:77] Creating layer pool5
I0403 02:30:39.935958 23741 net.cpp:91] Creating Layer pool5
I0403 02:30:39.935976 23741 net.cpp:425] pool5 <- conv5
I0403 02:30:39.935997 23741 net.cpp:399] pool5 -> pool5
I0403 02:30:39.936050 23741 net.cpp:141] Setting up pool5
I0403 02:30:39.936072 23741 net.cpp:148] Top shape: 100 256 6 6 (921600)
I0403 02:30:39.936089 23741 net.cpp:156] Memory required for data: 821695200
I0403 02:30:39.936101 23741 layer_factory.hpp:77] Creating layer fc6
I0403 02:30:39.936125 23741 net.cpp:91] Creating Layer fc6
I0403 02:30:39.936142 23741 net.cpp:425] fc6 <- pool5
I0403 02:30:39.936164 23741 net.cpp:399] fc6 -> fc6
I0403 02:30:41.331457 23741 net.cpp:141] Setting up fc6
I0403 02:30:41.331557 23741 net.cpp:148] Top shape: 100 4096 (409600)
I0403 02:30:41.331573 23741 net.cpp:156] Memory required for data: 823333600
I0403 02:30:41.331596 23741 layer_factory.hpp:77] Creating layer relu6
I0403 02:30:41.331621 23741 net.cpp:91] Creating Layer relu6
I0403 02:30:41.331637 23741 net.cpp:425] relu6 <- fc6
I0403 02:30:41.331657 23741 net.cpp:386] relu6 -> fc6 (in-place)
I0403 02:30:41.331681 23741 net.cpp:141] Setting up relu6
I0403 02:30:41.331697 23741 net.cpp:148] Top shape: 100 4096 (409600)
I0403 02:30:41.331713 23741 net.cpp:156] Memory required for data: 824972000
I0403 02:30:41.331727 23741 layer_factory.hpp:77] Creating layer drop6
I0403 02:30:41.331748 23741 net.cpp:91] Creating Layer drop6
I0403 02:30:41.331764 23741 net.cpp:425] drop6 <- fc6
I0403 02:30:41.331781 23741 net.cpp:386] drop6 -> fc6 (in-place)
I0403 02:30:41.331825 23741 net.cpp:141] Setting up drop6
I0403 02:30:41.331847 23741 net.cpp:148] Top shape: 100 4096 (409600)
I0403 02:30:41.331861 23741 net.cpp:156] Memory required for data: 826610400
I0403 02:30:41.331876 23741 layer_factory.hpp:77] Creating layer fc7
I0403 02:30:41.331895 23741 net.cpp:91] Creating Layer fc7
I0403 02:30:41.331912 23741 net.cpp:425] fc7 <- fc6
I0403 02:30:41.331931 23741 net.cpp:399] fc7 -> fc7
I0403 02:30:41.933315 23741 net.cpp:141] Setting up fc7
I0403 02:30:41.933413 23741 net.cpp:148] Top shape: 100 4096 (409600)
I0403 02:30:41.933429 23741 net.cpp:156] Memory required for data: 828248800
I0403 02:30:41.933451 23741 layer_factory.hpp:77] Creating layer relu7
I0403 02:30:41.933476 23741 net.cpp:91] Creating Layer relu7
I0403 02:30:41.933495 23741 net.cpp:425] relu7 <- fc7
I0403 02:30:41.933516 23741 net.cpp:386] relu7 -> fc7 (in-place)
I0403 02:30:41.933540 23741 net.cpp:141] Setting up relu7
I0403 02:30:41.933557 23741 net.cpp:148] Top shape: 100 4096 (409600)
I0403 02:30:41.933571 23741 net.cpp:156] Memory required for data: 829887200
I0403 02:30:41.933585 23741 layer_factory.hpp:77] Creating layer drop7
I0403 02:30:41.933604 23741 net.cpp:91] Creating Layer drop7
I0403 02:30:41.933617 23741 net.cpp:425] drop7 <- fc7
I0403 02:30:41.933634 23741 net.cpp:386] drop7 -> fc7 (in-place)
I0403 02:30:41.933673 23741 net.cpp:141] Setting up drop7
I0403 02:30:41.933696 23741 net.cpp:148] Top shape: 100 4096 (409600)
I0403 02:30:41.933711 23741 net.cpp:156] Memory required for data: 831525600
I0403 02:30:41.933724 23741 layer_factory.hpp:77] Creating layer fc8_plantvillage
I0403 02:30:41.933748 23741 net.cpp:91] Creating Layer fc8_plantvillage
I0403 02:30:41.933765 23741 net.cpp:425] fc8_plantvillage <- fc7
I0403 02:30:41.933784 23741 net.cpp:399] fc8_plantvillage -> fc8_plantvillage
I0403 02:30:41.939759 23741 net.cpp:141] Setting up fc8_plantvillage
I0403 02:30:41.939788 23741 net.cpp:148] Top shape: 100 38 (3800)
I0403 02:30:41.939842 23741 net.cpp:156] Memory required for data: 831540800
I0403 02:30:41.939862 23741 layer_factory.hpp:77] Creating layer fc8_plantvillage_fc8_plantvillage_0_split
I0403 02:30:41.939882 23741 net.cpp:91] Creating Layer fc8_plantvillage_fc8_plantvillage_0_split
I0403 02:30:41.939896 23741 net.cpp:425] fc8_plantvillage_fc8_plantvillage_0_split <- fc8_plantvillage
I0403 02:30:41.939915 23741 net.cpp:399] fc8_plantvillage_fc8_plantvillage_0_split -> fc8_plantvillage_fc8_plantvillage_0_split_0
I0403 02:30:41.939936 23741 net.cpp:399] fc8_plantvillage_fc8_plantvillage_0_split -> fc8_plantvillage_fc8_plantvillage_0_split_1
I0403 02:30:41.939985 23741 net.cpp:141] Setting up fc8_plantvillage_fc8_plantvillage_0_split
I0403 02:30:41.940008 23741 net.cpp:148] Top shape: 100 38 (3800)
I0403 02:30:41.940024 23741 net.cpp:148] Top shape: 100 38 (3800)
I0403 02:30:41.940038 23741 net.cpp:156] Memory required for data: 831571200
I0403 02:30:41.940052 23741 layer_factory.hpp:77] Creating layer loss
I0403 02:30:41.940069 23741 net.cpp:91] Creating Layer loss
I0403 02:30:41.940083 23741 net.cpp:425] loss <- fc8_plantvillage_fc8_plantvillage_0_split_0
I0403 02:30:41.940099 23741 net.cpp:425] loss <- label_data_1_split_0
I0403 02:30:41.940116 23741 net.cpp:399] loss -> loss
…
