…
I0403 17:54:40.968504 15438 net.cpp:313] The NetState phase (1) differed from the phase (0) specified by a rule in layer data
I0403 17:54:40.969610 15438 net.cpp:49] Initializing net from parameters: 
state {
  phase: TEST
}
layer {
  name: "data"
  type: "Data"
  top: "data"
  top: "label"
  include {
    phase: TEST
  }
  transform_param {
    mirror: false
    crop_size: 224
    mean_file: "/home/mohanty/data/final_dataset/lmdb/grayscale-60-40/mean.binaryproto"
  }
  data_param {
    source: "/home/mohanty/data/final_dataset/lmdb/grayscale-60-40/test_db"
    batch_size: 24
    backend: LMDB
  }
}
layer {
  name: "conv1/7x7_s2"
  type: "Convolution"
  bottom: "data"
  top: "conv1/7x7_s2"
  param {
    lr_mult: 1
    decay_mult: 1
  }
  param {
    lr_mult: 2
    decay_mult: 0
  }
  convolution_param {
    num_output: 64
    pad: 3
    kernel_size: 7
    stride: 2
    weight_filler {
      type: "xavier"
      std: 0.1
    }
    bias_filler {
      type: "constant"
      value: 0.2
    }
  }
}
layer {
  name: "conv1/relu_7x7"
  type: "ReLU"
  bottom: "conv1/7x7_s2"
  top: "conv1/7x7_s2"
}
layer {
  name: "pool1/3x3_s2"
  type: "Pooling"
  bottom: "conv1/7x7_s2"
  top: "pool1/3x3_s2"
  pooling_param {
    pool: MAX
    kernel_size: 3
    stride: 2
  }
}
layer {
  name: "pool1/norm1"
  type: "LRN"
  bottom: "pool1/3x3_s2"
  top: "pool1/norm1"
  lrn_param {
    local_size: 5
    alpha: 0.0001
    beta: 0.75
  }
}
layer {
  name: "conv2/3x3_reduce"
  type: "Convolution"
  bottom: "pool1/norm1"
  top: "conv2/3x3_reduce"
  param {
    lr_mult: 1
    decay_mult: 1
  }
  param {
    lr_mult: 2
    decay_mult: 0
  }
  convolution_param {
    num_output: 64
    kernel_size: 1
    weight_filler {
      type: "xavier"
      std: 0.1
    }
    bias_filler {
      type: "constant"
      value: 0.2
    }
  }
}
layer {
  name: "conv2/relu_3x3_reduce"
  type: "ReLU"
  bottom: "conv2/3x3_reduce"
  top: "conv2/3x3_reduce"
}
layer {
  name: "conv2/3x3"
  type: "Convolution"
  bottom: "conv2/3x3_reduce"
  top: "conv2/3x3"
  param {
    lr_mult: 1
    decay_mult: 1
  }
  param {
    lr_mult: 2
    decay_mult: 0
  }
  convolution_param {
    num_output: 192
    pad: 1
    kernel_size: 3
    weight_filler {
      type: "xavier"
      std: 0.03
    }
    bias_filler {
      type: "constant"
      value: 0.2
    }
  }
}
layer {
  name: "conv2/relu_3x3"
  type: "ReLU"
  bottom: "conv2/3x3"
  top: "conv2/3x3"
}
layer {
  name: "conv2/norm2"
  type: "LRN"
  bottom: "conv2/3x3"
  top: "conv2/norm2"
  lrn_param {
    local_size: 5
    alpha: 0.0001
    beta: 0.75
  }
}
layer {
  name: "pool2/3x3_s2"
  type: "Pooling"
  bottom: "conv2/norm2"
  top: "pool2/3x3_s2"
  pooling_param {
    pool: MAX
    kernel_size: 3
    stride: 2
  }
}
layer {
  name: "inception_3a/1x1"
  type: "Convolution"
  bottom: "pool2/3x3_s2"
  top: "inception_3a/1x1"
  param {
    lr_mult: 1
    decay_mult: 1
  }
  param {
    lr_mult: 2
    decay_mult: 0
  }
  convolution_param {
    num_output: 64
    kernel_size: 1
    weight_filler {
      type: "xavier"
      std: 0.03
    }
    bias_filler {
      type: "constant"
      value: 0.2
    }
  }
}
layer {
  name: "inception_3a/relu_1x1"
  type: "ReLU"
  bottom: "inception_3a/1x1"
  top: "inception_3a/1x1"
}
layer {
  name: "inception_3a/3x3_reduce"
  type: "Convolution"
  bottom: "pool2/3x3_s2"
  top: "inception_3a/3x3_reduce"
  param {
    lr_mult: 1
    decay_mult: 1
  }
  param {
    lr_mult: 2
    decay_mult: 0
  }
  convolution_param {
    num_output: 96
    kernel_size: 1
    weight_filler {
      type: "xavier"
      std: 0.09
    }
    bias_filler {
      type: "constant"
      value: 0.2
    }
  }
}
layer {
  name: "inception_3a/relu_3x3_reduce"
  type: "ReLU"
  bottom: "inception_3a/3x3_reduce"
  top: "inception_3a/3x3_reduce"
}
layer {
  name: "inception_3a/3x3"
  type: "Convolution"
  bottom: "inception_3a/3x3_reduce"
  top: "inception_3a/3x3"
  param {
    lr_mult: 1
    decay_mult: 1
  }
  param {
    lr_mult: 2
    decay_mult: 0
  }
  convolution_param {
    num_output: 128
    pad: 1
    kernel_size: 3
    weight_filler {
      type: "xavier"
      std: 0.03
    }
    bias_filler {
      type: "constant"
      value: 0.2
    }
  }
}
layer {
  name: "inception_3a/relu_3x3"
  type: "ReLU"
  bottom: "inception_3a/3x3"
  top: "inception_3a/3x3"
}
layer {
  name: "inception_3a/5x5_reduce"
  type: "Convolution"
  bottom: "pool2/3x3_s2"
  top: "inception_3a/5x5_reduce"
  param {
    lr_mult: 1
    decay_mult: 1
  }
  param {
    lr_mult: 2
    decay_mult: 0
  }
  convolution_param {
    num_output: 16
    kernel_size: 1
    weight_filler {
      type: "xavier"
      std: 0.2
    }
    bias_filler {
      type: "constant"
      value: 0.2
    }
  }
}
layer {
  name: "inception_3a/relu_5x5_reduce"
  type: "ReLU"
  bottom: "inception_3a/5x5_reduce"
  top: "inception_3a/5x5_reduce"
}
layer {
  name: "inception_3a/5x5"
  type: "Convolution"
  bottom: "inception_3a/5x5_reduce"
  top: "inception_3a/5x5"
  param {
    lr_mult: 1
    decay_mult: 1
  }
  param {
    lr_mult: 2
    decay_mult: 0
  }
  convolution_param {
    num_output: 32
    pad: 2
    kernel_size: 5
    weight_filler {
      type: "xavier"
      std: 0.03
    }
    bias_filler {
      type: "constant"
      value: 0.2
    }
  }
}
layer {
  name: "inception_3a/relu_5x5"
  type: "ReLU"
  bottom: "inception_3a/5x5"
  top: "inception_3a/5x5"
}
layer {
  name: "inception_3a/pool"
  type: "Pooling"
  bottom: "pool2/3x3_s2"
  top: "inception_3a/pool"
  pooling_param {
    pool: MAX
    kernel_size: 3
    stride: 1
    pad: 1
  }
}
layer {
  name: "inception_3a/pool_proj"
  type: "Convolution"
  bottom: "inception_3a/pool"
  top: "inception_3a/pool_proj"
  param {
    lr_mult: 1
    decay_mult: 1
  }
  param {
    lr_mult: 2
    decay_mult: 0
  }
  convolution_param {
    num_output: 32
    kernel_size: 1
    weight_filler {
      type: "xavier"
      std: 0.1
    }
    bias_filler {
      type: "constant"
      value: 0.2
    }
  }
}
layer {
  name: "inception_3a/relu_pool_proj"
  type: "ReLU"
  bottom: "inception_3a/pool_proj"
  top: "inception_3a/pool_proj"
}
layer {
  name: "inception_3a/output"
  type: "Concat"
  bottom: "inception_3a/1x1"
  bottom: "inception_3a/3x3"
  bottom: "inception_3a/5x5"
  bottom: "inception_3a/pool_proj"
  top: "inception_3a/output"
}
layer {
  name: "inception_3b/1x1"
  type: "Convolution"
  bottom: "inception_3a/output"
  top: "inception_3b/1x1"
  param {
    lr_mult: 1
    decay_mult: 1
  }
  param {
    lr_mult: 2
    decay_mult: 0
  }
  convolution_param {
    num_output: 128
    kernel_size: 1
    weight_filler {
      type: "xavier"
      std: 0.03
    }
    bias_filler {
      type: "constant"
      value: 0.2
    }
  }
}
layer {
  name: "inception_3b/relu_1x1"
  type: "ReLU"
  bottom: "inception_3b/1x1"
  top: "inception_3b/1x1"
}
layer {
  name: "inception_3b/3x3_reduce"
  type: "Convolution"
  bottom: "inception_3a/output"
  top: "inception_3b/3x3_reduce"
  param {
    lr_mult: 1
    decay_mult: 1
  }
  param {
    lr_mult: 2
    decay_mult: 0
  }
  convolution_param {
    num_output: 128
    kernel_size: 1
    weight_filler {
      type: "xavier"
      std: 0.09
    }
    bias_filler {
      type: "constant"
      value: 0.2
    }
  }
}
layer {
  name: "inception_3b/relu_3x3_reduce"
  type: "ReLU"
  bottom: "inception_3b/3x3_reduce"
  top: "inception_3b/3x3_reduce"
}
layer {
  name: "inception_3b/3x3"
  type: "Convolution"
  bottom: "inception_3b/3x3_reduce"
  top: "inception_3b/3x3"
  param {
    lr_mult: 1
    decay_mult: 1
  }
  param {
    lr_mult: 2
    decay_mult: 0
  }
  convolution_param {
    num_output: 192
    pad: 1
    kernel_size: 3
    weight_filler {
      type: "xavier"
      std: 0.03
    }
    bias_filler {
      type: "constant"
      value: 0.2
    }
  }
}
layer {
  name: "inception_3b/relu_3x3"
  type: "ReLU"
  bottom: "inception_3b/3x3"
  top: "inception_3b/3x3"
}
layer {
  name: "inception_3b/5x5_reduce"
  type: "Convolution"
  bottom: "inception_3a/output"
  top: "inception_3b/5x5_reduce"
  param {
    lr_mult: 1
    decay_mult: 1
  }
  param {
    lr_mult: 2
    decay_mult: 0
  }
  convolution_param {
    num_output: 32
    kernel_size: 1
    weight_filler {
      type: "xavier"
      std: 0.2
    }
    bias_filler {
      type: "constant"
      value: 0.2
    }
  }
}
layer {
  name: "inception_3b/relu_5x5_reduce"
  type: "ReLU"
  bottom: "inception_3b/5x5_reduce"
  top: "inception_3b/5x5_reduce"
}
layer {
  name: "inception_3b/5x5"
  type: "Convolution"
  bottom: "inception_3b/5x5_reduce"
  top: "inception_3b/5x5"
  param {
    lr_mult: 1
    decay_mult: 1
  }
  param {
    lr_mult: 2
    decay_mult: 0
  }
  convolution_param {
    num_output: 96
    pad: 2
    kernel_size: 5
    weight_filler {
      type: "xavier"
      std: 0.03
    }
    bias_filler {
      type: "constant"
      value: 0.2
    }
  }
}
layer {
  name: "inception_3b/relu_5x5"
  type: "ReLU"
  bottom: "inception_3b/5x5"
  top: "inception_3b/5x5"
}
layer {
  name: "inception_3b/pool"
  type: "Pooling"
  bottom: "inception_3a/output"
  top: "inception_3b/pool"
  pooling_param {
    pool: MAX
    kernel_size: 3
    stride: 1
    pad: 1
  }
}
layer {
  name: "inception_3b/pool_proj"
  type: "Convolution"
  bottom: "inception_3b/pool"
  top: "inception_3b/pool_proj"
  param {
    lr_mult: 1
    decay_mult: 1
  }
  param {
    lr_mult: 2
    decay_mult: 0
  }
  convolution_param {
    num_output: 64
    kernel_size: 1
    weight_filler {
      type: "xavier"
      std: 0.1
    }
    bias_filler {
      type: "constant"
      value: 0.2
    }
  }
}
layer {
  name: "inception_3b/relu_pool_proj"
  type: "ReLU"
  bottom: "inception_3b/pool_proj"
  top: "inception_3b/pool_proj"
}
layer {
  name: "inception_3b/output"
  type: "Concat"
  bottom: "inception_3b/1x1"
  bottom: "inception_3b/3x3"
  bottom: "inception_3b/5x5"
  bottom: "inception_3b/pool_proj"
  top: "inception_3b/output"
}
layer {
  name: "pool3/3x3_s2"
  type: "Pooling"
  bottom: "inception_3b/output"
  top: "pool3/3x3_s2"
  pooling_param {
    pool: MAX
    kernel_size: 3
    stride: 2
  }
}
layer {
  name: "inception_4a/1x1"
  type: "Convolution"
  bottom: "pool3/3x3_s2"
  top: "inception_4a/1x1"
  param {
    lr_mult: 1
    decay_mult: 1
  }
  param {
    lr_mult: 2
    decay_mult: 0
  }
  convolution_param {
    num_output: 192
    kernel_size: 1
    weight_filler {
      type: "xavier"
      std: 0.03
    }
    bias_filler {
      type: "constant"
      value: 0.2
    }
  }
}
layer {
  name: "inception_4a/relu_1x1"
  type: "ReLU"
  bottom: "inception_4a/1x1"
  top: "inception_4a/1x1"
}
layer {
  name: "inception_4a/3x3_reduce"
  type: "Convolution"
  bottom: "pool3/3x3_s2"
  top: "inception_4a/3x3_reduce"
  param {
    lr_mult: 1
    decay_mult: 1
  }
  param {
    lr_mult: 2
    decay_mult: 0
  }
  convolution_param {
    num_output: 96
    kernel_size: 1
    weight_filler {
      type: "xavier"
      std: 0.09
    }
    bias_filler {
      type: "constant"
      value: 0.2
    }
  }
}
layer {
  name: "inception_4a/relu_3x3_reduce"
  type: "ReLU"
  bottom: "inception_4a/3x3_reduce"
  top: "inception_4a/3x3_reduce"
}
layer {
  name: "inception_4a/3x3"
  type: "Convolution"
  bottom: "inception_4a/3x3_reduce"
  top: "inception_4a/3x3"
  param {
    lr_mult: 1
    decay_mult: 1
  }
  param {
    lr_mult: 2
    decay_mult: 0
  }
  convolution_param {
    num_output: 208
    pad: 1
    kernel_size: 3
    weight_filler {
      type: "xavier"
      std: 0.03
    }
    bias_filler {
      type: "constant"
      value: 0.2
    }
  }
}
layer {
  name: "inception_4a/relu_3x3"
  type: "ReLU"
  bottom: "inception_4a/3x3"
  top: "inception_4a/3x3"
}
layer {
  name: "inception_4a/5x5_reduce"
  type: "Convolution"
  bottom: "pool3/3x3_s2"
  top: "inception_4a/5x5_reduce"
  param {
    lr_mult: 1
    decay_mult: 1
  }
  param {
    lr_mult: 2
    decay_mult: 0
  }
  convolution_param {
    num_output: 16
    kernel_size: 1
    weight_filler {
      type: "xavier"
      std: 0.2
    }
    bias_filler {
      type: "constant"
      value: 0.2
    }
  }
}
layer {
  name: "inception_4a/relu_5x5_reduce"
  type: "ReLU"
  bottom: "inception_4a/5x5_reduce"
  top: "inception_4a/5x5_reduce"
}
layer {
  name: "inception_4a/5x5"
  type: "Convolution"
  bottom: "inception_4a/5x5_reduce"
  top: "inception_4a/5x5"
  param {
    lr_mult: 1
    decay_mult: 1
  }
  param {
    lr_mult: 2
    decay_mult: 0
  }
  convolution_param {
    num_output: 48
    pad: 2
    kernel_size: 5
    weight_filler {
      type: "xavier"
      std: 0.03
    }
    bias_filler {
      type: "constant"
      value: 0.2
    }
  }
}
layer {
  name: "inception_4a/relu_5x5"
  type: "ReLU"
  bottom: "inception_4a/5x5"
  top: "inception_4a/5x5"
}
layer {
  name: "inception_4a/pool"
  type: "Pooling"
  bottom: "pool3/3x3_s2"
  top: "inception_4a/pool"
  pooling_param {
    pool: MAX
    kernel_size: 3
    stride: 1
    pad: 1
  }
}
layer {
  name: "inception_4a/pool_proj"
  type: "Convolution"
  bottom: "inception_4a/pool"
  top: "inception_4a/pool_proj"
  param {
    lr_mult: 1
    decay_mult: 1
  }
  param {
    lr_mult: 2
    decay_mult: 0
  }
  convolution_param {
    num_output: 64
    kernel_size: 1
    weight_filler {
      type: "xavier"
      std: 0.1
    }
    bias_filler {
      type: "constant"
      value: 0.2
    }
  }
}
layer {
  name: "inception_4a/relu_pool_proj"
  type: "ReLU"
  bottom: "inception_4a/pool_proj"
  top: "inception_4a/pool_proj"
}
layer {
  name: "inception_4a/output"
  type: "Concat"
  bottom: "inception_4a/1x1"
  bottom: "inception_4a/3x3"
  bottom: "inception_4a/5x5"
  bottom: "inception_4a/pool_proj"
  top: "inception_4a/output"
}
layer {
  name: "loss1/ave_pool"
  type: "Pooling"
  bottom: "inception_4a/output"
  top: "loss1/ave_pool"
  pooling_param {
    pool: AVE
    kernel_size: 5
    stride: 3
  }
}
layer {
  name: "loss1/conv"
  type: "Convolution"
  bottom: "loss1/ave_pool"
  top: "loss1/conv"
  param {
    lr_mult: 1
    decay_mult: 1
  }
  param {
    lr_mult: 2
    decay_mult: 0
  }
  convolution_param {
    num_output: 128
    kernel_size: 1
    weight_filler {
      type: "xavier"
      std: 0.08
    }
    bias_filler {
      type: "constant"
      value: 0.2
    }
  }
}
layer {
  name: "loss1/relu_conv"
  type: "ReLU"
  bottom: "loss1/conv"
  top: "loss1/conv"
}
layer {
  name: "loss1/fc"
  type: "InnerProduct"
  bottom: "loss1/conv"
  top: "loss1/fc"
  param {
    lr_mult: 1
    decay_mult: 1
  }
  param {
    lr_mult: 2
    decay_mult: 0
  }
  inner_product_param {
    num_output: 1024
    weight_filler {
      type: "xavier"
      std: 0.02
    }
    bias_filler {
      type: "constant"
      value: 0.2
    }
  }
}
layer {
  name: "loss1/relu_fc"
  type: "ReLU"
  bottom: "loss1/fc"
  top: "loss1/fc"
}
layer {
  name: "loss1/drop_fc"
  type: "Dropout"
  bottom: "loss1/fc"
  top: "loss1/fc"
  dropout_param {
    dropout_ratio: 0.7
  }
}
layer {
  name: "loss1/classifier_plantvillage"
  type: "InnerProduct"
  bottom: "loss1/fc"
  top: "loss1/classifier_plantvillage"
  param {
    lr_mult: 1
    decay_mult: 1
  }
  param {
    lr_mult: 2
    decay_mult: 0
  }
  inner_product_param {
    num_output: 38
    weight_filler {
      type: "xavier"
      std: 0.0009765625
    }
    bias_filler {
      type: "constant"
      value: 0
    }
  }
}
layer {
  name: "inception_4b/1x1"
  type: "Convolution"
  bottom: "inception_4a/output"
  top: "inception_4b/1x1"
  param {
    lr_mult: 1
    decay_mult: 1
  }
  param {
    lr_mult: 2
    decay_mult: 0
  }
  convolution_param {
    num_output: 160
    kernel_size: 1
    weight_filler {
      type: "xavier"
      std: 0.03
    }
    bias_filler {
      type: "constant"
      value: 0.2
    }
  }
}
layer {
  name: "inception_4b/relu_1x1"
  type: "ReLU"
  bottom: "inception_4b/1x1"
  top: "inception_4b/1x1"
}
layer {
  name: "inception_4b/3x3_reduce"
  type: "Convolution"
  bottom: "inception_4a/output"
  top: "inception_4b/3x3_reduce"
  param {
    lr_mult: 1
    decay_mult: 1
  }
  param {
    lr_mult: 2
    decay_mult: 0
  }
  convolution_param {
    num_output: 112
    kernel_size: 1
    weight_filler {
      type: "xavier"
      std: 0.09
    }
    bias_filler {
      type: "constant"
      value: 0.2
    }
  }
}
layer {
  name: "inception_4b/relu_3x3_reduce"
  type: "ReLU"
  bottom: "inception_4b/3x3_reduce"
  top: "inception_4b/3x3_reduce"
}
layer {
  name: "inception_4b/3x3"
  type: "Convolution"
  bottom: "inception_4b/3x3_reduce"
  top: "inception_4b/3x3"
  param {
    lr_mult: 1
    decay_mult: 1
  }
  param {
    lr_mult: 2
    decay_mult: 0
  }
  convolution_param {
    num_output: 224
    pad: 1
    kernel_size: 3
    weight_filler {
      type: "xavier"
      std: 0.03
    }
    bias_filler {
      type: "constant"
      value: 0.2
    }
  }
}
layer {
  name: "inception_4b/relu_3x3"
  type: "ReLU"
  bottom: "inception_4b/3x3"
  top: "inception_4b/3x3"
}
layer {
  name: "inception_4b/5x5_reduce"
  type: "Convolution"
  bottom: "inception_4a/output"
  top: "inception_4b/5x5_reduce"
  param {
    lr_mult: 1
    decay_mult: 1
  }
  param {
    lr_mult: 2
    decay_mult: 0
  }
  convolution_param {
    num_output: 24
    kernel_size: 1
    weight_filler {
      type: "xavier"
      std: 0.2
    }
    bias_filler {
      type: "constant"
      value: 0.2
    }
  }
}
layer {
  name: "inception_4b/relu_5x5_reduce"
  type: "ReLU"
  bottom: "inception_4b/5x5_reduce"
  top: "inception_4b/5x5_reduce"
}
layer {
  name: "inception_4b/5x5"
  type: "Convolution"
  bottom: "inception_4b/5x5_reduce"
  top: "inception_4b/5x5"
  param {
    lr_mult: 1
    decay_mult: 1
  }
  param {
    lr_mult: 2
    decay_mult: 0
  }
  convolution_param {
    num_output: 64
    pad: 2
    kernel_size: 5
    weight_filler {
      type: "xavier"
      std: 0.03
    }
    bias_filler {
      type: "constant"
      value: 0.2
    }
  }
}
layer {
  name: "inception_4b/relu_5x5"
  type: "ReLU"
  bottom: "inception_4b/5x5"
  top: "inception_4b/5x5"
}
layer {
  name: "inception_4b/pool"
  type: "Pooling"
  bottom: "inception_4a/output"
  top: "inception_4b/pool"
  pooling_param {
    pool: MAX
    kernel_size: 3
    stride: 1
    pad: 1
  }
}
layer {
  name: "inception_4b/pool_proj"
  type: "Convolution"
  bottom: "inception_4b/pool"
  top: "inception_4b/pool_proj"
  param {
    lr_mult: 1
    decay_mult: 1
  }
  param {
    lr_mult: 2
    decay_mult: 0
  }
  convolution_param {
    num_output: 64
    kernel_size: 1
    weight_filler {
      type: "xavier"
      std: 0.1
    }
    bias_filler {
      type: "constant"
      value: 0.2
    }
  }
}
layer {
  name: "inception_4b/relu_pool_proj"
  type: "ReLU"
  bottom: "inception_4b/pool_proj"
  top: "inception_4b/pool_proj"
}
layer {
  name: "inception_4b/output"
  type: "Concat"
  bottom: "inception_4b/1x1"
  bottom: "inception_4b/3x3"
  bottom: "inception_4b/5x5"
  bottom: "inception_4b/pool_proj"
  top: "inception_4b/output"
}
layer {
  name: "inception_4c/1x1"
  type: "Convolution"
  bottom: "inception_4b/output"
  top: "inception_4c/1x1"
  param {
    lr_mult: 1
    decay_mult: 1
  }
  param {
    lr_mult: 2
    decay_mult: 0
  }
  convolution_param {
    num_output: 128
    kernel_size: 1
    weight_filler {
      type: "xavier"
      std: 0.03
    }
    bias_filler {
      type: "constant"
      value: 0.2
    }
  }
}
layer {
  name: "inception_4c/relu_1x1"
  type: "ReLU"
  bottom: "inception_4c/1x1"
  top: "inception_4c/1x1"
}
layer {
  name: "inception_4c/3x3_reduce"
  type: "Convolution"
  bottom: "inception_4b/output"
  top: "inception_4c/3x3_reduce"
  param {
    lr_mult: 1
    decay_mult: 1
  }
  param {
    lr_mult: 2
    decay_mult: 0
  }
  convolution_param {
    num_output: 128
    kernel_size: 1
    weight_filler {
      type: "xavier"
      std: 0.09
    }
    bias_filler {
      type: "constant"
      value: 0.2
    }
  }
}
layer {
  name: "inception_4c/relu_3x3_reduce"
  type: "ReLU"
  bottom: "inception_4c/3x3_reduce"
  top: "inception_4c/3x3_reduce"
}
layer {
  name: "inception_4c/3x3"
  type: "Convolution"
  bottom: "inception_4c/3x3_reduce"
  top: "inception_4c/3x3"
  param {
    lr_mult: 1
    decay_mult: 1
  }
  param {
    lr_mult: 2
    decay_mult: 0
  }
  convolution_param {
    num_output: 256
    pad: 1
    kernel_size: 3
    weight_filler {
      type: "xavier"
      std: 0.03
    }
    bias_filler {
      type: "constant"
      value: 0.2
    }
  }
}
layer {
  name: "inception_4c/relu_3x3"
  type: "ReLU"
  bottom: "inception_4c/3x3"
  top: "inception_4c/3x3"
}
layer {
  name: "inception_4c/5x5_reduce"
  type: "Convolution"
  bottom: "inception_4b/output"
  top: "inception_4c/5x5_reduce"
  param {
    lr_mult: 1
    decay_mult: 1
  }
  param {
    lr_mult: 2
    decay_mult: 0
  }
  convolution_param {
    num_output: 24
    kernel_size: 1
    weight_filler {
      type: "xavier"
      std: 0.2
    }
    bias_filler {
      type: "constant"
      value: 0.2
    }
  }
}
layer {
  name: "inception_4c/relu_5x5_reduce"
  type: "ReLU"
  bottom: "inception_4c/5x5_reduce"
  top: "inception_4c/5x5_reduce"
}
layer {
  name: "inception_4c/5x5"
  type: "Convolution"
  bottom: "inception_4c/5x5_reduce"
  top: "inception_4c/5x5"
  param {
    lr_mult: 1
    decay_mult: 1
  }
  param {
    lr_mult: 2
    decay_mult: 0
  }
  convolution_param {
    num_output: 64
    pad: 2
    kernel_size: 5
    weight_filler {
      type: "xavier"
      std: 0.03
    }
    bias_filler {
      type: "constant"
      value: 0.2
    }
  }
}
layer {
  name: "inception_4c/relu_5x5"
  type: "ReLU"
  bottom: "inception_4c/5x5"
  top: "inception_4c/5x5"
}
layer {
  name: "inception_4c/pool"
  type: "Pooling"
  bottom: "inception_4b/output"
  top: "inception_4c/pool"
  pooling_param {
    pool: MAX
    kernel_size: 3
    stride: 1
    pad: 1
  }
}
layer {
  name: "inception_4c/pool_proj"
  type: "Convolution"
  bottom: "inception_4c/pool"
  top: "inception_4c/pool_proj"
  param {
    lr_mult: 1
    decay_mult: 1
  }
  param {
    lr_mult: 2
    decay_mult: 0
  }
  convolution_param {
    num_output: 64
    kernel_size: 1
    weight_filler {
      type: "xavier"
      std: 0.1
    }
    bias_filler {
      type: "constant"
      value: 0.2
    }
  }
}
layer {
  name: "inception_4c/relu_pool_proj"
  type: "ReLU"
  bottom: "inception_4c/pool_proj"
  top: "inception_4c/pool_proj"
}
layer {
  name: "inception_4c/output"
  type: "Concat"
  bottom: "inception_4c/1x1"
  bottom: "inception_4c/3x3"
  bottom: "inception_4c/5x5"
  bottom: "inception_4c/pool_proj"
  top: "inception_4c/output"
}
layer {
  name: "inception_4d/1x1"
  type: "Convolution"
  bottom: "inception_4c/output"
  top: "inception_4d/1x1"
  param {
    lr_mult: 1
    decay_mult: 1
  }
  param {
    lr_mult: 2
    decay_mult: 0
  }
  convolution_param {
    num_output: 112
    kernel_size: 1
    weight_filler {
      type: "xavier"
      std: 0.03
    }
    bias_filler {
      type: "constant"
      value: 0.2
    }
  }
}
layer {
  name: "inception_4d/relu_1x1"
  type: "ReLU"
  bottom: "inception_4d/1x1"
  top: "inception_4d/1x1"
}
layer {
  name: "inception_4d/3x3_reduce"
  type: "Convolution"
  bottom: "inception_4c/output"
  top: "inception_4d/3x3_reduce"
  param {
    lr_mult: 1
    decay_mult: 1
  }
  param {
    lr_mult: 2
    decay_mult: 0
  }
  convolution_param {
    num_output: 144
    kernel_size: 1
    weight_filler {
      type: "xavier"
      std: 0.09
    }
    bias_filler {
      type: "constant"
      value: 0.2
    }
  }
}
layer {
  name: "inception_4d/relu_3x3_reduce"
  type: "ReLU"
  bottom: "inception_4d/3x3_reduce"
  top: "inception_4d/3x3_reduce"
}
layer {
  name: "inception_4d/3x3"
  type: "Convolution"
  bottom: "inception_4d/3x3_reduce"
  top: "inception_4d/3x3"
  param {
    lr_mult: 1
    decay_mult: 1
  }
  param {
    lr_mult: 2
    decay_mult: 0
  }
  convolution_param {
    num_output: 288
    pad: 1
    kernel_size: 3
    weight_filler {
      type: "xavier"
      std: 0.03
    }
    bias_filler {
      type: "constant"
      value: 0.2
    }
  }
}
layer {
  name: "inception_4d/relu_3x3"
  type: "ReLU"
  bottom: "inception_4d/3x3"
  top: "inception_4d/3x3"
}
layer {
  name: "inception_4d/5x5_reduce"
  type: "Convolution"
  bottom: "inception_4c/output"
  top: "inception_4d/5x5_reduce"
  param {
    lr_mult: 1
    decay_mult: 1
  }
  param {
    lr_mult: 2
    decay_mult: 0
  }
  convolution_param {
    num_output: 32
    kernel_size: 1
    weight_filler {
      type: "xavier"
      std: 0.2
    }
    bias_filler {
      type: "constant"
      value: 0.2
    }
  }
}
layer {
  name: "inception_4d/relu_5x5_reduce"
  type: "ReLU"
  bottom: "inception_4d/5x5_reduce"
  top: "inception_4d/5x5_reduce"
}
layer {
  name: "inception_4d/5x5"
  type: "Convolution"
  bottom: "inception_4d/5x5_reduce"
  top: "inception_4d/5x5"
  param {
    lr_mult: 1
    decay_mult: 1
  }
  param {
    lr_mult: 2
    decay_mult: 0
  }
  convolution_param {
    num_output: 64
    pad: 2
    kernel_size: 5
    weight_filler {
      type: "xavier"
      std: 0.03
    }
    bias_filler {
      type: "constant"
      value: 0.2
    }
  }
}
layer {
  name: "inception_4d/relu_5x5"
  type: "ReLU"
  bottom: "inception_4d/5x5"
  top: "inception_4d/5x5"
}
layer {
  name: "inception_4d/pool"
  type: "Pooling"
  bottom: "inception_4c/output"
  top: "inception_4d/pool"
  pooling_param {
    pool: MAX
    kernel_size: 3
    stride: 1
    pad: 1
  }
}
layer {
  name: "inception_4d/pool_proj"
  type: "Convolution"
  bottom: "inception_4d/pool"
  top: "inception_4d/pool_proj"
  param {
    lr_mult: 1
    decay_mult: 1
  }
  param {
    lr_mult: 2
    decay_mult: 0
  }
  convolution_param {
    num_output: 64
    kernel_size: 1
    weight_filler {
      type: "xavier"
      std: 0.1
    }
    bias_filler {
      type: "constant"
      value: 0.2
    }
  }
}
layer {
  name: "inception_4d/relu_pool_proj"
  type: "ReLU"
  bottom: "inception_4d/pool_proj"
  top: "inception_4d/pool_proj"
}
layer {
  name: "inception_4d/output"
  type: "Concat"
  bottom: "inception_4d/1x1"
  bottom: "inception_4d/3x3"
  bottom: "inception_4d/5x5"
  bottom: "inception_4d/pool_proj"
  top: "inception_4d/output"
}
layer {
  name: "loss2/ave_pool"
  type: "Pooling"
  bottom: "inception_4d/output"
  top: "loss2/ave_pool"
  pooling_param {
    pool: AVE
    kernel_size: 5
    stride: 3
  }
}
layer {
  name: "loss2/conv"
  type: "Convolution"
  bottom: "loss2/ave_pool"
  top: "loss2/conv"
  param {
    lr_mult: 1
    decay_mult: 1
  }
  param {
    lr_mult: 2
    decay_mult: 0
  }
  convolution_param {
    num_output: 128
    kernel_size: 1
    weight_filler {
      type: "xavier"
      std: 0.08
    }
    bias_filler {
      type: "constant"
      value: 0.2
    }
  }
}
layer {
  name: "loss2/relu_conv"
  type: "ReLU"
  bottom: "loss2/conv"
  top: "loss2/conv"
}
layer {
  name: "loss2/fc"
  type: "InnerProduct"
  bottom: "loss2/conv"
  top: "loss2/fc"
  param {
    lr_mult: 1
    decay_mult: 1
  }
  param {
    lr_mult: 2
    decay_mult: 0
  }
  inner_product_param {
    num_output: 1024
    weight_filler {
      type: "xavier"
      std: 0.02
    }
    bias_filler {
      type: "constant"
      value: 0.2
    }
  }
}
layer {
  name: "loss2/relu_fc"
  type: "ReLU"
  bottom: "loss2/fc"
  top: "loss2/fc"
}
layer {
  name: "loss2/drop_fc"
  type: "Dropout"
  bottom: "loss2/fc"
  top: "loss2/fc"
  dropout_param {
    dropout_ratio: 0.7
  }
}
layer {
  name: "loss2/classifier_plantvillage"
  type: "InnerProduct"
  bottom: "loss2/fc"
  top: "loss2/classifier_plantvillage"
  param {
    lr_mult: 1
    decay_mult: 1
  }
  param {
    lr_mult: 2
    decay_mult: 0
  }
  inner_product_param {
    num_output: 38
    weight_filler {
      type: "xavier"
      std: 0.0009765625
    }
    bias_filler {
      type: "constant"
      value: 0
    }
  }
}
layer {
  name: "inception_4e/1x1"
  type: "Convolution"
  bottom: "inception_4d/output"
  top: "inception_4e/1x1"
  param {
    lr_mult: 1
    decay_mult: 1
  }
  param {
    lr_mult: 2
    decay_mult: 0
  }
  convolution_param {
    num_output: 256
    kernel_size: 1
    weight_filler {
      type: "xavier"
      std: 0.03
    }
    bias_filler {
      type: "constant"
      value: 0.2
    }
  }
}
layer {
  name: "inception_4e/relu_1x1"
  type: "ReLU"
  bottom: "inception_4e/1x1"
  top: "inception_4e/1x1"
}
layer {
  name: "inception_4e/3x3_reduce"
  type: "Convolution"
  bottom: "inception_4d/output"
  top: "inception_4e/3x3_reduce"
  param {
    lr_mult: 1
    decay_mult: 1
  }
  param {
    lr_mult: 2
    decay_mult: 0
  }
  convolution_param {
    num_output: 160
    kernel_size: 1
    weight_filler {
      type: "xavier"
      std: 0.09
    }
    bias_filler {
      type: "constant"
      value: 0.2
    }
  }
}
layer {
  name: "inception_4e/relu_3x3_reduce"
  type: "ReLU"
  bottom: "inception_4e/3x3_reduce"
  top: "inception_4e/3x3_reduce"
}
layer {
  name: "inception_4e/3x3"
  type: "Convolution"
  bottom: "inception_4e/3x3_reduce"
  top: "inception_4e/3x3"
  param {
    lr_mult: 1
    decay_mult: 1
  }
  param {
    lr_mult: 2
    decay_mult: 0
  }
  convolution_param {
    num_output: 320
    pad: 1
    kernel_size: 3
    weight_filler {
      type: "xavier"
      std: 0.03
    }
    bias_filler {
      type: "constant"
      value: 0.2
    }
  }
}
layer {
  name: "inception_4e/relu_3x3"
  type: "ReLU"
  bottom: "inception_4e/3x3"
  top: "inception_4e/3x3"
}
layer {
  name: "inception_4e/5x5_reduce"
  type: "Convolution"
  bottom: "inception_4d/output"
  top: "inception_4e/5x5_reduce"
  param {
    lr_mult: 1
    decay_mult: 1
  }
  param {
    lr_mult: 2
    decay_mult: 0
  }
  convolution_param {
    num_output: 32
    kernel_size: 1
    weight_filler {
      type: "xavier"
      std: 0.2
    }
    bias_filler {
      type: "constant"
      value: 0.2
    }
  }
}
layer {
  name: "inception_4e/relu_5x5_reduce"
  type: "ReLU"
  bottom: "inception_4e/5x5_reduce"
  top: "inception_4e/5x5_reduce"
}
layer {
  name: "inception_4e/5x5"
  type: "Convolution"
  bottom: "inception_4e/5x5_reduce"
  top: "inception_4e/
I0403 17:54:40.970911 15438 layer_factory.hpp:77] Creating layer data
I0403 17:54:40.971511 15438 net.cpp:91] Creating Layer data
I0403 17:54:40.971541 15438 net.cpp:399] data -> data
I0403 17:54:40.971595 15438 net.cpp:399] data -> label
I0403 17:54:40.971632 15438 data_transformer.cpp:25] Loading mean file from: /home/mohanty/data/final_dataset/lmdb/grayscale-60-40/mean.binaryproto
I0403 17:54:40.972786 15440 db_lmdb.cpp:38] Opened lmdb /home/mohanty/data/final_dataset/lmdb/grayscale-60-40/test_db
I0403 17:54:40.984702 15438 data_layer.cpp:41] output data size: 24,3,224,224
I0403 17:54:41.011035 15438 net.cpp:141] Setting up data
I0403 17:54:41.011127 15438 net.cpp:148] Top shape: 24 3 224 224 (3612672)
I0403 17:54:41.011149 15438 net.cpp:148] Top shape: 24 (24)
I0403 17:54:41.011164 15438 net.cpp:156] Memory required for data: 14450784
I0403 17:54:41.011191 15438 layer_factory.hpp:77] Creating layer label_data_1_split
I0403 17:54:41.011217 15438 net.cpp:91] Creating Layer label_data_1_split
I0403 17:54:41.011235 15438 net.cpp:425] label_data_1_split <- label
I0403 17:54:41.011266 15438 net.cpp:399] label_data_1_split -> label_data_1_split_0
I0403 17:54:41.011294 15438 net.cpp:399] label_data_1_split -> label_data_1_split_1
I0403 17:54:41.011315 15438 net.cpp:399] label_data_1_split -> label_data_1_split_2
I0403 17:54:41.011337 15438 net.cpp:399] label_data_1_split -> label_data_1_split_3
I0403 17:54:41.011356 15438 net.cpp:399] label_data_1_split -> label_data_1_split_4
I0403 17:54:41.011376 15438 net.cpp:399] label_data_1_split -> label_data_1_split_5
I0403 17:54:41.011396 15438 net.cpp:399] label_data_1_split -> label_data_1_split_6
I0403 17:54:41.011417 15438 net.cpp:399] label_data_1_split -> label_data_1_split_7
I0403 17:54:41.011437 15438 net.cpp:399] label_data_1_split -> label_data_1_split_8
I0403 17:54:41.011458 15438 net.cpp:399] label_data_1_split -> label_data_1_split_9
I0403 17:54:41.011572 15438 net.cpp:141] Setting up label_data_1_split
I0403 17:54:41.011595 15438 net.cpp:148] Top shape: 24 (24)
I0403 17:54:41.011613 15438 net.cpp:148] Top shape: 24 (24)
I0403 17:54:41.011629 15438 net.cpp:148] Top shape: 24 (24)
I0403 17:54:41.011644 15438 net.cpp:148] Top shape: 24 (24)
I0403 17:54:41.011661 15438 net.cpp:148] Top shape: 24 (24)
I0403 17:54:41.011675 15438 net.cpp:148] Top shape: 24 (24)
I0403 17:54:41.011692 15438 net.cpp:148] Top shape: 24 (24)
I0403 17:54:41.011706 15438 net.cpp:148] Top shape: 24 (24)
I0403 17:54:41.011723 15438 net.cpp:148] Top shape: 24 (24)
I0403 17:54:41.011739 15438 net.cpp:148] Top shape: 24 (24)
I0403 17:54:41.011782 15438 net.cpp:156] Memory required for data: 14451744
I0403 17:54:41.011797 15438 layer_factory.hpp:77] Creating layer conv1/7x7_s2
I0403 17:54:41.011828 15438 net.cpp:91] Creating Layer conv1/7x7_s2
I0403 17:54:41.011847 15438 net.cpp:425] conv1/7x7_s2 <- data
I0403 17:54:41.011867 15438 net.cpp:399] conv1/7x7_s2 -> conv1/7x7_s2
I0403 17:54:41.153200 15438 net.cpp:141] Setting up conv1/7x7_s2
I0403 17:54:41.153308 15438 net.cpp:148] Top shape: 24 64 112 112 (19267584)
I0403 17:54:41.153326 15438 net.cpp:156] Memory required for data: 91522080
I0403 17:54:41.153357 15438 layer_factory.hpp:77] Creating layer conv1/relu_7x7
I0403 17:54:41.153384 15438 net.cpp:91] Creating Layer conv1/relu_7x7
I0403 17:54:41.153403 15438 net.cpp:425] conv1/relu_7x7 <- conv1/7x7_s2
I0403 17:54:41.153421 15438 net.cpp:386] conv1/relu_7x7 -> conv1/7x7_s2 (in-place)
I0403 17:54:41.153676 15438 net.cpp:141] Setting up conv1/relu_7x7
I0403 17:54:41.153702 15438 net.cpp:148] Top shape: 24 64 112 112 (19267584)
I0403 17:54:41.153718 15438 net.cpp:156] Memory required for data: 168592416
I0403 17:54:41.153734 15438 layer_factory.hpp:77] Creating layer pool1/3x3_s2
I0403 17:54:41.153759 15438 net.cpp:91] Creating Layer pool1/3x3_s2
I0403 17:54:41.153777 15438 net.cpp:425] pool1/3x3_s2 <- conv1/7x7_s2
I0403 17:54:41.153796 15438 net.cpp:399] pool1/3x3_s2 -> pool1/3x3_s2
I0403 17:54:41.153872 15438 net.cpp:141] Setting up pool1/3x3_s2
I0403 17:54:41.153897 15438 net.cpp:148] Top shape: 24 64 56 56 (4816896)
I0403 17:54:41.153911 15438 net.cpp:156] Memory required for data: 187860000
I0403 17:54:41.153929 15438 layer_factory.hpp:77] Creating layer pool1/norm1
I0403 17:54:41.153952 15438 net.cpp:91] Creating Layer pool1/norm1
I0403 17:54:41.153970 15438 net.cpp:425] pool1/norm1 <- pool1/3x3_s2
I0403 17:54:41.153992 15438 net.cpp:399] pool1/norm1 -> pool1/norm1
I0403 17:54:41.154273 15438 net.cpp:141] Setting up pool1/norm1
I0403 17:54:41.154299 15438 net.cpp:148] Top shape: 24 64 56 56 (4816896)
I0403 17:54:41.154315 15438 net.cpp:156] Memory required for data: 207127584
I0403 17:54:41.154330 15438 layer_factory.hpp:77] Creating layer conv2/3x3_reduce
I0403 17:54:41.154355 15438 net.cpp:91] Creating Layer conv2/3x3_reduce
I0403 17:54:41.154371 15438 net.cpp:425] conv2/3x3_reduce <- pool1/norm1
I0403 17:54:41.154391 15438 net.cpp:399] conv2/3x3_reduce -> conv2/3x3_reduce
I0403 17:54:41.155756 15438 net.cpp:141] Setting up conv2/3x3_reduce
I0403 17:54:41.155786 15438 net.cpp:148] Top shape: 24 64 56 56 (4816896)
I0403 17:54:41.155802 15438 net.cpp:156] Memory required for data: 226395168
I0403 17:54:41.155822 15438 layer_factory.hpp:77] Creating layer conv2/relu_3x3_reduce
I0403 17:54:41.155843 15438 net.cpp:91] Creating Layer conv2/relu_3x3_reduce
I0403 17:54:41.155858 15438 net.cpp:425] conv2/relu_3x3_reduce <- conv2/3x3_reduce
I0403 17:54:41.155876 15438 net.cpp:386] conv2/relu_3x3_reduce -> conv2/3x3_reduce (in-place)
I0403 17:54:41.156127 15438 net.cpp:141] Setting up conv2/relu_3x3_reduce
I0403 17:54:41.156153 15438 net.cpp:148] Top shape: 24 64 56 56 (4816896)
I0403 17:54:41.156168 15438 net.cpp:156] Memory required for data: 245662752
I0403 17:54:41.156184 15438 layer_factory.hpp:77] Creating layer conv2/3x3
I0403 17:54:41.156206 15438 net.cpp:91] Creating Layer conv2/3x3
I0403 17:54:41.156224 15438 net.cpp:425] conv2/3x3 <- conv2/3x3_reduce
I0403 17:54:41.156242 15438 net.cpp:399] conv2/3x3 -> conv2/3x3
I0403 17:54:41.158502 15438 net.cpp:141] Setting up conv2/3x3
I0403 17:54:41.158532 15438 net.cpp:148] Top shape: 24 192 56 56 (14450688)
I0403 17:54:41.158550 15438 net.cpp:156] Memory required for data: 303465504
I0403 17:54:41.158571 15438 layer_factory.hpp:77] Creating layer conv2/relu_3x3
I0403 17:54:41.158591 15438 net.cpp:91] Creating Layer conv2/relu_3x3
I0403 17:54:41.158607 15438 net.cpp:425] conv2/relu_3x3 <- conv2/3x3
I0403 17:54:41.158623 15438 net.cpp:386] conv2/relu_3x3 -> conv2/3x3 (in-place)
I0403 17:54:41.158794 15438 net.cpp:141] Setting up conv2/relu_3x3
I0403 17:54:41.158823 15438 net.cpp:148] Top shape: 24 192 56 56 (14450688)
I0403 17:54:41.158866 15438 net.cpp:156] Memory required for data: 361268256
I0403 17:54:41.158882 15438 layer_factory.hpp:77] Creating layer conv2/norm2
I0403 17:54:41.158903 15438 net.cpp:91] Creating Layer conv2/norm2
I0403 17:54:41.158921 15438 net.cpp:425] conv2/norm2 <- conv2/3x3
I0403 17:54:41.158939 15438 net.cpp:399] conv2/norm2 -> conv2/norm2
I0403 17:54:41.159248 15438 net.cpp:141] Setting up conv2/norm2
I0403 17:54:41.159276 15438 net.cpp:148] Top shape: 24 192 56 56 (14450688)
I0403 17:54:41.159291 15438 net.cpp:156] Memory required for data: 419071008
I0403 17:54:41.159306 15438 layer_factory.hpp:77] Creating layer pool2/3x3_s2
I0403 17:54:41.159325 15438 net.cpp:91] Creating Layer pool2/3x3_s2
I0403 17:54:41.159343 15438 net.cpp:425] pool2/3x3_s2 <- conv2/norm2
I0403 17:54:41.159360 15438 net.cpp:399] pool2/3x3_s2 -> pool2/3x3_s2
I0403 17:54:41.159414 15438 net.cpp:141] Setting up pool2/3x3_s2
I0403 17:54:41.159437 15438 net.cpp:148] Top shape: 24 192 28 28 (3612672)
I0403 17:54:41.159451 15438 net.cpp:156] Memory required for data: 433521696
I0403 17:54:41.159466 15438 layer_factory.hpp:77] Creating layer pool2/3x3_s2_pool2/3x3_s2_0_split
I0403 17:54:41.159483 15438 net.cpp:91] Creating Layer pool2/3x3_s2_pool2/3x3_s2_0_split
I0403 17:54:41.159499 15438 net.cpp:425] pool2/3x3_s2_pool2/3x3_s2_0_split <- pool2/3x3_s2
I0403 17:54:41.159521 15438 net.cpp:399] pool2/3x3_s2_pool2/3x3_s2_0_split -> pool2/3x3_s2_pool2/3x3_s2_0_split_0
I0403 17:54:41.159543 15438 net.cpp:399] pool2/3x3_s2_pool2/3x3_s2_0_split -> pool2/3x3_s2_pool2/3x3_s2_0_split_1
I0403 17:54:41.159562 15438 net.cpp:399] pool2/3x3_s2_pool2/3x3_s2_0_split -> pool2/3x3_s2_pool2/3x3_s2_0_split_2
I0403 17:54:41.159582 15438 net.cpp:399] pool2/3x3_s2_pool2/3x3_s2_0_split -> pool2/3x3_s2_pool2/3x3_s2_0_split_3
I0403 17:54:41.159652 15438 net.cpp:141] Setting up pool2/3x3_s2_pool2/3x3_s2_0_split
I0403 17:54:41.159677 15438 net.cpp:148] Top shape: 24 192 28 28 (3612672)
I0403 17:54:41.159694 15438 net.cpp:148] Top shape: 24 192 28 28 (3612672)
I0403 17:54:41.159710 15438 net.cpp:148] Top shape: 24 192 28 28 (3612672)
I0403 17:54:41.159726 15438 net.cpp:148] Top shape: 24 192 28 28 (3612672)
I0403 17:54:41.159739 15438 net.cpp:156] Memory required for data: 491324448
I0403 17:54:41.159754 15438 layer_factory.hpp:77] Creating layer inception_3a/1x1
I0403 17:54:41.159777 15438 net.cpp:91] Creating Layer inception_3a/1x1
I0403 17:54:41.159795 15438 net.cpp:425] inception_3a/1x1 <- pool2/3x3_s2_pool2/3x3_s2_0_split_0
I0403 17:54:41.159813 15438 net.cpp:399] inception_3a/1x1 -> inception_3a/1x1
I0403 17:54:41.161403 15438 net.cpp:141] Setting up inception_3a/1x1
I0403 17:54:41.161434 15438 net.cpp:148] Top shape: 24 64 28 28 (1204224)
I0403 17:54:41.161453 15438 net.cpp:156] Memory required for data: 496141344
I0403 17:54:41.161473 15438 layer_factory.hpp:77] Creating layer inception_3a/relu_1x1
I0403 17:54:41.161506 15438 net.cpp:91] Creating Layer inception_3a/relu_1x1
I0403 17:54:41.161525 15438 net.cpp:425] inception_3a/relu_1x1 <- inception_3a/1x1
I0403 17:54:41.161542 15438 net.cpp:386] inception_3a/relu_1x1 -> inception_3a/1x1 (in-place)
I0403 17:54:41.161720 15438 net.cpp:141] Setting up inception_3a/relu_1x1
I0403 17:54:41.161748 15438 net.cpp:148] Top shape: 24 64 28 28 (1204224)
I0403 17:54:41.161766 15438 net.cpp:156] Memory required for data: 500958240
I0403 17:54:41.161780 15438 layer_factory.hpp:77] Creating layer inception_3a/3x3_reduce
I0403 17:54:41.161803 15438 net.cpp:91] Creating Layer inception_3a/3x3_reduce
I0403 17:54:41.161821 15438 net.cpp:425] inception_3a/3x3_reduce <- pool2/3x3_s2_pool2/3x3_s2_0_split_1
I0403 17:54:41.161841 15438 net.cpp:399] inception_3a/3x3_reduce -> inception_3a/3x3_reduce
I0403 17:54:41.163558 15438 net.cpp:141] Setting up inception_3a/3x3_reduce
I0403 17:54:41.163588 15438 net.cpp:148] Top shape: 24 96 28 28 (1806336)
I0403 17:54:41.163604 15438 net.cpp:156] Memory required for data: 508183584
I0403 17:54:41.163630 15438 layer_factory.hpp:77] Creating layer inception_3a/relu_3x3_reduce
I0403 17:54:41.163666 15438 net.cpp:91] Creating Layer inception_3a/relu_3x3_reduce
I0403 17:54:41.163684 15438 net.cpp:425] inception_3a/relu_3x3_reduce <- inception_3a/3x3_reduce
I0403 17:54:41.163707 15438 net.cpp:386] inception_3a/relu_3x3_reduce -> inception_3a/3x3_reduce (in-place)
I0403 17:54:41.163897 15438 net.cpp:141] Setting up inception_3a/relu_3x3_reduce
I0403 17:54:41.163924 15438 net.cpp:148] Top shape: 24 96 28 28 (1806336)
I0403 17:54:41.163940 15438 net.cpp:156] Memory required for data: 515408928
I0403 17:54:41.163956 15438 layer_factory.hpp:77] Creating layer inception_3a/3x3
I0403 17:54:41.163983 15438 net.cpp:91] Creating Layer inception_3a/3x3
I0403 17:54:41.164003 15438 net.cpp:425] inception_3a/3x3 <- inception_3a/3x3_reduce
I0403 17:54:41.164026 15438 net.cpp:399] inception_3a/3x3 -> inception_3a/3x3
I0403 17:54:41.165701 15438 net.cpp:141] Setting up inception_3a/3x3
I0403 17:54:41.165730 15438 net.cpp:148] Top shape: 24 128 28 28 (2408448)
I0403 17:54:41.165747 15438 net.cpp:156] Memory required for data: 525042720
I0403 17:54:41.165766 15438 layer_factory.hpp:77] Creating layer inception_3a/relu_3x3
I0403 17:54:41.165787 15438 net.cpp:91] Creating Layer inception_3a/relu_3x3
I0403 17:54:41.165805 15438 net.cpp:425] inception_3a/relu_3x3 <- inception_3a/3x3
I0403 17:54:41.165823 15438 net.cpp:386] inception_3a/relu_3x3 -> inception_3a/3x3 (in-place)
I0403 17:54:41.166107 15438 net.cpp:141] Setting up inception_3a/relu_3x3
I0403 17:54:41.166134 15438 net.cpp:148] Top shape: 24 128 28 28 (2408448)
I0403 17:54:41.166151 15438 net.cpp:156] Memory required for data: 534676512
I0403 17:54:41.166165 15438 layer_factory.hpp:77] Creating layer inception_3a/5x5_reduce
I0403 17:54:41.166190 15438 net.cpp:91] Creating Layer inception_3a/5x5_reduce
I0403 17:54:41.166209 15438 net.cpp:425] inception_3a/5x5_reduce <- pool2/3x3_s2_pool2/3x3_s2_0_split_2
I0403 17:54:41.166229 15438 net.cpp:399] inception_3a/5x5_reduce -> inception_3a/5x5_reduce
I0403 17:54:41.167218 15438 net.cpp:141] Setting up inception_3a/5x5_reduce
I0403 17:54:41.167248 15438 net.cpp:148] Top shape: 24 16 28 28 (301056)
I0403 17:54:41.167265 15438 net.cpp:156] Memory required for data: 535880736
I0403 17:54:41.167285 15438 layer_factory.hpp:77] Creating layer inception_3a/relu_5x5_reduce
I0403 17:54:41.167304 15438 net.cpp:91] Creating Layer inception_3a/relu_5x5_reduce
I0403 17:54:41.167320 15438 net.cpp:425] inception_3a/relu_5x5_reduce <- inception_3a/5x5_reduce
I0403 17:54:41.167340 15438 net.cpp:386] inception_3a/relu_5x5_reduce -> inception_3a/5x5_reduce (in-place)
I0403 17:54:41.167637 15438 net.cpp:141] Setting up inception_3a/relu_5x5_reduce
I0403 17:54:41.167666 15438 net.cpp:148] Top shape: 24 16 28 28 (301056)
I0403 17:54:41.167682 15438 net.cpp:156] Memory required for data: 537084960
I0403 17:54:41.167698 15438 layer_factory.hpp:77] Creating layer inception_3a/5x5
I0403 17:54:41.167721 15438 net.cpp:91] Creating Layer inception_3a/5x5
I0403 17:54:41.167737 15438 net.cpp:425] inception_3a/5x5 <- inception_3a/5x5_reduce
I0403 17:54:41.167758 15438 net.cpp:399] inception_3a/5x5 -> inception_3a/5x5
I0403 17:54:41.168766 15438 net.cpp:141] Setting up inception_3a/5x5
I0403 17:54:41.168794 15438 net.cpp:148] Top shape: 24 32 28 28 (602112)
I0403 17:54:41.168809 15438 net.cpp:156] Memory required for data: 539493408
I0403 17:54:41.168828 15438 layer_factory.hpp:77] Creating layer inception_3a/relu_5x5
I0403 17:54:41.168848 15438 net.cpp:91] Creating Layer inception_3a/relu_5x5
I0403 17:54:41.168865 15438 net.cpp:425] inception_3a/relu_5x5 <- inception_3a/5x5
I0403 17:54:41.168884 15438 net.cpp:386] inception_3a/relu_5x5 -> inception_3a/5x5 (in-place)
I0403 17:54:41.169059 15438 net.cpp:141] Setting up inception_3a/relu_5x5
I0403 17:54:41.169086 15438 net.cpp:148] Top shape: 24 32 28 28 (602112)
I0403 17:54:41.169102 15438 net.cpp:156] Memory required for data: 541901856
I0403 17:54:41.169117 15438 layer_factory.hpp:77] Creating layer inception_3a/pool
I0403 17:54:41.169134 15438 net.cpp:91] Creating Layer inception_3a/pool
I0403 17:54:41.169164 15438 net.cpp:425] inception_3a/pool <- pool2/3x3_s2_pool2/3x3_s2_0_split_3
I0403 17:54:41.169186 15438 net.cpp:399] inception_3a/pool -> inception_3a/pool
I0403 17:54:41.169257 15438 net.cpp:141] Setting up inception_3a/pool
I0403 17:54:41.169281 15438 net.cpp:148] Top shape: 24 192 28 28 (3612672)
I0403 17:54:41.169296 15438 net.cpp:156] Memory required for data: 556352544
I0403 17:54:41.169312 15438 layer_factory.hpp:77] Creating layer inception_3a/pool_proj
I0403 17:54:41.169337 15438 net.cpp:91] Creating Layer inception_3a/pool_proj
I0403 17:54:41.169354 15438 net.cpp:425] inception_3a/pool_proj <- inception_3a/pool
I0403 17:54:41.169374 15438 net.cpp:399] inception_3a/pool_proj -> inception_3a/pool_proj
I0403 17:54:41.170337 15438 net.cpp:141] Setting up inception_3a/pool_proj
I0403 17:54:41.170367 15438 net.cpp:148] Top shape: 24 32 28 28 (602112)
I0403 17:54:41.170382 15438 net.cpp:156] Memory required for data: 558760992
I0403 17:54:41.170405 15438 layer_factory.hpp:77] Creating layer inception_3a/relu_pool_proj
I0403 17:54:41.170425 15438 net.cpp:91] Creating Layer inception_3a/relu_pool_proj
I0403 17:54:41.170442 15438 net.cpp:425] inception_3a/relu_pool_proj <- inception_3a/pool_proj
I0403 17:54:41.170462 15438 net.cpp:386] inception_3a/relu_pool_proj -> inception_3a/pool_proj (in-place)
I0403 17:54:41.170738 15438 net.cpp:141] Setting up inception_3a/relu_pool_proj
I0403 17:54:41.170765 15438 net.cpp:148] Top shape: 24 32 28 28 (602112)
I0403 17:54:41.170780 15438 net.cpp:156] Memory required for data: 561169440
I0403 17:54:41.170795 15438 layer_factory.hpp:77] Creating layer inception_3a/output
I0403 17:54:41.170815 15438 net.cpp:91] Creating Layer inception_3a/output
I0403 17:54:41.170832 15438 net.cpp:425] inception_3a/output <- inception_3a/1x1
I0403 17:54:41.170850 15438 net.cpp:425] inception_3a/output <- inception_3a/3x3
I0403 17:54:41.170866 15438 net.cpp:425] inception_3a/output <- inception_3a/5x5
I0403 17:54:41.170882 15438 net.cpp:425] inception_3a/output <- inception_3a/pool_proj
I0403 17:54:41.170899 15438 net.cpp:399] inception_3a/output -> inception_3a/output
I0403 17:54:41.170948 15438 net.cpp:141] Setting up inception_3a/output
I0403 17:54:41.170971 15438 net.cpp:148] Top shape: 24 256 28 28 (4816896)
I0403 17:54:41.170991 15438 net.cpp:156] Memory required for data: 580437024
I0403 17:54:41.171006 15438 layer_factory.hpp:77] Creating layer inception_3a/output_inception_3a/output_0_split
I0403 17:54:41.171023 15438 net.cpp:91] Creating Layer inception_3a/output_inception_3a/output_0_split
I0403 17:54:41.171038 15438 net.cpp:425] inception_3a/output_inception_3a/output_0_split <- inception_3a/output
I0403 17:54:41.171057 15438 net.cpp:399] inception_3a/output_inception_3a/output_0_split -> inception_3a/output_inception_3a/output_0_split_0
I0403 17:54:41.171079 15438 net.cpp:399] inception_3a/output_inception_3a/output_0_split -> inception_3a/output_inception_3a/output_0_split_1
I0403 17:54:41.171104 15438 net.cpp:399] inception_3a/output_inception_3a/output_0_split -> inception_3a/output_inception_3a/output_0_split_2
I0403 17:54:41.171126 15438 net.cpp:399] inception_3a/output_inception_3a/output_0_split -> inception_3a/output_inception_3a/output_0_split_3
I0403 17:54:41.171200 15438 net.cpp:141] Setting up inception_3a/output_inception_3a/output_0_split
I0403 17:54:41.171223 15438 net.cpp:148] Top shape: 24 256 28 28 (4816896)
I0403 17:54:41.171242 15438 net.cpp:148] Top shape: 24 256 28 28 (4816896)
I0403 17:54:41.171259 15438 net.cpp:148] Top shape: 24 256 28 28 (4816896)
I0403 17:54:41.171275 15438 net.cpp:148] Top shape: 24 256 28 28 (4816896)
I0403 17:54:41.171289 15438 net.cpp:156] Memory required for data: 657507360
I0403 17:54:41.171303 15438 layer_factory.hpp:77] Creating layer inception_3b/1x1
I0403 17:54:41.171324 15438 net.cpp:91] Creating Layer inception_3b/1x1
I0403 17:54:41.171339 15438 net.cpp:425] inception_3b/1x1 <- inception_3a/output_inception_3a/output_0_split_0
I0403 17:54:41.171360 15438 net.cpp:399] inception_3b/1x1 -> inception_3b/1x1
I0403 17:54:41.172487 15438 net.cpp:141] Setting up inception_3b/1x1
I0403 17:54:41.172526 15438 net.cpp:148] Top shape: 24 128 28 28 (2408448)
I0403 17:54:41.172543 15438 net.cpp:156] Memory required for data: 667141152
I0403 17:54:41.172561 15438 layer_factory.hpp:77] Creating layer inception_3b/relu_1x1
I0403 17:54:41.172582 15438 net.cpp:91] Creating Layer inception_3b/relu_1x1
I0403 17:54:41.172600 15438 net.cpp:425] inception_3b/relu_1x1 <- inception_3b/1x1
I0403 17:54:41.172616 15438 net.cpp:386] inception_3b/relu_1x1 -> inception_3b/1x1 (in-place)
I0403 17:54:41.172792 15438 net.cpp:141] Setting up inception_3b/relu_1x1
I0403 17:54:41.172817 15438 net.cpp:148] Top shape: 24 128 28 28 (2408448)
I0403 17:54:41.172832 15438 net.cpp:156] Memory required for data: 676774944
I0403 17:54:41.172847 15438 layer_factory.hpp:77] Creating layer inception_3b/3x3_reduce
I0403 17:54:41.172870 15438 net.cpp:91] Creating Layer inception_3b/3x3_reduce
I0403 17:54:41.172888 15438 net.cpp:425] inception_3b/3x3_reduce <- inception_3a/output_inception_3a/output_0_split_1
I0403 17:54:41.172907 15438 net.cpp:399] inception_3b/3x3_reduce -> inception_3b/3x3_reduce
I0403 17:54:41.174072 15438 net.cpp:141] Setting up inception_3b/3x3_reduce
I0403 17:54:41.174099 15438 net.cpp:148] Top shape: 24 128 28 28 (2408448)
I0403 17:54:41.174115 15438 net.cpp:156] Memory required for data: 686408736
I0403 17:54:41.174134 15438 layer_factory.hpp:77] Creating layer inception_3b/relu_3x3_reduce
I0403 17:54:41.174154 15438 net.cpp:91] Creating Layer inception_3b/relu_3x3_reduce
I0403 17:54:41.174171 15438 net.cpp:425] inception_3b/relu_3x3_reduce <- inception_3b/3x3_reduce
I0403 17:54:41.174188 15438 net.cpp:386] inception_3b/relu_3x3_reduce -> inception_3b/3x3_reduce (in-place)
I0403 17:54:41.174361 15438 net.cpp:141] Setting up inception_3b/relu_3x3_reduce
I0403 17:54:41.174389 15438 net.cpp:148] Top shape: 24 128 28 28 (2408448)
I0403 17:54:41.174404 15438 net.cpp:156] Memory required for data: 696042528
I0403 17:54:41.174419 15438 layer_factory.hpp:77] Creating layer inception_3b/3x3
I0403 17:54:41.174443 15438 net.cpp:91] Creating Layer inception_3b/3x3
I0403 17:54:41.174463 15438 net.cpp:425] inception_3b/3x3 <- inception_3b/3x3_reduce
I0403 17:54:41.174484 15438 net.cpp:399] inception_3b/3x3 -> inception_3b/3x3
I0403 17:54:41.177425 15438 net.cpp:141] Setting up inception_3b/3x3
I0403 17:54:41.177455 15438 net.cpp:148] Top shape: 24 192 28 28 (3612672)
I0403 17:54:41.177471 15438 net.cpp:156] Memory required for data: 710493216
I0403 17:54:41.177490 15438 layer_factory.hpp:77] Creating layer inception_3b/relu_3x3
I0403 17:54:41.177511 15438 net.cpp:91] Creating Layer inception_3b/relu_3x3
I0403 17:54:41.177530 15438 net.cpp:425] inception_3b/relu_3x3 <- inception_3b/3x3
I0403 17:54:41.177547 15438 net.cpp:386] inception_3b/relu_3x3 -> inception_3b/3x3 (in-place)
I0403 17:54:41.177834 15438 net.cpp:141] Setting up inception_3b/relu_3x3
I0403 17:54:41.177860 15438 net.cpp:148] Top shape: 24 192 28 28 (3612672)
I0403 17:54:41.177875 15438 net.cpp:156] Memory required for data: 724943904
I0403 17:54:41.177891 15438 layer_factory.hpp:77] Creating layer inception_3b/5x5_reduce
I0403 17:54:41.177916 15438 net.cpp:91] Creating Layer inception_3b/5x5_reduce
I0403 17:54:41.177933 15438 net.cpp:425] inception_3b/5x5_reduce <- inception_3a/output_inception_3a/output_0_split_2
I0403 17:54:41.177953 15438 net.cpp:399] inception_3b/5x5_reduce -> inception_3b/5x5_reduce
I0403 17:54:41.178951 15438 net.cpp:141] Setting up inception_3b/5x5_reduce
I0403 17:54:41.178983 15438 net.cpp:148] Top shape: 24 32 28 28 (602112)
I0403 17:54:41.179000 15438 net.cpp:156] Memory required for data: 727352352
I0403 17:54:41.179031 15438 layer_factory.hpp:77] Creating layer inception_3b/relu_5x5_reduce
I0403 17:54:41.179050 15438 net.cpp:91] Creating Layer inception_3b/relu_5x5_reduce
I0403 17:54:41.179067 15438 net.cpp:425] inception_3b/relu_5x5_reduce <- inception_3b/5x5_reduce
I0403 17:54:41.179085 15438 net.cpp:386] inception_3b/relu_5x5_reduce -> inception_3b/5x5_reduce (in-place)
I0403 17:54:41.179268 15438 net.cpp:141] Setting up inception_3b/relu_5x5_reduce
I0403 17:54:41.179294 15438 net.cpp:148] Top shape: 24 32 28 28 (602112)
I0403 17:54:41.179319 15438 net.cpp:156] Memory required for data: 729760800
I0403 17:54:41.179333 15438 layer_factory.hpp:77] Creating layer inception_3b/5x5
I0403 17:54:41.179355 15438 net.cpp:91] Creating Layer inception_3b/5x5
I0403 17:54:41.179373 15438 net.cpp:425] inception_3b/5x5 <- inception_3b/5x5_reduce
I0403 17:54:41.179393 15438 net.cpp:399] inception_3b/5x5 -> inception_3b/5x5
I0403 17:54:41.181294 15438 net.cpp:141] Setting up inception_3b/5x5
I0403 17:54:41.181323 15438 net.cpp:148] Top shape: 24 96 28 28 (1806336)
I0403 17:54:41.181339 15438 net.cpp:156] Memory required for data: 736986144
I0403 17:54:41.181356 15438 layer_factory.hpp:77] Creating layer inception_3b/relu_5x5
I0403 17:54:41.181377 15438 net.cpp:91] Creating Layer inception_3b/relu_5x5
I0403 17:54:41.181396 15438 net.cpp:425] inception_3b/relu_5x5 <- inception_3b/5x5
I0403 17:54:41.181412 15438 net.cpp:386] inception_3b/relu_5x5 -> inception_3b/5x5 (in-place)
I0403 17:54:41.181612 15438 net.cpp:141] Setting up inception_3b/relu_5x5
I0403 17:54:41.181638 15438 net.cpp:148] Top shape: 24 96 28 28 (1806336)
I0403 17:54:41.181653 15438 net.cpp:156] Memory required for data: 744211488
I0403 17:54:41.181666 15438 layer_factory.hpp:77] Creating layer inception_3b/pool
I0403 17:54:41.181684 15438 net.cpp:91] Creating Layer inception_3b/pool
I0403 17:54:41.181699 15438 net.cpp:425] inception_3b/pool <- inception_3a/output_inception_3a/output_0_split_3
I0403 17:54:41.181716 15438 net.cpp:399] inception_3b/pool -> inception_3b/pool
I0403 17:54:41.181772 15438 net.cpp:141] Setting up inception_3b/pool
I0403 17:54:41.181795 15438 net.cpp:148] Top shape: 24 256 28 28 (4816896)
I0403 17:54:41.181809 15438 net.cpp:156] Memory required for data: 763479072
I0403 17:54:41.181823 15438 layer_factory.hpp:77] Creating layer inception_3b/pool_proj
I0403 17:54:41.181845 15438 net.cpp:91] Creating Layer inception_3b/pool_proj
I0403 17:54:41.181862 15438 net.cpp:425] inception_3b/pool_proj <- inception_3b/pool
I0403 17:54:41.181884 15438 net.cpp:399] inception_3b/pool_proj -> inception_3b/pool_proj
I0403 17:54:41.182898 15438 net.cpp:141] Setting up inception_3b/pool_proj
I0403 17:54:41.182926 15438 net.cpp:148] Top shape: 24 64 28 28 (1204224)
I0403 17:54:41.182941 15438 net.cpp:156] Memory required for data: 768295968
I0403 17:54:41.182960 15438 layer_factory.hpp:77] Creating layer inception_3b/relu_pool_proj
I0403 17:54:41.182981 15438 net.cpp:91] Creating Layer inception_3b/relu_pool_proj
I0403 17:54:41.182998 15438 net.cpp:425] inception_3b/relu_pool_proj <- inception_3b/pool_proj
I0403 17:54:41.183018 15438 net.cpp:386] inception_3b/relu_pool_proj -> inception_3b/pool_proj (in-place)
I0403 17:54:41.183400 15438 net.cpp:141] Setting up inception_3b/relu_pool_proj
I0403 17:54:41.183429 15438 net.cpp:148] Top shape: 24 64 28 28 (1204224)
I0403 17:54:41.183444 15438 net.cpp:156] Memory required for data: 773112864
I0403 17:54:41.183459 15438 layer_factory.hpp:77] Creating layer inception_3b/output
I0403 17:54:41.183475 15438 net.cpp:91] Creating Layer inception_3b/output
I0403 17:54:41.183491 15438 net.cpp:425] inception_3b/output <- inception_3b/1x1
I0403 17:54:41.183507 15438 net.cpp:425] inception_3b/output <- inception_3b/3x3
I0403 17:54:41.183523 15438 net.cpp:425] inception_3b/output <- inception_3b/5x5
I0403 17:54:41.183538 15438 net.cpp:425] inception_3b/output <- inception_3b/pool_proj
I0403 17:54:41.183557 15438 net.cpp:399] inception_3b/output -> inception_3b/output
I0403 17:54:41.183599 15438 net.cpp:141] Setting up inception_3b/output
I0403 17:54:41.183622 15438 net.cpp:148] Top shape: 24 480 28 28 (9031680)
I0403 17:54:41.183636 15438 net.cpp:156] Memory required for data: 809239584
I0403 17:54:41.183650 15438 layer_factory.hpp:77] Creating layer pool3/3x3_s2
I0403 17:54:41.183670 15438 net.cpp:91] Creating Layer pool3/3x3_s2
I0403 17:54:41.183686 15438 net.cpp:425] pool3/3x3_s2 <- inception_3b/output
I0403 17:54:41.183718 15438 net.cpp:399] pool3/3x3_s2 -> pool3/3x3_s2
I0403 17:54:41.183776 15438 net.cpp:141] Setting up pool3/3x3_s2
I0403 17:54:41.183800 15438 net.cpp:148] Top shape: 24 480 14 14 (2257920)
I0403 17:54:41.183815 15438 net.cpp:156] Memory required for data: 818271264
I0403 17:54:41.183828 15438 layer_factory.hpp:77] Creating layer pool3/3x3_s2_pool3/3x3_s2_0_split
I0403 17:54:41.183845 15438 net.cpp:91] Creating Layer pool3/3x3_s2_pool3/3x3_s2_0_split
I0403 17:54:41.183861 15438 net.cpp:425] pool3/3x3_s2_pool3/3x3_s2_0_split <- pool3/3x3_s2
I0403 17:54:41.183879 15438 net.cpp:399] pool3/3x3_s2_pool3/3x3_s2_0_split -> pool3/3x3_s2_pool3/3x3_s2_0_split_0
I0403 17:54:41.183899 15438 net.cpp:399] pool3/3x3_s2_pool3/3x3_s2_0_split -> pool3/3x3_s2_pool3/3x3_s2_0_split_1
I0403 17:54:41.183919 15438 net.cpp:399] pool3/3x3_s2_pool3/3x3_s2_0_split -> pool3/3x3_s2_pool3/3x3_s2_0_split_2
I0403 17:54:41.183938 15438 net.cpp:399] pool3/3x3_s2_pool3/3x3_s2_0_split -> pool3/3x3_s2_pool3/3x3_s2_0_split_3
I0403 17:54:41.184020 15438 net.cpp:141] Setting up pool3/3x3_s2_pool3/3x3_s2_0_split
I0403 17:54:41.184043 15438 net.cpp:148] Top shape: 24 480 14 14 (2257920)
I0403 17:54:41.184059 15438 net.cpp:148] Top shape: 24 480 14 14 (2257920)
I0403 17:54:41.184075 15438 net.cpp:148] Top shape: 24 480 14 14 (2257920)
I0403 17:54:41.184089 15438 net.cpp:148] Top shape: 24 480 14 14 (2257920)
I0403 17:54:41.184103 15438 net.cpp:156] Memory required for data: 854397984
I0403 17:54:41.184118 15438 layer_factory.hpp:77] Creating layer inception_4a/1x1
I0403 17:54:41.184139 15438 net.cpp:91] Creating Layer inception_4a/1x1
I0403 17:54:41.184155 15438 net.cpp:425] inception_4a/1x1 <- pool3/3x3_s2_pool3/3x3_s2_0_split_0
I0403 17:54:41.184176 15438 net.cpp:399] inception_4a/1x1 -> inception_4a/1x1
I0403 17:54:41.185746 15438 net.cpp:141] Setting up inception_4a/1x1
I0403 17:54:41.185772 15438 net.cpp:148] Top shape: 24 192 14 14 (903168)
I0403 17:54:41.185787 15438 net.cpp:156] Memory required for data: 858010656
I0403 17:54:41.185806 15438 layer_factory.hpp:77] Creating layer inception_4a/relu_1x1
I0403 17:54:41.185823 15438 net.cpp:91] Creating Layer inception_4a/relu_1x1
I0403 17:54:41.185839 15438 net.cpp:425] inception_4a/relu_1x1 <- inception_4a/1x1
I0403 17:54:41.185858 15438 net.cpp:386] inception_4a/relu_1x1 -> inception_4a/1x1 (in-place)
I0403 17:54:41.186033 15438 net.cpp:141] Setting up inception_4a/relu_1x1
I0403 17:54:41.186056 15438 net.cpp:148] Top shape: 24 192 14 14 (903168)
I0403 17:54:41.186071 15438 net.cpp:156] Memory required for data: 861623328
I0403 17:54:41.186086 15438 layer_factory.hpp:77] Creating layer inception_4a/3x3_reduce
I0403 17:54:41.186108 15438 net.cpp:91] Creating Layer inception_4a/3x3_reduce
I0403 17:54:41.186125 15438 net.cpp:425] inception_4a/3x3_reduce <- pool3/3x3_s2_pool3/3x3_s2_0_split_1
I0403 17:54:41.186146 15438 net.cpp:399] inception_4a/3x3_reduce -> inception_4a/3x3_reduce
I0403 17:54:41.187372 15438 net.cpp:141] Setting up inception_4a/3x3_reduce
I0403 17:54:41.187399 15438 net.cpp:148] Top shape: 24 96 14 14 (451584)
I0403 17:54:41.187414 15438 net.cpp:156] Memory required for data: 863429664
I0403 17:54:41.187438 15438 layer_factory.hpp:77] Creating layer inception_4a/relu_3x3_reduce
I0403 17:54:41.187458 15438 net.cpp:91] Creating Layer inception_4a/relu_3x3_reduce
I0403 17:54:41.187474 15438 net.cpp:425] inception_4a/relu_3x3_reduce <- inception_4a/3x3_reduce
I0403 17:54:41.187492 15438 net.cpp:386] inception_4a/relu_3x3_reduce -> inception_4a/3x3_reduce (in-place)
I0403 17:54:41.187659 15438 net.cpp:141] Setting up inception_4a/relu_3x3_reduce
I0403 17:54:41.187685 15438 net.cpp:148] Top shape: 24 96 14 14 (451584)
I0403 17:54:41.187698 15438 net.cpp:156] Memory required for data: 865236000
I0403 17:54:41.187713 15438 layer_factory.hpp:77] Creating layer inception_4a/3x3
I0403 17:54:41.187734 15438 net.cpp:91] Creating Layer inception_4a/3x3
I0403 17:54:41.187752 15438 net.cpp:425] inception_4a/3x3 <- inception_4a/3x3_reduce
I0403 17:54:41.187772 15438 net.cpp:399] inception_4a/3x3 -> inception_4a/3x3
I0403 17:54:41.190364 15438 net.cpp:141] Setting up inception_4a/3x3
I0403 17:54:41.190392 15438 net.cpp:148] Top shape: 24 208 14 14 (978432)
I0403 17:54:41.190407 15438 net.cpp:156] Memory required for data: 869149728
I0403 17:54:41.190425 15438 layer_factory.hpp:77] Creating layer inception_4a/relu_3x3
I0403 17:54:41.190445 15438 net.cpp:91] Creating Layer inception_4a/relu_3x3
I0403 17:54:41.190461 15438 net.cpp:425] inception_4a/relu_3x3 <- inception_4a/3x3
I0403 17:54:41.190479 15438 net.cpp:386] inception_4a/relu_3x3 -> inception_4a/3x3 (in-place)
I0403 17:54:41.190752 15438 net.cpp:141] Setting up inception_4a/relu_3x3
I0403 17:54:41.190776 15438 net.cpp:148] Top shape: 24 208 14 14 (978432)
I0403 17:54:41.190791 15438 net.cpp:156] Memory required for data: 873063456
I0403 17:54:41.190807 15438 layer_factory.hpp:77] Creating layer inception_4a/5x5_reduce
I0403 17:54:41.190829 15438 net.cpp:91] Creating Layer inception_4a/5x5_reduce
I0403 17:54:41.190845 15438 net.cpp:425] inception_4a/5x5_reduce <- pool3/3x3_s2_pool3/3x3_s2_0_split_2
I0403 17:54:41.190867 15438 net.cpp:399] inception_4a/5x5_reduce -> inception_4a/5x5_reduce
I0403 17:54:41.191843 15438 net.cpp:141] Setting up inception_4a/5x5_reduce
I0403 17:54:41.191870 15438 net.cpp:148] Top shape: 24 16 14 14 (75264)
I0403 17:54:41.191885 15438 net.cpp:156] Memory required for data: 873364512
I0403 17:54:41.191903 15438 layer_factory.hpp:77] Creating layer inception_4a/relu_5x5_reduce
I0403 17:54:41.191926 15438 net.cpp:91] Creating Layer inception_4a/relu_5x5_reduce
I0403 17:54:41.191942 15438 net.cpp:425] inception_4a/relu_5x5_reduce <- inception_4a/5x5_reduce
I0403 17:54:41.191961 15438 net.cpp:386] inception_4a/relu_5x5_reduce -> inception_4a/5x5_reduce (in-place)
I0403 17:54:41.192137 15438 net.cpp:141] Setting up inception_4a/relu_5x5_reduce
I0403 17:54:41.192165 15438 net.cpp:148] Top shape: 24 16 14 14 (75264)
I0403 17:54:41.192180 15438 net.cpp:156] Memory required for data: 873665568
I0403 17:54:41.192194 15438 layer_factory.hpp:77] Creating layer inception_4a/5x5
I0403 17:54:41.192216 15438 net.cpp:91] Creating Layer inception_4a/5x5
I0403 17:54:41.192234 15438 net.cpp:425] inception_4a/5x5 <- inception_4a/5x5_reduce
I0403 17:54:41.192252 15438 net.cpp:399] inception_4a/5x5 -> inception_4a/5x5
I0403 17:54:41.193337 15438 net.cpp:141] Setting up inception_4a/5x5
I0403 17:54:41.193367 15438 net.cpp:148] Top shape: 24 48 14 14 (225792)
I0403 17:54:41.193384 15438 net.cpp:156] Memory required for data: 874568736
I0403 17:54:41.193403 15438 layer_factory.hpp:77] Creating layer inception_4a/relu_5x5
I0403 17:54:41.193423 15438 net.cpp:91] Creating Layer inception_4a/relu_5x5
I0403 17:54:41.193439 15438 net.cpp:425] inception_4a/relu_5x5 <- inception_4a/5x5
I0403 17:54:41.193459 15438 net.cpp:386] inception_4a/relu_5x5 -> inception_4a/5x5 (in-place)
I0403 17:54:41.193650 15438 net.cpp:141] Setting up inception_4a/relu_5x5
I0403 17:54:41.193675 15438 net.cpp:148] Top shape: 24 48 14 14 (225792)
I0403 17:54:41.193689 15438 net.cpp:156] Memory required for data: 875471904
I0403 17:54:41.193704 15438 layer_factory.hpp:77] Creating layer inception_4a/pool
I0403 17:54:41.193722 15438 net.cpp:91] Creating Layer inception_4a/pool
I0403 17:54:41.193737 15438 net.cpp:425] inception_4a/pool <- pool3/3x3_s2_pool3/3x3_s2_0_split_3
I0403 17:54:41.193758 15438 net.cpp:399] inception_4a/pool -> inception_4a/pool
I0403 17:54:41.193819 15438 net.cpp:141] Setting up inception_4a/pool
I0403 17:54:41.193842 15438 net.cpp:148] Top shape: 24 480 14 14 (2257920)
I0403 17:54:41.193857 15438 net.cpp:156] Memory required for data: 884503584
I0403 17:54:41.193872 15438 layer_factory.hpp:77] Creating layer inception_4a/pool_proj
I0403 17:54:41.193897 15438 net.cpp:91] Creating Layer inception_4a/pool_proj
I0403 17:54:41.193913 15438 net.cpp:425] inception_4a/pool_proj <- inception_4a/pool
I0403 17:54:41.193933 15438 net.cpp:399] inception_4a/pool_proj -> inception_4a/pool_proj
I0403 17:54:41.195085 15438 net.cpp:141] Setting up inception_4a/pool_proj
I0403 17:54:41.195112 15438 net.cpp:148] Top shape: 24 64 14 14 (301056)
I0403 17:54:41.195142 15438 net.cpp:156] Memory required for data: 885707808
I0403 17:54:41.195163 15438 layer_factory.hpp:77] Creating layer inception_4a/relu_pool_proj
I0403 17:54:41.195181 15438 net.cpp:91] Creating Layer inception_4a/relu_pool_proj
I0403 17:54:41.195197 15438 net.cpp:425] inception_4a/relu_pool_proj <- inception_4a/pool_proj
I0403 17:54:41.195219 15438 net.cpp:386] inception_4a/relu_pool_proj -> inception_4a/pool_proj (in-place)
I0403 17:54:41.195500 15438 net.cpp:141] Setting up inception_4a/relu_pool_proj
I0403 17:54:41.195528 15438 net.cpp:148] Top shape: 24 64 14 14 (301056)
I0403 17:54:41.195543 15438 net.cpp:156] Memory required for data: 886912032
I0403 17:54:41.195557 15438 layer_factory.hpp:77] Creating layer inception_4a/output
I0403 17:54:41.195574 15438 net.cpp:91] Creating Layer inception_4a/output
I0403 17:54:41.195590 15438 net.cpp:425] inception_4a/output <- inception_4a/1x1
I0403 17:54:41.195605 15438 net.cpp:425] inception_4a/output <- inception_4a/3x3
I0403 17:54:41.195621 15438 net.cpp:425] inception_4a/output <- inception_4a/5x5
I0403 17:54:41.195637 15438 net.cpp:425] inception_4a/output <- inception_4a/pool_proj
I0403 17:54:41.195657 15438 net.cpp:399] inception_4a/output -> inception_4a/output
I0403 17:54:41.195701 15438 net.cpp:141] Setting up inception_4a/output
I0403 17:54:41.195724 15438 net.cpp:148] Top shape: 24 512 14 14 (2408448)
I0403 17:54:41.195739 15438 net.cpp:156] Memory required for data: 896545824
I0403 17:54:41.195754 15438 layer_factory.hpp:77] Creating layer inception_4a/output_inception_4a/output_0_split
I0403 17:54:41.195772 15438 net.cpp:91] Creating Layer inception_4a/output_inception_4a/output_0_split
I0403 17:54:41.195790 15438 net.cpp:425] inception_4a/output_inception_4a/output_0_split <- inception_4a/output
I0403 17:54:41.195809 15438 net.cpp:399] inception_4a/output_inception_4a/output_0_split -> inception_4a/output_inception_4a/output_0_split_0
I0403 17:54:41.195832 15438 net.cpp:399] inception_4a/output_inception_4a/output_0_split -> inception_4a/output_inception_4a/output_0_split_1
I0403 17:54:41.195852 15438 net.cpp:399] inception_4a/output_inception_4a/output_0_split -> inception_4a/output_inception_4a/output_0_split_2
I0403 17:54:41.195873 15438 net.cpp:399] inception_4a/output_inception_4a/output_0_split -> inception_4a/output_inception_4a/output_0_split_3
I0403 17:54:41.195894 15438 net.cpp:399] inception_4a/output_inception_4a/output_0_split -> inception_4a/output_inception_4a/output_0_split_4
I0403 17:54:41.195988 15438 net.cpp:141] Setting up inception_4a/output_inception_4a/output_0_split
I0403 17:54:41.196012 15438 net.cpp:148] Top shape: 24 512 14 14 (2408448)
I0403 17:54:41.196028 15438 net.cpp:148] Top shape: 24 512 14 14 (2408448)
I0403 17:54:41.196044 15438 net.cpp:148] Top shape: 24 512 14 14 (2408448)
I0403 17:54:41.196059 15438 net.cpp:148] Top shape: 24 512 14 14 (2408448)
I0403 17:54:41.196074 15438 net.cpp:148] Top shape: 24 512 14 14 (2408448)
I0403 17:54:41.196089 15438 net.cpp:156] Memory required for data: 944714784
I0403 17:54:41.196104 15438 layer_factory.hpp:77] Creating layer loss1/ave_pool
I0403 17:54:41.196123 15438 net.cpp:91] Creating Layer loss1/ave_pool
I0403 17:54:41.196141 15438 net.cpp:425] loss1/ave_pool <- inception_4a/output_inception_4a/output_0_split_0
I0403 17:54:41.196158 15438 net.cpp:399] loss1/ave_pool -> loss1/ave_pool
I0403 17:54:41.196365 15438 net.cpp:141] Setting up loss1/ave_pool
I0403 17:54:41.196391 15438 net.cpp:148] Top shape: 24 512 4 4 (196608)
I0403 17:54:41.196406 15438 net.cpp:156] Memory required for data: 945501216
I0403 17:54:41.196421 15438 layer_factory.hpp:77] Creating layer loss1/conv
I0403 17:54:41.196444 15438 net.cpp:91] Creating Layer loss1/conv
I0403 17:54:41.196461 15438 net.cpp:425] loss1/conv <- loss1/ave_pool
I0403 17:54:41.196482 15438 net.cpp:399] loss1/conv -> loss1/conv
I0403 17:54:41.197871 15438 net.cpp:141] Setting up loss1/conv
I0403 17:54:41.197899 15438 net.cpp:148] Top shape: 24 128 4 4 (49152)
I0403 17:54:41.197937 15438 net.cpp:156] Memory required for data: 945697824
I0403 17:54:41.197957 15438 layer_factory.hpp:77] Creating layer loss1/relu_conv
I0403 17:54:41.197988 15438 net.cpp:91] Creating Layer loss1/relu_conv
I0403 17:54:41.198006 15438 net.cpp:425] loss1/relu_conv <- loss1/conv
I0403 17:54:41.198025 15438 net.cpp:386] loss1/relu_conv -> loss1/conv (in-place)
I0403 17:54:41.198304 15438 net.cpp:141] Setting up loss1/relu_conv
I0403 17:54:41.198331 15438 net.cpp:148] Top shape: 24 128 4 4 (49152)
I0403 17:54:41.198346 15438 net.cpp:156] Memory required for data: 945894432
I0403 17:54:41.198361 15438 layer_factory.hpp:77] Creating layer loss1/fc
I0403 17:54:41.198387 15438 net.cpp:91] Creating Layer loss1/fc
I0403 17:54:41.198405 15438 net.cpp:425] loss1/fc <- loss1/conv
I0403 17:54:41.198429 15438 net.cpp:399] loss1/fc -> loss1/fc
I0403 17:54:41.216095 15438 net.cpp:141] Setting up loss1/fc
I0403 17:54:41.216130 15438 net.cpp:148] Top shape: 24 1024 (24576)
I0403 17:54:41.216145 15438 net.cpp:156] Memory required for data: 945992736
I0403 17:54:41.216162 15438 layer_factory.hpp:77] Creating layer loss1/relu_fc
I0403 17:54:41.216181 15438 net.cpp:91] Creating Layer loss1/relu_fc
I0403 17:54:41.216197 15438 net.cpp:425] loss1/relu_fc <- loss1/fc
I0403 17:54:41.216217 15438 net.cpp:386] loss1/relu_fc -> loss1/fc (in-place)
I0403 17:54:41.216398 15438 net.cpp:141] Setting up loss1/relu_fc
I0403 17:54:41.216423 15438 net.cpp:148] Top shape: 24 1024 (24576)
I0403 17:54:41.216439 15438 net.cpp:156] Memory required for data: 946091040
I0403 17:54:41.216454 15438 layer_factory.hpp:77] Creating layer loss1/drop_fc
I0403 17:54:41.216481 15438 net.cpp:91] Creating Layer loss1/drop_fc
I0403 17:54:41.216500 15438 net.cpp:425] loss1/drop_fc <- loss1/fc
I0403 17:54:41.216517 15438 net.cpp:386] loss1/drop_fc -> loss1/fc (in-place)
I0403 17:54:41.216567 15438 net.cpp:141] Setting up loss1/drop_fc
I0403 17:54:41.216591 15438 net.cpp:148] Top shape: 24 1024 (24576)
I0403 17:54:41.216608 15438 net.cpp:156] Memory required for data: 946189344
I0403 17:54:41.216622 15438 layer_factory.hpp:77] Creating layer loss1/classifier_plantvillage
I0403 17:54:41.216640 15438 net.cpp:91] Creating Layer loss1/classifier_plantvillage
I0403 17:54:41.216656 15438 net.cpp:425] loss1/classifier_plantvillage <- loss1/fc
I0403 17:54:41.216677 15438 net.cpp:399] loss1/classifier_plantvillage -> loss1/classifier_plantvillage
I0403 17:54:41.217594 15438 net.cpp:141] Setting up loss1/classifier_plantvillage
I0403 17:54:41.217622 15438 net.cpp:148] Top shape: 24 38 (912)
I0403 17:54:41.217636 15438 net.cpp:156] Memory required for data: 946192992
I0403 17:54:41.217654 15438 layer_factory.hpp:77] Creating layer loss1/classifier_plantvillage_loss1/classifier_plantvillage_0_split
I0403 17:54:41.217672 15438 net.cpp:91] Creating Layer loss1/classifier_plantvillage_loss1/classifier_plantvillage_0_split
I0403 17:54:41.217689 15438 net.cpp:425] loss1/classifier_plantvillage_loss1/classifier_plantvillage_0_split <- loss1/classifier_plantvillage
I0403 17:54:41.217707 15438 net.cpp:399] loss1/classifier_plantvillage_loss1/classifier_plantvillage_0_split -> loss1/classifier_plantvillage_loss1/classifier_plantvillage_0_split_0
I0403 17:54:41.217727 15438 net.cpp:399] loss1/classifier_plantvillage_loss1/classifier_plantvillage_0_split -> loss1/classifier_plantvillage_loss1/classifier_plantvillage_0_split_1
I0403 17:54:41.217747 15438 net.cpp:399] loss1/classifier_plantvillage_loss1/classifier_plantvillage_0_split -> loss1/classifier_plantvillage_loss1/classifier_plantvillage_0_split_2
I0403 17:54:41.217815 15438 net.cpp:141] Setting up loss1/classifier_plantvillage_loss1/classifier_plantvillage_0_split
I0403 17:54:41.217838 15438 net.cpp:148] Top shape: 24 38 (912)
I0403 17:54:41.217854 15438 net.cpp:148] Top shape: 24 38 (912)
I0403 17:54:41.217869 15438 net.cpp:148] Top shape: 24 38 (912)
I0403 17:54:41.217882 15438 net.cpp:156] Memory required for data: 946203936
I0403 17:54:41.217896 15438 layer_factory.hpp:77] Creating layer inception_4b/1x1
I0403 17:54:41.217918 15438 net.cpp:91] Creating Layer inception_4b/1x1
I0403 17:54:41.217952 15438 net.cpp:425] inception_4b/1x1 <- inception_4a/output_inception_4a/output_0_split_1
I0403 17:54:41.217972 15438 net.cpp:399] inception_4b/1x1 -> inception_4b/1x1
I0403 17:54:41.219578 15438 net.cpp:141] Setting up inception_4b/1x1
I0403 17:54:41.219606 15438 net.cpp:148] Top shape: 24 160 14 14 (752640)
I0403 17:54:41.219622 15438 net.cpp:156] Memory required for data: 949214496
I0403 17:54:41.219640 15438 layer_factory.hpp:77] Creating layer inception_4b/relu_1x1
I0403 17:54:41.219660 15438 net.cpp:91] Creating Layer inception_4b/relu_1x1
I0403 17:54:41.219677 15438 net.cpp:425] inception_4b/relu_1x1 <- inception_4b/1x1
I0403 17:54:41.219696 15438 net.cpp:386] inception_4b/relu_1x1 -> inception_4b/1x1 (in-place)
I0403 17:54:41.219867 15438 net.cpp:141] Setting up inception_4b/relu_1x1
I0403 17:54:41.219894 15438 net.cpp:148] Top shape: 24 160 14 14 (752640)
I0403 17:54:41.219909 15438 net.cpp:156] Memory required for data: 952225056
I0403 17:54:41.219925 15438 layer_factory.hpp:77] Creating layer inception_4b/3x3_reduce
I0403 17:54:41.219946 15438 net.cpp:91] Creating Layer inception_4b/3x3_reduce
I0403 17:54:41.219964 15438 net.cpp:425] inception_4b/3x3_reduce <- inception_4a/output_inception_4a/output_0_split_2
I0403 17:54:41.219986 15438 net.cpp:399] inception_4b/3x3_reduce -> inception_4b/3x3_reduce
I0403 17:54:41.221294 15438 net.cpp:141] Setting up inception_4b/3x3_reduce
I0403 17:54:41.221325 15438 net.cpp:148] Top shape: 24 112 14 14 (526848)
I0403 17:54:41.221341 15438 net.cpp:156] Memory required for data: 954332448
I0403 17:54:41.221359 15438 layer_factory.hpp:77] Creating layer inception_4b/relu_3x3_reduce
I0403 17:54:41.221376 15438 net.cpp:91] Creating Layer inception_4b/relu_3x3_reduce
I0403 17:54:41.221392 15438 net.cpp:425] inception_4b/relu_3x3_reduce <- inception_4b/3x3_reduce
I0403 17:54:41.221410 15438 net.cpp:386] inception_4b/relu_3x3_reduce -> inception_4b/3x3_reduce (in-place)
I0403 17:54:41.221683 15438 net.cpp:141] Setting up inception_4b/relu_3x3_reduce
I0403 17:54:41.221711 15438 net.cpp:148] Top shape: 24 112 14 14 (526848)
I0403 17:54:41.221727 15438 net.cpp:156] Memory required for data: 956439840
I0403 17:54:41.221742 15438 layer_factory.hpp:77] Creating layer inception_4b/3x3
I0403 17:54:41.221763 15438 net.cpp:91] Creating Layer inception_4b/3x3
I0403 17:54:41.221781 15438 net.cpp:425] inception_4b/3x3 <- inception_4b/3x3_reduce
I0403 17:54:41.221799 15438 net.cpp:399] inception_4b/3x3 -> inception_4b/3x3
I0403 17:54:41.224686 15438 net.cpp:141] Setting up inception_4b/3x3
I0403 17:54:41.224714 15438 net.cpp:148] Top shape: 24 224 14 14 (1053696)
I0403 17:54:41.224730 15438 net.cpp:156] Memory required for data: 960654624
I0403 17:54:41.224748 15438 layer_factory.hpp:77] Creating layer inception_4b/relu_3x3
I0403 17:54:41.224766 15438 net.cpp:91] Creating Layer inception_4b/relu_3x3
I0403 17:54:41.224782 15438 net.cpp:425] inception_4b/relu_3x3 <- inception_4b/3x3
I0403 17:54:41.224802 15438 net.cpp:386] inception_4b/relu_3x3 -> inception_4b/3x3 (in-place)
I0403 17:54:41.224977 15438 net.cpp:141] Setting up inception_4b/relu_3x3
I0403 17:54:41.225004 15438 net.cpp:148] Top shape: 24 224 14 14 (1053696)
I0403 17:54:41.225019 15438 net.cpp:156] Memory required for data: 964869408
I0403 17:54:41.225033 15438 layer_factory.hpp:77] Creating layer inception_4b/5x5_reduce
I0403 17:54:41.225055 15438 net.cpp:91] Creating Layer inception_4b/5x5_reduce
I0403 17:54:41.225072 15438 net.cpp:425] inception_4b/5x5_reduce <- inception_4a/output_inception_4a/output_0_split_3
I0403 17:54:41.225093 15438 net.cpp:399] inception_4b/5x5_reduce -> inception_4b/5x5_reduce
I0403 17:54:41.226171 15438 net.cpp:141] Setting up inception_4b/5x5_reduce
I0403 17:54:41.226199 15438 net.cpp:148] Top shape: 24 24 14 14 (112896)
I0403 17:54:41.226217 15438 net.cpp:156] Memory required for data: 965320992
I0403 17:54:41.226234 15438 layer_factory.hpp:77] Creating layer inception_4b/relu_5x5_reduce
I0403 17:54:41.226253 15438 net.cpp:91] Creating Layer inception_4b/relu_5x5_reduce
I0403 17:54:41.226282 15438 net.cpp:425] inception_4b/relu_5x5_reduce <- inception_4b/5x5_reduce
I0403 17:54:41.226300 15438 net.cpp:386] inception_4b/relu_5x5_reduce -> inception_4b/5x5_reduce (in-place)
I0403 17:54:41.226480 15438 net.cpp:141] Setting up inception_4b/relu_5x5_reduce
I0403 17:54:41.226506 15438 net.cpp:148] Top shape: 24 24 14 14 (112896)
I0403 17:54:41.226522 15438 net.cpp:156] Memory required for data: 965772576
I0403 17:54:41.226536 15438 layer_factory.hpp:77] Creating layer inception_4b/5x5
I0403 17:54:41.226558 15438 net.cpp:91] Creating Layer inception_4b/5x5
I0403 17:54:41.226575 15438 net.cpp:425] inception_4b/5x5 <- inception_4b/5x5_reduce
I0403 17:54:41.226593 15438 net.cpp:399] inception_4b/5x5 -> inception_4b/5x5
I0403 17:54:41.227779 15438 net.cpp:141] Setting up inception_4b/5x5
I0403 17:54:41.227807 15438 net.cpp:148] Top shape: 24 64 14 14 (301056)
I0403 17:54:41.227823 15438 net.cpp:156] Memory required for data: 966976800
I0403 17:54:41.227840 15438 layer_factory.hpp:77] Creating layer inception_4b/relu_5x5
I0403 17:54:41.227860 15438 net.cpp:91] Creating Layer inception_4b/relu_5x5
I0403 17:54:41.227877 15438 net.cpp:425] inception_4b/relu_5x5 <- inception_4b/5x5
I0403 17:54:41.227895 15438 net.cpp:386] inception_4b/relu_5x5 -> inception_4b/5x5 (in-place)
I0403 17:54:41.228181 15438 net.cpp:141] Setting up inception_4b/relu_5x5
I0403 17:54:41.228207 15438 net.cpp:148] Top shape: 24 64 14 14 (301056)
I0403 17:54:41.228222 15438 net.cpp:156] Memory required for data: 968181024
I0403 17:54:41.228237 15438 layer_factory.hpp:77] Creating layer inception_4b/pool
I0403 17:54:41.228258 15438 net.cpp:91] Creating Layer inception_4b/pool
I0403 17:54:41.228276 15438 net.cpp:425] inception_4b/pool <- inception_4a/output_inception_4a/output_0_split_4
I0403 17:54:41.228296 15438 net.cpp:399] inception_4b/pool -> inception_4b/pool
I0403 17:54:41.228358 15438 net.cpp:141] Setting up inception_4b/pool
I0403 17:54:41.228382 15438 net.cpp:148] Top shape: 24 512 14 14 (2408448)
I0403 17:54:41.228396 15438 net.cpp:156] Memory required for data: 977814816
I0403 17:54:41.228411 15438 layer_factory.hpp:77] Creating layer inception_4b/pool_proj
I0403 17:54:41.228432 15438 net.cpp:91] Creating Layer inception_4b/pool_proj
I0403 17:54:41.228449 15438 net.cpp:425] inception_4b/pool_proj <- inception_4b/pool
I0403 17:54:41.228471 15438 net.cpp:399] inception_4b/pool_proj -> inception_4b/pool_proj
I0403 17:54:41.229636 15438 net.cpp:141] Setting up inception_4b/pool_proj
I0403 17:54:41.229663 15438 net.cpp:148] Top shape: 24 64 14 14 (301056)
I0403 17:54:41.229679 15438 net.cpp:156] Memory required for data: 979019040
I0403 17:54:41.229696 15438 layer_factory.hpp:77] Creating layer inception_4b/relu_pool_proj
I0403 17:54:41.229717 15438 net.cpp:91] Creating Layer inception_4b/relu_pool_proj
I0403 17:54:41.229733 15438 net.cpp:425] inception_4b/relu_pool_proj <- inception_4b/pool_proj
I0403 17:54:41.229751 15438 net.cpp:386] inception_4b/relu_pool_proj -> inception_4b/pool_proj (in-place)
I0403 17:54:41.229929 15438 net.cpp:141] Setting up inception_4b/relu_pool_proj
I0403 17:54:41.229954 15438 net.cpp:148] Top shape: 24 64 14 14 (301056)
I0403 17:54:41.229969 15438 net.cpp:156] Memory required for data: 980223264
I0403 17:54:41.229987 15438 layer_factory.hpp:77] Creating layer inception_4b/output
I0403 17:54:41.230005 15438 net.cpp:91] Creating Layer inception_4b/output
I0403 17:54:41.230020 15438 net.cpp:425] inception_4b/output <- inception_4b/1x1
I0403 17:54:41.230036 15438 net.cpp:425] inception_4b/output <- inception_4b/3x3
I0403 17:54:41.230052 15438 net.cpp:425] inception_4b/output <- inception_4b/5x5
I0403 17:54:41.230067 15438 net.cpp:425] inception_4b/output <- inception_4b/pool_proj
I0403 17:54:41.230087 15438 net.cpp:399] inception_4b/output -> inception_4b/output
I0403 17:54:41.230130 15438 net.cpp:141] Setting up inception_4b/output
I0403 17:54:41.230155 15438 net.cpp:148] Top shape: 24 512 14 14 (2408448)
I0403 17:54:41.230170 15438 net.cpp:156] Memory required for data: 989857056
I0403 17:54:41.230198 15438 layer_factory.hpp:77] Creating layer inception_4b/output_inception_4b/output_0_split
I0403 17:54:41.230216 15438 net.cpp:91] Creating Layer inception_4b/output_inception_4b/output_0_split
I0403 17:54:41.230232 15438 net.cpp:425] inception_4b/output_inception_4b/output_0_split <- inception_4b/output
I0403 17:54:41.230248 15438 net.cpp:399] inception_4b/output_inception_4b/output_0_split -> inception_4b/output_inception_4b/output_0_split_0
I0403 17:54:41.230269 15438 net.cpp:399] inception_4b/output_inception_4b/output_0_split -> inception_4b/output_inception_4b/output_0_split_1
I0403 17:54:41.230289 15438 net.cpp:399] inception_4b/output_inception_4b/output_0_split -> inception_4b/output_inception_4b/output_0_split_2
I0403 17:54:41.230311 15438 net.cpp:399] inception_4b/output_inception_4b/output_0_split -> inception_4b/output_inception_4b/output_0_split_3
I0403 17:54:41.230394 15438 net.cpp:141] Setting up inception_4b/output_inception_4b/output_0_split
I0403 17:54:41.230417 15438 net.cpp:148] Top shape: 24 512 14 14 (2408448)
I0403 17:54:41.230433 15438 net.cpp:148] Top shape: 24 512 14 14 (2408448)
I0403 17:54:41.230448 15438 net.cpp:148] Top shape: 24 512 14 14 (2408448)
I0403 17:54:41.230464 15438 net.cpp:148] Top shape: 24 512 14 14 (2408448)
I0403 17:54:41.230478 15438 net.cpp:156] Memory required for data: 1028392224
I0403 17:54:41.230492 15438 layer_factory.hpp:77] Creating layer inception_4c/1x1
I0403 17:54:41.230514 15438 net.cpp:91] Creating Layer inception_4c/1x1
I0403 17:54:41.230530 15438 net.cpp:425] inception_4c/1x1 <- inception_4b/output_inception_4b/output_0_split_0
I0403 17:54:41.230551 15438 net.cpp:399] inception_4c/1x1 -> inception_4c/1x1
I0403 17:54:41.231972 15438 net.cpp:141] Setting up inception_4c/1x1
I0403 17:54:41.232003 15438 net.cpp:148] Top shape: 24 128 14 14 (602112)
I0403 17:54:41.232018 15438 net.cpp:156] Memory required for data: 1030800672
I0403 17:54:41.232036 15438 layer_factory.hpp:77] Creating layer inception_4c/relu_1x1
I0403 17:54:41.232055 15438 net.cpp:91] Creating Layer inception_4c/relu_1x1
I0403 17:54:41.232070 15438 net.cpp:425] inception_4c/relu_1x1 <- inception_4c/1x1
I0403 17:54:41.232090 15438 net.cpp:386] inception_4c/relu_1x1 -> inception_4c/1x1 (in-place)
I0403 17:54:41.232264 15438 net.cpp:141] Setting up inception_4c/relu_1x1
I0403 17:54:41.232290 15438 net.cpp:148] Top shape: 24 128 14 14 (602112)
I0403 17:54:41.232303 15438 net.cpp:156] Memory required for data: 1033209120
I0403 17:54:41.232318 15438 layer_factory.hpp:77] Creating layer inception_4c/3x3_reduce
I0403 17:54:41.232339 15438 net.cpp:91] Creating Layer inception_4c/3x3_reduce
I0403 17:54:41.232357 15438 net.cpp:425] inception_4c/3x3_reduce <- inception_4b/output_inception_4b/output_0_split_1
I0403 17:54:41.232379 15438 net.cpp:399] inception_4c/3x3_reduce -> inception_4c/3x3_reduce
I0403 17:54:41.234328 15438 net.cpp:141] Setting up inception_4c/3x3_reduce
I0403 17:54:41.234355 15438 net.cpp:148] Top shape: 24 128 14 14 (602112)
I0403 17:54:41.234371 15438 net.cpp:156] Memory required for data: 1035617568
I0403 17:54:41.234388 15438 layer_factory.hpp:77] Creating layer inception_4c/relu_3x3_reduce
I0403 17:54:41.234410 15438 net.cpp:91] Creating Layer inception_4c/relu_3x3_reduce
I0403 17:54:41.234426 15438 net.cpp:425] inception_4c/relu_3x3_reduce <- inception_4c/3x3_reduce
I0403 17:54:41.234443 15438 net.cpp:386] inception_4c/relu_3x3_reduce -> inception_4c/3x3_reduce (in-place)
I0403 17:54:41.234724 15438 net.cpp:141] Setting up inception_4c/relu_3x3_reduce
I0403 17:54:41.234750 15438 net.cpp:148] Top shape: 24 128 14 14 (602112)
I0403 17:54:41.234765 15438 net.cpp:156] Memory required for data: 1038026016
I0403 17:54:41.234778 15438 layer_factory.hpp:77] Creating layer inception_4c/3x3
I0403 17:54:41.234802 15438 net.cpp:91] Creating Layer inception_4c/3x3
I0403 17:54:41.234817 15438 net.cpp:425] inception_4c/3x3 <- inception_4c/3x3_reduce
I0403 17:54:41.234838 15438 net.cpp:399] inception_4c/3x3 -> inception_4c/3x3
I0403 17:54:41.238415 15438 net.cpp:141] Setting up inception_4c/3x3
I0403 17:54:41.238454 15438 net.cpp:148] Top shape: 24 256 14 14 (1204224)
I0403 17:54:41.238471 15438 net.cpp:156] Memory required for data: 1042842912
I0403 17:54:41.238502 15438 layer_factory.hpp:77] Creating layer inception_4c/relu_3x3
I0403 17:54:41.238524 15438 net.cpp:91] Creating Layer inception_4c/relu_3x3
I0403 17:54:41.238541 15438 net.cpp:425] inception_4c/relu_3x3 <- inception_4c/3x3
I0403 17:54:41.238559 15438 net.cpp:386] inception_4c/relu_3x3 -> inception_4c/3x3 (in-place)
I0403 17:54:41.238734 15438 net.cpp:141] Setting up inception_4c/relu_3x3
I0403 17:54:41.238759 15438 net.cpp:148] Top shape: 24 256 14 14 (1204224)
I0403 17:54:41.238775 15438 net.cpp:156] Memory required for data: 1047659808
I0403 17:54:41.238790 15438 layer_factory.hpp:77] Creating layer inception_4c/5x5_reduce
I0403 17:54:41.238812 15438 net.cpp:91] Creating Layer inception_4c/5x5_reduce
I0403 17:54:41.238829 15438 net.cpp:425] inception_4c/5x5_reduce <- inception_4b/output_inception_4b/output_0_split_2
I0403 17:54:41.238849 15438 net.cpp:399] inception_4c/5x5_reduce -> inception_4c/5x5_reduce
I0403 17:54:41.239907 15438 net.cpp:141] Setting up inception_4c/5x5_reduce
I0403 17:54:41.239936 15438 net.cpp:148] Top shape: 24 24 14 14 (112896)
I0403 17:54:41.239955 15438 net.cpp:156] Memory required for data: 1048111392
I0403 17:54:41.239974 15438 layer_factory.hpp:77] Creating layer inception_4c/relu_5x5_reduce
I0403 17:54:41.239995 15438 net.cpp:91] Creating Layer inception_4c/relu_5x5_reduce
I0403 17:54:41.240012 15438 net.cpp:425] inception_4c/relu_5x5_reduce <- inception_4c/5x5_reduce
I0403 17:54:41.240030 15438 net.cpp:386] inception_4c/relu_5x5_reduce -> inception_4c/5x5_reduce (in-place)
I0403 17:54:41.240211 15438 net.cpp:141] Setting up inception_4c/relu_5x5_reduce
I0403 17:54:41.240237 15438 net.cpp:148] Top shape: 24 24 14 14 (112896)
I0403 17:54:41.240252 15438 net.cpp:156] Memory required for data: 1048562976
I0403 17:54:41.240267 15438 layer_factory.hpp:77] Creating layer inception_4c/5x5
I0403 17:54:41.240288 15438 net.cpp:91] Creating Layer inception_4c/5x5
I0403 17:54:41.240305 15438 net.cpp:425] inception_4c/5x5 <- inception_4c/5x5_reduce
I0403 17:54:41.240324 15438 net.cpp:399] inception_4c/5x5 -> inception_4c/5x5
I0403 17:54:41.241536 15438 net.cpp:141] Setting up inception_4c/5x5
I0403 17:54:41.241564 15438 net.cpp:148] Top shape: 24 64 14 14 (301056)
I0403 17:54:41.241580 15438 net.cpp:156] Memory required for data: 1049767200
I0403 17:54:41.241597 15438 layer_factory.hpp:77] Creating layer inception_4c/relu_5x5
I0403 17:54:41.241614 15438 net.cpp:91] Creating Layer inception_4c/relu_5x5
I0403 17:54:41.241631 15438 net.cpp:425] inception_4c/relu_5x5 <- inception_4c/5x5
I0403 17:54:41.241650 15438 net.cpp:386] inception_4c/relu_5x5 -> inception_4c/5x5 (in-place)
I0403 17:54:41.241931 15438 net.cpp:141] Setting up inception_4c/relu_5x5
I0403 17:54:41.241957 15438 net.cpp:148] Top shape: 24 64 14 14 (301056)
I0403 17:54:41.241971 15438 net.cpp:156] Memory required for data: 1050971424
I0403 17:54:41.241991 15438 layer_factory.hpp:77] Creating layer inception_4c/pool
I0403 17:54:41.242008 15438 net.cpp:91] Creating Layer inception_4c/pool
I0403 17:54:41.242024 15438 net.cpp:425] inception_4c/pool <- inception_4b/output_inception_4b/output_0_split_3
I0403 17:54:41.242046 15438 net.cpp:399] inception_4c/pool -> inception_4c/pool
I0403 17:54:41.242110 15438 net.cpp:141] Setting up inception_4c/pool
I0403 17:54:41.242133 15438 net.cpp:148] Top shape: 24 512 14 14 (2408448)
I0403 17:54:41.242148 15438 net.cpp:156] Memory required for data: 1060605216
I0403 17:54:41.242162 15438 layer_factory.hpp:77] Creating layer inception_4c/pool_proj
I0403 17:54:41.242185 15438 net.cpp:91] Creating Layer inception_4c/pool_proj
I0403 17:54:41.242202 15438 net.cpp:425] inception_4c/pool_proj <- inception_4c/pool
I0403 17:54:41.242220 15438 net.cpp:399] inception_4c/pool_proj -> inception_4c/pool_proj
I0403 17:54:41.243443 15438 net.cpp:141] Setting up inception_4c/pool_proj
I0403 17:54:41.243473 15438 net.cpp:148] Top shape: 24 64 14 14 (301056)
I0403 17:54:41.243501 15438 net.cpp:156] Memory required for data: 1061809440
I0403 17:54:41.243520 15438 layer_factory.hpp:77] Creating layer inception_4c/relu_pool_proj
I0403 17:54:41.243542 15438 net.cpp:91] Creating Layer inception_4c/relu_pool_proj
I0403 17:54:41.243559 15438 net.cpp:425] inception_4c/relu_pool_proj <- inception_4c/pool_proj
I0403 17:54:41.243577 15438 net.cpp:386] inception_4c/relu_pool_proj -> inception_4c/pool_proj (in-place)
I0403 17:54:41.243762 15438 net.cpp:141] Setting up inception_4c/relu_pool_proj
I0403 17:54:41.243788 15438 net.cpp:148] Top shape: 24 64 14 14 (301056)
I0403 17:54:41.243803 15438 net.cpp:156] Memory required for data: 1063013664
I0403 17:54:41.243818 15438 layer_factory.hpp:77] Creating layer inception_4c/output
I0403 17:54:41.243835 15438 net.cpp:91] Creating Layer inception_4c/output
I0403 17:54:41.243850 15438 net.cpp:425] inception_4c/output <- inception_4c/1x1
I0403 17:54:41.243867 15438 net.cpp:425] inception_4c/output <- inception_4c/3x3
I0403 17:54:41.243885 15438 net.cpp:425] inception_4c/output <- inception_4c/5x5
I0403 17:54:41.243901 15438 net.cpp:425] inception_4c/output <- inception_4c/pool_proj
I0403 17:54:41.243918 15438 net.cpp:399] inception_4c/output -> inception_4c/output
I0403 17:54:41.243966 15438 net.cpp:141] Setting up inception_4c/output
I0403 17:54:41.243994 15438 net.cpp:148] Top shape: 24 512 14 14 (2408448)
I0403 17:54:41.244010 15438 net.cpp:156] Memory required for data: 1072647456
I0403 17:54:41.244025 15438 layer_factory.hpp:77] Creating layer inception_4c/output_inception_4c/output_0_split
I0403 17:54:41.244045 15438 net.cpp:91] Creating Layer inception_4c/output_inception_4c/output_0_split
I0403 17:54:41.244061 15438 net.cpp:425] inception_4c/output_inception_4c/output_0_split <- inception_4c/output
I0403 17:54:41.244079 15438 net.cpp:399] inception_4c/output_inception_4c/output_0_split -> inception_4c/output_inception_4c/output_0_split_0
I0403 17:54:41.244099 15438 net.cpp:399] inception_4c/output_inception_4c/output_0_split -> inception_4c/output_inception_4c/output_0_split_1
I0403 17:54:41.244120 15438 net.cpp:399] inception_4c/output_inception_4c/output_0_split -> inception_4c/output_inception_4c/output_0_split_2
I0403 17:54:41.244143 15438 net.cpp:399] inception_4c/output_inception_4c/output_0_split -> inception_4c/output_inception_4c/output_0_split_3
I0403 17:54:41.244235 15438 net.cpp:141] Setting up inception_4c/output_inception_4c/output_0_split
I0403 17:54:41.244257 15438 net.cpp:148] Top shape: 24 512 14 14 (2408448)
I0403 17:54:41.244274 15438 net.cpp:148] Top shape: 24 512 14 14 (2408448)
I0403 17:54:41.244290 15438 net.cpp:148] Top shape: 24 512 14 14 (2408448)
I0403 17:54:41.244305 15438 net.cpp:148] Top shape: 24 512 14 14 (2408448)
I0403 17:54:41.244319 15438 net.cpp:156] Memory required for data: 1111182624
I0403 17:54:41.244334 15438 layer_factory.hpp:77] Creating layer inception_4d/1x1
I0403 17:54:41.244357 15438 net.cpp:91] Creating Layer inception_4d/1x1
I0403 17:54:41.244374 15438 net.cpp:425] inception_4d/1x1 <- inception_4c/output_inception_4c/output_0_split_0
I0403 17:54:41.244395 15438 net.cpp:399] inception_4d/1x1 -> inception_4d/1x1
I0403 17:54:41.245781 15438 net.cpp:141] Setting up inception_4d/1x1
I0403 17:54:41.245810 15438 net.cpp:148] Top shape: 24 112 14 14 (526848)
I0403 17:54:41.245826 15438 net.cpp:156] Memory required for data: 1113290016
I0403 17:54:41.245843 15438 layer_factory.hpp:77] Creating layer inception_4d/relu_1x1
I0403 17:54:41.245864 15438 net.cpp:91] Creating Layer inception_4d/relu_1x1
I0403 17:54:41.245882 15438 net.cpp:425] inception_4d/relu_1x1 <- inception_4d/1x1
I0403 17:54:41.245899 15438 net.cpp:386] inception_4d/relu_1x1 -> inception_4d/1x1 (in-place)
I0403 17:54:41.246088 15438 net.cpp:141] Setting up inception_4d/relu_1x1
I0403 17:54:41.246112 15438 net.cpp:148] Top shape: 24 112 14 14 (526848)
I0403 17:54:41.246127 15438 net.cpp:156] Memory required for data: 1115397408
I0403 17:54:41.246142 15438 layer_factory.hpp:77] Creating layer inception_4d/3x3_reduce
I0403 17:54:41.246178 15438 net.cpp:91] Creating Layer inception_4d/3x3_reduce
I0403 17:54:41.246197 15438 net.cpp:425] inception_4d/3x3_reduce <- inception_4c/output_inception_4c/output_0_split_1
I0403 17:54:41.246218 15438 net.cpp:399] inception_4d/3x3_reduce -> inception_4d/3x3_reduce
I0403 17:54:41.247742 15438 net.cpp:141] Setting up inception_4d/3x3_reduce
I0403 17:54:41.247771 15438 net.cpp:148] Top shape: 24 144 14 14 (677376)
I0403 17:54:41.247788 15438 net.cpp:156] Memory required for data: 1118106912
I0403 17:54:41.247807 15438 layer_factory.hpp:77] Creating layer inception_4d/relu_3x3_reduce
I0403 17:54:41.247825 15438 net.cpp:91] Creating Layer inception_4d/relu_3x3_reduce
I0403 17:54:41.247843 15438 net.cpp:425] inception_4d/relu_3x3_reduce <- inception_4d/3x3_reduce
I0403 17:54:41.247862 15438 net.cpp:386] inception_4d/relu_3x3_reduce -> inception_4d/3x3_reduce (in-place)
I0403 17:54:41.248162 15438 net.cpp:141] Setting up inception_4d/relu_3x3_reduce
I0403 17:54:41.248191 15438 net.cpp:148] Top shape: 24 144 14 14 (677376)
I0403 17:54:41.248219 15438 net.cpp:156] Memory required for data: 1120816416
I0403 17:54:41.248235 15438 layer_factory.hpp:77] Creating layer inception_4d/3x3
I0403 17:54:41.248258 15438 net.cpp:91] Creating Layer inception_4d/3x3
I0403 17:54:41.248276 15438 net.cpp:425] inception_4d/3x3 <- inception_4d/3x3_reduce
I0403 17:54:41.248298 15438 net.cpp:399] inception_4d/3x3 -> inception_4d/3x3
I0403 17:54:41.252578 15438 net.cpp:141] Setting up inception_4d/3x3
I0403 17:54:41.252607 15438 net.cpp:148] Top shape: 24 288 14 14 (1354752)
I0403 17:54:41.252624 15438 net.cpp:156] Memory required for data: 1126235424
I0403 17:54:41.252642 15438 layer_factory.hpp:77] Creating layer inception_4d/relu_3x3
I0403 17:54:41.252663 15438 net.cpp:91] Creating Layer inception_4d/relu_3x3
I0403 17:54:41.252681 15438 net.cpp:425] inception_4d/relu_3x3 <- inception_4d/3x3
I0403 17:54:41.252698 15438 net.cpp:386] inception_4d/relu_3x3 -> inception_4d/3x3 (in-place)
I0403 17:54:41.252888 15438 net.cpp:141] Setting up inception_4d/relu_3x3
I0403 17:54:41.252913 15438 net.cpp:148] Top shape: 24 288 14 14 (1354752)
I0403 17:54:41.252928 15438 net.cpp:156] Memory required for data: 1131654432
I0403 17:54:41.252943 15438 layer_factory.hpp:77] Creating layer inception_4d/5x5_reduce
I0403 17:54:41.252965 15438 net.cpp:91] Creating Layer inception_4d/5x5_reduce
I0403 17:54:41.252987 15438 net.cpp:425] inception_4d/5x5_reduce <- inception_4c/output_inception_4c/output_0_split_2
I0403 17:54:41.253008 15438 net.cpp:399] inception_4d/5x5_reduce -> inception_4d/5x5_reduce
I0403 17:54:41.254164 15438 net.cpp:141] Setting up inception_4d/5x5_reduce
I0403 17:54:41.254194 15438 net.cpp:148] Top shape: 24 32 14 14 (150528)
I0403 17:54:41.254209 15438 net.cpp:156] Memory required for data: 1132256544
I0403 17:54:41.254226 15438 layer_factory.hpp:77] Creating layer inception_4d/relu_5x5_reduce
I0403 17:54:41.254247 15438 net.cpp:91] Creating Layer inception_4d/relu_5x5_reduce
I0403 17:54:41.254266 15438 net.cpp:425] inception_4d/relu_5x5_reduce <- inception_4d/5x5_reduce
I0403 17:54:41.254283 15438 net.cpp:386] inception_4d/relu_5x5_reduce -> inception_4d/5x5_reduce (in-place)
I0403 17:54:41.254472 15438 net.cpp:141] Setting up inception_4d/relu_5x5_reduce
I0403 17:54:41.254499 15438 net.cpp:148] Top shape: 24 32 14 14 (150528)
I0403 17:54:41.254515 15438 net.cpp:156] Memory required for data: 1132858656
I0403 17:54:41.254530 15438 layer_factory.hpp:77] Creating layer inception_4d/5x5
I0403 17:54:41.254550 15438 net.cpp:91] Creating Layer inception_4d/5x5
I0403 17:54:41.254568 15438 net.cpp:425] inception_4d/5x5 <- inception_4d/5x5_reduce
I0403 17:54:41.254590 15438 net.cpp:399] inception_4d/5x5 -> inception_4d/5x5
I0403 17:54:41.256078 15438 net.cpp:141] Setting up inception_4d/5x5
I0403 17:54:41.256108 15438 net.cpp:148] Top shape: 24 64 14 14 (301056)
I0403 17:54:41.256124 15438 net.cpp:156] Memory required for data: 1134062880
I0403 17:54:41.256144 15438 layer_factory.hpp:77] Creating layer inception_4d/relu_5x5
I0403 17:54:41.256176 15438 net.cpp:91] Creating Layer inception_4d/relu_5x5
I0403 17:54:41.256193 15438 net.cpp:425] inception_4d/relu_5x5 <- inception_4d/5x5
I0403 17:54:41.256211 15438 net.cpp:386] inception_4d/relu_5x5 -> inception_4d/5x5 (in-place)
I0403 17:54:41.256516 15438 net.cpp:141] Setting up inception_4d/relu_5x5
I0403 17:54:41.256546 15438 net.cpp:148] Top shape: 24 64 14 14 (301056)
I0403 17:54:41.256561 15438 net.cpp:156] Memory required for data: 1135267104
I0403 17:54:41.256577 15438 layer_factory.hpp:77] Creating layer inception_4d/pool
I0403 17:54:41.256594 15438 net.cpp:91] Creating Layer inception_4d/pool
I0403 17:54:41.256610 15438 net.cpp:425] inception_4d/pool <- inception_4c/output_inception_4c/output_0_split_3
I0403 17:54:41.256628 15438 net.cpp:399] inception_4d/pool -> inception_4d/pool
I0403 17:54:41.256696 15438 net.cpp:141] Setting up inception_4d/pool
I0403 17:54:41.256719 15438 net.cpp:148] Top shape: 24 512 14 14 (2408448)
I0403 17:54:41.256734 15438 net.cpp:156] Memory required for data: 1144900896
I0403 17:54:41.256749 15438 layer_factory.hpp:77] Creating layer inception_4d/pool_proj
I0403 17:54:41.256772 15438 net.cpp:91] Creating Layer inception_4d/pool_proj
I0403 17:54:41.256788 15438 net.cpp:425] inception_4d/pool_proj <- inception_4d/pool
I0403 17:54:41.256809 15438 net.cpp:399] inception_4d/pool_proj -> inception_4d/pool_proj
I0403 17:54:41.258616 15438 net.cpp:141] Setting up inception_4d/pool_proj
I0403 17:54:41.258646 15438 net.cpp:148] Top shape: 24 64 14 14 (301056)
I0403 17:54:41.258662 15438 net.cpp:156] Memory required for data: 1146105120
I0403 17:54:41.258680 15438 layer_factory.hpp:77] Creating layer inception_4d/relu_pool_proj
I0403 17:54:41.258702 15438 net.cpp:91] Creating Layer inception_4d/relu_pool_proj
I0403 17:54:41.258719 15438 net.cpp:425] inception_4d/relu_pool_proj <- inception_4d/pool_proj
I0403 17:54:41.258738 15438 net.cpp:386] inception_4d/relu_pool_proj -> inception_4d/pool_proj (in-place)
I0403 17:54:41.258924 15438 net.cpp:141] Setting up inception_4d/relu_pool_proj
I0403 17:54:41.258950 15438 net.cpp:148] Top shape: 24 64 14 14 (301056)
I0403 17:54:41.258965 15438 net.cpp:156] Memory required for data: 1147309344
I0403 17:54:41.258985 15438 layer_factory.hpp:77] Creating layer inception_4d/output
I0403 17:54:41.259006 15438 net.cpp:91] Creating Layer inception_4d/output
I0403 17:54:41.259022 15438 net.cpp:425] inception_4d/output <- inception_4d/1x1
I0403 17:54:41.259040 15438 net.cpp:425] inception_4d/output <- inception_4d/3x3
I0403 17:54:41.259057 15438 net.cpp:425] inception_4d/output <- inception_4d/5x5
I0403 17:54:41.259073 15438 net.cpp:425] inception_4d/output <- inception_4d/pool_proj
I0403 17:54:41.259089 15438 net.cpp:399] inception_4d/output -> inception_4d/output
I0403 17:54:41.259140 15438 net.cpp:141] Setting up inception_4d/output
I0403 17:54:41.259163 15438 net.cpp:148] Top shape: 24 528 14 14 (2483712)
I0403 17:54:41.259178 15438 net.cpp:156] Memory required for data: 1157244192
I0403 17:54:41.259193 15438 layer_factory.hpp:77] Creating layer inception_4d/output_inception_4d/output_0_split
I0403 17:54:41.259212 15438 net.cpp:91] Creating Layer inception_4d/output_inception_4d/output_0_split
I0403 17:54:41.259227 15438 net.cpp:425] inception_4d/output_inception_4d/output_0_split <- inception_4d/output
I0403 17:54:41.259246 15438 net.cpp:399] inception_4d/output_inception_4d/output_0_split -> inception_4d/output_inception_4d/output_0_split_0
I0403 17:54:41.259268 15438 net.cpp:399] inception_4d/output_inception_4d/output_0_split -> inception_4d/output_inception_4d/output_0_split_1
I0403 17:54:41.259289 15438 net.cpp:399] inception_4d/output_inception_4d/output_0_split -> inception_4d/output_inception_4d/output_0_split_2
I0403 17:54:41.259313 15438 net.cpp:399] inception_4d/output_inception_4d/output_0_split -> inception_4d/output_inception_4d/output_0_split_3
I0403 17:54:41.259335 15438 net.cpp:399] inception_4d/output_inception_4d/output_0_split -> inception_4d/output_inception_4d/output_0_split_4
I0403 17:54:41.259441 15438 net.cpp:141] Setting up inception_4d/output_inception_4d/output_0_split
I0403 17:54:41.259476 15438 net.cpp:148] Top shape: 24 528 14 14 (2483712)
I0403 17:54:41.259495 15438 net.cpp:148] Top shape: 24 528 14 14 (2483712)
I0403 17:54:41.259510 15438 net.cpp:148] Top shape: 24 528 14 14 (2483712)
I0403 17:54:41.259526 15438 net.cpp:148] Top shape: 24 528 14 14 (2483712)
I0403 17:54:41.259541 15438 net.cpp:148] Top shape: 24 528 14 14 (2483712)
I0403 17:54:41.259555 15438 net.cpp:156] Memory required for data: 1206918432
I0403 17:54:41.259570 15438 layer_factory.hpp:77] Creating layer loss2/ave_pool
I0403 17:54:41.259588 15438 net.cpp:91] Creating Layer loss2/ave_pool
I0403 17:54:41.259603 15438 net.cpp:425] loss2/ave_pool <- inception_4d/output_inception_4d/output_0_split_0
I0403 17:54:41.259624 15438 net.cpp:399] loss2/ave_pool -> loss2/ave_pool
I0403 17:54:41.259935 15438 net.cpp:141] Setting up loss2/ave_pool
I0403 17:54:41.259963 15438 net.cpp:148] Top shape: 24 528 4 4 (202752)
I0403 17:54:41.259982 15438 net.cpp:156] Memory required for data: 1207729440
I0403 17:54:41.259999 15438 layer_factory.hpp:77] Creating layer loss2/conv
I0403 17:54:41.260022 15438 net.cpp:91] Creating Layer loss2/conv
I0403 17:54:41.260040 15438 net.cpp:425] loss2/conv <- loss2/ave_pool
I0403 17:54:41.260061 15438 net.cpp:399] loss2/conv -> loss2/conv
I0403 17:54:41.261940 15438 net.cpp:141] Setting up loss2/conv
I0403 17:54:41.261970 15438 net.cpp:148] Top shape: 24 128 4 4 (49152)
I0403 17:54:41.261991 15438 net.cpp:156] Memory required for data: 1207926048
I0403 17:54:41.262009 15438 layer_factory.hpp:77] Creating layer loss2/relu_conv
I0403 17:54:41.262028 15438 net.cpp:91] Creating Layer loss2/relu_conv
I0403 17:54:41.262043 15438 net.cpp:425] loss2/relu_conv <- loss2/conv
I0403 17:54:41.262063 15438 net.cpp:386] loss2/relu_conv -> loss2/conv (in-place)
I0403 17:54:41.262343 15438 net.cpp:141] Setting up loss2/relu_conv
I0403 17:54:41.262374 15438 net.cpp:148] Top shape: 24 128 4 4 (49152)
I0403 17:54:41.262390 15438 net.cpp:156] Memory required for data: 1208122656
I0403 17:54:41.262404 15438 layer_factory.hpp:77] Creating layer loss2/fc
I0403 17:54:41.262423 15438 net.cpp:91] Creating Layer loss2/fc
I0403 17:54:41.262439 15438 net.cpp:425] loss2/fc <- loss2/conv
I0403 17:54:41.262460 15438 net.cpp:399] loss2/fc -> loss2/fc
I0403 17:54:41.279634 15438 net.cpp:141] Setting up loss2/fc
I0403 17:54:41.279670 15438 net.cpp:148] Top shape: 24 1024 (24576)
I0403 17:54:41.279685 15438 net.cpp:156] Memory required for data: 1208220960
I0403 17:54:41.279702 15438 layer_factory.hpp:77] Creating layer loss2/relu_fc
I0403 17:54:41.279722 15438 net.cpp:91] Creating Layer loss2/relu_fc
I0403 17:54:41.279741 15438 net.cpp:425] loss2/relu_fc <- loss2/fc
I0403 17:54:41.279757 15438 net.cpp:386] loss2/relu_fc -> loss2/fc (in-place)
I0403 17:54:41.280051 15438 net.cpp:141] Setting up loss2/relu_fc
I0403 17:54:41.280077 15438 net.cpp:148] Top shape: 24 1024 (24576)
I0403 17:54:41.280092 15438 net.cpp:156] Memory required for data: 1208319264
I0403 17:54:41.280107 15438 layer_factory.hpp:77] Creating layer loss2/drop_fc
I0403 17:54:41.280125 15438 net.cpp:91] Creating Layer loss2/drop_fc
I0403 17:54:41.280143 15438 net.cpp:425] loss2/drop_fc <- loss2/fc
I0403 17:54:41.280159 15438 net.cpp:386] loss2/drop_fc -> loss2/fc (in-place)
I0403 17:54:41.280210 15438 net.cpp:141] Setting up loss2/drop_fc
I0403 17:54:41.280231 15438 net.cpp:148] Top shape: 24 1024 (24576)
I0403 17:54:41.280246 15438 net.cpp:156] Memory required for data: 1208417568
I0403 17:54:41.280261 15438 layer_factory.hpp:77] Creating layer loss2/classifier_plantvillage
I0403 17:54:41.280278 15438 net.cpp:91] Creating Layer loss2/classifier_plantvillage
I0403 17:54:41.280293 15438 net.cpp:425] loss2/classifier_plantvillage <- loss2/fc
I0403 17:54:41.280314 15438 net.cpp:399] loss2/classifier_plantvillage -> loss2/classifier_plantvillage
I0403 17:54:41.280705 15438 net.cpp:141] Setting up loss2/classifier_plantvillage
I0403 17:54:41.280730 15438 net.cpp:148] Top shape: 24 38 (912)
I0403 17:54:41.280761 15438 net.cpp:156] Memory required for data: 1208421216
I0403 17:54:41.280779 15438 layer_factory.hpp:77] Creating layer loss2/classifier_plantvillage_loss2/classifier_plantvillage_0_split
I0403 17:54:41.280797 15438 net.cpp:91] Creating Layer loss2/classifier_plantvillage_loss2/classifier_plantvillage_0_split
I0403 17:54:41.280812 15438 net.cpp:425] loss2/classifier_plantvillage_loss2/classifier_plantvillage_0_split <- loss2/classifier_plantvillage
I0403 17:54:41.280833 15438 net.cpp:399] loss2/classifier_plantvillage_loss2/classifier_plantvillage_0_split -> loss2/classifier_plantvillage_loss2/classifier_plantvillage_0_split_0
I0403 17:54:41.280853 15438 net.cpp:399] loss2/classifier_plantvillage_loss2/classifier_plantvillage_0_split -> loss2/classifier_plantvillage_loss2/classifier_plantvillage_0_split_1
I0403 17:54:41.280874 15438 net.cpp:399] loss2/classifier_plantvillage_loss2/classifier_plantvillage_0_split -> loss2/classifier_plantvillage_loss2/classifier_plantvillage_0_split_2
I0403 17:54:41.280948 15438 net.cpp:141] Setting up loss2/classifier_plantvillage_loss2/classifier_plantvillage_0_split
I0403 17:54:41.280972 15438 net.cpp:148] Top shape: 24 38 (912)
I0403 17:54:41.280992 15438 net.cpp:148] Top shape: 24 38 (912)
I0403 17:54:41.281008 15438 net.cpp:148] Top shape: 24 38 (912)
I0403 17:54:41.281021 15438 net.cpp:156] Memory required for data: 1208432160
I0403 17:54:41.281035 15438 layer_factory.hpp:77] Creating layer inception_4e/1x1
I0403 17:54:41.281056 15438 net.cpp:91] Creating Layer inception_4e/1x1
I0403 17:54:41.281075 15438 net.cpp:425] inception_4e/1x1 <- inception_4d/output_inception_4d/output_0_split_1
I0403 17:54:41.281092 15438 net.cpp:399] inception_4e/1x1 -> inception_4e/1x1
I0403 17:54:41.282861 15438 net.cpp:141] Setting up inception_4e/1x1
I0403 17:54:41.282891 15438 net.cpp:148] Top shape: 24 256 14 14 (1204224)
I0403 17:54:41.282907 15438 net.cpp:156] Memory required for data: 1213249056
I0403 17:54:41.282927 15438 layer_factory.hpp:77] Creating layer inception_4e/relu_1x1
I0403 17:54:41.282945 15438 net.cpp:91] Creating Layer inception_4e/relu_1x1
I0403 17:54:41.282960 15438 net.cpp:425] inception_4e/relu_1x1 <- inception_4e/1x1
I0403 17:54:41.282982 15438 net.cpp:386] inception_4e/relu_1x1 -> inception_4e/1x1 (in-place)
I0403 17:54:41.283277 15438 net.cpp:141] Setting up inception_4e/relu_1x1
I0403 17:54:41.283304 15438 net.cpp:148] Top shape: 24 256 14 14 (1204224)
I0403 17:54:41.283320 15438 net.cpp:156] Memory required for data: 1218065952
I0403 17:54:41.283335 15438 layer_factory.hpp:77] Creating layer inception_4e/3x3_reduce
I0403 17:54:41.283356 15438 net.cpp:91] Creating Layer inception_4e/3x3_reduce
I0403 17:54:41.283373 15438 net.cpp:425] inception_4e/3x3_reduce <- inception_4d/output_inception_4d/output_0_split_2
I0403 17:54:41.283395 15438 net.cpp:399] inception_4e/3x3_reduce -> inception_4e/3x3_reduce
I0403 17:54:41.285465 15438 net.cpp:141] Setting up inception_4e/3x3_reduce
I0403 17:54:41.285492 15438 net.cpp:148] Top shape: 24 160 14 14 (752640)
I0403 17:54:41.285508 15438 net.cpp:156] Memory required for data: 1221076512
I0403 17:54:41.285526 15438 layer_factory.hpp:77] Creating layer inception_4e/relu_3x3_reduce
I0403 17:54:41.285547 15438 net.cpp:91] Creating Layer inception_4e/relu_3x3_reduce
I0403 17:54:41.285564 15438 net.cpp:425] inception_4e/relu_3x3_reduce <- inception_4e/3x3_reduce
I0403 17:54:41.285581 15438 net.cpp:386] inception_4e/relu_3x3_reduce -> inception_4e/3x3_reduce (in-place)
I0403 17:54:41.285766 15438 net.cpp:141] Setting up inception_4e/relu_3x3_reduce
I0403 17:54:41.285791 15438 net.cpp:148] Top shape: 24 160 14 14 (752640)
I0403 17:54:41.285805 15438 net.cpp:156] Memory required for data: 1224087072
I0403 17:54:41.285820 15438 layer_factory.hpp:77] Creating layer inception_4e/3x3
I0403 17:54:41.285842 15438 net.cpp:91] Creating Layer inception_4e/3x3
I0403 17:54:41.285859 15438 net.cpp:425] inception_4e/3x3 <- inception_4e/3x3_reduce
I0403 17:54:41.285881 15438 net.cpp:399] inception_4e/3x3 -> inception_4e/3x3
I0403 17:54:41.290875 15438 net.cpp:141] Setting up inception_4e/3x3
I0403 17:54:41.290917 15438 net.cpp:148] Top shape: 24 320 14 14 (1505280)
I0403 17:54:41.290935 15438 net.cpp:156] Memory required for data: 1230108192
I0403 17:54:41.290952 15438 layer_factory.hpp:77] Creating layer inception_4e/relu_3x3
I0403 17:54:41.290971 15438 net.cpp:91] Creating Layer inception_4e/relu_3x3
I0403 17:54:41.290992 15438 net.cpp:425] inception_4e/relu_3x3 <- inception_4e/3x3
I0403 17:54:41.291013 15438 net.cpp:386] inception_4e/relu_3x3 -> inception_4e/3x3 (in-place)
I0403 17:54:41.291323 15438 net.cpp:141] Setting up inception_4e/relu_3x3
I0403 17:54:41.291349 15438 net.cpp:148] Top shape: 24 320 14 14 (1505280)
I0403 17:54:41.291363 15438 net.cpp:156] Memory required for data: 1236129312
I0403 17:54:41.291378 15438 layer_factory.hpp:77] Creating layer inception_4e/5x5_reduce
I0403 17:54:41.291401 15438 net.cpp:91] Creating Layer inception_4e/5x5_reduce
I0403 17:54:41.291419 15438 net.cpp:425] inception_4e/5x5_reduce <- inception_4d/output_inception_4d/output_0_split_3
I0403 17:54:41.291441 15438 net.cpp:399] inception_4e/5x5_reduce -> inception_4e/5x5_reduce
I0403 17:54:41.292490 15438 net.cpp:141] Setting up inception_4e/5x5_reduce
I0403 17:54:41.292518 15438 net.cpp:148] Top shape: 24 32 14 14 (150528)
I0403 17:54:41.292534 15438 net.cpp:156] Memory required for data: 1236731424
I0403 17:54:41.292552 15438 layer_factory.hpp:77] Creating layer inception_4e/relu_5x5_reduce
I0403 17:54:41.292570 15438 net.cpp:91] Creating Layer inception_4e/relu_5x5_reduce
I0403 17:54:41.292587 15438 net.cpp:425] inception_4e/relu_5x5_reduce <- inception_4e/5x5_reduce
I0403 17:54:41.292604 15438 net.cpp:386] inception_4e/relu_5x5_reduce -> inception_4e/5x5_reduce (in-place)
I0403 17:54:41.292896 15438 net.cpp:141] Setting up inception_4e/relu_5x5_reduce
I0403 17:54:41.292927 15438 net.cpp:148] Top shape: 24 32 14 14 (150528)
I0403 17:54:41.292943 15438 net.cpp:156] Memory required for data: 1237333536
I0403 17:54:41.292956 15438 layer_factory.hpp:77] Creating layer inception_4e/5x5
I0403 17:54:41.292997 15438 net.cpp:91] Creating Layer inception_4e/5x5
I0403 17:54:41.293018 15438 net.cpp:425] inception_4e/5x5 <- inception_4e/5x5_reduce
I0403 17:54:41.293038 15438 net.cpp:399] inception_4e/5x5 -> inception_4e/5x5
I0403 17:54:41.294852 15438 net.cpp:141] Setting up inception_4e/5x5
I0403 17:54:41.294878 15438 net.cpp:148] Top shape: 24 128 14 14 (602112)
I0403 17:54:41.294894 15438 net.cpp:156] Memory required for data: 1239741984
I0403 17:54:41.294914 15438 layer_factory.hpp:77] Creating layer inception_4e/relu_5x5
I0403 17:54:41.294934 15438 net.cpp:91] Creating Layer inception_4e/relu_5x5
I0403 17:54:41.294950 15438 net.cpp:425] inception_4e/relu_5x5 <- inception_4e/5x5
I0403 17:54:41.294967 15438 net.cpp:386] inception_4e/relu_5x5 -> inception_4e/5x5 (in-place)
I0403 17:54:41.295166 15438 net.cpp:141] Setting up inception_4e/relu_5x5
I0403 17:54:41.295192 15438 net.cpp:148] Top shape: 24 128 14 14 (602112)
I0403 17:54:41.295207 15438 net.cpp:156] Memory required for data: 1242150432
I0403 17:54:41.295222 15438 layer_factory.hpp:77] Creating layer inception_4e/pool
I0403 17:54:41.295239 15438 net.cpp:91] Creating Layer inception_4e/pool
I0403 17:54:41.295255 15438 net.cpp:425] inception_4e/pool <- inception_4d/output_inception_4d/output_0_split_4
I0403 17:54:41.295275 15438 net.cpp:399] inception_4e/pool -> inception_4e/pool
I0403 17:54:41.295344 15438 net.cpp:141] Setting up inception_4e/pool
I0403 17:54:41.295367 15438 net.cpp:148] Top shape: 24 528 14 14 (2483712)
I0403 17:54:41.295382 15438 net.cpp:156] Memory required for data: 1252085280
I0403 17:54:41.295397 15438 layer_factory.hpp:77] Creating layer inception_4e/pool_proj
I0403 17:54:41.295418 15438 net.cpp:91] Creating Layer inception_4e/pool_proj
I0403 17:54:41.295434 15438 net.cpp:425] inception_4e/pool_proj <- inception_4e/pool
I0403 17:54:41.295454 15438 net.cpp:399] inception_4e/pool_proj -> inception_4e/pool_proj
I0403 17:54:41.296926 15438 net.cpp:141] Setting up inception_4e/pool_proj
I0403 17:54:41.296964 15438 net.cpp:148] Top shape: 24 128 14 14 (602112)
I0403 17:54:41.296984 15438 net.cpp:156] Memory required for data: 1254493728
I0403 17:54:41.297003 15438 layer_factory.hpp:77] Creating layer inception_4e/relu_pool_proj
I0403 17:54:41.297024 15438 net.cpp:91] Creating Layer inception_4e/relu_pool_proj
I0403 17:54:41.297042 15438 net.cpp:425] inception_4e/relu_pool_proj <- inception_4e/pool_proj
I0403 17:54:41.297060 15438 net.cpp:386] inception_4e/relu_pool_proj -> inception_4e/pool_proj (in-place)
I0403 17:54:41.297363 15438 net.cpp:141] Setting up inception_4e/relu_pool_proj
I0403 17:54:41.297390 15438 net.cpp:148] Top shape: 24 128 14 14 (602112)
I0403 17:54:41.297406 15438 net.cpp:156] Memory required for data: 1256902176
I0403 17:54:41.297421 15438 layer_factory.hpp:77] Creating layer inception_4e/output
I0403 17:54:41.297441 15438 net.cpp:91] Creating Layer inception_4e/output
I0403 17:54:41.297457 15438 net.cpp:425] inception_4e/output <- inception_4e/1x1
I0403 17:54:41.297474 15438 net.cpp:425] inception_4e/output <- inception_4e/3x3
I0403 17:54:41.297502 15438 net.cpp:425] inception_4e/output <- inception_4e/5x5
I0403 17:54:41.297518 15438 net.cpp:425] inception_4e/output <- inception_4e/pool_proj
I0403 17:54:41.297534 15438 net.cpp:399] inception_4e/output -> inception_4e/output
I0403 17:54:41.297583 15438 net.cpp:141] Setting up inception_4e/output
I0403 17:54:41.297607 15438 net.cpp:148] Top shape: 24 832 14 14 (3913728)
I0403 17:54:41.297621 15438 net.cpp:156] Memory required for data: 1272557088
I0403 17:54:41.297636 15438 layer_factory.hpp:77] Creating layer pool4/3x3_s2
I0403 17:54:41.297652 15438 net.cpp:91] Creating Layer pool4/3x3_s2
I0403 17:54:41.297667 15438 net.cpp:425] pool4/3x3_s2 <- inception_4e/output
I0403 17:54:41.297688 15438 net.cpp:399] pool4/3x3_s2 -> pool4/3x3_s2
I0403 17:54:41.297755 15438 net.cpp:141] Setting up pool4/3x3_s2
I0403 17:54:41.297780 15438 net.cpp:148] Top shape: 24 832 7 7 (978432)
I0403 17:54:41.297794 15438 net.cpp:156] Memory required for data: 1276470816
I0403 17:54:41.297809 15438 layer_factory.hpp:77] Creating layer pool4/3x3_s2_pool4/3x3_s2_0_split
I0403 17:54:41.297826 15438 net.cpp:91] Creating Layer pool4/3x3_s2_pool4/3x3_s2_0_split
I0403 17:54:41.297840 15438 net.cpp:425] pool4/3x3_s2_pool4/3x3_s2_0_split <- pool4/3x3_s2
I0403 17:54:41.297857 15438 net.cpp:399] pool4/3x3_s2_pool4/3x3_s2_0_split -> pool4/3x3_s2_pool4/3x3_s2_0_split_0
I0403 17:54:41.297876 15438 net.cpp:399] pool4/3x3_s2_pool4/3x3_s2_0_split -> pool4/3x3_s2_pool4/3x3_s2_0_split_1
I0403 17:54:41.297899 15438 net.cpp:399] pool4/3x3_s2_pool4/3x3_s2_0_split -> pool4/3x3_s2_pool4/3x3_s2_0_split_2
I0403 17:54:41.297919 15438 net.cpp:399] pool4/3x3_s2_pool4/3x3_s2_0_split -> pool4/3x3_s2_pool4/3x3_s2_0_split_3
I0403 17:54:41.298038 15438 net.cpp:141] Setting up pool4/3x3_s2_pool4/3x3_s2_0_split
I0403 17:54:41.298066 15438 net.cpp:148] Top shape: 24 832 7 7 (978432)
I0403 17:54:41.298084 15438 net.cpp:148] Top shape: 24 832 7 7 (978432)
I0403 17:54:41.298099 15438 net.cpp:148] Top shape: 24 832 7 7 (978432)
I0403 17:54:41.298115 15438 net.cpp:148] Top shape: 24 832 7 7 (978432)
I0403 17:54:41.298130 15438 net.cpp:156] Memory required for data: 1292125728
I0403 17:54:41.298143 15438 layer_factory.hpp:77] Creating layer inception_5a/1x1
I0403 17:54:41.298166 15438 net.cpp:91] Creating Layer inception_5a/1x1
I0403 17:54:41.298183 15438 net.cpp:425] inception_5a/1x1 <- pool4/3x3_s2_pool4/3x3_s2_0_split_0
I0403 17:54:41.298205 15438 net.cpp:399] inception_5a/1x1 -> inception_5a/1x1
I0403 17:54:41.301077 15438 net.cpp:141] Setting up inception_5a/1x1
I0403 17:54:41.301107 15438 net.cpp:148] Top shape: 24 256 7 7 (301056)
I0403 17:54:41.301125 15438 net.cpp:156] Memory required for data: 1293329952
I0403 17:54:41.301143 15438 layer_factory.hpp:77] Creating layer inception_5a/relu_1x1
I0403 17:54:41.301164 15438 net.cpp:91] Creating Layer inception_5a/relu_1x1
I0403 17:54:41.301182 15438 net.cpp:425] inception_5a/relu_1x1 <- inception_5a/1x1
I0403 17:54:41.301199 15438 net.cpp:386] inception_5a/relu_1x1 -> inception_5a/1x1 (in-place)
I0403 17:54:41.301555 15438 net.cpp:141] Setting up inception_5a/relu_1x1
I0403 17:54:41.301581 15438 net.cpp:148] Top shape: 24 256 7 7 (301056)
I0403 17:54:41.301597 15438 net.cpp:156] Memory required for data: 1294534176
I0403 17:54:41.301612 15438 layer_factory.hpp:77] Creating layer inception_5a/3x3_reduce
I0403 17:54:41.301636 15438 net.cpp:91] Creating Layer inception_5a/3x3_reduce
I0403 17:54:41.301654 15438 net.cpp:425] inception_5a/3x3_reduce <- pool4/3x3_s2_pool4/3x3_s2_0_split_1
I0403 17:54:41.301673 15438 net.cpp:399] inception_5a/3x3_reduce -> inception_5a/3x3_reduce
I0403 17:54:41.304147 15438 net.cpp:141] Setting up inception_5a/3x3_reduce
I0403 17:54:41.304177 15438 net.cpp:148] Top shape: 24 160 7 7 (188160)
I0403 17:54:41.304193 15438 net.cpp:156] Memory required for data: 1295286816
I0403 17:54:41.304213 15438 layer_factory.hpp:77] Creating layer inception_5a/relu_3x3_reduce
I0403 17:54:41.304232 15438 net.cpp:91] Creating Layer inception_5a/relu_3x3_reduce
I0403 17:54:41.304250 15438 net.cpp:425] inception_5a/relu_3x3_reduce <- inception_5a/3x3_reduce
I0403 17:54:41.304267 15438 net.cpp:386] inception_5a/relu_3x3_reduce -> inception_5a/3x3_reduce (in-place)
I0403 17:54:41.304456 15438 net.cpp:141] Setting up inception_5a/relu_3x3_reduce
I0403 17:54:41.304482 15438 net.cpp:148] Top shape: 24 160 7 7 (188160)
I0403 17:54:41.304497 15438 net.cpp:156] Memory required for data: 1296039456
I0403 17:54:41.304512 15438 layer_factory.hpp:77] Creating layer inception_5a/3x3
I0403 17:54:41.304535 15438 net.cpp:91] Creating Layer inception_5a/3x3
I0403 17:54:41.304555 15438 net.cpp:425] inception_5a/3x3 <- inception_5a/3x3_reduce
I0403 17:54:41.304575 15438 net.cpp:399] inception_5a/3x3 -> inception_5a/3x3
I0403 17:54:41.309634 15438 net.cpp:141] Setting up inception_5a/3x3
I0403 17:54:41.309665 15438 net.cpp:148] Top shape: 24 320 7 7 (376320)
I0403 17:54:41.309681 15438 net.cpp:156] Memory required for data: 1297544736
I0403 17:54:41.309700 15438 layer_factory.hpp:77] Creating layer inception_5a/relu_3x3
I0403 17:54:41.309722 15438 net.cpp:91] Creating Layer inception_5a/relu_3x3
I0403 17:54:41.309739 15438 net.cpp:425] inception_5a/relu_3x3 <- inception_5a/3x3
I0403 17:54:41.309757 15438 net.cpp:386] inception_5a/relu_3x3 -> inception_5a/3x3 (in-place)
I0403 17:54:41.310061 15438 net.cpp:141] Setting up inception_5a/relu_3x3
I0403 17:54:41.310087 15438 net.cpp:148] Top shape: 24 320 7 7 (376320)
I0403 17:54:41.310103 15438 net.cpp:156] Memory required for data: 1299050016
I0403 17:54:41.310118 15438 layer_factory.hpp:77] Creating layer inception_5a/5x5_reduce
I0403 17:54:41.310142 15438 net.cpp:91] Creating Layer inception_5a/5x5_reduce
I0403 17:54:41.310158 15438 net.cpp:425] inception_5a/5x5_reduce <- pool4/3x3_s2_pool4/3x3_s2_0_split_2
I0403 17:54:41.310184 15438 net.cpp:399] inception_5a/5x5_reduce -> inception_5a/5x5_reduce
I0403 17:54:41.311374 15438 net.cpp:141] Setting up inception_5a/5x5_reduce
I0403 17:54:41.311404 15438 net.cpp:148] Top shape: 24 32 7 7 (37632)
I0403 17:54:41.311420 15438 net.cpp:156] Memory required for data: 1299200544
I0403 17:54:41.311439 15438 layer_factory.hpp:77] Creating layer inception_5a/relu_5x5_reduce
I0403 17:54:41.311457 15438 net.cpp:91] Creating Layer inception_5a/relu_5x5_reduce
I0403 17:54:41.311475 15438 net.cpp:425] inception_5a/relu_5x5_reduce <- inception_5a/5x5_reduce
I0403 17:54:41.311493 15438 net.cpp:386] inception_5a/relu_5x5_reduce -> inception_5a/5x5_reduce (in-place)
I0403 17:54:41.311796 15438 net.cpp:141] Setting up inception_5a/relu_5x5_reduce
I0403 17:54:41.311825 15438 net.cpp:148] Top shape: 24 32 7 7 (37632)
I0403 17:54:41.311841 15438 net.cpp:156] Memory required for data: 1299351072
I0403 17:54:41.311856 15438 layer_factory.hpp:77] Creating layer inception_5a/5x5
I0403 17:54:41.311877 15438 net.cpp:91] Creating Layer inception_5a/5x5
I0403 17:54:41.311895 15438 net.cpp:425] inception_5a/5x5 <- inception_5a/5x5_reduce
I0403 17:54:41.311914 15438 net.cpp:399] inception_5a/5x5 -> inception_5a/5x5
I0403 17:54:41.313693 15438 net.cpp:141] Setting up inception_5a/5x5
I0403 17:54:41.313731 15438 net.cpp:148] Top shape: 24 128 7 7 (150528)
I0403 17:54:41.313747 15438 net.cpp:156] Memory required for data: 1299953184
I0403 17:54:41.313766 15438 layer_factory.hpp:77] Creating layer inception_5a/relu_5x5
I0403 17:54:41.313787 15438 net.cpp:91] Creating Layer inception_5a/relu_5x5
I0403 17:54:41.313804 15438 net.cpp:425] inception_5a/relu_5x5 <- inception_5a/5x5
I0403 17:54:41.313822 15438 net.cpp:386] inception_5a/relu_5x5 -> inception_5a/5x5 (in-place)
I0403 17:54:41.314023 15438 net.cpp:141] Setting up inception_5a/relu_5x5
I0403 17:54:41.314050 15438 net.cpp:148] Top shape: 24 128 7 7 (150528)
I0403 17:54:41.314066 15438 net.cpp:156] Memory required for data: 1300555296
I0403 17:54:41.314082 15438 layer_factory.hpp:77] Creating layer inception_5a/pool
I0403 17:54:41.314100 15438 net.cpp:91] Creating Layer inception_5a/pool
I0403 17:54:41.314116 15438 net.cpp:425] inception_5a/pool <- pool4/3x3_s2_pool4/3x3_s2_0_split_3
I0403 17:54:41.314136 15438 net.cpp:399] inception_5a/pool -> inception_5a/pool
I0403 17:54:41.314209 15438 net.cpp:141] Setting up inception_5a/pool
I0403 17:54:41.314234 15438 net.cpp:148] Top shape: 24 832 7 7 (978432)
I0403 17:54:41.314247 15438 net.cpp:156] Memory required for data: 1304469024
I0403 17:54:41.314262 15438 layer_factory.hpp:77] Creating layer inception_5a/pool_proj
I0403 17:54:41.314283 15438 net.cpp:91] Creating Layer inception_5a/pool_proj
I0403 17:54:41.314301 15438 net.cpp:425] inception_5a/pool_proj <- inception_5a/pool
I0403 17:54:41.314323 15438 net.cpp:399] inception_5a/pool_proj -> inception_5a/pool_proj
I0403 17:54:41.316611 15438 net.cpp:141] Setting up inception_5a/pool_proj
I0403 17:54:41.316640 15438 net.cpp:148] Top shape: 24 128 7 7 (150528)
I0403 17:54:41.316655 15438 net.cpp:156] Memory required for data: 1305071136
I0403 17:54:41.316674 15438 layer_factory.hpp:77] Creating layer inception_5a/relu_pool_proj
I0403 17:54:41.316694 15438 net.cpp:91] Creating Layer inception_5a/relu_pool_proj
I0403 17:54:41.316711 15438 net.cpp:425] inception_5a/relu_pool_proj <- inception_5a/pool_proj
I0403 17:54:41.316728 15438 net.cpp:386] inception_5a/relu_pool_proj -> inception_5a/pool_proj (in-place)
I0403 17:54:41.317024 15438 net.cpp:141] Setting up inception_5a/relu_pool_proj
I0403 17:54:41.317049 15438 net.cpp:148] Top shape: 24 128 7 7 (150528)
I0403 17:54:41.317065 15438 net.cpp:156] Memory required for data: 1305673248
I0403 17:54:41.317080 15438 layer_factory.hpp:77] Creating layer inception_5a/output
I0403 17:54:41.317096 15438 net.cpp:91] Creating Layer inception_5a/output
I0403 17:54:41.317111 15438 net.cpp:425] inception_5a/output <- inception_5a/1x1
I0403 17:54:41.317131 15438 net.cpp:425] inception_5a/output <- inception_5a/3x3
I0403 17:54:41.317148 15438 net.cpp:425] inception_5a/output <- inception_5a/5x5
I0403 17:54:41.317163 15438 net.cpp:425] inception_5a/output <- inception_5a/pool_proj
I0403 17:54:41.317180 15438 net.cpp:399] inception_5a/output -> inception_5a/output
I0403 17:54:41.317232 15438 net.cpp:141] Setting up inception_5a/output
I0403 17:54:41.317255 15438 net.cpp:148] Top shape: 24 832 7 7 (978432)
I0403 17:54:41.317270 15438 net.cpp:156] Memory required for data: 1309586976
I0403 17:54:41.317284 15438 layer_factory.hpp:77] Creating layer inception_5a/output_inception_5a/output_0_split
I0403 17:54:41.317301 15438 net.cpp:91] Creating Layer inception_5a/output_inception_5a/output_0_split
I0403 17:54:41.317317 15438 net.cpp:425] inception_5a/output_inception_5a/output_0_split <- inception_5a/output
I0403 17:54:41.317335 15438 net.cpp:399] inception_5a/output_inception_5a/output_0_split -> inception_5a/output_inception_5a/output_0_split_0
I0403 17:54:41.317356 15438 net.cpp:399] inception_5a/output_inception_5a/output_0_split -> inception_5a/output_inception_5a/output_0_split_1
I0403 17:54:41.317378 15438 net.cpp:399] inception_5a/output_inception_5a/output_0_split -> inception_5a/output_inception_5a/output_0_split_2
I0403 17:54:41.317399 15438 net.cpp:399] inception_5a/output_inception_5a/output_0_split -> inception_5a/output_inception_5a/output_0_split_3
I0403 17:54:41.317512 15438 net.cpp:141] Setting up inception_5a/output_inception_5a/output_0_split
I0403 17:54:41.317538 15438 net.cpp:148] Top shape: 24 832 7 7 (978432)
I0403 17:54:41.317555 15438 net.cpp:148] Top shape: 24 832 7 7 (978432)
I0403 17:54:41.317570 15438 net.cpp:148] Top shape: 24 832 7 7 (978432)
I0403 17:54:41.317586 15438 net.cpp:148] Top shape: 24 832 7 7 (978432)
I0403 17:54:41.317600 15438 net.cpp:156] Memory required for data: 1325241888
I0403 17:54:41.317613 15438 layer_factory.hpp:77] Creating layer inception_5b/1x1
I0403 17:54:41.317636 15438 net.cpp:91] Creating Layer inception_5b/1x1
I0403 17:54:41.317652 15438 net.cpp:425] inception_5b/1x1 <- inception_5a/output_inception_5a/output_0_split_0
I0403 17:54:41.317670 15438 net.cpp:399] inception_5b/1x1 -> inception_5b/1x1
I0403 17:54:41.321378 15438 net.cpp:141] Setting up inception_5b/1x1
I0403 17:54:41.321408 15438 net.cpp:148] Top shape: 24 384 7 7 (451584)
I0403 17:54:41.321424 15438 net.cpp:156] Memory required for data: 1327048224
I0403 17:54:41.321444 15438 layer_factory.hpp:77] Creating layer inception_5b/relu_1x1
I0403 17:54:41.321465 15438 net.cpp:91] Creating Layer inception_5b/relu_1x1
I0403 17:54:41.321480 15438 net.cpp:425] inception_5b/relu_1x1 <- inception_5b/1x1
I0403 17:54:41.321509 15438 net.cpp:386] inception_5b/relu_1x1 -> inception_5b/1x1 (in-place)
I0403 17:54:41.321810 15438 net.cpp:141] Setting up inception_5b/relu_1x1
I0403 17:54:41.321835 15438 net.cpp:148] Top shape: 24 384 7 7 (451584)
I0403 17:54:41.321851 15438 net.cpp:156] Memory required for data: 1328854560
I0403 17:54:41.321866 15438 layer_factory.hpp:77] Creating layer inception_5b/3x3_reduce
I0403 17:54:41.321887 15438 net.cpp:91] Creating Layer inception_5b/3x3_reduce
I0403 17:54:41.321904 15438 net.cpp:425] inception_5b/3x3_reduce <- inception_5a/output_inception_5a/output_0_split_1
I0403 17:54:41.321929 15438 net.cpp:399] inception_5b/3x3_reduce -> inception_5b/3x3_reduce
I0403 17:54:41.324551 15438 net.cpp:141] Setting up inception_5b/3x3_reduce
I0403 17:54:41.324580 15438 net.cpp:148] Top shape: 24 192 7 7 (225792)
I0403 17:54:41.324596 15438 net.cpp:156] Memory required for data: 1329757728
I0403 17:54:41.324615 15438 layer_factory.hpp:77] Creating layer inception_5b/relu_3x3_reduce
I0403 17:54:41.324636 15438 net.cpp:91] Creating Layer inception_5b/relu_3x3_reduce
I0403 17:54:41.324653 15438 net.cpp:425] inception_5b/relu_3x3_reduce <- inception_5b/3x3_reduce
I0403 17:54:41.324671 15438 net.cpp:386] inception_5b/relu_3x3_reduce -> inception_5b/3x3_reduce (in-place)
I0403 17:54:41.324859 15438 net.cpp:141] Setting up inception_5b/relu_3x3_reduce
I0403 17:54:41.324885 15438 net.cpp:148] Top shape: 24 192 7 7 (225792)
I0403 17:54:41.324901 15438 net.cpp:156] Memory required for data: 1330660896
I0403 17:54:41.324915 15438 layer_factory.hpp:77] Creating layer inception_5b/3x3
I0403 17:54:41.324935 15438 net.cpp:91] Creating Layer inception_5b/3x3
I0403 17:54:41.324951 15438 net.cpp:425] inception_5b/3x3 <- inception_5b/3x3_reduce
I0403 17:54:41.324973 15438 net.cpp:399] inception_5b/3x3 -> inception_5b/3x3
I0403 17:54:41.331569 15438 net.cpp:141] Setting up inception_5b/3x3
I0403 17:54:41.331598 15438 net.cpp:148] Top shape: 24 384 7 7 (451584)
I0403 17:54:41.331614 15438 net.cpp:156] Memory required for data: 1332467232
I0403 17:54:41.331631 15438 layer_factory.hpp:77] Creating layer inception_5b/relu_3x3
I0403 17:54:41.331652 15438 net.cpp:91] Creating Layer inception_5b/relu_3x3
I0403 17:54:41.331670 15438 net.cpp:425] inception_5b/relu_3x3 <- inception_5b/3x3
I0403 17:54:41.331687 15438 net.cpp:386] inception_5b/relu_3x3 -> inception_5b/3x3 (in-place)
I0403 17:54:41.331986 15438 net.cpp:141] Setting up inception_5b/relu_3x3
I0403 17:54:41.332012 15438 net.cpp:148] Top shape: 24 384 7 7 (451584)
I0403 17:54:41.332027 15438 net.cpp:156] Memory required for data: 1334273568
I0403 17:54:41.332041 15438 layer_factory.hpp:77] Creating layer inception_5b/5x5_reduce
I0403 17:54:41.332078 15438 net.cpp:91] Creating Layer inception_5b/5x5_reduce
I0403 17:54:41.332096 15438 net.cpp:425] inception_5b/5x5_reduce <- inception_5a/output_inception_5a/output_0_split_2
I0403 17:54:41.332118 15438 net.cpp:399] inception_5b/5x5_reduce -> inception_5b/5x5_reduce
I0403 17:54:41.333391 15438 net.cpp:141] Setting up inception_5b/5x5_reduce
I0403 17:54:41.333420 15438 net.cpp:148] Top shape: 24 48 7 7 (56448)
I0403 17:54:41.333436 15438 net.cpp:156] Memory required for data: 1334499360
I0403 17:54:41.333454 15438 layer_factory.hpp:77] Creating layer inception_5b/relu_5x5_reduce
I0403 17:54:41.333475 15438 net.cpp:91] Creating Layer inception_5b/relu_5x5_reduce
I0403 17:54:41.333503 15438 net.cpp:425] inception_5b/relu_5x5_reduce <- inception_5b/5x5_reduce
I0403 17:54:41.333521 15438 net.cpp:386] inception_5b/relu_5x5_reduce -> inception_5b/5x5_reduce (in-place)
I0403 17:54:41.333889 15438 net.cpp:141] Setting up inception_5b/relu_5x5_reduce
I0403 17:54:41.333914 15438 net.cpp:148] Top shape: 24 48 7 7 (56448)
I0403 17:54:41.333930 15438 net.cpp:156] Memory required for data: 1334725152
I0403 17:54:41.333945 15438 layer_factory.hpp:77] Creating layer inception_5b/5x5
I0403 17:54:41.333964 15438 net.cpp:91] Creating Layer inception_5b/5x5
I0403 17:54:41.333986 15438 net.cpp:425] inception_5b/5x5 <- inception_5b/5x5_reduce
I0403 17:54:41.334005 15438 net.cpp:399] inception_5b/5x5 -> inception_5b/5x5
I0403 17:54:41.336024 15438 net.cpp:141] Setting up inception_5b/5x5
I0403 17:54:41.336050 15438 net.cpp:148] Top shape: 24 128 7 7 (150528)
I0403 17:54:41.336066 15438 net.cpp:156] Memory required for data: 1335327264
I0403 17:54:41.336082 15438 layer_factory.hpp:77] Creating layer inception_5b/relu_5x5
I0403 17:54:41.336102 15438 net.cpp:91] Creating Layer inception_5b/relu_5x5
I0403 17:54:41.336119 15438 net.cpp:425] inception_5b/relu_5x5 <- inception_5b/5x5
I0403 17:54:41.336136 15438 net.cpp:386] inception_5b/relu_5x5 -> inception_5b/5x5 (in-place)
I0403 17:54:41.336328 15438 net.cpp:141] Setting up inception_5b/relu_5x5
I0403 17:54:41.336354 15438 net.cpp:148] Top shape: 24 128 7 7 (150528)
I0403 17:54:41.336367 15438 net.cpp:156] Memory required for data: 1335929376
I0403 17:54:41.336382 15438 layer_factory.hpp:77] Creating layer inception_5b/pool
I0403 17:54:41.336400 15438 net.cpp:91] Creating Layer inception_5b/pool
I0403 17:54:41.336415 15438 net.cpp:425] inception_5b/pool <- inception_5a/output_inception_5a/output_0_split_3
I0403 17:54:41.336436 15438 net.cpp:399] inception_5b/pool -> inception_5b/pool
I0403 17:54:41.336506 15438 net.cpp:141] Setting up inception_5b/pool
I0403 17:54:41.336530 15438 net.cpp:148] Top shape: 24 832 7 7 (978432)
I0403 17:54:41.336544 15438 net.cpp:156] Memory required for data: 1339843104
I0403 17:54:41.336558 15438 layer_factory.hpp:77] Creating layer inception_5b/pool_proj
I0403 17:54:41.336585 15438 net.cpp:91] Creating Layer inception_5b/pool_proj
I0403 17:54:41.336601 15438 net.cpp:425] inception_5b/pool_proj <- inception_5b/pool
I0403 17:54:41.336621 15438 net.cpp:399] inception_5b/pool_proj -> inception_5b/pool_proj
I0403 17:54:41.338953 15438 net.cpp:141] Setting up inception_5b/pool_proj
I0403 17:54:41.338985 15438 net.cpp:148] Top shape: 24 128 7 7 (150528)
I0403 17:54:41.339002 15438 net.cpp:156] Memory required for data: 1340445216
I0403 17:54:41.339021 15438 layer_factory.hpp:77] Creating layer inception_5b/relu_pool_proj
I0403 17:54:41.339041 15438 net.cpp:91] Creating Layer inception_5b/relu_pool_proj
I0403 17:54:41.339058 15438 net.cpp:425] inception_5b/relu_pool_proj <- inception_5b/pool_proj
I0403 17:54:41.339076 15438 net.cpp:386] inception_5b/relu_pool_proj -> inception_5b/pool_proj (in-place)
I0403 17:54:41.339376 15438 net.cpp:141] Setting up inception_5b/relu_pool_proj
I0403 17:54:41.339402 15438 net.cpp:148] Top shape: 24 128 7 7 (150528)
I0403 17:54:41.339417 15438 net.cpp:156] Memory required for data: 1341047328
I0403 17:54:41.339432 15438 layer_factory.hpp:77] Creating layer inception_5b/output
I0403 17:54:41.339452 15438 net.cpp:91] Creating Layer inception_5b/output
I0403 17:54:41.339480 15438 net.cpp:425] inception_5b/output <- inception_5b/1x1
I0403 17:54:41.339498 15438 net.cpp:425] inception_5b/output <- inception_5b/3x3
I0403 17:54:41.339515 15438 net.cpp:425] inception_5b/output <- inception_5b/5x5
I0403 17:54:41.339531 15438 net.cpp:425] inception_5b/output <- inception_5b/pool_proj
I0403 17:54:41.339550 15438 net.cpp:399] inception_5b/output -> inception_5b/output
I0403 17:54:41.339601 15438 net.cpp:141] Setting up inception_5b/output
I0403 17:54:41.339624 15438 net.cpp:148] Top shape: 24 1024 7 7 (1204224)
I0403 17:54:41.339639 15438 net.cpp:156] Memory required for data: 1345864224
I0403 17:54:41.339653 15438 layer_factory.hpp:77] Creating layer pool5/7x7_s1
I0403 17:54:41.339670 15438 net.cpp:91] Creating Layer pool5/7x7_s1
I0403 17:54:41.339685 15438 net.cpp:425] pool5/7x7_s1 <- inception_5b/output
I0403 17:54:41.339706 15438 net.cpp:399] pool5/7x7_s1 -> pool5/7x7_s1
I0403 17:54:41.339925 15438 net.cpp:141] Setting up pool5/7x7_s1
I0403 17:54:41.339951 15438 net.cpp:148] Top shape: 24 1024 1 1 (24576)
I0403 17:54:41.339967 15438 net.cpp:156] Memory required for data: 1345962528
I0403 17:54:41.339987 15438 layer_factory.hpp:77] Creating layer pool5/drop_7x7_s1
I0403 17:54:41.340004 15438 net.cpp:91] Creating Layer pool5/drop_7x7_s1
I0403 17:54:41.340021 15438 net.cpp:425] pool5/drop_7x7_s1 <- pool5/7x7_s1
I0403 17:54:41.340039 15438 net.cpp:386] pool5/drop_7x7_s1 -> pool5/7x7_s1 (in-place)
I0403 17:54:41.340090 15438 net.cpp:141] Setting up pool5/drop_7x7_s1
I0403 17:54:41.340111 15438 net.cpp:148] Top shape: 24 1024 1 1 (24576)
I0403 17:54:41.340126 15438 net.cpp:156] Memory required for data: 1346060832
I0403 17:54:41.340139 15438 layer_factory.hpp:77] Creating layer loss3/classifier_plantvillage
I0403 17:54:41.340160 15438 net.cpp:91] Creating Layer loss3/classifier_plantvillage
I0403 17:54:41.340178 15438 net.cpp:425] loss3/classifier_plantvillage <- pool5/7x7_s1
I0403 17:54:41.340195 15438 net.cpp:399] loss3/classifier_plantvillage -> loss3/classifier_plantvillage
I0403 17:54:41.340610 15438 net.cpp:141] Setting up loss3/classifier_plantvillage
I0403 17:54:41.340634 15438 net.cpp:148] Top shape: 24 38 (912)
I0403 17:54:41.340648 15438 net.cpp:156] Memory required for data: 1346064480
I0403 17:54:41.340667 15438 layer_factory.hpp:77] Creating layer loss3/classifier_plantvillage_loss3/classifier_plantvillage_0_split
I0403 17:54:41.340683 15438 net.cpp:91] Creating Layer loss3/classifier_plantvillage_loss3/classifier_plantvillage_0_split
I0403 17:54:41.340699 15438 net.cpp:425] loss3/classifier_plantvillage_loss3/classifier_plantvillage_0_split <- loss3/classifier_plantvillage
I0403 17:54:41.340719 15438 net.cpp:399] loss3/classifier_plantvillage_loss3/classifier_plantvillage_0_split -> loss3/classifier_plantvillage_loss3/classifier_plantvillage_0_split_0
I0403 17:54:41.340739 15438 net.cpp:399] loss3/classifier_plantvillage_loss3/classifier_plantvillage_0_split -> loss3/classifier_plantvillage_loss3/classifier_plantvillage_0_split_1
I0403 17:54:41.340759 15438 net.cpp:399] loss3/classifier_plantvillage_loss3/classifier_plantvillage_0_split -> loss3/classifier_plantvillage_loss3/classifier_plantvillage_0_split_2
I0403 17:54:41.340780 15438 net.cpp:399] loss3/classifier_plantvillage_loss3/classifier_plantvillage_0_split -> loss3/classifier_plantvillage_loss3/classifier_plantvillage_0_split_3
I0403 17:54:41.340880 15438 net.cpp:141] Setting up loss3/classifier_plantvillage_loss3/classifier_plantvillage_0_split
I0403 17:54:41.340905 15438 net.cpp:148] Top shape: 24 38 (912)
I0403 17:54:41.340924 15438 net.cpp:148] Top shape: 24 38 (912)
I0403 17:54:41.340939 15438 net.cpp:148] Top shape: 24 38 (912)
I0403 17:54:41.340955 15438 net.cpp:148] Top shape: 24 38 (912)
I0403 17:54:41.340967 15438 net.cpp:156] Memory required for data: 1346079072
I0403 17:54:41.340986 15438 layer_factory.hpp:77] Creating layer loss1/loss
I0403 17:54:41.341007 15438 net.cpp:91] Creating Layer loss1/loss
I0403 17:54:41.341025 15438 net.cpp:425] loss1/loss <- loss1/classifier_plantvillage_loss1/classifier_plantvillage_0_split_0
I0403 17:54:41.341054 15438 net.cpp:425] loss1/loss <- label_data_1_split_0
…
