…
I0403 17:51:53.569385 15277 net.cpp:313] The NetState phase (1) differed from the phase (0) specified by a rule in layer data
I0403 17:51:53.570564 15277 net.cpp:49] Initializing net from parameters: 
state {
  phase: TEST
}
layer {
  name: "data"
  type: "Data"
  top: "data"
  top: "label"
  include {
    phase: TEST
  }
  transform_param {
    mirror: false
    crop_size: 224
    mean_file: "/home/mohanty/data/final_dataset/lmdb/grayscale-60-40/mean.binaryproto"
  }
  data_param {
    source: "/home/mohanty/data/final_dataset/lmdb/grayscale-60-40/test_db"
    batch_size: 24
    backend: LMDB
  }
}
layer {
  name: "conv1/7x7_s2"
  type: "Convolution"
  bottom: "data"
  top: "conv1/7x7_s2"
  param {
    lr_mult: 1
    decay_mult: 1
  }
  param {
    lr_mult: 2
    decay_mult: 0
  }
  convolution_param {
    num_output: 64
    pad: 3
    kernel_size: 7
    stride: 2
    weight_filler {
      type: "xavier"
      std: 0.1
    }
    bias_filler {
      type: "constant"
      value: 0.2
    }
  }
}
layer {
  name: "conv1/relu_7x7"
  type: "ReLU"
  bottom: "conv1/7x7_s2"
  top: "conv1/7x7_s2"
}
layer {
  name: "pool1/3x3_s2"
  type: "Pooling"
  bottom: "conv1/7x7_s2"
  top: "pool1/3x3_s2"
  pooling_param {
    pool: MAX
    kernel_size: 3
    stride: 2
  }
}
layer {
  name: "pool1/norm1"
  type: "LRN"
  bottom: "pool1/3x3_s2"
  top: "pool1/norm1"
  lrn_param {
    local_size: 5
    alpha: 0.0001
    beta: 0.75
  }
}
layer {
  name: "conv2/3x3_reduce"
  type: "Convolution"
  bottom: "pool1/norm1"
  top: "conv2/3x3_reduce"
  param {
    lr_mult: 1
    decay_mult: 1
  }
  param {
    lr_mult: 2
    decay_mult: 0
  }
  convolution_param {
    num_output: 64
    kernel_size: 1
    weight_filler {
      type: "xavier"
      std: 0.1
    }
    bias_filler {
      type: "constant"
      value: 0.2
    }
  }
}
layer {
  name: "conv2/relu_3x3_reduce"
  type: "ReLU"
  bottom: "conv2/3x3_reduce"
  top: "conv2/3x3_reduce"
}
layer {
  name: "conv2/3x3"
  type: "Convolution"
  bottom: "conv2/3x3_reduce"
  top: "conv2/3x3"
  param {
    lr_mult: 1
    decay_mult: 1
  }
  param {
    lr_mult: 2
    decay_mult: 0
  }
  convolution_param {
    num_output: 192
    pad: 1
    kernel_size: 3
    weight_filler {
      type: "xavier"
      std: 0.03
    }
    bias_filler {
      type: "constant"
      value: 0.2
    }
  }
}
layer {
  name: "conv2/relu_3x3"
  type: "ReLU"
  bottom: "conv2/3x3"
  top: "conv2/3x3"
}
layer {
  name: "conv2/norm2"
  type: "LRN"
  bottom: "conv2/3x3"
  top: "conv2/norm2"
  lrn_param {
    local_size: 5
    alpha: 0.0001
    beta: 0.75
  }
}
layer {
  name: "pool2/3x3_s2"
  type: "Pooling"
  bottom: "conv2/norm2"
  top: "pool2/3x3_s2"
  pooling_param {
    pool: MAX
    kernel_size: 3
    stride: 2
  }
}
layer {
  name: "inception_3a/1x1"
  type: "Convolution"
  bottom: "pool2/3x3_s2"
  top: "inception_3a/1x1"
  param {
    lr_mult: 1
    decay_mult: 1
  }
  param {
    lr_mult: 2
    decay_mult: 0
  }
  convolution_param {
    num_output: 64
    kernel_size: 1
    weight_filler {
      type: "xavier"
      std: 0.03
    }
    bias_filler {
      type: "constant"
      value: 0.2
    }
  }
}
layer {
  name: "inception_3a/relu_1x1"
  type: "ReLU"
  bottom: "inception_3a/1x1"
  top: "inception_3a/1x1"
}
layer {
  name: "inception_3a/3x3_reduce"
  type: "Convolution"
  bottom: "pool2/3x3_s2"
  top: "inception_3a/3x3_reduce"
  param {
    lr_mult: 1
    decay_mult: 1
  }
  param {
    lr_mult: 2
    decay_mult: 0
  }
  convolution_param {
    num_output: 96
    kernel_size: 1
    weight_filler {
      type: "xavier"
      std: 0.09
    }
    bias_filler {
      type: "constant"
      value: 0.2
    }
  }
}
layer {
  name: "inception_3a/relu_3x3_reduce"
  type: "ReLU"
  bottom: "inception_3a/3x3_reduce"
  top: "inception_3a/3x3_reduce"
}
layer {
  name: "inception_3a/3x3"
  type: "Convolution"
  bottom: "inception_3a/3x3_reduce"
  top: "inception_3a/3x3"
  param {
    lr_mult: 1
    decay_mult: 1
  }
  param {
    lr_mult: 2
    decay_mult: 0
  }
  convolution_param {
    num_output: 128
    pad: 1
    kernel_size: 3
    weight_filler {
      type: "xavier"
      std: 0.03
    }
    bias_filler {
      type: "constant"
      value: 0.2
    }
  }
}
layer {
  name: "inception_3a/relu_3x3"
  type: "ReLU"
  bottom: "inception_3a/3x3"
  top: "inception_3a/3x3"
}
layer {
  name: "inception_3a/5x5_reduce"
  type: "Convolution"
  bottom: "pool2/3x3_s2"
  top: "inception_3a/5x5_reduce"
  param {
    lr_mult: 1
    decay_mult: 1
  }
  param {
    lr_mult: 2
    decay_mult: 0
  }
  convolution_param {
    num_output: 16
    kernel_size: 1
    weight_filler {
      type: "xavier"
      std: 0.2
    }
    bias_filler {
      type: "constant"
      value: 0.2
    }
  }
}
layer {
  name: "inception_3a/relu_5x5_reduce"
  type: "ReLU"
  bottom: "inception_3a/5x5_reduce"
  top: "inception_3a/5x5_reduce"
}
layer {
  name: "inception_3a/5x5"
  type: "Convolution"
  bottom: "inception_3a/5x5_reduce"
  top: "inception_3a/5x5"
  param {
    lr_mult: 1
    decay_mult: 1
  }
  param {
    lr_mult: 2
    decay_mult: 0
  }
  convolution_param {
    num_output: 32
    pad: 2
    kernel_size: 5
    weight_filler {
      type: "xavier"
      std: 0.03
    }
    bias_filler {
      type: "constant"
      value: 0.2
    }
  }
}
layer {
  name: "inception_3a/relu_5x5"
  type: "ReLU"
  bottom: "inception_3a/5x5"
  top: "inception_3a/5x5"
}
layer {
  name: "inception_3a/pool"
  type: "Pooling"
  bottom: "pool2/3x3_s2"
  top: "inception_3a/pool"
  pooling_param {
    pool: MAX
    kernel_size: 3
    stride: 1
    pad: 1
  }
}
layer {
  name: "inception_3a/pool_proj"
  type: "Convolution"
  bottom: "inception_3a/pool"
  top: "inception_3a/pool_proj"
  param {
    lr_mult: 1
    decay_mult: 1
  }
  param {
    lr_mult: 2
    decay_mult: 0
  }
  convolution_param {
    num_output: 32
    kernel_size: 1
    weight_filler {
      type: "xavier"
      std: 0.1
    }
    bias_filler {
      type: "constant"
      value: 0.2
    }
  }
}
layer {
  name: "inception_3a/relu_pool_proj"
  type: "ReLU"
  bottom: "inception_3a/pool_proj"
  top: "inception_3a/pool_proj"
}
layer {
  name: "inception_3a/output"
  type: "Concat"
  bottom: "inception_3a/1x1"
  bottom: "inception_3a/3x3"
  bottom: "inception_3a/5x5"
  bottom: "inception_3a/pool_proj"
  top: "inception_3a/output"
}
layer {
  name: "inception_3b/1x1"
  type: "Convolution"
  bottom: "inception_3a/output"
  top: "inception_3b/1x1"
  param {
    lr_mult: 1
    decay_mult: 1
  }
  param {
    lr_mult: 2
    decay_mult: 0
  }
  convolution_param {
    num_output: 128
    kernel_size: 1
    weight_filler {
      type: "xavier"
      std: 0.03
    }
    bias_filler {
      type: "constant"
      value: 0.2
    }
  }
}
layer {
  name: "inception_3b/relu_1x1"
  type: "ReLU"
  bottom: "inception_3b/1x1"
  top: "inception_3b/1x1"
}
layer {
  name: "inception_3b/3x3_reduce"
  type: "Convolution"
  bottom: "inception_3a/output"
  top: "inception_3b/3x3_reduce"
  param {
    lr_mult: 1
    decay_mult: 1
  }
  param {
    lr_mult: 2
    decay_mult: 0
  }
  convolution_param {
    num_output: 128
    kernel_size: 1
    weight_filler {
      type: "xavier"
      std: 0.09
    }
    bias_filler {
      type: "constant"
      value: 0.2
    }
  }
}
layer {
  name: "inception_3b/relu_3x3_reduce"
  type: "ReLU"
  bottom: "inception_3b/3x3_reduce"
  top: "inception_3b/3x3_reduce"
}
layer {
  name: "inception_3b/3x3"
  type: "Convolution"
  bottom: "inception_3b/3x3_reduce"
  top: "inception_3b/3x3"
  param {
    lr_mult: 1
    decay_mult: 1
  }
  param {
    lr_mult: 2
    decay_mult: 0
  }
  convolution_param {
    num_output: 192
    pad: 1
    kernel_size: 3
    weight_filler {
      type: "xavier"
      std: 0.03
    }
    bias_filler {
      type: "constant"
      value: 0.2
    }
  }
}
layer {
  name: "inception_3b/relu_3x3"
  type: "ReLU"
  bottom: "inception_3b/3x3"
  top: "inception_3b/3x3"
}
layer {
  name: "inception_3b/5x5_reduce"
  type: "Convolution"
  bottom: "inception_3a/output"
  top: "inception_3b/5x5_reduce"
  param {
    lr_mult: 1
    decay_mult: 1
  }
  param {
    lr_mult: 2
    decay_mult: 0
  }
  convolution_param {
    num_output: 32
    kernel_size: 1
    weight_filler {
      type: "xavier"
      std: 0.2
    }
    bias_filler {
      type: "constant"
      value: 0.2
    }
  }
}
layer {
  name: "inception_3b/relu_5x5_reduce"
  type: "ReLU"
  bottom: "inception_3b/5x5_reduce"
  top: "inception_3b/5x5_reduce"
}
layer {
  name: "inception_3b/5x5"
  type: "Convolution"
  bottom: "inception_3b/5x5_reduce"
  top: "inception_3b/5x5"
  param {
    lr_mult: 1
    decay_mult: 1
  }
  param {
    lr_mult: 2
    decay_mult: 0
  }
  convolution_param {
    num_output: 96
    pad: 2
    kernel_size: 5
    weight_filler {
      type: "xavier"
      std: 0.03
    }
    bias_filler {
      type: "constant"
      value: 0.2
    }
  }
}
layer {
  name: "inception_3b/relu_5x5"
  type: "ReLU"
  bottom: "inception_3b/5x5"
  top: "inception_3b/5x5"
}
layer {
  name: "inception_3b/pool"
  type: "Pooling"
  bottom: "inception_3a/output"
  top: "inception_3b/pool"
  pooling_param {
    pool: MAX
    kernel_size: 3
    stride: 1
    pad: 1
  }
}
layer {
  name: "inception_3b/pool_proj"
  type: "Convolution"
  bottom: "inception_3b/pool"
  top: "inception_3b/pool_proj"
  param {
    lr_mult: 1
    decay_mult: 1
  }
  param {
    lr_mult: 2
    decay_mult: 0
  }
  convolution_param {
    num_output: 64
    kernel_size: 1
    weight_filler {
      type: "xavier"
      std: 0.1
    }
    bias_filler {
      type: "constant"
      value: 0.2
    }
  }
}
layer {
  name: "inception_3b/relu_pool_proj"
  type: "ReLU"
  bottom: "inception_3b/pool_proj"
  top: "inception_3b/pool_proj"
}
layer {
  name: "inception_3b/output"
  type: "Concat"
  bottom: "inception_3b/1x1"
  bottom: "inception_3b/3x3"
  bottom: "inception_3b/5x5"
  bottom: "inception_3b/pool_proj"
  top: "inception_3b/output"
}
layer {
  name: "pool3/3x3_s2"
  type: "Pooling"
  bottom: "inception_3b/output"
  top: "pool3/3x3_s2"
  pooling_param {
    pool: MAX
    kernel_size: 3
    stride: 2
  }
}
layer {
  name: "inception_4a/1x1"
  type: "Convolution"
  bottom: "pool3/3x3_s2"
  top: "inception_4a/1x1"
  param {
    lr_mult: 1
    decay_mult: 1
  }
  param {
    lr_mult: 2
    decay_mult: 0
  }
  convolution_param {
    num_output: 192
    kernel_size: 1
    weight_filler {
      type: "xavier"
      std: 0.03
    }
    bias_filler {
      type: "constant"
      value: 0.2
    }
  }
}
layer {
  name: "inception_4a/relu_1x1"
  type: "ReLU"
  bottom: "inception_4a/1x1"
  top: "inception_4a/1x1"
}
layer {
  name: "inception_4a/3x3_reduce"
  type: "Convolution"
  bottom: "pool3/3x3_s2"
  top: "inception_4a/3x3_reduce"
  param {
    lr_mult: 1
    decay_mult: 1
  }
  param {
    lr_mult: 2
    decay_mult: 0
  }
  convolution_param {
    num_output: 96
    kernel_size: 1
    weight_filler {
      type: "xavier"
      std: 0.09
    }
    bias_filler {
      type: "constant"
      value: 0.2
    }
  }
}
layer {
  name: "inception_4a/relu_3x3_reduce"
  type: "ReLU"
  bottom: "inception_4a/3x3_reduce"
  top: "inception_4a/3x3_reduce"
}
layer {
  name: "inception_4a/3x3"
  type: "Convolution"
  bottom: "inception_4a/3x3_reduce"
  top: "inception_4a/3x3"
  param {
    lr_mult: 1
    decay_mult: 1
  }
  param {
    lr_mult: 2
    decay_mult: 0
  }
  convolution_param {
    num_output: 208
    pad: 1
    kernel_size: 3
    weight_filler {
      type: "xavier"
      std: 0.03
    }
    bias_filler {
      type: "constant"
      value: 0.2
    }
  }
}
layer {
  name: "inception_4a/relu_3x3"
  type: "ReLU"
  bottom: "inception_4a/3x3"
  top: "inception_4a/3x3"
}
layer {
  name: "inception_4a/5x5_reduce"
  type: "Convolution"
  bottom: "pool3/3x3_s2"
  top: "inception_4a/5x5_reduce"
  param {
    lr_mult: 1
    decay_mult: 1
  }
  param {
    lr_mult: 2
    decay_mult: 0
  }
  convolution_param {
    num_output: 16
    kernel_size: 1
    weight_filler {
      type: "xavier"
      std: 0.2
    }
    bias_filler {
      type: "constant"
      value: 0.2
    }
  }
}
layer {
  name: "inception_4a/relu_5x5_reduce"
  type: "ReLU"
  bottom: "inception_4a/5x5_reduce"
  top: "inception_4a/5x5_reduce"
}
layer {
  name: "inception_4a/5x5"
  type: "Convolution"
  bottom: "inception_4a/5x5_reduce"
  top: "inception_4a/5x5"
  param {
    lr_mult: 1
    decay_mult: 1
  }
  param {
    lr_mult: 2
    decay_mult: 0
  }
  convolution_param {
    num_output: 48
    pad: 2
    kernel_size: 5
    weight_filler {
      type: "xavier"
      std: 0.03
    }
    bias_filler {
      type: "constant"
      value: 0.2
    }
  }
}
layer {
  name: "inception_4a/relu_5x5"
  type: "ReLU"
  bottom: "inception_4a/5x5"
  top: "inception_4a/5x5"
}
layer {
  name: "inception_4a/pool"
  type: "Pooling"
  bottom: "pool3/3x3_s2"
  top: "inception_4a/pool"
  pooling_param {
    pool: MAX
    kernel_size: 3
    stride: 1
    pad: 1
  }
}
layer {
  name: "inception_4a/pool_proj"
  type: "Convolution"
  bottom: "inception_4a/pool"
  top: "inception_4a/pool_proj"
  param {
    lr_mult: 1
    decay_mult: 1
  }
  param {
    lr_mult: 2
    decay_mult: 0
  }
  convolution_param {
    num_output: 64
    kernel_size: 1
    weight_filler {
      type: "xavier"
      std: 0.1
    }
    bias_filler {
      type: "constant"
      value: 0.2
    }
  }
}
layer {
  name: "inception_4a/relu_pool_proj"
  type: "ReLU"
  bottom: "inception_4a/pool_proj"
  top: "inception_4a/pool_proj"
}
layer {
  name: "inception_4a/output"
  type: "Concat"
  bottom: "inception_4a/1x1"
  bottom: "inception_4a/3x3"
  bottom: "inception_4a/5x5"
  bottom: "inception_4a/pool_proj"
  top: "inception_4a/output"
}
layer {
  name: "loss1/ave_pool"
  type: "Pooling"
  bottom: "inception_4a/output"
  top: "loss1/ave_pool"
  pooling_param {
    pool: AVE
    kernel_size: 5
    stride: 3
  }
}
layer {
  name: "loss1/conv"
  type: "Convolution"
  bottom: "loss1/ave_pool"
  top: "loss1/conv"
  param {
    lr_mult: 1
    decay_mult: 1
  }
  param {
    lr_mult: 2
    decay_mult: 0
  }
  convolution_param {
    num_output: 128
    kernel_size: 1
    weight_filler {
      type: "xavier"
      std: 0.08
    }
    bias_filler {
      type: "constant"
      value: 0.2
    }
  }
}
layer {
  name: "loss1/relu_conv"
  type: "ReLU"
  bottom: "loss1/conv"
  top: "loss1/conv"
}
layer {
  name: "loss1/fc"
  type: "InnerProduct"
  bottom: "loss1/conv"
  top: "loss1/fc"
  param {
    lr_mult: 1
    decay_mult: 1
  }
  param {
    lr_mult: 2
    decay_mult: 0
  }
  inner_product_param {
    num_output: 1024
    weight_filler {
      type: "xavier"
      std: 0.02
    }
    bias_filler {
      type: "constant"
      value: 0.2
    }
  }
}
layer {
  name: "loss1/relu_fc"
  type: "ReLU"
  bottom: "loss1/fc"
  top: "loss1/fc"
}
layer {
  name: "loss1/drop_fc"
  type: "Dropout"
  bottom: "loss1/fc"
  top: "loss1/fc"
  dropout_param {
    dropout_ratio: 0.7
  }
}
layer {
  name: "loss1/classifier_plantvillage"
  type: "InnerProduct"
  bottom: "loss1/fc"
  top: "loss1/classifier_plantvillage"
  param {
    lr_mult: 1
    decay_mult: 1
  }
  param {
    lr_mult: 2
    decay_mult: 0
  }
  inner_product_param {
    num_output: 38
    weight_filler {
      type: "xavier"
      std: 0.0009765625
    }
    bias_filler {
      type: "constant"
      value: 0
    }
  }
}
layer {
  name: "inception_4b/1x1"
  type: "Convolution"
  bottom: "inception_4a/output"
  top: "inception_4b/1x1"
  param {
    lr_mult: 1
    decay_mult: 1
  }
  param {
    lr_mult: 2
    decay_mult: 0
  }
  convolution_param {
    num_output: 160
    kernel_size: 1
    weight_filler {
      type: "xavier"
      std: 0.03
    }
    bias_filler {
      type: "constant"
      value: 0.2
    }
  }
}
layer {
  name: "inception_4b/relu_1x1"
  type: "ReLU"
  bottom: "inception_4b/1x1"
  top: "inception_4b/1x1"
}
layer {
  name: "inception_4b/3x3_reduce"
  type: "Convolution"
  bottom: "inception_4a/output"
  top: "inception_4b/3x3_reduce"
  param {
    lr_mult: 1
    decay_mult: 1
  }
  param {
    lr_mult: 2
    decay_mult: 0
  }
  convolution_param {
    num_output: 112
    kernel_size: 1
    weight_filler {
      type: "xavier"
      std: 0.09
    }
    bias_filler {
      type: "constant"
      value: 0.2
    }
  }
}
layer {
  name: "inception_4b/relu_3x3_reduce"
  type: "ReLU"
  bottom: "inception_4b/3x3_reduce"
  top: "inception_4b/3x3_reduce"
}
layer {
  name: "inception_4b/3x3"
  type: "Convolution"
  bottom: "inception_4b/3x3_reduce"
  top: "inception_4b/3x3"
  param {
    lr_mult: 1
    decay_mult: 1
  }
  param {
    lr_mult: 2
    decay_mult: 0
  }
  convolution_param {
    num_output: 224
    pad: 1
    kernel_size: 3
    weight_filler {
      type: "xavier"
      std: 0.03
    }
    bias_filler {
      type: "constant"
      value: 0.2
    }
  }
}
layer {
  name: "inception_4b/relu_3x3"
  type: "ReLU"
  bottom: "inception_4b/3x3"
  top: "inception_4b/3x3"
}
layer {
  name: "inception_4b/5x5_reduce"
  type: "Convolution"
  bottom: "inception_4a/output"
  top: "inception_4b/5x5_reduce"
  param {
    lr_mult: 1
    decay_mult: 1
  }
  param {
    lr_mult: 2
    decay_mult: 0
  }
  convolution_param {
    num_output: 24
    kernel_size: 1
    weight_filler {
      type: "xavier"
      std: 0.2
    }
    bias_filler {
      type: "constant"
      value: 0.2
    }
  }
}
layer {
  name: "inception_4b/relu_5x5_reduce"
  type: "ReLU"
  bottom: "inception_4b/5x5_reduce"
  top: "inception_4b/5x5_reduce"
}
layer {
  name: "inception_4b/5x5"
  type: "Convolution"
  bottom: "inception_4b/5x5_reduce"
  top: "inception_4b/5x5"
  param {
    lr_mult: 1
    decay_mult: 1
  }
  param {
    lr_mult: 2
    decay_mult: 0
  }
  convolution_param {
    num_output: 64
    pad: 2
    kernel_size: 5
    weight_filler {
      type: "xavier"
      std: 0.03
    }
    bias_filler {
      type: "constant"
      value: 0.2
    }
  }
}
layer {
  name: "inception_4b/relu_5x5"
  type: "ReLU"
  bottom: "inception_4b/5x5"
  top: "inception_4b/5x5"
}
layer {
  name: "inception_4b/pool"
  type: "Pooling"
  bottom: "inception_4a/output"
  top: "inception_4b/pool"
  pooling_param {
    pool: MAX
    kernel_size: 3
    stride: 1
    pad: 1
  }
}
layer {
  name: "inception_4b/pool_proj"
  type: "Convolution"
  bottom: "inception_4b/pool"
  top: "inception_4b/pool_proj"
  param {
    lr_mult: 1
    decay_mult: 1
  }
  param {
    lr_mult: 2
    decay_mult: 0
  }
  convolution_param {
    num_output: 64
    kernel_size: 1
    weight_filler {
      type: "xavier"
      std: 0.1
    }
    bias_filler {
      type: "constant"
      value: 0.2
    }
  }
}
layer {
  name: "inception_4b/relu_pool_proj"
  type: "ReLU"
  bottom: "inception_4b/pool_proj"
  top: "inception_4b/pool_proj"
}
layer {
  name: "inception_4b/output"
  type: "Concat"
  bottom: "inception_4b/1x1"
  bottom: "inception_4b/3x3"
  bottom: "inception_4b/5x5"
  bottom: "inception_4b/pool_proj"
  top: "inception_4b/output"
}
layer {
  name: "inception_4c/1x1"
  type: "Convolution"
  bottom: "inception_4b/output"
  top: "inception_4c/1x1"
  param {
    lr_mult: 1
    decay_mult: 1
  }
  param {
    lr_mult: 2
    decay_mult: 0
  }
  convolution_param {
    num_output: 128
    kernel_size: 1
    weight_filler {
      type: "xavier"
      std: 0.03
    }
    bias_filler {
      type: "constant"
      value: 0.2
    }
  }
}
layer {
  name: "inception_4c/relu_1x1"
  type: "ReLU"
  bottom: "inception_4c/1x1"
  top: "inception_4c/1x1"
}
layer {
  name: "inception_4c/3x3_reduce"
  type: "Convolution"
  bottom: "inception_4b/output"
  top: "inception_4c/3x3_reduce"
  param {
    lr_mult: 1
    decay_mult: 1
  }
  param {
    lr_mult: 2
    decay_mult: 0
  }
  convolution_param {
    num_output: 128
    kernel_size: 1
    weight_filler {
      type: "xavier"
      std: 0.09
    }
    bias_filler {
      type: "constant"
      value: 0.2
    }
  }
}
layer {
  name: "inception_4c/relu_3x3_reduce"
  type: "ReLU"
  bottom: "inception_4c/3x3_reduce"
  top: "inception_4c/3x3_reduce"
}
layer {
  name: "inception_4c/3x3"
  type: "Convolution"
  bottom: "inception_4c/3x3_reduce"
  top: "inception_4c/3x3"
  param {
    lr_mult: 1
    decay_mult: 1
  }
  param {
    lr_mult: 2
    decay_mult: 0
  }
  convolution_param {
    num_output: 256
    pad: 1
    kernel_size: 3
    weight_filler {
      type: "xavier"
      std: 0.03
    }
    bias_filler {
      type: "constant"
      value: 0.2
    }
  }
}
layer {
  name: "inception_4c/relu_3x3"
  type: "ReLU"
  bottom: "inception_4c/3x3"
  top: "inception_4c/3x3"
}
layer {
  name: "inception_4c/5x5_reduce"
  type: "Convolution"
  bottom: "inception_4b/output"
  top: "inception_4c/5x5_reduce"
  param {
    lr_mult: 1
    decay_mult: 1
  }
  param {
    lr_mult: 2
    decay_mult: 0
  }
  convolution_param {
    num_output: 24
    kernel_size: 1
    weight_filler {
      type: "xavier"
      std: 0.2
    }
    bias_filler {
      type: "constant"
      value: 0.2
    }
  }
}
layer {
  name: "inception_4c/relu_5x5_reduce"
  type: "ReLU"
  bottom: "inception_4c/5x5_reduce"
  top: "inception_4c/5x5_reduce"
}
layer {
  name: "inception_4c/5x5"
  type: "Convolution"
  bottom: "inception_4c/5x5_reduce"
  top: "inception_4c/5x5"
  param {
    lr_mult: 1
    decay_mult: 1
  }
  param {
    lr_mult: 2
    decay_mult: 0
  }
  convolution_param {
    num_output: 64
    pad: 2
    kernel_size: 5
    weight_filler {
      type: "xavier"
      std: 0.03
    }
    bias_filler {
      type: "constant"
      value: 0.2
    }
  }
}
layer {
  name: "inception_4c/relu_5x5"
  type: "ReLU"
  bottom: "inception_4c/5x5"
  top: "inception_4c/5x5"
}
layer {
  name: "inception_4c/pool"
  type: "Pooling"
  bottom: "inception_4b/output"
  top: "inception_4c/pool"
  pooling_param {
    pool: MAX
    kernel_size: 3
    stride: 1
    pad: 1
  }
}
layer {
  name: "inception_4c/pool_proj"
  type: "Convolution"
  bottom: "inception_4c/pool"
  top: "inception_4c/pool_proj"
  param {
    lr_mult: 1
    decay_mult: 1
  }
  param {
    lr_mult: 2
    decay_mult: 0
  }
  convolution_param {
    num_output: 64
    kernel_size: 1
    weight_filler {
      type: "xavier"
      std: 0.1
    }
    bias_filler {
      type: "constant"
      value: 0.2
    }
  }
}
layer {
  name: "inception_4c/relu_pool_proj"
  type: "ReLU"
  bottom: "inception_4c/pool_proj"
  top: "inception_4c/pool_proj"
}
layer {
  name: "inception_4c/output"
  type: "Concat"
  bottom: "inception_4c/1x1"
  bottom: "inception_4c/3x3"
  bottom: "inception_4c/5x5"
  bottom: "inception_4c/pool_proj"
  top: "inception_4c/output"
}
layer {
  name: "inception_4d/1x1"
  type: "Convolution"
  bottom: "inception_4c/output"
  top: "inception_4d/1x1"
  param {
    lr_mult: 1
    decay_mult: 1
  }
  param {
    lr_mult: 2
    decay_mult: 0
  }
  convolution_param {
    num_output: 112
    kernel_size: 1
    weight_filler {
      type: "xavier"
      std: 0.03
    }
    bias_filler {
      type: "constant"
      value: 0.2
    }
  }
}
layer {
  name: "inception_4d/relu_1x1"
  type: "ReLU"
  bottom: "inception_4d/1x1"
  top: "inception_4d/1x1"
}
layer {
  name: "inception_4d/3x3_reduce"
  type: "Convolution"
  bottom: "inception_4c/output"
  top: "inception_4d/3x3_reduce"
  param {
    lr_mult: 1
    decay_mult: 1
  }
  param {
    lr_mult: 2
    decay_mult: 0
  }
  convolution_param {
    num_output: 144
    kernel_size: 1
    weight_filler {
      type: "xavier"
      std: 0.09
    }
    bias_filler {
      type: "constant"
      value: 0.2
    }
  }
}
layer {
  name: "inception_4d/relu_3x3_reduce"
  type: "ReLU"
  bottom: "inception_4d/3x3_reduce"
  top: "inception_4d/3x3_reduce"
}
layer {
  name: "inception_4d/3x3"
  type: "Convolution"
  bottom: "inception_4d/3x3_reduce"
  top: "inception_4d/3x3"
  param {
    lr_mult: 1
    decay_mult: 1
  }
  param {
    lr_mult: 2
    decay_mult: 0
  }
  convolution_param {
    num_output: 288
    pad: 1
    kernel_size: 3
    weight_filler {
      type: "xavier"
      std: 0.03
    }
    bias_filler {
      type: "constant"
      value: 0.2
    }
  }
}
layer {
  name: "inception_4d/relu_3x3"
  type: "ReLU"
  bottom: "inception_4d/3x3"
  top: "inception_4d/3x3"
}
layer {
  name: "inception_4d/5x5_reduce"
  type: "Convolution"
  bottom: "inception_4c/output"
  top: "inception_4d/5x5_reduce"
  param {
    lr_mult: 1
    decay_mult: 1
  }
  param {
    lr_mult: 2
    decay_mult: 0
  }
  convolution_param {
    num_output: 32
    kernel_size: 1
    weight_filler {
      type: "xavier"
      std: 0.2
    }
    bias_filler {
      type: "constant"
      value: 0.2
    }
  }
}
layer {
  name: "inception_4d/relu_5x5_reduce"
  type: "ReLU"
  bottom: "inception_4d/5x5_reduce"
  top: "inception_4d/5x5_reduce"
}
layer {
  name: "inception_4d/5x5"
  type: "Convolution"
  bottom: "inception_4d/5x5_reduce"
  top: "inception_4d/5x5"
  param {
    lr_mult: 1
    decay_mult: 1
  }
  param {
    lr_mult: 2
    decay_mult: 0
  }
  convolution_param {
    num_output: 64
    pad: 2
    kernel_size: 5
    weight_filler {
      type: "xavier"
      std: 0.03
    }
    bias_filler {
      type: "constant"
      value: 0.2
    }
  }
}
layer {
  name: "inception_4d/relu_5x5"
  type: "ReLU"
  bottom: "inception_4d/5x5"
  top: "inception_4d/5x5"
}
layer {
  name: "inception_4d/pool"
  type: "Pooling"
  bottom: "inception_4c/output"
  top: "inception_4d/pool"
  pooling_param {
    pool: MAX
    kernel_size: 3
    stride: 1
    pad: 1
  }
}
layer {
  name: "inception_4d/pool_proj"
  type: "Convolution"
  bottom: "inception_4d/pool"
  top: "inception_4d/pool_proj"
  param {
    lr_mult: 1
    decay_mult: 1
  }
  param {
    lr_mult: 2
    decay_mult: 0
  }
  convolution_param {
    num_output: 64
    kernel_size: 1
    weight_filler {
      type: "xavier"
      std: 0.1
    }
    bias_filler {
      type: "constant"
      value: 0.2
    }
  }
}
layer {
  name: "inception_4d/relu_pool_proj"
  type: "ReLU"
  bottom: "inception_4d/pool_proj"
  top: "inception_4d/pool_proj"
}
layer {
  name: "inception_4d/output"
  type: "Concat"
  bottom: "inception_4d/1x1"
  bottom: "inception_4d/3x3"
  bottom: "inception_4d/5x5"
  bottom: "inception_4d/pool_proj"
  top: "inception_4d/output"
}
layer {
  name: "loss2/ave_pool"
  type: "Pooling"
  bottom: "inception_4d/output"
  top: "loss2/ave_pool"
  pooling_param {
    pool: AVE
    kernel_size: 5
    stride: 3
  }
}
layer {
  name: "loss2/conv"
  type: "Convolution"
  bottom: "loss2/ave_pool"
  top: "loss2/conv"
  param {
    lr_mult: 1
    decay_mult: 1
  }
  param {
    lr_mult: 2
    decay_mult: 0
  }
  convolution_param {
    num_output: 128
    kernel_size: 1
    weight_filler {
      type: "xavier"
      std: 0.08
    }
    bias_filler {
      type: "constant"
      value: 0.2
    }
  }
}
layer {
  name: "loss2/relu_conv"
  type: "ReLU"
  bottom: "loss2/conv"
  top: "loss2/conv"
}
layer {
  name: "loss2/fc"
  type: "InnerProduct"
  bottom: "loss2/conv"
  top: "loss2/fc"
  param {
    lr_mult: 1
    decay_mult: 1
  }
  param {
    lr_mult: 2
    decay_mult: 0
  }
  inner_product_param {
    num_output: 1024
    weight_filler {
      type: "xavier"
      std: 0.02
    }
    bias_filler {
      type: "constant"
      value: 0.2
    }
  }
}
layer {
  name: "loss2/relu_fc"
  type: "ReLU"
  bottom: "loss2/fc"
  top: "loss2/fc"
}
layer {
  name: "loss2/drop_fc"
  type: "Dropout"
  bottom: "loss2/fc"
  top: "loss2/fc"
  dropout_param {
    dropout_ratio: 0.7
  }
}
layer {
  name: "loss2/classifier_plantvillage"
  type: "InnerProduct"
  bottom: "loss2/fc"
  top: "loss2/classifier_plantvillage"
  param {
    lr_mult: 1
    decay_mult: 1
  }
  param {
    lr_mult: 2
    decay_mult: 0
  }
  inner_product_param {
    num_output: 38
    weight_filler {
      type: "xavier"
      std: 0.0009765625
    }
    bias_filler {
      type: "constant"
      value: 0
    }
  }
}
layer {
  name: "inception_4e/1x1"
  type: "Convolution"
  bottom: "inception_4d/output"
  top: "inception_4e/1x1"
  param {
    lr_mult: 1
    decay_mult: 1
  }
  param {
    lr_mult: 2
    decay_mult: 0
  }
  convolution_param {
    num_output: 256
    kernel_size: 1
    weight_filler {
      type: "xavier"
      std: 0.03
    }
    bias_filler {
      type: "constant"
      value: 0.2
    }
  }
}
layer {
  name: "inception_4e/relu_1x1"
  type: "ReLU"
  bottom: "inception_4e/1x1"
  top: "inception_4e/1x1"
}
layer {
  name: "inception_4e/3x3_reduce"
  type: "Convolution"
  bottom: "inception_4d/output"
  top: "inception_4e/3x3_reduce"
  param {
    lr_mult: 1
    decay_mult: 1
  }
  param {
    lr_mult: 2
    decay_mult: 0
  }
  convolution_param {
    num_output: 160
    kernel_size: 1
    weight_filler {
      type: "xavier"
      std: 0.09
    }
    bias_filler {
      type: "constant"
      value: 0.2
    }
  }
}
layer {
  name: "inception_4e/relu_3x3_reduce"
  type: "ReLU"
  bottom: "inception_4e/3x3_reduce"
  top: "inception_4e/3x3_reduce"
}
layer {
  name: "inception_4e/3x3"
  type: "Convolution"
  bottom: "inception_4e/3x3_reduce"
  top: "inception_4e/3x3"
  param {
    lr_mult: 1
    decay_mult: 1
  }
  param {
    lr_mult: 2
    decay_mult: 0
  }
  convolution_param {
    num_output: 320
    pad: 1
    kernel_size: 3
    weight_filler {
      type: "xavier"
      std: 0.03
    }
    bias_filler {
      type: "constant"
      value: 0.2
    }
  }
}
layer {
  name: "inception_4e/relu_3x3"
  type: "ReLU"
  bottom: "inception_4e/3x3"
  top: "inception_4e/3x3"
}
layer {
  name: "inception_4e/5x5_reduce"
  type: "Convolution"
  bottom: "inception_4d/output"
  top: "inception_4e/5x5_reduce"
  param {
    lr_mult: 1
    decay_mult: 1
  }
  param {
    lr_mult: 2
    decay_mult: 0
  }
  convolution_param {
    num_output: 32
    kernel_size: 1
    weight_filler {
      type: "xavier"
      std: 0.2
    }
    bias_filler {
      type: "constant"
      value: 0.2
    }
  }
}
layer {
  name: "inception_4e/relu_5x5_reduce"
  type: "ReLU"
  bottom: "inception_4e/5x5_reduce"
  top: "inception_4e/5x5_reduce"
}
layer {
  name: "inception_4e/5x5"
  type: "Convolution"
  bottom: "inception_4e/5x5_reduce"
  top: "inception_4e/
I0403 17:51:53.571723 15277 layer_factory.hpp:77] Creating layer data
I0403 17:51:53.572293 15277 net.cpp:91] Creating Layer data
I0403 17:51:53.572325 15277 net.cpp:399] data -> data
I0403 17:51:53.572376 15277 net.cpp:399] data -> label
I0403 17:51:53.572410 15277 data_transformer.cpp:25] Loading mean file from: /home/mohanty/data/final_dataset/lmdb/grayscale-60-40/mean.binaryproto
I0403 17:51:53.573541 15280 db_lmdb.cpp:38] Opened lmdb /home/mohanty/data/final_dataset/lmdb/grayscale-60-40/test_db
I0403 17:51:53.585336 15277 data_layer.cpp:41] output data size: 24,3,224,224
I0403 17:51:53.611661 15277 net.cpp:141] Setting up data
I0403 17:51:53.611738 15277 net.cpp:148] Top shape: 24 3 224 224 (3612672)
I0403 17:51:53.611760 15277 net.cpp:148] Top shape: 24 (24)
I0403 17:51:53.611775 15277 net.cpp:156] Memory required for data: 14450784
I0403 17:51:53.611802 15277 layer_factory.hpp:77] Creating layer label_data_1_split
I0403 17:51:53.611829 15277 net.cpp:91] Creating Layer label_data_1_split
I0403 17:51:53.611846 15277 net.cpp:425] label_data_1_split <- label
I0403 17:51:53.611876 15277 net.cpp:399] label_data_1_split -> label_data_1_split_0
I0403 17:51:53.611904 15277 net.cpp:399] label_data_1_split -> label_data_1_split_1
I0403 17:51:53.611927 15277 net.cpp:399] label_data_1_split -> label_data_1_split_2
I0403 17:51:53.611951 15277 net.cpp:399] label_data_1_split -> label_data_1_split_3
I0403 17:51:53.611973 15277 net.cpp:399] label_data_1_split -> label_data_1_split_4
I0403 17:51:53.611992 15277 net.cpp:399] label_data_1_split -> label_data_1_split_5
I0403 17:51:53.612011 15277 net.cpp:399] label_data_1_split -> label_data_1_split_6
I0403 17:51:53.612032 15277 net.cpp:399] label_data_1_split -> label_data_1_split_7
I0403 17:51:53.612052 15277 net.cpp:399] label_data_1_split -> label_data_1_split_8
I0403 17:51:53.612072 15277 net.cpp:399] label_data_1_split -> label_data_1_split_9
I0403 17:51:53.612185 15277 net.cpp:141] Setting up label_data_1_split
I0403 17:51:53.612207 15277 net.cpp:148] Top shape: 24 (24)
I0403 17:51:53.612226 15277 net.cpp:148] Top shape: 24 (24)
I0403 17:51:53.612241 15277 net.cpp:148] Top shape: 24 (24)
I0403 17:51:53.612257 15277 net.cpp:148] Top shape: 24 (24)
I0403 17:51:53.612272 15277 net.cpp:148] Top shape: 24 (24)
I0403 17:51:53.612288 15277 net.cpp:148] Top shape: 24 (24)
I0403 17:51:53.612303 15277 net.cpp:148] Top shape: 24 (24)
I0403 17:51:53.612319 15277 net.cpp:148] Top shape: 24 (24)
I0403 17:51:53.612334 15277 net.cpp:148] Top shape: 24 (24)
I0403 17:51:53.612351 15277 net.cpp:148] Top shape: 24 (24)
I0403 17:51:53.612403 15277 net.cpp:156] Memory required for data: 14451744
I0403 17:51:53.612419 15277 layer_factory.hpp:77] Creating layer conv1/7x7_s2
I0403 17:51:53.612452 15277 net.cpp:91] Creating Layer conv1/7x7_s2
I0403 17:51:53.612469 15277 net.cpp:425] conv1/7x7_s2 <- data
I0403 17:51:53.612488 15277 net.cpp:399] conv1/7x7_s2 -> conv1/7x7_s2
I0403 17:51:53.753244 15277 net.cpp:141] Setting up conv1/7x7_s2
I0403 17:51:53.753331 15277 net.cpp:148] Top shape: 24 64 112 112 (19267584)
I0403 17:51:53.753348 15277 net.cpp:156] Memory required for data: 91522080
I0403 17:51:53.753379 15277 layer_factory.hpp:77] Creating layer conv1/relu_7x7
I0403 17:51:53.753407 15277 net.cpp:91] Creating Layer conv1/relu_7x7
I0403 17:51:53.753425 15277 net.cpp:425] conv1/relu_7x7 <- conv1/7x7_s2
I0403 17:51:53.753444 15277 net.cpp:386] conv1/relu_7x7 -> conv1/7x7_s2 (in-place)
I0403 17:51:53.753692 15277 net.cpp:141] Setting up conv1/relu_7x7
I0403 17:51:53.753720 15277 net.cpp:148] Top shape: 24 64 112 112 (19267584)
I0403 17:51:53.753734 15277 net.cpp:156] Memory required for data: 168592416
I0403 17:51:53.753751 15277 layer_factory.hpp:77] Creating layer pool1/3x3_s2
I0403 17:51:53.753775 15277 net.cpp:91] Creating Layer pool1/3x3_s2
I0403 17:51:53.753793 15277 net.cpp:425] pool1/3x3_s2 <- conv1/7x7_s2
I0403 17:51:53.753811 15277 net.cpp:399] pool1/3x3_s2 -> pool1/3x3_s2
I0403 17:51:53.753885 15277 net.cpp:141] Setting up pool1/3x3_s2
I0403 17:51:53.753909 15277 net.cpp:148] Top shape: 24 64 56 56 (4816896)
I0403 17:51:53.753927 15277 net.cpp:156] Memory required for data: 187860000
I0403 17:51:53.753942 15277 layer_factory.hpp:77] Creating layer pool1/norm1
I0403 17:51:53.753971 15277 net.cpp:91] Creating Layer pool1/norm1
I0403 17:51:53.753989 15277 net.cpp:425] pool1/norm1 <- pool1/3x3_s2
I0403 17:51:53.754007 15277 net.cpp:399] pool1/norm1 -> pool1/norm1
I0403 17:51:53.754283 15277 net.cpp:141] Setting up pool1/norm1
I0403 17:51:53.754309 15277 net.cpp:148] Top shape: 24 64 56 56 (4816896)
I0403 17:51:53.754325 15277 net.cpp:156] Memory required for data: 207127584
I0403 17:51:53.754341 15277 layer_factory.hpp:77] Creating layer conv2/3x3_reduce
I0403 17:51:53.754365 15277 net.cpp:91] Creating Layer conv2/3x3_reduce
I0403 17:51:53.754382 15277 net.cpp:425] conv2/3x3_reduce <- pool1/norm1
I0403 17:51:53.754400 15277 net.cpp:399] conv2/3x3_reduce -> conv2/3x3_reduce
I0403 17:51:53.755710 15277 net.cpp:141] Setting up conv2/3x3_reduce
I0403 17:51:53.755739 15277 net.cpp:148] Top shape: 24 64 56 56 (4816896)
I0403 17:51:53.755755 15277 net.cpp:156] Memory required for data: 226395168
I0403 17:51:53.755776 15277 layer_factory.hpp:77] Creating layer conv2/relu_3x3_reduce
I0403 17:51:53.755795 15277 net.cpp:91] Creating Layer conv2/relu_3x3_reduce
I0403 17:51:53.755811 15277 net.cpp:425] conv2/relu_3x3_reduce <- conv2/3x3_reduce
I0403 17:51:53.755830 15277 net.cpp:386] conv2/relu_3x3_reduce -> conv2/3x3_reduce (in-place)
I0403 17:51:53.756083 15277 net.cpp:141] Setting up conv2/relu_3x3_reduce
I0403 17:51:53.756108 15277 net.cpp:148] Top shape: 24 64 56 56 (4816896)
I0403 17:51:53.756124 15277 net.cpp:156] Memory required for data: 245662752
I0403 17:51:53.756139 15277 layer_factory.hpp:77] Creating layer conv2/3x3
I0403 17:51:53.756161 15277 net.cpp:91] Creating Layer conv2/3x3
I0403 17:51:53.756178 15277 net.cpp:425] conv2/3x3 <- conv2/3x3_reduce
I0403 17:51:53.756197 15277 net.cpp:399] conv2/3x3 -> conv2/3x3
I0403 17:51:53.758395 15277 net.cpp:141] Setting up conv2/3x3
I0403 17:51:53.758425 15277 net.cpp:148] Top shape: 24 192 56 56 (14450688)
I0403 17:51:53.758442 15277 net.cpp:156] Memory required for data: 303465504
I0403 17:51:53.758463 15277 layer_factory.hpp:77] Creating layer conv2/relu_3x3
I0403 17:51:53.758482 15277 net.cpp:91] Creating Layer conv2/relu_3x3
I0403 17:51:53.758498 15277 net.cpp:425] conv2/relu_3x3 <- conv2/3x3
I0403 17:51:53.758515 15277 net.cpp:386] conv2/relu_3x3 -> conv2/3x3 (in-place)
I0403 17:51:53.758671 15277 net.cpp:141] Setting up conv2/relu_3x3
I0403 17:51:53.758695 15277 net.cpp:148] Top shape: 24 192 56 56 (14450688)
I0403 17:51:53.758734 15277 net.cpp:156] Memory required for data: 361268256
I0403 17:51:53.758750 15277 layer_factory.hpp:77] Creating layer conv2/norm2
I0403 17:51:53.758769 15277 net.cpp:91] Creating Layer conv2/norm2
I0403 17:51:53.758786 15277 net.cpp:425] conv2/norm2 <- conv2/3x3
I0403 17:51:53.758805 15277 net.cpp:399] conv2/norm2 -> conv2/norm2
I0403 17:51:53.759091 15277 net.cpp:141] Setting up conv2/norm2
I0403 17:51:53.759117 15277 net.cpp:148] Top shape: 24 192 56 56 (14450688)
I0403 17:51:53.759133 15277 net.cpp:156] Memory required for data: 419071008
I0403 17:51:53.759148 15277 layer_factory.hpp:77] Creating layer pool2/3x3_s2
I0403 17:51:53.759166 15277 net.cpp:91] Creating Layer pool2/3x3_s2
I0403 17:51:53.759183 15277 net.cpp:425] pool2/3x3_s2 <- conv2/norm2
I0403 17:51:53.759202 15277 net.cpp:399] pool2/3x3_s2 -> pool2/3x3_s2
I0403 17:51:53.759249 15277 net.cpp:141] Setting up pool2/3x3_s2
I0403 17:51:53.759271 15277 net.cpp:148] Top shape: 24 192 28 28 (3612672)
I0403 17:51:53.759286 15277 net.cpp:156] Memory required for data: 433521696
I0403 17:51:53.759302 15277 layer_factory.hpp:77] Creating layer pool2/3x3_s2_pool2/3x3_s2_0_split
I0403 17:51:53.759320 15277 net.cpp:91] Creating Layer pool2/3x3_s2_pool2/3x3_s2_0_split
I0403 17:51:53.759336 15277 net.cpp:425] pool2/3x3_s2_pool2/3x3_s2_0_split <- pool2/3x3_s2
I0403 17:51:53.759354 15277 net.cpp:399] pool2/3x3_s2_pool2/3x3_s2_0_split -> pool2/3x3_s2_pool2/3x3_s2_0_split_0
I0403 17:51:53.759373 15277 net.cpp:399] pool2/3x3_s2_pool2/3x3_s2_0_split -> pool2/3x3_s2_pool2/3x3_s2_0_split_1
I0403 17:51:53.759392 15277 net.cpp:399] pool2/3x3_s2_pool2/3x3_s2_0_split -> pool2/3x3_s2_pool2/3x3_s2_0_split_2
I0403 17:51:53.759412 15277 net.cpp:399] pool2/3x3_s2_pool2/3x3_s2_0_split -> pool2/3x3_s2_pool2/3x3_s2_0_split_3
I0403 17:51:53.759474 15277 net.cpp:141] Setting up pool2/3x3_s2_pool2/3x3_s2_0_split
I0403 17:51:53.759496 15277 net.cpp:148] Top shape: 24 192 28 28 (3612672)
I0403 17:51:53.759513 15277 net.cpp:148] Top shape: 24 192 28 28 (3612672)
I0403 17:51:53.759529 15277 net.cpp:148] Top shape: 24 192 28 28 (3612672)
I0403 17:51:53.759544 15277 net.cpp:148] Top shape: 24 192 28 28 (3612672)
I0403 17:51:53.759559 15277 net.cpp:156] Memory required for data: 491324448
I0403 17:51:53.759573 15277 layer_factory.hpp:77] Creating layer inception_3a/1x1
I0403 17:51:53.759594 15277 net.cpp:91] Creating Layer inception_3a/1x1
I0403 17:51:53.759611 15277 net.cpp:425] inception_3a/1x1 <- pool2/3x3_s2_pool2/3x3_s2_0_split_0
I0403 17:51:53.759630 15277 net.cpp:399] inception_3a/1x1 -> inception_3a/1x1
I0403 17:51:53.761059 15277 net.cpp:141] Setting up inception_3a/1x1
I0403 17:51:53.761088 15277 net.cpp:148] Top shape: 24 64 28 28 (1204224)
I0403 17:51:53.761104 15277 net.cpp:156] Memory required for data: 496141344
I0403 17:51:53.761123 15277 layer_factory.hpp:77] Creating layer inception_3a/relu_1x1
I0403 17:51:53.761142 15277 net.cpp:91] Creating Layer inception_3a/relu_1x1
I0403 17:51:53.761158 15277 net.cpp:425] inception_3a/relu_1x1 <- inception_3a/1x1
I0403 17:51:53.761176 15277 net.cpp:386] inception_3a/relu_1x1 -> inception_3a/1x1 (in-place)
I0403 17:51:53.761343 15277 net.cpp:141] Setting up inception_3a/relu_1x1
I0403 17:51:53.761368 15277 net.cpp:148] Top shape: 24 64 28 28 (1204224)
I0403 17:51:53.761382 15277 net.cpp:156] Memory required for data: 500958240
I0403 17:51:53.761397 15277 layer_factory.hpp:77] Creating layer inception_3a/3x3_reduce
I0403 17:51:53.761422 15277 net.cpp:91] Creating Layer inception_3a/3x3_reduce
I0403 17:51:53.761440 15277 net.cpp:425] inception_3a/3x3_reduce <- pool2/3x3_s2_pool2/3x3_s2_0_split_1
I0403 17:51:53.761459 15277 net.cpp:399] inception_3a/3x3_reduce -> inception_3a/3x3_reduce
I0403 17:51:53.763134 15277 net.cpp:141] Setting up inception_3a/3x3_reduce
I0403 17:51:53.763162 15277 net.cpp:148] Top shape: 24 96 28 28 (1806336)
I0403 17:51:53.763180 15277 net.cpp:156] Memory required for data: 508183584
I0403 17:51:53.763201 15277 layer_factory.hpp:77] Creating layer inception_3a/relu_3x3_reduce
I0403 17:51:53.763238 15277 net.cpp:91] Creating Layer inception_3a/relu_3x3_reduce
I0403 17:51:53.763257 15277 net.cpp:425] inception_3a/relu_3x3_reduce <- inception_3a/3x3_reduce
I0403 17:51:53.763276 15277 net.cpp:386] inception_3a/relu_3x3_reduce -> inception_3a/3x3_reduce (in-place)
I0403 17:51:53.763455 15277 net.cpp:141] Setting up inception_3a/relu_3x3_reduce
I0403 17:51:53.763480 15277 net.cpp:148] Top shape: 24 96 28 28 (1806336)
I0403 17:51:53.763495 15277 net.cpp:156] Memory required for data: 515408928
I0403 17:51:53.763510 15277 layer_factory.hpp:77] Creating layer inception_3a/3x3
I0403 17:51:53.763532 15277 net.cpp:91] Creating Layer inception_3a/3x3
I0403 17:51:53.763551 15277 net.cpp:425] inception_3a/3x3 <- inception_3a/3x3_reduce
I0403 17:51:53.763573 15277 net.cpp:399] inception_3a/3x3 -> inception_3a/3x3
I0403 17:51:53.765204 15277 net.cpp:141] Setting up inception_3a/3x3
I0403 17:51:53.765233 15277 net.cpp:148] Top shape: 24 128 28 28 (2408448)
I0403 17:51:53.765249 15277 net.cpp:156] Memory required for data: 525042720
I0403 17:51:53.765266 15277 layer_factory.hpp:77] Creating layer inception_3a/relu_3x3
I0403 17:51:53.765287 15277 net.cpp:91] Creating Layer inception_3a/relu_3x3
I0403 17:51:53.765303 15277 net.cpp:425] inception_3a/relu_3x3 <- inception_3a/3x3
I0403 17:51:53.765321 15277 net.cpp:386] inception_3a/relu_3x3 -> inception_3a/3x3 (in-place)
I0403 17:51:53.765590 15277 net.cpp:141] Setting up inception_3a/relu_3x3
I0403 17:51:53.765616 15277 net.cpp:148] Top shape: 24 128 28 28 (2408448)
I0403 17:51:53.765631 15277 net.cpp:156] Memory required for data: 534676512
I0403 17:51:53.765646 15277 layer_factory.hpp:77] Creating layer inception_3a/5x5_reduce
I0403 17:51:53.765669 15277 net.cpp:91] Creating Layer inception_3a/5x5_reduce
I0403 17:51:53.765686 15277 net.cpp:425] inception_3a/5x5_reduce <- pool2/3x3_s2_pool2/3x3_s2_0_split_2
I0403 17:51:53.765708 15277 net.cpp:399] inception_3a/5x5_reduce -> inception_3a/5x5_reduce
I0403 17:51:53.766649 15277 net.cpp:141] Setting up inception_3a/5x5_reduce
I0403 17:51:53.766680 15277 net.cpp:148] Top shape: 24 16 28 28 (301056)
I0403 17:51:53.766697 15277 net.cpp:156] Memory required for data: 535880736
I0403 17:51:53.766716 15277 layer_factory.hpp:77] Creating layer inception_3a/relu_5x5_reduce
I0403 17:51:53.766734 15277 net.cpp:91] Creating Layer inception_3a/relu_5x5_reduce
I0403 17:51:53.766751 15277 net.cpp:425] inception_3a/relu_5x5_reduce <- inception_3a/5x5_reduce
I0403 17:51:53.766767 15277 net.cpp:386] inception_3a/relu_5x5_reduce -> inception_3a/5x5_reduce (in-place)
I0403 17:51:53.767063 15277 net.cpp:141] Setting up inception_3a/relu_5x5_reduce
I0403 17:51:53.767091 15277 net.cpp:148] Top shape: 24 16 28 28 (301056)
I0403 17:51:53.767107 15277 net.cpp:156] Memory required for data: 537084960
I0403 17:51:53.767122 15277 layer_factory.hpp:77] Creating layer inception_3a/5x5
I0403 17:51:53.767144 15277 net.cpp:91] Creating Layer inception_3a/5x5
I0403 17:51:53.767163 15277 net.cpp:425] inception_3a/5x5 <- inception_3a/5x5_reduce
I0403 17:51:53.767184 15277 net.cpp:399] inception_3a/5x5 -> inception_3a/5x5
I0403 17:51:53.768182 15277 net.cpp:141] Setting up inception_3a/5x5
I0403 17:51:53.768220 15277 net.cpp:148] Top shape: 24 32 28 28 (602112)
I0403 17:51:53.768236 15277 net.cpp:156] Memory required for data: 539493408
I0403 17:51:53.768255 15277 layer_factory.hpp:77] Creating layer inception_3a/relu_5x5
I0403 17:51:53.768276 15277 net.cpp:91] Creating Layer inception_3a/relu_5x5
I0403 17:51:53.768295 15277 net.cpp:425] inception_3a/relu_5x5 <- inception_3a/5x5
I0403 17:51:53.768311 15277 net.cpp:386] inception_3a/relu_5x5 -> inception_3a/5x5 (in-place)
I0403 17:51:53.768483 15277 net.cpp:141] Setting up inception_3a/relu_5x5
I0403 17:51:53.768509 15277 net.cpp:148] Top shape: 24 32 28 28 (602112)
I0403 17:51:53.768524 15277 net.cpp:156] Memory required for data: 541901856
I0403 17:51:53.768539 15277 layer_factory.hpp:77] Creating layer inception_3a/pool
I0403 17:51:53.768556 15277 net.cpp:91] Creating Layer inception_3a/pool
I0403 17:51:53.768586 15277 net.cpp:425] inception_3a/pool <- pool2/3x3_s2_pool2/3x3_s2_0_split_3
I0403 17:51:53.768609 15277 net.cpp:399] inception_3a/pool -> inception_3a/pool
I0403 17:51:53.768666 15277 net.cpp:141] Setting up inception_3a/pool
I0403 17:51:53.768688 15277 net.cpp:148] Top shape: 24 192 28 28 (3612672)
I0403 17:51:53.768703 15277 net.cpp:156] Memory required for data: 556352544
I0403 17:51:53.768718 15277 layer_factory.hpp:77] Creating layer inception_3a/pool_proj
I0403 17:51:53.768740 15277 net.cpp:91] Creating Layer inception_3a/pool_proj
I0403 17:51:53.768759 15277 net.cpp:425] inception_3a/pool_proj <- inception_3a/pool
I0403 17:51:53.768780 15277 net.cpp:399] inception_3a/pool_proj -> inception_3a/pool_proj
I0403 17:51:53.769727 15277 net.cpp:141] Setting up inception_3a/pool_proj
I0403 17:51:53.769755 15277 net.cpp:148] Top shape: 24 32 28 28 (602112)
I0403 17:51:53.769770 15277 net.cpp:156] Memory required for data: 558760992
I0403 17:51:53.769794 15277 layer_factory.hpp:77] Creating layer inception_3a/relu_pool_proj
I0403 17:51:53.769814 15277 net.cpp:91] Creating Layer inception_3a/relu_pool_proj
I0403 17:51:53.769831 15277 net.cpp:425] inception_3a/relu_pool_proj <- inception_3a/pool_proj
I0403 17:51:53.769850 15277 net.cpp:386] inception_3a/relu_pool_proj -> inception_3a/pool_proj (in-place)
I0403 17:51:53.770125 15277 net.cpp:141] Setting up inception_3a/relu_pool_proj
I0403 17:51:53.770153 15277 net.cpp:148] Top shape: 24 32 28 28 (602112)
I0403 17:51:53.770167 15277 net.cpp:156] Memory required for data: 561169440
I0403 17:51:53.770182 15277 layer_factory.hpp:77] Creating layer inception_3a/output
I0403 17:51:53.770202 15277 net.cpp:91] Creating Layer inception_3a/output
I0403 17:51:53.770220 15277 net.cpp:425] inception_3a/output <- inception_3a/1x1
I0403 17:51:53.770237 15277 net.cpp:425] inception_3a/output <- inception_3a/3x3
I0403 17:51:53.770252 15277 net.cpp:425] inception_3a/output <- inception_3a/5x5
I0403 17:51:53.770267 15277 net.cpp:425] inception_3a/output <- inception_3a/pool_proj
I0403 17:51:53.770284 15277 net.cpp:399] inception_3a/output -> inception_3a/output
I0403 17:51:53.770331 15277 net.cpp:141] Setting up inception_3a/output
I0403 17:51:53.770354 15277 net.cpp:148] Top shape: 24 256 28 28 (4816896)
I0403 17:51:53.770370 15277 net.cpp:156] Memory required for data: 580437024
I0403 17:51:53.770385 15277 layer_factory.hpp:77] Creating layer inception_3a/output_inception_3a/output_0_split
I0403 17:51:53.770401 15277 net.cpp:91] Creating Layer inception_3a/output_inception_3a/output_0_split
I0403 17:51:53.770416 15277 net.cpp:425] inception_3a/output_inception_3a/output_0_split <- inception_3a/output
I0403 17:51:53.770437 15277 net.cpp:399] inception_3a/output_inception_3a/output_0_split -> inception_3a/output_inception_3a/output_0_split_0
I0403 17:51:53.770457 15277 net.cpp:399] inception_3a/output_inception_3a/output_0_split -> inception_3a/output_inception_3a/output_0_split_1
I0403 17:51:53.770480 15277 net.cpp:399] inception_3a/output_inception_3a/output_0_split -> inception_3a/output_inception_3a/output_0_split_2
I0403 17:51:53.770503 15277 net.cpp:399] inception_3a/output_inception_3a/output_0_split -> inception_3a/output_inception_3a/output_0_split_3
I0403 17:51:53.770576 15277 net.cpp:141] Setting up inception_3a/output_inception_3a/output_0_split
I0403 17:51:53.770599 15277 net.cpp:148] Top shape: 24 256 28 28 (4816896)
I0403 17:51:53.770617 15277 net.cpp:148] Top shape: 24 256 28 28 (4816896)
I0403 17:51:53.770633 15277 net.cpp:148] Top shape: 24 256 28 28 (4816896)
I0403 17:51:53.770649 15277 net.cpp:148] Top shape: 24 256 28 28 (4816896)
I0403 17:51:53.770663 15277 net.cpp:156] Memory required for data: 657507360
I0403 17:51:53.770678 15277 layer_factory.hpp:77] Creating layer inception_3b/1x1
I0403 17:51:53.770699 15277 net.cpp:91] Creating Layer inception_3b/1x1
I0403 17:51:53.770716 15277 net.cpp:425] inception_3b/1x1 <- inception_3a/output_inception_3a/output_0_split_0
I0403 17:51:53.770737 15277 net.cpp:399] inception_3b/1x1 -> inception_3b/1x1
I0403 17:51:53.771857 15277 net.cpp:141] Setting up inception_3b/1x1
I0403 17:51:53.771898 15277 net.cpp:148] Top shape: 24 128 28 28 (2408448)
I0403 17:51:53.771914 15277 net.cpp:156] Memory required for data: 667141152
I0403 17:51:53.771932 15277 layer_factory.hpp:77] Creating layer inception_3b/relu_1x1
I0403 17:51:53.771957 15277 net.cpp:91] Creating Layer inception_3b/relu_1x1
I0403 17:51:53.771975 15277 net.cpp:425] inception_3b/relu_1x1 <- inception_3b/1x1
I0403 17:51:53.771993 15277 net.cpp:386] inception_3b/relu_1x1 -> inception_3b/1x1 (in-place)
I0403 17:51:53.772163 15277 net.cpp:141] Setting up inception_3b/relu_1x1
I0403 17:51:53.772188 15277 net.cpp:148] Top shape: 24 128 28 28 (2408448)
I0403 17:51:53.772203 15277 net.cpp:156] Memory required for data: 676774944
I0403 17:51:53.772218 15277 layer_factory.hpp:77] Creating layer inception_3b/3x3_reduce
I0403 17:51:53.772240 15277 net.cpp:91] Creating Layer inception_3b/3x3_reduce
I0403 17:51:53.772258 15277 net.cpp:425] inception_3b/3x3_reduce <- inception_3a/output_inception_3a/output_0_split_1
I0403 17:51:53.772279 15277 net.cpp:399] inception_3b/3x3_reduce -> inception_3b/3x3_reduce
I0403 17:51:53.773404 15277 net.cpp:141] Setting up inception_3b/3x3_reduce
I0403 17:51:53.773432 15277 net.cpp:148] Top shape: 24 128 28 28 (2408448)
I0403 17:51:53.773447 15277 net.cpp:156] Memory required for data: 686408736
I0403 17:51:53.773466 15277 layer_factory.hpp:77] Creating layer inception_3b/relu_3x3_reduce
I0403 17:51:53.773486 15277 net.cpp:91] Creating Layer inception_3b/relu_3x3_reduce
I0403 17:51:53.773504 15277 net.cpp:425] inception_3b/relu_3x3_reduce <- inception_3b/3x3_reduce
I0403 17:51:53.773521 15277 net.cpp:386] inception_3b/relu_3x3_reduce -> inception_3b/3x3_reduce (in-place)
I0403 17:51:53.773696 15277 net.cpp:141] Setting up inception_3b/relu_3x3_reduce
I0403 17:51:53.773720 15277 net.cpp:148] Top shape: 24 128 28 28 (2408448)
I0403 17:51:53.773736 15277 net.cpp:156] Memory required for data: 696042528
I0403 17:51:53.773749 15277 layer_factory.hpp:77] Creating layer inception_3b/3x3
I0403 17:51:53.773775 15277 net.cpp:91] Creating Layer inception_3b/3x3
I0403 17:51:53.773793 15277 net.cpp:425] inception_3b/3x3 <- inception_3b/3x3_reduce
I0403 17:51:53.773813 15277 net.cpp:399] inception_3b/3x3 -> inception_3b/3x3
I0403 17:51:53.776684 15277 net.cpp:141] Setting up inception_3b/3x3
I0403 17:51:53.776713 15277 net.cpp:148] Top shape: 24 192 28 28 (3612672)
I0403 17:51:53.776729 15277 net.cpp:156] Memory required for data: 710493216
I0403 17:51:53.776747 15277 layer_factory.hpp:77] Creating layer inception_3b/relu_3x3
I0403 17:51:53.776767 15277 net.cpp:91] Creating Layer inception_3b/relu_3x3
I0403 17:51:53.776785 15277 net.cpp:425] inception_3b/relu_3x3 <- inception_3b/3x3
I0403 17:51:53.776803 15277 net.cpp:386] inception_3b/relu_3x3 -> inception_3b/3x3 (in-place)
I0403 17:51:53.777083 15277 net.cpp:141] Setting up inception_3b/relu_3x3
I0403 17:51:53.777113 15277 net.cpp:148] Top shape: 24 192 28 28 (3612672)
I0403 17:51:53.777129 15277 net.cpp:156] Memory required for data: 724943904
I0403 17:51:53.777144 15277 layer_factory.hpp:77] Creating layer inception_3b/5x5_reduce
I0403 17:51:53.777168 15277 net.cpp:91] Creating Layer inception_3b/5x5_reduce
I0403 17:51:53.777184 15277 net.cpp:425] inception_3b/5x5_reduce <- inception_3a/output_inception_3a/output_0_split_2
I0403 17:51:53.777206 15277 net.cpp:399] inception_3b/5x5_reduce -> inception_3b/5x5_reduce
I0403 17:51:53.778249 15277 net.cpp:141] Setting up inception_3b/5x5_reduce
I0403 17:51:53.778290 15277 net.cpp:148] Top shape: 24 32 28 28 (602112)
I0403 17:51:53.778307 15277 net.cpp:156] Memory required for data: 727352352
I0403 17:51:53.778326 15277 layer_factory.hpp:77] Creating layer inception_3b/relu_5x5_reduce
I0403 17:51:53.778347 15277 net.cpp:91] Creating Layer inception_3b/relu_5x5_reduce
I0403 17:51:53.778364 15277 net.cpp:425] inception_3b/relu_5x5_reduce <- inception_3b/5x5_reduce
I0403 17:51:53.778383 15277 net.cpp:386] inception_3b/relu_5x5_reduce -> inception_3b/5x5_reduce (in-place)
I0403 17:51:53.778589 15277 net.cpp:141] Setting up inception_3b/relu_5x5_reduce
I0403 17:51:53.778616 15277 net.cpp:148] Top shape: 24 32 28 28 (602112)
I0403 17:51:53.778632 15277 net.cpp:156] Memory required for data: 729760800
I0403 17:51:53.778647 15277 layer_factory.hpp:77] Creating layer inception_3b/5x5
I0403 17:51:53.778669 15277 net.cpp:91] Creating Layer inception_3b/5x5
I0403 17:51:53.778687 15277 net.cpp:425] inception_3b/5x5 <- inception_3b/5x5_reduce
I0403 17:51:53.778707 15277 net.cpp:399] inception_3b/5x5 -> inception_3b/5x5
I0403 17:51:53.780660 15277 net.cpp:141] Setting up inception_3b/5x5
I0403 17:51:53.780689 15277 net.cpp:148] Top shape: 24 96 28 28 (1806336)
I0403 17:51:53.780704 15277 net.cpp:156] Memory required for data: 736986144
I0403 17:51:53.780724 15277 layer_factory.hpp:77] Creating layer inception_3b/relu_5x5
I0403 17:51:53.780743 15277 net.cpp:91] Creating Layer inception_3b/relu_5x5
I0403 17:51:53.780761 15277 net.cpp:425] inception_3b/relu_5x5 <- inception_3b/5x5
I0403 17:51:53.780778 15277 net.cpp:386] inception_3b/relu_5x5 -> inception_3b/5x5 (in-place)
I0403 17:51:53.780973 15277 net.cpp:141] Setting up inception_3b/relu_5x5
I0403 17:51:53.780999 15277 net.cpp:148] Top shape: 24 96 28 28 (1806336)
I0403 17:51:53.781014 15277 net.cpp:156] Memory required for data: 744211488
I0403 17:51:53.781029 15277 layer_factory.hpp:77] Creating layer inception_3b/pool
I0403 17:51:53.781047 15277 net.cpp:91] Creating Layer inception_3b/pool
I0403 17:51:53.781064 15277 net.cpp:425] inception_3b/pool <- inception_3a/output_inception_3a/output_0_split_3
I0403 17:51:53.781083 15277 net.cpp:399] inception_3b/pool -> inception_3b/pool
I0403 17:51:53.781138 15277 net.cpp:141] Setting up inception_3b/pool
I0403 17:51:53.781162 15277 net.cpp:148] Top shape: 24 256 28 28 (4816896)
I0403 17:51:53.781177 15277 net.cpp:156] Memory required for data: 763479072
I0403 17:51:53.781191 15277 layer_factory.hpp:77] Creating layer inception_3b/pool_proj
I0403 17:51:53.781215 15277 net.cpp:91] Creating Layer inception_3b/pool_proj
I0403 17:51:53.781234 15277 net.cpp:425] inception_3b/pool_proj <- inception_3b/pool
I0403 17:51:53.781255 15277 net.cpp:399] inception_3b/pool_proj -> inception_3b/pool_proj
I0403 17:51:53.782349 15277 net.cpp:141] Setting up inception_3b/pool_proj
I0403 17:51:53.782380 15277 net.cpp:148] Top shape: 24 64 28 28 (1204224)
I0403 17:51:53.782397 15277 net.cpp:156] Memory required for data: 768295968
I0403 17:51:53.782416 15277 layer_factory.hpp:77] Creating layer inception_3b/relu_pool_proj
I0403 17:51:53.782435 15277 net.cpp:91] Creating Layer inception_3b/relu_pool_proj
I0403 17:51:53.782454 15277 net.cpp:425] inception_3b/relu_pool_proj <- inception_3b/pool_proj
I0403 17:51:53.782474 15277 net.cpp:386] inception_3b/relu_pool_proj -> inception_3b/pool_proj (in-place)
I0403 17:51:53.782871 15277 net.cpp:141] Setting up inception_3b/relu_pool_proj
I0403 17:51:53.782901 15277 net.cpp:148] Top shape: 24 64 28 28 (1204224)
I0403 17:51:53.782917 15277 net.cpp:156] Memory required for data: 773112864
I0403 17:51:53.782933 15277 layer_factory.hpp:77] Creating layer inception_3b/output
I0403 17:51:53.782955 15277 net.cpp:91] Creating Layer inception_3b/output
I0403 17:51:53.782974 15277 net.cpp:425] inception_3b/output <- inception_3b/1x1
I0403 17:51:53.782990 15277 net.cpp:425] inception_3b/output <- inception_3b/3x3
I0403 17:51:53.783006 15277 net.cpp:425] inception_3b/output <- inception_3b/5x5
I0403 17:51:53.783022 15277 net.cpp:425] inception_3b/output <- inception_3b/pool_proj
I0403 17:51:53.783041 15277 net.cpp:399] inception_3b/output -> inception_3b/output
I0403 17:51:53.783087 15277 net.cpp:141] Setting up inception_3b/output
I0403 17:51:53.783110 15277 net.cpp:148] Top shape: 24 480 28 28 (9031680)
I0403 17:51:53.783126 15277 net.cpp:156] Memory required for data: 809239584
I0403 17:51:53.783141 15277 layer_factory.hpp:77] Creating layer pool3/3x3_s2
I0403 17:51:53.783161 15277 net.cpp:91] Creating Layer pool3/3x3_s2
I0403 17:51:53.783179 15277 net.cpp:425] pool3/3x3_s2 <- inception_3b/output
I0403 17:51:53.783212 15277 net.cpp:399] pool3/3x3_s2 -> pool3/3x3_s2
I0403 17:51:53.783274 15277 net.cpp:141] Setting up pool3/3x3_s2
I0403 17:51:53.783298 15277 net.cpp:148] Top shape: 24 480 14 14 (2257920)
I0403 17:51:53.783313 15277 net.cpp:156] Memory required for data: 818271264
I0403 17:51:53.783329 15277 layer_factory.hpp:77] Creating layer pool3/3x3_s2_pool3/3x3_s2_0_split
I0403 17:51:53.783346 15277 net.cpp:91] Creating Layer pool3/3x3_s2_pool3/3x3_s2_0_split
I0403 17:51:53.783362 15277 net.cpp:425] pool3/3x3_s2_pool3/3x3_s2_0_split <- pool3/3x3_s2
I0403 17:51:53.783382 15277 net.cpp:399] pool3/3x3_s2_pool3/3x3_s2_0_split -> pool3/3x3_s2_pool3/3x3_s2_0_split_0
I0403 17:51:53.783403 15277 net.cpp:399] pool3/3x3_s2_pool3/3x3_s2_0_split -> pool3/3x3_s2_pool3/3x3_s2_0_split_1
I0403 17:51:53.783423 15277 net.cpp:399] pool3/3x3_s2_pool3/3x3_s2_0_split -> pool3/3x3_s2_pool3/3x3_s2_0_split_2
I0403 17:51:53.783443 15277 net.cpp:399] pool3/3x3_s2_pool3/3x3_s2_0_split -> pool3/3x3_s2_pool3/3x3_s2_0_split_3
I0403 17:51:53.783522 15277 net.cpp:141] Setting up pool3/3x3_s2_pool3/3x3_s2_0_split
I0403 17:51:53.783548 15277 net.cpp:148] Top shape: 24 480 14 14 (2257920)
I0403 17:51:53.783566 15277 net.cpp:148] Top shape: 24 480 14 14 (2257920)
I0403 17:51:53.783582 15277 net.cpp:148] Top shape: 24 480 14 14 (2257920)
I0403 17:51:53.783598 15277 net.cpp:148] Top shape: 24 480 14 14 (2257920)
I0403 17:51:53.783612 15277 net.cpp:156] Memory required for data: 854397984
I0403 17:51:53.783627 15277 layer_factory.hpp:77] Creating layer inception_4a/1x1
I0403 17:51:53.783653 15277 net.cpp:91] Creating Layer inception_4a/1x1
I0403 17:51:53.783670 15277 net.cpp:425] inception_4a/1x1 <- pool3/3x3_s2_pool3/3x3_s2_0_split_0
I0403 17:51:53.783690 15277 net.cpp:399] inception_4a/1x1 -> inception_4a/1x1
I0403 17:51:53.785290 15277 net.cpp:141] Setting up inception_4a/1x1
I0403 17:51:53.785322 15277 net.cpp:148] Top shape: 24 192 14 14 (903168)
I0403 17:51:53.785339 15277 net.cpp:156] Memory required for data: 858010656
I0403 17:51:53.785358 15277 layer_factory.hpp:77] Creating layer inception_4a/relu_1x1
I0403 17:51:53.785378 15277 net.cpp:91] Creating Layer inception_4a/relu_1x1
I0403 17:51:53.785395 15277 net.cpp:425] inception_4a/relu_1x1 <- inception_4a/1x1
I0403 17:51:53.785415 15277 net.cpp:386] inception_4a/relu_1x1 -> inception_4a/1x1 (in-place)
I0403 17:51:53.785595 15277 net.cpp:141] Setting up inception_4a/relu_1x1
I0403 17:51:53.785620 15277 net.cpp:148] Top shape: 24 192 14 14 (903168)
I0403 17:51:53.785635 15277 net.cpp:156] Memory required for data: 861623328
I0403 17:51:53.785651 15277 layer_factory.hpp:77] Creating layer inception_4a/3x3_reduce
I0403 17:51:53.785675 15277 net.cpp:91] Creating Layer inception_4a/3x3_reduce
I0403 17:51:53.785692 15277 net.cpp:425] inception_4a/3x3_reduce <- pool3/3x3_s2_pool3/3x3_s2_0_split_1
I0403 17:51:53.785714 15277 net.cpp:399] inception_4a/3x3_reduce -> inception_4a/3x3_reduce
I0403 17:51:53.787045 15277 net.cpp:141] Setting up inception_4a/3x3_reduce
I0403 17:51:53.787072 15277 net.cpp:148] Top shape: 24 96 14 14 (451584)
I0403 17:51:53.787088 15277 net.cpp:156] Memory required for data: 863429664
I0403 17:51:53.787111 15277 layer_factory.hpp:77] Creating layer inception_4a/relu_3x3_reduce
I0403 17:51:53.787134 15277 net.cpp:91] Creating Layer inception_4a/relu_3x3_reduce
I0403 17:51:53.787153 15277 net.cpp:425] inception_4a/relu_3x3_reduce <- inception_4a/3x3_reduce
I0403 17:51:53.787173 15277 net.cpp:386] inception_4a/relu_3x3_reduce -> inception_4a/3x3_reduce (in-place)
I0403 17:51:53.787353 15277 net.cpp:141] Setting up inception_4a/relu_3x3_reduce
I0403 17:51:53.787379 15277 net.cpp:148] Top shape: 24 96 14 14 (451584)
I0403 17:51:53.787394 15277 net.cpp:156] Memory required for data: 865236000
I0403 17:51:53.787408 15277 layer_factory.hpp:77] Creating layer inception_4a/3x3
I0403 17:51:53.787431 15277 net.cpp:91] Creating Layer inception_4a/3x3
I0403 17:51:53.787449 15277 net.cpp:425] inception_4a/3x3 <- inception_4a/3x3_reduce
I0403 17:51:53.787472 15277 net.cpp:399] inception_4a/3x3 -> inception_4a/3x3
I0403 17:51:53.790215 15277 net.cpp:141] Setting up inception_4a/3x3
I0403 17:51:53.790243 15277 net.cpp:148] Top shape: 24 208 14 14 (978432)
I0403 17:51:53.790261 15277 net.cpp:156] Memory required for data: 869149728
I0403 17:51:53.790279 15277 layer_factory.hpp:77] Creating layer inception_4a/relu_3x3
I0403 17:51:53.790300 15277 net.cpp:91] Creating Layer inception_4a/relu_3x3
I0403 17:51:53.790318 15277 net.cpp:425] inception_4a/relu_3x3 <- inception_4a/3x3
I0403 17:51:53.790336 15277 net.cpp:386] inception_4a/relu_3x3 -> inception_4a/3x3 (in-place)
I0403 17:51:53.790618 15277 net.cpp:141] Setting up inception_4a/relu_3x3
I0403 17:51:53.790645 15277 net.cpp:148] Top shape: 24 208 14 14 (978432)
I0403 17:51:53.790662 15277 net.cpp:156] Memory required for data: 873063456
I0403 17:51:53.790678 15277 layer_factory.hpp:77] Creating layer inception_4a/5x5_reduce
I0403 17:51:53.790701 15277 net.cpp:91] Creating Layer inception_4a/5x5_reduce
I0403 17:51:53.790719 15277 net.cpp:425] inception_4a/5x5_reduce <- pool3/3x3_s2_pool3/3x3_s2_0_split_2
I0403 17:51:53.790741 15277 net.cpp:399] inception_4a/5x5_reduce -> inception_4a/5x5_reduce
I0403 17:51:53.791792 15277 net.cpp:141] Setting up inception_4a/5x5_reduce
I0403 17:51:53.791821 15277 net.cpp:148] Top shape: 24 16 14 14 (75264)
I0403 17:51:53.791837 15277 net.cpp:156] Memory required for data: 873364512
I0403 17:51:53.791857 15277 layer_factory.hpp:77] Creating layer inception_4a/relu_5x5_reduce
I0403 17:51:53.791877 15277 net.cpp:91] Creating Layer inception_4a/relu_5x5_reduce
I0403 17:51:53.791895 15277 net.cpp:425] inception_4a/relu_5x5_reduce <- inception_4a/5x5_reduce
I0403 17:51:53.791913 15277 net.cpp:386] inception_4a/relu_5x5_reduce -> inception_4a/5x5_reduce (in-place)
I0403 17:51:53.792101 15277 net.cpp:141] Setting up inception_4a/relu_5x5_reduce
I0403 17:51:53.792129 15277 net.cpp:148] Top shape: 24 16 14 14 (75264)
I0403 17:51:53.792145 15277 net.cpp:156] Memory required for data: 873665568
I0403 17:51:53.792161 15277 layer_factory.hpp:77] Creating layer inception_4a/5x5
I0403 17:51:53.792186 15277 net.cpp:91] Creating Layer inception_4a/5x5
I0403 17:51:53.792204 15277 net.cpp:425] inception_4a/5x5 <- inception_4a/5x5_reduce
I0403 17:51:53.792224 15277 net.cpp:399] inception_4a/5x5 -> inception_4a/5x5
I0403 17:51:53.793339 15277 net.cpp:141] Setting up inception_4a/5x5
I0403 17:51:53.793370 15277 net.cpp:148] Top shape: 24 48 14 14 (225792)
I0403 17:51:53.793387 15277 net.cpp:156] Memory required for data: 874568736
I0403 17:51:53.793406 15277 layer_factory.hpp:77] Creating layer inception_4a/relu_5x5
I0403 17:51:53.793426 15277 net.cpp:91] Creating Layer inception_4a/relu_5x5
I0403 17:51:53.793442 15277 net.cpp:425] inception_4a/relu_5x5 <- inception_4a/5x5
I0403 17:51:53.793460 15277 net.cpp:386] inception_4a/relu_5x5 -> inception_4a/5x5 (in-place)
I0403 17:51:53.793647 15277 net.cpp:141] Setting up inception_4a/relu_5x5
I0403 17:51:53.793673 15277 net.cpp:148] Top shape: 24 48 14 14 (225792)
I0403 17:51:53.793687 15277 net.cpp:156] Memory required for data: 875471904
I0403 17:51:53.793704 15277 layer_factory.hpp:77] Creating layer inception_4a/pool
I0403 17:51:53.793721 15277 net.cpp:91] Creating Layer inception_4a/pool
I0403 17:51:53.793740 15277 net.cpp:425] inception_4a/pool <- pool3/3x3_s2_pool3/3x3_s2_0_split_3
I0403 17:51:53.793761 15277 net.cpp:399] inception_4a/pool -> inception_4a/pool
I0403 17:51:53.793823 15277 net.cpp:141] Setting up inception_4a/pool
I0403 17:51:53.793848 15277 net.cpp:148] Top shape: 24 480 14 14 (2257920)
I0403 17:51:53.793864 15277 net.cpp:156] Memory required for data: 884503584
I0403 17:51:53.793879 15277 layer_factory.hpp:77] Creating layer inception_4a/pool_proj
I0403 17:51:53.793901 15277 net.cpp:91] Creating Layer inception_4a/pool_proj
I0403 17:51:53.793921 15277 net.cpp:425] inception_4a/pool_proj <- inception_4a/pool
I0403 17:51:53.793941 15277 net.cpp:399] inception_4a/pool_proj -> inception_4a/pool_proj
I0403 17:51:53.795181 15277 net.cpp:141] Setting up inception_4a/pool_proj
I0403 17:51:53.795210 15277 net.cpp:148] Top shape: 24 64 14 14 (301056)
I0403 17:51:53.795240 15277 net.cpp:156] Memory required for data: 885707808
I0403 17:51:53.795260 15277 layer_factory.hpp:77] Creating layer inception_4a/relu_pool_proj
I0403 17:51:53.795280 15277 net.cpp:91] Creating Layer inception_4a/relu_pool_proj
I0403 17:51:53.795297 15277 net.cpp:425] inception_4a/relu_pool_proj <- inception_4a/pool_proj
I0403 17:51:53.795318 15277 net.cpp:386] inception_4a/relu_pool_proj -> inception_4a/pool_proj (in-place)
I0403 17:51:53.795609 15277 net.cpp:141] Setting up inception_4a/relu_pool_proj
I0403 17:51:53.795636 15277 net.cpp:148] Top shape: 24 64 14 14 (301056)
I0403 17:51:53.795652 15277 net.cpp:156] Memory required for data: 886912032
I0403 17:51:53.795668 15277 layer_factory.hpp:77] Creating layer inception_4a/output
I0403 17:51:53.795686 15277 net.cpp:91] Creating Layer inception_4a/output
I0403 17:51:53.795702 15277 net.cpp:425] inception_4a/output <- inception_4a/1x1
I0403 17:51:53.795719 15277 net.cpp:425] inception_4a/output <- inception_4a/3x3
I0403 17:51:53.795737 15277 net.cpp:425] inception_4a/output <- inception_4a/5x5
I0403 17:51:53.795753 15277 net.cpp:425] inception_4a/output <- inception_4a/pool_proj
I0403 17:51:53.795773 15277 net.cpp:399] inception_4a/output -> inception_4a/output
I0403 17:51:53.795819 15277 net.cpp:141] Setting up inception_4a/output
I0403 17:51:53.795842 15277 net.cpp:148] Top shape: 24 512 14 14 (2408448)
I0403 17:51:53.795863 15277 net.cpp:156] Memory required for data: 896545824
I0403 17:51:53.795879 15277 layer_factory.hpp:77] Creating layer inception_4a/output_inception_4a/output_0_split
I0403 17:51:53.795897 15277 net.cpp:91] Creating Layer inception_4a/output_inception_4a/output_0_split
I0403 17:51:53.795914 15277 net.cpp:425] inception_4a/output_inception_4a/output_0_split <- inception_4a/output
I0403 17:51:53.795933 15277 net.cpp:399] inception_4a/output_inception_4a/output_0_split -> inception_4a/output_inception_4a/output_0_split_0
I0403 17:51:53.795958 15277 net.cpp:399] inception_4a/output_inception_4a/output_0_split -> inception_4a/output_inception_4a/output_0_split_1
I0403 17:51:53.795984 15277 net.cpp:399] inception_4a/output_inception_4a/output_0_split -> inception_4a/output_inception_4a/output_0_split_2
I0403 17:51:53.796006 15277 net.cpp:399] inception_4a/output_inception_4a/output_0_split -> inception_4a/output_inception_4a/output_0_split_3
I0403 17:51:53.796027 15277 net.cpp:399] inception_4a/output_inception_4a/output_0_split -> inception_4a/output_inception_4a/output_0_split_4
I0403 17:51:53.796121 15277 net.cpp:141] Setting up inception_4a/output_inception_4a/output_0_split
I0403 17:51:53.796145 15277 net.cpp:148] Top shape: 24 512 14 14 (2408448)
I0403 17:51:53.796162 15277 net.cpp:148] Top shape: 24 512 14 14 (2408448)
I0403 17:51:53.796178 15277 net.cpp:148] Top shape: 24 512 14 14 (2408448)
I0403 17:51:53.796195 15277 net.cpp:148] Top shape: 24 512 14 14 (2408448)
I0403 17:51:53.796211 15277 net.cpp:148] Top shape: 24 512 14 14 (2408448)
I0403 17:51:53.796226 15277 net.cpp:156] Memory required for data: 944714784
I0403 17:51:53.796241 15277 layer_factory.hpp:77] Creating layer loss1/ave_pool
I0403 17:51:53.796262 15277 net.cpp:91] Creating Layer loss1/ave_pool
I0403 17:51:53.796279 15277 net.cpp:425] loss1/ave_pool <- inception_4a/output_inception_4a/output_0_split_0
I0403 17:51:53.796298 15277 net.cpp:399] loss1/ave_pool -> loss1/ave_pool
I0403 17:51:53.796507 15277 net.cpp:141] Setting up loss1/ave_pool
I0403 17:51:53.796533 15277 net.cpp:148] Top shape: 24 512 4 4 (196608)
I0403 17:51:53.796550 15277 net.cpp:156] Memory required for data: 945501216
I0403 17:51:53.796566 15277 layer_factory.hpp:77] Creating layer loss1/conv
I0403 17:51:53.796588 15277 net.cpp:91] Creating Layer loss1/conv
I0403 17:51:53.796607 15277 net.cpp:425] loss1/conv <- loss1/ave_pool
I0403 17:51:53.796628 15277 net.cpp:399] loss1/conv -> loss1/conv
I0403 17:51:53.798068 15277 net.cpp:141] Setting up loss1/conv
I0403 17:51:53.798096 15277 net.cpp:148] Top shape: 24 128 4 4 (49152)
I0403 17:51:53.798126 15277 net.cpp:156] Memory required for data: 945697824
I0403 17:51:53.798146 15277 layer_factory.hpp:77] Creating layer loss1/relu_conv
I0403 17:51:53.798168 15277 net.cpp:91] Creating Layer loss1/relu_conv
I0403 17:51:53.798185 15277 net.cpp:425] loss1/relu_conv <- loss1/conv
I0403 17:51:53.798203 15277 net.cpp:386] loss1/relu_conv -> loss1/conv (in-place)
I0403 17:51:53.798492 15277 net.cpp:141] Setting up loss1/relu_conv
I0403 17:51:53.798518 15277 net.cpp:148] Top shape: 24 128 4 4 (49152)
I0403 17:51:53.798534 15277 net.cpp:156] Memory required for data: 945894432
I0403 17:51:53.798550 15277 layer_factory.hpp:77] Creating layer loss1/fc
I0403 17:51:53.798576 15277 net.cpp:91] Creating Layer loss1/fc
I0403 17:51:53.798595 15277 net.cpp:425] loss1/fc <- loss1/conv
I0403 17:51:53.798614 15277 net.cpp:399] loss1/fc -> loss1/fc
I0403 17:51:53.816402 15277 net.cpp:141] Setting up loss1/fc
I0403 17:51:53.816437 15277 net.cpp:148] Top shape: 24 1024 (24576)
I0403 17:51:53.816452 15277 net.cpp:156] Memory required for data: 945992736
I0403 17:51:53.816471 15277 layer_factory.hpp:77] Creating layer loss1/relu_fc
I0403 17:51:53.816490 15277 net.cpp:91] Creating Layer loss1/relu_fc
I0403 17:51:53.816506 15277 net.cpp:425] loss1/relu_fc <- loss1/fc
I0403 17:51:53.816526 15277 net.cpp:386] loss1/relu_fc -> loss1/fc (in-place)
I0403 17:51:53.816715 15277 net.cpp:141] Setting up loss1/relu_fc
I0403 17:51:53.816740 15277 net.cpp:148] Top shape: 24 1024 (24576)
I0403 17:51:53.816754 15277 net.cpp:156] Memory required for data: 946091040
I0403 17:51:53.816769 15277 layer_factory.hpp:77] Creating layer loss1/drop_fc
I0403 17:51:53.816797 15277 net.cpp:91] Creating Layer loss1/drop_fc
I0403 17:51:53.816815 15277 net.cpp:425] loss1/drop_fc <- loss1/fc
I0403 17:51:53.816833 15277 net.cpp:386] loss1/drop_fc -> loss1/fc (in-place)
I0403 17:51:53.816884 15277 net.cpp:141] Setting up loss1/drop_fc
I0403 17:51:53.816910 15277 net.cpp:148] Top shape: 24 1024 (24576)
I0403 17:51:53.816926 15277 net.cpp:156] Memory required for data: 946189344
I0403 17:51:53.816942 15277 layer_factory.hpp:77] Creating layer loss1/classifier_plantvillage
I0403 17:51:53.816965 15277 net.cpp:91] Creating Layer loss1/classifier_plantvillage
I0403 17:51:53.816982 15277 net.cpp:425] loss1/classifier_plantvillage <- loss1/fc
I0403 17:51:53.817003 15277 net.cpp:399] loss1/classifier_plantvillage -> loss1/classifier_plantvillage
I0403 17:51:53.817903 15277 net.cpp:141] Setting up loss1/classifier_plantvillage
I0403 17:51:53.817932 15277 net.cpp:148] Top shape: 24 38 (912)
I0403 17:51:53.817958 15277 net.cpp:156] Memory required for data: 946192992
I0403 17:51:53.817981 15277 layer_factory.hpp:77] Creating layer loss1/classifier_plantvillage_loss1/classifier_plantvillage_0_split
I0403 17:51:53.817998 15277 net.cpp:91] Creating Layer loss1/classifier_plantvillage_loss1/classifier_plantvillage_0_split
I0403 17:51:53.818016 15277 net.cpp:425] loss1/classifier_plantvillage_loss1/classifier_plantvillage_0_split <- loss1/classifier_plantvillage
I0403 17:51:53.818037 15277 net.cpp:399] loss1/classifier_plantvillage_loss1/classifier_plantvillage_0_split -> loss1/classifier_plantvillage_loss1/classifier_plantvillage_0_split_0
I0403 17:51:53.818058 15277 net.cpp:399] loss1/classifier_plantvillage_loss1/classifier_plantvillage_0_split -> loss1/classifier_plantvillage_loss1/classifier_plantvillage_0_split_1
I0403 17:51:53.818078 15277 net.cpp:399] loss1/classifier_plantvillage_loss1/classifier_plantvillage_0_split -> loss1/classifier_plantvillage_loss1/classifier_plantvillage_0_split_2
I0403 17:51:53.818145 15277 net.cpp:141] Setting up loss1/classifier_plantvillage_loss1/classifier_plantvillage_0_split
I0403 17:51:53.818168 15277 net.cpp:148] Top shape: 24 38 (912)
I0403 17:51:53.818186 15277 net.cpp:148] Top shape: 24 38 (912)
I0403 17:51:53.818214 15277 net.cpp:148] Top shape: 24 38 (912)
I0403 17:51:53.818229 15277 net.cpp:156] Memory required for data: 946203936
I0403 17:51:53.818245 15277 layer_factory.hpp:77] Creating layer inception_4b/1x1
I0403 17:51:53.818266 15277 net.cpp:91] Creating Layer inception_4b/1x1
I0403 17:51:53.818301 15277 net.cpp:425] inception_4b/1x1 <- inception_4a/output_inception_4a/output_0_split_1
I0403 17:51:53.818322 15277 net.cpp:399] inception_4b/1x1 -> inception_4b/1x1
I0403 17:51:53.819978 15277 net.cpp:141] Setting up inception_4b/1x1
I0403 17:51:53.820006 15277 net.cpp:148] Top shape: 24 160 14 14 (752640)
I0403 17:51:53.820022 15277 net.cpp:156] Memory required for data: 949214496
I0403 17:51:53.820040 15277 layer_factory.hpp:77] Creating layer inception_4b/relu_1x1
I0403 17:51:53.820061 15277 net.cpp:91] Creating Layer inception_4b/relu_1x1
I0403 17:51:53.820080 15277 net.cpp:425] inception_4b/relu_1x1 <- inception_4b/1x1
I0403 17:51:53.820097 15277 net.cpp:386] inception_4b/relu_1x1 -> inception_4b/1x1 (in-place)
I0403 17:51:53.820277 15277 net.cpp:141] Setting up inception_4b/relu_1x1
I0403 17:51:53.820304 15277 net.cpp:148] Top shape: 24 160 14 14 (752640)
I0403 17:51:53.820319 15277 net.cpp:156] Memory required for data: 952225056
I0403 17:51:53.820334 15277 layer_factory.hpp:77] Creating layer inception_4b/3x3_reduce
I0403 17:51:53.820356 15277 net.cpp:91] Creating Layer inception_4b/3x3_reduce
I0403 17:51:53.820374 15277 net.cpp:425] inception_4b/3x3_reduce <- inception_4a/output_inception_4a/output_0_split_2
I0403 17:51:53.820394 15277 net.cpp:399] inception_4b/3x3_reduce -> inception_4b/3x3_reduce
I0403 17:51:53.821740 15277 net.cpp:141] Setting up inception_4b/3x3_reduce
I0403 17:51:53.821768 15277 net.cpp:148] Top shape: 24 112 14 14 (526848)
I0403 17:51:53.821784 15277 net.cpp:156] Memory required for data: 954332448
I0403 17:51:53.821802 15277 layer_factory.hpp:77] Creating layer inception_4b/relu_3x3_reduce
I0403 17:51:53.821825 15277 net.cpp:91] Creating Layer inception_4b/relu_3x3_reduce
I0403 17:51:53.821842 15277 net.cpp:425] inception_4b/relu_3x3_reduce <- inception_4b/3x3_reduce
I0403 17:51:53.821859 15277 net.cpp:386] inception_4b/relu_3x3_reduce -> inception_4b/3x3_reduce (in-place)
I0403 17:51:53.822147 15277 net.cpp:141] Setting up inception_4b/relu_3x3_reduce
I0403 17:51:53.822175 15277 net.cpp:148] Top shape: 24 112 14 14 (526848)
I0403 17:51:53.822190 15277 net.cpp:156] Memory required for data: 956439840
I0403 17:51:53.822204 15277 layer_factory.hpp:77] Creating layer inception_4b/3x3
I0403 17:51:53.822228 15277 net.cpp:91] Creating Layer inception_4b/3x3
I0403 17:51:53.822247 15277 net.cpp:425] inception_4b/3x3 <- inception_4b/3x3_reduce
I0403 17:51:53.822266 15277 net.cpp:399] inception_4b/3x3 -> inception_4b/3x3
I0403 17:51:53.825239 15277 net.cpp:141] Setting up inception_4b/3x3
I0403 17:51:53.825268 15277 net.cpp:148] Top shape: 24 224 14 14 (1053696)
I0403 17:51:53.825284 15277 net.cpp:156] Memory required for data: 960654624
I0403 17:51:53.825304 15277 layer_factory.hpp:77] Creating layer inception_4b/relu_3x3
I0403 17:51:53.825321 15277 net.cpp:91] Creating Layer inception_4b/relu_3x3
I0403 17:51:53.825337 15277 net.cpp:425] inception_4b/relu_3x3 <- inception_4b/3x3
I0403 17:51:53.825356 15277 net.cpp:386] inception_4b/relu_3x3 -> inception_4b/3x3 (in-place)
I0403 17:51:53.825536 15277 net.cpp:141] Setting up inception_4b/relu_3x3
I0403 17:51:53.825562 15277 net.cpp:148] Top shape: 24 224 14 14 (1053696)
I0403 17:51:53.825577 15277 net.cpp:156] Memory required for data: 964869408
I0403 17:51:53.825592 15277 layer_factory.hpp:77] Creating layer inception_4b/5x5_reduce
I0403 17:51:53.825613 15277 net.cpp:91] Creating Layer inception_4b/5x5_reduce
I0403 17:51:53.825630 15277 net.cpp:425] inception_4b/5x5_reduce <- inception_4a/output_inception_4a/output_0_split_3
I0403 17:51:53.825652 15277 net.cpp:399] inception_4b/5x5_reduce -> inception_4b/5x5_reduce
I0403 17:51:53.826758 15277 net.cpp:141] Setting up inception_4b/5x5_reduce
I0403 17:51:53.826786 15277 net.cpp:148] Top shape: 24 24 14 14 (112896)
I0403 17:51:53.826802 15277 net.cpp:156] Memory required for data: 965320992
I0403 17:51:53.826820 15277 layer_factory.hpp:77] Creating layer inception_4b/relu_5x5_reduce
I0403 17:51:53.826841 15277 net.cpp:91] Creating Layer inception_4b/relu_5x5_reduce
I0403 17:51:53.826871 15277 net.cpp:425] inception_4b/relu_5x5_reduce <- inception_4b/5x5_reduce
I0403 17:51:53.826889 15277 net.cpp:386] inception_4b/relu_5x5_reduce -> inception_4b/5x5_reduce (in-place)
I0403 17:51:53.827076 15277 net.cpp:141] Setting up inception_4b/relu_5x5_reduce
I0403 17:51:53.827103 15277 net.cpp:148] Top shape: 24 24 14 14 (112896)
I0403 17:51:53.827119 15277 net.cpp:156] Memory required for data: 965772576
I0403 17:51:53.827134 15277 layer_factory.hpp:77] Creating layer inception_4b/5x5
I0403 17:51:53.827159 15277 net.cpp:91] Creating Layer inception_4b/5x5
I0403 17:51:53.827178 15277 net.cpp:425] inception_4b/5x5 <- inception_4b/5x5_reduce
I0403 17:51:53.827198 15277 net.cpp:399] inception_4b/5x5 -> inception_4b/5x5
I0403 17:51:53.828425 15277 net.cpp:141] Setting up inception_4b/5x5
I0403 17:51:53.828452 15277 net.cpp:148] Top shape: 24 64 14 14 (301056)
I0403 17:51:53.828469 15277 net.cpp:156] Memory required for data: 966976800
I0403 17:51:53.828486 15277 layer_factory.hpp:77] Creating layer inception_4b/relu_5x5
I0403 17:51:53.828507 15277 net.cpp:91] Creating Layer inception_4b/relu_5x5
I0403 17:51:53.828526 15277 net.cpp:425] inception_4b/relu_5x5 <- inception_4b/5x5
I0403 17:51:53.828543 15277 net.cpp:386] inception_4b/relu_5x5 -> inception_4b/5x5 (in-place)
I0403 17:51:53.828826 15277 net.cpp:141] Setting up inception_4b/relu_5x5
I0403 17:51:53.828852 15277 net.cpp:148] Top shape: 24 64 14 14 (301056)
I0403 17:51:53.828867 15277 net.cpp:156] Memory required for data: 968181024
I0403 17:51:53.828883 15277 layer_factory.hpp:77] Creating layer inception_4b/pool
I0403 17:51:53.828903 15277 net.cpp:91] Creating Layer inception_4b/pool
I0403 17:51:53.828922 15277 net.cpp:425] inception_4b/pool <- inception_4a/output_inception_4a/output_0_split_4
I0403 17:51:53.828940 15277 net.cpp:399] inception_4b/pool -> inception_4b/pool
I0403 17:51:53.829008 15277 net.cpp:141] Setting up inception_4b/pool
I0403 17:51:53.829032 15277 net.cpp:148] Top shape: 24 512 14 14 (2408448)
I0403 17:51:53.829047 15277 net.cpp:156] Memory required for data: 977814816
I0403 17:51:53.829062 15277 layer_factory.hpp:77] Creating layer inception_4b/pool_proj
I0403 17:51:53.829084 15277 net.cpp:91] Creating Layer inception_4b/pool_proj
I0403 17:51:53.829102 15277 net.cpp:425] inception_4b/pool_proj <- inception_4b/pool
I0403 17:51:53.829123 15277 net.cpp:399] inception_4b/pool_proj -> inception_4b/pool_proj
I0403 17:51:53.830313 15277 net.cpp:141] Setting up inception_4b/pool_proj
I0403 17:51:53.830341 15277 net.cpp:148] Top shape: 24 64 14 14 (301056)
I0403 17:51:53.830358 15277 net.cpp:156] Memory required for data: 979019040
I0403 17:51:53.830375 15277 layer_factory.hpp:77] Creating layer inception_4b/relu_pool_proj
I0403 17:51:53.830399 15277 net.cpp:91] Creating Layer inception_4b/relu_pool_proj
I0403 17:51:53.830416 15277 net.cpp:425] inception_4b/relu_pool_proj <- inception_4b/pool_proj
I0403 17:51:53.830435 15277 net.cpp:386] inception_4b/relu_pool_proj -> inception_4b/pool_proj (in-place)
I0403 17:51:53.830613 15277 net.cpp:141] Setting up inception_4b/relu_pool_proj
I0403 17:51:53.830639 15277 net.cpp:148] Top shape: 24 64 14 14 (301056)
I0403 17:51:53.830656 15277 net.cpp:156] Memory required for data: 980223264
I0403 17:51:53.830670 15277 layer_factory.hpp:77] Creating layer inception_4b/output
I0403 17:51:53.830688 15277 net.cpp:91] Creating Layer inception_4b/output
I0403 17:51:53.830704 15277 net.cpp:425] inception_4b/output <- inception_4b/1x1
I0403 17:51:53.830720 15277 net.cpp:425] inception_4b/output <- inception_4b/3x3
I0403 17:51:53.830737 15277 net.cpp:425] inception_4b/output <- inception_4b/5x5
I0403 17:51:53.830754 15277 net.cpp:425] inception_4b/output <- inception_4b/pool_proj
I0403 17:51:53.830772 15277 net.cpp:399] inception_4b/output -> inception_4b/output
I0403 17:51:53.830818 15277 net.cpp:141] Setting up inception_4b/output
I0403 17:51:53.830842 15277 net.cpp:148] Top shape: 24 512 14 14 (2408448)
I0403 17:51:53.830857 15277 net.cpp:156] Memory required for data: 989857056
I0403 17:51:53.830888 15277 layer_factory.hpp:77] Creating layer inception_4b/output_inception_4b/output_0_split
I0403 17:51:53.830909 15277 net.cpp:91] Creating Layer inception_4b/output_inception_4b/output_0_split
I0403 17:51:53.830929 15277 net.cpp:425] inception_4b/output_inception_4b/output_0_split <- inception_4b/output
I0403 17:51:53.830951 15277 net.cpp:399] inception_4b/output_inception_4b/output_0_split -> inception_4b/output_inception_4b/output_0_split_0
I0403 17:51:53.830986 15277 net.cpp:399] inception_4b/output_inception_4b/output_0_split -> inception_4b/output_inception_4b/output_0_split_1
I0403 17:51:53.831007 15277 net.cpp:399] inception_4b/output_inception_4b/output_0_split -> inception_4b/output_inception_4b/output_0_split_2
I0403 17:51:53.831045 15277 net.cpp:399] inception_4b/output_inception_4b/output_0_split -> inception_4b/output_inception_4b/output_0_split_3
I0403 17:51:53.831136 15277 net.cpp:141] Setting up inception_4b/output_inception_4b/output_0_split
I0403 17:51:53.831161 15277 net.cpp:148] Top shape: 24 512 14 14 (2408448)
I0403 17:51:53.831178 15277 net.cpp:148] Top shape: 24 512 14 14 (2408448)
I0403 17:51:53.831195 15277 net.cpp:148] Top shape: 24 512 14 14 (2408448)
I0403 17:51:53.831212 15277 net.cpp:148] Top shape: 24 512 14 14 (2408448)
I0403 17:51:53.831228 15277 net.cpp:156] Memory required for data: 1028392224
I0403 17:51:53.831243 15277 layer_factory.hpp:77] Creating layer inception_4c/1x1
I0403 17:51:53.831266 15277 net.cpp:91] Creating Layer inception_4c/1x1
I0403 17:51:53.831285 15277 net.cpp:425] inception_4c/1x1 <- inception_4b/output_inception_4b/output_0_split_0
I0403 17:51:53.831320 15277 net.cpp:399] inception_4c/1x1 -> inception_4c/1x1
I0403 17:51:53.832792 15277 net.cpp:141] Setting up inception_4c/1x1
I0403 17:51:53.832824 15277 net.cpp:148] Top shape: 24 128 14 14 (602112)
I0403 17:51:53.832841 15277 net.cpp:156] Memory required for data: 1030800672
I0403 17:51:53.832860 15277 layer_factory.hpp:77] Creating layer inception_4c/relu_1x1
I0403 17:51:53.832880 15277 net.cpp:91] Creating Layer inception_4c/relu_1x1
I0403 17:51:53.832896 15277 net.cpp:425] inception_4c/relu_1x1 <- inception_4c/1x1
I0403 17:51:53.832917 15277 net.cpp:386] inception_4c/relu_1x1 -> inception_4c/1x1 (in-place)
I0403 17:51:53.833106 15277 net.cpp:141] Setting up inception_4c/relu_1x1
I0403 17:51:53.833132 15277 net.cpp:148] Top shape: 24 128 14 14 (602112)
I0403 17:51:53.833148 15277 net.cpp:156] Memory required for data: 1033209120
I0403 17:51:53.833163 15277 layer_factory.hpp:77] Creating layer inception_4c/3x3_reduce
I0403 17:51:53.833186 15277 net.cpp:91] Creating Layer inception_4c/3x3_reduce
I0403 17:51:53.833205 15277 net.cpp:425] inception_4c/3x3_reduce <- inception_4b/output_inception_4b/output_0_split_1
I0403 17:51:53.833227 15277 net.cpp:399] inception_4c/3x3_reduce -> inception_4c/3x3_reduce
I0403 17:51:53.835222 15277 net.cpp:141] Setting up inception_4c/3x3_reduce
I0403 17:51:53.835249 15277 net.cpp:148] Top shape: 24 128 14 14 (602112)
I0403 17:51:53.835265 15277 net.cpp:156] Memory required for data: 1035617568
I0403 17:51:53.835284 15277 layer_factory.hpp:77] Creating layer inception_4c/relu_3x3_reduce
I0403 17:51:53.835305 15277 net.cpp:91] Creating Layer inception_4c/relu_3x3_reduce
I0403 17:51:53.835322 15277 net.cpp:425] inception_4c/relu_3x3_reduce <- inception_4c/3x3_reduce
I0403 17:51:53.835340 15277 net.cpp:386] inception_4c/relu_3x3_reduce -> inception_4c/3x3_reduce (in-place)
I0403 17:51:53.835624 15277 net.cpp:141] Setting up inception_4c/relu_3x3_reduce
I0403 17:51:53.835651 15277 net.cpp:148] Top shape: 24 128 14 14 (602112)
I0403 17:51:53.835666 15277 net.cpp:156] Memory required for data: 1038026016
I0403 17:51:53.835681 15277 layer_factory.hpp:77] Creating layer inception_4c/3x3
I0403 17:51:53.835705 15277 net.cpp:91] Creating Layer inception_4c/3x3
I0403 17:51:53.835722 15277 net.cpp:425] inception_4c/3x3 <- inception_4c/3x3_reduce
I0403 17:51:53.835744 15277 net.cpp:399] inception_4c/3x3 -> inception_4c/3x3
I0403 17:51:53.839352 15277 net.cpp:141] Setting up inception_4c/3x3
I0403 17:51:53.839393 15277 net.cpp:148] Top shape: 24 256 14 14 (1204224)
I0403 17:51:53.839409 15277 net.cpp:156] Memory required for data: 1042842912
I0403 17:51:53.839443 15277 layer_factory.hpp:77] Creating layer inception_4c/relu_3x3
I0403 17:51:53.839467 15277 net.cpp:91] Creating Layer inception_4c/relu_3x3
I0403 17:51:53.839483 15277 net.cpp:425] inception_4c/relu_3x3 <- inception_4c/3x3
I0403 17:51:53.839501 15277 net.cpp:386] inception_4c/relu_3x3 -> inception_4c/3x3 (in-place)
I0403 17:51:53.839684 15277 net.cpp:141] Setting up inception_4c/relu_3x3
I0403 17:51:53.839707 15277 net.cpp:148] Top shape: 24 256 14 14 (1204224)
I0403 17:51:53.839722 15277 net.cpp:156] Memory required for data: 1047659808
I0403 17:51:53.839738 15277 layer_factory.hpp:77] Creating layer inception_4c/5x5_reduce
I0403 17:51:53.839761 15277 net.cpp:91] Creating Layer inception_4c/5x5_reduce
I0403 17:51:53.839781 15277 net.cpp:425] inception_4c/5x5_reduce <- inception_4b/output_inception_4b/output_0_split_2
I0403 17:51:53.839800 15277 net.cpp:399] inception_4c/5x5_reduce -> inception_4c/5x5_reduce
I0403 17:51:53.840895 15277 net.cpp:141] Setting up inception_4c/5x5_reduce
I0403 17:51:53.840924 15277 net.cpp:148] Top shape: 24 24 14 14 (112896)
I0403 17:51:53.840940 15277 net.cpp:156] Memory required for data: 1048111392
I0403 17:51:53.840963 15277 layer_factory.hpp:77] Creating layer inception_4c/relu_5x5_reduce
I0403 17:51:53.840986 15277 net.cpp:91] Creating Layer inception_4c/relu_5x5_reduce
I0403 17:51:53.841002 15277 net.cpp:425] inception_4c/relu_5x5_reduce <- inception_4c/5x5_reduce
I0403 17:51:53.841020 15277 net.cpp:386] inception_4c/relu_5x5_reduce -> inception_4c/5x5_reduce (in-place)
I0403 17:51:53.841200 15277 net.cpp:141] Setting up inception_4c/relu_5x5_reduce
I0403 17:51:53.841228 15277 net.cpp:148] Top shape: 24 24 14 14 (112896)
I0403 17:51:53.841243 15277 net.cpp:156] Memory required for data: 1048562976
I0403 17:51:53.841258 15277 layer_factory.hpp:77] Creating layer inception_4c/5x5
I0403 17:51:53.841279 15277 net.cpp:91] Creating Layer inception_4c/5x5
I0403 17:51:53.841297 15277 net.cpp:425] inception_4c/5x5 <- inception_4c/5x5_reduce
I0403 17:51:53.841317 15277 net.cpp:399] inception_4c/5x5 -> inception_4c/5x5
I0403 17:51:53.842586 15277 net.cpp:141] Setting up inception_4c/5x5
I0403 17:51:53.842615 15277 net.cpp:148] Top shape: 24 64 14 14 (301056)
I0403 17:51:53.842631 15277 net.cpp:156] Memory required for data: 1049767200
I0403 17:51:53.842649 15277 layer_factory.hpp:77] Creating layer inception_4c/relu_5x5
I0403 17:51:53.842667 15277 net.cpp:91] Creating Layer inception_4c/relu_5x5
I0403 17:51:53.842684 15277 net.cpp:425] inception_4c/relu_5x5 <- inception_4c/5x5
I0403 17:51:53.842705 15277 net.cpp:386] inception_4c/relu_5x5 -> inception_4c/5x5 (in-place)
I0403 17:51:53.842995 15277 net.cpp:141] Setting up inception_4c/relu_5x5
I0403 17:51:53.843024 15277 net.cpp:148] Top shape: 24 64 14 14 (301056)
I0403 17:51:53.843040 15277 net.cpp:156] Memory required for data: 1050971424
I0403 17:51:53.843055 15277 layer_factory.hpp:77] Creating layer inception_4c/pool
I0403 17:51:53.843073 15277 net.cpp:91] Creating Layer inception_4c/pool
I0403 17:51:53.843091 15277 net.cpp:425] inception_4c/pool <- inception_4b/output_inception_4b/output_0_split_3
I0403 17:51:53.843111 15277 net.cpp:399] inception_4c/pool -> inception_4c/pool
I0403 17:51:53.843189 15277 net.cpp:141] Setting up inception_4c/pool
I0403 17:51:53.843220 15277 net.cpp:148] Top shape: 24 512 14 14 (2408448)
I0403 17:51:53.843237 15277 net.cpp:156] Memory required for data: 1060605216
I0403 17:51:53.843260 15277 layer_factory.hpp:77] Creating layer inception_4c/pool_proj
I0403 17:51:53.843291 15277 net.cpp:91] Creating Layer inception_4c/pool_proj
I0403 17:51:53.843309 15277 net.cpp:425] inception_4c/pool_proj <- inception_4c/pool
I0403 17:51:53.843332 15277 net.cpp:399] inception_4c/pool_proj -> inception_4c/pool_proj
I0403 17:51:53.844583 15277 net.cpp:141] Setting up inception_4c/pool_proj
I0403 17:51:53.844611 15277 net.cpp:148] Top shape: 24 64 14 14 (301056)
I0403 17:51:53.844641 15277 net.cpp:156] Memory required for data: 1061809440
I0403 17:51:53.844662 15277 layer_factory.hpp:77] Creating layer inception_4c/relu_pool_proj
I0403 17:51:53.844686 15277 net.cpp:91] Creating Layer inception_4c/relu_pool_proj
I0403 17:51:53.844703 15277 net.cpp:425] inception_4c/relu_pool_proj <- inception_4c/pool_proj
I0403 17:51:53.844722 15277 net.cpp:386] inception_4c/relu_pool_proj -> inception_4c/pool_proj (in-place)
I0403 17:51:53.844907 15277 net.cpp:141] Setting up inception_4c/relu_pool_proj
I0403 17:51:53.844936 15277 net.cpp:148] Top shape: 24 64 14 14 (301056)
I0403 17:51:53.844956 15277 net.cpp:156] Memory required for data: 1063013664
I0403 17:51:53.844974 15277 layer_factory.hpp:77] Creating layer inception_4c/output
I0403 17:51:53.844991 15277 net.cpp:91] Creating Layer inception_4c/output
I0403 17:51:53.845007 15277 net.cpp:425] inception_4c/output <- inception_4c/1x1
I0403 17:51:53.845024 15277 net.cpp:425] inception_4c/output <- inception_4c/3x3
I0403 17:51:53.845041 15277 net.cpp:425] inception_4c/output <- inception_4c/5x5
I0403 17:51:53.845058 15277 net.cpp:425] inception_4c/output <- inception_4c/pool_proj
I0403 17:51:53.845077 15277 net.cpp:399] inception_4c/output -> inception_4c/output
I0403 17:51:53.845126 15277 net.cpp:141] Setting up inception_4c/output
I0403 17:51:53.845150 15277 net.cpp:148] Top shape: 24 512 14 14 (2408448)
I0403 17:51:53.845165 15277 net.cpp:156] Memory required for data: 1072647456
I0403 17:51:53.845181 15277 layer_factory.hpp:77] Creating layer inception_4c/output_inception_4c/output_0_split
I0403 17:51:53.845199 15277 net.cpp:91] Creating Layer inception_4c/output_inception_4c/output_0_split
I0403 17:51:53.845216 15277 net.cpp:425] inception_4c/output_inception_4c/output_0_split <- inception_4c/output
I0403 17:51:53.845235 15277 net.cpp:399] inception_4c/output_inception_4c/output_0_split -> inception_4c/output_inception_4c/output_0_split_0
I0403 17:51:53.845257 15277 net.cpp:399] inception_4c/output_inception_4c/output_0_split -> inception_4c/output_inception_4c/output_0_split_1
I0403 17:51:53.845278 15277 net.cpp:399] inception_4c/output_inception_4c/output_0_split -> inception_4c/output_inception_4c/output_0_split_2
I0403 17:51:53.845302 15277 net.cpp:399] inception_4c/output_inception_4c/output_0_split -> inception_4c/output_inception_4c/output_0_split_3
I0403 17:51:53.845391 15277 net.cpp:141] Setting up inception_4c/output_inception_4c/output_0_split
I0403 17:51:53.845415 15277 net.cpp:148] Top shape: 24 512 14 14 (2408448)
I0403 17:51:53.845432 15277 net.cpp:148] Top shape: 24 512 14 14 (2408448)
I0403 17:51:53.845448 15277 net.cpp:148] Top shape: 24 512 14 14 (2408448)
I0403 17:51:53.845464 15277 net.cpp:148] Top shape: 24 512 14 14 (2408448)
I0403 17:51:53.845479 15277 net.cpp:156] Memory required for data: 1111182624
I0403 17:51:53.845495 15277 layer_factory.hpp:77] Creating layer inception_4d/1x1
I0403 17:51:53.845518 15277 net.cpp:91] Creating Layer inception_4d/1x1
I0403 17:51:53.845537 15277 net.cpp:425] inception_4d/1x1 <- inception_4c/output_inception_4c/output_0_split_0
I0403 17:51:53.845561 15277 net.cpp:399] inception_4d/1x1 -> inception_4d/1x1
I0403 17:51:53.846974 15277 net.cpp:141] Setting up inception_4d/1x1
I0403 17:51:53.847003 15277 net.cpp:148] Top shape: 24 112 14 14 (526848)
I0403 17:51:53.847019 15277 net.cpp:156] Memory required for data: 1113290016
I0403 17:51:53.847038 15277 layer_factory.hpp:77] Creating layer inception_4d/relu_1x1
I0403 17:51:53.847057 15277 net.cpp:91] Creating Layer inception_4d/relu_1x1
I0403 17:51:53.847077 15277 net.cpp:425] inception_4d/relu_1x1 <- inception_4d/1x1
I0403 17:51:53.847095 15277 net.cpp:386] inception_4d/relu_1x1 -> inception_4d/1x1 (in-place)
I0403 17:51:53.847283 15277 net.cpp:141] Setting up inception_4d/relu_1x1
I0403 17:51:53.847308 15277 net.cpp:148] Top shape: 24 112 14 14 (526848)
I0403 17:51:53.847323 15277 net.cpp:156] Memory required for data: 1115397408
I0403 17:51:53.847338 15277 layer_factory.hpp:77] Creating layer inception_4d/3x3_reduce
I0403 17:51:53.847375 15277 net.cpp:91] Creating Layer inception_4d/3x3_reduce
I0403 17:51:53.847395 15277 net.cpp:425] inception_4d/3x3_reduce <- inception_4c/output_inception_4c/output_0_split_1
I0403 17:51:53.847417 15277 net.cpp:399] inception_4d/3x3_reduce -> inception_4d/3x3_reduce
I0403 17:51:53.848978 15277 net.cpp:141] Setting up inception_4d/3x3_reduce
I0403 17:51:53.849009 15277 net.cpp:148] Top shape: 24 144 14 14 (677376)
I0403 17:51:53.849026 15277 net.cpp:156] Memory required for data: 1118106912
I0403 17:51:53.849046 15277 layer_factory.hpp:77] Creating layer inception_4d/relu_3x3_reduce
I0403 17:51:53.849066 15277 net.cpp:91] Creating Layer inception_4d/relu_3x3_reduce
I0403 17:51:53.849082 15277 net.cpp:425] inception_4d/relu_3x3_reduce <- inception_4d/3x3_reduce
I0403 17:51:53.849102 15277 net.cpp:386] inception_4d/relu_3x3_reduce -> inception_4d/3x3_reduce (in-place)
I0403 17:51:53.849412 15277 net.cpp:141] Setting up inception_4d/relu_3x3_reduce
I0403 17:51:53.849442 15277 net.cpp:148] Top shape: 24 144 14 14 (677376)
I0403 17:51:53.849458 15277 net.cpp:156] Memory required for data: 1120816416
I0403 17:51:53.849485 15277 layer_factory.hpp:77] Creating layer inception_4d/3x3
I0403 17:51:53.849509 15277 net.cpp:91] Creating Layer inception_4d/3x3
I0403 17:51:53.849529 15277 net.cpp:425] inception_4d/3x3 <- inception_4d/3x3_reduce
I0403 17:51:53.849550 15277 net.cpp:399] inception_4d/3x3 -> inception_4d/3x3
I0403 17:51:53.853759 15277 net.cpp:141] Setting up inception_4d/3x3
I0403 17:51:53.853786 15277 net.cpp:148] Top shape: 24 288 14 14 (1354752)
I0403 17:51:53.853802 15277 net.cpp:156] Memory required for data: 1126235424
I0403 17:51:53.853821 15277 layer_factory.hpp:77] Creating layer inception_4d/relu_3x3
I0403 17:51:53.853838 15277 net.cpp:91] Creating Layer inception_4d/relu_3x3
I0403 17:51:53.853854 15277 net.cpp:425] inception_4d/relu_3x3 <- inception_4d/3x3
I0403 17:51:53.853873 15277 net.cpp:386] inception_4d/relu_3x3 -> inception_4d/3x3 (in-place)
I0403 17:51:53.854055 15277 net.cpp:141] Setting up inception_4d/relu_3x3
I0403 17:51:53.854079 15277 net.cpp:148] Top shape: 24 288 14 14 (1354752)
I0403 17:51:53.854094 15277 net.cpp:156] Memory required for data: 1131654432
I0403 17:51:53.854109 15277 layer_factory.hpp:77] Creating layer inception_4d/5x5_reduce
I0403 17:51:53.854132 15277 net.cpp:91] Creating Layer inception_4d/5x5_reduce
I0403 17:51:53.854149 15277 net.cpp:425] inception_4d/5x5_reduce <- inception_4c/output_inception_4c/output_0_split_2
I0403 17:51:53.854171 15277 net.cpp:399] inception_4d/5x5_reduce -> inception_4d/5x5_reduce
I0403 17:51:53.855293 15277 net.cpp:141] Setting up inception_4d/5x5_reduce
I0403 17:51:53.855320 15277 net.cpp:148] Top shape: 24 32 14 14 (150528)
I0403 17:51:53.855335 15277 net.cpp:156] Memory required for data: 1132256544
I0403 17:51:53.855353 15277 layer_factory.hpp:77] Creating layer inception_4d/relu_5x5_reduce
I0403 17:51:53.855373 15277 net.cpp:91] Creating Layer inception_4d/relu_5x5_reduce
I0403 17:51:53.855391 15277 net.cpp:425] inception_4d/relu_5x5_reduce <- inception_4d/5x5_reduce
I0403 17:51:53.855408 15277 net.cpp:386] inception_4d/relu_5x5_reduce -> inception_4d/5x5_reduce (in-place)
I0403 17:51:53.855587 15277 net.cpp:141] Setting up inception_4d/relu_5x5_reduce
I0403 17:51:53.855612 15277 net.cpp:148] Top shape: 24 32 14 14 (150528)
I0403 17:51:53.855625 15277 net.cpp:156] Memory required for data: 1132858656
I0403 17:51:53.855640 15277 layer_factory.hpp:77] Creating layer inception_4d/5x5
I0403 17:51:53.855662 15277 net.cpp:91] Creating Layer inception_4d/5x5
I0403 17:51:53.855682 15277 net.cpp:425] inception_4d/5x5 <- inception_4d/5x5_reduce
I0403 17:51:53.855700 15277 net.cpp:399] inception_4d/5x5 -> inception_4d/5x5
I0403 17:51:53.857134 15277 net.cpp:141] Setting up inception_4d/5x5
I0403 17:51:53.857161 15277 net.cpp:148] Top shape: 24 64 14 14 (301056)
I0403 17:51:53.857177 15277 net.cpp:156] Memory required for data: 1134062880
I0403 17:51:53.857195 15277 layer_factory.hpp:77] Creating layer inception_4d/relu_5x5
I0403 17:51:53.857230 15277 net.cpp:91] Creating Layer inception_4d/relu_5x5
I0403 17:51:53.857247 15277 net.cpp:425] inception_4d/relu_5x5 <- inception_4d/5x5
I0403 17:51:53.857264 15277 net.cpp:386] inception_4d/relu_5x5 -> inception_4d/5x5 (in-place)
I0403 17:51:53.857554 15277 net.cpp:141] Setting up inception_4d/relu_5x5
I0403 17:51:53.857579 15277 net.cpp:148] Top shape: 24 64 14 14 (301056)
I0403 17:51:53.857594 15277 net.cpp:156] Memory required for data: 1135267104
I0403 17:51:53.857609 15277 layer_factory.hpp:77] Creating layer inception_4d/pool
I0403 17:51:53.857628 15277 net.cpp:91] Creating Layer inception_4d/pool
I0403 17:51:53.857645 15277 net.cpp:425] inception_4d/pool <- inception_4c/output_inception_4c/output_0_split_3
I0403 17:51:53.857663 15277 net.cpp:399] inception_4d/pool -> inception_4d/pool
I0403 17:51:53.857730 15277 net.cpp:141] Setting up inception_4d/pool
I0403 17:51:53.857753 15277 net.cpp:148] Top shape: 24 512 14 14 (2408448)
I0403 17:51:53.857767 15277 net.cpp:156] Memory required for data: 1144900896
I0403 17:51:53.857782 15277 layer_factory.hpp:77] Creating layer inception_4d/pool_proj
I0403 17:51:53.857805 15277 net.cpp:91] Creating Layer inception_4d/pool_proj
I0403 17:51:53.857820 15277 net.cpp:425] inception_4d/pool_proj <- inception_4d/pool
I0403 17:51:53.857841 15277 net.cpp:399] inception_4d/pool_proj -> inception_4d/pool_proj
I0403 17:51:53.859588 15277 net.cpp:141] Setting up inception_4d/pool_proj
I0403 17:51:53.859616 15277 net.cpp:148] Top shape: 24 64 14 14 (301056)
I0403 17:51:53.859632 15277 net.cpp:156] Memory required for data: 1146105120
I0403 17:51:53.859652 15277 layer_factory.hpp:77] Creating layer inception_4d/relu_pool_proj
I0403 17:51:53.859669 15277 net.cpp:91] Creating Layer inception_4d/relu_pool_proj
I0403 17:51:53.859685 15277 net.cpp:425] inception_4d/relu_pool_proj <- inception_4d/pool_proj
I0403 17:51:53.859704 15277 net.cpp:386] inception_4d/relu_pool_proj -> inception_4d/pool_proj (in-place)
I0403 17:51:53.859884 15277 net.cpp:141] Setting up inception_4d/relu_pool_proj
I0403 17:51:53.859907 15277 net.cpp:148] Top shape: 24 64 14 14 (301056)
I0403 17:51:53.859925 15277 net.cpp:156] Memory required for data: 1147309344
I0403 17:51:53.859940 15277 layer_factory.hpp:77] Creating layer inception_4d/output
I0403 17:51:53.859963 15277 net.cpp:91] Creating Layer inception_4d/output
I0403 17:51:53.859980 15277 net.cpp:425] inception_4d/output <- inception_4d/1x1
I0403 17:51:53.859997 15277 net.cpp:425] inception_4d/output <- inception_4d/3x3
I0403 17:51:53.860013 15277 net.cpp:425] inception_4d/output <- inception_4d/5x5
I0403 17:51:53.860029 15277 net.cpp:425] inception_4d/output <- inception_4d/pool_proj
I0403 17:51:53.860045 15277 net.cpp:399] inception_4d/output -> inception_4d/output
I0403 17:51:53.860093 15277 net.cpp:141] Setting up inception_4d/output
I0403 17:51:53.860116 15277 net.cpp:148] Top shape: 24 528 14 14 (2483712)
I0403 17:51:53.860129 15277 net.cpp:156] Memory required for data: 1157244192
I0403 17:51:53.860144 15277 layer_factory.hpp:77] Creating layer inception_4d/output_inception_4d/output_0_split
I0403 17:51:53.860162 15277 net.cpp:91] Creating Layer inception_4d/output_inception_4d/output_0_split
I0403 17:51:53.860177 15277 net.cpp:425] inception_4d/output_inception_4d/output_0_split <- inception_4d/output
I0403 17:51:53.860196 15277 net.cpp:399] inception_4d/output_inception_4d/output_0_split -> inception_4d/output_inception_4d/output_0_split_0
I0403 17:51:53.860218 15277 net.cpp:399] inception_4d/output_inception_4d/output_0_split -> inception_4d/output_inception_4d/output_0_split_1
I0403 17:51:53.860237 15277 net.cpp:399] inception_4d/output_inception_4d/output_0_split -> inception_4d/output_inception_4d/output_0_split_2
I0403 17:51:53.860258 15277 net.cpp:399] inception_4d/output_inception_4d/output_0_split -> inception_4d/output_inception_4d/output_0_split_3
I0403 17:51:53.860277 15277 net.cpp:399] inception_4d/output_inception_4d/output_0_split -> inception_4d/output_inception_4d/output_0_split_4
I0403 17:51:53.860378 15277 net.cpp:141] Setting up inception_4d/output_inception_4d/output_0_split
I0403 17:51:53.860412 15277 net.cpp:148] Top shape: 24 528 14 14 (2483712)
I0403 17:51:53.860430 15277 net.cpp:148] Top shape: 24 528 14 14 (2483712)
I0403 17:51:53.860445 15277 net.cpp:148] Top shape: 24 528 14 14 (2483712)
I0403 17:51:53.860461 15277 net.cpp:148] Top shape: 24 528 14 14 (2483712)
I0403 17:51:53.860477 15277 net.cpp:148] Top shape: 24 528 14 14 (2483712)
I0403 17:51:53.860491 15277 net.cpp:156] Memory required for data: 1206918432
I0403 17:51:53.860505 15277 layer_factory.hpp:77] Creating layer loss2/ave_pool
I0403 17:51:53.860523 15277 net.cpp:91] Creating Layer loss2/ave_pool
I0403 17:51:53.860539 15277 net.cpp:425] loss2/ave_pool <- inception_4d/output_inception_4d/output_0_split_0
I0403 17:51:53.860559 15277 net.cpp:399] loss2/ave_pool -> loss2/ave_pool
I0403 17:51:53.860868 15277 net.cpp:141] Setting up loss2/ave_pool
I0403 17:51:53.860893 15277 net.cpp:148] Top shape: 24 528 4 4 (202752)
I0403 17:51:53.860908 15277 net.cpp:156] Memory required for data: 1207729440
I0403 17:51:53.860926 15277 layer_factory.hpp:77] Creating layer loss2/conv
I0403 17:51:53.860960 15277 net.cpp:91] Creating Layer loss2/conv
I0403 17:51:53.860980 15277 net.cpp:425] loss2/conv <- loss2/ave_pool
I0403 17:51:53.861001 15277 net.cpp:399] loss2/conv -> loss2/conv
I0403 17:51:53.862864 15277 net.cpp:141] Setting up loss2/conv
I0403 17:51:53.862895 15277 net.cpp:148] Top shape: 24 128 4 4 (49152)
I0403 17:51:53.862910 15277 net.cpp:156] Memory required for data: 1207926048
I0403 17:51:53.862931 15277 layer_factory.hpp:77] Creating layer loss2/relu_conv
I0403 17:51:53.862952 15277 net.cpp:91] Creating Layer loss2/relu_conv
I0403 17:51:53.862970 15277 net.cpp:425] loss2/relu_conv <- loss2/conv
I0403 17:51:53.862987 15277 net.cpp:386] loss2/relu_conv -> loss2/conv (in-place)
I0403 17:51:53.863265 15277 net.cpp:141] Setting up loss2/relu_conv
I0403 17:51:53.863292 15277 net.cpp:148] Top shape: 24 128 4 4 (49152)
I0403 17:51:53.863308 15277 net.cpp:156] Memory required for data: 1208122656
I0403 17:51:53.863324 15277 layer_factory.hpp:77] Creating layer loss2/fc
I0403 17:51:53.863343 15277 net.cpp:91] Creating Layer loss2/fc
I0403 17:51:53.863359 15277 net.cpp:425] loss2/fc <- loss2/conv
I0403 17:51:53.863380 15277 net.cpp:399] loss2/fc -> loss2/fc
I0403 17:51:53.880563 15277 net.cpp:141] Setting up loss2/fc
I0403 17:51:53.880594 15277 net.cpp:148] Top shape: 24 1024 (24576)
I0403 17:51:53.880610 15277 net.cpp:156] Memory required for data: 1208220960
I0403 17:51:53.880628 15277 layer_factory.hpp:77] Creating layer loss2/relu_fc
I0403 17:51:53.880650 15277 net.cpp:91] Creating Layer loss2/relu_fc
I0403 17:51:53.880667 15277 net.cpp:425] loss2/relu_fc <- loss2/fc
I0403 17:51:53.880684 15277 net.cpp:386] loss2/relu_fc -> loss2/fc (in-place)
I0403 17:51:53.880990 15277 net.cpp:141] Setting up loss2/relu_fc
I0403 17:51:53.881017 15277 net.cpp:148] Top shape: 24 1024 (24576)
I0403 17:51:53.881032 15277 net.cpp:156] Memory required for data: 1208319264
I0403 17:51:53.881047 15277 layer_factory.hpp:77] Creating layer loss2/drop_fc
I0403 17:51:53.881068 15277 net.cpp:91] Creating Layer loss2/drop_fc
I0403 17:51:53.881085 15277 net.cpp:425] loss2/drop_fc <- loss2/fc
I0403 17:51:53.881103 15277 net.cpp:386] loss2/drop_fc -> loss2/fc (in-place)
I0403 17:51:53.881151 15277 net.cpp:141] Setting up loss2/drop_fc
I0403 17:51:53.881176 15277 net.cpp:148] Top shape: 24 1024 (24576)
I0403 17:51:53.881192 15277 net.cpp:156] Memory required for data: 1208417568
I0403 17:51:53.881208 15277 layer_factory.hpp:77] Creating layer loss2/classifier_plantvillage
I0403 17:51:53.881227 15277 net.cpp:91] Creating Layer loss2/classifier_plantvillage
I0403 17:51:53.881243 15277 net.cpp:425] loss2/classifier_plantvillage <- loss2/fc
I0403 17:51:53.881264 15277 net.cpp:399] loss2/classifier_plantvillage -> loss2/classifier_plantvillage
I0403 17:51:53.881669 15277 net.cpp:141] Setting up loss2/classifier_plantvillage
I0403 17:51:53.881693 15277 net.cpp:148] Top shape: 24 38 (912)
I0403 17:51:53.881722 15277 net.cpp:156] Memory required for data: 1208421216
I0403 17:51:53.881742 15277 layer_factory.hpp:77] Creating layer loss2/classifier_plantvillage_loss2/classifier_plantvillage_0_split
I0403 17:51:53.881760 15277 net.cpp:91] Creating Layer loss2/classifier_plantvillage_loss2/classifier_plantvillage_0_split
I0403 17:51:53.881778 15277 net.cpp:425] loss2/classifier_plantvillage_loss2/classifier_plantvillage_0_split <- loss2/classifier_plantvillage
I0403 17:51:53.881795 15277 net.cpp:399] loss2/classifier_plantvillage_loss2/classifier_plantvillage_0_split -> loss2/classifier_plantvillage_loss2/classifier_plantvillage_0_split_0
I0403 17:51:53.881819 15277 net.cpp:399] loss2/classifier_plantvillage_loss2/classifier_plantvillage_0_split -> loss2/classifier_plantvillage_loss2/classifier_plantvillage_0_split_1
I0403 17:51:53.881841 15277 net.cpp:399] loss2/classifier_plantvillage_loss2/classifier_plantvillage_0_split -> loss2/classifier_plantvillage_loss2/classifier_plantvillage_0_split_2
I0403 17:51:53.881919 15277 net.cpp:141] Setting up loss2/classifier_plantvillage_loss2/classifier_plantvillage_0_split
I0403 17:51:53.881942 15277 net.cpp:148] Top shape: 24 38 (912)
I0403 17:51:53.881966 15277 net.cpp:148] Top shape: 24 38 (912)
I0403 17:51:53.881995 15277 net.cpp:148] Top shape: 24 38 (912)
I0403 17:51:53.882009 15277 net.cpp:156] Memory required for data: 1208432160
I0403 17:51:53.882025 15277 layer_factory.hpp:77] Creating layer inception_4e/1x1
I0403 17:51:53.882061 15277 net.cpp:91] Creating Layer inception_4e/1x1
I0403 17:51:53.882079 15277 net.cpp:425] inception_4e/1x1 <- inception_4d/output_inception_4d/output_0_split_1
I0403 17:51:53.882102 15277 net.cpp:399] inception_4e/1x1 -> inception_4e/1x1
I0403 17:51:53.883968 15277 net.cpp:141] Setting up inception_4e/1x1
I0403 17:51:53.883998 15277 net.cpp:148] Top shape: 24 256 14 14 (1204224)
I0403 17:51:53.884014 15277 net.cpp:156] Memory required for data: 1213249056
I0403 17:51:53.884034 15277 layer_factory.hpp:77] Creating layer inception_4e/relu_1x1
I0403 17:51:53.884052 15277 net.cpp:91] Creating Layer inception_4e/relu_1x1
I0403 17:51:53.884069 15277 net.cpp:425] inception_4e/relu_1x1 <- inception_4e/1x1
I0403 17:51:53.884088 15277 net.cpp:386] inception_4e/relu_1x1 -> inception_4e/1x1 (in-place)
I0403 17:51:53.884387 15277 net.cpp:141] Setting up inception_4e/relu_1x1
I0403 17:51:53.884415 15277 net.cpp:148] Top shape: 24 256 14 14 (1204224)
I0403 17:51:53.884431 15277 net.cpp:156] Memory required for data: 1218065952
I0403 17:51:53.884448 15277 layer_factory.hpp:77] Creating layer inception_4e/3x3_reduce
I0403 17:51:53.884469 15277 net.cpp:91] Creating Layer inception_4e/3x3_reduce
I0403 17:51:53.884487 15277 net.cpp:425] inception_4e/3x3_reduce <- inception_4d/output_inception_4d/output_0_split_2
I0403 17:51:53.884506 15277 net.cpp:399] inception_4e/3x3_reduce -> inception_4e/3x3_reduce
I0403 17:51:53.886662 15277 net.cpp:141] Setting up inception_4e/3x3_reduce
I0403 17:51:53.886690 15277 net.cpp:148] Top shape: 24 160 14 14 (752640)
I0403 17:51:53.886708 15277 net.cpp:156] Memory required for data: 1221076512
I0403 17:51:53.886725 15277 layer_factory.hpp:77] Creating layer inception_4e/relu_3x3_reduce
I0403 17:51:53.886746 15277 net.cpp:91] Creating Layer inception_4e/relu_3x3_reduce
I0403 17:51:53.886764 15277 net.cpp:425] inception_4e/relu_3x3_reduce <- inception_4e/3x3_reduce
I0403 17:51:53.886781 15277 net.cpp:386] inception_4e/relu_3x3_reduce -> inception_4e/3x3_reduce (in-place)
I0403 17:51:53.886973 15277 net.cpp:141] Setting up inception_4e/relu_3x3_reduce
I0403 17:51:53.886999 15277 net.cpp:148] Top shape: 24 160 14 14 (752640)
I0403 17:51:53.887015 15277 net.cpp:156] Memory required for data: 1224087072
I0403 17:51:53.887030 15277 layer_factory.hpp:77] Creating layer inception_4e/3x3
I0403 17:51:53.887053 15277 net.cpp:91] Creating Layer inception_4e/3x3
I0403 17:51:53.887069 15277 net.cpp:425] inception_4e/3x3 <- inception_4e/3x3_reduce
I0403 17:51:53.887089 15277 net.cpp:399] inception_4e/3x3 -> inception_4e/3x3
I0403 17:51:53.892303 15277 net.cpp:141] Setting up inception_4e/3x3
I0403 17:51:53.892352 15277 net.cpp:148] Top shape: 24 320 14 14 (1505280)
I0403 17:51:53.892377 15277 net.cpp:156] Memory required for data: 1230108192
I0403 17:51:53.892402 15277 layer_factory.hpp:77] Creating layer inception_4e/relu_3x3
I0403 17:51:53.892431 15277 net.cpp:91] Creating Layer inception_4e/relu_3x3
I0403 17:51:53.892459 15277 net.cpp:425] inception_4e/relu_3x3 <- inception_4e/3x3
I0403 17:51:53.892494 15277 net.cpp:386] inception_4e/relu_3x3 -> inception_4e/3x3 (in-place)
I0403 17:51:53.892827 15277 net.cpp:141] Setting up inception_4e/relu_3x3
I0403 17:51:53.892854 15277 net.cpp:148] Top shape: 24 320 14 14 (1505280)
I0403 17:51:53.892870 15277 net.cpp:156] Memory required for data: 1236129312
I0403 17:51:53.892889 15277 layer_factory.hpp:77] Creating layer inception_4e/5x5_reduce
I0403 17:51:53.892915 15277 net.cpp:91] Creating Layer inception_4e/5x5_reduce
I0403 17:51:53.892935 15277 net.cpp:425] inception_4e/5x5_reduce <- inception_4d/output_inception_4d/output_0_split_3
I0403 17:51:53.892963 15277 net.cpp:399] inception_4e/5x5_reduce -> inception_4e/5x5_reduce
I0403 17:51:53.894104 15277 net.cpp:141] Setting up inception_4e/5x5_reduce
I0403 17:51:53.894134 15277 net.cpp:148] Top shape: 24 32 14 14 (150528)
I0403 17:51:53.894150 15277 net.cpp:156] Memory required for data: 1236731424
I0403 17:51:53.894170 15277 layer_factory.hpp:77] Creating layer inception_4e/relu_5x5_reduce
I0403 17:51:53.894192 15277 net.cpp:91] Creating Layer inception_4e/relu_5x5_reduce
I0403 17:51:53.894210 15277 net.cpp:425] inception_4e/relu_5x5_reduce <- inception_4e/5x5_reduce
I0403 17:51:53.894229 15277 net.cpp:386] inception_4e/relu_5x5_reduce -> inception_4e/5x5_reduce (in-place)
I0403 17:51:53.894548 15277 net.cpp:141] Setting up inception_4e/relu_5x5_reduce
I0403 17:51:53.894577 15277 net.cpp:148] Top shape: 24 32 14 14 (150528)
I0403 17:51:53.894593 15277 net.cpp:156] Memory required for data: 1237333536
I0403 17:51:53.894609 15277 layer_factory.hpp:77] Creating layer inception_4e/5x5
I0403 17:51:53.894651 15277 net.cpp:91] Creating Layer inception_4e/5x5
I0403 17:51:53.894680 15277 net.cpp:425] inception_4e/5x5 <- inception_4e/5x5_reduce
I0403 17:51:53.894717 15277 net.cpp:399] inception_4e/5x5 -> inception_4e/5x5
I0403 17:51:53.896682 15277 net.cpp:141] Setting up inception_4e/5x5
I0403 17:51:53.896713 15277 net.cpp:148] Top shape: 24 128 14 14 (602112)
I0403 17:51:53.896742 15277 net.cpp:156] Memory required for data: 1239741984
I0403 17:51:53.896773 15277 layer_factory.hpp:77] Creating layer inception_4e/relu_5x5
I0403 17:51:53.896798 15277 net.cpp:91] Creating Layer inception_4e/relu_5x5
I0403 17:51:53.896817 15277 net.cpp:425] inception_4e/relu_5x5 <- inception_4e/5x5
I0403 17:51:53.896836 15277 net.cpp:386] inception_4e/relu_5x5 -> inception_4e/5x5 (in-place)
I0403 17:51:53.897048 15277 net.cpp:141] Setting up inception_4e/relu_5x5
I0403 17:51:53.897078 15277 net.cpp:148] Top shape: 24 128 14 14 (602112)
I0403 17:51:53.897096 15277 net.cpp:156] Memory required for data: 1242150432
I0403 17:51:53.897121 15277 layer_factory.hpp:77] Creating layer inception_4e/pool
I0403 17:51:53.897142 15277 net.cpp:91] Creating Layer inception_4e/pool
I0403 17:51:53.897161 15277 net.cpp:425] inception_4e/pool <- inception_4d/output_inception_4d/output_0_split_4
I0403 17:51:53.897181 15277 net.cpp:399] inception_4e/pool -> inception_4e/pool
I0403 17:51:53.897255 15277 net.cpp:141] Setting up inception_4e/pool
I0403 17:51:53.897280 15277 net.cpp:148] Top shape: 24 528 14 14 (2483712)
I0403 17:51:53.897296 15277 net.cpp:156] Memory required for data: 1252085280
I0403 17:51:53.897312 15277 layer_factory.hpp:77] Creating layer inception_4e/pool_proj
I0403 17:51:53.897336 15277 net.cpp:91] Creating Layer inception_4e/pool_proj
I0403 17:51:53.897354 15277 net.cpp:425] inception_4e/pool_proj <- inception_4e/pool
I0403 17:51:53.897377 15277 net.cpp:399] inception_4e/pool_proj -> inception_4e/pool_proj
I0403 17:51:53.899009 15277 net.cpp:141] Setting up inception_4e/pool_proj
I0403 17:51:53.899050 15277 net.cpp:148] Top shape: 24 128 14 14 (602112)
I0403 17:51:53.899068 15277 net.cpp:156] Memory required for data: 1254493728
I0403 17:51:53.899088 15277 layer_factory.hpp:77] Creating layer inception_4e/relu_pool_proj
I0403 17:51:53.899113 15277 net.cpp:91] Creating Layer inception_4e/relu_pool_proj
I0403 17:51:53.899132 15277 net.cpp:425] inception_4e/relu_pool_proj <- inception_4e/pool_proj
I0403 17:51:53.899153 15277 net.cpp:386] inception_4e/relu_pool_proj -> inception_4e/pool_proj (in-place)
I0403 17:51:53.899474 15277 net.cpp:141] Setting up inception_4e/relu_pool_proj
I0403 17:51:53.899502 15277 net.cpp:148] Top shape: 24 128 14 14 (602112)
I0403 17:51:53.899523 15277 net.cpp:156] Memory required for data: 1256902176
I0403 17:51:53.899538 15277 layer_factory.hpp:77] Creating layer inception_4e/output
I0403 17:51:53.899557 15277 net.cpp:91] Creating Layer inception_4e/output
I0403 17:51:53.899574 15277 net.cpp:425] inception_4e/output <- inception_4e/1x1
I0403 17:51:53.899592 15277 net.cpp:425] inception_4e/output <- inception_4e/3x3
I0403 17:51:53.899619 15277 net.cpp:425] inception_4e/output <- inception_4e/5x5
I0403 17:51:53.899639 15277 net.cpp:425] inception_4e/output <- inception_4e/pool_proj
I0403 17:51:53.899662 15277 net.cpp:399] inception_4e/output -> inception_4e/output
I0403 17:51:53.899719 15277 net.cpp:141] Setting up inception_4e/output
I0403 17:51:53.899744 15277 net.cpp:148] Top shape: 24 832 14 14 (3913728)
I0403 17:51:53.899760 15277 net.cpp:156] Memory required for data: 1272557088
I0403 17:51:53.899776 15277 layer_factory.hpp:77] Creating layer pool4/3x3_s2
I0403 17:51:53.899796 15277 net.cpp:91] Creating Layer pool4/3x3_s2
I0403 17:51:53.899812 15277 net.cpp:425] pool4/3x3_s2 <- inception_4e/output
I0403 17:51:53.899834 15277 net.cpp:399] pool4/3x3_s2 -> pool4/3x3_s2
I0403 17:51:53.899907 15277 net.cpp:141] Setting up pool4/3x3_s2
I0403 17:51:53.899937 15277 net.cpp:148] Top shape: 24 832 7 7 (978432)
I0403 17:51:53.899960 15277 net.cpp:156] Memory required for data: 1276470816
I0403 17:51:53.899976 15277 layer_factory.hpp:77] Creating layer pool4/3x3_s2_pool4/3x3_s2_0_split
I0403 17:51:53.899996 15277 net.cpp:91] Creating Layer pool4/3x3_s2_pool4/3x3_s2_0_split
I0403 17:51:53.900014 15277 net.cpp:425] pool4/3x3_s2_pool4/3x3_s2_0_split <- pool4/3x3_s2
I0403 17:51:53.900033 15277 net.cpp:399] pool4/3x3_s2_pool4/3x3_s2_0_split -> pool4/3x3_s2_pool4/3x3_s2_0_split_0
I0403 17:51:53.900054 15277 net.cpp:399] pool4/3x3_s2_pool4/3x3_s2_0_split -> pool4/3x3_s2_pool4/3x3_s2_0_split_1
I0403 17:51:53.900080 15277 net.cpp:399] pool4/3x3_s2_pool4/3x3_s2_0_split -> pool4/3x3_s2_pool4/3x3_s2_0_split_2
I0403 17:51:53.900102 15277 net.cpp:399] pool4/3x3_s2_pool4/3x3_s2_0_split -> pool4/3x3_s2_pool4/3x3_s2_0_split_3
I0403 17:51:53.900198 15277 net.cpp:141] Setting up pool4/3x3_s2_pool4/3x3_s2_0_split
I0403 17:51:53.900223 15277 net.cpp:148] Top shape: 24 832 7 7 (978432)
I0403 17:51:53.900243 15277 net.cpp:148] Top shape: 24 832 7 7 (978432)
I0403 17:51:53.900261 15277 net.cpp:148] Top shape: 24 832 7 7 (978432)
I0403 17:51:53.900282 15277 net.cpp:148] Top shape: 24 832 7 7 (978432)
I0403 17:51:53.900303 15277 net.cpp:156] Memory required for data: 1292125728
I0403 17:51:53.900321 15277 layer_factory.hpp:77] Creating layer inception_5a/1x1
I0403 17:51:53.900346 15277 net.cpp:91] Creating Layer inception_5a/1x1
I0403 17:51:53.900365 15277 net.cpp:425] inception_5a/1x1 <- pool4/3x3_s2_pool4/3x3_s2_0_split_0
I0403 17:51:53.900389 15277 net.cpp:399] inception_5a/1x1 -> inception_5a/1x1
I0403 17:51:53.903493 15277 net.cpp:141] Setting up inception_5a/1x1
I0403 17:51:53.903525 15277 net.cpp:148] Top shape: 24 256 7 7 (301056)
I0403 17:51:53.903545 15277 net.cpp:156] Memory required for data: 1293329952
I0403 17:51:53.903568 15277 layer_factory.hpp:77] Creating layer inception_5a/relu_1x1
I0403 17:51:53.903590 15277 net.cpp:91] Creating Layer inception_5a/relu_1x1
I0403 17:51:53.903609 15277 net.cpp:425] inception_5a/relu_1x1 <- inception_5a/1x1
I0403 17:51:53.903627 15277 net.cpp:386] inception_5a/relu_1x1 -> inception_5a/1x1 (in-place)
I0403 17:51:53.903973 15277 net.cpp:141] Setting up inception_5a/relu_1x1
I0403 17:51:53.904011 15277 net.cpp:148] Top shape: 24 256 7 7 (301056)
I0403 17:51:53.904031 15277 net.cpp:156] Memory required for data: 1294534176
I0403 17:51:53.904048 15277 layer_factory.hpp:77] Creating layer inception_5a/3x3_reduce
I0403 17:51:53.904073 15277 net.cpp:91] Creating Layer inception_5a/3x3_reduce
I0403 17:51:53.904093 15277 net.cpp:425] inception_5a/3x3_reduce <- pool4/3x3_s2_pool4/3x3_s2_0_split_1
I0403 17:51:53.904115 15277 net.cpp:399] inception_5a/3x3_reduce -> inception_5a/3x3_reduce
I0403 17:51:53.906752 15277 net.cpp:141] Setting up inception_5a/3x3_reduce
I0403 17:51:53.906782 15277 net.cpp:148] Top shape: 24 160 7 7 (188160)
I0403 17:51:53.906800 15277 net.cpp:156] Memory required for data: 1295286816
I0403 17:51:53.906818 15277 layer_factory.hpp:77] Creating layer inception_5a/relu_3x3_reduce
I0403 17:51:53.906837 15277 net.cpp:91] Creating Layer inception_5a/relu_3x3_reduce
I0403 17:51:53.906854 15277 net.cpp:425] inception_5a/relu_3x3_reduce <- inception_5a/3x3_reduce
I0403 17:51:53.906874 15277 net.cpp:386] inception_5a/relu_3x3_reduce -> inception_5a/3x3_reduce (in-place)
I0403 17:51:53.907075 15277 net.cpp:141] Setting up inception_5a/relu_3x3_reduce
I0403 17:51:53.907101 15277 net.cpp:148] Top shape: 24 160 7 7 (188160)
I0403 17:51:53.907116 15277 net.cpp:156] Memory required for data: 1296039456
I0403 17:51:53.907132 15277 layer_factory.hpp:77] Creating layer inception_5a/3x3
I0403 17:51:53.907155 15277 net.cpp:91] Creating Layer inception_5a/3x3
I0403 17:51:53.907174 15277 net.cpp:425] inception_5a/3x3 <- inception_5a/3x3_reduce
I0403 17:51:53.907197 15277 net.cpp:399] inception_5a/3x3 -> inception_5a/3x3
I0403 17:51:53.912395 15277 net.cpp:141] Setting up inception_5a/3x3
I0403 17:51:53.912425 15277 net.cpp:148] Top shape: 24 320 7 7 (376320)
I0403 17:51:53.912442 15277 net.cpp:156] Memory required for data: 1297544736
I0403 17:51:53.912461 15277 layer_factory.hpp:77] Creating layer inception_5a/relu_3x3
I0403 17:51:53.912483 15277 net.cpp:91] Creating Layer inception_5a/relu_3x3
I0403 17:51:53.912503 15277 net.cpp:425] inception_5a/relu_3x3 <- inception_5a/3x3
I0403 17:51:53.912521 15277 net.cpp:386] inception_5a/relu_3x3 -> inception_5a/3x3 (in-place)
I0403 17:51:53.912825 15277 net.cpp:141] Setting up inception_5a/relu_3x3
I0403 17:51:53.912852 15277 net.cpp:148] Top shape: 24 320 7 7 (376320)
I0403 17:51:53.912868 15277 net.cpp:156] Memory required for data: 1299050016
I0403 17:51:53.912883 15277 layer_factory.hpp:77] Creating layer inception_5a/5x5_reduce
I0403 17:51:53.912906 15277 net.cpp:91] Creating Layer inception_5a/5x5_reduce
I0403 17:51:53.912927 15277 net.cpp:425] inception_5a/5x5_reduce <- pool4/3x3_s2_pool4/3x3_s2_0_split_2
I0403 17:51:53.912955 15277 net.cpp:399] inception_5a/5x5_reduce -> inception_5a/5x5_reduce
I0403 17:51:53.914170 15277 net.cpp:141] Setting up inception_5a/5x5_reduce
I0403 17:51:53.914201 15277 net.cpp:148] Top shape: 24 32 7 7 (37632)
I0403 17:51:53.914230 15277 net.cpp:156] Memory required for data: 1299200544
I0403 17:51:53.914250 15277 layer_factory.hpp:77] Creating layer inception_5a/relu_5x5_reduce
I0403 17:51:53.914270 15277 net.cpp:91] Creating Layer inception_5a/relu_5x5_reduce
I0403 17:51:53.914288 15277 net.cpp:425] inception_5a/relu_5x5_reduce <- inception_5a/5x5_reduce
I0403 17:51:53.914307 15277 net.cpp:386] inception_5a/relu_5x5_reduce -> inception_5a/5x5_reduce (in-place)
I0403 17:51:53.914636 15277 net.cpp:141] Setting up inception_5a/relu_5x5_reduce
I0403 17:51:53.914666 15277 net.cpp:148] Top shape: 24 32 7 7 (37632)
I0403 17:51:53.914682 15277 net.cpp:156] Memory required for data: 1299351072
I0403 17:51:53.914698 15277 layer_factory.hpp:77] Creating layer inception_5a/5x5
I0403 17:51:53.914721 15277 net.cpp:91] Creating Layer inception_5a/5x5
I0403 17:51:53.914741 15277 net.cpp:425] inception_5a/5x5 <- inception_5a/5x5_reduce
I0403 17:51:53.914760 15277 net.cpp:399] inception_5a/5x5 -> inception_5a/5x5
I0403 17:51:53.916551 15277 net.cpp:141] Setting up inception_5a/5x5
I0403 17:51:53.916591 15277 net.cpp:148] Top shape: 24 128 7 7 (150528)
I0403 17:51:53.916610 15277 net.cpp:156] Memory required for data: 1299953184
I0403 17:51:53.916628 15277 layer_factory.hpp:77] Creating layer inception_5a/relu_5x5
I0403 17:51:53.916651 15277 net.cpp:91] Creating Layer inception_5a/relu_5x5
I0403 17:51:53.916668 15277 net.cpp:425] inception_5a/relu_5x5 <- inception_5a/5x5
I0403 17:51:53.916687 15277 net.cpp:386] inception_5a/relu_5x5 -> inception_5a/5x5 (in-place)
I0403 17:51:53.916884 15277 net.cpp:141] Setting up inception_5a/relu_5x5
I0403 17:51:53.916913 15277 net.cpp:148] Top shape: 24 128 7 7 (150528)
I0403 17:51:53.916929 15277 net.cpp:156] Memory required for data: 1300555296
I0403 17:51:53.916949 15277 layer_factory.hpp:77] Creating layer inception_5a/pool
I0403 17:51:53.916970 15277 net.cpp:91] Creating Layer inception_5a/pool
I0403 17:51:53.916986 15277 net.cpp:425] inception_5a/pool <- pool4/3x3_s2_pool4/3x3_s2_0_split_3
I0403 17:51:53.917006 15277 net.cpp:399] inception_5a/pool -> inception_5a/pool
I0403 17:51:53.917079 15277 net.cpp:141] Setting up inception_5a/pool
I0403 17:51:53.917104 15277 net.cpp:148] Top shape: 24 832 7 7 (978432)
I0403 17:51:53.917119 15277 net.cpp:156] Memory required for data: 1304469024
I0403 17:51:53.917135 15277 layer_factory.hpp:77] Creating layer inception_5a/pool_proj
I0403 17:51:53.917157 15277 net.cpp:91] Creating Layer inception_5a/pool_proj
I0403 17:51:53.917176 15277 net.cpp:425] inception_5a/pool_proj <- inception_5a/pool
I0403 17:51:53.917197 15277 net.cpp:399] inception_5a/pool_proj -> inception_5a/pool_proj
I0403 17:51:53.919564 15277 net.cpp:141] Setting up inception_5a/pool_proj
I0403 17:51:53.919595 15277 net.cpp:148] Top shape: 24 128 7 7 (150528)
I0403 17:51:53.919610 15277 net.cpp:156] Memory required for data: 1305071136
I0403 17:51:53.919630 15277 layer_factory.hpp:77] Creating layer inception_5a/relu_pool_proj
I0403 17:51:53.919651 15277 net.cpp:91] Creating Layer inception_5a/relu_pool_proj
I0403 17:51:53.919669 15277 net.cpp:425] inception_5a/relu_pool_proj <- inception_5a/pool_proj
I0403 17:51:53.919688 15277 net.cpp:386] inception_5a/relu_pool_proj -> inception_5a/pool_proj (in-place)
I0403 17:51:53.919996 15277 net.cpp:141] Setting up inception_5a/relu_pool_proj
I0403 17:51:53.920022 15277 net.cpp:148] Top shape: 24 128 7 7 (150528)
I0403 17:51:53.920038 15277 net.cpp:156] Memory required for data: 1305673248
I0403 17:51:53.920054 15277 layer_factory.hpp:77] Creating layer inception_5a/output
I0403 17:51:53.920073 15277 net.cpp:91] Creating Layer inception_5a/output
I0403 17:51:53.920090 15277 net.cpp:425] inception_5a/output <- inception_5a/1x1
I0403 17:51:53.920109 15277 net.cpp:425] inception_5a/output <- inception_5a/3x3
I0403 17:51:53.920128 15277 net.cpp:425] inception_5a/output <- inception_5a/5x5
I0403 17:51:53.920145 15277 net.cpp:425] inception_5a/output <- inception_5a/pool_proj
I0403 17:51:53.920163 15277 net.cpp:399] inception_5a/output -> inception_5a/output
I0403 17:51:53.920215 15277 net.cpp:141] Setting up inception_5a/output
I0403 17:51:53.920243 15277 net.cpp:148] Top shape: 24 832 7 7 (978432)
I0403 17:51:53.920258 15277 net.cpp:156] Memory required for data: 1309586976
I0403 17:51:53.920276 15277 layer_factory.hpp:77] Creating layer inception_5a/output_inception_5a/output_0_split
I0403 17:51:53.920295 15277 net.cpp:91] Creating Layer inception_5a/output_inception_5a/output_0_split
I0403 17:51:53.920310 15277 net.cpp:425] inception_5a/output_inception_5a/output_0_split <- inception_5a/output
I0403 17:51:53.920332 15277 net.cpp:399] inception_5a/output_inception_5a/output_0_split -> inception_5a/output_inception_5a/output_0_split_0
I0403 17:51:53.920354 15277 net.cpp:399] inception_5a/output_inception_5a/output_0_split -> inception_5a/output_inception_5a/output_0_split_1
I0403 17:51:53.920377 15277 net.cpp:399] inception_5a/output_inception_5a/output_0_split -> inception_5a/output_inception_5a/output_0_split_2
I0403 17:51:53.920397 15277 net.cpp:399] inception_5a/output_inception_5a/output_0_split -> inception_5a/output_inception_5a/output_0_split_3
I0403 17:51:53.920512 15277 net.cpp:141] Setting up inception_5a/output_inception_5a/output_0_split
I0403 17:51:53.920539 15277 net.cpp:148] Top shape: 24 832 7 7 (978432)
I0403 17:51:53.920558 15277 net.cpp:148] Top shape: 24 832 7 7 (978432)
I0403 17:51:53.920574 15277 net.cpp:148] Top shape: 24 832 7 7 (978432)
I0403 17:51:53.920590 15277 net.cpp:148] Top shape: 24 832 7 7 (978432)
I0403 17:51:53.920605 15277 net.cpp:156] Memory required for data: 1325241888
I0403 17:51:53.920620 15277 layer_factory.hpp:77] Creating layer inception_5b/1x1
I0403 17:51:53.920641 15277 net.cpp:91] Creating Layer inception_5b/1x1
I0403 17:51:53.920660 15277 net.cpp:425] inception_5b/1x1 <- inception_5a/output_inception_5a/output_0_split_0
I0403 17:51:53.920682 15277 net.cpp:399] inception_5b/1x1 -> inception_5b/1x1
I0403 17:51:53.924708 15277 net.cpp:141] Setting up inception_5b/1x1
I0403 17:51:53.924739 15277 net.cpp:148] Top shape: 24 384 7 7 (451584)
I0403 17:51:53.924757 15277 net.cpp:156] Memory required for data: 1327048224
I0403 17:51:53.924777 15277 layer_factory.hpp:77] Creating layer inception_5b/relu_1x1
I0403 17:51:53.924796 15277 net.cpp:91] Creating Layer inception_5b/relu_1x1
I0403 17:51:53.924814 15277 net.cpp:425] inception_5b/relu_1x1 <- inception_5b/1x1
I0403 17:51:53.924835 15277 net.cpp:386] inception_5b/relu_1x1 -> inception_5b/1x1 (in-place)
I0403 17:51:53.925168 15277 net.cpp:141] Setting up inception_5b/relu_1x1
I0403 17:51:53.925196 15277 net.cpp:148] Top shape: 24 384 7 7 (451584)
I0403 17:51:53.925214 15277 net.cpp:156] Memory required for data: 1328854560
I0403 17:51:53.925230 15277 layer_factory.hpp:77] Creating layer inception_5b/3x3_reduce
I0403 17:51:53.925253 15277 net.cpp:91] Creating Layer inception_5b/3x3_reduce
I0403 17:51:53.925273 15277 net.cpp:425] inception_5b/3x3_reduce <- inception_5a/output_inception_5a/output_0_split_1
I0403 17:51:53.925297 15277 net.cpp:399] inception_5b/3x3_reduce -> inception_5b/3x3_reduce
I0403 17:51:53.928153 15277 net.cpp:141] Setting up inception_5b/3x3_reduce
I0403 17:51:53.928185 15277 net.cpp:148] Top shape: 24 192 7 7 (225792)
I0403 17:51:53.928203 15277 net.cpp:156] Memory required for data: 1329757728
I0403 17:51:53.928223 15277 layer_factory.hpp:77] Creating layer inception_5b/relu_3x3_reduce
I0403 17:51:53.928246 15277 net.cpp:91] Creating Layer inception_5b/relu_3x3_reduce
I0403 17:51:53.928264 15277 net.cpp:425] inception_5b/relu_3x3_reduce <- inception_5b/3x3_reduce
I0403 17:51:53.928284 15277 net.cpp:386] inception_5b/relu_3x3_reduce -> inception_5b/3x3_reduce (in-place)
I0403 17:51:53.928488 15277 net.cpp:141] Setting up inception_5b/relu_3x3_reduce
I0403 17:51:53.928515 15277 net.cpp:148] Top shape: 24 192 7 7 (225792)
I0403 17:51:53.928531 15277 net.cpp:156] Memory required for data: 1330660896
I0403 17:51:53.928546 15277 layer_factory.hpp:77] Creating layer inception_5b/3x3
I0403 17:51:53.928570 15277 net.cpp:91] Creating Layer inception_5b/3x3
I0403 17:51:53.928593 15277 net.cpp:425] inception_5b/3x3 <- inception_5b/3x3_reduce
I0403 17:51:53.928614 15277 net.cpp:399] inception_5b/3x3 -> inception_5b/3x3
I0403 17:51:53.935765 15277 net.cpp:141] Setting up inception_5b/3x3
I0403 17:51:53.935796 15277 net.cpp:148] Top shape: 24 384 7 7 (451584)
I0403 17:51:53.935813 15277 net.cpp:156] Memory required for data: 1332467232
I0403 17:51:53.935833 15277 layer_factory.hpp:77] Creating layer inception_5b/relu_3x3
I0403 17:51:53.935858 15277 net.cpp:91] Creating Layer inception_5b/relu_3x3
I0403 17:51:53.935876 15277 net.cpp:425] inception_5b/relu_3x3 <- inception_5b/3x3
I0403 17:51:53.935895 15277 net.cpp:386] inception_5b/relu_3x3 -> inception_5b/3x3 (in-place)
I0403 17:51:53.936214 15277 net.cpp:141] Setting up inception_5b/relu_3x3
I0403 17:51:53.936242 15277 net.cpp:148] Top shape: 24 384 7 7 (451584)
I0403 17:51:53.936259 15277 net.cpp:156] Memory required for data: 1334273568
I0403 17:51:53.936275 15277 layer_factory.hpp:77] Creating layer inception_5b/5x5_reduce
I0403 17:51:53.936316 15277 net.cpp:91] Creating Layer inception_5b/5x5_reduce
I0403 17:51:53.936336 15277 net.cpp:425] inception_5b/5x5_reduce <- inception_5a/output_inception_5a/output_0_split_2
I0403 17:51:53.936359 15277 net.cpp:399] inception_5b/5x5_reduce -> inception_5b/5x5_reduce
I0403 17:51:53.937722 15277 net.cpp:141] Setting up inception_5b/5x5_reduce
I0403 17:51:53.937752 15277 net.cpp:148] Top shape: 24 48 7 7 (56448)
I0403 17:51:53.937769 15277 net.cpp:156] Memory required for data: 1334499360
I0403 17:51:53.937790 15277 layer_factory.hpp:77] Creating layer inception_5b/relu_5x5_reduce
I0403 17:51:53.937813 15277 net.cpp:91] Creating Layer inception_5b/relu_5x5_reduce
I0403 17:51:53.937831 15277 net.cpp:425] inception_5b/relu_5x5_reduce <- inception_5b/5x5_reduce
I0403 17:51:53.937850 15277 net.cpp:386] inception_5b/relu_5x5_reduce -> inception_5b/5x5_reduce (in-place)
I0403 17:51:53.938261 15277 net.cpp:141] Setting up inception_5b/relu_5x5_reduce
I0403 17:51:53.938289 15277 net.cpp:148] Top shape: 24 48 7 7 (56448)
I0403 17:51:53.938307 15277 net.cpp:156] Memory required for data: 1334725152
I0403 17:51:53.938323 15277 layer_factory.hpp:77] Creating layer inception_5b/5x5
I0403 17:51:53.938344 15277 net.cpp:91] Creating Layer inception_5b/5x5
I0403 17:51:53.938364 15277 net.cpp:425] inception_5b/5x5 <- inception_5b/5x5_reduce
I0403 17:51:53.938383 15277 net.cpp:399] inception_5b/5x5 -> inception_5b/5x5
I0403 17:51:53.940582 15277 net.cpp:141] Setting up inception_5b/5x5
I0403 17:51:53.940611 15277 net.cpp:148] Top shape: 24 128 7 7 (150528)
I0403 17:51:53.940629 15277 net.cpp:156] Memory required for data: 1335327264
I0403 17:51:53.940649 15277 layer_factory.hpp:77] Creating layer inception_5b/relu_5x5
I0403 17:51:53.940670 15277 net.cpp:91] Creating Layer inception_5b/relu_5x5
I0403 17:51:53.940690 15277 net.cpp:425] inception_5b/relu_5x5 <- inception_5b/5x5
I0403 17:51:53.940707 15277 net.cpp:386] inception_5b/relu_5x5 -> inception_5b/5x5 (in-place)
I0403 17:51:53.940915 15277 net.cpp:141] Setting up inception_5b/relu_5x5
I0403 17:51:53.940943 15277 net.cpp:148] Top shape: 24 128 7 7 (150528)
I0403 17:51:53.940965 15277 net.cpp:156] Memory required for data: 1335929376
I0403 17:51:53.940982 15277 layer_factory.hpp:77] Creating layer inception_5b/pool
I0403 17:51:53.941001 15277 net.cpp:91] Creating Layer inception_5b/pool
I0403 17:51:53.941020 15277 net.cpp:425] inception_5b/pool <- inception_5a/output_inception_5a/output_0_split_3
I0403 17:51:53.941042 15277 net.cpp:399] inception_5b/pool -> inception_5b/pool
I0403 17:51:53.941120 15277 net.cpp:141] Setting up inception_5b/pool
I0403 17:51:53.941146 15277 net.cpp:148] Top shape: 24 832 7 7 (978432)
I0403 17:51:53.941162 15277 net.cpp:156] Memory required for data: 1339843104
I0403 17:51:53.941179 15277 layer_factory.hpp:77] Creating layer inception_5b/pool_proj
I0403 17:51:53.941202 15277 net.cpp:91] Creating Layer inception_5b/pool_proj
I0403 17:51:53.941222 15277 net.cpp:425] inception_5b/pool_proj <- inception_5b/pool
I0403 17:51:53.941246 15277 net.cpp:399] inception_5b/pool_proj -> inception_5b/pool_proj
I0403 17:51:53.943699 15277 net.cpp:141] Setting up inception_5b/pool_proj
I0403 17:51:53.943730 15277 net.cpp:148] Top shape: 24 128 7 7 (150528)
I0403 17:51:53.943747 15277 net.cpp:156] Memory required for data: 1340445216
I0403 17:51:53.943768 15277 layer_factory.hpp:77] Creating layer inception_5b/relu_pool_proj
I0403 17:51:53.943789 15277 net.cpp:91] Creating Layer inception_5b/relu_pool_proj
I0403 17:51:53.943809 15277 net.cpp:425] inception_5b/relu_pool_proj <- inception_5b/pool_proj
I0403 17:51:53.943827 15277 net.cpp:386] inception_5b/relu_pool_proj -> inception_5b/pool_proj (in-place)
I0403 17:51:53.944149 15277 net.cpp:141] Setting up inception_5b/relu_pool_proj
I0403 17:51:53.944177 15277 net.cpp:148] Top shape: 24 128 7 7 (150528)
I0403 17:51:53.944193 15277 net.cpp:156] Memory required for data: 1341047328
I0403 17:51:53.944211 15277 layer_factory.hpp:77] Creating layer inception_5b/output
I0403 17:51:53.944229 15277 net.cpp:91] Creating Layer inception_5b/output
I0403 17:51:53.944262 15277 net.cpp:425] inception_5b/output <- inception_5b/1x1
I0403 17:51:53.944280 15277 net.cpp:425] inception_5b/output <- inception_5b/3x3
I0403 17:51:53.944298 15277 net.cpp:425] inception_5b/output <- inception_5b/5x5
I0403 17:51:53.944315 15277 net.cpp:425] inception_5b/output <- inception_5b/pool_proj
I0403 17:51:53.944337 15277 net.cpp:399] inception_5b/output -> inception_5b/output
I0403 17:51:53.944396 15277 net.cpp:141] Setting up inception_5b/output
I0403 17:51:53.944422 15277 net.cpp:148] Top shape: 24 1024 7 7 (1204224)
I0403 17:51:53.944437 15277 net.cpp:156] Memory required for data: 1345864224
I0403 17:51:53.944453 15277 layer_factory.hpp:77] Creating layer pool5/7x7_s1
I0403 17:51:53.944471 15277 net.cpp:91] Creating Layer pool5/7x7_s1
I0403 17:51:53.944489 15277 net.cpp:425] pool5/7x7_s1 <- inception_5b/output
I0403 17:51:53.944510 15277 net.cpp:399] pool5/7x7_s1 -> pool5/7x7_s1
I0403 17:51:53.944741 15277 net.cpp:141] Setting up pool5/7x7_s1
I0403 17:51:53.944768 15277 net.cpp:148] Top shape: 24 1024 1 1 (24576)
I0403 17:51:53.944784 15277 net.cpp:156] Memory required for data: 1345962528
I0403 17:51:53.944800 15277 layer_factory.hpp:77] Creating layer pool5/drop_7x7_s1
I0403 17:51:53.944823 15277 net.cpp:91] Creating Layer pool5/drop_7x7_s1
I0403 17:51:53.944841 15277 net.cpp:425] pool5/drop_7x7_s1 <- pool5/7x7_s1
I0403 17:51:53.944861 15277 net.cpp:386] pool5/drop_7x7_s1 -> pool5/7x7_s1 (in-place)
I0403 17:51:53.944919 15277 net.cpp:141] Setting up pool5/drop_7x7_s1
I0403 17:51:53.944944 15277 net.cpp:148] Top shape: 24 1024 1 1 (24576)
I0403 17:51:53.944967 15277 net.cpp:156] Memory required for data: 1346060832
I0403 17:51:53.944983 15277 layer_factory.hpp:77] Creating layer loss3/classifier_plantvillage
I0403 17:51:53.945003 15277 net.cpp:91] Creating Layer loss3/classifier_plantvillage
I0403 17:51:53.945021 15277 net.cpp:425] loss3/classifier_plantvillage <- pool5/7x7_s1
I0403 17:51:53.945044 15277 net.cpp:399] loss3/classifier_plantvillage -> loss3/classifier_plantvillage
I0403 17:51:53.945503 15277 net.cpp:141] Setting up loss3/classifier_plantvillage
I0403 17:51:53.945529 15277 net.cpp:148] Top shape: 24 38 (912)
I0403 17:51:53.945544 15277 net.cpp:156] Memory required for data: 1346064480
I0403 17:51:53.945564 15277 layer_factory.hpp:77] Creating layer loss3/classifier_plantvillage_loss3/classifier_plantvillage_0_split
I0403 17:51:53.945583 15277 net.cpp:91] Creating Layer loss3/classifier_plantvillage_loss3/classifier_plantvillage_0_split
I0403 17:51:53.945600 15277 net.cpp:425] loss3/classifier_plantvillage_loss3/classifier_plantvillage_0_split <- loss3/classifier_plantvillage
I0403 17:51:53.945621 15277 net.cpp:399] loss3/classifier_plantvillage_loss3/classifier_plantvillage_0_split -> loss3/classifier_plantvillage_loss3/classifier_plantvillage_0_split_0
I0403 17:51:53.945642 15277 net.cpp:399] loss3/classifier_plantvillage_loss3/classifier_plantvillage_0_split -> loss3/classifier_plantvillage_loss3/classifier_plantvillage_0_split_1
I0403 17:51:53.945664 15277 net.cpp:399] loss3/classifier_plantvillage_loss3/classifier_plantvillage_0_split -> loss3/classifier_plantvillage_loss3/classifier_plantvillage_0_split_2
I0403 17:51:53.945685 15277 net.cpp:399] loss3/classifier_plantvillage_loss3/classifier_plantvillage_0_split -> loss3/classifier_plantvillage_loss3/classifier_plantvillage_0_split_3
I0403 17:51:53.945790 15277 net.cpp:141] Setting up loss3/classifier_plantvillage_loss3/classifier_plantvillage_0_split
I0403 17:51:53.945813 15277 net.cpp:148] Top shape: 24 38 (912)
I0403 17:51:53.945830 15277 net.cpp:148] Top shape: 24 38 (912)
I0403 17:51:53.945847 15277 net.cpp:148] Top shape: 24 38 (912)
I0403 17:51:53.945863 15277 net.cpp:148] Top shape: 24 38 (912)
I0403 17:51:53.945878 15277 net.cpp:156] Memory required for data: 1346079072
I0403 17:51:53.945894 15277 layer_factory.hpp:77] Creating layer loss1/loss
I0403 17:51:53.945915 15277 net.cpp:91] Creating Layer loss1/loss
I0403 17:51:53.945935 15277 net.cpp:425] loss1/loss <- loss1/classifier_plantvillage_loss1/classifier_plantvillage_0_split_0
I0403 17:51:53.945971 15277 net.cpp:425] loss1/loss <- label_data_1_split_0
…
