…
I0403 18:01:39.243695 15902 net.cpp:313] The NetState phase (1) differed from the phase (0) specified by a rule in layer data
I0403 18:01:39.244813 15902 net.cpp:49] Initializing net from parameters: 
state {
  phase: TEST
}
layer {
  name: "data"
  type: "Data"
  top: "data"
  top: "label"
  include {
    phase: TEST
  }
  transform_param {
    mirror: false
    crop_size: 224
    mean_file: "/home/mohanty/data/final_dataset/lmdb/grayscale-60-40/mean.binaryproto"
  }
  data_param {
    source: "/home/mohanty/data/final_dataset/lmdb/grayscale-60-40/test_db"
    batch_size: 24
    backend: LMDB
  }
}
layer {
  name: "conv1/7x7_s2"
  type: "Convolution"
  bottom: "data"
  top: "conv1/7x7_s2"
  param {
    lr_mult: 1
    decay_mult: 1
  }
  param {
    lr_mult: 2
    decay_mult: 0
  }
  convolution_param {
    num_output: 64
    pad: 3
    kernel_size: 7
    stride: 2
    weight_filler {
      type: "xavier"
      std: 0.1
    }
    bias_filler {
      type: "constant"
      value: 0.2
    }
  }
}
layer {
  name: "conv1/relu_7x7"
  type: "ReLU"
  bottom: "conv1/7x7_s2"
  top: "conv1/7x7_s2"
}
layer {
  name: "pool1/3x3_s2"
  type: "Pooling"
  bottom: "conv1/7x7_s2"
  top: "pool1/3x3_s2"
  pooling_param {
    pool: MAX
    kernel_size: 3
    stride: 2
  }
}
layer {
  name: "pool1/norm1"
  type: "LRN"
  bottom: "pool1/3x3_s2"
  top: "pool1/norm1"
  lrn_param {
    local_size: 5
    alpha: 0.0001
    beta: 0.75
  }
}
layer {
  name: "conv2/3x3_reduce"
  type: "Convolution"
  bottom: "pool1/norm1"
  top: "conv2/3x3_reduce"
  param {
    lr_mult: 1
    decay_mult: 1
  }
  param {
    lr_mult: 2
    decay_mult: 0
  }
  convolution_param {
    num_output: 64
    kernel_size: 1
    weight_filler {
      type: "xavier"
      std: 0.1
    }
    bias_filler {
      type: "constant"
      value: 0.2
    }
  }
}
layer {
  name: "conv2/relu_3x3_reduce"
  type: "ReLU"
  bottom: "conv2/3x3_reduce"
  top: "conv2/3x3_reduce"
}
layer {
  name: "conv2/3x3"
  type: "Convolution"
  bottom: "conv2/3x3_reduce"
  top: "conv2/3x3"
  param {
    lr_mult: 1
    decay_mult: 1
  }
  param {
    lr_mult: 2
    decay_mult: 0
  }
  convolution_param {
    num_output: 192
    pad: 1
    kernel_size: 3
    weight_filler {
      type: "xavier"
      std: 0.03
    }
    bias_filler {
      type: "constant"
      value: 0.2
    }
  }
}
layer {
  name: "conv2/relu_3x3"
  type: "ReLU"
  bottom: "conv2/3x3"
  top: "conv2/3x3"
}
layer {
  name: "conv2/norm2"
  type: "LRN"
  bottom: "conv2/3x3"
  top: "conv2/norm2"
  lrn_param {
    local_size: 5
    alpha: 0.0001
    beta: 0.75
  }
}
layer {
  name: "pool2/3x3_s2"
  type: "Pooling"
  bottom: "conv2/norm2"
  top: "pool2/3x3_s2"
  pooling_param {
    pool: MAX
    kernel_size: 3
    stride: 2
  }
}
layer {
  name: "inception_3a/1x1"
  type: "Convolution"
  bottom: "pool2/3x3_s2"
  top: "inception_3a/1x1"
  param {
    lr_mult: 1
    decay_mult: 1
  }
  param {
    lr_mult: 2
    decay_mult: 0
  }
  convolution_param {
    num_output: 64
    kernel_size: 1
    weight_filler {
      type: "xavier"
      std: 0.03
    }
    bias_filler {
      type: "constant"
      value: 0.2
    }
  }
}
layer {
  name: "inception_3a/relu_1x1"
  type: "ReLU"
  bottom: "inception_3a/1x1"
  top: "inception_3a/1x1"
}
layer {
  name: "inception_3a/3x3_reduce"
  type: "Convolution"
  bottom: "pool2/3x3_s2"
  top: "inception_3a/3x3_reduce"
  param {
    lr_mult: 1
    decay_mult: 1
  }
  param {
    lr_mult: 2
    decay_mult: 0
  }
  convolution_param {
    num_output: 96
    kernel_size: 1
    weight_filler {
      type: "xavier"
      std: 0.09
    }
    bias_filler {
      type: "constant"
      value: 0.2
    }
  }
}
layer {
  name: "inception_3a/relu_3x3_reduce"
  type: "ReLU"
  bottom: "inception_3a/3x3_reduce"
  top: "inception_3a/3x3_reduce"
}
layer {
  name: "inception_3a/3x3"
  type: "Convolution"
  bottom: "inception_3a/3x3_reduce"
  top: "inception_3a/3x3"
  param {
    lr_mult: 1
    decay_mult: 1
  }
  param {
    lr_mult: 2
    decay_mult: 0
  }
  convolution_param {
    num_output: 128
    pad: 1
    kernel_size: 3
    weight_filler {
      type: "xavier"
      std: 0.03
    }
    bias_filler {
      type: "constant"
      value: 0.2
    }
  }
}
layer {
  name: "inception_3a/relu_3x3"
  type: "ReLU"
  bottom: "inception_3a/3x3"
  top: "inception_3a/3x3"
}
layer {
  name: "inception_3a/5x5_reduce"
  type: "Convolution"
  bottom: "pool2/3x3_s2"
  top: "inception_3a/5x5_reduce"
  param {
    lr_mult: 1
    decay_mult: 1
  }
  param {
    lr_mult: 2
    decay_mult: 0
  }
  convolution_param {
    num_output: 16
    kernel_size: 1
    weight_filler {
      type: "xavier"
      std: 0.2
    }
    bias_filler {
      type: "constant"
      value: 0.2
    }
  }
}
layer {
  name: "inception_3a/relu_5x5_reduce"
  type: "ReLU"
  bottom: "inception_3a/5x5_reduce"
  top: "inception_3a/5x5_reduce"
}
layer {
  name: "inception_3a/5x5"
  type: "Convolution"
  bottom: "inception_3a/5x5_reduce"
  top: "inception_3a/5x5"
  param {
    lr_mult: 1
    decay_mult: 1
  }
  param {
    lr_mult: 2
    decay_mult: 0
  }
  convolution_param {
    num_output: 32
    pad: 2
    kernel_size: 5
    weight_filler {
      type: "xavier"
      std: 0.03
    }
    bias_filler {
      type: "constant"
      value: 0.2
    }
  }
}
layer {
  name: "inception_3a/relu_5x5"
  type: "ReLU"
  bottom: "inception_3a/5x5"
  top: "inception_3a/5x5"
}
layer {
  name: "inception_3a/pool"
  type: "Pooling"
  bottom: "pool2/3x3_s2"
  top: "inception_3a/pool"
  pooling_param {
    pool: MAX
    kernel_size: 3
    stride: 1
    pad: 1
  }
}
layer {
  name: "inception_3a/pool_proj"
  type: "Convolution"
  bottom: "inception_3a/pool"
  top: "inception_3a/pool_proj"
  param {
    lr_mult: 1
    decay_mult: 1
  }
  param {
    lr_mult: 2
    decay_mult: 0
  }
  convolution_param {
    num_output: 32
    kernel_size: 1
    weight_filler {
      type: "xavier"
      std: 0.1
    }
    bias_filler {
      type: "constant"
      value: 0.2
    }
  }
}
layer {
  name: "inception_3a/relu_pool_proj"
  type: "ReLU"
  bottom: "inception_3a/pool_proj"
  top: "inception_3a/pool_proj"
}
layer {
  name: "inception_3a/output"
  type: "Concat"
  bottom: "inception_3a/1x1"
  bottom: "inception_3a/3x3"
  bottom: "inception_3a/5x5"
  bottom: "inception_3a/pool_proj"
  top: "inception_3a/output"
}
layer {
  name: "inception_3b/1x1"
  type: "Convolution"
  bottom: "inception_3a/output"
  top: "inception_3b/1x1"
  param {
    lr_mult: 1
    decay_mult: 1
  }
  param {
    lr_mult: 2
    decay_mult: 0
  }
  convolution_param {
    num_output: 128
    kernel_size: 1
    weight_filler {
      type: "xavier"
      std: 0.03
    }
    bias_filler {
      type: "constant"
      value: 0.2
    }
  }
}
layer {
  name: "inception_3b/relu_1x1"
  type: "ReLU"
  bottom: "inception_3b/1x1"
  top: "inception_3b/1x1"
}
layer {
  name: "inception_3b/3x3_reduce"
  type: "Convolution"
  bottom: "inception_3a/output"
  top: "inception_3b/3x3_reduce"
  param {
    lr_mult: 1
    decay_mult: 1
  }
  param {
    lr_mult: 2
    decay_mult: 0
  }
  convolution_param {
    num_output: 128
    kernel_size: 1
    weight_filler {
      type: "xavier"
      std: 0.09
    }
    bias_filler {
      type: "constant"
      value: 0.2
    }
  }
}
layer {
  name: "inception_3b/relu_3x3_reduce"
  type: "ReLU"
  bottom: "inception_3b/3x3_reduce"
  top: "inception_3b/3x3_reduce"
}
layer {
  name: "inception_3b/3x3"
  type: "Convolution"
  bottom: "inception_3b/3x3_reduce"
  top: "inception_3b/3x3"
  param {
    lr_mult: 1
    decay_mult: 1
  }
  param {
    lr_mult: 2
    decay_mult: 0
  }
  convolution_param {
    num_output: 192
    pad: 1
    kernel_size: 3
    weight_filler {
      type: "xavier"
      std: 0.03
    }
    bias_filler {
      type: "constant"
      value: 0.2
    }
  }
}
layer {
  name: "inception_3b/relu_3x3"
  type: "ReLU"
  bottom: "inception_3b/3x3"
  top: "inception_3b/3x3"
}
layer {
  name: "inception_3b/5x5_reduce"
  type: "Convolution"
  bottom: "inception_3a/output"
  top: "inception_3b/5x5_reduce"
  param {
    lr_mult: 1
    decay_mult: 1
  }
  param {
    lr_mult: 2
    decay_mult: 0
  }
  convolution_param {
    num_output: 32
    kernel_size: 1
    weight_filler {
      type: "xavier"
      std: 0.2
    }
    bias_filler {
      type: "constant"
      value: 0.2
    }
  }
}
layer {
  name: "inception_3b/relu_5x5_reduce"
  type: "ReLU"
  bottom: "inception_3b/5x5_reduce"
  top: "inception_3b/5x5_reduce"
}
layer {
  name: "inception_3b/5x5"
  type: "Convolution"
  bottom: "inception_3b/5x5_reduce"
  top: "inception_3b/5x5"
  param {
    lr_mult: 1
    decay_mult: 1
  }
  param {
    lr_mult: 2
    decay_mult: 0
  }
  convolution_param {
    num_output: 96
    pad: 2
    kernel_size: 5
    weight_filler {
      type: "xavier"
      std: 0.03
    }
    bias_filler {
      type: "constant"
      value: 0.2
    }
  }
}
layer {
  name: "inception_3b/relu_5x5"
  type: "ReLU"
  bottom: "inception_3b/5x5"
  top: "inception_3b/5x5"
}
layer {
  name: "inception_3b/pool"
  type: "Pooling"
  bottom: "inception_3a/output"
  top: "inception_3b/pool"
  pooling_param {
    pool: MAX
    kernel_size: 3
    stride: 1
    pad: 1
  }
}
layer {
  name: "inception_3b/pool_proj"
  type: "Convolution"
  bottom: "inception_3b/pool"
  top: "inception_3b/pool_proj"
  param {
    lr_mult: 1
    decay_mult: 1
  }
  param {
    lr_mult: 2
    decay_mult: 0
  }
  convolution_param {
    num_output: 64
    kernel_size: 1
    weight_filler {
      type: "xavier"
      std: 0.1
    }
    bias_filler {
      type: "constant"
      value: 0.2
    }
  }
}
layer {
  name: "inception_3b/relu_pool_proj"
  type: "ReLU"
  bottom: "inception_3b/pool_proj"
  top: "inception_3b/pool_proj"
}
layer {
  name: "inception_3b/output"
  type: "Concat"
  bottom: "inception_3b/1x1"
  bottom: "inception_3b/3x3"
  bottom: "inception_3b/5x5"
  bottom: "inception_3b/pool_proj"
  top: "inception_3b/output"
}
layer {
  name: "pool3/3x3_s2"
  type: "Pooling"
  bottom: "inception_3b/output"
  top: "pool3/3x3_s2"
  pooling_param {
    pool: MAX
    kernel_size: 3
    stride: 2
  }
}
layer {
  name: "inception_4a/1x1"
  type: "Convolution"
  bottom: "pool3/3x3_s2"
  top: "inception_4a/1x1"
  param {
    lr_mult: 1
    decay_mult: 1
  }
  param {
    lr_mult: 2
    decay_mult: 0
  }
  convolution_param {
    num_output: 192
    kernel_size: 1
    weight_filler {
      type: "xavier"
      std: 0.03
    }
    bias_filler {
      type: "constant"
      value: 0.2
    }
  }
}
layer {
  name: "inception_4a/relu_1x1"
  type: "ReLU"
  bottom: "inception_4a/1x1"
  top: "inception_4a/1x1"
}
layer {
  name: "inception_4a/3x3_reduce"
  type: "Convolution"
  bottom: "pool3/3x3_s2"
  top: "inception_4a/3x3_reduce"
  param {
    lr_mult: 1
    decay_mult: 1
  }
  param {
    lr_mult: 2
    decay_mult: 0
  }
  convolution_param {
    num_output: 96
    kernel_size: 1
    weight_filler {
      type: "xavier"
      std: 0.09
    }
    bias_filler {
      type: "constant"
      value: 0.2
    }
  }
}
layer {
  name: "inception_4a/relu_3x3_reduce"
  type: "ReLU"
  bottom: "inception_4a/3x3_reduce"
  top: "inception_4a/3x3_reduce"
}
layer {
  name: "inception_4a/3x3"
  type: "Convolution"
  bottom: "inception_4a/3x3_reduce"
  top: "inception_4a/3x3"
  param {
    lr_mult: 1
    decay_mult: 1
  }
  param {
    lr_mult: 2
    decay_mult: 0
  }
  convolution_param {
    num_output: 208
    pad: 1
    kernel_size: 3
    weight_filler {
      type: "xavier"
      std: 0.03
    }
    bias_filler {
      type: "constant"
      value: 0.2
    }
  }
}
layer {
  name: "inception_4a/relu_3x3"
  type: "ReLU"
  bottom: "inception_4a/3x3"
  top: "inception_4a/3x3"
}
layer {
  name: "inception_4a/5x5_reduce"
  type: "Convolution"
  bottom: "pool3/3x3_s2"
  top: "inception_4a/5x5_reduce"
  param {
    lr_mult: 1
    decay_mult: 1
  }
  param {
    lr_mult: 2
    decay_mult: 0
  }
  convolution_param {
    num_output: 16
    kernel_size: 1
    weight_filler {
      type: "xavier"
      std: 0.2
    }
    bias_filler {
      type: "constant"
      value: 0.2
    }
  }
}
layer {
  name: "inception_4a/relu_5x5_reduce"
  type: "ReLU"
  bottom: "inception_4a/5x5_reduce"
  top: "inception_4a/5x5_reduce"
}
layer {
  name: "inception_4a/5x5"
  type: "Convolution"
  bottom: "inception_4a/5x5_reduce"
  top: "inception_4a/5x5"
  param {
    lr_mult: 1
    decay_mult: 1
  }
  param {
    lr_mult: 2
    decay_mult: 0
  }
  convolution_param {
    num_output: 48
    pad: 2
    kernel_size: 5
    weight_filler {
      type: "xavier"
      std: 0.03
    }
    bias_filler {
      type: "constant"
      value: 0.2
    }
  }
}
layer {
  name: "inception_4a/relu_5x5"
  type: "ReLU"
  bottom: "inception_4a/5x5"
  top: "inception_4a/5x5"
}
layer {
  name: "inception_4a/pool"
  type: "Pooling"
  bottom: "pool3/3x3_s2"
  top: "inception_4a/pool"
  pooling_param {
    pool: MAX
    kernel_size: 3
    stride: 1
    pad: 1
  }
}
layer {
  name: "inception_4a/pool_proj"
  type: "Convolution"
  bottom: "inception_4a/pool"
  top: "inception_4a/pool_proj"
  param {
    lr_mult: 1
    decay_mult: 1
  }
  param {
    lr_mult: 2
    decay_mult: 0
  }
  convolution_param {
    num_output: 64
    kernel_size: 1
    weight_filler {
      type: "xavier"
      std: 0.1
    }
    bias_filler {
      type: "constant"
      value: 0.2
    }
  }
}
layer {
  name: "inception_4a/relu_pool_proj"
  type: "ReLU"
  bottom: "inception_4a/pool_proj"
  top: "inception_4a/pool_proj"
}
layer {
  name: "inception_4a/output"
  type: "Concat"
  bottom: "inception_4a/1x1"
  bottom: "inception_4a/3x3"
  bottom: "inception_4a/5x5"
  bottom: "inception_4a/pool_proj"
  top: "inception_4a/output"
}
layer {
  name: "loss1/ave_pool"
  type: "Pooling"
  bottom: "inception_4a/output"
  top: "loss1/ave_pool"
  pooling_param {
    pool: AVE
    kernel_size: 5
    stride: 3
  }
}
layer {
  name: "loss1/conv"
  type: "Convolution"
  bottom: "loss1/ave_pool"
  top: "loss1/conv"
  param {
    lr_mult: 1
    decay_mult: 1
  }
  param {
    lr_mult: 2
    decay_mult: 0
  }
  convolution_param {
    num_output: 128
    kernel_size: 1
    weight_filler {
      type: "xavier"
      std: 0.08
    }
    bias_filler {
      type: "constant"
      value: 0.2
    }
  }
}
layer {
  name: "loss1/relu_conv"
  type: "ReLU"
  bottom: "loss1/conv"
  top: "loss1/conv"
}
layer {
  name: "loss1/fc"
  type: "InnerProduct"
  bottom: "loss1/conv"
  top: "loss1/fc"
  param {
    lr_mult: 1
    decay_mult: 1
  }
  param {
    lr_mult: 2
    decay_mult: 0
  }
  inner_product_param {
    num_output: 1024
    weight_filler {
      type: "xavier"
      std: 0.02
    }
    bias_filler {
      type: "constant"
      value: 0.2
    }
  }
}
layer {
  name: "loss1/relu_fc"
  type: "ReLU"
  bottom: "loss1/fc"
  top: "loss1/fc"
}
layer {
  name: "loss1/drop_fc"
  type: "Dropout"
  bottom: "loss1/fc"
  top: "loss1/fc"
  dropout_param {
    dropout_ratio: 0.7
  }
}
layer {
  name: "loss1/classifier_plantvillage"
  type: "InnerProduct"
  bottom: "loss1/fc"
  top: "loss1/classifier_plantvillage"
  param {
    lr_mult: 1
    decay_mult: 1
  }
  param {
    lr_mult: 2
    decay_mult: 0
  }
  inner_product_param {
    num_output: 38
    weight_filler {
      type: "xavier"
      std: 0.0009765625
    }
    bias_filler {
      type: "constant"
      value: 0
    }
  }
}
layer {
  name: "inception_4b/1x1"
  type: "Convolution"
  bottom: "inception_4a/output"
  top: "inception_4b/1x1"
  param {
    lr_mult: 1
    decay_mult: 1
  }
  param {
    lr_mult: 2
    decay_mult: 0
  }
  convolution_param {
    num_output: 160
    kernel_size: 1
    weight_filler {
      type: "xavier"
      std: 0.03
    }
    bias_filler {
      type: "constant"
      value: 0.2
    }
  }
}
layer {
  name: "inception_4b/relu_1x1"
  type: "ReLU"
  bottom: "inception_4b/1x1"
  top: "inception_4b/1x1"
}
layer {
  name: "inception_4b/3x3_reduce"
  type: "Convolution"
  bottom: "inception_4a/output"
  top: "inception_4b/3x3_reduce"
  param {
    lr_mult: 1
    decay_mult: 1
  }
  param {
    lr_mult: 2
    decay_mult: 0
  }
  convolution_param {
    num_output: 112
    kernel_size: 1
    weight_filler {
      type: "xavier"
      std: 0.09
    }
    bias_filler {
      type: "constant"
      value: 0.2
    }
  }
}
layer {
  name: "inception_4b/relu_3x3_reduce"
  type: "ReLU"
  bottom: "inception_4b/3x3_reduce"
  top: "inception_4b/3x3_reduce"
}
layer {
  name: "inception_4b/3x3"
  type: "Convolution"
  bottom: "inception_4b/3x3_reduce"
  top: "inception_4b/3x3"
  param {
    lr_mult: 1
    decay_mult: 1
  }
  param {
    lr_mult: 2
    decay_mult: 0
  }
  convolution_param {
    num_output: 224
    pad: 1
    kernel_size: 3
    weight_filler {
      type: "xavier"
      std: 0.03
    }
    bias_filler {
      type: "constant"
      value: 0.2
    }
  }
}
layer {
  name: "inception_4b/relu_3x3"
  type: "ReLU"
  bottom: "inception_4b/3x3"
  top: "inception_4b/3x3"
}
layer {
  name: "inception_4b/5x5_reduce"
  type: "Convolution"
  bottom: "inception_4a/output"
  top: "inception_4b/5x5_reduce"
  param {
    lr_mult: 1
    decay_mult: 1
  }
  param {
    lr_mult: 2
    decay_mult: 0
  }
  convolution_param {
    num_output: 24
    kernel_size: 1
    weight_filler {
      type: "xavier"
      std: 0.2
    }
    bias_filler {
      type: "constant"
      value: 0.2
    }
  }
}
layer {
  name: "inception_4b/relu_5x5_reduce"
  type: "ReLU"
  bottom: "inception_4b/5x5_reduce"
  top: "inception_4b/5x5_reduce"
}
layer {
  name: "inception_4b/5x5"
  type: "Convolution"
  bottom: "inception_4b/5x5_reduce"
  top: "inception_4b/5x5"
  param {
    lr_mult: 1
    decay_mult: 1
  }
  param {
    lr_mult: 2
    decay_mult: 0
  }
  convolution_param {
    num_output: 64
    pad: 2
    kernel_size: 5
    weight_filler {
      type: "xavier"
      std: 0.03
    }
    bias_filler {
      type: "constant"
      value: 0.2
    }
  }
}
layer {
  name: "inception_4b/relu_5x5"
  type: "ReLU"
  bottom: "inception_4b/5x5"
  top: "inception_4b/5x5"
}
layer {
  name: "inception_4b/pool"
  type: "Pooling"
  bottom: "inception_4a/output"
  top: "inception_4b/pool"
  pooling_param {
    pool: MAX
    kernel_size: 3
    stride: 1
    pad: 1
  }
}
layer {
  name: "inception_4b/pool_proj"
  type: "Convolution"
  bottom: "inception_4b/pool"
  top: "inception_4b/pool_proj"
  param {
    lr_mult: 1
    decay_mult: 1
  }
  param {
    lr_mult: 2
    decay_mult: 0
  }
  convolution_param {
    num_output: 64
    kernel_size: 1
    weight_filler {
      type: "xavier"
      std: 0.1
    }
    bias_filler {
      type: "constant"
      value: 0.2
    }
  }
}
layer {
  name: "inception_4b/relu_pool_proj"
  type: "ReLU"
  bottom: "inception_4b/pool_proj"
  top: "inception_4b/pool_proj"
}
layer {
  name: "inception_4b/output"
  type: "Concat"
  bottom: "inception_4b/1x1"
  bottom: "inception_4b/3x3"
  bottom: "inception_4b/5x5"
  bottom: "inception_4b/pool_proj"
  top: "inception_4b/output"
}
layer {
  name: "inception_4c/1x1"
  type: "Convolution"
  bottom: "inception_4b/output"
  top: "inception_4c/1x1"
  param {
    lr_mult: 1
    decay_mult: 1
  }
  param {
    lr_mult: 2
    decay_mult: 0
  }
  convolution_param {
    num_output: 128
    kernel_size: 1
    weight_filler {
      type: "xavier"
      std: 0.03
    }
    bias_filler {
      type: "constant"
      value: 0.2
    }
  }
}
layer {
  name: "inception_4c/relu_1x1"
  type: "ReLU"
  bottom: "inception_4c/1x1"
  top: "inception_4c/1x1"
}
layer {
  name: "inception_4c/3x3_reduce"
  type: "Convolution"
  bottom: "inception_4b/output"
  top: "inception_4c/3x3_reduce"
  param {
    lr_mult: 1
    decay_mult: 1
  }
  param {
    lr_mult: 2
    decay_mult: 0
  }
  convolution_param {
    num_output: 128
    kernel_size: 1
    weight_filler {
      type: "xavier"
      std: 0.09
    }
    bias_filler {
      type: "constant"
      value: 0.2
    }
  }
}
layer {
  name: "inception_4c/relu_3x3_reduce"
  type: "ReLU"
  bottom: "inception_4c/3x3_reduce"
  top: "inception_4c/3x3_reduce"
}
layer {
  name: "inception_4c/3x3"
  type: "Convolution"
  bottom: "inception_4c/3x3_reduce"
  top: "inception_4c/3x3"
  param {
    lr_mult: 1
    decay_mult: 1
  }
  param {
    lr_mult: 2
    decay_mult: 0
  }
  convolution_param {
    num_output: 256
    pad: 1
    kernel_size: 3
    weight_filler {
      type: "xavier"
      std: 0.03
    }
    bias_filler {
      type: "constant"
      value: 0.2
    }
  }
}
layer {
  name: "inception_4c/relu_3x3"
  type: "ReLU"
  bottom: "inception_4c/3x3"
  top: "inception_4c/3x3"
}
layer {
  name: "inception_4c/5x5_reduce"
  type: "Convolution"
  bottom: "inception_4b/output"
  top: "inception_4c/5x5_reduce"
  param {
    lr_mult: 1
    decay_mult: 1
  }
  param {
    lr_mult: 2
    decay_mult: 0
  }
  convolution_param {
    num_output: 24
    kernel_size: 1
    weight_filler {
      type: "xavier"
      std: 0.2
    }
    bias_filler {
      type: "constant"
      value: 0.2
    }
  }
}
layer {
  name: "inception_4c/relu_5x5_reduce"
  type: "ReLU"
  bottom: "inception_4c/5x5_reduce"
  top: "inception_4c/5x5_reduce"
}
layer {
  name: "inception_4c/5x5"
  type: "Convolution"
  bottom: "inception_4c/5x5_reduce"
  top: "inception_4c/5x5"
  param {
    lr_mult: 1
    decay_mult: 1
  }
  param {
    lr_mult: 2
    decay_mult: 0
  }
  convolution_param {
    num_output: 64
    pad: 2
    kernel_size: 5
    weight_filler {
      type: "xavier"
      std: 0.03
    }
    bias_filler {
      type: "constant"
      value: 0.2
    }
  }
}
layer {
  name: "inception_4c/relu_5x5"
  type: "ReLU"
  bottom: "inception_4c/5x5"
  top: "inception_4c/5x5"
}
layer {
  name: "inception_4c/pool"
  type: "Pooling"
  bottom: "inception_4b/output"
  top: "inception_4c/pool"
  pooling_param {
    pool: MAX
    kernel_size: 3
    stride: 1
    pad: 1
  }
}
layer {
  name: "inception_4c/pool_proj"
  type: "Convolution"
  bottom: "inception_4c/pool"
  top: "inception_4c/pool_proj"
  param {
    lr_mult: 1
    decay_mult: 1
  }
  param {
    lr_mult: 2
    decay_mult: 0
  }
  convolution_param {
    num_output: 64
    kernel_size: 1
    weight_filler {
      type: "xavier"
      std: 0.1
    }
    bias_filler {
      type: "constant"
      value: 0.2
    }
  }
}
layer {
  name: "inception_4c/relu_pool_proj"
  type: "ReLU"
  bottom: "inception_4c/pool_proj"
  top: "inception_4c/pool_proj"
}
layer {
  name: "inception_4c/output"
  type: "Concat"
  bottom: "inception_4c/1x1"
  bottom: "inception_4c/3x3"
  bottom: "inception_4c/5x5"
  bottom: "inception_4c/pool_proj"
  top: "inception_4c/output"
}
layer {
  name: "inception_4d/1x1"
  type: "Convolution"
  bottom: "inception_4c/output"
  top: "inception_4d/1x1"
  param {
    lr_mult: 1
    decay_mult: 1
  }
  param {
    lr_mult: 2
    decay_mult: 0
  }
  convolution_param {
    num_output: 112
    kernel_size: 1
    weight_filler {
      type: "xavier"
      std: 0.03
    }
    bias_filler {
      type: "constant"
      value: 0.2
    }
  }
}
layer {
  name: "inception_4d/relu_1x1"
  type: "ReLU"
  bottom: "inception_4d/1x1"
  top: "inception_4d/1x1"
}
layer {
  name: "inception_4d/3x3_reduce"
  type: "Convolution"
  bottom: "inception_4c/output"
  top: "inception_4d/3x3_reduce"
  param {
    lr_mult: 1
    decay_mult: 1
  }
  param {
    lr_mult: 2
    decay_mult: 0
  }
  convolution_param {
    num_output: 144
    kernel_size: 1
    weight_filler {
      type: "xavier"
      std: 0.09
    }
    bias_filler {
      type: "constant"
      value: 0.2
    }
  }
}
layer {
  name: "inception_4d/relu_3x3_reduce"
  type: "ReLU"
  bottom: "inception_4d/3x3_reduce"
  top: "inception_4d/3x3_reduce"
}
layer {
  name: "inception_4d/3x3"
  type: "Convolution"
  bottom: "inception_4d/3x3_reduce"
  top: "inception_4d/3x3"
  param {
    lr_mult: 1
    decay_mult: 1
  }
  param {
    lr_mult: 2
    decay_mult: 0
  }
  convolution_param {
    num_output: 288
    pad: 1
    kernel_size: 3
    weight_filler {
      type: "xavier"
      std: 0.03
    }
    bias_filler {
      type: "constant"
      value: 0.2
    }
  }
}
layer {
  name: "inception_4d/relu_3x3"
  type: "ReLU"
  bottom: "inception_4d/3x3"
  top: "inception_4d/3x3"
}
layer {
  name: "inception_4d/5x5_reduce"
  type: "Convolution"
  bottom: "inception_4c/output"
  top: "inception_4d/5x5_reduce"
  param {
    lr_mult: 1
    decay_mult: 1
  }
  param {
    lr_mult: 2
    decay_mult: 0
  }
  convolution_param {
    num_output: 32
    kernel_size: 1
    weight_filler {
      type: "xavier"
      std: 0.2
    }
    bias_filler {
      type: "constant"
      value: 0.2
    }
  }
}
layer {
  name: "inception_4d/relu_5x5_reduce"
  type: "ReLU"
  bottom: "inception_4d/5x5_reduce"
  top: "inception_4d/5x5_reduce"
}
layer {
  name: "inception_4d/5x5"
  type: "Convolution"
  bottom: "inception_4d/5x5_reduce"
  top: "inception_4d/5x5"
  param {
    lr_mult: 1
    decay_mult: 1
  }
  param {
    lr_mult: 2
    decay_mult: 0
  }
  convolution_param {
    num_output: 64
    pad: 2
    kernel_size: 5
    weight_filler {
      type: "xavier"
      std: 0.03
    }
    bias_filler {
      type: "constant"
      value: 0.2
    }
  }
}
layer {
  name: "inception_4d/relu_5x5"
  type: "ReLU"
  bottom: "inception_4d/5x5"
  top: "inception_4d/5x5"
}
layer {
  name: "inception_4d/pool"
  type: "Pooling"
  bottom: "inception_4c/output"
  top: "inception_4d/pool"
  pooling_param {
    pool: MAX
    kernel_size: 3
    stride: 1
    pad: 1
  }
}
layer {
  name: "inception_4d/pool_proj"
  type: "Convolution"
  bottom: "inception_4d/pool"
  top: "inception_4d/pool_proj"
  param {
    lr_mult: 1
    decay_mult: 1
  }
  param {
    lr_mult: 2
    decay_mult: 0
  }
  convolution_param {
    num_output: 64
    kernel_size: 1
    weight_filler {
      type: "xavier"
      std: 0.1
    }
    bias_filler {
      type: "constant"
      value: 0.2
    }
  }
}
layer {
  name: "inception_4d/relu_pool_proj"
  type: "ReLU"
  bottom: "inception_4d/pool_proj"
  top: "inception_4d/pool_proj"
}
layer {
  name: "inception_4d/output"
  type: "Concat"
  bottom: "inception_4d/1x1"
  bottom: "inception_4d/3x3"
  bottom: "inception_4d/5x5"
  bottom: "inception_4d/pool_proj"
  top: "inception_4d/output"
}
layer {
  name: "loss2/ave_pool"
  type: "Pooling"
  bottom: "inception_4d/output"
  top: "loss2/ave_pool"
  pooling_param {
    pool: AVE
    kernel_size: 5
    stride: 3
  }
}
layer {
  name: "loss2/conv"
  type: "Convolution"
  bottom: "loss2/ave_pool"
  top: "loss2/conv"
  param {
    lr_mult: 1
    decay_mult: 1
  }
  param {
    lr_mult: 2
    decay_mult: 0
  }
  convolution_param {
    num_output: 128
    kernel_size: 1
    weight_filler {
      type: "xavier"
      std: 0.08
    }
    bias_filler {
      type: "constant"
      value: 0.2
    }
  }
}
layer {
  name: "loss2/relu_conv"
  type: "ReLU"
  bottom: "loss2/conv"
  top: "loss2/conv"
}
layer {
  name: "loss2/fc"
  type: "InnerProduct"
  bottom: "loss2/conv"
  top: "loss2/fc"
  param {
    lr_mult: 1
    decay_mult: 1
  }
  param {
    lr_mult: 2
    decay_mult: 0
  }
  inner_product_param {
    num_output: 1024
    weight_filler {
      type: "xavier"
      std: 0.02
    }
    bias_filler {
      type: "constant"
      value: 0.2
    }
  }
}
layer {
  name: "loss2/relu_fc"
  type: "ReLU"
  bottom: "loss2/fc"
  top: "loss2/fc"
}
layer {
  name: "loss2/drop_fc"
  type: "Dropout"
  bottom: "loss2/fc"
  top: "loss2/fc"
  dropout_param {
    dropout_ratio: 0.7
  }
}
layer {
  name: "loss2/classifier_plantvillage"
  type: "InnerProduct"
  bottom: "loss2/fc"
  top: "loss2/classifier_plantvillage"
  param {
    lr_mult: 1
    decay_mult: 1
  }
  param {
    lr_mult: 2
    decay_mult: 0
  }
  inner_product_param {
    num_output: 38
    weight_filler {
      type: "xavier"
      std: 0.0009765625
    }
    bias_filler {
      type: "constant"
      value: 0
    }
  }
}
layer {
  name: "inception_4e/1x1"
  type: "Convolution"
  bottom: "inception_4d/output"
  top: "inception_4e/1x1"
  param {
    lr_mult: 1
    decay_mult: 1
  }
  param {
    lr_mult: 2
    decay_mult: 0
  }
  convolution_param {
    num_output: 256
    kernel_size: 1
    weight_filler {
      type: "xavier"
      std: 0.03
    }
    bias_filler {
      type: "constant"
      value: 0.2
    }
  }
}
layer {
  name: "inception_4e/relu_1x1"
  type: "ReLU"
  bottom: "inception_4e/1x1"
  top: "inception_4e/1x1"
}
layer {
  name: "inception_4e/3x3_reduce"
  type: "Convolution"
  bottom: "inception_4d/output"
  top: "inception_4e/3x3_reduce"
  param {
    lr_mult: 1
    decay_mult: 1
  }
  param {
    lr_mult: 2
    decay_mult: 0
  }
  convolution_param {
    num_output: 160
    kernel_size: 1
    weight_filler {
      type: "xavier"
      std: 0.09
    }
    bias_filler {
      type: "constant"
      value: 0.2
    }
  }
}
layer {
  name: "inception_4e/relu_3x3_reduce"
  type: "ReLU"
  bottom: "inception_4e/3x3_reduce"
  top: "inception_4e/3x3_reduce"
}
layer {
  name: "inception_4e/3x3"
  type: "Convolution"
  bottom: "inception_4e/3x3_reduce"
  top: "inception_4e/3x3"
  param {
    lr_mult: 1
    decay_mult: 1
  }
  param {
    lr_mult: 2
    decay_mult: 0
  }
  convolution_param {
    num_output: 320
    pad: 1
    kernel_size: 3
    weight_filler {
      type: "xavier"
      std: 0.03
    }
    bias_filler {
      type: "constant"
      value: 0.2
    }
  }
}
layer {
  name: "inception_4e/relu_3x3"
  type: "ReLU"
  bottom: "inception_4e/3x3"
  top: "inception_4e/3x3"
}
layer {
  name: "inception_4e/5x5_reduce"
  type: "Convolution"
  bottom: "inception_4d/output"
  top: "inception_4e/5x5_reduce"
  param {
    lr_mult: 1
    decay_mult: 1
  }
  param {
    lr_mult: 2
    decay_mult: 0
  }
  convolution_param {
    num_output: 32
    kernel_size: 1
    weight_filler {
      type: "xavier"
      std: 0.2
    }
    bias_filler {
      type: "constant"
      value: 0.2
    }
  }
}
layer {
  name: "inception_4e/relu_5x5_reduce"
  type: "ReLU"
  bottom: "inception_4e/5x5_reduce"
  top: "inception_4e/5x5_reduce"
}
layer {
  name: "inception_4e/5x5"
  type: "Convolution"
  bottom: "inception_4e/5x5_reduce"
  top: "inception_4e/
I0403 18:01:39.246044 15902 layer_factory.hpp:77] Creating layer data
I0403 18:01:39.246634 15902 net.cpp:91] Creating Layer data
I0403 18:01:39.246665 15902 net.cpp:399] data -> data
I0403 18:01:39.246716 15902 net.cpp:399] data -> label
I0403 18:01:39.246752 15902 data_transformer.cpp:25] Loading mean file from: /home/mohanty/data/final_dataset/lmdb/grayscale-60-40/mean.binaryproto
I0403 18:01:39.247922 15905 db_lmdb.cpp:38] Opened lmdb /home/mohanty/data/final_dataset/lmdb/grayscale-60-40/test_db
I0403 18:01:39.260148 15902 data_layer.cpp:41] output data size: 24,3,224,224
I0403 18:01:39.287209 15902 net.cpp:141] Setting up data
I0403 18:01:39.287292 15902 net.cpp:148] Top shape: 24 3 224 224 (3612672)
I0403 18:01:39.287314 15902 net.cpp:148] Top shape: 24 (24)
I0403 18:01:39.287329 15902 net.cpp:156] Memory required for data: 14450784
I0403 18:01:39.287356 15902 layer_factory.hpp:77] Creating layer label_data_1_split
I0403 18:01:39.287384 15902 net.cpp:91] Creating Layer label_data_1_split
I0403 18:01:39.287402 15902 net.cpp:425] label_data_1_split <- label
I0403 18:01:39.287433 15902 net.cpp:399] label_data_1_split -> label_data_1_split_0
I0403 18:01:39.287462 15902 net.cpp:399] label_data_1_split -> label_data_1_split_1
I0403 18:01:39.287483 15902 net.cpp:399] label_data_1_split -> label_data_1_split_2
I0403 18:01:39.287504 15902 net.cpp:399] label_data_1_split -> label_data_1_split_3
I0403 18:01:39.287524 15902 net.cpp:399] label_data_1_split -> label_data_1_split_4
I0403 18:01:39.287544 15902 net.cpp:399] label_data_1_split -> label_data_1_split_5
I0403 18:01:39.287564 15902 net.cpp:399] label_data_1_split -> label_data_1_split_6
I0403 18:01:39.287585 15902 net.cpp:399] label_data_1_split -> label_data_1_split_7
I0403 18:01:39.287605 15902 net.cpp:399] label_data_1_split -> label_data_1_split_8
I0403 18:01:39.287626 15902 net.cpp:399] label_data_1_split -> label_data_1_split_9
I0403 18:01:39.287744 15902 net.cpp:141] Setting up label_data_1_split
I0403 18:01:39.287768 15902 net.cpp:148] Top shape: 24 (24)
I0403 18:01:39.287786 15902 net.cpp:148] Top shape: 24 (24)
I0403 18:01:39.287803 15902 net.cpp:148] Top shape: 24 (24)
I0403 18:01:39.287820 15902 net.cpp:148] Top shape: 24 (24)
I0403 18:01:39.287837 15902 net.cpp:148] Top shape: 24 (24)
I0403 18:01:39.287853 15902 net.cpp:148] Top shape: 24 (24)
I0403 18:01:39.287869 15902 net.cpp:148] Top shape: 24 (24)
I0403 18:01:39.287885 15902 net.cpp:148] Top shape: 24 (24)
I0403 18:01:39.287901 15902 net.cpp:148] Top shape: 24 (24)
I0403 18:01:39.287917 15902 net.cpp:148] Top shape: 24 (24)
I0403 18:01:39.287962 15902 net.cpp:156] Memory required for data: 14451744
I0403 18:01:39.287991 15902 layer_factory.hpp:77] Creating layer conv1/7x7_s2
I0403 18:01:39.288025 15902 net.cpp:91] Creating Layer conv1/7x7_s2
I0403 18:01:39.288045 15902 net.cpp:425] conv1/7x7_s2 <- data
I0403 18:01:39.288065 15902 net.cpp:399] conv1/7x7_s2 -> conv1/7x7_s2
I0403 18:01:39.430270 15902 net.cpp:141] Setting up conv1/7x7_s2
I0403 18:01:39.430357 15902 net.cpp:148] Top shape: 24 64 112 112 (19267584)
I0403 18:01:39.430376 15902 net.cpp:156] Memory required for data: 91522080
I0403 18:01:39.430407 15902 layer_factory.hpp:77] Creating layer conv1/relu_7x7
I0403 18:01:39.430433 15902 net.cpp:91] Creating Layer conv1/relu_7x7
I0403 18:01:39.430452 15902 net.cpp:425] conv1/relu_7x7 <- conv1/7x7_s2
I0403 18:01:39.430471 15902 net.cpp:386] conv1/relu_7x7 -> conv1/7x7_s2 (in-place)
I0403 18:01:39.430727 15902 net.cpp:141] Setting up conv1/relu_7x7
I0403 18:01:39.430753 15902 net.cpp:148] Top shape: 24 64 112 112 (19267584)
I0403 18:01:39.430769 15902 net.cpp:156] Memory required for data: 168592416
I0403 18:01:39.430785 15902 layer_factory.hpp:77] Creating layer pool1/3x3_s2
I0403 18:01:39.430811 15902 net.cpp:91] Creating Layer pool1/3x3_s2
I0403 18:01:39.430830 15902 net.cpp:425] pool1/3x3_s2 <- conv1/7x7_s2
I0403 18:01:39.430847 15902 net.cpp:399] pool1/3x3_s2 -> pool1/3x3_s2
I0403 18:01:39.430922 15902 net.cpp:141] Setting up pool1/3x3_s2
I0403 18:01:39.430950 15902 net.cpp:148] Top shape: 24 64 56 56 (4816896)
I0403 18:01:39.430968 15902 net.cpp:156] Memory required for data: 187860000
I0403 18:01:39.430984 15902 layer_factory.hpp:77] Creating layer pool1/norm1
I0403 18:01:39.431008 15902 net.cpp:91] Creating Layer pool1/norm1
I0403 18:01:39.431026 15902 net.cpp:425] pool1/norm1 <- pool1/3x3_s2
I0403 18:01:39.431044 15902 net.cpp:399] pool1/norm1 -> pool1/norm1
I0403 18:01:39.431329 15902 net.cpp:141] Setting up pool1/norm1
I0403 18:01:39.431357 15902 net.cpp:148] Top shape: 24 64 56 56 (4816896)
I0403 18:01:39.431372 15902 net.cpp:156] Memory required for data: 207127584
I0403 18:01:39.431388 15902 layer_factory.hpp:77] Creating layer conv2/3x3_reduce
I0403 18:01:39.431413 15902 net.cpp:91] Creating Layer conv2/3x3_reduce
I0403 18:01:39.431430 15902 net.cpp:425] conv2/3x3_reduce <- pool1/norm1
I0403 18:01:39.431448 15902 net.cpp:399] conv2/3x3_reduce -> conv2/3x3_reduce
I0403 18:01:39.432798 15902 net.cpp:141] Setting up conv2/3x3_reduce
I0403 18:01:39.432828 15902 net.cpp:148] Top shape: 24 64 56 56 (4816896)
I0403 18:01:39.432844 15902 net.cpp:156] Memory required for data: 226395168
I0403 18:01:39.432865 15902 layer_factory.hpp:77] Creating layer conv2/relu_3x3_reduce
I0403 18:01:39.432888 15902 net.cpp:91] Creating Layer conv2/relu_3x3_reduce
I0403 18:01:39.432904 15902 net.cpp:425] conv2/relu_3x3_reduce <- conv2/3x3_reduce
I0403 18:01:39.432924 15902 net.cpp:386] conv2/relu_3x3_reduce -> conv2/3x3_reduce (in-place)
I0403 18:01:39.433234 15902 net.cpp:141] Setting up conv2/relu_3x3_reduce
I0403 18:01:39.433262 15902 net.cpp:148] Top shape: 24 64 56 56 (4816896)
I0403 18:01:39.433279 15902 net.cpp:156] Memory required for data: 245662752
I0403 18:01:39.433295 15902 layer_factory.hpp:77] Creating layer conv2/3x3
I0403 18:01:39.433318 15902 net.cpp:91] Creating Layer conv2/3x3
I0403 18:01:39.433336 15902 net.cpp:425] conv2/3x3 <- conv2/3x3_reduce
I0403 18:01:39.433357 15902 net.cpp:399] conv2/3x3 -> conv2/3x3
I0403 18:01:39.435698 15902 net.cpp:141] Setting up conv2/3x3
I0403 18:01:39.435729 15902 net.cpp:148] Top shape: 24 192 56 56 (14450688)
I0403 18:01:39.435746 15902 net.cpp:156] Memory required for data: 303465504
I0403 18:01:39.435767 15902 layer_factory.hpp:77] Creating layer conv2/relu_3x3
I0403 18:01:39.435789 15902 net.cpp:91] Creating Layer conv2/relu_3x3
I0403 18:01:39.435807 15902 net.cpp:425] conv2/relu_3x3 <- conv2/3x3
I0403 18:01:39.435825 15902 net.cpp:386] conv2/relu_3x3 -> conv2/3x3 (in-place)
I0403 18:01:39.436007 15902 net.cpp:141] Setting up conv2/relu_3x3
I0403 18:01:39.436034 15902 net.cpp:148] Top shape: 24 192 56 56 (14450688)
I0403 18:01:39.436085 15902 net.cpp:156] Memory required for data: 361268256
I0403 18:01:39.436101 15902 layer_factory.hpp:77] Creating layer conv2/norm2
I0403 18:01:39.436120 15902 net.cpp:91] Creating Layer conv2/norm2
I0403 18:01:39.436136 15902 net.cpp:425] conv2/norm2 <- conv2/3x3
I0403 18:01:39.436156 15902 net.cpp:399] conv2/norm2 -> conv2/norm2
I0403 18:01:39.436470 15902 net.cpp:141] Setting up conv2/norm2
I0403 18:01:39.436498 15902 net.cpp:148] Top shape: 24 192 56 56 (14450688)
I0403 18:01:39.436513 15902 net.cpp:156] Memory required for data: 419071008
I0403 18:01:39.436529 15902 layer_factory.hpp:77] Creating layer pool2/3x3_s2
I0403 18:01:39.436547 15902 net.cpp:91] Creating Layer pool2/3x3_s2
I0403 18:01:39.436563 15902 net.cpp:425] pool2/3x3_s2 <- conv2/norm2
I0403 18:01:39.436583 15902 net.cpp:399] pool2/3x3_s2 -> pool2/3x3_s2
I0403 18:01:39.436638 15902 net.cpp:141] Setting up pool2/3x3_s2
I0403 18:01:39.436663 15902 net.cpp:148] Top shape: 24 192 28 28 (3612672)
I0403 18:01:39.436679 15902 net.cpp:156] Memory required for data: 433521696
I0403 18:01:39.436696 15902 layer_factory.hpp:77] Creating layer pool2/3x3_s2_pool2/3x3_s2_0_split
I0403 18:01:39.436713 15902 net.cpp:91] Creating Layer pool2/3x3_s2_pool2/3x3_s2_0_split
I0403 18:01:39.436728 15902 net.cpp:425] pool2/3x3_s2_pool2/3x3_s2_0_split <- pool2/3x3_s2
I0403 18:01:39.436746 15902 net.cpp:399] pool2/3x3_s2_pool2/3x3_s2_0_split -> pool2/3x3_s2_pool2/3x3_s2_0_split_0
I0403 18:01:39.436766 15902 net.cpp:399] pool2/3x3_s2_pool2/3x3_s2_0_split -> pool2/3x3_s2_pool2/3x3_s2_0_split_1
I0403 18:01:39.436789 15902 net.cpp:399] pool2/3x3_s2_pool2/3x3_s2_0_split -> pool2/3x3_s2_pool2/3x3_s2_0_split_2
I0403 18:01:39.436810 15902 net.cpp:399] pool2/3x3_s2_pool2/3x3_s2_0_split -> pool2/3x3_s2_pool2/3x3_s2_0_split_3
I0403 18:01:39.436883 15902 net.cpp:141] Setting up pool2/3x3_s2_pool2/3x3_s2_0_split
I0403 18:01:39.436908 15902 net.cpp:148] Top shape: 24 192 28 28 (3612672)
I0403 18:01:39.436925 15902 net.cpp:148] Top shape: 24 192 28 28 (3612672)
I0403 18:01:39.436941 15902 net.cpp:148] Top shape: 24 192 28 28 (3612672)
I0403 18:01:39.436964 15902 net.cpp:148] Top shape: 24 192 28 28 (3612672)
I0403 18:01:39.436977 15902 net.cpp:156] Memory required for data: 491324448
I0403 18:01:39.436993 15902 layer_factory.hpp:77] Creating layer inception_3a/1x1
I0403 18:01:39.437016 15902 net.cpp:91] Creating Layer inception_3a/1x1
I0403 18:01:39.437034 15902 net.cpp:425] inception_3a/1x1 <- pool2/3x3_s2_pool2/3x3_s2_0_split_0
I0403 18:01:39.437057 15902 net.cpp:399] inception_3a/1x1 -> inception_3a/1x1
I0403 18:01:39.438628 15902 net.cpp:141] Setting up inception_3a/1x1
I0403 18:01:39.438658 15902 net.cpp:148] Top shape: 24 64 28 28 (1204224)
I0403 18:01:39.438675 15902 net.cpp:156] Memory required for data: 496141344
I0403 18:01:39.438694 15902 layer_factory.hpp:77] Creating layer inception_3a/relu_1x1
I0403 18:01:39.438714 15902 net.cpp:91] Creating Layer inception_3a/relu_1x1
I0403 18:01:39.438730 15902 net.cpp:425] inception_3a/relu_1x1 <- inception_3a/1x1
I0403 18:01:39.438751 15902 net.cpp:386] inception_3a/relu_1x1 -> inception_3a/1x1 (in-place)
I0403 18:01:39.438951 15902 net.cpp:141] Setting up inception_3a/relu_1x1
I0403 18:01:39.438977 15902 net.cpp:148] Top shape: 24 64 28 28 (1204224)
I0403 18:01:39.438992 15902 net.cpp:156] Memory required for data: 500958240
I0403 18:01:39.439007 15902 layer_factory.hpp:77] Creating layer inception_3a/3x3_reduce
I0403 18:01:39.439033 15902 net.cpp:91] Creating Layer inception_3a/3x3_reduce
I0403 18:01:39.439050 15902 net.cpp:425] inception_3a/3x3_reduce <- pool2/3x3_s2_pool2/3x3_s2_0_split_1
I0403 18:01:39.439072 15902 net.cpp:399] inception_3a/3x3_reduce -> inception_3a/3x3_reduce
I0403 18:01:39.440793 15902 net.cpp:141] Setting up inception_3a/3x3_reduce
I0403 18:01:39.440822 15902 net.cpp:148] Top shape: 24 96 28 28 (1806336)
I0403 18:01:39.440839 15902 net.cpp:156] Memory required for data: 508183584
I0403 18:01:39.440860 15902 layer_factory.hpp:77] Creating layer inception_3a/relu_3x3_reduce
I0403 18:01:39.440898 15902 net.cpp:91] Creating Layer inception_3a/relu_3x3_reduce
I0403 18:01:39.440917 15902 net.cpp:425] inception_3a/relu_3x3_reduce <- inception_3a/3x3_reduce
I0403 18:01:39.440935 15902 net.cpp:386] inception_3a/relu_3x3_reduce -> inception_3a/3x3_reduce (in-place)
I0403 18:01:39.441123 15902 net.cpp:141] Setting up inception_3a/relu_3x3_reduce
I0403 18:01:39.441149 15902 net.cpp:148] Top shape: 24 96 28 28 (1806336)
I0403 18:01:39.441164 15902 net.cpp:156] Memory required for data: 515408928
I0403 18:01:39.441179 15902 layer_factory.hpp:77] Creating layer inception_3a/3x3
I0403 18:01:39.441203 15902 net.cpp:91] Creating Layer inception_3a/3x3
I0403 18:01:39.441221 15902 net.cpp:425] inception_3a/3x3 <- inception_3a/3x3_reduce
I0403 18:01:39.441242 15902 net.cpp:399] inception_3a/3x3 -> inception_3a/3x3
I0403 18:01:39.442931 15902 net.cpp:141] Setting up inception_3a/3x3
I0403 18:01:39.442965 15902 net.cpp:148] Top shape: 24 128 28 28 (2408448)
I0403 18:01:39.442983 15902 net.cpp:156] Memory required for data: 525042720
I0403 18:01:39.443002 15902 layer_factory.hpp:77] Creating layer inception_3a/relu_3x3
I0403 18:01:39.443024 15902 net.cpp:91] Creating Layer inception_3a/relu_3x3
I0403 18:01:39.443042 15902 net.cpp:425] inception_3a/relu_3x3 <- inception_3a/3x3
I0403 18:01:39.443060 15902 net.cpp:386] inception_3a/relu_3x3 -> inception_3a/3x3 (in-place)
I0403 18:01:39.443353 15902 net.cpp:141] Setting up inception_3a/relu_3x3
I0403 18:01:39.443382 15902 net.cpp:148] Top shape: 24 128 28 28 (2408448)
I0403 18:01:39.443397 15902 net.cpp:156] Memory required for data: 534676512
I0403 18:01:39.443413 15902 layer_factory.hpp:77] Creating layer inception_3a/5x5_reduce
I0403 18:01:39.443435 15902 net.cpp:91] Creating Layer inception_3a/5x5_reduce
I0403 18:01:39.443454 15902 net.cpp:425] inception_3a/5x5_reduce <- pool2/3x3_s2_pool2/3x3_s2_0_split_2
I0403 18:01:39.443475 15902 net.cpp:399] inception_3a/5x5_reduce -> inception_3a/5x5_reduce
I0403 18:01:39.444447 15902 net.cpp:141] Setting up inception_3a/5x5_reduce
I0403 18:01:39.444474 15902 net.cpp:148] Top shape: 24 16 28 28 (301056)
I0403 18:01:39.444491 15902 net.cpp:156] Memory required for data: 535880736
I0403 18:01:39.444510 15902 layer_factory.hpp:77] Creating layer inception_3a/relu_5x5_reduce
I0403 18:01:39.444530 15902 net.cpp:91] Creating Layer inception_3a/relu_5x5_reduce
I0403 18:01:39.444547 15902 net.cpp:425] inception_3a/relu_5x5_reduce <- inception_3a/5x5_reduce
I0403 18:01:39.444566 15902 net.cpp:386] inception_3a/relu_5x5_reduce -> inception_3a/5x5_reduce (in-place)
I0403 18:01:39.444865 15902 net.cpp:141] Setting up inception_3a/relu_5x5_reduce
I0403 18:01:39.444895 15902 net.cpp:148] Top shape: 24 16 28 28 (301056)
I0403 18:01:39.444911 15902 net.cpp:156] Memory required for data: 537084960
I0403 18:01:39.444927 15902 layer_factory.hpp:77] Creating layer inception_3a/5x5
I0403 18:01:39.444954 15902 net.cpp:91] Creating Layer inception_3a/5x5
I0403 18:01:39.444973 15902 net.cpp:425] inception_3a/5x5 <- inception_3a/5x5_reduce
I0403 18:01:39.444993 15902 net.cpp:399] inception_3a/5x5 -> inception_3a/5x5
I0403 18:01:39.446018 15902 net.cpp:141] Setting up inception_3a/5x5
I0403 18:01:39.446045 15902 net.cpp:148] Top shape: 24 32 28 28 (602112)
I0403 18:01:39.446061 15902 net.cpp:156] Memory required for data: 539493408
I0403 18:01:39.446080 15902 layer_factory.hpp:77] Creating layer inception_3a/relu_5x5
I0403 18:01:39.446100 15902 net.cpp:91] Creating Layer inception_3a/relu_5x5
I0403 18:01:39.446117 15902 net.cpp:425] inception_3a/relu_5x5 <- inception_3a/5x5
I0403 18:01:39.446135 15902 net.cpp:386] inception_3a/relu_5x5 -> inception_3a/5x5 (in-place)
I0403 18:01:39.446308 15902 net.cpp:141] Setting up inception_3a/relu_5x5
I0403 18:01:39.446336 15902 net.cpp:148] Top shape: 24 32 28 28 (602112)
I0403 18:01:39.446352 15902 net.cpp:156] Memory required for data: 541901856
I0403 18:01:39.446367 15902 layer_factory.hpp:77] Creating layer inception_3a/pool
I0403 18:01:39.446384 15902 net.cpp:91] Creating Layer inception_3a/pool
I0403 18:01:39.446415 15902 net.cpp:425] inception_3a/pool <- pool2/3x3_s2_pool2/3x3_s2_0_split_3
I0403 18:01:39.446435 15902 net.cpp:399] inception_3a/pool -> inception_3a/pool
I0403 18:01:39.446496 15902 net.cpp:141] Setting up inception_3a/pool
I0403 18:01:39.446521 15902 net.cpp:148] Top shape: 24 192 28 28 (3612672)
I0403 18:01:39.446534 15902 net.cpp:156] Memory required for data: 556352544
I0403 18:01:39.446548 15902 layer_factory.hpp:77] Creating layer inception_3a/pool_proj
I0403 18:01:39.446571 15902 net.cpp:91] Creating Layer inception_3a/pool_proj
I0403 18:01:39.446589 15902 net.cpp:425] inception_3a/pool_proj <- inception_3a/pool
I0403 18:01:39.446611 15902 net.cpp:399] inception_3a/pool_proj -> inception_3a/pool_proj
I0403 18:01:39.447590 15902 net.cpp:141] Setting up inception_3a/pool_proj
I0403 18:01:39.447619 15902 net.cpp:148] Top shape: 24 32 28 28 (602112)
I0403 18:01:39.447635 15902 net.cpp:156] Memory required for data: 558760992
I0403 18:01:39.447656 15902 layer_factory.hpp:77] Creating layer inception_3a/relu_pool_proj
I0403 18:01:39.447679 15902 net.cpp:91] Creating Layer inception_3a/relu_pool_proj
I0403 18:01:39.447697 15902 net.cpp:425] inception_3a/relu_pool_proj <- inception_3a/pool_proj
I0403 18:01:39.447715 15902 net.cpp:386] inception_3a/relu_pool_proj -> inception_3a/pool_proj (in-place)
I0403 18:01:39.448002 15902 net.cpp:141] Setting up inception_3a/relu_pool_proj
I0403 18:01:39.448029 15902 net.cpp:148] Top shape: 24 32 28 28 (602112)
I0403 18:01:39.448045 15902 net.cpp:156] Memory required for data: 561169440
I0403 18:01:39.448060 15902 layer_factory.hpp:77] Creating layer inception_3a/output
I0403 18:01:39.448078 15902 net.cpp:91] Creating Layer inception_3a/output
I0403 18:01:39.448096 15902 net.cpp:425] inception_3a/output <- inception_3a/1x1
I0403 18:01:39.448114 15902 net.cpp:425] inception_3a/output <- inception_3a/3x3
I0403 18:01:39.448132 15902 net.cpp:425] inception_3a/output <- inception_3a/5x5
I0403 18:01:39.448148 15902 net.cpp:425] inception_3a/output <- inception_3a/pool_proj
I0403 18:01:39.448165 15902 net.cpp:399] inception_3a/output -> inception_3a/output
I0403 18:01:39.448215 15902 net.cpp:141] Setting up inception_3a/output
I0403 18:01:39.448238 15902 net.cpp:148] Top shape: 24 256 28 28 (4816896)
I0403 18:01:39.448253 15902 net.cpp:156] Memory required for data: 580437024
I0403 18:01:39.448268 15902 layer_factory.hpp:77] Creating layer inception_3a/output_inception_3a/output_0_split
I0403 18:01:39.448285 15902 net.cpp:91] Creating Layer inception_3a/output_inception_3a/output_0_split
I0403 18:01:39.448302 15902 net.cpp:425] inception_3a/output_inception_3a/output_0_split <- inception_3a/output
I0403 18:01:39.448321 15902 net.cpp:399] inception_3a/output_inception_3a/output_0_split -> inception_3a/output_inception_3a/output_0_split_0
I0403 18:01:39.448343 15902 net.cpp:399] inception_3a/output_inception_3a/output_0_split -> inception_3a/output_inception_3a/output_0_split_1
I0403 18:01:39.448365 15902 net.cpp:399] inception_3a/output_inception_3a/output_0_split -> inception_3a/output_inception_3a/output_0_split_2
I0403 18:01:39.448392 15902 net.cpp:399] inception_3a/output_inception_3a/output_0_split -> inception_3a/output_inception_3a/output_0_split_3
I0403 18:01:39.448467 15902 net.cpp:141] Setting up inception_3a/output_inception_3a/output_0_split
I0403 18:01:39.448490 15902 net.cpp:148] Top shape: 24 256 28 28 (4816896)
I0403 18:01:39.448508 15902 net.cpp:148] Top shape: 24 256 28 28 (4816896)
I0403 18:01:39.448523 15902 net.cpp:148] Top shape: 24 256 28 28 (4816896)
I0403 18:01:39.448539 15902 net.cpp:148] Top shape: 24 256 28 28 (4816896)
I0403 18:01:39.448554 15902 net.cpp:156] Memory required for data: 657507360
I0403 18:01:39.448568 15902 layer_factory.hpp:77] Creating layer inception_3b/1x1
I0403 18:01:39.448591 15902 net.cpp:91] Creating Layer inception_3b/1x1
I0403 18:01:39.448609 15902 net.cpp:425] inception_3b/1x1 <- inception_3a/output_inception_3a/output_0_split_0
I0403 18:01:39.448631 15902 net.cpp:399] inception_3b/1x1 -> inception_3b/1x1
I0403 18:01:39.449784 15902 net.cpp:141] Setting up inception_3b/1x1
I0403 18:01:39.449825 15902 net.cpp:148] Top shape: 24 128 28 28 (2408448)
I0403 18:01:39.449841 15902 net.cpp:156] Memory required for data: 667141152
I0403 18:01:39.449861 15902 layer_factory.hpp:77] Creating layer inception_3b/relu_1x1
I0403 18:01:39.449878 15902 net.cpp:91] Creating Layer inception_3b/relu_1x1
I0403 18:01:39.449899 15902 net.cpp:425] inception_3b/relu_1x1 <- inception_3b/1x1
I0403 18:01:39.449918 15902 net.cpp:386] inception_3b/relu_1x1 -> inception_3b/1x1 (in-place)
I0403 18:01:39.450099 15902 net.cpp:141] Setting up inception_3b/relu_1x1
I0403 18:01:39.450126 15902 net.cpp:148] Top shape: 24 128 28 28 (2408448)
I0403 18:01:39.450141 15902 net.cpp:156] Memory required for data: 676774944
I0403 18:01:39.450156 15902 layer_factory.hpp:77] Creating layer inception_3b/3x3_reduce
I0403 18:01:39.450181 15902 net.cpp:91] Creating Layer inception_3b/3x3_reduce
I0403 18:01:39.450197 15902 net.cpp:425] inception_3b/3x3_reduce <- inception_3a/output_inception_3a/output_0_split_1
I0403 18:01:39.450219 15902 net.cpp:399] inception_3b/3x3_reduce -> inception_3b/3x3_reduce
I0403 18:01:39.451409 15902 net.cpp:141] Setting up inception_3b/3x3_reduce
I0403 18:01:39.451438 15902 net.cpp:148] Top shape: 24 128 28 28 (2408448)
I0403 18:01:39.451455 15902 net.cpp:156] Memory required for data: 686408736
I0403 18:01:39.451474 15902 layer_factory.hpp:77] Creating layer inception_3b/relu_3x3_reduce
I0403 18:01:39.451493 15902 net.cpp:91] Creating Layer inception_3b/relu_3x3_reduce
I0403 18:01:39.451510 15902 net.cpp:425] inception_3b/relu_3x3_reduce <- inception_3b/3x3_reduce
I0403 18:01:39.451531 15902 net.cpp:386] inception_3b/relu_3x3_reduce -> inception_3b/3x3_reduce (in-place)
I0403 18:01:39.451712 15902 net.cpp:141] Setting up inception_3b/relu_3x3_reduce
I0403 18:01:39.451740 15902 net.cpp:148] Top shape: 24 128 28 28 (2408448)
I0403 18:01:39.451755 15902 net.cpp:156] Memory required for data: 696042528
I0403 18:01:39.451769 15902 layer_factory.hpp:77] Creating layer inception_3b/3x3
I0403 18:01:39.451797 15902 net.cpp:91] Creating Layer inception_3b/3x3
I0403 18:01:39.451817 15902 net.cpp:425] inception_3b/3x3 <- inception_3b/3x3_reduce
I0403 18:01:39.451836 15902 net.cpp:399] inception_3b/3x3 -> inception_3b/3x3
I0403 18:01:39.454810 15902 net.cpp:141] Setting up inception_3b/3x3
I0403 18:01:39.454840 15902 net.cpp:148] Top shape: 24 192 28 28 (3612672)
I0403 18:01:39.454856 15902 net.cpp:156] Memory required for data: 710493216
I0403 18:01:39.454875 15902 layer_factory.hpp:77] Creating layer inception_3b/relu_3x3
I0403 18:01:39.454896 15902 net.cpp:91] Creating Layer inception_3b/relu_3x3
I0403 18:01:39.454915 15902 net.cpp:425] inception_3b/relu_3x3 <- inception_3b/3x3
I0403 18:01:39.454933 15902 net.cpp:386] inception_3b/relu_3x3 -> inception_3b/3x3 (in-place)
I0403 18:01:39.455215 15902 net.cpp:141] Setting up inception_3b/relu_3x3
I0403 18:01:39.455242 15902 net.cpp:148] Top shape: 24 192 28 28 (3612672)
I0403 18:01:39.455257 15902 net.cpp:156] Memory required for data: 724943904
I0403 18:01:39.455273 15902 layer_factory.hpp:77] Creating layer inception_3b/5x5_reduce
I0403 18:01:39.455297 15902 net.cpp:91] Creating Layer inception_3b/5x5_reduce
I0403 18:01:39.455315 15902 net.cpp:425] inception_3b/5x5_reduce <- inception_3a/output_inception_3a/output_0_split_2
I0403 18:01:39.455338 15902 net.cpp:399] inception_3b/5x5_reduce -> inception_3b/5x5_reduce
I0403 18:01:39.456339 15902 net.cpp:141] Setting up inception_3b/5x5_reduce
I0403 18:01:39.456367 15902 net.cpp:148] Top shape: 24 32 28 28 (602112)
I0403 18:01:39.456383 15902 net.cpp:156] Memory required for data: 727352352
I0403 18:01:39.456403 15902 layer_factory.hpp:77] Creating layer inception_3b/relu_5x5_reduce
I0403 18:01:39.456423 15902 net.cpp:91] Creating Layer inception_3b/relu_5x5_reduce
I0403 18:01:39.456439 15902 net.cpp:425] inception_3b/relu_5x5_reduce <- inception_3b/5x5_reduce
I0403 18:01:39.456457 15902 net.cpp:386] inception_3b/relu_5x5_reduce -> inception_3b/5x5_reduce (in-place)
I0403 18:01:39.456653 15902 net.cpp:141] Setting up inception_3b/relu_5x5_reduce
I0403 18:01:39.456681 15902 net.cpp:148] Top shape: 24 32 28 28 (602112)
I0403 18:01:39.456696 15902 net.cpp:156] Memory required for data: 729760800
I0403 18:01:39.456712 15902 layer_factory.hpp:77] Creating layer inception_3b/5x5
I0403 18:01:39.456734 15902 net.cpp:91] Creating Layer inception_3b/5x5
I0403 18:01:39.456753 15902 net.cpp:425] inception_3b/5x5 <- inception_3b/5x5_reduce
I0403 18:01:39.456771 15902 net.cpp:399] inception_3b/5x5 -> inception_3b/5x5
I0403 18:01:39.458770 15902 net.cpp:141] Setting up inception_3b/5x5
I0403 18:01:39.458798 15902 net.cpp:148] Top shape: 24 96 28 28 (1806336)
I0403 18:01:39.458814 15902 net.cpp:156] Memory required for data: 736986144
I0403 18:01:39.458832 15902 layer_factory.hpp:77] Creating layer inception_3b/relu_5x5
I0403 18:01:39.458850 15902 net.cpp:91] Creating Layer inception_3b/relu_5x5
I0403 18:01:39.458866 15902 net.cpp:425] inception_3b/relu_5x5 <- inception_3b/5x5
I0403 18:01:39.458885 15902 net.cpp:386] inception_3b/relu_5x5 -> inception_3b/5x5 (in-place)
I0403 18:01:39.459079 15902 net.cpp:141] Setting up inception_3b/relu_5x5
I0403 18:01:39.459105 15902 net.cpp:148] Top shape: 24 96 28 28 (1806336)
I0403 18:01:39.459120 15902 net.cpp:156] Memory required for data: 744211488
I0403 18:01:39.459134 15902 layer_factory.hpp:77] Creating layer inception_3b/pool
I0403 18:01:39.459152 15902 net.cpp:91] Creating Layer inception_3b/pool
I0403 18:01:39.459168 15902 net.cpp:425] inception_3b/pool <- inception_3a/output_inception_3a/output_0_split_3
I0403 18:01:39.459187 15902 net.cpp:399] inception_3b/pool -> inception_3b/pool
I0403 18:01:39.459241 15902 net.cpp:141] Setting up inception_3b/pool
I0403 18:01:39.459265 15902 net.cpp:148] Top shape: 24 256 28 28 (4816896)
I0403 18:01:39.459280 15902 net.cpp:156] Memory required for data: 763479072
I0403 18:01:39.459293 15902 layer_factory.hpp:77] Creating layer inception_3b/pool_proj
I0403 18:01:39.459316 15902 net.cpp:91] Creating Layer inception_3b/pool_proj
I0403 18:01:39.459333 15902 net.cpp:425] inception_3b/pool_proj <- inception_3b/pool
I0403 18:01:39.459354 15902 net.cpp:399] inception_3b/pool_proj -> inception_3b/pool_proj
I0403 18:01:39.460391 15902 net.cpp:141] Setting up inception_3b/pool_proj
I0403 18:01:39.460422 15902 net.cpp:148] Top shape: 24 64 28 28 (1204224)
I0403 18:01:39.460438 15902 net.cpp:156] Memory required for data: 768295968
I0403 18:01:39.460455 15902 layer_factory.hpp:77] Creating layer inception_3b/relu_pool_proj
I0403 18:01:39.460474 15902 net.cpp:91] Creating Layer inception_3b/relu_pool_proj
I0403 18:01:39.460489 15902 net.cpp:425] inception_3b/relu_pool_proj <- inception_3b/pool_proj
I0403 18:01:39.460506 15902 net.cpp:386] inception_3b/relu_pool_proj -> inception_3b/pool_proj (in-place)
I0403 18:01:39.460892 15902 net.cpp:141] Setting up inception_3b/relu_pool_proj
I0403 18:01:39.460918 15902 net.cpp:148] Top shape: 24 64 28 28 (1204224)
I0403 18:01:39.460933 15902 net.cpp:156] Memory required for data: 773112864
I0403 18:01:39.460952 15902 layer_factory.hpp:77] Creating layer inception_3b/output
I0403 18:01:39.460974 15902 net.cpp:91] Creating Layer inception_3b/output
I0403 18:01:39.460991 15902 net.cpp:425] inception_3b/output <- inception_3b/1x1
I0403 18:01:39.461007 15902 net.cpp:425] inception_3b/output <- inception_3b/3x3
I0403 18:01:39.461024 15902 net.cpp:425] inception_3b/output <- inception_3b/5x5
I0403 18:01:39.461040 15902 net.cpp:425] inception_3b/output <- inception_3b/pool_proj
I0403 18:01:39.461055 15902 net.cpp:399] inception_3b/output -> inception_3b/output
I0403 18:01:39.461100 15902 net.cpp:141] Setting up inception_3b/output
I0403 18:01:39.461123 15902 net.cpp:148] Top shape: 24 480 28 28 (9031680)
I0403 18:01:39.461138 15902 net.cpp:156] Memory required for data: 809239584
I0403 18:01:39.461153 15902 layer_factory.hpp:77] Creating layer pool3/3x3_s2
I0403 18:01:39.461169 15902 net.cpp:91] Creating Layer pool3/3x3_s2
I0403 18:01:39.461184 15902 net.cpp:425] pool3/3x3_s2 <- inception_3b/output
I0403 18:01:39.461220 15902 net.cpp:399] pool3/3x3_s2 -> pool3/3x3_s2
I0403 18:01:39.461277 15902 net.cpp:141] Setting up pool3/3x3_s2
I0403 18:01:39.461300 15902 net.cpp:148] Top shape: 24 480 14 14 (2257920)
I0403 18:01:39.461315 15902 net.cpp:156] Memory required for data: 818271264
I0403 18:01:39.461329 15902 layer_factory.hpp:77] Creating layer pool3/3x3_s2_pool3/3x3_s2_0_split
I0403 18:01:39.461349 15902 net.cpp:91] Creating Layer pool3/3x3_s2_pool3/3x3_s2_0_split
I0403 18:01:39.461365 15902 net.cpp:425] pool3/3x3_s2_pool3/3x3_s2_0_split <- pool3/3x3_s2
I0403 18:01:39.461385 15902 net.cpp:399] pool3/3x3_s2_pool3/3x3_s2_0_split -> pool3/3x3_s2_pool3/3x3_s2_0_split_0
I0403 18:01:39.461405 15902 net.cpp:399] pool3/3x3_s2_pool3/3x3_s2_0_split -> pool3/3x3_s2_pool3/3x3_s2_0_split_1
I0403 18:01:39.461423 15902 net.cpp:399] pool3/3x3_s2_pool3/3x3_s2_0_split -> pool3/3x3_s2_pool3/3x3_s2_0_split_2
I0403 18:01:39.461442 15902 net.cpp:399] pool3/3x3_s2_pool3/3x3_s2_0_split -> pool3/3x3_s2_pool3/3x3_s2_0_split_3
I0403 18:01:39.461518 15902 net.cpp:141] Setting up pool3/3x3_s2_pool3/3x3_s2_0_split
I0403 18:01:39.461542 15902 net.cpp:148] Top shape: 24 480 14 14 (2257920)
I0403 18:01:39.461560 15902 net.cpp:148] Top shape: 24 480 14 14 (2257920)
I0403 18:01:39.461575 15902 net.cpp:148] Top shape: 24 480 14 14 (2257920)
I0403 18:01:39.461591 15902 net.cpp:148] Top shape: 24 480 14 14 (2257920)
I0403 18:01:39.461603 15902 net.cpp:156] Memory required for data: 854397984
I0403 18:01:39.461617 15902 layer_factory.hpp:77] Creating layer inception_4a/1x1
I0403 18:01:39.461638 15902 net.cpp:91] Creating Layer inception_4a/1x1
I0403 18:01:39.461655 15902 net.cpp:425] inception_4a/1x1 <- pool3/3x3_s2_pool3/3x3_s2_0_split_0
I0403 18:01:39.461674 15902 net.cpp:399] inception_4a/1x1 -> inception_4a/1x1
I0403 18:01:39.463217 15902 net.cpp:141] Setting up inception_4a/1x1
I0403 18:01:39.463246 15902 net.cpp:148] Top shape: 24 192 14 14 (903168)
I0403 18:01:39.463263 15902 net.cpp:156] Memory required for data: 858010656
I0403 18:01:39.463280 15902 layer_factory.hpp:77] Creating layer inception_4a/relu_1x1
I0403 18:01:39.463299 15902 net.cpp:91] Creating Layer inception_4a/relu_1x1
I0403 18:01:39.463315 15902 net.cpp:425] inception_4a/relu_1x1 <- inception_4a/1x1
I0403 18:01:39.463333 15902 net.cpp:386] inception_4a/relu_1x1 -> inception_4a/1x1 (in-place)
I0403 18:01:39.463510 15902 net.cpp:141] Setting up inception_4a/relu_1x1
I0403 18:01:39.463536 15902 net.cpp:148] Top shape: 24 192 14 14 (903168)
I0403 18:01:39.463549 15902 net.cpp:156] Memory required for data: 861623328
I0403 18:01:39.463564 15902 layer_factory.hpp:77] Creating layer inception_4a/3x3_reduce
I0403 18:01:39.463587 15902 net.cpp:91] Creating Layer inception_4a/3x3_reduce
I0403 18:01:39.463603 15902 net.cpp:425] inception_4a/3x3_reduce <- pool3/3x3_s2_pool3/3x3_s2_0_split_1
I0403 18:01:39.463624 15902 net.cpp:399] inception_4a/3x3_reduce -> inception_4a/3x3_reduce
I0403 18:01:39.464879 15902 net.cpp:141] Setting up inception_4a/3x3_reduce
I0403 18:01:39.464910 15902 net.cpp:148] Top shape: 24 96 14 14 (451584)
I0403 18:01:39.464926 15902 net.cpp:156] Memory required for data: 863429664
I0403 18:01:39.464954 15902 layer_factory.hpp:77] Creating layer inception_4a/relu_3x3_reduce
I0403 18:01:39.464975 15902 net.cpp:91] Creating Layer inception_4a/relu_3x3_reduce
I0403 18:01:39.464992 15902 net.cpp:425] inception_4a/relu_3x3_reduce <- inception_4a/3x3_reduce
I0403 18:01:39.465008 15902 net.cpp:386] inception_4a/relu_3x3_reduce -> inception_4a/3x3_reduce (in-place)
I0403 18:01:39.465179 15902 net.cpp:141] Setting up inception_4a/relu_3x3_reduce
I0403 18:01:39.465204 15902 net.cpp:148] Top shape: 24 96 14 14 (451584)
I0403 18:01:39.465219 15902 net.cpp:156] Memory required for data: 865236000
I0403 18:01:39.465234 15902 layer_factory.hpp:77] Creating layer inception_4a/3x3
I0403 18:01:39.465255 15902 net.cpp:91] Creating Layer inception_4a/3x3
I0403 18:01:39.465272 15902 net.cpp:425] inception_4a/3x3 <- inception_4a/3x3_reduce
I0403 18:01:39.465293 15902 net.cpp:399] inception_4a/3x3 -> inception_4a/3x3
I0403 18:01:39.467942 15902 net.cpp:141] Setting up inception_4a/3x3
I0403 18:01:39.467980 15902 net.cpp:148] Top shape: 24 208 14 14 (978432)
I0403 18:01:39.467996 15902 net.cpp:156] Memory required for data: 869149728
I0403 18:01:39.468015 15902 layer_factory.hpp:77] Creating layer inception_4a/relu_3x3
I0403 18:01:39.468034 15902 net.cpp:91] Creating Layer inception_4a/relu_3x3
I0403 18:01:39.468050 15902 net.cpp:425] inception_4a/relu_3x3 <- inception_4a/3x3
I0403 18:01:39.468068 15902 net.cpp:386] inception_4a/relu_3x3 -> inception_4a/3x3 (in-place)
I0403 18:01:39.468346 15902 net.cpp:141] Setting up inception_4a/relu_3x3
I0403 18:01:39.468371 15902 net.cpp:148] Top shape: 24 208 14 14 (978432)
I0403 18:01:39.468387 15902 net.cpp:156] Memory required for data: 873063456
I0403 18:01:39.468402 15902 layer_factory.hpp:77] Creating layer inception_4a/5x5_reduce
I0403 18:01:39.468425 15902 net.cpp:91] Creating Layer inception_4a/5x5_reduce
I0403 18:01:39.468442 15902 net.cpp:425] inception_4a/5x5_reduce <- pool3/3x3_s2_pool3/3x3_s2_0_split_2
I0403 18:01:39.468464 15902 net.cpp:399] inception_4a/5x5_reduce -> inception_4a/5x5_reduce
I0403 18:01:39.469492 15902 net.cpp:141] Setting up inception_4a/5x5_reduce
I0403 18:01:39.469519 15902 net.cpp:148] Top shape: 24 16 14 14 (75264)
I0403 18:01:39.469534 15902 net.cpp:156] Memory required for data: 873364512
I0403 18:01:39.469552 15902 layer_factory.hpp:77] Creating layer inception_4a/relu_5x5_reduce
I0403 18:01:39.469573 15902 net.cpp:91] Creating Layer inception_4a/relu_5x5_reduce
I0403 18:01:39.469589 15902 net.cpp:425] inception_4a/relu_5x5_reduce <- inception_4a/5x5_reduce
I0403 18:01:39.469606 15902 net.cpp:386] inception_4a/relu_5x5_reduce -> inception_4a/5x5_reduce (in-place)
I0403 18:01:39.469786 15902 net.cpp:141] Setting up inception_4a/relu_5x5_reduce
I0403 18:01:39.469812 15902 net.cpp:148] Top shape: 24 16 14 14 (75264)
I0403 18:01:39.469828 15902 net.cpp:156] Memory required for data: 873665568
I0403 18:01:39.469843 15902 layer_factory.hpp:77] Creating layer inception_4a/5x5
I0403 18:01:39.469862 15902 net.cpp:91] Creating Layer inception_4a/5x5
I0403 18:01:39.469878 15902 net.cpp:425] inception_4a/5x5 <- inception_4a/5x5_reduce
I0403 18:01:39.469898 15902 net.cpp:399] inception_4a/5x5 -> inception_4a/5x5
I0403 18:01:39.470938 15902 net.cpp:141] Setting up inception_4a/5x5
I0403 18:01:39.470968 15902 net.cpp:148] Top shape: 24 48 14 14 (225792)
I0403 18:01:39.470984 15902 net.cpp:156] Memory required for data: 874568736
I0403 18:01:39.471001 15902 layer_factory.hpp:77] Creating layer inception_4a/relu_5x5
I0403 18:01:39.471024 15902 net.cpp:91] Creating Layer inception_4a/relu_5x5
I0403 18:01:39.471040 15902 net.cpp:425] inception_4a/relu_5x5 <- inception_4a/5x5
I0403 18:01:39.471057 15902 net.cpp:386] inception_4a/relu_5x5 -> inception_4a/5x5 (in-place)
I0403 18:01:39.471225 15902 net.cpp:141] Setting up inception_4a/relu_5x5
I0403 18:01:39.471248 15902 net.cpp:148] Top shape: 24 48 14 14 (225792)
I0403 18:01:39.471262 15902 net.cpp:156] Memory required for data: 875471904
I0403 18:01:39.471276 15902 layer_factory.hpp:77] Creating layer inception_4a/pool
I0403 18:01:39.471293 15902 net.cpp:91] Creating Layer inception_4a/pool
I0403 18:01:39.471308 15902 net.cpp:425] inception_4a/pool <- pool3/3x3_s2_pool3/3x3_s2_0_split_3
I0403 18:01:39.471328 15902 net.cpp:399] inception_4a/pool -> inception_4a/pool
I0403 18:01:39.471387 15902 net.cpp:141] Setting up inception_4a/pool
I0403 18:01:39.471410 15902 net.cpp:148] Top shape: 24 480 14 14 (2257920)
I0403 18:01:39.471424 15902 net.cpp:156] Memory required for data: 884503584
I0403 18:01:39.471438 15902 layer_factory.hpp:77] Creating layer inception_4a/pool_proj
I0403 18:01:39.471462 15902 net.cpp:91] Creating Layer inception_4a/pool_proj
I0403 18:01:39.471478 15902 net.cpp:425] inception_4a/pool_proj <- inception_4a/pool
I0403 18:01:39.471496 15902 net.cpp:399] inception_4a/pool_proj -> inception_4a/pool_proj
I0403 18:01:39.472609 15902 net.cpp:141] Setting up inception_4a/pool_proj
I0403 18:01:39.472637 15902 net.cpp:148] Top shape: 24 64 14 14 (301056)
I0403 18:01:39.472666 15902 net.cpp:156] Memory required for data: 885707808
I0403 18:01:39.472686 15902 layer_factory.hpp:77] Creating layer inception_4a/relu_pool_proj
I0403 18:01:39.472703 15902 net.cpp:91] Creating Layer inception_4a/relu_pool_proj
I0403 18:01:39.472719 15902 net.cpp:425] inception_4a/relu_pool_proj <- inception_4a/pool_proj
I0403 18:01:39.472740 15902 net.cpp:386] inception_4a/relu_pool_proj -> inception_4a/pool_proj (in-place)
I0403 18:01:39.473011 15902 net.cpp:141] Setting up inception_4a/relu_pool_proj
I0403 18:01:39.473039 15902 net.cpp:148] Top shape: 24 64 14 14 (301056)
I0403 18:01:39.473054 15902 net.cpp:156] Memory required for data: 886912032
I0403 18:01:39.473069 15902 layer_factory.hpp:77] Creating layer inception_4a/output
I0403 18:01:39.473086 15902 net.cpp:91] Creating Layer inception_4a/output
I0403 18:01:39.473103 15902 net.cpp:425] inception_4a/output <- inception_4a/1x1
I0403 18:01:39.473117 15902 net.cpp:425] inception_4a/output <- inception_4a/3x3
I0403 18:01:39.473132 15902 net.cpp:425] inception_4a/output <- inception_4a/5x5
I0403 18:01:39.473148 15902 net.cpp:425] inception_4a/output <- inception_4a/pool_proj
I0403 18:01:39.473165 15902 net.cpp:399] inception_4a/output -> inception_4a/output
I0403 18:01:39.473208 15902 net.cpp:141] Setting up inception_4a/output
I0403 18:01:39.473232 15902 net.cpp:148] Top shape: 24 512 14 14 (2408448)
I0403 18:01:39.473244 15902 net.cpp:156] Memory required for data: 896545824
I0403 18:01:39.473258 15902 layer_factory.hpp:77] Creating layer inception_4a/output_inception_4a/output_0_split
I0403 18:01:39.473278 15902 net.cpp:91] Creating Layer inception_4a/output_inception_4a/output_0_split
I0403 18:01:39.473294 15902 net.cpp:425] inception_4a/output_inception_4a/output_0_split <- inception_4a/output
I0403 18:01:39.473310 15902 net.cpp:399] inception_4a/output_inception_4a/output_0_split -> inception_4a/output_inception_4a/output_0_split_0
I0403 18:01:39.473330 15902 net.cpp:399] inception_4a/output_inception_4a/output_0_split -> inception_4a/output_inception_4a/output_0_split_1
I0403 18:01:39.473352 15902 net.cpp:399] inception_4a/output_inception_4a/output_0_split -> inception_4a/output_inception_4a/output_0_split_2
I0403 18:01:39.473372 15902 net.cpp:399] inception_4a/output_inception_4a/output_0_split -> inception_4a/output_inception_4a/output_0_split_3
I0403 18:01:39.473392 15902 net.cpp:399] inception_4a/output_inception_4a/output_0_split -> inception_4a/output_inception_4a/output_0_split_4
I0403 18:01:39.473481 15902 net.cpp:141] Setting up inception_4a/output_inception_4a/output_0_split
I0403 18:01:39.473503 15902 net.cpp:148] Top shape: 24 512 14 14 (2408448)
I0403 18:01:39.473520 15902 net.cpp:148] Top shape: 24 512 14 14 (2408448)
I0403 18:01:39.473534 15902 net.cpp:148] Top shape: 24 512 14 14 (2408448)
I0403 18:01:39.473549 15902 net.cpp:148] Top shape: 24 512 14 14 (2408448)
I0403 18:01:39.473564 15902 net.cpp:148] Top shape: 24 512 14 14 (2408448)
I0403 18:01:39.473577 15902 net.cpp:156] Memory required for data: 944714784
I0403 18:01:39.473592 15902 layer_factory.hpp:77] Creating layer loss1/ave_pool
I0403 18:01:39.473608 15902 net.cpp:91] Creating Layer loss1/ave_pool
I0403 18:01:39.473623 15902 net.cpp:425] loss1/ave_pool <- inception_4a/output_inception_4a/output_0_split_0
I0403 18:01:39.473642 15902 net.cpp:399] loss1/ave_pool -> loss1/ave_pool
I0403 18:01:39.473837 15902 net.cpp:141] Setting up loss1/ave_pool
I0403 18:01:39.473863 15902 net.cpp:148] Top shape: 24 512 4 4 (196608)
I0403 18:01:39.473878 15902 net.cpp:156] Memory required for data: 945501216
I0403 18:01:39.473892 15902 layer_factory.hpp:77] Creating layer loss1/conv
I0403 18:01:39.473913 15902 net.cpp:91] Creating Layer loss1/conv
I0403 18:01:39.473930 15902 net.cpp:425] loss1/conv <- loss1/ave_pool
I0403 18:01:39.473953 15902 net.cpp:399] loss1/conv -> loss1/conv
I0403 18:01:39.475296 15902 net.cpp:141] Setting up loss1/conv
I0403 18:01:39.475323 15902 net.cpp:148] Top shape: 24 128 4 4 (49152)
I0403 18:01:39.475352 15902 net.cpp:156] Memory required for data: 945697824
I0403 18:01:39.475370 15902 layer_factory.hpp:77] Creating layer loss1/relu_conv
I0403 18:01:39.475388 15902 net.cpp:91] Creating Layer loss1/relu_conv
I0403 18:01:39.475404 15902 net.cpp:425] loss1/relu_conv <- loss1/conv
I0403 18:01:39.475421 15902 net.cpp:386] loss1/relu_conv -> loss1/conv (in-place)
I0403 18:01:39.475690 15902 net.cpp:141] Setting up loss1/relu_conv
I0403 18:01:39.475716 15902 net.cpp:148] Top shape: 24 128 4 4 (49152)
I0403 18:01:39.475731 15902 net.cpp:156] Memory required for data: 945894432
I0403 18:01:39.475745 15902 layer_factory.hpp:77] Creating layer loss1/fc
I0403 18:01:39.475769 15902 net.cpp:91] Creating Layer loss1/fc
I0403 18:01:39.475785 15902 net.cpp:425] loss1/fc <- loss1/conv
I0403 18:01:39.475806 15902 net.cpp:399] loss1/fc -> loss1/fc
I0403 18:01:39.492897 15902 net.cpp:141] Setting up loss1/fc
I0403 18:01:39.492931 15902 net.cpp:148] Top shape: 24 1024 (24576)
I0403 18:01:39.492950 15902 net.cpp:156] Memory required for data: 945992736
I0403 18:01:39.492969 15902 layer_factory.hpp:77] Creating layer loss1/relu_fc
I0403 18:01:39.492986 15902 net.cpp:91] Creating Layer loss1/relu_fc
I0403 18:01:39.493001 15902 net.cpp:425] loss1/relu_fc <- loss1/fc
I0403 18:01:39.493018 15902 net.cpp:386] loss1/relu_fc -> loss1/fc (in-place)
I0403 18:01:39.493201 15902 net.cpp:141] Setting up loss1/relu_fc
I0403 18:01:39.493224 15902 net.cpp:148] Top shape: 24 1024 (24576)
I0403 18:01:39.493239 15902 net.cpp:156] Memory required for data: 946091040
I0403 18:01:39.493253 15902 layer_factory.hpp:77] Creating layer loss1/drop_fc
I0403 18:01:39.493278 15902 net.cpp:91] Creating Layer loss1/drop_fc
I0403 18:01:39.493294 15902 net.cpp:425] loss1/drop_fc <- loss1/fc
I0403 18:01:39.493314 15902 net.cpp:386] loss1/drop_fc -> loss1/fc (in-place)
I0403 18:01:39.493362 15902 net.cpp:141] Setting up loss1/drop_fc
I0403 18:01:39.493386 15902 net.cpp:148] Top shape: 24 1024 (24576)
I0403 18:01:39.493403 15902 net.cpp:156] Memory required for data: 946189344
I0403 18:01:39.493418 15902 layer_factory.hpp:77] Creating layer loss1/classifier_plantvillage
I0403 18:01:39.493435 15902 net.cpp:91] Creating Layer loss1/classifier_plantvillage
I0403 18:01:39.493450 15902 net.cpp:425] loss1/classifier_plantvillage <- loss1/fc
I0403 18:01:39.493469 15902 net.cpp:399] loss1/classifier_plantvillage -> loss1/classifier_plantvillage
I0403 18:01:39.494343 15902 net.cpp:141] Setting up loss1/classifier_plantvillage
I0403 18:01:39.494369 15902 net.cpp:148] Top shape: 24 38 (912)
I0403 18:01:39.494385 15902 net.cpp:156] Memory required for data: 946192992
I0403 18:01:39.494401 15902 layer_factory.hpp:77] Creating layer loss1/classifier_plantvillage_loss1/classifier_plantvillage_0_split
I0403 18:01:39.494420 15902 net.cpp:91] Creating Layer loss1/classifier_plantvillage_loss1/classifier_plantvillage_0_split
I0403 18:01:39.494434 15902 net.cpp:425] loss1/classifier_plantvillage_loss1/classifier_plantvillage_0_split <- loss1/classifier_plantvillage
I0403 18:01:39.494454 15902 net.cpp:399] loss1/classifier_plantvillage_loss1/classifier_plantvillage_0_split -> loss1/classifier_plantvillage_loss1/classifier_plantvillage_0_split_0
I0403 18:01:39.494475 15902 net.cpp:399] loss1/classifier_plantvillage_loss1/classifier_plantvillage_0_split -> loss1/classifier_plantvillage_loss1/classifier_plantvillage_0_split_1
I0403 18:01:39.494494 15902 net.cpp:399] loss1/classifier_plantvillage_loss1/classifier_plantvillage_0_split -> loss1/classifier_plantvillage_loss1/classifier_plantvillage_0_split_2
I0403 18:01:39.494557 15902 net.cpp:141] Setting up loss1/classifier_plantvillage_loss1/classifier_plantvillage_0_split
I0403 18:01:39.494580 15902 net.cpp:148] Top shape: 24 38 (912)
I0403 18:01:39.494596 15902 net.cpp:148] Top shape: 24 38 (912)
I0403 18:01:39.494611 15902 net.cpp:148] Top shape: 24 38 (912)
I0403 18:01:39.494624 15902 net.cpp:156] Memory required for data: 946203936
I0403 18:01:39.494638 15902 layer_factory.hpp:77] Creating layer inception_4b/1x1
I0403 18:01:39.494659 15902 net.cpp:91] Creating Layer inception_4b/1x1
I0403 18:01:39.494690 15902 net.cpp:425] inception_4b/1x1 <- inception_4a/output_inception_4a/output_0_split_1
I0403 18:01:39.494710 15902 net.cpp:399] inception_4b/1x1 -> inception_4b/1x1
I0403 18:01:39.496304 15902 net.cpp:141] Setting up inception_4b/1x1
I0403 18:01:39.496331 15902 net.cpp:148] Top shape: 24 160 14 14 (752640)
I0403 18:01:39.496346 15902 net.cpp:156] Memory required for data: 949214496
I0403 18:01:39.496364 15902 layer_factory.hpp:77] Creating layer inception_4b/relu_1x1
I0403 18:01:39.496384 15902 net.cpp:91] Creating Layer inception_4b/relu_1x1
I0403 18:01:39.496402 15902 net.cpp:425] inception_4b/relu_1x1 <- inception_4b/1x1
I0403 18:01:39.496418 15902 net.cpp:386] inception_4b/relu_1x1 -> inception_4b/1x1 (in-place)
I0403 18:01:39.496590 15902 net.cpp:141] Setting up inception_4b/relu_1x1
I0403 18:01:39.496614 15902 net.cpp:148] Top shape: 24 160 14 14 (752640)
I0403 18:01:39.496631 15902 net.cpp:156] Memory required for data: 952225056
I0403 18:01:39.496645 15902 layer_factory.hpp:77] Creating layer inception_4b/3x3_reduce
I0403 18:01:39.496665 15902 net.cpp:91] Creating Layer inception_4b/3x3_reduce
I0403 18:01:39.496680 15902 net.cpp:425] inception_4b/3x3_reduce <- inception_4a/output_inception_4a/output_0_split_2
I0403 18:01:39.496701 15902 net.cpp:399] inception_4b/3x3_reduce -> inception_4b/3x3_reduce
I0403 18:01:39.498018 15902 net.cpp:141] Setting up inception_4b/3x3_reduce
I0403 18:01:39.498046 15902 net.cpp:148] Top shape: 24 112 14 14 (526848)
I0403 18:01:39.498061 15902 net.cpp:156] Memory required for data: 954332448
I0403 18:01:39.498080 15902 layer_factory.hpp:77] Creating layer inception_4b/relu_3x3_reduce
I0403 18:01:39.498100 15902 net.cpp:91] Creating Layer inception_4b/relu_3x3_reduce
I0403 18:01:39.498116 15902 net.cpp:425] inception_4b/relu_3x3_reduce <- inception_4b/3x3_reduce
I0403 18:01:39.498132 15902 net.cpp:386] inception_4b/relu_3x3_reduce -> inception_4b/3x3_reduce (in-place)
I0403 18:01:39.498401 15902 net.cpp:141] Setting up inception_4b/relu_3x3_reduce
I0403 18:01:39.498427 15902 net.cpp:148] Top shape: 24 112 14 14 (526848)
I0403 18:01:39.498441 15902 net.cpp:156] Memory required for data: 956439840
I0403 18:01:39.498456 15902 layer_factory.hpp:77] Creating layer inception_4b/3x3
I0403 18:01:39.498477 15902 net.cpp:91] Creating Layer inception_4b/3x3
I0403 18:01:39.498495 15902 net.cpp:425] inception_4b/3x3 <- inception_4b/3x3_reduce
I0403 18:01:39.498515 15902 net.cpp:399] inception_4b/3x3 -> inception_4b/3x3
I0403 18:01:39.501471 15902 net.cpp:141] Setting up inception_4b/3x3
I0403 18:01:39.501500 15902 net.cpp:148] Top shape: 24 224 14 14 (1053696)
I0403 18:01:39.501516 15902 net.cpp:156] Memory required for data: 960654624
I0403 18:01:39.501535 15902 layer_factory.hpp:77] Creating layer inception_4b/relu_3x3
I0403 18:01:39.501554 15902 net.cpp:91] Creating Layer inception_4b/relu_3x3
I0403 18:01:39.501569 15902 net.cpp:425] inception_4b/relu_3x3 <- inception_4b/3x3
I0403 18:01:39.501588 15902 net.cpp:386] inception_4b/relu_3x3 -> inception_4b/3x3 (in-place)
I0403 18:01:39.501768 15902 net.cpp:141] Setting up inception_4b/relu_3x3
I0403 18:01:39.501792 15902 net.cpp:148] Top shape: 24 224 14 14 (1053696)
I0403 18:01:39.501807 15902 net.cpp:156] Memory required for data: 964869408
I0403 18:01:39.501822 15902 layer_factory.hpp:77] Creating layer inception_4b/5x5_reduce
I0403 18:01:39.501845 15902 net.cpp:91] Creating Layer inception_4b/5x5_reduce
I0403 18:01:39.501863 15902 net.cpp:425] inception_4b/5x5_reduce <- inception_4a/output_inception_4a/output_0_split_3
I0403 18:01:39.501883 15902 net.cpp:399] inception_4b/5x5_reduce -> inception_4b/5x5_reduce
I0403 18:01:39.502961 15902 net.cpp:141] Setting up inception_4b/5x5_reduce
I0403 18:01:39.502990 15902 net.cpp:148] Top shape: 24 24 14 14 (112896)
I0403 18:01:39.503005 15902 net.cpp:156] Memory required for data: 965320992
I0403 18:01:39.503022 15902 layer_factory.hpp:77] Creating layer inception_4b/relu_5x5_reduce
I0403 18:01:39.503042 15902 net.cpp:91] Creating Layer inception_4b/relu_5x5_reduce
I0403 18:01:39.503073 15902 net.cpp:425] inception_4b/relu_5x5_reduce <- inception_4b/5x5_reduce
I0403 18:01:39.503092 15902 net.cpp:386] inception_4b/relu_5x5_reduce -> inception_4b/5x5_reduce (in-place)
I0403 18:01:39.503273 15902 net.cpp:141] Setting up inception_4b/relu_5x5_reduce
I0403 18:01:39.503300 15902 net.cpp:148] Top shape: 24 24 14 14 (112896)
I0403 18:01:39.503315 15902 net.cpp:156] Memory required for data: 965772576
I0403 18:01:39.503330 15902 layer_factory.hpp:77] Creating layer inception_4b/5x5
I0403 18:01:39.503353 15902 net.cpp:91] Creating Layer inception_4b/5x5
I0403 18:01:39.503371 15902 net.cpp:425] inception_4b/5x5 <- inception_4b/5x5_reduce
I0403 18:01:39.503388 15902 net.cpp:399] inception_4b/5x5 -> inception_4b/5x5
I0403 18:01:39.504595 15902 net.cpp:141] Setting up inception_4b/5x5
I0403 18:01:39.504623 15902 net.cpp:148] Top shape: 24 64 14 14 (301056)
I0403 18:01:39.504638 15902 net.cpp:156] Memory required for data: 966976800
I0403 18:01:39.504657 15902 layer_factory.hpp:77] Creating layer inception_4b/relu_5x5
I0403 18:01:39.504678 15902 net.cpp:91] Creating Layer inception_4b/relu_5x5
I0403 18:01:39.504695 15902 net.cpp:425] inception_4b/relu_5x5 <- inception_4b/5x5
I0403 18:01:39.504712 15902 net.cpp:386] inception_4b/relu_5x5 -> inception_4b/5x5 (in-place)
I0403 18:01:39.505018 15902 net.cpp:141] Setting up inception_4b/relu_5x5
I0403 18:01:39.505058 15902 net.cpp:148] Top shape: 24 64 14 14 (301056)
I0403 18:01:39.505072 15902 net.cpp:156] Memory required for data: 968181024
I0403 18:01:39.505087 15902 layer_factory.hpp:77] Creating layer inception_4b/pool
I0403 18:01:39.505105 15902 net.cpp:91] Creating Layer inception_4b/pool
I0403 18:01:39.505121 15902 net.cpp:425] inception_4b/pool <- inception_4a/output_inception_4a/output_0_split_4
I0403 18:01:39.505143 15902 net.cpp:399] inception_4b/pool -> inception_4b/pool
I0403 18:01:39.505208 15902 net.cpp:141] Setting up inception_4b/pool
I0403 18:01:39.505233 15902 net.cpp:148] Top shape: 24 512 14 14 (2408448)
I0403 18:01:39.505246 15902 net.cpp:156] Memory required for data: 977814816
I0403 18:01:39.505260 15902 layer_factory.hpp:77] Creating layer inception_4b/pool_proj
I0403 18:01:39.505285 15902 net.cpp:91] Creating Layer inception_4b/pool_proj
I0403 18:01:39.505301 15902 net.cpp:425] inception_4b/pool_proj <- inception_4b/pool
I0403 18:01:39.505321 15902 net.cpp:399] inception_4b/pool_proj -> inception_4b/pool_proj
I0403 18:01:39.506499 15902 net.cpp:141] Setting up inception_4b/pool_proj
I0403 18:01:39.506526 15902 net.cpp:148] Top shape: 24 64 14 14 (301056)
I0403 18:01:39.506541 15902 net.cpp:156] Memory required for data: 979019040
I0403 18:01:39.506559 15902 layer_factory.hpp:77] Creating layer inception_4b/relu_pool_proj
I0403 18:01:39.506579 15902 net.cpp:91] Creating Layer inception_4b/relu_pool_proj
I0403 18:01:39.506597 15902 net.cpp:425] inception_4b/relu_pool_proj <- inception_4b/pool_proj
I0403 18:01:39.506614 15902 net.cpp:386] inception_4b/relu_pool_proj -> inception_4b/pool_proj (in-place)
I0403 18:01:39.506791 15902 net.cpp:141] Setting up inception_4b/relu_pool_proj
I0403 18:01:39.506817 15902 net.cpp:148] Top shape: 24 64 14 14 (301056)
I0403 18:01:39.506834 15902 net.cpp:156] Memory required for data: 980223264
I0403 18:01:39.506847 15902 layer_factory.hpp:77] Creating layer inception_4b/output
I0403 18:01:39.506865 15902 net.cpp:91] Creating Layer inception_4b/output
I0403 18:01:39.506880 15902 net.cpp:425] inception_4b/output <- inception_4b/1x1
I0403 18:01:39.506896 15902 net.cpp:425] inception_4b/output <- inception_4b/3x3
I0403 18:01:39.506911 15902 net.cpp:425] inception_4b/output <- inception_4b/5x5
I0403 18:01:39.506927 15902 net.cpp:425] inception_4b/output <- inception_4b/pool_proj
I0403 18:01:39.506944 15902 net.cpp:399] inception_4b/output -> inception_4b/output
I0403 18:01:39.506997 15902 net.cpp:141] Setting up inception_4b/output
I0403 18:01:39.507020 15902 net.cpp:148] Top shape: 24 512 14 14 (2408448)
I0403 18:01:39.507035 15902 net.cpp:156] Memory required for data: 989857056
I0403 18:01:39.507063 15902 layer_factory.hpp:77] Creating layer inception_4b/output_inception_4b/output_0_split
I0403 18:01:39.507084 15902 net.cpp:91] Creating Layer inception_4b/output_inception_4b/output_0_split
I0403 18:01:39.507102 15902 net.cpp:425] inception_4b/output_inception_4b/output_0_split <- inception_4b/output
I0403 18:01:39.507118 15902 net.cpp:399] inception_4b/output_inception_4b/output_0_split -> inception_4b/output_inception_4b/output_0_split_0
I0403 18:01:39.507138 15902 net.cpp:399] inception_4b/output_inception_4b/output_0_split -> inception_4b/output_inception_4b/output_0_split_1
I0403 18:01:39.507159 15902 net.cpp:399] inception_4b/output_inception_4b/output_0_split -> inception_4b/output_inception_4b/output_0_split_2
I0403 18:01:39.507179 15902 net.cpp:399] inception_4b/output_inception_4b/output_0_split -> inception_4b/output_inception_4b/output_0_split_3
I0403 18:01:39.507262 15902 net.cpp:141] Setting up inception_4b/output_inception_4b/output_0_split
I0403 18:01:39.507285 15902 net.cpp:148] Top shape: 24 512 14 14 (2408448)
I0403 18:01:39.507302 15902 net.cpp:148] Top shape: 24 512 14 14 (2408448)
I0403 18:01:39.507316 15902 net.cpp:148] Top shape: 24 512 14 14 (2408448)
I0403 18:01:39.507331 15902 net.cpp:148] Top shape: 24 512 14 14 (2408448)
I0403 18:01:39.507345 15902 net.cpp:156] Memory required for data: 1028392224
I0403 18:01:39.507359 15902 layer_factory.hpp:77] Creating layer inception_4c/1x1
I0403 18:01:39.507385 15902 net.cpp:91] Creating Layer inception_4c/1x1
I0403 18:01:39.507402 15902 net.cpp:425] inception_4c/1x1 <- inception_4b/output_inception_4b/output_0_split_0
I0403 18:01:39.507423 15902 net.cpp:399] inception_4c/1x1 -> inception_4c/1x1
I0403 18:01:39.508848 15902 net.cpp:141] Setting up inception_4c/1x1
I0403 18:01:39.508879 15902 net.cpp:148] Top shape: 24 128 14 14 (602112)
I0403 18:01:39.508895 15902 net.cpp:156] Memory required for data: 1030800672
I0403 18:01:39.508914 15902 layer_factory.hpp:77] Creating layer inception_4c/relu_1x1
I0403 18:01:39.508932 15902 net.cpp:91] Creating Layer inception_4c/relu_1x1
I0403 18:01:39.508951 15902 net.cpp:425] inception_4c/relu_1x1 <- inception_4c/1x1
I0403 18:01:39.508970 15902 net.cpp:386] inception_4c/relu_1x1 -> inception_4c/1x1 (in-place)
I0403 18:01:39.509152 15902 net.cpp:141] Setting up inception_4c/relu_1x1
I0403 18:01:39.509177 15902 net.cpp:148] Top shape: 24 128 14 14 (602112)
I0403 18:01:39.509191 15902 net.cpp:156] Memory required for data: 1033209120
I0403 18:01:39.509207 15902 layer_factory.hpp:77] Creating layer inception_4c/3x3_reduce
I0403 18:01:39.509227 15902 net.cpp:91] Creating Layer inception_4c/3x3_reduce
I0403 18:01:39.509245 15902 net.cpp:425] inception_4c/3x3_reduce <- inception_4b/output_inception_4b/output_0_split_1
I0403 18:01:39.509268 15902 net.cpp:399] inception_4c/3x3_reduce -> inception_4c/3x3_reduce
I0403 18:01:39.511203 15902 net.cpp:141] Setting up inception_4c/3x3_reduce
I0403 18:01:39.511230 15902 net.cpp:148] Top shape: 24 128 14 14 (602112)
I0403 18:01:39.511246 15902 net.cpp:156] Memory required for data: 1035617568
I0403 18:01:39.511265 15902 layer_factory.hpp:77] Creating layer inception_4c/relu_3x3_reduce
I0403 18:01:39.511286 15902 net.cpp:91] Creating Layer inception_4c/relu_3x3_reduce
I0403 18:01:39.511302 15902 net.cpp:425] inception_4c/relu_3x3_reduce <- inception_4c/3x3_reduce
I0403 18:01:39.511319 15902 net.cpp:386] inception_4c/relu_3x3_reduce -> inception_4c/3x3_reduce (in-place)
I0403 18:01:39.511605 15902 net.cpp:141] Setting up inception_4c/relu_3x3_reduce
I0403 18:01:39.511631 15902 net.cpp:148] Top shape: 24 128 14 14 (602112)
I0403 18:01:39.511646 15902 net.cpp:156] Memory required for data: 1038026016
I0403 18:01:39.511662 15902 layer_factory.hpp:77] Creating layer inception_4c/3x3
I0403 18:01:39.511683 15902 net.cpp:91] Creating Layer inception_4c/3x3
I0403 18:01:39.511701 15902 net.cpp:425] inception_4c/3x3 <- inception_4c/3x3_reduce
I0403 18:01:39.511723 15902 net.cpp:399] inception_4c/3x3 -> inception_4c/3x3
I0403 18:01:39.515307 15902 net.cpp:141] Setting up inception_4c/3x3
I0403 18:01:39.515348 15902 net.cpp:148] Top shape: 24 256 14 14 (1204224)
I0403 18:01:39.515364 15902 net.cpp:156] Memory required for data: 1042842912
I0403 18:01:39.515396 15902 layer_factory.hpp:77] Creating layer inception_4c/relu_3x3
I0403 18:01:39.515419 15902 net.cpp:91] Creating Layer inception_4c/relu_3x3
I0403 18:01:39.515435 15902 net.cpp:425] inception_4c/relu_3x3 <- inception_4c/3x3
I0403 18:01:39.515453 15902 net.cpp:386] inception_4c/relu_3x3 -> inception_4c/3x3 (in-place)
I0403 18:01:39.515635 15902 net.cpp:141] Setting up inception_4c/relu_3x3
I0403 18:01:39.515660 15902 net.cpp:148] Top shape: 24 256 14 14 (1204224)
I0403 18:01:39.515673 15902 net.cpp:156] Memory required for data: 1047659808
I0403 18:01:39.515688 15902 layer_factory.hpp:77] Creating layer inception_4c/5x5_reduce
I0403 18:01:39.515712 15902 net.cpp:91] Creating Layer inception_4c/5x5_reduce
I0403 18:01:39.515728 15902 net.cpp:425] inception_4c/5x5_reduce <- inception_4b/output_inception_4b/output_0_split_2
I0403 18:01:39.515750 15902 net.cpp:399] inception_4c/5x5_reduce -> inception_4c/5x5_reduce
I0403 18:01:39.516868 15902 net.cpp:141] Setting up inception_4c/5x5_reduce
I0403 18:01:39.516907 15902 net.cpp:148] Top shape: 24 24 14 14 (112896)
I0403 18:01:39.516924 15902 net.cpp:156] Memory required for data: 1048111392
I0403 18:01:39.516942 15902 layer_factory.hpp:77] Creating layer inception_4c/relu_5x5_reduce
I0403 18:01:39.516966 15902 net.cpp:91] Creating Layer inception_4c/relu_5x5_reduce
I0403 18:01:39.516983 15902 net.cpp:425] inception_4c/relu_5x5_reduce <- inception_4c/5x5_reduce
I0403 18:01:39.517000 15902 net.cpp:386] inception_4c/relu_5x5_reduce -> inception_4c/5x5_reduce (in-place)
I0403 18:01:39.517180 15902 net.cpp:141] Setting up inception_4c/relu_5x5_reduce
I0403 18:01:39.517204 15902 net.cpp:148] Top shape: 24 24 14 14 (112896)
I0403 18:01:39.517218 15902 net.cpp:156] Memory required for data: 1048562976
I0403 18:01:39.517232 15902 layer_factory.hpp:77] Creating layer inception_4c/5x5
I0403 18:01:39.517256 15902 net.cpp:91] Creating Layer inception_4c/5x5
I0403 18:01:39.517272 15902 net.cpp:425] inception_4c/5x5 <- inception_4c/5x5_reduce
I0403 18:01:39.517292 15902 net.cpp:399] inception_4c/5x5 -> inception_4c/5x5
I0403 18:01:39.518496 15902 net.cpp:141] Setting up inception_4c/5x5
I0403 18:01:39.518524 15902 net.cpp:148] Top shape: 24 64 14 14 (301056)
I0403 18:01:39.518540 15902 net.cpp:156] Memory required for data: 1049767200
I0403 18:01:39.518558 15902 layer_factory.hpp:77] Creating layer inception_4c/relu_5x5
I0403 18:01:39.518575 15902 net.cpp:91] Creating Layer inception_4c/relu_5x5
I0403 18:01:39.518590 15902 net.cpp:425] inception_4c/relu_5x5 <- inception_4c/5x5
I0403 18:01:39.518607 15902 net.cpp:386] inception_4c/relu_5x5 -> inception_4c/5x5 (in-place)
I0403 18:01:39.518890 15902 net.cpp:141] Setting up inception_4c/relu_5x5
I0403 18:01:39.518918 15902 net.cpp:148] Top shape: 24 64 14 14 (301056)
I0403 18:01:39.518932 15902 net.cpp:156] Memory required for data: 1050971424
I0403 18:01:39.518950 15902 layer_factory.hpp:77] Creating layer inception_4c/pool
I0403 18:01:39.518970 15902 net.cpp:91] Creating Layer inception_4c/pool
I0403 18:01:39.518985 15902 net.cpp:425] inception_4c/pool <- inception_4b/output_inception_4b/output_0_split_3
I0403 18:01:39.519002 15902 net.cpp:399] inception_4c/pool -> inception_4c/pool
I0403 18:01:39.519067 15902 net.cpp:141] Setting up inception_4c/pool
I0403 18:01:39.519088 15902 net.cpp:148] Top shape: 24 512 14 14 (2408448)
I0403 18:01:39.519103 15902 net.cpp:156] Memory required for data: 1060605216
I0403 18:01:39.519116 15902 layer_factory.hpp:77] Creating layer inception_4c/pool_proj
I0403 18:01:39.519139 15902 net.cpp:91] Creating Layer inception_4c/pool_proj
I0403 18:01:39.519155 15902 net.cpp:425] inception_4c/pool_proj <- inception_4c/pool
I0403 18:01:39.519176 15902 net.cpp:399] inception_4c/pool_proj -> inception_4c/pool_proj
I0403 18:01:39.520355 15902 net.cpp:141] Setting up inception_4c/pool_proj
I0403 18:01:39.520382 15902 net.cpp:148] Top shape: 24 64 14 14 (301056)
I0403 18:01:39.520411 15902 net.cpp:156] Memory required for data: 1061809440
I0403 18:01:39.520429 15902 layer_factory.hpp:77] Creating layer inception_4c/relu_pool_proj
I0403 18:01:39.520450 15902 net.cpp:91] Creating Layer inception_4c/relu_pool_proj
I0403 18:01:39.520467 15902 net.cpp:425] inception_4c/relu_pool_proj <- inception_4c/pool_proj
I0403 18:01:39.520484 15902 net.cpp:386] inception_4c/relu_pool_proj -> inception_4c/pool_proj (in-place)
I0403 18:01:39.520663 15902 net.cpp:141] Setting up inception_4c/relu_pool_proj
I0403 18:01:39.520689 15902 net.cpp:148] Top shape: 24 64 14 14 (301056)
I0403 18:01:39.520704 15902 net.cpp:156] Memory required for data: 1063013664
I0403 18:01:39.520719 15902 layer_factory.hpp:77] Creating layer inception_4c/output
I0403 18:01:39.520735 15902 net.cpp:91] Creating Layer inception_4c/output
I0403 18:01:39.520750 15902 net.cpp:425] inception_4c/output <- inception_4c/1x1
I0403 18:01:39.520766 15902 net.cpp:425] inception_4c/output <- inception_4c/3x3
I0403 18:01:39.520781 15902 net.cpp:425] inception_4c/output <- inception_4c/5x5
I0403 18:01:39.520797 15902 net.cpp:425] inception_4c/output <- inception_4c/pool_proj
I0403 18:01:39.520812 15902 net.cpp:399] inception_4c/output -> inception_4c/output
I0403 18:01:39.520859 15902 net.cpp:141] Setting up inception_4c/output
I0403 18:01:39.520880 15902 net.cpp:148] Top shape: 24 512 14 14 (2408448)
I0403 18:01:39.520895 15902 net.cpp:156] Memory required for data: 1072647456
I0403 18:01:39.520908 15902 layer_factory.hpp:77] Creating layer inception_4c/output_inception_4c/output_0_split
I0403 18:01:39.520926 15902 net.cpp:91] Creating Layer inception_4c/output_inception_4c/output_0_split
I0403 18:01:39.520943 15902 net.cpp:425] inception_4c/output_inception_4c/output_0_split <- inception_4c/output
I0403 18:01:39.520967 15902 net.cpp:399] inception_4c/output_inception_4c/output_0_split -> inception_4c/output_inception_4c/output_0_split_0
I0403 18:01:39.520985 15902 net.cpp:399] inception_4c/output_inception_4c/output_0_split -> inception_4c/output_inception_4c/output_0_split_1
I0403 18:01:39.521003 15902 net.cpp:399] inception_4c/output_inception_4c/output_0_split -> inception_4c/output_inception_4c/output_0_split_2
I0403 18:01:39.521023 15902 net.cpp:399] inception_4c/output_inception_4c/output_0_split -> inception_4c/output_inception_4c/output_0_split_3
I0403 18:01:39.521105 15902 net.cpp:141] Setting up inception_4c/output_inception_4c/output_0_split
I0403 18:01:39.521127 15902 net.cpp:148] Top shape: 24 512 14 14 (2408448)
I0403 18:01:39.521142 15902 net.cpp:148] Top shape: 24 512 14 14 (2408448)
I0403 18:01:39.521157 15902 net.cpp:148] Top shape: 24 512 14 14 (2408448)
I0403 18:01:39.521173 15902 net.cpp:148] Top shape: 24 512 14 14 (2408448)
I0403 18:01:39.521185 15902 net.cpp:156] Memory required for data: 1111182624
I0403 18:01:39.521199 15902 layer_factory.hpp:77] Creating layer inception_4d/1x1
I0403 18:01:39.521221 15902 net.cpp:91] Creating Layer inception_4d/1x1
I0403 18:01:39.521239 15902 net.cpp:425] inception_4d/1x1 <- inception_4c/output_inception_4c/output_0_split_0
I0403 18:01:39.521260 15902 net.cpp:399] inception_4d/1x1 -> inception_4d/1x1
I0403 18:01:39.522594 15902 net.cpp:141] Setting up inception_4d/1x1
I0403 18:01:39.522621 15902 net.cpp:148] Top shape: 24 112 14 14 (526848)
I0403 18:01:39.522635 15902 net.cpp:156] Memory required for data: 1113290016
I0403 18:01:39.522653 15902 layer_factory.hpp:77] Creating layer inception_4d/relu_1x1
I0403 18:01:39.522671 15902 net.cpp:91] Creating Layer inception_4d/relu_1x1
I0403 18:01:39.522687 15902 net.cpp:425] inception_4d/relu_1x1 <- inception_4d/1x1
I0403 18:01:39.522706 15902 net.cpp:386] inception_4d/relu_1x1 -> inception_4d/1x1 (in-place)
I0403 18:01:39.522883 15902 net.cpp:141] Setting up inception_4d/relu_1x1
I0403 18:01:39.522907 15902 net.cpp:148] Top shape: 24 112 14 14 (526848)
I0403 18:01:39.522923 15902 net.cpp:156] Memory required for data: 1115397408
I0403 18:01:39.522938 15902 layer_factory.hpp:77] Creating layer inception_4d/3x3_reduce
I0403 18:01:39.522977 15902 net.cpp:91] Creating Layer inception_4d/3x3_reduce
I0403 18:01:39.522995 15902 net.cpp:425] inception_4d/3x3_reduce <- inception_4c/output_inception_4c/output_0_split_1
I0403 18:01:39.523016 15902 net.cpp:399] inception_4d/3x3_reduce -> inception_4d/3x3_reduce
I0403 18:01:39.524477 15902 net.cpp:141] Setting up inception_4d/3x3_reduce
I0403 18:01:39.524507 15902 net.cpp:148] Top shape: 24 144 14 14 (677376)
I0403 18:01:39.524521 15902 net.cpp:156] Memory required for data: 1118106912
I0403 18:01:39.524540 15902 layer_factory.hpp:77] Creating layer inception_4d/relu_3x3_reduce
I0403 18:01:39.524557 15902 net.cpp:91] Creating Layer inception_4d/relu_3x3_reduce
I0403 18:01:39.524572 15902 net.cpp:425] inception_4d/relu_3x3_reduce <- inception_4d/3x3_reduce
I0403 18:01:39.524592 15902 net.cpp:386] inception_4d/relu_3x3_reduce -> inception_4d/3x3_reduce (in-place)
I0403 18:01:39.524869 15902 net.cpp:141] Setting up inception_4d/relu_3x3_reduce
I0403 18:01:39.524896 15902 net.cpp:148] Top shape: 24 144 14 14 (677376)
I0403 18:01:39.524911 15902 net.cpp:156] Memory required for data: 1120816416
I0403 18:01:39.524927 15902 layer_factory.hpp:77] Creating layer inception_4d/3x3
I0403 18:01:39.524952 15902 net.cpp:91] Creating Layer inception_4d/3x3
I0403 18:01:39.524971 15902 net.cpp:425] inception_4d/3x3 <- inception_4d/3x3_reduce
I0403 18:01:39.524988 15902 net.cpp:399] inception_4d/3x3 -> inception_4d/3x3
I0403 18:01:39.529124 15902 net.cpp:141] Setting up inception_4d/3x3
I0403 18:01:39.529151 15902 net.cpp:148] Top shape: 24 288 14 14 (1354752)
I0403 18:01:39.529166 15902 net.cpp:156] Memory required for data: 1126235424
I0403 18:01:39.529184 15902 layer_factory.hpp:77] Creating layer inception_4d/relu_3x3
I0403 18:01:39.529202 15902 net.cpp:91] Creating Layer inception_4d/relu_3x3
I0403 18:01:39.529248 15902 net.cpp:425] inception_4d/relu_3x3 <- inception_4d/3x3
I0403 18:01:39.529265 15902 net.cpp:386] inception_4d/relu_3x3 -> inception_4d/3x3 (in-place)
I0403 18:01:39.529448 15902 net.cpp:141] Setting up inception_4d/relu_3x3
I0403 18:01:39.529474 15902 net.cpp:148] Top shape: 24 288 14 14 (1354752)
I0403 18:01:39.529489 15902 net.cpp:156] Memory required for data: 1131654432
I0403 18:01:39.529515 15902 layer_factory.hpp:77] Creating layer inception_4d/5x5_reduce
I0403 18:01:39.529536 15902 net.cpp:91] Creating Layer inception_4d/5x5_reduce
I0403 18:01:39.529552 15902 net.cpp:425] inception_4d/5x5_reduce <- inception_4c/output_inception_4c/output_0_split_2
I0403 18:01:39.529572 15902 net.cpp:399] inception_4d/5x5_reduce -> inception_4d/5x5_reduce
I0403 18:01:39.530683 15902 net.cpp:141] Setting up inception_4d/5x5_reduce
I0403 18:01:39.530710 15902 net.cpp:148] Top shape: 24 32 14 14 (150528)
I0403 18:01:39.530725 15902 net.cpp:156] Memory required for data: 1132256544
I0403 18:01:39.530743 15902 layer_factory.hpp:77] Creating layer inception_4d/relu_5x5_reduce
I0403 18:01:39.530761 15902 net.cpp:91] Creating Layer inception_4d/relu_5x5_reduce
I0403 18:01:39.530776 15902 net.cpp:425] inception_4d/relu_5x5_reduce <- inception_4d/5x5_reduce
I0403 18:01:39.530796 15902 net.cpp:386] inception_4d/relu_5x5_reduce -> inception_4d/5x5_reduce (in-place)
I0403 18:01:39.530982 15902 net.cpp:141] Setting up inception_4d/relu_5x5_reduce
I0403 18:01:39.531005 15902 net.cpp:148] Top shape: 24 32 14 14 (150528)
I0403 18:01:39.531019 15902 net.cpp:156] Memory required for data: 1132858656
I0403 18:01:39.531034 15902 layer_factory.hpp:77] Creating layer inception_4d/5x5
I0403 18:01:39.531055 15902 net.cpp:91] Creating Layer inception_4d/5x5
I0403 18:01:39.531072 15902 net.cpp:425] inception_4d/5x5 <- inception_4d/5x5_reduce
I0403 18:01:39.531093 15902 net.cpp:399] inception_4d/5x5 -> inception_4d/5x5
I0403 18:01:39.532519 15902 net.cpp:141] Setting up inception_4d/5x5
I0403 18:01:39.532546 15902 net.cpp:148] Top shape: 24 64 14 14 (301056)
I0403 18:01:39.532562 15902 net.cpp:156] Memory required for data: 1134062880
I0403 18:01:39.532579 15902 layer_factory.hpp:77] Creating layer inception_4d/relu_5x5
I0403 18:01:39.532613 15902 net.cpp:91] Creating Layer inception_4d/relu_5x5
I0403 18:01:39.532630 15902 net.cpp:425] inception_4d/relu_5x5 <- inception_4d/5x5
I0403 18:01:39.532647 15902 net.cpp:386] inception_4d/relu_5x5 -> inception_4d/5x5 (in-place)
I0403 18:01:39.532938 15902 net.cpp:141] Setting up inception_4d/relu_5x5
I0403 18:01:39.532968 15902 net.cpp:148] Top shape: 24 64 14 14 (301056)
I0403 18:01:39.532982 15902 net.cpp:156] Memory required for data: 1135267104
I0403 18:01:39.532997 15902 layer_factory.hpp:77] Creating layer inception_4d/pool
I0403 18:01:39.533017 15902 net.cpp:91] Creating Layer inception_4d/pool
I0403 18:01:39.533033 15902 net.cpp:425] inception_4d/pool <- inception_4c/output_inception_4c/output_0_split_3
I0403 18:01:39.533051 15902 net.cpp:399] inception_4d/pool -> inception_4d/pool
I0403 18:01:39.533115 15902 net.cpp:141] Setting up inception_4d/pool
I0403 18:01:39.533138 15902 net.cpp:148] Top shape: 24 512 14 14 (2408448)
I0403 18:01:39.533152 15902 net.cpp:156] Memory required for data: 1144900896
I0403 18:01:39.533166 15902 layer_factory.hpp:77] Creating layer inception_4d/pool_proj
I0403 18:01:39.533188 15902 net.cpp:91] Creating Layer inception_4d/pool_proj
I0403 18:01:39.533205 15902 net.cpp:425] inception_4d/pool_proj <- inception_4d/pool
I0403 18:01:39.533226 15902 net.cpp:399] inception_4d/pool_proj -> inception_4d/pool_proj
I0403 18:01:39.534921 15902 net.cpp:141] Setting up inception_4d/pool_proj
I0403 18:01:39.534955 15902 net.cpp:148] Top shape: 24 64 14 14 (301056)
I0403 18:01:39.534983 15902 net.cpp:156] Memory required for data: 1146105120
I0403 18:01:39.535002 15902 layer_factory.hpp:77] Creating layer inception_4d/relu_pool_proj
I0403 18:01:39.535020 15902 net.cpp:91] Creating Layer inception_4d/relu_pool_proj
I0403 18:01:39.535039 15902 net.cpp:425] inception_4d/relu_pool_proj <- inception_4d/pool_proj
I0403 18:01:39.535058 15902 net.cpp:386] inception_4d/relu_pool_proj -> inception_4d/pool_proj (in-place)
I0403 18:01:39.535246 15902 net.cpp:141] Setting up inception_4d/relu_pool_proj
I0403 18:01:39.535271 15902 net.cpp:148] Top shape: 24 64 14 14 (301056)
I0403 18:01:39.535286 15902 net.cpp:156] Memory required for data: 1147309344
I0403 18:01:39.535301 15902 layer_factory.hpp:77] Creating layer inception_4d/output
I0403 18:01:39.535320 15902 net.cpp:91] Creating Layer inception_4d/output
I0403 18:01:39.535336 15902 net.cpp:425] inception_4d/output <- inception_4d/1x1
I0403 18:01:39.535353 15902 net.cpp:425] inception_4d/output <- inception_4d/3x3
I0403 18:01:39.535370 15902 net.cpp:425] inception_4d/output <- inception_4d/5x5
I0403 18:01:39.535387 15902 net.cpp:425] inception_4d/output <- inception_4d/pool_proj
I0403 18:01:39.535403 15902 net.cpp:399] inception_4d/output -> inception_4d/output
I0403 18:01:39.535454 15902 net.cpp:141] Setting up inception_4d/output
I0403 18:01:39.535476 15902 net.cpp:148] Top shape: 24 528 14 14 (2483712)
I0403 18:01:39.535502 15902 net.cpp:156] Memory required for data: 1157244192
I0403 18:01:39.535516 15902 layer_factory.hpp:77] Creating layer inception_4d/output_inception_4d/output_0_split
I0403 18:01:39.535534 15902 net.cpp:91] Creating Layer inception_4d/output_inception_4d/output_0_split
I0403 18:01:39.535565 15902 net.cpp:425] inception_4d/output_inception_4d/output_0_split <- inception_4d/output
I0403 18:01:39.535585 15902 net.cpp:399] inception_4d/output_inception_4d/output_0_split -> inception_4d/output_inception_4d/output_0_split_0
I0403 18:01:39.535607 15902 net.cpp:399] inception_4d/output_inception_4d/output_0_split -> inception_4d/output_inception_4d/output_0_split_1
I0403 18:01:39.535627 15902 net.cpp:399] inception_4d/output_inception_4d/output_0_split -> inception_4d/output_inception_4d/output_0_split_2
I0403 18:01:39.535648 15902 net.cpp:399] inception_4d/output_inception_4d/output_0_split -> inception_4d/output_inception_4d/output_0_split_3
I0403 18:01:39.535668 15902 net.cpp:399] inception_4d/output_inception_4d/output_0_split -> inception_4d/output_inception_4d/output_0_split_4
I0403 18:01:39.535776 15902 net.cpp:141] Setting up inception_4d/output_inception_4d/output_0_split
I0403 18:01:39.535814 15902 net.cpp:148] Top shape: 24 528 14 14 (2483712)
I0403 18:01:39.535830 15902 net.cpp:148] Top shape: 24 528 14 14 (2483712)
I0403 18:01:39.535845 15902 net.cpp:148] Top shape: 24 528 14 14 (2483712)
I0403 18:01:39.535866 15902 net.cpp:148] Top shape: 24 528 14 14 (2483712)
I0403 18:01:39.535881 15902 net.cpp:148] Top shape: 24 528 14 14 (2483712)
I0403 18:01:39.535895 15902 net.cpp:156] Memory required for data: 1206918432
I0403 18:01:39.535909 15902 layer_factory.hpp:77] Creating layer loss2/ave_pool
I0403 18:01:39.535929 15902 net.cpp:91] Creating Layer loss2/ave_pool
I0403 18:01:39.535950 15902 net.cpp:425] loss2/ave_pool <- inception_4d/output_inception_4d/output_0_split_0
I0403 18:01:39.535985 15902 net.cpp:399] loss2/ave_pool -> loss2/ave_pool
I0403 18:01:39.536316 15902 net.cpp:141] Setting up loss2/ave_pool
I0403 18:01:39.536342 15902 net.cpp:148] Top shape: 24 528 4 4 (202752)
I0403 18:01:39.536357 15902 net.cpp:156] Memory required for data: 1207729440
I0403 18:01:39.536371 15902 layer_factory.hpp:77] Creating layer loss2/conv
I0403 18:01:39.536394 15902 net.cpp:91] Creating Layer loss2/conv
I0403 18:01:39.536412 15902 net.cpp:425] loss2/conv <- loss2/ave_pool
I0403 18:01:39.536432 15902 net.cpp:399] loss2/conv -> loss2/conv
I0403 18:01:39.538326 15902 net.cpp:141] Setting up loss2/conv
I0403 18:01:39.538353 15902 net.cpp:148] Top shape: 24 128 4 4 (49152)
I0403 18:01:39.538369 15902 net.cpp:156] Memory required for data: 1207926048
I0403 18:01:39.538386 15902 layer_factory.hpp:77] Creating layer loss2/relu_conv
I0403 18:01:39.538408 15902 net.cpp:91] Creating Layer loss2/relu_conv
I0403 18:01:39.538424 15902 net.cpp:425] loss2/relu_conv <- loss2/conv
I0403 18:01:39.538441 15902 net.cpp:386] loss2/relu_conv -> loss2/conv (in-place)
I0403 18:01:39.538727 15902 net.cpp:141] Setting up loss2/relu_conv
I0403 18:01:39.538753 15902 net.cpp:148] Top shape: 24 128 4 4 (49152)
I0403 18:01:39.538769 15902 net.cpp:156] Memory required for data: 1208122656
I0403 18:01:39.538782 15902 layer_factory.hpp:77] Creating layer loss2/fc
I0403 18:01:39.538803 15902 net.cpp:91] Creating Layer loss2/fc
I0403 18:01:39.538820 15902 net.cpp:425] loss2/fc <- loss2/conv
I0403 18:01:39.538842 15902 net.cpp:399] loss2/fc -> loss2/fc
I0403 18:01:39.556332 15902 net.cpp:141] Setting up loss2/fc
I0403 18:01:39.556365 15902 net.cpp:148] Top shape: 24 1024 (24576)
I0403 18:01:39.556380 15902 net.cpp:156] Memory required for data: 1208220960
I0403 18:01:39.556398 15902 layer_factory.hpp:77] Creating layer loss2/relu_fc
I0403 18:01:39.556416 15902 net.cpp:91] Creating Layer loss2/relu_fc
I0403 18:01:39.556432 15902 net.cpp:425] loss2/relu_fc <- loss2/fc
I0403 18:01:39.556452 15902 net.cpp:386] loss2/relu_fc -> loss2/fc (in-place)
I0403 18:01:39.556742 15902 net.cpp:141] Setting up loss2/relu_fc
I0403 18:01:39.556768 15902 net.cpp:148] Top shape: 24 1024 (24576)
I0403 18:01:39.556782 15902 net.cpp:156] Memory required for data: 1208319264
I0403 18:01:39.556797 15902 layer_factory.hpp:77] Creating layer loss2/drop_fc
I0403 18:01:39.556814 15902 net.cpp:91] Creating Layer loss2/drop_fc
I0403 18:01:39.556829 15902 net.cpp:425] loss2/drop_fc <- loss2/fc
I0403 18:01:39.556849 15902 net.cpp:386] loss2/drop_fc -> loss2/fc (in-place)
I0403 18:01:39.556895 15902 net.cpp:141] Setting up loss2/drop_fc
I0403 18:01:39.556920 15902 net.cpp:148] Top shape: 24 1024 (24576)
I0403 18:01:39.556934 15902 net.cpp:156] Memory required for data: 1208417568
I0403 18:01:39.556952 15902 layer_factory.hpp:77] Creating layer loss2/classifier_plantvillage
I0403 18:01:39.556970 15902 net.cpp:91] Creating Layer loss2/classifier_plantvillage
I0403 18:01:39.556987 15902 net.cpp:425] loss2/classifier_plantvillage <- loss2/fc
I0403 18:01:39.557008 15902 net.cpp:399] loss2/classifier_plantvillage -> loss2/classifier_plantvillage
I0403 18:01:39.557397 15902 net.cpp:141] Setting up loss2/classifier_plantvillage
I0403 18:01:39.557421 15902 net.cpp:148] Top shape: 24 38 (912)
I0403 18:01:39.557453 15902 net.cpp:156] Memory required for data: 1208421216
I0403 18:01:39.557471 15902 layer_factory.hpp:77] Creating layer loss2/classifier_plantvillage_loss2/classifier_plantvillage_0_split
I0403 18:01:39.557492 15902 net.cpp:91] Creating Layer loss2/classifier_plantvillage_loss2/classifier_plantvillage_0_split
I0403 18:01:39.557508 15902 net.cpp:425] loss2/classifier_plantvillage_loss2/classifier_plantvillage_0_split <- loss2/classifier_plantvillage
I0403 18:01:39.557525 15902 net.cpp:399] loss2/classifier_plantvillage_loss2/classifier_plantvillage_0_split -> loss2/classifier_plantvillage_loss2/classifier_plantvillage_0_split_0
I0403 18:01:39.557548 15902 net.cpp:399] loss2/classifier_plantvillage_loss2/classifier_plantvillage_0_split -> loss2/classifier_plantvillage_loss2/classifier_plantvillage_0_split_1
I0403 18:01:39.557567 15902 net.cpp:399] loss2/classifier_plantvillage_loss2/classifier_plantvillage_0_split -> loss2/classifier_plantvillage_loss2/classifier_plantvillage_0_split_2
I0403 18:01:39.557641 15902 net.cpp:141] Setting up loss2/classifier_plantvillage_loss2/classifier_plantvillage_0_split
I0403 18:01:39.557664 15902 net.cpp:148] Top shape: 24 38 (912)
I0403 18:01:39.557679 15902 net.cpp:148] Top shape: 24 38 (912)
I0403 18:01:39.557694 15902 net.cpp:148] Top shape: 24 38 (912)
I0403 18:01:39.557708 15902 net.cpp:156] Memory required for data: 1208432160
I0403 18:01:39.557723 15902 layer_factory.hpp:77] Creating layer inception_4e/1x1
I0403 18:01:39.557744 15902 net.cpp:91] Creating Layer inception_4e/1x1
I0403 18:01:39.557761 15902 net.cpp:425] inception_4e/1x1 <- inception_4d/output_inception_4d/output_0_split_1
I0403 18:01:39.557780 15902 net.cpp:399] inception_4e/1x1 -> inception_4e/1x1
I0403 18:01:39.559564 15902 net.cpp:141] Setting up inception_4e/1x1
I0403 18:01:39.559593 15902 net.cpp:148] Top shape: 24 256 14 14 (1204224)
I0403 18:01:39.559609 15902 net.cpp:156] Memory required for data: 1213249056
I0403 18:01:39.559628 15902 layer_factory.hpp:77] Creating layer inception_4e/relu_1x1
I0403 18:01:39.559645 15902 net.cpp:91] Creating Layer inception_4e/relu_1x1
I0403 18:01:39.559660 15902 net.cpp:425] inception_4e/relu_1x1 <- inception_4e/1x1
I0403 18:01:39.559677 15902 net.cpp:386] inception_4e/relu_1x1 -> inception_4e/1x1 (in-place)
I0403 18:01:39.559975 15902 net.cpp:141] Setting up inception_4e/relu_1x1
I0403 18:01:39.560003 15902 net.cpp:148] Top shape: 24 256 14 14 (1204224)
I0403 18:01:39.560019 15902 net.cpp:156] Memory required for data: 1218065952
I0403 18:01:39.560034 15902 layer_factory.hpp:77] Creating layer inception_4e/3x3_reduce
I0403 18:01:39.560052 15902 net.cpp:91] Creating Layer inception_4e/3x3_reduce
I0403 18:01:39.560068 15902 net.cpp:425] inception_4e/3x3_reduce <- inception_4d/output_inception_4d/output_0_split_2
I0403 18:01:39.560088 15902 net.cpp:399] inception_4e/3x3_reduce -> inception_4e/3x3_reduce
I0403 18:01:39.562150 15902 net.cpp:141] Setting up inception_4e/3x3_reduce
I0403 18:01:39.562177 15902 net.cpp:148] Top shape: 24 160 14 14 (752640)
I0403 18:01:39.562192 15902 net.cpp:156] Memory required for data: 1221076512
I0403 18:01:39.562211 15902 layer_factory.hpp:77] Creating layer inception_4e/relu_3x3_reduce
I0403 18:01:39.562229 15902 net.cpp:91] Creating Layer inception_4e/relu_3x3_reduce
I0403 18:01:39.562245 15902 net.cpp:425] inception_4e/relu_3x3_reduce <- inception_4e/3x3_reduce
I0403 18:01:39.562263 15902 net.cpp:386] inception_4e/relu_3x3_reduce -> inception_4e/3x3_reduce (in-place)
I0403 18:01:39.562438 15902 net.cpp:141] Setting up inception_4e/relu_3x3_reduce
I0403 18:01:39.562465 15902 net.cpp:148] Top shape: 24 160 14 14 (752640)
I0403 18:01:39.562479 15902 net.cpp:156] Memory required for data: 1224087072
I0403 18:01:39.562494 15902 layer_factory.hpp:77] Creating layer inception_4e/3x3
I0403 18:01:39.562515 15902 net.cpp:91] Creating Layer inception_4e/3x3
I0403 18:01:39.562532 15902 net.cpp:425] inception_4e/3x3 <- inception_4e/3x3_reduce
I0403 18:01:39.562551 15902 net.cpp:399] inception_4e/3x3 -> inception_4e/3x3
I0403 18:01:39.567381 15902 net.cpp:141] Setting up inception_4e/3x3
I0403 18:01:39.567423 15902 net.cpp:148] Top shape: 24 320 14 14 (1505280)
I0403 18:01:39.567440 15902 net.cpp:156] Memory required for data: 1230108192
I0403 18:01:39.567458 15902 layer_factory.hpp:77] Creating layer inception_4e/relu_3x3
I0403 18:01:39.567476 15902 net.cpp:91] Creating Layer inception_4e/relu_3x3
I0403 18:01:39.567492 15902 net.cpp:425] inception_4e/relu_3x3 <- inception_4e/3x3
I0403 18:01:39.567508 15902 net.cpp:386] inception_4e/relu_3x3 -> inception_4e/3x3 (in-place)
I0403 18:01:39.567797 15902 net.cpp:141] Setting up inception_4e/relu_3x3
I0403 18:01:39.567823 15902 net.cpp:148] Top shape: 24 320 14 14 (1505280)
I0403 18:01:39.567838 15902 net.cpp:156] Memory required for data: 1236129312
I0403 18:01:39.567852 15902 layer_factory.hpp:77] Creating layer inception_4e/5x5_reduce
I0403 18:01:39.567874 15902 net.cpp:91] Creating Layer inception_4e/5x5_reduce
I0403 18:01:39.567893 15902 net.cpp:425] inception_4e/5x5_reduce <- inception_4d/output_inception_4d/output_0_split_3
I0403 18:01:39.567914 15902 net.cpp:399] inception_4e/5x5_reduce -> inception_4e/5x5_reduce
I0403 18:01:39.568949 15902 net.cpp:141] Setting up inception_4e/5x5_reduce
I0403 18:01:39.568976 15902 net.cpp:148] Top shape: 24 32 14 14 (150528)
I0403 18:01:39.568991 15902 net.cpp:156] Memory required for data: 1236731424
I0403 18:01:39.569008 15902 layer_factory.hpp:77] Creating layer inception_4e/relu_5x5_reduce
I0403 18:01:39.569028 15902 net.cpp:91] Creating Layer inception_4e/relu_5x5_reduce
I0403 18:01:39.569044 15902 net.cpp:425] inception_4e/relu_5x5_reduce <- inception_4e/5x5_reduce
I0403 18:01:39.569061 15902 net.cpp:386] inception_4e/relu_5x5_reduce -> inception_4e/5x5_reduce (in-place)
I0403 18:01:39.569352 15902 net.cpp:141] Setting up inception_4e/relu_5x5_reduce
I0403 18:01:39.569377 15902 net.cpp:148] Top shape: 24 32 14 14 (150528)
I0403 18:01:39.569392 15902 net.cpp:156] Memory required for data: 1237333536
I0403 18:01:39.569407 15902 layer_factory.hpp:77] Creating layer inception_4e/5x5
I0403 18:01:39.569443 15902 net.cpp:91] Creating Layer inception_4e/5x5
I0403 18:01:39.569463 15902 net.cpp:425] inception_4e/5x5 <- inception_4e/5x5_reduce
I0403 18:01:39.569483 15902 net.cpp:399] inception_4e/5x5 -> inception_4e/5x5
I0403 18:01:39.571406 15902 net.cpp:141] Setting up inception_4e/5x5
I0403 18:01:39.571434 15902 net.cpp:148] Top shape: 24 128 14 14 (602112)
I0403 18:01:39.571449 15902 net.cpp:156] Memory required for data: 1239741984
I0403 18:01:39.571467 15902 layer_factory.hpp:77] Creating layer inception_4e/relu_5x5
I0403 18:01:39.571488 15902 net.cpp:91] Creating Layer inception_4e/relu_5x5
I0403 18:01:39.571506 15902 net.cpp:425] inception_4e/relu_5x5 <- inception_4e/5x5
I0403 18:01:39.571521 15902 net.cpp:386] inception_4e/relu_5x5 -> inception_4e/5x5 (in-place)
I0403 18:01:39.571707 15902 net.cpp:141] Setting up inception_4e/relu_5x5
I0403 18:01:39.571732 15902 net.cpp:148] Top shape: 24 128 14 14 (602112)
I0403 18:01:39.571746 15902 net.cpp:156] Memory required for data: 1242150432
I0403 18:01:39.571760 15902 layer_factory.hpp:77] Creating layer inception_4e/pool
I0403 18:01:39.571779 15902 net.cpp:91] Creating Layer inception_4e/pool
I0403 18:01:39.571795 15902 net.cpp:425] inception_4e/pool <- inception_4d/output_inception_4d/output_0_split_4
I0403 18:01:39.571812 15902 net.cpp:399] inception_4e/pool -> inception_4e/pool
I0403 18:01:39.571880 15902 net.cpp:141] Setting up inception_4e/pool
I0403 18:01:39.571903 15902 net.cpp:148] Top shape: 24 528 14 14 (2483712)
I0403 18:01:39.571918 15902 net.cpp:156] Memory required for data: 1252085280
I0403 18:01:39.571931 15902 layer_factory.hpp:77] Creating layer inception_4e/pool_proj
I0403 18:01:39.571956 15902 net.cpp:91] Creating Layer inception_4e/pool_proj
I0403 18:01:39.571974 15902 net.cpp:425] inception_4e/pool_proj <- inception_4e/pool
I0403 18:01:39.571995 15902 net.cpp:399] inception_4e/pool_proj -> inception_4e/pool_proj
I0403 18:01:39.573452 15902 net.cpp:141] Setting up inception_4e/pool_proj
I0403 18:01:39.573490 15902 net.cpp:148] Top shape: 24 128 14 14 (602112)
I0403 18:01:39.573505 15902 net.cpp:156] Memory required for data: 1254493728
I0403 18:01:39.573523 15902 layer_factory.hpp:77] Creating layer inception_4e/relu_pool_proj
I0403 18:01:39.573544 15902 net.cpp:91] Creating Layer inception_4e/relu_pool_proj
I0403 18:01:39.573560 15902 net.cpp:425] inception_4e/relu_pool_proj <- inception_4e/pool_proj
I0403 18:01:39.573576 15902 net.cpp:386] inception_4e/relu_pool_proj -> inception_4e/pool_proj (in-place)
I0403 18:01:39.573859 15902 net.cpp:141] Setting up inception_4e/relu_pool_proj
I0403 18:01:39.573885 15902 net.cpp:148] Top shape: 24 128 14 14 (602112)
I0403 18:01:39.573899 15902 net.cpp:156] Memory required for data: 1256902176
I0403 18:01:39.573915 15902 layer_factory.hpp:77] Creating layer inception_4e/output
I0403 18:01:39.573932 15902 net.cpp:91] Creating Layer inception_4e/output
I0403 18:01:39.573951 15902 net.cpp:425] inception_4e/output <- inception_4e/1x1
I0403 18:01:39.573968 15902 net.cpp:425] inception_4e/output <- inception_4e/3x3
I0403 18:01:39.573984 15902 net.cpp:425] inception_4e/output <- inception_4e/5x5
I0403 18:01:39.574000 15902 net.cpp:425] inception_4e/output <- inception_4e/pool_proj
I0403 18:01:39.574018 15902 net.cpp:399] inception_4e/output -> inception_4e/output
I0403 18:01:39.574066 15902 net.cpp:141] Setting up inception_4e/output
I0403 18:01:39.574092 15902 net.cpp:148] Top shape: 24 832 14 14 (3913728)
I0403 18:01:39.574108 15902 net.cpp:156] Memory required for data: 1272557088
I0403 18:01:39.574122 15902 layer_factory.hpp:77] Creating layer pool4/3x3_s2
I0403 18:01:39.574139 15902 net.cpp:91] Creating Layer pool4/3x3_s2
I0403 18:01:39.574154 15902 net.cpp:425] pool4/3x3_s2 <- inception_4e/output
I0403 18:01:39.574175 15902 net.cpp:399] pool4/3x3_s2 -> pool4/3x3_s2
I0403 18:01:39.574239 15902 net.cpp:141] Setting up pool4/3x3_s2
I0403 18:01:39.574261 15902 net.cpp:148] Top shape: 24 832 7 7 (978432)
I0403 18:01:39.574275 15902 net.cpp:156] Memory required for data: 1276470816
I0403 18:01:39.574290 15902 layer_factory.hpp:77] Creating layer pool4/3x3_s2_pool4/3x3_s2_0_split
I0403 18:01:39.574309 15902 net.cpp:91] Creating Layer pool4/3x3_s2_pool4/3x3_s2_0_split
I0403 18:01:39.574326 15902 net.cpp:425] pool4/3x3_s2_pool4/3x3_s2_0_split <- pool4/3x3_s2
I0403 18:01:39.574342 15902 net.cpp:399] pool4/3x3_s2_pool4/3x3_s2_0_split -> pool4/3x3_s2_pool4/3x3_s2_0_split_0
I0403 18:01:39.574360 15902 net.cpp:399] pool4/3x3_s2_pool4/3x3_s2_0_split -> pool4/3x3_s2_pool4/3x3_s2_0_split_1
I0403 18:01:39.574380 15902 net.cpp:399] pool4/3x3_s2_pool4/3x3_s2_0_split -> pool4/3x3_s2_pool4/3x3_s2_0_split_2
I0403 18:01:39.574401 15902 net.cpp:399] pool4/3x3_s2_pool4/3x3_s2_0_split -> pool4/3x3_s2_pool4/3x3_s2_0_split_3
I0403 18:01:39.574491 15902 net.cpp:141] Setting up pool4/3x3_s2_pool4/3x3_s2_0_split
I0403 18:01:39.574513 15902 net.cpp:148] Top shape: 24 832 7 7 (978432)
I0403 18:01:39.574528 15902 net.cpp:148] Top shape: 24 832 7 7 (978432)
I0403 18:01:39.574544 15902 net.cpp:148] Top shape: 24 832 7 7 (978432)
I0403 18:01:39.574559 15902 net.cpp:148] Top shape: 24 832 7 7 (978432)
I0403 18:01:39.574573 15902 net.cpp:156] Memory required for data: 1292125728
I0403 18:01:39.574586 15902 layer_factory.hpp:77] Creating layer inception_5a/1x1
I0403 18:01:39.574609 15902 net.cpp:91] Creating Layer inception_5a/1x1
I0403 18:01:39.574625 15902 net.cpp:425] inception_5a/1x1 <- pool4/3x3_s2_pool4/3x3_s2_0_split_0
I0403 18:01:39.574645 15902 net.cpp:399] inception_5a/1x1 -> inception_5a/1x1
I0403 18:01:39.577394 15902 net.cpp:141] Setting up inception_5a/1x1
I0403 18:01:39.577421 15902 net.cpp:148] Top shape: 24 256 7 7 (301056)
I0403 18:01:39.577436 15902 net.cpp:156] Memory required for data: 1293329952
I0403 18:01:39.577453 15902 layer_factory.hpp:77] Creating layer inception_5a/relu_1x1
I0403 18:01:39.577473 15902 net.cpp:91] Creating Layer inception_5a/relu_1x1
I0403 18:01:39.577489 15902 net.cpp:425] inception_5a/relu_1x1 <- inception_5a/1x1
I0403 18:01:39.577507 15902 net.cpp:386] inception_5a/relu_1x1 -> inception_5a/1x1 (in-place)
I0403 18:01:39.577811 15902 net.cpp:141] Setting up inception_5a/relu_1x1
I0403 18:01:39.577836 15902 net.cpp:148] Top shape: 24 256 7 7 (301056)
I0403 18:01:39.577850 15902 net.cpp:156] Memory required for data: 1294534176
I0403 18:01:39.577865 15902 layer_factory.hpp:77] Creating layer inception_5a/3x3_reduce
I0403 18:01:39.577886 15902 net.cpp:91] Creating Layer inception_5a/3x3_reduce
I0403 18:01:39.577903 15902 net.cpp:425] inception_5a/3x3_reduce <- pool4/3x3_s2_pool4/3x3_s2_0_split_1
I0403 18:01:39.577926 15902 net.cpp:399] inception_5a/3x3_reduce -> inception_5a/3x3_reduce
I0403 18:01:39.580307 15902 net.cpp:141] Setting up inception_5a/3x3_reduce
I0403 18:01:39.580337 15902 net.cpp:148] Top shape: 24 160 7 7 (188160)
I0403 18:01:39.580353 15902 net.cpp:156] Memory required for data: 1295286816
I0403 18:01:39.580370 15902 layer_factory.hpp:77] Creating layer inception_5a/relu_3x3_reduce
I0403 18:01:39.580387 15902 net.cpp:91] Creating Layer inception_5a/relu_3x3_reduce
I0403 18:01:39.580402 15902 net.cpp:425] inception_5a/relu_3x3_reduce <- inception_5a/3x3_reduce
I0403 18:01:39.580421 15902 net.cpp:386] inception_5a/relu_3x3_reduce -> inception_5a/3x3_reduce (in-place)
I0403 18:01:39.580603 15902 net.cpp:141] Setting up inception_5a/relu_3x3_reduce
I0403 18:01:39.580628 15902 net.cpp:148] Top shape: 24 160 7 7 (188160)
I0403 18:01:39.580642 15902 net.cpp:156] Memory required for data: 1296039456
I0403 18:01:39.580657 15902 layer_factory.hpp:77] Creating layer inception_5a/3x3
I0403 18:01:39.580677 15902 net.cpp:91] Creating Layer inception_5a/3x3
I0403 18:01:39.580694 15902 net.cpp:425] inception_5a/3x3 <- inception_5a/3x3_reduce
I0403 18:01:39.580715 15902 net.cpp:399] inception_5a/3x3 -> inception_5a/3x3
I0403 18:01:39.585588 15902 net.cpp:141] Setting up inception_5a/3x3
I0403 18:01:39.585616 15902 net.cpp:148] Top shape: 24 320 7 7 (376320)
I0403 18:01:39.585631 15902 net.cpp:156] Memory required for data: 1297544736
I0403 18:01:39.585649 15902 layer_factory.hpp:77] Creating layer inception_5a/relu_3x3
I0403 18:01:39.585669 15902 net.cpp:91] Creating Layer inception_5a/relu_3x3
I0403 18:01:39.585686 15902 net.cpp:425] inception_5a/relu_3x3 <- inception_5a/3x3
I0403 18:01:39.585703 15902 net.cpp:386] inception_5a/relu_3x3 -> inception_5a/3x3 (in-place)
I0403 18:01:39.585996 15902 net.cpp:141] Setting up inception_5a/relu_3x3
I0403 18:01:39.586022 15902 net.cpp:148] Top shape: 24 320 7 7 (376320)
I0403 18:01:39.586037 15902 net.cpp:156] Memory required for data: 1299050016
I0403 18:01:39.586051 15902 layer_factory.hpp:77] Creating layer inception_5a/5x5_reduce
I0403 18:01:39.586073 15902 net.cpp:91] Creating Layer inception_5a/5x5_reduce
I0403 18:01:39.586091 15902 net.cpp:425] inception_5a/5x5_reduce <- pool4/3x3_s2_pool4/3x3_s2_0_split_2
I0403 18:01:39.586110 15902 net.cpp:399] inception_5a/5x5_reduce -> inception_5a/5x5_reduce
I0403 18:01:39.587244 15902 net.cpp:141] Setting up inception_5a/5x5_reduce
I0403 18:01:39.587270 15902 net.cpp:148] Top shape: 24 32 7 7 (37632)
I0403 18:01:39.587285 15902 net.cpp:156] Memory required for data: 1299200544
I0403 18:01:39.587302 15902 layer_factory.hpp:77] Creating layer inception_5a/relu_5x5_reduce
I0403 18:01:39.587322 15902 net.cpp:91] Creating Layer inception_5a/relu_5x5_reduce
I0403 18:01:39.587338 15902 net.cpp:425] inception_5a/relu_5x5_reduce <- inception_5a/5x5_reduce
I0403 18:01:39.587355 15902 net.cpp:386] inception_5a/relu_5x5_reduce -> inception_5a/5x5_reduce (in-place)
I0403 18:01:39.587651 15902 net.cpp:141] Setting up inception_5a/relu_5x5_reduce
I0403 18:01:39.587676 15902 net.cpp:148] Top shape: 24 32 7 7 (37632)
I0403 18:01:39.587689 15902 net.cpp:156] Memory required for data: 1299351072
I0403 18:01:39.587704 15902 layer_factory.hpp:77] Creating layer inception_5a/5x5
I0403 18:01:39.587728 15902 net.cpp:91] Creating Layer inception_5a/5x5
I0403 18:01:39.587744 15902 net.cpp:425] inception_5a/5x5 <- inception_5a/5x5_reduce
I0403 18:01:39.587764 15902 net.cpp:399] inception_5a/5x5 -> inception_5a/5x5
I0403 18:01:39.589448 15902 net.cpp:141] Setting up inception_5a/5x5
I0403 18:01:39.589486 15902 net.cpp:148] Top shape: 24 128 7 7 (150528)
I0403 18:01:39.589501 15902 net.cpp:156] Memory required for data: 1299953184
I0403 18:01:39.589519 15902 layer_factory.hpp:77] Creating layer inception_5a/relu_5x5
I0403 18:01:39.589540 15902 net.cpp:91] Creating Layer inception_5a/relu_5x5
I0403 18:01:39.589555 15902 net.cpp:425] inception_5a/relu_5x5 <- inception_5a/5x5
I0403 18:01:39.589572 15902 net.cpp:386] inception_5a/relu_5x5 -> inception_5a/5x5 (in-place)
I0403 18:01:39.589756 15902 net.cpp:141] Setting up inception_5a/relu_5x5
I0403 18:01:39.589781 15902 net.cpp:148] Top shape: 24 128 7 7 (150528)
I0403 18:01:39.589795 15902 net.cpp:156] Memory required for data: 1300555296
I0403 18:01:39.589809 15902 layer_factory.hpp:77] Creating layer inception_5a/pool
I0403 18:01:39.589828 15902 net.cpp:91] Creating Layer inception_5a/pool
I0403 18:01:39.589844 15902 net.cpp:425] inception_5a/pool <- pool4/3x3_s2_pool4/3x3_s2_0_split_3
I0403 18:01:39.589862 15902 net.cpp:399] inception_5a/pool -> inception_5a/pool
I0403 18:01:39.589931 15902 net.cpp:141] Setting up inception_5a/pool
I0403 18:01:39.589957 15902 net.cpp:148] Top shape: 24 832 7 7 (978432)
I0403 18:01:39.589972 15902 net.cpp:156] Memory required for data: 1304469024
I0403 18:01:39.589987 15902 layer_factory.hpp:77] Creating layer inception_5a/pool_proj
I0403 18:01:39.590008 15902 net.cpp:91] Creating Layer inception_5a/pool_proj
I0403 18:01:39.590025 15902 net.cpp:425] inception_5a/pool_proj <- inception_5a/pool
I0403 18:01:39.590045 15902 net.cpp:399] inception_5a/pool_proj -> inception_5a/pool_proj
I0403 18:01:39.592260 15902 net.cpp:141] Setting up inception_5a/pool_proj
I0403 18:01:39.592288 15902 net.cpp:148] Top shape: 24 128 7 7 (150528)
I0403 18:01:39.592303 15902 net.cpp:156] Memory required for data: 1305071136
I0403 18:01:39.592321 15902 layer_factory.hpp:77] Creating layer inception_5a/relu_pool_proj
I0403 18:01:39.592339 15902 net.cpp:91] Creating Layer inception_5a/relu_pool_proj
I0403 18:01:39.592355 15902 net.cpp:425] inception_5a/relu_pool_proj <- inception_5a/pool_proj
I0403 18:01:39.592373 15902 net.cpp:386] inception_5a/relu_pool_proj -> inception_5a/pool_proj (in-place)
I0403 18:01:39.592660 15902 net.cpp:141] Setting up inception_5a/relu_pool_proj
I0403 18:01:39.592686 15902 net.cpp:148] Top shape: 24 128 7 7 (150528)
I0403 18:01:39.592700 15902 net.cpp:156] Memory required for data: 1305673248
I0403 18:01:39.592715 15902 layer_factory.hpp:77] Creating layer inception_5a/output
I0403 18:01:39.592731 15902 net.cpp:91] Creating Layer inception_5a/output
I0403 18:01:39.592746 15902 net.cpp:425] inception_5a/output <- inception_5a/1x1
I0403 18:01:39.592762 15902 net.cpp:425] inception_5a/output <- inception_5a/3x3
I0403 18:01:39.592778 15902 net.cpp:425] inception_5a/output <- inception_5a/5x5
I0403 18:01:39.592793 15902 net.cpp:425] inception_5a/output <- inception_5a/pool_proj
I0403 18:01:39.592811 15902 net.cpp:399] inception_5a/output -> inception_5a/output
I0403 18:01:39.592860 15902 net.cpp:141] Setting up inception_5a/output
I0403 18:01:39.592885 15902 net.cpp:148] Top shape: 24 832 7 7 (978432)
I0403 18:01:39.592901 15902 net.cpp:156] Memory required for data: 1309586976
I0403 18:01:39.592916 15902 layer_factory.hpp:77] Creating layer inception_5a/output_inception_5a/output_0_split
I0403 18:01:39.592932 15902 net.cpp:91] Creating Layer inception_5a/output_inception_5a/output_0_split
I0403 18:01:39.592952 15902 net.cpp:425] inception_5a/output_inception_5a/output_0_split <- inception_5a/output
I0403 18:01:39.592970 15902 net.cpp:399] inception_5a/output_inception_5a/output_0_split -> inception_5a/output_inception_5a/output_0_split_0
I0403 18:01:39.592993 15902 net.cpp:399] inception_5a/output_inception_5a/output_0_split -> inception_5a/output_inception_5a/output_0_split_1
I0403 18:01:39.593014 15902 net.cpp:399] inception_5a/output_inception_5a/output_0_split -> inception_5a/output_inception_5a/output_0_split_2
I0403 18:01:39.593032 15902 net.cpp:399] inception_5a/output_inception_5a/output_0_split -> inception_5a/output_inception_5a/output_0_split_3
I0403 18:01:39.593140 15902 net.cpp:141] Setting up inception_5a/output_inception_5a/output_0_split
I0403 18:01:39.593163 15902 net.cpp:148] Top shape: 24 832 7 7 (978432)
I0403 18:01:39.593179 15902 net.cpp:148] Top shape: 24 832 7 7 (978432)
I0403 18:01:39.593194 15902 net.cpp:148] Top shape: 24 832 7 7 (978432)
I0403 18:01:39.593209 15902 net.cpp:148] Top shape: 24 832 7 7 (978432)
I0403 18:01:39.593222 15902 net.cpp:156] Memory required for data: 1325241888
I0403 18:01:39.593236 15902 layer_factory.hpp:77] Creating layer inception_5b/1x1
I0403 18:01:39.593258 15902 net.cpp:91] Creating Layer inception_5b/1x1
I0403 18:01:39.593276 15902 net.cpp:425] inception_5b/1x1 <- inception_5a/output_inception_5a/output_0_split_0
I0403 18:01:39.593294 15902 net.cpp:399] inception_5b/1x1 -> inception_5b/1x1
I0403 18:01:39.597060 15902 net.cpp:141] Setting up inception_5b/1x1
I0403 18:01:39.597091 15902 net.cpp:148] Top shape: 24 384 7 7 (451584)
I0403 18:01:39.597108 15902 net.cpp:156] Memory required for data: 1327048224
I0403 18:01:39.597127 15902 layer_factory.hpp:77] Creating layer inception_5b/relu_1x1
I0403 18:01:39.597146 15902 net.cpp:91] Creating Layer inception_5b/relu_1x1
I0403 18:01:39.597162 15902 net.cpp:425] inception_5b/relu_1x1 <- inception_5b/1x1
I0403 18:01:39.597182 15902 net.cpp:386] inception_5b/relu_1x1 -> inception_5b/1x1 (in-place)
I0403 18:01:39.597486 15902 net.cpp:141] Setting up inception_5b/relu_1x1
I0403 18:01:39.597514 15902 net.cpp:148] Top shape: 24 384 7 7 (451584)
I0403 18:01:39.597529 15902 net.cpp:156] Memory required for data: 1328854560
I0403 18:01:39.597544 15902 layer_factory.hpp:77] Creating layer inception_5b/3x3_reduce
I0403 18:01:39.597566 15902 net.cpp:91] Creating Layer inception_5b/3x3_reduce
I0403 18:01:39.597584 15902 net.cpp:425] inception_5b/3x3_reduce <- inception_5a/output_inception_5a/output_0_split_1
I0403 18:01:39.597607 15902 net.cpp:399] inception_5b/3x3_reduce -> inception_5b/3x3_reduce
I0403 18:01:39.600270 15902 net.cpp:141] Setting up inception_5b/3x3_reduce
I0403 18:01:39.600301 15902 net.cpp:148] Top shape: 24 192 7 7 (225792)
I0403 18:01:39.600317 15902 net.cpp:156] Memory required for data: 1329757728
I0403 18:01:39.600334 15902 layer_factory.hpp:77] Creating layer inception_5b/relu_3x3_reduce
I0403 18:01:39.600353 15902 net.cpp:91] Creating Layer inception_5b/relu_3x3_reduce
I0403 18:01:39.600369 15902 net.cpp:425] inception_5b/relu_3x3_reduce <- inception_5b/3x3_reduce
I0403 18:01:39.600389 15902 net.cpp:386] inception_5b/relu_3x3_reduce -> inception_5b/3x3_reduce (in-place)
I0403 18:01:39.600577 15902 net.cpp:141] Setting up inception_5b/relu_3x3_reduce
I0403 18:01:39.600602 15902 net.cpp:148] Top shape: 24 192 7 7 (225792)
I0403 18:01:39.600616 15902 net.cpp:156] Memory required for data: 1330660896
I0403 18:01:39.600631 15902 layer_factory.hpp:77] Creating layer inception_5b/3x3
I0403 18:01:39.600654 15902 net.cpp:91] Creating Layer inception_5b/3x3
I0403 18:01:39.600672 15902 net.cpp:425] inception_5b/3x3 <- inception_5b/3x3_reduce
I0403 18:01:39.600692 15902 net.cpp:399] inception_5b/3x3 -> inception_5b/3x3
I0403 18:01:39.607427 15902 net.cpp:141] Setting up inception_5b/3x3
I0403 18:01:39.607457 15902 net.cpp:148] Top shape: 24 384 7 7 (451584)
I0403 18:01:39.607472 15902 net.cpp:156] Memory required for data: 1332467232
I0403 18:01:39.607491 15902 layer_factory.hpp:77] Creating layer inception_5b/relu_3x3
I0403 18:01:39.607509 15902 net.cpp:91] Creating Layer inception_5b/relu_3x3
I0403 18:01:39.607527 15902 net.cpp:425] inception_5b/relu_3x3 <- inception_5b/3x3
I0403 18:01:39.607545 15902 net.cpp:386] inception_5b/relu_3x3 -> inception_5b/3x3 (in-place)
I0403 18:01:39.607847 15902 net.cpp:141] Setting up inception_5b/relu_3x3
I0403 18:01:39.607873 15902 net.cpp:148] Top shape: 24 384 7 7 (451584)
I0403 18:01:39.607889 15902 net.cpp:156] Memory required for data: 1334273568
I0403 18:01:39.607903 15902 layer_factory.hpp:77] Creating layer inception_5b/5x5_reduce
I0403 18:01:39.607941 15902 net.cpp:91] Creating Layer inception_5b/5x5_reduce
I0403 18:01:39.607971 15902 net.cpp:425] inception_5b/5x5_reduce <- inception_5a/output_inception_5a/output_0_split_2
I0403 18:01:39.607995 15902 net.cpp:399] inception_5b/5x5_reduce -> inception_5b/5x5_reduce
I0403 18:01:39.609267 15902 net.cpp:141] Setting up inception_5b/5x5_reduce
I0403 18:01:39.609295 15902 net.cpp:148] Top shape: 24 48 7 7 (56448)
I0403 18:01:39.609311 15902 net.cpp:156] Memory required for data: 1334499360
I0403 18:01:39.609330 15902 layer_factory.hpp:77] Creating layer inception_5b/relu_5x5_reduce
I0403 18:01:39.609350 15902 net.cpp:91] Creating Layer inception_5b/relu_5x5_reduce
I0403 18:01:39.609367 15902 net.cpp:425] inception_5b/relu_5x5_reduce <- inception_5b/5x5_reduce
I0403 18:01:39.609385 15902 net.cpp:386] inception_5b/relu_5x5_reduce -> inception_5b/5x5_reduce (in-place)
I0403 18:01:39.609753 15902 net.cpp:141] Setting up inception_5b/relu_5x5_reduce
I0403 18:01:39.609781 15902 net.cpp:148] Top shape: 24 48 7 7 (56448)
I0403 18:01:39.609796 15902 net.cpp:156] Memory required for data: 1334725152
I0403 18:01:39.609810 15902 layer_factory.hpp:77] Creating layer inception_5b/5x5
I0403 18:01:39.609830 15902 net.cpp:91] Creating Layer inception_5b/5x5
I0403 18:01:39.609848 15902 net.cpp:425] inception_5b/5x5 <- inception_5b/5x5_reduce
I0403 18:01:39.609866 15902 net.cpp:399] inception_5b/5x5 -> inception_5b/5x5
I0403 18:01:39.611922 15902 net.cpp:141] Setting up inception_5b/5x5
I0403 18:01:39.611953 15902 net.cpp:148] Top shape: 24 128 7 7 (150528)
I0403 18:01:39.611969 15902 net.cpp:156] Memory required for data: 1335327264
I0403 18:01:39.611987 15902 layer_factory.hpp:77] Creating layer inception_5b/relu_5x5
I0403 18:01:39.612006 15902 net.cpp:91] Creating Layer inception_5b/relu_5x5
I0403 18:01:39.612025 15902 net.cpp:425] inception_5b/relu_5x5 <- inception_5b/5x5
I0403 18:01:39.612041 15902 net.cpp:386] inception_5b/relu_5x5 -> inception_5b/5x5 (in-place)
I0403 18:01:39.612226 15902 net.cpp:141] Setting up inception_5b/relu_5x5
I0403 18:01:39.612252 15902 net.cpp:148] Top shape: 24 128 7 7 (150528)
I0403 18:01:39.612268 15902 net.cpp:156] Memory required for data: 1335929376
I0403 18:01:39.612282 15902 layer_factory.hpp:77] Creating layer inception_5b/pool
I0403 18:01:39.612299 15902 net.cpp:91] Creating Layer inception_5b/pool
I0403 18:01:39.612314 15902 net.cpp:425] inception_5b/pool <- inception_5a/output_inception_5a/output_0_split_3
I0403 18:01:39.612331 15902 net.cpp:399] inception_5b/pool -> inception_5b/pool
I0403 18:01:39.612403 15902 net.cpp:141] Setting up inception_5b/pool
I0403 18:01:39.612426 15902 net.cpp:148] Top shape: 24 832 7 7 (978432)
I0403 18:01:39.612440 15902 net.cpp:156] Memory required for data: 1339843104
I0403 18:01:39.612454 15902 layer_factory.hpp:77] Creating layer inception_5b/pool_proj
I0403 18:01:39.612475 15902 net.cpp:91] Creating Layer inception_5b/pool_proj
I0403 18:01:39.612493 15902 net.cpp:425] inception_5b/pool_proj <- inception_5b/pool
I0403 18:01:39.612514 15902 net.cpp:399] inception_5b/pool_proj -> inception_5b/pool_proj
I0403 18:01:39.614750 15902 net.cpp:141] Setting up inception_5b/pool_proj
I0403 18:01:39.614778 15902 net.cpp:148] Top shape: 24 128 7 7 (150528)
I0403 18:01:39.614794 15902 net.cpp:156] Memory required for data: 1340445216
I0403 18:01:39.614811 15902 layer_factory.hpp:77] Creating layer inception_5b/relu_pool_proj
I0403 18:01:39.614830 15902 net.cpp:91] Creating Layer inception_5b/relu_pool_proj
I0403 18:01:39.614847 15902 net.cpp:425] inception_5b/relu_pool_proj <- inception_5b/pool_proj
I0403 18:01:39.614864 15902 net.cpp:386] inception_5b/relu_pool_proj -> inception_5b/pool_proj (in-place)
I0403 18:01:39.615156 15902 net.cpp:141] Setting up inception_5b/relu_pool_proj
I0403 18:01:39.615181 15902 net.cpp:148] Top shape: 24 128 7 7 (150528)
I0403 18:01:39.615196 15902 net.cpp:156] Memory required for data: 1341047328
I0403 18:01:39.615211 15902 layer_factory.hpp:77] Creating layer inception_5b/output
I0403 18:01:39.615227 15902 net.cpp:91] Creating Layer inception_5b/output
I0403 18:01:39.615257 15902 net.cpp:425] inception_5b/output <- inception_5b/1x1
I0403 18:01:39.615275 15902 net.cpp:425] inception_5b/output <- inception_5b/3x3
I0403 18:01:39.615291 15902 net.cpp:425] inception_5b/output <- inception_5b/5x5
I0403 18:01:39.615308 15902 net.cpp:425] inception_5b/output <- inception_5b/pool_proj
I0403 18:01:39.615326 15902 net.cpp:399] inception_5b/output -> inception_5b/output
I0403 18:01:39.615376 15902 net.cpp:141] Setting up inception_5b/output
I0403 18:01:39.615402 15902 net.cpp:148] Top shape: 24 1024 7 7 (1204224)
I0403 18:01:39.615417 15902 net.cpp:156] Memory required for data: 1345864224
I0403 18:01:39.615432 15902 layer_factory.hpp:77] Creating layer pool5/7x7_s1
I0403 18:01:39.615449 15902 net.cpp:91] Creating Layer pool5/7x7_s1
I0403 18:01:39.615465 15902 net.cpp:425] pool5/7x7_s1 <- inception_5b/output
I0403 18:01:39.615485 15902 net.cpp:399] pool5/7x7_s1 -> pool5/7x7_s1
I0403 18:01:39.615691 15902 net.cpp:141] Setting up pool5/7x7_s1
I0403 18:01:39.615716 15902 net.cpp:148] Top shape: 24 1024 1 1 (24576)
I0403 18:01:39.615731 15902 net.cpp:156] Memory required for data: 1345962528
I0403 18:01:39.615744 15902 layer_factory.hpp:77] Creating layer pool5/drop_7x7_s1
I0403 18:01:39.615764 15902 net.cpp:91] Creating Layer pool5/drop_7x7_s1
I0403 18:01:39.615780 15902 net.cpp:425] pool5/drop_7x7_s1 <- pool5/7x7_s1
I0403 18:01:39.615797 15902 net.cpp:386] pool5/drop_7x7_s1 -> pool5/7x7_s1 (in-place)
I0403 18:01:39.615845 15902 net.cpp:141] Setting up pool5/drop_7x7_s1
I0403 18:01:39.615869 15902 net.cpp:148] Top shape: 24 1024 1 1 (24576)
I0403 18:01:39.615885 15902 net.cpp:156] Memory required for data: 1346060832
I0403 18:01:39.615898 15902 layer_factory.hpp:77] Creating layer loss3/classifier_plantvillage
I0403 18:01:39.615917 15902 net.cpp:91] Creating Layer loss3/classifier_plantvillage
I0403 18:01:39.615933 15902 net.cpp:425] loss3/classifier_plantvillage <- pool5/7x7_s1
I0403 18:01:39.615957 15902 net.cpp:399] loss3/classifier_plantvillage -> loss3/classifier_plantvillage
I0403 18:01:39.616375 15902 net.cpp:141] Setting up loss3/classifier_plantvillage
I0403 18:01:39.616400 15902 net.cpp:148] Top shape: 24 38 (912)
I0403 18:01:39.616413 15902 net.cpp:156] Memory required for data: 1346064480
I0403 18:01:39.616430 15902 layer_factory.hpp:77] Creating layer loss3/classifier_plantvillage_loss3/classifier_plantvillage_0_split
I0403 18:01:39.616447 15902 net.cpp:91] Creating Layer loss3/classifier_plantvillage_loss3/classifier_plantvillage_0_split
I0403 18:01:39.616463 15902 net.cpp:425] loss3/classifier_plantvillage_loss3/classifier_plantvillage_0_split <- loss3/classifier_plantvillage
I0403 18:01:39.616482 15902 net.cpp:399] loss3/classifier_plantvillage_loss3/classifier_plantvillage_0_split -> loss3/classifier_plantvillage_loss3/classifier_plantvillage_0_split_0
I0403 18:01:39.616503 15902 net.cpp:399] loss3/classifier_plantvillage_loss3/classifier_plantvillage_0_split -> loss3/classifier_plantvillage_loss3/classifier_plantvillage_0_split_1
I0403 18:01:39.616524 15902 net.cpp:399] loss3/classifier_plantvillage_loss3/classifier_plantvillage_0_split -> loss3/classifier_plantvillage_loss3/classifier_plantvillage_0_split_2
I0403 18:01:39.616544 15902 net.cpp:399] loss3/classifier_plantvillage_loss3/classifier_plantvillage_0_split -> loss3/classifier_plantvillage_loss3/classifier_plantvillage_0_split_3
I0403 18:01:39.616641 15902 net.cpp:141] Setting up loss3/classifier_plantvillage_loss3/classifier_plantvillage_0_split
I0403 18:01:39.616662 15902 net.cpp:148] Top shape: 24 38 (912)
I0403 18:01:39.616677 15902 net.cpp:148] Top shape: 24 38 (912)
I0403 18:01:39.616693 15902 net.cpp:148] Top shape: 24 38 (912)
I0403 18:01:39.616706 15902 net.cpp:148] Top shape: 24 38 (912)
I0403 18:01:39.616720 15902 net.cpp:156] Memory required for data: 1346079072
I0403 18:01:39.616734 15902 layer_factory.hpp:77] Creating layer loss1/loss
I0403 18:01:39.616757 15902 net.cpp:91] Creating Layer loss1/loss
I0403 18:01:39.616775 15902 net.cpp:425] loss1/loss <- loss1/classifier_plantvillage_loss1/classifier_plantvillage_0_split_0
I0403 18:01:39.616804 15902 net.cpp:425] loss1/loss <- label_data_1_split_0
…
