…
I0403 17:50:28.848932 15192 net.cpp:313] The NetState phase (1) differed from the phase (0) specified by a rule in layer data
I0403 17:50:28.850065 15192 net.cpp:49] Initializing net from parameters: 
state {
  phase: TEST
}
layer {
  name: "data"
  type: "Data"
  top: "data"
  top: "label"
  include {
    phase: TEST
  }
  transform_param {
    mirror: false
    crop_size: 224
    mean_file: "/home/mohanty/data/final_dataset/lmdb/grayscale-60-40/mean.binaryproto"
  }
  data_param {
    source: "/home/mohanty/data/final_dataset/lmdb/grayscale-60-40/test_db"
    batch_size: 24
    backend: LMDB
  }
}
layer {
  name: "conv1/7x7_s2"
  type: "Convolution"
  bottom: "data"
  top: "conv1/7x7_s2"
  param {
    lr_mult: 1
    decay_mult: 1
  }
  param {
    lr_mult: 2
    decay_mult: 0
  }
  convolution_param {
    num_output: 64
    pad: 3
    kernel_size: 7
    stride: 2
    weight_filler {
      type: "xavier"
      std: 0.1
    }
    bias_filler {
      type: "constant"
      value: 0.2
    }
  }
}
layer {
  name: "conv1/relu_7x7"
  type: "ReLU"
  bottom: "conv1/7x7_s2"
  top: "conv1/7x7_s2"
}
layer {
  name: "pool1/3x3_s2"
  type: "Pooling"
  bottom: "conv1/7x7_s2"
  top: "pool1/3x3_s2"
  pooling_param {
    pool: MAX
    kernel_size: 3
    stride: 2
  }
}
layer {
  name: "pool1/norm1"
  type: "LRN"
  bottom: "pool1/3x3_s2"
  top: "pool1/norm1"
  lrn_param {
    local_size: 5
    alpha: 0.0001
    beta: 0.75
  }
}
layer {
  name: "conv2/3x3_reduce"
  type: "Convolution"
  bottom: "pool1/norm1"
  top: "conv2/3x3_reduce"
  param {
    lr_mult: 1
    decay_mult: 1
  }
  param {
    lr_mult: 2
    decay_mult: 0
  }
  convolution_param {
    num_output: 64
    kernel_size: 1
    weight_filler {
      type: "xavier"
      std: 0.1
    }
    bias_filler {
      type: "constant"
      value: 0.2
    }
  }
}
layer {
  name: "conv2/relu_3x3_reduce"
  type: "ReLU"
  bottom: "conv2/3x3_reduce"
  top: "conv2/3x3_reduce"
}
layer {
  name: "conv2/3x3"
  type: "Convolution"
  bottom: "conv2/3x3_reduce"
  top: "conv2/3x3"
  param {
    lr_mult: 1
    decay_mult: 1
  }
  param {
    lr_mult: 2
    decay_mult: 0
  }
  convolution_param {
    num_output: 192
    pad: 1
    kernel_size: 3
    weight_filler {
      type: "xavier"
      std: 0.03
    }
    bias_filler {
      type: "constant"
      value: 0.2
    }
  }
}
layer {
  name: "conv2/relu_3x3"
  type: "ReLU"
  bottom: "conv2/3x3"
  top: "conv2/3x3"
}
layer {
  name: "conv2/norm2"
  type: "LRN"
  bottom: "conv2/3x3"
  top: "conv2/norm2"
  lrn_param {
    local_size: 5
    alpha: 0.0001
    beta: 0.75
  }
}
layer {
  name: "pool2/3x3_s2"
  type: "Pooling"
  bottom: "conv2/norm2"
  top: "pool2/3x3_s2"
  pooling_param {
    pool: MAX
    kernel_size: 3
    stride: 2
  }
}
layer {
  name: "inception_3a/1x1"
  type: "Convolution"
  bottom: "pool2/3x3_s2"
  top: "inception_3a/1x1"
  param {
    lr_mult: 1
    decay_mult: 1
  }
  param {
    lr_mult: 2
    decay_mult: 0
  }
  convolution_param {
    num_output: 64
    kernel_size: 1
    weight_filler {
      type: "xavier"
      std: 0.03
    }
    bias_filler {
      type: "constant"
      value: 0.2
    }
  }
}
layer {
  name: "inception_3a/relu_1x1"
  type: "ReLU"
  bottom: "inception_3a/1x1"
  top: "inception_3a/1x1"
}
layer {
  name: "inception_3a/3x3_reduce"
  type: "Convolution"
  bottom: "pool2/3x3_s2"
  top: "inception_3a/3x3_reduce"
  param {
    lr_mult: 1
    decay_mult: 1
  }
  param {
    lr_mult: 2
    decay_mult: 0
  }
  convolution_param {
    num_output: 96
    kernel_size: 1
    weight_filler {
      type: "xavier"
      std: 0.09
    }
    bias_filler {
      type: "constant"
      value: 0.2
    }
  }
}
layer {
  name: "inception_3a/relu_3x3_reduce"
  type: "ReLU"
  bottom: "inception_3a/3x3_reduce"
  top: "inception_3a/3x3_reduce"
}
layer {
  name: "inception_3a/3x3"
  type: "Convolution"
  bottom: "inception_3a/3x3_reduce"
  top: "inception_3a/3x3"
  param {
    lr_mult: 1
    decay_mult: 1
  }
  param {
    lr_mult: 2
    decay_mult: 0
  }
  convolution_param {
    num_output: 128
    pad: 1
    kernel_size: 3
    weight_filler {
      type: "xavier"
      std: 0.03
    }
    bias_filler {
      type: "constant"
      value: 0.2
    }
  }
}
layer {
  name: "inception_3a/relu_3x3"
  type: "ReLU"
  bottom: "inception_3a/3x3"
  top: "inception_3a/3x3"
}
layer {
  name: "inception_3a/5x5_reduce"
  type: "Convolution"
  bottom: "pool2/3x3_s2"
  top: "inception_3a/5x5_reduce"
  param {
    lr_mult: 1
    decay_mult: 1
  }
  param {
    lr_mult: 2
    decay_mult: 0
  }
  convolution_param {
    num_output: 16
    kernel_size: 1
    weight_filler {
      type: "xavier"
      std: 0.2
    }
    bias_filler {
      type: "constant"
      value: 0.2
    }
  }
}
layer {
  name: "inception_3a/relu_5x5_reduce"
  type: "ReLU"
  bottom: "inception_3a/5x5_reduce"
  top: "inception_3a/5x5_reduce"
}
layer {
  name: "inception_3a/5x5"
  type: "Convolution"
  bottom: "inception_3a/5x5_reduce"
  top: "inception_3a/5x5"
  param {
    lr_mult: 1
    decay_mult: 1
  }
  param {
    lr_mult: 2
    decay_mult: 0
  }
  convolution_param {
    num_output: 32
    pad: 2
    kernel_size: 5
    weight_filler {
      type: "xavier"
      std: 0.03
    }
    bias_filler {
      type: "constant"
      value: 0.2
    }
  }
}
layer {
  name: "inception_3a/relu_5x5"
  type: "ReLU"
  bottom: "inception_3a/5x5"
  top: "inception_3a/5x5"
}
layer {
  name: "inception_3a/pool"
  type: "Pooling"
  bottom: "pool2/3x3_s2"
  top: "inception_3a/pool"
  pooling_param {
    pool: MAX
    kernel_size: 3
    stride: 1
    pad: 1
  }
}
layer {
  name: "inception_3a/pool_proj"
  type: "Convolution"
  bottom: "inception_3a/pool"
  top: "inception_3a/pool_proj"
  param {
    lr_mult: 1
    decay_mult: 1
  }
  param {
    lr_mult: 2
    decay_mult: 0
  }
  convolution_param {
    num_output: 32
    kernel_size: 1
    weight_filler {
      type: "xavier"
      std: 0.1
    }
    bias_filler {
      type: "constant"
      value: 0.2
    }
  }
}
layer {
  name: "inception_3a/relu_pool_proj"
  type: "ReLU"
  bottom: "inception_3a/pool_proj"
  top: "inception_3a/pool_proj"
}
layer {
  name: "inception_3a/output"
  type: "Concat"
  bottom: "inception_3a/1x1"
  bottom: "inception_3a/3x3"
  bottom: "inception_3a/5x5"
  bottom: "inception_3a/pool_proj"
  top: "inception_3a/output"
}
layer {
  name: "inception_3b/1x1"
  type: "Convolution"
  bottom: "inception_3a/output"
  top: "inception_3b/1x1"
  param {
    lr_mult: 1
    decay_mult: 1
  }
  param {
    lr_mult: 2
    decay_mult: 0
  }
  convolution_param {
    num_output: 128
    kernel_size: 1
    weight_filler {
      type: "xavier"
      std: 0.03
    }
    bias_filler {
      type: "constant"
      value: 0.2
    }
  }
}
layer {
  name: "inception_3b/relu_1x1"
  type: "ReLU"
  bottom: "inception_3b/1x1"
  top: "inception_3b/1x1"
}
layer {
  name: "inception_3b/3x3_reduce"
  type: "Convolution"
  bottom: "inception_3a/output"
  top: "inception_3b/3x3_reduce"
  param {
    lr_mult: 1
    decay_mult: 1
  }
  param {
    lr_mult: 2
    decay_mult: 0
  }
  convolution_param {
    num_output: 128
    kernel_size: 1
    weight_filler {
      type: "xavier"
      std: 0.09
    }
    bias_filler {
      type: "constant"
      value: 0.2
    }
  }
}
layer {
  name: "inception_3b/relu_3x3_reduce"
  type: "ReLU"
  bottom: "inception_3b/3x3_reduce"
  top: "inception_3b/3x3_reduce"
}
layer {
  name: "inception_3b/3x3"
  type: "Convolution"
  bottom: "inception_3b/3x3_reduce"
  top: "inception_3b/3x3"
  param {
    lr_mult: 1
    decay_mult: 1
  }
  param {
    lr_mult: 2
    decay_mult: 0
  }
  convolution_param {
    num_output: 192
    pad: 1
    kernel_size: 3
    weight_filler {
      type: "xavier"
      std: 0.03
    }
    bias_filler {
      type: "constant"
      value: 0.2
    }
  }
}
layer {
  name: "inception_3b/relu_3x3"
  type: "ReLU"
  bottom: "inception_3b/3x3"
  top: "inception_3b/3x3"
}
layer {
  name: "inception_3b/5x5_reduce"
  type: "Convolution"
  bottom: "inception_3a/output"
  top: "inception_3b/5x5_reduce"
  param {
    lr_mult: 1
    decay_mult: 1
  }
  param {
    lr_mult: 2
    decay_mult: 0
  }
  convolution_param {
    num_output: 32
    kernel_size: 1
    weight_filler {
      type: "xavier"
      std: 0.2
    }
    bias_filler {
      type: "constant"
      value: 0.2
    }
  }
}
layer {
  name: "inception_3b/relu_5x5_reduce"
  type: "ReLU"
  bottom: "inception_3b/5x5_reduce"
  top: "inception_3b/5x5_reduce"
}
layer {
  name: "inception_3b/5x5"
  type: "Convolution"
  bottom: "inception_3b/5x5_reduce"
  top: "inception_3b/5x5"
  param {
    lr_mult: 1
    decay_mult: 1
  }
  param {
    lr_mult: 2
    decay_mult: 0
  }
  convolution_param {
    num_output: 96
    pad: 2
    kernel_size: 5
    weight_filler {
      type: "xavier"
      std: 0.03
    }
    bias_filler {
      type: "constant"
      value: 0.2
    }
  }
}
layer {
  name: "inception_3b/relu_5x5"
  type: "ReLU"
  bottom: "inception_3b/5x5"
  top: "inception_3b/5x5"
}
layer {
  name: "inception_3b/pool"
  type: "Pooling"
  bottom: "inception_3a/output"
  top: "inception_3b/pool"
  pooling_param {
    pool: MAX
    kernel_size: 3
    stride: 1
    pad: 1
  }
}
layer {
  name: "inception_3b/pool_proj"
  type: "Convolution"
  bottom: "inception_3b/pool"
  top: "inception_3b/pool_proj"
  param {
    lr_mult: 1
    decay_mult: 1
  }
  param {
    lr_mult: 2
    decay_mult: 0
  }
  convolution_param {
    num_output: 64
    kernel_size: 1
    weight_filler {
      type: "xavier"
      std: 0.1
    }
    bias_filler {
      type: "constant"
      value: 0.2
    }
  }
}
layer {
  name: "inception_3b/relu_pool_proj"
  type: "ReLU"
  bottom: "inception_3b/pool_proj"
  top: "inception_3b/pool_proj"
}
layer {
  name: "inception_3b/output"
  type: "Concat"
  bottom: "inception_3b/1x1"
  bottom: "inception_3b/3x3"
  bottom: "inception_3b/5x5"
  bottom: "inception_3b/pool_proj"
  top: "inception_3b/output"
}
layer {
  name: "pool3/3x3_s2"
  type: "Pooling"
  bottom: "inception_3b/output"
  top: "pool3/3x3_s2"
  pooling_param {
    pool: MAX
    kernel_size: 3
    stride: 2
  }
}
layer {
  name: "inception_4a/1x1"
  type: "Convolution"
  bottom: "pool3/3x3_s2"
  top: "inception_4a/1x1"
  param {
    lr_mult: 1
    decay_mult: 1
  }
  param {
    lr_mult: 2
    decay_mult: 0
  }
  convolution_param {
    num_output: 192
    kernel_size: 1
    weight_filler {
      type: "xavier"
      std: 0.03
    }
    bias_filler {
      type: "constant"
      value: 0.2
    }
  }
}
layer {
  name: "inception_4a/relu_1x1"
  type: "ReLU"
  bottom: "inception_4a/1x1"
  top: "inception_4a/1x1"
}
layer {
  name: "inception_4a/3x3_reduce"
  type: "Convolution"
  bottom: "pool3/3x3_s2"
  top: "inception_4a/3x3_reduce"
  param {
    lr_mult: 1
    decay_mult: 1
  }
  param {
    lr_mult: 2
    decay_mult: 0
  }
  convolution_param {
    num_output: 96
    kernel_size: 1
    weight_filler {
      type: "xavier"
      std: 0.09
    }
    bias_filler {
      type: "constant"
      value: 0.2
    }
  }
}
layer {
  name: "inception_4a/relu_3x3_reduce"
  type: "ReLU"
  bottom: "inception_4a/3x3_reduce"
  top: "inception_4a/3x3_reduce"
}
layer {
  name: "inception_4a/3x3"
  type: "Convolution"
  bottom: "inception_4a/3x3_reduce"
  top: "inception_4a/3x3"
  param {
    lr_mult: 1
    decay_mult: 1
  }
  param {
    lr_mult: 2
    decay_mult: 0
  }
  convolution_param {
    num_output: 208
    pad: 1
    kernel_size: 3
    weight_filler {
      type: "xavier"
      std: 0.03
    }
    bias_filler {
      type: "constant"
      value: 0.2
    }
  }
}
layer {
  name: "inception_4a/relu_3x3"
  type: "ReLU"
  bottom: "inception_4a/3x3"
  top: "inception_4a/3x3"
}
layer {
  name: "inception_4a/5x5_reduce"
  type: "Convolution"
  bottom: "pool3/3x3_s2"
  top: "inception_4a/5x5_reduce"
  param {
    lr_mult: 1
    decay_mult: 1
  }
  param {
    lr_mult: 2
    decay_mult: 0
  }
  convolution_param {
    num_output: 16
    kernel_size: 1
    weight_filler {
      type: "xavier"
      std: 0.2
    }
    bias_filler {
      type: "constant"
      value: 0.2
    }
  }
}
layer {
  name: "inception_4a/relu_5x5_reduce"
  type: "ReLU"
  bottom: "inception_4a/5x5_reduce"
  top: "inception_4a/5x5_reduce"
}
layer {
  name: "inception_4a/5x5"
  type: "Convolution"
  bottom: "inception_4a/5x5_reduce"
  top: "inception_4a/5x5"
  param {
    lr_mult: 1
    decay_mult: 1
  }
  param {
    lr_mult: 2
    decay_mult: 0
  }
  convolution_param {
    num_output: 48
    pad: 2
    kernel_size: 5
    weight_filler {
      type: "xavier"
      std: 0.03
    }
    bias_filler {
      type: "constant"
      value: 0.2
    }
  }
}
layer {
  name: "inception_4a/relu_5x5"
  type: "ReLU"
  bottom: "inception_4a/5x5"
  top: "inception_4a/5x5"
}
layer {
  name: "inception_4a/pool"
  type: "Pooling"
  bottom: "pool3/3x3_s2"
  top: "inception_4a/pool"
  pooling_param {
    pool: MAX
    kernel_size: 3
    stride: 1
    pad: 1
  }
}
layer {
  name: "inception_4a/pool_proj"
  type: "Convolution"
  bottom: "inception_4a/pool"
  top: "inception_4a/pool_proj"
  param {
    lr_mult: 1
    decay_mult: 1
  }
  param {
    lr_mult: 2
    decay_mult: 0
  }
  convolution_param {
    num_output: 64
    kernel_size: 1
    weight_filler {
      type: "xavier"
      std: 0.1
    }
    bias_filler {
      type: "constant"
      value: 0.2
    }
  }
}
layer {
  name: "inception_4a/relu_pool_proj"
  type: "ReLU"
  bottom: "inception_4a/pool_proj"
  top: "inception_4a/pool_proj"
}
layer {
  name: "inception_4a/output"
  type: "Concat"
  bottom: "inception_4a/1x1"
  bottom: "inception_4a/3x3"
  bottom: "inception_4a/5x5"
  bottom: "inception_4a/pool_proj"
  top: "inception_4a/output"
}
layer {
  name: "loss1/ave_pool"
  type: "Pooling"
  bottom: "inception_4a/output"
  top: "loss1/ave_pool"
  pooling_param {
    pool: AVE
    kernel_size: 5
    stride: 3
  }
}
layer {
  name: "loss1/conv"
  type: "Convolution"
  bottom: "loss1/ave_pool"
  top: "loss1/conv"
  param {
    lr_mult: 1
    decay_mult: 1
  }
  param {
    lr_mult: 2
    decay_mult: 0
  }
  convolution_param {
    num_output: 128
    kernel_size: 1
    weight_filler {
      type: "xavier"
      std: 0.08
    }
    bias_filler {
      type: "constant"
      value: 0.2
    }
  }
}
layer {
  name: "loss1/relu_conv"
  type: "ReLU"
  bottom: "loss1/conv"
  top: "loss1/conv"
}
layer {
  name: "loss1/fc"
  type: "InnerProduct"
  bottom: "loss1/conv"
  top: "loss1/fc"
  param {
    lr_mult: 1
    decay_mult: 1
  }
  param {
    lr_mult: 2
    decay_mult: 0
  }
  inner_product_param {
    num_output: 1024
    weight_filler {
      type: "xavier"
      std: 0.02
    }
    bias_filler {
      type: "constant"
      value: 0.2
    }
  }
}
layer {
  name: "loss1/relu_fc"
  type: "ReLU"
  bottom: "loss1/fc"
  top: "loss1/fc"
}
layer {
  name: "loss1/drop_fc"
  type: "Dropout"
  bottom: "loss1/fc"
  top: "loss1/fc"
  dropout_param {
    dropout_ratio: 0.7
  }
}
layer {
  name: "loss1/classifier_plantvillage"
  type: "InnerProduct"
  bottom: "loss1/fc"
  top: "loss1/classifier_plantvillage"
  param {
    lr_mult: 1
    decay_mult: 1
  }
  param {
    lr_mult: 2
    decay_mult: 0
  }
  inner_product_param {
    num_output: 38
    weight_filler {
      type: "xavier"
      std: 0.0009765625
    }
    bias_filler {
      type: "constant"
      value: 0
    }
  }
}
layer {
  name: "inception_4b/1x1"
  type: "Convolution"
  bottom: "inception_4a/output"
  top: "inception_4b/1x1"
  param {
    lr_mult: 1
    decay_mult: 1
  }
  param {
    lr_mult: 2
    decay_mult: 0
  }
  convolution_param {
    num_output: 160
    kernel_size: 1
    weight_filler {
      type: "xavier"
      std: 0.03
    }
    bias_filler {
      type: "constant"
      value: 0.2
    }
  }
}
layer {
  name: "inception_4b/relu_1x1"
  type: "ReLU"
  bottom: "inception_4b/1x1"
  top: "inception_4b/1x1"
}
layer {
  name: "inception_4b/3x3_reduce"
  type: "Convolution"
  bottom: "inception_4a/output"
  top: "inception_4b/3x3_reduce"
  param {
    lr_mult: 1
    decay_mult: 1
  }
  param {
    lr_mult: 2
    decay_mult: 0
  }
  convolution_param {
    num_output: 112
    kernel_size: 1
    weight_filler {
      type: "xavier"
      std: 0.09
    }
    bias_filler {
      type: "constant"
      value: 0.2
    }
  }
}
layer {
  name: "inception_4b/relu_3x3_reduce"
  type: "ReLU"
  bottom: "inception_4b/3x3_reduce"
  top: "inception_4b/3x3_reduce"
}
layer {
  name: "inception_4b/3x3"
  type: "Convolution"
  bottom: "inception_4b/3x3_reduce"
  top: "inception_4b/3x3"
  param {
    lr_mult: 1
    decay_mult: 1
  }
  param {
    lr_mult: 2
    decay_mult: 0
  }
  convolution_param {
    num_output: 224
    pad: 1
    kernel_size: 3
    weight_filler {
      type: "xavier"
      std: 0.03
    }
    bias_filler {
      type: "constant"
      value: 0.2
    }
  }
}
layer {
  name: "inception_4b/relu_3x3"
  type: "ReLU"
  bottom: "inception_4b/3x3"
  top: "inception_4b/3x3"
}
layer {
  name: "inception_4b/5x5_reduce"
  type: "Convolution"
  bottom: "inception_4a/output"
  top: "inception_4b/5x5_reduce"
  param {
    lr_mult: 1
    decay_mult: 1
  }
  param {
    lr_mult: 2
    decay_mult: 0
  }
  convolution_param {
    num_output: 24
    kernel_size: 1
    weight_filler {
      type: "xavier"
      std: 0.2
    }
    bias_filler {
      type: "constant"
      value: 0.2
    }
  }
}
layer {
  name: "inception_4b/relu_5x5_reduce"
  type: "ReLU"
  bottom: "inception_4b/5x5_reduce"
  top: "inception_4b/5x5_reduce"
}
layer {
  name: "inception_4b/5x5"
  type: "Convolution"
  bottom: "inception_4b/5x5_reduce"
  top: "inception_4b/5x5"
  param {
    lr_mult: 1
    decay_mult: 1
  }
  param {
    lr_mult: 2
    decay_mult: 0
  }
  convolution_param {
    num_output: 64
    pad: 2
    kernel_size: 5
    weight_filler {
      type: "xavier"
      std: 0.03
    }
    bias_filler {
      type: "constant"
      value: 0.2
    }
  }
}
layer {
  name: "inception_4b/relu_5x5"
  type: "ReLU"
  bottom: "inception_4b/5x5"
  top: "inception_4b/5x5"
}
layer {
  name: "inception_4b/pool"
  type: "Pooling"
  bottom: "inception_4a/output"
  top: "inception_4b/pool"
  pooling_param {
    pool: MAX
    kernel_size: 3
    stride: 1
    pad: 1
  }
}
layer {
  name: "inception_4b/pool_proj"
  type: "Convolution"
  bottom: "inception_4b/pool"
  top: "inception_4b/pool_proj"
  param {
    lr_mult: 1
    decay_mult: 1
  }
  param {
    lr_mult: 2
    decay_mult: 0
  }
  convolution_param {
    num_output: 64
    kernel_size: 1
    weight_filler {
      type: "xavier"
      std: 0.1
    }
    bias_filler {
      type: "constant"
      value: 0.2
    }
  }
}
layer {
  name: "inception_4b/relu_pool_proj"
  type: "ReLU"
  bottom: "inception_4b/pool_proj"
  top: "inception_4b/pool_proj"
}
layer {
  name: "inception_4b/output"
  type: "Concat"
  bottom: "inception_4b/1x1"
  bottom: "inception_4b/3x3"
  bottom: "inception_4b/5x5"
  bottom: "inception_4b/pool_proj"
  top: "inception_4b/output"
}
layer {
  name: "inception_4c/1x1"
  type: "Convolution"
  bottom: "inception_4b/output"
  top: "inception_4c/1x1"
  param {
    lr_mult: 1
    decay_mult: 1
  }
  param {
    lr_mult: 2
    decay_mult: 0
  }
  convolution_param {
    num_output: 128
    kernel_size: 1
    weight_filler {
      type: "xavier"
      std: 0.03
    }
    bias_filler {
      type: "constant"
      value: 0.2
    }
  }
}
layer {
  name: "inception_4c/relu_1x1"
  type: "ReLU"
  bottom: "inception_4c/1x1"
  top: "inception_4c/1x1"
}
layer {
  name: "inception_4c/3x3_reduce"
  type: "Convolution"
  bottom: "inception_4b/output"
  top: "inception_4c/3x3_reduce"
  param {
    lr_mult: 1
    decay_mult: 1
  }
  param {
    lr_mult: 2
    decay_mult: 0
  }
  convolution_param {
    num_output: 128
    kernel_size: 1
    weight_filler {
      type: "xavier"
      std: 0.09
    }
    bias_filler {
      type: "constant"
      value: 0.2
    }
  }
}
layer {
  name: "inception_4c/relu_3x3_reduce"
  type: "ReLU"
  bottom: "inception_4c/3x3_reduce"
  top: "inception_4c/3x3_reduce"
}
layer {
  name: "inception_4c/3x3"
  type: "Convolution"
  bottom: "inception_4c/3x3_reduce"
  top: "inception_4c/3x3"
  param {
    lr_mult: 1
    decay_mult: 1
  }
  param {
    lr_mult: 2
    decay_mult: 0
  }
  convolution_param {
    num_output: 256
    pad: 1
    kernel_size: 3
    weight_filler {
      type: "xavier"
      std: 0.03
    }
    bias_filler {
      type: "constant"
      value: 0.2
    }
  }
}
layer {
  name: "inception_4c/relu_3x3"
  type: "ReLU"
  bottom: "inception_4c/3x3"
  top: "inception_4c/3x3"
}
layer {
  name: "inception_4c/5x5_reduce"
  type: "Convolution"
  bottom: "inception_4b/output"
  top: "inception_4c/5x5_reduce"
  param {
    lr_mult: 1
    decay_mult: 1
  }
  param {
    lr_mult: 2
    decay_mult: 0
  }
  convolution_param {
    num_output: 24
    kernel_size: 1
    weight_filler {
      type: "xavier"
      std: 0.2
    }
    bias_filler {
      type: "constant"
      value: 0.2
    }
  }
}
layer {
  name: "inception_4c/relu_5x5_reduce"
  type: "ReLU"
  bottom: "inception_4c/5x5_reduce"
  top: "inception_4c/5x5_reduce"
}
layer {
  name: "inception_4c/5x5"
  type: "Convolution"
  bottom: "inception_4c/5x5_reduce"
  top: "inception_4c/5x5"
  param {
    lr_mult: 1
    decay_mult: 1
  }
  param {
    lr_mult: 2
    decay_mult: 0
  }
  convolution_param {
    num_output: 64
    pad: 2
    kernel_size: 5
    weight_filler {
      type: "xavier"
      std: 0.03
    }
    bias_filler {
      type: "constant"
      value: 0.2
    }
  }
}
layer {
  name: "inception_4c/relu_5x5"
  type: "ReLU"
  bottom: "inception_4c/5x5"
  top: "inception_4c/5x5"
}
layer {
  name: "inception_4c/pool"
  type: "Pooling"
  bottom: "inception_4b/output"
  top: "inception_4c/pool"
  pooling_param {
    pool: MAX
    kernel_size: 3
    stride: 1
    pad: 1
  }
}
layer {
  name: "inception_4c/pool_proj"
  type: "Convolution"
  bottom: "inception_4c/pool"
  top: "inception_4c/pool_proj"
  param {
    lr_mult: 1
    decay_mult: 1
  }
  param {
    lr_mult: 2
    decay_mult: 0
  }
  convolution_param {
    num_output: 64
    kernel_size: 1
    weight_filler {
      type: "xavier"
      std: 0.1
    }
    bias_filler {
      type: "constant"
      value: 0.2
    }
  }
}
layer {
  name: "inception_4c/relu_pool_proj"
  type: "ReLU"
  bottom: "inception_4c/pool_proj"
  top: "inception_4c/pool_proj"
}
layer {
  name: "inception_4c/output"
  type: "Concat"
  bottom: "inception_4c/1x1"
  bottom: "inception_4c/3x3"
  bottom: "inception_4c/5x5"
  bottom: "inception_4c/pool_proj"
  top: "inception_4c/output"
}
layer {
  name: "inception_4d/1x1"
  type: "Convolution"
  bottom: "inception_4c/output"
  top: "inception_4d/1x1"
  param {
    lr_mult: 1
    decay_mult: 1
  }
  param {
    lr_mult: 2
    decay_mult: 0
  }
  convolution_param {
    num_output: 112
    kernel_size: 1
    weight_filler {
      type: "xavier"
      std: 0.03
    }
    bias_filler {
      type: "constant"
      value: 0.2
    }
  }
}
layer {
  name: "inception_4d/relu_1x1"
  type: "ReLU"
  bottom: "inception_4d/1x1"
  top: "inception_4d/1x1"
}
layer {
  name: "inception_4d/3x3_reduce"
  type: "Convolution"
  bottom: "inception_4c/output"
  top: "inception_4d/3x3_reduce"
  param {
    lr_mult: 1
    decay_mult: 1
  }
  param {
    lr_mult: 2
    decay_mult: 0
  }
  convolution_param {
    num_output: 144
    kernel_size: 1
    weight_filler {
      type: "xavier"
      std: 0.09
    }
    bias_filler {
      type: "constant"
      value: 0.2
    }
  }
}
layer {
  name: "inception_4d/relu_3x3_reduce"
  type: "ReLU"
  bottom: "inception_4d/3x3_reduce"
  top: "inception_4d/3x3_reduce"
}
layer {
  name: "inception_4d/3x3"
  type: "Convolution"
  bottom: "inception_4d/3x3_reduce"
  top: "inception_4d/3x3"
  param {
    lr_mult: 1
    decay_mult: 1
  }
  param {
    lr_mult: 2
    decay_mult: 0
  }
  convolution_param {
    num_output: 288
    pad: 1
    kernel_size: 3
    weight_filler {
      type: "xavier"
      std: 0.03
    }
    bias_filler {
      type: "constant"
      value: 0.2
    }
  }
}
layer {
  name: "inception_4d/relu_3x3"
  type: "ReLU"
  bottom: "inception_4d/3x3"
  top: "inception_4d/3x3"
}
layer {
  name: "inception_4d/5x5_reduce"
  type: "Convolution"
  bottom: "inception_4c/output"
  top: "inception_4d/5x5_reduce"
  param {
    lr_mult: 1
    decay_mult: 1
  }
  param {
    lr_mult: 2
    decay_mult: 0
  }
  convolution_param {
    num_output: 32
    kernel_size: 1
    weight_filler {
      type: "xavier"
      std: 0.2
    }
    bias_filler {
      type: "constant"
      value: 0.2
    }
  }
}
layer {
  name: "inception_4d/relu_5x5_reduce"
  type: "ReLU"
  bottom: "inception_4d/5x5_reduce"
  top: "inception_4d/5x5_reduce"
}
layer {
  name: "inception_4d/5x5"
  type: "Convolution"
  bottom: "inception_4d/5x5_reduce"
  top: "inception_4d/5x5"
  param {
    lr_mult: 1
    decay_mult: 1
  }
  param {
    lr_mult: 2
    decay_mult: 0
  }
  convolution_param {
    num_output: 64
    pad: 2
    kernel_size: 5
    weight_filler {
      type: "xavier"
      std: 0.03
    }
    bias_filler {
      type: "constant"
      value: 0.2
    }
  }
}
layer {
  name: "inception_4d/relu_5x5"
  type: "ReLU"
  bottom: "inception_4d/5x5"
  top: "inception_4d/5x5"
}
layer {
  name: "inception_4d/pool"
  type: "Pooling"
  bottom: "inception_4c/output"
  top: "inception_4d/pool"
  pooling_param {
    pool: MAX
    kernel_size: 3
    stride: 1
    pad: 1
  }
}
layer {
  name: "inception_4d/pool_proj"
  type: "Convolution"
  bottom: "inception_4d/pool"
  top: "inception_4d/pool_proj"
  param {
    lr_mult: 1
    decay_mult: 1
  }
  param {
    lr_mult: 2
    decay_mult: 0
  }
  convolution_param {
    num_output: 64
    kernel_size: 1
    weight_filler {
      type: "xavier"
      std: 0.1
    }
    bias_filler {
      type: "constant"
      value: 0.2
    }
  }
}
layer {
  name: "inception_4d/relu_pool_proj"
  type: "ReLU"
  bottom: "inception_4d/pool_proj"
  top: "inception_4d/pool_proj"
}
layer {
  name: "inception_4d/output"
  type: "Concat"
  bottom: "inception_4d/1x1"
  bottom: "inception_4d/3x3"
  bottom: "inception_4d/5x5"
  bottom: "inception_4d/pool_proj"
  top: "inception_4d/output"
}
layer {
  name: "loss2/ave_pool"
  type: "Pooling"
  bottom: "inception_4d/output"
  top: "loss2/ave_pool"
  pooling_param {
    pool: AVE
    kernel_size: 5
    stride: 3
  }
}
layer {
  name: "loss2/conv"
  type: "Convolution"
  bottom: "loss2/ave_pool"
  top: "loss2/conv"
  param {
    lr_mult: 1
    decay_mult: 1
  }
  param {
    lr_mult: 2
    decay_mult: 0
  }
  convolution_param {
    num_output: 128
    kernel_size: 1
    weight_filler {
      type: "xavier"
      std: 0.08
    }
    bias_filler {
      type: "constant"
      value: 0.2
    }
  }
}
layer {
  name: "loss2/relu_conv"
  type: "ReLU"
  bottom: "loss2/conv"
  top: "loss2/conv"
}
layer {
  name: "loss2/fc"
  type: "InnerProduct"
  bottom: "loss2/conv"
  top: "loss2/fc"
  param {
    lr_mult: 1
    decay_mult: 1
  }
  param {
    lr_mult: 2
    decay_mult: 0
  }
  inner_product_param {
    num_output: 1024
    weight_filler {
      type: "xavier"
      std: 0.02
    }
    bias_filler {
      type: "constant"
      value: 0.2
    }
  }
}
layer {
  name: "loss2/relu_fc"
  type: "ReLU"
  bottom: "loss2/fc"
  top: "loss2/fc"
}
layer {
  name: "loss2/drop_fc"
  type: "Dropout"
  bottom: "loss2/fc"
  top: "loss2/fc"
  dropout_param {
    dropout_ratio: 0.7
  }
}
layer {
  name: "loss2/classifier_plantvillage"
  type: "InnerProduct"
  bottom: "loss2/fc"
  top: "loss2/classifier_plantvillage"
  param {
    lr_mult: 1
    decay_mult: 1
  }
  param {
    lr_mult: 2
    decay_mult: 0
  }
  inner_product_param {
    num_output: 38
    weight_filler {
      type: "xavier"
      std: 0.0009765625
    }
    bias_filler {
      type: "constant"
      value: 0
    }
  }
}
layer {
  name: "inception_4e/1x1"
  type: "Convolution"
  bottom: "inception_4d/output"
  top: "inception_4e/1x1"
  param {
    lr_mult: 1
    decay_mult: 1
  }
  param {
    lr_mult: 2
    decay_mult: 0
  }
  convolution_param {
    num_output: 256
    kernel_size: 1
    weight_filler {
      type: "xavier"
      std: 0.03
    }
    bias_filler {
      type: "constant"
      value: 0.2
    }
  }
}
layer {
  name: "inception_4e/relu_1x1"
  type: "ReLU"
  bottom: "inception_4e/1x1"
  top: "inception_4e/1x1"
}
layer {
  name: "inception_4e/3x3_reduce"
  type: "Convolution"
  bottom: "inception_4d/output"
  top: "inception_4e/3x3_reduce"
  param {
    lr_mult: 1
    decay_mult: 1
  }
  param {
    lr_mult: 2
    decay_mult: 0
  }
  convolution_param {
    num_output: 160
    kernel_size: 1
    weight_filler {
      type: "xavier"
      std: 0.09
    }
    bias_filler {
      type: "constant"
      value: 0.2
    }
  }
}
layer {
  name: "inception_4e/relu_3x3_reduce"
  type: "ReLU"
  bottom: "inception_4e/3x3_reduce"
  top: "inception_4e/3x3_reduce"
}
layer {
  name: "inception_4e/3x3"
  type: "Convolution"
  bottom: "inception_4e/3x3_reduce"
  top: "inception_4e/3x3"
  param {
    lr_mult: 1
    decay_mult: 1
  }
  param {
    lr_mult: 2
    decay_mult: 0
  }
  convolution_param {
    num_output: 320
    pad: 1
    kernel_size: 3
    weight_filler {
      type: "xavier"
      std: 0.03
    }
    bias_filler {
      type: "constant"
      value: 0.2
    }
  }
}
layer {
  name: "inception_4e/relu_3x3"
  type: "ReLU"
  bottom: "inception_4e/3x3"
  top: "inception_4e/3x3"
}
layer {
  name: "inception_4e/5x5_reduce"
  type: "Convolution"
  bottom: "inception_4d/output"
  top: "inception_4e/5x5_reduce"
  param {
    lr_mult: 1
    decay_mult: 1
  }
  param {
    lr_mult: 2
    decay_mult: 0
  }
  convolution_param {
    num_output: 32
    kernel_size: 1
    weight_filler {
      type: "xavier"
      std: 0.2
    }
    bias_filler {
      type: "constant"
      value: 0.2
    }
  }
}
layer {
  name: "inception_4e/relu_5x5_reduce"
  type: "ReLU"
  bottom: "inception_4e/5x5_reduce"
  top: "inception_4e/5x5_reduce"
}
layer {
  name: "inception_4e/5x5"
  type: "Convolution"
  bottom: "inception_4e/5x5_reduce"
  top: "inception_4e/
I0403 17:50:28.851302 15192 layer_factory.hpp:77] Creating layer data
I0403 17:50:28.851884 15192 net.cpp:91] Creating Layer data
I0403 17:50:28.851917 15192 net.cpp:399] data -> data
I0403 17:50:28.851969 15192 net.cpp:399] data -> label
I0403 17:50:28.852010 15192 data_transformer.cpp:25] Loading mean file from: /home/mohanty/data/final_dataset/lmdb/grayscale-60-40/mean.binaryproto
I0403 17:50:28.853165 15201 db_lmdb.cpp:38] Opened lmdb /home/mohanty/data/final_dataset/lmdb/grayscale-60-40/test_db
I0403 17:50:28.864964 15192 data_layer.cpp:41] output data size: 24,3,224,224
I0403 17:50:28.891038 15192 net.cpp:141] Setting up data
I0403 17:50:28.891119 15192 net.cpp:148] Top shape: 24 3 224 224 (3612672)
I0403 17:50:28.891141 15192 net.cpp:148] Top shape: 24 (24)
I0403 17:50:28.891156 15192 net.cpp:156] Memory required for data: 14450784
I0403 17:50:28.891182 15192 layer_factory.hpp:77] Creating layer label_data_1_split
I0403 17:50:28.891208 15192 net.cpp:91] Creating Layer label_data_1_split
I0403 17:50:28.891225 15192 net.cpp:425] label_data_1_split <- label
I0403 17:50:28.891255 15192 net.cpp:399] label_data_1_split -> label_data_1_split_0
I0403 17:50:28.891283 15192 net.cpp:399] label_data_1_split -> label_data_1_split_1
I0403 17:50:28.891304 15192 net.cpp:399] label_data_1_split -> label_data_1_split_2
I0403 17:50:28.891324 15192 net.cpp:399] label_data_1_split -> label_data_1_split_3
I0403 17:50:28.891341 15192 net.cpp:399] label_data_1_split -> label_data_1_split_4
I0403 17:50:28.891361 15192 net.cpp:399] label_data_1_split -> label_data_1_split_5
I0403 17:50:28.891379 15192 net.cpp:399] label_data_1_split -> label_data_1_split_6
I0403 17:50:28.891399 15192 net.cpp:399] label_data_1_split -> label_data_1_split_7
I0403 17:50:28.891417 15192 net.cpp:399] label_data_1_split -> label_data_1_split_8
I0403 17:50:28.891438 15192 net.cpp:399] label_data_1_split -> label_data_1_split_9
I0403 17:50:28.891549 15192 net.cpp:141] Setting up label_data_1_split
I0403 17:50:28.891571 15192 net.cpp:148] Top shape: 24 (24)
I0403 17:50:28.891587 15192 net.cpp:148] Top shape: 24 (24)
I0403 17:50:28.891603 15192 net.cpp:148] Top shape: 24 (24)
I0403 17:50:28.891618 15192 net.cpp:148] Top shape: 24 (24)
I0403 17:50:28.891633 15192 net.cpp:148] Top shape: 24 (24)
I0403 17:50:28.891649 15192 net.cpp:148] Top shape: 24 (24)
I0403 17:50:28.891662 15192 net.cpp:148] Top shape: 24 (24)
I0403 17:50:28.891677 15192 net.cpp:148] Top shape: 24 (24)
I0403 17:50:28.891692 15192 net.cpp:148] Top shape: 24 (24)
I0403 17:50:28.891707 15192 net.cpp:148] Top shape: 24 (24)
I0403 17:50:28.891751 15192 net.cpp:156] Memory required for data: 14451744
I0403 17:50:28.891765 15192 layer_factory.hpp:77] Creating layer conv1/7x7_s2
I0403 17:50:28.891795 15192 net.cpp:91] Creating Layer conv1/7x7_s2
I0403 17:50:28.891813 15192 net.cpp:425] conv1/7x7_s2 <- data
I0403 17:50:28.891832 15192 net.cpp:399] conv1/7x7_s2 -> conv1/7x7_s2
I0403 17:50:29.030123 15192 net.cpp:141] Setting up conv1/7x7_s2
I0403 17:50:29.030210 15192 net.cpp:148] Top shape: 24 64 112 112 (19267584)
I0403 17:50:29.030227 15192 net.cpp:156] Memory required for data: 91522080
I0403 17:50:29.030258 15192 layer_factory.hpp:77] Creating layer conv1/relu_7x7
I0403 17:50:29.030287 15192 net.cpp:91] Creating Layer conv1/relu_7x7
I0403 17:50:29.030305 15192 net.cpp:425] conv1/relu_7x7 <- conv1/7x7_s2
I0403 17:50:29.030324 15192 net.cpp:386] conv1/relu_7x7 -> conv1/7x7_s2 (in-place)
I0403 17:50:29.030586 15192 net.cpp:141] Setting up conv1/relu_7x7
I0403 17:50:29.030614 15192 net.cpp:148] Top shape: 24 64 112 112 (19267584)
I0403 17:50:29.030629 15192 net.cpp:156] Memory required for data: 168592416
I0403 17:50:29.030645 15192 layer_factory.hpp:77] Creating layer pool1/3x3_s2
I0403 17:50:29.030671 15192 net.cpp:91] Creating Layer pool1/3x3_s2
I0403 17:50:29.030689 15192 net.cpp:425] pool1/3x3_s2 <- conv1/7x7_s2
I0403 17:50:29.030709 15192 net.cpp:399] pool1/3x3_s2 -> pool1/3x3_s2
I0403 17:50:29.030783 15192 net.cpp:141] Setting up pool1/3x3_s2
I0403 17:50:29.030808 15192 net.cpp:148] Top shape: 24 64 56 56 (4816896)
I0403 17:50:29.030823 15192 net.cpp:156] Memory required for data: 187860000
I0403 17:50:29.030838 15192 layer_factory.hpp:77] Creating layer pool1/norm1
I0403 17:50:29.030894 15192 net.cpp:91] Creating Layer pool1/norm1
I0403 17:50:29.030916 15192 net.cpp:425] pool1/norm1 <- pool1/3x3_s2
I0403 17:50:29.030936 15192 net.cpp:399] pool1/norm1 -> pool1/norm1
I0403 17:50:29.031234 15192 net.cpp:141] Setting up pool1/norm1
I0403 17:50:29.031261 15192 net.cpp:148] Top shape: 24 64 56 56 (4816896)
I0403 17:50:29.031276 15192 net.cpp:156] Memory required for data: 207127584
I0403 17:50:29.031291 15192 layer_factory.hpp:77] Creating layer conv2/3x3_reduce
I0403 17:50:29.031316 15192 net.cpp:91] Creating Layer conv2/3x3_reduce
I0403 17:50:29.031332 15192 net.cpp:425] conv2/3x3_reduce <- pool1/norm1
I0403 17:50:29.031352 15192 net.cpp:399] conv2/3x3_reduce -> conv2/3x3_reduce
I0403 17:50:29.032835 15192 net.cpp:141] Setting up conv2/3x3_reduce
I0403 17:50:29.032865 15192 net.cpp:148] Top shape: 24 64 56 56 (4816896)
I0403 17:50:29.032881 15192 net.cpp:156] Memory required for data: 226395168
I0403 17:50:29.032902 15192 layer_factory.hpp:77] Creating layer conv2/relu_3x3_reduce
I0403 17:50:29.032922 15192 net.cpp:91] Creating Layer conv2/relu_3x3_reduce
I0403 17:50:29.032937 15192 net.cpp:425] conv2/relu_3x3_reduce <- conv2/3x3_reduce
I0403 17:50:29.032956 15192 net.cpp:386] conv2/relu_3x3_reduce -> conv2/3x3_reduce (in-place)
I0403 17:50:29.033241 15192 net.cpp:141] Setting up conv2/relu_3x3_reduce
I0403 17:50:29.033268 15192 net.cpp:148] Top shape: 24 64 56 56 (4816896)
I0403 17:50:29.033284 15192 net.cpp:156] Memory required for data: 245662752
I0403 17:50:29.033299 15192 layer_factory.hpp:77] Creating layer conv2/3x3
I0403 17:50:29.033323 15192 net.cpp:91] Creating Layer conv2/3x3
I0403 17:50:29.033340 15192 net.cpp:425] conv2/3x3 <- conv2/3x3_reduce
I0403 17:50:29.033361 15192 net.cpp:399] conv2/3x3 -> conv2/3x3
I0403 17:50:29.035732 15192 net.cpp:141] Setting up conv2/3x3
I0403 17:50:29.035763 15192 net.cpp:148] Top shape: 24 192 56 56 (14450688)
I0403 17:50:29.035779 15192 net.cpp:156] Memory required for data: 303465504
I0403 17:50:29.035801 15192 layer_factory.hpp:77] Creating layer conv2/relu_3x3
I0403 17:50:29.035823 15192 net.cpp:91] Creating Layer conv2/relu_3x3
I0403 17:50:29.035841 15192 net.cpp:425] conv2/relu_3x3 <- conv2/3x3
I0403 17:50:29.035858 15192 net.cpp:386] conv2/relu_3x3 -> conv2/3x3 (in-place)
I0403 17:50:29.036041 15192 net.cpp:141] Setting up conv2/relu_3x3
I0403 17:50:29.036068 15192 net.cpp:148] Top shape: 24 192 56 56 (14450688)
I0403 17:50:29.036114 15192 net.cpp:156] Memory required for data: 361268256
I0403 17:50:29.036131 15192 layer_factory.hpp:77] Creating layer conv2/norm2
I0403 17:50:29.036152 15192 net.cpp:91] Creating Layer conv2/norm2
I0403 17:50:29.036171 15192 net.cpp:425] conv2/norm2 <- conv2/3x3
I0403 17:50:29.036191 15192 net.cpp:399] conv2/norm2 -> conv2/norm2
I0403 17:50:29.036556 15192 net.cpp:141] Setting up conv2/norm2
I0403 17:50:29.036586 15192 net.cpp:148] Top shape: 24 192 56 56 (14450688)
I0403 17:50:29.036603 15192 net.cpp:156] Memory required for data: 419071008
I0403 17:50:29.036618 15192 layer_factory.hpp:77] Creating layer pool2/3x3_s2
I0403 17:50:29.036636 15192 net.cpp:91] Creating Layer pool2/3x3_s2
I0403 17:50:29.036653 15192 net.cpp:425] pool2/3x3_s2 <- conv2/norm2
I0403 17:50:29.036672 15192 net.cpp:399] pool2/3x3_s2 -> pool2/3x3_s2
I0403 17:50:29.036728 15192 net.cpp:141] Setting up pool2/3x3_s2
I0403 17:50:29.036751 15192 net.cpp:148] Top shape: 24 192 28 28 (3612672)
I0403 17:50:29.036766 15192 net.cpp:156] Memory required for data: 433521696
I0403 17:50:29.036780 15192 layer_factory.hpp:77] Creating layer pool2/3x3_s2_pool2/3x3_s2_0_split
I0403 17:50:29.036801 15192 net.cpp:91] Creating Layer pool2/3x3_s2_pool2/3x3_s2_0_split
I0403 17:50:29.036818 15192 net.cpp:425] pool2/3x3_s2_pool2/3x3_s2_0_split <- pool2/3x3_s2
I0403 17:50:29.036834 15192 net.cpp:399] pool2/3x3_s2_pool2/3x3_s2_0_split -> pool2/3x3_s2_pool2/3x3_s2_0_split_0
I0403 17:50:29.036854 15192 net.cpp:399] pool2/3x3_s2_pool2/3x3_s2_0_split -> pool2/3x3_s2_pool2/3x3_s2_0_split_1
I0403 17:50:29.036875 15192 net.cpp:399] pool2/3x3_s2_pool2/3x3_s2_0_split -> pool2/3x3_s2_pool2/3x3_s2_0_split_2
I0403 17:50:29.036896 15192 net.cpp:399] pool2/3x3_s2_pool2/3x3_s2_0_split -> pool2/3x3_s2_pool2/3x3_s2_0_split_3
I0403 17:50:29.036970 15192 net.cpp:141] Setting up pool2/3x3_s2_pool2/3x3_s2_0_split
I0403 17:50:29.036998 15192 net.cpp:148] Top shape: 24 192 28 28 (3612672)
I0403 17:50:29.037014 15192 net.cpp:148] Top shape: 24 192 28 28 (3612672)
I0403 17:50:29.037030 15192 net.cpp:148] Top shape: 24 192 28 28 (3612672)
I0403 17:50:29.037045 15192 net.cpp:148] Top shape: 24 192 28 28 (3612672)
I0403 17:50:29.037060 15192 net.cpp:156] Memory required for data: 491324448
I0403 17:50:29.037073 15192 layer_factory.hpp:77] Creating layer inception_3a/1x1
I0403 17:50:29.037096 15192 net.cpp:91] Creating Layer inception_3a/1x1
I0403 17:50:29.037116 15192 net.cpp:425] inception_3a/1x1 <- pool2/3x3_s2_pool2/3x3_s2_0_split_0
I0403 17:50:29.037137 15192 net.cpp:399] inception_3a/1x1 -> inception_3a/1x1
I0403 17:50:29.038756 15192 net.cpp:141] Setting up inception_3a/1x1
I0403 17:50:29.038786 15192 net.cpp:148] Top shape: 24 64 28 28 (1204224)
I0403 17:50:29.038803 15192 net.cpp:156] Memory required for data: 496141344
I0403 17:50:29.038822 15192 layer_factory.hpp:77] Creating layer inception_3a/relu_1x1
I0403 17:50:29.038841 15192 net.cpp:91] Creating Layer inception_3a/relu_1x1
I0403 17:50:29.038856 15192 net.cpp:425] inception_3a/relu_1x1 <- inception_3a/1x1
I0403 17:50:29.038877 15192 net.cpp:386] inception_3a/relu_1x1 -> inception_3a/1x1 (in-place)
I0403 17:50:29.039062 15192 net.cpp:141] Setting up inception_3a/relu_1x1
I0403 17:50:29.039088 15192 net.cpp:148] Top shape: 24 64 28 28 (1204224)
I0403 17:50:29.039103 15192 net.cpp:156] Memory required for data: 500958240
I0403 17:50:29.039118 15192 layer_factory.hpp:77] Creating layer inception_3a/3x3_reduce
I0403 17:50:29.039140 15192 net.cpp:91] Creating Layer inception_3a/3x3_reduce
I0403 17:50:29.039157 15192 net.cpp:425] inception_3a/3x3_reduce <- pool2/3x3_s2_pool2/3x3_s2_0_split_1
I0403 17:50:29.039178 15192 net.cpp:399] inception_3a/3x3_reduce -> inception_3a/3x3_reduce
I0403 17:50:29.040894 15192 net.cpp:141] Setting up inception_3a/3x3_reduce
I0403 17:50:29.040925 15192 net.cpp:148] Top shape: 24 96 28 28 (1806336)
I0403 17:50:29.040941 15192 net.cpp:156] Memory required for data: 508183584
I0403 17:50:29.040963 15192 layer_factory.hpp:77] Creating layer inception_3a/relu_3x3_reduce
I0403 17:50:29.041007 15192 net.cpp:91] Creating Layer inception_3a/relu_3x3_reduce
I0403 17:50:29.041025 15192 net.cpp:425] inception_3a/relu_3x3_reduce <- inception_3a/3x3_reduce
I0403 17:50:29.041043 15192 net.cpp:386] inception_3a/relu_3x3_reduce -> inception_3a/3x3_reduce (in-place)
I0403 17:50:29.041225 15192 net.cpp:141] Setting up inception_3a/relu_3x3_reduce
I0403 17:50:29.041254 15192 net.cpp:148] Top shape: 24 96 28 28 (1806336)
I0403 17:50:29.041270 15192 net.cpp:156] Memory required for data: 515408928
I0403 17:50:29.041285 15192 layer_factory.hpp:77] Creating layer inception_3a/3x3
I0403 17:50:29.041308 15192 net.cpp:91] Creating Layer inception_3a/3x3
I0403 17:50:29.041326 15192 net.cpp:425] inception_3a/3x3 <- inception_3a/3x3_reduce
I0403 17:50:29.041345 15192 net.cpp:399] inception_3a/3x3 -> inception_3a/3x3
I0403 17:50:29.043032 15192 net.cpp:141] Setting up inception_3a/3x3
I0403 17:50:29.043061 15192 net.cpp:148] Top shape: 24 128 28 28 (2408448)
I0403 17:50:29.043077 15192 net.cpp:156] Memory required for data: 525042720
I0403 17:50:29.043097 15192 layer_factory.hpp:77] Creating layer inception_3a/relu_3x3
I0403 17:50:29.043118 15192 net.cpp:91] Creating Layer inception_3a/relu_3x3
I0403 17:50:29.043136 15192 net.cpp:425] inception_3a/relu_3x3 <- inception_3a/3x3
I0403 17:50:29.043154 15192 net.cpp:386] inception_3a/relu_3x3 -> inception_3a/3x3 (in-place)
I0403 17:50:29.043432 15192 net.cpp:141] Setting up inception_3a/relu_3x3
I0403 17:50:29.043459 15192 net.cpp:148] Top shape: 24 128 28 28 (2408448)
I0403 17:50:29.043475 15192 net.cpp:156] Memory required for data: 534676512
I0403 17:50:29.043490 15192 layer_factory.hpp:77] Creating layer inception_3a/5x5_reduce
I0403 17:50:29.043514 15192 net.cpp:91] Creating Layer inception_3a/5x5_reduce
I0403 17:50:29.043530 15192 net.cpp:425] inception_3a/5x5_reduce <- pool2/3x3_s2_pool2/3x3_s2_0_split_2
I0403 17:50:29.043552 15192 net.cpp:399] inception_3a/5x5_reduce -> inception_3a/5x5_reduce
I0403 17:50:29.044528 15192 net.cpp:141] Setting up inception_3a/5x5_reduce
I0403 17:50:29.044556 15192 net.cpp:148] Top shape: 24 16 28 28 (301056)
I0403 17:50:29.044572 15192 net.cpp:156] Memory required for data: 535880736
I0403 17:50:29.044590 15192 layer_factory.hpp:77] Creating layer inception_3a/relu_5x5_reduce
I0403 17:50:29.044611 15192 net.cpp:91] Creating Layer inception_3a/relu_5x5_reduce
I0403 17:50:29.044628 15192 net.cpp:425] inception_3a/relu_5x5_reduce <- inception_3a/5x5_reduce
I0403 17:50:29.044646 15192 net.cpp:386] inception_3a/relu_5x5_reduce -> inception_3a/5x5_reduce (in-place)
I0403 17:50:29.044950 15192 net.cpp:141] Setting up inception_3a/relu_5x5_reduce
I0403 17:50:29.044976 15192 net.cpp:148] Top shape: 24 16 28 28 (301056)
I0403 17:50:29.044997 15192 net.cpp:156] Memory required for data: 537084960
I0403 17:50:29.045013 15192 layer_factory.hpp:77] Creating layer inception_3a/5x5
I0403 17:50:29.045038 15192 net.cpp:91] Creating Layer inception_3a/5x5
I0403 17:50:29.045056 15192 net.cpp:425] inception_3a/5x5 <- inception_3a/5x5_reduce
I0403 17:50:29.045075 15192 net.cpp:399] inception_3a/5x5 -> inception_3a/5x5
I0403 17:50:29.046116 15192 net.cpp:141] Setting up inception_3a/5x5
I0403 17:50:29.046145 15192 net.cpp:148] Top shape: 24 32 28 28 (602112)
I0403 17:50:29.046161 15192 net.cpp:156] Memory required for data: 539493408
I0403 17:50:29.046180 15192 layer_factory.hpp:77] Creating layer inception_3a/relu_5x5
I0403 17:50:29.046198 15192 net.cpp:91] Creating Layer inception_3a/relu_5x5
I0403 17:50:29.046214 15192 net.cpp:425] inception_3a/relu_5x5 <- inception_3a/5x5
I0403 17:50:29.046234 15192 net.cpp:386] inception_3a/relu_5x5 -> inception_3a/5x5 (in-place)
I0403 17:50:29.046409 15192 net.cpp:141] Setting up inception_3a/relu_5x5
I0403 17:50:29.046435 15192 net.cpp:148] Top shape: 24 32 28 28 (602112)
I0403 17:50:29.046452 15192 net.cpp:156] Memory required for data: 541901856
I0403 17:50:29.046466 15192 layer_factory.hpp:77] Creating layer inception_3a/pool
I0403 17:50:29.046488 15192 net.cpp:91] Creating Layer inception_3a/pool
I0403 17:50:29.046517 15192 net.cpp:425] inception_3a/pool <- pool2/3x3_s2_pool2/3x3_s2_0_split_3
I0403 17:50:29.046537 15192 net.cpp:399] inception_3a/pool -> inception_3a/pool
I0403 17:50:29.046597 15192 net.cpp:141] Setting up inception_3a/pool
I0403 17:50:29.046622 15192 net.cpp:148] Top shape: 24 192 28 28 (3612672)
I0403 17:50:29.046635 15192 net.cpp:156] Memory required for data: 556352544
I0403 17:50:29.046650 15192 layer_factory.hpp:77] Creating layer inception_3a/pool_proj
I0403 17:50:29.046672 15192 net.cpp:91] Creating Layer inception_3a/pool_proj
I0403 17:50:29.046690 15192 net.cpp:425] inception_3a/pool_proj <- inception_3a/pool
I0403 17:50:29.046712 15192 net.cpp:399] inception_3a/pool_proj -> inception_3a/pool_proj
I0403 17:50:29.047770 15192 net.cpp:141] Setting up inception_3a/pool_proj
I0403 17:50:29.047801 15192 net.cpp:148] Top shape: 24 32 28 28 (602112)
I0403 17:50:29.047816 15192 net.cpp:156] Memory required for data: 558760992
I0403 17:50:29.047838 15192 layer_factory.hpp:77] Creating layer inception_3a/relu_pool_proj
I0403 17:50:29.047860 15192 net.cpp:91] Creating Layer inception_3a/relu_pool_proj
I0403 17:50:29.047878 15192 net.cpp:425] inception_3a/relu_pool_proj <- inception_3a/pool_proj
I0403 17:50:29.047895 15192 net.cpp:386] inception_3a/relu_pool_proj -> inception_3a/pool_proj (in-place)
I0403 17:50:29.048190 15192 net.cpp:141] Setting up inception_3a/relu_pool_proj
I0403 17:50:29.048218 15192 net.cpp:148] Top shape: 24 32 28 28 (602112)
I0403 17:50:29.048233 15192 net.cpp:156] Memory required for data: 561169440
I0403 17:50:29.048249 15192 layer_factory.hpp:77] Creating layer inception_3a/output
I0403 17:50:29.048269 15192 net.cpp:91] Creating Layer inception_3a/output
I0403 17:50:29.048285 15192 net.cpp:425] inception_3a/output <- inception_3a/1x1
I0403 17:50:29.048300 15192 net.cpp:425] inception_3a/output <- inception_3a/3x3
I0403 17:50:29.048316 15192 net.cpp:425] inception_3a/output <- inception_3a/5x5
I0403 17:50:29.048332 15192 net.cpp:425] inception_3a/output <- inception_3a/pool_proj
I0403 17:50:29.048352 15192 net.cpp:399] inception_3a/output -> inception_3a/output
I0403 17:50:29.048399 15192 net.cpp:141] Setting up inception_3a/output
I0403 17:50:29.048426 15192 net.cpp:148] Top shape: 24 256 28 28 (4816896)
I0403 17:50:29.048441 15192 net.cpp:156] Memory required for data: 580437024
I0403 17:50:29.048455 15192 layer_factory.hpp:77] Creating layer inception_3a/output_inception_3a/output_0_split
I0403 17:50:29.048472 15192 net.cpp:91] Creating Layer inception_3a/output_inception_3a/output_0_split
I0403 17:50:29.048488 15192 net.cpp:425] inception_3a/output_inception_3a/output_0_split <- inception_3a/output
I0403 17:50:29.048508 15192 net.cpp:399] inception_3a/output_inception_3a/output_0_split -> inception_3a/output_inception_3a/output_0_split_0
I0403 17:50:29.048529 15192 net.cpp:399] inception_3a/output_inception_3a/output_0_split -> inception_3a/output_inception_3a/output_0_split_1
I0403 17:50:29.048552 15192 net.cpp:399] inception_3a/output_inception_3a/output_0_split -> inception_3a/output_inception_3a/output_0_split_2
I0403 17:50:29.048573 15192 net.cpp:399] inception_3a/output_inception_3a/output_0_split -> inception_3a/output_inception_3a/output_0_split_3
I0403 17:50:29.048651 15192 net.cpp:141] Setting up inception_3a/output_inception_3a/output_0_split
I0403 17:50:29.048677 15192 net.cpp:148] Top shape: 24 256 28 28 (4816896)
I0403 17:50:29.048696 15192 net.cpp:148] Top shape: 24 256 28 28 (4816896)
I0403 17:50:29.048712 15192 net.cpp:148] Top shape: 24 256 28 28 (4816896)
I0403 17:50:29.048727 15192 net.cpp:148] Top shape: 24 256 28 28 (4816896)
I0403 17:50:29.048743 15192 net.cpp:156] Memory required for data: 657507360
I0403 17:50:29.048758 15192 layer_factory.hpp:77] Creating layer inception_3b/1x1
I0403 17:50:29.048779 15192 net.cpp:91] Creating Layer inception_3b/1x1
I0403 17:50:29.048797 15192 net.cpp:425] inception_3b/1x1 <- inception_3a/output_inception_3a/output_0_split_0
I0403 17:50:29.048818 15192 net.cpp:399] inception_3b/1x1 -> inception_3b/1x1
I0403 17:50:29.050029 15192 net.cpp:141] Setting up inception_3b/1x1
I0403 17:50:29.050073 15192 net.cpp:148] Top shape: 24 128 28 28 (2408448)
I0403 17:50:29.050091 15192 net.cpp:156] Memory required for data: 667141152
I0403 17:50:29.050110 15192 layer_factory.hpp:77] Creating layer inception_3b/relu_1x1
I0403 17:50:29.050130 15192 net.cpp:91] Creating Layer inception_3b/relu_1x1
I0403 17:50:29.050148 15192 net.cpp:425] inception_3b/relu_1x1 <- inception_3b/1x1
I0403 17:50:29.050168 15192 net.cpp:386] inception_3b/relu_1x1 -> inception_3b/1x1 (in-place)
I0403 17:50:29.050350 15192 net.cpp:141] Setting up inception_3b/relu_1x1
I0403 17:50:29.050377 15192 net.cpp:148] Top shape: 24 128 28 28 (2408448)
I0403 17:50:29.050392 15192 net.cpp:156] Memory required for data: 676774944
I0403 17:50:29.050407 15192 layer_factory.hpp:77] Creating layer inception_3b/3x3_reduce
I0403 17:50:29.050431 15192 net.cpp:91] Creating Layer inception_3b/3x3_reduce
I0403 17:50:29.050449 15192 net.cpp:425] inception_3b/3x3_reduce <- inception_3a/output_inception_3a/output_0_split_1
I0403 17:50:29.050472 15192 net.cpp:399] inception_3b/3x3_reduce -> inception_3b/3x3_reduce
I0403 17:50:29.051666 15192 net.cpp:141] Setting up inception_3b/3x3_reduce
I0403 17:50:29.051694 15192 net.cpp:148] Top shape: 24 128 28 28 (2408448)
I0403 17:50:29.051710 15192 net.cpp:156] Memory required for data: 686408736
I0403 17:50:29.051729 15192 layer_factory.hpp:77] Creating layer inception_3b/relu_3x3_reduce
I0403 17:50:29.051748 15192 net.cpp:91] Creating Layer inception_3b/relu_3x3_reduce
I0403 17:50:29.051764 15192 net.cpp:425] inception_3b/relu_3x3_reduce <- inception_3b/3x3_reduce
I0403 17:50:29.051784 15192 net.cpp:386] inception_3b/relu_3x3_reduce -> inception_3b/3x3_reduce (in-place)
I0403 17:50:29.051967 15192 net.cpp:141] Setting up inception_3b/relu_3x3_reduce
I0403 17:50:29.051997 15192 net.cpp:148] Top shape: 24 128 28 28 (2408448)
I0403 17:50:29.052013 15192 net.cpp:156] Memory required for data: 696042528
I0403 17:50:29.052029 15192 layer_factory.hpp:77] Creating layer inception_3b/3x3
I0403 17:50:29.052057 15192 net.cpp:91] Creating Layer inception_3b/3x3
I0403 17:50:29.052075 15192 net.cpp:425] inception_3b/3x3 <- inception_3b/3x3_reduce
I0403 17:50:29.052096 15192 net.cpp:399] inception_3b/3x3 -> inception_3b/3x3
I0403 17:50:29.055146 15192 net.cpp:141] Setting up inception_3b/3x3
I0403 17:50:29.055176 15192 net.cpp:148] Top shape: 24 192 28 28 (3612672)
I0403 17:50:29.055192 15192 net.cpp:156] Memory required for data: 710493216
I0403 17:50:29.055212 15192 layer_factory.hpp:77] Creating layer inception_3b/relu_3x3
I0403 17:50:29.055233 15192 net.cpp:91] Creating Layer inception_3b/relu_3x3
I0403 17:50:29.055250 15192 net.cpp:425] inception_3b/relu_3x3 <- inception_3b/3x3
I0403 17:50:29.055269 15192 net.cpp:386] inception_3b/relu_3x3 -> inception_3b/3x3 (in-place)
I0403 17:50:29.055553 15192 net.cpp:141] Setting up inception_3b/relu_3x3
I0403 17:50:29.055582 15192 net.cpp:148] Top shape: 24 192 28 28 (3612672)
I0403 17:50:29.055598 15192 net.cpp:156] Memory required for data: 724943904
I0403 17:50:29.055613 15192 layer_factory.hpp:77] Creating layer inception_3b/5x5_reduce
I0403 17:50:29.055637 15192 net.cpp:91] Creating Layer inception_3b/5x5_reduce
I0403 17:50:29.055655 15192 net.cpp:425] inception_3b/5x5_reduce <- inception_3a/output_inception_3a/output_0_split_2
I0403 17:50:29.055677 15192 net.cpp:399] inception_3b/5x5_reduce -> inception_3b/5x5_reduce
I0403 17:50:29.056712 15192 net.cpp:141] Setting up inception_3b/5x5_reduce
I0403 17:50:29.056742 15192 net.cpp:148] Top shape: 24 32 28 28 (602112)
I0403 17:50:29.056759 15192 net.cpp:156] Memory required for data: 727352352
I0403 17:50:29.056778 15192 layer_factory.hpp:77] Creating layer inception_3b/relu_5x5_reduce
I0403 17:50:29.056797 15192 net.cpp:91] Creating Layer inception_3b/relu_5x5_reduce
I0403 17:50:29.056814 15192 net.cpp:425] inception_3b/relu_5x5_reduce <- inception_3b/5x5_reduce
I0403 17:50:29.056834 15192 net.cpp:386] inception_3b/relu_5x5_reduce -> inception_3b/5x5_reduce (in-place)
I0403 17:50:29.057040 15192 net.cpp:141] Setting up inception_3b/relu_5x5_reduce
I0403 17:50:29.057067 15192 net.cpp:148] Top shape: 24 32 28 28 (602112)
I0403 17:50:29.057083 15192 net.cpp:156] Memory required for data: 729760800
I0403 17:50:29.057098 15192 layer_factory.hpp:77] Creating layer inception_3b/5x5
I0403 17:50:29.057122 15192 net.cpp:91] Creating Layer inception_3b/5x5
I0403 17:50:29.057142 15192 net.cpp:425] inception_3b/5x5 <- inception_3b/5x5_reduce
I0403 17:50:29.057163 15192 net.cpp:399] inception_3b/5x5 -> inception_3b/5x5
I0403 17:50:29.059227 15192 net.cpp:141] Setting up inception_3b/5x5
I0403 17:50:29.059259 15192 net.cpp:148] Top shape: 24 96 28 28 (1806336)
I0403 17:50:29.059276 15192 net.cpp:156] Memory required for data: 736986144
I0403 17:50:29.059296 15192 layer_factory.hpp:77] Creating layer inception_3b/relu_5x5
I0403 17:50:29.059315 15192 net.cpp:91] Creating Layer inception_3b/relu_5x5
I0403 17:50:29.059331 15192 net.cpp:425] inception_3b/relu_5x5 <- inception_3b/5x5
I0403 17:50:29.059352 15192 net.cpp:386] inception_3b/relu_5x5 -> inception_3b/5x5 (in-place)
I0403 17:50:29.059556 15192 net.cpp:141] Setting up inception_3b/relu_5x5
I0403 17:50:29.059582 15192 net.cpp:148] Top shape: 24 96 28 28 (1806336)
I0403 17:50:29.059597 15192 net.cpp:156] Memory required for data: 744211488
I0403 17:50:29.059612 15192 layer_factory.hpp:77] Creating layer inception_3b/pool
I0403 17:50:29.059631 15192 net.cpp:91] Creating Layer inception_3b/pool
I0403 17:50:29.059648 15192 net.cpp:425] inception_3b/pool <- inception_3a/output_inception_3a/output_0_split_3
I0403 17:50:29.059667 15192 net.cpp:399] inception_3b/pool -> inception_3b/pool
I0403 17:50:29.059728 15192 net.cpp:141] Setting up inception_3b/pool
I0403 17:50:29.059753 15192 net.cpp:148] Top shape: 24 256 28 28 (4816896)
I0403 17:50:29.059769 15192 net.cpp:156] Memory required for data: 763479072
I0403 17:50:29.059784 15192 layer_factory.hpp:77] Creating layer inception_3b/pool_proj
I0403 17:50:29.059808 15192 net.cpp:91] Creating Layer inception_3b/pool_proj
I0403 17:50:29.059826 15192 net.cpp:425] inception_3b/pool_proj <- inception_3b/pool
I0403 17:50:29.059847 15192 net.cpp:399] inception_3b/pool_proj -> inception_3b/pool_proj
I0403 17:50:29.060961 15192 net.cpp:141] Setting up inception_3b/pool_proj
I0403 17:50:29.060993 15192 net.cpp:148] Top shape: 24 64 28 28 (1204224)
I0403 17:50:29.061010 15192 net.cpp:156] Memory required for data: 768295968
I0403 17:50:29.061030 15192 layer_factory.hpp:77] Creating layer inception_3b/relu_pool_proj
I0403 17:50:29.061053 15192 net.cpp:91] Creating Layer inception_3b/relu_pool_proj
I0403 17:50:29.061069 15192 net.cpp:425] inception_3b/relu_pool_proj <- inception_3b/pool_proj
I0403 17:50:29.061087 15192 net.cpp:386] inception_3b/relu_pool_proj -> inception_3b/pool_proj (in-place)
I0403 17:50:29.061511 15192 net.cpp:141] Setting up inception_3b/relu_pool_proj
I0403 17:50:29.061538 15192 net.cpp:148] Top shape: 24 64 28 28 (1204224)
I0403 17:50:29.061554 15192 net.cpp:156] Memory required for data: 773112864
I0403 17:50:29.061570 15192 layer_factory.hpp:77] Creating layer inception_3b/output
I0403 17:50:29.061590 15192 net.cpp:91] Creating Layer inception_3b/output
I0403 17:50:29.061609 15192 net.cpp:425] inception_3b/output <- inception_3b/1x1
I0403 17:50:29.061626 15192 net.cpp:425] inception_3b/output <- inception_3b/3x3
I0403 17:50:29.061642 15192 net.cpp:425] inception_3b/output <- inception_3b/5x5
I0403 17:50:29.061660 15192 net.cpp:425] inception_3b/output <- inception_3b/pool_proj
I0403 17:50:29.061677 15192 net.cpp:399] inception_3b/output -> inception_3b/output
I0403 17:50:29.061725 15192 net.cpp:141] Setting up inception_3b/output
I0403 17:50:29.061749 15192 net.cpp:148] Top shape: 24 480 28 28 (9031680)
I0403 17:50:29.061765 15192 net.cpp:156] Memory required for data: 809239584
I0403 17:50:29.061780 15192 layer_factory.hpp:77] Creating layer pool3/3x3_s2
I0403 17:50:29.061799 15192 net.cpp:91] Creating Layer pool3/3x3_s2
I0403 17:50:29.061815 15192 net.cpp:425] pool3/3x3_s2 <- inception_3b/output
I0403 17:50:29.061852 15192 net.cpp:399] pool3/3x3_s2 -> pool3/3x3_s2
I0403 17:50:29.061915 15192 net.cpp:141] Setting up pool3/3x3_s2
I0403 17:50:29.061940 15192 net.cpp:148] Top shape: 24 480 14 14 (2257920)
I0403 17:50:29.061956 15192 net.cpp:156] Memory required for data: 818271264
I0403 17:50:29.061971 15192 layer_factory.hpp:77] Creating layer pool3/3x3_s2_pool3/3x3_s2_0_split
I0403 17:50:29.061996 15192 net.cpp:91] Creating Layer pool3/3x3_s2_pool3/3x3_s2_0_split
I0403 17:50:29.062014 15192 net.cpp:425] pool3/3x3_s2_pool3/3x3_s2_0_split <- pool3/3x3_s2
I0403 17:50:29.062036 15192 net.cpp:399] pool3/3x3_s2_pool3/3x3_s2_0_split -> pool3/3x3_s2_pool3/3x3_s2_0_split_0
I0403 17:50:29.062057 15192 net.cpp:399] pool3/3x3_s2_pool3/3x3_s2_0_split -> pool3/3x3_s2_pool3/3x3_s2_0_split_1
I0403 17:50:29.062078 15192 net.cpp:399] pool3/3x3_s2_pool3/3x3_s2_0_split -> pool3/3x3_s2_pool3/3x3_s2_0_split_2
I0403 17:50:29.062099 15192 net.cpp:399] pool3/3x3_s2_pool3/3x3_s2_0_split -> pool3/3x3_s2_pool3/3x3_s2_0_split_3
I0403 17:50:29.062178 15192 net.cpp:141] Setting up pool3/3x3_s2_pool3/3x3_s2_0_split
I0403 17:50:29.062202 15192 net.cpp:148] Top shape: 24 480 14 14 (2257920)
I0403 17:50:29.062219 15192 net.cpp:148] Top shape: 24 480 14 14 (2257920)
I0403 17:50:29.062237 15192 net.cpp:148] Top shape: 24 480 14 14 (2257920)
I0403 17:50:29.062252 15192 net.cpp:148] Top shape: 24 480 14 14 (2257920)
I0403 17:50:29.062266 15192 net.cpp:156] Memory required for data: 854397984
I0403 17:50:29.062281 15192 layer_factory.hpp:77] Creating layer inception_4a/1x1
I0403 17:50:29.062305 15192 net.cpp:91] Creating Layer inception_4a/1x1
I0403 17:50:29.062325 15192 net.cpp:425] inception_4a/1x1 <- pool3/3x3_s2_pool3/3x3_s2_0_split_0
I0403 17:50:29.062346 15192 net.cpp:399] inception_4a/1x1 -> inception_4a/1x1
I0403 17:50:29.064009 15192 net.cpp:141] Setting up inception_4a/1x1
I0403 17:50:29.064043 15192 net.cpp:148] Top shape: 24 192 14 14 (903168)
I0403 17:50:29.064059 15192 net.cpp:156] Memory required for data: 858010656
I0403 17:50:29.064079 15192 layer_factory.hpp:77] Creating layer inception_4a/relu_1x1
I0403 17:50:29.064097 15192 net.cpp:91] Creating Layer inception_4a/relu_1x1
I0403 17:50:29.064115 15192 net.cpp:425] inception_4a/relu_1x1 <- inception_4a/1x1
I0403 17:50:29.064132 15192 net.cpp:386] inception_4a/relu_1x1 -> inception_4a/1x1 (in-place)
I0403 17:50:29.064321 15192 net.cpp:141] Setting up inception_4a/relu_1x1
I0403 17:50:29.064348 15192 net.cpp:148] Top shape: 24 192 14 14 (903168)
I0403 17:50:29.064364 15192 net.cpp:156] Memory required for data: 861623328
I0403 17:50:29.064379 15192 layer_factory.hpp:77] Creating layer inception_4a/3x3_reduce
I0403 17:50:29.064404 15192 net.cpp:91] Creating Layer inception_4a/3x3_reduce
I0403 17:50:29.064422 15192 net.cpp:425] inception_4a/3x3_reduce <- pool3/3x3_s2_pool3/3x3_s2_0_split_1
I0403 17:50:29.064445 15192 net.cpp:399] inception_4a/3x3_reduce -> inception_4a/3x3_reduce
I0403 17:50:29.065781 15192 net.cpp:141] Setting up inception_4a/3x3_reduce
I0403 17:50:29.065810 15192 net.cpp:148] Top shape: 24 96 14 14 (451584)
I0403 17:50:29.065827 15192 net.cpp:156] Memory required for data: 863429664
I0403 17:50:29.065855 15192 layer_factory.hpp:77] Creating layer inception_4a/relu_3x3_reduce
I0403 17:50:29.065876 15192 net.cpp:91] Creating Layer inception_4a/relu_3x3_reduce
I0403 17:50:29.065892 15192 net.cpp:425] inception_4a/relu_3x3_reduce <- inception_4a/3x3_reduce
I0403 17:50:29.065910 15192 net.cpp:386] inception_4a/relu_3x3_reduce -> inception_4a/3x3_reduce (in-place)
I0403 17:50:29.066102 15192 net.cpp:141] Setting up inception_4a/relu_3x3_reduce
I0403 17:50:29.066131 15192 net.cpp:148] Top shape: 24 96 14 14 (451584)
I0403 17:50:29.066148 15192 net.cpp:156] Memory required for data: 865236000
I0403 17:50:29.066164 15192 layer_factory.hpp:77] Creating layer inception_4a/3x3
I0403 17:50:29.066187 15192 net.cpp:91] Creating Layer inception_4a/3x3
I0403 17:50:29.066206 15192 net.cpp:425] inception_4a/3x3 <- inception_4a/3x3_reduce
I0403 17:50:29.066226 15192 net.cpp:399] inception_4a/3x3 -> inception_4a/3x3
I0403 17:50:29.071054 15192 net.cpp:141] Setting up inception_4a/3x3
I0403 17:50:29.071084 15192 net.cpp:148] Top shape: 24 208 14 14 (978432)
I0403 17:50:29.071099 15192 net.cpp:156] Memory required for data: 869149728
I0403 17:50:29.071118 15192 layer_factory.hpp:77] Creating layer inception_4a/relu_3x3
I0403 17:50:29.071136 15192 net.cpp:91] Creating Layer inception_4a/relu_3x3
I0403 17:50:29.071152 15192 net.cpp:425] inception_4a/relu_3x3 <- inception_4a/3x3
I0403 17:50:29.071172 15192 net.cpp:386] inception_4a/relu_3x3 -> inception_4a/3x3 (in-place)
I0403 17:50:29.071458 15192 net.cpp:141] Setting up inception_4a/relu_3x3
I0403 17:50:29.071486 15192 net.cpp:148] Top shape: 24 208 14 14 (978432)
I0403 17:50:29.071501 15192 net.cpp:156] Memory required for data: 873063456
I0403 17:50:29.071516 15192 layer_factory.hpp:77] Creating layer inception_4a/5x5_reduce
I0403 17:50:29.071539 15192 net.cpp:91] Creating Layer inception_4a/5x5_reduce
I0403 17:50:29.071557 15192 net.cpp:425] inception_4a/5x5_reduce <- pool3/3x3_s2_pool3/3x3_s2_0_split_2
I0403 17:50:29.071579 15192 net.cpp:399] inception_4a/5x5_reduce -> inception_4a/5x5_reduce
I0403 17:50:29.072626 15192 net.cpp:141] Setting up inception_4a/5x5_reduce
I0403 17:50:29.072655 15192 net.cpp:148] Top shape: 24 16 14 14 (75264)
I0403 17:50:29.072670 15192 net.cpp:156] Memory required for data: 873364512
I0403 17:50:29.072690 15192 layer_factory.hpp:77] Creating layer inception_4a/relu_5x5_reduce
I0403 17:50:29.072707 15192 net.cpp:91] Creating Layer inception_4a/relu_5x5_reduce
I0403 17:50:29.072723 15192 net.cpp:425] inception_4a/relu_5x5_reduce <- inception_4a/5x5_reduce
I0403 17:50:29.072742 15192 net.cpp:386] inception_4a/relu_5x5_reduce -> inception_4a/5x5_reduce (in-place)
I0403 17:50:29.072926 15192 net.cpp:141] Setting up inception_4a/relu_5x5_reduce
I0403 17:50:29.072952 15192 net.cpp:148] Top shape: 24 16 14 14 (75264)
I0403 17:50:29.072967 15192 net.cpp:156] Memory required for data: 873665568
I0403 17:50:29.072985 15192 layer_factory.hpp:77] Creating layer inception_4a/5x5
I0403 17:50:29.073009 15192 net.cpp:91] Creating Layer inception_4a/5x5
I0403 17:50:29.073027 15192 net.cpp:425] inception_4a/5x5 <- inception_4a/5x5_reduce
I0403 17:50:29.073050 15192 net.cpp:399] inception_4a/5x5 -> inception_4a/5x5
I0403 17:50:29.074157 15192 net.cpp:141] Setting up inception_4a/5x5
I0403 17:50:29.074185 15192 net.cpp:148] Top shape: 24 48 14 14 (225792)
I0403 17:50:29.074201 15192 net.cpp:156] Memory required for data: 874568736
I0403 17:50:29.074220 15192 layer_factory.hpp:77] Creating layer inception_4a/relu_5x5
I0403 17:50:29.074244 15192 net.cpp:91] Creating Layer inception_4a/relu_5x5
I0403 17:50:29.074261 15192 net.cpp:425] inception_4a/relu_5x5 <- inception_4a/5x5
I0403 17:50:29.074278 15192 net.cpp:386] inception_4a/relu_5x5 -> inception_4a/5x5 (in-place)
I0403 17:50:29.074462 15192 net.cpp:141] Setting up inception_4a/relu_5x5
I0403 17:50:29.074491 15192 net.cpp:148] Top shape: 24 48 14 14 (225792)
I0403 17:50:29.074507 15192 net.cpp:156] Memory required for data: 875471904
I0403 17:50:29.074523 15192 layer_factory.hpp:77] Creating layer inception_4a/pool
I0403 17:50:29.074542 15192 net.cpp:91] Creating Layer inception_4a/pool
I0403 17:50:29.074558 15192 net.cpp:425] inception_4a/pool <- pool3/3x3_s2_pool3/3x3_s2_0_split_3
I0403 17:50:29.074579 15192 net.cpp:399] inception_4a/pool -> inception_4a/pool
I0403 17:50:29.074640 15192 net.cpp:141] Setting up inception_4a/pool
I0403 17:50:29.074664 15192 net.cpp:148] Top shape: 24 480 14 14 (2257920)
I0403 17:50:29.074679 15192 net.cpp:156] Memory required for data: 884503584
I0403 17:50:29.074694 15192 layer_factory.hpp:77] Creating layer inception_4a/pool_proj
I0403 17:50:29.074717 15192 net.cpp:91] Creating Layer inception_4a/pool_proj
I0403 17:50:29.074734 15192 net.cpp:425] inception_4a/pool_proj <- inception_4a/pool
I0403 17:50:29.074755 15192 net.cpp:399] inception_4a/pool_proj -> inception_4a/pool_proj
I0403 17:50:29.075954 15192 net.cpp:141] Setting up inception_4a/pool_proj
I0403 17:50:29.075986 15192 net.cpp:148] Top shape: 24 64 14 14 (301056)
I0403 17:50:29.076019 15192 net.cpp:156] Memory required for data: 885707808
I0403 17:50:29.076038 15192 layer_factory.hpp:77] Creating layer inception_4a/relu_pool_proj
I0403 17:50:29.076061 15192 net.cpp:91] Creating Layer inception_4a/relu_pool_proj
I0403 17:50:29.076079 15192 net.cpp:425] inception_4a/relu_pool_proj <- inception_4a/pool_proj
I0403 17:50:29.076097 15192 net.cpp:386] inception_4a/relu_pool_proj -> inception_4a/pool_proj (in-place)
I0403 17:50:29.076390 15192 net.cpp:141] Setting up inception_4a/relu_pool_proj
I0403 17:50:29.076417 15192 net.cpp:148] Top shape: 24 64 14 14 (301056)
I0403 17:50:29.076432 15192 net.cpp:156] Memory required for data: 886912032
I0403 17:50:29.076448 15192 layer_factory.hpp:77] Creating layer inception_4a/output
I0403 17:50:29.076468 15192 net.cpp:91] Creating Layer inception_4a/output
I0403 17:50:29.076485 15192 net.cpp:425] inception_4a/output <- inception_4a/1x1
I0403 17:50:29.076503 15192 net.cpp:425] inception_4a/output <- inception_4a/3x3
I0403 17:50:29.076519 15192 net.cpp:425] inception_4a/output <- inception_4a/5x5
I0403 17:50:29.076534 15192 net.cpp:425] inception_4a/output <- inception_4a/pool_proj
I0403 17:50:29.076551 15192 net.cpp:399] inception_4a/output -> inception_4a/output
I0403 17:50:29.076598 15192 net.cpp:141] Setting up inception_4a/output
I0403 17:50:29.076622 15192 net.cpp:148] Top shape: 24 512 14 14 (2408448)
I0403 17:50:29.076637 15192 net.cpp:156] Memory required for data: 896545824
I0403 17:50:29.076653 15192 layer_factory.hpp:77] Creating layer inception_4a/output_inception_4a/output_0_split
I0403 17:50:29.076670 15192 net.cpp:91] Creating Layer inception_4a/output_inception_4a/output_0_split
I0403 17:50:29.076686 15192 net.cpp:425] inception_4a/output_inception_4a/output_0_split <- inception_4a/output
I0403 17:50:29.076706 15192 net.cpp:399] inception_4a/output_inception_4a/output_0_split -> inception_4a/output_inception_4a/output_0_split_0
I0403 17:50:29.076728 15192 net.cpp:399] inception_4a/output_inception_4a/output_0_split -> inception_4a/output_inception_4a/output_0_split_1
I0403 17:50:29.076750 15192 net.cpp:399] inception_4a/output_inception_4a/output_0_split -> inception_4a/output_inception_4a/output_0_split_2
I0403 17:50:29.076772 15192 net.cpp:399] inception_4a/output_inception_4a/output_0_split -> inception_4a/output_inception_4a/output_0_split_3
I0403 17:50:29.076793 15192 net.cpp:399] inception_4a/output_inception_4a/output_0_split -> inception_4a/output_inception_4a/output_0_split_4
I0403 17:50:29.076889 15192 net.cpp:141] Setting up inception_4a/output_inception_4a/output_0_split
I0403 17:50:29.076913 15192 net.cpp:148] Top shape: 24 512 14 14 (2408448)
I0403 17:50:29.076931 15192 net.cpp:148] Top shape: 24 512 14 14 (2408448)
I0403 17:50:29.076947 15192 net.cpp:148] Top shape: 24 512 14 14 (2408448)
I0403 17:50:29.076962 15192 net.cpp:148] Top shape: 24 512 14 14 (2408448)
I0403 17:50:29.076982 15192 net.cpp:148] Top shape: 24 512 14 14 (2408448)
I0403 17:50:29.076997 15192 net.cpp:156] Memory required for data: 944714784
I0403 17:50:29.077013 15192 layer_factory.hpp:77] Creating layer loss1/ave_pool
I0403 17:50:29.077030 15192 net.cpp:91] Creating Layer loss1/ave_pool
I0403 17:50:29.077046 15192 net.cpp:425] loss1/ave_pool <- inception_4a/output_inception_4a/output_0_split_0
I0403 17:50:29.077067 15192 net.cpp:399] loss1/ave_pool -> loss1/ave_pool
I0403 17:50:29.077276 15192 net.cpp:141] Setting up loss1/ave_pool
I0403 17:50:29.077303 15192 net.cpp:148] Top shape: 24 512 4 4 (196608)
I0403 17:50:29.077318 15192 net.cpp:156] Memory required for data: 945501216
I0403 17:50:29.077334 15192 layer_factory.hpp:77] Creating layer loss1/conv
I0403 17:50:29.077358 15192 net.cpp:91] Creating Layer loss1/conv
I0403 17:50:29.077375 15192 net.cpp:425] loss1/conv <- loss1/ave_pool
I0403 17:50:29.077394 15192 net.cpp:399] loss1/conv -> loss1/conv
I0403 17:50:29.078835 15192 net.cpp:141] Setting up loss1/conv
I0403 17:50:29.078865 15192 net.cpp:148] Top shape: 24 128 4 4 (49152)
I0403 17:50:29.078896 15192 net.cpp:156] Memory required for data: 945697824
I0403 17:50:29.078915 15192 layer_factory.hpp:77] Creating layer loss1/relu_conv
I0403 17:50:29.078934 15192 net.cpp:91] Creating Layer loss1/relu_conv
I0403 17:50:29.078949 15192 net.cpp:425] loss1/relu_conv <- loss1/conv
I0403 17:50:29.078969 15192 net.cpp:386] loss1/relu_conv -> loss1/conv (in-place)
I0403 17:50:29.079284 15192 net.cpp:141] Setting up loss1/relu_conv
I0403 17:50:29.079313 15192 net.cpp:148] Top shape: 24 128 4 4 (49152)
I0403 17:50:29.079329 15192 net.cpp:156] Memory required for data: 945894432
I0403 17:50:29.079344 15192 layer_factory.hpp:77] Creating layer loss1/fc
I0403 17:50:29.079370 15192 net.cpp:91] Creating Layer loss1/fc
I0403 17:50:29.079388 15192 net.cpp:425] loss1/fc <- loss1/conv
I0403 17:50:29.079409 15192 net.cpp:399] loss1/fc -> loss1/fc
I0403 17:50:29.097398 15192 net.cpp:141] Setting up loss1/fc
I0403 17:50:29.097457 15192 net.cpp:148] Top shape: 24 1024 (24576)
I0403 17:50:29.097475 15192 net.cpp:156] Memory required for data: 945992736
I0403 17:50:29.097493 15192 layer_factory.hpp:77] Creating layer loss1/relu_fc
I0403 17:50:29.097512 15192 net.cpp:91] Creating Layer loss1/relu_fc
I0403 17:50:29.097527 15192 net.cpp:425] loss1/relu_fc <- loss1/fc
I0403 17:50:29.097545 15192 net.cpp:386] loss1/relu_fc -> loss1/fc (in-place)
I0403 17:50:29.097750 15192 net.cpp:141] Setting up loss1/relu_fc
I0403 17:50:29.097775 15192 net.cpp:148] Top shape: 24 1024 (24576)
I0403 17:50:29.097790 15192 net.cpp:156] Memory required for data: 946091040
I0403 17:50:29.097805 15192 layer_factory.hpp:77] Creating layer loss1/drop_fc
I0403 17:50:29.097829 15192 net.cpp:91] Creating Layer loss1/drop_fc
I0403 17:50:29.097846 15192 net.cpp:425] loss1/drop_fc <- loss1/fc
I0403 17:50:29.097867 15192 net.cpp:386] loss1/drop_fc -> loss1/fc (in-place)
I0403 17:50:29.097918 15192 net.cpp:141] Setting up loss1/drop_fc
I0403 17:50:29.097940 15192 net.cpp:148] Top shape: 24 1024 (24576)
I0403 17:50:29.097954 15192 net.cpp:156] Memory required for data: 946189344
I0403 17:50:29.097970 15192 layer_factory.hpp:77] Creating layer loss1/classifier_plantvillage
I0403 17:50:29.098001 15192 net.cpp:91] Creating Layer loss1/classifier_plantvillage
I0403 17:50:29.098019 15192 net.cpp:425] loss1/classifier_plantvillage <- loss1/fc
I0403 17:50:29.098038 15192 net.cpp:399] loss1/classifier_plantvillage -> loss1/classifier_plantvillage
I0403 17:50:29.098945 15192 net.cpp:141] Setting up loss1/classifier_plantvillage
I0403 17:50:29.098976 15192 net.cpp:148] Top shape: 24 38 (912)
I0403 17:50:29.098997 15192 net.cpp:156] Memory required for data: 946192992
I0403 17:50:29.099016 15192 layer_factory.hpp:77] Creating layer loss1/classifier_plantvillage_loss1/classifier_plantvillage_0_split
I0403 17:50:29.099035 15192 net.cpp:91] Creating Layer loss1/classifier_plantvillage_loss1/classifier_plantvillage_0_split
I0403 17:50:29.099051 15192 net.cpp:425] loss1/classifier_plantvillage_loss1/classifier_plantvillage_0_split <- loss1/classifier_plantvillage
I0403 17:50:29.099069 15192 net.cpp:399] loss1/classifier_plantvillage_loss1/classifier_plantvillage_0_split -> loss1/classifier_plantvillage_loss1/classifier_plantvillage_0_split_0
I0403 17:50:29.099092 15192 net.cpp:399] loss1/classifier_plantvillage_loss1/classifier_plantvillage_0_split -> loss1/classifier_plantvillage_loss1/classifier_plantvillage_0_split_1
I0403 17:50:29.099115 15192 net.cpp:399] loss1/classifier_plantvillage_loss1/classifier_plantvillage_0_split -> loss1/classifier_plantvillage_loss1/classifier_plantvillage_0_split_2
I0403 17:50:29.099184 15192 net.cpp:141] Setting up loss1/classifier_plantvillage_loss1/classifier_plantvillage_0_split
I0403 17:50:29.099218 15192 net.cpp:148] Top shape: 24 38 (912)
I0403 17:50:29.099234 15192 net.cpp:148] Top shape: 24 38 (912)
I0403 17:50:29.099249 15192 net.cpp:148] Top shape: 24 38 (912)
I0403 17:50:29.099262 15192 net.cpp:156] Memory required for data: 946203936
I0403 17:50:29.099277 15192 layer_factory.hpp:77] Creating layer inception_4b/1x1
I0403 17:50:29.099297 15192 net.cpp:91] Creating Layer inception_4b/1x1
I0403 17:50:29.099328 15192 net.cpp:425] inception_4b/1x1 <- inception_4a/output_inception_4a/output_0_split_1
I0403 17:50:29.099351 15192 net.cpp:399] inception_4b/1x1 -> inception_4b/1x1
I0403 17:50:29.100992 15192 net.cpp:141] Setting up inception_4b/1x1
I0403 17:50:29.101022 15192 net.cpp:148] Top shape: 24 160 14 14 (752640)
I0403 17:50:29.101037 15192 net.cpp:156] Memory required for data: 949214496
I0403 17:50:29.101055 15192 layer_factory.hpp:77] Creating layer inception_4b/relu_1x1
I0403 17:50:29.101073 15192 net.cpp:91] Creating Layer inception_4b/relu_1x1
I0403 17:50:29.101089 15192 net.cpp:425] inception_4b/relu_1x1 <- inception_4b/1x1
I0403 17:50:29.101107 15192 net.cpp:386] inception_4b/relu_1x1 -> inception_4b/1x1 (in-place)
I0403 17:50:29.101289 15192 net.cpp:141] Setting up inception_4b/relu_1x1
I0403 17:50:29.101313 15192 net.cpp:148] Top shape: 24 160 14 14 (752640)
I0403 17:50:29.101328 15192 net.cpp:156] Memory required for data: 952225056
I0403 17:50:29.101342 15192 layer_factory.hpp:77] Creating layer inception_4b/3x3_reduce
I0403 17:50:29.101364 15192 net.cpp:91] Creating Layer inception_4b/3x3_reduce
I0403 17:50:29.101382 15192 net.cpp:425] inception_4b/3x3_reduce <- inception_4a/output_inception_4a/output_0_split_2
I0403 17:50:29.101405 15192 net.cpp:399] inception_4b/3x3_reduce -> inception_4b/3x3_reduce
I0403 17:50:29.102792 15192 net.cpp:141] Setting up inception_4b/3x3_reduce
I0403 17:50:29.102820 15192 net.cpp:148] Top shape: 24 112 14 14 (526848)
I0403 17:50:29.102836 15192 net.cpp:156] Memory required for data: 954332448
I0403 17:50:29.102854 15192 layer_factory.hpp:77] Creating layer inception_4b/relu_3x3_reduce
I0403 17:50:29.102875 15192 net.cpp:91] Creating Layer inception_4b/relu_3x3_reduce
I0403 17:50:29.102906 15192 net.cpp:425] inception_4b/relu_3x3_reduce <- inception_4b/3x3_reduce
I0403 17:50:29.102926 15192 net.cpp:386] inception_4b/relu_3x3_reduce -> inception_4b/3x3_reduce (in-place)
I0403 17:50:29.103241 15192 net.cpp:141] Setting up inception_4b/relu_3x3_reduce
I0403 17:50:29.103269 15192 net.cpp:148] Top shape: 24 112 14 14 (526848)
I0403 17:50:29.103284 15192 net.cpp:156] Memory required for data: 956439840
I0403 17:50:29.103301 15192 layer_factory.hpp:77] Creating layer inception_4b/3x3
I0403 17:50:29.103323 15192 net.cpp:91] Creating Layer inception_4b/3x3
I0403 17:50:29.103341 15192 net.cpp:425] inception_4b/3x3 <- inception_4b/3x3_reduce
I0403 17:50:29.103363 15192 net.cpp:399] inception_4b/3x3 -> inception_4b/3x3
I0403 17:50:29.106422 15192 net.cpp:141] Setting up inception_4b/3x3
I0403 17:50:29.106454 15192 net.cpp:148] Top shape: 24 224 14 14 (1053696)
I0403 17:50:29.106472 15192 net.cpp:156] Memory required for data: 960654624
I0403 17:50:29.106490 15192 layer_factory.hpp:77] Creating layer inception_4b/relu_3x3
I0403 17:50:29.106508 15192 net.cpp:91] Creating Layer inception_4b/relu_3x3
I0403 17:50:29.106525 15192 net.cpp:425] inception_4b/relu_3x3 <- inception_4b/3x3
I0403 17:50:29.106542 15192 net.cpp:386] inception_4b/relu_3x3 -> inception_4b/3x3 (in-place)
I0403 17:50:29.106729 15192 net.cpp:141] Setting up inception_4b/relu_3x3
I0403 17:50:29.106755 15192 net.cpp:148] Top shape: 24 224 14 14 (1053696)
I0403 17:50:29.106770 15192 net.cpp:156] Memory required for data: 964869408
I0403 17:50:29.106784 15192 layer_factory.hpp:77] Creating layer inception_4b/5x5_reduce
I0403 17:50:29.106807 15192 net.cpp:91] Creating Layer inception_4b/5x5_reduce
I0403 17:50:29.106825 15192 net.cpp:425] inception_4b/5x5_reduce <- inception_4a/output_inception_4a/output_0_split_3
I0403 17:50:29.106848 15192 net.cpp:399] inception_4b/5x5_reduce -> inception_4b/5x5_reduce
I0403 17:50:29.107952 15192 net.cpp:141] Setting up inception_4b/5x5_reduce
I0403 17:50:29.107990 15192 net.cpp:148] Top shape: 24 24 14 14 (112896)
I0403 17:50:29.108008 15192 net.cpp:156] Memory required for data: 965320992
I0403 17:50:29.108026 15192 layer_factory.hpp:77] Creating layer inception_4b/relu_5x5_reduce
I0403 17:50:29.108047 15192 net.cpp:91] Creating Layer inception_4b/relu_5x5_reduce
I0403 17:50:29.108078 15192 net.cpp:425] inception_4b/relu_5x5_reduce <- inception_4b/5x5_reduce
I0403 17:50:29.108096 15192 net.cpp:386] inception_4b/relu_5x5_reduce -> inception_4b/5x5_reduce (in-place)
I0403 17:50:29.108276 15192 net.cpp:141] Setting up inception_4b/relu_5x5_reduce
I0403 17:50:29.108301 15192 net.cpp:148] Top shape: 24 24 14 14 (112896)
I0403 17:50:29.108316 15192 net.cpp:156] Memory required for data: 965772576
I0403 17:50:29.108331 15192 layer_factory.hpp:77] Creating layer inception_4b/5x5
I0403 17:50:29.108355 15192 net.cpp:91] Creating Layer inception_4b/5x5
I0403 17:50:29.108371 15192 net.cpp:425] inception_4b/5x5 <- inception_4b/5x5_reduce
I0403 17:50:29.108391 15192 net.cpp:399] inception_4b/5x5 -> inception_4b/5x5
I0403 17:50:29.109619 15192 net.cpp:141] Setting up inception_4b/5x5
I0403 17:50:29.109647 15192 net.cpp:148] Top shape: 24 64 14 14 (301056)
I0403 17:50:29.109663 15192 net.cpp:156] Memory required for data: 966976800
I0403 17:50:29.109681 15192 layer_factory.hpp:77] Creating layer inception_4b/relu_5x5
I0403 17:50:29.109699 15192 net.cpp:91] Creating Layer inception_4b/relu_5x5
I0403 17:50:29.109715 15192 net.cpp:425] inception_4b/relu_5x5 <- inception_4b/5x5
I0403 17:50:29.109737 15192 net.cpp:386] inception_4b/relu_5x5 -> inception_4b/5x5 (in-place)
I0403 17:50:29.110026 15192 net.cpp:141] Setting up inception_4b/relu_5x5
I0403 17:50:29.110052 15192 net.cpp:148] Top shape: 24 64 14 14 (301056)
I0403 17:50:29.110067 15192 net.cpp:156] Memory required for data: 968181024
I0403 17:50:29.110081 15192 layer_factory.hpp:77] Creating layer inception_4b/pool
I0403 17:50:29.110100 15192 net.cpp:91] Creating Layer inception_4b/pool
I0403 17:50:29.110116 15192 net.cpp:425] inception_4b/pool <- inception_4a/output_inception_4a/output_0_split_4
I0403 17:50:29.110136 15192 net.cpp:399] inception_4b/pool -> inception_4b/pool
I0403 17:50:29.110201 15192 net.cpp:141] Setting up inception_4b/pool
I0403 17:50:29.110224 15192 net.cpp:148] Top shape: 24 512 14 14 (2408448)
I0403 17:50:29.110239 15192 net.cpp:156] Memory required for data: 977814816
I0403 17:50:29.110254 15192 layer_factory.hpp:77] Creating layer inception_4b/pool_proj
I0403 17:50:29.110276 15192 net.cpp:91] Creating Layer inception_4b/pool_proj
I0403 17:50:29.110294 15192 net.cpp:425] inception_4b/pool_proj <- inception_4b/pool
I0403 17:50:29.110312 15192 net.cpp:399] inception_4b/pool_proj -> inception_4b/pool_proj
I0403 17:50:29.111551 15192 net.cpp:141] Setting up inception_4b/pool_proj
I0403 17:50:29.111578 15192 net.cpp:148] Top shape: 24 64 14 14 (301056)
I0403 17:50:29.111593 15192 net.cpp:156] Memory required for data: 979019040
I0403 17:50:29.111613 15192 layer_factory.hpp:77] Creating layer inception_4b/relu_pool_proj
I0403 17:50:29.111629 15192 net.cpp:91] Creating Layer inception_4b/relu_pool_proj
I0403 17:50:29.111645 15192 net.cpp:425] inception_4b/relu_pool_proj <- inception_4b/pool_proj
I0403 17:50:29.111665 15192 net.cpp:386] inception_4b/relu_pool_proj -> inception_4b/pool_proj (in-place)
I0403 17:50:29.111843 15192 net.cpp:141] Setting up inception_4b/relu_pool_proj
I0403 17:50:29.111868 15192 net.cpp:148] Top shape: 24 64 14 14 (301056)
I0403 17:50:29.111883 15192 net.cpp:156] Memory required for data: 980223264
I0403 17:50:29.111897 15192 layer_factory.hpp:77] Creating layer inception_4b/output
I0403 17:50:29.111917 15192 net.cpp:91] Creating Layer inception_4b/output
I0403 17:50:29.111932 15192 net.cpp:425] inception_4b/output <- inception_4b/1x1
I0403 17:50:29.111949 15192 net.cpp:425] inception_4b/output <- inception_4b/3x3
I0403 17:50:29.111964 15192 net.cpp:425] inception_4b/output <- inception_4b/5x5
I0403 17:50:29.111984 15192 net.cpp:425] inception_4b/output <- inception_4b/pool_proj
I0403 17:50:29.112001 15192 net.cpp:399] inception_4b/output -> inception_4b/output
I0403 17:50:29.112048 15192 net.cpp:141] Setting up inception_4b/output
I0403 17:50:29.112071 15192 net.cpp:148] Top shape: 24 512 14 14 (2408448)
I0403 17:50:29.112085 15192 net.cpp:156] Memory required for data: 989857056
I0403 17:50:29.112113 15192 layer_factory.hpp:77] Creating layer inception_4b/output_inception_4b/output_0_split
I0403 17:50:29.112131 15192 net.cpp:91] Creating Layer inception_4b/output_inception_4b/output_0_split
I0403 17:50:29.112148 15192 net.cpp:425] inception_4b/output_inception_4b/output_0_split <- inception_4b/output
I0403 17:50:29.112167 15192 net.cpp:399] inception_4b/output_inception_4b/output_0_split -> inception_4b/output_inception_4b/output_0_split_0
I0403 17:50:29.112188 15192 net.cpp:399] inception_4b/output_inception_4b/output_0_split -> inception_4b/output_inception_4b/output_0_split_1
I0403 17:50:29.112208 15192 net.cpp:399] inception_4b/output_inception_4b/output_0_split -> inception_4b/output_inception_4b/output_0_split_2
I0403 17:50:29.112228 15192 net.cpp:399] inception_4b/output_inception_4b/output_0_split -> inception_4b/output_inception_4b/output_0_split_3
I0403 17:50:29.112311 15192 net.cpp:141] Setting up inception_4b/output_inception_4b/output_0_split
I0403 17:50:29.112334 15192 net.cpp:148] Top shape: 24 512 14 14 (2408448)
I0403 17:50:29.112350 15192 net.cpp:148] Top shape: 24 512 14 14 (2408448)
I0403 17:50:29.112365 15192 net.cpp:148] Top shape: 24 512 14 14 (2408448)
I0403 17:50:29.112380 15192 net.cpp:148] Top shape: 24 512 14 14 (2408448)
I0403 17:50:29.112393 15192 net.cpp:156] Memory required for data: 1028392224
I0403 17:50:29.112407 15192 layer_factory.hpp:77] Creating layer inception_4c/1x1
I0403 17:50:29.112432 15192 net.cpp:91] Creating Layer inception_4c/1x1
I0403 17:50:29.112449 15192 net.cpp:425] inception_4c/1x1 <- inception_4b/output_inception_4b/output_0_split_0
I0403 17:50:29.112470 15192 net.cpp:399] inception_4c/1x1 -> inception_4c/1x1
I0403 17:50:29.113896 15192 net.cpp:141] Setting up inception_4c/1x1
I0403 17:50:29.113926 15192 net.cpp:148] Top shape: 24 128 14 14 (602112)
I0403 17:50:29.113946 15192 net.cpp:156] Memory required for data: 1030800672
I0403 17:50:29.113965 15192 layer_factory.hpp:77] Creating layer inception_4c/relu_1x1
I0403 17:50:29.113986 15192 net.cpp:91] Creating Layer inception_4c/relu_1x1
I0403 17:50:29.114003 15192 net.cpp:425] inception_4c/relu_1x1 <- inception_4c/1x1
I0403 17:50:29.114020 15192 net.cpp:386] inception_4c/relu_1x1 -> inception_4c/1x1 (in-place)
I0403 17:50:29.114202 15192 net.cpp:141] Setting up inception_4c/relu_1x1
I0403 17:50:29.114228 15192 net.cpp:148] Top shape: 24 128 14 14 (602112)
I0403 17:50:29.114244 15192 net.cpp:156] Memory required for data: 1033209120
I0403 17:50:29.114259 15192 layer_factory.hpp:77] Creating layer inception_4c/3x3_reduce
I0403 17:50:29.114281 15192 net.cpp:91] Creating Layer inception_4c/3x3_reduce
I0403 17:50:29.114300 15192 net.cpp:425] inception_4c/3x3_reduce <- inception_4b/output_inception_4b/output_0_split_1
I0403 17:50:29.114318 15192 net.cpp:399] inception_4c/3x3_reduce -> inception_4c/3x3_reduce
I0403 17:50:29.116317 15192 net.cpp:141] Setting up inception_4c/3x3_reduce
I0403 17:50:29.116346 15192 net.cpp:148] Top shape: 24 128 14 14 (602112)
I0403 17:50:29.116361 15192 net.cpp:156] Memory required for data: 1035617568
I0403 17:50:29.116380 15192 layer_factory.hpp:77] Creating layer inception_4c/relu_3x3_reduce
I0403 17:50:29.116399 15192 net.cpp:91] Creating Layer inception_4c/relu_3x3_reduce
I0403 17:50:29.116413 15192 net.cpp:425] inception_4c/relu_3x3_reduce <- inception_4c/3x3_reduce
I0403 17:50:29.116433 15192 net.cpp:386] inception_4c/relu_3x3_reduce -> inception_4c/3x3_reduce (in-place)
I0403 17:50:29.116719 15192 net.cpp:141] Setting up inception_4c/relu_3x3_reduce
I0403 17:50:29.116744 15192 net.cpp:148] Top shape: 24 128 14 14 (602112)
I0403 17:50:29.116760 15192 net.cpp:156] Memory required for data: 1038026016
I0403 17:50:29.116775 15192 layer_factory.hpp:77] Creating layer inception_4c/3x3
I0403 17:50:29.116798 15192 net.cpp:91] Creating Layer inception_4c/3x3
I0403 17:50:29.116816 15192 net.cpp:425] inception_4c/3x3 <- inception_4c/3x3_reduce
I0403 17:50:29.116837 15192 net.cpp:399] inception_4c/3x3 -> inception_4c/3x3
I0403 17:50:29.120532 15192 net.cpp:141] Setting up inception_4c/3x3
I0403 17:50:29.120573 15192 net.cpp:148] Top shape: 24 256 14 14 (1204224)
I0403 17:50:29.120590 15192 net.cpp:156] Memory required for data: 1042842912
I0403 17:50:29.120621 15192 layer_factory.hpp:77] Creating layer inception_4c/relu_3x3
I0403 17:50:29.120642 15192 net.cpp:91] Creating Layer inception_4c/relu_3x3
I0403 17:50:29.120671 15192 net.cpp:425] inception_4c/relu_3x3 <- inception_4c/3x3
I0403 17:50:29.120688 15192 net.cpp:386] inception_4c/relu_3x3 -> inception_4c/3x3 (in-place)
I0403 17:50:29.120869 15192 net.cpp:141] Setting up inception_4c/relu_3x3
I0403 17:50:29.120894 15192 net.cpp:148] Top shape: 24 256 14 14 (1204224)
I0403 17:50:29.120908 15192 net.cpp:156] Memory required for data: 1047659808
I0403 17:50:29.120934 15192 layer_factory.hpp:77] Creating layer inception_4c/5x5_reduce
I0403 17:50:29.120954 15192 net.cpp:91] Creating Layer inception_4c/5x5_reduce
I0403 17:50:29.120971 15192 net.cpp:425] inception_4c/5x5_reduce <- inception_4b/output_inception_4b/output_0_split_2
I0403 17:50:29.120998 15192 net.cpp:399] inception_4c/5x5_reduce -> inception_4c/5x5_reduce
I0403 17:50:29.122100 15192 net.cpp:141] Setting up inception_4c/5x5_reduce
I0403 17:50:29.122128 15192 net.cpp:148] Top shape: 24 24 14 14 (112896)
I0403 17:50:29.122143 15192 net.cpp:156] Memory required for data: 1048111392
I0403 17:50:29.122160 15192 layer_factory.hpp:77] Creating layer inception_4c/relu_5x5_reduce
I0403 17:50:29.122179 15192 net.cpp:91] Creating Layer inception_4c/relu_5x5_reduce
I0403 17:50:29.122195 15192 net.cpp:425] inception_4c/relu_5x5_reduce <- inception_4c/5x5_reduce
I0403 17:50:29.122212 15192 net.cpp:386] inception_4c/relu_5x5_reduce -> inception_4c/5x5_reduce (in-place)
I0403 17:50:29.122391 15192 net.cpp:141] Setting up inception_4c/relu_5x5_reduce
I0403 17:50:29.122416 15192 net.cpp:148] Top shape: 24 24 14 14 (112896)
I0403 17:50:29.122431 15192 net.cpp:156] Memory required for data: 1048562976
I0403 17:50:29.122444 15192 layer_factory.hpp:77] Creating layer inception_4c/5x5
I0403 17:50:29.122465 15192 net.cpp:91] Creating Layer inception_4c/5x5
I0403 17:50:29.122483 15192 net.cpp:425] inception_4c/5x5 <- inception_4c/5x5_reduce
I0403 17:50:29.122504 15192 net.cpp:399] inception_4c/5x5 -> inception_4c/5x5
I0403 17:50:29.123721 15192 net.cpp:141] Setting up inception_4c/5x5
I0403 17:50:29.123749 15192 net.cpp:148] Top shape: 24 64 14 14 (301056)
I0403 17:50:29.123764 15192 net.cpp:156] Memory required for data: 1049767200
I0403 17:50:29.123781 15192 layer_factory.hpp:77] Creating layer inception_4c/relu_5x5
I0403 17:50:29.123800 15192 net.cpp:91] Creating Layer inception_4c/relu_5x5
I0403 17:50:29.123817 15192 net.cpp:425] inception_4c/relu_5x5 <- inception_4c/5x5
I0403 17:50:29.123834 15192 net.cpp:386] inception_4c/relu_5x5 -> inception_4c/5x5 (in-place)
I0403 17:50:29.124125 15192 net.cpp:141] Setting up inception_4c/relu_5x5
I0403 17:50:29.124150 15192 net.cpp:148] Top shape: 24 64 14 14 (301056)
I0403 17:50:29.124166 15192 net.cpp:156] Memory required for data: 1050971424
I0403 17:50:29.124179 15192 layer_factory.hpp:77] Creating layer inception_4c/pool
I0403 17:50:29.124199 15192 net.cpp:91] Creating Layer inception_4c/pool
I0403 17:50:29.124215 15192 net.cpp:425] inception_4c/pool <- inception_4b/output_inception_4b/output_0_split_3
I0403 17:50:29.124233 15192 net.cpp:399] inception_4c/pool -> inception_4c/pool
I0403 17:50:29.124297 15192 net.cpp:141] Setting up inception_4c/pool
I0403 17:50:29.124320 15192 net.cpp:148] Top shape: 24 512 14 14 (2408448)
I0403 17:50:29.124335 15192 net.cpp:156] Memory required for data: 1060605216
I0403 17:50:29.124348 15192 layer_factory.hpp:77] Creating layer inception_4c/pool_proj
I0403 17:50:29.124369 15192 net.cpp:91] Creating Layer inception_4c/pool_proj
I0403 17:50:29.124387 15192 net.cpp:425] inception_4c/pool_proj <- inception_4c/pool
I0403 17:50:29.124407 15192 net.cpp:399] inception_4c/pool_proj -> inception_4c/pool_proj
I0403 17:50:29.125630 15192 net.cpp:141] Setting up inception_4c/pool_proj
I0403 17:50:29.125658 15192 net.cpp:148] Top shape: 24 64 14 14 (301056)
I0403 17:50:29.125685 15192 net.cpp:156] Memory required for data: 1061809440
I0403 17:50:29.125705 15192 layer_factory.hpp:77] Creating layer inception_4c/relu_pool_proj
I0403 17:50:29.125721 15192 net.cpp:91] Creating Layer inception_4c/relu_pool_proj
I0403 17:50:29.125737 15192 net.cpp:425] inception_4c/relu_pool_proj <- inception_4c/pool_proj
I0403 17:50:29.125756 15192 net.cpp:386] inception_4c/relu_pool_proj -> inception_4c/pool_proj (in-place)
I0403 17:50:29.125936 15192 net.cpp:141] Setting up inception_4c/relu_pool_proj
I0403 17:50:29.125959 15192 net.cpp:148] Top shape: 24 64 14 14 (301056)
I0403 17:50:29.125974 15192 net.cpp:156] Memory required for data: 1063013664
I0403 17:50:29.125993 15192 layer_factory.hpp:77] Creating layer inception_4c/output
I0403 17:50:29.126013 15192 net.cpp:91] Creating Layer inception_4c/output
I0403 17:50:29.126029 15192 net.cpp:425] inception_4c/output <- inception_4c/1x1
I0403 17:50:29.126045 15192 net.cpp:425] inception_4c/output <- inception_4c/3x3
I0403 17:50:29.126061 15192 net.cpp:425] inception_4c/output <- inception_4c/5x5
I0403 17:50:29.126076 15192 net.cpp:425] inception_4c/output <- inception_4c/pool_proj
I0403 17:50:29.126092 15192 net.cpp:399] inception_4c/output -> inception_4c/output
I0403 17:50:29.126139 15192 net.cpp:141] Setting up inception_4c/output
I0403 17:50:29.126162 15192 net.cpp:148] Top shape: 24 512 14 14 (2408448)
I0403 17:50:29.126175 15192 net.cpp:156] Memory required for data: 1072647456
I0403 17:50:29.126188 15192 layer_factory.hpp:77] Creating layer inception_4c/output_inception_4c/output_0_split
I0403 17:50:29.126205 15192 net.cpp:91] Creating Layer inception_4c/output_inception_4c/output_0_split
I0403 17:50:29.126220 15192 net.cpp:425] inception_4c/output_inception_4c/output_0_split <- inception_4c/output
I0403 17:50:29.126240 15192 net.cpp:399] inception_4c/output_inception_4c/output_0_split -> inception_4c/output_inception_4c/output_0_split_0
I0403 17:50:29.126260 15192 net.cpp:399] inception_4c/output_inception_4c/output_0_split -> inception_4c/output_inception_4c/output_0_split_1
I0403 17:50:29.126279 15192 net.cpp:399] inception_4c/output_inception_4c/output_0_split -> inception_4c/output_inception_4c/output_0_split_2
I0403 17:50:29.126298 15192 net.cpp:399] inception_4c/output_inception_4c/output_0_split -> inception_4c/output_inception_4c/output_0_split_3
I0403 17:50:29.126379 15192 net.cpp:141] Setting up inception_4c/output_inception_4c/output_0_split
I0403 17:50:29.126402 15192 net.cpp:148] Top shape: 24 512 14 14 (2408448)
I0403 17:50:29.126418 15192 net.cpp:148] Top shape: 24 512 14 14 (2408448)
I0403 17:50:29.126432 15192 net.cpp:148] Top shape: 24 512 14 14 (2408448)
I0403 17:50:29.126446 15192 net.cpp:148] Top shape: 24 512 14 14 (2408448)
I0403 17:50:29.126459 15192 net.cpp:156] Memory required for data: 1111182624
I0403 17:50:29.126473 15192 layer_factory.hpp:77] Creating layer inception_4d/1x1
I0403 17:50:29.126497 15192 net.cpp:91] Creating Layer inception_4d/1x1
I0403 17:50:29.126513 15192 net.cpp:425] inception_4d/1x1 <- inception_4c/output_inception_4c/output_0_split_0
I0403 17:50:29.126534 15192 net.cpp:399] inception_4d/1x1 -> inception_4d/1x1
I0403 17:50:29.127878 15192 net.cpp:141] Setting up inception_4d/1x1
I0403 17:50:29.127907 15192 net.cpp:148] Top shape: 24 112 14 14 (526848)
I0403 17:50:29.127926 15192 net.cpp:156] Memory required for data: 1113290016
I0403 17:50:29.127943 15192 layer_factory.hpp:77] Creating layer inception_4d/relu_1x1
I0403 17:50:29.127961 15192 net.cpp:91] Creating Layer inception_4d/relu_1x1
I0403 17:50:29.127976 15192 net.cpp:425] inception_4d/relu_1x1 <- inception_4d/1x1
I0403 17:50:29.128005 15192 net.cpp:386] inception_4d/relu_1x1 -> inception_4d/1x1 (in-place)
I0403 17:50:29.128192 15192 net.cpp:141] Setting up inception_4d/relu_1x1
I0403 17:50:29.128216 15192 net.cpp:148] Top shape: 24 112 14 14 (526848)
I0403 17:50:29.128231 15192 net.cpp:156] Memory required for data: 1115397408
I0403 17:50:29.128245 15192 layer_factory.hpp:77] Creating layer inception_4d/3x3_reduce
I0403 17:50:29.128279 15192 net.cpp:91] Creating Layer inception_4d/3x3_reduce
I0403 17:50:29.128298 15192 net.cpp:425] inception_4d/3x3_reduce <- inception_4c/output_inception_4c/output_0_split_1
I0403 17:50:29.128319 15192 net.cpp:399] inception_4d/3x3_reduce -> inception_4d/3x3_reduce
I0403 17:50:29.129789 15192 net.cpp:141] Setting up inception_4d/3x3_reduce
I0403 17:50:29.129815 15192 net.cpp:148] Top shape: 24 144 14 14 (677376)
I0403 17:50:29.129832 15192 net.cpp:156] Memory required for data: 1118106912
I0403 17:50:29.129849 15192 layer_factory.hpp:77] Creating layer inception_4d/relu_3x3_reduce
I0403 17:50:29.129868 15192 net.cpp:91] Creating Layer inception_4d/relu_3x3_reduce
I0403 17:50:29.129884 15192 net.cpp:425] inception_4d/relu_3x3_reduce <- inception_4d/3x3_reduce
I0403 17:50:29.129900 15192 net.cpp:386] inception_4d/relu_3x3_reduce -> inception_4d/3x3_reduce (in-place)
I0403 17:50:29.130188 15192 net.cpp:141] Setting up inception_4d/relu_3x3_reduce
I0403 17:50:29.130214 15192 net.cpp:148] Top shape: 24 144 14 14 (677376)
I0403 17:50:29.130229 15192 net.cpp:156] Memory required for data: 1120816416
I0403 17:50:29.130244 15192 layer_factory.hpp:77] Creating layer inception_4d/3x3
I0403 17:50:29.130266 15192 net.cpp:91] Creating Layer inception_4d/3x3
I0403 17:50:29.130283 15192 net.cpp:425] inception_4d/3x3 <- inception_4d/3x3_reduce
I0403 17:50:29.130302 15192 net.cpp:399] inception_4d/3x3 -> inception_4d/3x3
I0403 17:50:29.134443 15192 net.cpp:141] Setting up inception_4d/3x3
I0403 17:50:29.134474 15192 net.cpp:148] Top shape: 24 288 14 14 (1354752)
I0403 17:50:29.134490 15192 net.cpp:156] Memory required for data: 1126235424
I0403 17:50:29.134508 15192 layer_factory.hpp:77] Creating layer inception_4d/relu_3x3
I0403 17:50:29.134526 15192 net.cpp:91] Creating Layer inception_4d/relu_3x3
I0403 17:50:29.134541 15192 net.cpp:425] inception_4d/relu_3x3 <- inception_4d/3x3
I0403 17:50:29.134560 15192 net.cpp:386] inception_4d/relu_3x3 -> inception_4d/3x3 (in-place)
I0403 17:50:29.134742 15192 net.cpp:141] Setting up inception_4d/relu_3x3
I0403 17:50:29.134766 15192 net.cpp:148] Top shape: 24 288 14 14 (1354752)
I0403 17:50:29.134781 15192 net.cpp:156] Memory required for data: 1131654432
I0403 17:50:29.134795 15192 layer_factory.hpp:77] Creating layer inception_4d/5x5_reduce
I0403 17:50:29.134815 15192 net.cpp:91] Creating Layer inception_4d/5x5_reduce
I0403 17:50:29.134832 15192 net.cpp:425] inception_4d/5x5_reduce <- inception_4c/output_inception_4c/output_0_split_2
I0403 17:50:29.134853 15192 net.cpp:399] inception_4d/5x5_reduce -> inception_4d/5x5_reduce
I0403 17:50:29.135987 15192 net.cpp:141] Setting up inception_4d/5x5_reduce
I0403 17:50:29.136016 15192 net.cpp:148] Top shape: 24 32 14 14 (150528)
I0403 17:50:29.136031 15192 net.cpp:156] Memory required for data: 1132256544
I0403 17:50:29.136049 15192 layer_factory.hpp:77] Creating layer inception_4d/relu_5x5_reduce
I0403 17:50:29.136066 15192 net.cpp:91] Creating Layer inception_4d/relu_5x5_reduce
I0403 17:50:29.136082 15192 net.cpp:425] inception_4d/relu_5x5_reduce <- inception_4d/5x5_reduce
I0403 17:50:29.136101 15192 net.cpp:386] inception_4d/relu_5x5_reduce -> inception_4d/5x5_reduce (in-place)
I0403 17:50:29.136296 15192 net.cpp:141] Setting up inception_4d/relu_5x5_reduce
I0403 17:50:29.136320 15192 net.cpp:148] Top shape: 24 32 14 14 (150528)
I0403 17:50:29.136334 15192 net.cpp:156] Memory required for data: 1132858656
I0403 17:50:29.136348 15192 layer_factory.hpp:77] Creating layer inception_4d/5x5
I0403 17:50:29.136370 15192 net.cpp:91] Creating Layer inception_4d/5x5
I0403 17:50:29.136389 15192 net.cpp:425] inception_4d/5x5 <- inception_4d/5x5_reduce
I0403 17:50:29.136407 15192 net.cpp:399] inception_4d/5x5 -> inception_4d/5x5
I0403 17:50:29.137856 15192 net.cpp:141] Setting up inception_4d/5x5
I0403 17:50:29.137882 15192 net.cpp:148] Top shape: 24 64 14 14 (301056)
I0403 17:50:29.137898 15192 net.cpp:156] Memory required for data: 1134062880
I0403 17:50:29.137917 15192 layer_factory.hpp:77] Creating layer inception_4d/relu_5x5
I0403 17:50:29.137950 15192 net.cpp:91] Creating Layer inception_4d/relu_5x5
I0403 17:50:29.137969 15192 net.cpp:425] inception_4d/relu_5x5 <- inception_4d/5x5
I0403 17:50:29.137995 15192 net.cpp:386] inception_4d/relu_5x5 -> inception_4d/5x5 (in-place)
I0403 17:50:29.138298 15192 net.cpp:141] Setting up inception_4d/relu_5x5
I0403 17:50:29.138324 15192 net.cpp:148] Top shape: 24 64 14 14 (301056)
I0403 17:50:29.138339 15192 net.cpp:156] Memory required for data: 1135267104
I0403 17:50:29.138352 15192 layer_factory.hpp:77] Creating layer inception_4d/pool
I0403 17:50:29.138372 15192 net.cpp:91] Creating Layer inception_4d/pool
I0403 17:50:29.138389 15192 net.cpp:425] inception_4d/pool <- inception_4c/output_inception_4c/output_0_split_3
I0403 17:50:29.138406 15192 net.cpp:399] inception_4d/pool -> inception_4d/pool
I0403 17:50:29.138473 15192 net.cpp:141] Setting up inception_4d/pool
I0403 17:50:29.138495 15192 net.cpp:148] Top shape: 24 512 14 14 (2408448)
I0403 17:50:29.138509 15192 net.cpp:156] Memory required for data: 1144900896
I0403 17:50:29.138523 15192 layer_factory.hpp:77] Creating layer inception_4d/pool_proj
I0403 17:50:29.138545 15192 net.cpp:91] Creating Layer inception_4d/pool_proj
I0403 17:50:29.138561 15192 net.cpp:425] inception_4d/pool_proj <- inception_4d/pool
I0403 17:50:29.138581 15192 net.cpp:399] inception_4d/pool_proj -> inception_4d/pool_proj
I0403 17:50:29.140312 15192 net.cpp:141] Setting up inception_4d/pool_proj
I0403 17:50:29.140342 15192 net.cpp:148] Top shape: 24 64 14 14 (301056)
I0403 17:50:29.140359 15192 net.cpp:156] Memory required for data: 1146105120
I0403 17:50:29.140377 15192 layer_factory.hpp:77] Creating layer inception_4d/relu_pool_proj
I0403 17:50:29.140395 15192 net.cpp:91] Creating Layer inception_4d/relu_pool_proj
I0403 17:50:29.140411 15192 net.cpp:425] inception_4d/relu_pool_proj <- inception_4d/pool_proj
I0403 17:50:29.140430 15192 net.cpp:386] inception_4d/relu_pool_proj -> inception_4d/pool_proj (in-place)
I0403 17:50:29.140611 15192 net.cpp:141] Setting up inception_4d/relu_pool_proj
I0403 17:50:29.140635 15192 net.cpp:148] Top shape: 24 64 14 14 (301056)
I0403 17:50:29.140650 15192 net.cpp:156] Memory required for data: 1147309344
I0403 17:50:29.140666 15192 layer_factory.hpp:77] Creating layer inception_4d/output
I0403 17:50:29.140681 15192 net.cpp:91] Creating Layer inception_4d/output
I0403 17:50:29.140697 15192 net.cpp:425] inception_4d/output <- inception_4d/1x1
I0403 17:50:29.140712 15192 net.cpp:425] inception_4d/output <- inception_4d/3x3
I0403 17:50:29.140727 15192 net.cpp:425] inception_4d/output <- inception_4d/5x5
I0403 17:50:29.140743 15192 net.cpp:425] inception_4d/output <- inception_4d/pool_proj
I0403 17:50:29.140761 15192 net.cpp:399] inception_4d/output -> inception_4d/output
I0403 17:50:29.140810 15192 net.cpp:141] Setting up inception_4d/output
I0403 17:50:29.140832 15192 net.cpp:148] Top shape: 24 528 14 14 (2483712)
I0403 17:50:29.140846 15192 net.cpp:156] Memory required for data: 1157244192
I0403 17:50:29.140861 15192 layer_factory.hpp:77] Creating layer inception_4d/output_inception_4d/output_0_split
I0403 17:50:29.140877 15192 net.cpp:91] Creating Layer inception_4d/output_inception_4d/output_0_split
I0403 17:50:29.140892 15192 net.cpp:425] inception_4d/output_inception_4d/output_0_split <- inception_4d/output
I0403 17:50:29.140913 15192 net.cpp:399] inception_4d/output_inception_4d/output_0_split -> inception_4d/output_inception_4d/output_0_split_0
I0403 17:50:29.140934 15192 net.cpp:399] inception_4d/output_inception_4d/output_0_split -> inception_4d/output_inception_4d/output_0_split_1
I0403 17:50:29.140955 15192 net.cpp:399] inception_4d/output_inception_4d/output_0_split -> inception_4d/output_inception_4d/output_0_split_2
I0403 17:50:29.140974 15192 net.cpp:399] inception_4d/output_inception_4d/output_0_split -> inception_4d/output_inception_4d/output_0_split_3
I0403 17:50:29.141013 15192 net.cpp:399] inception_4d/output_inception_4d/output_0_split -> inception_4d/output_inception_4d/output_0_split_4
I0403 17:50:29.141116 15192 net.cpp:141] Setting up inception_4d/output_inception_4d/output_0_split
I0403 17:50:29.141155 15192 net.cpp:148] Top shape: 24 528 14 14 (2483712)
I0403 17:50:29.141173 15192 net.cpp:148] Top shape: 24 528 14 14 (2483712)
I0403 17:50:29.141190 15192 net.cpp:148] Top shape: 24 528 14 14 (2483712)
I0403 17:50:29.141204 15192 net.cpp:148] Top shape: 24 528 14 14 (2483712)
I0403 17:50:29.141219 15192 net.cpp:148] Top shape: 24 528 14 14 (2483712)
I0403 17:50:29.141233 15192 net.cpp:156] Memory required for data: 1206918432
I0403 17:50:29.141247 15192 layer_factory.hpp:77] Creating layer loss2/ave_pool
I0403 17:50:29.141264 15192 net.cpp:91] Creating Layer loss2/ave_pool
I0403 17:50:29.141280 15192 net.cpp:425] loss2/ave_pool <- inception_4d/output_inception_4d/output_0_split_0
I0403 17:50:29.141299 15192 net.cpp:399] loss2/ave_pool -> loss2/ave_pool
I0403 17:50:29.141623 15192 net.cpp:141] Setting up loss2/ave_pool
I0403 17:50:29.141651 15192 net.cpp:148] Top shape: 24 528 4 4 (202752)
I0403 17:50:29.141667 15192 net.cpp:156] Memory required for data: 1207729440
I0403 17:50:29.141682 15192 layer_factory.hpp:77] Creating layer loss2/conv
I0403 17:50:29.141705 15192 net.cpp:91] Creating Layer loss2/conv
I0403 17:50:29.141721 15192 net.cpp:425] loss2/conv <- loss2/ave_pool
I0403 17:50:29.141741 15192 net.cpp:399] loss2/conv -> loss2/conv
I0403 17:50:29.143666 15192 net.cpp:141] Setting up loss2/conv
I0403 17:50:29.143694 15192 net.cpp:148] Top shape: 24 128 4 4 (49152)
I0403 17:50:29.143712 15192 net.cpp:156] Memory required for data: 1207926048
I0403 17:50:29.143729 15192 layer_factory.hpp:77] Creating layer loss2/relu_conv
I0403 17:50:29.143749 15192 net.cpp:91] Creating Layer loss2/relu_conv
I0403 17:50:29.143765 15192 net.cpp:425] loss2/relu_conv <- loss2/conv
I0403 17:50:29.143784 15192 net.cpp:386] loss2/relu_conv -> loss2/conv (in-place)
I0403 17:50:29.144076 15192 net.cpp:141] Setting up loss2/relu_conv
I0403 17:50:29.144103 15192 net.cpp:148] Top shape: 24 128 4 4 (49152)
I0403 17:50:29.144117 15192 net.cpp:156] Memory required for data: 1208122656
I0403 17:50:29.144132 15192 layer_factory.hpp:77] Creating layer loss2/fc
I0403 17:50:29.144155 15192 net.cpp:91] Creating Layer loss2/fc
I0403 17:50:29.144171 15192 net.cpp:425] loss2/fc <- loss2/conv
I0403 17:50:29.144191 15192 net.cpp:399] loss2/fc -> loss2/fc
I0403 17:50:29.161767 15192 net.cpp:141] Setting up loss2/fc
I0403 17:50:29.161803 15192 net.cpp:148] Top shape: 24 1024 (24576)
I0403 17:50:29.161818 15192 net.cpp:156] Memory required for data: 1208220960
I0403 17:50:29.161835 15192 layer_factory.hpp:77] Creating layer loss2/relu_fc
I0403 17:50:29.161852 15192 net.cpp:91] Creating Layer loss2/relu_fc
I0403 17:50:29.161869 15192 net.cpp:425] loss2/relu_fc <- loss2/fc
I0403 17:50:29.161887 15192 net.cpp:386] loss2/relu_fc -> loss2/fc (in-place)
I0403 17:50:29.162186 15192 net.cpp:141] Setting up loss2/relu_fc
I0403 17:50:29.162212 15192 net.cpp:148] Top shape: 24 1024 (24576)
I0403 17:50:29.162227 15192 net.cpp:156] Memory required for data: 1208319264
I0403 17:50:29.162241 15192 layer_factory.hpp:77] Creating layer loss2/drop_fc
I0403 17:50:29.162259 15192 net.cpp:91] Creating Layer loss2/drop_fc
I0403 17:50:29.162274 15192 net.cpp:425] loss2/drop_fc <- loss2/fc
I0403 17:50:29.162293 15192 net.cpp:386] loss2/drop_fc -> loss2/fc (in-place)
I0403 17:50:29.162339 15192 net.cpp:141] Setting up loss2/drop_fc
I0403 17:50:29.162364 15192 net.cpp:148] Top shape: 24 1024 (24576)
I0403 17:50:29.162379 15192 net.cpp:156] Memory required for data: 1208417568
I0403 17:50:29.162395 15192 layer_factory.hpp:77] Creating layer loss2/classifier_plantvillage
I0403 17:50:29.162411 15192 net.cpp:91] Creating Layer loss2/classifier_plantvillage
I0403 17:50:29.162427 15192 net.cpp:425] loss2/classifier_plantvillage <- loss2/fc
I0403 17:50:29.162448 15192 net.cpp:399] loss2/classifier_plantvillage -> loss2/classifier_plantvillage
I0403 17:50:29.162839 15192 net.cpp:141] Setting up loss2/classifier_plantvillage
I0403 17:50:29.162863 15192 net.cpp:148] Top shape: 24 38 (912)
I0403 17:50:29.162904 15192 net.cpp:156] Memory required for data: 1208421216
I0403 17:50:29.162925 15192 layer_factory.hpp:77] Creating layer loss2/classifier_plantvillage_loss2/classifier_plantvillage_0_split
I0403 17:50:29.162945 15192 net.cpp:91] Creating Layer loss2/classifier_plantvillage_loss2/classifier_plantvillage_0_split
I0403 17:50:29.162962 15192 net.cpp:425] loss2/classifier_plantvillage_loss2/classifier_plantvillage_0_split <- loss2/classifier_plantvillage
I0403 17:50:29.162983 15192 net.cpp:399] loss2/classifier_plantvillage_loss2/classifier_plantvillage_0_split -> loss2/classifier_plantvillage_loss2/classifier_plantvillage_0_split_0
I0403 17:50:29.163005 15192 net.cpp:399] loss2/classifier_plantvillage_loss2/classifier_plantvillage_0_split -> loss2/classifier_plantvillage_loss2/classifier_plantvillage_0_split_1
I0403 17:50:29.163028 15192 net.cpp:399] loss2/classifier_plantvillage_loss2/classifier_plantvillage_0_split -> loss2/classifier_plantvillage_loss2/classifier_plantvillage_0_split_2
I0403 17:50:29.163105 15192 net.cpp:141] Setting up loss2/classifier_plantvillage_loss2/classifier_plantvillage_0_split
I0403 17:50:29.163128 15192 net.cpp:148] Top shape: 24 38 (912)
I0403 17:50:29.163144 15192 net.cpp:148] Top shape: 24 38 (912)
I0403 17:50:29.163158 15192 net.cpp:148] Top shape: 24 38 (912)
I0403 17:50:29.163172 15192 net.cpp:156] Memory required for data: 1208432160
I0403 17:50:29.163187 15192 layer_factory.hpp:77] Creating layer inception_4e/1x1
I0403 17:50:29.163220 15192 net.cpp:91] Creating Layer inception_4e/1x1
I0403 17:50:29.163239 15192 net.cpp:425] inception_4e/1x1 <- inception_4d/output_inception_4d/output_0_split_1
I0403 17:50:29.163256 15192 net.cpp:399] inception_4e/1x1 -> inception_4e/1x1
I0403 17:50:29.165035 15192 net.cpp:141] Setting up inception_4e/1x1
I0403 17:50:29.165062 15192 net.cpp:148] Top shape: 24 256 14 14 (1204224)
I0403 17:50:29.165077 15192 net.cpp:156] Memory required for data: 1213249056
I0403 17:50:29.165096 15192 layer_factory.hpp:77] Creating layer inception_4e/relu_1x1
I0403 17:50:29.165117 15192 net.cpp:91] Creating Layer inception_4e/relu_1x1
I0403 17:50:29.165132 15192 net.cpp:425] inception_4e/relu_1x1 <- inception_4e/1x1
I0403 17:50:29.165149 15192 net.cpp:386] inception_4e/relu_1x1 -> inception_4e/1x1 (in-place)
I0403 17:50:29.165438 15192 net.cpp:141] Setting up inception_4e/relu_1x1
I0403 17:50:29.165464 15192 net.cpp:148] Top shape: 24 256 14 14 (1204224)
I0403 17:50:29.165478 15192 net.cpp:156] Memory required for data: 1218065952
I0403 17:50:29.165493 15192 layer_factory.hpp:77] Creating layer inception_4e/3x3_reduce
I0403 17:50:29.165516 15192 net.cpp:91] Creating Layer inception_4e/3x3_reduce
I0403 17:50:29.165534 15192 net.cpp:425] inception_4e/3x3_reduce <- inception_4d/output_inception_4d/output_0_split_2
I0403 17:50:29.165554 15192 net.cpp:399] inception_4e/3x3_reduce -> inception_4e/3x3_reduce
I0403 17:50:29.167673 15192 net.cpp:141] Setting up inception_4e/3x3_reduce
I0403 17:50:29.167701 15192 net.cpp:148] Top shape: 24 160 14 14 (752640)
I0403 17:50:29.167716 15192 net.cpp:156] Memory required for data: 1221076512
I0403 17:50:29.167734 15192 layer_factory.hpp:77] Creating layer inception_4e/relu_3x3_reduce
I0403 17:50:29.167754 15192 net.cpp:91] Creating Layer inception_4e/relu_3x3_reduce
I0403 17:50:29.167770 15192 net.cpp:425] inception_4e/relu_3x3_reduce <- inception_4e/3x3_reduce
I0403 17:50:29.167788 15192 net.cpp:386] inception_4e/relu_3x3_reduce -> inception_4e/3x3_reduce (in-place)
I0403 17:50:29.167969 15192 net.cpp:141] Setting up inception_4e/relu_3x3_reduce
I0403 17:50:29.168006 15192 net.cpp:148] Top shape: 24 160 14 14 (752640)
I0403 17:50:29.168022 15192 net.cpp:156] Memory required for data: 1224087072
I0403 17:50:29.168037 15192 layer_factory.hpp:77] Creating layer inception_4e/3x3
I0403 17:50:29.168056 15192 net.cpp:91] Creating Layer inception_4e/3x3
I0403 17:50:29.168072 15192 net.cpp:425] inception_4e/3x3 <- inception_4e/3x3_reduce
I0403 17:50:29.168092 15192 net.cpp:399] inception_4e/3x3 -> inception_4e/3x3
I0403 17:50:29.172953 15192 net.cpp:141] Setting up inception_4e/3x3
I0403 17:50:29.172999 15192 net.cpp:148] Top shape: 24 320 14 14 (1505280)
I0403 17:50:29.173017 15192 net.cpp:156] Memory required for data: 1230108192
I0403 17:50:29.173034 15192 layer_factory.hpp:77] Creating layer inception_4e/relu_3x3
I0403 17:50:29.173051 15192 net.cpp:91] Creating Layer inception_4e/relu_3x3
I0403 17:50:29.173068 15192 net.cpp:425] inception_4e/relu_3x3 <- inception_4e/3x3
I0403 17:50:29.173084 15192 net.cpp:386] inception_4e/relu_3x3 -> inception_4e/3x3 (in-place)
I0403 17:50:29.173377 15192 net.cpp:141] Setting up inception_4e/relu_3x3
I0403 17:50:29.173405 15192 net.cpp:148] Top shape: 24 320 14 14 (1505280)
I0403 17:50:29.173420 15192 net.cpp:156] Memory required for data: 1236129312
I0403 17:50:29.173435 15192 layer_factory.hpp:77] Creating layer inception_4e/5x5_reduce
I0403 17:50:29.173457 15192 net.cpp:91] Creating Layer inception_4e/5x5_reduce
I0403 17:50:29.173475 15192 net.cpp:425] inception_4e/5x5_reduce <- inception_4d/output_inception_4d/output_0_split_3
I0403 17:50:29.173493 15192 net.cpp:399] inception_4e/5x5_reduce -> inception_4e/5x5_reduce
I0403 17:50:29.174573 15192 net.cpp:141] Setting up inception_4e/5x5_reduce
I0403 17:50:29.174600 15192 net.cpp:148] Top shape: 24 32 14 14 (150528)
I0403 17:50:29.174617 15192 net.cpp:156] Memory required for data: 1236731424
I0403 17:50:29.174633 15192 layer_factory.hpp:77] Creating layer inception_4e/relu_5x5_reduce
I0403 17:50:29.174654 15192 net.cpp:91] Creating Layer inception_4e/relu_5x5_reduce
I0403 17:50:29.174670 15192 net.cpp:425] inception_4e/relu_5x5_reduce <- inception_4e/5x5_reduce
I0403 17:50:29.174687 15192 net.cpp:386] inception_4e/relu_5x5_reduce -> inception_4e/5x5_reduce (in-place)
I0403 17:50:29.174984 15192 net.cpp:141] Setting up inception_4e/relu_5x5_reduce
I0403 17:50:29.175009 15192 net.cpp:148] Top shape: 24 32 14 14 (150528)
I0403 17:50:29.175024 15192 net.cpp:156] Memory required for data: 1237333536
I0403 17:50:29.175039 15192 layer_factory.hpp:77] Creating layer inception_4e/5x5
I0403 17:50:29.175076 15192 net.cpp:91] Creating Layer inception_4e/5x5
I0403 17:50:29.175094 15192 net.cpp:425] inception_4e/5x5 <- inception_4e/5x5_reduce
I0403 17:50:29.175113 15192 net.cpp:399] inception_4e/5x5 -> inception_4e/5x5
I0403 17:50:29.176945 15192 net.cpp:141] Setting up inception_4e/5x5
I0403 17:50:29.176972 15192 net.cpp:148] Top shape: 24 128 14 14 (602112)
I0403 17:50:29.176991 15192 net.cpp:156] Memory required for data: 1239741984
I0403 17:50:29.177011 15192 layer_factory.hpp:77] Creating layer inception_4e/relu_5x5
I0403 17:50:29.177028 15192 net.cpp:91] Creating Layer inception_4e/relu_5x5
I0403 17:50:29.177044 15192 net.cpp:425] inception_4e/relu_5x5 <- inception_4e/5x5
I0403 17:50:29.177062 15192 net.cpp:386] inception_4e/relu_5x5 -> inception_4e/5x5 (in-place)
I0403 17:50:29.177254 15192 net.cpp:141] Setting up inception_4e/relu_5x5
I0403 17:50:29.177279 15192 net.cpp:148] Top shape: 24 128 14 14 (602112)
I0403 17:50:29.177294 15192 net.cpp:156] Memory required for data: 1242150432
I0403 17:50:29.177306 15192 layer_factory.hpp:77] Creating layer inception_4e/pool
I0403 17:50:29.177326 15192 net.cpp:91] Creating Layer inception_4e/pool
I0403 17:50:29.177343 15192 net.cpp:425] inception_4e/pool <- inception_4d/output_inception_4d/output_0_split_4
I0403 17:50:29.177359 15192 net.cpp:399] inception_4e/pool -> inception_4e/pool
I0403 17:50:29.177428 15192 net.cpp:141] Setting up inception_4e/pool
I0403 17:50:29.177451 15192 net.cpp:148] Top shape: 24 528 14 14 (2483712)
I0403 17:50:29.177465 15192 net.cpp:156] Memory required for data: 1252085280
I0403 17:50:29.177479 15192 layer_factory.hpp:77] Creating layer inception_4e/pool_proj
I0403 17:50:29.177500 15192 net.cpp:91] Creating Layer inception_4e/pool_proj
I0403 17:50:29.177516 15192 net.cpp:425] inception_4e/pool_proj <- inception_4e/pool
I0403 17:50:29.177537 15192 net.cpp:399] inception_4e/pool_proj -> inception_4e/pool_proj
I0403 17:50:29.179008 15192 net.cpp:141] Setting up inception_4e/pool_proj
I0403 17:50:29.179049 15192 net.cpp:148] Top shape: 24 128 14 14 (602112)
I0403 17:50:29.179064 15192 net.cpp:156] Memory required for data: 1254493728
I0403 17:50:29.179082 15192 layer_factory.hpp:77] Creating layer inception_4e/relu_pool_proj
I0403 17:50:29.179100 15192 net.cpp:91] Creating Layer inception_4e/relu_pool_proj
I0403 17:50:29.179116 15192 net.cpp:425] inception_4e/relu_pool_proj <- inception_4e/pool_proj
I0403 17:50:29.179134 15192 net.cpp:386] inception_4e/relu_pool_proj -> inception_4e/pool_proj (in-place)
I0403 17:50:29.179420 15192 net.cpp:141] Setting up inception_4e/relu_pool_proj
I0403 17:50:29.179447 15192 net.cpp:148] Top shape: 24 128 14 14 (602112)
I0403 17:50:29.179463 15192 net.cpp:156] Memory required for data: 1256902176
I0403 17:50:29.179478 15192 layer_factory.hpp:77] Creating layer inception_4e/output
I0403 17:50:29.179494 15192 net.cpp:91] Creating Layer inception_4e/output
I0403 17:50:29.179510 15192 net.cpp:425] inception_4e/output <- inception_4e/1x1
I0403 17:50:29.179527 15192 net.cpp:425] inception_4e/output <- inception_4e/3x3
I0403 17:50:29.179541 15192 net.cpp:425] inception_4e/output <- inception_4e/5x5
I0403 17:50:29.179556 15192 net.cpp:425] inception_4e/output <- inception_4e/pool_proj
I0403 17:50:29.179574 15192 net.cpp:399] inception_4e/output -> inception_4e/output
I0403 17:50:29.179622 15192 net.cpp:141] Setting up inception_4e/output
I0403 17:50:29.179646 15192 net.cpp:148] Top shape: 24 832 14 14 (3913728)
I0403 17:50:29.179661 15192 net.cpp:156] Memory required for data: 1272557088
I0403 17:50:29.179674 15192 layer_factory.hpp:77] Creating layer pool4/3x3_s2
I0403 17:50:29.179694 15192 net.cpp:91] Creating Layer pool4/3x3_s2
I0403 17:50:29.179710 15192 net.cpp:425] pool4/3x3_s2 <- inception_4e/output
I0403 17:50:29.179728 15192 net.cpp:399] pool4/3x3_s2 -> pool4/3x3_s2
I0403 17:50:29.179795 15192 net.cpp:141] Setting up pool4/3x3_s2
I0403 17:50:29.179817 15192 net.cpp:148] Top shape: 24 832 7 7 (978432)
I0403 17:50:29.179831 15192 net.cpp:156] Memory required for data: 1276470816
I0403 17:50:29.179846 15192 layer_factory.hpp:77] Creating layer pool4/3x3_s2_pool4/3x3_s2_0_split
I0403 17:50:29.179862 15192 net.cpp:91] Creating Layer pool4/3x3_s2_pool4/3x3_s2_0_split
I0403 17:50:29.179879 15192 net.cpp:425] pool4/3x3_s2_pool4/3x3_s2_0_split <- pool4/3x3_s2
I0403 17:50:29.179896 15192 net.cpp:399] pool4/3x3_s2_pool4/3x3_s2_0_split -> pool4/3x3_s2_pool4/3x3_s2_0_split_0
I0403 17:50:29.179916 15192 net.cpp:399] pool4/3x3_s2_pool4/3x3_s2_0_split -> pool4/3x3_s2_pool4/3x3_s2_0_split_1
I0403 17:50:29.179935 15192 net.cpp:399] pool4/3x3_s2_pool4/3x3_s2_0_split -> pool4/3x3_s2_pool4/3x3_s2_0_split_2
I0403 17:50:29.179955 15192 net.cpp:399] pool4/3x3_s2_pool4/3x3_s2_0_split -> pool4/3x3_s2_pool4/3x3_s2_0_split_3
I0403 17:50:29.180049 15192 net.cpp:141] Setting up pool4/3x3_s2_pool4/3x3_s2_0_split
I0403 17:50:29.180073 15192 net.cpp:148] Top shape: 24 832 7 7 (978432)
I0403 17:50:29.180088 15192 net.cpp:148] Top shape: 24 832 7 7 (978432)
I0403 17:50:29.180104 15192 net.cpp:148] Top shape: 24 832 7 7 (978432)
I0403 17:50:29.180119 15192 net.cpp:148] Top shape: 24 832 7 7 (978432)
I0403 17:50:29.180131 15192 net.cpp:156] Memory required for data: 1292125728
I0403 17:50:29.180146 15192 layer_factory.hpp:77] Creating layer inception_5a/1x1
I0403 17:50:29.180166 15192 net.cpp:91] Creating Layer inception_5a/1x1
I0403 17:50:29.180183 15192 net.cpp:425] inception_5a/1x1 <- pool4/3x3_s2_pool4/3x3_s2_0_split_0
I0403 17:50:29.180204 15192 net.cpp:399] inception_5a/1x1 -> inception_5a/1x1
I0403 17:50:29.183019 15192 net.cpp:141] Setting up inception_5a/1x1
I0403 17:50:29.183048 15192 net.cpp:148] Top shape: 24 256 7 7 (301056)
I0403 17:50:29.183063 15192 net.cpp:156] Memory required for data: 1293329952
I0403 17:50:29.183080 15192 layer_factory.hpp:77] Creating layer inception_5a/relu_1x1
I0403 17:50:29.183099 15192 net.cpp:91] Creating Layer inception_5a/relu_1x1
I0403 17:50:29.183114 15192 net.cpp:425] inception_5a/relu_1x1 <- inception_5a/1x1
I0403 17:50:29.183132 15192 net.cpp:386] inception_5a/relu_1x1 -> inception_5a/1x1 (in-place)
I0403 17:50:29.183442 15192 net.cpp:141] Setting up inception_5a/relu_1x1
I0403 17:50:29.183468 15192 net.cpp:148] Top shape: 24 256 7 7 (301056)
I0403 17:50:29.183483 15192 net.cpp:156] Memory required for data: 1294534176
I0403 17:50:29.183498 15192 layer_factory.hpp:77] Creating layer inception_5a/3x3_reduce
I0403 17:50:29.183521 15192 net.cpp:91] Creating Layer inception_5a/3x3_reduce
I0403 17:50:29.183538 15192 net.cpp:425] inception_5a/3x3_reduce <- pool4/3x3_s2_pool4/3x3_s2_0_split_1
I0403 17:50:29.183559 15192 net.cpp:399] inception_5a/3x3_reduce -> inception_5a/3x3_reduce
I0403 17:50:29.185994 15192 net.cpp:141] Setting up inception_5a/3x3_reduce
I0403 17:50:29.186024 15192 net.cpp:148] Top shape: 24 160 7 7 (188160)
I0403 17:50:29.186041 15192 net.cpp:156] Memory required for data: 1295286816
I0403 17:50:29.186058 15192 layer_factory.hpp:77] Creating layer inception_5a/relu_3x3_reduce
I0403 17:50:29.186076 15192 net.cpp:91] Creating Layer inception_5a/relu_3x3_reduce
I0403 17:50:29.186091 15192 net.cpp:425] inception_5a/relu_3x3_reduce <- inception_5a/3x3_reduce
I0403 17:50:29.186111 15192 net.cpp:386] inception_5a/relu_3x3_reduce -> inception_5a/3x3_reduce (in-place)
I0403 17:50:29.186293 15192 net.cpp:141] Setting up inception_5a/relu_3x3_reduce
I0403 17:50:29.186318 15192 net.cpp:148] Top shape: 24 160 7 7 (188160)
I0403 17:50:29.186333 15192 net.cpp:156] Memory required for data: 1296039456
I0403 17:50:29.186347 15192 layer_factory.hpp:77] Creating layer inception_5a/3x3
I0403 17:50:29.186368 15192 net.cpp:91] Creating Layer inception_5a/3x3
I0403 17:50:29.186385 15192 net.cpp:425] inception_5a/3x3 <- inception_5a/3x3_reduce
I0403 17:50:29.186408 15192 net.cpp:399] inception_5a/3x3 -> inception_5a/3x3
I0403 17:50:29.191315 15192 net.cpp:141] Setting up inception_5a/3x3
I0403 17:50:29.191344 15192 net.cpp:148] Top shape: 24 320 7 7 (376320)
I0403 17:50:29.191360 15192 net.cpp:156] Memory required for data: 1297544736
I0403 17:50:29.191378 15192 layer_factory.hpp:77] Creating layer inception_5a/relu_3x3
I0403 17:50:29.191398 15192 net.cpp:91] Creating Layer inception_5a/relu_3x3
I0403 17:50:29.191414 15192 net.cpp:425] inception_5a/relu_3x3 <- inception_5a/3x3
I0403 17:50:29.191431 15192 net.cpp:386] inception_5a/relu_3x3 -> inception_5a/3x3 (in-place)
I0403 17:50:29.191717 15192 net.cpp:141] Setting up inception_5a/relu_3x3
I0403 17:50:29.191743 15192 net.cpp:148] Top shape: 24 320 7 7 (376320)
I0403 17:50:29.191758 15192 net.cpp:156] Memory required for data: 1299050016
I0403 17:50:29.191772 15192 layer_factory.hpp:77] Creating layer inception_5a/5x5_reduce
I0403 17:50:29.191797 15192 net.cpp:91] Creating Layer inception_5a/5x5_reduce
I0403 17:50:29.191814 15192 net.cpp:425] inception_5a/5x5_reduce <- pool4/3x3_s2_pool4/3x3_s2_0_split_2
I0403 17:50:29.191835 15192 net.cpp:399] inception_5a/5x5_reduce -> inception_5a/5x5_reduce
I0403 17:50:29.192983 15192 net.cpp:141] Setting up inception_5a/5x5_reduce
I0403 17:50:29.193011 15192 net.cpp:148] Top shape: 24 32 7 7 (37632)
I0403 17:50:29.193025 15192 net.cpp:156] Memory required for data: 1299200544
I0403 17:50:29.193043 15192 layer_factory.hpp:77] Creating layer inception_5a/relu_5x5_reduce
I0403 17:50:29.193063 15192 net.cpp:91] Creating Layer inception_5a/relu_5x5_reduce
I0403 17:50:29.193080 15192 net.cpp:425] inception_5a/relu_5x5_reduce <- inception_5a/5x5_reduce
I0403 17:50:29.193097 15192 net.cpp:386] inception_5a/relu_5x5_reduce -> inception_5a/5x5_reduce (in-place)
I0403 17:50:29.193390 15192 net.cpp:141] Setting up inception_5a/relu_5x5_reduce
I0403 17:50:29.193415 15192 net.cpp:148] Top shape: 24 32 7 7 (37632)
I0403 17:50:29.193430 15192 net.cpp:156] Memory required for data: 1299351072
I0403 17:50:29.193444 15192 layer_factory.hpp:77] Creating layer inception_5a/5x5
I0403 17:50:29.193466 15192 net.cpp:91] Creating Layer inception_5a/5x5
I0403 17:50:29.193485 15192 net.cpp:425] inception_5a/5x5 <- inception_5a/5x5_reduce
I0403 17:50:29.193505 15192 net.cpp:399] inception_5a/5x5 -> inception_5a/5x5
I0403 17:50:29.195189 15192 net.cpp:141] Setting up inception_5a/5x5
I0403 17:50:29.195240 15192 net.cpp:148] Top shape: 24 128 7 7 (150528)
I0403 17:50:29.195256 15192 net.cpp:156] Memory required for data: 1299953184
I0403 17:50:29.195274 15192 layer_factory.hpp:77] Creating layer inception_5a/relu_5x5
I0403 17:50:29.195296 15192 net.cpp:91] Creating Layer inception_5a/relu_5x5
I0403 17:50:29.195312 15192 net.cpp:425] inception_5a/relu_5x5 <- inception_5a/5x5
I0403 17:50:29.195329 15192 net.cpp:386] inception_5a/relu_5x5 -> inception_5a/5x5 (in-place)
I0403 17:50:29.195531 15192 net.cpp:141] Setting up inception_5a/relu_5x5
I0403 17:50:29.195556 15192 net.cpp:148] Top shape: 24 128 7 7 (150528)
I0403 17:50:29.195570 15192 net.cpp:156] Memory required for data: 1300555296
I0403 17:50:29.195585 15192 layer_factory.hpp:77] Creating layer inception_5a/pool
I0403 17:50:29.195605 15192 net.cpp:91] Creating Layer inception_5a/pool
I0403 17:50:29.195621 15192 net.cpp:425] inception_5a/pool <- pool4/3x3_s2_pool4/3x3_s2_0_split_3
I0403 17:50:29.195639 15192 net.cpp:399] inception_5a/pool -> inception_5a/pool
I0403 17:50:29.195709 15192 net.cpp:141] Setting up inception_5a/pool
I0403 17:50:29.195732 15192 net.cpp:148] Top shape: 24 832 7 7 (978432)
I0403 17:50:29.195745 15192 net.cpp:156] Memory required for data: 1304469024
I0403 17:50:29.195760 15192 layer_factory.hpp:77] Creating layer inception_5a/pool_proj
I0403 17:50:29.195780 15192 net.cpp:91] Creating Layer inception_5a/pool_proj
I0403 17:50:29.195797 15192 net.cpp:425] inception_5a/pool_proj <- inception_5a/pool
I0403 17:50:29.195818 15192 net.cpp:399] inception_5a/pool_proj -> inception_5a/pool_proj
I0403 17:50:29.198077 15192 net.cpp:141] Setting up inception_5a/pool_proj
I0403 17:50:29.198106 15192 net.cpp:148] Top shape: 24 128 7 7 (150528)
I0403 17:50:29.198122 15192 net.cpp:156] Memory required for data: 1305071136
I0403 17:50:29.198139 15192 layer_factory.hpp:77] Creating layer inception_5a/relu_pool_proj
I0403 17:50:29.198156 15192 net.cpp:91] Creating Layer inception_5a/relu_pool_proj
I0403 17:50:29.198173 15192 net.cpp:425] inception_5a/relu_pool_proj <- inception_5a/pool_proj
I0403 17:50:29.198199 15192 net.cpp:386] inception_5a/relu_pool_proj -> inception_5a/pool_proj (in-place)
I0403 17:50:29.198492 15192 net.cpp:141] Setting up inception_5a/relu_pool_proj
I0403 17:50:29.198518 15192 net.cpp:148] Top shape: 24 128 7 7 (150528)
I0403 17:50:29.198532 15192 net.cpp:156] Memory required for data: 1305673248
I0403 17:50:29.198547 15192 layer_factory.hpp:77] Creating layer inception_5a/output
I0403 17:50:29.198565 15192 net.cpp:91] Creating Layer inception_5a/output
I0403 17:50:29.198580 15192 net.cpp:425] inception_5a/output <- inception_5a/1x1
I0403 17:50:29.198596 15192 net.cpp:425] inception_5a/output <- inception_5a/3x3
I0403 17:50:29.198612 15192 net.cpp:425] inception_5a/output <- inception_5a/5x5
I0403 17:50:29.198627 15192 net.cpp:425] inception_5a/output <- inception_5a/pool_proj
I0403 17:50:29.198645 15192 net.cpp:399] inception_5a/output -> inception_5a/output
I0403 17:50:29.198694 15192 net.cpp:141] Setting up inception_5a/output
I0403 17:50:29.198719 15192 net.cpp:148] Top shape: 24 832 7 7 (978432)
I0403 17:50:29.198734 15192 net.cpp:156] Memory required for data: 1309586976
I0403 17:50:29.198748 15192 layer_factory.hpp:77] Creating layer inception_5a/output_inception_5a/output_0_split
I0403 17:50:29.198765 15192 net.cpp:91] Creating Layer inception_5a/output_inception_5a/output_0_split
I0403 17:50:29.198781 15192 net.cpp:425] inception_5a/output_inception_5a/output_0_split <- inception_5a/output
I0403 17:50:29.198797 15192 net.cpp:399] inception_5a/output_inception_5a/output_0_split -> inception_5a/output_inception_5a/output_0_split_0
I0403 17:50:29.198815 15192 net.cpp:399] inception_5a/output_inception_5a/output_0_split -> inception_5a/output_inception_5a/output_0_split_1
I0403 17:50:29.198835 15192 net.cpp:399] inception_5a/output_inception_5a/output_0_split -> inception_5a/output_inception_5a/output_0_split_2
I0403 17:50:29.198858 15192 net.cpp:399] inception_5a/output_inception_5a/output_0_split -> inception_5a/output_inception_5a/output_0_split_3
I0403 17:50:29.198968 15192 net.cpp:141] Setting up inception_5a/output_inception_5a/output_0_split
I0403 17:50:29.199008 15192 net.cpp:148] Top shape: 24 832 7 7 (978432)
I0403 17:50:29.199025 15192 net.cpp:148] Top shape: 24 832 7 7 (978432)
I0403 17:50:29.199049 15192 net.cpp:148] Top shape: 24 832 7 7 (978432)
I0403 17:50:29.199065 15192 net.cpp:148] Top shape: 24 832 7 7 (978432)
I0403 17:50:29.199079 15192 net.cpp:156] Memory required for data: 1325241888
I0403 17:50:29.199092 15192 layer_factory.hpp:77] Creating layer inception_5b/1x1
I0403 17:50:29.199115 15192 net.cpp:91] Creating Layer inception_5b/1x1
I0403 17:50:29.199133 15192 net.cpp:425] inception_5b/1x1 <- inception_5a/output_inception_5a/output_0_split_0
I0403 17:50:29.199154 15192 net.cpp:399] inception_5b/1x1 -> inception_5b/1x1
I0403 17:50:29.203001 15192 net.cpp:141] Setting up inception_5b/1x1
I0403 17:50:29.203045 15192 net.cpp:148] Top shape: 24 384 7 7 (451584)
I0403 17:50:29.203063 15192 net.cpp:156] Memory required for data: 1327048224
I0403 17:50:29.203080 15192 layer_factory.hpp:77] Creating layer inception_5b/relu_1x1
I0403 17:50:29.203099 15192 net.cpp:91] Creating Layer inception_5b/relu_1x1
I0403 17:50:29.203115 15192 net.cpp:425] inception_5b/relu_1x1 <- inception_5b/1x1
I0403 17:50:29.203135 15192 net.cpp:386] inception_5b/relu_1x1 -> inception_5b/1x1 (in-place)
I0403 17:50:29.203444 15192 net.cpp:141] Setting up inception_5b/relu_1x1
I0403 17:50:29.203472 15192 net.cpp:148] Top shape: 24 384 7 7 (451584)
I0403 17:50:29.203488 15192 net.cpp:156] Memory required for data: 1328854560
I0403 17:50:29.203503 15192 layer_factory.hpp:77] Creating layer inception_5b/3x3_reduce
I0403 17:50:29.203526 15192 net.cpp:91] Creating Layer inception_5b/3x3_reduce
I0403 17:50:29.203544 15192 net.cpp:425] inception_5b/3x3_reduce <- inception_5a/output_inception_5a/output_0_split_1
I0403 17:50:29.203563 15192 net.cpp:399] inception_5b/3x3_reduce -> inception_5b/3x3_reduce
I0403 17:50:29.206240 15192 net.cpp:141] Setting up inception_5b/3x3_reduce
I0403 17:50:29.206270 15192 net.cpp:148] Top shape: 24 192 7 7 (225792)
I0403 17:50:29.206287 15192 net.cpp:156] Memory required for data: 1329757728
I0403 17:50:29.206305 15192 layer_factory.hpp:77] Creating layer inception_5b/relu_3x3_reduce
I0403 17:50:29.206323 15192 net.cpp:91] Creating Layer inception_5b/relu_3x3_reduce
I0403 17:50:29.206339 15192 net.cpp:425] inception_5b/relu_3x3_reduce <- inception_5b/3x3_reduce
I0403 17:50:29.206359 15192 net.cpp:386] inception_5b/relu_3x3_reduce -> inception_5b/3x3_reduce (in-place)
I0403 17:50:29.206552 15192 net.cpp:141] Setting up inception_5b/relu_3x3_reduce
I0403 17:50:29.206578 15192 net.cpp:148] Top shape: 24 192 7 7 (225792)
I0403 17:50:29.206593 15192 net.cpp:156] Memory required for data: 1330660896
I0403 17:50:29.206607 15192 layer_factory.hpp:77] Creating layer inception_5b/3x3
I0403 17:50:29.206629 15192 net.cpp:91] Creating Layer inception_5b/3x3
I0403 17:50:29.206647 15192 net.cpp:425] inception_5b/3x3 <- inception_5b/3x3_reduce
I0403 17:50:29.206670 15192 net.cpp:399] inception_5b/3x3 -> inception_5b/3x3
I0403 17:50:29.213457 15192 net.cpp:141] Setting up inception_5b/3x3
I0403 17:50:29.213486 15192 net.cpp:148] Top shape: 24 384 7 7 (451584)
I0403 17:50:29.213501 15192 net.cpp:156] Memory required for data: 1332467232
I0403 17:50:29.213521 15192 layer_factory.hpp:77] Creating layer inception_5b/relu_3x3
I0403 17:50:29.213538 15192 net.cpp:91] Creating Layer inception_5b/relu_3x3
I0403 17:50:29.213554 15192 net.cpp:425] inception_5b/relu_3x3 <- inception_5b/3x3
I0403 17:50:29.213573 15192 net.cpp:386] inception_5b/relu_3x3 -> inception_5b/3x3 (in-place)
I0403 17:50:29.213881 15192 net.cpp:141] Setting up inception_5b/relu_3x3
I0403 17:50:29.213907 15192 net.cpp:148] Top shape: 24 384 7 7 (451584)
I0403 17:50:29.213925 15192 net.cpp:156] Memory required for data: 1334273568
I0403 17:50:29.213940 15192 layer_factory.hpp:77] Creating layer inception_5b/5x5_reduce
I0403 17:50:29.213982 15192 net.cpp:91] Creating Layer inception_5b/5x5_reduce
I0403 17:50:29.214002 15192 net.cpp:425] inception_5b/5x5_reduce <- inception_5a/output_inception_5a/output_0_split_2
I0403 17:50:29.214025 15192 net.cpp:399] inception_5b/5x5_reduce -> inception_5b/5x5_reduce
I0403 17:50:29.215384 15192 net.cpp:141] Setting up inception_5b/5x5_reduce
I0403 17:50:29.215414 15192 net.cpp:148] Top shape: 24 48 7 7 (56448)
I0403 17:50:29.215430 15192 net.cpp:156] Memory required for data: 1334499360
I0403 17:50:29.215447 15192 layer_factory.hpp:77] Creating layer inception_5b/relu_5x5_reduce
I0403 17:50:29.215466 15192 net.cpp:91] Creating Layer inception_5b/relu_5x5_reduce
I0403 17:50:29.215482 15192 net.cpp:425] inception_5b/relu_5x5_reduce <- inception_5b/5x5_reduce
I0403 17:50:29.215502 15192 net.cpp:386] inception_5b/relu_5x5_reduce -> inception_5b/5x5_reduce (in-place)
I0403 17:50:29.215876 15192 net.cpp:141] Setting up inception_5b/relu_5x5_reduce
I0403 17:50:29.215903 15192 net.cpp:148] Top shape: 24 48 7 7 (56448)
I0403 17:50:29.215920 15192 net.cpp:156] Memory required for data: 1334725152
I0403 17:50:29.215935 15192 layer_factory.hpp:77] Creating layer inception_5b/5x5
I0403 17:50:29.215955 15192 net.cpp:91] Creating Layer inception_5b/5x5
I0403 17:50:29.215971 15192 net.cpp:425] inception_5b/5x5 <- inception_5b/5x5_reduce
I0403 17:50:29.215996 15192 net.cpp:399] inception_5b/5x5 -> inception_5b/5x5
I0403 17:50:29.218053 15192 net.cpp:141] Setting up inception_5b/5x5
I0403 17:50:29.218081 15192 net.cpp:148] Top shape: 24 128 7 7 (150528)
I0403 17:50:29.218097 15192 net.cpp:156] Memory required for data: 1335327264
I0403 17:50:29.218114 15192 layer_factory.hpp:77] Creating layer inception_5b/relu_5x5
I0403 17:50:29.218132 15192 net.cpp:91] Creating Layer inception_5b/relu_5x5
I0403 17:50:29.218148 15192 net.cpp:425] inception_5b/relu_5x5 <- inception_5b/5x5
I0403 17:50:29.218168 15192 net.cpp:386] inception_5b/relu_5x5 -> inception_5b/5x5 (in-place)
I0403 17:50:29.218359 15192 net.cpp:141] Setting up inception_5b/relu_5x5
I0403 17:50:29.218384 15192 net.cpp:148] Top shape: 24 128 7 7 (150528)
I0403 17:50:29.218399 15192 net.cpp:156] Memory required for data: 1335929376
I0403 17:50:29.218412 15192 layer_factory.hpp:77] Creating layer inception_5b/pool
I0403 17:50:29.218431 15192 net.cpp:91] Creating Layer inception_5b/pool
I0403 17:50:29.218448 15192 net.cpp:425] inception_5b/pool <- inception_5a/output_inception_5a/output_0_split_3
I0403 17:50:29.218466 15192 net.cpp:399] inception_5b/pool -> inception_5b/pool
I0403 17:50:29.218538 15192 net.cpp:141] Setting up inception_5b/pool
I0403 17:50:29.218561 15192 net.cpp:148] Top shape: 24 832 7 7 (978432)
I0403 17:50:29.218575 15192 net.cpp:156] Memory required for data: 1339843104
I0403 17:50:29.218590 15192 layer_factory.hpp:77] Creating layer inception_5b/pool_proj
I0403 17:50:29.218611 15192 net.cpp:91] Creating Layer inception_5b/pool_proj
I0403 17:50:29.218628 15192 net.cpp:425] inception_5b/pool_proj <- inception_5b/pool
I0403 17:50:29.218648 15192 net.cpp:399] inception_5b/pool_proj -> inception_5b/pool_proj
I0403 17:50:29.220913 15192 net.cpp:141] Setting up inception_5b/pool_proj
I0403 17:50:29.220942 15192 net.cpp:148] Top shape: 24 128 7 7 (150528)
I0403 17:50:29.220957 15192 net.cpp:156] Memory required for data: 1340445216
I0403 17:50:29.220974 15192 layer_factory.hpp:77] Creating layer inception_5b/relu_pool_proj
I0403 17:50:29.220996 15192 net.cpp:91] Creating Layer inception_5b/relu_pool_proj
I0403 17:50:29.221014 15192 net.cpp:425] inception_5b/relu_pool_proj <- inception_5b/pool_proj
I0403 17:50:29.221034 15192 net.cpp:386] inception_5b/relu_pool_proj -> inception_5b/pool_proj (in-place)
I0403 17:50:29.221325 15192 net.cpp:141] Setting up inception_5b/relu_pool_proj
I0403 17:50:29.221351 15192 net.cpp:148] Top shape: 24 128 7 7 (150528)
I0403 17:50:29.221366 15192 net.cpp:156] Memory required for data: 1341047328
I0403 17:50:29.221381 15192 layer_factory.hpp:77] Creating layer inception_5b/output
I0403 17:50:29.221398 15192 net.cpp:91] Creating Layer inception_5b/output
I0403 17:50:29.221427 15192 net.cpp:425] inception_5b/output <- inception_5b/1x1
I0403 17:50:29.221446 15192 net.cpp:425] inception_5b/output <- inception_5b/3x3
I0403 17:50:29.221460 15192 net.cpp:425] inception_5b/output <- inception_5b/5x5
I0403 17:50:29.221477 15192 net.cpp:425] inception_5b/output <- inception_5b/pool_proj
I0403 17:50:29.221495 15192 net.cpp:399] inception_5b/output -> inception_5b/output
I0403 17:50:29.221545 15192 net.cpp:141] Setting up inception_5b/output
I0403 17:50:29.221568 15192 net.cpp:148] Top shape: 24 1024 7 7 (1204224)
I0403 17:50:29.221583 15192 net.cpp:156] Memory required for data: 1345864224
I0403 17:50:29.221597 15192 layer_factory.hpp:77] Creating layer pool5/7x7_s1
I0403 17:50:29.221616 15192 net.cpp:91] Creating Layer pool5/7x7_s1
I0403 17:50:29.221632 15192 net.cpp:425] pool5/7x7_s1 <- inception_5b/output
I0403 17:50:29.221653 15192 net.cpp:399] pool5/7x7_s1 -> pool5/7x7_s1
I0403 17:50:29.221865 15192 net.cpp:141] Setting up pool5/7x7_s1
I0403 17:50:29.221891 15192 net.cpp:148] Top shape: 24 1024 1 1 (24576)
I0403 17:50:29.221905 15192 net.cpp:156] Memory required for data: 1345962528
I0403 17:50:29.221921 15192 layer_factory.hpp:77] Creating layer pool5/drop_7x7_s1
I0403 17:50:29.221938 15192 net.cpp:91] Creating Layer pool5/drop_7x7_s1
I0403 17:50:29.221954 15192 net.cpp:425] pool5/drop_7x7_s1 <- pool5/7x7_s1
I0403 17:50:29.221973 15192 net.cpp:386] pool5/drop_7x7_s1 -> pool5/7x7_s1 (in-place)
I0403 17:50:29.222028 15192 net.cpp:141] Setting up pool5/drop_7x7_s1
I0403 17:50:29.222051 15192 net.cpp:148] Top shape: 24 1024 1 1 (24576)
I0403 17:50:29.222067 15192 net.cpp:156] Memory required for data: 1346060832
I0403 17:50:29.222081 15192 layer_factory.hpp:77] Creating layer loss3/classifier_plantvillage
I0403 17:50:29.222100 15192 net.cpp:91] Creating Layer loss3/classifier_plantvillage
I0403 17:50:29.222116 15192 net.cpp:425] loss3/classifier_plantvillage <- pool5/7x7_s1
I0403 17:50:29.222137 15192 net.cpp:399] loss3/classifier_plantvillage -> loss3/classifier_plantvillage
I0403 17:50:29.222554 15192 net.cpp:141] Setting up loss3/classifier_plantvillage
I0403 17:50:29.222581 15192 net.cpp:148] Top shape: 24 38 (912)
I0403 17:50:29.222596 15192 net.cpp:156] Memory required for data: 1346064480
I0403 17:50:29.222614 15192 layer_factory.hpp:77] Creating layer loss3/classifier_plantvillage_loss3/classifier_plantvillage_0_split
I0403 17:50:29.222631 15192 net.cpp:91] Creating Layer loss3/classifier_plantvillage_loss3/classifier_plantvillage_0_split
I0403 17:50:29.222647 15192 net.cpp:425] loss3/classifier_plantvillage_loss3/classifier_plantvillage_0_split <- loss3/classifier_plantvillage
I0403 17:50:29.222663 15192 net.cpp:399] loss3/classifier_plantvillage_loss3/classifier_plantvillage_0_split -> loss3/classifier_plantvillage_loss3/classifier_plantvillage_0_split_0
I0403 17:50:29.222681 15192 net.cpp:399] loss3/classifier_plantvillage_loss3/classifier_plantvillage_0_split -> loss3/classifier_plantvillage_loss3/classifier_plantvillage_0_split_1
I0403 17:50:29.222702 15192 net.cpp:399] loss3/classifier_plantvillage_loss3/classifier_plantvillage_0_split -> loss3/classifier_plantvillage_loss3/classifier_plantvillage_0_split_2
I0403 17:50:29.222723 15192 net.cpp:399] loss3/classifier_plantvillage_loss3/classifier_plantvillage_0_split -> loss3/classifier_plantvillage_loss3/classifier_plantvillage_0_split_3
I0403 17:50:29.222821 15192 net.cpp:141] Setting up loss3/classifier_plantvillage_loss3/classifier_plantvillage_0_split
I0403 17:50:29.222844 15192 net.cpp:148] Top shape: 24 38 (912)
I0403 17:50:29.222859 15192 net.cpp:148] Top shape: 24 38 (912)
I0403 17:50:29.222874 15192 net.cpp:148] Top shape: 24 38 (912)
I0403 17:50:29.222888 15192 net.cpp:148] Top shape: 24 38 (912)
I0403 17:50:29.222901 15192 net.cpp:156] Memory required for data: 1346079072
I0403 17:50:29.222915 15192 layer_factory.hpp:77] Creating layer loss1/loss
I0403 17:50:29.222939 15192 net.cpp:91] Creating Layer loss1/loss
I0403 17:50:29.222956 15192 net.cpp:425] loss1/loss <- loss1/classifier_plantvillage_loss1/classifier_plantvillage_0_split_0
I0403 17:50:29.222990 15192 net.cpp:425] loss1/loss <- label_data_1_split_0
…
