…
I0403 18:14:12.309139 16667 net.cpp:313] The NetState phase (1) differed from the phase (0) specified by a rule in layer data
I0403 18:14:12.310312 16667 net.cpp:49] Initializing net from parameters: 
state {
  phase: TEST
}
layer {
  name: "data"
  type: "Data"
  top: "data"
  top: "label"
  include {
    phase: TEST
  }
  transform_param {
    mirror: false
    crop_size: 224
    mean_file: "/home/mohanty/data/final_dataset/lmdb/grayscale-60-40/mean.binaryproto"
  }
  data_param {
    source: "/home/mohanty/data/final_dataset/lmdb/grayscale-60-40/test_db"
    batch_size: 24
    backend: LMDB
  }
}
layer {
  name: "conv1/7x7_s2"
  type: "Convolution"
  bottom: "data"
  top: "conv1/7x7_s2"
  param {
    lr_mult: 1
    decay_mult: 1
  }
  param {
    lr_mult: 2
    decay_mult: 0
  }
  convolution_param {
    num_output: 64
    pad: 3
    kernel_size: 7
    stride: 2
    weight_filler {
      type: "xavier"
      std: 0.1
    }
    bias_filler {
      type: "constant"
      value: 0.2
    }
  }
}
layer {
  name: "conv1/relu_7x7"
  type: "ReLU"
  bottom: "conv1/7x7_s2"
  top: "conv1/7x7_s2"
}
layer {
  name: "pool1/3x3_s2"
  type: "Pooling"
  bottom: "conv1/7x7_s2"
  top: "pool1/3x3_s2"
  pooling_param {
    pool: MAX
    kernel_size: 3
    stride: 2
  }
}
layer {
  name: "pool1/norm1"
  type: "LRN"
  bottom: "pool1/3x3_s2"
  top: "pool1/norm1"
  lrn_param {
    local_size: 5
    alpha: 0.0001
    beta: 0.75
  }
}
layer {
  name: "conv2/3x3_reduce"
  type: "Convolution"
  bottom: "pool1/norm1"
  top: "conv2/3x3_reduce"
  param {
    lr_mult: 1
    decay_mult: 1
  }
  param {
    lr_mult: 2
    decay_mult: 0
  }
  convolution_param {
    num_output: 64
    kernel_size: 1
    weight_filler {
      type: "xavier"
      std: 0.1
    }
    bias_filler {
      type: "constant"
      value: 0.2
    }
  }
}
layer {
  name: "conv2/relu_3x3_reduce"
  type: "ReLU"
  bottom: "conv2/3x3_reduce"
  top: "conv2/3x3_reduce"
}
layer {
  name: "conv2/3x3"
  type: "Convolution"
  bottom: "conv2/3x3_reduce"
  top: "conv2/3x3"
  param {
    lr_mult: 1
    decay_mult: 1
  }
  param {
    lr_mult: 2
    decay_mult: 0
  }
  convolution_param {
    num_output: 192
    pad: 1
    kernel_size: 3
    weight_filler {
      type: "xavier"
      std: 0.03
    }
    bias_filler {
      type: "constant"
      value: 0.2
    }
  }
}
layer {
  name: "conv2/relu_3x3"
  type: "ReLU"
  bottom: "conv2/3x3"
  top: "conv2/3x3"
}
layer {
  name: "conv2/norm2"
  type: "LRN"
  bottom: "conv2/3x3"
  top: "conv2/norm2"
  lrn_param {
    local_size: 5
    alpha: 0.0001
    beta: 0.75
  }
}
layer {
  name: "pool2/3x3_s2"
  type: "Pooling"
  bottom: "conv2/norm2"
  top: "pool2/3x3_s2"
  pooling_param {
    pool: MAX
    kernel_size: 3
    stride: 2
  }
}
layer {
  name: "inception_3a/1x1"
  type: "Convolution"
  bottom: "pool2/3x3_s2"
  top: "inception_3a/1x1"
  param {
    lr_mult: 1
    decay_mult: 1
  }
  param {
    lr_mult: 2
    decay_mult: 0
  }
  convolution_param {
    num_output: 64
    kernel_size: 1
    weight_filler {
      type: "xavier"
      std: 0.03
    }
    bias_filler {
      type: "constant"
      value: 0.2
    }
  }
}
layer {
  name: "inception_3a/relu_1x1"
  type: "ReLU"
  bottom: "inception_3a/1x1"
  top: "inception_3a/1x1"
}
layer {
  name: "inception_3a/3x3_reduce"
  type: "Convolution"
  bottom: "pool2/3x3_s2"
  top: "inception_3a/3x3_reduce"
  param {
    lr_mult: 1
    decay_mult: 1
  }
  param {
    lr_mult: 2
    decay_mult: 0
  }
  convolution_param {
    num_output: 96
    kernel_size: 1
    weight_filler {
      type: "xavier"
      std: 0.09
    }
    bias_filler {
      type: "constant"
      value: 0.2
    }
  }
}
layer {
  name: "inception_3a/relu_3x3_reduce"
  type: "ReLU"
  bottom: "inception_3a/3x3_reduce"
  top: "inception_3a/3x3_reduce"
}
layer {
  name: "inception_3a/3x3"
  type: "Convolution"
  bottom: "inception_3a/3x3_reduce"
  top: "inception_3a/3x3"
  param {
    lr_mult: 1
    decay_mult: 1
  }
  param {
    lr_mult: 2
    decay_mult: 0
  }
  convolution_param {
    num_output: 128
    pad: 1
    kernel_size: 3
    weight_filler {
      type: "xavier"
      std: 0.03
    }
    bias_filler {
      type: "constant"
      value: 0.2
    }
  }
}
layer {
  name: "inception_3a/relu_3x3"
  type: "ReLU"
  bottom: "inception_3a/3x3"
  top: "inception_3a/3x3"
}
layer {
  name: "inception_3a/5x5_reduce"
  type: "Convolution"
  bottom: "pool2/3x3_s2"
  top: "inception_3a/5x5_reduce"
  param {
    lr_mult: 1
    decay_mult: 1
  }
  param {
    lr_mult: 2
    decay_mult: 0
  }
  convolution_param {
    num_output: 16
    kernel_size: 1
    weight_filler {
      type: "xavier"
      std: 0.2
    }
    bias_filler {
      type: "constant"
      value: 0.2
    }
  }
}
layer {
  name: "inception_3a/relu_5x5_reduce"
  type: "ReLU"
  bottom: "inception_3a/5x5_reduce"
  top: "inception_3a/5x5_reduce"
}
layer {
  name: "inception_3a/5x5"
  type: "Convolution"
  bottom: "inception_3a/5x5_reduce"
  top: "inception_3a/5x5"
  param {
    lr_mult: 1
    decay_mult: 1
  }
  param {
    lr_mult: 2
    decay_mult: 0
  }
  convolution_param {
    num_output: 32
    pad: 2
    kernel_size: 5
    weight_filler {
      type: "xavier"
      std: 0.03
    }
    bias_filler {
      type: "constant"
      value: 0.2
    }
  }
}
layer {
  name: "inception_3a/relu_5x5"
  type: "ReLU"
  bottom: "inception_3a/5x5"
  top: "inception_3a/5x5"
}
layer {
  name: "inception_3a/pool"
  type: "Pooling"
  bottom: "pool2/3x3_s2"
  top: "inception_3a/pool"
  pooling_param {
    pool: MAX
    kernel_size: 3
    stride: 1
    pad: 1
  }
}
layer {
  name: "inception_3a/pool_proj"
  type: "Convolution"
  bottom: "inception_3a/pool"
  top: "inception_3a/pool_proj"
  param {
    lr_mult: 1
    decay_mult: 1
  }
  param {
    lr_mult: 2
    decay_mult: 0
  }
  convolution_param {
    num_output: 32
    kernel_size: 1
    weight_filler {
      type: "xavier"
      std: 0.1
    }
    bias_filler {
      type: "constant"
      value: 0.2
    }
  }
}
layer {
  name: "inception_3a/relu_pool_proj"
  type: "ReLU"
  bottom: "inception_3a/pool_proj"
  top: "inception_3a/pool_proj"
}
layer {
  name: "inception_3a/output"
  type: "Concat"
  bottom: "inception_3a/1x1"
  bottom: "inception_3a/3x3"
  bottom: "inception_3a/5x5"
  bottom: "inception_3a/pool_proj"
  top: "inception_3a/output"
}
layer {
  name: "inception_3b/1x1"
  type: "Convolution"
  bottom: "inception_3a/output"
  top: "inception_3b/1x1"
  param {
    lr_mult: 1
    decay_mult: 1
  }
  param {
    lr_mult: 2
    decay_mult: 0
  }
  convolution_param {
    num_output: 128
    kernel_size: 1
    weight_filler {
      type: "xavier"
      std: 0.03
    }
    bias_filler {
      type: "constant"
      value: 0.2
    }
  }
}
layer {
  name: "inception_3b/relu_1x1"
  type: "ReLU"
  bottom: "inception_3b/1x1"
  top: "inception_3b/1x1"
}
layer {
  name: "inception_3b/3x3_reduce"
  type: "Convolution"
  bottom: "inception_3a/output"
  top: "inception_3b/3x3_reduce"
  param {
    lr_mult: 1
    decay_mult: 1
  }
  param {
    lr_mult: 2
    decay_mult: 0
  }
  convolution_param {
    num_output: 128
    kernel_size: 1
    weight_filler {
      type: "xavier"
      std: 0.09
    }
    bias_filler {
      type: "constant"
      value: 0.2
    }
  }
}
layer {
  name: "inception_3b/relu_3x3_reduce"
  type: "ReLU"
  bottom: "inception_3b/3x3_reduce"
  top: "inception_3b/3x3_reduce"
}
layer {
  name: "inception_3b/3x3"
  type: "Convolution"
  bottom: "inception_3b/3x3_reduce"
  top: "inception_3b/3x3"
  param {
    lr_mult: 1
    decay_mult: 1
  }
  param {
    lr_mult: 2
    decay_mult: 0
  }
  convolution_param {
    num_output: 192
    pad: 1
    kernel_size: 3
    weight_filler {
      type: "xavier"
      std: 0.03
    }
    bias_filler {
      type: "constant"
      value: 0.2
    }
  }
}
layer {
  name: "inception_3b/relu_3x3"
  type: "ReLU"
  bottom: "inception_3b/3x3"
  top: "inception_3b/3x3"
}
layer {
  name: "inception_3b/5x5_reduce"
  type: "Convolution"
  bottom: "inception_3a/output"
  top: "inception_3b/5x5_reduce"
  param {
    lr_mult: 1
    decay_mult: 1
  }
  param {
    lr_mult: 2
    decay_mult: 0
  }
  convolution_param {
    num_output: 32
    kernel_size: 1
    weight_filler {
      type: "xavier"
      std: 0.2
    }
    bias_filler {
      type: "constant"
      value: 0.2
    }
  }
}
layer {
  name: "inception_3b/relu_5x5_reduce"
  type: "ReLU"
  bottom: "inception_3b/5x5_reduce"
  top: "inception_3b/5x5_reduce"
}
layer {
  name: "inception_3b/5x5"
  type: "Convolution"
  bottom: "inception_3b/5x5_reduce"
  top: "inception_3b/5x5"
  param {
    lr_mult: 1
    decay_mult: 1
  }
  param {
    lr_mult: 2
    decay_mult: 0
  }
  convolution_param {
    num_output: 96
    pad: 2
    kernel_size: 5
    weight_filler {
      type: "xavier"
      std: 0.03
    }
    bias_filler {
      type: "constant"
      value: 0.2
    }
  }
}
layer {
  name: "inception_3b/relu_5x5"
  type: "ReLU"
  bottom: "inception_3b/5x5"
  top: "inception_3b/5x5"
}
layer {
  name: "inception_3b/pool"
  type: "Pooling"
  bottom: "inception_3a/output"
  top: "inception_3b/pool"
  pooling_param {
    pool: MAX
    kernel_size: 3
    stride: 1
    pad: 1
  }
}
layer {
  name: "inception_3b/pool_proj"
  type: "Convolution"
  bottom: "inception_3b/pool"
  top: "inception_3b/pool_proj"
  param {
    lr_mult: 1
    decay_mult: 1
  }
  param {
    lr_mult: 2
    decay_mult: 0
  }
  convolution_param {
    num_output: 64
    kernel_size: 1
    weight_filler {
      type: "xavier"
      std: 0.1
    }
    bias_filler {
      type: "constant"
      value: 0.2
    }
  }
}
layer {
  name: "inception_3b/relu_pool_proj"
  type: "ReLU"
  bottom: "inception_3b/pool_proj"
  top: "inception_3b/pool_proj"
}
layer {
  name: "inception_3b/output"
  type: "Concat"
  bottom: "inception_3b/1x1"
  bottom: "inception_3b/3x3"
  bottom: "inception_3b/5x5"
  bottom: "inception_3b/pool_proj"
  top: "inception_3b/output"
}
layer {
  name: "pool3/3x3_s2"
  type: "Pooling"
  bottom: "inception_3b/output"
  top: "pool3/3x3_s2"
  pooling_param {
    pool: MAX
    kernel_size: 3
    stride: 2
  }
}
layer {
  name: "inception_4a/1x1"
  type: "Convolution"
  bottom: "pool3/3x3_s2"
  top: "inception_4a/1x1"
  param {
    lr_mult: 1
    decay_mult: 1
  }
  param {
    lr_mult: 2
    decay_mult: 0
  }
  convolution_param {
    num_output: 192
    kernel_size: 1
    weight_filler {
      type: "xavier"
      std: 0.03
    }
    bias_filler {
      type: "constant"
      value: 0.2
    }
  }
}
layer {
  name: "inception_4a/relu_1x1"
  type: "ReLU"
  bottom: "inception_4a/1x1"
  top: "inception_4a/1x1"
}
layer {
  name: "inception_4a/3x3_reduce"
  type: "Convolution"
  bottom: "pool3/3x3_s2"
  top: "inception_4a/3x3_reduce"
  param {
    lr_mult: 1
    decay_mult: 1
  }
  param {
    lr_mult: 2
    decay_mult: 0
  }
  convolution_param {
    num_output: 96
    kernel_size: 1
    weight_filler {
      type: "xavier"
      std: 0.09
    }
    bias_filler {
      type: "constant"
      value: 0.2
    }
  }
}
layer {
  name: "inception_4a/relu_3x3_reduce"
  type: "ReLU"
  bottom: "inception_4a/3x3_reduce"
  top: "inception_4a/3x3_reduce"
}
layer {
  name: "inception_4a/3x3"
  type: "Convolution"
  bottom: "inception_4a/3x3_reduce"
  top: "inception_4a/3x3"
  param {
    lr_mult: 1
    decay_mult: 1
  }
  param {
    lr_mult: 2
    decay_mult: 0
  }
  convolution_param {
    num_output: 208
    pad: 1
    kernel_size: 3
    weight_filler {
      type: "xavier"
      std: 0.03
    }
    bias_filler {
      type: "constant"
      value: 0.2
    }
  }
}
layer {
  name: "inception_4a/relu_3x3"
  type: "ReLU"
  bottom: "inception_4a/3x3"
  top: "inception_4a/3x3"
}
layer {
  name: "inception_4a/5x5_reduce"
  type: "Convolution"
  bottom: "pool3/3x3_s2"
  top: "inception_4a/5x5_reduce"
  param {
    lr_mult: 1
    decay_mult: 1
  }
  param {
    lr_mult: 2
    decay_mult: 0
  }
  convolution_param {
    num_output: 16
    kernel_size: 1
    weight_filler {
      type: "xavier"
      std: 0.2
    }
    bias_filler {
      type: "constant"
      value: 0.2
    }
  }
}
layer {
  name: "inception_4a/relu_5x5_reduce"
  type: "ReLU"
  bottom: "inception_4a/5x5_reduce"
  top: "inception_4a/5x5_reduce"
}
layer {
  name: "inception_4a/5x5"
  type: "Convolution"
  bottom: "inception_4a/5x5_reduce"
  top: "inception_4a/5x5"
  param {
    lr_mult: 1
    decay_mult: 1
  }
  param {
    lr_mult: 2
    decay_mult: 0
  }
  convolution_param {
    num_output: 48
    pad: 2
    kernel_size: 5
    weight_filler {
      type: "xavier"
      std: 0.03
    }
    bias_filler {
      type: "constant"
      value: 0.2
    }
  }
}
layer {
  name: "inception_4a/relu_5x5"
  type: "ReLU"
  bottom: "inception_4a/5x5"
  top: "inception_4a/5x5"
}
layer {
  name: "inception_4a/pool"
  type: "Pooling"
  bottom: "pool3/3x3_s2"
  top: "inception_4a/pool"
  pooling_param {
    pool: MAX
    kernel_size: 3
    stride: 1
    pad: 1
  }
}
layer {
  name: "inception_4a/pool_proj"
  type: "Convolution"
  bottom: "inception_4a/pool"
  top: "inception_4a/pool_proj"
  param {
    lr_mult: 1
    decay_mult: 1
  }
  param {
    lr_mult: 2
    decay_mult: 0
  }
  convolution_param {
    num_output: 64
    kernel_size: 1
    weight_filler {
      type: "xavier"
      std: 0.1
    }
    bias_filler {
      type: "constant"
      value: 0.2
    }
  }
}
layer {
  name: "inception_4a/relu_pool_proj"
  type: "ReLU"
  bottom: "inception_4a/pool_proj"
  top: "inception_4a/pool_proj"
}
layer {
  name: "inception_4a/output"
  type: "Concat"
  bottom: "inception_4a/1x1"
  bottom: "inception_4a/3x3"
  bottom: "inception_4a/5x5"
  bottom: "inception_4a/pool_proj"
  top: "inception_4a/output"
}
layer {
  name: "loss1/ave_pool"
  type: "Pooling"
  bottom: "inception_4a/output"
  top: "loss1/ave_pool"
  pooling_param {
    pool: AVE
    kernel_size: 5
    stride: 3
  }
}
layer {
  name: "loss1/conv"
  type: "Convolution"
  bottom: "loss1/ave_pool"
  top: "loss1/conv"
  param {
    lr_mult: 1
    decay_mult: 1
  }
  param {
    lr_mult: 2
    decay_mult: 0
  }
  convolution_param {
    num_output: 128
    kernel_size: 1
    weight_filler {
      type: "xavier"
      std: 0.08
    }
    bias_filler {
      type: "constant"
      value: 0.2
    }
  }
}
layer {
  name: "loss1/relu_conv"
  type: "ReLU"
  bottom: "loss1/conv"
  top: "loss1/conv"
}
layer {
  name: "loss1/fc"
  type: "InnerProduct"
  bottom: "loss1/conv"
  top: "loss1/fc"
  param {
    lr_mult: 1
    decay_mult: 1
  }
  param {
    lr_mult: 2
    decay_mult: 0
  }
  inner_product_param {
    num_output: 1024
    weight_filler {
      type: "xavier"
      std: 0.02
    }
    bias_filler {
      type: "constant"
      value: 0.2
    }
  }
}
layer {
  name: "loss1/relu_fc"
  type: "ReLU"
  bottom: "loss1/fc"
  top: "loss1/fc"
}
layer {
  name: "loss1/drop_fc"
  type: "Dropout"
  bottom: "loss1/fc"
  top: "loss1/fc"
  dropout_param {
    dropout_ratio: 0.7
  }
}
layer {
  name: "loss1/classifier_plantvillage"
  type: "InnerProduct"
  bottom: "loss1/fc"
  top: "loss1/classifier_plantvillage"
  param {
    lr_mult: 1
    decay_mult: 1
  }
  param {
    lr_mult: 2
    decay_mult: 0
  }
  inner_product_param {
    num_output: 38
    weight_filler {
      type: "xavier"
      std: 0.0009765625
    }
    bias_filler {
      type: "constant"
      value: 0
    }
  }
}
layer {
  name: "inception_4b/1x1"
  type: "Convolution"
  bottom: "inception_4a/output"
  top: "inception_4b/1x1"
  param {
    lr_mult: 1
    decay_mult: 1
  }
  param {
    lr_mult: 2
    decay_mult: 0
  }
  convolution_param {
    num_output: 160
    kernel_size: 1
    weight_filler {
      type: "xavier"
      std: 0.03
    }
    bias_filler {
      type: "constant"
      value: 0.2
    }
  }
}
layer {
  name: "inception_4b/relu_1x1"
  type: "ReLU"
  bottom: "inception_4b/1x1"
  top: "inception_4b/1x1"
}
layer {
  name: "inception_4b/3x3_reduce"
  type: "Convolution"
  bottom: "inception_4a/output"
  top: "inception_4b/3x3_reduce"
  param {
    lr_mult: 1
    decay_mult: 1
  }
  param {
    lr_mult: 2
    decay_mult: 0
  }
  convolution_param {
    num_output: 112
    kernel_size: 1
    weight_filler {
      type: "xavier"
      std: 0.09
    }
    bias_filler {
      type: "constant"
      value: 0.2
    }
  }
}
layer {
  name: "inception_4b/relu_3x3_reduce"
  type: "ReLU"
  bottom: "inception_4b/3x3_reduce"
  top: "inception_4b/3x3_reduce"
}
layer {
  name: "inception_4b/3x3"
  type: "Convolution"
  bottom: "inception_4b/3x3_reduce"
  top: "inception_4b/3x3"
  param {
    lr_mult: 1
    decay_mult: 1
  }
  param {
    lr_mult: 2
    decay_mult: 0
  }
  convolution_param {
    num_output: 224
    pad: 1
    kernel_size: 3
    weight_filler {
      type: "xavier"
      std: 0.03
    }
    bias_filler {
      type: "constant"
      value: 0.2
    }
  }
}
layer {
  name: "inception_4b/relu_3x3"
  type: "ReLU"
  bottom: "inception_4b/3x3"
  top: "inception_4b/3x3"
}
layer {
  name: "inception_4b/5x5_reduce"
  type: "Convolution"
  bottom: "inception_4a/output"
  top: "inception_4b/5x5_reduce"
  param {
    lr_mult: 1
    decay_mult: 1
  }
  param {
    lr_mult: 2
    decay_mult: 0
  }
  convolution_param {
    num_output: 24
    kernel_size: 1
    weight_filler {
      type: "xavier"
      std: 0.2
    }
    bias_filler {
      type: "constant"
      value: 0.2
    }
  }
}
layer {
  name: "inception_4b/relu_5x5_reduce"
  type: "ReLU"
  bottom: "inception_4b/5x5_reduce"
  top: "inception_4b/5x5_reduce"
}
layer {
  name: "inception_4b/5x5"
  type: "Convolution"
  bottom: "inception_4b/5x5_reduce"
  top: "inception_4b/5x5"
  param {
    lr_mult: 1
    decay_mult: 1
  }
  param {
    lr_mult: 2
    decay_mult: 0
  }
  convolution_param {
    num_output: 64
    pad: 2
    kernel_size: 5
    weight_filler {
      type: "xavier"
      std: 0.03
    }
    bias_filler {
      type: "constant"
      value: 0.2
    }
  }
}
layer {
  name: "inception_4b/relu_5x5"
  type: "ReLU"
  bottom: "inception_4b/5x5"
  top: "inception_4b/5x5"
}
layer {
  name: "inception_4b/pool"
  type: "Pooling"
  bottom: "inception_4a/output"
  top: "inception_4b/pool"
  pooling_param {
    pool: MAX
    kernel_size: 3
    stride: 1
    pad: 1
  }
}
layer {
  name: "inception_4b/pool_proj"
  type: "Convolution"
  bottom: "inception_4b/pool"
  top: "inception_4b/pool_proj"
  param {
    lr_mult: 1
    decay_mult: 1
  }
  param {
    lr_mult: 2
    decay_mult: 0
  }
  convolution_param {
    num_output: 64
    kernel_size: 1
    weight_filler {
      type: "xavier"
      std: 0.1
    }
    bias_filler {
      type: "constant"
      value: 0.2
    }
  }
}
layer {
  name: "inception_4b/relu_pool_proj"
  type: "ReLU"
  bottom: "inception_4b/pool_proj"
  top: "inception_4b/pool_proj"
}
layer {
  name: "inception_4b/output"
  type: "Concat"
  bottom: "inception_4b/1x1"
  bottom: "inception_4b/3x3"
  bottom: "inception_4b/5x5"
  bottom: "inception_4b/pool_proj"
  top: "inception_4b/output"
}
layer {
  name: "inception_4c/1x1"
  type: "Convolution"
  bottom: "inception_4b/output"
  top: "inception_4c/1x1"
  param {
    lr_mult: 1
    decay_mult: 1
  }
  param {
    lr_mult: 2
    decay_mult: 0
  }
  convolution_param {
    num_output: 128
    kernel_size: 1
    weight_filler {
      type: "xavier"
      std: 0.03
    }
    bias_filler {
      type: "constant"
      value: 0.2
    }
  }
}
layer {
  name: "inception_4c/relu_1x1"
  type: "ReLU"
  bottom: "inception_4c/1x1"
  top: "inception_4c/1x1"
}
layer {
  name: "inception_4c/3x3_reduce"
  type: "Convolution"
  bottom: "inception_4b/output"
  top: "inception_4c/3x3_reduce"
  param {
    lr_mult: 1
    decay_mult: 1
  }
  param {
    lr_mult: 2
    decay_mult: 0
  }
  convolution_param {
    num_output: 128
    kernel_size: 1
    weight_filler {
      type: "xavier"
      std: 0.09
    }
    bias_filler {
      type: "constant"
      value: 0.2
    }
  }
}
layer {
  name: "inception_4c/relu_3x3_reduce"
  type: "ReLU"
  bottom: "inception_4c/3x3_reduce"
  top: "inception_4c/3x3_reduce"
}
layer {
  name: "inception_4c/3x3"
  type: "Convolution"
  bottom: "inception_4c/3x3_reduce"
  top: "inception_4c/3x3"
  param {
    lr_mult: 1
    decay_mult: 1
  }
  param {
    lr_mult: 2
    decay_mult: 0
  }
  convolution_param {
    num_output: 256
    pad: 1
    kernel_size: 3
    weight_filler {
      type: "xavier"
      std: 0.03
    }
    bias_filler {
      type: "constant"
      value: 0.2
    }
  }
}
layer {
  name: "inception_4c/relu_3x3"
  type: "ReLU"
  bottom: "inception_4c/3x3"
  top: "inception_4c/3x3"
}
layer {
  name: "inception_4c/5x5_reduce"
  type: "Convolution"
  bottom: "inception_4b/output"
  top: "inception_4c/5x5_reduce"
  param {
    lr_mult: 1
    decay_mult: 1
  }
  param {
    lr_mult: 2
    decay_mult: 0
  }
  convolution_param {
    num_output: 24
    kernel_size: 1
    weight_filler {
      type: "xavier"
      std: 0.2
    }
    bias_filler {
      type: "constant"
      value: 0.2
    }
  }
}
layer {
  name: "inception_4c/relu_5x5_reduce"
  type: "ReLU"
  bottom: "inception_4c/5x5_reduce"
  top: "inception_4c/5x5_reduce"
}
layer {
  name: "inception_4c/5x5"
  type: "Convolution"
  bottom: "inception_4c/5x5_reduce"
  top: "inception_4c/5x5"
  param {
    lr_mult: 1
    decay_mult: 1
  }
  param {
    lr_mult: 2
    decay_mult: 0
  }
  convolution_param {
    num_output: 64
    pad: 2
    kernel_size: 5
    weight_filler {
      type: "xavier"
      std: 0.03
    }
    bias_filler {
      type: "constant"
      value: 0.2
    }
  }
}
layer {
  name: "inception_4c/relu_5x5"
  type: "ReLU"
  bottom: "inception_4c/5x5"
  top: "inception_4c/5x5"
}
layer {
  name: "inception_4c/pool"
  type: "Pooling"
  bottom: "inception_4b/output"
  top: "inception_4c/pool"
  pooling_param {
    pool: MAX
    kernel_size: 3
    stride: 1
    pad: 1
  }
}
layer {
  name: "inception_4c/pool_proj"
  type: "Convolution"
  bottom: "inception_4c/pool"
  top: "inception_4c/pool_proj"
  param {
    lr_mult: 1
    decay_mult: 1
  }
  param {
    lr_mult: 2
    decay_mult: 0
  }
  convolution_param {
    num_output: 64
    kernel_size: 1
    weight_filler {
      type: "xavier"
      std: 0.1
    }
    bias_filler {
      type: "constant"
      value: 0.2
    }
  }
}
layer {
  name: "inception_4c/relu_pool_proj"
  type: "ReLU"
  bottom: "inception_4c/pool_proj"
  top: "inception_4c/pool_proj"
}
layer {
  name: "inception_4c/output"
  type: "Concat"
  bottom: "inception_4c/1x1"
  bottom: "inception_4c/3x3"
  bottom: "inception_4c/5x5"
  bottom: "inception_4c/pool_proj"
  top: "inception_4c/output"
}
layer {
  name: "inception_4d/1x1"
  type: "Convolution"
  bottom: "inception_4c/output"
  top: "inception_4d/1x1"
  param {
    lr_mult: 1
    decay_mult: 1
  }
  param {
    lr_mult: 2
    decay_mult: 0
  }
  convolution_param {
    num_output: 112
    kernel_size: 1
    weight_filler {
      type: "xavier"
      std: 0.03
    }
    bias_filler {
      type: "constant"
      value: 0.2
    }
  }
}
layer {
  name: "inception_4d/relu_1x1"
  type: "ReLU"
  bottom: "inception_4d/1x1"
  top: "inception_4d/1x1"
}
layer {
  name: "inception_4d/3x3_reduce"
  type: "Convolution"
  bottom: "inception_4c/output"
  top: "inception_4d/3x3_reduce"
  param {
    lr_mult: 1
    decay_mult: 1
  }
  param {
    lr_mult: 2
    decay_mult: 0
  }
  convolution_param {
    num_output: 144
    kernel_size: 1
    weight_filler {
      type: "xavier"
      std: 0.09
    }
    bias_filler {
      type: "constant"
      value: 0.2
    }
  }
}
layer {
  name: "inception_4d/relu_3x3_reduce"
  type: "ReLU"
  bottom: "inception_4d/3x3_reduce"
  top: "inception_4d/3x3_reduce"
}
layer {
  name: "inception_4d/3x3"
  type: "Convolution"
  bottom: "inception_4d/3x3_reduce"
  top: "inception_4d/3x3"
  param {
    lr_mult: 1
    decay_mult: 1
  }
  param {
    lr_mult: 2
    decay_mult: 0
  }
  convolution_param {
    num_output: 288
    pad: 1
    kernel_size: 3
    weight_filler {
      type: "xavier"
      std: 0.03
    }
    bias_filler {
      type: "constant"
      value: 0.2
    }
  }
}
layer {
  name: "inception_4d/relu_3x3"
  type: "ReLU"
  bottom: "inception_4d/3x3"
  top: "inception_4d/3x3"
}
layer {
  name: "inception_4d/5x5_reduce"
  type: "Convolution"
  bottom: "inception_4c/output"
  top: "inception_4d/5x5_reduce"
  param {
    lr_mult: 1
    decay_mult: 1
  }
  param {
    lr_mult: 2
    decay_mult: 0
  }
  convolution_param {
    num_output: 32
    kernel_size: 1
    weight_filler {
      type: "xavier"
      std: 0.2
    }
    bias_filler {
      type: "constant"
      value: 0.2
    }
  }
}
layer {
  name: "inception_4d/relu_5x5_reduce"
  type: "ReLU"
  bottom: "inception_4d/5x5_reduce"
  top: "inception_4d/5x5_reduce"
}
layer {
  name: "inception_4d/5x5"
  type: "Convolution"
  bottom: "inception_4d/5x5_reduce"
  top: "inception_4d/5x5"
  param {
    lr_mult: 1
    decay_mult: 1
  }
  param {
    lr_mult: 2
    decay_mult: 0
  }
  convolution_param {
    num_output: 64
    pad: 2
    kernel_size: 5
    weight_filler {
      type: "xavier"
      std: 0.03
    }
    bias_filler {
      type: "constant"
      value: 0.2
    }
  }
}
layer {
  name: "inception_4d/relu_5x5"
  type: "ReLU"
  bottom: "inception_4d/5x5"
  top: "inception_4d/5x5"
}
layer {
  name: "inception_4d/pool"
  type: "Pooling"
  bottom: "inception_4c/output"
  top: "inception_4d/pool"
  pooling_param {
    pool: MAX
    kernel_size: 3
    stride: 1
    pad: 1
  }
}
layer {
  name: "inception_4d/pool_proj"
  type: "Convolution"
  bottom: "inception_4d/pool"
  top: "inception_4d/pool_proj"
  param {
    lr_mult: 1
    decay_mult: 1
  }
  param {
    lr_mult: 2
    decay_mult: 0
  }
  convolution_param {
    num_output: 64
    kernel_size: 1
    weight_filler {
      type: "xavier"
      std: 0.1
    }
    bias_filler {
      type: "constant"
      value: 0.2
    }
  }
}
layer {
  name: "inception_4d/relu_pool_proj"
  type: "ReLU"
  bottom: "inception_4d/pool_proj"
  top: "inception_4d/pool_proj"
}
layer {
  name: "inception_4d/output"
  type: "Concat"
  bottom: "inception_4d/1x1"
  bottom: "inception_4d/3x3"
  bottom: "inception_4d/5x5"
  bottom: "inception_4d/pool_proj"
  top: "inception_4d/output"
}
layer {
  name: "loss2/ave_pool"
  type: "Pooling"
  bottom: "inception_4d/output"
  top: "loss2/ave_pool"
  pooling_param {
    pool: AVE
    kernel_size: 5
    stride: 3
  }
}
layer {
  name: "loss2/conv"
  type: "Convolution"
  bottom: "loss2/ave_pool"
  top: "loss2/conv"
  param {
    lr_mult: 1
    decay_mult: 1
  }
  param {
    lr_mult: 2
    decay_mult: 0
  }
  convolution_param {
    num_output: 128
    kernel_size: 1
    weight_filler {
      type: "xavier"
      std: 0.08
    }
    bias_filler {
      type: "constant"
      value: 0.2
    }
  }
}
layer {
  name: "loss2/relu_conv"
  type: "ReLU"
  bottom: "loss2/conv"
  top: "loss2/conv"
}
layer {
  name: "loss2/fc"
  type: "InnerProduct"
  bottom: "loss2/conv"
  top: "loss2/fc"
  param {
    lr_mult: 1
    decay_mult: 1
  }
  param {
    lr_mult: 2
    decay_mult: 0
  }
  inner_product_param {
    num_output: 1024
    weight_filler {
      type: "xavier"
      std: 0.02
    }
    bias_filler {
      type: "constant"
      value: 0.2
    }
  }
}
layer {
  name: "loss2/relu_fc"
  type: "ReLU"
  bottom: "loss2/fc"
  top: "loss2/fc"
}
layer {
  name: "loss2/drop_fc"
  type: "Dropout"
  bottom: "loss2/fc"
  top: "loss2/fc"
  dropout_param {
    dropout_ratio: 0.7
  }
}
layer {
  name: "loss2/classifier_plantvillage"
  type: "InnerProduct"
  bottom: "loss2/fc"
  top: "loss2/classifier_plantvillage"
  param {
    lr_mult: 1
    decay_mult: 1
  }
  param {
    lr_mult: 2
    decay_mult: 0
  }
  inner_product_param {
    num_output: 38
    weight_filler {
      type: "xavier"
      std: 0.0009765625
    }
    bias_filler {
      type: "constant"
      value: 0
    }
  }
}
layer {
  name: "inception_4e/1x1"
  type: "Convolution"
  bottom: "inception_4d/output"
  top: "inception_4e/1x1"
  param {
    lr_mult: 1
    decay_mult: 1
  }
  param {
    lr_mult: 2
    decay_mult: 0
  }
  convolution_param {
    num_output: 256
    kernel_size: 1
    weight_filler {
      type: "xavier"
      std: 0.03
    }
    bias_filler {
      type: "constant"
      value: 0.2
    }
  }
}
layer {
  name: "inception_4e/relu_1x1"
  type: "ReLU"
  bottom: "inception_4e/1x1"
  top: "inception_4e/1x1"
}
layer {
  name: "inception_4e/3x3_reduce"
  type: "Convolution"
  bottom: "inception_4d/output"
  top: "inception_4e/3x3_reduce"
  param {
    lr_mult: 1
    decay_mult: 1
  }
  param {
    lr_mult: 2
    decay_mult: 0
  }
  convolution_param {
    num_output: 160
    kernel_size: 1
    weight_filler {
      type: "xavier"
      std: 0.09
    }
    bias_filler {
      type: "constant"
      value: 0.2
    }
  }
}
layer {
  name: "inception_4e/relu_3x3_reduce"
  type: "ReLU"
  bottom: "inception_4e/3x3_reduce"
  top: "inception_4e/3x3_reduce"
}
layer {
  name: "inception_4e/3x3"
  type: "Convolution"
  bottom: "inception_4e/3x3_reduce"
  top: "inception_4e/3x3"
  param {
    lr_mult: 1
    decay_mult: 1
  }
  param {
    lr_mult: 2
    decay_mult: 0
  }
  convolution_param {
    num_output: 320
    pad: 1
    kernel_size: 3
    weight_filler {
      type: "xavier"
      std: 0.03
    }
    bias_filler {
      type: "constant"
      value: 0.2
    }
  }
}
layer {
  name: "inception_4e/relu_3x3"
  type: "ReLU"
  bottom: "inception_4e/3x3"
  top: "inception_4e/3x3"
}
layer {
  name: "inception_4e/5x5_reduce"
  type: "Convolution"
  bottom: "inception_4d/output"
  top: "inception_4e/5x5_reduce"
  param {
    lr_mult: 1
    decay_mult: 1
  }
  param {
    lr_mult: 2
    decay_mult: 0
  }
  convolution_param {
    num_output: 32
    kernel_size: 1
    weight_filler {
      type: "xavier"
      std: 0.2
    }
    bias_filler {
      type: "constant"
      value: 0.2
    }
  }
}
layer {
  name: "inception_4e/relu_5x5_reduce"
  type: "ReLU"
  bottom: "inception_4e/5x5_reduce"
  top: "inception_4e/5x5_reduce"
}
layer {
  name: "inception_4e/5x5"
  type: "Convolution"
  bottom: "inception_4e/5x5_reduce"
  top: "inception_4e/
I0403 18:14:12.311566 16667 layer_factory.hpp:77] Creating layer data
I0403 18:14:12.312185 16667 net.cpp:91] Creating Layer data
I0403 18:14:12.312216 16667 net.cpp:399] data -> data
I0403 18:14:12.312270 16667 net.cpp:399] data -> label
I0403 18:14:12.312309 16667 data_transformer.cpp:25] Loading mean file from: /home/mohanty/data/final_dataset/lmdb/grayscale-60-40/mean.binaryproto
I0403 18:14:12.313508 16670 db_lmdb.cpp:38] Opened lmdb /home/mohanty/data/final_dataset/lmdb/grayscale-60-40/test_db
I0403 18:14:12.325688 16667 data_layer.cpp:41] output data size: 24,3,224,224
I0403 18:14:12.352845 16667 net.cpp:141] Setting up data
I0403 18:14:12.352923 16667 net.cpp:148] Top shape: 24 3 224 224 (3612672)
I0403 18:14:12.352947 16667 net.cpp:148] Top shape: 24 (24)
I0403 18:14:12.352965 16667 net.cpp:156] Memory required for data: 14450784
I0403 18:14:12.352999 16667 layer_factory.hpp:77] Creating layer label_data_1_split
I0403 18:14:12.353029 16667 net.cpp:91] Creating Layer label_data_1_split
I0403 18:14:12.353049 16667 net.cpp:425] label_data_1_split <- label
I0403 18:14:12.353081 16667 net.cpp:399] label_data_1_split -> label_data_1_split_0
I0403 18:14:12.353112 16667 net.cpp:399] label_data_1_split -> label_data_1_split_1
I0403 18:14:12.353134 16667 net.cpp:399] label_data_1_split -> label_data_1_split_2
I0403 18:14:12.353157 16667 net.cpp:399] label_data_1_split -> label_data_1_split_3
I0403 18:14:12.353178 16667 net.cpp:399] label_data_1_split -> label_data_1_split_4
I0403 18:14:12.353199 16667 net.cpp:399] label_data_1_split -> label_data_1_split_5
I0403 18:14:12.353219 16667 net.cpp:399] label_data_1_split -> label_data_1_split_6
I0403 18:14:12.353240 16667 net.cpp:399] label_data_1_split -> label_data_1_split_7
I0403 18:14:12.353260 16667 net.cpp:399] label_data_1_split -> label_data_1_split_8
I0403 18:14:12.353281 16667 net.cpp:399] label_data_1_split -> label_data_1_split_9
I0403 18:14:12.353404 16667 net.cpp:141] Setting up label_data_1_split
I0403 18:14:12.353428 16667 net.cpp:148] Top shape: 24 (24)
I0403 18:14:12.353446 16667 net.cpp:148] Top shape: 24 (24)
I0403 18:14:12.353463 16667 net.cpp:148] Top shape: 24 (24)
I0403 18:14:12.353480 16667 net.cpp:148] Top shape: 24 (24)
I0403 18:14:12.353497 16667 net.cpp:148] Top shape: 24 (24)
I0403 18:14:12.353514 16667 net.cpp:148] Top shape: 24 (24)
I0403 18:14:12.353530 16667 net.cpp:148] Top shape: 24 (24)
I0403 18:14:12.353548 16667 net.cpp:148] Top shape: 24 (24)
I0403 18:14:12.353564 16667 net.cpp:148] Top shape: 24 (24)
I0403 18:14:12.353580 16667 net.cpp:148] Top shape: 24 (24)
I0403 18:14:12.353626 16667 net.cpp:156] Memory required for data: 14451744
I0403 18:14:12.353642 16667 layer_factory.hpp:77] Creating layer conv1/7x7_s2
I0403 18:14:12.353675 16667 net.cpp:91] Creating Layer conv1/7x7_s2
I0403 18:14:12.353695 16667 net.cpp:425] conv1/7x7_s2 <- data
I0403 18:14:12.353715 16667 net.cpp:399] conv1/7x7_s2 -> conv1/7x7_s2
I0403 18:14:12.492820 16667 net.cpp:141] Setting up conv1/7x7_s2
I0403 18:14:12.492908 16667 net.cpp:148] Top shape: 24 64 112 112 (19267584)
I0403 18:14:12.492928 16667 net.cpp:156] Memory required for data: 91522080
I0403 18:14:12.492964 16667 layer_factory.hpp:77] Creating layer conv1/relu_7x7
I0403 18:14:12.492991 16667 net.cpp:91] Creating Layer conv1/relu_7x7
I0403 18:14:12.493011 16667 net.cpp:425] conv1/relu_7x7 <- conv1/7x7_s2
I0403 18:14:12.493031 16667 net.cpp:386] conv1/relu_7x7 -> conv1/7x7_s2 (in-place)
I0403 18:14:12.493289 16667 net.cpp:141] Setting up conv1/relu_7x7
I0403 18:14:12.493316 16667 net.cpp:148] Top shape: 24 64 112 112 (19267584)
I0403 18:14:12.493332 16667 net.cpp:156] Memory required for data: 168592416
I0403 18:14:12.493348 16667 layer_factory.hpp:77] Creating layer pool1/3x3_s2
I0403 18:14:12.493374 16667 net.cpp:91] Creating Layer pool1/3x3_s2
I0403 18:14:12.493392 16667 net.cpp:425] pool1/3x3_s2 <- conv1/7x7_s2
I0403 18:14:12.493412 16667 net.cpp:399] pool1/3x3_s2 -> pool1/3x3_s2
I0403 18:14:12.493487 16667 net.cpp:141] Setting up pool1/3x3_s2
I0403 18:14:12.493512 16667 net.cpp:148] Top shape: 24 64 56 56 (4816896)
I0403 18:14:12.493527 16667 net.cpp:156] Memory required for data: 187860000
I0403 18:14:12.493543 16667 layer_factory.hpp:77] Creating layer pool1/norm1
I0403 18:14:12.493568 16667 net.cpp:91] Creating Layer pool1/norm1
I0403 18:14:12.493587 16667 net.cpp:425] pool1/norm1 <- pool1/3x3_s2
I0403 18:14:12.493605 16667 net.cpp:399] pool1/norm1 -> pool1/norm1
I0403 18:14:12.493906 16667 net.cpp:141] Setting up pool1/norm1
I0403 18:14:12.493937 16667 net.cpp:148] Top shape: 24 64 56 56 (4816896)
I0403 18:14:12.493958 16667 net.cpp:156] Memory required for data: 207127584
I0403 18:14:12.493975 16667 layer_factory.hpp:77] Creating layer conv2/3x3_reduce
I0403 18:14:12.494000 16667 net.cpp:91] Creating Layer conv2/3x3_reduce
I0403 18:14:12.494017 16667 net.cpp:425] conv2/3x3_reduce <- pool1/norm1
I0403 18:14:12.494036 16667 net.cpp:399] conv2/3x3_reduce -> conv2/3x3_reduce
I0403 18:14:12.495369 16667 net.cpp:141] Setting up conv2/3x3_reduce
I0403 18:14:12.495399 16667 net.cpp:148] Top shape: 24 64 56 56 (4816896)
I0403 18:14:12.495415 16667 net.cpp:156] Memory required for data: 226395168
I0403 18:14:12.495437 16667 layer_factory.hpp:77] Creating layer conv2/relu_3x3_reduce
I0403 18:14:12.495456 16667 net.cpp:91] Creating Layer conv2/relu_3x3_reduce
I0403 18:14:12.495473 16667 net.cpp:425] conv2/relu_3x3_reduce <- conv2/3x3_reduce
I0403 18:14:12.495491 16667 net.cpp:386] conv2/relu_3x3_reduce -> conv2/3x3_reduce (in-place)
I0403 18:14:12.495770 16667 net.cpp:141] Setting up conv2/relu_3x3_reduce
I0403 18:14:12.495800 16667 net.cpp:148] Top shape: 24 64 56 56 (4816896)
I0403 18:14:12.495815 16667 net.cpp:156] Memory required for data: 245662752
I0403 18:14:12.495831 16667 layer_factory.hpp:77] Creating layer conv2/3x3
I0403 18:14:12.495856 16667 net.cpp:91] Creating Layer conv2/3x3
I0403 18:14:12.495873 16667 net.cpp:425] conv2/3x3 <- conv2/3x3_reduce
I0403 18:14:12.495895 16667 net.cpp:399] conv2/3x3 -> conv2/3x3
I0403 18:14:12.498280 16667 net.cpp:141] Setting up conv2/3x3
I0403 18:14:12.498312 16667 net.cpp:148] Top shape: 24 192 56 56 (14450688)
I0403 18:14:12.498332 16667 net.cpp:156] Memory required for data: 303465504
I0403 18:14:12.498353 16667 layer_factory.hpp:77] Creating layer conv2/relu_3x3
I0403 18:14:12.498371 16667 net.cpp:91] Creating Layer conv2/relu_3x3
I0403 18:14:12.498389 16667 net.cpp:425] conv2/relu_3x3 <- conv2/3x3
I0403 18:14:12.498409 16667 net.cpp:386] conv2/relu_3x3 -> conv2/3x3 (in-place)
I0403 18:14:12.498591 16667 net.cpp:141] Setting up conv2/relu_3x3
I0403 18:14:12.498617 16667 net.cpp:148] Top shape: 24 192 56 56 (14450688)
I0403 18:14:12.498672 16667 net.cpp:156] Memory required for data: 361268256
I0403 18:14:12.498688 16667 layer_factory.hpp:77] Creating layer conv2/norm2
I0403 18:14:12.498710 16667 net.cpp:91] Creating Layer conv2/norm2
I0403 18:14:12.498728 16667 net.cpp:425] conv2/norm2 <- conv2/3x3
I0403 18:14:12.498750 16667 net.cpp:399] conv2/norm2 -> conv2/norm2
I0403 18:14:12.499068 16667 net.cpp:141] Setting up conv2/norm2
I0403 18:14:12.499097 16667 net.cpp:148] Top shape: 24 192 56 56 (14450688)
I0403 18:14:12.499114 16667 net.cpp:156] Memory required for data: 419071008
I0403 18:14:12.499130 16667 layer_factory.hpp:77] Creating layer pool2/3x3_s2
I0403 18:14:12.499150 16667 net.cpp:91] Creating Layer pool2/3x3_s2
I0403 18:14:12.499166 16667 net.cpp:425] pool2/3x3_s2 <- conv2/norm2
I0403 18:14:12.499197 16667 net.cpp:399] pool2/3x3_s2 -> pool2/3x3_s2
I0403 18:14:12.499264 16667 net.cpp:141] Setting up pool2/3x3_s2
I0403 18:14:12.499287 16667 net.cpp:148] Top shape: 24 192 28 28 (3612672)
I0403 18:14:12.499302 16667 net.cpp:156] Memory required for data: 433521696
I0403 18:14:12.499317 16667 layer_factory.hpp:77] Creating layer pool2/3x3_s2_pool2/3x3_s2_0_split
I0403 18:14:12.499338 16667 net.cpp:91] Creating Layer pool2/3x3_s2_pool2/3x3_s2_0_split
I0403 18:14:12.499356 16667 net.cpp:425] pool2/3x3_s2_pool2/3x3_s2_0_split <- pool2/3x3_s2
I0403 18:14:12.499372 16667 net.cpp:399] pool2/3x3_s2_pool2/3x3_s2_0_split -> pool2/3x3_s2_pool2/3x3_s2_0_split_0
I0403 18:14:12.499392 16667 net.cpp:399] pool2/3x3_s2_pool2/3x3_s2_0_split -> pool2/3x3_s2_pool2/3x3_s2_0_split_1
I0403 18:14:12.499413 16667 net.cpp:399] pool2/3x3_s2_pool2/3x3_s2_0_split -> pool2/3x3_s2_pool2/3x3_s2_0_split_2
I0403 18:14:12.499435 16667 net.cpp:399] pool2/3x3_s2_pool2/3x3_s2_0_split -> pool2/3x3_s2_pool2/3x3_s2_0_split_3
I0403 18:14:12.499510 16667 net.cpp:141] Setting up pool2/3x3_s2_pool2/3x3_s2_0_split
I0403 18:14:12.499532 16667 net.cpp:148] Top shape: 24 192 28 28 (3612672)
I0403 18:14:12.499550 16667 net.cpp:148] Top shape: 24 192 28 28 (3612672)
I0403 18:14:12.499567 16667 net.cpp:148] Top shape: 24 192 28 28 (3612672)
I0403 18:14:12.499582 16667 net.cpp:148] Top shape: 24 192 28 28 (3612672)
I0403 18:14:12.499596 16667 net.cpp:156] Memory required for data: 491324448
I0403 18:14:12.499610 16667 layer_factory.hpp:77] Creating layer inception_3a/1x1
I0403 18:14:12.499634 16667 net.cpp:91] Creating Layer inception_3a/1x1
I0403 18:14:12.499651 16667 net.cpp:425] inception_3a/1x1 <- pool2/3x3_s2_pool2/3x3_s2_0_split_0
I0403 18:14:12.499676 16667 net.cpp:399] inception_3a/1x1 -> inception_3a/1x1
I0403 18:14:12.501235 16667 net.cpp:141] Setting up inception_3a/1x1
I0403 18:14:12.501266 16667 net.cpp:148] Top shape: 24 64 28 28 (1204224)
I0403 18:14:12.501282 16667 net.cpp:156] Memory required for data: 496141344
I0403 18:14:12.501302 16667 layer_factory.hpp:77] Creating layer inception_3a/relu_1x1
I0403 18:14:12.501319 16667 net.cpp:91] Creating Layer inception_3a/relu_1x1
I0403 18:14:12.501337 16667 net.cpp:425] inception_3a/relu_1x1 <- inception_3a/1x1
I0403 18:14:12.501356 16667 net.cpp:386] inception_3a/relu_1x1 -> inception_3a/1x1 (in-place)
I0403 18:14:12.501534 16667 net.cpp:141] Setting up inception_3a/relu_1x1
I0403 18:14:12.501559 16667 net.cpp:148] Top shape: 24 64 28 28 (1204224)
I0403 18:14:12.501574 16667 net.cpp:156] Memory required for data: 500958240
I0403 18:14:12.501590 16667 layer_factory.hpp:77] Creating layer inception_3a/3x3_reduce
I0403 18:14:12.501612 16667 net.cpp:91] Creating Layer inception_3a/3x3_reduce
I0403 18:14:12.501631 16667 net.cpp:425] inception_3a/3x3_reduce <- pool2/3x3_s2_pool2/3x3_s2_0_split_1
I0403 18:14:12.501652 16667 net.cpp:399] inception_3a/3x3_reduce -> inception_3a/3x3_reduce
I0403 18:14:12.503379 16667 net.cpp:141] Setting up inception_3a/3x3_reduce
I0403 18:14:12.503413 16667 net.cpp:148] Top shape: 24 96 28 28 (1806336)
I0403 18:14:12.503430 16667 net.cpp:156] Memory required for data: 508183584
I0403 18:14:12.503453 16667 layer_factory.hpp:77] Creating layer inception_3a/relu_3x3_reduce
I0403 18:14:12.503491 16667 net.cpp:91] Creating Layer inception_3a/relu_3x3_reduce
I0403 18:14:12.503510 16667 net.cpp:425] inception_3a/relu_3x3_reduce <- inception_3a/3x3_reduce
I0403 18:14:12.503528 16667 net.cpp:386] inception_3a/relu_3x3_reduce -> inception_3a/3x3_reduce (in-place)
I0403 18:14:12.503712 16667 net.cpp:141] Setting up inception_3a/relu_3x3_reduce
I0403 18:14:12.503741 16667 net.cpp:148] Top shape: 24 96 28 28 (1806336)
I0403 18:14:12.503757 16667 net.cpp:156] Memory required for data: 515408928
I0403 18:14:12.503772 16667 layer_factory.hpp:77] Creating layer inception_3a/3x3
I0403 18:14:12.503798 16667 net.cpp:91] Creating Layer inception_3a/3x3
I0403 18:14:12.503815 16667 net.cpp:425] inception_3a/3x3 <- inception_3a/3x3_reduce
I0403 18:14:12.503834 16667 net.cpp:399] inception_3a/3x3 -> inception_3a/3x3
I0403 18:14:12.505537 16667 net.cpp:141] Setting up inception_3a/3x3
I0403 18:14:12.505568 16667 net.cpp:148] Top shape: 24 128 28 28 (2408448)
I0403 18:14:12.505584 16667 net.cpp:156] Memory required for data: 525042720
I0403 18:14:12.505604 16667 layer_factory.hpp:77] Creating layer inception_3a/relu_3x3
I0403 18:14:12.505622 16667 net.cpp:91] Creating Layer inception_3a/relu_3x3
I0403 18:14:12.505640 16667 net.cpp:425] inception_3a/relu_3x3 <- inception_3a/3x3
I0403 18:14:12.505661 16667 net.cpp:386] inception_3a/relu_3x3 -> inception_3a/3x3 (in-place)
I0403 18:14:12.505944 16667 net.cpp:141] Setting up inception_3a/relu_3x3
I0403 18:14:12.505975 16667 net.cpp:148] Top shape: 24 128 28 28 (2408448)
I0403 18:14:12.505990 16667 net.cpp:156] Memory required for data: 534676512
I0403 18:14:12.506006 16667 layer_factory.hpp:77] Creating layer inception_3a/5x5_reduce
I0403 18:14:12.506029 16667 net.cpp:91] Creating Layer inception_3a/5x5_reduce
I0403 18:14:12.506047 16667 net.cpp:425] inception_3a/5x5_reduce <- pool2/3x3_s2_pool2/3x3_s2_0_split_2
I0403 18:14:12.506069 16667 net.cpp:399] inception_3a/5x5_reduce -> inception_3a/5x5_reduce
I0403 18:14:12.507139 16667 net.cpp:141] Setting up inception_3a/5x5_reduce
I0403 18:14:12.507171 16667 net.cpp:148] Top shape: 24 16 28 28 (301056)
I0403 18:14:12.507190 16667 net.cpp:156] Memory required for data: 535880736
I0403 18:14:12.507210 16667 layer_factory.hpp:77] Creating layer inception_3a/relu_5x5_reduce
I0403 18:14:12.507232 16667 net.cpp:91] Creating Layer inception_3a/relu_5x5_reduce
I0403 18:14:12.507252 16667 net.cpp:425] inception_3a/relu_5x5_reduce <- inception_3a/5x5_reduce
I0403 18:14:12.507272 16667 net.cpp:386] inception_3a/relu_5x5_reduce -> inception_3a/5x5_reduce (in-place)
I0403 18:14:12.507591 16667 net.cpp:141] Setting up inception_3a/relu_5x5_reduce
I0403 18:14:12.507619 16667 net.cpp:148] Top shape: 24 16 28 28 (301056)
I0403 18:14:12.507637 16667 net.cpp:156] Memory required for data: 537084960
I0403 18:14:12.507652 16667 layer_factory.hpp:77] Creating layer inception_3a/5x5
I0403 18:14:12.507676 16667 net.cpp:91] Creating Layer inception_3a/5x5
I0403 18:14:12.507696 16667 net.cpp:425] inception_3a/5x5 <- inception_3a/5x5_reduce
I0403 18:14:12.507717 16667 net.cpp:399] inception_3a/5x5 -> inception_3a/5x5
I0403 18:14:12.508752 16667 net.cpp:141] Setting up inception_3a/5x5
I0403 18:14:12.508781 16667 net.cpp:148] Top shape: 24 32 28 28 (602112)
I0403 18:14:12.508798 16667 net.cpp:156] Memory required for data: 539493408
I0403 18:14:12.508817 16667 layer_factory.hpp:77] Creating layer inception_3a/relu_5x5
I0403 18:14:12.508836 16667 net.cpp:91] Creating Layer inception_3a/relu_5x5
I0403 18:14:12.508852 16667 net.cpp:425] inception_3a/relu_5x5 <- inception_3a/5x5
I0403 18:14:12.508872 16667 net.cpp:386] inception_3a/relu_5x5 -> inception_3a/5x5 (in-place)
I0403 18:14:12.509052 16667 net.cpp:141] Setting up inception_3a/relu_5x5
I0403 18:14:12.509078 16667 net.cpp:148] Top shape: 24 32 28 28 (602112)
I0403 18:14:12.509093 16667 net.cpp:156] Memory required for data: 541901856
I0403 18:14:12.509109 16667 layer_factory.hpp:77] Creating layer inception_3a/pool
I0403 18:14:12.509130 16667 net.cpp:91] Creating Layer inception_3a/pool
I0403 18:14:12.509160 16667 net.cpp:425] inception_3a/pool <- pool2/3x3_s2_pool2/3x3_s2_0_split_3
I0403 18:14:12.509181 16667 net.cpp:399] inception_3a/pool -> inception_3a/pool
I0403 18:14:12.509239 16667 net.cpp:141] Setting up inception_3a/pool
I0403 18:14:12.509263 16667 net.cpp:148] Top shape: 24 192 28 28 (3612672)
I0403 18:14:12.509279 16667 net.cpp:156] Memory required for data: 556352544
I0403 18:14:12.509294 16667 layer_factory.hpp:77] Creating layer inception_3a/pool_proj
I0403 18:14:12.509317 16667 net.cpp:91] Creating Layer inception_3a/pool_proj
I0403 18:14:12.509335 16667 net.cpp:425] inception_3a/pool_proj <- inception_3a/pool
I0403 18:14:12.509358 16667 net.cpp:399] inception_3a/pool_proj -> inception_3a/pool_proj
I0403 18:14:12.510347 16667 net.cpp:141] Setting up inception_3a/pool_proj
I0403 18:14:12.510378 16667 net.cpp:148] Top shape: 24 32 28 28 (602112)
I0403 18:14:12.510396 16667 net.cpp:156] Memory required for data: 558760992
I0403 18:14:12.510418 16667 layer_factory.hpp:77] Creating layer inception_3a/relu_pool_proj
I0403 18:14:12.510440 16667 net.cpp:91] Creating Layer inception_3a/relu_pool_proj
I0403 18:14:12.510458 16667 net.cpp:425] inception_3a/relu_pool_proj <- inception_3a/pool_proj
I0403 18:14:12.510476 16667 net.cpp:386] inception_3a/relu_pool_proj -> inception_3a/pool_proj (in-place)
I0403 18:14:12.510757 16667 net.cpp:141] Setting up inception_3a/relu_pool_proj
I0403 18:14:12.510784 16667 net.cpp:148] Top shape: 24 32 28 28 (602112)
I0403 18:14:12.510799 16667 net.cpp:156] Memory required for data: 561169440
I0403 18:14:12.510815 16667 layer_factory.hpp:77] Creating layer inception_3a/output
I0403 18:14:12.510834 16667 net.cpp:91] Creating Layer inception_3a/output
I0403 18:14:12.510850 16667 net.cpp:425] inception_3a/output <- inception_3a/1x1
I0403 18:14:12.510867 16667 net.cpp:425] inception_3a/output <- inception_3a/3x3
I0403 18:14:12.510884 16667 net.cpp:425] inception_3a/output <- inception_3a/5x5
I0403 18:14:12.510900 16667 net.cpp:425] inception_3a/output <- inception_3a/pool_proj
I0403 18:14:12.510921 16667 net.cpp:399] inception_3a/output -> inception_3a/output
I0403 18:14:12.510972 16667 net.cpp:141] Setting up inception_3a/output
I0403 18:14:12.511000 16667 net.cpp:148] Top shape: 24 256 28 28 (4816896)
I0403 18:14:12.511016 16667 net.cpp:156] Memory required for data: 580437024
I0403 18:14:12.511032 16667 layer_factory.hpp:77] Creating layer inception_3a/output_inception_3a/output_0_split
I0403 18:14:12.511050 16667 net.cpp:91] Creating Layer inception_3a/output_inception_3a/output_0_split
I0403 18:14:12.511066 16667 net.cpp:425] inception_3a/output_inception_3a/output_0_split <- inception_3a/output
I0403 18:14:12.511085 16667 net.cpp:399] inception_3a/output_inception_3a/output_0_split -> inception_3a/output_inception_3a/output_0_split_0
I0403 18:14:12.511108 16667 net.cpp:399] inception_3a/output_inception_3a/output_0_split -> inception_3a/output_inception_3a/output_0_split_1
I0403 18:14:12.511132 16667 net.cpp:399] inception_3a/output_inception_3a/output_0_split -> inception_3a/output_inception_3a/output_0_split_2
I0403 18:14:12.511154 16667 net.cpp:399] inception_3a/output_inception_3a/output_0_split -> inception_3a/output_inception_3a/output_0_split_3
I0403 18:14:12.511229 16667 net.cpp:141] Setting up inception_3a/output_inception_3a/output_0_split
I0403 18:14:12.511255 16667 net.cpp:148] Top shape: 24 256 28 28 (4816896)
I0403 18:14:12.511273 16667 net.cpp:148] Top shape: 24 256 28 28 (4816896)
I0403 18:14:12.511291 16667 net.cpp:148] Top shape: 24 256 28 28 (4816896)
I0403 18:14:12.511307 16667 net.cpp:148] Top shape: 24 256 28 28 (4816896)
I0403 18:14:12.511320 16667 net.cpp:156] Memory required for data: 657507360
I0403 18:14:12.511335 16667 layer_factory.hpp:77] Creating layer inception_3b/1x1
I0403 18:14:12.511358 16667 net.cpp:91] Creating Layer inception_3b/1x1
I0403 18:14:12.511376 16667 net.cpp:425] inception_3b/1x1 <- inception_3a/output_inception_3a/output_0_split_0
I0403 18:14:12.511399 16667 net.cpp:399] inception_3b/1x1 -> inception_3b/1x1
I0403 18:14:12.512557 16667 net.cpp:141] Setting up inception_3b/1x1
I0403 18:14:12.512599 16667 net.cpp:148] Top shape: 24 128 28 28 (2408448)
I0403 18:14:12.512616 16667 net.cpp:156] Memory required for data: 667141152
I0403 18:14:12.512635 16667 layer_factory.hpp:77] Creating layer inception_3b/relu_1x1
I0403 18:14:12.512655 16667 net.cpp:91] Creating Layer inception_3b/relu_1x1
I0403 18:14:12.512671 16667 net.cpp:425] inception_3b/relu_1x1 <- inception_3b/1x1
I0403 18:14:12.512693 16667 net.cpp:386] inception_3b/relu_1x1 -> inception_3b/1x1 (in-place)
I0403 18:14:12.512868 16667 net.cpp:141] Setting up inception_3b/relu_1x1
I0403 18:14:12.512894 16667 net.cpp:148] Top shape: 24 128 28 28 (2408448)
I0403 18:14:12.512909 16667 net.cpp:156] Memory required for data: 676774944
I0403 18:14:12.512926 16667 layer_factory.hpp:77] Creating layer inception_3b/3x3_reduce
I0403 18:14:12.512953 16667 net.cpp:91] Creating Layer inception_3b/3x3_reduce
I0403 18:14:12.512972 16667 net.cpp:425] inception_3b/3x3_reduce <- inception_3a/output_inception_3a/output_0_split_1
I0403 18:14:12.512996 16667 net.cpp:399] inception_3b/3x3_reduce -> inception_3b/3x3_reduce
I0403 18:14:12.514160 16667 net.cpp:141] Setting up inception_3b/3x3_reduce
I0403 18:14:12.514192 16667 net.cpp:148] Top shape: 24 128 28 28 (2408448)
I0403 18:14:12.514209 16667 net.cpp:156] Memory required for data: 686408736
I0403 18:14:12.514228 16667 layer_factory.hpp:77] Creating layer inception_3b/relu_3x3_reduce
I0403 18:14:12.514247 16667 net.cpp:91] Creating Layer inception_3b/relu_3x3_reduce
I0403 18:14:12.514263 16667 net.cpp:425] inception_3b/relu_3x3_reduce <- inception_3b/3x3_reduce
I0403 18:14:12.514283 16667 net.cpp:386] inception_3b/relu_3x3_reduce -> inception_3b/3x3_reduce (in-place)
I0403 18:14:12.514463 16667 net.cpp:141] Setting up inception_3b/relu_3x3_reduce
I0403 18:14:12.514489 16667 net.cpp:148] Top shape: 24 128 28 28 (2408448)
I0403 18:14:12.514504 16667 net.cpp:156] Memory required for data: 696042528
I0403 18:14:12.514520 16667 layer_factory.hpp:77] Creating layer inception_3b/3x3
I0403 18:14:12.514547 16667 net.cpp:91] Creating Layer inception_3b/3x3
I0403 18:14:12.514565 16667 net.cpp:425] inception_3b/3x3 <- inception_3b/3x3_reduce
I0403 18:14:12.514586 16667 net.cpp:399] inception_3b/3x3 -> inception_3b/3x3
I0403 18:14:12.517573 16667 net.cpp:141] Setting up inception_3b/3x3
I0403 18:14:12.517602 16667 net.cpp:148] Top shape: 24 192 28 28 (3612672)
I0403 18:14:12.517619 16667 net.cpp:156] Memory required for data: 710493216
I0403 18:14:12.517639 16667 layer_factory.hpp:77] Creating layer inception_3b/relu_3x3
I0403 18:14:12.517657 16667 net.cpp:91] Creating Layer inception_3b/relu_3x3
I0403 18:14:12.517674 16667 net.cpp:425] inception_3b/relu_3x3 <- inception_3b/3x3
I0403 18:14:12.517695 16667 net.cpp:386] inception_3b/relu_3x3 -> inception_3b/3x3 (in-place)
I0403 18:14:12.517990 16667 net.cpp:141] Setting up inception_3b/relu_3x3
I0403 18:14:12.518018 16667 net.cpp:148] Top shape: 24 192 28 28 (3612672)
I0403 18:14:12.518034 16667 net.cpp:156] Memory required for data: 724943904
I0403 18:14:12.518049 16667 layer_factory.hpp:77] Creating layer inception_3b/5x5_reduce
I0403 18:14:12.518072 16667 net.cpp:91] Creating Layer inception_3b/5x5_reduce
I0403 18:14:12.518090 16667 net.cpp:425] inception_3b/5x5_reduce <- inception_3a/output_inception_3a/output_0_split_2
I0403 18:14:12.518115 16667 net.cpp:399] inception_3b/5x5_reduce -> inception_3b/5x5_reduce
I0403 18:14:12.519120 16667 net.cpp:141] Setting up inception_3b/5x5_reduce
I0403 18:14:12.519150 16667 net.cpp:148] Top shape: 24 32 28 28 (602112)
I0403 18:14:12.519165 16667 net.cpp:156] Memory required for data: 727352352
I0403 18:14:12.519184 16667 layer_factory.hpp:77] Creating layer inception_3b/relu_5x5_reduce
I0403 18:14:12.519202 16667 net.cpp:91] Creating Layer inception_3b/relu_5x5_reduce
I0403 18:14:12.519219 16667 net.cpp:425] inception_3b/relu_5x5_reduce <- inception_3b/5x5_reduce
I0403 18:14:12.519240 16667 net.cpp:386] inception_3b/relu_5x5_reduce -> inception_3b/5x5_reduce (in-place)
I0403 18:14:12.519434 16667 net.cpp:141] Setting up inception_3b/relu_5x5_reduce
I0403 18:14:12.519460 16667 net.cpp:148] Top shape: 24 32 28 28 (602112)
I0403 18:14:12.519476 16667 net.cpp:156] Memory required for data: 729760800
I0403 18:14:12.519491 16667 layer_factory.hpp:77] Creating layer inception_3b/5x5
I0403 18:14:12.519515 16667 net.cpp:91] Creating Layer inception_3b/5x5
I0403 18:14:12.519533 16667 net.cpp:425] inception_3b/5x5 <- inception_3b/5x5_reduce
I0403 18:14:12.519556 16667 net.cpp:399] inception_3b/5x5 -> inception_3b/5x5
I0403 18:14:12.521561 16667 net.cpp:141] Setting up inception_3b/5x5
I0403 18:14:12.521594 16667 net.cpp:148] Top shape: 24 96 28 28 (1806336)
I0403 18:14:12.521610 16667 net.cpp:156] Memory required for data: 736986144
I0403 18:14:12.521630 16667 layer_factory.hpp:77] Creating layer inception_3b/relu_5x5
I0403 18:14:12.521648 16667 net.cpp:91] Creating Layer inception_3b/relu_5x5
I0403 18:14:12.521666 16667 net.cpp:425] inception_3b/relu_5x5 <- inception_3b/5x5
I0403 18:14:12.521683 16667 net.cpp:386] inception_3b/relu_5x5 -> inception_3b/5x5 (in-place)
I0403 18:14:12.521879 16667 net.cpp:141] Setting up inception_3b/relu_5x5
I0403 18:14:12.521905 16667 net.cpp:148] Top shape: 24 96 28 28 (1806336)
I0403 18:14:12.521921 16667 net.cpp:156] Memory required for data: 744211488
I0403 18:14:12.521936 16667 layer_factory.hpp:77] Creating layer inception_3b/pool
I0403 18:14:12.521960 16667 net.cpp:91] Creating Layer inception_3b/pool
I0403 18:14:12.521978 16667 net.cpp:425] inception_3b/pool <- inception_3a/output_inception_3a/output_0_split_3
I0403 18:14:12.521997 16667 net.cpp:399] inception_3b/pool -> inception_3b/pool
I0403 18:14:12.522054 16667 net.cpp:141] Setting up inception_3b/pool
I0403 18:14:12.522081 16667 net.cpp:148] Top shape: 24 256 28 28 (4816896)
I0403 18:14:12.522096 16667 net.cpp:156] Memory required for data: 763479072
I0403 18:14:12.522111 16667 layer_factory.hpp:77] Creating layer inception_3b/pool_proj
I0403 18:14:12.522135 16667 net.cpp:91] Creating Layer inception_3b/pool_proj
I0403 18:14:12.522153 16667 net.cpp:425] inception_3b/pool_proj <- inception_3b/pool
I0403 18:14:12.522172 16667 net.cpp:399] inception_3b/pool_proj -> inception_3b/pool_proj
I0403 18:14:12.523247 16667 net.cpp:141] Setting up inception_3b/pool_proj
I0403 18:14:12.523274 16667 net.cpp:148] Top shape: 24 64 28 28 (1204224)
I0403 18:14:12.523290 16667 net.cpp:156] Memory required for data: 768295968
I0403 18:14:12.523309 16667 layer_factory.hpp:77] Creating layer inception_3b/relu_pool_proj
I0403 18:14:12.523329 16667 net.cpp:91] Creating Layer inception_3b/relu_pool_proj
I0403 18:14:12.523347 16667 net.cpp:425] inception_3b/relu_pool_proj <- inception_3b/pool_proj
I0403 18:14:12.523365 16667 net.cpp:386] inception_3b/relu_pool_proj -> inception_3b/pool_proj (in-place)
I0403 18:14:12.523772 16667 net.cpp:141] Setting up inception_3b/relu_pool_proj
I0403 18:14:12.523798 16667 net.cpp:148] Top shape: 24 64 28 28 (1204224)
I0403 18:14:12.523813 16667 net.cpp:156] Memory required for data: 773112864
I0403 18:14:12.523829 16667 layer_factory.hpp:77] Creating layer inception_3b/output
I0403 18:14:12.523846 16667 net.cpp:91] Creating Layer inception_3b/output
I0403 18:14:12.523864 16667 net.cpp:425] inception_3b/output <- inception_3b/1x1
I0403 18:14:12.523880 16667 net.cpp:425] inception_3b/output <- inception_3b/3x3
I0403 18:14:12.523896 16667 net.cpp:425] inception_3b/output <- inception_3b/5x5
I0403 18:14:12.523913 16667 net.cpp:425] inception_3b/output <- inception_3b/pool_proj
I0403 18:14:12.523934 16667 net.cpp:399] inception_3b/output -> inception_3b/output
I0403 18:14:12.523989 16667 net.cpp:141] Setting up inception_3b/output
I0403 18:14:12.524014 16667 net.cpp:148] Top shape: 24 480 28 28 (9031680)
I0403 18:14:12.524029 16667 net.cpp:156] Memory required for data: 809239584
I0403 18:14:12.524044 16667 layer_factory.hpp:77] Creating layer pool3/3x3_s2
I0403 18:14:12.524062 16667 net.cpp:91] Creating Layer pool3/3x3_s2
I0403 18:14:12.524080 16667 net.cpp:425] pool3/3x3_s2 <- inception_3b/output
I0403 18:14:12.524116 16667 net.cpp:399] pool3/3x3_s2 -> pool3/3x3_s2
I0403 18:14:12.524176 16667 net.cpp:141] Setting up pool3/3x3_s2
I0403 18:14:12.524200 16667 net.cpp:148] Top shape: 24 480 14 14 (2257920)
I0403 18:14:12.524215 16667 net.cpp:156] Memory required for data: 818271264
I0403 18:14:12.524230 16667 layer_factory.hpp:77] Creating layer pool3/3x3_s2_pool3/3x3_s2_0_split
I0403 18:14:12.524250 16667 net.cpp:91] Creating Layer pool3/3x3_s2_pool3/3x3_s2_0_split
I0403 18:14:12.524267 16667 net.cpp:425] pool3/3x3_s2_pool3/3x3_s2_0_split <- pool3/3x3_s2
I0403 18:14:12.524286 16667 net.cpp:399] pool3/3x3_s2_pool3/3x3_s2_0_split -> pool3/3x3_s2_pool3/3x3_s2_0_split_0
I0403 18:14:12.524308 16667 net.cpp:399] pool3/3x3_s2_pool3/3x3_s2_0_split -> pool3/3x3_s2_pool3/3x3_s2_0_split_1
I0403 18:14:12.524329 16667 net.cpp:399] pool3/3x3_s2_pool3/3x3_s2_0_split -> pool3/3x3_s2_pool3/3x3_s2_0_split_2
I0403 18:14:12.524350 16667 net.cpp:399] pool3/3x3_s2_pool3/3x3_s2_0_split -> pool3/3x3_s2_pool3/3x3_s2_0_split_3
I0403 18:14:12.524428 16667 net.cpp:141] Setting up pool3/3x3_s2_pool3/3x3_s2_0_split
I0403 18:14:12.524452 16667 net.cpp:148] Top shape: 24 480 14 14 (2257920)
I0403 18:14:12.524468 16667 net.cpp:148] Top shape: 24 480 14 14 (2257920)
I0403 18:14:12.524484 16667 net.cpp:148] Top shape: 24 480 14 14 (2257920)
I0403 18:14:12.524499 16667 net.cpp:148] Top shape: 24 480 14 14 (2257920)
I0403 18:14:12.524513 16667 net.cpp:156] Memory required for data: 854397984
I0403 18:14:12.524528 16667 layer_factory.hpp:77] Creating layer inception_4a/1x1
I0403 18:14:12.524551 16667 net.cpp:91] Creating Layer inception_4a/1x1
I0403 18:14:12.524569 16667 net.cpp:425] inception_4a/1x1 <- pool3/3x3_s2_pool3/3x3_s2_0_split_0
I0403 18:14:12.524591 16667 net.cpp:399] inception_4a/1x1 -> inception_4a/1x1
I0403 18:14:12.526207 16667 net.cpp:141] Setting up inception_4a/1x1
I0403 18:14:12.526237 16667 net.cpp:148] Top shape: 24 192 14 14 (903168)
I0403 18:14:12.526257 16667 net.cpp:156] Memory required for data: 858010656
I0403 18:14:12.526275 16667 layer_factory.hpp:77] Creating layer inception_4a/relu_1x1
I0403 18:14:12.526294 16667 net.cpp:91] Creating Layer inception_4a/relu_1x1
I0403 18:14:12.526311 16667 net.cpp:425] inception_4a/relu_1x1 <- inception_4a/1x1
I0403 18:14:12.526329 16667 net.cpp:386] inception_4a/relu_1x1 -> inception_4a/1x1 (in-place)
I0403 18:14:12.526510 16667 net.cpp:141] Setting up inception_4a/relu_1x1
I0403 18:14:12.526538 16667 net.cpp:148] Top shape: 24 192 14 14 (903168)
I0403 18:14:12.526554 16667 net.cpp:156] Memory required for data: 861623328
I0403 18:14:12.526569 16667 layer_factory.hpp:77] Creating layer inception_4a/3x3_reduce
I0403 18:14:12.526592 16667 net.cpp:91] Creating Layer inception_4a/3x3_reduce
I0403 18:14:12.526610 16667 net.cpp:425] inception_4a/3x3_reduce <- pool3/3x3_s2_pool3/3x3_s2_0_split_1
I0403 18:14:12.526629 16667 net.cpp:399] inception_4a/3x3_reduce -> inception_4a/3x3_reduce
I0403 18:14:12.527922 16667 net.cpp:141] Setting up inception_4a/3x3_reduce
I0403 18:14:12.527961 16667 net.cpp:148] Top shape: 24 96 14 14 (451584)
I0403 18:14:12.527979 16667 net.cpp:156] Memory required for data: 863429664
I0403 18:14:12.528005 16667 layer_factory.hpp:77] Creating layer inception_4a/relu_3x3_reduce
I0403 18:14:12.528028 16667 net.cpp:91] Creating Layer inception_4a/relu_3x3_reduce
I0403 18:14:12.528045 16667 net.cpp:425] inception_4a/relu_3x3_reduce <- inception_4a/3x3_reduce
I0403 18:14:12.528064 16667 net.cpp:386] inception_4a/relu_3x3_reduce -> inception_4a/3x3_reduce (in-place)
I0403 18:14:12.528245 16667 net.cpp:141] Setting up inception_4a/relu_3x3_reduce
I0403 18:14:12.528273 16667 net.cpp:148] Top shape: 24 96 14 14 (451584)
I0403 18:14:12.528290 16667 net.cpp:156] Memory required for data: 865236000
I0403 18:14:12.528306 16667 layer_factory.hpp:77] Creating layer inception_4a/3x3
I0403 18:14:12.528329 16667 net.cpp:91] Creating Layer inception_4a/3x3
I0403 18:14:12.528347 16667 net.cpp:425] inception_4a/3x3 <- inception_4a/3x3_reduce
I0403 18:14:12.528367 16667 net.cpp:399] inception_4a/3x3 -> inception_4a/3x3
I0403 18:14:12.531090 16667 net.cpp:141] Setting up inception_4a/3x3
I0403 18:14:12.531133 16667 net.cpp:148] Top shape: 24 208 14 14 (978432)
I0403 18:14:12.531150 16667 net.cpp:156] Memory required for data: 869149728
I0403 18:14:12.531170 16667 layer_factory.hpp:77] Creating layer inception_4a/relu_3x3
I0403 18:14:12.531189 16667 net.cpp:91] Creating Layer inception_4a/relu_3x3
I0403 18:14:12.531206 16667 net.cpp:425] inception_4a/relu_3x3 <- inception_4a/3x3
I0403 18:14:12.531227 16667 net.cpp:386] inception_4a/relu_3x3 -> inception_4a/3x3 (in-place)
I0403 18:14:12.531527 16667 net.cpp:141] Setting up inception_4a/relu_3x3
I0403 18:14:12.531556 16667 net.cpp:148] Top shape: 24 208 14 14 (978432)
I0403 18:14:12.531574 16667 net.cpp:156] Memory required for data: 873063456
I0403 18:14:12.531589 16667 layer_factory.hpp:77] Creating layer inception_4a/5x5_reduce
I0403 18:14:12.531613 16667 net.cpp:91] Creating Layer inception_4a/5x5_reduce
I0403 18:14:12.531632 16667 net.cpp:425] inception_4a/5x5_reduce <- pool3/3x3_s2_pool3/3x3_s2_0_split_2
I0403 18:14:12.531656 16667 net.cpp:399] inception_4a/5x5_reduce -> inception_4a/5x5_reduce
I0403 18:14:12.532712 16667 net.cpp:141] Setting up inception_4a/5x5_reduce
I0403 18:14:12.532740 16667 net.cpp:148] Top shape: 24 16 14 14 (75264)
I0403 18:14:12.532757 16667 net.cpp:156] Memory required for data: 873364512
I0403 18:14:12.532775 16667 layer_factory.hpp:77] Creating layer inception_4a/relu_5x5_reduce
I0403 18:14:12.532793 16667 net.cpp:91] Creating Layer inception_4a/relu_5x5_reduce
I0403 18:14:12.532810 16667 net.cpp:425] inception_4a/relu_5x5_reduce <- inception_4a/5x5_reduce
I0403 18:14:12.532832 16667 net.cpp:386] inception_4a/relu_5x5_reduce -> inception_4a/5x5_reduce (in-place)
I0403 18:14:12.533021 16667 net.cpp:141] Setting up inception_4a/relu_5x5_reduce
I0403 18:14:12.533047 16667 net.cpp:148] Top shape: 24 16 14 14 (75264)
I0403 18:14:12.533063 16667 net.cpp:156] Memory required for data: 873665568
I0403 18:14:12.533078 16667 layer_factory.hpp:77] Creating layer inception_4a/5x5
I0403 18:14:12.533102 16667 net.cpp:91] Creating Layer inception_4a/5x5
I0403 18:14:12.533119 16667 net.cpp:425] inception_4a/5x5 <- inception_4a/5x5_reduce
I0403 18:14:12.533141 16667 net.cpp:399] inception_4a/5x5 -> inception_4a/5x5
I0403 18:14:12.534253 16667 net.cpp:141] Setting up inception_4a/5x5
I0403 18:14:12.534281 16667 net.cpp:148] Top shape: 24 48 14 14 (225792)
I0403 18:14:12.534297 16667 net.cpp:156] Memory required for data: 874568736
I0403 18:14:12.534317 16667 layer_factory.hpp:77] Creating layer inception_4a/relu_5x5
I0403 18:14:12.534337 16667 net.cpp:91] Creating Layer inception_4a/relu_5x5
I0403 18:14:12.534354 16667 net.cpp:425] inception_4a/relu_5x5 <- inception_4a/5x5
I0403 18:14:12.534373 16667 net.cpp:386] inception_4a/relu_5x5 -> inception_4a/5x5 (in-place)
I0403 18:14:12.534557 16667 net.cpp:141] Setting up inception_4a/relu_5x5
I0403 18:14:12.534585 16667 net.cpp:148] Top shape: 24 48 14 14 (225792)
I0403 18:14:12.534601 16667 net.cpp:156] Memory required for data: 875471904
I0403 18:14:12.534617 16667 layer_factory.hpp:77] Creating layer inception_4a/pool
I0403 18:14:12.534636 16667 net.cpp:91] Creating Layer inception_4a/pool
I0403 18:14:12.534652 16667 net.cpp:425] inception_4a/pool <- pool3/3x3_s2_pool3/3x3_s2_0_split_3
I0403 18:14:12.534672 16667 net.cpp:399] inception_4a/pool -> inception_4a/pool
I0403 18:14:12.534734 16667 net.cpp:141] Setting up inception_4a/pool
I0403 18:14:12.534759 16667 net.cpp:148] Top shape: 24 480 14 14 (2257920)
I0403 18:14:12.534775 16667 net.cpp:156] Memory required for data: 884503584
I0403 18:14:12.534790 16667 layer_factory.hpp:77] Creating layer inception_4a/pool_proj
I0403 18:14:12.534811 16667 net.cpp:91] Creating Layer inception_4a/pool_proj
I0403 18:14:12.534829 16667 net.cpp:425] inception_4a/pool_proj <- inception_4a/pool
I0403 18:14:12.534852 16667 net.cpp:399] inception_4a/pool_proj -> inception_4a/pool_proj
I0403 18:14:12.536057 16667 net.cpp:141] Setting up inception_4a/pool_proj
I0403 18:14:12.536085 16667 net.cpp:148] Top shape: 24 64 14 14 (301056)
I0403 18:14:12.536116 16667 net.cpp:156] Memory required for data: 885707808
I0403 18:14:12.536136 16667 layer_factory.hpp:77] Creating layer inception_4a/relu_pool_proj
I0403 18:14:12.536159 16667 net.cpp:91] Creating Layer inception_4a/relu_pool_proj
I0403 18:14:12.536177 16667 net.cpp:425] inception_4a/relu_pool_proj <- inception_4a/pool_proj
I0403 18:14:12.536195 16667 net.cpp:386] inception_4a/relu_pool_proj -> inception_4a/pool_proj (in-place)
I0403 18:14:12.536486 16667 net.cpp:141] Setting up inception_4a/relu_pool_proj
I0403 18:14:12.536514 16667 net.cpp:148] Top shape: 24 64 14 14 (301056)
I0403 18:14:12.536530 16667 net.cpp:156] Memory required for data: 886912032
I0403 18:14:12.536545 16667 layer_factory.hpp:77] Creating layer inception_4a/output
I0403 18:14:12.536564 16667 net.cpp:91] Creating Layer inception_4a/output
I0403 18:14:12.536581 16667 net.cpp:425] inception_4a/output <- inception_4a/1x1
I0403 18:14:12.536599 16667 net.cpp:425] inception_4a/output <- inception_4a/3x3
I0403 18:14:12.536615 16667 net.cpp:425] inception_4a/output <- inception_4a/5x5
I0403 18:14:12.536633 16667 net.cpp:425] inception_4a/output <- inception_4a/pool_proj
I0403 18:14:12.536650 16667 net.cpp:399] inception_4a/output -> inception_4a/output
I0403 18:14:12.536697 16667 net.cpp:141] Setting up inception_4a/output
I0403 18:14:12.536721 16667 net.cpp:148] Top shape: 24 512 14 14 (2408448)
I0403 18:14:12.536736 16667 net.cpp:156] Memory required for data: 896545824
I0403 18:14:12.536751 16667 layer_factory.hpp:77] Creating layer inception_4a/output_inception_4a/output_0_split
I0403 18:14:12.536770 16667 net.cpp:91] Creating Layer inception_4a/output_inception_4a/output_0_split
I0403 18:14:12.536787 16667 net.cpp:425] inception_4a/output_inception_4a/output_0_split <- inception_4a/output
I0403 18:14:12.536808 16667 net.cpp:399] inception_4a/output_inception_4a/output_0_split -> inception_4a/output_inception_4a/output_0_split_0
I0403 18:14:12.536830 16667 net.cpp:399] inception_4a/output_inception_4a/output_0_split -> inception_4a/output_inception_4a/output_0_split_1
I0403 18:14:12.536851 16667 net.cpp:399] inception_4a/output_inception_4a/output_0_split -> inception_4a/output_inception_4a/output_0_split_2
I0403 18:14:12.536872 16667 net.cpp:399] inception_4a/output_inception_4a/output_0_split -> inception_4a/output_inception_4a/output_0_split_3
I0403 18:14:12.536897 16667 net.cpp:399] inception_4a/output_inception_4a/output_0_split -> inception_4a/output_inception_4a/output_0_split_4
I0403 18:14:12.536999 16667 net.cpp:141] Setting up inception_4a/output_inception_4a/output_0_split
I0403 18:14:12.537024 16667 net.cpp:148] Top shape: 24 512 14 14 (2408448)
I0403 18:14:12.537040 16667 net.cpp:148] Top shape: 24 512 14 14 (2408448)
I0403 18:14:12.537055 16667 net.cpp:148] Top shape: 24 512 14 14 (2408448)
I0403 18:14:12.537071 16667 net.cpp:148] Top shape: 24 512 14 14 (2408448)
I0403 18:14:12.537087 16667 net.cpp:148] Top shape: 24 512 14 14 (2408448)
I0403 18:14:12.537102 16667 net.cpp:156] Memory required for data: 944714784
I0403 18:14:12.537117 16667 layer_factory.hpp:77] Creating layer loss1/ave_pool
I0403 18:14:12.537135 16667 net.cpp:91] Creating Layer loss1/ave_pool
I0403 18:14:12.537153 16667 net.cpp:425] loss1/ave_pool <- inception_4a/output_inception_4a/output_0_split_0
I0403 18:14:12.537173 16667 net.cpp:399] loss1/ave_pool -> loss1/ave_pool
I0403 18:14:12.537382 16667 net.cpp:141] Setting up loss1/ave_pool
I0403 18:14:12.537410 16667 net.cpp:148] Top shape: 24 512 4 4 (196608)
I0403 18:14:12.537425 16667 net.cpp:156] Memory required for data: 945501216
I0403 18:14:12.537439 16667 layer_factory.hpp:77] Creating layer loss1/conv
I0403 18:14:12.537464 16667 net.cpp:91] Creating Layer loss1/conv
I0403 18:14:12.537482 16667 net.cpp:425] loss1/conv <- loss1/ave_pool
I0403 18:14:12.537503 16667 net.cpp:399] loss1/conv -> loss1/conv
I0403 18:14:12.538996 16667 net.cpp:141] Setting up loss1/conv
I0403 18:14:12.539026 16667 net.cpp:148] Top shape: 24 128 4 4 (49152)
I0403 18:14:12.539057 16667 net.cpp:156] Memory required for data: 945697824
I0403 18:14:12.539077 16667 layer_factory.hpp:77] Creating layer loss1/relu_conv
I0403 18:14:12.539094 16667 net.cpp:91] Creating Layer loss1/relu_conv
I0403 18:14:12.539111 16667 net.cpp:425] loss1/relu_conv <- loss1/conv
I0403 18:14:12.539131 16667 net.cpp:386] loss1/relu_conv -> loss1/conv (in-place)
I0403 18:14:12.539428 16667 net.cpp:141] Setting up loss1/relu_conv
I0403 18:14:12.539455 16667 net.cpp:148] Top shape: 24 128 4 4 (49152)
I0403 18:14:12.539471 16667 net.cpp:156] Memory required for data: 945894432
I0403 18:14:12.539486 16667 layer_factory.hpp:77] Creating layer loss1/fc
I0403 18:14:12.539510 16667 net.cpp:91] Creating Layer loss1/fc
I0403 18:14:12.539530 16667 net.cpp:425] loss1/fc <- loss1/conv
I0403 18:14:12.539551 16667 net.cpp:399] loss1/fc -> loss1/fc
I0403 18:14:12.557695 16667 net.cpp:141] Setting up loss1/fc
I0403 18:14:12.557734 16667 net.cpp:148] Top shape: 24 1024 (24576)
I0403 18:14:12.557751 16667 net.cpp:156] Memory required for data: 945992736
I0403 18:14:12.557770 16667 layer_factory.hpp:77] Creating layer loss1/relu_fc
I0403 18:14:12.557790 16667 net.cpp:91] Creating Layer loss1/relu_fc
I0403 18:14:12.557806 16667 net.cpp:425] loss1/relu_fc <- loss1/fc
I0403 18:14:12.557823 16667 net.cpp:386] loss1/relu_fc -> loss1/fc (in-place)
I0403 18:14:12.558025 16667 net.cpp:141] Setting up loss1/relu_fc
I0403 18:14:12.558054 16667 net.cpp:148] Top shape: 24 1024 (24576)
I0403 18:14:12.558070 16667 net.cpp:156] Memory required for data: 946091040
I0403 18:14:12.558086 16667 layer_factory.hpp:77] Creating layer loss1/drop_fc
I0403 18:14:12.558114 16667 net.cpp:91] Creating Layer loss1/drop_fc
I0403 18:14:12.558132 16667 net.cpp:425] loss1/drop_fc <- loss1/fc
I0403 18:14:12.558151 16667 net.cpp:386] loss1/drop_fc -> loss1/fc (in-place)
I0403 18:14:12.558205 16667 net.cpp:141] Setting up loss1/drop_fc
I0403 18:14:12.558229 16667 net.cpp:148] Top shape: 24 1024 (24576)
I0403 18:14:12.558245 16667 net.cpp:156] Memory required for data: 946189344
I0403 18:14:12.558261 16667 layer_factory.hpp:77] Creating layer loss1/classifier_plantvillage
I0403 18:14:12.558284 16667 net.cpp:91] Creating Layer loss1/classifier_plantvillage
I0403 18:14:12.558302 16667 net.cpp:425] loss1/classifier_plantvillage <- loss1/fc
I0403 18:14:12.558321 16667 net.cpp:399] loss1/classifier_plantvillage -> loss1/classifier_plantvillage
I0403 18:14:12.559257 16667 net.cpp:141] Setting up loss1/classifier_plantvillage
I0403 18:14:12.559288 16667 net.cpp:148] Top shape: 24 38 (912)
I0403 18:14:12.559304 16667 net.cpp:156] Memory required for data: 946192992
I0403 18:14:12.559324 16667 layer_factory.hpp:77] Creating layer loss1/classifier_plantvillage_loss1/classifier_plantvillage_0_split
I0403 18:14:12.559342 16667 net.cpp:91] Creating Layer loss1/classifier_plantvillage_loss1/classifier_plantvillage_0_split
I0403 18:14:12.559360 16667 net.cpp:425] loss1/classifier_plantvillage_loss1/classifier_plantvillage_0_split <- loss1/classifier_plantvillage
I0403 18:14:12.559377 16667 net.cpp:399] loss1/classifier_plantvillage_loss1/classifier_plantvillage_0_split -> loss1/classifier_plantvillage_loss1/classifier_plantvillage_0_split_0
I0403 18:14:12.559397 16667 net.cpp:399] loss1/classifier_plantvillage_loss1/classifier_plantvillage_0_split -> loss1/classifier_plantvillage_loss1/classifier_plantvillage_0_split_1
I0403 18:14:12.559422 16667 net.cpp:399] loss1/classifier_plantvillage_loss1/classifier_plantvillage_0_split -> loss1/classifier_plantvillage_loss1/classifier_plantvillage_0_split_2
I0403 18:14:12.559490 16667 net.cpp:141] Setting up loss1/classifier_plantvillage_loss1/classifier_plantvillage_0_split
I0403 18:14:12.559514 16667 net.cpp:148] Top shape: 24 38 (912)
I0403 18:14:12.559531 16667 net.cpp:148] Top shape: 24 38 (912)
I0403 18:14:12.559547 16667 net.cpp:148] Top shape: 24 38 (912)
I0403 18:14:12.559562 16667 net.cpp:156] Memory required for data: 946203936
I0403 18:14:12.559576 16667 layer_factory.hpp:77] Creating layer inception_4b/1x1
I0403 18:14:12.559597 16667 net.cpp:91] Creating Layer inception_4b/1x1
I0403 18:14:12.559631 16667 net.cpp:425] inception_4b/1x1 <- inception_4a/output_inception_4a/output_0_split_1
I0403 18:14:12.559655 16667 net.cpp:399] inception_4b/1x1 -> inception_4b/1x1
I0403 18:14:12.561350 16667 net.cpp:141] Setting up inception_4b/1x1
I0403 18:14:12.561379 16667 net.cpp:148] Top shape: 24 160 14 14 (752640)
I0403 18:14:12.561396 16667 net.cpp:156] Memory required for data: 949214496
I0403 18:14:12.561414 16667 layer_factory.hpp:77] Creating layer inception_4b/relu_1x1
I0403 18:14:12.561434 16667 net.cpp:91] Creating Layer inception_4b/relu_1x1
I0403 18:14:12.561450 16667 net.cpp:425] inception_4b/relu_1x1 <- inception_4b/1x1
I0403 18:14:12.561471 16667 net.cpp:386] inception_4b/relu_1x1 -> inception_4b/1x1 (in-place)
I0403 18:14:12.561660 16667 net.cpp:141] Setting up inception_4b/relu_1x1
I0403 18:14:12.561686 16667 net.cpp:148] Top shape: 24 160 14 14 (752640)
I0403 18:14:12.561702 16667 net.cpp:156] Memory required for data: 952225056
I0403 18:14:12.561717 16667 layer_factory.hpp:77] Creating layer inception_4b/3x3_reduce
I0403 18:14:12.561740 16667 net.cpp:91] Creating Layer inception_4b/3x3_reduce
I0403 18:14:12.561758 16667 net.cpp:425] inception_4b/3x3_reduce <- inception_4a/output_inception_4a/output_0_split_2
I0403 18:14:12.561782 16667 net.cpp:399] inception_4b/3x3_reduce -> inception_4b/3x3_reduce
I0403 18:14:12.563177 16667 net.cpp:141] Setting up inception_4b/3x3_reduce
I0403 18:14:12.563206 16667 net.cpp:148] Top shape: 24 112 14 14 (526848)
I0403 18:14:12.563222 16667 net.cpp:156] Memory required for data: 954332448
I0403 18:14:12.563241 16667 layer_factory.hpp:77] Creating layer inception_4b/relu_3x3_reduce
I0403 18:14:12.563263 16667 net.cpp:91] Creating Layer inception_4b/relu_3x3_reduce
I0403 18:14:12.563282 16667 net.cpp:425] inception_4b/relu_3x3_reduce <- inception_4b/3x3_reduce
I0403 18:14:12.563300 16667 net.cpp:386] inception_4b/relu_3x3_reduce -> inception_4b/3x3_reduce (in-place)
I0403 18:14:12.563594 16667 net.cpp:141] Setting up inception_4b/relu_3x3_reduce
I0403 18:14:12.563622 16667 net.cpp:148] Top shape: 24 112 14 14 (526848)
I0403 18:14:12.563637 16667 net.cpp:156] Memory required for data: 956439840
I0403 18:14:12.563653 16667 layer_factory.hpp:77] Creating layer inception_4b/3x3
I0403 18:14:12.563678 16667 net.cpp:91] Creating Layer inception_4b/3x3
I0403 18:14:12.563695 16667 net.cpp:425] inception_4b/3x3 <- inception_4b/3x3_reduce
I0403 18:14:12.563717 16667 net.cpp:399] inception_4b/3x3 -> inception_4b/3x3
I0403 18:14:12.566815 16667 net.cpp:141] Setting up inception_4b/3x3
I0403 18:14:12.566849 16667 net.cpp:148] Top shape: 24 224 14 14 (1053696)
I0403 18:14:12.566867 16667 net.cpp:156] Memory required for data: 960654624
I0403 18:14:12.566886 16667 layer_factory.hpp:77] Creating layer inception_4b/relu_3x3
I0403 18:14:12.566905 16667 net.cpp:91] Creating Layer inception_4b/relu_3x3
I0403 18:14:12.566925 16667 net.cpp:425] inception_4b/relu_3x3 <- inception_4b/3x3
I0403 18:14:12.566942 16667 net.cpp:386] inception_4b/relu_3x3 -> inception_4b/3x3 (in-place)
I0403 18:14:12.567137 16667 net.cpp:141] Setting up inception_4b/relu_3x3
I0403 18:14:12.567165 16667 net.cpp:148] Top shape: 24 224 14 14 (1053696)
I0403 18:14:12.567181 16667 net.cpp:156] Memory required for data: 964869408
I0403 18:14:12.567198 16667 layer_factory.hpp:77] Creating layer inception_4b/5x5_reduce
I0403 18:14:12.567221 16667 net.cpp:91] Creating Layer inception_4b/5x5_reduce
I0403 18:14:12.567239 16667 net.cpp:425] inception_4b/5x5_reduce <- inception_4a/output_inception_4a/output_0_split_3
I0403 18:14:12.567262 16667 net.cpp:399] inception_4b/5x5_reduce -> inception_4b/5x5_reduce
I0403 18:14:12.568384 16667 net.cpp:141] Setting up inception_4b/5x5_reduce
I0403 18:14:12.568413 16667 net.cpp:148] Top shape: 24 24 14 14 (112896)
I0403 18:14:12.568429 16667 net.cpp:156] Memory required for data: 965320992
I0403 18:14:12.568449 16667 layer_factory.hpp:77] Creating layer inception_4b/relu_5x5_reduce
I0403 18:14:12.568472 16667 net.cpp:91] Creating Layer inception_4b/relu_5x5_reduce
I0403 18:14:12.568505 16667 net.cpp:425] inception_4b/relu_5x5_reduce <- inception_4b/5x5_reduce
I0403 18:14:12.568523 16667 net.cpp:386] inception_4b/relu_5x5_reduce -> inception_4b/5x5_reduce (in-place)
I0403 18:14:12.568711 16667 net.cpp:141] Setting up inception_4b/relu_5x5_reduce
I0403 18:14:12.568737 16667 net.cpp:148] Top shape: 24 24 14 14 (112896)
I0403 18:14:12.568753 16667 net.cpp:156] Memory required for data: 965772576
I0403 18:14:12.568768 16667 layer_factory.hpp:77] Creating layer inception_4b/5x5
I0403 18:14:12.568791 16667 net.cpp:91] Creating Layer inception_4b/5x5
I0403 18:14:12.568809 16667 net.cpp:425] inception_4b/5x5 <- inception_4b/5x5_reduce
I0403 18:14:12.568831 16667 net.cpp:399] inception_4b/5x5 -> inception_4b/5x5
I0403 18:14:12.570109 16667 net.cpp:141] Setting up inception_4b/5x5
I0403 18:14:12.570137 16667 net.cpp:148] Top shape: 24 64 14 14 (301056)
I0403 18:14:12.570154 16667 net.cpp:156] Memory required for data: 966976800
I0403 18:14:12.570173 16667 layer_factory.hpp:77] Creating layer inception_4b/relu_5x5
I0403 18:14:12.570193 16667 net.cpp:91] Creating Layer inception_4b/relu_5x5
I0403 18:14:12.570221 16667 net.cpp:425] inception_4b/relu_5x5 <- inception_4b/5x5
I0403 18:14:12.570243 16667 net.cpp:386] inception_4b/relu_5x5 -> inception_4b/5x5 (in-place)
I0403 18:14:12.570564 16667 net.cpp:141] Setting up inception_4b/relu_5x5
I0403 18:14:12.570591 16667 net.cpp:148] Top shape: 24 64 14 14 (301056)
I0403 18:14:12.570606 16667 net.cpp:156] Memory required for data: 968181024
I0403 18:14:12.570622 16667 layer_factory.hpp:77] Creating layer inception_4b/pool
I0403 18:14:12.570641 16667 net.cpp:91] Creating Layer inception_4b/pool
I0403 18:14:12.570658 16667 net.cpp:425] inception_4b/pool <- inception_4a/output_inception_4a/output_0_split_4
I0403 18:14:12.570679 16667 net.cpp:399] inception_4b/pool -> inception_4b/pool
I0403 18:14:12.570745 16667 net.cpp:141] Setting up inception_4b/pool
I0403 18:14:12.570770 16667 net.cpp:148] Top shape: 24 512 14 14 (2408448)
I0403 18:14:12.570786 16667 net.cpp:156] Memory required for data: 977814816
I0403 18:14:12.570801 16667 layer_factory.hpp:77] Creating layer inception_4b/pool_proj
I0403 18:14:12.570827 16667 net.cpp:91] Creating Layer inception_4b/pool_proj
I0403 18:14:12.570845 16667 net.cpp:425] inception_4b/pool_proj <- inception_4b/pool
I0403 18:14:12.570864 16667 net.cpp:399] inception_4b/pool_proj -> inception_4b/pool_proj
I0403 18:14:12.572125 16667 net.cpp:141] Setting up inception_4b/pool_proj
I0403 18:14:12.572154 16667 net.cpp:148] Top shape: 24 64 14 14 (301056)
I0403 18:14:12.572170 16667 net.cpp:156] Memory required for data: 979019040
I0403 18:14:12.572187 16667 layer_factory.hpp:77] Creating layer inception_4b/relu_pool_proj
I0403 18:14:12.572206 16667 net.cpp:91] Creating Layer inception_4b/relu_pool_proj
I0403 18:14:12.572222 16667 net.cpp:425] inception_4b/relu_pool_proj <- inception_4b/pool_proj
I0403 18:14:12.572242 16667 net.cpp:386] inception_4b/relu_pool_proj -> inception_4b/pool_proj (in-place)
I0403 18:14:12.572425 16667 net.cpp:141] Setting up inception_4b/relu_pool_proj
I0403 18:14:12.572450 16667 net.cpp:148] Top shape: 24 64 14 14 (301056)
I0403 18:14:12.572465 16667 net.cpp:156] Memory required for data: 980223264
I0403 18:14:12.572480 16667 layer_factory.hpp:77] Creating layer inception_4b/output
I0403 18:14:12.572500 16667 net.cpp:91] Creating Layer inception_4b/output
I0403 18:14:12.572516 16667 net.cpp:425] inception_4b/output <- inception_4b/1x1
I0403 18:14:12.572532 16667 net.cpp:425] inception_4b/output <- inception_4b/3x3
I0403 18:14:12.572549 16667 net.cpp:425] inception_4b/output <- inception_4b/5x5
I0403 18:14:12.572564 16667 net.cpp:425] inception_4b/output <- inception_4b/pool_proj
I0403 18:14:12.572582 16667 net.cpp:399] inception_4b/output -> inception_4b/output
I0403 18:14:12.572628 16667 net.cpp:141] Setting up inception_4b/output
I0403 18:14:12.572651 16667 net.cpp:148] Top shape: 24 512 14 14 (2408448)
I0403 18:14:12.572666 16667 net.cpp:156] Memory required for data: 989857056
I0403 18:14:12.572695 16667 layer_factory.hpp:77] Creating layer inception_4b/output_inception_4b/output_0_split
I0403 18:14:12.572713 16667 net.cpp:91] Creating Layer inception_4b/output_inception_4b/output_0_split
I0403 18:14:12.572729 16667 net.cpp:425] inception_4b/output_inception_4b/output_0_split <- inception_4b/output
I0403 18:14:12.572751 16667 net.cpp:399] inception_4b/output_inception_4b/output_0_split -> inception_4b/output_inception_4b/output_0_split_0
I0403 18:14:12.572772 16667 net.cpp:399] inception_4b/output_inception_4b/output_0_split -> inception_4b/output_inception_4b/output_0_split_1
I0403 18:14:12.572791 16667 net.cpp:399] inception_4b/output_inception_4b/output_0_split -> inception_4b/output_inception_4b/output_0_split_2
I0403 18:14:12.572811 16667 net.cpp:399] inception_4b/output_inception_4b/output_0_split -> inception_4b/output_inception_4b/output_0_split_3
I0403 18:14:12.572893 16667 net.cpp:141] Setting up inception_4b/output_inception_4b/output_0_split
I0403 18:14:12.572921 16667 net.cpp:148] Top shape: 24 512 14 14 (2408448)
I0403 18:14:12.572938 16667 net.cpp:148] Top shape: 24 512 14 14 (2408448)
I0403 18:14:12.572960 16667 net.cpp:148] Top shape: 24 512 14 14 (2408448)
I0403 18:14:12.572976 16667 net.cpp:148] Top shape: 24 512 14 14 (2408448)
I0403 18:14:12.572990 16667 net.cpp:156] Memory required for data: 1028392224
I0403 18:14:12.573005 16667 layer_factory.hpp:77] Creating layer inception_4c/1x1
I0403 18:14:12.573027 16667 net.cpp:91] Creating Layer inception_4c/1x1
I0403 18:14:12.573045 16667 net.cpp:425] inception_4c/1x1 <- inception_4b/output_inception_4b/output_0_split_0
I0403 18:14:12.573065 16667 net.cpp:399] inception_4c/1x1 -> inception_4c/1x1
I0403 18:14:12.574499 16667 net.cpp:141] Setting up inception_4c/1x1
I0403 18:14:12.574527 16667 net.cpp:148] Top shape: 24 128 14 14 (602112)
I0403 18:14:12.574543 16667 net.cpp:156] Memory required for data: 1030800672
I0403 18:14:12.574563 16667 layer_factory.hpp:77] Creating layer inception_4c/relu_1x1
I0403 18:14:12.574584 16667 net.cpp:91] Creating Layer inception_4c/relu_1x1
I0403 18:14:12.574602 16667 net.cpp:425] inception_4c/relu_1x1 <- inception_4c/1x1
I0403 18:14:12.574620 16667 net.cpp:386] inception_4c/relu_1x1 -> inception_4c/1x1 (in-place)
I0403 18:14:12.574805 16667 net.cpp:141] Setting up inception_4c/relu_1x1
I0403 18:14:12.574831 16667 net.cpp:148] Top shape: 24 128 14 14 (602112)
I0403 18:14:12.574846 16667 net.cpp:156] Memory required for data: 1033209120
I0403 18:14:12.574862 16667 layer_factory.hpp:77] Creating layer inception_4c/3x3_reduce
I0403 18:14:12.574884 16667 net.cpp:91] Creating Layer inception_4c/3x3_reduce
I0403 18:14:12.574901 16667 net.cpp:425] inception_4c/3x3_reduce <- inception_4b/output_inception_4b/output_0_split_1
I0403 18:14:12.574920 16667 net.cpp:399] inception_4c/3x3_reduce -> inception_4c/3x3_reduce
I0403 18:14:12.576851 16667 net.cpp:141] Setting up inception_4c/3x3_reduce
I0403 18:14:12.576882 16667 net.cpp:148] Top shape: 24 128 14 14 (602112)
I0403 18:14:12.576899 16667 net.cpp:156] Memory required for data: 1035617568
I0403 18:14:12.576918 16667 layer_factory.hpp:77] Creating layer inception_4c/relu_3x3_reduce
I0403 18:14:12.576936 16667 net.cpp:91] Creating Layer inception_4c/relu_3x3_reduce
I0403 18:14:12.576956 16667 net.cpp:425] inception_4c/relu_3x3_reduce <- inception_4c/3x3_reduce
I0403 18:14:12.576978 16667 net.cpp:386] inception_4c/relu_3x3_reduce -> inception_4c/3x3_reduce (in-place)
I0403 18:14:12.577265 16667 net.cpp:141] Setting up inception_4c/relu_3x3_reduce
I0403 18:14:12.577292 16667 net.cpp:148] Top shape: 24 128 14 14 (602112)
I0403 18:14:12.577308 16667 net.cpp:156] Memory required for data: 1038026016
I0403 18:14:12.577323 16667 layer_factory.hpp:77] Creating layer inception_4c/3x3
I0403 18:14:12.577347 16667 net.cpp:91] Creating Layer inception_4c/3x3
I0403 18:14:12.577364 16667 net.cpp:425] inception_4c/3x3 <- inception_4c/3x3_reduce
I0403 18:14:12.577383 16667 net.cpp:399] inception_4c/3x3 -> inception_4c/3x3
I0403 18:14:12.581039 16667 net.cpp:141] Setting up inception_4c/3x3
I0403 18:14:12.581081 16667 net.cpp:148] Top shape: 24 256 14 14 (1204224)
I0403 18:14:12.581099 16667 net.cpp:156] Memory required for data: 1042842912
I0403 18:14:12.581132 16667 layer_factory.hpp:77] Creating layer inception_4c/relu_3x3
I0403 18:14:12.581154 16667 net.cpp:91] Creating Layer inception_4c/relu_3x3
I0403 18:14:12.581172 16667 net.cpp:425] inception_4c/relu_3x3 <- inception_4c/3x3
I0403 18:14:12.581192 16667 net.cpp:386] inception_4c/relu_3x3 -> inception_4c/3x3 (in-place)
I0403 18:14:12.581389 16667 net.cpp:141] Setting up inception_4c/relu_3x3
I0403 18:14:12.581414 16667 net.cpp:148] Top shape: 24 256 14 14 (1204224)
I0403 18:14:12.581430 16667 net.cpp:156] Memory required for data: 1047659808
I0403 18:14:12.581445 16667 layer_factory.hpp:77] Creating layer inception_4c/5x5_reduce
I0403 18:14:12.581468 16667 net.cpp:91] Creating Layer inception_4c/5x5_reduce
I0403 18:14:12.581486 16667 net.cpp:425] inception_4c/5x5_reduce <- inception_4b/output_inception_4b/output_0_split_2
I0403 18:14:12.581508 16667 net.cpp:399] inception_4c/5x5_reduce -> inception_4c/5x5_reduce
I0403 18:14:12.582649 16667 net.cpp:141] Setting up inception_4c/5x5_reduce
I0403 18:14:12.582677 16667 net.cpp:148] Top shape: 24 24 14 14 (112896)
I0403 18:14:12.582692 16667 net.cpp:156] Memory required for data: 1048111392
I0403 18:14:12.582710 16667 layer_factory.hpp:77] Creating layer inception_4c/relu_5x5_reduce
I0403 18:14:12.582728 16667 net.cpp:91] Creating Layer inception_4c/relu_5x5_reduce
I0403 18:14:12.582747 16667 net.cpp:425] inception_4c/relu_5x5_reduce <- inception_4c/5x5_reduce
I0403 18:14:12.582765 16667 net.cpp:386] inception_4c/relu_5x5_reduce -> inception_4c/5x5_reduce (in-place)
I0403 18:14:12.582955 16667 net.cpp:141] Setting up inception_4c/relu_5x5_reduce
I0403 18:14:12.582980 16667 net.cpp:148] Top shape: 24 24 14 14 (112896)
I0403 18:14:12.582994 16667 net.cpp:156] Memory required for data: 1048562976
I0403 18:14:12.583009 16667 layer_factory.hpp:77] Creating layer inception_4c/5x5
I0403 18:14:12.583032 16667 net.cpp:91] Creating Layer inception_4c/5x5
I0403 18:14:12.583050 16667 net.cpp:425] inception_4c/5x5 <- inception_4c/5x5_reduce
I0403 18:14:12.583071 16667 net.cpp:399] inception_4c/5x5 -> inception_4c/5x5
I0403 18:14:12.584311 16667 net.cpp:141] Setting up inception_4c/5x5
I0403 18:14:12.584338 16667 net.cpp:148] Top shape: 24 64 14 14 (301056)
I0403 18:14:12.584355 16667 net.cpp:156] Memory required for data: 1049767200
I0403 18:14:12.584373 16667 layer_factory.hpp:77] Creating layer inception_4c/relu_5x5
I0403 18:14:12.584394 16667 net.cpp:91] Creating Layer inception_4c/relu_5x5
I0403 18:14:12.584413 16667 net.cpp:425] inception_4c/relu_5x5 <- inception_4c/5x5
I0403 18:14:12.584429 16667 net.cpp:386] inception_4c/relu_5x5 -> inception_4c/5x5 (in-place)
I0403 18:14:12.584723 16667 net.cpp:141] Setting up inception_4c/relu_5x5
I0403 18:14:12.584749 16667 net.cpp:148] Top shape: 24 64 14 14 (301056)
I0403 18:14:12.584764 16667 net.cpp:156] Memory required for data: 1050971424
I0403 18:14:12.584779 16667 layer_factory.hpp:77] Creating layer inception_4c/pool
I0403 18:14:12.584800 16667 net.cpp:91] Creating Layer inception_4c/pool
I0403 18:14:12.584817 16667 net.cpp:425] inception_4c/pool <- inception_4b/output_inception_4b/output_0_split_3
I0403 18:14:12.584836 16667 net.cpp:399] inception_4c/pool -> inception_4c/pool
I0403 18:14:12.584903 16667 net.cpp:141] Setting up inception_4c/pool
I0403 18:14:12.584928 16667 net.cpp:148] Top shape: 24 512 14 14 (2408448)
I0403 18:14:12.584942 16667 net.cpp:156] Memory required for data: 1060605216
I0403 18:14:12.584962 16667 layer_factory.hpp:77] Creating layer inception_4c/pool_proj
I0403 18:14:12.584985 16667 net.cpp:91] Creating Layer inception_4c/pool_proj
I0403 18:14:12.585003 16667 net.cpp:425] inception_4c/pool_proj <- inception_4c/pool
I0403 18:14:12.585024 16667 net.cpp:399] inception_4c/pool_proj -> inception_4c/pool_proj
I0403 18:14:12.586258 16667 net.cpp:141] Setting up inception_4c/pool_proj
I0403 18:14:12.586287 16667 net.cpp:148] Top shape: 24 64 14 14 (301056)
I0403 18:14:12.586315 16667 net.cpp:156] Memory required for data: 1061809440
I0403 18:14:12.586335 16667 layer_factory.hpp:77] Creating layer inception_4c/relu_pool_proj
I0403 18:14:12.586354 16667 net.cpp:91] Creating Layer inception_4c/relu_pool_proj
I0403 18:14:12.586370 16667 net.cpp:425] inception_4c/relu_pool_proj <- inception_4c/pool_proj
I0403 18:14:12.586390 16667 net.cpp:386] inception_4c/relu_pool_proj -> inception_4c/pool_proj (in-place)
I0403 18:14:12.586576 16667 net.cpp:141] Setting up inception_4c/relu_pool_proj
I0403 18:14:12.586601 16667 net.cpp:148] Top shape: 24 64 14 14 (301056)
I0403 18:14:12.586617 16667 net.cpp:156] Memory required for data: 1063013664
I0403 18:14:12.586632 16667 layer_factory.hpp:77] Creating layer inception_4c/output
I0403 18:14:12.586652 16667 net.cpp:91] Creating Layer inception_4c/output
I0403 18:14:12.586668 16667 net.cpp:425] inception_4c/output <- inception_4c/1x1
I0403 18:14:12.586684 16667 net.cpp:425] inception_4c/output <- inception_4c/3x3
I0403 18:14:12.586700 16667 net.cpp:425] inception_4c/output <- inception_4c/5x5
I0403 18:14:12.586715 16667 net.cpp:425] inception_4c/output <- inception_4c/pool_proj
I0403 18:14:12.586731 16667 net.cpp:399] inception_4c/output -> inception_4c/output
I0403 18:14:12.586781 16667 net.cpp:141] Setting up inception_4c/output
I0403 18:14:12.586803 16667 net.cpp:148] Top shape: 24 512 14 14 (2408448)
I0403 18:14:12.586818 16667 net.cpp:156] Memory required for data: 1072647456
I0403 18:14:12.586833 16667 layer_factory.hpp:77] Creating layer inception_4c/output_inception_4c/output_0_split
I0403 18:14:12.586850 16667 net.cpp:91] Creating Layer inception_4c/output_inception_4c/output_0_split
I0403 18:14:12.586865 16667 net.cpp:425] inception_4c/output_inception_4c/output_0_split <- inception_4c/output
I0403 18:14:12.586884 16667 net.cpp:399] inception_4c/output_inception_4c/output_0_split -> inception_4c/output_inception_4c/output_0_split_0
I0403 18:14:12.586905 16667 net.cpp:399] inception_4c/output_inception_4c/output_0_split -> inception_4c/output_inception_4c/output_0_split_1
I0403 18:14:12.586927 16667 net.cpp:399] inception_4c/output_inception_4c/output_0_split -> inception_4c/output_inception_4c/output_0_split_2
I0403 18:14:12.586951 16667 net.cpp:399] inception_4c/output_inception_4c/output_0_split -> inception_4c/output_inception_4c/output_0_split_3
I0403 18:14:12.587038 16667 net.cpp:141] Setting up inception_4c/output_inception_4c/output_0_split
I0403 18:14:12.587064 16667 net.cpp:148] Top shape: 24 512 14 14 (2408448)
I0403 18:14:12.587081 16667 net.cpp:148] Top shape: 24 512 14 14 (2408448)
I0403 18:14:12.587096 16667 net.cpp:148] Top shape: 24 512 14 14 (2408448)
I0403 18:14:12.587112 16667 net.cpp:148] Top shape: 24 512 14 14 (2408448)
I0403 18:14:12.587126 16667 net.cpp:156] Memory required for data: 1111182624
I0403 18:14:12.587141 16667 layer_factory.hpp:77] Creating layer inception_4d/1x1
I0403 18:14:12.587163 16667 net.cpp:91] Creating Layer inception_4d/1x1
I0403 18:14:12.587180 16667 net.cpp:425] inception_4d/1x1 <- inception_4c/output_inception_4c/output_0_split_0
I0403 18:14:12.587198 16667 net.cpp:399] inception_4d/1x1 -> inception_4d/1x1
I0403 18:14:12.588603 16667 net.cpp:141] Setting up inception_4d/1x1
I0403 18:14:12.588634 16667 net.cpp:148] Top shape: 24 112 14 14 (526848)
I0403 18:14:12.588649 16667 net.cpp:156] Memory required for data: 1113290016
I0403 18:14:12.588668 16667 layer_factory.hpp:77] Creating layer inception_4d/relu_1x1
I0403 18:14:12.588686 16667 net.cpp:91] Creating Layer inception_4d/relu_1x1
I0403 18:14:12.588703 16667 net.cpp:425] inception_4d/relu_1x1 <- inception_4d/1x1
I0403 18:14:12.588721 16667 net.cpp:386] inception_4d/relu_1x1 -> inception_4d/1x1 (in-place)
I0403 18:14:12.588920 16667 net.cpp:141] Setting up inception_4d/relu_1x1
I0403 18:14:12.588949 16667 net.cpp:148] Top shape: 24 112 14 14 (526848)
I0403 18:14:12.588966 16667 net.cpp:156] Memory required for data: 1115397408
I0403 18:14:12.588981 16667 layer_factory.hpp:77] Creating layer inception_4d/3x3_reduce
I0403 18:14:12.589020 16667 net.cpp:91] Creating Layer inception_4d/3x3_reduce
I0403 18:14:12.589038 16667 net.cpp:425] inception_4d/3x3_reduce <- inception_4c/output_inception_4c/output_0_split_1
I0403 18:14:12.589061 16667 net.cpp:399] inception_4d/3x3_reduce -> inception_4d/3x3_reduce
I0403 18:14:12.590585 16667 net.cpp:141] Setting up inception_4d/3x3_reduce
I0403 18:14:12.590613 16667 net.cpp:148] Top shape: 24 144 14 14 (677376)
I0403 18:14:12.590629 16667 net.cpp:156] Memory required for data: 1118106912
I0403 18:14:12.590646 16667 layer_factory.hpp:77] Creating layer inception_4d/relu_3x3_reduce
I0403 18:14:12.590667 16667 net.cpp:91] Creating Layer inception_4d/relu_3x3_reduce
I0403 18:14:12.590684 16667 net.cpp:425] inception_4d/relu_3x3_reduce <- inception_4d/3x3_reduce
I0403 18:14:12.590701 16667 net.cpp:386] inception_4d/relu_3x3_reduce -> inception_4d/3x3_reduce (in-place)
I0403 18:14:12.590998 16667 net.cpp:141] Setting up inception_4d/relu_3x3_reduce
I0403 18:14:12.591025 16667 net.cpp:148] Top shape: 24 144 14 14 (677376)
I0403 18:14:12.591040 16667 net.cpp:156] Memory required for data: 1120816416
I0403 18:14:12.591054 16667 layer_factory.hpp:77] Creating layer inception_4d/3x3
I0403 18:14:12.591078 16667 net.cpp:91] Creating Layer inception_4d/3x3
I0403 18:14:12.591095 16667 net.cpp:425] inception_4d/3x3 <- inception_4d/3x3_reduce
I0403 18:14:12.591117 16667 net.cpp:399] inception_4d/3x3 -> inception_4d/3x3
I0403 18:14:12.595367 16667 net.cpp:141] Setting up inception_4d/3x3
I0403 18:14:12.595399 16667 net.cpp:148] Top shape: 24 288 14 14 (1354752)
I0403 18:14:12.595415 16667 net.cpp:156] Memory required for data: 1126235424
I0403 18:14:12.595434 16667 layer_factory.hpp:77] Creating layer inception_4d/relu_3x3
I0403 18:14:12.595453 16667 net.cpp:91] Creating Layer inception_4d/relu_3x3
I0403 18:14:12.595468 16667 net.cpp:425] inception_4d/relu_3x3 <- inception_4d/3x3
I0403 18:14:12.595489 16667 net.cpp:386] inception_4d/relu_3x3 -> inception_4d/3x3 (in-place)
I0403 18:14:12.595674 16667 net.cpp:141] Setting up inception_4d/relu_3x3
I0403 18:14:12.595698 16667 net.cpp:148] Top shape: 24 288 14 14 (1354752)
I0403 18:14:12.595713 16667 net.cpp:156] Memory required for data: 1131654432
I0403 18:14:12.595727 16667 layer_factory.hpp:77] Creating layer inception_4d/5x5_reduce
I0403 18:14:12.595749 16667 net.cpp:91] Creating Layer inception_4d/5x5_reduce
I0403 18:14:12.595767 16667 net.cpp:425] inception_4d/5x5_reduce <- inception_4c/output_inception_4c/output_0_split_2
I0403 18:14:12.595789 16667 net.cpp:399] inception_4d/5x5_reduce -> inception_4d/5x5_reduce
I0403 18:14:12.596938 16667 net.cpp:141] Setting up inception_4d/5x5_reduce
I0403 18:14:12.596972 16667 net.cpp:148] Top shape: 24 32 14 14 (150528)
I0403 18:14:12.596989 16667 net.cpp:156] Memory required for data: 1132256544
I0403 18:14:12.597007 16667 layer_factory.hpp:77] Creating layer inception_4d/relu_5x5_reduce
I0403 18:14:12.597025 16667 net.cpp:91] Creating Layer inception_4d/relu_5x5_reduce
I0403 18:14:12.597041 16667 net.cpp:425] inception_4d/relu_5x5_reduce <- inception_4d/5x5_reduce
I0403 18:14:12.597059 16667 net.cpp:386] inception_4d/relu_5x5_reduce -> inception_4d/5x5_reduce (in-place)
I0403 18:14:12.597249 16667 net.cpp:141] Setting up inception_4d/relu_5x5_reduce
I0403 18:14:12.597273 16667 net.cpp:148] Top shape: 24 32 14 14 (150528)
I0403 18:14:12.597288 16667 net.cpp:156] Memory required for data: 1132858656
I0403 18:14:12.597303 16667 layer_factory.hpp:77] Creating layer inception_4d/5x5
I0403 18:14:12.597326 16667 net.cpp:91] Creating Layer inception_4d/5x5
I0403 18:14:12.597343 16667 net.cpp:425] inception_4d/5x5 <- inception_4d/5x5_reduce
I0403 18:14:12.597364 16667 net.cpp:399] inception_4d/5x5 -> inception_4d/5x5
I0403 18:14:12.598844 16667 net.cpp:141] Setting up inception_4d/5x5
I0403 18:14:12.598871 16667 net.cpp:148] Top shape: 24 64 14 14 (301056)
I0403 18:14:12.598886 16667 net.cpp:156] Memory required for data: 1134062880
I0403 18:14:12.598906 16667 layer_factory.hpp:77] Creating layer inception_4d/relu_5x5
I0403 18:14:12.598943 16667 net.cpp:91] Creating Layer inception_4d/relu_5x5
I0403 18:14:12.598966 16667 net.cpp:425] inception_4d/relu_5x5 <- inception_4d/5x5
I0403 18:14:12.598984 16667 net.cpp:386] inception_4d/relu_5x5 -> inception_4d/5x5 (in-place)
I0403 18:14:12.599284 16667 net.cpp:141] Setting up inception_4d/relu_5x5
I0403 18:14:12.599311 16667 net.cpp:148] Top shape: 24 64 14 14 (301056)
I0403 18:14:12.599326 16667 net.cpp:156] Memory required for data: 1135267104
I0403 18:14:12.599341 16667 layer_factory.hpp:77] Creating layer inception_4d/pool
I0403 18:14:12.599361 16667 net.cpp:91] Creating Layer inception_4d/pool
I0403 18:14:12.599378 16667 net.cpp:425] inception_4d/pool <- inception_4c/output_inception_4c/output_0_split_3
I0403 18:14:12.599396 16667 net.cpp:399] inception_4d/pool -> inception_4d/pool
I0403 18:14:12.599464 16667 net.cpp:141] Setting up inception_4d/pool
I0403 18:14:12.599488 16667 net.cpp:148] Top shape: 24 512 14 14 (2408448)
I0403 18:14:12.599503 16667 net.cpp:156] Memory required for data: 1144900896
I0403 18:14:12.599517 16667 layer_factory.hpp:77] Creating layer inception_4d/pool_proj
I0403 18:14:12.599539 16667 net.cpp:91] Creating Layer inception_4d/pool_proj
I0403 18:14:12.599557 16667 net.cpp:425] inception_4d/pool_proj <- inception_4d/pool
I0403 18:14:12.599578 16667 net.cpp:399] inception_4d/pool_proj -> inception_4d/pool_proj
I0403 18:14:12.601351 16667 net.cpp:141] Setting up inception_4d/pool_proj
I0403 18:14:12.601382 16667 net.cpp:148] Top shape: 24 64 14 14 (301056)
I0403 18:14:12.601397 16667 net.cpp:156] Memory required for data: 1146105120
I0403 18:14:12.601416 16667 layer_factory.hpp:77] Creating layer inception_4d/relu_pool_proj
I0403 18:14:12.601434 16667 net.cpp:91] Creating Layer inception_4d/relu_pool_proj
I0403 18:14:12.601450 16667 net.cpp:425] inception_4d/relu_pool_proj <- inception_4d/pool_proj
I0403 18:14:12.601470 16667 net.cpp:386] inception_4d/relu_pool_proj -> inception_4d/pool_proj (in-place)
I0403 18:14:12.601660 16667 net.cpp:141] Setting up inception_4d/relu_pool_proj
I0403 18:14:12.601686 16667 net.cpp:148] Top shape: 24 64 14 14 (301056)
I0403 18:14:12.601701 16667 net.cpp:156] Memory required for data: 1147309344
I0403 18:14:12.601714 16667 layer_factory.hpp:77] Creating layer inception_4d/output
I0403 18:14:12.601732 16667 net.cpp:91] Creating Layer inception_4d/output
I0403 18:14:12.601747 16667 net.cpp:425] inception_4d/output <- inception_4d/1x1
I0403 18:14:12.601764 16667 net.cpp:425] inception_4d/output <- inception_4d/3x3
I0403 18:14:12.601780 16667 net.cpp:425] inception_4d/output <- inception_4d/5x5
I0403 18:14:12.601796 16667 net.cpp:425] inception_4d/output <- inception_4d/pool_proj
I0403 18:14:12.601815 16667 net.cpp:399] inception_4d/output -> inception_4d/output
I0403 18:14:12.601862 16667 net.cpp:141] Setting up inception_4d/output
I0403 18:14:12.601888 16667 net.cpp:148] Top shape: 24 528 14 14 (2483712)
I0403 18:14:12.601903 16667 net.cpp:156] Memory required for data: 1157244192
I0403 18:14:12.601920 16667 layer_factory.hpp:77] Creating layer inception_4d/output_inception_4d/output_0_split
I0403 18:14:12.601938 16667 net.cpp:91] Creating Layer inception_4d/output_inception_4d/output_0_split
I0403 18:14:12.601971 16667 net.cpp:425] inception_4d/output_inception_4d/output_0_split <- inception_4d/output
I0403 18:14:12.602005 16667 net.cpp:399] inception_4d/output_inception_4d/output_0_split -> inception_4d/output_inception_4d/output_0_split_0
I0403 18:14:12.602027 16667 net.cpp:399] inception_4d/output_inception_4d/output_0_split -> inception_4d/output_inception_4d/output_0_split_1
I0403 18:14:12.602048 16667 net.cpp:399] inception_4d/output_inception_4d/output_0_split -> inception_4d/output_inception_4d/output_0_split_2
I0403 18:14:12.602071 16667 net.cpp:399] inception_4d/output_inception_4d/output_0_split -> inception_4d/output_inception_4d/output_0_split_3
I0403 18:14:12.602090 16667 net.cpp:399] inception_4d/output_inception_4d/output_0_split -> inception_4d/output_inception_4d/output_0_split_4
I0403 18:14:12.602198 16667 net.cpp:141] Setting up inception_4d/output_inception_4d/output_0_split
I0403 18:14:12.602252 16667 net.cpp:148] Top shape: 24 528 14 14 (2483712)
I0403 18:14:12.602272 16667 net.cpp:148] Top shape: 24 528 14 14 (2483712)
I0403 18:14:12.602300 16667 net.cpp:148] Top shape: 24 528 14 14 (2483712)
I0403 18:14:12.602316 16667 net.cpp:148] Top shape: 24 528 14 14 (2483712)
I0403 18:14:12.602332 16667 net.cpp:148] Top shape: 24 528 14 14 (2483712)
I0403 18:14:12.602347 16667 net.cpp:156] Memory required for data: 1206918432
I0403 18:14:12.602362 16667 layer_factory.hpp:77] Creating layer loss2/ave_pool
I0403 18:14:12.602380 16667 net.cpp:91] Creating Layer loss2/ave_pool
I0403 18:14:12.602398 16667 net.cpp:425] loss2/ave_pool <- inception_4d/output_inception_4d/output_0_split_0
I0403 18:14:12.602417 16667 net.cpp:399] loss2/ave_pool -> loss2/ave_pool
I0403 18:14:12.602751 16667 net.cpp:141] Setting up loss2/ave_pool
I0403 18:14:12.602779 16667 net.cpp:148] Top shape: 24 528 4 4 (202752)
I0403 18:14:12.602797 16667 net.cpp:156] Memory required for data: 1207729440
I0403 18:14:12.602812 16667 layer_factory.hpp:77] Creating layer loss2/conv
I0403 18:14:12.602833 16667 net.cpp:91] Creating Layer loss2/conv
I0403 18:14:12.602851 16667 net.cpp:425] loss2/conv <- loss2/ave_pool
I0403 18:14:12.602871 16667 net.cpp:399] loss2/conv -> loss2/conv
I0403 18:14:12.604773 16667 net.cpp:141] Setting up loss2/conv
I0403 18:14:12.604801 16667 net.cpp:148] Top shape: 24 128 4 4 (49152)
I0403 18:14:12.604817 16667 net.cpp:156] Memory required for data: 1207926048
I0403 18:14:12.604836 16667 layer_factory.hpp:77] Creating layer loss2/relu_conv
I0403 18:14:12.604857 16667 net.cpp:91] Creating Layer loss2/relu_conv
I0403 18:14:12.604874 16667 net.cpp:425] loss2/relu_conv <- loss2/conv
I0403 18:14:12.604893 16667 net.cpp:386] loss2/relu_conv -> loss2/conv (in-place)
I0403 18:14:12.605183 16667 net.cpp:141] Setting up loss2/relu_conv
I0403 18:14:12.605211 16667 net.cpp:148] Top shape: 24 128 4 4 (49152)
I0403 18:14:12.605226 16667 net.cpp:156] Memory required for data: 1208122656
I0403 18:14:12.605240 16667 layer_factory.hpp:77] Creating layer loss2/fc
I0403 18:14:12.605262 16667 net.cpp:91] Creating Layer loss2/fc
I0403 18:14:12.605279 16667 net.cpp:425] loss2/fc <- loss2/conv
I0403 18:14:12.605298 16667 net.cpp:399] loss2/fc -> loss2/fc
I0403 18:14:12.622966 16667 net.cpp:141] Setting up loss2/fc
I0403 18:14:12.623000 16667 net.cpp:148] Top shape: 24 1024 (24576)
I0403 18:14:12.623016 16667 net.cpp:156] Memory required for data: 1208220960
I0403 18:14:12.623036 16667 layer_factory.hpp:77] Creating layer loss2/relu_fc
I0403 18:14:12.623055 16667 net.cpp:91] Creating Layer loss2/relu_fc
I0403 18:14:12.623072 16667 net.cpp:425] loss2/relu_fc <- loss2/fc
I0403 18:14:12.623091 16667 net.cpp:386] loss2/relu_fc -> loss2/fc (in-place)
I0403 18:14:12.623390 16667 net.cpp:141] Setting up loss2/relu_fc
I0403 18:14:12.623416 16667 net.cpp:148] Top shape: 24 1024 (24576)
I0403 18:14:12.623430 16667 net.cpp:156] Memory required for data: 1208319264
I0403 18:14:12.623445 16667 layer_factory.hpp:77] Creating layer loss2/drop_fc
I0403 18:14:12.623463 16667 net.cpp:91] Creating Layer loss2/drop_fc
I0403 18:14:12.623479 16667 net.cpp:425] loss2/drop_fc <- loss2/fc
I0403 18:14:12.623499 16667 net.cpp:386] loss2/drop_fc -> loss2/fc (in-place)
I0403 18:14:12.623548 16667 net.cpp:141] Setting up loss2/drop_fc
I0403 18:14:12.623571 16667 net.cpp:148] Top shape: 24 1024 (24576)
I0403 18:14:12.623589 16667 net.cpp:156] Memory required for data: 1208417568
I0403 18:14:12.623605 16667 layer_factory.hpp:77] Creating layer loss2/classifier_plantvillage
I0403 18:14:12.623622 16667 net.cpp:91] Creating Layer loss2/classifier_plantvillage
I0403 18:14:12.623639 16667 net.cpp:425] loss2/classifier_plantvillage <- loss2/fc
I0403 18:14:12.623661 16667 net.cpp:399] loss2/classifier_plantvillage -> loss2/classifier_plantvillage
I0403 18:14:12.624071 16667 net.cpp:141] Setting up loss2/classifier_plantvillage
I0403 18:14:12.624096 16667 net.cpp:148] Top shape: 24 38 (912)
I0403 18:14:12.624125 16667 net.cpp:156] Memory required for data: 1208421216
I0403 18:14:12.624145 16667 layer_factory.hpp:77] Creating layer loss2/classifier_plantvillage_loss2/classifier_plantvillage_0_split
I0403 18:14:12.624166 16667 net.cpp:91] Creating Layer loss2/classifier_plantvillage_loss2/classifier_plantvillage_0_split
I0403 18:14:12.624183 16667 net.cpp:425] loss2/classifier_plantvillage_loss2/classifier_plantvillage_0_split <- loss2/classifier_plantvillage
I0403 18:14:12.624202 16667 net.cpp:399] loss2/classifier_plantvillage_loss2/classifier_plantvillage_0_split -> loss2/classifier_plantvillage_loss2/classifier_plantvillage_0_split_0
I0403 18:14:12.624222 16667 net.cpp:399] loss2/classifier_plantvillage_loss2/classifier_plantvillage_0_split -> loss2/classifier_plantvillage_loss2/classifier_plantvillage_0_split_1
I0403 18:14:12.624243 16667 net.cpp:399] loss2/classifier_plantvillage_loss2/classifier_plantvillage_0_split -> loss2/classifier_plantvillage_loss2/classifier_plantvillage_0_split_2
I0403 18:14:12.624325 16667 net.cpp:141] Setting up loss2/classifier_plantvillage_loss2/classifier_plantvillage_0_split
I0403 18:14:12.624349 16667 net.cpp:148] Top shape: 24 38 (912)
I0403 18:14:12.624366 16667 net.cpp:148] Top shape: 24 38 (912)
I0403 18:14:12.624380 16667 net.cpp:148] Top shape: 24 38 (912)
I0403 18:14:12.624394 16667 net.cpp:156] Memory required for data: 1208432160
I0403 18:14:12.624409 16667 layer_factory.hpp:77] Creating layer inception_4e/1x1
I0403 18:14:12.624431 16667 net.cpp:91] Creating Layer inception_4e/1x1
I0403 18:14:12.624449 16667 net.cpp:425] inception_4e/1x1 <- inception_4d/output_inception_4d/output_0_split_1
I0403 18:14:12.624467 16667 net.cpp:399] inception_4e/1x1 -> inception_4e/1x1
I0403 18:14:12.626283 16667 net.cpp:141] Setting up inception_4e/1x1
I0403 18:14:12.626312 16667 net.cpp:148] Top shape: 24 256 14 14 (1204224)
I0403 18:14:12.626327 16667 net.cpp:156] Memory required for data: 1213249056
I0403 18:14:12.626345 16667 layer_factory.hpp:77] Creating layer inception_4e/relu_1x1
I0403 18:14:12.626365 16667 net.cpp:91] Creating Layer inception_4e/relu_1x1
I0403 18:14:12.626382 16667 net.cpp:425] inception_4e/relu_1x1 <- inception_4e/1x1
I0403 18:14:12.626399 16667 net.cpp:386] inception_4e/relu_1x1 -> inception_4e/1x1 (in-place)
I0403 18:14:12.626696 16667 net.cpp:141] Setting up inception_4e/relu_1x1
I0403 18:14:12.626723 16667 net.cpp:148] Top shape: 24 256 14 14 (1204224)
I0403 18:14:12.626737 16667 net.cpp:156] Memory required for data: 1218065952
I0403 18:14:12.626752 16667 layer_factory.hpp:77] Creating layer inception_4e/3x3_reduce
I0403 18:14:12.626775 16667 net.cpp:91] Creating Layer inception_4e/3x3_reduce
I0403 18:14:12.626792 16667 net.cpp:425] inception_4e/3x3_reduce <- inception_4d/output_inception_4d/output_0_split_2
I0403 18:14:12.626813 16667 net.cpp:399] inception_4e/3x3_reduce -> inception_4e/3x3_reduce
I0403 18:14:12.628940 16667 net.cpp:141] Setting up inception_4e/3x3_reduce
I0403 18:14:12.628973 16667 net.cpp:148] Top shape: 24 160 14 14 (752640)
I0403 18:14:12.628988 16667 net.cpp:156] Memory required for data: 1221076512
I0403 18:14:12.629007 16667 layer_factory.hpp:77] Creating layer inception_4e/relu_3x3_reduce
I0403 18:14:12.629025 16667 net.cpp:91] Creating Layer inception_4e/relu_3x3_reduce
I0403 18:14:12.629041 16667 net.cpp:425] inception_4e/relu_3x3_reduce <- inception_4e/3x3_reduce
I0403 18:14:12.629060 16667 net.cpp:386] inception_4e/relu_3x3_reduce -> inception_4e/3x3_reduce (in-place)
I0403 18:14:12.629248 16667 net.cpp:141] Setting up inception_4e/relu_3x3_reduce
I0403 18:14:12.629273 16667 net.cpp:148] Top shape: 24 160 14 14 (752640)
I0403 18:14:12.629288 16667 net.cpp:156] Memory required for data: 1224087072
I0403 18:14:12.629303 16667 layer_factory.hpp:77] Creating layer inception_4e/3x3
I0403 18:14:12.629325 16667 net.cpp:91] Creating Layer inception_4e/3x3
I0403 18:14:12.629343 16667 net.cpp:425] inception_4e/3x3 <- inception_4e/3x3_reduce
I0403 18:14:12.629364 16667 net.cpp:399] inception_4e/3x3 -> inception_4e/3x3
I0403 18:14:12.634392 16667 net.cpp:141] Setting up inception_4e/3x3
I0403 18:14:12.634434 16667 net.cpp:148] Top shape: 24 320 14 14 (1505280)
I0403 18:14:12.634451 16667 net.cpp:156] Memory required for data: 1230108192
I0403 18:14:12.634470 16667 layer_factory.hpp:77] Creating layer inception_4e/relu_3x3
I0403 18:14:12.634492 16667 net.cpp:91] Creating Layer inception_4e/relu_3x3
I0403 18:14:12.634510 16667 net.cpp:425] inception_4e/relu_3x3 <- inception_4e/3x3
I0403 18:14:12.634528 16667 net.cpp:386] inception_4e/relu_3x3 -> inception_4e/3x3 (in-place)
I0403 18:14:12.634850 16667 net.cpp:141] Setting up inception_4e/relu_3x3
I0403 18:14:12.634877 16667 net.cpp:148] Top shape: 24 320 14 14 (1505280)
I0403 18:14:12.634893 16667 net.cpp:156] Memory required for data: 1236129312
I0403 18:14:12.634908 16667 layer_factory.hpp:77] Creating layer inception_4e/5x5_reduce
I0403 18:14:12.634933 16667 net.cpp:91] Creating Layer inception_4e/5x5_reduce
I0403 18:14:12.634955 16667 net.cpp:425] inception_4e/5x5_reduce <- inception_4d/output_inception_4d/output_0_split_3
I0403 18:14:12.634976 16667 net.cpp:399] inception_4e/5x5_reduce -> inception_4e/5x5_reduce
I0403 18:14:12.636046 16667 net.cpp:141] Setting up inception_4e/5x5_reduce
I0403 18:14:12.636073 16667 net.cpp:148] Top shape: 24 32 14 14 (150528)
I0403 18:14:12.636090 16667 net.cpp:156] Memory required for data: 1236731424
I0403 18:14:12.636108 16667 layer_factory.hpp:77] Creating layer inception_4e/relu_5x5_reduce
I0403 18:14:12.636129 16667 net.cpp:91] Creating Layer inception_4e/relu_5x5_reduce
I0403 18:14:12.636147 16667 net.cpp:425] inception_4e/relu_5x5_reduce <- inception_4e/5x5_reduce
I0403 18:14:12.636164 16667 net.cpp:386] inception_4e/relu_5x5_reduce -> inception_4e/5x5_reduce (in-place)
I0403 18:14:12.636463 16667 net.cpp:141] Setting up inception_4e/relu_5x5_reduce
I0403 18:14:12.636489 16667 net.cpp:148] Top shape: 24 32 14 14 (150528)
I0403 18:14:12.636504 16667 net.cpp:156] Memory required for data: 1237333536
I0403 18:14:12.636519 16667 layer_factory.hpp:77] Creating layer inception_4e/5x5
I0403 18:14:12.636557 16667 net.cpp:91] Creating Layer inception_4e/5x5
I0403 18:14:12.636577 16667 net.cpp:425] inception_4e/5x5 <- inception_4e/5x5_reduce
I0403 18:14:12.636596 16667 net.cpp:399] inception_4e/5x5 -> inception_4e/5x5
I0403 18:14:12.638478 16667 net.cpp:141] Setting up inception_4e/5x5
I0403 18:14:12.638507 16667 net.cpp:148] Top shape: 24 128 14 14 (602112)
I0403 18:14:12.638523 16667 net.cpp:156] Memory required for data: 1239741984
I0403 18:14:12.638542 16667 layer_factory.hpp:77] Creating layer inception_4e/relu_5x5
I0403 18:14:12.638561 16667 net.cpp:91] Creating Layer inception_4e/relu_5x5
I0403 18:14:12.638577 16667 net.cpp:425] inception_4e/relu_5x5 <- inception_4e/5x5
I0403 18:14:12.638597 16667 net.cpp:386] inception_4e/relu_5x5 -> inception_4e/5x5 (in-place)
I0403 18:14:12.638797 16667 net.cpp:141] Setting up inception_4e/relu_5x5
I0403 18:14:12.638821 16667 net.cpp:148] Top shape: 24 128 14 14 (602112)
I0403 18:14:12.638836 16667 net.cpp:156] Memory required for data: 1242150432
I0403 18:14:12.638851 16667 layer_factory.hpp:77] Creating layer inception_4e/pool
I0403 18:14:12.638870 16667 net.cpp:91] Creating Layer inception_4e/pool
I0403 18:14:12.638885 16667 net.cpp:425] inception_4e/pool <- inception_4d/output_inception_4d/output_0_split_4
I0403 18:14:12.638906 16667 net.cpp:399] inception_4e/pool -> inception_4e/pool
I0403 18:14:12.638984 16667 net.cpp:141] Setting up inception_4e/pool
I0403 18:14:12.639009 16667 net.cpp:148] Top shape: 24 528 14 14 (2483712)
I0403 18:14:12.639024 16667 net.cpp:156] Memory required for data: 1252085280
I0403 18:14:12.639039 16667 layer_factory.hpp:77] Creating layer inception_4e/pool_proj
I0403 18:14:12.639061 16667 net.cpp:91] Creating Layer inception_4e/pool_proj
I0403 18:14:12.639078 16667 net.cpp:425] inception_4e/pool_proj <- inception_4e/pool
I0403 18:14:12.639099 16667 net.cpp:399] inception_4e/pool_proj -> inception_4e/pool_proj
I0403 18:14:12.640597 16667 net.cpp:141] Setting up inception_4e/pool_proj
I0403 18:14:12.640638 16667 net.cpp:148] Top shape: 24 128 14 14 (602112)
I0403 18:14:12.640655 16667 net.cpp:156] Memory required for data: 1254493728
I0403 18:14:12.640674 16667 layer_factory.hpp:77] Creating layer inception_4e/relu_pool_proj
I0403 18:14:12.640691 16667 net.cpp:91] Creating Layer inception_4e/relu_pool_proj
I0403 18:14:12.640708 16667 net.cpp:425] inception_4e/relu_pool_proj <- inception_4e/pool_proj
I0403 18:14:12.640728 16667 net.cpp:386] inception_4e/relu_pool_proj -> inception_4e/pool_proj (in-place)
I0403 18:14:12.641021 16667 net.cpp:141] Setting up inception_4e/relu_pool_proj
I0403 18:14:12.641049 16667 net.cpp:148] Top shape: 24 128 14 14 (602112)
I0403 18:14:12.641065 16667 net.cpp:156] Memory required for data: 1256902176
I0403 18:14:12.641080 16667 layer_factory.hpp:77] Creating layer inception_4e/output
I0403 18:14:12.641098 16667 net.cpp:91] Creating Layer inception_4e/output
I0403 18:14:12.641113 16667 net.cpp:425] inception_4e/output <- inception_4e/1x1
I0403 18:14:12.641130 16667 net.cpp:425] inception_4e/output <- inception_4e/3x3
I0403 18:14:12.641146 16667 net.cpp:425] inception_4e/output <- inception_4e/5x5
I0403 18:14:12.641162 16667 net.cpp:425] inception_4e/output <- inception_4e/pool_proj
I0403 18:14:12.641181 16667 net.cpp:399] inception_4e/output -> inception_4e/output
I0403 18:14:12.641232 16667 net.cpp:141] Setting up inception_4e/output
I0403 18:14:12.641254 16667 net.cpp:148] Top shape: 24 832 14 14 (3913728)
I0403 18:14:12.641269 16667 net.cpp:156] Memory required for data: 1272557088
I0403 18:14:12.641284 16667 layer_factory.hpp:77] Creating layer pool4/3x3_s2
I0403 18:14:12.641304 16667 net.cpp:91] Creating Layer pool4/3x3_s2
I0403 18:14:12.641321 16667 net.cpp:425] pool4/3x3_s2 <- inception_4e/output
I0403 18:14:12.641340 16667 net.cpp:399] pool4/3x3_s2 -> pool4/3x3_s2
I0403 18:14:12.641408 16667 net.cpp:141] Setting up pool4/3x3_s2
I0403 18:14:12.641433 16667 net.cpp:148] Top shape: 24 832 7 7 (978432)
I0403 18:14:12.641448 16667 net.cpp:156] Memory required for data: 1276470816
I0403 18:14:12.641461 16667 layer_factory.hpp:77] Creating layer pool4/3x3_s2_pool4/3x3_s2_0_split
I0403 18:14:12.641479 16667 net.cpp:91] Creating Layer pool4/3x3_s2_pool4/3x3_s2_0_split
I0403 18:14:12.641494 16667 net.cpp:425] pool4/3x3_s2_pool4/3x3_s2_0_split <- pool4/3x3_s2
I0403 18:14:12.641515 16667 net.cpp:399] pool4/3x3_s2_pool4/3x3_s2_0_split -> pool4/3x3_s2_pool4/3x3_s2_0_split_0
I0403 18:14:12.641536 16667 net.cpp:399] pool4/3x3_s2_pool4/3x3_s2_0_split -> pool4/3x3_s2_pool4/3x3_s2_0_split_1
I0403 18:14:12.641556 16667 net.cpp:399] pool4/3x3_s2_pool4/3x3_s2_0_split -> pool4/3x3_s2_pool4/3x3_s2_0_split_2
I0403 18:14:12.641577 16667 net.cpp:399] pool4/3x3_s2_pool4/3x3_s2_0_split -> pool4/3x3_s2_pool4/3x3_s2_0_split_3
I0403 18:14:12.641669 16667 net.cpp:141] Setting up pool4/3x3_s2_pool4/3x3_s2_0_split
I0403 18:14:12.641692 16667 net.cpp:148] Top shape: 24 832 7 7 (978432)
I0403 18:14:12.641708 16667 net.cpp:148] Top shape: 24 832 7 7 (978432)
I0403 18:14:12.641723 16667 net.cpp:148] Top shape: 24 832 7 7 (978432)
I0403 18:14:12.641739 16667 net.cpp:148] Top shape: 24 832 7 7 (978432)
I0403 18:14:12.641753 16667 net.cpp:156] Memory required for data: 1292125728
I0403 18:14:12.641767 16667 layer_factory.hpp:77] Creating layer inception_5a/1x1
I0403 18:14:12.641789 16667 net.cpp:91] Creating Layer inception_5a/1x1
I0403 18:14:12.641808 16667 net.cpp:425] inception_5a/1x1 <- pool4/3x3_s2_pool4/3x3_s2_0_split_0
I0403 18:14:12.641829 16667 net.cpp:399] inception_5a/1x1 -> inception_5a/1x1
I0403 18:14:12.644680 16667 net.cpp:141] Setting up inception_5a/1x1
I0403 18:14:12.644708 16667 net.cpp:148] Top shape: 24 256 7 7 (301056)
I0403 18:14:12.644724 16667 net.cpp:156] Memory required for data: 1293329952
I0403 18:14:12.644742 16667 layer_factory.hpp:77] Creating layer inception_5a/relu_1x1
I0403 18:14:12.644759 16667 net.cpp:91] Creating Layer inception_5a/relu_1x1
I0403 18:14:12.644776 16667 net.cpp:425] inception_5a/relu_1x1 <- inception_5a/1x1
I0403 18:14:12.644795 16667 net.cpp:386] inception_5a/relu_1x1 -> inception_5a/1x1 (in-place)
I0403 18:14:12.645129 16667 net.cpp:141] Setting up inception_5a/relu_1x1
I0403 18:14:12.645156 16667 net.cpp:148] Top shape: 24 256 7 7 (301056)
I0403 18:14:12.645171 16667 net.cpp:156] Memory required for data: 1294534176
I0403 18:14:12.645186 16667 layer_factory.hpp:77] Creating layer inception_5a/3x3_reduce
I0403 18:14:12.645211 16667 net.cpp:91] Creating Layer inception_5a/3x3_reduce
I0403 18:14:12.645231 16667 net.cpp:425] inception_5a/3x3_reduce <- pool4/3x3_s2_pool4/3x3_s2_0_split_1
I0403 18:14:12.645253 16667 net.cpp:399] inception_5a/3x3_reduce -> inception_5a/3x3_reduce
I0403 18:14:12.647778 16667 net.cpp:141] Setting up inception_5a/3x3_reduce
I0403 18:14:12.647806 16667 net.cpp:148] Top shape: 24 160 7 7 (188160)
I0403 18:14:12.647822 16667 net.cpp:156] Memory required for data: 1295286816
I0403 18:14:12.647840 16667 layer_factory.hpp:77] Creating layer inception_5a/relu_3x3_reduce
I0403 18:14:12.647861 16667 net.cpp:91] Creating Layer inception_5a/relu_3x3_reduce
I0403 18:14:12.647878 16667 net.cpp:425] inception_5a/relu_3x3_reduce <- inception_5a/3x3_reduce
I0403 18:14:12.647896 16667 net.cpp:386] inception_5a/relu_3x3_reduce -> inception_5a/3x3_reduce (in-place)
I0403 18:14:12.648100 16667 net.cpp:141] Setting up inception_5a/relu_3x3_reduce
I0403 18:14:12.648126 16667 net.cpp:148] Top shape: 24 160 7 7 (188160)
I0403 18:14:12.648141 16667 net.cpp:156] Memory required for data: 1296039456
I0403 18:14:12.648156 16667 layer_factory.hpp:77] Creating layer inception_5a/3x3
I0403 18:14:12.648180 16667 net.cpp:91] Creating Layer inception_5a/3x3
I0403 18:14:12.648197 16667 net.cpp:425] inception_5a/3x3 <- inception_5a/3x3_reduce
I0403 18:14:12.648219 16667 net.cpp:399] inception_5a/3x3 -> inception_5a/3x3
I0403 18:14:12.653280 16667 net.cpp:141] Setting up inception_5a/3x3
I0403 18:14:12.653311 16667 net.cpp:148] Top shape: 24 320 7 7 (376320)
I0403 18:14:12.653326 16667 net.cpp:156] Memory required for data: 1297544736
I0403 18:14:12.653344 16667 layer_factory.hpp:77] Creating layer inception_5a/relu_3x3
I0403 18:14:12.653362 16667 net.cpp:91] Creating Layer inception_5a/relu_3x3
I0403 18:14:12.653379 16667 net.cpp:425] inception_5a/relu_3x3 <- inception_5a/3x3
I0403 18:14:12.653398 16667 net.cpp:386] inception_5a/relu_3x3 -> inception_5a/3x3 (in-place)
I0403 18:14:12.653695 16667 net.cpp:141] Setting up inception_5a/relu_3x3
I0403 18:14:12.653722 16667 net.cpp:148] Top shape: 24 320 7 7 (376320)
I0403 18:14:12.653736 16667 net.cpp:156] Memory required for data: 1299050016
I0403 18:14:12.653751 16667 layer_factory.hpp:77] Creating layer inception_5a/5x5_reduce
I0403 18:14:12.653775 16667 net.cpp:91] Creating Layer inception_5a/5x5_reduce
I0403 18:14:12.653794 16667 net.cpp:425] inception_5a/5x5_reduce <- pool4/3x3_s2_pool4/3x3_s2_0_split_2
I0403 18:14:12.653815 16667 net.cpp:399] inception_5a/5x5_reduce -> inception_5a/5x5_reduce
I0403 18:14:12.654994 16667 net.cpp:141] Setting up inception_5a/5x5_reduce
I0403 18:14:12.655021 16667 net.cpp:148] Top shape: 24 32 7 7 (37632)
I0403 18:14:12.655037 16667 net.cpp:156] Memory required for data: 1299200544
I0403 18:14:12.655056 16667 layer_factory.hpp:77] Creating layer inception_5a/relu_5x5_reduce
I0403 18:14:12.655076 16667 net.cpp:91] Creating Layer inception_5a/relu_5x5_reduce
I0403 18:14:12.655093 16667 net.cpp:425] inception_5a/relu_5x5_reduce <- inception_5a/5x5_reduce
I0403 18:14:12.655112 16667 net.cpp:386] inception_5a/relu_5x5_reduce -> inception_5a/5x5_reduce (in-place)
I0403 18:14:12.655414 16667 net.cpp:141] Setting up inception_5a/relu_5x5_reduce
I0403 18:14:12.655441 16667 net.cpp:148] Top shape: 24 32 7 7 (37632)
I0403 18:14:12.655457 16667 net.cpp:156] Memory required for data: 1299351072
I0403 18:14:12.655470 16667 layer_factory.hpp:77] Creating layer inception_5a/5x5
I0403 18:14:12.655493 16667 net.cpp:91] Creating Layer inception_5a/5x5
I0403 18:14:12.655510 16667 net.cpp:425] inception_5a/5x5 <- inception_5a/5x5_reduce
I0403 18:14:12.655532 16667 net.cpp:399] inception_5a/5x5 -> inception_5a/5x5
I0403 18:14:12.657299 16667 net.cpp:141] Setting up inception_5a/5x5
I0403 18:14:12.657337 16667 net.cpp:148] Top shape: 24 128 7 7 (150528)
I0403 18:14:12.657354 16667 net.cpp:156] Memory required for data: 1299953184
I0403 18:14:12.657373 16667 layer_factory.hpp:77] Creating layer inception_5a/relu_5x5
I0403 18:14:12.657392 16667 net.cpp:91] Creating Layer inception_5a/relu_5x5
I0403 18:14:12.657408 16667 net.cpp:425] inception_5a/relu_5x5 <- inception_5a/5x5
I0403 18:14:12.657428 16667 net.cpp:386] inception_5a/relu_5x5 -> inception_5a/5x5 (in-place)
I0403 18:14:12.657621 16667 net.cpp:141] Setting up inception_5a/relu_5x5
I0403 18:14:12.657646 16667 net.cpp:148] Top shape: 24 128 7 7 (150528)
I0403 18:14:12.657662 16667 net.cpp:156] Memory required for data: 1300555296
I0403 18:14:12.657676 16667 layer_factory.hpp:77] Creating layer inception_5a/pool
I0403 18:14:12.657696 16667 net.cpp:91] Creating Layer inception_5a/pool
I0403 18:14:12.657713 16667 net.cpp:425] inception_5a/pool <- pool4/3x3_s2_pool4/3x3_s2_0_split_3
I0403 18:14:12.657732 16667 net.cpp:399] inception_5a/pool -> inception_5a/pool
I0403 18:14:12.657804 16667 net.cpp:141] Setting up inception_5a/pool
I0403 18:14:12.657829 16667 net.cpp:148] Top shape: 24 832 7 7 (978432)
I0403 18:14:12.657843 16667 net.cpp:156] Memory required for data: 1304469024
I0403 18:14:12.657857 16667 layer_factory.hpp:77] Creating layer inception_5a/pool_proj
I0403 18:14:12.657879 16667 net.cpp:91] Creating Layer inception_5a/pool_proj
I0403 18:14:12.657897 16667 net.cpp:425] inception_5a/pool_proj <- inception_5a/pool
I0403 18:14:12.657918 16667 net.cpp:399] inception_5a/pool_proj -> inception_5a/pool_proj
I0403 18:14:12.660217 16667 net.cpp:141] Setting up inception_5a/pool_proj
I0403 18:14:12.660248 16667 net.cpp:148] Top shape: 24 128 7 7 (150528)
I0403 18:14:12.660264 16667 net.cpp:156] Memory required for data: 1305071136
I0403 18:14:12.660282 16667 layer_factory.hpp:77] Creating layer inception_5a/relu_pool_proj
I0403 18:14:12.660300 16667 net.cpp:91] Creating Layer inception_5a/relu_pool_proj
I0403 18:14:12.660316 16667 net.cpp:425] inception_5a/relu_pool_proj <- inception_5a/pool_proj
I0403 18:14:12.660336 16667 net.cpp:386] inception_5a/relu_pool_proj -> inception_5a/pool_proj (in-place)
I0403 18:14:12.660642 16667 net.cpp:141] Setting up inception_5a/relu_pool_proj
I0403 18:14:12.660670 16667 net.cpp:148] Top shape: 24 128 7 7 (150528)
I0403 18:14:12.660684 16667 net.cpp:156] Memory required for data: 1305673248
I0403 18:14:12.660699 16667 layer_factory.hpp:77] Creating layer inception_5a/output
I0403 18:14:12.660717 16667 net.cpp:91] Creating Layer inception_5a/output
I0403 18:14:12.660732 16667 net.cpp:425] inception_5a/output <- inception_5a/1x1
I0403 18:14:12.660750 16667 net.cpp:425] inception_5a/output <- inception_5a/3x3
I0403 18:14:12.660766 16667 net.cpp:425] inception_5a/output <- inception_5a/5x5
I0403 18:14:12.660783 16667 net.cpp:425] inception_5a/output <- inception_5a/pool_proj
I0403 18:14:12.660799 16667 net.cpp:399] inception_5a/output -> inception_5a/output
I0403 18:14:12.660851 16667 net.cpp:141] Setting up inception_5a/output
I0403 18:14:12.660876 16667 net.cpp:148] Top shape: 24 832 7 7 (978432)
I0403 18:14:12.660889 16667 net.cpp:156] Memory required for data: 1309586976
I0403 18:14:12.660904 16667 layer_factory.hpp:77] Creating layer inception_5a/output_inception_5a/output_0_split
I0403 18:14:12.660925 16667 net.cpp:91] Creating Layer inception_5a/output_inception_5a/output_0_split
I0403 18:14:12.660943 16667 net.cpp:425] inception_5a/output_inception_5a/output_0_split <- inception_5a/output
I0403 18:14:12.660964 16667 net.cpp:399] inception_5a/output_inception_5a/output_0_split -> inception_5a/output_inception_5a/output_0_split_0
I0403 18:14:12.660986 16667 net.cpp:399] inception_5a/output_inception_5a/output_0_split -> inception_5a/output_inception_5a/output_0_split_1
I0403 18:14:12.661006 16667 net.cpp:399] inception_5a/output_inception_5a/output_0_split -> inception_5a/output_inception_5a/output_0_split_2
I0403 18:14:12.661031 16667 net.cpp:399] inception_5a/output_inception_5a/output_0_split -> inception_5a/output_inception_5a/output_0_split_3
I0403 18:14:12.661144 16667 net.cpp:141] Setting up inception_5a/output_inception_5a/output_0_split
I0403 18:14:12.661170 16667 net.cpp:148] Top shape: 24 832 7 7 (978432)
I0403 18:14:12.661186 16667 net.cpp:148] Top shape: 24 832 7 7 (978432)
I0403 18:14:12.661202 16667 net.cpp:148] Top shape: 24 832 7 7 (978432)
I0403 18:14:12.661217 16667 net.cpp:148] Top shape: 24 832 7 7 (978432)
I0403 18:14:12.661231 16667 net.cpp:156] Memory required for data: 1325241888
I0403 18:14:12.661247 16667 layer_factory.hpp:77] Creating layer inception_5b/1x1
I0403 18:14:12.661268 16667 net.cpp:91] Creating Layer inception_5b/1x1
I0403 18:14:12.661286 16667 net.cpp:425] inception_5b/1x1 <- inception_5a/output_inception_5a/output_0_split_0
I0403 18:14:12.661308 16667 net.cpp:399] inception_5b/1x1 -> inception_5b/1x1
I0403 18:14:12.665122 16667 net.cpp:141] Setting up inception_5b/1x1
I0403 18:14:12.665154 16667 net.cpp:148] Top shape: 24 384 7 7 (451584)
I0403 18:14:12.665171 16667 net.cpp:156] Memory required for data: 1327048224
I0403 18:14:12.665190 16667 layer_factory.hpp:77] Creating layer inception_5b/relu_1x1
I0403 18:14:12.665208 16667 net.cpp:91] Creating Layer inception_5b/relu_1x1
I0403 18:14:12.665225 16667 net.cpp:425] inception_5b/relu_1x1 <- inception_5b/1x1
I0403 18:14:12.665246 16667 net.cpp:386] inception_5b/relu_1x1 -> inception_5b/1x1 (in-place)
I0403 18:14:12.665549 16667 net.cpp:141] Setting up inception_5b/relu_1x1
I0403 18:14:12.665577 16667 net.cpp:148] Top shape: 24 384 7 7 (451584)
I0403 18:14:12.665593 16667 net.cpp:156] Memory required for data: 1328854560
I0403 18:14:12.665608 16667 layer_factory.hpp:77] Creating layer inception_5b/3x3_reduce
I0403 18:14:12.665632 16667 net.cpp:91] Creating Layer inception_5b/3x3_reduce
I0403 18:14:12.665650 16667 net.cpp:425] inception_5b/3x3_reduce <- inception_5a/output_inception_5a/output_0_split_1
I0403 18:14:12.665670 16667 net.cpp:399] inception_5b/3x3_reduce -> inception_5b/3x3_reduce
I0403 18:14:12.668385 16667 net.cpp:141] Setting up inception_5b/3x3_reduce
I0403 18:14:12.668416 16667 net.cpp:148] Top shape: 24 192 7 7 (225792)
I0403 18:14:12.668434 16667 net.cpp:156] Memory required for data: 1329757728
I0403 18:14:12.668453 16667 layer_factory.hpp:77] Creating layer inception_5b/relu_3x3_reduce
I0403 18:14:12.668472 16667 net.cpp:91] Creating Layer inception_5b/relu_3x3_reduce
I0403 18:14:12.668489 16667 net.cpp:425] inception_5b/relu_3x3_reduce <- inception_5b/3x3_reduce
I0403 18:14:12.668506 16667 net.cpp:386] inception_5b/relu_3x3_reduce -> inception_5b/3x3_reduce (in-place)
I0403 18:14:12.668701 16667 net.cpp:141] Setting up inception_5b/relu_3x3_reduce
I0403 18:14:12.668726 16667 net.cpp:148] Top shape: 24 192 7 7 (225792)
I0403 18:14:12.668741 16667 net.cpp:156] Memory required for data: 1330660896
I0403 18:14:12.668756 16667 layer_factory.hpp:77] Creating layer inception_5b/3x3
I0403 18:14:12.668779 16667 net.cpp:91] Creating Layer inception_5b/3x3
I0403 18:14:12.668797 16667 net.cpp:425] inception_5b/3x3 <- inception_5b/3x3_reduce
I0403 18:14:12.668819 16667 net.cpp:399] inception_5b/3x3 -> inception_5b/3x3
I0403 18:14:12.675578 16667 net.cpp:141] Setting up inception_5b/3x3
I0403 18:14:12.675609 16667 net.cpp:148] Top shape: 24 384 7 7 (451584)
I0403 18:14:12.675626 16667 net.cpp:156] Memory required for data: 1332467232
I0403 18:14:12.675644 16667 layer_factory.hpp:77] Creating layer inception_5b/relu_3x3
I0403 18:14:12.675663 16667 net.cpp:91] Creating Layer inception_5b/relu_3x3
I0403 18:14:12.675679 16667 net.cpp:425] inception_5b/relu_3x3 <- inception_5b/3x3
I0403 18:14:12.675699 16667 net.cpp:386] inception_5b/relu_3x3 -> inception_5b/3x3 (in-place)
I0403 18:14:12.676002 16667 net.cpp:141] Setting up inception_5b/relu_3x3
I0403 18:14:12.676030 16667 net.cpp:148] Top shape: 24 384 7 7 (451584)
I0403 18:14:12.676045 16667 net.cpp:156] Memory required for data: 1334273568
I0403 18:14:12.676059 16667 layer_factory.hpp:77] Creating layer inception_5b/5x5_reduce
I0403 18:14:12.676097 16667 net.cpp:91] Creating Layer inception_5b/5x5_reduce
I0403 18:14:12.676116 16667 net.cpp:425] inception_5b/5x5_reduce <- inception_5a/output_inception_5a/output_0_split_2
I0403 18:14:12.676138 16667 net.cpp:399] inception_5b/5x5_reduce -> inception_5b/5x5_reduce
I0403 18:14:12.677424 16667 net.cpp:141] Setting up inception_5b/5x5_reduce
I0403 18:14:12.677454 16667 net.cpp:148] Top shape: 24 48 7 7 (56448)
I0403 18:14:12.677471 16667 net.cpp:156] Memory required for data: 1334499360
I0403 18:14:12.677490 16667 layer_factory.hpp:77] Creating layer inception_5b/relu_5x5_reduce
I0403 18:14:12.677507 16667 net.cpp:91] Creating Layer inception_5b/relu_5x5_reduce
I0403 18:14:12.677525 16667 net.cpp:425] inception_5b/relu_5x5_reduce <- inception_5b/5x5_reduce
I0403 18:14:12.677546 16667 net.cpp:386] inception_5b/relu_5x5_reduce -> inception_5b/5x5_reduce (in-place)
I0403 18:14:12.677922 16667 net.cpp:141] Setting up inception_5b/relu_5x5_reduce
I0403 18:14:12.677958 16667 net.cpp:148] Top shape: 24 48 7 7 (56448)
I0403 18:14:12.677983 16667 net.cpp:156] Memory required for data: 1334725152
I0403 18:14:12.677999 16667 layer_factory.hpp:77] Creating layer inception_5b/5x5
I0403 18:14:12.678020 16667 net.cpp:91] Creating Layer inception_5b/5x5
I0403 18:14:12.678037 16667 net.cpp:425] inception_5b/5x5 <- inception_5b/5x5_reduce
I0403 18:14:12.678056 16667 net.cpp:399] inception_5b/5x5 -> inception_5b/5x5
I0403 18:14:12.680162 16667 net.cpp:141] Setting up inception_5b/5x5
I0403 18:14:12.680191 16667 net.cpp:148] Top shape: 24 128 7 7 (150528)
I0403 18:14:12.680207 16667 net.cpp:156] Memory required for data: 1335327264
I0403 18:14:12.680224 16667 layer_factory.hpp:77] Creating layer inception_5b/relu_5x5
I0403 18:14:12.680243 16667 net.cpp:91] Creating Layer inception_5b/relu_5x5
I0403 18:14:12.680259 16667 net.cpp:425] inception_5b/relu_5x5 <- inception_5b/5x5
I0403 18:14:12.680279 16667 net.cpp:386] inception_5b/relu_5x5 -> inception_5b/5x5 (in-place)
I0403 18:14:12.680476 16667 net.cpp:141] Setting up inception_5b/relu_5x5
I0403 18:14:12.680501 16667 net.cpp:148] Top shape: 24 128 7 7 (150528)
I0403 18:14:12.680516 16667 net.cpp:156] Memory required for data: 1335929376
I0403 18:14:12.680531 16667 layer_factory.hpp:77] Creating layer inception_5b/pool
I0403 18:14:12.680552 16667 net.cpp:91] Creating Layer inception_5b/pool
I0403 18:14:12.680569 16667 net.cpp:425] inception_5b/pool <- inception_5a/output_inception_5a/output_0_split_3
I0403 18:14:12.680588 16667 net.cpp:399] inception_5b/pool -> inception_5b/pool
I0403 18:14:12.680663 16667 net.cpp:141] Setting up inception_5b/pool
I0403 18:14:12.680686 16667 net.cpp:148] Top shape: 24 832 7 7 (978432)
I0403 18:14:12.680701 16667 net.cpp:156] Memory required for data: 1339843104
I0403 18:14:12.680716 16667 layer_factory.hpp:77] Creating layer inception_5b/pool_proj
I0403 18:14:12.680738 16667 net.cpp:91] Creating Layer inception_5b/pool_proj
I0403 18:14:12.680757 16667 net.cpp:425] inception_5b/pool_proj <- inception_5b/pool
I0403 18:14:12.680778 16667 net.cpp:399] inception_5b/pool_proj -> inception_5b/pool_proj
I0403 18:14:12.683130 16667 net.cpp:141] Setting up inception_5b/pool_proj
I0403 18:14:12.683161 16667 net.cpp:148] Top shape: 24 128 7 7 (150528)
I0403 18:14:12.683178 16667 net.cpp:156] Memory required for data: 1340445216
I0403 18:14:12.683197 16667 layer_factory.hpp:77] Creating layer inception_5b/relu_pool_proj
I0403 18:14:12.683215 16667 net.cpp:91] Creating Layer inception_5b/relu_pool_proj
I0403 18:14:12.683233 16667 net.cpp:425] inception_5b/relu_pool_proj <- inception_5b/pool_proj
I0403 18:14:12.683253 16667 net.cpp:386] inception_5b/relu_pool_proj -> inception_5b/pool_proj (in-place)
I0403 18:14:12.683552 16667 net.cpp:141] Setting up inception_5b/relu_pool_proj
I0403 18:14:12.683580 16667 net.cpp:148] Top shape: 24 128 7 7 (150528)
I0403 18:14:12.683595 16667 net.cpp:156] Memory required for data: 1341047328
I0403 18:14:12.683610 16667 layer_factory.hpp:77] Creating layer inception_5b/output
I0403 18:14:12.683629 16667 net.cpp:91] Creating Layer inception_5b/output
I0403 18:14:12.683660 16667 net.cpp:425] inception_5b/output <- inception_5b/1x1
I0403 18:14:12.683677 16667 net.cpp:425] inception_5b/output <- inception_5b/3x3
I0403 18:14:12.683694 16667 net.cpp:425] inception_5b/output <- inception_5b/5x5
I0403 18:14:12.683711 16667 net.cpp:425] inception_5b/output <- inception_5b/pool_proj
I0403 18:14:12.683732 16667 net.cpp:399] inception_5b/output -> inception_5b/output
I0403 18:14:12.683784 16667 net.cpp:141] Setting up inception_5b/output
I0403 18:14:12.683807 16667 net.cpp:148] Top shape: 24 1024 7 7 (1204224)
I0403 18:14:12.683822 16667 net.cpp:156] Memory required for data: 1345864224
I0403 18:14:12.683836 16667 layer_factory.hpp:77] Creating layer pool5/7x7_s1
I0403 18:14:12.683859 16667 net.cpp:91] Creating Layer pool5/7x7_s1
I0403 18:14:12.683877 16667 net.cpp:425] pool5/7x7_s1 <- inception_5b/output
I0403 18:14:12.683895 16667 net.cpp:399] pool5/7x7_s1 -> pool5/7x7_s1
I0403 18:14:12.684119 16667 net.cpp:141] Setting up pool5/7x7_s1
I0403 18:14:12.684145 16667 net.cpp:148] Top shape: 24 1024 1 1 (24576)
I0403 18:14:12.684160 16667 net.cpp:156] Memory required for data: 1345962528
I0403 18:14:12.684175 16667 layer_factory.hpp:77] Creating layer pool5/drop_7x7_s1
I0403 18:14:12.684193 16667 net.cpp:91] Creating Layer pool5/drop_7x7_s1
I0403 18:14:12.684209 16667 net.cpp:425] pool5/drop_7x7_s1 <- pool5/7x7_s1
I0403 18:14:12.684229 16667 net.cpp:386] pool5/drop_7x7_s1 -> pool5/7x7_s1 (in-place)
I0403 18:14:12.684280 16667 net.cpp:141] Setting up pool5/drop_7x7_s1
I0403 18:14:12.684306 16667 net.cpp:148] Top shape: 24 1024 1 1 (24576)
I0403 18:14:12.684321 16667 net.cpp:156] Memory required for data: 1346060832
I0403 18:14:12.684336 16667 layer_factory.hpp:77] Creating layer loss3/classifier_plantvillage
I0403 18:14:12.684355 16667 net.cpp:91] Creating Layer loss3/classifier_plantvillage
I0403 18:14:12.684371 16667 net.cpp:425] loss3/classifier_plantvillage <- pool5/7x7_s1
I0403 18:14:12.684393 16667 net.cpp:399] loss3/classifier_plantvillage -> loss3/classifier_plantvillage
I0403 18:14:12.684823 16667 net.cpp:141] Setting up loss3/classifier_plantvillage
I0403 18:14:12.684850 16667 net.cpp:148] Top shape: 24 38 (912)
I0403 18:14:12.684865 16667 net.cpp:156] Memory required for data: 1346064480
I0403 18:14:12.684885 16667 layer_factory.hpp:77] Creating layer loss3/classifier_plantvillage_loss3/classifier_plantvillage_0_split
I0403 18:14:12.684902 16667 net.cpp:91] Creating Layer loss3/classifier_plantvillage_loss3/classifier_plantvillage_0_split
I0403 18:14:12.684921 16667 net.cpp:425] loss3/classifier_plantvillage_loss3/classifier_plantvillage_0_split <- loss3/classifier_plantvillage
I0403 18:14:12.684939 16667 net.cpp:399] loss3/classifier_plantvillage_loss3/classifier_plantvillage_0_split -> loss3/classifier_plantvillage_loss3/classifier_plantvillage_0_split_0
I0403 18:14:12.684964 16667 net.cpp:399] loss3/classifier_plantvillage_loss3/classifier_plantvillage_0_split -> loss3/classifier_plantvillage_loss3/classifier_plantvillage_0_split_1
I0403 18:14:12.684985 16667 net.cpp:399] loss3/classifier_plantvillage_loss3/classifier_plantvillage_0_split -> loss3/classifier_plantvillage_loss3/classifier_plantvillage_0_split_2
I0403 18:14:12.685009 16667 net.cpp:399] loss3/classifier_plantvillage_loss3/classifier_plantvillage_0_split -> loss3/classifier_plantvillage_loss3/classifier_plantvillage_0_split_3
I0403 18:14:12.685111 16667 net.cpp:141] Setting up loss3/classifier_plantvillage_loss3/classifier_plantvillage_0_split
I0403 18:14:12.685135 16667 net.cpp:148] Top shape: 24 38 (912)
I0403 18:14:12.685151 16667 net.cpp:148] Top shape: 24 38 (912)
I0403 18:14:12.685166 16667 net.cpp:148] Top shape: 24 38 (912)
I0403 18:14:12.685181 16667 net.cpp:148] Top shape: 24 38 (912)
I0403 18:14:12.685195 16667 net.cpp:156] Memory required for data: 1346079072
I0403 18:14:12.685210 16667 layer_factory.hpp:77] Creating layer loss1/loss
I0403 18:14:12.685231 16667 net.cpp:91] Creating Layer loss1/loss
I0403 18:14:12.685250 16667 net.cpp:425] loss1/loss <- loss1/classifier_plantvillage_loss1/classifier_plantvillage_0_split_0
I0403 18:14:12.685281 16667 net.cpp:425] loss1/loss <- label_data_1_split_0
…
