…
I0403 17:58:51.947052 15706 net.cpp:313] The NetState phase (1) differed from the phase (0) specified by a rule in layer data
I0403 17:58:51.948173 15706 net.cpp:49] Initializing net from parameters: 
state {
  phase: TEST
}
layer {
  name: "data"
  type: "Data"
  top: "data"
  top: "label"
  include {
    phase: TEST
  }
  transform_param {
    mirror: false
    crop_size: 224
    mean_file: "/home/mohanty/data/final_dataset/lmdb/grayscale-60-40/mean.binaryproto"
  }
  data_param {
    source: "/home/mohanty/data/final_dataset/lmdb/grayscale-60-40/test_db"
    batch_size: 24
    backend: LMDB
  }
}
layer {
  name: "conv1/7x7_s2"
  type: "Convolution"
  bottom: "data"
  top: "conv1/7x7_s2"
  param {
    lr_mult: 1
    decay_mult: 1
  }
  param {
    lr_mult: 2
    decay_mult: 0
  }
  convolution_param {
    num_output: 64
    pad: 3
    kernel_size: 7
    stride: 2
    weight_filler {
      type: "xavier"
      std: 0.1
    }
    bias_filler {
      type: "constant"
      value: 0.2
    }
  }
}
layer {
  name: "conv1/relu_7x7"
  type: "ReLU"
  bottom: "conv1/7x7_s2"
  top: "conv1/7x7_s2"
}
layer {
  name: "pool1/3x3_s2"
  type: "Pooling"
  bottom: "conv1/7x7_s2"
  top: "pool1/3x3_s2"
  pooling_param {
    pool: MAX
    kernel_size: 3
    stride: 2
  }
}
layer {
  name: "pool1/norm1"
  type: "LRN"
  bottom: "pool1/3x3_s2"
  top: "pool1/norm1"
  lrn_param {
    local_size: 5
    alpha: 0.0001
    beta: 0.75
  }
}
layer {
  name: "conv2/3x3_reduce"
  type: "Convolution"
  bottom: "pool1/norm1"
  top: "conv2/3x3_reduce"
  param {
    lr_mult: 1
    decay_mult: 1
  }
  param {
    lr_mult: 2
    decay_mult: 0
  }
  convolution_param {
    num_output: 64
    kernel_size: 1
    weight_filler {
      type: "xavier"
      std: 0.1
    }
    bias_filler {
      type: "constant"
      value: 0.2
    }
  }
}
layer {
  name: "conv2/relu_3x3_reduce"
  type: "ReLU"
  bottom: "conv2/3x3_reduce"
  top: "conv2/3x3_reduce"
}
layer {
  name: "conv2/3x3"
  type: "Convolution"
  bottom: "conv2/3x3_reduce"
  top: "conv2/3x3"
  param {
    lr_mult: 1
    decay_mult: 1
  }
  param {
    lr_mult: 2
    decay_mult: 0
  }
  convolution_param {
    num_output: 192
    pad: 1
    kernel_size: 3
    weight_filler {
      type: "xavier"
      std: 0.03
    }
    bias_filler {
      type: "constant"
      value: 0.2
    }
  }
}
layer {
  name: "conv2/relu_3x3"
  type: "ReLU"
  bottom: "conv2/3x3"
  top: "conv2/3x3"
}
layer {
  name: "conv2/norm2"
  type: "LRN"
  bottom: "conv2/3x3"
  top: "conv2/norm2"
  lrn_param {
    local_size: 5
    alpha: 0.0001
    beta: 0.75
  }
}
layer {
  name: "pool2/3x3_s2"
  type: "Pooling"
  bottom: "conv2/norm2"
  top: "pool2/3x3_s2"
  pooling_param {
    pool: MAX
    kernel_size: 3
    stride: 2
  }
}
layer {
  name: "inception_3a/1x1"
  type: "Convolution"
  bottom: "pool2/3x3_s2"
  top: "inception_3a/1x1"
  param {
    lr_mult: 1
    decay_mult: 1
  }
  param {
    lr_mult: 2
    decay_mult: 0
  }
  convolution_param {
    num_output: 64
    kernel_size: 1
    weight_filler {
      type: "xavier"
      std: 0.03
    }
    bias_filler {
      type: "constant"
      value: 0.2
    }
  }
}
layer {
  name: "inception_3a/relu_1x1"
  type: "ReLU"
  bottom: "inception_3a/1x1"
  top: "inception_3a/1x1"
}
layer {
  name: "inception_3a/3x3_reduce"
  type: "Convolution"
  bottom: "pool2/3x3_s2"
  top: "inception_3a/3x3_reduce"
  param {
    lr_mult: 1
    decay_mult: 1
  }
  param {
    lr_mult: 2
    decay_mult: 0
  }
  convolution_param {
    num_output: 96
    kernel_size: 1
    weight_filler {
      type: "xavier"
      std: 0.09
    }
    bias_filler {
      type: "constant"
      value: 0.2
    }
  }
}
layer {
  name: "inception_3a/relu_3x3_reduce"
  type: "ReLU"
  bottom: "inception_3a/3x3_reduce"
  top: "inception_3a/3x3_reduce"
}
layer {
  name: "inception_3a/3x3"
  type: "Convolution"
  bottom: "inception_3a/3x3_reduce"
  top: "inception_3a/3x3"
  param {
    lr_mult: 1
    decay_mult: 1
  }
  param {
    lr_mult: 2
    decay_mult: 0
  }
  convolution_param {
    num_output: 128
    pad: 1
    kernel_size: 3
    weight_filler {
      type: "xavier"
      std: 0.03
    }
    bias_filler {
      type: "constant"
      value: 0.2
    }
  }
}
layer {
  name: "inception_3a/relu_3x3"
  type: "ReLU"
  bottom: "inception_3a/3x3"
  top: "inception_3a/3x3"
}
layer {
  name: "inception_3a/5x5_reduce"
  type: "Convolution"
  bottom: "pool2/3x3_s2"
  top: "inception_3a/5x5_reduce"
  param {
    lr_mult: 1
    decay_mult: 1
  }
  param {
    lr_mult: 2
    decay_mult: 0
  }
  convolution_param {
    num_output: 16
    kernel_size: 1
    weight_filler {
      type: "xavier"
      std: 0.2
    }
    bias_filler {
      type: "constant"
      value: 0.2
    }
  }
}
layer {
  name: "inception_3a/relu_5x5_reduce"
  type: "ReLU"
  bottom: "inception_3a/5x5_reduce"
  top: "inception_3a/5x5_reduce"
}
layer {
  name: "inception_3a/5x5"
  type: "Convolution"
  bottom: "inception_3a/5x5_reduce"
  top: "inception_3a/5x5"
  param {
    lr_mult: 1
    decay_mult: 1
  }
  param {
    lr_mult: 2
    decay_mult: 0
  }
  convolution_param {
    num_output: 32
    pad: 2
    kernel_size: 5
    weight_filler {
      type: "xavier"
      std: 0.03
    }
    bias_filler {
      type: "constant"
      value: 0.2
    }
  }
}
layer {
  name: "inception_3a/relu_5x5"
  type: "ReLU"
  bottom: "inception_3a/5x5"
  top: "inception_3a/5x5"
}
layer {
  name: "inception_3a/pool"
  type: "Pooling"
  bottom: "pool2/3x3_s2"
  top: "inception_3a/pool"
  pooling_param {
    pool: MAX
    kernel_size: 3
    stride: 1
    pad: 1
  }
}
layer {
  name: "inception_3a/pool_proj"
  type: "Convolution"
  bottom: "inception_3a/pool"
  top: "inception_3a/pool_proj"
  param {
    lr_mult: 1
    decay_mult: 1
  }
  param {
    lr_mult: 2
    decay_mult: 0
  }
  convolution_param {
    num_output: 32
    kernel_size: 1
    weight_filler {
      type: "xavier"
      std: 0.1
    }
    bias_filler {
      type: "constant"
      value: 0.2
    }
  }
}
layer {
  name: "inception_3a/relu_pool_proj"
  type: "ReLU"
  bottom: "inception_3a/pool_proj"
  top: "inception_3a/pool_proj"
}
layer {
  name: "inception_3a/output"
  type: "Concat"
  bottom: "inception_3a/1x1"
  bottom: "inception_3a/3x3"
  bottom: "inception_3a/5x5"
  bottom: "inception_3a/pool_proj"
  top: "inception_3a/output"
}
layer {
  name: "inception_3b/1x1"
  type: "Convolution"
  bottom: "inception_3a/output"
  top: "inception_3b/1x1"
  param {
    lr_mult: 1
    decay_mult: 1
  }
  param {
    lr_mult: 2
    decay_mult: 0
  }
  convolution_param {
    num_output: 128
    kernel_size: 1
    weight_filler {
      type: "xavier"
      std: 0.03
    }
    bias_filler {
      type: "constant"
      value: 0.2
    }
  }
}
layer {
  name: "inception_3b/relu_1x1"
  type: "ReLU"
  bottom: "inception_3b/1x1"
  top: "inception_3b/1x1"
}
layer {
  name: "inception_3b/3x3_reduce"
  type: "Convolution"
  bottom: "inception_3a/output"
  top: "inception_3b/3x3_reduce"
  param {
    lr_mult: 1
    decay_mult: 1
  }
  param {
    lr_mult: 2
    decay_mult: 0
  }
  convolution_param {
    num_output: 128
    kernel_size: 1
    weight_filler {
      type: "xavier"
      std: 0.09
    }
    bias_filler {
      type: "constant"
      value: 0.2
    }
  }
}
layer {
  name: "inception_3b/relu_3x3_reduce"
  type: "ReLU"
  bottom: "inception_3b/3x3_reduce"
  top: "inception_3b/3x3_reduce"
}
layer {
  name: "inception_3b/3x3"
  type: "Convolution"
  bottom: "inception_3b/3x3_reduce"
  top: "inception_3b/3x3"
  param {
    lr_mult: 1
    decay_mult: 1
  }
  param {
    lr_mult: 2
    decay_mult: 0
  }
  convolution_param {
    num_output: 192
    pad: 1
    kernel_size: 3
    weight_filler {
      type: "xavier"
      std: 0.03
    }
    bias_filler {
      type: "constant"
      value: 0.2
    }
  }
}
layer {
  name: "inception_3b/relu_3x3"
  type: "ReLU"
  bottom: "inception_3b/3x3"
  top: "inception_3b/3x3"
}
layer {
  name: "inception_3b/5x5_reduce"
  type: "Convolution"
  bottom: "inception_3a/output"
  top: "inception_3b/5x5_reduce"
  param {
    lr_mult: 1
    decay_mult: 1
  }
  param {
    lr_mult: 2
    decay_mult: 0
  }
  convolution_param {
    num_output: 32
    kernel_size: 1
    weight_filler {
      type: "xavier"
      std: 0.2
    }
    bias_filler {
      type: "constant"
      value: 0.2
    }
  }
}
layer {
  name: "inception_3b/relu_5x5_reduce"
  type: "ReLU"
  bottom: "inception_3b/5x5_reduce"
  top: "inception_3b/5x5_reduce"
}
layer {
  name: "inception_3b/5x5"
  type: "Convolution"
  bottom: "inception_3b/5x5_reduce"
  top: "inception_3b/5x5"
  param {
    lr_mult: 1
    decay_mult: 1
  }
  param {
    lr_mult: 2
    decay_mult: 0
  }
  convolution_param {
    num_output: 96
    pad: 2
    kernel_size: 5
    weight_filler {
      type: "xavier"
      std: 0.03
    }
    bias_filler {
      type: "constant"
      value: 0.2
    }
  }
}
layer {
  name: "inception_3b/relu_5x5"
  type: "ReLU"
  bottom: "inception_3b/5x5"
  top: "inception_3b/5x5"
}
layer {
  name: "inception_3b/pool"
  type: "Pooling"
  bottom: "inception_3a/output"
  top: "inception_3b/pool"
  pooling_param {
    pool: MAX
    kernel_size: 3
    stride: 1
    pad: 1
  }
}
layer {
  name: "inception_3b/pool_proj"
  type: "Convolution"
  bottom: "inception_3b/pool"
  top: "inception_3b/pool_proj"
  param {
    lr_mult: 1
    decay_mult: 1
  }
  param {
    lr_mult: 2
    decay_mult: 0
  }
  convolution_param {
    num_output: 64
    kernel_size: 1
    weight_filler {
      type: "xavier"
      std: 0.1
    }
    bias_filler {
      type: "constant"
      value: 0.2
    }
  }
}
layer {
  name: "inception_3b/relu_pool_proj"
  type: "ReLU"
  bottom: "inception_3b/pool_proj"
  top: "inception_3b/pool_proj"
}
layer {
  name: "inception_3b/output"
  type: "Concat"
  bottom: "inception_3b/1x1"
  bottom: "inception_3b/3x3"
  bottom: "inception_3b/5x5"
  bottom: "inception_3b/pool_proj"
  top: "inception_3b/output"
}
layer {
  name: "pool3/3x3_s2"
  type: "Pooling"
  bottom: "inception_3b/output"
  top: "pool3/3x3_s2"
  pooling_param {
    pool: MAX
    kernel_size: 3
    stride: 2
  }
}
layer {
  name: "inception_4a/1x1"
  type: "Convolution"
  bottom: "pool3/3x3_s2"
  top: "inception_4a/1x1"
  param {
    lr_mult: 1
    decay_mult: 1
  }
  param {
    lr_mult: 2
    decay_mult: 0
  }
  convolution_param {
    num_output: 192
    kernel_size: 1
    weight_filler {
      type: "xavier"
      std: 0.03
    }
    bias_filler {
      type: "constant"
      value: 0.2
    }
  }
}
layer {
  name: "inception_4a/relu_1x1"
  type: "ReLU"
  bottom: "inception_4a/1x1"
  top: "inception_4a/1x1"
}
layer {
  name: "inception_4a/3x3_reduce"
  type: "Convolution"
  bottom: "pool3/3x3_s2"
  top: "inception_4a/3x3_reduce"
  param {
    lr_mult: 1
    decay_mult: 1
  }
  param {
    lr_mult: 2
    decay_mult: 0
  }
  convolution_param {
    num_output: 96
    kernel_size: 1
    weight_filler {
      type: "xavier"
      std: 0.09
    }
    bias_filler {
      type: "constant"
      value: 0.2
    }
  }
}
layer {
  name: "inception_4a/relu_3x3_reduce"
  type: "ReLU"
  bottom: "inception_4a/3x3_reduce"
  top: "inception_4a/3x3_reduce"
}
layer {
  name: "inception_4a/3x3"
  type: "Convolution"
  bottom: "inception_4a/3x3_reduce"
  top: "inception_4a/3x3"
  param {
    lr_mult: 1
    decay_mult: 1
  }
  param {
    lr_mult: 2
    decay_mult: 0
  }
  convolution_param {
    num_output: 208
    pad: 1
    kernel_size: 3
    weight_filler {
      type: "xavier"
      std: 0.03
    }
    bias_filler {
      type: "constant"
      value: 0.2
    }
  }
}
layer {
  name: "inception_4a/relu_3x3"
  type: "ReLU"
  bottom: "inception_4a/3x3"
  top: "inception_4a/3x3"
}
layer {
  name: "inception_4a/5x5_reduce"
  type: "Convolution"
  bottom: "pool3/3x3_s2"
  top: "inception_4a/5x5_reduce"
  param {
    lr_mult: 1
    decay_mult: 1
  }
  param {
    lr_mult: 2
    decay_mult: 0
  }
  convolution_param {
    num_output: 16
    kernel_size: 1
    weight_filler {
      type: "xavier"
      std: 0.2
    }
    bias_filler {
      type: "constant"
      value: 0.2
    }
  }
}
layer {
  name: "inception_4a/relu_5x5_reduce"
  type: "ReLU"
  bottom: "inception_4a/5x5_reduce"
  top: "inception_4a/5x5_reduce"
}
layer {
  name: "inception_4a/5x5"
  type: "Convolution"
  bottom: "inception_4a/5x5_reduce"
  top: "inception_4a/5x5"
  param {
    lr_mult: 1
    decay_mult: 1
  }
  param {
    lr_mult: 2
    decay_mult: 0
  }
  convolution_param {
    num_output: 48
    pad: 2
    kernel_size: 5
    weight_filler {
      type: "xavier"
      std: 0.03
    }
    bias_filler {
      type: "constant"
      value: 0.2
    }
  }
}
layer {
  name: "inception_4a/relu_5x5"
  type: "ReLU"
  bottom: "inception_4a/5x5"
  top: "inception_4a/5x5"
}
layer {
  name: "inception_4a/pool"
  type: "Pooling"
  bottom: "pool3/3x3_s2"
  top: "inception_4a/pool"
  pooling_param {
    pool: MAX
    kernel_size: 3
    stride: 1
    pad: 1
  }
}
layer {
  name: "inception_4a/pool_proj"
  type: "Convolution"
  bottom: "inception_4a/pool"
  top: "inception_4a/pool_proj"
  param {
    lr_mult: 1
    decay_mult: 1
  }
  param {
    lr_mult: 2
    decay_mult: 0
  }
  convolution_param {
    num_output: 64
    kernel_size: 1
    weight_filler {
      type: "xavier"
      std: 0.1
    }
    bias_filler {
      type: "constant"
      value: 0.2
    }
  }
}
layer {
  name: "inception_4a/relu_pool_proj"
  type: "ReLU"
  bottom: "inception_4a/pool_proj"
  top: "inception_4a/pool_proj"
}
layer {
  name: "inception_4a/output"
  type: "Concat"
  bottom: "inception_4a/1x1"
  bottom: "inception_4a/3x3"
  bottom: "inception_4a/5x5"
  bottom: "inception_4a/pool_proj"
  top: "inception_4a/output"
}
layer {
  name: "loss1/ave_pool"
  type: "Pooling"
  bottom: "inception_4a/output"
  top: "loss1/ave_pool"
  pooling_param {
    pool: AVE
    kernel_size: 5
    stride: 3
  }
}
layer {
  name: "loss1/conv"
  type: "Convolution"
  bottom: "loss1/ave_pool"
  top: "loss1/conv"
  param {
    lr_mult: 1
    decay_mult: 1
  }
  param {
    lr_mult: 2
    decay_mult: 0
  }
  convolution_param {
    num_output: 128
    kernel_size: 1
    weight_filler {
      type: "xavier"
      std: 0.08
    }
    bias_filler {
      type: "constant"
      value: 0.2
    }
  }
}
layer {
  name: "loss1/relu_conv"
  type: "ReLU"
  bottom: "loss1/conv"
  top: "loss1/conv"
}
layer {
  name: "loss1/fc"
  type: "InnerProduct"
  bottom: "loss1/conv"
  top: "loss1/fc"
  param {
    lr_mult: 1
    decay_mult: 1
  }
  param {
    lr_mult: 2
    decay_mult: 0
  }
  inner_product_param {
    num_output: 1024
    weight_filler {
      type: "xavier"
      std: 0.02
    }
    bias_filler {
      type: "constant"
      value: 0.2
    }
  }
}
layer {
  name: "loss1/relu_fc"
  type: "ReLU"
  bottom: "loss1/fc"
  top: "loss1/fc"
}
layer {
  name: "loss1/drop_fc"
  type: "Dropout"
  bottom: "loss1/fc"
  top: "loss1/fc"
  dropout_param {
    dropout_ratio: 0.7
  }
}
layer {
  name: "loss1/classifier_plantvillage"
  type: "InnerProduct"
  bottom: "loss1/fc"
  top: "loss1/classifier_plantvillage"
  param {
    lr_mult: 1
    decay_mult: 1
  }
  param {
    lr_mult: 2
    decay_mult: 0
  }
  inner_product_param {
    num_output: 38
    weight_filler {
      type: "xavier"
      std: 0.0009765625
    }
    bias_filler {
      type: "constant"
      value: 0
    }
  }
}
layer {
  name: "inception_4b/1x1"
  type: "Convolution"
  bottom: "inception_4a/output"
  top: "inception_4b/1x1"
  param {
    lr_mult: 1
    decay_mult: 1
  }
  param {
    lr_mult: 2
    decay_mult: 0
  }
  convolution_param {
    num_output: 160
    kernel_size: 1
    weight_filler {
      type: "xavier"
      std: 0.03
    }
    bias_filler {
      type: "constant"
      value: 0.2
    }
  }
}
layer {
  name: "inception_4b/relu_1x1"
  type: "ReLU"
  bottom: "inception_4b/1x1"
  top: "inception_4b/1x1"
}
layer {
  name: "inception_4b/3x3_reduce"
  type: "Convolution"
  bottom: "inception_4a/output"
  top: "inception_4b/3x3_reduce"
  param {
    lr_mult: 1
    decay_mult: 1
  }
  param {
    lr_mult: 2
    decay_mult: 0
  }
  convolution_param {
    num_output: 112
    kernel_size: 1
    weight_filler {
      type: "xavier"
      std: 0.09
    }
    bias_filler {
      type: "constant"
      value: 0.2
    }
  }
}
layer {
  name: "inception_4b/relu_3x3_reduce"
  type: "ReLU"
  bottom: "inception_4b/3x3_reduce"
  top: "inception_4b/3x3_reduce"
}
layer {
  name: "inception_4b/3x3"
  type: "Convolution"
  bottom: "inception_4b/3x3_reduce"
  top: "inception_4b/3x3"
  param {
    lr_mult: 1
    decay_mult: 1
  }
  param {
    lr_mult: 2
    decay_mult: 0
  }
  convolution_param {
    num_output: 224
    pad: 1
    kernel_size: 3
    weight_filler {
      type: "xavier"
      std: 0.03
    }
    bias_filler {
      type: "constant"
      value: 0.2
    }
  }
}
layer {
  name: "inception_4b/relu_3x3"
  type: "ReLU"
  bottom: "inception_4b/3x3"
  top: "inception_4b/3x3"
}
layer {
  name: "inception_4b/5x5_reduce"
  type: "Convolution"
  bottom: "inception_4a/output"
  top: "inception_4b/5x5_reduce"
  param {
    lr_mult: 1
    decay_mult: 1
  }
  param {
    lr_mult: 2
    decay_mult: 0
  }
  convolution_param {
    num_output: 24
    kernel_size: 1
    weight_filler {
      type: "xavier"
      std: 0.2
    }
    bias_filler {
      type: "constant"
      value: 0.2
    }
  }
}
layer {
  name: "inception_4b/relu_5x5_reduce"
  type: "ReLU"
  bottom: "inception_4b/5x5_reduce"
  top: "inception_4b/5x5_reduce"
}
layer {
  name: "inception_4b/5x5"
  type: "Convolution"
  bottom: "inception_4b/5x5_reduce"
  top: "inception_4b/5x5"
  param {
    lr_mult: 1
    decay_mult: 1
  }
  param {
    lr_mult: 2
    decay_mult: 0
  }
  convolution_param {
    num_output: 64
    pad: 2
    kernel_size: 5
    weight_filler {
      type: "xavier"
      std: 0.03
    }
    bias_filler {
      type: "constant"
      value: 0.2
    }
  }
}
layer {
  name: "inception_4b/relu_5x5"
  type: "ReLU"
  bottom: "inception_4b/5x5"
  top: "inception_4b/5x5"
}
layer {
  name: "inception_4b/pool"
  type: "Pooling"
  bottom: "inception_4a/output"
  top: "inception_4b/pool"
  pooling_param {
    pool: MAX
    kernel_size: 3
    stride: 1
    pad: 1
  }
}
layer {
  name: "inception_4b/pool_proj"
  type: "Convolution"
  bottom: "inception_4b/pool"
  top: "inception_4b/pool_proj"
  param {
    lr_mult: 1
    decay_mult: 1
  }
  param {
    lr_mult: 2
    decay_mult: 0
  }
  convolution_param {
    num_output: 64
    kernel_size: 1
    weight_filler {
      type: "xavier"
      std: 0.1
    }
    bias_filler {
      type: "constant"
      value: 0.2
    }
  }
}
layer {
  name: "inception_4b/relu_pool_proj"
  type: "ReLU"
  bottom: "inception_4b/pool_proj"
  top: "inception_4b/pool_proj"
}
layer {
  name: "inception_4b/output"
  type: "Concat"
  bottom: "inception_4b/1x1"
  bottom: "inception_4b/3x3"
  bottom: "inception_4b/5x5"
  bottom: "inception_4b/pool_proj"
  top: "inception_4b/output"
}
layer {
  name: "inception_4c/1x1"
  type: "Convolution"
  bottom: "inception_4b/output"
  top: "inception_4c/1x1"
  param {
    lr_mult: 1
    decay_mult: 1
  }
  param {
    lr_mult: 2
    decay_mult: 0
  }
  convolution_param {
    num_output: 128
    kernel_size: 1
    weight_filler {
      type: "xavier"
      std: 0.03
    }
    bias_filler {
      type: "constant"
      value: 0.2
    }
  }
}
layer {
  name: "inception_4c/relu_1x1"
  type: "ReLU"
  bottom: "inception_4c/1x1"
  top: "inception_4c/1x1"
}
layer {
  name: "inception_4c/3x3_reduce"
  type: "Convolution"
  bottom: "inception_4b/output"
  top: "inception_4c/3x3_reduce"
  param {
    lr_mult: 1
    decay_mult: 1
  }
  param {
    lr_mult: 2
    decay_mult: 0
  }
  convolution_param {
    num_output: 128
    kernel_size: 1
    weight_filler {
      type: "xavier"
      std: 0.09
    }
    bias_filler {
      type: "constant"
      value: 0.2
    }
  }
}
layer {
  name: "inception_4c/relu_3x3_reduce"
  type: "ReLU"
  bottom: "inception_4c/3x3_reduce"
  top: "inception_4c/3x3_reduce"
}
layer {
  name: "inception_4c/3x3"
  type: "Convolution"
  bottom: "inception_4c/3x3_reduce"
  top: "inception_4c/3x3"
  param {
    lr_mult: 1
    decay_mult: 1
  }
  param {
    lr_mult: 2
    decay_mult: 0
  }
  convolution_param {
    num_output: 256
    pad: 1
    kernel_size: 3
    weight_filler {
      type: "xavier"
      std: 0.03
    }
    bias_filler {
      type: "constant"
      value: 0.2
    }
  }
}
layer {
  name: "inception_4c/relu_3x3"
  type: "ReLU"
  bottom: "inception_4c/3x3"
  top: "inception_4c/3x3"
}
layer {
  name: "inception_4c/5x5_reduce"
  type: "Convolution"
  bottom: "inception_4b/output"
  top: "inception_4c/5x5_reduce"
  param {
    lr_mult: 1
    decay_mult: 1
  }
  param {
    lr_mult: 2
    decay_mult: 0
  }
  convolution_param {
    num_output: 24
    kernel_size: 1
    weight_filler {
      type: "xavier"
      std: 0.2
    }
    bias_filler {
      type: "constant"
      value: 0.2
    }
  }
}
layer {
  name: "inception_4c/relu_5x5_reduce"
  type: "ReLU"
  bottom: "inception_4c/5x5_reduce"
  top: "inception_4c/5x5_reduce"
}
layer {
  name: "inception_4c/5x5"
  type: "Convolution"
  bottom: "inception_4c/5x5_reduce"
  top: "inception_4c/5x5"
  param {
    lr_mult: 1
    decay_mult: 1
  }
  param {
    lr_mult: 2
    decay_mult: 0
  }
  convolution_param {
    num_output: 64
    pad: 2
    kernel_size: 5
    weight_filler {
      type: "xavier"
      std: 0.03
    }
    bias_filler {
      type: "constant"
      value: 0.2
    }
  }
}
layer {
  name: "inception_4c/relu_5x5"
  type: "ReLU"
  bottom: "inception_4c/5x5"
  top: "inception_4c/5x5"
}
layer {
  name: "inception_4c/pool"
  type: "Pooling"
  bottom: "inception_4b/output"
  top: "inception_4c/pool"
  pooling_param {
    pool: MAX
    kernel_size: 3
    stride: 1
    pad: 1
  }
}
layer {
  name: "inception_4c/pool_proj"
  type: "Convolution"
  bottom: "inception_4c/pool"
  top: "inception_4c/pool_proj"
  param {
    lr_mult: 1
    decay_mult: 1
  }
  param {
    lr_mult: 2
    decay_mult: 0
  }
  convolution_param {
    num_output: 64
    kernel_size: 1
    weight_filler {
      type: "xavier"
      std: 0.1
    }
    bias_filler {
      type: "constant"
      value: 0.2
    }
  }
}
layer {
  name: "inception_4c/relu_pool_proj"
  type: "ReLU"
  bottom: "inception_4c/pool_proj"
  top: "inception_4c/pool_proj"
}
layer {
  name: "inception_4c/output"
  type: "Concat"
  bottom: "inception_4c/1x1"
  bottom: "inception_4c/3x3"
  bottom: "inception_4c/5x5"
  bottom: "inception_4c/pool_proj"
  top: "inception_4c/output"
}
layer {
  name: "inception_4d/1x1"
  type: "Convolution"
  bottom: "inception_4c/output"
  top: "inception_4d/1x1"
  param {
    lr_mult: 1
    decay_mult: 1
  }
  param {
    lr_mult: 2
    decay_mult: 0
  }
  convolution_param {
    num_output: 112
    kernel_size: 1
    weight_filler {
      type: "xavier"
      std: 0.03
    }
    bias_filler {
      type: "constant"
      value: 0.2
    }
  }
}
layer {
  name: "inception_4d/relu_1x1"
  type: "ReLU"
  bottom: "inception_4d/1x1"
  top: "inception_4d/1x1"
}
layer {
  name: "inception_4d/3x3_reduce"
  type: "Convolution"
  bottom: "inception_4c/output"
  top: "inception_4d/3x3_reduce"
  param {
    lr_mult: 1
    decay_mult: 1
  }
  param {
    lr_mult: 2
    decay_mult: 0
  }
  convolution_param {
    num_output: 144
    kernel_size: 1
    weight_filler {
      type: "xavier"
      std: 0.09
    }
    bias_filler {
      type: "constant"
      value: 0.2
    }
  }
}
layer {
  name: "inception_4d/relu_3x3_reduce"
  type: "ReLU"
  bottom: "inception_4d/3x3_reduce"
  top: "inception_4d/3x3_reduce"
}
layer {
  name: "inception_4d/3x3"
  type: "Convolution"
  bottom: "inception_4d/3x3_reduce"
  top: "inception_4d/3x3"
  param {
    lr_mult: 1
    decay_mult: 1
  }
  param {
    lr_mult: 2
    decay_mult: 0
  }
  convolution_param {
    num_output: 288
    pad: 1
    kernel_size: 3
    weight_filler {
      type: "xavier"
      std: 0.03
    }
    bias_filler {
      type: "constant"
      value: 0.2
    }
  }
}
layer {
  name: "inception_4d/relu_3x3"
  type: "ReLU"
  bottom: "inception_4d/3x3"
  top: "inception_4d/3x3"
}
layer {
  name: "inception_4d/5x5_reduce"
  type: "Convolution"
  bottom: "inception_4c/output"
  top: "inception_4d/5x5_reduce"
  param {
    lr_mult: 1
    decay_mult: 1
  }
  param {
    lr_mult: 2
    decay_mult: 0
  }
  convolution_param {
    num_output: 32
    kernel_size: 1
    weight_filler {
      type: "xavier"
      std: 0.2
    }
    bias_filler {
      type: "constant"
      value: 0.2
    }
  }
}
layer {
  name: "inception_4d/relu_5x5_reduce"
  type: "ReLU"
  bottom: "inception_4d/5x5_reduce"
  top: "inception_4d/5x5_reduce"
}
layer {
  name: "inception_4d/5x5"
  type: "Convolution"
  bottom: "inception_4d/5x5_reduce"
  top: "inception_4d/5x5"
  param {
    lr_mult: 1
    decay_mult: 1
  }
  param {
    lr_mult: 2
    decay_mult: 0
  }
  convolution_param {
    num_output: 64
    pad: 2
    kernel_size: 5
    weight_filler {
      type: "xavier"
      std: 0.03
    }
    bias_filler {
      type: "constant"
      value: 0.2
    }
  }
}
layer {
  name: "inception_4d/relu_5x5"
  type: "ReLU"
  bottom: "inception_4d/5x5"
  top: "inception_4d/5x5"
}
layer {
  name: "inception_4d/pool"
  type: "Pooling"
  bottom: "inception_4c/output"
  top: "inception_4d/pool"
  pooling_param {
    pool: MAX
    kernel_size: 3
    stride: 1
    pad: 1
  }
}
layer {
  name: "inception_4d/pool_proj"
  type: "Convolution"
  bottom: "inception_4d/pool"
  top: "inception_4d/pool_proj"
  param {
    lr_mult: 1
    decay_mult: 1
  }
  param {
    lr_mult: 2
    decay_mult: 0
  }
  convolution_param {
    num_output: 64
    kernel_size: 1
    weight_filler {
      type: "xavier"
      std: 0.1
    }
    bias_filler {
      type: "constant"
      value: 0.2
    }
  }
}
layer {
  name: "inception_4d/relu_pool_proj"
  type: "ReLU"
  bottom: "inception_4d/pool_proj"
  top: "inception_4d/pool_proj"
}
layer {
  name: "inception_4d/output"
  type: "Concat"
  bottom: "inception_4d/1x1"
  bottom: "inception_4d/3x3"
  bottom: "inception_4d/5x5"
  bottom: "inception_4d/pool_proj"
  top: "inception_4d/output"
}
layer {
  name: "loss2/ave_pool"
  type: "Pooling"
  bottom: "inception_4d/output"
  top: "loss2/ave_pool"
  pooling_param {
    pool: AVE
    kernel_size: 5
    stride: 3
  }
}
layer {
  name: "loss2/conv"
  type: "Convolution"
  bottom: "loss2/ave_pool"
  top: "loss2/conv"
  param {
    lr_mult: 1
    decay_mult: 1
  }
  param {
    lr_mult: 2
    decay_mult: 0
  }
  convolution_param {
    num_output: 128
    kernel_size: 1
    weight_filler {
      type: "xavier"
      std: 0.08
    }
    bias_filler {
      type: "constant"
      value: 0.2
    }
  }
}
layer {
  name: "loss2/relu_conv"
  type: "ReLU"
  bottom: "loss2/conv"
  top: "loss2/conv"
}
layer {
  name: "loss2/fc"
  type: "InnerProduct"
  bottom: "loss2/conv"
  top: "loss2/fc"
  param {
    lr_mult: 1
    decay_mult: 1
  }
  param {
    lr_mult: 2
    decay_mult: 0
  }
  inner_product_param {
    num_output: 1024
    weight_filler {
      type: "xavier"
      std: 0.02
    }
    bias_filler {
      type: "constant"
      value: 0.2
    }
  }
}
layer {
  name: "loss2/relu_fc"
  type: "ReLU"
  bottom: "loss2/fc"
  top: "loss2/fc"
}
layer {
  name: "loss2/drop_fc"
  type: "Dropout"
  bottom: "loss2/fc"
  top: "loss2/fc"
  dropout_param {
    dropout_ratio: 0.7
  }
}
layer {
  name: "loss2/classifier_plantvillage"
  type: "InnerProduct"
  bottom: "loss2/fc"
  top: "loss2/classifier_plantvillage"
  param {
    lr_mult: 1
    decay_mult: 1
  }
  param {
    lr_mult: 2
    decay_mult: 0
  }
  inner_product_param {
    num_output: 38
    weight_filler {
      type: "xavier"
      std: 0.0009765625
    }
    bias_filler {
      type: "constant"
      value: 0
    }
  }
}
layer {
  name: "inception_4e/1x1"
  type: "Convolution"
  bottom: "inception_4d/output"
  top: "inception_4e/1x1"
  param {
    lr_mult: 1
    decay_mult: 1
  }
  param {
    lr_mult: 2
    decay_mult: 0
  }
  convolution_param {
    num_output: 256
    kernel_size: 1
    weight_filler {
      type: "xavier"
      std: 0.03
    }
    bias_filler {
      type: "constant"
      value: 0.2
    }
  }
}
layer {
  name: "inception_4e/relu_1x1"
  type: "ReLU"
  bottom: "inception_4e/1x1"
  top: "inception_4e/1x1"
}
layer {
  name: "inception_4e/3x3_reduce"
  type: "Convolution"
  bottom: "inception_4d/output"
  top: "inception_4e/3x3_reduce"
  param {
    lr_mult: 1
    decay_mult: 1
  }
  param {
    lr_mult: 2
    decay_mult: 0
  }
  convolution_param {
    num_output: 160
    kernel_size: 1
    weight_filler {
      type: "xavier"
      std: 0.09
    }
    bias_filler {
      type: "constant"
      value: 0.2
    }
  }
}
layer {
  name: "inception_4e/relu_3x3_reduce"
  type: "ReLU"
  bottom: "inception_4e/3x3_reduce"
  top: "inception_4e/3x3_reduce"
}
layer {
  name: "inception_4e/3x3"
  type: "Convolution"
  bottom: "inception_4e/3x3_reduce"
  top: "inception_4e/3x3"
  param {
    lr_mult: 1
    decay_mult: 1
  }
  param {
    lr_mult: 2
    decay_mult: 0
  }
  convolution_param {
    num_output: 320
    pad: 1
    kernel_size: 3
    weight_filler {
      type: "xavier"
      std: 0.03
    }
    bias_filler {
      type: "constant"
      value: 0.2
    }
  }
}
layer {
  name: "inception_4e/relu_3x3"
  type: "ReLU"
  bottom: "inception_4e/3x3"
  top: "inception_4e/3x3"
}
layer {
  name: "inception_4e/5x5_reduce"
  type: "Convolution"
  bottom: "inception_4d/output"
  top: "inception_4e/5x5_reduce"
  param {
    lr_mult: 1
    decay_mult: 1
  }
  param {
    lr_mult: 2
    decay_mult: 0
  }
  convolution_param {
    num_output: 32
    kernel_size: 1
    weight_filler {
      type: "xavier"
      std: 0.2
    }
    bias_filler {
      type: "constant"
      value: 0.2
    }
  }
}
layer {
  name: "inception_4e/relu_5x5_reduce"
  type: "ReLU"
  bottom: "inception_4e/5x5_reduce"
  top: "inception_4e/5x5_reduce"
}
layer {
  name: "inception_4e/5x5"
  type: "Convolution"
  bottom: "inception_4e/5x5_reduce"
  top: "inception_4e/
I0403 17:58:51.949393 15706 layer_factory.hpp:77] Creating layer data
I0403 17:58:51.949972 15706 net.cpp:91] Creating Layer data
I0403 17:58:51.950003 15706 net.cpp:399] data -> data
I0403 17:58:51.950054 15706 net.cpp:399] data -> label
I0403 17:58:51.950090 15706 data_transformer.cpp:25] Loading mean file from: /home/mohanty/data/final_dataset/lmdb/grayscale-60-40/mean.binaryproto
I0403 17:58:51.951246 15710 db_lmdb.cpp:38] Opened lmdb /home/mohanty/data/final_dataset/lmdb/grayscale-60-40/test_db
I0403 17:58:51.963023 15706 data_layer.cpp:41] output data size: 24,3,224,224
I0403 17:58:51.989320 15706 net.cpp:141] Setting up data
I0403 17:58:51.989408 15706 net.cpp:148] Top shape: 24 3 224 224 (3612672)
I0403 17:58:51.989429 15706 net.cpp:148] Top shape: 24 (24)
I0403 17:58:51.989444 15706 net.cpp:156] Memory required for data: 14450784
I0403 17:58:51.989470 15706 layer_factory.hpp:77] Creating layer label_data_1_split
I0403 17:58:51.989495 15706 net.cpp:91] Creating Layer label_data_1_split
I0403 17:58:51.989513 15706 net.cpp:425] label_data_1_split <- label
I0403 17:58:51.989544 15706 net.cpp:399] label_data_1_split -> label_data_1_split_0
I0403 17:58:51.989572 15706 net.cpp:399] label_data_1_split -> label_data_1_split_1
I0403 17:58:51.989593 15706 net.cpp:399] label_data_1_split -> label_data_1_split_2
I0403 17:58:51.989612 15706 net.cpp:399] label_data_1_split -> label_data_1_split_3
I0403 17:58:51.989631 15706 net.cpp:399] label_data_1_split -> label_data_1_split_4
I0403 17:58:51.989651 15706 net.cpp:399] label_data_1_split -> label_data_1_split_5
I0403 17:58:51.989670 15706 net.cpp:399] label_data_1_split -> label_data_1_split_6
I0403 17:58:51.989691 15706 net.cpp:399] label_data_1_split -> label_data_1_split_7
I0403 17:58:51.989708 15706 net.cpp:399] label_data_1_split -> label_data_1_split_8
I0403 17:58:51.989728 15706 net.cpp:399] label_data_1_split -> label_data_1_split_9
I0403 17:58:51.989840 15706 net.cpp:141] Setting up label_data_1_split
I0403 17:58:51.989862 15706 net.cpp:148] Top shape: 24 (24)
I0403 17:58:51.989878 15706 net.cpp:148] Top shape: 24 (24)
I0403 17:58:51.989895 15706 net.cpp:148] Top shape: 24 (24)
I0403 17:58:51.989910 15706 net.cpp:148] Top shape: 24 (24)
I0403 17:58:51.989926 15706 net.cpp:148] Top shape: 24 (24)
I0403 17:58:51.989941 15706 net.cpp:148] Top shape: 24 (24)
I0403 17:58:51.989964 15706 net.cpp:148] Top shape: 24 (24)
I0403 17:58:51.989979 15706 net.cpp:148] Top shape: 24 (24)
I0403 17:58:51.989995 15706 net.cpp:148] Top shape: 24 (24)
I0403 17:58:51.990010 15706 net.cpp:148] Top shape: 24 (24)
I0403 17:58:51.990052 15706 net.cpp:156] Memory required for data: 14451744
I0403 17:58:51.990068 15706 layer_factory.hpp:77] Creating layer conv1/7x7_s2
I0403 17:58:51.990099 15706 net.cpp:91] Creating Layer conv1/7x7_s2
I0403 17:58:51.990118 15706 net.cpp:425] conv1/7x7_s2 <- data
I0403 17:58:51.990137 15706 net.cpp:399] conv1/7x7_s2 -> conv1/7x7_s2
I0403 17:58:52.128739 15706 net.cpp:141] Setting up conv1/7x7_s2
I0403 17:58:52.128826 15706 net.cpp:148] Top shape: 24 64 112 112 (19267584)
I0403 17:58:52.128870 15706 net.cpp:156] Memory required for data: 91522080
I0403 17:58:52.128903 15706 layer_factory.hpp:77] Creating layer conv1/relu_7x7
I0403 17:58:52.128931 15706 net.cpp:91] Creating Layer conv1/relu_7x7
I0403 17:58:52.128948 15706 net.cpp:425] conv1/relu_7x7 <- conv1/7x7_s2
I0403 17:58:52.128968 15706 net.cpp:386] conv1/relu_7x7 -> conv1/7x7_s2 (in-place)
I0403 17:58:52.129253 15706 net.cpp:141] Setting up conv1/relu_7x7
I0403 17:58:52.129281 15706 net.cpp:148] Top shape: 24 64 112 112 (19267584)
I0403 17:58:52.129297 15706 net.cpp:156] Memory required for data: 168592416
I0403 17:58:52.129312 15706 layer_factory.hpp:77] Creating layer pool1/3x3_s2
I0403 17:58:52.129335 15706 net.cpp:91] Creating Layer pool1/3x3_s2
I0403 17:58:52.129354 15706 net.cpp:425] pool1/3x3_s2 <- conv1/7x7_s2
I0403 17:58:52.129374 15706 net.cpp:399] pool1/3x3_s2 -> pool1/3x3_s2
I0403 17:58:52.129452 15706 net.cpp:141] Setting up pool1/3x3_s2
I0403 17:58:52.129477 15706 net.cpp:148] Top shape: 24 64 56 56 (4816896)
I0403 17:58:52.129492 15706 net.cpp:156] Memory required for data: 187860000
I0403 17:58:52.129513 15706 layer_factory.hpp:77] Creating layer pool1/norm1
I0403 17:58:52.129540 15706 net.cpp:91] Creating Layer pool1/norm1
I0403 17:58:52.129560 15706 net.cpp:425] pool1/norm1 <- pool1/3x3_s2
I0403 17:58:52.129578 15706 net.cpp:399] pool1/norm1 -> pool1/norm1
I0403 17:58:52.129887 15706 net.cpp:141] Setting up pool1/norm1
I0403 17:58:52.129914 15706 net.cpp:148] Top shape: 24 64 56 56 (4816896)
I0403 17:58:52.129930 15706 net.cpp:156] Memory required for data: 207127584
I0403 17:58:52.129945 15706 layer_factory.hpp:77] Creating layer conv2/3x3_reduce
I0403 17:58:52.129972 15706 net.cpp:91] Creating Layer conv2/3x3_reduce
I0403 17:58:52.129994 15706 net.cpp:425] conv2/3x3_reduce <- pool1/norm1
I0403 17:58:52.130017 15706 net.cpp:399] conv2/3x3_reduce -> conv2/3x3_reduce
I0403 17:58:52.131445 15706 net.cpp:141] Setting up conv2/3x3_reduce
I0403 17:58:52.131477 15706 net.cpp:148] Top shape: 24 64 56 56 (4816896)
I0403 17:58:52.131494 15706 net.cpp:156] Memory required for data: 226395168
I0403 17:58:52.131515 15706 layer_factory.hpp:77] Creating layer conv2/relu_3x3_reduce
I0403 17:58:52.131534 15706 net.cpp:91] Creating Layer conv2/relu_3x3_reduce
I0403 17:58:52.131549 15706 net.cpp:425] conv2/relu_3x3_reduce <- conv2/3x3_reduce
I0403 17:58:52.131567 15706 net.cpp:386] conv2/relu_3x3_reduce -> conv2/3x3_reduce (in-place)
I0403 17:58:52.131834 15706 net.cpp:141] Setting up conv2/relu_3x3_reduce
I0403 17:58:52.131862 15706 net.cpp:148] Top shape: 24 64 56 56 (4816896)
I0403 17:58:52.131878 15706 net.cpp:156] Memory required for data: 245662752
I0403 17:58:52.131894 15706 layer_factory.hpp:77] Creating layer conv2/3x3
I0403 17:58:52.131917 15706 net.cpp:91] Creating Layer conv2/3x3
I0403 17:58:52.131935 15706 net.cpp:425] conv2/3x3 <- conv2/3x3_reduce
I0403 17:58:52.131955 15706 net.cpp:399] conv2/3x3 -> conv2/3x3
I0403 17:58:52.134265 15706 net.cpp:141] Setting up conv2/3x3
I0403 17:58:52.134297 15706 net.cpp:148] Top shape: 24 192 56 56 (14450688)
I0403 17:58:52.134315 15706 net.cpp:156] Memory required for data: 303465504
I0403 17:58:52.134335 15706 layer_factory.hpp:77] Creating layer conv2/relu_3x3
I0403 17:58:52.134354 15706 net.cpp:91] Creating Layer conv2/relu_3x3
I0403 17:58:52.134371 15706 net.cpp:425] conv2/relu_3x3 <- conv2/3x3
I0403 17:58:52.134390 15706 net.cpp:386] conv2/relu_3x3 -> conv2/3x3 (in-place)
I0403 17:58:52.134564 15706 net.cpp:141] Setting up conv2/relu_3x3
I0403 17:58:52.134589 15706 net.cpp:148] Top shape: 24 192 56 56 (14450688)
I0403 17:58:52.134634 15706 net.cpp:156] Memory required for data: 361268256
I0403 17:58:52.134650 15706 layer_factory.hpp:77] Creating layer conv2/norm2
I0403 17:58:52.134671 15706 net.cpp:91] Creating Layer conv2/norm2
I0403 17:58:52.134690 15706 net.cpp:425] conv2/norm2 <- conv2/3x3
I0403 17:58:52.134707 15706 net.cpp:399] conv2/norm2 -> conv2/norm2
I0403 17:58:52.135013 15706 net.cpp:141] Setting up conv2/norm2
I0403 17:58:52.135040 15706 net.cpp:148] Top shape: 24 192 56 56 (14450688)
I0403 17:58:52.135059 15706 net.cpp:156] Memory required for data: 419071008
I0403 17:58:52.135076 15706 layer_factory.hpp:77] Creating layer pool2/3x3_s2
I0403 17:58:52.135092 15706 net.cpp:91] Creating Layer pool2/3x3_s2
I0403 17:58:52.135107 15706 net.cpp:425] pool2/3x3_s2 <- conv2/norm2
I0403 17:58:52.135125 15706 net.cpp:399] pool2/3x3_s2 -> pool2/3x3_s2
I0403 17:58:52.135180 15706 net.cpp:141] Setting up pool2/3x3_s2
I0403 17:58:52.135203 15706 net.cpp:148] Top shape: 24 192 28 28 (3612672)
I0403 17:58:52.135218 15706 net.cpp:156] Memory required for data: 433521696
I0403 17:58:52.135233 15706 layer_factory.hpp:77] Creating layer pool2/3x3_s2_pool2/3x3_s2_0_split
I0403 17:58:52.135251 15706 net.cpp:91] Creating Layer pool2/3x3_s2_pool2/3x3_s2_0_split
I0403 17:58:52.135265 15706 net.cpp:425] pool2/3x3_s2_pool2/3x3_s2_0_split <- pool2/3x3_s2
I0403 17:58:52.135285 15706 net.cpp:399] pool2/3x3_s2_pool2/3x3_s2_0_split -> pool2/3x3_s2_pool2/3x3_s2_0_split_0
I0403 17:58:52.135306 15706 net.cpp:399] pool2/3x3_s2_pool2/3x3_s2_0_split -> pool2/3x3_s2_pool2/3x3_s2_0_split_1
I0403 17:58:52.135326 15706 net.cpp:399] pool2/3x3_s2_pool2/3x3_s2_0_split -> pool2/3x3_s2_pool2/3x3_s2_0_split_2
I0403 17:58:52.135346 15706 net.cpp:399] pool2/3x3_s2_pool2/3x3_s2_0_split -> pool2/3x3_s2_pool2/3x3_s2_0_split_3
I0403 17:58:52.135418 15706 net.cpp:141] Setting up pool2/3x3_s2_pool2/3x3_s2_0_split
I0403 17:58:52.135442 15706 net.cpp:148] Top shape: 24 192 28 28 (3612672)
I0403 17:58:52.135457 15706 net.cpp:148] Top shape: 24 192 28 28 (3612672)
I0403 17:58:52.135473 15706 net.cpp:148] Top shape: 24 192 28 28 (3612672)
I0403 17:58:52.135489 15706 net.cpp:148] Top shape: 24 192 28 28 (3612672)
I0403 17:58:52.135502 15706 net.cpp:156] Memory required for data: 491324448
I0403 17:58:52.135517 15706 layer_factory.hpp:77] Creating layer inception_3a/1x1
I0403 17:58:52.135540 15706 net.cpp:91] Creating Layer inception_3a/1x1
I0403 17:58:52.135557 15706 net.cpp:425] inception_3a/1x1 <- pool2/3x3_s2_pool2/3x3_s2_0_split_0
I0403 17:58:52.135579 15706 net.cpp:399] inception_3a/1x1 -> inception_3a/1x1
I0403 17:58:52.137094 15706 net.cpp:141] Setting up inception_3a/1x1
I0403 17:58:52.137125 15706 net.cpp:148] Top shape: 24 64 28 28 (1204224)
I0403 17:58:52.137142 15706 net.cpp:156] Memory required for data: 496141344
I0403 17:58:52.137161 15706 layer_factory.hpp:77] Creating layer inception_3a/relu_1x1
I0403 17:58:52.137181 15706 net.cpp:91] Creating Layer inception_3a/relu_1x1
I0403 17:58:52.137195 15706 net.cpp:425] inception_3a/relu_1x1 <- inception_3a/1x1
I0403 17:58:52.137223 15706 net.cpp:386] inception_3a/relu_1x1 -> inception_3a/1x1 (in-place)
I0403 17:58:52.137401 15706 net.cpp:141] Setting up inception_3a/relu_1x1
I0403 17:58:52.137426 15706 net.cpp:148] Top shape: 24 64 28 28 (1204224)
I0403 17:58:52.137441 15706 net.cpp:156] Memory required for data: 500958240
I0403 17:58:52.137455 15706 layer_factory.hpp:77] Creating layer inception_3a/3x3_reduce
I0403 17:58:52.137478 15706 net.cpp:91] Creating Layer inception_3a/3x3_reduce
I0403 17:58:52.137495 15706 net.cpp:425] inception_3a/3x3_reduce <- pool2/3x3_s2_pool2/3x3_s2_0_split_1
I0403 17:58:52.137522 15706 net.cpp:399] inception_3a/3x3_reduce -> inception_3a/3x3_reduce
I0403 17:58:52.139211 15706 net.cpp:141] Setting up inception_3a/3x3_reduce
I0403 17:58:52.139245 15706 net.cpp:148] Top shape: 24 96 28 28 (1806336)
I0403 17:58:52.139262 15706 net.cpp:156] Memory required for data: 508183584
I0403 17:58:52.139284 15706 layer_factory.hpp:77] Creating layer inception_3a/relu_3x3_reduce
I0403 17:58:52.139318 15706 net.cpp:91] Creating Layer inception_3a/relu_3x3_reduce
I0403 17:58:52.139336 15706 net.cpp:425] inception_3a/relu_3x3_reduce <- inception_3a/3x3_reduce
I0403 17:58:52.139356 15706 net.cpp:386] inception_3a/relu_3x3_reduce -> inception_3a/3x3_reduce (in-place)
I0403 17:58:52.139540 15706 net.cpp:141] Setting up inception_3a/relu_3x3_reduce
I0403 17:58:52.139564 15706 net.cpp:148] Top shape: 24 96 28 28 (1806336)
I0403 17:58:52.139582 15706 net.cpp:156] Memory required for data: 515408928
I0403 17:58:52.139597 15706 layer_factory.hpp:77] Creating layer inception_3a/3x3
I0403 17:58:52.139616 15706 net.cpp:91] Creating Layer inception_3a/3x3
I0403 17:58:52.139633 15706 net.cpp:425] inception_3a/3x3 <- inception_3a/3x3_reduce
I0403 17:58:52.139654 15706 net.cpp:399] inception_3a/3x3 -> inception_3a/3x3
I0403 17:58:52.141290 15706 net.cpp:141] Setting up inception_3a/3x3
I0403 17:58:52.141321 15706 net.cpp:148] Top shape: 24 128 28 28 (2408448)
I0403 17:58:52.141340 15706 net.cpp:156] Memory required for data: 525042720
I0403 17:58:52.141358 15706 layer_factory.hpp:77] Creating layer inception_3a/relu_3x3
I0403 17:58:52.141376 15706 net.cpp:91] Creating Layer inception_3a/relu_3x3
I0403 17:58:52.141393 15706 net.cpp:425] inception_3a/relu_3x3 <- inception_3a/3x3
I0403 17:58:52.141412 15706 net.cpp:386] inception_3a/relu_3x3 -> inception_3a/3x3 (in-place)
I0403 17:58:52.141685 15706 net.cpp:141] Setting up inception_3a/relu_3x3
I0403 17:58:52.141712 15706 net.cpp:148] Top shape: 24 128 28 28 (2408448)
I0403 17:58:52.141728 15706 net.cpp:156] Memory required for data: 534676512
I0403 17:58:52.141743 15706 layer_factory.hpp:77] Creating layer inception_3a/5x5_reduce
I0403 17:58:52.141765 15706 net.cpp:91] Creating Layer inception_3a/5x5_reduce
I0403 17:58:52.141783 15706 net.cpp:425] inception_3a/5x5_reduce <- pool2/3x3_s2_pool2/3x3_s2_0_split_2
I0403 17:58:52.141803 15706 net.cpp:399] inception_3a/5x5_reduce -> inception_3a/5x5_reduce
I0403 17:58:52.142776 15706 net.cpp:141] Setting up inception_3a/5x5_reduce
I0403 17:58:52.142803 15706 net.cpp:148] Top shape: 24 16 28 28 (301056)
I0403 17:58:52.142819 15706 net.cpp:156] Memory required for data: 535880736
I0403 17:58:52.142838 15706 layer_factory.hpp:77] Creating layer inception_3a/relu_5x5_reduce
I0403 17:58:52.142855 15706 net.cpp:91] Creating Layer inception_3a/relu_5x5_reduce
I0403 17:58:52.142875 15706 net.cpp:425] inception_3a/relu_5x5_reduce <- inception_3a/5x5_reduce
I0403 17:58:52.142894 15706 net.cpp:386] inception_3a/relu_5x5_reduce -> inception_3a/5x5_reduce (in-place)
I0403 17:58:52.143198 15706 net.cpp:141] Setting up inception_3a/relu_5x5_reduce
I0403 17:58:52.143224 15706 net.cpp:148] Top shape: 24 16 28 28 (301056)
I0403 17:58:52.143239 15706 net.cpp:156] Memory required for data: 537084960
I0403 17:58:52.143254 15706 layer_factory.hpp:77] Creating layer inception_3a/5x5
I0403 17:58:52.143276 15706 net.cpp:91] Creating Layer inception_3a/5x5
I0403 17:58:52.143295 15706 net.cpp:425] inception_3a/5x5 <- inception_3a/5x5_reduce
I0403 17:58:52.143316 15706 net.cpp:399] inception_3a/5x5 -> inception_3a/5x5
I0403 17:58:52.144332 15706 net.cpp:141] Setting up inception_3a/5x5
I0403 17:58:52.144361 15706 net.cpp:148] Top shape: 24 32 28 28 (602112)
I0403 17:58:52.144378 15706 net.cpp:156] Memory required for data: 539493408
I0403 17:58:52.144397 15706 layer_factory.hpp:77] Creating layer inception_3a/relu_5x5
I0403 17:58:52.144415 15706 net.cpp:91] Creating Layer inception_3a/relu_5x5
I0403 17:58:52.144431 15706 net.cpp:425] inception_3a/relu_5x5 <- inception_3a/5x5
I0403 17:58:52.144451 15706 net.cpp:386] inception_3a/relu_5x5 -> inception_3a/5x5 (in-place)
I0403 17:58:52.144628 15706 net.cpp:141] Setting up inception_3a/relu_5x5
I0403 17:58:52.144651 15706 net.cpp:148] Top shape: 24 32 28 28 (602112)
I0403 17:58:52.144666 15706 net.cpp:156] Memory required for data: 541901856
I0403 17:58:52.144681 15706 layer_factory.hpp:77] Creating layer inception_3a/pool
I0403 17:58:52.144700 15706 net.cpp:91] Creating Layer inception_3a/pool
I0403 17:58:52.144729 15706 net.cpp:425] inception_3a/pool <- pool2/3x3_s2_pool2/3x3_s2_0_split_3
I0403 17:58:52.144750 15706 net.cpp:399] inception_3a/pool -> inception_3a/pool
I0403 17:58:52.144809 15706 net.cpp:141] Setting up inception_3a/pool
I0403 17:58:52.144831 15706 net.cpp:148] Top shape: 24 192 28 28 (3612672)
I0403 17:58:52.144846 15706 net.cpp:156] Memory required for data: 556352544
I0403 17:58:52.144861 15706 layer_factory.hpp:77] Creating layer inception_3a/pool_proj
I0403 17:58:52.144886 15706 net.cpp:91] Creating Layer inception_3a/pool_proj
I0403 17:58:52.144903 15706 net.cpp:425] inception_3a/pool_proj <- inception_3a/pool
I0403 17:58:52.144922 15706 net.cpp:399] inception_3a/pool_proj -> inception_3a/pool_proj
I0403 17:58:52.145895 15706 net.cpp:141] Setting up inception_3a/pool_proj
I0403 17:58:52.145922 15706 net.cpp:148] Top shape: 24 32 28 28 (602112)
I0403 17:58:52.145938 15706 net.cpp:156] Memory required for data: 558760992
I0403 17:58:52.145962 15706 layer_factory.hpp:77] Creating layer inception_3a/relu_pool_proj
I0403 17:58:52.145985 15706 net.cpp:91] Creating Layer inception_3a/relu_pool_proj
I0403 17:58:52.146006 15706 net.cpp:425] inception_3a/relu_pool_proj <- inception_3a/pool_proj
I0403 17:58:52.146024 15706 net.cpp:386] inception_3a/relu_pool_proj -> inception_3a/pool_proj (in-place)
I0403 17:58:52.146297 15706 net.cpp:141] Setting up inception_3a/relu_pool_proj
I0403 17:58:52.146325 15706 net.cpp:148] Top shape: 24 32 28 28 (602112)
I0403 17:58:52.146342 15706 net.cpp:156] Memory required for data: 561169440
I0403 17:58:52.146358 15706 layer_factory.hpp:77] Creating layer inception_3a/output
I0403 17:58:52.146374 15706 net.cpp:91] Creating Layer inception_3a/output
I0403 17:58:52.146390 15706 net.cpp:425] inception_3a/output <- inception_3a/1x1
I0403 17:58:52.146409 15706 net.cpp:425] inception_3a/output <- inception_3a/3x3
I0403 17:58:52.146425 15706 net.cpp:425] inception_3a/output <- inception_3a/5x5
I0403 17:58:52.146440 15706 net.cpp:425] inception_3a/output <- inception_3a/pool_proj
I0403 17:58:52.146459 15706 net.cpp:399] inception_3a/output -> inception_3a/output
I0403 17:58:52.146507 15706 net.cpp:141] Setting up inception_3a/output
I0403 17:58:52.146528 15706 net.cpp:148] Top shape: 24 256 28 28 (4816896)
I0403 17:58:52.146543 15706 net.cpp:156] Memory required for data: 580437024
I0403 17:58:52.146559 15706 layer_factory.hpp:77] Creating layer inception_3a/output_inception_3a/output_0_split
I0403 17:58:52.146577 15706 net.cpp:91] Creating Layer inception_3a/output_inception_3a/output_0_split
I0403 17:58:52.146595 15706 net.cpp:425] inception_3a/output_inception_3a/output_0_split <- inception_3a/output
I0403 17:58:52.146612 15706 net.cpp:399] inception_3a/output_inception_3a/output_0_split -> inception_3a/output_inception_3a/output_0_split_0
I0403 17:58:52.146632 15706 net.cpp:399] inception_3a/output_inception_3a/output_0_split -> inception_3a/output_inception_3a/output_0_split_1
I0403 17:58:52.146657 15706 net.cpp:399] inception_3a/output_inception_3a/output_0_split -> inception_3a/output_inception_3a/output_0_split_2
I0403 17:58:52.146679 15706 net.cpp:399] inception_3a/output_inception_3a/output_0_split -> inception_3a/output_inception_3a/output_0_split_3
I0403 17:58:52.146751 15706 net.cpp:141] Setting up inception_3a/output_inception_3a/output_0_split
I0403 17:58:52.146776 15706 net.cpp:148] Top shape: 24 256 28 28 (4816896)
I0403 17:58:52.146795 15706 net.cpp:148] Top shape: 24 256 28 28 (4816896)
I0403 17:58:52.146809 15706 net.cpp:148] Top shape: 24 256 28 28 (4816896)
I0403 17:58:52.146826 15706 net.cpp:148] Top shape: 24 256 28 28 (4816896)
I0403 17:58:52.146839 15706 net.cpp:156] Memory required for data: 657507360
I0403 17:58:52.146854 15706 layer_factory.hpp:77] Creating layer inception_3b/1x1
I0403 17:58:52.146877 15706 net.cpp:91] Creating Layer inception_3b/1x1
I0403 17:58:52.146894 15706 net.cpp:425] inception_3b/1x1 <- inception_3a/output_inception_3a/output_0_split_0
I0403 17:58:52.146914 15706 net.cpp:399] inception_3b/1x1 -> inception_3b/1x1
I0403 17:58:52.148042 15706 net.cpp:141] Setting up inception_3b/1x1
I0403 17:58:52.148083 15706 net.cpp:148] Top shape: 24 128 28 28 (2408448)
I0403 17:58:52.148100 15706 net.cpp:156] Memory required for data: 667141152
I0403 17:58:52.148118 15706 layer_factory.hpp:77] Creating layer inception_3b/relu_1x1
I0403 17:58:52.148138 15706 net.cpp:91] Creating Layer inception_3b/relu_1x1
I0403 17:58:52.148152 15706 net.cpp:425] inception_3b/relu_1x1 <- inception_3b/1x1
I0403 17:58:52.148169 15706 net.cpp:386] inception_3b/relu_1x1 -> inception_3b/1x1 (in-place)
I0403 17:58:52.148344 15706 net.cpp:141] Setting up inception_3b/relu_1x1
I0403 17:58:52.148370 15706 net.cpp:148] Top shape: 24 128 28 28 (2408448)
I0403 17:58:52.148386 15706 net.cpp:156] Memory required for data: 676774944
I0403 17:58:52.148401 15706 layer_factory.hpp:77] Creating layer inception_3b/3x3_reduce
I0403 17:58:52.148423 15706 net.cpp:91] Creating Layer inception_3b/3x3_reduce
I0403 17:58:52.148440 15706 net.cpp:425] inception_3b/3x3_reduce <- inception_3a/output_inception_3a/output_0_split_1
I0403 17:58:52.148461 15706 net.cpp:399] inception_3b/3x3_reduce -> inception_3b/3x3_reduce
I0403 17:58:52.149592 15706 net.cpp:141] Setting up inception_3b/3x3_reduce
I0403 17:58:52.149619 15706 net.cpp:148] Top shape: 24 128 28 28 (2408448)
I0403 17:58:52.149636 15706 net.cpp:156] Memory required for data: 686408736
I0403 17:58:52.149653 15706 layer_factory.hpp:77] Creating layer inception_3b/relu_3x3_reduce
I0403 17:58:52.149674 15706 net.cpp:91] Creating Layer inception_3b/relu_3x3_reduce
I0403 17:58:52.149691 15706 net.cpp:425] inception_3b/relu_3x3_reduce <- inception_3b/3x3_reduce
I0403 17:58:52.149709 15706 net.cpp:386] inception_3b/relu_3x3_reduce -> inception_3b/3x3_reduce (in-place)
I0403 17:58:52.149884 15706 net.cpp:141] Setting up inception_3b/relu_3x3_reduce
I0403 17:58:52.149909 15706 net.cpp:148] Top shape: 24 128 28 28 (2408448)
I0403 17:58:52.149924 15706 net.cpp:156] Memory required for data: 696042528
I0403 17:58:52.149938 15706 layer_factory.hpp:77] Creating layer inception_3b/3x3
I0403 17:58:52.149963 15706 net.cpp:91] Creating Layer inception_3b/3x3
I0403 17:58:52.149986 15706 net.cpp:425] inception_3b/3x3 <- inception_3b/3x3_reduce
I0403 17:58:52.150008 15706 net.cpp:399] inception_3b/3x3 -> inception_3b/3x3
I0403 17:58:52.152884 15706 net.cpp:141] Setting up inception_3b/3x3
I0403 17:58:52.152915 15706 net.cpp:148] Top shape: 24 192 28 28 (3612672)
I0403 17:58:52.152932 15706 net.cpp:156] Memory required for data: 710493216
I0403 17:58:52.152951 15706 layer_factory.hpp:77] Creating layer inception_3b/relu_3x3
I0403 17:58:52.152968 15706 net.cpp:91] Creating Layer inception_3b/relu_3x3
I0403 17:58:52.152990 15706 net.cpp:425] inception_3b/relu_3x3 <- inception_3b/3x3
I0403 17:58:52.153010 15706 net.cpp:386] inception_3b/relu_3x3 -> inception_3b/3x3 (in-place)
I0403 17:58:52.153290 15706 net.cpp:141] Setting up inception_3b/relu_3x3
I0403 17:58:52.153317 15706 net.cpp:148] Top shape: 24 192 28 28 (3612672)
I0403 17:58:52.153334 15706 net.cpp:156] Memory required for data: 724943904
I0403 17:58:52.153349 15706 layer_factory.hpp:77] Creating layer inception_3b/5x5_reduce
I0403 17:58:52.153373 15706 net.cpp:91] Creating Layer inception_3b/5x5_reduce
I0403 17:58:52.153390 15706 net.cpp:425] inception_3b/5x5_reduce <- inception_3a/output_inception_3a/output_0_split_2
I0403 17:58:52.153410 15706 net.cpp:399] inception_3b/5x5_reduce -> inception_3b/5x5_reduce
I0403 17:58:52.154397 15706 net.cpp:141] Setting up inception_3b/5x5_reduce
I0403 17:58:52.154428 15706 net.cpp:148] Top shape: 24 32 28 28 (602112)
I0403 17:58:52.154444 15706 net.cpp:156] Memory required for data: 727352352
I0403 17:58:52.154463 15706 layer_factory.hpp:77] Creating layer inception_3b/relu_5x5_reduce
I0403 17:58:52.154479 15706 net.cpp:91] Creating Layer inception_3b/relu_5x5_reduce
I0403 17:58:52.154496 15706 net.cpp:425] inception_3b/relu_5x5_reduce <- inception_3b/5x5_reduce
I0403 17:58:52.154516 15706 net.cpp:386] inception_3b/relu_5x5_reduce -> inception_3b/5x5_reduce (in-place)
I0403 17:58:52.154706 15706 net.cpp:141] Setting up inception_3b/relu_5x5_reduce
I0403 17:58:52.154731 15706 net.cpp:148] Top shape: 24 32 28 28 (602112)
I0403 17:58:52.154745 15706 net.cpp:156] Memory required for data: 729760800
I0403 17:58:52.154760 15706 layer_factory.hpp:77] Creating layer inception_3b/5x5
I0403 17:58:52.154783 15706 net.cpp:91] Creating Layer inception_3b/5x5
I0403 17:58:52.154800 15706 net.cpp:425] inception_3b/5x5 <- inception_3b/5x5_reduce
I0403 17:58:52.154821 15706 net.cpp:399] inception_3b/5x5 -> inception_3b/5x5
I0403 17:58:52.156786 15706 net.cpp:141] Setting up inception_3b/5x5
I0403 17:58:52.156816 15706 net.cpp:148] Top shape: 24 96 28 28 (1806336)
I0403 17:58:52.156832 15706 net.cpp:156] Memory required for data: 736986144
I0403 17:58:52.156850 15706 layer_factory.hpp:77] Creating layer inception_3b/relu_5x5
I0403 17:58:52.156870 15706 net.cpp:91] Creating Layer inception_3b/relu_5x5
I0403 17:58:52.156888 15706 net.cpp:425] inception_3b/relu_5x5 <- inception_3b/5x5
I0403 17:58:52.156905 15706 net.cpp:386] inception_3b/relu_5x5 -> inception_3b/5x5 (in-place)
I0403 17:58:52.157104 15706 net.cpp:141] Setting up inception_3b/relu_5x5
I0403 17:58:52.157129 15706 net.cpp:148] Top shape: 24 96 28 28 (1806336)
I0403 17:58:52.157143 15706 net.cpp:156] Memory required for data: 744211488
I0403 17:58:52.157158 15706 layer_factory.hpp:77] Creating layer inception_3b/pool
I0403 17:58:52.157178 15706 net.cpp:91] Creating Layer inception_3b/pool
I0403 17:58:52.157194 15706 net.cpp:425] inception_3b/pool <- inception_3a/output_inception_3a/output_0_split_3
I0403 17:58:52.157212 15706 net.cpp:399] inception_3b/pool -> inception_3b/pool
I0403 17:58:52.157269 15706 net.cpp:141] Setting up inception_3b/pool
I0403 17:58:52.157290 15706 net.cpp:148] Top shape: 24 256 28 28 (4816896)
I0403 17:58:52.157305 15706 net.cpp:156] Memory required for data: 763479072
I0403 17:58:52.157320 15706 layer_factory.hpp:77] Creating layer inception_3b/pool_proj
I0403 17:58:52.157344 15706 net.cpp:91] Creating Layer inception_3b/pool_proj
I0403 17:58:52.157362 15706 net.cpp:425] inception_3b/pool_proj <- inception_3b/pool
I0403 17:58:52.157382 15706 net.cpp:399] inception_3b/pool_proj -> inception_3b/pool_proj
I0403 17:58:52.158440 15706 net.cpp:141] Setting up inception_3b/pool_proj
I0403 17:58:52.158468 15706 net.cpp:148] Top shape: 24 64 28 28 (1204224)
I0403 17:58:52.158483 15706 net.cpp:156] Memory required for data: 768295968
I0403 17:58:52.158501 15706 layer_factory.hpp:77] Creating layer inception_3b/relu_pool_proj
I0403 17:58:52.158521 15706 net.cpp:91] Creating Layer inception_3b/relu_pool_proj
I0403 17:58:52.158538 15706 net.cpp:425] inception_3b/relu_pool_proj <- inception_3b/pool_proj
I0403 17:58:52.158556 15706 net.cpp:386] inception_3b/relu_pool_proj -> inception_3b/pool_proj (in-place)
I0403 17:58:52.158970 15706 net.cpp:141] Setting up inception_3b/relu_pool_proj
I0403 17:58:52.159009 15706 net.cpp:148] Top shape: 24 64 28 28 (1204224)
I0403 17:58:52.159026 15706 net.cpp:156] Memory required for data: 773112864
I0403 17:58:52.159041 15706 layer_factory.hpp:77] Creating layer inception_3b/output
I0403 17:58:52.159060 15706 net.cpp:91] Creating Layer inception_3b/output
I0403 17:58:52.159075 15706 net.cpp:425] inception_3b/output <- inception_3b/1x1
I0403 17:58:52.159093 15706 net.cpp:425] inception_3b/output <- inception_3b/3x3
I0403 17:58:52.159111 15706 net.cpp:425] inception_3b/output <- inception_3b/5x5
I0403 17:58:52.159127 15706 net.cpp:425] inception_3b/output <- inception_3b/pool_proj
I0403 17:58:52.159147 15706 net.cpp:399] inception_3b/output -> inception_3b/output
I0403 17:58:52.159193 15706 net.cpp:141] Setting up inception_3b/output
I0403 17:58:52.159234 15706 net.cpp:148] Top shape: 24 480 28 28 (9031680)
I0403 17:58:52.159248 15706 net.cpp:156] Memory required for data: 809239584
I0403 17:58:52.159263 15706 layer_factory.hpp:77] Creating layer pool3/3x3_s2
I0403 17:58:52.159281 15706 net.cpp:91] Creating Layer pool3/3x3_s2
I0403 17:58:52.159296 15706 net.cpp:425] pool3/3x3_s2 <- inception_3b/output
I0403 17:58:52.159332 15706 net.cpp:399] pool3/3x3_s2 -> pool3/3x3_s2
I0403 17:58:52.159389 15706 net.cpp:141] Setting up pool3/3x3_s2
I0403 17:58:52.159414 15706 net.cpp:148] Top shape: 24 480 14 14 (2257920)
I0403 17:58:52.159427 15706 net.cpp:156] Memory required for data: 818271264
I0403 17:58:52.159442 15706 layer_factory.hpp:77] Creating layer pool3/3x3_s2_pool3/3x3_s2_0_split
I0403 17:58:52.159461 15706 net.cpp:91] Creating Layer pool3/3x3_s2_pool3/3x3_s2_0_split
I0403 17:58:52.159477 15706 net.cpp:425] pool3/3x3_s2_pool3/3x3_s2_0_split <- pool3/3x3_s2
I0403 17:58:52.159495 15706 net.cpp:399] pool3/3x3_s2_pool3/3x3_s2_0_split -> pool3/3x3_s2_pool3/3x3_s2_0_split_0
I0403 17:58:52.159514 15706 net.cpp:399] pool3/3x3_s2_pool3/3x3_s2_0_split -> pool3/3x3_s2_pool3/3x3_s2_0_split_1
I0403 17:58:52.159534 15706 net.cpp:399] pool3/3x3_s2_pool3/3x3_s2_0_split -> pool3/3x3_s2_pool3/3x3_s2_0_split_2
I0403 17:58:52.159556 15706 net.cpp:399] pool3/3x3_s2_pool3/3x3_s2_0_split -> pool3/3x3_s2_pool3/3x3_s2_0_split_3
I0403 17:58:52.159634 15706 net.cpp:141] Setting up pool3/3x3_s2_pool3/3x3_s2_0_split
I0403 17:58:52.159657 15706 net.cpp:148] Top shape: 24 480 14 14 (2257920)
I0403 17:58:52.159674 15706 net.cpp:148] Top shape: 24 480 14 14 (2257920)
I0403 17:58:52.159689 15706 net.cpp:148] Top shape: 24 480 14 14 (2257920)
I0403 17:58:52.159704 15706 net.cpp:148] Top shape: 24 480 14 14 (2257920)
I0403 17:58:52.159718 15706 net.cpp:156] Memory required for data: 854397984
I0403 17:58:52.159734 15706 layer_factory.hpp:77] Creating layer inception_4a/1x1
I0403 17:58:52.159756 15706 net.cpp:91] Creating Layer inception_4a/1x1
I0403 17:58:52.159773 15706 net.cpp:425] inception_4a/1x1 <- pool3/3x3_s2_pool3/3x3_s2_0_split_0
I0403 17:58:52.159795 15706 net.cpp:399] inception_4a/1x1 -> inception_4a/1x1
I0403 17:58:52.161367 15706 net.cpp:141] Setting up inception_4a/1x1
I0403 17:58:52.161396 15706 net.cpp:148] Top shape: 24 192 14 14 (903168)
I0403 17:58:52.161412 15706 net.cpp:156] Memory required for data: 858010656
I0403 17:58:52.161429 15706 layer_factory.hpp:77] Creating layer inception_4a/relu_1x1
I0403 17:58:52.161449 15706 net.cpp:91] Creating Layer inception_4a/relu_1x1
I0403 17:58:52.161466 15706 net.cpp:425] inception_4a/relu_1x1 <- inception_4a/1x1
I0403 17:58:52.161484 15706 net.cpp:386] inception_4a/relu_1x1 -> inception_4a/1x1 (in-place)
I0403 17:58:52.161659 15706 net.cpp:141] Setting up inception_4a/relu_1x1
I0403 17:58:52.161686 15706 net.cpp:148] Top shape: 24 192 14 14 (903168)
I0403 17:58:52.161702 15706 net.cpp:156] Memory required for data: 861623328
I0403 17:58:52.161717 15706 layer_factory.hpp:77] Creating layer inception_4a/3x3_reduce
I0403 17:58:52.161739 15706 net.cpp:91] Creating Layer inception_4a/3x3_reduce
I0403 17:58:52.161756 15706 net.cpp:425] inception_4a/3x3_reduce <- pool3/3x3_s2_pool3/3x3_s2_0_split_1
I0403 17:58:52.161777 15706 net.cpp:399] inception_4a/3x3_reduce -> inception_4a/3x3_reduce
I0403 17:58:52.163053 15706 net.cpp:141] Setting up inception_4a/3x3_reduce
I0403 17:58:52.163080 15706 net.cpp:148] Top shape: 24 96 14 14 (451584)
I0403 17:58:52.163096 15706 net.cpp:156] Memory required for data: 863429664
I0403 17:58:52.163121 15706 layer_factory.hpp:77] Creating layer inception_4a/relu_3x3_reduce
I0403 17:58:52.163141 15706 net.cpp:91] Creating Layer inception_4a/relu_3x3_reduce
I0403 17:58:52.163157 15706 net.cpp:425] inception_4a/relu_3x3_reduce <- inception_4a/3x3_reduce
I0403 17:58:52.163179 15706 net.cpp:386] inception_4a/relu_3x3_reduce -> inception_4a/3x3_reduce (in-place)
I0403 17:58:52.163362 15706 net.cpp:141] Setting up inception_4a/relu_3x3_reduce
I0403 17:58:52.163386 15706 net.cpp:148] Top shape: 24 96 14 14 (451584)
I0403 17:58:52.163404 15706 net.cpp:156] Memory required for data: 865236000
I0403 17:58:52.163419 15706 layer_factory.hpp:77] Creating layer inception_4a/3x3
I0403 17:58:52.163439 15706 net.cpp:91] Creating Layer inception_4a/3x3
I0403 17:58:52.163456 15706 net.cpp:425] inception_4a/3x3 <- inception_4a/3x3_reduce
I0403 17:58:52.163477 15706 net.cpp:399] inception_4a/3x3 -> inception_4a/3x3
I0403 17:58:52.166134 15706 net.cpp:141] Setting up inception_4a/3x3
I0403 17:58:52.166163 15706 net.cpp:148] Top shape: 24 208 14 14 (978432)
I0403 17:58:52.166179 15706 net.cpp:156] Memory required for data: 869149728
I0403 17:58:52.166198 15706 layer_factory.hpp:77] Creating layer inception_4a/relu_3x3
I0403 17:58:52.166218 15706 net.cpp:91] Creating Layer inception_4a/relu_3x3
I0403 17:58:52.166235 15706 net.cpp:425] inception_4a/relu_3x3 <- inception_4a/3x3
I0403 17:58:52.166254 15706 net.cpp:386] inception_4a/relu_3x3 -> inception_4a/3x3 (in-place)
I0403 17:58:52.166532 15706 net.cpp:141] Setting up inception_4a/relu_3x3
I0403 17:58:52.166558 15706 net.cpp:148] Top shape: 24 208 14 14 (978432)
I0403 17:58:52.166573 15706 net.cpp:156] Memory required for data: 873063456
I0403 17:58:52.166587 15706 layer_factory.hpp:77] Creating layer inception_4a/5x5_reduce
I0403 17:58:52.166612 15706 net.cpp:91] Creating Layer inception_4a/5x5_reduce
I0403 17:58:52.166631 15706 net.cpp:425] inception_4a/5x5_reduce <- pool3/3x3_s2_pool3/3x3_s2_0_split_2
I0403 17:58:52.166651 15706 net.cpp:399] inception_4a/5x5_reduce -> inception_4a/5x5_reduce
I0403 17:58:52.167672 15706 net.cpp:141] Setting up inception_4a/5x5_reduce
I0403 17:58:52.167702 15706 net.cpp:148] Top shape: 24 16 14 14 (75264)
I0403 17:58:52.167718 15706 net.cpp:156] Memory required for data: 873364512
I0403 17:58:52.167737 15706 layer_factory.hpp:77] Creating layer inception_4a/relu_5x5_reduce
I0403 17:58:52.167755 15706 net.cpp:91] Creating Layer inception_4a/relu_5x5_reduce
I0403 17:58:52.167773 15706 net.cpp:425] inception_4a/relu_5x5_reduce <- inception_4a/5x5_reduce
I0403 17:58:52.167794 15706 net.cpp:386] inception_4a/relu_5x5_reduce -> inception_4a/5x5_reduce (in-place)
I0403 17:58:52.167973 15706 net.cpp:141] Setting up inception_4a/relu_5x5_reduce
I0403 17:58:52.168002 15706 net.cpp:148] Top shape: 24 16 14 14 (75264)
I0403 17:58:52.168017 15706 net.cpp:156] Memory required for data: 873665568
I0403 17:58:52.168032 15706 layer_factory.hpp:77] Creating layer inception_4a/5x5
I0403 17:58:52.168054 15706 net.cpp:91] Creating Layer inception_4a/5x5
I0403 17:58:52.168072 15706 net.cpp:425] inception_4a/5x5 <- inception_4a/5x5_reduce
I0403 17:58:52.168093 15706 net.cpp:399] inception_4a/5x5 -> inception_4a/5x5
I0403 17:58:52.169181 15706 net.cpp:141] Setting up inception_4a/5x5
I0403 17:58:52.169209 15706 net.cpp:148] Top shape: 24 48 14 14 (225792)
I0403 17:58:52.169225 15706 net.cpp:156] Memory required for data: 874568736
I0403 17:58:52.169244 15706 layer_factory.hpp:77] Creating layer inception_4a/relu_5x5
I0403 17:58:52.169263 15706 net.cpp:91] Creating Layer inception_4a/relu_5x5
I0403 17:58:52.169281 15706 net.cpp:425] inception_4a/relu_5x5 <- inception_4a/5x5
I0403 17:58:52.169298 15706 net.cpp:386] inception_4a/relu_5x5 -> inception_4a/5x5 (in-place)
I0403 17:58:52.169478 15706 net.cpp:141] Setting up inception_4a/relu_5x5
I0403 17:58:52.169503 15706 net.cpp:148] Top shape: 24 48 14 14 (225792)
I0403 17:58:52.169517 15706 net.cpp:156] Memory required for data: 875471904
I0403 17:58:52.169533 15706 layer_factory.hpp:77] Creating layer inception_4a/pool
I0403 17:58:52.169553 15706 net.cpp:91] Creating Layer inception_4a/pool
I0403 17:58:52.169570 15706 net.cpp:425] inception_4a/pool <- pool3/3x3_s2_pool3/3x3_s2_0_split_3
I0403 17:58:52.169589 15706 net.cpp:399] inception_4a/pool -> inception_4a/pool
I0403 17:58:52.169651 15706 net.cpp:141] Setting up inception_4a/pool
I0403 17:58:52.169673 15706 net.cpp:148] Top shape: 24 480 14 14 (2257920)
I0403 17:58:52.169688 15706 net.cpp:156] Memory required for data: 884503584
I0403 17:58:52.169703 15706 layer_factory.hpp:77] Creating layer inception_4a/pool_proj
I0403 17:58:52.169725 15706 net.cpp:91] Creating Layer inception_4a/pool_proj
I0403 17:58:52.169742 15706 net.cpp:425] inception_4a/pool_proj <- inception_4a/pool
I0403 17:58:52.169764 15706 net.cpp:399] inception_4a/pool_proj -> inception_4a/pool_proj
I0403 17:58:52.170927 15706 net.cpp:141] Setting up inception_4a/pool_proj
I0403 17:58:52.170953 15706 net.cpp:148] Top shape: 24 64 14 14 (301056)
I0403 17:58:52.170989 15706 net.cpp:156] Memory required for data: 885707808
I0403 17:58:52.171017 15706 layer_factory.hpp:77] Creating layer inception_4a/relu_pool_proj
I0403 17:58:52.171039 15706 net.cpp:91] Creating Layer inception_4a/relu_pool_proj
I0403 17:58:52.171066 15706 net.cpp:425] inception_4a/relu_pool_proj <- inception_4a/pool_proj
I0403 17:58:52.171083 15706 net.cpp:386] inception_4a/relu_pool_proj -> inception_4a/pool_proj (in-place)
I0403 17:58:52.171378 15706 net.cpp:141] Setting up inception_4a/relu_pool_proj
I0403 17:58:52.171406 15706 net.cpp:148] Top shape: 24 64 14 14 (301056)
I0403 17:58:52.171421 15706 net.cpp:156] Memory required for data: 886912032
I0403 17:58:52.171435 15706 layer_factory.hpp:77] Creating layer inception_4a/output
I0403 17:58:52.171455 15706 net.cpp:91] Creating Layer inception_4a/output
I0403 17:58:52.171473 15706 net.cpp:425] inception_4a/output <- inception_4a/1x1
I0403 17:58:52.171489 15706 net.cpp:425] inception_4a/output <- inception_4a/3x3
I0403 17:58:52.171506 15706 net.cpp:425] inception_4a/output <- inception_4a/5x5
I0403 17:58:52.171522 15706 net.cpp:425] inception_4a/output <- inception_4a/pool_proj
I0403 17:58:52.171538 15706 net.cpp:399] inception_4a/output -> inception_4a/output
I0403 17:58:52.171582 15706 net.cpp:141] Setting up inception_4a/output
I0403 17:58:52.171607 15706 net.cpp:148] Top shape: 24 512 14 14 (2408448)
I0403 17:58:52.171622 15706 net.cpp:156] Memory required for data: 896545824
I0403 17:58:52.171638 15706 layer_factory.hpp:77] Creating layer inception_4a/output_inception_4a/output_0_split
I0403 17:58:52.171655 15706 net.cpp:91] Creating Layer inception_4a/output_inception_4a/output_0_split
I0403 17:58:52.171670 15706 net.cpp:425] inception_4a/output_inception_4a/output_0_split <- inception_4a/output
I0403 17:58:52.171690 15706 net.cpp:399] inception_4a/output_inception_4a/output_0_split -> inception_4a/output_inception_4a/output_0_split_0
I0403 17:58:52.171712 15706 net.cpp:399] inception_4a/output_inception_4a/output_0_split -> inception_4a/output_inception_4a/output_0_split_1
I0403 17:58:52.171733 15706 net.cpp:399] inception_4a/output_inception_4a/output_0_split -> inception_4a/output_inception_4a/output_0_split_2
I0403 17:58:52.171753 15706 net.cpp:399] inception_4a/output_inception_4a/output_0_split -> inception_4a/output_inception_4a/output_0_split_3
I0403 17:58:52.171774 15706 net.cpp:399] inception_4a/output_inception_4a/output_0_split -> inception_4a/output_inception_4a/output_0_split_4
I0403 17:58:52.171865 15706 net.cpp:141] Setting up inception_4a/output_inception_4a/output_0_split
I0403 17:58:52.171888 15706 net.cpp:148] Top shape: 24 512 14 14 (2408448)
I0403 17:58:52.171906 15706 net.cpp:148] Top shape: 24 512 14 14 (2408448)
I0403 17:58:52.171923 15706 net.cpp:148] Top shape: 24 512 14 14 (2408448)
I0403 17:58:52.171939 15706 net.cpp:148] Top shape: 24 512 14 14 (2408448)
I0403 17:58:52.171955 15706 net.cpp:148] Top shape: 24 512 14 14 (2408448)
I0403 17:58:52.171969 15706 net.cpp:156] Memory required for data: 944714784
I0403 17:58:52.171988 15706 layer_factory.hpp:77] Creating layer loss1/ave_pool
I0403 17:58:52.172008 15706 net.cpp:91] Creating Layer loss1/ave_pool
I0403 17:58:52.172024 15706 net.cpp:425] loss1/ave_pool <- inception_4a/output_inception_4a/output_0_split_0
I0403 17:58:52.172044 15706 net.cpp:399] loss1/ave_pool -> loss1/ave_pool
I0403 17:58:52.172250 15706 net.cpp:141] Setting up loss1/ave_pool
I0403 17:58:52.172276 15706 net.cpp:148] Top shape: 24 512 4 4 (196608)
I0403 17:58:52.172291 15706 net.cpp:156] Memory required for data: 945501216
I0403 17:58:52.172304 15706 layer_factory.hpp:77] Creating layer loss1/conv
I0403 17:58:52.172327 15706 net.cpp:91] Creating Layer loss1/conv
I0403 17:58:52.172344 15706 net.cpp:425] loss1/conv <- loss1/ave_pool
I0403 17:58:52.172365 15706 net.cpp:399] loss1/conv -> loss1/conv
I0403 17:58:52.173779 15706 net.cpp:141] Setting up loss1/conv
I0403 17:58:52.173806 15706 net.cpp:148] Top shape: 24 128 4 4 (49152)
I0403 17:58:52.173835 15706 net.cpp:156] Memory required for data: 945697824
I0403 17:58:52.173858 15706 layer_factory.hpp:77] Creating layer loss1/relu_conv
I0403 17:58:52.173878 15706 net.cpp:91] Creating Layer loss1/relu_conv
I0403 17:58:52.173894 15706 net.cpp:425] loss1/relu_conv <- loss1/conv
I0403 17:58:52.173913 15706 net.cpp:386] loss1/relu_conv -> loss1/conv (in-place)
I0403 17:58:52.174209 15706 net.cpp:141] Setting up loss1/relu_conv
I0403 17:58:52.174235 15706 net.cpp:148] Top shape: 24 128 4 4 (49152)
I0403 17:58:52.174252 15706 net.cpp:156] Memory required for data: 945894432
I0403 17:58:52.174266 15706 layer_factory.hpp:77] Creating layer loss1/fc
I0403 17:58:52.174293 15706 net.cpp:91] Creating Layer loss1/fc
I0403 17:58:52.174310 15706 net.cpp:425] loss1/fc <- loss1/conv
I0403 17:58:52.174331 15706 net.cpp:399] loss1/fc -> loss1/fc
I0403 17:58:52.191969 15706 net.cpp:141] Setting up loss1/fc
I0403 17:58:52.192003 15706 net.cpp:148] Top shape: 24 1024 (24576)
I0403 17:58:52.192019 15706 net.cpp:156] Memory required for data: 945992736
I0403 17:58:52.192039 15706 layer_factory.hpp:77] Creating layer loss1/relu_fc
I0403 17:58:52.192059 15706 net.cpp:91] Creating Layer loss1/relu_fc
I0403 17:58:52.192076 15706 net.cpp:425] loss1/relu_fc <- loss1/fc
I0403 17:58:52.192093 15706 net.cpp:386] loss1/relu_fc -> loss1/fc (in-place)
I0403 17:58:52.192278 15706 net.cpp:141] Setting up loss1/relu_fc
I0403 17:58:52.192306 15706 net.cpp:148] Top shape: 24 1024 (24576)
I0403 17:58:52.192320 15706 net.cpp:156] Memory required for data: 946091040
I0403 17:58:52.192335 15706 layer_factory.hpp:77] Creating layer loss1/drop_fc
I0403 17:58:52.192361 15706 net.cpp:91] Creating Layer loss1/drop_fc
I0403 17:58:52.192378 15706 net.cpp:425] loss1/drop_fc <- loss1/fc
I0403 17:58:52.192396 15706 net.cpp:386] loss1/drop_fc -> loss1/fc (in-place)
I0403 17:58:52.192448 15706 net.cpp:141] Setting up loss1/drop_fc
I0403 17:58:52.192472 15706 net.cpp:148] Top shape: 24 1024 (24576)
I0403 17:58:52.192487 15706 net.cpp:156] Memory required for data: 946189344
I0403 17:58:52.192502 15706 layer_factory.hpp:77] Creating layer loss1/classifier_plantvillage
I0403 17:58:52.192520 15706 net.cpp:91] Creating Layer loss1/classifier_plantvillage
I0403 17:58:52.192536 15706 net.cpp:425] loss1/classifier_plantvillage <- loss1/fc
I0403 17:58:52.192558 15706 net.cpp:399] loss1/classifier_plantvillage -> loss1/classifier_plantvillage
I0403 17:58:52.193457 15706 net.cpp:141] Setting up loss1/classifier_plantvillage
I0403 17:58:52.193485 15706 net.cpp:148] Top shape: 24 38 (912)
I0403 17:58:52.193500 15706 net.cpp:156] Memory required for data: 946192992
I0403 17:58:52.193519 15706 layer_factory.hpp:77] Creating layer loss1/classifier_plantvillage_loss1/classifier_plantvillage_0_split
I0403 17:58:52.193539 15706 net.cpp:91] Creating Layer loss1/classifier_plantvillage_loss1/classifier_plantvillage_0_split
I0403 17:58:52.193557 15706 net.cpp:425] loss1/classifier_plantvillage_loss1/classifier_plantvillage_0_split <- loss1/classifier_plantvillage
I0403 17:58:52.193574 15706 net.cpp:399] loss1/classifier_plantvillage_loss1/classifier_plantvillage_0_split -> loss1/classifier_plantvillage_loss1/classifier_plantvillage_0_split_0
I0403 17:58:52.193594 15706 net.cpp:399] loss1/classifier_plantvillage_loss1/classifier_plantvillage_0_split -> loss1/classifier_plantvillage_loss1/classifier_plantvillage_0_split_1
I0403 17:58:52.193615 15706 net.cpp:399] loss1/classifier_plantvillage_loss1/classifier_plantvillage_0_split -> loss1/classifier_plantvillage_loss1/classifier_plantvillage_0_split_2
I0403 17:58:52.193686 15706 net.cpp:141] Setting up loss1/classifier_plantvillage_loss1/classifier_plantvillage_0_split
I0403 17:58:52.193708 15706 net.cpp:148] Top shape: 24 38 (912)
I0403 17:58:52.193723 15706 net.cpp:148] Top shape: 24 38 (912)
I0403 17:58:52.193739 15706 net.cpp:148] Top shape: 24 38 (912)
I0403 17:58:52.193753 15706 net.cpp:156] Memory required for data: 946203936
I0403 17:58:52.193768 15706 layer_factory.hpp:77] Creating layer inception_4b/1x1
I0403 17:58:52.193790 15706 net.cpp:91] Creating Layer inception_4b/1x1
I0403 17:58:52.193824 15706 net.cpp:425] inception_4b/1x1 <- inception_4a/output_inception_4a/output_0_split_1
I0403 17:58:52.193845 15706 net.cpp:399] inception_4b/1x1 -> inception_4b/1x1
I0403 17:58:52.195482 15706 net.cpp:141] Setting up inception_4b/1x1
I0403 17:58:52.195513 15706 net.cpp:148] Top shape: 24 160 14 14 (752640)
I0403 17:58:52.195529 15706 net.cpp:156] Memory required for data: 949214496
I0403 17:58:52.195547 15706 layer_factory.hpp:77] Creating layer inception_4b/relu_1x1
I0403 17:58:52.195566 15706 net.cpp:91] Creating Layer inception_4b/relu_1x1
I0403 17:58:52.195582 15706 net.cpp:425] inception_4b/relu_1x1 <- inception_4b/1x1
I0403 17:58:52.195602 15706 net.cpp:386] inception_4b/relu_1x1 -> inception_4b/1x1 (in-place)
I0403 17:58:52.195783 15706 net.cpp:141] Setting up inception_4b/relu_1x1
I0403 17:58:52.195808 15706 net.cpp:148] Top shape: 24 160 14 14 (752640)
I0403 17:58:52.195822 15706 net.cpp:156] Memory required for data: 952225056
I0403 17:58:52.195837 15706 layer_factory.hpp:77] Creating layer inception_4b/3x3_reduce
I0403 17:58:52.195861 15706 net.cpp:91] Creating Layer inception_4b/3x3_reduce
I0403 17:58:52.195879 15706 net.cpp:425] inception_4b/3x3_reduce <- inception_4a/output_inception_4a/output_0_split_2
I0403 17:58:52.195901 15706 net.cpp:399] inception_4b/3x3_reduce -> inception_4b/3x3_reduce
I0403 17:58:52.197258 15706 net.cpp:141] Setting up inception_4b/3x3_reduce
I0403 17:58:52.197285 15706 net.cpp:148] Top shape: 24 112 14 14 (526848)
I0403 17:58:52.197300 15706 net.cpp:156] Memory required for data: 954332448
I0403 17:58:52.197319 15706 layer_factory.hpp:77] Creating layer inception_4b/relu_3x3_reduce
I0403 17:58:52.197337 15706 net.cpp:91] Creating Layer inception_4b/relu_3x3_reduce
I0403 17:58:52.197355 15706 net.cpp:425] inception_4b/relu_3x3_reduce <- inception_4b/3x3_reduce
I0403 17:58:52.197374 15706 net.cpp:386] inception_4b/relu_3x3_reduce -> inception_4b/3x3_reduce (in-place)
I0403 17:58:52.197659 15706 net.cpp:141] Setting up inception_4b/relu_3x3_reduce
I0403 17:58:52.197685 15706 net.cpp:148] Top shape: 24 112 14 14 (526848)
I0403 17:58:52.197700 15706 net.cpp:156] Memory required for data: 956439840
I0403 17:58:52.197715 15706 layer_factory.hpp:77] Creating layer inception_4b/3x3
I0403 17:58:52.197737 15706 net.cpp:91] Creating Layer inception_4b/3x3
I0403 17:58:52.197756 15706 net.cpp:425] inception_4b/3x3 <- inception_4b/3x3_reduce
I0403 17:58:52.197777 15706 net.cpp:399] inception_4b/3x3 -> inception_4b/3x3
I0403 17:58:52.200752 15706 net.cpp:141] Setting up inception_4b/3x3
I0403 17:58:52.200780 15706 net.cpp:148] Top shape: 24 224 14 14 (1053696)
I0403 17:58:52.200796 15706 net.cpp:156] Memory required for data: 960654624
I0403 17:58:52.200814 15706 layer_factory.hpp:77] Creating layer inception_4b/relu_3x3
I0403 17:58:52.200834 15706 net.cpp:91] Creating Layer inception_4b/relu_3x3
I0403 17:58:52.200851 15706 net.cpp:425] inception_4b/relu_3x3 <- inception_4b/3x3
I0403 17:58:52.200868 15706 net.cpp:386] inception_4b/relu_3x3 -> inception_4b/3x3 (in-place)
I0403 17:58:52.201059 15706 net.cpp:141] Setting up inception_4b/relu_3x3
I0403 17:58:52.201086 15706 net.cpp:148] Top shape: 24 224 14 14 (1053696)
I0403 17:58:52.201102 15706 net.cpp:156] Memory required for data: 964869408
I0403 17:58:52.201117 15706 layer_factory.hpp:77] Creating layer inception_4b/5x5_reduce
I0403 17:58:52.201138 15706 net.cpp:91] Creating Layer inception_4b/5x5_reduce
I0403 17:58:52.201156 15706 net.cpp:425] inception_4b/5x5_reduce <- inception_4a/output_inception_4a/output_0_split_3
I0403 17:58:52.201179 15706 net.cpp:399] inception_4b/5x5_reduce -> inception_4b/5x5_reduce
I0403 17:58:52.202278 15706 net.cpp:141] Setting up inception_4b/5x5_reduce
I0403 17:58:52.202308 15706 net.cpp:148] Top shape: 24 24 14 14 (112896)
I0403 17:58:52.202323 15706 net.cpp:156] Memory required for data: 965320992
I0403 17:58:52.202342 15706 layer_factory.hpp:77] Creating layer inception_4b/relu_5x5_reduce
I0403 17:58:52.202360 15706 net.cpp:91] Creating Layer inception_4b/relu_5x5_reduce
I0403 17:58:52.202391 15706 net.cpp:425] inception_4b/relu_5x5_reduce <- inception_4b/5x5_reduce
I0403 17:58:52.202415 15706 net.cpp:386] inception_4b/relu_5x5_reduce -> inception_4b/5x5_reduce (in-place)
I0403 17:58:52.202603 15706 net.cpp:141] Setting up inception_4b/relu_5x5_reduce
I0403 17:58:52.202628 15706 net.cpp:148] Top shape: 24 24 14 14 (112896)
I0403 17:58:52.202643 15706 net.cpp:156] Memory required for data: 965772576
I0403 17:58:52.202657 15706 layer_factory.hpp:77] Creating layer inception_4b/5x5
I0403 17:58:52.202680 15706 net.cpp:91] Creating Layer inception_4b/5x5
I0403 17:58:52.202699 15706 net.cpp:425] inception_4b/5x5 <- inception_4b/5x5_reduce
I0403 17:58:52.202720 15706 net.cpp:399] inception_4b/5x5 -> inception_4b/5x5
I0403 17:58:52.203953 15706 net.cpp:141] Setting up inception_4b/5x5
I0403 17:58:52.203986 15706 net.cpp:148] Top shape: 24 64 14 14 (301056)
I0403 17:58:52.204005 15706 net.cpp:156] Memory required for data: 966976800
I0403 17:58:52.204023 15706 layer_factory.hpp:77] Creating layer inception_4b/relu_5x5
I0403 17:58:52.204041 15706 net.cpp:91] Creating Layer inception_4b/relu_5x5
I0403 17:58:52.204058 15706 net.cpp:425] inception_4b/relu_5x5 <- inception_4b/5x5
I0403 17:58:52.204078 15706 net.cpp:386] inception_4b/relu_5x5 -> inception_4b/5x5 (in-place)
I0403 17:58:52.204363 15706 net.cpp:141] Setting up inception_4b/relu_5x5
I0403 17:58:52.204392 15706 net.cpp:148] Top shape: 24 64 14 14 (301056)
I0403 17:58:52.204407 15706 net.cpp:156] Memory required for data: 968181024
I0403 17:58:52.204422 15706 layer_factory.hpp:77] Creating layer inception_4b/pool
I0403 17:58:52.204440 15706 net.cpp:91] Creating Layer inception_4b/pool
I0403 17:58:52.204457 15706 net.cpp:425] inception_4b/pool <- inception_4a/output_inception_4a/output_0_split_4
I0403 17:58:52.204478 15706 net.cpp:399] inception_4b/pool -> inception_4b/pool
I0403 17:58:52.204541 15706 net.cpp:141] Setting up inception_4b/pool
I0403 17:58:52.204566 15706 net.cpp:148] Top shape: 24 512 14 14 (2408448)
I0403 17:58:52.204579 15706 net.cpp:156] Memory required for data: 977814816
I0403 17:58:52.204596 15706 layer_factory.hpp:77] Creating layer inception_4b/pool_proj
I0403 17:58:52.204617 15706 net.cpp:91] Creating Layer inception_4b/pool_proj
I0403 17:58:52.204633 15706 net.cpp:425] inception_4b/pool_proj <- inception_4b/pool
I0403 17:58:52.204654 15706 net.cpp:399] inception_4b/pool_proj -> inception_4b/pool_proj
I0403 17:58:52.205868 15706 net.cpp:141] Setting up inception_4b/pool_proj
I0403 17:58:52.205898 15706 net.cpp:148] Top shape: 24 64 14 14 (301056)
I0403 17:58:52.205914 15706 net.cpp:156] Memory required for data: 979019040
I0403 17:58:52.205934 15706 layer_factory.hpp:77] Creating layer inception_4b/relu_pool_proj
I0403 17:58:52.205952 15706 net.cpp:91] Creating Layer inception_4b/relu_pool_proj
I0403 17:58:52.205968 15706 net.cpp:425] inception_4b/relu_pool_proj <- inception_4b/pool_proj
I0403 17:58:52.205993 15706 net.cpp:386] inception_4b/relu_pool_proj -> inception_4b/pool_proj (in-place)
I0403 17:58:52.206181 15706 net.cpp:141] Setting up inception_4b/relu_pool_proj
I0403 17:58:52.206204 15706 net.cpp:148] Top shape: 24 64 14 14 (301056)
I0403 17:58:52.206219 15706 net.cpp:156] Memory required for data: 980223264
I0403 17:58:52.206234 15706 layer_factory.hpp:77] Creating layer inception_4b/output
I0403 17:58:52.206251 15706 net.cpp:91] Creating Layer inception_4b/output
I0403 17:58:52.206267 15706 net.cpp:425] inception_4b/output <- inception_4b/1x1
I0403 17:58:52.206284 15706 net.cpp:425] inception_4b/output <- inception_4b/3x3
I0403 17:58:52.206300 15706 net.cpp:425] inception_4b/output <- inception_4b/5x5
I0403 17:58:52.206316 15706 net.cpp:425] inception_4b/output <- inception_4b/pool_proj
I0403 17:58:52.206336 15706 net.cpp:399] inception_4b/output -> inception_4b/output
I0403 17:58:52.206382 15706 net.cpp:141] Setting up inception_4b/output
I0403 17:58:52.206408 15706 net.cpp:148] Top shape: 24 512 14 14 (2408448)
I0403 17:58:52.206421 15706 net.cpp:156] Memory required for data: 989857056
I0403 17:58:52.206456 15706 layer_factory.hpp:77] Creating layer inception_4b/output_inception_4b/output_0_split
I0403 17:58:52.206475 15706 net.cpp:91] Creating Layer inception_4b/output_inception_4b/output_0_split
I0403 17:58:52.206491 15706 net.cpp:425] inception_4b/output_inception_4b/output_0_split <- inception_4b/output
I0403 17:58:52.206508 15706 net.cpp:399] inception_4b/output_inception_4b/output_0_split -> inception_4b/output_inception_4b/output_0_split_0
I0403 17:58:52.206532 15706 net.cpp:399] inception_4b/output_inception_4b/output_0_split -> inception_4b/output_inception_4b/output_0_split_1
I0403 17:58:52.206552 15706 net.cpp:399] inception_4b/output_inception_4b/output_0_split -> inception_4b/output_inception_4b/output_0_split_2
I0403 17:58:52.206573 15706 net.cpp:399] inception_4b/output_inception_4b/output_0_split -> inception_4b/output_inception_4b/output_0_split_3
I0403 17:58:52.206658 15706 net.cpp:141] Setting up inception_4b/output_inception_4b/output_0_split
I0403 17:58:52.206681 15706 net.cpp:148] Top shape: 24 512 14 14 (2408448)
I0403 17:58:52.206697 15706 net.cpp:148] Top shape: 24 512 14 14 (2408448)
I0403 17:58:52.206713 15706 net.cpp:148] Top shape: 24 512 14 14 (2408448)
I0403 17:58:52.206728 15706 net.cpp:148] Top shape: 24 512 14 14 (2408448)
I0403 17:58:52.206743 15706 net.cpp:156] Memory required for data: 1028392224
I0403 17:58:52.206758 15706 layer_factory.hpp:77] Creating layer inception_4c/1x1
I0403 17:58:52.206781 15706 net.cpp:91] Creating Layer inception_4c/1x1
I0403 17:58:52.206799 15706 net.cpp:425] inception_4c/1x1 <- inception_4b/output_inception_4b/output_0_split_0
I0403 17:58:52.206817 15706 net.cpp:399] inception_4c/1x1 -> inception_4c/1x1
I0403 17:58:52.208288 15706 net.cpp:141] Setting up inception_4c/1x1
I0403 17:58:52.208317 15706 net.cpp:148] Top shape: 24 128 14 14 (602112)
I0403 17:58:52.208333 15706 net.cpp:156] Memory required for data: 1030800672
I0403 17:58:52.208350 15706 layer_factory.hpp:77] Creating layer inception_4c/relu_1x1
I0403 17:58:52.208370 15706 net.cpp:91] Creating Layer inception_4c/relu_1x1
I0403 17:58:52.208387 15706 net.cpp:425] inception_4c/relu_1x1 <- inception_4c/1x1
I0403 17:58:52.208405 15706 net.cpp:386] inception_4c/relu_1x1 -> inception_4c/1x1 (in-place)
I0403 17:58:52.208590 15706 net.cpp:141] Setting up inception_4c/relu_1x1
I0403 17:58:52.208616 15706 net.cpp:148] Top shape: 24 128 14 14 (602112)
I0403 17:58:52.208632 15706 net.cpp:156] Memory required for data: 1033209120
I0403 17:58:52.208647 15706 layer_factory.hpp:77] Creating layer inception_4c/3x3_reduce
I0403 17:58:52.208667 15706 net.cpp:91] Creating Layer inception_4c/3x3_reduce
I0403 17:58:52.208683 15706 net.cpp:425] inception_4c/3x3_reduce <- inception_4b/output_inception_4b/output_0_split_1
I0403 17:58:52.208705 15706 net.cpp:399] inception_4c/3x3_reduce -> inception_4c/3x3_reduce
I0403 17:58:52.210685 15706 net.cpp:141] Setting up inception_4c/3x3_reduce
I0403 17:58:52.210716 15706 net.cpp:148] Top shape: 24 128 14 14 (602112)
I0403 17:58:52.210733 15706 net.cpp:156] Memory required for data: 1035617568
I0403 17:58:52.210752 15706 layer_factory.hpp:77] Creating layer inception_4c/relu_3x3_reduce
I0403 17:58:52.210769 15706 net.cpp:91] Creating Layer inception_4c/relu_3x3_reduce
I0403 17:58:52.210786 15706 net.cpp:425] inception_4c/relu_3x3_reduce <- inception_4c/3x3_reduce
I0403 17:58:52.210803 15706 net.cpp:386] inception_4c/relu_3x3_reduce -> inception_4c/3x3_reduce (in-place)
I0403 17:58:52.211097 15706 net.cpp:141] Setting up inception_4c/relu_3x3_reduce
I0403 17:58:52.211124 15706 net.cpp:148] Top shape: 24 128 14 14 (602112)
I0403 17:58:52.211140 15706 net.cpp:156] Memory required for data: 1038026016
I0403 17:58:52.211154 15706 layer_factory.hpp:77] Creating layer inception_4c/3x3
I0403 17:58:52.211179 15706 net.cpp:91] Creating Layer inception_4c/3x3
I0403 17:58:52.211199 15706 net.cpp:425] inception_4c/3x3 <- inception_4c/3x3_reduce
I0403 17:58:52.211218 15706 net.cpp:399] inception_4c/3x3 -> inception_4c/3x3
I0403 17:58:52.214787 15706 net.cpp:141] Setting up inception_4c/3x3
I0403 17:58:52.214828 15706 net.cpp:148] Top shape: 24 256 14 14 (1204224)
I0403 17:58:52.214845 15706 net.cpp:156] Memory required for data: 1042842912
I0403 17:58:52.214876 15706 layer_factory.hpp:77] Creating layer inception_4c/relu_3x3
I0403 17:58:52.214896 15706 net.cpp:91] Creating Layer inception_4c/relu_3x3
I0403 17:58:52.214913 15706 net.cpp:425] inception_4c/relu_3x3 <- inception_4c/3x3
I0403 17:58:52.214933 15706 net.cpp:386] inception_4c/relu_3x3 -> inception_4c/3x3 (in-place)
I0403 17:58:52.215114 15706 net.cpp:141] Setting up inception_4c/relu_3x3
I0403 17:58:52.215138 15706 net.cpp:148] Top shape: 24 256 14 14 (1204224)
I0403 17:58:52.215153 15706 net.cpp:156] Memory required for data: 1047659808
I0403 17:58:52.215167 15706 layer_factory.hpp:77] Creating layer inception_4c/5x5_reduce
I0403 17:58:52.215190 15706 net.cpp:91] Creating Layer inception_4c/5x5_reduce
I0403 17:58:52.215207 15706 net.cpp:425] inception_4c/5x5_reduce <- inception_4b/output_inception_4b/output_0_split_2
I0403 17:58:52.215229 15706 net.cpp:399] inception_4c/5x5_reduce -> inception_4c/5x5_reduce
I0403 17:58:52.216284 15706 net.cpp:141] Setting up inception_4c/5x5_reduce
I0403 17:58:52.216315 15706 net.cpp:148] Top shape: 24 24 14 14 (112896)
I0403 17:58:52.216331 15706 net.cpp:156] Memory required for data: 1048111392
I0403 17:58:52.216348 15706 layer_factory.hpp:77] Creating layer inception_4c/relu_5x5_reduce
I0403 17:58:52.216367 15706 net.cpp:91] Creating Layer inception_4c/relu_5x5_reduce
I0403 17:58:52.216383 15706 net.cpp:425] inception_4c/relu_5x5_reduce <- inception_4c/5x5_reduce
I0403 17:58:52.216403 15706 net.cpp:386] inception_4c/relu_5x5_reduce -> inception_4c/5x5_reduce (in-place)
I0403 17:58:52.216598 15706 net.cpp:141] Setting up inception_4c/relu_5x5_reduce
I0403 17:58:52.216624 15706 net.cpp:148] Top shape: 24 24 14 14 (112896)
I0403 17:58:52.216637 15706 net.cpp:156] Memory required for data: 1048562976
I0403 17:58:52.216652 15706 layer_factory.hpp:77] Creating layer inception_4c/5x5
I0403 17:58:52.216675 15706 net.cpp:91] Creating Layer inception_4c/5x5
I0403 17:58:52.216692 15706 net.cpp:425] inception_4c/5x5 <- inception_4c/5x5_reduce
I0403 17:58:52.216713 15706 net.cpp:399] inception_4c/5x5 -> inception_4c/5x5
I0403 17:58:52.217981 15706 net.cpp:141] Setting up inception_4c/5x5
I0403 17:58:52.218008 15706 net.cpp:148] Top shape: 24 64 14 14 (301056)
I0403 17:58:52.218024 15706 net.cpp:156] Memory required for data: 1049767200
I0403 17:58:52.218041 15706 layer_factory.hpp:77] Creating layer inception_4c/relu_5x5
I0403 17:58:52.218060 15706 net.cpp:91] Creating Layer inception_4c/relu_5x5
I0403 17:58:52.218075 15706 net.cpp:425] inception_4c/relu_5x5 <- inception_4c/5x5
I0403 17:58:52.218094 15706 net.cpp:386] inception_4c/relu_5x5 -> inception_4c/5x5 (in-place)
I0403 17:58:52.218397 15706 net.cpp:141] Setting up inception_4c/relu_5x5
I0403 17:58:52.218423 15706 net.cpp:148] Top shape: 24 64 14 14 (301056)
I0403 17:58:52.218451 15706 net.cpp:156] Memory required for data: 1050971424
I0403 17:58:52.218466 15706 layer_factory.hpp:77] Creating layer inception_4c/pool
I0403 17:58:52.218482 15706 net.cpp:91] Creating Layer inception_4c/pool
I0403 17:58:52.218510 15706 net.cpp:425] inception_4c/pool <- inception_4b/output_inception_4b/output_0_split_3
I0403 17:58:52.218531 15706 net.cpp:399] inception_4c/pool -> inception_4c/pool
I0403 17:58:52.218600 15706 net.cpp:141] Setting up inception_4c/pool
I0403 17:58:52.218626 15706 net.cpp:148] Top shape: 24 512 14 14 (2408448)
I0403 17:58:52.218641 15706 net.cpp:156] Memory required for data: 1060605216
I0403 17:58:52.218657 15706 layer_factory.hpp:77] Creating layer inception_4c/pool_proj
I0403 17:58:52.218680 15706 net.cpp:91] Creating Layer inception_4c/pool_proj
I0403 17:58:52.218699 15706 net.cpp:425] inception_4c/pool_proj <- inception_4c/pool
I0403 17:58:52.218719 15706 net.cpp:399] inception_4c/pool_proj -> inception_4c/pool_proj
I0403 17:58:52.220031 15706 net.cpp:141] Setting up inception_4c/pool_proj
I0403 17:58:52.220060 15706 net.cpp:148] Top shape: 24 64 14 14 (301056)
I0403 17:58:52.220090 15706 net.cpp:156] Memory required for data: 1061809440
I0403 17:58:52.220109 15706 layer_factory.hpp:77] Creating layer inception_4c/relu_pool_proj
I0403 17:58:52.220129 15706 net.cpp:91] Creating Layer inception_4c/relu_pool_proj
I0403 17:58:52.220146 15706 net.cpp:425] inception_4c/relu_pool_proj <- inception_4c/pool_proj
I0403 17:58:52.220166 15706 net.cpp:386] inception_4c/relu_pool_proj -> inception_4c/pool_proj (in-place)
I0403 17:58:52.220360 15706 net.cpp:141] Setting up inception_4c/relu_pool_proj
I0403 17:58:52.220383 15706 net.cpp:148] Top shape: 24 64 14 14 (301056)
I0403 17:58:52.220397 15706 net.cpp:156] Memory required for data: 1063013664
I0403 17:58:52.220412 15706 layer_factory.hpp:77] Creating layer inception_4c/output
I0403 17:58:52.220428 15706 net.cpp:91] Creating Layer inception_4c/output
I0403 17:58:52.220444 15706 net.cpp:425] inception_4c/output <- inception_4c/1x1
I0403 17:58:52.220461 15706 net.cpp:425] inception_4c/output <- inception_4c/3x3
I0403 17:58:52.220476 15706 net.cpp:425] inception_4c/output <- inception_4c/5x5
I0403 17:58:52.220492 15706 net.cpp:425] inception_4c/output <- inception_4c/pool_proj
I0403 17:58:52.220511 15706 net.cpp:399] inception_4c/output -> inception_4c/output
I0403 17:58:52.220557 15706 net.cpp:141] Setting up inception_4c/output
I0403 17:58:52.220582 15706 net.cpp:148] Top shape: 24 512 14 14 (2408448)
I0403 17:58:52.220598 15706 net.cpp:156] Memory required for data: 1072647456
I0403 17:58:52.220613 15706 layer_factory.hpp:77] Creating layer inception_4c/output_inception_4c/output_0_split
I0403 17:58:52.220628 15706 net.cpp:91] Creating Layer inception_4c/output_inception_4c/output_0_split
I0403 17:58:52.220643 15706 net.cpp:425] inception_4c/output_inception_4c/output_0_split <- inception_4c/output
I0403 17:58:52.220661 15706 net.cpp:399] inception_4c/output_inception_4c/output_0_split -> inception_4c/output_inception_4c/output_0_split_0
I0403 17:58:52.220682 15706 net.cpp:399] inception_4c/output_inception_4c/output_0_split -> inception_4c/output_inception_4c/output_0_split_1
I0403 17:58:52.220703 15706 net.cpp:399] inception_4c/output_inception_4c/output_0_split -> inception_4c/output_inception_4c/output_0_split_2
I0403 17:58:52.220724 15706 net.cpp:399] inception_4c/output_inception_4c/output_0_split -> inception_4c/output_inception_4c/output_0_split_3
I0403 17:58:52.220808 15706 net.cpp:141] Setting up inception_4c/output_inception_4c/output_0_split
I0403 17:58:52.220831 15706 net.cpp:148] Top shape: 24 512 14 14 (2408448)
I0403 17:58:52.220847 15706 net.cpp:148] Top shape: 24 512 14 14 (2408448)
I0403 17:58:52.220861 15706 net.cpp:148] Top shape: 24 512 14 14 (2408448)
I0403 17:58:52.220876 15706 net.cpp:148] Top shape: 24 512 14 14 (2408448)
I0403 17:58:52.220890 15706 net.cpp:156] Memory required for data: 1111182624
I0403 17:58:52.220904 15706 layer_factory.hpp:77] Creating layer inception_4d/1x1
I0403 17:58:52.220927 15706 net.cpp:91] Creating Layer inception_4d/1x1
I0403 17:58:52.220945 15706 net.cpp:425] inception_4d/1x1 <- inception_4c/output_inception_4c/output_0_split_0
I0403 17:58:52.220963 15706 net.cpp:399] inception_4d/1x1 -> inception_4d/1x1
I0403 17:58:52.222314 15706 net.cpp:141] Setting up inception_4d/1x1
I0403 17:58:52.222352 15706 net.cpp:148] Top shape: 24 112 14 14 (526848)
I0403 17:58:52.222368 15706 net.cpp:156] Memory required for data: 1113290016
I0403 17:58:52.222384 15706 layer_factory.hpp:77] Creating layer inception_4d/relu_1x1
I0403 17:58:52.222404 15706 net.cpp:91] Creating Layer inception_4d/relu_1x1
I0403 17:58:52.222421 15706 net.cpp:425] inception_4d/relu_1x1 <- inception_4d/1x1
I0403 17:58:52.222439 15706 net.cpp:386] inception_4d/relu_1x1 -> inception_4d/1x1 (in-place)
I0403 17:58:52.222617 15706 net.cpp:141] Setting up inception_4d/relu_1x1
I0403 17:58:52.222645 15706 net.cpp:148] Top shape: 24 112 14 14 (526848)
I0403 17:58:52.222659 15706 net.cpp:156] Memory required for data: 1115397408
I0403 17:58:52.222673 15706 layer_factory.hpp:77] Creating layer inception_4d/3x3_reduce
I0403 17:58:52.222708 15706 net.cpp:91] Creating Layer inception_4d/3x3_reduce
I0403 17:58:52.222726 15706 net.cpp:425] inception_4d/3x3_reduce <- inception_4c/output_inception_4c/output_0_split_1
I0403 17:58:52.222745 15706 net.cpp:399] inception_4d/3x3_reduce -> inception_4d/3x3_reduce
I0403 17:58:52.224231 15706 net.cpp:141] Setting up inception_4d/3x3_reduce
I0403 17:58:52.224256 15706 net.cpp:148] Top shape: 24 144 14 14 (677376)
I0403 17:58:52.224272 15706 net.cpp:156] Memory required for data: 1118106912
I0403 17:58:52.224288 15706 layer_factory.hpp:77] Creating layer inception_4d/relu_3x3_reduce
I0403 17:58:52.224308 15706 net.cpp:91] Creating Layer inception_4d/relu_3x3_reduce
I0403 17:58:52.224325 15706 net.cpp:425] inception_4d/relu_3x3_reduce <- inception_4d/3x3_reduce
I0403 17:58:52.224344 15706 net.cpp:386] inception_4d/relu_3x3_reduce -> inception_4d/3x3_reduce (in-place)
I0403 17:58:52.224627 15706 net.cpp:141] Setting up inception_4d/relu_3x3_reduce
I0403 17:58:52.224653 15706 net.cpp:148] Top shape: 24 144 14 14 (677376)
I0403 17:58:52.224666 15706 net.cpp:156] Memory required for data: 1120816416
I0403 17:58:52.224681 15706 layer_factory.hpp:77] Creating layer inception_4d/3x3
I0403 17:58:52.224704 15706 net.cpp:91] Creating Layer inception_4d/3x3
I0403 17:58:52.224721 15706 net.cpp:425] inception_4d/3x3 <- inception_4d/3x3_reduce
I0403 17:58:52.224742 15706 net.cpp:399] inception_4d/3x3 -> inception_4d/3x3
I0403 17:58:52.228909 15706 net.cpp:141] Setting up inception_4d/3x3
I0403 17:58:52.228937 15706 net.cpp:148] Top shape: 24 288 14 14 (1354752)
I0403 17:58:52.228958 15706 net.cpp:156] Memory required for data: 1126235424
I0403 17:58:52.228986 15706 layer_factory.hpp:77] Creating layer inception_4d/relu_3x3
I0403 17:58:52.229007 15706 net.cpp:91] Creating Layer inception_4d/relu_3x3
I0403 17:58:52.229022 15706 net.cpp:425] inception_4d/relu_3x3 <- inception_4d/3x3
I0403 17:58:52.229040 15706 net.cpp:386] inception_4d/relu_3x3 -> inception_4d/3x3 (in-place)
I0403 17:58:52.229221 15706 net.cpp:141] Setting up inception_4d/relu_3x3
I0403 17:58:52.229248 15706 net.cpp:148] Top shape: 24 288 14 14 (1354752)
I0403 17:58:52.229262 15706 net.cpp:156] Memory required for data: 1131654432
I0403 17:58:52.229276 15706 layer_factory.hpp:77] Creating layer inception_4d/5x5_reduce
I0403 17:58:52.229298 15706 net.cpp:91] Creating Layer inception_4d/5x5_reduce
I0403 17:58:52.229315 15706 net.cpp:425] inception_4d/5x5_reduce <- inception_4c/output_inception_4c/output_0_split_2
I0403 17:58:52.229336 15706 net.cpp:399] inception_4d/5x5_reduce -> inception_4d/5x5_reduce
I0403 17:58:52.230456 15706 net.cpp:141] Setting up inception_4d/5x5_reduce
I0403 17:58:52.230484 15706 net.cpp:148] Top shape: 24 32 14 14 (150528)
I0403 17:58:52.230499 15706 net.cpp:156] Memory required for data: 1132256544
I0403 17:58:52.230516 15706 layer_factory.hpp:77] Creating layer inception_4d/relu_5x5_reduce
I0403 17:58:52.230535 15706 net.cpp:91] Creating Layer inception_4d/relu_5x5_reduce
I0403 17:58:52.230553 15706 net.cpp:425] inception_4d/relu_5x5_reduce <- inception_4d/5x5_reduce
I0403 17:58:52.230569 15706 net.cpp:386] inception_4d/relu_5x5_reduce -> inception_4d/5x5_reduce (in-place)
I0403 17:58:52.230752 15706 net.cpp:141] Setting up inception_4d/relu_5x5_reduce
I0403 17:58:52.230777 15706 net.cpp:148] Top shape: 24 32 14 14 (150528)
I0403 17:58:52.230792 15706 net.cpp:156] Memory required for data: 1132858656
I0403 17:58:52.230806 15706 layer_factory.hpp:77] Creating layer inception_4d/5x5
I0403 17:58:52.230828 15706 net.cpp:91] Creating Layer inception_4d/5x5
I0403 17:58:52.230844 15706 net.cpp:425] inception_4d/5x5 <- inception_4d/5x5_reduce
I0403 17:58:52.230865 15706 net.cpp:399] inception_4d/5x5 -> inception_4d/5x5
I0403 17:58:52.232309 15706 net.cpp:141] Setting up inception_4d/5x5
I0403 17:58:52.232337 15706 net.cpp:148] Top shape: 24 64 14 14 (301056)
I0403 17:58:52.232352 15706 net.cpp:156] Memory required for data: 1134062880
I0403 17:58:52.232370 15706 layer_factory.hpp:77] Creating layer inception_4d/relu_5x5
I0403 17:58:52.232403 15706 net.cpp:91] Creating Layer inception_4d/relu_5x5
I0403 17:58:52.232419 15706 net.cpp:425] inception_4d/relu_5x5 <- inception_4d/5x5
I0403 17:58:52.232439 15706 net.cpp:386] inception_4d/relu_5x5 -> inception_4d/5x5 (in-place)
I0403 17:58:52.232734 15706 net.cpp:141] Setting up inception_4d/relu_5x5
I0403 17:58:52.232760 15706 net.cpp:148] Top shape: 24 64 14 14 (301056)
I0403 17:58:52.232775 15706 net.cpp:156] Memory required for data: 1135267104
I0403 17:58:52.232789 15706 layer_factory.hpp:77] Creating layer inception_4d/pool
I0403 17:58:52.232806 15706 net.cpp:91] Creating Layer inception_4d/pool
I0403 17:58:52.232822 15706 net.cpp:425] inception_4d/pool <- inception_4c/output_inception_4c/output_0_split_3
I0403 17:58:52.232842 15706 net.cpp:399] inception_4d/pool -> inception_4d/pool
I0403 17:58:52.232909 15706 net.cpp:141] Setting up inception_4d/pool
I0403 17:58:52.232933 15706 net.cpp:148] Top shape: 24 512 14 14 (2408448)
I0403 17:58:52.232947 15706 net.cpp:156] Memory required for data: 1144900896
I0403 17:58:52.232960 15706 layer_factory.hpp:77] Creating layer inception_4d/pool_proj
I0403 17:58:52.232987 15706 net.cpp:91] Creating Layer inception_4d/pool_proj
I0403 17:58:52.233006 15706 net.cpp:425] inception_4d/pool_proj <- inception_4d/pool
I0403 17:58:52.233026 15706 net.cpp:399] inception_4d/pool_proj -> inception_4d/pool_proj
I0403 17:58:52.234756 15706 net.cpp:141] Setting up inception_4d/pool_proj
I0403 17:58:52.234784 15706 net.cpp:148] Top shape: 24 64 14 14 (301056)
I0403 17:58:52.234803 15706 net.cpp:156] Memory required for data: 1146105120
I0403 17:58:52.234822 15706 layer_factory.hpp:77] Creating layer inception_4d/relu_pool_proj
I0403 17:58:52.234840 15706 net.cpp:91] Creating Layer inception_4d/relu_pool_proj
I0403 17:58:52.234856 15706 net.cpp:425] inception_4d/relu_pool_proj <- inception_4d/pool_proj
I0403 17:58:52.234874 15706 net.cpp:386] inception_4d/relu_pool_proj -> inception_4d/pool_proj (in-place)
I0403 17:58:52.235060 15706 net.cpp:141] Setting up inception_4d/relu_pool_proj
I0403 17:58:52.235088 15706 net.cpp:148] Top shape: 24 64 14 14 (301056)
I0403 17:58:52.235105 15706 net.cpp:156] Memory required for data: 1147309344
I0403 17:58:52.235119 15706 layer_factory.hpp:77] Creating layer inception_4d/output
I0403 17:58:52.235136 15706 net.cpp:91] Creating Layer inception_4d/output
I0403 17:58:52.235151 15706 net.cpp:425] inception_4d/output <- inception_4d/1x1
I0403 17:58:52.235167 15706 net.cpp:425] inception_4d/output <- inception_4d/3x3
I0403 17:58:52.235183 15706 net.cpp:425] inception_4d/output <- inception_4d/5x5
I0403 17:58:52.235198 15706 net.cpp:425] inception_4d/output <- inception_4d/pool_proj
I0403 17:58:52.235218 15706 net.cpp:399] inception_4d/output -> inception_4d/output
I0403 17:58:52.235265 15706 net.cpp:141] Setting up inception_4d/output
I0403 17:58:52.235287 15706 net.cpp:148] Top shape: 24 528 14 14 (2483712)
I0403 17:58:52.235301 15706 net.cpp:156] Memory required for data: 1157244192
I0403 17:58:52.235316 15706 layer_factory.hpp:77] Creating layer inception_4d/output_inception_4d/output_0_split
I0403 17:58:52.235334 15706 net.cpp:91] Creating Layer inception_4d/output_inception_4d/output_0_split
I0403 17:58:52.235350 15706 net.cpp:425] inception_4d/output_inception_4d/output_0_split <- inception_4d/output
I0403 17:58:52.235368 15706 net.cpp:399] inception_4d/output_inception_4d/output_0_split -> inception_4d/output_inception_4d/output_0_split_0
I0403 17:58:52.235393 15706 net.cpp:399] inception_4d/output_inception_4d/output_0_split -> inception_4d/output_inception_4d/output_0_split_1
I0403 17:58:52.235414 15706 net.cpp:399] inception_4d/output_inception_4d/output_0_split -> inception_4d/output_inception_4d/output_0_split_2
I0403 17:58:52.235435 15706 net.cpp:399] inception_4d/output_inception_4d/output_0_split -> inception_4d/output_inception_4d/output_0_split_3
I0403 17:58:52.235455 15706 net.cpp:399] inception_4d/output_inception_4d/output_0_split -> inception_4d/output_inception_4d/output_0_split_4
I0403 17:58:52.235554 15706 net.cpp:141] Setting up inception_4d/output_inception_4d/output_0_split
I0403 17:58:52.235587 15706 net.cpp:148] Top shape: 24 528 14 14 (2483712)
I0403 17:58:52.235605 15706 net.cpp:148] Top shape: 24 528 14 14 (2483712)
I0403 17:58:52.235620 15706 net.cpp:148] Top shape: 24 528 14 14 (2483712)
I0403 17:58:52.235635 15706 net.cpp:148] Top shape: 24 528 14 14 (2483712)
I0403 17:58:52.235651 15706 net.cpp:148] Top shape: 24 528 14 14 (2483712)
I0403 17:58:52.235663 15706 net.cpp:156] Memory required for data: 1206918432
I0403 17:58:52.235678 15706 layer_factory.hpp:77] Creating layer loss2/ave_pool
I0403 17:58:52.235698 15706 net.cpp:91] Creating Layer loss2/ave_pool
I0403 17:58:52.235715 15706 net.cpp:425] loss2/ave_pool <- inception_4d/output_inception_4d/output_0_split_0
I0403 17:58:52.235733 15706 net.cpp:399] loss2/ave_pool -> loss2/ave_pool
I0403 17:58:52.236048 15706 net.cpp:141] Setting up loss2/ave_pool
I0403 17:58:52.236076 15706 net.cpp:148] Top shape: 24 528 4 4 (202752)
I0403 17:58:52.236091 15706 net.cpp:156] Memory required for data: 1207729440
I0403 17:58:52.236106 15706 layer_factory.hpp:77] Creating layer loss2/conv
I0403 17:58:52.236126 15706 net.cpp:91] Creating Layer loss2/conv
I0403 17:58:52.236143 15706 net.cpp:425] loss2/conv <- loss2/ave_pool
I0403 17:58:52.236165 15706 net.cpp:399] loss2/conv -> loss2/conv
I0403 17:58:52.238019 15706 net.cpp:141] Setting up loss2/conv
I0403 17:58:52.238047 15706 net.cpp:148] Top shape: 24 128 4 4 (49152)
I0403 17:58:52.238061 15706 net.cpp:156] Memory required for data: 1207926048
I0403 17:58:52.238080 15706 layer_factory.hpp:77] Creating layer loss2/relu_conv
I0403 17:58:52.238097 15706 net.cpp:91] Creating Layer loss2/relu_conv
I0403 17:58:52.238113 15706 net.cpp:425] loss2/relu_conv <- loss2/conv
I0403 17:58:52.238133 15706 net.cpp:386] loss2/relu_conv -> loss2/conv (in-place)
I0403 17:58:52.238415 15706 net.cpp:141] Setting up loss2/relu_conv
I0403 17:58:52.238441 15706 net.cpp:148] Top shape: 24 128 4 4 (49152)
I0403 17:58:52.238456 15706 net.cpp:156] Memory required for data: 1208122656
I0403 17:58:52.238471 15706 layer_factory.hpp:77] Creating layer loss2/fc
I0403 17:58:52.238489 15706 net.cpp:91] Creating Layer loss2/fc
I0403 17:58:52.238505 15706 net.cpp:425] loss2/fc <- loss2/conv
I0403 17:58:52.238528 15706 net.cpp:399] loss2/fc -> loss2/fc
I0403 17:58:52.255638 15706 net.cpp:141] Setting up loss2/fc
I0403 17:58:52.255671 15706 net.cpp:148] Top shape: 24 1024 (24576)
I0403 17:58:52.255686 15706 net.cpp:156] Memory required for data: 1208220960
I0403 17:58:52.255704 15706 layer_factory.hpp:77] Creating layer loss2/relu_fc
I0403 17:58:52.255723 15706 net.cpp:91] Creating Layer loss2/relu_fc
I0403 17:58:52.255740 15706 net.cpp:425] loss2/relu_fc <- loss2/fc
I0403 17:58:52.255759 15706 net.cpp:386] loss2/relu_fc -> loss2/fc (in-place)
I0403 17:58:52.256048 15706 net.cpp:141] Setting up loss2/relu_fc
I0403 17:58:52.256077 15706 net.cpp:148] Top shape: 24 1024 (24576)
I0403 17:58:52.256093 15706 net.cpp:156] Memory required for data: 1208319264
I0403 17:58:52.256108 15706 layer_factory.hpp:77] Creating layer loss2/drop_fc
I0403 17:58:52.256124 15706 net.cpp:91] Creating Layer loss2/drop_fc
I0403 17:58:52.256140 15706 net.cpp:425] loss2/drop_fc <- loss2/fc
I0403 17:58:52.256158 15706 net.cpp:386] loss2/drop_fc -> loss2/fc (in-place)
I0403 17:58:52.256208 15706 net.cpp:141] Setting up loss2/drop_fc
I0403 17:58:52.256232 15706 net.cpp:148] Top shape: 24 1024 (24576)
I0403 17:58:52.256245 15706 net.cpp:156] Memory required for data: 1208417568
I0403 17:58:52.256259 15706 layer_factory.hpp:77] Creating layer loss2/classifier_plantvillage
I0403 17:58:52.256280 15706 net.cpp:91] Creating Layer loss2/classifier_plantvillage
I0403 17:58:52.256299 15706 net.cpp:425] loss2/classifier_plantvillage <- loss2/fc
I0403 17:58:52.256316 15706 net.cpp:399] loss2/classifier_plantvillage -> loss2/classifier_plantvillage
I0403 17:58:52.256707 15706 net.cpp:141] Setting up loss2/classifier_plantvillage
I0403 17:58:52.256731 15706 net.cpp:148] Top shape: 24 38 (912)
I0403 17:58:52.256763 15706 net.cpp:156] Memory required for data: 1208421216
I0403 17:58:52.256783 15706 layer_factory.hpp:77] Creating layer loss2/classifier_plantvillage_loss2/classifier_plantvillage_0_split
I0403 17:58:52.256799 15706 net.cpp:91] Creating Layer loss2/classifier_plantvillage_loss2/classifier_plantvillage_0_split
I0403 17:58:52.256815 15706 net.cpp:425] loss2/classifier_plantvillage_loss2/classifier_plantvillage_0_split <- loss2/classifier_plantvillage
I0403 17:58:52.256836 15706 net.cpp:399] loss2/classifier_plantvillage_loss2/classifier_plantvillage_0_split -> loss2/classifier_plantvillage_loss2/classifier_plantvillage_0_split_0
I0403 17:58:52.256857 15706 net.cpp:399] loss2/classifier_plantvillage_loss2/classifier_plantvillage_0_split -> loss2/classifier_plantvillage_loss2/classifier_plantvillage_0_split_1
I0403 17:58:52.256877 15706 net.cpp:399] loss2/classifier_plantvillage_loss2/classifier_plantvillage_0_split -> loss2/classifier_plantvillage_loss2/classifier_plantvillage_0_split_2
I0403 17:58:52.256954 15706 net.cpp:141] Setting up loss2/classifier_plantvillage_loss2/classifier_plantvillage_0_split
I0403 17:58:52.256983 15706 net.cpp:148] Top shape: 24 38 (912)
I0403 17:58:52.257000 15706 net.cpp:148] Top shape: 24 38 (912)
I0403 17:58:52.257015 15706 net.cpp:148] Top shape: 24 38 (912)
I0403 17:58:52.257030 15706 net.cpp:156] Memory required for data: 1208432160
I0403 17:58:52.257043 15706 layer_factory.hpp:77] Creating layer inception_4e/1x1
I0403 17:58:52.257062 15706 net.cpp:91] Creating Layer inception_4e/1x1
I0403 17:58:52.257078 15706 net.cpp:425] inception_4e/1x1 <- inception_4d/output_inception_4d/output_0_split_1
I0403 17:58:52.257097 15706 net.cpp:399] inception_4e/1x1 -> inception_4e/1x1
I0403 17:58:52.258877 15706 net.cpp:141] Setting up inception_4e/1x1
I0403 17:58:52.258914 15706 net.cpp:148] Top shape: 24 256 14 14 (1204224)
I0403 17:58:52.258932 15706 net.cpp:156] Memory required for data: 1213249056
I0403 17:58:52.258950 15706 layer_factory.hpp:77] Creating layer inception_4e/relu_1x1
I0403 17:58:52.258968 15706 net.cpp:91] Creating Layer inception_4e/relu_1x1
I0403 17:58:52.258996 15706 net.cpp:425] inception_4e/relu_1x1 <- inception_4e/1x1
I0403 17:58:52.259018 15706 net.cpp:386] inception_4e/relu_1x1 -> inception_4e/1x1 (in-place)
I0403 17:58:52.259328 15706 net.cpp:141] Setting up inception_4e/relu_1x1
I0403 17:58:52.259353 15706 net.cpp:148] Top shape: 24 256 14 14 (1204224)
I0403 17:58:52.259368 15706 net.cpp:156] Memory required for data: 1218065952
I0403 17:58:52.259382 15706 layer_factory.hpp:77] Creating layer inception_4e/3x3_reduce
I0403 17:58:52.259404 15706 net.cpp:91] Creating Layer inception_4e/3x3_reduce
I0403 17:58:52.259421 15706 net.cpp:425] inception_4e/3x3_reduce <- inception_4d/output_inception_4d/output_0_split_2
I0403 17:58:52.259443 15706 net.cpp:399] inception_4e/3x3_reduce -> inception_4e/3x3_reduce
I0403 17:58:52.261502 15706 net.cpp:141] Setting up inception_4e/3x3_reduce
I0403 17:58:52.261531 15706 net.cpp:148] Top shape: 24 160 14 14 (752640)
I0403 17:58:52.261548 15706 net.cpp:156] Memory required for data: 1221076512
I0403 17:58:52.261565 15706 layer_factory.hpp:77] Creating layer inception_4e/relu_3x3_reduce
I0403 17:58:52.261584 15706 net.cpp:91] Creating Layer inception_4e/relu_3x3_reduce
I0403 17:58:52.261600 15706 net.cpp:425] inception_4e/relu_3x3_reduce <- inception_4e/3x3_reduce
I0403 17:58:52.261620 15706 net.cpp:386] inception_4e/relu_3x3_reduce -> inception_4e/3x3_reduce (in-place)
I0403 17:58:52.261806 15706 net.cpp:141] Setting up inception_4e/relu_3x3_reduce
I0403 17:58:52.261829 15706 net.cpp:148] Top shape: 24 160 14 14 (752640)
I0403 17:58:52.261843 15706 net.cpp:156] Memory required for data: 1224087072
I0403 17:58:52.261857 15706 layer_factory.hpp:77] Creating layer inception_4e/3x3
I0403 17:58:52.261879 15706 net.cpp:91] Creating Layer inception_4e/3x3
I0403 17:58:52.261898 15706 net.cpp:425] inception_4e/3x3 <- inception_4e/3x3_reduce
I0403 17:58:52.261917 15706 net.cpp:399] inception_4e/3x3 -> inception_4e/3x3
I0403 17:58:52.266799 15706 net.cpp:141] Setting up inception_4e/3x3
I0403 17:58:52.266839 15706 net.cpp:148] Top shape: 24 320 14 14 (1505280)
I0403 17:58:52.266856 15706 net.cpp:156] Memory required for data: 1230108192
I0403 17:58:52.266875 15706 layer_factory.hpp:77] Creating layer inception_4e/relu_3x3
I0403 17:58:52.266894 15706 net.cpp:91] Creating Layer inception_4e/relu_3x3
I0403 17:58:52.266912 15706 net.cpp:425] inception_4e/relu_3x3 <- inception_4e/3x3
I0403 17:58:52.266928 15706 net.cpp:386] inception_4e/relu_3x3 -> inception_4e/3x3 (in-place)
I0403 17:58:52.267233 15706 net.cpp:141] Setting up inception_4e/relu_3x3
I0403 17:58:52.267259 15706 net.cpp:148] Top shape: 24 320 14 14 (1505280)
I0403 17:58:52.267273 15706 net.cpp:156] Memory required for data: 1236129312
I0403 17:58:52.267288 15706 layer_factory.hpp:77] Creating layer inception_4e/5x5_reduce
I0403 17:58:52.267310 15706 net.cpp:91] Creating Layer inception_4e/5x5_reduce
I0403 17:58:52.267331 15706 net.cpp:425] inception_4e/5x5_reduce <- inception_4d/output_inception_4d/output_0_split_3
I0403 17:58:52.267350 15706 net.cpp:399] inception_4e/5x5_reduce -> inception_4e/5x5_reduce
I0403 17:58:52.268401 15706 net.cpp:141] Setting up inception_4e/5x5_reduce
I0403 17:58:52.268429 15706 net.cpp:148] Top shape: 24 32 14 14 (150528)
I0403 17:58:52.268445 15706 net.cpp:156] Memory required for data: 1236731424
I0403 17:58:52.268462 15706 layer_factory.hpp:77] Creating layer inception_4e/relu_5x5_reduce
I0403 17:58:52.268481 15706 net.cpp:91] Creating Layer inception_4e/relu_5x5_reduce
I0403 17:58:52.268496 15706 net.cpp:425] inception_4e/relu_5x5_reduce <- inception_4e/5x5_reduce
I0403 17:58:52.268514 15706 net.cpp:386] inception_4e/relu_5x5_reduce -> inception_4e/5x5_reduce (in-place)
I0403 17:58:52.268807 15706 net.cpp:141] Setting up inception_4e/relu_5x5_reduce
I0403 17:58:52.268832 15706 net.cpp:148] Top shape: 24 32 14 14 (150528)
I0403 17:58:52.268846 15706 net.cpp:156] Memory required for data: 1237333536
I0403 17:58:52.268862 15706 layer_factory.hpp:77] Creating layer inception_4e/5x5
I0403 17:58:52.268901 15706 net.cpp:91] Creating Layer inception_4e/5x5
I0403 17:58:52.268921 15706 net.cpp:425] inception_4e/5x5 <- inception_4e/5x5_reduce
I0403 17:58:52.268940 15706 net.cpp:399] inception_4e/5x5 -> inception_4e/5x5
I0403 17:58:52.270763 15706 net.cpp:141] Setting up inception_4e/5x5
I0403 17:58:52.270793 15706 net.cpp:148] Top shape: 24 128 14 14 (602112)
I0403 17:58:52.270809 15706 net.cpp:156] Memory required for data: 1239741984
I0403 17:58:52.270829 15706 layer_factory.hpp:77] Creating layer inception_4e/relu_5x5
I0403 17:58:52.270846 15706 net.cpp:91] Creating Layer inception_4e/relu_5x5
I0403 17:58:52.270864 15706 net.cpp:425] inception_4e/relu_5x5 <- inception_4e/5x5
I0403 17:58:52.270880 15706 net.cpp:386] inception_4e/relu_5x5 -> inception_4e/5x5 (in-place)
I0403 17:58:52.271082 15706 net.cpp:141] Setting up inception_4e/relu_5x5
I0403 17:58:52.271107 15706 net.cpp:148] Top shape: 24 128 14 14 (602112)
I0403 17:58:52.271121 15706 net.cpp:156] Memory required for data: 1242150432
I0403 17:58:52.271136 15706 layer_factory.hpp:77] Creating layer inception_4e/pool
I0403 17:58:52.271152 15706 net.cpp:91] Creating Layer inception_4e/pool
I0403 17:58:52.271170 15706 net.cpp:425] inception_4e/pool <- inception_4d/output_inception_4d/output_0_split_4
I0403 17:58:52.271190 15706 net.cpp:399] inception_4e/pool -> inception_4e/pool
I0403 17:58:52.271260 15706 net.cpp:141] Setting up inception_4e/pool
I0403 17:58:52.271284 15706 net.cpp:148] Top shape: 24 528 14 14 (2483712)
I0403 17:58:52.271301 15706 net.cpp:156] Memory required for data: 1252085280
I0403 17:58:52.271314 15706 layer_factory.hpp:77] Creating layer inception_4e/pool_proj
I0403 17:58:52.271335 15706 net.cpp:91] Creating Layer inception_4e/pool_proj
I0403 17:58:52.271353 15706 net.cpp:425] inception_4e/pool_proj <- inception_4e/pool
I0403 17:58:52.271371 15706 net.cpp:399] inception_4e/pool_proj -> inception_4e/pool_proj
I0403 17:58:52.272846 15706 net.cpp:141] Setting up inception_4e/pool_proj
I0403 17:58:52.272886 15706 net.cpp:148] Top shape: 24 128 14 14 (602112)
I0403 17:58:52.272903 15706 net.cpp:156] Memory required for data: 1254493728
I0403 17:58:52.272922 15706 layer_factory.hpp:77] Creating layer inception_4e/relu_pool_proj
I0403 17:58:52.272939 15706 net.cpp:91] Creating Layer inception_4e/relu_pool_proj
I0403 17:58:52.272955 15706 net.cpp:425] inception_4e/relu_pool_proj <- inception_4e/pool_proj
I0403 17:58:52.272972 15706 net.cpp:386] inception_4e/relu_pool_proj -> inception_4e/pool_proj (in-place)
I0403 17:58:52.273264 15706 net.cpp:141] Setting up inception_4e/relu_pool_proj
I0403 17:58:52.273293 15706 net.cpp:148] Top shape: 24 128 14 14 (602112)
I0403 17:58:52.273308 15706 net.cpp:156] Memory required for data: 1256902176
I0403 17:58:52.273324 15706 layer_factory.hpp:77] Creating layer inception_4e/output
I0403 17:58:52.273340 15706 net.cpp:91] Creating Layer inception_4e/output
I0403 17:58:52.273356 15706 net.cpp:425] inception_4e/output <- inception_4e/1x1
I0403 17:58:52.273373 15706 net.cpp:425] inception_4e/output <- inception_4e/3x3
I0403 17:58:52.273388 15706 net.cpp:425] inception_4e/output <- inception_4e/5x5
I0403 17:58:52.273404 15706 net.cpp:425] inception_4e/output <- inception_4e/pool_proj
I0403 17:58:52.273421 15706 net.cpp:399] inception_4e/output -> inception_4e/output
I0403 17:58:52.273471 15706 net.cpp:141] Setting up inception_4e/output
I0403 17:58:52.273494 15706 net.cpp:148] Top shape: 24 832 14 14 (3913728)
I0403 17:58:52.273509 15706 net.cpp:156] Memory required for data: 1272557088
I0403 17:58:52.273524 15706 layer_factory.hpp:77] Creating layer pool4/3x3_s2
I0403 17:58:52.273543 15706 net.cpp:91] Creating Layer pool4/3x3_s2
I0403 17:58:52.273560 15706 net.cpp:425] pool4/3x3_s2 <- inception_4e/output
I0403 17:58:52.273577 15706 net.cpp:399] pool4/3x3_s2 -> pool4/3x3_s2
I0403 17:58:52.273644 15706 net.cpp:141] Setting up pool4/3x3_s2
I0403 17:58:52.273669 15706 net.cpp:148] Top shape: 24 832 7 7 (978432)
I0403 17:58:52.273682 15706 net.cpp:156] Memory required for data: 1276470816
I0403 17:58:52.273695 15706 layer_factory.hpp:77] Creating layer pool4/3x3_s2_pool4/3x3_s2_0_split
I0403 17:58:52.273712 15706 net.cpp:91] Creating Layer pool4/3x3_s2_pool4/3x3_s2_0_split
I0403 17:58:52.273727 15706 net.cpp:425] pool4/3x3_s2_pool4/3x3_s2_0_split <- pool4/3x3_s2
I0403 17:58:52.273747 15706 net.cpp:399] pool4/3x3_s2_pool4/3x3_s2_0_split -> pool4/3x3_s2_pool4/3x3_s2_0_split_0
I0403 17:58:52.273768 15706 net.cpp:399] pool4/3x3_s2_pool4/3x3_s2_0_split -> pool4/3x3_s2_pool4/3x3_s2_0_split_1
I0403 17:58:52.273788 15706 net.cpp:399] pool4/3x3_s2_pool4/3x3_s2_0_split -> pool4/3x3_s2_pool4/3x3_s2_0_split_2
I0403 17:58:52.273808 15706 net.cpp:399] pool4/3x3_s2_pool4/3x3_s2_0_split -> pool4/3x3_s2_pool4/3x3_s2_0_split_3
I0403 17:58:52.273897 15706 net.cpp:141] Setting up pool4/3x3_s2_pool4/3x3_s2_0_split
I0403 17:58:52.273921 15706 net.cpp:148] Top shape: 24 832 7 7 (978432)
I0403 17:58:52.273938 15706 net.cpp:148] Top shape: 24 832 7 7 (978432)
I0403 17:58:52.273954 15706 net.cpp:148] Top shape: 24 832 7 7 (978432)
I0403 17:58:52.273969 15706 net.cpp:148] Top shape: 24 832 7 7 (978432)
I0403 17:58:52.273988 15706 net.cpp:156] Memory required for data: 1292125728
I0403 17:58:52.274003 15706 layer_factory.hpp:77] Creating layer inception_5a/1x1
I0403 17:58:52.274025 15706 net.cpp:91] Creating Layer inception_5a/1x1
I0403 17:58:52.274042 15706 net.cpp:425] inception_5a/1x1 <- pool4/3x3_s2_pool4/3x3_s2_0_split_0
I0403 17:58:52.274061 15706 net.cpp:399] inception_5a/1x1 -> inception_5a/1x1
I0403 17:58:52.276845 15706 net.cpp:141] Setting up inception_5a/1x1
I0403 17:58:52.276877 15706 net.cpp:148] Top shape: 24 256 7 7 (301056)
I0403 17:58:52.276895 15706 net.cpp:156] Memory required for data: 1293329952
I0403 17:58:52.276912 15706 layer_factory.hpp:77] Creating layer inception_5a/relu_1x1
I0403 17:58:52.276929 15706 net.cpp:91] Creating Layer inception_5a/relu_1x1
I0403 17:58:52.276947 15706 net.cpp:425] inception_5a/relu_1x1 <- inception_5a/1x1
I0403 17:58:52.276967 15706 net.cpp:386] inception_5a/relu_1x1 -> inception_5a/1x1 (in-place)
I0403 17:58:52.277276 15706 net.cpp:141] Setting up inception_5a/relu_1x1
I0403 17:58:52.277303 15706 net.cpp:148] Top shape: 24 256 7 7 (301056)
I0403 17:58:52.277319 15706 net.cpp:156] Memory required for data: 1294534176
I0403 17:58:52.277334 15706 layer_factory.hpp:77] Creating layer inception_5a/3x3_reduce
I0403 17:58:52.277356 15706 net.cpp:91] Creating Layer inception_5a/3x3_reduce
I0403 17:58:52.277374 15706 net.cpp:425] inception_5a/3x3_reduce <- pool4/3x3_s2_pool4/3x3_s2_0_split_1
I0403 17:58:52.277392 15706 net.cpp:399] inception_5a/3x3_reduce -> inception_5a/3x3_reduce
I0403 17:58:52.279815 15706 net.cpp:141] Setting up inception_5a/3x3_reduce
I0403 17:58:52.279844 15706 net.cpp:148] Top shape: 24 160 7 7 (188160)
I0403 17:58:52.279860 15706 net.cpp:156] Memory required for data: 1295286816
I0403 17:58:52.279877 15706 layer_factory.hpp:77] Creating layer inception_5a/relu_3x3_reduce
I0403 17:58:52.279896 15706 net.cpp:91] Creating Layer inception_5a/relu_3x3_reduce
I0403 17:58:52.279914 15706 net.cpp:425] inception_5a/relu_3x3_reduce <- inception_5a/3x3_reduce
I0403 17:58:52.279932 15706 net.cpp:386] inception_5a/relu_3x3_reduce -> inception_5a/3x3_reduce (in-place)
I0403 17:58:52.280125 15706 net.cpp:141] Setting up inception_5a/relu_3x3_reduce
I0403 17:58:52.280153 15706 net.cpp:148] Top shape: 24 160 7 7 (188160)
I0403 17:58:52.280167 15706 net.cpp:156] Memory required for data: 1296039456
I0403 17:58:52.280182 15706 layer_factory.hpp:77] Creating layer inception_5a/3x3
I0403 17:58:52.280205 15706 net.cpp:91] Creating Layer inception_5a/3x3
I0403 17:58:52.280223 15706 net.cpp:425] inception_5a/3x3 <- inception_5a/3x3_reduce
I0403 17:58:52.280242 15706 net.cpp:399] inception_5a/3x3 -> inception_5a/3x3
I0403 17:58:52.285147 15706 net.cpp:141] Setting up inception_5a/3x3
I0403 17:58:52.285178 15706 net.cpp:148] Top shape: 24 320 7 7 (376320)
I0403 17:58:52.285194 15706 net.cpp:156] Memory required for data: 1297544736
I0403 17:58:52.285212 15706 layer_factory.hpp:77] Creating layer inception_5a/relu_3x3
I0403 17:58:52.285229 15706 net.cpp:91] Creating Layer inception_5a/relu_3x3
I0403 17:58:52.285245 15706 net.cpp:425] inception_5a/relu_3x3 <- inception_5a/3x3
I0403 17:58:52.285262 15706 net.cpp:386] inception_5a/relu_3x3 -> inception_5a/3x3 (in-place)
I0403 17:58:52.285555 15706 net.cpp:141] Setting up inception_5a/relu_3x3
I0403 17:58:52.285583 15706 net.cpp:148] Top shape: 24 320 7 7 (376320)
I0403 17:58:52.285598 15706 net.cpp:156] Memory required for data: 1299050016
I0403 17:58:52.285614 15706 layer_factory.hpp:77] Creating layer inception_5a/5x5_reduce
I0403 17:58:52.285635 15706 net.cpp:91] Creating Layer inception_5a/5x5_reduce
I0403 17:58:52.285652 15706 net.cpp:425] inception_5a/5x5_reduce <- pool4/3x3_s2_pool4/3x3_s2_0_split_2
I0403 17:58:52.285671 15706 net.cpp:399] inception_5a/5x5_reduce -> inception_5a/5x5_reduce
I0403 17:58:52.286825 15706 net.cpp:141] Setting up inception_5a/5x5_reduce
I0403 17:58:52.286854 15706 net.cpp:148] Top shape: 24 32 7 7 (37632)
I0403 17:58:52.286870 15706 net.cpp:156] Memory required for data: 1299200544
I0403 17:58:52.286888 15706 layer_factory.hpp:77] Creating layer inception_5a/relu_5x5_reduce
I0403 17:58:52.286906 15706 net.cpp:91] Creating Layer inception_5a/relu_5x5_reduce
I0403 17:58:52.286921 15706 net.cpp:425] inception_5a/relu_5x5_reduce <- inception_5a/5x5_reduce
I0403 17:58:52.286941 15706 net.cpp:386] inception_5a/relu_5x5_reduce -> inception_5a/5x5_reduce (in-place)
I0403 17:58:52.287240 15706 net.cpp:141] Setting up inception_5a/relu_5x5_reduce
I0403 17:58:52.287266 15706 net.cpp:148] Top shape: 24 32 7 7 (37632)
I0403 17:58:52.287281 15706 net.cpp:156] Memory required for data: 1299351072
I0403 17:58:52.287294 15706 layer_factory.hpp:77] Creating layer inception_5a/5x5
I0403 17:58:52.287317 15706 net.cpp:91] Creating Layer inception_5a/5x5
I0403 17:58:52.287334 15706 net.cpp:425] inception_5a/5x5 <- inception_5a/5x5_reduce
I0403 17:58:52.287355 15706 net.cpp:399] inception_5a/5x5 -> inception_5a/5x5
I0403 17:58:52.289053 15706 net.cpp:141] Setting up inception_5a/5x5
I0403 17:58:52.289093 15706 net.cpp:148] Top shape: 24 128 7 7 (150528)
I0403 17:58:52.289110 15706 net.cpp:156] Memory required for data: 1299953184
I0403 17:58:52.289129 15706 layer_factory.hpp:77] Creating layer inception_5a/relu_5x5
I0403 17:58:52.289145 15706 net.cpp:91] Creating Layer inception_5a/relu_5x5
I0403 17:58:52.289162 15706 net.cpp:425] inception_5a/relu_5x5 <- inception_5a/5x5
I0403 17:58:52.289181 15706 net.cpp:386] inception_5a/relu_5x5 -> inception_5a/5x5 (in-place)
I0403 17:58:52.289373 15706 net.cpp:141] Setting up inception_5a/relu_5x5
I0403 17:58:52.289397 15706 net.cpp:148] Top shape: 24 128 7 7 (150528)
I0403 17:58:52.289412 15706 net.cpp:156] Memory required for data: 1300555296
I0403 17:58:52.289427 15706 layer_factory.hpp:77] Creating layer inception_5a/pool
I0403 17:58:52.289443 15706 net.cpp:91] Creating Layer inception_5a/pool
I0403 17:58:52.289459 15706 net.cpp:425] inception_5a/pool <- pool4/3x3_s2_pool4/3x3_s2_0_split_3
I0403 17:58:52.289480 15706 net.cpp:399] inception_5a/pool -> inception_5a/pool
I0403 17:58:52.289549 15706 net.cpp:141] Setting up inception_5a/pool
I0403 17:58:52.289573 15706 net.cpp:148] Top shape: 24 832 7 7 (978432)
I0403 17:58:52.289587 15706 net.cpp:156] Memory required for data: 1304469024
I0403 17:58:52.289602 15706 layer_factory.hpp:77] Creating layer inception_5a/pool_proj
I0403 17:58:52.289623 15706 net.cpp:91] Creating Layer inception_5a/pool_proj
I0403 17:58:52.289641 15706 net.cpp:425] inception_5a/pool_proj <- inception_5a/pool
I0403 17:58:52.289659 15706 net.cpp:399] inception_5a/pool_proj -> inception_5a/pool_proj
I0403 17:58:52.291893 15706 net.cpp:141] Setting up inception_5a/pool_proj
I0403 17:58:52.291920 15706 net.cpp:148] Top shape: 24 128 7 7 (150528)
I0403 17:58:52.291934 15706 net.cpp:156] Memory required for data: 1305071136
I0403 17:58:52.291952 15706 layer_factory.hpp:77] Creating layer inception_5a/relu_pool_proj
I0403 17:58:52.291972 15706 net.cpp:91] Creating Layer inception_5a/relu_pool_proj
I0403 17:58:52.291995 15706 net.cpp:425] inception_5a/relu_pool_proj <- inception_5a/pool_proj
I0403 17:58:52.292013 15706 net.cpp:386] inception_5a/relu_pool_proj -> inception_5a/pool_proj (in-place)
I0403 17:58:52.292302 15706 net.cpp:141] Setting up inception_5a/relu_pool_proj
I0403 17:58:52.292327 15706 net.cpp:148] Top shape: 24 128 7 7 (150528)
I0403 17:58:52.292342 15706 net.cpp:156] Memory required for data: 1305673248
I0403 17:58:52.292357 15706 layer_factory.hpp:77] Creating layer inception_5a/output
I0403 17:58:52.292377 15706 net.cpp:91] Creating Layer inception_5a/output
I0403 17:58:52.292393 15706 net.cpp:425] inception_5a/output <- inception_5a/1x1
I0403 17:58:52.292410 15706 net.cpp:425] inception_5a/output <- inception_5a/3x3
I0403 17:58:52.292428 15706 net.cpp:425] inception_5a/output <- inception_5a/5x5
I0403 17:58:52.292443 15706 net.cpp:425] inception_5a/output <- inception_5a/pool_proj
I0403 17:58:52.292460 15706 net.cpp:399] inception_5a/output -> inception_5a/output
I0403 17:58:52.292510 15706 net.cpp:141] Setting up inception_5a/output
I0403 17:58:52.292533 15706 net.cpp:148] Top shape: 24 832 7 7 (978432)
I0403 17:58:52.292548 15706 net.cpp:156] Memory required for data: 1309586976
I0403 17:58:52.292568 15706 layer_factory.hpp:77] Creating layer inception_5a/output_inception_5a/output_0_split
I0403 17:58:52.292585 15706 net.cpp:91] Creating Layer inception_5a/output_inception_5a/output_0_split
I0403 17:58:52.292601 15706 net.cpp:425] inception_5a/output_inception_5a/output_0_split <- inception_5a/output
I0403 17:58:52.292621 15706 net.cpp:399] inception_5a/output_inception_5a/output_0_split -> inception_5a/output_inception_5a/output_0_split_0
I0403 17:58:52.292642 15706 net.cpp:399] inception_5a/output_inception_5a/output_0_split -> inception_5a/output_inception_5a/output_0_split_1
I0403 17:58:52.292662 15706 net.cpp:399] inception_5a/output_inception_5a/output_0_split -> inception_5a/output_inception_5a/output_0_split_2
I0403 17:58:52.292682 15706 net.cpp:399] inception_5a/output_inception_5a/output_0_split -> inception_5a/output_inception_5a/output_0_split_3
I0403 17:58:52.292796 15706 net.cpp:141] Setting up inception_5a/output_inception_5a/output_0_split
I0403 17:58:52.292820 15706 net.cpp:148] Top shape: 24 832 7 7 (978432)
I0403 17:58:52.292840 15706 net.cpp:148] Top shape: 24 832 7 7 (978432)
I0403 17:58:52.292855 15706 net.cpp:148] Top shape: 24 832 7 7 (978432)
I0403 17:58:52.292870 15706 net.cpp:148] Top shape: 24 832 7 7 (978432)
I0403 17:58:52.292882 15706 net.cpp:156] Memory required for data: 1325241888
I0403 17:58:52.292897 15706 layer_factory.hpp:77] Creating layer inception_5b/1x1
I0403 17:58:52.292920 15706 net.cpp:91] Creating Layer inception_5b/1x1
I0403 17:58:52.292938 15706 net.cpp:425] inception_5b/1x1 <- inception_5a/output_inception_5a/output_0_split_0
I0403 17:58:52.292958 15706 net.cpp:399] inception_5b/1x1 -> inception_5b/1x1
I0403 17:58:52.296650 15706 net.cpp:141] Setting up inception_5b/1x1
I0403 17:58:52.296680 15706 net.cpp:148] Top shape: 24 384 7 7 (451584)
I0403 17:58:52.296695 15706 net.cpp:156] Memory required for data: 1327048224
I0403 17:58:52.296713 15706 layer_factory.hpp:77] Creating layer inception_5b/relu_1x1
I0403 17:58:52.296735 15706 net.cpp:91] Creating Layer inception_5b/relu_1x1
I0403 17:58:52.296751 15706 net.cpp:425] inception_5b/relu_1x1 <- inception_5b/1x1
I0403 17:58:52.296768 15706 net.cpp:386] inception_5b/relu_1x1 -> inception_5b/1x1 (in-place)
I0403 17:58:52.297077 15706 net.cpp:141] Setting up inception_5b/relu_1x1
I0403 17:58:52.297103 15706 net.cpp:148] Top shape: 24 384 7 7 (451584)
I0403 17:58:52.297117 15706 net.cpp:156] Memory required for data: 1328854560
I0403 17:58:52.297132 15706 layer_factory.hpp:77] Creating layer inception_5b/3x3_reduce
I0403 17:58:52.297153 15706 net.cpp:91] Creating Layer inception_5b/3x3_reduce
I0403 17:58:52.297173 15706 net.cpp:425] inception_5b/3x3_reduce <- inception_5a/output_inception_5a/output_0_split_1
I0403 17:58:52.297194 15706 net.cpp:399] inception_5b/3x3_reduce -> inception_5b/3x3_reduce
I0403 17:58:52.299808 15706 net.cpp:141] Setting up inception_5b/3x3_reduce
I0403 17:58:52.299839 15706 net.cpp:148] Top shape: 24 192 7 7 (225792)
I0403 17:58:52.299854 15706 net.cpp:156] Memory required for data: 1329757728
I0403 17:58:52.299872 15706 layer_factory.hpp:77] Creating layer inception_5b/relu_3x3_reduce
I0403 17:58:52.299892 15706 net.cpp:91] Creating Layer inception_5b/relu_3x3_reduce
I0403 17:58:52.299909 15706 net.cpp:425] inception_5b/relu_3x3_reduce <- inception_5b/3x3_reduce
I0403 17:58:52.299926 15706 net.cpp:386] inception_5b/relu_3x3_reduce -> inception_5b/3x3_reduce (in-place)
I0403 17:58:52.300119 15706 net.cpp:141] Setting up inception_5b/relu_3x3_reduce
I0403 17:58:52.300144 15706 net.cpp:148] Top shape: 24 192 7 7 (225792)
I0403 17:58:52.300158 15706 net.cpp:156] Memory required for data: 1330660896
I0403 17:58:52.300174 15706 layer_factory.hpp:77] Creating layer inception_5b/3x3
I0403 17:58:52.300196 15706 net.cpp:91] Creating Layer inception_5b/3x3
I0403 17:58:52.300214 15706 net.cpp:425] inception_5b/3x3 <- inception_5b/3x3_reduce
I0403 17:58:52.300235 15706 net.cpp:399] inception_5b/3x3 -> inception_5b/3x3
I0403 17:58:52.306767 15706 net.cpp:141] Setting up inception_5b/3x3
I0403 17:58:52.306797 15706 net.cpp:148] Top shape: 24 384 7 7 (451584)
I0403 17:58:52.306813 15706 net.cpp:156] Memory required for data: 1332467232
I0403 17:58:52.306831 15706 layer_factory.hpp:77] Creating layer inception_5b/relu_3x3
I0403 17:58:52.306851 15706 net.cpp:91] Creating Layer inception_5b/relu_3x3
I0403 17:58:52.306870 15706 net.cpp:425] inception_5b/relu_3x3 <- inception_5b/3x3
I0403 17:58:52.306888 15706 net.cpp:386] inception_5b/relu_3x3 -> inception_5b/3x3 (in-place)
I0403 17:58:52.307188 15706 net.cpp:141] Setting up inception_5b/relu_3x3
I0403 17:58:52.307214 15706 net.cpp:148] Top shape: 24 384 7 7 (451584)
I0403 17:58:52.307227 15706 net.cpp:156] Memory required for data: 1334273568
I0403 17:58:52.307242 15706 layer_factory.hpp:77] Creating layer inception_5b/5x5_reduce
I0403 17:58:52.307281 15706 net.cpp:91] Creating Layer inception_5b/5x5_reduce
I0403 17:58:52.307301 15706 net.cpp:425] inception_5b/5x5_reduce <- inception_5a/output_inception_5a/output_0_split_2
I0403 17:58:52.307320 15706 net.cpp:399] inception_5b/5x5_reduce -> inception_5b/5x5_reduce
I0403 17:58:52.308571 15706 net.cpp:141] Setting up inception_5b/5x5_reduce
I0403 17:58:52.308601 15706 net.cpp:148] Top shape: 24 48 7 7 (56448)
I0403 17:58:52.308617 15706 net.cpp:156] Memory required for data: 1334499360
I0403 17:58:52.308635 15706 layer_factory.hpp:77] Creating layer inception_5b/relu_5x5_reduce
I0403 17:58:52.308652 15706 net.cpp:91] Creating Layer inception_5b/relu_5x5_reduce
I0403 17:58:52.308670 15706 net.cpp:425] inception_5b/relu_5x5_reduce <- inception_5b/5x5_reduce
I0403 17:58:52.308686 15706 net.cpp:386] inception_5b/relu_5x5_reduce -> inception_5b/5x5_reduce (in-place)
I0403 17:58:52.309069 15706 net.cpp:141] Setting up inception_5b/relu_5x5_reduce
I0403 17:58:52.309094 15706 net.cpp:148] Top shape: 24 48 7 7 (56448)
I0403 17:58:52.309109 15706 net.cpp:156] Memory required for data: 1334725152
I0403 17:58:52.309124 15706 layer_factory.hpp:77] Creating layer inception_5b/5x5
I0403 17:58:52.309144 15706 net.cpp:91] Creating Layer inception_5b/5x5
I0403 17:58:52.309162 15706 net.cpp:425] inception_5b/5x5 <- inception_5b/5x5_reduce
I0403 17:58:52.309182 15706 net.cpp:399] inception_5b/5x5 -> inception_5b/5x5
I0403 17:58:52.311192 15706 net.cpp:141] Setting up inception_5b/5x5
I0403 17:58:52.311221 15706 net.cpp:148] Top shape: 24 128 7 7 (150528)
I0403 17:58:52.311238 15706 net.cpp:156] Memory required for data: 1335327264
I0403 17:58:52.311255 15706 layer_factory.hpp:77] Creating layer inception_5b/relu_5x5
I0403 17:58:52.311274 15706 net.cpp:91] Creating Layer inception_5b/relu_5x5
I0403 17:58:52.311290 15706 net.cpp:425] inception_5b/relu_5x5 <- inception_5b/5x5
I0403 17:58:52.311310 15706 net.cpp:386] inception_5b/relu_5x5 -> inception_5b/5x5 (in-place)
I0403 17:58:52.311503 15706 net.cpp:141] Setting up inception_5b/relu_5x5
I0403 17:58:52.311527 15706 net.cpp:148] Top shape: 24 128 7 7 (150528)
I0403 17:58:52.311542 15706 net.cpp:156] Memory required for data: 1335929376
I0403 17:58:52.311556 15706 layer_factory.hpp:77] Creating layer inception_5b/pool
I0403 17:58:52.311573 15706 net.cpp:91] Creating Layer inception_5b/pool
I0403 17:58:52.311589 15706 net.cpp:425] inception_5b/pool <- inception_5a/output_inception_5a/output_0_split_3
I0403 17:58:52.311609 15706 net.cpp:399] inception_5b/pool -> inception_5b/pool
I0403 17:58:52.311682 15706 net.cpp:141] Setting up inception_5b/pool
I0403 17:58:52.311705 15706 net.cpp:148] Top shape: 24 832 7 7 (978432)
I0403 17:58:52.311720 15706 net.cpp:156] Memory required for data: 1339843104
I0403 17:58:52.311734 15706 layer_factory.hpp:77] Creating layer inception_5b/pool_proj
I0403 17:58:52.311758 15706 net.cpp:91] Creating Layer inception_5b/pool_proj
I0403 17:58:52.311775 15706 net.cpp:425] inception_5b/pool_proj <- inception_5b/pool
I0403 17:58:52.311794 15706 net.cpp:399] inception_5b/pool_proj -> inception_5b/pool_proj
I0403 17:58:52.314126 15706 net.cpp:141] Setting up inception_5b/pool_proj
I0403 17:58:52.314157 15706 net.cpp:148] Top shape: 24 128 7 7 (150528)
I0403 17:58:52.314174 15706 net.cpp:156] Memory required for data: 1340445216
I0403 17:58:52.314193 15706 layer_factory.hpp:77] Creating layer inception_5b/relu_pool_proj
I0403 17:58:52.314209 15706 net.cpp:91] Creating Layer inception_5b/relu_pool_proj
I0403 17:58:52.314225 15706 net.cpp:425] inception_5b/relu_pool_proj <- inception_5b/pool_proj
I0403 17:58:52.314244 15706 net.cpp:386] inception_5b/relu_pool_proj -> inception_5b/pool_proj (in-place)
I0403 17:58:52.314538 15706 net.cpp:141] Setting up inception_5b/relu_pool_proj
I0403 17:58:52.314566 15706 net.cpp:148] Top shape: 24 128 7 7 (150528)
I0403 17:58:52.314582 15706 net.cpp:156] Memory required for data: 1341047328
I0403 17:58:52.314596 15706 layer_factory.hpp:77] Creating layer inception_5b/output
I0403 17:58:52.314613 15706 net.cpp:91] Creating Layer inception_5b/output
I0403 17:58:52.314643 15706 net.cpp:425] inception_5b/output <- inception_5b/1x1
I0403 17:58:52.314661 15706 net.cpp:425] inception_5b/output <- inception_5b/3x3
I0403 17:58:52.314677 15706 net.cpp:425] inception_5b/output <- inception_5b/5x5
I0403 17:58:52.314694 15706 net.cpp:425] inception_5b/output <- inception_5b/pool_proj
I0403 17:58:52.314713 15706 net.cpp:399] inception_5b/output -> inception_5b/output
I0403 17:58:52.314764 15706 net.cpp:141] Setting up inception_5b/output
I0403 17:58:52.314788 15706 net.cpp:148] Top shape: 24 1024 7 7 (1204224)
I0403 17:58:52.314802 15706 net.cpp:156] Memory required for data: 1345864224
I0403 17:58:52.314816 15706 layer_factory.hpp:77] Creating layer pool5/7x7_s1
I0403 17:58:52.314836 15706 net.cpp:91] Creating Layer pool5/7x7_s1
I0403 17:58:52.314853 15706 net.cpp:425] pool5/7x7_s1 <- inception_5b/output
I0403 17:58:52.314872 15706 net.cpp:399] pool5/7x7_s1 -> pool5/7x7_s1
I0403 17:58:52.315094 15706 net.cpp:141] Setting up pool5/7x7_s1
I0403 17:58:52.315121 15706 net.cpp:148] Top shape: 24 1024 1 1 (24576)
I0403 17:58:52.315135 15706 net.cpp:156] Memory required for data: 1345962528
I0403 17:58:52.315150 15706 layer_factory.hpp:77] Creating layer pool5/drop_7x7_s1
I0403 17:58:52.315167 15706 net.cpp:91] Creating Layer pool5/drop_7x7_s1
I0403 17:58:52.315182 15706 net.cpp:425] pool5/drop_7x7_s1 <- pool5/7x7_s1
I0403 17:58:52.315199 15706 net.cpp:386] pool5/drop_7x7_s1 -> pool5/7x7_s1 (in-place)
I0403 17:58:52.315249 15706 net.cpp:141] Setting up pool5/drop_7x7_s1
I0403 17:58:52.315273 15706 net.cpp:148] Top shape: 24 1024 1 1 (24576)
I0403 17:58:52.315286 15706 net.cpp:156] Memory required for data: 1346060832
I0403 17:58:52.315301 15706 layer_factory.hpp:77] Creating layer loss3/classifier_plantvillage
I0403 17:58:52.315321 15706 net.cpp:91] Creating Layer loss3/classifier_plantvillage
I0403 17:58:52.315338 15706 net.cpp:425] loss3/classifier_plantvillage <- pool5/7x7_s1
I0403 17:58:52.315356 15706 net.cpp:399] loss3/classifier_plantvillage -> loss3/classifier_plantvillage
I0403 17:58:52.315773 15706 net.cpp:141] Setting up loss3/classifier_plantvillage
I0403 17:58:52.315798 15706 net.cpp:148] Top shape: 24 38 (912)
I0403 17:58:52.315812 15706 net.cpp:156] Memory required for data: 1346064480
I0403 17:58:52.315830 15706 layer_factory.hpp:77] Creating layer loss3/classifier_plantvillage_loss3/classifier_plantvillage_0_split
I0403 17:58:52.315847 15706 net.cpp:91] Creating Layer loss3/classifier_plantvillage_loss3/classifier_plantvillage_0_split
I0403 17:58:52.315863 15706 net.cpp:425] loss3/classifier_plantvillage_loss3/classifier_plantvillage_0_split <- loss3/classifier_plantvillage
I0403 17:58:52.315883 15706 net.cpp:399] loss3/classifier_plantvillage_loss3/classifier_plantvillage_0_split -> loss3/classifier_plantvillage_loss3/classifier_plantvillage_0_split_0
I0403 17:58:52.315906 15706 net.cpp:399] loss3/classifier_plantvillage_loss3/classifier_plantvillage_0_split -> loss3/classifier_plantvillage_loss3/classifier_plantvillage_0_split_1
I0403 17:58:52.315925 15706 net.cpp:399] loss3/classifier_plantvillage_loss3/classifier_plantvillage_0_split -> loss3/classifier_plantvillage_loss3/classifier_plantvillage_0_split_2
I0403 17:58:52.315945 15706 net.cpp:399] loss3/classifier_plantvillage_loss3/classifier_plantvillage_0_split -> loss3/classifier_plantvillage_loss3/classifier_plantvillage_0_split_3
I0403 17:58:52.316052 15706 net.cpp:141] Setting up loss3/classifier_plantvillage_loss3/classifier_plantvillage_0_split
I0403 17:58:52.316076 15706 net.cpp:148] Top shape: 24 38 (912)
I0403 17:58:52.316090 15706 net.cpp:148] Top shape: 24 38 (912)
I0403 17:58:52.316107 15706 net.cpp:148] Top shape: 24 38 (912)
I0403 17:58:52.316121 15706 net.cpp:148] Top shape: 24 38 (912)
I0403 17:58:52.316135 15706 net.cpp:156] Memory required for data: 1346079072
I0403 17:58:52.316150 15706 layer_factory.hpp:77] Creating layer loss1/loss
I0403 17:58:52.316170 15706 net.cpp:91] Creating Layer loss1/loss
I0403 17:58:52.316189 15706 net.cpp:425] loss1/loss <- loss1/classifier_plantvillage_loss1/classifier_plantvillage_0_split_0
I0403 17:58:52.316217 15706 net.cpp:425] loss1/loss <- label_data_1_split_0
…
