…
I0403 18:11:24.939160 16504 net.cpp:313] The NetState phase (1) differed from the phase (0) specified by a rule in layer data
I0403 18:11:24.940322 16504 net.cpp:49] Initializing net from parameters: 
state {
  phase: TEST
}
layer {
  name: "data"
  type: "Data"
  top: "data"
  top: "label"
  include {
    phase: TEST
  }
  transform_param {
    mirror: false
    crop_size: 224
    mean_file: "/home/mohanty/data/final_dataset/lmdb/grayscale-60-40/mean.binaryproto"
  }
  data_param {
    source: "/home/mohanty/data/final_dataset/lmdb/grayscale-60-40/test_db"
    batch_size: 24
    backend: LMDB
  }
}
layer {
  name: "conv1/7x7_s2"
  type: "Convolution"
  bottom: "data"
  top: "conv1/7x7_s2"
  param {
    lr_mult: 1
    decay_mult: 1
  }
  param {
    lr_mult: 2
    decay_mult: 0
  }
  convolution_param {
    num_output: 64
    pad: 3
    kernel_size: 7
    stride: 2
    weight_filler {
      type: "xavier"
      std: 0.1
    }
    bias_filler {
      type: "constant"
      value: 0.2
    }
  }
}
layer {
  name: "conv1/relu_7x7"
  type: "ReLU"
  bottom: "conv1/7x7_s2"
  top: "conv1/7x7_s2"
}
layer {
  name: "pool1/3x3_s2"
  type: "Pooling"
  bottom: "conv1/7x7_s2"
  top: "pool1/3x3_s2"
  pooling_param {
    pool: MAX
    kernel_size: 3
    stride: 2
  }
}
layer {
  name: "pool1/norm1"
  type: "LRN"
  bottom: "pool1/3x3_s2"
  top: "pool1/norm1"
  lrn_param {
    local_size: 5
    alpha: 0.0001
    beta: 0.75
  }
}
layer {
  name: "conv2/3x3_reduce"
  type: "Convolution"
  bottom: "pool1/norm1"
  top: "conv2/3x3_reduce"
  param {
    lr_mult: 1
    decay_mult: 1
  }
  param {
    lr_mult: 2
    decay_mult: 0
  }
  convolution_param {
    num_output: 64
    kernel_size: 1
    weight_filler {
      type: "xavier"
      std: 0.1
    }
    bias_filler {
      type: "constant"
      value: 0.2
    }
  }
}
layer {
  name: "conv2/relu_3x3_reduce"
  type: "ReLU"
  bottom: "conv2/3x3_reduce"
  top: "conv2/3x3_reduce"
}
layer {
  name: "conv2/3x3"
  type: "Convolution"
  bottom: "conv2/3x3_reduce"
  top: "conv2/3x3"
  param {
    lr_mult: 1
    decay_mult: 1
  }
  param {
    lr_mult: 2
    decay_mult: 0
  }
  convolution_param {
    num_output: 192
    pad: 1
    kernel_size: 3
    weight_filler {
      type: "xavier"
      std: 0.03
    }
    bias_filler {
      type: "constant"
      value: 0.2
    }
  }
}
layer {
  name: "conv2/relu_3x3"
  type: "ReLU"
  bottom: "conv2/3x3"
  top: "conv2/3x3"
}
layer {
  name: "conv2/norm2"
  type: "LRN"
  bottom: "conv2/3x3"
  top: "conv2/norm2"
  lrn_param {
    local_size: 5
    alpha: 0.0001
    beta: 0.75
  }
}
layer {
  name: "pool2/3x3_s2"
  type: "Pooling"
  bottom: "conv2/norm2"
  top: "pool2/3x3_s2"
  pooling_param {
    pool: MAX
    kernel_size: 3
    stride: 2
  }
}
layer {
  name: "inception_3a/1x1"
  type: "Convolution"
  bottom: "pool2/3x3_s2"
  top: "inception_3a/1x1"
  param {
    lr_mult: 1
    decay_mult: 1
  }
  param {
    lr_mult: 2
    decay_mult: 0
  }
  convolution_param {
    num_output: 64
    kernel_size: 1
    weight_filler {
      type: "xavier"
      std: 0.03
    }
    bias_filler {
      type: "constant"
      value: 0.2
    }
  }
}
layer {
  name: "inception_3a/relu_1x1"
  type: "ReLU"
  bottom: "inception_3a/1x1"
  top: "inception_3a/1x1"
}
layer {
  name: "inception_3a/3x3_reduce"
  type: "Convolution"
  bottom: "pool2/3x3_s2"
  top: "inception_3a/3x3_reduce"
  param {
    lr_mult: 1
    decay_mult: 1
  }
  param {
    lr_mult: 2
    decay_mult: 0
  }
  convolution_param {
    num_output: 96
    kernel_size: 1
    weight_filler {
      type: "xavier"
      std: 0.09
    }
    bias_filler {
      type: "constant"
      value: 0.2
    }
  }
}
layer {
  name: "inception_3a/relu_3x3_reduce"
  type: "ReLU"
  bottom: "inception_3a/3x3_reduce"
  top: "inception_3a/3x3_reduce"
}
layer {
  name: "inception_3a/3x3"
  type: "Convolution"
  bottom: "inception_3a/3x3_reduce"
  top: "inception_3a/3x3"
  param {
    lr_mult: 1
    decay_mult: 1
  }
  param {
    lr_mult: 2
    decay_mult: 0
  }
  convolution_param {
    num_output: 128
    pad: 1
    kernel_size: 3
    weight_filler {
      type: "xavier"
      std: 0.03
    }
    bias_filler {
      type: "constant"
      value: 0.2
    }
  }
}
layer {
  name: "inception_3a/relu_3x3"
  type: "ReLU"
  bottom: "inception_3a/3x3"
  top: "inception_3a/3x3"
}
layer {
  name: "inception_3a/5x5_reduce"
  type: "Convolution"
  bottom: "pool2/3x3_s2"
  top: "inception_3a/5x5_reduce"
  param {
    lr_mult: 1
    decay_mult: 1
  }
  param {
    lr_mult: 2
    decay_mult: 0
  }
  convolution_param {
    num_output: 16
    kernel_size: 1
    weight_filler {
      type: "xavier"
      std: 0.2
    }
    bias_filler {
      type: "constant"
      value: 0.2
    }
  }
}
layer {
  name: "inception_3a/relu_5x5_reduce"
  type: "ReLU"
  bottom: "inception_3a/5x5_reduce"
  top: "inception_3a/5x5_reduce"
}
layer {
  name: "inception_3a/5x5"
  type: "Convolution"
  bottom: "inception_3a/5x5_reduce"
  top: "inception_3a/5x5"
  param {
    lr_mult: 1
    decay_mult: 1
  }
  param {
    lr_mult: 2
    decay_mult: 0
  }
  convolution_param {
    num_output: 32
    pad: 2
    kernel_size: 5
    weight_filler {
      type: "xavier"
      std: 0.03
    }
    bias_filler {
      type: "constant"
      value: 0.2
    }
  }
}
layer {
  name: "inception_3a/relu_5x5"
  type: "ReLU"
  bottom: "inception_3a/5x5"
  top: "inception_3a/5x5"
}
layer {
  name: "inception_3a/pool"
  type: "Pooling"
  bottom: "pool2/3x3_s2"
  top: "inception_3a/pool"
  pooling_param {
    pool: MAX
    kernel_size: 3
    stride: 1
    pad: 1
  }
}
layer {
  name: "inception_3a/pool_proj"
  type: "Convolution"
  bottom: "inception_3a/pool"
  top: "inception_3a/pool_proj"
  param {
    lr_mult: 1
    decay_mult: 1
  }
  param {
    lr_mult: 2
    decay_mult: 0
  }
  convolution_param {
    num_output: 32
    kernel_size: 1
    weight_filler {
      type: "xavier"
      std: 0.1
    }
    bias_filler {
      type: "constant"
      value: 0.2
    }
  }
}
layer {
  name: "inception_3a/relu_pool_proj"
  type: "ReLU"
  bottom: "inception_3a/pool_proj"
  top: "inception_3a/pool_proj"
}
layer {
  name: "inception_3a/output"
  type: "Concat"
  bottom: "inception_3a/1x1"
  bottom: "inception_3a/3x3"
  bottom: "inception_3a/5x5"
  bottom: "inception_3a/pool_proj"
  top: "inception_3a/output"
}
layer {
  name: "inception_3b/1x1"
  type: "Convolution"
  bottom: "inception_3a/output"
  top: "inception_3b/1x1"
  param {
    lr_mult: 1
    decay_mult: 1
  }
  param {
    lr_mult: 2
    decay_mult: 0
  }
  convolution_param {
    num_output: 128
    kernel_size: 1
    weight_filler {
      type: "xavier"
      std: 0.03
    }
    bias_filler {
      type: "constant"
      value: 0.2
    }
  }
}
layer {
  name: "inception_3b/relu_1x1"
  type: "ReLU"
  bottom: "inception_3b/1x1"
  top: "inception_3b/1x1"
}
layer {
  name: "inception_3b/3x3_reduce"
  type: "Convolution"
  bottom: "inception_3a/output"
  top: "inception_3b/3x3_reduce"
  param {
    lr_mult: 1
    decay_mult: 1
  }
  param {
    lr_mult: 2
    decay_mult: 0
  }
  convolution_param {
    num_output: 128
    kernel_size: 1
    weight_filler {
      type: "xavier"
      std: 0.09
    }
    bias_filler {
      type: "constant"
      value: 0.2
    }
  }
}
layer {
  name: "inception_3b/relu_3x3_reduce"
  type: "ReLU"
  bottom: "inception_3b/3x3_reduce"
  top: "inception_3b/3x3_reduce"
}
layer {
  name: "inception_3b/3x3"
  type: "Convolution"
  bottom: "inception_3b/3x3_reduce"
  top: "inception_3b/3x3"
  param {
    lr_mult: 1
    decay_mult: 1
  }
  param {
    lr_mult: 2
    decay_mult: 0
  }
  convolution_param {
    num_output: 192
    pad: 1
    kernel_size: 3
    weight_filler {
      type: "xavier"
      std: 0.03
    }
    bias_filler {
      type: "constant"
      value: 0.2
    }
  }
}
layer {
  name: "inception_3b/relu_3x3"
  type: "ReLU"
  bottom: "inception_3b/3x3"
  top: "inception_3b/3x3"
}
layer {
  name: "inception_3b/5x5_reduce"
  type: "Convolution"
  bottom: "inception_3a/output"
  top: "inception_3b/5x5_reduce"
  param {
    lr_mult: 1
    decay_mult: 1
  }
  param {
    lr_mult: 2
    decay_mult: 0
  }
  convolution_param {
    num_output: 32
    kernel_size: 1
    weight_filler {
      type: "xavier"
      std: 0.2
    }
    bias_filler {
      type: "constant"
      value: 0.2
    }
  }
}
layer {
  name: "inception_3b/relu_5x5_reduce"
  type: "ReLU"
  bottom: "inception_3b/5x5_reduce"
  top: "inception_3b/5x5_reduce"
}
layer {
  name: "inception_3b/5x5"
  type: "Convolution"
  bottom: "inception_3b/5x5_reduce"
  top: "inception_3b/5x5"
  param {
    lr_mult: 1
    decay_mult: 1
  }
  param {
    lr_mult: 2
    decay_mult: 0
  }
  convolution_param {
    num_output: 96
    pad: 2
    kernel_size: 5
    weight_filler {
      type: "xavier"
      std: 0.03
    }
    bias_filler {
      type: "constant"
      value: 0.2
    }
  }
}
layer {
  name: "inception_3b/relu_5x5"
  type: "ReLU"
  bottom: "inception_3b/5x5"
  top: "inception_3b/5x5"
}
layer {
  name: "inception_3b/pool"
  type: "Pooling"
  bottom: "inception_3a/output"
  top: "inception_3b/pool"
  pooling_param {
    pool: MAX
    kernel_size: 3
    stride: 1
    pad: 1
  }
}
layer {
  name: "inception_3b/pool_proj"
  type: "Convolution"
  bottom: "inception_3b/pool"
  top: "inception_3b/pool_proj"
  param {
    lr_mult: 1
    decay_mult: 1
  }
  param {
    lr_mult: 2
    decay_mult: 0
  }
  convolution_param {
    num_output: 64
    kernel_size: 1
    weight_filler {
      type: "xavier"
      std: 0.1
    }
    bias_filler {
      type: "constant"
      value: 0.2
    }
  }
}
layer {
  name: "inception_3b/relu_pool_proj"
  type: "ReLU"
  bottom: "inception_3b/pool_proj"
  top: "inception_3b/pool_proj"
}
layer {
  name: "inception_3b/output"
  type: "Concat"
  bottom: "inception_3b/1x1"
  bottom: "inception_3b/3x3"
  bottom: "inception_3b/5x5"
  bottom: "inception_3b/pool_proj"
  top: "inception_3b/output"
}
layer {
  name: "pool3/3x3_s2"
  type: "Pooling"
  bottom: "inception_3b/output"
  top: "pool3/3x3_s2"
  pooling_param {
    pool: MAX
    kernel_size: 3
    stride: 2
  }
}
layer {
  name: "inception_4a/1x1"
  type: "Convolution"
  bottom: "pool3/3x3_s2"
  top: "inception_4a/1x1"
  param {
    lr_mult: 1
    decay_mult: 1
  }
  param {
    lr_mult: 2
    decay_mult: 0
  }
  convolution_param {
    num_output: 192
    kernel_size: 1
    weight_filler {
      type: "xavier"
      std: 0.03
    }
    bias_filler {
      type: "constant"
      value: 0.2
    }
  }
}
layer {
  name: "inception_4a/relu_1x1"
  type: "ReLU"
  bottom: "inception_4a/1x1"
  top: "inception_4a/1x1"
}
layer {
  name: "inception_4a/3x3_reduce"
  type: "Convolution"
  bottom: "pool3/3x3_s2"
  top: "inception_4a/3x3_reduce"
  param {
    lr_mult: 1
    decay_mult: 1
  }
  param {
    lr_mult: 2
    decay_mult: 0
  }
  convolution_param {
    num_output: 96
    kernel_size: 1
    weight_filler {
      type: "xavier"
      std: 0.09
    }
    bias_filler {
      type: "constant"
      value: 0.2
    }
  }
}
layer {
  name: "inception_4a/relu_3x3_reduce"
  type: "ReLU"
  bottom: "inception_4a/3x3_reduce"
  top: "inception_4a/3x3_reduce"
}
layer {
  name: "inception_4a/3x3"
  type: "Convolution"
  bottom: "inception_4a/3x3_reduce"
  top: "inception_4a/3x3"
  param {
    lr_mult: 1
    decay_mult: 1
  }
  param {
    lr_mult: 2
    decay_mult: 0
  }
  convolution_param {
    num_output: 208
    pad: 1
    kernel_size: 3
    weight_filler {
      type: "xavier"
      std: 0.03
    }
    bias_filler {
      type: "constant"
      value: 0.2
    }
  }
}
layer {
  name: "inception_4a/relu_3x3"
  type: "ReLU"
  bottom: "inception_4a/3x3"
  top: "inception_4a/3x3"
}
layer {
  name: "inception_4a/5x5_reduce"
  type: "Convolution"
  bottom: "pool3/3x3_s2"
  top: "inception_4a/5x5_reduce"
  param {
    lr_mult: 1
    decay_mult: 1
  }
  param {
    lr_mult: 2
    decay_mult: 0
  }
  convolution_param {
    num_output: 16
    kernel_size: 1
    weight_filler {
      type: "xavier"
      std: 0.2
    }
    bias_filler {
      type: "constant"
      value: 0.2
    }
  }
}
layer {
  name: "inception_4a/relu_5x5_reduce"
  type: "ReLU"
  bottom: "inception_4a/5x5_reduce"
  top: "inception_4a/5x5_reduce"
}
layer {
  name: "inception_4a/5x5"
  type: "Convolution"
  bottom: "inception_4a/5x5_reduce"
  top: "inception_4a/5x5"
  param {
    lr_mult: 1
    decay_mult: 1
  }
  param {
    lr_mult: 2
    decay_mult: 0
  }
  convolution_param {
    num_output: 48
    pad: 2
    kernel_size: 5
    weight_filler {
      type: "xavier"
      std: 0.03
    }
    bias_filler {
      type: "constant"
      value: 0.2
    }
  }
}
layer {
  name: "inception_4a/relu_5x5"
  type: "ReLU"
  bottom: "inception_4a/5x5"
  top: "inception_4a/5x5"
}
layer {
  name: "inception_4a/pool"
  type: "Pooling"
  bottom: "pool3/3x3_s2"
  top: "inception_4a/pool"
  pooling_param {
    pool: MAX
    kernel_size: 3
    stride: 1
    pad: 1
  }
}
layer {
  name: "inception_4a/pool_proj"
  type: "Convolution"
  bottom: "inception_4a/pool"
  top: "inception_4a/pool_proj"
  param {
    lr_mult: 1
    decay_mult: 1
  }
  param {
    lr_mult: 2
    decay_mult: 0
  }
  convolution_param {
    num_output: 64
    kernel_size: 1
    weight_filler {
      type: "xavier"
      std: 0.1
    }
    bias_filler {
      type: "constant"
      value: 0.2
    }
  }
}
layer {
  name: "inception_4a/relu_pool_proj"
  type: "ReLU"
  bottom: "inception_4a/pool_proj"
  top: "inception_4a/pool_proj"
}
layer {
  name: "inception_4a/output"
  type: "Concat"
  bottom: "inception_4a/1x1"
  bottom: "inception_4a/3x3"
  bottom: "inception_4a/5x5"
  bottom: "inception_4a/pool_proj"
  top: "inception_4a/output"
}
layer {
  name: "loss1/ave_pool"
  type: "Pooling"
  bottom: "inception_4a/output"
  top: "loss1/ave_pool"
  pooling_param {
    pool: AVE
    kernel_size: 5
    stride: 3
  }
}
layer {
  name: "loss1/conv"
  type: "Convolution"
  bottom: "loss1/ave_pool"
  top: "loss1/conv"
  param {
    lr_mult: 1
    decay_mult: 1
  }
  param {
    lr_mult: 2
    decay_mult: 0
  }
  convolution_param {
    num_output: 128
    kernel_size: 1
    weight_filler {
      type: "xavier"
      std: 0.08
    }
    bias_filler {
      type: "constant"
      value: 0.2
    }
  }
}
layer {
  name: "loss1/relu_conv"
  type: "ReLU"
  bottom: "loss1/conv"
  top: "loss1/conv"
}
layer {
  name: "loss1/fc"
  type: "InnerProduct"
  bottom: "loss1/conv"
  top: "loss1/fc"
  param {
    lr_mult: 1
    decay_mult: 1
  }
  param {
    lr_mult: 2
    decay_mult: 0
  }
  inner_product_param {
    num_output: 1024
    weight_filler {
      type: "xavier"
      std: 0.02
    }
    bias_filler {
      type: "constant"
      value: 0.2
    }
  }
}
layer {
  name: "loss1/relu_fc"
  type: "ReLU"
  bottom: "loss1/fc"
  top: "loss1/fc"
}
layer {
  name: "loss1/drop_fc"
  type: "Dropout"
  bottom: "loss1/fc"
  top: "loss1/fc"
  dropout_param {
    dropout_ratio: 0.7
  }
}
layer {
  name: "loss1/classifier_plantvillage"
  type: "InnerProduct"
  bottom: "loss1/fc"
  top: "loss1/classifier_plantvillage"
  param {
    lr_mult: 1
    decay_mult: 1
  }
  param {
    lr_mult: 2
    decay_mult: 0
  }
  inner_product_param {
    num_output: 38
    weight_filler {
      type: "xavier"
      std: 0.0009765625
    }
    bias_filler {
      type: "constant"
      value: 0
    }
  }
}
layer {
  name: "inception_4b/1x1"
  type: "Convolution"
  bottom: "inception_4a/output"
  top: "inception_4b/1x1"
  param {
    lr_mult: 1
    decay_mult: 1
  }
  param {
    lr_mult: 2
    decay_mult: 0
  }
  convolution_param {
    num_output: 160
    kernel_size: 1
    weight_filler {
      type: "xavier"
      std: 0.03
    }
    bias_filler {
      type: "constant"
      value: 0.2
    }
  }
}
layer {
  name: "inception_4b/relu_1x1"
  type: "ReLU"
  bottom: "inception_4b/1x1"
  top: "inception_4b/1x1"
}
layer {
  name: "inception_4b/3x3_reduce"
  type: "Convolution"
  bottom: "inception_4a/output"
  top: "inception_4b/3x3_reduce"
  param {
    lr_mult: 1
    decay_mult: 1
  }
  param {
    lr_mult: 2
    decay_mult: 0
  }
  convolution_param {
    num_output: 112
    kernel_size: 1
    weight_filler {
      type: "xavier"
      std: 0.09
    }
    bias_filler {
      type: "constant"
      value: 0.2
    }
  }
}
layer {
  name: "inception_4b/relu_3x3_reduce"
  type: "ReLU"
  bottom: "inception_4b/3x3_reduce"
  top: "inception_4b/3x3_reduce"
}
layer {
  name: "inception_4b/3x3"
  type: "Convolution"
  bottom: "inception_4b/3x3_reduce"
  top: "inception_4b/3x3"
  param {
    lr_mult: 1
    decay_mult: 1
  }
  param {
    lr_mult: 2
    decay_mult: 0
  }
  convolution_param {
    num_output: 224
    pad: 1
    kernel_size: 3
    weight_filler {
      type: "xavier"
      std: 0.03
    }
    bias_filler {
      type: "constant"
      value: 0.2
    }
  }
}
layer {
  name: "inception_4b/relu_3x3"
  type: "ReLU"
  bottom: "inception_4b/3x3"
  top: "inception_4b/3x3"
}
layer {
  name: "inception_4b/5x5_reduce"
  type: "Convolution"
  bottom: "inception_4a/output"
  top: "inception_4b/5x5_reduce"
  param {
    lr_mult: 1
    decay_mult: 1
  }
  param {
    lr_mult: 2
    decay_mult: 0
  }
  convolution_param {
    num_output: 24
    kernel_size: 1
    weight_filler {
      type: "xavier"
      std: 0.2
    }
    bias_filler {
      type: "constant"
      value: 0.2
    }
  }
}
layer {
  name: "inception_4b/relu_5x5_reduce"
  type: "ReLU"
  bottom: "inception_4b/5x5_reduce"
  top: "inception_4b/5x5_reduce"
}
layer {
  name: "inception_4b/5x5"
  type: "Convolution"
  bottom: "inception_4b/5x5_reduce"
  top: "inception_4b/5x5"
  param {
    lr_mult: 1
    decay_mult: 1
  }
  param {
    lr_mult: 2
    decay_mult: 0
  }
  convolution_param {
    num_output: 64
    pad: 2
    kernel_size: 5
    weight_filler {
      type: "xavier"
      std: 0.03
    }
    bias_filler {
      type: "constant"
      value: 0.2
    }
  }
}
layer {
  name: "inception_4b/relu_5x5"
  type: "ReLU"
  bottom: "inception_4b/5x5"
  top: "inception_4b/5x5"
}
layer {
  name: "inception_4b/pool"
  type: "Pooling"
  bottom: "inception_4a/output"
  top: "inception_4b/pool"
  pooling_param {
    pool: MAX
    kernel_size: 3
    stride: 1
    pad: 1
  }
}
layer {
  name: "inception_4b/pool_proj"
  type: "Convolution"
  bottom: "inception_4b/pool"
  top: "inception_4b/pool_proj"
  param {
    lr_mult: 1
    decay_mult: 1
  }
  param {
    lr_mult: 2
    decay_mult: 0
  }
  convolution_param {
    num_output: 64
    kernel_size: 1
    weight_filler {
      type: "xavier"
      std: 0.1
    }
    bias_filler {
      type: "constant"
      value: 0.2
    }
  }
}
layer {
  name: "inception_4b/relu_pool_proj"
  type: "ReLU"
  bottom: "inception_4b/pool_proj"
  top: "inception_4b/pool_proj"
}
layer {
  name: "inception_4b/output"
  type: "Concat"
  bottom: "inception_4b/1x1"
  bottom: "inception_4b/3x3"
  bottom: "inception_4b/5x5"
  bottom: "inception_4b/pool_proj"
  top: "inception_4b/output"
}
layer {
  name: "inception_4c/1x1"
  type: "Convolution"
  bottom: "inception_4b/output"
  top: "inception_4c/1x1"
  param {
    lr_mult: 1
    decay_mult: 1
  }
  param {
    lr_mult: 2
    decay_mult: 0
  }
  convolution_param {
    num_output: 128
    kernel_size: 1
    weight_filler {
      type: "xavier"
      std: 0.03
    }
    bias_filler {
      type: "constant"
      value: 0.2
    }
  }
}
layer {
  name: "inception_4c/relu_1x1"
  type: "ReLU"
  bottom: "inception_4c/1x1"
  top: "inception_4c/1x1"
}
layer {
  name: "inception_4c/3x3_reduce"
  type: "Convolution"
  bottom: "inception_4b/output"
  top: "inception_4c/3x3_reduce"
  param {
    lr_mult: 1
    decay_mult: 1
  }
  param {
    lr_mult: 2
    decay_mult: 0
  }
  convolution_param {
    num_output: 128
    kernel_size: 1
    weight_filler {
      type: "xavier"
      std: 0.09
    }
    bias_filler {
      type: "constant"
      value: 0.2
    }
  }
}
layer {
  name: "inception_4c/relu_3x3_reduce"
  type: "ReLU"
  bottom: "inception_4c/3x3_reduce"
  top: "inception_4c/3x3_reduce"
}
layer {
  name: "inception_4c/3x3"
  type: "Convolution"
  bottom: "inception_4c/3x3_reduce"
  top: "inception_4c/3x3"
  param {
    lr_mult: 1
    decay_mult: 1
  }
  param {
    lr_mult: 2
    decay_mult: 0
  }
  convolution_param {
    num_output: 256
    pad: 1
    kernel_size: 3
    weight_filler {
      type: "xavier"
      std: 0.03
    }
    bias_filler {
      type: "constant"
      value: 0.2
    }
  }
}
layer {
  name: "inception_4c/relu_3x3"
  type: "ReLU"
  bottom: "inception_4c/3x3"
  top: "inception_4c/3x3"
}
layer {
  name: "inception_4c/5x5_reduce"
  type: "Convolution"
  bottom: "inception_4b/output"
  top: "inception_4c/5x5_reduce"
  param {
    lr_mult: 1
    decay_mult: 1
  }
  param {
    lr_mult: 2
    decay_mult: 0
  }
  convolution_param {
    num_output: 24
    kernel_size: 1
    weight_filler {
      type: "xavier"
      std: 0.2
    }
    bias_filler {
      type: "constant"
      value: 0.2
    }
  }
}
layer {
  name: "inception_4c/relu_5x5_reduce"
  type: "ReLU"
  bottom: "inception_4c/5x5_reduce"
  top: "inception_4c/5x5_reduce"
}
layer {
  name: "inception_4c/5x5"
  type: "Convolution"
  bottom: "inception_4c/5x5_reduce"
  top: "inception_4c/5x5"
  param {
    lr_mult: 1
    decay_mult: 1
  }
  param {
    lr_mult: 2
    decay_mult: 0
  }
  convolution_param {
    num_output: 64
    pad: 2
    kernel_size: 5
    weight_filler {
      type: "xavier"
      std: 0.03
    }
    bias_filler {
      type: "constant"
      value: 0.2
    }
  }
}
layer {
  name: "inception_4c/relu_5x5"
  type: "ReLU"
  bottom: "inception_4c/5x5"
  top: "inception_4c/5x5"
}
layer {
  name: "inception_4c/pool"
  type: "Pooling"
  bottom: "inception_4b/output"
  top: "inception_4c/pool"
  pooling_param {
    pool: MAX
    kernel_size: 3
    stride: 1
    pad: 1
  }
}
layer {
  name: "inception_4c/pool_proj"
  type: "Convolution"
  bottom: "inception_4c/pool"
  top: "inception_4c/pool_proj"
  param {
    lr_mult: 1
    decay_mult: 1
  }
  param {
    lr_mult: 2
    decay_mult: 0
  }
  convolution_param {
    num_output: 64
    kernel_size: 1
    weight_filler {
      type: "xavier"
      std: 0.1
    }
    bias_filler {
      type: "constant"
      value: 0.2
    }
  }
}
layer {
  name: "inception_4c/relu_pool_proj"
  type: "ReLU"
  bottom: "inception_4c/pool_proj"
  top: "inception_4c/pool_proj"
}
layer {
  name: "inception_4c/output"
  type: "Concat"
  bottom: "inception_4c/1x1"
  bottom: "inception_4c/3x3"
  bottom: "inception_4c/5x5"
  bottom: "inception_4c/pool_proj"
  top: "inception_4c/output"
}
layer {
  name: "inception_4d/1x1"
  type: "Convolution"
  bottom: "inception_4c/output"
  top: "inception_4d/1x1"
  param {
    lr_mult: 1
    decay_mult: 1
  }
  param {
    lr_mult: 2
    decay_mult: 0
  }
  convolution_param {
    num_output: 112
    kernel_size: 1
    weight_filler {
      type: "xavier"
      std: 0.03
    }
    bias_filler {
      type: "constant"
      value: 0.2
    }
  }
}
layer {
  name: "inception_4d/relu_1x1"
  type: "ReLU"
  bottom: "inception_4d/1x1"
  top: "inception_4d/1x1"
}
layer {
  name: "inception_4d/3x3_reduce"
  type: "Convolution"
  bottom: "inception_4c/output"
  top: "inception_4d/3x3_reduce"
  param {
    lr_mult: 1
    decay_mult: 1
  }
  param {
    lr_mult: 2
    decay_mult: 0
  }
  convolution_param {
    num_output: 144
    kernel_size: 1
    weight_filler {
      type: "xavier"
      std: 0.09
    }
    bias_filler {
      type: "constant"
      value: 0.2
    }
  }
}
layer {
  name: "inception_4d/relu_3x3_reduce"
  type: "ReLU"
  bottom: "inception_4d/3x3_reduce"
  top: "inception_4d/3x3_reduce"
}
layer {
  name: "inception_4d/3x3"
  type: "Convolution"
  bottom: "inception_4d/3x3_reduce"
  top: "inception_4d/3x3"
  param {
    lr_mult: 1
    decay_mult: 1
  }
  param {
    lr_mult: 2
    decay_mult: 0
  }
  convolution_param {
    num_output: 288
    pad: 1
    kernel_size: 3
    weight_filler {
      type: "xavier"
      std: 0.03
    }
    bias_filler {
      type: "constant"
      value: 0.2
    }
  }
}
layer {
  name: "inception_4d/relu_3x3"
  type: "ReLU"
  bottom: "inception_4d/3x3"
  top: "inception_4d/3x3"
}
layer {
  name: "inception_4d/5x5_reduce"
  type: "Convolution"
  bottom: "inception_4c/output"
  top: "inception_4d/5x5_reduce"
  param {
    lr_mult: 1
    decay_mult: 1
  }
  param {
    lr_mult: 2
    decay_mult: 0
  }
  convolution_param {
    num_output: 32
    kernel_size: 1
    weight_filler {
      type: "xavier"
      std: 0.2
    }
    bias_filler {
      type: "constant"
      value: 0.2
    }
  }
}
layer {
  name: "inception_4d/relu_5x5_reduce"
  type: "ReLU"
  bottom: "inception_4d/5x5_reduce"
  top: "inception_4d/5x5_reduce"
}
layer {
  name: "inception_4d/5x5"
  type: "Convolution"
  bottom: "inception_4d/5x5_reduce"
  top: "inception_4d/5x5"
  param {
    lr_mult: 1
    decay_mult: 1
  }
  param {
    lr_mult: 2
    decay_mult: 0
  }
  convolution_param {
    num_output: 64
    pad: 2
    kernel_size: 5
    weight_filler {
      type: "xavier"
      std: 0.03
    }
    bias_filler {
      type: "constant"
      value: 0.2
    }
  }
}
layer {
  name: "inception_4d/relu_5x5"
  type: "ReLU"
  bottom: "inception_4d/5x5"
  top: "inception_4d/5x5"
}
layer {
  name: "inception_4d/pool"
  type: "Pooling"
  bottom: "inception_4c/output"
  top: "inception_4d/pool"
  pooling_param {
    pool: MAX
    kernel_size: 3
    stride: 1
    pad: 1
  }
}
layer {
  name: "inception_4d/pool_proj"
  type: "Convolution"
  bottom: "inception_4d/pool"
  top: "inception_4d/pool_proj"
  param {
    lr_mult: 1
    decay_mult: 1
  }
  param {
    lr_mult: 2
    decay_mult: 0
  }
  convolution_param {
    num_output: 64
    kernel_size: 1
    weight_filler {
      type: "xavier"
      std: 0.1
    }
    bias_filler {
      type: "constant"
      value: 0.2
    }
  }
}
layer {
  name: "inception_4d/relu_pool_proj"
  type: "ReLU"
  bottom: "inception_4d/pool_proj"
  top: "inception_4d/pool_proj"
}
layer {
  name: "inception_4d/output"
  type: "Concat"
  bottom: "inception_4d/1x1"
  bottom: "inception_4d/3x3"
  bottom: "inception_4d/5x5"
  bottom: "inception_4d/pool_proj"
  top: "inception_4d/output"
}
layer {
  name: "loss2/ave_pool"
  type: "Pooling"
  bottom: "inception_4d/output"
  top: "loss2/ave_pool"
  pooling_param {
    pool: AVE
    kernel_size: 5
    stride: 3
  }
}
layer {
  name: "loss2/conv"
  type: "Convolution"
  bottom: "loss2/ave_pool"
  top: "loss2/conv"
  param {
    lr_mult: 1
    decay_mult: 1
  }
  param {
    lr_mult: 2
    decay_mult: 0
  }
  convolution_param {
    num_output: 128
    kernel_size: 1
    weight_filler {
      type: "xavier"
      std: 0.08
    }
    bias_filler {
      type: "constant"
      value: 0.2
    }
  }
}
layer {
  name: "loss2/relu_conv"
  type: "ReLU"
  bottom: "loss2/conv"
  top: "loss2/conv"
}
layer {
  name: "loss2/fc"
  type: "InnerProduct"
  bottom: "loss2/conv"
  top: "loss2/fc"
  param {
    lr_mult: 1
    decay_mult: 1
  }
  param {
    lr_mult: 2
    decay_mult: 0
  }
  inner_product_param {
    num_output: 1024
    weight_filler {
      type: "xavier"
      std: 0.02
    }
    bias_filler {
      type: "constant"
      value: 0.2
    }
  }
}
layer {
  name: "loss2/relu_fc"
  type: "ReLU"
  bottom: "loss2/fc"
  top: "loss2/fc"
}
layer {
  name: "loss2/drop_fc"
  type: "Dropout"
  bottom: "loss2/fc"
  top: "loss2/fc"
  dropout_param {
    dropout_ratio: 0.7
  }
}
layer {
  name: "loss2/classifier_plantvillage"
  type: "InnerProduct"
  bottom: "loss2/fc"
  top: "loss2/classifier_plantvillage"
  param {
    lr_mult: 1
    decay_mult: 1
  }
  param {
    lr_mult: 2
    decay_mult: 0
  }
  inner_product_param {
    num_output: 38
    weight_filler {
      type: "xavier"
      std: 0.0009765625
    }
    bias_filler {
      type: "constant"
      value: 0
    }
  }
}
layer {
  name: "inception_4e/1x1"
  type: "Convolution"
  bottom: "inception_4d/output"
  top: "inception_4e/1x1"
  param {
    lr_mult: 1
    decay_mult: 1
  }
  param {
    lr_mult: 2
    decay_mult: 0
  }
  convolution_param {
    num_output: 256
    kernel_size: 1
    weight_filler {
      type: "xavier"
      std: 0.03
    }
    bias_filler {
      type: "constant"
      value: 0.2
    }
  }
}
layer {
  name: "inception_4e/relu_1x1"
  type: "ReLU"
  bottom: "inception_4e/1x1"
  top: "inception_4e/1x1"
}
layer {
  name: "inception_4e/3x3_reduce"
  type: "Convolution"
  bottom: "inception_4d/output"
  top: "inception_4e/3x3_reduce"
  param {
    lr_mult: 1
    decay_mult: 1
  }
  param {
    lr_mult: 2
    decay_mult: 0
  }
  convolution_param {
    num_output: 160
    kernel_size: 1
    weight_filler {
      type: "xavier"
      std: 0.09
    }
    bias_filler {
      type: "constant"
      value: 0.2
    }
  }
}
layer {
  name: "inception_4e/relu_3x3_reduce"
  type: "ReLU"
  bottom: "inception_4e/3x3_reduce"
  top: "inception_4e/3x3_reduce"
}
layer {
  name: "inception_4e/3x3"
  type: "Convolution"
  bottom: "inception_4e/3x3_reduce"
  top: "inception_4e/3x3"
  param {
    lr_mult: 1
    decay_mult: 1
  }
  param {
    lr_mult: 2
    decay_mult: 0
  }
  convolution_param {
    num_output: 320
    pad: 1
    kernel_size: 3
    weight_filler {
      type: "xavier"
      std: 0.03
    }
    bias_filler {
      type: "constant"
      value: 0.2
    }
  }
}
layer {
  name: "inception_4e/relu_3x3"
  type: "ReLU"
  bottom: "inception_4e/3x3"
  top: "inception_4e/3x3"
}
layer {
  name: "inception_4e/5x5_reduce"
  type: "Convolution"
  bottom: "inception_4d/output"
  top: "inception_4e/5x5_reduce"
  param {
    lr_mult: 1
    decay_mult: 1
  }
  param {
    lr_mult: 2
    decay_mult: 0
  }
  convolution_param {
    num_output: 32
    kernel_size: 1
    weight_filler {
      type: "xavier"
      std: 0.2
    }
    bias_filler {
      type: "constant"
      value: 0.2
    }
  }
}
layer {
  name: "inception_4e/relu_5x5_reduce"
  type: "ReLU"
  bottom: "inception_4e/5x5_reduce"
  top: "inception_4e/5x5_reduce"
}
layer {
  name: "inception_4e/5x5"
  type: "Convolution"
  bottom: "inception_4e/5x5_reduce"
  top: "inception_4e/
I0403 18:11:24.941530 16504 layer_factory.hpp:77] Creating layer data
I0403 18:11:24.942129 16504 net.cpp:91] Creating Layer data
I0403 18:11:24.942162 16504 net.cpp:399] data -> data
I0403 18:11:24.942212 16504 net.cpp:399] data -> label
I0403 18:11:24.942248 16504 data_transformer.cpp:25] Loading mean file from: /home/mohanty/data/final_dataset/lmdb/grayscale-60-40/mean.binaryproto
I0403 18:11:24.943449 16506 db_lmdb.cpp:38] Opened lmdb /home/mohanty/data/final_dataset/lmdb/grayscale-60-40/test_db
I0403 18:11:24.955252 16504 data_layer.cpp:41] output data size: 24,3,224,224
I0403 18:11:24.981492 16504 net.cpp:141] Setting up data
I0403 18:11:24.981578 16504 net.cpp:148] Top shape: 24 3 224 224 (3612672)
I0403 18:11:24.981600 16504 net.cpp:148] Top shape: 24 (24)
I0403 18:11:24.981614 16504 net.cpp:156] Memory required for data: 14450784
I0403 18:11:24.981640 16504 layer_factory.hpp:77] Creating layer label_data_1_split
I0403 18:11:24.981667 16504 net.cpp:91] Creating Layer label_data_1_split
I0403 18:11:24.981684 16504 net.cpp:425] label_data_1_split <- label
I0403 18:11:24.981714 16504 net.cpp:399] label_data_1_split -> label_data_1_split_0
I0403 18:11:24.981741 16504 net.cpp:399] label_data_1_split -> label_data_1_split_1
I0403 18:11:24.981761 16504 net.cpp:399] label_data_1_split -> label_data_1_split_2
I0403 18:11:24.981781 16504 net.cpp:399] label_data_1_split -> label_data_1_split_3
I0403 18:11:24.981798 16504 net.cpp:399] label_data_1_split -> label_data_1_split_4
I0403 18:11:24.981817 16504 net.cpp:399] label_data_1_split -> label_data_1_split_5
I0403 18:11:24.981835 16504 net.cpp:399] label_data_1_split -> label_data_1_split_6
I0403 18:11:24.981854 16504 net.cpp:399] label_data_1_split -> label_data_1_split_7
I0403 18:11:24.981873 16504 net.cpp:399] label_data_1_split -> label_data_1_split_8
I0403 18:11:24.981892 16504 net.cpp:399] label_data_1_split -> label_data_1_split_9
I0403 18:11:24.982007 16504 net.cpp:141] Setting up label_data_1_split
I0403 18:11:24.982029 16504 net.cpp:148] Top shape: 24 (24)
I0403 18:11:24.982045 16504 net.cpp:148] Top shape: 24 (24)
I0403 18:11:24.982060 16504 net.cpp:148] Top shape: 24 (24)
I0403 18:11:24.982075 16504 net.cpp:148] Top shape: 24 (24)
I0403 18:11:24.982090 16504 net.cpp:148] Top shape: 24 (24)
I0403 18:11:24.982105 16504 net.cpp:148] Top shape: 24 (24)
I0403 18:11:24.982120 16504 net.cpp:148] Top shape: 24 (24)
I0403 18:11:24.982134 16504 net.cpp:148] Top shape: 24 (24)
I0403 18:11:24.982149 16504 net.cpp:148] Top shape: 24 (24)
I0403 18:11:24.982164 16504 net.cpp:148] Top shape: 24 (24)
I0403 18:11:24.982208 16504 net.cpp:156] Memory required for data: 14451744
I0403 18:11:24.982223 16504 layer_factory.hpp:77] Creating layer conv1/7x7_s2
I0403 18:11:24.982254 16504 net.cpp:91] Creating Layer conv1/7x7_s2
I0403 18:11:24.982272 16504 net.cpp:425] conv1/7x7_s2 <- data
I0403 18:11:24.982290 16504 net.cpp:399] conv1/7x7_s2 -> conv1/7x7_s2
I0403 18:11:25.118023 16504 net.cpp:141] Setting up conv1/7x7_s2
I0403 18:11:25.118113 16504 net.cpp:148] Top shape: 24 64 112 112 (19267584)
I0403 18:11:25.118129 16504 net.cpp:156] Memory required for data: 91522080
I0403 18:11:25.118161 16504 layer_factory.hpp:77] Creating layer conv1/relu_7x7
I0403 18:11:25.118198 16504 net.cpp:91] Creating Layer conv1/relu_7x7
I0403 18:11:25.118216 16504 net.cpp:425] conv1/relu_7x7 <- conv1/7x7_s2
I0403 18:11:25.118234 16504 net.cpp:386] conv1/relu_7x7 -> conv1/7x7_s2 (in-place)
I0403 18:11:25.118507 16504 net.cpp:141] Setting up conv1/relu_7x7
I0403 18:11:25.118533 16504 net.cpp:148] Top shape: 24 64 112 112 (19267584)
I0403 18:11:25.118551 16504 net.cpp:156] Memory required for data: 168592416
I0403 18:11:25.118567 16504 layer_factory.hpp:77] Creating layer pool1/3x3_s2
I0403 18:11:25.118592 16504 net.cpp:91] Creating Layer pool1/3x3_s2
I0403 18:11:25.118608 16504 net.cpp:425] pool1/3x3_s2 <- conv1/7x7_s2
I0403 18:11:25.118626 16504 net.cpp:399] pool1/3x3_s2 -> pool1/3x3_s2
I0403 18:11:25.118705 16504 net.cpp:141] Setting up pool1/3x3_s2
I0403 18:11:25.118727 16504 net.cpp:148] Top shape: 24 64 56 56 (4816896)
I0403 18:11:25.118741 16504 net.cpp:156] Memory required for data: 187860000
I0403 18:11:25.118755 16504 layer_factory.hpp:77] Creating layer pool1/norm1
I0403 18:11:25.118782 16504 net.cpp:91] Creating Layer pool1/norm1
I0403 18:11:25.118800 16504 net.cpp:425] pool1/norm1 <- pool1/3x3_s2
I0403 18:11:25.118819 16504 net.cpp:399] pool1/norm1 -> pool1/norm1
I0403 18:11:25.119153 16504 net.cpp:141] Setting up pool1/norm1
I0403 18:11:25.119180 16504 net.cpp:148] Top shape: 24 64 56 56 (4816896)
I0403 18:11:25.119195 16504 net.cpp:156] Memory required for data: 207127584
I0403 18:11:25.119210 16504 layer_factory.hpp:77] Creating layer conv2/3x3_reduce
I0403 18:11:25.119240 16504 net.cpp:91] Creating Layer conv2/3x3_reduce
I0403 18:11:25.119258 16504 net.cpp:425] conv2/3x3_reduce <- pool1/norm1
I0403 18:11:25.119279 16504 net.cpp:399] conv2/3x3_reduce -> conv2/3x3_reduce
I0403 18:11:25.120745 16504 net.cpp:141] Setting up conv2/3x3_reduce
I0403 18:11:25.120775 16504 net.cpp:148] Top shape: 24 64 56 56 (4816896)
I0403 18:11:25.120791 16504 net.cpp:156] Memory required for data: 226395168
I0403 18:11:25.120812 16504 layer_factory.hpp:77] Creating layer conv2/relu_3x3_reduce
I0403 18:11:25.120833 16504 net.cpp:91] Creating Layer conv2/relu_3x3_reduce
I0403 18:11:25.120851 16504 net.cpp:425] conv2/relu_3x3_reduce <- conv2/3x3_reduce
I0403 18:11:25.120868 16504 net.cpp:386] conv2/relu_3x3_reduce -> conv2/3x3_reduce (in-place)
I0403 18:11:25.121153 16504 net.cpp:141] Setting up conv2/relu_3x3_reduce
I0403 18:11:25.121184 16504 net.cpp:148] Top shape: 24 64 56 56 (4816896)
I0403 18:11:25.121199 16504 net.cpp:156] Memory required for data: 245662752
I0403 18:11:25.121215 16504 layer_factory.hpp:77] Creating layer conv2/3x3
I0403 18:11:25.121239 16504 net.cpp:91] Creating Layer conv2/3x3
I0403 18:11:25.121258 16504 net.cpp:425] conv2/3x3 <- conv2/3x3_reduce
I0403 18:11:25.121280 16504 net.cpp:399] conv2/3x3 -> conv2/3x3
I0403 18:11:25.123634 16504 net.cpp:141] Setting up conv2/3x3
I0403 18:11:25.123666 16504 net.cpp:148] Top shape: 24 192 56 56 (14450688)
I0403 18:11:25.123682 16504 net.cpp:156] Memory required for data: 303465504
I0403 18:11:25.123703 16504 layer_factory.hpp:77] Creating layer conv2/relu_3x3
I0403 18:11:25.123724 16504 net.cpp:91] Creating Layer conv2/relu_3x3
I0403 18:11:25.123741 16504 net.cpp:425] conv2/relu_3x3 <- conv2/3x3
I0403 18:11:25.123759 16504 net.cpp:386] conv2/relu_3x3 -> conv2/3x3 (in-place)
I0403 18:11:25.123939 16504 net.cpp:141] Setting up conv2/relu_3x3
I0403 18:11:25.123968 16504 net.cpp:148] Top shape: 24 192 56 56 (14450688)
I0403 18:11:25.124014 16504 net.cpp:156] Memory required for data: 361268256
I0403 18:11:25.124032 16504 layer_factory.hpp:77] Creating layer conv2/norm2
I0403 18:11:25.124053 16504 net.cpp:91] Creating Layer conv2/norm2
I0403 18:11:25.124069 16504 net.cpp:425] conv2/norm2 <- conv2/3x3
I0403 18:11:25.124089 16504 net.cpp:399] conv2/norm2 -> conv2/norm2
I0403 18:11:25.124402 16504 net.cpp:141] Setting up conv2/norm2
I0403 18:11:25.124430 16504 net.cpp:148] Top shape: 24 192 56 56 (14450688)
I0403 18:11:25.124446 16504 net.cpp:156] Memory required for data: 419071008
I0403 18:11:25.124461 16504 layer_factory.hpp:77] Creating layer pool2/3x3_s2
I0403 18:11:25.124480 16504 net.cpp:91] Creating Layer pool2/3x3_s2
I0403 18:11:25.124495 16504 net.cpp:425] pool2/3x3_s2 <- conv2/norm2
I0403 18:11:25.124516 16504 net.cpp:399] pool2/3x3_s2 -> pool2/3x3_s2
I0403 18:11:25.124569 16504 net.cpp:141] Setting up pool2/3x3_s2
I0403 18:11:25.124594 16504 net.cpp:148] Top shape: 24 192 28 28 (3612672)
I0403 18:11:25.124610 16504 net.cpp:156] Memory required for data: 433521696
I0403 18:11:25.124625 16504 layer_factory.hpp:77] Creating layer pool2/3x3_s2_pool2/3x3_s2_0_split
I0403 18:11:25.124644 16504 net.cpp:91] Creating Layer pool2/3x3_s2_pool2/3x3_s2_0_split
I0403 18:11:25.124660 16504 net.cpp:425] pool2/3x3_s2_pool2/3x3_s2_0_split <- pool2/3x3_s2
I0403 18:11:25.124676 16504 net.cpp:399] pool2/3x3_s2_pool2/3x3_s2_0_split -> pool2/3x3_s2_pool2/3x3_s2_0_split_0
I0403 18:11:25.124696 16504 net.cpp:399] pool2/3x3_s2_pool2/3x3_s2_0_split -> pool2/3x3_s2_pool2/3x3_s2_0_split_1
I0403 18:11:25.124717 16504 net.cpp:399] pool2/3x3_s2_pool2/3x3_s2_0_split -> pool2/3x3_s2_pool2/3x3_s2_0_split_2
I0403 18:11:25.124737 16504 net.cpp:399] pool2/3x3_s2_pool2/3x3_s2_0_split -> pool2/3x3_s2_pool2/3x3_s2_0_split_3
I0403 18:11:25.124814 16504 net.cpp:141] Setting up pool2/3x3_s2_pool2/3x3_s2_0_split
I0403 18:11:25.124836 16504 net.cpp:148] Top shape: 24 192 28 28 (3612672)
I0403 18:11:25.124853 16504 net.cpp:148] Top shape: 24 192 28 28 (3612672)
I0403 18:11:25.124868 16504 net.cpp:148] Top shape: 24 192 28 28 (3612672)
I0403 18:11:25.124886 16504 net.cpp:148] Top shape: 24 192 28 28 (3612672)
I0403 18:11:25.124902 16504 net.cpp:156] Memory required for data: 491324448
I0403 18:11:25.124917 16504 layer_factory.hpp:77] Creating layer inception_3a/1x1
I0403 18:11:25.124944 16504 net.cpp:91] Creating Layer inception_3a/1x1
I0403 18:11:25.124969 16504 net.cpp:425] inception_3a/1x1 <- pool2/3x3_s2_pool2/3x3_s2_0_split_0
I0403 18:11:25.124990 16504 net.cpp:399] inception_3a/1x1 -> inception_3a/1x1
I0403 18:11:25.126575 16504 net.cpp:141] Setting up inception_3a/1x1
I0403 18:11:25.126605 16504 net.cpp:148] Top shape: 24 64 28 28 (1204224)
I0403 18:11:25.126622 16504 net.cpp:156] Memory required for data: 496141344
I0403 18:11:25.126641 16504 layer_factory.hpp:77] Creating layer inception_3a/relu_1x1
I0403 18:11:25.126658 16504 net.cpp:91] Creating Layer inception_3a/relu_1x1
I0403 18:11:25.126674 16504 net.cpp:425] inception_3a/relu_1x1 <- inception_3a/1x1
I0403 18:11:25.126694 16504 net.cpp:386] inception_3a/relu_1x1 -> inception_3a/1x1 (in-place)
I0403 18:11:25.126871 16504 net.cpp:141] Setting up inception_3a/relu_1x1
I0403 18:11:25.126896 16504 net.cpp:148] Top shape: 24 64 28 28 (1204224)
I0403 18:11:25.126911 16504 net.cpp:156] Memory required for data: 500958240
I0403 18:11:25.126927 16504 layer_factory.hpp:77] Creating layer inception_3a/3x3_reduce
I0403 18:11:25.126955 16504 net.cpp:91] Creating Layer inception_3a/3x3_reduce
I0403 18:11:25.126972 16504 net.cpp:425] inception_3a/3x3_reduce <- pool2/3x3_s2_pool2/3x3_s2_0_split_1
I0403 18:11:25.126994 16504 net.cpp:399] inception_3a/3x3_reduce -> inception_3a/3x3_reduce
I0403 18:11:25.128742 16504 net.cpp:141] Setting up inception_3a/3x3_reduce
I0403 18:11:25.128773 16504 net.cpp:148] Top shape: 24 96 28 28 (1806336)
I0403 18:11:25.128789 16504 net.cpp:156] Memory required for data: 508183584
I0403 18:11:25.128811 16504 layer_factory.hpp:77] Creating layer inception_3a/relu_3x3_reduce
I0403 18:11:25.128850 16504 net.cpp:91] Creating Layer inception_3a/relu_3x3_reduce
I0403 18:11:25.128870 16504 net.cpp:425] inception_3a/relu_3x3_reduce <- inception_3a/3x3_reduce
I0403 18:11:25.128887 16504 net.cpp:386] inception_3a/relu_3x3_reduce -> inception_3a/3x3_reduce (in-place)
I0403 18:11:25.129082 16504 net.cpp:141] Setting up inception_3a/relu_3x3_reduce
I0403 18:11:25.129111 16504 net.cpp:148] Top shape: 24 96 28 28 (1806336)
I0403 18:11:25.129127 16504 net.cpp:156] Memory required for data: 515408928
I0403 18:11:25.129142 16504 layer_factory.hpp:77] Creating layer inception_3a/3x3
I0403 18:11:25.129178 16504 net.cpp:91] Creating Layer inception_3a/3x3
I0403 18:11:25.129195 16504 net.cpp:425] inception_3a/3x3 <- inception_3a/3x3_reduce
I0403 18:11:25.129230 16504 net.cpp:399] inception_3a/3x3 -> inception_3a/3x3
I0403 18:11:25.132024 16504 net.cpp:141] Setting up inception_3a/3x3
I0403 18:11:25.132052 16504 net.cpp:148] Top shape: 24 128 28 28 (2408448)
I0403 18:11:25.132068 16504 net.cpp:156] Memory required for data: 525042720
I0403 18:11:25.132087 16504 layer_factory.hpp:77] Creating layer inception_3a/relu_3x3
I0403 18:11:25.132108 16504 net.cpp:91] Creating Layer inception_3a/relu_3x3
I0403 18:11:25.132125 16504 net.cpp:425] inception_3a/relu_3x3 <- inception_3a/3x3
I0403 18:11:25.132143 16504 net.cpp:386] inception_3a/relu_3x3 -> inception_3a/3x3 (in-place)
I0403 18:11:25.132417 16504 net.cpp:141] Setting up inception_3a/relu_3x3
I0403 18:11:25.132444 16504 net.cpp:148] Top shape: 24 128 28 28 (2408448)
I0403 18:11:25.132459 16504 net.cpp:156] Memory required for data: 534676512
I0403 18:11:25.132474 16504 layer_factory.hpp:77] Creating layer inception_3a/5x5_reduce
I0403 18:11:25.132498 16504 net.cpp:91] Creating Layer inception_3a/5x5_reduce
I0403 18:11:25.132515 16504 net.cpp:425] inception_3a/5x5_reduce <- pool2/3x3_s2_pool2/3x3_s2_0_split_2
I0403 18:11:25.132537 16504 net.cpp:399] inception_3a/5x5_reduce -> inception_3a/5x5_reduce
I0403 18:11:25.133507 16504 net.cpp:141] Setting up inception_3a/5x5_reduce
I0403 18:11:25.133534 16504 net.cpp:148] Top shape: 24 16 28 28 (301056)
I0403 18:11:25.133550 16504 net.cpp:156] Memory required for data: 535880736
I0403 18:11:25.133569 16504 layer_factory.hpp:77] Creating layer inception_3a/relu_5x5_reduce
I0403 18:11:25.133589 16504 net.cpp:91] Creating Layer inception_3a/relu_5x5_reduce
I0403 18:11:25.133606 16504 net.cpp:425] inception_3a/relu_5x5_reduce <- inception_3a/5x5_reduce
I0403 18:11:25.133625 16504 net.cpp:386] inception_3a/relu_5x5_reduce -> inception_3a/5x5_reduce (in-place)
I0403 18:11:25.133924 16504 net.cpp:141] Setting up inception_3a/relu_5x5_reduce
I0403 18:11:25.133955 16504 net.cpp:148] Top shape: 24 16 28 28 (301056)
I0403 18:11:25.133971 16504 net.cpp:156] Memory required for data: 537084960
I0403 18:11:25.133986 16504 layer_factory.hpp:77] Creating layer inception_3a/5x5
I0403 18:11:25.134011 16504 net.cpp:91] Creating Layer inception_3a/5x5
I0403 18:11:25.134028 16504 net.cpp:425] inception_3a/5x5 <- inception_3a/5x5_reduce
I0403 18:11:25.134047 16504 net.cpp:399] inception_3a/5x5 -> inception_3a/5x5
I0403 18:11:25.135077 16504 net.cpp:141] Setting up inception_3a/5x5
I0403 18:11:25.135105 16504 net.cpp:148] Top shape: 24 32 28 28 (602112)
I0403 18:11:25.135120 16504 net.cpp:156] Memory required for data: 539493408
I0403 18:11:25.135139 16504 layer_factory.hpp:77] Creating layer inception_3a/relu_5x5
I0403 18:11:25.135159 16504 net.cpp:91] Creating Layer inception_3a/relu_5x5
I0403 18:11:25.135174 16504 net.cpp:425] inception_3a/relu_5x5 <- inception_3a/5x5
I0403 18:11:25.135195 16504 net.cpp:386] inception_3a/relu_5x5 -> inception_3a/5x5 (in-place)
I0403 18:11:25.135368 16504 net.cpp:141] Setting up inception_3a/relu_5x5
I0403 18:11:25.135393 16504 net.cpp:148] Top shape: 24 32 28 28 (602112)
I0403 18:11:25.135407 16504 net.cpp:156] Memory required for data: 541901856
I0403 18:11:25.135422 16504 layer_factory.hpp:77] Creating layer inception_3a/pool
I0403 18:11:25.135443 16504 net.cpp:91] Creating Layer inception_3a/pool
I0403 18:11:25.135473 16504 net.cpp:425] inception_3a/pool <- pool2/3x3_s2_pool2/3x3_s2_0_split_3
I0403 18:11:25.135493 16504 net.cpp:399] inception_3a/pool -> inception_3a/pool
I0403 18:11:25.135552 16504 net.cpp:141] Setting up inception_3a/pool
I0403 18:11:25.135576 16504 net.cpp:148] Top shape: 24 192 28 28 (3612672)
I0403 18:11:25.135591 16504 net.cpp:156] Memory required for data: 556352544
I0403 18:11:25.135606 16504 layer_factory.hpp:77] Creating layer inception_3a/pool_proj
I0403 18:11:25.135629 16504 net.cpp:91] Creating Layer inception_3a/pool_proj
I0403 18:11:25.135648 16504 net.cpp:425] inception_3a/pool_proj <- inception_3a/pool
I0403 18:11:25.135670 16504 net.cpp:399] inception_3a/pool_proj -> inception_3a/pool_proj
I0403 18:11:25.136653 16504 net.cpp:141] Setting up inception_3a/pool_proj
I0403 18:11:25.136683 16504 net.cpp:148] Top shape: 24 32 28 28 (602112)
I0403 18:11:25.136699 16504 net.cpp:156] Memory required for data: 558760992
I0403 18:11:25.136721 16504 layer_factory.hpp:77] Creating layer inception_3a/relu_pool_proj
I0403 18:11:25.136742 16504 net.cpp:91] Creating Layer inception_3a/relu_pool_proj
I0403 18:11:25.136759 16504 net.cpp:425] inception_3a/relu_pool_proj <- inception_3a/pool_proj
I0403 18:11:25.136776 16504 net.cpp:386] inception_3a/relu_pool_proj -> inception_3a/pool_proj (in-place)
I0403 18:11:25.137059 16504 net.cpp:141] Setting up inception_3a/relu_pool_proj
I0403 18:11:25.137085 16504 net.cpp:148] Top shape: 24 32 28 28 (602112)
I0403 18:11:25.137100 16504 net.cpp:156] Memory required for data: 561169440
I0403 18:11:25.137115 16504 layer_factory.hpp:77] Creating layer inception_3a/output
I0403 18:11:25.137133 16504 net.cpp:91] Creating Layer inception_3a/output
I0403 18:11:25.137150 16504 net.cpp:425] inception_3a/output <- inception_3a/1x1
I0403 18:11:25.137166 16504 net.cpp:425] inception_3a/output <- inception_3a/3x3
I0403 18:11:25.137182 16504 net.cpp:425] inception_3a/output <- inception_3a/5x5
I0403 18:11:25.137198 16504 net.cpp:425] inception_3a/output <- inception_3a/pool_proj
I0403 18:11:25.137217 16504 net.cpp:399] inception_3a/output -> inception_3a/output
I0403 18:11:25.137267 16504 net.cpp:141] Setting up inception_3a/output
I0403 18:11:25.137291 16504 net.cpp:148] Top shape: 24 256 28 28 (4816896)
I0403 18:11:25.137305 16504 net.cpp:156] Memory required for data: 580437024
I0403 18:11:25.137320 16504 layer_factory.hpp:77] Creating layer inception_3a/output_inception_3a/output_0_split
I0403 18:11:25.137338 16504 net.cpp:91] Creating Layer inception_3a/output_inception_3a/output_0_split
I0403 18:11:25.137353 16504 net.cpp:425] inception_3a/output_inception_3a/output_0_split <- inception_3a/output
I0403 18:11:25.137372 16504 net.cpp:399] inception_3a/output_inception_3a/output_0_split -> inception_3a/output_inception_3a/output_0_split_0
I0403 18:11:25.137393 16504 net.cpp:399] inception_3a/output_inception_3a/output_0_split -> inception_3a/output_inception_3a/output_0_split_1
I0403 18:11:25.137415 16504 net.cpp:399] inception_3a/output_inception_3a/output_0_split -> inception_3a/output_inception_3a/output_0_split_2
I0403 18:11:25.137436 16504 net.cpp:399] inception_3a/output_inception_3a/output_0_split -> inception_3a/output_inception_3a/output_0_split_3
I0403 18:11:25.137516 16504 net.cpp:141] Setting up inception_3a/output_inception_3a/output_0_split
I0403 18:11:25.137539 16504 net.cpp:148] Top shape: 24 256 28 28 (4816896)
I0403 18:11:25.137555 16504 net.cpp:148] Top shape: 24 256 28 28 (4816896)
I0403 18:11:25.137572 16504 net.cpp:148] Top shape: 24 256 28 28 (4816896)
I0403 18:11:25.137586 16504 net.cpp:148] Top shape: 24 256 28 28 (4816896)
I0403 18:11:25.137600 16504 net.cpp:156] Memory required for data: 657507360
I0403 18:11:25.137614 16504 layer_factory.hpp:77] Creating layer inception_3b/1x1
I0403 18:11:25.137637 16504 net.cpp:91] Creating Layer inception_3b/1x1
I0403 18:11:25.137655 16504 net.cpp:425] inception_3b/1x1 <- inception_3a/output_inception_3a/output_0_split_0
I0403 18:11:25.137676 16504 net.cpp:399] inception_3b/1x1 -> inception_3b/1x1
I0403 18:11:25.138850 16504 net.cpp:141] Setting up inception_3b/1x1
I0403 18:11:25.138890 16504 net.cpp:148] Top shape: 24 128 28 28 (2408448)
I0403 18:11:25.138906 16504 net.cpp:156] Memory required for data: 667141152
I0403 18:11:25.138926 16504 layer_factory.hpp:77] Creating layer inception_3b/relu_1x1
I0403 18:11:25.138942 16504 net.cpp:91] Creating Layer inception_3b/relu_1x1
I0403 18:11:25.138963 16504 net.cpp:425] inception_3b/relu_1x1 <- inception_3b/1x1
I0403 18:11:25.138983 16504 net.cpp:386] inception_3b/relu_1x1 -> inception_3b/1x1 (in-place)
I0403 18:11:25.139158 16504 net.cpp:141] Setting up inception_3b/relu_1x1
I0403 18:11:25.139183 16504 net.cpp:148] Top shape: 24 128 28 28 (2408448)
I0403 18:11:25.139200 16504 net.cpp:156] Memory required for data: 676774944
I0403 18:11:25.139214 16504 layer_factory.hpp:77] Creating layer inception_3b/3x3_reduce
I0403 18:11:25.139235 16504 net.cpp:91] Creating Layer inception_3b/3x3_reduce
I0403 18:11:25.139253 16504 net.cpp:425] inception_3b/3x3_reduce <- inception_3a/output_inception_3a/output_0_split_1
I0403 18:11:25.139274 16504 net.cpp:399] inception_3b/3x3_reduce -> inception_3b/3x3_reduce
I0403 18:11:25.140399 16504 net.cpp:141] Setting up inception_3b/3x3_reduce
I0403 18:11:25.140426 16504 net.cpp:148] Top shape: 24 128 28 28 (2408448)
I0403 18:11:25.140441 16504 net.cpp:156] Memory required for data: 686408736
I0403 18:11:25.140460 16504 layer_factory.hpp:77] Creating layer inception_3b/relu_3x3_reduce
I0403 18:11:25.140477 16504 net.cpp:91] Creating Layer inception_3b/relu_3x3_reduce
I0403 18:11:25.140493 16504 net.cpp:425] inception_3b/relu_3x3_reduce <- inception_3b/3x3_reduce
I0403 18:11:25.140512 16504 net.cpp:386] inception_3b/relu_3x3_reduce -> inception_3b/3x3_reduce (in-place)
I0403 18:11:25.140681 16504 net.cpp:141] Setting up inception_3b/relu_3x3_reduce
I0403 18:11:25.140707 16504 net.cpp:148] Top shape: 24 128 28 28 (2408448)
I0403 18:11:25.140722 16504 net.cpp:156] Memory required for data: 696042528
I0403 18:11:25.140735 16504 layer_factory.hpp:77] Creating layer inception_3b/3x3
I0403 18:11:25.140761 16504 net.cpp:91] Creating Layer inception_3b/3x3
I0403 18:11:25.140779 16504 net.cpp:425] inception_3b/3x3 <- inception_3b/3x3_reduce
I0403 18:11:25.140797 16504 net.cpp:399] inception_3b/3x3 -> inception_3b/3x3
I0403 18:11:25.143677 16504 net.cpp:141] Setting up inception_3b/3x3
I0403 18:11:25.143705 16504 net.cpp:148] Top shape: 24 192 28 28 (3612672)
I0403 18:11:25.143721 16504 net.cpp:156] Memory required for data: 710493216
I0403 18:11:25.143739 16504 layer_factory.hpp:77] Creating layer inception_3b/relu_3x3
I0403 18:11:25.143759 16504 net.cpp:91] Creating Layer inception_3b/relu_3x3
I0403 18:11:25.143776 16504 net.cpp:425] inception_3b/relu_3x3 <- inception_3b/3x3
I0403 18:11:25.143793 16504 net.cpp:386] inception_3b/relu_3x3 -> inception_3b/3x3 (in-place)
I0403 18:11:25.144071 16504 net.cpp:141] Setting up inception_3b/relu_3x3
I0403 18:11:25.144098 16504 net.cpp:148] Top shape: 24 192 28 28 (3612672)
I0403 18:11:25.144111 16504 net.cpp:156] Memory required for data: 724943904
I0403 18:11:25.144126 16504 layer_factory.hpp:77] Creating layer inception_3b/5x5_reduce
I0403 18:11:25.144150 16504 net.cpp:91] Creating Layer inception_3b/5x5_reduce
I0403 18:11:25.144167 16504 net.cpp:425] inception_3b/5x5_reduce <- inception_3a/output_inception_3a/output_0_split_2
I0403 18:11:25.144188 16504 net.cpp:399] inception_3b/5x5_reduce -> inception_3b/5x5_reduce
I0403 18:11:25.145164 16504 net.cpp:141] Setting up inception_3b/5x5_reduce
I0403 18:11:25.145191 16504 net.cpp:148] Top shape: 24 32 28 28 (602112)
I0403 18:11:25.145206 16504 net.cpp:156] Memory required for data: 727352352
I0403 18:11:25.145223 16504 layer_factory.hpp:77] Creating layer inception_3b/relu_5x5_reduce
I0403 18:11:25.145244 16504 net.cpp:91] Creating Layer inception_3b/relu_5x5_reduce
I0403 18:11:25.145262 16504 net.cpp:425] inception_3b/relu_5x5_reduce <- inception_3b/5x5_reduce
I0403 18:11:25.145277 16504 net.cpp:386] inception_3b/relu_5x5_reduce -> inception_3b/5x5_reduce (in-place)
I0403 18:11:25.145464 16504 net.cpp:141] Setting up inception_3b/relu_5x5_reduce
I0403 18:11:25.145493 16504 net.cpp:148] Top shape: 24 32 28 28 (602112)
I0403 18:11:25.145508 16504 net.cpp:156] Memory required for data: 729760800
I0403 18:11:25.145521 16504 layer_factory.hpp:77] Creating layer inception_3b/5x5
I0403 18:11:25.145541 16504 net.cpp:91] Creating Layer inception_3b/5x5
I0403 18:11:25.145557 16504 net.cpp:425] inception_3b/5x5 <- inception_3b/5x5_reduce
I0403 18:11:25.145578 16504 net.cpp:399] inception_3b/5x5 -> inception_3b/5x5
I0403 18:11:25.147518 16504 net.cpp:141] Setting up inception_3b/5x5
I0403 18:11:25.147547 16504 net.cpp:148] Top shape: 24 96 28 28 (1806336)
I0403 18:11:25.147562 16504 net.cpp:156] Memory required for data: 736986144
I0403 18:11:25.147579 16504 layer_factory.hpp:77] Creating layer inception_3b/relu_5x5
I0403 18:11:25.147596 16504 net.cpp:91] Creating Layer inception_3b/relu_5x5
I0403 18:11:25.147613 16504 net.cpp:425] inception_3b/relu_5x5 <- inception_3b/5x5
I0403 18:11:25.147631 16504 net.cpp:386] inception_3b/relu_5x5 -> inception_3b/5x5 (in-place)
I0403 18:11:25.147817 16504 net.cpp:141] Setting up inception_3b/relu_5x5
I0403 18:11:25.147841 16504 net.cpp:148] Top shape: 24 96 28 28 (1806336)
I0403 18:11:25.147856 16504 net.cpp:156] Memory required for data: 744211488
I0403 18:11:25.147871 16504 layer_factory.hpp:77] Creating layer inception_3b/pool
I0403 18:11:25.147887 16504 net.cpp:91] Creating Layer inception_3b/pool
I0403 18:11:25.147912 16504 net.cpp:425] inception_3b/pool <- inception_3a/output_inception_3a/output_0_split_3
I0403 18:11:25.147932 16504 net.cpp:399] inception_3b/pool -> inception_3b/pool
I0403 18:11:25.148000 16504 net.cpp:141] Setting up inception_3b/pool
I0403 18:11:25.148023 16504 net.cpp:148] Top shape: 24 256 28 28 (4816896)
I0403 18:11:25.148037 16504 net.cpp:156] Memory required for data: 763479072
I0403 18:11:25.148051 16504 layer_factory.hpp:77] Creating layer inception_3b/pool_proj
I0403 18:11:25.148073 16504 net.cpp:91] Creating Layer inception_3b/pool_proj
I0403 18:11:25.148090 16504 net.cpp:425] inception_3b/pool_proj <- inception_3b/pool
I0403 18:11:25.148110 16504 net.cpp:399] inception_3b/pool_proj -> inception_3b/pool_proj
I0403 18:11:25.149142 16504 net.cpp:141] Setting up inception_3b/pool_proj
I0403 18:11:25.149171 16504 net.cpp:148] Top shape: 24 64 28 28 (1204224)
I0403 18:11:25.149188 16504 net.cpp:156] Memory required for data: 768295968
I0403 18:11:25.149205 16504 layer_factory.hpp:77] Creating layer inception_3b/relu_pool_proj
I0403 18:11:25.149222 16504 net.cpp:91] Creating Layer inception_3b/relu_pool_proj
I0403 18:11:25.149238 16504 net.cpp:425] inception_3b/relu_pool_proj <- inception_3b/pool_proj
I0403 18:11:25.149255 16504 net.cpp:386] inception_3b/relu_pool_proj -> inception_3b/pool_proj (in-place)
I0403 18:11:25.149643 16504 net.cpp:141] Setting up inception_3b/relu_pool_proj
I0403 18:11:25.149669 16504 net.cpp:148] Top shape: 24 64 28 28 (1204224)
I0403 18:11:25.149684 16504 net.cpp:156] Memory required for data: 773112864
I0403 18:11:25.149698 16504 layer_factory.hpp:77] Creating layer inception_3b/output
I0403 18:11:25.149718 16504 net.cpp:91] Creating Layer inception_3b/output
I0403 18:11:25.149734 16504 net.cpp:425] inception_3b/output <- inception_3b/1x1
I0403 18:11:25.149749 16504 net.cpp:425] inception_3b/output <- inception_3b/3x3
I0403 18:11:25.149765 16504 net.cpp:425] inception_3b/output <- inception_3b/5x5
I0403 18:11:25.149780 16504 net.cpp:425] inception_3b/output <- inception_3b/pool_proj
I0403 18:11:25.149796 16504 net.cpp:399] inception_3b/output -> inception_3b/output
I0403 18:11:25.149840 16504 net.cpp:141] Setting up inception_3b/output
I0403 18:11:25.149863 16504 net.cpp:148] Top shape: 24 480 28 28 (9031680)
I0403 18:11:25.149878 16504 net.cpp:156] Memory required for data: 809239584
I0403 18:11:25.149891 16504 layer_factory.hpp:77] Creating layer pool3/3x3_s2
I0403 18:11:25.149909 16504 net.cpp:91] Creating Layer pool3/3x3_s2
I0403 18:11:25.149926 16504 net.cpp:425] pool3/3x3_s2 <- inception_3b/output
I0403 18:11:25.149965 16504 net.cpp:399] pool3/3x3_s2 -> pool3/3x3_s2
I0403 18:11:25.150023 16504 net.cpp:141] Setting up pool3/3x3_s2
I0403 18:11:25.150046 16504 net.cpp:148] Top shape: 24 480 14 14 (2257920)
I0403 18:11:25.150060 16504 net.cpp:156] Memory required for data: 818271264
I0403 18:11:25.150075 16504 layer_factory.hpp:77] Creating layer pool3/3x3_s2_pool3/3x3_s2_0_split
I0403 18:11:25.150094 16504 net.cpp:91] Creating Layer pool3/3x3_s2_pool3/3x3_s2_0_split
I0403 18:11:25.150110 16504 net.cpp:425] pool3/3x3_s2_pool3/3x3_s2_0_split <- pool3/3x3_s2
I0403 18:11:25.150128 16504 net.cpp:399] pool3/3x3_s2_pool3/3x3_s2_0_split -> pool3/3x3_s2_pool3/3x3_s2_0_split_0
I0403 18:11:25.150148 16504 net.cpp:399] pool3/3x3_s2_pool3/3x3_s2_0_split -> pool3/3x3_s2_pool3/3x3_s2_0_split_1
I0403 18:11:25.150167 16504 net.cpp:399] pool3/3x3_s2_pool3/3x3_s2_0_split -> pool3/3x3_s2_pool3/3x3_s2_0_split_2
I0403 18:11:25.150195 16504 net.cpp:399] pool3/3x3_s2_pool3/3x3_s2_0_split -> pool3/3x3_s2_pool3/3x3_s2_0_split_3
I0403 18:11:25.150269 16504 net.cpp:141] Setting up pool3/3x3_s2_pool3/3x3_s2_0_split
I0403 18:11:25.150293 16504 net.cpp:148] Top shape: 24 480 14 14 (2257920)
I0403 18:11:25.150310 16504 net.cpp:148] Top shape: 24 480 14 14 (2257920)
I0403 18:11:25.150326 16504 net.cpp:148] Top shape: 24 480 14 14 (2257920)
I0403 18:11:25.150341 16504 net.cpp:148] Top shape: 24 480 14 14 (2257920)
I0403 18:11:25.150354 16504 net.cpp:156] Memory required for data: 854397984
I0403 18:11:25.150368 16504 layer_factory.hpp:77] Creating layer inception_4a/1x1
I0403 18:11:25.150388 16504 net.cpp:91] Creating Layer inception_4a/1x1
I0403 18:11:25.150403 16504 net.cpp:425] inception_4a/1x1 <- pool3/3x3_s2_pool3/3x3_s2_0_split_0
I0403 18:11:25.150424 16504 net.cpp:399] inception_4a/1x1 -> inception_4a/1x1
I0403 18:11:25.151974 16504 net.cpp:141] Setting up inception_4a/1x1
I0403 18:11:25.152004 16504 net.cpp:148] Top shape: 24 192 14 14 (903168)
I0403 18:11:25.152019 16504 net.cpp:156] Memory required for data: 858010656
I0403 18:11:25.152040 16504 layer_factory.hpp:77] Creating layer inception_4a/relu_1x1
I0403 18:11:25.152056 16504 net.cpp:91] Creating Layer inception_4a/relu_1x1
I0403 18:11:25.152072 16504 net.cpp:425] inception_4a/relu_1x1 <- inception_4a/1x1
I0403 18:11:25.152089 16504 net.cpp:386] inception_4a/relu_1x1 -> inception_4a/1x1 (in-place)
I0403 18:11:25.152264 16504 net.cpp:141] Setting up inception_4a/relu_1x1
I0403 18:11:25.152289 16504 net.cpp:148] Top shape: 24 192 14 14 (903168)
I0403 18:11:25.152303 16504 net.cpp:156] Memory required for data: 861623328
I0403 18:11:25.152318 16504 layer_factory.hpp:77] Creating layer inception_4a/3x3_reduce
I0403 18:11:25.152339 16504 net.cpp:91] Creating Layer inception_4a/3x3_reduce
I0403 18:11:25.152356 16504 net.cpp:425] inception_4a/3x3_reduce <- pool3/3x3_s2_pool3/3x3_s2_0_split_1
I0403 18:11:25.152377 16504 net.cpp:399] inception_4a/3x3_reduce -> inception_4a/3x3_reduce
I0403 18:11:25.153669 16504 net.cpp:141] Setting up inception_4a/3x3_reduce
I0403 18:11:25.153699 16504 net.cpp:148] Top shape: 24 96 14 14 (451584)
I0403 18:11:25.153715 16504 net.cpp:156] Memory required for data: 863429664
I0403 18:11:25.153740 16504 layer_factory.hpp:77] Creating layer inception_4a/relu_3x3_reduce
I0403 18:11:25.153760 16504 net.cpp:91] Creating Layer inception_4a/relu_3x3_reduce
I0403 18:11:25.153777 16504 net.cpp:425] inception_4a/relu_3x3_reduce <- inception_4a/3x3_reduce
I0403 18:11:25.153795 16504 net.cpp:386] inception_4a/relu_3x3_reduce -> inception_4a/3x3_reduce (in-place)
I0403 18:11:25.153980 16504 net.cpp:141] Setting up inception_4a/relu_3x3_reduce
I0403 18:11:25.154008 16504 net.cpp:148] Top shape: 24 96 14 14 (451584)
I0403 18:11:25.154023 16504 net.cpp:156] Memory required for data: 865236000
I0403 18:11:25.154039 16504 layer_factory.hpp:77] Creating layer inception_4a/3x3
I0403 18:11:25.154062 16504 net.cpp:91] Creating Layer inception_4a/3x3
I0403 18:11:25.154079 16504 net.cpp:425] inception_4a/3x3 <- inception_4a/3x3_reduce
I0403 18:11:25.154100 16504 net.cpp:399] inception_4a/3x3 -> inception_4a/3x3
I0403 18:11:25.156827 16504 net.cpp:141] Setting up inception_4a/3x3
I0403 18:11:25.156857 16504 net.cpp:148] Top shape: 24 208 14 14 (978432)
I0403 18:11:25.156872 16504 net.cpp:156] Memory required for data: 869149728
I0403 18:11:25.156891 16504 layer_factory.hpp:77] Creating layer inception_4a/relu_3x3
I0403 18:11:25.156909 16504 net.cpp:91] Creating Layer inception_4a/relu_3x3
I0403 18:11:25.156929 16504 net.cpp:425] inception_4a/relu_3x3 <- inception_4a/3x3
I0403 18:11:25.156951 16504 net.cpp:386] inception_4a/relu_3x3 -> inception_4a/3x3 (in-place)
I0403 18:11:25.157241 16504 net.cpp:141] Setting up inception_4a/relu_3x3
I0403 18:11:25.157269 16504 net.cpp:148] Top shape: 24 208 14 14 (978432)
I0403 18:11:25.157282 16504 net.cpp:156] Memory required for data: 873063456
I0403 18:11:25.157297 16504 layer_factory.hpp:77] Creating layer inception_4a/5x5_reduce
I0403 18:11:25.157320 16504 net.cpp:91] Creating Layer inception_4a/5x5_reduce
I0403 18:11:25.157338 16504 net.cpp:425] inception_4a/5x5_reduce <- pool3/3x3_s2_pool3/3x3_s2_0_split_2
I0403 18:11:25.157361 16504 net.cpp:399] inception_4a/5x5_reduce -> inception_4a/5x5_reduce
I0403 18:11:25.158411 16504 net.cpp:141] Setting up inception_4a/5x5_reduce
I0403 18:11:25.158439 16504 net.cpp:148] Top shape: 24 16 14 14 (75264)
I0403 18:11:25.158454 16504 net.cpp:156] Memory required for data: 873364512
I0403 18:11:25.158481 16504 layer_factory.hpp:77] Creating layer inception_4a/relu_5x5_reduce
I0403 18:11:25.158500 16504 net.cpp:91] Creating Layer inception_4a/relu_5x5_reduce
I0403 18:11:25.158516 16504 net.cpp:425] inception_4a/relu_5x5_reduce <- inception_4a/5x5_reduce
I0403 18:11:25.158536 16504 net.cpp:386] inception_4a/relu_5x5_reduce -> inception_4a/5x5_reduce (in-place)
I0403 18:11:25.158715 16504 net.cpp:141] Setting up inception_4a/relu_5x5_reduce
I0403 18:11:25.158740 16504 net.cpp:148] Top shape: 24 16 14 14 (75264)
I0403 18:11:25.158756 16504 net.cpp:156] Memory required for data: 873665568
I0403 18:11:25.158771 16504 layer_factory.hpp:77] Creating layer inception_4a/5x5
I0403 18:11:25.158793 16504 net.cpp:91] Creating Layer inception_4a/5x5
I0403 18:11:25.158812 16504 net.cpp:425] inception_4a/5x5 <- inception_4a/5x5_reduce
I0403 18:11:25.158833 16504 net.cpp:399] inception_4a/5x5 -> inception_4a/5x5
I0403 18:11:25.159927 16504 net.cpp:141] Setting up inception_4a/5x5
I0403 18:11:25.159960 16504 net.cpp:148] Top shape: 24 48 14 14 (225792)
I0403 18:11:25.159976 16504 net.cpp:156] Memory required for data: 874568736
I0403 18:11:25.159994 16504 layer_factory.hpp:77] Creating layer inception_4a/relu_5x5
I0403 18:11:25.160015 16504 net.cpp:91] Creating Layer inception_4a/relu_5x5
I0403 18:11:25.160032 16504 net.cpp:425] inception_4a/relu_5x5 <- inception_4a/5x5
I0403 18:11:25.160050 16504 net.cpp:386] inception_4a/relu_5x5 -> inception_4a/5x5 (in-place)
I0403 18:11:25.160229 16504 net.cpp:141] Setting up inception_4a/relu_5x5
I0403 18:11:25.160254 16504 net.cpp:148] Top shape: 24 48 14 14 (225792)
I0403 18:11:25.160269 16504 net.cpp:156] Memory required for data: 875471904
I0403 18:11:25.160284 16504 layer_factory.hpp:77] Creating layer inception_4a/pool
I0403 18:11:25.160302 16504 net.cpp:91] Creating Layer inception_4a/pool
I0403 18:11:25.160318 16504 net.cpp:425] inception_4a/pool <- pool3/3x3_s2_pool3/3x3_s2_0_split_3
I0403 18:11:25.160338 16504 net.cpp:399] inception_4a/pool -> inception_4a/pool
I0403 18:11:25.160400 16504 net.cpp:141] Setting up inception_4a/pool
I0403 18:11:25.160424 16504 net.cpp:148] Top shape: 24 480 14 14 (2257920)
I0403 18:11:25.160439 16504 net.cpp:156] Memory required for data: 884503584
I0403 18:11:25.160454 16504 layer_factory.hpp:77] Creating layer inception_4a/pool_proj
I0403 18:11:25.160476 16504 net.cpp:91] Creating Layer inception_4a/pool_proj
I0403 18:11:25.160495 16504 net.cpp:425] inception_4a/pool_proj <- inception_4a/pool
I0403 18:11:25.160513 16504 net.cpp:399] inception_4a/pool_proj -> inception_4a/pool_proj
I0403 18:11:25.161685 16504 net.cpp:141] Setting up inception_4a/pool_proj
I0403 18:11:25.161716 16504 net.cpp:148] Top shape: 24 64 14 14 (301056)
I0403 18:11:25.161747 16504 net.cpp:156] Memory required for data: 885707808
I0403 18:11:25.161767 16504 layer_factory.hpp:77] Creating layer inception_4a/relu_pool_proj
I0403 18:11:25.161785 16504 net.cpp:91] Creating Layer inception_4a/relu_pool_proj
I0403 18:11:25.161801 16504 net.cpp:425] inception_4a/relu_pool_proj <- inception_4a/pool_proj
I0403 18:11:25.161823 16504 net.cpp:386] inception_4a/relu_pool_proj -> inception_4a/pool_proj (in-place)
I0403 18:11:25.162111 16504 net.cpp:141] Setting up inception_4a/relu_pool_proj
I0403 18:11:25.162138 16504 net.cpp:148] Top shape: 24 64 14 14 (301056)
I0403 18:11:25.162155 16504 net.cpp:156] Memory required for data: 886912032
I0403 18:11:25.162170 16504 layer_factory.hpp:77] Creating layer inception_4a/output
I0403 18:11:25.162188 16504 net.cpp:91] Creating Layer inception_4a/output
I0403 18:11:25.162204 16504 net.cpp:425] inception_4a/output <- inception_4a/1x1
I0403 18:11:25.162221 16504 net.cpp:425] inception_4a/output <- inception_4a/3x3
I0403 18:11:25.162237 16504 net.cpp:425] inception_4a/output <- inception_4a/5x5
I0403 18:11:25.162253 16504 net.cpp:425] inception_4a/output <- inception_4a/pool_proj
I0403 18:11:25.162269 16504 net.cpp:399] inception_4a/output -> inception_4a/output
I0403 18:11:25.162317 16504 net.cpp:141] Setting up inception_4a/output
I0403 18:11:25.162339 16504 net.cpp:148] Top shape: 24 512 14 14 (2408448)
I0403 18:11:25.162354 16504 net.cpp:156] Memory required for data: 896545824
I0403 18:11:25.162369 16504 layer_factory.hpp:77] Creating layer inception_4a/output_inception_4a/output_0_split
I0403 18:11:25.162387 16504 net.cpp:91] Creating Layer inception_4a/output_inception_4a/output_0_split
I0403 18:11:25.162402 16504 net.cpp:425] inception_4a/output_inception_4a/output_0_split <- inception_4a/output
I0403 18:11:25.162423 16504 net.cpp:399] inception_4a/output_inception_4a/output_0_split -> inception_4a/output_inception_4a/output_0_split_0
I0403 18:11:25.162446 16504 net.cpp:399] inception_4a/output_inception_4a/output_0_split -> inception_4a/output_inception_4a/output_0_split_1
I0403 18:11:25.162467 16504 net.cpp:399] inception_4a/output_inception_4a/output_0_split -> inception_4a/output_inception_4a/output_0_split_2
I0403 18:11:25.162490 16504 net.cpp:399] inception_4a/output_inception_4a/output_0_split -> inception_4a/output_inception_4a/output_0_split_3
I0403 18:11:25.162510 16504 net.cpp:399] inception_4a/output_inception_4a/output_0_split -> inception_4a/output_inception_4a/output_0_split_4
I0403 18:11:25.162603 16504 net.cpp:141] Setting up inception_4a/output_inception_4a/output_0_split
I0403 18:11:25.162627 16504 net.cpp:148] Top shape: 24 512 14 14 (2408448)
I0403 18:11:25.162643 16504 net.cpp:148] Top shape: 24 512 14 14 (2408448)
I0403 18:11:25.162659 16504 net.cpp:148] Top shape: 24 512 14 14 (2408448)
I0403 18:11:25.162675 16504 net.cpp:148] Top shape: 24 512 14 14 (2408448)
I0403 18:11:25.162691 16504 net.cpp:148] Top shape: 24 512 14 14 (2408448)
I0403 18:11:25.162704 16504 net.cpp:156] Memory required for data: 944714784
I0403 18:11:25.162719 16504 layer_factory.hpp:77] Creating layer loss1/ave_pool
I0403 18:11:25.162737 16504 net.cpp:91] Creating Layer loss1/ave_pool
I0403 18:11:25.162755 16504 net.cpp:425] loss1/ave_pool <- inception_4a/output_inception_4a/output_0_split_0
I0403 18:11:25.162775 16504 net.cpp:399] loss1/ave_pool -> loss1/ave_pool
I0403 18:11:25.162987 16504 net.cpp:141] Setting up loss1/ave_pool
I0403 18:11:25.163017 16504 net.cpp:148] Top shape: 24 512 4 4 (196608)
I0403 18:11:25.163033 16504 net.cpp:156] Memory required for data: 945501216
I0403 18:11:25.163048 16504 layer_factory.hpp:77] Creating layer loss1/conv
I0403 18:11:25.163070 16504 net.cpp:91] Creating Layer loss1/conv
I0403 18:11:25.163089 16504 net.cpp:425] loss1/conv <- loss1/ave_pool
I0403 18:11:25.163106 16504 net.cpp:399] loss1/conv -> loss1/conv
I0403 18:11:25.164521 16504 net.cpp:141] Setting up loss1/conv
I0403 18:11:25.164549 16504 net.cpp:148] Top shape: 24 128 4 4 (49152)
I0403 18:11:25.164579 16504 net.cpp:156] Memory required for data: 945697824
I0403 18:11:25.164599 16504 layer_factory.hpp:77] Creating layer loss1/relu_conv
I0403 18:11:25.164618 16504 net.cpp:91] Creating Layer loss1/relu_conv
I0403 18:11:25.164634 16504 net.cpp:425] loss1/relu_conv <- loss1/conv
I0403 18:11:25.164656 16504 net.cpp:386] loss1/relu_conv -> loss1/conv (in-place)
I0403 18:11:25.164942 16504 net.cpp:141] Setting up loss1/relu_conv
I0403 18:11:25.164973 16504 net.cpp:148] Top shape: 24 128 4 4 (49152)
I0403 18:11:25.164988 16504 net.cpp:156] Memory required for data: 945894432
I0403 18:11:25.165002 16504 layer_factory.hpp:77] Creating layer loss1/fc
I0403 18:11:25.165026 16504 net.cpp:91] Creating Layer loss1/fc
I0403 18:11:25.165045 16504 net.cpp:425] loss1/fc <- loss1/conv
I0403 18:11:25.165066 16504 net.cpp:399] loss1/fc -> loss1/fc
I0403 18:11:25.182914 16504 net.cpp:141] Setting up loss1/fc
I0403 18:11:25.182950 16504 net.cpp:148] Top shape: 24 1024 (24576)
I0403 18:11:25.182966 16504 net.cpp:156] Memory required for data: 945992736
I0403 18:11:25.182986 16504 layer_factory.hpp:77] Creating layer loss1/relu_fc
I0403 18:11:25.183002 16504 net.cpp:91] Creating Layer loss1/relu_fc
I0403 18:11:25.183018 16504 net.cpp:425] loss1/relu_fc <- loss1/fc
I0403 18:11:25.183035 16504 net.cpp:386] loss1/relu_fc -> loss1/fc (in-place)
I0403 18:11:25.183221 16504 net.cpp:141] Setting up loss1/relu_fc
I0403 18:11:25.183246 16504 net.cpp:148] Top shape: 24 1024 (24576)
I0403 18:11:25.183261 16504 net.cpp:156] Memory required for data: 946091040
I0403 18:11:25.183275 16504 layer_factory.hpp:77] Creating layer loss1/drop_fc
I0403 18:11:25.183300 16504 net.cpp:91] Creating Layer loss1/drop_fc
I0403 18:11:25.183318 16504 net.cpp:425] loss1/drop_fc <- loss1/fc
I0403 18:11:25.183337 16504 net.cpp:386] loss1/drop_fc -> loss1/fc (in-place)
I0403 18:11:25.183388 16504 net.cpp:141] Setting up loss1/drop_fc
I0403 18:11:25.183410 16504 net.cpp:148] Top shape: 24 1024 (24576)
I0403 18:11:25.183425 16504 net.cpp:156] Memory required for data: 946189344
I0403 18:11:25.183439 16504 layer_factory.hpp:77] Creating layer loss1/classifier_plantvillage
I0403 18:11:25.183461 16504 net.cpp:91] Creating Layer loss1/classifier_plantvillage
I0403 18:11:25.183478 16504 net.cpp:425] loss1/classifier_plantvillage <- loss1/fc
I0403 18:11:25.183497 16504 net.cpp:399] loss1/classifier_plantvillage -> loss1/classifier_plantvillage
I0403 18:11:25.184402 16504 net.cpp:141] Setting up loss1/classifier_plantvillage
I0403 18:11:25.184429 16504 net.cpp:148] Top shape: 24 38 (912)
I0403 18:11:25.184444 16504 net.cpp:156] Memory required for data: 946192992
I0403 18:11:25.184470 16504 layer_factory.hpp:77] Creating layer loss1/classifier_plantvillage_loss1/classifier_plantvillage_0_split
I0403 18:11:25.184489 16504 net.cpp:91] Creating Layer loss1/classifier_plantvillage_loss1/classifier_plantvillage_0_split
I0403 18:11:25.184504 16504 net.cpp:425] loss1/classifier_plantvillage_loss1/classifier_plantvillage_0_split <- loss1/classifier_plantvillage
I0403 18:11:25.184523 16504 net.cpp:399] loss1/classifier_plantvillage_loss1/classifier_plantvillage_0_split -> loss1/classifier_plantvillage_loss1/classifier_plantvillage_0_split_0
I0403 18:11:25.184545 16504 net.cpp:399] loss1/classifier_plantvillage_loss1/classifier_plantvillage_0_split -> loss1/classifier_plantvillage_loss1/classifier_plantvillage_0_split_1
I0403 18:11:25.184564 16504 net.cpp:399] loss1/classifier_plantvillage_loss1/classifier_plantvillage_0_split -> loss1/classifier_plantvillage_loss1/classifier_plantvillage_0_split_2
I0403 18:11:25.184628 16504 net.cpp:141] Setting up loss1/classifier_plantvillage_loss1/classifier_plantvillage_0_split
I0403 18:11:25.184651 16504 net.cpp:148] Top shape: 24 38 (912)
I0403 18:11:25.184667 16504 net.cpp:148] Top shape: 24 38 (912)
I0403 18:11:25.184682 16504 net.cpp:148] Top shape: 24 38 (912)
I0403 18:11:25.184696 16504 net.cpp:156] Memory required for data: 946203936
I0403 18:11:25.184710 16504 layer_factory.hpp:77] Creating layer inception_4b/1x1
I0403 18:11:25.184730 16504 net.cpp:91] Creating Layer inception_4b/1x1
I0403 18:11:25.184763 16504 net.cpp:425] inception_4b/1x1 <- inception_4a/output_inception_4a/output_0_split_1
I0403 18:11:25.184785 16504 net.cpp:399] inception_4b/1x1 -> inception_4b/1x1
I0403 18:11:25.186426 16504 net.cpp:141] Setting up inception_4b/1x1
I0403 18:11:25.186455 16504 net.cpp:148] Top shape: 24 160 14 14 (752640)
I0403 18:11:25.186470 16504 net.cpp:156] Memory required for data: 949214496
I0403 18:11:25.186488 16504 layer_factory.hpp:77] Creating layer inception_4b/relu_1x1
I0403 18:11:25.186506 16504 net.cpp:91] Creating Layer inception_4b/relu_1x1
I0403 18:11:25.186522 16504 net.cpp:425] inception_4b/relu_1x1 <- inception_4b/1x1
I0403 18:11:25.186542 16504 net.cpp:386] inception_4b/relu_1x1 -> inception_4b/1x1 (in-place)
I0403 18:11:25.186717 16504 net.cpp:141] Setting up inception_4b/relu_1x1
I0403 18:11:25.186743 16504 net.cpp:148] Top shape: 24 160 14 14 (752640)
I0403 18:11:25.186756 16504 net.cpp:156] Memory required for data: 952225056
I0403 18:11:25.186771 16504 layer_factory.hpp:77] Creating layer inception_4b/3x3_reduce
I0403 18:11:25.186792 16504 net.cpp:91] Creating Layer inception_4b/3x3_reduce
I0403 18:11:25.186810 16504 net.cpp:425] inception_4b/3x3_reduce <- inception_4a/output_inception_4a/output_0_split_2
I0403 18:11:25.186830 16504 net.cpp:399] inception_4b/3x3_reduce -> inception_4b/3x3_reduce
I0403 18:11:25.188180 16504 net.cpp:141] Setting up inception_4b/3x3_reduce
I0403 18:11:25.188208 16504 net.cpp:148] Top shape: 24 112 14 14 (526848)
I0403 18:11:25.188225 16504 net.cpp:156] Memory required for data: 954332448
I0403 18:11:25.188242 16504 layer_factory.hpp:77] Creating layer inception_4b/relu_3x3_reduce
I0403 18:11:25.188262 16504 net.cpp:91] Creating Layer inception_4b/relu_3x3_reduce
I0403 18:11:25.188279 16504 net.cpp:425] inception_4b/relu_3x3_reduce <- inception_4b/3x3_reduce
I0403 18:11:25.188297 16504 net.cpp:386] inception_4b/relu_3x3_reduce -> inception_4b/3x3_reduce (in-place)
I0403 18:11:25.188587 16504 net.cpp:141] Setting up inception_4b/relu_3x3_reduce
I0403 18:11:25.188613 16504 net.cpp:148] Top shape: 24 112 14 14 (526848)
I0403 18:11:25.188627 16504 net.cpp:156] Memory required for data: 956439840
I0403 18:11:25.188642 16504 layer_factory.hpp:77] Creating layer inception_4b/3x3
I0403 18:11:25.188664 16504 net.cpp:91] Creating Layer inception_4b/3x3
I0403 18:11:25.188681 16504 net.cpp:425] inception_4b/3x3 <- inception_4b/3x3_reduce
I0403 18:11:25.188702 16504 net.cpp:399] inception_4b/3x3 -> inception_4b/3x3
I0403 18:11:25.191654 16504 net.cpp:141] Setting up inception_4b/3x3
I0403 18:11:25.191684 16504 net.cpp:148] Top shape: 24 224 14 14 (1053696)
I0403 18:11:25.191701 16504 net.cpp:156] Memory required for data: 960654624
I0403 18:11:25.191720 16504 layer_factory.hpp:77] Creating layer inception_4b/relu_3x3
I0403 18:11:25.191737 16504 net.cpp:91] Creating Layer inception_4b/relu_3x3
I0403 18:11:25.191753 16504 net.cpp:425] inception_4b/relu_3x3 <- inception_4b/3x3
I0403 18:11:25.191772 16504 net.cpp:386] inception_4b/relu_3x3 -> inception_4b/3x3 (in-place)
I0403 18:11:25.191954 16504 net.cpp:141] Setting up inception_4b/relu_3x3
I0403 18:11:25.191979 16504 net.cpp:148] Top shape: 24 224 14 14 (1053696)
I0403 18:11:25.191994 16504 net.cpp:156] Memory required for data: 964869408
I0403 18:11:25.192008 16504 layer_factory.hpp:77] Creating layer inception_4b/5x5_reduce
I0403 18:11:25.192031 16504 net.cpp:91] Creating Layer inception_4b/5x5_reduce
I0403 18:11:25.192049 16504 net.cpp:425] inception_4b/5x5_reduce <- inception_4a/output_inception_4a/output_0_split_3
I0403 18:11:25.192068 16504 net.cpp:399] inception_4b/5x5_reduce -> inception_4b/5x5_reduce
I0403 18:11:25.193142 16504 net.cpp:141] Setting up inception_4b/5x5_reduce
I0403 18:11:25.193169 16504 net.cpp:148] Top shape: 24 24 14 14 (112896)
I0403 18:11:25.193184 16504 net.cpp:156] Memory required for data: 965320992
I0403 18:11:25.193203 16504 layer_factory.hpp:77] Creating layer inception_4b/relu_5x5_reduce
I0403 18:11:25.193223 16504 net.cpp:91] Creating Layer inception_4b/relu_5x5_reduce
I0403 18:11:25.193254 16504 net.cpp:425] inception_4b/relu_5x5_reduce <- inception_4b/5x5_reduce
I0403 18:11:25.193272 16504 net.cpp:386] inception_4b/relu_5x5_reduce -> inception_4b/5x5_reduce (in-place)
I0403 18:11:25.193452 16504 net.cpp:141] Setting up inception_4b/relu_5x5_reduce
I0403 18:11:25.193477 16504 net.cpp:148] Top shape: 24 24 14 14 (112896)
I0403 18:11:25.193491 16504 net.cpp:156] Memory required for data: 965772576
I0403 18:11:25.193506 16504 layer_factory.hpp:77] Creating layer inception_4b/5x5
I0403 18:11:25.193528 16504 net.cpp:91] Creating Layer inception_4b/5x5
I0403 18:11:25.193545 16504 net.cpp:425] inception_4b/5x5 <- inception_4b/5x5_reduce
I0403 18:11:25.193563 16504 net.cpp:399] inception_4b/5x5 -> inception_4b/5x5
I0403 18:11:25.194772 16504 net.cpp:141] Setting up inception_4b/5x5
I0403 18:11:25.194800 16504 net.cpp:148] Top shape: 24 64 14 14 (301056)
I0403 18:11:25.194815 16504 net.cpp:156] Memory required for data: 966976800
I0403 18:11:25.194834 16504 layer_factory.hpp:77] Creating layer inception_4b/relu_5x5
I0403 18:11:25.194851 16504 net.cpp:91] Creating Layer inception_4b/relu_5x5
I0403 18:11:25.194866 16504 net.cpp:425] inception_4b/relu_5x5 <- inception_4b/5x5
I0403 18:11:25.194885 16504 net.cpp:386] inception_4b/relu_5x5 -> inception_4b/5x5 (in-place)
I0403 18:11:25.195170 16504 net.cpp:141] Setting up inception_4b/relu_5x5
I0403 18:11:25.195196 16504 net.cpp:148] Top shape: 24 64 14 14 (301056)
I0403 18:11:25.195211 16504 net.cpp:156] Memory required for data: 968181024
I0403 18:11:25.195226 16504 layer_factory.hpp:77] Creating layer inception_4b/pool
I0403 18:11:25.195243 16504 net.cpp:91] Creating Layer inception_4b/pool
I0403 18:11:25.195261 16504 net.cpp:425] inception_4b/pool <- inception_4a/output_inception_4a/output_0_split_4
I0403 18:11:25.195282 16504 net.cpp:399] inception_4b/pool -> inception_4b/pool
I0403 18:11:25.195346 16504 net.cpp:141] Setting up inception_4b/pool
I0403 18:11:25.195369 16504 net.cpp:148] Top shape: 24 512 14 14 (2408448)
I0403 18:11:25.195384 16504 net.cpp:156] Memory required for data: 977814816
I0403 18:11:25.195399 16504 layer_factory.hpp:77] Creating layer inception_4b/pool_proj
I0403 18:11:25.195421 16504 net.cpp:91] Creating Layer inception_4b/pool_proj
I0403 18:11:25.195438 16504 net.cpp:425] inception_4b/pool_proj <- inception_4b/pool
I0403 18:11:25.195456 16504 net.cpp:399] inception_4b/pool_proj -> inception_4b/pool_proj
I0403 18:11:25.196640 16504 net.cpp:141] Setting up inception_4b/pool_proj
I0403 18:11:25.196666 16504 net.cpp:148] Top shape: 24 64 14 14 (301056)
I0403 18:11:25.196681 16504 net.cpp:156] Memory required for data: 979019040
I0403 18:11:25.196699 16504 layer_factory.hpp:77] Creating layer inception_4b/relu_pool_proj
I0403 18:11:25.196719 16504 net.cpp:91] Creating Layer inception_4b/relu_pool_proj
I0403 18:11:25.196737 16504 net.cpp:425] inception_4b/relu_pool_proj <- inception_4b/pool_proj
I0403 18:11:25.196753 16504 net.cpp:386] inception_4b/relu_pool_proj -> inception_4b/pool_proj (in-place)
I0403 18:11:25.196929 16504 net.cpp:141] Setting up inception_4b/relu_pool_proj
I0403 18:11:25.196960 16504 net.cpp:148] Top shape: 24 64 14 14 (301056)
I0403 18:11:25.196976 16504 net.cpp:156] Memory required for data: 980223264
I0403 18:11:25.196991 16504 layer_factory.hpp:77] Creating layer inception_4b/output
I0403 18:11:25.197008 16504 net.cpp:91] Creating Layer inception_4b/output
I0403 18:11:25.197023 16504 net.cpp:425] inception_4b/output <- inception_4b/1x1
I0403 18:11:25.197039 16504 net.cpp:425] inception_4b/output <- inception_4b/3x3
I0403 18:11:25.197055 16504 net.cpp:425] inception_4b/output <- inception_4b/5x5
I0403 18:11:25.197070 16504 net.cpp:425] inception_4b/output <- inception_4b/pool_proj
I0403 18:11:25.197087 16504 net.cpp:399] inception_4b/output -> inception_4b/output
I0403 18:11:25.197134 16504 net.cpp:141] Setting up inception_4b/output
I0403 18:11:25.197156 16504 net.cpp:148] Top shape: 24 512 14 14 (2408448)
I0403 18:11:25.197170 16504 net.cpp:156] Memory required for data: 989857056
I0403 18:11:25.197206 16504 layer_factory.hpp:77] Creating layer inception_4b/output_inception_4b/output_0_split
I0403 18:11:25.197224 16504 net.cpp:91] Creating Layer inception_4b/output_inception_4b/output_0_split
I0403 18:11:25.197242 16504 net.cpp:425] inception_4b/output_inception_4b/output_0_split <- inception_4b/output
I0403 18:11:25.197259 16504 net.cpp:399] inception_4b/output_inception_4b/output_0_split -> inception_4b/output_inception_4b/output_0_split_0
I0403 18:11:25.197278 16504 net.cpp:399] inception_4b/output_inception_4b/output_0_split -> inception_4b/output_inception_4b/output_0_split_1
I0403 18:11:25.197299 16504 net.cpp:399] inception_4b/output_inception_4b/output_0_split -> inception_4b/output_inception_4b/output_0_split_2
I0403 18:11:25.197317 16504 net.cpp:399] inception_4b/output_inception_4b/output_0_split -> inception_4b/output_inception_4b/output_0_split_3
I0403 18:11:25.197401 16504 net.cpp:141] Setting up inception_4b/output_inception_4b/output_0_split
I0403 18:11:25.197422 16504 net.cpp:148] Top shape: 24 512 14 14 (2408448)
I0403 18:11:25.197438 16504 net.cpp:148] Top shape: 24 512 14 14 (2408448)
I0403 18:11:25.197453 16504 net.cpp:148] Top shape: 24 512 14 14 (2408448)
I0403 18:11:25.197468 16504 net.cpp:148] Top shape: 24 512 14 14 (2408448)
I0403 18:11:25.197481 16504 net.cpp:156] Memory required for data: 1028392224
I0403 18:11:25.197495 16504 layer_factory.hpp:77] Creating layer inception_4c/1x1
I0403 18:11:25.197517 16504 net.cpp:91] Creating Layer inception_4c/1x1
I0403 18:11:25.197533 16504 net.cpp:425] inception_4c/1x1 <- inception_4b/output_inception_4b/output_0_split_0
I0403 18:11:25.197554 16504 net.cpp:399] inception_4c/1x1 -> inception_4c/1x1
I0403 18:11:25.198979 16504 net.cpp:141] Setting up inception_4c/1x1
I0403 18:11:25.199010 16504 net.cpp:148] Top shape: 24 128 14 14 (602112)
I0403 18:11:25.199028 16504 net.cpp:156] Memory required for data: 1030800672
I0403 18:11:25.199045 16504 layer_factory.hpp:77] Creating layer inception_4c/relu_1x1
I0403 18:11:25.199064 16504 net.cpp:91] Creating Layer inception_4c/relu_1x1
I0403 18:11:25.199079 16504 net.cpp:425] inception_4c/relu_1x1 <- inception_4c/1x1
I0403 18:11:25.199095 16504 net.cpp:386] inception_4c/relu_1x1 -> inception_4c/1x1 (in-place)
I0403 18:11:25.199276 16504 net.cpp:141] Setting up inception_4c/relu_1x1
I0403 18:11:25.199301 16504 net.cpp:148] Top shape: 24 128 14 14 (602112)
I0403 18:11:25.199316 16504 net.cpp:156] Memory required for data: 1033209120
I0403 18:11:25.199329 16504 layer_factory.hpp:77] Creating layer inception_4c/3x3_reduce
I0403 18:11:25.199352 16504 net.cpp:91] Creating Layer inception_4c/3x3_reduce
I0403 18:11:25.199368 16504 net.cpp:425] inception_4c/3x3_reduce <- inception_4b/output_inception_4b/output_0_split_1
I0403 18:11:25.199390 16504 net.cpp:399] inception_4c/3x3_reduce -> inception_4c/3x3_reduce
I0403 18:11:25.201318 16504 net.cpp:141] Setting up inception_4c/3x3_reduce
I0403 18:11:25.201346 16504 net.cpp:148] Top shape: 24 128 14 14 (602112)
I0403 18:11:25.201361 16504 net.cpp:156] Memory required for data: 1035617568
I0403 18:11:25.201380 16504 layer_factory.hpp:77] Creating layer inception_4c/relu_3x3_reduce
I0403 18:11:25.201400 16504 net.cpp:91] Creating Layer inception_4c/relu_3x3_reduce
I0403 18:11:25.201417 16504 net.cpp:425] inception_4c/relu_3x3_reduce <- inception_4c/3x3_reduce
I0403 18:11:25.201436 16504 net.cpp:386] inception_4c/relu_3x3_reduce -> inception_4c/3x3_reduce (in-place)
I0403 18:11:25.201722 16504 net.cpp:141] Setting up inception_4c/relu_3x3_reduce
I0403 18:11:25.201747 16504 net.cpp:148] Top shape: 24 128 14 14 (602112)
I0403 18:11:25.201762 16504 net.cpp:156] Memory required for data: 1038026016
I0403 18:11:25.201776 16504 layer_factory.hpp:77] Creating layer inception_4c/3x3
I0403 18:11:25.201798 16504 net.cpp:91] Creating Layer inception_4c/3x3
I0403 18:11:25.201817 16504 net.cpp:425] inception_4c/3x3 <- inception_4c/3x3_reduce
I0403 18:11:25.201838 16504 net.cpp:399] inception_4c/3x3 -> inception_4c/3x3
I0403 18:11:25.205484 16504 net.cpp:141] Setting up inception_4c/3x3
I0403 18:11:25.205525 16504 net.cpp:148] Top shape: 24 256 14 14 (1204224)
I0403 18:11:25.205541 16504 net.cpp:156] Memory required for data: 1042842912
I0403 18:11:25.205574 16504 layer_factory.hpp:77] Creating layer inception_4c/relu_3x3
I0403 18:11:25.205595 16504 net.cpp:91] Creating Layer inception_4c/relu_3x3
I0403 18:11:25.205612 16504 net.cpp:425] inception_4c/relu_3x3 <- inception_4c/3x3
I0403 18:11:25.205629 16504 net.cpp:386] inception_4c/relu_3x3 -> inception_4c/3x3 (in-place)
I0403 18:11:25.205806 16504 net.cpp:141] Setting up inception_4c/relu_3x3
I0403 18:11:25.205832 16504 net.cpp:148] Top shape: 24 256 14 14 (1204224)
I0403 18:11:25.205845 16504 net.cpp:156] Memory required for data: 1047659808
I0403 18:11:25.205859 16504 layer_factory.hpp:77] Creating layer inception_4c/5x5_reduce
I0403 18:11:25.205881 16504 net.cpp:91] Creating Layer inception_4c/5x5_reduce
I0403 18:11:25.205899 16504 net.cpp:425] inception_4c/5x5_reduce <- inception_4b/output_inception_4b/output_0_split_2
I0403 18:11:25.205919 16504 net.cpp:399] inception_4c/5x5_reduce -> inception_4c/5x5_reduce
I0403 18:11:25.207000 16504 net.cpp:141] Setting up inception_4c/5x5_reduce
I0403 18:11:25.207027 16504 net.cpp:148] Top shape: 24 24 14 14 (112896)
I0403 18:11:25.207042 16504 net.cpp:156] Memory required for data: 1048111392
I0403 18:11:25.207061 16504 layer_factory.hpp:77] Creating layer inception_4c/relu_5x5_reduce
I0403 18:11:25.207080 16504 net.cpp:91] Creating Layer inception_4c/relu_5x5_reduce
I0403 18:11:25.207096 16504 net.cpp:425] inception_4c/relu_5x5_reduce <- inception_4c/5x5_reduce
I0403 18:11:25.207113 16504 net.cpp:386] inception_4c/relu_5x5_reduce -> inception_4c/5x5_reduce (in-place)
I0403 18:11:25.207298 16504 net.cpp:141] Setting up inception_4c/relu_5x5_reduce
I0403 18:11:25.207321 16504 net.cpp:148] Top shape: 24 24 14 14 (112896)
I0403 18:11:25.207335 16504 net.cpp:156] Memory required for data: 1048562976
I0403 18:11:25.207350 16504 layer_factory.hpp:77] Creating layer inception_4c/5x5
I0403 18:11:25.207373 16504 net.cpp:91] Creating Layer inception_4c/5x5
I0403 18:11:25.207391 16504 net.cpp:425] inception_4c/5x5 <- inception_4c/5x5_reduce
I0403 18:11:25.207409 16504 net.cpp:399] inception_4c/5x5 -> inception_4c/5x5
I0403 18:11:25.208644 16504 net.cpp:141] Setting up inception_4c/5x5
I0403 18:11:25.208674 16504 net.cpp:148] Top shape: 24 64 14 14 (301056)
I0403 18:11:25.208690 16504 net.cpp:156] Memory required for data: 1049767200
I0403 18:11:25.208709 16504 layer_factory.hpp:77] Creating layer inception_4c/relu_5x5
I0403 18:11:25.208726 16504 net.cpp:91] Creating Layer inception_4c/relu_5x5
I0403 18:11:25.208742 16504 net.cpp:425] inception_4c/relu_5x5 <- inception_4c/5x5
I0403 18:11:25.208760 16504 net.cpp:386] inception_4c/relu_5x5 -> inception_4c/5x5 (in-place)
I0403 18:11:25.209056 16504 net.cpp:141] Setting up inception_4c/relu_5x5
I0403 18:11:25.209085 16504 net.cpp:148] Top shape: 24 64 14 14 (301056)
I0403 18:11:25.209100 16504 net.cpp:156] Memory required for data: 1050971424
I0403 18:11:25.209115 16504 layer_factory.hpp:77] Creating layer inception_4c/pool
I0403 18:11:25.209132 16504 net.cpp:91] Creating Layer inception_4c/pool
I0403 18:11:25.209149 16504 net.cpp:425] inception_4c/pool <- inception_4b/output_inception_4b/output_0_split_3
I0403 18:11:25.209167 16504 net.cpp:399] inception_4c/pool -> inception_4c/pool
I0403 18:11:25.209233 16504 net.cpp:141] Setting up inception_4c/pool
I0403 18:11:25.209256 16504 net.cpp:148] Top shape: 24 512 14 14 (2408448)
I0403 18:11:25.209270 16504 net.cpp:156] Memory required for data: 1060605216
I0403 18:11:25.209285 16504 layer_factory.hpp:77] Creating layer inception_4c/pool_proj
I0403 18:11:25.209306 16504 net.cpp:91] Creating Layer inception_4c/pool_proj
I0403 18:11:25.209322 16504 net.cpp:425] inception_4c/pool_proj <- inception_4c/pool
I0403 18:11:25.209343 16504 net.cpp:399] inception_4c/pool_proj -> inception_4c/pool_proj
I0403 18:11:25.210543 16504 net.cpp:141] Setting up inception_4c/pool_proj
I0403 18:11:25.210571 16504 net.cpp:148] Top shape: 24 64 14 14 (301056)
I0403 18:11:25.210599 16504 net.cpp:156] Memory required for data: 1061809440
I0403 18:11:25.210618 16504 layer_factory.hpp:77] Creating layer inception_4c/relu_pool_proj
I0403 18:11:25.210638 16504 net.cpp:91] Creating Layer inception_4c/relu_pool_proj
I0403 18:11:25.210656 16504 net.cpp:425] inception_4c/relu_pool_proj <- inception_4c/pool_proj
I0403 18:11:25.210672 16504 net.cpp:386] inception_4c/relu_pool_proj -> inception_4c/pool_proj (in-place)
I0403 18:11:25.210855 16504 net.cpp:141] Setting up inception_4c/relu_pool_proj
I0403 18:11:25.210878 16504 net.cpp:148] Top shape: 24 64 14 14 (301056)
I0403 18:11:25.210896 16504 net.cpp:156] Memory required for data: 1063013664
I0403 18:11:25.210909 16504 layer_factory.hpp:77] Creating layer inception_4c/output
I0403 18:11:25.210928 16504 net.cpp:91] Creating Layer inception_4c/output
I0403 18:11:25.210943 16504 net.cpp:425] inception_4c/output <- inception_4c/1x1
I0403 18:11:25.210964 16504 net.cpp:425] inception_4c/output <- inception_4c/3x3
I0403 18:11:25.210979 16504 net.cpp:425] inception_4c/output <- inception_4c/5x5
I0403 18:11:25.210995 16504 net.cpp:425] inception_4c/output <- inception_4c/pool_proj
I0403 18:11:25.211011 16504 net.cpp:399] inception_4c/output -> inception_4c/output
I0403 18:11:25.211058 16504 net.cpp:141] Setting up inception_4c/output
I0403 18:11:25.211081 16504 net.cpp:148] Top shape: 24 512 14 14 (2408448)
I0403 18:11:25.211096 16504 net.cpp:156] Memory required for data: 1072647456
I0403 18:11:25.211109 16504 layer_factory.hpp:77] Creating layer inception_4c/output_inception_4c/output_0_split
I0403 18:11:25.211127 16504 net.cpp:91] Creating Layer inception_4c/output_inception_4c/output_0_split
I0403 18:11:25.211141 16504 net.cpp:425] inception_4c/output_inception_4c/output_0_split <- inception_4c/output
I0403 18:11:25.211161 16504 net.cpp:399] inception_4c/output_inception_4c/output_0_split -> inception_4c/output_inception_4c/output_0_split_0
I0403 18:11:25.211182 16504 net.cpp:399] inception_4c/output_inception_4c/output_0_split -> inception_4c/output_inception_4c/output_0_split_1
I0403 18:11:25.211201 16504 net.cpp:399] inception_4c/output_inception_4c/output_0_split -> inception_4c/output_inception_4c/output_0_split_2
I0403 18:11:25.211221 16504 net.cpp:399] inception_4c/output_inception_4c/output_0_split -> inception_4c/output_inception_4c/output_0_split_3
I0403 18:11:25.211304 16504 net.cpp:141] Setting up inception_4c/output_inception_4c/output_0_split
I0403 18:11:25.211326 16504 net.cpp:148] Top shape: 24 512 14 14 (2408448)
I0403 18:11:25.211343 16504 net.cpp:148] Top shape: 24 512 14 14 (2408448)
I0403 18:11:25.211357 16504 net.cpp:148] Top shape: 24 512 14 14 (2408448)
I0403 18:11:25.211372 16504 net.cpp:148] Top shape: 24 512 14 14 (2408448)
I0403 18:11:25.211386 16504 net.cpp:156] Memory required for data: 1111182624
I0403 18:11:25.211400 16504 layer_factory.hpp:77] Creating layer inception_4d/1x1
I0403 18:11:25.211422 16504 net.cpp:91] Creating Layer inception_4d/1x1
I0403 18:11:25.211441 16504 net.cpp:425] inception_4d/1x1 <- inception_4c/output_inception_4c/output_0_split_0
I0403 18:11:25.211462 16504 net.cpp:399] inception_4d/1x1 -> inception_4d/1x1
I0403 18:11:25.212823 16504 net.cpp:141] Setting up inception_4d/1x1
I0403 18:11:25.212851 16504 net.cpp:148] Top shape: 24 112 14 14 (526848)
I0403 18:11:25.212867 16504 net.cpp:156] Memory required for data: 1113290016
I0403 18:11:25.212883 16504 layer_factory.hpp:77] Creating layer inception_4d/relu_1x1
I0403 18:11:25.212900 16504 net.cpp:91] Creating Layer inception_4d/relu_1x1
I0403 18:11:25.212918 16504 net.cpp:425] inception_4d/relu_1x1 <- inception_4d/1x1
I0403 18:11:25.212936 16504 net.cpp:386] inception_4d/relu_1x1 -> inception_4d/1x1 (in-place)
I0403 18:11:25.213124 16504 net.cpp:141] Setting up inception_4d/relu_1x1
I0403 18:11:25.213148 16504 net.cpp:148] Top shape: 24 112 14 14 (526848)
I0403 18:11:25.213162 16504 net.cpp:156] Memory required for data: 1115397408
I0403 18:11:25.213176 16504 layer_factory.hpp:77] Creating layer inception_4d/3x3_reduce
I0403 18:11:25.213212 16504 net.cpp:91] Creating Layer inception_4d/3x3_reduce
I0403 18:11:25.213232 16504 net.cpp:425] inception_4d/3x3_reduce <- inception_4c/output_inception_4c/output_0_split_1
I0403 18:11:25.213253 16504 net.cpp:399] inception_4d/3x3_reduce -> inception_4d/3x3_reduce
I0403 18:11:25.214743 16504 net.cpp:141] Setting up inception_4d/3x3_reduce
I0403 18:11:25.214771 16504 net.cpp:148] Top shape: 24 144 14 14 (677376)
I0403 18:11:25.214786 16504 net.cpp:156] Memory required for data: 1118106912
I0403 18:11:25.214803 16504 layer_factory.hpp:77] Creating layer inception_4d/relu_3x3_reduce
I0403 18:11:25.214823 16504 net.cpp:91] Creating Layer inception_4d/relu_3x3_reduce
I0403 18:11:25.214841 16504 net.cpp:425] inception_4d/relu_3x3_reduce <- inception_4d/3x3_reduce
I0403 18:11:25.214859 16504 net.cpp:386] inception_4d/relu_3x3_reduce -> inception_4d/3x3_reduce (in-place)
I0403 18:11:25.215173 16504 net.cpp:141] Setting up inception_4d/relu_3x3_reduce
I0403 18:11:25.215199 16504 net.cpp:148] Top shape: 24 144 14 14 (677376)
I0403 18:11:25.215225 16504 net.cpp:156] Memory required for data: 1120816416
I0403 18:11:25.215240 16504 layer_factory.hpp:77] Creating layer inception_4d/3x3
I0403 18:11:25.215265 16504 net.cpp:91] Creating Layer inception_4d/3x3
I0403 18:11:25.215281 16504 net.cpp:425] inception_4d/3x3 <- inception_4d/3x3_reduce
I0403 18:11:25.215301 16504 net.cpp:399] inception_4d/3x3 -> inception_4d/3x3
I0403 18:11:25.219552 16504 net.cpp:141] Setting up inception_4d/3x3
I0403 18:11:25.219583 16504 net.cpp:148] Top shape: 24 288 14 14 (1354752)
I0403 18:11:25.219599 16504 net.cpp:156] Memory required for data: 1126235424
I0403 18:11:25.219619 16504 layer_factory.hpp:77] Creating layer inception_4d/relu_3x3
I0403 18:11:25.219635 16504 net.cpp:91] Creating Layer inception_4d/relu_3x3
I0403 18:11:25.219651 16504 net.cpp:425] inception_4d/relu_3x3 <- inception_4d/3x3
I0403 18:11:25.219671 16504 net.cpp:386] inception_4d/relu_3x3 -> inception_4d/3x3 (in-place)
I0403 18:11:25.219861 16504 net.cpp:141] Setting up inception_4d/relu_3x3
I0403 18:11:25.219884 16504 net.cpp:148] Top shape: 24 288 14 14 (1354752)
I0403 18:11:25.219898 16504 net.cpp:156] Memory required for data: 1131654432
I0403 18:11:25.219913 16504 layer_factory.hpp:77] Creating layer inception_4d/5x5_reduce
I0403 18:11:25.219936 16504 net.cpp:91] Creating Layer inception_4d/5x5_reduce
I0403 18:11:25.219957 16504 net.cpp:425] inception_4d/5x5_reduce <- inception_4c/output_inception_4c/output_0_split_2
I0403 18:11:25.219980 16504 net.cpp:399] inception_4d/5x5_reduce -> inception_4d/5x5_reduce
I0403 18:11:25.221079 16504 net.cpp:141] Setting up inception_4d/5x5_reduce
I0403 18:11:25.221107 16504 net.cpp:148] Top shape: 24 32 14 14 (150528)
I0403 18:11:25.221122 16504 net.cpp:156] Memory required for data: 1132256544
I0403 18:11:25.221139 16504 layer_factory.hpp:77] Creating layer inception_4d/relu_5x5_reduce
I0403 18:11:25.221156 16504 net.cpp:91] Creating Layer inception_4d/relu_5x5_reduce
I0403 18:11:25.221173 16504 net.cpp:425] inception_4d/relu_5x5_reduce <- inception_4d/5x5_reduce
I0403 18:11:25.221191 16504 net.cpp:386] inception_4d/relu_5x5_reduce -> inception_4d/5x5_reduce (in-place)
I0403 18:11:25.221370 16504 net.cpp:141] Setting up inception_4d/relu_5x5_reduce
I0403 18:11:25.221395 16504 net.cpp:148] Top shape: 24 32 14 14 (150528)
I0403 18:11:25.221408 16504 net.cpp:156] Memory required for data: 1132858656
I0403 18:11:25.221423 16504 layer_factory.hpp:77] Creating layer inception_4d/5x5
I0403 18:11:25.221444 16504 net.cpp:91] Creating Layer inception_4d/5x5
I0403 18:11:25.221462 16504 net.cpp:425] inception_4d/5x5 <- inception_4d/5x5_reduce
I0403 18:11:25.221482 16504 net.cpp:399] inception_4d/5x5 -> inception_4d/5x5
I0403 18:11:25.222903 16504 net.cpp:141] Setting up inception_4d/5x5
I0403 18:11:25.222931 16504 net.cpp:148] Top shape: 24 64 14 14 (301056)
I0403 18:11:25.222949 16504 net.cpp:156] Memory required for data: 1134062880
I0403 18:11:25.222968 16504 layer_factory.hpp:77] Creating layer inception_4d/relu_5x5
I0403 18:11:25.223002 16504 net.cpp:91] Creating Layer inception_4d/relu_5x5
I0403 18:11:25.223019 16504 net.cpp:425] inception_4d/relu_5x5 <- inception_4d/5x5
I0403 18:11:25.223037 16504 net.cpp:386] inception_4d/relu_5x5 -> inception_4d/5x5 (in-place)
I0403 18:11:25.223326 16504 net.cpp:141] Setting up inception_4d/relu_5x5
I0403 18:11:25.223351 16504 net.cpp:148] Top shape: 24 64 14 14 (301056)
I0403 18:11:25.223366 16504 net.cpp:156] Memory required for data: 1135267104
I0403 18:11:25.223381 16504 layer_factory.hpp:77] Creating layer inception_4d/pool
I0403 18:11:25.223400 16504 net.cpp:91] Creating Layer inception_4d/pool
I0403 18:11:25.223417 16504 net.cpp:425] inception_4d/pool <- inception_4c/output_inception_4c/output_0_split_3
I0403 18:11:25.223434 16504 net.cpp:399] inception_4d/pool -> inception_4d/pool
I0403 18:11:25.223498 16504 net.cpp:141] Setting up inception_4d/pool
I0403 18:11:25.223521 16504 net.cpp:148] Top shape: 24 512 14 14 (2408448)
I0403 18:11:25.223536 16504 net.cpp:156] Memory required for data: 1144900896
I0403 18:11:25.223549 16504 layer_factory.hpp:77] Creating layer inception_4d/pool_proj
I0403 18:11:25.223570 16504 net.cpp:91] Creating Layer inception_4d/pool_proj
I0403 18:11:25.223587 16504 net.cpp:425] inception_4d/pool_proj <- inception_4d/pool
I0403 18:11:25.223608 16504 net.cpp:399] inception_4d/pool_proj -> inception_4d/pool_proj
I0403 18:11:25.225312 16504 net.cpp:141] Setting up inception_4d/pool_proj
I0403 18:11:25.225342 16504 net.cpp:148] Top shape: 24 64 14 14 (301056)
I0403 18:11:25.225358 16504 net.cpp:156] Memory required for data: 1146105120
I0403 18:11:25.225376 16504 layer_factory.hpp:77] Creating layer inception_4d/relu_pool_proj
I0403 18:11:25.225394 16504 net.cpp:91] Creating Layer inception_4d/relu_pool_proj
I0403 18:11:25.225409 16504 net.cpp:425] inception_4d/relu_pool_proj <- inception_4d/pool_proj
I0403 18:11:25.225428 16504 net.cpp:386] inception_4d/relu_pool_proj -> inception_4d/pool_proj (in-place)
I0403 18:11:25.225606 16504 net.cpp:141] Setting up inception_4d/relu_pool_proj
I0403 18:11:25.225631 16504 net.cpp:148] Top shape: 24 64 14 14 (301056)
I0403 18:11:25.225644 16504 net.cpp:156] Memory required for data: 1147309344
I0403 18:11:25.225659 16504 layer_factory.hpp:77] Creating layer inception_4d/output
I0403 18:11:25.225675 16504 net.cpp:91] Creating Layer inception_4d/output
I0403 18:11:25.225690 16504 net.cpp:425] inception_4d/output <- inception_4d/1x1
I0403 18:11:25.225706 16504 net.cpp:425] inception_4d/output <- inception_4d/3x3
I0403 18:11:25.225721 16504 net.cpp:425] inception_4d/output <- inception_4d/5x5
I0403 18:11:25.225736 16504 net.cpp:425] inception_4d/output <- inception_4d/pool_proj
I0403 18:11:25.225754 16504 net.cpp:399] inception_4d/output -> inception_4d/output
I0403 18:11:25.225802 16504 net.cpp:141] Setting up inception_4d/output
I0403 18:11:25.225826 16504 net.cpp:148] Top shape: 24 528 14 14 (2483712)
I0403 18:11:25.225839 16504 net.cpp:156] Memory required for data: 1157244192
I0403 18:11:25.225853 16504 layer_factory.hpp:77] Creating layer inception_4d/output_inception_4d/output_0_split
I0403 18:11:25.225870 16504 net.cpp:91] Creating Layer inception_4d/output_inception_4d/output_0_split
I0403 18:11:25.225885 16504 net.cpp:425] inception_4d/output_inception_4d/output_0_split <- inception_4d/output
I0403 18:11:25.225905 16504 net.cpp:399] inception_4d/output_inception_4d/output_0_split -> inception_4d/output_inception_4d/output_0_split_0
I0403 18:11:25.225927 16504 net.cpp:399] inception_4d/output_inception_4d/output_0_split -> inception_4d/output_inception_4d/output_0_split_1
I0403 18:11:25.225951 16504 net.cpp:399] inception_4d/output_inception_4d/output_0_split -> inception_4d/output_inception_4d/output_0_split_2
I0403 18:11:25.225972 16504 net.cpp:399] inception_4d/output_inception_4d/output_0_split -> inception_4d/output_inception_4d/output_0_split_3
I0403 18:11:25.225991 16504 net.cpp:399] inception_4d/output_inception_4d/output_0_split -> inception_4d/output_inception_4d/output_0_split_4
I0403 18:11:25.226089 16504 net.cpp:141] Setting up inception_4d/output_inception_4d/output_0_split
I0403 18:11:25.226125 16504 net.cpp:148] Top shape: 24 528 14 14 (2483712)
I0403 18:11:25.226142 16504 net.cpp:148] Top shape: 24 528 14 14 (2483712)
I0403 18:11:25.226157 16504 net.cpp:148] Top shape: 24 528 14 14 (2483712)
I0403 18:11:25.226171 16504 net.cpp:148] Top shape: 24 528 14 14 (2483712)
I0403 18:11:25.226186 16504 net.cpp:148] Top shape: 24 528 14 14 (2483712)
I0403 18:11:25.226199 16504 net.cpp:156] Memory required for data: 1206918432
I0403 18:11:25.226213 16504 layer_factory.hpp:77] Creating layer loss2/ave_pool
I0403 18:11:25.226230 16504 net.cpp:91] Creating Layer loss2/ave_pool
I0403 18:11:25.226245 16504 net.cpp:425] loss2/ave_pool <- inception_4d/output_inception_4d/output_0_split_0
I0403 18:11:25.226264 16504 net.cpp:399] loss2/ave_pool -> loss2/ave_pool
I0403 18:11:25.226567 16504 net.cpp:141] Setting up loss2/ave_pool
I0403 18:11:25.226593 16504 net.cpp:148] Top shape: 24 528 4 4 (202752)
I0403 18:11:25.226608 16504 net.cpp:156] Memory required for data: 1207729440
I0403 18:11:25.226621 16504 layer_factory.hpp:77] Creating layer loss2/conv
I0403 18:11:25.226642 16504 net.cpp:91] Creating Layer loss2/conv
I0403 18:11:25.226660 16504 net.cpp:425] loss2/conv <- loss2/ave_pool
I0403 18:11:25.226680 16504 net.cpp:399] loss2/conv -> loss2/conv
I0403 18:11:25.228514 16504 net.cpp:141] Setting up loss2/conv
I0403 18:11:25.228543 16504 net.cpp:148] Top shape: 24 128 4 4 (49152)
I0403 18:11:25.228557 16504 net.cpp:156] Memory required for data: 1207926048
I0403 18:11:25.228575 16504 layer_factory.hpp:77] Creating layer loss2/relu_conv
I0403 18:11:25.228595 16504 net.cpp:91] Creating Layer loss2/relu_conv
I0403 18:11:25.228611 16504 net.cpp:425] loss2/relu_conv <- loss2/conv
I0403 18:11:25.228627 16504 net.cpp:386] loss2/relu_conv -> loss2/conv (in-place)
I0403 18:11:25.228901 16504 net.cpp:141] Setting up loss2/relu_conv
I0403 18:11:25.228929 16504 net.cpp:148] Top shape: 24 128 4 4 (49152)
I0403 18:11:25.228943 16504 net.cpp:156] Memory required for data: 1208122656
I0403 18:11:25.228962 16504 layer_factory.hpp:77] Creating layer loss2/fc
I0403 18:11:25.228982 16504 net.cpp:91] Creating Layer loss2/fc
I0403 18:11:25.228999 16504 net.cpp:425] loss2/fc <- loss2/conv
I0403 18:11:25.229019 16504 net.cpp:399] loss2/fc -> loss2/fc
I0403 18:11:25.246107 16504 net.cpp:141] Setting up loss2/fc
I0403 18:11:25.246139 16504 net.cpp:148] Top shape: 24 1024 (24576)
I0403 18:11:25.246153 16504 net.cpp:156] Memory required for data: 1208220960
I0403 18:11:25.246170 16504 layer_factory.hpp:77] Creating layer loss2/relu_fc
I0403 18:11:25.246187 16504 net.cpp:91] Creating Layer loss2/relu_fc
I0403 18:11:25.246203 16504 net.cpp:425] loss2/relu_fc <- loss2/fc
I0403 18:11:25.246222 16504 net.cpp:386] loss2/relu_fc -> loss2/fc (in-place)
I0403 18:11:25.246511 16504 net.cpp:141] Setting up loss2/relu_fc
I0403 18:11:25.246536 16504 net.cpp:148] Top shape: 24 1024 (24576)
I0403 18:11:25.246551 16504 net.cpp:156] Memory required for data: 1208319264
I0403 18:11:25.246564 16504 layer_factory.hpp:77] Creating layer loss2/drop_fc
I0403 18:11:25.246582 16504 net.cpp:91] Creating Layer loss2/drop_fc
I0403 18:11:25.246598 16504 net.cpp:425] loss2/drop_fc <- loss2/fc
I0403 18:11:25.246616 16504 net.cpp:386] loss2/drop_fc -> loss2/fc (in-place)
I0403 18:11:25.246665 16504 net.cpp:141] Setting up loss2/drop_fc
I0403 18:11:25.246690 16504 net.cpp:148] Top shape: 24 1024 (24576)
I0403 18:11:25.246704 16504 net.cpp:156] Memory required for data: 1208417568
I0403 18:11:25.246718 16504 layer_factory.hpp:77] Creating layer loss2/classifier_plantvillage
I0403 18:11:25.246736 16504 net.cpp:91] Creating Layer loss2/classifier_plantvillage
I0403 18:11:25.246750 16504 net.cpp:425] loss2/classifier_plantvillage <- loss2/fc
I0403 18:11:25.246772 16504 net.cpp:399] loss2/classifier_plantvillage -> loss2/classifier_plantvillage
I0403 18:11:25.247166 16504 net.cpp:141] Setting up loss2/classifier_plantvillage
I0403 18:11:25.247190 16504 net.cpp:148] Top shape: 24 38 (912)
I0403 18:11:25.247220 16504 net.cpp:156] Memory required for data: 1208421216
I0403 18:11:25.247237 16504 layer_factory.hpp:77] Creating layer loss2/classifier_plantvillage_loss2/classifier_plantvillage_0_split
I0403 18:11:25.247258 16504 net.cpp:91] Creating Layer loss2/classifier_plantvillage_loss2/classifier_plantvillage_0_split
I0403 18:11:25.247274 16504 net.cpp:425] loss2/classifier_plantvillage_loss2/classifier_plantvillage_0_split <- loss2/classifier_plantvillage
I0403 18:11:25.247292 16504 net.cpp:399] loss2/classifier_plantvillage_loss2/classifier_plantvillage_0_split -> loss2/classifier_plantvillage_loss2/classifier_plantvillage_0_split_0
I0403 18:11:25.247310 16504 net.cpp:399] loss2/classifier_plantvillage_loss2/classifier_plantvillage_0_split -> loss2/classifier_plantvillage_loss2/classifier_plantvillage_0_split_1
I0403 18:11:25.247333 16504 net.cpp:399] loss2/classifier_plantvillage_loss2/classifier_plantvillage_0_split -> loss2/classifier_plantvillage_loss2/classifier_plantvillage_0_split_2
I0403 18:11:25.247406 16504 net.cpp:141] Setting up loss2/classifier_plantvillage_loss2/classifier_plantvillage_0_split
I0403 18:11:25.247427 16504 net.cpp:148] Top shape: 24 38 (912)
I0403 18:11:25.247442 16504 net.cpp:148] Top shape: 24 38 (912)
I0403 18:11:25.247457 16504 net.cpp:148] Top shape: 24 38 (912)
I0403 18:11:25.247470 16504 net.cpp:156] Memory required for data: 1208432160
I0403 18:11:25.247484 16504 layer_factory.hpp:77] Creating layer inception_4e/1x1
I0403 18:11:25.247505 16504 net.cpp:91] Creating Layer inception_4e/1x1
I0403 18:11:25.247521 16504 net.cpp:425] inception_4e/1x1 <- inception_4d/output_inception_4d/output_0_split_1
I0403 18:11:25.247539 16504 net.cpp:399] inception_4e/1x1 -> inception_4e/1x1
I0403 18:11:25.249306 16504 net.cpp:141] Setting up inception_4e/1x1
I0403 18:11:25.249333 16504 net.cpp:148] Top shape: 24 256 14 14 (1204224)
I0403 18:11:25.249348 16504 net.cpp:156] Memory required for data: 1213249056
I0403 18:11:25.249366 16504 layer_factory.hpp:77] Creating layer inception_4e/relu_1x1
I0403 18:11:25.249387 16504 net.cpp:91] Creating Layer inception_4e/relu_1x1
I0403 18:11:25.249402 16504 net.cpp:425] inception_4e/relu_1x1 <- inception_4e/1x1
I0403 18:11:25.249418 16504 net.cpp:386] inception_4e/relu_1x1 -> inception_4e/1x1 (in-place)
I0403 18:11:25.249704 16504 net.cpp:141] Setting up inception_4e/relu_1x1
I0403 18:11:25.249730 16504 net.cpp:148] Top shape: 24 256 14 14 (1204224)
I0403 18:11:25.249744 16504 net.cpp:156] Memory required for data: 1218065952
I0403 18:11:25.249759 16504 layer_factory.hpp:77] Creating layer inception_4e/3x3_reduce
I0403 18:11:25.249780 16504 net.cpp:91] Creating Layer inception_4e/3x3_reduce
I0403 18:11:25.249797 16504 net.cpp:425] inception_4e/3x3_reduce <- inception_4d/output_inception_4d/output_0_split_2
I0403 18:11:25.249817 16504 net.cpp:399] inception_4e/3x3_reduce -> inception_4e/3x3_reduce
I0403 18:11:25.251865 16504 net.cpp:141] Setting up inception_4e/3x3_reduce
I0403 18:11:25.251893 16504 net.cpp:148] Top shape: 24 160 14 14 (752640)
I0403 18:11:25.251907 16504 net.cpp:156] Memory required for data: 1221076512
I0403 18:11:25.251927 16504 layer_factory.hpp:77] Creating layer inception_4e/relu_3x3_reduce
I0403 18:11:25.251951 16504 net.cpp:91] Creating Layer inception_4e/relu_3x3_reduce
I0403 18:11:25.251970 16504 net.cpp:425] inception_4e/relu_3x3_reduce <- inception_4e/3x3_reduce
I0403 18:11:25.251986 16504 net.cpp:386] inception_4e/relu_3x3_reduce -> inception_4e/3x3_reduce (in-place)
I0403 18:11:25.252166 16504 net.cpp:141] Setting up inception_4e/relu_3x3_reduce
I0403 18:11:25.252193 16504 net.cpp:148] Top shape: 24 160 14 14 (752640)
I0403 18:11:25.252207 16504 net.cpp:156] Memory required for data: 1224087072
I0403 18:11:25.252223 16504 layer_factory.hpp:77] Creating layer inception_4e/3x3
I0403 18:11:25.252243 16504 net.cpp:91] Creating Layer inception_4e/3x3
I0403 18:11:25.252260 16504 net.cpp:425] inception_4e/3x3 <- inception_4e/3x3_reduce
I0403 18:11:25.252279 16504 net.cpp:399] inception_4e/3x3 -> inception_4e/3x3
I0403 18:11:25.257124 16504 net.cpp:141] Setting up inception_4e/3x3
I0403 18:11:25.257167 16504 net.cpp:148] Top shape: 24 320 14 14 (1505280)
I0403 18:11:25.257184 16504 net.cpp:156] Memory required for data: 1230108192
I0403 18:11:25.257201 16504 layer_factory.hpp:77] Creating layer inception_4e/relu_3x3
I0403 18:11:25.257220 16504 net.cpp:91] Creating Layer inception_4e/relu_3x3
I0403 18:11:25.257236 16504 net.cpp:425] inception_4e/relu_3x3 <- inception_4e/3x3
I0403 18:11:25.257252 16504 net.cpp:386] inception_4e/relu_3x3 -> inception_4e/3x3 (in-place)
I0403 18:11:25.257547 16504 net.cpp:141] Setting up inception_4e/relu_3x3
I0403 18:11:25.257572 16504 net.cpp:148] Top shape: 24 320 14 14 (1505280)
I0403 18:11:25.257586 16504 net.cpp:156] Memory required for data: 1236129312
I0403 18:11:25.257601 16504 layer_factory.hpp:77] Creating layer inception_4e/5x5_reduce
I0403 18:11:25.257623 16504 net.cpp:91] Creating Layer inception_4e/5x5_reduce
I0403 18:11:25.257640 16504 net.cpp:425] inception_4e/5x5_reduce <- inception_4d/output_inception_4d/output_0_split_3
I0403 18:11:25.257660 16504 net.cpp:399] inception_4e/5x5_reduce -> inception_4e/5x5_reduce
I0403 18:11:25.258749 16504 net.cpp:141] Setting up inception_4e/5x5_reduce
I0403 18:11:25.258777 16504 net.cpp:148] Top shape: 24 32 14 14 (150528)
I0403 18:11:25.258791 16504 net.cpp:156] Memory required for data: 1236731424
I0403 18:11:25.258810 16504 layer_factory.hpp:77] Creating layer inception_4e/relu_5x5_reduce
I0403 18:11:25.258831 16504 net.cpp:91] Creating Layer inception_4e/relu_5x5_reduce
I0403 18:11:25.258847 16504 net.cpp:425] inception_4e/relu_5x5_reduce <- inception_4e/5x5_reduce
I0403 18:11:25.258864 16504 net.cpp:386] inception_4e/relu_5x5_reduce -> inception_4e/5x5_reduce (in-place)
I0403 18:11:25.259166 16504 net.cpp:141] Setting up inception_4e/relu_5x5_reduce
I0403 18:11:25.259192 16504 net.cpp:148] Top shape: 24 32 14 14 (150528)
I0403 18:11:25.259207 16504 net.cpp:156] Memory required for data: 1237333536
I0403 18:11:25.259222 16504 layer_factory.hpp:77] Creating layer inception_4e/5x5
I0403 18:11:25.259260 16504 net.cpp:91] Creating Layer inception_4e/5x5
I0403 18:11:25.259279 16504 net.cpp:425] inception_4e/5x5 <- inception_4e/5x5_reduce
I0403 18:11:25.259299 16504 net.cpp:399] inception_4e/5x5 -> inception_4e/5x5
I0403 18:11:25.261158 16504 net.cpp:141] Setting up inception_4e/5x5
I0403 18:11:25.261185 16504 net.cpp:148] Top shape: 24 128 14 14 (602112)
I0403 18:11:25.261200 16504 net.cpp:156] Memory required for data: 1239741984
I0403 18:11:25.261219 16504 layer_factory.hpp:77] Creating layer inception_4e/relu_5x5
I0403 18:11:25.261239 16504 net.cpp:91] Creating Layer inception_4e/relu_5x5
I0403 18:11:25.261255 16504 net.cpp:425] inception_4e/relu_5x5 <- inception_4e/5x5
I0403 18:11:25.261273 16504 net.cpp:386] inception_4e/relu_5x5 -> inception_4e/5x5 (in-place)
I0403 18:11:25.261469 16504 net.cpp:141] Setting up inception_4e/relu_5x5
I0403 18:11:25.261493 16504 net.cpp:148] Top shape: 24 128 14 14 (602112)
I0403 18:11:25.261508 16504 net.cpp:156] Memory required for data: 1242150432
I0403 18:11:25.261523 16504 layer_factory.hpp:77] Creating layer inception_4e/pool
I0403 18:11:25.261544 16504 net.cpp:91] Creating Layer inception_4e/pool
I0403 18:11:25.261561 16504 net.cpp:425] inception_4e/pool <- inception_4d/output_inception_4d/output_0_split_4
I0403 18:11:25.261579 16504 net.cpp:399] inception_4e/pool -> inception_4e/pool
I0403 18:11:25.261649 16504 net.cpp:141] Setting up inception_4e/pool
I0403 18:11:25.261672 16504 net.cpp:148] Top shape: 24 528 14 14 (2483712)
I0403 18:11:25.261687 16504 net.cpp:156] Memory required for data: 1252085280
I0403 18:11:25.261700 16504 layer_factory.hpp:77] Creating layer inception_4e/pool_proj
I0403 18:11:25.261723 16504 net.cpp:91] Creating Layer inception_4e/pool_proj
I0403 18:11:25.261739 16504 net.cpp:425] inception_4e/pool_proj <- inception_4e/pool
I0403 18:11:25.261760 16504 net.cpp:399] inception_4e/pool_proj -> inception_4e/pool_proj
I0403 18:11:25.263272 16504 net.cpp:141] Setting up inception_4e/pool_proj
I0403 18:11:25.263310 16504 net.cpp:148] Top shape: 24 128 14 14 (602112)
I0403 18:11:25.263326 16504 net.cpp:156] Memory required for data: 1254493728
I0403 18:11:25.263345 16504 layer_factory.hpp:77] Creating layer inception_4e/relu_pool_proj
I0403 18:11:25.263362 16504 net.cpp:91] Creating Layer inception_4e/relu_pool_proj
I0403 18:11:25.263378 16504 net.cpp:425] inception_4e/relu_pool_proj <- inception_4e/pool_proj
I0403 18:11:25.263397 16504 net.cpp:386] inception_4e/relu_pool_proj -> inception_4e/pool_proj (in-place)
I0403 18:11:25.263700 16504 net.cpp:141] Setting up inception_4e/relu_pool_proj
I0403 18:11:25.263725 16504 net.cpp:148] Top shape: 24 128 14 14 (602112)
I0403 18:11:25.263739 16504 net.cpp:156] Memory required for data: 1256902176
I0403 18:11:25.263754 16504 layer_factory.hpp:77] Creating layer inception_4e/output
I0403 18:11:25.263772 16504 net.cpp:91] Creating Layer inception_4e/output
I0403 18:11:25.263788 16504 net.cpp:425] inception_4e/output <- inception_4e/1x1
I0403 18:11:25.263804 16504 net.cpp:425] inception_4e/output <- inception_4e/3x3
I0403 18:11:25.263820 16504 net.cpp:425] inception_4e/output <- inception_4e/5x5
I0403 18:11:25.263836 16504 net.cpp:425] inception_4e/output <- inception_4e/pool_proj
I0403 18:11:25.263855 16504 net.cpp:399] inception_4e/output -> inception_4e/output
I0403 18:11:25.263905 16504 net.cpp:141] Setting up inception_4e/output
I0403 18:11:25.263931 16504 net.cpp:148] Top shape: 24 832 14 14 (3913728)
I0403 18:11:25.263950 16504 net.cpp:156] Memory required for data: 1272557088
I0403 18:11:25.263967 16504 layer_factory.hpp:77] Creating layer pool4/3x3_s2
I0403 18:11:25.263984 16504 net.cpp:91] Creating Layer pool4/3x3_s2
I0403 18:11:25.264000 16504 net.cpp:425] pool4/3x3_s2 <- inception_4e/output
I0403 18:11:25.264022 16504 net.cpp:399] pool4/3x3_s2 -> pool4/3x3_s2
I0403 18:11:25.264093 16504 net.cpp:141] Setting up pool4/3x3_s2
I0403 18:11:25.264117 16504 net.cpp:148] Top shape: 24 832 7 7 (978432)
I0403 18:11:25.264130 16504 net.cpp:156] Memory required for data: 1276470816
I0403 18:11:25.264144 16504 layer_factory.hpp:77] Creating layer pool4/3x3_s2_pool4/3x3_s2_0_split
I0403 18:11:25.264163 16504 net.cpp:91] Creating Layer pool4/3x3_s2_pool4/3x3_s2_0_split
I0403 18:11:25.264189 16504 net.cpp:425] pool4/3x3_s2_pool4/3x3_s2_0_split <- pool4/3x3_s2
I0403 18:11:25.264206 16504 net.cpp:399] pool4/3x3_s2_pool4/3x3_s2_0_split -> pool4/3x3_s2_pool4/3x3_s2_0_split_0
I0403 18:11:25.264225 16504 net.cpp:399] pool4/3x3_s2_pool4/3x3_s2_0_split -> pool4/3x3_s2_pool4/3x3_s2_0_split_1
I0403 18:11:25.264245 16504 net.cpp:399] pool4/3x3_s2_pool4/3x3_s2_0_split -> pool4/3x3_s2_pool4/3x3_s2_0_split_2
I0403 18:11:25.264263 16504 net.cpp:399] pool4/3x3_s2_pool4/3x3_s2_0_split -> pool4/3x3_s2_pool4/3x3_s2_0_split_3
I0403 18:11:25.264353 16504 net.cpp:141] Setting up pool4/3x3_s2_pool4/3x3_s2_0_split
I0403 18:11:25.264375 16504 net.cpp:148] Top shape: 24 832 7 7 (978432)
I0403 18:11:25.264391 16504 net.cpp:148] Top shape: 24 832 7 7 (978432)
I0403 18:11:25.264407 16504 net.cpp:148] Top shape: 24 832 7 7 (978432)
I0403 18:11:25.264422 16504 net.cpp:148] Top shape: 24 832 7 7 (978432)
I0403 18:11:25.264436 16504 net.cpp:156] Memory required for data: 1292125728
I0403 18:11:25.264451 16504 layer_factory.hpp:77] Creating layer inception_5a/1x1
I0403 18:11:25.264472 16504 net.cpp:91] Creating Layer inception_5a/1x1
I0403 18:11:25.264489 16504 net.cpp:425] inception_5a/1x1 <- pool4/3x3_s2_pool4/3x3_s2_0_split_0
I0403 18:11:25.264511 16504 net.cpp:399] inception_5a/1x1 -> inception_5a/1x1
I0403 18:11:25.267354 16504 net.cpp:141] Setting up inception_5a/1x1
I0403 18:11:25.267382 16504 net.cpp:148] Top shape: 24 256 7 7 (301056)
I0403 18:11:25.267398 16504 net.cpp:156] Memory required for data: 1293329952
I0403 18:11:25.267416 16504 layer_factory.hpp:77] Creating layer inception_5a/relu_1x1
I0403 18:11:25.267437 16504 net.cpp:91] Creating Layer inception_5a/relu_1x1
I0403 18:11:25.267454 16504 net.cpp:425] inception_5a/relu_1x1 <- inception_5a/1x1
I0403 18:11:25.267472 16504 net.cpp:386] inception_5a/relu_1x1 -> inception_5a/1x1 (in-place)
I0403 18:11:25.267784 16504 net.cpp:141] Setting up inception_5a/relu_1x1
I0403 18:11:25.267810 16504 net.cpp:148] Top shape: 24 256 7 7 (301056)
I0403 18:11:25.267824 16504 net.cpp:156] Memory required for data: 1294534176
I0403 18:11:25.267839 16504 layer_factory.hpp:77] Creating layer inception_5a/3x3_reduce
I0403 18:11:25.267860 16504 net.cpp:91] Creating Layer inception_5a/3x3_reduce
I0403 18:11:25.267879 16504 net.cpp:425] inception_5a/3x3_reduce <- pool4/3x3_s2_pool4/3x3_s2_0_split_1
I0403 18:11:25.267899 16504 net.cpp:399] inception_5a/3x3_reduce -> inception_5a/3x3_reduce
I0403 18:11:25.270362 16504 net.cpp:141] Setting up inception_5a/3x3_reduce
I0403 18:11:25.270393 16504 net.cpp:148] Top shape: 24 160 7 7 (188160)
I0403 18:11:25.270409 16504 net.cpp:156] Memory required for data: 1295286816
I0403 18:11:25.270427 16504 layer_factory.hpp:77] Creating layer inception_5a/relu_3x3_reduce
I0403 18:11:25.270447 16504 net.cpp:91] Creating Layer inception_5a/relu_3x3_reduce
I0403 18:11:25.270462 16504 net.cpp:425] inception_5a/relu_3x3_reduce <- inception_5a/3x3_reduce
I0403 18:11:25.270483 16504 net.cpp:386] inception_5a/relu_3x3_reduce -> inception_5a/3x3_reduce (in-place)
I0403 18:11:25.270668 16504 net.cpp:141] Setting up inception_5a/relu_3x3_reduce
I0403 18:11:25.270694 16504 net.cpp:148] Top shape: 24 160 7 7 (188160)
I0403 18:11:25.270707 16504 net.cpp:156] Memory required for data: 1296039456
I0403 18:11:25.270722 16504 layer_factory.hpp:77] Creating layer inception_5a/3x3
I0403 18:11:25.270743 16504 net.cpp:91] Creating Layer inception_5a/3x3
I0403 18:11:25.270761 16504 net.cpp:425] inception_5a/3x3 <- inception_5a/3x3_reduce
I0403 18:11:25.270782 16504 net.cpp:399] inception_5a/3x3 -> inception_5a/3x3
I0403 18:11:25.275815 16504 net.cpp:141] Setting up inception_5a/3x3
I0403 18:11:25.275842 16504 net.cpp:148] Top shape: 24 320 7 7 (376320)
I0403 18:11:25.275856 16504 net.cpp:156] Memory required for data: 1297544736
I0403 18:11:25.275874 16504 layer_factory.hpp:77] Creating layer inception_5a/relu_3x3
I0403 18:11:25.275893 16504 net.cpp:91] Creating Layer inception_5a/relu_3x3
I0403 18:11:25.275910 16504 net.cpp:425] inception_5a/relu_3x3 <- inception_5a/3x3
I0403 18:11:25.275929 16504 net.cpp:386] inception_5a/relu_3x3 -> inception_5a/3x3 (in-place)
I0403 18:11:25.276219 16504 net.cpp:141] Setting up inception_5a/relu_3x3
I0403 18:11:25.276245 16504 net.cpp:148] Top shape: 24 320 7 7 (376320)
I0403 18:11:25.276259 16504 net.cpp:156] Memory required for data: 1299050016
I0403 18:11:25.276274 16504 layer_factory.hpp:77] Creating layer inception_5a/5x5_reduce
I0403 18:11:25.276295 16504 net.cpp:91] Creating Layer inception_5a/5x5_reduce
I0403 18:11:25.276314 16504 net.cpp:425] inception_5a/5x5_reduce <- pool4/3x3_s2_pool4/3x3_s2_0_split_2
I0403 18:11:25.276335 16504 net.cpp:399] inception_5a/5x5_reduce -> inception_5a/5x5_reduce
I0403 18:11:25.277467 16504 net.cpp:141] Setting up inception_5a/5x5_reduce
I0403 18:11:25.277494 16504 net.cpp:148] Top shape: 24 32 7 7 (37632)
I0403 18:11:25.277509 16504 net.cpp:156] Memory required for data: 1299200544
I0403 18:11:25.277526 16504 layer_factory.hpp:77] Creating layer inception_5a/relu_5x5_reduce
I0403 18:11:25.277546 16504 net.cpp:91] Creating Layer inception_5a/relu_5x5_reduce
I0403 18:11:25.277562 16504 net.cpp:425] inception_5a/relu_5x5_reduce <- inception_5a/5x5_reduce
I0403 18:11:25.277580 16504 net.cpp:386] inception_5a/relu_5x5_reduce -> inception_5a/5x5_reduce (in-place)
I0403 18:11:25.277873 16504 net.cpp:141] Setting up inception_5a/relu_5x5_reduce
I0403 18:11:25.277899 16504 net.cpp:148] Top shape: 24 32 7 7 (37632)
I0403 18:11:25.277912 16504 net.cpp:156] Memory required for data: 1299351072
I0403 18:11:25.277928 16504 layer_factory.hpp:77] Creating layer inception_5a/5x5
I0403 18:11:25.277958 16504 net.cpp:91] Creating Layer inception_5a/5x5
I0403 18:11:25.277978 16504 net.cpp:425] inception_5a/5x5 <- inception_5a/5x5_reduce
I0403 18:11:25.277999 16504 net.cpp:399] inception_5a/5x5 -> inception_5a/5x5
I0403 18:11:25.279672 16504 net.cpp:141] Setting up inception_5a/5x5
I0403 18:11:25.279709 16504 net.cpp:148] Top shape: 24 128 7 7 (150528)
I0403 18:11:25.279724 16504 net.cpp:156] Memory required for data: 1299953184
I0403 18:11:25.279742 16504 layer_factory.hpp:77] Creating layer inception_5a/relu_5x5
I0403 18:11:25.279764 16504 net.cpp:91] Creating Layer inception_5a/relu_5x5
I0403 18:11:25.279781 16504 net.cpp:425] inception_5a/relu_5x5 <- inception_5a/5x5
I0403 18:11:25.279798 16504 net.cpp:386] inception_5a/relu_5x5 -> inception_5a/5x5 (in-place)
I0403 18:11:25.279983 16504 net.cpp:141] Setting up inception_5a/relu_5x5
I0403 18:11:25.280009 16504 net.cpp:148] Top shape: 24 128 7 7 (150528)
I0403 18:11:25.280022 16504 net.cpp:156] Memory required for data: 1300555296
I0403 18:11:25.280036 16504 layer_factory.hpp:77] Creating layer inception_5a/pool
I0403 18:11:25.280055 16504 net.cpp:91] Creating Layer inception_5a/pool
I0403 18:11:25.280071 16504 net.cpp:425] inception_5a/pool <- pool4/3x3_s2_pool4/3x3_s2_0_split_3
I0403 18:11:25.280088 16504 net.cpp:399] inception_5a/pool -> inception_5a/pool
I0403 18:11:25.280158 16504 net.cpp:141] Setting up inception_5a/pool
I0403 18:11:25.280180 16504 net.cpp:148] Top shape: 24 832 7 7 (978432)
I0403 18:11:25.280194 16504 net.cpp:156] Memory required for data: 1304469024
I0403 18:11:25.280207 16504 layer_factory.hpp:77] Creating layer inception_5a/pool_proj
I0403 18:11:25.280228 16504 net.cpp:91] Creating Layer inception_5a/pool_proj
I0403 18:11:25.280246 16504 net.cpp:425] inception_5a/pool_proj <- inception_5a/pool
I0403 18:11:25.280266 16504 net.cpp:399] inception_5a/pool_proj -> inception_5a/pool_proj
I0403 18:11:25.282485 16504 net.cpp:141] Setting up inception_5a/pool_proj
I0403 18:11:25.282513 16504 net.cpp:148] Top shape: 24 128 7 7 (150528)
I0403 18:11:25.282528 16504 net.cpp:156] Memory required for data: 1305071136
I0403 18:11:25.282546 16504 layer_factory.hpp:77] Creating layer inception_5a/relu_pool_proj
I0403 18:11:25.282562 16504 net.cpp:91] Creating Layer inception_5a/relu_pool_proj
I0403 18:11:25.282578 16504 net.cpp:425] inception_5a/relu_pool_proj <- inception_5a/pool_proj
I0403 18:11:25.282598 16504 net.cpp:386] inception_5a/relu_pool_proj -> inception_5a/pool_proj (in-place)
I0403 18:11:25.282886 16504 net.cpp:141] Setting up inception_5a/relu_pool_proj
I0403 18:11:25.282910 16504 net.cpp:148] Top shape: 24 128 7 7 (150528)
I0403 18:11:25.282927 16504 net.cpp:156] Memory required for data: 1305673248
I0403 18:11:25.282941 16504 layer_factory.hpp:77] Creating layer inception_5a/output
I0403 18:11:25.282963 16504 net.cpp:91] Creating Layer inception_5a/output
I0403 18:11:25.282979 16504 net.cpp:425] inception_5a/output <- inception_5a/1x1
I0403 18:11:25.282994 16504 net.cpp:425] inception_5a/output <- inception_5a/3x3
I0403 18:11:25.283010 16504 net.cpp:425] inception_5a/output <- inception_5a/5x5
I0403 18:11:25.283025 16504 net.cpp:425] inception_5a/output <- inception_5a/pool_proj
I0403 18:11:25.283043 16504 net.cpp:399] inception_5a/output -> inception_5a/output
I0403 18:11:25.283092 16504 net.cpp:141] Setting up inception_5a/output
I0403 18:11:25.283116 16504 net.cpp:148] Top shape: 24 832 7 7 (978432)
I0403 18:11:25.283130 16504 net.cpp:156] Memory required for data: 1309586976
I0403 18:11:25.283145 16504 layer_factory.hpp:77] Creating layer inception_5a/output_inception_5a/output_0_split
I0403 18:11:25.283161 16504 net.cpp:91] Creating Layer inception_5a/output_inception_5a/output_0_split
I0403 18:11:25.283185 16504 net.cpp:425] inception_5a/output_inception_5a/output_0_split <- inception_5a/output
I0403 18:11:25.283201 16504 net.cpp:399] inception_5a/output_inception_5a/output_0_split -> inception_5a/output_inception_5a/output_0_split_0
I0403 18:11:25.283221 16504 net.cpp:399] inception_5a/output_inception_5a/output_0_split -> inception_5a/output_inception_5a/output_0_split_1
I0403 18:11:25.283241 16504 net.cpp:399] inception_5a/output_inception_5a/output_0_split -> inception_5a/output_inception_5a/output_0_split_2
I0403 18:11:25.283262 16504 net.cpp:399] inception_5a/output_inception_5a/output_0_split -> inception_5a/output_inception_5a/output_0_split_3
I0403 18:11:25.283372 16504 net.cpp:141] Setting up inception_5a/output_inception_5a/output_0_split
I0403 18:11:25.283395 16504 net.cpp:148] Top shape: 24 832 7 7 (978432)
I0403 18:11:25.283409 16504 net.cpp:148] Top shape: 24 832 7 7 (978432)
I0403 18:11:25.283424 16504 net.cpp:148] Top shape: 24 832 7 7 (978432)
I0403 18:11:25.283439 16504 net.cpp:148] Top shape: 24 832 7 7 (978432)
I0403 18:11:25.283452 16504 net.cpp:156] Memory required for data: 1325241888
I0403 18:11:25.283474 16504 layer_factory.hpp:77] Creating layer inception_5b/1x1
I0403 18:11:25.283495 16504 net.cpp:91] Creating Layer inception_5b/1x1
I0403 18:11:25.283512 16504 net.cpp:425] inception_5b/1x1 <- inception_5a/output_inception_5a/output_0_split_0
I0403 18:11:25.283532 16504 net.cpp:399] inception_5b/1x1 -> inception_5b/1x1
I0403 18:11:25.287190 16504 net.cpp:141] Setting up inception_5b/1x1
I0403 18:11:25.287221 16504 net.cpp:148] Top shape: 24 384 7 7 (451584)
I0403 18:11:25.287236 16504 net.cpp:156] Memory required for data: 1327048224
I0403 18:11:25.287255 16504 layer_factory.hpp:77] Creating layer inception_5b/relu_1x1
I0403 18:11:25.287271 16504 net.cpp:91] Creating Layer inception_5b/relu_1x1
I0403 18:11:25.287286 16504 net.cpp:425] inception_5b/relu_1x1 <- inception_5b/1x1
I0403 18:11:25.287304 16504 net.cpp:386] inception_5b/relu_1x1 -> inception_5b/1x1 (in-place)
I0403 18:11:25.287601 16504 net.cpp:141] Setting up inception_5b/relu_1x1
I0403 18:11:25.287628 16504 net.cpp:148] Top shape: 24 384 7 7 (451584)
I0403 18:11:25.287643 16504 net.cpp:156] Memory required for data: 1328854560
I0403 18:11:25.287657 16504 layer_factory.hpp:77] Creating layer inception_5b/3x3_reduce
I0403 18:11:25.287679 16504 net.cpp:91] Creating Layer inception_5b/3x3_reduce
I0403 18:11:25.287696 16504 net.cpp:425] inception_5b/3x3_reduce <- inception_5a/output_inception_5a/output_0_split_1
I0403 18:11:25.287714 16504 net.cpp:399] inception_5b/3x3_reduce -> inception_5b/3x3_reduce
I0403 18:11:25.290324 16504 net.cpp:141] Setting up inception_5b/3x3_reduce
I0403 18:11:25.290354 16504 net.cpp:148] Top shape: 24 192 7 7 (225792)
I0403 18:11:25.290369 16504 net.cpp:156] Memory required for data: 1329757728
I0403 18:11:25.290385 16504 layer_factory.hpp:77] Creating layer inception_5b/relu_3x3_reduce
I0403 18:11:25.290402 16504 net.cpp:91] Creating Layer inception_5b/relu_3x3_reduce
I0403 18:11:25.290418 16504 net.cpp:425] inception_5b/relu_3x3_reduce <- inception_5b/3x3_reduce
I0403 18:11:25.290437 16504 net.cpp:386] inception_5b/relu_3x3_reduce -> inception_5b/3x3_reduce (in-place)
I0403 18:11:25.290622 16504 net.cpp:141] Setting up inception_5b/relu_3x3_reduce
I0403 18:11:25.290647 16504 net.cpp:148] Top shape: 24 192 7 7 (225792)
I0403 18:11:25.290660 16504 net.cpp:156] Memory required for data: 1330660896
I0403 18:11:25.290674 16504 layer_factory.hpp:77] Creating layer inception_5b/3x3
I0403 18:11:25.290695 16504 net.cpp:91] Creating Layer inception_5b/3x3
I0403 18:11:25.290714 16504 net.cpp:425] inception_5b/3x3 <- inception_5b/3x3_reduce
I0403 18:11:25.290734 16504 net.cpp:399] inception_5b/3x3 -> inception_5b/3x3
I0403 18:11:25.297257 16504 net.cpp:141] Setting up inception_5b/3x3
I0403 18:11:25.297286 16504 net.cpp:148] Top shape: 24 384 7 7 (451584)
I0403 18:11:25.297300 16504 net.cpp:156] Memory required for data: 1332467232
I0403 18:11:25.297318 16504 layer_factory.hpp:77] Creating layer inception_5b/relu_3x3
I0403 18:11:25.297335 16504 net.cpp:91] Creating Layer inception_5b/relu_3x3
I0403 18:11:25.297351 16504 net.cpp:425] inception_5b/relu_3x3 <- inception_5b/3x3
I0403 18:11:25.297370 16504 net.cpp:386] inception_5b/relu_3x3 -> inception_5b/3x3 (in-place)
I0403 18:11:25.297659 16504 net.cpp:141] Setting up inception_5b/relu_3x3
I0403 18:11:25.297684 16504 net.cpp:148] Top shape: 24 384 7 7 (451584)
I0403 18:11:25.297698 16504 net.cpp:156] Memory required for data: 1334273568
I0403 18:11:25.297713 16504 layer_factory.hpp:77] Creating layer inception_5b/5x5_reduce
I0403 18:11:25.297749 16504 net.cpp:91] Creating Layer inception_5b/5x5_reduce
I0403 18:11:25.297767 16504 net.cpp:425] inception_5b/5x5_reduce <- inception_5a/output_inception_5a/output_0_split_2
I0403 18:11:25.297790 16504 net.cpp:399] inception_5b/5x5_reduce -> inception_5b/5x5_reduce
I0403 18:11:25.299069 16504 net.cpp:141] Setting up inception_5b/5x5_reduce
I0403 18:11:25.299098 16504 net.cpp:148] Top shape: 24 48 7 7 (56448)
I0403 18:11:25.299113 16504 net.cpp:156] Memory required for data: 1334499360
I0403 18:11:25.299129 16504 layer_factory.hpp:77] Creating layer inception_5b/relu_5x5_reduce
I0403 18:11:25.299147 16504 net.cpp:91] Creating Layer inception_5b/relu_5x5_reduce
I0403 18:11:25.299163 16504 net.cpp:425] inception_5b/relu_5x5_reduce <- inception_5b/5x5_reduce
I0403 18:11:25.299182 16504 net.cpp:386] inception_5b/relu_5x5_reduce -> inception_5b/5x5_reduce (in-place)
I0403 18:11:25.299545 16504 net.cpp:141] Setting up inception_5b/relu_5x5_reduce
I0403 18:11:25.299569 16504 net.cpp:148] Top shape: 24 48 7 7 (56448)
I0403 18:11:25.299583 16504 net.cpp:156] Memory required for data: 1334725152
I0403 18:11:25.299597 16504 layer_factory.hpp:77] Creating layer inception_5b/5x5
I0403 18:11:25.299618 16504 net.cpp:91] Creating Layer inception_5b/5x5
I0403 18:11:25.299634 16504 net.cpp:425] inception_5b/5x5 <- inception_5b/5x5_reduce
I0403 18:11:25.299651 16504 net.cpp:399] inception_5b/5x5 -> inception_5b/5x5
I0403 18:11:25.301645 16504 net.cpp:141] Setting up inception_5b/5x5
I0403 18:11:25.301672 16504 net.cpp:148] Top shape: 24 128 7 7 (150528)
I0403 18:11:25.301687 16504 net.cpp:156] Memory required for data: 1335327264
I0403 18:11:25.301704 16504 layer_factory.hpp:77] Creating layer inception_5b/relu_5x5
I0403 18:11:25.301723 16504 net.cpp:91] Creating Layer inception_5b/relu_5x5
I0403 18:11:25.301740 16504 net.cpp:425] inception_5b/relu_5x5 <- inception_5b/5x5
I0403 18:11:25.301756 16504 net.cpp:386] inception_5b/relu_5x5 -> inception_5b/5x5 (in-place)
I0403 18:11:25.301950 16504 net.cpp:141] Setting up inception_5b/relu_5x5
I0403 18:11:25.301977 16504 net.cpp:148] Top shape: 24 128 7 7 (150528)
I0403 18:11:25.301992 16504 net.cpp:156] Memory required for data: 1335929376
I0403 18:11:25.302006 16504 layer_factory.hpp:77] Creating layer inception_5b/pool
I0403 18:11:25.302023 16504 net.cpp:91] Creating Layer inception_5b/pool
I0403 18:11:25.302038 16504 net.cpp:425] inception_5b/pool <- inception_5a/output_inception_5a/output_0_split_3
I0403 18:11:25.302055 16504 net.cpp:399] inception_5b/pool -> inception_5b/pool
I0403 18:11:25.302126 16504 net.cpp:141] Setting up inception_5b/pool
I0403 18:11:25.302150 16504 net.cpp:148] Top shape: 24 832 7 7 (978432)
I0403 18:11:25.302163 16504 net.cpp:156] Memory required for data: 1339843104
I0403 18:11:25.302176 16504 layer_factory.hpp:77] Creating layer inception_5b/pool_proj
I0403 18:11:25.302198 16504 net.cpp:91] Creating Layer inception_5b/pool_proj
I0403 18:11:25.302216 16504 net.cpp:425] inception_5b/pool_proj <- inception_5b/pool
I0403 18:11:25.302235 16504 net.cpp:399] inception_5b/pool_proj -> inception_5b/pool_proj
I0403 18:11:25.304504 16504 net.cpp:141] Setting up inception_5b/pool_proj
I0403 18:11:25.304533 16504 net.cpp:148] Top shape: 24 128 7 7 (150528)
I0403 18:11:25.304546 16504 net.cpp:156] Memory required for data: 1340445216
I0403 18:11:25.304564 16504 layer_factory.hpp:77] Creating layer inception_5b/relu_pool_proj
I0403 18:11:25.304584 16504 net.cpp:91] Creating Layer inception_5b/relu_pool_proj
I0403 18:11:25.304600 16504 net.cpp:425] inception_5b/relu_pool_proj <- inception_5b/pool_proj
I0403 18:11:25.304617 16504 net.cpp:386] inception_5b/relu_pool_proj -> inception_5b/pool_proj (in-place)
I0403 18:11:25.304908 16504 net.cpp:141] Setting up inception_5b/relu_pool_proj
I0403 18:11:25.304934 16504 net.cpp:148] Top shape: 24 128 7 7 (150528)
I0403 18:11:25.304954 16504 net.cpp:156] Memory required for data: 1341047328
I0403 18:11:25.304968 16504 layer_factory.hpp:77] Creating layer inception_5b/output
I0403 18:11:25.304986 16504 net.cpp:91] Creating Layer inception_5b/output
I0403 18:11:25.305014 16504 net.cpp:425] inception_5b/output <- inception_5b/1x1
I0403 18:11:25.305032 16504 net.cpp:425] inception_5b/output <- inception_5b/3x3
I0403 18:11:25.305048 16504 net.cpp:425] inception_5b/output <- inception_5b/5x5
I0403 18:11:25.305063 16504 net.cpp:425] inception_5b/output <- inception_5b/pool_proj
I0403 18:11:25.305081 16504 net.cpp:399] inception_5b/output -> inception_5b/output
I0403 18:11:25.305131 16504 net.cpp:141] Setting up inception_5b/output
I0403 18:11:25.305156 16504 net.cpp:148] Top shape: 24 1024 7 7 (1204224)
I0403 18:11:25.305172 16504 net.cpp:156] Memory required for data: 1345864224
I0403 18:11:25.305186 16504 layer_factory.hpp:77] Creating layer pool5/7x7_s1
I0403 18:11:25.305202 16504 net.cpp:91] Creating Layer pool5/7x7_s1
I0403 18:11:25.305217 16504 net.cpp:425] pool5/7x7_s1 <- inception_5b/output
I0403 18:11:25.305238 16504 net.cpp:399] pool5/7x7_s1 -> pool5/7x7_s1
I0403 18:11:25.305444 16504 net.cpp:141] Setting up pool5/7x7_s1
I0403 18:11:25.305469 16504 net.cpp:148] Top shape: 24 1024 1 1 (24576)
I0403 18:11:25.305483 16504 net.cpp:156] Memory required for data: 1345962528
I0403 18:11:25.305496 16504 layer_factory.hpp:77] Creating layer pool5/drop_7x7_s1
I0403 18:11:25.305513 16504 net.cpp:91] Creating Layer pool5/drop_7x7_s1
I0403 18:11:25.305531 16504 net.cpp:425] pool5/drop_7x7_s1 <- pool5/7x7_s1
I0403 18:11:25.305547 16504 net.cpp:386] pool5/drop_7x7_s1 -> pool5/7x7_s1 (in-place)
I0403 18:11:25.305595 16504 net.cpp:141] Setting up pool5/drop_7x7_s1
I0403 18:11:25.305619 16504 net.cpp:148] Top shape: 24 1024 1 1 (24576)
I0403 18:11:25.305634 16504 net.cpp:156] Memory required for data: 1346060832
I0403 18:11:25.305647 16504 layer_factory.hpp:77] Creating layer loss3/classifier_plantvillage
I0403 18:11:25.305665 16504 net.cpp:91] Creating Layer loss3/classifier_plantvillage
I0403 18:11:25.305681 16504 net.cpp:425] loss3/classifier_plantvillage <- pool5/7x7_s1
I0403 18:11:25.305701 16504 net.cpp:399] loss3/classifier_plantvillage -> loss3/classifier_plantvillage
I0403 18:11:25.306138 16504 net.cpp:141] Setting up loss3/classifier_plantvillage
I0403 18:11:25.306164 16504 net.cpp:148] Top shape: 24 38 (912)
I0403 18:11:25.306179 16504 net.cpp:156] Memory required for data: 1346064480
I0403 18:11:25.306196 16504 layer_factory.hpp:77] Creating layer loss3/classifier_plantvillage_loss3/classifier_plantvillage_0_split
I0403 18:11:25.306213 16504 net.cpp:91] Creating Layer loss3/classifier_plantvillage_loss3/classifier_plantvillage_0_split
I0403 18:11:25.306229 16504 net.cpp:425] loss3/classifier_plantvillage_loss3/classifier_plantvillage_0_split <- loss3/classifier_plantvillage
I0403 18:11:25.306246 16504 net.cpp:399] loss3/classifier_plantvillage_loss3/classifier_plantvillage_0_split -> loss3/classifier_plantvillage_loss3/classifier_plantvillage_0_split_0
I0403 18:11:25.306269 16504 net.cpp:399] loss3/classifier_plantvillage_loss3/classifier_plantvillage_0_split -> loss3/classifier_plantvillage_loss3/classifier_plantvillage_0_split_1
I0403 18:11:25.306298 16504 net.cpp:399] loss3/classifier_plantvillage_loss3/classifier_plantvillage_0_split -> loss3/classifier_plantvillage_loss3/classifier_plantvillage_0_split_2
I0403 18:11:25.306318 16504 net.cpp:399] loss3/classifier_plantvillage_loss3/classifier_plantvillage_0_split -> loss3/classifier_plantvillage_loss3/classifier_plantvillage_0_split_3
I0403 18:11:25.306418 16504 net.cpp:141] Setting up loss3/classifier_plantvillage_loss3/classifier_plantvillage_0_split
I0403 18:11:25.306442 16504 net.cpp:148] Top shape: 24 38 (912)
I0403 18:11:25.306457 16504 net.cpp:148] Top shape: 24 38 (912)
I0403 18:11:25.306473 16504 net.cpp:148] Top shape: 24 38 (912)
I0403 18:11:25.306488 16504 net.cpp:148] Top shape: 24 38 (912)
I0403 18:11:25.306501 16504 net.cpp:156] Memory required for data: 1346079072
I0403 18:11:25.306515 16504 layer_factory.hpp:77] Creating layer loss1/loss
I0403 18:11:25.306540 16504 net.cpp:91] Creating Layer loss1/loss
I0403 18:11:25.306557 16504 net.cpp:425] loss1/loss <- loss1/classifier_plantvillage_loss1/classifier_plantvillage_0_split_0
I0403 18:11:25.306587 16504 net.cpp:425] loss1/loss <- label_data_1_split_0
…
