…
I0403 18:05:50.746722 16160 net.cpp:313] The NetState phase (1) differed from the phase (0) specified by a rule in layer data
I0403 18:05:50.747920 16160 net.cpp:49] Initializing net from parameters: 
state {
  phase: TEST
}
layer {
  name: "data"
  type: "Data"
  top: "data"
  top: "label"
  include {
    phase: TEST
  }
  transform_param {
    mirror: false
    crop_size: 224
    mean_file: "/home/mohanty/data/final_dataset/lmdb/grayscale-60-40/mean.binaryproto"
  }
  data_param {
    source: "/home/mohanty/data/final_dataset/lmdb/grayscale-60-40/test_db"
    batch_size: 24
    backend: LMDB
  }
}
layer {
  name: "conv1/7x7_s2"
  type: "Convolution"
  bottom: "data"
  top: "conv1/7x7_s2"
  param {
    lr_mult: 1
    decay_mult: 1
  }
  param {
    lr_mult: 2
    decay_mult: 0
  }
  convolution_param {
    num_output: 64
    pad: 3
    kernel_size: 7
    stride: 2
    weight_filler {
      type: "xavier"
      std: 0.1
    }
    bias_filler {
      type: "constant"
      value: 0.2
    }
  }
}
layer {
  name: "conv1/relu_7x7"
  type: "ReLU"
  bottom: "conv1/7x7_s2"
  top: "conv1/7x7_s2"
}
layer {
  name: "pool1/3x3_s2"
  type: "Pooling"
  bottom: "conv1/7x7_s2"
  top: "pool1/3x3_s2"
  pooling_param {
    pool: MAX
    kernel_size: 3
    stride: 2
  }
}
layer {
  name: "pool1/norm1"
  type: "LRN"
  bottom: "pool1/3x3_s2"
  top: "pool1/norm1"
  lrn_param {
    local_size: 5
    alpha: 0.0001
    beta: 0.75
  }
}
layer {
  name: "conv2/3x3_reduce"
  type: "Convolution"
  bottom: "pool1/norm1"
  top: "conv2/3x3_reduce"
  param {
    lr_mult: 1
    decay_mult: 1
  }
  param {
    lr_mult: 2
    decay_mult: 0
  }
  convolution_param {
    num_output: 64
    kernel_size: 1
    weight_filler {
      type: "xavier"
      std: 0.1
    }
    bias_filler {
      type: "constant"
      value: 0.2
    }
  }
}
layer {
  name: "conv2/relu_3x3_reduce"
  type: "ReLU"
  bottom: "conv2/3x3_reduce"
  top: "conv2/3x3_reduce"
}
layer {
  name: "conv2/3x3"
  type: "Convolution"
  bottom: "conv2/3x3_reduce"
  top: "conv2/3x3"
  param {
    lr_mult: 1
    decay_mult: 1
  }
  param {
    lr_mult: 2
    decay_mult: 0
  }
  convolution_param {
    num_output: 192
    pad: 1
    kernel_size: 3
    weight_filler {
      type: "xavier"
      std: 0.03
    }
    bias_filler {
      type: "constant"
      value: 0.2
    }
  }
}
layer {
  name: "conv2/relu_3x3"
  type: "ReLU"
  bottom: "conv2/3x3"
  top: "conv2/3x3"
}
layer {
  name: "conv2/norm2"
  type: "LRN"
  bottom: "conv2/3x3"
  top: "conv2/norm2"
  lrn_param {
    local_size: 5
    alpha: 0.0001
    beta: 0.75
  }
}
layer {
  name: "pool2/3x3_s2"
  type: "Pooling"
  bottom: "conv2/norm2"
  top: "pool2/3x3_s2"
  pooling_param {
    pool: MAX
    kernel_size: 3
    stride: 2
  }
}
layer {
  name: "inception_3a/1x1"
  type: "Convolution"
  bottom: "pool2/3x3_s2"
  top: "inception_3a/1x1"
  param {
    lr_mult: 1
    decay_mult: 1
  }
  param {
    lr_mult: 2
    decay_mult: 0
  }
  convolution_param {
    num_output: 64
    kernel_size: 1
    weight_filler {
      type: "xavier"
      std: 0.03
    }
    bias_filler {
      type: "constant"
      value: 0.2
    }
  }
}
layer {
  name: "inception_3a/relu_1x1"
  type: "ReLU"
  bottom: "inception_3a/1x1"
  top: "inception_3a/1x1"
}
layer {
  name: "inception_3a/3x3_reduce"
  type: "Convolution"
  bottom: "pool2/3x3_s2"
  top: "inception_3a/3x3_reduce"
  param {
    lr_mult: 1
    decay_mult: 1
  }
  param {
    lr_mult: 2
    decay_mult: 0
  }
  convolution_param {
    num_output: 96
    kernel_size: 1
    weight_filler {
      type: "xavier"
      std: 0.09
    }
    bias_filler {
      type: "constant"
      value: 0.2
    }
  }
}
layer {
  name: "inception_3a/relu_3x3_reduce"
  type: "ReLU"
  bottom: "inception_3a/3x3_reduce"
  top: "inception_3a/3x3_reduce"
}
layer {
  name: "inception_3a/3x3"
  type: "Convolution"
  bottom: "inception_3a/3x3_reduce"
  top: "inception_3a/3x3"
  param {
    lr_mult: 1
    decay_mult: 1
  }
  param {
    lr_mult: 2
    decay_mult: 0
  }
  convolution_param {
    num_output: 128
    pad: 1
    kernel_size: 3
    weight_filler {
      type: "xavier"
      std: 0.03
    }
    bias_filler {
      type: "constant"
      value: 0.2
    }
  }
}
layer {
  name: "inception_3a/relu_3x3"
  type: "ReLU"
  bottom: "inception_3a/3x3"
  top: "inception_3a/3x3"
}
layer {
  name: "inception_3a/5x5_reduce"
  type: "Convolution"
  bottom: "pool2/3x3_s2"
  top: "inception_3a/5x5_reduce"
  param {
    lr_mult: 1
    decay_mult: 1
  }
  param {
    lr_mult: 2
    decay_mult: 0
  }
  convolution_param {
    num_output: 16
    kernel_size: 1
    weight_filler {
      type: "xavier"
      std: 0.2
    }
    bias_filler {
      type: "constant"
      value: 0.2
    }
  }
}
layer {
  name: "inception_3a/relu_5x5_reduce"
  type: "ReLU"
  bottom: "inception_3a/5x5_reduce"
  top: "inception_3a/5x5_reduce"
}
layer {
  name: "inception_3a/5x5"
  type: "Convolution"
  bottom: "inception_3a/5x5_reduce"
  top: "inception_3a/5x5"
  param {
    lr_mult: 1
    decay_mult: 1
  }
  param {
    lr_mult: 2
    decay_mult: 0
  }
  convolution_param {
    num_output: 32
    pad: 2
    kernel_size: 5
    weight_filler {
      type: "xavier"
      std: 0.03
    }
    bias_filler {
      type: "constant"
      value: 0.2
    }
  }
}
layer {
  name: "inception_3a/relu_5x5"
  type: "ReLU"
  bottom: "inception_3a/5x5"
  top: "inception_3a/5x5"
}
layer {
  name: "inception_3a/pool"
  type: "Pooling"
  bottom: "pool2/3x3_s2"
  top: "inception_3a/pool"
  pooling_param {
    pool: MAX
    kernel_size: 3
    stride: 1
    pad: 1
  }
}
layer {
  name: "inception_3a/pool_proj"
  type: "Convolution"
  bottom: "inception_3a/pool"
  top: "inception_3a/pool_proj"
  param {
    lr_mult: 1
    decay_mult: 1
  }
  param {
    lr_mult: 2
    decay_mult: 0
  }
  convolution_param {
    num_output: 32
    kernel_size: 1
    weight_filler {
      type: "xavier"
      std: 0.1
    }
    bias_filler {
      type: "constant"
      value: 0.2
    }
  }
}
layer {
  name: "inception_3a/relu_pool_proj"
  type: "ReLU"
  bottom: "inception_3a/pool_proj"
  top: "inception_3a/pool_proj"
}
layer {
  name: "inception_3a/output"
  type: "Concat"
  bottom: "inception_3a/1x1"
  bottom: "inception_3a/3x3"
  bottom: "inception_3a/5x5"
  bottom: "inception_3a/pool_proj"
  top: "inception_3a/output"
}
layer {
  name: "inception_3b/1x1"
  type: "Convolution"
  bottom: "inception_3a/output"
  top: "inception_3b/1x1"
  param {
    lr_mult: 1
    decay_mult: 1
  }
  param {
    lr_mult: 2
    decay_mult: 0
  }
  convolution_param {
    num_output: 128
    kernel_size: 1
    weight_filler {
      type: "xavier"
      std: 0.03
    }
    bias_filler {
      type: "constant"
      value: 0.2
    }
  }
}
layer {
  name: "inception_3b/relu_1x1"
  type: "ReLU"
  bottom: "inception_3b/1x1"
  top: "inception_3b/1x1"
}
layer {
  name: "inception_3b/3x3_reduce"
  type: "Convolution"
  bottom: "inception_3a/output"
  top: "inception_3b/3x3_reduce"
  param {
    lr_mult: 1
    decay_mult: 1
  }
  param {
    lr_mult: 2
    decay_mult: 0
  }
  convolution_param {
    num_output: 128
    kernel_size: 1
    weight_filler {
      type: "xavier"
      std: 0.09
    }
    bias_filler {
      type: "constant"
      value: 0.2
    }
  }
}
layer {
  name: "inception_3b/relu_3x3_reduce"
  type: "ReLU"
  bottom: "inception_3b/3x3_reduce"
  top: "inception_3b/3x3_reduce"
}
layer {
  name: "inception_3b/3x3"
  type: "Convolution"
  bottom: "inception_3b/3x3_reduce"
  top: "inception_3b/3x3"
  param {
    lr_mult: 1
    decay_mult: 1
  }
  param {
    lr_mult: 2
    decay_mult: 0
  }
  convolution_param {
    num_output: 192
    pad: 1
    kernel_size: 3
    weight_filler {
      type: "xavier"
      std: 0.03
    }
    bias_filler {
      type: "constant"
      value: 0.2
    }
  }
}
layer {
  name: "inception_3b/relu_3x3"
  type: "ReLU"
  bottom: "inception_3b/3x3"
  top: "inception_3b/3x3"
}
layer {
  name: "inception_3b/5x5_reduce"
  type: "Convolution"
  bottom: "inception_3a/output"
  top: "inception_3b/5x5_reduce"
  param {
    lr_mult: 1
    decay_mult: 1
  }
  param {
    lr_mult: 2
    decay_mult: 0
  }
  convolution_param {
    num_output: 32
    kernel_size: 1
    weight_filler {
      type: "xavier"
      std: 0.2
    }
    bias_filler {
      type: "constant"
      value: 0.2
    }
  }
}
layer {
  name: "inception_3b/relu_5x5_reduce"
  type: "ReLU"
  bottom: "inception_3b/5x5_reduce"
  top: "inception_3b/5x5_reduce"
}
layer {
  name: "inception_3b/5x5"
  type: "Convolution"
  bottom: "inception_3b/5x5_reduce"
  top: "inception_3b/5x5"
  param {
    lr_mult: 1
    decay_mult: 1
  }
  param {
    lr_mult: 2
    decay_mult: 0
  }
  convolution_param {
    num_output: 96
    pad: 2
    kernel_size: 5
    weight_filler {
      type: "xavier"
      std: 0.03
    }
    bias_filler {
      type: "constant"
      value: 0.2
    }
  }
}
layer {
  name: "inception_3b/relu_5x5"
  type: "ReLU"
  bottom: "inception_3b/5x5"
  top: "inception_3b/5x5"
}
layer {
  name: "inception_3b/pool"
  type: "Pooling"
  bottom: "inception_3a/output"
  top: "inception_3b/pool"
  pooling_param {
    pool: MAX
    kernel_size: 3
    stride: 1
    pad: 1
  }
}
layer {
  name: "inception_3b/pool_proj"
  type: "Convolution"
  bottom: "inception_3b/pool"
  top: "inception_3b/pool_proj"
  param {
    lr_mult: 1
    decay_mult: 1
  }
  param {
    lr_mult: 2
    decay_mult: 0
  }
  convolution_param {
    num_output: 64
    kernel_size: 1
    weight_filler {
      type: "xavier"
      std: 0.1
    }
    bias_filler {
      type: "constant"
      value: 0.2
    }
  }
}
layer {
  name: "inception_3b/relu_pool_proj"
  type: "ReLU"
  bottom: "inception_3b/pool_proj"
  top: "inception_3b/pool_proj"
}
layer {
  name: "inception_3b/output"
  type: "Concat"
  bottom: "inception_3b/1x1"
  bottom: "inception_3b/3x3"
  bottom: "inception_3b/5x5"
  bottom: "inception_3b/pool_proj"
  top: "inception_3b/output"
}
layer {
  name: "pool3/3x3_s2"
  type: "Pooling"
  bottom: "inception_3b/output"
  top: "pool3/3x3_s2"
  pooling_param {
    pool: MAX
    kernel_size: 3
    stride: 2
  }
}
layer {
  name: "inception_4a/1x1"
  type: "Convolution"
  bottom: "pool3/3x3_s2"
  top: "inception_4a/1x1"
  param {
    lr_mult: 1
    decay_mult: 1
  }
  param {
    lr_mult: 2
    decay_mult: 0
  }
  convolution_param {
    num_output: 192
    kernel_size: 1
    weight_filler {
      type: "xavier"
      std: 0.03
    }
    bias_filler {
      type: "constant"
      value: 0.2
    }
  }
}
layer {
  name: "inception_4a/relu_1x1"
  type: "ReLU"
  bottom: "inception_4a/1x1"
  top: "inception_4a/1x1"
}
layer {
  name: "inception_4a/3x3_reduce"
  type: "Convolution"
  bottom: "pool3/3x3_s2"
  top: "inception_4a/3x3_reduce"
  param {
    lr_mult: 1
    decay_mult: 1
  }
  param {
    lr_mult: 2
    decay_mult: 0
  }
  convolution_param {
    num_output: 96
    kernel_size: 1
    weight_filler {
      type: "xavier"
      std: 0.09
    }
    bias_filler {
      type: "constant"
      value: 0.2
    }
  }
}
layer {
  name: "inception_4a/relu_3x3_reduce"
  type: "ReLU"
  bottom: "inception_4a/3x3_reduce"
  top: "inception_4a/3x3_reduce"
}
layer {
  name: "inception_4a/3x3"
  type: "Convolution"
  bottom: "inception_4a/3x3_reduce"
  top: "inception_4a/3x3"
  param {
    lr_mult: 1
    decay_mult: 1
  }
  param {
    lr_mult: 2
    decay_mult: 0
  }
  convolution_param {
    num_output: 208
    pad: 1
    kernel_size: 3
    weight_filler {
      type: "xavier"
      std: 0.03
    }
    bias_filler {
      type: "constant"
      value: 0.2
    }
  }
}
layer {
  name: "inception_4a/relu_3x3"
  type: "ReLU"
  bottom: "inception_4a/3x3"
  top: "inception_4a/3x3"
}
layer {
  name: "inception_4a/5x5_reduce"
  type: "Convolution"
  bottom: "pool3/3x3_s2"
  top: "inception_4a/5x5_reduce"
  param {
    lr_mult: 1
    decay_mult: 1
  }
  param {
    lr_mult: 2
    decay_mult: 0
  }
  convolution_param {
    num_output: 16
    kernel_size: 1
    weight_filler {
      type: "xavier"
      std: 0.2
    }
    bias_filler {
      type: "constant"
      value: 0.2
    }
  }
}
layer {
  name: "inception_4a/relu_5x5_reduce"
  type: "ReLU"
  bottom: "inception_4a/5x5_reduce"
  top: "inception_4a/5x5_reduce"
}
layer {
  name: "inception_4a/5x5"
  type: "Convolution"
  bottom: "inception_4a/5x5_reduce"
  top: "inception_4a/5x5"
  param {
    lr_mult: 1
    decay_mult: 1
  }
  param {
    lr_mult: 2
    decay_mult: 0
  }
  convolution_param {
    num_output: 48
    pad: 2
    kernel_size: 5
    weight_filler {
      type: "xavier"
      std: 0.03
    }
    bias_filler {
      type: "constant"
      value: 0.2
    }
  }
}
layer {
  name: "inception_4a/relu_5x5"
  type: "ReLU"
  bottom: "inception_4a/5x5"
  top: "inception_4a/5x5"
}
layer {
  name: "inception_4a/pool"
  type: "Pooling"
  bottom: "pool3/3x3_s2"
  top: "inception_4a/pool"
  pooling_param {
    pool: MAX
    kernel_size: 3
    stride: 1
    pad: 1
  }
}
layer {
  name: "inception_4a/pool_proj"
  type: "Convolution"
  bottom: "inception_4a/pool"
  top: "inception_4a/pool_proj"
  param {
    lr_mult: 1
    decay_mult: 1
  }
  param {
    lr_mult: 2
    decay_mult: 0
  }
  convolution_param {
    num_output: 64
    kernel_size: 1
    weight_filler {
      type: "xavier"
      std: 0.1
    }
    bias_filler {
      type: "constant"
      value: 0.2
    }
  }
}
layer {
  name: "inception_4a/relu_pool_proj"
  type: "ReLU"
  bottom: "inception_4a/pool_proj"
  top: "inception_4a/pool_proj"
}
layer {
  name: "inception_4a/output"
  type: "Concat"
  bottom: "inception_4a/1x1"
  bottom: "inception_4a/3x3"
  bottom: "inception_4a/5x5"
  bottom: "inception_4a/pool_proj"
  top: "inception_4a/output"
}
layer {
  name: "loss1/ave_pool"
  type: "Pooling"
  bottom: "inception_4a/output"
  top: "loss1/ave_pool"
  pooling_param {
    pool: AVE
    kernel_size: 5
    stride: 3
  }
}
layer {
  name: "loss1/conv"
  type: "Convolution"
  bottom: "loss1/ave_pool"
  top: "loss1/conv"
  param {
    lr_mult: 1
    decay_mult: 1
  }
  param {
    lr_mult: 2
    decay_mult: 0
  }
  convolution_param {
    num_output: 128
    kernel_size: 1
    weight_filler {
      type: "xavier"
      std: 0.08
    }
    bias_filler {
      type: "constant"
      value: 0.2
    }
  }
}
layer {
  name: "loss1/relu_conv"
  type: "ReLU"
  bottom: "loss1/conv"
  top: "loss1/conv"
}
layer {
  name: "loss1/fc"
  type: "InnerProduct"
  bottom: "loss1/conv"
  top: "loss1/fc"
  param {
    lr_mult: 1
    decay_mult: 1
  }
  param {
    lr_mult: 2
    decay_mult: 0
  }
  inner_product_param {
    num_output: 1024
    weight_filler {
      type: "xavier"
      std: 0.02
    }
    bias_filler {
      type: "constant"
      value: 0.2
    }
  }
}
layer {
  name: "loss1/relu_fc"
  type: "ReLU"
  bottom: "loss1/fc"
  top: "loss1/fc"
}
layer {
  name: "loss1/drop_fc"
  type: "Dropout"
  bottom: "loss1/fc"
  top: "loss1/fc"
  dropout_param {
    dropout_ratio: 0.7
  }
}
layer {
  name: "loss1/classifier_plantvillage"
  type: "InnerProduct"
  bottom: "loss1/fc"
  top: "loss1/classifier_plantvillage"
  param {
    lr_mult: 1
    decay_mult: 1
  }
  param {
    lr_mult: 2
    decay_mult: 0
  }
  inner_product_param {
    num_output: 38
    weight_filler {
      type: "xavier"
      std: 0.0009765625
    }
    bias_filler {
      type: "constant"
      value: 0
    }
  }
}
layer {
  name: "inception_4b/1x1"
  type: "Convolution"
  bottom: "inception_4a/output"
  top: "inception_4b/1x1"
  param {
    lr_mult: 1
    decay_mult: 1
  }
  param {
    lr_mult: 2
    decay_mult: 0
  }
  convolution_param {
    num_output: 160
    kernel_size: 1
    weight_filler {
      type: "xavier"
      std: 0.03
    }
    bias_filler {
      type: "constant"
      value: 0.2
    }
  }
}
layer {
  name: "inception_4b/relu_1x1"
  type: "ReLU"
  bottom: "inception_4b/1x1"
  top: "inception_4b/1x1"
}
layer {
  name: "inception_4b/3x3_reduce"
  type: "Convolution"
  bottom: "inception_4a/output"
  top: "inception_4b/3x3_reduce"
  param {
    lr_mult: 1
    decay_mult: 1
  }
  param {
    lr_mult: 2
    decay_mult: 0
  }
  convolution_param {
    num_output: 112
    kernel_size: 1
    weight_filler {
      type: "xavier"
      std: 0.09
    }
    bias_filler {
      type: "constant"
      value: 0.2
    }
  }
}
layer {
  name: "inception_4b/relu_3x3_reduce"
  type: "ReLU"
  bottom: "inception_4b/3x3_reduce"
  top: "inception_4b/3x3_reduce"
}
layer {
  name: "inception_4b/3x3"
  type: "Convolution"
  bottom: "inception_4b/3x3_reduce"
  top: "inception_4b/3x3"
  param {
    lr_mult: 1
    decay_mult: 1
  }
  param {
    lr_mult: 2
    decay_mult: 0
  }
  convolution_param {
    num_output: 224
    pad: 1
    kernel_size: 3
    weight_filler {
      type: "xavier"
      std: 0.03
    }
    bias_filler {
      type: "constant"
      value: 0.2
    }
  }
}
layer {
  name: "inception_4b/relu_3x3"
  type: "ReLU"
  bottom: "inception_4b/3x3"
  top: "inception_4b/3x3"
}
layer {
  name: "inception_4b/5x5_reduce"
  type: "Convolution"
  bottom: "inception_4a/output"
  top: "inception_4b/5x5_reduce"
  param {
    lr_mult: 1
    decay_mult: 1
  }
  param {
    lr_mult: 2
    decay_mult: 0
  }
  convolution_param {
    num_output: 24
    kernel_size: 1
    weight_filler {
      type: "xavier"
      std: 0.2
    }
    bias_filler {
      type: "constant"
      value: 0.2
    }
  }
}
layer {
  name: "inception_4b/relu_5x5_reduce"
  type: "ReLU"
  bottom: "inception_4b/5x5_reduce"
  top: "inception_4b/5x5_reduce"
}
layer {
  name: "inception_4b/5x5"
  type: "Convolution"
  bottom: "inception_4b/5x5_reduce"
  top: "inception_4b/5x5"
  param {
    lr_mult: 1
    decay_mult: 1
  }
  param {
    lr_mult: 2
    decay_mult: 0
  }
  convolution_param {
    num_output: 64
    pad: 2
    kernel_size: 5
    weight_filler {
      type: "xavier"
      std: 0.03
    }
    bias_filler {
      type: "constant"
      value: 0.2
    }
  }
}
layer {
  name: "inception_4b/relu_5x5"
  type: "ReLU"
  bottom: "inception_4b/5x5"
  top: "inception_4b/5x5"
}
layer {
  name: "inception_4b/pool"
  type: "Pooling"
  bottom: "inception_4a/output"
  top: "inception_4b/pool"
  pooling_param {
    pool: MAX
    kernel_size: 3
    stride: 1
    pad: 1
  }
}
layer {
  name: "inception_4b/pool_proj"
  type: "Convolution"
  bottom: "inception_4b/pool"
  top: "inception_4b/pool_proj"
  param {
    lr_mult: 1
    decay_mult: 1
  }
  param {
    lr_mult: 2
    decay_mult: 0
  }
  convolution_param {
    num_output: 64
    kernel_size: 1
    weight_filler {
      type: "xavier"
      std: 0.1
    }
    bias_filler {
      type: "constant"
      value: 0.2
    }
  }
}
layer {
  name: "inception_4b/relu_pool_proj"
  type: "ReLU"
  bottom: "inception_4b/pool_proj"
  top: "inception_4b/pool_proj"
}
layer {
  name: "inception_4b/output"
  type: "Concat"
  bottom: "inception_4b/1x1"
  bottom: "inception_4b/3x3"
  bottom: "inception_4b/5x5"
  bottom: "inception_4b/pool_proj"
  top: "inception_4b/output"
}
layer {
  name: "inception_4c/1x1"
  type: "Convolution"
  bottom: "inception_4b/output"
  top: "inception_4c/1x1"
  param {
    lr_mult: 1
    decay_mult: 1
  }
  param {
    lr_mult: 2
    decay_mult: 0
  }
  convolution_param {
    num_output: 128
    kernel_size: 1
    weight_filler {
      type: "xavier"
      std: 0.03
    }
    bias_filler {
      type: "constant"
      value: 0.2
    }
  }
}
layer {
  name: "inception_4c/relu_1x1"
  type: "ReLU"
  bottom: "inception_4c/1x1"
  top: "inception_4c/1x1"
}
layer {
  name: "inception_4c/3x3_reduce"
  type: "Convolution"
  bottom: "inception_4b/output"
  top: "inception_4c/3x3_reduce"
  param {
    lr_mult: 1
    decay_mult: 1
  }
  param {
    lr_mult: 2
    decay_mult: 0
  }
  convolution_param {
    num_output: 128
    kernel_size: 1
    weight_filler {
      type: "xavier"
      std: 0.09
    }
    bias_filler {
      type: "constant"
      value: 0.2
    }
  }
}
layer {
  name: "inception_4c/relu_3x3_reduce"
  type: "ReLU"
  bottom: "inception_4c/3x3_reduce"
  top: "inception_4c/3x3_reduce"
}
layer {
  name: "inception_4c/3x3"
  type: "Convolution"
  bottom: "inception_4c/3x3_reduce"
  top: "inception_4c/3x3"
  param {
    lr_mult: 1
    decay_mult: 1
  }
  param {
    lr_mult: 2
    decay_mult: 0
  }
  convolution_param {
    num_output: 256
    pad: 1
    kernel_size: 3
    weight_filler {
      type: "xavier"
      std: 0.03
    }
    bias_filler {
      type: "constant"
      value: 0.2
    }
  }
}
layer {
  name: "inception_4c/relu_3x3"
  type: "ReLU"
  bottom: "inception_4c/3x3"
  top: "inception_4c/3x3"
}
layer {
  name: "inception_4c/5x5_reduce"
  type: "Convolution"
  bottom: "inception_4b/output"
  top: "inception_4c/5x5_reduce"
  param {
    lr_mult: 1
    decay_mult: 1
  }
  param {
    lr_mult: 2
    decay_mult: 0
  }
  convolution_param {
    num_output: 24
    kernel_size: 1
    weight_filler {
      type: "xavier"
      std: 0.2
    }
    bias_filler {
      type: "constant"
      value: 0.2
    }
  }
}
layer {
  name: "inception_4c/relu_5x5_reduce"
  type: "ReLU"
  bottom: "inception_4c/5x5_reduce"
  top: "inception_4c/5x5_reduce"
}
layer {
  name: "inception_4c/5x5"
  type: "Convolution"
  bottom: "inception_4c/5x5_reduce"
  top: "inception_4c/5x5"
  param {
    lr_mult: 1
    decay_mult: 1
  }
  param {
    lr_mult: 2
    decay_mult: 0
  }
  convolution_param {
    num_output: 64
    pad: 2
    kernel_size: 5
    weight_filler {
      type: "xavier"
      std: 0.03
    }
    bias_filler {
      type: "constant"
      value: 0.2
    }
  }
}
layer {
  name: "inception_4c/relu_5x5"
  type: "ReLU"
  bottom: "inception_4c/5x5"
  top: "inception_4c/5x5"
}
layer {
  name: "inception_4c/pool"
  type: "Pooling"
  bottom: "inception_4b/output"
  top: "inception_4c/pool"
  pooling_param {
    pool: MAX
    kernel_size: 3
    stride: 1
    pad: 1
  }
}
layer {
  name: "inception_4c/pool_proj"
  type: "Convolution"
  bottom: "inception_4c/pool"
  top: "inception_4c/pool_proj"
  param {
    lr_mult: 1
    decay_mult: 1
  }
  param {
    lr_mult: 2
    decay_mult: 0
  }
  convolution_param {
    num_output: 64
    kernel_size: 1
    weight_filler {
      type: "xavier"
      std: 0.1
    }
    bias_filler {
      type: "constant"
      value: 0.2
    }
  }
}
layer {
  name: "inception_4c/relu_pool_proj"
  type: "ReLU"
  bottom: "inception_4c/pool_proj"
  top: "inception_4c/pool_proj"
}
layer {
  name: "inception_4c/output"
  type: "Concat"
  bottom: "inception_4c/1x1"
  bottom: "inception_4c/3x3"
  bottom: "inception_4c/5x5"
  bottom: "inception_4c/pool_proj"
  top: "inception_4c/output"
}
layer {
  name: "inception_4d/1x1"
  type: "Convolution"
  bottom: "inception_4c/output"
  top: "inception_4d/1x1"
  param {
    lr_mult: 1
    decay_mult: 1
  }
  param {
    lr_mult: 2
    decay_mult: 0
  }
  convolution_param {
    num_output: 112
    kernel_size: 1
    weight_filler {
      type: "xavier"
      std: 0.03
    }
    bias_filler {
      type: "constant"
      value: 0.2
    }
  }
}
layer {
  name: "inception_4d/relu_1x1"
  type: "ReLU"
  bottom: "inception_4d/1x1"
  top: "inception_4d/1x1"
}
layer {
  name: "inception_4d/3x3_reduce"
  type: "Convolution"
  bottom: "inception_4c/output"
  top: "inception_4d/3x3_reduce"
  param {
    lr_mult: 1
    decay_mult: 1
  }
  param {
    lr_mult: 2
    decay_mult: 0
  }
  convolution_param {
    num_output: 144
    kernel_size: 1
    weight_filler {
      type: "xavier"
      std: 0.09
    }
    bias_filler {
      type: "constant"
      value: 0.2
    }
  }
}
layer {
  name: "inception_4d/relu_3x3_reduce"
  type: "ReLU"
  bottom: "inception_4d/3x3_reduce"
  top: "inception_4d/3x3_reduce"
}
layer {
  name: "inception_4d/3x3"
  type: "Convolution"
  bottom: "inception_4d/3x3_reduce"
  top: "inception_4d/3x3"
  param {
    lr_mult: 1
    decay_mult: 1
  }
  param {
    lr_mult: 2
    decay_mult: 0
  }
  convolution_param {
    num_output: 288
    pad: 1
    kernel_size: 3
    weight_filler {
      type: "xavier"
      std: 0.03
    }
    bias_filler {
      type: "constant"
      value: 0.2
    }
  }
}
layer {
  name: "inception_4d/relu_3x3"
  type: "ReLU"
  bottom: "inception_4d/3x3"
  top: "inception_4d/3x3"
}
layer {
  name: "inception_4d/5x5_reduce"
  type: "Convolution"
  bottom: "inception_4c/output"
  top: "inception_4d/5x5_reduce"
  param {
    lr_mult: 1
    decay_mult: 1
  }
  param {
    lr_mult: 2
    decay_mult: 0
  }
  convolution_param {
    num_output: 32
    kernel_size: 1
    weight_filler {
      type: "xavier"
      std: 0.2
    }
    bias_filler {
      type: "constant"
      value: 0.2
    }
  }
}
layer {
  name: "inception_4d/relu_5x5_reduce"
  type: "ReLU"
  bottom: "inception_4d/5x5_reduce"
  top: "inception_4d/5x5_reduce"
}
layer {
  name: "inception_4d/5x5"
  type: "Convolution"
  bottom: "inception_4d/5x5_reduce"
  top: "inception_4d/5x5"
  param {
    lr_mult: 1
    decay_mult: 1
  }
  param {
    lr_mult: 2
    decay_mult: 0
  }
  convolution_param {
    num_output: 64
    pad: 2
    kernel_size: 5
    weight_filler {
      type: "xavier"
      std: 0.03
    }
    bias_filler {
      type: "constant"
      value: 0.2
    }
  }
}
layer {
  name: "inception_4d/relu_5x5"
  type: "ReLU"
  bottom: "inception_4d/5x5"
  top: "inception_4d/5x5"
}
layer {
  name: "inception_4d/pool"
  type: "Pooling"
  bottom: "inception_4c/output"
  top: "inception_4d/pool"
  pooling_param {
    pool: MAX
    kernel_size: 3
    stride: 1
    pad: 1
  }
}
layer {
  name: "inception_4d/pool_proj"
  type: "Convolution"
  bottom: "inception_4d/pool"
  top: "inception_4d/pool_proj"
  param {
    lr_mult: 1
    decay_mult: 1
  }
  param {
    lr_mult: 2
    decay_mult: 0
  }
  convolution_param {
    num_output: 64
    kernel_size: 1
    weight_filler {
      type: "xavier"
      std: 0.1
    }
    bias_filler {
      type: "constant"
      value: 0.2
    }
  }
}
layer {
  name: "inception_4d/relu_pool_proj"
  type: "ReLU"
  bottom: "inception_4d/pool_proj"
  top: "inception_4d/pool_proj"
}
layer {
  name: "inception_4d/output"
  type: "Concat"
  bottom: "inception_4d/1x1"
  bottom: "inception_4d/3x3"
  bottom: "inception_4d/5x5"
  bottom: "inception_4d/pool_proj"
  top: "inception_4d/output"
}
layer {
  name: "loss2/ave_pool"
  type: "Pooling"
  bottom: "inception_4d/output"
  top: "loss2/ave_pool"
  pooling_param {
    pool: AVE
    kernel_size: 5
    stride: 3
  }
}
layer {
  name: "loss2/conv"
  type: "Convolution"
  bottom: "loss2/ave_pool"
  top: "loss2/conv"
  param {
    lr_mult: 1
    decay_mult: 1
  }
  param {
    lr_mult: 2
    decay_mult: 0
  }
  convolution_param {
    num_output: 128
    kernel_size: 1
    weight_filler {
      type: "xavier"
      std: 0.08
    }
    bias_filler {
      type: "constant"
      value: 0.2
    }
  }
}
layer {
  name: "loss2/relu_conv"
  type: "ReLU"
  bottom: "loss2/conv"
  top: "loss2/conv"
}
layer {
  name: "loss2/fc"
  type: "InnerProduct"
  bottom: "loss2/conv"
  top: "loss2/fc"
  param {
    lr_mult: 1
    decay_mult: 1
  }
  param {
    lr_mult: 2
    decay_mult: 0
  }
  inner_product_param {
    num_output: 1024
    weight_filler {
      type: "xavier"
      std: 0.02
    }
    bias_filler {
      type: "constant"
      value: 0.2
    }
  }
}
layer {
  name: "loss2/relu_fc"
  type: "ReLU"
  bottom: "loss2/fc"
  top: "loss2/fc"
}
layer {
  name: "loss2/drop_fc"
  type: "Dropout"
  bottom: "loss2/fc"
  top: "loss2/fc"
  dropout_param {
    dropout_ratio: 0.7
  }
}
layer {
  name: "loss2/classifier_plantvillage"
  type: "InnerProduct"
  bottom: "loss2/fc"
  top: "loss2/classifier_plantvillage"
  param {
    lr_mult: 1
    decay_mult: 1
  }
  param {
    lr_mult: 2
    decay_mult: 0
  }
  inner_product_param {
    num_output: 38
    weight_filler {
      type: "xavier"
      std: 0.0009765625
    }
    bias_filler {
      type: "constant"
      value: 0
    }
  }
}
layer {
  name: "inception_4e/1x1"
  type: "Convolution"
  bottom: "inception_4d/output"
  top: "inception_4e/1x1"
  param {
    lr_mult: 1
    decay_mult: 1
  }
  param {
    lr_mult: 2
    decay_mult: 0
  }
  convolution_param {
    num_output: 256
    kernel_size: 1
    weight_filler {
      type: "xavier"
      std: 0.03
    }
    bias_filler {
      type: "constant"
      value: 0.2
    }
  }
}
layer {
  name: "inception_4e/relu_1x1"
  type: "ReLU"
  bottom: "inception_4e/1x1"
  top: "inception_4e/1x1"
}
layer {
  name: "inception_4e/3x3_reduce"
  type: "Convolution"
  bottom: "inception_4d/output"
  top: "inception_4e/3x3_reduce"
  param {
    lr_mult: 1
    decay_mult: 1
  }
  param {
    lr_mult: 2
    decay_mult: 0
  }
  convolution_param {
    num_output: 160
    kernel_size: 1
    weight_filler {
      type: "xavier"
      std: 0.09
    }
    bias_filler {
      type: "constant"
      value: 0.2
    }
  }
}
layer {
  name: "inception_4e/relu_3x3_reduce"
  type: "ReLU"
  bottom: "inception_4e/3x3_reduce"
  top: "inception_4e/3x3_reduce"
}
layer {
  name: "inception_4e/3x3"
  type: "Convolution"
  bottom: "inception_4e/3x3_reduce"
  top: "inception_4e/3x3"
  param {
    lr_mult: 1
    decay_mult: 1
  }
  param {
    lr_mult: 2
    decay_mult: 0
  }
  convolution_param {
    num_output: 320
    pad: 1
    kernel_size: 3
    weight_filler {
      type: "xavier"
      std: 0.03
    }
    bias_filler {
      type: "constant"
      value: 0.2
    }
  }
}
layer {
  name: "inception_4e/relu_3x3"
  type: "ReLU"
  bottom: "inception_4e/3x3"
  top: "inception_4e/3x3"
}
layer {
  name: "inception_4e/5x5_reduce"
  type: "Convolution"
  bottom: "inception_4d/output"
  top: "inception_4e/5x5_reduce"
  param {
    lr_mult: 1
    decay_mult: 1
  }
  param {
    lr_mult: 2
    decay_mult: 0
  }
  convolution_param {
    num_output: 32
    kernel_size: 1
    weight_filler {
      type: "xavier"
      std: 0.2
    }
    bias_filler {
      type: "constant"
      value: 0.2
    }
  }
}
layer {
  name: "inception_4e/relu_5x5_reduce"
  type: "ReLU"
  bottom: "inception_4e/5x5_reduce"
  top: "inception_4e/5x5_reduce"
}
layer {
  name: "inception_4e/5x5"
  type: "Convolution"
  bottom: "inception_4e/5x5_reduce"
  top: "inception_4e/
I0403 18:05:50.749163 16160 layer_factory.hpp:77] Creating layer data
I0403 18:05:50.749770 16160 net.cpp:91] Creating Layer data
I0403 18:05:50.749802 16160 net.cpp:399] data -> data
I0403 18:05:50.749855 16160 net.cpp:399] data -> label
I0403 18:05:50.749892 16160 data_transformer.cpp:25] Loading mean file from: /home/mohanty/data/final_dataset/lmdb/grayscale-60-40/mean.binaryproto
I0403 18:05:50.751122 16164 db_lmdb.cpp:38] Opened lmdb /home/mohanty/data/final_dataset/lmdb/grayscale-60-40/test_db
I0403 18:05:50.763283 16160 data_layer.cpp:41] output data size: 24,3,224,224
I0403 18:05:50.790437 16160 net.cpp:141] Setting up data
I0403 18:05:50.790521 16160 net.cpp:148] Top shape: 24 3 224 224 (3612672)
I0403 18:05:50.790546 16160 net.cpp:148] Top shape: 24 (24)
I0403 18:05:50.790563 16160 net.cpp:156] Memory required for data: 14450784
I0403 18:05:50.790592 16160 layer_factory.hpp:77] Creating layer label_data_1_split
I0403 18:05:50.790622 16160 net.cpp:91] Creating Layer label_data_1_split
I0403 18:05:50.790642 16160 net.cpp:425] label_data_1_split <- label
I0403 18:05:50.790676 16160 net.cpp:399] label_data_1_split -> label_data_1_split_0
I0403 18:05:50.790706 16160 net.cpp:399] label_data_1_split -> label_data_1_split_1
I0403 18:05:50.790729 16160 net.cpp:399] label_data_1_split -> label_data_1_split_2
I0403 18:05:50.790752 16160 net.cpp:399] label_data_1_split -> label_data_1_split_3
I0403 18:05:50.790773 16160 net.cpp:399] label_data_1_split -> label_data_1_split_4
I0403 18:05:50.790796 16160 net.cpp:399] label_data_1_split -> label_data_1_split_5
I0403 18:05:50.790817 16160 net.cpp:399] label_data_1_split -> label_data_1_split_6
I0403 18:05:50.790839 16160 net.cpp:399] label_data_1_split -> label_data_1_split_7
I0403 18:05:50.790859 16160 net.cpp:399] label_data_1_split -> label_data_1_split_8
I0403 18:05:50.790881 16160 net.cpp:399] label_data_1_split -> label_data_1_split_9
I0403 18:05:50.791005 16160 net.cpp:141] Setting up label_data_1_split
I0403 18:05:50.791031 16160 net.cpp:148] Top shape: 24 (24)
I0403 18:05:50.791050 16160 net.cpp:148] Top shape: 24 (24)
I0403 18:05:50.791066 16160 net.cpp:148] Top shape: 24 (24)
I0403 18:05:50.791084 16160 net.cpp:148] Top shape: 24 (24)
I0403 18:05:50.791100 16160 net.cpp:148] Top shape: 24 (24)
I0403 18:05:50.791116 16160 net.cpp:148] Top shape: 24 (24)
I0403 18:05:50.791134 16160 net.cpp:148] Top shape: 24 (24)
I0403 18:05:50.791152 16160 net.cpp:148] Top shape: 24 (24)
I0403 18:05:50.791167 16160 net.cpp:148] Top shape: 24 (24)
I0403 18:05:50.791184 16160 net.cpp:148] Top shape: 24 (24)
I0403 18:05:50.791225 16160 net.cpp:156] Memory required for data: 14451744
I0403 18:05:50.791244 16160 layer_factory.hpp:77] Creating layer conv1/7x7_s2
I0403 18:05:50.791277 16160 net.cpp:91] Creating Layer conv1/7x7_s2
I0403 18:05:50.791297 16160 net.cpp:425] conv1/7x7_s2 <- data
I0403 18:05:50.791317 16160 net.cpp:399] conv1/7x7_s2 -> conv1/7x7_s2
I0403 18:05:50.931778 16160 net.cpp:141] Setting up conv1/7x7_s2
I0403 18:05:50.931859 16160 net.cpp:148] Top shape: 24 64 112 112 (19267584)
I0403 18:05:50.931876 16160 net.cpp:156] Memory required for data: 91522080
I0403 18:05:50.931907 16160 layer_factory.hpp:77] Creating layer conv1/relu_7x7
I0403 18:05:50.931938 16160 net.cpp:91] Creating Layer conv1/relu_7x7
I0403 18:05:50.931957 16160 net.cpp:425] conv1/relu_7x7 <- conv1/7x7_s2
I0403 18:05:50.931983 16160 net.cpp:386] conv1/relu_7x7 -> conv1/7x7_s2 (in-place)
I0403 18:05:50.932322 16160 net.cpp:141] Setting up conv1/relu_7x7
I0403 18:05:50.932349 16160 net.cpp:148] Top shape: 24 64 112 112 (19267584)
I0403 18:05:50.932365 16160 net.cpp:156] Memory required for data: 168592416
I0403 18:05:50.932380 16160 layer_factory.hpp:77] Creating layer pool1/3x3_s2
I0403 18:05:50.932410 16160 net.cpp:91] Creating Layer pool1/3x3_s2
I0403 18:05:50.932428 16160 net.cpp:425] pool1/3x3_s2 <- conv1/7x7_s2
I0403 18:05:50.932447 16160 net.cpp:399] pool1/3x3_s2 -> pool1/3x3_s2
I0403 18:05:50.932526 16160 net.cpp:141] Setting up pool1/3x3_s2
I0403 18:05:50.932550 16160 net.cpp:148] Top shape: 24 64 56 56 (4816896)
I0403 18:05:50.932566 16160 net.cpp:156] Memory required for data: 187860000
I0403 18:05:50.932581 16160 layer_factory.hpp:77] Creating layer pool1/norm1
I0403 18:05:50.932608 16160 net.cpp:91] Creating Layer pool1/norm1
I0403 18:05:50.932627 16160 net.cpp:425] pool1/norm1 <- pool1/3x3_s2
I0403 18:05:50.932646 16160 net.cpp:399] pool1/norm1 -> pool1/norm1
I0403 18:05:50.932958 16160 net.cpp:141] Setting up pool1/norm1
I0403 18:05:50.932991 16160 net.cpp:148] Top shape: 24 64 56 56 (4816896)
I0403 18:05:50.933007 16160 net.cpp:156] Memory required for data: 207127584
I0403 18:05:50.933023 16160 layer_factory.hpp:77] Creating layer conv2/3x3_reduce
I0403 18:05:50.933050 16160 net.cpp:91] Creating Layer conv2/3x3_reduce
I0403 18:05:50.933070 16160 net.cpp:425] conv2/3x3_reduce <- pool1/norm1
I0403 18:05:50.933092 16160 net.cpp:399] conv2/3x3_reduce -> conv2/3x3_reduce
I0403 18:05:50.934558 16160 net.cpp:141] Setting up conv2/3x3_reduce
I0403 18:05:50.934592 16160 net.cpp:148] Top shape: 24 64 56 56 (4816896)
I0403 18:05:50.934608 16160 net.cpp:156] Memory required for data: 226395168
I0403 18:05:50.934630 16160 layer_factory.hpp:77] Creating layer conv2/relu_3x3_reduce
I0403 18:05:50.934649 16160 net.cpp:91] Creating Layer conv2/relu_3x3_reduce
I0403 18:05:50.934665 16160 net.cpp:425] conv2/relu_3x3_reduce <- conv2/3x3_reduce
I0403 18:05:50.934685 16160 net.cpp:386] conv2/relu_3x3_reduce -> conv2/3x3_reduce (in-place)
I0403 18:05:50.934960 16160 net.cpp:141] Setting up conv2/relu_3x3_reduce
I0403 18:05:50.934993 16160 net.cpp:148] Top shape: 24 64 56 56 (4816896)
I0403 18:05:50.935010 16160 net.cpp:156] Memory required for data: 245662752
I0403 18:05:50.935026 16160 layer_factory.hpp:77] Creating layer conv2/3x3
I0403 18:05:50.935050 16160 net.cpp:91] Creating Layer conv2/3x3
I0403 18:05:50.935068 16160 net.cpp:425] conv2/3x3 <- conv2/3x3_reduce
I0403 18:05:50.935091 16160 net.cpp:399] conv2/3x3 -> conv2/3x3
I0403 18:05:50.937459 16160 net.cpp:141] Setting up conv2/3x3
I0403 18:05:50.937492 16160 net.cpp:148] Top shape: 24 192 56 56 (14450688)
I0403 18:05:50.937510 16160 net.cpp:156] Memory required for data: 303465504
I0403 18:05:50.937531 16160 layer_factory.hpp:77] Creating layer conv2/relu_3x3
I0403 18:05:50.937551 16160 net.cpp:91] Creating Layer conv2/relu_3x3
I0403 18:05:50.937640 16160 net.cpp:425] conv2/relu_3x3 <- conv2/3x3
I0403 18:05:50.937669 16160 net.cpp:386] conv2/relu_3x3 -> conv2/3x3 (in-place)
I0403 18:05:50.937850 16160 net.cpp:141] Setting up conv2/relu_3x3
I0403 18:05:50.937877 16160 net.cpp:148] Top shape: 24 192 56 56 (14450688)
I0403 18:05:50.937925 16160 net.cpp:156] Memory required for data: 361268256
I0403 18:05:50.937942 16160 layer_factory.hpp:77] Creating layer conv2/norm2
I0403 18:05:50.937963 16160 net.cpp:91] Creating Layer conv2/norm2
I0403 18:05:50.937991 16160 net.cpp:425] conv2/norm2 <- conv2/3x3
I0403 18:05:50.938012 16160 net.cpp:399] conv2/norm2 -> conv2/norm2
I0403 18:05:50.938328 16160 net.cpp:141] Setting up conv2/norm2
I0403 18:05:50.938357 16160 net.cpp:148] Top shape: 24 192 56 56 (14450688)
I0403 18:05:50.938374 16160 net.cpp:156] Memory required for data: 419071008
I0403 18:05:50.938390 16160 layer_factory.hpp:77] Creating layer pool2/3x3_s2
I0403 18:05:50.938407 16160 net.cpp:91] Creating Layer pool2/3x3_s2
I0403 18:05:50.938424 16160 net.cpp:425] pool2/3x3_s2 <- conv2/norm2
I0403 18:05:50.938442 16160 net.cpp:399] pool2/3x3_s2 -> pool2/3x3_s2
I0403 18:05:50.938498 16160 net.cpp:141] Setting up pool2/3x3_s2
I0403 18:05:50.938521 16160 net.cpp:148] Top shape: 24 192 28 28 (3612672)
I0403 18:05:50.938536 16160 net.cpp:156] Memory required for data: 433521696
I0403 18:05:50.938551 16160 layer_factory.hpp:77] Creating layer pool2/3x3_s2_pool2/3x3_s2_0_split
I0403 18:05:50.938570 16160 net.cpp:91] Creating Layer pool2/3x3_s2_pool2/3x3_s2_0_split
I0403 18:05:50.938585 16160 net.cpp:425] pool2/3x3_s2_pool2/3x3_s2_0_split <- pool2/3x3_s2
I0403 18:05:50.938604 16160 net.cpp:399] pool2/3x3_s2_pool2/3x3_s2_0_split -> pool2/3x3_s2_pool2/3x3_s2_0_split_0
I0403 18:05:50.938627 16160 net.cpp:399] pool2/3x3_s2_pool2/3x3_s2_0_split -> pool2/3x3_s2_pool2/3x3_s2_0_split_1
I0403 18:05:50.938647 16160 net.cpp:399] pool2/3x3_s2_pool2/3x3_s2_0_split -> pool2/3x3_s2_pool2/3x3_s2_0_split_2
I0403 18:05:50.938669 16160 net.cpp:399] pool2/3x3_s2_pool2/3x3_s2_0_split -> pool2/3x3_s2_pool2/3x3_s2_0_split_3
I0403 18:05:50.938740 16160 net.cpp:141] Setting up pool2/3x3_s2_pool2/3x3_s2_0_split
I0403 18:05:50.938763 16160 net.cpp:148] Top shape: 24 192 28 28 (3612672)
I0403 18:05:50.938781 16160 net.cpp:148] Top shape: 24 192 28 28 (3612672)
I0403 18:05:50.938796 16160 net.cpp:148] Top shape: 24 192 28 28 (3612672)
I0403 18:05:50.938812 16160 net.cpp:148] Top shape: 24 192 28 28 (3612672)
I0403 18:05:50.938825 16160 net.cpp:156] Memory required for data: 491324448
I0403 18:05:50.938839 16160 layer_factory.hpp:77] Creating layer inception_3a/1x1
I0403 18:05:50.938863 16160 net.cpp:91] Creating Layer inception_3a/1x1
I0403 18:05:50.938881 16160 net.cpp:425] inception_3a/1x1 <- pool2/3x3_s2_pool2/3x3_s2_0_split_0
I0403 18:05:50.938902 16160 net.cpp:399] inception_3a/1x1 -> inception_3a/1x1
I0403 18:05:50.940536 16160 net.cpp:141] Setting up inception_3a/1x1
I0403 18:05:50.940568 16160 net.cpp:148] Top shape: 24 64 28 28 (1204224)
I0403 18:05:50.940585 16160 net.cpp:156] Memory required for data: 496141344
I0403 18:05:50.940604 16160 layer_factory.hpp:77] Creating layer inception_3a/relu_1x1
I0403 18:05:50.940624 16160 net.cpp:91] Creating Layer inception_3a/relu_1x1
I0403 18:05:50.940640 16160 net.cpp:425] inception_3a/relu_1x1 <- inception_3a/1x1
I0403 18:05:50.940661 16160 net.cpp:386] inception_3a/relu_1x1 -> inception_3a/1x1 (in-place)
I0403 18:05:50.940841 16160 net.cpp:141] Setting up inception_3a/relu_1x1
I0403 18:05:50.940867 16160 net.cpp:148] Top shape: 24 64 28 28 (1204224)
I0403 18:05:50.940883 16160 net.cpp:156] Memory required for data: 500958240
I0403 18:05:50.940898 16160 layer_factory.hpp:77] Creating layer inception_3a/3x3_reduce
I0403 18:05:50.940922 16160 net.cpp:91] Creating Layer inception_3a/3x3_reduce
I0403 18:05:50.940940 16160 net.cpp:425] inception_3a/3x3_reduce <- pool2/3x3_s2_pool2/3x3_s2_0_split_1
I0403 18:05:50.940961 16160 net.cpp:399] inception_3a/3x3_reduce -> inception_3a/3x3_reduce
I0403 18:05:50.942718 16160 net.cpp:141] Setting up inception_3a/3x3_reduce
I0403 18:05:50.942749 16160 net.cpp:148] Top shape: 24 96 28 28 (1806336)
I0403 18:05:50.942766 16160 net.cpp:156] Memory required for data: 508183584
I0403 18:05:50.942788 16160 layer_factory.hpp:77] Creating layer inception_3a/relu_3x3_reduce
I0403 18:05:50.942826 16160 net.cpp:91] Creating Layer inception_3a/relu_3x3_reduce
I0403 18:05:50.942843 16160 net.cpp:425] inception_3a/relu_3x3_reduce <- inception_3a/3x3_reduce
I0403 18:05:50.942864 16160 net.cpp:386] inception_3a/relu_3x3_reduce -> inception_3a/3x3_reduce (in-place)
I0403 18:05:50.943053 16160 net.cpp:141] Setting up inception_3a/relu_3x3_reduce
I0403 18:05:50.943121 16160 net.cpp:148] Top shape: 24 96 28 28 (1806336)
I0403 18:05:50.943142 16160 net.cpp:156] Memory required for data: 515408928
I0403 18:05:50.943158 16160 layer_factory.hpp:77] Creating layer inception_3a/3x3
I0403 18:05:50.943182 16160 net.cpp:91] Creating Layer inception_3a/3x3
I0403 18:05:50.943200 16160 net.cpp:425] inception_3a/3x3 <- inception_3a/3x3_reduce
I0403 18:05:50.943220 16160 net.cpp:399] inception_3a/3x3 -> inception_3a/3x3
I0403 18:05:50.944918 16160 net.cpp:141] Setting up inception_3a/3x3
I0403 18:05:50.944947 16160 net.cpp:148] Top shape: 24 128 28 28 (2408448)
I0403 18:05:50.944962 16160 net.cpp:156] Memory required for data: 525042720
I0403 18:05:50.944985 16160 layer_factory.hpp:77] Creating layer inception_3a/relu_3x3
I0403 18:05:50.945005 16160 net.cpp:91] Creating Layer inception_3a/relu_3x3
I0403 18:05:50.945024 16160 net.cpp:425] inception_3a/relu_3x3 <- inception_3a/3x3
I0403 18:05:50.945045 16160 net.cpp:386] inception_3a/relu_3x3 -> inception_3a/3x3 (in-place)
I0403 18:05:50.945329 16160 net.cpp:141] Setting up inception_3a/relu_3x3
I0403 18:05:50.945355 16160 net.cpp:148] Top shape: 24 128 28 28 (2408448)
I0403 18:05:50.945370 16160 net.cpp:156] Memory required for data: 534676512
I0403 18:05:50.945385 16160 layer_factory.hpp:77] Creating layer inception_3a/5x5_reduce
I0403 18:05:50.945407 16160 net.cpp:91] Creating Layer inception_3a/5x5_reduce
I0403 18:05:50.945425 16160 net.cpp:425] inception_3a/5x5_reduce <- pool2/3x3_s2_pool2/3x3_s2_0_split_2
I0403 18:05:50.945446 16160 net.cpp:399] inception_3a/5x5_reduce -> inception_3a/5x5_reduce
I0403 18:05:50.946403 16160 net.cpp:141] Setting up inception_3a/5x5_reduce
I0403 18:05:50.946431 16160 net.cpp:148] Top shape: 24 16 28 28 (301056)
I0403 18:05:50.946446 16160 net.cpp:156] Memory required for data: 535880736
I0403 18:05:50.946465 16160 layer_factory.hpp:77] Creating layer inception_3a/relu_5x5_reduce
I0403 18:05:50.946485 16160 net.cpp:91] Creating Layer inception_3a/relu_5x5_reduce
I0403 18:05:50.946502 16160 net.cpp:425] inception_3a/relu_5x5_reduce <- inception_3a/5x5_reduce
I0403 18:05:50.946521 16160 net.cpp:386] inception_3a/relu_5x5_reduce -> inception_3a/5x5_reduce (in-place)
I0403 18:05:50.946821 16160 net.cpp:141] Setting up inception_3a/relu_5x5_reduce
I0403 18:05:50.946847 16160 net.cpp:148] Top shape: 24 16 28 28 (301056)
I0403 18:05:50.946862 16160 net.cpp:156] Memory required for data: 537084960
I0403 18:05:50.946877 16160 layer_factory.hpp:77] Creating layer inception_3a/5x5
I0403 18:05:50.946900 16160 net.cpp:91] Creating Layer inception_3a/5x5
I0403 18:05:50.946918 16160 net.cpp:425] inception_3a/5x5 <- inception_3a/5x5_reduce
I0403 18:05:50.946939 16160 net.cpp:399] inception_3a/5x5 -> inception_3a/5x5
I0403 18:05:50.947947 16160 net.cpp:141] Setting up inception_3a/5x5
I0403 18:05:50.947975 16160 net.cpp:148] Top shape: 24 32 28 28 (602112)
I0403 18:05:50.948002 16160 net.cpp:156] Memory required for data: 539493408
I0403 18:05:50.948022 16160 layer_factory.hpp:77] Creating layer inception_3a/relu_5x5
I0403 18:05:50.948040 16160 net.cpp:91] Creating Layer inception_3a/relu_5x5
I0403 18:05:50.948057 16160 net.cpp:425] inception_3a/relu_5x5 <- inception_3a/5x5
I0403 18:05:50.948077 16160 net.cpp:386] inception_3a/relu_5x5 -> inception_3a/5x5 (in-place)
I0403 18:05:50.948251 16160 net.cpp:141] Setting up inception_3a/relu_5x5
I0403 18:05:50.948276 16160 net.cpp:148] Top shape: 24 32 28 28 (602112)
I0403 18:05:50.948290 16160 net.cpp:156] Memory required for data: 541901856
I0403 18:05:50.948305 16160 layer_factory.hpp:77] Creating layer inception_3a/pool
I0403 18:05:50.948323 16160 net.cpp:91] Creating Layer inception_3a/pool
I0403 18:05:50.948353 16160 net.cpp:425] inception_3a/pool <- pool2/3x3_s2_pool2/3x3_s2_0_split_3
I0403 18:05:50.948374 16160 net.cpp:399] inception_3a/pool -> inception_3a/pool
I0403 18:05:50.948431 16160 net.cpp:141] Setting up inception_3a/pool
I0403 18:05:50.948454 16160 net.cpp:148] Top shape: 24 192 28 28 (3612672)
I0403 18:05:50.948468 16160 net.cpp:156] Memory required for data: 556352544
I0403 18:05:50.948483 16160 layer_factory.hpp:77] Creating layer inception_3a/pool_proj
I0403 18:05:50.948508 16160 net.cpp:91] Creating Layer inception_3a/pool_proj
I0403 18:05:50.948525 16160 net.cpp:425] inception_3a/pool_proj <- inception_3a/pool
I0403 18:05:50.948547 16160 net.cpp:399] inception_3a/pool_proj -> inception_3a/pool_proj
I0403 18:05:50.949508 16160 net.cpp:141] Setting up inception_3a/pool_proj
I0403 18:05:50.949537 16160 net.cpp:148] Top shape: 24 32 28 28 (602112)
I0403 18:05:50.949551 16160 net.cpp:156] Memory required for data: 558760992
I0403 18:05:50.949575 16160 layer_factory.hpp:77] Creating layer inception_3a/relu_pool_proj
I0403 18:05:50.949597 16160 net.cpp:91] Creating Layer inception_3a/relu_pool_proj
I0403 18:05:50.949615 16160 net.cpp:425] inception_3a/relu_pool_proj <- inception_3a/pool_proj
I0403 18:05:50.949632 16160 net.cpp:386] inception_3a/relu_pool_proj -> inception_3a/pool_proj (in-place)
I0403 18:05:50.949905 16160 net.cpp:141] Setting up inception_3a/relu_pool_proj
I0403 18:05:50.949934 16160 net.cpp:148] Top shape: 24 32 28 28 (602112)
I0403 18:05:50.949949 16160 net.cpp:156] Memory required for data: 561169440
I0403 18:05:50.949962 16160 layer_factory.hpp:77] Creating layer inception_3a/output
I0403 18:05:50.949985 16160 net.cpp:91] Creating Layer inception_3a/output
I0403 18:05:50.950001 16160 net.cpp:425] inception_3a/output <- inception_3a/1x1
I0403 18:05:50.950018 16160 net.cpp:425] inception_3a/output <- inception_3a/3x3
I0403 18:05:50.950034 16160 net.cpp:425] inception_3a/output <- inception_3a/5x5
I0403 18:05:50.950049 16160 net.cpp:425] inception_3a/output <- inception_3a/pool_proj
I0403 18:05:50.950068 16160 net.cpp:399] inception_3a/output -> inception_3a/output
I0403 18:05:50.950114 16160 net.cpp:141] Setting up inception_3a/output
I0403 18:05:50.950136 16160 net.cpp:148] Top shape: 24 256 28 28 (4816896)
I0403 18:05:50.950151 16160 net.cpp:156] Memory required for data: 580437024
I0403 18:05:50.950165 16160 layer_factory.hpp:77] Creating layer inception_3a/output_inception_3a/output_0_split
I0403 18:05:50.950186 16160 net.cpp:91] Creating Layer inception_3a/output_inception_3a/output_0_split
I0403 18:05:50.950201 16160 net.cpp:425] inception_3a/output_inception_3a/output_0_split <- inception_3a/output
I0403 18:05:50.950217 16160 net.cpp:399] inception_3a/output_inception_3a/output_0_split -> inception_3a/output_inception_3a/output_0_split_0
I0403 18:05:50.950239 16160 net.cpp:399] inception_3a/output_inception_3a/output_0_split -> inception_3a/output_inception_3a/output_0_split_1
I0403 18:05:50.950263 16160 net.cpp:399] inception_3a/output_inception_3a/output_0_split -> inception_3a/output_inception_3a/output_0_split_2
I0403 18:05:50.950283 16160 net.cpp:399] inception_3a/output_inception_3a/output_0_split -> inception_3a/output_inception_3a/output_0_split_3
I0403 18:05:50.950355 16160 net.cpp:141] Setting up inception_3a/output_inception_3a/output_0_split
I0403 18:05:50.950379 16160 net.cpp:148] Top shape: 24 256 28 28 (4816896)
I0403 18:05:50.950397 16160 net.cpp:148] Top shape: 24 256 28 28 (4816896)
I0403 18:05:50.950412 16160 net.cpp:148] Top shape: 24 256 28 28 (4816896)
I0403 18:05:50.950428 16160 net.cpp:148] Top shape: 24 256 28 28 (4816896)
I0403 18:05:50.950440 16160 net.cpp:156] Memory required for data: 657507360
I0403 18:05:50.950455 16160 layer_factory.hpp:77] Creating layer inception_3b/1x1
I0403 18:05:50.950480 16160 net.cpp:91] Creating Layer inception_3b/1x1
I0403 18:05:50.950497 16160 net.cpp:425] inception_3b/1x1 <- inception_3a/output_inception_3a/output_0_split_0
I0403 18:05:50.950518 16160 net.cpp:399] inception_3b/1x1 -> inception_3b/1x1
I0403 18:05:50.951639 16160 net.cpp:141] Setting up inception_3b/1x1
I0403 18:05:50.951680 16160 net.cpp:148] Top shape: 24 128 28 28 (2408448)
I0403 18:05:50.951697 16160 net.cpp:156] Memory required for data: 667141152
I0403 18:05:50.951716 16160 layer_factory.hpp:77] Creating layer inception_3b/relu_1x1
I0403 18:05:50.951735 16160 net.cpp:91] Creating Layer inception_3b/relu_1x1
I0403 18:05:50.951750 16160 net.cpp:425] inception_3b/relu_1x1 <- inception_3b/1x1
I0403 18:05:50.951767 16160 net.cpp:386] inception_3b/relu_1x1 -> inception_3b/1x1 (in-place)
I0403 18:05:50.951943 16160 net.cpp:141] Setting up inception_3b/relu_1x1
I0403 18:05:50.951967 16160 net.cpp:148] Top shape: 24 128 28 28 (2408448)
I0403 18:05:50.951987 16160 net.cpp:156] Memory required for data: 676774944
I0403 18:05:50.952003 16160 layer_factory.hpp:77] Creating layer inception_3b/3x3_reduce
I0403 18:05:50.952025 16160 net.cpp:91] Creating Layer inception_3b/3x3_reduce
I0403 18:05:50.952044 16160 net.cpp:425] inception_3b/3x3_reduce <- inception_3a/output_inception_3a/output_0_split_1
I0403 18:05:50.952064 16160 net.cpp:399] inception_3b/3x3_reduce -> inception_3b/3x3_reduce
I0403 18:05:50.953189 16160 net.cpp:141] Setting up inception_3b/3x3_reduce
I0403 18:05:50.953219 16160 net.cpp:148] Top shape: 24 128 28 28 (2408448)
I0403 18:05:50.953236 16160 net.cpp:156] Memory required for data: 686408736
I0403 18:05:50.953254 16160 layer_factory.hpp:77] Creating layer inception_3b/relu_3x3_reduce
I0403 18:05:50.953272 16160 net.cpp:91] Creating Layer inception_3b/relu_3x3_reduce
I0403 18:05:50.953289 16160 net.cpp:425] inception_3b/relu_3x3_reduce <- inception_3b/3x3_reduce
I0403 18:05:50.953308 16160 net.cpp:386] inception_3b/relu_3x3_reduce -> inception_3b/3x3_reduce (in-place)
I0403 18:05:50.953481 16160 net.cpp:141] Setting up inception_3b/relu_3x3_reduce
I0403 18:05:50.953506 16160 net.cpp:148] Top shape: 24 128 28 28 (2408448)
I0403 18:05:50.953521 16160 net.cpp:156] Memory required for data: 696042528
I0403 18:05:50.953536 16160 layer_factory.hpp:77] Creating layer inception_3b/3x3
I0403 18:05:50.953562 16160 net.cpp:91] Creating Layer inception_3b/3x3
I0403 18:05:50.953579 16160 net.cpp:425] inception_3b/3x3 <- inception_3b/3x3_reduce
I0403 18:05:50.953599 16160 net.cpp:399] inception_3b/3x3 -> inception_3b/3x3
I0403 18:05:50.956482 16160 net.cpp:141] Setting up inception_3b/3x3
I0403 18:05:50.956512 16160 net.cpp:148] Top shape: 24 192 28 28 (3612672)
I0403 18:05:50.956527 16160 net.cpp:156] Memory required for data: 710493216
I0403 18:05:50.956545 16160 layer_factory.hpp:77] Creating layer inception_3b/relu_3x3
I0403 18:05:50.956563 16160 net.cpp:91] Creating Layer inception_3b/relu_3x3
I0403 18:05:50.956579 16160 net.cpp:425] inception_3b/relu_3x3 <- inception_3b/3x3
I0403 18:05:50.956599 16160 net.cpp:386] inception_3b/relu_3x3 -> inception_3b/3x3 (in-place)
I0403 18:05:50.956873 16160 net.cpp:141] Setting up inception_3b/relu_3x3
I0403 18:05:50.956899 16160 net.cpp:148] Top shape: 24 192 28 28 (3612672)
I0403 18:05:50.956914 16160 net.cpp:156] Memory required for data: 724943904
I0403 18:05:50.956931 16160 layer_factory.hpp:77] Creating layer inception_3b/5x5_reduce
I0403 18:05:50.956966 16160 net.cpp:91] Creating Layer inception_3b/5x5_reduce
I0403 18:05:50.956990 16160 net.cpp:425] inception_3b/5x5_reduce <- inception_3a/output_inception_3a/output_0_split_2
I0403 18:05:50.957012 16160 net.cpp:399] inception_3b/5x5_reduce -> inception_3b/5x5_reduce
I0403 18:05:50.958020 16160 net.cpp:141] Setting up inception_3b/5x5_reduce
I0403 18:05:50.958050 16160 net.cpp:148] Top shape: 24 32 28 28 (602112)
I0403 18:05:50.958066 16160 net.cpp:156] Memory required for data: 727352352
I0403 18:05:50.958086 16160 layer_factory.hpp:77] Creating layer inception_3b/relu_5x5_reduce
I0403 18:05:50.958104 16160 net.cpp:91] Creating Layer inception_3b/relu_5x5_reduce
I0403 18:05:50.958120 16160 net.cpp:425] inception_3b/relu_5x5_reduce <- inception_3b/5x5_reduce
I0403 18:05:50.958140 16160 net.cpp:386] inception_3b/relu_5x5_reduce -> inception_3b/5x5_reduce (in-place)
I0403 18:05:50.958333 16160 net.cpp:141] Setting up inception_3b/relu_5x5_reduce
I0403 18:05:50.958359 16160 net.cpp:148] Top shape: 24 32 28 28 (602112)
I0403 18:05:50.958372 16160 net.cpp:156] Memory required for data: 729760800
I0403 18:05:50.958387 16160 layer_factory.hpp:77] Creating layer inception_3b/5x5
I0403 18:05:50.958410 16160 net.cpp:91] Creating Layer inception_3b/5x5
I0403 18:05:50.958427 16160 net.cpp:425] inception_3b/5x5 <- inception_3b/5x5_reduce
I0403 18:05:50.958447 16160 net.cpp:399] inception_3b/5x5 -> inception_3b/5x5
I0403 18:05:50.960407 16160 net.cpp:141] Setting up inception_3b/5x5
I0403 18:05:50.960434 16160 net.cpp:148] Top shape: 24 96 28 28 (1806336)
I0403 18:05:50.960450 16160 net.cpp:156] Memory required for data: 736986144
I0403 18:05:50.960469 16160 layer_factory.hpp:77] Creating layer inception_3b/relu_5x5
I0403 18:05:50.960489 16160 net.cpp:91] Creating Layer inception_3b/relu_5x5
I0403 18:05:50.960505 16160 net.cpp:425] inception_3b/relu_5x5 <- inception_3b/5x5
I0403 18:05:50.960522 16160 net.cpp:386] inception_3b/relu_5x5 -> inception_3b/5x5 (in-place)
I0403 18:05:50.960713 16160 net.cpp:141] Setting up inception_3b/relu_5x5
I0403 18:05:50.960738 16160 net.cpp:148] Top shape: 24 96 28 28 (1806336)
I0403 18:05:50.960753 16160 net.cpp:156] Memory required for data: 744211488
I0403 18:05:50.960767 16160 layer_factory.hpp:77] Creating layer inception_3b/pool
I0403 18:05:50.960785 16160 net.cpp:91] Creating Layer inception_3b/pool
I0403 18:05:50.960801 16160 net.cpp:425] inception_3b/pool <- inception_3a/output_inception_3a/output_0_split_3
I0403 18:05:50.960819 16160 net.cpp:399] inception_3b/pool -> inception_3b/pool
I0403 18:05:50.960875 16160 net.cpp:141] Setting up inception_3b/pool
I0403 18:05:50.960896 16160 net.cpp:148] Top shape: 24 256 28 28 (4816896)
I0403 18:05:50.960911 16160 net.cpp:156] Memory required for data: 763479072
I0403 18:05:50.960928 16160 layer_factory.hpp:77] Creating layer inception_3b/pool_proj
I0403 18:05:50.960952 16160 net.cpp:91] Creating Layer inception_3b/pool_proj
I0403 18:05:50.960970 16160 net.cpp:425] inception_3b/pool_proj <- inception_3b/pool
I0403 18:05:50.960994 16160 net.cpp:399] inception_3b/pool_proj -> inception_3b/pool_proj
I0403 18:05:50.962059 16160 net.cpp:141] Setting up inception_3b/pool_proj
I0403 18:05:50.962086 16160 net.cpp:148] Top shape: 24 64 28 28 (1204224)
I0403 18:05:50.962102 16160 net.cpp:156] Memory required for data: 768295968
I0403 18:05:50.962119 16160 layer_factory.hpp:77] Creating layer inception_3b/relu_pool_proj
I0403 18:05:50.962139 16160 net.cpp:91] Creating Layer inception_3b/relu_pool_proj
I0403 18:05:50.962157 16160 net.cpp:425] inception_3b/relu_pool_proj <- inception_3b/pool_proj
I0403 18:05:50.962174 16160 net.cpp:386] inception_3b/relu_pool_proj -> inception_3b/pool_proj (in-place)
I0403 18:05:50.962577 16160 net.cpp:141] Setting up inception_3b/relu_pool_proj
I0403 18:05:50.962604 16160 net.cpp:148] Top shape: 24 64 28 28 (1204224)
I0403 18:05:50.962618 16160 net.cpp:156] Memory required for data: 773112864
I0403 18:05:50.962633 16160 layer_factory.hpp:77] Creating layer inception_3b/output
I0403 18:05:50.962651 16160 net.cpp:91] Creating Layer inception_3b/output
I0403 18:05:50.962666 16160 net.cpp:425] inception_3b/output <- inception_3b/1x1
I0403 18:05:50.962682 16160 net.cpp:425] inception_3b/output <- inception_3b/3x3
I0403 18:05:50.962702 16160 net.cpp:425] inception_3b/output <- inception_3b/5x5
I0403 18:05:50.962718 16160 net.cpp:425] inception_3b/output <- inception_3b/pool_proj
I0403 18:05:50.962734 16160 net.cpp:399] inception_3b/output -> inception_3b/output
I0403 18:05:50.962776 16160 net.cpp:141] Setting up inception_3b/output
I0403 18:05:50.962801 16160 net.cpp:148] Top shape: 24 480 28 28 (9031680)
I0403 18:05:50.962816 16160 net.cpp:156] Memory required for data: 809239584
I0403 18:05:50.962831 16160 layer_factory.hpp:77] Creating layer pool3/3x3_s2
I0403 18:05:50.962848 16160 net.cpp:91] Creating Layer pool3/3x3_s2
I0403 18:05:50.962863 16160 net.cpp:425] pool3/3x3_s2 <- inception_3b/output
I0403 18:05:50.962898 16160 net.cpp:399] pool3/3x3_s2 -> pool3/3x3_s2
I0403 18:05:50.962956 16160 net.cpp:141] Setting up pool3/3x3_s2
I0403 18:05:50.962985 16160 net.cpp:148] Top shape: 24 480 14 14 (2257920)
I0403 18:05:50.963002 16160 net.cpp:156] Memory required for data: 818271264
I0403 18:05:50.963017 16160 layer_factory.hpp:77] Creating layer pool3/3x3_s2_pool3/3x3_s2_0_split
I0403 18:05:50.963034 16160 net.cpp:91] Creating Layer pool3/3x3_s2_pool3/3x3_s2_0_split
I0403 18:05:50.963049 16160 net.cpp:425] pool3/3x3_s2_pool3/3x3_s2_0_split <- pool3/3x3_s2
I0403 18:05:50.963065 16160 net.cpp:399] pool3/3x3_s2_pool3/3x3_s2_0_split -> pool3/3x3_s2_pool3/3x3_s2_0_split_0
I0403 18:05:50.963084 16160 net.cpp:399] pool3/3x3_s2_pool3/3x3_s2_0_split -> pool3/3x3_s2_pool3/3x3_s2_0_split_1
I0403 18:05:50.963104 16160 net.cpp:399] pool3/3x3_s2_pool3/3x3_s2_0_split -> pool3/3x3_s2_pool3/3x3_s2_0_split_2
I0403 18:05:50.963125 16160 net.cpp:399] pool3/3x3_s2_pool3/3x3_s2_0_split -> pool3/3x3_s2_pool3/3x3_s2_0_split_3
I0403 18:05:50.963202 16160 net.cpp:141] Setting up pool3/3x3_s2_pool3/3x3_s2_0_split
I0403 18:05:50.963224 16160 net.cpp:148] Top shape: 24 480 14 14 (2257920)
I0403 18:05:50.963240 16160 net.cpp:148] Top shape: 24 480 14 14 (2257920)
I0403 18:05:50.963255 16160 net.cpp:148] Top shape: 24 480 14 14 (2257920)
I0403 18:05:50.963271 16160 net.cpp:148] Top shape: 24 480 14 14 (2257920)
I0403 18:05:50.963284 16160 net.cpp:156] Memory required for data: 854397984
I0403 18:05:50.963299 16160 layer_factory.hpp:77] Creating layer inception_4a/1x1
I0403 18:05:50.963321 16160 net.cpp:91] Creating Layer inception_4a/1x1
I0403 18:05:50.963338 16160 net.cpp:425] inception_4a/1x1 <- pool3/3x3_s2_pool3/3x3_s2_0_split_0
I0403 18:05:50.963359 16160 net.cpp:399] inception_4a/1x1 -> inception_4a/1x1
I0403 18:05:50.964915 16160 net.cpp:141] Setting up inception_4a/1x1
I0403 18:05:50.964942 16160 net.cpp:148] Top shape: 24 192 14 14 (903168)
I0403 18:05:50.964958 16160 net.cpp:156] Memory required for data: 858010656
I0403 18:05:50.964977 16160 layer_factory.hpp:77] Creating layer inception_4a/relu_1x1
I0403 18:05:50.965001 16160 net.cpp:91] Creating Layer inception_4a/relu_1x1
I0403 18:05:50.965019 16160 net.cpp:425] inception_4a/relu_1x1 <- inception_4a/1x1
I0403 18:05:50.965037 16160 net.cpp:386] inception_4a/relu_1x1 -> inception_4a/1x1 (in-place)
I0403 18:05:50.965212 16160 net.cpp:141] Setting up inception_4a/relu_1x1
I0403 18:05:50.965242 16160 net.cpp:148] Top shape: 24 192 14 14 (903168)
I0403 18:05:50.965260 16160 net.cpp:156] Memory required for data: 861623328
I0403 18:05:50.965276 16160 layer_factory.hpp:77] Creating layer inception_4a/3x3_reduce
I0403 18:05:50.965297 16160 net.cpp:91] Creating Layer inception_4a/3x3_reduce
I0403 18:05:50.965315 16160 net.cpp:425] inception_4a/3x3_reduce <- pool3/3x3_s2_pool3/3x3_s2_0_split_1
I0403 18:05:50.965334 16160 net.cpp:399] inception_4a/3x3_reduce -> inception_4a/3x3_reduce
I0403 18:05:50.966603 16160 net.cpp:141] Setting up inception_4a/3x3_reduce
I0403 18:05:50.966631 16160 net.cpp:148] Top shape: 24 96 14 14 (451584)
I0403 18:05:50.966647 16160 net.cpp:156] Memory required for data: 863429664
I0403 18:05:50.966671 16160 layer_factory.hpp:77] Creating layer inception_4a/relu_3x3_reduce
I0403 18:05:50.966691 16160 net.cpp:91] Creating Layer inception_4a/relu_3x3_reduce
I0403 18:05:50.966707 16160 net.cpp:425] inception_4a/relu_3x3_reduce <- inception_4a/3x3_reduce
I0403 18:05:50.966727 16160 net.cpp:386] inception_4a/relu_3x3_reduce -> inception_4a/3x3_reduce (in-place)
I0403 18:05:50.966904 16160 net.cpp:141] Setting up inception_4a/relu_3x3_reduce
I0403 18:05:50.966933 16160 net.cpp:148] Top shape: 24 96 14 14 (451584)
I0403 18:05:50.966948 16160 net.cpp:156] Memory required for data: 865236000
I0403 18:05:50.966964 16160 layer_factory.hpp:77] Creating layer inception_4a/3x3
I0403 18:05:50.966989 16160 net.cpp:91] Creating Layer inception_4a/3x3
I0403 18:05:50.967008 16160 net.cpp:425] inception_4a/3x3 <- inception_4a/3x3_reduce
I0403 18:05:50.967027 16160 net.cpp:399] inception_4a/3x3 -> inception_4a/3x3
I0403 18:05:50.969693 16160 net.cpp:141] Setting up inception_4a/3x3
I0403 18:05:50.969724 16160 net.cpp:148] Top shape: 24 208 14 14 (978432)
I0403 18:05:50.969741 16160 net.cpp:156] Memory required for data: 869149728
I0403 18:05:50.969760 16160 layer_factory.hpp:77] Creating layer inception_4a/relu_3x3
I0403 18:05:50.969779 16160 net.cpp:91] Creating Layer inception_4a/relu_3x3
I0403 18:05:50.969795 16160 net.cpp:425] inception_4a/relu_3x3 <- inception_4a/3x3
I0403 18:05:50.969817 16160 net.cpp:386] inception_4a/relu_3x3 -> inception_4a/3x3 (in-place)
I0403 18:05:50.970101 16160 net.cpp:141] Setting up inception_4a/relu_3x3
I0403 18:05:50.970129 16160 net.cpp:148] Top shape: 24 208 14 14 (978432)
I0403 18:05:50.970145 16160 net.cpp:156] Memory required for data: 873063456
I0403 18:05:50.970160 16160 layer_factory.hpp:77] Creating layer inception_4a/5x5_reduce
I0403 18:05:50.970185 16160 net.cpp:91] Creating Layer inception_4a/5x5_reduce
I0403 18:05:50.970203 16160 net.cpp:425] inception_4a/5x5_reduce <- pool3/3x3_s2_pool3/3x3_s2_0_split_2
I0403 18:05:50.970222 16160 net.cpp:399] inception_4a/5x5_reduce -> inception_4a/5x5_reduce
I0403 18:05:50.971256 16160 net.cpp:141] Setting up inception_4a/5x5_reduce
I0403 18:05:50.971287 16160 net.cpp:148] Top shape: 24 16 14 14 (75264)
I0403 18:05:50.971304 16160 net.cpp:156] Memory required for data: 873364512
I0403 18:05:50.971323 16160 layer_factory.hpp:77] Creating layer inception_4a/relu_5x5_reduce
I0403 18:05:50.971341 16160 net.cpp:91] Creating Layer inception_4a/relu_5x5_reduce
I0403 18:05:50.971359 16160 net.cpp:425] inception_4a/relu_5x5_reduce <- inception_4a/5x5_reduce
I0403 18:05:50.971379 16160 net.cpp:386] inception_4a/relu_5x5_reduce -> inception_4a/5x5_reduce (in-place)
I0403 18:05:50.971572 16160 net.cpp:141] Setting up inception_4a/relu_5x5_reduce
I0403 18:05:50.971597 16160 net.cpp:148] Top shape: 24 16 14 14 (75264)
I0403 18:05:50.971611 16160 net.cpp:156] Memory required for data: 873665568
I0403 18:05:50.971626 16160 layer_factory.hpp:77] Creating layer inception_4a/5x5
I0403 18:05:50.971649 16160 net.cpp:91] Creating Layer inception_4a/5x5
I0403 18:05:50.971667 16160 net.cpp:425] inception_4a/5x5 <- inception_4a/5x5_reduce
I0403 18:05:50.971688 16160 net.cpp:399] inception_4a/5x5 -> inception_4a/5x5
I0403 18:05:50.972805 16160 net.cpp:141] Setting up inception_4a/5x5
I0403 18:05:50.972832 16160 net.cpp:148] Top shape: 24 48 14 14 (225792)
I0403 18:05:50.972847 16160 net.cpp:156] Memory required for data: 874568736
I0403 18:05:50.972867 16160 layer_factory.hpp:77] Creating layer inception_4a/relu_5x5
I0403 18:05:50.972887 16160 net.cpp:91] Creating Layer inception_4a/relu_5x5
I0403 18:05:50.972903 16160 net.cpp:425] inception_4a/relu_5x5 <- inception_4a/5x5
I0403 18:05:50.972920 16160 net.cpp:386] inception_4a/relu_5x5 -> inception_4a/5x5 (in-place)
I0403 18:05:50.973109 16160 net.cpp:141] Setting up inception_4a/relu_5x5
I0403 18:05:50.973134 16160 net.cpp:148] Top shape: 24 48 14 14 (225792)
I0403 18:05:50.973148 16160 net.cpp:156] Memory required for data: 875471904
I0403 18:05:50.973163 16160 layer_factory.hpp:77] Creating layer inception_4a/pool
I0403 18:05:50.973183 16160 net.cpp:91] Creating Layer inception_4a/pool
I0403 18:05:50.973199 16160 net.cpp:425] inception_4a/pool <- pool3/3x3_s2_pool3/3x3_s2_0_split_3
I0403 18:05:50.973217 16160 net.cpp:399] inception_4a/pool -> inception_4a/pool
I0403 18:05:50.973278 16160 net.cpp:141] Setting up inception_4a/pool
I0403 18:05:50.973301 16160 net.cpp:148] Top shape: 24 480 14 14 (2257920)
I0403 18:05:50.973316 16160 net.cpp:156] Memory required for data: 884503584
I0403 18:05:50.973331 16160 layer_factory.hpp:77] Creating layer inception_4a/pool_proj
I0403 18:05:50.973352 16160 net.cpp:91] Creating Layer inception_4a/pool_proj
I0403 18:05:50.973371 16160 net.cpp:425] inception_4a/pool_proj <- inception_4a/pool
I0403 18:05:50.973392 16160 net.cpp:399] inception_4a/pool_proj -> inception_4a/pool_proj
I0403 18:05:50.974548 16160 net.cpp:141] Setting up inception_4a/pool_proj
I0403 18:05:50.974576 16160 net.cpp:148] Top shape: 24 64 14 14 (301056)
I0403 18:05:50.974606 16160 net.cpp:156] Memory required for data: 885707808
I0403 18:05:50.974625 16160 layer_factory.hpp:77] Creating layer inception_4a/relu_pool_proj
I0403 18:05:50.974647 16160 net.cpp:91] Creating Layer inception_4a/relu_pool_proj
I0403 18:05:50.974664 16160 net.cpp:425] inception_4a/relu_pool_proj <- inception_4a/pool_proj
I0403 18:05:50.974683 16160 net.cpp:386] inception_4a/relu_pool_proj -> inception_4a/pool_proj (in-place)
I0403 18:05:50.974972 16160 net.cpp:141] Setting up inception_4a/relu_pool_proj
I0403 18:05:50.975002 16160 net.cpp:148] Top shape: 24 64 14 14 (301056)
I0403 18:05:50.975018 16160 net.cpp:156] Memory required for data: 886912032
I0403 18:05:50.975033 16160 layer_factory.hpp:77] Creating layer inception_4a/output
I0403 18:05:50.975052 16160 net.cpp:91] Creating Layer inception_4a/output
I0403 18:05:50.975069 16160 net.cpp:425] inception_4a/output <- inception_4a/1x1
I0403 18:05:50.975086 16160 net.cpp:425] inception_4a/output <- inception_4a/3x3
I0403 18:05:50.975102 16160 net.cpp:425] inception_4a/output <- inception_4a/5x5
I0403 18:05:50.975117 16160 net.cpp:425] inception_4a/output <- inception_4a/pool_proj
I0403 18:05:50.975133 16160 net.cpp:399] inception_4a/output -> inception_4a/output
I0403 18:05:50.975179 16160 net.cpp:141] Setting up inception_4a/output
I0403 18:05:50.975203 16160 net.cpp:148] Top shape: 24 512 14 14 (2408448)
I0403 18:05:50.975217 16160 net.cpp:156] Memory required for data: 896545824
I0403 18:05:50.975232 16160 layer_factory.hpp:77] Creating layer inception_4a/output_inception_4a/output_0_split
I0403 18:05:50.975250 16160 net.cpp:91] Creating Layer inception_4a/output_inception_4a/output_0_split
I0403 18:05:50.975265 16160 net.cpp:425] inception_4a/output_inception_4a/output_0_split <- inception_4a/output
I0403 18:05:50.975284 16160 net.cpp:399] inception_4a/output_inception_4a/output_0_split -> inception_4a/output_inception_4a/output_0_split_0
I0403 18:05:50.975306 16160 net.cpp:399] inception_4a/output_inception_4a/output_0_split -> inception_4a/output_inception_4a/output_0_split_1
I0403 18:05:50.975327 16160 net.cpp:399] inception_4a/output_inception_4a/output_0_split -> inception_4a/output_inception_4a/output_0_split_2
I0403 18:05:50.975347 16160 net.cpp:399] inception_4a/output_inception_4a/output_0_split -> inception_4a/output_inception_4a/output_0_split_3
I0403 18:05:50.975368 16160 net.cpp:399] inception_4a/output_inception_4a/output_0_split -> inception_4a/output_inception_4a/output_0_split_4
I0403 18:05:50.975457 16160 net.cpp:141] Setting up inception_4a/output_inception_4a/output_0_split
I0403 18:05:50.975481 16160 net.cpp:148] Top shape: 24 512 14 14 (2408448)
I0403 18:05:50.975500 16160 net.cpp:148] Top shape: 24 512 14 14 (2408448)
I0403 18:05:50.975517 16160 net.cpp:148] Top shape: 24 512 14 14 (2408448)
I0403 18:05:50.975531 16160 net.cpp:148] Top shape: 24 512 14 14 (2408448)
I0403 18:05:50.975548 16160 net.cpp:148] Top shape: 24 512 14 14 (2408448)
I0403 18:05:50.975561 16160 net.cpp:156] Memory required for data: 944714784
I0403 18:05:50.975575 16160 layer_factory.hpp:77] Creating layer loss1/ave_pool
I0403 18:05:50.975594 16160 net.cpp:91] Creating Layer loss1/ave_pool
I0403 18:05:50.975610 16160 net.cpp:425] loss1/ave_pool <- inception_4a/output_inception_4a/output_0_split_0
I0403 18:05:50.975630 16160 net.cpp:399] loss1/ave_pool -> loss1/ave_pool
I0403 18:05:50.975834 16160 net.cpp:141] Setting up loss1/ave_pool
I0403 18:05:50.975860 16160 net.cpp:148] Top shape: 24 512 4 4 (196608)
I0403 18:05:50.975875 16160 net.cpp:156] Memory required for data: 945501216
I0403 18:05:50.975889 16160 layer_factory.hpp:77] Creating layer loss1/conv
I0403 18:05:50.975911 16160 net.cpp:91] Creating Layer loss1/conv
I0403 18:05:50.975930 16160 net.cpp:425] loss1/conv <- loss1/ave_pool
I0403 18:05:50.975951 16160 net.cpp:399] loss1/conv -> loss1/conv
I0403 18:05:50.977358 16160 net.cpp:141] Setting up loss1/conv
I0403 18:05:50.977388 16160 net.cpp:148] Top shape: 24 128 4 4 (49152)
I0403 18:05:50.977417 16160 net.cpp:156] Memory required for data: 945697824
I0403 18:05:50.977437 16160 layer_factory.hpp:77] Creating layer loss1/relu_conv
I0403 18:05:50.977455 16160 net.cpp:91] Creating Layer loss1/relu_conv
I0403 18:05:50.977473 16160 net.cpp:425] loss1/relu_conv <- loss1/conv
I0403 18:05:50.977491 16160 net.cpp:386] loss1/relu_conv -> loss1/conv (in-place)
I0403 18:05:50.977771 16160 net.cpp:141] Setting up loss1/relu_conv
I0403 18:05:50.977799 16160 net.cpp:148] Top shape: 24 128 4 4 (49152)
I0403 18:05:50.977815 16160 net.cpp:156] Memory required for data: 945894432
I0403 18:05:50.977830 16160 layer_factory.hpp:77] Creating layer loss1/fc
I0403 18:05:50.977854 16160 net.cpp:91] Creating Layer loss1/fc
I0403 18:05:50.977872 16160 net.cpp:425] loss1/fc <- loss1/conv
I0403 18:05:50.977895 16160 net.cpp:399] loss1/fc -> loss1/fc
I0403 18:05:50.995489 16160 net.cpp:141] Setting up loss1/fc
I0403 18:05:50.995523 16160 net.cpp:148] Top shape: 24 1024 (24576)
I0403 18:05:50.995540 16160 net.cpp:156] Memory required for data: 945992736
I0403 18:05:50.995560 16160 layer_factory.hpp:77] Creating layer loss1/relu_fc
I0403 18:05:50.995580 16160 net.cpp:91] Creating Layer loss1/relu_fc
I0403 18:05:50.995599 16160 net.cpp:425] loss1/relu_fc <- loss1/fc
I0403 18:05:50.995615 16160 net.cpp:386] loss1/relu_fc -> loss1/fc (in-place)
I0403 18:05:50.995802 16160 net.cpp:141] Setting up loss1/relu_fc
I0403 18:05:50.995828 16160 net.cpp:148] Top shape: 24 1024 (24576)
I0403 18:05:50.995843 16160 net.cpp:156] Memory required for data: 946091040
I0403 18:05:50.995858 16160 layer_factory.hpp:77] Creating layer loss1/drop_fc
I0403 18:05:50.995885 16160 net.cpp:91] Creating Layer loss1/drop_fc
I0403 18:05:50.995903 16160 net.cpp:425] loss1/drop_fc <- loss1/fc
I0403 18:05:50.995920 16160 net.cpp:386] loss1/drop_fc -> loss1/fc (in-place)
I0403 18:05:50.995972 16160 net.cpp:141] Setting up loss1/drop_fc
I0403 18:05:50.996000 16160 net.cpp:148] Top shape: 24 1024 (24576)
I0403 18:05:50.996014 16160 net.cpp:156] Memory required for data: 946189344
I0403 18:05:50.996031 16160 layer_factory.hpp:77] Creating layer loss1/classifier_plantvillage
I0403 18:05:50.996052 16160 net.cpp:91] Creating Layer loss1/classifier_plantvillage
I0403 18:05:50.996069 16160 net.cpp:425] loss1/classifier_plantvillage <- loss1/fc
I0403 18:05:50.996088 16160 net.cpp:399] loss1/classifier_plantvillage -> loss1/classifier_plantvillage
I0403 18:05:50.996980 16160 net.cpp:141] Setting up loss1/classifier_plantvillage
I0403 18:05:50.997009 16160 net.cpp:148] Top shape: 24 38 (912)
I0403 18:05:50.997023 16160 net.cpp:156] Memory required for data: 946192992
I0403 18:05:50.997042 16160 layer_factory.hpp:77] Creating layer loss1/classifier_plantvillage_loss1/classifier_plantvillage_0_split
I0403 18:05:50.997062 16160 net.cpp:91] Creating Layer loss1/classifier_plantvillage_loss1/classifier_plantvillage_0_split
I0403 18:05:50.997079 16160 net.cpp:425] loss1/classifier_plantvillage_loss1/classifier_plantvillage_0_split <- loss1/classifier_plantvillage
I0403 18:05:50.997098 16160 net.cpp:399] loss1/classifier_plantvillage_loss1/classifier_plantvillage_0_split -> loss1/classifier_plantvillage_loss1/classifier_plantvillage_0_split_0
I0403 18:05:50.997119 16160 net.cpp:399] loss1/classifier_plantvillage_loss1/classifier_plantvillage_0_split -> loss1/classifier_plantvillage_loss1/classifier_plantvillage_0_split_1
I0403 18:05:50.997141 16160 net.cpp:399] loss1/classifier_plantvillage_loss1/classifier_plantvillage_0_split -> loss1/classifier_plantvillage_loss1/classifier_plantvillage_0_split_2
I0403 18:05:50.997206 16160 net.cpp:141] Setting up loss1/classifier_plantvillage_loss1/classifier_plantvillage_0_split
I0403 18:05:50.997230 16160 net.cpp:148] Top shape: 24 38 (912)
I0403 18:05:50.997246 16160 net.cpp:148] Top shape: 24 38 (912)
I0403 18:05:50.997261 16160 net.cpp:148] Top shape: 24 38 (912)
I0403 18:05:50.997274 16160 net.cpp:156] Memory required for data: 946203936
I0403 18:05:50.997288 16160 layer_factory.hpp:77] Creating layer inception_4b/1x1
I0403 18:05:50.997311 16160 net.cpp:91] Creating Layer inception_4b/1x1
I0403 18:05:50.997344 16160 net.cpp:425] inception_4b/1x1 <- inception_4a/output_inception_4a/output_0_split_1
I0403 18:05:50.997364 16160 net.cpp:399] inception_4b/1x1 -> inception_4b/1x1
I0403 18:05:50.999008 16160 net.cpp:141] Setting up inception_4b/1x1
I0403 18:05:50.999038 16160 net.cpp:148] Top shape: 24 160 14 14 (752640)
I0403 18:05:50.999054 16160 net.cpp:156] Memory required for data: 949214496
I0403 18:05:50.999073 16160 layer_factory.hpp:77] Creating layer inception_4b/relu_1x1
I0403 18:05:50.999091 16160 net.cpp:91] Creating Layer inception_4b/relu_1x1
I0403 18:05:50.999109 16160 net.cpp:425] inception_4b/relu_1x1 <- inception_4b/1x1
I0403 18:05:50.999127 16160 net.cpp:386] inception_4b/relu_1x1 -> inception_4b/1x1 (in-place)
I0403 18:05:50.999310 16160 net.cpp:141] Setting up inception_4b/relu_1x1
I0403 18:05:50.999335 16160 net.cpp:148] Top shape: 24 160 14 14 (752640)
I0403 18:05:50.999349 16160 net.cpp:156] Memory required for data: 952225056
I0403 18:05:50.999363 16160 layer_factory.hpp:77] Creating layer inception_4b/3x3_reduce
I0403 18:05:50.999385 16160 net.cpp:91] Creating Layer inception_4b/3x3_reduce
I0403 18:05:50.999403 16160 net.cpp:425] inception_4b/3x3_reduce <- inception_4a/output_inception_4a/output_0_split_2
I0403 18:05:50.999424 16160 net.cpp:399] inception_4b/3x3_reduce -> inception_4b/3x3_reduce
I0403 18:05:51.000764 16160 net.cpp:141] Setting up inception_4b/3x3_reduce
I0403 18:05:51.000792 16160 net.cpp:148] Top shape: 24 112 14 14 (526848)
I0403 18:05:51.000808 16160 net.cpp:156] Memory required for data: 954332448
I0403 18:05:51.000825 16160 layer_factory.hpp:77] Creating layer inception_4b/relu_3x3_reduce
I0403 18:05:51.000844 16160 net.cpp:91] Creating Layer inception_4b/relu_3x3_reduce
I0403 18:05:51.000859 16160 net.cpp:425] inception_4b/relu_3x3_reduce <- inception_4b/3x3_reduce
I0403 18:05:51.000879 16160 net.cpp:386] inception_4b/relu_3x3_reduce -> inception_4b/3x3_reduce (in-place)
I0403 18:05:51.001165 16160 net.cpp:141] Setting up inception_4b/relu_3x3_reduce
I0403 18:05:51.001193 16160 net.cpp:148] Top shape: 24 112 14 14 (526848)
I0403 18:05:51.001207 16160 net.cpp:156] Memory required for data: 956439840
I0403 18:05:51.001221 16160 layer_factory.hpp:77] Creating layer inception_4b/3x3
I0403 18:05:51.001245 16160 net.cpp:91] Creating Layer inception_4b/3x3
I0403 18:05:51.001262 16160 net.cpp:425] inception_4b/3x3 <- inception_4b/3x3_reduce
I0403 18:05:51.001283 16160 net.cpp:399] inception_4b/3x3 -> inception_4b/3x3
I0403 18:05:51.004256 16160 net.cpp:141] Setting up inception_4b/3x3
I0403 18:05:51.004287 16160 net.cpp:148] Top shape: 24 224 14 14 (1053696)
I0403 18:05:51.004302 16160 net.cpp:156] Memory required for data: 960654624
I0403 18:05:51.004322 16160 layer_factory.hpp:77] Creating layer inception_4b/relu_3x3
I0403 18:05:51.004343 16160 net.cpp:91] Creating Layer inception_4b/relu_3x3
I0403 18:05:51.004361 16160 net.cpp:425] inception_4b/relu_3x3 <- inception_4b/3x3
I0403 18:05:51.004379 16160 net.cpp:386] inception_4b/relu_3x3 -> inception_4b/3x3 (in-place)
I0403 18:05:51.004575 16160 net.cpp:141] Setting up inception_4b/relu_3x3
I0403 18:05:51.004601 16160 net.cpp:148] Top shape: 24 224 14 14 (1053696)
I0403 18:05:51.004616 16160 net.cpp:156] Memory required for data: 964869408
I0403 18:05:51.004631 16160 layer_factory.hpp:77] Creating layer inception_4b/5x5_reduce
I0403 18:05:51.004652 16160 net.cpp:91] Creating Layer inception_4b/5x5_reduce
I0403 18:05:51.004670 16160 net.cpp:425] inception_4b/5x5_reduce <- inception_4a/output_inception_4a/output_0_split_3
I0403 18:05:51.004693 16160 net.cpp:399] inception_4b/5x5_reduce -> inception_4b/5x5_reduce
I0403 18:05:51.005769 16160 net.cpp:141] Setting up inception_4b/5x5_reduce
I0403 18:05:51.005796 16160 net.cpp:148] Top shape: 24 24 14 14 (112896)
I0403 18:05:51.005812 16160 net.cpp:156] Memory required for data: 965320992
I0403 18:05:51.005831 16160 layer_factory.hpp:77] Creating layer inception_4b/relu_5x5_reduce
I0403 18:05:51.005848 16160 net.cpp:91] Creating Layer inception_4b/relu_5x5_reduce
I0403 18:05:51.005880 16160 net.cpp:425] inception_4b/relu_5x5_reduce <- inception_4b/5x5_reduce
I0403 18:05:51.005900 16160 net.cpp:386] inception_4b/relu_5x5_reduce -> inception_4b/5x5_reduce (in-place)
I0403 18:05:51.006085 16160 net.cpp:141] Setting up inception_4b/relu_5x5_reduce
I0403 18:05:51.006110 16160 net.cpp:148] Top shape: 24 24 14 14 (112896)
I0403 18:05:51.006125 16160 net.cpp:156] Memory required for data: 965772576
I0403 18:05:51.006140 16160 layer_factory.hpp:77] Creating layer inception_4b/5x5
I0403 18:05:51.006163 16160 net.cpp:91] Creating Layer inception_4b/5x5
I0403 18:05:51.006181 16160 net.cpp:425] inception_4b/5x5 <- inception_4b/5x5_reduce
I0403 18:05:51.006202 16160 net.cpp:399] inception_4b/5x5 -> inception_4b/5x5
I0403 18:05:51.007431 16160 net.cpp:141] Setting up inception_4b/5x5
I0403 18:05:51.007462 16160 net.cpp:148] Top shape: 24 64 14 14 (301056)
I0403 18:05:51.007477 16160 net.cpp:156] Memory required for data: 966976800
I0403 18:05:51.007495 16160 layer_factory.hpp:77] Creating layer inception_4b/relu_5x5
I0403 18:05:51.007513 16160 net.cpp:91] Creating Layer inception_4b/relu_5x5
I0403 18:05:51.007529 16160 net.cpp:425] inception_4b/relu_5x5 <- inception_4b/5x5
I0403 18:05:51.007549 16160 net.cpp:386] inception_4b/relu_5x5 -> inception_4b/5x5 (in-place)
I0403 18:05:51.007838 16160 net.cpp:141] Setting up inception_4b/relu_5x5
I0403 18:05:51.007868 16160 net.cpp:148] Top shape: 24 64 14 14 (301056)
I0403 18:05:51.007884 16160 net.cpp:156] Memory required for data: 968181024
I0403 18:05:51.007899 16160 layer_factory.hpp:77] Creating layer inception_4b/pool
I0403 18:05:51.007915 16160 net.cpp:91] Creating Layer inception_4b/pool
I0403 18:05:51.007933 16160 net.cpp:425] inception_4b/pool <- inception_4a/output_inception_4a/output_0_split_4
I0403 18:05:51.007953 16160 net.cpp:399] inception_4b/pool -> inception_4b/pool
I0403 18:05:51.008025 16160 net.cpp:141] Setting up inception_4b/pool
I0403 18:05:51.008052 16160 net.cpp:148] Top shape: 24 512 14 14 (2408448)
I0403 18:05:51.008067 16160 net.cpp:156] Memory required for data: 977814816
I0403 18:05:51.008082 16160 layer_factory.hpp:77] Creating layer inception_4b/pool_proj
I0403 18:05:51.008102 16160 net.cpp:91] Creating Layer inception_4b/pool_proj
I0403 18:05:51.008119 16160 net.cpp:425] inception_4b/pool_proj <- inception_4b/pool
I0403 18:05:51.008141 16160 net.cpp:399] inception_4b/pool_proj -> inception_4b/pool_proj
I0403 18:05:51.009340 16160 net.cpp:141] Setting up inception_4b/pool_proj
I0403 18:05:51.009367 16160 net.cpp:148] Top shape: 24 64 14 14 (301056)
I0403 18:05:51.009382 16160 net.cpp:156] Memory required for data: 979019040
I0403 18:05:51.009400 16160 layer_factory.hpp:77] Creating layer inception_4b/relu_pool_proj
I0403 18:05:51.009418 16160 net.cpp:91] Creating Layer inception_4b/relu_pool_proj
I0403 18:05:51.009435 16160 net.cpp:425] inception_4b/relu_pool_proj <- inception_4b/pool_proj
I0403 18:05:51.009454 16160 net.cpp:386] inception_4b/relu_pool_proj -> inception_4b/pool_proj (in-place)
I0403 18:05:51.009634 16160 net.cpp:141] Setting up inception_4b/relu_pool_proj
I0403 18:05:51.009660 16160 net.cpp:148] Top shape: 24 64 14 14 (301056)
I0403 18:05:51.009675 16160 net.cpp:156] Memory required for data: 980223264
I0403 18:05:51.009688 16160 layer_factory.hpp:77] Creating layer inception_4b/output
I0403 18:05:51.009706 16160 net.cpp:91] Creating Layer inception_4b/output
I0403 18:05:51.009721 16160 net.cpp:425] inception_4b/output <- inception_4b/1x1
I0403 18:05:51.009737 16160 net.cpp:425] inception_4b/output <- inception_4b/3x3
I0403 18:05:51.009753 16160 net.cpp:425] inception_4b/output <- inception_4b/5x5
I0403 18:05:51.009768 16160 net.cpp:425] inception_4b/output <- inception_4b/pool_proj
I0403 18:05:51.009788 16160 net.cpp:399] inception_4b/output -> inception_4b/output
I0403 18:05:51.009835 16160 net.cpp:141] Setting up inception_4b/output
I0403 18:05:51.009858 16160 net.cpp:148] Top shape: 24 512 14 14 (2408448)
I0403 18:05:51.009872 16160 net.cpp:156] Memory required for data: 989857056
I0403 18:05:51.009902 16160 layer_factory.hpp:77] Creating layer inception_4b/output_inception_4b/output_0_split
I0403 18:05:51.009920 16160 net.cpp:91] Creating Layer inception_4b/output_inception_4b/output_0_split
I0403 18:05:51.009935 16160 net.cpp:425] inception_4b/output_inception_4b/output_0_split <- inception_4b/output
I0403 18:05:51.009955 16160 net.cpp:399] inception_4b/output_inception_4b/output_0_split -> inception_4b/output_inception_4b/output_0_split_0
I0403 18:05:51.009976 16160 net.cpp:399] inception_4b/output_inception_4b/output_0_split -> inception_4b/output_inception_4b/output_0_split_1
I0403 18:05:51.010002 16160 net.cpp:399] inception_4b/output_inception_4b/output_0_split -> inception_4b/output_inception_4b/output_0_split_2
I0403 18:05:51.010023 16160 net.cpp:399] inception_4b/output_inception_4b/output_0_split -> inception_4b/output_inception_4b/output_0_split_3
I0403 18:05:51.010107 16160 net.cpp:141] Setting up inception_4b/output_inception_4b/output_0_split
I0403 18:05:51.010133 16160 net.cpp:148] Top shape: 24 512 14 14 (2408448)
I0403 18:05:51.010149 16160 net.cpp:148] Top shape: 24 512 14 14 (2408448)
I0403 18:05:51.010165 16160 net.cpp:148] Top shape: 24 512 14 14 (2408448)
I0403 18:05:51.010180 16160 net.cpp:148] Top shape: 24 512 14 14 (2408448)
I0403 18:05:51.010195 16160 net.cpp:156] Memory required for data: 1028392224
I0403 18:05:51.010210 16160 layer_factory.hpp:77] Creating layer inception_4c/1x1
I0403 18:05:51.010231 16160 net.cpp:91] Creating Layer inception_4c/1x1
I0403 18:05:51.010248 16160 net.cpp:425] inception_4c/1x1 <- inception_4b/output_inception_4b/output_0_split_0
I0403 18:05:51.010267 16160 net.cpp:399] inception_4c/1x1 -> inception_4c/1x1
I0403 18:05:51.011696 16160 net.cpp:141] Setting up inception_4c/1x1
I0403 18:05:51.011724 16160 net.cpp:148] Top shape: 24 128 14 14 (602112)
I0403 18:05:51.011739 16160 net.cpp:156] Memory required for data: 1030800672
I0403 18:05:51.011757 16160 layer_factory.hpp:77] Creating layer inception_4c/relu_1x1
I0403 18:05:51.011778 16160 net.cpp:91] Creating Layer inception_4c/relu_1x1
I0403 18:05:51.011795 16160 net.cpp:425] inception_4c/relu_1x1 <- inception_4c/1x1
I0403 18:05:51.011813 16160 net.cpp:386] inception_4c/relu_1x1 -> inception_4c/1x1 (in-place)
I0403 18:05:51.011996 16160 net.cpp:141] Setting up inception_4c/relu_1x1
I0403 18:05:51.012023 16160 net.cpp:148] Top shape: 24 128 14 14 (602112)
I0403 18:05:51.012039 16160 net.cpp:156] Memory required for data: 1033209120
I0403 18:05:51.012053 16160 layer_factory.hpp:77] Creating layer inception_4c/3x3_reduce
I0403 18:05:51.012075 16160 net.cpp:91] Creating Layer inception_4c/3x3_reduce
I0403 18:05:51.012094 16160 net.cpp:425] inception_4c/3x3_reduce <- inception_4b/output_inception_4b/output_0_split_1
I0403 18:05:51.012112 16160 net.cpp:399] inception_4c/3x3_reduce -> inception_4c/3x3_reduce
I0403 18:05:51.014034 16160 net.cpp:141] Setting up inception_4c/3x3_reduce
I0403 18:05:51.014063 16160 net.cpp:148] Top shape: 24 128 14 14 (602112)
I0403 18:05:51.014081 16160 net.cpp:156] Memory required for data: 1035617568
I0403 18:05:51.014098 16160 layer_factory.hpp:77] Creating layer inception_4c/relu_3x3_reduce
I0403 18:05:51.014117 16160 net.cpp:91] Creating Layer inception_4c/relu_3x3_reduce
I0403 18:05:51.014132 16160 net.cpp:425] inception_4c/relu_3x3_reduce <- inception_4c/3x3_reduce
I0403 18:05:51.014153 16160 net.cpp:386] inception_4c/relu_3x3_reduce -> inception_4c/3x3_reduce (in-place)
I0403 18:05:51.014438 16160 net.cpp:141] Setting up inception_4c/relu_3x3_reduce
I0403 18:05:51.014467 16160 net.cpp:148] Top shape: 24 128 14 14 (602112)
I0403 18:05:51.014482 16160 net.cpp:156] Memory required for data: 1038026016
I0403 18:05:51.014498 16160 layer_factory.hpp:77] Creating layer inception_4c/3x3
I0403 18:05:51.014521 16160 net.cpp:91] Creating Layer inception_4c/3x3
I0403 18:05:51.014539 16160 net.cpp:425] inception_4c/3x3 <- inception_4c/3x3_reduce
I0403 18:05:51.014560 16160 net.cpp:399] inception_4c/3x3 -> inception_4c/3x3
I0403 18:05:51.018203 16160 net.cpp:141] Setting up inception_4c/3x3
I0403 18:05:51.018245 16160 net.cpp:148] Top shape: 24 256 14 14 (1204224)
I0403 18:05:51.018263 16160 net.cpp:156] Memory required for data: 1042842912
I0403 18:05:51.018296 16160 layer_factory.hpp:77] Creating layer inception_4c/relu_3x3
I0403 18:05:51.018316 16160 net.cpp:91] Creating Layer inception_4c/relu_3x3
I0403 18:05:51.018333 16160 net.cpp:425] inception_4c/relu_3x3 <- inception_4c/3x3
I0403 18:05:51.018352 16160 net.cpp:386] inception_4c/relu_3x3 -> inception_4c/3x3 (in-place)
I0403 18:05:51.018539 16160 net.cpp:141] Setting up inception_4c/relu_3x3
I0403 18:05:51.018564 16160 net.cpp:148] Top shape: 24 256 14 14 (1204224)
I0403 18:05:51.018579 16160 net.cpp:156] Memory required for data: 1047659808
I0403 18:05:51.018594 16160 layer_factory.hpp:77] Creating layer inception_4c/5x5_reduce
I0403 18:05:51.018616 16160 net.cpp:91] Creating Layer inception_4c/5x5_reduce
I0403 18:05:51.018635 16160 net.cpp:425] inception_4c/5x5_reduce <- inception_4b/output_inception_4b/output_0_split_2
I0403 18:05:51.018656 16160 net.cpp:399] inception_4c/5x5_reduce -> inception_4c/5x5_reduce
I0403 18:05:51.019743 16160 net.cpp:141] Setting up inception_4c/5x5_reduce
I0403 18:05:51.019772 16160 net.cpp:148] Top shape: 24 24 14 14 (112896)
I0403 18:05:51.019786 16160 net.cpp:156] Memory required for data: 1048111392
I0403 18:05:51.019805 16160 layer_factory.hpp:77] Creating layer inception_4c/relu_5x5_reduce
I0403 18:05:51.019824 16160 net.cpp:91] Creating Layer inception_4c/relu_5x5_reduce
I0403 18:05:51.019840 16160 net.cpp:425] inception_4c/relu_5x5_reduce <- inception_4c/5x5_reduce
I0403 18:05:51.019860 16160 net.cpp:386] inception_4c/relu_5x5_reduce -> inception_4c/5x5_reduce (in-place)
I0403 18:05:51.020046 16160 net.cpp:141] Setting up inception_4c/relu_5x5_reduce
I0403 18:05:51.020071 16160 net.cpp:148] Top shape: 24 24 14 14 (112896)
I0403 18:05:51.020087 16160 net.cpp:156] Memory required for data: 1048562976
I0403 18:05:51.020102 16160 layer_factory.hpp:77] Creating layer inception_4c/5x5
I0403 18:05:51.020123 16160 net.cpp:91] Creating Layer inception_4c/5x5
I0403 18:05:51.020141 16160 net.cpp:425] inception_4c/5x5 <- inception_4c/5x5_reduce
I0403 18:05:51.020162 16160 net.cpp:399] inception_4c/5x5 -> inception_4c/5x5
I0403 18:05:51.021404 16160 net.cpp:141] Setting up inception_4c/5x5
I0403 18:05:51.021430 16160 net.cpp:148] Top shape: 24 64 14 14 (301056)
I0403 18:05:51.021446 16160 net.cpp:156] Memory required for data: 1049767200
I0403 18:05:51.021464 16160 layer_factory.hpp:77] Creating layer inception_4c/relu_5x5
I0403 18:05:51.021484 16160 net.cpp:91] Creating Layer inception_4c/relu_5x5
I0403 18:05:51.021502 16160 net.cpp:425] inception_4c/relu_5x5 <- inception_4c/5x5
I0403 18:05:51.021520 16160 net.cpp:386] inception_4c/relu_5x5 -> inception_4c/5x5 (in-place)
I0403 18:05:51.021808 16160 net.cpp:141] Setting up inception_4c/relu_5x5
I0403 18:05:51.021834 16160 net.cpp:148] Top shape: 24 64 14 14 (301056)
I0403 18:05:51.021850 16160 net.cpp:156] Memory required for data: 1050971424
I0403 18:05:51.021865 16160 layer_factory.hpp:77] Creating layer inception_4c/pool
I0403 18:05:51.021884 16160 net.cpp:91] Creating Layer inception_4c/pool
I0403 18:05:51.021903 16160 net.cpp:425] inception_4c/pool <- inception_4b/output_inception_4b/output_0_split_3
I0403 18:05:51.021921 16160 net.cpp:399] inception_4c/pool -> inception_4c/pool
I0403 18:05:51.021993 16160 net.cpp:141] Setting up inception_4c/pool
I0403 18:05:51.022018 16160 net.cpp:148] Top shape: 24 512 14 14 (2408448)
I0403 18:05:51.022033 16160 net.cpp:156] Memory required for data: 1060605216
I0403 18:05:51.022047 16160 layer_factory.hpp:77] Creating layer inception_4c/pool_proj
I0403 18:05:51.022070 16160 net.cpp:91] Creating Layer inception_4c/pool_proj
I0403 18:05:51.022088 16160 net.cpp:425] inception_4c/pool_proj <- inception_4c/pool
I0403 18:05:51.022109 16160 net.cpp:399] inception_4c/pool_proj -> inception_4c/pool_proj
I0403 18:05:51.023335 16160 net.cpp:141] Setting up inception_4c/pool_proj
I0403 18:05:51.023365 16160 net.cpp:148] Top shape: 24 64 14 14 (301056)
I0403 18:05:51.023396 16160 net.cpp:156] Memory required for data: 1061809440
I0403 18:05:51.023414 16160 layer_factory.hpp:77] Creating layer inception_4c/relu_pool_proj
I0403 18:05:51.023432 16160 net.cpp:91] Creating Layer inception_4c/relu_pool_proj
I0403 18:05:51.023449 16160 net.cpp:425] inception_4c/relu_pool_proj <- inception_4c/pool_proj
I0403 18:05:51.023469 16160 net.cpp:386] inception_4c/relu_pool_proj -> inception_4c/pool_proj (in-place)
I0403 18:05:51.023653 16160 net.cpp:141] Setting up inception_4c/relu_pool_proj
I0403 18:05:51.023677 16160 net.cpp:148] Top shape: 24 64 14 14 (301056)
I0403 18:05:51.023692 16160 net.cpp:156] Memory required for data: 1063013664
I0403 18:05:51.023706 16160 layer_factory.hpp:77] Creating layer inception_4c/output
I0403 18:05:51.023725 16160 net.cpp:91] Creating Layer inception_4c/output
I0403 18:05:51.023739 16160 net.cpp:425] inception_4c/output <- inception_4c/1x1
I0403 18:05:51.023756 16160 net.cpp:425] inception_4c/output <- inception_4c/3x3
I0403 18:05:51.023772 16160 net.cpp:425] inception_4c/output <- inception_4c/5x5
I0403 18:05:51.023787 16160 net.cpp:425] inception_4c/output <- inception_4c/pool_proj
I0403 18:05:51.023808 16160 net.cpp:399] inception_4c/output -> inception_4c/output
I0403 18:05:51.023856 16160 net.cpp:141] Setting up inception_4c/output
I0403 18:05:51.023880 16160 net.cpp:148] Top shape: 24 512 14 14 (2408448)
I0403 18:05:51.023893 16160 net.cpp:156] Memory required for data: 1072647456
I0403 18:05:51.023908 16160 layer_factory.hpp:77] Creating layer inception_4c/output_inception_4c/output_0_split
I0403 18:05:51.023927 16160 net.cpp:91] Creating Layer inception_4c/output_inception_4c/output_0_split
I0403 18:05:51.023944 16160 net.cpp:425] inception_4c/output_inception_4c/output_0_split <- inception_4c/output
I0403 18:05:51.023963 16160 net.cpp:399] inception_4c/output_inception_4c/output_0_split -> inception_4c/output_inception_4c/output_0_split_0
I0403 18:05:51.023988 16160 net.cpp:399] inception_4c/output_inception_4c/output_0_split -> inception_4c/output_inception_4c/output_0_split_1
I0403 18:05:51.024011 16160 net.cpp:399] inception_4c/output_inception_4c/output_0_split -> inception_4c/output_inception_4c/output_0_split_2
I0403 18:05:51.024031 16160 net.cpp:399] inception_4c/output_inception_4c/output_0_split -> inception_4c/output_inception_4c/output_0_split_3
I0403 18:05:51.024118 16160 net.cpp:141] Setting up inception_4c/output_inception_4c/output_0_split
I0403 18:05:51.024144 16160 net.cpp:148] Top shape: 24 512 14 14 (2408448)
I0403 18:05:51.024161 16160 net.cpp:148] Top shape: 24 512 14 14 (2408448)
I0403 18:05:51.024176 16160 net.cpp:148] Top shape: 24 512 14 14 (2408448)
I0403 18:05:51.024193 16160 net.cpp:148] Top shape: 24 512 14 14 (2408448)
I0403 18:05:51.024206 16160 net.cpp:156] Memory required for data: 1111182624
I0403 18:05:51.024221 16160 layer_factory.hpp:77] Creating layer inception_4d/1x1
I0403 18:05:51.024245 16160 net.cpp:91] Creating Layer inception_4d/1x1
I0403 18:05:51.024261 16160 net.cpp:425] inception_4d/1x1 <- inception_4c/output_inception_4c/output_0_split_0
I0403 18:05:51.024281 16160 net.cpp:399] inception_4d/1x1 -> inception_4d/1x1
I0403 18:05:51.025656 16160 net.cpp:141] Setting up inception_4d/1x1
I0403 18:05:51.025684 16160 net.cpp:148] Top shape: 24 112 14 14 (526848)
I0403 18:05:51.025699 16160 net.cpp:156] Memory required for data: 1113290016
I0403 18:05:51.025717 16160 layer_factory.hpp:77] Creating layer inception_4d/relu_1x1
I0403 18:05:51.025738 16160 net.cpp:91] Creating Layer inception_4d/relu_1x1
I0403 18:05:51.025756 16160 net.cpp:425] inception_4d/relu_1x1 <- inception_4d/1x1
I0403 18:05:51.025774 16160 net.cpp:386] inception_4d/relu_1x1 -> inception_4d/1x1 (in-place)
I0403 18:05:51.025960 16160 net.cpp:141] Setting up inception_4d/relu_1x1
I0403 18:05:51.025988 16160 net.cpp:148] Top shape: 24 112 14 14 (526848)
I0403 18:05:51.026005 16160 net.cpp:156] Memory required for data: 1115397408
I0403 18:05:51.026021 16160 layer_factory.hpp:77] Creating layer inception_4d/3x3_reduce
I0403 18:05:51.026063 16160 net.cpp:91] Creating Layer inception_4d/3x3_reduce
I0403 18:05:51.026082 16160 net.cpp:425] inception_4d/3x3_reduce <- inception_4c/output_inception_4c/output_0_split_1
I0403 18:05:51.026104 16160 net.cpp:399] inception_4d/3x3_reduce -> inception_4d/3x3_reduce
I0403 18:05:51.027606 16160 net.cpp:141] Setting up inception_4d/3x3_reduce
I0403 18:05:51.027636 16160 net.cpp:148] Top shape: 24 144 14 14 (677376)
I0403 18:05:51.027652 16160 net.cpp:156] Memory required for data: 1118106912
I0403 18:05:51.027672 16160 layer_factory.hpp:77] Creating layer inception_4d/relu_3x3_reduce
I0403 18:05:51.027693 16160 net.cpp:91] Creating Layer inception_4d/relu_3x3_reduce
I0403 18:05:51.027712 16160 net.cpp:425] inception_4d/relu_3x3_reduce <- inception_4d/3x3_reduce
I0403 18:05:51.027730 16160 net.cpp:386] inception_4d/relu_3x3_reduce -> inception_4d/3x3_reduce (in-place)
I0403 18:05:51.028030 16160 net.cpp:141] Setting up inception_4d/relu_3x3_reduce
I0403 18:05:51.028056 16160 net.cpp:148] Top shape: 24 144 14 14 (677376)
I0403 18:05:51.028071 16160 net.cpp:156] Memory required for data: 1120816416
I0403 18:05:51.028086 16160 layer_factory.hpp:77] Creating layer inception_4d/3x3
I0403 18:05:51.028110 16160 net.cpp:91] Creating Layer inception_4d/3x3
I0403 18:05:51.028129 16160 net.cpp:425] inception_4d/3x3 <- inception_4d/3x3_reduce
I0403 18:05:51.028151 16160 net.cpp:399] inception_4d/3x3 -> inception_4d/3x3
I0403 18:05:51.032384 16160 net.cpp:141] Setting up inception_4d/3x3
I0403 18:05:51.032416 16160 net.cpp:148] Top shape: 24 288 14 14 (1354752)
I0403 18:05:51.032433 16160 net.cpp:156] Memory required for data: 1126235424
I0403 18:05:51.032451 16160 layer_factory.hpp:77] Creating layer inception_4d/relu_3x3
I0403 18:05:51.032470 16160 net.cpp:91] Creating Layer inception_4d/relu_3x3
I0403 18:05:51.032486 16160 net.cpp:425] inception_4d/relu_3x3 <- inception_4d/3x3
I0403 18:05:51.032503 16160 net.cpp:386] inception_4d/relu_3x3 -> inception_4d/3x3 (in-place)
I0403 18:05:51.032691 16160 net.cpp:141] Setting up inception_4d/relu_3x3
I0403 18:05:51.032716 16160 net.cpp:148] Top shape: 24 288 14 14 (1354752)
I0403 18:05:51.032729 16160 net.cpp:156] Memory required for data: 1131654432
I0403 18:05:51.032744 16160 layer_factory.hpp:77] Creating layer inception_4d/5x5_reduce
I0403 18:05:51.032768 16160 net.cpp:91] Creating Layer inception_4d/5x5_reduce
I0403 18:05:51.032785 16160 net.cpp:425] inception_4d/5x5_reduce <- inception_4c/output_inception_4c/output_0_split_2
I0403 18:05:51.032807 16160 net.cpp:399] inception_4d/5x5_reduce -> inception_4d/5x5_reduce
I0403 18:05:51.033954 16160 net.cpp:141] Setting up inception_4d/5x5_reduce
I0403 18:05:51.033987 16160 net.cpp:148] Top shape: 24 32 14 14 (150528)
I0403 18:05:51.034004 16160 net.cpp:156] Memory required for data: 1132256544
I0403 18:05:51.034024 16160 layer_factory.hpp:77] Creating layer inception_4d/relu_5x5_reduce
I0403 18:05:51.034041 16160 net.cpp:91] Creating Layer inception_4d/relu_5x5_reduce
I0403 18:05:51.034057 16160 net.cpp:425] inception_4d/relu_5x5_reduce <- inception_4d/5x5_reduce
I0403 18:05:51.034077 16160 net.cpp:386] inception_4d/relu_5x5_reduce -> inception_4d/5x5_reduce (in-place)
I0403 18:05:51.034271 16160 net.cpp:141] Setting up inception_4d/relu_5x5_reduce
I0403 18:05:51.034296 16160 net.cpp:148] Top shape: 24 32 14 14 (150528)
I0403 18:05:51.034310 16160 net.cpp:156] Memory required for data: 1132858656
I0403 18:05:51.034325 16160 layer_factory.hpp:77] Creating layer inception_4d/5x5
I0403 18:05:51.034348 16160 net.cpp:91] Creating Layer inception_4d/5x5
I0403 18:05:51.034365 16160 net.cpp:425] inception_4d/5x5 <- inception_4d/5x5_reduce
I0403 18:05:51.034387 16160 net.cpp:399] inception_4d/5x5 -> inception_4d/5x5
I0403 18:05:51.035908 16160 net.cpp:141] Setting up inception_4d/5x5
I0403 18:05:51.035938 16160 net.cpp:148] Top shape: 24 64 14 14 (301056)
I0403 18:05:51.035953 16160 net.cpp:156] Memory required for data: 1134062880
I0403 18:05:51.035972 16160 layer_factory.hpp:77] Creating layer inception_4d/relu_5x5
I0403 18:05:51.036008 16160 net.cpp:91] Creating Layer inception_4d/relu_5x5
I0403 18:05:51.036026 16160 net.cpp:425] inception_4d/relu_5x5 <- inception_4d/5x5
I0403 18:05:51.036046 16160 net.cpp:386] inception_4d/relu_5x5 -> inception_4d/5x5 (in-place)
I0403 18:05:51.036370 16160 net.cpp:141] Setting up inception_4d/relu_5x5
I0403 18:05:51.036397 16160 net.cpp:148] Top shape: 24 64 14 14 (301056)
I0403 18:05:51.036412 16160 net.cpp:156] Memory required for data: 1135267104
I0403 18:05:51.036428 16160 layer_factory.hpp:77] Creating layer inception_4d/pool
I0403 18:05:51.036447 16160 net.cpp:91] Creating Layer inception_4d/pool
I0403 18:05:51.036463 16160 net.cpp:425] inception_4d/pool <- inception_4c/output_inception_4c/output_0_split_3
I0403 18:05:51.036495 16160 net.cpp:399] inception_4d/pool -> inception_4d/pool
I0403 18:05:51.036563 16160 net.cpp:141] Setting up inception_4d/pool
I0403 18:05:51.036586 16160 net.cpp:148] Top shape: 24 512 14 14 (2408448)
I0403 18:05:51.036602 16160 net.cpp:156] Memory required for data: 1144900896
I0403 18:05:51.036617 16160 layer_factory.hpp:77] Creating layer inception_4d/pool_proj
I0403 18:05:51.036639 16160 net.cpp:91] Creating Layer inception_4d/pool_proj
I0403 18:05:51.036658 16160 net.cpp:425] inception_4d/pool_proj <- inception_4d/pool
I0403 18:05:51.036676 16160 net.cpp:399] inception_4d/pool_proj -> inception_4d/pool_proj
I0403 18:05:51.038447 16160 net.cpp:141] Setting up inception_4d/pool_proj
I0403 18:05:51.038478 16160 net.cpp:148] Top shape: 24 64 14 14 (301056)
I0403 18:05:51.038496 16160 net.cpp:156] Memory required for data: 1146105120
I0403 18:05:51.038513 16160 layer_factory.hpp:77] Creating layer inception_4d/relu_pool_proj
I0403 18:05:51.038532 16160 net.cpp:91] Creating Layer inception_4d/relu_pool_proj
I0403 18:05:51.038548 16160 net.cpp:425] inception_4d/relu_pool_proj <- inception_4d/pool_proj
I0403 18:05:51.038565 16160 net.cpp:386] inception_4d/relu_pool_proj -> inception_4d/pool_proj (in-place)
I0403 18:05:51.038754 16160 net.cpp:141] Setting up inception_4d/relu_pool_proj
I0403 18:05:51.038779 16160 net.cpp:148] Top shape: 24 64 14 14 (301056)
I0403 18:05:51.038794 16160 net.cpp:156] Memory required for data: 1147309344
I0403 18:05:51.038810 16160 layer_factory.hpp:77] Creating layer inception_4d/output
I0403 18:05:51.038825 16160 net.cpp:91] Creating Layer inception_4d/output
I0403 18:05:51.038841 16160 net.cpp:425] inception_4d/output <- inception_4d/1x1
I0403 18:05:51.038858 16160 net.cpp:425] inception_4d/output <- inception_4d/3x3
I0403 18:05:51.038874 16160 net.cpp:425] inception_4d/output <- inception_4d/5x5
I0403 18:05:51.038890 16160 net.cpp:425] inception_4d/output <- inception_4d/pool_proj
I0403 18:05:51.038918 16160 net.cpp:399] inception_4d/output -> inception_4d/output
I0403 18:05:51.038964 16160 net.cpp:141] Setting up inception_4d/output
I0403 18:05:51.038993 16160 net.cpp:148] Top shape: 24 528 14 14 (2483712)
I0403 18:05:51.039010 16160 net.cpp:156] Memory required for data: 1157244192
I0403 18:05:51.039024 16160 layer_factory.hpp:77] Creating layer inception_4d/output_inception_4d/output_0_split
I0403 18:05:51.039042 16160 net.cpp:91] Creating Layer inception_4d/output_inception_4d/output_0_split
I0403 18:05:51.039058 16160 net.cpp:425] inception_4d/output_inception_4d/output_0_split <- inception_4d/output
I0403 18:05:51.039079 16160 net.cpp:399] inception_4d/output_inception_4d/output_0_split -> inception_4d/output_inception_4d/output_0_split_0
I0403 18:05:51.039103 16160 net.cpp:399] inception_4d/output_inception_4d/output_0_split -> inception_4d/output_inception_4d/output_0_split_1
I0403 18:05:51.039124 16160 net.cpp:399] inception_4d/output_inception_4d/output_0_split -> inception_4d/output_inception_4d/output_0_split_2
I0403 18:05:51.039144 16160 net.cpp:399] inception_4d/output_inception_4d/output_0_split -> inception_4d/output_inception_4d/output_0_split_3
I0403 18:05:51.039165 16160 net.cpp:399] inception_4d/output_inception_4d/output_0_split -> inception_4d/output_inception_4d/output_0_split_4
I0403 18:05:51.039264 16160 net.cpp:141] Setting up inception_4d/output_inception_4d/output_0_split
I0403 18:05:51.039299 16160 net.cpp:148] Top shape: 24 528 14 14 (2483712)
I0403 18:05:51.039316 16160 net.cpp:148] Top shape: 24 528 14 14 (2483712)
I0403 18:05:51.039332 16160 net.cpp:148] Top shape: 24 528 14 14 (2483712)
I0403 18:05:51.039347 16160 net.cpp:148] Top shape: 24 528 14 14 (2483712)
I0403 18:05:51.039361 16160 net.cpp:148] Top shape: 24 528 14 14 (2483712)
I0403 18:05:51.039376 16160 net.cpp:156] Memory required for data: 1206918432
I0403 18:05:51.039389 16160 layer_factory.hpp:77] Creating layer loss2/ave_pool
I0403 18:05:51.039409 16160 net.cpp:91] Creating Layer loss2/ave_pool
I0403 18:05:51.039427 16160 net.cpp:425] loss2/ave_pool <- inception_4d/output_inception_4d/output_0_split_0
I0403 18:05:51.039444 16160 net.cpp:399] loss2/ave_pool -> loss2/ave_pool
I0403 18:05:51.039754 16160 net.cpp:141] Setting up loss2/ave_pool
I0403 18:05:51.039783 16160 net.cpp:148] Top shape: 24 528 4 4 (202752)
I0403 18:05:51.039798 16160 net.cpp:156] Memory required for data: 1207729440
I0403 18:05:51.039813 16160 layer_factory.hpp:77] Creating layer loss2/conv
I0403 18:05:51.039835 16160 net.cpp:91] Creating Layer loss2/conv
I0403 18:05:51.039854 16160 net.cpp:425] loss2/conv <- loss2/ave_pool
I0403 18:05:51.039872 16160 net.cpp:399] loss2/conv -> loss2/conv
I0403 18:05:51.041757 16160 net.cpp:141] Setting up loss2/conv
I0403 18:05:51.041785 16160 net.cpp:148] Top shape: 24 128 4 4 (49152)
I0403 18:05:51.041801 16160 net.cpp:156] Memory required for data: 1207926048
I0403 18:05:51.041820 16160 layer_factory.hpp:77] Creating layer loss2/relu_conv
I0403 18:05:51.041841 16160 net.cpp:91] Creating Layer loss2/relu_conv
I0403 18:05:51.041857 16160 net.cpp:425] loss2/relu_conv <- loss2/conv
I0403 18:05:51.041874 16160 net.cpp:386] loss2/relu_conv -> loss2/conv (in-place)
I0403 18:05:51.042165 16160 net.cpp:141] Setting up loss2/relu_conv
I0403 18:05:51.042191 16160 net.cpp:148] Top shape: 24 128 4 4 (49152)
I0403 18:05:51.042206 16160 net.cpp:156] Memory required for data: 1208122656
I0403 18:05:51.042220 16160 layer_factory.hpp:77] Creating layer loss2/fc
I0403 18:05:51.042243 16160 net.cpp:91] Creating Layer loss2/fc
I0403 18:05:51.042260 16160 net.cpp:425] loss2/fc <- loss2/conv
I0403 18:05:51.042279 16160 net.cpp:399] loss2/fc -> loss2/fc
I0403 18:05:51.059897 16160 net.cpp:141] Setting up loss2/fc
I0403 18:05:51.059936 16160 net.cpp:148] Top shape: 24 1024 (24576)
I0403 18:05:51.059953 16160 net.cpp:156] Memory required for data: 1208220960
I0403 18:05:51.059973 16160 layer_factory.hpp:77] Creating layer loss2/relu_fc
I0403 18:05:51.059995 16160 net.cpp:91] Creating Layer loss2/relu_fc
I0403 18:05:51.060014 16160 net.cpp:425] loss2/relu_fc <- loss2/fc
I0403 18:05:51.060034 16160 net.cpp:386] loss2/relu_fc -> loss2/fc (in-place)
I0403 18:05:51.060334 16160 net.cpp:141] Setting up loss2/relu_fc
I0403 18:05:51.060362 16160 net.cpp:148] Top shape: 24 1024 (24576)
I0403 18:05:51.060379 16160 net.cpp:156] Memory required for data: 1208319264
I0403 18:05:51.060394 16160 layer_factory.hpp:77] Creating layer loss2/drop_fc
I0403 18:05:51.060412 16160 net.cpp:91] Creating Layer loss2/drop_fc
I0403 18:05:51.060428 16160 net.cpp:425] loss2/drop_fc <- loss2/fc
I0403 18:05:51.060448 16160 net.cpp:386] loss2/drop_fc -> loss2/fc (in-place)
I0403 18:05:51.060497 16160 net.cpp:141] Setting up loss2/drop_fc
I0403 18:05:51.060519 16160 net.cpp:148] Top shape: 24 1024 (24576)
I0403 18:05:51.060534 16160 net.cpp:156] Memory required for data: 1208417568
I0403 18:05:51.060549 16160 layer_factory.hpp:77] Creating layer loss2/classifier_plantvillage
I0403 18:05:51.060570 16160 net.cpp:91] Creating Layer loss2/classifier_plantvillage
I0403 18:05:51.060587 16160 net.cpp:425] loss2/classifier_plantvillage <- loss2/fc
I0403 18:05:51.060608 16160 net.cpp:399] loss2/classifier_plantvillage -> loss2/classifier_plantvillage
I0403 18:05:51.061012 16160 net.cpp:141] Setting up loss2/classifier_plantvillage
I0403 18:05:51.061036 16160 net.cpp:148] Top shape: 24 38 (912)
I0403 18:05:51.061067 16160 net.cpp:156] Memory required for data: 1208421216
I0403 18:05:51.061086 16160 layer_factory.hpp:77] Creating layer loss2/classifier_plantvillage_loss2/classifier_plantvillage_0_split
I0403 18:05:51.061106 16160 net.cpp:91] Creating Layer loss2/classifier_plantvillage_loss2/classifier_plantvillage_0_split
I0403 18:05:51.061123 16160 net.cpp:425] loss2/classifier_plantvillage_loss2/classifier_plantvillage_0_split <- loss2/classifier_plantvillage
I0403 18:05:51.061141 16160 net.cpp:399] loss2/classifier_plantvillage_loss2/classifier_plantvillage_0_split -> loss2/classifier_plantvillage_loss2/classifier_plantvillage_0_split_0
I0403 18:05:51.061162 16160 net.cpp:399] loss2/classifier_plantvillage_loss2/classifier_plantvillage_0_split -> loss2/classifier_plantvillage_loss2/classifier_plantvillage_0_split_1
I0403 18:05:51.061182 16160 net.cpp:399] loss2/classifier_plantvillage_loss2/classifier_plantvillage_0_split -> loss2/classifier_plantvillage_loss2/classifier_plantvillage_0_split_2
I0403 18:05:51.061261 16160 net.cpp:141] Setting up loss2/classifier_plantvillage_loss2/classifier_plantvillage_0_split
I0403 18:05:51.061285 16160 net.cpp:148] Top shape: 24 38 (912)
I0403 18:05:51.061300 16160 net.cpp:148] Top shape: 24 38 (912)
I0403 18:05:51.061316 16160 net.cpp:148] Top shape: 24 38 (912)
I0403 18:05:51.061329 16160 net.cpp:156] Memory required for data: 1208432160
I0403 18:05:51.061344 16160 layer_factory.hpp:77] Creating layer inception_4e/1x1
I0403 18:05:51.061364 16160 net.cpp:91] Creating Layer inception_4e/1x1
I0403 18:05:51.061380 16160 net.cpp:425] inception_4e/1x1 <- inception_4d/output_inception_4d/output_0_split_1
I0403 18:05:51.061401 16160 net.cpp:399] inception_4e/1x1 -> inception_4e/1x1
I0403 18:05:51.063226 16160 net.cpp:141] Setting up inception_4e/1x1
I0403 18:05:51.063254 16160 net.cpp:148] Top shape: 24 256 14 14 (1204224)
I0403 18:05:51.063271 16160 net.cpp:156] Memory required for data: 1213249056
I0403 18:05:51.063288 16160 layer_factory.hpp:77] Creating layer inception_4e/relu_1x1
I0403 18:05:51.063308 16160 net.cpp:91] Creating Layer inception_4e/relu_1x1
I0403 18:05:51.063325 16160 net.cpp:425] inception_4e/relu_1x1 <- inception_4e/1x1
I0403 18:05:51.063344 16160 net.cpp:386] inception_4e/relu_1x1 -> inception_4e/1x1 (in-place)
I0403 18:05:51.063639 16160 net.cpp:141] Setting up inception_4e/relu_1x1
I0403 18:05:51.063665 16160 net.cpp:148] Top shape: 24 256 14 14 (1204224)
I0403 18:05:51.063680 16160 net.cpp:156] Memory required for data: 1218065952
I0403 18:05:51.063695 16160 layer_factory.hpp:77] Creating layer inception_4e/3x3_reduce
I0403 18:05:51.063717 16160 net.cpp:91] Creating Layer inception_4e/3x3_reduce
I0403 18:05:51.063735 16160 net.cpp:425] inception_4e/3x3_reduce <- inception_4d/output_inception_4d/output_0_split_2
I0403 18:05:51.063756 16160 net.cpp:399] inception_4e/3x3_reduce -> inception_4e/3x3_reduce
I0403 18:05:51.065866 16160 net.cpp:141] Setting up inception_4e/3x3_reduce
I0403 18:05:51.065894 16160 net.cpp:148] Top shape: 24 160 14 14 (752640)
I0403 18:05:51.065910 16160 net.cpp:156] Memory required for data: 1221076512
I0403 18:05:51.065930 16160 layer_factory.hpp:77] Creating layer inception_4e/relu_3x3_reduce
I0403 18:05:51.065948 16160 net.cpp:91] Creating Layer inception_4e/relu_3x3_reduce
I0403 18:05:51.065968 16160 net.cpp:425] inception_4e/relu_3x3_reduce <- inception_4e/3x3_reduce
I0403 18:05:51.065990 16160 net.cpp:386] inception_4e/relu_3x3_reduce -> inception_4e/3x3_reduce (in-place)
I0403 18:05:51.066179 16160 net.cpp:141] Setting up inception_4e/relu_3x3_reduce
I0403 18:05:51.066203 16160 net.cpp:148] Top shape: 24 160 14 14 (752640)
I0403 18:05:51.066217 16160 net.cpp:156] Memory required for data: 1224087072
I0403 18:05:51.066232 16160 layer_factory.hpp:77] Creating layer inception_4e/3x3
I0403 18:05:51.066254 16160 net.cpp:91] Creating Layer inception_4e/3x3
I0403 18:05:51.066272 16160 net.cpp:425] inception_4e/3x3 <- inception_4e/3x3_reduce
I0403 18:05:51.066293 16160 net.cpp:399] inception_4e/3x3 -> inception_4e/3x3
I0403 18:05:51.071328 16160 net.cpp:141] Setting up inception_4e/3x3
I0403 18:05:51.071368 16160 net.cpp:148] Top shape: 24 320 14 14 (1505280)
I0403 18:05:51.071385 16160 net.cpp:156] Memory required for data: 1230108192
I0403 18:05:51.071403 16160 layer_factory.hpp:77] Creating layer inception_4e/relu_3x3
I0403 18:05:51.071424 16160 net.cpp:91] Creating Layer inception_4e/relu_3x3
I0403 18:05:51.071440 16160 net.cpp:425] inception_4e/relu_3x3 <- inception_4e/3x3
I0403 18:05:51.071457 16160 net.cpp:386] inception_4e/relu_3x3 -> inception_4e/3x3 (in-place)
I0403 18:05:51.071758 16160 net.cpp:141] Setting up inception_4e/relu_3x3
I0403 18:05:51.071785 16160 net.cpp:148] Top shape: 24 320 14 14 (1505280)
I0403 18:05:51.071800 16160 net.cpp:156] Memory required for data: 1236129312
I0403 18:05:51.071816 16160 layer_factory.hpp:77] Creating layer inception_4e/5x5_reduce
I0403 18:05:51.071841 16160 net.cpp:91] Creating Layer inception_4e/5x5_reduce
I0403 18:05:51.071859 16160 net.cpp:425] inception_4e/5x5_reduce <- inception_4d/output_inception_4d/output_0_split_3
I0403 18:05:51.071878 16160 net.cpp:399] inception_4e/5x5_reduce -> inception_4e/5x5_reduce
I0403 18:05:51.072963 16160 net.cpp:141] Setting up inception_4e/5x5_reduce
I0403 18:05:51.072995 16160 net.cpp:148] Top shape: 24 32 14 14 (150528)
I0403 18:05:51.073011 16160 net.cpp:156] Memory required for data: 1236731424
I0403 18:05:51.073029 16160 layer_factory.hpp:77] Creating layer inception_4e/relu_5x5_reduce
I0403 18:05:51.073048 16160 net.cpp:91] Creating Layer inception_4e/relu_5x5_reduce
I0403 18:05:51.073065 16160 net.cpp:425] inception_4e/relu_5x5_reduce <- inception_4e/5x5_reduce
I0403 18:05:51.073084 16160 net.cpp:386] inception_4e/relu_5x5_reduce -> inception_4e/5x5_reduce (in-place)
I0403 18:05:51.073384 16160 net.cpp:141] Setting up inception_4e/relu_5x5_reduce
I0403 18:05:51.073408 16160 net.cpp:148] Top shape: 24 32 14 14 (150528)
I0403 18:05:51.073424 16160 net.cpp:156] Memory required for data: 1237333536
I0403 18:05:51.073439 16160 layer_factory.hpp:77] Creating layer inception_4e/5x5
I0403 18:05:51.073478 16160 net.cpp:91] Creating Layer inception_4e/5x5
I0403 18:05:51.073499 16160 net.cpp:425] inception_4e/5x5 <- inception_4e/5x5_reduce
I0403 18:05:51.073518 16160 net.cpp:399] inception_4e/5x5 -> inception_4e/5x5
I0403 18:05:51.075369 16160 net.cpp:141] Setting up inception_4e/5x5
I0403 18:05:51.075399 16160 net.cpp:148] Top shape: 24 128 14 14 (602112)
I0403 18:05:51.075414 16160 net.cpp:156] Memory required for data: 1239741984
I0403 18:05:51.075433 16160 layer_factory.hpp:77] Creating layer inception_4e/relu_5x5
I0403 18:05:51.075450 16160 net.cpp:91] Creating Layer inception_4e/relu_5x5
I0403 18:05:51.075467 16160 net.cpp:425] inception_4e/relu_5x5 <- inception_4e/5x5
I0403 18:05:51.075487 16160 net.cpp:386] inception_4e/relu_5x5 -> inception_4e/5x5 (in-place)
I0403 18:05:51.075685 16160 net.cpp:141] Setting up inception_4e/relu_5x5
I0403 18:05:51.075711 16160 net.cpp:148] Top shape: 24 128 14 14 (602112)
I0403 18:05:51.075726 16160 net.cpp:156] Memory required for data: 1242150432
I0403 18:05:51.075739 16160 layer_factory.hpp:77] Creating layer inception_4e/pool
I0403 18:05:51.075759 16160 net.cpp:91] Creating Layer inception_4e/pool
I0403 18:05:51.075778 16160 net.cpp:425] inception_4e/pool <- inception_4d/output_inception_4d/output_0_split_4
I0403 18:05:51.075796 16160 net.cpp:399] inception_4e/pool -> inception_4e/pool
I0403 18:05:51.075866 16160 net.cpp:141] Setting up inception_4e/pool
I0403 18:05:51.075889 16160 net.cpp:148] Top shape: 24 528 14 14 (2483712)
I0403 18:05:51.075904 16160 net.cpp:156] Memory required for data: 1252085280
I0403 18:05:51.075922 16160 layer_factory.hpp:77] Creating layer inception_4e/pool_proj
I0403 18:05:51.075943 16160 net.cpp:91] Creating Layer inception_4e/pool_proj
I0403 18:05:51.075961 16160 net.cpp:425] inception_4e/pool_proj <- inception_4e/pool
I0403 18:05:51.075986 16160 net.cpp:399] inception_4e/pool_proj -> inception_4e/pool_proj
I0403 18:05:51.077489 16160 net.cpp:141] Setting up inception_4e/pool_proj
I0403 18:05:51.077530 16160 net.cpp:148] Top shape: 24 128 14 14 (602112)
I0403 18:05:51.077548 16160 net.cpp:156] Memory required for data: 1254493728
I0403 18:05:51.077566 16160 layer_factory.hpp:77] Creating layer inception_4e/relu_pool_proj
I0403 18:05:51.077584 16160 net.cpp:91] Creating Layer inception_4e/relu_pool_proj
I0403 18:05:51.077601 16160 net.cpp:425] inception_4e/relu_pool_proj <- inception_4e/pool_proj
I0403 18:05:51.077618 16160 net.cpp:386] inception_4e/relu_pool_proj -> inception_4e/pool_proj (in-place)
I0403 18:05:51.077911 16160 net.cpp:141] Setting up inception_4e/relu_pool_proj
I0403 18:05:51.077942 16160 net.cpp:148] Top shape: 24 128 14 14 (602112)
I0403 18:05:51.077958 16160 net.cpp:156] Memory required for data: 1256902176
I0403 18:05:51.077973 16160 layer_factory.hpp:77] Creating layer inception_4e/output
I0403 18:05:51.078003 16160 net.cpp:91] Creating Layer inception_4e/output
I0403 18:05:51.078022 16160 net.cpp:425] inception_4e/output <- inception_4e/1x1
I0403 18:05:51.078038 16160 net.cpp:425] inception_4e/output <- inception_4e/3x3
I0403 18:05:51.078053 16160 net.cpp:425] inception_4e/output <- inception_4e/5x5
I0403 18:05:51.078069 16160 net.cpp:425] inception_4e/output <- inception_4e/pool_proj
I0403 18:05:51.078086 16160 net.cpp:399] inception_4e/output -> inception_4e/output
I0403 18:05:51.078137 16160 net.cpp:141] Setting up inception_4e/output
I0403 18:05:51.078161 16160 net.cpp:148] Top shape: 24 832 14 14 (3913728)
I0403 18:05:51.078176 16160 net.cpp:156] Memory required for data: 1272557088
I0403 18:05:51.078191 16160 layer_factory.hpp:77] Creating layer pool4/3x3_s2
I0403 18:05:51.078212 16160 net.cpp:91] Creating Layer pool4/3x3_s2
I0403 18:05:51.078229 16160 net.cpp:425] pool4/3x3_s2 <- inception_4e/output
I0403 18:05:51.078248 16160 net.cpp:399] pool4/3x3_s2 -> pool4/3x3_s2
I0403 18:05:51.078316 16160 net.cpp:141] Setting up pool4/3x3_s2
I0403 18:05:51.078341 16160 net.cpp:148] Top shape: 24 832 7 7 (978432)
I0403 18:05:51.078356 16160 net.cpp:156] Memory required for data: 1276470816
I0403 18:05:51.078369 16160 layer_factory.hpp:77] Creating layer pool4/3x3_s2_pool4/3x3_s2_0_split
I0403 18:05:51.078387 16160 net.cpp:91] Creating Layer pool4/3x3_s2_pool4/3x3_s2_0_split
I0403 18:05:51.078402 16160 net.cpp:425] pool4/3x3_s2_pool4/3x3_s2_0_split <- pool4/3x3_s2
I0403 18:05:51.078423 16160 net.cpp:399] pool4/3x3_s2_pool4/3x3_s2_0_split -> pool4/3x3_s2_pool4/3x3_s2_0_split_0
I0403 18:05:51.078444 16160 net.cpp:399] pool4/3x3_s2_pool4/3x3_s2_0_split -> pool4/3x3_s2_pool4/3x3_s2_0_split_1
I0403 18:05:51.078464 16160 net.cpp:399] pool4/3x3_s2_pool4/3x3_s2_0_split -> pool4/3x3_s2_pool4/3x3_s2_0_split_2
I0403 18:05:51.078483 16160 net.cpp:399] pool4/3x3_s2_pool4/3x3_s2_0_split -> pool4/3x3_s2_pool4/3x3_s2_0_split_3
I0403 18:05:51.078575 16160 net.cpp:141] Setting up pool4/3x3_s2_pool4/3x3_s2_0_split
I0403 18:05:51.078600 16160 net.cpp:148] Top shape: 24 832 7 7 (978432)
I0403 18:05:51.078618 16160 net.cpp:148] Top shape: 24 832 7 7 (978432)
I0403 18:05:51.078634 16160 net.cpp:148] Top shape: 24 832 7 7 (978432)
I0403 18:05:51.078649 16160 net.cpp:148] Top shape: 24 832 7 7 (978432)
I0403 18:05:51.078661 16160 net.cpp:156] Memory required for data: 1292125728
I0403 18:05:51.078676 16160 layer_factory.hpp:77] Creating layer inception_5a/1x1
I0403 18:05:51.078698 16160 net.cpp:91] Creating Layer inception_5a/1x1
I0403 18:05:51.078716 16160 net.cpp:425] inception_5a/1x1 <- pool4/3x3_s2_pool4/3x3_s2_0_split_0
I0403 18:05:51.078735 16160 net.cpp:399] inception_5a/1x1 -> inception_5a/1x1
I0403 18:05:51.081606 16160 net.cpp:141] Setting up inception_5a/1x1
I0403 18:05:51.081635 16160 net.cpp:148] Top shape: 24 256 7 7 (301056)
I0403 18:05:51.081651 16160 net.cpp:156] Memory required for data: 1293329952
I0403 18:05:51.081670 16160 layer_factory.hpp:77] Creating layer inception_5a/relu_1x1
I0403 18:05:51.081688 16160 net.cpp:91] Creating Layer inception_5a/relu_1x1
I0403 18:05:51.081704 16160 net.cpp:425] inception_5a/relu_1x1 <- inception_5a/1x1
I0403 18:05:51.081724 16160 net.cpp:386] inception_5a/relu_1x1 -> inception_5a/1x1 (in-place)
I0403 18:05:51.082046 16160 net.cpp:141] Setting up inception_5a/relu_1x1
I0403 18:05:51.082082 16160 net.cpp:148] Top shape: 24 256 7 7 (301056)
I0403 18:05:51.082098 16160 net.cpp:156] Memory required for data: 1294534176
I0403 18:05:51.082113 16160 layer_factory.hpp:77] Creating layer inception_5a/3x3_reduce
I0403 18:05:51.082135 16160 net.cpp:91] Creating Layer inception_5a/3x3_reduce
I0403 18:05:51.082154 16160 net.cpp:425] inception_5a/3x3_reduce <- pool4/3x3_s2_pool4/3x3_s2_0_split_1
I0403 18:05:51.082186 16160 net.cpp:399] inception_5a/3x3_reduce -> inception_5a/3x3_reduce
I0403 18:05:51.084676 16160 net.cpp:141] Setting up inception_5a/3x3_reduce
I0403 18:05:51.084707 16160 net.cpp:148] Top shape: 24 160 7 7 (188160)
I0403 18:05:51.084722 16160 net.cpp:156] Memory required for data: 1295286816
I0403 18:05:51.084740 16160 layer_factory.hpp:77] Creating layer inception_5a/relu_3x3_reduce
I0403 18:05:51.084759 16160 net.cpp:91] Creating Layer inception_5a/relu_3x3_reduce
I0403 18:05:51.084775 16160 net.cpp:425] inception_5a/relu_3x3_reduce <- inception_5a/3x3_reduce
I0403 18:05:51.084792 16160 net.cpp:386] inception_5a/relu_3x3_reduce -> inception_5a/3x3_reduce (in-place)
I0403 18:05:51.084986 16160 net.cpp:141] Setting up inception_5a/relu_3x3_reduce
I0403 18:05:51.085013 16160 net.cpp:148] Top shape: 24 160 7 7 (188160)
I0403 18:05:51.085029 16160 net.cpp:156] Memory required for data: 1296039456
I0403 18:05:51.085044 16160 layer_factory.hpp:77] Creating layer inception_5a/3x3
I0403 18:05:51.085067 16160 net.cpp:91] Creating Layer inception_5a/3x3
I0403 18:05:51.085084 16160 net.cpp:425] inception_5a/3x3 <- inception_5a/3x3_reduce
I0403 18:05:51.085104 16160 net.cpp:399] inception_5a/3x3 -> inception_5a/3x3
I0403 18:05:51.090152 16160 net.cpp:141] Setting up inception_5a/3x3
I0403 18:05:51.090181 16160 net.cpp:148] Top shape: 24 320 7 7 (376320)
I0403 18:05:51.090198 16160 net.cpp:156] Memory required for data: 1297544736
I0403 18:05:51.090215 16160 layer_factory.hpp:77] Creating layer inception_5a/relu_3x3
I0403 18:05:51.090234 16160 net.cpp:91] Creating Layer inception_5a/relu_3x3
I0403 18:05:51.090250 16160 net.cpp:425] inception_5a/relu_3x3 <- inception_5a/3x3
I0403 18:05:51.090270 16160 net.cpp:386] inception_5a/relu_3x3 -> inception_5a/3x3 (in-place)
I0403 18:05:51.090569 16160 net.cpp:141] Setting up inception_5a/relu_3x3
I0403 18:05:51.090595 16160 net.cpp:148] Top shape: 24 320 7 7 (376320)
I0403 18:05:51.090610 16160 net.cpp:156] Memory required for data: 1299050016
I0403 18:05:51.090626 16160 layer_factory.hpp:77] Creating layer inception_5a/5x5_reduce
I0403 18:05:51.090647 16160 net.cpp:91] Creating Layer inception_5a/5x5_reduce
I0403 18:05:51.090665 16160 net.cpp:425] inception_5a/5x5_reduce <- pool4/3x3_s2_pool4/3x3_s2_0_split_2
I0403 18:05:51.090688 16160 net.cpp:399] inception_5a/5x5_reduce -> inception_5a/5x5_reduce
I0403 18:05:51.092025 16160 net.cpp:141] Setting up inception_5a/5x5_reduce
I0403 18:05:51.092054 16160 net.cpp:148] Top shape: 24 32 7 7 (37632)
I0403 18:05:51.092070 16160 net.cpp:156] Memory required for data: 1299200544
I0403 18:05:51.092088 16160 layer_factory.hpp:77] Creating layer inception_5a/relu_5x5_reduce
I0403 18:05:51.092108 16160 net.cpp:91] Creating Layer inception_5a/relu_5x5_reduce
I0403 18:05:51.092126 16160 net.cpp:425] inception_5a/relu_5x5_reduce <- inception_5a/5x5_reduce
I0403 18:05:51.092144 16160 net.cpp:386] inception_5a/relu_5x5_reduce -> inception_5a/5x5_reduce (in-place)
I0403 18:05:51.092447 16160 net.cpp:141] Setting up inception_5a/relu_5x5_reduce
I0403 18:05:51.092471 16160 net.cpp:148] Top shape: 24 32 7 7 (37632)
I0403 18:05:51.092488 16160 net.cpp:156] Memory required for data: 1299351072
I0403 18:05:51.092502 16160 layer_factory.hpp:77] Creating layer inception_5a/5x5
I0403 18:05:51.092525 16160 net.cpp:91] Creating Layer inception_5a/5x5
I0403 18:05:51.092542 16160 net.cpp:425] inception_5a/5x5 <- inception_5a/5x5_reduce
I0403 18:05:51.092563 16160 net.cpp:399] inception_5a/5x5 -> inception_5a/5x5
I0403 18:05:51.094290 16160 net.cpp:141] Setting up inception_5a/5x5
I0403 18:05:51.094329 16160 net.cpp:148] Top shape: 24 128 7 7 (150528)
I0403 18:05:51.094346 16160 net.cpp:156] Memory required for data: 1299953184
I0403 18:05:51.094363 16160 layer_factory.hpp:77] Creating layer inception_5a/relu_5x5
I0403 18:05:51.094382 16160 net.cpp:91] Creating Layer inception_5a/relu_5x5
I0403 18:05:51.094398 16160 net.cpp:425] inception_5a/relu_5x5 <- inception_5a/5x5
I0403 18:05:51.094418 16160 net.cpp:386] inception_5a/relu_5x5 -> inception_5a/5x5 (in-place)
I0403 18:05:51.094610 16160 net.cpp:141] Setting up inception_5a/relu_5x5
I0403 18:05:51.094635 16160 net.cpp:148] Top shape: 24 128 7 7 (150528)
I0403 18:05:51.094650 16160 net.cpp:156] Memory required for data: 1300555296
I0403 18:05:51.094665 16160 layer_factory.hpp:77] Creating layer inception_5a/pool
I0403 18:05:51.094683 16160 net.cpp:91] Creating Layer inception_5a/pool
I0403 18:05:51.094701 16160 net.cpp:425] inception_5a/pool <- pool4/3x3_s2_pool4/3x3_s2_0_split_3
I0403 18:05:51.094718 16160 net.cpp:399] inception_5a/pool -> inception_5a/pool
I0403 18:05:51.094789 16160 net.cpp:141] Setting up inception_5a/pool
I0403 18:05:51.094812 16160 net.cpp:148] Top shape: 24 832 7 7 (978432)
I0403 18:05:51.094826 16160 net.cpp:156] Memory required for data: 1304469024
I0403 18:05:51.094841 16160 layer_factory.hpp:77] Creating layer inception_5a/pool_proj
I0403 18:05:51.094863 16160 net.cpp:91] Creating Layer inception_5a/pool_proj
I0403 18:05:51.094880 16160 net.cpp:425] inception_5a/pool_proj <- inception_5a/pool
I0403 18:05:51.094902 16160 net.cpp:399] inception_5a/pool_proj -> inception_5a/pool_proj
I0403 18:05:51.097198 16160 net.cpp:141] Setting up inception_5a/pool_proj
I0403 18:05:51.097229 16160 net.cpp:148] Top shape: 24 128 7 7 (150528)
I0403 18:05:51.097245 16160 net.cpp:156] Memory required for data: 1305071136
I0403 18:05:51.097265 16160 layer_factory.hpp:77] Creating layer inception_5a/relu_pool_proj
I0403 18:05:51.097282 16160 net.cpp:91] Creating Layer inception_5a/relu_pool_proj
I0403 18:05:51.097298 16160 net.cpp:425] inception_5a/relu_pool_proj <- inception_5a/pool_proj
I0403 18:05:51.097317 16160 net.cpp:386] inception_5a/relu_pool_proj -> inception_5a/pool_proj (in-place)
I0403 18:05:51.097615 16160 net.cpp:141] Setting up inception_5a/relu_pool_proj
I0403 18:05:51.097643 16160 net.cpp:148] Top shape: 24 128 7 7 (150528)
I0403 18:05:51.097659 16160 net.cpp:156] Memory required for data: 1305673248
I0403 18:05:51.097674 16160 layer_factory.hpp:77] Creating layer inception_5a/output
I0403 18:05:51.097692 16160 net.cpp:91] Creating Layer inception_5a/output
I0403 18:05:51.097708 16160 net.cpp:425] inception_5a/output <- inception_5a/1x1
I0403 18:05:51.097725 16160 net.cpp:425] inception_5a/output <- inception_5a/3x3
I0403 18:05:51.097741 16160 net.cpp:425] inception_5a/output <- inception_5a/5x5
I0403 18:05:51.097757 16160 net.cpp:425] inception_5a/output <- inception_5a/pool_proj
I0403 18:05:51.097774 16160 net.cpp:399] inception_5a/output -> inception_5a/output
I0403 18:05:51.097826 16160 net.cpp:141] Setting up inception_5a/output
I0403 18:05:51.097849 16160 net.cpp:148] Top shape: 24 832 7 7 (978432)
I0403 18:05:51.097864 16160 net.cpp:156] Memory required for data: 1309586976
I0403 18:05:51.097878 16160 layer_factory.hpp:77] Creating layer inception_5a/output_inception_5a/output_0_split
I0403 18:05:51.097898 16160 net.cpp:91] Creating Layer inception_5a/output_inception_5a/output_0_split
I0403 18:05:51.097915 16160 net.cpp:425] inception_5a/output_inception_5a/output_0_split <- inception_5a/output
I0403 18:05:51.097932 16160 net.cpp:399] inception_5a/output_inception_5a/output_0_split -> inception_5a/output_inception_5a/output_0_split_0
I0403 18:05:51.097952 16160 net.cpp:399] inception_5a/output_inception_5a/output_0_split -> inception_5a/output_inception_5a/output_0_split_1
I0403 18:05:51.097973 16160 net.cpp:399] inception_5a/output_inception_5a/output_0_split -> inception_5a/output_inception_5a/output_0_split_2
I0403 18:05:51.098011 16160 net.cpp:399] inception_5a/output_inception_5a/output_0_split -> inception_5a/output_inception_5a/output_0_split_3
I0403 18:05:51.098120 16160 net.cpp:141] Setting up inception_5a/output_inception_5a/output_0_split
I0403 18:05:51.098145 16160 net.cpp:148] Top shape: 24 832 7 7 (978432)
I0403 18:05:51.098160 16160 net.cpp:148] Top shape: 24 832 7 7 (978432)
I0403 18:05:51.098176 16160 net.cpp:148] Top shape: 24 832 7 7 (978432)
I0403 18:05:51.098191 16160 net.cpp:148] Top shape: 24 832 7 7 (978432)
I0403 18:05:51.098204 16160 net.cpp:156] Memory required for data: 1325241888
I0403 18:05:51.098218 16160 layer_factory.hpp:77] Creating layer inception_5b/1x1
I0403 18:05:51.098240 16160 net.cpp:91] Creating Layer inception_5b/1x1
I0403 18:05:51.098258 16160 net.cpp:425] inception_5b/1x1 <- inception_5a/output_inception_5a/output_0_split_0
I0403 18:05:51.098278 16160 net.cpp:399] inception_5b/1x1 -> inception_5b/1x1
I0403 18:05:51.102109 16160 net.cpp:141] Setting up inception_5b/1x1
I0403 18:05:51.102140 16160 net.cpp:148] Top shape: 24 384 7 7 (451584)
I0403 18:05:51.102156 16160 net.cpp:156] Memory required for data: 1327048224
I0403 18:05:51.102174 16160 layer_factory.hpp:77] Creating layer inception_5b/relu_1x1
I0403 18:05:51.102193 16160 net.cpp:91] Creating Layer inception_5b/relu_1x1
I0403 18:05:51.102210 16160 net.cpp:425] inception_5b/relu_1x1 <- inception_5b/1x1
I0403 18:05:51.102226 16160 net.cpp:386] inception_5b/relu_1x1 -> inception_5b/1x1 (in-place)
I0403 18:05:51.102535 16160 net.cpp:141] Setting up inception_5b/relu_1x1
I0403 18:05:51.102562 16160 net.cpp:148] Top shape: 24 384 7 7 (451584)
I0403 18:05:51.102577 16160 net.cpp:156] Memory required for data: 1328854560
I0403 18:05:51.102592 16160 layer_factory.hpp:77] Creating layer inception_5b/3x3_reduce
I0403 18:05:51.102613 16160 net.cpp:91] Creating Layer inception_5b/3x3_reduce
I0403 18:05:51.102629 16160 net.cpp:425] inception_5b/3x3_reduce <- inception_5a/output_inception_5a/output_0_split_1
I0403 18:05:51.102651 16160 net.cpp:399] inception_5b/3x3_reduce -> inception_5b/3x3_reduce
I0403 18:05:51.105310 16160 net.cpp:141] Setting up inception_5b/3x3_reduce
I0403 18:05:51.105341 16160 net.cpp:148] Top shape: 24 192 7 7 (225792)
I0403 18:05:51.105358 16160 net.cpp:156] Memory required for data: 1329757728
I0403 18:05:51.105376 16160 layer_factory.hpp:77] Creating layer inception_5b/relu_3x3_reduce
I0403 18:05:51.105394 16160 net.cpp:91] Creating Layer inception_5b/relu_3x3_reduce
I0403 18:05:51.105412 16160 net.cpp:425] inception_5b/relu_3x3_reduce <- inception_5b/3x3_reduce
I0403 18:05:51.105432 16160 net.cpp:386] inception_5b/relu_3x3_reduce -> inception_5b/3x3_reduce (in-place)
I0403 18:05:51.105623 16160 net.cpp:141] Setting up inception_5b/relu_3x3_reduce
I0403 18:05:51.105648 16160 net.cpp:148] Top shape: 24 192 7 7 (225792)
I0403 18:05:51.105662 16160 net.cpp:156] Memory required for data: 1330660896
I0403 18:05:51.105677 16160 layer_factory.hpp:77] Creating layer inception_5b/3x3
I0403 18:05:51.105700 16160 net.cpp:91] Creating Layer inception_5b/3x3
I0403 18:05:51.105717 16160 net.cpp:425] inception_5b/3x3 <- inception_5b/3x3_reduce
I0403 18:05:51.105741 16160 net.cpp:399] inception_5b/3x3 -> inception_5b/3x3
I0403 18:05:51.112460 16160 net.cpp:141] Setting up inception_5b/3x3
I0403 18:05:51.112491 16160 net.cpp:148] Top shape: 24 384 7 7 (451584)
I0403 18:05:51.112507 16160 net.cpp:156] Memory required for data: 1332467232
I0403 18:05:51.112525 16160 layer_factory.hpp:77] Creating layer inception_5b/relu_3x3
I0403 18:05:51.112543 16160 net.cpp:91] Creating Layer inception_5b/relu_3x3
I0403 18:05:51.112561 16160 net.cpp:425] inception_5b/relu_3x3 <- inception_5b/3x3
I0403 18:05:51.112581 16160 net.cpp:386] inception_5b/relu_3x3 -> inception_5b/3x3 (in-place)
I0403 18:05:51.112880 16160 net.cpp:141] Setting up inception_5b/relu_3x3
I0403 18:05:51.112908 16160 net.cpp:148] Top shape: 24 384 7 7 (451584)
I0403 18:05:51.112926 16160 net.cpp:156] Memory required for data: 1334273568
I0403 18:05:51.112941 16160 layer_factory.hpp:77] Creating layer inception_5b/5x5_reduce
I0403 18:05:51.112983 16160 net.cpp:91] Creating Layer inception_5b/5x5_reduce
I0403 18:05:51.113003 16160 net.cpp:425] inception_5b/5x5_reduce <- inception_5a/output_inception_5a/output_0_split_2
I0403 18:05:51.113023 16160 net.cpp:399] inception_5b/5x5_reduce -> inception_5b/5x5_reduce
I0403 18:05:51.114297 16160 net.cpp:141] Setting up inception_5b/5x5_reduce
I0403 18:05:51.114327 16160 net.cpp:148] Top shape: 24 48 7 7 (56448)
I0403 18:05:51.114343 16160 net.cpp:156] Memory required for data: 1334499360
I0403 18:05:51.114362 16160 layer_factory.hpp:77] Creating layer inception_5b/relu_5x5_reduce
I0403 18:05:51.114380 16160 net.cpp:91] Creating Layer inception_5b/relu_5x5_reduce
I0403 18:05:51.114398 16160 net.cpp:425] inception_5b/relu_5x5_reduce <- inception_5b/5x5_reduce
I0403 18:05:51.114415 16160 net.cpp:386] inception_5b/relu_5x5_reduce -> inception_5b/5x5_reduce (in-place)
I0403 18:05:51.114792 16160 net.cpp:141] Setting up inception_5b/relu_5x5_reduce
I0403 18:05:51.114819 16160 net.cpp:148] Top shape: 24 48 7 7 (56448)
I0403 18:05:51.114835 16160 net.cpp:156] Memory required for data: 1334725152
I0403 18:05:51.114850 16160 layer_factory.hpp:77] Creating layer inception_5b/5x5
I0403 18:05:51.114869 16160 net.cpp:91] Creating Layer inception_5b/5x5
I0403 18:05:51.114888 16160 net.cpp:425] inception_5b/5x5 <- inception_5b/5x5_reduce
I0403 18:05:51.114907 16160 net.cpp:399] inception_5b/5x5 -> inception_5b/5x5
I0403 18:05:51.117002 16160 net.cpp:141] Setting up inception_5b/5x5
I0403 18:05:51.117029 16160 net.cpp:148] Top shape: 24 128 7 7 (150528)
I0403 18:05:51.117044 16160 net.cpp:156] Memory required for data: 1335327264
I0403 18:05:51.117063 16160 layer_factory.hpp:77] Creating layer inception_5b/relu_5x5
I0403 18:05:51.117080 16160 net.cpp:91] Creating Layer inception_5b/relu_5x5
I0403 18:05:51.117097 16160 net.cpp:425] inception_5b/relu_5x5 <- inception_5b/5x5
I0403 18:05:51.117116 16160 net.cpp:386] inception_5b/relu_5x5 -> inception_5b/5x5 (in-place)
I0403 18:05:51.117311 16160 net.cpp:141] Setting up inception_5b/relu_5x5
I0403 18:05:51.117336 16160 net.cpp:148] Top shape: 24 128 7 7 (150528)
I0403 18:05:51.117350 16160 net.cpp:156] Memory required for data: 1335929376
I0403 18:05:51.117365 16160 layer_factory.hpp:77] Creating layer inception_5b/pool
I0403 18:05:51.117385 16160 net.cpp:91] Creating Layer inception_5b/pool
I0403 18:05:51.117403 16160 net.cpp:425] inception_5b/pool <- inception_5a/output_inception_5a/output_0_split_3
I0403 18:05:51.117421 16160 net.cpp:399] inception_5b/pool -> inception_5b/pool
I0403 18:05:51.117494 16160 net.cpp:141] Setting up inception_5b/pool
I0403 18:05:51.117518 16160 net.cpp:148] Top shape: 24 832 7 7 (978432)
I0403 18:05:51.117533 16160 net.cpp:156] Memory required for data: 1339843104
I0403 18:05:51.117548 16160 layer_factory.hpp:77] Creating layer inception_5b/pool_proj
I0403 18:05:51.117570 16160 net.cpp:91] Creating Layer inception_5b/pool_proj
I0403 18:05:51.117588 16160 net.cpp:425] inception_5b/pool_proj <- inception_5b/pool
I0403 18:05:51.117609 16160 net.cpp:399] inception_5b/pool_proj -> inception_5b/pool_proj
I0403 18:05:51.119889 16160 net.cpp:141] Setting up inception_5b/pool_proj
I0403 18:05:51.119935 16160 net.cpp:148] Top shape: 24 128 7 7 (150528)
I0403 18:05:51.119951 16160 net.cpp:156] Memory required for data: 1340445216
I0403 18:05:51.119969 16160 layer_factory.hpp:77] Creating layer inception_5b/relu_pool_proj
I0403 18:05:51.119992 16160 net.cpp:91] Creating Layer inception_5b/relu_pool_proj
I0403 18:05:51.120010 16160 net.cpp:425] inception_5b/relu_pool_proj <- inception_5b/pool_proj
I0403 18:05:51.120029 16160 net.cpp:386] inception_5b/relu_pool_proj -> inception_5b/pool_proj (in-place)
I0403 18:05:51.120337 16160 net.cpp:141] Setting up inception_5b/relu_pool_proj
I0403 18:05:51.120365 16160 net.cpp:148] Top shape: 24 128 7 7 (150528)
I0403 18:05:51.120380 16160 net.cpp:156] Memory required for data: 1341047328
I0403 18:05:51.120395 16160 layer_factory.hpp:77] Creating layer inception_5b/output
I0403 18:05:51.120412 16160 net.cpp:91] Creating Layer inception_5b/output
I0403 18:05:51.120441 16160 net.cpp:425] inception_5b/output <- inception_5b/1x1
I0403 18:05:51.120460 16160 net.cpp:425] inception_5b/output <- inception_5b/3x3
I0403 18:05:51.120476 16160 net.cpp:425] inception_5b/output <- inception_5b/5x5
I0403 18:05:51.120491 16160 net.cpp:425] inception_5b/output <- inception_5b/pool_proj
I0403 18:05:51.120507 16160 net.cpp:399] inception_5b/output -> inception_5b/output
I0403 18:05:51.120558 16160 net.cpp:141] Setting up inception_5b/output
I0403 18:05:51.120580 16160 net.cpp:148] Top shape: 24 1024 7 7 (1204224)
I0403 18:05:51.120594 16160 net.cpp:156] Memory required for data: 1345864224
I0403 18:05:51.120609 16160 layer_factory.hpp:77] Creating layer pool5/7x7_s1
I0403 18:05:51.120628 16160 net.cpp:91] Creating Layer pool5/7x7_s1
I0403 18:05:51.120645 16160 net.cpp:425] pool5/7x7_s1 <- inception_5b/output
I0403 18:05:51.120662 16160 net.cpp:399] pool5/7x7_s1 -> pool5/7x7_s1
I0403 18:05:51.120873 16160 net.cpp:141] Setting up pool5/7x7_s1
I0403 18:05:51.120898 16160 net.cpp:148] Top shape: 24 1024 1 1 (24576)
I0403 18:05:51.120913 16160 net.cpp:156] Memory required for data: 1345962528
I0403 18:05:51.120928 16160 layer_factory.hpp:77] Creating layer pool5/drop_7x7_s1
I0403 18:05:51.120945 16160 net.cpp:91] Creating Layer pool5/drop_7x7_s1
I0403 18:05:51.120960 16160 net.cpp:425] pool5/drop_7x7_s1 <- pool5/7x7_s1
I0403 18:05:51.120983 16160 net.cpp:386] pool5/drop_7x7_s1 -> pool5/7x7_s1 (in-place)
I0403 18:05:51.121034 16160 net.cpp:141] Setting up pool5/drop_7x7_s1
I0403 18:05:51.121059 16160 net.cpp:148] Top shape: 24 1024 1 1 (24576)
I0403 18:05:51.121074 16160 net.cpp:156] Memory required for data: 1346060832
I0403 18:05:51.121088 16160 layer_factory.hpp:77] Creating layer loss3/classifier_plantvillage
I0403 18:05:51.121106 16160 net.cpp:91] Creating Layer loss3/classifier_plantvillage
I0403 18:05:51.121122 16160 net.cpp:425] loss3/classifier_plantvillage <- pool5/7x7_s1
I0403 18:05:51.121142 16160 net.cpp:399] loss3/classifier_plantvillage -> loss3/classifier_plantvillage
I0403 18:05:51.121554 16160 net.cpp:141] Setting up loss3/classifier_plantvillage
I0403 18:05:51.121578 16160 net.cpp:148] Top shape: 24 38 (912)
I0403 18:05:51.121592 16160 net.cpp:156] Memory required for data: 1346064480
I0403 18:05:51.121610 16160 layer_factory.hpp:77] Creating layer loss3/classifier_plantvillage_loss3/classifier_plantvillage_0_split
I0403 18:05:51.121630 16160 net.cpp:91] Creating Layer loss3/classifier_plantvillage_loss3/classifier_plantvillage_0_split
I0403 18:05:51.121649 16160 net.cpp:425] loss3/classifier_plantvillage_loss3/classifier_plantvillage_0_split <- loss3/classifier_plantvillage
I0403 18:05:51.121665 16160 net.cpp:399] loss3/classifier_plantvillage_loss3/classifier_plantvillage_0_split -> loss3/classifier_plantvillage_loss3/classifier_plantvillage_0_split_0
I0403 18:05:51.121685 16160 net.cpp:399] loss3/classifier_plantvillage_loss3/classifier_plantvillage_0_split -> loss3/classifier_plantvillage_loss3/classifier_plantvillage_0_split_1
I0403 18:05:51.121704 16160 net.cpp:399] loss3/classifier_plantvillage_loss3/classifier_plantvillage_0_split -> loss3/classifier_plantvillage_loss3/classifier_plantvillage_0_split_2
I0403 18:05:51.121728 16160 net.cpp:399] loss3/classifier_plantvillage_loss3/classifier_plantvillage_0_split -> loss3/classifier_plantvillage_loss3/classifier_plantvillage_0_split_3
I0403 18:05:51.121827 16160 net.cpp:141] Setting up loss3/classifier_plantvillage_loss3/classifier_plantvillage_0_split
I0403 18:05:51.121850 16160 net.cpp:148] Top shape: 24 38 (912)
I0403 18:05:51.121865 16160 net.cpp:148] Top shape: 24 38 (912)
I0403 18:05:51.121881 16160 net.cpp:148] Top shape: 24 38 (912)
I0403 18:05:51.121896 16160 net.cpp:148] Top shape: 24 38 (912)
I0403 18:05:51.121909 16160 net.cpp:156] Memory required for data: 1346079072
I0403 18:05:51.121924 16160 layer_factory.hpp:77] Creating layer loss1/loss
I0403 18:05:51.121945 16160 net.cpp:91] Creating Layer loss1/loss
I0403 18:05:51.121963 16160 net.cpp:425] loss1/loss <- loss1/classifier_plantvillage_loss1/classifier_plantvillage_0_split_0
I0403 18:05:51.122007 16160 net.cpp:425] loss1/loss <- label_data_1_split_0
…
