…
I0403 18:03:03.073063 15980 net.cpp:313] The NetState phase (1) differed from the phase (0) specified by a rule in layer data
I0403 18:03:03.074219 15980 net.cpp:49] Initializing net from parameters: 
state {
  phase: TEST
}
layer {
  name: "data"
  type: "Data"
  top: "data"
  top: "label"
  include {
    phase: TEST
  }
  transform_param {
    mirror: false
    crop_size: 224
    mean_file: "/home/mohanty/data/final_dataset/lmdb/grayscale-60-40/mean.binaryproto"
  }
  data_param {
    source: "/home/mohanty/data/final_dataset/lmdb/grayscale-60-40/test_db"
    batch_size: 24
    backend: LMDB
  }
}
layer {
  name: "conv1/7x7_s2"
  type: "Convolution"
  bottom: "data"
  top: "conv1/7x7_s2"
  param {
    lr_mult: 1
    decay_mult: 1
  }
  param {
    lr_mult: 2
    decay_mult: 0
  }
  convolution_param {
    num_output: 64
    pad: 3
    kernel_size: 7
    stride: 2
    weight_filler {
      type: "xavier"
      std: 0.1
    }
    bias_filler {
      type: "constant"
      value: 0.2
    }
  }
}
layer {
  name: "conv1/relu_7x7"
  type: "ReLU"
  bottom: "conv1/7x7_s2"
  top: "conv1/7x7_s2"
}
layer {
  name: "pool1/3x3_s2"
  type: "Pooling"
  bottom: "conv1/7x7_s2"
  top: "pool1/3x3_s2"
  pooling_param {
    pool: MAX
    kernel_size: 3
    stride: 2
  }
}
layer {
  name: "pool1/norm1"
  type: "LRN"
  bottom: "pool1/3x3_s2"
  top: "pool1/norm1"
  lrn_param {
    local_size: 5
    alpha: 0.0001
    beta: 0.75
  }
}
layer {
  name: "conv2/3x3_reduce"
  type: "Convolution"
  bottom: "pool1/norm1"
  top: "conv2/3x3_reduce"
  param {
    lr_mult: 1
    decay_mult: 1
  }
  param {
    lr_mult: 2
    decay_mult: 0
  }
  convolution_param {
    num_output: 64
    kernel_size: 1
    weight_filler {
      type: "xavier"
      std: 0.1
    }
    bias_filler {
      type: "constant"
      value: 0.2
    }
  }
}
layer {
  name: "conv2/relu_3x3_reduce"
  type: "ReLU"
  bottom: "conv2/3x3_reduce"
  top: "conv2/3x3_reduce"
}
layer {
  name: "conv2/3x3"
  type: "Convolution"
  bottom: "conv2/3x3_reduce"
  top: "conv2/3x3"
  param {
    lr_mult: 1
    decay_mult: 1
  }
  param {
    lr_mult: 2
    decay_mult: 0
  }
  convolution_param {
    num_output: 192
    pad: 1
    kernel_size: 3
    weight_filler {
      type: "xavier"
      std: 0.03
    }
    bias_filler {
      type: "constant"
      value: 0.2
    }
  }
}
layer {
  name: "conv2/relu_3x3"
  type: "ReLU"
  bottom: "conv2/3x3"
  top: "conv2/3x3"
}
layer {
  name: "conv2/norm2"
  type: "LRN"
  bottom: "conv2/3x3"
  top: "conv2/norm2"
  lrn_param {
    local_size: 5
    alpha: 0.0001
    beta: 0.75
  }
}
layer {
  name: "pool2/3x3_s2"
  type: "Pooling"
  bottom: "conv2/norm2"
  top: "pool2/3x3_s2"
  pooling_param {
    pool: MAX
    kernel_size: 3
    stride: 2
  }
}
layer {
  name: "inception_3a/1x1"
  type: "Convolution"
  bottom: "pool2/3x3_s2"
  top: "inception_3a/1x1"
  param {
    lr_mult: 1
    decay_mult: 1
  }
  param {
    lr_mult: 2
    decay_mult: 0
  }
  convolution_param {
    num_output: 64
    kernel_size: 1
    weight_filler {
      type: "xavier"
      std: 0.03
    }
    bias_filler {
      type: "constant"
      value: 0.2
    }
  }
}
layer {
  name: "inception_3a/relu_1x1"
  type: "ReLU"
  bottom: "inception_3a/1x1"
  top: "inception_3a/1x1"
}
layer {
  name: "inception_3a/3x3_reduce"
  type: "Convolution"
  bottom: "pool2/3x3_s2"
  top: "inception_3a/3x3_reduce"
  param {
    lr_mult: 1
    decay_mult: 1
  }
  param {
    lr_mult: 2
    decay_mult: 0
  }
  convolution_param {
    num_output: 96
    kernel_size: 1
    weight_filler {
      type: "xavier"
      std: 0.09
    }
    bias_filler {
      type: "constant"
      value: 0.2
    }
  }
}
layer {
  name: "inception_3a/relu_3x3_reduce"
  type: "ReLU"
  bottom: "inception_3a/3x3_reduce"
  top: "inception_3a/3x3_reduce"
}
layer {
  name: "inception_3a/3x3"
  type: "Convolution"
  bottom: "inception_3a/3x3_reduce"
  top: "inception_3a/3x3"
  param {
    lr_mult: 1
    decay_mult: 1
  }
  param {
    lr_mult: 2
    decay_mult: 0
  }
  convolution_param {
    num_output: 128
    pad: 1
    kernel_size: 3
    weight_filler {
      type: "xavier"
      std: 0.03
    }
    bias_filler {
      type: "constant"
      value: 0.2
    }
  }
}
layer {
  name: "inception_3a/relu_3x3"
  type: "ReLU"
  bottom: "inception_3a/3x3"
  top: "inception_3a/3x3"
}
layer {
  name: "inception_3a/5x5_reduce"
  type: "Convolution"
  bottom: "pool2/3x3_s2"
  top: "inception_3a/5x5_reduce"
  param {
    lr_mult: 1
    decay_mult: 1
  }
  param {
    lr_mult: 2
    decay_mult: 0
  }
  convolution_param {
    num_output: 16
    kernel_size: 1
    weight_filler {
      type: "xavier"
      std: 0.2
    }
    bias_filler {
      type: "constant"
      value: 0.2
    }
  }
}
layer {
  name: "inception_3a/relu_5x5_reduce"
  type: "ReLU"
  bottom: "inception_3a/5x5_reduce"
  top: "inception_3a/5x5_reduce"
}
layer {
  name: "inception_3a/5x5"
  type: "Convolution"
  bottom: "inception_3a/5x5_reduce"
  top: "inception_3a/5x5"
  param {
    lr_mult: 1
    decay_mult: 1
  }
  param {
    lr_mult: 2
    decay_mult: 0
  }
  convolution_param {
    num_output: 32
    pad: 2
    kernel_size: 5
    weight_filler {
      type: "xavier"
      std: 0.03
    }
    bias_filler {
      type: "constant"
      value: 0.2
    }
  }
}
layer {
  name: "inception_3a/relu_5x5"
  type: "ReLU"
  bottom: "inception_3a/5x5"
  top: "inception_3a/5x5"
}
layer {
  name: "inception_3a/pool"
  type: "Pooling"
  bottom: "pool2/3x3_s2"
  top: "inception_3a/pool"
  pooling_param {
    pool: MAX
    kernel_size: 3
    stride: 1
    pad: 1
  }
}
layer {
  name: "inception_3a/pool_proj"
  type: "Convolution"
  bottom: "inception_3a/pool"
  top: "inception_3a/pool_proj"
  param {
    lr_mult: 1
    decay_mult: 1
  }
  param {
    lr_mult: 2
    decay_mult: 0
  }
  convolution_param {
    num_output: 32
    kernel_size: 1
    weight_filler {
      type: "xavier"
      std: 0.1
    }
    bias_filler {
      type: "constant"
      value: 0.2
    }
  }
}
layer {
  name: "inception_3a/relu_pool_proj"
  type: "ReLU"
  bottom: "inception_3a/pool_proj"
  top: "inception_3a/pool_proj"
}
layer {
  name: "inception_3a/output"
  type: "Concat"
  bottom: "inception_3a/1x1"
  bottom: "inception_3a/3x3"
  bottom: "inception_3a/5x5"
  bottom: "inception_3a/pool_proj"
  top: "inception_3a/output"
}
layer {
  name: "inception_3b/1x1"
  type: "Convolution"
  bottom: "inception_3a/output"
  top: "inception_3b/1x1"
  param {
    lr_mult: 1
    decay_mult: 1
  }
  param {
    lr_mult: 2
    decay_mult: 0
  }
  convolution_param {
    num_output: 128
    kernel_size: 1
    weight_filler {
      type: "xavier"
      std: 0.03
    }
    bias_filler {
      type: "constant"
      value: 0.2
    }
  }
}
layer {
  name: "inception_3b/relu_1x1"
  type: "ReLU"
  bottom: "inception_3b/1x1"
  top: "inception_3b/1x1"
}
layer {
  name: "inception_3b/3x3_reduce"
  type: "Convolution"
  bottom: "inception_3a/output"
  top: "inception_3b/3x3_reduce"
  param {
    lr_mult: 1
    decay_mult: 1
  }
  param {
    lr_mult: 2
    decay_mult: 0
  }
  convolution_param {
    num_output: 128
    kernel_size: 1
    weight_filler {
      type: "xavier"
      std: 0.09
    }
    bias_filler {
      type: "constant"
      value: 0.2
    }
  }
}
layer {
  name: "inception_3b/relu_3x3_reduce"
  type: "ReLU"
  bottom: "inception_3b/3x3_reduce"
  top: "inception_3b/3x3_reduce"
}
layer {
  name: "inception_3b/3x3"
  type: "Convolution"
  bottom: "inception_3b/3x3_reduce"
  top: "inception_3b/3x3"
  param {
    lr_mult: 1
    decay_mult: 1
  }
  param {
    lr_mult: 2
    decay_mult: 0
  }
  convolution_param {
    num_output: 192
    pad: 1
    kernel_size: 3
    weight_filler {
      type: "xavier"
      std: 0.03
    }
    bias_filler {
      type: "constant"
      value: 0.2
    }
  }
}
layer {
  name: "inception_3b/relu_3x3"
  type: "ReLU"
  bottom: "inception_3b/3x3"
  top: "inception_3b/3x3"
}
layer {
  name: "inception_3b/5x5_reduce"
  type: "Convolution"
  bottom: "inception_3a/output"
  top: "inception_3b/5x5_reduce"
  param {
    lr_mult: 1
    decay_mult: 1
  }
  param {
    lr_mult: 2
    decay_mult: 0
  }
  convolution_param {
    num_output: 32
    kernel_size: 1
    weight_filler {
      type: "xavier"
      std: 0.2
    }
    bias_filler {
      type: "constant"
      value: 0.2
    }
  }
}
layer {
  name: "inception_3b/relu_5x5_reduce"
  type: "ReLU"
  bottom: "inception_3b/5x5_reduce"
  top: "inception_3b/5x5_reduce"
}
layer {
  name: "inception_3b/5x5"
  type: "Convolution"
  bottom: "inception_3b/5x5_reduce"
  top: "inception_3b/5x5"
  param {
    lr_mult: 1
    decay_mult: 1
  }
  param {
    lr_mult: 2
    decay_mult: 0
  }
  convolution_param {
    num_output: 96
    pad: 2
    kernel_size: 5
    weight_filler {
      type: "xavier"
      std: 0.03
    }
    bias_filler {
      type: "constant"
      value: 0.2
    }
  }
}
layer {
  name: "inception_3b/relu_5x5"
  type: "ReLU"
  bottom: "inception_3b/5x5"
  top: "inception_3b/5x5"
}
layer {
  name: "inception_3b/pool"
  type: "Pooling"
  bottom: "inception_3a/output"
  top: "inception_3b/pool"
  pooling_param {
    pool: MAX
    kernel_size: 3
    stride: 1
    pad: 1
  }
}
layer {
  name: "inception_3b/pool_proj"
  type: "Convolution"
  bottom: "inception_3b/pool"
  top: "inception_3b/pool_proj"
  param {
    lr_mult: 1
    decay_mult: 1
  }
  param {
    lr_mult: 2
    decay_mult: 0
  }
  convolution_param {
    num_output: 64
    kernel_size: 1
    weight_filler {
      type: "xavier"
      std: 0.1
    }
    bias_filler {
      type: "constant"
      value: 0.2
    }
  }
}
layer {
  name: "inception_3b/relu_pool_proj"
  type: "ReLU"
  bottom: "inception_3b/pool_proj"
  top: "inception_3b/pool_proj"
}
layer {
  name: "inception_3b/output"
  type: "Concat"
  bottom: "inception_3b/1x1"
  bottom: "inception_3b/3x3"
  bottom: "inception_3b/5x5"
  bottom: "inception_3b/pool_proj"
  top: "inception_3b/output"
}
layer {
  name: "pool3/3x3_s2"
  type: "Pooling"
  bottom: "inception_3b/output"
  top: "pool3/3x3_s2"
  pooling_param {
    pool: MAX
    kernel_size: 3
    stride: 2
  }
}
layer {
  name: "inception_4a/1x1"
  type: "Convolution"
  bottom: "pool3/3x3_s2"
  top: "inception_4a/1x1"
  param {
    lr_mult: 1
    decay_mult: 1
  }
  param {
    lr_mult: 2
    decay_mult: 0
  }
  convolution_param {
    num_output: 192
    kernel_size: 1
    weight_filler {
      type: "xavier"
      std: 0.03
    }
    bias_filler {
      type: "constant"
      value: 0.2
    }
  }
}
layer {
  name: "inception_4a/relu_1x1"
  type: "ReLU"
  bottom: "inception_4a/1x1"
  top: "inception_4a/1x1"
}
layer {
  name: "inception_4a/3x3_reduce"
  type: "Convolution"
  bottom: "pool3/3x3_s2"
  top: "inception_4a/3x3_reduce"
  param {
    lr_mult: 1
    decay_mult: 1
  }
  param {
    lr_mult: 2
    decay_mult: 0
  }
  convolution_param {
    num_output: 96
    kernel_size: 1
    weight_filler {
      type: "xavier"
      std: 0.09
    }
    bias_filler {
      type: "constant"
      value: 0.2
    }
  }
}
layer {
  name: "inception_4a/relu_3x3_reduce"
  type: "ReLU"
  bottom: "inception_4a/3x3_reduce"
  top: "inception_4a/3x3_reduce"
}
layer {
  name: "inception_4a/3x3"
  type: "Convolution"
  bottom: "inception_4a/3x3_reduce"
  top: "inception_4a/3x3"
  param {
    lr_mult: 1
    decay_mult: 1
  }
  param {
    lr_mult: 2
    decay_mult: 0
  }
  convolution_param {
    num_output: 208
    pad: 1
    kernel_size: 3
    weight_filler {
      type: "xavier"
      std: 0.03
    }
    bias_filler {
      type: "constant"
      value: 0.2
    }
  }
}
layer {
  name: "inception_4a/relu_3x3"
  type: "ReLU"
  bottom: "inception_4a/3x3"
  top: "inception_4a/3x3"
}
layer {
  name: "inception_4a/5x5_reduce"
  type: "Convolution"
  bottom: "pool3/3x3_s2"
  top: "inception_4a/5x5_reduce"
  param {
    lr_mult: 1
    decay_mult: 1
  }
  param {
    lr_mult: 2
    decay_mult: 0
  }
  convolution_param {
    num_output: 16
    kernel_size: 1
    weight_filler {
      type: "xavier"
      std: 0.2
    }
    bias_filler {
      type: "constant"
      value: 0.2
    }
  }
}
layer {
  name: "inception_4a/relu_5x5_reduce"
  type: "ReLU"
  bottom: "inception_4a/5x5_reduce"
  top: "inception_4a/5x5_reduce"
}
layer {
  name: "inception_4a/5x5"
  type: "Convolution"
  bottom: "inception_4a/5x5_reduce"
  top: "inception_4a/5x5"
  param {
    lr_mult: 1
    decay_mult: 1
  }
  param {
    lr_mult: 2
    decay_mult: 0
  }
  convolution_param {
    num_output: 48
    pad: 2
    kernel_size: 5
    weight_filler {
      type: "xavier"
      std: 0.03
    }
    bias_filler {
      type: "constant"
      value: 0.2
    }
  }
}
layer {
  name: "inception_4a/relu_5x5"
  type: "ReLU"
  bottom: "inception_4a/5x5"
  top: "inception_4a/5x5"
}
layer {
  name: "inception_4a/pool"
  type: "Pooling"
  bottom: "pool3/3x3_s2"
  top: "inception_4a/pool"
  pooling_param {
    pool: MAX
    kernel_size: 3
    stride: 1
    pad: 1
  }
}
layer {
  name: "inception_4a/pool_proj"
  type: "Convolution"
  bottom: "inception_4a/pool"
  top: "inception_4a/pool_proj"
  param {
    lr_mult: 1
    decay_mult: 1
  }
  param {
    lr_mult: 2
    decay_mult: 0
  }
  convolution_param {
    num_output: 64
    kernel_size: 1
    weight_filler {
      type: "xavier"
      std: 0.1
    }
    bias_filler {
      type: "constant"
      value: 0.2
    }
  }
}
layer {
  name: "inception_4a/relu_pool_proj"
  type: "ReLU"
  bottom: "inception_4a/pool_proj"
  top: "inception_4a/pool_proj"
}
layer {
  name: "inception_4a/output"
  type: "Concat"
  bottom: "inception_4a/1x1"
  bottom: "inception_4a/3x3"
  bottom: "inception_4a/5x5"
  bottom: "inception_4a/pool_proj"
  top: "inception_4a/output"
}
layer {
  name: "loss1/ave_pool"
  type: "Pooling"
  bottom: "inception_4a/output"
  top: "loss1/ave_pool"
  pooling_param {
    pool: AVE
    kernel_size: 5
    stride: 3
  }
}
layer {
  name: "loss1/conv"
  type: "Convolution"
  bottom: "loss1/ave_pool"
  top: "loss1/conv"
  param {
    lr_mult: 1
    decay_mult: 1
  }
  param {
    lr_mult: 2
    decay_mult: 0
  }
  convolution_param {
    num_output: 128
    kernel_size: 1
    weight_filler {
      type: "xavier"
      std: 0.08
    }
    bias_filler {
      type: "constant"
      value: 0.2
    }
  }
}
layer {
  name: "loss1/relu_conv"
  type: "ReLU"
  bottom: "loss1/conv"
  top: "loss1/conv"
}
layer {
  name: "loss1/fc"
  type: "InnerProduct"
  bottom: "loss1/conv"
  top: "loss1/fc"
  param {
    lr_mult: 1
    decay_mult: 1
  }
  param {
    lr_mult: 2
    decay_mult: 0
  }
  inner_product_param {
    num_output: 1024
    weight_filler {
      type: "xavier"
      std: 0.02
    }
    bias_filler {
      type: "constant"
      value: 0.2
    }
  }
}
layer {
  name: "loss1/relu_fc"
  type: "ReLU"
  bottom: "loss1/fc"
  top: "loss1/fc"
}
layer {
  name: "loss1/drop_fc"
  type: "Dropout"
  bottom: "loss1/fc"
  top: "loss1/fc"
  dropout_param {
    dropout_ratio: 0.7
  }
}
layer {
  name: "loss1/classifier_plantvillage"
  type: "InnerProduct"
  bottom: "loss1/fc"
  top: "loss1/classifier_plantvillage"
  param {
    lr_mult: 1
    decay_mult: 1
  }
  param {
    lr_mult: 2
    decay_mult: 0
  }
  inner_product_param {
    num_output: 38
    weight_filler {
      type: "xavier"
      std: 0.0009765625
    }
    bias_filler {
      type: "constant"
      value: 0
    }
  }
}
layer {
  name: "inception_4b/1x1"
  type: "Convolution"
  bottom: "inception_4a/output"
  top: "inception_4b/1x1"
  param {
    lr_mult: 1
    decay_mult: 1
  }
  param {
    lr_mult: 2
    decay_mult: 0
  }
  convolution_param {
    num_output: 160
    kernel_size: 1
    weight_filler {
      type: "xavier"
      std: 0.03
    }
    bias_filler {
      type: "constant"
      value: 0.2
    }
  }
}
layer {
  name: "inception_4b/relu_1x1"
  type: "ReLU"
  bottom: "inception_4b/1x1"
  top: "inception_4b/1x1"
}
layer {
  name: "inception_4b/3x3_reduce"
  type: "Convolution"
  bottom: "inception_4a/output"
  top: "inception_4b/3x3_reduce"
  param {
    lr_mult: 1
    decay_mult: 1
  }
  param {
    lr_mult: 2
    decay_mult: 0
  }
  convolution_param {
    num_output: 112
    kernel_size: 1
    weight_filler {
      type: "xavier"
      std: 0.09
    }
    bias_filler {
      type: "constant"
      value: 0.2
    }
  }
}
layer {
  name: "inception_4b/relu_3x3_reduce"
  type: "ReLU"
  bottom: "inception_4b/3x3_reduce"
  top: "inception_4b/3x3_reduce"
}
layer {
  name: "inception_4b/3x3"
  type: "Convolution"
  bottom: "inception_4b/3x3_reduce"
  top: "inception_4b/3x3"
  param {
    lr_mult: 1
    decay_mult: 1
  }
  param {
    lr_mult: 2
    decay_mult: 0
  }
  convolution_param {
    num_output: 224
    pad: 1
    kernel_size: 3
    weight_filler {
      type: "xavier"
      std: 0.03
    }
    bias_filler {
      type: "constant"
      value: 0.2
    }
  }
}
layer {
  name: "inception_4b/relu_3x3"
  type: "ReLU"
  bottom: "inception_4b/3x3"
  top: "inception_4b/3x3"
}
layer {
  name: "inception_4b/5x5_reduce"
  type: "Convolution"
  bottom: "inception_4a/output"
  top: "inception_4b/5x5_reduce"
  param {
    lr_mult: 1
    decay_mult: 1
  }
  param {
    lr_mult: 2
    decay_mult: 0
  }
  convolution_param {
    num_output: 24
    kernel_size: 1
    weight_filler {
      type: "xavier"
      std: 0.2
    }
    bias_filler {
      type: "constant"
      value: 0.2
    }
  }
}
layer {
  name: "inception_4b/relu_5x5_reduce"
  type: "ReLU"
  bottom: "inception_4b/5x5_reduce"
  top: "inception_4b/5x5_reduce"
}
layer {
  name: "inception_4b/5x5"
  type: "Convolution"
  bottom: "inception_4b/5x5_reduce"
  top: "inception_4b/5x5"
  param {
    lr_mult: 1
    decay_mult: 1
  }
  param {
    lr_mult: 2
    decay_mult: 0
  }
  convolution_param {
    num_output: 64
    pad: 2
    kernel_size: 5
    weight_filler {
      type: "xavier"
      std: 0.03
    }
    bias_filler {
      type: "constant"
      value: 0.2
    }
  }
}
layer {
  name: "inception_4b/relu_5x5"
  type: "ReLU"
  bottom: "inception_4b/5x5"
  top: "inception_4b/5x5"
}
layer {
  name: "inception_4b/pool"
  type: "Pooling"
  bottom: "inception_4a/output"
  top: "inception_4b/pool"
  pooling_param {
    pool: MAX
    kernel_size: 3
    stride: 1
    pad: 1
  }
}
layer {
  name: "inception_4b/pool_proj"
  type: "Convolution"
  bottom: "inception_4b/pool"
  top: "inception_4b/pool_proj"
  param {
    lr_mult: 1
    decay_mult: 1
  }
  param {
    lr_mult: 2
    decay_mult: 0
  }
  convolution_param {
    num_output: 64
    kernel_size: 1
    weight_filler {
      type: "xavier"
      std: 0.1
    }
    bias_filler {
      type: "constant"
      value: 0.2
    }
  }
}
layer {
  name: "inception_4b/relu_pool_proj"
  type: "ReLU"
  bottom: "inception_4b/pool_proj"
  top: "inception_4b/pool_proj"
}
layer {
  name: "inception_4b/output"
  type: "Concat"
  bottom: "inception_4b/1x1"
  bottom: "inception_4b/3x3"
  bottom: "inception_4b/5x5"
  bottom: "inception_4b/pool_proj"
  top: "inception_4b/output"
}
layer {
  name: "inception_4c/1x1"
  type: "Convolution"
  bottom: "inception_4b/output"
  top: "inception_4c/1x1"
  param {
    lr_mult: 1
    decay_mult: 1
  }
  param {
    lr_mult: 2
    decay_mult: 0
  }
  convolution_param {
    num_output: 128
    kernel_size: 1
    weight_filler {
      type: "xavier"
      std: 0.03
    }
    bias_filler {
      type: "constant"
      value: 0.2
    }
  }
}
layer {
  name: "inception_4c/relu_1x1"
  type: "ReLU"
  bottom: "inception_4c/1x1"
  top: "inception_4c/1x1"
}
layer {
  name: "inception_4c/3x3_reduce"
  type: "Convolution"
  bottom: "inception_4b/output"
  top: "inception_4c/3x3_reduce"
  param {
    lr_mult: 1
    decay_mult: 1
  }
  param {
    lr_mult: 2
    decay_mult: 0
  }
  convolution_param {
    num_output: 128
    kernel_size: 1
    weight_filler {
      type: "xavier"
      std: 0.09
    }
    bias_filler {
      type: "constant"
      value: 0.2
    }
  }
}
layer {
  name: "inception_4c/relu_3x3_reduce"
  type: "ReLU"
  bottom: "inception_4c/3x3_reduce"
  top: "inception_4c/3x3_reduce"
}
layer {
  name: "inception_4c/3x3"
  type: "Convolution"
  bottom: "inception_4c/3x3_reduce"
  top: "inception_4c/3x3"
  param {
    lr_mult: 1
    decay_mult: 1
  }
  param {
    lr_mult: 2
    decay_mult: 0
  }
  convolution_param {
    num_output: 256
    pad: 1
    kernel_size: 3
    weight_filler {
      type: "xavier"
      std: 0.03
    }
    bias_filler {
      type: "constant"
      value: 0.2
    }
  }
}
layer {
  name: "inception_4c/relu_3x3"
  type: "ReLU"
  bottom: "inception_4c/3x3"
  top: "inception_4c/3x3"
}
layer {
  name: "inception_4c/5x5_reduce"
  type: "Convolution"
  bottom: "inception_4b/output"
  top: "inception_4c/5x5_reduce"
  param {
    lr_mult: 1
    decay_mult: 1
  }
  param {
    lr_mult: 2
    decay_mult: 0
  }
  convolution_param {
    num_output: 24
    kernel_size: 1
    weight_filler {
      type: "xavier"
      std: 0.2
    }
    bias_filler {
      type: "constant"
      value: 0.2
    }
  }
}
layer {
  name: "inception_4c/relu_5x5_reduce"
  type: "ReLU"
  bottom: "inception_4c/5x5_reduce"
  top: "inception_4c/5x5_reduce"
}
layer {
  name: "inception_4c/5x5"
  type: "Convolution"
  bottom: "inception_4c/5x5_reduce"
  top: "inception_4c/5x5"
  param {
    lr_mult: 1
    decay_mult: 1
  }
  param {
    lr_mult: 2
    decay_mult: 0
  }
  convolution_param {
    num_output: 64
    pad: 2
    kernel_size: 5
    weight_filler {
      type: "xavier"
      std: 0.03
    }
    bias_filler {
      type: "constant"
      value: 0.2
    }
  }
}
layer {
  name: "inception_4c/relu_5x5"
  type: "ReLU"
  bottom: "inception_4c/5x5"
  top: "inception_4c/5x5"
}
layer {
  name: "inception_4c/pool"
  type: "Pooling"
  bottom: "inception_4b/output"
  top: "inception_4c/pool"
  pooling_param {
    pool: MAX
    kernel_size: 3
    stride: 1
    pad: 1
  }
}
layer {
  name: "inception_4c/pool_proj"
  type: "Convolution"
  bottom: "inception_4c/pool"
  top: "inception_4c/pool_proj"
  param {
    lr_mult: 1
    decay_mult: 1
  }
  param {
    lr_mult: 2
    decay_mult: 0
  }
  convolution_param {
    num_output: 64
    kernel_size: 1
    weight_filler {
      type: "xavier"
      std: 0.1
    }
    bias_filler {
      type: "constant"
      value: 0.2
    }
  }
}
layer {
  name: "inception_4c/relu_pool_proj"
  type: "ReLU"
  bottom: "inception_4c/pool_proj"
  top: "inception_4c/pool_proj"
}
layer {
  name: "inception_4c/output"
  type: "Concat"
  bottom: "inception_4c/1x1"
  bottom: "inception_4c/3x3"
  bottom: "inception_4c/5x5"
  bottom: "inception_4c/pool_proj"
  top: "inception_4c/output"
}
layer {
  name: "inception_4d/1x1"
  type: "Convolution"
  bottom: "inception_4c/output"
  top: "inception_4d/1x1"
  param {
    lr_mult: 1
    decay_mult: 1
  }
  param {
    lr_mult: 2
    decay_mult: 0
  }
  convolution_param {
    num_output: 112
    kernel_size: 1
    weight_filler {
      type: "xavier"
      std: 0.03
    }
    bias_filler {
      type: "constant"
      value: 0.2
    }
  }
}
layer {
  name: "inception_4d/relu_1x1"
  type: "ReLU"
  bottom: "inception_4d/1x1"
  top: "inception_4d/1x1"
}
layer {
  name: "inception_4d/3x3_reduce"
  type: "Convolution"
  bottom: "inception_4c/output"
  top: "inception_4d/3x3_reduce"
  param {
    lr_mult: 1
    decay_mult: 1
  }
  param {
    lr_mult: 2
    decay_mult: 0
  }
  convolution_param {
    num_output: 144
    kernel_size: 1
    weight_filler {
      type: "xavier"
      std: 0.09
    }
    bias_filler {
      type: "constant"
      value: 0.2
    }
  }
}
layer {
  name: "inception_4d/relu_3x3_reduce"
  type: "ReLU"
  bottom: "inception_4d/3x3_reduce"
  top: "inception_4d/3x3_reduce"
}
layer {
  name: "inception_4d/3x3"
  type: "Convolution"
  bottom: "inception_4d/3x3_reduce"
  top: "inception_4d/3x3"
  param {
    lr_mult: 1
    decay_mult: 1
  }
  param {
    lr_mult: 2
    decay_mult: 0
  }
  convolution_param {
    num_output: 288
    pad: 1
    kernel_size: 3
    weight_filler {
      type: "xavier"
      std: 0.03
    }
    bias_filler {
      type: "constant"
      value: 0.2
    }
  }
}
layer {
  name: "inception_4d/relu_3x3"
  type: "ReLU"
  bottom: "inception_4d/3x3"
  top: "inception_4d/3x3"
}
layer {
  name: "inception_4d/5x5_reduce"
  type: "Convolution"
  bottom: "inception_4c/output"
  top: "inception_4d/5x5_reduce"
  param {
    lr_mult: 1
    decay_mult: 1
  }
  param {
    lr_mult: 2
    decay_mult: 0
  }
  convolution_param {
    num_output: 32
    kernel_size: 1
    weight_filler {
      type: "xavier"
      std: 0.2
    }
    bias_filler {
      type: "constant"
      value: 0.2
    }
  }
}
layer {
  name: "inception_4d/relu_5x5_reduce"
  type: "ReLU"
  bottom: "inception_4d/5x5_reduce"
  top: "inception_4d/5x5_reduce"
}
layer {
  name: "inception_4d/5x5"
  type: "Convolution"
  bottom: "inception_4d/5x5_reduce"
  top: "inception_4d/5x5"
  param {
    lr_mult: 1
    decay_mult: 1
  }
  param {
    lr_mult: 2
    decay_mult: 0
  }
  convolution_param {
    num_output: 64
    pad: 2
    kernel_size: 5
    weight_filler {
      type: "xavier"
      std: 0.03
    }
    bias_filler {
      type: "constant"
      value: 0.2
    }
  }
}
layer {
  name: "inception_4d/relu_5x5"
  type: "ReLU"
  bottom: "inception_4d/5x5"
  top: "inception_4d/5x5"
}
layer {
  name: "inception_4d/pool"
  type: "Pooling"
  bottom: "inception_4c/output"
  top: "inception_4d/pool"
  pooling_param {
    pool: MAX
    kernel_size: 3
    stride: 1
    pad: 1
  }
}
layer {
  name: "inception_4d/pool_proj"
  type: "Convolution"
  bottom: "inception_4d/pool"
  top: "inception_4d/pool_proj"
  param {
    lr_mult: 1
    decay_mult: 1
  }
  param {
    lr_mult: 2
    decay_mult: 0
  }
  convolution_param {
    num_output: 64
    kernel_size: 1
    weight_filler {
      type: "xavier"
      std: 0.1
    }
    bias_filler {
      type: "constant"
      value: 0.2
    }
  }
}
layer {
  name: "inception_4d/relu_pool_proj"
  type: "ReLU"
  bottom: "inception_4d/pool_proj"
  top: "inception_4d/pool_proj"
}
layer {
  name: "inception_4d/output"
  type: "Concat"
  bottom: "inception_4d/1x1"
  bottom: "inception_4d/3x3"
  bottom: "inception_4d/5x5"
  bottom: "inception_4d/pool_proj"
  top: "inception_4d/output"
}
layer {
  name: "loss2/ave_pool"
  type: "Pooling"
  bottom: "inception_4d/output"
  top: "loss2/ave_pool"
  pooling_param {
    pool: AVE
    kernel_size: 5
    stride: 3
  }
}
layer {
  name: "loss2/conv"
  type: "Convolution"
  bottom: "loss2/ave_pool"
  top: "loss2/conv"
  param {
    lr_mult: 1
    decay_mult: 1
  }
  param {
    lr_mult: 2
    decay_mult: 0
  }
  convolution_param {
    num_output: 128
    kernel_size: 1
    weight_filler {
      type: "xavier"
      std: 0.08
    }
    bias_filler {
      type: "constant"
      value: 0.2
    }
  }
}
layer {
  name: "loss2/relu_conv"
  type: "ReLU"
  bottom: "loss2/conv"
  top: "loss2/conv"
}
layer {
  name: "loss2/fc"
  type: "InnerProduct"
  bottom: "loss2/conv"
  top: "loss2/fc"
  param {
    lr_mult: 1
    decay_mult: 1
  }
  param {
    lr_mult: 2
    decay_mult: 0
  }
  inner_product_param {
    num_output: 1024
    weight_filler {
      type: "xavier"
      std: 0.02
    }
    bias_filler {
      type: "constant"
      value: 0.2
    }
  }
}
layer {
  name: "loss2/relu_fc"
  type: "ReLU"
  bottom: "loss2/fc"
  top: "loss2/fc"
}
layer {
  name: "loss2/drop_fc"
  type: "Dropout"
  bottom: "loss2/fc"
  top: "loss2/fc"
  dropout_param {
    dropout_ratio: 0.7
  }
}
layer {
  name: "loss2/classifier_plantvillage"
  type: "InnerProduct"
  bottom: "loss2/fc"
  top: "loss2/classifier_plantvillage"
  param {
    lr_mult: 1
    decay_mult: 1
  }
  param {
    lr_mult: 2
    decay_mult: 0
  }
  inner_product_param {
    num_output: 38
    weight_filler {
      type: "xavier"
      std: 0.0009765625
    }
    bias_filler {
      type: "constant"
      value: 0
    }
  }
}
layer {
  name: "inception_4e/1x1"
  type: "Convolution"
  bottom: "inception_4d/output"
  top: "inception_4e/1x1"
  param {
    lr_mult: 1
    decay_mult: 1
  }
  param {
    lr_mult: 2
    decay_mult: 0
  }
  convolution_param {
    num_output: 256
    kernel_size: 1
    weight_filler {
      type: "xavier"
      std: 0.03
    }
    bias_filler {
      type: "constant"
      value: 0.2
    }
  }
}
layer {
  name: "inception_4e/relu_1x1"
  type: "ReLU"
  bottom: "inception_4e/1x1"
  top: "inception_4e/1x1"
}
layer {
  name: "inception_4e/3x3_reduce"
  type: "Convolution"
  bottom: "inception_4d/output"
  top: "inception_4e/3x3_reduce"
  param {
    lr_mult: 1
    decay_mult: 1
  }
  param {
    lr_mult: 2
    decay_mult: 0
  }
  convolution_param {
    num_output: 160
    kernel_size: 1
    weight_filler {
      type: "xavier"
      std: 0.09
    }
    bias_filler {
      type: "constant"
      value: 0.2
    }
  }
}
layer {
  name: "inception_4e/relu_3x3_reduce"
  type: "ReLU"
  bottom: "inception_4e/3x3_reduce"
  top: "inception_4e/3x3_reduce"
}
layer {
  name: "inception_4e/3x3"
  type: "Convolution"
  bottom: "inception_4e/3x3_reduce"
  top: "inception_4e/3x3"
  param {
    lr_mult: 1
    decay_mult: 1
  }
  param {
    lr_mult: 2
    decay_mult: 0
  }
  convolution_param {
    num_output: 320
    pad: 1
    kernel_size: 3
    weight_filler {
      type: "xavier"
      std: 0.03
    }
    bias_filler {
      type: "constant"
      value: 0.2
    }
  }
}
layer {
  name: "inception_4e/relu_3x3"
  type: "ReLU"
  bottom: "inception_4e/3x3"
  top: "inception_4e/3x3"
}
layer {
  name: "inception_4e/5x5_reduce"
  type: "Convolution"
  bottom: "inception_4d/output"
  top: "inception_4e/5x5_reduce"
  param {
    lr_mult: 1
    decay_mult: 1
  }
  param {
    lr_mult: 2
    decay_mult: 0
  }
  convolution_param {
    num_output: 32
    kernel_size: 1
    weight_filler {
      type: "xavier"
      std: 0.2
    }
    bias_filler {
      type: "constant"
      value: 0.2
    }
  }
}
layer {
  name: "inception_4e/relu_5x5_reduce"
  type: "ReLU"
  bottom: "inception_4e/5x5_reduce"
  top: "inception_4e/5x5_reduce"
}
layer {
  name: "inception_4e/5x5"
  type: "Convolution"
  bottom: "inception_4e/5x5_reduce"
  top: "inception_4e/
I0403 18:03:03.075408 15980 layer_factory.hpp:77] Creating layer data
I0403 18:03:03.076030 15980 net.cpp:91] Creating Layer data
I0403 18:03:03.076064 15980 net.cpp:399] data -> data
I0403 18:03:03.076117 15980 net.cpp:399] data -> label
I0403 18:03:03.076155 15980 data_transformer.cpp:25] Loading mean file from: /home/mohanty/data/final_dataset/lmdb/grayscale-60-40/mean.binaryproto
I0403 18:03:03.077251 15982 db_lmdb.cpp:38] Opened lmdb /home/mohanty/data/final_dataset/lmdb/grayscale-60-40/test_db
I0403 18:03:03.089390 15980 data_layer.cpp:41] output data size: 24,3,224,224
I0403 18:03:03.117194 15980 net.cpp:141] Setting up data
I0403 18:03:03.117277 15980 net.cpp:148] Top shape: 24 3 224 224 (3612672)
I0403 18:03:03.117301 15980 net.cpp:148] Top shape: 24 (24)
I0403 18:03:03.117317 15980 net.cpp:156] Memory required for data: 14450784
I0403 18:03:03.117346 15980 layer_factory.hpp:77] Creating layer label_data_1_split
I0403 18:03:03.117373 15980 net.cpp:91] Creating Layer label_data_1_split
I0403 18:03:03.117393 15980 net.cpp:425] label_data_1_split <- label
I0403 18:03:03.117424 15980 net.cpp:399] label_data_1_split -> label_data_1_split_0
I0403 18:03:03.117452 15980 net.cpp:399] label_data_1_split -> label_data_1_split_1
I0403 18:03:03.117475 15980 net.cpp:399] label_data_1_split -> label_data_1_split_2
I0403 18:03:03.117496 15980 net.cpp:399] label_data_1_split -> label_data_1_split_3
I0403 18:03:03.117516 15980 net.cpp:399] label_data_1_split -> label_data_1_split_4
I0403 18:03:03.117535 15980 net.cpp:399] label_data_1_split -> label_data_1_split_5
I0403 18:03:03.117554 15980 net.cpp:399] label_data_1_split -> label_data_1_split_6
I0403 18:03:03.117575 15980 net.cpp:399] label_data_1_split -> label_data_1_split_7
I0403 18:03:03.117595 15980 net.cpp:399] label_data_1_split -> label_data_1_split_8
I0403 18:03:03.117614 15980 net.cpp:399] label_data_1_split -> label_data_1_split_9
I0403 18:03:03.117733 15980 net.cpp:141] Setting up label_data_1_split
I0403 18:03:03.117756 15980 net.cpp:148] Top shape: 24 (24)
I0403 18:03:03.117774 15980 net.cpp:148] Top shape: 24 (24)
I0403 18:03:03.117789 15980 net.cpp:148] Top shape: 24 (24)
I0403 18:03:03.117805 15980 net.cpp:148] Top shape: 24 (24)
I0403 18:03:03.117820 15980 net.cpp:148] Top shape: 24 (24)
I0403 18:03:03.117835 15980 net.cpp:148] Top shape: 24 (24)
I0403 18:03:03.117851 15980 net.cpp:148] Top shape: 24 (24)
I0403 18:03:03.117867 15980 net.cpp:148] Top shape: 24 (24)
I0403 18:03:03.117882 15980 net.cpp:148] Top shape: 24 (24)
I0403 18:03:03.117898 15980 net.cpp:148] Top shape: 24 (24)
I0403 18:03:03.117943 15980 net.cpp:156] Memory required for data: 14451744
I0403 18:03:03.117959 15980 layer_factory.hpp:77] Creating layer conv1/7x7_s2
I0403 18:03:03.118001 15980 net.cpp:91] Creating Layer conv1/7x7_s2
I0403 18:03:03.118022 15980 net.cpp:425] conv1/7x7_s2 <- data
I0403 18:03:03.118041 15980 net.cpp:399] conv1/7x7_s2 -> conv1/7x7_s2
I0403 18:03:03.258469 15980 net.cpp:141] Setting up conv1/7x7_s2
I0403 18:03:03.258594 15980 net.cpp:148] Top shape: 24 64 112 112 (19267584)
I0403 18:03:03.258615 15980 net.cpp:156] Memory required for data: 91522080
I0403 18:03:03.258647 15980 layer_factory.hpp:77] Creating layer conv1/relu_7x7
I0403 18:03:03.258674 15980 net.cpp:91] Creating Layer conv1/relu_7x7
I0403 18:03:03.258693 15980 net.cpp:425] conv1/relu_7x7 <- conv1/7x7_s2
I0403 18:03:03.258713 15980 net.cpp:386] conv1/relu_7x7 -> conv1/7x7_s2 (in-place)
I0403 18:03:03.258983 15980 net.cpp:141] Setting up conv1/relu_7x7
I0403 18:03:03.259011 15980 net.cpp:148] Top shape: 24 64 112 112 (19267584)
I0403 18:03:03.259027 15980 net.cpp:156] Memory required for data: 168592416
I0403 18:03:03.259042 15980 layer_factory.hpp:77] Creating layer pool1/3x3_s2
I0403 18:03:03.259068 15980 net.cpp:91] Creating Layer pool1/3x3_s2
I0403 18:03:03.259085 15980 net.cpp:425] pool1/3x3_s2 <- conv1/7x7_s2
I0403 18:03:03.259104 15980 net.cpp:399] pool1/3x3_s2 -> pool1/3x3_s2
I0403 18:03:03.259178 15980 net.cpp:141] Setting up pool1/3x3_s2
I0403 18:03:03.259203 15980 net.cpp:148] Top shape: 24 64 56 56 (4816896)
I0403 18:03:03.259218 15980 net.cpp:156] Memory required for data: 187860000
I0403 18:03:03.259233 15980 layer_factory.hpp:77] Creating layer pool1/norm1
I0403 18:03:03.259258 15980 net.cpp:91] Creating Layer pool1/norm1
I0403 18:03:03.259275 15980 net.cpp:425] pool1/norm1 <- pool1/3x3_s2
I0403 18:03:03.259294 15980 net.cpp:399] pool1/norm1 -> pool1/norm1
I0403 18:03:03.259603 15980 net.cpp:141] Setting up pool1/norm1
I0403 18:03:03.259631 15980 net.cpp:148] Top shape: 24 64 56 56 (4816896)
I0403 18:03:03.259647 15980 net.cpp:156] Memory required for data: 207127584
I0403 18:03:03.259662 15980 layer_factory.hpp:77] Creating layer conv2/3x3_reduce
I0403 18:03:03.259687 15980 net.cpp:91] Creating Layer conv2/3x3_reduce
I0403 18:03:03.259704 15980 net.cpp:425] conv2/3x3_reduce <- pool1/norm1
I0403 18:03:03.259723 15980 net.cpp:399] conv2/3x3_reduce -> conv2/3x3_reduce
I0403 18:03:03.261077 15980 net.cpp:141] Setting up conv2/3x3_reduce
I0403 18:03:03.261106 15980 net.cpp:148] Top shape: 24 64 56 56 (4816896)
I0403 18:03:03.261121 15980 net.cpp:156] Memory required for data: 226395168
I0403 18:03:03.261142 15980 layer_factory.hpp:77] Creating layer conv2/relu_3x3_reduce
I0403 18:03:03.261162 15980 net.cpp:91] Creating Layer conv2/relu_3x3_reduce
I0403 18:03:03.261178 15980 net.cpp:425] conv2/relu_3x3_reduce <- conv2/3x3_reduce
I0403 18:03:03.261194 15980 net.cpp:386] conv2/relu_3x3_reduce -> conv2/3x3_reduce (in-place)
I0403 18:03:03.261440 15980 net.cpp:141] Setting up conv2/relu_3x3_reduce
I0403 18:03:03.261466 15980 net.cpp:148] Top shape: 24 64 56 56 (4816896)
I0403 18:03:03.261482 15980 net.cpp:156] Memory required for data: 245662752
I0403 18:03:03.261497 15980 layer_factory.hpp:77] Creating layer conv2/3x3
I0403 18:03:03.261518 15980 net.cpp:91] Creating Layer conv2/3x3
I0403 18:03:03.261534 15980 net.cpp:425] conv2/3x3 <- conv2/3x3_reduce
I0403 18:03:03.261553 15980 net.cpp:399] conv2/3x3 -> conv2/3x3
I0403 18:03:03.263811 15980 net.cpp:141] Setting up conv2/3x3
I0403 18:03:03.263844 15980 net.cpp:148] Top shape: 24 192 56 56 (14450688)
I0403 18:03:03.263860 15980 net.cpp:156] Memory required for data: 303465504
I0403 18:03:03.263909 15980 layer_factory.hpp:77] Creating layer conv2/relu_3x3
I0403 18:03:03.263932 15980 net.cpp:91] Creating Layer conv2/relu_3x3
I0403 18:03:03.263948 15980 net.cpp:425] conv2/relu_3x3 <- conv2/3x3
I0403 18:03:03.263965 15980 net.cpp:386] conv2/relu_3x3 -> conv2/3x3 (in-place)
I0403 18:03:03.264128 15980 net.cpp:141] Setting up conv2/relu_3x3
I0403 18:03:03.264153 15980 net.cpp:148] Top shape: 24 192 56 56 (14450688)
I0403 18:03:03.264199 15980 net.cpp:156] Memory required for data: 361268256
I0403 18:03:03.264214 15980 layer_factory.hpp:77] Creating layer conv2/norm2
I0403 18:03:03.264233 15980 net.cpp:91] Creating Layer conv2/norm2
I0403 18:03:03.264248 15980 net.cpp:425] conv2/norm2 <- conv2/3x3
I0403 18:03:03.264266 15980 net.cpp:399] conv2/norm2 -> conv2/norm2
I0403 18:03:03.264545 15980 net.cpp:141] Setting up conv2/norm2
I0403 18:03:03.264572 15980 net.cpp:148] Top shape: 24 192 56 56 (14450688)
I0403 18:03:03.264587 15980 net.cpp:156] Memory required for data: 419071008
I0403 18:03:03.264601 15980 layer_factory.hpp:77] Creating layer pool2/3x3_s2
I0403 18:03:03.264619 15980 net.cpp:91] Creating Layer pool2/3x3_s2
I0403 18:03:03.264634 15980 net.cpp:425] pool2/3x3_s2 <- conv2/norm2
I0403 18:03:03.264652 15980 net.cpp:399] pool2/3x3_s2 -> pool2/3x3_s2
I0403 18:03:03.264700 15980 net.cpp:141] Setting up pool2/3x3_s2
I0403 18:03:03.264722 15980 net.cpp:148] Top shape: 24 192 28 28 (3612672)
I0403 18:03:03.264736 15980 net.cpp:156] Memory required for data: 433521696
I0403 18:03:03.264751 15980 layer_factory.hpp:77] Creating layer pool2/3x3_s2_pool2/3x3_s2_0_split
I0403 18:03:03.264768 15980 net.cpp:91] Creating Layer pool2/3x3_s2_pool2/3x3_s2_0_split
I0403 18:03:03.264785 15980 net.cpp:425] pool2/3x3_s2_pool2/3x3_s2_0_split <- pool2/3x3_s2
I0403 18:03:03.264801 15980 net.cpp:399] pool2/3x3_s2_pool2/3x3_s2_0_split -> pool2/3x3_s2_pool2/3x3_s2_0_split_0
I0403 18:03:03.264819 15980 net.cpp:399] pool2/3x3_s2_pool2/3x3_s2_0_split -> pool2/3x3_s2_pool2/3x3_s2_0_split_1
I0403 18:03:03.264838 15980 net.cpp:399] pool2/3x3_s2_pool2/3x3_s2_0_split -> pool2/3x3_s2_pool2/3x3_s2_0_split_2
I0403 18:03:03.264858 15980 net.cpp:399] pool2/3x3_s2_pool2/3x3_s2_0_split -> pool2/3x3_s2_pool2/3x3_s2_0_split_3
I0403 18:03:03.264919 15980 net.cpp:141] Setting up pool2/3x3_s2_pool2/3x3_s2_0_split
I0403 18:03:03.264941 15980 net.cpp:148] Top shape: 24 192 28 28 (3612672)
I0403 18:03:03.264958 15980 net.cpp:148] Top shape: 24 192 28 28 (3612672)
I0403 18:03:03.264973 15980 net.cpp:148] Top shape: 24 192 28 28 (3612672)
I0403 18:03:03.264993 15980 net.cpp:148] Top shape: 24 192 28 28 (3612672)
I0403 18:03:03.265007 15980 net.cpp:156] Memory required for data: 491324448
I0403 18:03:03.265022 15980 layer_factory.hpp:77] Creating layer inception_3a/1x1
I0403 18:03:03.265041 15980 net.cpp:91] Creating Layer inception_3a/1x1
I0403 18:03:03.265058 15980 net.cpp:425] inception_3a/1x1 <- pool2/3x3_s2_pool2/3x3_s2_0_split_0
I0403 18:03:03.265075 15980 net.cpp:399] inception_3a/1x1 -> inception_3a/1x1
I0403 18:03:03.266584 15980 net.cpp:141] Setting up inception_3a/1x1
I0403 18:03:03.266614 15980 net.cpp:148] Top shape: 24 64 28 28 (1204224)
I0403 18:03:03.266630 15980 net.cpp:156] Memory required for data: 496141344
I0403 18:03:03.266649 15980 layer_factory.hpp:77] Creating layer inception_3a/relu_1x1
I0403 18:03:03.266667 15980 net.cpp:91] Creating Layer inception_3a/relu_1x1
I0403 18:03:03.266683 15980 net.cpp:425] inception_3a/relu_1x1 <- inception_3a/1x1
I0403 18:03:03.266702 15980 net.cpp:386] inception_3a/relu_1x1 -> inception_3a/1x1 (in-place)
I0403 18:03:03.266876 15980 net.cpp:141] Setting up inception_3a/relu_1x1
I0403 18:03:03.266901 15980 net.cpp:148] Top shape: 24 64 28 28 (1204224)
I0403 18:03:03.266916 15980 net.cpp:156] Memory required for data: 500958240
I0403 18:03:03.266932 15980 layer_factory.hpp:77] Creating layer inception_3a/3x3_reduce
I0403 18:03:03.266953 15980 net.cpp:91] Creating Layer inception_3a/3x3_reduce
I0403 18:03:03.266970 15980 net.cpp:425] inception_3a/3x3_reduce <- pool2/3x3_s2_pool2/3x3_s2_0_split_1
I0403 18:03:03.266998 15980 net.cpp:399] inception_3a/3x3_reduce -> inception_3a/3x3_reduce
I0403 18:03:03.268733 15980 net.cpp:141] Setting up inception_3a/3x3_reduce
I0403 18:03:03.268764 15980 net.cpp:148] Top shape: 24 96 28 28 (1806336)
I0403 18:03:03.268781 15980 net.cpp:156] Memory required for data: 508183584
I0403 18:03:03.268803 15980 layer_factory.hpp:77] Creating layer inception_3a/relu_3x3_reduce
I0403 18:03:03.268841 15980 net.cpp:91] Creating Layer inception_3a/relu_3x3_reduce
I0403 18:03:03.268862 15980 net.cpp:425] inception_3a/relu_3x3_reduce <- inception_3a/3x3_reduce
I0403 18:03:03.268878 15980 net.cpp:386] inception_3a/relu_3x3_reduce -> inception_3a/3x3_reduce (in-place)
I0403 18:03:03.269062 15980 net.cpp:141] Setting up inception_3a/relu_3x3_reduce
I0403 18:03:03.269088 15980 net.cpp:148] Top shape: 24 96 28 28 (1806336)
I0403 18:03:03.269103 15980 net.cpp:156] Memory required for data: 515408928
I0403 18:03:03.269116 15980 layer_factory.hpp:77] Creating layer inception_3a/3x3
I0403 18:03:03.269140 15980 net.cpp:91] Creating Layer inception_3a/3x3
I0403 18:03:03.269158 15980 net.cpp:425] inception_3a/3x3 <- inception_3a/3x3_reduce
I0403 18:03:03.269179 15980 net.cpp:399] inception_3a/3x3 -> inception_3a/3x3
I0403 18:03:03.270802 15980 net.cpp:141] Setting up inception_3a/3x3
I0403 18:03:03.270830 15980 net.cpp:148] Top shape: 24 128 28 28 (2408448)
I0403 18:03:03.270846 15980 net.cpp:156] Memory required for data: 525042720
I0403 18:03:03.270864 15980 layer_factory.hpp:77] Creating layer inception_3a/relu_3x3
I0403 18:03:03.270884 15980 net.cpp:91] Creating Layer inception_3a/relu_3x3
I0403 18:03:03.270915 15980 net.cpp:425] inception_3a/relu_3x3 <- inception_3a/3x3
I0403 18:03:03.270933 15980 net.cpp:386] inception_3a/relu_3x3 -> inception_3a/3x3 (in-place)
I0403 18:03:03.271230 15980 net.cpp:141] Setting up inception_3a/relu_3x3
I0403 18:03:03.271257 15980 net.cpp:148] Top shape: 24 128 28 28 (2408448)
I0403 18:03:03.271273 15980 net.cpp:156] Memory required for data: 534676512
I0403 18:03:03.271287 15980 layer_factory.hpp:77] Creating layer inception_3a/5x5_reduce
I0403 18:03:03.271309 15980 net.cpp:91] Creating Layer inception_3a/5x5_reduce
I0403 18:03:03.271327 15980 net.cpp:425] inception_3a/5x5_reduce <- pool2/3x3_s2_pool2/3x3_s2_0_split_2
I0403 18:03:03.271347 15980 net.cpp:399] inception_3a/5x5_reduce -> inception_3a/5x5_reduce
I0403 18:03:03.272291 15980 net.cpp:141] Setting up inception_3a/5x5_reduce
I0403 18:03:03.272320 15980 net.cpp:148] Top shape: 24 16 28 28 (301056)
I0403 18:03:03.272336 15980 net.cpp:156] Memory required for data: 535880736
I0403 18:03:03.272353 15980 layer_factory.hpp:77] Creating layer inception_3a/relu_5x5_reduce
I0403 18:03:03.272374 15980 net.cpp:91] Creating Layer inception_3a/relu_5x5_reduce
I0403 18:03:03.272392 15980 net.cpp:425] inception_3a/relu_5x5_reduce <- inception_3a/5x5_reduce
I0403 18:03:03.272409 15980 net.cpp:386] inception_3a/relu_5x5_reduce -> inception_3a/5x5_reduce (in-place)
I0403 18:03:03.272699 15980 net.cpp:141] Setting up inception_3a/relu_5x5_reduce
I0403 18:03:03.272727 15980 net.cpp:148] Top shape: 24 16 28 28 (301056)
I0403 18:03:03.272744 15980 net.cpp:156] Memory required for data: 537084960
I0403 18:03:03.272758 15980 layer_factory.hpp:77] Creating layer inception_3a/5x5
I0403 18:03:03.272780 15980 net.cpp:91] Creating Layer inception_3a/5x5
I0403 18:03:03.272799 15980 net.cpp:425] inception_3a/5x5 <- inception_3a/5x5_reduce
I0403 18:03:03.272816 15980 net.cpp:399] inception_3a/5x5 -> inception_3a/5x5
I0403 18:03:03.273807 15980 net.cpp:141] Setting up inception_3a/5x5
I0403 18:03:03.273834 15980 net.cpp:148] Top shape: 24 32 28 28 (602112)
I0403 18:03:03.273849 15980 net.cpp:156] Memory required for data: 539493408
I0403 18:03:03.273867 15980 layer_factory.hpp:77] Creating layer inception_3a/relu_5x5
I0403 18:03:03.273887 15980 net.cpp:91] Creating Layer inception_3a/relu_5x5
I0403 18:03:03.273905 15980 net.cpp:425] inception_3a/relu_5x5 <- inception_3a/5x5
I0403 18:03:03.273923 15980 net.cpp:386] inception_3a/relu_5x5 -> inception_3a/5x5 (in-place)
I0403 18:03:03.274099 15980 net.cpp:141] Setting up inception_3a/relu_5x5
I0403 18:03:03.274127 15980 net.cpp:148] Top shape: 24 32 28 28 (602112)
I0403 18:03:03.274142 15980 net.cpp:156] Memory required for data: 541901856
I0403 18:03:03.274157 15980 layer_factory.hpp:77] Creating layer inception_3a/pool
I0403 18:03:03.274174 15980 net.cpp:91] Creating Layer inception_3a/pool
I0403 18:03:03.274204 15980 net.cpp:425] inception_3a/pool <- pool2/3x3_s2_pool2/3x3_s2_0_split_3
I0403 18:03:03.274224 15980 net.cpp:399] inception_3a/pool -> inception_3a/pool
I0403 18:03:03.274282 15980 net.cpp:141] Setting up inception_3a/pool
I0403 18:03:03.274307 15980 net.cpp:148] Top shape: 24 192 28 28 (3612672)
I0403 18:03:03.274320 15980 net.cpp:156] Memory required for data: 556352544
I0403 18:03:03.274335 15980 layer_factory.hpp:77] Creating layer inception_3a/pool_proj
I0403 18:03:03.274356 15980 net.cpp:91] Creating Layer inception_3a/pool_proj
I0403 18:03:03.274374 15980 net.cpp:425] inception_3a/pool_proj <- inception_3a/pool
I0403 18:03:03.274395 15980 net.cpp:399] inception_3a/pool_proj -> inception_3a/pool_proj
I0403 18:03:03.275343 15980 net.cpp:141] Setting up inception_3a/pool_proj
I0403 18:03:03.275372 15980 net.cpp:148] Top shape: 24 32 28 28 (602112)
I0403 18:03:03.275387 15980 net.cpp:156] Memory required for data: 558760992
I0403 18:03:03.275408 15980 layer_factory.hpp:77] Creating layer inception_3a/relu_pool_proj
I0403 18:03:03.275429 15980 net.cpp:91] Creating Layer inception_3a/relu_pool_proj
I0403 18:03:03.275446 15980 net.cpp:425] inception_3a/relu_pool_proj <- inception_3a/pool_proj
I0403 18:03:03.275463 15980 net.cpp:386] inception_3a/relu_pool_proj -> inception_3a/pool_proj (in-place)
I0403 18:03:03.275732 15980 net.cpp:141] Setting up inception_3a/relu_pool_proj
I0403 18:03:03.275759 15980 net.cpp:148] Top shape: 24 32 28 28 (602112)
I0403 18:03:03.275774 15980 net.cpp:156] Memory required for data: 561169440
I0403 18:03:03.275789 15980 layer_factory.hpp:77] Creating layer inception_3a/output
I0403 18:03:03.275805 15980 net.cpp:91] Creating Layer inception_3a/output
I0403 18:03:03.275820 15980 net.cpp:425] inception_3a/output <- inception_3a/1x1
I0403 18:03:03.275840 15980 net.cpp:425] inception_3a/output <- inception_3a/3x3
I0403 18:03:03.275856 15980 net.cpp:425] inception_3a/output <- inception_3a/5x5
I0403 18:03:03.275872 15980 net.cpp:425] inception_3a/output <- inception_3a/pool_proj
I0403 18:03:03.275888 15980 net.cpp:399] inception_3a/output -> inception_3a/output
I0403 18:03:03.275949 15980 net.cpp:141] Setting up inception_3a/output
I0403 18:03:03.275972 15980 net.cpp:148] Top shape: 24 256 28 28 (4816896)
I0403 18:03:03.276016 15980 net.cpp:156] Memory required for data: 580437024
I0403 18:03:03.276031 15980 layer_factory.hpp:77] Creating layer inception_3a/output_inception_3a/output_0_split
I0403 18:03:03.276049 15980 net.cpp:91] Creating Layer inception_3a/output_inception_3a/output_0_split
I0403 18:03:03.276064 15980 net.cpp:425] inception_3a/output_inception_3a/output_0_split <- inception_3a/output
I0403 18:03:03.276085 15980 net.cpp:399] inception_3a/output_inception_3a/output_0_split -> inception_3a/output_inception_3a/output_0_split_0
I0403 18:03:03.276105 15980 net.cpp:399] inception_3a/output_inception_3a/output_0_split -> inception_3a/output_inception_3a/output_0_split_1
I0403 18:03:03.276127 15980 net.cpp:399] inception_3a/output_inception_3a/output_0_split -> inception_3a/output_inception_3a/output_0_split_2
I0403 18:03:03.276151 15980 net.cpp:399] inception_3a/output_inception_3a/output_0_split -> inception_3a/output_inception_3a/output_0_split_3
I0403 18:03:03.276238 15980 net.cpp:141] Setting up inception_3a/output_inception_3a/output_0_split
I0403 18:03:03.276260 15980 net.cpp:148] Top shape: 24 256 28 28 (4816896)
I0403 18:03:03.276278 15980 net.cpp:148] Top shape: 24 256 28 28 (4816896)
I0403 18:03:03.276291 15980 net.cpp:148] Top shape: 24 256 28 28 (4816896)
I0403 18:03:03.276306 15980 net.cpp:148] Top shape: 24 256 28 28 (4816896)
I0403 18:03:03.276319 15980 net.cpp:156] Memory required for data: 657507360
I0403 18:03:03.276335 15980 layer_factory.hpp:77] Creating layer inception_3b/1x1
I0403 18:03:03.276355 15980 net.cpp:91] Creating Layer inception_3b/1x1
I0403 18:03:03.276372 15980 net.cpp:425] inception_3b/1x1 <- inception_3a/output_inception_3a/output_0_split_0
I0403 18:03:03.276392 15980 net.cpp:399] inception_3b/1x1 -> inception_3b/1x1
I0403 18:03:03.277487 15980 net.cpp:141] Setting up inception_3b/1x1
I0403 18:03:03.277524 15980 net.cpp:148] Top shape: 24 128 28 28 (2408448)
I0403 18:03:03.277539 15980 net.cpp:156] Memory required for data: 667141152
I0403 18:03:03.277557 15980 layer_factory.hpp:77] Creating layer inception_3b/relu_1x1
I0403 18:03:03.277575 15980 net.cpp:91] Creating Layer inception_3b/relu_1x1
I0403 18:03:03.277597 15980 net.cpp:425] inception_3b/relu_1x1 <- inception_3b/1x1
I0403 18:03:03.277613 15980 net.cpp:386] inception_3b/relu_1x1 -> inception_3b/1x1 (in-place)
I0403 18:03:03.277779 15980 net.cpp:141] Setting up inception_3b/relu_1x1
I0403 18:03:03.277803 15980 net.cpp:148] Top shape: 24 128 28 28 (2408448)
I0403 18:03:03.277817 15980 net.cpp:156] Memory required for data: 676774944
I0403 18:03:03.277832 15980 layer_factory.hpp:77] Creating layer inception_3b/3x3_reduce
I0403 18:03:03.277853 15980 net.cpp:91] Creating Layer inception_3b/3x3_reduce
I0403 18:03:03.277868 15980 net.cpp:425] inception_3b/3x3_reduce <- inception_3a/output_inception_3a/output_0_split_1
I0403 18:03:03.277889 15980 net.cpp:399] inception_3b/3x3_reduce -> inception_3b/3x3_reduce
I0403 18:03:03.278987 15980 net.cpp:141] Setting up inception_3b/3x3_reduce
I0403 18:03:03.279014 15980 net.cpp:148] Top shape: 24 128 28 28 (2408448)
I0403 18:03:03.279031 15980 net.cpp:156] Memory required for data: 686408736
I0403 18:03:03.279048 15980 layer_factory.hpp:77] Creating layer inception_3b/relu_3x3_reduce
I0403 18:03:03.279065 15980 net.cpp:91] Creating Layer inception_3b/relu_3x3_reduce
I0403 18:03:03.279081 15980 net.cpp:425] inception_3b/relu_3x3_reduce <- inception_3b/3x3_reduce
I0403 18:03:03.279099 15980 net.cpp:386] inception_3b/relu_3x3_reduce -> inception_3b/3x3_reduce (in-place)
I0403 18:03:03.279263 15980 net.cpp:141] Setting up inception_3b/relu_3x3_reduce
I0403 18:03:03.279286 15980 net.cpp:148] Top shape: 24 128 28 28 (2408448)
I0403 18:03:03.279301 15980 net.cpp:156] Memory required for data: 696042528
I0403 18:03:03.279315 15980 layer_factory.hpp:77] Creating layer inception_3b/3x3
I0403 18:03:03.279340 15980 net.cpp:91] Creating Layer inception_3b/3x3
I0403 18:03:03.279358 15980 net.cpp:425] inception_3b/3x3 <- inception_3b/3x3_reduce
I0403 18:03:03.279376 15980 net.cpp:399] inception_3b/3x3 -> inception_3b/3x3
I0403 18:03:03.282196 15980 net.cpp:141] Setting up inception_3b/3x3
I0403 18:03:03.282224 15980 net.cpp:148] Top shape: 24 192 28 28 (3612672)
I0403 18:03:03.282239 15980 net.cpp:156] Memory required for data: 710493216
I0403 18:03:03.282256 15980 layer_factory.hpp:77] Creating layer inception_3b/relu_3x3
I0403 18:03:03.282276 15980 net.cpp:91] Creating Layer inception_3b/relu_3x3
I0403 18:03:03.282292 15980 net.cpp:425] inception_3b/relu_3x3 <- inception_3b/3x3
I0403 18:03:03.282310 15980 net.cpp:386] inception_3b/relu_3x3 -> inception_3b/3x3 (in-place)
I0403 18:03:03.282575 15980 net.cpp:141] Setting up inception_3b/relu_3x3
I0403 18:03:03.282601 15980 net.cpp:148] Top shape: 24 192 28 28 (3612672)
I0403 18:03:03.282615 15980 net.cpp:156] Memory required for data: 724943904
I0403 18:03:03.282629 15980 layer_factory.hpp:77] Creating layer inception_3b/5x5_reduce
I0403 18:03:03.282652 15980 net.cpp:91] Creating Layer inception_3b/5x5_reduce
I0403 18:03:03.282670 15980 net.cpp:425] inception_3b/5x5_reduce <- inception_3a/output_inception_3a/output_0_split_2
I0403 18:03:03.282691 15980 net.cpp:399] inception_3b/5x5_reduce -> inception_3b/5x5_reduce
I0403 18:03:03.283648 15980 net.cpp:141] Setting up inception_3b/5x5_reduce
I0403 18:03:03.283674 15980 net.cpp:148] Top shape: 24 32 28 28 (602112)
I0403 18:03:03.283689 15980 net.cpp:156] Memory required for data: 727352352
I0403 18:03:03.283707 15980 layer_factory.hpp:77] Creating layer inception_3b/relu_5x5_reduce
I0403 18:03:03.283726 15980 net.cpp:91] Creating Layer inception_3b/relu_5x5_reduce
I0403 18:03:03.283743 15980 net.cpp:425] inception_3b/relu_5x5_reduce <- inception_3b/5x5_reduce
I0403 18:03:03.283761 15980 net.cpp:386] inception_3b/relu_5x5_reduce -> inception_3b/5x5_reduce (in-place)
I0403 18:03:03.283941 15980 net.cpp:141] Setting up inception_3b/relu_5x5_reduce
I0403 18:03:03.283967 15980 net.cpp:148] Top shape: 24 32 28 28 (602112)
I0403 18:03:03.283987 15980 net.cpp:156] Memory required for data: 729760800
I0403 18:03:03.284001 15980 layer_factory.hpp:77] Creating layer inception_3b/5x5
I0403 18:03:03.284024 15980 net.cpp:91] Creating Layer inception_3b/5x5
I0403 18:03:03.284040 15980 net.cpp:425] inception_3b/5x5 <- inception_3b/5x5_reduce
I0403 18:03:03.284057 15980 net.cpp:399] inception_3b/5x5 -> inception_3b/5x5
I0403 18:03:03.285933 15980 net.cpp:141] Setting up inception_3b/5x5
I0403 18:03:03.285961 15980 net.cpp:148] Top shape: 24 96 28 28 (1806336)
I0403 18:03:03.285976 15980 net.cpp:156] Memory required for data: 736986144
I0403 18:03:03.286000 15980 layer_factory.hpp:77] Creating layer inception_3b/relu_5x5
I0403 18:03:03.286017 15980 net.cpp:91] Creating Layer inception_3b/relu_5x5
I0403 18:03:03.286032 15980 net.cpp:425] inception_3b/relu_5x5 <- inception_3b/5x5
I0403 18:03:03.286051 15980 net.cpp:386] inception_3b/relu_5x5 -> inception_3b/5x5 (in-place)
I0403 18:03:03.286232 15980 net.cpp:141] Setting up inception_3b/relu_5x5
I0403 18:03:03.286257 15980 net.cpp:148] Top shape: 24 96 28 28 (1806336)
I0403 18:03:03.286270 15980 net.cpp:156] Memory required for data: 744211488
I0403 18:03:03.286285 15980 layer_factory.hpp:77] Creating layer inception_3b/pool
I0403 18:03:03.286303 15980 net.cpp:91] Creating Layer inception_3b/pool
I0403 18:03:03.286317 15980 net.cpp:425] inception_3b/pool <- inception_3a/output_inception_3a/output_0_split_3
I0403 18:03:03.286334 15980 net.cpp:399] inception_3b/pool -> inception_3b/pool
I0403 18:03:03.286389 15980 net.cpp:141] Setting up inception_3b/pool
I0403 18:03:03.286412 15980 net.cpp:148] Top shape: 24 256 28 28 (4816896)
I0403 18:03:03.286427 15980 net.cpp:156] Memory required for data: 763479072
I0403 18:03:03.286439 15980 layer_factory.hpp:77] Creating layer inception_3b/pool_proj
I0403 18:03:03.286461 15980 net.cpp:91] Creating Layer inception_3b/pool_proj
I0403 18:03:03.286478 15980 net.cpp:425] inception_3b/pool_proj <- inception_3b/pool
I0403 18:03:03.286497 15980 net.cpp:399] inception_3b/pool_proj -> inception_3b/pool_proj
I0403 18:03:03.287513 15980 net.cpp:141] Setting up inception_3b/pool_proj
I0403 18:03:03.287542 15980 net.cpp:148] Top shape: 24 64 28 28 (1204224)
I0403 18:03:03.287559 15980 net.cpp:156] Memory required for data: 768295968
I0403 18:03:03.287576 15980 layer_factory.hpp:77] Creating layer inception_3b/relu_pool_proj
I0403 18:03:03.287593 15980 net.cpp:91] Creating Layer inception_3b/relu_pool_proj
I0403 18:03:03.287609 15980 net.cpp:425] inception_3b/relu_pool_proj <- inception_3b/pool_proj
I0403 18:03:03.287626 15980 net.cpp:386] inception_3b/relu_pool_proj -> inception_3b/pool_proj (in-place)
I0403 18:03:03.288015 15980 net.cpp:141] Setting up inception_3b/relu_pool_proj
I0403 18:03:03.288041 15980 net.cpp:148] Top shape: 24 64 28 28 (1204224)
I0403 18:03:03.288056 15980 net.cpp:156] Memory required for data: 773112864
I0403 18:03:03.288070 15980 layer_factory.hpp:77] Creating layer inception_3b/output
I0403 18:03:03.288089 15980 net.cpp:91] Creating Layer inception_3b/output
I0403 18:03:03.288105 15980 net.cpp:425] inception_3b/output <- inception_3b/1x1
I0403 18:03:03.288122 15980 net.cpp:425] inception_3b/output <- inception_3b/3x3
I0403 18:03:03.288137 15980 net.cpp:425] inception_3b/output <- inception_3b/5x5
I0403 18:03:03.288153 15980 net.cpp:425] inception_3b/output <- inception_3b/pool_proj
I0403 18:03:03.288169 15980 net.cpp:399] inception_3b/output -> inception_3b/output
I0403 18:03:03.288214 15980 net.cpp:141] Setting up inception_3b/output
I0403 18:03:03.288238 15980 net.cpp:148] Top shape: 24 480 28 28 (9031680)
I0403 18:03:03.288251 15980 net.cpp:156] Memory required for data: 809239584
I0403 18:03:03.288265 15980 layer_factory.hpp:77] Creating layer pool3/3x3_s2
I0403 18:03:03.288282 15980 net.cpp:91] Creating Layer pool3/3x3_s2
I0403 18:03:03.288297 15980 net.cpp:425] pool3/3x3_s2 <- inception_3b/output
I0403 18:03:03.288331 15980 net.cpp:399] pool3/3x3_s2 -> pool3/3x3_s2
I0403 18:03:03.288388 15980 net.cpp:141] Setting up pool3/3x3_s2
I0403 18:03:03.288411 15980 net.cpp:148] Top shape: 24 480 14 14 (2257920)
I0403 18:03:03.288425 15980 net.cpp:156] Memory required for data: 818271264
I0403 18:03:03.288439 15980 layer_factory.hpp:77] Creating layer pool3/3x3_s2_pool3/3x3_s2_0_split
I0403 18:03:03.288458 15980 net.cpp:91] Creating Layer pool3/3x3_s2_pool3/3x3_s2_0_split
I0403 18:03:03.288473 15980 net.cpp:425] pool3/3x3_s2_pool3/3x3_s2_0_split <- pool3/3x3_s2
I0403 18:03:03.288492 15980 net.cpp:399] pool3/3x3_s2_pool3/3x3_s2_0_split -> pool3/3x3_s2_pool3/3x3_s2_0_split_0
I0403 18:03:03.288511 15980 net.cpp:399] pool3/3x3_s2_pool3/3x3_s2_0_split -> pool3/3x3_s2_pool3/3x3_s2_0_split_1
I0403 18:03:03.288530 15980 net.cpp:399] pool3/3x3_s2_pool3/3x3_s2_0_split -> pool3/3x3_s2_pool3/3x3_s2_0_split_2
I0403 18:03:03.288549 15980 net.cpp:399] pool3/3x3_s2_pool3/3x3_s2_0_split -> pool3/3x3_s2_pool3/3x3_s2_0_split_3
I0403 18:03:03.288620 15980 net.cpp:141] Setting up pool3/3x3_s2_pool3/3x3_s2_0_split
I0403 18:03:03.288645 15980 net.cpp:148] Top shape: 24 480 14 14 (2257920)
I0403 18:03:03.288661 15980 net.cpp:148] Top shape: 24 480 14 14 (2257920)
I0403 18:03:03.288676 15980 net.cpp:148] Top shape: 24 480 14 14 (2257920)
I0403 18:03:03.288691 15980 net.cpp:148] Top shape: 24 480 14 14 (2257920)
I0403 18:03:03.288704 15980 net.cpp:156] Memory required for data: 854397984
I0403 18:03:03.288719 15980 layer_factory.hpp:77] Creating layer inception_4a/1x1
I0403 18:03:03.288740 15980 net.cpp:91] Creating Layer inception_4a/1x1
I0403 18:03:03.288758 15980 net.cpp:425] inception_4a/1x1 <- pool3/3x3_s2_pool3/3x3_s2_0_split_0
I0403 18:03:03.288775 15980 net.cpp:399] inception_4a/1x1 -> inception_4a/1x1
I0403 18:03:03.290285 15980 net.cpp:141] Setting up inception_4a/1x1
I0403 18:03:03.290314 15980 net.cpp:148] Top shape: 24 192 14 14 (903168)
I0403 18:03:03.290330 15980 net.cpp:156] Memory required for data: 858010656
I0403 18:03:03.290349 15980 layer_factory.hpp:77] Creating layer inception_4a/relu_1x1
I0403 18:03:03.290365 15980 net.cpp:91] Creating Layer inception_4a/relu_1x1
I0403 18:03:03.290381 15980 net.cpp:425] inception_4a/relu_1x1 <- inception_4a/1x1
I0403 18:03:03.290400 15980 net.cpp:386] inception_4a/relu_1x1 -> inception_4a/1x1 (in-place)
I0403 18:03:03.290570 15980 net.cpp:141] Setting up inception_4a/relu_1x1
I0403 18:03:03.290592 15980 net.cpp:148] Top shape: 24 192 14 14 (903168)
I0403 18:03:03.290607 15980 net.cpp:156] Memory required for data: 861623328
I0403 18:03:03.290621 15980 layer_factory.hpp:77] Creating layer inception_4a/3x3_reduce
I0403 18:03:03.290642 15980 net.cpp:91] Creating Layer inception_4a/3x3_reduce
I0403 18:03:03.290658 15980 net.cpp:425] inception_4a/3x3_reduce <- pool3/3x3_s2_pool3/3x3_s2_0_split_1
I0403 18:03:03.290679 15980 net.cpp:399] inception_4a/3x3_reduce -> inception_4a/3x3_reduce
I0403 18:03:03.291898 15980 net.cpp:141] Setting up inception_4a/3x3_reduce
I0403 18:03:03.291929 15980 net.cpp:148] Top shape: 24 96 14 14 (451584)
I0403 18:03:03.291944 15980 net.cpp:156] Memory required for data: 863429664
I0403 18:03:03.291968 15980 layer_factory.hpp:77] Creating layer inception_4a/relu_3x3_reduce
I0403 18:03:03.291992 15980 net.cpp:91] Creating Layer inception_4a/relu_3x3_reduce
I0403 18:03:03.292009 15980 net.cpp:425] inception_4a/relu_3x3_reduce <- inception_4a/3x3_reduce
I0403 18:03:03.292026 15980 net.cpp:386] inception_4a/relu_3x3_reduce -> inception_4a/3x3_reduce (in-place)
I0403 18:03:03.292194 15980 net.cpp:141] Setting up inception_4a/relu_3x3_reduce
I0403 18:03:03.292219 15980 net.cpp:148] Top shape: 24 96 14 14 (451584)
I0403 18:03:03.292232 15980 net.cpp:156] Memory required for data: 865236000
I0403 18:03:03.292248 15980 layer_factory.hpp:77] Creating layer inception_4a/3x3
I0403 18:03:03.292268 15980 net.cpp:91] Creating Layer inception_4a/3x3
I0403 18:03:03.292285 15980 net.cpp:425] inception_4a/3x3 <- inception_4a/3x3_reduce
I0403 18:03:03.292306 15980 net.cpp:399] inception_4a/3x3 -> inception_4a/3x3
I0403 18:03:03.294869 15980 net.cpp:141] Setting up inception_4a/3x3
I0403 18:03:03.294898 15980 net.cpp:148] Top shape: 24 208 14 14 (978432)
I0403 18:03:03.294914 15980 net.cpp:156] Memory required for data: 869149728
I0403 18:03:03.294931 15980 layer_factory.hpp:77] Creating layer inception_4a/relu_3x3
I0403 18:03:03.294948 15980 net.cpp:91] Creating Layer inception_4a/relu_3x3
I0403 18:03:03.294965 15980 net.cpp:425] inception_4a/relu_3x3 <- inception_4a/3x3
I0403 18:03:03.294987 15980 net.cpp:386] inception_4a/relu_3x3 -> inception_4a/3x3 (in-place)
I0403 18:03:03.295260 15980 net.cpp:141] Setting up inception_4a/relu_3x3
I0403 18:03:03.295285 15980 net.cpp:148] Top shape: 24 208 14 14 (978432)
I0403 18:03:03.295300 15980 net.cpp:156] Memory required for data: 873063456
I0403 18:03:03.295315 15980 layer_factory.hpp:77] Creating layer inception_4a/5x5_reduce
I0403 18:03:03.295336 15980 net.cpp:91] Creating Layer inception_4a/5x5_reduce
I0403 18:03:03.295352 15980 net.cpp:425] inception_4a/5x5_reduce <- pool3/3x3_s2_pool3/3x3_s2_0_split_2
I0403 18:03:03.295373 15980 net.cpp:399] inception_4a/5x5_reduce -> inception_4a/5x5_reduce
I0403 18:03:03.296352 15980 net.cpp:141] Setting up inception_4a/5x5_reduce
I0403 18:03:03.296378 15980 net.cpp:148] Top shape: 24 16 14 14 (75264)
I0403 18:03:03.296393 15980 net.cpp:156] Memory required for data: 873364512
I0403 18:03:03.296411 15980 layer_factory.hpp:77] Creating layer inception_4a/relu_5x5_reduce
I0403 18:03:03.296430 15980 net.cpp:91] Creating Layer inception_4a/relu_5x5_reduce
I0403 18:03:03.296447 15980 net.cpp:425] inception_4a/relu_5x5_reduce <- inception_4a/5x5_reduce
I0403 18:03:03.296463 15980 net.cpp:386] inception_4a/relu_5x5_reduce -> inception_4a/5x5_reduce (in-place)
I0403 18:03:03.296633 15980 net.cpp:141] Setting up inception_4a/relu_5x5_reduce
I0403 18:03:03.296660 15980 net.cpp:148] Top shape: 24 16 14 14 (75264)
I0403 18:03:03.296676 15980 net.cpp:156] Memory required for data: 873665568
I0403 18:03:03.296690 15980 layer_factory.hpp:77] Creating layer inception_4a/5x5
I0403 18:03:03.296710 15980 net.cpp:91] Creating Layer inception_4a/5x5
I0403 18:03:03.296725 15980 net.cpp:425] inception_4a/5x5 <- inception_4a/5x5_reduce
I0403 18:03:03.296746 15980 net.cpp:399] inception_4a/5x5 -> inception_4a/5x5
I0403 18:03:03.297797 15980 net.cpp:141] Setting up inception_4a/5x5
I0403 18:03:03.297824 15980 net.cpp:148] Top shape: 24 48 14 14 (225792)
I0403 18:03:03.297838 15980 net.cpp:156] Memory required for data: 874568736
I0403 18:03:03.297857 15980 layer_factory.hpp:77] Creating layer inception_4a/relu_5x5
I0403 18:03:03.297876 15980 net.cpp:91] Creating Layer inception_4a/relu_5x5
I0403 18:03:03.297893 15980 net.cpp:425] inception_4a/relu_5x5 <- inception_4a/5x5
I0403 18:03:03.297909 15980 net.cpp:386] inception_4a/relu_5x5 -> inception_4a/5x5 (in-place)
I0403 18:03:03.298095 15980 net.cpp:141] Setting up inception_4a/relu_5x5
I0403 18:03:03.298120 15980 net.cpp:148] Top shape: 24 48 14 14 (225792)
I0403 18:03:03.298135 15980 net.cpp:156] Memory required for data: 875471904
I0403 18:03:03.298148 15980 layer_factory.hpp:77] Creating layer inception_4a/pool
I0403 18:03:03.298166 15980 net.cpp:91] Creating Layer inception_4a/pool
I0403 18:03:03.298188 15980 net.cpp:425] inception_4a/pool <- pool3/3x3_s2_pool3/3x3_s2_0_split_3
I0403 18:03:03.298208 15980 net.cpp:399] inception_4a/pool -> inception_4a/pool
I0403 18:03:03.298267 15980 net.cpp:141] Setting up inception_4a/pool
I0403 18:03:03.298290 15980 net.cpp:148] Top shape: 24 480 14 14 (2257920)
I0403 18:03:03.298305 15980 net.cpp:156] Memory required for data: 884503584
I0403 18:03:03.298318 15980 layer_factory.hpp:77] Creating layer inception_4a/pool_proj
I0403 18:03:03.298341 15980 net.cpp:91] Creating Layer inception_4a/pool_proj
I0403 18:03:03.298358 15980 net.cpp:425] inception_4a/pool_proj <- inception_4a/pool
I0403 18:03:03.298375 15980 net.cpp:399] inception_4a/pool_proj -> inception_4a/pool_proj
I0403 18:03:03.299504 15980 net.cpp:141] Setting up inception_4a/pool_proj
I0403 18:03:03.299533 15980 net.cpp:148] Top shape: 24 64 14 14 (301056)
I0403 18:03:03.299564 15980 net.cpp:156] Memory required for data: 885707808
I0403 18:03:03.299582 15980 layer_factory.hpp:77] Creating layer inception_4a/relu_pool_proj
I0403 18:03:03.299600 15980 net.cpp:91] Creating Layer inception_4a/relu_pool_proj
I0403 18:03:03.299615 15980 net.cpp:425] inception_4a/relu_pool_proj <- inception_4a/pool_proj
I0403 18:03:03.299635 15980 net.cpp:386] inception_4a/relu_pool_proj -> inception_4a/pool_proj (in-place)
I0403 18:03:03.299911 15980 net.cpp:141] Setting up inception_4a/relu_pool_proj
I0403 18:03:03.299938 15980 net.cpp:148] Top shape: 24 64 14 14 (301056)
I0403 18:03:03.299954 15980 net.cpp:156] Memory required for data: 886912032
I0403 18:03:03.299968 15980 layer_factory.hpp:77] Creating layer inception_4a/output
I0403 18:03:03.299989 15980 net.cpp:91] Creating Layer inception_4a/output
I0403 18:03:03.300005 15980 net.cpp:425] inception_4a/output <- inception_4a/1x1
I0403 18:03:03.300021 15980 net.cpp:425] inception_4a/output <- inception_4a/3x3
I0403 18:03:03.300037 15980 net.cpp:425] inception_4a/output <- inception_4a/5x5
I0403 18:03:03.300052 15980 net.cpp:425] inception_4a/output <- inception_4a/pool_proj
I0403 18:03:03.300071 15980 net.cpp:399] inception_4a/output -> inception_4a/output
I0403 18:03:03.300113 15980 net.cpp:141] Setting up inception_4a/output
I0403 18:03:03.300137 15980 net.cpp:148] Top shape: 24 512 14 14 (2408448)
I0403 18:03:03.300149 15980 net.cpp:156] Memory required for data: 896545824
I0403 18:03:03.300163 15980 layer_factory.hpp:77] Creating layer inception_4a/output_inception_4a/output_0_split
I0403 18:03:03.300182 15980 net.cpp:91] Creating Layer inception_4a/output_inception_4a/output_0_split
I0403 18:03:03.300199 15980 net.cpp:425] inception_4a/output_inception_4a/output_0_split <- inception_4a/output
I0403 18:03:03.300215 15980 net.cpp:399] inception_4a/output_inception_4a/output_0_split -> inception_4a/output_inception_4a/output_0_split_0
I0403 18:03:03.300235 15980 net.cpp:399] inception_4a/output_inception_4a/output_0_split -> inception_4a/output_inception_4a/output_0_split_1
I0403 18:03:03.300256 15980 net.cpp:399] inception_4a/output_inception_4a/output_0_split -> inception_4a/output_inception_4a/output_0_split_2
I0403 18:03:03.300276 15980 net.cpp:399] inception_4a/output_inception_4a/output_0_split -> inception_4a/output_inception_4a/output_0_split_3
I0403 18:03:03.300294 15980 net.cpp:399] inception_4a/output_inception_4a/output_0_split -> inception_4a/output_inception_4a/output_0_split_4
I0403 18:03:03.300381 15980 net.cpp:141] Setting up inception_4a/output_inception_4a/output_0_split
I0403 18:03:03.300403 15980 net.cpp:148] Top shape: 24 512 14 14 (2408448)
I0403 18:03:03.300420 15980 net.cpp:148] Top shape: 24 512 14 14 (2408448)
I0403 18:03:03.300434 15980 net.cpp:148] Top shape: 24 512 14 14 (2408448)
I0403 18:03:03.300449 15980 net.cpp:148] Top shape: 24 512 14 14 (2408448)
I0403 18:03:03.300463 15980 net.cpp:148] Top shape: 24 512 14 14 (2408448)
I0403 18:03:03.300477 15980 net.cpp:156] Memory required for data: 944714784
I0403 18:03:03.300490 15980 layer_factory.hpp:77] Creating layer loss1/ave_pool
I0403 18:03:03.300508 15980 net.cpp:91] Creating Layer loss1/ave_pool
I0403 18:03:03.300523 15980 net.cpp:425] loss1/ave_pool <- inception_4a/output_inception_4a/output_0_split_0
I0403 18:03:03.300541 15980 net.cpp:399] loss1/ave_pool -> loss1/ave_pool
I0403 18:03:03.300740 15980 net.cpp:141] Setting up loss1/ave_pool
I0403 18:03:03.300768 15980 net.cpp:148] Top shape: 24 512 4 4 (196608)
I0403 18:03:03.300783 15980 net.cpp:156] Memory required for data: 945501216
I0403 18:03:03.300798 15980 layer_factory.hpp:77] Creating layer loss1/conv
I0403 18:03:03.300819 15980 net.cpp:91] Creating Layer loss1/conv
I0403 18:03:03.300835 15980 net.cpp:425] loss1/conv <- loss1/ave_pool
I0403 18:03:03.300853 15980 net.cpp:399] loss1/conv -> loss1/conv
I0403 18:03:03.302203 15980 net.cpp:141] Setting up loss1/conv
I0403 18:03:03.302230 15980 net.cpp:148] Top shape: 24 128 4 4 (49152)
I0403 18:03:03.302258 15980 net.cpp:156] Memory required for data: 945697824
I0403 18:03:03.302278 15980 layer_factory.hpp:77] Creating layer loss1/relu_conv
I0403 18:03:03.302295 15980 net.cpp:91] Creating Layer loss1/relu_conv
I0403 18:03:03.302310 15980 net.cpp:425] loss1/relu_conv <- loss1/conv
I0403 18:03:03.302330 15980 net.cpp:386] loss1/relu_conv -> loss1/conv (in-place)
I0403 18:03:03.302599 15980 net.cpp:141] Setting up loss1/relu_conv
I0403 18:03:03.302625 15980 net.cpp:148] Top shape: 24 128 4 4 (49152)
I0403 18:03:03.302639 15980 net.cpp:156] Memory required for data: 945894432
I0403 18:03:03.302654 15980 layer_factory.hpp:77] Creating layer loss1/fc
I0403 18:03:03.302676 15980 net.cpp:91] Creating Layer loss1/fc
I0403 18:03:03.302693 15980 net.cpp:425] loss1/fc <- loss1/conv
I0403 18:03:03.302713 15980 net.cpp:399] loss1/fc -> loss1/fc
I0403 18:03:03.319864 15980 net.cpp:141] Setting up loss1/fc
I0403 18:03:03.319896 15980 net.cpp:148] Top shape: 24 1024 (24576)
I0403 18:03:03.319911 15980 net.cpp:156] Memory required for data: 945992736
I0403 18:03:03.319932 15980 layer_factory.hpp:77] Creating layer loss1/relu_fc
I0403 18:03:03.319949 15980 net.cpp:91] Creating Layer loss1/relu_fc
I0403 18:03:03.319967 15980 net.cpp:425] loss1/relu_fc <- loss1/fc
I0403 18:03:03.319988 15980 net.cpp:386] loss1/relu_fc -> loss1/fc (in-place)
I0403 18:03:03.320170 15980 net.cpp:141] Setting up loss1/relu_fc
I0403 18:03:03.320194 15980 net.cpp:148] Top shape: 24 1024 (24576)
I0403 18:03:03.320209 15980 net.cpp:156] Memory required for data: 946091040
I0403 18:03:03.320224 15980 layer_factory.hpp:77] Creating layer loss1/drop_fc
I0403 18:03:03.320250 15980 net.cpp:91] Creating Layer loss1/drop_fc
I0403 18:03:03.320267 15980 net.cpp:425] loss1/drop_fc <- loss1/fc
I0403 18:03:03.320286 15980 net.cpp:386] loss1/drop_fc -> loss1/fc (in-place)
I0403 18:03:03.320335 15980 net.cpp:141] Setting up loss1/drop_fc
I0403 18:03:03.320358 15980 net.cpp:148] Top shape: 24 1024 (24576)
I0403 18:03:03.320376 15980 net.cpp:156] Memory required for data: 946189344
I0403 18:03:03.320391 15980 layer_factory.hpp:77] Creating layer loss1/classifier_plantvillage
I0403 18:03:03.320408 15980 net.cpp:91] Creating Layer loss1/classifier_plantvillage
I0403 18:03:03.320423 15980 net.cpp:425] loss1/classifier_plantvillage <- loss1/fc
I0403 18:03:03.320442 15980 net.cpp:399] loss1/classifier_plantvillage -> loss1/classifier_plantvillage
I0403 18:03:03.321316 15980 net.cpp:141] Setting up loss1/classifier_plantvillage
I0403 18:03:03.321353 15980 net.cpp:148] Top shape: 24 38 (912)
I0403 18:03:03.321367 15980 net.cpp:156] Memory required for data: 946192992
I0403 18:03:03.321385 15980 layer_factory.hpp:77] Creating layer loss1/classifier_plantvillage_loss1/classifier_plantvillage_0_split
I0403 18:03:03.321403 15980 net.cpp:91] Creating Layer loss1/classifier_plantvillage_loss1/classifier_plantvillage_0_split
I0403 18:03:03.321418 15980 net.cpp:425] loss1/classifier_plantvillage_loss1/classifier_plantvillage_0_split <- loss1/classifier_plantvillage
I0403 18:03:03.321436 15980 net.cpp:399] loss1/classifier_plantvillage_loss1/classifier_plantvillage_0_split -> loss1/classifier_plantvillage_loss1/classifier_plantvillage_0_split_0
I0403 18:03:03.321457 15980 net.cpp:399] loss1/classifier_plantvillage_loss1/classifier_plantvillage_0_split -> loss1/classifier_plantvillage_loss1/classifier_plantvillage_0_split_1
I0403 18:03:03.321477 15980 net.cpp:399] loss1/classifier_plantvillage_loss1/classifier_plantvillage_0_split -> loss1/classifier_plantvillage_loss1/classifier_plantvillage_0_split_2
I0403 18:03:03.321540 15980 net.cpp:141] Setting up loss1/classifier_plantvillage_loss1/classifier_plantvillage_0_split
I0403 18:03:03.321563 15980 net.cpp:148] Top shape: 24 38 (912)
I0403 18:03:03.321578 15980 net.cpp:148] Top shape: 24 38 (912)
I0403 18:03:03.321593 15980 net.cpp:148] Top shape: 24 38 (912)
I0403 18:03:03.321605 15980 net.cpp:156] Memory required for data: 946203936
I0403 18:03:03.321619 15980 layer_factory.hpp:77] Creating layer inception_4b/1x1
I0403 18:03:03.321641 15980 net.cpp:91] Creating Layer inception_4b/1x1
I0403 18:03:03.321672 15980 net.cpp:425] inception_4b/1x1 <- inception_4a/output_inception_4a/output_0_split_1
I0403 18:03:03.321691 15980 net.cpp:399] inception_4b/1x1 -> inception_4b/1x1
I0403 18:03:03.323292 15980 net.cpp:141] Setting up inception_4b/1x1
I0403 18:03:03.323319 15980 net.cpp:148] Top shape: 24 160 14 14 (752640)
I0403 18:03:03.323334 15980 net.cpp:156] Memory required for data: 949214496
I0403 18:03:03.323351 15980 layer_factory.hpp:77] Creating layer inception_4b/relu_1x1
I0403 18:03:03.323371 15980 net.cpp:91] Creating Layer inception_4b/relu_1x1
I0403 18:03:03.323387 15980 net.cpp:425] inception_4b/relu_1x1 <- inception_4b/1x1
I0403 18:03:03.323405 15980 net.cpp:386] inception_4b/relu_1x1 -> inception_4b/1x1 (in-place)
I0403 18:03:03.323575 15980 net.cpp:141] Setting up inception_4b/relu_1x1
I0403 18:03:03.323599 15980 net.cpp:148] Top shape: 24 160 14 14 (752640)
I0403 18:03:03.323616 15980 net.cpp:156] Memory required for data: 952225056
I0403 18:03:03.323631 15980 layer_factory.hpp:77] Creating layer inception_4b/3x3_reduce
I0403 18:03:03.323649 15980 net.cpp:91] Creating Layer inception_4b/3x3_reduce
I0403 18:03:03.323665 15980 net.cpp:425] inception_4b/3x3_reduce <- inception_4a/output_inception_4a/output_0_split_2
I0403 18:03:03.323686 15980 net.cpp:399] inception_4b/3x3_reduce -> inception_4b/3x3_reduce
I0403 18:03:03.324991 15980 net.cpp:141] Setting up inception_4b/3x3_reduce
I0403 18:03:03.325018 15980 net.cpp:148] Top shape: 24 112 14 14 (526848)
I0403 18:03:03.325033 15980 net.cpp:156] Memory required for data: 954332448
I0403 18:03:03.325050 15980 layer_factory.hpp:77] Creating layer inception_4b/relu_3x3_reduce
I0403 18:03:03.325070 15980 net.cpp:91] Creating Layer inception_4b/relu_3x3_reduce
I0403 18:03:03.325086 15980 net.cpp:425] inception_4b/relu_3x3_reduce <- inception_4b/3x3_reduce
I0403 18:03:03.325103 15980 net.cpp:386] inception_4b/relu_3x3_reduce -> inception_4b/3x3_reduce (in-place)
I0403 18:03:03.325376 15980 net.cpp:141] Setting up inception_4b/relu_3x3_reduce
I0403 18:03:03.325400 15980 net.cpp:148] Top shape: 24 112 14 14 (526848)
I0403 18:03:03.325414 15980 net.cpp:156] Memory required for data: 956439840
I0403 18:03:03.325429 15980 layer_factory.hpp:77] Creating layer inception_4b/3x3
I0403 18:03:03.325450 15980 net.cpp:91] Creating Layer inception_4b/3x3
I0403 18:03:03.325467 15980 net.cpp:425] inception_4b/3x3 <- inception_4b/3x3_reduce
I0403 18:03:03.325487 15980 net.cpp:399] inception_4b/3x3 -> inception_4b/3x3
I0403 18:03:03.328384 15980 net.cpp:141] Setting up inception_4b/3x3
I0403 18:03:03.328413 15980 net.cpp:148] Top shape: 24 224 14 14 (1053696)
I0403 18:03:03.328428 15980 net.cpp:156] Memory required for data: 960654624
I0403 18:03:03.328444 15980 layer_factory.hpp:77] Creating layer inception_4b/relu_3x3
I0403 18:03:03.328461 15980 net.cpp:91] Creating Layer inception_4b/relu_3x3
I0403 18:03:03.328477 15980 net.cpp:425] inception_4b/relu_3x3 <- inception_4b/3x3
I0403 18:03:03.328496 15980 net.cpp:386] inception_4b/relu_3x3 -> inception_4b/3x3 (in-place)
I0403 18:03:03.328673 15980 net.cpp:141] Setting up inception_4b/relu_3x3
I0403 18:03:03.328697 15980 net.cpp:148] Top shape: 24 224 14 14 (1053696)
I0403 18:03:03.328711 15980 net.cpp:156] Memory required for data: 964869408
I0403 18:03:03.328725 15980 layer_factory.hpp:77] Creating layer inception_4b/5x5_reduce
I0403 18:03:03.328747 15980 net.cpp:91] Creating Layer inception_4b/5x5_reduce
I0403 18:03:03.328765 15980 net.cpp:425] inception_4b/5x5_reduce <- inception_4a/output_inception_4a/output_0_split_3
I0403 18:03:03.328785 15980 net.cpp:399] inception_4b/5x5_reduce -> inception_4b/5x5_reduce
I0403 18:03:03.329843 15980 net.cpp:141] Setting up inception_4b/5x5_reduce
I0403 18:03:03.329871 15980 net.cpp:148] Top shape: 24 24 14 14 (112896)
I0403 18:03:03.329886 15980 net.cpp:156] Memory required for data: 965320992
I0403 18:03:03.329903 15980 layer_factory.hpp:77] Creating layer inception_4b/relu_5x5_reduce
I0403 18:03:03.329926 15980 net.cpp:91] Creating Layer inception_4b/relu_5x5_reduce
I0403 18:03:03.329955 15980 net.cpp:425] inception_4b/relu_5x5_reduce <- inception_4b/5x5_reduce
I0403 18:03:03.329973 15980 net.cpp:386] inception_4b/relu_5x5_reduce -> inception_4b/5x5_reduce (in-place)
I0403 18:03:03.330153 15980 net.cpp:141] Setting up inception_4b/relu_5x5_reduce
I0403 18:03:03.330189 15980 net.cpp:148] Top shape: 24 24 14 14 (112896)
I0403 18:03:03.330204 15980 net.cpp:156] Memory required for data: 965772576
I0403 18:03:03.330219 15980 layer_factory.hpp:77] Creating layer inception_4b/5x5
I0403 18:03:03.330240 15980 net.cpp:91] Creating Layer inception_4b/5x5
I0403 18:03:03.330257 15980 net.cpp:425] inception_4b/5x5 <- inception_4b/5x5_reduce
I0403 18:03:03.330276 15980 net.cpp:399] inception_4b/5x5 -> inception_4b/5x5
I0403 18:03:03.331460 15980 net.cpp:141] Setting up inception_4b/5x5
I0403 18:03:03.331487 15980 net.cpp:148] Top shape: 24 64 14 14 (301056)
I0403 18:03:03.331501 15980 net.cpp:156] Memory required for data: 966976800
I0403 18:03:03.331519 15980 layer_factory.hpp:77] Creating layer inception_4b/relu_5x5
I0403 18:03:03.331538 15980 net.cpp:91] Creating Layer inception_4b/relu_5x5
I0403 18:03:03.331555 15980 net.cpp:425] inception_4b/relu_5x5 <- inception_4b/5x5
I0403 18:03:03.331573 15980 net.cpp:386] inception_4b/relu_5x5 -> inception_4b/5x5 (in-place)
I0403 18:03:03.331847 15980 net.cpp:141] Setting up inception_4b/relu_5x5
I0403 18:03:03.331872 15980 net.cpp:148] Top shape: 24 64 14 14 (301056)
I0403 18:03:03.331887 15980 net.cpp:156] Memory required for data: 968181024
I0403 18:03:03.331902 15980 layer_factory.hpp:77] Creating layer inception_4b/pool
I0403 18:03:03.331918 15980 net.cpp:91] Creating Layer inception_4b/pool
I0403 18:03:03.331933 15980 net.cpp:425] inception_4b/pool <- inception_4a/output_inception_4a/output_0_split_4
I0403 18:03:03.331955 15980 net.cpp:399] inception_4b/pool -> inception_4b/pool
I0403 18:03:03.332022 15980 net.cpp:141] Setting up inception_4b/pool
I0403 18:03:03.332046 15980 net.cpp:148] Top shape: 24 512 14 14 (2408448)
I0403 18:03:03.332059 15980 net.cpp:156] Memory required for data: 977814816
I0403 18:03:03.332073 15980 layer_factory.hpp:77] Creating layer inception_4b/pool_proj
I0403 18:03:03.332096 15980 net.cpp:91] Creating Layer inception_4b/pool_proj
I0403 18:03:03.332113 15980 net.cpp:425] inception_4b/pool_proj <- inception_4b/pool
I0403 18:03:03.332130 15980 net.cpp:399] inception_4b/pool_proj -> inception_4b/pool_proj
I0403 18:03:03.333287 15980 net.cpp:141] Setting up inception_4b/pool_proj
I0403 18:03:03.333314 15980 net.cpp:148] Top shape: 24 64 14 14 (301056)
I0403 18:03:03.333329 15980 net.cpp:156] Memory required for data: 979019040
I0403 18:03:03.333346 15980 layer_factory.hpp:77] Creating layer inception_4b/relu_pool_proj
I0403 18:03:03.333365 15980 net.cpp:91] Creating Layer inception_4b/relu_pool_proj
I0403 18:03:03.333382 15980 net.cpp:425] inception_4b/relu_pool_proj <- inception_4b/pool_proj
I0403 18:03:03.333398 15980 net.cpp:386] inception_4b/relu_pool_proj -> inception_4b/pool_proj (in-place)
I0403 18:03:03.333571 15980 net.cpp:141] Setting up inception_4b/relu_pool_proj
I0403 18:03:03.333597 15980 net.cpp:148] Top shape: 24 64 14 14 (301056)
I0403 18:03:03.333612 15980 net.cpp:156] Memory required for data: 980223264
I0403 18:03:03.333626 15980 layer_factory.hpp:77] Creating layer inception_4b/output
I0403 18:03:03.333642 15980 net.cpp:91] Creating Layer inception_4b/output
I0403 18:03:03.333657 15980 net.cpp:425] inception_4b/output <- inception_4b/1x1
I0403 18:03:03.333673 15980 net.cpp:425] inception_4b/output <- inception_4b/3x3
I0403 18:03:03.333689 15980 net.cpp:425] inception_4b/output <- inception_4b/5x5
I0403 18:03:03.333704 15980 net.cpp:425] inception_4b/output <- inception_4b/pool_proj
I0403 18:03:03.333720 15980 net.cpp:399] inception_4b/output -> inception_4b/output
I0403 18:03:03.333766 15980 net.cpp:141] Setting up inception_4b/output
I0403 18:03:03.333788 15980 net.cpp:148] Top shape: 24 512 14 14 (2408448)
I0403 18:03:03.333802 15980 net.cpp:156] Memory required for data: 989857056
I0403 18:03:03.333829 15980 layer_factory.hpp:77] Creating layer inception_4b/output_inception_4b/output_0_split
I0403 18:03:03.333849 15980 net.cpp:91] Creating Layer inception_4b/output_inception_4b/output_0_split
I0403 18:03:03.333865 15980 net.cpp:425] inception_4b/output_inception_4b/output_0_split <- inception_4b/output
I0403 18:03:03.333883 15980 net.cpp:399] inception_4b/output_inception_4b/output_0_split -> inception_4b/output_inception_4b/output_0_split_0
I0403 18:03:03.333902 15980 net.cpp:399] inception_4b/output_inception_4b/output_0_split -> inception_4b/output_inception_4b/output_0_split_1
I0403 18:03:03.333923 15980 net.cpp:399] inception_4b/output_inception_4b/output_0_split -> inception_4b/output_inception_4b/output_0_split_2
I0403 18:03:03.333942 15980 net.cpp:399] inception_4b/output_inception_4b/output_0_split -> inception_4b/output_inception_4b/output_0_split_3
I0403 18:03:03.334029 15980 net.cpp:141] Setting up inception_4b/output_inception_4b/output_0_split
I0403 18:03:03.334053 15980 net.cpp:148] Top shape: 24 512 14 14 (2408448)
I0403 18:03:03.334067 15980 net.cpp:148] Top shape: 24 512 14 14 (2408448)
I0403 18:03:03.334082 15980 net.cpp:148] Top shape: 24 512 14 14 (2408448)
I0403 18:03:03.334096 15980 net.cpp:148] Top shape: 24 512 14 14 (2408448)
I0403 18:03:03.334110 15980 net.cpp:156] Memory required for data: 1028392224
I0403 18:03:03.334125 15980 layer_factory.hpp:77] Creating layer inception_4c/1x1
I0403 18:03:03.334146 15980 net.cpp:91] Creating Layer inception_4c/1x1
I0403 18:03:03.334162 15980 net.cpp:425] inception_4c/1x1 <- inception_4b/output_inception_4b/output_0_split_0
I0403 18:03:03.334182 15980 net.cpp:399] inception_4c/1x1 -> inception_4c/1x1
I0403 18:03:03.335566 15980 net.cpp:141] Setting up inception_4c/1x1
I0403 18:03:03.335597 15980 net.cpp:148] Top shape: 24 128 14 14 (602112)
I0403 18:03:03.335613 15980 net.cpp:156] Memory required for data: 1030800672
I0403 18:03:03.335631 15980 layer_factory.hpp:77] Creating layer inception_4c/relu_1x1
I0403 18:03:03.335649 15980 net.cpp:91] Creating Layer inception_4c/relu_1x1
I0403 18:03:03.335664 15980 net.cpp:425] inception_4c/relu_1x1 <- inception_4c/1x1
I0403 18:03:03.335681 15980 net.cpp:386] inception_4c/relu_1x1 -> inception_4c/1x1 (in-place)
I0403 18:03:03.335856 15980 net.cpp:141] Setting up inception_4c/relu_1x1
I0403 18:03:03.335881 15980 net.cpp:148] Top shape: 24 128 14 14 (602112)
I0403 18:03:03.335896 15980 net.cpp:156] Memory required for data: 1033209120
I0403 18:03:03.335909 15980 layer_factory.hpp:77] Creating layer inception_4c/3x3_reduce
I0403 18:03:03.335933 15980 net.cpp:91] Creating Layer inception_4c/3x3_reduce
I0403 18:03:03.335950 15980 net.cpp:425] inception_4c/3x3_reduce <- inception_4b/output_inception_4b/output_0_split_1
I0403 18:03:03.335973 15980 net.cpp:399] inception_4c/3x3_reduce -> inception_4c/3x3_reduce
I0403 18:03:03.337851 15980 net.cpp:141] Setting up inception_4c/3x3_reduce
I0403 18:03:03.337879 15980 net.cpp:148] Top shape: 24 128 14 14 (602112)
I0403 18:03:03.337893 15980 net.cpp:156] Memory required for data: 1035617568
I0403 18:03:03.337911 15980 layer_factory.hpp:77] Creating layer inception_4c/relu_3x3_reduce
I0403 18:03:03.337934 15980 net.cpp:91] Creating Layer inception_4c/relu_3x3_reduce
I0403 18:03:03.337949 15980 net.cpp:425] inception_4c/relu_3x3_reduce <- inception_4c/3x3_reduce
I0403 18:03:03.337966 15980 net.cpp:386] inception_4c/relu_3x3_reduce -> inception_4c/3x3_reduce (in-place)
I0403 18:03:03.338253 15980 net.cpp:141] Setting up inception_4c/relu_3x3_reduce
I0403 18:03:03.338279 15980 net.cpp:148] Top shape: 24 128 14 14 (602112)
I0403 18:03:03.338294 15980 net.cpp:156] Memory required for data: 1038026016
I0403 18:03:03.338307 15980 layer_factory.hpp:77] Creating layer inception_4c/3x3
I0403 18:03:03.338330 15980 net.cpp:91] Creating Layer inception_4c/3x3
I0403 18:03:03.338346 15980 net.cpp:425] inception_4c/3x3 <- inception_4c/3x3_reduce
I0403 18:03:03.338368 15980 net.cpp:399] inception_4c/3x3 -> inception_4c/3x3
I0403 18:03:03.341899 15980 net.cpp:141] Setting up inception_4c/3x3
I0403 18:03:03.341940 15980 net.cpp:148] Top shape: 24 256 14 14 (1204224)
I0403 18:03:03.341956 15980 net.cpp:156] Memory required for data: 1042842912
I0403 18:03:03.341990 15980 layer_factory.hpp:77] Creating layer inception_4c/relu_3x3
I0403 18:03:03.342013 15980 net.cpp:91] Creating Layer inception_4c/relu_3x3
I0403 18:03:03.342031 15980 net.cpp:425] inception_4c/relu_3x3 <- inception_4c/3x3
I0403 18:03:03.342047 15980 net.cpp:386] inception_4c/relu_3x3 -> inception_4c/3x3 (in-place)
I0403 18:03:03.342224 15980 net.cpp:141] Setting up inception_4c/relu_3x3
I0403 18:03:03.342248 15980 net.cpp:148] Top shape: 24 256 14 14 (1204224)
I0403 18:03:03.342262 15980 net.cpp:156] Memory required for data: 1047659808
I0403 18:03:03.342277 15980 layer_factory.hpp:77] Creating layer inception_4c/5x5_reduce
I0403 18:03:03.342298 15980 net.cpp:91] Creating Layer inception_4c/5x5_reduce
I0403 18:03:03.342314 15980 net.cpp:425] inception_4c/5x5_reduce <- inception_4b/output_inception_4b/output_0_split_2
I0403 18:03:03.342334 15980 net.cpp:399] inception_4c/5x5_reduce -> inception_4c/5x5_reduce
I0403 18:03:03.343406 15980 net.cpp:141] Setting up inception_4c/5x5_reduce
I0403 18:03:03.343433 15980 net.cpp:148] Top shape: 24 24 14 14 (112896)
I0403 18:03:03.343448 15980 net.cpp:156] Memory required for data: 1048111392
I0403 18:03:03.343466 15980 layer_factory.hpp:77] Creating layer inception_4c/relu_5x5_reduce
I0403 18:03:03.343484 15980 net.cpp:91] Creating Layer inception_4c/relu_5x5_reduce
I0403 18:03:03.343502 15980 net.cpp:425] inception_4c/relu_5x5_reduce <- inception_4c/5x5_reduce
I0403 18:03:03.343518 15980 net.cpp:386] inception_4c/relu_5x5_reduce -> inception_4c/5x5_reduce (in-place)
I0403 18:03:03.343698 15980 net.cpp:141] Setting up inception_4c/relu_5x5_reduce
I0403 18:03:03.343721 15980 net.cpp:148] Top shape: 24 24 14 14 (112896)
I0403 18:03:03.343734 15980 net.cpp:156] Memory required for data: 1048562976
I0403 18:03:03.343749 15980 layer_factory.hpp:77] Creating layer inception_4c/5x5
I0403 18:03:03.343771 15980 net.cpp:91] Creating Layer inception_4c/5x5
I0403 18:03:03.343788 15980 net.cpp:425] inception_4c/5x5 <- inception_4c/5x5_reduce
I0403 18:03:03.343807 15980 net.cpp:399] inception_4c/5x5 -> inception_4c/5x5
I0403 18:03:03.345029 15980 net.cpp:141] Setting up inception_4c/5x5
I0403 18:03:03.345058 15980 net.cpp:148] Top shape: 24 64 14 14 (301056)
I0403 18:03:03.345074 15980 net.cpp:156] Memory required for data: 1049767200
I0403 18:03:03.345093 15980 layer_factory.hpp:77] Creating layer inception_4c/relu_5x5
I0403 18:03:03.345109 15980 net.cpp:91] Creating Layer inception_4c/relu_5x5
I0403 18:03:03.345124 15980 net.cpp:425] inception_4c/relu_5x5 <- inception_4c/5x5
I0403 18:03:03.345141 15980 net.cpp:386] inception_4c/relu_5x5 -> inception_4c/5x5 (in-place)
I0403 18:03:03.345422 15980 net.cpp:141] Setting up inception_4c/relu_5x5
I0403 18:03:03.345449 15980 net.cpp:148] Top shape: 24 64 14 14 (301056)
I0403 18:03:03.345465 15980 net.cpp:156] Memory required for data: 1050971424
I0403 18:03:03.345480 15980 layer_factory.hpp:77] Creating layer inception_4c/pool
I0403 18:03:03.345496 15980 net.cpp:91] Creating Layer inception_4c/pool
I0403 18:03:03.345512 15980 net.cpp:425] inception_4c/pool <- inception_4b/output_inception_4b/output_0_split_3
I0403 18:03:03.345530 15980 net.cpp:399] inception_4c/pool -> inception_4c/pool
I0403 18:03:03.345594 15980 net.cpp:141] Setting up inception_4c/pool
I0403 18:03:03.345618 15980 net.cpp:148] Top shape: 24 512 14 14 (2408448)
I0403 18:03:03.345631 15980 net.cpp:156] Memory required for data: 1060605216
I0403 18:03:03.345645 15980 layer_factory.hpp:77] Creating layer inception_4c/pool_proj
I0403 18:03:03.345666 15980 net.cpp:91] Creating Layer inception_4c/pool_proj
I0403 18:03:03.345684 15980 net.cpp:425] inception_4c/pool_proj <- inception_4c/pool
I0403 18:03:03.345703 15980 net.cpp:399] inception_4c/pool_proj -> inception_4c/pool_proj
I0403 18:03:03.346886 15980 net.cpp:141] Setting up inception_4c/pool_proj
I0403 18:03:03.346915 15980 net.cpp:148] Top shape: 24 64 14 14 (301056)
I0403 18:03:03.346943 15980 net.cpp:156] Memory required for data: 1061809440
I0403 18:03:03.346962 15980 layer_factory.hpp:77] Creating layer inception_4c/relu_pool_proj
I0403 18:03:03.346987 15980 net.cpp:91] Creating Layer inception_4c/relu_pool_proj
I0403 18:03:03.347005 15980 net.cpp:425] inception_4c/relu_pool_proj <- inception_4c/pool_proj
I0403 18:03:03.347023 15980 net.cpp:386] inception_4c/relu_pool_proj -> inception_4c/pool_proj (in-place)
I0403 18:03:03.347199 15980 net.cpp:141] Setting up inception_4c/relu_pool_proj
I0403 18:03:03.347225 15980 net.cpp:148] Top shape: 24 64 14 14 (301056)
I0403 18:03:03.347240 15980 net.cpp:156] Memory required for data: 1063013664
I0403 18:03:03.347254 15980 layer_factory.hpp:77] Creating layer inception_4c/output
I0403 18:03:03.347271 15980 net.cpp:91] Creating Layer inception_4c/output
I0403 18:03:03.347286 15980 net.cpp:425] inception_4c/output <- inception_4c/1x1
I0403 18:03:03.347302 15980 net.cpp:425] inception_4c/output <- inception_4c/3x3
I0403 18:03:03.347318 15980 net.cpp:425] inception_4c/output <- inception_4c/5x5
I0403 18:03:03.347333 15980 net.cpp:425] inception_4c/output <- inception_4c/pool_proj
I0403 18:03:03.347349 15980 net.cpp:399] inception_4c/output -> inception_4c/output
I0403 18:03:03.347398 15980 net.cpp:141] Setting up inception_4c/output
I0403 18:03:03.347419 15980 net.cpp:148] Top shape: 24 512 14 14 (2408448)
I0403 18:03:03.347434 15980 net.cpp:156] Memory required for data: 1072647456
I0403 18:03:03.347447 15980 layer_factory.hpp:77] Creating layer inception_4c/output_inception_4c/output_0_split
I0403 18:03:03.347465 15980 net.cpp:91] Creating Layer inception_4c/output_inception_4c/output_0_split
I0403 18:03:03.347481 15980 net.cpp:425] inception_4c/output_inception_4c/output_0_split <- inception_4c/output
I0403 18:03:03.347498 15980 net.cpp:399] inception_4c/output_inception_4c/output_0_split -> inception_4c/output_inception_4c/output_0_split_0
I0403 18:03:03.347517 15980 net.cpp:399] inception_4c/output_inception_4c/output_0_split -> inception_4c/output_inception_4c/output_0_split_1
I0403 18:03:03.347537 15980 net.cpp:399] inception_4c/output_inception_4c/output_0_split -> inception_4c/output_inception_4c/output_0_split_2
I0403 18:03:03.347556 15980 net.cpp:399] inception_4c/output_inception_4c/output_0_split -> inception_4c/output_inception_4c/output_0_split_3
I0403 18:03:03.347638 15980 net.cpp:141] Setting up inception_4c/output_inception_4c/output_0_split
I0403 18:03:03.347661 15980 net.cpp:148] Top shape: 24 512 14 14 (2408448)
I0403 18:03:03.347676 15980 net.cpp:148] Top shape: 24 512 14 14 (2408448)
I0403 18:03:03.347690 15980 net.cpp:148] Top shape: 24 512 14 14 (2408448)
I0403 18:03:03.347705 15980 net.cpp:148] Top shape: 24 512 14 14 (2408448)
I0403 18:03:03.347718 15980 net.cpp:156] Memory required for data: 1111182624
I0403 18:03:03.347733 15980 layer_factory.hpp:77] Creating layer inception_4d/1x1
I0403 18:03:03.347754 15980 net.cpp:91] Creating Layer inception_4d/1x1
I0403 18:03:03.347771 15980 net.cpp:425] inception_4d/1x1 <- inception_4c/output_inception_4c/output_0_split_0
I0403 18:03:03.347791 15980 net.cpp:399] inception_4d/1x1 -> inception_4d/1x1
I0403 18:03:03.349141 15980 net.cpp:141] Setting up inception_4d/1x1
I0403 18:03:03.349169 15980 net.cpp:148] Top shape: 24 112 14 14 (526848)
I0403 18:03:03.349184 15980 net.cpp:156] Memory required for data: 1113290016
I0403 18:03:03.349200 15980 layer_factory.hpp:77] Creating layer inception_4d/relu_1x1
I0403 18:03:03.349217 15980 net.cpp:91] Creating Layer inception_4d/relu_1x1
I0403 18:03:03.349233 15980 net.cpp:425] inception_4d/relu_1x1 <- inception_4d/1x1
I0403 18:03:03.349252 15980 net.cpp:386] inception_4d/relu_1x1 -> inception_4d/1x1 (in-place)
I0403 18:03:03.349429 15980 net.cpp:141] Setting up inception_4d/relu_1x1
I0403 18:03:03.349453 15980 net.cpp:148] Top shape: 24 112 14 14 (526848)
I0403 18:03:03.349467 15980 net.cpp:156] Memory required for data: 1115397408
I0403 18:03:03.349481 15980 layer_factory.hpp:77] Creating layer inception_4d/3x3_reduce
I0403 18:03:03.349517 15980 net.cpp:91] Creating Layer inception_4d/3x3_reduce
I0403 18:03:03.349534 15980 net.cpp:425] inception_4d/3x3_reduce <- inception_4c/output_inception_4c/output_0_split_1
I0403 18:03:03.349556 15980 net.cpp:399] inception_4d/3x3_reduce -> inception_4d/3x3_reduce
I0403 18:03:03.351024 15980 net.cpp:141] Setting up inception_4d/3x3_reduce
I0403 18:03:03.351053 15980 net.cpp:148] Top shape: 24 144 14 14 (677376)
I0403 18:03:03.351068 15980 net.cpp:156] Memory required for data: 1118106912
I0403 18:03:03.351086 15980 layer_factory.hpp:77] Creating layer inception_4d/relu_3x3_reduce
I0403 18:03:03.351104 15980 net.cpp:91] Creating Layer inception_4d/relu_3x3_reduce
I0403 18:03:03.351120 15980 net.cpp:425] inception_4d/relu_3x3_reduce <- inception_4d/3x3_reduce
I0403 18:03:03.351140 15980 net.cpp:386] inception_4d/relu_3x3_reduce -> inception_4d/3x3_reduce (in-place)
I0403 18:03:03.351416 15980 net.cpp:141] Setting up inception_4d/relu_3x3_reduce
I0403 18:03:03.351444 15980 net.cpp:148] Top shape: 24 144 14 14 (677376)
I0403 18:03:03.351459 15980 net.cpp:156] Memory required for data: 1120816416
I0403 18:03:03.351478 15980 layer_factory.hpp:77] Creating layer inception_4d/3x3
I0403 18:03:03.351500 15980 net.cpp:91] Creating Layer inception_4d/3x3
I0403 18:03:03.351517 15980 net.cpp:425] inception_4d/3x3 <- inception_4d/3x3_reduce
I0403 18:03:03.351536 15980 net.cpp:399] inception_4d/3x3 -> inception_4d/3x3
I0403 18:03:03.355666 15980 net.cpp:141] Setting up inception_4d/3x3
I0403 18:03:03.355695 15980 net.cpp:148] Top shape: 24 288 14 14 (1354752)
I0403 18:03:03.355710 15980 net.cpp:156] Memory required for data: 1126235424
I0403 18:03:03.355729 15980 layer_factory.hpp:77] Creating layer inception_4d/relu_3x3
I0403 18:03:03.355747 15980 net.cpp:91] Creating Layer inception_4d/relu_3x3
I0403 18:03:03.355767 15980 net.cpp:425] inception_4d/relu_3x3 <- inception_4d/3x3
I0403 18:03:03.355783 15980 net.cpp:386] inception_4d/relu_3x3 -> inception_4d/3x3 (in-place)
I0403 18:03:03.355959 15980 net.cpp:141] Setting up inception_4d/relu_3x3
I0403 18:03:03.355988 15980 net.cpp:148] Top shape: 24 288 14 14 (1354752)
I0403 18:03:03.356003 15980 net.cpp:156] Memory required for data: 1131654432
I0403 18:03:03.356017 15980 layer_factory.hpp:77] Creating layer inception_4d/5x5_reduce
I0403 18:03:03.356039 15980 net.cpp:91] Creating Layer inception_4d/5x5_reduce
I0403 18:03:03.356055 15980 net.cpp:425] inception_4d/5x5_reduce <- inception_4c/output_inception_4c/output_0_split_2
I0403 18:03:03.356076 15980 net.cpp:399] inception_4d/5x5_reduce -> inception_4d/5x5_reduce
I0403 18:03:03.357187 15980 net.cpp:141] Setting up inception_4d/5x5_reduce
I0403 18:03:03.357213 15980 net.cpp:148] Top shape: 24 32 14 14 (150528)
I0403 18:03:03.357228 15980 net.cpp:156] Memory required for data: 1132256544
I0403 18:03:03.357246 15980 layer_factory.hpp:77] Creating layer inception_4d/relu_5x5_reduce
I0403 18:03:03.357264 15980 net.cpp:91] Creating Layer inception_4d/relu_5x5_reduce
I0403 18:03:03.357280 15980 net.cpp:425] inception_4d/relu_5x5_reduce <- inception_4d/5x5_reduce
I0403 18:03:03.357298 15980 net.cpp:386] inception_4d/relu_5x5_reduce -> inception_4d/5x5_reduce (in-place)
I0403 18:03:03.357480 15980 net.cpp:141] Setting up inception_4d/relu_5x5_reduce
I0403 18:03:03.357502 15980 net.cpp:148] Top shape: 24 32 14 14 (150528)
I0403 18:03:03.357517 15980 net.cpp:156] Memory required for data: 1132858656
I0403 18:03:03.357530 15980 layer_factory.hpp:77] Creating layer inception_4d/5x5
I0403 18:03:03.357553 15980 net.cpp:91] Creating Layer inception_4d/5x5
I0403 18:03:03.357569 15980 net.cpp:425] inception_4d/5x5 <- inception_4d/5x5_reduce
I0403 18:03:03.357589 15980 net.cpp:399] inception_4d/5x5 -> inception_4d/5x5
I0403 18:03:03.359041 15980 net.cpp:141] Setting up inception_4d/5x5
I0403 18:03:03.359068 15980 net.cpp:148] Top shape: 24 64 14 14 (301056)
I0403 18:03:03.359083 15980 net.cpp:156] Memory required for data: 1134062880
I0403 18:03:03.359102 15980 layer_factory.hpp:77] Creating layer inception_4d/relu_5x5
I0403 18:03:03.359135 15980 net.cpp:91] Creating Layer inception_4d/relu_5x5
I0403 18:03:03.359153 15980 net.cpp:425] inception_4d/relu_5x5 <- inception_4d/5x5
I0403 18:03:03.359169 15980 net.cpp:386] inception_4d/relu_5x5 -> inception_4d/5x5 (in-place)
I0403 18:03:03.359464 15980 net.cpp:141] Setting up inception_4d/relu_5x5
I0403 18:03:03.359490 15980 net.cpp:148] Top shape: 24 64 14 14 (301056)
I0403 18:03:03.359504 15980 net.cpp:156] Memory required for data: 1135267104
I0403 18:03:03.359519 15980 layer_factory.hpp:77] Creating layer inception_4d/pool
I0403 18:03:03.359539 15980 net.cpp:91] Creating Layer inception_4d/pool
I0403 18:03:03.359555 15980 net.cpp:425] inception_4d/pool <- inception_4c/output_inception_4c/output_0_split_3
I0403 18:03:03.359571 15980 net.cpp:399] inception_4d/pool -> inception_4d/pool
I0403 18:03:03.359638 15980 net.cpp:141] Setting up inception_4d/pool
I0403 18:03:03.359661 15980 net.cpp:148] Top shape: 24 512 14 14 (2408448)
I0403 18:03:03.359675 15980 net.cpp:156] Memory required for data: 1144900896
I0403 18:03:03.359689 15980 layer_factory.hpp:77] Creating layer inception_4d/pool_proj
I0403 18:03:03.359710 15980 net.cpp:91] Creating Layer inception_4d/pool_proj
I0403 18:03:03.359727 15980 net.cpp:425] inception_4d/pool_proj <- inception_4d/pool
I0403 18:03:03.359748 15980 net.cpp:399] inception_4d/pool_proj -> inception_4d/pool_proj
I0403 18:03:03.361464 15980 net.cpp:141] Setting up inception_4d/pool_proj
I0403 18:03:03.361492 15980 net.cpp:148] Top shape: 24 64 14 14 (301056)
I0403 18:03:03.361508 15980 net.cpp:156] Memory required for data: 1146105120
I0403 18:03:03.361526 15980 layer_factory.hpp:77] Creating layer inception_4d/relu_pool_proj
I0403 18:03:03.361544 15980 net.cpp:91] Creating Layer inception_4d/relu_pool_proj
I0403 18:03:03.361563 15980 net.cpp:425] inception_4d/relu_pool_proj <- inception_4d/pool_proj
I0403 18:03:03.361580 15980 net.cpp:386] inception_4d/relu_pool_proj -> inception_4d/pool_proj (in-place)
I0403 18:03:03.361757 15980 net.cpp:141] Setting up inception_4d/relu_pool_proj
I0403 18:03:03.361780 15980 net.cpp:148] Top shape: 24 64 14 14 (301056)
I0403 18:03:03.361794 15980 net.cpp:156] Memory required for data: 1147309344
I0403 18:03:03.361809 15980 layer_factory.hpp:77] Creating layer inception_4d/output
I0403 18:03:03.361826 15980 net.cpp:91] Creating Layer inception_4d/output
I0403 18:03:03.361842 15980 net.cpp:425] inception_4d/output <- inception_4d/1x1
I0403 18:03:03.361860 15980 net.cpp:425] inception_4d/output <- inception_4d/3x3
I0403 18:03:03.361874 15980 net.cpp:425] inception_4d/output <- inception_4d/5x5
I0403 18:03:03.361889 15980 net.cpp:425] inception_4d/output <- inception_4d/pool_proj
I0403 18:03:03.361907 15980 net.cpp:399] inception_4d/output -> inception_4d/output
I0403 18:03:03.361956 15980 net.cpp:141] Setting up inception_4d/output
I0403 18:03:03.361984 15980 net.cpp:148] Top shape: 24 528 14 14 (2483712)
I0403 18:03:03.361999 15980 net.cpp:156] Memory required for data: 1157244192
I0403 18:03:03.362013 15980 layer_factory.hpp:77] Creating layer inception_4d/output_inception_4d/output_0_split
I0403 18:03:03.362030 15980 net.cpp:91] Creating Layer inception_4d/output_inception_4d/output_0_split
I0403 18:03:03.362046 15980 net.cpp:425] inception_4d/output_inception_4d/output_0_split <- inception_4d/output
I0403 18:03:03.362066 15980 net.cpp:399] inception_4d/output_inception_4d/output_0_split -> inception_4d/output_inception_4d/output_0_split_0
I0403 18:03:03.362087 15980 net.cpp:399] inception_4d/output_inception_4d/output_0_split -> inception_4d/output_inception_4d/output_0_split_1
I0403 18:03:03.362107 15980 net.cpp:399] inception_4d/output_inception_4d/output_0_split -> inception_4d/output_inception_4d/output_0_split_2
I0403 18:03:03.362128 15980 net.cpp:399] inception_4d/output_inception_4d/output_0_split -> inception_4d/output_inception_4d/output_0_split_3
I0403 18:03:03.362146 15980 net.cpp:399] inception_4d/output_inception_4d/output_0_split -> inception_4d/output_inception_4d/output_0_split_4
I0403 18:03:03.362249 15980 net.cpp:141] Setting up inception_4d/output_inception_4d/output_0_split
I0403 18:03:03.362283 15980 net.cpp:148] Top shape: 24 528 14 14 (2483712)
I0403 18:03:03.362300 15980 net.cpp:148] Top shape: 24 528 14 14 (2483712)
I0403 18:03:03.362315 15980 net.cpp:148] Top shape: 24 528 14 14 (2483712)
I0403 18:03:03.362329 15980 net.cpp:148] Top shape: 24 528 14 14 (2483712)
I0403 18:03:03.362344 15980 net.cpp:148] Top shape: 24 528 14 14 (2483712)
I0403 18:03:03.362357 15980 net.cpp:156] Memory required for data: 1206918432
I0403 18:03:03.362371 15980 layer_factory.hpp:77] Creating layer loss2/ave_pool
I0403 18:03:03.362388 15980 net.cpp:91] Creating Layer loss2/ave_pool
I0403 18:03:03.362404 15980 net.cpp:425] loss2/ave_pool <- inception_4d/output_inception_4d/output_0_split_0
I0403 18:03:03.362424 15980 net.cpp:399] loss2/ave_pool -> loss2/ave_pool
I0403 18:03:03.362735 15980 net.cpp:141] Setting up loss2/ave_pool
I0403 18:03:03.362761 15980 net.cpp:148] Top shape: 24 528 4 4 (202752)
I0403 18:03:03.362776 15980 net.cpp:156] Memory required for data: 1207729440
I0403 18:03:03.362790 15980 layer_factory.hpp:77] Creating layer loss2/conv
I0403 18:03:03.362812 15980 net.cpp:91] Creating Layer loss2/conv
I0403 18:03:03.362828 15980 net.cpp:425] loss2/conv <- loss2/ave_pool
I0403 18:03:03.362848 15980 net.cpp:399] loss2/conv -> loss2/conv
I0403 18:03:03.364678 15980 net.cpp:141] Setting up loss2/conv
I0403 18:03:03.364706 15980 net.cpp:148] Top shape: 24 128 4 4 (49152)
I0403 18:03:03.364720 15980 net.cpp:156] Memory required for data: 1207926048
I0403 18:03:03.364738 15980 layer_factory.hpp:77] Creating layer loss2/relu_conv
I0403 18:03:03.364758 15980 net.cpp:91] Creating Layer loss2/relu_conv
I0403 18:03:03.364775 15980 net.cpp:425] loss2/relu_conv <- loss2/conv
I0403 18:03:03.364792 15980 net.cpp:386] loss2/relu_conv -> loss2/conv (in-place)
I0403 18:03:03.365070 15980 net.cpp:141] Setting up loss2/relu_conv
I0403 18:03:03.365097 15980 net.cpp:148] Top shape: 24 128 4 4 (49152)
I0403 18:03:03.365110 15980 net.cpp:156] Memory required for data: 1208122656
I0403 18:03:03.365125 15980 layer_factory.hpp:77] Creating layer loss2/fc
I0403 18:03:03.365145 15980 net.cpp:91] Creating Layer loss2/fc
I0403 18:03:03.365161 15980 net.cpp:425] loss2/fc <- loss2/conv
I0403 18:03:03.365181 15980 net.cpp:399] loss2/fc -> loss2/fc
I0403 18:03:03.382347 15980 net.cpp:141] Setting up loss2/fc
I0403 18:03:03.382383 15980 net.cpp:148] Top shape: 24 1024 (24576)
I0403 18:03:03.382398 15980 net.cpp:156] Memory required for data: 1208220960
I0403 18:03:03.382417 15980 layer_factory.hpp:77] Creating layer loss2/relu_fc
I0403 18:03:03.382436 15980 net.cpp:91] Creating Layer loss2/relu_fc
I0403 18:03:03.382452 15980 net.cpp:425] loss2/relu_fc <- loss2/fc
I0403 18:03:03.382472 15980 net.cpp:386] loss2/relu_fc -> loss2/fc (in-place)
I0403 18:03:03.382767 15980 net.cpp:141] Setting up loss2/relu_fc
I0403 18:03:03.382792 15980 net.cpp:148] Top shape: 24 1024 (24576)
I0403 18:03:03.382807 15980 net.cpp:156] Memory required for data: 1208319264
I0403 18:03:03.382820 15980 layer_factory.hpp:77] Creating layer loss2/drop_fc
I0403 18:03:03.382838 15980 net.cpp:91] Creating Layer loss2/drop_fc
I0403 18:03:03.382853 15980 net.cpp:425] loss2/drop_fc <- loss2/fc
I0403 18:03:03.382872 15980 net.cpp:386] loss2/drop_fc -> loss2/fc (in-place)
I0403 18:03:03.382920 15980 net.cpp:141] Setting up loss2/drop_fc
I0403 18:03:03.382944 15980 net.cpp:148] Top shape: 24 1024 (24576)
I0403 18:03:03.382957 15980 net.cpp:156] Memory required for data: 1208417568
I0403 18:03:03.382972 15980 layer_factory.hpp:77] Creating layer loss2/classifier_plantvillage
I0403 18:03:03.382993 15980 net.cpp:91] Creating Layer loss2/classifier_plantvillage
I0403 18:03:03.383009 15980 net.cpp:425] loss2/classifier_plantvillage <- loss2/fc
I0403 18:03:03.383030 15980 net.cpp:399] loss2/classifier_plantvillage -> loss2/classifier_plantvillage
I0403 18:03:03.383424 15980 net.cpp:141] Setting up loss2/classifier_plantvillage
I0403 18:03:03.383448 15980 net.cpp:148] Top shape: 24 38 (912)
I0403 18:03:03.383477 15980 net.cpp:156] Memory required for data: 1208421216
I0403 18:03:03.383496 15980 layer_factory.hpp:77] Creating layer loss2/classifier_plantvillage_loss2/classifier_plantvillage_0_split
I0403 18:03:03.383515 15980 net.cpp:91] Creating Layer loss2/classifier_plantvillage_loss2/classifier_plantvillage_0_split
I0403 18:03:03.383532 15980 net.cpp:425] loss2/classifier_plantvillage_loss2/classifier_plantvillage_0_split <- loss2/classifier_plantvillage
I0403 18:03:03.383548 15980 net.cpp:399] loss2/classifier_plantvillage_loss2/classifier_plantvillage_0_split -> loss2/classifier_plantvillage_loss2/classifier_plantvillage_0_split_0
I0403 18:03:03.383571 15980 net.cpp:399] loss2/classifier_plantvillage_loss2/classifier_plantvillage_0_split -> loss2/classifier_plantvillage_loss2/classifier_plantvillage_0_split_1
I0403 18:03:03.383591 15980 net.cpp:399] loss2/classifier_plantvillage_loss2/classifier_plantvillage_0_split -> loss2/classifier_plantvillage_loss2/classifier_plantvillage_0_split_2
I0403 18:03:03.383666 15980 net.cpp:141] Setting up loss2/classifier_plantvillage_loss2/classifier_plantvillage_0_split
I0403 18:03:03.383688 15980 net.cpp:148] Top shape: 24 38 (912)
I0403 18:03:03.383703 15980 net.cpp:148] Top shape: 24 38 (912)
I0403 18:03:03.383718 15980 net.cpp:148] Top shape: 24 38 (912)
I0403 18:03:03.383731 15980 net.cpp:156] Memory required for data: 1208432160
I0403 18:03:03.383745 15980 layer_factory.hpp:77] Creating layer inception_4e/1x1
I0403 18:03:03.383767 15980 net.cpp:91] Creating Layer inception_4e/1x1
I0403 18:03:03.383785 15980 net.cpp:425] inception_4e/1x1 <- inception_4d/output_inception_4d/output_0_split_1
I0403 18:03:03.383802 15980 net.cpp:399] inception_4e/1x1 -> inception_4e/1x1
I0403 18:03:03.385557 15980 net.cpp:141] Setting up inception_4e/1x1
I0403 18:03:03.385587 15980 net.cpp:148] Top shape: 24 256 14 14 (1204224)
I0403 18:03:03.385602 15980 net.cpp:156] Memory required for data: 1213249056
I0403 18:03:03.385620 15980 layer_factory.hpp:77] Creating layer inception_4e/relu_1x1
I0403 18:03:03.385638 15980 net.cpp:91] Creating Layer inception_4e/relu_1x1
I0403 18:03:03.385653 15980 net.cpp:425] inception_4e/relu_1x1 <- inception_4e/1x1
I0403 18:03:03.385669 15980 net.cpp:386] inception_4e/relu_1x1 -> inception_4e/1x1 (in-place)
I0403 18:03:03.385957 15980 net.cpp:141] Setting up inception_4e/relu_1x1
I0403 18:03:03.385987 15980 net.cpp:148] Top shape: 24 256 14 14 (1204224)
I0403 18:03:03.386004 15980 net.cpp:156] Memory required for data: 1218065952
I0403 18:03:03.386018 15980 layer_factory.hpp:77] Creating layer inception_4e/3x3_reduce
I0403 18:03:03.386037 15980 net.cpp:91] Creating Layer inception_4e/3x3_reduce
I0403 18:03:03.386054 15980 net.cpp:425] inception_4e/3x3_reduce <- inception_4d/output_inception_4d/output_0_split_2
I0403 18:03:03.386075 15980 net.cpp:399] inception_4e/3x3_reduce -> inception_4e/3x3_reduce
I0403 18:03:03.388141 15980 net.cpp:141] Setting up inception_4e/3x3_reduce
I0403 18:03:03.388170 15980 net.cpp:148] Top shape: 24 160 14 14 (752640)
I0403 18:03:03.388185 15980 net.cpp:156] Memory required for data: 1221076512
I0403 18:03:03.388203 15980 layer_factory.hpp:77] Creating layer inception_4e/relu_3x3_reduce
I0403 18:03:03.388222 15980 net.cpp:91] Creating Layer inception_4e/relu_3x3_reduce
I0403 18:03:03.388239 15980 net.cpp:425] inception_4e/relu_3x3_reduce <- inception_4e/3x3_reduce
I0403 18:03:03.388257 15980 net.cpp:386] inception_4e/relu_3x3_reduce -> inception_4e/3x3_reduce (in-place)
I0403 18:03:03.388435 15980 net.cpp:141] Setting up inception_4e/relu_3x3_reduce
I0403 18:03:03.388461 15980 net.cpp:148] Top shape: 24 160 14 14 (752640)
I0403 18:03:03.388476 15980 net.cpp:156] Memory required for data: 1224087072
I0403 18:03:03.388490 15980 layer_factory.hpp:77] Creating layer inception_4e/3x3
I0403 18:03:03.388511 15980 net.cpp:91] Creating Layer inception_4e/3x3
I0403 18:03:03.388528 15980 net.cpp:425] inception_4e/3x3 <- inception_4e/3x3_reduce
I0403 18:03:03.388546 15980 net.cpp:399] inception_4e/3x3 -> inception_4e/3x3
I0403 18:03:03.393385 15980 net.cpp:141] Setting up inception_4e/3x3
I0403 18:03:03.393426 15980 net.cpp:148] Top shape: 24 320 14 14 (1505280)
I0403 18:03:03.393443 15980 net.cpp:156] Memory required for data: 1230108192
I0403 18:03:03.393461 15980 layer_factory.hpp:77] Creating layer inception_4e/relu_3x3
I0403 18:03:03.393479 15980 net.cpp:91] Creating Layer inception_4e/relu_3x3
I0403 18:03:03.393494 15980 net.cpp:425] inception_4e/relu_3x3 <- inception_4e/3x3
I0403 18:03:03.393512 15980 net.cpp:386] inception_4e/relu_3x3 -> inception_4e/3x3 (in-place)
I0403 18:03:03.393805 15980 net.cpp:141] Setting up inception_4e/relu_3x3
I0403 18:03:03.393831 15980 net.cpp:148] Top shape: 24 320 14 14 (1505280)
I0403 18:03:03.393844 15980 net.cpp:156] Memory required for data: 1236129312
I0403 18:03:03.393858 15980 layer_factory.hpp:77] Creating layer inception_4e/5x5_reduce
I0403 18:03:03.393882 15980 net.cpp:91] Creating Layer inception_4e/5x5_reduce
I0403 18:03:03.393899 15980 net.cpp:425] inception_4e/5x5_reduce <- inception_4d/output_inception_4d/output_0_split_3
I0403 18:03:03.393920 15980 net.cpp:399] inception_4e/5x5_reduce -> inception_4e/5x5_reduce
I0403 18:03:03.394966 15980 net.cpp:141] Setting up inception_4e/5x5_reduce
I0403 18:03:03.394996 15980 net.cpp:148] Top shape: 24 32 14 14 (150528)
I0403 18:03:03.395012 15980 net.cpp:156] Memory required for data: 1236731424
I0403 18:03:03.395030 15980 layer_factory.hpp:77] Creating layer inception_4e/relu_5x5_reduce
I0403 18:03:03.395050 15980 net.cpp:91] Creating Layer inception_4e/relu_5x5_reduce
I0403 18:03:03.395066 15980 net.cpp:425] inception_4e/relu_5x5_reduce <- inception_4e/5x5_reduce
I0403 18:03:03.395081 15980 net.cpp:386] inception_4e/relu_5x5_reduce -> inception_4e/5x5_reduce (in-place)
I0403 18:03:03.395367 15980 net.cpp:141] Setting up inception_4e/relu_5x5_reduce
I0403 18:03:03.395392 15980 net.cpp:148] Top shape: 24 32 14 14 (150528)
I0403 18:03:03.395407 15980 net.cpp:156] Memory required for data: 1237333536
I0403 18:03:03.395421 15980 layer_factory.hpp:77] Creating layer inception_4e/5x5
I0403 18:03:03.395458 15980 net.cpp:91] Creating Layer inception_4e/5x5
I0403 18:03:03.395478 15980 net.cpp:425] inception_4e/5x5 <- inception_4e/5x5_reduce
I0403 18:03:03.395498 15980 net.cpp:399] inception_4e/5x5 -> inception_4e/5x5
I0403 18:03:03.397289 15980 net.cpp:141] Setting up inception_4e/5x5
I0403 18:03:03.397316 15980 net.cpp:148] Top shape: 24 128 14 14 (602112)
I0403 18:03:03.397331 15980 net.cpp:156] Memory required for data: 1239741984
I0403 18:03:03.397349 15980 layer_factory.hpp:77] Creating layer inception_4e/relu_5x5
I0403 18:03:03.397368 15980 net.cpp:91] Creating Layer inception_4e/relu_5x5
I0403 18:03:03.397384 15980 net.cpp:425] inception_4e/relu_5x5 <- inception_4e/5x5
I0403 18:03:03.397400 15980 net.cpp:386] inception_4e/relu_5x5 -> inception_4e/5x5 (in-place)
I0403 18:03:03.397588 15980 net.cpp:141] Setting up inception_4e/relu_5x5
I0403 18:03:03.397611 15980 net.cpp:148] Top shape: 24 128 14 14 (602112)
I0403 18:03:03.397624 15980 net.cpp:156] Memory required for data: 1242150432
I0403 18:03:03.397639 15980 layer_factory.hpp:77] Creating layer inception_4e/pool
I0403 18:03:03.397657 15980 net.cpp:91] Creating Layer inception_4e/pool
I0403 18:03:03.397675 15980 net.cpp:425] inception_4e/pool <- inception_4d/output_inception_4d/output_0_split_4
I0403 18:03:03.397691 15980 net.cpp:399] inception_4e/pool -> inception_4e/pool
I0403 18:03:03.397760 15980 net.cpp:141] Setting up inception_4e/pool
I0403 18:03:03.397783 15980 net.cpp:148] Top shape: 24 528 14 14 (2483712)
I0403 18:03:03.397797 15980 net.cpp:156] Memory required for data: 1252085280
I0403 18:03:03.397811 15980 layer_factory.hpp:77] Creating layer inception_4e/pool_proj
I0403 18:03:03.397832 15980 net.cpp:91] Creating Layer inception_4e/pool_proj
I0403 18:03:03.397848 15980 net.cpp:425] inception_4e/pool_proj <- inception_4e/pool
I0403 18:03:03.397868 15980 net.cpp:399] inception_4e/pool_proj -> inception_4e/pool_proj
I0403 18:03:03.399365 15980 net.cpp:141] Setting up inception_4e/pool_proj
I0403 18:03:03.399404 15980 net.cpp:148] Top shape: 24 128 14 14 (602112)
I0403 18:03:03.399420 15980 net.cpp:156] Memory required for data: 1254493728
I0403 18:03:03.399437 15980 layer_factory.hpp:77] Creating layer inception_4e/relu_pool_proj
I0403 18:03:03.399457 15980 net.cpp:91] Creating Layer inception_4e/relu_pool_proj
I0403 18:03:03.399474 15980 net.cpp:425] inception_4e/relu_pool_proj <- inception_4e/pool_proj
I0403 18:03:03.399490 15980 net.cpp:386] inception_4e/relu_pool_proj -> inception_4e/pool_proj (in-place)
I0403 18:03:03.399770 15980 net.cpp:141] Setting up inception_4e/relu_pool_proj
I0403 18:03:03.399796 15980 net.cpp:148] Top shape: 24 128 14 14 (602112)
I0403 18:03:03.399811 15980 net.cpp:156] Memory required for data: 1256902176
I0403 18:03:03.399826 15980 layer_factory.hpp:77] Creating layer inception_4e/output
I0403 18:03:03.399842 15980 net.cpp:91] Creating Layer inception_4e/output
I0403 18:03:03.399857 15980 net.cpp:425] inception_4e/output <- inception_4e/1x1
I0403 18:03:03.399873 15980 net.cpp:425] inception_4e/output <- inception_4e/3x3
I0403 18:03:03.399889 15980 net.cpp:425] inception_4e/output <- inception_4e/5x5
I0403 18:03:03.399904 15980 net.cpp:425] inception_4e/output <- inception_4e/pool_proj
I0403 18:03:03.399924 15980 net.cpp:399] inception_4e/output -> inception_4e/output
I0403 18:03:03.399972 15980 net.cpp:141] Setting up inception_4e/output
I0403 18:03:03.400002 15980 net.cpp:148] Top shape: 24 832 14 14 (3913728)
I0403 18:03:03.400017 15980 net.cpp:156] Memory required for data: 1272557088
I0403 18:03:03.400032 15980 layer_factory.hpp:77] Creating layer pool4/3x3_s2
I0403 18:03:03.400048 15980 net.cpp:91] Creating Layer pool4/3x3_s2
I0403 18:03:03.400063 15980 net.cpp:425] pool4/3x3_s2 <- inception_4e/output
I0403 18:03:03.400085 15980 net.cpp:399] pool4/3x3_s2 -> pool4/3x3_s2
I0403 18:03:03.400151 15980 net.cpp:141] Setting up pool4/3x3_s2
I0403 18:03:03.400173 15980 net.cpp:148] Top shape: 24 832 7 7 (978432)
I0403 18:03:03.400187 15980 net.cpp:156] Memory required for data: 1276470816
I0403 18:03:03.400200 15980 layer_factory.hpp:77] Creating layer pool4/3x3_s2_pool4/3x3_s2_0_split
I0403 18:03:03.400218 15980 net.cpp:91] Creating Layer pool4/3x3_s2_pool4/3x3_s2_0_split
I0403 18:03:03.400234 15980 net.cpp:425] pool4/3x3_s2_pool4/3x3_s2_0_split <- pool4/3x3_s2
I0403 18:03:03.400251 15980 net.cpp:399] pool4/3x3_s2_pool4/3x3_s2_0_split -> pool4/3x3_s2_pool4/3x3_s2_0_split_0
I0403 18:03:03.400270 15980 net.cpp:399] pool4/3x3_s2_pool4/3x3_s2_0_split -> pool4/3x3_s2_pool4/3x3_s2_0_split_1
I0403 18:03:03.400290 15980 net.cpp:399] pool4/3x3_s2_pool4/3x3_s2_0_split -> pool4/3x3_s2_pool4/3x3_s2_0_split_2
I0403 18:03:03.400311 15980 net.cpp:399] pool4/3x3_s2_pool4/3x3_s2_0_split -> pool4/3x3_s2_pool4/3x3_s2_0_split_3
I0403 18:03:03.400401 15980 net.cpp:141] Setting up pool4/3x3_s2_pool4/3x3_s2_0_split
I0403 18:03:03.400424 15980 net.cpp:148] Top shape: 24 832 7 7 (978432)
I0403 18:03:03.400439 15980 net.cpp:148] Top shape: 24 832 7 7 (978432)
I0403 18:03:03.400454 15980 net.cpp:148] Top shape: 24 832 7 7 (978432)
I0403 18:03:03.400470 15980 net.cpp:148] Top shape: 24 832 7 7 (978432)
I0403 18:03:03.400482 15980 net.cpp:156] Memory required for data: 1292125728
I0403 18:03:03.400496 15980 layer_factory.hpp:77] Creating layer inception_5a/1x1
I0403 18:03:03.400517 15980 net.cpp:91] Creating Layer inception_5a/1x1
I0403 18:03:03.400534 15980 net.cpp:425] inception_5a/1x1 <- pool4/3x3_s2_pool4/3x3_s2_0_split_0
I0403 18:03:03.400555 15980 net.cpp:399] inception_5a/1x1 -> inception_5a/1x1
I0403 18:03:03.403321 15980 net.cpp:141] Setting up inception_5a/1x1
I0403 18:03:03.403349 15980 net.cpp:148] Top shape: 24 256 7 7 (301056)
I0403 18:03:03.403364 15980 net.cpp:156] Memory required for data: 1293329952
I0403 18:03:03.403381 15980 layer_factory.hpp:77] Creating layer inception_5a/relu_1x1
I0403 18:03:03.403401 15980 net.cpp:91] Creating Layer inception_5a/relu_1x1
I0403 18:03:03.403417 15980 net.cpp:425] inception_5a/relu_1x1 <- inception_5a/1x1
I0403 18:03:03.403435 15980 net.cpp:386] inception_5a/relu_1x1 -> inception_5a/1x1 (in-place)
I0403 18:03:03.403743 15980 net.cpp:141] Setting up inception_5a/relu_1x1
I0403 18:03:03.403769 15980 net.cpp:148] Top shape: 24 256 7 7 (301056)
I0403 18:03:03.403782 15980 net.cpp:156] Memory required for data: 1294534176
I0403 18:03:03.403796 15980 layer_factory.hpp:77] Creating layer inception_5a/3x3_reduce
I0403 18:03:03.403818 15980 net.cpp:91] Creating Layer inception_5a/3x3_reduce
I0403 18:03:03.403836 15980 net.cpp:425] inception_5a/3x3_reduce <- pool4/3x3_s2_pool4/3x3_s2_0_split_1
I0403 18:03:03.403856 15980 net.cpp:399] inception_5a/3x3_reduce -> inception_5a/3x3_reduce
I0403 18:03:03.406254 15980 net.cpp:141] Setting up inception_5a/3x3_reduce
I0403 18:03:03.406283 15980 net.cpp:148] Top shape: 24 160 7 7 (188160)
I0403 18:03:03.406299 15980 net.cpp:156] Memory required for data: 1295286816
I0403 18:03:03.406317 15980 layer_factory.hpp:77] Creating layer inception_5a/relu_3x3_reduce
I0403 18:03:03.406334 15980 net.cpp:91] Creating Layer inception_5a/relu_3x3_reduce
I0403 18:03:03.406350 15980 net.cpp:425] inception_5a/relu_3x3_reduce <- inception_5a/3x3_reduce
I0403 18:03:03.406369 15980 net.cpp:386] inception_5a/relu_3x3_reduce -> inception_5a/3x3_reduce (in-place)
I0403 18:03:03.406549 15980 net.cpp:141] Setting up inception_5a/relu_3x3_reduce
I0403 18:03:03.406574 15980 net.cpp:148] Top shape: 24 160 7 7 (188160)
I0403 18:03:03.406587 15980 net.cpp:156] Memory required for data: 1296039456
I0403 18:03:03.406601 15980 layer_factory.hpp:77] Creating layer inception_5a/3x3
I0403 18:03:03.406622 15980 net.cpp:91] Creating Layer inception_5a/3x3
I0403 18:03:03.406640 15980 net.cpp:425] inception_5a/3x3 <- inception_5a/3x3_reduce
I0403 18:03:03.406661 15980 net.cpp:399] inception_5a/3x3 -> inception_5a/3x3
I0403 18:03:03.411592 15980 net.cpp:141] Setting up inception_5a/3x3
I0403 18:03:03.411620 15980 net.cpp:148] Top shape: 24 320 7 7 (376320)
I0403 18:03:03.411636 15980 net.cpp:156] Memory required for data: 1297544736
I0403 18:03:03.411655 15980 layer_factory.hpp:77] Creating layer inception_5a/relu_3x3
I0403 18:03:03.411675 15980 net.cpp:91] Creating Layer inception_5a/relu_3x3
I0403 18:03:03.411694 15980 net.cpp:425] inception_5a/relu_3x3 <- inception_5a/3x3
I0403 18:03:03.411710 15980 net.cpp:386] inception_5a/relu_3x3 -> inception_5a/3x3 (in-place)
I0403 18:03:03.412003 15980 net.cpp:141] Setting up inception_5a/relu_3x3
I0403 18:03:03.412029 15980 net.cpp:148] Top shape: 24 320 7 7 (376320)
I0403 18:03:03.412042 15980 net.cpp:156] Memory required for data: 1299050016
I0403 18:03:03.412056 15980 layer_factory.hpp:77] Creating layer inception_5a/5x5_reduce
I0403 18:03:03.412078 15980 net.cpp:91] Creating Layer inception_5a/5x5_reduce
I0403 18:03:03.412096 15980 net.cpp:425] inception_5a/5x5_reduce <- pool4/3x3_s2_pool4/3x3_s2_0_split_2
I0403 18:03:03.412117 15980 net.cpp:399] inception_5a/5x5_reduce -> inception_5a/5x5_reduce
I0403 18:03:03.413250 15980 net.cpp:141] Setting up inception_5a/5x5_reduce
I0403 18:03:03.413278 15980 net.cpp:148] Top shape: 24 32 7 7 (37632)
I0403 18:03:03.413293 15980 net.cpp:156] Memory required for data: 1299200544
I0403 18:03:03.413311 15980 layer_factory.hpp:77] Creating layer inception_5a/relu_5x5_reduce
I0403 18:03:03.413329 15980 net.cpp:91] Creating Layer inception_5a/relu_5x5_reduce
I0403 18:03:03.413347 15980 net.cpp:425] inception_5a/relu_5x5_reduce <- inception_5a/5x5_reduce
I0403 18:03:03.413363 15980 net.cpp:386] inception_5a/relu_5x5_reduce -> inception_5a/5x5_reduce (in-place)
I0403 18:03:03.413651 15980 net.cpp:141] Setting up inception_5a/relu_5x5_reduce
I0403 18:03:03.413676 15980 net.cpp:148] Top shape: 24 32 7 7 (37632)
I0403 18:03:03.413691 15980 net.cpp:156] Memory required for data: 1299351072
I0403 18:03:03.413705 15980 layer_factory.hpp:77] Creating layer inception_5a/5x5
I0403 18:03:03.413729 15980 net.cpp:91] Creating Layer inception_5a/5x5
I0403 18:03:03.413748 15980 net.cpp:425] inception_5a/5x5 <- inception_5a/5x5_reduce
I0403 18:03:03.413765 15980 net.cpp:399] inception_5a/5x5 -> inception_5a/5x5
I0403 18:03:03.415444 15980 net.cpp:141] Setting up inception_5a/5x5
I0403 18:03:03.415487 15980 net.cpp:148] Top shape: 24 128 7 7 (150528)
I0403 18:03:03.415503 15980 net.cpp:156] Memory required for data: 1299953184
I0403 18:03:03.415519 15980 layer_factory.hpp:77] Creating layer inception_5a/relu_5x5
I0403 18:03:03.415539 15980 net.cpp:91] Creating Layer inception_5a/relu_5x5
I0403 18:03:03.415556 15980 net.cpp:425] inception_5a/relu_5x5 <- inception_5a/5x5
I0403 18:03:03.415573 15980 net.cpp:386] inception_5a/relu_5x5 -> inception_5a/5x5 (in-place)
I0403 18:03:03.415757 15980 net.cpp:141] Setting up inception_5a/relu_5x5
I0403 18:03:03.415781 15980 net.cpp:148] Top shape: 24 128 7 7 (150528)
I0403 18:03:03.415794 15980 net.cpp:156] Memory required for data: 1300555296
I0403 18:03:03.415808 15980 layer_factory.hpp:77] Creating layer inception_5a/pool
I0403 18:03:03.415827 15980 net.cpp:91] Creating Layer inception_5a/pool
I0403 18:03:03.415844 15980 net.cpp:425] inception_5a/pool <- pool4/3x3_s2_pool4/3x3_s2_0_split_3
I0403 18:03:03.415861 15980 net.cpp:399] inception_5a/pool -> inception_5a/pool
I0403 18:03:03.415932 15980 net.cpp:141] Setting up inception_5a/pool
I0403 18:03:03.415956 15980 net.cpp:148] Top shape: 24 832 7 7 (978432)
I0403 18:03:03.415969 15980 net.cpp:156] Memory required for data: 1304469024
I0403 18:03:03.415999 15980 layer_factory.hpp:77] Creating layer inception_5a/pool_proj
I0403 18:03:03.416023 15980 net.cpp:91] Creating Layer inception_5a/pool_proj
I0403 18:03:03.416043 15980 net.cpp:425] inception_5a/pool_proj <- inception_5a/pool
I0403 18:03:03.416069 15980 net.cpp:399] inception_5a/pool_proj -> inception_5a/pool_proj
I0403 18:03:03.418475 15980 net.cpp:141] Setting up inception_5a/pool_proj
I0403 18:03:03.418504 15980 net.cpp:148] Top shape: 24 128 7 7 (150528)
I0403 18:03:03.418519 15980 net.cpp:156] Memory required for data: 1305071136
I0403 18:03:03.418537 15980 layer_factory.hpp:77] Creating layer inception_5a/relu_pool_proj
I0403 18:03:03.418555 15980 net.cpp:91] Creating Layer inception_5a/relu_pool_proj
I0403 18:03:03.418570 15980 net.cpp:425] inception_5a/relu_pool_proj <- inception_5a/pool_proj
I0403 18:03:03.418589 15980 net.cpp:386] inception_5a/relu_pool_proj -> inception_5a/pool_proj (in-place)
I0403 18:03:03.418884 15980 net.cpp:141] Setting up inception_5a/relu_pool_proj
I0403 18:03:03.418910 15980 net.cpp:148] Top shape: 24 128 7 7 (150528)
I0403 18:03:03.418926 15980 net.cpp:156] Memory required for data: 1305673248
I0403 18:03:03.418941 15980 layer_factory.hpp:77] Creating layer inception_5a/output
I0403 18:03:03.418956 15980 net.cpp:91] Creating Layer inception_5a/output
I0403 18:03:03.418972 15980 net.cpp:425] inception_5a/output <- inception_5a/1x1
I0403 18:03:03.418992 15980 net.cpp:425] inception_5a/output <- inception_5a/3x3
I0403 18:03:03.419009 15980 net.cpp:425] inception_5a/output <- inception_5a/5x5
I0403 18:03:03.419025 15980 net.cpp:425] inception_5a/output <- inception_5a/pool_proj
I0403 18:03:03.419044 15980 net.cpp:399] inception_5a/output -> inception_5a/output
I0403 18:03:03.419092 15980 net.cpp:141] Setting up inception_5a/output
I0403 18:03:03.419118 15980 net.cpp:148] Top shape: 24 832 7 7 (978432)
I0403 18:03:03.419133 15980 net.cpp:156] Memory required for data: 1309586976
I0403 18:03:03.419147 15980 layer_factory.hpp:77] Creating layer inception_5a/output_inception_5a/output_0_split
I0403 18:03:03.419164 15980 net.cpp:91] Creating Layer inception_5a/output_inception_5a/output_0_split
I0403 18:03:03.419180 15980 net.cpp:425] inception_5a/output_inception_5a/output_0_split <- inception_5a/output
I0403 18:03:03.419198 15980 net.cpp:399] inception_5a/output_inception_5a/output_0_split -> inception_5a/output_inception_5a/output_0_split_0
I0403 18:03:03.419217 15980 net.cpp:399] inception_5a/output_inception_5a/output_0_split -> inception_5a/output_inception_5a/output_0_split_1
I0403 18:03:03.419237 15980 net.cpp:399] inception_5a/output_inception_5a/output_0_split -> inception_5a/output_inception_5a/output_0_split_2
I0403 18:03:03.419257 15980 net.cpp:399] inception_5a/output_inception_5a/output_0_split -> inception_5a/output_inception_5a/output_0_split_3
I0403 18:03:03.419366 15980 net.cpp:141] Setting up inception_5a/output_inception_5a/output_0_split
I0403 18:03:03.419389 15980 net.cpp:148] Top shape: 24 832 7 7 (978432)
I0403 18:03:03.419405 15980 net.cpp:148] Top shape: 24 832 7 7 (978432)
I0403 18:03:03.419420 15980 net.cpp:148] Top shape: 24 832 7 7 (978432)
I0403 18:03:03.419435 15980 net.cpp:148] Top shape: 24 832 7 7 (978432)
I0403 18:03:03.419447 15980 net.cpp:156] Memory required for data: 1325241888
I0403 18:03:03.419461 15980 layer_factory.hpp:77] Creating layer inception_5b/1x1
I0403 18:03:03.419484 15980 net.cpp:91] Creating Layer inception_5b/1x1
I0403 18:03:03.419502 15980 net.cpp:425] inception_5b/1x1 <- inception_5a/output_inception_5a/output_0_split_0
I0403 18:03:03.419519 15980 net.cpp:399] inception_5b/1x1 -> inception_5b/1x1
I0403 18:03:03.423172 15980 net.cpp:141] Setting up inception_5b/1x1
I0403 18:03:03.423203 15980 net.cpp:148] Top shape: 24 384 7 7 (451584)
I0403 18:03:03.423219 15980 net.cpp:156] Memory required for data: 1327048224
I0403 18:03:03.423238 15980 layer_factory.hpp:77] Creating layer inception_5b/relu_1x1
I0403 18:03:03.423255 15980 net.cpp:91] Creating Layer inception_5b/relu_1x1
I0403 18:03:03.423271 15980 net.cpp:425] inception_5b/relu_1x1 <- inception_5b/1x1
I0403 18:03:03.423290 15980 net.cpp:386] inception_5b/relu_1x1 -> inception_5b/1x1 (in-place)
I0403 18:03:03.423584 15980 net.cpp:141] Setting up inception_5b/relu_1x1
I0403 18:03:03.423611 15980 net.cpp:148] Top shape: 24 384 7 7 (451584)
I0403 18:03:03.423626 15980 net.cpp:156] Memory required for data: 1328854560
I0403 18:03:03.423641 15980 layer_factory.hpp:77] Creating layer inception_5b/3x3_reduce
I0403 18:03:03.423663 15980 net.cpp:91] Creating Layer inception_5b/3x3_reduce
I0403 18:03:03.423681 15980 net.cpp:425] inception_5b/3x3_reduce <- inception_5a/output_inception_5a/output_0_split_1
I0403 18:03:03.423703 15980 net.cpp:399] inception_5b/3x3_reduce -> inception_5b/3x3_reduce
I0403 18:03:03.426282 15980 net.cpp:141] Setting up inception_5b/3x3_reduce
I0403 18:03:03.426311 15980 net.cpp:148] Top shape: 24 192 7 7 (225792)
I0403 18:03:03.426326 15980 net.cpp:156] Memory required for data: 1329757728
I0403 18:03:03.426344 15980 layer_factory.hpp:77] Creating layer inception_5b/relu_3x3_reduce
I0403 18:03:03.426362 15980 net.cpp:91] Creating Layer inception_5b/relu_3x3_reduce
I0403 18:03:03.426378 15980 net.cpp:425] inception_5b/relu_3x3_reduce <- inception_5b/3x3_reduce
I0403 18:03:03.426396 15980 net.cpp:386] inception_5b/relu_3x3_reduce -> inception_5b/3x3_reduce (in-place)
I0403 18:03:03.426586 15980 net.cpp:141] Setting up inception_5b/relu_3x3_reduce
I0403 18:03:03.426610 15980 net.cpp:148] Top shape: 24 192 7 7 (225792)
I0403 18:03:03.426625 15980 net.cpp:156] Memory required for data: 1330660896
I0403 18:03:03.426640 15980 layer_factory.hpp:77] Creating layer inception_5b/3x3
I0403 18:03:03.426661 15980 net.cpp:91] Creating Layer inception_5b/3x3
I0403 18:03:03.426677 15980 net.cpp:425] inception_5b/3x3 <- inception_5b/3x3_reduce
I0403 18:03:03.426697 15980 net.cpp:399] inception_5b/3x3 -> inception_5b/3x3
I0403 18:03:03.433235 15980 net.cpp:141] Setting up inception_5b/3x3
I0403 18:03:03.433266 15980 net.cpp:148] Top shape: 24 384 7 7 (451584)
I0403 18:03:03.433284 15980 net.cpp:156] Memory required for data: 1332467232
I0403 18:03:03.433301 15980 layer_factory.hpp:77] Creating layer inception_5b/relu_3x3
I0403 18:03:03.433320 15980 net.cpp:91] Creating Layer inception_5b/relu_3x3
I0403 18:03:03.433336 15980 net.cpp:425] inception_5b/relu_3x3 <- inception_5b/3x3
I0403 18:03:03.433354 15980 net.cpp:386] inception_5b/relu_3x3 -> inception_5b/3x3 (in-place)
I0403 18:03:03.433656 15980 net.cpp:141] Setting up inception_5b/relu_3x3
I0403 18:03:03.433681 15980 net.cpp:148] Top shape: 24 384 7 7 (451584)
I0403 18:03:03.433696 15980 net.cpp:156] Memory required for data: 1334273568
I0403 18:03:03.433711 15980 layer_factory.hpp:77] Creating layer inception_5b/5x5_reduce
I0403 18:03:03.433748 15980 net.cpp:91] Creating Layer inception_5b/5x5_reduce
I0403 18:03:03.433766 15980 net.cpp:425] inception_5b/5x5_reduce <- inception_5a/output_inception_5a/output_0_split_2
I0403 18:03:03.433789 15980 net.cpp:399] inception_5b/5x5_reduce -> inception_5b/5x5_reduce
I0403 18:03:03.435063 15980 net.cpp:141] Setting up inception_5b/5x5_reduce
I0403 18:03:03.435091 15980 net.cpp:148] Top shape: 24 48 7 7 (56448)
I0403 18:03:03.435106 15980 net.cpp:156] Memory required for data: 1334499360
I0403 18:03:03.435122 15980 layer_factory.hpp:77] Creating layer inception_5b/relu_5x5_reduce
I0403 18:03:03.435142 15980 net.cpp:91] Creating Layer inception_5b/relu_5x5_reduce
I0403 18:03:03.435159 15980 net.cpp:425] inception_5b/relu_5x5_reduce <- inception_5b/5x5_reduce
I0403 18:03:03.435175 15980 net.cpp:386] inception_5b/relu_5x5_reduce -> inception_5b/5x5_reduce (in-place)
I0403 18:03:03.435536 15980 net.cpp:141] Setting up inception_5b/relu_5x5_reduce
I0403 18:03:03.435561 15980 net.cpp:148] Top shape: 24 48 7 7 (56448)
I0403 18:03:03.435575 15980 net.cpp:156] Memory required for data: 1334725152
I0403 18:03:03.435590 15980 layer_factory.hpp:77] Creating layer inception_5b/5x5
I0403 18:03:03.435609 15980 net.cpp:91] Creating Layer inception_5b/5x5
I0403 18:03:03.435626 15980 net.cpp:425] inception_5b/5x5 <- inception_5b/5x5_reduce
I0403 18:03:03.435644 15980 net.cpp:399] inception_5b/5x5 -> inception_5b/5x5
I0403 18:03:03.437633 15980 net.cpp:141] Setting up inception_5b/5x5
I0403 18:03:03.437659 15980 net.cpp:148] Top shape: 24 128 7 7 (150528)
I0403 18:03:03.437674 15980 net.cpp:156] Memory required for data: 1335327264
I0403 18:03:03.437691 15980 layer_factory.hpp:77] Creating layer inception_5b/relu_5x5
I0403 18:03:03.437711 15980 net.cpp:91] Creating Layer inception_5b/relu_5x5
I0403 18:03:03.437728 15980 net.cpp:425] inception_5b/relu_5x5 <- inception_5b/5x5
I0403 18:03:03.437746 15980 net.cpp:386] inception_5b/relu_5x5 -> inception_5b/5x5 (in-place)
I0403 18:03:03.437933 15980 net.cpp:141] Setting up inception_5b/relu_5x5
I0403 18:03:03.437959 15980 net.cpp:148] Top shape: 24 128 7 7 (150528)
I0403 18:03:03.437974 15980 net.cpp:156] Memory required for data: 1335929376
I0403 18:03:03.437999 15980 layer_factory.hpp:77] Creating layer inception_5b/pool
I0403 18:03:03.438019 15980 net.cpp:91] Creating Layer inception_5b/pool
I0403 18:03:03.438035 15980 net.cpp:425] inception_5b/pool <- inception_5a/output_inception_5a/output_0_split_3
I0403 18:03:03.438052 15980 net.cpp:399] inception_5b/pool -> inception_5b/pool
I0403 18:03:03.438124 15980 net.cpp:141] Setting up inception_5b/pool
I0403 18:03:03.438148 15980 net.cpp:148] Top shape: 24 832 7 7 (978432)
I0403 18:03:03.438163 15980 net.cpp:156] Memory required for data: 1339843104
I0403 18:03:03.438176 15980 layer_factory.hpp:77] Creating layer inception_5b/pool_proj
I0403 18:03:03.438197 15980 net.cpp:91] Creating Layer inception_5b/pool_proj
I0403 18:03:03.438215 15980 net.cpp:425] inception_5b/pool_proj <- inception_5b/pool
I0403 18:03:03.438235 15980 net.cpp:399] inception_5b/pool_proj -> inception_5b/pool_proj
I0403 18:03:03.440506 15980 net.cpp:141] Setting up inception_5b/pool_proj
I0403 18:03:03.440534 15980 net.cpp:148] Top shape: 24 128 7 7 (150528)
I0403 18:03:03.440551 15980 net.cpp:156] Memory required for data: 1340445216
I0403 18:03:03.440568 15980 layer_factory.hpp:77] Creating layer inception_5b/relu_pool_proj
I0403 18:03:03.440588 15980 net.cpp:91] Creating Layer inception_5b/relu_pool_proj
I0403 18:03:03.440604 15980 net.cpp:425] inception_5b/relu_pool_proj <- inception_5b/pool_proj
I0403 18:03:03.440621 15980 net.cpp:386] inception_5b/relu_pool_proj -> inception_5b/pool_proj (in-place)
I0403 18:03:03.440910 15980 net.cpp:141] Setting up inception_5b/relu_pool_proj
I0403 18:03:03.440937 15980 net.cpp:148] Top shape: 24 128 7 7 (150528)
I0403 18:03:03.440953 15980 net.cpp:156] Memory required for data: 1341047328
I0403 18:03:03.440966 15980 layer_factory.hpp:77] Creating layer inception_5b/output
I0403 18:03:03.440987 15980 net.cpp:91] Creating Layer inception_5b/output
I0403 18:03:03.441017 15980 net.cpp:425] inception_5b/output <- inception_5b/1x1
I0403 18:03:03.441035 15980 net.cpp:425] inception_5b/output <- inception_5b/3x3
I0403 18:03:03.441051 15980 net.cpp:425] inception_5b/output <- inception_5b/5x5
I0403 18:03:03.441066 15980 net.cpp:425] inception_5b/output <- inception_5b/pool_proj
I0403 18:03:03.441085 15980 net.cpp:399] inception_5b/output -> inception_5b/output
I0403 18:03:03.441135 15980 net.cpp:141] Setting up inception_5b/output
I0403 18:03:03.441161 15980 net.cpp:148] Top shape: 24 1024 7 7 (1204224)
I0403 18:03:03.441175 15980 net.cpp:156] Memory required for data: 1345864224
I0403 18:03:03.441190 15980 layer_factory.hpp:77] Creating layer pool5/7x7_s1
I0403 18:03:03.441207 15980 net.cpp:91] Creating Layer pool5/7x7_s1
I0403 18:03:03.441221 15980 net.cpp:425] pool5/7x7_s1 <- inception_5b/output
I0403 18:03:03.441241 15980 net.cpp:399] pool5/7x7_s1 -> pool5/7x7_s1
I0403 18:03:03.441447 15980 net.cpp:141] Setting up pool5/7x7_s1
I0403 18:03:03.441471 15980 net.cpp:148] Top shape: 24 1024 1 1 (24576)
I0403 18:03:03.441485 15980 net.cpp:156] Memory required for data: 1345962528
I0403 18:03:03.441500 15980 layer_factory.hpp:77] Creating layer pool5/drop_7x7_s1
I0403 18:03:03.441519 15980 net.cpp:91] Creating Layer pool5/drop_7x7_s1
I0403 18:03:03.441535 15980 net.cpp:425] pool5/drop_7x7_s1 <- pool5/7x7_s1
I0403 18:03:03.441551 15980 net.cpp:386] pool5/drop_7x7_s1 -> pool5/7x7_s1 (in-place)
I0403 18:03:03.441599 15980 net.cpp:141] Setting up pool5/drop_7x7_s1
I0403 18:03:03.441623 15980 net.cpp:148] Top shape: 24 1024 1 1 (24576)
I0403 18:03:03.441637 15980 net.cpp:156] Memory required for data: 1346060832
I0403 18:03:03.441653 15980 layer_factory.hpp:77] Creating layer loss3/classifier_plantvillage
I0403 18:03:03.441670 15980 net.cpp:91] Creating Layer loss3/classifier_plantvillage
I0403 18:03:03.441686 15980 net.cpp:425] loss3/classifier_plantvillage <- pool5/7x7_s1
I0403 18:03:03.441705 15980 net.cpp:399] loss3/classifier_plantvillage -> loss3/classifier_plantvillage
I0403 18:03:03.442126 15980 net.cpp:141] Setting up loss3/classifier_plantvillage
I0403 18:03:03.442149 15980 net.cpp:148] Top shape: 24 38 (912)
I0403 18:03:03.442163 15980 net.cpp:156] Memory required for data: 1346064480
I0403 18:03:03.442180 15980 layer_factory.hpp:77] Creating layer loss3/classifier_plantvillage_loss3/classifier_plantvillage_0_split
I0403 18:03:03.442198 15980 net.cpp:91] Creating Layer loss3/classifier_plantvillage_loss3/classifier_plantvillage_0_split
I0403 18:03:03.442214 15980 net.cpp:425] loss3/classifier_plantvillage_loss3/classifier_plantvillage_0_split <- loss3/classifier_plantvillage
I0403 18:03:03.442230 15980 net.cpp:399] loss3/classifier_plantvillage_loss3/classifier_plantvillage_0_split -> loss3/classifier_plantvillage_loss3/classifier_plantvillage_0_split_0
I0403 18:03:03.442252 15980 net.cpp:399] loss3/classifier_plantvillage_loss3/classifier_plantvillage_0_split -> loss3/classifier_plantvillage_loss3/classifier_plantvillage_0_split_1
I0403 18:03:03.442273 15980 net.cpp:399] loss3/classifier_plantvillage_loss3/classifier_plantvillage_0_split -> loss3/classifier_plantvillage_loss3/classifier_plantvillage_0_split_2
I0403 18:03:03.442293 15980 net.cpp:399] loss3/classifier_plantvillage_loss3/classifier_plantvillage_0_split -> loss3/classifier_plantvillage_loss3/classifier_plantvillage_0_split_3
I0403 18:03:03.442391 15980 net.cpp:141] Setting up loss3/classifier_plantvillage_loss3/classifier_plantvillage_0_split
I0403 18:03:03.442414 15980 net.cpp:148] Top shape: 24 38 (912)
I0403 18:03:03.442430 15980 net.cpp:148] Top shape: 24 38 (912)
I0403 18:03:03.442445 15980 net.cpp:148] Top shape: 24 38 (912)
I0403 18:03:03.442458 15980 net.cpp:148] Top shape: 24 38 (912)
I0403 18:03:03.442471 15980 net.cpp:156] Memory required for data: 1346079072
I0403 18:03:03.442486 15980 layer_factory.hpp:77] Creating layer loss1/loss
I0403 18:03:03.442508 15980 net.cpp:91] Creating Layer loss1/loss
I0403 18:03:03.442526 15980 net.cpp:425] loss1/loss <- loss1/classifier_plantvillage_loss1/classifier_plantvillage_0_split_0
I0403 18:03:03.442556 15980 net.cpp:425] loss1/loss <- label_data_1_split_0
…
