…
I0403 18:04:26.992583 16066 net.cpp:313] The NetState phase (1) differed from the phase (0) specified by a rule in layer data
I0403 18:04:26.993808 16066 net.cpp:49] Initializing net from parameters: 
state {
  phase: TEST
}
layer {
  name: "data"
  type: "Data"
  top: "data"
  top: "label"
  include {
    phase: TEST
  }
  transform_param {
    mirror: false
    crop_size: 224
    mean_file: "/home/mohanty/data/final_dataset/lmdb/grayscale-60-40/mean.binaryproto"
  }
  data_param {
    source: "/home/mohanty/data/final_dataset/lmdb/grayscale-60-40/test_db"
    batch_size: 24
    backend: LMDB
  }
}
layer {
  name: "conv1/7x7_s2"
  type: "Convolution"
  bottom: "data"
  top: "conv1/7x7_s2"
  param {
    lr_mult: 1
    decay_mult: 1
  }
  param {
    lr_mult: 2
    decay_mult: 0
  }
  convolution_param {
    num_output: 64
    pad: 3
    kernel_size: 7
    stride: 2
    weight_filler {
      type: "xavier"
      std: 0.1
    }
    bias_filler {
      type: "constant"
      value: 0.2
    }
  }
}
layer {
  name: "conv1/relu_7x7"
  type: "ReLU"
  bottom: "conv1/7x7_s2"
  top: "conv1/7x7_s2"
}
layer {
  name: "pool1/3x3_s2"
  type: "Pooling"
  bottom: "conv1/7x7_s2"
  top: "pool1/3x3_s2"
  pooling_param {
    pool: MAX
    kernel_size: 3
    stride: 2
  }
}
layer {
  name: "pool1/norm1"
  type: "LRN"
  bottom: "pool1/3x3_s2"
  top: "pool1/norm1"
  lrn_param {
    local_size: 5
    alpha: 0.0001
    beta: 0.75
  }
}
layer {
  name: "conv2/3x3_reduce"
  type: "Convolution"
  bottom: "pool1/norm1"
  top: "conv2/3x3_reduce"
  param {
    lr_mult: 1
    decay_mult: 1
  }
  param {
    lr_mult: 2
    decay_mult: 0
  }
  convolution_param {
    num_output: 64
    kernel_size: 1
    weight_filler {
      type: "xavier"
      std: 0.1
    }
    bias_filler {
      type: "constant"
      value: 0.2
    }
  }
}
layer {
  name: "conv2/relu_3x3_reduce"
  type: "ReLU"
  bottom: "conv2/3x3_reduce"
  top: "conv2/3x3_reduce"
}
layer {
  name: "conv2/3x3"
  type: "Convolution"
  bottom: "conv2/3x3_reduce"
  top: "conv2/3x3"
  param {
    lr_mult: 1
    decay_mult: 1
  }
  param {
    lr_mult: 2
    decay_mult: 0
  }
  convolution_param {
    num_output: 192
    pad: 1
    kernel_size: 3
    weight_filler {
      type: "xavier"
      std: 0.03
    }
    bias_filler {
      type: "constant"
      value: 0.2
    }
  }
}
layer {
  name: "conv2/relu_3x3"
  type: "ReLU"
  bottom: "conv2/3x3"
  top: "conv2/3x3"
}
layer {
  name: "conv2/norm2"
  type: "LRN"
  bottom: "conv2/3x3"
  top: "conv2/norm2"
  lrn_param {
    local_size: 5
    alpha: 0.0001
    beta: 0.75
  }
}
layer {
  name: "pool2/3x3_s2"
  type: "Pooling"
  bottom: "conv2/norm2"
  top: "pool2/3x3_s2"
  pooling_param {
    pool: MAX
    kernel_size: 3
    stride: 2
  }
}
layer {
  name: "inception_3a/1x1"
  type: "Convolution"
  bottom: "pool2/3x3_s2"
  top: "inception_3a/1x1"
  param {
    lr_mult: 1
    decay_mult: 1
  }
  param {
    lr_mult: 2
    decay_mult: 0
  }
  convolution_param {
    num_output: 64
    kernel_size: 1
    weight_filler {
      type: "xavier"
      std: 0.03
    }
    bias_filler {
      type: "constant"
      value: 0.2
    }
  }
}
layer {
  name: "inception_3a/relu_1x1"
  type: "ReLU"
  bottom: "inception_3a/1x1"
  top: "inception_3a/1x1"
}
layer {
  name: "inception_3a/3x3_reduce"
  type: "Convolution"
  bottom: "pool2/3x3_s2"
  top: "inception_3a/3x3_reduce"
  param {
    lr_mult: 1
    decay_mult: 1
  }
  param {
    lr_mult: 2
    decay_mult: 0
  }
  convolution_param {
    num_output: 96
    kernel_size: 1
    weight_filler {
      type: "xavier"
      std: 0.09
    }
    bias_filler {
      type: "constant"
      value: 0.2
    }
  }
}
layer {
  name: "inception_3a/relu_3x3_reduce"
  type: "ReLU"
  bottom: "inception_3a/3x3_reduce"
  top: "inception_3a/3x3_reduce"
}
layer {
  name: "inception_3a/3x3"
  type: "Convolution"
  bottom: "inception_3a/3x3_reduce"
  top: "inception_3a/3x3"
  param {
    lr_mult: 1
    decay_mult: 1
  }
  param {
    lr_mult: 2
    decay_mult: 0
  }
  convolution_param {
    num_output: 128
    pad: 1
    kernel_size: 3
    weight_filler {
      type: "xavier"
      std: 0.03
    }
    bias_filler {
      type: "constant"
      value: 0.2
    }
  }
}
layer {
  name: "inception_3a/relu_3x3"
  type: "ReLU"
  bottom: "inception_3a/3x3"
  top: "inception_3a/3x3"
}
layer {
  name: "inception_3a/5x5_reduce"
  type: "Convolution"
  bottom: "pool2/3x3_s2"
  top: "inception_3a/5x5_reduce"
  param {
    lr_mult: 1
    decay_mult: 1
  }
  param {
    lr_mult: 2
    decay_mult: 0
  }
  convolution_param {
    num_output: 16
    kernel_size: 1
    weight_filler {
      type: "xavier"
      std: 0.2
    }
    bias_filler {
      type: "constant"
      value: 0.2
    }
  }
}
layer {
  name: "inception_3a/relu_5x5_reduce"
  type: "ReLU"
  bottom: "inception_3a/5x5_reduce"
  top: "inception_3a/5x5_reduce"
}
layer {
  name: "inception_3a/5x5"
  type: "Convolution"
  bottom: "inception_3a/5x5_reduce"
  top: "inception_3a/5x5"
  param {
    lr_mult: 1
    decay_mult: 1
  }
  param {
    lr_mult: 2
    decay_mult: 0
  }
  convolution_param {
    num_output: 32
    pad: 2
    kernel_size: 5
    weight_filler {
      type: "xavier"
      std: 0.03
    }
    bias_filler {
      type: "constant"
      value: 0.2
    }
  }
}
layer {
  name: "inception_3a/relu_5x5"
  type: "ReLU"
  bottom: "inception_3a/5x5"
  top: "inception_3a/5x5"
}
layer {
  name: "inception_3a/pool"
  type: "Pooling"
  bottom: "pool2/3x3_s2"
  top: "inception_3a/pool"
  pooling_param {
    pool: MAX
    kernel_size: 3
    stride: 1
    pad: 1
  }
}
layer {
  name: "inception_3a/pool_proj"
  type: "Convolution"
  bottom: "inception_3a/pool"
  top: "inception_3a/pool_proj"
  param {
    lr_mult: 1
    decay_mult: 1
  }
  param {
    lr_mult: 2
    decay_mult: 0
  }
  convolution_param {
    num_output: 32
    kernel_size: 1
    weight_filler {
      type: "xavier"
      std: 0.1
    }
    bias_filler {
      type: "constant"
      value: 0.2
    }
  }
}
layer {
  name: "inception_3a/relu_pool_proj"
  type: "ReLU"
  bottom: "inception_3a/pool_proj"
  top: "inception_3a/pool_proj"
}
layer {
  name: "inception_3a/output"
  type: "Concat"
  bottom: "inception_3a/1x1"
  bottom: "inception_3a/3x3"
  bottom: "inception_3a/5x5"
  bottom: "inception_3a/pool_proj"
  top: "inception_3a/output"
}
layer {
  name: "inception_3b/1x1"
  type: "Convolution"
  bottom: "inception_3a/output"
  top: "inception_3b/1x1"
  param {
    lr_mult: 1
    decay_mult: 1
  }
  param {
    lr_mult: 2
    decay_mult: 0
  }
  convolution_param {
    num_output: 128
    kernel_size: 1
    weight_filler {
      type: "xavier"
      std: 0.03
    }
    bias_filler {
      type: "constant"
      value: 0.2
    }
  }
}
layer {
  name: "inception_3b/relu_1x1"
  type: "ReLU"
  bottom: "inception_3b/1x1"
  top: "inception_3b/1x1"
}
layer {
  name: "inception_3b/3x3_reduce"
  type: "Convolution"
  bottom: "inception_3a/output"
  top: "inception_3b/3x3_reduce"
  param {
    lr_mult: 1
    decay_mult: 1
  }
  param {
    lr_mult: 2
    decay_mult: 0
  }
  convolution_param {
    num_output: 128
    kernel_size: 1
    weight_filler {
      type: "xavier"
      std: 0.09
    }
    bias_filler {
      type: "constant"
      value: 0.2
    }
  }
}
layer {
  name: "inception_3b/relu_3x3_reduce"
  type: "ReLU"
  bottom: "inception_3b/3x3_reduce"
  top: "inception_3b/3x3_reduce"
}
layer {
  name: "inception_3b/3x3"
  type: "Convolution"
  bottom: "inception_3b/3x3_reduce"
  top: "inception_3b/3x3"
  param {
    lr_mult: 1
    decay_mult: 1
  }
  param {
    lr_mult: 2
    decay_mult: 0
  }
  convolution_param {
    num_output: 192
    pad: 1
    kernel_size: 3
    weight_filler {
      type: "xavier"
      std: 0.03
    }
    bias_filler {
      type: "constant"
      value: 0.2
    }
  }
}
layer {
  name: "inception_3b/relu_3x3"
  type: "ReLU"
  bottom: "inception_3b/3x3"
  top: "inception_3b/3x3"
}
layer {
  name: "inception_3b/5x5_reduce"
  type: "Convolution"
  bottom: "inception_3a/output"
  top: "inception_3b/5x5_reduce"
  param {
    lr_mult: 1
    decay_mult: 1
  }
  param {
    lr_mult: 2
    decay_mult: 0
  }
  convolution_param {
    num_output: 32
    kernel_size: 1
    weight_filler {
      type: "xavier"
      std: 0.2
    }
    bias_filler {
      type: "constant"
      value: 0.2
    }
  }
}
layer {
  name: "inception_3b/relu_5x5_reduce"
  type: "ReLU"
  bottom: "inception_3b/5x5_reduce"
  top: "inception_3b/5x5_reduce"
}
layer {
  name: "inception_3b/5x5"
  type: "Convolution"
  bottom: "inception_3b/5x5_reduce"
  top: "inception_3b/5x5"
  param {
    lr_mult: 1
    decay_mult: 1
  }
  param {
    lr_mult: 2
    decay_mult: 0
  }
  convolution_param {
    num_output: 96
    pad: 2
    kernel_size: 5
    weight_filler {
      type: "xavier"
      std: 0.03
    }
    bias_filler {
      type: "constant"
      value: 0.2
    }
  }
}
layer {
  name: "inception_3b/relu_5x5"
  type: "ReLU"
  bottom: "inception_3b/5x5"
  top: "inception_3b/5x5"
}
layer {
  name: "inception_3b/pool"
  type: "Pooling"
  bottom: "inception_3a/output"
  top: "inception_3b/pool"
  pooling_param {
    pool: MAX
    kernel_size: 3
    stride: 1
    pad: 1
  }
}
layer {
  name: "inception_3b/pool_proj"
  type: "Convolution"
  bottom: "inception_3b/pool"
  top: "inception_3b/pool_proj"
  param {
    lr_mult: 1
    decay_mult: 1
  }
  param {
    lr_mult: 2
    decay_mult: 0
  }
  convolution_param {
    num_output: 64
    kernel_size: 1
    weight_filler {
      type: "xavier"
      std: 0.1
    }
    bias_filler {
      type: "constant"
      value: 0.2
    }
  }
}
layer {
  name: "inception_3b/relu_pool_proj"
  type: "ReLU"
  bottom: "inception_3b/pool_proj"
  top: "inception_3b/pool_proj"
}
layer {
  name: "inception_3b/output"
  type: "Concat"
  bottom: "inception_3b/1x1"
  bottom: "inception_3b/3x3"
  bottom: "inception_3b/5x5"
  bottom: "inception_3b/pool_proj"
  top: "inception_3b/output"
}
layer {
  name: "pool3/3x3_s2"
  type: "Pooling"
  bottom: "inception_3b/output"
  top: "pool3/3x3_s2"
  pooling_param {
    pool: MAX
    kernel_size: 3
    stride: 2
  }
}
layer {
  name: "inception_4a/1x1"
  type: "Convolution"
  bottom: "pool3/3x3_s2"
  top: "inception_4a/1x1"
  param {
    lr_mult: 1
    decay_mult: 1
  }
  param {
    lr_mult: 2
    decay_mult: 0
  }
  convolution_param {
    num_output: 192
    kernel_size: 1
    weight_filler {
      type: "xavier"
      std: 0.03
    }
    bias_filler {
      type: "constant"
      value: 0.2
    }
  }
}
layer {
  name: "inception_4a/relu_1x1"
  type: "ReLU"
  bottom: "inception_4a/1x1"
  top: "inception_4a/1x1"
}
layer {
  name: "inception_4a/3x3_reduce"
  type: "Convolution"
  bottom: "pool3/3x3_s2"
  top: "inception_4a/3x3_reduce"
  param {
    lr_mult: 1
    decay_mult: 1
  }
  param {
    lr_mult: 2
    decay_mult: 0
  }
  convolution_param {
    num_output: 96
    kernel_size: 1
    weight_filler {
      type: "xavier"
      std: 0.09
    }
    bias_filler {
      type: "constant"
      value: 0.2
    }
  }
}
layer {
  name: "inception_4a/relu_3x3_reduce"
  type: "ReLU"
  bottom: "inception_4a/3x3_reduce"
  top: "inception_4a/3x3_reduce"
}
layer {
  name: "inception_4a/3x3"
  type: "Convolution"
  bottom: "inception_4a/3x3_reduce"
  top: "inception_4a/3x3"
  param {
    lr_mult: 1
    decay_mult: 1
  }
  param {
    lr_mult: 2
    decay_mult: 0
  }
  convolution_param {
    num_output: 208
    pad: 1
    kernel_size: 3
    weight_filler {
      type: "xavier"
      std: 0.03
    }
    bias_filler {
      type: "constant"
      value: 0.2
    }
  }
}
layer {
  name: "inception_4a/relu_3x3"
  type: "ReLU"
  bottom: "inception_4a/3x3"
  top: "inception_4a/3x3"
}
layer {
  name: "inception_4a/5x5_reduce"
  type: "Convolution"
  bottom: "pool3/3x3_s2"
  top: "inception_4a/5x5_reduce"
  param {
    lr_mult: 1
    decay_mult: 1
  }
  param {
    lr_mult: 2
    decay_mult: 0
  }
  convolution_param {
    num_output: 16
    kernel_size: 1
    weight_filler {
      type: "xavier"
      std: 0.2
    }
    bias_filler {
      type: "constant"
      value: 0.2
    }
  }
}
layer {
  name: "inception_4a/relu_5x5_reduce"
  type: "ReLU"
  bottom: "inception_4a/5x5_reduce"
  top: "inception_4a/5x5_reduce"
}
layer {
  name: "inception_4a/5x5"
  type: "Convolution"
  bottom: "inception_4a/5x5_reduce"
  top: "inception_4a/5x5"
  param {
    lr_mult: 1
    decay_mult: 1
  }
  param {
    lr_mult: 2
    decay_mult: 0
  }
  convolution_param {
    num_output: 48
    pad: 2
    kernel_size: 5
    weight_filler {
      type: "xavier"
      std: 0.03
    }
    bias_filler {
      type: "constant"
      value: 0.2
    }
  }
}
layer {
  name: "inception_4a/relu_5x5"
  type: "ReLU"
  bottom: "inception_4a/5x5"
  top: "inception_4a/5x5"
}
layer {
  name: "inception_4a/pool"
  type: "Pooling"
  bottom: "pool3/3x3_s2"
  top: "inception_4a/pool"
  pooling_param {
    pool: MAX
    kernel_size: 3
    stride: 1
    pad: 1
  }
}
layer {
  name: "inception_4a/pool_proj"
  type: "Convolution"
  bottom: "inception_4a/pool"
  top: "inception_4a/pool_proj"
  param {
    lr_mult: 1
    decay_mult: 1
  }
  param {
    lr_mult: 2
    decay_mult: 0
  }
  convolution_param {
    num_output: 64
    kernel_size: 1
    weight_filler {
      type: "xavier"
      std: 0.1
    }
    bias_filler {
      type: "constant"
      value: 0.2
    }
  }
}
layer {
  name: "inception_4a/relu_pool_proj"
  type: "ReLU"
  bottom: "inception_4a/pool_proj"
  top: "inception_4a/pool_proj"
}
layer {
  name: "inception_4a/output"
  type: "Concat"
  bottom: "inception_4a/1x1"
  bottom: "inception_4a/3x3"
  bottom: "inception_4a/5x5"
  bottom: "inception_4a/pool_proj"
  top: "inception_4a/output"
}
layer {
  name: "loss1/ave_pool"
  type: "Pooling"
  bottom: "inception_4a/output"
  top: "loss1/ave_pool"
  pooling_param {
    pool: AVE
    kernel_size: 5
    stride: 3
  }
}
layer {
  name: "loss1/conv"
  type: "Convolution"
  bottom: "loss1/ave_pool"
  top: "loss1/conv"
  param {
    lr_mult: 1
    decay_mult: 1
  }
  param {
    lr_mult: 2
    decay_mult: 0
  }
  convolution_param {
    num_output: 128
    kernel_size: 1
    weight_filler {
      type: "xavier"
      std: 0.08
    }
    bias_filler {
      type: "constant"
      value: 0.2
    }
  }
}
layer {
  name: "loss1/relu_conv"
  type: "ReLU"
  bottom: "loss1/conv"
  top: "loss1/conv"
}
layer {
  name: "loss1/fc"
  type: "InnerProduct"
  bottom: "loss1/conv"
  top: "loss1/fc"
  param {
    lr_mult: 1
    decay_mult: 1
  }
  param {
    lr_mult: 2
    decay_mult: 0
  }
  inner_product_param {
    num_output: 1024
    weight_filler {
      type: "xavier"
      std: 0.02
    }
    bias_filler {
      type: "constant"
      value: 0.2
    }
  }
}
layer {
  name: "loss1/relu_fc"
  type: "ReLU"
  bottom: "loss1/fc"
  top: "loss1/fc"
}
layer {
  name: "loss1/drop_fc"
  type: "Dropout"
  bottom: "loss1/fc"
  top: "loss1/fc"
  dropout_param {
    dropout_ratio: 0.7
  }
}
layer {
  name: "loss1/classifier_plantvillage"
  type: "InnerProduct"
  bottom: "loss1/fc"
  top: "loss1/classifier_plantvillage"
  param {
    lr_mult: 1
    decay_mult: 1
  }
  param {
    lr_mult: 2
    decay_mult: 0
  }
  inner_product_param {
    num_output: 38
    weight_filler {
      type: "xavier"
      std: 0.0009765625
    }
    bias_filler {
      type: "constant"
      value: 0
    }
  }
}
layer {
  name: "inception_4b/1x1"
  type: "Convolution"
  bottom: "inception_4a/output"
  top: "inception_4b/1x1"
  param {
    lr_mult: 1
    decay_mult: 1
  }
  param {
    lr_mult: 2
    decay_mult: 0
  }
  convolution_param {
    num_output: 160
    kernel_size: 1
    weight_filler {
      type: "xavier"
      std: 0.03
    }
    bias_filler {
      type: "constant"
      value: 0.2
    }
  }
}
layer {
  name: "inception_4b/relu_1x1"
  type: "ReLU"
  bottom: "inception_4b/1x1"
  top: "inception_4b/1x1"
}
layer {
  name: "inception_4b/3x3_reduce"
  type: "Convolution"
  bottom: "inception_4a/output"
  top: "inception_4b/3x3_reduce"
  param {
    lr_mult: 1
    decay_mult: 1
  }
  param {
    lr_mult: 2
    decay_mult: 0
  }
  convolution_param {
    num_output: 112
    kernel_size: 1
    weight_filler {
      type: "xavier"
      std: 0.09
    }
    bias_filler {
      type: "constant"
      value: 0.2
    }
  }
}
layer {
  name: "inception_4b/relu_3x3_reduce"
  type: "ReLU"
  bottom: "inception_4b/3x3_reduce"
  top: "inception_4b/3x3_reduce"
}
layer {
  name: "inception_4b/3x3"
  type: "Convolution"
  bottom: "inception_4b/3x3_reduce"
  top: "inception_4b/3x3"
  param {
    lr_mult: 1
    decay_mult: 1
  }
  param {
    lr_mult: 2
    decay_mult: 0
  }
  convolution_param {
    num_output: 224
    pad: 1
    kernel_size: 3
    weight_filler {
      type: "xavier"
      std: 0.03
    }
    bias_filler {
      type: "constant"
      value: 0.2
    }
  }
}
layer {
  name: "inception_4b/relu_3x3"
  type: "ReLU"
  bottom: "inception_4b/3x3"
  top: "inception_4b/3x3"
}
layer {
  name: "inception_4b/5x5_reduce"
  type: "Convolution"
  bottom: "inception_4a/output"
  top: "inception_4b/5x5_reduce"
  param {
    lr_mult: 1
    decay_mult: 1
  }
  param {
    lr_mult: 2
    decay_mult: 0
  }
  convolution_param {
    num_output: 24
    kernel_size: 1
    weight_filler {
      type: "xavier"
      std: 0.2
    }
    bias_filler {
      type: "constant"
      value: 0.2
    }
  }
}
layer {
  name: "inception_4b/relu_5x5_reduce"
  type: "ReLU"
  bottom: "inception_4b/5x5_reduce"
  top: "inception_4b/5x5_reduce"
}
layer {
  name: "inception_4b/5x5"
  type: "Convolution"
  bottom: "inception_4b/5x5_reduce"
  top: "inception_4b/5x5"
  param {
    lr_mult: 1
    decay_mult: 1
  }
  param {
    lr_mult: 2
    decay_mult: 0
  }
  convolution_param {
    num_output: 64
    pad: 2
    kernel_size: 5
    weight_filler {
      type: "xavier"
      std: 0.03
    }
    bias_filler {
      type: "constant"
      value: 0.2
    }
  }
}
layer {
  name: "inception_4b/relu_5x5"
  type: "ReLU"
  bottom: "inception_4b/5x5"
  top: "inception_4b/5x5"
}
layer {
  name: "inception_4b/pool"
  type: "Pooling"
  bottom: "inception_4a/output"
  top: "inception_4b/pool"
  pooling_param {
    pool: MAX
    kernel_size: 3
    stride: 1
    pad: 1
  }
}
layer {
  name: "inception_4b/pool_proj"
  type: "Convolution"
  bottom: "inception_4b/pool"
  top: "inception_4b/pool_proj"
  param {
    lr_mult: 1
    decay_mult: 1
  }
  param {
    lr_mult: 2
    decay_mult: 0
  }
  convolution_param {
    num_output: 64
    kernel_size: 1
    weight_filler {
      type: "xavier"
      std: 0.1
    }
    bias_filler {
      type: "constant"
      value: 0.2
    }
  }
}
layer {
  name: "inception_4b/relu_pool_proj"
  type: "ReLU"
  bottom: "inception_4b/pool_proj"
  top: "inception_4b/pool_proj"
}
layer {
  name: "inception_4b/output"
  type: "Concat"
  bottom: "inception_4b/1x1"
  bottom: "inception_4b/3x3"
  bottom: "inception_4b/5x5"
  bottom: "inception_4b/pool_proj"
  top: "inception_4b/output"
}
layer {
  name: "inception_4c/1x1"
  type: "Convolution"
  bottom: "inception_4b/output"
  top: "inception_4c/1x1"
  param {
    lr_mult: 1
    decay_mult: 1
  }
  param {
    lr_mult: 2
    decay_mult: 0
  }
  convolution_param {
    num_output: 128
    kernel_size: 1
    weight_filler {
      type: "xavier"
      std: 0.03
    }
    bias_filler {
      type: "constant"
      value: 0.2
    }
  }
}
layer {
  name: "inception_4c/relu_1x1"
  type: "ReLU"
  bottom: "inception_4c/1x1"
  top: "inception_4c/1x1"
}
layer {
  name: "inception_4c/3x3_reduce"
  type: "Convolution"
  bottom: "inception_4b/output"
  top: "inception_4c/3x3_reduce"
  param {
    lr_mult: 1
    decay_mult: 1
  }
  param {
    lr_mult: 2
    decay_mult: 0
  }
  convolution_param {
    num_output: 128
    kernel_size: 1
    weight_filler {
      type: "xavier"
      std: 0.09
    }
    bias_filler {
      type: "constant"
      value: 0.2
    }
  }
}
layer {
  name: "inception_4c/relu_3x3_reduce"
  type: "ReLU"
  bottom: "inception_4c/3x3_reduce"
  top: "inception_4c/3x3_reduce"
}
layer {
  name: "inception_4c/3x3"
  type: "Convolution"
  bottom: "inception_4c/3x3_reduce"
  top: "inception_4c/3x3"
  param {
    lr_mult: 1
    decay_mult: 1
  }
  param {
    lr_mult: 2
    decay_mult: 0
  }
  convolution_param {
    num_output: 256
    pad: 1
    kernel_size: 3
    weight_filler {
      type: "xavier"
      std: 0.03
    }
    bias_filler {
      type: "constant"
      value: 0.2
    }
  }
}
layer {
  name: "inception_4c/relu_3x3"
  type: "ReLU"
  bottom: "inception_4c/3x3"
  top: "inception_4c/3x3"
}
layer {
  name: "inception_4c/5x5_reduce"
  type: "Convolution"
  bottom: "inception_4b/output"
  top: "inception_4c/5x5_reduce"
  param {
    lr_mult: 1
    decay_mult: 1
  }
  param {
    lr_mult: 2
    decay_mult: 0
  }
  convolution_param {
    num_output: 24
    kernel_size: 1
    weight_filler {
      type: "xavier"
      std: 0.2
    }
    bias_filler {
      type: "constant"
      value: 0.2
    }
  }
}
layer {
  name: "inception_4c/relu_5x5_reduce"
  type: "ReLU"
  bottom: "inception_4c/5x5_reduce"
  top: "inception_4c/5x5_reduce"
}
layer {
  name: "inception_4c/5x5"
  type: "Convolution"
  bottom: "inception_4c/5x5_reduce"
  top: "inception_4c/5x5"
  param {
    lr_mult: 1
    decay_mult: 1
  }
  param {
    lr_mult: 2
    decay_mult: 0
  }
  convolution_param {
    num_output: 64
    pad: 2
    kernel_size: 5
    weight_filler {
      type: "xavier"
      std: 0.03
    }
    bias_filler {
      type: "constant"
      value: 0.2
    }
  }
}
layer {
  name: "inception_4c/relu_5x5"
  type: "ReLU"
  bottom: "inception_4c/5x5"
  top: "inception_4c/5x5"
}
layer {
  name: "inception_4c/pool"
  type: "Pooling"
  bottom: "inception_4b/output"
  top: "inception_4c/pool"
  pooling_param {
    pool: MAX
    kernel_size: 3
    stride: 1
    pad: 1
  }
}
layer {
  name: "inception_4c/pool_proj"
  type: "Convolution"
  bottom: "inception_4c/pool"
  top: "inception_4c/pool_proj"
  param {
    lr_mult: 1
    decay_mult: 1
  }
  param {
    lr_mult: 2
    decay_mult: 0
  }
  convolution_param {
    num_output: 64
    kernel_size: 1
    weight_filler {
      type: "xavier"
      std: 0.1
    }
    bias_filler {
      type: "constant"
      value: 0.2
    }
  }
}
layer {
  name: "inception_4c/relu_pool_proj"
  type: "ReLU"
  bottom: "inception_4c/pool_proj"
  top: "inception_4c/pool_proj"
}
layer {
  name: "inception_4c/output"
  type: "Concat"
  bottom: "inception_4c/1x1"
  bottom: "inception_4c/3x3"
  bottom: "inception_4c/5x5"
  bottom: "inception_4c/pool_proj"
  top: "inception_4c/output"
}
layer {
  name: "inception_4d/1x1"
  type: "Convolution"
  bottom: "inception_4c/output"
  top: "inception_4d/1x1"
  param {
    lr_mult: 1
    decay_mult: 1
  }
  param {
    lr_mult: 2
    decay_mult: 0
  }
  convolution_param {
    num_output: 112
    kernel_size: 1
    weight_filler {
      type: "xavier"
      std: 0.03
    }
    bias_filler {
      type: "constant"
      value: 0.2
    }
  }
}
layer {
  name: "inception_4d/relu_1x1"
  type: "ReLU"
  bottom: "inception_4d/1x1"
  top: "inception_4d/1x1"
}
layer {
  name: "inception_4d/3x3_reduce"
  type: "Convolution"
  bottom: "inception_4c/output"
  top: "inception_4d/3x3_reduce"
  param {
    lr_mult: 1
    decay_mult: 1
  }
  param {
    lr_mult: 2
    decay_mult: 0
  }
  convolution_param {
    num_output: 144
    kernel_size: 1
    weight_filler {
      type: "xavier"
      std: 0.09
    }
    bias_filler {
      type: "constant"
      value: 0.2
    }
  }
}
layer {
  name: "inception_4d/relu_3x3_reduce"
  type: "ReLU"
  bottom: "inception_4d/3x3_reduce"
  top: "inception_4d/3x3_reduce"
}
layer {
  name: "inception_4d/3x3"
  type: "Convolution"
  bottom: "inception_4d/3x3_reduce"
  top: "inception_4d/3x3"
  param {
    lr_mult: 1
    decay_mult: 1
  }
  param {
    lr_mult: 2
    decay_mult: 0
  }
  convolution_param {
    num_output: 288
    pad: 1
    kernel_size: 3
    weight_filler {
      type: "xavier"
      std: 0.03
    }
    bias_filler {
      type: "constant"
      value: 0.2
    }
  }
}
layer {
  name: "inception_4d/relu_3x3"
  type: "ReLU"
  bottom: "inception_4d/3x3"
  top: "inception_4d/3x3"
}
layer {
  name: "inception_4d/5x5_reduce"
  type: "Convolution"
  bottom: "inception_4c/output"
  top: "inception_4d/5x5_reduce"
  param {
    lr_mult: 1
    decay_mult: 1
  }
  param {
    lr_mult: 2
    decay_mult: 0
  }
  convolution_param {
    num_output: 32
    kernel_size: 1
    weight_filler {
      type: "xavier"
      std: 0.2
    }
    bias_filler {
      type: "constant"
      value: 0.2
    }
  }
}
layer {
  name: "inception_4d/relu_5x5_reduce"
  type: "ReLU"
  bottom: "inception_4d/5x5_reduce"
  top: "inception_4d/5x5_reduce"
}
layer {
  name: "inception_4d/5x5"
  type: "Convolution"
  bottom: "inception_4d/5x5_reduce"
  top: "inception_4d/5x5"
  param {
    lr_mult: 1
    decay_mult: 1
  }
  param {
    lr_mult: 2
    decay_mult: 0
  }
  convolution_param {
    num_output: 64
    pad: 2
    kernel_size: 5
    weight_filler {
      type: "xavier"
      std: 0.03
    }
    bias_filler {
      type: "constant"
      value: 0.2
    }
  }
}
layer {
  name: "inception_4d/relu_5x5"
  type: "ReLU"
  bottom: "inception_4d/5x5"
  top: "inception_4d/5x5"
}
layer {
  name: "inception_4d/pool"
  type: "Pooling"
  bottom: "inception_4c/output"
  top: "inception_4d/pool"
  pooling_param {
    pool: MAX
    kernel_size: 3
    stride: 1
    pad: 1
  }
}
layer {
  name: "inception_4d/pool_proj"
  type: "Convolution"
  bottom: "inception_4d/pool"
  top: "inception_4d/pool_proj"
  param {
    lr_mult: 1
    decay_mult: 1
  }
  param {
    lr_mult: 2
    decay_mult: 0
  }
  convolution_param {
    num_output: 64
    kernel_size: 1
    weight_filler {
      type: "xavier"
      std: 0.1
    }
    bias_filler {
      type: "constant"
      value: 0.2
    }
  }
}
layer {
  name: "inception_4d/relu_pool_proj"
  type: "ReLU"
  bottom: "inception_4d/pool_proj"
  top: "inception_4d/pool_proj"
}
layer {
  name: "inception_4d/output"
  type: "Concat"
  bottom: "inception_4d/1x1"
  bottom: "inception_4d/3x3"
  bottom: "inception_4d/5x5"
  bottom: "inception_4d/pool_proj"
  top: "inception_4d/output"
}
layer {
  name: "loss2/ave_pool"
  type: "Pooling"
  bottom: "inception_4d/output"
  top: "loss2/ave_pool"
  pooling_param {
    pool: AVE
    kernel_size: 5
    stride: 3
  }
}
layer {
  name: "loss2/conv"
  type: "Convolution"
  bottom: "loss2/ave_pool"
  top: "loss2/conv"
  param {
    lr_mult: 1
    decay_mult: 1
  }
  param {
    lr_mult: 2
    decay_mult: 0
  }
  convolution_param {
    num_output: 128
    kernel_size: 1
    weight_filler {
      type: "xavier"
      std: 0.08
    }
    bias_filler {
      type: "constant"
      value: 0.2
    }
  }
}
layer {
  name: "loss2/relu_conv"
  type: "ReLU"
  bottom: "loss2/conv"
  top: "loss2/conv"
}
layer {
  name: "loss2/fc"
  type: "InnerProduct"
  bottom: "loss2/conv"
  top: "loss2/fc"
  param {
    lr_mult: 1
    decay_mult: 1
  }
  param {
    lr_mult: 2
    decay_mult: 0
  }
  inner_product_param {
    num_output: 1024
    weight_filler {
      type: "xavier"
      std: 0.02
    }
    bias_filler {
      type: "constant"
      value: 0.2
    }
  }
}
layer {
  name: "loss2/relu_fc"
  type: "ReLU"
  bottom: "loss2/fc"
  top: "loss2/fc"
}
layer {
  name: "loss2/drop_fc"
  type: "Dropout"
  bottom: "loss2/fc"
  top: "loss2/fc"
  dropout_param {
    dropout_ratio: 0.7
  }
}
layer {
  name: "loss2/classifier_plantvillage"
  type: "InnerProduct"
  bottom: "loss2/fc"
  top: "loss2/classifier_plantvillage"
  param {
    lr_mult: 1
    decay_mult: 1
  }
  param {
    lr_mult: 2
    decay_mult: 0
  }
  inner_product_param {
    num_output: 38
    weight_filler {
      type: "xavier"
      std: 0.0009765625
    }
    bias_filler {
      type: "constant"
      value: 0
    }
  }
}
layer {
  name: "inception_4e/1x1"
  type: "Convolution"
  bottom: "inception_4d/output"
  top: "inception_4e/1x1"
  param {
    lr_mult: 1
    decay_mult: 1
  }
  param {
    lr_mult: 2
    decay_mult: 0
  }
  convolution_param {
    num_output: 256
    kernel_size: 1
    weight_filler {
      type: "xavier"
      std: 0.03
    }
    bias_filler {
      type: "constant"
      value: 0.2
    }
  }
}
layer {
  name: "inception_4e/relu_1x1"
  type: "ReLU"
  bottom: "inception_4e/1x1"
  top: "inception_4e/1x1"
}
layer {
  name: "inception_4e/3x3_reduce"
  type: "Convolution"
  bottom: "inception_4d/output"
  top: "inception_4e/3x3_reduce"
  param {
    lr_mult: 1
    decay_mult: 1
  }
  param {
    lr_mult: 2
    decay_mult: 0
  }
  convolution_param {
    num_output: 160
    kernel_size: 1
    weight_filler {
      type: "xavier"
      std: 0.09
    }
    bias_filler {
      type: "constant"
      value: 0.2
    }
  }
}
layer {
  name: "inception_4e/relu_3x3_reduce"
  type: "ReLU"
  bottom: "inception_4e/3x3_reduce"
  top: "inception_4e/3x3_reduce"
}
layer {
  name: "inception_4e/3x3"
  type: "Convolution"
  bottom: "inception_4e/3x3_reduce"
  top: "inception_4e/3x3"
  param {
    lr_mult: 1
    decay_mult: 1
  }
  param {
    lr_mult: 2
    decay_mult: 0
  }
  convolution_param {
    num_output: 320
    pad: 1
    kernel_size: 3
    weight_filler {
      type: "xavier"
      std: 0.03
    }
    bias_filler {
      type: "constant"
      value: 0.2
    }
  }
}
layer {
  name: "inception_4e/relu_3x3"
  type: "ReLU"
  bottom: "inception_4e/3x3"
  top: "inception_4e/3x3"
}
layer {
  name: "inception_4e/5x5_reduce"
  type: "Convolution"
  bottom: "inception_4d/output"
  top: "inception_4e/5x5_reduce"
  param {
    lr_mult: 1
    decay_mult: 1
  }
  param {
    lr_mult: 2
    decay_mult: 0
  }
  convolution_param {
    num_output: 32
    kernel_size: 1
    weight_filler {
      type: "xavier"
      std: 0.2
    }
    bias_filler {
      type: "constant"
      value: 0.2
    }
  }
}
layer {
  name: "inception_4e/relu_5x5_reduce"
  type: "ReLU"
  bottom: "inception_4e/5x5_reduce"
  top: "inception_4e/5x5_reduce"
}
layer {
  name: "inception_4e/5x5"
  type: "Convolution"
  bottom: "inception_4e/5x5_reduce"
  top: "inception_4e/
I0403 18:04:26.995070 16066 layer_factory.hpp:77] Creating layer data
I0403 18:04:26.995688 16066 net.cpp:91] Creating Layer data
I0403 18:04:26.995723 16066 net.cpp:399] data -> data
I0403 18:04:26.995774 16066 net.cpp:399] data -> label
I0403 18:04:26.995810 16066 data_transformer.cpp:25] Loading mean file from: /home/mohanty/data/final_dataset/lmdb/grayscale-60-40/mean.binaryproto
I0403 18:04:26.997045 16069 db_lmdb.cpp:38] Opened lmdb /home/mohanty/data/final_dataset/lmdb/grayscale-60-40/test_db
I0403 18:04:27.009374 16066 data_layer.cpp:41] output data size: 24,3,224,224
I0403 18:04:27.036288 16066 net.cpp:141] Setting up data
I0403 18:04:27.036370 16066 net.cpp:148] Top shape: 24 3 224 224 (3612672)
I0403 18:04:27.036393 16066 net.cpp:148] Top shape: 24 (24)
I0403 18:04:27.036408 16066 net.cpp:156] Memory required for data: 14450784
I0403 18:04:27.036434 16066 layer_factory.hpp:77] Creating layer label_data_1_split
I0403 18:04:27.036461 16066 net.cpp:91] Creating Layer label_data_1_split
I0403 18:04:27.036479 16066 net.cpp:425] label_data_1_split <- label
I0403 18:04:27.036510 16066 net.cpp:399] label_data_1_split -> label_data_1_split_0
I0403 18:04:27.036538 16066 net.cpp:399] label_data_1_split -> label_data_1_split_1
I0403 18:04:27.036561 16066 net.cpp:399] label_data_1_split -> label_data_1_split_2
I0403 18:04:27.036582 16066 net.cpp:399] label_data_1_split -> label_data_1_split_3
I0403 18:04:27.036603 16066 net.cpp:399] label_data_1_split -> label_data_1_split_4
I0403 18:04:27.036624 16066 net.cpp:399] label_data_1_split -> label_data_1_split_5
I0403 18:04:27.036644 16066 net.cpp:399] label_data_1_split -> label_data_1_split_6
I0403 18:04:27.036666 16066 net.cpp:399] label_data_1_split -> label_data_1_split_7
I0403 18:04:27.036686 16066 net.cpp:399] label_data_1_split -> label_data_1_split_8
I0403 18:04:27.036707 16066 net.cpp:399] label_data_1_split -> label_data_1_split_9
I0403 18:04:27.036839 16066 net.cpp:141] Setting up label_data_1_split
I0403 18:04:27.036864 16066 net.cpp:148] Top shape: 24 (24)
I0403 18:04:27.036881 16066 net.cpp:148] Top shape: 24 (24)
I0403 18:04:27.036898 16066 net.cpp:148] Top shape: 24 (24)
I0403 18:04:27.036916 16066 net.cpp:148] Top shape: 24 (24)
I0403 18:04:27.036932 16066 net.cpp:148] Top shape: 24 (24)
I0403 18:04:27.036948 16066 net.cpp:148] Top shape: 24 (24)
I0403 18:04:27.036965 16066 net.cpp:148] Top shape: 24 (24)
I0403 18:04:27.036986 16066 net.cpp:148] Top shape: 24 (24)
I0403 18:04:27.037004 16066 net.cpp:148] Top shape: 24 (24)
I0403 18:04:27.037021 16066 net.cpp:148] Top shape: 24 (24)
I0403 18:04:27.037077 16066 net.cpp:156] Memory required for data: 14451744
I0403 18:04:27.037094 16066 layer_factory.hpp:77] Creating layer conv1/7x7_s2
I0403 18:04:27.037127 16066 net.cpp:91] Creating Layer conv1/7x7_s2
I0403 18:04:27.037145 16066 net.cpp:425] conv1/7x7_s2 <- data
I0403 18:04:27.037165 16066 net.cpp:399] conv1/7x7_s2 -> conv1/7x7_s2
I0403 18:04:27.179721 16066 net.cpp:141] Setting up conv1/7x7_s2
I0403 18:04:27.179808 16066 net.cpp:148] Top shape: 24 64 112 112 (19267584)
I0403 18:04:27.179826 16066 net.cpp:156] Memory required for data: 91522080
I0403 18:04:27.179857 16066 layer_factory.hpp:77] Creating layer conv1/relu_7x7
I0403 18:04:27.179884 16066 net.cpp:91] Creating Layer conv1/relu_7x7
I0403 18:04:27.179903 16066 net.cpp:425] conv1/relu_7x7 <- conv1/7x7_s2
I0403 18:04:27.179922 16066 net.cpp:386] conv1/relu_7x7 -> conv1/7x7_s2 (in-place)
I0403 18:04:27.180222 16066 net.cpp:141] Setting up conv1/relu_7x7
I0403 18:04:27.180249 16066 net.cpp:148] Top shape: 24 64 112 112 (19267584)
I0403 18:04:27.180265 16066 net.cpp:156] Memory required for data: 168592416
I0403 18:04:27.180280 16066 layer_factory.hpp:77] Creating layer pool1/3x3_s2
I0403 18:04:27.180305 16066 net.cpp:91] Creating Layer pool1/3x3_s2
I0403 18:04:27.180325 16066 net.cpp:425] pool1/3x3_s2 <- conv1/7x7_s2
I0403 18:04:27.180343 16066 net.cpp:399] pool1/3x3_s2 -> pool1/3x3_s2
I0403 18:04:27.180418 16066 net.cpp:141] Setting up pool1/3x3_s2
I0403 18:04:27.180441 16066 net.cpp:148] Top shape: 24 64 56 56 (4816896)
I0403 18:04:27.180455 16066 net.cpp:156] Memory required for data: 187860000
I0403 18:04:27.180470 16066 layer_factory.hpp:77] Creating layer pool1/norm1
I0403 18:04:27.180495 16066 net.cpp:91] Creating Layer pool1/norm1
I0403 18:04:27.180512 16066 net.cpp:425] pool1/norm1 <- pool1/3x3_s2
I0403 18:04:27.180531 16066 net.cpp:399] pool1/norm1 -> pool1/norm1
I0403 18:04:27.180824 16066 net.cpp:141] Setting up pool1/norm1
I0403 18:04:27.180851 16066 net.cpp:148] Top shape: 24 64 56 56 (4816896)
I0403 18:04:27.180867 16066 net.cpp:156] Memory required for data: 207127584
I0403 18:04:27.180882 16066 layer_factory.hpp:77] Creating layer conv2/3x3_reduce
I0403 18:04:27.180912 16066 net.cpp:91] Creating Layer conv2/3x3_reduce
I0403 18:04:27.180932 16066 net.cpp:425] conv2/3x3_reduce <- pool1/norm1
I0403 18:04:27.180951 16066 net.cpp:399] conv2/3x3_reduce -> conv2/3x3_reduce
I0403 18:04:27.182469 16066 net.cpp:141] Setting up conv2/3x3_reduce
I0403 18:04:27.182499 16066 net.cpp:148] Top shape: 24 64 56 56 (4816896)
I0403 18:04:27.182515 16066 net.cpp:156] Memory required for data: 226395168
I0403 18:04:27.182536 16066 layer_factory.hpp:77] Creating layer conv2/relu_3x3_reduce
I0403 18:04:27.182559 16066 net.cpp:91] Creating Layer conv2/relu_3x3_reduce
I0403 18:04:27.182575 16066 net.cpp:425] conv2/relu_3x3_reduce <- conv2/3x3_reduce
I0403 18:04:27.182592 16066 net.cpp:386] conv2/relu_3x3_reduce -> conv2/3x3_reduce (in-place)
I0403 18:04:27.182860 16066 net.cpp:141] Setting up conv2/relu_3x3_reduce
I0403 18:04:27.182886 16066 net.cpp:148] Top shape: 24 64 56 56 (4816896)
I0403 18:04:27.182903 16066 net.cpp:156] Memory required for data: 245662752
I0403 18:04:27.182917 16066 layer_factory.hpp:77] Creating layer conv2/3x3
I0403 18:04:27.182942 16066 net.cpp:91] Creating Layer conv2/3x3
I0403 18:04:27.182960 16066 net.cpp:425] conv2/3x3 <- conv2/3x3_reduce
I0403 18:04:27.182987 16066 net.cpp:399] conv2/3x3 -> conv2/3x3
I0403 18:04:27.185364 16066 net.cpp:141] Setting up conv2/3x3
I0403 18:04:27.185395 16066 net.cpp:148] Top shape: 24 192 56 56 (14450688)
I0403 18:04:27.185411 16066 net.cpp:156] Memory required for data: 303465504
I0403 18:04:27.185433 16066 layer_factory.hpp:77] Creating layer conv2/relu_3x3
I0403 18:04:27.185456 16066 net.cpp:91] Creating Layer conv2/relu_3x3
I0403 18:04:27.185472 16066 net.cpp:425] conv2/relu_3x3 <- conv2/3x3
I0403 18:04:27.185490 16066 net.cpp:386] conv2/relu_3x3 -> conv2/3x3 (in-place)
I0403 18:04:27.185752 16066 net.cpp:141] Setting up conv2/relu_3x3
I0403 18:04:27.185778 16066 net.cpp:148] Top shape: 24 192 56 56 (14450688)
I0403 18:04:27.185824 16066 net.cpp:156] Memory required for data: 361268256
I0403 18:04:27.185840 16066 layer_factory.hpp:77] Creating layer conv2/norm2
I0403 18:04:27.185861 16066 net.cpp:91] Creating Layer conv2/norm2
I0403 18:04:27.185878 16066 net.cpp:425] conv2/norm2 <- conv2/3x3
I0403 18:04:27.185899 16066 net.cpp:399] conv2/norm2 -> conv2/norm2
I0403 18:04:27.186208 16066 net.cpp:141] Setting up conv2/norm2
I0403 18:04:27.186238 16066 net.cpp:148] Top shape: 24 192 56 56 (14450688)
I0403 18:04:27.186254 16066 net.cpp:156] Memory required for data: 419071008
I0403 18:04:27.186269 16066 layer_factory.hpp:77] Creating layer pool2/3x3_s2
I0403 18:04:27.186287 16066 net.cpp:91] Creating Layer pool2/3x3_s2
I0403 18:04:27.186303 16066 net.cpp:425] pool2/3x3_s2 <- conv2/norm2
I0403 18:04:27.186324 16066 net.cpp:399] pool2/3x3_s2 -> pool2/3x3_s2
I0403 18:04:27.186378 16066 net.cpp:141] Setting up pool2/3x3_s2
I0403 18:04:27.186403 16066 net.cpp:148] Top shape: 24 192 28 28 (3612672)
I0403 18:04:27.186417 16066 net.cpp:156] Memory required for data: 433521696
I0403 18:04:27.186432 16066 layer_factory.hpp:77] Creating layer pool2/3x3_s2_pool2/3x3_s2_0_split
I0403 18:04:27.186450 16066 net.cpp:91] Creating Layer pool2/3x3_s2_pool2/3x3_s2_0_split
I0403 18:04:27.186465 16066 net.cpp:425] pool2/3x3_s2_pool2/3x3_s2_0_split <- pool2/3x3_s2
I0403 18:04:27.186482 16066 net.cpp:399] pool2/3x3_s2_pool2/3x3_s2_0_split -> pool2/3x3_s2_pool2/3x3_s2_0_split_0
I0403 18:04:27.186502 16066 net.cpp:399] pool2/3x3_s2_pool2/3x3_s2_0_split -> pool2/3x3_s2_pool2/3x3_s2_0_split_1
I0403 18:04:27.186524 16066 net.cpp:399] pool2/3x3_s2_pool2/3x3_s2_0_split -> pool2/3x3_s2_pool2/3x3_s2_0_split_2
I0403 18:04:27.186545 16066 net.cpp:399] pool2/3x3_s2_pool2/3x3_s2_0_split -> pool2/3x3_s2_pool2/3x3_s2_0_split_3
I0403 18:04:27.186615 16066 net.cpp:141] Setting up pool2/3x3_s2_pool2/3x3_s2_0_split
I0403 18:04:27.186640 16066 net.cpp:148] Top shape: 24 192 28 28 (3612672)
I0403 18:04:27.186655 16066 net.cpp:148] Top shape: 24 192 28 28 (3612672)
I0403 18:04:27.186671 16066 net.cpp:148] Top shape: 24 192 28 28 (3612672)
I0403 18:04:27.186686 16066 net.cpp:148] Top shape: 24 192 28 28 (3612672)
I0403 18:04:27.186700 16066 net.cpp:156] Memory required for data: 491324448
I0403 18:04:27.186714 16066 layer_factory.hpp:77] Creating layer inception_3a/1x1
I0403 18:04:27.186736 16066 net.cpp:91] Creating Layer inception_3a/1x1
I0403 18:04:27.186753 16066 net.cpp:425] inception_3a/1x1 <- pool2/3x3_s2_pool2/3x3_s2_0_split_0
I0403 18:04:27.186775 16066 net.cpp:399] inception_3a/1x1 -> inception_3a/1x1
I0403 18:04:27.188343 16066 net.cpp:141] Setting up inception_3a/1x1
I0403 18:04:27.188372 16066 net.cpp:148] Top shape: 24 64 28 28 (1204224)
I0403 18:04:27.188388 16066 net.cpp:156] Memory required for data: 496141344
I0403 18:04:27.188407 16066 layer_factory.hpp:77] Creating layer inception_3a/relu_1x1
I0403 18:04:27.188426 16066 net.cpp:91] Creating Layer inception_3a/relu_1x1
I0403 18:04:27.188443 16066 net.cpp:425] inception_3a/relu_1x1 <- inception_3a/1x1
I0403 18:04:27.188463 16066 net.cpp:386] inception_3a/relu_1x1 -> inception_3a/1x1 (in-place)
I0403 18:04:27.188640 16066 net.cpp:141] Setting up inception_3a/relu_1x1
I0403 18:04:27.188665 16066 net.cpp:148] Top shape: 24 64 28 28 (1204224)
I0403 18:04:27.188680 16066 net.cpp:156] Memory required for data: 500958240
I0403 18:04:27.188696 16066 layer_factory.hpp:77] Creating layer inception_3a/3x3_reduce
I0403 18:04:27.188719 16066 net.cpp:91] Creating Layer inception_3a/3x3_reduce
I0403 18:04:27.188736 16066 net.cpp:425] inception_3a/3x3_reduce <- pool2/3x3_s2_pool2/3x3_s2_0_split_1
I0403 18:04:27.188757 16066 net.cpp:399] inception_3a/3x3_reduce -> inception_3a/3x3_reduce
I0403 18:04:27.190510 16066 net.cpp:141] Setting up inception_3a/3x3_reduce
I0403 18:04:27.190539 16066 net.cpp:148] Top shape: 24 96 28 28 (1806336)
I0403 18:04:27.190556 16066 net.cpp:156] Memory required for data: 508183584
I0403 18:04:27.190577 16066 layer_factory.hpp:77] Creating layer inception_3a/relu_3x3_reduce
I0403 18:04:27.190615 16066 net.cpp:91] Creating Layer inception_3a/relu_3x3_reduce
I0403 18:04:27.190634 16066 net.cpp:425] inception_3a/relu_3x3_reduce <- inception_3a/3x3_reduce
I0403 18:04:27.190651 16066 net.cpp:386] inception_3a/relu_3x3_reduce -> inception_3a/3x3_reduce (in-place)
I0403 18:04:27.190832 16066 net.cpp:141] Setting up inception_3a/relu_3x3_reduce
I0403 18:04:27.190889 16066 net.cpp:148] Top shape: 24 96 28 28 (1806336)
I0403 18:04:27.190909 16066 net.cpp:156] Memory required for data: 515408928
I0403 18:04:27.190927 16066 layer_factory.hpp:77] Creating layer inception_3a/3x3
I0403 18:04:27.190951 16066 net.cpp:91] Creating Layer inception_3a/3x3
I0403 18:04:27.190969 16066 net.cpp:425] inception_3a/3x3 <- inception_3a/3x3_reduce
I0403 18:04:27.190994 16066 net.cpp:399] inception_3a/3x3 -> inception_3a/3x3
I0403 18:04:27.192718 16066 net.cpp:141] Setting up inception_3a/3x3
I0403 18:04:27.192746 16066 net.cpp:148] Top shape: 24 128 28 28 (2408448)
I0403 18:04:27.192762 16066 net.cpp:156] Memory required for data: 525042720
I0403 18:04:27.192780 16066 layer_factory.hpp:77] Creating layer inception_3a/relu_3x3
I0403 18:04:27.192801 16066 net.cpp:91] Creating Layer inception_3a/relu_3x3
I0403 18:04:27.192817 16066 net.cpp:425] inception_3a/relu_3x3 <- inception_3a/3x3
I0403 18:04:27.192836 16066 net.cpp:386] inception_3a/relu_3x3 -> inception_3a/3x3 (in-place)
I0403 18:04:27.193121 16066 net.cpp:141] Setting up inception_3a/relu_3x3
I0403 18:04:27.193148 16066 net.cpp:148] Top shape: 24 128 28 28 (2408448)
I0403 18:04:27.193164 16066 net.cpp:156] Memory required for data: 534676512
I0403 18:04:27.193179 16066 layer_factory.hpp:77] Creating layer inception_3a/5x5_reduce
I0403 18:04:27.193202 16066 net.cpp:91] Creating Layer inception_3a/5x5_reduce
I0403 18:04:27.193219 16066 net.cpp:425] inception_3a/5x5_reduce <- pool2/3x3_s2_pool2/3x3_s2_0_split_2
I0403 18:04:27.193241 16066 net.cpp:399] inception_3a/5x5_reduce -> inception_3a/5x5_reduce
I0403 18:04:27.194242 16066 net.cpp:141] Setting up inception_3a/5x5_reduce
I0403 18:04:27.194270 16066 net.cpp:148] Top shape: 24 16 28 28 (301056)
I0403 18:04:27.194286 16066 net.cpp:156] Memory required for data: 535880736
I0403 18:04:27.194305 16066 layer_factory.hpp:77] Creating layer inception_3a/relu_5x5_reduce
I0403 18:04:27.194325 16066 net.cpp:91] Creating Layer inception_3a/relu_5x5_reduce
I0403 18:04:27.194344 16066 net.cpp:425] inception_3a/relu_5x5_reduce <- inception_3a/5x5_reduce
I0403 18:04:27.194362 16066 net.cpp:386] inception_3a/relu_5x5_reduce -> inception_3a/5x5_reduce (in-place)
I0403 18:04:27.194665 16066 net.cpp:141] Setting up inception_3a/relu_5x5_reduce
I0403 18:04:27.194691 16066 net.cpp:148] Top shape: 24 16 28 28 (301056)
I0403 18:04:27.194707 16066 net.cpp:156] Memory required for data: 537084960
I0403 18:04:27.194722 16066 layer_factory.hpp:77] Creating layer inception_3a/5x5
I0403 18:04:27.194759 16066 net.cpp:91] Creating Layer inception_3a/5x5
I0403 18:04:27.194780 16066 net.cpp:425] inception_3a/5x5 <- inception_3a/5x5_reduce
I0403 18:04:27.194800 16066 net.cpp:399] inception_3a/5x5 -> inception_3a/5x5
I0403 18:04:27.195806 16066 net.cpp:141] Setting up inception_3a/5x5
I0403 18:04:27.195833 16066 net.cpp:148] Top shape: 24 32 28 28 (602112)
I0403 18:04:27.195849 16066 net.cpp:156] Memory required for data: 539493408
I0403 18:04:27.195868 16066 layer_factory.hpp:77] Creating layer inception_3a/relu_5x5
I0403 18:04:27.195886 16066 net.cpp:91] Creating Layer inception_3a/relu_5x5
I0403 18:04:27.195902 16066 net.cpp:425] inception_3a/relu_5x5 <- inception_3a/5x5
I0403 18:04:27.195922 16066 net.cpp:386] inception_3a/relu_5x5 -> inception_3a/5x5 (in-place)
I0403 18:04:27.196104 16066 net.cpp:141] Setting up inception_3a/relu_5x5
I0403 18:04:27.196128 16066 net.cpp:148] Top shape: 24 32 28 28 (602112)
I0403 18:04:27.196143 16066 net.cpp:156] Memory required for data: 541901856
I0403 18:04:27.196171 16066 layer_factory.hpp:77] Creating layer inception_3a/pool
I0403 18:04:27.196192 16066 net.cpp:91] Creating Layer inception_3a/pool
I0403 18:04:27.196223 16066 net.cpp:425] inception_3a/pool <- pool2/3x3_s2_pool2/3x3_s2_0_split_3
I0403 18:04:27.196244 16066 net.cpp:399] inception_3a/pool -> inception_3a/pool
I0403 18:04:27.196305 16066 net.cpp:141] Setting up inception_3a/pool
I0403 18:04:27.196328 16066 net.cpp:148] Top shape: 24 192 28 28 (3612672)
I0403 18:04:27.196344 16066 net.cpp:156] Memory required for data: 556352544
I0403 18:04:27.196359 16066 layer_factory.hpp:77] Creating layer inception_3a/pool_proj
I0403 18:04:27.196382 16066 net.cpp:91] Creating Layer inception_3a/pool_proj
I0403 18:04:27.196399 16066 net.cpp:425] inception_3a/pool_proj <- inception_3a/pool
I0403 18:04:27.196424 16066 net.cpp:399] inception_3a/pool_proj -> inception_3a/pool_proj
I0403 18:04:27.197401 16066 net.cpp:141] Setting up inception_3a/pool_proj
I0403 18:04:27.197432 16066 net.cpp:148] Top shape: 24 32 28 28 (602112)
I0403 18:04:27.197448 16066 net.cpp:156] Memory required for data: 558760992
I0403 18:04:27.197470 16066 layer_factory.hpp:77] Creating layer inception_3a/relu_pool_proj
I0403 18:04:27.197492 16066 net.cpp:91] Creating Layer inception_3a/relu_pool_proj
I0403 18:04:27.197510 16066 net.cpp:425] inception_3a/relu_pool_proj <- inception_3a/pool_proj
I0403 18:04:27.197526 16066 net.cpp:386] inception_3a/relu_pool_proj -> inception_3a/pool_proj (in-place)
I0403 18:04:27.197803 16066 net.cpp:141] Setting up inception_3a/relu_pool_proj
I0403 18:04:27.197829 16066 net.cpp:148] Top shape: 24 32 28 28 (602112)
I0403 18:04:27.197845 16066 net.cpp:156] Memory required for data: 561169440
I0403 18:04:27.197860 16066 layer_factory.hpp:77] Creating layer inception_3a/output
I0403 18:04:27.197877 16066 net.cpp:91] Creating Layer inception_3a/output
I0403 18:04:27.197893 16066 net.cpp:425] inception_3a/output <- inception_3a/1x1
I0403 18:04:27.197911 16066 net.cpp:425] inception_3a/output <- inception_3a/3x3
I0403 18:04:27.197928 16066 net.cpp:425] inception_3a/output <- inception_3a/5x5
I0403 18:04:27.197944 16066 net.cpp:425] inception_3a/output <- inception_3a/pool_proj
I0403 18:04:27.197964 16066 net.cpp:399] inception_3a/output -> inception_3a/output
I0403 18:04:27.198024 16066 net.cpp:141] Setting up inception_3a/output
I0403 18:04:27.198048 16066 net.cpp:148] Top shape: 24 256 28 28 (4816896)
I0403 18:04:27.198063 16066 net.cpp:156] Memory required for data: 580437024
I0403 18:04:27.198078 16066 layer_factory.hpp:77] Creating layer inception_3a/output_inception_3a/output_0_split
I0403 18:04:27.198096 16066 net.cpp:91] Creating Layer inception_3a/output_inception_3a/output_0_split
I0403 18:04:27.198110 16066 net.cpp:425] inception_3a/output_inception_3a/output_0_split <- inception_3a/output
I0403 18:04:27.198130 16066 net.cpp:399] inception_3a/output_inception_3a/output_0_split -> inception_3a/output_inception_3a/output_0_split_0
I0403 18:04:27.198151 16066 net.cpp:399] inception_3a/output_inception_3a/output_0_split -> inception_3a/output_inception_3a/output_0_split_1
I0403 18:04:27.198174 16066 net.cpp:399] inception_3a/output_inception_3a/output_0_split -> inception_3a/output_inception_3a/output_0_split_2
I0403 18:04:27.198195 16066 net.cpp:399] inception_3a/output_inception_3a/output_0_split -> inception_3a/output_inception_3a/output_0_split_3
I0403 18:04:27.198274 16066 net.cpp:141] Setting up inception_3a/output_inception_3a/output_0_split
I0403 18:04:27.198297 16066 net.cpp:148] Top shape: 24 256 28 28 (4816896)
I0403 18:04:27.198313 16066 net.cpp:148] Top shape: 24 256 28 28 (4816896)
I0403 18:04:27.198329 16066 net.cpp:148] Top shape: 24 256 28 28 (4816896)
I0403 18:04:27.198344 16066 net.cpp:148] Top shape: 24 256 28 28 (4816896)
I0403 18:04:27.198359 16066 net.cpp:156] Memory required for data: 657507360
I0403 18:04:27.198374 16066 layer_factory.hpp:77] Creating layer inception_3b/1x1
I0403 18:04:27.198395 16066 net.cpp:91] Creating Layer inception_3b/1x1
I0403 18:04:27.198412 16066 net.cpp:425] inception_3b/1x1 <- inception_3a/output_inception_3a/output_0_split_0
I0403 18:04:27.198434 16066 net.cpp:399] inception_3b/1x1 -> inception_3b/1x1
I0403 18:04:27.199569 16066 net.cpp:141] Setting up inception_3b/1x1
I0403 18:04:27.199611 16066 net.cpp:148] Top shape: 24 128 28 28 (2408448)
I0403 18:04:27.199628 16066 net.cpp:156] Memory required for data: 667141152
I0403 18:04:27.199647 16066 layer_factory.hpp:77] Creating layer inception_3b/relu_1x1
I0403 18:04:27.199666 16066 net.cpp:91] Creating Layer inception_3b/relu_1x1
I0403 18:04:27.199682 16066 net.cpp:425] inception_3b/relu_1x1 <- inception_3b/1x1
I0403 18:04:27.199705 16066 net.cpp:386] inception_3b/relu_1x1 -> inception_3b/1x1 (in-place)
I0403 18:04:27.199883 16066 net.cpp:141] Setting up inception_3b/relu_1x1
I0403 18:04:27.199908 16066 net.cpp:148] Top shape: 24 128 28 28 (2408448)
I0403 18:04:27.199924 16066 net.cpp:156] Memory required for data: 676774944
I0403 18:04:27.199940 16066 layer_factory.hpp:77] Creating layer inception_3b/3x3_reduce
I0403 18:04:27.199962 16066 net.cpp:91] Creating Layer inception_3b/3x3_reduce
I0403 18:04:27.199985 16066 net.cpp:425] inception_3b/3x3_reduce <- inception_3a/output_inception_3a/output_0_split_1
I0403 18:04:27.200007 16066 net.cpp:399] inception_3b/3x3_reduce -> inception_3b/3x3_reduce
I0403 18:04:27.201153 16066 net.cpp:141] Setting up inception_3b/3x3_reduce
I0403 18:04:27.201181 16066 net.cpp:148] Top shape: 24 128 28 28 (2408448)
I0403 18:04:27.201210 16066 net.cpp:156] Memory required for data: 686408736
I0403 18:04:27.201241 16066 layer_factory.hpp:77] Creating layer inception_3b/relu_3x3_reduce
I0403 18:04:27.201261 16066 net.cpp:91] Creating Layer inception_3b/relu_3x3_reduce
I0403 18:04:27.201277 16066 net.cpp:425] inception_3b/relu_3x3_reduce <- inception_3b/3x3_reduce
I0403 18:04:27.201299 16066 net.cpp:386] inception_3b/relu_3x3_reduce -> inception_3b/3x3_reduce (in-place)
I0403 18:04:27.201504 16066 net.cpp:141] Setting up inception_3b/relu_3x3_reduce
I0403 18:04:27.201529 16066 net.cpp:148] Top shape: 24 128 28 28 (2408448)
I0403 18:04:27.201545 16066 net.cpp:156] Memory required for data: 696042528
I0403 18:04:27.201560 16066 layer_factory.hpp:77] Creating layer inception_3b/3x3
I0403 18:04:27.201586 16066 net.cpp:91] Creating Layer inception_3b/3x3
I0403 18:04:27.201604 16066 net.cpp:425] inception_3b/3x3 <- inception_3b/3x3_reduce
I0403 18:04:27.201623 16066 net.cpp:399] inception_3b/3x3 -> inception_3b/3x3
I0403 18:04:27.204516 16066 net.cpp:141] Setting up inception_3b/3x3
I0403 18:04:27.204545 16066 net.cpp:148] Top shape: 24 192 28 28 (3612672)
I0403 18:04:27.204561 16066 net.cpp:156] Memory required for data: 710493216
I0403 18:04:27.204581 16066 layer_factory.hpp:77] Creating layer inception_3b/relu_3x3
I0403 18:04:27.204602 16066 net.cpp:91] Creating Layer inception_3b/relu_3x3
I0403 18:04:27.204618 16066 net.cpp:425] inception_3b/relu_3x3 <- inception_3b/3x3
I0403 18:04:27.204637 16066 net.cpp:386] inception_3b/relu_3x3 -> inception_3b/3x3 (in-place)
I0403 18:04:27.204911 16066 net.cpp:141] Setting up inception_3b/relu_3x3
I0403 18:04:27.204937 16066 net.cpp:148] Top shape: 24 192 28 28 (3612672)
I0403 18:04:27.204953 16066 net.cpp:156] Memory required for data: 724943904
I0403 18:04:27.204968 16066 layer_factory.hpp:77] Creating layer inception_3b/5x5_reduce
I0403 18:04:27.204998 16066 net.cpp:91] Creating Layer inception_3b/5x5_reduce
I0403 18:04:27.205015 16066 net.cpp:425] inception_3b/5x5_reduce <- inception_3a/output_inception_3a/output_0_split_2
I0403 18:04:27.205037 16066 net.cpp:399] inception_3b/5x5_reduce -> inception_3b/5x5_reduce
I0403 18:04:27.206030 16066 net.cpp:141] Setting up inception_3b/5x5_reduce
I0403 18:04:27.206058 16066 net.cpp:148] Top shape: 24 32 28 28 (602112)
I0403 18:04:27.206074 16066 net.cpp:156] Memory required for data: 727352352
I0403 18:04:27.206092 16066 layer_factory.hpp:77] Creating layer inception_3b/relu_5x5_reduce
I0403 18:04:27.206113 16066 net.cpp:91] Creating Layer inception_3b/relu_5x5_reduce
I0403 18:04:27.206131 16066 net.cpp:425] inception_3b/relu_5x5_reduce <- inception_3b/5x5_reduce
I0403 18:04:27.206148 16066 net.cpp:386] inception_3b/relu_5x5_reduce -> inception_3b/5x5_reduce (in-place)
I0403 18:04:27.206341 16066 net.cpp:141] Setting up inception_3b/relu_5x5_reduce
I0403 18:04:27.206365 16066 net.cpp:148] Top shape: 24 32 28 28 (602112)
I0403 18:04:27.206382 16066 net.cpp:156] Memory required for data: 729760800
I0403 18:04:27.206398 16066 layer_factory.hpp:77] Creating layer inception_3b/5x5
I0403 18:04:27.206418 16066 net.cpp:91] Creating Layer inception_3b/5x5
I0403 18:04:27.206435 16066 net.cpp:425] inception_3b/5x5 <- inception_3b/5x5_reduce
I0403 18:04:27.206456 16066 net.cpp:399] inception_3b/5x5 -> inception_3b/5x5
I0403 18:04:27.208437 16066 net.cpp:141] Setting up inception_3b/5x5
I0403 18:04:27.208467 16066 net.cpp:148] Top shape: 24 96 28 28 (1806336)
I0403 18:04:27.208482 16066 net.cpp:156] Memory required for data: 736986144
I0403 18:04:27.208503 16066 layer_factory.hpp:77] Creating layer inception_3b/relu_5x5
I0403 18:04:27.208520 16066 net.cpp:91] Creating Layer inception_3b/relu_5x5
I0403 18:04:27.208537 16066 net.cpp:425] inception_3b/relu_5x5 <- inception_3b/5x5
I0403 18:04:27.208556 16066 net.cpp:386] inception_3b/relu_5x5 -> inception_3b/5x5 (in-place)
I0403 18:04:27.208747 16066 net.cpp:141] Setting up inception_3b/relu_5x5
I0403 18:04:27.208772 16066 net.cpp:148] Top shape: 24 96 28 28 (1806336)
I0403 18:04:27.208789 16066 net.cpp:156] Memory required for data: 744211488
I0403 18:04:27.208804 16066 layer_factory.hpp:77] Creating layer inception_3b/pool
I0403 18:04:27.208822 16066 net.cpp:91] Creating Layer inception_3b/pool
I0403 18:04:27.208838 16066 net.cpp:425] inception_3b/pool <- inception_3a/output_inception_3a/output_0_split_3
I0403 18:04:27.208858 16066 net.cpp:399] inception_3b/pool -> inception_3b/pool
I0403 18:04:27.208915 16066 net.cpp:141] Setting up inception_3b/pool
I0403 18:04:27.208940 16066 net.cpp:148] Top shape: 24 256 28 28 (4816896)
I0403 18:04:27.208955 16066 net.cpp:156] Memory required for data: 763479072
I0403 18:04:27.208969 16066 layer_factory.hpp:77] Creating layer inception_3b/pool_proj
I0403 18:04:27.209010 16066 net.cpp:91] Creating Layer inception_3b/pool_proj
I0403 18:04:27.209030 16066 net.cpp:425] inception_3b/pool_proj <- inception_3b/pool
I0403 18:04:27.209064 16066 net.cpp:399] inception_3b/pool_proj -> inception_3b/pool_proj
I0403 18:04:27.210186 16066 net.cpp:141] Setting up inception_3b/pool_proj
I0403 18:04:27.210217 16066 net.cpp:148] Top shape: 24 64 28 28 (1204224)
I0403 18:04:27.210234 16066 net.cpp:156] Memory required for data: 768295968
I0403 18:04:27.210253 16066 layer_factory.hpp:77] Creating layer inception_3b/relu_pool_proj
I0403 18:04:27.210273 16066 net.cpp:91] Creating Layer inception_3b/relu_pool_proj
I0403 18:04:27.210289 16066 net.cpp:425] inception_3b/relu_pool_proj <- inception_3b/pool_proj
I0403 18:04:27.210307 16066 net.cpp:386] inception_3b/relu_pool_proj -> inception_3b/pool_proj (in-place)
I0403 18:04:27.210728 16066 net.cpp:141] Setting up inception_3b/relu_pool_proj
I0403 18:04:27.210755 16066 net.cpp:148] Top shape: 24 64 28 28 (1204224)
I0403 18:04:27.210772 16066 net.cpp:156] Memory required for data: 773112864
I0403 18:04:27.210788 16066 layer_factory.hpp:77] Creating layer inception_3b/output
I0403 18:04:27.210808 16066 net.cpp:91] Creating Layer inception_3b/output
I0403 18:04:27.210824 16066 net.cpp:425] inception_3b/output <- inception_3b/1x1
I0403 18:04:27.210841 16066 net.cpp:425] inception_3b/output <- inception_3b/3x3
I0403 18:04:27.210858 16066 net.cpp:425] inception_3b/output <- inception_3b/5x5
I0403 18:04:27.210875 16066 net.cpp:425] inception_3b/output <- inception_3b/pool_proj
I0403 18:04:27.210893 16066 net.cpp:399] inception_3b/output -> inception_3b/output
I0403 18:04:27.210940 16066 net.cpp:141] Setting up inception_3b/output
I0403 18:04:27.210964 16066 net.cpp:148] Top shape: 24 480 28 28 (9031680)
I0403 18:04:27.210983 16066 net.cpp:156] Memory required for data: 809239584
I0403 18:04:27.211000 16066 layer_factory.hpp:77] Creating layer pool3/3x3_s2
I0403 18:04:27.211019 16066 net.cpp:91] Creating Layer pool3/3x3_s2
I0403 18:04:27.211035 16066 net.cpp:425] pool3/3x3_s2 <- inception_3b/output
I0403 18:04:27.211071 16066 net.cpp:399] pool3/3x3_s2 -> pool3/3x3_s2
I0403 18:04:27.211133 16066 net.cpp:141] Setting up pool3/3x3_s2
I0403 18:04:27.211156 16066 net.cpp:148] Top shape: 24 480 14 14 (2257920)
I0403 18:04:27.211171 16066 net.cpp:156] Memory required for data: 818271264
I0403 18:04:27.211186 16066 layer_factory.hpp:77] Creating layer pool3/3x3_s2_pool3/3x3_s2_0_split
I0403 18:04:27.211206 16066 net.cpp:91] Creating Layer pool3/3x3_s2_pool3/3x3_s2_0_split
I0403 18:04:27.211222 16066 net.cpp:425] pool3/3x3_s2_pool3/3x3_s2_0_split <- pool3/3x3_s2
I0403 18:04:27.211243 16066 net.cpp:399] pool3/3x3_s2_pool3/3x3_s2_0_split -> pool3/3x3_s2_pool3/3x3_s2_0_split_0
I0403 18:04:27.211264 16066 net.cpp:399] pool3/3x3_s2_pool3/3x3_s2_0_split -> pool3/3x3_s2_pool3/3x3_s2_0_split_1
I0403 18:04:27.211285 16066 net.cpp:399] pool3/3x3_s2_pool3/3x3_s2_0_split -> pool3/3x3_s2_pool3/3x3_s2_0_split_2
I0403 18:04:27.211307 16066 net.cpp:399] pool3/3x3_s2_pool3/3x3_s2_0_split -> pool3/3x3_s2_pool3/3x3_s2_0_split_3
I0403 18:04:27.211383 16066 net.cpp:141] Setting up pool3/3x3_s2_pool3/3x3_s2_0_split
I0403 18:04:27.211408 16066 net.cpp:148] Top shape: 24 480 14 14 (2257920)
I0403 18:04:27.211426 16066 net.cpp:148] Top shape: 24 480 14 14 (2257920)
I0403 18:04:27.211442 16066 net.cpp:148] Top shape: 24 480 14 14 (2257920)
I0403 18:04:27.211458 16066 net.cpp:148] Top shape: 24 480 14 14 (2257920)
I0403 18:04:27.211473 16066 net.cpp:156] Memory required for data: 854397984
I0403 18:04:27.211488 16066 layer_factory.hpp:77] Creating layer inception_4a/1x1
I0403 18:04:27.211508 16066 net.cpp:91] Creating Layer inception_4a/1x1
I0403 18:04:27.211525 16066 net.cpp:425] inception_4a/1x1 <- pool3/3x3_s2_pool3/3x3_s2_0_split_0
I0403 18:04:27.211547 16066 net.cpp:399] inception_4a/1x1 -> inception_4a/1x1
I0403 18:04:27.213178 16066 net.cpp:141] Setting up inception_4a/1x1
I0403 18:04:27.213209 16066 net.cpp:148] Top shape: 24 192 14 14 (903168)
I0403 18:04:27.213227 16066 net.cpp:156] Memory required for data: 858010656
I0403 18:04:27.213248 16066 layer_factory.hpp:77] Creating layer inception_4a/relu_1x1
I0403 18:04:27.213266 16066 net.cpp:91] Creating Layer inception_4a/relu_1x1
I0403 18:04:27.213284 16066 net.cpp:425] inception_4a/relu_1x1 <- inception_4a/1x1
I0403 18:04:27.213301 16066 net.cpp:386] inception_4a/relu_1x1 -> inception_4a/1x1 (in-place)
I0403 18:04:27.213485 16066 net.cpp:141] Setting up inception_4a/relu_1x1
I0403 18:04:27.213510 16066 net.cpp:148] Top shape: 24 192 14 14 (903168)
I0403 18:04:27.213526 16066 net.cpp:156] Memory required for data: 861623328
I0403 18:04:27.213541 16066 layer_factory.hpp:77] Creating layer inception_4a/3x3_reduce
I0403 18:04:27.213564 16066 net.cpp:91] Creating Layer inception_4a/3x3_reduce
I0403 18:04:27.213583 16066 net.cpp:425] inception_4a/3x3_reduce <- pool3/3x3_s2_pool3/3x3_s2_0_split_1
I0403 18:04:27.213605 16066 net.cpp:399] inception_4a/3x3_reduce -> inception_4a/3x3_reduce
I0403 18:04:27.214920 16066 net.cpp:141] Setting up inception_4a/3x3_reduce
I0403 18:04:27.214951 16066 net.cpp:148] Top shape: 24 96 14 14 (451584)
I0403 18:04:27.214967 16066 net.cpp:156] Memory required for data: 863429664
I0403 18:04:27.214998 16066 layer_factory.hpp:77] Creating layer inception_4a/relu_3x3_reduce
I0403 18:04:27.215018 16066 net.cpp:91] Creating Layer inception_4a/relu_3x3_reduce
I0403 18:04:27.215035 16066 net.cpp:425] inception_4a/relu_3x3_reduce <- inception_4a/3x3_reduce
I0403 18:04:27.215054 16066 net.cpp:386] inception_4a/relu_3x3_reduce -> inception_4a/3x3_reduce (in-place)
I0403 18:04:27.215236 16066 net.cpp:141] Setting up inception_4a/relu_3x3_reduce
I0403 18:04:27.215265 16066 net.cpp:148] Top shape: 24 96 14 14 (451584)
I0403 18:04:27.215281 16066 net.cpp:156] Memory required for data: 865236000
I0403 18:04:27.215296 16066 layer_factory.hpp:77] Creating layer inception_4a/3x3
I0403 18:04:27.215319 16066 net.cpp:91] Creating Layer inception_4a/3x3
I0403 18:04:27.215337 16066 net.cpp:425] inception_4a/3x3 <- inception_4a/3x3_reduce
I0403 18:04:27.215358 16066 net.cpp:399] inception_4a/3x3 -> inception_4a/3x3
I0403 18:04:27.218127 16066 net.cpp:141] Setting up inception_4a/3x3
I0403 18:04:27.218157 16066 net.cpp:148] Top shape: 24 208 14 14 (978432)
I0403 18:04:27.218173 16066 net.cpp:156] Memory required for data: 869149728
I0403 18:04:27.218194 16066 layer_factory.hpp:77] Creating layer inception_4a/relu_3x3
I0403 18:04:27.218211 16066 net.cpp:91] Creating Layer inception_4a/relu_3x3
I0403 18:04:27.218228 16066 net.cpp:425] inception_4a/relu_3x3 <- inception_4a/3x3
I0403 18:04:27.218250 16066 net.cpp:386] inception_4a/relu_3x3 -> inception_4a/3x3 (in-place)
I0403 18:04:27.218543 16066 net.cpp:141] Setting up inception_4a/relu_3x3
I0403 18:04:27.218569 16066 net.cpp:148] Top shape: 24 208 14 14 (978432)
I0403 18:04:27.218585 16066 net.cpp:156] Memory required for data: 873063456
I0403 18:04:27.218600 16066 layer_factory.hpp:77] Creating layer inception_4a/5x5_reduce
I0403 18:04:27.218624 16066 net.cpp:91] Creating Layer inception_4a/5x5_reduce
I0403 18:04:27.218652 16066 net.cpp:425] inception_4a/5x5_reduce <- pool3/3x3_s2_pool3/3x3_s2_0_split_2
I0403 18:04:27.218677 16066 net.cpp:399] inception_4a/5x5_reduce -> inception_4a/5x5_reduce
I0403 18:04:27.219732 16066 net.cpp:141] Setting up inception_4a/5x5_reduce
I0403 18:04:27.219759 16066 net.cpp:148] Top shape: 24 16 14 14 (75264)
I0403 18:04:27.219775 16066 net.cpp:156] Memory required for data: 873364512
I0403 18:04:27.219794 16066 layer_factory.hpp:77] Creating layer inception_4a/relu_5x5_reduce
I0403 18:04:27.219815 16066 net.cpp:91] Creating Layer inception_4a/relu_5x5_reduce
I0403 18:04:27.219831 16066 net.cpp:425] inception_4a/relu_5x5_reduce <- inception_4a/5x5_reduce
I0403 18:04:27.219851 16066 net.cpp:386] inception_4a/relu_5x5_reduce -> inception_4a/5x5_reduce (in-place)
I0403 18:04:27.220043 16066 net.cpp:141] Setting up inception_4a/relu_5x5_reduce
I0403 18:04:27.220069 16066 net.cpp:148] Top shape: 24 16 14 14 (75264)
I0403 18:04:27.220084 16066 net.cpp:156] Memory required for data: 873665568
I0403 18:04:27.220100 16066 layer_factory.hpp:77] Creating layer inception_4a/5x5
I0403 18:04:27.220124 16066 net.cpp:91] Creating Layer inception_4a/5x5
I0403 18:04:27.220141 16066 net.cpp:425] inception_4a/5x5 <- inception_4a/5x5_reduce
I0403 18:04:27.220163 16066 net.cpp:399] inception_4a/5x5 -> inception_4a/5x5
I0403 18:04:27.221287 16066 net.cpp:141] Setting up inception_4a/5x5
I0403 18:04:27.221315 16066 net.cpp:148] Top shape: 24 48 14 14 (225792)
I0403 18:04:27.221331 16066 net.cpp:156] Memory required for data: 874568736
I0403 18:04:27.221349 16066 layer_factory.hpp:77] Creating layer inception_4a/relu_5x5
I0403 18:04:27.221370 16066 net.cpp:91] Creating Layer inception_4a/relu_5x5
I0403 18:04:27.221387 16066 net.cpp:425] inception_4a/relu_5x5 <- inception_4a/5x5
I0403 18:04:27.221405 16066 net.cpp:386] inception_4a/relu_5x5 -> inception_4a/5x5 (in-place)
I0403 18:04:27.221586 16066 net.cpp:141] Setting up inception_4a/relu_5x5
I0403 18:04:27.221613 16066 net.cpp:148] Top shape: 24 48 14 14 (225792)
I0403 18:04:27.221628 16066 net.cpp:156] Memory required for data: 875471904
I0403 18:04:27.221644 16066 layer_factory.hpp:77] Creating layer inception_4a/pool
I0403 18:04:27.221662 16066 net.cpp:91] Creating Layer inception_4a/pool
I0403 18:04:27.221678 16066 net.cpp:425] inception_4a/pool <- pool3/3x3_s2_pool3/3x3_s2_0_split_3
I0403 18:04:27.221698 16066 net.cpp:399] inception_4a/pool -> inception_4a/pool
I0403 18:04:27.221760 16066 net.cpp:141] Setting up inception_4a/pool
I0403 18:04:27.221784 16066 net.cpp:148] Top shape: 24 480 14 14 (2257920)
I0403 18:04:27.221799 16066 net.cpp:156] Memory required for data: 884503584
I0403 18:04:27.221813 16066 layer_factory.hpp:77] Creating layer inception_4a/pool_proj
I0403 18:04:27.221837 16066 net.cpp:91] Creating Layer inception_4a/pool_proj
I0403 18:04:27.221854 16066 net.cpp:425] inception_4a/pool_proj <- inception_4a/pool
I0403 18:04:27.221873 16066 net.cpp:399] inception_4a/pool_proj -> inception_4a/pool_proj
I0403 18:04:27.223052 16066 net.cpp:141] Setting up inception_4a/pool_proj
I0403 18:04:27.223083 16066 net.cpp:148] Top shape: 24 64 14 14 (301056)
I0403 18:04:27.223114 16066 net.cpp:156] Memory required for data: 885707808
I0403 18:04:27.223135 16066 layer_factory.hpp:77] Creating layer inception_4a/relu_pool_proj
I0403 18:04:27.223155 16066 net.cpp:91] Creating Layer inception_4a/relu_pool_proj
I0403 18:04:27.223170 16066 net.cpp:425] inception_4a/relu_pool_proj <- inception_4a/pool_proj
I0403 18:04:27.223189 16066 net.cpp:386] inception_4a/relu_pool_proj -> inception_4a/pool_proj (in-place)
I0403 18:04:27.223477 16066 net.cpp:141] Setting up inception_4a/relu_pool_proj
I0403 18:04:27.223506 16066 net.cpp:148] Top shape: 24 64 14 14 (301056)
I0403 18:04:27.223522 16066 net.cpp:156] Memory required for data: 886912032
I0403 18:04:27.223537 16066 layer_factory.hpp:77] Creating layer inception_4a/output
I0403 18:04:27.223554 16066 net.cpp:91] Creating Layer inception_4a/output
I0403 18:04:27.223570 16066 net.cpp:425] inception_4a/output <- inception_4a/1x1
I0403 18:04:27.223588 16066 net.cpp:425] inception_4a/output <- inception_4a/3x3
I0403 18:04:27.223605 16066 net.cpp:425] inception_4a/output <- inception_4a/5x5
I0403 18:04:27.223621 16066 net.cpp:425] inception_4a/output <- inception_4a/pool_proj
I0403 18:04:27.223639 16066 net.cpp:399] inception_4a/output -> inception_4a/output
I0403 18:04:27.223685 16066 net.cpp:141] Setting up inception_4a/output
I0403 18:04:27.223707 16066 net.cpp:148] Top shape: 24 512 14 14 (2408448)
I0403 18:04:27.223722 16066 net.cpp:156] Memory required for data: 896545824
I0403 18:04:27.223738 16066 layer_factory.hpp:77] Creating layer inception_4a/output_inception_4a/output_0_split
I0403 18:04:27.223755 16066 net.cpp:91] Creating Layer inception_4a/output_inception_4a/output_0_split
I0403 18:04:27.223772 16066 net.cpp:425] inception_4a/output_inception_4a/output_0_split <- inception_4a/output
I0403 18:04:27.223790 16066 net.cpp:399] inception_4a/output_inception_4a/output_0_split -> inception_4a/output_inception_4a/output_0_split_0
I0403 18:04:27.223812 16066 net.cpp:399] inception_4a/output_inception_4a/output_0_split -> inception_4a/output_inception_4a/output_0_split_1
I0403 18:04:27.223834 16066 net.cpp:399] inception_4a/output_inception_4a/output_0_split -> inception_4a/output_inception_4a/output_0_split_2
I0403 18:04:27.223857 16066 net.cpp:399] inception_4a/output_inception_4a/output_0_split -> inception_4a/output_inception_4a/output_0_split_3
I0403 18:04:27.223877 16066 net.cpp:399] inception_4a/output_inception_4a/output_0_split -> inception_4a/output_inception_4a/output_0_split_4
I0403 18:04:27.223970 16066 net.cpp:141] Setting up inception_4a/output_inception_4a/output_0_split
I0403 18:04:27.223997 16066 net.cpp:148] Top shape: 24 512 14 14 (2408448)
I0403 18:04:27.224014 16066 net.cpp:148] Top shape: 24 512 14 14 (2408448)
I0403 18:04:27.224030 16066 net.cpp:148] Top shape: 24 512 14 14 (2408448)
I0403 18:04:27.224046 16066 net.cpp:148] Top shape: 24 512 14 14 (2408448)
I0403 18:04:27.224062 16066 net.cpp:148] Top shape: 24 512 14 14 (2408448)
I0403 18:04:27.224076 16066 net.cpp:156] Memory required for data: 944714784
I0403 18:04:27.224092 16066 layer_factory.hpp:77] Creating layer loss1/ave_pool
I0403 18:04:27.224108 16066 net.cpp:91] Creating Layer loss1/ave_pool
I0403 18:04:27.224124 16066 net.cpp:425] loss1/ave_pool <- inception_4a/output_inception_4a/output_0_split_0
I0403 18:04:27.224145 16066 net.cpp:399] loss1/ave_pool -> loss1/ave_pool
I0403 18:04:27.224352 16066 net.cpp:141] Setting up loss1/ave_pool
I0403 18:04:27.224383 16066 net.cpp:148] Top shape: 24 512 4 4 (196608)
I0403 18:04:27.224400 16066 net.cpp:156] Memory required for data: 945501216
I0403 18:04:27.224414 16066 layer_factory.hpp:77] Creating layer loss1/conv
I0403 18:04:27.224436 16066 net.cpp:91] Creating Layer loss1/conv
I0403 18:04:27.224454 16066 net.cpp:425] loss1/conv <- loss1/ave_pool
I0403 18:04:27.224473 16066 net.cpp:399] loss1/conv -> loss1/conv
I0403 18:04:27.225893 16066 net.cpp:141] Setting up loss1/conv
I0403 18:04:27.225921 16066 net.cpp:148] Top shape: 24 128 4 4 (49152)
I0403 18:04:27.225950 16066 net.cpp:156] Memory required for data: 945697824
I0403 18:04:27.225970 16066 layer_factory.hpp:77] Creating layer loss1/relu_conv
I0403 18:04:27.225993 16066 net.cpp:91] Creating Layer loss1/relu_conv
I0403 18:04:27.226011 16066 net.cpp:425] loss1/relu_conv <- loss1/conv
I0403 18:04:27.226032 16066 net.cpp:386] loss1/relu_conv -> loss1/conv (in-place)
I0403 18:04:27.226317 16066 net.cpp:141] Setting up loss1/relu_conv
I0403 18:04:27.226343 16066 net.cpp:148] Top shape: 24 128 4 4 (49152)
I0403 18:04:27.226359 16066 net.cpp:156] Memory required for data: 945894432
I0403 18:04:27.226374 16066 layer_factory.hpp:77] Creating layer loss1/fc
I0403 18:04:27.226398 16066 net.cpp:91] Creating Layer loss1/fc
I0403 18:04:27.226416 16066 net.cpp:425] loss1/fc <- loss1/conv
I0403 18:04:27.226438 16066 net.cpp:399] loss1/fc -> loss1/fc
I0403 18:04:27.243662 16066 net.cpp:141] Setting up loss1/fc
I0403 18:04:27.243695 16066 net.cpp:148] Top shape: 24 1024 (24576)
I0403 18:04:27.243710 16066 net.cpp:156] Memory required for data: 945992736
I0403 18:04:27.243727 16066 layer_factory.hpp:77] Creating layer loss1/relu_fc
I0403 18:04:27.243746 16066 net.cpp:91] Creating Layer loss1/relu_fc
I0403 18:04:27.243762 16066 net.cpp:425] loss1/relu_fc <- loss1/fc
I0403 18:04:27.243778 16066 net.cpp:386] loss1/relu_fc -> loss1/fc (in-place)
I0403 18:04:27.243964 16066 net.cpp:141] Setting up loss1/relu_fc
I0403 18:04:27.243993 16066 net.cpp:148] Top shape: 24 1024 (24576)
I0403 18:04:27.244007 16066 net.cpp:156] Memory required for data: 946091040
I0403 18:04:27.244024 16066 layer_factory.hpp:77] Creating layer loss1/drop_fc
I0403 18:04:27.244051 16066 net.cpp:91] Creating Layer loss1/drop_fc
I0403 18:04:27.244070 16066 net.cpp:425] loss1/drop_fc <- loss1/fc
I0403 18:04:27.244089 16066 net.cpp:386] loss1/drop_fc -> loss1/fc (in-place)
I0403 18:04:27.244140 16066 net.cpp:141] Setting up loss1/drop_fc
I0403 18:04:27.244163 16066 net.cpp:148] Top shape: 24 1024 (24576)
I0403 18:04:27.244177 16066 net.cpp:156] Memory required for data: 946189344
I0403 18:04:27.244192 16066 layer_factory.hpp:77] Creating layer loss1/classifier_plantvillage
I0403 18:04:27.244213 16066 net.cpp:91] Creating Layer loss1/classifier_plantvillage
I0403 18:04:27.244231 16066 net.cpp:425] loss1/classifier_plantvillage <- loss1/fc
I0403 18:04:27.244248 16066 net.cpp:399] loss1/classifier_plantvillage -> loss1/classifier_plantvillage
I0403 18:04:27.245124 16066 net.cpp:141] Setting up loss1/classifier_plantvillage
I0403 18:04:27.245153 16066 net.cpp:148] Top shape: 24 38 (912)
I0403 18:04:27.245168 16066 net.cpp:156] Memory required for data: 946192992
I0403 18:04:27.245187 16066 layer_factory.hpp:77] Creating layer loss1/classifier_plantvillage_loss1/classifier_plantvillage_0_split
I0403 18:04:27.245205 16066 net.cpp:91] Creating Layer loss1/classifier_plantvillage_loss1/classifier_plantvillage_0_split
I0403 18:04:27.245221 16066 net.cpp:425] loss1/classifier_plantvillage_loss1/classifier_plantvillage_0_split <- loss1/classifier_plantvillage
I0403 18:04:27.245239 16066 net.cpp:399] loss1/classifier_plantvillage_loss1/classifier_plantvillage_0_split -> loss1/classifier_plantvillage_loss1/classifier_plantvillage_0_split_0
I0403 18:04:27.245261 16066 net.cpp:399] loss1/classifier_plantvillage_loss1/classifier_plantvillage_0_split -> loss1/classifier_plantvillage_loss1/classifier_plantvillage_0_split_1
I0403 18:04:27.245283 16066 net.cpp:399] loss1/classifier_plantvillage_loss1/classifier_plantvillage_0_split -> loss1/classifier_plantvillage_loss1/classifier_plantvillage_0_split_2
I0403 18:04:27.245348 16066 net.cpp:141] Setting up loss1/classifier_plantvillage_loss1/classifier_plantvillage_0_split
I0403 18:04:27.245370 16066 net.cpp:148] Top shape: 24 38 (912)
I0403 18:04:27.245388 16066 net.cpp:148] Top shape: 24 38 (912)
I0403 18:04:27.245403 16066 net.cpp:148] Top shape: 24 38 (912)
I0403 18:04:27.245416 16066 net.cpp:156] Memory required for data: 946203936
I0403 18:04:27.245430 16066 layer_factory.hpp:77] Creating layer inception_4b/1x1
I0403 18:04:27.245450 16066 net.cpp:91] Creating Layer inception_4b/1x1
I0403 18:04:27.245481 16066 net.cpp:425] inception_4b/1x1 <- inception_4a/output_inception_4a/output_0_split_1
I0403 18:04:27.245503 16066 net.cpp:399] inception_4b/1x1 -> inception_4b/1x1
I0403 18:04:27.247126 16066 net.cpp:141] Setting up inception_4b/1x1
I0403 18:04:27.247154 16066 net.cpp:148] Top shape: 24 160 14 14 (752640)
I0403 18:04:27.247170 16066 net.cpp:156] Memory required for data: 949214496
I0403 18:04:27.247189 16066 layer_factory.hpp:77] Creating layer inception_4b/relu_1x1
I0403 18:04:27.247206 16066 net.cpp:91] Creating Layer inception_4b/relu_1x1
I0403 18:04:27.247221 16066 net.cpp:425] inception_4b/relu_1x1 <- inception_4b/1x1
I0403 18:04:27.247241 16066 net.cpp:386] inception_4b/relu_1x1 -> inception_4b/1x1 (in-place)
I0403 18:04:27.247421 16066 net.cpp:141] Setting up inception_4b/relu_1x1
I0403 18:04:27.247444 16066 net.cpp:148] Top shape: 24 160 14 14 (752640)
I0403 18:04:27.247459 16066 net.cpp:156] Memory required for data: 952225056
I0403 18:04:27.247474 16066 layer_factory.hpp:77] Creating layer inception_4b/3x3_reduce
I0403 18:04:27.247495 16066 net.cpp:91] Creating Layer inception_4b/3x3_reduce
I0403 18:04:27.247512 16066 net.cpp:425] inception_4b/3x3_reduce <- inception_4a/output_inception_4a/output_0_split_2
I0403 18:04:27.247534 16066 net.cpp:399] inception_4b/3x3_reduce -> inception_4b/3x3_reduce
I0403 18:04:27.248899 16066 net.cpp:141] Setting up inception_4b/3x3_reduce
I0403 18:04:27.248929 16066 net.cpp:148] Top shape: 24 112 14 14 (526848)
I0403 18:04:27.248945 16066 net.cpp:156] Memory required for data: 954332448
I0403 18:04:27.248963 16066 layer_factory.hpp:77] Creating layer inception_4b/relu_3x3_reduce
I0403 18:04:27.248989 16066 net.cpp:91] Creating Layer inception_4b/relu_3x3_reduce
I0403 18:04:27.249007 16066 net.cpp:425] inception_4b/relu_3x3_reduce <- inception_4b/3x3_reduce
I0403 18:04:27.249025 16066 net.cpp:386] inception_4b/relu_3x3_reduce -> inception_4b/3x3_reduce (in-place)
I0403 18:04:27.249305 16066 net.cpp:141] Setting up inception_4b/relu_3x3_reduce
I0403 18:04:27.249330 16066 net.cpp:148] Top shape: 24 112 14 14 (526848)
I0403 18:04:27.249346 16066 net.cpp:156] Memory required for data: 956439840
I0403 18:04:27.249361 16066 layer_factory.hpp:77] Creating layer inception_4b/3x3
I0403 18:04:27.249383 16066 net.cpp:91] Creating Layer inception_4b/3x3
I0403 18:04:27.249400 16066 net.cpp:425] inception_4b/3x3 <- inception_4b/3x3_reduce
I0403 18:04:27.249423 16066 net.cpp:399] inception_4b/3x3 -> inception_4b/3x3
I0403 18:04:27.252328 16066 net.cpp:141] Setting up inception_4b/3x3
I0403 18:04:27.252358 16066 net.cpp:148] Top shape: 24 224 14 14 (1053696)
I0403 18:04:27.252375 16066 net.cpp:156] Memory required for data: 960654624
I0403 18:04:27.252393 16066 layer_factory.hpp:77] Creating layer inception_4b/relu_3x3
I0403 18:04:27.252413 16066 net.cpp:91] Creating Layer inception_4b/relu_3x3
I0403 18:04:27.252429 16066 net.cpp:425] inception_4b/relu_3x3 <- inception_4b/3x3
I0403 18:04:27.252445 16066 net.cpp:386] inception_4b/relu_3x3 -> inception_4b/3x3 (in-place)
I0403 18:04:27.252629 16066 net.cpp:141] Setting up inception_4b/relu_3x3
I0403 18:04:27.252652 16066 net.cpp:148] Top shape: 24 224 14 14 (1053696)
I0403 18:04:27.252667 16066 net.cpp:156] Memory required for data: 964869408
I0403 18:04:27.252681 16066 layer_factory.hpp:77] Creating layer inception_4b/5x5_reduce
I0403 18:04:27.252704 16066 net.cpp:91] Creating Layer inception_4b/5x5_reduce
I0403 18:04:27.252722 16066 net.cpp:425] inception_4b/5x5_reduce <- inception_4a/output_inception_4a/output_0_split_3
I0403 18:04:27.252743 16066 net.cpp:399] inception_4b/5x5_reduce -> inception_4b/5x5_reduce
I0403 18:04:27.253823 16066 net.cpp:141] Setting up inception_4b/5x5_reduce
I0403 18:04:27.253849 16066 net.cpp:148] Top shape: 24 24 14 14 (112896)
I0403 18:04:27.253865 16066 net.cpp:156] Memory required for data: 965320992
I0403 18:04:27.253882 16066 layer_factory.hpp:77] Creating layer inception_4b/relu_5x5_reduce
I0403 18:04:27.253902 16066 net.cpp:91] Creating Layer inception_4b/relu_5x5_reduce
I0403 18:04:27.253934 16066 net.cpp:425] inception_4b/relu_5x5_reduce <- inception_4b/5x5_reduce
I0403 18:04:27.253953 16066 net.cpp:386] inception_4b/relu_5x5_reduce -> inception_4b/5x5_reduce (in-place)
I0403 18:04:27.254139 16066 net.cpp:141] Setting up inception_4b/relu_5x5_reduce
I0403 18:04:27.254164 16066 net.cpp:148] Top shape: 24 24 14 14 (112896)
I0403 18:04:27.254179 16066 net.cpp:156] Memory required for data: 965772576
I0403 18:04:27.254194 16066 layer_factory.hpp:77] Creating layer inception_4b/5x5
I0403 18:04:27.254218 16066 net.cpp:91] Creating Layer inception_4b/5x5
I0403 18:04:27.254235 16066 net.cpp:425] inception_4b/5x5 <- inception_4b/5x5_reduce
I0403 18:04:27.254254 16066 net.cpp:399] inception_4b/5x5 -> inception_4b/5x5
I0403 18:04:27.255465 16066 net.cpp:141] Setting up inception_4b/5x5
I0403 18:04:27.255492 16066 net.cpp:148] Top shape: 24 64 14 14 (301056)
I0403 18:04:27.255507 16066 net.cpp:156] Memory required for data: 966976800
I0403 18:04:27.255525 16066 layer_factory.hpp:77] Creating layer inception_4b/relu_5x5
I0403 18:04:27.255542 16066 net.cpp:91] Creating Layer inception_4b/relu_5x5
I0403 18:04:27.255559 16066 net.cpp:425] inception_4b/relu_5x5 <- inception_4b/5x5
I0403 18:04:27.255579 16066 net.cpp:386] inception_4b/relu_5x5 -> inception_4b/5x5 (in-place)
I0403 18:04:27.255866 16066 net.cpp:141] Setting up inception_4b/relu_5x5
I0403 18:04:27.255892 16066 net.cpp:148] Top shape: 24 64 14 14 (301056)
I0403 18:04:27.255906 16066 net.cpp:156] Memory required for data: 968181024
I0403 18:04:27.255923 16066 layer_factory.hpp:77] Creating layer inception_4b/pool
I0403 18:04:27.255940 16066 net.cpp:91] Creating Layer inception_4b/pool
I0403 18:04:27.255956 16066 net.cpp:425] inception_4b/pool <- inception_4a/output_inception_4a/output_0_split_4
I0403 18:04:27.255982 16066 net.cpp:399] inception_4b/pool -> inception_4b/pool
I0403 18:04:27.256047 16066 net.cpp:141] Setting up inception_4b/pool
I0403 18:04:27.256070 16066 net.cpp:148] Top shape: 24 512 14 14 (2408448)
I0403 18:04:27.256085 16066 net.cpp:156] Memory required for data: 977814816
I0403 18:04:27.256099 16066 layer_factory.hpp:77] Creating layer inception_4b/pool_proj
I0403 18:04:27.256124 16066 net.cpp:91] Creating Layer inception_4b/pool_proj
I0403 18:04:27.256140 16066 net.cpp:425] inception_4b/pool_proj <- inception_4b/pool
I0403 18:04:27.256158 16066 net.cpp:399] inception_4b/pool_proj -> inception_4b/pool_proj
I0403 18:04:27.257397 16066 net.cpp:141] Setting up inception_4b/pool_proj
I0403 18:04:27.257426 16066 net.cpp:148] Top shape: 24 64 14 14 (301056)
I0403 18:04:27.257441 16066 net.cpp:156] Memory required for data: 979019040
I0403 18:04:27.257459 16066 layer_factory.hpp:77] Creating layer inception_4b/relu_pool_proj
I0403 18:04:27.257480 16066 net.cpp:91] Creating Layer inception_4b/relu_pool_proj
I0403 18:04:27.257498 16066 net.cpp:425] inception_4b/relu_pool_proj <- inception_4b/pool_proj
I0403 18:04:27.257515 16066 net.cpp:386] inception_4b/relu_pool_proj -> inception_4b/pool_proj (in-place)
I0403 18:04:27.257699 16066 net.cpp:141] Setting up inception_4b/relu_pool_proj
I0403 18:04:27.257726 16066 net.cpp:148] Top shape: 24 64 14 14 (301056)
I0403 18:04:27.257742 16066 net.cpp:156] Memory required for data: 980223264
I0403 18:04:27.257757 16066 layer_factory.hpp:77] Creating layer inception_4b/output
I0403 18:04:27.257774 16066 net.cpp:91] Creating Layer inception_4b/output
I0403 18:04:27.257791 16066 net.cpp:425] inception_4b/output <- inception_4b/1x1
I0403 18:04:27.257807 16066 net.cpp:425] inception_4b/output <- inception_4b/3x3
I0403 18:04:27.257824 16066 net.cpp:425] inception_4b/output <- inception_4b/5x5
I0403 18:04:27.257840 16066 net.cpp:425] inception_4b/output <- inception_4b/pool_proj
I0403 18:04:27.257858 16066 net.cpp:399] inception_4b/output -> inception_4b/output
I0403 18:04:27.257905 16066 net.cpp:141] Setting up inception_4b/output
I0403 18:04:27.257930 16066 net.cpp:148] Top shape: 24 512 14 14 (2408448)
I0403 18:04:27.257946 16066 net.cpp:156] Memory required for data: 989857056
I0403 18:04:27.257974 16066 layer_factory.hpp:77] Creating layer inception_4b/output_inception_4b/output_0_split
I0403 18:04:27.258004 16066 net.cpp:91] Creating Layer inception_4b/output_inception_4b/output_0_split
I0403 18:04:27.258021 16066 net.cpp:425] inception_4b/output_inception_4b/output_0_split <- inception_4b/output
I0403 18:04:27.258041 16066 net.cpp:399] inception_4b/output_inception_4b/output_0_split -> inception_4b/output_inception_4b/output_0_split_0
I0403 18:04:27.258064 16066 net.cpp:399] inception_4b/output_inception_4b/output_0_split -> inception_4b/output_inception_4b/output_0_split_1
I0403 18:04:27.258085 16066 net.cpp:399] inception_4b/output_inception_4b/output_0_split -> inception_4b/output_inception_4b/output_0_split_2
I0403 18:04:27.258105 16066 net.cpp:399] inception_4b/output_inception_4b/output_0_split -> inception_4b/output_inception_4b/output_0_split_3
I0403 18:04:27.258191 16066 net.cpp:141] Setting up inception_4b/output_inception_4b/output_0_split
I0403 18:04:27.258215 16066 net.cpp:148] Top shape: 24 512 14 14 (2408448)
I0403 18:04:27.258231 16066 net.cpp:148] Top shape: 24 512 14 14 (2408448)
I0403 18:04:27.258247 16066 net.cpp:148] Top shape: 24 512 14 14 (2408448)
I0403 18:04:27.258263 16066 net.cpp:148] Top shape: 24 512 14 14 (2408448)
I0403 18:04:27.258277 16066 net.cpp:156] Memory required for data: 1028392224
I0403 18:04:27.258292 16066 layer_factory.hpp:77] Creating layer inception_4c/1x1
I0403 18:04:27.258314 16066 net.cpp:91] Creating Layer inception_4c/1x1
I0403 18:04:27.258332 16066 net.cpp:425] inception_4c/1x1 <- inception_4b/output_inception_4b/output_0_split_0
I0403 18:04:27.258353 16066 net.cpp:399] inception_4c/1x1 -> inception_4c/1x1
I0403 18:04:27.259821 16066 net.cpp:141] Setting up inception_4c/1x1
I0403 18:04:27.259855 16066 net.cpp:148] Top shape: 24 128 14 14 (602112)
I0403 18:04:27.259871 16066 net.cpp:156] Memory required for data: 1030800672
I0403 18:04:27.259891 16066 layer_factory.hpp:77] Creating layer inception_4c/relu_1x1
I0403 18:04:27.259909 16066 net.cpp:91] Creating Layer inception_4c/relu_1x1
I0403 18:04:27.259928 16066 net.cpp:425] inception_4c/relu_1x1 <- inception_4c/1x1
I0403 18:04:27.259945 16066 net.cpp:386] inception_4c/relu_1x1 -> inception_4c/1x1 (in-place)
I0403 18:04:27.260133 16066 net.cpp:141] Setting up inception_4c/relu_1x1
I0403 18:04:27.260160 16066 net.cpp:148] Top shape: 24 128 14 14 (602112)
I0403 18:04:27.260176 16066 net.cpp:156] Memory required for data: 1033209120
I0403 18:04:27.260191 16066 layer_factory.hpp:77] Creating layer inception_4c/3x3_reduce
I0403 18:04:27.260212 16066 net.cpp:91] Creating Layer inception_4c/3x3_reduce
I0403 18:04:27.260231 16066 net.cpp:425] inception_4c/3x3_reduce <- inception_4b/output_inception_4b/output_0_split_1
I0403 18:04:27.260253 16066 net.cpp:399] inception_4c/3x3_reduce -> inception_4c/3x3_reduce
I0403 18:04:27.262264 16066 net.cpp:141] Setting up inception_4c/3x3_reduce
I0403 18:04:27.262293 16066 net.cpp:148] Top shape: 24 128 14 14 (602112)
I0403 18:04:27.262310 16066 net.cpp:156] Memory required for data: 1035617568
I0403 18:04:27.262328 16066 layer_factory.hpp:77] Creating layer inception_4c/relu_3x3_reduce
I0403 18:04:27.262347 16066 net.cpp:91] Creating Layer inception_4c/relu_3x3_reduce
I0403 18:04:27.262367 16066 net.cpp:425] inception_4c/relu_3x3_reduce <- inception_4c/3x3_reduce
I0403 18:04:27.262384 16066 net.cpp:386] inception_4c/relu_3x3_reduce -> inception_4c/3x3_reduce (in-place)
I0403 18:04:27.262676 16066 net.cpp:141] Setting up inception_4c/relu_3x3_reduce
I0403 18:04:27.262702 16066 net.cpp:148] Top shape: 24 128 14 14 (602112)
I0403 18:04:27.262717 16066 net.cpp:156] Memory required for data: 1038026016
I0403 18:04:27.262733 16066 layer_factory.hpp:77] Creating layer inception_4c/3x3
I0403 18:04:27.262756 16066 net.cpp:91] Creating Layer inception_4c/3x3
I0403 18:04:27.262774 16066 net.cpp:425] inception_4c/3x3 <- inception_4c/3x3_reduce
I0403 18:04:27.262797 16066 net.cpp:399] inception_4c/3x3 -> inception_4c/3x3
I0403 18:04:27.266451 16066 net.cpp:141] Setting up inception_4c/3x3
I0403 18:04:27.266492 16066 net.cpp:148] Top shape: 24 256 14 14 (1204224)
I0403 18:04:27.266510 16066 net.cpp:156] Memory required for data: 1042842912
I0403 18:04:27.266542 16066 layer_factory.hpp:77] Creating layer inception_4c/relu_3x3
I0403 18:04:27.266566 16066 net.cpp:91] Creating Layer inception_4c/relu_3x3
I0403 18:04:27.266583 16066 net.cpp:425] inception_4c/relu_3x3 <- inception_4c/3x3
I0403 18:04:27.266602 16066 net.cpp:386] inception_4c/relu_3x3 -> inception_4c/3x3 (in-place)
I0403 18:04:27.266785 16066 net.cpp:141] Setting up inception_4c/relu_3x3
I0403 18:04:27.266810 16066 net.cpp:148] Top shape: 24 256 14 14 (1204224)
I0403 18:04:27.266825 16066 net.cpp:156] Memory required for data: 1047659808
I0403 18:04:27.266841 16066 layer_factory.hpp:77] Creating layer inception_4c/5x5_reduce
I0403 18:04:27.266863 16066 net.cpp:91] Creating Layer inception_4c/5x5_reduce
I0403 18:04:27.266881 16066 net.cpp:425] inception_4c/5x5_reduce <- inception_4b/output_inception_4b/output_0_split_2
I0403 18:04:27.266902 16066 net.cpp:399] inception_4c/5x5_reduce -> inception_4c/5x5_reduce
I0403 18:04:27.268026 16066 net.cpp:141] Setting up inception_4c/5x5_reduce
I0403 18:04:27.268054 16066 net.cpp:148] Top shape: 24 24 14 14 (112896)
I0403 18:04:27.268070 16066 net.cpp:156] Memory required for data: 1048111392
I0403 18:04:27.268090 16066 layer_factory.hpp:77] Creating layer inception_4c/relu_5x5_reduce
I0403 18:04:27.268110 16066 net.cpp:91] Creating Layer inception_4c/relu_5x5_reduce
I0403 18:04:27.268127 16066 net.cpp:425] inception_4c/relu_5x5_reduce <- inception_4c/5x5_reduce
I0403 18:04:27.268146 16066 net.cpp:386] inception_4c/relu_5x5_reduce -> inception_4c/5x5_reduce (in-place)
I0403 18:04:27.268332 16066 net.cpp:141] Setting up inception_4c/relu_5x5_reduce
I0403 18:04:27.268357 16066 net.cpp:148] Top shape: 24 24 14 14 (112896)
I0403 18:04:27.268373 16066 net.cpp:156] Memory required for data: 1048562976
I0403 18:04:27.268388 16066 layer_factory.hpp:77] Creating layer inception_4c/5x5
I0403 18:04:27.268411 16066 net.cpp:91] Creating Layer inception_4c/5x5
I0403 18:04:27.268429 16066 net.cpp:425] inception_4c/5x5 <- inception_4c/5x5_reduce
I0403 18:04:27.268447 16066 net.cpp:399] inception_4c/5x5 -> inception_4c/5x5
I0403 18:04:27.269712 16066 net.cpp:141] Setting up inception_4c/5x5
I0403 18:04:27.269740 16066 net.cpp:148] Top shape: 24 64 14 14 (301056)
I0403 18:04:27.269759 16066 net.cpp:156] Memory required for data: 1049767200
I0403 18:04:27.269778 16066 layer_factory.hpp:77] Creating layer inception_4c/relu_5x5
I0403 18:04:27.269796 16066 net.cpp:91] Creating Layer inception_4c/relu_5x5
I0403 18:04:27.269814 16066 net.cpp:425] inception_4c/relu_5x5 <- inception_4c/5x5
I0403 18:04:27.269830 16066 net.cpp:386] inception_4c/relu_5x5 -> inception_4c/5x5 (in-place)
I0403 18:04:27.270133 16066 net.cpp:141] Setting up inception_4c/relu_5x5
I0403 18:04:27.270159 16066 net.cpp:148] Top shape: 24 64 14 14 (301056)
I0403 18:04:27.270177 16066 net.cpp:156] Memory required for data: 1050971424
I0403 18:04:27.270193 16066 layer_factory.hpp:77] Creating layer inception_4c/pool
I0403 18:04:27.270211 16066 net.cpp:91] Creating Layer inception_4c/pool
I0403 18:04:27.270227 16066 net.cpp:425] inception_4c/pool <- inception_4b/output_inception_4b/output_0_split_3
I0403 18:04:27.270246 16066 net.cpp:399] inception_4c/pool -> inception_4c/pool
I0403 18:04:27.270313 16066 net.cpp:141] Setting up inception_4c/pool
I0403 18:04:27.270336 16066 net.cpp:148] Top shape: 24 512 14 14 (2408448)
I0403 18:04:27.270351 16066 net.cpp:156] Memory required for data: 1060605216
I0403 18:04:27.270365 16066 layer_factory.hpp:77] Creating layer inception_4c/pool_proj
I0403 18:04:27.270387 16066 net.cpp:91] Creating Layer inception_4c/pool_proj
I0403 18:04:27.270406 16066 net.cpp:425] inception_4c/pool_proj <- inception_4c/pool
I0403 18:04:27.270427 16066 net.cpp:399] inception_4c/pool_proj -> inception_4c/pool_proj
I0403 18:04:27.271709 16066 net.cpp:141] Setting up inception_4c/pool_proj
I0403 18:04:27.271738 16066 net.cpp:148] Top shape: 24 64 14 14 (301056)
I0403 18:04:27.271766 16066 net.cpp:156] Memory required for data: 1061809440
I0403 18:04:27.271796 16066 layer_factory.hpp:77] Creating layer inception_4c/relu_pool_proj
I0403 18:04:27.271819 16066 net.cpp:91] Creating Layer inception_4c/relu_pool_proj
I0403 18:04:27.271836 16066 net.cpp:425] inception_4c/relu_pool_proj <- inception_4c/pool_proj
I0403 18:04:27.271855 16066 net.cpp:386] inception_4c/relu_pool_proj -> inception_4c/pool_proj (in-place)
I0403 18:04:27.272053 16066 net.cpp:141] Setting up inception_4c/relu_pool_proj
I0403 18:04:27.272078 16066 net.cpp:148] Top shape: 24 64 14 14 (301056)
I0403 18:04:27.272094 16066 net.cpp:156] Memory required for data: 1063013664
I0403 18:04:27.272109 16066 layer_factory.hpp:77] Creating layer inception_4c/output
I0403 18:04:27.272128 16066 net.cpp:91] Creating Layer inception_4c/output
I0403 18:04:27.272145 16066 net.cpp:425] inception_4c/output <- inception_4c/1x1
I0403 18:04:27.272162 16066 net.cpp:425] inception_4c/output <- inception_4c/3x3
I0403 18:04:27.272178 16066 net.cpp:425] inception_4c/output <- inception_4c/5x5
I0403 18:04:27.272194 16066 net.cpp:425] inception_4c/output <- inception_4c/pool_proj
I0403 18:04:27.272212 16066 net.cpp:399] inception_4c/output -> inception_4c/output
I0403 18:04:27.272261 16066 net.cpp:141] Setting up inception_4c/output
I0403 18:04:27.272284 16066 net.cpp:148] Top shape: 24 512 14 14 (2408448)
I0403 18:04:27.272300 16066 net.cpp:156] Memory required for data: 1072647456
I0403 18:04:27.272315 16066 layer_factory.hpp:77] Creating layer inception_4c/output_inception_4c/output_0_split
I0403 18:04:27.272330 16066 net.cpp:91] Creating Layer inception_4c/output_inception_4c/output_0_split
I0403 18:04:27.272346 16066 net.cpp:425] inception_4c/output_inception_4c/output_0_split <- inception_4c/output
I0403 18:04:27.272367 16066 net.cpp:399] inception_4c/output_inception_4c/output_0_split -> inception_4c/output_inception_4c/output_0_split_0
I0403 18:04:27.272387 16066 net.cpp:399] inception_4c/output_inception_4c/output_0_split -> inception_4c/output_inception_4c/output_0_split_1
I0403 18:04:27.272408 16066 net.cpp:399] inception_4c/output_inception_4c/output_0_split -> inception_4c/output_inception_4c/output_0_split_2
I0403 18:04:27.272428 16066 net.cpp:399] inception_4c/output_inception_4c/output_0_split -> inception_4c/output_inception_4c/output_0_split_3
I0403 18:04:27.272516 16066 net.cpp:141] Setting up inception_4c/output_inception_4c/output_0_split
I0403 18:04:27.272539 16066 net.cpp:148] Top shape: 24 512 14 14 (2408448)
I0403 18:04:27.272555 16066 net.cpp:148] Top shape: 24 512 14 14 (2408448)
I0403 18:04:27.272572 16066 net.cpp:148] Top shape: 24 512 14 14 (2408448)
I0403 18:04:27.272586 16066 net.cpp:148] Top shape: 24 512 14 14 (2408448)
I0403 18:04:27.272600 16066 net.cpp:156] Memory required for data: 1111182624
I0403 18:04:27.272614 16066 layer_factory.hpp:77] Creating layer inception_4d/1x1
I0403 18:04:27.272637 16066 net.cpp:91] Creating Layer inception_4d/1x1
I0403 18:04:27.272655 16066 net.cpp:425] inception_4d/1x1 <- inception_4c/output_inception_4c/output_0_split_0
I0403 18:04:27.272677 16066 net.cpp:399] inception_4d/1x1 -> inception_4d/1x1
I0403 18:04:27.274081 16066 net.cpp:141] Setting up inception_4d/1x1
I0403 18:04:27.274111 16066 net.cpp:148] Top shape: 24 112 14 14 (526848)
I0403 18:04:27.274127 16066 net.cpp:156] Memory required for data: 1113290016
I0403 18:04:27.274145 16066 layer_factory.hpp:77] Creating layer inception_4d/relu_1x1
I0403 18:04:27.274164 16066 net.cpp:91] Creating Layer inception_4d/relu_1x1
I0403 18:04:27.274181 16066 net.cpp:425] inception_4d/relu_1x1 <- inception_4d/1x1
I0403 18:04:27.274200 16066 net.cpp:386] inception_4d/relu_1x1 -> inception_4d/1x1 (in-place)
I0403 18:04:27.274392 16066 net.cpp:141] Setting up inception_4d/relu_1x1
I0403 18:04:27.274417 16066 net.cpp:148] Top shape: 24 112 14 14 (526848)
I0403 18:04:27.274432 16066 net.cpp:156] Memory required for data: 1115397408
I0403 18:04:27.274447 16066 layer_factory.hpp:77] Creating layer inception_4d/3x3_reduce
I0403 18:04:27.274483 16066 net.cpp:91] Creating Layer inception_4d/3x3_reduce
I0403 18:04:27.274502 16066 net.cpp:425] inception_4d/3x3_reduce <- inception_4c/output_inception_4c/output_0_split_1
I0403 18:04:27.274526 16066 net.cpp:399] inception_4d/3x3_reduce -> inception_4d/3x3_reduce
I0403 18:04:27.276082 16066 net.cpp:141] Setting up inception_4d/3x3_reduce
I0403 18:04:27.276109 16066 net.cpp:148] Top shape: 24 144 14 14 (677376)
I0403 18:04:27.276125 16066 net.cpp:156] Memory required for data: 1118106912
I0403 18:04:27.276142 16066 layer_factory.hpp:77] Creating layer inception_4d/relu_3x3_reduce
I0403 18:04:27.276163 16066 net.cpp:91] Creating Layer inception_4d/relu_3x3_reduce
I0403 18:04:27.276180 16066 net.cpp:425] inception_4d/relu_3x3_reduce <- inception_4d/3x3_reduce
I0403 18:04:27.276198 16066 net.cpp:386] inception_4d/relu_3x3_reduce -> inception_4d/3x3_reduce (in-place)
I0403 18:04:27.276481 16066 net.cpp:141] Setting up inception_4d/relu_3x3_reduce
I0403 18:04:27.276507 16066 net.cpp:148] Top shape: 24 144 14 14 (677376)
I0403 18:04:27.276522 16066 net.cpp:156] Memory required for data: 1120816416
I0403 18:04:27.276536 16066 layer_factory.hpp:77] Creating layer inception_4d/3x3
I0403 18:04:27.276559 16066 net.cpp:91] Creating Layer inception_4d/3x3
I0403 18:04:27.276577 16066 net.cpp:425] inception_4d/3x3 <- inception_4d/3x3_reduce
I0403 18:04:27.276597 16066 net.cpp:399] inception_4d/3x3 -> inception_4d/3x3
I0403 18:04:27.280746 16066 net.cpp:141] Setting up inception_4d/3x3
I0403 18:04:27.280776 16066 net.cpp:148] Top shape: 24 288 14 14 (1354752)
I0403 18:04:27.280792 16066 net.cpp:156] Memory required for data: 1126235424
I0403 18:04:27.280812 16066 layer_factory.hpp:77] Creating layer inception_4d/relu_3x3
I0403 18:04:27.280829 16066 net.cpp:91] Creating Layer inception_4d/relu_3x3
I0403 18:04:27.280845 16066 net.cpp:425] inception_4d/relu_3x3 <- inception_4d/3x3
I0403 18:04:27.280864 16066 net.cpp:386] inception_4d/relu_3x3 -> inception_4d/3x3 (in-place)
I0403 18:04:27.281052 16066 net.cpp:141] Setting up inception_4d/relu_3x3
I0403 18:04:27.281076 16066 net.cpp:148] Top shape: 24 288 14 14 (1354752)
I0403 18:04:27.281091 16066 net.cpp:156] Memory required for data: 1131654432
I0403 18:04:27.281106 16066 layer_factory.hpp:77] Creating layer inception_4d/5x5_reduce
I0403 18:04:27.281127 16066 net.cpp:91] Creating Layer inception_4d/5x5_reduce
I0403 18:04:27.281144 16066 net.cpp:425] inception_4d/5x5_reduce <- inception_4c/output_inception_4c/output_0_split_2
I0403 18:04:27.281165 16066 net.cpp:399] inception_4d/5x5_reduce -> inception_4d/5x5_reduce
I0403 18:04:27.282299 16066 net.cpp:141] Setting up inception_4d/5x5_reduce
I0403 18:04:27.282327 16066 net.cpp:148] Top shape: 24 32 14 14 (150528)
I0403 18:04:27.282342 16066 net.cpp:156] Memory required for data: 1132256544
I0403 18:04:27.282361 16066 layer_factory.hpp:77] Creating layer inception_4d/relu_5x5_reduce
I0403 18:04:27.282379 16066 net.cpp:91] Creating Layer inception_4d/relu_5x5_reduce
I0403 18:04:27.282395 16066 net.cpp:425] inception_4d/relu_5x5_reduce <- inception_4d/5x5_reduce
I0403 18:04:27.282414 16066 net.cpp:386] inception_4d/relu_5x5_reduce -> inception_4d/5x5_reduce (in-place)
I0403 18:04:27.282603 16066 net.cpp:141] Setting up inception_4d/relu_5x5_reduce
I0403 18:04:27.282627 16066 net.cpp:148] Top shape: 24 32 14 14 (150528)
I0403 18:04:27.282641 16066 net.cpp:156] Memory required for data: 1132858656
I0403 18:04:27.282655 16066 layer_factory.hpp:77] Creating layer inception_4d/5x5
I0403 18:04:27.282677 16066 net.cpp:91] Creating Layer inception_4d/5x5
I0403 18:04:27.282694 16066 net.cpp:425] inception_4d/5x5 <- inception_4d/5x5_reduce
I0403 18:04:27.282716 16066 net.cpp:399] inception_4d/5x5 -> inception_4d/5x5
I0403 18:04:27.284189 16066 net.cpp:141] Setting up inception_4d/5x5
I0403 18:04:27.284216 16066 net.cpp:148] Top shape: 24 64 14 14 (301056)
I0403 18:04:27.284232 16066 net.cpp:156] Memory required for data: 1134062880
I0403 18:04:27.284251 16066 layer_factory.hpp:77] Creating layer inception_4d/relu_5x5
I0403 18:04:27.284286 16066 net.cpp:91] Creating Layer inception_4d/relu_5x5
I0403 18:04:27.284304 16066 net.cpp:425] inception_4d/relu_5x5 <- inception_4d/5x5
I0403 18:04:27.284322 16066 net.cpp:386] inception_4d/relu_5x5 -> inception_4d/5x5 (in-place)
I0403 18:04:27.284618 16066 net.cpp:141] Setting up inception_4d/relu_5x5
I0403 18:04:27.284654 16066 net.cpp:148] Top shape: 24 64 14 14 (301056)
I0403 18:04:27.284672 16066 net.cpp:156] Memory required for data: 1135267104
I0403 18:04:27.284685 16066 layer_factory.hpp:77] Creating layer inception_4d/pool
I0403 18:04:27.284705 16066 net.cpp:91] Creating Layer inception_4d/pool
I0403 18:04:27.284723 16066 net.cpp:425] inception_4d/pool <- inception_4c/output_inception_4c/output_0_split_3
I0403 18:04:27.284742 16066 net.cpp:399] inception_4d/pool -> inception_4d/pool
I0403 18:04:27.284808 16066 net.cpp:141] Setting up inception_4d/pool
I0403 18:04:27.284832 16066 net.cpp:148] Top shape: 24 512 14 14 (2408448)
I0403 18:04:27.284847 16066 net.cpp:156] Memory required for data: 1144900896
I0403 18:04:27.284862 16066 layer_factory.hpp:77] Creating layer inception_4d/pool_proj
I0403 18:04:27.284883 16066 net.cpp:91] Creating Layer inception_4d/pool_proj
I0403 18:04:27.284899 16066 net.cpp:425] inception_4d/pool_proj <- inception_4d/pool
I0403 18:04:27.284921 16066 net.cpp:399] inception_4d/pool_proj -> inception_4d/pool_proj
I0403 18:04:27.286684 16066 net.cpp:141] Setting up inception_4d/pool_proj
I0403 18:04:27.286715 16066 net.cpp:148] Top shape: 24 64 14 14 (301056)
I0403 18:04:27.286731 16066 net.cpp:156] Memory required for data: 1146105120
I0403 18:04:27.286751 16066 layer_factory.hpp:77] Creating layer inception_4d/relu_pool_proj
I0403 18:04:27.286769 16066 net.cpp:91] Creating Layer inception_4d/relu_pool_proj
I0403 18:04:27.286787 16066 net.cpp:425] inception_4d/relu_pool_proj <- inception_4d/pool_proj
I0403 18:04:27.286805 16066 net.cpp:386] inception_4d/relu_pool_proj -> inception_4d/pool_proj (in-place)
I0403 18:04:27.287008 16066 net.cpp:141] Setting up inception_4d/relu_pool_proj
I0403 18:04:27.287032 16066 net.cpp:148] Top shape: 24 64 14 14 (301056)
I0403 18:04:27.287047 16066 net.cpp:156] Memory required for data: 1147309344
I0403 18:04:27.287061 16066 layer_factory.hpp:77] Creating layer inception_4d/output
I0403 18:04:27.287078 16066 net.cpp:91] Creating Layer inception_4d/output
I0403 18:04:27.287093 16066 net.cpp:425] inception_4d/output <- inception_4d/1x1
I0403 18:04:27.287111 16066 net.cpp:425] inception_4d/output <- inception_4d/3x3
I0403 18:04:27.287127 16066 net.cpp:425] inception_4d/output <- inception_4d/5x5
I0403 18:04:27.287142 16066 net.cpp:425] inception_4d/output <- inception_4d/pool_proj
I0403 18:04:27.287161 16066 net.cpp:399] inception_4d/output -> inception_4d/output
I0403 18:04:27.287210 16066 net.cpp:141] Setting up inception_4d/output
I0403 18:04:27.287233 16066 net.cpp:148] Top shape: 24 528 14 14 (2483712)
I0403 18:04:27.287247 16066 net.cpp:156] Memory required for data: 1157244192
I0403 18:04:27.287261 16066 layer_factory.hpp:77] Creating layer inception_4d/output_inception_4d/output_0_split
I0403 18:04:27.287279 16066 net.cpp:91] Creating Layer inception_4d/output_inception_4d/output_0_split
I0403 18:04:27.287295 16066 net.cpp:425] inception_4d/output_inception_4d/output_0_split <- inception_4d/output
I0403 18:04:27.287317 16066 net.cpp:399] inception_4d/output_inception_4d/output_0_split -> inception_4d/output_inception_4d/output_0_split_0
I0403 18:04:27.287338 16066 net.cpp:399] inception_4d/output_inception_4d/output_0_split -> inception_4d/output_inception_4d/output_0_split_1
I0403 18:04:27.287358 16066 net.cpp:399] inception_4d/output_inception_4d/output_0_split -> inception_4d/output_inception_4d/output_0_split_2
I0403 18:04:27.287379 16066 net.cpp:399] inception_4d/output_inception_4d/output_0_split -> inception_4d/output_inception_4d/output_0_split_3
I0403 18:04:27.287398 16066 net.cpp:399] inception_4d/output_inception_4d/output_0_split -> inception_4d/output_inception_4d/output_0_split_4
I0403 18:04:27.287500 16066 net.cpp:141] Setting up inception_4d/output_inception_4d/output_0_split
I0403 18:04:27.287539 16066 net.cpp:148] Top shape: 24 528 14 14 (2483712)
I0403 18:04:27.287556 16066 net.cpp:148] Top shape: 24 528 14 14 (2483712)
I0403 18:04:27.287571 16066 net.cpp:148] Top shape: 24 528 14 14 (2483712)
I0403 18:04:27.287587 16066 net.cpp:148] Top shape: 24 528 14 14 (2483712)
I0403 18:04:27.287602 16066 net.cpp:148] Top shape: 24 528 14 14 (2483712)
I0403 18:04:27.287616 16066 net.cpp:156] Memory required for data: 1206918432
I0403 18:04:27.287631 16066 layer_factory.hpp:77] Creating layer loss2/ave_pool
I0403 18:04:27.287648 16066 net.cpp:91] Creating Layer loss2/ave_pool
I0403 18:04:27.287664 16066 net.cpp:425] loss2/ave_pool <- inception_4d/output_inception_4d/output_0_split_0
I0403 18:04:27.287684 16066 net.cpp:399] loss2/ave_pool -> loss2/ave_pool
I0403 18:04:27.288007 16066 net.cpp:141] Setting up loss2/ave_pool
I0403 18:04:27.288033 16066 net.cpp:148] Top shape: 24 528 4 4 (202752)
I0403 18:04:27.288048 16066 net.cpp:156] Memory required for data: 1207729440
I0403 18:04:27.288063 16066 layer_factory.hpp:77] Creating layer loss2/conv
I0403 18:04:27.288084 16066 net.cpp:91] Creating Layer loss2/conv
I0403 18:04:27.288101 16066 net.cpp:425] loss2/conv <- loss2/ave_pool
I0403 18:04:27.288122 16066 net.cpp:399] loss2/conv -> loss2/conv
I0403 18:04:27.289983 16066 net.cpp:141] Setting up loss2/conv
I0403 18:04:27.290010 16066 net.cpp:148] Top shape: 24 128 4 4 (49152)
I0403 18:04:27.290026 16066 net.cpp:156] Memory required for data: 1207926048
I0403 18:04:27.290045 16066 layer_factory.hpp:77] Creating layer loss2/relu_conv
I0403 18:04:27.290066 16066 net.cpp:91] Creating Layer loss2/relu_conv
I0403 18:04:27.290082 16066 net.cpp:425] loss2/relu_conv <- loss2/conv
I0403 18:04:27.290099 16066 net.cpp:386] loss2/relu_conv -> loss2/conv (in-place)
I0403 18:04:27.290381 16066 net.cpp:141] Setting up loss2/relu_conv
I0403 18:04:27.290407 16066 net.cpp:148] Top shape: 24 128 4 4 (49152)
I0403 18:04:27.290422 16066 net.cpp:156] Memory required for data: 1208122656
I0403 18:04:27.290437 16066 layer_factory.hpp:77] Creating layer loss2/fc
I0403 18:04:27.290470 16066 net.cpp:91] Creating Layer loss2/fc
I0403 18:04:27.290488 16066 net.cpp:425] loss2/fc <- loss2/conv
I0403 18:04:27.290508 16066 net.cpp:399] loss2/fc -> loss2/fc
I0403 18:04:27.307662 16066 net.cpp:141] Setting up loss2/fc
I0403 18:04:27.307694 16066 net.cpp:148] Top shape: 24 1024 (24576)
I0403 18:04:27.307709 16066 net.cpp:156] Memory required for data: 1208220960
I0403 18:04:27.307728 16066 layer_factory.hpp:77] Creating layer loss2/relu_fc
I0403 18:04:27.307744 16066 net.cpp:91] Creating Layer loss2/relu_fc
I0403 18:04:27.307761 16066 net.cpp:425] loss2/relu_fc <- loss2/fc
I0403 18:04:27.307780 16066 net.cpp:386] loss2/relu_fc -> loss2/fc (in-place)
I0403 18:04:27.308087 16066 net.cpp:141] Setting up loss2/relu_fc
I0403 18:04:27.308114 16066 net.cpp:148] Top shape: 24 1024 (24576)
I0403 18:04:27.308127 16066 net.cpp:156] Memory required for data: 1208319264
I0403 18:04:27.308142 16066 layer_factory.hpp:77] Creating layer loss2/drop_fc
I0403 18:04:27.308161 16066 net.cpp:91] Creating Layer loss2/drop_fc
I0403 18:04:27.308177 16066 net.cpp:425] loss2/drop_fc <- loss2/fc
I0403 18:04:27.308197 16066 net.cpp:386] loss2/drop_fc -> loss2/fc (in-place)
I0403 18:04:27.308255 16066 net.cpp:141] Setting up loss2/drop_fc
I0403 18:04:27.308280 16066 net.cpp:148] Top shape: 24 1024 (24576)
I0403 18:04:27.308296 16066 net.cpp:156] Memory required for data: 1208417568
I0403 18:04:27.308310 16066 layer_factory.hpp:77] Creating layer loss2/classifier_plantvillage
I0403 18:04:27.308328 16066 net.cpp:91] Creating Layer loss2/classifier_plantvillage
I0403 18:04:27.308344 16066 net.cpp:425] loss2/classifier_plantvillage <- loss2/fc
I0403 18:04:27.308365 16066 net.cpp:399] loss2/classifier_plantvillage -> loss2/classifier_plantvillage
I0403 18:04:27.308760 16066 net.cpp:141] Setting up loss2/classifier_plantvillage
I0403 18:04:27.308784 16066 net.cpp:148] Top shape: 24 38 (912)
I0403 18:04:27.308815 16066 net.cpp:156] Memory required for data: 1208421216
I0403 18:04:27.308833 16066 layer_factory.hpp:77] Creating layer loss2/classifier_plantvillage_loss2/classifier_plantvillage_0_split
I0403 18:04:27.308854 16066 net.cpp:91] Creating Layer loss2/classifier_plantvillage_loss2/classifier_plantvillage_0_split
I0403 18:04:27.308871 16066 net.cpp:425] loss2/classifier_plantvillage_loss2/classifier_plantvillage_0_split <- loss2/classifier_plantvillage
I0403 18:04:27.308889 16066 net.cpp:399] loss2/classifier_plantvillage_loss2/classifier_plantvillage_0_split -> loss2/classifier_plantvillage_loss2/classifier_plantvillage_0_split_0
I0403 18:04:27.308909 16066 net.cpp:399] loss2/classifier_plantvillage_loss2/classifier_plantvillage_0_split -> loss2/classifier_plantvillage_loss2/classifier_plantvillage_0_split_1
I0403 18:04:27.308934 16066 net.cpp:399] loss2/classifier_plantvillage_loss2/classifier_plantvillage_0_split -> loss2/classifier_plantvillage_loss2/classifier_plantvillage_0_split_2
I0403 18:04:27.309032 16066 net.cpp:141] Setting up loss2/classifier_plantvillage_loss2/classifier_plantvillage_0_split
I0403 18:04:27.309068 16066 net.cpp:148] Top shape: 24 38 (912)
I0403 18:04:27.309085 16066 net.cpp:148] Top shape: 24 38 (912)
I0403 18:04:27.309103 16066 net.cpp:148] Top shape: 24 38 (912)
I0403 18:04:27.309116 16066 net.cpp:156] Memory required for data: 1208432160
I0403 18:04:27.309131 16066 layer_factory.hpp:77] Creating layer inception_4e/1x1
I0403 18:04:27.309154 16066 net.cpp:91] Creating Layer inception_4e/1x1
I0403 18:04:27.309173 16066 net.cpp:425] inception_4e/1x1 <- inception_4d/output_inception_4d/output_0_split_1
I0403 18:04:27.309193 16066 net.cpp:399] inception_4e/1x1 -> inception_4e/1x1
I0403 18:04:27.311054 16066 net.cpp:141] Setting up inception_4e/1x1
I0403 18:04:27.311082 16066 net.cpp:148] Top shape: 24 256 14 14 (1204224)
I0403 18:04:27.311099 16066 net.cpp:156] Memory required for data: 1213249056
I0403 18:04:27.311117 16066 layer_factory.hpp:77] Creating layer inception_4e/relu_1x1
I0403 18:04:27.311138 16066 net.cpp:91] Creating Layer inception_4e/relu_1x1
I0403 18:04:27.311156 16066 net.cpp:425] inception_4e/relu_1x1 <- inception_4e/1x1
I0403 18:04:27.311172 16066 net.cpp:386] inception_4e/relu_1x1 -> inception_4e/1x1 (in-place)
I0403 18:04:27.311472 16066 net.cpp:141] Setting up inception_4e/relu_1x1
I0403 18:04:27.311499 16066 net.cpp:148] Top shape: 24 256 14 14 (1204224)
I0403 18:04:27.311514 16066 net.cpp:156] Memory required for data: 1218065952
I0403 18:04:27.311529 16066 layer_factory.hpp:77] Creating layer inception_4e/3x3_reduce
I0403 18:04:27.311553 16066 net.cpp:91] Creating Layer inception_4e/3x3_reduce
I0403 18:04:27.311570 16066 net.cpp:425] inception_4e/3x3_reduce <- inception_4d/output_inception_4d/output_0_split_2
I0403 18:04:27.311592 16066 net.cpp:399] inception_4e/3x3_reduce -> inception_4e/3x3_reduce
I0403 18:04:27.313788 16066 net.cpp:141] Setting up inception_4e/3x3_reduce
I0403 18:04:27.313817 16066 net.cpp:148] Top shape: 24 160 14 14 (752640)
I0403 18:04:27.313833 16066 net.cpp:156] Memory required for data: 1221076512
I0403 18:04:27.313851 16066 layer_factory.hpp:77] Creating layer inception_4e/relu_3x3_reduce
I0403 18:04:27.313873 16066 net.cpp:91] Creating Layer inception_4e/relu_3x3_reduce
I0403 18:04:27.313890 16066 net.cpp:425] inception_4e/relu_3x3_reduce <- inception_4e/3x3_reduce
I0403 18:04:27.313908 16066 net.cpp:386] inception_4e/relu_3x3_reduce -> inception_4e/3x3_reduce (in-place)
I0403 18:04:27.314106 16066 net.cpp:141] Setting up inception_4e/relu_3x3_reduce
I0403 18:04:27.314134 16066 net.cpp:148] Top shape: 24 160 14 14 (752640)
I0403 18:04:27.314151 16066 net.cpp:156] Memory required for data: 1224087072
I0403 18:04:27.314165 16066 layer_factory.hpp:77] Creating layer inception_4e/3x3
I0403 18:04:27.314188 16066 net.cpp:91] Creating Layer inception_4e/3x3
I0403 18:04:27.314205 16066 net.cpp:425] inception_4e/3x3 <- inception_4e/3x3_reduce
I0403 18:04:27.314224 16066 net.cpp:399] inception_4e/3x3 -> inception_4e/3x3
I0403 18:04:27.319259 16066 net.cpp:141] Setting up inception_4e/3x3
I0403 18:04:27.319303 16066 net.cpp:148] Top shape: 24 320 14 14 (1505280)
I0403 18:04:27.319321 16066 net.cpp:156] Memory required for data: 1230108192
I0403 18:04:27.319340 16066 layer_factory.hpp:77] Creating layer inception_4e/relu_3x3
I0403 18:04:27.319358 16066 net.cpp:91] Creating Layer inception_4e/relu_3x3
I0403 18:04:27.319375 16066 net.cpp:425] inception_4e/relu_3x3 <- inception_4e/3x3
I0403 18:04:27.319393 16066 net.cpp:386] inception_4e/relu_3x3 -> inception_4e/3x3 (in-place)
I0403 18:04:27.319701 16066 net.cpp:141] Setting up inception_4e/relu_3x3
I0403 18:04:27.319728 16066 net.cpp:148] Top shape: 24 320 14 14 (1505280)
I0403 18:04:27.319744 16066 net.cpp:156] Memory required for data: 1236129312
I0403 18:04:27.319759 16066 layer_factory.hpp:77] Creating layer inception_4e/5x5_reduce
I0403 18:04:27.319783 16066 net.cpp:91] Creating Layer inception_4e/5x5_reduce
I0403 18:04:27.319802 16066 net.cpp:425] inception_4e/5x5_reduce <- inception_4d/output_inception_4d/output_0_split_3
I0403 18:04:27.319823 16066 net.cpp:399] inception_4e/5x5_reduce -> inception_4e/5x5_reduce
I0403 18:04:27.320935 16066 net.cpp:141] Setting up inception_4e/5x5_reduce
I0403 18:04:27.320963 16066 net.cpp:148] Top shape: 24 32 14 14 (150528)
I0403 18:04:27.320984 16066 net.cpp:156] Memory required for data: 1236731424
I0403 18:04:27.321005 16066 layer_factory.hpp:77] Creating layer inception_4e/relu_5x5_reduce
I0403 18:04:27.321027 16066 net.cpp:91] Creating Layer inception_4e/relu_5x5_reduce
I0403 18:04:27.321044 16066 net.cpp:425] inception_4e/relu_5x5_reduce <- inception_4e/5x5_reduce
I0403 18:04:27.321063 16066 net.cpp:386] inception_4e/relu_5x5_reduce -> inception_4e/5x5_reduce (in-place)
I0403 18:04:27.321382 16066 net.cpp:141] Setting up inception_4e/relu_5x5_reduce
I0403 18:04:27.321409 16066 net.cpp:148] Top shape: 24 32 14 14 (150528)
I0403 18:04:27.321424 16066 net.cpp:156] Memory required for data: 1237333536
I0403 18:04:27.321440 16066 layer_factory.hpp:77] Creating layer inception_4e/5x5
I0403 18:04:27.321480 16066 net.cpp:91] Creating Layer inception_4e/5x5
I0403 18:04:27.321498 16066 net.cpp:425] inception_4e/5x5 <- inception_4e/5x5_reduce
I0403 18:04:27.321518 16066 net.cpp:399] inception_4e/5x5 -> inception_4e/5x5
I0403 18:04:27.323400 16066 net.cpp:141] Setting up inception_4e/5x5
I0403 18:04:27.323427 16066 net.cpp:148] Top shape: 24 128 14 14 (602112)
I0403 18:04:27.323443 16066 net.cpp:156] Memory required for data: 1239741984
I0403 18:04:27.323462 16066 layer_factory.hpp:77] Creating layer inception_4e/relu_5x5
I0403 18:04:27.323483 16066 net.cpp:91] Creating Layer inception_4e/relu_5x5
I0403 18:04:27.323500 16066 net.cpp:425] inception_4e/relu_5x5 <- inception_4e/5x5
I0403 18:04:27.323518 16066 net.cpp:386] inception_4e/relu_5x5 -> inception_4e/5x5 (in-place)
I0403 18:04:27.323716 16066 net.cpp:141] Setting up inception_4e/relu_5x5
I0403 18:04:27.323741 16066 net.cpp:148] Top shape: 24 128 14 14 (602112)
I0403 18:04:27.323756 16066 net.cpp:156] Memory required for data: 1242150432
I0403 18:04:27.323771 16066 layer_factory.hpp:77] Creating layer inception_4e/pool
I0403 18:04:27.323791 16066 net.cpp:91] Creating Layer inception_4e/pool
I0403 18:04:27.323808 16066 net.cpp:425] inception_4e/pool <- inception_4d/output_inception_4d/output_0_split_4
I0403 18:04:27.323827 16066 net.cpp:399] inception_4e/pool -> inception_4e/pool
I0403 18:04:27.323899 16066 net.cpp:141] Setting up inception_4e/pool
I0403 18:04:27.323925 16066 net.cpp:148] Top shape: 24 528 14 14 (2483712)
I0403 18:04:27.323940 16066 net.cpp:156] Memory required for data: 1252085280
I0403 18:04:27.323954 16066 layer_factory.hpp:77] Creating layer inception_4e/pool_proj
I0403 18:04:27.323976 16066 net.cpp:91] Creating Layer inception_4e/pool_proj
I0403 18:04:27.323998 16066 net.cpp:425] inception_4e/pool_proj <- inception_4e/pool
I0403 18:04:27.324020 16066 net.cpp:399] inception_4e/pool_proj -> inception_4e/pool_proj
I0403 18:04:27.325541 16066 net.cpp:141] Setting up inception_4e/pool_proj
I0403 18:04:27.325580 16066 net.cpp:148] Top shape: 24 128 14 14 (602112)
I0403 18:04:27.325598 16066 net.cpp:156] Memory required for data: 1254493728
I0403 18:04:27.325615 16066 layer_factory.hpp:77] Creating layer inception_4e/relu_pool_proj
I0403 18:04:27.325635 16066 net.cpp:91] Creating Layer inception_4e/relu_pool_proj
I0403 18:04:27.325651 16066 net.cpp:425] inception_4e/relu_pool_proj <- inception_4e/pool_proj
I0403 18:04:27.325670 16066 net.cpp:386] inception_4e/relu_pool_proj -> inception_4e/pool_proj (in-place)
I0403 18:04:27.325968 16066 net.cpp:141] Setting up inception_4e/relu_pool_proj
I0403 18:04:27.325999 16066 net.cpp:148] Top shape: 24 128 14 14 (602112)
I0403 18:04:27.326014 16066 net.cpp:156] Memory required for data: 1256902176
I0403 18:04:27.326030 16066 layer_factory.hpp:77] Creating layer inception_4e/output
I0403 18:04:27.326047 16066 net.cpp:91] Creating Layer inception_4e/output
I0403 18:04:27.326063 16066 net.cpp:425] inception_4e/output <- inception_4e/1x1
I0403 18:04:27.326081 16066 net.cpp:425] inception_4e/output <- inception_4e/3x3
I0403 18:04:27.326097 16066 net.cpp:425] inception_4e/output <- inception_4e/5x5
I0403 18:04:27.326112 16066 net.cpp:425] inception_4e/output <- inception_4e/pool_proj
I0403 18:04:27.326133 16066 net.cpp:399] inception_4e/output -> inception_4e/output
I0403 18:04:27.326184 16066 net.cpp:141] Setting up inception_4e/output
I0403 18:04:27.326207 16066 net.cpp:148] Top shape: 24 832 14 14 (3913728)
I0403 18:04:27.326221 16066 net.cpp:156] Memory required for data: 1272557088
I0403 18:04:27.326236 16066 layer_factory.hpp:77] Creating layer pool4/3x3_s2
I0403 18:04:27.326257 16066 net.cpp:91] Creating Layer pool4/3x3_s2
I0403 18:04:27.326275 16066 net.cpp:425] pool4/3x3_s2 <- inception_4e/output
I0403 18:04:27.326294 16066 net.cpp:399] pool4/3x3_s2 -> pool4/3x3_s2
I0403 18:04:27.326381 16066 net.cpp:141] Setting up pool4/3x3_s2
I0403 18:04:27.326406 16066 net.cpp:148] Top shape: 24 832 7 7 (978432)
I0403 18:04:27.326421 16066 net.cpp:156] Memory required for data: 1276470816
I0403 18:04:27.326437 16066 layer_factory.hpp:77] Creating layer pool4/3x3_s2_pool4/3x3_s2_0_split
I0403 18:04:27.326457 16066 net.cpp:91] Creating Layer pool4/3x3_s2_pool4/3x3_s2_0_split
I0403 18:04:27.326474 16066 net.cpp:425] pool4/3x3_s2_pool4/3x3_s2_0_split <- pool4/3x3_s2
I0403 18:04:27.326493 16066 net.cpp:399] pool4/3x3_s2_pool4/3x3_s2_0_split -> pool4/3x3_s2_pool4/3x3_s2_0_split_0
I0403 18:04:27.326514 16066 net.cpp:399] pool4/3x3_s2_pool4/3x3_s2_0_split -> pool4/3x3_s2_pool4/3x3_s2_0_split_1
I0403 18:04:27.326534 16066 net.cpp:399] pool4/3x3_s2_pool4/3x3_s2_0_split -> pool4/3x3_s2_pool4/3x3_s2_0_split_2
I0403 18:04:27.326555 16066 net.cpp:399] pool4/3x3_s2_pool4/3x3_s2_0_split -> pool4/3x3_s2_pool4/3x3_s2_0_split_3
I0403 18:04:27.326663 16066 net.cpp:141] Setting up pool4/3x3_s2_pool4/3x3_s2_0_split
I0403 18:04:27.326686 16066 net.cpp:148] Top shape: 24 832 7 7 (978432)
I0403 18:04:27.326702 16066 net.cpp:148] Top shape: 24 832 7 7 (978432)
I0403 18:04:27.326719 16066 net.cpp:148] Top shape: 24 832 7 7 (978432)
I0403 18:04:27.326733 16066 net.cpp:148] Top shape: 24 832 7 7 (978432)
I0403 18:04:27.326747 16066 net.cpp:156] Memory required for data: 1292125728
I0403 18:04:27.326762 16066 layer_factory.hpp:77] Creating layer inception_5a/1x1
I0403 18:04:27.326786 16066 net.cpp:91] Creating Layer inception_5a/1x1
I0403 18:04:27.326803 16066 net.cpp:425] inception_5a/1x1 <- pool4/3x3_s2_pool4/3x3_s2_0_split_0
I0403 18:04:27.326825 16066 net.cpp:399] inception_5a/1x1 -> inception_5a/1x1
I0403 18:04:27.329704 16066 net.cpp:141] Setting up inception_5a/1x1
I0403 18:04:27.329733 16066 net.cpp:148] Top shape: 24 256 7 7 (301056)
I0403 18:04:27.329748 16066 net.cpp:156] Memory required for data: 1293329952
I0403 18:04:27.329767 16066 layer_factory.hpp:77] Creating layer inception_5a/relu_1x1
I0403 18:04:27.329787 16066 net.cpp:91] Creating Layer inception_5a/relu_1x1
I0403 18:04:27.329804 16066 net.cpp:425] inception_5a/relu_1x1 <- inception_5a/1x1
I0403 18:04:27.329823 16066 net.cpp:386] inception_5a/relu_1x1 -> inception_5a/1x1 (in-place)
I0403 18:04:27.330162 16066 net.cpp:141] Setting up inception_5a/relu_1x1
I0403 18:04:27.330188 16066 net.cpp:148] Top shape: 24 256 7 7 (301056)
I0403 18:04:27.330215 16066 net.cpp:156] Memory required for data: 1294534176
I0403 18:04:27.330229 16066 layer_factory.hpp:77] Creating layer inception_5a/3x3_reduce
I0403 18:04:27.330252 16066 net.cpp:91] Creating Layer inception_5a/3x3_reduce
I0403 18:04:27.330270 16066 net.cpp:425] inception_5a/3x3_reduce <- pool4/3x3_s2_pool4/3x3_s2_0_split_1
I0403 18:04:27.330291 16066 net.cpp:399] inception_5a/3x3_reduce -> inception_5a/3x3_reduce
I0403 18:04:27.332718 16066 net.cpp:141] Setting up inception_5a/3x3_reduce
I0403 18:04:27.332749 16066 net.cpp:148] Top shape: 24 160 7 7 (188160)
I0403 18:04:27.332767 16066 net.cpp:156] Memory required for data: 1295286816
I0403 18:04:27.332785 16066 layer_factory.hpp:77] Creating layer inception_5a/relu_3x3_reduce
I0403 18:04:27.332803 16066 net.cpp:91] Creating Layer inception_5a/relu_3x3_reduce
I0403 18:04:27.332820 16066 net.cpp:425] inception_5a/relu_3x3_reduce <- inception_5a/3x3_reduce
I0403 18:04:27.332839 16066 net.cpp:386] inception_5a/relu_3x3_reduce -> inception_5a/3x3_reduce (in-place)
I0403 18:04:27.333031 16066 net.cpp:141] Setting up inception_5a/relu_3x3_reduce
I0403 18:04:27.333056 16066 net.cpp:148] Top shape: 24 160 7 7 (188160)
I0403 18:04:27.333071 16066 net.cpp:156] Memory required for data: 1296039456
I0403 18:04:27.333086 16066 layer_factory.hpp:77] Creating layer inception_5a/3x3
I0403 18:04:27.333108 16066 net.cpp:91] Creating Layer inception_5a/3x3
I0403 18:04:27.333125 16066 net.cpp:425] inception_5a/3x3 <- inception_5a/3x3_reduce
I0403 18:04:27.333148 16066 net.cpp:399] inception_5a/3x3 -> inception_5a/3x3
I0403 18:04:27.338071 16066 net.cpp:141] Setting up inception_5a/3x3
I0403 18:04:27.338100 16066 net.cpp:148] Top shape: 24 320 7 7 (376320)
I0403 18:04:27.338116 16066 net.cpp:156] Memory required for data: 1297544736
I0403 18:04:27.338135 16066 layer_factory.hpp:77] Creating layer inception_5a/relu_3x3
I0403 18:04:27.338155 16066 net.cpp:91] Creating Layer inception_5a/relu_3x3
I0403 18:04:27.338171 16066 net.cpp:425] inception_5a/relu_3x3 <- inception_5a/3x3
I0403 18:04:27.338189 16066 net.cpp:386] inception_5a/relu_3x3 -> inception_5a/3x3 (in-place)
I0403 18:04:27.338480 16066 net.cpp:141] Setting up inception_5a/relu_3x3
I0403 18:04:27.338506 16066 net.cpp:148] Top shape: 24 320 7 7 (376320)
I0403 18:04:27.338521 16066 net.cpp:156] Memory required for data: 1299050016
I0403 18:04:27.338536 16066 layer_factory.hpp:77] Creating layer inception_5a/5x5_reduce
I0403 18:04:27.338558 16066 net.cpp:91] Creating Layer inception_5a/5x5_reduce
I0403 18:04:27.338577 16066 net.cpp:425] inception_5a/5x5_reduce <- pool4/3x3_s2_pool4/3x3_s2_0_split_2
I0403 18:04:27.338598 16066 net.cpp:399] inception_5a/5x5_reduce -> inception_5a/5x5_reduce
I0403 18:04:27.339757 16066 net.cpp:141] Setting up inception_5a/5x5_reduce
I0403 18:04:27.339786 16066 net.cpp:148] Top shape: 24 32 7 7 (37632)
I0403 18:04:27.339802 16066 net.cpp:156] Memory required for data: 1299200544
I0403 18:04:27.339820 16066 layer_factory.hpp:77] Creating layer inception_5a/relu_5x5_reduce
I0403 18:04:27.339840 16066 net.cpp:91] Creating Layer inception_5a/relu_5x5_reduce
I0403 18:04:27.339857 16066 net.cpp:425] inception_5a/relu_5x5_reduce <- inception_5a/5x5_reduce
I0403 18:04:27.339874 16066 net.cpp:386] inception_5a/relu_5x5_reduce -> inception_5a/5x5_reduce (in-place)
I0403 18:04:27.340175 16066 net.cpp:141] Setting up inception_5a/relu_5x5_reduce
I0403 18:04:27.340200 16066 net.cpp:148] Top shape: 24 32 7 7 (37632)
I0403 18:04:27.340215 16066 net.cpp:156] Memory required for data: 1299351072
I0403 18:04:27.340230 16066 layer_factory.hpp:77] Creating layer inception_5a/5x5
I0403 18:04:27.340255 16066 net.cpp:91] Creating Layer inception_5a/5x5
I0403 18:04:27.340272 16066 net.cpp:425] inception_5a/5x5 <- inception_5a/5x5_reduce
I0403 18:04:27.340294 16066 net.cpp:399] inception_5a/5x5 -> inception_5a/5x5
I0403 18:04:27.342030 16066 net.cpp:141] Setting up inception_5a/5x5
I0403 18:04:27.342068 16066 net.cpp:148] Top shape: 24 128 7 7 (150528)
I0403 18:04:27.342084 16066 net.cpp:156] Memory required for data: 1299953184
I0403 18:04:27.342103 16066 layer_factory.hpp:77] Creating layer inception_5a/relu_5x5
I0403 18:04:27.342123 16066 net.cpp:91] Creating Layer inception_5a/relu_5x5
I0403 18:04:27.342140 16066 net.cpp:425] inception_5a/relu_5x5 <- inception_5a/5x5
I0403 18:04:27.342157 16066 net.cpp:386] inception_5a/relu_5x5 -> inception_5a/5x5 (in-place)
I0403 18:04:27.342347 16066 net.cpp:141] Setting up inception_5a/relu_5x5
I0403 18:04:27.342371 16066 net.cpp:148] Top shape: 24 128 7 7 (150528)
I0403 18:04:27.342386 16066 net.cpp:156] Memory required for data: 1300555296
I0403 18:04:27.342401 16066 layer_factory.hpp:77] Creating layer inception_5a/pool
I0403 18:04:27.342419 16066 net.cpp:91] Creating Layer inception_5a/pool
I0403 18:04:27.342437 16066 net.cpp:425] inception_5a/pool <- pool4/3x3_s2_pool4/3x3_s2_0_split_3
I0403 18:04:27.342454 16066 net.cpp:399] inception_5a/pool -> inception_5a/pool
I0403 18:04:27.342525 16066 net.cpp:141] Setting up inception_5a/pool
I0403 18:04:27.342548 16066 net.cpp:148] Top shape: 24 832 7 7 (978432)
I0403 18:04:27.342563 16066 net.cpp:156] Memory required for data: 1304469024
I0403 18:04:27.342577 16066 layer_factory.hpp:77] Creating layer inception_5a/pool_proj
I0403 18:04:27.342599 16066 net.cpp:91] Creating Layer inception_5a/pool_proj
I0403 18:04:27.342617 16066 net.cpp:425] inception_5a/pool_proj <- inception_5a/pool
I0403 18:04:27.342636 16066 net.cpp:399] inception_5a/pool_proj -> inception_5a/pool_proj
I0403 18:04:27.344890 16066 net.cpp:141] Setting up inception_5a/pool_proj
I0403 18:04:27.344919 16066 net.cpp:148] Top shape: 24 128 7 7 (150528)
I0403 18:04:27.344935 16066 net.cpp:156] Memory required for data: 1305071136
I0403 18:04:27.344954 16066 layer_factory.hpp:77] Creating layer inception_5a/relu_pool_proj
I0403 18:04:27.344972 16066 net.cpp:91] Creating Layer inception_5a/relu_pool_proj
I0403 18:04:27.344993 16066 net.cpp:425] inception_5a/relu_pool_proj <- inception_5a/pool_proj
I0403 18:04:27.345013 16066 net.cpp:386] inception_5a/relu_pool_proj -> inception_5a/pool_proj (in-place)
I0403 18:04:27.345310 16066 net.cpp:141] Setting up inception_5a/relu_pool_proj
I0403 18:04:27.345336 16066 net.cpp:148] Top shape: 24 128 7 7 (150528)
I0403 18:04:27.345351 16066 net.cpp:156] Memory required for data: 1305673248
I0403 18:04:27.345366 16066 layer_factory.hpp:77] Creating layer inception_5a/output
I0403 18:04:27.345384 16066 net.cpp:91] Creating Layer inception_5a/output
I0403 18:04:27.345399 16066 net.cpp:425] inception_5a/output <- inception_5a/1x1
I0403 18:04:27.345417 16066 net.cpp:425] inception_5a/output <- inception_5a/3x3
I0403 18:04:27.345432 16066 net.cpp:425] inception_5a/output <- inception_5a/5x5
I0403 18:04:27.345448 16066 net.cpp:425] inception_5a/output <- inception_5a/pool_proj
I0403 18:04:27.345468 16066 net.cpp:399] inception_5a/output -> inception_5a/output
I0403 18:04:27.345517 16066 net.cpp:141] Setting up inception_5a/output
I0403 18:04:27.345543 16066 net.cpp:148] Top shape: 24 832 7 7 (978432)
I0403 18:04:27.345558 16066 net.cpp:156] Memory required for data: 1309586976
I0403 18:04:27.345573 16066 layer_factory.hpp:77] Creating layer inception_5a/output_inception_5a/output_0_split
I0403 18:04:27.345590 16066 net.cpp:91] Creating Layer inception_5a/output_inception_5a/output_0_split
I0403 18:04:27.345607 16066 net.cpp:425] inception_5a/output_inception_5a/output_0_split <- inception_5a/output
I0403 18:04:27.345623 16066 net.cpp:399] inception_5a/output_inception_5a/output_0_split -> inception_5a/output_inception_5a/output_0_split_0
I0403 18:04:27.345643 16066 net.cpp:399] inception_5a/output_inception_5a/output_0_split -> inception_5a/output_inception_5a/output_0_split_1
I0403 18:04:27.345666 16066 net.cpp:399] inception_5a/output_inception_5a/output_0_split -> inception_5a/output_inception_5a/output_0_split_2
I0403 18:04:27.345688 16066 net.cpp:399] inception_5a/output_inception_5a/output_0_split -> inception_5a/output_inception_5a/output_0_split_3
I0403 18:04:27.345799 16066 net.cpp:141] Setting up inception_5a/output_inception_5a/output_0_split
I0403 18:04:27.345824 16066 net.cpp:148] Top shape: 24 832 7 7 (978432)
I0403 18:04:27.345839 16066 net.cpp:148] Top shape: 24 832 7 7 (978432)
I0403 18:04:27.345854 16066 net.cpp:148] Top shape: 24 832 7 7 (978432)
I0403 18:04:27.345870 16066 net.cpp:148] Top shape: 24 832 7 7 (978432)
I0403 18:04:27.345883 16066 net.cpp:156] Memory required for data: 1325241888
I0403 18:04:27.345897 16066 layer_factory.hpp:77] Creating layer inception_5b/1x1
I0403 18:04:27.345919 16066 net.cpp:91] Creating Layer inception_5b/1x1
I0403 18:04:27.345937 16066 net.cpp:425] inception_5b/1x1 <- inception_5a/output_inception_5a/output_0_split_0
I0403 18:04:27.345959 16066 net.cpp:399] inception_5b/1x1 -> inception_5b/1x1
I0403 18:04:27.349678 16066 net.cpp:141] Setting up inception_5b/1x1
I0403 18:04:27.349710 16066 net.cpp:148] Top shape: 24 384 7 7 (451584)
I0403 18:04:27.349727 16066 net.cpp:156] Memory required for data: 1327048224
I0403 18:04:27.349745 16066 layer_factory.hpp:77] Creating layer inception_5b/relu_1x1
I0403 18:04:27.349763 16066 net.cpp:91] Creating Layer inception_5b/relu_1x1
I0403 18:04:27.349781 16066 net.cpp:425] inception_5b/relu_1x1 <- inception_5b/1x1
I0403 18:04:27.349799 16066 net.cpp:386] inception_5b/relu_1x1 -> inception_5b/1x1 (in-place)
I0403 18:04:27.350106 16066 net.cpp:141] Setting up inception_5b/relu_1x1
I0403 18:04:27.350134 16066 net.cpp:148] Top shape: 24 384 7 7 (451584)
I0403 18:04:27.350150 16066 net.cpp:156] Memory required for data: 1328854560
I0403 18:04:27.350165 16066 layer_factory.hpp:77] Creating layer inception_5b/3x3_reduce
I0403 18:04:27.350188 16066 net.cpp:91] Creating Layer inception_5b/3x3_reduce
I0403 18:04:27.350205 16066 net.cpp:425] inception_5b/3x3_reduce <- inception_5a/output_inception_5a/output_0_split_1
I0403 18:04:27.350225 16066 net.cpp:399] inception_5b/3x3_reduce -> inception_5b/3x3_reduce
I0403 18:04:27.352869 16066 net.cpp:141] Setting up inception_5b/3x3_reduce
I0403 18:04:27.352900 16066 net.cpp:148] Top shape: 24 192 7 7 (225792)
I0403 18:04:27.352916 16066 net.cpp:156] Memory required for data: 1329757728
I0403 18:04:27.352936 16066 layer_factory.hpp:77] Creating layer inception_5b/relu_3x3_reduce
I0403 18:04:27.352953 16066 net.cpp:91] Creating Layer inception_5b/relu_3x3_reduce
I0403 18:04:27.352969 16066 net.cpp:425] inception_5b/relu_3x3_reduce <- inception_5b/3x3_reduce
I0403 18:04:27.352993 16066 net.cpp:386] inception_5b/relu_3x3_reduce -> inception_5b/3x3_reduce (in-place)
I0403 18:04:27.353185 16066 net.cpp:141] Setting up inception_5b/relu_3x3_reduce
I0403 18:04:27.353210 16066 net.cpp:148] Top shape: 24 192 7 7 (225792)
I0403 18:04:27.353224 16066 net.cpp:156] Memory required for data: 1330660896
I0403 18:04:27.353240 16066 layer_factory.hpp:77] Creating layer inception_5b/3x3
I0403 18:04:27.353261 16066 net.cpp:91] Creating Layer inception_5b/3x3
I0403 18:04:27.353278 16066 net.cpp:425] inception_5b/3x3 <- inception_5b/3x3_reduce
I0403 18:04:27.353299 16066 net.cpp:399] inception_5b/3x3 -> inception_5b/3x3
I0403 18:04:27.359886 16066 net.cpp:141] Setting up inception_5b/3x3
I0403 18:04:27.359915 16066 net.cpp:148] Top shape: 24 384 7 7 (451584)
I0403 18:04:27.359931 16066 net.cpp:156] Memory required for data: 1332467232
I0403 18:04:27.359951 16066 layer_factory.hpp:77] Creating layer inception_5b/relu_3x3
I0403 18:04:27.359968 16066 net.cpp:91] Creating Layer inception_5b/relu_3x3
I0403 18:04:27.359989 16066 net.cpp:425] inception_5b/relu_3x3 <- inception_5b/3x3
I0403 18:04:27.360010 16066 net.cpp:386] inception_5b/relu_3x3 -> inception_5b/3x3 (in-place)
I0403 18:04:27.360313 16066 net.cpp:141] Setting up inception_5b/relu_3x3
I0403 18:04:27.360340 16066 net.cpp:148] Top shape: 24 384 7 7 (451584)
I0403 18:04:27.360355 16066 net.cpp:156] Memory required for data: 1334273568
I0403 18:04:27.360369 16066 layer_factory.hpp:77] Creating layer inception_5b/5x5_reduce
I0403 18:04:27.360406 16066 net.cpp:91] Creating Layer inception_5b/5x5_reduce
I0403 18:04:27.360425 16066 net.cpp:425] inception_5b/5x5_reduce <- inception_5a/output_inception_5a/output_0_split_2
I0403 18:04:27.360448 16066 net.cpp:399] inception_5b/5x5_reduce -> inception_5b/5x5_reduce
I0403 18:04:27.361809 16066 net.cpp:141] Setting up inception_5b/5x5_reduce
I0403 18:04:27.361837 16066 net.cpp:148] Top shape: 24 48 7 7 (56448)
I0403 18:04:27.361855 16066 net.cpp:156] Memory required for data: 1334499360
I0403 18:04:27.361872 16066 layer_factory.hpp:77] Creating layer inception_5b/relu_5x5_reduce
I0403 18:04:27.361891 16066 net.cpp:91] Creating Layer inception_5b/relu_5x5_reduce
I0403 18:04:27.361908 16066 net.cpp:425] inception_5b/relu_5x5_reduce <- inception_5b/5x5_reduce
I0403 18:04:27.361929 16066 net.cpp:386] inception_5b/relu_5x5_reduce -> inception_5b/5x5_reduce (in-place)
I0403 18:04:27.362314 16066 net.cpp:141] Setting up inception_5b/relu_5x5_reduce
I0403 18:04:27.362341 16066 net.cpp:148] Top shape: 24 48 7 7 (56448)
I0403 18:04:27.362357 16066 net.cpp:156] Memory required for data: 1334725152
I0403 18:04:27.362372 16066 layer_factory.hpp:77] Creating layer inception_5b/5x5
I0403 18:04:27.362392 16066 net.cpp:91] Creating Layer inception_5b/5x5
I0403 18:04:27.362411 16066 net.cpp:425] inception_5b/5x5 <- inception_5b/5x5_reduce
I0403 18:04:27.362429 16066 net.cpp:399] inception_5b/5x5 -> inception_5b/5x5
I0403 18:04:27.364503 16066 net.cpp:141] Setting up inception_5b/5x5
I0403 18:04:27.364532 16066 net.cpp:148] Top shape: 24 128 7 7 (150528)
I0403 18:04:27.364547 16066 net.cpp:156] Memory required for data: 1335327264
I0403 18:04:27.364567 16066 layer_factory.hpp:77] Creating layer inception_5b/relu_5x5
I0403 18:04:27.364588 16066 net.cpp:91] Creating Layer inception_5b/relu_5x5
I0403 18:04:27.364605 16066 net.cpp:425] inception_5b/relu_5x5 <- inception_5b/5x5
I0403 18:04:27.364622 16066 net.cpp:386] inception_5b/relu_5x5 -> inception_5b/5x5 (in-place)
I0403 18:04:27.364822 16066 net.cpp:141] Setting up inception_5b/relu_5x5
I0403 18:04:27.364847 16066 net.cpp:148] Top shape: 24 128 7 7 (150528)
I0403 18:04:27.364866 16066 net.cpp:156] Memory required for data: 1335929376
I0403 18:04:27.364881 16066 layer_factory.hpp:77] Creating layer inception_5b/pool
I0403 18:04:27.364898 16066 net.cpp:91] Creating Layer inception_5b/pool
I0403 18:04:27.364915 16066 net.cpp:425] inception_5b/pool <- inception_5a/output_inception_5a/output_0_split_3
I0403 18:04:27.364935 16066 net.cpp:399] inception_5b/pool -> inception_5b/pool
I0403 18:04:27.365015 16066 net.cpp:141] Setting up inception_5b/pool
I0403 18:04:27.365039 16066 net.cpp:148] Top shape: 24 832 7 7 (978432)
I0403 18:04:27.365054 16066 net.cpp:156] Memory required for data: 1339843104
I0403 18:04:27.365069 16066 layer_factory.hpp:77] Creating layer inception_5b/pool_proj
I0403 18:04:27.365092 16066 net.cpp:91] Creating Layer inception_5b/pool_proj
I0403 18:04:27.365109 16066 net.cpp:425] inception_5b/pool_proj <- inception_5b/pool
I0403 18:04:27.365131 16066 net.cpp:399] inception_5b/pool_proj -> inception_5b/pool_proj
I0403 18:04:27.367467 16066 net.cpp:141] Setting up inception_5b/pool_proj
I0403 18:04:27.367497 16066 net.cpp:148] Top shape: 24 128 7 7 (150528)
I0403 18:04:27.367513 16066 net.cpp:156] Memory required for data: 1340445216
I0403 18:04:27.367532 16066 layer_factory.hpp:77] Creating layer inception_5b/relu_pool_proj
I0403 18:04:27.367550 16066 net.cpp:91] Creating Layer inception_5b/relu_pool_proj
I0403 18:04:27.367569 16066 net.cpp:425] inception_5b/relu_pool_proj <- inception_5b/pool_proj
I0403 18:04:27.367588 16066 net.cpp:386] inception_5b/relu_pool_proj -> inception_5b/pool_proj (in-place)
I0403 18:04:27.367893 16066 net.cpp:141] Setting up inception_5b/relu_pool_proj
I0403 18:04:27.367920 16066 net.cpp:148] Top shape: 24 128 7 7 (150528)
I0403 18:04:27.367935 16066 net.cpp:156] Memory required for data: 1341047328
I0403 18:04:27.367950 16066 layer_factory.hpp:77] Creating layer inception_5b/output
I0403 18:04:27.367969 16066 net.cpp:91] Creating Layer inception_5b/output
I0403 18:04:27.368010 16066 net.cpp:425] inception_5b/output <- inception_5b/1x1
I0403 18:04:27.368029 16066 net.cpp:425] inception_5b/output <- inception_5b/3x3
I0403 18:04:27.368047 16066 net.cpp:425] inception_5b/output <- inception_5b/5x5
I0403 18:04:27.368064 16066 net.cpp:425] inception_5b/output <- inception_5b/pool_proj
I0403 18:04:27.368084 16066 net.cpp:399] inception_5b/output -> inception_5b/output
I0403 18:04:27.368137 16066 net.cpp:141] Setting up inception_5b/output
I0403 18:04:27.368163 16066 net.cpp:148] Top shape: 24 1024 7 7 (1204224)
I0403 18:04:27.368180 16066 net.cpp:156] Memory required for data: 1345864224
I0403 18:04:27.368194 16066 layer_factory.hpp:77] Creating layer pool5/7x7_s1
I0403 18:04:27.368212 16066 net.cpp:91] Creating Layer pool5/7x7_s1
I0403 18:04:27.368228 16066 net.cpp:425] pool5/7x7_s1 <- inception_5b/output
I0403 18:04:27.368250 16066 net.cpp:399] pool5/7x7_s1 -> pool5/7x7_s1
I0403 18:04:27.368473 16066 net.cpp:141] Setting up pool5/7x7_s1
I0403 18:04:27.368499 16066 net.cpp:148] Top shape: 24 1024 1 1 (24576)
I0403 18:04:27.368513 16066 net.cpp:156] Memory required for data: 1345962528
I0403 18:04:27.368528 16066 layer_factory.hpp:77] Creating layer pool5/drop_7x7_s1
I0403 18:04:27.368547 16066 net.cpp:91] Creating Layer pool5/drop_7x7_s1
I0403 18:04:27.368563 16066 net.cpp:425] pool5/drop_7x7_s1 <- pool5/7x7_s1
I0403 18:04:27.368583 16066 net.cpp:386] pool5/drop_7x7_s1 -> pool5/7x7_s1 (in-place)
I0403 18:04:27.368633 16066 net.cpp:141] Setting up pool5/drop_7x7_s1
I0403 18:04:27.368659 16066 net.cpp:148] Top shape: 24 1024 1 1 (24576)
I0403 18:04:27.368675 16066 net.cpp:156] Memory required for data: 1346060832
I0403 18:04:27.368690 16066 layer_factory.hpp:77] Creating layer loss3/classifier_plantvillage
I0403 18:04:27.368708 16066 net.cpp:91] Creating Layer loss3/classifier_plantvillage
I0403 18:04:27.368724 16066 net.cpp:425] loss3/classifier_plantvillage <- pool5/7x7_s1
I0403 18:04:27.368746 16066 net.cpp:399] loss3/classifier_plantvillage -> loss3/classifier_plantvillage
I0403 18:04:27.369180 16066 net.cpp:141] Setting up loss3/classifier_plantvillage
I0403 18:04:27.369207 16066 net.cpp:148] Top shape: 24 38 (912)
I0403 18:04:27.369223 16066 net.cpp:156] Memory required for data: 1346064480
I0403 18:04:27.369241 16066 layer_factory.hpp:77] Creating layer loss3/classifier_plantvillage_loss3/classifier_plantvillage_0_split
I0403 18:04:27.369259 16066 net.cpp:91] Creating Layer loss3/classifier_plantvillage_loss3/classifier_plantvillage_0_split
I0403 18:04:27.369276 16066 net.cpp:425] loss3/classifier_plantvillage_loss3/classifier_plantvillage_0_split <- loss3/classifier_plantvillage
I0403 18:04:27.369293 16066 net.cpp:399] loss3/classifier_plantvillage_loss3/classifier_plantvillage_0_split -> loss3/classifier_plantvillage_loss3/classifier_plantvillage_0_split_0
I0403 18:04:27.369314 16066 net.cpp:399] loss3/classifier_plantvillage_loss3/classifier_plantvillage_0_split -> loss3/classifier_plantvillage_loss3/classifier_plantvillage_0_split_1
I0403 18:04:27.369350 16066 net.cpp:399] loss3/classifier_plantvillage_loss3/classifier_plantvillage_0_split -> loss3/classifier_plantvillage_loss3/classifier_plantvillage_0_split_2
I0403 18:04:27.369374 16066 net.cpp:399] loss3/classifier_plantvillage_loss3/classifier_plantvillage_0_split -> loss3/classifier_plantvillage_loss3/classifier_plantvillage_0_split_3
I0403 18:04:27.369482 16066 net.cpp:141] Setting up loss3/classifier_plantvillage_loss3/classifier_plantvillage_0_split
I0403 18:04:27.369508 16066 net.cpp:148] Top shape: 24 38 (912)
I0403 18:04:27.369524 16066 net.cpp:148] Top shape: 24 38 (912)
I0403 18:04:27.369539 16066 net.cpp:148] Top shape: 24 38 (912)
I0403 18:04:27.369555 16066 net.cpp:148] Top shape: 24 38 (912)
I0403 18:04:27.369570 16066 net.cpp:156] Memory required for data: 1346079072
I0403 18:04:27.369585 16066 layer_factory.hpp:77] Creating layer loss1/loss
I0403 18:04:27.369609 16066 net.cpp:91] Creating Layer loss1/loss
I0403 18:04:27.369639 16066 net.cpp:425] loss1/loss <- loss1/classifier_plantvillage_loss1/classifier_plantvillage_0_split_0
I0403 18:04:27.369670 16066 net.cpp:425] loss1/loss <- label_data_1_split_0
…
