…
I0403 18:19:48.078970 17015 net.cpp:313] The NetState phase (1) differed from the phase (0) specified by a rule in layer data
I0403 18:19:48.080129 17015 net.cpp:49] Initializing net from parameters: 
state {
  phase: TEST
}
layer {
  name: "data"
  type: "Data"
  top: "data"
  top: "label"
  include {
    phase: TEST
  }
  transform_param {
    mirror: false
    crop_size: 224
    mean_file: "/home/mohanty/data/final_dataset/lmdb/grayscale-60-40/mean.binaryproto"
  }
  data_param {
    source: "/home/mohanty/data/final_dataset/lmdb/grayscale-60-40/test_db"
    batch_size: 24
    backend: LMDB
  }
}
layer {
  name: "conv1/7x7_s2"
  type: "Convolution"
  bottom: "data"
  top: "conv1/7x7_s2"
  param {
    lr_mult: 1
    decay_mult: 1
  }
  param {
    lr_mult: 2
    decay_mult: 0
  }
  convolution_param {
    num_output: 64
    pad: 3
    kernel_size: 7
    stride: 2
    weight_filler {
      type: "xavier"
      std: 0.1
    }
    bias_filler {
      type: "constant"
      value: 0.2
    }
  }
}
layer {
  name: "conv1/relu_7x7"
  type: "ReLU"
  bottom: "conv1/7x7_s2"
  top: "conv1/7x7_s2"
}
layer {
  name: "pool1/3x3_s2"
  type: "Pooling"
  bottom: "conv1/7x7_s2"
  top: "pool1/3x3_s2"
  pooling_param {
    pool: MAX
    kernel_size: 3
    stride: 2
  }
}
layer {
  name: "pool1/norm1"
  type: "LRN"
  bottom: "pool1/3x3_s2"
  top: "pool1/norm1"
  lrn_param {
    local_size: 5
    alpha: 0.0001
    beta: 0.75
  }
}
layer {
  name: "conv2/3x3_reduce"
  type: "Convolution"
  bottom: "pool1/norm1"
  top: "conv2/3x3_reduce"
  param {
    lr_mult: 1
    decay_mult: 1
  }
  param {
    lr_mult: 2
    decay_mult: 0
  }
  convolution_param {
    num_output: 64
    kernel_size: 1
    weight_filler {
      type: "xavier"
      std: 0.1
    }
    bias_filler {
      type: "constant"
      value: 0.2
    }
  }
}
layer {
  name: "conv2/relu_3x3_reduce"
  type: "ReLU"
  bottom: "conv2/3x3_reduce"
  top: "conv2/3x3_reduce"
}
layer {
  name: "conv2/3x3"
  type: "Convolution"
  bottom: "conv2/3x3_reduce"
  top: "conv2/3x3"
  param {
    lr_mult: 1
    decay_mult: 1
  }
  param {
    lr_mult: 2
    decay_mult: 0
  }
  convolution_param {
    num_output: 192
    pad: 1
    kernel_size: 3
    weight_filler {
      type: "xavier"
      std: 0.03
    }
    bias_filler {
      type: "constant"
      value: 0.2
    }
  }
}
layer {
  name: "conv2/relu_3x3"
  type: "ReLU"
  bottom: "conv2/3x3"
  top: "conv2/3x3"
}
layer {
  name: "conv2/norm2"
  type: "LRN"
  bottom: "conv2/3x3"
  top: "conv2/norm2"
  lrn_param {
    local_size: 5
    alpha: 0.0001
    beta: 0.75
  }
}
layer {
  name: "pool2/3x3_s2"
  type: "Pooling"
  bottom: "conv2/norm2"
  top: "pool2/3x3_s2"
  pooling_param {
    pool: MAX
    kernel_size: 3
    stride: 2
  }
}
layer {
  name: "inception_3a/1x1"
  type: "Convolution"
  bottom: "pool2/3x3_s2"
  top: "inception_3a/1x1"
  param {
    lr_mult: 1
    decay_mult: 1
  }
  param {
    lr_mult: 2
    decay_mult: 0
  }
  convolution_param {
    num_output: 64
    kernel_size: 1
    weight_filler {
      type: "xavier"
      std: 0.03
    }
    bias_filler {
      type: "constant"
      value: 0.2
    }
  }
}
layer {
  name: "inception_3a/relu_1x1"
  type: "ReLU"
  bottom: "inception_3a/1x1"
  top: "inception_3a/1x1"
}
layer {
  name: "inception_3a/3x3_reduce"
  type: "Convolution"
  bottom: "pool2/3x3_s2"
  top: "inception_3a/3x3_reduce"
  param {
    lr_mult: 1
    decay_mult: 1
  }
  param {
    lr_mult: 2
    decay_mult: 0
  }
  convolution_param {
    num_output: 96
    kernel_size: 1
    weight_filler {
      type: "xavier"
      std: 0.09
    }
    bias_filler {
      type: "constant"
      value: 0.2
    }
  }
}
layer {
  name: "inception_3a/relu_3x3_reduce"
  type: "ReLU"
  bottom: "inception_3a/3x3_reduce"
  top: "inception_3a/3x3_reduce"
}
layer {
  name: "inception_3a/3x3"
  type: "Convolution"
  bottom: "inception_3a/3x3_reduce"
  top: "inception_3a/3x3"
  param {
    lr_mult: 1
    decay_mult: 1
  }
  param {
    lr_mult: 2
    decay_mult: 0
  }
  convolution_param {
    num_output: 128
    pad: 1
    kernel_size: 3
    weight_filler {
      type: "xavier"
      std: 0.03
    }
    bias_filler {
      type: "constant"
      value: 0.2
    }
  }
}
layer {
  name: "inception_3a/relu_3x3"
  type: "ReLU"
  bottom: "inception_3a/3x3"
  top: "inception_3a/3x3"
}
layer {
  name: "inception_3a/5x5_reduce"
  type: "Convolution"
  bottom: "pool2/3x3_s2"
  top: "inception_3a/5x5_reduce"
  param {
    lr_mult: 1
    decay_mult: 1
  }
  param {
    lr_mult: 2
    decay_mult: 0
  }
  convolution_param {
    num_output: 16
    kernel_size: 1
    weight_filler {
      type: "xavier"
      std: 0.2
    }
    bias_filler {
      type: "constant"
      value: 0.2
    }
  }
}
layer {
  name: "inception_3a/relu_5x5_reduce"
  type: "ReLU"
  bottom: "inception_3a/5x5_reduce"
  top: "inception_3a/5x5_reduce"
}
layer {
  name: "inception_3a/5x5"
  type: "Convolution"
  bottom: "inception_3a/5x5_reduce"
  top: "inception_3a/5x5"
  param {
    lr_mult: 1
    decay_mult: 1
  }
  param {
    lr_mult: 2
    decay_mult: 0
  }
  convolution_param {
    num_output: 32
    pad: 2
    kernel_size: 5
    weight_filler {
      type: "xavier"
      std: 0.03
    }
    bias_filler {
      type: "constant"
      value: 0.2
    }
  }
}
layer {
  name: "inception_3a/relu_5x5"
  type: "ReLU"
  bottom: "inception_3a/5x5"
  top: "inception_3a/5x5"
}
layer {
  name: "inception_3a/pool"
  type: "Pooling"
  bottom: "pool2/3x3_s2"
  top: "inception_3a/pool"
  pooling_param {
    pool: MAX
    kernel_size: 3
    stride: 1
    pad: 1
  }
}
layer {
  name: "inception_3a/pool_proj"
  type: "Convolution"
  bottom: "inception_3a/pool"
  top: "inception_3a/pool_proj"
  param {
    lr_mult: 1
    decay_mult: 1
  }
  param {
    lr_mult: 2
    decay_mult: 0
  }
  convolution_param {
    num_output: 32
    kernel_size: 1
    weight_filler {
      type: "xavier"
      std: 0.1
    }
    bias_filler {
      type: "constant"
      value: 0.2
    }
  }
}
layer {
  name: "inception_3a/relu_pool_proj"
  type: "ReLU"
  bottom: "inception_3a/pool_proj"
  top: "inception_3a/pool_proj"
}
layer {
  name: "inception_3a/output"
  type: "Concat"
  bottom: "inception_3a/1x1"
  bottom: "inception_3a/3x3"
  bottom: "inception_3a/5x5"
  bottom: "inception_3a/pool_proj"
  top: "inception_3a/output"
}
layer {
  name: "inception_3b/1x1"
  type: "Convolution"
  bottom: "inception_3a/output"
  top: "inception_3b/1x1"
  param {
    lr_mult: 1
    decay_mult: 1
  }
  param {
    lr_mult: 2
    decay_mult: 0
  }
  convolution_param {
    num_output: 128
    kernel_size: 1
    weight_filler {
      type: "xavier"
      std: 0.03
    }
    bias_filler {
      type: "constant"
      value: 0.2
    }
  }
}
layer {
  name: "inception_3b/relu_1x1"
  type: "ReLU"
  bottom: "inception_3b/1x1"
  top: "inception_3b/1x1"
}
layer {
  name: "inception_3b/3x3_reduce"
  type: "Convolution"
  bottom: "inception_3a/output"
  top: "inception_3b/3x3_reduce"
  param {
    lr_mult: 1
    decay_mult: 1
  }
  param {
    lr_mult: 2
    decay_mult: 0
  }
  convolution_param {
    num_output: 128
    kernel_size: 1
    weight_filler {
      type: "xavier"
      std: 0.09
    }
    bias_filler {
      type: "constant"
      value: 0.2
    }
  }
}
layer {
  name: "inception_3b/relu_3x3_reduce"
  type: "ReLU"
  bottom: "inception_3b/3x3_reduce"
  top: "inception_3b/3x3_reduce"
}
layer {
  name: "inception_3b/3x3"
  type: "Convolution"
  bottom: "inception_3b/3x3_reduce"
  top: "inception_3b/3x3"
  param {
    lr_mult: 1
    decay_mult: 1
  }
  param {
    lr_mult: 2
    decay_mult: 0
  }
  convolution_param {
    num_output: 192
    pad: 1
    kernel_size: 3
    weight_filler {
      type: "xavier"
      std: 0.03
    }
    bias_filler {
      type: "constant"
      value: 0.2
    }
  }
}
layer {
  name: "inception_3b/relu_3x3"
  type: "ReLU"
  bottom: "inception_3b/3x3"
  top: "inception_3b/3x3"
}
layer {
  name: "inception_3b/5x5_reduce"
  type: "Convolution"
  bottom: "inception_3a/output"
  top: "inception_3b/5x5_reduce"
  param {
    lr_mult: 1
    decay_mult: 1
  }
  param {
    lr_mult: 2
    decay_mult: 0
  }
  convolution_param {
    num_output: 32
    kernel_size: 1
    weight_filler {
      type: "xavier"
      std: 0.2
    }
    bias_filler {
      type: "constant"
      value: 0.2
    }
  }
}
layer {
  name: "inception_3b/relu_5x5_reduce"
  type: "ReLU"
  bottom: "inception_3b/5x5_reduce"
  top: "inception_3b/5x5_reduce"
}
layer {
  name: "inception_3b/5x5"
  type: "Convolution"
  bottom: "inception_3b/5x5_reduce"
  top: "inception_3b/5x5"
  param {
    lr_mult: 1
    decay_mult: 1
  }
  param {
    lr_mult: 2
    decay_mult: 0
  }
  convolution_param {
    num_output: 96
    pad: 2
    kernel_size: 5
    weight_filler {
      type: "xavier"
      std: 0.03
    }
    bias_filler {
      type: "constant"
      value: 0.2
    }
  }
}
layer {
  name: "inception_3b/relu_5x5"
  type: "ReLU"
  bottom: "inception_3b/5x5"
  top: "inception_3b/5x5"
}
layer {
  name: "inception_3b/pool"
  type: "Pooling"
  bottom: "inception_3a/output"
  top: "inception_3b/pool"
  pooling_param {
    pool: MAX
    kernel_size: 3
    stride: 1
    pad: 1
  }
}
layer {
  name: "inception_3b/pool_proj"
  type: "Convolution"
  bottom: "inception_3b/pool"
  top: "inception_3b/pool_proj"
  param {
    lr_mult: 1
    decay_mult: 1
  }
  param {
    lr_mult: 2
    decay_mult: 0
  }
  convolution_param {
    num_output: 64
    kernel_size: 1
    weight_filler {
      type: "xavier"
      std: 0.1
    }
    bias_filler {
      type: "constant"
      value: 0.2
    }
  }
}
layer {
  name: "inception_3b/relu_pool_proj"
  type: "ReLU"
  bottom: "inception_3b/pool_proj"
  top: "inception_3b/pool_proj"
}
layer {
  name: "inception_3b/output"
  type: "Concat"
  bottom: "inception_3b/1x1"
  bottom: "inception_3b/3x3"
  bottom: "inception_3b/5x5"
  bottom: "inception_3b/pool_proj"
  top: "inception_3b/output"
}
layer {
  name: "pool3/3x3_s2"
  type: "Pooling"
  bottom: "inception_3b/output"
  top: "pool3/3x3_s2"
  pooling_param {
    pool: MAX
    kernel_size: 3
    stride: 2
  }
}
layer {
  name: "inception_4a/1x1"
  type: "Convolution"
  bottom: "pool3/3x3_s2"
  top: "inception_4a/1x1"
  param {
    lr_mult: 1
    decay_mult: 1
  }
  param {
    lr_mult: 2
    decay_mult: 0
  }
  convolution_param {
    num_output: 192
    kernel_size: 1
    weight_filler {
      type: "xavier"
      std: 0.03
    }
    bias_filler {
      type: "constant"
      value: 0.2
    }
  }
}
layer {
  name: "inception_4a/relu_1x1"
  type: "ReLU"
  bottom: "inception_4a/1x1"
  top: "inception_4a/1x1"
}
layer {
  name: "inception_4a/3x3_reduce"
  type: "Convolution"
  bottom: "pool3/3x3_s2"
  top: "inception_4a/3x3_reduce"
  param {
    lr_mult: 1
    decay_mult: 1
  }
  param {
    lr_mult: 2
    decay_mult: 0
  }
  convolution_param {
    num_output: 96
    kernel_size: 1
    weight_filler {
      type: "xavier"
      std: 0.09
    }
    bias_filler {
      type: "constant"
      value: 0.2
    }
  }
}
layer {
  name: "inception_4a/relu_3x3_reduce"
  type: "ReLU"
  bottom: "inception_4a/3x3_reduce"
  top: "inception_4a/3x3_reduce"
}
layer {
  name: "inception_4a/3x3"
  type: "Convolution"
  bottom: "inception_4a/3x3_reduce"
  top: "inception_4a/3x3"
  param {
    lr_mult: 1
    decay_mult: 1
  }
  param {
    lr_mult: 2
    decay_mult: 0
  }
  convolution_param {
    num_output: 208
    pad: 1
    kernel_size: 3
    weight_filler {
      type: "xavier"
      std: 0.03
    }
    bias_filler {
      type: "constant"
      value: 0.2
    }
  }
}
layer {
  name: "inception_4a/relu_3x3"
  type: "ReLU"
  bottom: "inception_4a/3x3"
  top: "inception_4a/3x3"
}
layer {
  name: "inception_4a/5x5_reduce"
  type: "Convolution"
  bottom: "pool3/3x3_s2"
  top: "inception_4a/5x5_reduce"
  param {
    lr_mult: 1
    decay_mult: 1
  }
  param {
    lr_mult: 2
    decay_mult: 0
  }
  convolution_param {
    num_output: 16
    kernel_size: 1
    weight_filler {
      type: "xavier"
      std: 0.2
    }
    bias_filler {
      type: "constant"
      value: 0.2
    }
  }
}
layer {
  name: "inception_4a/relu_5x5_reduce"
  type: "ReLU"
  bottom: "inception_4a/5x5_reduce"
  top: "inception_4a/5x5_reduce"
}
layer {
  name: "inception_4a/5x5"
  type: "Convolution"
  bottom: "inception_4a/5x5_reduce"
  top: "inception_4a/5x5"
  param {
    lr_mult: 1
    decay_mult: 1
  }
  param {
    lr_mult: 2
    decay_mult: 0
  }
  convolution_param {
    num_output: 48
    pad: 2
    kernel_size: 5
    weight_filler {
      type: "xavier"
      std: 0.03
    }
    bias_filler {
      type: "constant"
      value: 0.2
    }
  }
}
layer {
  name: "inception_4a/relu_5x5"
  type: "ReLU"
  bottom: "inception_4a/5x5"
  top: "inception_4a/5x5"
}
layer {
  name: "inception_4a/pool"
  type: "Pooling"
  bottom: "pool3/3x3_s2"
  top: "inception_4a/pool"
  pooling_param {
    pool: MAX
    kernel_size: 3
    stride: 1
    pad: 1
  }
}
layer {
  name: "inception_4a/pool_proj"
  type: "Convolution"
  bottom: "inception_4a/pool"
  top: "inception_4a/pool_proj"
  param {
    lr_mult: 1
    decay_mult: 1
  }
  param {
    lr_mult: 2
    decay_mult: 0
  }
  convolution_param {
    num_output: 64
    kernel_size: 1
    weight_filler {
      type: "xavier"
      std: 0.1
    }
    bias_filler {
      type: "constant"
      value: 0.2
    }
  }
}
layer {
  name: "inception_4a/relu_pool_proj"
  type: "ReLU"
  bottom: "inception_4a/pool_proj"
  top: "inception_4a/pool_proj"
}
layer {
  name: "inception_4a/output"
  type: "Concat"
  bottom: "inception_4a/1x1"
  bottom: "inception_4a/3x3"
  bottom: "inception_4a/5x5"
  bottom: "inception_4a/pool_proj"
  top: "inception_4a/output"
}
layer {
  name: "loss1/ave_pool"
  type: "Pooling"
  bottom: "inception_4a/output"
  top: "loss1/ave_pool"
  pooling_param {
    pool: AVE
    kernel_size: 5
    stride: 3
  }
}
layer {
  name: "loss1/conv"
  type: "Convolution"
  bottom: "loss1/ave_pool"
  top: "loss1/conv"
  param {
    lr_mult: 1
    decay_mult: 1
  }
  param {
    lr_mult: 2
    decay_mult: 0
  }
  convolution_param {
    num_output: 128
    kernel_size: 1
    weight_filler {
      type: "xavier"
      std: 0.08
    }
    bias_filler {
      type: "constant"
      value: 0.2
    }
  }
}
layer {
  name: "loss1/relu_conv"
  type: "ReLU"
  bottom: "loss1/conv"
  top: "loss1/conv"
}
layer {
  name: "loss1/fc"
  type: "InnerProduct"
  bottom: "loss1/conv"
  top: "loss1/fc"
  param {
    lr_mult: 1
    decay_mult: 1
  }
  param {
    lr_mult: 2
    decay_mult: 0
  }
  inner_product_param {
    num_output: 1024
    weight_filler {
      type: "xavier"
      std: 0.02
    }
    bias_filler {
      type: "constant"
      value: 0.2
    }
  }
}
layer {
  name: "loss1/relu_fc"
  type: "ReLU"
  bottom: "loss1/fc"
  top: "loss1/fc"
}
layer {
  name: "loss1/drop_fc"
  type: "Dropout"
  bottom: "loss1/fc"
  top: "loss1/fc"
  dropout_param {
    dropout_ratio: 0.7
  }
}
layer {
  name: "loss1/classifier_plantvillage"
  type: "InnerProduct"
  bottom: "loss1/fc"
  top: "loss1/classifier_plantvillage"
  param {
    lr_mult: 1
    decay_mult: 1
  }
  param {
    lr_mult: 2
    decay_mult: 0
  }
  inner_product_param {
    num_output: 38
    weight_filler {
      type: "xavier"
      std: 0.0009765625
    }
    bias_filler {
      type: "constant"
      value: 0
    }
  }
}
layer {
  name: "inception_4b/1x1"
  type: "Convolution"
  bottom: "inception_4a/output"
  top: "inception_4b/1x1"
  param {
    lr_mult: 1
    decay_mult: 1
  }
  param {
    lr_mult: 2
    decay_mult: 0
  }
  convolution_param {
    num_output: 160
    kernel_size: 1
    weight_filler {
      type: "xavier"
      std: 0.03
    }
    bias_filler {
      type: "constant"
      value: 0.2
    }
  }
}
layer {
  name: "inception_4b/relu_1x1"
  type: "ReLU"
  bottom: "inception_4b/1x1"
  top: "inception_4b/1x1"
}
layer {
  name: "inception_4b/3x3_reduce"
  type: "Convolution"
  bottom: "inception_4a/output"
  top: "inception_4b/3x3_reduce"
  param {
    lr_mult: 1
    decay_mult: 1
  }
  param {
    lr_mult: 2
    decay_mult: 0
  }
  convolution_param {
    num_output: 112
    kernel_size: 1
    weight_filler {
      type: "xavier"
      std: 0.09
    }
    bias_filler {
      type: "constant"
      value: 0.2
    }
  }
}
layer {
  name: "inception_4b/relu_3x3_reduce"
  type: "ReLU"
  bottom: "inception_4b/3x3_reduce"
  top: "inception_4b/3x3_reduce"
}
layer {
  name: "inception_4b/3x3"
  type: "Convolution"
  bottom: "inception_4b/3x3_reduce"
  top: "inception_4b/3x3"
  param {
    lr_mult: 1
    decay_mult: 1
  }
  param {
    lr_mult: 2
    decay_mult: 0
  }
  convolution_param {
    num_output: 224
    pad: 1
    kernel_size: 3
    weight_filler {
      type: "xavier"
      std: 0.03
    }
    bias_filler {
      type: "constant"
      value: 0.2
    }
  }
}
layer {
  name: "inception_4b/relu_3x3"
  type: "ReLU"
  bottom: "inception_4b/3x3"
  top: "inception_4b/3x3"
}
layer {
  name: "inception_4b/5x5_reduce"
  type: "Convolution"
  bottom: "inception_4a/output"
  top: "inception_4b/5x5_reduce"
  param {
    lr_mult: 1
    decay_mult: 1
  }
  param {
    lr_mult: 2
    decay_mult: 0
  }
  convolution_param {
    num_output: 24
    kernel_size: 1
    weight_filler {
      type: "xavier"
      std: 0.2
    }
    bias_filler {
      type: "constant"
      value: 0.2
    }
  }
}
layer {
  name: "inception_4b/relu_5x5_reduce"
  type: "ReLU"
  bottom: "inception_4b/5x5_reduce"
  top: "inception_4b/5x5_reduce"
}
layer {
  name: "inception_4b/5x5"
  type: "Convolution"
  bottom: "inception_4b/5x5_reduce"
  top: "inception_4b/5x5"
  param {
    lr_mult: 1
    decay_mult: 1
  }
  param {
    lr_mult: 2
    decay_mult: 0
  }
  convolution_param {
    num_output: 64
    pad: 2
    kernel_size: 5
    weight_filler {
      type: "xavier"
      std: 0.03
    }
    bias_filler {
      type: "constant"
      value: 0.2
    }
  }
}
layer {
  name: "inception_4b/relu_5x5"
  type: "ReLU"
  bottom: "inception_4b/5x5"
  top: "inception_4b/5x5"
}
layer {
  name: "inception_4b/pool"
  type: "Pooling"
  bottom: "inception_4a/output"
  top: "inception_4b/pool"
  pooling_param {
    pool: MAX
    kernel_size: 3
    stride: 1
    pad: 1
  }
}
layer {
  name: "inception_4b/pool_proj"
  type: "Convolution"
  bottom: "inception_4b/pool"
  top: "inception_4b/pool_proj"
  param {
    lr_mult: 1
    decay_mult: 1
  }
  param {
    lr_mult: 2
    decay_mult: 0
  }
  convolution_param {
    num_output: 64
    kernel_size: 1
    weight_filler {
      type: "xavier"
      std: 0.1
    }
    bias_filler {
      type: "constant"
      value: 0.2
    }
  }
}
layer {
  name: "inception_4b/relu_pool_proj"
  type: "ReLU"
  bottom: "inception_4b/pool_proj"
  top: "inception_4b/pool_proj"
}
layer {
  name: "inception_4b/output"
  type: "Concat"
  bottom: "inception_4b/1x1"
  bottom: "inception_4b/3x3"
  bottom: "inception_4b/5x5"
  bottom: "inception_4b/pool_proj"
  top: "inception_4b/output"
}
layer {
  name: "inception_4c/1x1"
  type: "Convolution"
  bottom: "inception_4b/output"
  top: "inception_4c/1x1"
  param {
    lr_mult: 1
    decay_mult: 1
  }
  param {
    lr_mult: 2
    decay_mult: 0
  }
  convolution_param {
    num_output: 128
    kernel_size: 1
    weight_filler {
      type: "xavier"
      std: 0.03
    }
    bias_filler {
      type: "constant"
      value: 0.2
    }
  }
}
layer {
  name: "inception_4c/relu_1x1"
  type: "ReLU"
  bottom: "inception_4c/1x1"
  top: "inception_4c/1x1"
}
layer {
  name: "inception_4c/3x3_reduce"
  type: "Convolution"
  bottom: "inception_4b/output"
  top: "inception_4c/3x3_reduce"
  param {
    lr_mult: 1
    decay_mult: 1
  }
  param {
    lr_mult: 2
    decay_mult: 0
  }
  convolution_param {
    num_output: 128
    kernel_size: 1
    weight_filler {
      type: "xavier"
      std: 0.09
    }
    bias_filler {
      type: "constant"
      value: 0.2
    }
  }
}
layer {
  name: "inception_4c/relu_3x3_reduce"
  type: "ReLU"
  bottom: "inception_4c/3x3_reduce"
  top: "inception_4c/3x3_reduce"
}
layer {
  name: "inception_4c/3x3"
  type: "Convolution"
  bottom: "inception_4c/3x3_reduce"
  top: "inception_4c/3x3"
  param {
    lr_mult: 1
    decay_mult: 1
  }
  param {
    lr_mult: 2
    decay_mult: 0
  }
  convolution_param {
    num_output: 256
    pad: 1
    kernel_size: 3
    weight_filler {
      type: "xavier"
      std: 0.03
    }
    bias_filler {
      type: "constant"
      value: 0.2
    }
  }
}
layer {
  name: "inception_4c/relu_3x3"
  type: "ReLU"
  bottom: "inception_4c/3x3"
  top: "inception_4c/3x3"
}
layer {
  name: "inception_4c/5x5_reduce"
  type: "Convolution"
  bottom: "inception_4b/output"
  top: "inception_4c/5x5_reduce"
  param {
    lr_mult: 1
    decay_mult: 1
  }
  param {
    lr_mult: 2
    decay_mult: 0
  }
  convolution_param {
    num_output: 24
    kernel_size: 1
    weight_filler {
      type: "xavier"
      std: 0.2
    }
    bias_filler {
      type: "constant"
      value: 0.2
    }
  }
}
layer {
  name: "inception_4c/relu_5x5_reduce"
  type: "ReLU"
  bottom: "inception_4c/5x5_reduce"
  top: "inception_4c/5x5_reduce"
}
layer {
  name: "inception_4c/5x5"
  type: "Convolution"
  bottom: "inception_4c/5x5_reduce"
  top: "inception_4c/5x5"
  param {
    lr_mult: 1
    decay_mult: 1
  }
  param {
    lr_mult: 2
    decay_mult: 0
  }
  convolution_param {
    num_output: 64
    pad: 2
    kernel_size: 5
    weight_filler {
      type: "xavier"
      std: 0.03
    }
    bias_filler {
      type: "constant"
      value: 0.2
    }
  }
}
layer {
  name: "inception_4c/relu_5x5"
  type: "ReLU"
  bottom: "inception_4c/5x5"
  top: "inception_4c/5x5"
}
layer {
  name: "inception_4c/pool"
  type: "Pooling"
  bottom: "inception_4b/output"
  top: "inception_4c/pool"
  pooling_param {
    pool: MAX
    kernel_size: 3
    stride: 1
    pad: 1
  }
}
layer {
  name: "inception_4c/pool_proj"
  type: "Convolution"
  bottom: "inception_4c/pool"
  top: "inception_4c/pool_proj"
  param {
    lr_mult: 1
    decay_mult: 1
  }
  param {
    lr_mult: 2
    decay_mult: 0
  }
  convolution_param {
    num_output: 64
    kernel_size: 1
    weight_filler {
      type: "xavier"
      std: 0.1
    }
    bias_filler {
      type: "constant"
      value: 0.2
    }
  }
}
layer {
  name: "inception_4c/relu_pool_proj"
  type: "ReLU"
  bottom: "inception_4c/pool_proj"
  top: "inception_4c/pool_proj"
}
layer {
  name: "inception_4c/output"
  type: "Concat"
  bottom: "inception_4c/1x1"
  bottom: "inception_4c/3x3"
  bottom: "inception_4c/5x5"
  bottom: "inception_4c/pool_proj"
  top: "inception_4c/output"
}
layer {
  name: "inception_4d/1x1"
  type: "Convolution"
  bottom: "inception_4c/output"
  top: "inception_4d/1x1"
  param {
    lr_mult: 1
    decay_mult: 1
  }
  param {
    lr_mult: 2
    decay_mult: 0
  }
  convolution_param {
    num_output: 112
    kernel_size: 1
    weight_filler {
      type: "xavier"
      std: 0.03
    }
    bias_filler {
      type: "constant"
      value: 0.2
    }
  }
}
layer {
  name: "inception_4d/relu_1x1"
  type: "ReLU"
  bottom: "inception_4d/1x1"
  top: "inception_4d/1x1"
}
layer {
  name: "inception_4d/3x3_reduce"
  type: "Convolution"
  bottom: "inception_4c/output"
  top: "inception_4d/3x3_reduce"
  param {
    lr_mult: 1
    decay_mult: 1
  }
  param {
    lr_mult: 2
    decay_mult: 0
  }
  convolution_param {
    num_output: 144
    kernel_size: 1
    weight_filler {
      type: "xavier"
      std: 0.09
    }
    bias_filler {
      type: "constant"
      value: 0.2
    }
  }
}
layer {
  name: "inception_4d/relu_3x3_reduce"
  type: "ReLU"
  bottom: "inception_4d/3x3_reduce"
  top: "inception_4d/3x3_reduce"
}
layer {
  name: "inception_4d/3x3"
  type: "Convolution"
  bottom: "inception_4d/3x3_reduce"
  top: "inception_4d/3x3"
  param {
    lr_mult: 1
    decay_mult: 1
  }
  param {
    lr_mult: 2
    decay_mult: 0
  }
  convolution_param {
    num_output: 288
    pad: 1
    kernel_size: 3
    weight_filler {
      type: "xavier"
      std: 0.03
    }
    bias_filler {
      type: "constant"
      value: 0.2
    }
  }
}
layer {
  name: "inception_4d/relu_3x3"
  type: "ReLU"
  bottom: "inception_4d/3x3"
  top: "inception_4d/3x3"
}
layer {
  name: "inception_4d/5x5_reduce"
  type: "Convolution"
  bottom: "inception_4c/output"
  top: "inception_4d/5x5_reduce"
  param {
    lr_mult: 1
    decay_mult: 1
  }
  param {
    lr_mult: 2
    decay_mult: 0
  }
  convolution_param {
    num_output: 32
    kernel_size: 1
    weight_filler {
      type: "xavier"
      std: 0.2
    }
    bias_filler {
      type: "constant"
      value: 0.2
    }
  }
}
layer {
  name: "inception_4d/relu_5x5_reduce"
  type: "ReLU"
  bottom: "inception_4d/5x5_reduce"
  top: "inception_4d/5x5_reduce"
}
layer {
  name: "inception_4d/5x5"
  type: "Convolution"
  bottom: "inception_4d/5x5_reduce"
  top: "inception_4d/5x5"
  param {
    lr_mult: 1
    decay_mult: 1
  }
  param {
    lr_mult: 2
    decay_mult: 0
  }
  convolution_param {
    num_output: 64
    pad: 2
    kernel_size: 5
    weight_filler {
      type: "xavier"
      std: 0.03
    }
    bias_filler {
      type: "constant"
      value: 0.2
    }
  }
}
layer {
  name: "inception_4d/relu_5x5"
  type: "ReLU"
  bottom: "inception_4d/5x5"
  top: "inception_4d/5x5"
}
layer {
  name: "inception_4d/pool"
  type: "Pooling"
  bottom: "inception_4c/output"
  top: "inception_4d/pool"
  pooling_param {
    pool: MAX
    kernel_size: 3
    stride: 1
    pad: 1
  }
}
layer {
  name: "inception_4d/pool_proj"
  type: "Convolution"
  bottom: "inception_4d/pool"
  top: "inception_4d/pool_proj"
  param {
    lr_mult: 1
    decay_mult: 1
  }
  param {
    lr_mult: 2
    decay_mult: 0
  }
  convolution_param {
    num_output: 64
    kernel_size: 1
    weight_filler {
      type: "xavier"
      std: 0.1
    }
    bias_filler {
      type: "constant"
      value: 0.2
    }
  }
}
layer {
  name: "inception_4d/relu_pool_proj"
  type: "ReLU"
  bottom: "inception_4d/pool_proj"
  top: "inception_4d/pool_proj"
}
layer {
  name: "inception_4d/output"
  type: "Concat"
  bottom: "inception_4d/1x1"
  bottom: "inception_4d/3x3"
  bottom: "inception_4d/5x5"
  bottom: "inception_4d/pool_proj"
  top: "inception_4d/output"
}
layer {
  name: "loss2/ave_pool"
  type: "Pooling"
  bottom: "inception_4d/output"
  top: "loss2/ave_pool"
  pooling_param {
    pool: AVE
    kernel_size: 5
    stride: 3
  }
}
layer {
  name: "loss2/conv"
  type: "Convolution"
  bottom: "loss2/ave_pool"
  top: "loss2/conv"
  param {
    lr_mult: 1
    decay_mult: 1
  }
  param {
    lr_mult: 2
    decay_mult: 0
  }
  convolution_param {
    num_output: 128
    kernel_size: 1
    weight_filler {
      type: "xavier"
      std: 0.08
    }
    bias_filler {
      type: "constant"
      value: 0.2
    }
  }
}
layer {
  name: "loss2/relu_conv"
  type: "ReLU"
  bottom: "loss2/conv"
  top: "loss2/conv"
}
layer {
  name: "loss2/fc"
  type: "InnerProduct"
  bottom: "loss2/conv"
  top: "loss2/fc"
  param {
    lr_mult: 1
    decay_mult: 1
  }
  param {
    lr_mult: 2
    decay_mult: 0
  }
  inner_product_param {
    num_output: 1024
    weight_filler {
      type: "xavier"
      std: 0.02
    }
    bias_filler {
      type: "constant"
      value: 0.2
    }
  }
}
layer {
  name: "loss2/relu_fc"
  type: "ReLU"
  bottom: "loss2/fc"
  top: "loss2/fc"
}
layer {
  name: "loss2/drop_fc"
  type: "Dropout"
  bottom: "loss2/fc"
  top: "loss2/fc"
  dropout_param {
    dropout_ratio: 0.7
  }
}
layer {
  name: "loss2/classifier_plantvillage"
  type: "InnerProduct"
  bottom: "loss2/fc"
  top: "loss2/classifier_plantvillage"
  param {
    lr_mult: 1
    decay_mult: 1
  }
  param {
    lr_mult: 2
    decay_mult: 0
  }
  inner_product_param {
    num_output: 38
    weight_filler {
      type: "xavier"
      std: 0.0009765625
    }
    bias_filler {
      type: "constant"
      value: 0
    }
  }
}
layer {
  name: "inception_4e/1x1"
  type: "Convolution"
  bottom: "inception_4d/output"
  top: "inception_4e/1x1"
  param {
    lr_mult: 1
    decay_mult: 1
  }
  param {
    lr_mult: 2
    decay_mult: 0
  }
  convolution_param {
    num_output: 256
    kernel_size: 1
    weight_filler {
      type: "xavier"
      std: 0.03
    }
    bias_filler {
      type: "constant"
      value: 0.2
    }
  }
}
layer {
  name: "inception_4e/relu_1x1"
  type: "ReLU"
  bottom: "inception_4e/1x1"
  top: "inception_4e/1x1"
}
layer {
  name: "inception_4e/3x3_reduce"
  type: "Convolution"
  bottom: "inception_4d/output"
  top: "inception_4e/3x3_reduce"
  param {
    lr_mult: 1
    decay_mult: 1
  }
  param {
    lr_mult: 2
    decay_mult: 0
  }
  convolution_param {
    num_output: 160
    kernel_size: 1
    weight_filler {
      type: "xavier"
      std: 0.09
    }
    bias_filler {
      type: "constant"
      value: 0.2
    }
  }
}
layer {
  name: "inception_4e/relu_3x3_reduce"
  type: "ReLU"
  bottom: "inception_4e/3x3_reduce"
  top: "inception_4e/3x3_reduce"
}
layer {
  name: "inception_4e/3x3"
  type: "Convolution"
  bottom: "inception_4e/3x3_reduce"
  top: "inception_4e/3x3"
  param {
    lr_mult: 1
    decay_mult: 1
  }
  param {
    lr_mult: 2
    decay_mult: 0
  }
  convolution_param {
    num_output: 320
    pad: 1
    kernel_size: 3
    weight_filler {
      type: "xavier"
      std: 0.03
    }
    bias_filler {
      type: "constant"
      value: 0.2
    }
  }
}
layer {
  name: "inception_4e/relu_3x3"
  type: "ReLU"
  bottom: "inception_4e/3x3"
  top: "inception_4e/3x3"
}
layer {
  name: "inception_4e/5x5_reduce"
  type: "Convolution"
  bottom: "inception_4d/output"
  top: "inception_4e/5x5_reduce"
  param {
    lr_mult: 1
    decay_mult: 1
  }
  param {
    lr_mult: 2
    decay_mult: 0
  }
  convolution_param {
    num_output: 32
    kernel_size: 1
    weight_filler {
      type: "xavier"
      std: 0.2
    }
    bias_filler {
      type: "constant"
      value: 0.2
    }
  }
}
layer {
  name: "inception_4e/relu_5x5_reduce"
  type: "ReLU"
  bottom: "inception_4e/5x5_reduce"
  top: "inception_4e/5x5_reduce"
}
layer {
  name: "inception_4e/5x5"
  type: "Convolution"
  bottom: "inception_4e/5x5_reduce"
  top: "inception_4e/
I0403 18:19:48.081421 17015 layer_factory.hpp:77] Creating layer data
I0403 18:19:48.082044 17015 net.cpp:91] Creating Layer data
I0403 18:19:48.082074 17015 net.cpp:399] data -> data
I0403 18:19:48.082124 17015 net.cpp:399] data -> label
I0403 18:19:48.082165 17015 data_transformer.cpp:25] Loading mean file from: /home/mohanty/data/final_dataset/lmdb/grayscale-60-40/mean.binaryproto
I0403 18:19:48.083292 17018 db_lmdb.cpp:38] Opened lmdb /home/mohanty/data/final_dataset/lmdb/grayscale-60-40/test_db
I0403 18:19:48.095062 17015 data_layer.cpp:41] output data size: 24,3,224,224
I0403 18:19:48.121264 17015 net.cpp:141] Setting up data
I0403 18:19:48.121342 17015 net.cpp:148] Top shape: 24 3 224 224 (3612672)
I0403 18:19:48.121363 17015 net.cpp:148] Top shape: 24 (24)
I0403 18:19:48.121378 17015 net.cpp:156] Memory required for data: 14450784
I0403 18:19:48.121404 17015 layer_factory.hpp:77] Creating layer label_data_1_split
I0403 18:19:48.121430 17015 net.cpp:91] Creating Layer label_data_1_split
I0403 18:19:48.121449 17015 net.cpp:425] label_data_1_split <- label
I0403 18:19:48.121480 17015 net.cpp:399] label_data_1_split -> label_data_1_split_0
I0403 18:19:48.121518 17015 net.cpp:399] label_data_1_split -> label_data_1_split_1
I0403 18:19:48.121539 17015 net.cpp:399] label_data_1_split -> label_data_1_split_2
I0403 18:19:48.121561 17015 net.cpp:399] label_data_1_split -> label_data_1_split_3
I0403 18:19:48.121580 17015 net.cpp:399] label_data_1_split -> label_data_1_split_4
I0403 18:19:48.121599 17015 net.cpp:399] label_data_1_split -> label_data_1_split_5
I0403 18:19:48.121618 17015 net.cpp:399] label_data_1_split -> label_data_1_split_6
I0403 18:19:48.121639 17015 net.cpp:399] label_data_1_split -> label_data_1_split_7
I0403 18:19:48.121657 17015 net.cpp:399] label_data_1_split -> label_data_1_split_8
I0403 18:19:48.121677 17015 net.cpp:399] label_data_1_split -> label_data_1_split_9
I0403 18:19:48.121788 17015 net.cpp:141] Setting up label_data_1_split
I0403 18:19:48.121811 17015 net.cpp:148] Top shape: 24 (24)
I0403 18:19:48.121827 17015 net.cpp:148] Top shape: 24 (24)
I0403 18:19:48.121842 17015 net.cpp:148] Top shape: 24 (24)
I0403 18:19:48.121858 17015 net.cpp:148] Top shape: 24 (24)
I0403 18:19:48.121872 17015 net.cpp:148] Top shape: 24 (24)
I0403 18:19:48.121887 17015 net.cpp:148] Top shape: 24 (24)
I0403 18:19:48.121902 17015 net.cpp:148] Top shape: 24 (24)
I0403 18:19:48.121917 17015 net.cpp:148] Top shape: 24 (24)
I0403 18:19:48.121932 17015 net.cpp:148] Top shape: 24 (24)
I0403 18:19:48.121948 17015 net.cpp:148] Top shape: 24 (24)
I0403 18:19:48.122007 17015 net.cpp:156] Memory required for data: 14451744
I0403 18:19:48.122023 17015 layer_factory.hpp:77] Creating layer conv1/7x7_s2
I0403 18:19:48.122054 17015 net.cpp:91] Creating Layer conv1/7x7_s2
I0403 18:19:48.122072 17015 net.cpp:425] conv1/7x7_s2 <- data
I0403 18:19:48.122092 17015 net.cpp:399] conv1/7x7_s2 -> conv1/7x7_s2
I0403 18:19:48.263375 17015 net.cpp:141] Setting up conv1/7x7_s2
I0403 18:19:48.263463 17015 net.cpp:148] Top shape: 24 64 112 112 (19267584)
I0403 18:19:48.263479 17015 net.cpp:156] Memory required for data: 91522080
I0403 18:19:48.263510 17015 layer_factory.hpp:77] Creating layer conv1/relu_7x7
I0403 18:19:48.263537 17015 net.cpp:91] Creating Layer conv1/relu_7x7
I0403 18:19:48.263556 17015 net.cpp:425] conv1/relu_7x7 <- conv1/7x7_s2
I0403 18:19:48.263574 17015 net.cpp:386] conv1/relu_7x7 -> conv1/7x7_s2 (in-place)
I0403 18:19:48.263885 17015 net.cpp:141] Setting up conv1/relu_7x7
I0403 18:19:48.263911 17015 net.cpp:148] Top shape: 24 64 112 112 (19267584)
I0403 18:19:48.263929 17015 net.cpp:156] Memory required for data: 168592416
I0403 18:19:48.263944 17015 layer_factory.hpp:77] Creating layer pool1/3x3_s2
I0403 18:19:48.263970 17015 net.cpp:91] Creating Layer pool1/3x3_s2
I0403 18:19:48.263993 17015 net.cpp:425] pool1/3x3_s2 <- conv1/7x7_s2
I0403 18:19:48.264013 17015 net.cpp:399] pool1/3x3_s2 -> pool1/3x3_s2
I0403 18:19:48.264086 17015 net.cpp:141] Setting up pool1/3x3_s2
I0403 18:19:48.264111 17015 net.cpp:148] Top shape: 24 64 56 56 (4816896)
I0403 18:19:48.264127 17015 net.cpp:156] Memory required for data: 187860000
I0403 18:19:48.264142 17015 layer_factory.hpp:77] Creating layer pool1/norm1
I0403 18:19:48.264166 17015 net.cpp:91] Creating Layer pool1/norm1
I0403 18:19:48.264183 17015 net.cpp:425] pool1/norm1 <- pool1/3x3_s2
I0403 18:19:48.264201 17015 net.cpp:399] pool1/norm1 -> pool1/norm1
I0403 18:19:48.264489 17015 net.cpp:141] Setting up pool1/norm1
I0403 18:19:48.264516 17015 net.cpp:148] Top shape: 24 64 56 56 (4816896)
I0403 18:19:48.264533 17015 net.cpp:156] Memory required for data: 207127584
I0403 18:19:48.264547 17015 layer_factory.hpp:77] Creating layer conv2/3x3_reduce
I0403 18:19:48.264571 17015 net.cpp:91] Creating Layer conv2/3x3_reduce
I0403 18:19:48.264588 17015 net.cpp:425] conv2/3x3_reduce <- pool1/norm1
I0403 18:19:48.264607 17015 net.cpp:399] conv2/3x3_reduce -> conv2/3x3_reduce
I0403 18:19:48.266037 17015 net.cpp:141] Setting up conv2/3x3_reduce
I0403 18:19:48.266067 17015 net.cpp:148] Top shape: 24 64 56 56 (4816896)
I0403 18:19:48.266083 17015 net.cpp:156] Memory required for data: 226395168
I0403 18:19:48.266104 17015 layer_factory.hpp:77] Creating layer conv2/relu_3x3_reduce
I0403 18:19:48.266126 17015 net.cpp:91] Creating Layer conv2/relu_3x3_reduce
I0403 18:19:48.266144 17015 net.cpp:425] conv2/relu_3x3_reduce <- conv2/3x3_reduce
I0403 18:19:48.266161 17015 net.cpp:386] conv2/relu_3x3_reduce -> conv2/3x3_reduce (in-place)
I0403 18:19:48.266450 17015 net.cpp:141] Setting up conv2/relu_3x3_reduce
I0403 18:19:48.266479 17015 net.cpp:148] Top shape: 24 64 56 56 (4816896)
I0403 18:19:48.266494 17015 net.cpp:156] Memory required for data: 245662752
I0403 18:19:48.266510 17015 layer_factory.hpp:77] Creating layer conv2/3x3
I0403 18:19:48.266536 17015 net.cpp:91] Creating Layer conv2/3x3
I0403 18:19:48.266556 17015 net.cpp:425] conv2/3x3 <- conv2/3x3_reduce
I0403 18:19:48.266574 17015 net.cpp:399] conv2/3x3 -> conv2/3x3
I0403 18:19:48.269009 17015 net.cpp:141] Setting up conv2/3x3
I0403 18:19:48.269042 17015 net.cpp:148] Top shape: 24 192 56 56 (14450688)
I0403 18:19:48.269060 17015 net.cpp:156] Memory required for data: 303465504
I0403 18:19:48.269084 17015 layer_factory.hpp:77] Creating layer conv2/relu_3x3
I0403 18:19:48.269127 17015 net.cpp:91] Creating Layer conv2/relu_3x3
I0403 18:19:48.269145 17015 net.cpp:425] conv2/relu_3x3 <- conv2/3x3
I0403 18:19:48.269166 17015 net.cpp:386] conv2/relu_3x3 -> conv2/3x3 (in-place)
I0403 18:19:48.269348 17015 net.cpp:141] Setting up conv2/relu_3x3
I0403 18:19:48.269374 17015 net.cpp:148] Top shape: 24 192 56 56 (14450688)
I0403 18:19:48.269420 17015 net.cpp:156] Memory required for data: 361268256
I0403 18:19:48.269436 17015 layer_factory.hpp:77] Creating layer conv2/norm2
I0403 18:19:48.269457 17015 net.cpp:91] Creating Layer conv2/norm2
I0403 18:19:48.269474 17015 net.cpp:425] conv2/norm2 <- conv2/3x3
I0403 18:19:48.269492 17015 net.cpp:399] conv2/norm2 -> conv2/norm2
I0403 18:19:48.269804 17015 net.cpp:141] Setting up conv2/norm2
I0403 18:19:48.269832 17015 net.cpp:148] Top shape: 24 192 56 56 (14450688)
I0403 18:19:48.269847 17015 net.cpp:156] Memory required for data: 419071008
I0403 18:19:48.269862 17015 layer_factory.hpp:77] Creating layer pool2/3x3_s2
I0403 18:19:48.269884 17015 net.cpp:91] Creating Layer pool2/3x3_s2
I0403 18:19:48.269901 17015 net.cpp:425] pool2/3x3_s2 <- conv2/norm2
I0403 18:19:48.269919 17015 net.cpp:399] pool2/3x3_s2 -> pool2/3x3_s2
I0403 18:19:48.269975 17015 net.cpp:141] Setting up pool2/3x3_s2
I0403 18:19:48.270004 17015 net.cpp:148] Top shape: 24 192 28 28 (3612672)
I0403 18:19:48.270018 17015 net.cpp:156] Memory required for data: 433521696
I0403 18:19:48.270033 17015 layer_factory.hpp:77] Creating layer pool2/3x3_s2_pool2/3x3_s2_0_split
I0403 18:19:48.270052 17015 net.cpp:91] Creating Layer pool2/3x3_s2_pool2/3x3_s2_0_split
I0403 18:19:48.270067 17015 net.cpp:425] pool2/3x3_s2_pool2/3x3_s2_0_split <- pool2/3x3_s2
I0403 18:19:48.270087 17015 net.cpp:399] pool2/3x3_s2_pool2/3x3_s2_0_split -> pool2/3x3_s2_pool2/3x3_s2_0_split_0
I0403 18:19:48.270108 17015 net.cpp:399] pool2/3x3_s2_pool2/3x3_s2_0_split -> pool2/3x3_s2_pool2/3x3_s2_0_split_1
I0403 18:19:48.270129 17015 net.cpp:399] pool2/3x3_s2_pool2/3x3_s2_0_split -> pool2/3x3_s2_pool2/3x3_s2_0_split_2
I0403 18:19:48.270149 17015 net.cpp:399] pool2/3x3_s2_pool2/3x3_s2_0_split -> pool2/3x3_s2_pool2/3x3_s2_0_split_3
I0403 18:19:48.270222 17015 net.cpp:141] Setting up pool2/3x3_s2_pool2/3x3_s2_0_split
I0403 18:19:48.270244 17015 net.cpp:148] Top shape: 24 192 28 28 (3612672)
I0403 18:19:48.270262 17015 net.cpp:148] Top shape: 24 192 28 28 (3612672)
I0403 18:19:48.270277 17015 net.cpp:148] Top shape: 24 192 28 28 (3612672)
I0403 18:19:48.270292 17015 net.cpp:148] Top shape: 24 192 28 28 (3612672)
I0403 18:19:48.270305 17015 net.cpp:156] Memory required for data: 491324448
I0403 18:19:48.270320 17015 layer_factory.hpp:77] Creating layer inception_3a/1x1
I0403 18:19:48.270344 17015 net.cpp:91] Creating Layer inception_3a/1x1
I0403 18:19:48.270361 17015 net.cpp:425] inception_3a/1x1 <- pool2/3x3_s2_pool2/3x3_s2_0_split_0
I0403 18:19:48.270383 17015 net.cpp:399] inception_3a/1x1 -> inception_3a/1x1
I0403 18:19:48.271994 17015 net.cpp:141] Setting up inception_3a/1x1
I0403 18:19:48.272027 17015 net.cpp:148] Top shape: 24 64 28 28 (1204224)
I0403 18:19:48.272043 17015 net.cpp:156] Memory required for data: 496141344
I0403 18:19:48.272063 17015 layer_factory.hpp:77] Creating layer inception_3a/relu_1x1
I0403 18:19:48.272081 17015 net.cpp:91] Creating Layer inception_3a/relu_1x1
I0403 18:19:48.272097 17015 net.cpp:425] inception_3a/relu_1x1 <- inception_3a/1x1
I0403 18:19:48.272115 17015 net.cpp:386] inception_3a/relu_1x1 -> inception_3a/1x1 (in-place)
I0403 18:19:48.272294 17015 net.cpp:141] Setting up inception_3a/relu_1x1
I0403 18:19:48.272322 17015 net.cpp:148] Top shape: 24 64 28 28 (1204224)
I0403 18:19:48.272338 17015 net.cpp:156] Memory required for data: 500958240
I0403 18:19:48.272353 17015 layer_factory.hpp:77] Creating layer inception_3a/3x3_reduce
I0403 18:19:48.272377 17015 net.cpp:91] Creating Layer inception_3a/3x3_reduce
I0403 18:19:48.272394 17015 net.cpp:425] inception_3a/3x3_reduce <- pool2/3x3_s2_pool2/3x3_s2_0_split_1
I0403 18:19:48.272413 17015 net.cpp:399] inception_3a/3x3_reduce -> inception_3a/3x3_reduce
I0403 18:19:48.274194 17015 net.cpp:141] Setting up inception_3a/3x3_reduce
I0403 18:19:48.274224 17015 net.cpp:148] Top shape: 24 96 28 28 (1806336)
I0403 18:19:48.274240 17015 net.cpp:156] Memory required for data: 508183584
I0403 18:19:48.274265 17015 layer_factory.hpp:77] Creating layer inception_3a/relu_3x3_reduce
I0403 18:19:48.274299 17015 net.cpp:91] Creating Layer inception_3a/relu_3x3_reduce
I0403 18:19:48.274317 17015 net.cpp:425] inception_3a/relu_3x3_reduce <- inception_3a/3x3_reduce
I0403 18:19:48.274338 17015 net.cpp:386] inception_3a/relu_3x3_reduce -> inception_3a/3x3_reduce (in-place)
I0403 18:19:48.274546 17015 net.cpp:141] Setting up inception_3a/relu_3x3_reduce
I0403 18:19:48.274571 17015 net.cpp:148] Top shape: 24 96 28 28 (1806336)
I0403 18:19:48.274586 17015 net.cpp:156] Memory required for data: 515408928
I0403 18:19:48.274601 17015 layer_factory.hpp:77] Creating layer inception_3a/3x3
I0403 18:19:48.274624 17015 net.cpp:91] Creating Layer inception_3a/3x3
I0403 18:19:48.274642 17015 net.cpp:425] inception_3a/3x3 <- inception_3a/3x3_reduce
I0403 18:19:48.274665 17015 net.cpp:399] inception_3a/3x3 -> inception_3a/3x3
I0403 18:19:48.276321 17015 net.cpp:141] Setting up inception_3a/3x3
I0403 18:19:48.276351 17015 net.cpp:148] Top shape: 24 128 28 28 (2408448)
I0403 18:19:48.276368 17015 net.cpp:156] Memory required for data: 525042720
I0403 18:19:48.276386 17015 layer_factory.hpp:77] Creating layer inception_3a/relu_3x3
I0403 18:19:48.276406 17015 net.cpp:91] Creating Layer inception_3a/relu_3x3
I0403 18:19:48.276420 17015 net.cpp:425] inception_3a/relu_3x3 <- inception_3a/3x3
I0403 18:19:48.276443 17015 net.cpp:386] inception_3a/relu_3x3 -> inception_3a/3x3 (in-place)
I0403 18:19:48.276711 17015 net.cpp:141] Setting up inception_3a/relu_3x3
I0403 18:19:48.276741 17015 net.cpp:148] Top shape: 24 128 28 28 (2408448)
I0403 18:19:48.276757 17015 net.cpp:156] Memory required for data: 534676512
I0403 18:19:48.276772 17015 layer_factory.hpp:77] Creating layer inception_3a/5x5_reduce
I0403 18:19:48.276794 17015 net.cpp:91] Creating Layer inception_3a/5x5_reduce
I0403 18:19:48.276811 17015 net.cpp:425] inception_3a/5x5_reduce <- pool2/3x3_s2_pool2/3x3_s2_0_split_2
I0403 18:19:48.276830 17015 net.cpp:399] inception_3a/5x5_reduce -> inception_3a/5x5_reduce
I0403 18:19:48.277782 17015 net.cpp:141] Setting up inception_3a/5x5_reduce
I0403 18:19:48.277809 17015 net.cpp:148] Top shape: 24 16 28 28 (301056)
I0403 18:19:48.277825 17015 net.cpp:156] Memory required for data: 535880736
I0403 18:19:48.277843 17015 layer_factory.hpp:77] Creating layer inception_3a/relu_5x5_reduce
I0403 18:19:48.277861 17015 net.cpp:91] Creating Layer inception_3a/relu_5x5_reduce
I0403 18:19:48.277878 17015 net.cpp:425] inception_3a/relu_5x5_reduce <- inception_3a/5x5_reduce
I0403 18:19:48.277897 17015 net.cpp:386] inception_3a/relu_5x5_reduce -> inception_3a/5x5_reduce (in-place)
I0403 18:19:48.278201 17015 net.cpp:141] Setting up inception_3a/relu_5x5_reduce
I0403 18:19:48.278241 17015 net.cpp:148] Top shape: 24 16 28 28 (301056)
I0403 18:19:48.278256 17015 net.cpp:156] Memory required for data: 537084960
I0403 18:19:48.278271 17015 layer_factory.hpp:77] Creating layer inception_3a/5x5
I0403 18:19:48.278295 17015 net.cpp:91] Creating Layer inception_3a/5x5
I0403 18:19:48.278313 17015 net.cpp:425] inception_3a/5x5 <- inception_3a/5x5_reduce
I0403 18:19:48.278334 17015 net.cpp:399] inception_3a/5x5 -> inception_3a/5x5
I0403 18:19:48.279352 17015 net.cpp:141] Setting up inception_3a/5x5
I0403 18:19:48.279382 17015 net.cpp:148] Top shape: 24 32 28 28 (602112)
I0403 18:19:48.279398 17015 net.cpp:156] Memory required for data: 539493408
I0403 18:19:48.279417 17015 layer_factory.hpp:77] Creating layer inception_3a/relu_5x5
I0403 18:19:48.279434 17015 net.cpp:91] Creating Layer inception_3a/relu_5x5
I0403 18:19:48.279450 17015 net.cpp:425] inception_3a/relu_5x5 <- inception_3a/5x5
I0403 18:19:48.279467 17015 net.cpp:386] inception_3a/relu_5x5 -> inception_3a/5x5 (in-place)
I0403 18:19:48.279640 17015 net.cpp:141] Setting up inception_3a/relu_5x5
I0403 18:19:48.279665 17015 net.cpp:148] Top shape: 24 32 28 28 (602112)
I0403 18:19:48.279680 17015 net.cpp:156] Memory required for data: 541901856
I0403 18:19:48.279695 17015 layer_factory.hpp:77] Creating layer inception_3a/pool
I0403 18:19:48.279712 17015 net.cpp:91] Creating Layer inception_3a/pool
I0403 18:19:48.279742 17015 net.cpp:425] inception_3a/pool <- pool2/3x3_s2_pool2/3x3_s2_0_split_3
I0403 18:19:48.279763 17015 net.cpp:399] inception_3a/pool -> inception_3a/pool
I0403 18:19:48.279820 17015 net.cpp:141] Setting up inception_3a/pool
I0403 18:19:48.279846 17015 net.cpp:148] Top shape: 24 192 28 28 (3612672)
I0403 18:19:48.279861 17015 net.cpp:156] Memory required for data: 556352544
I0403 18:19:48.279876 17015 layer_factory.hpp:77] Creating layer inception_3a/pool_proj
I0403 18:19:48.279898 17015 net.cpp:91] Creating Layer inception_3a/pool_proj
I0403 18:19:48.279917 17015 net.cpp:425] inception_3a/pool_proj <- inception_3a/pool
I0403 18:19:48.279935 17015 net.cpp:399] inception_3a/pool_proj -> inception_3a/pool_proj
I0403 18:19:48.280889 17015 net.cpp:141] Setting up inception_3a/pool_proj
I0403 18:19:48.280917 17015 net.cpp:148] Top shape: 24 32 28 28 (602112)
I0403 18:19:48.280932 17015 net.cpp:156] Memory required for data: 558760992
I0403 18:19:48.280956 17015 layer_factory.hpp:77] Creating layer inception_3a/relu_pool_proj
I0403 18:19:48.280975 17015 net.cpp:91] Creating Layer inception_3a/relu_pool_proj
I0403 18:19:48.280997 17015 net.cpp:425] inception_3a/relu_pool_proj <- inception_3a/pool_proj
I0403 18:19:48.281016 17015 net.cpp:386] inception_3a/relu_pool_proj -> inception_3a/pool_proj (in-place)
I0403 18:19:48.281287 17015 net.cpp:141] Setting up inception_3a/relu_pool_proj
I0403 18:19:48.281316 17015 net.cpp:148] Top shape: 24 32 28 28 (602112)
I0403 18:19:48.281332 17015 net.cpp:156] Memory required for data: 561169440
I0403 18:19:48.281345 17015 layer_factory.hpp:77] Creating layer inception_3a/output
I0403 18:19:48.281363 17015 net.cpp:91] Creating Layer inception_3a/output
I0403 18:19:48.281378 17015 net.cpp:425] inception_3a/output <- inception_3a/1x1
I0403 18:19:48.281394 17015 net.cpp:425] inception_3a/output <- inception_3a/3x3
I0403 18:19:48.281410 17015 net.cpp:425] inception_3a/output <- inception_3a/5x5
I0403 18:19:48.281426 17015 net.cpp:425] inception_3a/output <- inception_3a/pool_proj
I0403 18:19:48.281442 17015 net.cpp:399] inception_3a/output -> inception_3a/output
I0403 18:19:48.281489 17015 net.cpp:141] Setting up inception_3a/output
I0403 18:19:48.281512 17015 net.cpp:148] Top shape: 24 256 28 28 (4816896)
I0403 18:19:48.281527 17015 net.cpp:156] Memory required for data: 580437024
I0403 18:19:48.281541 17015 layer_factory.hpp:77] Creating layer inception_3a/output_inception_3a/output_0_split
I0403 18:19:48.281560 17015 net.cpp:91] Creating Layer inception_3a/output_inception_3a/output_0_split
I0403 18:19:48.281576 17015 net.cpp:425] inception_3a/output_inception_3a/output_0_split <- inception_3a/output
I0403 18:19:48.281594 17015 net.cpp:399] inception_3a/output_inception_3a/output_0_split -> inception_3a/output_inception_3a/output_0_split_0
I0403 18:19:48.281615 17015 net.cpp:399] inception_3a/output_inception_3a/output_0_split -> inception_3a/output_inception_3a/output_0_split_1
I0403 18:19:48.281638 17015 net.cpp:399] inception_3a/output_inception_3a/output_0_split -> inception_3a/output_inception_3a/output_0_split_2
I0403 18:19:48.281661 17015 net.cpp:399] inception_3a/output_inception_3a/output_0_split -> inception_3a/output_inception_3a/output_0_split_3
I0403 18:19:48.281735 17015 net.cpp:141] Setting up inception_3a/output_inception_3a/output_0_split
I0403 18:19:48.281759 17015 net.cpp:148] Top shape: 24 256 28 28 (4816896)
I0403 18:19:48.281775 17015 net.cpp:148] Top shape: 24 256 28 28 (4816896)
I0403 18:19:48.281790 17015 net.cpp:148] Top shape: 24 256 28 28 (4816896)
I0403 18:19:48.281805 17015 net.cpp:148] Top shape: 24 256 28 28 (4816896)
I0403 18:19:48.281818 17015 net.cpp:156] Memory required for data: 657507360
I0403 18:19:48.281832 17015 layer_factory.hpp:77] Creating layer inception_3b/1x1
I0403 18:19:48.281858 17015 net.cpp:91] Creating Layer inception_3b/1x1
I0403 18:19:48.281875 17015 net.cpp:425] inception_3b/1x1 <- inception_3a/output_inception_3a/output_0_split_0
I0403 18:19:48.281894 17015 net.cpp:399] inception_3b/1x1 -> inception_3b/1x1
I0403 18:19:48.283107 17015 net.cpp:141] Setting up inception_3b/1x1
I0403 18:19:48.283148 17015 net.cpp:148] Top shape: 24 128 28 28 (2408448)
I0403 18:19:48.283164 17015 net.cpp:156] Memory required for data: 667141152
I0403 18:19:48.283182 17015 layer_factory.hpp:77] Creating layer inception_3b/relu_1x1
I0403 18:19:48.283203 17015 net.cpp:91] Creating Layer inception_3b/relu_1x1
I0403 18:19:48.283221 17015 net.cpp:425] inception_3b/relu_1x1 <- inception_3b/1x1
I0403 18:19:48.283238 17015 net.cpp:386] inception_3b/relu_1x1 -> inception_3b/1x1 (in-place)
I0403 18:19:48.283416 17015 net.cpp:141] Setting up inception_3b/relu_1x1
I0403 18:19:48.283444 17015 net.cpp:148] Top shape: 24 128 28 28 (2408448)
I0403 18:19:48.283460 17015 net.cpp:156] Memory required for data: 676774944
I0403 18:19:48.283475 17015 layer_factory.hpp:77] Creating layer inception_3b/3x3_reduce
I0403 18:19:48.283499 17015 net.cpp:91] Creating Layer inception_3b/3x3_reduce
I0403 18:19:48.283515 17015 net.cpp:425] inception_3b/3x3_reduce <- inception_3a/output_inception_3a/output_0_split_1
I0403 18:19:48.283535 17015 net.cpp:399] inception_3b/3x3_reduce -> inception_3b/3x3_reduce
I0403 18:19:48.284729 17015 net.cpp:141] Setting up inception_3b/3x3_reduce
I0403 18:19:48.284756 17015 net.cpp:148] Top shape: 24 128 28 28 (2408448)
I0403 18:19:48.284772 17015 net.cpp:156] Memory required for data: 686408736
I0403 18:19:48.284791 17015 layer_factory.hpp:77] Creating layer inception_3b/relu_3x3_reduce
I0403 18:19:48.284812 17015 net.cpp:91] Creating Layer inception_3b/relu_3x3_reduce
I0403 18:19:48.284829 17015 net.cpp:425] inception_3b/relu_3x3_reduce <- inception_3b/3x3_reduce
I0403 18:19:48.284847 17015 net.cpp:386] inception_3b/relu_3x3_reduce -> inception_3b/3x3_reduce (in-place)
I0403 18:19:48.285035 17015 net.cpp:141] Setting up inception_3b/relu_3x3_reduce
I0403 18:19:48.285064 17015 net.cpp:148] Top shape: 24 128 28 28 (2408448)
I0403 18:19:48.285080 17015 net.cpp:156] Memory required for data: 696042528
I0403 18:19:48.285095 17015 layer_factory.hpp:77] Creating layer inception_3b/3x3
I0403 18:19:48.285120 17015 net.cpp:91] Creating Layer inception_3b/3x3
I0403 18:19:48.285140 17015 net.cpp:425] inception_3b/3x3 <- inception_3b/3x3_reduce
I0403 18:19:48.285161 17015 net.cpp:399] inception_3b/3x3 -> inception_3b/3x3
I0403 18:19:48.288182 17015 net.cpp:141] Setting up inception_3b/3x3
I0403 18:19:48.288213 17015 net.cpp:148] Top shape: 24 192 28 28 (3612672)
I0403 18:19:48.288230 17015 net.cpp:156] Memory required for data: 710493216
I0403 18:19:48.288249 17015 layer_factory.hpp:77] Creating layer inception_3b/relu_3x3
I0403 18:19:48.288267 17015 net.cpp:91] Creating Layer inception_3b/relu_3x3
I0403 18:19:48.288283 17015 net.cpp:425] inception_3b/relu_3x3 <- inception_3b/3x3
I0403 18:19:48.288301 17015 net.cpp:386] inception_3b/relu_3x3 -> inception_3b/3x3 (in-place)
I0403 18:19:48.288588 17015 net.cpp:141] Setting up inception_3b/relu_3x3
I0403 18:19:48.288617 17015 net.cpp:148] Top shape: 24 192 28 28 (3612672)
I0403 18:19:48.288633 17015 net.cpp:156] Memory required for data: 724943904
I0403 18:19:48.288650 17015 layer_factory.hpp:77] Creating layer inception_3b/5x5_reduce
I0403 18:19:48.288672 17015 net.cpp:91] Creating Layer inception_3b/5x5_reduce
I0403 18:19:48.288691 17015 net.cpp:425] inception_3b/5x5_reduce <- inception_3a/output_inception_3a/output_0_split_2
I0403 18:19:48.288709 17015 net.cpp:399] inception_3b/5x5_reduce -> inception_3b/5x5_reduce
I0403 18:19:48.289729 17015 net.cpp:141] Setting up inception_3b/5x5_reduce
I0403 18:19:48.289760 17015 net.cpp:148] Top shape: 24 32 28 28 (602112)
I0403 18:19:48.289777 17015 net.cpp:156] Memory required for data: 727352352
I0403 18:19:48.289796 17015 layer_factory.hpp:77] Creating layer inception_3b/relu_5x5_reduce
I0403 18:19:48.289814 17015 net.cpp:91] Creating Layer inception_3b/relu_5x5_reduce
I0403 18:19:48.289831 17015 net.cpp:425] inception_3b/relu_5x5_reduce <- inception_3b/5x5_reduce
I0403 18:19:48.289849 17015 net.cpp:386] inception_3b/relu_5x5_reduce -> inception_3b/5x5_reduce (in-place)
I0403 18:19:48.290055 17015 net.cpp:141] Setting up inception_3b/relu_5x5_reduce
I0403 18:19:48.290081 17015 net.cpp:148] Top shape: 24 32 28 28 (602112)
I0403 18:19:48.290097 17015 net.cpp:156] Memory required for data: 729760800
I0403 18:19:48.290112 17015 layer_factory.hpp:77] Creating layer inception_3b/5x5
I0403 18:19:48.290135 17015 net.cpp:91] Creating Layer inception_3b/5x5
I0403 18:19:48.290153 17015 net.cpp:425] inception_3b/5x5 <- inception_3b/5x5_reduce
I0403 18:19:48.290175 17015 net.cpp:399] inception_3b/5x5 -> inception_3b/5x5
I0403 18:19:48.292202 17015 net.cpp:141] Setting up inception_3b/5x5
I0403 18:19:48.292232 17015 net.cpp:148] Top shape: 24 96 28 28 (1806336)
I0403 18:19:48.292248 17015 net.cpp:156] Memory required for data: 736986144
I0403 18:19:48.292266 17015 layer_factory.hpp:77] Creating layer inception_3b/relu_5x5
I0403 18:19:48.292287 17015 net.cpp:91] Creating Layer inception_3b/relu_5x5
I0403 18:19:48.292304 17015 net.cpp:425] inception_3b/relu_5x5 <- inception_3b/5x5
I0403 18:19:48.292321 17015 net.cpp:386] inception_3b/relu_5x5 -> inception_3b/5x5 (in-place)
I0403 18:19:48.292516 17015 net.cpp:141] Setting up inception_3b/relu_5x5
I0403 18:19:48.292542 17015 net.cpp:148] Top shape: 24 96 28 28 (1806336)
I0403 18:19:48.292558 17015 net.cpp:156] Memory required for data: 744211488
I0403 18:19:48.292573 17015 layer_factory.hpp:77] Creating layer inception_3b/pool
I0403 18:19:48.292592 17015 net.cpp:91] Creating Layer inception_3b/pool
I0403 18:19:48.292608 17015 net.cpp:425] inception_3b/pool <- inception_3a/output_inception_3a/output_0_split_3
I0403 18:19:48.292626 17015 net.cpp:399] inception_3b/pool -> inception_3b/pool
I0403 18:19:48.292683 17015 net.cpp:141] Setting up inception_3b/pool
I0403 18:19:48.292707 17015 net.cpp:148] Top shape: 24 256 28 28 (4816896)
I0403 18:19:48.292723 17015 net.cpp:156] Memory required for data: 763479072
I0403 18:19:48.292737 17015 layer_factory.hpp:77] Creating layer inception_3b/pool_proj
I0403 18:19:48.292760 17015 net.cpp:91] Creating Layer inception_3b/pool_proj
I0403 18:19:48.292778 17015 net.cpp:425] inception_3b/pool_proj <- inception_3b/pool
I0403 18:19:48.292799 17015 net.cpp:399] inception_3b/pool_proj -> inception_3b/pool_proj
I0403 18:19:48.293882 17015 net.cpp:141] Setting up inception_3b/pool_proj
I0403 18:19:48.293910 17015 net.cpp:148] Top shape: 24 64 28 28 (1204224)
I0403 18:19:48.293928 17015 net.cpp:156] Memory required for data: 768295968
I0403 18:19:48.293947 17015 layer_factory.hpp:77] Creating layer inception_3b/relu_pool_proj
I0403 18:19:48.293968 17015 net.cpp:91] Creating Layer inception_3b/relu_pool_proj
I0403 18:19:48.293989 17015 net.cpp:425] inception_3b/relu_pool_proj <- inception_3b/pool_proj
I0403 18:19:48.294008 17015 net.cpp:386] inception_3b/relu_pool_proj -> inception_3b/pool_proj (in-place)
I0403 18:19:48.294423 17015 net.cpp:141] Setting up inception_3b/relu_pool_proj
I0403 18:19:48.294452 17015 net.cpp:148] Top shape: 24 64 28 28 (1204224)
I0403 18:19:48.294468 17015 net.cpp:156] Memory required for data: 773112864
I0403 18:19:48.294483 17015 layer_factory.hpp:77] Creating layer inception_3b/output
I0403 18:19:48.294514 17015 net.cpp:91] Creating Layer inception_3b/output
I0403 18:19:48.294530 17015 net.cpp:425] inception_3b/output <- inception_3b/1x1
I0403 18:19:48.294548 17015 net.cpp:425] inception_3b/output <- inception_3b/3x3
I0403 18:19:48.294564 17015 net.cpp:425] inception_3b/output <- inception_3b/5x5
I0403 18:19:48.294580 17015 net.cpp:425] inception_3b/output <- inception_3b/pool_proj
I0403 18:19:48.294600 17015 net.cpp:399] inception_3b/output -> inception_3b/output
I0403 18:19:48.294644 17015 net.cpp:141] Setting up inception_3b/output
I0403 18:19:48.294670 17015 net.cpp:148] Top shape: 24 480 28 28 (9031680)
I0403 18:19:48.294687 17015 net.cpp:156] Memory required for data: 809239584
I0403 18:19:48.294702 17015 layer_factory.hpp:77] Creating layer pool3/3x3_s2
I0403 18:19:48.294719 17015 net.cpp:91] Creating Layer pool3/3x3_s2
I0403 18:19:48.294734 17015 net.cpp:425] pool3/3x3_s2 <- inception_3b/output
I0403 18:19:48.294769 17015 net.cpp:399] pool3/3x3_s2 -> pool3/3x3_s2
I0403 18:19:48.294829 17015 net.cpp:141] Setting up pool3/3x3_s2
I0403 18:19:48.294853 17015 net.cpp:148] Top shape: 24 480 14 14 (2257920)
I0403 18:19:48.294868 17015 net.cpp:156] Memory required for data: 818271264
I0403 18:19:48.294883 17015 layer_factory.hpp:77] Creating layer pool3/3x3_s2_pool3/3x3_s2_0_split
I0403 18:19:48.294900 17015 net.cpp:91] Creating Layer pool3/3x3_s2_pool3/3x3_s2_0_split
I0403 18:19:48.294915 17015 net.cpp:425] pool3/3x3_s2_pool3/3x3_s2_0_split <- pool3/3x3_s2
I0403 18:19:48.294935 17015 net.cpp:399] pool3/3x3_s2_pool3/3x3_s2_0_split -> pool3/3x3_s2_pool3/3x3_s2_0_split_0
I0403 18:19:48.294956 17015 net.cpp:399] pool3/3x3_s2_pool3/3x3_s2_0_split -> pool3/3x3_s2_pool3/3x3_s2_0_split_1
I0403 18:19:48.294981 17015 net.cpp:399] pool3/3x3_s2_pool3/3x3_s2_0_split -> pool3/3x3_s2_pool3/3x3_s2_0_split_2
I0403 18:19:48.295006 17015 net.cpp:399] pool3/3x3_s2_pool3/3x3_s2_0_split -> pool3/3x3_s2_pool3/3x3_s2_0_split_3
I0403 18:19:48.295085 17015 net.cpp:141] Setting up pool3/3x3_s2_pool3/3x3_s2_0_split
I0403 18:19:48.295109 17015 net.cpp:148] Top shape: 24 480 14 14 (2257920)
I0403 18:19:48.295125 17015 net.cpp:148] Top shape: 24 480 14 14 (2257920)
I0403 18:19:48.295142 17015 net.cpp:148] Top shape: 24 480 14 14 (2257920)
I0403 18:19:48.295157 17015 net.cpp:148] Top shape: 24 480 14 14 (2257920)
I0403 18:19:48.295171 17015 net.cpp:156] Memory required for data: 854397984
I0403 18:19:48.295186 17015 layer_factory.hpp:77] Creating layer inception_4a/1x1
I0403 18:19:48.295208 17015 net.cpp:91] Creating Layer inception_4a/1x1
I0403 18:19:48.295225 17015 net.cpp:425] inception_4a/1x1 <- pool3/3x3_s2_pool3/3x3_s2_0_split_0
I0403 18:19:48.295248 17015 net.cpp:399] inception_4a/1x1 -> inception_4a/1x1
I0403 18:19:48.296844 17015 net.cpp:141] Setting up inception_4a/1x1
I0403 18:19:48.296871 17015 net.cpp:148] Top shape: 24 192 14 14 (903168)
I0403 18:19:48.296888 17015 net.cpp:156] Memory required for data: 858010656
I0403 18:19:48.296907 17015 layer_factory.hpp:77] Creating layer inception_4a/relu_1x1
I0403 18:19:48.296931 17015 net.cpp:91] Creating Layer inception_4a/relu_1x1
I0403 18:19:48.296947 17015 net.cpp:425] inception_4a/relu_1x1 <- inception_4a/1x1
I0403 18:19:48.296964 17015 net.cpp:386] inception_4a/relu_1x1 -> inception_4a/1x1 (in-place)
I0403 18:19:48.297152 17015 net.cpp:141] Setting up inception_4a/relu_1x1
I0403 18:19:48.297178 17015 net.cpp:148] Top shape: 24 192 14 14 (903168)
I0403 18:19:48.297194 17015 net.cpp:156] Memory required for data: 861623328
I0403 18:19:48.297209 17015 layer_factory.hpp:77] Creating layer inception_4a/3x3_reduce
I0403 18:19:48.297235 17015 net.cpp:91] Creating Layer inception_4a/3x3_reduce
I0403 18:19:48.297252 17015 net.cpp:425] inception_4a/3x3_reduce <- pool3/3x3_s2_pool3/3x3_s2_0_split_1
I0403 18:19:48.297272 17015 net.cpp:399] inception_4a/3x3_reduce -> inception_4a/3x3_reduce
I0403 18:19:48.298609 17015 net.cpp:141] Setting up inception_4a/3x3_reduce
I0403 18:19:48.298636 17015 net.cpp:148] Top shape: 24 96 14 14 (451584)
I0403 18:19:48.298652 17015 net.cpp:156] Memory required for data: 863429664
I0403 18:19:48.298678 17015 layer_factory.hpp:77] Creating layer inception_4a/relu_3x3_reduce
I0403 18:19:48.298699 17015 net.cpp:91] Creating Layer inception_4a/relu_3x3_reduce
I0403 18:19:48.298717 17015 net.cpp:425] inception_4a/relu_3x3_reduce <- inception_4a/3x3_reduce
I0403 18:19:48.298737 17015 net.cpp:386] inception_4a/relu_3x3_reduce -> inception_4a/3x3_reduce (in-place)
I0403 18:19:48.298915 17015 net.cpp:141] Setting up inception_4a/relu_3x3_reduce
I0403 18:19:48.298941 17015 net.cpp:148] Top shape: 24 96 14 14 (451584)
I0403 18:19:48.298956 17015 net.cpp:156] Memory required for data: 865236000
I0403 18:19:48.298971 17015 layer_factory.hpp:77] Creating layer inception_4a/3x3
I0403 18:19:48.299000 17015 net.cpp:91] Creating Layer inception_4a/3x3
I0403 18:19:48.299018 17015 net.cpp:425] inception_4a/3x3 <- inception_4a/3x3_reduce
I0403 18:19:48.299041 17015 net.cpp:399] inception_4a/3x3 -> inception_4a/3x3
I0403 18:19:48.301801 17015 net.cpp:141] Setting up inception_4a/3x3
I0403 18:19:48.301831 17015 net.cpp:148] Top shape: 24 208 14 14 (978432)
I0403 18:19:48.301846 17015 net.cpp:156] Memory required for data: 869149728
I0403 18:19:48.301864 17015 layer_factory.hpp:77] Creating layer inception_4a/relu_3x3
I0403 18:19:48.301885 17015 net.cpp:91] Creating Layer inception_4a/relu_3x3
I0403 18:19:48.301903 17015 net.cpp:425] inception_4a/relu_3x3 <- inception_4a/3x3
I0403 18:19:48.301919 17015 net.cpp:386] inception_4a/relu_3x3 -> inception_4a/3x3 (in-place)
I0403 18:19:48.302223 17015 net.cpp:141] Setting up inception_4a/relu_3x3
I0403 18:19:48.302250 17015 net.cpp:148] Top shape: 24 208 14 14 (978432)
I0403 18:19:48.302265 17015 net.cpp:156] Memory required for data: 873063456
I0403 18:19:48.302280 17015 layer_factory.hpp:77] Creating layer inception_4a/5x5_reduce
I0403 18:19:48.302304 17015 net.cpp:91] Creating Layer inception_4a/5x5_reduce
I0403 18:19:48.302321 17015 net.cpp:425] inception_4a/5x5_reduce <- pool3/3x3_s2_pool3/3x3_s2_0_split_2
I0403 18:19:48.302343 17015 net.cpp:399] inception_4a/5x5_reduce -> inception_4a/5x5_reduce
I0403 18:19:48.303382 17015 net.cpp:141] Setting up inception_4a/5x5_reduce
I0403 18:19:48.303412 17015 net.cpp:148] Top shape: 24 16 14 14 (75264)
I0403 18:19:48.303429 17015 net.cpp:156] Memory required for data: 873364512
I0403 18:19:48.303447 17015 layer_factory.hpp:77] Creating layer inception_4a/relu_5x5_reduce
I0403 18:19:48.303465 17015 net.cpp:91] Creating Layer inception_4a/relu_5x5_reduce
I0403 18:19:48.303481 17015 net.cpp:425] inception_4a/relu_5x5_reduce <- inception_4a/5x5_reduce
I0403 18:19:48.303498 17015 net.cpp:386] inception_4a/relu_5x5_reduce -> inception_4a/5x5_reduce (in-place)
I0403 18:19:48.303678 17015 net.cpp:141] Setting up inception_4a/relu_5x5_reduce
I0403 18:19:48.303704 17015 net.cpp:148] Top shape: 24 16 14 14 (75264)
I0403 18:19:48.303719 17015 net.cpp:156] Memory required for data: 873665568
I0403 18:19:48.303732 17015 layer_factory.hpp:77] Creating layer inception_4a/5x5
I0403 18:19:48.303755 17015 net.cpp:91] Creating Layer inception_4a/5x5
I0403 18:19:48.303772 17015 net.cpp:425] inception_4a/5x5 <- inception_4a/5x5_reduce
I0403 18:19:48.303793 17015 net.cpp:399] inception_4a/5x5 -> inception_4a/5x5
I0403 18:19:48.304908 17015 net.cpp:141] Setting up inception_4a/5x5
I0403 18:19:48.304936 17015 net.cpp:148] Top shape: 24 48 14 14 (225792)
I0403 18:19:48.304951 17015 net.cpp:156] Memory required for data: 874568736
I0403 18:19:48.304970 17015 layer_factory.hpp:77] Creating layer inception_4a/relu_5x5
I0403 18:19:48.304992 17015 net.cpp:91] Creating Layer inception_4a/relu_5x5
I0403 18:19:48.305008 17015 net.cpp:425] inception_4a/relu_5x5 <- inception_4a/5x5
I0403 18:19:48.305027 17015 net.cpp:386] inception_4a/relu_5x5 -> inception_4a/5x5 (in-place)
I0403 18:19:48.305207 17015 net.cpp:141] Setting up inception_4a/relu_5x5
I0403 18:19:48.305233 17015 net.cpp:148] Top shape: 24 48 14 14 (225792)
I0403 18:19:48.305248 17015 net.cpp:156] Memory required for data: 875471904
I0403 18:19:48.305263 17015 layer_factory.hpp:77] Creating layer inception_4a/pool
I0403 18:19:48.305282 17015 net.cpp:91] Creating Layer inception_4a/pool
I0403 18:19:48.305299 17015 net.cpp:425] inception_4a/pool <- pool3/3x3_s2_pool3/3x3_s2_0_split_3
I0403 18:19:48.305316 17015 net.cpp:399] inception_4a/pool -> inception_4a/pool
I0403 18:19:48.305379 17015 net.cpp:141] Setting up inception_4a/pool
I0403 18:19:48.305402 17015 net.cpp:148] Top shape: 24 480 14 14 (2257920)
I0403 18:19:48.305416 17015 net.cpp:156] Memory required for data: 884503584
I0403 18:19:48.305431 17015 layer_factory.hpp:77] Creating layer inception_4a/pool_proj
I0403 18:19:48.305454 17015 net.cpp:91] Creating Layer inception_4a/pool_proj
I0403 18:19:48.305470 17015 net.cpp:425] inception_4a/pool_proj <- inception_4a/pool
I0403 18:19:48.305491 17015 net.cpp:399] inception_4a/pool_proj -> inception_4a/pool_proj
I0403 18:19:48.306684 17015 net.cpp:141] Setting up inception_4a/pool_proj
I0403 18:19:48.306712 17015 net.cpp:148] Top shape: 24 64 14 14 (301056)
I0403 18:19:48.306743 17015 net.cpp:156] Memory required for data: 885707808
I0403 18:19:48.306762 17015 layer_factory.hpp:77] Creating layer inception_4a/relu_pool_proj
I0403 18:19:48.306783 17015 net.cpp:91] Creating Layer inception_4a/relu_pool_proj
I0403 18:19:48.306800 17015 net.cpp:425] inception_4a/relu_pool_proj <- inception_4a/pool_proj
I0403 18:19:48.306818 17015 net.cpp:386] inception_4a/relu_pool_proj -> inception_4a/pool_proj (in-place)
I0403 18:19:48.307103 17015 net.cpp:141] Setting up inception_4a/relu_pool_proj
I0403 18:19:48.307129 17015 net.cpp:148] Top shape: 24 64 14 14 (301056)
I0403 18:19:48.307144 17015 net.cpp:156] Memory required for data: 886912032
I0403 18:19:48.307159 17015 layer_factory.hpp:77] Creating layer inception_4a/output
I0403 18:19:48.307178 17015 net.cpp:91] Creating Layer inception_4a/output
I0403 18:19:48.307193 17015 net.cpp:425] inception_4a/output <- inception_4a/1x1
I0403 18:19:48.307209 17015 net.cpp:425] inception_4a/output <- inception_4a/3x3
I0403 18:19:48.307225 17015 net.cpp:425] inception_4a/output <- inception_4a/5x5
I0403 18:19:48.307240 17015 net.cpp:425] inception_4a/output <- inception_4a/pool_proj
I0403 18:19:48.307260 17015 net.cpp:399] inception_4a/output -> inception_4a/output
I0403 18:19:48.307303 17015 net.cpp:141] Setting up inception_4a/output
I0403 18:19:48.307328 17015 net.cpp:148] Top shape: 24 512 14 14 (2408448)
I0403 18:19:48.307343 17015 net.cpp:156] Memory required for data: 896545824
I0403 18:19:48.307358 17015 layer_factory.hpp:77] Creating layer inception_4a/output_inception_4a/output_0_split
I0403 18:19:48.307375 17015 net.cpp:91] Creating Layer inception_4a/output_inception_4a/output_0_split
I0403 18:19:48.307390 17015 net.cpp:425] inception_4a/output_inception_4a/output_0_split <- inception_4a/output
I0403 18:19:48.307410 17015 net.cpp:399] inception_4a/output_inception_4a/output_0_split -> inception_4a/output_inception_4a/output_0_split_0
I0403 18:19:48.307430 17015 net.cpp:399] inception_4a/output_inception_4a/output_0_split -> inception_4a/output_inception_4a/output_0_split_1
I0403 18:19:48.307451 17015 net.cpp:399] inception_4a/output_inception_4a/output_0_split -> inception_4a/output_inception_4a/output_0_split_2
I0403 18:19:48.307472 17015 net.cpp:399] inception_4a/output_inception_4a/output_0_split -> inception_4a/output_inception_4a/output_0_split_3
I0403 18:19:48.307492 17015 net.cpp:399] inception_4a/output_inception_4a/output_0_split -> inception_4a/output_inception_4a/output_0_split_4
I0403 18:19:48.307584 17015 net.cpp:141] Setting up inception_4a/output_inception_4a/output_0_split
I0403 18:19:48.307610 17015 net.cpp:148] Top shape: 24 512 14 14 (2408448)
I0403 18:19:48.307627 17015 net.cpp:148] Top shape: 24 512 14 14 (2408448)
I0403 18:19:48.307642 17015 net.cpp:148] Top shape: 24 512 14 14 (2408448)
I0403 18:19:48.307658 17015 net.cpp:148] Top shape: 24 512 14 14 (2408448)
I0403 18:19:48.307673 17015 net.cpp:148] Top shape: 24 512 14 14 (2408448)
I0403 18:19:48.307687 17015 net.cpp:156] Memory required for data: 944714784
I0403 18:19:48.307701 17015 layer_factory.hpp:77] Creating layer loss1/ave_pool
I0403 18:19:48.307718 17015 net.cpp:91] Creating Layer loss1/ave_pool
I0403 18:19:48.307734 17015 net.cpp:425] loss1/ave_pool <- inception_4a/output_inception_4a/output_0_split_0
I0403 18:19:48.307751 17015 net.cpp:399] loss1/ave_pool -> loss1/ave_pool
I0403 18:19:48.307958 17015 net.cpp:141] Setting up loss1/ave_pool
I0403 18:19:48.307993 17015 net.cpp:148] Top shape: 24 512 4 4 (196608)
I0403 18:19:48.308012 17015 net.cpp:156] Memory required for data: 945501216
I0403 18:19:48.308025 17015 layer_factory.hpp:77] Creating layer loss1/conv
I0403 18:19:48.308048 17015 net.cpp:91] Creating Layer loss1/conv
I0403 18:19:48.308065 17015 net.cpp:425] loss1/conv <- loss1/ave_pool
I0403 18:19:48.308086 17015 net.cpp:399] loss1/conv -> loss1/conv
I0403 18:19:48.309478 17015 net.cpp:141] Setting up loss1/conv
I0403 18:19:48.309507 17015 net.cpp:148] Top shape: 24 128 4 4 (49152)
I0403 18:19:48.309536 17015 net.cpp:156] Memory required for data: 945697824
I0403 18:19:48.309556 17015 layer_factory.hpp:77] Creating layer loss1/relu_conv
I0403 18:19:48.309576 17015 net.cpp:91] Creating Layer loss1/relu_conv
I0403 18:19:48.309592 17015 net.cpp:425] loss1/relu_conv <- loss1/conv
I0403 18:19:48.309608 17015 net.cpp:386] loss1/relu_conv -> loss1/conv (in-place)
I0403 18:19:48.309886 17015 net.cpp:141] Setting up loss1/relu_conv
I0403 18:19:48.309914 17015 net.cpp:148] Top shape: 24 128 4 4 (49152)
I0403 18:19:48.309931 17015 net.cpp:156] Memory required for data: 945894432
I0403 18:19:48.309947 17015 layer_factory.hpp:77] Creating layer loss1/fc
I0403 18:19:48.309970 17015 net.cpp:91] Creating Layer loss1/fc
I0403 18:19:48.309993 17015 net.cpp:425] loss1/fc <- loss1/conv
I0403 18:19:48.310014 17015 net.cpp:399] loss1/fc -> loss1/fc
I0403 18:19:48.327814 17015 net.cpp:141] Setting up loss1/fc
I0403 18:19:48.327847 17015 net.cpp:148] Top shape: 24 1024 (24576)
I0403 18:19:48.327860 17015 net.cpp:156] Memory required for data: 945992736
I0403 18:19:48.327878 17015 layer_factory.hpp:77] Creating layer loss1/relu_fc
I0403 18:19:48.327899 17015 net.cpp:91] Creating Layer loss1/relu_fc
I0403 18:19:48.327915 17015 net.cpp:425] loss1/relu_fc <- loss1/fc
I0403 18:19:48.327932 17015 net.cpp:386] loss1/relu_fc -> loss1/fc (in-place)
I0403 18:19:48.328124 17015 net.cpp:141] Setting up loss1/relu_fc
I0403 18:19:48.328148 17015 net.cpp:148] Top shape: 24 1024 (24576)
I0403 18:19:48.328162 17015 net.cpp:156] Memory required for data: 946091040
I0403 18:19:48.328176 17015 layer_factory.hpp:77] Creating layer loss1/drop_fc
I0403 18:19:48.328202 17015 net.cpp:91] Creating Layer loss1/drop_fc
I0403 18:19:48.328219 17015 net.cpp:425] loss1/drop_fc <- loss1/fc
I0403 18:19:48.328235 17015 net.cpp:386] loss1/drop_fc -> loss1/fc (in-place)
I0403 18:19:48.328287 17015 net.cpp:141] Setting up loss1/drop_fc
I0403 18:19:48.328310 17015 net.cpp:148] Top shape: 24 1024 (24576)
I0403 18:19:48.328325 17015 net.cpp:156] Memory required for data: 946189344
I0403 18:19:48.328338 17015 layer_factory.hpp:77] Creating layer loss1/classifier_plantvillage
I0403 18:19:48.328356 17015 net.cpp:91] Creating Layer loss1/classifier_plantvillage
I0403 18:19:48.328372 17015 net.cpp:425] loss1/classifier_plantvillage <- loss1/fc
I0403 18:19:48.328392 17015 net.cpp:399] loss1/classifier_plantvillage -> loss1/classifier_plantvillage
I0403 18:19:48.329268 17015 net.cpp:141] Setting up loss1/classifier_plantvillage
I0403 18:19:48.329298 17015 net.cpp:148] Top shape: 24 38 (912)
I0403 18:19:48.329313 17015 net.cpp:156] Memory required for data: 946192992
I0403 18:19:48.329331 17015 layer_factory.hpp:77] Creating layer loss1/classifier_plantvillage_loss1/classifier_plantvillage_0_split
I0403 18:19:48.329349 17015 net.cpp:91] Creating Layer loss1/classifier_plantvillage_loss1/classifier_plantvillage_0_split
I0403 18:19:48.329365 17015 net.cpp:425] loss1/classifier_plantvillage_loss1/classifier_plantvillage_0_split <- loss1/classifier_plantvillage
I0403 18:19:48.329381 17015 net.cpp:399] loss1/classifier_plantvillage_loss1/classifier_plantvillage_0_split -> loss1/classifier_plantvillage_loss1/classifier_plantvillage_0_split_0
I0403 18:19:48.329401 17015 net.cpp:399] loss1/classifier_plantvillage_loss1/classifier_plantvillage_0_split -> loss1/classifier_plantvillage_loss1/classifier_plantvillage_0_split_1
I0403 18:19:48.329419 17015 net.cpp:399] loss1/classifier_plantvillage_loss1/classifier_plantvillage_0_split -> loss1/classifier_plantvillage_loss1/classifier_plantvillage_0_split_2
I0403 18:19:48.329484 17015 net.cpp:141] Setting up loss1/classifier_plantvillage_loss1/classifier_plantvillage_0_split
I0403 18:19:48.329507 17015 net.cpp:148] Top shape: 24 38 (912)
I0403 18:19:48.329522 17015 net.cpp:148] Top shape: 24 38 (912)
I0403 18:19:48.329537 17015 net.cpp:148] Top shape: 24 38 (912)
I0403 18:19:48.329552 17015 net.cpp:156] Memory required for data: 946203936
I0403 18:19:48.329566 17015 layer_factory.hpp:77] Creating layer inception_4b/1x1
I0403 18:19:48.329586 17015 net.cpp:91] Creating Layer inception_4b/1x1
I0403 18:19:48.329617 17015 net.cpp:425] inception_4b/1x1 <- inception_4a/output_inception_4a/output_0_split_1
I0403 18:19:48.329638 17015 net.cpp:399] inception_4b/1x1 -> inception_4b/1x1
I0403 18:19:48.331323 17015 net.cpp:141] Setting up inception_4b/1x1
I0403 18:19:48.331353 17015 net.cpp:148] Top shape: 24 160 14 14 (752640)
I0403 18:19:48.331369 17015 net.cpp:156] Memory required for data: 949214496
I0403 18:19:48.331388 17015 layer_factory.hpp:77] Creating layer inception_4b/relu_1x1
I0403 18:19:48.331406 17015 net.cpp:91] Creating Layer inception_4b/relu_1x1
I0403 18:19:48.331423 17015 net.cpp:425] inception_4b/relu_1x1 <- inception_4b/1x1
I0403 18:19:48.331440 17015 net.cpp:386] inception_4b/relu_1x1 -> inception_4b/1x1 (in-place)
I0403 18:19:48.331621 17015 net.cpp:141] Setting up inception_4b/relu_1x1
I0403 18:19:48.331650 17015 net.cpp:148] Top shape: 24 160 14 14 (752640)
I0403 18:19:48.331665 17015 net.cpp:156] Memory required for data: 952225056
I0403 18:19:48.331679 17015 layer_factory.hpp:77] Creating layer inception_4b/3x3_reduce
I0403 18:19:48.331701 17015 net.cpp:91] Creating Layer inception_4b/3x3_reduce
I0403 18:19:48.331719 17015 net.cpp:425] inception_4b/3x3_reduce <- inception_4a/output_inception_4a/output_0_split_2
I0403 18:19:48.331739 17015 net.cpp:399] inception_4b/3x3_reduce -> inception_4b/3x3_reduce
I0403 18:19:48.333084 17015 net.cpp:141] Setting up inception_4b/3x3_reduce
I0403 18:19:48.333115 17015 net.cpp:148] Top shape: 24 112 14 14 (526848)
I0403 18:19:48.333132 17015 net.cpp:156] Memory required for data: 954332448
I0403 18:19:48.333150 17015 layer_factory.hpp:77] Creating layer inception_4b/relu_3x3_reduce
I0403 18:19:48.333168 17015 net.cpp:91] Creating Layer inception_4b/relu_3x3_reduce
I0403 18:19:48.333184 17015 net.cpp:425] inception_4b/relu_3x3_reduce <- inception_4b/3x3_reduce
I0403 18:19:48.333204 17015 net.cpp:386] inception_4b/relu_3x3_reduce -> inception_4b/3x3_reduce (in-place)
I0403 18:19:48.333483 17015 net.cpp:141] Setting up inception_4b/relu_3x3_reduce
I0403 18:19:48.333511 17015 net.cpp:148] Top shape: 24 112 14 14 (526848)
I0403 18:19:48.333528 17015 net.cpp:156] Memory required for data: 956439840
I0403 18:19:48.333542 17015 layer_factory.hpp:77] Creating layer inception_4b/3x3
I0403 18:19:48.333564 17015 net.cpp:91] Creating Layer inception_4b/3x3
I0403 18:19:48.333582 17015 net.cpp:425] inception_4b/3x3 <- inception_4b/3x3_reduce
I0403 18:19:48.333600 17015 net.cpp:399] inception_4b/3x3 -> inception_4b/3x3
I0403 18:19:48.336592 17015 net.cpp:141] Setting up inception_4b/3x3
I0403 18:19:48.336621 17015 net.cpp:148] Top shape: 24 224 14 14 (1053696)
I0403 18:19:48.336635 17015 net.cpp:156] Memory required for data: 960654624
I0403 18:19:48.336654 17015 layer_factory.hpp:77] Creating layer inception_4b/relu_3x3
I0403 18:19:48.336674 17015 net.cpp:91] Creating Layer inception_4b/relu_3x3
I0403 18:19:48.336693 17015 net.cpp:425] inception_4b/relu_3x3 <- inception_4b/3x3
I0403 18:19:48.336709 17015 net.cpp:386] inception_4b/relu_3x3 -> inception_4b/3x3 (in-place)
I0403 18:19:48.336890 17015 net.cpp:141] Setting up inception_4b/relu_3x3
I0403 18:19:48.336915 17015 net.cpp:148] Top shape: 24 224 14 14 (1053696)
I0403 18:19:48.336931 17015 net.cpp:156] Memory required for data: 964869408
I0403 18:19:48.336946 17015 layer_factory.hpp:77] Creating layer inception_4b/5x5_reduce
I0403 18:19:48.336971 17015 net.cpp:91] Creating Layer inception_4b/5x5_reduce
I0403 18:19:48.336992 17015 net.cpp:425] inception_4b/5x5_reduce <- inception_4a/output_inception_4a/output_0_split_3
I0403 18:19:48.337013 17015 net.cpp:399] inception_4b/5x5_reduce -> inception_4b/5x5_reduce
I0403 18:19:48.338096 17015 net.cpp:141] Setting up inception_4b/5x5_reduce
I0403 18:19:48.338126 17015 net.cpp:148] Top shape: 24 24 14 14 (112896)
I0403 18:19:48.338143 17015 net.cpp:156] Memory required for data: 965320992
I0403 18:19:48.338161 17015 layer_factory.hpp:77] Creating layer inception_4b/relu_5x5_reduce
I0403 18:19:48.338181 17015 net.cpp:91] Creating Layer inception_4b/relu_5x5_reduce
I0403 18:19:48.338222 17015 net.cpp:425] inception_4b/relu_5x5_reduce <- inception_4b/5x5_reduce
I0403 18:19:48.338243 17015 net.cpp:386] inception_4b/relu_5x5_reduce -> inception_4b/5x5_reduce (in-place)
I0403 18:19:48.338429 17015 net.cpp:141] Setting up inception_4b/relu_5x5_reduce
I0403 18:19:48.338455 17015 net.cpp:148] Top shape: 24 24 14 14 (112896)
I0403 18:19:48.338470 17015 net.cpp:156] Memory required for data: 965772576
I0403 18:19:48.338485 17015 layer_factory.hpp:77] Creating layer inception_4b/5x5
I0403 18:19:48.338520 17015 net.cpp:91] Creating Layer inception_4b/5x5
I0403 18:19:48.338537 17015 net.cpp:425] inception_4b/5x5 <- inception_4b/5x5_reduce
I0403 18:19:48.338558 17015 net.cpp:399] inception_4b/5x5 -> inception_4b/5x5
I0403 18:19:48.339787 17015 net.cpp:141] Setting up inception_4b/5x5
I0403 18:19:48.339817 17015 net.cpp:148] Top shape: 24 64 14 14 (301056)
I0403 18:19:48.339833 17015 net.cpp:156] Memory required for data: 966976800
I0403 18:19:48.339850 17015 layer_factory.hpp:77] Creating layer inception_4b/relu_5x5
I0403 18:19:48.339867 17015 net.cpp:91] Creating Layer inception_4b/relu_5x5
I0403 18:19:48.339884 17015 net.cpp:425] inception_4b/relu_5x5 <- inception_4b/5x5
I0403 18:19:48.339900 17015 net.cpp:386] inception_4b/relu_5x5 -> inception_4b/5x5 (in-place)
I0403 18:19:48.340191 17015 net.cpp:141] Setting up inception_4b/relu_5x5
I0403 18:19:48.340220 17015 net.cpp:148] Top shape: 24 64 14 14 (301056)
I0403 18:19:48.340236 17015 net.cpp:156] Memory required for data: 968181024
I0403 18:19:48.340250 17015 layer_factory.hpp:77] Creating layer inception_4b/pool
I0403 18:19:48.340268 17015 net.cpp:91] Creating Layer inception_4b/pool
I0403 18:19:48.340286 17015 net.cpp:425] inception_4b/pool <- inception_4a/output_inception_4a/output_0_split_4
I0403 18:19:48.340302 17015 net.cpp:399] inception_4b/pool -> inception_4b/pool
I0403 18:19:48.340368 17015 net.cpp:141] Setting up inception_4b/pool
I0403 18:19:48.340392 17015 net.cpp:148] Top shape: 24 512 14 14 (2408448)
I0403 18:19:48.340407 17015 net.cpp:156] Memory required for data: 977814816
I0403 18:19:48.340421 17015 layer_factory.hpp:77] Creating layer inception_4b/pool_proj
I0403 18:19:48.340445 17015 net.cpp:91] Creating Layer inception_4b/pool_proj
I0403 18:19:48.340461 17015 net.cpp:425] inception_4b/pool_proj <- inception_4b/pool
I0403 18:19:48.340482 17015 net.cpp:399] inception_4b/pool_proj -> inception_4b/pool_proj
I0403 18:19:48.341676 17015 net.cpp:141] Setting up inception_4b/pool_proj
I0403 18:19:48.341707 17015 net.cpp:148] Top shape: 24 64 14 14 (301056)
I0403 18:19:48.341723 17015 net.cpp:156] Memory required for data: 979019040
I0403 18:19:48.341742 17015 layer_factory.hpp:77] Creating layer inception_4b/relu_pool_proj
I0403 18:19:48.341759 17015 net.cpp:91] Creating Layer inception_4b/relu_pool_proj
I0403 18:19:48.341775 17015 net.cpp:425] inception_4b/relu_pool_proj <- inception_4b/pool_proj
I0403 18:19:48.341792 17015 net.cpp:386] inception_4b/relu_pool_proj -> inception_4b/pool_proj (in-place)
I0403 18:19:48.341974 17015 net.cpp:141] Setting up inception_4b/relu_pool_proj
I0403 18:19:48.342003 17015 net.cpp:148] Top shape: 24 64 14 14 (301056)
I0403 18:19:48.342018 17015 net.cpp:156] Memory required for data: 980223264
I0403 18:19:48.342032 17015 layer_factory.hpp:77] Creating layer inception_4b/output
I0403 18:19:48.342051 17015 net.cpp:91] Creating Layer inception_4b/output
I0403 18:19:48.342067 17015 net.cpp:425] inception_4b/output <- inception_4b/1x1
I0403 18:19:48.342082 17015 net.cpp:425] inception_4b/output <- inception_4b/3x3
I0403 18:19:48.342098 17015 net.cpp:425] inception_4b/output <- inception_4b/5x5
I0403 18:19:48.342114 17015 net.cpp:425] inception_4b/output <- inception_4b/pool_proj
I0403 18:19:48.342133 17015 net.cpp:399] inception_4b/output -> inception_4b/output
I0403 18:19:48.342178 17015 net.cpp:141] Setting up inception_4b/output
I0403 18:19:48.342216 17015 net.cpp:148] Top shape: 24 512 14 14 (2408448)
I0403 18:19:48.342231 17015 net.cpp:156] Memory required for data: 989857056
I0403 18:19:48.342260 17015 layer_factory.hpp:77] Creating layer inception_4b/output_inception_4b/output_0_split
I0403 18:19:48.342279 17015 net.cpp:91] Creating Layer inception_4b/output_inception_4b/output_0_split
I0403 18:19:48.342295 17015 net.cpp:425] inception_4b/output_inception_4b/output_0_split <- inception_4b/output
I0403 18:19:48.342315 17015 net.cpp:399] inception_4b/output_inception_4b/output_0_split -> inception_4b/output_inception_4b/output_0_split_0
I0403 18:19:48.342337 17015 net.cpp:399] inception_4b/output_inception_4b/output_0_split -> inception_4b/output_inception_4b/output_0_split_1
I0403 18:19:48.342358 17015 net.cpp:399] inception_4b/output_inception_4b/output_0_split -> inception_4b/output_inception_4b/output_0_split_2
I0403 18:19:48.342380 17015 net.cpp:399] inception_4b/output_inception_4b/output_0_split -> inception_4b/output_inception_4b/output_0_split_3
I0403 18:19:48.342464 17015 net.cpp:141] Setting up inception_4b/output_inception_4b/output_0_split
I0403 18:19:48.342499 17015 net.cpp:148] Top shape: 24 512 14 14 (2408448)
I0403 18:19:48.342515 17015 net.cpp:148] Top shape: 24 512 14 14 (2408448)
I0403 18:19:48.342530 17015 net.cpp:148] Top shape: 24 512 14 14 (2408448)
I0403 18:19:48.342545 17015 net.cpp:148] Top shape: 24 512 14 14 (2408448)
I0403 18:19:48.342558 17015 net.cpp:156] Memory required for data: 1028392224
I0403 18:19:48.342573 17015 layer_factory.hpp:77] Creating layer inception_4c/1x1
I0403 18:19:48.342595 17015 net.cpp:91] Creating Layer inception_4c/1x1
I0403 18:19:48.342612 17015 net.cpp:425] inception_4c/1x1 <- inception_4b/output_inception_4b/output_0_split_0
I0403 18:19:48.342633 17015 net.cpp:399] inception_4c/1x1 -> inception_4c/1x1
I0403 18:19:48.344069 17015 net.cpp:141] Setting up inception_4c/1x1
I0403 18:19:48.344095 17015 net.cpp:148] Top shape: 24 128 14 14 (602112)
I0403 18:19:48.344110 17015 net.cpp:156] Memory required for data: 1030800672
I0403 18:19:48.344128 17015 layer_factory.hpp:77] Creating layer inception_4c/relu_1x1
I0403 18:19:48.344149 17015 net.cpp:91] Creating Layer inception_4c/relu_1x1
I0403 18:19:48.344166 17015 net.cpp:425] inception_4c/relu_1x1 <- inception_4c/1x1
I0403 18:19:48.344182 17015 net.cpp:386] inception_4c/relu_1x1 -> inception_4c/1x1 (in-place)
I0403 18:19:48.344360 17015 net.cpp:141] Setting up inception_4c/relu_1x1
I0403 18:19:48.344386 17015 net.cpp:148] Top shape: 24 128 14 14 (602112)
I0403 18:19:48.344400 17015 net.cpp:156] Memory required for data: 1033209120
I0403 18:19:48.344414 17015 layer_factory.hpp:77] Creating layer inception_4c/3x3_reduce
I0403 18:19:48.344439 17015 net.cpp:91] Creating Layer inception_4c/3x3_reduce
I0403 18:19:48.344455 17015 net.cpp:425] inception_4c/3x3_reduce <- inception_4b/output_inception_4b/output_0_split_1
I0403 18:19:48.344475 17015 net.cpp:399] inception_4c/3x3_reduce -> inception_4c/3x3_reduce
I0403 18:19:48.346451 17015 net.cpp:141] Setting up inception_4c/3x3_reduce
I0403 18:19:48.346482 17015 net.cpp:148] Top shape: 24 128 14 14 (602112)
I0403 18:19:48.346511 17015 net.cpp:156] Memory required for data: 1035617568
I0403 18:19:48.346530 17015 layer_factory.hpp:77] Creating layer inception_4c/relu_3x3_reduce
I0403 18:19:48.346550 17015 net.cpp:91] Creating Layer inception_4c/relu_3x3_reduce
I0403 18:19:48.346568 17015 net.cpp:425] inception_4c/relu_3x3_reduce <- inception_4c/3x3_reduce
I0403 18:19:48.346585 17015 net.cpp:386] inception_4c/relu_3x3_reduce -> inception_4c/3x3_reduce (in-place)
I0403 18:19:48.346894 17015 net.cpp:141] Setting up inception_4c/relu_3x3_reduce
I0403 18:19:48.346920 17015 net.cpp:148] Top shape: 24 128 14 14 (602112)
I0403 18:19:48.346935 17015 net.cpp:156] Memory required for data: 1038026016
I0403 18:19:48.346949 17015 layer_factory.hpp:77] Creating layer inception_4c/3x3
I0403 18:19:48.346974 17015 net.cpp:91] Creating Layer inception_4c/3x3
I0403 18:19:48.346997 17015 net.cpp:425] inception_4c/3x3 <- inception_4c/3x3_reduce
I0403 18:19:48.347017 17015 net.cpp:399] inception_4c/3x3 -> inception_4c/3x3
I0403 18:19:48.350590 17015 net.cpp:141] Setting up inception_4c/3x3
I0403 18:19:48.350632 17015 net.cpp:148] Top shape: 24 256 14 14 (1204224)
I0403 18:19:48.350648 17015 net.cpp:156] Memory required for data: 1042842912
I0403 18:19:48.350679 17015 layer_factory.hpp:77] Creating layer inception_4c/relu_3x3
I0403 18:19:48.350699 17015 net.cpp:91] Creating Layer inception_4c/relu_3x3
I0403 18:19:48.350716 17015 net.cpp:425] inception_4c/relu_3x3 <- inception_4c/3x3
I0403 18:19:48.350733 17015 net.cpp:386] inception_4c/relu_3x3 -> inception_4c/3x3 (in-place)
I0403 18:19:48.350914 17015 net.cpp:141] Setting up inception_4c/relu_3x3
I0403 18:19:48.350940 17015 net.cpp:148] Top shape: 24 256 14 14 (1204224)
I0403 18:19:48.350956 17015 net.cpp:156] Memory required for data: 1047659808
I0403 18:19:48.350970 17015 layer_factory.hpp:77] Creating layer inception_4c/5x5_reduce
I0403 18:19:48.350997 17015 net.cpp:91] Creating Layer inception_4c/5x5_reduce
I0403 18:19:48.351016 17015 net.cpp:425] inception_4c/5x5_reduce <- inception_4b/output_inception_4b/output_0_split_2
I0403 18:19:48.351035 17015 net.cpp:399] inception_4c/5x5_reduce -> inception_4c/5x5_reduce
I0403 18:19:48.352092 17015 net.cpp:141] Setting up inception_4c/5x5_reduce
I0403 18:19:48.352120 17015 net.cpp:148] Top shape: 24 24 14 14 (112896)
I0403 18:19:48.352136 17015 net.cpp:156] Memory required for data: 1048111392
I0403 18:19:48.352154 17015 layer_factory.hpp:77] Creating layer inception_4c/relu_5x5_reduce
I0403 18:19:48.352172 17015 net.cpp:91] Creating Layer inception_4c/relu_5x5_reduce
I0403 18:19:48.352187 17015 net.cpp:425] inception_4c/relu_5x5_reduce <- inception_4c/5x5_reduce
I0403 18:19:48.352206 17015 net.cpp:386] inception_4c/relu_5x5_reduce -> inception_4c/5x5_reduce (in-place)
I0403 18:19:48.352383 17015 net.cpp:141] Setting up inception_4c/relu_5x5_reduce
I0403 18:19:48.352407 17015 net.cpp:148] Top shape: 24 24 14 14 (112896)
I0403 18:19:48.352422 17015 net.cpp:156] Memory required for data: 1048562976
I0403 18:19:48.352437 17015 layer_factory.hpp:77] Creating layer inception_4c/5x5
I0403 18:19:48.352458 17015 net.cpp:91] Creating Layer inception_4c/5x5
I0403 18:19:48.352474 17015 net.cpp:425] inception_4c/5x5 <- inception_4c/5x5_reduce
I0403 18:19:48.352494 17015 net.cpp:399] inception_4c/5x5 -> inception_4c/5x5
I0403 18:19:48.353700 17015 net.cpp:141] Setting up inception_4c/5x5
I0403 18:19:48.353726 17015 net.cpp:148] Top shape: 24 64 14 14 (301056)
I0403 18:19:48.353741 17015 net.cpp:156] Memory required for data: 1049767200
I0403 18:19:48.353760 17015 layer_factory.hpp:77] Creating layer inception_4c/relu_5x5
I0403 18:19:48.353780 17015 net.cpp:91] Creating Layer inception_4c/relu_5x5
I0403 18:19:48.353796 17015 net.cpp:425] inception_4c/relu_5x5 <- inception_4c/5x5
I0403 18:19:48.353812 17015 net.cpp:386] inception_4c/relu_5x5 -> inception_4c/5x5 (in-place)
I0403 18:19:48.354094 17015 net.cpp:141] Setting up inception_4c/relu_5x5
I0403 18:19:48.354120 17015 net.cpp:148] Top shape: 24 64 14 14 (301056)
I0403 18:19:48.354135 17015 net.cpp:156] Memory required for data: 1050971424
I0403 18:19:48.354149 17015 layer_factory.hpp:77] Creating layer inception_4c/pool
I0403 18:19:48.354167 17015 net.cpp:91] Creating Layer inception_4c/pool
I0403 18:19:48.354182 17015 net.cpp:425] inception_4c/pool <- inception_4b/output_inception_4b/output_0_split_3
I0403 18:19:48.354217 17015 net.cpp:399] inception_4c/pool -> inception_4c/pool
I0403 18:19:48.354282 17015 net.cpp:141] Setting up inception_4c/pool
I0403 18:19:48.354308 17015 net.cpp:148] Top shape: 24 512 14 14 (2408448)
I0403 18:19:48.354323 17015 net.cpp:156] Memory required for data: 1060605216
I0403 18:19:48.354337 17015 layer_factory.hpp:77] Creating layer inception_4c/pool_proj
I0403 18:19:48.354359 17015 net.cpp:91] Creating Layer inception_4c/pool_proj
I0403 18:19:48.354377 17015 net.cpp:425] inception_4c/pool_proj <- inception_4c/pool
I0403 18:19:48.354395 17015 net.cpp:399] inception_4c/pool_proj -> inception_4c/pool_proj
I0403 18:19:48.355589 17015 net.cpp:141] Setting up inception_4c/pool_proj
I0403 18:19:48.355619 17015 net.cpp:148] Top shape: 24 64 14 14 (301056)
I0403 18:19:48.355648 17015 net.cpp:156] Memory required for data: 1061809440
I0403 18:19:48.355667 17015 layer_factory.hpp:77] Creating layer inception_4c/relu_pool_proj
I0403 18:19:48.355685 17015 net.cpp:91] Creating Layer inception_4c/relu_pool_proj
I0403 18:19:48.355700 17015 net.cpp:425] inception_4c/relu_pool_proj <- inception_4c/pool_proj
I0403 18:19:48.355717 17015 net.cpp:386] inception_4c/relu_pool_proj -> inception_4c/pool_proj (in-place)
I0403 18:19:48.355896 17015 net.cpp:141] Setting up inception_4c/relu_pool_proj
I0403 18:19:48.355921 17015 net.cpp:148] Top shape: 24 64 14 14 (301056)
I0403 18:19:48.355934 17015 net.cpp:156] Memory required for data: 1063013664
I0403 18:19:48.355949 17015 layer_factory.hpp:77] Creating layer inception_4c/output
I0403 18:19:48.355967 17015 net.cpp:91] Creating Layer inception_4c/output
I0403 18:19:48.355985 17015 net.cpp:425] inception_4c/output <- inception_4c/1x1
I0403 18:19:48.356003 17015 net.cpp:425] inception_4c/output <- inception_4c/3x3
I0403 18:19:48.356019 17015 net.cpp:425] inception_4c/output <- inception_4c/5x5
I0403 18:19:48.356034 17015 net.cpp:425] inception_4c/output <- inception_4c/pool_proj
I0403 18:19:48.356051 17015 net.cpp:399] inception_4c/output -> inception_4c/output
I0403 18:19:48.356096 17015 net.cpp:141] Setting up inception_4c/output
I0403 18:19:48.356122 17015 net.cpp:148] Top shape: 24 512 14 14 (2408448)
I0403 18:19:48.356137 17015 net.cpp:156] Memory required for data: 1072647456
I0403 18:19:48.356151 17015 layer_factory.hpp:77] Creating layer inception_4c/output_inception_4c/output_0_split
I0403 18:19:48.356168 17015 net.cpp:91] Creating Layer inception_4c/output_inception_4c/output_0_split
I0403 18:19:48.356183 17015 net.cpp:425] inception_4c/output_inception_4c/output_0_split <- inception_4c/output
I0403 18:19:48.356199 17015 net.cpp:399] inception_4c/output_inception_4c/output_0_split -> inception_4c/output_inception_4c/output_0_split_0
I0403 18:19:48.356221 17015 net.cpp:399] inception_4c/output_inception_4c/output_0_split -> inception_4c/output_inception_4c/output_0_split_1
I0403 18:19:48.356241 17015 net.cpp:399] inception_4c/output_inception_4c/output_0_split -> inception_4c/output_inception_4c/output_0_split_2
I0403 18:19:48.356261 17015 net.cpp:399] inception_4c/output_inception_4c/output_0_split -> inception_4c/output_inception_4c/output_0_split_3
I0403 18:19:48.356344 17015 net.cpp:141] Setting up inception_4c/output_inception_4c/output_0_split
I0403 18:19:48.356366 17015 net.cpp:148] Top shape: 24 512 14 14 (2408448)
I0403 18:19:48.356382 17015 net.cpp:148] Top shape: 24 512 14 14 (2408448)
I0403 18:19:48.356397 17015 net.cpp:148] Top shape: 24 512 14 14 (2408448)
I0403 18:19:48.356412 17015 net.cpp:148] Top shape: 24 512 14 14 (2408448)
I0403 18:19:48.356426 17015 net.cpp:156] Memory required for data: 1111182624
I0403 18:19:48.356441 17015 layer_factory.hpp:77] Creating layer inception_4d/1x1
I0403 18:19:48.356462 17015 net.cpp:91] Creating Layer inception_4d/1x1
I0403 18:19:48.356479 17015 net.cpp:425] inception_4d/1x1 <- inception_4c/output_inception_4c/output_0_split_0
I0403 18:19:48.356499 17015 net.cpp:399] inception_4d/1x1 -> inception_4d/1x1
I0403 18:19:48.357831 17015 net.cpp:141] Setting up inception_4d/1x1
I0403 18:19:48.357857 17015 net.cpp:148] Top shape: 24 112 14 14 (526848)
I0403 18:19:48.357872 17015 net.cpp:156] Memory required for data: 1113290016
I0403 18:19:48.357889 17015 layer_factory.hpp:77] Creating layer inception_4d/relu_1x1
I0403 18:19:48.357910 17015 net.cpp:91] Creating Layer inception_4d/relu_1x1
I0403 18:19:48.357928 17015 net.cpp:425] inception_4d/relu_1x1 <- inception_4d/1x1
I0403 18:19:48.357945 17015 net.cpp:386] inception_4d/relu_1x1 -> inception_4d/1x1 (in-place)
I0403 18:19:48.358137 17015 net.cpp:141] Setting up inception_4d/relu_1x1
I0403 18:19:48.358165 17015 net.cpp:148] Top shape: 24 112 14 14 (526848)
I0403 18:19:48.358180 17015 net.cpp:156] Memory required for data: 1115397408
I0403 18:19:48.358194 17015 layer_factory.hpp:77] Creating layer inception_4d/3x3_reduce
I0403 18:19:48.358242 17015 net.cpp:91] Creating Layer inception_4d/3x3_reduce
I0403 18:19:48.358260 17015 net.cpp:425] inception_4d/3x3_reduce <- inception_4c/output_inception_4c/output_0_split_1
I0403 18:19:48.358279 17015 net.cpp:399] inception_4d/3x3_reduce -> inception_4d/3x3_reduce
I0403 18:19:48.359756 17015 net.cpp:141] Setting up inception_4d/3x3_reduce
I0403 18:19:48.359782 17015 net.cpp:148] Top shape: 24 144 14 14 (677376)
I0403 18:19:48.359798 17015 net.cpp:156] Memory required for data: 1118106912
I0403 18:19:48.359815 17015 layer_factory.hpp:77] Creating layer inception_4d/relu_3x3_reduce
I0403 18:19:48.359833 17015 net.cpp:91] Creating Layer inception_4d/relu_3x3_reduce
I0403 18:19:48.359849 17015 net.cpp:425] inception_4d/relu_3x3_reduce <- inception_4d/3x3_reduce
I0403 18:19:48.359869 17015 net.cpp:386] inception_4d/relu_3x3_reduce -> inception_4d/3x3_reduce (in-place)
I0403 18:19:48.360152 17015 net.cpp:141] Setting up inception_4d/relu_3x3_reduce
I0403 18:19:48.360177 17015 net.cpp:148] Top shape: 24 144 14 14 (677376)
I0403 18:19:48.360191 17015 net.cpp:156] Memory required for data: 1120816416
I0403 18:19:48.360206 17015 layer_factory.hpp:77] Creating layer inception_4d/3x3
I0403 18:19:48.360229 17015 net.cpp:91] Creating Layer inception_4d/3x3
I0403 18:19:48.360246 17015 net.cpp:425] inception_4d/3x3 <- inception_4d/3x3_reduce
I0403 18:19:48.360267 17015 net.cpp:399] inception_4d/3x3 -> inception_4d/3x3
I0403 18:19:48.364466 17015 net.cpp:141] Setting up inception_4d/3x3
I0403 18:19:48.364495 17015 net.cpp:148] Top shape: 24 288 14 14 (1354752)
I0403 18:19:48.364509 17015 net.cpp:156] Memory required for data: 1126235424
I0403 18:19:48.364526 17015 layer_factory.hpp:77] Creating layer inception_4d/relu_3x3
I0403 18:19:48.364547 17015 net.cpp:91] Creating Layer inception_4d/relu_3x3
I0403 18:19:48.364563 17015 net.cpp:425] inception_4d/relu_3x3 <- inception_4d/3x3
I0403 18:19:48.364580 17015 net.cpp:386] inception_4d/relu_3x3 -> inception_4d/3x3 (in-place)
I0403 18:19:48.364756 17015 net.cpp:141] Setting up inception_4d/relu_3x3
I0403 18:19:48.364783 17015 net.cpp:148] Top shape: 24 288 14 14 (1354752)
I0403 18:19:48.364797 17015 net.cpp:156] Memory required for data: 1131654432
I0403 18:19:48.364811 17015 layer_factory.hpp:77] Creating layer inception_4d/5x5_reduce
I0403 18:19:48.364832 17015 net.cpp:91] Creating Layer inception_4d/5x5_reduce
I0403 18:19:48.364850 17015 net.cpp:425] inception_4d/5x5_reduce <- inception_4c/output_inception_4c/output_0_split_2
I0403 18:19:48.364869 17015 net.cpp:399] inception_4d/5x5_reduce -> inception_4d/5x5_reduce
I0403 18:19:48.366022 17015 net.cpp:141] Setting up inception_4d/5x5_reduce
I0403 18:19:48.366050 17015 net.cpp:148] Top shape: 24 32 14 14 (150528)
I0403 18:19:48.366065 17015 net.cpp:156] Memory required for data: 1132256544
I0403 18:19:48.366082 17015 layer_factory.hpp:77] Creating layer inception_4d/relu_5x5_reduce
I0403 18:19:48.366102 17015 net.cpp:91] Creating Layer inception_4d/relu_5x5_reduce
I0403 18:19:48.366118 17015 net.cpp:425] inception_4d/relu_5x5_reduce <- inception_4d/5x5_reduce
I0403 18:19:48.366134 17015 net.cpp:386] inception_4d/relu_5x5_reduce -> inception_4d/5x5_reduce (in-place)
I0403 18:19:48.366336 17015 net.cpp:141] Setting up inception_4d/relu_5x5_reduce
I0403 18:19:48.366365 17015 net.cpp:148] Top shape: 24 32 14 14 (150528)
I0403 18:19:48.366382 17015 net.cpp:156] Memory required for data: 1132858656
I0403 18:19:48.366397 17015 layer_factory.hpp:77] Creating layer inception_4d/5x5
I0403 18:19:48.366420 17015 net.cpp:91] Creating Layer inception_4d/5x5
I0403 18:19:48.366439 17015 net.cpp:425] inception_4d/5x5 <- inception_4d/5x5_reduce
I0403 18:19:48.366458 17015 net.cpp:399] inception_4d/5x5 -> inception_4d/5x5
I0403 18:19:48.367916 17015 net.cpp:141] Setting up inception_4d/5x5
I0403 18:19:48.367947 17015 net.cpp:148] Top shape: 24 64 14 14 (301056)
I0403 18:19:48.367964 17015 net.cpp:156] Memory required for data: 1134062880
I0403 18:19:48.367991 17015 layer_factory.hpp:77] Creating layer inception_4d/relu_5x5
I0403 18:19:48.368032 17015 net.cpp:91] Creating Layer inception_4d/relu_5x5
I0403 18:19:48.368049 17015 net.cpp:425] inception_4d/relu_5x5 <- inception_4d/5x5
I0403 18:19:48.368068 17015 net.cpp:386] inception_4d/relu_5x5 -> inception_4d/5x5 (in-place)
I0403 18:19:48.368366 17015 net.cpp:141] Setting up inception_4d/relu_5x5
I0403 18:19:48.368393 17015 net.cpp:148] Top shape: 24 64 14 14 (301056)
I0403 18:19:48.368409 17015 net.cpp:156] Memory required for data: 1135267104
I0403 18:19:48.368423 17015 layer_factory.hpp:77] Creating layer inception_4d/pool
I0403 18:19:48.368440 17015 net.cpp:91] Creating Layer inception_4d/pool
I0403 18:19:48.368456 17015 net.cpp:425] inception_4d/pool <- inception_4c/output_inception_4c/output_0_split_3
I0403 18:19:48.368476 17015 net.cpp:399] inception_4d/pool -> inception_4d/pool
I0403 18:19:48.368541 17015 net.cpp:141] Setting up inception_4d/pool
I0403 18:19:48.368567 17015 net.cpp:148] Top shape: 24 512 14 14 (2408448)
I0403 18:19:48.368582 17015 net.cpp:156] Memory required for data: 1144900896
I0403 18:19:48.368597 17015 layer_factory.hpp:77] Creating layer inception_4d/pool_proj
I0403 18:19:48.368615 17015 net.cpp:91] Creating Layer inception_4d/pool_proj
I0403 18:19:48.368631 17015 net.cpp:425] inception_4d/pool_proj <- inception_4d/pool
I0403 18:19:48.368651 17015 net.cpp:399] inception_4d/pool_proj -> inception_4d/pool_proj
I0403 18:19:48.370460 17015 net.cpp:141] Setting up inception_4d/pool_proj
I0403 18:19:48.370489 17015 net.cpp:148] Top shape: 24 64 14 14 (301056)
I0403 18:19:48.370517 17015 net.cpp:156] Memory required for data: 1146105120
I0403 18:19:48.370534 17015 layer_factory.hpp:77] Creating layer inception_4d/relu_pool_proj
I0403 18:19:48.370554 17015 net.cpp:91] Creating Layer inception_4d/relu_pool_proj
I0403 18:19:48.370573 17015 net.cpp:425] inception_4d/relu_pool_proj <- inception_4d/pool_proj
I0403 18:19:48.370589 17015 net.cpp:386] inception_4d/relu_pool_proj -> inception_4d/pool_proj (in-place)
I0403 18:19:48.370774 17015 net.cpp:141] Setting up inception_4d/relu_pool_proj
I0403 18:19:48.370800 17015 net.cpp:148] Top shape: 24 64 14 14 (301056)
I0403 18:19:48.370815 17015 net.cpp:156] Memory required for data: 1147309344
I0403 18:19:48.370829 17015 layer_factory.hpp:77] Creating layer inception_4d/output
I0403 18:19:48.370846 17015 net.cpp:91] Creating Layer inception_4d/output
I0403 18:19:48.370862 17015 net.cpp:425] inception_4d/output <- inception_4d/1x1
I0403 18:19:48.370879 17015 net.cpp:425] inception_4d/output <- inception_4d/3x3
I0403 18:19:48.370894 17015 net.cpp:425] inception_4d/output <- inception_4d/5x5
I0403 18:19:48.370910 17015 net.cpp:425] inception_4d/output <- inception_4d/pool_proj
I0403 18:19:48.370929 17015 net.cpp:399] inception_4d/output -> inception_4d/output
I0403 18:19:48.370981 17015 net.cpp:141] Setting up inception_4d/output
I0403 18:19:48.371006 17015 net.cpp:148] Top shape: 24 528 14 14 (2483712)
I0403 18:19:48.371021 17015 net.cpp:156] Memory required for data: 1157244192
I0403 18:19:48.371036 17015 layer_factory.hpp:77] Creating layer inception_4d/output_inception_4d/output_0_split
I0403 18:19:48.371055 17015 net.cpp:91] Creating Layer inception_4d/output_inception_4d/output_0_split
I0403 18:19:48.371071 17015 net.cpp:425] inception_4d/output_inception_4d/output_0_split <- inception_4d/output
I0403 18:19:48.371089 17015 net.cpp:399] inception_4d/output_inception_4d/output_0_split -> inception_4d/output_inception_4d/output_0_split_0
I0403 18:19:48.371110 17015 net.cpp:399] inception_4d/output_inception_4d/output_0_split -> inception_4d/output_inception_4d/output_0_split_1
I0403 18:19:48.371134 17015 net.cpp:399] inception_4d/output_inception_4d/output_0_split -> inception_4d/output_inception_4d/output_0_split_2
I0403 18:19:48.371157 17015 net.cpp:399] inception_4d/output_inception_4d/output_0_split -> inception_4d/output_inception_4d/output_0_split_3
I0403 18:19:48.371177 17015 net.cpp:399] inception_4d/output_inception_4d/output_0_split -> inception_4d/output_inception_4d/output_0_split_4
I0403 18:19:48.371279 17015 net.cpp:141] Setting up inception_4d/output_inception_4d/output_0_split
I0403 18:19:48.371315 17015 net.cpp:148] Top shape: 24 528 14 14 (2483712)
I0403 18:19:48.371332 17015 net.cpp:148] Top shape: 24 528 14 14 (2483712)
I0403 18:19:48.371348 17015 net.cpp:148] Top shape: 24 528 14 14 (2483712)
I0403 18:19:48.371363 17015 net.cpp:148] Top shape: 24 528 14 14 (2483712)
I0403 18:19:48.371378 17015 net.cpp:148] Top shape: 24 528 14 14 (2483712)
I0403 18:19:48.371392 17015 net.cpp:156] Memory required for data: 1206918432
I0403 18:19:48.371407 17015 layer_factory.hpp:77] Creating layer loss2/ave_pool
I0403 18:19:48.371426 17015 net.cpp:91] Creating Layer loss2/ave_pool
I0403 18:19:48.371443 17015 net.cpp:425] loss2/ave_pool <- inception_4d/output_inception_4d/output_0_split_0
I0403 18:19:48.371462 17015 net.cpp:399] loss2/ave_pool -> loss2/ave_pool
I0403 18:19:48.371775 17015 net.cpp:141] Setting up loss2/ave_pool
I0403 18:19:48.371801 17015 net.cpp:148] Top shape: 24 528 4 4 (202752)
I0403 18:19:48.371816 17015 net.cpp:156] Memory required for data: 1207729440
I0403 18:19:48.371830 17015 layer_factory.hpp:77] Creating layer loss2/conv
I0403 18:19:48.371855 17015 net.cpp:91] Creating Layer loss2/conv
I0403 18:19:48.371872 17015 net.cpp:425] loss2/conv <- loss2/ave_pool
I0403 18:19:48.371891 17015 net.cpp:399] loss2/conv -> loss2/conv
I0403 18:19:48.373788 17015 net.cpp:141] Setting up loss2/conv
I0403 18:19:48.373816 17015 net.cpp:148] Top shape: 24 128 4 4 (49152)
I0403 18:19:48.373831 17015 net.cpp:156] Memory required for data: 1207926048
I0403 18:19:48.373849 17015 layer_factory.hpp:77] Creating layer loss2/relu_conv
I0403 18:19:48.373867 17015 net.cpp:91] Creating Layer loss2/relu_conv
I0403 18:19:48.373884 17015 net.cpp:425] loss2/relu_conv <- loss2/conv
I0403 18:19:48.373905 17015 net.cpp:386] loss2/relu_conv -> loss2/conv (in-place)
I0403 18:19:48.374197 17015 net.cpp:141] Setting up loss2/relu_conv
I0403 18:19:48.374235 17015 net.cpp:148] Top shape: 24 128 4 4 (49152)
I0403 18:19:48.374250 17015 net.cpp:156] Memory required for data: 1208122656
I0403 18:19:48.374265 17015 layer_factory.hpp:77] Creating layer loss2/fc
I0403 18:19:48.374285 17015 net.cpp:91] Creating Layer loss2/fc
I0403 18:19:48.374302 17015 net.cpp:425] loss2/fc <- loss2/conv
I0403 18:19:48.374323 17015 net.cpp:399] loss2/fc -> loss2/fc
I0403 18:19:48.392127 17015 net.cpp:141] Setting up loss2/fc
I0403 18:19:48.392166 17015 net.cpp:148] Top shape: 24 1024 (24576)
I0403 18:19:48.392182 17015 net.cpp:156] Memory required for data: 1208220960
I0403 18:19:48.392200 17015 layer_factory.hpp:77] Creating layer loss2/relu_fc
I0403 18:19:48.392218 17015 net.cpp:91] Creating Layer loss2/relu_fc
I0403 18:19:48.392233 17015 net.cpp:425] loss2/relu_fc <- loss2/fc
I0403 18:19:48.392251 17015 net.cpp:386] loss2/relu_fc -> loss2/fc (in-place)
I0403 18:19:48.392552 17015 net.cpp:141] Setting up loss2/relu_fc
I0403 18:19:48.392580 17015 net.cpp:148] Top shape: 24 1024 (24576)
I0403 18:19:48.392596 17015 net.cpp:156] Memory required for data: 1208319264
I0403 18:19:48.392609 17015 layer_factory.hpp:77] Creating layer loss2/drop_fc
I0403 18:19:48.392627 17015 net.cpp:91] Creating Layer loss2/drop_fc
I0403 18:19:48.392642 17015 net.cpp:425] loss2/drop_fc <- loss2/fc
I0403 18:19:48.392659 17015 net.cpp:386] loss2/drop_fc -> loss2/fc (in-place)
I0403 18:19:48.392709 17015 net.cpp:141] Setting up loss2/drop_fc
I0403 18:19:48.392731 17015 net.cpp:148] Top shape: 24 1024 (24576)
I0403 18:19:48.392745 17015 net.cpp:156] Memory required for data: 1208417568
I0403 18:19:48.392760 17015 layer_factory.hpp:77] Creating layer loss2/classifier_plantvillage
I0403 18:19:48.392779 17015 net.cpp:91] Creating Layer loss2/classifier_plantvillage
I0403 18:19:48.392796 17015 net.cpp:425] loss2/classifier_plantvillage <- loss2/fc
I0403 18:19:48.392812 17015 net.cpp:399] loss2/classifier_plantvillage -> loss2/classifier_plantvillage
I0403 18:19:48.393216 17015 net.cpp:141] Setting up loss2/classifier_plantvillage
I0403 18:19:48.393240 17015 net.cpp:148] Top shape: 24 38 (912)
I0403 18:19:48.393275 17015 net.cpp:156] Memory required for data: 1208421216
I0403 18:19:48.393293 17015 layer_factory.hpp:77] Creating layer loss2/classifier_plantvillage_loss2/classifier_plantvillage_0_split
I0403 18:19:48.393311 17015 net.cpp:91] Creating Layer loss2/classifier_plantvillage_loss2/classifier_plantvillage_0_split
I0403 18:19:48.393326 17015 net.cpp:425] loss2/classifier_plantvillage_loss2/classifier_plantvillage_0_split <- loss2/classifier_plantvillage
I0403 18:19:48.393347 17015 net.cpp:399] loss2/classifier_plantvillage_loss2/classifier_plantvillage_0_split -> loss2/classifier_plantvillage_loss2/classifier_plantvillage_0_split_0
I0403 18:19:48.393368 17015 net.cpp:399] loss2/classifier_plantvillage_loss2/classifier_plantvillage_0_split -> loss2/classifier_plantvillage_loss2/classifier_plantvillage_0_split_1
I0403 18:19:48.393388 17015 net.cpp:399] loss2/classifier_plantvillage_loss2/classifier_plantvillage_0_split -> loss2/classifier_plantvillage_loss2/classifier_plantvillage_0_split_2
I0403 18:19:48.393463 17015 net.cpp:141] Setting up loss2/classifier_plantvillage_loss2/classifier_plantvillage_0_split
I0403 18:19:48.393487 17015 net.cpp:148] Top shape: 24 38 (912)
I0403 18:19:48.393503 17015 net.cpp:148] Top shape: 24 38 (912)
I0403 18:19:48.393518 17015 net.cpp:148] Top shape: 24 38 (912)
I0403 18:19:48.393532 17015 net.cpp:156] Memory required for data: 1208432160
I0403 18:19:48.393545 17015 layer_factory.hpp:77] Creating layer inception_4e/1x1
I0403 18:19:48.393566 17015 net.cpp:91] Creating Layer inception_4e/1x1
I0403 18:19:48.393584 17015 net.cpp:425] inception_4e/1x1 <- inception_4d/output_inception_4d/output_0_split_1
I0403 18:19:48.393602 17015 net.cpp:399] inception_4e/1x1 -> inception_4e/1x1
I0403 18:19:48.395417 17015 net.cpp:141] Setting up inception_4e/1x1
I0403 18:19:48.395444 17015 net.cpp:148] Top shape: 24 256 14 14 (1204224)
I0403 18:19:48.395459 17015 net.cpp:156] Memory required for data: 1213249056
I0403 18:19:48.395478 17015 layer_factory.hpp:77] Creating layer inception_4e/relu_1x1
I0403 18:19:48.395494 17015 net.cpp:91] Creating Layer inception_4e/relu_1x1
I0403 18:19:48.395515 17015 net.cpp:425] inception_4e/relu_1x1 <- inception_4e/1x1
I0403 18:19:48.395532 17015 net.cpp:386] inception_4e/relu_1x1 -> inception_4e/1x1 (in-place)
I0403 18:19:48.395817 17015 net.cpp:141] Setting up inception_4e/relu_1x1
I0403 18:19:48.395843 17015 net.cpp:148] Top shape: 24 256 14 14 (1204224)
I0403 18:19:48.395858 17015 net.cpp:156] Memory required for data: 1218065952
I0403 18:19:48.395871 17015 layer_factory.hpp:77] Creating layer inception_4e/3x3_reduce
I0403 18:19:48.395894 17015 net.cpp:91] Creating Layer inception_4e/3x3_reduce
I0403 18:19:48.395910 17015 net.cpp:425] inception_4e/3x3_reduce <- inception_4d/output_inception_4d/output_0_split_2
I0403 18:19:48.395932 17015 net.cpp:399] inception_4e/3x3_reduce -> inception_4e/3x3_reduce
I0403 18:19:48.398002 17015 net.cpp:141] Setting up inception_4e/3x3_reduce
I0403 18:19:48.398031 17015 net.cpp:148] Top shape: 24 160 14 14 (752640)
I0403 18:19:48.398046 17015 net.cpp:156] Memory required for data: 1221076512
I0403 18:19:48.398064 17015 layer_factory.hpp:77] Creating layer inception_4e/relu_3x3_reduce
I0403 18:19:48.398082 17015 net.cpp:91] Creating Layer inception_4e/relu_3x3_reduce
I0403 18:19:48.398097 17015 net.cpp:425] inception_4e/relu_3x3_reduce <- inception_4e/3x3_reduce
I0403 18:19:48.398116 17015 net.cpp:386] inception_4e/relu_3x3_reduce -> inception_4e/3x3_reduce (in-place)
I0403 18:19:48.398313 17015 net.cpp:141] Setting up inception_4e/relu_3x3_reduce
I0403 18:19:48.398337 17015 net.cpp:148] Top shape: 24 160 14 14 (752640)
I0403 18:19:48.398352 17015 net.cpp:156] Memory required for data: 1224087072
I0403 18:19:48.398367 17015 layer_factory.hpp:77] Creating layer inception_4e/3x3
I0403 18:19:48.398389 17015 net.cpp:91] Creating Layer inception_4e/3x3
I0403 18:19:48.398407 17015 net.cpp:425] inception_4e/3x3 <- inception_4e/3x3_reduce
I0403 18:19:48.398428 17015 net.cpp:399] inception_4e/3x3 -> inception_4e/3x3
I0403 18:19:48.403368 17015 net.cpp:141] Setting up inception_4e/3x3
I0403 18:19:48.403408 17015 net.cpp:148] Top shape: 24 320 14 14 (1505280)
I0403 18:19:48.403424 17015 net.cpp:156] Memory required for data: 1230108192
I0403 18:19:48.403440 17015 layer_factory.hpp:77] Creating layer inception_4e/relu_3x3
I0403 18:19:48.403460 17015 net.cpp:91] Creating Layer inception_4e/relu_3x3
I0403 18:19:48.403477 17015 net.cpp:425] inception_4e/relu_3x3 <- inception_4e/3x3
I0403 18:19:48.403494 17015 net.cpp:386] inception_4e/relu_3x3 -> inception_4e/3x3 (in-place)
I0403 18:19:48.403784 17015 net.cpp:141] Setting up inception_4e/relu_3x3
I0403 18:19:48.403808 17015 net.cpp:148] Top shape: 24 320 14 14 (1505280)
I0403 18:19:48.403822 17015 net.cpp:156] Memory required for data: 1236129312
I0403 18:19:48.403837 17015 layer_factory.hpp:77] Creating layer inception_4e/5x5_reduce
I0403 18:19:48.403859 17015 net.cpp:91] Creating Layer inception_4e/5x5_reduce
I0403 18:19:48.403877 17015 net.cpp:425] inception_4e/5x5_reduce <- inception_4d/output_inception_4d/output_0_split_3
I0403 18:19:48.403897 17015 net.cpp:399] inception_4e/5x5_reduce -> inception_4e/5x5_reduce
I0403 18:19:48.404942 17015 net.cpp:141] Setting up inception_4e/5x5_reduce
I0403 18:19:48.404970 17015 net.cpp:148] Top shape: 24 32 14 14 (150528)
I0403 18:19:48.404990 17015 net.cpp:156] Memory required for data: 1236731424
I0403 18:19:48.405009 17015 layer_factory.hpp:77] Creating layer inception_4e/relu_5x5_reduce
I0403 18:19:48.405026 17015 net.cpp:91] Creating Layer inception_4e/relu_5x5_reduce
I0403 18:19:48.405042 17015 net.cpp:425] inception_4e/relu_5x5_reduce <- inception_4e/5x5_reduce
I0403 18:19:48.405061 17015 net.cpp:386] inception_4e/relu_5x5_reduce -> inception_4e/5x5_reduce (in-place)
I0403 18:19:48.405350 17015 net.cpp:141] Setting up inception_4e/relu_5x5_reduce
I0403 18:19:48.405380 17015 net.cpp:148] Top shape: 24 32 14 14 (150528)
I0403 18:19:48.405395 17015 net.cpp:156] Memory required for data: 1237333536
I0403 18:19:48.405411 17015 layer_factory.hpp:77] Creating layer inception_4e/5x5
I0403 18:19:48.405448 17015 net.cpp:91] Creating Layer inception_4e/5x5
I0403 18:19:48.405467 17015 net.cpp:425] inception_4e/5x5 <- inception_4e/5x5_reduce
I0403 18:19:48.405486 17015 net.cpp:399] inception_4e/5x5 -> inception_4e/5x5
I0403 18:19:48.407326 17015 net.cpp:141] Setting up inception_4e/5x5
I0403 18:19:48.407353 17015 net.cpp:148] Top shape: 24 128 14 14 (602112)
I0403 18:19:48.407368 17015 net.cpp:156] Memory required for data: 1239741984
I0403 18:19:48.407387 17015 layer_factory.hpp:77] Creating layer inception_4e/relu_5x5
I0403 18:19:48.407407 17015 net.cpp:91] Creating Layer inception_4e/relu_5x5
I0403 18:19:48.407423 17015 net.cpp:425] inception_4e/relu_5x5 <- inception_4e/5x5
I0403 18:19:48.407438 17015 net.cpp:386] inception_4e/relu_5x5 -> inception_4e/5x5 (in-place)
I0403 18:19:48.407632 17015 net.cpp:141] Setting up inception_4e/relu_5x5
I0403 18:19:48.407657 17015 net.cpp:148] Top shape: 24 128 14 14 (602112)
I0403 18:19:48.407671 17015 net.cpp:156] Memory required for data: 1242150432
I0403 18:19:48.407685 17015 layer_factory.hpp:77] Creating layer inception_4e/pool
I0403 18:19:48.407702 17015 net.cpp:91] Creating Layer inception_4e/pool
I0403 18:19:48.407718 17015 net.cpp:425] inception_4e/pool <- inception_4d/output_inception_4d/output_0_split_4
I0403 18:19:48.407737 17015 net.cpp:399] inception_4e/pool -> inception_4e/pool
I0403 18:19:48.407806 17015 net.cpp:141] Setting up inception_4e/pool
I0403 18:19:48.407829 17015 net.cpp:148] Top shape: 24 528 14 14 (2483712)
I0403 18:19:48.407843 17015 net.cpp:156] Memory required for data: 1252085280
I0403 18:19:48.407857 17015 layer_factory.hpp:77] Creating layer inception_4e/pool_proj
I0403 18:19:48.407881 17015 net.cpp:91] Creating Layer inception_4e/pool_proj
I0403 18:19:48.407896 17015 net.cpp:425] inception_4e/pool_proj <- inception_4e/pool
I0403 18:19:48.407915 17015 net.cpp:399] inception_4e/pool_proj -> inception_4e/pool_proj
I0403 18:19:48.409397 17015 net.cpp:141] Setting up inception_4e/pool_proj
I0403 18:19:48.409435 17015 net.cpp:148] Top shape: 24 128 14 14 (602112)
I0403 18:19:48.409451 17015 net.cpp:156] Memory required for data: 1254493728
I0403 18:19:48.409468 17015 layer_factory.hpp:77] Creating layer inception_4e/relu_pool_proj
I0403 18:19:48.409487 17015 net.cpp:91] Creating Layer inception_4e/relu_pool_proj
I0403 18:19:48.409504 17015 net.cpp:425] inception_4e/relu_pool_proj <- inception_4e/pool_proj
I0403 18:19:48.409521 17015 net.cpp:386] inception_4e/relu_pool_proj -> inception_4e/pool_proj (in-place)
I0403 18:19:48.409816 17015 net.cpp:141] Setting up inception_4e/relu_pool_proj
I0403 18:19:48.409842 17015 net.cpp:148] Top shape: 24 128 14 14 (602112)
I0403 18:19:48.409855 17015 net.cpp:156] Memory required for data: 1256902176
I0403 18:19:48.409870 17015 layer_factory.hpp:77] Creating layer inception_4e/output
I0403 18:19:48.409889 17015 net.cpp:91] Creating Layer inception_4e/output
I0403 18:19:48.409905 17015 net.cpp:425] inception_4e/output <- inception_4e/1x1
I0403 18:19:48.409924 17015 net.cpp:425] inception_4e/output <- inception_4e/3x3
I0403 18:19:48.409939 17015 net.cpp:425] inception_4e/output <- inception_4e/5x5
I0403 18:19:48.409953 17015 net.cpp:425] inception_4e/output <- inception_4e/pool_proj
I0403 18:19:48.409970 17015 net.cpp:399] inception_4e/output -> inception_4e/output
I0403 18:19:48.410024 17015 net.cpp:141] Setting up inception_4e/output
I0403 18:19:48.410048 17015 net.cpp:148] Top shape: 24 832 14 14 (3913728)
I0403 18:19:48.410063 17015 net.cpp:156] Memory required for data: 1272557088
I0403 18:19:48.410076 17015 layer_factory.hpp:77] Creating layer pool4/3x3_s2
I0403 18:19:48.410092 17015 net.cpp:91] Creating Layer pool4/3x3_s2
I0403 18:19:48.410107 17015 net.cpp:425] pool4/3x3_s2 <- inception_4e/output
I0403 18:19:48.410127 17015 net.cpp:399] pool4/3x3_s2 -> pool4/3x3_s2
I0403 18:19:48.410192 17015 net.cpp:141] Setting up pool4/3x3_s2
I0403 18:19:48.410228 17015 net.cpp:148] Top shape: 24 832 7 7 (978432)
I0403 18:19:48.410243 17015 net.cpp:156] Memory required for data: 1276470816
I0403 18:19:48.410257 17015 layer_factory.hpp:77] Creating layer pool4/3x3_s2_pool4/3x3_s2_0_split
I0403 18:19:48.410277 17015 net.cpp:91] Creating Layer pool4/3x3_s2_pool4/3x3_s2_0_split
I0403 18:19:48.410295 17015 net.cpp:425] pool4/3x3_s2_pool4/3x3_s2_0_split <- pool4/3x3_s2
I0403 18:19:48.410315 17015 net.cpp:399] pool4/3x3_s2_pool4/3x3_s2_0_split -> pool4/3x3_s2_pool4/3x3_s2_0_split_0
I0403 18:19:48.410334 17015 net.cpp:399] pool4/3x3_s2_pool4/3x3_s2_0_split -> pool4/3x3_s2_pool4/3x3_s2_0_split_1
I0403 18:19:48.410356 17015 net.cpp:399] pool4/3x3_s2_pool4/3x3_s2_0_split -> pool4/3x3_s2_pool4/3x3_s2_0_split_2
I0403 18:19:48.410375 17015 net.cpp:399] pool4/3x3_s2_pool4/3x3_s2_0_split -> pool4/3x3_s2_pool4/3x3_s2_0_split_3
I0403 18:19:48.410465 17015 net.cpp:141] Setting up pool4/3x3_s2_pool4/3x3_s2_0_split
I0403 18:19:48.410502 17015 net.cpp:148] Top shape: 24 832 7 7 (978432)
I0403 18:19:48.410519 17015 net.cpp:148] Top shape: 24 832 7 7 (978432)
I0403 18:19:48.410534 17015 net.cpp:148] Top shape: 24 832 7 7 (978432)
I0403 18:19:48.410548 17015 net.cpp:148] Top shape: 24 832 7 7 (978432)
I0403 18:19:48.410562 17015 net.cpp:156] Memory required for data: 1292125728
I0403 18:19:48.410575 17015 layer_factory.hpp:77] Creating layer inception_5a/1x1
I0403 18:19:48.410596 17015 net.cpp:91] Creating Layer inception_5a/1x1
I0403 18:19:48.410614 17015 net.cpp:425] inception_5a/1x1 <- pool4/3x3_s2_pool4/3x3_s2_0_split_0
I0403 18:19:48.410632 17015 net.cpp:399] inception_5a/1x1 -> inception_5a/1x1
I0403 18:19:48.413408 17015 net.cpp:141] Setting up inception_5a/1x1
I0403 18:19:48.413439 17015 net.cpp:148] Top shape: 24 256 7 7 (301056)
I0403 18:19:48.413455 17015 net.cpp:156] Memory required for data: 1293329952
I0403 18:19:48.413471 17015 layer_factory.hpp:77] Creating layer inception_5a/relu_1x1
I0403 18:19:48.413489 17015 net.cpp:91] Creating Layer inception_5a/relu_1x1
I0403 18:19:48.413506 17015 net.cpp:425] inception_5a/relu_1x1 <- inception_5a/1x1
I0403 18:19:48.413522 17015 net.cpp:386] inception_5a/relu_1x1 -> inception_5a/1x1 (in-place)
I0403 18:19:48.413825 17015 net.cpp:141] Setting up inception_5a/relu_1x1
I0403 18:19:48.413851 17015 net.cpp:148] Top shape: 24 256 7 7 (301056)
I0403 18:19:48.413867 17015 net.cpp:156] Memory required for data: 1294534176
I0403 18:19:48.413882 17015 layer_factory.hpp:77] Creating layer inception_5a/3x3_reduce
I0403 18:19:48.413903 17015 net.cpp:91] Creating Layer inception_5a/3x3_reduce
I0403 18:19:48.413921 17015 net.cpp:425] inception_5a/3x3_reduce <- pool4/3x3_s2_pool4/3x3_s2_0_split_1
I0403 18:19:48.413940 17015 net.cpp:399] inception_5a/3x3_reduce -> inception_5a/3x3_reduce
I0403 18:19:48.416368 17015 net.cpp:141] Setting up inception_5a/3x3_reduce
I0403 18:19:48.416395 17015 net.cpp:148] Top shape: 24 160 7 7 (188160)
I0403 18:19:48.416411 17015 net.cpp:156] Memory required for data: 1295286816
I0403 18:19:48.416429 17015 layer_factory.hpp:77] Creating layer inception_5a/relu_3x3_reduce
I0403 18:19:48.416450 17015 net.cpp:91] Creating Layer inception_5a/relu_3x3_reduce
I0403 18:19:48.416466 17015 net.cpp:425] inception_5a/relu_3x3_reduce <- inception_5a/3x3_reduce
I0403 18:19:48.416483 17015 net.cpp:386] inception_5a/relu_3x3_reduce -> inception_5a/3x3_reduce (in-place)
I0403 18:19:48.416664 17015 net.cpp:141] Setting up inception_5a/relu_3x3_reduce
I0403 18:19:48.416690 17015 net.cpp:148] Top shape: 24 160 7 7 (188160)
I0403 18:19:48.416707 17015 net.cpp:156] Memory required for data: 1296039456
I0403 18:19:48.416720 17015 layer_factory.hpp:77] Creating layer inception_5a/3x3
I0403 18:19:48.416743 17015 net.cpp:91] Creating Layer inception_5a/3x3
I0403 18:19:48.416761 17015 net.cpp:425] inception_5a/3x3 <- inception_5a/3x3_reduce
I0403 18:19:48.416779 17015 net.cpp:399] inception_5a/3x3 -> inception_5a/3x3
I0403 18:19:48.421772 17015 net.cpp:141] Setting up inception_5a/3x3
I0403 18:19:48.421803 17015 net.cpp:148] Top shape: 24 320 7 7 (376320)
I0403 18:19:48.421819 17015 net.cpp:156] Memory required for data: 1297544736
I0403 18:19:48.421838 17015 layer_factory.hpp:77] Creating layer inception_5a/relu_3x3
I0403 18:19:48.421856 17015 net.cpp:91] Creating Layer inception_5a/relu_3x3
I0403 18:19:48.421871 17015 net.cpp:425] inception_5a/relu_3x3 <- inception_5a/3x3
I0403 18:19:48.421891 17015 net.cpp:386] inception_5a/relu_3x3 -> inception_5a/3x3 (in-place)
I0403 18:19:48.422186 17015 net.cpp:141] Setting up inception_5a/relu_3x3
I0403 18:19:48.422225 17015 net.cpp:148] Top shape: 24 320 7 7 (376320)
I0403 18:19:48.422241 17015 net.cpp:156] Memory required for data: 1299050016
I0403 18:19:48.422256 17015 layer_factory.hpp:77] Creating layer inception_5a/5x5_reduce
I0403 18:19:48.422279 17015 net.cpp:91] Creating Layer inception_5a/5x5_reduce
I0403 18:19:48.422297 17015 net.cpp:425] inception_5a/5x5_reduce <- pool4/3x3_s2_pool4/3x3_s2_0_split_2
I0403 18:19:48.422317 17015 net.cpp:399] inception_5a/5x5_reduce -> inception_5a/5x5_reduce
I0403 18:19:48.423471 17015 net.cpp:141] Setting up inception_5a/5x5_reduce
I0403 18:19:48.423501 17015 net.cpp:148] Top shape: 24 32 7 7 (37632)
I0403 18:19:48.423517 17015 net.cpp:156] Memory required for data: 1299200544
I0403 18:19:48.423535 17015 layer_factory.hpp:77] Creating layer inception_5a/relu_5x5_reduce
I0403 18:19:48.423552 17015 net.cpp:91] Creating Layer inception_5a/relu_5x5_reduce
I0403 18:19:48.423568 17015 net.cpp:425] inception_5a/relu_5x5_reduce <- inception_5a/5x5_reduce
I0403 18:19:48.423586 17015 net.cpp:386] inception_5a/relu_5x5_reduce -> inception_5a/5x5_reduce (in-place)
I0403 18:19:48.423884 17015 net.cpp:141] Setting up inception_5a/relu_5x5_reduce
I0403 18:19:48.423909 17015 net.cpp:148] Top shape: 24 32 7 7 (37632)
I0403 18:19:48.423925 17015 net.cpp:156] Memory required for data: 1299351072
I0403 18:19:48.423939 17015 layer_factory.hpp:77] Creating layer inception_5a/5x5
I0403 18:19:48.423961 17015 net.cpp:91] Creating Layer inception_5a/5x5
I0403 18:19:48.423982 17015 net.cpp:425] inception_5a/5x5 <- inception_5a/5x5_reduce
I0403 18:19:48.424005 17015 net.cpp:399] inception_5a/5x5 -> inception_5a/5x5
I0403 18:19:48.425715 17015 net.cpp:141] Setting up inception_5a/5x5
I0403 18:19:48.425755 17015 net.cpp:148] Top shape: 24 128 7 7 (150528)
I0403 18:19:48.425772 17015 net.cpp:156] Memory required for data: 1299953184
I0403 18:19:48.425791 17015 layer_factory.hpp:77] Creating layer inception_5a/relu_5x5
I0403 18:19:48.425808 17015 net.cpp:91] Creating Layer inception_5a/relu_5x5
I0403 18:19:48.425824 17015 net.cpp:425] inception_5a/relu_5x5 <- inception_5a/5x5
I0403 18:19:48.425843 17015 net.cpp:386] inception_5a/relu_5x5 -> inception_5a/5x5 (in-place)
I0403 18:19:48.426034 17015 net.cpp:141] Setting up inception_5a/relu_5x5
I0403 18:19:48.426059 17015 net.cpp:148] Top shape: 24 128 7 7 (150528)
I0403 18:19:48.426074 17015 net.cpp:156] Memory required for data: 1300555296
I0403 18:19:48.426087 17015 layer_factory.hpp:77] Creating layer inception_5a/pool
I0403 18:19:48.426105 17015 net.cpp:91] Creating Layer inception_5a/pool
I0403 18:19:48.426120 17015 net.cpp:425] inception_5a/pool <- pool4/3x3_s2_pool4/3x3_s2_0_split_3
I0403 18:19:48.426141 17015 net.cpp:399] inception_5a/pool -> inception_5a/pool
I0403 18:19:48.426223 17015 net.cpp:141] Setting up inception_5a/pool
I0403 18:19:48.426259 17015 net.cpp:148] Top shape: 24 832 7 7 (978432)
I0403 18:19:48.426275 17015 net.cpp:156] Memory required for data: 1304469024
I0403 18:19:48.426290 17015 layer_factory.hpp:77] Creating layer inception_5a/pool_proj
I0403 18:19:48.426316 17015 net.cpp:91] Creating Layer inception_5a/pool_proj
I0403 18:19:48.426333 17015 net.cpp:425] inception_5a/pool_proj <- inception_5a/pool
I0403 18:19:48.426352 17015 net.cpp:399] inception_5a/pool_proj -> inception_5a/pool_proj
I0403 18:19:48.428617 17015 net.cpp:141] Setting up inception_5a/pool_proj
I0403 18:19:48.428645 17015 net.cpp:148] Top shape: 24 128 7 7 (150528)
I0403 18:19:48.428665 17015 net.cpp:156] Memory required for data: 1305071136
I0403 18:19:48.428683 17015 layer_factory.hpp:77] Creating layer inception_5a/relu_pool_proj
I0403 18:19:48.428700 17015 net.cpp:91] Creating Layer inception_5a/relu_pool_proj
I0403 18:19:48.428716 17015 net.cpp:425] inception_5a/relu_pool_proj <- inception_5a/pool_proj
I0403 18:19:48.428732 17015 net.cpp:386] inception_5a/relu_pool_proj -> inception_5a/pool_proj (in-place)
I0403 18:19:48.429039 17015 net.cpp:141] Setting up inception_5a/relu_pool_proj
I0403 18:19:48.429065 17015 net.cpp:148] Top shape: 24 128 7 7 (150528)
I0403 18:19:48.429085 17015 net.cpp:156] Memory required for data: 1305673248
I0403 18:19:48.429100 17015 layer_factory.hpp:77] Creating layer inception_5a/output
I0403 18:19:48.429116 17015 net.cpp:91] Creating Layer inception_5a/output
I0403 18:19:48.429132 17015 net.cpp:425] inception_5a/output <- inception_5a/1x1
I0403 18:19:48.429149 17015 net.cpp:425] inception_5a/output <- inception_5a/3x3
I0403 18:19:48.429167 17015 net.cpp:425] inception_5a/output <- inception_5a/5x5
I0403 18:19:48.429182 17015 net.cpp:425] inception_5a/output <- inception_5a/pool_proj
I0403 18:19:48.429198 17015 net.cpp:399] inception_5a/output -> inception_5a/output
I0403 18:19:48.429250 17015 net.cpp:141] Setting up inception_5a/output
I0403 18:19:48.429275 17015 net.cpp:148] Top shape: 24 832 7 7 (978432)
I0403 18:19:48.429289 17015 net.cpp:156] Memory required for data: 1309586976
I0403 18:19:48.429304 17015 layer_factory.hpp:77] Creating layer inception_5a/output_inception_5a/output_0_split
I0403 18:19:48.429327 17015 net.cpp:91] Creating Layer inception_5a/output_inception_5a/output_0_split
I0403 18:19:48.429342 17015 net.cpp:425] inception_5a/output_inception_5a/output_0_split <- inception_5a/output
I0403 18:19:48.429363 17015 net.cpp:399] inception_5a/output_inception_5a/output_0_split -> inception_5a/output_inception_5a/output_0_split_0
I0403 18:19:48.429383 17015 net.cpp:399] inception_5a/output_inception_5a/output_0_split -> inception_5a/output_inception_5a/output_0_split_1
I0403 18:19:48.429404 17015 net.cpp:399] inception_5a/output_inception_5a/output_0_split -> inception_5a/output_inception_5a/output_0_split_2
I0403 18:19:48.429425 17015 net.cpp:399] inception_5a/output_inception_5a/output_0_split -> inception_5a/output_inception_5a/output_0_split_3
I0403 18:19:48.429538 17015 net.cpp:141] Setting up inception_5a/output_inception_5a/output_0_split
I0403 18:19:48.429561 17015 net.cpp:148] Top shape: 24 832 7 7 (978432)
I0403 18:19:48.429577 17015 net.cpp:148] Top shape: 24 832 7 7 (978432)
I0403 18:19:48.429594 17015 net.cpp:148] Top shape: 24 832 7 7 (978432)
I0403 18:19:48.429610 17015 net.cpp:148] Top shape: 24 832 7 7 (978432)
I0403 18:19:48.429622 17015 net.cpp:156] Memory required for data: 1325241888
I0403 18:19:48.429637 17015 layer_factory.hpp:77] Creating layer inception_5b/1x1
I0403 18:19:48.429661 17015 net.cpp:91] Creating Layer inception_5b/1x1
I0403 18:19:48.429678 17015 net.cpp:425] inception_5b/1x1 <- inception_5a/output_inception_5a/output_0_split_0
I0403 18:19:48.429699 17015 net.cpp:399] inception_5b/1x1 -> inception_5b/1x1
I0403 18:19:48.433500 17015 net.cpp:141] Setting up inception_5b/1x1
I0403 18:19:48.433528 17015 net.cpp:148] Top shape: 24 384 7 7 (451584)
I0403 18:19:48.433544 17015 net.cpp:156] Memory required for data: 1327048224
I0403 18:19:48.433562 17015 layer_factory.hpp:77] Creating layer inception_5b/relu_1x1
I0403 18:19:48.433583 17015 net.cpp:91] Creating Layer inception_5b/relu_1x1
I0403 18:19:48.433600 17015 net.cpp:425] inception_5b/relu_1x1 <- inception_5b/1x1
I0403 18:19:48.433619 17015 net.cpp:386] inception_5b/relu_1x1 -> inception_5b/1x1 (in-place)
I0403 18:19:48.433926 17015 net.cpp:141] Setting up inception_5b/relu_1x1
I0403 18:19:48.433951 17015 net.cpp:148] Top shape: 24 384 7 7 (451584)
I0403 18:19:48.433966 17015 net.cpp:156] Memory required for data: 1328854560
I0403 18:19:48.433985 17015 layer_factory.hpp:77] Creating layer inception_5b/3x3_reduce
I0403 18:19:48.434010 17015 net.cpp:91] Creating Layer inception_5b/3x3_reduce
I0403 18:19:48.434027 17015 net.cpp:425] inception_5b/3x3_reduce <- inception_5a/output_inception_5a/output_0_split_1
I0403 18:19:48.434051 17015 net.cpp:399] inception_5b/3x3_reduce -> inception_5b/3x3_reduce
I0403 18:19:48.436738 17015 net.cpp:141] Setting up inception_5b/3x3_reduce
I0403 18:19:48.436767 17015 net.cpp:148] Top shape: 24 192 7 7 (225792)
I0403 18:19:48.436782 17015 net.cpp:156] Memory required for data: 1329757728
I0403 18:19:48.436800 17015 layer_factory.hpp:77] Creating layer inception_5b/relu_3x3_reduce
I0403 18:19:48.436821 17015 net.cpp:91] Creating Layer inception_5b/relu_3x3_reduce
I0403 18:19:48.436838 17015 net.cpp:425] inception_5b/relu_3x3_reduce <- inception_5b/3x3_reduce
I0403 18:19:48.436856 17015 net.cpp:386] inception_5b/relu_3x3_reduce -> inception_5b/3x3_reduce (in-place)
I0403 18:19:48.437052 17015 net.cpp:141] Setting up inception_5b/relu_3x3_reduce
I0403 18:19:48.437078 17015 net.cpp:148] Top shape: 24 192 7 7 (225792)
I0403 18:19:48.437095 17015 net.cpp:156] Memory required for data: 1330660896
I0403 18:19:48.437110 17015 layer_factory.hpp:77] Creating layer inception_5b/3x3
I0403 18:19:48.437132 17015 net.cpp:91] Creating Layer inception_5b/3x3
I0403 18:19:48.437150 17015 net.cpp:425] inception_5b/3x3 <- inception_5b/3x3_reduce
I0403 18:19:48.437170 17015 net.cpp:399] inception_5b/3x3 -> inception_5b/3x3
I0403 18:19:48.443948 17015 net.cpp:141] Setting up inception_5b/3x3
I0403 18:19:48.443980 17015 net.cpp:148] Top shape: 24 384 7 7 (451584)
I0403 18:19:48.444000 17015 net.cpp:156] Memory required for data: 1332467232
I0403 18:19:48.444020 17015 layer_factory.hpp:77] Creating layer inception_5b/relu_3x3
I0403 18:19:48.444038 17015 net.cpp:91] Creating Layer inception_5b/relu_3x3
I0403 18:19:48.444054 17015 net.cpp:425] inception_5b/relu_3x3 <- inception_5b/3x3
I0403 18:19:48.444072 17015 net.cpp:386] inception_5b/relu_3x3 -> inception_5b/3x3 (in-place)
I0403 18:19:48.444372 17015 net.cpp:141] Setting up inception_5b/relu_3x3
I0403 18:19:48.444398 17015 net.cpp:148] Top shape: 24 384 7 7 (451584)
I0403 18:19:48.444416 17015 net.cpp:156] Memory required for data: 1334273568
I0403 18:19:48.444430 17015 layer_factory.hpp:77] Creating layer inception_5b/5x5_reduce
I0403 18:19:48.444465 17015 net.cpp:91] Creating Layer inception_5b/5x5_reduce
I0403 18:19:48.444484 17015 net.cpp:425] inception_5b/5x5_reduce <- inception_5a/output_inception_5a/output_0_split_2
I0403 18:19:48.444506 17015 net.cpp:399] inception_5b/5x5_reduce -> inception_5b/5x5_reduce
I0403 18:19:48.445785 17015 net.cpp:141] Setting up inception_5b/5x5_reduce
I0403 18:19:48.445812 17015 net.cpp:148] Top shape: 24 48 7 7 (56448)
I0403 18:19:48.445827 17015 net.cpp:156] Memory required for data: 1334499360
I0403 18:19:48.445845 17015 layer_factory.hpp:77] Creating layer inception_5b/relu_5x5_reduce
I0403 18:19:48.445866 17015 net.cpp:91] Creating Layer inception_5b/relu_5x5_reduce
I0403 18:19:48.445883 17015 net.cpp:425] inception_5b/relu_5x5_reduce <- inception_5b/5x5_reduce
I0403 18:19:48.445900 17015 net.cpp:386] inception_5b/relu_5x5_reduce -> inception_5b/5x5_reduce (in-place)
I0403 18:19:48.446315 17015 net.cpp:141] Setting up inception_5b/relu_5x5_reduce
I0403 18:19:48.446354 17015 net.cpp:148] Top shape: 24 48 7 7 (56448)
I0403 18:19:48.446370 17015 net.cpp:156] Memory required for data: 1334725152
I0403 18:19:48.446385 17015 layer_factory.hpp:77] Creating layer inception_5b/5x5
I0403 18:19:48.446406 17015 net.cpp:91] Creating Layer inception_5b/5x5
I0403 18:19:48.446434 17015 net.cpp:425] inception_5b/5x5 <- inception_5b/5x5_reduce
I0403 18:19:48.446454 17015 net.cpp:399] inception_5b/5x5 -> inception_5b/5x5
I0403 18:19:48.448490 17015 net.cpp:141] Setting up inception_5b/5x5
I0403 18:19:48.448520 17015 net.cpp:148] Top shape: 24 128 7 7 (150528)
I0403 18:19:48.448536 17015 net.cpp:156] Memory required for data: 1335327264
I0403 18:19:48.448554 17015 layer_factory.hpp:77] Creating layer inception_5b/relu_5x5
I0403 18:19:48.448571 17015 net.cpp:91] Creating Layer inception_5b/relu_5x5
I0403 18:19:48.448587 17015 net.cpp:425] inception_5b/relu_5x5 <- inception_5b/5x5
I0403 18:19:48.448604 17015 net.cpp:386] inception_5b/relu_5x5 -> inception_5b/5x5 (in-place)
I0403 18:19:48.448796 17015 net.cpp:141] Setting up inception_5b/relu_5x5
I0403 18:19:48.448819 17015 net.cpp:148] Top shape: 24 128 7 7 (150528)
I0403 18:19:48.448833 17015 net.cpp:156] Memory required for data: 1335929376
I0403 18:19:48.448848 17015 layer_factory.hpp:77] Creating layer inception_5b/pool
I0403 18:19:48.448864 17015 net.cpp:91] Creating Layer inception_5b/pool
I0403 18:19:48.448880 17015 net.cpp:425] inception_5b/pool <- inception_5a/output_inception_5a/output_0_split_3
I0403 18:19:48.448899 17015 net.cpp:399] inception_5b/pool -> inception_5b/pool
I0403 18:19:48.448969 17015 net.cpp:141] Setting up inception_5b/pool
I0403 18:19:48.448997 17015 net.cpp:148] Top shape: 24 832 7 7 (978432)
I0403 18:19:48.449012 17015 net.cpp:156] Memory required for data: 1339843104
I0403 18:19:48.449026 17015 layer_factory.hpp:77] Creating layer inception_5b/pool_proj
I0403 18:19:48.449048 17015 net.cpp:91] Creating Layer inception_5b/pool_proj
I0403 18:19:48.449064 17015 net.cpp:425] inception_5b/pool_proj <- inception_5b/pool
I0403 18:19:48.449084 17015 net.cpp:399] inception_5b/pool_proj -> inception_5b/pool_proj
I0403 18:19:48.451354 17015 net.cpp:141] Setting up inception_5b/pool_proj
I0403 18:19:48.451382 17015 net.cpp:148] Top shape: 24 128 7 7 (150528)
I0403 18:19:48.451397 17015 net.cpp:156] Memory required for data: 1340445216
I0403 18:19:48.451416 17015 layer_factory.hpp:77] Creating layer inception_5b/relu_pool_proj
I0403 18:19:48.451436 17015 net.cpp:91] Creating Layer inception_5b/relu_pool_proj
I0403 18:19:48.451452 17015 net.cpp:425] inception_5b/relu_pool_proj <- inception_5b/pool_proj
I0403 18:19:48.451468 17015 net.cpp:386] inception_5b/relu_pool_proj -> inception_5b/pool_proj (in-place)
I0403 18:19:48.451761 17015 net.cpp:141] Setting up inception_5b/relu_pool_proj
I0403 18:19:48.451786 17015 net.cpp:148] Top shape: 24 128 7 7 (150528)
I0403 18:19:48.451800 17015 net.cpp:156] Memory required for data: 1341047328
I0403 18:19:48.451815 17015 layer_factory.hpp:77] Creating layer inception_5b/output
I0403 18:19:48.451834 17015 net.cpp:91] Creating Layer inception_5b/output
I0403 18:19:48.451864 17015 net.cpp:425] inception_5b/output <- inception_5b/1x1
I0403 18:19:48.451881 17015 net.cpp:425] inception_5b/output <- inception_5b/3x3
I0403 18:19:48.451897 17015 net.cpp:425] inception_5b/output <- inception_5b/5x5
I0403 18:19:48.451913 17015 net.cpp:425] inception_5b/output <- inception_5b/pool_proj
I0403 18:19:48.451930 17015 net.cpp:399] inception_5b/output -> inception_5b/output
I0403 18:19:48.451984 17015 net.cpp:141] Setting up inception_5b/output
I0403 18:19:48.452008 17015 net.cpp:148] Top shape: 24 1024 7 7 (1204224)
I0403 18:19:48.452023 17015 net.cpp:156] Memory required for data: 1345864224
I0403 18:19:48.452036 17015 layer_factory.hpp:77] Creating layer pool5/7x7_s1
I0403 18:19:48.452054 17015 net.cpp:91] Creating Layer pool5/7x7_s1
I0403 18:19:48.452069 17015 net.cpp:425] pool5/7x7_s1 <- inception_5b/output
I0403 18:19:48.452087 17015 net.cpp:399] pool5/7x7_s1 -> pool5/7x7_s1
I0403 18:19:48.452299 17015 net.cpp:141] Setting up pool5/7x7_s1
I0403 18:19:48.452327 17015 net.cpp:148] Top shape: 24 1024 1 1 (24576)
I0403 18:19:48.452342 17015 net.cpp:156] Memory required for data: 1345962528
I0403 18:19:48.452356 17015 layer_factory.hpp:77] Creating layer pool5/drop_7x7_s1
I0403 18:19:48.452374 17015 net.cpp:91] Creating Layer pool5/drop_7x7_s1
I0403 18:19:48.452389 17015 net.cpp:425] pool5/drop_7x7_s1 <- pool5/7x7_s1
I0403 18:19:48.452407 17015 net.cpp:386] pool5/drop_7x7_s1 -> pool5/7x7_s1 (in-place)
I0403 18:19:48.452455 17015 net.cpp:141] Setting up pool5/drop_7x7_s1
I0403 18:19:48.452477 17015 net.cpp:148] Top shape: 24 1024 1 1 (24576)
I0403 18:19:48.452491 17015 net.cpp:156] Memory required for data: 1346060832
I0403 18:19:48.452507 17015 layer_factory.hpp:77] Creating layer loss3/classifier_plantvillage
I0403 18:19:48.452527 17015 net.cpp:91] Creating Layer loss3/classifier_plantvillage
I0403 18:19:48.452543 17015 net.cpp:425] loss3/classifier_plantvillage <- pool5/7x7_s1
I0403 18:19:48.452564 17015 net.cpp:399] loss3/classifier_plantvillage -> loss3/classifier_plantvillage
I0403 18:19:48.452975 17015 net.cpp:141] Setting up loss3/classifier_plantvillage
I0403 18:19:48.453001 17015 net.cpp:148] Top shape: 24 38 (912)
I0403 18:19:48.453016 17015 net.cpp:156] Memory required for data: 1346064480
I0403 18:19:48.453033 17015 layer_factory.hpp:77] Creating layer loss3/classifier_plantvillage_loss3/classifier_plantvillage_0_split
I0403 18:19:48.453052 17015 net.cpp:91] Creating Layer loss3/classifier_plantvillage_loss3/classifier_plantvillage_0_split
I0403 18:19:48.453070 17015 net.cpp:425] loss3/classifier_plantvillage_loss3/classifier_plantvillage_0_split <- loss3/classifier_plantvillage
I0403 18:19:48.453088 17015 net.cpp:399] loss3/classifier_plantvillage_loss3/classifier_plantvillage_0_split -> loss3/classifier_plantvillage_loss3/classifier_plantvillage_0_split_0
I0403 18:19:48.453107 17015 net.cpp:399] loss3/classifier_plantvillage_loss3/classifier_plantvillage_0_split -> loss3/classifier_plantvillage_loss3/classifier_plantvillage_0_split_1
I0403 18:19:48.453126 17015 net.cpp:399] loss3/classifier_plantvillage_loss3/classifier_plantvillage_0_split -> loss3/classifier_plantvillage_loss3/classifier_plantvillage_0_split_2
I0403 18:19:48.453146 17015 net.cpp:399] loss3/classifier_plantvillage_loss3/classifier_plantvillage_0_split -> loss3/classifier_plantvillage_loss3/classifier_plantvillage_0_split_3
I0403 18:19:48.453243 17015 net.cpp:141] Setting up loss3/classifier_plantvillage_loss3/classifier_plantvillage_0_split
I0403 18:19:48.453266 17015 net.cpp:148] Top shape: 24 38 (912)
I0403 18:19:48.453282 17015 net.cpp:148] Top shape: 24 38 (912)
I0403 18:19:48.453297 17015 net.cpp:148] Top shape: 24 38 (912)
I0403 18:19:48.453311 17015 net.cpp:148] Top shape: 24 38 (912)
I0403 18:19:48.453325 17015 net.cpp:156] Memory required for data: 1346079072
I0403 18:19:48.453338 17015 layer_factory.hpp:77] Creating layer loss1/loss
I0403 18:19:48.453359 17015 net.cpp:91] Creating Layer loss1/loss
I0403 18:19:48.453375 17015 net.cpp:425] loss1/loss <- loss1/classifier_plantvillage_loss1/classifier_plantvillage_0_split_0
I0403 18:19:48.453404 17015 net.cpp:425] loss1/loss <- label_data_1_split_0
…
