…
I0403 17:39:15.081791 14494 net.cpp:313] The NetState phase (1) differed from the phase (0) specified by a rule in layer data
I0403 17:39:15.082924 14494 net.cpp:49] Initializing net from parameters: 
state {
  phase: TEST
}
layer {
  name: "data"
  type: "Data"
  top: "data"
  top: "label"
  include {
    phase: TEST
  }
  transform_param {
    mirror: false
    crop_size: 224
    mean_file: "/home/mohanty/data/final_dataset/lmdb/grayscale-60-40/mean.binaryproto"
  }
  data_param {
    source: "/home/mohanty/data/final_dataset/lmdb/grayscale-60-40/test_db"
    batch_size: 24
    backend: LMDB
  }
}
layer {
  name: "conv1/7x7_s2"
  type: "Convolution"
  bottom: "data"
  top: "conv1/7x7_s2"
  param {
    lr_mult: 1
    decay_mult: 1
  }
  param {
    lr_mult: 2
    decay_mult: 0
  }
  convolution_param {
    num_output: 64
    pad: 3
    kernel_size: 7
    stride: 2
    weight_filler {
      type: "xavier"
      std: 0.1
    }
    bias_filler {
      type: "constant"
      value: 0.2
    }
  }
}
layer {
  name: "conv1/relu_7x7"
  type: "ReLU"
  bottom: "conv1/7x7_s2"
  top: "conv1/7x7_s2"
}
layer {
  name: "pool1/3x3_s2"
  type: "Pooling"
  bottom: "conv1/7x7_s2"
  top: "pool1/3x3_s2"
  pooling_param {
    pool: MAX
    kernel_size: 3
    stride: 2
  }
}
layer {
  name: "pool1/norm1"
  type: "LRN"
  bottom: "pool1/3x3_s2"
  top: "pool1/norm1"
  lrn_param {
    local_size: 5
    alpha: 0.0001
    beta: 0.75
  }
}
layer {
  name: "conv2/3x3_reduce"
  type: "Convolution"
  bottom: "pool1/norm1"
  top: "conv2/3x3_reduce"
  param {
    lr_mult: 1
    decay_mult: 1
  }
  param {
    lr_mult: 2
    decay_mult: 0
  }
  convolution_param {
    num_output: 64
    kernel_size: 1
    weight_filler {
      type: "xavier"
      std: 0.1
    }
    bias_filler {
      type: "constant"
      value: 0.2
    }
  }
}
layer {
  name: "conv2/relu_3x3_reduce"
  type: "ReLU"
  bottom: "conv2/3x3_reduce"
  top: "conv2/3x3_reduce"
}
layer {
  name: "conv2/3x3"
  type: "Convolution"
  bottom: "conv2/3x3_reduce"
  top: "conv2/3x3"
  param {
    lr_mult: 1
    decay_mult: 1
  }
  param {
    lr_mult: 2
    decay_mult: 0
  }
  convolution_param {
    num_output: 192
    pad: 1
    kernel_size: 3
    weight_filler {
      type: "xavier"
      std: 0.03
    }
    bias_filler {
      type: "constant"
      value: 0.2
    }
  }
}
layer {
  name: "conv2/relu_3x3"
  type: "ReLU"
  bottom: "conv2/3x3"
  top: "conv2/3x3"
}
layer {
  name: "conv2/norm2"
  type: "LRN"
  bottom: "conv2/3x3"
  top: "conv2/norm2"
  lrn_param {
    local_size: 5
    alpha: 0.0001
    beta: 0.75
  }
}
layer {
  name: "pool2/3x3_s2"
  type: "Pooling"
  bottom: "conv2/norm2"
  top: "pool2/3x3_s2"
  pooling_param {
    pool: MAX
    kernel_size: 3
    stride: 2
  }
}
layer {
  name: "inception_3a/1x1"
  type: "Convolution"
  bottom: "pool2/3x3_s2"
  top: "inception_3a/1x1"
  param {
    lr_mult: 1
    decay_mult: 1
  }
  param {
    lr_mult: 2
    decay_mult: 0
  }
  convolution_param {
    num_output: 64
    kernel_size: 1
    weight_filler {
      type: "xavier"
      std: 0.03
    }
    bias_filler {
      type: "constant"
      value: 0.2
    }
  }
}
layer {
  name: "inception_3a/relu_1x1"
  type: "ReLU"
  bottom: "inception_3a/1x1"
  top: "inception_3a/1x1"
}
layer {
  name: "inception_3a/3x3_reduce"
  type: "Convolution"
  bottom: "pool2/3x3_s2"
  top: "inception_3a/3x3_reduce"
  param {
    lr_mult: 1
    decay_mult: 1
  }
  param {
    lr_mult: 2
    decay_mult: 0
  }
  convolution_param {
    num_output: 96
    kernel_size: 1
    weight_filler {
      type: "xavier"
      std: 0.09
    }
    bias_filler {
      type: "constant"
      value: 0.2
    }
  }
}
layer {
  name: "inception_3a/relu_3x3_reduce"
  type: "ReLU"
  bottom: "inception_3a/3x3_reduce"
  top: "inception_3a/3x3_reduce"
}
layer {
  name: "inception_3a/3x3"
  type: "Convolution"
  bottom: "inception_3a/3x3_reduce"
  top: "inception_3a/3x3"
  param {
    lr_mult: 1
    decay_mult: 1
  }
  param {
    lr_mult: 2
    decay_mult: 0
  }
  convolution_param {
    num_output: 128
    pad: 1
    kernel_size: 3
    weight_filler {
      type: "xavier"
      std: 0.03
    }
    bias_filler {
      type: "constant"
      value: 0.2
    }
  }
}
layer {
  name: "inception_3a/relu_3x3"
  type: "ReLU"
  bottom: "inception_3a/3x3"
  top: "inception_3a/3x3"
}
layer {
  name: "inception_3a/5x5_reduce"
  type: "Convolution"
  bottom: "pool2/3x3_s2"
  top: "inception_3a/5x5_reduce"
  param {
    lr_mult: 1
    decay_mult: 1
  }
  param {
    lr_mult: 2
    decay_mult: 0
  }
  convolution_param {
    num_output: 16
    kernel_size: 1
    weight_filler {
      type: "xavier"
      std: 0.2
    }
    bias_filler {
      type: "constant"
      value: 0.2
    }
  }
}
layer {
  name: "inception_3a/relu_5x5_reduce"
  type: "ReLU"
  bottom: "inception_3a/5x5_reduce"
  top: "inception_3a/5x5_reduce"
}
layer {
  name: "inception_3a/5x5"
  type: "Convolution"
  bottom: "inception_3a/5x5_reduce"
  top: "inception_3a/5x5"
  param {
    lr_mult: 1
    decay_mult: 1
  }
  param {
    lr_mult: 2
    decay_mult: 0
  }
  convolution_param {
    num_output: 32
    pad: 2
    kernel_size: 5
    weight_filler {
      type: "xavier"
      std: 0.03
    }
    bias_filler {
      type: "constant"
      value: 0.2
    }
  }
}
layer {
  name: "inception_3a/relu_5x5"
  type: "ReLU"
  bottom: "inception_3a/5x5"
  top: "inception_3a/5x5"
}
layer {
  name: "inception_3a/pool"
  type: "Pooling"
  bottom: "pool2/3x3_s2"
  top: "inception_3a/pool"
  pooling_param {
    pool: MAX
    kernel_size: 3
    stride: 1
    pad: 1
  }
}
layer {
  name: "inception_3a/pool_proj"
  type: "Convolution"
  bottom: "inception_3a/pool"
  top: "inception_3a/pool_proj"
  param {
    lr_mult: 1
    decay_mult: 1
  }
  param {
    lr_mult: 2
    decay_mult: 0
  }
  convolution_param {
    num_output: 32
    kernel_size: 1
    weight_filler {
      type: "xavier"
      std: 0.1
    }
    bias_filler {
      type: "constant"
      value: 0.2
    }
  }
}
layer {
  name: "inception_3a/relu_pool_proj"
  type: "ReLU"
  bottom: "inception_3a/pool_proj"
  top: "inception_3a/pool_proj"
}
layer {
  name: "inception_3a/output"
  type: "Concat"
  bottom: "inception_3a/1x1"
  bottom: "inception_3a/3x3"
  bottom: "inception_3a/5x5"
  bottom: "inception_3a/pool_proj"
  top: "inception_3a/output"
}
layer {
  name: "inception_3b/1x1"
  type: "Convolution"
  bottom: "inception_3a/output"
  top: "inception_3b/1x1"
  param {
    lr_mult: 1
    decay_mult: 1
  }
  param {
    lr_mult: 2
    decay_mult: 0
  }
  convolution_param {
    num_output: 128
    kernel_size: 1
    weight_filler {
      type: "xavier"
      std: 0.03
    }
    bias_filler {
      type: "constant"
      value: 0.2
    }
  }
}
layer {
  name: "inception_3b/relu_1x1"
  type: "ReLU"
  bottom: "inception_3b/1x1"
  top: "inception_3b/1x1"
}
layer {
  name: "inception_3b/3x3_reduce"
  type: "Convolution"
  bottom: "inception_3a/output"
  top: "inception_3b/3x3_reduce"
  param {
    lr_mult: 1
    decay_mult: 1
  }
  param {
    lr_mult: 2
    decay_mult: 0
  }
  convolution_param {
    num_output: 128
    kernel_size: 1
    weight_filler {
      type: "xavier"
      std: 0.09
    }
    bias_filler {
      type: "constant"
      value: 0.2
    }
  }
}
layer {
  name: "inception_3b/relu_3x3_reduce"
  type: "ReLU"
  bottom: "inception_3b/3x3_reduce"
  top: "inception_3b/3x3_reduce"
}
layer {
  name: "inception_3b/3x3"
  type: "Convolution"
  bottom: "inception_3b/3x3_reduce"
  top: "inception_3b/3x3"
  param {
    lr_mult: 1
    decay_mult: 1
  }
  param {
    lr_mult: 2
    decay_mult: 0
  }
  convolution_param {
    num_output: 192
    pad: 1
    kernel_size: 3
    weight_filler {
      type: "xavier"
      std: 0.03
    }
    bias_filler {
      type: "constant"
      value: 0.2
    }
  }
}
layer {
  name: "inception_3b/relu_3x3"
  type: "ReLU"
  bottom: "inception_3b/3x3"
  top: "inception_3b/3x3"
}
layer {
  name: "inception_3b/5x5_reduce"
  type: "Convolution"
  bottom: "inception_3a/output"
  top: "inception_3b/5x5_reduce"
  param {
    lr_mult: 1
    decay_mult: 1
  }
  param {
    lr_mult: 2
    decay_mult: 0
  }
  convolution_param {
    num_output: 32
    kernel_size: 1
    weight_filler {
      type: "xavier"
      std: 0.2
    }
    bias_filler {
      type: "constant"
      value: 0.2
    }
  }
}
layer {
  name: "inception_3b/relu_5x5_reduce"
  type: "ReLU"
  bottom: "inception_3b/5x5_reduce"
  top: "inception_3b/5x5_reduce"
}
layer {
  name: "inception_3b/5x5"
  type: "Convolution"
  bottom: "inception_3b/5x5_reduce"
  top: "inception_3b/5x5"
  param {
    lr_mult: 1
    decay_mult: 1
  }
  param {
    lr_mult: 2
    decay_mult: 0
  }
  convolution_param {
    num_output: 96
    pad: 2
    kernel_size: 5
    weight_filler {
      type: "xavier"
      std: 0.03
    }
    bias_filler {
      type: "constant"
      value: 0.2
    }
  }
}
layer {
  name: "inception_3b/relu_5x5"
  type: "ReLU"
  bottom: "inception_3b/5x5"
  top: "inception_3b/5x5"
}
layer {
  name: "inception_3b/pool"
  type: "Pooling"
  bottom: "inception_3a/output"
  top: "inception_3b/pool"
  pooling_param {
    pool: MAX
    kernel_size: 3
    stride: 1
    pad: 1
  }
}
layer {
  name: "inception_3b/pool_proj"
  type: "Convolution"
  bottom: "inception_3b/pool"
  top: "inception_3b/pool_proj"
  param {
    lr_mult: 1
    decay_mult: 1
  }
  param {
    lr_mult: 2
    decay_mult: 0
  }
  convolution_param {
    num_output: 64
    kernel_size: 1
    weight_filler {
      type: "xavier"
      std: 0.1
    }
    bias_filler {
      type: "constant"
      value: 0.2
    }
  }
}
layer {
  name: "inception_3b/relu_pool_proj"
  type: "ReLU"
  bottom: "inception_3b/pool_proj"
  top: "inception_3b/pool_proj"
}
layer {
  name: "inception_3b/output"
  type: "Concat"
  bottom: "inception_3b/1x1"
  bottom: "inception_3b/3x3"
  bottom: "inception_3b/5x5"
  bottom: "inception_3b/pool_proj"
  top: "inception_3b/output"
}
layer {
  name: "pool3/3x3_s2"
  type: "Pooling"
  bottom: "inception_3b/output"
  top: "pool3/3x3_s2"
  pooling_param {
    pool: MAX
    kernel_size: 3
    stride: 2
  }
}
layer {
  name: "inception_4a/1x1"
  type: "Convolution"
  bottom: "pool3/3x3_s2"
  top: "inception_4a/1x1"
  param {
    lr_mult: 1
    decay_mult: 1
  }
  param {
    lr_mult: 2
    decay_mult: 0
  }
  convolution_param {
    num_output: 192
    kernel_size: 1
    weight_filler {
      type: "xavier"
      std: 0.03
    }
    bias_filler {
      type: "constant"
      value: 0.2
    }
  }
}
layer {
  name: "inception_4a/relu_1x1"
  type: "ReLU"
  bottom: "inception_4a/1x1"
  top: "inception_4a/1x1"
}
layer {
  name: "inception_4a/3x3_reduce"
  type: "Convolution"
  bottom: "pool3/3x3_s2"
  top: "inception_4a/3x3_reduce"
  param {
    lr_mult: 1
    decay_mult: 1
  }
  param {
    lr_mult: 2
    decay_mult: 0
  }
  convolution_param {
    num_output: 96
    kernel_size: 1
    weight_filler {
      type: "xavier"
      std: 0.09
    }
    bias_filler {
      type: "constant"
      value: 0.2
    }
  }
}
layer {
  name: "inception_4a/relu_3x3_reduce"
  type: "ReLU"
  bottom: "inception_4a/3x3_reduce"
  top: "inception_4a/3x3_reduce"
}
layer {
  name: "inception_4a/3x3"
  type: "Convolution"
  bottom: "inception_4a/3x3_reduce"
  top: "inception_4a/3x3"
  param {
    lr_mult: 1
    decay_mult: 1
  }
  param {
    lr_mult: 2
    decay_mult: 0
  }
  convolution_param {
    num_output: 208
    pad: 1
    kernel_size: 3
    weight_filler {
      type: "xavier"
      std: 0.03
    }
    bias_filler {
      type: "constant"
      value: 0.2
    }
  }
}
layer {
  name: "inception_4a/relu_3x3"
  type: "ReLU"
  bottom: "inception_4a/3x3"
  top: "inception_4a/3x3"
}
layer {
  name: "inception_4a/5x5_reduce"
  type: "Convolution"
  bottom: "pool3/3x3_s2"
  top: "inception_4a/5x5_reduce"
  param {
    lr_mult: 1
    decay_mult: 1
  }
  param {
    lr_mult: 2
    decay_mult: 0
  }
  convolution_param {
    num_output: 16
    kernel_size: 1
    weight_filler {
      type: "xavier"
      std: 0.2
    }
    bias_filler {
      type: "constant"
      value: 0.2
    }
  }
}
layer {
  name: "inception_4a/relu_5x5_reduce"
  type: "ReLU"
  bottom: "inception_4a/5x5_reduce"
  top: "inception_4a/5x5_reduce"
}
layer {
  name: "inception_4a/5x5"
  type: "Convolution"
  bottom: "inception_4a/5x5_reduce"
  top: "inception_4a/5x5"
  param {
    lr_mult: 1
    decay_mult: 1
  }
  param {
    lr_mult: 2
    decay_mult: 0
  }
  convolution_param {
    num_output: 48
    pad: 2
    kernel_size: 5
    weight_filler {
      type: "xavier"
      std: 0.03
    }
    bias_filler {
      type: "constant"
      value: 0.2
    }
  }
}
layer {
  name: "inception_4a/relu_5x5"
  type: "ReLU"
  bottom: "inception_4a/5x5"
  top: "inception_4a/5x5"
}
layer {
  name: "inception_4a/pool"
  type: "Pooling"
  bottom: "pool3/3x3_s2"
  top: "inception_4a/pool"
  pooling_param {
    pool: MAX
    kernel_size: 3
    stride: 1
    pad: 1
  }
}
layer {
  name: "inception_4a/pool_proj"
  type: "Convolution"
  bottom: "inception_4a/pool"
  top: "inception_4a/pool_proj"
  param {
    lr_mult: 1
    decay_mult: 1
  }
  param {
    lr_mult: 2
    decay_mult: 0
  }
  convolution_param {
    num_output: 64
    kernel_size: 1
    weight_filler {
      type: "xavier"
      std: 0.1
    }
    bias_filler {
      type: "constant"
      value: 0.2
    }
  }
}
layer {
  name: "inception_4a/relu_pool_proj"
  type: "ReLU"
  bottom: "inception_4a/pool_proj"
  top: "inception_4a/pool_proj"
}
layer {
  name: "inception_4a/output"
  type: "Concat"
  bottom: "inception_4a/1x1"
  bottom: "inception_4a/3x3"
  bottom: "inception_4a/5x5"
  bottom: "inception_4a/pool_proj"
  top: "inception_4a/output"
}
layer {
  name: "loss1/ave_pool"
  type: "Pooling"
  bottom: "inception_4a/output"
  top: "loss1/ave_pool"
  pooling_param {
    pool: AVE
    kernel_size: 5
    stride: 3
  }
}
layer {
  name: "loss1/conv"
  type: "Convolution"
  bottom: "loss1/ave_pool"
  top: "loss1/conv"
  param {
    lr_mult: 1
    decay_mult: 1
  }
  param {
    lr_mult: 2
    decay_mult: 0
  }
  convolution_param {
    num_output: 128
    kernel_size: 1
    weight_filler {
      type: "xavier"
      std: 0.08
    }
    bias_filler {
      type: "constant"
      value: 0.2
    }
  }
}
layer {
  name: "loss1/relu_conv"
  type: "ReLU"
  bottom: "loss1/conv"
  top: "loss1/conv"
}
layer {
  name: "loss1/fc"
  type: "InnerProduct"
  bottom: "loss1/conv"
  top: "loss1/fc"
  param {
    lr_mult: 1
    decay_mult: 1
  }
  param {
    lr_mult: 2
    decay_mult: 0
  }
  inner_product_param {
    num_output: 1024
    weight_filler {
      type: "xavier"
      std: 0.02
    }
    bias_filler {
      type: "constant"
      value: 0.2
    }
  }
}
layer {
  name: "loss1/relu_fc"
  type: "ReLU"
  bottom: "loss1/fc"
  top: "loss1/fc"
}
layer {
  name: "loss1/drop_fc"
  type: "Dropout"
  bottom: "loss1/fc"
  top: "loss1/fc"
  dropout_param {
    dropout_ratio: 0.7
  }
}
layer {
  name: "loss1/classifier_plantvillage"
  type: "InnerProduct"
  bottom: "loss1/fc"
  top: "loss1/classifier_plantvillage"
  param {
    lr_mult: 1
    decay_mult: 1
  }
  param {
    lr_mult: 2
    decay_mult: 0
  }
  inner_product_param {
    num_output: 38
    weight_filler {
      type: "xavier"
      std: 0.0009765625
    }
    bias_filler {
      type: "constant"
      value: 0
    }
  }
}
layer {
  name: "inception_4b/1x1"
  type: "Convolution"
  bottom: "inception_4a/output"
  top: "inception_4b/1x1"
  param {
    lr_mult: 1
    decay_mult: 1
  }
  param {
    lr_mult: 2
    decay_mult: 0
  }
  convolution_param {
    num_output: 160
    kernel_size: 1
    weight_filler {
      type: "xavier"
      std: 0.03
    }
    bias_filler {
      type: "constant"
      value: 0.2
    }
  }
}
layer {
  name: "inception_4b/relu_1x1"
  type: "ReLU"
  bottom: "inception_4b/1x1"
  top: "inception_4b/1x1"
}
layer {
  name: "inception_4b/3x3_reduce"
  type: "Convolution"
  bottom: "inception_4a/output"
  top: "inception_4b/3x3_reduce"
  param {
    lr_mult: 1
    decay_mult: 1
  }
  param {
    lr_mult: 2
    decay_mult: 0
  }
  convolution_param {
    num_output: 112
    kernel_size: 1
    weight_filler {
      type: "xavier"
      std: 0.09
    }
    bias_filler {
      type: "constant"
      value: 0.2
    }
  }
}
layer {
  name: "inception_4b/relu_3x3_reduce"
  type: "ReLU"
  bottom: "inception_4b/3x3_reduce"
  top: "inception_4b/3x3_reduce"
}
layer {
  name: "inception_4b/3x3"
  type: "Convolution"
  bottom: "inception_4b/3x3_reduce"
  top: "inception_4b/3x3"
  param {
    lr_mult: 1
    decay_mult: 1
  }
  param {
    lr_mult: 2
    decay_mult: 0
  }
  convolution_param {
    num_output: 224
    pad: 1
    kernel_size: 3
    weight_filler {
      type: "xavier"
      std: 0.03
    }
    bias_filler {
      type: "constant"
      value: 0.2
    }
  }
}
layer {
  name: "inception_4b/relu_3x3"
  type: "ReLU"
  bottom: "inception_4b/3x3"
  top: "inception_4b/3x3"
}
layer {
  name: "inception_4b/5x5_reduce"
  type: "Convolution"
  bottom: "inception_4a/output"
  top: "inception_4b/5x5_reduce"
  param {
    lr_mult: 1
    decay_mult: 1
  }
  param {
    lr_mult: 2
    decay_mult: 0
  }
  convolution_param {
    num_output: 24
    kernel_size: 1
    weight_filler {
      type: "xavier"
      std: 0.2
    }
    bias_filler {
      type: "constant"
      value: 0.2
    }
  }
}
layer {
  name: "inception_4b/relu_5x5_reduce"
  type: "ReLU"
  bottom: "inception_4b/5x5_reduce"
  top: "inception_4b/5x5_reduce"
}
layer {
  name: "inception_4b/5x5"
  type: "Convolution"
  bottom: "inception_4b/5x5_reduce"
  top: "inception_4b/5x5"
  param {
    lr_mult: 1
    decay_mult: 1
  }
  param {
    lr_mult: 2
    decay_mult: 0
  }
  convolution_param {
    num_output: 64
    pad: 2
    kernel_size: 5
    weight_filler {
      type: "xavier"
      std: 0.03
    }
    bias_filler {
      type: "constant"
      value: 0.2
    }
  }
}
layer {
  name: "inception_4b/relu_5x5"
  type: "ReLU"
  bottom: "inception_4b/5x5"
  top: "inception_4b/5x5"
}
layer {
  name: "inception_4b/pool"
  type: "Pooling"
  bottom: "inception_4a/output"
  top: "inception_4b/pool"
  pooling_param {
    pool: MAX
    kernel_size: 3
    stride: 1
    pad: 1
  }
}
layer {
  name: "inception_4b/pool_proj"
  type: "Convolution"
  bottom: "inception_4b/pool"
  top: "inception_4b/pool_proj"
  param {
    lr_mult: 1
    decay_mult: 1
  }
  param {
    lr_mult: 2
    decay_mult: 0
  }
  convolution_param {
    num_output: 64
    kernel_size: 1
    weight_filler {
      type: "xavier"
      std: 0.1
    }
    bias_filler {
      type: "constant"
      value: 0.2
    }
  }
}
layer {
  name: "inception_4b/relu_pool_proj"
  type: "ReLU"
  bottom: "inception_4b/pool_proj"
  top: "inception_4b/pool_proj"
}
layer {
  name: "inception_4b/output"
  type: "Concat"
  bottom: "inception_4b/1x1"
  bottom: "inception_4b/3x3"
  bottom: "inception_4b/5x5"
  bottom: "inception_4b/pool_proj"
  top: "inception_4b/output"
}
layer {
  name: "inception_4c/1x1"
  type: "Convolution"
  bottom: "inception_4b/output"
  top: "inception_4c/1x1"
  param {
    lr_mult: 1
    decay_mult: 1
  }
  param {
    lr_mult: 2
    decay_mult: 0
  }
  convolution_param {
    num_output: 128
    kernel_size: 1
    weight_filler {
      type: "xavier"
      std: 0.03
    }
    bias_filler {
      type: "constant"
      value: 0.2
    }
  }
}
layer {
  name: "inception_4c/relu_1x1"
  type: "ReLU"
  bottom: "inception_4c/1x1"
  top: "inception_4c/1x1"
}
layer {
  name: "inception_4c/3x3_reduce"
  type: "Convolution"
  bottom: "inception_4b/output"
  top: "inception_4c/3x3_reduce"
  param {
    lr_mult: 1
    decay_mult: 1
  }
  param {
    lr_mult: 2
    decay_mult: 0
  }
  convolution_param {
    num_output: 128
    kernel_size: 1
    weight_filler {
      type: "xavier"
      std: 0.09
    }
    bias_filler {
      type: "constant"
      value: 0.2
    }
  }
}
layer {
  name: "inception_4c/relu_3x3_reduce"
  type: "ReLU"
  bottom: "inception_4c/3x3_reduce"
  top: "inception_4c/3x3_reduce"
}
layer {
  name: "inception_4c/3x3"
  type: "Convolution"
  bottom: "inception_4c/3x3_reduce"
  top: "inception_4c/3x3"
  param {
    lr_mult: 1
    decay_mult: 1
  }
  param {
    lr_mult: 2
    decay_mult: 0
  }
  convolution_param {
    num_output: 256
    pad: 1
    kernel_size: 3
    weight_filler {
      type: "xavier"
      std: 0.03
    }
    bias_filler {
      type: "constant"
      value: 0.2
    }
  }
}
layer {
  name: "inception_4c/relu_3x3"
  type: "ReLU"
  bottom: "inception_4c/3x3"
  top: "inception_4c/3x3"
}
layer {
  name: "inception_4c/5x5_reduce"
  type: "Convolution"
  bottom: "inception_4b/output"
  top: "inception_4c/5x5_reduce"
  param {
    lr_mult: 1
    decay_mult: 1
  }
  param {
    lr_mult: 2
    decay_mult: 0
  }
  convolution_param {
    num_output: 24
    kernel_size: 1
    weight_filler {
      type: "xavier"
      std: 0.2
    }
    bias_filler {
      type: "constant"
      value: 0.2
    }
  }
}
layer {
  name: "inception_4c/relu_5x5_reduce"
  type: "ReLU"
  bottom: "inception_4c/5x5_reduce"
  top: "inception_4c/5x5_reduce"
}
layer {
  name: "inception_4c/5x5"
  type: "Convolution"
  bottom: "inception_4c/5x5_reduce"
  top: "inception_4c/5x5"
  param {
    lr_mult: 1
    decay_mult: 1
  }
  param {
    lr_mult: 2
    decay_mult: 0
  }
  convolution_param {
    num_output: 64
    pad: 2
    kernel_size: 5
    weight_filler {
      type: "xavier"
      std: 0.03
    }
    bias_filler {
      type: "constant"
      value: 0.2
    }
  }
}
layer {
  name: "inception_4c/relu_5x5"
  type: "ReLU"
  bottom: "inception_4c/5x5"
  top: "inception_4c/5x5"
}
layer {
  name: "inception_4c/pool"
  type: "Pooling"
  bottom: "inception_4b/output"
  top: "inception_4c/pool"
  pooling_param {
    pool: MAX
    kernel_size: 3
    stride: 1
    pad: 1
  }
}
layer {
  name: "inception_4c/pool_proj"
  type: "Convolution"
  bottom: "inception_4c/pool"
  top: "inception_4c/pool_proj"
  param {
    lr_mult: 1
    decay_mult: 1
  }
  param {
    lr_mult: 2
    decay_mult: 0
  }
  convolution_param {
    num_output: 64
    kernel_size: 1
    weight_filler {
      type: "xavier"
      std: 0.1
    }
    bias_filler {
      type: "constant"
      value: 0.2
    }
  }
}
layer {
  name: "inception_4c/relu_pool_proj"
  type: "ReLU"
  bottom: "inception_4c/pool_proj"
  top: "inception_4c/pool_proj"
}
layer {
  name: "inception_4c/output"
  type: "Concat"
  bottom: "inception_4c/1x1"
  bottom: "inception_4c/3x3"
  bottom: "inception_4c/5x5"
  bottom: "inception_4c/pool_proj"
  top: "inception_4c/output"
}
layer {
  name: "inception_4d/1x1"
  type: "Convolution"
  bottom: "inception_4c/output"
  top: "inception_4d/1x1"
  param {
    lr_mult: 1
    decay_mult: 1
  }
  param {
    lr_mult: 2
    decay_mult: 0
  }
  convolution_param {
    num_output: 112
    kernel_size: 1
    weight_filler {
      type: "xavier"
      std: 0.03
    }
    bias_filler {
      type: "constant"
      value: 0.2
    }
  }
}
layer {
  name: "inception_4d/relu_1x1"
  type: "ReLU"
  bottom: "inception_4d/1x1"
  top: "inception_4d/1x1"
}
layer {
  name: "inception_4d/3x3_reduce"
  type: "Convolution"
  bottom: "inception_4c/output"
  top: "inception_4d/3x3_reduce"
  param {
    lr_mult: 1
    decay_mult: 1
  }
  param {
    lr_mult: 2
    decay_mult: 0
  }
  convolution_param {
    num_output: 144
    kernel_size: 1
    weight_filler {
      type: "xavier"
      std: 0.09
    }
    bias_filler {
      type: "constant"
      value: 0.2
    }
  }
}
layer {
  name: "inception_4d/relu_3x3_reduce"
  type: "ReLU"
  bottom: "inception_4d/3x3_reduce"
  top: "inception_4d/3x3_reduce"
}
layer {
  name: "inception_4d/3x3"
  type: "Convolution"
  bottom: "inception_4d/3x3_reduce"
  top: "inception_4d/3x3"
  param {
    lr_mult: 1
    decay_mult: 1
  }
  param {
    lr_mult: 2
    decay_mult: 0
  }
  convolution_param {
    num_output: 288
    pad: 1
    kernel_size: 3
    weight_filler {
      type: "xavier"
      std: 0.03
    }
    bias_filler {
      type: "constant"
      value: 0.2
    }
  }
}
layer {
  name: "inception_4d/relu_3x3"
  type: "ReLU"
  bottom: "inception_4d/3x3"
  top: "inception_4d/3x3"
}
layer {
  name: "inception_4d/5x5_reduce"
  type: "Convolution"
  bottom: "inception_4c/output"
  top: "inception_4d/5x5_reduce"
  param {
    lr_mult: 1
    decay_mult: 1
  }
  param {
    lr_mult: 2
    decay_mult: 0
  }
  convolution_param {
    num_output: 32
    kernel_size: 1
    weight_filler {
      type: "xavier"
      std: 0.2
    }
    bias_filler {
      type: "constant"
      value: 0.2
    }
  }
}
layer {
  name: "inception_4d/relu_5x5_reduce"
  type: "ReLU"
  bottom: "inception_4d/5x5_reduce"
  top: "inception_4d/5x5_reduce"
}
layer {
  name: "inception_4d/5x5"
  type: "Convolution"
  bottom: "inception_4d/5x5_reduce"
  top: "inception_4d/5x5"
  param {
    lr_mult: 1
    decay_mult: 1
  }
  param {
    lr_mult: 2
    decay_mult: 0
  }
  convolution_param {
    num_output: 64
    pad: 2
    kernel_size: 5
    weight_filler {
      type: "xavier"
      std: 0.03
    }
    bias_filler {
      type: "constant"
      value: 0.2
    }
  }
}
layer {
  name: "inception_4d/relu_5x5"
  type: "ReLU"
  bottom: "inception_4d/5x5"
  top: "inception_4d/5x5"
}
layer {
  name: "inception_4d/pool"
  type: "Pooling"
  bottom: "inception_4c/output"
  top: "inception_4d/pool"
  pooling_param {
    pool: MAX
    kernel_size: 3
    stride: 1
    pad: 1
  }
}
layer {
  name: "inception_4d/pool_proj"
  type: "Convolution"
  bottom: "inception_4d/pool"
  top: "inception_4d/pool_proj"
  param {
    lr_mult: 1
    decay_mult: 1
  }
  param {
    lr_mult: 2
    decay_mult: 0
  }
  convolution_param {
    num_output: 64
    kernel_size: 1
    weight_filler {
      type: "xavier"
      std: 0.1
    }
    bias_filler {
      type: "constant"
      value: 0.2
    }
  }
}
layer {
  name: "inception_4d/relu_pool_proj"
  type: "ReLU"
  bottom: "inception_4d/pool_proj"
  top: "inception_4d/pool_proj"
}
layer {
  name: "inception_4d/output"
  type: "Concat"
  bottom: "inception_4d/1x1"
  bottom: "inception_4d/3x3"
  bottom: "inception_4d/5x5"
  bottom: "inception_4d/pool_proj"
  top: "inception_4d/output"
}
layer {
  name: "loss2/ave_pool"
  type: "Pooling"
  bottom: "inception_4d/output"
  top: "loss2/ave_pool"
  pooling_param {
    pool: AVE
    kernel_size: 5
    stride: 3
  }
}
layer {
  name: "loss2/conv"
  type: "Convolution"
  bottom: "loss2/ave_pool"
  top: "loss2/conv"
  param {
    lr_mult: 1
    decay_mult: 1
  }
  param {
    lr_mult: 2
    decay_mult: 0
  }
  convolution_param {
    num_output: 128
    kernel_size: 1
    weight_filler {
      type: "xavier"
      std: 0.08
    }
    bias_filler {
      type: "constant"
      value: 0.2
    }
  }
}
layer {
  name: "loss2/relu_conv"
  type: "ReLU"
  bottom: "loss2/conv"
  top: "loss2/conv"
}
layer {
  name: "loss2/fc"
  type: "InnerProduct"
  bottom: "loss2/conv"
  top: "loss2/fc"
  param {
    lr_mult: 1
    decay_mult: 1
  }
  param {
    lr_mult: 2
    decay_mult: 0
  }
  inner_product_param {
    num_output: 1024
    weight_filler {
      type: "xavier"
      std: 0.02
    }
    bias_filler {
      type: "constant"
      value: 0.2
    }
  }
}
layer {
  name: "loss2/relu_fc"
  type: "ReLU"
  bottom: "loss2/fc"
  top: "loss2/fc"
}
layer {
  name: "loss2/drop_fc"
  type: "Dropout"
  bottom: "loss2/fc"
  top: "loss2/fc"
  dropout_param {
    dropout_ratio: 0.7
  }
}
layer {
  name: "loss2/classifier_plantvillage"
  type: "InnerProduct"
  bottom: "loss2/fc"
  top: "loss2/classifier_plantvillage"
  param {
    lr_mult: 1
    decay_mult: 1
  }
  param {
    lr_mult: 2
    decay_mult: 0
  }
  inner_product_param {
    num_output: 38
    weight_filler {
      type: "xavier"
      std: 0.0009765625
    }
    bias_filler {
      type: "constant"
      value: 0
    }
  }
}
layer {
  name: "inception_4e/1x1"
  type: "Convolution"
  bottom: "inception_4d/output"
  top: "inception_4e/1x1"
  param {
    lr_mult: 1
    decay_mult: 1
  }
  param {
    lr_mult: 2
    decay_mult: 0
  }
  convolution_param {
    num_output: 256
    kernel_size: 1
    weight_filler {
      type: "xavier"
      std: 0.03
    }
    bias_filler {
      type: "constant"
      value: 0.2
    }
  }
}
layer {
  name: "inception_4e/relu_1x1"
  type: "ReLU"
  bottom: "inception_4e/1x1"
  top: "inception_4e/1x1"
}
layer {
  name: "inception_4e/3x3_reduce"
  type: "Convolution"
  bottom: "inception_4d/output"
  top: "inception_4e/3x3_reduce"
  param {
    lr_mult: 1
    decay_mult: 1
  }
  param {
    lr_mult: 2
    decay_mult: 0
  }
  convolution_param {
    num_output: 160
    kernel_size: 1
    weight_filler {
      type: "xavier"
      std: 0.09
    }
    bias_filler {
      type: "constant"
      value: 0.2
    }
  }
}
layer {
  name: "inception_4e/relu_3x3_reduce"
  type: "ReLU"
  bottom: "inception_4e/3x3_reduce"
  top: "inception_4e/3x3_reduce"
}
layer {
  name: "inception_4e/3x3"
  type: "Convolution"
  bottom: "inception_4e/3x3_reduce"
  top: "inception_4e/3x3"
  param {
    lr_mult: 1
    decay_mult: 1
  }
  param {
    lr_mult: 2
    decay_mult: 0
  }
  convolution_param {
    num_output: 320
    pad: 1
    kernel_size: 3
    weight_filler {
      type: "xavier"
      std: 0.03
    }
    bias_filler {
      type: "constant"
      value: 0.2
    }
  }
}
layer {
  name: "inception_4e/relu_3x3"
  type: "ReLU"
  bottom: "inception_4e/3x3"
  top: "inception_4e/3x3"
}
layer {
  name: "inception_4e/5x5_reduce"
  type: "Convolution"
  bottom: "inception_4d/output"
  top: "inception_4e/5x5_reduce"
  param {
    lr_mult: 1
    decay_mult: 1
  }
  param {
    lr_mult: 2
    decay_mult: 0
  }
  convolution_param {
    num_output: 32
    kernel_size: 1
    weight_filler {
      type: "xavier"
      std: 0.2
    }
    bias_filler {
      type: "constant"
      value: 0.2
    }
  }
}
layer {
  name: "inception_4e/relu_5x5_reduce"
  type: "ReLU"
  bottom: "inception_4e/5x5_reduce"
  top: "inception_4e/5x5_reduce"
}
layer {
  name: "inception_4e/5x5"
  type: "Convolution"
  bottom: "inception_4e/5x5_reduce"
  top: "inception_4e/
I0403 17:39:15.084208 14494 layer_factory.hpp:77] Creating layer data
I0403 17:39:15.084787 14494 net.cpp:91] Creating Layer data
I0403 17:39:15.084820 14494 net.cpp:399] data -> data
I0403 17:39:15.084872 14494 net.cpp:399] data -> label
I0403 17:39:15.084906 14494 data_transformer.cpp:25] Loading mean file from: /home/mohanty/data/final_dataset/lmdb/grayscale-60-40/mean.binaryproto
I0403 17:39:15.089604 14497 db_lmdb.cpp:38] Opened lmdb /home/mohanty/data/final_dataset/lmdb/grayscale-60-40/test_db
I0403 17:39:15.098512 14494 data_layer.cpp:41] output data size: 24,3,224,224
I0403 17:39:15.125507 14494 net.cpp:141] Setting up data
I0403 17:39:15.125586 14494 net.cpp:148] Top shape: 24 3 224 224 (3612672)
I0403 17:39:15.125610 14494 net.cpp:148] Top shape: 24 (24)
I0403 17:39:15.125627 14494 net.cpp:156] Memory required for data: 14450784
I0403 17:39:15.125655 14494 layer_factory.hpp:77] Creating layer label_data_1_split
I0403 17:39:15.125684 14494 net.cpp:91] Creating Layer label_data_1_split
I0403 17:39:15.125704 14494 net.cpp:425] label_data_1_split <- label
I0403 17:39:15.125736 14494 net.cpp:399] label_data_1_split -> label_data_1_split_0
I0403 17:39:15.125766 14494 net.cpp:399] label_data_1_split -> label_data_1_split_1
I0403 17:39:15.125788 14494 net.cpp:399] label_data_1_split -> label_data_1_split_2
I0403 17:39:15.125810 14494 net.cpp:399] label_data_1_split -> label_data_1_split_3
I0403 17:39:15.125831 14494 net.cpp:399] label_data_1_split -> label_data_1_split_4
I0403 17:39:15.125854 14494 net.cpp:399] label_data_1_split -> label_data_1_split_5
I0403 17:39:15.125874 14494 net.cpp:399] label_data_1_split -> label_data_1_split_6
I0403 17:39:15.125895 14494 net.cpp:399] label_data_1_split -> label_data_1_split_7
I0403 17:39:15.125916 14494 net.cpp:399] label_data_1_split -> label_data_1_split_8
I0403 17:39:15.125936 14494 net.cpp:399] label_data_1_split -> label_data_1_split_9
I0403 17:39:15.126060 14494 net.cpp:141] Setting up label_data_1_split
I0403 17:39:15.126085 14494 net.cpp:148] Top shape: 24 (24)
I0403 17:39:15.126103 14494 net.cpp:148] Top shape: 24 (24)
I0403 17:39:15.126121 14494 net.cpp:148] Top shape: 24 (24)
I0403 17:39:15.126138 14494 net.cpp:148] Top shape: 24 (24)
I0403 17:39:15.126155 14494 net.cpp:148] Top shape: 24 (24)
I0403 17:39:15.126171 14494 net.cpp:148] Top shape: 24 (24)
I0403 17:39:15.126189 14494 net.cpp:148] Top shape: 24 (24)
I0403 17:39:15.126207 14494 net.cpp:148] Top shape: 24 (24)
I0403 17:39:15.126224 14494 net.cpp:148] Top shape: 24 (24)
I0403 17:39:15.126240 14494 net.cpp:148] Top shape: 24 (24)
I0403 17:39:15.126286 14494 net.cpp:156] Memory required for data: 14451744
I0403 17:39:15.126303 14494 layer_factory.hpp:77] Creating layer conv1/7x7_s2
I0403 17:39:15.126337 14494 net.cpp:91] Creating Layer conv1/7x7_s2
I0403 17:39:15.126358 14494 net.cpp:425] conv1/7x7_s2 <- data
I0403 17:39:15.126379 14494 net.cpp:399] conv1/7x7_s2 -> conv1/7x7_s2
I0403 17:39:15.266101 14494 net.cpp:141] Setting up conv1/7x7_s2
I0403 17:39:15.266185 14494 net.cpp:148] Top shape: 24 64 112 112 (19267584)
I0403 17:39:15.266206 14494 net.cpp:156] Memory required for data: 91522080
I0403 17:39:15.266237 14494 layer_factory.hpp:77] Creating layer conv1/relu_7x7
I0403 17:39:15.266265 14494 net.cpp:91] Creating Layer conv1/relu_7x7
I0403 17:39:15.266285 14494 net.cpp:425] conv1/relu_7x7 <- conv1/7x7_s2
I0403 17:39:15.266336 14494 net.cpp:386] conv1/relu_7x7 -> conv1/7x7_s2 (in-place)
I0403 17:39:15.266607 14494 net.cpp:141] Setting up conv1/relu_7x7
I0403 17:39:15.266635 14494 net.cpp:148] Top shape: 24 64 112 112 (19267584)
I0403 17:39:15.266652 14494 net.cpp:156] Memory required for data: 168592416
I0403 17:39:15.266669 14494 layer_factory.hpp:77] Creating layer pool1/3x3_s2
I0403 17:39:15.266693 14494 net.cpp:91] Creating Layer pool1/3x3_s2
I0403 17:39:15.266712 14494 net.cpp:425] pool1/3x3_s2 <- conv1/7x7_s2
I0403 17:39:15.266731 14494 net.cpp:399] pool1/3x3_s2 -> pool1/3x3_s2
I0403 17:39:15.266805 14494 net.cpp:141] Setting up pool1/3x3_s2
I0403 17:39:15.266830 14494 net.cpp:148] Top shape: 24 64 56 56 (4816896)
I0403 17:39:15.266847 14494 net.cpp:156] Memory required for data: 187860000
I0403 17:39:15.266862 14494 layer_factory.hpp:77] Creating layer pool1/norm1
I0403 17:39:15.266887 14494 net.cpp:91] Creating Layer pool1/norm1
I0403 17:39:15.266906 14494 net.cpp:425] pool1/norm1 <- pool1/3x3_s2
I0403 17:39:15.266929 14494 net.cpp:399] pool1/norm1 -> pool1/norm1
I0403 17:39:15.267227 14494 net.cpp:141] Setting up pool1/norm1
I0403 17:39:15.267256 14494 net.cpp:148] Top shape: 24 64 56 56 (4816896)
I0403 17:39:15.267271 14494 net.cpp:156] Memory required for data: 207127584
I0403 17:39:15.267287 14494 layer_factory.hpp:77] Creating layer conv2/3x3_reduce
I0403 17:39:15.267313 14494 net.cpp:91] Creating Layer conv2/3x3_reduce
I0403 17:39:15.267330 14494 net.cpp:425] conv2/3x3_reduce <- pool1/norm1
I0403 17:39:15.267349 14494 net.cpp:399] conv2/3x3_reduce -> conv2/3x3_reduce
I0403 17:39:15.268746 14494 net.cpp:141] Setting up conv2/3x3_reduce
I0403 17:39:15.268776 14494 net.cpp:148] Top shape: 24 64 56 56 (4816896)
I0403 17:39:15.268793 14494 net.cpp:156] Memory required for data: 226395168
I0403 17:39:15.268815 14494 layer_factory.hpp:77] Creating layer conv2/relu_3x3_reduce
I0403 17:39:15.268834 14494 net.cpp:91] Creating Layer conv2/relu_3x3_reduce
I0403 17:39:15.268851 14494 net.cpp:425] conv2/relu_3x3_reduce <- conv2/3x3_reduce
I0403 17:39:15.268870 14494 net.cpp:386] conv2/relu_3x3_reduce -> conv2/3x3_reduce (in-place)
I0403 17:39:15.269162 14494 net.cpp:141] Setting up conv2/relu_3x3_reduce
I0403 17:39:15.269189 14494 net.cpp:148] Top shape: 24 64 56 56 (4816896)
I0403 17:39:15.269207 14494 net.cpp:156] Memory required for data: 245662752
I0403 17:39:15.269223 14494 layer_factory.hpp:77] Creating layer conv2/3x3
I0403 17:39:15.269248 14494 net.cpp:91] Creating Layer conv2/3x3
I0403 17:39:15.269268 14494 net.cpp:425] conv2/3x3 <- conv2/3x3_reduce
I0403 17:39:15.269289 14494 net.cpp:399] conv2/3x3 -> conv2/3x3
I0403 17:39:15.271723 14494 net.cpp:141] Setting up conv2/3x3
I0403 17:39:15.271754 14494 net.cpp:148] Top shape: 24 192 56 56 (14450688)
I0403 17:39:15.271770 14494 net.cpp:156] Memory required for data: 303465504
I0403 17:39:15.271792 14494 layer_factory.hpp:77] Creating layer conv2/relu_3x3
I0403 17:39:15.271812 14494 net.cpp:91] Creating Layer conv2/relu_3x3
I0403 17:39:15.271829 14494 net.cpp:425] conv2/relu_3x3 <- conv2/3x3
I0403 17:39:15.271852 14494 net.cpp:386] conv2/relu_3x3 -> conv2/3x3 (in-place)
I0403 17:39:15.272037 14494 net.cpp:141] Setting up conv2/relu_3x3
I0403 17:39:15.272063 14494 net.cpp:148] Top shape: 24 192 56 56 (14450688)
I0403 17:39:15.272110 14494 net.cpp:156] Memory required for data: 361268256
I0403 17:39:15.272127 14494 layer_factory.hpp:77] Creating layer conv2/norm2
I0403 17:39:15.272146 14494 net.cpp:91] Creating Layer conv2/norm2
I0403 17:39:15.272164 14494 net.cpp:425] conv2/norm2 <- conv2/3x3
I0403 17:39:15.272184 14494 net.cpp:399] conv2/norm2 -> conv2/norm2
I0403 17:39:15.272495 14494 net.cpp:141] Setting up conv2/norm2
I0403 17:39:15.272523 14494 net.cpp:148] Top shape: 24 192 56 56 (14450688)
I0403 17:39:15.272539 14494 net.cpp:156] Memory required for data: 419071008
I0403 17:39:15.272554 14494 layer_factory.hpp:77] Creating layer pool2/3x3_s2
I0403 17:39:15.272572 14494 net.cpp:91] Creating Layer pool2/3x3_s2
I0403 17:39:15.272589 14494 net.cpp:425] pool2/3x3_s2 <- conv2/norm2
I0403 17:39:15.272611 14494 net.cpp:399] pool2/3x3_s2 -> pool2/3x3_s2
I0403 17:39:15.272667 14494 net.cpp:141] Setting up pool2/3x3_s2
I0403 17:39:15.272691 14494 net.cpp:148] Top shape: 24 192 28 28 (3612672)
I0403 17:39:15.272706 14494 net.cpp:156] Memory required for data: 433521696
I0403 17:39:15.272722 14494 layer_factory.hpp:77] Creating layer pool2/3x3_s2_pool2/3x3_s2_0_split
I0403 17:39:15.272743 14494 net.cpp:91] Creating Layer pool2/3x3_s2_pool2/3x3_s2_0_split
I0403 17:39:15.272760 14494 net.cpp:425] pool2/3x3_s2_pool2/3x3_s2_0_split <- pool2/3x3_s2
I0403 17:39:15.272778 14494 net.cpp:399] pool2/3x3_s2_pool2/3x3_s2_0_split -> pool2/3x3_s2_pool2/3x3_s2_0_split_0
I0403 17:39:15.272799 14494 net.cpp:399] pool2/3x3_s2_pool2/3x3_s2_0_split -> pool2/3x3_s2_pool2/3x3_s2_0_split_1
I0403 17:39:15.272822 14494 net.cpp:399] pool2/3x3_s2_pool2/3x3_s2_0_split -> pool2/3x3_s2_pool2/3x3_s2_0_split_2
I0403 17:39:15.272843 14494 net.cpp:399] pool2/3x3_s2_pool2/3x3_s2_0_split -> pool2/3x3_s2_pool2/3x3_s2_0_split_3
I0403 17:39:15.272912 14494 net.cpp:141] Setting up pool2/3x3_s2_pool2/3x3_s2_0_split
I0403 17:39:15.272935 14494 net.cpp:148] Top shape: 24 192 28 28 (3612672)
I0403 17:39:15.272958 14494 net.cpp:148] Top shape: 24 192 28 28 (3612672)
I0403 17:39:15.272974 14494 net.cpp:148] Top shape: 24 192 28 28 (3612672)
I0403 17:39:15.272990 14494 net.cpp:148] Top shape: 24 192 28 28 (3612672)
I0403 17:39:15.273005 14494 net.cpp:156] Memory required for data: 491324448
I0403 17:39:15.273020 14494 layer_factory.hpp:77] Creating layer inception_3a/1x1
I0403 17:39:15.273044 14494 net.cpp:91] Creating Layer inception_3a/1x1
I0403 17:39:15.273063 14494 net.cpp:425] inception_3a/1x1 <- pool2/3x3_s2_pool2/3x3_s2_0_split_0
I0403 17:39:15.273084 14494 net.cpp:399] inception_3a/1x1 -> inception_3a/1x1
I0403 17:39:15.274674 14494 net.cpp:141] Setting up inception_3a/1x1
I0403 17:39:15.274704 14494 net.cpp:148] Top shape: 24 64 28 28 (1204224)
I0403 17:39:15.274721 14494 net.cpp:156] Memory required for data: 496141344
I0403 17:39:15.274740 14494 layer_factory.hpp:77] Creating layer inception_3a/relu_1x1
I0403 17:39:15.274760 14494 net.cpp:91] Creating Layer inception_3a/relu_1x1
I0403 17:39:15.274776 14494 net.cpp:425] inception_3a/relu_1x1 <- inception_3a/1x1
I0403 17:39:15.274797 14494 net.cpp:386] inception_3a/relu_1x1 -> inception_3a/1x1 (in-place)
I0403 17:39:15.274981 14494 net.cpp:141] Setting up inception_3a/relu_1x1
I0403 17:39:15.275007 14494 net.cpp:148] Top shape: 24 64 28 28 (1204224)
I0403 17:39:15.275023 14494 net.cpp:156] Memory required for data: 500958240
I0403 17:39:15.275038 14494 layer_factory.hpp:77] Creating layer inception_3a/3x3_reduce
I0403 17:39:15.275061 14494 net.cpp:91] Creating Layer inception_3a/3x3_reduce
I0403 17:39:15.275080 14494 net.cpp:425] inception_3a/3x3_reduce <- pool2/3x3_s2_pool2/3x3_s2_0_split_1
I0403 17:39:15.275102 14494 net.cpp:399] inception_3a/3x3_reduce -> inception_3a/3x3_reduce
I0403 17:39:15.276870 14494 net.cpp:141] Setting up inception_3a/3x3_reduce
I0403 17:39:15.276900 14494 net.cpp:148] Top shape: 24 96 28 28 (1806336)
I0403 17:39:15.276916 14494 net.cpp:156] Memory required for data: 508183584
I0403 17:39:15.276939 14494 layer_factory.hpp:77] Creating layer inception_3a/relu_3x3_reduce
I0403 17:39:15.276983 14494 net.cpp:91] Creating Layer inception_3a/relu_3x3_reduce
I0403 17:39:15.277001 14494 net.cpp:425] inception_3a/relu_3x3_reduce <- inception_3a/3x3_reduce
I0403 17:39:15.277019 14494 net.cpp:386] inception_3a/relu_3x3_reduce -> inception_3a/3x3_reduce (in-place)
I0403 17:39:15.277205 14494 net.cpp:141] Setting up inception_3a/relu_3x3_reduce
I0403 17:39:15.277233 14494 net.cpp:148] Top shape: 24 96 28 28 (1806336)
I0403 17:39:15.277250 14494 net.cpp:156] Memory required for data: 515408928
I0403 17:39:15.277266 14494 layer_factory.hpp:77] Creating layer inception_3a/3x3
I0403 17:39:15.277288 14494 net.cpp:91] Creating Layer inception_3a/3x3
I0403 17:39:15.277307 14494 net.cpp:425] inception_3a/3x3 <- inception_3a/3x3_reduce
I0403 17:39:15.277330 14494 net.cpp:399] inception_3a/3x3 -> inception_3a/3x3
I0403 17:39:15.279024 14494 net.cpp:141] Setting up inception_3a/3x3
I0403 17:39:15.279053 14494 net.cpp:148] Top shape: 24 128 28 28 (2408448)
I0403 17:39:15.279070 14494 net.cpp:156] Memory required for data: 525042720
I0403 17:39:15.279089 14494 layer_factory.hpp:77] Creating layer inception_3a/relu_3x3
I0403 17:39:15.279111 14494 net.cpp:91] Creating Layer inception_3a/relu_3x3
I0403 17:39:15.279129 14494 net.cpp:425] inception_3a/relu_3x3 <- inception_3a/3x3
I0403 17:39:15.279146 14494 net.cpp:386] inception_3a/relu_3x3 -> inception_3a/3x3 (in-place)
I0403 17:39:15.279430 14494 net.cpp:141] Setting up inception_3a/relu_3x3
I0403 17:39:15.279458 14494 net.cpp:148] Top shape: 24 128 28 28 (2408448)
I0403 17:39:15.279474 14494 net.cpp:156] Memory required for data: 534676512
I0403 17:39:15.279489 14494 layer_factory.hpp:77] Creating layer inception_3a/5x5_reduce
I0403 17:39:15.279511 14494 net.cpp:91] Creating Layer inception_3a/5x5_reduce
I0403 17:39:15.279531 14494 net.cpp:425] inception_3a/5x5_reduce <- pool2/3x3_s2_pool2/3x3_s2_0_split_2
I0403 17:39:15.279552 14494 net.cpp:399] inception_3a/5x5_reduce -> inception_3a/5x5_reduce
I0403 17:39:15.280532 14494 net.cpp:141] Setting up inception_3a/5x5_reduce
I0403 17:39:15.280560 14494 net.cpp:148] Top shape: 24 16 28 28 (301056)
I0403 17:39:15.280577 14494 net.cpp:156] Memory required for data: 535880736
I0403 17:39:15.280596 14494 layer_factory.hpp:77] Creating layer inception_3a/relu_5x5_reduce
I0403 17:39:15.280617 14494 net.cpp:91] Creating Layer inception_3a/relu_5x5_reduce
I0403 17:39:15.280635 14494 net.cpp:425] inception_3a/relu_5x5_reduce <- inception_3a/5x5_reduce
I0403 17:39:15.280653 14494 net.cpp:386] inception_3a/relu_5x5_reduce -> inception_3a/5x5_reduce (in-place)
I0403 17:39:15.280966 14494 net.cpp:141] Setting up inception_3a/relu_5x5_reduce
I0403 17:39:15.280997 14494 net.cpp:148] Top shape: 24 16 28 28 (301056)
I0403 17:39:15.281013 14494 net.cpp:156] Memory required for data: 537084960
I0403 17:39:15.281029 14494 layer_factory.hpp:77] Creating layer inception_3a/5x5
I0403 17:39:15.281050 14494 net.cpp:91] Creating Layer inception_3a/5x5
I0403 17:39:15.281069 14494 net.cpp:425] inception_3a/5x5 <- inception_3a/5x5_reduce
I0403 17:39:15.281090 14494 net.cpp:399] inception_3a/5x5 -> inception_3a/5x5
I0403 17:39:15.282124 14494 net.cpp:141] Setting up inception_3a/5x5
I0403 17:39:15.282151 14494 net.cpp:148] Top shape: 24 32 28 28 (602112)
I0403 17:39:15.282168 14494 net.cpp:156] Memory required for data: 539493408
I0403 17:39:15.282188 14494 layer_factory.hpp:77] Creating layer inception_3a/relu_5x5
I0403 17:39:15.282210 14494 net.cpp:91] Creating Layer inception_3a/relu_5x5
I0403 17:39:15.282229 14494 net.cpp:425] inception_3a/relu_5x5 <- inception_3a/5x5
I0403 17:39:15.282246 14494 net.cpp:386] inception_3a/relu_5x5 -> inception_3a/5x5 (in-place)
I0403 17:39:15.282424 14494 net.cpp:141] Setting up inception_3a/relu_5x5
I0403 17:39:15.282450 14494 net.cpp:148] Top shape: 24 32 28 28 (602112)
I0403 17:39:15.282465 14494 net.cpp:156] Memory required for data: 541901856
I0403 17:39:15.282480 14494 layer_factory.hpp:77] Creating layer inception_3a/pool
I0403 17:39:15.282501 14494 net.cpp:91] Creating Layer inception_3a/pool
I0403 17:39:15.282532 14494 net.cpp:425] inception_3a/pool <- pool2/3x3_s2_pool2/3x3_s2_0_split_3
I0403 17:39:15.282552 14494 net.cpp:399] inception_3a/pool -> inception_3a/pool
I0403 17:39:15.282613 14494 net.cpp:141] Setting up inception_3a/pool
I0403 17:39:15.282637 14494 net.cpp:148] Top shape: 24 192 28 28 (3612672)
I0403 17:39:15.282652 14494 net.cpp:156] Memory required for data: 556352544
I0403 17:39:15.282668 14494 layer_factory.hpp:77] Creating layer inception_3a/pool_proj
I0403 17:39:15.282691 14494 net.cpp:91] Creating Layer inception_3a/pool_proj
I0403 17:39:15.282709 14494 net.cpp:425] inception_3a/pool_proj <- inception_3a/pool
I0403 17:39:15.282732 14494 net.cpp:399] inception_3a/pool_proj -> inception_3a/pool_proj
I0403 17:39:15.283704 14494 net.cpp:141] Setting up inception_3a/pool_proj
I0403 17:39:15.283735 14494 net.cpp:148] Top shape: 24 32 28 28 (602112)
I0403 17:39:15.283752 14494 net.cpp:156] Memory required for data: 558760992
I0403 17:39:15.283776 14494 layer_factory.hpp:77] Creating layer inception_3a/relu_pool_proj
I0403 17:39:15.283797 14494 net.cpp:91] Creating Layer inception_3a/relu_pool_proj
I0403 17:39:15.283815 14494 net.cpp:425] inception_3a/relu_pool_proj <- inception_3a/pool_proj
I0403 17:39:15.283833 14494 net.cpp:386] inception_3a/relu_pool_proj -> inception_3a/pool_proj (in-place)
I0403 17:39:15.284114 14494 net.cpp:141] Setting up inception_3a/relu_pool_proj
I0403 17:39:15.284142 14494 net.cpp:148] Top shape: 24 32 28 28 (602112)
I0403 17:39:15.284157 14494 net.cpp:156] Memory required for data: 561169440
I0403 17:39:15.284173 14494 layer_factory.hpp:77] Creating layer inception_3a/output
I0403 17:39:15.284191 14494 net.cpp:91] Creating Layer inception_3a/output
I0403 17:39:15.284210 14494 net.cpp:425] inception_3a/output <- inception_3a/1x1
I0403 17:39:15.284229 14494 net.cpp:425] inception_3a/output <- inception_3a/3x3
I0403 17:39:15.284248 14494 net.cpp:425] inception_3a/output <- inception_3a/5x5
I0403 17:39:15.284266 14494 net.cpp:425] inception_3a/output <- inception_3a/pool_proj
I0403 17:39:15.284283 14494 net.cpp:399] inception_3a/output -> inception_3a/output
I0403 17:39:15.284329 14494 net.cpp:141] Setting up inception_3a/output
I0403 17:39:15.284356 14494 net.cpp:148] Top shape: 24 256 28 28 (4816896)
I0403 17:39:15.284373 14494 net.cpp:156] Memory required for data: 580437024
I0403 17:39:15.284387 14494 layer_factory.hpp:77] Creating layer inception_3a/output_inception_3a/output_0_split
I0403 17:39:15.284406 14494 net.cpp:91] Creating Layer inception_3a/output_inception_3a/output_0_split
I0403 17:39:15.284423 14494 net.cpp:425] inception_3a/output_inception_3a/output_0_split <- inception_3a/output
I0403 17:39:15.284443 14494 net.cpp:399] inception_3a/output_inception_3a/output_0_split -> inception_3a/output_inception_3a/output_0_split_0
I0403 17:39:15.284466 14494 net.cpp:399] inception_3a/output_inception_3a/output_0_split -> inception_3a/output_inception_3a/output_0_split_1
I0403 17:39:15.284488 14494 net.cpp:399] inception_3a/output_inception_3a/output_0_split -> inception_3a/output_inception_3a/output_0_split_2
I0403 17:39:15.284509 14494 net.cpp:399] inception_3a/output_inception_3a/output_0_split -> inception_3a/output_inception_3a/output_0_split_3
I0403 17:39:15.284584 14494 net.cpp:141] Setting up inception_3a/output_inception_3a/output_0_split
I0403 17:39:15.284608 14494 net.cpp:148] Top shape: 24 256 28 28 (4816896)
I0403 17:39:15.284626 14494 net.cpp:148] Top shape: 24 256 28 28 (4816896)
I0403 17:39:15.284642 14494 net.cpp:148] Top shape: 24 256 28 28 (4816896)
I0403 17:39:15.284658 14494 net.cpp:148] Top shape: 24 256 28 28 (4816896)
I0403 17:39:15.284673 14494 net.cpp:156] Memory required for data: 657507360
I0403 17:39:15.284688 14494 layer_factory.hpp:77] Creating layer inception_3b/1x1
I0403 17:39:15.284713 14494 net.cpp:91] Creating Layer inception_3b/1x1
I0403 17:39:15.284730 14494 net.cpp:425] inception_3b/1x1 <- inception_3a/output_inception_3a/output_0_split_0
I0403 17:39:15.284752 14494 net.cpp:399] inception_3b/1x1 -> inception_3b/1x1
I0403 17:39:15.285897 14494 net.cpp:141] Setting up inception_3b/1x1
I0403 17:39:15.285936 14494 net.cpp:148] Top shape: 24 128 28 28 (2408448)
I0403 17:39:15.285974 14494 net.cpp:156] Memory required for data: 667141152
I0403 17:39:15.285996 14494 layer_factory.hpp:77] Creating layer inception_3b/relu_1x1
I0403 17:39:15.286026 14494 net.cpp:91] Creating Layer inception_3b/relu_1x1
I0403 17:39:15.286043 14494 net.cpp:425] inception_3b/relu_1x1 <- inception_3b/1x1
I0403 17:39:15.286064 14494 net.cpp:386] inception_3b/relu_1x1 -> inception_3b/1x1 (in-place)
I0403 17:39:15.286252 14494 net.cpp:141] Setting up inception_3b/relu_1x1
I0403 17:39:15.286278 14494 net.cpp:148] Top shape: 24 128 28 28 (2408448)
I0403 17:39:15.286303 14494 net.cpp:156] Memory required for data: 676774944
I0403 17:39:15.286320 14494 layer_factory.hpp:77] Creating layer inception_3b/3x3_reduce
I0403 17:39:15.286344 14494 net.cpp:91] Creating Layer inception_3b/3x3_reduce
I0403 17:39:15.286362 14494 net.cpp:425] inception_3b/3x3_reduce <- inception_3a/output_inception_3a/output_0_split_1
I0403 17:39:15.286384 14494 net.cpp:399] inception_3b/3x3_reduce -> inception_3b/3x3_reduce
I0403 17:39:15.287572 14494 net.cpp:141] Setting up inception_3b/3x3_reduce
I0403 17:39:15.287603 14494 net.cpp:148] Top shape: 24 128 28 28 (2408448)
I0403 17:39:15.287621 14494 net.cpp:156] Memory required for data: 686408736
I0403 17:39:15.287641 14494 layer_factory.hpp:77] Creating layer inception_3b/relu_3x3_reduce
I0403 17:39:15.287659 14494 net.cpp:91] Creating Layer inception_3b/relu_3x3_reduce
I0403 17:39:15.287677 14494 net.cpp:425] inception_3b/relu_3x3_reduce <- inception_3b/3x3_reduce
I0403 17:39:15.287696 14494 net.cpp:386] inception_3b/relu_3x3_reduce -> inception_3b/3x3_reduce (in-place)
I0403 17:39:15.287873 14494 net.cpp:141] Setting up inception_3b/relu_3x3_reduce
I0403 17:39:15.287899 14494 net.cpp:148] Top shape: 24 128 28 28 (2408448)
I0403 17:39:15.287915 14494 net.cpp:156] Memory required for data: 696042528
I0403 17:39:15.287931 14494 layer_factory.hpp:77] Creating layer inception_3b/3x3
I0403 17:39:15.287961 14494 net.cpp:91] Creating Layer inception_3b/3x3
I0403 17:39:15.287981 14494 net.cpp:425] inception_3b/3x3 <- inception_3b/3x3_reduce
I0403 17:39:15.288002 14494 net.cpp:399] inception_3b/3x3 -> inception_3b/3x3
I0403 17:39:15.290969 14494 net.cpp:141] Setting up inception_3b/3x3
I0403 17:39:15.290999 14494 net.cpp:148] Top shape: 24 192 28 28 (3612672)
I0403 17:39:15.291015 14494 net.cpp:156] Memory required for data: 710493216
I0403 17:39:15.291035 14494 layer_factory.hpp:77] Creating layer inception_3b/relu_3x3
I0403 17:39:15.291057 14494 net.cpp:91] Creating Layer inception_3b/relu_3x3
I0403 17:39:15.291074 14494 net.cpp:425] inception_3b/relu_3x3 <- inception_3b/3x3
I0403 17:39:15.291093 14494 net.cpp:386] inception_3b/relu_3x3 -> inception_3b/3x3 (in-place)
I0403 17:39:15.291373 14494 net.cpp:141] Setting up inception_3b/relu_3x3
I0403 17:39:15.291400 14494 net.cpp:148] Top shape: 24 192 28 28 (3612672)
I0403 17:39:15.291416 14494 net.cpp:156] Memory required for data: 724943904
I0403 17:39:15.291432 14494 layer_factory.hpp:77] Creating layer inception_3b/5x5_reduce
I0403 17:39:15.291457 14494 net.cpp:91] Creating Layer inception_3b/5x5_reduce
I0403 17:39:15.291476 14494 net.cpp:425] inception_3b/5x5_reduce <- inception_3a/output_inception_3a/output_0_split_2
I0403 17:39:15.291498 14494 net.cpp:399] inception_3b/5x5_reduce -> inception_3b/5x5_reduce
I0403 17:39:15.292505 14494 net.cpp:141] Setting up inception_3b/5x5_reduce
I0403 17:39:15.292532 14494 net.cpp:148] Top shape: 24 32 28 28 (602112)
I0403 17:39:15.292548 14494 net.cpp:156] Memory required for data: 727352352
I0403 17:39:15.292568 14494 layer_factory.hpp:77] Creating layer inception_3b/relu_5x5_reduce
I0403 17:39:15.292589 14494 net.cpp:91] Creating Layer inception_3b/relu_5x5_reduce
I0403 17:39:15.292608 14494 net.cpp:425] inception_3b/relu_5x5_reduce <- inception_3b/5x5_reduce
I0403 17:39:15.292625 14494 net.cpp:386] inception_3b/relu_5x5_reduce -> inception_3b/5x5_reduce (in-place)
I0403 17:39:15.292819 14494 net.cpp:141] Setting up inception_3b/relu_5x5_reduce
I0403 17:39:15.292845 14494 net.cpp:148] Top shape: 24 32 28 28 (602112)
I0403 17:39:15.292861 14494 net.cpp:156] Memory required for data: 729760800
I0403 17:39:15.292877 14494 layer_factory.hpp:77] Creating layer inception_3b/5x5
I0403 17:39:15.292912 14494 net.cpp:91] Creating Layer inception_3b/5x5
I0403 17:39:15.292933 14494 net.cpp:425] inception_3b/5x5 <- inception_3b/5x5_reduce
I0403 17:39:15.292958 14494 net.cpp:399] inception_3b/5x5 -> inception_3b/5x5
I0403 17:39:15.294986 14494 net.cpp:141] Setting up inception_3b/5x5
I0403 17:39:15.295017 14494 net.cpp:148] Top shape: 24 96 28 28 (1806336)
I0403 17:39:15.295033 14494 net.cpp:156] Memory required for data: 736986144
I0403 17:39:15.295053 14494 layer_factory.hpp:77] Creating layer inception_3b/relu_5x5
I0403 17:39:15.295073 14494 net.cpp:91] Creating Layer inception_3b/relu_5x5
I0403 17:39:15.295089 14494 net.cpp:425] inception_3b/relu_5x5 <- inception_3b/5x5
I0403 17:39:15.295110 14494 net.cpp:386] inception_3b/relu_5x5 -> inception_3b/5x5 (in-place)
I0403 17:39:15.295313 14494 net.cpp:141] Setting up inception_3b/relu_5x5
I0403 17:39:15.295339 14494 net.cpp:148] Top shape: 24 96 28 28 (1806336)
I0403 17:39:15.295354 14494 net.cpp:156] Memory required for data: 744211488
I0403 17:39:15.295370 14494 layer_factory.hpp:77] Creating layer inception_3b/pool
I0403 17:39:15.295388 14494 net.cpp:91] Creating Layer inception_3b/pool
I0403 17:39:15.295405 14494 net.cpp:425] inception_3b/pool <- inception_3a/output_inception_3a/output_0_split_3
I0403 17:39:15.295423 14494 net.cpp:399] inception_3b/pool -> inception_3b/pool
I0403 17:39:15.295480 14494 net.cpp:141] Setting up inception_3b/pool
I0403 17:39:15.295502 14494 net.cpp:148] Top shape: 24 256 28 28 (4816896)
I0403 17:39:15.295518 14494 net.cpp:156] Memory required for data: 763479072
I0403 17:39:15.295532 14494 layer_factory.hpp:77] Creating layer inception_3b/pool_proj
I0403 17:39:15.295557 14494 net.cpp:91] Creating Layer inception_3b/pool_proj
I0403 17:39:15.295574 14494 net.cpp:425] inception_3b/pool_proj <- inception_3b/pool
I0403 17:39:15.295593 14494 net.cpp:399] inception_3b/pool_proj -> inception_3b/pool_proj
I0403 17:39:15.296630 14494 net.cpp:141] Setting up inception_3b/pool_proj
I0403 17:39:15.296658 14494 net.cpp:148] Top shape: 24 64 28 28 (1204224)
I0403 17:39:15.296674 14494 net.cpp:156] Memory required for data: 768295968
I0403 17:39:15.296692 14494 layer_factory.hpp:77] Creating layer inception_3b/relu_pool_proj
I0403 17:39:15.296713 14494 net.cpp:91] Creating Layer inception_3b/relu_pool_proj
I0403 17:39:15.296731 14494 net.cpp:425] inception_3b/relu_pool_proj <- inception_3b/pool_proj
I0403 17:39:15.296748 14494 net.cpp:386] inception_3b/relu_pool_proj -> inception_3b/pool_proj (in-place)
I0403 17:39:15.297155 14494 net.cpp:141] Setting up inception_3b/relu_pool_proj
I0403 17:39:15.297183 14494 net.cpp:148] Top shape: 24 64 28 28 (1204224)
I0403 17:39:15.297197 14494 net.cpp:156] Memory required for data: 773112864
I0403 17:39:15.297212 14494 layer_factory.hpp:77] Creating layer inception_3b/output
I0403 17:39:15.297232 14494 net.cpp:91] Creating Layer inception_3b/output
I0403 17:39:15.297250 14494 net.cpp:425] inception_3b/output <- inception_3b/1x1
I0403 17:39:15.297267 14494 net.cpp:425] inception_3b/output <- inception_3b/3x3
I0403 17:39:15.297284 14494 net.cpp:425] inception_3b/output <- inception_3b/5x5
I0403 17:39:15.297299 14494 net.cpp:425] inception_3b/output <- inception_3b/pool_proj
I0403 17:39:15.297317 14494 net.cpp:399] inception_3b/output -> inception_3b/output
I0403 17:39:15.297361 14494 net.cpp:141] Setting up inception_3b/output
I0403 17:39:15.297384 14494 net.cpp:148] Top shape: 24 480 28 28 (9031680)
I0403 17:39:15.297399 14494 net.cpp:156] Memory required for data: 809239584
I0403 17:39:15.297415 14494 layer_factory.hpp:77] Creating layer pool3/3x3_s2
I0403 17:39:15.297432 14494 net.cpp:91] Creating Layer pool3/3x3_s2
I0403 17:39:15.297448 14494 net.cpp:425] pool3/3x3_s2 <- inception_3b/output
I0403 17:39:15.297483 14494 net.cpp:399] pool3/3x3_s2 -> pool3/3x3_s2
I0403 17:39:15.297541 14494 net.cpp:141] Setting up pool3/3x3_s2
I0403 17:39:15.297567 14494 net.cpp:148] Top shape: 24 480 14 14 (2257920)
I0403 17:39:15.297583 14494 net.cpp:156] Memory required for data: 818271264
I0403 17:39:15.297598 14494 layer_factory.hpp:77] Creating layer pool3/3x3_s2_pool3/3x3_s2_0_split
I0403 17:39:15.297616 14494 net.cpp:91] Creating Layer pool3/3x3_s2_pool3/3x3_s2_0_split
I0403 17:39:15.297632 14494 net.cpp:425] pool3/3x3_s2_pool3/3x3_s2_0_split <- pool3/3x3_s2
I0403 17:39:15.297649 14494 net.cpp:399] pool3/3x3_s2_pool3/3x3_s2_0_split -> pool3/3x3_s2_pool3/3x3_s2_0_split_0
I0403 17:39:15.297672 14494 net.cpp:399] pool3/3x3_s2_pool3/3x3_s2_0_split -> pool3/3x3_s2_pool3/3x3_s2_0_split_1
I0403 17:39:15.297693 14494 net.cpp:399] pool3/3x3_s2_pool3/3x3_s2_0_split -> pool3/3x3_s2_pool3/3x3_s2_0_split_2
I0403 17:39:15.297713 14494 net.cpp:399] pool3/3x3_s2_pool3/3x3_s2_0_split -> pool3/3x3_s2_pool3/3x3_s2_0_split_3
I0403 17:39:15.297790 14494 net.cpp:141] Setting up pool3/3x3_s2_pool3/3x3_s2_0_split
I0403 17:39:15.297812 14494 net.cpp:148] Top shape: 24 480 14 14 (2257920)
I0403 17:39:15.297829 14494 net.cpp:148] Top shape: 24 480 14 14 (2257920)
I0403 17:39:15.297845 14494 net.cpp:148] Top shape: 24 480 14 14 (2257920)
I0403 17:39:15.297860 14494 net.cpp:148] Top shape: 24 480 14 14 (2257920)
I0403 17:39:15.297874 14494 net.cpp:156] Memory required for data: 854397984
I0403 17:39:15.297889 14494 layer_factory.hpp:77] Creating layer inception_4a/1x1
I0403 17:39:15.297914 14494 net.cpp:91] Creating Layer inception_4a/1x1
I0403 17:39:15.297931 14494 net.cpp:425] inception_4a/1x1 <- pool3/3x3_s2_pool3/3x3_s2_0_split_0
I0403 17:39:15.297955 14494 net.cpp:399] inception_4a/1x1 -> inception_4a/1x1
I0403 17:39:15.299509 14494 net.cpp:141] Setting up inception_4a/1x1
I0403 17:39:15.299536 14494 net.cpp:148] Top shape: 24 192 14 14 (903168)
I0403 17:39:15.299552 14494 net.cpp:156] Memory required for data: 858010656
I0403 17:39:15.299571 14494 layer_factory.hpp:77] Creating layer inception_4a/relu_1x1
I0403 17:39:15.299592 14494 net.cpp:91] Creating Layer inception_4a/relu_1x1
I0403 17:39:15.299609 14494 net.cpp:425] inception_4a/relu_1x1 <- inception_4a/1x1
I0403 17:39:15.299626 14494 net.cpp:386] inception_4a/relu_1x1 -> inception_4a/1x1 (in-place)
I0403 17:39:15.299803 14494 net.cpp:141] Setting up inception_4a/relu_1x1
I0403 17:39:15.299828 14494 net.cpp:148] Top shape: 24 192 14 14 (903168)
I0403 17:39:15.299844 14494 net.cpp:156] Memory required for data: 861623328
I0403 17:39:15.299859 14494 layer_factory.hpp:77] Creating layer inception_4a/3x3_reduce
I0403 17:39:15.299880 14494 net.cpp:91] Creating Layer inception_4a/3x3_reduce
I0403 17:39:15.299899 14494 net.cpp:425] inception_4a/3x3_reduce <- pool3/3x3_s2_pool3/3x3_s2_0_split_1
I0403 17:39:15.299921 14494 net.cpp:399] inception_4a/3x3_reduce -> inception_4a/3x3_reduce
I0403 17:39:15.301178 14494 net.cpp:141] Setting up inception_4a/3x3_reduce
I0403 17:39:15.301213 14494 net.cpp:148] Top shape: 24 96 14 14 (451584)
I0403 17:39:15.301229 14494 net.cpp:156] Memory required for data: 863429664
I0403 17:39:15.301252 14494 layer_factory.hpp:77] Creating layer inception_4a/relu_3x3_reduce
I0403 17:39:15.301275 14494 net.cpp:91] Creating Layer inception_4a/relu_3x3_reduce
I0403 17:39:15.301291 14494 net.cpp:425] inception_4a/relu_3x3_reduce <- inception_4a/3x3_reduce
I0403 17:39:15.301309 14494 net.cpp:386] inception_4a/relu_3x3_reduce -> inception_4a/3x3_reduce (in-place)
I0403 17:39:15.301482 14494 net.cpp:141] Setting up inception_4a/relu_3x3_reduce
I0403 17:39:15.301509 14494 net.cpp:148] Top shape: 24 96 14 14 (451584)
I0403 17:39:15.301524 14494 net.cpp:156] Memory required for data: 865236000
I0403 17:39:15.301539 14494 layer_factory.hpp:77] Creating layer inception_4a/3x3
I0403 17:39:15.301563 14494 net.cpp:91] Creating Layer inception_4a/3x3
I0403 17:39:15.301579 14494 net.cpp:425] inception_4a/3x3 <- inception_4a/3x3_reduce
I0403 17:39:15.301601 14494 net.cpp:399] inception_4a/3x3 -> inception_4a/3x3
I0403 17:39:15.304253 14494 net.cpp:141] Setting up inception_4a/3x3
I0403 17:39:15.304285 14494 net.cpp:148] Top shape: 24 208 14 14 (978432)
I0403 17:39:15.304312 14494 net.cpp:156] Memory required for data: 869149728
I0403 17:39:15.304332 14494 layer_factory.hpp:77] Creating layer inception_4a/relu_3x3
I0403 17:39:15.304348 14494 net.cpp:91] Creating Layer inception_4a/relu_3x3
I0403 17:39:15.304364 14494 net.cpp:425] inception_4a/relu_3x3 <- inception_4a/3x3
I0403 17:39:15.304384 14494 net.cpp:386] inception_4a/relu_3x3 -> inception_4a/3x3 (in-place)
I0403 17:39:15.304663 14494 net.cpp:141] Setting up inception_4a/relu_3x3
I0403 17:39:15.304690 14494 net.cpp:148] Top shape: 24 208 14 14 (978432)
I0403 17:39:15.304708 14494 net.cpp:156] Memory required for data: 873063456
I0403 17:39:15.304721 14494 layer_factory.hpp:77] Creating layer inception_4a/5x5_reduce
I0403 17:39:15.304745 14494 net.cpp:91] Creating Layer inception_4a/5x5_reduce
I0403 17:39:15.304762 14494 net.cpp:425] inception_4a/5x5_reduce <- pool3/3x3_s2_pool3/3x3_s2_0_split_2
I0403 17:39:15.304783 14494 net.cpp:399] inception_4a/5x5_reduce -> inception_4a/5x5_reduce
I0403 17:39:15.305757 14494 net.cpp:141] Setting up inception_4a/5x5_reduce
I0403 17:39:15.305783 14494 net.cpp:148] Top shape: 24 16 14 14 (75264)
I0403 17:39:15.305799 14494 net.cpp:156] Memory required for data: 873364512
I0403 17:39:15.305819 14494 layer_factory.hpp:77] Creating layer inception_4a/relu_5x5_reduce
I0403 17:39:15.305838 14494 net.cpp:91] Creating Layer inception_4a/relu_5x5_reduce
I0403 17:39:15.305856 14494 net.cpp:425] inception_4a/relu_5x5_reduce <- inception_4a/5x5_reduce
I0403 17:39:15.305873 14494 net.cpp:386] inception_4a/relu_5x5_reduce -> inception_4a/5x5_reduce (in-place)
I0403 17:39:15.306048 14494 net.cpp:141] Setting up inception_4a/relu_5x5_reduce
I0403 17:39:15.306073 14494 net.cpp:148] Top shape: 24 16 14 14 (75264)
I0403 17:39:15.306088 14494 net.cpp:156] Memory required for data: 873665568
I0403 17:39:15.306103 14494 layer_factory.hpp:77] Creating layer inception_4a/5x5
I0403 17:39:15.306125 14494 net.cpp:91] Creating Layer inception_4a/5x5
I0403 17:39:15.306143 14494 net.cpp:425] inception_4a/5x5 <- inception_4a/5x5_reduce
I0403 17:39:15.306162 14494 net.cpp:399] inception_4a/5x5 -> inception_4a/5x5
I0403 17:39:15.307196 14494 net.cpp:141] Setting up inception_4a/5x5
I0403 17:39:15.307222 14494 net.cpp:148] Top shape: 24 48 14 14 (225792)
I0403 17:39:15.307237 14494 net.cpp:156] Memory required for data: 874568736
I0403 17:39:15.307256 14494 layer_factory.hpp:77] Creating layer inception_4a/relu_5x5
I0403 17:39:15.307276 14494 net.cpp:91] Creating Layer inception_4a/relu_5x5
I0403 17:39:15.307293 14494 net.cpp:425] inception_4a/relu_5x5 <- inception_4a/5x5
I0403 17:39:15.307310 14494 net.cpp:386] inception_4a/relu_5x5 -> inception_4a/5x5 (in-place)
I0403 17:39:15.307482 14494 net.cpp:141] Setting up inception_4a/relu_5x5
I0403 17:39:15.307508 14494 net.cpp:148] Top shape: 24 48 14 14 (225792)
I0403 17:39:15.307524 14494 net.cpp:156] Memory required for data: 875471904
I0403 17:39:15.307539 14494 layer_factory.hpp:77] Creating layer inception_4a/pool
I0403 17:39:15.307556 14494 net.cpp:91] Creating Layer inception_4a/pool
I0403 17:39:15.307572 14494 net.cpp:425] inception_4a/pool <- pool3/3x3_s2_pool3/3x3_s2_0_split_3
I0403 17:39:15.307595 14494 net.cpp:399] inception_4a/pool -> inception_4a/pool
I0403 17:39:15.307653 14494 net.cpp:141] Setting up inception_4a/pool
I0403 17:39:15.307677 14494 net.cpp:148] Top shape: 24 480 14 14 (2257920)
I0403 17:39:15.307692 14494 net.cpp:156] Memory required for data: 884503584
I0403 17:39:15.307706 14494 layer_factory.hpp:77] Creating layer inception_4a/pool_proj
I0403 17:39:15.307728 14494 net.cpp:91] Creating Layer inception_4a/pool_proj
I0403 17:39:15.307744 14494 net.cpp:425] inception_4a/pool_proj <- inception_4a/pool
I0403 17:39:15.307765 14494 net.cpp:399] inception_4a/pool_proj -> inception_4a/pool_proj
I0403 17:39:15.308883 14494 net.cpp:141] Setting up inception_4a/pool_proj
I0403 17:39:15.308914 14494 net.cpp:148] Top shape: 24 64 14 14 (301056)
I0403 17:39:15.308944 14494 net.cpp:156] Memory required for data: 885707808
I0403 17:39:15.308974 14494 layer_factory.hpp:77] Creating layer inception_4a/relu_pool_proj
I0403 17:39:15.308993 14494 net.cpp:91] Creating Layer inception_4a/relu_pool_proj
I0403 17:39:15.309010 14494 net.cpp:425] inception_4a/relu_pool_proj <- inception_4a/pool_proj
I0403 17:39:15.309026 14494 net.cpp:386] inception_4a/relu_pool_proj -> inception_4a/pool_proj (in-place)
I0403 17:39:15.309306 14494 net.cpp:141] Setting up inception_4a/relu_pool_proj
I0403 17:39:15.309334 14494 net.cpp:148] Top shape: 24 64 14 14 (301056)
I0403 17:39:15.309350 14494 net.cpp:156] Memory required for data: 886912032
I0403 17:39:15.309365 14494 layer_factory.hpp:77] Creating layer inception_4a/output
I0403 17:39:15.309382 14494 net.cpp:91] Creating Layer inception_4a/output
I0403 17:39:15.309398 14494 net.cpp:425] inception_4a/output <- inception_4a/1x1
I0403 17:39:15.309415 14494 net.cpp:425] inception_4a/output <- inception_4a/3x3
I0403 17:39:15.309432 14494 net.cpp:425] inception_4a/output <- inception_4a/5x5
I0403 17:39:15.309447 14494 net.cpp:425] inception_4a/output <- inception_4a/pool_proj
I0403 17:39:15.309463 14494 net.cpp:399] inception_4a/output -> inception_4a/output
I0403 17:39:15.309507 14494 net.cpp:141] Setting up inception_4a/output
I0403 17:39:15.309530 14494 net.cpp:148] Top shape: 24 512 14 14 (2408448)
I0403 17:39:15.309545 14494 net.cpp:156] Memory required for data: 896545824
I0403 17:39:15.309558 14494 layer_factory.hpp:77] Creating layer inception_4a/output_inception_4a/output_0_split
I0403 17:39:15.309578 14494 net.cpp:91] Creating Layer inception_4a/output_inception_4a/output_0_split
I0403 17:39:15.309595 14494 net.cpp:425] inception_4a/output_inception_4a/output_0_split <- inception_4a/output
I0403 17:39:15.309612 14494 net.cpp:399] inception_4a/output_inception_4a/output_0_split -> inception_4a/output_inception_4a/output_0_split_0
I0403 17:39:15.309633 14494 net.cpp:399] inception_4a/output_inception_4a/output_0_split -> inception_4a/output_inception_4a/output_0_split_1
I0403 17:39:15.309653 14494 net.cpp:399] inception_4a/output_inception_4a/output_0_split -> inception_4a/output_inception_4a/output_0_split_2
I0403 17:39:15.309672 14494 net.cpp:399] inception_4a/output_inception_4a/output_0_split -> inception_4a/output_inception_4a/output_0_split_3
I0403 17:39:15.309695 14494 net.cpp:399] inception_4a/output_inception_4a/output_0_split -> inception_4a/output_inception_4a/output_0_split_4
I0403 17:39:15.309783 14494 net.cpp:141] Setting up inception_4a/output_inception_4a/output_0_split
I0403 17:39:15.309806 14494 net.cpp:148] Top shape: 24 512 14 14 (2408448)
I0403 17:39:15.309823 14494 net.cpp:148] Top shape: 24 512 14 14 (2408448)
I0403 17:39:15.309839 14494 net.cpp:148] Top shape: 24 512 14 14 (2408448)
I0403 17:39:15.309854 14494 net.cpp:148] Top shape: 24 512 14 14 (2408448)
I0403 17:39:15.309870 14494 net.cpp:148] Top shape: 24 512 14 14 (2408448)
I0403 17:39:15.309885 14494 net.cpp:156] Memory required for data: 944714784
I0403 17:39:15.309898 14494 layer_factory.hpp:77] Creating layer loss1/ave_pool
I0403 17:39:15.309916 14494 net.cpp:91] Creating Layer loss1/ave_pool
I0403 17:39:15.309932 14494 net.cpp:425] loss1/ave_pool <- inception_4a/output_inception_4a/output_0_split_0
I0403 17:39:15.309955 14494 net.cpp:399] loss1/ave_pool -> loss1/ave_pool
I0403 17:39:15.310153 14494 net.cpp:141] Setting up loss1/ave_pool
I0403 17:39:15.310180 14494 net.cpp:148] Top shape: 24 512 4 4 (196608)
I0403 17:39:15.310196 14494 net.cpp:156] Memory required for data: 945501216
I0403 17:39:15.310212 14494 layer_factory.hpp:77] Creating layer loss1/conv
I0403 17:39:15.310233 14494 net.cpp:91] Creating Layer loss1/conv
I0403 17:39:15.310251 14494 net.cpp:425] loss1/conv <- loss1/ave_pool
I0403 17:39:15.310271 14494 net.cpp:399] loss1/conv -> loss1/conv
I0403 17:39:15.311628 14494 net.cpp:141] Setting up loss1/conv
I0403 17:39:15.311655 14494 net.cpp:148] Top shape: 24 128 4 4 (49152)
I0403 17:39:15.311683 14494 net.cpp:156] Memory required for data: 945697824
I0403 17:39:15.311703 14494 layer_factory.hpp:77] Creating layer loss1/relu_conv
I0403 17:39:15.311722 14494 net.cpp:91] Creating Layer loss1/relu_conv
I0403 17:39:15.311738 14494 net.cpp:425] loss1/relu_conv <- loss1/conv
I0403 17:39:15.311756 14494 net.cpp:386] loss1/relu_conv -> loss1/conv (in-place)
I0403 17:39:15.312033 14494 net.cpp:141] Setting up loss1/relu_conv
I0403 17:39:15.312058 14494 net.cpp:148] Top shape: 24 128 4 4 (49152)
I0403 17:39:15.312073 14494 net.cpp:156] Memory required for data: 945894432
I0403 17:39:15.312088 14494 layer_factory.hpp:77] Creating layer loss1/fc
I0403 17:39:15.312111 14494 net.cpp:91] Creating Layer loss1/fc
I0403 17:39:15.312129 14494 net.cpp:425] loss1/fc <- loss1/conv
I0403 17:39:15.312150 14494 net.cpp:399] loss1/fc -> loss1/fc
I0403 17:39:15.329264 14494 net.cpp:141] Setting up loss1/fc
I0403 17:39:15.329296 14494 net.cpp:148] Top shape: 24 1024 (24576)
I0403 17:39:15.329311 14494 net.cpp:156] Memory required for data: 945992736
I0403 17:39:15.329330 14494 layer_factory.hpp:77] Creating layer loss1/relu_fc
I0403 17:39:15.329351 14494 net.cpp:91] Creating Layer loss1/relu_fc
I0403 17:39:15.329368 14494 net.cpp:425] loss1/relu_fc <- loss1/fc
I0403 17:39:15.329386 14494 net.cpp:386] loss1/relu_fc -> loss1/fc (in-place)
I0403 17:39:15.329566 14494 net.cpp:141] Setting up loss1/relu_fc
I0403 17:39:15.329589 14494 net.cpp:148] Top shape: 24 1024 (24576)
I0403 17:39:15.329604 14494 net.cpp:156] Memory required for data: 946091040
I0403 17:39:15.329619 14494 layer_factory.hpp:77] Creating layer loss1/drop_fc
I0403 17:39:15.329646 14494 net.cpp:91] Creating Layer loss1/drop_fc
I0403 17:39:15.329663 14494 net.cpp:425] loss1/drop_fc <- loss1/fc
I0403 17:39:15.329684 14494 net.cpp:386] loss1/drop_fc -> loss1/fc (in-place)
I0403 17:39:15.329732 14494 net.cpp:141] Setting up loss1/drop_fc
I0403 17:39:15.329756 14494 net.cpp:148] Top shape: 24 1024 (24576)
I0403 17:39:15.329771 14494 net.cpp:156] Memory required for data: 946189344
I0403 17:39:15.329785 14494 layer_factory.hpp:77] Creating layer loss1/classifier_plantvillage
I0403 17:39:15.329807 14494 net.cpp:91] Creating Layer loss1/classifier_plantvillage
I0403 17:39:15.329824 14494 net.cpp:425] loss1/classifier_plantvillage <- loss1/fc
I0403 17:39:15.329846 14494 net.cpp:399] loss1/classifier_plantvillage -> loss1/classifier_plantvillage
I0403 17:39:15.330723 14494 net.cpp:141] Setting up loss1/classifier_plantvillage
I0403 17:39:15.330752 14494 net.cpp:148] Top shape: 24 38 (912)
I0403 17:39:15.330770 14494 net.cpp:156] Memory required for data: 946192992
I0403 17:39:15.330787 14494 layer_factory.hpp:77] Creating layer loss1/classifier_plantvillage_loss1/classifier_plantvillage_0_split
I0403 17:39:15.330806 14494 net.cpp:91] Creating Layer loss1/classifier_plantvillage_loss1/classifier_plantvillage_0_split
I0403 17:39:15.330822 14494 net.cpp:425] loss1/classifier_plantvillage_loss1/classifier_plantvillage_0_split <- loss1/classifier_plantvillage
I0403 17:39:15.330842 14494 net.cpp:399] loss1/classifier_plantvillage_loss1/classifier_plantvillage_0_split -> loss1/classifier_plantvillage_loss1/classifier_plantvillage_0_split_0
I0403 17:39:15.330862 14494 net.cpp:399] loss1/classifier_plantvillage_loss1/classifier_plantvillage_0_split -> loss1/classifier_plantvillage_loss1/classifier_plantvillage_0_split_1
I0403 17:39:15.330883 14494 net.cpp:399] loss1/classifier_plantvillage_loss1/classifier_plantvillage_0_split -> loss1/classifier_plantvillage_loss1/classifier_plantvillage_0_split_2
I0403 17:39:15.330950 14494 net.cpp:141] Setting up loss1/classifier_plantvillage_loss1/classifier_plantvillage_0_split
I0403 17:39:15.330987 14494 net.cpp:148] Top shape: 24 38 (912)
I0403 17:39:15.331014 14494 net.cpp:148] Top shape: 24 38 (912)
I0403 17:39:15.331030 14494 net.cpp:148] Top shape: 24 38 (912)
I0403 17:39:15.331045 14494 net.cpp:156] Memory required for data: 946203936
I0403 17:39:15.331060 14494 layer_factory.hpp:77] Creating layer inception_4b/1x1
I0403 17:39:15.331084 14494 net.cpp:91] Creating Layer inception_4b/1x1
I0403 17:39:15.331116 14494 net.cpp:425] inception_4b/1x1 <- inception_4a/output_inception_4a/output_0_split_1
I0403 17:39:15.331136 14494 net.cpp:399] inception_4b/1x1 -> inception_4b/1x1
I0403 17:39:15.332767 14494 net.cpp:141] Setting up inception_4b/1x1
I0403 17:39:15.332795 14494 net.cpp:148] Top shape: 24 160 14 14 (752640)
I0403 17:39:15.332813 14494 net.cpp:156] Memory required for data: 949214496
I0403 17:39:15.332833 14494 layer_factory.hpp:77] Creating layer inception_4b/relu_1x1
I0403 17:39:15.332850 14494 net.cpp:91] Creating Layer inception_4b/relu_1x1
I0403 17:39:15.332870 14494 net.cpp:425] inception_4b/relu_1x1 <- inception_4b/1x1
I0403 17:39:15.332888 14494 net.cpp:386] inception_4b/relu_1x1 -> inception_4b/1x1 (in-place)
I0403 17:39:15.333070 14494 net.cpp:141] Setting up inception_4b/relu_1x1
I0403 17:39:15.333096 14494 net.cpp:148] Top shape: 24 160 14 14 (752640)
I0403 17:39:15.333111 14494 net.cpp:156] Memory required for data: 952225056
I0403 17:39:15.333127 14494 layer_factory.hpp:77] Creating layer inception_4b/3x3_reduce
I0403 17:39:15.333149 14494 net.cpp:91] Creating Layer inception_4b/3x3_reduce
I0403 17:39:15.333168 14494 net.cpp:425] inception_4b/3x3_reduce <- inception_4a/output_inception_4a/output_0_split_2
I0403 17:39:15.333189 14494 net.cpp:399] inception_4b/3x3_reduce -> inception_4b/3x3_reduce
I0403 17:39:15.334525 14494 net.cpp:141] Setting up inception_4b/3x3_reduce
I0403 17:39:15.334553 14494 net.cpp:148] Top shape: 24 112 14 14 (526848)
I0403 17:39:15.334569 14494 net.cpp:156] Memory required for data: 954332448
I0403 17:39:15.334589 14494 layer_factory.hpp:77] Creating layer inception_4b/relu_3x3_reduce
I0403 17:39:15.334609 14494 net.cpp:91] Creating Layer inception_4b/relu_3x3_reduce
I0403 17:39:15.334626 14494 net.cpp:425] inception_4b/relu_3x3_reduce <- inception_4b/3x3_reduce
I0403 17:39:15.334645 14494 net.cpp:386] inception_4b/relu_3x3_reduce -> inception_4b/3x3_reduce (in-place)
I0403 17:39:15.334925 14494 net.cpp:141] Setting up inception_4b/relu_3x3_reduce
I0403 17:39:15.334956 14494 net.cpp:148] Top shape: 24 112 14 14 (526848)
I0403 17:39:15.334974 14494 net.cpp:156] Memory required for data: 956439840
I0403 17:39:15.334990 14494 layer_factory.hpp:77] Creating layer inception_4b/3x3
I0403 17:39:15.335011 14494 net.cpp:91] Creating Layer inception_4b/3x3
I0403 17:39:15.335031 14494 net.cpp:425] inception_4b/3x3 <- inception_4b/3x3_reduce
I0403 17:39:15.335050 14494 net.cpp:399] inception_4b/3x3 -> inception_4b/3x3
I0403 17:39:15.338001 14494 net.cpp:141] Setting up inception_4b/3x3
I0403 17:39:15.338032 14494 net.cpp:148] Top shape: 24 224 14 14 (1053696)
I0403 17:39:15.338049 14494 net.cpp:156] Memory required for data: 960654624
I0403 17:39:15.338068 14494 layer_factory.hpp:77] Creating layer inception_4b/relu_3x3
I0403 17:39:15.338086 14494 net.cpp:91] Creating Layer inception_4b/relu_3x3
I0403 17:39:15.338104 14494 net.cpp:425] inception_4b/relu_3x3 <- inception_4b/3x3
I0403 17:39:15.338124 14494 net.cpp:386] inception_4b/relu_3x3 -> inception_4b/3x3 (in-place)
I0403 17:39:15.338306 14494 net.cpp:141] Setting up inception_4b/relu_3x3
I0403 17:39:15.338332 14494 net.cpp:148] Top shape: 24 224 14 14 (1053696)
I0403 17:39:15.338348 14494 net.cpp:156] Memory required for data: 964869408
I0403 17:39:15.338363 14494 layer_factory.hpp:77] Creating layer inception_4b/5x5_reduce
I0403 17:39:15.338385 14494 net.cpp:91] Creating Layer inception_4b/5x5_reduce
I0403 17:39:15.338403 14494 net.cpp:425] inception_4b/5x5_reduce <- inception_4a/output_inception_4a/output_0_split_3
I0403 17:39:15.338428 14494 net.cpp:399] inception_4b/5x5_reduce -> inception_4b/5x5_reduce
I0403 17:39:15.339512 14494 net.cpp:141] Setting up inception_4b/5x5_reduce
I0403 17:39:15.339541 14494 net.cpp:148] Top shape: 24 24 14 14 (112896)
I0403 17:39:15.339557 14494 net.cpp:156] Memory required for data: 965320992
I0403 17:39:15.339576 14494 layer_factory.hpp:77] Creating layer inception_4b/relu_5x5_reduce
I0403 17:39:15.339598 14494 net.cpp:91] Creating Layer inception_4b/relu_5x5_reduce
I0403 17:39:15.339629 14494 net.cpp:425] inception_4b/relu_5x5_reduce <- inception_4b/5x5_reduce
I0403 17:39:15.339648 14494 net.cpp:386] inception_4b/relu_5x5_reduce -> inception_4b/5x5_reduce (in-place)
I0403 17:39:15.339828 14494 net.cpp:141] Setting up inception_4b/relu_5x5_reduce
I0403 17:39:15.339854 14494 net.cpp:148] Top shape: 24 24 14 14 (112896)
I0403 17:39:15.339871 14494 net.cpp:156] Memory required for data: 965772576
I0403 17:39:15.339886 14494 layer_factory.hpp:77] Creating layer inception_4b/5x5
I0403 17:39:15.339907 14494 net.cpp:91] Creating Layer inception_4b/5x5
I0403 17:39:15.339926 14494 net.cpp:425] inception_4b/5x5 <- inception_4b/5x5_reduce
I0403 17:39:15.339949 14494 net.cpp:399] inception_4b/5x5 -> inception_4b/5x5
I0403 17:39:15.341179 14494 net.cpp:141] Setting up inception_4b/5x5
I0403 17:39:15.341207 14494 net.cpp:148] Top shape: 24 64 14 14 (301056)
I0403 17:39:15.341223 14494 net.cpp:156] Memory required for data: 966976800
I0403 17:39:15.341243 14494 layer_factory.hpp:77] Creating layer inception_4b/relu_5x5
I0403 17:39:15.341261 14494 net.cpp:91] Creating Layer inception_4b/relu_5x5
I0403 17:39:15.341280 14494 net.cpp:425] inception_4b/relu_5x5 <- inception_4b/5x5
I0403 17:39:15.341298 14494 net.cpp:386] inception_4b/relu_5x5 -> inception_4b/5x5 (in-place)
I0403 17:39:15.341588 14494 net.cpp:141] Setting up inception_4b/relu_5x5
I0403 17:39:15.341614 14494 net.cpp:148] Top shape: 24 64 14 14 (301056)
I0403 17:39:15.341629 14494 net.cpp:156] Memory required for data: 968181024
I0403 17:39:15.341645 14494 layer_factory.hpp:77] Creating layer inception_4b/pool
I0403 17:39:15.341662 14494 net.cpp:91] Creating Layer inception_4b/pool
I0403 17:39:15.341680 14494 net.cpp:425] inception_4b/pool <- inception_4a/output_inception_4a/output_0_split_4
I0403 17:39:15.341702 14494 net.cpp:399] inception_4b/pool -> inception_4b/pool
I0403 17:39:15.341766 14494 net.cpp:141] Setting up inception_4b/pool
I0403 17:39:15.341792 14494 net.cpp:148] Top shape: 24 512 14 14 (2408448)
I0403 17:39:15.341809 14494 net.cpp:156] Memory required for data: 977814816
I0403 17:39:15.341825 14494 layer_factory.hpp:77] Creating layer inception_4b/pool_proj
I0403 17:39:15.341846 14494 net.cpp:91] Creating Layer inception_4b/pool_proj
I0403 17:39:15.341864 14494 net.cpp:425] inception_4b/pool_proj <- inception_4b/pool
I0403 17:39:15.341883 14494 net.cpp:399] inception_4b/pool_proj -> inception_4b/pool_proj
I0403 17:39:15.343078 14494 net.cpp:141] Setting up inception_4b/pool_proj
I0403 17:39:15.343106 14494 net.cpp:148] Top shape: 24 64 14 14 (301056)
I0403 17:39:15.343122 14494 net.cpp:156] Memory required for data: 979019040
I0403 17:39:15.343140 14494 layer_factory.hpp:77] Creating layer inception_4b/relu_pool_proj
I0403 17:39:15.343161 14494 net.cpp:91] Creating Layer inception_4b/relu_pool_proj
I0403 17:39:15.343179 14494 net.cpp:425] inception_4b/relu_pool_proj <- inception_4b/pool_proj
I0403 17:39:15.343197 14494 net.cpp:386] inception_4b/relu_pool_proj -> inception_4b/pool_proj (in-place)
I0403 17:39:15.343377 14494 net.cpp:141] Setting up inception_4b/relu_pool_proj
I0403 17:39:15.343403 14494 net.cpp:148] Top shape: 24 64 14 14 (301056)
I0403 17:39:15.343418 14494 net.cpp:156] Memory required for data: 980223264
I0403 17:39:15.343433 14494 layer_factory.hpp:77] Creating layer inception_4b/output
I0403 17:39:15.343453 14494 net.cpp:91] Creating Layer inception_4b/output
I0403 17:39:15.343471 14494 net.cpp:425] inception_4b/output <- inception_4b/1x1
I0403 17:39:15.343487 14494 net.cpp:425] inception_4b/output <- inception_4b/3x3
I0403 17:39:15.343504 14494 net.cpp:425] inception_4b/output <- inception_4b/5x5
I0403 17:39:15.343520 14494 net.cpp:425] inception_4b/output <- inception_4b/pool_proj
I0403 17:39:15.343538 14494 net.cpp:399] inception_4b/output -> inception_4b/output
I0403 17:39:15.343585 14494 net.cpp:141] Setting up inception_4b/output
I0403 17:39:15.343607 14494 net.cpp:148] Top shape: 24 512 14 14 (2408448)
I0403 17:39:15.343622 14494 net.cpp:156] Memory required for data: 989857056
I0403 17:39:15.343650 14494 layer_factory.hpp:77] Creating layer inception_4b/output_inception_4b/output_0_split
I0403 17:39:15.343669 14494 net.cpp:91] Creating Layer inception_4b/output_inception_4b/output_0_split
I0403 17:39:15.343685 14494 net.cpp:425] inception_4b/output_inception_4b/output_0_split <- inception_4b/output
I0403 17:39:15.343704 14494 net.cpp:399] inception_4b/output_inception_4b/output_0_split -> inception_4b/output_inception_4b/output_0_split_0
I0403 17:39:15.343726 14494 net.cpp:399] inception_4b/output_inception_4b/output_0_split -> inception_4b/output_inception_4b/output_0_split_1
I0403 17:39:15.343747 14494 net.cpp:399] inception_4b/output_inception_4b/output_0_split -> inception_4b/output_inception_4b/output_0_split_2
I0403 17:39:15.343767 14494 net.cpp:399] inception_4b/output_inception_4b/output_0_split -> inception_4b/output_inception_4b/output_0_split_3
I0403 17:39:15.343852 14494 net.cpp:141] Setting up inception_4b/output_inception_4b/output_0_split
I0403 17:39:15.343878 14494 net.cpp:148] Top shape: 24 512 14 14 (2408448)
I0403 17:39:15.343895 14494 net.cpp:148] Top shape: 24 512 14 14 (2408448)
I0403 17:39:15.343911 14494 net.cpp:148] Top shape: 24 512 14 14 (2408448)
I0403 17:39:15.343927 14494 net.cpp:148] Top shape: 24 512 14 14 (2408448)
I0403 17:39:15.343942 14494 net.cpp:156] Memory required for data: 1028392224
I0403 17:39:15.343962 14494 layer_factory.hpp:77] Creating layer inception_4c/1x1
I0403 17:39:15.343986 14494 net.cpp:91] Creating Layer inception_4c/1x1
I0403 17:39:15.344003 14494 net.cpp:425] inception_4c/1x1 <- inception_4b/output_inception_4b/output_0_split_0
I0403 17:39:15.344022 14494 net.cpp:399] inception_4c/1x1 -> inception_4c/1x1
I0403 17:39:15.345510 14494 net.cpp:141] Setting up inception_4c/1x1
I0403 17:39:15.345537 14494 net.cpp:148] Top shape: 24 128 14 14 (602112)
I0403 17:39:15.345553 14494 net.cpp:156] Memory required for data: 1030800672
I0403 17:39:15.345572 14494 layer_factory.hpp:77] Creating layer inception_4c/relu_1x1
I0403 17:39:15.345594 14494 net.cpp:91] Creating Layer inception_4c/relu_1x1
I0403 17:39:15.345613 14494 net.cpp:425] inception_4c/relu_1x1 <- inception_4c/1x1
I0403 17:39:15.345629 14494 net.cpp:386] inception_4c/relu_1x1 -> inception_4c/1x1 (in-place)
I0403 17:39:15.345809 14494 net.cpp:141] Setting up inception_4c/relu_1x1
I0403 17:39:15.345847 14494 net.cpp:148] Top shape: 24 128 14 14 (602112)
I0403 17:39:15.345863 14494 net.cpp:156] Memory required for data: 1033209120
I0403 17:39:15.345878 14494 layer_factory.hpp:77] Creating layer inception_4c/3x3_reduce
I0403 17:39:15.345902 14494 net.cpp:91] Creating Layer inception_4c/3x3_reduce
I0403 17:39:15.345921 14494 net.cpp:425] inception_4c/3x3_reduce <- inception_4b/output_inception_4b/output_0_split_1
I0403 17:39:15.345944 14494 net.cpp:399] inception_4c/3x3_reduce -> inception_4c/3x3_reduce
I0403 17:39:15.347888 14494 net.cpp:141] Setting up inception_4c/3x3_reduce
I0403 17:39:15.347916 14494 net.cpp:148] Top shape: 24 128 14 14 (602112)
I0403 17:39:15.347934 14494 net.cpp:156] Memory required for data: 1035617568
I0403 17:39:15.347955 14494 layer_factory.hpp:77] Creating layer inception_4c/relu_3x3_reduce
I0403 17:39:15.347975 14494 net.cpp:91] Creating Layer inception_4c/relu_3x3_reduce
I0403 17:39:15.347991 14494 net.cpp:425] inception_4c/relu_3x3_reduce <- inception_4c/3x3_reduce
I0403 17:39:15.348011 14494 net.cpp:386] inception_4c/relu_3x3_reduce -> inception_4c/3x3_reduce (in-place)
I0403 17:39:15.348299 14494 net.cpp:141] Setting up inception_4c/relu_3x3_reduce
I0403 17:39:15.348325 14494 net.cpp:148] Top shape: 24 128 14 14 (602112)
I0403 17:39:15.348340 14494 net.cpp:156] Memory required for data: 1038026016
I0403 17:39:15.348356 14494 layer_factory.hpp:77] Creating layer inception_4c/3x3
I0403 17:39:15.348379 14494 net.cpp:91] Creating Layer inception_4c/3x3
I0403 17:39:15.348397 14494 net.cpp:425] inception_4c/3x3 <- inception_4c/3x3_reduce
I0403 17:39:15.348418 14494 net.cpp:399] inception_4c/3x3 -> inception_4c/3x3
I0403 17:39:15.351984 14494 net.cpp:141] Setting up inception_4c/3x3
I0403 17:39:15.352022 14494 net.cpp:148] Top shape: 24 256 14 14 (1204224)
I0403 17:39:15.352040 14494 net.cpp:156] Memory required for data: 1042842912
I0403 17:39:15.352071 14494 layer_factory.hpp:77] Creating layer inception_4c/relu_3x3
I0403 17:39:15.352093 14494 net.cpp:91] Creating Layer inception_4c/relu_3x3
I0403 17:39:15.352110 14494 net.cpp:425] inception_4c/relu_3x3 <- inception_4c/3x3
I0403 17:39:15.352128 14494 net.cpp:386] inception_4c/relu_3x3 -> inception_4c/3x3 (in-place)
I0403 17:39:15.352304 14494 net.cpp:141] Setting up inception_4c/relu_3x3
I0403 17:39:15.352329 14494 net.cpp:148] Top shape: 24 256 14 14 (1204224)
I0403 17:39:15.352344 14494 net.cpp:156] Memory required for data: 1047659808
I0403 17:39:15.352360 14494 layer_factory.hpp:77] Creating layer inception_4c/5x5_reduce
I0403 17:39:15.352382 14494 net.cpp:91] Creating Layer inception_4c/5x5_reduce
I0403 17:39:15.352401 14494 net.cpp:425] inception_4c/5x5_reduce <- inception_4b/output_inception_4b/output_0_split_2
I0403 17:39:15.352421 14494 net.cpp:399] inception_4c/5x5_reduce -> inception_4c/5x5_reduce
I0403 17:39:15.353477 14494 net.cpp:141] Setting up inception_4c/5x5_reduce
I0403 17:39:15.353503 14494 net.cpp:148] Top shape: 24 24 14 14 (112896)
I0403 17:39:15.353518 14494 net.cpp:156] Memory required for data: 1048111392
I0403 17:39:15.353538 14494 layer_factory.hpp:77] Creating layer inception_4c/relu_5x5_reduce
I0403 17:39:15.353555 14494 net.cpp:91] Creating Layer inception_4c/relu_5x5_reduce
I0403 17:39:15.353571 14494 net.cpp:425] inception_4c/relu_5x5_reduce <- inception_4c/5x5_reduce
I0403 17:39:15.353590 14494 net.cpp:386] inception_4c/relu_5x5_reduce -> inception_4c/5x5_reduce (in-place)
I0403 17:39:15.353770 14494 net.cpp:141] Setting up inception_4c/relu_5x5_reduce
I0403 17:39:15.353795 14494 net.cpp:148] Top shape: 24 24 14 14 (112896)
I0403 17:39:15.353809 14494 net.cpp:156] Memory required for data: 1048562976
I0403 17:39:15.353826 14494 layer_factory.hpp:77] Creating layer inception_4c/5x5
I0403 17:39:15.353847 14494 net.cpp:91] Creating Layer inception_4c/5x5
I0403 17:39:15.353864 14494 net.cpp:425] inception_4c/5x5 <- inception_4c/5x5_reduce
I0403 17:39:15.353884 14494 net.cpp:399] inception_4c/5x5 -> inception_4c/5x5
I0403 17:39:15.355103 14494 net.cpp:141] Setting up inception_4c/5x5
I0403 17:39:15.355129 14494 net.cpp:148] Top shape: 24 64 14 14 (301056)
I0403 17:39:15.355145 14494 net.cpp:156] Memory required for data: 1049767200
I0403 17:39:15.355165 14494 layer_factory.hpp:77] Creating layer inception_4c/relu_5x5
I0403 17:39:15.355185 14494 net.cpp:91] Creating Layer inception_4c/relu_5x5
I0403 17:39:15.355203 14494 net.cpp:425] inception_4c/relu_5x5 <- inception_4c/5x5
I0403 17:39:15.355221 14494 net.cpp:386] inception_4c/relu_5x5 -> inception_4c/5x5 (in-place)
I0403 17:39:15.355505 14494 net.cpp:141] Setting up inception_4c/relu_5x5
I0403 17:39:15.355530 14494 net.cpp:148] Top shape: 24 64 14 14 (301056)
I0403 17:39:15.355546 14494 net.cpp:156] Memory required for data: 1050971424
I0403 17:39:15.355561 14494 layer_factory.hpp:77] Creating layer inception_4c/pool
I0403 17:39:15.355581 14494 net.cpp:91] Creating Layer inception_4c/pool
I0403 17:39:15.355598 14494 net.cpp:425] inception_4c/pool <- inception_4b/output_inception_4b/output_0_split_3
I0403 17:39:15.355615 14494 net.cpp:399] inception_4c/pool -> inception_4c/pool
I0403 17:39:15.355679 14494 net.cpp:141] Setting up inception_4c/pool
I0403 17:39:15.355703 14494 net.cpp:148] Top shape: 24 512 14 14 (2408448)
I0403 17:39:15.355718 14494 net.cpp:156] Memory required for data: 1060605216
I0403 17:39:15.355732 14494 layer_factory.hpp:77] Creating layer inception_4c/pool_proj
I0403 17:39:15.355754 14494 net.cpp:91] Creating Layer inception_4c/pool_proj
I0403 17:39:15.355772 14494 net.cpp:425] inception_4c/pool_proj <- inception_4c/pool
I0403 17:39:15.355792 14494 net.cpp:399] inception_4c/pool_proj -> inception_4c/pool_proj
I0403 17:39:15.356986 14494 net.cpp:141] Setting up inception_4c/pool_proj
I0403 17:39:15.357013 14494 net.cpp:148] Top shape: 24 64 14 14 (301056)
I0403 17:39:15.357044 14494 net.cpp:156] Memory required for data: 1061809440
I0403 17:39:15.357064 14494 layer_factory.hpp:77] Creating layer inception_4c/relu_pool_proj
I0403 17:39:15.357084 14494 net.cpp:91] Creating Layer inception_4c/relu_pool_proj
I0403 17:39:15.357101 14494 net.cpp:425] inception_4c/relu_pool_proj <- inception_4c/pool_proj
I0403 17:39:15.357120 14494 net.cpp:386] inception_4c/relu_pool_proj -> inception_4c/pool_proj (in-place)
I0403 17:39:15.357296 14494 net.cpp:141] Setting up inception_4c/relu_pool_proj
I0403 17:39:15.357321 14494 net.cpp:148] Top shape: 24 64 14 14 (301056)
I0403 17:39:15.357336 14494 net.cpp:156] Memory required for data: 1063013664
I0403 17:39:15.357352 14494 layer_factory.hpp:77] Creating layer inception_4c/output
I0403 17:39:15.357370 14494 net.cpp:91] Creating Layer inception_4c/output
I0403 17:39:15.357388 14494 net.cpp:425] inception_4c/output <- inception_4c/1x1
I0403 17:39:15.357404 14494 net.cpp:425] inception_4c/output <- inception_4c/3x3
I0403 17:39:15.357420 14494 net.cpp:425] inception_4c/output <- inception_4c/5x5
I0403 17:39:15.357435 14494 net.cpp:425] inception_4c/output <- inception_4c/pool_proj
I0403 17:39:15.357452 14494 net.cpp:399] inception_4c/output -> inception_4c/output
I0403 17:39:15.357498 14494 net.cpp:141] Setting up inception_4c/output
I0403 17:39:15.357522 14494 net.cpp:148] Top shape: 24 512 14 14 (2408448)
I0403 17:39:15.357535 14494 net.cpp:156] Memory required for data: 1072647456
I0403 17:39:15.357549 14494 layer_factory.hpp:77] Creating layer inception_4c/output_inception_4c/output_0_split
I0403 17:39:15.357566 14494 net.cpp:91] Creating Layer inception_4c/output_inception_4c/output_0_split
I0403 17:39:15.357581 14494 net.cpp:425] inception_4c/output_inception_4c/output_0_split <- inception_4c/output
I0403 17:39:15.357600 14494 net.cpp:399] inception_4c/output_inception_4c/output_0_split -> inception_4c/output_inception_4c/output_0_split_0
I0403 17:39:15.357621 14494 net.cpp:399] inception_4c/output_inception_4c/output_0_split -> inception_4c/output_inception_4c/output_0_split_1
I0403 17:39:15.357642 14494 net.cpp:399] inception_4c/output_inception_4c/output_0_split -> inception_4c/output_inception_4c/output_0_split_2
I0403 17:39:15.357662 14494 net.cpp:399] inception_4c/output_inception_4c/output_0_split -> inception_4c/output_inception_4c/output_0_split_3
I0403 17:39:15.357748 14494 net.cpp:141] Setting up inception_4c/output_inception_4c/output_0_split
I0403 17:39:15.357772 14494 net.cpp:148] Top shape: 24 512 14 14 (2408448)
I0403 17:39:15.357789 14494 net.cpp:148] Top shape: 24 512 14 14 (2408448)
I0403 17:39:15.357805 14494 net.cpp:148] Top shape: 24 512 14 14 (2408448)
I0403 17:39:15.357820 14494 net.cpp:148] Top shape: 24 512 14 14 (2408448)
I0403 17:39:15.357834 14494 net.cpp:156] Memory required for data: 1111182624
I0403 17:39:15.357849 14494 layer_factory.hpp:77] Creating layer inception_4d/1x1
I0403 17:39:15.357870 14494 net.cpp:91] Creating Layer inception_4d/1x1
I0403 17:39:15.357888 14494 net.cpp:425] inception_4d/1x1 <- inception_4c/output_inception_4c/output_0_split_0
I0403 17:39:15.357908 14494 net.cpp:399] inception_4d/1x1 -> inception_4d/1x1
I0403 17:39:15.359285 14494 net.cpp:141] Setting up inception_4d/1x1
I0403 17:39:15.359314 14494 net.cpp:148] Top shape: 24 112 14 14 (526848)
I0403 17:39:15.359330 14494 net.cpp:156] Memory required for data: 1113290016
I0403 17:39:15.359349 14494 layer_factory.hpp:77] Creating layer inception_4d/relu_1x1
I0403 17:39:15.359367 14494 net.cpp:91] Creating Layer inception_4d/relu_1x1
I0403 17:39:15.359383 14494 net.cpp:425] inception_4d/relu_1x1 <- inception_4d/1x1
I0403 17:39:15.359403 14494 net.cpp:386] inception_4d/relu_1x1 -> inception_4d/1x1 (in-place)
I0403 17:39:15.359583 14494 net.cpp:141] Setting up inception_4d/relu_1x1
I0403 17:39:15.359608 14494 net.cpp:148] Top shape: 24 112 14 14 (526848)
I0403 17:39:15.359623 14494 net.cpp:156] Memory required for data: 1115397408
I0403 17:39:15.359637 14494 layer_factory.hpp:77] Creating layer inception_4d/3x3_reduce
I0403 17:39:15.359673 14494 net.cpp:91] Creating Layer inception_4d/3x3_reduce
I0403 17:39:15.359693 14494 net.cpp:425] inception_4d/3x3_reduce <- inception_4c/output_inception_4c/output_0_split_1
I0403 17:39:15.359714 14494 net.cpp:399] inception_4d/3x3_reduce -> inception_4d/3x3_reduce
I0403 17:39:15.361182 14494 net.cpp:141] Setting up inception_4d/3x3_reduce
I0403 17:39:15.361213 14494 net.cpp:148] Top shape: 24 144 14 14 (677376)
I0403 17:39:15.361229 14494 net.cpp:156] Memory required for data: 1118106912
I0403 17:39:15.361248 14494 layer_factory.hpp:77] Creating layer inception_4d/relu_3x3_reduce
I0403 17:39:15.361265 14494 net.cpp:91] Creating Layer inception_4d/relu_3x3_reduce
I0403 17:39:15.361282 14494 net.cpp:425] inception_4d/relu_3x3_reduce <- inception_4d/3x3_reduce
I0403 17:39:15.361299 14494 net.cpp:386] inception_4d/relu_3x3_reduce -> inception_4d/3x3_reduce (in-place)
I0403 17:39:15.361579 14494 net.cpp:141] Setting up inception_4d/relu_3x3_reduce
I0403 17:39:15.361608 14494 net.cpp:148] Top shape: 24 144 14 14 (677376)
I0403 17:39:15.361624 14494 net.cpp:156] Memory required for data: 1120816416
I0403 17:39:15.361639 14494 layer_factory.hpp:77] Creating layer inception_4d/3x3
I0403 17:39:15.361660 14494 net.cpp:91] Creating Layer inception_4d/3x3
I0403 17:39:15.361676 14494 net.cpp:425] inception_4d/3x3 <- inception_4d/3x3_reduce
I0403 17:39:15.361697 14494 net.cpp:399] inception_4d/3x3 -> inception_4d/3x3
I0403 17:39:15.365849 14494 net.cpp:141] Setting up inception_4d/3x3
I0403 17:39:15.365875 14494 net.cpp:148] Top shape: 24 288 14 14 (1354752)
I0403 17:39:15.365890 14494 net.cpp:156] Memory required for data: 1126235424
I0403 17:39:15.365909 14494 layer_factory.hpp:77] Creating layer inception_4d/relu_3x3
I0403 17:39:15.365927 14494 net.cpp:91] Creating Layer inception_4d/relu_3x3
I0403 17:39:15.365943 14494 net.cpp:425] inception_4d/relu_3x3 <- inception_4d/3x3
I0403 17:39:15.365967 14494 net.cpp:386] inception_4d/relu_3x3 -> inception_4d/3x3 (in-place)
I0403 17:39:15.366149 14494 net.cpp:141] Setting up inception_4d/relu_3x3
I0403 17:39:15.366173 14494 net.cpp:148] Top shape: 24 288 14 14 (1354752)
I0403 17:39:15.366189 14494 net.cpp:156] Memory required for data: 1131654432
I0403 17:39:15.366204 14494 layer_factory.hpp:77] Creating layer inception_4d/5x5_reduce
I0403 17:39:15.366226 14494 net.cpp:91] Creating Layer inception_4d/5x5_reduce
I0403 17:39:15.366245 14494 net.cpp:425] inception_4d/5x5_reduce <- inception_4c/output_inception_4c/output_0_split_2
I0403 17:39:15.366264 14494 net.cpp:399] inception_4d/5x5_reduce -> inception_4d/5x5_reduce
I0403 17:39:15.367378 14494 net.cpp:141] Setting up inception_4d/5x5_reduce
I0403 17:39:15.367408 14494 net.cpp:148] Top shape: 24 32 14 14 (150528)
I0403 17:39:15.367424 14494 net.cpp:156] Memory required for data: 1132256544
I0403 17:39:15.367442 14494 layer_factory.hpp:77] Creating layer inception_4d/relu_5x5_reduce
I0403 17:39:15.367460 14494 net.cpp:91] Creating Layer inception_4d/relu_5x5_reduce
I0403 17:39:15.367475 14494 net.cpp:425] inception_4d/relu_5x5_reduce <- inception_4d/5x5_reduce
I0403 17:39:15.367494 14494 net.cpp:386] inception_4d/relu_5x5_reduce -> inception_4d/5x5_reduce (in-place)
I0403 17:39:15.367681 14494 net.cpp:141] Setting up inception_4d/relu_5x5_reduce
I0403 17:39:15.367707 14494 net.cpp:148] Top shape: 24 32 14 14 (150528)
I0403 17:39:15.367722 14494 net.cpp:156] Memory required for data: 1132858656
I0403 17:39:15.367738 14494 layer_factory.hpp:77] Creating layer inception_4d/5x5
I0403 17:39:15.367759 14494 net.cpp:91] Creating Layer inception_4d/5x5
I0403 17:39:15.367776 14494 net.cpp:425] inception_4d/5x5 <- inception_4d/5x5_reduce
I0403 17:39:15.367797 14494 net.cpp:399] inception_4d/5x5 -> inception_4d/5x5
I0403 17:39:15.369240 14494 net.cpp:141] Setting up inception_4d/5x5
I0403 17:39:15.369266 14494 net.cpp:148] Top shape: 24 64 14 14 (301056)
I0403 17:39:15.369283 14494 net.cpp:156] Memory required for data: 1134062880
I0403 17:39:15.369303 14494 layer_factory.hpp:77] Creating layer inception_4d/relu_5x5
I0403 17:39:15.369338 14494 net.cpp:91] Creating Layer inception_4d/relu_5x5
I0403 17:39:15.369355 14494 net.cpp:425] inception_4d/relu_5x5 <- inception_4d/5x5
I0403 17:39:15.369374 14494 net.cpp:386] inception_4d/relu_5x5 -> inception_4d/5x5 (in-place)
I0403 17:39:15.369673 14494 net.cpp:141] Setting up inception_4d/relu_5x5
I0403 17:39:15.369698 14494 net.cpp:148] Top shape: 24 64 14 14 (301056)
I0403 17:39:15.369712 14494 net.cpp:156] Memory required for data: 1135267104
I0403 17:39:15.369727 14494 layer_factory.hpp:77] Creating layer inception_4d/pool
I0403 17:39:15.369747 14494 net.cpp:91] Creating Layer inception_4d/pool
I0403 17:39:15.369765 14494 net.cpp:425] inception_4d/pool <- inception_4c/output_inception_4c/output_0_split_3
I0403 17:39:15.369782 14494 net.cpp:399] inception_4d/pool -> inception_4d/pool
I0403 17:39:15.369849 14494 net.cpp:141] Setting up inception_4d/pool
I0403 17:39:15.369873 14494 net.cpp:148] Top shape: 24 512 14 14 (2408448)
I0403 17:39:15.369887 14494 net.cpp:156] Memory required for data: 1144900896
I0403 17:39:15.369902 14494 layer_factory.hpp:77] Creating layer inception_4d/pool_proj
I0403 17:39:15.369925 14494 net.cpp:91] Creating Layer inception_4d/pool_proj
I0403 17:39:15.369941 14494 net.cpp:425] inception_4d/pool_proj <- inception_4d/pool
I0403 17:39:15.369967 14494 net.cpp:399] inception_4d/pool_proj -> inception_4d/pool_proj
I0403 17:39:15.371722 14494 net.cpp:141] Setting up inception_4d/pool_proj
I0403 17:39:15.371750 14494 net.cpp:148] Top shape: 24 64 14 14 (301056)
I0403 17:39:15.371767 14494 net.cpp:156] Memory required for data: 1146105120
I0403 17:39:15.371785 14494 layer_factory.hpp:77] Creating layer inception_4d/relu_pool_proj
I0403 17:39:15.371804 14494 net.cpp:91] Creating Layer inception_4d/relu_pool_proj
I0403 17:39:15.371820 14494 net.cpp:425] inception_4d/relu_pool_proj <- inception_4d/pool_proj
I0403 17:39:15.371842 14494 net.cpp:386] inception_4d/relu_pool_proj -> inception_4d/pool_proj (in-place)
I0403 17:39:15.372033 14494 net.cpp:141] Setting up inception_4d/relu_pool_proj
I0403 17:39:15.372059 14494 net.cpp:148] Top shape: 24 64 14 14 (301056)
I0403 17:39:15.372076 14494 net.cpp:156] Memory required for data: 1147309344
I0403 17:39:15.372092 14494 layer_factory.hpp:77] Creating layer inception_4d/output
I0403 17:39:15.372109 14494 net.cpp:91] Creating Layer inception_4d/output
I0403 17:39:15.372128 14494 net.cpp:425] inception_4d/output <- inception_4d/1x1
I0403 17:39:15.372146 14494 net.cpp:425] inception_4d/output <- inception_4d/3x3
I0403 17:39:15.372162 14494 net.cpp:425] inception_4d/output <- inception_4d/5x5
I0403 17:39:15.372179 14494 net.cpp:425] inception_4d/output <- inception_4d/pool_proj
I0403 17:39:15.372195 14494 net.cpp:399] inception_4d/output -> inception_4d/output
I0403 17:39:15.372242 14494 net.cpp:141] Setting up inception_4d/output
I0403 17:39:15.372268 14494 net.cpp:148] Top shape: 24 528 14 14 (2483712)
I0403 17:39:15.372285 14494 net.cpp:156] Memory required for data: 1157244192
I0403 17:39:15.372300 14494 layer_factory.hpp:77] Creating layer inception_4d/output_inception_4d/output_0_split
I0403 17:39:15.372318 14494 net.cpp:91] Creating Layer inception_4d/output_inception_4d/output_0_split
I0403 17:39:15.372334 14494 net.cpp:425] inception_4d/output_inception_4d/output_0_split <- inception_4d/output
I0403 17:39:15.372354 14494 net.cpp:399] inception_4d/output_inception_4d/output_0_split -> inception_4d/output_inception_4d/output_0_split_0
I0403 17:39:15.372376 14494 net.cpp:399] inception_4d/output_inception_4d/output_0_split -> inception_4d/output_inception_4d/output_0_split_1
I0403 17:39:15.372397 14494 net.cpp:399] inception_4d/output_inception_4d/output_0_split -> inception_4d/output_inception_4d/output_0_split_2
I0403 17:39:15.372417 14494 net.cpp:399] inception_4d/output_inception_4d/output_0_split -> inception_4d/output_inception_4d/output_0_split_3
I0403 17:39:15.372438 14494 net.cpp:399] inception_4d/output_inception_4d/output_0_split -> inception_4d/output_inception_4d/output_0_split_4
I0403 17:39:15.372541 14494 net.cpp:141] Setting up inception_4d/output_inception_4d/output_0_split
I0403 17:39:15.372577 14494 net.cpp:148] Top shape: 24 528 14 14 (2483712)
I0403 17:39:15.372596 14494 net.cpp:148] Top shape: 24 528 14 14 (2483712)
I0403 17:39:15.372614 14494 net.cpp:148] Top shape: 24 528 14 14 (2483712)
I0403 17:39:15.372630 14494 net.cpp:148] Top shape: 24 528 14 14 (2483712)
I0403 17:39:15.372647 14494 net.cpp:148] Top shape: 24 528 14 14 (2483712)
I0403 17:39:15.372660 14494 net.cpp:156] Memory required for data: 1206918432
I0403 17:39:15.372676 14494 layer_factory.hpp:77] Creating layer loss2/ave_pool
I0403 17:39:15.372694 14494 net.cpp:91] Creating Layer loss2/ave_pool
I0403 17:39:15.372711 14494 net.cpp:425] loss2/ave_pool <- inception_4d/output_inception_4d/output_0_split_0
I0403 17:39:15.372731 14494 net.cpp:399] loss2/ave_pool -> loss2/ave_pool
I0403 17:39:15.373052 14494 net.cpp:141] Setting up loss2/ave_pool
I0403 17:39:15.373080 14494 net.cpp:148] Top shape: 24 528 4 4 (202752)
I0403 17:39:15.373095 14494 net.cpp:156] Memory required for data: 1207729440
I0403 17:39:15.373111 14494 layer_factory.hpp:77] Creating layer loss2/conv
I0403 17:39:15.373133 14494 net.cpp:91] Creating Layer loss2/conv
I0403 17:39:15.373152 14494 net.cpp:425] loss2/conv <- loss2/ave_pool
I0403 17:39:15.373173 14494 net.cpp:399] loss2/conv -> loss2/conv
I0403 17:39:15.375071 14494 net.cpp:141] Setting up loss2/conv
I0403 17:39:15.375098 14494 net.cpp:148] Top shape: 24 128 4 4 (49152)
I0403 17:39:15.375114 14494 net.cpp:156] Memory required for data: 1207926048
I0403 17:39:15.375133 14494 layer_factory.hpp:77] Creating layer loss2/relu_conv
I0403 17:39:15.375154 14494 net.cpp:91] Creating Layer loss2/relu_conv
I0403 17:39:15.375172 14494 net.cpp:425] loss2/relu_conv <- loss2/conv
I0403 17:39:15.375190 14494 net.cpp:386] loss2/relu_conv -> loss2/conv (in-place)
I0403 17:39:15.375478 14494 net.cpp:141] Setting up loss2/relu_conv
I0403 17:39:15.375504 14494 net.cpp:148] Top shape: 24 128 4 4 (49152)
I0403 17:39:15.375519 14494 net.cpp:156] Memory required for data: 1208122656
I0403 17:39:15.375535 14494 layer_factory.hpp:77] Creating layer loss2/fc
I0403 17:39:15.375557 14494 net.cpp:91] Creating Layer loss2/fc
I0403 17:39:15.375576 14494 net.cpp:425] loss2/fc <- loss2/conv
I0403 17:39:15.375594 14494 net.cpp:399] loss2/fc -> loss2/fc
I0403 17:39:15.393067 14494 net.cpp:141] Setting up loss2/fc
I0403 17:39:15.393103 14494 net.cpp:148] Top shape: 24 1024 (24576)
I0403 17:39:15.393120 14494 net.cpp:156] Memory required for data: 1208220960
I0403 17:39:15.393138 14494 layer_factory.hpp:77] Creating layer loss2/relu_fc
I0403 17:39:15.393157 14494 net.cpp:91] Creating Layer loss2/relu_fc
I0403 17:39:15.393172 14494 net.cpp:425] loss2/relu_fc <- loss2/fc
I0403 17:39:15.393193 14494 net.cpp:386] loss2/relu_fc -> loss2/fc (in-place)
I0403 17:39:15.393489 14494 net.cpp:141] Setting up loss2/relu_fc
I0403 17:39:15.393515 14494 net.cpp:148] Top shape: 24 1024 (24576)
I0403 17:39:15.393530 14494 net.cpp:156] Memory required for data: 1208319264
I0403 17:39:15.393545 14494 layer_factory.hpp:77] Creating layer loss2/drop_fc
I0403 17:39:15.393563 14494 net.cpp:91] Creating Layer loss2/drop_fc
I0403 17:39:15.393579 14494 net.cpp:425] loss2/drop_fc <- loss2/fc
I0403 17:39:15.393599 14494 net.cpp:386] loss2/drop_fc -> loss2/fc (in-place)
I0403 17:39:15.393647 14494 net.cpp:141] Setting up loss2/drop_fc
I0403 17:39:15.393676 14494 net.cpp:148] Top shape: 24 1024 (24576)
I0403 17:39:15.393692 14494 net.cpp:156] Memory required for data: 1208417568
I0403 17:39:15.393707 14494 layer_factory.hpp:77] Creating layer loss2/classifier_plantvillage
I0403 17:39:15.393724 14494 net.cpp:91] Creating Layer loss2/classifier_plantvillage
I0403 17:39:15.393740 14494 net.cpp:425] loss2/classifier_plantvillage <- loss2/fc
I0403 17:39:15.393760 14494 net.cpp:399] loss2/classifier_plantvillage -> loss2/classifier_plantvillage
I0403 17:39:15.394153 14494 net.cpp:141] Setting up loss2/classifier_plantvillage
I0403 17:39:15.394179 14494 net.cpp:148] Top shape: 24 38 (912)
I0403 17:39:15.394217 14494 net.cpp:156] Memory required for data: 1208421216
I0403 17:39:15.394237 14494 layer_factory.hpp:77] Creating layer loss2/classifier_plantvillage_loss2/classifier_plantvillage_0_split
I0403 17:39:15.394254 14494 net.cpp:91] Creating Layer loss2/classifier_plantvillage_loss2/classifier_plantvillage_0_split
I0403 17:39:15.394270 14494 net.cpp:425] loss2/classifier_plantvillage_loss2/classifier_plantvillage_0_split <- loss2/classifier_plantvillage
I0403 17:39:15.394289 14494 net.cpp:399] loss2/classifier_plantvillage_loss2/classifier_plantvillage_0_split -> loss2/classifier_plantvillage_loss2/classifier_plantvillage_0_split_0
I0403 17:39:15.394309 14494 net.cpp:399] loss2/classifier_plantvillage_loss2/classifier_plantvillage_0_split -> loss2/classifier_plantvillage_loss2/classifier_plantvillage_0_split_1
I0403 17:39:15.394328 14494 net.cpp:399] loss2/classifier_plantvillage_loss2/classifier_plantvillage_0_split -> loss2/classifier_plantvillage_loss2/classifier_plantvillage_0_split_2
I0403 17:39:15.394404 14494 net.cpp:141] Setting up loss2/classifier_plantvillage_loss2/classifier_plantvillage_0_split
I0403 17:39:15.394428 14494 net.cpp:148] Top shape: 24 38 (912)
I0403 17:39:15.394443 14494 net.cpp:148] Top shape: 24 38 (912)
I0403 17:39:15.394459 14494 net.cpp:148] Top shape: 24 38 (912)
I0403 17:39:15.394474 14494 net.cpp:156] Memory required for data: 1208432160
I0403 17:39:15.394487 14494 layer_factory.hpp:77] Creating layer inception_4e/1x1
I0403 17:39:15.394506 14494 net.cpp:91] Creating Layer inception_4e/1x1
I0403 17:39:15.394523 14494 net.cpp:425] inception_4e/1x1 <- inception_4d/output_inception_4d/output_0_split_1
I0403 17:39:15.394544 14494 net.cpp:399] inception_4e/1x1 -> inception_4e/1x1
I0403 17:39:15.396323 14494 net.cpp:141] Setting up inception_4e/1x1
I0403 17:39:15.396350 14494 net.cpp:148] Top shape: 24 256 14 14 (1204224)
I0403 17:39:15.396365 14494 net.cpp:156] Memory required for data: 1213249056
I0403 17:39:15.396384 14494 layer_factory.hpp:77] Creating layer inception_4e/relu_1x1
I0403 17:39:15.396404 14494 net.cpp:91] Creating Layer inception_4e/relu_1x1
I0403 17:39:15.396420 14494 net.cpp:425] inception_4e/relu_1x1 <- inception_4e/1x1
I0403 17:39:15.396437 14494 net.cpp:386] inception_4e/relu_1x1 -> inception_4e/1x1 (in-place)
I0403 17:39:15.396728 14494 net.cpp:141] Setting up inception_4e/relu_1x1
I0403 17:39:15.396754 14494 net.cpp:148] Top shape: 24 256 14 14 (1204224)
I0403 17:39:15.396769 14494 net.cpp:156] Memory required for data: 1218065952
I0403 17:39:15.396783 14494 layer_factory.hpp:77] Creating layer inception_4e/3x3_reduce
I0403 17:39:15.396806 14494 net.cpp:91] Creating Layer inception_4e/3x3_reduce
I0403 17:39:15.396823 14494 net.cpp:425] inception_4e/3x3_reduce <- inception_4d/output_inception_4d/output_0_split_2
I0403 17:39:15.396845 14494 net.cpp:399] inception_4e/3x3_reduce -> inception_4e/3x3_reduce
I0403 17:39:15.398903 14494 net.cpp:141] Setting up inception_4e/3x3_reduce
I0403 17:39:15.398931 14494 net.cpp:148] Top shape: 24 160 14 14 (752640)
I0403 17:39:15.398957 14494 net.cpp:156] Memory required for data: 1221076512
I0403 17:39:15.398977 14494 layer_factory.hpp:77] Creating layer inception_4e/relu_3x3_reduce
I0403 17:39:15.398998 14494 net.cpp:91] Creating Layer inception_4e/relu_3x3_reduce
I0403 17:39:15.399015 14494 net.cpp:425] inception_4e/relu_3x3_reduce <- inception_4e/3x3_reduce
I0403 17:39:15.399034 14494 net.cpp:386] inception_4e/relu_3x3_reduce -> inception_4e/3x3_reduce (in-place)
I0403 17:39:15.399216 14494 net.cpp:141] Setting up inception_4e/relu_3x3_reduce
I0403 17:39:15.399241 14494 net.cpp:148] Top shape: 24 160 14 14 (752640)
I0403 17:39:15.399256 14494 net.cpp:156] Memory required for data: 1224087072
I0403 17:39:15.399271 14494 layer_factory.hpp:77] Creating layer inception_4e/3x3
I0403 17:39:15.399296 14494 net.cpp:91] Creating Layer inception_4e/3x3
I0403 17:39:15.399312 14494 net.cpp:425] inception_4e/3x3 <- inception_4e/3x3_reduce
I0403 17:39:15.399330 14494 net.cpp:399] inception_4e/3x3 -> inception_4e/3x3
I0403 17:39:15.404196 14494 net.cpp:141] Setting up inception_4e/3x3
I0403 17:39:15.404242 14494 net.cpp:148] Top shape: 24 320 14 14 (1505280)
I0403 17:39:15.404258 14494 net.cpp:156] Memory required for data: 1230108192
I0403 17:39:15.404276 14494 layer_factory.hpp:77] Creating layer inception_4e/relu_3x3
I0403 17:39:15.404296 14494 net.cpp:91] Creating Layer inception_4e/relu_3x3
I0403 17:39:15.404314 14494 net.cpp:425] inception_4e/relu_3x3 <- inception_4e/3x3
I0403 17:39:15.404330 14494 net.cpp:386] inception_4e/relu_3x3 -> inception_4e/3x3 (in-place)
I0403 17:39:15.404625 14494 net.cpp:141] Setting up inception_4e/relu_3x3
I0403 17:39:15.404654 14494 net.cpp:148] Top shape: 24 320 14 14 (1505280)
I0403 17:39:15.404670 14494 net.cpp:156] Memory required for data: 1236129312
I0403 17:39:15.404685 14494 layer_factory.hpp:77] Creating layer inception_4e/5x5_reduce
I0403 17:39:15.404707 14494 net.cpp:91] Creating Layer inception_4e/5x5_reduce
I0403 17:39:15.404726 14494 net.cpp:425] inception_4e/5x5_reduce <- inception_4d/output_inception_4d/output_0_split_3
I0403 17:39:15.404744 14494 net.cpp:399] inception_4e/5x5_reduce -> inception_4e/5x5_reduce
I0403 17:39:15.405787 14494 net.cpp:141] Setting up inception_4e/5x5_reduce
I0403 17:39:15.405814 14494 net.cpp:148] Top shape: 24 32 14 14 (150528)
I0403 17:39:15.405830 14494 net.cpp:156] Memory required for data: 1236731424
I0403 17:39:15.405848 14494 layer_factory.hpp:77] Creating layer inception_4e/relu_5x5_reduce
I0403 17:39:15.405869 14494 net.cpp:91] Creating Layer inception_4e/relu_5x5_reduce
I0403 17:39:15.405885 14494 net.cpp:425] inception_4e/relu_5x5_reduce <- inception_4e/5x5_reduce
I0403 17:39:15.405902 14494 net.cpp:386] inception_4e/relu_5x5_reduce -> inception_4e/5x5_reduce (in-place)
I0403 17:39:15.406196 14494 net.cpp:141] Setting up inception_4e/relu_5x5_reduce
I0403 17:39:15.406222 14494 net.cpp:148] Top shape: 24 32 14 14 (150528)
I0403 17:39:15.406239 14494 net.cpp:156] Memory required for data: 1237333536
I0403 17:39:15.406254 14494 layer_factory.hpp:77] Creating layer inception_4e/5x5
I0403 17:39:15.406289 14494 net.cpp:91] Creating Layer inception_4e/5x5
I0403 17:39:15.406309 14494 net.cpp:425] inception_4e/5x5 <- inception_4e/5x5_reduce
I0403 17:39:15.406330 14494 net.cpp:399] inception_4e/5x5 -> inception_4e/5x5
I0403 17:39:15.408130 14494 net.cpp:141] Setting up inception_4e/5x5
I0403 17:39:15.408157 14494 net.cpp:148] Top shape: 24 128 14 14 (602112)
I0403 17:39:15.408172 14494 net.cpp:156] Memory required for data: 1239741984
I0403 17:39:15.408190 14494 layer_factory.hpp:77] Creating layer inception_4e/relu_5x5
I0403 17:39:15.408210 14494 net.cpp:91] Creating Layer inception_4e/relu_5x5
I0403 17:39:15.408226 14494 net.cpp:425] inception_4e/relu_5x5 <- inception_4e/5x5
I0403 17:39:15.408246 14494 net.cpp:386] inception_4e/relu_5x5 -> inception_4e/5x5 (in-place)
I0403 17:39:15.408440 14494 net.cpp:141] Setting up inception_4e/relu_5x5
I0403 17:39:15.408465 14494 net.cpp:148] Top shape: 24 128 14 14 (602112)
I0403 17:39:15.408480 14494 net.cpp:156] Memory required for data: 1242150432
I0403 17:39:15.408494 14494 layer_factory.hpp:77] Creating layer inception_4e/pool
I0403 17:39:15.408514 14494 net.cpp:91] Creating Layer inception_4e/pool
I0403 17:39:15.408531 14494 net.cpp:425] inception_4e/pool <- inception_4d/output_inception_4d/output_0_split_4
I0403 17:39:15.408550 14494 net.cpp:399] inception_4e/pool -> inception_4e/pool
I0403 17:39:15.408618 14494 net.cpp:141] Setting up inception_4e/pool
I0403 17:39:15.408643 14494 net.cpp:148] Top shape: 24 528 14 14 (2483712)
I0403 17:39:15.408656 14494 net.cpp:156] Memory required for data: 1252085280
I0403 17:39:15.408670 14494 layer_factory.hpp:77] Creating layer inception_4e/pool_proj
I0403 17:39:15.408692 14494 net.cpp:91] Creating Layer inception_4e/pool_proj
I0403 17:39:15.408710 14494 net.cpp:425] inception_4e/pool_proj <- inception_4e/pool
I0403 17:39:15.408730 14494 net.cpp:399] inception_4e/pool_proj -> inception_4e/pool_proj
I0403 17:39:15.410203 14494 net.cpp:141] Setting up inception_4e/pool_proj
I0403 17:39:15.410241 14494 net.cpp:148] Top shape: 24 128 14 14 (602112)
I0403 17:39:15.410257 14494 net.cpp:156] Memory required for data: 1254493728
I0403 17:39:15.410275 14494 layer_factory.hpp:77] Creating layer inception_4e/relu_pool_proj
I0403 17:39:15.410293 14494 net.cpp:91] Creating Layer inception_4e/relu_pool_proj
I0403 17:39:15.410310 14494 net.cpp:425] inception_4e/relu_pool_proj <- inception_4e/pool_proj
I0403 17:39:15.410329 14494 net.cpp:386] inception_4e/relu_pool_proj -> inception_4e/pool_proj (in-place)
I0403 17:39:15.410619 14494 net.cpp:141] Setting up inception_4e/relu_pool_proj
I0403 17:39:15.410645 14494 net.cpp:148] Top shape: 24 128 14 14 (602112)
I0403 17:39:15.410660 14494 net.cpp:156] Memory required for data: 1256902176
I0403 17:39:15.410675 14494 layer_factory.hpp:77] Creating layer inception_4e/output
I0403 17:39:15.410692 14494 net.cpp:91] Creating Layer inception_4e/output
I0403 17:39:15.410708 14494 net.cpp:425] inception_4e/output <- inception_4e/1x1
I0403 17:39:15.410724 14494 net.cpp:425] inception_4e/output <- inception_4e/3x3
I0403 17:39:15.410740 14494 net.cpp:425] inception_4e/output <- inception_4e/5x5
I0403 17:39:15.410755 14494 net.cpp:425] inception_4e/output <- inception_4e/pool_proj
I0403 17:39:15.410774 14494 net.cpp:399] inception_4e/output -> inception_4e/output
I0403 17:39:15.410823 14494 net.cpp:141] Setting up inception_4e/output
I0403 17:39:15.410850 14494 net.cpp:148] Top shape: 24 832 14 14 (3913728)
I0403 17:39:15.410864 14494 net.cpp:156] Memory required for data: 1272557088
I0403 17:39:15.410879 14494 layer_factory.hpp:77] Creating layer pool4/3x3_s2
I0403 17:39:15.410897 14494 net.cpp:91] Creating Layer pool4/3x3_s2
I0403 17:39:15.410912 14494 net.cpp:425] pool4/3x3_s2 <- inception_4e/output
I0403 17:39:15.410930 14494 net.cpp:399] pool4/3x3_s2 -> pool4/3x3_s2
I0403 17:39:15.411000 14494 net.cpp:141] Setting up pool4/3x3_s2
I0403 17:39:15.411025 14494 net.cpp:148] Top shape: 24 832 7 7 (978432)
I0403 17:39:15.411039 14494 net.cpp:156] Memory required for data: 1276470816
I0403 17:39:15.411054 14494 layer_factory.hpp:77] Creating layer pool4/3x3_s2_pool4/3x3_s2_0_split
I0403 17:39:15.411072 14494 net.cpp:91] Creating Layer pool4/3x3_s2_pool4/3x3_s2_0_split
I0403 17:39:15.411087 14494 net.cpp:425] pool4/3x3_s2_pool4/3x3_s2_0_split <- pool4/3x3_s2
I0403 17:39:15.411106 14494 net.cpp:399] pool4/3x3_s2_pool4/3x3_s2_0_split -> pool4/3x3_s2_pool4/3x3_s2_0_split_0
I0403 17:39:15.411126 14494 net.cpp:399] pool4/3x3_s2_pool4/3x3_s2_0_split -> pool4/3x3_s2_pool4/3x3_s2_0_split_1
I0403 17:39:15.411146 14494 net.cpp:399] pool4/3x3_s2_pool4/3x3_s2_0_split -> pool4/3x3_s2_pool4/3x3_s2_0_split_2
I0403 17:39:15.411165 14494 net.cpp:399] pool4/3x3_s2_pool4/3x3_s2_0_split -> pool4/3x3_s2_pool4/3x3_s2_0_split_3
I0403 17:39:15.411259 14494 net.cpp:141] Setting up pool4/3x3_s2_pool4/3x3_s2_0_split
I0403 17:39:15.411283 14494 net.cpp:148] Top shape: 24 832 7 7 (978432)
I0403 17:39:15.411299 14494 net.cpp:148] Top shape: 24 832 7 7 (978432)
I0403 17:39:15.411315 14494 net.cpp:148] Top shape: 24 832 7 7 (978432)
I0403 17:39:15.411330 14494 net.cpp:148] Top shape: 24 832 7 7 (978432)
I0403 17:39:15.411345 14494 net.cpp:156] Memory required for data: 1292125728
I0403 17:39:15.411358 14494 layer_factory.hpp:77] Creating layer inception_5a/1x1
I0403 17:39:15.411381 14494 net.cpp:91] Creating Layer inception_5a/1x1
I0403 17:39:15.411398 14494 net.cpp:425] inception_5a/1x1 <- pool4/3x3_s2_pool4/3x3_s2_0_split_0
I0403 17:39:15.411419 14494 net.cpp:399] inception_5a/1x1 -> inception_5a/1x1
I0403 17:39:15.414198 14494 net.cpp:141] Setting up inception_5a/1x1
I0403 17:39:15.414227 14494 net.cpp:148] Top shape: 24 256 7 7 (301056)
I0403 17:39:15.414244 14494 net.cpp:156] Memory required for data: 1293329952
I0403 17:39:15.414263 14494 layer_factory.hpp:77] Creating layer inception_5a/relu_1x1
I0403 17:39:15.414283 14494 net.cpp:91] Creating Layer inception_5a/relu_1x1
I0403 17:39:15.414299 14494 net.cpp:425] inception_5a/relu_1x1 <- inception_5a/1x1
I0403 17:39:15.414316 14494 net.cpp:386] inception_5a/relu_1x1 -> inception_5a/1x1 (in-place)
I0403 17:39:15.414626 14494 net.cpp:141] Setting up inception_5a/relu_1x1
I0403 17:39:15.414652 14494 net.cpp:148] Top shape: 24 256 7 7 (301056)
I0403 17:39:15.414667 14494 net.cpp:156] Memory required for data: 1294534176
I0403 17:39:15.414682 14494 layer_factory.hpp:77] Creating layer inception_5a/3x3_reduce
I0403 17:39:15.414705 14494 net.cpp:91] Creating Layer inception_5a/3x3_reduce
I0403 17:39:15.414723 14494 net.cpp:425] inception_5a/3x3_reduce <- pool4/3x3_s2_pool4/3x3_s2_0_split_1
I0403 17:39:15.414746 14494 net.cpp:399] inception_5a/3x3_reduce -> inception_5a/3x3_reduce
I0403 17:39:15.417155 14494 net.cpp:141] Setting up inception_5a/3x3_reduce
I0403 17:39:15.417186 14494 net.cpp:148] Top shape: 24 160 7 7 (188160)
I0403 17:39:15.417204 14494 net.cpp:156] Memory required for data: 1295286816
I0403 17:39:15.417222 14494 layer_factory.hpp:77] Creating layer inception_5a/relu_3x3_reduce
I0403 17:39:15.417240 14494 net.cpp:91] Creating Layer inception_5a/relu_3x3_reduce
I0403 17:39:15.417256 14494 net.cpp:425] inception_5a/relu_3x3_reduce <- inception_5a/3x3_reduce
I0403 17:39:15.417273 14494 net.cpp:386] inception_5a/relu_3x3_reduce -> inception_5a/3x3_reduce (in-place)
I0403 17:39:15.417460 14494 net.cpp:141] Setting up inception_5a/relu_3x3_reduce
I0403 17:39:15.417485 14494 net.cpp:148] Top shape: 24 160 7 7 (188160)
I0403 17:39:15.417500 14494 net.cpp:156] Memory required for data: 1296039456
I0403 17:39:15.417515 14494 layer_factory.hpp:77] Creating layer inception_5a/3x3
I0403 17:39:15.417537 14494 net.cpp:91] Creating Layer inception_5a/3x3
I0403 17:39:15.417554 14494 net.cpp:425] inception_5a/3x3 <- inception_5a/3x3_reduce
I0403 17:39:15.417577 14494 net.cpp:399] inception_5a/3x3 -> inception_5a/3x3
I0403 17:39:15.422477 14494 net.cpp:141] Setting up inception_5a/3x3
I0403 17:39:15.422507 14494 net.cpp:148] Top shape: 24 320 7 7 (376320)
I0403 17:39:15.422523 14494 net.cpp:156] Memory required for data: 1297544736
I0403 17:39:15.422540 14494 layer_factory.hpp:77] Creating layer inception_5a/relu_3x3
I0403 17:39:15.422559 14494 net.cpp:91] Creating Layer inception_5a/relu_3x3
I0403 17:39:15.422575 14494 net.cpp:425] inception_5a/relu_3x3 <- inception_5a/3x3
I0403 17:39:15.422595 14494 net.cpp:386] inception_5a/relu_3x3 -> inception_5a/3x3 (in-place)
I0403 17:39:15.422881 14494 net.cpp:141] Setting up inception_5a/relu_3x3
I0403 17:39:15.422907 14494 net.cpp:148] Top shape: 24 320 7 7 (376320)
I0403 17:39:15.422924 14494 net.cpp:156] Memory required for data: 1299050016
I0403 17:39:15.422938 14494 layer_factory.hpp:77] Creating layer inception_5a/5x5_reduce
I0403 17:39:15.422965 14494 net.cpp:91] Creating Layer inception_5a/5x5_reduce
I0403 17:39:15.422983 14494 net.cpp:425] inception_5a/5x5_reduce <- pool4/3x3_s2_pool4/3x3_s2_0_split_2
I0403 17:39:15.423004 14494 net.cpp:399] inception_5a/5x5_reduce -> inception_5a/5x5_reduce
I0403 17:39:15.424147 14494 net.cpp:141] Setting up inception_5a/5x5_reduce
I0403 17:39:15.424177 14494 net.cpp:148] Top shape: 24 32 7 7 (37632)
I0403 17:39:15.424193 14494 net.cpp:156] Memory required for data: 1299200544
I0403 17:39:15.424211 14494 layer_factory.hpp:77] Creating layer inception_5a/relu_5x5_reduce
I0403 17:39:15.424231 14494 net.cpp:91] Creating Layer inception_5a/relu_5x5_reduce
I0403 17:39:15.424247 14494 net.cpp:425] inception_5a/relu_5x5_reduce <- inception_5a/5x5_reduce
I0403 17:39:15.424263 14494 net.cpp:386] inception_5a/relu_5x5_reduce -> inception_5a/5x5_reduce (in-place)
I0403 17:39:15.424556 14494 net.cpp:141] Setting up inception_5a/relu_5x5_reduce
I0403 17:39:15.424582 14494 net.cpp:148] Top shape: 24 32 7 7 (37632)
I0403 17:39:15.424597 14494 net.cpp:156] Memory required for data: 1299351072
I0403 17:39:15.424612 14494 layer_factory.hpp:77] Creating layer inception_5a/5x5
I0403 17:39:15.424633 14494 net.cpp:91] Creating Layer inception_5a/5x5
I0403 17:39:15.424650 14494 net.cpp:425] inception_5a/5x5 <- inception_5a/5x5_reduce
I0403 17:39:15.424672 14494 net.cpp:399] inception_5a/5x5 -> inception_5a/5x5
I0403 17:39:15.426357 14494 net.cpp:141] Setting up inception_5a/5x5
I0403 17:39:15.426395 14494 net.cpp:148] Top shape: 24 128 7 7 (150528)
I0403 17:39:15.426411 14494 net.cpp:156] Memory required for data: 1299953184
I0403 17:39:15.426429 14494 layer_factory.hpp:77] Creating layer inception_5a/relu_5x5
I0403 17:39:15.426447 14494 net.cpp:91] Creating Layer inception_5a/relu_5x5
I0403 17:39:15.426463 14494 net.cpp:425] inception_5a/relu_5x5 <- inception_5a/5x5
I0403 17:39:15.426483 14494 net.cpp:386] inception_5a/relu_5x5 -> inception_5a/5x5 (in-place)
I0403 17:39:15.426671 14494 net.cpp:141] Setting up inception_5a/relu_5x5
I0403 17:39:15.426697 14494 net.cpp:148] Top shape: 24 128 7 7 (150528)
I0403 17:39:15.426712 14494 net.cpp:156] Memory required for data: 1300555296
I0403 17:39:15.426728 14494 layer_factory.hpp:77] Creating layer inception_5a/pool
I0403 17:39:15.426748 14494 net.cpp:91] Creating Layer inception_5a/pool
I0403 17:39:15.426766 14494 net.cpp:425] inception_5a/pool <- pool4/3x3_s2_pool4/3x3_s2_0_split_3
I0403 17:39:15.426784 14494 net.cpp:399] inception_5a/pool -> inception_5a/pool
I0403 17:39:15.426854 14494 net.cpp:141] Setting up inception_5a/pool
I0403 17:39:15.426877 14494 net.cpp:148] Top shape: 24 832 7 7 (978432)
I0403 17:39:15.426892 14494 net.cpp:156] Memory required for data: 1304469024
I0403 17:39:15.426906 14494 layer_factory.hpp:77] Creating layer inception_5a/pool_proj
I0403 17:39:15.426928 14494 net.cpp:91] Creating Layer inception_5a/pool_proj
I0403 17:39:15.426949 14494 net.cpp:425] inception_5a/pool_proj <- inception_5a/pool
I0403 17:39:15.426972 14494 net.cpp:399] inception_5a/pool_proj -> inception_5a/pool_proj
I0403 17:39:15.429253 14494 net.cpp:141] Setting up inception_5a/pool_proj
I0403 17:39:15.429286 14494 net.cpp:148] Top shape: 24 128 7 7 (150528)
I0403 17:39:15.429302 14494 net.cpp:156] Memory required for data: 1305071136
I0403 17:39:15.429322 14494 layer_factory.hpp:77] Creating layer inception_5a/relu_pool_proj
I0403 17:39:15.429340 14494 net.cpp:91] Creating Layer inception_5a/relu_pool_proj
I0403 17:39:15.429358 14494 net.cpp:425] inception_5a/relu_pool_proj <- inception_5a/pool_proj
I0403 17:39:15.429378 14494 net.cpp:386] inception_5a/relu_pool_proj -> inception_5a/pool_proj (in-place)
I0403 17:39:15.429679 14494 net.cpp:141] Setting up inception_5a/relu_pool_proj
I0403 17:39:15.429708 14494 net.cpp:148] Top shape: 24 128 7 7 (150528)
I0403 17:39:15.429724 14494 net.cpp:156] Memory required for data: 1305673248
I0403 17:39:15.429740 14494 layer_factory.hpp:77] Creating layer inception_5a/output
I0403 17:39:15.429759 14494 net.cpp:91] Creating Layer inception_5a/output
I0403 17:39:15.429774 14494 net.cpp:425] inception_5a/output <- inception_5a/1x1
I0403 17:39:15.429790 14494 net.cpp:425] inception_5a/output <- inception_5a/3x3
I0403 17:39:15.429807 14494 net.cpp:425] inception_5a/output <- inception_5a/5x5
I0403 17:39:15.429823 14494 net.cpp:425] inception_5a/output <- inception_5a/pool_proj
I0403 17:39:15.429843 14494 net.cpp:399] inception_5a/output -> inception_5a/output
I0403 17:39:15.429893 14494 net.cpp:141] Setting up inception_5a/output
I0403 17:39:15.429918 14494 net.cpp:148] Top shape: 24 832 7 7 (978432)
I0403 17:39:15.429932 14494 net.cpp:156] Memory required for data: 1309586976
I0403 17:39:15.429951 14494 layer_factory.hpp:77] Creating layer inception_5a/output_inception_5a/output_0_split
I0403 17:39:15.429972 14494 net.cpp:91] Creating Layer inception_5a/output_inception_5a/output_0_split
I0403 17:39:15.429991 14494 net.cpp:425] inception_5a/output_inception_5a/output_0_split <- inception_5a/output
I0403 17:39:15.430008 14494 net.cpp:399] inception_5a/output_inception_5a/output_0_split -> inception_5a/output_inception_5a/output_0_split_0
I0403 17:39:15.430033 14494 net.cpp:399] inception_5a/output_inception_5a/output_0_split -> inception_5a/output_inception_5a/output_0_split_1
I0403 17:39:15.430054 14494 net.cpp:399] inception_5a/output_inception_5a/output_0_split -> inception_5a/output_inception_5a/output_0_split_2
I0403 17:39:15.430075 14494 net.cpp:399] inception_5a/output_inception_5a/output_0_split -> inception_5a/output_inception_5a/output_0_split_3
I0403 17:39:15.430186 14494 net.cpp:141] Setting up inception_5a/output_inception_5a/output_0_split
I0403 17:39:15.430212 14494 net.cpp:148] Top shape: 24 832 7 7 (978432)
I0403 17:39:15.430228 14494 net.cpp:148] Top shape: 24 832 7 7 (978432)
I0403 17:39:15.430244 14494 net.cpp:148] Top shape: 24 832 7 7 (978432)
I0403 17:39:15.430260 14494 net.cpp:148] Top shape: 24 832 7 7 (978432)
I0403 17:39:15.430275 14494 net.cpp:156] Memory required for data: 1325241888
I0403 17:39:15.430289 14494 layer_factory.hpp:77] Creating layer inception_5b/1x1
I0403 17:39:15.430312 14494 net.cpp:91] Creating Layer inception_5b/1x1
I0403 17:39:15.430330 14494 net.cpp:425] inception_5b/1x1 <- inception_5a/output_inception_5a/output_0_split_0
I0403 17:39:15.430352 14494 net.cpp:399] inception_5b/1x1 -> inception_5b/1x1
I0403 17:39:15.434136 14494 net.cpp:141] Setting up inception_5b/1x1
I0403 17:39:15.434168 14494 net.cpp:148] Top shape: 24 384 7 7 (451584)
I0403 17:39:15.434185 14494 net.cpp:156] Memory required for data: 1327048224
I0403 17:39:15.434206 14494 layer_factory.hpp:77] Creating layer inception_5b/relu_1x1
I0403 17:39:15.434226 14494 net.cpp:91] Creating Layer inception_5b/relu_1x1
I0403 17:39:15.434242 14494 net.cpp:425] inception_5b/relu_1x1 <- inception_5b/1x1
I0403 17:39:15.434262 14494 net.cpp:386] inception_5b/relu_1x1 -> inception_5b/1x1 (in-place)
I0403 17:39:15.434567 14494 net.cpp:141] Setting up inception_5b/relu_1x1
I0403 17:39:15.434597 14494 net.cpp:148] Top shape: 24 384 7 7 (451584)
I0403 17:39:15.434613 14494 net.cpp:156] Memory required for data: 1328854560
I0403 17:39:15.434629 14494 layer_factory.hpp:77] Creating layer inception_5b/3x3_reduce
I0403 17:39:15.434651 14494 net.cpp:91] Creating Layer inception_5b/3x3_reduce
I0403 17:39:15.434670 14494 net.cpp:425] inception_5b/3x3_reduce <- inception_5a/output_inception_5a/output_0_split_1
I0403 17:39:15.434689 14494 net.cpp:399] inception_5b/3x3_reduce -> inception_5b/3x3_reduce
I0403 17:39:15.437368 14494 net.cpp:141] Setting up inception_5b/3x3_reduce
I0403 17:39:15.437399 14494 net.cpp:148] Top shape: 24 192 7 7 (225792)
I0403 17:39:15.437417 14494 net.cpp:156] Memory required for data: 1329757728
I0403 17:39:15.437436 14494 layer_factory.hpp:77] Creating layer inception_5b/relu_3x3_reduce
I0403 17:39:15.437454 14494 net.cpp:91] Creating Layer inception_5b/relu_3x3_reduce
I0403 17:39:15.437471 14494 net.cpp:425] inception_5b/relu_3x3_reduce <- inception_5b/3x3_reduce
I0403 17:39:15.437491 14494 net.cpp:386] inception_5b/relu_3x3_reduce -> inception_5b/3x3_reduce (in-place)
I0403 17:39:15.437683 14494 net.cpp:141] Setting up inception_5b/relu_3x3_reduce
I0403 17:39:15.437708 14494 net.cpp:148] Top shape: 24 192 7 7 (225792)
I0403 17:39:15.437723 14494 net.cpp:156] Memory required for data: 1330660896
I0403 17:39:15.437739 14494 layer_factory.hpp:77] Creating layer inception_5b/3x3
I0403 17:39:15.437762 14494 net.cpp:91] Creating Layer inception_5b/3x3
I0403 17:39:15.437780 14494 net.cpp:425] inception_5b/3x3 <- inception_5b/3x3_reduce
I0403 17:39:15.437803 14494 net.cpp:399] inception_5b/3x3 -> inception_5b/3x3
I0403 17:39:15.444532 14494 net.cpp:141] Setting up inception_5b/3x3
I0403 17:39:15.444563 14494 net.cpp:148] Top shape: 24 384 7 7 (451584)
I0403 17:39:15.444581 14494 net.cpp:156] Memory required for data: 1332467232
I0403 17:39:15.444599 14494 layer_factory.hpp:77] Creating layer inception_5b/relu_3x3
I0403 17:39:15.444617 14494 net.cpp:91] Creating Layer inception_5b/relu_3x3
I0403 17:39:15.444634 14494 net.cpp:425] inception_5b/relu_3x3 <- inception_5b/3x3
I0403 17:39:15.444654 14494 net.cpp:386] inception_5b/relu_3x3 -> inception_5b/3x3 (in-place)
I0403 17:39:15.444964 14494 net.cpp:141] Setting up inception_5b/relu_3x3
I0403 17:39:15.444993 14494 net.cpp:148] Top shape: 24 384 7 7 (451584)
I0403 17:39:15.445009 14494 net.cpp:156] Memory required for data: 1334273568
I0403 17:39:15.445025 14494 layer_factory.hpp:77] Creating layer inception_5b/5x5_reduce
I0403 17:39:15.445066 14494 net.cpp:91] Creating Layer inception_5b/5x5_reduce
I0403 17:39:15.445086 14494 net.cpp:425] inception_5b/5x5_reduce <- inception_5a/output_inception_5a/output_0_split_2
I0403 17:39:15.445108 14494 net.cpp:399] inception_5b/5x5_reduce -> inception_5b/5x5_reduce
I0403 17:39:15.446391 14494 net.cpp:141] Setting up inception_5b/5x5_reduce
I0403 17:39:15.446419 14494 net.cpp:148] Top shape: 24 48 7 7 (56448)
I0403 17:39:15.446435 14494 net.cpp:156] Memory required for data: 1334499360
I0403 17:39:15.446454 14494 layer_factory.hpp:77] Creating layer inception_5b/relu_5x5_reduce
I0403 17:39:15.446471 14494 net.cpp:91] Creating Layer inception_5b/relu_5x5_reduce
I0403 17:39:15.446487 14494 net.cpp:425] inception_5b/relu_5x5_reduce <- inception_5b/5x5_reduce
I0403 17:39:15.446507 14494 net.cpp:386] inception_5b/relu_5x5_reduce -> inception_5b/5x5_reduce (in-place)
I0403 17:39:15.446877 14494 net.cpp:141] Setting up inception_5b/relu_5x5_reduce
I0403 17:39:15.446902 14494 net.cpp:148] Top shape: 24 48 7 7 (56448)
I0403 17:39:15.446918 14494 net.cpp:156] Memory required for data: 1334725152
I0403 17:39:15.446933 14494 layer_factory.hpp:77] Creating layer inception_5b/5x5
I0403 17:39:15.446959 14494 net.cpp:91] Creating Layer inception_5b/5x5
I0403 17:39:15.446977 14494 net.cpp:425] inception_5b/5x5 <- inception_5b/5x5_reduce
I0403 17:39:15.446995 14494 net.cpp:399] inception_5b/5x5 -> inception_5b/5x5
I0403 17:39:15.449056 14494 net.cpp:141] Setting up inception_5b/5x5
I0403 17:39:15.449084 14494 net.cpp:148] Top shape: 24 128 7 7 (150528)
I0403 17:39:15.449100 14494 net.cpp:156] Memory required for data: 1335327264
I0403 17:39:15.449117 14494 layer_factory.hpp:77] Creating layer inception_5b/relu_5x5
I0403 17:39:15.449138 14494 net.cpp:91] Creating Layer inception_5b/relu_5x5
I0403 17:39:15.449156 14494 net.cpp:425] inception_5b/relu_5x5 <- inception_5b/5x5
I0403 17:39:15.449172 14494 net.cpp:386] inception_5b/relu_5x5 -> inception_5b/5x5 (in-place)
I0403 17:39:15.449364 14494 net.cpp:141] Setting up inception_5b/relu_5x5
I0403 17:39:15.449389 14494 net.cpp:148] Top shape: 24 128 7 7 (150528)
I0403 17:39:15.449404 14494 net.cpp:156] Memory required for data: 1335929376
I0403 17:39:15.449420 14494 layer_factory.hpp:77] Creating layer inception_5b/pool
I0403 17:39:15.449440 14494 net.cpp:91] Creating Layer inception_5b/pool
I0403 17:39:15.449456 14494 net.cpp:425] inception_5b/pool <- inception_5a/output_inception_5a/output_0_split_3
I0403 17:39:15.449475 14494 net.cpp:399] inception_5b/pool -> inception_5b/pool
I0403 17:39:15.449547 14494 net.cpp:141] Setting up inception_5b/pool
I0403 17:39:15.449569 14494 net.cpp:148] Top shape: 24 832 7 7 (978432)
I0403 17:39:15.449584 14494 net.cpp:156] Memory required for data: 1339843104
I0403 17:39:15.449599 14494 layer_factory.hpp:77] Creating layer inception_5b/pool_proj
I0403 17:39:15.449621 14494 net.cpp:91] Creating Layer inception_5b/pool_proj
I0403 17:39:15.449638 14494 net.cpp:425] inception_5b/pool_proj <- inception_5b/pool
I0403 17:39:15.449658 14494 net.cpp:399] inception_5b/pool_proj -> inception_5b/pool_proj
I0403 17:39:15.451918 14494 net.cpp:141] Setting up inception_5b/pool_proj
I0403 17:39:15.451951 14494 net.cpp:148] Top shape: 24 128 7 7 (150528)
I0403 17:39:15.451967 14494 net.cpp:156] Memory required for data: 1340445216
I0403 17:39:15.451987 14494 layer_factory.hpp:77] Creating layer inception_5b/relu_pool_proj
I0403 17:39:15.452003 14494 net.cpp:91] Creating Layer inception_5b/relu_pool_proj
I0403 17:39:15.452019 14494 net.cpp:425] inception_5b/relu_pool_proj <- inception_5b/pool_proj
I0403 17:39:15.452039 14494 net.cpp:386] inception_5b/relu_pool_proj -> inception_5b/pool_proj (in-place)
I0403 17:39:15.452337 14494 net.cpp:141] Setting up inception_5b/relu_pool_proj
I0403 17:39:15.452363 14494 net.cpp:148] Top shape: 24 128 7 7 (150528)
I0403 17:39:15.452378 14494 net.cpp:156] Memory required for data: 1341047328
I0403 17:39:15.452394 14494 layer_factory.hpp:77] Creating layer inception_5b/output
I0403 17:39:15.452411 14494 net.cpp:91] Creating Layer inception_5b/output
I0403 17:39:15.452441 14494 net.cpp:425] inception_5b/output <- inception_5b/1x1
I0403 17:39:15.452460 14494 net.cpp:425] inception_5b/output <- inception_5b/3x3
I0403 17:39:15.452476 14494 net.cpp:425] inception_5b/output <- inception_5b/5x5
I0403 17:39:15.452491 14494 net.cpp:425] inception_5b/output <- inception_5b/pool_proj
I0403 17:39:15.452510 14494 net.cpp:399] inception_5b/output -> inception_5b/output
I0403 17:39:15.452561 14494 net.cpp:141] Setting up inception_5b/output
I0403 17:39:15.452587 14494 net.cpp:148] Top shape: 24 1024 7 7 (1204224)
I0403 17:39:15.452601 14494 net.cpp:156] Memory required for data: 1345864224
I0403 17:39:15.452617 14494 layer_factory.hpp:77] Creating layer pool5/7x7_s1
I0403 17:39:15.452635 14494 net.cpp:91] Creating Layer pool5/7x7_s1
I0403 17:39:15.452651 14494 net.cpp:425] pool5/7x7_s1 <- inception_5b/output
I0403 17:39:15.452667 14494 net.cpp:399] pool5/7x7_s1 -> pool5/7x7_s1
I0403 17:39:15.452883 14494 net.cpp:141] Setting up pool5/7x7_s1
I0403 17:39:15.452908 14494 net.cpp:148] Top shape: 24 1024 1 1 (24576)
I0403 17:39:15.452924 14494 net.cpp:156] Memory required for data: 1345962528
I0403 17:39:15.452939 14494 layer_factory.hpp:77] Creating layer pool5/drop_7x7_s1
I0403 17:39:15.452960 14494 net.cpp:91] Creating Layer pool5/drop_7x7_s1
I0403 17:39:15.452978 14494 net.cpp:425] pool5/drop_7x7_s1 <- pool5/7x7_s1
I0403 17:39:15.452997 14494 net.cpp:386] pool5/drop_7x7_s1 -> pool5/7x7_s1 (in-place)
I0403 17:39:15.453047 14494 net.cpp:141] Setting up pool5/drop_7x7_s1
I0403 17:39:15.453073 14494 net.cpp:148] Top shape: 24 1024 1 1 (24576)
I0403 17:39:15.453088 14494 net.cpp:156] Memory required for data: 1346060832
I0403 17:39:15.453102 14494 layer_factory.hpp:77] Creating layer loss3/classifier_plantvillage
I0403 17:39:15.453121 14494 net.cpp:91] Creating Layer loss3/classifier_plantvillage
I0403 17:39:15.453137 14494 net.cpp:425] loss3/classifier_plantvillage <- pool5/7x7_s1
I0403 17:39:15.453158 14494 net.cpp:399] loss3/classifier_plantvillage -> loss3/classifier_plantvillage
I0403 17:39:15.453574 14494 net.cpp:141] Setting up loss3/classifier_plantvillage
I0403 17:39:15.453598 14494 net.cpp:148] Top shape: 24 38 (912)
I0403 17:39:15.453613 14494 net.cpp:156] Memory required for data: 1346064480
I0403 17:39:15.453631 14494 layer_factory.hpp:77] Creating layer loss3/classifier_plantvillage_loss3/classifier_plantvillage_0_split
I0403 17:39:15.453651 14494 net.cpp:91] Creating Layer loss3/classifier_plantvillage_loss3/classifier_plantvillage_0_split
I0403 17:39:15.453670 14494 net.cpp:425] loss3/classifier_plantvillage_loss3/classifier_plantvillage_0_split <- loss3/classifier_plantvillage
I0403 17:39:15.453686 14494 net.cpp:399] loss3/classifier_plantvillage_loss3/classifier_plantvillage_0_split -> loss3/classifier_plantvillage_loss3/classifier_plantvillage_0_split_0
I0403 17:39:15.453711 14494 net.cpp:399] loss3/classifier_plantvillage_loss3/classifier_plantvillage_0_split -> loss3/classifier_plantvillage_loss3/classifier_plantvillage_0_split_1
I0403 17:39:15.453730 14494 net.cpp:399] loss3/classifier_plantvillage_loss3/classifier_plantvillage_0_split -> loss3/classifier_plantvillage_loss3/classifier_plantvillage_0_split_2
I0403 17:39:15.453750 14494 net.cpp:399] loss3/classifier_plantvillage_loss3/classifier_plantvillage_0_split -> loss3/classifier_plantvillage_loss3/classifier_plantvillage_0_split_3
I0403 17:39:15.453847 14494 net.cpp:141] Setting up loss3/classifier_plantvillage_loss3/classifier_plantvillage_0_split
I0403 17:39:15.453871 14494 net.cpp:148] Top shape: 24 38 (912)
I0403 17:39:15.453886 14494 net.cpp:148] Top shape: 24 38 (912)
I0403 17:39:15.453902 14494 net.cpp:148] Top shape: 24 38 (912)
I0403 17:39:15.453917 14494 net.cpp:148] Top shape: 24 38 (912)
I0403 17:39:15.453929 14494 net.cpp:156] Memory required for data: 1346079072
I0403 17:39:15.453943 14494 layer_factory.hpp:77] Creating layer loss1/loss
I0403 17:39:15.453969 14494 net.cpp:91] Creating Layer loss1/loss
I0403 17:39:15.453986 14494 net.cpp:425] loss1/loss <- loss1/classifier_plantvillage_loss1/classifier_plantvillage_0_split_0
I0403 17:39:15.454016 14494 net.cpp:425] loss1/loss <- label_data_1_split_0
…
