…
I0403 17:37:50.312448 14460 net.cpp:313] The NetState phase (1) differed from the phase (0) specified by a rule in layer data
I0403 17:37:50.313649 14460 net.cpp:49] Initializing net from parameters: 
state {
  phase: TEST
}
layer {
  name: "data"
  type: "Data"
  top: "data"
  top: "label"
  include {
    phase: TEST
  }
  transform_param {
    mirror: false
    crop_size: 224
    mean_file: "/home/mohanty/data/final_dataset/lmdb/grayscale-60-40/mean.binaryproto"
  }
  data_param {
    source: "/home/mohanty/data/final_dataset/lmdb/grayscale-60-40/test_db"
    batch_size: 24
    backend: LMDB
  }
}
layer {
  name: "conv1/7x7_s2"
  type: "Convolution"
  bottom: "data"
  top: "conv1/7x7_s2"
  param {
    lr_mult: 1
    decay_mult: 1
  }
  param {
    lr_mult: 2
    decay_mult: 0
  }
  convolution_param {
    num_output: 64
    pad: 3
    kernel_size: 7
    stride: 2
    weight_filler {
      type: "xavier"
      std: 0.1
    }
    bias_filler {
      type: "constant"
      value: 0.2
    }
  }
}
layer {
  name: "conv1/relu_7x7"
  type: "ReLU"
  bottom: "conv1/7x7_s2"
  top: "conv1/7x7_s2"
}
layer {
  name: "pool1/3x3_s2"
  type: "Pooling"
  bottom: "conv1/7x7_s2"
  top: "pool1/3x3_s2"
  pooling_param {
    pool: MAX
    kernel_size: 3
    stride: 2
  }
}
layer {
  name: "pool1/norm1"
  type: "LRN"
  bottom: "pool1/3x3_s2"
  top: "pool1/norm1"
  lrn_param {
    local_size: 5
    alpha: 0.0001
    beta: 0.75
  }
}
layer {
  name: "conv2/3x3_reduce"
  type: "Convolution"
  bottom: "pool1/norm1"
  top: "conv2/3x3_reduce"
  param {
    lr_mult: 1
    decay_mult: 1
  }
  param {
    lr_mult: 2
    decay_mult: 0
  }
  convolution_param {
    num_output: 64
    kernel_size: 1
    weight_filler {
      type: "xavier"
      std: 0.1
    }
    bias_filler {
      type: "constant"
      value: 0.2
    }
  }
}
layer {
  name: "conv2/relu_3x3_reduce"
  type: "ReLU"
  bottom: "conv2/3x3_reduce"
  top: "conv2/3x3_reduce"
}
layer {
  name: "conv2/3x3"
  type: "Convolution"
  bottom: "conv2/3x3_reduce"
  top: "conv2/3x3"
  param {
    lr_mult: 1
    decay_mult: 1
  }
  param {
    lr_mult: 2
    decay_mult: 0
  }
  convolution_param {
    num_output: 192
    pad: 1
    kernel_size: 3
    weight_filler {
      type: "xavier"
      std: 0.03
    }
    bias_filler {
      type: "constant"
      value: 0.2
    }
  }
}
layer {
  name: "conv2/relu_3x3"
  type: "ReLU"
  bottom: "conv2/3x3"
  top: "conv2/3x3"
}
layer {
  name: "conv2/norm2"
  type: "LRN"
  bottom: "conv2/3x3"
  top: "conv2/norm2"
  lrn_param {
    local_size: 5
    alpha: 0.0001
    beta: 0.75
  }
}
layer {
  name: "pool2/3x3_s2"
  type: "Pooling"
  bottom: "conv2/norm2"
  top: "pool2/3x3_s2"
  pooling_param {
    pool: MAX
    kernel_size: 3
    stride: 2
  }
}
layer {
  name: "inception_3a/1x1"
  type: "Convolution"
  bottom: "pool2/3x3_s2"
  top: "inception_3a/1x1"
  param {
    lr_mult: 1
    decay_mult: 1
  }
  param {
    lr_mult: 2
    decay_mult: 0
  }
  convolution_param {
    num_output: 64
    kernel_size: 1
    weight_filler {
      type: "xavier"
      std: 0.03
    }
    bias_filler {
      type: "constant"
      value: 0.2
    }
  }
}
layer {
  name: "inception_3a/relu_1x1"
  type: "ReLU"
  bottom: "inception_3a/1x1"
  top: "inception_3a/1x1"
}
layer {
  name: "inception_3a/3x3_reduce"
  type: "Convolution"
  bottom: "pool2/3x3_s2"
  top: "inception_3a/3x3_reduce"
  param {
    lr_mult: 1
    decay_mult: 1
  }
  param {
    lr_mult: 2
    decay_mult: 0
  }
  convolution_param {
    num_output: 96
    kernel_size: 1
    weight_filler {
      type: "xavier"
      std: 0.09
    }
    bias_filler {
      type: "constant"
      value: 0.2
    }
  }
}
layer {
  name: "inception_3a/relu_3x3_reduce"
  type: "ReLU"
  bottom: "inception_3a/3x3_reduce"
  top: "inception_3a/3x3_reduce"
}
layer {
  name: "inception_3a/3x3"
  type: "Convolution"
  bottom: "inception_3a/3x3_reduce"
  top: "inception_3a/3x3"
  param {
    lr_mult: 1
    decay_mult: 1
  }
  param {
    lr_mult: 2
    decay_mult: 0
  }
  convolution_param {
    num_output: 128
    pad: 1
    kernel_size: 3
    weight_filler {
      type: "xavier"
      std: 0.03
    }
    bias_filler {
      type: "constant"
      value: 0.2
    }
  }
}
layer {
  name: "inception_3a/relu_3x3"
  type: "ReLU"
  bottom: "inception_3a/3x3"
  top: "inception_3a/3x3"
}
layer {
  name: "inception_3a/5x5_reduce"
  type: "Convolution"
  bottom: "pool2/3x3_s2"
  top: "inception_3a/5x5_reduce"
  param {
    lr_mult: 1
    decay_mult: 1
  }
  param {
    lr_mult: 2
    decay_mult: 0
  }
  convolution_param {
    num_output: 16
    kernel_size: 1
    weight_filler {
      type: "xavier"
      std: 0.2
    }
    bias_filler {
      type: "constant"
      value: 0.2
    }
  }
}
layer {
  name: "inception_3a/relu_5x5_reduce"
  type: "ReLU"
  bottom: "inception_3a/5x5_reduce"
  top: "inception_3a/5x5_reduce"
}
layer {
  name: "inception_3a/5x5"
  type: "Convolution"
  bottom: "inception_3a/5x5_reduce"
  top: "inception_3a/5x5"
  param {
    lr_mult: 1
    decay_mult: 1
  }
  param {
    lr_mult: 2
    decay_mult: 0
  }
  convolution_param {
    num_output: 32
    pad: 2
    kernel_size: 5
    weight_filler {
      type: "xavier"
      std: 0.03
    }
    bias_filler {
      type: "constant"
      value: 0.2
    }
  }
}
layer {
  name: "inception_3a/relu_5x5"
  type: "ReLU"
  bottom: "inception_3a/5x5"
  top: "inception_3a/5x5"
}
layer {
  name: "inception_3a/pool"
  type: "Pooling"
  bottom: "pool2/3x3_s2"
  top: "inception_3a/pool"
  pooling_param {
    pool: MAX
    kernel_size: 3
    stride: 1
    pad: 1
  }
}
layer {
  name: "inception_3a/pool_proj"
  type: "Convolution"
  bottom: "inception_3a/pool"
  top: "inception_3a/pool_proj"
  param {
    lr_mult: 1
    decay_mult: 1
  }
  param {
    lr_mult: 2
    decay_mult: 0
  }
  convolution_param {
    num_output: 32
    kernel_size: 1
    weight_filler {
      type: "xavier"
      std: 0.1
    }
    bias_filler {
      type: "constant"
      value: 0.2
    }
  }
}
layer {
  name: "inception_3a/relu_pool_proj"
  type: "ReLU"
  bottom: "inception_3a/pool_proj"
  top: "inception_3a/pool_proj"
}
layer {
  name: "inception_3a/output"
  type: "Concat"
  bottom: "inception_3a/1x1"
  bottom: "inception_3a/3x3"
  bottom: "inception_3a/5x5"
  bottom: "inception_3a/pool_proj"
  top: "inception_3a/output"
}
layer {
  name: "inception_3b/1x1"
  type: "Convolution"
  bottom: "inception_3a/output"
  top: "inception_3b/1x1"
  param {
    lr_mult: 1
    decay_mult: 1
  }
  param {
    lr_mult: 2
    decay_mult: 0
  }
  convolution_param {
    num_output: 128
    kernel_size: 1
    weight_filler {
      type: "xavier"
      std: 0.03
    }
    bias_filler {
      type: "constant"
      value: 0.2
    }
  }
}
layer {
  name: "inception_3b/relu_1x1"
  type: "ReLU"
  bottom: "inception_3b/1x1"
  top: "inception_3b/1x1"
}
layer {
  name: "inception_3b/3x3_reduce"
  type: "Convolution"
  bottom: "inception_3a/output"
  top: "inception_3b/3x3_reduce"
  param {
    lr_mult: 1
    decay_mult: 1
  }
  param {
    lr_mult: 2
    decay_mult: 0
  }
  convolution_param {
    num_output: 128
    kernel_size: 1
    weight_filler {
      type: "xavier"
      std: 0.09
    }
    bias_filler {
      type: "constant"
      value: 0.2
    }
  }
}
layer {
  name: "inception_3b/relu_3x3_reduce"
  type: "ReLU"
  bottom: "inception_3b/3x3_reduce"
  top: "inception_3b/3x3_reduce"
}
layer {
  name: "inception_3b/3x3"
  type: "Convolution"
  bottom: "inception_3b/3x3_reduce"
  top: "inception_3b/3x3"
  param {
    lr_mult: 1
    decay_mult: 1
  }
  param {
    lr_mult: 2
    decay_mult: 0
  }
  convolution_param {
    num_output: 192
    pad: 1
    kernel_size: 3
    weight_filler {
      type: "xavier"
      std: 0.03
    }
    bias_filler {
      type: "constant"
      value: 0.2
    }
  }
}
layer {
  name: "inception_3b/relu_3x3"
  type: "ReLU"
  bottom: "inception_3b/3x3"
  top: "inception_3b/3x3"
}
layer {
  name: "inception_3b/5x5_reduce"
  type: "Convolution"
  bottom: "inception_3a/output"
  top: "inception_3b/5x5_reduce"
  param {
    lr_mult: 1
    decay_mult: 1
  }
  param {
    lr_mult: 2
    decay_mult: 0
  }
  convolution_param {
    num_output: 32
    kernel_size: 1
    weight_filler {
      type: "xavier"
      std: 0.2
    }
    bias_filler {
      type: "constant"
      value: 0.2
    }
  }
}
layer {
  name: "inception_3b/relu_5x5_reduce"
  type: "ReLU"
  bottom: "inception_3b/5x5_reduce"
  top: "inception_3b/5x5_reduce"
}
layer {
  name: "inception_3b/5x5"
  type: "Convolution"
  bottom: "inception_3b/5x5_reduce"
  top: "inception_3b/5x5"
  param {
    lr_mult: 1
    decay_mult: 1
  }
  param {
    lr_mult: 2
    decay_mult: 0
  }
  convolution_param {
    num_output: 96
    pad: 2
    kernel_size: 5
    weight_filler {
      type: "xavier"
      std: 0.03
    }
    bias_filler {
      type: "constant"
      value: 0.2
    }
  }
}
layer {
  name: "inception_3b/relu_5x5"
  type: "ReLU"
  bottom: "inception_3b/5x5"
  top: "inception_3b/5x5"
}
layer {
  name: "inception_3b/pool"
  type: "Pooling"
  bottom: "inception_3a/output"
  top: "inception_3b/pool"
  pooling_param {
    pool: MAX
    kernel_size: 3
    stride: 1
    pad: 1
  }
}
layer {
  name: "inception_3b/pool_proj"
  type: "Convolution"
  bottom: "inception_3b/pool"
  top: "inception_3b/pool_proj"
  param {
    lr_mult: 1
    decay_mult: 1
  }
  param {
    lr_mult: 2
    decay_mult: 0
  }
  convolution_param {
    num_output: 64
    kernel_size: 1
    weight_filler {
      type: "xavier"
      std: 0.1
    }
    bias_filler {
      type: "constant"
      value: 0.2
    }
  }
}
layer {
  name: "inception_3b/relu_pool_proj"
  type: "ReLU"
  bottom: "inception_3b/pool_proj"
  top: "inception_3b/pool_proj"
}
layer {
  name: "inception_3b/output"
  type: "Concat"
  bottom: "inception_3b/1x1"
  bottom: "inception_3b/3x3"
  bottom: "inception_3b/5x5"
  bottom: "inception_3b/pool_proj"
  top: "inception_3b/output"
}
layer {
  name: "pool3/3x3_s2"
  type: "Pooling"
  bottom: "inception_3b/output"
  top: "pool3/3x3_s2"
  pooling_param {
    pool: MAX
    kernel_size: 3
    stride: 2
  }
}
layer {
  name: "inception_4a/1x1"
  type: "Convolution"
  bottom: "pool3/3x3_s2"
  top: "inception_4a/1x1"
  param {
    lr_mult: 1
    decay_mult: 1
  }
  param {
    lr_mult: 2
    decay_mult: 0
  }
  convolution_param {
    num_output: 192
    kernel_size: 1
    weight_filler {
      type: "xavier"
      std: 0.03
    }
    bias_filler {
      type: "constant"
      value: 0.2
    }
  }
}
layer {
  name: "inception_4a/relu_1x1"
  type: "ReLU"
  bottom: "inception_4a/1x1"
  top: "inception_4a/1x1"
}
layer {
  name: "inception_4a/3x3_reduce"
  type: "Convolution"
  bottom: "pool3/3x3_s2"
  top: "inception_4a/3x3_reduce"
  param {
    lr_mult: 1
    decay_mult: 1
  }
  param {
    lr_mult: 2
    decay_mult: 0
  }
  convolution_param {
    num_output: 96
    kernel_size: 1
    weight_filler {
      type: "xavier"
      std: 0.09
    }
    bias_filler {
      type: "constant"
      value: 0.2
    }
  }
}
layer {
  name: "inception_4a/relu_3x3_reduce"
  type: "ReLU"
  bottom: "inception_4a/3x3_reduce"
  top: "inception_4a/3x3_reduce"
}
layer {
  name: "inception_4a/3x3"
  type: "Convolution"
  bottom: "inception_4a/3x3_reduce"
  top: "inception_4a/3x3"
  param {
    lr_mult: 1
    decay_mult: 1
  }
  param {
    lr_mult: 2
    decay_mult: 0
  }
  convolution_param {
    num_output: 208
    pad: 1
    kernel_size: 3
    weight_filler {
      type: "xavier"
      std: 0.03
    }
    bias_filler {
      type: "constant"
      value: 0.2
    }
  }
}
layer {
  name: "inception_4a/relu_3x3"
  type: "ReLU"
  bottom: "inception_4a/3x3"
  top: "inception_4a/3x3"
}
layer {
  name: "inception_4a/5x5_reduce"
  type: "Convolution"
  bottom: "pool3/3x3_s2"
  top: "inception_4a/5x5_reduce"
  param {
    lr_mult: 1
    decay_mult: 1
  }
  param {
    lr_mult: 2
    decay_mult: 0
  }
  convolution_param {
    num_output: 16
    kernel_size: 1
    weight_filler {
      type: "xavier"
      std: 0.2
    }
    bias_filler {
      type: "constant"
      value: 0.2
    }
  }
}
layer {
  name: "inception_4a/relu_5x5_reduce"
  type: "ReLU"
  bottom: "inception_4a/5x5_reduce"
  top: "inception_4a/5x5_reduce"
}
layer {
  name: "inception_4a/5x5"
  type: "Convolution"
  bottom: "inception_4a/5x5_reduce"
  top: "inception_4a/5x5"
  param {
    lr_mult: 1
    decay_mult: 1
  }
  param {
    lr_mult: 2
    decay_mult: 0
  }
  convolution_param {
    num_output: 48
    pad: 2
    kernel_size: 5
    weight_filler {
      type: "xavier"
      std: 0.03
    }
    bias_filler {
      type: "constant"
      value: 0.2
    }
  }
}
layer {
  name: "inception_4a/relu_5x5"
  type: "ReLU"
  bottom: "inception_4a/5x5"
  top: "inception_4a/5x5"
}
layer {
  name: "inception_4a/pool"
  type: "Pooling"
  bottom: "pool3/3x3_s2"
  top: "inception_4a/pool"
  pooling_param {
    pool: MAX
    kernel_size: 3
    stride: 1
    pad: 1
  }
}
layer {
  name: "inception_4a/pool_proj"
  type: "Convolution"
  bottom: "inception_4a/pool"
  top: "inception_4a/pool_proj"
  param {
    lr_mult: 1
    decay_mult: 1
  }
  param {
    lr_mult: 2
    decay_mult: 0
  }
  convolution_param {
    num_output: 64
    kernel_size: 1
    weight_filler {
      type: "xavier"
      std: 0.1
    }
    bias_filler {
      type: "constant"
      value: 0.2
    }
  }
}
layer {
  name: "inception_4a/relu_pool_proj"
  type: "ReLU"
  bottom: "inception_4a/pool_proj"
  top: "inception_4a/pool_proj"
}
layer {
  name: "inception_4a/output"
  type: "Concat"
  bottom: "inception_4a/1x1"
  bottom: "inception_4a/3x3"
  bottom: "inception_4a/5x5"
  bottom: "inception_4a/pool_proj"
  top: "inception_4a/output"
}
layer {
  name: "loss1/ave_pool"
  type: "Pooling"
  bottom: "inception_4a/output"
  top: "loss1/ave_pool"
  pooling_param {
    pool: AVE
    kernel_size: 5
    stride: 3
  }
}
layer {
  name: "loss1/conv"
  type: "Convolution"
  bottom: "loss1/ave_pool"
  top: "loss1/conv"
  param {
    lr_mult: 1
    decay_mult: 1
  }
  param {
    lr_mult: 2
    decay_mult: 0
  }
  convolution_param {
    num_output: 128
    kernel_size: 1
    weight_filler {
      type: "xavier"
      std: 0.08
    }
    bias_filler {
      type: "constant"
      value: 0.2
    }
  }
}
layer {
  name: "loss1/relu_conv"
  type: "ReLU"
  bottom: "loss1/conv"
  top: "loss1/conv"
}
layer {
  name: "loss1/fc"
  type: "InnerProduct"
  bottom: "loss1/conv"
  top: "loss1/fc"
  param {
    lr_mult: 1
    decay_mult: 1
  }
  param {
    lr_mult: 2
    decay_mult: 0
  }
  inner_product_param {
    num_output: 1024
    weight_filler {
      type: "xavier"
      std: 0.02
    }
    bias_filler {
      type: "constant"
      value: 0.2
    }
  }
}
layer {
  name: "loss1/relu_fc"
  type: "ReLU"
  bottom: "loss1/fc"
  top: "loss1/fc"
}
layer {
  name: "loss1/drop_fc"
  type: "Dropout"
  bottom: "loss1/fc"
  top: "loss1/fc"
  dropout_param {
    dropout_ratio: 0.7
  }
}
layer {
  name: "loss1/classifier_plantvillage"
  type: "InnerProduct"
  bottom: "loss1/fc"
  top: "loss1/classifier_plantvillage"
  param {
    lr_mult: 1
    decay_mult: 1
  }
  param {
    lr_mult: 2
    decay_mult: 0
  }
  inner_product_param {
    num_output: 38
    weight_filler {
      type: "xavier"
      std: 0.0009765625
    }
    bias_filler {
      type: "constant"
      value: 0
    }
  }
}
layer {
  name: "inception_4b/1x1"
  type: "Convolution"
  bottom: "inception_4a/output"
  top: "inception_4b/1x1"
  param {
    lr_mult: 1
    decay_mult: 1
  }
  param {
    lr_mult: 2
    decay_mult: 0
  }
  convolution_param {
    num_output: 160
    kernel_size: 1
    weight_filler {
      type: "xavier"
      std: 0.03
    }
    bias_filler {
      type: "constant"
      value: 0.2
    }
  }
}
layer {
  name: "inception_4b/relu_1x1"
  type: "ReLU"
  bottom: "inception_4b/1x1"
  top: "inception_4b/1x1"
}
layer {
  name: "inception_4b/3x3_reduce"
  type: "Convolution"
  bottom: "inception_4a/output"
  top: "inception_4b/3x3_reduce"
  param {
    lr_mult: 1
    decay_mult: 1
  }
  param {
    lr_mult: 2
    decay_mult: 0
  }
  convolution_param {
    num_output: 112
    kernel_size: 1
    weight_filler {
      type: "xavier"
      std: 0.09
    }
    bias_filler {
      type: "constant"
      value: 0.2
    }
  }
}
layer {
  name: "inception_4b/relu_3x3_reduce"
  type: "ReLU"
  bottom: "inception_4b/3x3_reduce"
  top: "inception_4b/3x3_reduce"
}
layer {
  name: "inception_4b/3x3"
  type: "Convolution"
  bottom: "inception_4b/3x3_reduce"
  top: "inception_4b/3x3"
  param {
    lr_mult: 1
    decay_mult: 1
  }
  param {
    lr_mult: 2
    decay_mult: 0
  }
  convolution_param {
    num_output: 224
    pad: 1
    kernel_size: 3
    weight_filler {
      type: "xavier"
      std: 0.03
    }
    bias_filler {
      type: "constant"
      value: 0.2
    }
  }
}
layer {
  name: "inception_4b/relu_3x3"
  type: "ReLU"
  bottom: "inception_4b/3x3"
  top: "inception_4b/3x3"
}
layer {
  name: "inception_4b/5x5_reduce"
  type: "Convolution"
  bottom: "inception_4a/output"
  top: "inception_4b/5x5_reduce"
  param {
    lr_mult: 1
    decay_mult: 1
  }
  param {
    lr_mult: 2
    decay_mult: 0
  }
  convolution_param {
    num_output: 24
    kernel_size: 1
    weight_filler {
      type: "xavier"
      std: 0.2
    }
    bias_filler {
      type: "constant"
      value: 0.2
    }
  }
}
layer {
  name: "inception_4b/relu_5x5_reduce"
  type: "ReLU"
  bottom: "inception_4b/5x5_reduce"
  top: "inception_4b/5x5_reduce"
}
layer {
  name: "inception_4b/5x5"
  type: "Convolution"
  bottom: "inception_4b/5x5_reduce"
  top: "inception_4b/5x5"
  param {
    lr_mult: 1
    decay_mult: 1
  }
  param {
    lr_mult: 2
    decay_mult: 0
  }
  convolution_param {
    num_output: 64
    pad: 2
    kernel_size: 5
    weight_filler {
      type: "xavier"
      std: 0.03
    }
    bias_filler {
      type: "constant"
      value: 0.2
    }
  }
}
layer {
  name: "inception_4b/relu_5x5"
  type: "ReLU"
  bottom: "inception_4b/5x5"
  top: "inception_4b/5x5"
}
layer {
  name: "inception_4b/pool"
  type: "Pooling"
  bottom: "inception_4a/output"
  top: "inception_4b/pool"
  pooling_param {
    pool: MAX
    kernel_size: 3
    stride: 1
    pad: 1
  }
}
layer {
  name: "inception_4b/pool_proj"
  type: "Convolution"
  bottom: "inception_4b/pool"
  top: "inception_4b/pool_proj"
  param {
    lr_mult: 1
    decay_mult: 1
  }
  param {
    lr_mult: 2
    decay_mult: 0
  }
  convolution_param {
    num_output: 64
    kernel_size: 1
    weight_filler {
      type: "xavier"
      std: 0.1
    }
    bias_filler {
      type: "constant"
      value: 0.2
    }
  }
}
layer {
  name: "inception_4b/relu_pool_proj"
  type: "ReLU"
  bottom: "inception_4b/pool_proj"
  top: "inception_4b/pool_proj"
}
layer {
  name: "inception_4b/output"
  type: "Concat"
  bottom: "inception_4b/1x1"
  bottom: "inception_4b/3x3"
  bottom: "inception_4b/5x5"
  bottom: "inception_4b/pool_proj"
  top: "inception_4b/output"
}
layer {
  name: "inception_4c/1x1"
  type: "Convolution"
  bottom: "inception_4b/output"
  top: "inception_4c/1x1"
  param {
    lr_mult: 1
    decay_mult: 1
  }
  param {
    lr_mult: 2
    decay_mult: 0
  }
  convolution_param {
    num_output: 128
    kernel_size: 1
    weight_filler {
      type: "xavier"
      std: 0.03
    }
    bias_filler {
      type: "constant"
      value: 0.2
    }
  }
}
layer {
  name: "inception_4c/relu_1x1"
  type: "ReLU"
  bottom: "inception_4c/1x1"
  top: "inception_4c/1x1"
}
layer {
  name: "inception_4c/3x3_reduce"
  type: "Convolution"
  bottom: "inception_4b/output"
  top: "inception_4c/3x3_reduce"
  param {
    lr_mult: 1
    decay_mult: 1
  }
  param {
    lr_mult: 2
    decay_mult: 0
  }
  convolution_param {
    num_output: 128
    kernel_size: 1
    weight_filler {
      type: "xavier"
      std: 0.09
    }
    bias_filler {
      type: "constant"
      value: 0.2
    }
  }
}
layer {
  name: "inception_4c/relu_3x3_reduce"
  type: "ReLU"
  bottom: "inception_4c/3x3_reduce"
  top: "inception_4c/3x3_reduce"
}
layer {
  name: "inception_4c/3x3"
  type: "Convolution"
  bottom: "inception_4c/3x3_reduce"
  top: "inception_4c/3x3"
  param {
    lr_mult: 1
    decay_mult: 1
  }
  param {
    lr_mult: 2
    decay_mult: 0
  }
  convolution_param {
    num_output: 256
    pad: 1
    kernel_size: 3
    weight_filler {
      type: "xavier"
      std: 0.03
    }
    bias_filler {
      type: "constant"
      value: 0.2
    }
  }
}
layer {
  name: "inception_4c/relu_3x3"
  type: "ReLU"
  bottom: "inception_4c/3x3"
  top: "inception_4c/3x3"
}
layer {
  name: "inception_4c/5x5_reduce"
  type: "Convolution"
  bottom: "inception_4b/output"
  top: "inception_4c/5x5_reduce"
  param {
    lr_mult: 1
    decay_mult: 1
  }
  param {
    lr_mult: 2
    decay_mult: 0
  }
  convolution_param {
    num_output: 24
    kernel_size: 1
    weight_filler {
      type: "xavier"
      std: 0.2
    }
    bias_filler {
      type: "constant"
      value: 0.2
    }
  }
}
layer {
  name: "inception_4c/relu_5x5_reduce"
  type: "ReLU"
  bottom: "inception_4c/5x5_reduce"
  top: "inception_4c/5x5_reduce"
}
layer {
  name: "inception_4c/5x5"
  type: "Convolution"
  bottom: "inception_4c/5x5_reduce"
  top: "inception_4c/5x5"
  param {
    lr_mult: 1
    decay_mult: 1
  }
  param {
    lr_mult: 2
    decay_mult: 0
  }
  convolution_param {
    num_output: 64
    pad: 2
    kernel_size: 5
    weight_filler {
      type: "xavier"
      std: 0.03
    }
    bias_filler {
      type: "constant"
      value: 0.2
    }
  }
}
layer {
  name: "inception_4c/relu_5x5"
  type: "ReLU"
  bottom: "inception_4c/5x5"
  top: "inception_4c/5x5"
}
layer {
  name: "inception_4c/pool"
  type: "Pooling"
  bottom: "inception_4b/output"
  top: "inception_4c/pool"
  pooling_param {
    pool: MAX
    kernel_size: 3
    stride: 1
    pad: 1
  }
}
layer {
  name: "inception_4c/pool_proj"
  type: "Convolution"
  bottom: "inception_4c/pool"
  top: "inception_4c/pool_proj"
  param {
    lr_mult: 1
    decay_mult: 1
  }
  param {
    lr_mult: 2
    decay_mult: 0
  }
  convolution_param {
    num_output: 64
    kernel_size: 1
    weight_filler {
      type: "xavier"
      std: 0.1
    }
    bias_filler {
      type: "constant"
      value: 0.2
    }
  }
}
layer {
  name: "inception_4c/relu_pool_proj"
  type: "ReLU"
  bottom: "inception_4c/pool_proj"
  top: "inception_4c/pool_proj"
}
layer {
  name: "inception_4c/output"
  type: "Concat"
  bottom: "inception_4c/1x1"
  bottom: "inception_4c/3x3"
  bottom: "inception_4c/5x5"
  bottom: "inception_4c/pool_proj"
  top: "inception_4c/output"
}
layer {
  name: "inception_4d/1x1"
  type: "Convolution"
  bottom: "inception_4c/output"
  top: "inception_4d/1x1"
  param {
    lr_mult: 1
    decay_mult: 1
  }
  param {
    lr_mult: 2
    decay_mult: 0
  }
  convolution_param {
    num_output: 112
    kernel_size: 1
    weight_filler {
      type: "xavier"
      std: 0.03
    }
    bias_filler {
      type: "constant"
      value: 0.2
    }
  }
}
layer {
  name: "inception_4d/relu_1x1"
  type: "ReLU"
  bottom: "inception_4d/1x1"
  top: "inception_4d/1x1"
}
layer {
  name: "inception_4d/3x3_reduce"
  type: "Convolution"
  bottom: "inception_4c/output"
  top: "inception_4d/3x3_reduce"
  param {
    lr_mult: 1
    decay_mult: 1
  }
  param {
    lr_mult: 2
    decay_mult: 0
  }
  convolution_param {
    num_output: 144
    kernel_size: 1
    weight_filler {
      type: "xavier"
      std: 0.09
    }
    bias_filler {
      type: "constant"
      value: 0.2
    }
  }
}
layer {
  name: "inception_4d/relu_3x3_reduce"
  type: "ReLU"
  bottom: "inception_4d/3x3_reduce"
  top: "inception_4d/3x3_reduce"
}
layer {
  name: "inception_4d/3x3"
  type: "Convolution"
  bottom: "inception_4d/3x3_reduce"
  top: "inception_4d/3x3"
  param {
    lr_mult: 1
    decay_mult: 1
  }
  param {
    lr_mult: 2
    decay_mult: 0
  }
  convolution_param {
    num_output: 288
    pad: 1
    kernel_size: 3
    weight_filler {
      type: "xavier"
      std: 0.03
    }
    bias_filler {
      type: "constant"
      value: 0.2
    }
  }
}
layer {
  name: "inception_4d/relu_3x3"
  type: "ReLU"
  bottom: "inception_4d/3x3"
  top: "inception_4d/3x3"
}
layer {
  name: "inception_4d/5x5_reduce"
  type: "Convolution"
  bottom: "inception_4c/output"
  top: "inception_4d/5x5_reduce"
  param {
    lr_mult: 1
    decay_mult: 1
  }
  param {
    lr_mult: 2
    decay_mult: 0
  }
  convolution_param {
    num_output: 32
    kernel_size: 1
    weight_filler {
      type: "xavier"
      std: 0.2
    }
    bias_filler {
      type: "constant"
      value: 0.2
    }
  }
}
layer {
  name: "inception_4d/relu_5x5_reduce"
  type: "ReLU"
  bottom: "inception_4d/5x5_reduce"
  top: "inception_4d/5x5_reduce"
}
layer {
  name: "inception_4d/5x5"
  type: "Convolution"
  bottom: "inception_4d/5x5_reduce"
  top: "inception_4d/5x5"
  param {
    lr_mult: 1
    decay_mult: 1
  }
  param {
    lr_mult: 2
    decay_mult: 0
  }
  convolution_param {
    num_output: 64
    pad: 2
    kernel_size: 5
    weight_filler {
      type: "xavier"
      std: 0.03
    }
    bias_filler {
      type: "constant"
      value: 0.2
    }
  }
}
layer {
  name: "inception_4d/relu_5x5"
  type: "ReLU"
  bottom: "inception_4d/5x5"
  top: "inception_4d/5x5"
}
layer {
  name: "inception_4d/pool"
  type: "Pooling"
  bottom: "inception_4c/output"
  top: "inception_4d/pool"
  pooling_param {
    pool: MAX
    kernel_size: 3
    stride: 1
    pad: 1
  }
}
layer {
  name: "inception_4d/pool_proj"
  type: "Convolution"
  bottom: "inception_4d/pool"
  top: "inception_4d/pool_proj"
  param {
    lr_mult: 1
    decay_mult: 1
  }
  param {
    lr_mult: 2
    decay_mult: 0
  }
  convolution_param {
    num_output: 64
    kernel_size: 1
    weight_filler {
      type: "xavier"
      std: 0.1
    }
    bias_filler {
      type: "constant"
      value: 0.2
    }
  }
}
layer {
  name: "inception_4d/relu_pool_proj"
  type: "ReLU"
  bottom: "inception_4d/pool_proj"
  top: "inception_4d/pool_proj"
}
layer {
  name: "inception_4d/output"
  type: "Concat"
  bottom: "inception_4d/1x1"
  bottom: "inception_4d/3x3"
  bottom: "inception_4d/5x5"
  bottom: "inception_4d/pool_proj"
  top: "inception_4d/output"
}
layer {
  name: "loss2/ave_pool"
  type: "Pooling"
  bottom: "inception_4d/output"
  top: "loss2/ave_pool"
  pooling_param {
    pool: AVE
    kernel_size: 5
    stride: 3
  }
}
layer {
  name: "loss2/conv"
  type: "Convolution"
  bottom: "loss2/ave_pool"
  top: "loss2/conv"
  param {
    lr_mult: 1
    decay_mult: 1
  }
  param {
    lr_mult: 2
    decay_mult: 0
  }
  convolution_param {
    num_output: 128
    kernel_size: 1
    weight_filler {
      type: "xavier"
      std: 0.08
    }
    bias_filler {
      type: "constant"
      value: 0.2
    }
  }
}
layer {
  name: "loss2/relu_conv"
  type: "ReLU"
  bottom: "loss2/conv"
  top: "loss2/conv"
}
layer {
  name: "loss2/fc"
  type: "InnerProduct"
  bottom: "loss2/conv"
  top: "loss2/fc"
  param {
    lr_mult: 1
    decay_mult: 1
  }
  param {
    lr_mult: 2
    decay_mult: 0
  }
  inner_product_param {
    num_output: 1024
    weight_filler {
      type: "xavier"
      std: 0.02
    }
    bias_filler {
      type: "constant"
      value: 0.2
    }
  }
}
layer {
  name: "loss2/relu_fc"
  type: "ReLU"
  bottom: "loss2/fc"
  top: "loss2/fc"
}
layer {
  name: "loss2/drop_fc"
  type: "Dropout"
  bottom: "loss2/fc"
  top: "loss2/fc"
  dropout_param {
    dropout_ratio: 0.7
  }
}
layer {
  name: "loss2/classifier_plantvillage"
  type: "InnerProduct"
  bottom: "loss2/fc"
  top: "loss2/classifier_plantvillage"
  param {
    lr_mult: 1
    decay_mult: 1
  }
  param {
    lr_mult: 2
    decay_mult: 0
  }
  inner_product_param {
    num_output: 38
    weight_filler {
      type: "xavier"
      std: 0.0009765625
    }
    bias_filler {
      type: "constant"
      value: 0
    }
  }
}
layer {
  name: "inception_4e/1x1"
  type: "Convolution"
  bottom: "inception_4d/output"
  top: "inception_4e/1x1"
  param {
    lr_mult: 1
    decay_mult: 1
  }
  param {
    lr_mult: 2
    decay_mult: 0
  }
  convolution_param {
    num_output: 256
    kernel_size: 1
    weight_filler {
      type: "xavier"
      std: 0.03
    }
    bias_filler {
      type: "constant"
      value: 0.2
    }
  }
}
layer {
  name: "inception_4e/relu_1x1"
  type: "ReLU"
  bottom: "inception_4e/1x1"
  top: "inception_4e/1x1"
}
layer {
  name: "inception_4e/3x3_reduce"
  type: "Convolution"
  bottom: "inception_4d/output"
  top: "inception_4e/3x3_reduce"
  param {
    lr_mult: 1
    decay_mult: 1
  }
  param {
    lr_mult: 2
    decay_mult: 0
  }
  convolution_param {
    num_output: 160
    kernel_size: 1
    weight_filler {
      type: "xavier"
      std: 0.09
    }
    bias_filler {
      type: "constant"
      value: 0.2
    }
  }
}
layer {
  name: "inception_4e/relu_3x3_reduce"
  type: "ReLU"
  bottom: "inception_4e/3x3_reduce"
  top: "inception_4e/3x3_reduce"
}
layer {
  name: "inception_4e/3x3"
  type: "Convolution"
  bottom: "inception_4e/3x3_reduce"
  top: "inception_4e/3x3"
  param {
    lr_mult: 1
    decay_mult: 1
  }
  param {
    lr_mult: 2
    decay_mult: 0
  }
  convolution_param {
    num_output: 320
    pad: 1
    kernel_size: 3
    weight_filler {
      type: "xavier"
      std: 0.03
    }
    bias_filler {
      type: "constant"
      value: 0.2
    }
  }
}
layer {
  name: "inception_4e/relu_3x3"
  type: "ReLU"
  bottom: "inception_4e/3x3"
  top: "inception_4e/3x3"
}
layer {
  name: "inception_4e/5x5_reduce"
  type: "Convolution"
  bottom: "inception_4d/output"
  top: "inception_4e/5x5_reduce"
  param {
    lr_mult: 1
    decay_mult: 1
  }
  param {
    lr_mult: 2
    decay_mult: 0
  }
  convolution_param {
    num_output: 32
    kernel_size: 1
    weight_filler {
      type: "xavier"
      std: 0.2
    }
    bias_filler {
      type: "constant"
      value: 0.2
    }
  }
}
layer {
  name: "inception_4e/relu_5x5_reduce"
  type: "ReLU"
  bottom: "inception_4e/5x5_reduce"
  top: "inception_4e/5x5_reduce"
}
layer {
  name: "inception_4e/5x5"
  type: "Convolution"
  bottom: "inception_4e/5x5_reduce"
  top: "inception_4e/
I0403 17:37:50.316436 14460 layer_factory.hpp:77] Creating layer data
I0403 17:37:50.317064 14460 net.cpp:91] Creating Layer data
I0403 17:37:50.317104 14460 net.cpp:399] data -> data
I0403 17:37:50.317157 14460 net.cpp:399] data -> label
I0403 17:37:50.317193 14460 data_transformer.cpp:25] Loading mean file from: /home/mohanty/data/final_dataset/lmdb/grayscale-60-40/mean.binaryproto
I0403 17:37:50.410320 14465 db_lmdb.cpp:38] Opened lmdb /home/mohanty/data/final_dataset/lmdb/grayscale-60-40/test_db
I0403 17:37:50.451761 14460 data_layer.cpp:41] output data size: 24,3,224,224
I0403 17:37:50.479908 14460 net.cpp:141] Setting up data
I0403 17:37:50.479997 14460 net.cpp:148] Top shape: 24 3 224 224 (3612672)
I0403 17:37:50.480020 14460 net.cpp:148] Top shape: 24 (24)
I0403 17:37:50.480036 14460 net.cpp:156] Memory required for data: 14450784
I0403 17:37:50.480064 14460 layer_factory.hpp:77] Creating layer label_data_1_split
I0403 17:37:50.480092 14460 net.cpp:91] Creating Layer label_data_1_split
I0403 17:37:50.480110 14460 net.cpp:425] label_data_1_split <- label
I0403 17:37:50.480141 14460 net.cpp:399] label_data_1_split -> label_data_1_split_0
I0403 17:37:50.480171 14460 net.cpp:399] label_data_1_split -> label_data_1_split_1
I0403 17:37:50.480193 14460 net.cpp:399] label_data_1_split -> label_data_1_split_2
I0403 17:37:50.480217 14460 net.cpp:399] label_data_1_split -> label_data_1_split_3
I0403 17:37:50.480237 14460 net.cpp:399] label_data_1_split -> label_data_1_split_4
I0403 17:37:50.480258 14460 net.cpp:399] label_data_1_split -> label_data_1_split_5
I0403 17:37:50.480279 14460 net.cpp:399] label_data_1_split -> label_data_1_split_6
I0403 17:37:50.480301 14460 net.cpp:399] label_data_1_split -> label_data_1_split_7
I0403 17:37:50.480321 14460 net.cpp:399] label_data_1_split -> label_data_1_split_8
I0403 17:37:50.480343 14460 net.cpp:399] label_data_1_split -> label_data_1_split_9
I0403 17:37:50.480463 14460 net.cpp:141] Setting up label_data_1_split
I0403 17:37:50.480486 14460 net.cpp:148] Top shape: 24 (24)
I0403 17:37:50.480515 14460 net.cpp:148] Top shape: 24 (24)
I0403 17:37:50.480531 14460 net.cpp:148] Top shape: 24 (24)
I0403 17:37:50.480547 14460 net.cpp:148] Top shape: 24 (24)
I0403 17:37:50.480564 14460 net.cpp:148] Top shape: 24 (24)
I0403 17:37:50.480581 14460 net.cpp:148] Top shape: 24 (24)
I0403 17:37:50.480597 14460 net.cpp:148] Top shape: 24 (24)
I0403 17:37:50.480612 14460 net.cpp:148] Top shape: 24 (24)
I0403 17:37:50.480628 14460 net.cpp:148] Top shape: 24 (24)
I0403 17:37:50.480644 14460 net.cpp:148] Top shape: 24 (24)
I0403 17:37:50.480690 14460 net.cpp:156] Memory required for data: 14451744
I0403 17:37:50.480706 14460 layer_factory.hpp:77] Creating layer conv1/7x7_s2
I0403 17:37:50.480739 14460 net.cpp:91] Creating Layer conv1/7x7_s2
I0403 17:37:50.480759 14460 net.cpp:425] conv1/7x7_s2 <- data
I0403 17:37:50.480779 14460 net.cpp:399] conv1/7x7_s2 -> conv1/7x7_s2
I0403 17:37:50.631463 14460 net.cpp:141] Setting up conv1/7x7_s2
I0403 17:37:50.631531 14460 net.cpp:148] Top shape: 24 64 112 112 (19267584)
I0403 17:37:50.631548 14460 net.cpp:156] Memory required for data: 91522080
I0403 17:37:50.631582 14460 layer_factory.hpp:77] Creating layer conv1/relu_7x7
I0403 17:37:50.631609 14460 net.cpp:91] Creating Layer conv1/relu_7x7
I0403 17:37:50.631628 14460 net.cpp:425] conv1/relu_7x7 <- conv1/7x7_s2
I0403 17:37:50.631649 14460 net.cpp:386] conv1/relu_7x7 -> conv1/7x7_s2 (in-place)
I0403 17:37:50.631916 14460 net.cpp:141] Setting up conv1/relu_7x7
I0403 17:37:50.631944 14460 net.cpp:148] Top shape: 24 64 112 112 (19267584)
I0403 17:37:50.631966 14460 net.cpp:156] Memory required for data: 168592416
I0403 17:37:50.631983 14460 layer_factory.hpp:77] Creating layer pool1/3x3_s2
I0403 17:37:50.632009 14460 net.cpp:91] Creating Layer pool1/3x3_s2
I0403 17:37:50.632030 14460 net.cpp:425] pool1/3x3_s2 <- conv1/7x7_s2
I0403 17:37:50.632050 14460 net.cpp:399] pool1/3x3_s2 -> pool1/3x3_s2
I0403 17:37:50.632127 14460 net.cpp:141] Setting up pool1/3x3_s2
I0403 17:37:50.632151 14460 net.cpp:148] Top shape: 24 64 56 56 (4816896)
I0403 17:37:50.632167 14460 net.cpp:156] Memory required for data: 187860000
I0403 17:37:50.632182 14460 layer_factory.hpp:77] Creating layer pool1/norm1
I0403 17:37:50.632207 14460 net.cpp:91] Creating Layer pool1/norm1
I0403 17:37:50.632226 14460 net.cpp:425] pool1/norm1 <- pool1/3x3_s2
I0403 17:37:50.632246 14460 net.cpp:399] pool1/norm1 -> pool1/norm1
I0403 17:37:50.632540 14460 net.cpp:141] Setting up pool1/norm1
I0403 17:37:50.632568 14460 net.cpp:148] Top shape: 24 64 56 56 (4816896)
I0403 17:37:50.632586 14460 net.cpp:156] Memory required for data: 207127584
I0403 17:37:50.632601 14460 layer_factory.hpp:77] Creating layer conv2/3x3_reduce
I0403 17:37:50.632627 14460 net.cpp:91] Creating Layer conv2/3x3_reduce
I0403 17:37:50.632645 14460 net.cpp:425] conv2/3x3_reduce <- pool1/norm1
I0403 17:37:50.632665 14460 net.cpp:399] conv2/3x3_reduce -> conv2/3x3_reduce
I0403 17:37:50.634217 14460 net.cpp:141] Setting up conv2/3x3_reduce
I0403 17:37:50.634250 14460 net.cpp:148] Top shape: 24 64 56 56 (4816896)
I0403 17:37:50.634268 14460 net.cpp:156] Memory required for data: 226395168
I0403 17:37:50.634290 14460 layer_factory.hpp:77] Creating layer conv2/relu_3x3_reduce
I0403 17:37:50.634311 14460 net.cpp:91] Creating Layer conv2/relu_3x3_reduce
I0403 17:37:50.634328 14460 net.cpp:425] conv2/relu_3x3_reduce <- conv2/3x3_reduce
I0403 17:37:50.634349 14460 net.cpp:386] conv2/relu_3x3_reduce -> conv2/3x3_reduce (in-place)
I0403 17:37:50.634639 14460 net.cpp:141] Setting up conv2/relu_3x3_reduce
I0403 17:37:50.634665 14460 net.cpp:148] Top shape: 24 64 56 56 (4816896)
I0403 17:37:50.634682 14460 net.cpp:156] Memory required for data: 245662752
I0403 17:37:50.634697 14460 layer_factory.hpp:77] Creating layer conv2/3x3
I0403 17:37:50.634723 14460 net.cpp:91] Creating Layer conv2/3x3
I0403 17:37:50.634742 14460 net.cpp:425] conv2/3x3 <- conv2/3x3_reduce
I0403 17:37:50.634765 14460 net.cpp:399] conv2/3x3 -> conv2/3x3
I0403 17:37:50.637259 14460 net.cpp:141] Setting up conv2/3x3
I0403 17:37:50.637290 14460 net.cpp:148] Top shape: 24 192 56 56 (14450688)
I0403 17:37:50.637308 14460 net.cpp:156] Memory required for data: 303465504
I0403 17:37:50.637425 14460 layer_factory.hpp:77] Creating layer conv2/relu_3x3
I0403 17:37:50.637450 14460 net.cpp:91] Creating Layer conv2/relu_3x3
I0403 17:37:50.637467 14460 net.cpp:425] conv2/relu_3x3 <- conv2/3x3
I0403 17:37:50.637488 14460 net.cpp:386] conv2/relu_3x3 -> conv2/3x3 (in-place)
I0403 17:37:50.637676 14460 net.cpp:141] Setting up conv2/relu_3x3
I0403 17:37:50.637701 14460 net.cpp:148] Top shape: 24 192 56 56 (14450688)
I0403 17:37:50.637748 14460 net.cpp:156] Memory required for data: 361268256
I0403 17:37:50.637766 14460 layer_factory.hpp:77] Creating layer conv2/norm2
I0403 17:37:50.637787 14460 net.cpp:91] Creating Layer conv2/norm2
I0403 17:37:50.637805 14460 net.cpp:425] conv2/norm2 <- conv2/3x3
I0403 17:37:50.637823 14460 net.cpp:399] conv2/norm2 -> conv2/norm2
I0403 17:37:50.638149 14460 net.cpp:141] Setting up conv2/norm2
I0403 17:37:50.638180 14460 net.cpp:148] Top shape: 24 192 56 56 (14450688)
I0403 17:37:50.638197 14460 net.cpp:156] Memory required for data: 419071008
I0403 17:37:50.638213 14460 layer_factory.hpp:77] Creating layer pool2/3x3_s2
I0403 17:37:50.638231 14460 net.cpp:91] Creating Layer pool2/3x3_s2
I0403 17:37:50.638248 14460 net.cpp:425] pool2/3x3_s2 <- conv2/norm2
I0403 17:37:50.638267 14460 net.cpp:399] pool2/3x3_s2 -> pool2/3x3_s2
I0403 17:37:50.638325 14460 net.cpp:141] Setting up pool2/3x3_s2
I0403 17:37:50.638350 14460 net.cpp:148] Top shape: 24 192 28 28 (3612672)
I0403 17:37:50.638365 14460 net.cpp:156] Memory required for data: 433521696
I0403 17:37:50.638381 14460 layer_factory.hpp:77] Creating layer pool2/3x3_s2_pool2/3x3_s2_0_split
I0403 17:37:50.638398 14460 net.cpp:91] Creating Layer pool2/3x3_s2_pool2/3x3_s2_0_split
I0403 17:37:50.638414 14460 net.cpp:425] pool2/3x3_s2_pool2/3x3_s2_0_split <- pool2/3x3_s2
I0403 17:37:50.638435 14460 net.cpp:399] pool2/3x3_s2_pool2/3x3_s2_0_split -> pool2/3x3_s2_pool2/3x3_s2_0_split_0
I0403 17:37:50.638458 14460 net.cpp:399] pool2/3x3_s2_pool2/3x3_s2_0_split -> pool2/3x3_s2_pool2/3x3_s2_0_split_1
I0403 17:37:50.638478 14460 net.cpp:399] pool2/3x3_s2_pool2/3x3_s2_0_split -> pool2/3x3_s2_pool2/3x3_s2_0_split_2
I0403 17:37:50.638501 14460 net.cpp:399] pool2/3x3_s2_pool2/3x3_s2_0_split -> pool2/3x3_s2_pool2/3x3_s2_0_split_3
I0403 17:37:50.638578 14460 net.cpp:141] Setting up pool2/3x3_s2_pool2/3x3_s2_0_split
I0403 17:37:50.638602 14460 net.cpp:148] Top shape: 24 192 28 28 (3612672)
I0403 17:37:50.638619 14460 net.cpp:148] Top shape: 24 192 28 28 (3612672)
I0403 17:37:50.638635 14460 net.cpp:148] Top shape: 24 192 28 28 (3612672)
I0403 17:37:50.638653 14460 net.cpp:148] Top shape: 24 192 28 28 (3612672)
I0403 17:37:50.638666 14460 net.cpp:156] Memory required for data: 491324448
I0403 17:37:50.638681 14460 layer_factory.hpp:77] Creating layer inception_3a/1x1
I0403 17:37:50.638705 14460 net.cpp:91] Creating Layer inception_3a/1x1
I0403 17:37:50.638723 14460 net.cpp:425] inception_3a/1x1 <- pool2/3x3_s2_pool2/3x3_s2_0_split_0
I0403 17:37:50.638746 14460 net.cpp:399] inception_3a/1x1 -> inception_3a/1x1
I0403 17:37:50.640488 14460 net.cpp:141] Setting up inception_3a/1x1
I0403 17:37:50.640522 14460 net.cpp:148] Top shape: 24 64 28 28 (1204224)
I0403 17:37:50.640539 14460 net.cpp:156] Memory required for data: 496141344
I0403 17:37:50.640559 14460 layer_factory.hpp:77] Creating layer inception_3a/relu_1x1
I0403 17:37:50.640578 14460 net.cpp:91] Creating Layer inception_3a/relu_1x1
I0403 17:37:50.640595 14460 net.cpp:425] inception_3a/relu_1x1 <- inception_3a/1x1
I0403 17:37:50.640616 14460 net.cpp:386] inception_3a/relu_1x1 -> inception_3a/1x1 (in-place)
I0403 17:37:50.640800 14460 net.cpp:141] Setting up inception_3a/relu_1x1
I0403 17:37:50.640826 14460 net.cpp:148] Top shape: 24 64 28 28 (1204224)
I0403 17:37:50.640841 14460 net.cpp:156] Memory required for data: 500958240
I0403 17:37:50.640857 14460 layer_factory.hpp:77] Creating layer inception_3a/3x3_reduce
I0403 17:37:50.640880 14460 net.cpp:91] Creating Layer inception_3a/3x3_reduce
I0403 17:37:50.640899 14460 net.cpp:425] inception_3a/3x3_reduce <- pool2/3x3_s2_pool2/3x3_s2_0_split_1
I0403 17:37:50.640920 14460 net.cpp:399] inception_3a/3x3_reduce -> inception_3a/3x3_reduce
I0403 17:37:50.642704 14460 net.cpp:141] Setting up inception_3a/3x3_reduce
I0403 17:37:50.642735 14460 net.cpp:148] Top shape: 24 96 28 28 (1806336)
I0403 17:37:50.642752 14460 net.cpp:156] Memory required for data: 508183584
I0403 17:37:50.642776 14460 layer_factory.hpp:77] Creating layer inception_3a/relu_3x3_reduce
I0403 17:37:50.642814 14460 net.cpp:91] Creating Layer inception_3a/relu_3x3_reduce
I0403 17:37:50.642834 14460 net.cpp:425] inception_3a/relu_3x3_reduce <- inception_3a/3x3_reduce
I0403 17:37:50.642853 14460 net.cpp:386] inception_3a/relu_3x3_reduce -> inception_3a/3x3_reduce (in-place)
I0403 17:37:50.643049 14460 net.cpp:141] Setting up inception_3a/relu_3x3_reduce
I0403 17:37:50.643077 14460 net.cpp:148] Top shape: 24 96 28 28 (1806336)
I0403 17:37:50.643095 14460 net.cpp:156] Memory required for data: 515408928
I0403 17:37:50.643110 14460 layer_factory.hpp:77] Creating layer inception_3a/3x3
I0403 17:37:50.643133 14460 net.cpp:91] Creating Layer inception_3a/3x3
I0403 17:37:50.643152 14460 net.cpp:425] inception_3a/3x3 <- inception_3a/3x3_reduce
I0403 17:37:50.643172 14460 net.cpp:399] inception_3a/3x3 -> inception_3a/3x3
I0403 17:37:50.644912 14460 net.cpp:141] Setting up inception_3a/3x3
I0403 17:37:50.644942 14460 net.cpp:148] Top shape: 24 128 28 28 (2408448)
I0403 17:37:50.644963 14460 net.cpp:156] Memory required for data: 525042720
I0403 17:37:50.644984 14460 layer_factory.hpp:77] Creating layer inception_3a/relu_3x3
I0403 17:37:50.645004 14460 net.cpp:91] Creating Layer inception_3a/relu_3x3
I0403 17:37:50.645023 14460 net.cpp:425] inception_3a/relu_3x3 <- inception_3a/3x3
I0403 17:37:50.645042 14460 net.cpp:386] inception_3a/relu_3x3 -> inception_3a/3x3 (in-place)
I0403 17:37:50.645335 14460 net.cpp:141] Setting up inception_3a/relu_3x3
I0403 17:37:50.645364 14460 net.cpp:148] Top shape: 24 128 28 28 (2408448)
I0403 17:37:50.645378 14460 net.cpp:156] Memory required for data: 534676512
I0403 17:37:50.645395 14460 layer_factory.hpp:77] Creating layer inception_3a/5x5_reduce
I0403 17:37:50.645418 14460 net.cpp:91] Creating Layer inception_3a/5x5_reduce
I0403 17:37:50.645437 14460 net.cpp:425] inception_3a/5x5_reduce <- pool2/3x3_s2_pool2/3x3_s2_0_split_2
I0403 17:37:50.645459 14460 net.cpp:399] inception_3a/5x5_reduce -> inception_3a/5x5_reduce
I0403 17:37:50.646481 14460 net.cpp:141] Setting up inception_3a/5x5_reduce
I0403 17:37:50.646510 14460 net.cpp:148] Top shape: 24 16 28 28 (301056)
I0403 17:37:50.646527 14460 net.cpp:156] Memory required for data: 535880736
I0403 17:37:50.646546 14460 layer_factory.hpp:77] Creating layer inception_3a/relu_5x5_reduce
I0403 17:37:50.646567 14460 net.cpp:91] Creating Layer inception_3a/relu_5x5_reduce
I0403 17:37:50.646585 14460 net.cpp:425] inception_3a/relu_5x5_reduce <- inception_3a/5x5_reduce
I0403 17:37:50.646605 14460 net.cpp:386] inception_3a/relu_5x5_reduce -> inception_3a/5x5_reduce (in-place)
I0403 17:37:50.646919 14460 net.cpp:141] Setting up inception_3a/relu_5x5_reduce
I0403 17:37:50.646950 14460 net.cpp:148] Top shape: 24 16 28 28 (301056)
I0403 17:37:50.646967 14460 net.cpp:156] Memory required for data: 537084960
I0403 17:37:50.646983 14460 layer_factory.hpp:77] Creating layer inception_3a/5x5
I0403 17:37:50.647007 14460 net.cpp:91] Creating Layer inception_3a/5x5
I0403 17:37:50.647025 14460 net.cpp:425] inception_3a/5x5 <- inception_3a/5x5_reduce
I0403 17:37:50.647047 14460 net.cpp:399] inception_3a/5x5 -> inception_3a/5x5
I0403 17:37:50.648116 14460 net.cpp:141] Setting up inception_3a/5x5
I0403 17:37:50.648147 14460 net.cpp:148] Top shape: 24 32 28 28 (602112)
I0403 17:37:50.648165 14460 net.cpp:156] Memory required for data: 539493408
I0403 17:37:50.648185 14460 layer_factory.hpp:77] Creating layer inception_3a/relu_5x5
I0403 17:37:50.648206 14460 net.cpp:91] Creating Layer inception_3a/relu_5x5
I0403 17:37:50.648222 14460 net.cpp:425] inception_3a/relu_5x5 <- inception_3a/5x5
I0403 17:37:50.648243 14460 net.cpp:386] inception_3a/relu_5x5 -> inception_3a/5x5 (in-place)
I0403 17:37:50.648427 14460 net.cpp:141] Setting up inception_3a/relu_5x5
I0403 17:37:50.648452 14460 net.cpp:148] Top shape: 24 32 28 28 (602112)
I0403 17:37:50.648468 14460 net.cpp:156] Memory required for data: 541901856
I0403 17:37:50.648483 14460 layer_factory.hpp:77] Creating layer inception_3a/pool
I0403 17:37:50.648501 14460 net.cpp:91] Creating Layer inception_3a/pool
I0403 17:37:50.648533 14460 net.cpp:425] inception_3a/pool <- pool2/3x3_s2_pool2/3x3_s2_0_split_3
I0403 17:37:50.648556 14460 net.cpp:399] inception_3a/pool -> inception_3a/pool
I0403 17:37:50.648618 14460 net.cpp:141] Setting up inception_3a/pool
I0403 17:37:50.648643 14460 net.cpp:148] Top shape: 24 192 28 28 (3612672)
I0403 17:37:50.648658 14460 net.cpp:156] Memory required for data: 556352544
I0403 17:37:50.648674 14460 layer_factory.hpp:77] Creating layer inception_3a/pool_proj
I0403 17:37:50.648699 14460 net.cpp:91] Creating Layer inception_3a/pool_proj
I0403 17:37:50.648718 14460 net.cpp:425] inception_3a/pool_proj <- inception_3a/pool
I0403 17:37:50.648741 14460 net.cpp:399] inception_3a/pool_proj -> inception_3a/pool_proj
I0403 17:37:50.649793 14460 net.cpp:141] Setting up inception_3a/pool_proj
I0403 17:37:50.649823 14460 net.cpp:148] Top shape: 24 32 28 28 (602112)
I0403 17:37:50.649840 14460 net.cpp:156] Memory required for data: 558760992
I0403 17:37:50.649865 14460 layer_factory.hpp:77] Creating layer inception_3a/relu_pool_proj
I0403 17:37:50.649888 14460 net.cpp:91] Creating Layer inception_3a/relu_pool_proj
I0403 17:37:50.649906 14460 net.cpp:425] inception_3a/relu_pool_proj <- inception_3a/pool_proj
I0403 17:37:50.649924 14460 net.cpp:386] inception_3a/relu_pool_proj -> inception_3a/pool_proj (in-place)
I0403 17:37:50.650218 14460 net.cpp:141] Setting up inception_3a/relu_pool_proj
I0403 17:37:50.650244 14460 net.cpp:148] Top shape: 24 32 28 28 (602112)
I0403 17:37:50.650260 14460 net.cpp:156] Memory required for data: 561169440
I0403 17:37:50.650276 14460 layer_factory.hpp:77] Creating layer inception_3a/output
I0403 17:37:50.650295 14460 net.cpp:91] Creating Layer inception_3a/output
I0403 17:37:50.650311 14460 net.cpp:425] inception_3a/output <- inception_3a/1x1
I0403 17:37:50.650328 14460 net.cpp:425] inception_3a/output <- inception_3a/3x3
I0403 17:37:50.650344 14460 net.cpp:425] inception_3a/output <- inception_3a/5x5
I0403 17:37:50.650360 14460 net.cpp:425] inception_3a/output <- inception_3a/pool_proj
I0403 17:37:50.650382 14460 net.cpp:399] inception_3a/output -> inception_3a/output
I0403 17:37:50.650430 14460 net.cpp:141] Setting up inception_3a/output
I0403 17:37:50.650456 14460 net.cpp:148] Top shape: 24 256 28 28 (4816896)
I0403 17:37:50.650473 14460 net.cpp:156] Memory required for data: 580437024
I0403 17:37:50.650490 14460 layer_factory.hpp:77] Creating layer inception_3a/output_inception_3a/output_0_split
I0403 17:37:50.650507 14460 net.cpp:91] Creating Layer inception_3a/output_inception_3a/output_0_split
I0403 17:37:50.650523 14460 net.cpp:425] inception_3a/output_inception_3a/output_0_split <- inception_3a/output
I0403 17:37:50.650542 14460 net.cpp:399] inception_3a/output_inception_3a/output_0_split -> inception_3a/output_inception_3a/output_0_split_0
I0403 17:37:50.650564 14460 net.cpp:399] inception_3a/output_inception_3a/output_0_split -> inception_3a/output_inception_3a/output_0_split_1
I0403 17:37:50.650589 14460 net.cpp:399] inception_3a/output_inception_3a/output_0_split -> inception_3a/output_inception_3a/output_0_split_2
I0403 17:37:50.650611 14460 net.cpp:399] inception_3a/output_inception_3a/output_0_split -> inception_3a/output_inception_3a/output_0_split_3
I0403 17:37:50.650687 14460 net.cpp:141] Setting up inception_3a/output_inception_3a/output_0_split
I0403 17:37:50.650713 14460 net.cpp:148] Top shape: 24 256 28 28 (4816896)
I0403 17:37:50.650732 14460 net.cpp:148] Top shape: 24 256 28 28 (4816896)
I0403 17:37:50.650748 14460 net.cpp:148] Top shape: 24 256 28 28 (4816896)
I0403 17:37:50.650764 14460 net.cpp:148] Top shape: 24 256 28 28 (4816896)
I0403 17:37:50.650779 14460 net.cpp:156] Memory required for data: 657507360
I0403 17:37:50.650794 14460 layer_factory.hpp:77] Creating layer inception_3b/1x1
I0403 17:37:50.650816 14460 net.cpp:91] Creating Layer inception_3b/1x1
I0403 17:37:50.650833 14460 net.cpp:425] inception_3b/1x1 <- inception_3a/output_inception_3a/output_0_split_0
I0403 17:37:50.650856 14460 net.cpp:399] inception_3b/1x1 -> inception_3b/1x1
I0403 17:37:50.652055 14460 net.cpp:141] Setting up inception_3b/1x1
I0403 17:37:50.652098 14460 net.cpp:148] Top shape: 24 128 28 28 (2408448)
I0403 17:37:50.652117 14460 net.cpp:156] Memory required for data: 667141152
I0403 17:37:50.652135 14460 layer_factory.hpp:77] Creating layer inception_3b/relu_1x1
I0403 17:37:50.652154 14460 net.cpp:91] Creating Layer inception_3b/relu_1x1
I0403 17:37:50.652171 14460 net.cpp:425] inception_3b/relu_1x1 <- inception_3b/1x1
I0403 17:37:50.652189 14460 net.cpp:386] inception_3b/relu_1x1 -> inception_3b/1x1 (in-place)
I0403 17:37:50.652380 14460 net.cpp:141] Setting up inception_3b/relu_1x1
I0403 17:37:50.652406 14460 net.cpp:148] Top shape: 24 128 28 28 (2408448)
I0403 17:37:50.652422 14460 net.cpp:156] Memory required for data: 676774944
I0403 17:37:50.652437 14460 layer_factory.hpp:77] Creating layer inception_3b/3x3_reduce
I0403 17:37:50.652461 14460 net.cpp:91] Creating Layer inception_3b/3x3_reduce
I0403 17:37:50.652479 14460 net.cpp:425] inception_3b/3x3_reduce <- inception_3a/output_inception_3a/output_0_split_1
I0403 17:37:50.652501 14460 net.cpp:399] inception_3b/3x3_reduce -> inception_3b/3x3_reduce
I0403 17:37:50.653695 14460 net.cpp:141] Setting up inception_3b/3x3_reduce
I0403 17:37:50.653728 14460 net.cpp:148] Top shape: 24 128 28 28 (2408448)
I0403 17:37:50.653744 14460 net.cpp:156] Memory required for data: 686408736
I0403 17:37:50.653764 14460 layer_factory.hpp:77] Creating layer inception_3b/relu_3x3_reduce
I0403 17:37:50.653784 14460 net.cpp:91] Creating Layer inception_3b/relu_3x3_reduce
I0403 17:37:50.653800 14460 net.cpp:425] inception_3b/relu_3x3_reduce <- inception_3b/3x3_reduce
I0403 17:37:50.653820 14460 net.cpp:386] inception_3b/relu_3x3_reduce -> inception_3b/3x3_reduce (in-place)
I0403 17:37:50.654009 14460 net.cpp:141] Setting up inception_3b/relu_3x3_reduce
I0403 17:37:50.654036 14460 net.cpp:148] Top shape: 24 128 28 28 (2408448)
I0403 17:37:50.654052 14460 net.cpp:156] Memory required for data: 696042528
I0403 17:37:50.654067 14460 layer_factory.hpp:77] Creating layer inception_3b/3x3
I0403 17:37:50.654094 14460 net.cpp:91] Creating Layer inception_3b/3x3
I0403 17:37:50.654114 14460 net.cpp:425] inception_3b/3x3 <- inception_3b/3x3_reduce
I0403 17:37:50.654134 14460 net.cpp:399] inception_3b/3x3 -> inception_3b/3x3
I0403 17:37:50.657127 14460 net.cpp:141] Setting up inception_3b/3x3
I0403 17:37:50.657157 14460 net.cpp:148] Top shape: 24 192 28 28 (3612672)
I0403 17:37:50.657173 14460 net.cpp:156] Memory required for data: 710493216
I0403 17:37:50.657192 14460 layer_factory.hpp:77] Creating layer inception_3b/relu_3x3
I0403 17:37:50.657212 14460 net.cpp:91] Creating Layer inception_3b/relu_3x3
I0403 17:37:50.657232 14460 net.cpp:425] inception_3b/relu_3x3 <- inception_3b/3x3
I0403 17:37:50.657249 14460 net.cpp:386] inception_3b/relu_3x3 -> inception_3b/3x3 (in-place)
I0403 17:37:50.657538 14460 net.cpp:141] Setting up inception_3b/relu_3x3
I0403 17:37:50.657565 14460 net.cpp:148] Top shape: 24 192 28 28 (3612672)
I0403 17:37:50.657580 14460 net.cpp:156] Memory required for data: 724943904
I0403 17:37:50.657596 14460 layer_factory.hpp:77] Creating layer inception_3b/5x5_reduce
I0403 17:37:50.657621 14460 net.cpp:91] Creating Layer inception_3b/5x5_reduce
I0403 17:37:50.657639 14460 net.cpp:425] inception_3b/5x5_reduce <- inception_3a/output_inception_3a/output_0_split_2
I0403 17:37:50.657660 14460 net.cpp:399] inception_3b/5x5_reduce -> inception_3b/5x5_reduce
I0403 17:37:50.658676 14460 net.cpp:141] Setting up inception_3b/5x5_reduce
I0403 17:37:50.658706 14460 net.cpp:148] Top shape: 24 32 28 28 (602112)
I0403 17:37:50.658723 14460 net.cpp:156] Memory required for data: 727352352
I0403 17:37:50.658742 14460 layer_factory.hpp:77] Creating layer inception_3b/relu_5x5_reduce
I0403 17:37:50.658761 14460 net.cpp:91] Creating Layer inception_3b/relu_5x5_reduce
I0403 17:37:50.658777 14460 net.cpp:425] inception_3b/relu_5x5_reduce <- inception_3b/5x5_reduce
I0403 17:37:50.658798 14460 net.cpp:386] inception_3b/relu_5x5_reduce -> inception_3b/5x5_reduce (in-place)
I0403 17:37:50.659008 14460 net.cpp:141] Setting up inception_3b/relu_5x5_reduce
I0403 17:37:50.659034 14460 net.cpp:148] Top shape: 24 32 28 28 (602112)
I0403 17:37:50.659049 14460 net.cpp:156] Memory required for data: 729760800
I0403 17:37:50.659062 14460 layer_factory.hpp:77] Creating layer inception_3b/5x5
I0403 17:37:50.659085 14460 net.cpp:91] Creating Layer inception_3b/5x5
I0403 17:37:50.659102 14460 net.cpp:425] inception_3b/5x5 <- inception_3b/5x5_reduce
I0403 17:37:50.659123 14460 net.cpp:399] inception_3b/5x5 -> inception_3b/5x5
I0403 17:37:50.661183 14460 net.cpp:141] Setting up inception_3b/5x5
I0403 17:37:50.661219 14460 net.cpp:148] Top shape: 24 96 28 28 (1806336)
I0403 17:37:50.661237 14460 net.cpp:156] Memory required for data: 736986144
I0403 17:37:50.661257 14460 layer_factory.hpp:77] Creating layer inception_3b/relu_5x5
I0403 17:37:50.661276 14460 net.cpp:91] Creating Layer inception_3b/relu_5x5
I0403 17:37:50.661294 14460 net.cpp:425] inception_3b/relu_5x5 <- inception_3b/5x5
I0403 17:37:50.661315 14460 net.cpp:386] inception_3b/relu_5x5 -> inception_3b/5x5 (in-place)
I0403 17:37:50.661516 14460 net.cpp:141] Setting up inception_3b/relu_5x5
I0403 17:37:50.661543 14460 net.cpp:148] Top shape: 24 96 28 28 (1806336)
I0403 17:37:50.661558 14460 net.cpp:156] Memory required for data: 744211488
I0403 17:37:50.661574 14460 layer_factory.hpp:77] Creating layer inception_3b/pool
I0403 17:37:50.661593 14460 net.cpp:91] Creating Layer inception_3b/pool
I0403 17:37:50.661610 14460 net.cpp:425] inception_3b/pool <- inception_3a/output_inception_3a/output_0_split_3
I0403 17:37:50.661629 14460 net.cpp:399] inception_3b/pool -> inception_3b/pool
I0403 17:37:50.661687 14460 net.cpp:141] Setting up inception_3b/pool
I0403 17:37:50.661711 14460 net.cpp:148] Top shape: 24 256 28 28 (4816896)
I0403 17:37:50.661726 14460 net.cpp:156] Memory required for data: 763479072
I0403 17:37:50.661742 14460 layer_factory.hpp:77] Creating layer inception_3b/pool_proj
I0403 17:37:50.661767 14460 net.cpp:91] Creating Layer inception_3b/pool_proj
I0403 17:37:50.661787 14460 net.cpp:425] inception_3b/pool_proj <- inception_3b/pool
I0403 17:37:50.661804 14460 net.cpp:399] inception_3b/pool_proj -> inception_3b/pool_proj
I0403 17:37:50.662921 14460 net.cpp:141] Setting up inception_3b/pool_proj
I0403 17:37:50.662955 14460 net.cpp:148] Top shape: 24 64 28 28 (1204224)
I0403 17:37:50.662972 14460 net.cpp:156] Memory required for data: 768295968
I0403 17:37:50.662992 14460 layer_factory.hpp:77] Creating layer inception_3b/relu_pool_proj
I0403 17:37:50.663013 14460 net.cpp:91] Creating Layer inception_3b/relu_pool_proj
I0403 17:37:50.663033 14460 net.cpp:425] inception_3b/relu_pool_proj <- inception_3b/pool_proj
I0403 17:37:50.663050 14460 net.cpp:386] inception_3b/relu_pool_proj -> inception_3b/pool_proj (in-place)
I0403 17:37:50.663468 14460 net.cpp:141] Setting up inception_3b/relu_pool_proj
I0403 17:37:50.663496 14460 net.cpp:148] Top shape: 24 64 28 28 (1204224)
I0403 17:37:50.663512 14460 net.cpp:156] Memory required for data: 773112864
I0403 17:37:50.663528 14460 layer_factory.hpp:77] Creating layer inception_3b/output
I0403 17:37:50.663547 14460 net.cpp:91] Creating Layer inception_3b/output
I0403 17:37:50.663568 14460 net.cpp:425] inception_3b/output <- inception_3b/1x1
I0403 17:37:50.663584 14460 net.cpp:425] inception_3b/output <- inception_3b/3x3
I0403 17:37:50.663600 14460 net.cpp:425] inception_3b/output <- inception_3b/5x5
I0403 17:37:50.663617 14460 net.cpp:425] inception_3b/output <- inception_3b/pool_proj
I0403 17:37:50.663635 14460 net.cpp:399] inception_3b/output -> inception_3b/output
I0403 17:37:50.663681 14460 net.cpp:141] Setting up inception_3b/output
I0403 17:37:50.663707 14460 net.cpp:148] Top shape: 24 480 28 28 (9031680)
I0403 17:37:50.663722 14460 net.cpp:156] Memory required for data: 809239584
I0403 17:37:50.663738 14460 layer_factory.hpp:77] Creating layer pool3/3x3_s2
I0403 17:37:50.663756 14460 net.cpp:91] Creating Layer pool3/3x3_s2
I0403 17:37:50.663774 14460 net.cpp:425] pool3/3x3_s2 <- inception_3b/output
I0403 17:37:50.663810 14460 net.cpp:399] pool3/3x3_s2 -> pool3/3x3_s2
I0403 17:37:50.663872 14460 net.cpp:141] Setting up pool3/3x3_s2
I0403 17:37:50.663898 14460 net.cpp:148] Top shape: 24 480 14 14 (2257920)
I0403 17:37:50.663915 14460 net.cpp:156] Memory required for data: 818271264
I0403 17:37:50.663930 14460 layer_factory.hpp:77] Creating layer pool3/3x3_s2_pool3/3x3_s2_0_split
I0403 17:37:50.663952 14460 net.cpp:91] Creating Layer pool3/3x3_s2_pool3/3x3_s2_0_split
I0403 17:37:50.663971 14460 net.cpp:425] pool3/3x3_s2_pool3/3x3_s2_0_split <- pool3/3x3_s2
I0403 17:37:50.663988 14460 net.cpp:399] pool3/3x3_s2_pool3/3x3_s2_0_split -> pool3/3x3_s2_pool3/3x3_s2_0_split_0
I0403 17:37:50.664008 14460 net.cpp:399] pool3/3x3_s2_pool3/3x3_s2_0_split -> pool3/3x3_s2_pool3/3x3_s2_0_split_1
I0403 17:37:50.664032 14460 net.cpp:399] pool3/3x3_s2_pool3/3x3_s2_0_split -> pool3/3x3_s2_pool3/3x3_s2_0_split_2
I0403 17:37:50.664053 14460 net.cpp:399] pool3/3x3_s2_pool3/3x3_s2_0_split -> pool3/3x3_s2_pool3/3x3_s2_0_split_3
I0403 17:37:50.664134 14460 net.cpp:141] Setting up pool3/3x3_s2_pool3/3x3_s2_0_split
I0403 17:37:50.664157 14460 net.cpp:148] Top shape: 24 480 14 14 (2257920)
I0403 17:37:50.664175 14460 net.cpp:148] Top shape: 24 480 14 14 (2257920)
I0403 17:37:50.664191 14460 net.cpp:148] Top shape: 24 480 14 14 (2257920)
I0403 17:37:50.664209 14460 net.cpp:148] Top shape: 24 480 14 14 (2257920)
I0403 17:37:50.664224 14460 net.cpp:156] Memory required for data: 854397984
I0403 17:37:50.664239 14460 layer_factory.hpp:77] Creating layer inception_4a/1x1
I0403 17:37:50.664263 14460 net.cpp:91] Creating Layer inception_4a/1x1
I0403 17:37:50.664281 14460 net.cpp:425] inception_4a/1x1 <- pool3/3x3_s2_pool3/3x3_s2_0_split_0
I0403 17:37:50.664304 14460 net.cpp:399] inception_4a/1x1 -> inception_4a/1x1
I0403 17:37:50.665961 14460 net.cpp:141] Setting up inception_4a/1x1
I0403 17:37:50.665990 14460 net.cpp:148] Top shape: 24 192 14 14 (903168)
I0403 17:37:50.666007 14460 net.cpp:156] Memory required for data: 858010656
I0403 17:37:50.666026 14460 layer_factory.hpp:77] Creating layer inception_4a/relu_1x1
I0403 17:37:50.666049 14460 net.cpp:91] Creating Layer inception_4a/relu_1x1
I0403 17:37:50.666066 14460 net.cpp:425] inception_4a/relu_1x1 <- inception_4a/1x1
I0403 17:37:50.666085 14460 net.cpp:386] inception_4a/relu_1x1 -> inception_4a/1x1 (in-place)
I0403 17:37:50.666271 14460 net.cpp:141] Setting up inception_4a/relu_1x1
I0403 17:37:50.666301 14460 net.cpp:148] Top shape: 24 192 14 14 (903168)
I0403 17:37:50.666316 14460 net.cpp:156] Memory required for data: 861623328
I0403 17:37:50.666332 14460 layer_factory.hpp:77] Creating layer inception_4a/3x3_reduce
I0403 17:37:50.666355 14460 net.cpp:91] Creating Layer inception_4a/3x3_reduce
I0403 17:37:50.666374 14460 net.cpp:425] inception_4a/3x3_reduce <- pool3/3x3_s2_pool3/3x3_s2_0_split_1
I0403 17:37:50.666396 14460 net.cpp:399] inception_4a/3x3_reduce -> inception_4a/3x3_reduce
I0403 17:37:50.667737 14460 net.cpp:141] Setting up inception_4a/3x3_reduce
I0403 17:37:50.667765 14460 net.cpp:148] Top shape: 24 96 14 14 (451584)
I0403 17:37:50.667783 14460 net.cpp:156] Memory required for data: 863429664
I0403 17:37:50.667809 14460 layer_factory.hpp:77] Creating layer inception_4a/relu_3x3_reduce
I0403 17:37:50.667830 14460 net.cpp:91] Creating Layer inception_4a/relu_3x3_reduce
I0403 17:37:50.667850 14460 net.cpp:425] inception_4a/relu_3x3_reduce <- inception_4a/3x3_reduce
I0403 17:37:50.667867 14460 net.cpp:386] inception_4a/relu_3x3_reduce -> inception_4a/3x3_reduce (in-place)
I0403 17:37:50.668061 14460 net.cpp:141] Setting up inception_4a/relu_3x3_reduce
I0403 17:37:50.668089 14460 net.cpp:148] Top shape: 24 96 14 14 (451584)
I0403 17:37:50.668105 14460 net.cpp:156] Memory required for data: 865236000
I0403 17:37:50.668122 14460 layer_factory.hpp:77] Creating layer inception_4a/3x3
I0403 17:37:50.668145 14460 net.cpp:91] Creating Layer inception_4a/3x3
I0403 17:37:50.668164 14460 net.cpp:425] inception_4a/3x3 <- inception_4a/3x3_reduce
I0403 17:37:50.668182 14460 net.cpp:399] inception_4a/3x3 -> inception_4a/3x3
I0403 17:37:50.671021 14460 net.cpp:141] Setting up inception_4a/3x3
I0403 17:37:50.671058 14460 net.cpp:148] Top shape: 24 208 14 14 (978432)
I0403 17:37:50.671077 14460 net.cpp:156] Memory required for data: 869149728
I0403 17:37:50.671097 14460 layer_factory.hpp:77] Creating layer inception_4a/relu_3x3
I0403 17:37:50.671116 14460 net.cpp:91] Creating Layer inception_4a/relu_3x3
I0403 17:37:50.671134 14460 net.cpp:425] inception_4a/relu_3x3 <- inception_4a/3x3
I0403 17:37:50.671154 14460 net.cpp:386] inception_4a/relu_3x3 -> inception_4a/3x3 (in-place)
I0403 17:37:50.671449 14460 net.cpp:141] Setting up inception_4a/relu_3x3
I0403 17:37:50.671479 14460 net.cpp:148] Top shape: 24 208 14 14 (978432)
I0403 17:37:50.671496 14460 net.cpp:156] Memory required for data: 873063456
I0403 17:37:50.671512 14460 layer_factory.hpp:77] Creating layer inception_4a/5x5_reduce
I0403 17:37:50.671536 14460 net.cpp:91] Creating Layer inception_4a/5x5_reduce
I0403 17:37:50.671556 14460 net.cpp:425] inception_4a/5x5_reduce <- pool3/3x3_s2_pool3/3x3_s2_0_split_2
I0403 17:37:50.671576 14460 net.cpp:399] inception_4a/5x5_reduce -> inception_4a/5x5_reduce
I0403 17:37:50.672672 14460 net.cpp:141] Setting up inception_4a/5x5_reduce
I0403 17:37:50.672704 14460 net.cpp:148] Top shape: 24 16 14 14 (75264)
I0403 17:37:50.672721 14460 net.cpp:156] Memory required for data: 873364512
I0403 17:37:50.672740 14460 layer_factory.hpp:77] Creating layer inception_4a/relu_5x5_reduce
I0403 17:37:50.672760 14460 net.cpp:91] Creating Layer inception_4a/relu_5x5_reduce
I0403 17:37:50.672776 14460 net.cpp:425] inception_4a/relu_5x5_reduce <- inception_4a/5x5_reduce
I0403 17:37:50.672797 14460 net.cpp:386] inception_4a/relu_5x5_reduce -> inception_4a/5x5_reduce (in-place)
I0403 17:37:50.672993 14460 net.cpp:141] Setting up inception_4a/relu_5x5_reduce
I0403 17:37:50.673019 14460 net.cpp:148] Top shape: 24 16 14 14 (75264)
I0403 17:37:50.673035 14460 net.cpp:156] Memory required for data: 873665568
I0403 17:37:50.673050 14460 layer_factory.hpp:77] Creating layer inception_4a/5x5
I0403 17:37:50.673074 14460 net.cpp:91] Creating Layer inception_4a/5x5
I0403 17:37:50.673092 14460 net.cpp:425] inception_4a/5x5 <- inception_4a/5x5_reduce
I0403 17:37:50.673115 14460 net.cpp:399] inception_4a/5x5 -> inception_4a/5x5
I0403 17:37:50.674259 14460 net.cpp:141] Setting up inception_4a/5x5
I0403 17:37:50.674288 14460 net.cpp:148] Top shape: 24 48 14 14 (225792)
I0403 17:37:50.674304 14460 net.cpp:156] Memory required for data: 874568736
I0403 17:37:50.674324 14460 layer_factory.hpp:77] Creating layer inception_4a/relu_5x5
I0403 17:37:50.674345 14460 net.cpp:91] Creating Layer inception_4a/relu_5x5
I0403 17:37:50.674363 14460 net.cpp:425] inception_4a/relu_5x5 <- inception_4a/5x5
I0403 17:37:50.674381 14460 net.cpp:386] inception_4a/relu_5x5 -> inception_4a/5x5 (in-place)
I0403 17:37:50.674573 14460 net.cpp:141] Setting up inception_4a/relu_5x5
I0403 17:37:50.674599 14460 net.cpp:148] Top shape: 24 48 14 14 (225792)
I0403 17:37:50.674614 14460 net.cpp:156] Memory required for data: 875471904
I0403 17:37:50.674629 14460 layer_factory.hpp:77] Creating layer inception_4a/pool
I0403 17:37:50.674652 14460 net.cpp:91] Creating Layer inception_4a/pool
I0403 17:37:50.674670 14460 net.cpp:425] inception_4a/pool <- pool3/3x3_s2_pool3/3x3_s2_0_split_3
I0403 17:37:50.674690 14460 net.cpp:399] inception_4a/pool -> inception_4a/pool
I0403 17:37:50.674756 14460 net.cpp:141] Setting up inception_4a/pool
I0403 17:37:50.674780 14460 net.cpp:148] Top shape: 24 480 14 14 (2257920)
I0403 17:37:50.674795 14460 net.cpp:156] Memory required for data: 884503584
I0403 17:37:50.674811 14460 layer_factory.hpp:77] Creating layer inception_4a/pool_proj
I0403 17:37:50.674834 14460 net.cpp:91] Creating Layer inception_4a/pool_proj
I0403 17:37:50.674852 14460 net.cpp:425] inception_4a/pool_proj <- inception_4a/pool
I0403 17:37:50.674875 14460 net.cpp:399] inception_4a/pool_proj -> inception_4a/pool_proj
I0403 17:37:50.676115 14460 net.cpp:141] Setting up inception_4a/pool_proj
I0403 17:37:50.676144 14460 net.cpp:148] Top shape: 24 64 14 14 (301056)
I0403 17:37:50.676177 14460 net.cpp:156] Memory required for data: 885707808
I0403 17:37:50.676198 14460 layer_factory.hpp:77] Creating layer inception_4a/relu_pool_proj
I0403 17:37:50.676220 14460 net.cpp:91] Creating Layer inception_4a/relu_pool_proj
I0403 17:37:50.676239 14460 net.cpp:425] inception_4a/relu_pool_proj <- inception_4a/pool_proj
I0403 17:37:50.676256 14460 net.cpp:386] inception_4a/relu_pool_proj -> inception_4a/pool_proj (in-place)
I0403 17:37:50.676543 14460 net.cpp:141] Setting up inception_4a/relu_pool_proj
I0403 17:37:50.676570 14460 net.cpp:148] Top shape: 24 64 14 14 (301056)
I0403 17:37:50.676585 14460 net.cpp:156] Memory required for data: 886912032
I0403 17:37:50.676601 14460 layer_factory.hpp:77] Creating layer inception_4a/output
I0403 17:37:50.676621 14460 net.cpp:91] Creating Layer inception_4a/output
I0403 17:37:50.676637 14460 net.cpp:425] inception_4a/output <- inception_4a/1x1
I0403 17:37:50.676656 14460 net.cpp:425] inception_4a/output <- inception_4a/3x3
I0403 17:37:50.676671 14460 net.cpp:425] inception_4a/output <- inception_4a/5x5
I0403 17:37:50.676687 14460 net.cpp:425] inception_4a/output <- inception_4a/pool_proj
I0403 17:37:50.676704 14460 net.cpp:399] inception_4a/output -> inception_4a/output
I0403 17:37:50.676753 14460 net.cpp:141] Setting up inception_4a/output
I0403 17:37:50.676776 14460 net.cpp:148] Top shape: 24 512 14 14 (2408448)
I0403 17:37:50.676791 14460 net.cpp:156] Memory required for data: 896545824
I0403 17:37:50.676806 14460 layer_factory.hpp:77] Creating layer inception_4a/output_inception_4a/output_0_split
I0403 17:37:50.676825 14460 net.cpp:91] Creating Layer inception_4a/output_inception_4a/output_0_split
I0403 17:37:50.676841 14460 net.cpp:425] inception_4a/output_inception_4a/output_0_split <- inception_4a/output
I0403 17:37:50.676862 14460 net.cpp:399] inception_4a/output_inception_4a/output_0_split -> inception_4a/output_inception_4a/output_0_split_0
I0403 17:37:50.676883 14460 net.cpp:399] inception_4a/output_inception_4a/output_0_split -> inception_4a/output_inception_4a/output_0_split_1
I0403 17:37:50.676904 14460 net.cpp:399] inception_4a/output_inception_4a/output_0_split -> inception_4a/output_inception_4a/output_0_split_2
I0403 17:37:50.676926 14460 net.cpp:399] inception_4a/output_inception_4a/output_0_split -> inception_4a/output_inception_4a/output_0_split_3
I0403 17:37:50.676950 14460 net.cpp:399] inception_4a/output_inception_4a/output_0_split -> inception_4a/output_inception_4a/output_0_split_4
I0403 17:37:50.677048 14460 net.cpp:141] Setting up inception_4a/output_inception_4a/output_0_split
I0403 17:37:50.677072 14460 net.cpp:148] Top shape: 24 512 14 14 (2408448)
I0403 17:37:50.677088 14460 net.cpp:148] Top shape: 24 512 14 14 (2408448)
I0403 17:37:50.677104 14460 net.cpp:148] Top shape: 24 512 14 14 (2408448)
I0403 17:37:50.677120 14460 net.cpp:148] Top shape: 24 512 14 14 (2408448)
I0403 17:37:50.677136 14460 net.cpp:148] Top shape: 24 512 14 14 (2408448)
I0403 17:37:50.677150 14460 net.cpp:156] Memory required for data: 944714784
I0403 17:37:50.677165 14460 layer_factory.hpp:77] Creating layer loss1/ave_pool
I0403 17:37:50.677183 14460 net.cpp:91] Creating Layer loss1/ave_pool
I0403 17:37:50.677199 14460 net.cpp:425] loss1/ave_pool <- inception_4a/output_inception_4a/output_0_split_0
I0403 17:37:50.677220 14460 net.cpp:399] loss1/ave_pool -> loss1/ave_pool
I0403 17:37:50.677433 14460 net.cpp:141] Setting up loss1/ave_pool
I0403 17:37:50.677459 14460 net.cpp:148] Top shape: 24 512 4 4 (196608)
I0403 17:37:50.677474 14460 net.cpp:156] Memory required for data: 945501216
I0403 17:37:50.677489 14460 layer_factory.hpp:77] Creating layer loss1/conv
I0403 17:37:50.677512 14460 net.cpp:91] Creating Layer loss1/conv
I0403 17:37:50.677530 14460 net.cpp:425] loss1/conv <- loss1/ave_pool
I0403 17:37:50.677551 14460 net.cpp:399] loss1/conv -> loss1/conv
I0403 17:37:50.679004 14460 net.cpp:141] Setting up loss1/conv
I0403 17:37:50.679035 14460 net.cpp:148] Top shape: 24 128 4 4 (49152)
I0403 17:37:50.679065 14460 net.cpp:156] Memory required for data: 945697824
I0403 17:37:50.679085 14460 layer_factory.hpp:77] Creating layer loss1/relu_conv
I0403 17:37:50.679105 14460 net.cpp:91] Creating Layer loss1/relu_conv
I0403 17:37:50.679121 14460 net.cpp:425] loss1/relu_conv <- loss1/conv
I0403 17:37:50.679143 14460 net.cpp:386] loss1/relu_conv -> loss1/conv (in-place)
I0403 17:37:50.679432 14460 net.cpp:141] Setting up loss1/relu_conv
I0403 17:37:50.679461 14460 net.cpp:148] Top shape: 24 128 4 4 (49152)
I0403 17:37:50.679477 14460 net.cpp:156] Memory required for data: 945894432
I0403 17:37:50.679492 14460 layer_factory.hpp:77] Creating layer loss1/fc
I0403 17:37:50.679517 14460 net.cpp:91] Creating Layer loss1/fc
I0403 17:37:50.679536 14460 net.cpp:425] loss1/fc <- loss1/conv
I0403 17:37:50.679568 14460 net.cpp:399] loss1/fc -> loss1/fc
I0403 17:37:50.697170 14460 net.cpp:141] Setting up loss1/fc
I0403 17:37:50.697206 14460 net.cpp:148] Top shape: 24 1024 (24576)
I0403 17:37:50.697222 14460 net.cpp:156] Memory required for data: 945992736
I0403 17:37:50.697240 14460 layer_factory.hpp:77] Creating layer loss1/relu_fc
I0403 17:37:50.697262 14460 net.cpp:91] Creating Layer loss1/relu_fc
I0403 17:37:50.697278 14460 net.cpp:425] loss1/relu_fc <- loss1/fc
I0403 17:37:50.697295 14460 net.cpp:386] loss1/relu_fc -> loss1/fc (in-place)
I0403 17:37:50.697490 14460 net.cpp:141] Setting up loss1/relu_fc
I0403 17:37:50.697515 14460 net.cpp:148] Top shape: 24 1024 (24576)
I0403 17:37:50.697528 14460 net.cpp:156] Memory required for data: 946091040
I0403 17:37:50.697542 14460 layer_factory.hpp:77] Creating layer loss1/drop_fc
I0403 17:37:50.697568 14460 net.cpp:91] Creating Layer loss1/drop_fc
I0403 17:37:50.697585 14460 net.cpp:425] loss1/drop_fc <- loss1/fc
I0403 17:37:50.697604 14460 net.cpp:386] loss1/drop_fc -> loss1/fc (in-place)
I0403 17:37:50.697654 14460 net.cpp:141] Setting up loss1/drop_fc
I0403 17:37:50.697677 14460 net.cpp:148] Top shape: 24 1024 (24576)
I0403 17:37:50.697691 14460 net.cpp:156] Memory required for data: 946189344
I0403 17:37:50.697705 14460 layer_factory.hpp:77] Creating layer loss1/classifier_plantvillage
I0403 17:37:50.697727 14460 net.cpp:91] Creating Layer loss1/classifier_plantvillage
I0403 17:37:50.697744 14460 net.cpp:425] loss1/classifier_plantvillage <- loss1/fc
I0403 17:37:50.697762 14460 net.cpp:399] loss1/classifier_plantvillage -> loss1/classifier_plantvillage
I0403 17:37:50.698669 14460 net.cpp:141] Setting up loss1/classifier_plantvillage
I0403 17:37:50.698698 14460 net.cpp:148] Top shape: 24 38 (912)
I0403 17:37:50.698714 14460 net.cpp:156] Memory required for data: 946192992
I0403 17:37:50.698730 14460 layer_factory.hpp:77] Creating layer loss1/classifier_plantvillage_loss1/classifier_plantvillage_0_split
I0403 17:37:50.698750 14460 net.cpp:91] Creating Layer loss1/classifier_plantvillage_loss1/classifier_plantvillage_0_split
I0403 17:37:50.698767 14460 net.cpp:425] loss1/classifier_plantvillage_loss1/classifier_plantvillage_0_split <- loss1/classifier_plantvillage
I0403 17:37:50.698786 14460 net.cpp:399] loss1/classifier_plantvillage_loss1/classifier_plantvillage_0_split -> loss1/classifier_plantvillage_loss1/classifier_plantvillage_0_split_0
I0403 17:37:50.698807 14460 net.cpp:399] loss1/classifier_plantvillage_loss1/classifier_plantvillage_0_split -> loss1/classifier_plantvillage_loss1/classifier_plantvillage_0_split_1
I0403 17:37:50.698827 14460 net.cpp:399] loss1/classifier_plantvillage_loss1/classifier_plantvillage_0_split -> loss1/classifier_plantvillage_loss1/classifier_plantvillage_0_split_2
I0403 17:37:50.698891 14460 net.cpp:141] Setting up loss1/classifier_plantvillage_loss1/classifier_plantvillage_0_split
I0403 17:37:50.698914 14460 net.cpp:148] Top shape: 24 38 (912)
I0403 17:37:50.698928 14460 net.cpp:148] Top shape: 24 38 (912)
I0403 17:37:50.698943 14460 net.cpp:148] Top shape: 24 38 (912)
I0403 17:37:50.698968 14460 net.cpp:156] Memory required for data: 946203936
I0403 17:37:50.698983 14460 layer_factory.hpp:77] Creating layer inception_4b/1x1
I0403 17:37:50.699007 14460 net.cpp:91] Creating Layer inception_4b/1x1
I0403 17:37:50.699038 14460 net.cpp:425] inception_4b/1x1 <- inception_4a/output_inception_4a/output_0_split_1
I0403 17:37:50.699057 14460 net.cpp:399] inception_4b/1x1 -> inception_4b/1x1
I0403 17:37:50.700672 14460 net.cpp:141] Setting up inception_4b/1x1
I0403 17:37:50.700701 14460 net.cpp:148] Top shape: 24 160 14 14 (752640)
I0403 17:37:50.700718 14460 net.cpp:156] Memory required for data: 949214496
I0403 17:37:50.700736 14460 layer_factory.hpp:77] Creating layer inception_4b/relu_1x1
I0403 17:37:50.700753 14460 net.cpp:91] Creating Layer inception_4b/relu_1x1
I0403 17:37:50.700769 14460 net.cpp:425] inception_4b/relu_1x1 <- inception_4b/1x1
I0403 17:37:50.700788 14460 net.cpp:386] inception_4b/relu_1x1 -> inception_4b/1x1 (in-place)
I0403 17:37:50.700969 14460 net.cpp:141] Setting up inception_4b/relu_1x1
I0403 17:37:50.700992 14460 net.cpp:148] Top shape: 24 160 14 14 (752640)
I0403 17:37:50.701006 14460 net.cpp:156] Memory required for data: 952225056
I0403 17:37:50.701021 14460 layer_factory.hpp:77] Creating layer inception_4b/3x3_reduce
I0403 17:37:50.701045 14460 net.cpp:91] Creating Layer inception_4b/3x3_reduce
I0403 17:37:50.701062 14460 net.cpp:425] inception_4b/3x3_reduce <- inception_4a/output_inception_4a/output_0_split_2
I0403 17:37:50.701082 14460 net.cpp:399] inception_4b/3x3_reduce -> inception_4b/3x3_reduce
I0403 17:37:50.702404 14460 net.cpp:141] Setting up inception_4b/3x3_reduce
I0403 17:37:50.702430 14460 net.cpp:148] Top shape: 24 112 14 14 (526848)
I0403 17:37:50.702446 14460 net.cpp:156] Memory required for data: 954332448
I0403 17:37:50.702464 14460 layer_factory.hpp:77] Creating layer inception_4b/relu_3x3_reduce
I0403 17:37:50.702481 14460 net.cpp:91] Creating Layer inception_4b/relu_3x3_reduce
I0403 17:37:50.702497 14460 net.cpp:425] inception_4b/relu_3x3_reduce <- inception_4b/3x3_reduce
I0403 17:37:50.702517 14460 net.cpp:386] inception_4b/relu_3x3_reduce -> inception_4b/3x3_reduce (in-place)
I0403 17:37:50.702797 14460 net.cpp:141] Setting up inception_4b/relu_3x3_reduce
I0403 17:37:50.702822 14460 net.cpp:148] Top shape: 24 112 14 14 (526848)
I0403 17:37:50.702837 14460 net.cpp:156] Memory required for data: 956439840
I0403 17:37:50.702852 14460 layer_factory.hpp:77] Creating layer inception_4b/3x3
I0403 17:37:50.702873 14460 net.cpp:91] Creating Layer inception_4b/3x3
I0403 17:37:50.702890 14460 net.cpp:425] inception_4b/3x3 <- inception_4b/3x3_reduce
I0403 17:37:50.702911 14460 net.cpp:399] inception_4b/3x3 -> inception_4b/3x3
I0403 17:37:50.705795 14460 net.cpp:141] Setting up inception_4b/3x3
I0403 17:37:50.705823 14460 net.cpp:148] Top shape: 24 224 14 14 (1053696)
I0403 17:37:50.705839 14460 net.cpp:156] Memory required for data: 960654624
I0403 17:37:50.705857 14460 layer_factory.hpp:77] Creating layer inception_4b/relu_3x3
I0403 17:37:50.705876 14460 net.cpp:91] Creating Layer inception_4b/relu_3x3
I0403 17:37:50.705893 14460 net.cpp:425] inception_4b/relu_3x3 <- inception_4b/3x3
I0403 17:37:50.705910 14460 net.cpp:386] inception_4b/relu_3x3 -> inception_4b/3x3 (in-place)
I0403 17:37:50.706099 14460 net.cpp:141] Setting up inception_4b/relu_3x3
I0403 17:37:50.706123 14460 net.cpp:148] Top shape: 24 224 14 14 (1053696)
I0403 17:37:50.706138 14460 net.cpp:156] Memory required for data: 964869408
I0403 17:37:50.706152 14460 layer_factory.hpp:77] Creating layer inception_4b/5x5_reduce
I0403 17:37:50.706173 14460 net.cpp:91] Creating Layer inception_4b/5x5_reduce
I0403 17:37:50.706190 14460 net.cpp:425] inception_4b/5x5_reduce <- inception_4a/output_inception_4a/output_0_split_3
I0403 17:37:50.706213 14460 net.cpp:399] inception_4b/5x5_reduce -> inception_4b/5x5_reduce
I0403 17:37:50.707276 14460 net.cpp:141] Setting up inception_4b/5x5_reduce
I0403 17:37:50.707303 14460 net.cpp:148] Top shape: 24 24 14 14 (112896)
I0403 17:37:50.707317 14460 net.cpp:156] Memory required for data: 965320992
I0403 17:37:50.707335 14460 layer_factory.hpp:77] Creating layer inception_4b/relu_5x5_reduce
I0403 17:37:50.707352 14460 net.cpp:91] Creating Layer inception_4b/relu_5x5_reduce
I0403 17:37:50.707382 14460 net.cpp:425] inception_4b/relu_5x5_reduce <- inception_4b/5x5_reduce
I0403 17:37:50.707403 14460 net.cpp:386] inception_4b/relu_5x5_reduce -> inception_4b/5x5_reduce (in-place)
I0403 17:37:50.707584 14460 net.cpp:141] Setting up inception_4b/relu_5x5_reduce
I0403 17:37:50.707607 14460 net.cpp:148] Top shape: 24 24 14 14 (112896)
I0403 17:37:50.707622 14460 net.cpp:156] Memory required for data: 965772576
I0403 17:37:50.707635 14460 layer_factory.hpp:77] Creating layer inception_4b/5x5
I0403 17:37:50.707658 14460 net.cpp:91] Creating Layer inception_4b/5x5
I0403 17:37:50.707674 14460 net.cpp:425] inception_4b/5x5 <- inception_4b/5x5_reduce
I0403 17:37:50.707695 14460 net.cpp:399] inception_4b/5x5 -> inception_4b/5x5
I0403 17:37:50.708889 14460 net.cpp:141] Setting up inception_4b/5x5
I0403 17:37:50.708917 14460 net.cpp:148] Top shape: 24 64 14 14 (301056)
I0403 17:37:50.708933 14460 net.cpp:156] Memory required for data: 966976800
I0403 17:37:50.708974 14460 layer_factory.hpp:77] Creating layer inception_4b/relu_5x5
I0403 17:37:50.708997 14460 net.cpp:91] Creating Layer inception_4b/relu_5x5
I0403 17:37:50.709022 14460 net.cpp:425] inception_4b/relu_5x5 <- inception_4b/5x5
I0403 17:37:50.709041 14460 net.cpp:386] inception_4b/relu_5x5 -> inception_4b/5x5 (in-place)
I0403 17:37:50.709326 14460 net.cpp:141] Setting up inception_4b/relu_5x5
I0403 17:37:50.709353 14460 net.cpp:148] Top shape: 24 64 14 14 (301056)
I0403 17:37:50.709369 14460 net.cpp:156] Memory required for data: 968181024
I0403 17:37:50.709384 14460 layer_factory.hpp:77] Creating layer inception_4b/pool
I0403 17:37:50.709403 14460 net.cpp:91] Creating Layer inception_4b/pool
I0403 17:37:50.709419 14460 net.cpp:425] inception_4b/pool <- inception_4a/output_inception_4a/output_0_split_4
I0403 17:37:50.709439 14460 net.cpp:399] inception_4b/pool -> inception_4b/pool
I0403 17:37:50.709502 14460 net.cpp:141] Setting up inception_4b/pool
I0403 17:37:50.709527 14460 net.cpp:148] Top shape: 24 512 14 14 (2408448)
I0403 17:37:50.709542 14460 net.cpp:156] Memory required for data: 977814816
I0403 17:37:50.709558 14460 layer_factory.hpp:77] Creating layer inception_4b/pool_proj
I0403 17:37:50.709578 14460 net.cpp:91] Creating Layer inception_4b/pool_proj
I0403 17:37:50.709594 14460 net.cpp:425] inception_4b/pool_proj <- inception_4b/pool
I0403 17:37:50.709614 14460 net.cpp:399] inception_4b/pool_proj -> inception_4b/pool_proj
I0403 17:37:50.710824 14460 net.cpp:141] Setting up inception_4b/pool_proj
I0403 17:37:50.710851 14460 net.cpp:148] Top shape: 24 64 14 14 (301056)
I0403 17:37:50.710866 14460 net.cpp:156] Memory required for data: 979019040
I0403 17:37:50.710885 14460 layer_factory.hpp:77] Creating layer inception_4b/relu_pool_proj
I0403 17:37:50.710901 14460 net.cpp:91] Creating Layer inception_4b/relu_pool_proj
I0403 17:37:50.710917 14460 net.cpp:425] inception_4b/relu_pool_proj <- inception_4b/pool_proj
I0403 17:37:50.710937 14460 net.cpp:386] inception_4b/relu_pool_proj -> inception_4b/pool_proj (in-place)
I0403 17:37:50.711122 14460 net.cpp:141] Setting up inception_4b/relu_pool_proj
I0403 17:37:50.711146 14460 net.cpp:148] Top shape: 24 64 14 14 (301056)
I0403 17:37:50.711160 14460 net.cpp:156] Memory required for data: 980223264
I0403 17:37:50.711175 14460 layer_factory.hpp:77] Creating layer inception_4b/output
I0403 17:37:50.711192 14460 net.cpp:91] Creating Layer inception_4b/output
I0403 17:37:50.711210 14460 net.cpp:425] inception_4b/output <- inception_4b/1x1
I0403 17:37:50.711230 14460 net.cpp:425] inception_4b/output <- inception_4b/3x3
I0403 17:37:50.711246 14460 net.cpp:425] inception_4b/output <- inception_4b/5x5
I0403 17:37:50.711262 14460 net.cpp:425] inception_4b/output <- inception_4b/pool_proj
I0403 17:37:50.711279 14460 net.cpp:399] inception_4b/output -> inception_4b/output
I0403 17:37:50.711326 14460 net.cpp:141] Setting up inception_4b/output
I0403 17:37:50.711349 14460 net.cpp:148] Top shape: 24 512 14 14 (2408448)
I0403 17:37:50.711364 14460 net.cpp:156] Memory required for data: 989857056
I0403 17:37:50.711391 14460 layer_factory.hpp:77] Creating layer inception_4b/output_inception_4b/output_0_split
I0403 17:37:50.711410 14460 net.cpp:91] Creating Layer inception_4b/output_inception_4b/output_0_split
I0403 17:37:50.711426 14460 net.cpp:425] inception_4b/output_inception_4b/output_0_split <- inception_4b/output
I0403 17:37:50.711446 14460 net.cpp:399] inception_4b/output_inception_4b/output_0_split -> inception_4b/output_inception_4b/output_0_split_0
I0403 17:37:50.711467 14460 net.cpp:399] inception_4b/output_inception_4b/output_0_split -> inception_4b/output_inception_4b/output_0_split_1
I0403 17:37:50.711486 14460 net.cpp:399] inception_4b/output_inception_4b/output_0_split -> inception_4b/output_inception_4b/output_0_split_2
I0403 17:37:50.711505 14460 net.cpp:399] inception_4b/output_inception_4b/output_0_split -> inception_4b/output_inception_4b/output_0_split_3
I0403 17:37:50.711591 14460 net.cpp:141] Setting up inception_4b/output_inception_4b/output_0_split
I0403 17:37:50.711616 14460 net.cpp:148] Top shape: 24 512 14 14 (2408448)
I0403 17:37:50.711632 14460 net.cpp:148] Top shape: 24 512 14 14 (2408448)
I0403 17:37:50.711647 14460 net.cpp:148] Top shape: 24 512 14 14 (2408448)
I0403 17:37:50.711663 14460 net.cpp:148] Top shape: 24 512 14 14 (2408448)
I0403 17:37:50.711675 14460 net.cpp:156] Memory required for data: 1028392224
I0403 17:37:50.711690 14460 layer_factory.hpp:77] Creating layer inception_4c/1x1
I0403 17:37:50.711711 14460 net.cpp:91] Creating Layer inception_4c/1x1
I0403 17:37:50.711729 14460 net.cpp:425] inception_4c/1x1 <- inception_4b/output_inception_4b/output_0_split_0
I0403 17:37:50.711747 14460 net.cpp:399] inception_4c/1x1 -> inception_4c/1x1
I0403 17:37:50.713186 14460 net.cpp:141] Setting up inception_4c/1x1
I0403 17:37:50.713213 14460 net.cpp:148] Top shape: 24 128 14 14 (602112)
I0403 17:37:50.713229 14460 net.cpp:156] Memory required for data: 1030800672
I0403 17:37:50.713248 14460 layer_factory.hpp:77] Creating layer inception_4c/relu_1x1
I0403 17:37:50.713268 14460 net.cpp:91] Creating Layer inception_4c/relu_1x1
I0403 17:37:50.713286 14460 net.cpp:425] inception_4c/relu_1x1 <- inception_4c/1x1
I0403 17:37:50.713304 14460 net.cpp:386] inception_4c/relu_1x1 -> inception_4c/1x1 (in-place)
I0403 17:37:50.713487 14460 net.cpp:141] Setting up inception_4c/relu_1x1
I0403 17:37:50.713513 14460 net.cpp:148] Top shape: 24 128 14 14 (602112)
I0403 17:37:50.713528 14460 net.cpp:156] Memory required for data: 1033209120
I0403 17:37:50.713543 14460 layer_factory.hpp:77] Creating layer inception_4c/3x3_reduce
I0403 17:37:50.713567 14460 net.cpp:91] Creating Layer inception_4c/3x3_reduce
I0403 17:37:50.713583 14460 net.cpp:425] inception_4c/3x3_reduce <- inception_4b/output_inception_4b/output_0_split_1
I0403 17:37:50.713603 14460 net.cpp:399] inception_4c/3x3_reduce -> inception_4c/3x3_reduce
I0403 17:37:50.715550 14460 net.cpp:141] Setting up inception_4c/3x3_reduce
I0403 17:37:50.715582 14460 net.cpp:148] Top shape: 24 128 14 14 (602112)
I0403 17:37:50.715600 14460 net.cpp:156] Memory required for data: 1035617568
I0403 17:37:50.715618 14460 layer_factory.hpp:77] Creating layer inception_4c/relu_3x3_reduce
I0403 17:37:50.715636 14460 net.cpp:91] Creating Layer inception_4c/relu_3x3_reduce
I0403 17:37:50.715652 14460 net.cpp:425] inception_4c/relu_3x3_reduce <- inception_4c/3x3_reduce
I0403 17:37:50.715672 14460 net.cpp:386] inception_4c/relu_3x3_reduce -> inception_4c/3x3_reduce (in-place)
I0403 17:37:50.715965 14460 net.cpp:141] Setting up inception_4c/relu_3x3_reduce
I0403 17:37:50.715993 14460 net.cpp:148] Top shape: 24 128 14 14 (602112)
I0403 17:37:50.716008 14460 net.cpp:156] Memory required for data: 1038026016
I0403 17:37:50.716023 14460 layer_factory.hpp:77] Creating layer inception_4c/3x3
I0403 17:37:50.716047 14460 net.cpp:91] Creating Layer inception_4c/3x3
I0403 17:37:50.716064 14460 net.cpp:425] inception_4c/3x3 <- inception_4c/3x3_reduce
I0403 17:37:50.716085 14460 net.cpp:399] inception_4c/3x3 -> inception_4c/3x3
I0403 17:37:50.719696 14460 net.cpp:141] Setting up inception_4c/3x3
I0403 17:37:50.719740 14460 net.cpp:148] Top shape: 24 256 14 14 (1204224)
I0403 17:37:50.719758 14460 net.cpp:156] Memory required for data: 1042842912
I0403 17:37:50.719789 14460 layer_factory.hpp:77] Creating layer inception_4c/relu_3x3
I0403 17:37:50.719810 14460 net.cpp:91] Creating Layer inception_4c/relu_3x3
I0403 17:37:50.719826 14460 net.cpp:425] inception_4c/relu_3x3 <- inception_4c/3x3
I0403 17:37:50.719846 14460 net.cpp:386] inception_4c/relu_3x3 -> inception_4c/3x3 (in-place)
I0403 17:37:50.720036 14460 net.cpp:141] Setting up inception_4c/relu_3x3
I0403 17:37:50.720060 14460 net.cpp:148] Top shape: 24 256 14 14 (1204224)
I0403 17:37:50.720075 14460 net.cpp:156] Memory required for data: 1047659808
I0403 17:37:50.720090 14460 layer_factory.hpp:77] Creating layer inception_4c/5x5_reduce
I0403 17:37:50.720113 14460 net.cpp:91] Creating Layer inception_4c/5x5_reduce
I0403 17:37:50.720131 14460 net.cpp:425] inception_4c/5x5_reduce <- inception_4b/output_inception_4b/output_0_split_2
I0403 17:37:50.720152 14460 net.cpp:399] inception_4c/5x5_reduce -> inception_4c/5x5_reduce
I0403 17:37:50.721249 14460 net.cpp:141] Setting up inception_4c/5x5_reduce
I0403 17:37:50.721276 14460 net.cpp:148] Top shape: 24 24 14 14 (112896)
I0403 17:37:50.721292 14460 net.cpp:156] Memory required for data: 1048111392
I0403 17:37:50.721310 14460 layer_factory.hpp:77] Creating layer inception_4c/relu_5x5_reduce
I0403 17:37:50.721328 14460 net.cpp:91] Creating Layer inception_4c/relu_5x5_reduce
I0403 17:37:50.721344 14460 net.cpp:425] inception_4c/relu_5x5_reduce <- inception_4c/5x5_reduce
I0403 17:37:50.721364 14460 net.cpp:386] inception_4c/relu_5x5_reduce -> inception_4c/5x5_reduce (in-place)
I0403 17:37:50.721554 14460 net.cpp:141] Setting up inception_4c/relu_5x5_reduce
I0403 17:37:50.721578 14460 net.cpp:148] Top shape: 24 24 14 14 (112896)
I0403 17:37:50.721593 14460 net.cpp:156] Memory required for data: 1048562976
I0403 17:37:50.721608 14460 layer_factory.hpp:77] Creating layer inception_4c/5x5
I0403 17:37:50.721631 14460 net.cpp:91] Creating Layer inception_4c/5x5
I0403 17:37:50.721647 14460 net.cpp:425] inception_4c/5x5 <- inception_4c/5x5_reduce
I0403 17:37:50.721669 14460 net.cpp:399] inception_4c/5x5 -> inception_4c/5x5
I0403 17:37:50.722920 14460 net.cpp:141] Setting up inception_4c/5x5
I0403 17:37:50.722951 14460 net.cpp:148] Top shape: 24 64 14 14 (301056)
I0403 17:37:50.722968 14460 net.cpp:156] Memory required for data: 1049767200
I0403 17:37:50.722987 14460 layer_factory.hpp:77] Creating layer inception_4c/relu_5x5
I0403 17:37:50.723007 14460 net.cpp:91] Creating Layer inception_4c/relu_5x5
I0403 17:37:50.723026 14460 net.cpp:425] inception_4c/relu_5x5 <- inception_4c/5x5
I0403 17:37:50.723043 14460 net.cpp:386] inception_4c/relu_5x5 -> inception_4c/5x5 (in-place)
I0403 17:37:50.723332 14460 net.cpp:141] Setting up inception_4c/relu_5x5
I0403 17:37:50.723358 14460 net.cpp:148] Top shape: 24 64 14 14 (301056)
I0403 17:37:50.723373 14460 net.cpp:156] Memory required for data: 1050971424
I0403 17:37:50.723388 14460 layer_factory.hpp:77] Creating layer inception_4c/pool
I0403 17:37:50.723408 14460 net.cpp:91] Creating Layer inception_4c/pool
I0403 17:37:50.723428 14460 net.cpp:425] inception_4c/pool <- inception_4b/output_inception_4b/output_0_split_3
I0403 17:37:50.723444 14460 net.cpp:399] inception_4c/pool -> inception_4c/pool
I0403 17:37:50.723511 14460 net.cpp:141] Setting up inception_4c/pool
I0403 17:37:50.723534 14460 net.cpp:148] Top shape: 24 512 14 14 (2408448)
I0403 17:37:50.723549 14460 net.cpp:156] Memory required for data: 1060605216
I0403 17:37:50.723564 14460 layer_factory.hpp:77] Creating layer inception_4c/pool_proj
I0403 17:37:50.723585 14460 net.cpp:91] Creating Layer inception_4c/pool_proj
I0403 17:37:50.723603 14460 net.cpp:425] inception_4c/pool_proj <- inception_4c/pool
I0403 17:37:50.723623 14460 net.cpp:399] inception_4c/pool_proj -> inception_4c/pool_proj
I0403 17:37:50.724853 14460 net.cpp:141] Setting up inception_4c/pool_proj
I0403 17:37:50.724884 14460 net.cpp:148] Top shape: 24 64 14 14 (301056)
I0403 17:37:50.724912 14460 net.cpp:156] Memory required for data: 1061809440
I0403 17:37:50.724931 14460 layer_factory.hpp:77] Creating layer inception_4c/relu_pool_proj
I0403 17:37:50.724954 14460 net.cpp:91] Creating Layer inception_4c/relu_pool_proj
I0403 17:37:50.724972 14460 net.cpp:425] inception_4c/relu_pool_proj <- inception_4c/pool_proj
I0403 17:37:50.724992 14460 net.cpp:386] inception_4c/relu_pool_proj -> inception_4c/pool_proj (in-place)
I0403 17:37:50.725181 14460 net.cpp:141] Setting up inception_4c/relu_pool_proj
I0403 17:37:50.725206 14460 net.cpp:148] Top shape: 24 64 14 14 (301056)
I0403 17:37:50.725221 14460 net.cpp:156] Memory required for data: 1063013664
I0403 17:37:50.725236 14460 layer_factory.hpp:77] Creating layer inception_4c/output
I0403 17:37:50.725253 14460 net.cpp:91] Creating Layer inception_4c/output
I0403 17:37:50.725268 14460 net.cpp:425] inception_4c/output <- inception_4c/1x1
I0403 17:37:50.725284 14460 net.cpp:425] inception_4c/output <- inception_4c/3x3
I0403 17:37:50.725301 14460 net.cpp:425] inception_4c/output <- inception_4c/5x5
I0403 17:37:50.725317 14460 net.cpp:425] inception_4c/output <- inception_4c/pool_proj
I0403 17:37:50.725334 14460 net.cpp:399] inception_4c/output -> inception_4c/output
I0403 17:37:50.725384 14460 net.cpp:141] Setting up inception_4c/output
I0403 17:37:50.725407 14460 net.cpp:148] Top shape: 24 512 14 14 (2408448)
I0403 17:37:50.725421 14460 net.cpp:156] Memory required for data: 1072647456
I0403 17:37:50.725436 14460 layer_factory.hpp:77] Creating layer inception_4c/output_inception_4c/output_0_split
I0403 17:37:50.725452 14460 net.cpp:91] Creating Layer inception_4c/output_inception_4c/output_0_split
I0403 17:37:50.725468 14460 net.cpp:425] inception_4c/output_inception_4c/output_0_split <- inception_4c/output
I0403 17:37:50.725487 14460 net.cpp:399] inception_4c/output_inception_4c/output_0_split -> inception_4c/output_inception_4c/output_0_split_0
I0403 17:37:50.725508 14460 net.cpp:399] inception_4c/output_inception_4c/output_0_split -> inception_4c/output_inception_4c/output_0_split_1
I0403 17:37:50.725528 14460 net.cpp:399] inception_4c/output_inception_4c/output_0_split -> inception_4c/output_inception_4c/output_0_split_2
I0403 17:37:50.725548 14460 net.cpp:399] inception_4c/output_inception_4c/output_0_split -> inception_4c/output_inception_4c/output_0_split_3
I0403 17:37:50.725633 14460 net.cpp:141] Setting up inception_4c/output_inception_4c/output_0_split
I0403 17:37:50.725658 14460 net.cpp:148] Top shape: 24 512 14 14 (2408448)
I0403 17:37:50.725675 14460 net.cpp:148] Top shape: 24 512 14 14 (2408448)
I0403 17:37:50.725690 14460 net.cpp:148] Top shape: 24 512 14 14 (2408448)
I0403 17:37:50.725706 14460 net.cpp:148] Top shape: 24 512 14 14 (2408448)
I0403 17:37:50.725719 14460 net.cpp:156] Memory required for data: 1111182624
I0403 17:37:50.725733 14460 layer_factory.hpp:77] Creating layer inception_4d/1x1
I0403 17:37:50.725756 14460 net.cpp:91] Creating Layer inception_4d/1x1
I0403 17:37:50.725774 14460 net.cpp:425] inception_4d/1x1 <- inception_4c/output_inception_4c/output_0_split_0
I0403 17:37:50.725791 14460 net.cpp:399] inception_4d/1x1 -> inception_4d/1x1
I0403 17:37:50.727186 14460 net.cpp:141] Setting up inception_4d/1x1
I0403 17:37:50.727215 14460 net.cpp:148] Top shape: 24 112 14 14 (526848)
I0403 17:37:50.727229 14460 net.cpp:156] Memory required for data: 1113290016
I0403 17:37:50.727246 14460 layer_factory.hpp:77] Creating layer inception_4d/relu_1x1
I0403 17:37:50.727267 14460 net.cpp:91] Creating Layer inception_4d/relu_1x1
I0403 17:37:50.727284 14460 net.cpp:425] inception_4d/relu_1x1 <- inception_4d/1x1
I0403 17:37:50.727301 14460 net.cpp:386] inception_4d/relu_1x1 -> inception_4d/1x1 (in-place)
I0403 17:37:50.727483 14460 net.cpp:141] Setting up inception_4d/relu_1x1
I0403 17:37:50.727506 14460 net.cpp:148] Top shape: 24 112 14 14 (526848)
I0403 17:37:50.727520 14460 net.cpp:156] Memory required for data: 1115397408
I0403 17:37:50.727535 14460 layer_factory.hpp:77] Creating layer inception_4d/3x3_reduce
I0403 17:37:50.727569 14460 net.cpp:91] Creating Layer inception_4d/3x3_reduce
I0403 17:37:50.727587 14460 net.cpp:425] inception_4d/3x3_reduce <- inception_4c/output_inception_4c/output_0_split_1
I0403 17:37:50.727608 14460 net.cpp:399] inception_4d/3x3_reduce -> inception_4d/3x3_reduce
I0403 17:37:50.729092 14460 net.cpp:141] Setting up inception_4d/3x3_reduce
I0403 17:37:50.729120 14460 net.cpp:148] Top shape: 24 144 14 14 (677376)
I0403 17:37:50.729135 14460 net.cpp:156] Memory required for data: 1118106912
I0403 17:37:50.729151 14460 layer_factory.hpp:77] Creating layer inception_4d/relu_3x3_reduce
I0403 17:37:50.729171 14460 net.cpp:91] Creating Layer inception_4d/relu_3x3_reduce
I0403 17:37:50.729188 14460 net.cpp:425] inception_4d/relu_3x3_reduce <- inception_4d/3x3_reduce
I0403 17:37:50.729205 14460 net.cpp:386] inception_4d/relu_3x3_reduce -> inception_4d/3x3_reduce (in-place)
I0403 17:37:50.729490 14460 net.cpp:141] Setting up inception_4d/relu_3x3_reduce
I0403 17:37:50.729516 14460 net.cpp:148] Top shape: 24 144 14 14 (677376)
I0403 17:37:50.729531 14460 net.cpp:156] Memory required for data: 1120816416
I0403 17:37:50.729544 14460 layer_factory.hpp:77] Creating layer inception_4d/3x3
I0403 17:37:50.729567 14460 net.cpp:91] Creating Layer inception_4d/3x3
I0403 17:37:50.729583 14460 net.cpp:425] inception_4d/3x3 <- inception_4d/3x3_reduce
I0403 17:37:50.729604 14460 net.cpp:399] inception_4d/3x3 -> inception_4d/3x3
I0403 17:37:50.733753 14460 net.cpp:141] Setting up inception_4d/3x3
I0403 17:37:50.733783 14460 net.cpp:148] Top shape: 24 288 14 14 (1354752)
I0403 17:37:50.733800 14460 net.cpp:156] Memory required for data: 1126235424
I0403 17:37:50.733817 14460 layer_factory.hpp:77] Creating layer inception_4d/relu_3x3
I0403 17:37:50.733835 14460 net.cpp:91] Creating Layer inception_4d/relu_3x3
I0403 17:37:50.733851 14460 net.cpp:425] inception_4d/relu_3x3 <- inception_4d/3x3
I0403 17:37:50.733868 14460 net.cpp:386] inception_4d/relu_3x3 -> inception_4d/3x3 (in-place)
I0403 17:37:50.734055 14460 net.cpp:141] Setting up inception_4d/relu_3x3
I0403 17:37:50.734078 14460 net.cpp:148] Top shape: 24 288 14 14 (1354752)
I0403 17:37:50.734092 14460 net.cpp:156] Memory required for data: 1131654432
I0403 17:37:50.734107 14460 layer_factory.hpp:77] Creating layer inception_4d/5x5_reduce
I0403 17:37:50.734128 14460 net.cpp:91] Creating Layer inception_4d/5x5_reduce
I0403 17:37:50.734145 14460 net.cpp:425] inception_4d/5x5_reduce <- inception_4c/output_inception_4c/output_0_split_2
I0403 17:37:50.734166 14460 net.cpp:399] inception_4d/5x5_reduce -> inception_4d/5x5_reduce
I0403 17:37:50.735287 14460 net.cpp:141] Setting up inception_4d/5x5_reduce
I0403 17:37:50.735316 14460 net.cpp:148] Top shape: 24 32 14 14 (150528)
I0403 17:37:50.735332 14460 net.cpp:156] Memory required for data: 1132256544
I0403 17:37:50.735350 14460 layer_factory.hpp:77] Creating layer inception_4d/relu_5x5_reduce
I0403 17:37:50.735368 14460 net.cpp:91] Creating Layer inception_4d/relu_5x5_reduce
I0403 17:37:50.735384 14460 net.cpp:425] inception_4d/relu_5x5_reduce <- inception_4d/5x5_reduce
I0403 17:37:50.735404 14460 net.cpp:386] inception_4d/relu_5x5_reduce -> inception_4d/5x5_reduce (in-place)
I0403 17:37:50.735587 14460 net.cpp:141] Setting up inception_4d/relu_5x5_reduce
I0403 17:37:50.735611 14460 net.cpp:148] Top shape: 24 32 14 14 (150528)
I0403 17:37:50.735625 14460 net.cpp:156] Memory required for data: 1132858656
I0403 17:37:50.735640 14460 layer_factory.hpp:77] Creating layer inception_4d/5x5
I0403 17:37:50.735661 14460 net.cpp:91] Creating Layer inception_4d/5x5
I0403 17:37:50.735677 14460 net.cpp:425] inception_4d/5x5 <- inception_4d/5x5_reduce
I0403 17:37:50.735697 14460 net.cpp:399] inception_4d/5x5 -> inception_4d/5x5
I0403 17:37:50.737140 14460 net.cpp:141] Setting up inception_4d/5x5
I0403 17:37:50.737167 14460 net.cpp:148] Top shape: 24 64 14 14 (301056)
I0403 17:37:50.737182 14460 net.cpp:156] Memory required for data: 1134062880
I0403 17:37:50.737200 14460 layer_factory.hpp:77] Creating layer inception_4d/relu_5x5
I0403 17:37:50.737232 14460 net.cpp:91] Creating Layer inception_4d/relu_5x5
I0403 17:37:50.737249 14460 net.cpp:425] inception_4d/relu_5x5 <- inception_4d/5x5
I0403 17:37:50.737267 14460 net.cpp:386] inception_4d/relu_5x5 -> inception_4d/5x5 (in-place)
I0403 17:37:50.737560 14460 net.cpp:141] Setting up inception_4d/relu_5x5
I0403 17:37:50.737584 14460 net.cpp:148] Top shape: 24 64 14 14 (301056)
I0403 17:37:50.737599 14460 net.cpp:156] Memory required for data: 1135267104
I0403 17:37:50.737614 14460 layer_factory.hpp:77] Creating layer inception_4d/pool
I0403 17:37:50.737632 14460 net.cpp:91] Creating Layer inception_4d/pool
I0403 17:37:50.737648 14460 net.cpp:425] inception_4d/pool <- inception_4c/output_inception_4c/output_0_split_3
I0403 17:37:50.737668 14460 net.cpp:399] inception_4d/pool -> inception_4d/pool
I0403 17:37:50.737732 14460 net.cpp:141] Setting up inception_4d/pool
I0403 17:37:50.737756 14460 net.cpp:148] Top shape: 24 512 14 14 (2408448)
I0403 17:37:50.737771 14460 net.cpp:156] Memory required for data: 1144900896
I0403 17:37:50.737785 14460 layer_factory.hpp:77] Creating layer inception_4d/pool_proj
I0403 17:37:50.737808 14460 net.cpp:91] Creating Layer inception_4d/pool_proj
I0403 17:37:50.737825 14460 net.cpp:425] inception_4d/pool_proj <- inception_4d/pool
I0403 17:37:50.737843 14460 net.cpp:399] inception_4d/pool_proj -> inception_4d/pool_proj
I0403 17:37:50.739576 14460 net.cpp:141] Setting up inception_4d/pool_proj
I0403 17:37:50.739608 14460 net.cpp:148] Top shape: 24 64 14 14 (301056)
I0403 17:37:50.739624 14460 net.cpp:156] Memory required for data: 1146105120
I0403 17:37:50.739641 14460 layer_factory.hpp:77] Creating layer inception_4d/relu_pool_proj
I0403 17:37:50.739658 14460 net.cpp:91] Creating Layer inception_4d/relu_pool_proj
I0403 17:37:50.739675 14460 net.cpp:425] inception_4d/relu_pool_proj <- inception_4d/pool_proj
I0403 17:37:50.739691 14460 net.cpp:386] inception_4d/relu_pool_proj -> inception_4d/pool_proj (in-place)
I0403 17:37:50.739876 14460 net.cpp:141] Setting up inception_4d/relu_pool_proj
I0403 17:37:50.739902 14460 net.cpp:148] Top shape: 24 64 14 14 (301056)
I0403 17:37:50.739915 14460 net.cpp:156] Memory required for data: 1147309344
I0403 17:37:50.739929 14460 layer_factory.hpp:77] Creating layer inception_4d/output
I0403 17:37:50.739949 14460 net.cpp:91] Creating Layer inception_4d/output
I0403 17:37:50.739967 14460 net.cpp:425] inception_4d/output <- inception_4d/1x1
I0403 17:37:50.739984 14460 net.cpp:425] inception_4d/output <- inception_4d/3x3
I0403 17:37:50.740000 14460 net.cpp:425] inception_4d/output <- inception_4d/5x5
I0403 17:37:50.740015 14460 net.cpp:425] inception_4d/output <- inception_4d/pool_proj
I0403 17:37:50.740033 14460 net.cpp:399] inception_4d/output -> inception_4d/output
I0403 17:37:50.740079 14460 net.cpp:141] Setting up inception_4d/output
I0403 17:37:50.740104 14460 net.cpp:148] Top shape: 24 528 14 14 (2483712)
I0403 17:37:50.740119 14460 net.cpp:156] Memory required for data: 1157244192
I0403 17:37:50.740134 14460 layer_factory.hpp:77] Creating layer inception_4d/output_inception_4d/output_0_split
I0403 17:37:50.740151 14460 net.cpp:91] Creating Layer inception_4d/output_inception_4d/output_0_split
I0403 17:37:50.740167 14460 net.cpp:425] inception_4d/output_inception_4d/output_0_split <- inception_4d/output
I0403 17:37:50.740187 14460 net.cpp:399] inception_4d/output_inception_4d/output_0_split -> inception_4d/output_inception_4d/output_0_split_0
I0403 17:37:50.740209 14460 net.cpp:399] inception_4d/output_inception_4d/output_0_split -> inception_4d/output_inception_4d/output_0_split_1
I0403 17:37:50.740229 14460 net.cpp:399] inception_4d/output_inception_4d/output_0_split -> inception_4d/output_inception_4d/output_0_split_2
I0403 17:37:50.740249 14460 net.cpp:399] inception_4d/output_inception_4d/output_0_split -> inception_4d/output_inception_4d/output_0_split_3
I0403 17:37:50.740268 14460 net.cpp:399] inception_4d/output_inception_4d/output_0_split -> inception_4d/output_inception_4d/output_0_split_4
I0403 17:37:50.740366 14460 net.cpp:141] Setting up inception_4d/output_inception_4d/output_0_split
I0403 17:37:50.740401 14460 net.cpp:148] Top shape: 24 528 14 14 (2483712)
I0403 17:37:50.740417 14460 net.cpp:148] Top shape: 24 528 14 14 (2483712)
I0403 17:37:50.740432 14460 net.cpp:148] Top shape: 24 528 14 14 (2483712)
I0403 17:37:50.740447 14460 net.cpp:148] Top shape: 24 528 14 14 (2483712)
I0403 17:37:50.740461 14460 net.cpp:148] Top shape: 24 528 14 14 (2483712)
I0403 17:37:50.740474 14460 net.cpp:156] Memory required for data: 1206918432
I0403 17:37:50.740489 14460 layer_factory.hpp:77] Creating layer loss2/ave_pool
I0403 17:37:50.740509 14460 net.cpp:91] Creating Layer loss2/ave_pool
I0403 17:37:50.740525 14460 net.cpp:425] loss2/ave_pool <- inception_4d/output_inception_4d/output_0_split_0
I0403 17:37:50.740542 14460 net.cpp:399] loss2/ave_pool -> loss2/ave_pool
I0403 17:37:50.740849 14460 net.cpp:141] Setting up loss2/ave_pool
I0403 17:37:50.740875 14460 net.cpp:148] Top shape: 24 528 4 4 (202752)
I0403 17:37:50.740890 14460 net.cpp:156] Memory required for data: 1207729440
I0403 17:37:50.740906 14460 layer_factory.hpp:77] Creating layer loss2/conv
I0403 17:37:50.740927 14460 net.cpp:91] Creating Layer loss2/conv
I0403 17:37:50.740944 14460 net.cpp:425] loss2/conv <- loss2/ave_pool
I0403 17:37:50.740967 14460 net.cpp:399] loss2/conv -> loss2/conv
I0403 17:37:50.742817 14460 net.cpp:141] Setting up loss2/conv
I0403 17:37:50.742846 14460 net.cpp:148] Top shape: 24 128 4 4 (49152)
I0403 17:37:50.742861 14460 net.cpp:156] Memory required for data: 1207926048
I0403 17:37:50.742878 14460 layer_factory.hpp:77] Creating layer loss2/relu_conv
I0403 17:37:50.742898 14460 net.cpp:91] Creating Layer loss2/relu_conv
I0403 17:37:50.742915 14460 net.cpp:425] loss2/relu_conv <- loss2/conv
I0403 17:37:50.742933 14460 net.cpp:386] loss2/relu_conv -> loss2/conv (in-place)
I0403 17:37:50.743214 14460 net.cpp:141] Setting up loss2/relu_conv
I0403 17:37:50.743240 14460 net.cpp:148] Top shape: 24 128 4 4 (49152)
I0403 17:37:50.743255 14460 net.cpp:156] Memory required for data: 1208122656
I0403 17:37:50.743269 14460 layer_factory.hpp:77] Creating layer loss2/fc
I0403 17:37:50.743291 14460 net.cpp:91] Creating Layer loss2/fc
I0403 17:37:50.743309 14460 net.cpp:425] loss2/fc <- loss2/conv
I0403 17:37:50.743327 14460 net.cpp:399] loss2/fc -> loss2/fc
I0403 17:37:50.761168 14460 net.cpp:141] Setting up loss2/fc
I0403 17:37:50.761204 14460 net.cpp:148] Top shape: 24 1024 (24576)
I0403 17:37:50.761219 14460 net.cpp:156] Memory required for data: 1208220960
I0403 17:37:50.761239 14460 layer_factory.hpp:77] Creating layer loss2/relu_fc
I0403 17:37:50.761257 14460 net.cpp:91] Creating Layer loss2/relu_fc
I0403 17:37:50.761275 14460 net.cpp:425] loss2/relu_fc <- loss2/fc
I0403 17:37:50.761296 14460 net.cpp:386] loss2/relu_fc -> loss2/fc (in-place)
I0403 17:37:50.761605 14460 net.cpp:141] Setting up loss2/relu_fc
I0403 17:37:50.761633 14460 net.cpp:148] Top shape: 24 1024 (24576)
I0403 17:37:50.761651 14460 net.cpp:156] Memory required for data: 1208319264
I0403 17:37:50.761665 14460 layer_factory.hpp:77] Creating layer loss2/drop_fc
I0403 17:37:50.761684 14460 net.cpp:91] Creating Layer loss2/drop_fc
I0403 17:37:50.761701 14460 net.cpp:425] loss2/drop_fc <- loss2/fc
I0403 17:37:50.761721 14460 net.cpp:386] loss2/drop_fc -> loss2/fc (in-place)
I0403 17:37:50.761771 14460 net.cpp:141] Setting up loss2/drop_fc
I0403 17:37:50.761795 14460 net.cpp:148] Top shape: 24 1024 (24576)
I0403 17:37:50.761809 14460 net.cpp:156] Memory required for data: 1208417568
I0403 17:37:50.761826 14460 layer_factory.hpp:77] Creating layer loss2/classifier_plantvillage
I0403 17:37:50.761848 14460 net.cpp:91] Creating Layer loss2/classifier_plantvillage
I0403 17:37:50.761867 14460 net.cpp:425] loss2/classifier_plantvillage <- loss2/fc
I0403 17:37:50.761888 14460 net.cpp:399] loss2/classifier_plantvillage -> loss2/classifier_plantvillage
I0403 17:37:50.762311 14460 net.cpp:141] Setting up loss2/classifier_plantvillage
I0403 17:37:50.762337 14460 net.cpp:148] Top shape: 24 38 (912)
I0403 17:37:50.762372 14460 net.cpp:156] Memory required for data: 1208421216
I0403 17:37:50.762392 14460 layer_factory.hpp:77] Creating layer loss2/classifier_plantvillage_loss2/classifier_plantvillage_0_split
I0403 17:37:50.762413 14460 net.cpp:91] Creating Layer loss2/classifier_plantvillage_loss2/classifier_plantvillage_0_split
I0403 17:37:50.762430 14460 net.cpp:425] loss2/classifier_plantvillage_loss2/classifier_plantvillage_0_split <- loss2/classifier_plantvillage
I0403 17:37:50.762449 14460 net.cpp:399] loss2/classifier_plantvillage_loss2/classifier_plantvillage_0_split -> loss2/classifier_plantvillage_loss2/classifier_plantvillage_0_split_0
I0403 17:37:50.762470 14460 net.cpp:399] loss2/classifier_plantvillage_loss2/classifier_plantvillage_0_split -> loss2/classifier_plantvillage_loss2/classifier_plantvillage_0_split_1
I0403 17:37:50.762490 14460 net.cpp:399] loss2/classifier_plantvillage_loss2/classifier_plantvillage_0_split -> loss2/classifier_plantvillage_loss2/classifier_plantvillage_0_split_2
I0403 17:37:50.762583 14460 net.cpp:141] Setting up loss2/classifier_plantvillage_loss2/classifier_plantvillage_0_split
I0403 17:37:50.762606 14460 net.cpp:148] Top shape: 24 38 (912)
I0403 17:37:50.762622 14460 net.cpp:148] Top shape: 24 38 (912)
I0403 17:37:50.762637 14460 net.cpp:148] Top shape: 24 38 (912)
I0403 17:37:50.762651 14460 net.cpp:156] Memory required for data: 1208432160
I0403 17:37:50.762666 14460 layer_factory.hpp:77] Creating layer inception_4e/1x1
I0403 17:37:50.762686 14460 net.cpp:91] Creating Layer inception_4e/1x1
I0403 17:37:50.762703 14460 net.cpp:425] inception_4e/1x1 <- inception_4d/output_inception_4d/output_0_split_1
I0403 17:37:50.762723 14460 net.cpp:399] inception_4e/1x1 -> inception_4e/1x1
I0403 17:37:50.764565 14460 net.cpp:141] Setting up inception_4e/1x1
I0403 17:37:50.764592 14460 net.cpp:148] Top shape: 24 256 14 14 (1204224)
I0403 17:37:50.764607 14460 net.cpp:156] Memory required for data: 1213249056
I0403 17:37:50.764626 14460 layer_factory.hpp:77] Creating layer inception_4e/relu_1x1
I0403 17:37:50.764644 14460 net.cpp:91] Creating Layer inception_4e/relu_1x1
I0403 17:37:50.764660 14460 net.cpp:425] inception_4e/relu_1x1 <- inception_4e/1x1
I0403 17:37:50.764678 14460 net.cpp:386] inception_4e/relu_1x1 -> inception_4e/1x1 (in-place)
I0403 17:37:50.764968 14460 net.cpp:141] Setting up inception_4e/relu_1x1
I0403 17:37:50.764993 14460 net.cpp:148] Top shape: 24 256 14 14 (1204224)
I0403 17:37:50.765007 14460 net.cpp:156] Memory required for data: 1218065952
I0403 17:37:50.765022 14460 layer_factory.hpp:77] Creating layer inception_4e/3x3_reduce
I0403 17:37:50.765043 14460 net.cpp:91] Creating Layer inception_4e/3x3_reduce
I0403 17:37:50.765060 14460 net.cpp:425] inception_4e/3x3_reduce <- inception_4d/output_inception_4d/output_0_split_2
I0403 17:37:50.765080 14460 net.cpp:399] inception_4e/3x3_reduce -> inception_4e/3x3_reduce
I0403 17:37:50.767146 14460 net.cpp:141] Setting up inception_4e/3x3_reduce
I0403 17:37:50.767174 14460 net.cpp:148] Top shape: 24 160 14 14 (752640)
I0403 17:37:50.767190 14460 net.cpp:156] Memory required for data: 1221076512
I0403 17:37:50.767210 14460 layer_factory.hpp:77] Creating layer inception_4e/relu_3x3_reduce
I0403 17:37:50.767226 14460 net.cpp:91] Creating Layer inception_4e/relu_3x3_reduce
I0403 17:37:50.767246 14460 net.cpp:425] inception_4e/relu_3x3_reduce <- inception_4e/3x3_reduce
I0403 17:37:50.767262 14460 net.cpp:386] inception_4e/relu_3x3_reduce -> inception_4e/3x3_reduce (in-place)
I0403 17:37:50.767448 14460 net.cpp:141] Setting up inception_4e/relu_3x3_reduce
I0403 17:37:50.767472 14460 net.cpp:148] Top shape: 24 160 14 14 (752640)
I0403 17:37:50.767487 14460 net.cpp:156] Memory required for data: 1224087072
I0403 17:37:50.767500 14460 layer_factory.hpp:77] Creating layer inception_4e/3x3
I0403 17:37:50.767521 14460 net.cpp:91] Creating Layer inception_4e/3x3
I0403 17:37:50.767539 14460 net.cpp:425] inception_4e/3x3 <- inception_4e/3x3_reduce
I0403 17:37:50.767560 14460 net.cpp:399] inception_4e/3x3 -> inception_4e/3x3
I0403 17:37:50.772433 14460 net.cpp:141] Setting up inception_4e/3x3
I0403 17:37:50.772475 14460 net.cpp:148] Top shape: 24 320 14 14 (1505280)
I0403 17:37:50.772491 14460 net.cpp:156] Memory required for data: 1230108192
I0403 17:37:50.772510 14460 layer_factory.hpp:77] Creating layer inception_4e/relu_3x3
I0403 17:37:50.772528 14460 net.cpp:91] Creating Layer inception_4e/relu_3x3
I0403 17:37:50.772546 14460 net.cpp:425] inception_4e/relu_3x3 <- inception_4e/3x3
I0403 17:37:50.772562 14460 net.cpp:386] inception_4e/relu_3x3 -> inception_4e/3x3 (in-place)
I0403 17:37:50.772861 14460 net.cpp:141] Setting up inception_4e/relu_3x3
I0403 17:37:50.772886 14460 net.cpp:148] Top shape: 24 320 14 14 (1505280)
I0403 17:37:50.772900 14460 net.cpp:156] Memory required for data: 1236129312
I0403 17:37:50.772915 14460 layer_factory.hpp:77] Creating layer inception_4e/5x5_reduce
I0403 17:37:50.772938 14460 net.cpp:91] Creating Layer inception_4e/5x5_reduce
I0403 17:37:50.772960 14460 net.cpp:425] inception_4e/5x5_reduce <- inception_4d/output_inception_4d/output_0_split_3
I0403 17:37:50.772980 14460 net.cpp:399] inception_4e/5x5_reduce -> inception_4e/5x5_reduce
I0403 17:37:50.774032 14460 net.cpp:141] Setting up inception_4e/5x5_reduce
I0403 17:37:50.774060 14460 net.cpp:148] Top shape: 24 32 14 14 (150528)
I0403 17:37:50.774075 14460 net.cpp:156] Memory required for data: 1236731424
I0403 17:37:50.774091 14460 layer_factory.hpp:77] Creating layer inception_4e/relu_5x5_reduce
I0403 17:37:50.774109 14460 net.cpp:91] Creating Layer inception_4e/relu_5x5_reduce
I0403 17:37:50.774126 14460 net.cpp:425] inception_4e/relu_5x5_reduce <- inception_4e/5x5_reduce
I0403 17:37:50.774144 14460 net.cpp:386] inception_4e/relu_5x5_reduce -> inception_4e/5x5_reduce (in-place)
I0403 17:37:50.774435 14460 net.cpp:141] Setting up inception_4e/relu_5x5_reduce
I0403 17:37:50.774461 14460 net.cpp:148] Top shape: 24 32 14 14 (150528)
I0403 17:37:50.774474 14460 net.cpp:156] Memory required for data: 1237333536
I0403 17:37:50.774489 14460 layer_factory.hpp:77] Creating layer inception_4e/5x5
I0403 17:37:50.774526 14460 net.cpp:91] Creating Layer inception_4e/5x5
I0403 17:37:50.774544 14460 net.cpp:425] inception_4e/5x5 <- inception_4e/5x5_reduce
I0403 17:37:50.774564 14460 net.cpp:399] inception_4e/5x5 -> inception_4e/5x5
I0403 17:37:50.776422 14460 net.cpp:141] Setting up inception_4e/5x5
I0403 17:37:50.776450 14460 net.cpp:148] Top shape: 24 128 14 14 (602112)
I0403 17:37:50.776465 14460 net.cpp:156] Memory required for data: 1239741984
I0403 17:37:50.776484 14460 layer_factory.hpp:77] Creating layer inception_4e/relu_5x5
I0403 17:37:50.776501 14460 net.cpp:91] Creating Layer inception_4e/relu_5x5
I0403 17:37:50.776517 14460 net.cpp:425] inception_4e/relu_5x5 <- inception_4e/5x5
I0403 17:37:50.776536 14460 net.cpp:386] inception_4e/relu_5x5 -> inception_4e/5x5 (in-place)
I0403 17:37:50.776734 14460 net.cpp:141] Setting up inception_4e/relu_5x5
I0403 17:37:50.776758 14460 net.cpp:148] Top shape: 24 128 14 14 (602112)
I0403 17:37:50.776772 14460 net.cpp:156] Memory required for data: 1242150432
I0403 17:37:50.776787 14460 layer_factory.hpp:77] Creating layer inception_4e/pool
I0403 17:37:50.776806 14460 net.cpp:91] Creating Layer inception_4e/pool
I0403 17:37:50.776823 14460 net.cpp:425] inception_4e/pool <- inception_4d/output_inception_4d/output_0_split_4
I0403 17:37:50.776840 14460 net.cpp:399] inception_4e/pool -> inception_4e/pool
I0403 17:37:50.776908 14460 net.cpp:141] Setting up inception_4e/pool
I0403 17:37:50.776932 14460 net.cpp:148] Top shape: 24 528 14 14 (2483712)
I0403 17:37:50.776949 14460 net.cpp:156] Memory required for data: 1252085280
I0403 17:37:50.776965 14460 layer_factory.hpp:77] Creating layer inception_4e/pool_proj
I0403 17:37:50.776986 14460 net.cpp:91] Creating Layer inception_4e/pool_proj
I0403 17:37:50.777004 14460 net.cpp:425] inception_4e/pool_proj <- inception_4e/pool
I0403 17:37:50.777024 14460 net.cpp:399] inception_4e/pool_proj -> inception_4e/pool_proj
I0403 17:37:50.778497 14460 net.cpp:141] Setting up inception_4e/pool_proj
I0403 17:37:50.778538 14460 net.cpp:148] Top shape: 24 128 14 14 (602112)
I0403 17:37:50.778555 14460 net.cpp:156] Memory required for data: 1254493728
I0403 17:37:50.778573 14460 layer_factory.hpp:77] Creating layer inception_4e/relu_pool_proj
I0403 17:37:50.778590 14460 net.cpp:91] Creating Layer inception_4e/relu_pool_proj
I0403 17:37:50.778607 14460 net.cpp:425] inception_4e/relu_pool_proj <- inception_4e/pool_proj
I0403 17:37:50.778623 14460 net.cpp:386] inception_4e/relu_pool_proj -> inception_4e/pool_proj (in-place)
I0403 17:37:50.778914 14460 net.cpp:141] Setting up inception_4e/relu_pool_proj
I0403 17:37:50.778942 14460 net.cpp:148] Top shape: 24 128 14 14 (602112)
I0403 17:37:50.778969 14460 net.cpp:156] Memory required for data: 1256902176
I0403 17:37:50.778983 14460 layer_factory.hpp:77] Creating layer inception_4e/output
I0403 17:37:50.779001 14460 net.cpp:91] Creating Layer inception_4e/output
I0403 17:37:50.779016 14460 net.cpp:425] inception_4e/output <- inception_4e/1x1
I0403 17:37:50.779033 14460 net.cpp:425] inception_4e/output <- inception_4e/3x3
I0403 17:37:50.779049 14460 net.cpp:425] inception_4e/output <- inception_4e/5x5
I0403 17:37:50.779065 14460 net.cpp:425] inception_4e/output <- inception_4e/pool_proj
I0403 17:37:50.779081 14460 net.cpp:399] inception_4e/output -> inception_4e/output
I0403 17:37:50.779130 14460 net.cpp:141] Setting up inception_4e/output
I0403 17:37:50.779153 14460 net.cpp:148] Top shape: 24 832 14 14 (3913728)
I0403 17:37:50.779167 14460 net.cpp:156] Memory required for data: 1272557088
I0403 17:37:50.779182 14460 layer_factory.hpp:77] Creating layer pool4/3x3_s2
I0403 17:37:50.779201 14460 net.cpp:91] Creating Layer pool4/3x3_s2
I0403 17:37:50.779218 14460 net.cpp:425] pool4/3x3_s2 <- inception_4e/output
I0403 17:37:50.779237 14460 net.cpp:399] pool4/3x3_s2 -> pool4/3x3_s2
I0403 17:37:50.779302 14460 net.cpp:141] Setting up pool4/3x3_s2
I0403 17:37:50.779325 14460 net.cpp:148] Top shape: 24 832 7 7 (978432)
I0403 17:37:50.779340 14460 net.cpp:156] Memory required for data: 1276470816
I0403 17:37:50.779353 14460 layer_factory.hpp:77] Creating layer pool4/3x3_s2_pool4/3x3_s2_0_split
I0403 17:37:50.779369 14460 net.cpp:91] Creating Layer pool4/3x3_s2_pool4/3x3_s2_0_split
I0403 17:37:50.779384 14460 net.cpp:425] pool4/3x3_s2_pool4/3x3_s2_0_split <- pool4/3x3_s2
I0403 17:37:50.779403 14460 net.cpp:399] pool4/3x3_s2_pool4/3x3_s2_0_split -> pool4/3x3_s2_pool4/3x3_s2_0_split_0
I0403 17:37:50.779423 14460 net.cpp:399] pool4/3x3_s2_pool4/3x3_s2_0_split -> pool4/3x3_s2_pool4/3x3_s2_0_split_1
I0403 17:37:50.779443 14460 net.cpp:399] pool4/3x3_s2_pool4/3x3_s2_0_split -> pool4/3x3_s2_pool4/3x3_s2_0_split_2
I0403 17:37:50.779464 14460 net.cpp:399] pool4/3x3_s2_pool4/3x3_s2_0_split -> pool4/3x3_s2_pool4/3x3_s2_0_split_3
I0403 17:37:50.779553 14460 net.cpp:141] Setting up pool4/3x3_s2_pool4/3x3_s2_0_split
I0403 17:37:50.779578 14460 net.cpp:148] Top shape: 24 832 7 7 (978432)
I0403 17:37:50.779594 14460 net.cpp:148] Top shape: 24 832 7 7 (978432)
I0403 17:37:50.779609 14460 net.cpp:148] Top shape: 24 832 7 7 (978432)
I0403 17:37:50.779624 14460 net.cpp:148] Top shape: 24 832 7 7 (978432)
I0403 17:37:50.779639 14460 net.cpp:156] Memory required for data: 1292125728
I0403 17:37:50.779652 14460 layer_factory.hpp:77] Creating layer inception_5a/1x1
I0403 17:37:50.779673 14460 net.cpp:91] Creating Layer inception_5a/1x1
I0403 17:37:50.779690 14460 net.cpp:425] inception_5a/1x1 <- pool4/3x3_s2_pool4/3x3_s2_0_split_0
I0403 17:37:50.779708 14460 net.cpp:399] inception_5a/1x1 -> inception_5a/1x1
I0403 17:37:50.782501 14460 net.cpp:141] Setting up inception_5a/1x1
I0403 17:37:50.782529 14460 net.cpp:148] Top shape: 24 256 7 7 (301056)
I0403 17:37:50.782546 14460 net.cpp:156] Memory required for data: 1293329952
I0403 17:37:50.782563 14460 layer_factory.hpp:77] Creating layer inception_5a/relu_1x1
I0403 17:37:50.782580 14460 net.cpp:91] Creating Layer inception_5a/relu_1x1
I0403 17:37:50.782596 14460 net.cpp:425] inception_5a/relu_1x1 <- inception_5a/1x1
I0403 17:37:50.782615 14460 net.cpp:386] inception_5a/relu_1x1 -> inception_5a/1x1 (in-place)
I0403 17:37:50.782923 14460 net.cpp:141] Setting up inception_5a/relu_1x1
I0403 17:37:50.782951 14460 net.cpp:148] Top shape: 24 256 7 7 (301056)
I0403 17:37:50.782968 14460 net.cpp:156] Memory required for data: 1294534176
I0403 17:37:50.782981 14460 layer_factory.hpp:77] Creating layer inception_5a/3x3_reduce
I0403 17:37:50.783004 14460 net.cpp:91] Creating Layer inception_5a/3x3_reduce
I0403 17:37:50.783021 14460 net.cpp:425] inception_5a/3x3_reduce <- pool4/3x3_s2_pool4/3x3_s2_0_split_1
I0403 17:37:50.783042 14460 net.cpp:399] inception_5a/3x3_reduce -> inception_5a/3x3_reduce
I0403 17:37:50.785444 14460 net.cpp:141] Setting up inception_5a/3x3_reduce
I0403 17:37:50.785477 14460 net.cpp:148] Top shape: 24 160 7 7 (188160)
I0403 17:37:50.785493 14460 net.cpp:156] Memory required for data: 1295286816
I0403 17:37:50.785511 14460 layer_factory.hpp:77] Creating layer inception_5a/relu_3x3_reduce
I0403 17:37:50.785529 14460 net.cpp:91] Creating Layer inception_5a/relu_3x3_reduce
I0403 17:37:50.785545 14460 net.cpp:425] inception_5a/relu_3x3_reduce <- inception_5a/3x3_reduce
I0403 17:37:50.785562 14460 net.cpp:386] inception_5a/relu_3x3_reduce -> inception_5a/3x3_reduce (in-place)
I0403 17:37:50.785748 14460 net.cpp:141] Setting up inception_5a/relu_3x3_reduce
I0403 17:37:50.785773 14460 net.cpp:148] Top shape: 24 160 7 7 (188160)
I0403 17:37:50.785789 14460 net.cpp:156] Memory required for data: 1296039456
I0403 17:37:50.785804 14460 layer_factory.hpp:77] Creating layer inception_5a/3x3
I0403 17:37:50.785825 14460 net.cpp:91] Creating Layer inception_5a/3x3
I0403 17:37:50.785842 14460 net.cpp:425] inception_5a/3x3 <- inception_5a/3x3_reduce
I0403 17:37:50.785861 14460 net.cpp:399] inception_5a/3x3 -> inception_5a/3x3
I0403 17:37:50.790809 14460 net.cpp:141] Setting up inception_5a/3x3
I0403 17:37:50.790838 14460 net.cpp:148] Top shape: 24 320 7 7 (376320)
I0403 17:37:50.790853 14460 net.cpp:156] Memory required for data: 1297544736
I0403 17:37:50.790870 14460 layer_factory.hpp:77] Creating layer inception_5a/relu_3x3
I0403 17:37:50.790889 14460 net.cpp:91] Creating Layer inception_5a/relu_3x3
I0403 17:37:50.790904 14460 net.cpp:425] inception_5a/relu_3x3 <- inception_5a/3x3
I0403 17:37:50.790925 14460 net.cpp:386] inception_5a/relu_3x3 -> inception_5a/3x3 (in-place)
I0403 17:37:50.791224 14460 net.cpp:141] Setting up inception_5a/relu_3x3
I0403 17:37:50.791249 14460 net.cpp:148] Top shape: 24 320 7 7 (376320)
I0403 17:37:50.791262 14460 net.cpp:156] Memory required for data: 1299050016
I0403 17:37:50.791277 14460 layer_factory.hpp:77] Creating layer inception_5a/5x5_reduce
I0403 17:37:50.791298 14460 net.cpp:91] Creating Layer inception_5a/5x5_reduce
I0403 17:37:50.791316 14460 net.cpp:425] inception_5a/5x5_reduce <- pool4/3x3_s2_pool4/3x3_s2_0_split_2
I0403 17:37:50.791337 14460 net.cpp:399] inception_5a/5x5_reduce -> inception_5a/5x5_reduce
I0403 17:37:50.792492 14460 net.cpp:141] Setting up inception_5a/5x5_reduce
I0403 17:37:50.792522 14460 net.cpp:148] Top shape: 24 32 7 7 (37632)
I0403 17:37:50.792538 14460 net.cpp:156] Memory required for data: 1299200544
I0403 17:37:50.792557 14460 layer_factory.hpp:77] Creating layer inception_5a/relu_5x5_reduce
I0403 17:37:50.792577 14460 net.cpp:91] Creating Layer inception_5a/relu_5x5_reduce
I0403 17:37:50.792593 14460 net.cpp:425] inception_5a/relu_5x5_reduce <- inception_5a/5x5_reduce
I0403 17:37:50.792610 14460 net.cpp:386] inception_5a/relu_5x5_reduce -> inception_5a/5x5_reduce (in-place)
I0403 17:37:50.792906 14460 net.cpp:141] Setting up inception_5a/relu_5x5_reduce
I0403 17:37:50.792930 14460 net.cpp:148] Top shape: 24 32 7 7 (37632)
I0403 17:37:50.792944 14460 net.cpp:156] Memory required for data: 1299351072
I0403 17:37:50.792964 14460 layer_factory.hpp:77] Creating layer inception_5a/5x5
I0403 17:37:50.792986 14460 net.cpp:91] Creating Layer inception_5a/5x5
I0403 17:37:50.793004 14460 net.cpp:425] inception_5a/5x5 <- inception_5a/5x5_reduce
I0403 17:37:50.793023 14460 net.cpp:399] inception_5a/5x5 -> inception_5a/5x5
I0403 17:37:50.794724 14460 net.cpp:141] Setting up inception_5a/5x5
I0403 17:37:50.794762 14460 net.cpp:148] Top shape: 24 128 7 7 (150528)
I0403 17:37:50.794778 14460 net.cpp:156] Memory required for data: 1299953184
I0403 17:37:50.794796 14460 layer_factory.hpp:77] Creating layer inception_5a/relu_5x5
I0403 17:37:50.794813 14460 net.cpp:91] Creating Layer inception_5a/relu_5x5
I0403 17:37:50.794828 14460 net.cpp:425] inception_5a/relu_5x5 <- inception_5a/5x5
I0403 17:37:50.794847 14460 net.cpp:386] inception_5a/relu_5x5 -> inception_5a/5x5 (in-place)
I0403 17:37:50.795042 14460 net.cpp:141] Setting up inception_5a/relu_5x5
I0403 17:37:50.795068 14460 net.cpp:148] Top shape: 24 128 7 7 (150528)
I0403 17:37:50.795081 14460 net.cpp:156] Memory required for data: 1300555296
I0403 17:37:50.795095 14460 layer_factory.hpp:77] Creating layer inception_5a/pool
I0403 17:37:50.795114 14460 net.cpp:91] Creating Layer inception_5a/pool
I0403 17:37:50.795130 14460 net.cpp:425] inception_5a/pool <- pool4/3x3_s2_pool4/3x3_s2_0_split_3
I0403 17:37:50.795148 14460 net.cpp:399] inception_5a/pool -> inception_5a/pool
I0403 17:37:50.795219 14460 net.cpp:141] Setting up inception_5a/pool
I0403 17:37:50.795243 14460 net.cpp:148] Top shape: 24 832 7 7 (978432)
I0403 17:37:50.795256 14460 net.cpp:156] Memory required for data: 1304469024
I0403 17:37:50.795270 14460 layer_factory.hpp:77] Creating layer inception_5a/pool_proj
I0403 17:37:50.795292 14460 net.cpp:91] Creating Layer inception_5a/pool_proj
I0403 17:37:50.795310 14460 net.cpp:425] inception_5a/pool_proj <- inception_5a/pool
I0403 17:37:50.795331 14460 net.cpp:399] inception_5a/pool_proj -> inception_5a/pool_proj
I0403 17:37:50.797559 14460 net.cpp:141] Setting up inception_5a/pool_proj
I0403 17:37:50.797590 14460 net.cpp:148] Top shape: 24 128 7 7 (150528)
I0403 17:37:50.797605 14460 net.cpp:156] Memory required for data: 1305071136
I0403 17:37:50.797623 14460 layer_factory.hpp:77] Creating layer inception_5a/relu_pool_proj
I0403 17:37:50.797641 14460 net.cpp:91] Creating Layer inception_5a/relu_pool_proj
I0403 17:37:50.797657 14460 net.cpp:425] inception_5a/relu_pool_proj <- inception_5a/pool_proj
I0403 17:37:50.797677 14460 net.cpp:386] inception_5a/relu_pool_proj -> inception_5a/pool_proj (in-place)
I0403 17:37:50.797968 14460 net.cpp:141] Setting up inception_5a/relu_pool_proj
I0403 17:37:50.797998 14460 net.cpp:148] Top shape: 24 128 7 7 (150528)
I0403 17:37:50.798014 14460 net.cpp:156] Memory required for data: 1305673248
I0403 17:37:50.798028 14460 layer_factory.hpp:77] Creating layer inception_5a/output
I0403 17:37:50.798045 14460 net.cpp:91] Creating Layer inception_5a/output
I0403 17:37:50.798061 14460 net.cpp:425] inception_5a/output <- inception_5a/1x1
I0403 17:37:50.798079 14460 net.cpp:425] inception_5a/output <- inception_5a/3x3
I0403 17:37:50.798094 14460 net.cpp:425] inception_5a/output <- inception_5a/5x5
I0403 17:37:50.798110 14460 net.cpp:425] inception_5a/output <- inception_5a/pool_proj
I0403 17:37:50.798127 14460 net.cpp:399] inception_5a/output -> inception_5a/output
I0403 17:37:50.798176 14460 net.cpp:141] Setting up inception_5a/output
I0403 17:37:50.798198 14460 net.cpp:148] Top shape: 24 832 7 7 (978432)
I0403 17:37:50.798213 14460 net.cpp:156] Memory required for data: 1309586976
I0403 17:37:50.798226 14460 layer_factory.hpp:77] Creating layer inception_5a/output_inception_5a/output_0_split
I0403 17:37:50.798246 14460 net.cpp:91] Creating Layer inception_5a/output_inception_5a/output_0_split
I0403 17:37:50.798264 14460 net.cpp:425] inception_5a/output_inception_5a/output_0_split <- inception_5a/output
I0403 17:37:50.798280 14460 net.cpp:399] inception_5a/output_inception_5a/output_0_split -> inception_5a/output_inception_5a/output_0_split_0
I0403 17:37:50.798300 14460 net.cpp:399] inception_5a/output_inception_5a/output_0_split -> inception_5a/output_inception_5a/output_0_split_1
I0403 17:37:50.798321 14460 net.cpp:399] inception_5a/output_inception_5a/output_0_split -> inception_5a/output_inception_5a/output_0_split_2
I0403 17:37:50.798343 14460 net.cpp:399] inception_5a/output_inception_5a/output_0_split -> inception_5a/output_inception_5a/output_0_split_3
I0403 17:37:50.798451 14460 net.cpp:141] Setting up inception_5a/output_inception_5a/output_0_split
I0403 17:37:50.798473 14460 net.cpp:148] Top shape: 24 832 7 7 (978432)
I0403 17:37:50.798488 14460 net.cpp:148] Top shape: 24 832 7 7 (978432)
I0403 17:37:50.798504 14460 net.cpp:148] Top shape: 24 832 7 7 (978432)
I0403 17:37:50.798519 14460 net.cpp:148] Top shape: 24 832 7 7 (978432)
I0403 17:37:50.798532 14460 net.cpp:156] Memory required for data: 1325241888
I0403 17:37:50.798547 14460 layer_factory.hpp:77] Creating layer inception_5b/1x1
I0403 17:37:50.798568 14460 net.cpp:91] Creating Layer inception_5b/1x1
I0403 17:37:50.798585 14460 net.cpp:425] inception_5b/1x1 <- inception_5a/output_inception_5a/output_0_split_0
I0403 17:37:50.798606 14460 net.cpp:399] inception_5b/1x1 -> inception_5b/1x1
I0403 17:37:50.802292 14460 net.cpp:141] Setting up inception_5b/1x1
I0403 17:37:50.802326 14460 net.cpp:148] Top shape: 24 384 7 7 (451584)
I0403 17:37:50.802342 14460 net.cpp:156] Memory required for data: 1327048224
I0403 17:37:50.802361 14460 layer_factory.hpp:77] Creating layer inception_5b/relu_1x1
I0403 17:37:50.802378 14460 net.cpp:91] Creating Layer inception_5b/relu_1x1
I0403 17:37:50.802394 14460 net.cpp:425] inception_5b/relu_1x1 <- inception_5b/1x1
I0403 17:37:50.802412 14460 net.cpp:386] inception_5b/relu_1x1 -> inception_5b/1x1 (in-place)
I0403 17:37:50.802709 14460 net.cpp:141] Setting up inception_5b/relu_1x1
I0403 17:37:50.802737 14460 net.cpp:148] Top shape: 24 384 7 7 (451584)
I0403 17:37:50.802753 14460 net.cpp:156] Memory required for data: 1328854560
I0403 17:37:50.802768 14460 layer_factory.hpp:77] Creating layer inception_5b/3x3_reduce
I0403 17:37:50.802788 14460 net.cpp:91] Creating Layer inception_5b/3x3_reduce
I0403 17:37:50.802804 14460 net.cpp:425] inception_5b/3x3_reduce <- inception_5a/output_inception_5a/output_0_split_1
I0403 17:37:50.802825 14460 net.cpp:399] inception_5b/3x3_reduce -> inception_5b/3x3_reduce
I0403 17:37:50.805447 14460 net.cpp:141] Setting up inception_5b/3x3_reduce
I0403 17:37:50.805477 14460 net.cpp:148] Top shape: 24 192 7 7 (225792)
I0403 17:37:50.805495 14460 net.cpp:156] Memory required for data: 1329757728
I0403 17:37:50.805512 14460 layer_factory.hpp:77] Creating layer inception_5b/relu_3x3_reduce
I0403 17:37:50.805531 14460 net.cpp:91] Creating Layer inception_5b/relu_3x3_reduce
I0403 17:37:50.805547 14460 net.cpp:425] inception_5b/relu_3x3_reduce <- inception_5b/3x3_reduce
I0403 17:37:50.805567 14460 net.cpp:386] inception_5b/relu_3x3_reduce -> inception_5b/3x3_reduce (in-place)
I0403 17:37:50.805753 14460 net.cpp:141] Setting up inception_5b/relu_3x3_reduce
I0403 17:37:50.805778 14460 net.cpp:148] Top shape: 24 192 7 7 (225792)
I0403 17:37:50.805791 14460 net.cpp:156] Memory required for data: 1330660896
I0403 17:37:50.805805 14460 layer_factory.hpp:77] Creating layer inception_5b/3x3
I0403 17:37:50.805829 14460 net.cpp:91] Creating Layer inception_5b/3x3
I0403 17:37:50.805845 14460 net.cpp:425] inception_5b/3x3 <- inception_5b/3x3_reduce
I0403 17:37:50.805866 14460 net.cpp:399] inception_5b/3x3 -> inception_5b/3x3
I0403 17:37:50.812600 14460 net.cpp:141] Setting up inception_5b/3x3
I0403 17:37:50.812631 14460 net.cpp:148] Top shape: 24 384 7 7 (451584)
I0403 17:37:50.812649 14460 net.cpp:156] Memory required for data: 1332467232
I0403 17:37:50.812667 14460 layer_factory.hpp:77] Creating layer inception_5b/relu_3x3
I0403 17:37:50.812685 14460 net.cpp:91] Creating Layer inception_5b/relu_3x3
I0403 17:37:50.812701 14460 net.cpp:425] inception_5b/relu_3x3 <- inception_5b/3x3
I0403 17:37:50.812721 14460 net.cpp:386] inception_5b/relu_3x3 -> inception_5b/3x3 (in-place)
I0403 17:37:50.813024 14460 net.cpp:141] Setting up inception_5b/relu_3x3
I0403 17:37:50.813052 14460 net.cpp:148] Top shape: 24 384 7 7 (451584)
I0403 17:37:50.813068 14460 net.cpp:156] Memory required for data: 1334273568
I0403 17:37:50.813083 14460 layer_factory.hpp:77] Creating layer inception_5b/5x5_reduce
I0403 17:37:50.813122 14460 net.cpp:91] Creating Layer inception_5b/5x5_reduce
I0403 17:37:50.813143 14460 net.cpp:425] inception_5b/5x5_reduce <- inception_5a/output_inception_5a/output_0_split_2
I0403 17:37:50.813161 14460 net.cpp:399] inception_5b/5x5_reduce -> inception_5b/5x5_reduce
I0403 17:37:50.814450 14460 net.cpp:141] Setting up inception_5b/5x5_reduce
I0403 17:37:50.814479 14460 net.cpp:148] Top shape: 24 48 7 7 (56448)
I0403 17:37:50.814496 14460 net.cpp:156] Memory required for data: 1334499360
I0403 17:37:50.814513 14460 layer_factory.hpp:77] Creating layer inception_5b/relu_5x5_reduce
I0403 17:37:50.814532 14460 net.cpp:91] Creating Layer inception_5b/relu_5x5_reduce
I0403 17:37:50.814548 14460 net.cpp:425] inception_5b/relu_5x5_reduce <- inception_5b/5x5_reduce
I0403 17:37:50.814565 14460 net.cpp:386] inception_5b/relu_5x5_reduce -> inception_5b/5x5_reduce (in-place)
I0403 17:37:50.814944 14460 net.cpp:141] Setting up inception_5b/relu_5x5_reduce
I0403 17:37:50.814975 14460 net.cpp:148] Top shape: 24 48 7 7 (56448)
I0403 17:37:50.814990 14460 net.cpp:156] Memory required for data: 1334725152
I0403 17:37:50.815006 14460 layer_factory.hpp:77] Creating layer inception_5b/5x5
I0403 17:37:50.815024 14460 net.cpp:91] Creating Layer inception_5b/5x5
I0403 17:37:50.815042 14460 net.cpp:425] inception_5b/5x5 <- inception_5b/5x5_reduce
I0403 17:37:50.815060 14460 net.cpp:399] inception_5b/5x5 -> inception_5b/5x5
I0403 17:37:50.817128 14460 net.cpp:141] Setting up inception_5b/5x5
I0403 17:37:50.817157 14460 net.cpp:148] Top shape: 24 128 7 7 (150528)
I0403 17:37:50.817173 14460 net.cpp:156] Memory required for data: 1335327264
I0403 17:37:50.817191 14460 layer_factory.hpp:77] Creating layer inception_5b/relu_5x5
I0403 17:37:50.817210 14460 net.cpp:91] Creating Layer inception_5b/relu_5x5
I0403 17:37:50.817226 14460 net.cpp:425] inception_5b/relu_5x5 <- inception_5b/5x5
I0403 17:37:50.817246 14460 net.cpp:386] inception_5b/relu_5x5 -> inception_5b/5x5 (in-place)
I0403 17:37:50.817450 14460 net.cpp:141] Setting up inception_5b/relu_5x5
I0403 17:37:50.817473 14460 net.cpp:148] Top shape: 24 128 7 7 (150528)
I0403 17:37:50.817488 14460 net.cpp:156] Memory required for data: 1335929376
I0403 17:37:50.817503 14460 layer_factory.hpp:77] Creating layer inception_5b/pool
I0403 17:37:50.817523 14460 net.cpp:91] Creating Layer inception_5b/pool
I0403 17:37:50.817540 14460 net.cpp:425] inception_5b/pool <- inception_5a/output_inception_5a/output_0_split_3
I0403 17:37:50.817559 14460 net.cpp:399] inception_5b/pool -> inception_5b/pool
I0403 17:37:50.817632 14460 net.cpp:141] Setting up inception_5b/pool
I0403 17:37:50.817656 14460 net.cpp:148] Top shape: 24 832 7 7 (978432)
I0403 17:37:50.817670 14460 net.cpp:156] Memory required for data: 1339843104
I0403 17:37:50.817684 14460 layer_factory.hpp:77] Creating layer inception_5b/pool_proj
I0403 17:37:50.817706 14460 net.cpp:91] Creating Layer inception_5b/pool_proj
I0403 17:37:50.817724 14460 net.cpp:425] inception_5b/pool_proj <- inception_5b/pool
I0403 17:37:50.817745 14460 net.cpp:399] inception_5b/pool_proj -> inception_5b/pool_proj
I0403 17:37:50.820078 14460 net.cpp:141] Setting up inception_5b/pool_proj
I0403 17:37:50.820111 14460 net.cpp:148] Top shape: 24 128 7 7 (150528)
I0403 17:37:50.820127 14460 net.cpp:156] Memory required for data: 1340445216
I0403 17:37:50.820145 14460 layer_factory.hpp:77] Creating layer inception_5b/relu_pool_proj
I0403 17:37:50.820163 14460 net.cpp:91] Creating Layer inception_5b/relu_pool_proj
I0403 17:37:50.820180 14460 net.cpp:425] inception_5b/relu_pool_proj <- inception_5b/pool_proj
I0403 17:37:50.820200 14460 net.cpp:386] inception_5b/relu_pool_proj -> inception_5b/pool_proj (in-place)
I0403 17:37:50.820507 14460 net.cpp:141] Setting up inception_5b/relu_pool_proj
I0403 17:37:50.820534 14460 net.cpp:148] Top shape: 24 128 7 7 (150528)
I0403 17:37:50.820549 14460 net.cpp:156] Memory required for data: 1341047328
I0403 17:37:50.820564 14460 layer_factory.hpp:77] Creating layer inception_5b/output
I0403 17:37:50.820581 14460 net.cpp:91] Creating Layer inception_5b/output
I0403 17:37:50.820614 14460 net.cpp:425] inception_5b/output <- inception_5b/1x1
I0403 17:37:50.820632 14460 net.cpp:425] inception_5b/output <- inception_5b/3x3
I0403 17:37:50.820649 14460 net.cpp:425] inception_5b/output <- inception_5b/5x5
I0403 17:37:50.820665 14460 net.cpp:425] inception_5b/output <- inception_5b/pool_proj
I0403 17:37:50.820683 14460 net.cpp:399] inception_5b/output -> inception_5b/output
I0403 17:37:50.820736 14460 net.cpp:141] Setting up inception_5b/output
I0403 17:37:50.820760 14460 net.cpp:148] Top shape: 24 1024 7 7 (1204224)
I0403 17:37:50.820775 14460 net.cpp:156] Memory required for data: 1345864224
I0403 17:37:50.820788 14460 layer_factory.hpp:77] Creating layer pool5/7x7_s1
I0403 17:37:50.820808 14460 net.cpp:91] Creating Layer pool5/7x7_s1
I0403 17:37:50.820827 14460 net.cpp:425] pool5/7x7_s1 <- inception_5b/output
I0403 17:37:50.820844 14460 net.cpp:399] pool5/7x7_s1 -> pool5/7x7_s1
I0403 17:37:50.821071 14460 net.cpp:141] Setting up pool5/7x7_s1
I0403 17:37:50.821097 14460 net.cpp:148] Top shape: 24 1024 1 1 (24576)
I0403 17:37:50.821111 14460 net.cpp:156] Memory required for data: 1345962528
I0403 17:37:50.821126 14460 layer_factory.hpp:77] Creating layer pool5/drop_7x7_s1
I0403 17:37:50.821144 14460 net.cpp:91] Creating Layer pool5/drop_7x7_s1
I0403 17:37:50.821161 14460 net.cpp:425] pool5/drop_7x7_s1 <- pool5/7x7_s1
I0403 17:37:50.821179 14460 net.cpp:386] pool5/drop_7x7_s1 -> pool5/7x7_s1 (in-place)
I0403 17:37:50.821228 14460 net.cpp:141] Setting up pool5/drop_7x7_s1
I0403 17:37:50.821254 14460 net.cpp:148] Top shape: 24 1024 1 1 (24576)
I0403 17:37:50.821269 14460 net.cpp:156] Memory required for data: 1346060832
I0403 17:37:50.821285 14460 layer_factory.hpp:77] Creating layer loss3/classifier_plantvillage
I0403 17:37:50.821303 14460 net.cpp:91] Creating Layer loss3/classifier_plantvillage
I0403 17:37:50.821321 14460 net.cpp:425] loss3/classifier_plantvillage <- pool5/7x7_s1
I0403 17:37:50.821341 14460 net.cpp:399] loss3/classifier_plantvillage -> loss3/classifier_plantvillage
I0403 17:37:50.821769 14460 net.cpp:141] Setting up loss3/classifier_plantvillage
I0403 17:37:50.821794 14460 net.cpp:148] Top shape: 24 38 (912)
I0403 17:37:50.821807 14460 net.cpp:156] Memory required for data: 1346064480
I0403 17:37:50.821825 14460 layer_factory.hpp:77] Creating layer loss3/classifier_plantvillage_loss3/classifier_plantvillage_0_split
I0403 17:37:50.821846 14460 net.cpp:91] Creating Layer loss3/classifier_plantvillage_loss3/classifier_plantvillage_0_split
I0403 17:37:50.821864 14460 net.cpp:425] loss3/classifier_plantvillage_loss3/classifier_plantvillage_0_split <- loss3/classifier_plantvillage
I0403 17:37:50.821882 14460 net.cpp:399] loss3/classifier_plantvillage_loss3/classifier_plantvillage_0_split -> loss3/classifier_plantvillage_loss3/classifier_plantvillage_0_split_0
I0403 17:37:50.821902 14460 net.cpp:399] loss3/classifier_plantvillage_loss3/classifier_plantvillage_0_split -> loss3/classifier_plantvillage_loss3/classifier_plantvillage_0_split_1
I0403 17:37:50.821921 14460 net.cpp:399] loss3/classifier_plantvillage_loss3/classifier_plantvillage_0_split -> loss3/classifier_plantvillage_loss3/classifier_plantvillage_0_split_2
I0403 17:37:50.821945 14460 net.cpp:399] loss3/classifier_plantvillage_loss3/classifier_plantvillage_0_split -> loss3/classifier_plantvillage_loss3/classifier_plantvillage_0_split_3
I0403 17:37:50.822053 14460 net.cpp:141] Setting up loss3/classifier_plantvillage_loss3/classifier_plantvillage_0_split
I0403 17:37:50.822077 14460 net.cpp:148] Top shape: 24 38 (912)
I0403 17:37:50.822093 14460 net.cpp:148] Top shape: 24 38 (912)
I0403 17:37:50.822108 14460 net.cpp:148] Top shape: 24 38 (912)
I0403 17:37:50.822123 14460 net.cpp:148] Top shape: 24 38 (912)
I0403 17:37:50.822136 14460 net.cpp:156] Memory required for data: 1346079072
I0403 17:37:50.822151 14460 layer_factory.hpp:77] Creating layer loss1/loss
I0403 17:37:50.822172 14460 net.cpp:91] Creating Layer loss1/loss
I0403 17:37:50.822190 14460 net.cpp:425] loss1/loss <- loss1/classifier_plantvillage_loss1/classifier_plantvillage_0_split_0
I0403 17:37:50.822221 14460 net.cpp:425] loss1/loss <- label_data_1_split_0
…
