…
I0403 18:00:15.574196 15789 net.cpp:313] The NetState phase (1) differed from the phase (0) specified by a rule in layer data
I0403 18:00:15.575382 15789 net.cpp:49] Initializing net from parameters: 
state {
  phase: TEST
}
layer {
  name: "data"
  type: "Data"
  top: "data"
  top: "label"
  include {
    phase: TEST
  }
  transform_param {
    mirror: false
    crop_size: 224
    mean_file: "/home/mohanty/data/final_dataset/lmdb/grayscale-60-40/mean.binaryproto"
  }
  data_param {
    source: "/home/mohanty/data/final_dataset/lmdb/grayscale-60-40/test_db"
    batch_size: 24
    backend: LMDB
  }
}
layer {
  name: "conv1/7x7_s2"
  type: "Convolution"
  bottom: "data"
  top: "conv1/7x7_s2"
  param {
    lr_mult: 1
    decay_mult: 1
  }
  param {
    lr_mult: 2
    decay_mult: 0
  }
  convolution_param {
    num_output: 64
    pad: 3
    kernel_size: 7
    stride: 2
    weight_filler {
      type: "xavier"
      std: 0.1
    }
    bias_filler {
      type: "constant"
      value: 0.2
    }
  }
}
layer {
  name: "conv1/relu_7x7"
  type: "ReLU"
  bottom: "conv1/7x7_s2"
  top: "conv1/7x7_s2"
}
layer {
  name: "pool1/3x3_s2"
  type: "Pooling"
  bottom: "conv1/7x7_s2"
  top: "pool1/3x3_s2"
  pooling_param {
    pool: MAX
    kernel_size: 3
    stride: 2
  }
}
layer {
  name: "pool1/norm1"
  type: "LRN"
  bottom: "pool1/3x3_s2"
  top: "pool1/norm1"
  lrn_param {
    local_size: 5
    alpha: 0.0001
    beta: 0.75
  }
}
layer {
  name: "conv2/3x3_reduce"
  type: "Convolution"
  bottom: "pool1/norm1"
  top: "conv2/3x3_reduce"
  param {
    lr_mult: 1
    decay_mult: 1
  }
  param {
    lr_mult: 2
    decay_mult: 0
  }
  convolution_param {
    num_output: 64
    kernel_size: 1
    weight_filler {
      type: "xavier"
      std: 0.1
    }
    bias_filler {
      type: "constant"
      value: 0.2
    }
  }
}
layer {
  name: "conv2/relu_3x3_reduce"
  type: "ReLU"
  bottom: "conv2/3x3_reduce"
  top: "conv2/3x3_reduce"
}
layer {
  name: "conv2/3x3"
  type: "Convolution"
  bottom: "conv2/3x3_reduce"
  top: "conv2/3x3"
  param {
    lr_mult: 1
    decay_mult: 1
  }
  param {
    lr_mult: 2
    decay_mult: 0
  }
  convolution_param {
    num_output: 192
    pad: 1
    kernel_size: 3
    weight_filler {
      type: "xavier"
      std: 0.03
    }
    bias_filler {
      type: "constant"
      value: 0.2
    }
  }
}
layer {
  name: "conv2/relu_3x3"
  type: "ReLU"
  bottom: "conv2/3x3"
  top: "conv2/3x3"
}
layer {
  name: "conv2/norm2"
  type: "LRN"
  bottom: "conv2/3x3"
  top: "conv2/norm2"
  lrn_param {
    local_size: 5
    alpha: 0.0001
    beta: 0.75
  }
}
layer {
  name: "pool2/3x3_s2"
  type: "Pooling"
  bottom: "conv2/norm2"
  top: "pool2/3x3_s2"
  pooling_param {
    pool: MAX
    kernel_size: 3
    stride: 2
  }
}
layer {
  name: "inception_3a/1x1"
  type: "Convolution"
  bottom: "pool2/3x3_s2"
  top: "inception_3a/1x1"
  param {
    lr_mult: 1
    decay_mult: 1
  }
  param {
    lr_mult: 2
    decay_mult: 0
  }
  convolution_param {
    num_output: 64
    kernel_size: 1
    weight_filler {
      type: "xavier"
      std: 0.03
    }
    bias_filler {
      type: "constant"
      value: 0.2
    }
  }
}
layer {
  name: "inception_3a/relu_1x1"
  type: "ReLU"
  bottom: "inception_3a/1x1"
  top: "inception_3a/1x1"
}
layer {
  name: "inception_3a/3x3_reduce"
  type: "Convolution"
  bottom: "pool2/3x3_s2"
  top: "inception_3a/3x3_reduce"
  param {
    lr_mult: 1
    decay_mult: 1
  }
  param {
    lr_mult: 2
    decay_mult: 0
  }
  convolution_param {
    num_output: 96
    kernel_size: 1
    weight_filler {
      type: "xavier"
      std: 0.09
    }
    bias_filler {
      type: "constant"
      value: 0.2
    }
  }
}
layer {
  name: "inception_3a/relu_3x3_reduce"
  type: "ReLU"
  bottom: "inception_3a/3x3_reduce"
  top: "inception_3a/3x3_reduce"
}
layer {
  name: "inception_3a/3x3"
  type: "Convolution"
  bottom: "inception_3a/3x3_reduce"
  top: "inception_3a/3x3"
  param {
    lr_mult: 1
    decay_mult: 1
  }
  param {
    lr_mult: 2
    decay_mult: 0
  }
  convolution_param {
    num_output: 128
    pad: 1
    kernel_size: 3
    weight_filler {
      type: "xavier"
      std: 0.03
    }
    bias_filler {
      type: "constant"
      value: 0.2
    }
  }
}
layer {
  name: "inception_3a/relu_3x3"
  type: "ReLU"
  bottom: "inception_3a/3x3"
  top: "inception_3a/3x3"
}
layer {
  name: "inception_3a/5x5_reduce"
  type: "Convolution"
  bottom: "pool2/3x3_s2"
  top: "inception_3a/5x5_reduce"
  param {
    lr_mult: 1
    decay_mult: 1
  }
  param {
    lr_mult: 2
    decay_mult: 0
  }
  convolution_param {
    num_output: 16
    kernel_size: 1
    weight_filler {
      type: "xavier"
      std: 0.2
    }
    bias_filler {
      type: "constant"
      value: 0.2
    }
  }
}
layer {
  name: "inception_3a/relu_5x5_reduce"
  type: "ReLU"
  bottom: "inception_3a/5x5_reduce"
  top: "inception_3a/5x5_reduce"
}
layer {
  name: "inception_3a/5x5"
  type: "Convolution"
  bottom: "inception_3a/5x5_reduce"
  top: "inception_3a/5x5"
  param {
    lr_mult: 1
    decay_mult: 1
  }
  param {
    lr_mult: 2
    decay_mult: 0
  }
  convolution_param {
    num_output: 32
    pad: 2
    kernel_size: 5
    weight_filler {
      type: "xavier"
      std: 0.03
    }
    bias_filler {
      type: "constant"
      value: 0.2
    }
  }
}
layer {
  name: "inception_3a/relu_5x5"
  type: "ReLU"
  bottom: "inception_3a/5x5"
  top: "inception_3a/5x5"
}
layer {
  name: "inception_3a/pool"
  type: "Pooling"
  bottom: "pool2/3x3_s2"
  top: "inception_3a/pool"
  pooling_param {
    pool: MAX
    kernel_size: 3
    stride: 1
    pad: 1
  }
}
layer {
  name: "inception_3a/pool_proj"
  type: "Convolution"
  bottom: "inception_3a/pool"
  top: "inception_3a/pool_proj"
  param {
    lr_mult: 1
    decay_mult: 1
  }
  param {
    lr_mult: 2
    decay_mult: 0
  }
  convolution_param {
    num_output: 32
    kernel_size: 1
    weight_filler {
      type: "xavier"
      std: 0.1
    }
    bias_filler {
      type: "constant"
      value: 0.2
    }
  }
}
layer {
  name: "inception_3a/relu_pool_proj"
  type: "ReLU"
  bottom: "inception_3a/pool_proj"
  top: "inception_3a/pool_proj"
}
layer {
  name: "inception_3a/output"
  type: "Concat"
  bottom: "inception_3a/1x1"
  bottom: "inception_3a/3x3"
  bottom: "inception_3a/5x5"
  bottom: "inception_3a/pool_proj"
  top: "inception_3a/output"
}
layer {
  name: "inception_3b/1x1"
  type: "Convolution"
  bottom: "inception_3a/output"
  top: "inception_3b/1x1"
  param {
    lr_mult: 1
    decay_mult: 1
  }
  param {
    lr_mult: 2
    decay_mult: 0
  }
  convolution_param {
    num_output: 128
    kernel_size: 1
    weight_filler {
      type: "xavier"
      std: 0.03
    }
    bias_filler {
      type: "constant"
      value: 0.2
    }
  }
}
layer {
  name: "inception_3b/relu_1x1"
  type: "ReLU"
  bottom: "inception_3b/1x1"
  top: "inception_3b/1x1"
}
layer {
  name: "inception_3b/3x3_reduce"
  type: "Convolution"
  bottom: "inception_3a/output"
  top: "inception_3b/3x3_reduce"
  param {
    lr_mult: 1
    decay_mult: 1
  }
  param {
    lr_mult: 2
    decay_mult: 0
  }
  convolution_param {
    num_output: 128
    kernel_size: 1
    weight_filler {
      type: "xavier"
      std: 0.09
    }
    bias_filler {
      type: "constant"
      value: 0.2
    }
  }
}
layer {
  name: "inception_3b/relu_3x3_reduce"
  type: "ReLU"
  bottom: "inception_3b/3x3_reduce"
  top: "inception_3b/3x3_reduce"
}
layer {
  name: "inception_3b/3x3"
  type: "Convolution"
  bottom: "inception_3b/3x3_reduce"
  top: "inception_3b/3x3"
  param {
    lr_mult: 1
    decay_mult: 1
  }
  param {
    lr_mult: 2
    decay_mult: 0
  }
  convolution_param {
    num_output: 192
    pad: 1
    kernel_size: 3
    weight_filler {
      type: "xavier"
      std: 0.03
    }
    bias_filler {
      type: "constant"
      value: 0.2
    }
  }
}
layer {
  name: "inception_3b/relu_3x3"
  type: "ReLU"
  bottom: "inception_3b/3x3"
  top: "inception_3b/3x3"
}
layer {
  name: "inception_3b/5x5_reduce"
  type: "Convolution"
  bottom: "inception_3a/output"
  top: "inception_3b/5x5_reduce"
  param {
    lr_mult: 1
    decay_mult: 1
  }
  param {
    lr_mult: 2
    decay_mult: 0
  }
  convolution_param {
    num_output: 32
    kernel_size: 1
    weight_filler {
      type: "xavier"
      std: 0.2
    }
    bias_filler {
      type: "constant"
      value: 0.2
    }
  }
}
layer {
  name: "inception_3b/relu_5x5_reduce"
  type: "ReLU"
  bottom: "inception_3b/5x5_reduce"
  top: "inception_3b/5x5_reduce"
}
layer {
  name: "inception_3b/5x5"
  type: "Convolution"
  bottom: "inception_3b/5x5_reduce"
  top: "inception_3b/5x5"
  param {
    lr_mult: 1
    decay_mult: 1
  }
  param {
    lr_mult: 2
    decay_mult: 0
  }
  convolution_param {
    num_output: 96
    pad: 2
    kernel_size: 5
    weight_filler {
      type: "xavier"
      std: 0.03
    }
    bias_filler {
      type: "constant"
      value: 0.2
    }
  }
}
layer {
  name: "inception_3b/relu_5x5"
  type: "ReLU"
  bottom: "inception_3b/5x5"
  top: "inception_3b/5x5"
}
layer {
  name: "inception_3b/pool"
  type: "Pooling"
  bottom: "inception_3a/output"
  top: "inception_3b/pool"
  pooling_param {
    pool: MAX
    kernel_size: 3
    stride: 1
    pad: 1
  }
}
layer {
  name: "inception_3b/pool_proj"
  type: "Convolution"
  bottom: "inception_3b/pool"
  top: "inception_3b/pool_proj"
  param {
    lr_mult: 1
    decay_mult: 1
  }
  param {
    lr_mult: 2
    decay_mult: 0
  }
  convolution_param {
    num_output: 64
    kernel_size: 1
    weight_filler {
      type: "xavier"
      std: 0.1
    }
    bias_filler {
      type: "constant"
      value: 0.2
    }
  }
}
layer {
  name: "inception_3b/relu_pool_proj"
  type: "ReLU"
  bottom: "inception_3b/pool_proj"
  top: "inception_3b/pool_proj"
}
layer {
  name: "inception_3b/output"
  type: "Concat"
  bottom: "inception_3b/1x1"
  bottom: "inception_3b/3x3"
  bottom: "inception_3b/5x5"
  bottom: "inception_3b/pool_proj"
  top: "inception_3b/output"
}
layer {
  name: "pool3/3x3_s2"
  type: "Pooling"
  bottom: "inception_3b/output"
  top: "pool3/3x3_s2"
  pooling_param {
    pool: MAX
    kernel_size: 3
    stride: 2
  }
}
layer {
  name: "inception_4a/1x1"
  type: "Convolution"
  bottom: "pool3/3x3_s2"
  top: "inception_4a/1x1"
  param {
    lr_mult: 1
    decay_mult: 1
  }
  param {
    lr_mult: 2
    decay_mult: 0
  }
  convolution_param {
    num_output: 192
    kernel_size: 1
    weight_filler {
      type: "xavier"
      std: 0.03
    }
    bias_filler {
      type: "constant"
      value: 0.2
    }
  }
}
layer {
  name: "inception_4a/relu_1x1"
  type: "ReLU"
  bottom: "inception_4a/1x1"
  top: "inception_4a/1x1"
}
layer {
  name: "inception_4a/3x3_reduce"
  type: "Convolution"
  bottom: "pool3/3x3_s2"
  top: "inception_4a/3x3_reduce"
  param {
    lr_mult: 1
    decay_mult: 1
  }
  param {
    lr_mult: 2
    decay_mult: 0
  }
  convolution_param {
    num_output: 96
    kernel_size: 1
    weight_filler {
      type: "xavier"
      std: 0.09
    }
    bias_filler {
      type: "constant"
      value: 0.2
    }
  }
}
layer {
  name: "inception_4a/relu_3x3_reduce"
  type: "ReLU"
  bottom: "inception_4a/3x3_reduce"
  top: "inception_4a/3x3_reduce"
}
layer {
  name: "inception_4a/3x3"
  type: "Convolution"
  bottom: "inception_4a/3x3_reduce"
  top: "inception_4a/3x3"
  param {
    lr_mult: 1
    decay_mult: 1
  }
  param {
    lr_mult: 2
    decay_mult: 0
  }
  convolution_param {
    num_output: 208
    pad: 1
    kernel_size: 3
    weight_filler {
      type: "xavier"
      std: 0.03
    }
    bias_filler {
      type: "constant"
      value: 0.2
    }
  }
}
layer {
  name: "inception_4a/relu_3x3"
  type: "ReLU"
  bottom: "inception_4a/3x3"
  top: "inception_4a/3x3"
}
layer {
  name: "inception_4a/5x5_reduce"
  type: "Convolution"
  bottom: "pool3/3x3_s2"
  top: "inception_4a/5x5_reduce"
  param {
    lr_mult: 1
    decay_mult: 1
  }
  param {
    lr_mult: 2
    decay_mult: 0
  }
  convolution_param {
    num_output: 16
    kernel_size: 1
    weight_filler {
      type: "xavier"
      std: 0.2
    }
    bias_filler {
      type: "constant"
      value: 0.2
    }
  }
}
layer {
  name: "inception_4a/relu_5x5_reduce"
  type: "ReLU"
  bottom: "inception_4a/5x5_reduce"
  top: "inception_4a/5x5_reduce"
}
layer {
  name: "inception_4a/5x5"
  type: "Convolution"
  bottom: "inception_4a/5x5_reduce"
  top: "inception_4a/5x5"
  param {
    lr_mult: 1
    decay_mult: 1
  }
  param {
    lr_mult: 2
    decay_mult: 0
  }
  convolution_param {
    num_output: 48
    pad: 2
    kernel_size: 5
    weight_filler {
      type: "xavier"
      std: 0.03
    }
    bias_filler {
      type: "constant"
      value: 0.2
    }
  }
}
layer {
  name: "inception_4a/relu_5x5"
  type: "ReLU"
  bottom: "inception_4a/5x5"
  top: "inception_4a/5x5"
}
layer {
  name: "inception_4a/pool"
  type: "Pooling"
  bottom: "pool3/3x3_s2"
  top: "inception_4a/pool"
  pooling_param {
    pool: MAX
    kernel_size: 3
    stride: 1
    pad: 1
  }
}
layer {
  name: "inception_4a/pool_proj"
  type: "Convolution"
  bottom: "inception_4a/pool"
  top: "inception_4a/pool_proj"
  param {
    lr_mult: 1
    decay_mult: 1
  }
  param {
    lr_mult: 2
    decay_mult: 0
  }
  convolution_param {
    num_output: 64
    kernel_size: 1
    weight_filler {
      type: "xavier"
      std: 0.1
    }
    bias_filler {
      type: "constant"
      value: 0.2
    }
  }
}
layer {
  name: "inception_4a/relu_pool_proj"
  type: "ReLU"
  bottom: "inception_4a/pool_proj"
  top: "inception_4a/pool_proj"
}
layer {
  name: "inception_4a/output"
  type: "Concat"
  bottom: "inception_4a/1x1"
  bottom: "inception_4a/3x3"
  bottom: "inception_4a/5x5"
  bottom: "inception_4a/pool_proj"
  top: "inception_4a/output"
}
layer {
  name: "loss1/ave_pool"
  type: "Pooling"
  bottom: "inception_4a/output"
  top: "loss1/ave_pool"
  pooling_param {
    pool: AVE
    kernel_size: 5
    stride: 3
  }
}
layer {
  name: "loss1/conv"
  type: "Convolution"
  bottom: "loss1/ave_pool"
  top: "loss1/conv"
  param {
    lr_mult: 1
    decay_mult: 1
  }
  param {
    lr_mult: 2
    decay_mult: 0
  }
  convolution_param {
    num_output: 128
    kernel_size: 1
    weight_filler {
      type: "xavier"
      std: 0.08
    }
    bias_filler {
      type: "constant"
      value: 0.2
    }
  }
}
layer {
  name: "loss1/relu_conv"
  type: "ReLU"
  bottom: "loss1/conv"
  top: "loss1/conv"
}
layer {
  name: "loss1/fc"
  type: "InnerProduct"
  bottom: "loss1/conv"
  top: "loss1/fc"
  param {
    lr_mult: 1
    decay_mult: 1
  }
  param {
    lr_mult: 2
    decay_mult: 0
  }
  inner_product_param {
    num_output: 1024
    weight_filler {
      type: "xavier"
      std: 0.02
    }
    bias_filler {
      type: "constant"
      value: 0.2
    }
  }
}
layer {
  name: "loss1/relu_fc"
  type: "ReLU"
  bottom: "loss1/fc"
  top: "loss1/fc"
}
layer {
  name: "loss1/drop_fc"
  type: "Dropout"
  bottom: "loss1/fc"
  top: "loss1/fc"
  dropout_param {
    dropout_ratio: 0.7
  }
}
layer {
  name: "loss1/classifier_plantvillage"
  type: "InnerProduct"
  bottom: "loss1/fc"
  top: "loss1/classifier_plantvillage"
  param {
    lr_mult: 1
    decay_mult: 1
  }
  param {
    lr_mult: 2
    decay_mult: 0
  }
  inner_product_param {
    num_output: 38
    weight_filler {
      type: "xavier"
      std: 0.0009765625
    }
    bias_filler {
      type: "constant"
      value: 0
    }
  }
}
layer {
  name: "inception_4b/1x1"
  type: "Convolution"
  bottom: "inception_4a/output"
  top: "inception_4b/1x1"
  param {
    lr_mult: 1
    decay_mult: 1
  }
  param {
    lr_mult: 2
    decay_mult: 0
  }
  convolution_param {
    num_output: 160
    kernel_size: 1
    weight_filler {
      type: "xavier"
      std: 0.03
    }
    bias_filler {
      type: "constant"
      value: 0.2
    }
  }
}
layer {
  name: "inception_4b/relu_1x1"
  type: "ReLU"
  bottom: "inception_4b/1x1"
  top: "inception_4b/1x1"
}
layer {
  name: "inception_4b/3x3_reduce"
  type: "Convolution"
  bottom: "inception_4a/output"
  top: "inception_4b/3x3_reduce"
  param {
    lr_mult: 1
    decay_mult: 1
  }
  param {
    lr_mult: 2
    decay_mult: 0
  }
  convolution_param {
    num_output: 112
    kernel_size: 1
    weight_filler {
      type: "xavier"
      std: 0.09
    }
    bias_filler {
      type: "constant"
      value: 0.2
    }
  }
}
layer {
  name: "inception_4b/relu_3x3_reduce"
  type: "ReLU"
  bottom: "inception_4b/3x3_reduce"
  top: "inception_4b/3x3_reduce"
}
layer {
  name: "inception_4b/3x3"
  type: "Convolution"
  bottom: "inception_4b/3x3_reduce"
  top: "inception_4b/3x3"
  param {
    lr_mult: 1
    decay_mult: 1
  }
  param {
    lr_mult: 2
    decay_mult: 0
  }
  convolution_param {
    num_output: 224
    pad: 1
    kernel_size: 3
    weight_filler {
      type: "xavier"
      std: 0.03
    }
    bias_filler {
      type: "constant"
      value: 0.2
    }
  }
}
layer {
  name: "inception_4b/relu_3x3"
  type: "ReLU"
  bottom: "inception_4b/3x3"
  top: "inception_4b/3x3"
}
layer {
  name: "inception_4b/5x5_reduce"
  type: "Convolution"
  bottom: "inception_4a/output"
  top: "inception_4b/5x5_reduce"
  param {
    lr_mult: 1
    decay_mult: 1
  }
  param {
    lr_mult: 2
    decay_mult: 0
  }
  convolution_param {
    num_output: 24
    kernel_size: 1
    weight_filler {
      type: "xavier"
      std: 0.2
    }
    bias_filler {
      type: "constant"
      value: 0.2
    }
  }
}
layer {
  name: "inception_4b/relu_5x5_reduce"
  type: "ReLU"
  bottom: "inception_4b/5x5_reduce"
  top: "inception_4b/5x5_reduce"
}
layer {
  name: "inception_4b/5x5"
  type: "Convolution"
  bottom: "inception_4b/5x5_reduce"
  top: "inception_4b/5x5"
  param {
    lr_mult: 1
    decay_mult: 1
  }
  param {
    lr_mult: 2
    decay_mult: 0
  }
  convolution_param {
    num_output: 64
    pad: 2
    kernel_size: 5
    weight_filler {
      type: "xavier"
      std: 0.03
    }
    bias_filler {
      type: "constant"
      value: 0.2
    }
  }
}
layer {
  name: "inception_4b/relu_5x5"
  type: "ReLU"
  bottom: "inception_4b/5x5"
  top: "inception_4b/5x5"
}
layer {
  name: "inception_4b/pool"
  type: "Pooling"
  bottom: "inception_4a/output"
  top: "inception_4b/pool"
  pooling_param {
    pool: MAX
    kernel_size: 3
    stride: 1
    pad: 1
  }
}
layer {
  name: "inception_4b/pool_proj"
  type: "Convolution"
  bottom: "inception_4b/pool"
  top: "inception_4b/pool_proj"
  param {
    lr_mult: 1
    decay_mult: 1
  }
  param {
    lr_mult: 2
    decay_mult: 0
  }
  convolution_param {
    num_output: 64
    kernel_size: 1
    weight_filler {
      type: "xavier"
      std: 0.1
    }
    bias_filler {
      type: "constant"
      value: 0.2
    }
  }
}
layer {
  name: "inception_4b/relu_pool_proj"
  type: "ReLU"
  bottom: "inception_4b/pool_proj"
  top: "inception_4b/pool_proj"
}
layer {
  name: "inception_4b/output"
  type: "Concat"
  bottom: "inception_4b/1x1"
  bottom: "inception_4b/3x3"
  bottom: "inception_4b/5x5"
  bottom: "inception_4b/pool_proj"
  top: "inception_4b/output"
}
layer {
  name: "inception_4c/1x1"
  type: "Convolution"
  bottom: "inception_4b/output"
  top: "inception_4c/1x1"
  param {
    lr_mult: 1
    decay_mult: 1
  }
  param {
    lr_mult: 2
    decay_mult: 0
  }
  convolution_param {
    num_output: 128
    kernel_size: 1
    weight_filler {
      type: "xavier"
      std: 0.03
    }
    bias_filler {
      type: "constant"
      value: 0.2
    }
  }
}
layer {
  name: "inception_4c/relu_1x1"
  type: "ReLU"
  bottom: "inception_4c/1x1"
  top: "inception_4c/1x1"
}
layer {
  name: "inception_4c/3x3_reduce"
  type: "Convolution"
  bottom: "inception_4b/output"
  top: "inception_4c/3x3_reduce"
  param {
    lr_mult: 1
    decay_mult: 1
  }
  param {
    lr_mult: 2
    decay_mult: 0
  }
  convolution_param {
    num_output: 128
    kernel_size: 1
    weight_filler {
      type: "xavier"
      std: 0.09
    }
    bias_filler {
      type: "constant"
      value: 0.2
    }
  }
}
layer {
  name: "inception_4c/relu_3x3_reduce"
  type: "ReLU"
  bottom: "inception_4c/3x3_reduce"
  top: "inception_4c/3x3_reduce"
}
layer {
  name: "inception_4c/3x3"
  type: "Convolution"
  bottom: "inception_4c/3x3_reduce"
  top: "inception_4c/3x3"
  param {
    lr_mult: 1
    decay_mult: 1
  }
  param {
    lr_mult: 2
    decay_mult: 0
  }
  convolution_param {
    num_output: 256
    pad: 1
    kernel_size: 3
    weight_filler {
      type: "xavier"
      std: 0.03
    }
    bias_filler {
      type: "constant"
      value: 0.2
    }
  }
}
layer {
  name: "inception_4c/relu_3x3"
  type: "ReLU"
  bottom: "inception_4c/3x3"
  top: "inception_4c/3x3"
}
layer {
  name: "inception_4c/5x5_reduce"
  type: "Convolution"
  bottom: "inception_4b/output"
  top: "inception_4c/5x5_reduce"
  param {
    lr_mult: 1
    decay_mult: 1
  }
  param {
    lr_mult: 2
    decay_mult: 0
  }
  convolution_param {
    num_output: 24
    kernel_size: 1
    weight_filler {
      type: "xavier"
      std: 0.2
    }
    bias_filler {
      type: "constant"
      value: 0.2
    }
  }
}
layer {
  name: "inception_4c/relu_5x5_reduce"
  type: "ReLU"
  bottom: "inception_4c/5x5_reduce"
  top: "inception_4c/5x5_reduce"
}
layer {
  name: "inception_4c/5x5"
  type: "Convolution"
  bottom: "inception_4c/5x5_reduce"
  top: "inception_4c/5x5"
  param {
    lr_mult: 1
    decay_mult: 1
  }
  param {
    lr_mult: 2
    decay_mult: 0
  }
  convolution_param {
    num_output: 64
    pad: 2
    kernel_size: 5
    weight_filler {
      type: "xavier"
      std: 0.03
    }
    bias_filler {
      type: "constant"
      value: 0.2
    }
  }
}
layer {
  name: "inception_4c/relu_5x5"
  type: "ReLU"
  bottom: "inception_4c/5x5"
  top: "inception_4c/5x5"
}
layer {
  name: "inception_4c/pool"
  type: "Pooling"
  bottom: "inception_4b/output"
  top: "inception_4c/pool"
  pooling_param {
    pool: MAX
    kernel_size: 3
    stride: 1
    pad: 1
  }
}
layer {
  name: "inception_4c/pool_proj"
  type: "Convolution"
  bottom: "inception_4c/pool"
  top: "inception_4c/pool_proj"
  param {
    lr_mult: 1
    decay_mult: 1
  }
  param {
    lr_mult: 2
    decay_mult: 0
  }
  convolution_param {
    num_output: 64
    kernel_size: 1
    weight_filler {
      type: "xavier"
      std: 0.1
    }
    bias_filler {
      type: "constant"
      value: 0.2
    }
  }
}
layer {
  name: "inception_4c/relu_pool_proj"
  type: "ReLU"
  bottom: "inception_4c/pool_proj"
  top: "inception_4c/pool_proj"
}
layer {
  name: "inception_4c/output"
  type: "Concat"
  bottom: "inception_4c/1x1"
  bottom: "inception_4c/3x3"
  bottom: "inception_4c/5x5"
  bottom: "inception_4c/pool_proj"
  top: "inception_4c/output"
}
layer {
  name: "inception_4d/1x1"
  type: "Convolution"
  bottom: "inception_4c/output"
  top: "inception_4d/1x1"
  param {
    lr_mult: 1
    decay_mult: 1
  }
  param {
    lr_mult: 2
    decay_mult: 0
  }
  convolution_param {
    num_output: 112
    kernel_size: 1
    weight_filler {
      type: "xavier"
      std: 0.03
    }
    bias_filler {
      type: "constant"
      value: 0.2
    }
  }
}
layer {
  name: "inception_4d/relu_1x1"
  type: "ReLU"
  bottom: "inception_4d/1x1"
  top: "inception_4d/1x1"
}
layer {
  name: "inception_4d/3x3_reduce"
  type: "Convolution"
  bottom: "inception_4c/output"
  top: "inception_4d/3x3_reduce"
  param {
    lr_mult: 1
    decay_mult: 1
  }
  param {
    lr_mult: 2
    decay_mult: 0
  }
  convolution_param {
    num_output: 144
    kernel_size: 1
    weight_filler {
      type: "xavier"
      std: 0.09
    }
    bias_filler {
      type: "constant"
      value: 0.2
    }
  }
}
layer {
  name: "inception_4d/relu_3x3_reduce"
  type: "ReLU"
  bottom: "inception_4d/3x3_reduce"
  top: "inception_4d/3x3_reduce"
}
layer {
  name: "inception_4d/3x3"
  type: "Convolution"
  bottom: "inception_4d/3x3_reduce"
  top: "inception_4d/3x3"
  param {
    lr_mult: 1
    decay_mult: 1
  }
  param {
    lr_mult: 2
    decay_mult: 0
  }
  convolution_param {
    num_output: 288
    pad: 1
    kernel_size: 3
    weight_filler {
      type: "xavier"
      std: 0.03
    }
    bias_filler {
      type: "constant"
      value: 0.2
    }
  }
}
layer {
  name: "inception_4d/relu_3x3"
  type: "ReLU"
  bottom: "inception_4d/3x3"
  top: "inception_4d/3x3"
}
layer {
  name: "inception_4d/5x5_reduce"
  type: "Convolution"
  bottom: "inception_4c/output"
  top: "inception_4d/5x5_reduce"
  param {
    lr_mult: 1
    decay_mult: 1
  }
  param {
    lr_mult: 2
    decay_mult: 0
  }
  convolution_param {
    num_output: 32
    kernel_size: 1
    weight_filler {
      type: "xavier"
      std: 0.2
    }
    bias_filler {
      type: "constant"
      value: 0.2
    }
  }
}
layer {
  name: "inception_4d/relu_5x5_reduce"
  type: "ReLU"
  bottom: "inception_4d/5x5_reduce"
  top: "inception_4d/5x5_reduce"
}
layer {
  name: "inception_4d/5x5"
  type: "Convolution"
  bottom: "inception_4d/5x5_reduce"
  top: "inception_4d/5x5"
  param {
    lr_mult: 1
    decay_mult: 1
  }
  param {
    lr_mult: 2
    decay_mult: 0
  }
  convolution_param {
    num_output: 64
    pad: 2
    kernel_size: 5
    weight_filler {
      type: "xavier"
      std: 0.03
    }
    bias_filler {
      type: "constant"
      value: 0.2
    }
  }
}
layer {
  name: "inception_4d/relu_5x5"
  type: "ReLU"
  bottom: "inception_4d/5x5"
  top: "inception_4d/5x5"
}
layer {
  name: "inception_4d/pool"
  type: "Pooling"
  bottom: "inception_4c/output"
  top: "inception_4d/pool"
  pooling_param {
    pool: MAX
    kernel_size: 3
    stride: 1
    pad: 1
  }
}
layer {
  name: "inception_4d/pool_proj"
  type: "Convolution"
  bottom: "inception_4d/pool"
  top: "inception_4d/pool_proj"
  param {
    lr_mult: 1
    decay_mult: 1
  }
  param {
    lr_mult: 2
    decay_mult: 0
  }
  convolution_param {
    num_output: 64
    kernel_size: 1
    weight_filler {
      type: "xavier"
      std: 0.1
    }
    bias_filler {
      type: "constant"
      value: 0.2
    }
  }
}
layer {
  name: "inception_4d/relu_pool_proj"
  type: "ReLU"
  bottom: "inception_4d/pool_proj"
  top: "inception_4d/pool_proj"
}
layer {
  name: "inception_4d/output"
  type: "Concat"
  bottom: "inception_4d/1x1"
  bottom: "inception_4d/3x3"
  bottom: "inception_4d/5x5"
  bottom: "inception_4d/pool_proj"
  top: "inception_4d/output"
}
layer {
  name: "loss2/ave_pool"
  type: "Pooling"
  bottom: "inception_4d/output"
  top: "loss2/ave_pool"
  pooling_param {
    pool: AVE
    kernel_size: 5
    stride: 3
  }
}
layer {
  name: "loss2/conv"
  type: "Convolution"
  bottom: "loss2/ave_pool"
  top: "loss2/conv"
  param {
    lr_mult: 1
    decay_mult: 1
  }
  param {
    lr_mult: 2
    decay_mult: 0
  }
  convolution_param {
    num_output: 128
    kernel_size: 1
    weight_filler {
      type: "xavier"
      std: 0.08
    }
    bias_filler {
      type: "constant"
      value: 0.2
    }
  }
}
layer {
  name: "loss2/relu_conv"
  type: "ReLU"
  bottom: "loss2/conv"
  top: "loss2/conv"
}
layer {
  name: "loss2/fc"
  type: "InnerProduct"
  bottom: "loss2/conv"
  top: "loss2/fc"
  param {
    lr_mult: 1
    decay_mult: 1
  }
  param {
    lr_mult: 2
    decay_mult: 0
  }
  inner_product_param {
    num_output: 1024
    weight_filler {
      type: "xavier"
      std: 0.02
    }
    bias_filler {
      type: "constant"
      value: 0.2
    }
  }
}
layer {
  name: "loss2/relu_fc"
  type: "ReLU"
  bottom: "loss2/fc"
  top: "loss2/fc"
}
layer {
  name: "loss2/drop_fc"
  type: "Dropout"
  bottom: "loss2/fc"
  top: "loss2/fc"
  dropout_param {
    dropout_ratio: 0.7
  }
}
layer {
  name: "loss2/classifier_plantvillage"
  type: "InnerProduct"
  bottom: "loss2/fc"
  top: "loss2/classifier_plantvillage"
  param {
    lr_mult: 1
    decay_mult: 1
  }
  param {
    lr_mult: 2
    decay_mult: 0
  }
  inner_product_param {
    num_output: 38
    weight_filler {
      type: "xavier"
      std: 0.0009765625
    }
    bias_filler {
      type: "constant"
      value: 0
    }
  }
}
layer {
  name: "inception_4e/1x1"
  type: "Convolution"
  bottom: "inception_4d/output"
  top: "inception_4e/1x1"
  param {
    lr_mult: 1
    decay_mult: 1
  }
  param {
    lr_mult: 2
    decay_mult: 0
  }
  convolution_param {
    num_output: 256
    kernel_size: 1
    weight_filler {
      type: "xavier"
      std: 0.03
    }
    bias_filler {
      type: "constant"
      value: 0.2
    }
  }
}
layer {
  name: "inception_4e/relu_1x1"
  type: "ReLU"
  bottom: "inception_4e/1x1"
  top: "inception_4e/1x1"
}
layer {
  name: "inception_4e/3x3_reduce"
  type: "Convolution"
  bottom: "inception_4d/output"
  top: "inception_4e/3x3_reduce"
  param {
    lr_mult: 1
    decay_mult: 1
  }
  param {
    lr_mult: 2
    decay_mult: 0
  }
  convolution_param {
    num_output: 160
    kernel_size: 1
    weight_filler {
      type: "xavier"
      std: 0.09
    }
    bias_filler {
      type: "constant"
      value: 0.2
    }
  }
}
layer {
  name: "inception_4e/relu_3x3_reduce"
  type: "ReLU"
  bottom: "inception_4e/3x3_reduce"
  top: "inception_4e/3x3_reduce"
}
layer {
  name: "inception_4e/3x3"
  type: "Convolution"
  bottom: "inception_4e/3x3_reduce"
  top: "inception_4e/3x3"
  param {
    lr_mult: 1
    decay_mult: 1
  }
  param {
    lr_mult: 2
    decay_mult: 0
  }
  convolution_param {
    num_output: 320
    pad: 1
    kernel_size: 3
    weight_filler {
      type: "xavier"
      std: 0.03
    }
    bias_filler {
      type: "constant"
      value: 0.2
    }
  }
}
layer {
  name: "inception_4e/relu_3x3"
  type: "ReLU"
  bottom: "inception_4e/3x3"
  top: "inception_4e/3x3"
}
layer {
  name: "inception_4e/5x5_reduce"
  type: "Convolution"
  bottom: "inception_4d/output"
  top: "inception_4e/5x5_reduce"
  param {
    lr_mult: 1
    decay_mult: 1
  }
  param {
    lr_mult: 2
    decay_mult: 0
  }
  convolution_param {
    num_output: 32
    kernel_size: 1
    weight_filler {
      type: "xavier"
      std: 0.2
    }
    bias_filler {
      type: "constant"
      value: 0.2
    }
  }
}
layer {
  name: "inception_4e/relu_5x5_reduce"
  type: "ReLU"
  bottom: "inception_4e/5x5_reduce"
  top: "inception_4e/5x5_reduce"
}
layer {
  name: "inception_4e/5x5"
  type: "Convolution"
  bottom: "inception_4e/5x5_reduce"
  top: "inception_4e/
I0403 18:00:15.576622 15789 layer_factory.hpp:77] Creating layer data
I0403 18:00:15.577234 15789 net.cpp:91] Creating Layer data
I0403 18:00:15.577266 15789 net.cpp:399] data -> data
I0403 18:00:15.577318 15789 net.cpp:399] data -> label
I0403 18:00:15.577356 15789 data_transformer.cpp:25] Loading mean file from: /home/mohanty/data/final_dataset/lmdb/grayscale-60-40/mean.binaryproto
I0403 18:00:15.578480 15791 db_lmdb.cpp:38] Opened lmdb /home/mohanty/data/final_dataset/lmdb/grayscale-60-40/test_db
I0403 18:00:15.590829 15789 data_layer.cpp:41] output data size: 24,3,224,224
I0403 18:00:15.617565 15789 net.cpp:141] Setting up data
I0403 18:00:15.617647 15789 net.cpp:148] Top shape: 24 3 224 224 (3612672)
I0403 18:00:15.617671 15789 net.cpp:148] Top shape: 24 (24)
I0403 18:00:15.617686 15789 net.cpp:156] Memory required for data: 14450784
I0403 18:00:15.617713 15789 layer_factory.hpp:77] Creating layer label_data_1_split
I0403 18:00:15.617740 15789 net.cpp:91] Creating Layer label_data_1_split
I0403 18:00:15.617759 15789 net.cpp:425] label_data_1_split <- label
I0403 18:00:15.617790 15789 net.cpp:399] label_data_1_split -> label_data_1_split_0
I0403 18:00:15.617818 15789 net.cpp:399] label_data_1_split -> label_data_1_split_1
I0403 18:00:15.617840 15789 net.cpp:399] label_data_1_split -> label_data_1_split_2
I0403 18:00:15.617861 15789 net.cpp:399] label_data_1_split -> label_data_1_split_3
I0403 18:00:15.617879 15789 net.cpp:399] label_data_1_split -> label_data_1_split_4
I0403 18:00:15.617913 15789 net.cpp:399] label_data_1_split -> label_data_1_split_5
I0403 18:00:15.617935 15789 net.cpp:399] label_data_1_split -> label_data_1_split_6
I0403 18:00:15.617965 15789 net.cpp:399] label_data_1_split -> label_data_1_split_7
I0403 18:00:15.617997 15789 net.cpp:399] label_data_1_split -> label_data_1_split_8
I0403 18:00:15.618021 15789 net.cpp:399] label_data_1_split -> label_data_1_split_9
I0403 18:00:15.618141 15789 net.cpp:141] Setting up label_data_1_split
I0403 18:00:15.618165 15789 net.cpp:148] Top shape: 24 (24)
I0403 18:00:15.618183 15789 net.cpp:148] Top shape: 24 (24)
I0403 18:00:15.618201 15789 net.cpp:148] Top shape: 24 (24)
I0403 18:00:15.618228 15789 net.cpp:148] Top shape: 24 (24)
I0403 18:00:15.618244 15789 net.cpp:148] Top shape: 24 (24)
I0403 18:00:15.618260 15789 net.cpp:148] Top shape: 24 (24)
I0403 18:00:15.618275 15789 net.cpp:148] Top shape: 24 (24)
I0403 18:00:15.618293 15789 net.cpp:148] Top shape: 24 (24)
I0403 18:00:15.618309 15789 net.cpp:148] Top shape: 24 (24)
I0403 18:00:15.618324 15789 net.cpp:148] Top shape: 24 (24)
I0403 18:00:15.618368 15789 net.cpp:156] Memory required for data: 14451744
I0403 18:00:15.618384 15789 layer_factory.hpp:77] Creating layer conv1/7x7_s2
I0403 18:00:15.618417 15789 net.cpp:91] Creating Layer conv1/7x7_s2
I0403 18:00:15.618435 15789 net.cpp:425] conv1/7x7_s2 <- data
I0403 18:00:15.618455 15789 net.cpp:399] conv1/7x7_s2 -> conv1/7x7_s2
I0403 18:00:15.759821 15789 net.cpp:141] Setting up conv1/7x7_s2
I0403 18:00:15.759910 15789 net.cpp:148] Top shape: 24 64 112 112 (19267584)
I0403 18:00:15.759928 15789 net.cpp:156] Memory required for data: 91522080
I0403 18:00:15.759963 15789 layer_factory.hpp:77] Creating layer conv1/relu_7x7
I0403 18:00:15.759992 15789 net.cpp:91] Creating Layer conv1/relu_7x7
I0403 18:00:15.760012 15789 net.cpp:425] conv1/relu_7x7 <- conv1/7x7_s2
I0403 18:00:15.760035 15789 net.cpp:386] conv1/relu_7x7 -> conv1/7x7_s2 (in-place)
I0403 18:00:15.760303 15789 net.cpp:141] Setting up conv1/relu_7x7
I0403 18:00:15.760334 15789 net.cpp:148] Top shape: 24 64 112 112 (19267584)
I0403 18:00:15.760350 15789 net.cpp:156] Memory required for data: 168592416
I0403 18:00:15.760365 15789 layer_factory.hpp:77] Creating layer pool1/3x3_s2
I0403 18:00:15.760390 15789 net.cpp:91] Creating Layer pool1/3x3_s2
I0403 18:00:15.760411 15789 net.cpp:425] pool1/3x3_s2 <- conv1/7x7_s2
I0403 18:00:15.760432 15789 net.cpp:399] pool1/3x3_s2 -> pool1/3x3_s2
I0403 18:00:15.760516 15789 net.cpp:141] Setting up pool1/3x3_s2
I0403 18:00:15.760545 15789 net.cpp:148] Top shape: 24 64 56 56 (4816896)
I0403 18:00:15.760560 15789 net.cpp:156] Memory required for data: 187860000
I0403 18:00:15.760574 15789 layer_factory.hpp:77] Creating layer pool1/norm1
I0403 18:00:15.760599 15789 net.cpp:91] Creating Layer pool1/norm1
I0403 18:00:15.760617 15789 net.cpp:425] pool1/norm1 <- pool1/3x3_s2
I0403 18:00:15.760637 15789 net.cpp:399] pool1/norm1 -> pool1/norm1
I0403 18:00:15.760941 15789 net.cpp:141] Setting up pool1/norm1
I0403 18:00:15.760972 15789 net.cpp:148] Top shape: 24 64 56 56 (4816896)
I0403 18:00:15.760989 15789 net.cpp:156] Memory required for data: 207127584
I0403 18:00:15.761005 15789 layer_factory.hpp:77] Creating layer conv2/3x3_reduce
I0403 18:00:15.761035 15789 net.cpp:91] Creating Layer conv2/3x3_reduce
I0403 18:00:15.761054 15789 net.cpp:425] conv2/3x3_reduce <- pool1/norm1
I0403 18:00:15.761076 15789 net.cpp:399] conv2/3x3_reduce -> conv2/3x3_reduce
I0403 18:00:15.762639 15789 net.cpp:141] Setting up conv2/3x3_reduce
I0403 18:00:15.762670 15789 net.cpp:148] Top shape: 24 64 56 56 (4816896)
I0403 18:00:15.762687 15789 net.cpp:156] Memory required for data: 226395168
I0403 18:00:15.762709 15789 layer_factory.hpp:77] Creating layer conv2/relu_3x3_reduce
I0403 18:00:15.762732 15789 net.cpp:91] Creating Layer conv2/relu_3x3_reduce
I0403 18:00:15.762750 15789 net.cpp:425] conv2/relu_3x3_reduce <- conv2/3x3_reduce
I0403 18:00:15.762768 15789 net.cpp:386] conv2/relu_3x3_reduce -> conv2/3x3_reduce (in-place)
I0403 18:00:15.763056 15789 net.cpp:141] Setting up conv2/relu_3x3_reduce
I0403 18:00:15.763083 15789 net.cpp:148] Top shape: 24 64 56 56 (4816896)
I0403 18:00:15.763100 15789 net.cpp:156] Memory required for data: 245662752
I0403 18:00:15.763118 15789 layer_factory.hpp:77] Creating layer conv2/3x3
I0403 18:00:15.763146 15789 net.cpp:91] Creating Layer conv2/3x3
I0403 18:00:15.763165 15789 net.cpp:425] conv2/3x3 <- conv2/3x3_reduce
I0403 18:00:15.763185 15789 net.cpp:399] conv2/3x3 -> conv2/3x3
I0403 18:00:15.765625 15789 net.cpp:141] Setting up conv2/3x3
I0403 18:00:15.765656 15789 net.cpp:148] Top shape: 24 192 56 56 (14450688)
I0403 18:00:15.765673 15789 net.cpp:156] Memory required for data: 303465504
I0403 18:00:15.765697 15789 layer_factory.hpp:77] Creating layer conv2/relu_3x3
I0403 18:00:15.765754 15789 net.cpp:91] Creating Layer conv2/relu_3x3
I0403 18:00:15.765776 15789 net.cpp:425] conv2/relu_3x3 <- conv2/3x3
I0403 18:00:15.765795 15789 net.cpp:386] conv2/relu_3x3 -> conv2/3x3 (in-place)
I0403 18:00:15.765985 15789 net.cpp:141] Setting up conv2/relu_3x3
I0403 18:00:15.766012 15789 net.cpp:148] Top shape: 24 192 56 56 (14450688)
I0403 18:00:15.766062 15789 net.cpp:156] Memory required for data: 361268256
I0403 18:00:15.766078 15789 layer_factory.hpp:77] Creating layer conv2/norm2
I0403 18:00:15.766098 15789 net.cpp:91] Creating Layer conv2/norm2
I0403 18:00:15.766114 15789 net.cpp:425] conv2/norm2 <- conv2/3x3
I0403 18:00:15.766135 15789 net.cpp:399] conv2/norm2 -> conv2/norm2
I0403 18:00:15.766456 15789 net.cpp:141] Setting up conv2/norm2
I0403 18:00:15.766484 15789 net.cpp:148] Top shape: 24 192 56 56 (14450688)
I0403 18:00:15.766500 15789 net.cpp:156] Memory required for data: 419071008
I0403 18:00:15.766516 15789 layer_factory.hpp:77] Creating layer pool2/3x3_s2
I0403 18:00:15.766535 15789 net.cpp:91] Creating Layer pool2/3x3_s2
I0403 18:00:15.766551 15789 net.cpp:425] pool2/3x3_s2 <- conv2/norm2
I0403 18:00:15.766572 15789 net.cpp:399] pool2/3x3_s2 -> pool2/3x3_s2
I0403 18:00:15.766629 15789 net.cpp:141] Setting up pool2/3x3_s2
I0403 18:00:15.766654 15789 net.cpp:148] Top shape: 24 192 28 28 (3612672)
I0403 18:00:15.766669 15789 net.cpp:156] Memory required for data: 433521696
I0403 18:00:15.766685 15789 layer_factory.hpp:77] Creating layer pool2/3x3_s2_pool2/3x3_s2_0_split
I0403 18:00:15.766705 15789 net.cpp:91] Creating Layer pool2/3x3_s2_pool2/3x3_s2_0_split
I0403 18:00:15.766721 15789 net.cpp:425] pool2/3x3_s2_pool2/3x3_s2_0_split <- pool2/3x3_s2
I0403 18:00:15.766741 15789 net.cpp:399] pool2/3x3_s2_pool2/3x3_s2_0_split -> pool2/3x3_s2_pool2/3x3_s2_0_split_0
I0403 18:00:15.766763 15789 net.cpp:399] pool2/3x3_s2_pool2/3x3_s2_0_split -> pool2/3x3_s2_pool2/3x3_s2_0_split_1
I0403 18:00:15.766784 15789 net.cpp:399] pool2/3x3_s2_pool2/3x3_s2_0_split -> pool2/3x3_s2_pool2/3x3_s2_0_split_2
I0403 18:00:15.766805 15789 net.cpp:399] pool2/3x3_s2_pool2/3x3_s2_0_split -> pool2/3x3_s2_pool2/3x3_s2_0_split_3
I0403 18:00:15.766878 15789 net.cpp:141] Setting up pool2/3x3_s2_pool2/3x3_s2_0_split
I0403 18:00:15.766904 15789 net.cpp:148] Top shape: 24 192 28 28 (3612672)
I0403 18:00:15.766923 15789 net.cpp:148] Top shape: 24 192 28 28 (3612672)
I0403 18:00:15.766940 15789 net.cpp:148] Top shape: 24 192 28 28 (3612672)
I0403 18:00:15.766963 15789 net.cpp:148] Top shape: 24 192 28 28 (3612672)
I0403 18:00:15.766978 15789 net.cpp:156] Memory required for data: 491324448
I0403 18:00:15.766994 15789 layer_factory.hpp:77] Creating layer inception_3a/1x1
I0403 18:00:15.767017 15789 net.cpp:91] Creating Layer inception_3a/1x1
I0403 18:00:15.767035 15789 net.cpp:425] inception_3a/1x1 <- pool2/3x3_s2_pool2/3x3_s2_0_split_0
I0403 18:00:15.767055 15789 net.cpp:399] inception_3a/1x1 -> inception_3a/1x1
I0403 18:00:15.768739 15789 net.cpp:141] Setting up inception_3a/1x1
I0403 18:00:15.768771 15789 net.cpp:148] Top shape: 24 64 28 28 (1204224)
I0403 18:00:15.768789 15789 net.cpp:156] Memory required for data: 496141344
I0403 18:00:15.768807 15789 layer_factory.hpp:77] Creating layer inception_3a/relu_1x1
I0403 18:00:15.768829 15789 net.cpp:91] Creating Layer inception_3a/relu_1x1
I0403 18:00:15.768846 15789 net.cpp:425] inception_3a/relu_1x1 <- inception_3a/1x1
I0403 18:00:15.768865 15789 net.cpp:386] inception_3a/relu_1x1 -> inception_3a/1x1 (in-place)
I0403 18:00:15.769063 15789 net.cpp:141] Setting up inception_3a/relu_1x1
I0403 18:00:15.769093 15789 net.cpp:148] Top shape: 24 64 28 28 (1204224)
I0403 18:00:15.769109 15789 net.cpp:156] Memory required for data: 500958240
I0403 18:00:15.769125 15789 layer_factory.hpp:77] Creating layer inception_3a/3x3_reduce
I0403 18:00:15.769151 15789 net.cpp:91] Creating Layer inception_3a/3x3_reduce
I0403 18:00:15.769171 15789 net.cpp:425] inception_3a/3x3_reduce <- pool2/3x3_s2_pool2/3x3_s2_0_split_1
I0403 18:00:15.769191 15789 net.cpp:399] inception_3a/3x3_reduce -> inception_3a/3x3_reduce
I0403 18:00:15.770972 15789 net.cpp:141] Setting up inception_3a/3x3_reduce
I0403 18:00:15.771003 15789 net.cpp:148] Top shape: 24 96 28 28 (1806336)
I0403 18:00:15.771020 15789 net.cpp:156] Memory required for data: 508183584
I0403 18:00:15.771044 15789 layer_factory.hpp:77] Creating layer inception_3a/relu_3x3_reduce
I0403 18:00:15.771082 15789 net.cpp:91] Creating Layer inception_3a/relu_3x3_reduce
I0403 18:00:15.771101 15789 net.cpp:425] inception_3a/relu_3x3_reduce <- inception_3a/3x3_reduce
I0403 18:00:15.771122 15789 net.cpp:386] inception_3a/relu_3x3_reduce -> inception_3a/3x3_reduce (in-place)
I0403 18:00:15.771316 15789 net.cpp:141] Setting up inception_3a/relu_3x3_reduce
I0403 18:00:15.771342 15789 net.cpp:148] Top shape: 24 96 28 28 (1806336)
I0403 18:00:15.771358 15789 net.cpp:156] Memory required for data: 515408928
I0403 18:00:15.771373 15789 layer_factory.hpp:77] Creating layer inception_3a/3x3
I0403 18:00:15.771397 15789 net.cpp:91] Creating Layer inception_3a/3x3
I0403 18:00:15.771415 15789 net.cpp:425] inception_3a/3x3 <- inception_3a/3x3_reduce
I0403 18:00:15.771438 15789 net.cpp:399] inception_3a/3x3 -> inception_3a/3x3
I0403 18:00:15.773185 15789 net.cpp:141] Setting up inception_3a/3x3
I0403 18:00:15.773226 15789 net.cpp:148] Top shape: 24 128 28 28 (2408448)
I0403 18:00:15.773244 15789 net.cpp:156] Memory required for data: 525042720
I0403 18:00:15.773264 15789 layer_factory.hpp:77] Creating layer inception_3a/relu_3x3
I0403 18:00:15.773283 15789 net.cpp:91] Creating Layer inception_3a/relu_3x3
I0403 18:00:15.773300 15789 net.cpp:425] inception_3a/relu_3x3 <- inception_3a/3x3
I0403 18:00:15.773319 15789 net.cpp:386] inception_3a/relu_3x3 -> inception_3a/3x3 (in-place)
I0403 18:00:15.773608 15789 net.cpp:141] Setting up inception_3a/relu_3x3
I0403 18:00:15.773639 15789 net.cpp:148] Top shape: 24 128 28 28 (2408448)
I0403 18:00:15.773656 15789 net.cpp:156] Memory required for data: 534676512
I0403 18:00:15.773672 15789 layer_factory.hpp:77] Creating layer inception_3a/5x5_reduce
I0403 18:00:15.773695 15789 net.cpp:91] Creating Layer inception_3a/5x5_reduce
I0403 18:00:15.773715 15789 net.cpp:425] inception_3a/5x5_reduce <- pool2/3x3_s2_pool2/3x3_s2_0_split_2
I0403 18:00:15.773735 15789 net.cpp:399] inception_3a/5x5_reduce -> inception_3a/5x5_reduce
I0403 18:00:15.774741 15789 net.cpp:141] Setting up inception_3a/5x5_reduce
I0403 18:00:15.774773 15789 net.cpp:148] Top shape: 24 16 28 28 (301056)
I0403 18:00:15.774791 15789 net.cpp:156] Memory required for data: 535880736
I0403 18:00:15.774811 15789 layer_factory.hpp:77] Creating layer inception_3a/relu_5x5_reduce
I0403 18:00:15.774829 15789 net.cpp:91] Creating Layer inception_3a/relu_5x5_reduce
I0403 18:00:15.774847 15789 net.cpp:425] inception_3a/relu_5x5_reduce <- inception_3a/5x5_reduce
I0403 18:00:15.774864 15789 net.cpp:386] inception_3a/relu_5x5_reduce -> inception_3a/5x5_reduce (in-place)
I0403 18:00:15.775184 15789 net.cpp:141] Setting up inception_3a/relu_5x5_reduce
I0403 18:00:15.775213 15789 net.cpp:148] Top shape: 24 16 28 28 (301056)
I0403 18:00:15.775229 15789 net.cpp:156] Memory required for data: 537084960
I0403 18:00:15.775244 15789 layer_factory.hpp:77] Creating layer inception_3a/5x5
I0403 18:00:15.775269 15789 net.cpp:91] Creating Layer inception_3a/5x5
I0403 18:00:15.775288 15789 net.cpp:425] inception_3a/5x5 <- inception_3a/5x5_reduce
I0403 18:00:15.775310 15789 net.cpp:399] inception_3a/5x5 -> inception_3a/5x5
I0403 18:00:15.776372 15789 net.cpp:141] Setting up inception_3a/5x5
I0403 18:00:15.776401 15789 net.cpp:148] Top shape: 24 32 28 28 (602112)
I0403 18:00:15.776417 15789 net.cpp:156] Memory required for data: 539493408
I0403 18:00:15.776437 15789 layer_factory.hpp:77] Creating layer inception_3a/relu_5x5
I0403 18:00:15.776459 15789 net.cpp:91] Creating Layer inception_3a/relu_5x5
I0403 18:00:15.776478 15789 net.cpp:425] inception_3a/relu_5x5 <- inception_3a/5x5
I0403 18:00:15.776495 15789 net.cpp:386] inception_3a/relu_5x5 -> inception_3a/5x5 (in-place)
I0403 18:00:15.776677 15789 net.cpp:141] Setting up inception_3a/relu_5x5
I0403 18:00:15.776706 15789 net.cpp:148] Top shape: 24 32 28 28 (602112)
I0403 18:00:15.776723 15789 net.cpp:156] Memory required for data: 541901856
I0403 18:00:15.776739 15789 layer_factory.hpp:77] Creating layer inception_3a/pool
I0403 18:00:15.776758 15789 net.cpp:91] Creating Layer inception_3a/pool
I0403 18:00:15.776790 15789 net.cpp:425] inception_3a/pool <- pool2/3x3_s2_pool2/3x3_s2_0_split_3
I0403 18:00:15.776813 15789 net.cpp:399] inception_3a/pool -> inception_3a/pool
I0403 18:00:15.776872 15789 net.cpp:141] Setting up inception_3a/pool
I0403 18:00:15.776897 15789 net.cpp:148] Top shape: 24 192 28 28 (3612672)
I0403 18:00:15.776912 15789 net.cpp:156] Memory required for data: 556352544
I0403 18:00:15.776928 15789 layer_factory.hpp:77] Creating layer inception_3a/pool_proj
I0403 18:00:15.776957 15789 net.cpp:91] Creating Layer inception_3a/pool_proj
I0403 18:00:15.776975 15789 net.cpp:425] inception_3a/pool_proj <- inception_3a/pool
I0403 18:00:15.776998 15789 net.cpp:399] inception_3a/pool_proj -> inception_3a/pool_proj
I0403 18:00:15.778009 15789 net.cpp:141] Setting up inception_3a/pool_proj
I0403 18:00:15.778039 15789 net.cpp:148] Top shape: 24 32 28 28 (602112)
I0403 18:00:15.778056 15789 net.cpp:156] Memory required for data: 558760992
I0403 18:00:15.778081 15789 layer_factory.hpp:77] Creating layer inception_3a/relu_pool_proj
I0403 18:00:15.778102 15789 net.cpp:91] Creating Layer inception_3a/relu_pool_proj
I0403 18:00:15.778120 15789 net.cpp:425] inception_3a/relu_pool_proj <- inception_3a/pool_proj
I0403 18:00:15.778141 15789 net.cpp:386] inception_3a/relu_pool_proj -> inception_3a/pool_proj (in-place)
I0403 18:00:15.778424 15789 net.cpp:141] Setting up inception_3a/relu_pool_proj
I0403 18:00:15.778455 15789 net.cpp:148] Top shape: 24 32 28 28 (602112)
I0403 18:00:15.778470 15789 net.cpp:156] Memory required for data: 561169440
I0403 18:00:15.778486 15789 layer_factory.hpp:77] Creating layer inception_3a/output
I0403 18:00:15.778506 15789 net.cpp:91] Creating Layer inception_3a/output
I0403 18:00:15.778522 15789 net.cpp:425] inception_3a/output <- inception_3a/1x1
I0403 18:00:15.778538 15789 net.cpp:425] inception_3a/output <- inception_3a/3x3
I0403 18:00:15.778555 15789 net.cpp:425] inception_3a/output <- inception_3a/5x5
I0403 18:00:15.778571 15789 net.cpp:425] inception_3a/output <- inception_3a/pool_proj
I0403 18:00:15.778589 15789 net.cpp:399] inception_3a/output -> inception_3a/output
I0403 18:00:15.778640 15789 net.cpp:141] Setting up inception_3a/output
I0403 18:00:15.778663 15789 net.cpp:148] Top shape: 24 256 28 28 (4816896)
I0403 18:00:15.778679 15789 net.cpp:156] Memory required for data: 580437024
I0403 18:00:15.778694 15789 layer_factory.hpp:77] Creating layer inception_3a/output_inception_3a/output_0_split
I0403 18:00:15.778712 15789 net.cpp:91] Creating Layer inception_3a/output_inception_3a/output_0_split
I0403 18:00:15.778731 15789 net.cpp:425] inception_3a/output_inception_3a/output_0_split <- inception_3a/output
I0403 18:00:15.778750 15789 net.cpp:399] inception_3a/output_inception_3a/output_0_split -> inception_3a/output_inception_3a/output_0_split_0
I0403 18:00:15.778771 15789 net.cpp:399] inception_3a/output_inception_3a/output_0_split -> inception_3a/output_inception_3a/output_0_split_1
I0403 18:00:15.778796 15789 net.cpp:399] inception_3a/output_inception_3a/output_0_split -> inception_3a/output_inception_3a/output_0_split_2
I0403 18:00:15.778818 15789 net.cpp:399] inception_3a/output_inception_3a/output_0_split -> inception_3a/output_inception_3a/output_0_split_3
I0403 18:00:15.778898 15789 net.cpp:141] Setting up inception_3a/output_inception_3a/output_0_split
I0403 18:00:15.778921 15789 net.cpp:148] Top shape: 24 256 28 28 (4816896)
I0403 18:00:15.778939 15789 net.cpp:148] Top shape: 24 256 28 28 (4816896)
I0403 18:00:15.778969 15789 net.cpp:148] Top shape: 24 256 28 28 (4816896)
I0403 18:00:15.778987 15789 net.cpp:148] Top shape: 24 256 28 28 (4816896)
I0403 18:00:15.779002 15789 net.cpp:156] Memory required for data: 657507360
I0403 18:00:15.779017 15789 layer_factory.hpp:77] Creating layer inception_3b/1x1
I0403 18:00:15.779042 15789 net.cpp:91] Creating Layer inception_3b/1x1
I0403 18:00:15.779060 15789 net.cpp:425] inception_3b/1x1 <- inception_3a/output_inception_3a/output_0_split_0
I0403 18:00:15.779083 15789 net.cpp:399] inception_3b/1x1 -> inception_3b/1x1
I0403 18:00:15.780278 15789 net.cpp:141] Setting up inception_3b/1x1
I0403 18:00:15.780323 15789 net.cpp:148] Top shape: 24 128 28 28 (2408448)
I0403 18:00:15.780339 15789 net.cpp:156] Memory required for data: 667141152
I0403 18:00:15.780359 15789 layer_factory.hpp:77] Creating layer inception_3b/relu_1x1
I0403 18:00:15.780381 15789 net.cpp:91] Creating Layer inception_3b/relu_1x1
I0403 18:00:15.780400 15789 net.cpp:425] inception_3b/relu_1x1 <- inception_3b/1x1
I0403 18:00:15.780418 15789 net.cpp:386] inception_3b/relu_1x1 -> inception_3b/1x1 (in-place)
I0403 18:00:15.780602 15789 net.cpp:141] Setting up inception_3b/relu_1x1
I0403 18:00:15.780632 15789 net.cpp:148] Top shape: 24 128 28 28 (2408448)
I0403 18:00:15.780647 15789 net.cpp:156] Memory required for data: 676774944
I0403 18:00:15.780663 15789 layer_factory.hpp:77] Creating layer inception_3b/3x3_reduce
I0403 18:00:15.780688 15789 net.cpp:91] Creating Layer inception_3b/3x3_reduce
I0403 18:00:15.780705 15789 net.cpp:425] inception_3b/3x3_reduce <- inception_3a/output_inception_3a/output_0_split_1
I0403 18:00:15.780725 15789 net.cpp:399] inception_3b/3x3_reduce -> inception_3b/3x3_reduce
I0403 18:00:15.781936 15789 net.cpp:141] Setting up inception_3b/3x3_reduce
I0403 18:00:15.781968 15789 net.cpp:148] Top shape: 24 128 28 28 (2408448)
I0403 18:00:15.781985 15789 net.cpp:156] Memory required for data: 686408736
I0403 18:00:15.782004 15789 layer_factory.hpp:77] Creating layer inception_3b/relu_3x3_reduce
I0403 18:00:15.782029 15789 net.cpp:91] Creating Layer inception_3b/relu_3x3_reduce
I0403 18:00:15.782047 15789 net.cpp:425] inception_3b/relu_3x3_reduce <- inception_3b/3x3_reduce
I0403 18:00:15.782064 15789 net.cpp:386] inception_3b/relu_3x3_reduce -> inception_3b/3x3_reduce (in-place)
I0403 18:00:15.782251 15789 net.cpp:141] Setting up inception_3b/relu_3x3_reduce
I0403 18:00:15.782276 15789 net.cpp:148] Top shape: 24 128 28 28 (2408448)
I0403 18:00:15.782291 15789 net.cpp:156] Memory required for data: 696042528
I0403 18:00:15.782306 15789 layer_factory.hpp:77] Creating layer inception_3b/3x3
I0403 18:00:15.782332 15789 net.cpp:91] Creating Layer inception_3b/3x3
I0403 18:00:15.782349 15789 net.cpp:425] inception_3b/3x3 <- inception_3b/3x3_reduce
I0403 18:00:15.782371 15789 net.cpp:399] inception_3b/3x3 -> inception_3b/3x3
I0403 18:00:15.785259 15789 net.cpp:141] Setting up inception_3b/3x3
I0403 18:00:15.785291 15789 net.cpp:148] Top shape: 24 192 28 28 (3612672)
I0403 18:00:15.785308 15789 net.cpp:156] Memory required for data: 710493216
I0403 18:00:15.785327 15789 layer_factory.hpp:77] Creating layer inception_3b/relu_3x3
I0403 18:00:15.785346 15789 net.cpp:91] Creating Layer inception_3b/relu_3x3
I0403 18:00:15.785362 15789 net.cpp:425] inception_3b/relu_3x3 <- inception_3b/3x3
I0403 18:00:15.785378 15789 net.cpp:386] inception_3b/relu_3x3 -> inception_3b/3x3 (in-place)
I0403 18:00:15.785657 15789 net.cpp:141] Setting up inception_3b/relu_3x3
I0403 18:00:15.785689 15789 net.cpp:148] Top shape: 24 192 28 28 (3612672)
I0403 18:00:15.785706 15789 net.cpp:156] Memory required for data: 724943904
I0403 18:00:15.785722 15789 layer_factory.hpp:77] Creating layer inception_3b/5x5_reduce
I0403 18:00:15.785744 15789 net.cpp:91] Creating Layer inception_3b/5x5_reduce
I0403 18:00:15.785763 15789 net.cpp:425] inception_3b/5x5_reduce <- inception_3a/output_inception_3a/output_0_split_2
I0403 18:00:15.785780 15789 net.cpp:399] inception_3b/5x5_reduce -> inception_3b/5x5_reduce
I0403 18:00:15.786756 15789 net.cpp:141] Setting up inception_3b/5x5_reduce
I0403 18:00:15.786783 15789 net.cpp:148] Top shape: 24 32 28 28 (602112)
I0403 18:00:15.786801 15789 net.cpp:156] Memory required for data: 727352352
I0403 18:00:15.786818 15789 layer_factory.hpp:77] Creating layer inception_3b/relu_5x5_reduce
I0403 18:00:15.786836 15789 net.cpp:91] Creating Layer inception_3b/relu_5x5_reduce
I0403 18:00:15.786852 15789 net.cpp:425] inception_3b/relu_5x5_reduce <- inception_3b/5x5_reduce
I0403 18:00:15.786870 15789 net.cpp:386] inception_3b/relu_5x5_reduce -> inception_3b/5x5_reduce (in-place)
I0403 18:00:15.787060 15789 net.cpp:141] Setting up inception_3b/relu_5x5_reduce
I0403 18:00:15.787086 15789 net.cpp:148] Top shape: 24 32 28 28 (602112)
I0403 18:00:15.787102 15789 net.cpp:156] Memory required for data: 729760800
I0403 18:00:15.787117 15789 layer_factory.hpp:77] Creating layer inception_3b/5x5
I0403 18:00:15.787140 15789 net.cpp:91] Creating Layer inception_3b/5x5
I0403 18:00:15.787158 15789 net.cpp:425] inception_3b/5x5 <- inception_3b/5x5_reduce
I0403 18:00:15.787178 15789 net.cpp:399] inception_3b/5x5 -> inception_3b/5x5
I0403 18:00:15.789086 15789 net.cpp:141] Setting up inception_3b/5x5
I0403 18:00:15.789114 15789 net.cpp:148] Top shape: 24 96 28 28 (1806336)
I0403 18:00:15.789130 15789 net.cpp:156] Memory required for data: 736986144
I0403 18:00:15.789147 15789 layer_factory.hpp:77] Creating layer inception_3b/relu_5x5
I0403 18:00:15.789167 15789 net.cpp:91] Creating Layer inception_3b/relu_5x5
I0403 18:00:15.789185 15789 net.cpp:425] inception_3b/relu_5x5 <- inception_3b/5x5
I0403 18:00:15.789201 15789 net.cpp:386] inception_3b/relu_5x5 -> inception_3b/5x5 (in-place)
I0403 18:00:15.789387 15789 net.cpp:141] Setting up inception_3b/relu_5x5
I0403 18:00:15.789412 15789 net.cpp:148] Top shape: 24 96 28 28 (1806336)
I0403 18:00:15.789425 15789 net.cpp:156] Memory required for data: 744211488
I0403 18:00:15.789439 15789 layer_factory.hpp:77] Creating layer inception_3b/pool
I0403 18:00:15.789456 15789 net.cpp:91] Creating Layer inception_3b/pool
I0403 18:00:15.789472 15789 net.cpp:425] inception_3b/pool <- inception_3a/output_inception_3a/output_0_split_3
I0403 18:00:15.789489 15789 net.cpp:399] inception_3b/pool -> inception_3b/pool
I0403 18:00:15.789542 15789 net.cpp:141] Setting up inception_3b/pool
I0403 18:00:15.789564 15789 net.cpp:148] Top shape: 24 256 28 28 (4816896)
I0403 18:00:15.789579 15789 net.cpp:156] Memory required for data: 763479072
I0403 18:00:15.789593 15789 layer_factory.hpp:77] Creating layer inception_3b/pool_proj
I0403 18:00:15.789616 15789 net.cpp:91] Creating Layer inception_3b/pool_proj
I0403 18:00:15.789633 15789 net.cpp:425] inception_3b/pool_proj <- inception_3b/pool
I0403 18:00:15.789652 15789 net.cpp:399] inception_3b/pool_proj -> inception_3b/pool_proj
I0403 18:00:15.790668 15789 net.cpp:141] Setting up inception_3b/pool_proj
I0403 18:00:15.790696 15789 net.cpp:148] Top shape: 24 64 28 28 (1204224)
I0403 18:00:15.790712 15789 net.cpp:156] Memory required for data: 768295968
I0403 18:00:15.790730 15789 layer_factory.hpp:77] Creating layer inception_3b/relu_pool_proj
I0403 18:00:15.790747 15789 net.cpp:91] Creating Layer inception_3b/relu_pool_proj
I0403 18:00:15.790763 15789 net.cpp:425] inception_3b/relu_pool_proj <- inception_3b/pool_proj
I0403 18:00:15.790782 15789 net.cpp:386] inception_3b/relu_pool_proj -> inception_3b/pool_proj (in-place)
I0403 18:00:15.791163 15789 net.cpp:141] Setting up inception_3b/relu_pool_proj
I0403 18:00:15.791191 15789 net.cpp:148] Top shape: 24 64 28 28 (1204224)
I0403 18:00:15.791206 15789 net.cpp:156] Memory required for data: 773112864
I0403 18:00:15.791221 15789 layer_factory.hpp:77] Creating layer inception_3b/output
I0403 18:00:15.791239 15789 net.cpp:91] Creating Layer inception_3b/output
I0403 18:00:15.791254 15789 net.cpp:425] inception_3b/output <- inception_3b/1x1
I0403 18:00:15.791270 15789 net.cpp:425] inception_3b/output <- inception_3b/3x3
I0403 18:00:15.791285 15789 net.cpp:425] inception_3b/output <- inception_3b/5x5
I0403 18:00:15.791301 15789 net.cpp:425] inception_3b/output <- inception_3b/pool_proj
I0403 18:00:15.791316 15789 net.cpp:399] inception_3b/output -> inception_3b/output
I0403 18:00:15.791360 15789 net.cpp:141] Setting up inception_3b/output
I0403 18:00:15.791383 15789 net.cpp:148] Top shape: 24 480 28 28 (9031680)
I0403 18:00:15.791396 15789 net.cpp:156] Memory required for data: 809239584
I0403 18:00:15.791410 15789 layer_factory.hpp:77] Creating layer pool3/3x3_s2
I0403 18:00:15.791429 15789 net.cpp:91] Creating Layer pool3/3x3_s2
I0403 18:00:15.791445 15789 net.cpp:425] pool3/3x3_s2 <- inception_3b/output
I0403 18:00:15.791476 15789 net.cpp:399] pool3/3x3_s2 -> pool3/3x3_s2
I0403 18:00:15.791534 15789 net.cpp:141] Setting up pool3/3x3_s2
I0403 18:00:15.791556 15789 net.cpp:148] Top shape: 24 480 14 14 (2257920)
I0403 18:00:15.791570 15789 net.cpp:156] Memory required for data: 818271264
I0403 18:00:15.791584 15789 layer_factory.hpp:77] Creating layer pool3/3x3_s2_pool3/3x3_s2_0_split
I0403 18:00:15.791601 15789 net.cpp:91] Creating Layer pool3/3x3_s2_pool3/3x3_s2_0_split
I0403 18:00:15.791615 15789 net.cpp:425] pool3/3x3_s2_pool3/3x3_s2_0_split <- pool3/3x3_s2
I0403 18:00:15.791633 15789 net.cpp:399] pool3/3x3_s2_pool3/3x3_s2_0_split -> pool3/3x3_s2_pool3/3x3_s2_0_split_0
I0403 18:00:15.791653 15789 net.cpp:399] pool3/3x3_s2_pool3/3x3_s2_0_split -> pool3/3x3_s2_pool3/3x3_s2_0_split_1
I0403 18:00:15.791672 15789 net.cpp:399] pool3/3x3_s2_pool3/3x3_s2_0_split -> pool3/3x3_s2_pool3/3x3_s2_0_split_2
I0403 18:00:15.791692 15789 net.cpp:399] pool3/3x3_s2_pool3/3x3_s2_0_split -> pool3/3x3_s2_pool3/3x3_s2_0_split_3
I0403 18:00:15.791764 15789 net.cpp:141] Setting up pool3/3x3_s2_pool3/3x3_s2_0_split
I0403 18:00:15.791790 15789 net.cpp:148] Top shape: 24 480 14 14 (2257920)
I0403 18:00:15.791806 15789 net.cpp:148] Top shape: 24 480 14 14 (2257920)
I0403 18:00:15.791821 15789 net.cpp:148] Top shape: 24 480 14 14 (2257920)
I0403 18:00:15.791836 15789 net.cpp:148] Top shape: 24 480 14 14 (2257920)
I0403 18:00:15.791849 15789 net.cpp:156] Memory required for data: 854397984
I0403 18:00:15.791865 15789 layer_factory.hpp:77] Creating layer inception_4a/1x1
I0403 18:00:15.791887 15789 net.cpp:91] Creating Layer inception_4a/1x1
I0403 18:00:15.791903 15789 net.cpp:425] inception_4a/1x1 <- pool3/3x3_s2_pool3/3x3_s2_0_split_0
I0403 18:00:15.791920 15789 net.cpp:399] inception_4a/1x1 -> inception_4a/1x1
I0403 18:00:15.793459 15789 net.cpp:141] Setting up inception_4a/1x1
I0403 18:00:15.793488 15789 net.cpp:148] Top shape: 24 192 14 14 (903168)
I0403 18:00:15.793503 15789 net.cpp:156] Memory required for data: 858010656
I0403 18:00:15.793521 15789 layer_factory.hpp:77] Creating layer inception_4a/relu_1x1
I0403 18:00:15.793540 15789 net.cpp:91] Creating Layer inception_4a/relu_1x1
I0403 18:00:15.793558 15789 net.cpp:425] inception_4a/relu_1x1 <- inception_4a/1x1
I0403 18:00:15.793576 15789 net.cpp:386] inception_4a/relu_1x1 -> inception_4a/1x1 (in-place)
I0403 18:00:15.793748 15789 net.cpp:141] Setting up inception_4a/relu_1x1
I0403 18:00:15.793773 15789 net.cpp:148] Top shape: 24 192 14 14 (903168)
I0403 18:00:15.793788 15789 net.cpp:156] Memory required for data: 861623328
I0403 18:00:15.793803 15789 layer_factory.hpp:77] Creating layer inception_4a/3x3_reduce
I0403 18:00:15.793825 15789 net.cpp:91] Creating Layer inception_4a/3x3_reduce
I0403 18:00:15.793843 15789 net.cpp:425] inception_4a/3x3_reduce <- pool3/3x3_s2_pool3/3x3_s2_0_split_1
I0403 18:00:15.793865 15789 net.cpp:399] inception_4a/3x3_reduce -> inception_4a/3x3_reduce
I0403 18:00:15.795127 15789 net.cpp:141] Setting up inception_4a/3x3_reduce
I0403 18:00:15.795156 15789 net.cpp:148] Top shape: 24 96 14 14 (451584)
I0403 18:00:15.795172 15789 net.cpp:156] Memory required for data: 863429664
I0403 18:00:15.795197 15789 layer_factory.hpp:77] Creating layer inception_4a/relu_3x3_reduce
I0403 18:00:15.795217 15789 net.cpp:91] Creating Layer inception_4a/relu_3x3_reduce
I0403 18:00:15.795233 15789 net.cpp:425] inception_4a/relu_3x3_reduce <- inception_4a/3x3_reduce
I0403 18:00:15.795251 15789 net.cpp:386] inception_4a/relu_3x3_reduce -> inception_4a/3x3_reduce (in-place)
I0403 18:00:15.795426 15789 net.cpp:141] Setting up inception_4a/relu_3x3_reduce
I0403 18:00:15.795451 15789 net.cpp:148] Top shape: 24 96 14 14 (451584)
I0403 18:00:15.795466 15789 net.cpp:156] Memory required for data: 865236000
I0403 18:00:15.795481 15789 layer_factory.hpp:77] Creating layer inception_4a/3x3
I0403 18:00:15.795503 15789 net.cpp:91] Creating Layer inception_4a/3x3
I0403 18:00:15.795521 15789 net.cpp:425] inception_4a/3x3 <- inception_4a/3x3_reduce
I0403 18:00:15.795542 15789 net.cpp:399] inception_4a/3x3 -> inception_4a/3x3
I0403 18:00:15.798198 15789 net.cpp:141] Setting up inception_4a/3x3
I0403 18:00:15.798228 15789 net.cpp:148] Top shape: 24 208 14 14 (978432)
I0403 18:00:15.798244 15789 net.cpp:156] Memory required for data: 869149728
I0403 18:00:15.798264 15789 layer_factory.hpp:77] Creating layer inception_4a/relu_3x3
I0403 18:00:15.798283 15789 net.cpp:91] Creating Layer inception_4a/relu_3x3
I0403 18:00:15.798300 15789 net.cpp:425] inception_4a/relu_3x3 <- inception_4a/3x3
I0403 18:00:15.798317 15789 net.cpp:386] inception_4a/relu_3x3 -> inception_4a/3x3 (in-place)
I0403 18:00:15.798595 15789 net.cpp:141] Setting up inception_4a/relu_3x3
I0403 18:00:15.798622 15789 net.cpp:148] Top shape: 24 208 14 14 (978432)
I0403 18:00:15.798637 15789 net.cpp:156] Memory required for data: 873063456
I0403 18:00:15.798652 15789 layer_factory.hpp:77] Creating layer inception_4a/5x5_reduce
I0403 18:00:15.798674 15789 net.cpp:91] Creating Layer inception_4a/5x5_reduce
I0403 18:00:15.798692 15789 net.cpp:425] inception_4a/5x5_reduce <- pool3/3x3_s2_pool3/3x3_s2_0_split_2
I0403 18:00:15.798713 15789 net.cpp:399] inception_4a/5x5_reduce -> inception_4a/5x5_reduce
I0403 18:00:15.799739 15789 net.cpp:141] Setting up inception_4a/5x5_reduce
I0403 18:00:15.799767 15789 net.cpp:148] Top shape: 24 16 14 14 (75264)
I0403 18:00:15.799783 15789 net.cpp:156] Memory required for data: 873364512
I0403 18:00:15.799801 15789 layer_factory.hpp:77] Creating layer inception_4a/relu_5x5_reduce
I0403 18:00:15.799821 15789 net.cpp:91] Creating Layer inception_4a/relu_5x5_reduce
I0403 18:00:15.799839 15789 net.cpp:425] inception_4a/relu_5x5_reduce <- inception_4a/5x5_reduce
I0403 18:00:15.799855 15789 net.cpp:386] inception_4a/relu_5x5_reduce -> inception_4a/5x5_reduce (in-place)
I0403 18:00:15.800040 15789 net.cpp:141] Setting up inception_4a/relu_5x5_reduce
I0403 18:00:15.800065 15789 net.cpp:148] Top shape: 24 16 14 14 (75264)
I0403 18:00:15.800081 15789 net.cpp:156] Memory required for data: 873665568
I0403 18:00:15.800097 15789 layer_factory.hpp:77] Creating layer inception_4a/5x5
I0403 18:00:15.800119 15789 net.cpp:91] Creating Layer inception_4a/5x5
I0403 18:00:15.800137 15789 net.cpp:425] inception_4a/5x5 <- inception_4a/5x5_reduce
I0403 18:00:15.800155 15789 net.cpp:399] inception_4a/5x5 -> inception_4a/5x5
I0403 18:00:15.801244 15789 net.cpp:141] Setting up inception_4a/5x5
I0403 18:00:15.801273 15789 net.cpp:148] Top shape: 24 48 14 14 (225792)
I0403 18:00:15.801290 15789 net.cpp:156] Memory required for data: 874568736
I0403 18:00:15.801307 15789 layer_factory.hpp:77] Creating layer inception_4a/relu_5x5
I0403 18:00:15.801326 15789 net.cpp:91] Creating Layer inception_4a/relu_5x5
I0403 18:00:15.801342 15789 net.cpp:425] inception_4a/relu_5x5 <- inception_4a/5x5
I0403 18:00:15.801360 15789 net.cpp:386] inception_4a/relu_5x5 -> inception_4a/5x5 (in-place)
I0403 18:00:15.801540 15789 net.cpp:141] Setting up inception_4a/relu_5x5
I0403 18:00:15.801564 15789 net.cpp:148] Top shape: 24 48 14 14 (225792)
I0403 18:00:15.801579 15789 net.cpp:156] Memory required for data: 875471904
I0403 18:00:15.801594 15789 layer_factory.hpp:77] Creating layer inception_4a/pool
I0403 18:00:15.801614 15789 net.cpp:91] Creating Layer inception_4a/pool
I0403 18:00:15.801631 15789 net.cpp:425] inception_4a/pool <- pool3/3x3_s2_pool3/3x3_s2_0_split_3
I0403 18:00:15.801648 15789 net.cpp:399] inception_4a/pool -> inception_4a/pool
I0403 18:00:15.801709 15789 net.cpp:141] Setting up inception_4a/pool
I0403 18:00:15.801733 15789 net.cpp:148] Top shape: 24 480 14 14 (2257920)
I0403 18:00:15.801748 15789 net.cpp:156] Memory required for data: 884503584
I0403 18:00:15.801764 15789 layer_factory.hpp:77] Creating layer inception_4a/pool_proj
I0403 18:00:15.801785 15789 net.cpp:91] Creating Layer inception_4a/pool_proj
I0403 18:00:15.801802 15789 net.cpp:425] inception_4a/pool_proj <- inception_4a/pool
I0403 18:00:15.801822 15789 net.cpp:399] inception_4a/pool_proj -> inception_4a/pool_proj
I0403 18:00:15.802985 15789 net.cpp:141] Setting up inception_4a/pool_proj
I0403 18:00:15.803014 15789 net.cpp:148] Top shape: 24 64 14 14 (301056)
I0403 18:00:15.803045 15789 net.cpp:156] Memory required for data: 885707808
I0403 18:00:15.803064 15789 layer_factory.hpp:77] Creating layer inception_4a/relu_pool_proj
I0403 18:00:15.803082 15789 net.cpp:91] Creating Layer inception_4a/relu_pool_proj
I0403 18:00:15.803098 15789 net.cpp:425] inception_4a/relu_pool_proj <- inception_4a/pool_proj
I0403 18:00:15.803118 15789 net.cpp:386] inception_4a/relu_pool_proj -> inception_4a/pool_proj (in-place)
I0403 18:00:15.803406 15789 net.cpp:141] Setting up inception_4a/relu_pool_proj
I0403 18:00:15.803432 15789 net.cpp:148] Top shape: 24 64 14 14 (301056)
I0403 18:00:15.803448 15789 net.cpp:156] Memory required for data: 886912032
I0403 18:00:15.803463 15789 layer_factory.hpp:77] Creating layer inception_4a/output
I0403 18:00:15.803480 15789 net.cpp:91] Creating Layer inception_4a/output
I0403 18:00:15.803496 15789 net.cpp:425] inception_4a/output <- inception_4a/1x1
I0403 18:00:15.803514 15789 net.cpp:425] inception_4a/output <- inception_4a/3x3
I0403 18:00:15.803529 15789 net.cpp:425] inception_4a/output <- inception_4a/5x5
I0403 18:00:15.803544 15789 net.cpp:425] inception_4a/output <- inception_4a/pool_proj
I0403 18:00:15.803563 15789 net.cpp:399] inception_4a/output -> inception_4a/output
I0403 18:00:15.803608 15789 net.cpp:141] Setting up inception_4a/output
I0403 18:00:15.803633 15789 net.cpp:148] Top shape: 24 512 14 14 (2408448)
I0403 18:00:15.803649 15789 net.cpp:156] Memory required for data: 896545824
I0403 18:00:15.803663 15789 layer_factory.hpp:77] Creating layer inception_4a/output_inception_4a/output_0_split
I0403 18:00:15.803680 15789 net.cpp:91] Creating Layer inception_4a/output_inception_4a/output_0_split
I0403 18:00:15.803696 15789 net.cpp:425] inception_4a/output_inception_4a/output_0_split <- inception_4a/output
I0403 18:00:15.803714 15789 net.cpp:399] inception_4a/output_inception_4a/output_0_split -> inception_4a/output_inception_4a/output_0_split_0
I0403 18:00:15.803736 15789 net.cpp:399] inception_4a/output_inception_4a/output_0_split -> inception_4a/output_inception_4a/output_0_split_1
I0403 18:00:15.803760 15789 net.cpp:399] inception_4a/output_inception_4a/output_0_split -> inception_4a/output_inception_4a/output_0_split_2
I0403 18:00:15.803779 15789 net.cpp:399] inception_4a/output_inception_4a/output_0_split -> inception_4a/output_inception_4a/output_0_split_3
I0403 18:00:15.803798 15789 net.cpp:399] inception_4a/output_inception_4a/output_0_split -> inception_4a/output_inception_4a/output_0_split_4
I0403 18:00:15.803889 15789 net.cpp:141] Setting up inception_4a/output_inception_4a/output_0_split
I0403 18:00:15.803912 15789 net.cpp:148] Top shape: 24 512 14 14 (2408448)
I0403 18:00:15.803928 15789 net.cpp:148] Top shape: 24 512 14 14 (2408448)
I0403 18:00:15.803951 15789 net.cpp:148] Top shape: 24 512 14 14 (2408448)
I0403 18:00:15.803968 15789 net.cpp:148] Top shape: 24 512 14 14 (2408448)
I0403 18:00:15.803984 15789 net.cpp:148] Top shape: 24 512 14 14 (2408448)
I0403 18:00:15.803999 15789 net.cpp:156] Memory required for data: 944714784
I0403 18:00:15.804014 15789 layer_factory.hpp:77] Creating layer loss1/ave_pool
I0403 18:00:15.804033 15789 net.cpp:91] Creating Layer loss1/ave_pool
I0403 18:00:15.804047 15789 net.cpp:425] loss1/ave_pool <- inception_4a/output_inception_4a/output_0_split_0
I0403 18:00:15.804065 15789 net.cpp:399] loss1/ave_pool -> loss1/ave_pool
I0403 18:00:15.804275 15789 net.cpp:141] Setting up loss1/ave_pool
I0403 18:00:15.804299 15789 net.cpp:148] Top shape: 24 512 4 4 (196608)
I0403 18:00:15.804316 15789 net.cpp:156] Memory required for data: 945501216
I0403 18:00:15.804330 15789 layer_factory.hpp:77] Creating layer loss1/conv
I0403 18:00:15.804353 15789 net.cpp:91] Creating Layer loss1/conv
I0403 18:00:15.804370 15789 net.cpp:425] loss1/conv <- loss1/ave_pool
I0403 18:00:15.804391 15789 net.cpp:399] loss1/conv -> loss1/conv
I0403 18:00:15.805780 15789 net.cpp:141] Setting up loss1/conv
I0403 18:00:15.805809 15789 net.cpp:148] Top shape: 24 128 4 4 (49152)
I0403 18:00:15.805838 15789 net.cpp:156] Memory required for data: 945697824
I0403 18:00:15.805858 15789 layer_factory.hpp:77] Creating layer loss1/relu_conv
I0403 18:00:15.805879 15789 net.cpp:91] Creating Layer loss1/relu_conv
I0403 18:00:15.805896 15789 net.cpp:425] loss1/relu_conv <- loss1/conv
I0403 18:00:15.805913 15789 net.cpp:386] loss1/relu_conv -> loss1/conv (in-place)
I0403 18:00:15.806198 15789 net.cpp:141] Setting up loss1/relu_conv
I0403 18:00:15.806224 15789 net.cpp:148] Top shape: 24 128 4 4 (49152)
I0403 18:00:15.806241 15789 net.cpp:156] Memory required for data: 945894432
I0403 18:00:15.806255 15789 layer_factory.hpp:77] Creating layer loss1/fc
I0403 18:00:15.806282 15789 net.cpp:91] Creating Layer loss1/fc
I0403 18:00:15.806299 15789 net.cpp:425] loss1/fc <- loss1/conv
I0403 18:00:15.806318 15789 net.cpp:399] loss1/fc -> loss1/fc
I0403 18:00:15.823637 15789 net.cpp:141] Setting up loss1/fc
I0403 18:00:15.823704 15789 net.cpp:148] Top shape: 24 1024 (24576)
I0403 18:00:15.823719 15789 net.cpp:156] Memory required for data: 945992736
I0403 18:00:15.823739 15789 layer_factory.hpp:77] Creating layer loss1/relu_fc
I0403 18:00:15.823758 15789 net.cpp:91] Creating Layer loss1/relu_fc
I0403 18:00:15.823776 15789 net.cpp:425] loss1/relu_fc <- loss1/fc
I0403 18:00:15.823796 15789 net.cpp:386] loss1/relu_fc -> loss1/fc (in-place)
I0403 18:00:15.824009 15789 net.cpp:141] Setting up loss1/relu_fc
I0403 18:00:15.824033 15789 net.cpp:148] Top shape: 24 1024 (24576)
I0403 18:00:15.824048 15789 net.cpp:156] Memory required for data: 946091040
I0403 18:00:15.824064 15789 layer_factory.hpp:77] Creating layer loss1/drop_fc
I0403 18:00:15.824092 15789 net.cpp:91] Creating Layer loss1/drop_fc
I0403 18:00:15.824110 15789 net.cpp:425] loss1/drop_fc <- loss1/fc
I0403 18:00:15.824126 15789 net.cpp:386] loss1/drop_fc -> loss1/fc (in-place)
I0403 18:00:15.824177 15789 net.cpp:141] Setting up loss1/drop_fc
I0403 18:00:15.824204 15789 net.cpp:148] Top shape: 24 1024 (24576)
I0403 18:00:15.824219 15789 net.cpp:156] Memory required for data: 946189344
I0403 18:00:15.824234 15789 layer_factory.hpp:77] Creating layer loss1/classifier_plantvillage
I0403 18:00:15.824254 15789 net.cpp:91] Creating Layer loss1/classifier_plantvillage
I0403 18:00:15.824270 15789 net.cpp:425] loss1/classifier_plantvillage <- loss1/fc
I0403 18:00:15.824290 15789 net.cpp:399] loss1/classifier_plantvillage -> loss1/classifier_plantvillage
I0403 18:00:15.825193 15789 net.cpp:141] Setting up loss1/classifier_plantvillage
I0403 18:00:15.825219 15789 net.cpp:148] Top shape: 24 38 (912)
I0403 18:00:15.825234 15789 net.cpp:156] Memory required for data: 946192992
I0403 18:00:15.825253 15789 layer_factory.hpp:77] Creating layer loss1/classifier_plantvillage_loss1/classifier_plantvillage_0_split
I0403 18:00:15.825273 15789 net.cpp:91] Creating Layer loss1/classifier_plantvillage_loss1/classifier_plantvillage_0_split
I0403 18:00:15.825289 15789 net.cpp:425] loss1/classifier_plantvillage_loss1/classifier_plantvillage_0_split <- loss1/classifier_plantvillage
I0403 18:00:15.825305 15789 net.cpp:399] loss1/classifier_plantvillage_loss1/classifier_plantvillage_0_split -> loss1/classifier_plantvillage_loss1/classifier_plantvillage_0_split_0
I0403 18:00:15.825325 15789 net.cpp:399] loss1/classifier_plantvillage_loss1/classifier_plantvillage_0_split -> loss1/classifier_plantvillage_loss1/classifier_plantvillage_0_split_1
I0403 18:00:15.825345 15789 net.cpp:399] loss1/classifier_plantvillage_loss1/classifier_plantvillage_0_split -> loss1/classifier_plantvillage_loss1/classifier_plantvillage_0_split_2
I0403 18:00:15.825409 15789 net.cpp:141] Setting up loss1/classifier_plantvillage_loss1/classifier_plantvillage_0_split
I0403 18:00:15.825434 15789 net.cpp:148] Top shape: 24 38 (912)
I0403 18:00:15.825450 15789 net.cpp:148] Top shape: 24 38 (912)
I0403 18:00:15.825465 15789 net.cpp:148] Top shape: 24 38 (912)
I0403 18:00:15.825479 15789 net.cpp:156] Memory required for data: 946203936
I0403 18:00:15.825494 15789 layer_factory.hpp:77] Creating layer inception_4b/1x1
I0403 18:00:15.825515 15789 net.cpp:91] Creating Layer inception_4b/1x1
I0403 18:00:15.825548 15789 net.cpp:425] inception_4b/1x1 <- inception_4a/output_inception_4a/output_0_split_1
I0403 18:00:15.825570 15789 net.cpp:399] inception_4b/1x1 -> inception_4b/1x1
I0403 18:00:15.827201 15789 net.cpp:141] Setting up inception_4b/1x1
I0403 18:00:15.827229 15789 net.cpp:148] Top shape: 24 160 14 14 (752640)
I0403 18:00:15.827244 15789 net.cpp:156] Memory required for data: 949214496
I0403 18:00:15.827262 15789 layer_factory.hpp:77] Creating layer inception_4b/relu_1x1
I0403 18:00:15.827282 15789 net.cpp:91] Creating Layer inception_4b/relu_1x1
I0403 18:00:15.827298 15789 net.cpp:425] inception_4b/relu_1x1 <- inception_4b/1x1
I0403 18:00:15.827316 15789 net.cpp:386] inception_4b/relu_1x1 -> inception_4b/1x1 (in-place)
I0403 18:00:15.827488 15789 net.cpp:141] Setting up inception_4b/relu_1x1
I0403 18:00:15.827517 15789 net.cpp:148] Top shape: 24 160 14 14 (752640)
I0403 18:00:15.827533 15789 net.cpp:156] Memory required for data: 952225056
I0403 18:00:15.827548 15789 layer_factory.hpp:77] Creating layer inception_4b/3x3_reduce
I0403 18:00:15.827569 15789 net.cpp:91] Creating Layer inception_4b/3x3_reduce
I0403 18:00:15.827585 15789 net.cpp:425] inception_4b/3x3_reduce <- inception_4a/output_inception_4a/output_0_split_2
I0403 18:00:15.827603 15789 net.cpp:399] inception_4b/3x3_reduce -> inception_4b/3x3_reduce
I0403 18:00:15.828910 15789 net.cpp:141] Setting up inception_4b/3x3_reduce
I0403 18:00:15.828940 15789 net.cpp:148] Top shape: 24 112 14 14 (526848)
I0403 18:00:15.828966 15789 net.cpp:156] Memory required for data: 954332448
I0403 18:00:15.828986 15789 layer_factory.hpp:77] Creating layer inception_4b/relu_3x3_reduce
I0403 18:00:15.829005 15789 net.cpp:91] Creating Layer inception_4b/relu_3x3_reduce
I0403 18:00:15.829020 15789 net.cpp:425] inception_4b/relu_3x3_reduce <- inception_4b/3x3_reduce
I0403 18:00:15.829038 15789 net.cpp:386] inception_4b/relu_3x3_reduce -> inception_4b/3x3_reduce (in-place)
I0403 18:00:15.829313 15789 net.cpp:141] Setting up inception_4b/relu_3x3_reduce
I0403 18:00:15.829339 15789 net.cpp:148] Top shape: 24 112 14 14 (526848)
I0403 18:00:15.829355 15789 net.cpp:156] Memory required for data: 956439840
I0403 18:00:15.829370 15789 layer_factory.hpp:77] Creating layer inception_4b/3x3
I0403 18:00:15.829391 15789 net.cpp:91] Creating Layer inception_4b/3x3
I0403 18:00:15.829407 15789 net.cpp:425] inception_4b/3x3 <- inception_4b/3x3_reduce
I0403 18:00:15.829426 15789 net.cpp:399] inception_4b/3x3 -> inception_4b/3x3
I0403 18:00:15.832340 15789 net.cpp:141] Setting up inception_4b/3x3
I0403 18:00:15.832368 15789 net.cpp:148] Top shape: 24 224 14 14 (1053696)
I0403 18:00:15.832384 15789 net.cpp:156] Memory required for data: 960654624
I0403 18:00:15.832402 15789 layer_factory.hpp:77] Creating layer inception_4b/relu_3x3
I0403 18:00:15.832422 15789 net.cpp:91] Creating Layer inception_4b/relu_3x3
I0403 18:00:15.832438 15789 net.cpp:425] inception_4b/relu_3x3 <- inception_4b/3x3
I0403 18:00:15.832455 15789 net.cpp:386] inception_4b/relu_3x3 -> inception_4b/3x3 (in-place)
I0403 18:00:15.832633 15789 net.cpp:141] Setting up inception_4b/relu_3x3
I0403 18:00:15.832658 15789 net.cpp:148] Top shape: 24 224 14 14 (1053696)
I0403 18:00:15.832672 15789 net.cpp:156] Memory required for data: 964869408
I0403 18:00:15.832686 15789 layer_factory.hpp:77] Creating layer inception_4b/5x5_reduce
I0403 18:00:15.832707 15789 net.cpp:91] Creating Layer inception_4b/5x5_reduce
I0403 18:00:15.832727 15789 net.cpp:425] inception_4b/5x5_reduce <- inception_4a/output_inception_4a/output_0_split_3
I0403 18:00:15.832746 15789 net.cpp:399] inception_4b/5x5_reduce -> inception_4b/5x5_reduce
I0403 18:00:15.833803 15789 net.cpp:141] Setting up inception_4b/5x5_reduce
I0403 18:00:15.833830 15789 net.cpp:148] Top shape: 24 24 14 14 (112896)
I0403 18:00:15.833845 15789 net.cpp:156] Memory required for data: 965320992
I0403 18:00:15.833863 15789 layer_factory.hpp:77] Creating layer inception_4b/relu_5x5_reduce
I0403 18:00:15.833884 15789 net.cpp:91] Creating Layer inception_4b/relu_5x5_reduce
I0403 18:00:15.833912 15789 net.cpp:425] inception_4b/relu_5x5_reduce <- inception_4b/5x5_reduce
I0403 18:00:15.833930 15789 net.cpp:386] inception_4b/relu_5x5_reduce -> inception_4b/5x5_reduce (in-place)
I0403 18:00:15.834111 15789 net.cpp:141] Setting up inception_4b/relu_5x5_reduce
I0403 18:00:15.834136 15789 net.cpp:148] Top shape: 24 24 14 14 (112896)
I0403 18:00:15.834151 15789 net.cpp:156] Memory required for data: 965772576
I0403 18:00:15.834166 15789 layer_factory.hpp:77] Creating layer inception_4b/5x5
I0403 18:00:15.834187 15789 net.cpp:91] Creating Layer inception_4b/5x5
I0403 18:00:15.834203 15789 net.cpp:425] inception_4b/5x5 <- inception_4b/5x5_reduce
I0403 18:00:15.834224 15789 net.cpp:399] inception_4b/5x5 -> inception_4b/5x5
I0403 18:00:15.835414 15789 net.cpp:141] Setting up inception_4b/5x5
I0403 18:00:15.835441 15789 net.cpp:148] Top shape: 24 64 14 14 (301056)
I0403 18:00:15.835456 15789 net.cpp:156] Memory required for data: 966976800
I0403 18:00:15.835491 15789 layer_factory.hpp:77] Creating layer inception_4b/relu_5x5
I0403 18:00:15.835512 15789 net.cpp:91] Creating Layer inception_4b/relu_5x5
I0403 18:00:15.835530 15789 net.cpp:425] inception_4b/relu_5x5 <- inception_4b/5x5
I0403 18:00:15.835546 15789 net.cpp:386] inception_4b/relu_5x5 -> inception_4b/5x5 (in-place)
I0403 18:00:15.835844 15789 net.cpp:141] Setting up inception_4b/relu_5x5
I0403 18:00:15.835870 15789 net.cpp:148] Top shape: 24 64 14 14 (301056)
I0403 18:00:15.835886 15789 net.cpp:156] Memory required for data: 968181024
I0403 18:00:15.835899 15789 layer_factory.hpp:77] Creating layer inception_4b/pool
I0403 18:00:15.835919 15789 net.cpp:91] Creating Layer inception_4b/pool
I0403 18:00:15.835937 15789 net.cpp:425] inception_4b/pool <- inception_4a/output_inception_4a/output_0_split_4
I0403 18:00:15.835958 15789 net.cpp:399] inception_4b/pool -> inception_4b/pool
I0403 18:00:15.836025 15789 net.cpp:141] Setting up inception_4b/pool
I0403 18:00:15.836048 15789 net.cpp:148] Top shape: 24 512 14 14 (2408448)
I0403 18:00:15.836063 15789 net.cpp:156] Memory required for data: 977814816
I0403 18:00:15.836077 15789 layer_factory.hpp:77] Creating layer inception_4b/pool_proj
I0403 18:00:15.836099 15789 net.cpp:91] Creating Layer inception_4b/pool_proj
I0403 18:00:15.836115 15789 net.cpp:425] inception_4b/pool_proj <- inception_4b/pool
I0403 18:00:15.836135 15789 net.cpp:399] inception_4b/pool_proj -> inception_4b/pool_proj
I0403 18:00:15.837303 15789 net.cpp:141] Setting up inception_4b/pool_proj
I0403 18:00:15.837333 15789 net.cpp:148] Top shape: 24 64 14 14 (301056)
I0403 18:00:15.837348 15789 net.cpp:156] Memory required for data: 979019040
I0403 18:00:15.837368 15789 layer_factory.hpp:77] Creating layer inception_4b/relu_pool_proj
I0403 18:00:15.837384 15789 net.cpp:91] Creating Layer inception_4b/relu_pool_proj
I0403 18:00:15.837399 15789 net.cpp:425] inception_4b/relu_pool_proj <- inception_4b/pool_proj
I0403 18:00:15.837415 15789 net.cpp:386] inception_4b/relu_pool_proj -> inception_4b/pool_proj (in-place)
I0403 18:00:15.837599 15789 net.cpp:141] Setting up inception_4b/relu_pool_proj
I0403 18:00:15.837625 15789 net.cpp:148] Top shape: 24 64 14 14 (301056)
I0403 18:00:15.837640 15789 net.cpp:156] Memory required for data: 980223264
I0403 18:00:15.837654 15789 layer_factory.hpp:77] Creating layer inception_4b/output
I0403 18:00:15.837672 15789 net.cpp:91] Creating Layer inception_4b/output
I0403 18:00:15.837687 15789 net.cpp:425] inception_4b/output <- inception_4b/1x1
I0403 18:00:15.837703 15789 net.cpp:425] inception_4b/output <- inception_4b/3x3
I0403 18:00:15.837719 15789 net.cpp:425] inception_4b/output <- inception_4b/5x5
I0403 18:00:15.837734 15789 net.cpp:425] inception_4b/output <- inception_4b/pool_proj
I0403 18:00:15.837754 15789 net.cpp:399] inception_4b/output -> inception_4b/output
I0403 18:00:15.837797 15789 net.cpp:141] Setting up inception_4b/output
I0403 18:00:15.837821 15789 net.cpp:148] Top shape: 24 512 14 14 (2408448)
I0403 18:00:15.837834 15789 net.cpp:156] Memory required for data: 989857056
I0403 18:00:15.837862 15789 layer_factory.hpp:77] Creating layer inception_4b/output_inception_4b/output_0_split
I0403 18:00:15.837882 15789 net.cpp:91] Creating Layer inception_4b/output_inception_4b/output_0_split
I0403 18:00:15.837898 15789 net.cpp:425] inception_4b/output_inception_4b/output_0_split <- inception_4b/output
I0403 18:00:15.837913 15789 net.cpp:399] inception_4b/output_inception_4b/output_0_split -> inception_4b/output_inception_4b/output_0_split_0
I0403 18:00:15.837934 15789 net.cpp:399] inception_4b/output_inception_4b/output_0_split -> inception_4b/output_inception_4b/output_0_split_1
I0403 18:00:15.837960 15789 net.cpp:399] inception_4b/output_inception_4b/output_0_split -> inception_4b/output_inception_4b/output_0_split_2
I0403 18:00:15.837980 15789 net.cpp:399] inception_4b/output_inception_4b/output_0_split -> inception_4b/output_inception_4b/output_0_split_3
I0403 18:00:15.838060 15789 net.cpp:141] Setting up inception_4b/output_inception_4b/output_0_split
I0403 18:00:15.838083 15789 net.cpp:148] Top shape: 24 512 14 14 (2408448)
I0403 18:00:15.838099 15789 net.cpp:148] Top shape: 24 512 14 14 (2408448)
I0403 18:00:15.838114 15789 net.cpp:148] Top shape: 24 512 14 14 (2408448)
I0403 18:00:15.838129 15789 net.cpp:148] Top shape: 24 512 14 14 (2408448)
I0403 18:00:15.838141 15789 net.cpp:156] Memory required for data: 1028392224
I0403 18:00:15.838156 15789 layer_factory.hpp:77] Creating layer inception_4c/1x1
I0403 18:00:15.838178 15789 net.cpp:91] Creating Layer inception_4c/1x1
I0403 18:00:15.838196 15789 net.cpp:425] inception_4c/1x1 <- inception_4b/output_inception_4b/output_0_split_0
I0403 18:00:15.838215 15789 net.cpp:399] inception_4c/1x1 -> inception_4c/1x1
I0403 18:00:15.839655 15789 net.cpp:141] Setting up inception_4c/1x1
I0403 18:00:15.839684 15789 net.cpp:148] Top shape: 24 128 14 14 (602112)
I0403 18:00:15.839699 15789 net.cpp:156] Memory required for data: 1030800672
I0403 18:00:15.839716 15789 layer_factory.hpp:77] Creating layer inception_4c/relu_1x1
I0403 18:00:15.839733 15789 net.cpp:91] Creating Layer inception_4c/relu_1x1
I0403 18:00:15.839748 15789 net.cpp:425] inception_4c/relu_1x1 <- inception_4c/1x1
I0403 18:00:15.839768 15789 net.cpp:386] inception_4c/relu_1x1 -> inception_4c/1x1 (in-place)
I0403 18:00:15.839946 15789 net.cpp:141] Setting up inception_4c/relu_1x1
I0403 18:00:15.839972 15789 net.cpp:148] Top shape: 24 128 14 14 (602112)
I0403 18:00:15.839987 15789 net.cpp:156] Memory required for data: 1033209120
I0403 18:00:15.840003 15789 layer_factory.hpp:77] Creating layer inception_4c/3x3_reduce
I0403 18:00:15.840024 15789 net.cpp:91] Creating Layer inception_4c/3x3_reduce
I0403 18:00:15.840041 15789 net.cpp:425] inception_4c/3x3_reduce <- inception_4b/output_inception_4b/output_0_split_1
I0403 18:00:15.840062 15789 net.cpp:399] inception_4c/3x3_reduce -> inception_4c/3x3_reduce
I0403 18:00:15.841994 15789 net.cpp:141] Setting up inception_4c/3x3_reduce
I0403 18:00:15.842022 15789 net.cpp:148] Top shape: 24 128 14 14 (602112)
I0403 18:00:15.842038 15789 net.cpp:156] Memory required for data: 1035617568
I0403 18:00:15.842057 15789 layer_factory.hpp:77] Creating layer inception_4c/relu_3x3_reduce
I0403 18:00:15.842077 15789 net.cpp:91] Creating Layer inception_4c/relu_3x3_reduce
I0403 18:00:15.842094 15789 net.cpp:425] inception_4c/relu_3x3_reduce <- inception_4c/3x3_reduce
I0403 18:00:15.842111 15789 net.cpp:386] inception_4c/relu_3x3_reduce -> inception_4c/3x3_reduce (in-place)
I0403 18:00:15.842401 15789 net.cpp:141] Setting up inception_4c/relu_3x3_reduce
I0403 18:00:15.842427 15789 net.cpp:148] Top shape: 24 128 14 14 (602112)
I0403 18:00:15.842443 15789 net.cpp:156] Memory required for data: 1038026016
I0403 18:00:15.842458 15789 layer_factory.hpp:77] Creating layer inception_4c/3x3
I0403 18:00:15.842481 15789 net.cpp:91] Creating Layer inception_4c/3x3
I0403 18:00:15.842499 15789 net.cpp:425] inception_4c/3x3 <- inception_4c/3x3_reduce
I0403 18:00:15.842520 15789 net.cpp:399] inception_4c/3x3 -> inception_4c/3x3
I0403 18:00:15.846134 15789 net.cpp:141] Setting up inception_4c/3x3
I0403 18:00:15.846179 15789 net.cpp:148] Top shape: 24 256 14 14 (1204224)
I0403 18:00:15.846195 15789 net.cpp:156] Memory required for data: 1042842912
I0403 18:00:15.846227 15789 layer_factory.hpp:77] Creating layer inception_4c/relu_3x3
I0403 18:00:15.846248 15789 net.cpp:91] Creating Layer inception_4c/relu_3x3
I0403 18:00:15.846264 15789 net.cpp:425] inception_4c/relu_3x3 <- inception_4c/3x3
I0403 18:00:15.846282 15789 net.cpp:386] inception_4c/relu_3x3 -> inception_4c/3x3 (in-place)
I0403 18:00:15.846465 15789 net.cpp:141] Setting up inception_4c/relu_3x3
I0403 18:00:15.846489 15789 net.cpp:148] Top shape: 24 256 14 14 (1204224)
I0403 18:00:15.846504 15789 net.cpp:156] Memory required for data: 1047659808
I0403 18:00:15.846519 15789 layer_factory.hpp:77] Creating layer inception_4c/5x5_reduce
I0403 18:00:15.846545 15789 net.cpp:91] Creating Layer inception_4c/5x5_reduce
I0403 18:00:15.846563 15789 net.cpp:425] inception_4c/5x5_reduce <- inception_4b/output_inception_4b/output_0_split_2
I0403 18:00:15.846582 15789 net.cpp:399] inception_4c/5x5_reduce -> inception_4c/5x5_reduce
I0403 18:00:15.847690 15789 net.cpp:141] Setting up inception_4c/5x5_reduce
I0403 18:00:15.847718 15789 net.cpp:148] Top shape: 24 24 14 14 (112896)
I0403 18:00:15.847734 15789 net.cpp:156] Memory required for data: 1048111392
I0403 18:00:15.847754 15789 layer_factory.hpp:77] Creating layer inception_4c/relu_5x5_reduce
I0403 18:00:15.847774 15789 net.cpp:91] Creating Layer inception_4c/relu_5x5_reduce
I0403 18:00:15.847790 15789 net.cpp:425] inception_4c/relu_5x5_reduce <- inception_4c/5x5_reduce
I0403 18:00:15.847808 15789 net.cpp:386] inception_4c/relu_5x5_reduce -> inception_4c/5x5_reduce (in-place)
I0403 18:00:15.847998 15789 net.cpp:141] Setting up inception_4c/relu_5x5_reduce
I0403 18:00:15.848022 15789 net.cpp:148] Top shape: 24 24 14 14 (112896)
I0403 18:00:15.848038 15789 net.cpp:156] Memory required for data: 1048562976
I0403 18:00:15.848052 15789 layer_factory.hpp:77] Creating layer inception_4c/5x5
I0403 18:00:15.848074 15789 net.cpp:91] Creating Layer inception_4c/5x5
I0403 18:00:15.848093 15789 net.cpp:425] inception_4c/5x5 <- inception_4c/5x5_reduce
I0403 18:00:15.848114 15789 net.cpp:399] inception_4c/5x5 -> inception_4c/5x5
I0403 18:00:15.849362 15789 net.cpp:141] Setting up inception_4c/5x5
I0403 18:00:15.849392 15789 net.cpp:148] Top shape: 24 64 14 14 (301056)
I0403 18:00:15.849408 15789 net.cpp:156] Memory required for data: 1049767200
I0403 18:00:15.849427 15789 layer_factory.hpp:77] Creating layer inception_4c/relu_5x5
I0403 18:00:15.849445 15789 net.cpp:91] Creating Layer inception_4c/relu_5x5
I0403 18:00:15.849462 15789 net.cpp:425] inception_4c/relu_5x5 <- inception_4c/5x5
I0403 18:00:15.849481 15789 net.cpp:386] inception_4c/relu_5x5 -> inception_4c/5x5 (in-place)
I0403 18:00:15.849767 15789 net.cpp:141] Setting up inception_4c/relu_5x5
I0403 18:00:15.849797 15789 net.cpp:148] Top shape: 24 64 14 14 (301056)
I0403 18:00:15.849812 15789 net.cpp:156] Memory required for data: 1050971424
I0403 18:00:15.849828 15789 layer_factory.hpp:77] Creating layer inception_4c/pool
I0403 18:00:15.849845 15789 net.cpp:91] Creating Layer inception_4c/pool
I0403 18:00:15.849861 15789 net.cpp:425] inception_4c/pool <- inception_4b/output_inception_4b/output_0_split_3
I0403 18:00:15.849881 15789 net.cpp:399] inception_4c/pool -> inception_4c/pool
I0403 18:00:15.849949 15789 net.cpp:141] Setting up inception_4c/pool
I0403 18:00:15.849978 15789 net.cpp:148] Top shape: 24 512 14 14 (2408448)
I0403 18:00:15.849994 15789 net.cpp:156] Memory required for data: 1060605216
I0403 18:00:15.850009 15789 layer_factory.hpp:77] Creating layer inception_4c/pool_proj
I0403 18:00:15.850031 15789 net.cpp:91] Creating Layer inception_4c/pool_proj
I0403 18:00:15.850049 15789 net.cpp:425] inception_4c/pool_proj <- inception_4c/pool
I0403 18:00:15.850069 15789 net.cpp:399] inception_4c/pool_proj -> inception_4c/pool_proj
I0403 18:00:15.851285 15789 net.cpp:141] Setting up inception_4c/pool_proj
I0403 18:00:15.851317 15789 net.cpp:148] Top shape: 24 64 14 14 (301056)
I0403 18:00:15.851346 15789 net.cpp:156] Memory required for data: 1061809440
I0403 18:00:15.851366 15789 layer_factory.hpp:77] Creating layer inception_4c/relu_pool_proj
I0403 18:00:15.851384 15789 net.cpp:91] Creating Layer inception_4c/relu_pool_proj
I0403 18:00:15.851400 15789 net.cpp:425] inception_4c/relu_pool_proj <- inception_4c/pool_proj
I0403 18:00:15.851418 15789 net.cpp:386] inception_4c/relu_pool_proj -> inception_4c/pool_proj (in-place)
I0403 18:00:15.851603 15789 net.cpp:141] Setting up inception_4c/relu_pool_proj
I0403 18:00:15.851630 15789 net.cpp:148] Top shape: 24 64 14 14 (301056)
I0403 18:00:15.851645 15789 net.cpp:156] Memory required for data: 1063013664
I0403 18:00:15.851660 15789 layer_factory.hpp:77] Creating layer inception_4c/output
I0403 18:00:15.851678 15789 net.cpp:91] Creating Layer inception_4c/output
I0403 18:00:15.851693 15789 net.cpp:425] inception_4c/output <- inception_4c/1x1
I0403 18:00:15.851711 15789 net.cpp:425] inception_4c/output <- inception_4c/3x3
I0403 18:00:15.851727 15789 net.cpp:425] inception_4c/output <- inception_4c/5x5
I0403 18:00:15.851742 15789 net.cpp:425] inception_4c/output <- inception_4c/pool_proj
I0403 18:00:15.851761 15789 net.cpp:399] inception_4c/output -> inception_4c/output
I0403 18:00:15.851807 15789 net.cpp:141] Setting up inception_4c/output
I0403 18:00:15.851830 15789 net.cpp:148] Top shape: 24 512 14 14 (2408448)
I0403 18:00:15.851845 15789 net.cpp:156] Memory required for data: 1072647456
I0403 18:00:15.851861 15789 layer_factory.hpp:77] Creating layer inception_4c/output_inception_4c/output_0_split
I0403 18:00:15.851881 15789 net.cpp:91] Creating Layer inception_4c/output_inception_4c/output_0_split
I0403 18:00:15.851897 15789 net.cpp:425] inception_4c/output_inception_4c/output_0_split <- inception_4c/output
I0403 18:00:15.851913 15789 net.cpp:399] inception_4c/output_inception_4c/output_0_split -> inception_4c/output_inception_4c/output_0_split_0
I0403 18:00:15.851933 15789 net.cpp:399] inception_4c/output_inception_4c/output_0_split -> inception_4c/output_inception_4c/output_0_split_1
I0403 18:00:15.851960 15789 net.cpp:399] inception_4c/output_inception_4c/output_0_split -> inception_4c/output_inception_4c/output_0_split_2
I0403 18:00:15.851981 15789 net.cpp:399] inception_4c/output_inception_4c/output_0_split -> inception_4c/output_inception_4c/output_0_split_3
I0403 18:00:15.852067 15789 net.cpp:141] Setting up inception_4c/output_inception_4c/output_0_split
I0403 18:00:15.852090 15789 net.cpp:148] Top shape: 24 512 14 14 (2408448)
I0403 18:00:15.852107 15789 net.cpp:148] Top shape: 24 512 14 14 (2408448)
I0403 18:00:15.852123 15789 net.cpp:148] Top shape: 24 512 14 14 (2408448)
I0403 18:00:15.852138 15789 net.cpp:148] Top shape: 24 512 14 14 (2408448)
I0403 18:00:15.852151 15789 net.cpp:156] Memory required for data: 1111182624
I0403 18:00:15.852166 15789 layer_factory.hpp:77] Creating layer inception_4d/1x1
I0403 18:00:15.852188 15789 net.cpp:91] Creating Layer inception_4d/1x1
I0403 18:00:15.852206 15789 net.cpp:425] inception_4d/1x1 <- inception_4c/output_inception_4c/output_0_split_0
I0403 18:00:15.852227 15789 net.cpp:399] inception_4d/1x1 -> inception_4d/1x1
I0403 18:00:15.853610 15789 net.cpp:141] Setting up inception_4d/1x1
I0403 18:00:15.853637 15789 net.cpp:148] Top shape: 24 112 14 14 (526848)
I0403 18:00:15.853653 15789 net.cpp:156] Memory required for data: 1113290016
I0403 18:00:15.853672 15789 layer_factory.hpp:77] Creating layer inception_4d/relu_1x1
I0403 18:00:15.853693 15789 net.cpp:91] Creating Layer inception_4d/relu_1x1
I0403 18:00:15.853710 15789 net.cpp:425] inception_4d/relu_1x1 <- inception_4d/1x1
I0403 18:00:15.853727 15789 net.cpp:386] inception_4d/relu_1x1 -> inception_4d/1x1 (in-place)
I0403 18:00:15.853911 15789 net.cpp:141] Setting up inception_4d/relu_1x1
I0403 18:00:15.853936 15789 net.cpp:148] Top shape: 24 112 14 14 (526848)
I0403 18:00:15.853955 15789 net.cpp:156] Memory required for data: 1115397408
I0403 18:00:15.853971 15789 layer_factory.hpp:77] Creating layer inception_4d/3x3_reduce
I0403 18:00:15.854012 15789 net.cpp:91] Creating Layer inception_4d/3x3_reduce
I0403 18:00:15.854032 15789 net.cpp:425] inception_4d/3x3_reduce <- inception_4c/output_inception_4c/output_0_split_1
I0403 18:00:15.854050 15789 net.cpp:399] inception_4d/3x3_reduce -> inception_4d/3x3_reduce
I0403 18:00:15.855564 15789 net.cpp:141] Setting up inception_4d/3x3_reduce
I0403 18:00:15.855592 15789 net.cpp:148] Top shape: 24 144 14 14 (677376)
I0403 18:00:15.855607 15789 net.cpp:156] Memory required for data: 1118106912
I0403 18:00:15.855626 15789 layer_factory.hpp:77] Creating layer inception_4d/relu_3x3_reduce
I0403 18:00:15.855644 15789 net.cpp:91] Creating Layer inception_4d/relu_3x3_reduce
I0403 18:00:15.855660 15789 net.cpp:425] inception_4d/relu_3x3_reduce <- inception_4d/3x3_reduce
I0403 18:00:15.855680 15789 net.cpp:386] inception_4d/relu_3x3_reduce -> inception_4d/3x3_reduce (in-place)
I0403 18:00:15.855974 15789 net.cpp:141] Setting up inception_4d/relu_3x3_reduce
I0403 18:00:15.856000 15789 net.cpp:148] Top shape: 24 144 14 14 (677376)
I0403 18:00:15.856015 15789 net.cpp:156] Memory required for data: 1120816416
I0403 18:00:15.856030 15789 layer_factory.hpp:77] Creating layer inception_4d/3x3
I0403 18:00:15.856052 15789 net.cpp:91] Creating Layer inception_4d/3x3
I0403 18:00:15.856070 15789 net.cpp:425] inception_4d/3x3 <- inception_4d/3x3_reduce
I0403 18:00:15.856091 15789 net.cpp:399] inception_4d/3x3 -> inception_4d/3x3
I0403 18:00:15.860339 15789 net.cpp:141] Setting up inception_4d/3x3
I0403 18:00:15.860368 15789 net.cpp:148] Top shape: 24 288 14 14 (1354752)
I0403 18:00:15.860383 15789 net.cpp:156] Memory required for data: 1126235424
I0403 18:00:15.860402 15789 layer_factory.hpp:77] Creating layer inception_4d/relu_3x3
I0403 18:00:15.860422 15789 net.cpp:91] Creating Layer inception_4d/relu_3x3
I0403 18:00:15.860438 15789 net.cpp:425] inception_4d/relu_3x3 <- inception_4d/3x3
I0403 18:00:15.860455 15789 net.cpp:386] inception_4d/relu_3x3 -> inception_4d/3x3 (in-place)
I0403 18:00:15.860636 15789 net.cpp:141] Setting up inception_4d/relu_3x3
I0403 18:00:15.860663 15789 net.cpp:148] Top shape: 24 288 14 14 (1354752)
I0403 18:00:15.860679 15789 net.cpp:156] Memory required for data: 1131654432
I0403 18:00:15.860693 15789 layer_factory.hpp:77] Creating layer inception_4d/5x5_reduce
I0403 18:00:15.860715 15789 net.cpp:91] Creating Layer inception_4d/5x5_reduce
I0403 18:00:15.860733 15789 net.cpp:425] inception_4d/5x5_reduce <- inception_4c/output_inception_4c/output_0_split_2
I0403 18:00:15.860751 15789 net.cpp:399] inception_4d/5x5_reduce -> inception_4d/5x5_reduce
I0403 18:00:15.861888 15789 net.cpp:141] Setting up inception_4d/5x5_reduce
I0403 18:00:15.861915 15789 net.cpp:148] Top shape: 24 32 14 14 (150528)
I0403 18:00:15.861932 15789 net.cpp:156] Memory required for data: 1132256544
I0403 18:00:15.861953 15789 layer_factory.hpp:77] Creating layer inception_4d/relu_5x5_reduce
I0403 18:00:15.861974 15789 net.cpp:91] Creating Layer inception_4d/relu_5x5_reduce
I0403 18:00:15.861990 15789 net.cpp:425] inception_4d/relu_5x5_reduce <- inception_4d/5x5_reduce
I0403 18:00:15.862007 15789 net.cpp:386] inception_4d/relu_5x5_reduce -> inception_4d/5x5_reduce (in-place)
I0403 18:00:15.862192 15789 net.cpp:141] Setting up inception_4d/relu_5x5_reduce
I0403 18:00:15.862216 15789 net.cpp:148] Top shape: 24 32 14 14 (150528)
I0403 18:00:15.862231 15789 net.cpp:156] Memory required for data: 1132858656
I0403 18:00:15.862246 15789 layer_factory.hpp:77] Creating layer inception_4d/5x5
I0403 18:00:15.862269 15789 net.cpp:91] Creating Layer inception_4d/5x5
I0403 18:00:15.862287 15789 net.cpp:425] inception_4d/5x5 <- inception_4d/5x5_reduce
I0403 18:00:15.862304 15789 net.cpp:399] inception_4d/5x5 -> inception_4d/5x5
I0403 18:00:15.863756 15789 net.cpp:141] Setting up inception_4d/5x5
I0403 18:00:15.863785 15789 net.cpp:148] Top shape: 24 64 14 14 (301056)
I0403 18:00:15.863801 15789 net.cpp:156] Memory required for data: 1134062880
I0403 18:00:15.863819 15789 layer_factory.hpp:77] Creating layer inception_4d/relu_5x5
I0403 18:00:15.863852 15789 net.cpp:91] Creating Layer inception_4d/relu_5x5
I0403 18:00:15.863869 15789 net.cpp:425] inception_4d/relu_5x5 <- inception_4d/5x5
I0403 18:00:15.863888 15789 net.cpp:386] inception_4d/relu_5x5 -> inception_4d/5x5 (in-place)
I0403 18:00:15.864187 15789 net.cpp:141] Setting up inception_4d/relu_5x5
I0403 18:00:15.864215 15789 net.cpp:148] Top shape: 24 64 14 14 (301056)
I0403 18:00:15.864230 15789 net.cpp:156] Memory required for data: 1135267104
I0403 18:00:15.864245 15789 layer_factory.hpp:77] Creating layer inception_4d/pool
I0403 18:00:15.864264 15789 net.cpp:91] Creating Layer inception_4d/pool
I0403 18:00:15.864279 15789 net.cpp:425] inception_4d/pool <- inception_4c/output_inception_4c/output_0_split_3
I0403 18:00:15.864300 15789 net.cpp:399] inception_4d/pool -> inception_4d/pool
I0403 18:00:15.864363 15789 net.cpp:141] Setting up inception_4d/pool
I0403 18:00:15.864387 15789 net.cpp:148] Top shape: 24 512 14 14 (2408448)
I0403 18:00:15.864401 15789 net.cpp:156] Memory required for data: 1144900896
I0403 18:00:15.864415 15789 layer_factory.hpp:77] Creating layer inception_4d/pool_proj
I0403 18:00:15.864436 15789 net.cpp:91] Creating Layer inception_4d/pool_proj
I0403 18:00:15.864454 15789 net.cpp:425] inception_4d/pool_proj <- inception_4d/pool
I0403 18:00:15.864473 15789 net.cpp:399] inception_4d/pool_proj -> inception_4d/pool_proj
I0403 18:00:15.866189 15789 net.cpp:141] Setting up inception_4d/pool_proj
I0403 18:00:15.866217 15789 net.cpp:148] Top shape: 24 64 14 14 (301056)
I0403 18:00:15.866232 15789 net.cpp:156] Memory required for data: 1146105120
I0403 18:00:15.866250 15789 layer_factory.hpp:77] Creating layer inception_4d/relu_pool_proj
I0403 18:00:15.866271 15789 net.cpp:91] Creating Layer inception_4d/relu_pool_proj
I0403 18:00:15.866287 15789 net.cpp:425] inception_4d/relu_pool_proj <- inception_4d/pool_proj
I0403 18:00:15.866304 15789 net.cpp:386] inception_4d/relu_pool_proj -> inception_4d/pool_proj (in-place)
I0403 18:00:15.866485 15789 net.cpp:141] Setting up inception_4d/relu_pool_proj
I0403 18:00:15.866511 15789 net.cpp:148] Top shape: 24 64 14 14 (301056)
I0403 18:00:15.866526 15789 net.cpp:156] Memory required for data: 1147309344
I0403 18:00:15.866541 15789 layer_factory.hpp:77] Creating layer inception_4d/output
I0403 18:00:15.866557 15789 net.cpp:91] Creating Layer inception_4d/output
I0403 18:00:15.866574 15789 net.cpp:425] inception_4d/output <- inception_4d/1x1
I0403 18:00:15.866590 15789 net.cpp:425] inception_4d/output <- inception_4d/3x3
I0403 18:00:15.866605 15789 net.cpp:425] inception_4d/output <- inception_4d/5x5
I0403 18:00:15.866621 15789 net.cpp:425] inception_4d/output <- inception_4d/pool_proj
I0403 18:00:15.866637 15789 net.cpp:399] inception_4d/output -> inception_4d/output
I0403 18:00:15.866685 15789 net.cpp:141] Setting up inception_4d/output
I0403 18:00:15.866708 15789 net.cpp:148] Top shape: 24 528 14 14 (2483712)
I0403 18:00:15.866722 15789 net.cpp:156] Memory required for data: 1157244192
I0403 18:00:15.866737 15789 layer_factory.hpp:77] Creating layer inception_4d/output_inception_4d/output_0_split
I0403 18:00:15.866756 15789 net.cpp:91] Creating Layer inception_4d/output_inception_4d/output_0_split
I0403 18:00:15.866771 15789 net.cpp:425] inception_4d/output_inception_4d/output_0_split <- inception_4d/output
I0403 18:00:15.866788 15789 net.cpp:399] inception_4d/output_inception_4d/output_0_split -> inception_4d/output_inception_4d/output_0_split_0
I0403 18:00:15.866808 15789 net.cpp:399] inception_4d/output_inception_4d/output_0_split -> inception_4d/output_inception_4d/output_0_split_1
I0403 18:00:15.866828 15789 net.cpp:399] inception_4d/output_inception_4d/output_0_split -> inception_4d/output_inception_4d/output_0_split_2
I0403 18:00:15.866848 15789 net.cpp:399] inception_4d/output_inception_4d/output_0_split -> inception_4d/output_inception_4d/output_0_split_3
I0403 18:00:15.866869 15789 net.cpp:399] inception_4d/output_inception_4d/output_0_split -> inception_4d/output_inception_4d/output_0_split_4
I0403 18:00:15.866978 15789 net.cpp:141] Setting up inception_4d/output_inception_4d/output_0_split
I0403 18:00:15.867018 15789 net.cpp:148] Top shape: 24 528 14 14 (2483712)
I0403 18:00:15.867035 15789 net.cpp:148] Top shape: 24 528 14 14 (2483712)
I0403 18:00:15.867050 15789 net.cpp:148] Top shape: 24 528 14 14 (2483712)
I0403 18:00:15.867066 15789 net.cpp:148] Top shape: 24 528 14 14 (2483712)
I0403 18:00:15.867082 15789 net.cpp:148] Top shape: 24 528 14 14 (2483712)
I0403 18:00:15.867095 15789 net.cpp:156] Memory required for data: 1206918432
I0403 18:00:15.867110 15789 layer_factory.hpp:77] Creating layer loss2/ave_pool
I0403 18:00:15.867130 15789 net.cpp:91] Creating Layer loss2/ave_pool
I0403 18:00:15.867146 15789 net.cpp:425] loss2/ave_pool <- inception_4d/output_inception_4d/output_0_split_0
I0403 18:00:15.867164 15789 net.cpp:399] loss2/ave_pool -> loss2/ave_pool
I0403 18:00:15.867468 15789 net.cpp:141] Setting up loss2/ave_pool
I0403 18:00:15.867494 15789 net.cpp:148] Top shape: 24 528 4 4 (202752)
I0403 18:00:15.867508 15789 net.cpp:156] Memory required for data: 1207729440
I0403 18:00:15.867523 15789 layer_factory.hpp:77] Creating layer loss2/conv
I0403 18:00:15.867545 15789 net.cpp:91] Creating Layer loss2/conv
I0403 18:00:15.867563 15789 net.cpp:425] loss2/conv <- loss2/ave_pool
I0403 18:00:15.867584 15789 net.cpp:399] loss2/conv -> loss2/conv
I0403 18:00:15.869438 15789 net.cpp:141] Setting up loss2/conv
I0403 18:00:15.869470 15789 net.cpp:148] Top shape: 24 128 4 4 (49152)
I0403 18:00:15.869488 15789 net.cpp:156] Memory required for data: 1207926048
I0403 18:00:15.869505 15789 layer_factory.hpp:77] Creating layer loss2/relu_conv
I0403 18:00:15.869524 15789 net.cpp:91] Creating Layer loss2/relu_conv
I0403 18:00:15.869540 15789 net.cpp:425] loss2/relu_conv <- loss2/conv
I0403 18:00:15.869560 15789 net.cpp:386] loss2/relu_conv -> loss2/conv (in-place)
I0403 18:00:15.869838 15789 net.cpp:141] Setting up loss2/relu_conv
I0403 18:00:15.869866 15789 net.cpp:148] Top shape: 24 128 4 4 (49152)
I0403 18:00:15.869881 15789 net.cpp:156] Memory required for data: 1208122656
I0403 18:00:15.869896 15789 layer_factory.hpp:77] Creating layer loss2/fc
I0403 18:00:15.869915 15789 net.cpp:91] Creating Layer loss2/fc
I0403 18:00:15.869931 15789 net.cpp:425] loss2/fc <- loss2/conv
I0403 18:00:15.869954 15789 net.cpp:399] loss2/fc -> loss2/fc
I0403 18:00:15.887014 15789 net.cpp:141] Setting up loss2/fc
I0403 18:00:15.887048 15789 net.cpp:148] Top shape: 24 1024 (24576)
I0403 18:00:15.887063 15789 net.cpp:156] Memory required for data: 1208220960
I0403 18:00:15.887080 15789 layer_factory.hpp:77] Creating layer loss2/relu_fc
I0403 18:00:15.887099 15789 net.cpp:91] Creating Layer loss2/relu_fc
I0403 18:00:15.887115 15789 net.cpp:425] loss2/relu_fc <- loss2/fc
I0403 18:00:15.887131 15789 net.cpp:386] loss2/relu_fc -> loss2/fc (in-place)
I0403 18:00:15.887421 15789 net.cpp:141] Setting up loss2/relu_fc
I0403 18:00:15.887447 15789 net.cpp:148] Top shape: 24 1024 (24576)
I0403 18:00:15.887462 15789 net.cpp:156] Memory required for data: 1208319264
I0403 18:00:15.887476 15789 layer_factory.hpp:77] Creating layer loss2/drop_fc
I0403 18:00:15.887496 15789 net.cpp:91] Creating Layer loss2/drop_fc
I0403 18:00:15.887513 15789 net.cpp:425] loss2/drop_fc <- loss2/fc
I0403 18:00:15.887531 15789 net.cpp:386] loss2/drop_fc -> loss2/fc (in-place)
I0403 18:00:15.887579 15789 net.cpp:141] Setting up loss2/drop_fc
I0403 18:00:15.887601 15789 net.cpp:148] Top shape: 24 1024 (24576)
I0403 18:00:15.887615 15789 net.cpp:156] Memory required for data: 1208417568
I0403 18:00:15.887629 15789 layer_factory.hpp:77] Creating layer loss2/classifier_plantvillage
I0403 18:00:15.887648 15789 net.cpp:91] Creating Layer loss2/classifier_plantvillage
I0403 18:00:15.887665 15789 net.cpp:425] loss2/classifier_plantvillage <- loss2/fc
I0403 18:00:15.887682 15789 net.cpp:399] loss2/classifier_plantvillage -> loss2/classifier_plantvillage
I0403 18:00:15.888077 15789 net.cpp:141] Setting up loss2/classifier_plantvillage
I0403 18:00:15.888101 15789 net.cpp:148] Top shape: 24 38 (912)
I0403 18:00:15.888130 15789 net.cpp:156] Memory required for data: 1208421216
I0403 18:00:15.888149 15789 layer_factory.hpp:77] Creating layer loss2/classifier_plantvillage_loss2/classifier_plantvillage_0_split
I0403 18:00:15.888167 15789 net.cpp:91] Creating Layer loss2/classifier_plantvillage_loss2/classifier_plantvillage_0_split
I0403 18:00:15.888183 15789 net.cpp:425] loss2/classifier_plantvillage_loss2/classifier_plantvillage_0_split <- loss2/classifier_plantvillage
I0403 18:00:15.888202 15789 net.cpp:399] loss2/classifier_plantvillage_loss2/classifier_plantvillage_0_split -> loss2/classifier_plantvillage_loss2/classifier_plantvillage_0_split_0
I0403 18:00:15.888223 15789 net.cpp:399] loss2/classifier_plantvillage_loss2/classifier_plantvillage_0_split -> loss2/classifier_plantvillage_loss2/classifier_plantvillage_0_split_1
I0403 18:00:15.888244 15789 net.cpp:399] loss2/classifier_plantvillage_loss2/classifier_plantvillage_0_split -> loss2/classifier_plantvillage_loss2/classifier_plantvillage_0_split_2
I0403 18:00:15.888320 15789 net.cpp:141] Setting up loss2/classifier_plantvillage_loss2/classifier_plantvillage_0_split
I0403 18:00:15.888345 15789 net.cpp:148] Top shape: 24 38 (912)
I0403 18:00:15.888361 15789 net.cpp:148] Top shape: 24 38 (912)
I0403 18:00:15.888376 15789 net.cpp:148] Top shape: 24 38 (912)
I0403 18:00:15.888391 15789 net.cpp:156] Memory required for data: 1208432160
I0403 18:00:15.888406 15789 layer_factory.hpp:77] Creating layer inception_4e/1x1
I0403 18:00:15.888427 15789 net.cpp:91] Creating Layer inception_4e/1x1
I0403 18:00:15.888444 15789 net.cpp:425] inception_4e/1x1 <- inception_4d/output_inception_4d/output_0_split_1
I0403 18:00:15.888463 15789 net.cpp:399] inception_4e/1x1 -> inception_4e/1x1
I0403 18:00:15.890244 15789 net.cpp:141] Setting up inception_4e/1x1
I0403 18:00:15.890272 15789 net.cpp:148] Top shape: 24 256 14 14 (1204224)
I0403 18:00:15.890290 15789 net.cpp:156] Memory required for data: 1213249056
I0403 18:00:15.890307 15789 layer_factory.hpp:77] Creating layer inception_4e/relu_1x1
I0403 18:00:15.890326 15789 net.cpp:91] Creating Layer inception_4e/relu_1x1
I0403 18:00:15.890341 15789 net.cpp:425] inception_4e/relu_1x1 <- inception_4e/1x1
I0403 18:00:15.890359 15789 net.cpp:386] inception_4e/relu_1x1 -> inception_4e/1x1 (in-place)
I0403 18:00:15.890646 15789 net.cpp:141] Setting up inception_4e/relu_1x1
I0403 18:00:15.890673 15789 net.cpp:148] Top shape: 24 256 14 14 (1204224)
I0403 18:00:15.890689 15789 net.cpp:156] Memory required for data: 1218065952
I0403 18:00:15.890704 15789 layer_factory.hpp:77] Creating layer inception_4e/3x3_reduce
I0403 18:00:15.890727 15789 net.cpp:91] Creating Layer inception_4e/3x3_reduce
I0403 18:00:15.890743 15789 net.cpp:425] inception_4e/3x3_reduce <- inception_4d/output_inception_4d/output_0_split_2
I0403 18:00:15.890763 15789 net.cpp:399] inception_4e/3x3_reduce -> inception_4e/3x3_reduce
I0403 18:00:15.892837 15789 net.cpp:141] Setting up inception_4e/3x3_reduce
I0403 18:00:15.892866 15789 net.cpp:148] Top shape: 24 160 14 14 (752640)
I0403 18:00:15.892884 15789 net.cpp:156] Memory required for data: 1221076512
I0403 18:00:15.892901 15789 layer_factory.hpp:77] Creating layer inception_4e/relu_3x3_reduce
I0403 18:00:15.892918 15789 net.cpp:91] Creating Layer inception_4e/relu_3x3_reduce
I0403 18:00:15.892935 15789 net.cpp:425] inception_4e/relu_3x3_reduce <- inception_4e/3x3_reduce
I0403 18:00:15.892954 15789 net.cpp:386] inception_4e/relu_3x3_reduce -> inception_4e/3x3_reduce (in-place)
I0403 18:00:15.893141 15789 net.cpp:141] Setting up inception_4e/relu_3x3_reduce
I0403 18:00:15.893165 15789 net.cpp:148] Top shape: 24 160 14 14 (752640)
I0403 18:00:15.893182 15789 net.cpp:156] Memory required for data: 1224087072
I0403 18:00:15.893195 15789 layer_factory.hpp:77] Creating layer inception_4e/3x3
I0403 18:00:15.893229 15789 net.cpp:91] Creating Layer inception_4e/3x3
I0403 18:00:15.893245 15789 net.cpp:425] inception_4e/3x3 <- inception_4e/3x3_reduce
I0403 18:00:15.893267 15789 net.cpp:399] inception_4e/3x3 -> inception_4e/3x3
I0403 18:00:15.898316 15789 net.cpp:141] Setting up inception_4e/3x3
I0403 18:00:15.898358 15789 net.cpp:148] Top shape: 24 320 14 14 (1505280)
I0403 18:00:15.898375 15789 net.cpp:156] Memory required for data: 1230108192
I0403 18:00:15.898393 15789 layer_factory.hpp:77] Creating layer inception_4e/relu_3x3
I0403 18:00:15.898412 15789 net.cpp:91] Creating Layer inception_4e/relu_3x3
I0403 18:00:15.898432 15789 net.cpp:425] inception_4e/relu_3x3 <- inception_4e/3x3
I0403 18:00:15.898449 15789 net.cpp:386] inception_4e/relu_3x3 -> inception_4e/3x3 (in-place)
I0403 18:00:15.898746 15789 net.cpp:141] Setting up inception_4e/relu_3x3
I0403 18:00:15.898773 15789 net.cpp:148] Top shape: 24 320 14 14 (1505280)
I0403 18:00:15.898788 15789 net.cpp:156] Memory required for data: 1236129312
I0403 18:00:15.898803 15789 layer_factory.hpp:77] Creating layer inception_4e/5x5_reduce
I0403 18:00:15.898825 15789 net.cpp:91] Creating Layer inception_4e/5x5_reduce
I0403 18:00:15.898843 15789 net.cpp:425] inception_4e/5x5_reduce <- inception_4d/output_inception_4d/output_0_split_3
I0403 18:00:15.898864 15789 net.cpp:399] inception_4e/5x5_reduce -> inception_4e/5x5_reduce
I0403 18:00:15.899963 15789 net.cpp:141] Setting up inception_4e/5x5_reduce
I0403 18:00:15.899993 15789 net.cpp:148] Top shape: 24 32 14 14 (150528)
I0403 18:00:15.900012 15789 net.cpp:156] Memory required for data: 1236731424
I0403 18:00:15.900030 15789 layer_factory.hpp:77] Creating layer inception_4e/relu_5x5_reduce
I0403 18:00:15.900049 15789 net.cpp:91] Creating Layer inception_4e/relu_5x5_reduce
I0403 18:00:15.900066 15789 net.cpp:425] inception_4e/relu_5x5_reduce <- inception_4e/5x5_reduce
I0403 18:00:15.900085 15789 net.cpp:386] inception_4e/relu_5x5_reduce -> inception_4e/5x5_reduce (in-place)
I0403 18:00:15.900398 15789 net.cpp:141] Setting up inception_4e/relu_5x5_reduce
I0403 18:00:15.900425 15789 net.cpp:148] Top shape: 24 32 14 14 (150528)
I0403 18:00:15.900441 15789 net.cpp:156] Memory required for data: 1237333536
I0403 18:00:15.900457 15789 layer_factory.hpp:77] Creating layer inception_4e/5x5
I0403 18:00:15.900497 15789 net.cpp:91] Creating Layer inception_4e/5x5
I0403 18:00:15.900516 15789 net.cpp:425] inception_4e/5x5 <- inception_4e/5x5_reduce
I0403 18:00:15.900535 15789 net.cpp:399] inception_4e/5x5 -> inception_4e/5x5
I0403 18:00:15.902387 15789 net.cpp:141] Setting up inception_4e/5x5
I0403 18:00:15.902415 15789 net.cpp:148] Top shape: 24 128 14 14 (602112)
I0403 18:00:15.902431 15789 net.cpp:156] Memory required for data: 1239741984
I0403 18:00:15.902449 15789 layer_factory.hpp:77] Creating layer inception_4e/relu_5x5
I0403 18:00:15.902469 15789 net.cpp:91] Creating Layer inception_4e/relu_5x5
I0403 18:00:15.902487 15789 net.cpp:425] inception_4e/relu_5x5 <- inception_4e/5x5
I0403 18:00:15.902503 15789 net.cpp:386] inception_4e/relu_5x5 -> inception_4e/5x5 (in-place)
I0403 18:00:15.902701 15789 net.cpp:141] Setting up inception_4e/relu_5x5
I0403 18:00:15.902729 15789 net.cpp:148] Top shape: 24 128 14 14 (602112)
I0403 18:00:15.902745 15789 net.cpp:156] Memory required for data: 1242150432
I0403 18:00:15.902760 15789 layer_factory.hpp:77] Creating layer inception_4e/pool
I0403 18:00:15.902779 15789 net.cpp:91] Creating Layer inception_4e/pool
I0403 18:00:15.902796 15789 net.cpp:425] inception_4e/pool <- inception_4d/output_inception_4d/output_0_split_4
I0403 18:00:15.902815 15789 net.cpp:399] inception_4e/pool -> inception_4e/pool
I0403 18:00:15.902885 15789 net.cpp:141] Setting up inception_4e/pool
I0403 18:00:15.902909 15789 net.cpp:148] Top shape: 24 528 14 14 (2483712)
I0403 18:00:15.902925 15789 net.cpp:156] Memory required for data: 1252085280
I0403 18:00:15.902940 15789 layer_factory.hpp:77] Creating layer inception_4e/pool_proj
I0403 18:00:15.902968 15789 net.cpp:91] Creating Layer inception_4e/pool_proj
I0403 18:00:15.902987 15789 net.cpp:425] inception_4e/pool_proj <- inception_4e/pool
I0403 18:00:15.903005 15789 net.cpp:399] inception_4e/pool_proj -> inception_4e/pool_proj
I0403 18:00:15.904515 15789 net.cpp:141] Setting up inception_4e/pool_proj
I0403 18:00:15.904553 15789 net.cpp:148] Top shape: 24 128 14 14 (602112)
I0403 18:00:15.904569 15789 net.cpp:156] Memory required for data: 1254493728
I0403 18:00:15.904587 15789 layer_factory.hpp:77] Creating layer inception_4e/relu_pool_proj
I0403 18:00:15.904608 15789 net.cpp:91] Creating Layer inception_4e/relu_pool_proj
I0403 18:00:15.904625 15789 net.cpp:425] inception_4e/relu_pool_proj <- inception_4e/pool_proj
I0403 18:00:15.904642 15789 net.cpp:386] inception_4e/relu_pool_proj -> inception_4e/pool_proj (in-place)
I0403 18:00:15.904935 15789 net.cpp:141] Setting up inception_4e/relu_pool_proj
I0403 18:00:15.904965 15789 net.cpp:148] Top shape: 24 128 14 14 (602112)
I0403 18:00:15.904981 15789 net.cpp:156] Memory required for data: 1256902176
I0403 18:00:15.904997 15789 layer_factory.hpp:77] Creating layer inception_4e/output
I0403 18:00:15.905016 15789 net.cpp:91] Creating Layer inception_4e/output
I0403 18:00:15.905033 15789 net.cpp:425] inception_4e/output <- inception_4e/1x1
I0403 18:00:15.905051 15789 net.cpp:425] inception_4e/output <- inception_4e/3x3
I0403 18:00:15.905067 15789 net.cpp:425] inception_4e/output <- inception_4e/5x5
I0403 18:00:15.905083 15789 net.cpp:425] inception_4e/output <- inception_4e/pool_proj
I0403 18:00:15.905100 15789 net.cpp:399] inception_4e/output -> inception_4e/output
I0403 18:00:15.905153 15789 net.cpp:141] Setting up inception_4e/output
I0403 18:00:15.905177 15789 net.cpp:148] Top shape: 24 832 14 14 (3913728)
I0403 18:00:15.905192 15789 net.cpp:156] Memory required for data: 1272557088
I0403 18:00:15.905207 15789 layer_factory.hpp:77] Creating layer pool4/3x3_s2
I0403 18:00:15.905225 15789 net.cpp:91] Creating Layer pool4/3x3_s2
I0403 18:00:15.905241 15789 net.cpp:425] pool4/3x3_s2 <- inception_4e/output
I0403 18:00:15.905263 15789 net.cpp:399] pool4/3x3_s2 -> pool4/3x3_s2
I0403 18:00:15.905330 15789 net.cpp:141] Setting up pool4/3x3_s2
I0403 18:00:15.905354 15789 net.cpp:148] Top shape: 24 832 7 7 (978432)
I0403 18:00:15.905369 15789 net.cpp:156] Memory required for data: 1276470816
I0403 18:00:15.905385 15789 layer_factory.hpp:77] Creating layer pool4/3x3_s2_pool4/3x3_s2_0_split
I0403 18:00:15.905405 15789 net.cpp:91] Creating Layer pool4/3x3_s2_pool4/3x3_s2_0_split
I0403 18:00:15.905421 15789 net.cpp:425] pool4/3x3_s2_pool4/3x3_s2_0_split <- pool4/3x3_s2
I0403 18:00:15.905439 15789 net.cpp:399] pool4/3x3_s2_pool4/3x3_s2_0_split -> pool4/3x3_s2_pool4/3x3_s2_0_split_0
I0403 18:00:15.905463 15789 net.cpp:399] pool4/3x3_s2_pool4/3x3_s2_0_split -> pool4/3x3_s2_pool4/3x3_s2_0_split_1
I0403 18:00:15.905483 15789 net.cpp:399] pool4/3x3_s2_pool4/3x3_s2_0_split -> pool4/3x3_s2_pool4/3x3_s2_0_split_2
I0403 18:00:15.905503 15789 net.cpp:399] pool4/3x3_s2_pool4/3x3_s2_0_split -> pool4/3x3_s2_pool4/3x3_s2_0_split_3
I0403 18:00:15.905592 15789 net.cpp:141] Setting up pool4/3x3_s2_pool4/3x3_s2_0_split
I0403 18:00:15.905616 15789 net.cpp:148] Top shape: 24 832 7 7 (978432)
I0403 18:00:15.905632 15789 net.cpp:148] Top shape: 24 832 7 7 (978432)
I0403 18:00:15.905648 15789 net.cpp:148] Top shape: 24 832 7 7 (978432)
I0403 18:00:15.905663 15789 net.cpp:148] Top shape: 24 832 7 7 (978432)
I0403 18:00:15.905678 15789 net.cpp:156] Memory required for data: 1292125728
I0403 18:00:15.905692 15789 layer_factory.hpp:77] Creating layer inception_5a/1x1
I0403 18:00:15.905714 15789 net.cpp:91] Creating Layer inception_5a/1x1
I0403 18:00:15.905730 15789 net.cpp:425] inception_5a/1x1 <- pool4/3x3_s2_pool4/3x3_s2_0_split_0
I0403 18:00:15.905752 15789 net.cpp:399] inception_5a/1x1 -> inception_5a/1x1
I0403 18:00:15.908622 15789 net.cpp:141] Setting up inception_5a/1x1
I0403 18:00:15.908654 15789 net.cpp:148] Top shape: 24 256 7 7 (301056)
I0403 18:00:15.908671 15789 net.cpp:156] Memory required for data: 1293329952
I0403 18:00:15.908690 15789 layer_factory.hpp:77] Creating layer inception_5a/relu_1x1
I0403 18:00:15.908709 15789 net.cpp:91] Creating Layer inception_5a/relu_1x1
I0403 18:00:15.908723 15789 net.cpp:425] inception_5a/relu_1x1 <- inception_5a/1x1
I0403 18:00:15.908741 15789 net.cpp:386] inception_5a/relu_1x1 -> inception_5a/1x1 (in-place)
I0403 18:00:15.909075 15789 net.cpp:141] Setting up inception_5a/relu_1x1
I0403 18:00:15.909103 15789 net.cpp:148] Top shape: 24 256 7 7 (301056)
I0403 18:00:15.909119 15789 net.cpp:156] Memory required for data: 1294534176
I0403 18:00:15.909134 15789 layer_factory.hpp:77] Creating layer inception_5a/3x3_reduce
I0403 18:00:15.909157 15789 net.cpp:91] Creating Layer inception_5a/3x3_reduce
I0403 18:00:15.909176 15789 net.cpp:425] inception_5a/3x3_reduce <- pool4/3x3_s2_pool4/3x3_s2_0_split_1
I0403 18:00:15.909196 15789 net.cpp:399] inception_5a/3x3_reduce -> inception_5a/3x3_reduce
I0403 18:00:15.911684 15789 net.cpp:141] Setting up inception_5a/3x3_reduce
I0403 18:00:15.911715 15789 net.cpp:148] Top shape: 24 160 7 7 (188160)
I0403 18:00:15.911731 15789 net.cpp:156] Memory required for data: 1295286816
I0403 18:00:15.911749 15789 layer_factory.hpp:77] Creating layer inception_5a/relu_3x3_reduce
I0403 18:00:15.911769 15789 net.cpp:91] Creating Layer inception_5a/relu_3x3_reduce
I0403 18:00:15.911788 15789 net.cpp:425] inception_5a/relu_3x3_reduce <- inception_5a/3x3_reduce
I0403 18:00:15.911805 15789 net.cpp:386] inception_5a/relu_3x3_reduce -> inception_5a/3x3_reduce (in-place)
I0403 18:00:15.912000 15789 net.cpp:141] Setting up inception_5a/relu_3x3_reduce
I0403 18:00:15.912025 15789 net.cpp:148] Top shape: 24 160 7 7 (188160)
I0403 18:00:15.912042 15789 net.cpp:156] Memory required for data: 1296039456
I0403 18:00:15.912057 15789 layer_factory.hpp:77] Creating layer inception_5a/3x3
I0403 18:00:15.912077 15789 net.cpp:91] Creating Layer inception_5a/3x3
I0403 18:00:15.912094 15789 net.cpp:425] inception_5a/3x3 <- inception_5a/3x3_reduce
I0403 18:00:15.912117 15789 net.cpp:399] inception_5a/3x3 -> inception_5a/3x3
I0403 18:00:15.917068 15789 net.cpp:141] Setting up inception_5a/3x3
I0403 18:00:15.917098 15789 net.cpp:148] Top shape: 24 320 7 7 (376320)
I0403 18:00:15.917112 15789 net.cpp:156] Memory required for data: 1297544736
I0403 18:00:15.917131 15789 layer_factory.hpp:77] Creating layer inception_5a/relu_3x3
I0403 18:00:15.917151 15789 net.cpp:91] Creating Layer inception_5a/relu_3x3
I0403 18:00:15.917168 15789 net.cpp:425] inception_5a/relu_3x3 <- inception_5a/3x3
I0403 18:00:15.917186 15789 net.cpp:386] inception_5a/relu_3x3 -> inception_5a/3x3 (in-place)
I0403 18:00:15.917474 15789 net.cpp:141] Setting up inception_5a/relu_3x3
I0403 18:00:15.917500 15789 net.cpp:148] Top shape: 24 320 7 7 (376320)
I0403 18:00:15.917515 15789 net.cpp:156] Memory required for data: 1299050016
I0403 18:00:15.917531 15789 layer_factory.hpp:77] Creating layer inception_5a/5x5_reduce
I0403 18:00:15.917556 15789 net.cpp:91] Creating Layer inception_5a/5x5_reduce
I0403 18:00:15.917572 15789 net.cpp:425] inception_5a/5x5_reduce <- pool4/3x3_s2_pool4/3x3_s2_0_split_2
I0403 18:00:15.917592 15789 net.cpp:399] inception_5a/5x5_reduce -> inception_5a/5x5_reduce
I0403 18:00:15.918743 15789 net.cpp:141] Setting up inception_5a/5x5_reduce
I0403 18:00:15.918773 15789 net.cpp:148] Top shape: 24 32 7 7 (37632)
I0403 18:00:15.918789 15789 net.cpp:156] Memory required for data: 1299200544
I0403 18:00:15.918807 15789 layer_factory.hpp:77] Creating layer inception_5a/relu_5x5_reduce
I0403 18:00:15.918825 15789 net.cpp:91] Creating Layer inception_5a/relu_5x5_reduce
I0403 18:00:15.918840 15789 net.cpp:425] inception_5a/relu_5x5_reduce <- inception_5a/5x5_reduce
I0403 18:00:15.918856 15789 net.cpp:386] inception_5a/relu_5x5_reduce -> inception_5a/5x5_reduce (in-place)
I0403 18:00:15.919162 15789 net.cpp:141] Setting up inception_5a/relu_5x5_reduce
I0403 18:00:15.919190 15789 net.cpp:148] Top shape: 24 32 7 7 (37632)
I0403 18:00:15.919206 15789 net.cpp:156] Memory required for data: 1299351072
I0403 18:00:15.919221 15789 layer_factory.hpp:77] Creating layer inception_5a/5x5
I0403 18:00:15.919244 15789 net.cpp:91] Creating Layer inception_5a/5x5
I0403 18:00:15.919260 15789 net.cpp:425] inception_5a/5x5 <- inception_5a/5x5_reduce
I0403 18:00:15.919280 15789 net.cpp:399] inception_5a/5x5 -> inception_5a/5x5
I0403 18:00:15.920986 15789 net.cpp:141] Setting up inception_5a/5x5
I0403 18:00:15.921025 15789 net.cpp:148] Top shape: 24 128 7 7 (150528)
I0403 18:00:15.921041 15789 net.cpp:156] Memory required for data: 1299953184
I0403 18:00:15.921058 15789 layer_factory.hpp:77] Creating layer inception_5a/relu_5x5
I0403 18:00:15.921078 15789 net.cpp:91] Creating Layer inception_5a/relu_5x5
I0403 18:00:15.921095 15789 net.cpp:425] inception_5a/relu_5x5 <- inception_5a/5x5
I0403 18:00:15.921113 15789 net.cpp:386] inception_5a/relu_5x5 -> inception_5a/5x5 (in-place)
I0403 18:00:15.921303 15789 net.cpp:141] Setting up inception_5a/relu_5x5
I0403 18:00:15.921327 15789 net.cpp:148] Top shape: 24 128 7 7 (150528)
I0403 18:00:15.921341 15789 net.cpp:156] Memory required for data: 1300555296
I0403 18:00:15.921355 15789 layer_factory.hpp:77] Creating layer inception_5a/pool
I0403 18:00:15.921372 15789 net.cpp:91] Creating Layer inception_5a/pool
I0403 18:00:15.921389 15789 net.cpp:425] inception_5a/pool <- pool4/3x3_s2_pool4/3x3_s2_0_split_3
I0403 18:00:15.921411 15789 net.cpp:399] inception_5a/pool -> inception_5a/pool
I0403 18:00:15.921478 15789 net.cpp:141] Setting up inception_5a/pool
I0403 18:00:15.921501 15789 net.cpp:148] Top shape: 24 832 7 7 (978432)
I0403 18:00:15.921516 15789 net.cpp:156] Memory required for data: 1304469024
I0403 18:00:15.921530 15789 layer_factory.hpp:77] Creating layer inception_5a/pool_proj
I0403 18:00:15.921553 15789 net.cpp:91] Creating Layer inception_5a/pool_proj
I0403 18:00:15.921571 15789 net.cpp:425] inception_5a/pool_proj <- inception_5a/pool
I0403 18:00:15.921589 15789 net.cpp:399] inception_5a/pool_proj -> inception_5a/pool_proj
I0403 18:00:15.923840 15789 net.cpp:141] Setting up inception_5a/pool_proj
I0403 18:00:15.923868 15789 net.cpp:148] Top shape: 24 128 7 7 (150528)
I0403 18:00:15.923884 15789 net.cpp:156] Memory required for data: 1305071136
I0403 18:00:15.923902 15789 layer_factory.hpp:77] Creating layer inception_5a/relu_pool_proj
I0403 18:00:15.923924 15789 net.cpp:91] Creating Layer inception_5a/relu_pool_proj
I0403 18:00:15.923943 15789 net.cpp:425] inception_5a/relu_pool_proj <- inception_5a/pool_proj
I0403 18:00:15.923964 15789 net.cpp:386] inception_5a/relu_pool_proj -> inception_5a/pool_proj (in-place)
I0403 18:00:15.924257 15789 net.cpp:141] Setting up inception_5a/relu_pool_proj
I0403 18:00:15.924283 15789 net.cpp:148] Top shape: 24 128 7 7 (150528)
I0403 18:00:15.924299 15789 net.cpp:156] Memory required for data: 1305673248
I0403 18:00:15.924314 15789 layer_factory.hpp:77] Creating layer inception_5a/output
I0403 18:00:15.924332 15789 net.cpp:91] Creating Layer inception_5a/output
I0403 18:00:15.924348 15789 net.cpp:425] inception_5a/output <- inception_5a/1x1
I0403 18:00:15.924365 15789 net.cpp:425] inception_5a/output <- inception_5a/3x3
I0403 18:00:15.924381 15789 net.cpp:425] inception_5a/output <- inception_5a/5x5
I0403 18:00:15.924397 15789 net.cpp:425] inception_5a/output <- inception_5a/pool_proj
I0403 18:00:15.924414 15789 net.cpp:399] inception_5a/output -> inception_5a/output
I0403 18:00:15.924464 15789 net.cpp:141] Setting up inception_5a/output
I0403 18:00:15.924487 15789 net.cpp:148] Top shape: 24 832 7 7 (978432)
I0403 18:00:15.924510 15789 net.cpp:156] Memory required for data: 1309586976
I0403 18:00:15.924525 15789 layer_factory.hpp:77] Creating layer inception_5a/output_inception_5a/output_0_split
I0403 18:00:15.924541 15789 net.cpp:91] Creating Layer inception_5a/output_inception_5a/output_0_split
I0403 18:00:15.924557 15789 net.cpp:425] inception_5a/output_inception_5a/output_0_split <- inception_5a/output
I0403 18:00:15.924576 15789 net.cpp:399] inception_5a/output_inception_5a/output_0_split -> inception_5a/output_inception_5a/output_0_split_0
I0403 18:00:15.924597 15789 net.cpp:399] inception_5a/output_inception_5a/output_0_split -> inception_5a/output_inception_5a/output_0_split_1
I0403 18:00:15.924617 15789 net.cpp:399] inception_5a/output_inception_5a/output_0_split -> inception_5a/output_inception_5a/output_0_split_2
I0403 18:00:15.924635 15789 net.cpp:399] inception_5a/output_inception_5a/output_0_split -> inception_5a/output_inception_5a/output_0_split_3
I0403 18:00:15.924744 15789 net.cpp:141] Setting up inception_5a/output_inception_5a/output_0_split
I0403 18:00:15.924770 15789 net.cpp:148] Top shape: 24 832 7 7 (978432)
I0403 18:00:15.924787 15789 net.cpp:148] Top shape: 24 832 7 7 (978432)
I0403 18:00:15.924803 15789 net.cpp:148] Top shape: 24 832 7 7 (978432)
I0403 18:00:15.924818 15789 net.cpp:148] Top shape: 24 832 7 7 (978432)
I0403 18:00:15.924831 15789 net.cpp:156] Memory required for data: 1325241888
I0403 18:00:15.924845 15789 layer_factory.hpp:77] Creating layer inception_5b/1x1
I0403 18:00:15.924866 15789 net.cpp:91] Creating Layer inception_5b/1x1
I0403 18:00:15.924883 15789 net.cpp:425] inception_5b/1x1 <- inception_5a/output_inception_5a/output_0_split_0
I0403 18:00:15.924901 15789 net.cpp:399] inception_5b/1x1 -> inception_5b/1x1
I0403 18:00:15.928606 15789 net.cpp:141] Setting up inception_5b/1x1
I0403 18:00:15.928634 15789 net.cpp:148] Top shape: 24 384 7 7 (451584)
I0403 18:00:15.928649 15789 net.cpp:156] Memory required for data: 1327048224
I0403 18:00:15.928668 15789 layer_factory.hpp:77] Creating layer inception_5b/relu_1x1
I0403 18:00:15.928688 15789 net.cpp:91] Creating Layer inception_5b/relu_1x1
I0403 18:00:15.928704 15789 net.cpp:425] inception_5b/relu_1x1 <- inception_5b/1x1
I0403 18:00:15.928721 15789 net.cpp:386] inception_5b/relu_1x1 -> inception_5b/1x1 (in-place)
I0403 18:00:15.929033 15789 net.cpp:141] Setting up inception_5b/relu_1x1
I0403 18:00:15.929059 15789 net.cpp:148] Top shape: 24 384 7 7 (451584)
I0403 18:00:15.929075 15789 net.cpp:156] Memory required for data: 1328854560
I0403 18:00:15.929090 15789 layer_factory.hpp:77] Creating layer inception_5b/3x3_reduce
I0403 18:00:15.929114 15789 net.cpp:91] Creating Layer inception_5b/3x3_reduce
I0403 18:00:15.929132 15789 net.cpp:425] inception_5b/3x3_reduce <- inception_5a/output_inception_5a/output_0_split_1
I0403 18:00:15.929153 15789 net.cpp:399] inception_5b/3x3_reduce -> inception_5b/3x3_reduce
I0403 18:00:15.931848 15789 net.cpp:141] Setting up inception_5b/3x3_reduce
I0403 18:00:15.931875 15789 net.cpp:148] Top shape: 24 192 7 7 (225792)
I0403 18:00:15.931891 15789 net.cpp:156] Memory required for data: 1329757728
I0403 18:00:15.931908 15789 layer_factory.hpp:77] Creating layer inception_5b/relu_3x3_reduce
I0403 18:00:15.931929 15789 net.cpp:91] Creating Layer inception_5b/relu_3x3_reduce
I0403 18:00:15.931949 15789 net.cpp:425] inception_5b/relu_3x3_reduce <- inception_5b/3x3_reduce
I0403 18:00:15.931967 15789 net.cpp:386] inception_5b/relu_3x3_reduce -> inception_5b/3x3_reduce (in-place)
I0403 18:00:15.932155 15789 net.cpp:141] Setting up inception_5b/relu_3x3_reduce
I0403 18:00:15.932181 15789 net.cpp:148] Top shape: 24 192 7 7 (225792)
I0403 18:00:15.932195 15789 net.cpp:156] Memory required for data: 1330660896
I0403 18:00:15.932210 15789 layer_factory.hpp:77] Creating layer inception_5b/3x3
I0403 18:00:15.932234 15789 net.cpp:91] Creating Layer inception_5b/3x3
I0403 18:00:15.932250 15789 net.cpp:425] inception_5b/3x3 <- inception_5b/3x3_reduce
I0403 18:00:15.932268 15789 net.cpp:399] inception_5b/3x3 -> inception_5b/3x3
I0403 18:00:15.938833 15789 net.cpp:141] Setting up inception_5b/3x3
I0403 18:00:15.938861 15789 net.cpp:148] Top shape: 24 384 7 7 (451584)
I0403 18:00:15.938877 15789 net.cpp:156] Memory required for data: 1332467232
I0403 18:00:15.938895 15789 layer_factory.hpp:77] Creating layer inception_5b/relu_3x3
I0403 18:00:15.938915 15789 net.cpp:91] Creating Layer inception_5b/relu_3x3
I0403 18:00:15.938932 15789 net.cpp:425] inception_5b/relu_3x3 <- inception_5b/3x3
I0403 18:00:15.938958 15789 net.cpp:386] inception_5b/relu_3x3 -> inception_5b/3x3 (in-place)
I0403 18:00:15.939265 15789 net.cpp:141] Setting up inception_5b/relu_3x3
I0403 18:00:15.939291 15789 net.cpp:148] Top shape: 24 384 7 7 (451584)
I0403 18:00:15.939306 15789 net.cpp:156] Memory required for data: 1334273568
I0403 18:00:15.939321 15789 layer_factory.hpp:77] Creating layer inception_5b/5x5_reduce
I0403 18:00:15.939357 15789 net.cpp:91] Creating Layer inception_5b/5x5_reduce
I0403 18:00:15.939375 15789 net.cpp:425] inception_5b/5x5_reduce <- inception_5a/output_inception_5a/output_0_split_2
I0403 18:00:15.939398 15789 net.cpp:399] inception_5b/5x5_reduce -> inception_5b/5x5_reduce
I0403 18:00:15.940654 15789 net.cpp:141] Setting up inception_5b/5x5_reduce
I0403 18:00:15.940680 15789 net.cpp:148] Top shape: 24 48 7 7 (56448)
I0403 18:00:15.940696 15789 net.cpp:156] Memory required for data: 1334499360
I0403 18:00:15.940713 15789 layer_factory.hpp:77] Creating layer inception_5b/relu_5x5_reduce
I0403 18:00:15.940733 15789 net.cpp:91] Creating Layer inception_5b/relu_5x5_reduce
I0403 18:00:15.940750 15789 net.cpp:425] inception_5b/relu_5x5_reduce <- inception_5b/5x5_reduce
I0403 18:00:15.940768 15789 net.cpp:386] inception_5b/relu_5x5_reduce -> inception_5b/5x5_reduce (in-place)
I0403 18:00:15.941138 15789 net.cpp:141] Setting up inception_5b/relu_5x5_reduce
I0403 18:00:15.941164 15789 net.cpp:148] Top shape: 24 48 7 7 (56448)
I0403 18:00:15.941179 15789 net.cpp:156] Memory required for data: 1334725152
I0403 18:00:15.941193 15789 layer_factory.hpp:77] Creating layer inception_5b/5x5
I0403 18:00:15.941220 15789 net.cpp:91] Creating Layer inception_5b/5x5
I0403 18:00:15.941236 15789 net.cpp:425] inception_5b/5x5 <- inception_5b/5x5_reduce
I0403 18:00:15.941254 15789 net.cpp:399] inception_5b/5x5 -> inception_5b/5x5
I0403 18:00:15.943264 15789 net.cpp:141] Setting up inception_5b/5x5
I0403 18:00:15.943295 15789 net.cpp:148] Top shape: 24 128 7 7 (150528)
I0403 18:00:15.943310 15789 net.cpp:156] Memory required for data: 1335327264
I0403 18:00:15.943330 15789 layer_factory.hpp:77] Creating layer inception_5b/relu_5x5
I0403 18:00:15.943347 15789 net.cpp:91] Creating Layer inception_5b/relu_5x5
I0403 18:00:15.943363 15789 net.cpp:425] inception_5b/relu_5x5 <- inception_5b/5x5
I0403 18:00:15.943379 15789 net.cpp:386] inception_5b/relu_5x5 -> inception_5b/5x5 (in-place)
I0403 18:00:15.943572 15789 net.cpp:141] Setting up inception_5b/relu_5x5
I0403 18:00:15.943599 15789 net.cpp:148] Top shape: 24 128 7 7 (150528)
I0403 18:00:15.943614 15789 net.cpp:156] Memory required for data: 1335929376
I0403 18:00:15.943629 15789 layer_factory.hpp:77] Creating layer inception_5b/pool
I0403 18:00:15.943646 15789 net.cpp:91] Creating Layer inception_5b/pool
I0403 18:00:15.943662 15789 net.cpp:425] inception_5b/pool <- inception_5a/output_inception_5a/output_0_split_3
I0403 18:00:15.943682 15789 net.cpp:399] inception_5b/pool -> inception_5b/pool
I0403 18:00:15.943753 15789 net.cpp:141] Setting up inception_5b/pool
I0403 18:00:15.943778 15789 net.cpp:148] Top shape: 24 832 7 7 (978432)
I0403 18:00:15.943792 15789 net.cpp:156] Memory required for data: 1339843104
I0403 18:00:15.943806 15789 layer_factory.hpp:77] Creating layer inception_5b/pool_proj
I0403 18:00:15.943827 15789 net.cpp:91] Creating Layer inception_5b/pool_proj
I0403 18:00:15.943845 15789 net.cpp:425] inception_5b/pool_proj <- inception_5b/pool
I0403 18:00:15.943862 15789 net.cpp:399] inception_5b/pool_proj -> inception_5b/pool_proj
I0403 18:00:15.946132 15789 net.cpp:141] Setting up inception_5b/pool_proj
I0403 18:00:15.946161 15789 net.cpp:148] Top shape: 24 128 7 7 (150528)
I0403 18:00:15.946177 15789 net.cpp:156] Memory required for data: 1340445216
I0403 18:00:15.946195 15789 layer_factory.hpp:77] Creating layer inception_5b/relu_pool_proj
I0403 18:00:15.946216 15789 net.cpp:91] Creating Layer inception_5b/relu_pool_proj
I0403 18:00:15.946233 15789 net.cpp:425] inception_5b/relu_pool_proj <- inception_5b/pool_proj
I0403 18:00:15.946250 15789 net.cpp:386] inception_5b/relu_pool_proj -> inception_5b/pool_proj (in-place)
I0403 18:00:15.946544 15789 net.cpp:141] Setting up inception_5b/relu_pool_proj
I0403 18:00:15.946570 15789 net.cpp:148] Top shape: 24 128 7 7 (150528)
I0403 18:00:15.946585 15789 net.cpp:156] Memory required for data: 1341047328
I0403 18:00:15.946600 15789 layer_factory.hpp:77] Creating layer inception_5b/output
I0403 18:00:15.946619 15789 net.cpp:91] Creating Layer inception_5b/output
I0403 18:00:15.946650 15789 net.cpp:425] inception_5b/output <- inception_5b/1x1
I0403 18:00:15.946666 15789 net.cpp:425] inception_5b/output <- inception_5b/3x3
I0403 18:00:15.946682 15789 net.cpp:425] inception_5b/output <- inception_5b/5x5
I0403 18:00:15.946698 15789 net.cpp:425] inception_5b/output <- inception_5b/pool_proj
I0403 18:00:15.946714 15789 net.cpp:399] inception_5b/output -> inception_5b/output
I0403 18:00:15.946768 15789 net.cpp:141] Setting up inception_5b/output
I0403 18:00:15.946791 15789 net.cpp:148] Top shape: 24 1024 7 7 (1204224)
I0403 18:00:15.946805 15789 net.cpp:156] Memory required for data: 1345864224
I0403 18:00:15.946820 15789 layer_factory.hpp:77] Creating layer pool5/7x7_s1
I0403 18:00:15.946837 15789 net.cpp:91] Creating Layer pool5/7x7_s1
I0403 18:00:15.946853 15789 net.cpp:425] pool5/7x7_s1 <- inception_5b/output
I0403 18:00:15.946872 15789 net.cpp:399] pool5/7x7_s1 -> pool5/7x7_s1
I0403 18:00:15.947091 15789 net.cpp:141] Setting up pool5/7x7_s1
I0403 18:00:15.947118 15789 net.cpp:148] Top shape: 24 1024 1 1 (24576)
I0403 18:00:15.947131 15789 net.cpp:156] Memory required for data: 1345962528
I0403 18:00:15.947146 15789 layer_factory.hpp:77] Creating layer pool5/drop_7x7_s1
I0403 18:00:15.947165 15789 net.cpp:91] Creating Layer pool5/drop_7x7_s1
I0403 18:00:15.947182 15789 net.cpp:425] pool5/drop_7x7_s1 <- pool5/7x7_s1
I0403 18:00:15.947199 15789 net.cpp:386] pool5/drop_7x7_s1 -> pool5/7x7_s1 (in-place)
I0403 18:00:15.947250 15789 net.cpp:141] Setting up pool5/drop_7x7_s1
I0403 18:00:15.947273 15789 net.cpp:148] Top shape: 24 1024 1 1 (24576)
I0403 18:00:15.947288 15789 net.cpp:156] Memory required for data: 1346060832
I0403 18:00:15.947301 15789 layer_factory.hpp:77] Creating layer loss3/classifier_plantvillage
I0403 18:00:15.947322 15789 net.cpp:91] Creating Layer loss3/classifier_plantvillage
I0403 18:00:15.947340 15789 net.cpp:425] loss3/classifier_plantvillage <- pool5/7x7_s1
I0403 18:00:15.947357 15789 net.cpp:399] loss3/classifier_plantvillage -> loss3/classifier_plantvillage
I0403 18:00:15.947775 15789 net.cpp:141] Setting up loss3/classifier_plantvillage
I0403 18:00:15.947799 15789 net.cpp:148] Top shape: 24 38 (912)
I0403 18:00:15.947813 15789 net.cpp:156] Memory required for data: 1346064480
I0403 18:00:15.947831 15789 layer_factory.hpp:77] Creating layer loss3/classifier_plantvillage_loss3/classifier_plantvillage_0_split
I0403 18:00:15.947849 15789 net.cpp:91] Creating Layer loss3/classifier_plantvillage_loss3/classifier_plantvillage_0_split
I0403 18:00:15.947865 15789 net.cpp:425] loss3/classifier_plantvillage_loss3/classifier_plantvillage_0_split <- loss3/classifier_plantvillage
I0403 18:00:15.947885 15789 net.cpp:399] loss3/classifier_plantvillage_loss3/classifier_plantvillage_0_split -> loss3/classifier_plantvillage_loss3/classifier_plantvillage_0_split_0
I0403 18:00:15.947904 15789 net.cpp:399] loss3/classifier_plantvillage_loss3/classifier_plantvillage_0_split -> loss3/classifier_plantvillage_loss3/classifier_plantvillage_0_split_1
I0403 18:00:15.947923 15789 net.cpp:399] loss3/classifier_plantvillage_loss3/classifier_plantvillage_0_split -> loss3/classifier_plantvillage_loss3/classifier_plantvillage_0_split_2
I0403 18:00:15.947943 15789 net.cpp:399] loss3/classifier_plantvillage_loss3/classifier_plantvillage_0_split -> loss3/classifier_plantvillage_loss3/classifier_plantvillage_0_split_3
I0403 18:00:15.948065 15789 net.cpp:141] Setting up loss3/classifier_plantvillage_loss3/classifier_plantvillage_0_split
I0403 18:00:15.948088 15789 net.cpp:148] Top shape: 24 38 (912)
I0403 18:00:15.948106 15789 net.cpp:148] Top shape: 24 38 (912)
I0403 18:00:15.948120 15789 net.cpp:148] Top shape: 24 38 (912)
I0403 18:00:15.948137 15789 net.cpp:148] Top shape: 24 38 (912)
I0403 18:00:15.948151 15789 net.cpp:156] Memory required for data: 1346079072
I0403 18:00:15.948166 15789 layer_factory.hpp:77] Creating layer loss1/loss
I0403 18:00:15.948187 15789 net.cpp:91] Creating Layer loss1/loss
I0403 18:00:15.948205 15789 net.cpp:425] loss1/loss <- loss1/classifier_plantvillage_loss1/classifier_plantvillage_0_split_0
I0403 18:00:15.948237 15789 net.cpp:425] loss1/loss <- label_data_1_split_0
…
