…
I0403 17:40:38.624686 14593 net.cpp:313] The NetState phase (1) differed from the phase (0) specified by a rule in layer data
I0403 17:40:38.625876 14593 net.cpp:49] Initializing net from parameters: 
state {
  phase: TEST
}
layer {
  name: "data"
  type: "Data"
  top: "data"
  top: "label"
  include {
    phase: TEST
  }
  transform_param {
    mirror: false
    crop_size: 224
    mean_file: "/home/mohanty/data/final_dataset/lmdb/grayscale-60-40/mean.binaryproto"
  }
  data_param {
    source: "/home/mohanty/data/final_dataset/lmdb/grayscale-60-40/test_db"
    batch_size: 24
    backend: LMDB
  }
}
layer {
  name: "conv1/7x7_s2"
  type: "Convolution"
  bottom: "data"
  top: "conv1/7x7_s2"
  param {
    lr_mult: 1
    decay_mult: 1
  }
  param {
    lr_mult: 2
    decay_mult: 0
  }
  convolution_param {
    num_output: 64
    pad: 3
    kernel_size: 7
    stride: 2
    weight_filler {
      type: "xavier"
      std: 0.1
    }
    bias_filler {
      type: "constant"
      value: 0.2
    }
  }
}
layer {
  name: "conv1/relu_7x7"
  type: "ReLU"
  bottom: "conv1/7x7_s2"
  top: "conv1/7x7_s2"
}
layer {
  name: "pool1/3x3_s2"
  type: "Pooling"
  bottom: "conv1/7x7_s2"
  top: "pool1/3x3_s2"
  pooling_param {
    pool: MAX
    kernel_size: 3
    stride: 2
  }
}
layer {
  name: "pool1/norm1"
  type: "LRN"
  bottom: "pool1/3x3_s2"
  top: "pool1/norm1"
  lrn_param {
    local_size: 5
    alpha: 0.0001
    beta: 0.75
  }
}
layer {
  name: "conv2/3x3_reduce"
  type: "Convolution"
  bottom: "pool1/norm1"
  top: "conv2/3x3_reduce"
  param {
    lr_mult: 1
    decay_mult: 1
  }
  param {
    lr_mult: 2
    decay_mult: 0
  }
  convolution_param {
    num_output: 64
    kernel_size: 1
    weight_filler {
      type: "xavier"
      std: 0.1
    }
    bias_filler {
      type: "constant"
      value: 0.2
    }
  }
}
layer {
  name: "conv2/relu_3x3_reduce"
  type: "ReLU"
  bottom: "conv2/3x3_reduce"
  top: "conv2/3x3_reduce"
}
layer {
  name: "conv2/3x3"
  type: "Convolution"
  bottom: "conv2/3x3_reduce"
  top: "conv2/3x3"
  param {
    lr_mult: 1
    decay_mult: 1
  }
  param {
    lr_mult: 2
    decay_mult: 0
  }
  convolution_param {
    num_output: 192
    pad: 1
    kernel_size: 3
    weight_filler {
      type: "xavier"
      std: 0.03
    }
    bias_filler {
      type: "constant"
      value: 0.2
    }
  }
}
layer {
  name: "conv2/relu_3x3"
  type: "ReLU"
  bottom: "conv2/3x3"
  top: "conv2/3x3"
}
layer {
  name: "conv2/norm2"
  type: "LRN"
  bottom: "conv2/3x3"
  top: "conv2/norm2"
  lrn_param {
    local_size: 5
    alpha: 0.0001
    beta: 0.75
  }
}
layer {
  name: "pool2/3x3_s2"
  type: "Pooling"
  bottom: "conv2/norm2"
  top: "pool2/3x3_s2"
  pooling_param {
    pool: MAX
    kernel_size: 3
    stride: 2
  }
}
layer {
  name: "inception_3a/1x1"
  type: "Convolution"
  bottom: "pool2/3x3_s2"
  top: "inception_3a/1x1"
  param {
    lr_mult: 1
    decay_mult: 1
  }
  param {
    lr_mult: 2
    decay_mult: 0
  }
  convolution_param {
    num_output: 64
    kernel_size: 1
    weight_filler {
      type: "xavier"
      std: 0.03
    }
    bias_filler {
      type: "constant"
      value: 0.2
    }
  }
}
layer {
  name: "inception_3a/relu_1x1"
  type: "ReLU"
  bottom: "inception_3a/1x1"
  top: "inception_3a/1x1"
}
layer {
  name: "inception_3a/3x3_reduce"
  type: "Convolution"
  bottom: "pool2/3x3_s2"
  top: "inception_3a/3x3_reduce"
  param {
    lr_mult: 1
    decay_mult: 1
  }
  param {
    lr_mult: 2
    decay_mult: 0
  }
  convolution_param {
    num_output: 96
    kernel_size: 1
    weight_filler {
      type: "xavier"
      std: 0.09
    }
    bias_filler {
      type: "constant"
      value: 0.2
    }
  }
}
layer {
  name: "inception_3a/relu_3x3_reduce"
  type: "ReLU"
  bottom: "inception_3a/3x3_reduce"
  top: "inception_3a/3x3_reduce"
}
layer {
  name: "inception_3a/3x3"
  type: "Convolution"
  bottom: "inception_3a/3x3_reduce"
  top: "inception_3a/3x3"
  param {
    lr_mult: 1
    decay_mult: 1
  }
  param {
    lr_mult: 2
    decay_mult: 0
  }
  convolution_param {
    num_output: 128
    pad: 1
    kernel_size: 3
    weight_filler {
      type: "xavier"
      std: 0.03
    }
    bias_filler {
      type: "constant"
      value: 0.2
    }
  }
}
layer {
  name: "inception_3a/relu_3x3"
  type: "ReLU"
  bottom: "inception_3a/3x3"
  top: "inception_3a/3x3"
}
layer {
  name: "inception_3a/5x5_reduce"
  type: "Convolution"
  bottom: "pool2/3x3_s2"
  top: "inception_3a/5x5_reduce"
  param {
    lr_mult: 1
    decay_mult: 1
  }
  param {
    lr_mult: 2
    decay_mult: 0
  }
  convolution_param {
    num_output: 16
    kernel_size: 1
    weight_filler {
      type: "xavier"
      std: 0.2
    }
    bias_filler {
      type: "constant"
      value: 0.2
    }
  }
}
layer {
  name: "inception_3a/relu_5x5_reduce"
  type: "ReLU"
  bottom: "inception_3a/5x5_reduce"
  top: "inception_3a/5x5_reduce"
}
layer {
  name: "inception_3a/5x5"
  type: "Convolution"
  bottom: "inception_3a/5x5_reduce"
  top: "inception_3a/5x5"
  param {
    lr_mult: 1
    decay_mult: 1
  }
  param {
    lr_mult: 2
    decay_mult: 0
  }
  convolution_param {
    num_output: 32
    pad: 2
    kernel_size: 5
    weight_filler {
      type: "xavier"
      std: 0.03
    }
    bias_filler {
      type: "constant"
      value: 0.2
    }
  }
}
layer {
  name: "inception_3a/relu_5x5"
  type: "ReLU"
  bottom: "inception_3a/5x5"
  top: "inception_3a/5x5"
}
layer {
  name: "inception_3a/pool"
  type: "Pooling"
  bottom: "pool2/3x3_s2"
  top: "inception_3a/pool"
  pooling_param {
    pool: MAX
    kernel_size: 3
    stride: 1
    pad: 1
  }
}
layer {
  name: "inception_3a/pool_proj"
  type: "Convolution"
  bottom: "inception_3a/pool"
  top: "inception_3a/pool_proj"
  param {
    lr_mult: 1
    decay_mult: 1
  }
  param {
    lr_mult: 2
    decay_mult: 0
  }
  convolution_param {
    num_output: 32
    kernel_size: 1
    weight_filler {
      type: "xavier"
      std: 0.1
    }
    bias_filler {
      type: "constant"
      value: 0.2
    }
  }
}
layer {
  name: "inception_3a/relu_pool_proj"
  type: "ReLU"
  bottom: "inception_3a/pool_proj"
  top: "inception_3a/pool_proj"
}
layer {
  name: "inception_3a/output"
  type: "Concat"
  bottom: "inception_3a/1x1"
  bottom: "inception_3a/3x3"
  bottom: "inception_3a/5x5"
  bottom: "inception_3a/pool_proj"
  top: "inception_3a/output"
}
layer {
  name: "inception_3b/1x1"
  type: "Convolution"
  bottom: "inception_3a/output"
  top: "inception_3b/1x1"
  param {
    lr_mult: 1
    decay_mult: 1
  }
  param {
    lr_mult: 2
    decay_mult: 0
  }
  convolution_param {
    num_output: 128
    kernel_size: 1
    weight_filler {
      type: "xavier"
      std: 0.03
    }
    bias_filler {
      type: "constant"
      value: 0.2
    }
  }
}
layer {
  name: "inception_3b/relu_1x1"
  type: "ReLU"
  bottom: "inception_3b/1x1"
  top: "inception_3b/1x1"
}
layer {
  name: "inception_3b/3x3_reduce"
  type: "Convolution"
  bottom: "inception_3a/output"
  top: "inception_3b/3x3_reduce"
  param {
    lr_mult: 1
    decay_mult: 1
  }
  param {
    lr_mult: 2
    decay_mult: 0
  }
  convolution_param {
    num_output: 128
    kernel_size: 1
    weight_filler {
      type: "xavier"
      std: 0.09
    }
    bias_filler {
      type: "constant"
      value: 0.2
    }
  }
}
layer {
  name: "inception_3b/relu_3x3_reduce"
  type: "ReLU"
  bottom: "inception_3b/3x3_reduce"
  top: "inception_3b/3x3_reduce"
}
layer {
  name: "inception_3b/3x3"
  type: "Convolution"
  bottom: "inception_3b/3x3_reduce"
  top: "inception_3b/3x3"
  param {
    lr_mult: 1
    decay_mult: 1
  }
  param {
    lr_mult: 2
    decay_mult: 0
  }
  convolution_param {
    num_output: 192
    pad: 1
    kernel_size: 3
    weight_filler {
      type: "xavier"
      std: 0.03
    }
    bias_filler {
      type: "constant"
      value: 0.2
    }
  }
}
layer {
  name: "inception_3b/relu_3x3"
  type: "ReLU"
  bottom: "inception_3b/3x3"
  top: "inception_3b/3x3"
}
layer {
  name: "inception_3b/5x5_reduce"
  type: "Convolution"
  bottom: "inception_3a/output"
  top: "inception_3b/5x5_reduce"
  param {
    lr_mult: 1
    decay_mult: 1
  }
  param {
    lr_mult: 2
    decay_mult: 0
  }
  convolution_param {
    num_output: 32
    kernel_size: 1
    weight_filler {
      type: "xavier"
      std: 0.2
    }
    bias_filler {
      type: "constant"
      value: 0.2
    }
  }
}
layer {
  name: "inception_3b/relu_5x5_reduce"
  type: "ReLU"
  bottom: "inception_3b/5x5_reduce"
  top: "inception_3b/5x5_reduce"
}
layer {
  name: "inception_3b/5x5"
  type: "Convolution"
  bottom: "inception_3b/5x5_reduce"
  top: "inception_3b/5x5"
  param {
    lr_mult: 1
    decay_mult: 1
  }
  param {
    lr_mult: 2
    decay_mult: 0
  }
  convolution_param {
    num_output: 96
    pad: 2
    kernel_size: 5
    weight_filler {
      type: "xavier"
      std: 0.03
    }
    bias_filler {
      type: "constant"
      value: 0.2
    }
  }
}
layer {
  name: "inception_3b/relu_5x5"
  type: "ReLU"
  bottom: "inception_3b/5x5"
  top: "inception_3b/5x5"
}
layer {
  name: "inception_3b/pool"
  type: "Pooling"
  bottom: "inception_3a/output"
  top: "inception_3b/pool"
  pooling_param {
    pool: MAX
    kernel_size: 3
    stride: 1
    pad: 1
  }
}
layer {
  name: "inception_3b/pool_proj"
  type: "Convolution"
  bottom: "inception_3b/pool"
  top: "inception_3b/pool_proj"
  param {
    lr_mult: 1
    decay_mult: 1
  }
  param {
    lr_mult: 2
    decay_mult: 0
  }
  convolution_param {
    num_output: 64
    kernel_size: 1
    weight_filler {
      type: "xavier"
      std: 0.1
    }
    bias_filler {
      type: "constant"
      value: 0.2
    }
  }
}
layer {
  name: "inception_3b/relu_pool_proj"
  type: "ReLU"
  bottom: "inception_3b/pool_proj"
  top: "inception_3b/pool_proj"
}
layer {
  name: "inception_3b/output"
  type: "Concat"
  bottom: "inception_3b/1x1"
  bottom: "inception_3b/3x3"
  bottom: "inception_3b/5x5"
  bottom: "inception_3b/pool_proj"
  top: "inception_3b/output"
}
layer {
  name: "pool3/3x3_s2"
  type: "Pooling"
  bottom: "inception_3b/output"
  top: "pool3/3x3_s2"
  pooling_param {
    pool: MAX
    kernel_size: 3
    stride: 2
  }
}
layer {
  name: "inception_4a/1x1"
  type: "Convolution"
  bottom: "pool3/3x3_s2"
  top: "inception_4a/1x1"
  param {
    lr_mult: 1
    decay_mult: 1
  }
  param {
    lr_mult: 2
    decay_mult: 0
  }
  convolution_param {
    num_output: 192
    kernel_size: 1
    weight_filler {
      type: "xavier"
      std: 0.03
    }
    bias_filler {
      type: "constant"
      value: 0.2
    }
  }
}
layer {
  name: "inception_4a/relu_1x1"
  type: "ReLU"
  bottom: "inception_4a/1x1"
  top: "inception_4a/1x1"
}
layer {
  name: "inception_4a/3x3_reduce"
  type: "Convolution"
  bottom: "pool3/3x3_s2"
  top: "inception_4a/3x3_reduce"
  param {
    lr_mult: 1
    decay_mult: 1
  }
  param {
    lr_mult: 2
    decay_mult: 0
  }
  convolution_param {
    num_output: 96
    kernel_size: 1
    weight_filler {
      type: "xavier"
      std: 0.09
    }
    bias_filler {
      type: "constant"
      value: 0.2
    }
  }
}
layer {
  name: "inception_4a/relu_3x3_reduce"
  type: "ReLU"
  bottom: "inception_4a/3x3_reduce"
  top: "inception_4a/3x3_reduce"
}
layer {
  name: "inception_4a/3x3"
  type: "Convolution"
  bottom: "inception_4a/3x3_reduce"
  top: "inception_4a/3x3"
  param {
    lr_mult: 1
    decay_mult: 1
  }
  param {
    lr_mult: 2
    decay_mult: 0
  }
  convolution_param {
    num_output: 208
    pad: 1
    kernel_size: 3
    weight_filler {
      type: "xavier"
      std: 0.03
    }
    bias_filler {
      type: "constant"
      value: 0.2
    }
  }
}
layer {
  name: "inception_4a/relu_3x3"
  type: "ReLU"
  bottom: "inception_4a/3x3"
  top: "inception_4a/3x3"
}
layer {
  name: "inception_4a/5x5_reduce"
  type: "Convolution"
  bottom: "pool3/3x3_s2"
  top: "inception_4a/5x5_reduce"
  param {
    lr_mult: 1
    decay_mult: 1
  }
  param {
    lr_mult: 2
    decay_mult: 0
  }
  convolution_param {
    num_output: 16
    kernel_size: 1
    weight_filler {
      type: "xavier"
      std: 0.2
    }
    bias_filler {
      type: "constant"
      value: 0.2
    }
  }
}
layer {
  name: "inception_4a/relu_5x5_reduce"
  type: "ReLU"
  bottom: "inception_4a/5x5_reduce"
  top: "inception_4a/5x5_reduce"
}
layer {
  name: "inception_4a/5x5"
  type: "Convolution"
  bottom: "inception_4a/5x5_reduce"
  top: "inception_4a/5x5"
  param {
    lr_mult: 1
    decay_mult: 1
  }
  param {
    lr_mult: 2
    decay_mult: 0
  }
  convolution_param {
    num_output: 48
    pad: 2
    kernel_size: 5
    weight_filler {
      type: "xavier"
      std: 0.03
    }
    bias_filler {
      type: "constant"
      value: 0.2
    }
  }
}
layer {
  name: "inception_4a/relu_5x5"
  type: "ReLU"
  bottom: "inception_4a/5x5"
  top: "inception_4a/5x5"
}
layer {
  name: "inception_4a/pool"
  type: "Pooling"
  bottom: "pool3/3x3_s2"
  top: "inception_4a/pool"
  pooling_param {
    pool: MAX
    kernel_size: 3
    stride: 1
    pad: 1
  }
}
layer {
  name: "inception_4a/pool_proj"
  type: "Convolution"
  bottom: "inception_4a/pool"
  top: "inception_4a/pool_proj"
  param {
    lr_mult: 1
    decay_mult: 1
  }
  param {
    lr_mult: 2
    decay_mult: 0
  }
  convolution_param {
    num_output: 64
    kernel_size: 1
    weight_filler {
      type: "xavier"
      std: 0.1
    }
    bias_filler {
      type: "constant"
      value: 0.2
    }
  }
}
layer {
  name: "inception_4a/relu_pool_proj"
  type: "ReLU"
  bottom: "inception_4a/pool_proj"
  top: "inception_4a/pool_proj"
}
layer {
  name: "inception_4a/output"
  type: "Concat"
  bottom: "inception_4a/1x1"
  bottom: "inception_4a/3x3"
  bottom: "inception_4a/5x5"
  bottom: "inception_4a/pool_proj"
  top: "inception_4a/output"
}
layer {
  name: "loss1/ave_pool"
  type: "Pooling"
  bottom: "inception_4a/output"
  top: "loss1/ave_pool"
  pooling_param {
    pool: AVE
    kernel_size: 5
    stride: 3
  }
}
layer {
  name: "loss1/conv"
  type: "Convolution"
  bottom: "loss1/ave_pool"
  top: "loss1/conv"
  param {
    lr_mult: 1
    decay_mult: 1
  }
  param {
    lr_mult: 2
    decay_mult: 0
  }
  convolution_param {
    num_output: 128
    kernel_size: 1
    weight_filler {
      type: "xavier"
      std: 0.08
    }
    bias_filler {
      type: "constant"
      value: 0.2
    }
  }
}
layer {
  name: "loss1/relu_conv"
  type: "ReLU"
  bottom: "loss1/conv"
  top: "loss1/conv"
}
layer {
  name: "loss1/fc"
  type: "InnerProduct"
  bottom: "loss1/conv"
  top: "loss1/fc"
  param {
    lr_mult: 1
    decay_mult: 1
  }
  param {
    lr_mult: 2
    decay_mult: 0
  }
  inner_product_param {
    num_output: 1024
    weight_filler {
      type: "xavier"
      std: 0.02
    }
    bias_filler {
      type: "constant"
      value: 0.2
    }
  }
}
layer {
  name: "loss1/relu_fc"
  type: "ReLU"
  bottom: "loss1/fc"
  top: "loss1/fc"
}
layer {
  name: "loss1/drop_fc"
  type: "Dropout"
  bottom: "loss1/fc"
  top: "loss1/fc"
  dropout_param {
    dropout_ratio: 0.7
  }
}
layer {
  name: "loss1/classifier_plantvillage"
  type: "InnerProduct"
  bottom: "loss1/fc"
  top: "loss1/classifier_plantvillage"
  param {
    lr_mult: 1
    decay_mult: 1
  }
  param {
    lr_mult: 2
    decay_mult: 0
  }
  inner_product_param {
    num_output: 38
    weight_filler {
      type: "xavier"
      std: 0.0009765625
    }
    bias_filler {
      type: "constant"
      value: 0
    }
  }
}
layer {
  name: "inception_4b/1x1"
  type: "Convolution"
  bottom: "inception_4a/output"
  top: "inception_4b/1x1"
  param {
    lr_mult: 1
    decay_mult: 1
  }
  param {
    lr_mult: 2
    decay_mult: 0
  }
  convolution_param {
    num_output: 160
    kernel_size: 1
    weight_filler {
      type: "xavier"
      std: 0.03
    }
    bias_filler {
      type: "constant"
      value: 0.2
    }
  }
}
layer {
  name: "inception_4b/relu_1x1"
  type: "ReLU"
  bottom: "inception_4b/1x1"
  top: "inception_4b/1x1"
}
layer {
  name: "inception_4b/3x3_reduce"
  type: "Convolution"
  bottom: "inception_4a/output"
  top: "inception_4b/3x3_reduce"
  param {
    lr_mult: 1
    decay_mult: 1
  }
  param {
    lr_mult: 2
    decay_mult: 0
  }
  convolution_param {
    num_output: 112
    kernel_size: 1
    weight_filler {
      type: "xavier"
      std: 0.09
    }
    bias_filler {
      type: "constant"
      value: 0.2
    }
  }
}
layer {
  name: "inception_4b/relu_3x3_reduce"
  type: "ReLU"
  bottom: "inception_4b/3x3_reduce"
  top: "inception_4b/3x3_reduce"
}
layer {
  name: "inception_4b/3x3"
  type: "Convolution"
  bottom: "inception_4b/3x3_reduce"
  top: "inception_4b/3x3"
  param {
    lr_mult: 1
    decay_mult: 1
  }
  param {
    lr_mult: 2
    decay_mult: 0
  }
  convolution_param {
    num_output: 224
    pad: 1
    kernel_size: 3
    weight_filler {
      type: "xavier"
      std: 0.03
    }
    bias_filler {
      type: "constant"
      value: 0.2
    }
  }
}
layer {
  name: "inception_4b/relu_3x3"
  type: "ReLU"
  bottom: "inception_4b/3x3"
  top: "inception_4b/3x3"
}
layer {
  name: "inception_4b/5x5_reduce"
  type: "Convolution"
  bottom: "inception_4a/output"
  top: "inception_4b/5x5_reduce"
  param {
    lr_mult: 1
    decay_mult: 1
  }
  param {
    lr_mult: 2
    decay_mult: 0
  }
  convolution_param {
    num_output: 24
    kernel_size: 1
    weight_filler {
      type: "xavier"
      std: 0.2
    }
    bias_filler {
      type: "constant"
      value: 0.2
    }
  }
}
layer {
  name: "inception_4b/relu_5x5_reduce"
  type: "ReLU"
  bottom: "inception_4b/5x5_reduce"
  top: "inception_4b/5x5_reduce"
}
layer {
  name: "inception_4b/5x5"
  type: "Convolution"
  bottom: "inception_4b/5x5_reduce"
  top: "inception_4b/5x5"
  param {
    lr_mult: 1
    decay_mult: 1
  }
  param {
    lr_mult: 2
    decay_mult: 0
  }
  convolution_param {
    num_output: 64
    pad: 2
    kernel_size: 5
    weight_filler {
      type: "xavier"
      std: 0.03
    }
    bias_filler {
      type: "constant"
      value: 0.2
    }
  }
}
layer {
  name: "inception_4b/relu_5x5"
  type: "ReLU"
  bottom: "inception_4b/5x5"
  top: "inception_4b/5x5"
}
layer {
  name: "inception_4b/pool"
  type: "Pooling"
  bottom: "inception_4a/output"
  top: "inception_4b/pool"
  pooling_param {
    pool: MAX
    kernel_size: 3
    stride: 1
    pad: 1
  }
}
layer {
  name: "inception_4b/pool_proj"
  type: "Convolution"
  bottom: "inception_4b/pool"
  top: "inception_4b/pool_proj"
  param {
    lr_mult: 1
    decay_mult: 1
  }
  param {
    lr_mult: 2
    decay_mult: 0
  }
  convolution_param {
    num_output: 64
    kernel_size: 1
    weight_filler {
      type: "xavier"
      std: 0.1
    }
    bias_filler {
      type: "constant"
      value: 0.2
    }
  }
}
layer {
  name: "inception_4b/relu_pool_proj"
  type: "ReLU"
  bottom: "inception_4b/pool_proj"
  top: "inception_4b/pool_proj"
}
layer {
  name: "inception_4b/output"
  type: "Concat"
  bottom: "inception_4b/1x1"
  bottom: "inception_4b/3x3"
  bottom: "inception_4b/5x5"
  bottom: "inception_4b/pool_proj"
  top: "inception_4b/output"
}
layer {
  name: "inception_4c/1x1"
  type: "Convolution"
  bottom: "inception_4b/output"
  top: "inception_4c/1x1"
  param {
    lr_mult: 1
    decay_mult: 1
  }
  param {
    lr_mult: 2
    decay_mult: 0
  }
  convolution_param {
    num_output: 128
    kernel_size: 1
    weight_filler {
      type: "xavier"
      std: 0.03
    }
    bias_filler {
      type: "constant"
      value: 0.2
    }
  }
}
layer {
  name: "inception_4c/relu_1x1"
  type: "ReLU"
  bottom: "inception_4c/1x1"
  top: "inception_4c/1x1"
}
layer {
  name: "inception_4c/3x3_reduce"
  type: "Convolution"
  bottom: "inception_4b/output"
  top: "inception_4c/3x3_reduce"
  param {
    lr_mult: 1
    decay_mult: 1
  }
  param {
    lr_mult: 2
    decay_mult: 0
  }
  convolution_param {
    num_output: 128
    kernel_size: 1
    weight_filler {
      type: "xavier"
      std: 0.09
    }
    bias_filler {
      type: "constant"
      value: 0.2
    }
  }
}
layer {
  name: "inception_4c/relu_3x3_reduce"
  type: "ReLU"
  bottom: "inception_4c/3x3_reduce"
  top: "inception_4c/3x3_reduce"
}
layer {
  name: "inception_4c/3x3"
  type: "Convolution"
  bottom: "inception_4c/3x3_reduce"
  top: "inception_4c/3x3"
  param {
    lr_mult: 1
    decay_mult: 1
  }
  param {
    lr_mult: 2
    decay_mult: 0
  }
  convolution_param {
    num_output: 256
    pad: 1
    kernel_size: 3
    weight_filler {
      type: "xavier"
      std: 0.03
    }
    bias_filler {
      type: "constant"
      value: 0.2
    }
  }
}
layer {
  name: "inception_4c/relu_3x3"
  type: "ReLU"
  bottom: "inception_4c/3x3"
  top: "inception_4c/3x3"
}
layer {
  name: "inception_4c/5x5_reduce"
  type: "Convolution"
  bottom: "inception_4b/output"
  top: "inception_4c/5x5_reduce"
  param {
    lr_mult: 1
    decay_mult: 1
  }
  param {
    lr_mult: 2
    decay_mult: 0
  }
  convolution_param {
    num_output: 24
    kernel_size: 1
    weight_filler {
      type: "xavier"
      std: 0.2
    }
    bias_filler {
      type: "constant"
      value: 0.2
    }
  }
}
layer {
  name: "inception_4c/relu_5x5_reduce"
  type: "ReLU"
  bottom: "inception_4c/5x5_reduce"
  top: "inception_4c/5x5_reduce"
}
layer {
  name: "inception_4c/5x5"
  type: "Convolution"
  bottom: "inception_4c/5x5_reduce"
  top: "inception_4c/5x5"
  param {
    lr_mult: 1
    decay_mult: 1
  }
  param {
    lr_mult: 2
    decay_mult: 0
  }
  convolution_param {
    num_output: 64
    pad: 2
    kernel_size: 5
    weight_filler {
      type: "xavier"
      std: 0.03
    }
    bias_filler {
      type: "constant"
      value: 0.2
    }
  }
}
layer {
  name: "inception_4c/relu_5x5"
  type: "ReLU"
  bottom: "inception_4c/5x5"
  top: "inception_4c/5x5"
}
layer {
  name: "inception_4c/pool"
  type: "Pooling"
  bottom: "inception_4b/output"
  top: "inception_4c/pool"
  pooling_param {
    pool: MAX
    kernel_size: 3
    stride: 1
    pad: 1
  }
}
layer {
  name: "inception_4c/pool_proj"
  type: "Convolution"
  bottom: "inception_4c/pool"
  top: "inception_4c/pool_proj"
  param {
    lr_mult: 1
    decay_mult: 1
  }
  param {
    lr_mult: 2
    decay_mult: 0
  }
  convolution_param {
    num_output: 64
    kernel_size: 1
    weight_filler {
      type: "xavier"
      std: 0.1
    }
    bias_filler {
      type: "constant"
      value: 0.2
    }
  }
}
layer {
  name: "inception_4c/relu_pool_proj"
  type: "ReLU"
  bottom: "inception_4c/pool_proj"
  top: "inception_4c/pool_proj"
}
layer {
  name: "inception_4c/output"
  type: "Concat"
  bottom: "inception_4c/1x1"
  bottom: "inception_4c/3x3"
  bottom: "inception_4c/5x5"
  bottom: "inception_4c/pool_proj"
  top: "inception_4c/output"
}
layer {
  name: "inception_4d/1x1"
  type: "Convolution"
  bottom: "inception_4c/output"
  top: "inception_4d/1x1"
  param {
    lr_mult: 1
    decay_mult: 1
  }
  param {
    lr_mult: 2
    decay_mult: 0
  }
  convolution_param {
    num_output: 112
    kernel_size: 1
    weight_filler {
      type: "xavier"
      std: 0.03
    }
    bias_filler {
      type: "constant"
      value: 0.2
    }
  }
}
layer {
  name: "inception_4d/relu_1x1"
  type: "ReLU"
  bottom: "inception_4d/1x1"
  top: "inception_4d/1x1"
}
layer {
  name: "inception_4d/3x3_reduce"
  type: "Convolution"
  bottom: "inception_4c/output"
  top: "inception_4d/3x3_reduce"
  param {
    lr_mult: 1
    decay_mult: 1
  }
  param {
    lr_mult: 2
    decay_mult: 0
  }
  convolution_param {
    num_output: 144
    kernel_size: 1
    weight_filler {
      type: "xavier"
      std: 0.09
    }
    bias_filler {
      type: "constant"
      value: 0.2
    }
  }
}
layer {
  name: "inception_4d/relu_3x3_reduce"
  type: "ReLU"
  bottom: "inception_4d/3x3_reduce"
  top: "inception_4d/3x3_reduce"
}
layer {
  name: "inception_4d/3x3"
  type: "Convolution"
  bottom: "inception_4d/3x3_reduce"
  top: "inception_4d/3x3"
  param {
    lr_mult: 1
    decay_mult: 1
  }
  param {
    lr_mult: 2
    decay_mult: 0
  }
  convolution_param {
    num_output: 288
    pad: 1
    kernel_size: 3
    weight_filler {
      type: "xavier"
      std: 0.03
    }
    bias_filler {
      type: "constant"
      value: 0.2
    }
  }
}
layer {
  name: "inception_4d/relu_3x3"
  type: "ReLU"
  bottom: "inception_4d/3x3"
  top: "inception_4d/3x3"
}
layer {
  name: "inception_4d/5x5_reduce"
  type: "Convolution"
  bottom: "inception_4c/output"
  top: "inception_4d/5x5_reduce"
  param {
    lr_mult: 1
    decay_mult: 1
  }
  param {
    lr_mult: 2
    decay_mult: 0
  }
  convolution_param {
    num_output: 32
    kernel_size: 1
    weight_filler {
      type: "xavier"
      std: 0.2
    }
    bias_filler {
      type: "constant"
      value: 0.2
    }
  }
}
layer {
  name: "inception_4d/relu_5x5_reduce"
  type: "ReLU"
  bottom: "inception_4d/5x5_reduce"
  top: "inception_4d/5x5_reduce"
}
layer {
  name: "inception_4d/5x5"
  type: "Convolution"
  bottom: "inception_4d/5x5_reduce"
  top: "inception_4d/5x5"
  param {
    lr_mult: 1
    decay_mult: 1
  }
  param {
    lr_mult: 2
    decay_mult: 0
  }
  convolution_param {
    num_output: 64
    pad: 2
    kernel_size: 5
    weight_filler {
      type: "xavier"
      std: 0.03
    }
    bias_filler {
      type: "constant"
      value: 0.2
    }
  }
}
layer {
  name: "inception_4d/relu_5x5"
  type: "ReLU"
  bottom: "inception_4d/5x5"
  top: "inception_4d/5x5"
}
layer {
  name: "inception_4d/pool"
  type: "Pooling"
  bottom: "inception_4c/output"
  top: "inception_4d/pool"
  pooling_param {
    pool: MAX
    kernel_size: 3
    stride: 1
    pad: 1
  }
}
layer {
  name: "inception_4d/pool_proj"
  type: "Convolution"
  bottom: "inception_4d/pool"
  top: "inception_4d/pool_proj"
  param {
    lr_mult: 1
    decay_mult: 1
  }
  param {
    lr_mult: 2
    decay_mult: 0
  }
  convolution_param {
    num_output: 64
    kernel_size: 1
    weight_filler {
      type: "xavier"
      std: 0.1
    }
    bias_filler {
      type: "constant"
      value: 0.2
    }
  }
}
layer {
  name: "inception_4d/relu_pool_proj"
  type: "ReLU"
  bottom: "inception_4d/pool_proj"
  top: "inception_4d/pool_proj"
}
layer {
  name: "inception_4d/output"
  type: "Concat"
  bottom: "inception_4d/1x1"
  bottom: "inception_4d/3x3"
  bottom: "inception_4d/5x5"
  bottom: "inception_4d/pool_proj"
  top: "inception_4d/output"
}
layer {
  name: "loss2/ave_pool"
  type: "Pooling"
  bottom: "inception_4d/output"
  top: "loss2/ave_pool"
  pooling_param {
    pool: AVE
    kernel_size: 5
    stride: 3
  }
}
layer {
  name: "loss2/conv"
  type: "Convolution"
  bottom: "loss2/ave_pool"
  top: "loss2/conv"
  param {
    lr_mult: 1
    decay_mult: 1
  }
  param {
    lr_mult: 2
    decay_mult: 0
  }
  convolution_param {
    num_output: 128
    kernel_size: 1
    weight_filler {
      type: "xavier"
      std: 0.08
    }
    bias_filler {
      type: "constant"
      value: 0.2
    }
  }
}
layer {
  name: "loss2/relu_conv"
  type: "ReLU"
  bottom: "loss2/conv"
  top: "loss2/conv"
}
layer {
  name: "loss2/fc"
  type: "InnerProduct"
  bottom: "loss2/conv"
  top: "loss2/fc"
  param {
    lr_mult: 1
    decay_mult: 1
  }
  param {
    lr_mult: 2
    decay_mult: 0
  }
  inner_product_param {
    num_output: 1024
    weight_filler {
      type: "xavier"
      std: 0.02
    }
    bias_filler {
      type: "constant"
      value: 0.2
    }
  }
}
layer {
  name: "loss2/relu_fc"
  type: "ReLU"
  bottom: "loss2/fc"
  top: "loss2/fc"
}
layer {
  name: "loss2/drop_fc"
  type: "Dropout"
  bottom: "loss2/fc"
  top: "loss2/fc"
  dropout_param {
    dropout_ratio: 0.7
  }
}
layer {
  name: "loss2/classifier_plantvillage"
  type: "InnerProduct"
  bottom: "loss2/fc"
  top: "loss2/classifier_plantvillage"
  param {
    lr_mult: 1
    decay_mult: 1
  }
  param {
    lr_mult: 2
    decay_mult: 0
  }
  inner_product_param {
    num_output: 38
    weight_filler {
      type: "xavier"
      std: 0.0009765625
    }
    bias_filler {
      type: "constant"
      value: 0
    }
  }
}
layer {
  name: "inception_4e/1x1"
  type: "Convolution"
  bottom: "inception_4d/output"
  top: "inception_4e/1x1"
  param {
    lr_mult: 1
    decay_mult: 1
  }
  param {
    lr_mult: 2
    decay_mult: 0
  }
  convolution_param {
    num_output: 256
    kernel_size: 1
    weight_filler {
      type: "xavier"
      std: 0.03
    }
    bias_filler {
      type: "constant"
      value: 0.2
    }
  }
}
layer {
  name: "inception_4e/relu_1x1"
  type: "ReLU"
  bottom: "inception_4e/1x1"
  top: "inception_4e/1x1"
}
layer {
  name: "inception_4e/3x3_reduce"
  type: "Convolution"
  bottom: "inception_4d/output"
  top: "inception_4e/3x3_reduce"
  param {
    lr_mult: 1
    decay_mult: 1
  }
  param {
    lr_mult: 2
    decay_mult: 0
  }
  convolution_param {
    num_output: 160
    kernel_size: 1
    weight_filler {
      type: "xavier"
      std: 0.09
    }
    bias_filler {
      type: "constant"
      value: 0.2
    }
  }
}
layer {
  name: "inception_4e/relu_3x3_reduce"
  type: "ReLU"
  bottom: "inception_4e/3x3_reduce"
  top: "inception_4e/3x3_reduce"
}
layer {
  name: "inception_4e/3x3"
  type: "Convolution"
  bottom: "inception_4e/3x3_reduce"
  top: "inception_4e/3x3"
  param {
    lr_mult: 1
    decay_mult: 1
  }
  param {
    lr_mult: 2
    decay_mult: 0
  }
  convolution_param {
    num_output: 320
    pad: 1
    kernel_size: 3
    weight_filler {
      type: "xavier"
      std: 0.03
    }
    bias_filler {
      type: "constant"
      value: 0.2
    }
  }
}
layer {
  name: "inception_4e/relu_3x3"
  type: "ReLU"
  bottom: "inception_4e/3x3"
  top: "inception_4e/3x3"
}
layer {
  name: "inception_4e/5x5_reduce"
  type: "Convolution"
  bottom: "inception_4d/output"
  top: "inception_4e/5x5_reduce"
  param {
    lr_mult: 1
    decay_mult: 1
  }
  param {
    lr_mult: 2
    decay_mult: 0
  }
  convolution_param {
    num_output: 32
    kernel_size: 1
    weight_filler {
      type: "xavier"
      std: 0.2
    }
    bias_filler {
      type: "constant"
      value: 0.2
    }
  }
}
layer {
  name: "inception_4e/relu_5x5_reduce"
  type: "ReLU"
  bottom: "inception_4e/5x5_reduce"
  top: "inception_4e/5x5_reduce"
}
layer {
  name: "inception_4e/5x5"
  type: "Convolution"
  bottom: "inception_4e/5x5_reduce"
  top: "inception_4e/
I0403 17:40:38.627043 14593 layer_factory.hpp:77] Creating layer data
I0403 17:40:38.627619 14593 net.cpp:91] Creating Layer data
I0403 17:40:38.627648 14593 net.cpp:399] data -> data
I0403 17:40:38.627699 14593 net.cpp:399] data -> label
I0403 17:40:38.627734 14593 data_transformer.cpp:25] Loading mean file from: /home/mohanty/data/final_dataset/lmdb/grayscale-60-40/mean.binaryproto
I0403 17:40:38.628890 14596 db_lmdb.cpp:38] Opened lmdb /home/mohanty/data/final_dataset/lmdb/grayscale-60-40/test_db
I0403 17:40:38.640516 14593 data_layer.cpp:41] output data size: 24,3,224,224
I0403 17:40:38.666451 14593 net.cpp:141] Setting up data
I0403 17:40:38.666532 14593 net.cpp:148] Top shape: 24 3 224 224 (3612672)
I0403 17:40:38.666554 14593 net.cpp:148] Top shape: 24 (24)
I0403 17:40:38.666569 14593 net.cpp:156] Memory required for data: 14450784
I0403 17:40:38.666597 14593 layer_factory.hpp:77] Creating layer label_data_1_split
I0403 17:40:38.666622 14593 net.cpp:91] Creating Layer label_data_1_split
I0403 17:40:38.666640 14593 net.cpp:425] label_data_1_split <- label
I0403 17:40:38.666671 14593 net.cpp:399] label_data_1_split -> label_data_1_split_0
I0403 17:40:38.666698 14593 net.cpp:399] label_data_1_split -> label_data_1_split_1
I0403 17:40:38.666719 14593 net.cpp:399] label_data_1_split -> label_data_1_split_2
I0403 17:40:38.666740 14593 net.cpp:399] label_data_1_split -> label_data_1_split_3
I0403 17:40:38.666760 14593 net.cpp:399] label_data_1_split -> label_data_1_split_4
I0403 17:40:38.666781 14593 net.cpp:399] label_data_1_split -> label_data_1_split_5
I0403 17:40:38.666800 14593 net.cpp:399] label_data_1_split -> label_data_1_split_6
I0403 17:40:38.666821 14593 net.cpp:399] label_data_1_split -> label_data_1_split_7
I0403 17:40:38.666841 14593 net.cpp:399] label_data_1_split -> label_data_1_split_8
I0403 17:40:38.666862 14593 net.cpp:399] label_data_1_split -> label_data_1_split_9
I0403 17:40:38.666975 14593 net.cpp:141] Setting up label_data_1_split
I0403 17:40:38.667002 14593 net.cpp:148] Top shape: 24 (24)
I0403 17:40:38.667019 14593 net.cpp:148] Top shape: 24 (24)
I0403 17:40:38.667035 14593 net.cpp:148] Top shape: 24 (24)
I0403 17:40:38.667052 14593 net.cpp:148] Top shape: 24 (24)
I0403 17:40:38.667067 14593 net.cpp:148] Top shape: 24 (24)
I0403 17:40:38.667083 14593 net.cpp:148] Top shape: 24 (24)
I0403 17:40:38.667098 14593 net.cpp:148] Top shape: 24 (24)
I0403 17:40:38.667114 14593 net.cpp:148] Top shape: 24 (24)
I0403 17:40:38.667129 14593 net.cpp:148] Top shape: 24 (24)
I0403 17:40:38.667145 14593 net.cpp:148] Top shape: 24 (24)
I0403 17:40:38.667186 14593 net.cpp:156] Memory required for data: 14451744
I0403 17:40:38.667203 14593 layer_factory.hpp:77] Creating layer conv1/7x7_s2
I0403 17:40:38.667235 14593 net.cpp:91] Creating Layer conv1/7x7_s2
I0403 17:40:38.667253 14593 net.cpp:425] conv1/7x7_s2 <- data
I0403 17:40:38.667273 14593 net.cpp:399] conv1/7x7_s2 -> conv1/7x7_s2
I0403 17:40:38.802584 14593 net.cpp:141] Setting up conv1/7x7_s2
I0403 17:40:38.802671 14593 net.cpp:148] Top shape: 24 64 112 112 (19267584)
I0403 17:40:38.802688 14593 net.cpp:156] Memory required for data: 91522080
I0403 17:40:38.802718 14593 layer_factory.hpp:77] Creating layer conv1/relu_7x7
I0403 17:40:38.802745 14593 net.cpp:91] Creating Layer conv1/relu_7x7
I0403 17:40:38.802763 14593 net.cpp:425] conv1/relu_7x7 <- conv1/7x7_s2
I0403 17:40:38.802783 14593 net.cpp:386] conv1/relu_7x7 -> conv1/7x7_s2 (in-place)
I0403 17:40:38.803138 14593 net.cpp:141] Setting up conv1/relu_7x7
I0403 17:40:38.803169 14593 net.cpp:148] Top shape: 24 64 112 112 (19267584)
I0403 17:40:38.803185 14593 net.cpp:156] Memory required for data: 168592416
I0403 17:40:38.803200 14593 layer_factory.hpp:77] Creating layer pool1/3x3_s2
I0403 17:40:38.803225 14593 net.cpp:91] Creating Layer pool1/3x3_s2
I0403 17:40:38.803242 14593 net.cpp:425] pool1/3x3_s2 <- conv1/7x7_s2
I0403 17:40:38.803264 14593 net.cpp:399] pool1/3x3_s2 -> pool1/3x3_s2
I0403 17:40:38.803340 14593 net.cpp:141] Setting up pool1/3x3_s2
I0403 17:40:38.803367 14593 net.cpp:148] Top shape: 24 64 56 56 (4816896)
I0403 17:40:38.803382 14593 net.cpp:156] Memory required for data: 187860000
I0403 17:40:38.803398 14593 layer_factory.hpp:77] Creating layer pool1/norm1
I0403 17:40:38.803422 14593 net.cpp:91] Creating Layer pool1/norm1
I0403 17:40:38.803441 14593 net.cpp:425] pool1/norm1 <- pool1/3x3_s2
I0403 17:40:38.803460 14593 net.cpp:399] pool1/norm1 -> pool1/norm1
I0403 17:40:38.803769 14593 net.cpp:141] Setting up pool1/norm1
I0403 17:40:38.803797 14593 net.cpp:148] Top shape: 24 64 56 56 (4816896)
I0403 17:40:38.803812 14593 net.cpp:156] Memory required for data: 207127584
I0403 17:40:38.803828 14593 layer_factory.hpp:77] Creating layer conv2/3x3_reduce
I0403 17:40:38.803854 14593 net.cpp:91] Creating Layer conv2/3x3_reduce
I0403 17:40:38.803872 14593 net.cpp:425] conv2/3x3_reduce <- pool1/norm1
I0403 17:40:38.803894 14593 net.cpp:399] conv2/3x3_reduce -> conv2/3x3_reduce
I0403 17:40:38.805311 14593 net.cpp:141] Setting up conv2/3x3_reduce
I0403 17:40:38.805341 14593 net.cpp:148] Top shape: 24 64 56 56 (4816896)
I0403 17:40:38.805356 14593 net.cpp:156] Memory required for data: 226395168
I0403 17:40:38.805377 14593 layer_factory.hpp:77] Creating layer conv2/relu_3x3_reduce
I0403 17:40:38.805399 14593 net.cpp:91] Creating Layer conv2/relu_3x3_reduce
I0403 17:40:38.805415 14593 net.cpp:425] conv2/relu_3x3_reduce <- conv2/3x3_reduce
I0403 17:40:38.805433 14593 net.cpp:386] conv2/relu_3x3_reduce -> conv2/3x3_reduce (in-place)
I0403 17:40:38.805704 14593 net.cpp:141] Setting up conv2/relu_3x3_reduce
I0403 17:40:38.805732 14593 net.cpp:148] Top shape: 24 64 56 56 (4816896)
I0403 17:40:38.805747 14593 net.cpp:156] Memory required for data: 245662752
I0403 17:40:38.805762 14593 layer_factory.hpp:77] Creating layer conv2/3x3
I0403 17:40:38.805788 14593 net.cpp:91] Creating Layer conv2/3x3
I0403 17:40:38.805806 14593 net.cpp:425] conv2/3x3 <- conv2/3x3_reduce
I0403 17:40:38.805825 14593 net.cpp:399] conv2/3x3 -> conv2/3x3
I0403 17:40:38.808140 14593 net.cpp:141] Setting up conv2/3x3
I0403 17:40:38.808169 14593 net.cpp:148] Top shape: 24 192 56 56 (14450688)
I0403 17:40:38.808187 14593 net.cpp:156] Memory required for data: 303465504
I0403 17:40:38.808208 14593 layer_factory.hpp:77] Creating layer conv2/relu_3x3
I0403 17:40:38.808259 14593 net.cpp:91] Creating Layer conv2/relu_3x3
I0403 17:40:38.808280 14593 net.cpp:425] conv2/relu_3x3 <- conv2/3x3
I0403 17:40:38.808300 14593 net.cpp:386] conv2/relu_3x3 -> conv2/3x3 (in-place)
I0403 17:40:38.808480 14593 net.cpp:141] Setting up conv2/relu_3x3
I0403 17:40:38.808506 14593 net.cpp:148] Top shape: 24 192 56 56 (14450688)
I0403 17:40:38.808552 14593 net.cpp:156] Memory required for data: 361268256
I0403 17:40:38.808568 14593 layer_factory.hpp:77] Creating layer conv2/norm2
I0403 17:40:38.808588 14593 net.cpp:91] Creating Layer conv2/norm2
I0403 17:40:38.808605 14593 net.cpp:425] conv2/norm2 <- conv2/3x3
I0403 17:40:38.808624 14593 net.cpp:399] conv2/norm2 -> conv2/norm2
I0403 17:40:38.808925 14593 net.cpp:141] Setting up conv2/norm2
I0403 17:40:38.808953 14593 net.cpp:148] Top shape: 24 192 56 56 (14450688)
I0403 17:40:38.808969 14593 net.cpp:156] Memory required for data: 419071008
I0403 17:40:38.808995 14593 layer_factory.hpp:77] Creating layer pool2/3x3_s2
I0403 17:40:38.809017 14593 net.cpp:91] Creating Layer pool2/3x3_s2
I0403 17:40:38.809033 14593 net.cpp:425] pool2/3x3_s2 <- conv2/norm2
I0403 17:40:38.809051 14593 net.cpp:399] pool2/3x3_s2 -> pool2/3x3_s2
I0403 17:40:38.809106 14593 net.cpp:141] Setting up pool2/3x3_s2
I0403 17:40:38.809129 14593 net.cpp:148] Top shape: 24 192 28 28 (3612672)
I0403 17:40:38.809144 14593 net.cpp:156] Memory required for data: 433521696
I0403 17:40:38.809159 14593 layer_factory.hpp:77] Creating layer pool2/3x3_s2_pool2/3x3_s2_0_split
I0403 17:40:38.809177 14593 net.cpp:91] Creating Layer pool2/3x3_s2_pool2/3x3_s2_0_split
I0403 17:40:38.809192 14593 net.cpp:425] pool2/3x3_s2_pool2/3x3_s2_0_split <- pool2/3x3_s2
I0403 17:40:38.809212 14593 net.cpp:399] pool2/3x3_s2_pool2/3x3_s2_0_split -> pool2/3x3_s2_pool2/3x3_s2_0_split_0
I0403 17:40:38.809232 14593 net.cpp:399] pool2/3x3_s2_pool2/3x3_s2_0_split -> pool2/3x3_s2_pool2/3x3_s2_0_split_1
I0403 17:40:38.809252 14593 net.cpp:399] pool2/3x3_s2_pool2/3x3_s2_0_split -> pool2/3x3_s2_pool2/3x3_s2_0_split_2
I0403 17:40:38.809273 14593 net.cpp:399] pool2/3x3_s2_pool2/3x3_s2_0_split -> pool2/3x3_s2_pool2/3x3_s2_0_split_3
I0403 17:40:38.809345 14593 net.cpp:141] Setting up pool2/3x3_s2_pool2/3x3_s2_0_split
I0403 17:40:38.809368 14593 net.cpp:148] Top shape: 24 192 28 28 (3612672)
I0403 17:40:38.809386 14593 net.cpp:148] Top shape: 24 192 28 28 (3612672)
I0403 17:40:38.809401 14593 net.cpp:148] Top shape: 24 192 28 28 (3612672)
I0403 17:40:38.809417 14593 net.cpp:148] Top shape: 24 192 28 28 (3612672)
I0403 17:40:38.809430 14593 net.cpp:156] Memory required for data: 491324448
I0403 17:40:38.809444 14593 layer_factory.hpp:77] Creating layer inception_3a/1x1
I0403 17:40:38.809466 14593 net.cpp:91] Creating Layer inception_3a/1x1
I0403 17:40:38.809484 14593 net.cpp:425] inception_3a/1x1 <- pool2/3x3_s2_pool2/3x3_s2_0_split_0
I0403 17:40:38.809502 14593 net.cpp:399] inception_3a/1x1 -> inception_3a/1x1
I0403 17:40:38.811014 14593 net.cpp:141] Setting up inception_3a/1x1
I0403 17:40:38.811043 14593 net.cpp:148] Top shape: 24 64 28 28 (1204224)
I0403 17:40:38.811060 14593 net.cpp:156] Memory required for data: 496141344
I0403 17:40:38.811079 14593 layer_factory.hpp:77] Creating layer inception_3a/relu_1x1
I0403 17:40:38.811100 14593 net.cpp:91] Creating Layer inception_3a/relu_1x1
I0403 17:40:38.811115 14593 net.cpp:425] inception_3a/relu_1x1 <- inception_3a/1x1
I0403 17:40:38.811133 14593 net.cpp:386] inception_3a/relu_1x1 -> inception_3a/1x1 (in-place)
I0403 17:40:38.811308 14593 net.cpp:141] Setting up inception_3a/relu_1x1
I0403 17:40:38.811336 14593 net.cpp:148] Top shape: 24 64 28 28 (1204224)
I0403 17:40:38.811352 14593 net.cpp:156] Memory required for data: 500958240
I0403 17:40:38.811367 14593 layer_factory.hpp:77] Creating layer inception_3a/3x3_reduce
I0403 17:40:38.811389 14593 net.cpp:91] Creating Layer inception_3a/3x3_reduce
I0403 17:40:38.811406 14593 net.cpp:425] inception_3a/3x3_reduce <- pool2/3x3_s2_pool2/3x3_s2_0_split_1
I0403 17:40:38.811426 14593 net.cpp:399] inception_3a/3x3_reduce -> inception_3a/3x3_reduce
I0403 17:40:38.813102 14593 net.cpp:141] Setting up inception_3a/3x3_reduce
I0403 17:40:38.813132 14593 net.cpp:148] Top shape: 24 96 28 28 (1806336)
I0403 17:40:38.813148 14593 net.cpp:156] Memory required for data: 508183584
I0403 17:40:38.813169 14593 layer_factory.hpp:77] Creating layer inception_3a/relu_3x3_reduce
I0403 17:40:38.813206 14593 net.cpp:91] Creating Layer inception_3a/relu_3x3_reduce
I0403 17:40:38.813225 14593 net.cpp:425] inception_3a/relu_3x3_reduce <- inception_3a/3x3_reduce
I0403 17:40:38.813244 14593 net.cpp:386] inception_3a/relu_3x3_reduce -> inception_3a/3x3_reduce (in-place)
I0403 17:40:38.813427 14593 net.cpp:141] Setting up inception_3a/relu_3x3_reduce
I0403 17:40:38.813452 14593 net.cpp:148] Top shape: 24 96 28 28 (1806336)
I0403 17:40:38.813467 14593 net.cpp:156] Memory required for data: 515408928
I0403 17:40:38.813482 14593 layer_factory.hpp:77] Creating layer inception_3a/3x3
I0403 17:40:38.813505 14593 net.cpp:91] Creating Layer inception_3a/3x3
I0403 17:40:38.813522 14593 net.cpp:425] inception_3a/3x3 <- inception_3a/3x3_reduce
I0403 17:40:38.813545 14593 net.cpp:399] inception_3a/3x3 -> inception_3a/3x3
I0403 17:40:38.815177 14593 net.cpp:141] Setting up inception_3a/3x3
I0403 17:40:38.815208 14593 net.cpp:148] Top shape: 24 128 28 28 (2408448)
I0403 17:40:38.815224 14593 net.cpp:156] Memory required for data: 525042720
I0403 17:40:38.815243 14593 layer_factory.hpp:77] Creating layer inception_3a/relu_3x3
I0403 17:40:38.815261 14593 net.cpp:91] Creating Layer inception_3a/relu_3x3
I0403 17:40:38.815277 14593 net.cpp:425] inception_3a/relu_3x3 <- inception_3a/3x3
I0403 17:40:38.815295 14593 net.cpp:386] inception_3a/relu_3x3 -> inception_3a/3x3 (in-place)
I0403 17:40:38.815567 14593 net.cpp:141] Setting up inception_3a/relu_3x3
I0403 17:40:38.815595 14593 net.cpp:148] Top shape: 24 128 28 28 (2408448)
I0403 17:40:38.815611 14593 net.cpp:156] Memory required for data: 534676512
I0403 17:40:38.815626 14593 layer_factory.hpp:77] Creating layer inception_3a/5x5_reduce
I0403 17:40:38.815651 14593 net.cpp:91] Creating Layer inception_3a/5x5_reduce
I0403 17:40:38.815668 14593 net.cpp:425] inception_3a/5x5_reduce <- pool2/3x3_s2_pool2/3x3_s2_0_split_2
I0403 17:40:38.815687 14593 net.cpp:399] inception_3a/5x5_reduce -> inception_3a/5x5_reduce
I0403 17:40:38.816642 14593 net.cpp:141] Setting up inception_3a/5x5_reduce
I0403 17:40:38.816670 14593 net.cpp:148] Top shape: 24 16 28 28 (301056)
I0403 17:40:38.816686 14593 net.cpp:156] Memory required for data: 535880736
I0403 17:40:38.816705 14593 layer_factory.hpp:77] Creating layer inception_3a/relu_5x5_reduce
I0403 17:40:38.816722 14593 net.cpp:91] Creating Layer inception_3a/relu_5x5_reduce
I0403 17:40:38.816740 14593 net.cpp:425] inception_3a/relu_5x5_reduce <- inception_3a/5x5_reduce
I0403 17:40:38.816758 14593 net.cpp:386] inception_3a/relu_5x5_reduce -> inception_3a/5x5_reduce (in-place)
I0403 17:40:38.817059 14593 net.cpp:141] Setting up inception_3a/relu_5x5_reduce
I0403 17:40:38.817085 14593 net.cpp:148] Top shape: 24 16 28 28 (301056)
I0403 17:40:38.817101 14593 net.cpp:156] Memory required for data: 537084960
I0403 17:40:38.817116 14593 layer_factory.hpp:77] Creating layer inception_3a/5x5
I0403 17:40:38.817138 14593 net.cpp:91] Creating Layer inception_3a/5x5
I0403 17:40:38.817157 14593 net.cpp:425] inception_3a/5x5 <- inception_3a/5x5_reduce
I0403 17:40:38.817178 14593 net.cpp:399] inception_3a/5x5 -> inception_3a/5x5
I0403 17:40:38.818182 14593 net.cpp:141] Setting up inception_3a/5x5
I0403 17:40:38.818212 14593 net.cpp:148] Top shape: 24 32 28 28 (602112)
I0403 17:40:38.818228 14593 net.cpp:156] Memory required for data: 539493408
I0403 17:40:38.818248 14593 layer_factory.hpp:77] Creating layer inception_3a/relu_5x5
I0403 17:40:38.818265 14593 net.cpp:91] Creating Layer inception_3a/relu_5x5
I0403 17:40:38.818281 14593 net.cpp:425] inception_3a/relu_5x5 <- inception_3a/5x5
I0403 17:40:38.818300 14593 net.cpp:386] inception_3a/relu_5x5 -> inception_3a/5x5 (in-place)
I0403 17:40:38.818471 14593 net.cpp:141] Setting up inception_3a/relu_5x5
I0403 17:40:38.818498 14593 net.cpp:148] Top shape: 24 32 28 28 (602112)
I0403 17:40:38.818514 14593 net.cpp:156] Memory required for data: 541901856
I0403 17:40:38.818529 14593 layer_factory.hpp:77] Creating layer inception_3a/pool
I0403 17:40:38.818547 14593 net.cpp:91] Creating Layer inception_3a/pool
I0403 17:40:38.818578 14593 net.cpp:425] inception_3a/pool <- pool2/3x3_s2_pool2/3x3_s2_0_split_3
I0403 17:40:38.818600 14593 net.cpp:399] inception_3a/pool -> inception_3a/pool
I0403 17:40:38.818658 14593 net.cpp:141] Setting up inception_3a/pool
I0403 17:40:38.818684 14593 net.cpp:148] Top shape: 24 192 28 28 (3612672)
I0403 17:40:38.818699 14593 net.cpp:156] Memory required for data: 556352544
I0403 17:40:38.818714 14593 layer_factory.hpp:77] Creating layer inception_3a/pool_proj
I0403 17:40:38.818737 14593 net.cpp:91] Creating Layer inception_3a/pool_proj
I0403 17:40:38.818754 14593 net.cpp:425] inception_3a/pool_proj <- inception_3a/pool
I0403 17:40:38.818773 14593 net.cpp:399] inception_3a/pool_proj -> inception_3a/pool_proj
I0403 17:40:38.819774 14593 net.cpp:141] Setting up inception_3a/pool_proj
I0403 17:40:38.819802 14593 net.cpp:148] Top shape: 24 32 28 28 (602112)
I0403 17:40:38.819818 14593 net.cpp:156] Memory required for data: 558760992
I0403 17:40:38.819844 14593 layer_factory.hpp:77] Creating layer inception_3a/relu_pool_proj
I0403 17:40:38.819864 14593 net.cpp:91] Creating Layer inception_3a/relu_pool_proj
I0403 17:40:38.819880 14593 net.cpp:425] inception_3a/relu_pool_proj <- inception_3a/pool_proj
I0403 17:40:38.819898 14593 net.cpp:386] inception_3a/relu_pool_proj -> inception_3a/pool_proj (in-place)
I0403 17:40:38.820180 14593 net.cpp:141] Setting up inception_3a/relu_pool_proj
I0403 17:40:38.820209 14593 net.cpp:148] Top shape: 24 32 28 28 (602112)
I0403 17:40:38.820225 14593 net.cpp:156] Memory required for data: 561169440
I0403 17:40:38.820240 14593 layer_factory.hpp:77] Creating layer inception_3a/output
I0403 17:40:38.820258 14593 net.cpp:91] Creating Layer inception_3a/output
I0403 17:40:38.820274 14593 net.cpp:425] inception_3a/output <- inception_3a/1x1
I0403 17:40:38.820291 14593 net.cpp:425] inception_3a/output <- inception_3a/3x3
I0403 17:40:38.820307 14593 net.cpp:425] inception_3a/output <- inception_3a/5x5
I0403 17:40:38.820322 14593 net.cpp:425] inception_3a/output <- inception_3a/pool_proj
I0403 17:40:38.820339 14593 net.cpp:399] inception_3a/output -> inception_3a/output
I0403 17:40:38.820386 14593 net.cpp:141] Setting up inception_3a/output
I0403 17:40:38.820410 14593 net.cpp:148] Top shape: 24 256 28 28 (4816896)
I0403 17:40:38.820425 14593 net.cpp:156] Memory required for data: 580437024
I0403 17:40:38.820439 14593 layer_factory.hpp:77] Creating layer inception_3a/output_inception_3a/output_0_split
I0403 17:40:38.820458 14593 net.cpp:91] Creating Layer inception_3a/output_inception_3a/output_0_split
I0403 17:40:38.820474 14593 net.cpp:425] inception_3a/output_inception_3a/output_0_split <- inception_3a/output
I0403 17:40:38.820492 14593 net.cpp:399] inception_3a/output_inception_3a/output_0_split -> inception_3a/output_inception_3a/output_0_split_0
I0403 17:40:38.820511 14593 net.cpp:399] inception_3a/output_inception_3a/output_0_split -> inception_3a/output_inception_3a/output_0_split_1
I0403 17:40:38.820538 14593 net.cpp:399] inception_3a/output_inception_3a/output_0_split -> inception_3a/output_inception_3a/output_0_split_2
I0403 17:40:38.820559 14593 net.cpp:399] inception_3a/output_inception_3a/output_0_split -> inception_3a/output_inception_3a/output_0_split_3
I0403 17:40:38.820632 14593 net.cpp:141] Setting up inception_3a/output_inception_3a/output_0_split
I0403 17:40:38.820655 14593 net.cpp:148] Top shape: 24 256 28 28 (4816896)
I0403 17:40:38.820672 14593 net.cpp:148] Top shape: 24 256 28 28 (4816896)
I0403 17:40:38.820688 14593 net.cpp:148] Top shape: 24 256 28 28 (4816896)
I0403 17:40:38.820704 14593 net.cpp:148] Top shape: 24 256 28 28 (4816896)
I0403 17:40:38.820719 14593 net.cpp:156] Memory required for data: 657507360
I0403 17:40:38.820734 14593 layer_factory.hpp:77] Creating layer inception_3b/1x1
I0403 17:40:38.820757 14593 net.cpp:91] Creating Layer inception_3b/1x1
I0403 17:40:38.820775 14593 net.cpp:425] inception_3b/1x1 <- inception_3a/output_inception_3a/output_0_split_0
I0403 17:40:38.820793 14593 net.cpp:399] inception_3b/1x1 -> inception_3b/1x1
I0403 17:40:38.821933 14593 net.cpp:141] Setting up inception_3b/1x1
I0403 17:40:38.821971 14593 net.cpp:148] Top shape: 24 128 28 28 (2408448)
I0403 17:40:38.821993 14593 net.cpp:156] Memory required for data: 667141152
I0403 17:40:38.822012 14593 layer_factory.hpp:77] Creating layer inception_3b/relu_1x1
I0403 17:40:38.822033 14593 net.cpp:91] Creating Layer inception_3b/relu_1x1
I0403 17:40:38.822051 14593 net.cpp:425] inception_3b/relu_1x1 <- inception_3b/1x1
I0403 17:40:38.822067 14593 net.cpp:386] inception_3b/relu_1x1 -> inception_3b/1x1 (in-place)
I0403 17:40:38.822245 14593 net.cpp:141] Setting up inception_3b/relu_1x1
I0403 17:40:38.822273 14593 net.cpp:148] Top shape: 24 128 28 28 (2408448)
I0403 17:40:38.822289 14593 net.cpp:156] Memory required for data: 676774944
I0403 17:40:38.822304 14593 layer_factory.hpp:77] Creating layer inception_3b/3x3_reduce
I0403 17:40:38.822325 14593 net.cpp:91] Creating Layer inception_3b/3x3_reduce
I0403 17:40:38.822342 14593 net.cpp:425] inception_3b/3x3_reduce <- inception_3a/output_inception_3a/output_0_split_1
I0403 17:40:38.822361 14593 net.cpp:399] inception_3b/3x3_reduce -> inception_3b/3x3_reduce
I0403 17:40:38.823487 14593 net.cpp:141] Setting up inception_3b/3x3_reduce
I0403 17:40:38.823515 14593 net.cpp:148] Top shape: 24 128 28 28 (2408448)
I0403 17:40:38.823531 14593 net.cpp:156] Memory required for data: 686408736
I0403 17:40:38.823550 14593 layer_factory.hpp:77] Creating layer inception_3b/relu_3x3_reduce
I0403 17:40:38.823570 14593 net.cpp:91] Creating Layer inception_3b/relu_3x3_reduce
I0403 17:40:38.823586 14593 net.cpp:425] inception_3b/relu_3x3_reduce <- inception_3b/3x3_reduce
I0403 17:40:38.823604 14593 net.cpp:386] inception_3b/relu_3x3_reduce -> inception_3b/3x3_reduce (in-place)
I0403 17:40:38.823777 14593 net.cpp:141] Setting up inception_3b/relu_3x3_reduce
I0403 17:40:38.823806 14593 net.cpp:148] Top shape: 24 128 28 28 (2408448)
I0403 17:40:38.823820 14593 net.cpp:156] Memory required for data: 696042528
I0403 17:40:38.823835 14593 layer_factory.hpp:77] Creating layer inception_3b/3x3
I0403 17:40:38.823860 14593 net.cpp:91] Creating Layer inception_3b/3x3
I0403 17:40:38.823879 14593 net.cpp:425] inception_3b/3x3 <- inception_3b/3x3_reduce
I0403 17:40:38.823900 14593 net.cpp:399] inception_3b/3x3 -> inception_3b/3x3
I0403 17:40:38.826900 14593 net.cpp:141] Setting up inception_3b/3x3
I0403 17:40:38.826932 14593 net.cpp:148] Top shape: 24 192 28 28 (3612672)
I0403 17:40:38.826949 14593 net.cpp:156] Memory required for data: 710493216
I0403 17:40:38.826969 14593 layer_factory.hpp:77] Creating layer inception_3b/relu_3x3
I0403 17:40:38.826992 14593 net.cpp:91] Creating Layer inception_3b/relu_3x3
I0403 17:40:38.827010 14593 net.cpp:425] inception_3b/relu_3x3 <- inception_3b/3x3
I0403 17:40:38.827028 14593 net.cpp:386] inception_3b/relu_3x3 -> inception_3b/3x3 (in-place)
I0403 17:40:38.827313 14593 net.cpp:141] Setting up inception_3b/relu_3x3
I0403 17:40:38.827343 14593 net.cpp:148] Top shape: 24 192 28 28 (3612672)
I0403 17:40:38.827360 14593 net.cpp:156] Memory required for data: 724943904
I0403 17:40:38.827375 14593 layer_factory.hpp:77] Creating layer inception_3b/5x5_reduce
I0403 17:40:38.827399 14593 net.cpp:91] Creating Layer inception_3b/5x5_reduce
I0403 17:40:38.827417 14593 net.cpp:425] inception_3b/5x5_reduce <- inception_3a/output_inception_3a/output_0_split_2
I0403 17:40:38.827436 14593 net.cpp:399] inception_3b/5x5_reduce -> inception_3b/5x5_reduce
I0403 17:40:38.828447 14593 net.cpp:141] Setting up inception_3b/5x5_reduce
I0403 17:40:38.828479 14593 net.cpp:148] Top shape: 24 32 28 28 (602112)
I0403 17:40:38.828495 14593 net.cpp:156] Memory required for data: 727352352
I0403 17:40:38.828515 14593 layer_factory.hpp:77] Creating layer inception_3b/relu_5x5_reduce
I0403 17:40:38.828532 14593 net.cpp:91] Creating Layer inception_3b/relu_5x5_reduce
I0403 17:40:38.828548 14593 net.cpp:425] inception_3b/relu_5x5_reduce <- inception_3b/5x5_reduce
I0403 17:40:38.828565 14593 net.cpp:386] inception_3b/relu_5x5_reduce -> inception_3b/5x5_reduce (in-place)
I0403 17:40:38.828765 14593 net.cpp:141] Setting up inception_3b/relu_5x5_reduce
I0403 17:40:38.828791 14593 net.cpp:148] Top shape: 24 32 28 28 (602112)
I0403 17:40:38.828807 14593 net.cpp:156] Memory required for data: 729760800
I0403 17:40:38.828824 14593 layer_factory.hpp:77] Creating layer inception_3b/5x5
I0403 17:40:38.828845 14593 net.cpp:91] Creating Layer inception_3b/5x5
I0403 17:40:38.828863 14593 net.cpp:425] inception_3b/5x5 <- inception_3b/5x5_reduce
I0403 17:40:38.828886 14593 net.cpp:399] inception_3b/5x5 -> inception_3b/5x5
I0403 17:40:38.830901 14593 net.cpp:141] Setting up inception_3b/5x5
I0403 17:40:38.830931 14593 net.cpp:148] Top shape: 24 96 28 28 (1806336)
I0403 17:40:38.830947 14593 net.cpp:156] Memory required for data: 736986144
I0403 17:40:38.830966 14593 layer_factory.hpp:77] Creating layer inception_3b/relu_5x5
I0403 17:40:38.830991 14593 net.cpp:91] Creating Layer inception_3b/relu_5x5
I0403 17:40:38.831010 14593 net.cpp:425] inception_3b/relu_5x5 <- inception_3b/5x5
I0403 17:40:38.831028 14593 net.cpp:386] inception_3b/relu_5x5 -> inception_3b/5x5 (in-place)
I0403 17:40:38.831225 14593 net.cpp:141] Setting up inception_3b/relu_5x5
I0403 17:40:38.831253 14593 net.cpp:148] Top shape: 24 96 28 28 (1806336)
I0403 17:40:38.831269 14593 net.cpp:156] Memory required for data: 744211488
I0403 17:40:38.831284 14593 layer_factory.hpp:77] Creating layer inception_3b/pool
I0403 17:40:38.831302 14593 net.cpp:91] Creating Layer inception_3b/pool
I0403 17:40:38.831318 14593 net.cpp:425] inception_3b/pool <- inception_3a/output_inception_3a/output_0_split_3
I0403 17:40:38.831337 14593 net.cpp:399] inception_3b/pool -> inception_3b/pool
I0403 17:40:38.831394 14593 net.cpp:141] Setting up inception_3b/pool
I0403 17:40:38.831418 14593 net.cpp:148] Top shape: 24 256 28 28 (4816896)
I0403 17:40:38.831434 14593 net.cpp:156] Memory required for data: 763479072
I0403 17:40:38.831449 14593 layer_factory.hpp:77] Creating layer inception_3b/pool_proj
I0403 17:40:38.831472 14593 net.cpp:91] Creating Layer inception_3b/pool_proj
I0403 17:40:38.831490 14593 net.cpp:425] inception_3b/pool_proj <- inception_3b/pool
I0403 17:40:38.831511 14593 net.cpp:399] inception_3b/pool_proj -> inception_3b/pool_proj
I0403 17:40:38.832592 14593 net.cpp:141] Setting up inception_3b/pool_proj
I0403 17:40:38.832622 14593 net.cpp:148] Top shape: 24 64 28 28 (1204224)
I0403 17:40:38.832638 14593 net.cpp:156] Memory required for data: 768295968
I0403 17:40:38.832658 14593 layer_factory.hpp:77] Creating layer inception_3b/relu_pool_proj
I0403 17:40:38.832675 14593 net.cpp:91] Creating Layer inception_3b/relu_pool_proj
I0403 17:40:38.832695 14593 net.cpp:425] inception_3b/relu_pool_proj <- inception_3b/pool_proj
I0403 17:40:38.832715 14593 net.cpp:386] inception_3b/relu_pool_proj -> inception_3b/pool_proj (in-place)
I0403 17:40:38.833120 14593 net.cpp:141] Setting up inception_3b/relu_pool_proj
I0403 17:40:38.833148 14593 net.cpp:148] Top shape: 24 64 28 28 (1204224)
I0403 17:40:38.833163 14593 net.cpp:156] Memory required for data: 773112864
I0403 17:40:38.833178 14593 layer_factory.hpp:77] Creating layer inception_3b/output
I0403 17:40:38.833196 14593 net.cpp:91] Creating Layer inception_3b/output
I0403 17:40:38.833221 14593 net.cpp:425] inception_3b/output <- inception_3b/1x1
I0403 17:40:38.833238 14593 net.cpp:425] inception_3b/output <- inception_3b/3x3
I0403 17:40:38.833256 14593 net.cpp:425] inception_3b/output <- inception_3b/5x5
I0403 17:40:38.833271 14593 net.cpp:425] inception_3b/output <- inception_3b/pool_proj
I0403 17:40:38.833292 14593 net.cpp:399] inception_3b/output -> inception_3b/output
I0403 17:40:38.833336 14593 net.cpp:141] Setting up inception_3b/output
I0403 17:40:38.833362 14593 net.cpp:148] Top shape: 24 480 28 28 (9031680)
I0403 17:40:38.833379 14593 net.cpp:156] Memory required for data: 809239584
I0403 17:40:38.833394 14593 layer_factory.hpp:77] Creating layer pool3/3x3_s2
I0403 17:40:38.833410 14593 net.cpp:91] Creating Layer pool3/3x3_s2
I0403 17:40:38.833427 14593 net.cpp:425] pool3/3x3_s2 <- inception_3b/output
I0403 17:40:38.833461 14593 net.cpp:399] pool3/3x3_s2 -> pool3/3x3_s2
I0403 17:40:38.833523 14593 net.cpp:141] Setting up pool3/3x3_s2
I0403 17:40:38.833547 14593 net.cpp:148] Top shape: 24 480 14 14 (2257920)
I0403 17:40:38.833562 14593 net.cpp:156] Memory required for data: 818271264
I0403 17:40:38.833577 14593 layer_factory.hpp:77] Creating layer pool3/3x3_s2_pool3/3x3_s2_0_split
I0403 17:40:38.833595 14593 net.cpp:91] Creating Layer pool3/3x3_s2_pool3/3x3_s2_0_split
I0403 17:40:38.833611 14593 net.cpp:425] pool3/3x3_s2_pool3/3x3_s2_0_split <- pool3/3x3_s2
I0403 17:40:38.833631 14593 net.cpp:399] pool3/3x3_s2_pool3/3x3_s2_0_split -> pool3/3x3_s2_pool3/3x3_s2_0_split_0
I0403 17:40:38.833652 14593 net.cpp:399] pool3/3x3_s2_pool3/3x3_s2_0_split -> pool3/3x3_s2_pool3/3x3_s2_0_split_1
I0403 17:40:38.833672 14593 net.cpp:399] pool3/3x3_s2_pool3/3x3_s2_0_split -> pool3/3x3_s2_pool3/3x3_s2_0_split_2
I0403 17:40:38.833693 14593 net.cpp:399] pool3/3x3_s2_pool3/3x3_s2_0_split -> pool3/3x3_s2_pool3/3x3_s2_0_split_3
I0403 17:40:38.833772 14593 net.cpp:141] Setting up pool3/3x3_s2_pool3/3x3_s2_0_split
I0403 17:40:38.833796 14593 net.cpp:148] Top shape: 24 480 14 14 (2257920)
I0403 17:40:38.833813 14593 net.cpp:148] Top shape: 24 480 14 14 (2257920)
I0403 17:40:38.833829 14593 net.cpp:148] Top shape: 24 480 14 14 (2257920)
I0403 17:40:38.833845 14593 net.cpp:148] Top shape: 24 480 14 14 (2257920)
I0403 17:40:38.833859 14593 net.cpp:156] Memory required for data: 854397984
I0403 17:40:38.833874 14593 layer_factory.hpp:77] Creating layer inception_4a/1x1
I0403 17:40:38.833896 14593 net.cpp:91] Creating Layer inception_4a/1x1
I0403 17:40:38.833914 14593 net.cpp:425] inception_4a/1x1 <- pool3/3x3_s2_pool3/3x3_s2_0_split_0
I0403 17:40:38.833935 14593 net.cpp:399] inception_4a/1x1 -> inception_4a/1x1
I0403 17:40:38.835548 14593 net.cpp:141] Setting up inception_4a/1x1
I0403 17:40:38.835577 14593 net.cpp:148] Top shape: 24 192 14 14 (903168)
I0403 17:40:38.835594 14593 net.cpp:156] Memory required for data: 858010656
I0403 17:40:38.835613 14593 layer_factory.hpp:77] Creating layer inception_4a/relu_1x1
I0403 17:40:38.835633 14593 net.cpp:91] Creating Layer inception_4a/relu_1x1
I0403 17:40:38.835650 14593 net.cpp:425] inception_4a/relu_1x1 <- inception_4a/1x1
I0403 17:40:38.835669 14593 net.cpp:386] inception_4a/relu_1x1 -> inception_4a/1x1 (in-place)
I0403 17:40:38.835847 14593 net.cpp:141] Setting up inception_4a/relu_1x1
I0403 17:40:38.835873 14593 net.cpp:148] Top shape: 24 192 14 14 (903168)
I0403 17:40:38.835888 14593 net.cpp:156] Memory required for data: 861623328
I0403 17:40:38.835904 14593 layer_factory.hpp:77] Creating layer inception_4a/3x3_reduce
I0403 17:40:38.835929 14593 net.cpp:91] Creating Layer inception_4a/3x3_reduce
I0403 17:40:38.835948 14593 net.cpp:425] inception_4a/3x3_reduce <- pool3/3x3_s2_pool3/3x3_s2_0_split_1
I0403 17:40:38.835968 14593 net.cpp:399] inception_4a/3x3_reduce -> inception_4a/3x3_reduce
I0403 17:40:38.837272 14593 net.cpp:141] Setting up inception_4a/3x3_reduce
I0403 17:40:38.837301 14593 net.cpp:148] Top shape: 24 96 14 14 (451584)
I0403 17:40:38.837317 14593 net.cpp:156] Memory required for data: 863429664
I0403 17:40:38.837343 14593 layer_factory.hpp:77] Creating layer inception_4a/relu_3x3_reduce
I0403 17:40:38.837364 14593 net.cpp:91] Creating Layer inception_4a/relu_3x3_reduce
I0403 17:40:38.837380 14593 net.cpp:425] inception_4a/relu_3x3_reduce <- inception_4a/3x3_reduce
I0403 17:40:38.837401 14593 net.cpp:386] inception_4a/relu_3x3_reduce -> inception_4a/3x3_reduce (in-place)
I0403 17:40:38.837582 14593 net.cpp:141] Setting up inception_4a/relu_3x3_reduce
I0403 17:40:38.837610 14593 net.cpp:148] Top shape: 24 96 14 14 (451584)
I0403 17:40:38.837625 14593 net.cpp:156] Memory required for data: 865236000
I0403 17:40:38.837641 14593 layer_factory.hpp:77] Creating layer inception_4a/3x3
I0403 17:40:38.837662 14593 net.cpp:91] Creating Layer inception_4a/3x3
I0403 17:40:38.837682 14593 net.cpp:425] inception_4a/3x3 <- inception_4a/3x3_reduce
I0403 17:40:38.837703 14593 net.cpp:399] inception_4a/3x3 -> inception_4a/3x3
I0403 17:40:38.840414 14593 net.cpp:141] Setting up inception_4a/3x3
I0403 17:40:38.840442 14593 net.cpp:148] Top shape: 24 208 14 14 (978432)
I0403 17:40:38.840459 14593 net.cpp:156] Memory required for data: 869149728
I0403 17:40:38.840477 14593 layer_factory.hpp:77] Creating layer inception_4a/relu_3x3
I0403 17:40:38.840497 14593 net.cpp:91] Creating Layer inception_4a/relu_3x3
I0403 17:40:38.840514 14593 net.cpp:425] inception_4a/relu_3x3 <- inception_4a/3x3
I0403 17:40:38.840531 14593 net.cpp:386] inception_4a/relu_3x3 -> inception_4a/3x3 (in-place)
I0403 17:40:38.840807 14593 net.cpp:141] Setting up inception_4a/relu_3x3
I0403 17:40:38.840833 14593 net.cpp:148] Top shape: 24 208 14 14 (978432)
I0403 17:40:38.840849 14593 net.cpp:156] Memory required for data: 873063456
I0403 17:40:38.840864 14593 layer_factory.hpp:77] Creating layer inception_4a/5x5_reduce
I0403 17:40:38.840888 14593 net.cpp:91] Creating Layer inception_4a/5x5_reduce
I0403 17:40:38.840904 14593 net.cpp:425] inception_4a/5x5_reduce <- pool3/3x3_s2_pool3/3x3_s2_0_split_2
I0403 17:40:38.840929 14593 net.cpp:399] inception_4a/5x5_reduce -> inception_4a/5x5_reduce
I0403 17:40:38.841934 14593 net.cpp:141] Setting up inception_4a/5x5_reduce
I0403 17:40:38.841964 14593 net.cpp:148] Top shape: 24 16 14 14 (75264)
I0403 17:40:38.841984 14593 net.cpp:156] Memory required for data: 873364512
I0403 17:40:38.842005 14593 layer_factory.hpp:77] Creating layer inception_4a/relu_5x5_reduce
I0403 17:40:38.842023 14593 net.cpp:91] Creating Layer inception_4a/relu_5x5_reduce
I0403 17:40:38.842041 14593 net.cpp:425] inception_4a/relu_5x5_reduce <- inception_4a/5x5_reduce
I0403 17:40:38.842057 14593 net.cpp:386] inception_4a/relu_5x5_reduce -> inception_4a/5x5_reduce (in-place)
I0403 17:40:38.842236 14593 net.cpp:141] Setting up inception_4a/relu_5x5_reduce
I0403 17:40:38.842262 14593 net.cpp:148] Top shape: 24 16 14 14 (75264)
I0403 17:40:38.842279 14593 net.cpp:156] Memory required for data: 873665568
I0403 17:40:38.842293 14593 layer_factory.hpp:77] Creating layer inception_4a/5x5
I0403 17:40:38.842316 14593 net.cpp:91] Creating Layer inception_4a/5x5
I0403 17:40:38.842334 14593 net.cpp:425] inception_4a/5x5 <- inception_4a/5x5_reduce
I0403 17:40:38.842355 14593 net.cpp:399] inception_4a/5x5 -> inception_4a/5x5
I0403 17:40:38.843437 14593 net.cpp:141] Setting up inception_4a/5x5
I0403 17:40:38.843464 14593 net.cpp:148] Top shape: 24 48 14 14 (225792)
I0403 17:40:38.843480 14593 net.cpp:156] Memory required for data: 874568736
I0403 17:40:38.843497 14593 layer_factory.hpp:77] Creating layer inception_4a/relu_5x5
I0403 17:40:38.843514 14593 net.cpp:91] Creating Layer inception_4a/relu_5x5
I0403 17:40:38.843530 14593 net.cpp:425] inception_4a/relu_5x5 <- inception_4a/5x5
I0403 17:40:38.843549 14593 net.cpp:386] inception_4a/relu_5x5 -> inception_4a/5x5 (in-place)
I0403 17:40:38.843722 14593 net.cpp:141] Setting up inception_4a/relu_5x5
I0403 17:40:38.843747 14593 net.cpp:148] Top shape: 24 48 14 14 (225792)
I0403 17:40:38.843762 14593 net.cpp:156] Memory required for data: 875471904
I0403 17:40:38.843776 14593 layer_factory.hpp:77] Creating layer inception_4a/pool
I0403 17:40:38.843796 14593 net.cpp:91] Creating Layer inception_4a/pool
I0403 17:40:38.843812 14593 net.cpp:425] inception_4a/pool <- pool3/3x3_s2_pool3/3x3_s2_0_split_3
I0403 17:40:38.843829 14593 net.cpp:399] inception_4a/pool -> inception_4a/pool
I0403 17:40:38.843889 14593 net.cpp:141] Setting up inception_4a/pool
I0403 17:40:38.843914 14593 net.cpp:148] Top shape: 24 480 14 14 (2257920)
I0403 17:40:38.843927 14593 net.cpp:156] Memory required for data: 884503584
I0403 17:40:38.843940 14593 layer_factory.hpp:77] Creating layer inception_4a/pool_proj
I0403 17:40:38.843962 14593 net.cpp:91] Creating Layer inception_4a/pool_proj
I0403 17:40:38.843983 14593 net.cpp:425] inception_4a/pool_proj <- inception_4a/pool
I0403 17:40:38.844007 14593 net.cpp:399] inception_4a/pool_proj -> inception_4a/pool_proj
I0403 17:40:38.845131 14593 net.cpp:141] Setting up inception_4a/pool_proj
I0403 17:40:38.845160 14593 net.cpp:148] Top shape: 24 64 14 14 (301056)
I0403 17:40:38.845190 14593 net.cpp:156] Memory required for data: 885707808
I0403 17:40:38.845209 14593 layer_factory.hpp:77] Creating layer inception_4a/relu_pool_proj
I0403 17:40:38.845227 14593 net.cpp:91] Creating Layer inception_4a/relu_pool_proj
I0403 17:40:38.845242 14593 net.cpp:425] inception_4a/relu_pool_proj <- inception_4a/pool_proj
I0403 17:40:38.845263 14593 net.cpp:386] inception_4a/relu_pool_proj -> inception_4a/pool_proj (in-place)
I0403 17:40:38.845540 14593 net.cpp:141] Setting up inception_4a/relu_pool_proj
I0403 17:40:38.845566 14593 net.cpp:148] Top shape: 24 64 14 14 (301056)
I0403 17:40:38.845580 14593 net.cpp:156] Memory required for data: 886912032
I0403 17:40:38.845595 14593 layer_factory.hpp:77] Creating layer inception_4a/output
I0403 17:40:38.845613 14593 net.cpp:91] Creating Layer inception_4a/output
I0403 17:40:38.845628 14593 net.cpp:425] inception_4a/output <- inception_4a/1x1
I0403 17:40:38.845643 14593 net.cpp:425] inception_4a/output <- inception_4a/3x3
I0403 17:40:38.845659 14593 net.cpp:425] inception_4a/output <- inception_4a/5x5
I0403 17:40:38.845674 14593 net.cpp:425] inception_4a/output <- inception_4a/pool_proj
I0403 17:40:38.845693 14593 net.cpp:399] inception_4a/output -> inception_4a/output
I0403 17:40:38.845736 14593 net.cpp:141] Setting up inception_4a/output
I0403 17:40:38.845760 14593 net.cpp:148] Top shape: 24 512 14 14 (2408448)
I0403 17:40:38.845777 14593 net.cpp:156] Memory required for data: 896545824
I0403 17:40:38.845790 14593 layer_factory.hpp:77] Creating layer inception_4a/output_inception_4a/output_0_split
I0403 17:40:38.845808 14593 net.cpp:91] Creating Layer inception_4a/output_inception_4a/output_0_split
I0403 17:40:38.845823 14593 net.cpp:425] inception_4a/output_inception_4a/output_0_split <- inception_4a/output
I0403 17:40:38.845841 14593 net.cpp:399] inception_4a/output_inception_4a/output_0_split -> inception_4a/output_inception_4a/output_0_split_0
I0403 17:40:38.845862 14593 net.cpp:399] inception_4a/output_inception_4a/output_0_split -> inception_4a/output_inception_4a/output_0_split_1
I0403 17:40:38.845882 14593 net.cpp:399] inception_4a/output_inception_4a/output_0_split -> inception_4a/output_inception_4a/output_0_split_2
I0403 17:40:38.845903 14593 net.cpp:399] inception_4a/output_inception_4a/output_0_split -> inception_4a/output_inception_4a/output_0_split_3
I0403 17:40:38.845923 14593 net.cpp:399] inception_4a/output_inception_4a/output_0_split -> inception_4a/output_inception_4a/output_0_split_4
I0403 17:40:38.846016 14593 net.cpp:141] Setting up inception_4a/output_inception_4a/output_0_split
I0403 17:40:38.846041 14593 net.cpp:148] Top shape: 24 512 14 14 (2408448)
I0403 17:40:38.846060 14593 net.cpp:148] Top shape: 24 512 14 14 (2408448)
I0403 17:40:38.846074 14593 net.cpp:148] Top shape: 24 512 14 14 (2408448)
I0403 17:40:38.846088 14593 net.cpp:148] Top shape: 24 512 14 14 (2408448)
I0403 17:40:38.846103 14593 net.cpp:148] Top shape: 24 512 14 14 (2408448)
I0403 17:40:38.846117 14593 net.cpp:156] Memory required for data: 944714784
I0403 17:40:38.846132 14593 layer_factory.hpp:77] Creating layer loss1/ave_pool
I0403 17:40:38.846148 14593 net.cpp:91] Creating Layer loss1/ave_pool
I0403 17:40:38.846164 14593 net.cpp:425] loss1/ave_pool <- inception_4a/output_inception_4a/output_0_split_0
I0403 17:40:38.846182 14593 net.cpp:399] loss1/ave_pool -> loss1/ave_pool
I0403 17:40:38.846382 14593 net.cpp:141] Setting up loss1/ave_pool
I0403 17:40:38.846408 14593 net.cpp:148] Top shape: 24 512 4 4 (196608)
I0403 17:40:38.846423 14593 net.cpp:156] Memory required for data: 945501216
I0403 17:40:38.846437 14593 layer_factory.hpp:77] Creating layer loss1/conv
I0403 17:40:38.846458 14593 net.cpp:91] Creating Layer loss1/conv
I0403 17:40:38.846477 14593 net.cpp:425] loss1/conv <- loss1/ave_pool
I0403 17:40:38.846496 14593 net.cpp:399] loss1/conv -> loss1/conv
I0403 17:40:38.847851 14593 net.cpp:141] Setting up loss1/conv
I0403 17:40:38.847877 14593 net.cpp:148] Top shape: 24 128 4 4 (49152)
I0403 17:40:38.847908 14593 net.cpp:156] Memory required for data: 945697824
I0403 17:40:38.847929 14593 layer_factory.hpp:77] Creating layer loss1/relu_conv
I0403 17:40:38.847949 14593 net.cpp:91] Creating Layer loss1/relu_conv
I0403 17:40:38.847965 14593 net.cpp:425] loss1/relu_conv <- loss1/conv
I0403 17:40:38.847985 14593 net.cpp:386] loss1/relu_conv -> loss1/conv (in-place)
I0403 17:40:38.848258 14593 net.cpp:141] Setting up loss1/relu_conv
I0403 17:40:38.848284 14593 net.cpp:148] Top shape: 24 128 4 4 (49152)
I0403 17:40:38.848299 14593 net.cpp:156] Memory required for data: 945894432
I0403 17:40:38.848315 14593 layer_factory.hpp:77] Creating layer loss1/fc
I0403 17:40:38.848340 14593 net.cpp:91] Creating Layer loss1/fc
I0403 17:40:38.848357 14593 net.cpp:425] loss1/fc <- loss1/conv
I0403 17:40:38.848377 14593 net.cpp:399] loss1/fc -> loss1/fc
I0403 17:40:38.865566 14593 net.cpp:141] Setting up loss1/fc
I0403 17:40:38.865600 14593 net.cpp:148] Top shape: 24 1024 (24576)
I0403 17:40:38.865617 14593 net.cpp:156] Memory required for data: 945992736
I0403 17:40:38.865634 14593 layer_factory.hpp:77] Creating layer loss1/relu_fc
I0403 17:40:38.865653 14593 net.cpp:91] Creating Layer loss1/relu_fc
I0403 17:40:38.865671 14593 net.cpp:425] loss1/relu_fc <- loss1/fc
I0403 17:40:38.865689 14593 net.cpp:386] loss1/relu_fc -> loss1/fc (in-place)
I0403 17:40:38.865870 14593 net.cpp:141] Setting up loss1/relu_fc
I0403 17:40:38.865895 14593 net.cpp:148] Top shape: 24 1024 (24576)
I0403 17:40:38.865911 14593 net.cpp:156] Memory required for data: 946091040
I0403 17:40:38.865924 14593 layer_factory.hpp:77] Creating layer loss1/drop_fc
I0403 17:40:38.865952 14593 net.cpp:91] Creating Layer loss1/drop_fc
I0403 17:40:38.865968 14593 net.cpp:425] loss1/drop_fc <- loss1/fc
I0403 17:40:38.865990 14593 net.cpp:386] loss1/drop_fc -> loss1/fc (in-place)
I0403 17:40:38.866039 14593 net.cpp:141] Setting up loss1/drop_fc
I0403 17:40:38.866065 14593 net.cpp:148] Top shape: 24 1024 (24576)
I0403 17:40:38.866080 14593 net.cpp:156] Memory required for data: 946189344
I0403 17:40:38.866096 14593 layer_factory.hpp:77] Creating layer loss1/classifier_plantvillage
I0403 17:40:38.866112 14593 net.cpp:91] Creating Layer loss1/classifier_plantvillage
I0403 17:40:38.866128 14593 net.cpp:425] loss1/classifier_plantvillage <- loss1/fc
I0403 17:40:38.866149 14593 net.cpp:399] loss1/classifier_plantvillage -> loss1/classifier_plantvillage
I0403 17:40:38.867033 14593 net.cpp:141] Setting up loss1/classifier_plantvillage
I0403 17:40:38.867060 14593 net.cpp:148] Top shape: 24 38 (912)
I0403 17:40:38.867076 14593 net.cpp:156] Memory required for data: 946192992
I0403 17:40:38.867094 14593 layer_factory.hpp:77] Creating layer loss1/classifier_plantvillage_loss1/classifier_plantvillage_0_split
I0403 17:40:38.867113 14593 net.cpp:91] Creating Layer loss1/classifier_plantvillage_loss1/classifier_plantvillage_0_split
I0403 17:40:38.867130 14593 net.cpp:425] loss1/classifier_plantvillage_loss1/classifier_plantvillage_0_split <- loss1/classifier_plantvillage
I0403 17:40:38.867147 14593 net.cpp:399] loss1/classifier_plantvillage_loss1/classifier_plantvillage_0_split -> loss1/classifier_plantvillage_loss1/classifier_plantvillage_0_split_0
I0403 17:40:38.867167 14593 net.cpp:399] loss1/classifier_plantvillage_loss1/classifier_plantvillage_0_split -> loss1/classifier_plantvillage_loss1/classifier_plantvillage_0_split_1
I0403 17:40:38.867188 14593 net.cpp:399] loss1/classifier_plantvillage_loss1/classifier_plantvillage_0_split -> loss1/classifier_plantvillage_loss1/classifier_plantvillage_0_split_2
I0403 17:40:38.867252 14593 net.cpp:141] Setting up loss1/classifier_plantvillage_loss1/classifier_plantvillage_0_split
I0403 17:40:38.867275 14593 net.cpp:148] Top shape: 24 38 (912)
I0403 17:40:38.867292 14593 net.cpp:148] Top shape: 24 38 (912)
I0403 17:40:38.867307 14593 net.cpp:148] Top shape: 24 38 (912)
I0403 17:40:38.867321 14593 net.cpp:156] Memory required for data: 946203936
I0403 17:40:38.867336 14593 layer_factory.hpp:77] Creating layer inception_4b/1x1
I0403 17:40:38.867355 14593 net.cpp:91] Creating Layer inception_4b/1x1
I0403 17:40:38.867386 14593 net.cpp:425] inception_4b/1x1 <- inception_4a/output_inception_4a/output_0_split_1
I0403 17:40:38.867408 14593 net.cpp:399] inception_4b/1x1 -> inception_4b/1x1
I0403 17:40:38.869048 14593 net.cpp:141] Setting up inception_4b/1x1
I0403 17:40:38.869079 14593 net.cpp:148] Top shape: 24 160 14 14 (752640)
I0403 17:40:38.869096 14593 net.cpp:156] Memory required for data: 949214496
I0403 17:40:38.869113 14593 layer_factory.hpp:77] Creating layer inception_4b/relu_1x1
I0403 17:40:38.869132 14593 net.cpp:91] Creating Layer inception_4b/relu_1x1
I0403 17:40:38.869148 14593 net.cpp:425] inception_4b/relu_1x1 <- inception_4b/1x1
I0403 17:40:38.869164 14593 net.cpp:386] inception_4b/relu_1x1 -> inception_4b/1x1 (in-place)
I0403 17:40:38.869343 14593 net.cpp:141] Setting up inception_4b/relu_1x1
I0403 17:40:38.869369 14593 net.cpp:148] Top shape: 24 160 14 14 (752640)
I0403 17:40:38.869385 14593 net.cpp:156] Memory required for data: 952225056
I0403 17:40:38.869400 14593 layer_factory.hpp:77] Creating layer inception_4b/3x3_reduce
I0403 17:40:38.869421 14593 net.cpp:91] Creating Layer inception_4b/3x3_reduce
I0403 17:40:38.869438 14593 net.cpp:425] inception_4b/3x3_reduce <- inception_4a/output_inception_4a/output_0_split_2
I0403 17:40:38.869457 14593 net.cpp:399] inception_4b/3x3_reduce -> inception_4b/3x3_reduce
I0403 17:40:38.870759 14593 net.cpp:141] Setting up inception_4b/3x3_reduce
I0403 17:40:38.870790 14593 net.cpp:148] Top shape: 24 112 14 14 (526848)
I0403 17:40:38.870806 14593 net.cpp:156] Memory required for data: 954332448
I0403 17:40:38.870825 14593 layer_factory.hpp:77] Creating layer inception_4b/relu_3x3_reduce
I0403 17:40:38.870841 14593 net.cpp:91] Creating Layer inception_4b/relu_3x3_reduce
I0403 17:40:38.870857 14593 net.cpp:425] inception_4b/relu_3x3_reduce <- inception_4b/3x3_reduce
I0403 17:40:38.870877 14593 net.cpp:386] inception_4b/relu_3x3_reduce -> inception_4b/3x3_reduce (in-place)
I0403 17:40:38.871157 14593 net.cpp:141] Setting up inception_4b/relu_3x3_reduce
I0403 17:40:38.871186 14593 net.cpp:148] Top shape: 24 112 14 14 (526848)
I0403 17:40:38.871202 14593 net.cpp:156] Memory required for data: 956439840
I0403 17:40:38.871217 14593 layer_factory.hpp:77] Creating layer inception_4b/3x3
I0403 17:40:38.871238 14593 net.cpp:91] Creating Layer inception_4b/3x3
I0403 17:40:38.871256 14593 net.cpp:425] inception_4b/3x3 <- inception_4b/3x3_reduce
I0403 17:40:38.871275 14593 net.cpp:399] inception_4b/3x3 -> inception_4b/3x3
I0403 17:40:38.874238 14593 net.cpp:141] Setting up inception_4b/3x3
I0403 17:40:38.874266 14593 net.cpp:148] Top shape: 24 224 14 14 (1053696)
I0403 17:40:38.874282 14593 net.cpp:156] Memory required for data: 960654624
I0403 17:40:38.874300 14593 layer_factory.hpp:77] Creating layer inception_4b/relu_3x3
I0403 17:40:38.874320 14593 net.cpp:91] Creating Layer inception_4b/relu_3x3
I0403 17:40:38.874338 14593 net.cpp:425] inception_4b/relu_3x3 <- inception_4b/3x3
I0403 17:40:38.874356 14593 net.cpp:386] inception_4b/relu_3x3 -> inception_4b/3x3 (in-place)
I0403 17:40:38.874536 14593 net.cpp:141] Setting up inception_4b/relu_3x3
I0403 17:40:38.874562 14593 net.cpp:148] Top shape: 24 224 14 14 (1053696)
I0403 17:40:38.874577 14593 net.cpp:156] Memory required for data: 964869408
I0403 17:40:38.874593 14593 layer_factory.hpp:77] Creating layer inception_4b/5x5_reduce
I0403 17:40:38.874619 14593 net.cpp:91] Creating Layer inception_4b/5x5_reduce
I0403 17:40:38.874636 14593 net.cpp:425] inception_4b/5x5_reduce <- inception_4a/output_inception_4a/output_0_split_3
I0403 17:40:38.874655 14593 net.cpp:399] inception_4b/5x5_reduce -> inception_4b/5x5_reduce
I0403 17:40:38.875733 14593 net.cpp:141] Setting up inception_4b/5x5_reduce
I0403 17:40:38.875763 14593 net.cpp:148] Top shape: 24 24 14 14 (112896)
I0403 17:40:38.875779 14593 net.cpp:156] Memory required for data: 965320992
I0403 17:40:38.875798 14593 layer_factory.hpp:77] Creating layer inception_4b/relu_5x5_reduce
I0403 17:40:38.875816 14593 net.cpp:91] Creating Layer inception_4b/relu_5x5_reduce
I0403 17:40:38.875847 14593 net.cpp:425] inception_4b/relu_5x5_reduce <- inception_4b/5x5_reduce
I0403 17:40:38.875869 14593 net.cpp:386] inception_4b/relu_5x5_reduce -> inception_4b/5x5_reduce (in-place)
I0403 17:40:38.876056 14593 net.cpp:141] Setting up inception_4b/relu_5x5_reduce
I0403 17:40:38.876082 14593 net.cpp:148] Top shape: 24 24 14 14 (112896)
I0403 17:40:38.876097 14593 net.cpp:156] Memory required for data: 965772576
I0403 17:40:38.876112 14593 layer_factory.hpp:77] Creating layer inception_4b/5x5
I0403 17:40:38.876134 14593 net.cpp:91] Creating Layer inception_4b/5x5
I0403 17:40:38.876152 14593 net.cpp:425] inception_4b/5x5 <- inception_4b/5x5_reduce
I0403 17:40:38.876173 14593 net.cpp:399] inception_4b/5x5 -> inception_4b/5x5
I0403 17:40:38.877388 14593 net.cpp:141] Setting up inception_4b/5x5
I0403 17:40:38.877418 14593 net.cpp:148] Top shape: 24 64 14 14 (301056)
I0403 17:40:38.877435 14593 net.cpp:156] Memory required for data: 966976800
I0403 17:40:38.877454 14593 layer_factory.hpp:77] Creating layer inception_4b/relu_5x5
I0403 17:40:38.877471 14593 net.cpp:91] Creating Layer inception_4b/relu_5x5
I0403 17:40:38.877487 14593 net.cpp:425] inception_4b/relu_5x5 <- inception_4b/5x5
I0403 17:40:38.877504 14593 net.cpp:386] inception_4b/relu_5x5 -> inception_4b/5x5 (in-place)
I0403 17:40:38.877790 14593 net.cpp:141] Setting up inception_4b/relu_5x5
I0403 17:40:38.877820 14593 net.cpp:148] Top shape: 24 64 14 14 (301056)
I0403 17:40:38.877836 14593 net.cpp:156] Memory required for data: 968181024
I0403 17:40:38.877851 14593 layer_factory.hpp:77] Creating layer inception_4b/pool
I0403 17:40:38.877869 14593 net.cpp:91] Creating Layer inception_4b/pool
I0403 17:40:38.877885 14593 net.cpp:425] inception_4b/pool <- inception_4a/output_inception_4a/output_0_split_4
I0403 17:40:38.877903 14593 net.cpp:399] inception_4b/pool -> inception_4b/pool
I0403 17:40:38.877970 14593 net.cpp:141] Setting up inception_4b/pool
I0403 17:40:38.877998 14593 net.cpp:148] Top shape: 24 512 14 14 (2408448)
I0403 17:40:38.878015 14593 net.cpp:156] Memory required for data: 977814816
I0403 17:40:38.878029 14593 layer_factory.hpp:77] Creating layer inception_4b/pool_proj
I0403 17:40:38.878051 14593 net.cpp:91] Creating Layer inception_4b/pool_proj
I0403 17:40:38.878069 14593 net.cpp:425] inception_4b/pool_proj <- inception_4b/pool
I0403 17:40:38.878093 14593 net.cpp:399] inception_4b/pool_proj -> inception_4b/pool_proj
I0403 17:40:38.879302 14593 net.cpp:141] Setting up inception_4b/pool_proj
I0403 17:40:38.879334 14593 net.cpp:148] Top shape: 24 64 14 14 (301056)
I0403 17:40:38.879351 14593 net.cpp:156] Memory required for data: 979019040
I0403 17:40:38.879370 14593 layer_factory.hpp:77] Creating layer inception_4b/relu_pool_proj
I0403 17:40:38.879389 14593 net.cpp:91] Creating Layer inception_4b/relu_pool_proj
I0403 17:40:38.879405 14593 net.cpp:425] inception_4b/relu_pool_proj <- inception_4b/pool_proj
I0403 17:40:38.879422 14593 net.cpp:386] inception_4b/relu_pool_proj -> inception_4b/pool_proj (in-place)
I0403 17:40:38.879606 14593 net.cpp:141] Setting up inception_4b/relu_pool_proj
I0403 17:40:38.879631 14593 net.cpp:148] Top shape: 24 64 14 14 (301056)
I0403 17:40:38.879647 14593 net.cpp:156] Memory required for data: 980223264
I0403 17:40:38.879662 14593 layer_factory.hpp:77] Creating layer inception_4b/output
I0403 17:40:38.879679 14593 net.cpp:91] Creating Layer inception_4b/output
I0403 17:40:38.879695 14593 net.cpp:425] inception_4b/output <- inception_4b/1x1
I0403 17:40:38.879712 14593 net.cpp:425] inception_4b/output <- inception_4b/3x3
I0403 17:40:38.879729 14593 net.cpp:425] inception_4b/output <- inception_4b/5x5
I0403 17:40:38.879744 14593 net.cpp:425] inception_4b/output <- inception_4b/pool_proj
I0403 17:40:38.879762 14593 net.cpp:399] inception_4b/output -> inception_4b/output
I0403 17:40:38.879807 14593 net.cpp:141] Setting up inception_4b/output
I0403 17:40:38.879833 14593 net.cpp:148] Top shape: 24 512 14 14 (2408448)
I0403 17:40:38.879849 14593 net.cpp:156] Memory required for data: 989857056
I0403 17:40:38.879879 14593 layer_factory.hpp:77] Creating layer inception_4b/output_inception_4b/output_0_split
I0403 17:40:38.879897 14593 net.cpp:91] Creating Layer inception_4b/output_inception_4b/output_0_split
I0403 17:40:38.879914 14593 net.cpp:425] inception_4b/output_inception_4b/output_0_split <- inception_4b/output
I0403 17:40:38.879931 14593 net.cpp:399] inception_4b/output_inception_4b/output_0_split -> inception_4b/output_inception_4b/output_0_split_0
I0403 17:40:38.879954 14593 net.cpp:399] inception_4b/output_inception_4b/output_0_split -> inception_4b/output_inception_4b/output_0_split_1
I0403 17:40:38.879976 14593 net.cpp:399] inception_4b/output_inception_4b/output_0_split -> inception_4b/output_inception_4b/output_0_split_2
I0403 17:40:38.880002 14593 net.cpp:399] inception_4b/output_inception_4b/output_0_split -> inception_4b/output_inception_4b/output_0_split_3
I0403 17:40:38.880084 14593 net.cpp:141] Setting up inception_4b/output_inception_4b/output_0_split
I0403 17:40:38.880108 14593 net.cpp:148] Top shape: 24 512 14 14 (2408448)
I0403 17:40:38.880125 14593 net.cpp:148] Top shape: 24 512 14 14 (2408448)
I0403 17:40:38.880139 14593 net.cpp:148] Top shape: 24 512 14 14 (2408448)
I0403 17:40:38.880154 14593 net.cpp:148] Top shape: 24 512 14 14 (2408448)
I0403 17:40:38.880170 14593 net.cpp:156] Memory required for data: 1028392224
I0403 17:40:38.880184 14593 layer_factory.hpp:77] Creating layer inception_4c/1x1
I0403 17:40:38.880206 14593 net.cpp:91] Creating Layer inception_4c/1x1
I0403 17:40:38.880224 14593 net.cpp:425] inception_4c/1x1 <- inception_4b/output_inception_4b/output_0_split_0
I0403 17:40:38.880245 14593 net.cpp:399] inception_4c/1x1 -> inception_4c/1x1
I0403 17:40:38.881687 14593 net.cpp:141] Setting up inception_4c/1x1
I0403 17:40:38.881716 14593 net.cpp:148] Top shape: 24 128 14 14 (602112)
I0403 17:40:38.881731 14593 net.cpp:156] Memory required for data: 1030800672
I0403 17:40:38.881749 14593 layer_factory.hpp:77] Creating layer inception_4c/relu_1x1
I0403 17:40:38.881770 14593 net.cpp:91] Creating Layer inception_4c/relu_1x1
I0403 17:40:38.881786 14593 net.cpp:425] inception_4c/relu_1x1 <- inception_4c/1x1
I0403 17:40:38.881804 14593 net.cpp:386] inception_4c/relu_1x1 -> inception_4c/1x1 (in-place)
I0403 17:40:38.881989 14593 net.cpp:141] Setting up inception_4c/relu_1x1
I0403 17:40:38.882014 14593 net.cpp:148] Top shape: 24 128 14 14 (602112)
I0403 17:40:38.882030 14593 net.cpp:156] Memory required for data: 1033209120
I0403 17:40:38.882045 14593 layer_factory.hpp:77] Creating layer inception_4c/3x3_reduce
I0403 17:40:38.882067 14593 net.cpp:91] Creating Layer inception_4c/3x3_reduce
I0403 17:40:38.882086 14593 net.cpp:425] inception_4c/3x3_reduce <- inception_4b/output_inception_4b/output_0_split_1
I0403 17:40:38.882107 14593 net.cpp:399] inception_4c/3x3_reduce -> inception_4c/3x3_reduce
I0403 17:40:38.884052 14593 net.cpp:141] Setting up inception_4c/3x3_reduce
I0403 17:40:38.884079 14593 net.cpp:148] Top shape: 24 128 14 14 (602112)
I0403 17:40:38.884095 14593 net.cpp:156] Memory required for data: 1035617568
I0403 17:40:38.884114 14593 layer_factory.hpp:77] Creating layer inception_4c/relu_3x3_reduce
I0403 17:40:38.884133 14593 net.cpp:91] Creating Layer inception_4c/relu_3x3_reduce
I0403 17:40:38.884151 14593 net.cpp:425] inception_4c/relu_3x3_reduce <- inception_4c/3x3_reduce
I0403 17:40:38.884169 14593 net.cpp:386] inception_4c/relu_3x3_reduce -> inception_4c/3x3_reduce (in-place)
I0403 17:40:38.884474 14593 net.cpp:141] Setting up inception_4c/relu_3x3_reduce
I0403 17:40:38.884502 14593 net.cpp:148] Top shape: 24 128 14 14 (602112)
I0403 17:40:38.884518 14593 net.cpp:156] Memory required for data: 1038026016
I0403 17:40:38.884533 14593 layer_factory.hpp:77] Creating layer inception_4c/3x3
I0403 17:40:38.884572 14593 net.cpp:91] Creating Layer inception_4c/3x3
I0403 17:40:38.884590 14593 net.cpp:425] inception_4c/3x3 <- inception_4c/3x3_reduce
I0403 17:40:38.884610 14593 net.cpp:399] inception_4c/3x3 -> inception_4c/3x3
I0403 17:40:38.888243 14593 net.cpp:141] Setting up inception_4c/3x3
I0403 17:40:38.888288 14593 net.cpp:148] Top shape: 24 256 14 14 (1204224)
I0403 17:40:38.888305 14593 net.cpp:156] Memory required for data: 1042842912
I0403 17:40:38.888337 14593 layer_factory.hpp:77] Creating layer inception_4c/relu_3x3
I0403 17:40:38.888357 14593 net.cpp:91] Creating Layer inception_4c/relu_3x3
I0403 17:40:38.888373 14593 net.cpp:425] inception_4c/relu_3x3 <- inception_4c/3x3
I0403 17:40:38.888391 14593 net.cpp:386] inception_4c/relu_3x3 -> inception_4c/3x3 (in-place)
I0403 17:40:38.888576 14593 net.cpp:141] Setting up inception_4c/relu_3x3
I0403 17:40:38.888603 14593 net.cpp:148] Top shape: 24 256 14 14 (1204224)
I0403 17:40:38.888619 14593 net.cpp:156] Memory required for data: 1047659808
I0403 17:40:38.888634 14593 layer_factory.hpp:77] Creating layer inception_4c/5x5_reduce
I0403 17:40:38.888659 14593 net.cpp:91] Creating Layer inception_4c/5x5_reduce
I0403 17:40:38.888675 14593 net.cpp:425] inception_4c/5x5_reduce <- inception_4b/output_inception_4b/output_0_split_2
I0403 17:40:38.888695 14593 net.cpp:399] inception_4c/5x5_reduce -> inception_4c/5x5_reduce
I0403 17:40:38.889812 14593 net.cpp:141] Setting up inception_4c/5x5_reduce
I0403 17:40:38.889852 14593 net.cpp:148] Top shape: 24 24 14 14 (112896)
I0403 17:40:38.889868 14593 net.cpp:156] Memory required for data: 1048111392
I0403 17:40:38.889889 14593 layer_factory.hpp:77] Creating layer inception_4c/relu_5x5_reduce
I0403 17:40:38.889906 14593 net.cpp:91] Creating Layer inception_4c/relu_5x5_reduce
I0403 17:40:38.889924 14593 net.cpp:425] inception_4c/relu_5x5_reduce <- inception_4c/5x5_reduce
I0403 17:40:38.889943 14593 net.cpp:386] inception_4c/relu_5x5_reduce -> inception_4c/5x5_reduce (in-place)
I0403 17:40:38.890156 14593 net.cpp:141] Setting up inception_4c/relu_5x5_reduce
I0403 17:40:38.890182 14593 net.cpp:148] Top shape: 24 24 14 14 (112896)
I0403 17:40:38.890197 14593 net.cpp:156] Memory required for data: 1048562976
I0403 17:40:38.890211 14593 layer_factory.hpp:77] Creating layer inception_4c/5x5
I0403 17:40:38.890233 14593 net.cpp:91] Creating Layer inception_4c/5x5
I0403 17:40:38.890249 14593 net.cpp:425] inception_4c/5x5 <- inception_4c/5x5_reduce
I0403 17:40:38.890270 14593 net.cpp:399] inception_4c/5x5 -> inception_4c/5x5
I0403 17:40:38.891482 14593 net.cpp:141] Setting up inception_4c/5x5
I0403 17:40:38.891510 14593 net.cpp:148] Top shape: 24 64 14 14 (301056)
I0403 17:40:38.891525 14593 net.cpp:156] Memory required for data: 1049767200
I0403 17:40:38.891543 14593 layer_factory.hpp:77] Creating layer inception_4c/relu_5x5
I0403 17:40:38.891561 14593 net.cpp:91] Creating Layer inception_4c/relu_5x5
I0403 17:40:38.891607 14593 net.cpp:425] inception_4c/relu_5x5 <- inception_4c/5x5
I0403 17:40:38.891624 14593 net.cpp:386] inception_4c/relu_5x5 -> inception_4c/5x5 (in-place)
I0403 17:40:38.891926 14593 net.cpp:141] Setting up inception_4c/relu_5x5
I0403 17:40:38.891952 14593 net.cpp:148] Top shape: 24 64 14 14 (301056)
I0403 17:40:38.891966 14593 net.cpp:156] Memory required for data: 1050971424
I0403 17:40:38.891985 14593 layer_factory.hpp:77] Creating layer inception_4c/pool
I0403 17:40:38.892004 14593 net.cpp:91] Creating Layer inception_4c/pool
I0403 17:40:38.892019 14593 net.cpp:425] inception_4c/pool <- inception_4b/output_inception_4b/output_0_split_3
I0403 17:40:38.892041 14593 net.cpp:399] inception_4c/pool -> inception_4c/pool
I0403 17:40:38.892104 14593 net.cpp:141] Setting up inception_4c/pool
I0403 17:40:38.892130 14593 net.cpp:148] Top shape: 24 512 14 14 (2408448)
I0403 17:40:38.892145 14593 net.cpp:156] Memory required for data: 1060605216
I0403 17:40:38.892160 14593 layer_factory.hpp:77] Creating layer inception_4c/pool_proj
I0403 17:40:38.892182 14593 net.cpp:91] Creating Layer inception_4c/pool_proj
I0403 17:40:38.892200 14593 net.cpp:425] inception_4c/pool_proj <- inception_4c/pool
I0403 17:40:38.892218 14593 net.cpp:399] inception_4c/pool_proj -> inception_4c/pool_proj
I0403 17:40:38.893399 14593 net.cpp:141] Setting up inception_4c/pool_proj
I0403 17:40:38.893429 14593 net.cpp:148] Top shape: 24 64 14 14 (301056)
I0403 17:40:38.893458 14593 net.cpp:156] Memory required for data: 1061809440
I0403 17:40:38.893477 14593 layer_factory.hpp:77] Creating layer inception_4c/relu_pool_proj
I0403 17:40:38.893496 14593 net.cpp:91] Creating Layer inception_4c/relu_pool_proj
I0403 17:40:38.893512 14593 net.cpp:425] inception_4c/relu_pool_proj <- inception_4c/pool_proj
I0403 17:40:38.893528 14593 net.cpp:386] inception_4c/relu_pool_proj -> inception_4c/pool_proj (in-place)
I0403 17:40:38.893723 14593 net.cpp:141] Setting up inception_4c/relu_pool_proj
I0403 17:40:38.893748 14593 net.cpp:148] Top shape: 24 64 14 14 (301056)
I0403 17:40:38.893764 14593 net.cpp:156] Memory required for data: 1063013664
I0403 17:40:38.893779 14593 layer_factory.hpp:77] Creating layer inception_4c/output
I0403 17:40:38.893796 14593 net.cpp:91] Creating Layer inception_4c/output
I0403 17:40:38.893812 14593 net.cpp:425] inception_4c/output <- inception_4c/1x1
I0403 17:40:38.893829 14593 net.cpp:425] inception_4c/output <- inception_4c/3x3
I0403 17:40:38.893846 14593 net.cpp:425] inception_4c/output <- inception_4c/5x5
I0403 17:40:38.893860 14593 net.cpp:425] inception_4c/output <- inception_4c/pool_proj
I0403 17:40:38.893880 14593 net.cpp:399] inception_4c/output -> inception_4c/output
I0403 17:40:38.893928 14593 net.cpp:141] Setting up inception_4c/output
I0403 17:40:38.893950 14593 net.cpp:148] Top shape: 24 512 14 14 (2408448)
I0403 17:40:38.893965 14593 net.cpp:156] Memory required for data: 1072647456
I0403 17:40:38.893983 14593 layer_factory.hpp:77] Creating layer inception_4c/output_inception_4c/output_0_split
I0403 17:40:38.894016 14593 net.cpp:91] Creating Layer inception_4c/output_inception_4c/output_0_split
I0403 17:40:38.894032 14593 net.cpp:425] inception_4c/output_inception_4c/output_0_split <- inception_4c/output
I0403 17:40:38.894049 14593 net.cpp:399] inception_4c/output_inception_4c/output_0_split -> inception_4c/output_inception_4c/output_0_split_0
I0403 17:40:38.894071 14593 net.cpp:399] inception_4c/output_inception_4c/output_0_split -> inception_4c/output_inception_4c/output_0_split_1
I0403 17:40:38.894093 14593 net.cpp:399] inception_4c/output_inception_4c/output_0_split -> inception_4c/output_inception_4c/output_0_split_2
I0403 17:40:38.894114 14593 net.cpp:399] inception_4c/output_inception_4c/output_0_split -> inception_4c/output_inception_4c/output_0_split_3
I0403 17:40:38.894196 14593 net.cpp:141] Setting up inception_4c/output_inception_4c/output_0_split
I0403 17:40:38.894218 14593 net.cpp:148] Top shape: 24 512 14 14 (2408448)
I0403 17:40:38.894234 14593 net.cpp:148] Top shape: 24 512 14 14 (2408448)
I0403 17:40:38.894249 14593 net.cpp:148] Top shape: 24 512 14 14 (2408448)
I0403 17:40:38.894264 14593 net.cpp:148] Top shape: 24 512 14 14 (2408448)
I0403 17:40:38.894278 14593 net.cpp:156] Memory required for data: 1111182624
I0403 17:40:38.894291 14593 layer_factory.hpp:77] Creating layer inception_4d/1x1
I0403 17:40:38.894312 14593 net.cpp:91] Creating Layer inception_4d/1x1
I0403 17:40:38.894330 14593 net.cpp:425] inception_4d/1x1 <- inception_4c/output_inception_4c/output_0_split_0
I0403 17:40:38.894350 14593 net.cpp:399] inception_4d/1x1 -> inception_4d/1x1
I0403 17:40:38.895697 14593 net.cpp:141] Setting up inception_4d/1x1
I0403 17:40:38.895725 14593 net.cpp:148] Top shape: 24 112 14 14 (526848)
I0403 17:40:38.895740 14593 net.cpp:156] Memory required for data: 1113290016
I0403 17:40:38.895756 14593 layer_factory.hpp:77] Creating layer inception_4d/relu_1x1
I0403 17:40:38.895776 14593 net.cpp:91] Creating Layer inception_4d/relu_1x1
I0403 17:40:38.895793 14593 net.cpp:425] inception_4d/relu_1x1 <- inception_4d/1x1
I0403 17:40:38.895810 14593 net.cpp:386] inception_4d/relu_1x1 -> inception_4d/1x1 (in-place)
I0403 17:40:38.895994 14593 net.cpp:141] Setting up inception_4d/relu_1x1
I0403 17:40:38.896019 14593 net.cpp:148] Top shape: 24 112 14 14 (526848)
I0403 17:40:38.896034 14593 net.cpp:156] Memory required for data: 1115397408
I0403 17:40:38.896049 14593 layer_factory.hpp:77] Creating layer inception_4d/3x3_reduce
I0403 17:40:38.896085 14593 net.cpp:91] Creating Layer inception_4d/3x3_reduce
I0403 17:40:38.896103 14593 net.cpp:425] inception_4d/3x3_reduce <- inception_4c/output_inception_4c/output_0_split_1
I0403 17:40:38.896122 14593 net.cpp:399] inception_4d/3x3_reduce -> inception_4d/3x3_reduce
I0403 17:40:38.897595 14593 net.cpp:141] Setting up inception_4d/3x3_reduce
I0403 17:40:38.897622 14593 net.cpp:148] Top shape: 24 144 14 14 (677376)
I0403 17:40:38.897637 14593 net.cpp:156] Memory required for data: 1118106912
I0403 17:40:38.897655 14593 layer_factory.hpp:77] Creating layer inception_4d/relu_3x3_reduce
I0403 17:40:38.897673 14593 net.cpp:91] Creating Layer inception_4d/relu_3x3_reduce
I0403 17:40:38.897689 14593 net.cpp:425] inception_4d/relu_3x3_reduce <- inception_4d/3x3_reduce
I0403 17:40:38.897707 14593 net.cpp:386] inception_4d/relu_3x3_reduce -> inception_4d/3x3_reduce (in-place)
I0403 17:40:38.898001 14593 net.cpp:141] Setting up inception_4d/relu_3x3_reduce
I0403 17:40:38.898027 14593 net.cpp:148] Top shape: 24 144 14 14 (677376)
I0403 17:40:38.898043 14593 net.cpp:156] Memory required for data: 1120816416
I0403 17:40:38.898058 14593 layer_factory.hpp:77] Creating layer inception_4d/3x3
I0403 17:40:38.898080 14593 net.cpp:91] Creating Layer inception_4d/3x3
I0403 17:40:38.898097 14593 net.cpp:425] inception_4d/3x3 <- inception_4d/3x3_reduce
I0403 17:40:38.898118 14593 net.cpp:399] inception_4d/3x3 -> inception_4d/3x3
I0403 17:40:38.902245 14593 net.cpp:141] Setting up inception_4d/3x3
I0403 17:40:38.902274 14593 net.cpp:148] Top shape: 24 288 14 14 (1354752)
I0403 17:40:38.902290 14593 net.cpp:156] Memory required for data: 1126235424
I0403 17:40:38.902308 14593 layer_factory.hpp:77] Creating layer inception_4d/relu_3x3
I0403 17:40:38.902328 14593 net.cpp:91] Creating Layer inception_4d/relu_3x3
I0403 17:40:38.902345 14593 net.cpp:425] inception_4d/relu_3x3 <- inception_4d/3x3
I0403 17:40:38.902362 14593 net.cpp:386] inception_4d/relu_3x3 -> inception_4d/3x3 (in-place)
I0403 17:40:38.902539 14593 net.cpp:141] Setting up inception_4d/relu_3x3
I0403 17:40:38.902566 14593 net.cpp:148] Top shape: 24 288 14 14 (1354752)
I0403 17:40:38.902582 14593 net.cpp:156] Memory required for data: 1131654432
I0403 17:40:38.902597 14593 layer_factory.hpp:77] Creating layer inception_4d/5x5_reduce
I0403 17:40:38.902617 14593 net.cpp:91] Creating Layer inception_4d/5x5_reduce
I0403 17:40:38.902636 14593 net.cpp:425] inception_4d/5x5_reduce <- inception_4c/output_inception_4c/output_0_split_2
I0403 17:40:38.902654 14593 net.cpp:399] inception_4d/5x5_reduce -> inception_4d/5x5_reduce
I0403 17:40:38.903769 14593 net.cpp:141] Setting up inception_4d/5x5_reduce
I0403 17:40:38.903797 14593 net.cpp:148] Top shape: 24 32 14 14 (150528)
I0403 17:40:38.903813 14593 net.cpp:156] Memory required for data: 1132256544
I0403 17:40:38.903831 14593 layer_factory.hpp:77] Creating layer inception_4d/relu_5x5_reduce
I0403 17:40:38.903851 14593 net.cpp:91] Creating Layer inception_4d/relu_5x5_reduce
I0403 17:40:38.903867 14593 net.cpp:425] inception_4d/relu_5x5_reduce <- inception_4d/5x5_reduce
I0403 17:40:38.903883 14593 net.cpp:386] inception_4d/relu_5x5_reduce -> inception_4d/5x5_reduce (in-place)
I0403 17:40:38.904072 14593 net.cpp:141] Setting up inception_4d/relu_5x5_reduce
I0403 17:40:38.904099 14593 net.cpp:148] Top shape: 24 32 14 14 (150528)
I0403 17:40:38.904115 14593 net.cpp:156] Memory required for data: 1132858656
I0403 17:40:38.904130 14593 layer_factory.hpp:77] Creating layer inception_4d/5x5
I0403 17:40:38.904151 14593 net.cpp:91] Creating Layer inception_4d/5x5
I0403 17:40:38.904168 14593 net.cpp:425] inception_4d/5x5 <- inception_4d/5x5_reduce
I0403 17:40:38.904187 14593 net.cpp:399] inception_4d/5x5 -> inception_4d/5x5
I0403 17:40:38.905622 14593 net.cpp:141] Setting up inception_4d/5x5
I0403 17:40:38.905652 14593 net.cpp:148] Top shape: 24 64 14 14 (301056)
I0403 17:40:38.905668 14593 net.cpp:156] Memory required for data: 1134062880
I0403 17:40:38.905688 14593 layer_factory.hpp:77] Creating layer inception_4d/relu_5x5
I0403 17:40:38.905719 14593 net.cpp:91] Creating Layer inception_4d/relu_5x5
I0403 17:40:38.905735 14593 net.cpp:425] inception_4d/relu_5x5 <- inception_4d/5x5
I0403 17:40:38.905756 14593 net.cpp:386] inception_4d/relu_5x5 -> inception_4d/5x5 (in-place)
I0403 17:40:38.906054 14593 net.cpp:141] Setting up inception_4d/relu_5x5
I0403 17:40:38.906081 14593 net.cpp:148] Top shape: 24 64 14 14 (301056)
I0403 17:40:38.906097 14593 net.cpp:156] Memory required for data: 1135267104
I0403 17:40:38.906112 14593 layer_factory.hpp:77] Creating layer inception_4d/pool
I0403 17:40:38.906129 14593 net.cpp:91] Creating Layer inception_4d/pool
I0403 17:40:38.906146 14593 net.cpp:425] inception_4d/pool <- inception_4c/output_inception_4c/output_0_split_3
I0403 17:40:38.906167 14593 net.cpp:399] inception_4d/pool -> inception_4d/pool
I0403 17:40:38.906230 14593 net.cpp:141] Setting up inception_4d/pool
I0403 17:40:38.906255 14593 net.cpp:148] Top shape: 24 512 14 14 (2408448)
I0403 17:40:38.906268 14593 net.cpp:156] Memory required for data: 1144900896
I0403 17:40:38.906283 14593 layer_factory.hpp:77] Creating layer inception_4d/pool_proj
I0403 17:40:38.906304 14593 net.cpp:91] Creating Layer inception_4d/pool_proj
I0403 17:40:38.906322 14593 net.cpp:425] inception_4d/pool_proj <- inception_4d/pool
I0403 17:40:38.906342 14593 net.cpp:399] inception_4d/pool_proj -> inception_4d/pool_proj
I0403 17:40:38.908051 14593 net.cpp:141] Setting up inception_4d/pool_proj
I0403 17:40:38.908080 14593 net.cpp:148] Top shape: 24 64 14 14 (301056)
I0403 17:40:38.908095 14593 net.cpp:156] Memory required for data: 1146105120
I0403 17:40:38.908113 14593 layer_factory.hpp:77] Creating layer inception_4d/relu_pool_proj
I0403 17:40:38.908133 14593 net.cpp:91] Creating Layer inception_4d/relu_pool_proj
I0403 17:40:38.908150 14593 net.cpp:425] inception_4d/relu_pool_proj <- inception_4d/pool_proj
I0403 17:40:38.908167 14593 net.cpp:386] inception_4d/relu_pool_proj -> inception_4d/pool_proj (in-place)
I0403 17:40:38.908349 14593 net.cpp:141] Setting up inception_4d/relu_pool_proj
I0403 17:40:38.908375 14593 net.cpp:148] Top shape: 24 64 14 14 (301056)
I0403 17:40:38.908391 14593 net.cpp:156] Memory required for data: 1147309344
I0403 17:40:38.908406 14593 layer_factory.hpp:77] Creating layer inception_4d/output
I0403 17:40:38.908422 14593 net.cpp:91] Creating Layer inception_4d/output
I0403 17:40:38.908438 14593 net.cpp:425] inception_4d/output <- inception_4d/1x1
I0403 17:40:38.908454 14593 net.cpp:425] inception_4d/output <- inception_4d/3x3
I0403 17:40:38.908470 14593 net.cpp:425] inception_4d/output <- inception_4d/5x5
I0403 17:40:38.908485 14593 net.cpp:425] inception_4d/output <- inception_4d/pool_proj
I0403 17:40:38.908502 14593 net.cpp:399] inception_4d/output -> inception_4d/output
I0403 17:40:38.908550 14593 net.cpp:141] Setting up inception_4d/output
I0403 17:40:38.908572 14593 net.cpp:148] Top shape: 24 528 14 14 (2483712)
I0403 17:40:38.908587 14593 net.cpp:156] Memory required for data: 1157244192
I0403 17:40:38.908601 14593 layer_factory.hpp:77] Creating layer inception_4d/output_inception_4d/output_0_split
I0403 17:40:38.908622 14593 net.cpp:91] Creating Layer inception_4d/output_inception_4d/output_0_split
I0403 17:40:38.908638 14593 net.cpp:425] inception_4d/output_inception_4d/output_0_split <- inception_4d/output
I0403 17:40:38.908656 14593 net.cpp:399] inception_4d/output_inception_4d/output_0_split -> inception_4d/output_inception_4d/output_0_split_0
I0403 17:40:38.908676 14593 net.cpp:399] inception_4d/output_inception_4d/output_0_split -> inception_4d/output_inception_4d/output_0_split_1
I0403 17:40:38.908697 14593 net.cpp:399] inception_4d/output_inception_4d/output_0_split -> inception_4d/output_inception_4d/output_0_split_2
I0403 17:40:38.908720 14593 net.cpp:399] inception_4d/output_inception_4d/output_0_split -> inception_4d/output_inception_4d/output_0_split_3
I0403 17:40:38.908740 14593 net.cpp:399] inception_4d/output_inception_4d/output_0_split -> inception_4d/output_inception_4d/output_0_split_4
I0403 17:40:38.908840 14593 net.cpp:141] Setting up inception_4d/output_inception_4d/output_0_split
I0403 17:40:38.908876 14593 net.cpp:148] Top shape: 24 528 14 14 (2483712)
I0403 17:40:38.908892 14593 net.cpp:148] Top shape: 24 528 14 14 (2483712)
I0403 17:40:38.908908 14593 net.cpp:148] Top shape: 24 528 14 14 (2483712)
I0403 17:40:38.908923 14593 net.cpp:148] Top shape: 24 528 14 14 (2483712)
I0403 17:40:38.908938 14593 net.cpp:148] Top shape: 24 528 14 14 (2483712)
I0403 17:40:38.908952 14593 net.cpp:156] Memory required for data: 1206918432
I0403 17:40:38.908967 14593 layer_factory.hpp:77] Creating layer loss2/ave_pool
I0403 17:40:38.908995 14593 net.cpp:91] Creating Layer loss2/ave_pool
I0403 17:40:38.909013 14593 net.cpp:425] loss2/ave_pool <- inception_4d/output_inception_4d/output_0_split_0
I0403 17:40:38.909032 14593 net.cpp:399] loss2/ave_pool -> loss2/ave_pool
I0403 17:40:38.909342 14593 net.cpp:141] Setting up loss2/ave_pool
I0403 17:40:38.909368 14593 net.cpp:148] Top shape: 24 528 4 4 (202752)
I0403 17:40:38.909382 14593 net.cpp:156] Memory required for data: 1207729440
I0403 17:40:38.909399 14593 layer_factory.hpp:77] Creating layer loss2/conv
I0403 17:40:38.909420 14593 net.cpp:91] Creating Layer loss2/conv
I0403 17:40:38.909437 14593 net.cpp:425] loss2/conv <- loss2/ave_pool
I0403 17:40:38.909458 14593 net.cpp:399] loss2/conv -> loss2/conv
I0403 17:40:38.911361 14593 net.cpp:141] Setting up loss2/conv
I0403 17:40:38.911391 14593 net.cpp:148] Top shape: 24 128 4 4 (49152)
I0403 17:40:38.911406 14593 net.cpp:156] Memory required for data: 1207926048
I0403 17:40:38.911425 14593 layer_factory.hpp:77] Creating layer loss2/relu_conv
I0403 17:40:38.911443 14593 net.cpp:91] Creating Layer loss2/relu_conv
I0403 17:40:38.911459 14593 net.cpp:425] loss2/relu_conv <- loss2/conv
I0403 17:40:38.911480 14593 net.cpp:386] loss2/relu_conv -> loss2/conv (in-place)
I0403 17:40:38.911774 14593 net.cpp:141] Setting up loss2/relu_conv
I0403 17:40:38.911801 14593 net.cpp:148] Top shape: 24 128 4 4 (49152)
I0403 17:40:38.911816 14593 net.cpp:156] Memory required for data: 1208122656
I0403 17:40:38.911831 14593 layer_factory.hpp:77] Creating layer loss2/fc
I0403 17:40:38.911849 14593 net.cpp:91] Creating Layer loss2/fc
I0403 17:40:38.911866 14593 net.cpp:425] loss2/fc <- loss2/conv
I0403 17:40:38.911887 14593 net.cpp:399] loss2/fc -> loss2/fc
I0403 17:40:38.929481 14593 net.cpp:141] Setting up loss2/fc
I0403 17:40:38.929517 14593 net.cpp:148] Top shape: 24 1024 (24576)
I0403 17:40:38.929533 14593 net.cpp:156] Memory required for data: 1208220960
I0403 17:40:38.929553 14593 layer_factory.hpp:77] Creating layer loss2/relu_fc
I0403 17:40:38.929569 14593 net.cpp:91] Creating Layer loss2/relu_fc
I0403 17:40:38.929586 14593 net.cpp:425] loss2/relu_fc <- loss2/fc
I0403 17:40:38.929603 14593 net.cpp:386] loss2/relu_fc -> loss2/fc (in-place)
I0403 17:40:38.929895 14593 net.cpp:141] Setting up loss2/relu_fc
I0403 17:40:38.929924 14593 net.cpp:148] Top shape: 24 1024 (24576)
I0403 17:40:38.929939 14593 net.cpp:156] Memory required for data: 1208319264
I0403 17:40:38.929954 14593 layer_factory.hpp:77] Creating layer loss2/drop_fc
I0403 17:40:38.929971 14593 net.cpp:91] Creating Layer loss2/drop_fc
I0403 17:40:38.929991 14593 net.cpp:425] loss2/drop_fc <- loss2/fc
I0403 17:40:38.930009 14593 net.cpp:386] loss2/drop_fc -> loss2/fc (in-place)
I0403 17:40:38.930058 14593 net.cpp:141] Setting up loss2/drop_fc
I0403 17:40:38.930081 14593 net.cpp:148] Top shape: 24 1024 (24576)
I0403 17:40:38.930095 14593 net.cpp:156] Memory required for data: 1208417568
I0403 17:40:38.930109 14593 layer_factory.hpp:77] Creating layer loss2/classifier_plantvillage
I0403 17:40:38.930130 14593 net.cpp:91] Creating Layer loss2/classifier_plantvillage
I0403 17:40:38.930145 14593 net.cpp:425] loss2/classifier_plantvillage <- loss2/fc
I0403 17:40:38.930163 14593 net.cpp:399] loss2/classifier_plantvillage -> loss2/classifier_plantvillage
I0403 17:40:38.930558 14593 net.cpp:141] Setting up loss2/classifier_plantvillage
I0403 17:40:38.930583 14593 net.cpp:148] Top shape: 24 38 (912)
I0403 17:40:38.930613 14593 net.cpp:156] Memory required for data: 1208421216
I0403 17:40:38.930632 14593 layer_factory.hpp:77] Creating layer loss2/classifier_plantvillage_loss2/classifier_plantvillage_0_split
I0403 17:40:38.930650 14593 net.cpp:91] Creating Layer loss2/classifier_plantvillage_loss2/classifier_plantvillage_0_split
I0403 17:40:38.930666 14593 net.cpp:425] loss2/classifier_plantvillage_loss2/classifier_plantvillage_0_split <- loss2/classifier_plantvillage
I0403 17:40:38.930685 14593 net.cpp:399] loss2/classifier_plantvillage_loss2/classifier_plantvillage_0_split -> loss2/classifier_plantvillage_loss2/classifier_plantvillage_0_split_0
I0403 17:40:38.930706 14593 net.cpp:399] loss2/classifier_plantvillage_loss2/classifier_plantvillage_0_split -> loss2/classifier_plantvillage_loss2/classifier_plantvillage_0_split_1
I0403 17:40:38.930727 14593 net.cpp:399] loss2/classifier_plantvillage_loss2/classifier_plantvillage_0_split -> loss2/classifier_plantvillage_loss2/classifier_plantvillage_0_split_2
I0403 17:40:38.930800 14593 net.cpp:141] Setting up loss2/classifier_plantvillage_loss2/classifier_plantvillage_0_split
I0403 17:40:38.930826 14593 net.cpp:148] Top shape: 24 38 (912)
I0403 17:40:38.930842 14593 net.cpp:148] Top shape: 24 38 (912)
I0403 17:40:38.930857 14593 net.cpp:148] Top shape: 24 38 (912)
I0403 17:40:38.930871 14593 net.cpp:156] Memory required for data: 1208432160
I0403 17:40:38.930886 14593 layer_factory.hpp:77] Creating layer inception_4e/1x1
I0403 17:40:38.930907 14593 net.cpp:91] Creating Layer inception_4e/1x1
I0403 17:40:38.930923 14593 net.cpp:425] inception_4e/1x1 <- inception_4d/output_inception_4d/output_0_split_1
I0403 17:40:38.930943 14593 net.cpp:399] inception_4e/1x1 -> inception_4e/1x1
I0403 17:40:38.932708 14593 net.cpp:141] Setting up inception_4e/1x1
I0403 17:40:38.932737 14593 net.cpp:148] Top shape: 24 256 14 14 (1204224)
I0403 17:40:38.932754 14593 net.cpp:156] Memory required for data: 1213249056
I0403 17:40:38.932771 14593 layer_factory.hpp:77] Creating layer inception_4e/relu_1x1
I0403 17:40:38.932790 14593 net.cpp:91] Creating Layer inception_4e/relu_1x1
I0403 17:40:38.932806 14593 net.cpp:425] inception_4e/relu_1x1 <- inception_4e/1x1
I0403 17:40:38.932824 14593 net.cpp:386] inception_4e/relu_1x1 -> inception_4e/1x1 (in-place)
I0403 17:40:38.933115 14593 net.cpp:141] Setting up inception_4e/relu_1x1
I0403 17:40:38.933143 14593 net.cpp:148] Top shape: 24 256 14 14 (1204224)
I0403 17:40:38.933159 14593 net.cpp:156] Memory required for data: 1218065952
I0403 17:40:38.933176 14593 layer_factory.hpp:77] Creating layer inception_4e/3x3_reduce
I0403 17:40:38.933197 14593 net.cpp:91] Creating Layer inception_4e/3x3_reduce
I0403 17:40:38.933214 14593 net.cpp:425] inception_4e/3x3_reduce <- inception_4d/output_inception_4d/output_0_split_2
I0403 17:40:38.933235 14593 net.cpp:399] inception_4e/3x3_reduce -> inception_4e/3x3_reduce
I0403 17:40:38.935291 14593 net.cpp:141] Setting up inception_4e/3x3_reduce
I0403 17:40:38.935320 14593 net.cpp:148] Top shape: 24 160 14 14 (752640)
I0403 17:40:38.935336 14593 net.cpp:156] Memory required for data: 1221076512
I0403 17:40:38.935355 14593 layer_factory.hpp:77] Creating layer inception_4e/relu_3x3_reduce
I0403 17:40:38.935374 14593 net.cpp:91] Creating Layer inception_4e/relu_3x3_reduce
I0403 17:40:38.935390 14593 net.cpp:425] inception_4e/relu_3x3_reduce <- inception_4e/3x3_reduce
I0403 17:40:38.935406 14593 net.cpp:386] inception_4e/relu_3x3_reduce -> inception_4e/3x3_reduce (in-place)
I0403 17:40:38.935595 14593 net.cpp:141] Setting up inception_4e/relu_3x3_reduce
I0403 17:40:38.935619 14593 net.cpp:148] Top shape: 24 160 14 14 (752640)
I0403 17:40:38.935634 14593 net.cpp:156] Memory required for data: 1224087072
I0403 17:40:38.935648 14593 layer_factory.hpp:77] Creating layer inception_4e/3x3
I0403 17:40:38.935670 14593 net.cpp:91] Creating Layer inception_4e/3x3
I0403 17:40:38.935686 14593 net.cpp:425] inception_4e/3x3 <- inception_4e/3x3_reduce
I0403 17:40:38.935708 14593 net.cpp:399] inception_4e/3x3 -> inception_4e/3x3
I0403 17:40:38.940577 14593 net.cpp:141] Setting up inception_4e/3x3
I0403 17:40:38.940616 14593 net.cpp:148] Top shape: 24 320 14 14 (1505280)
I0403 17:40:38.940632 14593 net.cpp:156] Memory required for data: 1230108192
I0403 17:40:38.940650 14593 layer_factory.hpp:77] Creating layer inception_4e/relu_3x3
I0403 17:40:38.940673 14593 net.cpp:91] Creating Layer inception_4e/relu_3x3
I0403 17:40:38.940690 14593 net.cpp:425] inception_4e/relu_3x3 <- inception_4e/3x3
I0403 17:40:38.940707 14593 net.cpp:386] inception_4e/relu_3x3 -> inception_4e/3x3 (in-place)
I0403 17:40:38.941001 14593 net.cpp:141] Setting up inception_4e/relu_3x3
I0403 17:40:38.941028 14593 net.cpp:148] Top shape: 24 320 14 14 (1505280)
I0403 17:40:38.941043 14593 net.cpp:156] Memory required for data: 1236129312
I0403 17:40:38.941058 14593 layer_factory.hpp:77] Creating layer inception_4e/5x5_reduce
I0403 17:40:38.941079 14593 net.cpp:91] Creating Layer inception_4e/5x5_reduce
I0403 17:40:38.941097 14593 net.cpp:425] inception_4e/5x5_reduce <- inception_4d/output_inception_4d/output_0_split_3
I0403 17:40:38.941118 14593 net.cpp:399] inception_4e/5x5_reduce -> inception_4e/5x5_reduce
I0403 17:40:38.942168 14593 net.cpp:141] Setting up inception_4e/5x5_reduce
I0403 17:40:38.942198 14593 net.cpp:148] Top shape: 24 32 14 14 (150528)
I0403 17:40:38.942214 14593 net.cpp:156] Memory required for data: 1236731424
I0403 17:40:38.942231 14593 layer_factory.hpp:77] Creating layer inception_4e/relu_5x5_reduce
I0403 17:40:38.942250 14593 net.cpp:91] Creating Layer inception_4e/relu_5x5_reduce
I0403 17:40:38.942265 14593 net.cpp:425] inception_4e/relu_5x5_reduce <- inception_4e/5x5_reduce
I0403 17:40:38.942284 14593 net.cpp:386] inception_4e/relu_5x5_reduce -> inception_4e/5x5_reduce (in-place)
I0403 17:40:38.942581 14593 net.cpp:141] Setting up inception_4e/relu_5x5_reduce
I0403 17:40:38.942610 14593 net.cpp:148] Top shape: 24 32 14 14 (150528)
I0403 17:40:38.942625 14593 net.cpp:156] Memory required for data: 1237333536
I0403 17:40:38.942641 14593 layer_factory.hpp:77] Creating layer inception_4e/5x5
I0403 17:40:38.942678 14593 net.cpp:91] Creating Layer inception_4e/5x5
I0403 17:40:38.942698 14593 net.cpp:425] inception_4e/5x5 <- inception_4e/5x5_reduce
I0403 17:40:38.942718 14593 net.cpp:399] inception_4e/5x5 -> inception_4e/5x5
I0403 17:40:38.944507 14593 net.cpp:141] Setting up inception_4e/5x5
I0403 17:40:38.944535 14593 net.cpp:148] Top shape: 24 128 14 14 (602112)
I0403 17:40:38.944550 14593 net.cpp:156] Memory required for data: 1239741984
I0403 17:40:38.944568 14593 layer_factory.hpp:77] Creating layer inception_4e/relu_5x5
I0403 17:40:38.944589 14593 net.cpp:91] Creating Layer inception_4e/relu_5x5
I0403 17:40:38.944605 14593 net.cpp:425] inception_4e/relu_5x5 <- inception_4e/5x5
I0403 17:40:38.944623 14593 net.cpp:386] inception_4e/relu_5x5 -> inception_4e/5x5 (in-place)
I0403 17:40:38.944818 14593 net.cpp:141] Setting up inception_4e/relu_5x5
I0403 17:40:38.944842 14593 net.cpp:148] Top shape: 24 128 14 14 (602112)
I0403 17:40:38.944857 14593 net.cpp:156] Memory required for data: 1242150432
I0403 17:40:38.944874 14593 layer_factory.hpp:77] Creating layer inception_4e/pool
I0403 17:40:38.944890 14593 net.cpp:91] Creating Layer inception_4e/pool
I0403 17:40:38.944906 14593 net.cpp:425] inception_4e/pool <- inception_4d/output_inception_4d/output_0_split_4
I0403 17:40:38.944926 14593 net.cpp:399] inception_4e/pool -> inception_4e/pool
I0403 17:40:38.944998 14593 net.cpp:141] Setting up inception_4e/pool
I0403 17:40:38.945022 14593 net.cpp:148] Top shape: 24 528 14 14 (2483712)
I0403 17:40:38.945036 14593 net.cpp:156] Memory required for data: 1252085280
I0403 17:40:38.945051 14593 layer_factory.hpp:77] Creating layer inception_4e/pool_proj
I0403 17:40:38.945075 14593 net.cpp:91] Creating Layer inception_4e/pool_proj
I0403 17:40:38.945091 14593 net.cpp:425] inception_4e/pool_proj <- inception_4e/pool
I0403 17:40:38.945111 14593 net.cpp:399] inception_4e/pool_proj -> inception_4e/pool_proj
I0403 17:40:38.946571 14593 net.cpp:141] Setting up inception_4e/pool_proj
I0403 17:40:38.946609 14593 net.cpp:148] Top shape: 24 128 14 14 (602112)
I0403 17:40:38.946625 14593 net.cpp:156] Memory required for data: 1254493728
I0403 17:40:38.946643 14593 layer_factory.hpp:77] Creating layer inception_4e/relu_pool_proj
I0403 17:40:38.946663 14593 net.cpp:91] Creating Layer inception_4e/relu_pool_proj
I0403 17:40:38.946681 14593 net.cpp:425] inception_4e/relu_pool_proj <- inception_4e/pool_proj
I0403 17:40:38.946697 14593 net.cpp:386] inception_4e/relu_pool_proj -> inception_4e/pool_proj (in-place)
I0403 17:40:38.946986 14593 net.cpp:141] Setting up inception_4e/relu_pool_proj
I0403 17:40:38.947012 14593 net.cpp:148] Top shape: 24 128 14 14 (602112)
I0403 17:40:38.947028 14593 net.cpp:156] Memory required for data: 1256902176
I0403 17:40:38.947043 14593 layer_factory.hpp:77] Creating layer inception_4e/output
I0403 17:40:38.947062 14593 net.cpp:91] Creating Layer inception_4e/output
I0403 17:40:38.947078 14593 net.cpp:425] inception_4e/output <- inception_4e/1x1
I0403 17:40:38.947095 14593 net.cpp:425] inception_4e/output <- inception_4e/3x3
I0403 17:40:38.947110 14593 net.cpp:425] inception_4e/output <- inception_4e/5x5
I0403 17:40:38.947126 14593 net.cpp:425] inception_4e/output <- inception_4e/pool_proj
I0403 17:40:38.947142 14593 net.cpp:399] inception_4e/output -> inception_4e/output
I0403 17:40:38.947192 14593 net.cpp:141] Setting up inception_4e/output
I0403 17:40:38.947214 14593 net.cpp:148] Top shape: 24 832 14 14 (3913728)
I0403 17:40:38.947229 14593 net.cpp:156] Memory required for data: 1272557088
I0403 17:40:38.947244 14593 layer_factory.hpp:77] Creating layer pool4/3x3_s2
I0403 17:40:38.947262 14593 net.cpp:91] Creating Layer pool4/3x3_s2
I0403 17:40:38.947278 14593 net.cpp:425] pool4/3x3_s2 <- inception_4e/output
I0403 17:40:38.947299 14593 net.cpp:399] pool4/3x3_s2 -> pool4/3x3_s2
I0403 17:40:38.947362 14593 net.cpp:141] Setting up pool4/3x3_s2
I0403 17:40:38.947386 14593 net.cpp:148] Top shape: 24 832 7 7 (978432)
I0403 17:40:38.947401 14593 net.cpp:156] Memory required for data: 1276470816
I0403 17:40:38.947415 14593 layer_factory.hpp:77] Creating layer pool4/3x3_s2_pool4/3x3_s2_0_split
I0403 17:40:38.947435 14593 net.cpp:91] Creating Layer pool4/3x3_s2_pool4/3x3_s2_0_split
I0403 17:40:38.947453 14593 net.cpp:425] pool4/3x3_s2_pool4/3x3_s2_0_split <- pool4/3x3_s2
I0403 17:40:38.947471 14593 net.cpp:399] pool4/3x3_s2_pool4/3x3_s2_0_split -> pool4/3x3_s2_pool4/3x3_s2_0_split_0
I0403 17:40:38.947492 14593 net.cpp:399] pool4/3x3_s2_pool4/3x3_s2_0_split -> pool4/3x3_s2_pool4/3x3_s2_0_split_1
I0403 17:40:38.947512 14593 net.cpp:399] pool4/3x3_s2_pool4/3x3_s2_0_split -> pool4/3x3_s2_pool4/3x3_s2_0_split_2
I0403 17:40:38.947532 14593 net.cpp:399] pool4/3x3_s2_pool4/3x3_s2_0_split -> pool4/3x3_s2_pool4/3x3_s2_0_split_3
I0403 17:40:38.947620 14593 net.cpp:141] Setting up pool4/3x3_s2_pool4/3x3_s2_0_split
I0403 17:40:38.947649 14593 net.cpp:148] Top shape: 24 832 7 7 (978432)
I0403 17:40:38.947665 14593 net.cpp:148] Top shape: 24 832 7 7 (978432)
I0403 17:40:38.947681 14593 net.cpp:148] Top shape: 24 832 7 7 (978432)
I0403 17:40:38.947696 14593 net.cpp:148] Top shape: 24 832 7 7 (978432)
I0403 17:40:38.947710 14593 net.cpp:156] Memory required for data: 1292125728
I0403 17:40:38.947726 14593 layer_factory.hpp:77] Creating layer inception_5a/1x1
I0403 17:40:38.947744 14593 net.cpp:91] Creating Layer inception_5a/1x1
I0403 17:40:38.947760 14593 net.cpp:425] inception_5a/1x1 <- pool4/3x3_s2_pool4/3x3_s2_0_split_0
I0403 17:40:38.947782 14593 net.cpp:399] inception_5a/1x1 -> inception_5a/1x1
I0403 17:40:38.950575 14593 net.cpp:141] Setting up inception_5a/1x1
I0403 17:40:38.950606 14593 net.cpp:148] Top shape: 24 256 7 7 (301056)
I0403 17:40:38.950623 14593 net.cpp:156] Memory required for data: 1293329952
I0403 17:40:38.950641 14593 layer_factory.hpp:77] Creating layer inception_5a/relu_1x1
I0403 17:40:38.950659 14593 net.cpp:91] Creating Layer inception_5a/relu_1x1
I0403 17:40:38.950675 14593 net.cpp:425] inception_5a/relu_1x1 <- inception_5a/1x1
I0403 17:40:38.950691 14593 net.cpp:386] inception_5a/relu_1x1 -> inception_5a/1x1 (in-place)
I0403 17:40:38.951014 14593 net.cpp:141] Setting up inception_5a/relu_1x1
I0403 17:40:38.951043 14593 net.cpp:148] Top shape: 24 256 7 7 (301056)
I0403 17:40:38.951059 14593 net.cpp:156] Memory required for data: 1294534176
I0403 17:40:38.951074 14593 layer_factory.hpp:77] Creating layer inception_5a/3x3_reduce
I0403 17:40:38.951097 14593 net.cpp:91] Creating Layer inception_5a/3x3_reduce
I0403 17:40:38.951114 14593 net.cpp:425] inception_5a/3x3_reduce <- pool4/3x3_s2_pool4/3x3_s2_0_split_1
I0403 17:40:38.951134 14593 net.cpp:399] inception_5a/3x3_reduce -> inception_5a/3x3_reduce
I0403 17:40:38.953572 14593 net.cpp:141] Setting up inception_5a/3x3_reduce
I0403 17:40:38.953600 14593 net.cpp:148] Top shape: 24 160 7 7 (188160)
I0403 17:40:38.953615 14593 net.cpp:156] Memory required for data: 1295286816
I0403 17:40:38.953634 14593 layer_factory.hpp:77] Creating layer inception_5a/relu_3x3_reduce
I0403 17:40:38.953654 14593 net.cpp:91] Creating Layer inception_5a/relu_3x3_reduce
I0403 17:40:38.953670 14593 net.cpp:425] inception_5a/relu_3x3_reduce <- inception_5a/3x3_reduce
I0403 17:40:38.953688 14593 net.cpp:386] inception_5a/relu_3x3_reduce -> inception_5a/3x3_reduce (in-place)
I0403 17:40:38.953871 14593 net.cpp:141] Setting up inception_5a/relu_3x3_reduce
I0403 17:40:38.953898 14593 net.cpp:148] Top shape: 24 160 7 7 (188160)
I0403 17:40:38.953923 14593 net.cpp:156] Memory required for data: 1296039456
I0403 17:40:38.953938 14593 layer_factory.hpp:77] Creating layer inception_5a/3x3
I0403 17:40:38.953961 14593 net.cpp:91] Creating Layer inception_5a/3x3
I0403 17:40:38.953982 14593 net.cpp:425] inception_5a/3x3 <- inception_5a/3x3_reduce
I0403 17:40:38.954002 14593 net.cpp:399] inception_5a/3x3 -> inception_5a/3x3
I0403 17:40:38.958927 14593 net.cpp:141] Setting up inception_5a/3x3
I0403 17:40:38.958956 14593 net.cpp:148] Top shape: 24 320 7 7 (376320)
I0403 17:40:38.958971 14593 net.cpp:156] Memory required for data: 1297544736
I0403 17:40:38.959000 14593 layer_factory.hpp:77] Creating layer inception_5a/relu_3x3
I0403 17:40:38.959022 14593 net.cpp:91] Creating Layer inception_5a/relu_3x3
I0403 17:40:38.959039 14593 net.cpp:425] inception_5a/relu_3x3 <- inception_5a/3x3
I0403 17:40:38.959058 14593 net.cpp:386] inception_5a/relu_3x3 -> inception_5a/3x3 (in-place)
I0403 17:40:38.959348 14593 net.cpp:141] Setting up inception_5a/relu_3x3
I0403 17:40:38.959374 14593 net.cpp:148] Top shape: 24 320 7 7 (376320)
I0403 17:40:38.959389 14593 net.cpp:156] Memory required for data: 1299050016
I0403 17:40:38.959404 14593 layer_factory.hpp:77] Creating layer inception_5a/5x5_reduce
I0403 17:40:38.959429 14593 net.cpp:91] Creating Layer inception_5a/5x5_reduce
I0403 17:40:38.959446 14593 net.cpp:425] inception_5a/5x5_reduce <- pool4/3x3_s2_pool4/3x3_s2_0_split_2
I0403 17:40:38.959466 14593 net.cpp:399] inception_5a/5x5_reduce -> inception_5a/5x5_reduce
I0403 17:40:38.960608 14593 net.cpp:141] Setting up inception_5a/5x5_reduce
I0403 17:40:38.960638 14593 net.cpp:148] Top shape: 24 32 7 7 (37632)
I0403 17:40:38.960654 14593 net.cpp:156] Memory required for data: 1299200544
I0403 17:40:38.960672 14593 layer_factory.hpp:77] Creating layer inception_5a/relu_5x5_reduce
I0403 17:40:38.960690 14593 net.cpp:91] Creating Layer inception_5a/relu_5x5_reduce
I0403 17:40:38.960706 14593 net.cpp:425] inception_5a/relu_5x5_reduce <- inception_5a/5x5_reduce
I0403 17:40:38.960726 14593 net.cpp:386] inception_5a/relu_5x5_reduce -> inception_5a/5x5_reduce (in-place)
I0403 17:40:38.961024 14593 net.cpp:141] Setting up inception_5a/relu_5x5_reduce
I0403 17:40:38.961050 14593 net.cpp:148] Top shape: 24 32 7 7 (37632)
I0403 17:40:38.961064 14593 net.cpp:156] Memory required for data: 1299351072
I0403 17:40:38.961079 14593 layer_factory.hpp:77] Creating layer inception_5a/5x5
I0403 17:40:38.961102 14593 net.cpp:91] Creating Layer inception_5a/5x5
I0403 17:40:38.961119 14593 net.cpp:425] inception_5a/5x5 <- inception_5a/5x5_reduce
I0403 17:40:38.961140 14593 net.cpp:399] inception_5a/5x5 -> inception_5a/5x5
I0403 17:40:38.962849 14593 net.cpp:141] Setting up inception_5a/5x5
I0403 17:40:38.962890 14593 net.cpp:148] Top shape: 24 128 7 7 (150528)
I0403 17:40:38.962908 14593 net.cpp:156] Memory required for data: 1299953184
I0403 17:40:38.962925 14593 layer_factory.hpp:77] Creating layer inception_5a/relu_5x5
I0403 17:40:38.962945 14593 net.cpp:91] Creating Layer inception_5a/relu_5x5
I0403 17:40:38.962962 14593 net.cpp:425] inception_5a/relu_5x5 <- inception_5a/5x5
I0403 17:40:38.962983 14593 net.cpp:386] inception_5a/relu_5x5 -> inception_5a/5x5 (in-place)
I0403 17:40:38.963173 14593 net.cpp:141] Setting up inception_5a/relu_5x5
I0403 17:40:38.963198 14593 net.cpp:148] Top shape: 24 128 7 7 (150528)
I0403 17:40:38.963213 14593 net.cpp:156] Memory required for data: 1300555296
I0403 17:40:38.963228 14593 layer_factory.hpp:77] Creating layer inception_5a/pool
I0403 17:40:38.963245 14593 net.cpp:91] Creating Layer inception_5a/pool
I0403 17:40:38.963261 14593 net.cpp:425] inception_5a/pool <- pool4/3x3_s2_pool4/3x3_s2_0_split_3
I0403 17:40:38.963282 14593 net.cpp:399] inception_5a/pool -> inception_5a/pool
I0403 17:40:38.963351 14593 net.cpp:141] Setting up inception_5a/pool
I0403 17:40:38.963374 14593 net.cpp:148] Top shape: 24 832 7 7 (978432)
I0403 17:40:38.963389 14593 net.cpp:156] Memory required for data: 1304469024
I0403 17:40:38.963403 14593 layer_factory.hpp:77] Creating layer inception_5a/pool_proj
I0403 17:40:38.963426 14593 net.cpp:91] Creating Layer inception_5a/pool_proj
I0403 17:40:38.963443 14593 net.cpp:425] inception_5a/pool_proj <- inception_5a/pool
I0403 17:40:38.963461 14593 net.cpp:399] inception_5a/pool_proj -> inception_5a/pool_proj
I0403 17:40:38.965684 14593 net.cpp:141] Setting up inception_5a/pool_proj
I0403 17:40:38.965714 14593 net.cpp:148] Top shape: 24 128 7 7 (150528)
I0403 17:40:38.965730 14593 net.cpp:156] Memory required for data: 1305071136
I0403 17:40:38.965749 14593 layer_factory.hpp:77] Creating layer inception_5a/relu_pool_proj
I0403 17:40:38.965769 14593 net.cpp:91] Creating Layer inception_5a/relu_pool_proj
I0403 17:40:38.965785 14593 net.cpp:425] inception_5a/relu_pool_proj <- inception_5a/pool_proj
I0403 17:40:38.965802 14593 net.cpp:386] inception_5a/relu_pool_proj -> inception_5a/pool_proj (in-place)
I0403 17:40:38.966101 14593 net.cpp:141] Setting up inception_5a/relu_pool_proj
I0403 17:40:38.966127 14593 net.cpp:148] Top shape: 24 128 7 7 (150528)
I0403 17:40:38.966142 14593 net.cpp:156] Memory required for data: 1305673248
I0403 17:40:38.966156 14593 layer_factory.hpp:77] Creating layer inception_5a/output
I0403 17:40:38.966177 14593 net.cpp:91] Creating Layer inception_5a/output
I0403 17:40:38.966194 14593 net.cpp:425] inception_5a/output <- inception_5a/1x1
I0403 17:40:38.966210 14593 net.cpp:425] inception_5a/output <- inception_5a/3x3
I0403 17:40:38.966228 14593 net.cpp:425] inception_5a/output <- inception_5a/5x5
I0403 17:40:38.966243 14593 net.cpp:425] inception_5a/output <- inception_5a/pool_proj
I0403 17:40:38.966259 14593 net.cpp:399] inception_5a/output -> inception_5a/output
I0403 17:40:38.966308 14593 net.cpp:141] Setting up inception_5a/output
I0403 17:40:38.966331 14593 net.cpp:148] Top shape: 24 832 7 7 (978432)
I0403 17:40:38.966346 14593 net.cpp:156] Memory required for data: 1309586976
I0403 17:40:38.966361 14593 layer_factory.hpp:77] Creating layer inception_5a/output_inception_5a/output_0_split
I0403 17:40:38.966378 14593 net.cpp:91] Creating Layer inception_5a/output_inception_5a/output_0_split
I0403 17:40:38.966393 14593 net.cpp:425] inception_5a/output_inception_5a/output_0_split <- inception_5a/output
I0403 17:40:38.966413 14593 net.cpp:399] inception_5a/output_inception_5a/output_0_split -> inception_5a/output_inception_5a/output_0_split_0
I0403 17:40:38.966434 14593 net.cpp:399] inception_5a/output_inception_5a/output_0_split -> inception_5a/output_inception_5a/output_0_split_1
I0403 17:40:38.966454 14593 net.cpp:399] inception_5a/output_inception_5a/output_0_split -> inception_5a/output_inception_5a/output_0_split_2
I0403 17:40:38.966475 14593 net.cpp:399] inception_5a/output_inception_5a/output_0_split -> inception_5a/output_inception_5a/output_0_split_3
I0403 17:40:38.966585 14593 net.cpp:141] Setting up inception_5a/output_inception_5a/output_0_split
I0403 17:40:38.966610 14593 net.cpp:148] Top shape: 24 832 7 7 (978432)
I0403 17:40:38.966626 14593 net.cpp:148] Top shape: 24 832 7 7 (978432)
I0403 17:40:38.966642 14593 net.cpp:148] Top shape: 24 832 7 7 (978432)
I0403 17:40:38.966658 14593 net.cpp:148] Top shape: 24 832 7 7 (978432)
I0403 17:40:38.966671 14593 net.cpp:156] Memory required for data: 1325241888
I0403 17:40:38.966686 14593 layer_factory.hpp:77] Creating layer inception_5b/1x1
I0403 17:40:38.966706 14593 net.cpp:91] Creating Layer inception_5b/1x1
I0403 17:40:38.966723 14593 net.cpp:425] inception_5b/1x1 <- inception_5a/output_inception_5a/output_0_split_0
I0403 17:40:38.966744 14593 net.cpp:399] inception_5b/1x1 -> inception_5b/1x1
I0403 17:40:38.970515 14593 net.cpp:141] Setting up inception_5b/1x1
I0403 17:40:38.970544 14593 net.cpp:148] Top shape: 24 384 7 7 (451584)
I0403 17:40:38.970561 14593 net.cpp:156] Memory required for data: 1327048224
I0403 17:40:38.970580 14593 layer_factory.hpp:77] Creating layer inception_5b/relu_1x1
I0403 17:40:38.970600 14593 net.cpp:91] Creating Layer inception_5b/relu_1x1
I0403 17:40:38.970618 14593 net.cpp:425] inception_5b/relu_1x1 <- inception_5b/1x1
I0403 17:40:38.970635 14593 net.cpp:386] inception_5b/relu_1x1 -> inception_5b/1x1 (in-place)
I0403 17:40:38.970947 14593 net.cpp:141] Setting up inception_5b/relu_1x1
I0403 17:40:38.970973 14593 net.cpp:148] Top shape: 24 384 7 7 (451584)
I0403 17:40:38.970993 14593 net.cpp:156] Memory required for data: 1328854560
I0403 17:40:38.971009 14593 layer_factory.hpp:77] Creating layer inception_5b/3x3_reduce
I0403 17:40:38.971031 14593 net.cpp:91] Creating Layer inception_5b/3x3_reduce
I0403 17:40:38.971050 14593 net.cpp:425] inception_5b/3x3_reduce <- inception_5a/output_inception_5a/output_0_split_1
I0403 17:40:38.971072 14593 net.cpp:399] inception_5b/3x3_reduce -> inception_5b/3x3_reduce
I0403 17:40:38.973783 14593 net.cpp:141] Setting up inception_5b/3x3_reduce
I0403 17:40:38.973812 14593 net.cpp:148] Top shape: 24 192 7 7 (225792)
I0403 17:40:38.973829 14593 net.cpp:156] Memory required for data: 1329757728
I0403 17:40:38.973846 14593 layer_factory.hpp:77] Creating layer inception_5b/relu_3x3_reduce
I0403 17:40:38.973866 14593 net.cpp:91] Creating Layer inception_5b/relu_3x3_reduce
I0403 17:40:38.973884 14593 net.cpp:425] inception_5b/relu_3x3_reduce <- inception_5b/3x3_reduce
I0403 17:40:38.973902 14593 net.cpp:386] inception_5b/relu_3x3_reduce -> inception_5b/3x3_reduce (in-place)
I0403 17:40:38.974102 14593 net.cpp:141] Setting up inception_5b/relu_3x3_reduce
I0403 17:40:38.974130 14593 net.cpp:148] Top shape: 24 192 7 7 (225792)
I0403 17:40:38.974146 14593 net.cpp:156] Memory required for data: 1330660896
I0403 17:40:38.974161 14593 layer_factory.hpp:77] Creating layer inception_5b/3x3
I0403 17:40:38.974185 14593 net.cpp:91] Creating Layer inception_5b/3x3
I0403 17:40:38.974203 14593 net.cpp:425] inception_5b/3x3 <- inception_5b/3x3_reduce
I0403 17:40:38.974223 14593 net.cpp:399] inception_5b/3x3 -> inception_5b/3x3
I0403 17:40:38.980958 14593 net.cpp:141] Setting up inception_5b/3x3
I0403 17:40:38.980991 14593 net.cpp:148] Top shape: 24 384 7 7 (451584)
I0403 17:40:38.981009 14593 net.cpp:156] Memory required for data: 1332467232
I0403 17:40:38.981026 14593 layer_factory.hpp:77] Creating layer inception_5b/relu_3x3
I0403 17:40:38.981047 14593 net.cpp:91] Creating Layer inception_5b/relu_3x3
I0403 17:40:38.981065 14593 net.cpp:425] inception_5b/relu_3x3 <- inception_5b/3x3
I0403 17:40:38.981083 14593 net.cpp:386] inception_5b/relu_3x3 -> inception_5b/3x3 (in-place)
I0403 17:40:38.981384 14593 net.cpp:141] Setting up inception_5b/relu_3x3
I0403 17:40:38.981410 14593 net.cpp:148] Top shape: 24 384 7 7 (451584)
I0403 17:40:38.981426 14593 net.cpp:156] Memory required for data: 1334273568
I0403 17:40:38.981441 14593 layer_factory.hpp:77] Creating layer inception_5b/5x5_reduce
I0403 17:40:38.981479 14593 net.cpp:91] Creating Layer inception_5b/5x5_reduce
I0403 17:40:38.981498 14593 net.cpp:425] inception_5b/5x5_reduce <- inception_5a/output_inception_5a/output_0_split_2
I0403 17:40:38.981521 14593 net.cpp:399] inception_5b/5x5_reduce -> inception_5b/5x5_reduce
I0403 17:40:38.982810 14593 net.cpp:141] Setting up inception_5b/5x5_reduce
I0403 17:40:38.982839 14593 net.cpp:148] Top shape: 24 48 7 7 (56448)
I0403 17:40:38.982854 14593 net.cpp:156] Memory required for data: 1334499360
I0403 17:40:38.982873 14593 layer_factory.hpp:77] Creating layer inception_5b/relu_5x5_reduce
I0403 17:40:38.982893 14593 net.cpp:91] Creating Layer inception_5b/relu_5x5_reduce
I0403 17:40:38.982911 14593 net.cpp:425] inception_5b/relu_5x5_reduce <- inception_5b/5x5_reduce
I0403 17:40:38.982929 14593 net.cpp:386] inception_5b/relu_5x5_reduce -> inception_5b/5x5_reduce (in-place)
I0403 17:40:38.983309 14593 net.cpp:141] Setting up inception_5b/relu_5x5_reduce
I0403 17:40:38.983337 14593 net.cpp:148] Top shape: 24 48 7 7 (56448)
I0403 17:40:38.983353 14593 net.cpp:156] Memory required for data: 1334725152
I0403 17:40:38.983368 14593 layer_factory.hpp:77] Creating layer inception_5b/5x5
I0403 17:40:38.983389 14593 net.cpp:91] Creating Layer inception_5b/5x5
I0403 17:40:38.983407 14593 net.cpp:425] inception_5b/5x5 <- inception_5b/5x5_reduce
I0403 17:40:38.983427 14593 net.cpp:399] inception_5b/5x5 -> inception_5b/5x5
I0403 17:40:38.985553 14593 net.cpp:141] Setting up inception_5b/5x5
I0403 17:40:38.985584 14593 net.cpp:148] Top shape: 24 128 7 7 (150528)
I0403 17:40:38.985601 14593 net.cpp:156] Memory required for data: 1335327264
I0403 17:40:38.985620 14593 layer_factory.hpp:77] Creating layer inception_5b/relu_5x5
I0403 17:40:38.985637 14593 net.cpp:91] Creating Layer inception_5b/relu_5x5
I0403 17:40:38.985653 14593 net.cpp:425] inception_5b/relu_5x5 <- inception_5b/5x5
I0403 17:40:38.985671 14593 net.cpp:386] inception_5b/relu_5x5 -> inception_5b/5x5 (in-place)
I0403 17:40:38.985867 14593 net.cpp:141] Setting up inception_5b/relu_5x5
I0403 17:40:38.985893 14593 net.cpp:148] Top shape: 24 128 7 7 (150528)
I0403 17:40:38.985908 14593 net.cpp:156] Memory required for data: 1335929376
I0403 17:40:38.985923 14593 layer_factory.hpp:77] Creating layer inception_5b/pool
I0403 17:40:38.985940 14593 net.cpp:91] Creating Layer inception_5b/pool
I0403 17:40:38.985957 14593 net.cpp:425] inception_5b/pool <- inception_5a/output_inception_5a/output_0_split_3
I0403 17:40:38.985980 14593 net.cpp:399] inception_5b/pool -> inception_5b/pool
I0403 17:40:38.986053 14593 net.cpp:141] Setting up inception_5b/pool
I0403 17:40:38.986079 14593 net.cpp:148] Top shape: 24 832 7 7 (978432)
I0403 17:40:38.986095 14593 net.cpp:156] Memory required for data: 1339843104
I0403 17:40:38.986109 14593 layer_factory.hpp:77] Creating layer inception_5b/pool_proj
I0403 17:40:38.986131 14593 net.cpp:91] Creating Layer inception_5b/pool_proj
I0403 17:40:38.986148 14593 net.cpp:425] inception_5b/pool_proj <- inception_5b/pool
I0403 17:40:38.986167 14593 net.cpp:399] inception_5b/pool_proj -> inception_5b/pool_proj
I0403 17:40:38.988430 14593 net.cpp:141] Setting up inception_5b/pool_proj
I0403 17:40:38.988459 14593 net.cpp:148] Top shape: 24 128 7 7 (150528)
I0403 17:40:38.988476 14593 net.cpp:156] Memory required for data: 1340445216
I0403 17:40:38.988494 14593 layer_factory.hpp:77] Creating layer inception_5b/relu_pool_proj
I0403 17:40:38.988513 14593 net.cpp:91] Creating Layer inception_5b/relu_pool_proj
I0403 17:40:38.988531 14593 net.cpp:425] inception_5b/relu_pool_proj <- inception_5b/pool_proj
I0403 17:40:38.988548 14593 net.cpp:386] inception_5b/relu_pool_proj -> inception_5b/pool_proj (in-place)
I0403 17:40:38.988842 14593 net.cpp:141] Setting up inception_5b/relu_pool_proj
I0403 17:40:38.988868 14593 net.cpp:148] Top shape: 24 128 7 7 (150528)
I0403 17:40:38.988884 14593 net.cpp:156] Memory required for data: 1341047328
I0403 17:40:38.988898 14593 layer_factory.hpp:77] Creating layer inception_5b/output
I0403 17:40:38.988919 14593 net.cpp:91] Creating Layer inception_5b/output
I0403 17:40:38.988948 14593 net.cpp:425] inception_5b/output <- inception_5b/1x1
I0403 17:40:38.988966 14593 net.cpp:425] inception_5b/output <- inception_5b/3x3
I0403 17:40:38.988993 14593 net.cpp:425] inception_5b/output <- inception_5b/5x5
I0403 17:40:38.989012 14593 net.cpp:425] inception_5b/output <- inception_5b/pool_proj
I0403 17:40:38.989028 14593 net.cpp:399] inception_5b/output -> inception_5b/output
I0403 17:40:38.989081 14593 net.cpp:141] Setting up inception_5b/output
I0403 17:40:38.989104 14593 net.cpp:148] Top shape: 24 1024 7 7 (1204224)
I0403 17:40:38.989120 14593 net.cpp:156] Memory required for data: 1345864224
I0403 17:40:38.989133 14593 layer_factory.hpp:77] Creating layer pool5/7x7_s1
I0403 17:40:38.989151 14593 net.cpp:91] Creating Layer pool5/7x7_s1
I0403 17:40:38.989166 14593 net.cpp:425] pool5/7x7_s1 <- inception_5b/output
I0403 17:40:38.989187 14593 net.cpp:399] pool5/7x7_s1 -> pool5/7x7_s1
I0403 17:40:38.989410 14593 net.cpp:141] Setting up pool5/7x7_s1
I0403 17:40:38.989439 14593 net.cpp:148] Top shape: 24 1024 1 1 (24576)
I0403 17:40:38.989455 14593 net.cpp:156] Memory required for data: 1345962528
I0403 17:40:38.989470 14593 layer_factory.hpp:77] Creating layer pool5/drop_7x7_s1
I0403 17:40:38.989488 14593 net.cpp:91] Creating Layer pool5/drop_7x7_s1
I0403 17:40:38.989505 14593 net.cpp:425] pool5/drop_7x7_s1 <- pool5/7x7_s1
I0403 17:40:38.989522 14593 net.cpp:386] pool5/drop_7x7_s1 -> pool5/7x7_s1 (in-place)
I0403 17:40:38.989575 14593 net.cpp:141] Setting up pool5/drop_7x7_s1
I0403 17:40:38.989599 14593 net.cpp:148] Top shape: 24 1024 1 1 (24576)
I0403 17:40:38.989614 14593 net.cpp:156] Memory required for data: 1346060832
I0403 17:40:38.989629 14593 layer_factory.hpp:77] Creating layer loss3/classifier_plantvillage
I0403 17:40:38.989650 14593 net.cpp:91] Creating Layer loss3/classifier_plantvillage
I0403 17:40:38.989667 14593 net.cpp:425] loss3/classifier_plantvillage <- pool5/7x7_s1
I0403 17:40:38.989687 14593 net.cpp:399] loss3/classifier_plantvillage -> loss3/classifier_plantvillage
I0403 17:40:38.990151 14593 net.cpp:141] Setting up loss3/classifier_plantvillage
I0403 17:40:38.990177 14593 net.cpp:148] Top shape: 24 38 (912)
I0403 17:40:38.990192 14593 net.cpp:156] Memory required for data: 1346064480
I0403 17:40:38.990209 14593 layer_factory.hpp:77] Creating layer loss3/classifier_plantvillage_loss3/classifier_plantvillage_0_split
I0403 17:40:38.990227 14593 net.cpp:91] Creating Layer loss3/classifier_plantvillage_loss3/classifier_plantvillage_0_split
I0403 17:40:38.990243 14593 net.cpp:425] loss3/classifier_plantvillage_loss3/classifier_plantvillage_0_split <- loss3/classifier_plantvillage
I0403 17:40:38.990264 14593 net.cpp:399] loss3/classifier_plantvillage_loss3/classifier_plantvillage_0_split -> loss3/classifier_plantvillage_loss3/classifier_plantvillage_0_split_0
I0403 17:40:38.990285 14593 net.cpp:399] loss3/classifier_plantvillage_loss3/classifier_plantvillage_0_split -> loss3/classifier_plantvillage_loss3/classifier_plantvillage_0_split_1
I0403 17:40:38.990306 14593 net.cpp:399] loss3/classifier_plantvillage_loss3/classifier_plantvillage_0_split -> loss3/classifier_plantvillage_loss3/classifier_plantvillage_0_split_2
I0403 17:40:38.990326 14593 net.cpp:399] loss3/classifier_plantvillage_loss3/classifier_plantvillage_0_split -> loss3/classifier_plantvillage_loss3/classifier_plantvillage_0_split_3
I0403 17:40:38.990425 14593 net.cpp:141] Setting up loss3/classifier_plantvillage_loss3/classifier_plantvillage_0_split
I0403 17:40:38.990448 14593 net.cpp:148] Top shape: 24 38 (912)
I0403 17:40:38.990464 14593 net.cpp:148] Top shape: 24 38 (912)
I0403 17:40:38.990479 14593 net.cpp:148] Top shape: 24 38 (912)
I0403 17:40:38.990494 14593 net.cpp:148] Top shape: 24 38 (912)
I0403 17:40:38.990507 14593 net.cpp:156] Memory required for data: 1346079072
I0403 17:40:38.990521 14593 layer_factory.hpp:77] Creating layer loss1/loss
I0403 17:40:38.990542 14593 net.cpp:91] Creating Layer loss1/loss
I0403 17:40:38.990559 14593 net.cpp:425] loss1/loss <- loss1/classifier_plantvillage_loss1/classifier_plantvillage_0_split_0
I0403 17:40:38.990591 14593 net.cpp:425] loss1/loss <- label_data_1_split_0
…
