…
I0403 17:57:28.358322 15621 net.cpp:313] The NetState phase (1) differed from the phase (0) specified by a rule in layer data
I0403 17:57:28.359503 15621 net.cpp:49] Initializing net from parameters: 
state {
  phase: TEST
}
layer {
  name: "data"
  type: "Data"
  top: "data"
  top: "label"
  include {
    phase: TEST
  }
  transform_param {
    mirror: false
    crop_size: 224
    mean_file: "/home/mohanty/data/final_dataset/lmdb/grayscale-60-40/mean.binaryproto"
  }
  data_param {
    source: "/home/mohanty/data/final_dataset/lmdb/grayscale-60-40/test_db"
    batch_size: 24
    backend: LMDB
  }
}
layer {
  name: "conv1/7x7_s2"
  type: "Convolution"
  bottom: "data"
  top: "conv1/7x7_s2"
  param {
    lr_mult: 1
    decay_mult: 1
  }
  param {
    lr_mult: 2
    decay_mult: 0
  }
  convolution_param {
    num_output: 64
    pad: 3
    kernel_size: 7
    stride: 2
    weight_filler {
      type: "xavier"
      std: 0.1
    }
    bias_filler {
      type: "constant"
      value: 0.2
    }
  }
}
layer {
  name: "conv1/relu_7x7"
  type: "ReLU"
  bottom: "conv1/7x7_s2"
  top: "conv1/7x7_s2"
}
layer {
  name: "pool1/3x3_s2"
  type: "Pooling"
  bottom: "conv1/7x7_s2"
  top: "pool1/3x3_s2"
  pooling_param {
    pool: MAX
    kernel_size: 3
    stride: 2
  }
}
layer {
  name: "pool1/norm1"
  type: "LRN"
  bottom: "pool1/3x3_s2"
  top: "pool1/norm1"
  lrn_param {
    local_size: 5
    alpha: 0.0001
    beta: 0.75
  }
}
layer {
  name: "conv2/3x3_reduce"
  type: "Convolution"
  bottom: "pool1/norm1"
  top: "conv2/3x3_reduce"
  param {
    lr_mult: 1
    decay_mult: 1
  }
  param {
    lr_mult: 2
    decay_mult: 0
  }
  convolution_param {
    num_output: 64
    kernel_size: 1
    weight_filler {
      type: "xavier"
      std: 0.1
    }
    bias_filler {
      type: "constant"
      value: 0.2
    }
  }
}
layer {
  name: "conv2/relu_3x3_reduce"
  type: "ReLU"
  bottom: "conv2/3x3_reduce"
  top: "conv2/3x3_reduce"
}
layer {
  name: "conv2/3x3"
  type: "Convolution"
  bottom: "conv2/3x3_reduce"
  top: "conv2/3x3"
  param {
    lr_mult: 1
    decay_mult: 1
  }
  param {
    lr_mult: 2
    decay_mult: 0
  }
  convolution_param {
    num_output: 192
    pad: 1
    kernel_size: 3
    weight_filler {
      type: "xavier"
      std: 0.03
    }
    bias_filler {
      type: "constant"
      value: 0.2
    }
  }
}
layer {
  name: "conv2/relu_3x3"
  type: "ReLU"
  bottom: "conv2/3x3"
  top: "conv2/3x3"
}
layer {
  name: "conv2/norm2"
  type: "LRN"
  bottom: "conv2/3x3"
  top: "conv2/norm2"
  lrn_param {
    local_size: 5
    alpha: 0.0001
    beta: 0.75
  }
}
layer {
  name: "pool2/3x3_s2"
  type: "Pooling"
  bottom: "conv2/norm2"
  top: "pool2/3x3_s2"
  pooling_param {
    pool: MAX
    kernel_size: 3
    stride: 2
  }
}
layer {
  name: "inception_3a/1x1"
  type: "Convolution"
  bottom: "pool2/3x3_s2"
  top: "inception_3a/1x1"
  param {
    lr_mult: 1
    decay_mult: 1
  }
  param {
    lr_mult: 2
    decay_mult: 0
  }
  convolution_param {
    num_output: 64
    kernel_size: 1
    weight_filler {
      type: "xavier"
      std: 0.03
    }
    bias_filler {
      type: "constant"
      value: 0.2
    }
  }
}
layer {
  name: "inception_3a/relu_1x1"
  type: "ReLU"
  bottom: "inception_3a/1x1"
  top: "inception_3a/1x1"
}
layer {
  name: "inception_3a/3x3_reduce"
  type: "Convolution"
  bottom: "pool2/3x3_s2"
  top: "inception_3a/3x3_reduce"
  param {
    lr_mult: 1
    decay_mult: 1
  }
  param {
    lr_mult: 2
    decay_mult: 0
  }
  convolution_param {
    num_output: 96
    kernel_size: 1
    weight_filler {
      type: "xavier"
      std: 0.09
    }
    bias_filler {
      type: "constant"
      value: 0.2
    }
  }
}
layer {
  name: "inception_3a/relu_3x3_reduce"
  type: "ReLU"
  bottom: "inception_3a/3x3_reduce"
  top: "inception_3a/3x3_reduce"
}
layer {
  name: "inception_3a/3x3"
  type: "Convolution"
  bottom: "inception_3a/3x3_reduce"
  top: "inception_3a/3x3"
  param {
    lr_mult: 1
    decay_mult: 1
  }
  param {
    lr_mult: 2
    decay_mult: 0
  }
  convolution_param {
    num_output: 128
    pad: 1
    kernel_size: 3
    weight_filler {
      type: "xavier"
      std: 0.03
    }
    bias_filler {
      type: "constant"
      value: 0.2
    }
  }
}
layer {
  name: "inception_3a/relu_3x3"
  type: "ReLU"
  bottom: "inception_3a/3x3"
  top: "inception_3a/3x3"
}
layer {
  name: "inception_3a/5x5_reduce"
  type: "Convolution"
  bottom: "pool2/3x3_s2"
  top: "inception_3a/5x5_reduce"
  param {
    lr_mult: 1
    decay_mult: 1
  }
  param {
    lr_mult: 2
    decay_mult: 0
  }
  convolution_param {
    num_output: 16
    kernel_size: 1
    weight_filler {
      type: "xavier"
      std: 0.2
    }
    bias_filler {
      type: "constant"
      value: 0.2
    }
  }
}
layer {
  name: "inception_3a/relu_5x5_reduce"
  type: "ReLU"
  bottom: "inception_3a/5x5_reduce"
  top: "inception_3a/5x5_reduce"
}
layer {
  name: "inception_3a/5x5"
  type: "Convolution"
  bottom: "inception_3a/5x5_reduce"
  top: "inception_3a/5x5"
  param {
    lr_mult: 1
    decay_mult: 1
  }
  param {
    lr_mult: 2
    decay_mult: 0
  }
  convolution_param {
    num_output: 32
    pad: 2
    kernel_size: 5
    weight_filler {
      type: "xavier"
      std: 0.03
    }
    bias_filler {
      type: "constant"
      value: 0.2
    }
  }
}
layer {
  name: "inception_3a/relu_5x5"
  type: "ReLU"
  bottom: "inception_3a/5x5"
  top: "inception_3a/5x5"
}
layer {
  name: "inception_3a/pool"
  type: "Pooling"
  bottom: "pool2/3x3_s2"
  top: "inception_3a/pool"
  pooling_param {
    pool: MAX
    kernel_size: 3
    stride: 1
    pad: 1
  }
}
layer {
  name: "inception_3a/pool_proj"
  type: "Convolution"
  bottom: "inception_3a/pool"
  top: "inception_3a/pool_proj"
  param {
    lr_mult: 1
    decay_mult: 1
  }
  param {
    lr_mult: 2
    decay_mult: 0
  }
  convolution_param {
    num_output: 32
    kernel_size: 1
    weight_filler {
      type: "xavier"
      std: 0.1
    }
    bias_filler {
      type: "constant"
      value: 0.2
    }
  }
}
layer {
  name: "inception_3a/relu_pool_proj"
  type: "ReLU"
  bottom: "inception_3a/pool_proj"
  top: "inception_3a/pool_proj"
}
layer {
  name: "inception_3a/output"
  type: "Concat"
  bottom: "inception_3a/1x1"
  bottom: "inception_3a/3x3"
  bottom: "inception_3a/5x5"
  bottom: "inception_3a/pool_proj"
  top: "inception_3a/output"
}
layer {
  name: "inception_3b/1x1"
  type: "Convolution"
  bottom: "inception_3a/output"
  top: "inception_3b/1x1"
  param {
    lr_mult: 1
    decay_mult: 1
  }
  param {
    lr_mult: 2
    decay_mult: 0
  }
  convolution_param {
    num_output: 128
    kernel_size: 1
    weight_filler {
      type: "xavier"
      std: 0.03
    }
    bias_filler {
      type: "constant"
      value: 0.2
    }
  }
}
layer {
  name: "inception_3b/relu_1x1"
  type: "ReLU"
  bottom: "inception_3b/1x1"
  top: "inception_3b/1x1"
}
layer {
  name: "inception_3b/3x3_reduce"
  type: "Convolution"
  bottom: "inception_3a/output"
  top: "inception_3b/3x3_reduce"
  param {
    lr_mult: 1
    decay_mult: 1
  }
  param {
    lr_mult: 2
    decay_mult: 0
  }
  convolution_param {
    num_output: 128
    kernel_size: 1
    weight_filler {
      type: "xavier"
      std: 0.09
    }
    bias_filler {
      type: "constant"
      value: 0.2
    }
  }
}
layer {
  name: "inception_3b/relu_3x3_reduce"
  type: "ReLU"
  bottom: "inception_3b/3x3_reduce"
  top: "inception_3b/3x3_reduce"
}
layer {
  name: "inception_3b/3x3"
  type: "Convolution"
  bottom: "inception_3b/3x3_reduce"
  top: "inception_3b/3x3"
  param {
    lr_mult: 1
    decay_mult: 1
  }
  param {
    lr_mult: 2
    decay_mult: 0
  }
  convolution_param {
    num_output: 192
    pad: 1
    kernel_size: 3
    weight_filler {
      type: "xavier"
      std: 0.03
    }
    bias_filler {
      type: "constant"
      value: 0.2
    }
  }
}
layer {
  name: "inception_3b/relu_3x3"
  type: "ReLU"
  bottom: "inception_3b/3x3"
  top: "inception_3b/3x3"
}
layer {
  name: "inception_3b/5x5_reduce"
  type: "Convolution"
  bottom: "inception_3a/output"
  top: "inception_3b/5x5_reduce"
  param {
    lr_mult: 1
    decay_mult: 1
  }
  param {
    lr_mult: 2
    decay_mult: 0
  }
  convolution_param {
    num_output: 32
    kernel_size: 1
    weight_filler {
      type: "xavier"
      std: 0.2
    }
    bias_filler {
      type: "constant"
      value: 0.2
    }
  }
}
layer {
  name: "inception_3b/relu_5x5_reduce"
  type: "ReLU"
  bottom: "inception_3b/5x5_reduce"
  top: "inception_3b/5x5_reduce"
}
layer {
  name: "inception_3b/5x5"
  type: "Convolution"
  bottom: "inception_3b/5x5_reduce"
  top: "inception_3b/5x5"
  param {
    lr_mult: 1
    decay_mult: 1
  }
  param {
    lr_mult: 2
    decay_mult: 0
  }
  convolution_param {
    num_output: 96
    pad: 2
    kernel_size: 5
    weight_filler {
      type: "xavier"
      std: 0.03
    }
    bias_filler {
      type: "constant"
      value: 0.2
    }
  }
}
layer {
  name: "inception_3b/relu_5x5"
  type: "ReLU"
  bottom: "inception_3b/5x5"
  top: "inception_3b/5x5"
}
layer {
  name: "inception_3b/pool"
  type: "Pooling"
  bottom: "inception_3a/output"
  top: "inception_3b/pool"
  pooling_param {
    pool: MAX
    kernel_size: 3
    stride: 1
    pad: 1
  }
}
layer {
  name: "inception_3b/pool_proj"
  type: "Convolution"
  bottom: "inception_3b/pool"
  top: "inception_3b/pool_proj"
  param {
    lr_mult: 1
    decay_mult: 1
  }
  param {
    lr_mult: 2
    decay_mult: 0
  }
  convolution_param {
    num_output: 64
    kernel_size: 1
    weight_filler {
      type: "xavier"
      std: 0.1
    }
    bias_filler {
      type: "constant"
      value: 0.2
    }
  }
}
layer {
  name: "inception_3b/relu_pool_proj"
  type: "ReLU"
  bottom: "inception_3b/pool_proj"
  top: "inception_3b/pool_proj"
}
layer {
  name: "inception_3b/output"
  type: "Concat"
  bottom: "inception_3b/1x1"
  bottom: "inception_3b/3x3"
  bottom: "inception_3b/5x5"
  bottom: "inception_3b/pool_proj"
  top: "inception_3b/output"
}
layer {
  name: "pool3/3x3_s2"
  type: "Pooling"
  bottom: "inception_3b/output"
  top: "pool3/3x3_s2"
  pooling_param {
    pool: MAX
    kernel_size: 3
    stride: 2
  }
}
layer {
  name: "inception_4a/1x1"
  type: "Convolution"
  bottom: "pool3/3x3_s2"
  top: "inception_4a/1x1"
  param {
    lr_mult: 1
    decay_mult: 1
  }
  param {
    lr_mult: 2
    decay_mult: 0
  }
  convolution_param {
    num_output: 192
    kernel_size: 1
    weight_filler {
      type: "xavier"
      std: 0.03
    }
    bias_filler {
      type: "constant"
      value: 0.2
    }
  }
}
layer {
  name: "inception_4a/relu_1x1"
  type: "ReLU"
  bottom: "inception_4a/1x1"
  top: "inception_4a/1x1"
}
layer {
  name: "inception_4a/3x3_reduce"
  type: "Convolution"
  bottom: "pool3/3x3_s2"
  top: "inception_4a/3x3_reduce"
  param {
    lr_mult: 1
    decay_mult: 1
  }
  param {
    lr_mult: 2
    decay_mult: 0
  }
  convolution_param {
    num_output: 96
    kernel_size: 1
    weight_filler {
      type: "xavier"
      std: 0.09
    }
    bias_filler {
      type: "constant"
      value: 0.2
    }
  }
}
layer {
  name: "inception_4a/relu_3x3_reduce"
  type: "ReLU"
  bottom: "inception_4a/3x3_reduce"
  top: "inception_4a/3x3_reduce"
}
layer {
  name: "inception_4a/3x3"
  type: "Convolution"
  bottom: "inception_4a/3x3_reduce"
  top: "inception_4a/3x3"
  param {
    lr_mult: 1
    decay_mult: 1
  }
  param {
    lr_mult: 2
    decay_mult: 0
  }
  convolution_param {
    num_output: 208
    pad: 1
    kernel_size: 3
    weight_filler {
      type: "xavier"
      std: 0.03
    }
    bias_filler {
      type: "constant"
      value: 0.2
    }
  }
}
layer {
  name: "inception_4a/relu_3x3"
  type: "ReLU"
  bottom: "inception_4a/3x3"
  top: "inception_4a/3x3"
}
layer {
  name: "inception_4a/5x5_reduce"
  type: "Convolution"
  bottom: "pool3/3x3_s2"
  top: "inception_4a/5x5_reduce"
  param {
    lr_mult: 1
    decay_mult: 1
  }
  param {
    lr_mult: 2
    decay_mult: 0
  }
  convolution_param {
    num_output: 16
    kernel_size: 1
    weight_filler {
      type: "xavier"
      std: 0.2
    }
    bias_filler {
      type: "constant"
      value: 0.2
    }
  }
}
layer {
  name: "inception_4a/relu_5x5_reduce"
  type: "ReLU"
  bottom: "inception_4a/5x5_reduce"
  top: "inception_4a/5x5_reduce"
}
layer {
  name: "inception_4a/5x5"
  type: "Convolution"
  bottom: "inception_4a/5x5_reduce"
  top: "inception_4a/5x5"
  param {
    lr_mult: 1
    decay_mult: 1
  }
  param {
    lr_mult: 2
    decay_mult: 0
  }
  convolution_param {
    num_output: 48
    pad: 2
    kernel_size: 5
    weight_filler {
      type: "xavier"
      std: 0.03
    }
    bias_filler {
      type: "constant"
      value: 0.2
    }
  }
}
layer {
  name: "inception_4a/relu_5x5"
  type: "ReLU"
  bottom: "inception_4a/5x5"
  top: "inception_4a/5x5"
}
layer {
  name: "inception_4a/pool"
  type: "Pooling"
  bottom: "pool3/3x3_s2"
  top: "inception_4a/pool"
  pooling_param {
    pool: MAX
    kernel_size: 3
    stride: 1
    pad: 1
  }
}
layer {
  name: "inception_4a/pool_proj"
  type: "Convolution"
  bottom: "inception_4a/pool"
  top: "inception_4a/pool_proj"
  param {
    lr_mult: 1
    decay_mult: 1
  }
  param {
    lr_mult: 2
    decay_mult: 0
  }
  convolution_param {
    num_output: 64
    kernel_size: 1
    weight_filler {
      type: "xavier"
      std: 0.1
    }
    bias_filler {
      type: "constant"
      value: 0.2
    }
  }
}
layer {
  name: "inception_4a/relu_pool_proj"
  type: "ReLU"
  bottom: "inception_4a/pool_proj"
  top: "inception_4a/pool_proj"
}
layer {
  name: "inception_4a/output"
  type: "Concat"
  bottom: "inception_4a/1x1"
  bottom: "inception_4a/3x3"
  bottom: "inception_4a/5x5"
  bottom: "inception_4a/pool_proj"
  top: "inception_4a/output"
}
layer {
  name: "loss1/ave_pool"
  type: "Pooling"
  bottom: "inception_4a/output"
  top: "loss1/ave_pool"
  pooling_param {
    pool: AVE
    kernel_size: 5
    stride: 3
  }
}
layer {
  name: "loss1/conv"
  type: "Convolution"
  bottom: "loss1/ave_pool"
  top: "loss1/conv"
  param {
    lr_mult: 1
    decay_mult: 1
  }
  param {
    lr_mult: 2
    decay_mult: 0
  }
  convolution_param {
    num_output: 128
    kernel_size: 1
    weight_filler {
      type: "xavier"
      std: 0.08
    }
    bias_filler {
      type: "constant"
      value: 0.2
    }
  }
}
layer {
  name: "loss1/relu_conv"
  type: "ReLU"
  bottom: "loss1/conv"
  top: "loss1/conv"
}
layer {
  name: "loss1/fc"
  type: "InnerProduct"
  bottom: "loss1/conv"
  top: "loss1/fc"
  param {
    lr_mult: 1
    decay_mult: 1
  }
  param {
    lr_mult: 2
    decay_mult: 0
  }
  inner_product_param {
    num_output: 1024
    weight_filler {
      type: "xavier"
      std: 0.02
    }
    bias_filler {
      type: "constant"
      value: 0.2
    }
  }
}
layer {
  name: "loss1/relu_fc"
  type: "ReLU"
  bottom: "loss1/fc"
  top: "loss1/fc"
}
layer {
  name: "loss1/drop_fc"
  type: "Dropout"
  bottom: "loss1/fc"
  top: "loss1/fc"
  dropout_param {
    dropout_ratio: 0.7
  }
}
layer {
  name: "loss1/classifier_plantvillage"
  type: "InnerProduct"
  bottom: "loss1/fc"
  top: "loss1/classifier_plantvillage"
  param {
    lr_mult: 1
    decay_mult: 1
  }
  param {
    lr_mult: 2
    decay_mult: 0
  }
  inner_product_param {
    num_output: 38
    weight_filler {
      type: "xavier"
      std: 0.0009765625
    }
    bias_filler {
      type: "constant"
      value: 0
    }
  }
}
layer {
  name: "inception_4b/1x1"
  type: "Convolution"
  bottom: "inception_4a/output"
  top: "inception_4b/1x1"
  param {
    lr_mult: 1
    decay_mult: 1
  }
  param {
    lr_mult: 2
    decay_mult: 0
  }
  convolution_param {
    num_output: 160
    kernel_size: 1
    weight_filler {
      type: "xavier"
      std: 0.03
    }
    bias_filler {
      type: "constant"
      value: 0.2
    }
  }
}
layer {
  name: "inception_4b/relu_1x1"
  type: "ReLU"
  bottom: "inception_4b/1x1"
  top: "inception_4b/1x1"
}
layer {
  name: "inception_4b/3x3_reduce"
  type: "Convolution"
  bottom: "inception_4a/output"
  top: "inception_4b/3x3_reduce"
  param {
    lr_mult: 1
    decay_mult: 1
  }
  param {
    lr_mult: 2
    decay_mult: 0
  }
  convolution_param {
    num_output: 112
    kernel_size: 1
    weight_filler {
      type: "xavier"
      std: 0.09
    }
    bias_filler {
      type: "constant"
      value: 0.2
    }
  }
}
layer {
  name: "inception_4b/relu_3x3_reduce"
  type: "ReLU"
  bottom: "inception_4b/3x3_reduce"
  top: "inception_4b/3x3_reduce"
}
layer {
  name: "inception_4b/3x3"
  type: "Convolution"
  bottom: "inception_4b/3x3_reduce"
  top: "inception_4b/3x3"
  param {
    lr_mult: 1
    decay_mult: 1
  }
  param {
    lr_mult: 2
    decay_mult: 0
  }
  convolution_param {
    num_output: 224
    pad: 1
    kernel_size: 3
    weight_filler {
      type: "xavier"
      std: 0.03
    }
    bias_filler {
      type: "constant"
      value: 0.2
    }
  }
}
layer {
  name: "inception_4b/relu_3x3"
  type: "ReLU"
  bottom: "inception_4b/3x3"
  top: "inception_4b/3x3"
}
layer {
  name: "inception_4b/5x5_reduce"
  type: "Convolution"
  bottom: "inception_4a/output"
  top: "inception_4b/5x5_reduce"
  param {
    lr_mult: 1
    decay_mult: 1
  }
  param {
    lr_mult: 2
    decay_mult: 0
  }
  convolution_param {
    num_output: 24
    kernel_size: 1
    weight_filler {
      type: "xavier"
      std: 0.2
    }
    bias_filler {
      type: "constant"
      value: 0.2
    }
  }
}
layer {
  name: "inception_4b/relu_5x5_reduce"
  type: "ReLU"
  bottom: "inception_4b/5x5_reduce"
  top: "inception_4b/5x5_reduce"
}
layer {
  name: "inception_4b/5x5"
  type: "Convolution"
  bottom: "inception_4b/5x5_reduce"
  top: "inception_4b/5x5"
  param {
    lr_mult: 1
    decay_mult: 1
  }
  param {
    lr_mult: 2
    decay_mult: 0
  }
  convolution_param {
    num_output: 64
    pad: 2
    kernel_size: 5
    weight_filler {
      type: "xavier"
      std: 0.03
    }
    bias_filler {
      type: "constant"
      value: 0.2
    }
  }
}
layer {
  name: "inception_4b/relu_5x5"
  type: "ReLU"
  bottom: "inception_4b/5x5"
  top: "inception_4b/5x5"
}
layer {
  name: "inception_4b/pool"
  type: "Pooling"
  bottom: "inception_4a/output"
  top: "inception_4b/pool"
  pooling_param {
    pool: MAX
    kernel_size: 3
    stride: 1
    pad: 1
  }
}
layer {
  name: "inception_4b/pool_proj"
  type: "Convolution"
  bottom: "inception_4b/pool"
  top: "inception_4b/pool_proj"
  param {
    lr_mult: 1
    decay_mult: 1
  }
  param {
    lr_mult: 2
    decay_mult: 0
  }
  convolution_param {
    num_output: 64
    kernel_size: 1
    weight_filler {
      type: "xavier"
      std: 0.1
    }
    bias_filler {
      type: "constant"
      value: 0.2
    }
  }
}
layer {
  name: "inception_4b/relu_pool_proj"
  type: "ReLU"
  bottom: "inception_4b/pool_proj"
  top: "inception_4b/pool_proj"
}
layer {
  name: "inception_4b/output"
  type: "Concat"
  bottom: "inception_4b/1x1"
  bottom: "inception_4b/3x3"
  bottom: "inception_4b/5x5"
  bottom: "inception_4b/pool_proj"
  top: "inception_4b/output"
}
layer {
  name: "inception_4c/1x1"
  type: "Convolution"
  bottom: "inception_4b/output"
  top: "inception_4c/1x1"
  param {
    lr_mult: 1
    decay_mult: 1
  }
  param {
    lr_mult: 2
    decay_mult: 0
  }
  convolution_param {
    num_output: 128
    kernel_size: 1
    weight_filler {
      type: "xavier"
      std: 0.03
    }
    bias_filler {
      type: "constant"
      value: 0.2
    }
  }
}
layer {
  name: "inception_4c/relu_1x1"
  type: "ReLU"
  bottom: "inception_4c/1x1"
  top: "inception_4c/1x1"
}
layer {
  name: "inception_4c/3x3_reduce"
  type: "Convolution"
  bottom: "inception_4b/output"
  top: "inception_4c/3x3_reduce"
  param {
    lr_mult: 1
    decay_mult: 1
  }
  param {
    lr_mult: 2
    decay_mult: 0
  }
  convolution_param {
    num_output: 128
    kernel_size: 1
    weight_filler {
      type: "xavier"
      std: 0.09
    }
    bias_filler {
      type: "constant"
      value: 0.2
    }
  }
}
layer {
  name: "inception_4c/relu_3x3_reduce"
  type: "ReLU"
  bottom: "inception_4c/3x3_reduce"
  top: "inception_4c/3x3_reduce"
}
layer {
  name: "inception_4c/3x3"
  type: "Convolution"
  bottom: "inception_4c/3x3_reduce"
  top: "inception_4c/3x3"
  param {
    lr_mult: 1
    decay_mult: 1
  }
  param {
    lr_mult: 2
    decay_mult: 0
  }
  convolution_param {
    num_output: 256
    pad: 1
    kernel_size: 3
    weight_filler {
      type: "xavier"
      std: 0.03
    }
    bias_filler {
      type: "constant"
      value: 0.2
    }
  }
}
layer {
  name: "inception_4c/relu_3x3"
  type: "ReLU"
  bottom: "inception_4c/3x3"
  top: "inception_4c/3x3"
}
layer {
  name: "inception_4c/5x5_reduce"
  type: "Convolution"
  bottom: "inception_4b/output"
  top: "inception_4c/5x5_reduce"
  param {
    lr_mult: 1
    decay_mult: 1
  }
  param {
    lr_mult: 2
    decay_mult: 0
  }
  convolution_param {
    num_output: 24
    kernel_size: 1
    weight_filler {
      type: "xavier"
      std: 0.2
    }
    bias_filler {
      type: "constant"
      value: 0.2
    }
  }
}
layer {
  name: "inception_4c/relu_5x5_reduce"
  type: "ReLU"
  bottom: "inception_4c/5x5_reduce"
  top: "inception_4c/5x5_reduce"
}
layer {
  name: "inception_4c/5x5"
  type: "Convolution"
  bottom: "inception_4c/5x5_reduce"
  top: "inception_4c/5x5"
  param {
    lr_mult: 1
    decay_mult: 1
  }
  param {
    lr_mult: 2
    decay_mult: 0
  }
  convolution_param {
    num_output: 64
    pad: 2
    kernel_size: 5
    weight_filler {
      type: "xavier"
      std: 0.03
    }
    bias_filler {
      type: "constant"
      value: 0.2
    }
  }
}
layer {
  name: "inception_4c/relu_5x5"
  type: "ReLU"
  bottom: "inception_4c/5x5"
  top: "inception_4c/5x5"
}
layer {
  name: "inception_4c/pool"
  type: "Pooling"
  bottom: "inception_4b/output"
  top: "inception_4c/pool"
  pooling_param {
    pool: MAX
    kernel_size: 3
    stride: 1
    pad: 1
  }
}
layer {
  name: "inception_4c/pool_proj"
  type: "Convolution"
  bottom: "inception_4c/pool"
  top: "inception_4c/pool_proj"
  param {
    lr_mult: 1
    decay_mult: 1
  }
  param {
    lr_mult: 2
    decay_mult: 0
  }
  convolution_param {
    num_output: 64
    kernel_size: 1
    weight_filler {
      type: "xavier"
      std: 0.1
    }
    bias_filler {
      type: "constant"
      value: 0.2
    }
  }
}
layer {
  name: "inception_4c/relu_pool_proj"
  type: "ReLU"
  bottom: "inception_4c/pool_proj"
  top: "inception_4c/pool_proj"
}
layer {
  name: "inception_4c/output"
  type: "Concat"
  bottom: "inception_4c/1x1"
  bottom: "inception_4c/3x3"
  bottom: "inception_4c/5x5"
  bottom: "inception_4c/pool_proj"
  top: "inception_4c/output"
}
layer {
  name: "inception_4d/1x1"
  type: "Convolution"
  bottom: "inception_4c/output"
  top: "inception_4d/1x1"
  param {
    lr_mult: 1
    decay_mult: 1
  }
  param {
    lr_mult: 2
    decay_mult: 0
  }
  convolution_param {
    num_output: 112
    kernel_size: 1
    weight_filler {
      type: "xavier"
      std: 0.03
    }
    bias_filler {
      type: "constant"
      value: 0.2
    }
  }
}
layer {
  name: "inception_4d/relu_1x1"
  type: "ReLU"
  bottom: "inception_4d/1x1"
  top: "inception_4d/1x1"
}
layer {
  name: "inception_4d/3x3_reduce"
  type: "Convolution"
  bottom: "inception_4c/output"
  top: "inception_4d/3x3_reduce"
  param {
    lr_mult: 1
    decay_mult: 1
  }
  param {
    lr_mult: 2
    decay_mult: 0
  }
  convolution_param {
    num_output: 144
    kernel_size: 1
    weight_filler {
      type: "xavier"
      std: 0.09
    }
    bias_filler {
      type: "constant"
      value: 0.2
    }
  }
}
layer {
  name: "inception_4d/relu_3x3_reduce"
  type: "ReLU"
  bottom: "inception_4d/3x3_reduce"
  top: "inception_4d/3x3_reduce"
}
layer {
  name: "inception_4d/3x3"
  type: "Convolution"
  bottom: "inception_4d/3x3_reduce"
  top: "inception_4d/3x3"
  param {
    lr_mult: 1
    decay_mult: 1
  }
  param {
    lr_mult: 2
    decay_mult: 0
  }
  convolution_param {
    num_output: 288
    pad: 1
    kernel_size: 3
    weight_filler {
      type: "xavier"
      std: 0.03
    }
    bias_filler {
      type: "constant"
      value: 0.2
    }
  }
}
layer {
  name: "inception_4d/relu_3x3"
  type: "ReLU"
  bottom: "inception_4d/3x3"
  top: "inception_4d/3x3"
}
layer {
  name: "inception_4d/5x5_reduce"
  type: "Convolution"
  bottom: "inception_4c/output"
  top: "inception_4d/5x5_reduce"
  param {
    lr_mult: 1
    decay_mult: 1
  }
  param {
    lr_mult: 2
    decay_mult: 0
  }
  convolution_param {
    num_output: 32
    kernel_size: 1
    weight_filler {
      type: "xavier"
      std: 0.2
    }
    bias_filler {
      type: "constant"
      value: 0.2
    }
  }
}
layer {
  name: "inception_4d/relu_5x5_reduce"
  type: "ReLU"
  bottom: "inception_4d/5x5_reduce"
  top: "inception_4d/5x5_reduce"
}
layer {
  name: "inception_4d/5x5"
  type: "Convolution"
  bottom: "inception_4d/5x5_reduce"
  top: "inception_4d/5x5"
  param {
    lr_mult: 1
    decay_mult: 1
  }
  param {
    lr_mult: 2
    decay_mult: 0
  }
  convolution_param {
    num_output: 64
    pad: 2
    kernel_size: 5
    weight_filler {
      type: "xavier"
      std: 0.03
    }
    bias_filler {
      type: "constant"
      value: 0.2
    }
  }
}
layer {
  name: "inception_4d/relu_5x5"
  type: "ReLU"
  bottom: "inception_4d/5x5"
  top: "inception_4d/5x5"
}
layer {
  name: "inception_4d/pool"
  type: "Pooling"
  bottom: "inception_4c/output"
  top: "inception_4d/pool"
  pooling_param {
    pool: MAX
    kernel_size: 3
    stride: 1
    pad: 1
  }
}
layer {
  name: "inception_4d/pool_proj"
  type: "Convolution"
  bottom: "inception_4d/pool"
  top: "inception_4d/pool_proj"
  param {
    lr_mult: 1
    decay_mult: 1
  }
  param {
    lr_mult: 2
    decay_mult: 0
  }
  convolution_param {
    num_output: 64
    kernel_size: 1
    weight_filler {
      type: "xavier"
      std: 0.1
    }
    bias_filler {
      type: "constant"
      value: 0.2
    }
  }
}
layer {
  name: "inception_4d/relu_pool_proj"
  type: "ReLU"
  bottom: "inception_4d/pool_proj"
  top: "inception_4d/pool_proj"
}
layer {
  name: "inception_4d/output"
  type: "Concat"
  bottom: "inception_4d/1x1"
  bottom: "inception_4d/3x3"
  bottom: "inception_4d/5x5"
  bottom: "inception_4d/pool_proj"
  top: "inception_4d/output"
}
layer {
  name: "loss2/ave_pool"
  type: "Pooling"
  bottom: "inception_4d/output"
  top: "loss2/ave_pool"
  pooling_param {
    pool: AVE
    kernel_size: 5
    stride: 3
  }
}
layer {
  name: "loss2/conv"
  type: "Convolution"
  bottom: "loss2/ave_pool"
  top: "loss2/conv"
  param {
    lr_mult: 1
    decay_mult: 1
  }
  param {
    lr_mult: 2
    decay_mult: 0
  }
  convolution_param {
    num_output: 128
    kernel_size: 1
    weight_filler {
      type: "xavier"
      std: 0.08
    }
    bias_filler {
      type: "constant"
      value: 0.2
    }
  }
}
layer {
  name: "loss2/relu_conv"
  type: "ReLU"
  bottom: "loss2/conv"
  top: "loss2/conv"
}
layer {
  name: "loss2/fc"
  type: "InnerProduct"
  bottom: "loss2/conv"
  top: "loss2/fc"
  param {
    lr_mult: 1
    decay_mult: 1
  }
  param {
    lr_mult: 2
    decay_mult: 0
  }
  inner_product_param {
    num_output: 1024
    weight_filler {
      type: "xavier"
      std: 0.02
    }
    bias_filler {
      type: "constant"
      value: 0.2
    }
  }
}
layer {
  name: "loss2/relu_fc"
  type: "ReLU"
  bottom: "loss2/fc"
  top: "loss2/fc"
}
layer {
  name: "loss2/drop_fc"
  type: "Dropout"
  bottom: "loss2/fc"
  top: "loss2/fc"
  dropout_param {
    dropout_ratio: 0.7
  }
}
layer {
  name: "loss2/classifier_plantvillage"
  type: "InnerProduct"
  bottom: "loss2/fc"
  top: "loss2/classifier_plantvillage"
  param {
    lr_mult: 1
    decay_mult: 1
  }
  param {
    lr_mult: 2
    decay_mult: 0
  }
  inner_product_param {
    num_output: 38
    weight_filler {
      type: "xavier"
      std: 0.0009765625
    }
    bias_filler {
      type: "constant"
      value: 0
    }
  }
}
layer {
  name: "inception_4e/1x1"
  type: "Convolution"
  bottom: "inception_4d/output"
  top: "inception_4e/1x1"
  param {
    lr_mult: 1
    decay_mult: 1
  }
  param {
    lr_mult: 2
    decay_mult: 0
  }
  convolution_param {
    num_output: 256
    kernel_size: 1
    weight_filler {
      type: "xavier"
      std: 0.03
    }
    bias_filler {
      type: "constant"
      value: 0.2
    }
  }
}
layer {
  name: "inception_4e/relu_1x1"
  type: "ReLU"
  bottom: "inception_4e/1x1"
  top: "inception_4e/1x1"
}
layer {
  name: "inception_4e/3x3_reduce"
  type: "Convolution"
  bottom: "inception_4d/output"
  top: "inception_4e/3x3_reduce"
  param {
    lr_mult: 1
    decay_mult: 1
  }
  param {
    lr_mult: 2
    decay_mult: 0
  }
  convolution_param {
    num_output: 160
    kernel_size: 1
    weight_filler {
      type: "xavier"
      std: 0.09
    }
    bias_filler {
      type: "constant"
      value: 0.2
    }
  }
}
layer {
  name: "inception_4e/relu_3x3_reduce"
  type: "ReLU"
  bottom: "inception_4e/3x3_reduce"
  top: "inception_4e/3x3_reduce"
}
layer {
  name: "inception_4e/3x3"
  type: "Convolution"
  bottom: "inception_4e/3x3_reduce"
  top: "inception_4e/3x3"
  param {
    lr_mult: 1
    decay_mult: 1
  }
  param {
    lr_mult: 2
    decay_mult: 0
  }
  convolution_param {
    num_output: 320
    pad: 1
    kernel_size: 3
    weight_filler {
      type: "xavier"
      std: 0.03
    }
    bias_filler {
      type: "constant"
      value: 0.2
    }
  }
}
layer {
  name: "inception_4e/relu_3x3"
  type: "ReLU"
  bottom: "inception_4e/3x3"
  top: "inception_4e/3x3"
}
layer {
  name: "inception_4e/5x5_reduce"
  type: "Convolution"
  bottom: "inception_4d/output"
  top: "inception_4e/5x5_reduce"
  param {
    lr_mult: 1
    decay_mult: 1
  }
  param {
    lr_mult: 2
    decay_mult: 0
  }
  convolution_param {
    num_output: 32
    kernel_size: 1
    weight_filler {
      type: "xavier"
      std: 0.2
    }
    bias_filler {
      type: "constant"
      value: 0.2
    }
  }
}
layer {
  name: "inception_4e/relu_5x5_reduce"
  type: "ReLU"
  bottom: "inception_4e/5x5_reduce"
  top: "inception_4e/5x5_reduce"
}
layer {
  name: "inception_4e/5x5"
  type: "Convolution"
  bottom: "inception_4e/5x5_reduce"
  top: "inception_4e/
I0403 17:57:28.360769 15621 layer_factory.hpp:77] Creating layer data
I0403 17:57:28.361371 15621 net.cpp:91] Creating Layer data
I0403 17:57:28.361402 15621 net.cpp:399] data -> data
I0403 17:57:28.361452 15621 net.cpp:399] data -> label
I0403 17:57:28.361488 15621 data_transformer.cpp:25] Loading mean file from: /home/mohanty/data/final_dataset/lmdb/grayscale-60-40/mean.binaryproto
I0403 17:57:28.362659 15623 db_lmdb.cpp:38] Opened lmdb /home/mohanty/data/final_dataset/lmdb/grayscale-60-40/test_db
I0403 17:57:28.374555 15621 data_layer.cpp:41] output data size: 24,3,224,224
I0403 17:57:28.400828 15621 net.cpp:141] Setting up data
I0403 17:57:28.400909 15621 net.cpp:148] Top shape: 24 3 224 224 (3612672)
I0403 17:57:28.400931 15621 net.cpp:148] Top shape: 24 (24)
I0403 17:57:28.400945 15621 net.cpp:156] Memory required for data: 14450784
I0403 17:57:28.400972 15621 layer_factory.hpp:77] Creating layer label_data_1_split
I0403 17:57:28.401003 15621 net.cpp:91] Creating Layer label_data_1_split
I0403 17:57:28.401021 15621 net.cpp:425] label_data_1_split <- label
I0403 17:57:28.401051 15621 net.cpp:399] label_data_1_split -> label_data_1_split_0
I0403 17:57:28.401078 15621 net.cpp:399] label_data_1_split -> label_data_1_split_1
I0403 17:57:28.401098 15621 net.cpp:399] label_data_1_split -> label_data_1_split_2
I0403 17:57:28.401119 15621 net.cpp:399] label_data_1_split -> label_data_1_split_3
I0403 17:57:28.401139 15621 net.cpp:399] label_data_1_split -> label_data_1_split_4
I0403 17:57:28.401157 15621 net.cpp:399] label_data_1_split -> label_data_1_split_5
I0403 17:57:28.401178 15621 net.cpp:399] label_data_1_split -> label_data_1_split_6
I0403 17:57:28.401198 15621 net.cpp:399] label_data_1_split -> label_data_1_split_7
I0403 17:57:28.401217 15621 net.cpp:399] label_data_1_split -> label_data_1_split_8
I0403 17:57:28.401237 15621 net.cpp:399] label_data_1_split -> label_data_1_split_9
I0403 17:57:28.401350 15621 net.cpp:141] Setting up label_data_1_split
I0403 17:57:28.401373 15621 net.cpp:148] Top shape: 24 (24)
I0403 17:57:28.401391 15621 net.cpp:148] Top shape: 24 (24)
I0403 17:57:28.401407 15621 net.cpp:148] Top shape: 24 (24)
I0403 17:57:28.401422 15621 net.cpp:148] Top shape: 24 (24)
I0403 17:57:28.401437 15621 net.cpp:148] Top shape: 24 (24)
I0403 17:57:28.401453 15621 net.cpp:148] Top shape: 24 (24)
I0403 17:57:28.401468 15621 net.cpp:148] Top shape: 24 (24)
I0403 17:57:28.401484 15621 net.cpp:148] Top shape: 24 (24)
I0403 17:57:28.401499 15621 net.cpp:148] Top shape: 24 (24)
I0403 17:57:28.401516 15621 net.cpp:148] Top shape: 24 (24)
I0403 17:57:28.401561 15621 net.cpp:156] Memory required for data: 14451744
I0403 17:57:28.401577 15621 layer_factory.hpp:77] Creating layer conv1/7x7_s2
I0403 17:57:28.401609 15621 net.cpp:91] Creating Layer conv1/7x7_s2
I0403 17:57:28.401628 15621 net.cpp:425] conv1/7x7_s2 <- data
I0403 17:57:28.401646 15621 net.cpp:399] conv1/7x7_s2 -> conv1/7x7_s2
I0403 17:57:28.538194 15621 net.cpp:141] Setting up conv1/7x7_s2
I0403 17:57:28.538278 15621 net.cpp:148] Top shape: 24 64 112 112 (19267584)
I0403 17:57:28.538295 15621 net.cpp:156] Memory required for data: 91522080
I0403 17:57:28.538324 15621 layer_factory.hpp:77] Creating layer conv1/relu_7x7
I0403 17:57:28.538352 15621 net.cpp:91] Creating Layer conv1/relu_7x7
I0403 17:57:28.538369 15621 net.cpp:425] conv1/relu_7x7 <- conv1/7x7_s2
I0403 17:57:28.538388 15621 net.cpp:386] conv1/relu_7x7 -> conv1/7x7_s2 (in-place)
I0403 17:57:28.538641 15621 net.cpp:141] Setting up conv1/relu_7x7
I0403 17:57:28.538668 15621 net.cpp:148] Top shape: 24 64 112 112 (19267584)
I0403 17:57:28.538683 15621 net.cpp:156] Memory required for data: 168592416
I0403 17:57:28.538699 15621 layer_factory.hpp:77] Creating layer pool1/3x3_s2
I0403 17:57:28.538724 15621 net.cpp:91] Creating Layer pool1/3x3_s2
I0403 17:57:28.538743 15621 net.cpp:425] pool1/3x3_s2 <- conv1/7x7_s2
I0403 17:57:28.538760 15621 net.cpp:399] pool1/3x3_s2 -> pool1/3x3_s2
I0403 17:57:28.538833 15621 net.cpp:141] Setting up pool1/3x3_s2
I0403 17:57:28.538857 15621 net.cpp:148] Top shape: 24 64 56 56 (4816896)
I0403 17:57:28.538872 15621 net.cpp:156] Memory required for data: 187860000
I0403 17:57:28.538887 15621 layer_factory.hpp:77] Creating layer pool1/norm1
I0403 17:57:28.538913 15621 net.cpp:91] Creating Layer pool1/norm1
I0403 17:57:28.538930 15621 net.cpp:425] pool1/norm1 <- pool1/3x3_s2
I0403 17:57:28.538949 15621 net.cpp:399] pool1/norm1 -> pool1/norm1
I0403 17:57:28.539238 15621 net.cpp:141] Setting up pool1/norm1
I0403 17:57:28.539265 15621 net.cpp:148] Top shape: 24 64 56 56 (4816896)
I0403 17:57:28.539280 15621 net.cpp:156] Memory required for data: 207127584
I0403 17:57:28.539295 15621 layer_factory.hpp:77] Creating layer conv2/3x3_reduce
I0403 17:57:28.539320 15621 net.cpp:91] Creating Layer conv2/3x3_reduce
I0403 17:57:28.539337 15621 net.cpp:425] conv2/3x3_reduce <- pool1/norm1
I0403 17:57:28.539356 15621 net.cpp:399] conv2/3x3_reduce -> conv2/3x3_reduce
I0403 17:57:28.540727 15621 net.cpp:141] Setting up conv2/3x3_reduce
I0403 17:57:28.540757 15621 net.cpp:148] Top shape: 24 64 56 56 (4816896)
I0403 17:57:28.540773 15621 net.cpp:156] Memory required for data: 226395168
I0403 17:57:28.540794 15621 layer_factory.hpp:77] Creating layer conv2/relu_3x3_reduce
I0403 17:57:28.540813 15621 net.cpp:91] Creating Layer conv2/relu_3x3_reduce
I0403 17:57:28.540829 15621 net.cpp:425] conv2/relu_3x3_reduce <- conv2/3x3_reduce
I0403 17:57:28.540846 15621 net.cpp:386] conv2/relu_3x3_reduce -> conv2/3x3_reduce (in-place)
I0403 17:57:28.541110 15621 net.cpp:141] Setting up conv2/relu_3x3_reduce
I0403 17:57:28.541136 15621 net.cpp:148] Top shape: 24 64 56 56 (4816896)
I0403 17:57:28.541152 15621 net.cpp:156] Memory required for data: 245662752
I0403 17:57:28.541167 15621 layer_factory.hpp:77] Creating layer conv2/3x3
I0403 17:57:28.541193 15621 net.cpp:91] Creating Layer conv2/3x3
I0403 17:57:28.541210 15621 net.cpp:425] conv2/3x3 <- conv2/3x3_reduce
I0403 17:57:28.541229 15621 net.cpp:399] conv2/3x3 -> conv2/3x3
I0403 17:57:28.543613 15621 net.cpp:141] Setting up conv2/3x3
I0403 17:57:28.543644 15621 net.cpp:148] Top shape: 24 192 56 56 (14450688)
I0403 17:57:28.543661 15621 net.cpp:156] Memory required for data: 303465504
I0403 17:57:28.543695 15621 layer_factory.hpp:77] Creating layer conv2/relu_3x3
I0403 17:57:28.543717 15621 net.cpp:91] Creating Layer conv2/relu_3x3
I0403 17:57:28.543735 15621 net.cpp:425] conv2/relu_3x3 <- conv2/3x3
I0403 17:57:28.543752 15621 net.cpp:386] conv2/relu_3x3 -> conv2/3x3 (in-place)
I0403 17:57:28.543931 15621 net.cpp:141] Setting up conv2/relu_3x3
I0403 17:57:28.543956 15621 net.cpp:148] Top shape: 24 192 56 56 (14450688)
I0403 17:57:28.544005 15621 net.cpp:156] Memory required for data: 361268256
I0403 17:57:28.544023 15621 layer_factory.hpp:77] Creating layer conv2/norm2
I0403 17:57:28.544040 15621 net.cpp:91] Creating Layer conv2/norm2
I0403 17:57:28.544055 15621 net.cpp:425] conv2/norm2 <- conv2/3x3
I0403 17:57:28.544090 15621 net.cpp:399] conv2/norm2 -> conv2/norm2
I0403 17:57:28.544420 15621 net.cpp:141] Setting up conv2/norm2
I0403 17:57:28.544446 15621 net.cpp:148] Top shape: 24 192 56 56 (14450688)
I0403 17:57:28.544461 15621 net.cpp:156] Memory required for data: 419071008
I0403 17:57:28.544476 15621 layer_factory.hpp:77] Creating layer pool2/3x3_s2
I0403 17:57:28.544493 15621 net.cpp:91] Creating Layer pool2/3x3_s2
I0403 17:57:28.544509 15621 net.cpp:425] pool2/3x3_s2 <- conv2/norm2
I0403 17:57:28.544530 15621 net.cpp:399] pool2/3x3_s2 -> pool2/3x3_s2
I0403 17:57:28.544584 15621 net.cpp:141] Setting up pool2/3x3_s2
I0403 17:57:28.544607 15621 net.cpp:148] Top shape: 24 192 28 28 (3612672)
I0403 17:57:28.544622 15621 net.cpp:156] Memory required for data: 433521696
I0403 17:57:28.544637 15621 layer_factory.hpp:77] Creating layer pool2/3x3_s2_pool2/3x3_s2_0_split
I0403 17:57:28.544654 15621 net.cpp:91] Creating Layer pool2/3x3_s2_pool2/3x3_s2_0_split
I0403 17:57:28.544670 15621 net.cpp:425] pool2/3x3_s2_pool2/3x3_s2_0_split <- pool2/3x3_s2
I0403 17:57:28.544690 15621 net.cpp:399] pool2/3x3_s2_pool2/3x3_s2_0_split -> pool2/3x3_s2_pool2/3x3_s2_0_split_0
I0403 17:57:28.544711 15621 net.cpp:399] pool2/3x3_s2_pool2/3x3_s2_0_split -> pool2/3x3_s2_pool2/3x3_s2_0_split_1
I0403 17:57:28.544731 15621 net.cpp:399] pool2/3x3_s2_pool2/3x3_s2_0_split -> pool2/3x3_s2_pool2/3x3_s2_0_split_2
I0403 17:57:28.544751 15621 net.cpp:399] pool2/3x3_s2_pool2/3x3_s2_0_split -> pool2/3x3_s2_pool2/3x3_s2_0_split_3
I0403 17:57:28.544819 15621 net.cpp:141] Setting up pool2/3x3_s2_pool2/3x3_s2_0_split
I0403 17:57:28.544844 15621 net.cpp:148] Top shape: 24 192 28 28 (3612672)
I0403 17:57:28.544862 15621 net.cpp:148] Top shape: 24 192 28 28 (3612672)
I0403 17:57:28.544878 15621 net.cpp:148] Top shape: 24 192 28 28 (3612672)
I0403 17:57:28.544894 15621 net.cpp:148] Top shape: 24 192 28 28 (3612672)
I0403 17:57:28.544909 15621 net.cpp:156] Memory required for data: 491324448
I0403 17:57:28.544922 15621 layer_factory.hpp:77] Creating layer inception_3a/1x1
I0403 17:57:28.544945 15621 net.cpp:91] Creating Layer inception_3a/1x1
I0403 17:57:28.544962 15621 net.cpp:425] inception_3a/1x1 <- pool2/3x3_s2_pool2/3x3_s2_0_split_0
I0403 17:57:28.544986 15621 net.cpp:399] inception_3a/1x1 -> inception_3a/1x1
I0403 17:57:28.546541 15621 net.cpp:141] Setting up inception_3a/1x1
I0403 17:57:28.546571 15621 net.cpp:148] Top shape: 24 64 28 28 (1204224)
I0403 17:57:28.546586 15621 net.cpp:156] Memory required for data: 496141344
I0403 17:57:28.546605 15621 layer_factory.hpp:77] Creating layer inception_3a/relu_1x1
I0403 17:57:28.546627 15621 net.cpp:91] Creating Layer inception_3a/relu_1x1
I0403 17:57:28.546643 15621 net.cpp:425] inception_3a/relu_1x1 <- inception_3a/1x1
I0403 17:57:28.546661 15621 net.cpp:386] inception_3a/relu_1x1 -> inception_3a/1x1 (in-place)
I0403 17:57:28.546833 15621 net.cpp:141] Setting up inception_3a/relu_1x1
I0403 17:57:28.546861 15621 net.cpp:148] Top shape: 24 64 28 28 (1204224)
I0403 17:57:28.546877 15621 net.cpp:156] Memory required for data: 500958240
I0403 17:57:28.546892 15621 layer_factory.hpp:77] Creating layer inception_3a/3x3_reduce
I0403 17:57:28.546914 15621 net.cpp:91] Creating Layer inception_3a/3x3_reduce
I0403 17:57:28.546932 15621 net.cpp:425] inception_3a/3x3_reduce <- pool2/3x3_s2_pool2/3x3_s2_0_split_1
I0403 17:57:28.546952 15621 net.cpp:399] inception_3a/3x3_reduce -> inception_3a/3x3_reduce
I0403 17:57:28.548697 15621 net.cpp:141] Setting up inception_3a/3x3_reduce
I0403 17:57:28.548727 15621 net.cpp:148] Top shape: 24 96 28 28 (1806336)
I0403 17:57:28.548741 15621 net.cpp:156] Memory required for data: 508183584
I0403 17:57:28.548763 15621 layer_factory.hpp:77] Creating layer inception_3a/relu_3x3_reduce
I0403 17:57:28.548800 15621 net.cpp:91] Creating Layer inception_3a/relu_3x3_reduce
I0403 17:57:28.548818 15621 net.cpp:425] inception_3a/relu_3x3_reduce <- inception_3a/3x3_reduce
I0403 17:57:28.548840 15621 net.cpp:386] inception_3a/relu_3x3_reduce -> inception_3a/3x3_reduce (in-place)
I0403 17:57:28.549031 15621 net.cpp:141] Setting up inception_3a/relu_3x3_reduce
I0403 17:57:28.549057 15621 net.cpp:148] Top shape: 24 96 28 28 (1806336)
I0403 17:57:28.549072 15621 net.cpp:156] Memory required for data: 515408928
I0403 17:57:28.549087 15621 layer_factory.hpp:77] Creating layer inception_3a/3x3
I0403 17:57:28.549108 15621 net.cpp:91] Creating Layer inception_3a/3x3
I0403 17:57:28.549126 15621 net.cpp:425] inception_3a/3x3 <- inception_3a/3x3_reduce
I0403 17:57:28.549149 15621 net.cpp:399] inception_3a/3x3 -> inception_3a/3x3
I0403 17:57:28.550772 15621 net.cpp:141] Setting up inception_3a/3x3
I0403 17:57:28.550803 15621 net.cpp:148] Top shape: 24 128 28 28 (2408448)
I0403 17:57:28.550819 15621 net.cpp:156] Memory required for data: 525042720
I0403 17:57:28.550838 15621 layer_factory.hpp:77] Creating layer inception_3a/relu_3x3
I0403 17:57:28.550856 15621 net.cpp:91] Creating Layer inception_3a/relu_3x3
I0403 17:57:28.550873 15621 net.cpp:425] inception_3a/relu_3x3 <- inception_3a/3x3
I0403 17:57:28.550890 15621 net.cpp:386] inception_3a/relu_3x3 -> inception_3a/3x3 (in-place)
I0403 17:57:28.551167 15621 net.cpp:141] Setting up inception_3a/relu_3x3
I0403 17:57:28.551197 15621 net.cpp:148] Top shape: 24 128 28 28 (2408448)
I0403 17:57:28.551213 15621 net.cpp:156] Memory required for data: 534676512
I0403 17:57:28.551229 15621 layer_factory.hpp:77] Creating layer inception_3a/5x5_reduce
I0403 17:57:28.551251 15621 net.cpp:91] Creating Layer inception_3a/5x5_reduce
I0403 17:57:28.551270 15621 net.cpp:425] inception_3a/5x5_reduce <- pool2/3x3_s2_pool2/3x3_s2_0_split_2
I0403 17:57:28.551290 15621 net.cpp:399] inception_3a/5x5_reduce -> inception_3a/5x5_reduce
I0403 17:57:28.552238 15621 net.cpp:141] Setting up inception_3a/5x5_reduce
I0403 17:57:28.552268 15621 net.cpp:148] Top shape: 24 16 28 28 (301056)
I0403 17:57:28.552285 15621 net.cpp:156] Memory required for data: 535880736
I0403 17:57:28.552304 15621 layer_factory.hpp:77] Creating layer inception_3a/relu_5x5_reduce
I0403 17:57:28.552322 15621 net.cpp:91] Creating Layer inception_3a/relu_5x5_reduce
I0403 17:57:28.552338 15621 net.cpp:425] inception_3a/relu_5x5_reduce <- inception_3a/5x5_reduce
I0403 17:57:28.552358 15621 net.cpp:386] inception_3a/relu_5x5_reduce -> inception_3a/5x5_reduce (in-place)
I0403 17:57:28.552654 15621 net.cpp:141] Setting up inception_3a/relu_5x5_reduce
I0403 17:57:28.552680 15621 net.cpp:148] Top shape: 24 16 28 28 (301056)
I0403 17:57:28.552695 15621 net.cpp:156] Memory required for data: 537084960
I0403 17:57:28.552709 15621 layer_factory.hpp:77] Creating layer inception_3a/5x5
I0403 17:57:28.552732 15621 net.cpp:91] Creating Layer inception_3a/5x5
I0403 17:57:28.552749 15621 net.cpp:425] inception_3a/5x5 <- inception_3a/5x5_reduce
I0403 17:57:28.552772 15621 net.cpp:399] inception_3a/5x5 -> inception_3a/5x5
I0403 17:57:28.553797 15621 net.cpp:141] Setting up inception_3a/5x5
I0403 17:57:28.553824 15621 net.cpp:148] Top shape: 24 32 28 28 (602112)
I0403 17:57:28.553840 15621 net.cpp:156] Memory required for data: 539493408
I0403 17:57:28.553859 15621 layer_factory.hpp:77] Creating layer inception_3a/relu_5x5
I0403 17:57:28.553880 15621 net.cpp:91] Creating Layer inception_3a/relu_5x5
I0403 17:57:28.553897 15621 net.cpp:425] inception_3a/relu_5x5 <- inception_3a/5x5
I0403 17:57:28.553915 15621 net.cpp:386] inception_3a/relu_5x5 -> inception_3a/5x5 (in-place)
I0403 17:57:28.554107 15621 net.cpp:141] Setting up inception_3a/relu_5x5
I0403 17:57:28.554136 15621 net.cpp:148] Top shape: 24 32 28 28 (602112)
I0403 17:57:28.554152 15621 net.cpp:156] Memory required for data: 541901856
I0403 17:57:28.554167 15621 layer_factory.hpp:77] Creating layer inception_3a/pool
I0403 17:57:28.554186 15621 net.cpp:91] Creating Layer inception_3a/pool
I0403 17:57:28.554217 15621 net.cpp:425] inception_3a/pool <- pool2/3x3_s2_pool2/3x3_s2_0_split_3
I0403 17:57:28.554239 15621 net.cpp:399] inception_3a/pool -> inception_3a/pool
I0403 17:57:28.554298 15621 net.cpp:141] Setting up inception_3a/pool
I0403 17:57:28.554324 15621 net.cpp:148] Top shape: 24 192 28 28 (3612672)
I0403 17:57:28.554342 15621 net.cpp:156] Memory required for data: 556352544
I0403 17:57:28.554357 15621 layer_factory.hpp:77] Creating layer inception_3a/pool_proj
I0403 17:57:28.554378 15621 net.cpp:91] Creating Layer inception_3a/pool_proj
I0403 17:57:28.554395 15621 net.cpp:425] inception_3a/pool_proj <- inception_3a/pool
I0403 17:57:28.554417 15621 net.cpp:399] inception_3a/pool_proj -> inception_3a/pool_proj
I0403 17:57:28.555393 15621 net.cpp:141] Setting up inception_3a/pool_proj
I0403 17:57:28.555423 15621 net.cpp:148] Top shape: 24 32 28 28 (602112)
I0403 17:57:28.555438 15621 net.cpp:156] Memory required for data: 558760992
I0403 17:57:28.555464 15621 layer_factory.hpp:77] Creating layer inception_3a/relu_pool_proj
I0403 17:57:28.555485 15621 net.cpp:91] Creating Layer inception_3a/relu_pool_proj
I0403 17:57:28.555500 15621 net.cpp:425] inception_3a/relu_pool_proj <- inception_3a/pool_proj
I0403 17:57:28.555519 15621 net.cpp:386] inception_3a/relu_pool_proj -> inception_3a/pool_proj (in-place)
I0403 17:57:28.555797 15621 net.cpp:141] Setting up inception_3a/relu_pool_proj
I0403 17:57:28.555827 15621 net.cpp:148] Top shape: 24 32 28 28 (602112)
I0403 17:57:28.555843 15621 net.cpp:156] Memory required for data: 561169440
I0403 17:57:28.555860 15621 layer_factory.hpp:77] Creating layer inception_3a/output
I0403 17:57:28.555878 15621 net.cpp:91] Creating Layer inception_3a/output
I0403 17:57:28.555894 15621 net.cpp:425] inception_3a/output <- inception_3a/1x1
I0403 17:57:28.555912 15621 net.cpp:425] inception_3a/output <- inception_3a/3x3
I0403 17:57:28.555928 15621 net.cpp:425] inception_3a/output <- inception_3a/5x5
I0403 17:57:28.555944 15621 net.cpp:425] inception_3a/output <- inception_3a/pool_proj
I0403 17:57:28.555963 15621 net.cpp:399] inception_3a/output -> inception_3a/output
I0403 17:57:28.556015 15621 net.cpp:141] Setting up inception_3a/output
I0403 17:57:28.556041 15621 net.cpp:148] Top shape: 24 256 28 28 (4816896)
I0403 17:57:28.556056 15621 net.cpp:156] Memory required for data: 580437024
I0403 17:57:28.556071 15621 layer_factory.hpp:77] Creating layer inception_3a/output_inception_3a/output_0_split
I0403 17:57:28.556090 15621 net.cpp:91] Creating Layer inception_3a/output_inception_3a/output_0_split
I0403 17:57:28.556108 15621 net.cpp:425] inception_3a/output_inception_3a/output_0_split <- inception_3a/output
I0403 17:57:28.556126 15621 net.cpp:399] inception_3a/output_inception_3a/output_0_split -> inception_3a/output_inception_3a/output_0_split_0
I0403 17:57:28.556146 15621 net.cpp:399] inception_3a/output_inception_3a/output_0_split -> inception_3a/output_inception_3a/output_0_split_1
I0403 17:57:28.556171 15621 net.cpp:399] inception_3a/output_inception_3a/output_0_split -> inception_3a/output_inception_3a/output_0_split_2
I0403 17:57:28.556193 15621 net.cpp:399] inception_3a/output_inception_3a/output_0_split -> inception_3a/output_inception_3a/output_0_split_3
I0403 17:57:28.556283 15621 net.cpp:141] Setting up inception_3a/output_inception_3a/output_0_split
I0403 17:57:28.556308 15621 net.cpp:148] Top shape: 24 256 28 28 (4816896)
I0403 17:57:28.556325 15621 net.cpp:148] Top shape: 24 256 28 28 (4816896)
I0403 17:57:28.556342 15621 net.cpp:148] Top shape: 24 256 28 28 (4816896)
I0403 17:57:28.556360 15621 net.cpp:148] Top shape: 24 256 28 28 (4816896)
I0403 17:57:28.556375 15621 net.cpp:156] Memory required for data: 657507360
I0403 17:57:28.556390 15621 layer_factory.hpp:77] Creating layer inception_3b/1x1
I0403 17:57:28.556413 15621 net.cpp:91] Creating Layer inception_3b/1x1
I0403 17:57:28.556434 15621 net.cpp:425] inception_3b/1x1 <- inception_3a/output_inception_3a/output_0_split_0
I0403 17:57:28.556454 15621 net.cpp:399] inception_3b/1x1 -> inception_3b/1x1
I0403 17:57:28.557637 15621 net.cpp:141] Setting up inception_3b/1x1
I0403 17:57:28.557677 15621 net.cpp:148] Top shape: 24 128 28 28 (2408448)
I0403 17:57:28.557694 15621 net.cpp:156] Memory required for data: 667141152
I0403 17:57:28.557714 15621 layer_factory.hpp:77] Creating layer inception_3b/relu_1x1
I0403 17:57:28.557735 15621 net.cpp:91] Creating Layer inception_3b/relu_1x1
I0403 17:57:28.557754 15621 net.cpp:425] inception_3b/relu_1x1 <- inception_3b/1x1
I0403 17:57:28.557771 15621 net.cpp:386] inception_3b/relu_1x1 -> inception_3b/1x1 (in-place)
I0403 17:57:28.557953 15621 net.cpp:141] Setting up inception_3b/relu_1x1
I0403 17:57:28.557984 15621 net.cpp:148] Top shape: 24 128 28 28 (2408448)
I0403 17:57:28.558002 15621 net.cpp:156] Memory required for data: 676774944
I0403 17:57:28.558018 15621 layer_factory.hpp:77] Creating layer inception_3b/3x3_reduce
I0403 17:57:28.558042 15621 net.cpp:91] Creating Layer inception_3b/3x3_reduce
I0403 17:57:28.558060 15621 net.cpp:425] inception_3b/3x3_reduce <- inception_3a/output_inception_3a/output_0_split_1
I0403 17:57:28.558079 15621 net.cpp:399] inception_3b/3x3_reduce -> inception_3b/3x3_reduce
I0403 17:57:28.559247 15621 net.cpp:141] Setting up inception_3b/3x3_reduce
I0403 17:57:28.559275 15621 net.cpp:148] Top shape: 24 128 28 28 (2408448)
I0403 17:57:28.559291 15621 net.cpp:156] Memory required for data: 686408736
I0403 17:57:28.559311 15621 layer_factory.hpp:77] Creating layer inception_3b/relu_3x3_reduce
I0403 17:57:28.559331 15621 net.cpp:91] Creating Layer inception_3b/relu_3x3_reduce
I0403 17:57:28.559350 15621 net.cpp:425] inception_3b/relu_3x3_reduce <- inception_3b/3x3_reduce
I0403 17:57:28.559366 15621 net.cpp:386] inception_3b/relu_3x3_reduce -> inception_3b/3x3_reduce (in-place)
I0403 17:57:28.559543 15621 net.cpp:141] Setting up inception_3b/relu_3x3_reduce
I0403 17:57:28.559571 15621 net.cpp:148] Top shape: 24 128 28 28 (2408448)
I0403 17:57:28.559587 15621 net.cpp:156] Memory required for data: 696042528
I0403 17:57:28.559602 15621 layer_factory.hpp:77] Creating layer inception_3b/3x3
I0403 17:57:28.559626 15621 net.cpp:91] Creating Layer inception_3b/3x3
I0403 17:57:28.559644 15621 net.cpp:425] inception_3b/3x3 <- inception_3b/3x3_reduce
I0403 17:57:28.559667 15621 net.cpp:399] inception_3b/3x3 -> inception_3b/3x3
I0403 17:57:28.562628 15621 net.cpp:141] Setting up inception_3b/3x3
I0403 17:57:28.562659 15621 net.cpp:148] Top shape: 24 192 28 28 (3612672)
I0403 17:57:28.562676 15621 net.cpp:156] Memory required for data: 710493216
I0403 17:57:28.562696 15621 layer_factory.hpp:77] Creating layer inception_3b/relu_3x3
I0403 17:57:28.562714 15621 net.cpp:91] Creating Layer inception_3b/relu_3x3
I0403 17:57:28.562731 15621 net.cpp:425] inception_3b/relu_3x3 <- inception_3b/3x3
I0403 17:57:28.562748 15621 net.cpp:386] inception_3b/relu_3x3 -> inception_3b/3x3 (in-place)
I0403 17:57:28.563032 15621 net.cpp:141] Setting up inception_3b/relu_3x3
I0403 17:57:28.563062 15621 net.cpp:148] Top shape: 24 192 28 28 (3612672)
I0403 17:57:28.563079 15621 net.cpp:156] Memory required for data: 724943904
I0403 17:57:28.563096 15621 layer_factory.hpp:77] Creating layer inception_3b/5x5_reduce
I0403 17:57:28.563118 15621 net.cpp:91] Creating Layer inception_3b/5x5_reduce
I0403 17:57:28.563138 15621 net.cpp:425] inception_3b/5x5_reduce <- inception_3a/output_inception_3a/output_0_split_2
I0403 17:57:28.563158 15621 net.cpp:399] inception_3b/5x5_reduce -> inception_3b/5x5_reduce
I0403 17:57:28.564165 15621 net.cpp:141] Setting up inception_3b/5x5_reduce
I0403 17:57:28.564195 15621 net.cpp:148] Top shape: 24 32 28 28 (602112)
I0403 17:57:28.564213 15621 net.cpp:156] Memory required for data: 727352352
I0403 17:57:28.564232 15621 layer_factory.hpp:77] Creating layer inception_3b/relu_5x5_reduce
I0403 17:57:28.564251 15621 net.cpp:91] Creating Layer inception_3b/relu_5x5_reduce
I0403 17:57:28.564267 15621 net.cpp:425] inception_3b/relu_5x5_reduce <- inception_3b/5x5_reduce
I0403 17:57:28.564286 15621 net.cpp:386] inception_3b/relu_5x5_reduce -> inception_3b/5x5_reduce (in-place)
I0403 17:57:28.564483 15621 net.cpp:141] Setting up inception_3b/relu_5x5_reduce
I0403 17:57:28.564512 15621 net.cpp:148] Top shape: 24 32 28 28 (602112)
I0403 17:57:28.564528 15621 net.cpp:156] Memory required for data: 729760800
I0403 17:57:28.564544 15621 layer_factory.hpp:77] Creating layer inception_3b/5x5
I0403 17:57:28.564568 15621 net.cpp:91] Creating Layer inception_3b/5x5
I0403 17:57:28.564585 15621 net.cpp:425] inception_3b/5x5 <- inception_3b/5x5_reduce
I0403 17:57:28.564605 15621 net.cpp:399] inception_3b/5x5 -> inception_3b/5x5
I0403 17:57:28.566638 15621 net.cpp:141] Setting up inception_3b/5x5
I0403 17:57:28.566668 15621 net.cpp:148] Top shape: 24 96 28 28 (1806336)
I0403 17:57:28.566684 15621 net.cpp:156] Memory required for data: 736986144
I0403 17:57:28.566702 15621 layer_factory.hpp:77] Creating layer inception_3b/relu_5x5
I0403 17:57:28.566725 15621 net.cpp:91] Creating Layer inception_3b/relu_5x5
I0403 17:57:28.566742 15621 net.cpp:425] inception_3b/relu_5x5 <- inception_3b/5x5
I0403 17:57:28.566761 15621 net.cpp:386] inception_3b/relu_5x5 -> inception_3b/5x5 (in-place)
I0403 17:57:28.566953 15621 net.cpp:141] Setting up inception_3b/relu_5x5
I0403 17:57:28.566983 15621 net.cpp:148] Top shape: 24 96 28 28 (1806336)
I0403 17:57:28.567000 15621 net.cpp:156] Memory required for data: 744211488
I0403 17:57:28.567016 15621 layer_factory.hpp:77] Creating layer inception_3b/pool
I0403 17:57:28.567034 15621 net.cpp:91] Creating Layer inception_3b/pool
I0403 17:57:28.567051 15621 net.cpp:425] inception_3b/pool <- inception_3a/output_inception_3a/output_0_split_3
I0403 17:57:28.567070 15621 net.cpp:399] inception_3b/pool -> inception_3b/pool
I0403 17:57:28.567127 15621 net.cpp:141] Setting up inception_3b/pool
I0403 17:57:28.567152 15621 net.cpp:148] Top shape: 24 256 28 28 (4816896)
I0403 17:57:28.567167 15621 net.cpp:156] Memory required for data: 763479072
I0403 17:57:28.567181 15621 layer_factory.hpp:77] Creating layer inception_3b/pool_proj
I0403 17:57:28.567214 15621 net.cpp:91] Creating Layer inception_3b/pool_proj
I0403 17:57:28.567231 15621 net.cpp:425] inception_3b/pool_proj <- inception_3b/pool
I0403 17:57:28.567253 15621 net.cpp:399] inception_3b/pool_proj -> inception_3b/pool_proj
I0403 17:57:28.568352 15621 net.cpp:141] Setting up inception_3b/pool_proj
I0403 17:57:28.568382 15621 net.cpp:148] Top shape: 24 64 28 28 (1204224)
I0403 17:57:28.568398 15621 net.cpp:156] Memory required for data: 768295968
I0403 17:57:28.568418 15621 layer_factory.hpp:77] Creating layer inception_3b/relu_pool_proj
I0403 17:57:28.568439 15621 net.cpp:91] Creating Layer inception_3b/relu_pool_proj
I0403 17:57:28.568455 15621 net.cpp:425] inception_3b/relu_pool_proj <- inception_3b/pool_proj
I0403 17:57:28.568490 15621 net.cpp:386] inception_3b/relu_pool_proj -> inception_3b/pool_proj (in-place)
I0403 17:57:28.568888 15621 net.cpp:141] Setting up inception_3b/relu_pool_proj
I0403 17:57:28.568917 15621 net.cpp:148] Top shape: 24 64 28 28 (1204224)
I0403 17:57:28.568933 15621 net.cpp:156] Memory required for data: 773112864
I0403 17:57:28.568949 15621 layer_factory.hpp:77] Creating layer inception_3b/output
I0403 17:57:28.568967 15621 net.cpp:91] Creating Layer inception_3b/output
I0403 17:57:28.568995 15621 net.cpp:425] inception_3b/output <- inception_3b/1x1
I0403 17:57:28.569015 15621 net.cpp:425] inception_3b/output <- inception_3b/3x3
I0403 17:57:28.569031 15621 net.cpp:425] inception_3b/output <- inception_3b/5x5
I0403 17:57:28.569048 15621 net.cpp:425] inception_3b/output <- inception_3b/pool_proj
I0403 17:57:28.569067 15621 net.cpp:399] inception_3b/output -> inception_3b/output
I0403 17:57:28.569113 15621 net.cpp:141] Setting up inception_3b/output
I0403 17:57:28.569136 15621 net.cpp:148] Top shape: 24 480 28 28 (9031680)
I0403 17:57:28.569151 15621 net.cpp:156] Memory required for data: 809239584
I0403 17:57:28.569167 15621 layer_factory.hpp:77] Creating layer pool3/3x3_s2
I0403 17:57:28.569187 15621 net.cpp:91] Creating Layer pool3/3x3_s2
I0403 17:57:28.569205 15621 net.cpp:425] pool3/3x3_s2 <- inception_3b/output
I0403 17:57:28.569239 15621 net.cpp:399] pool3/3x3_s2 -> pool3/3x3_s2
I0403 17:57:28.569300 15621 net.cpp:141] Setting up pool3/3x3_s2
I0403 17:57:28.569325 15621 net.cpp:148] Top shape: 24 480 14 14 (2257920)
I0403 17:57:28.569340 15621 net.cpp:156] Memory required for data: 818271264
I0403 17:57:28.569356 15621 layer_factory.hpp:77] Creating layer pool3/3x3_s2_pool3/3x3_s2_0_split
I0403 17:57:28.569375 15621 net.cpp:91] Creating Layer pool3/3x3_s2_pool3/3x3_s2_0_split
I0403 17:57:28.569391 15621 net.cpp:425] pool3/3x3_s2_pool3/3x3_s2_0_split <- pool3/3x3_s2
I0403 17:57:28.569411 15621 net.cpp:399] pool3/3x3_s2_pool3/3x3_s2_0_split -> pool3/3x3_s2_pool3/3x3_s2_0_split_0
I0403 17:57:28.569432 15621 net.cpp:399] pool3/3x3_s2_pool3/3x3_s2_0_split -> pool3/3x3_s2_pool3/3x3_s2_0_split_1
I0403 17:57:28.569452 15621 net.cpp:399] pool3/3x3_s2_pool3/3x3_s2_0_split -> pool3/3x3_s2_pool3/3x3_s2_0_split_2
I0403 17:57:28.569470 15621 net.cpp:399] pool3/3x3_s2_pool3/3x3_s2_0_split -> pool3/3x3_s2_pool3/3x3_s2_0_split_3
I0403 17:57:28.569550 15621 net.cpp:141] Setting up pool3/3x3_s2_pool3/3x3_s2_0_split
I0403 17:57:28.569576 15621 net.cpp:148] Top shape: 24 480 14 14 (2257920)
I0403 17:57:28.569594 15621 net.cpp:148] Top shape: 24 480 14 14 (2257920)
I0403 17:57:28.569610 15621 net.cpp:148] Top shape: 24 480 14 14 (2257920)
I0403 17:57:28.569627 15621 net.cpp:148] Top shape: 24 480 14 14 (2257920)
I0403 17:57:28.569640 15621 net.cpp:156] Memory required for data: 854397984
I0403 17:57:28.569655 15621 layer_factory.hpp:77] Creating layer inception_4a/1x1
I0403 17:57:28.569679 15621 net.cpp:91] Creating Layer inception_4a/1x1
I0403 17:57:28.569696 15621 net.cpp:425] inception_4a/1x1 <- pool3/3x3_s2_pool3/3x3_s2_0_split_0
I0403 17:57:28.569718 15621 net.cpp:399] inception_4a/1x1 -> inception_4a/1x1
I0403 17:57:28.577425 15621 net.cpp:141] Setting up inception_4a/1x1
I0403 17:57:28.577509 15621 net.cpp:148] Top shape: 24 192 14 14 (903168)
I0403 17:57:28.577525 15621 net.cpp:156] Memory required for data: 858010656
I0403 17:57:28.577548 15621 layer_factory.hpp:77] Creating layer inception_4a/relu_1x1
I0403 17:57:28.577574 15621 net.cpp:91] Creating Layer inception_4a/relu_1x1
I0403 17:57:28.577605 15621 net.cpp:425] inception_4a/relu_1x1 <- inception_4a/1x1
I0403 17:57:28.577623 15621 net.cpp:386] inception_4a/relu_1x1 -> inception_4a/1x1 (in-place)
I0403 17:57:28.577814 15621 net.cpp:141] Setting up inception_4a/relu_1x1
I0403 17:57:28.577838 15621 net.cpp:148] Top shape: 24 192 14 14 (903168)
I0403 17:57:28.577853 15621 net.cpp:156] Memory required for data: 861623328
I0403 17:57:28.577867 15621 layer_factory.hpp:77] Creating layer inception_4a/3x3_reduce
I0403 17:57:28.577893 15621 net.cpp:91] Creating Layer inception_4a/3x3_reduce
I0403 17:57:28.577911 15621 net.cpp:425] inception_4a/3x3_reduce <- pool3/3x3_s2_pool3/3x3_s2_0_split_1
I0403 17:57:28.577932 15621 net.cpp:399] inception_4a/3x3_reduce -> inception_4a/3x3_reduce
I0403 17:57:28.579324 15621 net.cpp:141] Setting up inception_4a/3x3_reduce
I0403 17:57:28.579351 15621 net.cpp:148] Top shape: 24 96 14 14 (451584)
I0403 17:57:28.579366 15621 net.cpp:156] Memory required for data: 863429664
I0403 17:57:28.579394 15621 layer_factory.hpp:77] Creating layer inception_4a/relu_3x3_reduce
I0403 17:57:28.579414 15621 net.cpp:91] Creating Layer inception_4a/relu_3x3_reduce
I0403 17:57:28.579430 15621 net.cpp:425] inception_4a/relu_3x3_reduce <- inception_4a/3x3_reduce
I0403 17:57:28.579449 15621 net.cpp:386] inception_4a/relu_3x3_reduce -> inception_4a/3x3_reduce (in-place)
I0403 17:57:28.579615 15621 net.cpp:141] Setting up inception_4a/relu_3x3_reduce
I0403 17:57:28.579640 15621 net.cpp:148] Top shape: 24 96 14 14 (451584)
I0403 17:57:28.579654 15621 net.cpp:156] Memory required for data: 865236000
I0403 17:57:28.579669 15621 layer_factory.hpp:77] Creating layer inception_4a/3x3
I0403 17:57:28.579691 15621 net.cpp:91] Creating Layer inception_4a/3x3
I0403 17:57:28.579710 15621 net.cpp:425] inception_4a/3x3 <- inception_4a/3x3_reduce
I0403 17:57:28.579730 15621 net.cpp:399] inception_4a/3x3 -> inception_4a/3x3
I0403 17:57:28.582340 15621 net.cpp:141] Setting up inception_4a/3x3
I0403 17:57:28.582366 15621 net.cpp:148] Top shape: 24 208 14 14 (978432)
I0403 17:57:28.582382 15621 net.cpp:156] Memory required for data: 869149728
I0403 17:57:28.582401 15621 layer_factory.hpp:77] Creating layer inception_4a/relu_3x3
I0403 17:57:28.582420 15621 net.cpp:91] Creating Layer inception_4a/relu_3x3
I0403 17:57:28.582437 15621 net.cpp:425] inception_4a/relu_3x3 <- inception_4a/3x3
I0403 17:57:28.582454 15621 net.cpp:386] inception_4a/relu_3x3 -> inception_4a/3x3 (in-place)
I0403 17:57:28.582718 15621 net.cpp:141] Setting up inception_4a/relu_3x3
I0403 17:57:28.582744 15621 net.cpp:148] Top shape: 24 208 14 14 (978432)
I0403 17:57:28.582758 15621 net.cpp:156] Memory required for data: 873063456
I0403 17:57:28.582773 15621 layer_factory.hpp:77] Creating layer inception_4a/5x5_reduce
I0403 17:57:28.582794 15621 net.cpp:91] Creating Layer inception_4a/5x5_reduce
I0403 17:57:28.582813 15621 net.cpp:425] inception_4a/5x5_reduce <- pool3/3x3_s2_pool3/3x3_s2_0_split_2
I0403 17:57:28.582834 15621 net.cpp:399] inception_4a/5x5_reduce -> inception_4a/5x5_reduce
I0403 17:57:28.583796 15621 net.cpp:141] Setting up inception_4a/5x5_reduce
I0403 17:57:28.583823 15621 net.cpp:148] Top shape: 24 16 14 14 (75264)
I0403 17:57:28.583838 15621 net.cpp:156] Memory required for data: 873364512
I0403 17:57:28.583855 15621 layer_factory.hpp:77] Creating layer inception_4a/relu_5x5_reduce
I0403 17:57:28.583878 15621 net.cpp:91] Creating Layer inception_4a/relu_5x5_reduce
I0403 17:57:28.583894 15621 net.cpp:425] inception_4a/relu_5x5_reduce <- inception_4a/5x5_reduce
I0403 17:57:28.583910 15621 net.cpp:386] inception_4a/relu_5x5_reduce -> inception_4a/5x5_reduce (in-place)
I0403 17:57:28.584081 15621 net.cpp:141] Setting up inception_4a/relu_5x5_reduce
I0403 17:57:28.584108 15621 net.cpp:148] Top shape: 24 16 14 14 (75264)
I0403 17:57:28.584123 15621 net.cpp:156] Memory required for data: 873665568
I0403 17:57:28.584138 15621 layer_factory.hpp:77] Creating layer inception_4a/5x5
I0403 17:57:28.584161 15621 net.cpp:91] Creating Layer inception_4a/5x5
I0403 17:57:28.584179 15621 net.cpp:425] inception_4a/5x5 <- inception_4a/5x5_reduce
I0403 17:57:28.584198 15621 net.cpp:399] inception_4a/5x5 -> inception_4a/5x5
I0403 17:57:28.585224 15621 net.cpp:141] Setting up inception_4a/5x5
I0403 17:57:28.585252 15621 net.cpp:148] Top shape: 24 48 14 14 (225792)
I0403 17:57:28.585266 15621 net.cpp:156] Memory required for data: 874568736
I0403 17:57:28.585284 15621 layer_factory.hpp:77] Creating layer inception_4a/relu_5x5
I0403 17:57:28.585302 15621 net.cpp:91] Creating Layer inception_4a/relu_5x5
I0403 17:57:28.585319 15621 net.cpp:425] inception_4a/relu_5x5 <- inception_4a/5x5
I0403 17:57:28.585337 15621 net.cpp:386] inception_4a/relu_5x5 -> inception_4a/5x5 (in-place)
I0403 17:57:28.585505 15621 net.cpp:141] Setting up inception_4a/relu_5x5
I0403 17:57:28.585530 15621 net.cpp:148] Top shape: 24 48 14 14 (225792)
I0403 17:57:28.585544 15621 net.cpp:156] Memory required for data: 875471904
I0403 17:57:28.585559 15621 layer_factory.hpp:77] Creating layer inception_4a/pool
I0403 17:57:28.585579 15621 net.cpp:91] Creating Layer inception_4a/pool
I0403 17:57:28.585597 15621 net.cpp:425] inception_4a/pool <- pool3/3x3_s2_pool3/3x3_s2_0_split_3
I0403 17:57:28.585614 15621 net.cpp:399] inception_4a/pool -> inception_4a/pool
I0403 17:57:28.585674 15621 net.cpp:141] Setting up inception_4a/pool
I0403 17:57:28.585696 15621 net.cpp:148] Top shape: 24 480 14 14 (2257920)
I0403 17:57:28.585711 15621 net.cpp:156] Memory required for data: 884503584
I0403 17:57:28.585724 15621 layer_factory.hpp:77] Creating layer inception_4a/pool_proj
I0403 17:57:28.585746 15621 net.cpp:91] Creating Layer inception_4a/pool_proj
I0403 17:57:28.585762 15621 net.cpp:425] inception_4a/pool_proj <- inception_4a/pool
I0403 17:57:28.585783 15621 net.cpp:399] inception_4a/pool_proj -> inception_4a/pool_proj
I0403 17:57:28.586887 15621 net.cpp:141] Setting up inception_4a/pool_proj
I0403 17:57:28.586915 15621 net.cpp:148] Top shape: 24 64 14 14 (301056)
I0403 17:57:28.586943 15621 net.cpp:156] Memory required for data: 885707808
I0403 17:57:28.586963 15621 layer_factory.hpp:77] Creating layer inception_4a/relu_pool_proj
I0403 17:57:28.586984 15621 net.cpp:91] Creating Layer inception_4a/relu_pool_proj
I0403 17:57:28.587002 15621 net.cpp:425] inception_4a/relu_pool_proj <- inception_4a/pool_proj
I0403 17:57:28.587023 15621 net.cpp:386] inception_4a/relu_pool_proj -> inception_4a/pool_proj (in-place)
I0403 17:57:28.587294 15621 net.cpp:141] Setting up inception_4a/relu_pool_proj
I0403 17:57:28.587321 15621 net.cpp:148] Top shape: 24 64 14 14 (301056)
I0403 17:57:28.587335 15621 net.cpp:156] Memory required for data: 886912032
I0403 17:57:28.587349 15621 layer_factory.hpp:77] Creating layer inception_4a/output
I0403 17:57:28.587368 15621 net.cpp:91] Creating Layer inception_4a/output
I0403 17:57:28.587383 15621 net.cpp:425] inception_4a/output <- inception_4a/1x1
I0403 17:57:28.587399 15621 net.cpp:425] inception_4a/output <- inception_4a/3x3
I0403 17:57:28.587414 15621 net.cpp:425] inception_4a/output <- inception_4a/5x5
I0403 17:57:28.587430 15621 net.cpp:425] inception_4a/output <- inception_4a/pool_proj
I0403 17:57:28.587448 15621 net.cpp:399] inception_4a/output -> inception_4a/output
I0403 17:57:28.587491 15621 net.cpp:141] Setting up inception_4a/output
I0403 17:57:28.587517 15621 net.cpp:148] Top shape: 24 512 14 14 (2408448)
I0403 17:57:28.587532 15621 net.cpp:156] Memory required for data: 896545824
I0403 17:57:28.587546 15621 layer_factory.hpp:77] Creating layer inception_4a/output_inception_4a/output_0_split
I0403 17:57:28.587565 15621 net.cpp:91] Creating Layer inception_4a/output_inception_4a/output_0_split
I0403 17:57:28.587580 15621 net.cpp:425] inception_4a/output_inception_4a/output_0_split <- inception_4a/output
I0403 17:57:28.587596 15621 net.cpp:399] inception_4a/output_inception_4a/output_0_split -> inception_4a/output_inception_4a/output_0_split_0
I0403 17:57:28.587618 15621 net.cpp:399] inception_4a/output_inception_4a/output_0_split -> inception_4a/output_inception_4a/output_0_split_1
I0403 17:57:28.587638 15621 net.cpp:399] inception_4a/output_inception_4a/output_0_split -> inception_4a/output_inception_4a/output_0_split_2
I0403 17:57:28.587659 15621 net.cpp:399] inception_4a/output_inception_4a/output_0_split -> inception_4a/output_inception_4a/output_0_split_3
I0403 17:57:28.587678 15621 net.cpp:399] inception_4a/output_inception_4a/output_0_split -> inception_4a/output_inception_4a/output_0_split_4
I0403 17:57:28.587765 15621 net.cpp:141] Setting up inception_4a/output_inception_4a/output_0_split
I0403 17:57:28.587788 15621 net.cpp:148] Top shape: 24 512 14 14 (2408448)
I0403 17:57:28.587807 15621 net.cpp:148] Top shape: 24 512 14 14 (2408448)
I0403 17:57:28.587823 15621 net.cpp:148] Top shape: 24 512 14 14 (2408448)
I0403 17:57:28.587838 15621 net.cpp:148] Top shape: 24 512 14 14 (2408448)
I0403 17:57:28.587853 15621 net.cpp:148] Top shape: 24 512 14 14 (2408448)
I0403 17:57:28.587867 15621 net.cpp:156] Memory required for data: 944714784
I0403 17:57:28.587882 15621 layer_factory.hpp:77] Creating layer loss1/ave_pool
I0403 17:57:28.587898 15621 net.cpp:91] Creating Layer loss1/ave_pool
I0403 17:57:28.587914 15621 net.cpp:425] loss1/ave_pool <- inception_4a/output_inception_4a/output_0_split_0
I0403 17:57:28.587932 15621 net.cpp:399] loss1/ave_pool -> loss1/ave_pool
I0403 17:57:28.588132 15621 net.cpp:141] Setting up loss1/ave_pool
I0403 17:57:28.588158 15621 net.cpp:148] Top shape: 24 512 4 4 (196608)
I0403 17:57:28.588174 15621 net.cpp:156] Memory required for data: 945501216
I0403 17:57:28.588189 15621 layer_factory.hpp:77] Creating layer loss1/conv
I0403 17:57:28.588213 15621 net.cpp:91] Creating Layer loss1/conv
I0403 17:57:28.588230 15621 net.cpp:425] loss1/conv <- loss1/ave_pool
I0403 17:57:28.588251 15621 net.cpp:399] loss1/conv -> loss1/conv
I0403 17:57:28.589609 15621 net.cpp:141] Setting up loss1/conv
I0403 17:57:28.589637 15621 net.cpp:148] Top shape: 24 128 4 4 (49152)
I0403 17:57:28.589666 15621 net.cpp:156] Memory required for data: 945697824
I0403 17:57:28.589685 15621 layer_factory.hpp:77] Creating layer loss1/relu_conv
I0403 17:57:28.589706 15621 net.cpp:91] Creating Layer loss1/relu_conv
I0403 17:57:28.589722 15621 net.cpp:425] loss1/relu_conv <- loss1/conv
I0403 17:57:28.589740 15621 net.cpp:386] loss1/relu_conv -> loss1/conv (in-place)
I0403 17:57:28.590008 15621 net.cpp:141] Setting up loss1/relu_conv
I0403 17:57:28.590034 15621 net.cpp:148] Top shape: 24 128 4 4 (49152)
I0403 17:57:28.590049 15621 net.cpp:156] Memory required for data: 945894432
I0403 17:57:28.590064 15621 layer_factory.hpp:77] Creating layer loss1/fc
I0403 17:57:28.590090 15621 net.cpp:91] Creating Layer loss1/fc
I0403 17:57:28.590107 15621 net.cpp:425] loss1/fc <- loss1/conv
I0403 17:57:28.590126 15621 net.cpp:399] loss1/fc -> loss1/fc
I0403 17:57:28.607529 15621 net.cpp:141] Setting up loss1/fc
I0403 17:57:28.607561 15621 net.cpp:148] Top shape: 24 1024 (24576)
I0403 17:57:28.607578 15621 net.cpp:156] Memory required for data: 945992736
I0403 17:57:28.607595 15621 layer_factory.hpp:77] Creating layer loss1/relu_fc
I0403 17:57:28.607614 15621 net.cpp:91] Creating Layer loss1/relu_fc
I0403 17:57:28.607630 15621 net.cpp:425] loss1/relu_fc <- loss1/fc
I0403 17:57:28.607648 15621 net.cpp:386] loss1/relu_fc -> loss1/fc (in-place)
I0403 17:57:28.607831 15621 net.cpp:141] Setting up loss1/relu_fc
I0403 17:57:28.607856 15621 net.cpp:148] Top shape: 24 1024 (24576)
I0403 17:57:28.607870 15621 net.cpp:156] Memory required for data: 946091040
I0403 17:57:28.607885 15621 layer_factory.hpp:77] Creating layer loss1/drop_fc
I0403 17:57:28.607914 15621 net.cpp:91] Creating Layer loss1/drop_fc
I0403 17:57:28.607933 15621 net.cpp:425] loss1/drop_fc <- loss1/fc
I0403 17:57:28.607950 15621 net.cpp:386] loss1/drop_fc -> loss1/fc (in-place)
I0403 17:57:28.608002 15621 net.cpp:141] Setting up loss1/drop_fc
I0403 17:57:28.608029 15621 net.cpp:148] Top shape: 24 1024 (24576)
I0403 17:57:28.608045 15621 net.cpp:156] Memory required for data: 946189344
I0403 17:57:28.608060 15621 layer_factory.hpp:77] Creating layer loss1/classifier_plantvillage
I0403 17:57:28.608078 15621 net.cpp:91] Creating Layer loss1/classifier_plantvillage
I0403 17:57:28.608094 15621 net.cpp:425] loss1/classifier_plantvillage <- loss1/fc
I0403 17:57:28.608114 15621 net.cpp:399] loss1/classifier_plantvillage -> loss1/classifier_plantvillage
I0403 17:57:28.608992 15621 net.cpp:141] Setting up loss1/classifier_plantvillage
I0403 17:57:28.609019 15621 net.cpp:148] Top shape: 24 38 (912)
I0403 17:57:28.609035 15621 net.cpp:156] Memory required for data: 946192992
I0403 17:57:28.609053 15621 layer_factory.hpp:77] Creating layer loss1/classifier_plantvillage_loss1/classifier_plantvillage_0_split
I0403 17:57:28.609074 15621 net.cpp:91] Creating Layer loss1/classifier_plantvillage_loss1/classifier_plantvillage_0_split
I0403 17:57:28.609091 15621 net.cpp:425] loss1/classifier_plantvillage_loss1/classifier_plantvillage_0_split <- loss1/classifier_plantvillage
I0403 17:57:28.609109 15621 net.cpp:399] loss1/classifier_plantvillage_loss1/classifier_plantvillage_0_split -> loss1/classifier_plantvillage_loss1/classifier_plantvillage_0_split_0
I0403 17:57:28.609129 15621 net.cpp:399] loss1/classifier_plantvillage_loss1/classifier_plantvillage_0_split -> loss1/classifier_plantvillage_loss1/classifier_plantvillage_0_split_1
I0403 17:57:28.609163 15621 net.cpp:399] loss1/classifier_plantvillage_loss1/classifier_plantvillage_0_split -> loss1/classifier_plantvillage_loss1/classifier_plantvillage_0_split_2
I0403 17:57:28.609225 15621 net.cpp:141] Setting up loss1/classifier_plantvillage_loss1/classifier_plantvillage_0_split
I0403 17:57:28.609251 15621 net.cpp:148] Top shape: 24 38 (912)
I0403 17:57:28.609267 15621 net.cpp:148] Top shape: 24 38 (912)
I0403 17:57:28.609282 15621 net.cpp:148] Top shape: 24 38 (912)
I0403 17:57:28.609295 15621 net.cpp:156] Memory required for data: 946203936
I0403 17:57:28.609310 15621 layer_factory.hpp:77] Creating layer inception_4b/1x1
I0403 17:57:28.609329 15621 net.cpp:91] Creating Layer inception_4b/1x1
I0403 17:57:28.609361 15621 net.cpp:425] inception_4b/1x1 <- inception_4a/output_inception_4a/output_0_split_1
I0403 17:57:28.609383 15621 net.cpp:399] inception_4b/1x1 -> inception_4b/1x1
I0403 17:57:28.610941 15621 net.cpp:141] Setting up inception_4b/1x1
I0403 17:57:28.610970 15621 net.cpp:148] Top shape: 24 160 14 14 (752640)
I0403 17:57:28.610990 15621 net.cpp:156] Memory required for data: 949214496
I0403 17:57:28.611008 15621 layer_factory.hpp:77] Creating layer inception_4b/relu_1x1
I0403 17:57:28.611028 15621 net.cpp:91] Creating Layer inception_4b/relu_1x1
I0403 17:57:28.611045 15621 net.cpp:425] inception_4b/relu_1x1 <- inception_4b/1x1
I0403 17:57:28.611063 15621 net.cpp:386] inception_4b/relu_1x1 -> inception_4b/1x1 (in-place)
I0403 17:57:28.611232 15621 net.cpp:141] Setting up inception_4b/relu_1x1
I0403 17:57:28.611259 15621 net.cpp:148] Top shape: 24 160 14 14 (752640)
I0403 17:57:28.611274 15621 net.cpp:156] Memory required for data: 952225056
I0403 17:57:28.611289 15621 layer_factory.hpp:77] Creating layer inception_4b/3x3_reduce
I0403 17:57:28.611310 15621 net.cpp:91] Creating Layer inception_4b/3x3_reduce
I0403 17:57:28.611326 15621 net.cpp:425] inception_4b/3x3_reduce <- inception_4a/output_inception_4a/output_0_split_2
I0403 17:57:28.611346 15621 net.cpp:399] inception_4b/3x3_reduce -> inception_4b/3x3_reduce
I0403 17:57:28.612623 15621 net.cpp:141] Setting up inception_4b/3x3_reduce
I0403 17:57:28.612653 15621 net.cpp:148] Top shape: 24 112 14 14 (526848)
I0403 17:57:28.612669 15621 net.cpp:156] Memory required for data: 954332448
I0403 17:57:28.612687 15621 layer_factory.hpp:77] Creating layer inception_4b/relu_3x3_reduce
I0403 17:57:28.612705 15621 net.cpp:91] Creating Layer inception_4b/relu_3x3_reduce
I0403 17:57:28.612721 15621 net.cpp:425] inception_4b/relu_3x3_reduce <- inception_4b/3x3_reduce
I0403 17:57:28.612740 15621 net.cpp:386] inception_4b/relu_3x3_reduce -> inception_4b/3x3_reduce (in-place)
I0403 17:57:28.613009 15621 net.cpp:141] Setting up inception_4b/relu_3x3_reduce
I0403 17:57:28.613037 15621 net.cpp:148] Top shape: 24 112 14 14 (526848)
I0403 17:57:28.613054 15621 net.cpp:156] Memory required for data: 956439840
I0403 17:57:28.613068 15621 layer_factory.hpp:77] Creating layer inception_4b/3x3
I0403 17:57:28.613090 15621 net.cpp:91] Creating Layer inception_4b/3x3
I0403 17:57:28.613107 15621 net.cpp:425] inception_4b/3x3 <- inception_4b/3x3_reduce
I0403 17:57:28.613126 15621 net.cpp:399] inception_4b/3x3 -> inception_4b/3x3
I0403 17:57:28.615967 15621 net.cpp:141] Setting up inception_4b/3x3
I0403 17:57:28.615998 15621 net.cpp:148] Top shape: 24 224 14 14 (1053696)
I0403 17:57:28.616014 15621 net.cpp:156] Memory required for data: 960654624
I0403 17:57:28.616032 15621 layer_factory.hpp:77] Creating layer inception_4b/relu_3x3
I0403 17:57:28.616052 15621 net.cpp:91] Creating Layer inception_4b/relu_3x3
I0403 17:57:28.616070 15621 net.cpp:425] inception_4b/relu_3x3 <- inception_4b/3x3
I0403 17:57:28.616086 15621 net.cpp:386] inception_4b/relu_3x3 -> inception_4b/3x3 (in-place)
I0403 17:57:28.616258 15621 net.cpp:141] Setting up inception_4b/relu_3x3
I0403 17:57:28.616282 15621 net.cpp:148] Top shape: 24 224 14 14 (1053696)
I0403 17:57:28.616297 15621 net.cpp:156] Memory required for data: 964869408
I0403 17:57:28.616312 15621 layer_factory.hpp:77] Creating layer inception_4b/5x5_reduce
I0403 17:57:28.616336 15621 net.cpp:91] Creating Layer inception_4b/5x5_reduce
I0403 17:57:28.616354 15621 net.cpp:425] inception_4b/5x5_reduce <- inception_4a/output_inception_4a/output_0_split_3
I0403 17:57:28.616372 15621 net.cpp:399] inception_4b/5x5_reduce -> inception_4b/5x5_reduce
I0403 17:57:28.617444 15621 net.cpp:141] Setting up inception_4b/5x5_reduce
I0403 17:57:28.617470 15621 net.cpp:148] Top shape: 24 24 14 14 (112896)
I0403 17:57:28.617486 15621 net.cpp:156] Memory required for data: 965320992
I0403 17:57:28.617503 15621 layer_factory.hpp:77] Creating layer inception_4b/relu_5x5_reduce
I0403 17:57:28.617524 15621 net.cpp:91] Creating Layer inception_4b/relu_5x5_reduce
I0403 17:57:28.617554 15621 net.cpp:425] inception_4b/relu_5x5_reduce <- inception_4b/5x5_reduce
I0403 17:57:28.617573 15621 net.cpp:386] inception_4b/relu_5x5_reduce -> inception_4b/5x5_reduce (in-place)
I0403 17:57:28.617748 15621 net.cpp:141] Setting up inception_4b/relu_5x5_reduce
I0403 17:57:28.617772 15621 net.cpp:148] Top shape: 24 24 14 14 (112896)
I0403 17:57:28.617787 15621 net.cpp:156] Memory required for data: 965772576
I0403 17:57:28.617801 15621 layer_factory.hpp:77] Creating layer inception_4b/5x5
I0403 17:57:28.617823 15621 net.cpp:91] Creating Layer inception_4b/5x5
I0403 17:57:28.617841 15621 net.cpp:425] inception_4b/5x5 <- inception_4b/5x5_reduce
I0403 17:57:28.617861 15621 net.cpp:399] inception_4b/5x5 -> inception_4b/5x5
I0403 17:57:28.619042 15621 net.cpp:141] Setting up inception_4b/5x5
I0403 17:57:28.619071 15621 net.cpp:148] Top shape: 24 64 14 14 (301056)
I0403 17:57:28.619086 15621 net.cpp:156] Memory required for data: 966976800
I0403 17:57:28.619103 15621 layer_factory.hpp:77] Creating layer inception_4b/relu_5x5
I0403 17:57:28.619123 15621 net.cpp:91] Creating Layer inception_4b/relu_5x5
I0403 17:57:28.619140 15621 net.cpp:425] inception_4b/relu_5x5 <- inception_4b/5x5
I0403 17:57:28.619156 15621 net.cpp:386] inception_4b/relu_5x5 -> inception_4b/5x5 (in-place)
I0403 17:57:28.619428 15621 net.cpp:141] Setting up inception_4b/relu_5x5
I0403 17:57:28.619453 15621 net.cpp:148] Top shape: 24 64 14 14 (301056)
I0403 17:57:28.619468 15621 net.cpp:156] Memory required for data: 968181024
I0403 17:57:28.619482 15621 layer_factory.hpp:77] Creating layer inception_4b/pool
I0403 17:57:28.619503 15621 net.cpp:91] Creating Layer inception_4b/pool
I0403 17:57:28.619519 15621 net.cpp:425] inception_4b/pool <- inception_4a/output_inception_4a/output_0_split_4
I0403 17:57:28.619537 15621 net.cpp:399] inception_4b/pool -> inception_4b/pool
I0403 17:57:28.619601 15621 net.cpp:141] Setting up inception_4b/pool
I0403 17:57:28.619623 15621 net.cpp:148] Top shape: 24 512 14 14 (2408448)
I0403 17:57:28.619638 15621 net.cpp:156] Memory required for data: 977814816
I0403 17:57:28.619652 15621 layer_factory.hpp:77] Creating layer inception_4b/pool_proj
I0403 17:57:28.619674 15621 net.cpp:91] Creating Layer inception_4b/pool_proj
I0403 17:57:28.619693 15621 net.cpp:425] inception_4b/pool_proj <- inception_4b/pool
I0403 17:57:28.619712 15621 net.cpp:399] inception_4b/pool_proj -> inception_4b/pool_proj
I0403 17:57:28.620898 15621 net.cpp:141] Setting up inception_4b/pool_proj
I0403 17:57:28.620929 15621 net.cpp:148] Top shape: 24 64 14 14 (301056)
I0403 17:57:28.620944 15621 net.cpp:156] Memory required for data: 979019040
I0403 17:57:28.620962 15621 layer_factory.hpp:77] Creating layer inception_4b/relu_pool_proj
I0403 17:57:28.620983 15621 net.cpp:91] Creating Layer inception_4b/relu_pool_proj
I0403 17:57:28.621001 15621 net.cpp:425] inception_4b/relu_pool_proj <- inception_4b/pool_proj
I0403 17:57:28.621018 15621 net.cpp:386] inception_4b/relu_pool_proj -> inception_4b/pool_proj (in-place)
I0403 17:57:28.621193 15621 net.cpp:141] Setting up inception_4b/relu_pool_proj
I0403 17:57:28.621217 15621 net.cpp:148] Top shape: 24 64 14 14 (301056)
I0403 17:57:28.621232 15621 net.cpp:156] Memory required for data: 980223264
I0403 17:57:28.621247 15621 layer_factory.hpp:77] Creating layer inception_4b/output
I0403 17:57:28.621263 15621 net.cpp:91] Creating Layer inception_4b/output
I0403 17:57:28.621279 15621 net.cpp:425] inception_4b/output <- inception_4b/1x1
I0403 17:57:28.621294 15621 net.cpp:425] inception_4b/output <- inception_4b/3x3
I0403 17:57:28.621309 15621 net.cpp:425] inception_4b/output <- inception_4b/5x5
I0403 17:57:28.621325 15621 net.cpp:425] inception_4b/output <- inception_4b/pool_proj
I0403 17:57:28.621343 15621 net.cpp:399] inception_4b/output -> inception_4b/output
I0403 17:57:28.621387 15621 net.cpp:141] Setting up inception_4b/output
I0403 17:57:28.621409 15621 net.cpp:148] Top shape: 24 512 14 14 (2408448)
I0403 17:57:28.621423 15621 net.cpp:156] Memory required for data: 989857056
I0403 17:57:28.621453 15621 layer_factory.hpp:77] Creating layer inception_4b/output_inception_4b/output_0_split
I0403 17:57:28.621472 15621 net.cpp:91] Creating Layer inception_4b/output_inception_4b/output_0_split
I0403 17:57:28.621489 15621 net.cpp:425] inception_4b/output_inception_4b/output_0_split <- inception_4b/output
I0403 17:57:28.621506 15621 net.cpp:399] inception_4b/output_inception_4b/output_0_split -> inception_4b/output_inception_4b/output_0_split_0
I0403 17:57:28.621528 15621 net.cpp:399] inception_4b/output_inception_4b/output_0_split -> inception_4b/output_inception_4b/output_0_split_1
I0403 17:57:28.621549 15621 net.cpp:399] inception_4b/output_inception_4b/output_0_split -> inception_4b/output_inception_4b/output_0_split_2
I0403 17:57:28.621568 15621 net.cpp:399] inception_4b/output_inception_4b/output_0_split -> inception_4b/output_inception_4b/output_0_split_3
I0403 17:57:28.621645 15621 net.cpp:141] Setting up inception_4b/output_inception_4b/output_0_split
I0403 17:57:28.621668 15621 net.cpp:148] Top shape: 24 512 14 14 (2408448)
I0403 17:57:28.621685 15621 net.cpp:148] Top shape: 24 512 14 14 (2408448)
I0403 17:57:28.621700 15621 net.cpp:148] Top shape: 24 512 14 14 (2408448)
I0403 17:57:28.621714 15621 net.cpp:148] Top shape: 24 512 14 14 (2408448)
I0403 17:57:28.621727 15621 net.cpp:156] Memory required for data: 1028392224
I0403 17:57:28.621742 15621 layer_factory.hpp:77] Creating layer inception_4c/1x1
I0403 17:57:28.621763 15621 net.cpp:91] Creating Layer inception_4c/1x1
I0403 17:57:28.621781 15621 net.cpp:425] inception_4c/1x1 <- inception_4b/output_inception_4b/output_0_split_0
I0403 17:57:28.621801 15621 net.cpp:399] inception_4c/1x1 -> inception_4c/1x1
I0403 17:57:28.623189 15621 net.cpp:141] Setting up inception_4c/1x1
I0403 17:57:28.623217 15621 net.cpp:148] Top shape: 24 128 14 14 (602112)
I0403 17:57:28.623232 15621 net.cpp:156] Memory required for data: 1030800672
I0403 17:57:28.623251 15621 layer_factory.hpp:77] Creating layer inception_4c/relu_1x1
I0403 17:57:28.623270 15621 net.cpp:91] Creating Layer inception_4c/relu_1x1
I0403 17:57:28.623286 15621 net.cpp:425] inception_4c/relu_1x1 <- inception_4c/1x1
I0403 17:57:28.623317 15621 net.cpp:386] inception_4c/relu_1x1 -> inception_4c/1x1 (in-place)
I0403 17:57:28.623486 15621 net.cpp:141] Setting up inception_4c/relu_1x1
I0403 17:57:28.623512 15621 net.cpp:148] Top shape: 24 128 14 14 (602112)
I0403 17:57:28.623525 15621 net.cpp:156] Memory required for data: 1033209120
I0403 17:57:28.623539 15621 layer_factory.hpp:77] Creating layer inception_4c/3x3_reduce
I0403 17:57:28.623561 15621 net.cpp:91] Creating Layer inception_4c/3x3_reduce
I0403 17:57:28.623579 15621 net.cpp:425] inception_4c/3x3_reduce <- inception_4b/output_inception_4b/output_0_split_1
I0403 17:57:28.623600 15621 net.cpp:399] inception_4c/3x3_reduce -> inception_4c/3x3_reduce
I0403 17:57:28.625459 15621 net.cpp:141] Setting up inception_4c/3x3_reduce
I0403 17:57:28.625488 15621 net.cpp:148] Top shape: 24 128 14 14 (602112)
I0403 17:57:28.625502 15621 net.cpp:156] Memory required for data: 1035617568
I0403 17:57:28.625521 15621 layer_factory.hpp:77] Creating layer inception_4c/relu_3x3_reduce
I0403 17:57:28.625541 15621 net.cpp:91] Creating Layer inception_4c/relu_3x3_reduce
I0403 17:57:28.625558 15621 net.cpp:425] inception_4c/relu_3x3_reduce <- inception_4c/3x3_reduce
I0403 17:57:28.625576 15621 net.cpp:386] inception_4c/relu_3x3_reduce -> inception_4c/3x3_reduce (in-place)
I0403 17:57:28.625849 15621 net.cpp:141] Setting up inception_4c/relu_3x3_reduce
I0403 17:57:28.625875 15621 net.cpp:148] Top shape: 24 128 14 14 (602112)
I0403 17:57:28.625890 15621 net.cpp:156] Memory required for data: 1038026016
I0403 17:57:28.625905 15621 layer_factory.hpp:77] Creating layer inception_4c/3x3
I0403 17:57:28.625926 15621 net.cpp:91] Creating Layer inception_4c/3x3
I0403 17:57:28.625947 15621 net.cpp:425] inception_4c/3x3 <- inception_4c/3x3_reduce
I0403 17:57:28.625965 15621 net.cpp:399] inception_4c/3x3 -> inception_4c/3x3
I0403 17:57:28.629434 15621 net.cpp:141] Setting up inception_4c/3x3
I0403 17:57:28.629477 15621 net.cpp:148] Top shape: 24 256 14 14 (1204224)
I0403 17:57:28.629493 15621 net.cpp:156] Memory required for data: 1042842912
I0403 17:57:28.629524 15621 layer_factory.hpp:77] Creating layer inception_4c/relu_3x3
I0403 17:57:28.629544 15621 net.cpp:91] Creating Layer inception_4c/relu_3x3
I0403 17:57:28.629560 15621 net.cpp:425] inception_4c/relu_3x3 <- inception_4c/3x3
I0403 17:57:28.629577 15621 net.cpp:386] inception_4c/relu_3x3 -> inception_4c/3x3 (in-place)
I0403 17:57:28.629750 15621 net.cpp:141] Setting up inception_4c/relu_3x3
I0403 17:57:28.629776 15621 net.cpp:148] Top shape: 24 256 14 14 (1204224)
I0403 17:57:28.629792 15621 net.cpp:156] Memory required for data: 1047659808
I0403 17:57:28.629806 15621 layer_factory.hpp:77] Creating layer inception_4c/5x5_reduce
I0403 17:57:28.629829 15621 net.cpp:91] Creating Layer inception_4c/5x5_reduce
I0403 17:57:28.629847 15621 net.cpp:425] inception_4c/5x5_reduce <- inception_4b/output_inception_4b/output_0_split_2
I0403 17:57:28.629865 15621 net.cpp:399] inception_4c/5x5_reduce -> inception_4c/5x5_reduce
I0403 17:57:28.630903 15621 net.cpp:141] Setting up inception_4c/5x5_reduce
I0403 17:57:28.630930 15621 net.cpp:148] Top shape: 24 24 14 14 (112896)
I0403 17:57:28.630945 15621 net.cpp:156] Memory required for data: 1048111392
I0403 17:57:28.630964 15621 layer_factory.hpp:77] Creating layer inception_4c/relu_5x5_reduce
I0403 17:57:28.630987 15621 net.cpp:91] Creating Layer inception_4c/relu_5x5_reduce
I0403 17:57:28.631006 15621 net.cpp:425] inception_4c/relu_5x5_reduce <- inception_4c/5x5_reduce
I0403 17:57:28.631022 15621 net.cpp:386] inception_4c/relu_5x5_reduce -> inception_4c/5x5_reduce (in-place)
I0403 17:57:28.631197 15621 net.cpp:141] Setting up inception_4c/relu_5x5_reduce
I0403 17:57:28.631222 15621 net.cpp:148] Top shape: 24 24 14 14 (112896)
I0403 17:57:28.631235 15621 net.cpp:156] Memory required for data: 1048562976
I0403 17:57:28.631250 15621 layer_factory.hpp:77] Creating layer inception_4c/5x5
I0403 17:57:28.631271 15621 net.cpp:91] Creating Layer inception_4c/5x5
I0403 17:57:28.631289 15621 net.cpp:425] inception_4c/5x5 <- inception_4c/5x5_reduce
I0403 17:57:28.631310 15621 net.cpp:399] inception_4c/5x5 -> inception_4c/5x5
I0403 17:57:28.632493 15621 net.cpp:141] Setting up inception_4c/5x5
I0403 17:57:28.632521 15621 net.cpp:148] Top shape: 24 64 14 14 (301056)
I0403 17:57:28.632537 15621 net.cpp:156] Memory required for data: 1049767200
I0403 17:57:28.632556 15621 layer_factory.hpp:77] Creating layer inception_4c/relu_5x5
I0403 17:57:28.632575 15621 net.cpp:91] Creating Layer inception_4c/relu_5x5
I0403 17:57:28.632591 15621 net.cpp:425] inception_4c/relu_5x5 <- inception_4c/5x5
I0403 17:57:28.632608 15621 net.cpp:386] inception_4c/relu_5x5 -> inception_4c/5x5 (in-place)
I0403 17:57:28.632887 15621 net.cpp:141] Setting up inception_4c/relu_5x5
I0403 17:57:28.632915 15621 net.cpp:148] Top shape: 24 64 14 14 (301056)
I0403 17:57:28.632931 15621 net.cpp:156] Memory required for data: 1050971424
I0403 17:57:28.632946 15621 layer_factory.hpp:77] Creating layer inception_4c/pool
I0403 17:57:28.632963 15621 net.cpp:91] Creating Layer inception_4c/pool
I0403 17:57:28.632982 15621 net.cpp:425] inception_4c/pool <- inception_4b/output_inception_4b/output_0_split_3
I0403 17:57:28.633003 15621 net.cpp:399] inception_4c/pool -> inception_4c/pool
I0403 17:57:28.633065 15621 net.cpp:141] Setting up inception_4c/pool
I0403 17:57:28.633090 15621 net.cpp:148] Top shape: 24 512 14 14 (2408448)
I0403 17:57:28.633106 15621 net.cpp:156] Memory required for data: 1060605216
I0403 17:57:28.633121 15621 layer_factory.hpp:77] Creating layer inception_4c/pool_proj
I0403 17:57:28.633142 15621 net.cpp:91] Creating Layer inception_4c/pool_proj
I0403 17:57:28.633159 15621 net.cpp:425] inception_4c/pool_proj <- inception_4c/pool
I0403 17:57:28.633178 15621 net.cpp:399] inception_4c/pool_proj -> inception_4c/pool_proj
I0403 17:57:28.634341 15621 net.cpp:141] Setting up inception_4c/pool_proj
I0403 17:57:28.634371 15621 net.cpp:148] Top shape: 24 64 14 14 (301056)
I0403 17:57:28.634400 15621 net.cpp:156] Memory required for data: 1061809440
I0403 17:57:28.634419 15621 layer_factory.hpp:77] Creating layer inception_4c/relu_pool_proj
I0403 17:57:28.634438 15621 net.cpp:91] Creating Layer inception_4c/relu_pool_proj
I0403 17:57:28.634452 15621 net.cpp:425] inception_4c/relu_pool_proj <- inception_4c/pool_proj
I0403 17:57:28.634469 15621 net.cpp:386] inception_4c/relu_pool_proj -> inception_4c/pool_proj (in-place)
I0403 17:57:28.634644 15621 net.cpp:141] Setting up inception_4c/relu_pool_proj
I0403 17:57:28.634670 15621 net.cpp:148] Top shape: 24 64 14 14 (301056)
I0403 17:57:28.634686 15621 net.cpp:156] Memory required for data: 1063013664
I0403 17:57:28.634701 15621 layer_factory.hpp:77] Creating layer inception_4c/output
I0403 17:57:28.634717 15621 net.cpp:91] Creating Layer inception_4c/output
I0403 17:57:28.634733 15621 net.cpp:425] inception_4c/output <- inception_4c/1x1
I0403 17:57:28.634749 15621 net.cpp:425] inception_4c/output <- inception_4c/3x3
I0403 17:57:28.634764 15621 net.cpp:425] inception_4c/output <- inception_4c/5x5
I0403 17:57:28.634780 15621 net.cpp:425] inception_4c/output <- inception_4c/pool_proj
I0403 17:57:28.634799 15621 net.cpp:399] inception_4c/output -> inception_4c/output
I0403 17:57:28.634843 15621 net.cpp:141] Setting up inception_4c/output
I0403 17:57:28.634865 15621 net.cpp:148] Top shape: 24 512 14 14 (2408448)
I0403 17:57:28.634879 15621 net.cpp:156] Memory required for data: 1072647456
I0403 17:57:28.634894 15621 layer_factory.hpp:77] Creating layer inception_4c/output_inception_4c/output_0_split
I0403 17:57:28.634913 15621 net.cpp:91] Creating Layer inception_4c/output_inception_4c/output_0_split
I0403 17:57:28.634929 15621 net.cpp:425] inception_4c/output_inception_4c/output_0_split <- inception_4c/output
I0403 17:57:28.634945 15621 net.cpp:399] inception_4c/output_inception_4c/output_0_split -> inception_4c/output_inception_4c/output_0_split_0
I0403 17:57:28.634965 15621 net.cpp:399] inception_4c/output_inception_4c/output_0_split -> inception_4c/output_inception_4c/output_0_split_1
I0403 17:57:28.634992 15621 net.cpp:399] inception_4c/output_inception_4c/output_0_split -> inception_4c/output_inception_4c/output_0_split_2
I0403 17:57:28.635013 15621 net.cpp:399] inception_4c/output_inception_4c/output_0_split -> inception_4c/output_inception_4c/output_0_split_3
I0403 17:57:28.635093 15621 net.cpp:141] Setting up inception_4c/output_inception_4c/output_0_split
I0403 17:57:28.635116 15621 net.cpp:148] Top shape: 24 512 14 14 (2408448)
I0403 17:57:28.635133 15621 net.cpp:148] Top shape: 24 512 14 14 (2408448)
I0403 17:57:28.635148 15621 net.cpp:148] Top shape: 24 512 14 14 (2408448)
I0403 17:57:28.635162 15621 net.cpp:148] Top shape: 24 512 14 14 (2408448)
I0403 17:57:28.635177 15621 net.cpp:156] Memory required for data: 1111182624
I0403 17:57:28.635192 15621 layer_factory.hpp:77] Creating layer inception_4d/1x1
I0403 17:57:28.635215 15621 net.cpp:91] Creating Layer inception_4d/1x1
I0403 17:57:28.635231 15621 net.cpp:425] inception_4d/1x1 <- inception_4c/output_inception_4c/output_0_split_0
I0403 17:57:28.635251 15621 net.cpp:399] inception_4d/1x1 -> inception_4d/1x1
I0403 17:57:28.636574 15621 net.cpp:141] Setting up inception_4d/1x1
I0403 17:57:28.636601 15621 net.cpp:148] Top shape: 24 112 14 14 (526848)
I0403 17:57:28.636616 15621 net.cpp:156] Memory required for data: 1113290016
I0403 17:57:28.636636 15621 layer_factory.hpp:77] Creating layer inception_4d/relu_1x1
I0403 17:57:28.636656 15621 net.cpp:91] Creating Layer inception_4d/relu_1x1
I0403 17:57:28.636672 15621 net.cpp:425] inception_4d/relu_1x1 <- inception_4d/1x1
I0403 17:57:28.636689 15621 net.cpp:386] inception_4d/relu_1x1 -> inception_4d/1x1 (in-place)
I0403 17:57:28.636864 15621 net.cpp:141] Setting up inception_4d/relu_1x1
I0403 17:57:28.636888 15621 net.cpp:148] Top shape: 24 112 14 14 (526848)
I0403 17:57:28.636904 15621 net.cpp:156] Memory required for data: 1115397408
I0403 17:57:28.636919 15621 layer_factory.hpp:77] Creating layer inception_4d/3x3_reduce
I0403 17:57:28.636955 15621 net.cpp:91] Creating Layer inception_4d/3x3_reduce
I0403 17:57:28.636975 15621 net.cpp:425] inception_4d/3x3_reduce <- inception_4c/output_inception_4c/output_0_split_1
I0403 17:57:28.636997 15621 net.cpp:399] inception_4d/3x3_reduce -> inception_4d/3x3_reduce
I0403 17:57:28.638442 15621 net.cpp:141] Setting up inception_4d/3x3_reduce
I0403 17:57:28.638469 15621 net.cpp:148] Top shape: 24 144 14 14 (677376)
I0403 17:57:28.638484 15621 net.cpp:156] Memory required for data: 1118106912
I0403 17:57:28.638502 15621 layer_factory.hpp:77] Creating layer inception_4d/relu_3x3_reduce
I0403 17:57:28.638520 15621 net.cpp:91] Creating Layer inception_4d/relu_3x3_reduce
I0403 17:57:28.638535 15621 net.cpp:425] inception_4d/relu_3x3_reduce <- inception_4d/3x3_reduce
I0403 17:57:28.638556 15621 net.cpp:386] inception_4d/relu_3x3_reduce -> inception_4d/3x3_reduce (in-place)
I0403 17:57:28.638833 15621 net.cpp:141] Setting up inception_4d/relu_3x3_reduce
I0403 17:57:28.638857 15621 net.cpp:148] Top shape: 24 144 14 14 (677376)
I0403 17:57:28.638872 15621 net.cpp:156] Memory required for data: 1120816416
I0403 17:57:28.638887 15621 layer_factory.hpp:77] Creating layer inception_4d/3x3
I0403 17:57:28.638911 15621 net.cpp:91] Creating Layer inception_4d/3x3
I0403 17:57:28.638928 15621 net.cpp:425] inception_4d/3x3 <- inception_4d/3x3_reduce
I0403 17:57:28.638949 15621 net.cpp:399] inception_4d/3x3 -> inception_4d/3x3
I0403 17:57:28.643187 15621 net.cpp:141] Setting up inception_4d/3x3
I0403 17:57:28.643224 15621 net.cpp:148] Top shape: 24 288 14 14 (1354752)
I0403 17:57:28.643239 15621 net.cpp:156] Memory required for data: 1126235424
I0403 17:57:28.643256 15621 layer_factory.hpp:77] Creating layer inception_4d/relu_3x3
I0403 17:57:28.643277 15621 net.cpp:91] Creating Layer inception_4d/relu_3x3
I0403 17:57:28.643295 15621 net.cpp:425] inception_4d/relu_3x3 <- inception_4d/3x3
I0403 17:57:28.643312 15621 net.cpp:386] inception_4d/relu_3x3 -> inception_4d/3x3 (in-place)
I0403 17:57:28.643489 15621 net.cpp:141] Setting up inception_4d/relu_3x3
I0403 17:57:28.643517 15621 net.cpp:148] Top shape: 24 288 14 14 (1354752)
I0403 17:57:28.643532 15621 net.cpp:156] Memory required for data: 1131654432
I0403 17:57:28.643548 15621 layer_factory.hpp:77] Creating layer inception_4d/5x5_reduce
I0403 17:57:28.643569 15621 net.cpp:91] Creating Layer inception_4d/5x5_reduce
I0403 17:57:28.643587 15621 net.cpp:425] inception_4d/5x5_reduce <- inception_4c/output_inception_4c/output_0_split_2
I0403 17:57:28.643606 15621 net.cpp:399] inception_4d/5x5_reduce -> inception_4d/5x5_reduce
I0403 17:57:28.644733 15621 net.cpp:141] Setting up inception_4d/5x5_reduce
I0403 17:57:28.644762 15621 net.cpp:148] Top shape: 24 32 14 14 (150528)
I0403 17:57:28.644776 15621 net.cpp:156] Memory required for data: 1132256544
I0403 17:57:28.644795 15621 layer_factory.hpp:77] Creating layer inception_4d/relu_5x5_reduce
I0403 17:57:28.644816 15621 net.cpp:91] Creating Layer inception_4d/relu_5x5_reduce
I0403 17:57:28.644834 15621 net.cpp:425] inception_4d/relu_5x5_reduce <- inception_4d/5x5_reduce
I0403 17:57:28.644850 15621 net.cpp:386] inception_4d/relu_5x5_reduce -> inception_4d/5x5_reduce (in-place)
I0403 17:57:28.645043 15621 net.cpp:141] Setting up inception_4d/relu_5x5_reduce
I0403 17:57:28.645067 15621 net.cpp:148] Top shape: 24 32 14 14 (150528)
I0403 17:57:28.645082 15621 net.cpp:156] Memory required for data: 1132858656
I0403 17:57:28.645098 15621 layer_factory.hpp:77] Creating layer inception_4d/5x5
I0403 17:57:28.645123 15621 net.cpp:91] Creating Layer inception_4d/5x5
I0403 17:57:28.645139 15621 net.cpp:425] inception_4d/5x5 <- inception_4d/5x5_reduce
I0403 17:57:28.645159 15621 net.cpp:399] inception_4d/5x5 -> inception_4d/5x5
I0403 17:57:28.646606 15621 net.cpp:141] Setting up inception_4d/5x5
I0403 17:57:28.646636 15621 net.cpp:148] Top shape: 24 64 14 14 (301056)
I0403 17:57:28.646653 15621 net.cpp:156] Memory required for data: 1134062880
I0403 17:57:28.646672 15621 layer_factory.hpp:77] Creating layer inception_4d/relu_5x5
I0403 17:57:28.646705 15621 net.cpp:91] Creating Layer inception_4d/relu_5x5
I0403 17:57:28.646723 15621 net.cpp:425] inception_4d/relu_5x5 <- inception_4d/5x5
I0403 17:57:28.646744 15621 net.cpp:386] inception_4d/relu_5x5 -> inception_4d/5x5 (in-place)
I0403 17:57:28.647042 15621 net.cpp:141] Setting up inception_4d/relu_5x5
I0403 17:57:28.647070 15621 net.cpp:148] Top shape: 24 64 14 14 (301056)
I0403 17:57:28.647086 15621 net.cpp:156] Memory required for data: 1135267104
I0403 17:57:28.647102 15621 layer_factory.hpp:77] Creating layer inception_4d/pool
I0403 17:57:28.647120 15621 net.cpp:91] Creating Layer inception_4d/pool
I0403 17:57:28.647136 15621 net.cpp:425] inception_4d/pool <- inception_4c/output_inception_4c/output_0_split_3
I0403 17:57:28.647157 15621 net.cpp:399] inception_4d/pool -> inception_4d/pool
I0403 17:57:28.647224 15621 net.cpp:141] Setting up inception_4d/pool
I0403 17:57:28.647248 15621 net.cpp:148] Top shape: 24 512 14 14 (2408448)
I0403 17:57:28.647264 15621 net.cpp:156] Memory required for data: 1144900896
I0403 17:57:28.647277 15621 layer_factory.hpp:77] Creating layer inception_4d/pool_proj
I0403 17:57:28.647300 15621 net.cpp:91] Creating Layer inception_4d/pool_proj
I0403 17:57:28.647317 15621 net.cpp:425] inception_4d/pool_proj <- inception_4d/pool
I0403 17:57:28.647338 15621 net.cpp:399] inception_4d/pool_proj -> inception_4d/pool_proj
I0403 17:57:28.649094 15621 net.cpp:141] Setting up inception_4d/pool_proj
I0403 17:57:28.649122 15621 net.cpp:148] Top shape: 24 64 14 14 (301056)
I0403 17:57:28.649139 15621 net.cpp:156] Memory required for data: 1146105120
I0403 17:57:28.649158 15621 layer_factory.hpp:77] Creating layer inception_4d/relu_pool_proj
I0403 17:57:28.649179 15621 net.cpp:91] Creating Layer inception_4d/relu_pool_proj
I0403 17:57:28.649196 15621 net.cpp:425] inception_4d/relu_pool_proj <- inception_4d/pool_proj
I0403 17:57:28.649214 15621 net.cpp:386] inception_4d/relu_pool_proj -> inception_4d/pool_proj (in-place)
I0403 17:57:28.649394 15621 net.cpp:141] Setting up inception_4d/relu_pool_proj
I0403 17:57:28.649420 15621 net.cpp:148] Top shape: 24 64 14 14 (301056)
I0403 17:57:28.649436 15621 net.cpp:156] Memory required for data: 1147309344
I0403 17:57:28.649451 15621 layer_factory.hpp:77] Creating layer inception_4d/output
I0403 17:57:28.649468 15621 net.cpp:91] Creating Layer inception_4d/output
I0403 17:57:28.649485 15621 net.cpp:425] inception_4d/output <- inception_4d/1x1
I0403 17:57:28.649502 15621 net.cpp:425] inception_4d/output <- inception_4d/3x3
I0403 17:57:28.649518 15621 net.cpp:425] inception_4d/output <- inception_4d/5x5
I0403 17:57:28.649533 15621 net.cpp:425] inception_4d/output <- inception_4d/pool_proj
I0403 17:57:28.649550 15621 net.cpp:399] inception_4d/output -> inception_4d/output
I0403 17:57:28.649600 15621 net.cpp:141] Setting up inception_4d/output
I0403 17:57:28.649623 15621 net.cpp:148] Top shape: 24 528 14 14 (2483712)
I0403 17:57:28.649637 15621 net.cpp:156] Memory required for data: 1157244192
I0403 17:57:28.649652 15621 layer_factory.hpp:77] Creating layer inception_4d/output_inception_4d/output_0_split
I0403 17:57:28.649672 15621 net.cpp:91] Creating Layer inception_4d/output_inception_4d/output_0_split
I0403 17:57:28.649689 15621 net.cpp:425] inception_4d/output_inception_4d/output_0_split <- inception_4d/output
I0403 17:57:28.649706 15621 net.cpp:399] inception_4d/output_inception_4d/output_0_split -> inception_4d/output_inception_4d/output_0_split_0
I0403 17:57:28.649727 15621 net.cpp:399] inception_4d/output_inception_4d/output_0_split -> inception_4d/output_inception_4d/output_0_split_1
I0403 17:57:28.649749 15621 net.cpp:399] inception_4d/output_inception_4d/output_0_split -> inception_4d/output_inception_4d/output_0_split_2
I0403 17:57:28.649771 15621 net.cpp:399] inception_4d/output_inception_4d/output_0_split -> inception_4d/output_inception_4d/output_0_split_3
I0403 17:57:28.649792 15621 net.cpp:399] inception_4d/output_inception_4d/output_0_split -> inception_4d/output_inception_4d/output_0_split_4
I0403 17:57:28.649893 15621 net.cpp:141] Setting up inception_4d/output_inception_4d/output_0_split
I0403 17:57:28.649927 15621 net.cpp:148] Top shape: 24 528 14 14 (2483712)
I0403 17:57:28.649945 15621 net.cpp:148] Top shape: 24 528 14 14 (2483712)
I0403 17:57:28.649960 15621 net.cpp:148] Top shape: 24 528 14 14 (2483712)
I0403 17:57:28.649976 15621 net.cpp:148] Top shape: 24 528 14 14 (2483712)
I0403 17:57:28.649997 15621 net.cpp:148] Top shape: 24 528 14 14 (2483712)
I0403 17:57:28.650012 15621 net.cpp:156] Memory required for data: 1206918432
I0403 17:57:28.650027 15621 layer_factory.hpp:77] Creating layer loss2/ave_pool
I0403 17:57:28.650046 15621 net.cpp:91] Creating Layer loss2/ave_pool
I0403 17:57:28.650064 15621 net.cpp:425] loss2/ave_pool <- inception_4d/output_inception_4d/output_0_split_0
I0403 17:57:28.650082 15621 net.cpp:399] loss2/ave_pool -> loss2/ave_pool
I0403 17:57:28.650394 15621 net.cpp:141] Setting up loss2/ave_pool
I0403 17:57:28.650420 15621 net.cpp:148] Top shape: 24 528 4 4 (202752)
I0403 17:57:28.650436 15621 net.cpp:156] Memory required for data: 1207729440
I0403 17:57:28.650451 15621 layer_factory.hpp:77] Creating layer loss2/conv
I0403 17:57:28.650475 15621 net.cpp:91] Creating Layer loss2/conv
I0403 17:57:28.650492 15621 net.cpp:425] loss2/conv <- loss2/ave_pool
I0403 17:57:28.650513 15621 net.cpp:399] loss2/conv -> loss2/conv
I0403 17:57:28.652379 15621 net.cpp:141] Setting up loss2/conv
I0403 17:57:28.652410 15621 net.cpp:148] Top shape: 24 128 4 4 (49152)
I0403 17:57:28.652427 15621 net.cpp:156] Memory required for data: 1207926048
I0403 17:57:28.652446 15621 layer_factory.hpp:77] Creating layer loss2/relu_conv
I0403 17:57:28.652464 15621 net.cpp:91] Creating Layer loss2/relu_conv
I0403 17:57:28.652482 15621 net.cpp:425] loss2/relu_conv <- loss2/conv
I0403 17:57:28.652500 15621 net.cpp:386] loss2/relu_conv -> loss2/conv (in-place)
I0403 17:57:28.652781 15621 net.cpp:141] Setting up loss2/relu_conv
I0403 17:57:28.652808 15621 net.cpp:148] Top shape: 24 128 4 4 (49152)
I0403 17:57:28.652824 15621 net.cpp:156] Memory required for data: 1208122656
I0403 17:57:28.652840 15621 layer_factory.hpp:77] Creating layer loss2/fc
I0403 17:57:28.652859 15621 net.cpp:91] Creating Layer loss2/fc
I0403 17:57:28.652876 15621 net.cpp:425] loss2/fc <- loss2/conv
I0403 17:57:28.652896 15621 net.cpp:399] loss2/fc -> loss2/fc
I0403 17:57:28.670168 15621 net.cpp:141] Setting up loss2/fc
I0403 17:57:28.670202 15621 net.cpp:148] Top shape: 24 1024 (24576)
I0403 17:57:28.670217 15621 net.cpp:156] Memory required for data: 1208220960
I0403 17:57:28.670235 15621 layer_factory.hpp:77] Creating layer loss2/relu_fc
I0403 17:57:28.670253 15621 net.cpp:91] Creating Layer loss2/relu_fc
I0403 17:57:28.670269 15621 net.cpp:425] loss2/relu_fc <- loss2/fc
I0403 17:57:28.670286 15621 net.cpp:386] loss2/relu_fc -> loss2/fc (in-place)
I0403 17:57:28.670568 15621 net.cpp:141] Setting up loss2/relu_fc
I0403 17:57:28.670593 15621 net.cpp:148] Top shape: 24 1024 (24576)
I0403 17:57:28.670608 15621 net.cpp:156] Memory required for data: 1208319264
I0403 17:57:28.670624 15621 layer_factory.hpp:77] Creating layer loss2/drop_fc
I0403 17:57:28.670645 15621 net.cpp:91] Creating Layer loss2/drop_fc
I0403 17:57:28.670662 15621 net.cpp:425] loss2/drop_fc <- loss2/fc
I0403 17:57:28.670680 15621 net.cpp:386] loss2/drop_fc -> loss2/fc (in-place)
I0403 17:57:28.670727 15621 net.cpp:141] Setting up loss2/drop_fc
I0403 17:57:28.670749 15621 net.cpp:148] Top shape: 24 1024 (24576)
I0403 17:57:28.670763 15621 net.cpp:156] Memory required for data: 1208417568
I0403 17:57:28.670778 15621 layer_factory.hpp:77] Creating layer loss2/classifier_plantvillage
I0403 17:57:28.670796 15621 net.cpp:91] Creating Layer loss2/classifier_plantvillage
I0403 17:57:28.670814 15621 net.cpp:425] loss2/classifier_plantvillage <- loss2/fc
I0403 17:57:28.670831 15621 net.cpp:399] loss2/classifier_plantvillage -> loss2/classifier_plantvillage
I0403 17:57:28.671223 15621 net.cpp:141] Setting up loss2/classifier_plantvillage
I0403 17:57:28.671247 15621 net.cpp:148] Top shape: 24 38 (912)
I0403 17:57:28.671277 15621 net.cpp:156] Memory required for data: 1208421216
I0403 17:57:28.671295 15621 layer_factory.hpp:77] Creating layer loss2/classifier_plantvillage_loss2/classifier_plantvillage_0_split
I0403 17:57:28.671314 15621 net.cpp:91] Creating Layer loss2/classifier_plantvillage_loss2/classifier_plantvillage_0_split
I0403 17:57:28.671329 15621 net.cpp:425] loss2/classifier_plantvillage_loss2/classifier_plantvillage_0_split <- loss2/classifier_plantvillage
I0403 17:57:28.671349 15621 net.cpp:399] loss2/classifier_plantvillage_loss2/classifier_plantvillage_0_split -> loss2/classifier_plantvillage_loss2/classifier_plantvillage_0_split_0
I0403 17:57:28.671370 15621 net.cpp:399] loss2/classifier_plantvillage_loss2/classifier_plantvillage_0_split -> loss2/classifier_plantvillage_loss2/classifier_plantvillage_0_split_1
I0403 17:57:28.671389 15621 net.cpp:399] loss2/classifier_plantvillage_loss2/classifier_plantvillage_0_split -> loss2/classifier_plantvillage_loss2/classifier_plantvillage_0_split_2
I0403 17:57:28.671463 15621 net.cpp:141] Setting up loss2/classifier_plantvillage_loss2/classifier_plantvillage_0_split
I0403 17:57:28.671489 15621 net.cpp:148] Top shape: 24 38 (912)
I0403 17:57:28.671505 15621 net.cpp:148] Top shape: 24 38 (912)
I0403 17:57:28.671520 15621 net.cpp:148] Top shape: 24 38 (912)
I0403 17:57:28.671535 15621 net.cpp:156] Memory required for data: 1208432160
I0403 17:57:28.671550 15621 layer_factory.hpp:77] Creating layer inception_4e/1x1
I0403 17:57:28.671571 15621 net.cpp:91] Creating Layer inception_4e/1x1
I0403 17:57:28.671589 15621 net.cpp:425] inception_4e/1x1 <- inception_4d/output_inception_4d/output_0_split_1
I0403 17:57:28.671607 15621 net.cpp:399] inception_4e/1x1 -> inception_4e/1x1
I0403 17:57:28.673382 15621 net.cpp:141] Setting up inception_4e/1x1
I0403 17:57:28.673410 15621 net.cpp:148] Top shape: 24 256 14 14 (1204224)
I0403 17:57:28.673427 15621 net.cpp:156] Memory required for data: 1213249056
I0403 17:57:28.673445 15621 layer_factory.hpp:77] Creating layer inception_4e/relu_1x1
I0403 17:57:28.673463 15621 net.cpp:91] Creating Layer inception_4e/relu_1x1
I0403 17:57:28.673478 15621 net.cpp:425] inception_4e/relu_1x1 <- inception_4e/1x1
I0403 17:57:28.673497 15621 net.cpp:386] inception_4e/relu_1x1 -> inception_4e/1x1 (in-place)
I0403 17:57:28.673779 15621 net.cpp:141] Setting up inception_4e/relu_1x1
I0403 17:57:28.673806 15621 net.cpp:148] Top shape: 24 256 14 14 (1204224)
I0403 17:57:28.673822 15621 net.cpp:156] Memory required for data: 1218065952
I0403 17:57:28.673837 15621 layer_factory.hpp:77] Creating layer inception_4e/3x3_reduce
I0403 17:57:28.673859 15621 net.cpp:91] Creating Layer inception_4e/3x3_reduce
I0403 17:57:28.673877 15621 net.cpp:425] inception_4e/3x3_reduce <- inception_4d/output_inception_4d/output_0_split_2
I0403 17:57:28.673895 15621 net.cpp:399] inception_4e/3x3_reduce -> inception_4e/3x3_reduce
I0403 17:57:28.675931 15621 net.cpp:141] Setting up inception_4e/3x3_reduce
I0403 17:57:28.675961 15621 net.cpp:148] Top shape: 24 160 14 14 (752640)
I0403 17:57:28.675981 15621 net.cpp:156] Memory required for data: 1221076512
I0403 17:57:28.675999 15621 layer_factory.hpp:77] Creating layer inception_4e/relu_3x3_reduce
I0403 17:57:28.676018 15621 net.cpp:91] Creating Layer inception_4e/relu_3x3_reduce
I0403 17:57:28.676034 15621 net.cpp:425] inception_4e/relu_3x3_reduce <- inception_4e/3x3_reduce
I0403 17:57:28.676051 15621 net.cpp:386] inception_4e/relu_3x3_reduce -> inception_4e/3x3_reduce (in-place)
I0403 17:57:28.676230 15621 net.cpp:141] Setting up inception_4e/relu_3x3_reduce
I0403 17:57:28.676254 15621 net.cpp:148] Top shape: 24 160 14 14 (752640)
I0403 17:57:28.676270 15621 net.cpp:156] Memory required for data: 1224087072
I0403 17:57:28.676283 15621 layer_factory.hpp:77] Creating layer inception_4e/3x3
I0403 17:57:28.676306 15621 net.cpp:91] Creating Layer inception_4e/3x3
I0403 17:57:28.676322 15621 net.cpp:425] inception_4e/3x3 <- inception_4e/3x3_reduce
I0403 17:57:28.676344 15621 net.cpp:399] inception_4e/3x3 -> inception_4e/3x3
I0403 17:57:28.681185 15621 net.cpp:141] Setting up inception_4e/3x3
I0403 17:57:28.681226 15621 net.cpp:148] Top shape: 24 320 14 14 (1505280)
I0403 17:57:28.681242 15621 net.cpp:156] Memory required for data: 1230108192
I0403 17:57:28.681260 15621 layer_factory.hpp:77] Creating layer inception_4e/relu_3x3
I0403 17:57:28.681280 15621 net.cpp:91] Creating Layer inception_4e/relu_3x3
I0403 17:57:28.681298 15621 net.cpp:425] inception_4e/relu_3x3 <- inception_4e/3x3
I0403 17:57:28.681314 15621 net.cpp:386] inception_4e/relu_3x3 -> inception_4e/3x3 (in-place)
I0403 17:57:28.681604 15621 net.cpp:141] Setting up inception_4e/relu_3x3
I0403 17:57:28.681629 15621 net.cpp:148] Top shape: 24 320 14 14 (1505280)
I0403 17:57:28.681645 15621 net.cpp:156] Memory required for data: 1236129312
I0403 17:57:28.681660 15621 layer_factory.hpp:77] Creating layer inception_4e/5x5_reduce
I0403 17:57:28.681682 15621 net.cpp:91] Creating Layer inception_4e/5x5_reduce
I0403 17:57:28.681700 15621 net.cpp:425] inception_4e/5x5_reduce <- inception_4d/output_inception_4d/output_0_split_3
I0403 17:57:28.681720 15621 net.cpp:399] inception_4e/5x5_reduce -> inception_4e/5x5_reduce
I0403 17:57:28.682735 15621 net.cpp:141] Setting up inception_4e/5x5_reduce
I0403 17:57:28.682765 15621 net.cpp:148] Top shape: 24 32 14 14 (150528)
I0403 17:57:28.682780 15621 net.cpp:156] Memory required for data: 1236731424
I0403 17:57:28.682798 15621 layer_factory.hpp:77] Creating layer inception_4e/relu_5x5_reduce
I0403 17:57:28.682816 15621 net.cpp:91] Creating Layer inception_4e/relu_5x5_reduce
I0403 17:57:28.682832 15621 net.cpp:425] inception_4e/relu_5x5_reduce <- inception_4e/5x5_reduce
I0403 17:57:28.682852 15621 net.cpp:386] inception_4e/relu_5x5_reduce -> inception_4e/5x5_reduce (in-place)
I0403 17:57:28.683136 15621 net.cpp:141] Setting up inception_4e/relu_5x5_reduce
I0403 17:57:28.683164 15621 net.cpp:148] Top shape: 24 32 14 14 (150528)
I0403 17:57:28.683182 15621 net.cpp:156] Memory required for data: 1237333536
I0403 17:57:28.683197 15621 layer_factory.hpp:77] Creating layer inception_4e/5x5
I0403 17:57:28.683234 15621 net.cpp:91] Creating Layer inception_4e/5x5
I0403 17:57:28.683254 15621 net.cpp:425] inception_4e/5x5 <- inception_4e/5x5_reduce
I0403 17:57:28.683272 15621 net.cpp:399] inception_4e/5x5 -> inception_4e/5x5
I0403 17:57:28.685047 15621 net.cpp:141] Setting up inception_4e/5x5
I0403 17:57:28.685075 15621 net.cpp:148] Top shape: 24 128 14 14 (602112)
I0403 17:57:28.685089 15621 net.cpp:156] Memory required for data: 1239741984
I0403 17:57:28.685108 15621 layer_factory.hpp:77] Creating layer inception_4e/relu_5x5
I0403 17:57:28.685129 15621 net.cpp:91] Creating Layer inception_4e/relu_5x5
I0403 17:57:28.685145 15621 net.cpp:425] inception_4e/relu_5x5 <- inception_4e/5x5
I0403 17:57:28.685163 15621 net.cpp:386] inception_4e/relu_5x5 -> inception_4e/5x5 (in-place)
I0403 17:57:28.685349 15621 net.cpp:141] Setting up inception_4e/relu_5x5
I0403 17:57:28.685374 15621 net.cpp:148] Top shape: 24 128 14 14 (602112)
I0403 17:57:28.685389 15621 net.cpp:156] Memory required for data: 1242150432
I0403 17:57:28.685405 15621 layer_factory.hpp:77] Creating layer inception_4e/pool
I0403 17:57:28.685422 15621 net.cpp:91] Creating Layer inception_4e/pool
I0403 17:57:28.685438 15621 net.cpp:425] inception_4e/pool <- inception_4d/output_inception_4d/output_0_split_4
I0403 17:57:28.685458 15621 net.cpp:399] inception_4e/pool -> inception_4e/pool
I0403 17:57:28.685525 15621 net.cpp:141] Setting up inception_4e/pool
I0403 17:57:28.685549 15621 net.cpp:148] Top shape: 24 528 14 14 (2483712)
I0403 17:57:28.685564 15621 net.cpp:156] Memory required for data: 1252085280
I0403 17:57:28.685578 15621 layer_factory.hpp:77] Creating layer inception_4e/pool_proj
I0403 17:57:28.685602 15621 net.cpp:91] Creating Layer inception_4e/pool_proj
I0403 17:57:28.685621 15621 net.cpp:425] inception_4e/pool_proj <- inception_4e/pool
I0403 17:57:28.685638 15621 net.cpp:399] inception_4e/pool_proj -> inception_4e/pool_proj
I0403 17:57:28.687091 15621 net.cpp:141] Setting up inception_4e/pool_proj
I0403 17:57:28.687130 15621 net.cpp:148] Top shape: 24 128 14 14 (602112)
I0403 17:57:28.687147 15621 net.cpp:156] Memory required for data: 1254493728
I0403 17:57:28.687166 15621 layer_factory.hpp:77] Creating layer inception_4e/relu_pool_proj
I0403 17:57:28.687187 15621 net.cpp:91] Creating Layer inception_4e/relu_pool_proj
I0403 17:57:28.687204 15621 net.cpp:425] inception_4e/relu_pool_proj <- inception_4e/pool_proj
I0403 17:57:28.687222 15621 net.cpp:386] inception_4e/relu_pool_proj -> inception_4e/pool_proj (in-place)
I0403 17:57:28.687513 15621 net.cpp:141] Setting up inception_4e/relu_pool_proj
I0403 17:57:28.687539 15621 net.cpp:148] Top shape: 24 128 14 14 (602112)
I0403 17:57:28.687553 15621 net.cpp:156] Memory required for data: 1256902176
I0403 17:57:28.687568 15621 layer_factory.hpp:77] Creating layer inception_4e/output
I0403 17:57:28.687587 15621 net.cpp:91] Creating Layer inception_4e/output
I0403 17:57:28.687604 15621 net.cpp:425] inception_4e/output <- inception_4e/1x1
I0403 17:57:28.687620 15621 net.cpp:425] inception_4e/output <- inception_4e/3x3
I0403 17:57:28.687638 15621 net.cpp:425] inception_4e/output <- inception_4e/5x5
I0403 17:57:28.687652 15621 net.cpp:425] inception_4e/output <- inception_4e/pool_proj
I0403 17:57:28.687669 15621 net.cpp:399] inception_4e/output -> inception_4e/output
I0403 17:57:28.687717 15621 net.cpp:141] Setting up inception_4e/output
I0403 17:57:28.687741 15621 net.cpp:148] Top shape: 24 832 14 14 (3913728)
I0403 17:57:28.687755 15621 net.cpp:156] Memory required for data: 1272557088
I0403 17:57:28.687770 15621 layer_factory.hpp:77] Creating layer pool4/3x3_s2
I0403 17:57:28.687788 15621 net.cpp:91] Creating Layer pool4/3x3_s2
I0403 17:57:28.687803 15621 net.cpp:425] pool4/3x3_s2 <- inception_4e/output
I0403 17:57:28.687822 15621 net.cpp:399] pool4/3x3_s2 -> pool4/3x3_s2
I0403 17:57:28.687888 15621 net.cpp:141] Setting up pool4/3x3_s2
I0403 17:57:28.687912 15621 net.cpp:148] Top shape: 24 832 7 7 (978432)
I0403 17:57:28.687927 15621 net.cpp:156] Memory required for data: 1276470816
I0403 17:57:28.687942 15621 layer_factory.hpp:77] Creating layer pool4/3x3_s2_pool4/3x3_s2_0_split
I0403 17:57:28.687960 15621 net.cpp:91] Creating Layer pool4/3x3_s2_pool4/3x3_s2_0_split
I0403 17:57:28.687981 15621 net.cpp:425] pool4/3x3_s2_pool4/3x3_s2_0_split <- pool4/3x3_s2
I0403 17:57:28.688002 15621 net.cpp:399] pool4/3x3_s2_pool4/3x3_s2_0_split -> pool4/3x3_s2_pool4/3x3_s2_0_split_0
I0403 17:57:28.688024 15621 net.cpp:399] pool4/3x3_s2_pool4/3x3_s2_0_split -> pool4/3x3_s2_pool4/3x3_s2_0_split_1
I0403 17:57:28.688043 15621 net.cpp:399] pool4/3x3_s2_pool4/3x3_s2_0_split -> pool4/3x3_s2_pool4/3x3_s2_0_split_2
I0403 17:57:28.688062 15621 net.cpp:399] pool4/3x3_s2_pool4/3x3_s2_0_split -> pool4/3x3_s2_pool4/3x3_s2_0_split_3
I0403 17:57:28.688146 15621 net.cpp:141] Setting up pool4/3x3_s2_pool4/3x3_s2_0_split
I0403 17:57:28.688169 15621 net.cpp:148] Top shape: 24 832 7 7 (978432)
I0403 17:57:28.688186 15621 net.cpp:148] Top shape: 24 832 7 7 (978432)
I0403 17:57:28.688201 15621 net.cpp:148] Top shape: 24 832 7 7 (978432)
I0403 17:57:28.688217 15621 net.cpp:148] Top shape: 24 832 7 7 (978432)
I0403 17:57:28.688230 15621 net.cpp:156] Memory required for data: 1292125728
I0403 17:57:28.688244 15621 layer_factory.hpp:77] Creating layer inception_5a/1x1
I0403 17:57:28.688266 15621 net.cpp:91] Creating Layer inception_5a/1x1
I0403 17:57:28.688284 15621 net.cpp:425] inception_5a/1x1 <- pool4/3x3_s2_pool4/3x3_s2_0_split_0
I0403 17:57:28.688305 15621 net.cpp:399] inception_5a/1x1 -> inception_5a/1x1
I0403 17:57:28.691097 15621 net.cpp:141] Setting up inception_5a/1x1
I0403 17:57:28.691128 15621 net.cpp:148] Top shape: 24 256 7 7 (301056)
I0403 17:57:28.691144 15621 net.cpp:156] Memory required for data: 1293329952
I0403 17:57:28.691162 15621 layer_factory.hpp:77] Creating layer inception_5a/relu_1x1
I0403 17:57:28.691181 15621 net.cpp:91] Creating Layer inception_5a/relu_1x1
I0403 17:57:28.691197 15621 net.cpp:425] inception_5a/relu_1x1 <- inception_5a/1x1
I0403 17:57:28.691215 15621 net.cpp:386] inception_5a/relu_1x1 -> inception_5a/1x1 (in-place)
I0403 17:57:28.691511 15621 net.cpp:141] Setting up inception_5a/relu_1x1
I0403 17:57:28.691540 15621 net.cpp:148] Top shape: 24 256 7 7 (301056)
I0403 17:57:28.691555 15621 net.cpp:156] Memory required for data: 1294534176
I0403 17:57:28.691570 15621 layer_factory.hpp:77] Creating layer inception_5a/3x3_reduce
I0403 17:57:28.691592 15621 net.cpp:91] Creating Layer inception_5a/3x3_reduce
I0403 17:57:28.691611 15621 net.cpp:425] inception_5a/3x3_reduce <- pool4/3x3_s2_pool4/3x3_s2_0_split_1
I0403 17:57:28.691629 15621 net.cpp:399] inception_5a/3x3_reduce -> inception_5a/3x3_reduce
I0403 17:57:28.694111 15621 net.cpp:141] Setting up inception_5a/3x3_reduce
I0403 17:57:28.694142 15621 net.cpp:148] Top shape: 24 160 7 7 (188160)
I0403 17:57:28.694159 15621 net.cpp:156] Memory required for data: 1295286816
I0403 17:57:28.694178 15621 layer_factory.hpp:77] Creating layer inception_5a/relu_3x3_reduce
I0403 17:57:28.694198 15621 net.cpp:91] Creating Layer inception_5a/relu_3x3_reduce
I0403 17:57:28.694216 15621 net.cpp:425] inception_5a/relu_3x3_reduce <- inception_5a/3x3_reduce
I0403 17:57:28.694233 15621 net.cpp:386] inception_5a/relu_3x3_reduce -> inception_5a/3x3_reduce (in-place)
I0403 17:57:28.694417 15621 net.cpp:141] Setting up inception_5a/relu_3x3_reduce
I0403 17:57:28.694444 15621 net.cpp:148] Top shape: 24 160 7 7 (188160)
I0403 17:57:28.694460 15621 net.cpp:156] Memory required for data: 1296039456
I0403 17:57:28.694475 15621 layer_factory.hpp:77] Creating layer inception_5a/3x3
I0403 17:57:28.694495 15621 net.cpp:91] Creating Layer inception_5a/3x3
I0403 17:57:28.694514 15621 net.cpp:425] inception_5a/3x3 <- inception_5a/3x3_reduce
I0403 17:57:28.694535 15621 net.cpp:399] inception_5a/3x3 -> inception_5a/3x3
I0403 17:57:28.699540 15621 net.cpp:141] Setting up inception_5a/3x3
I0403 17:57:28.699568 15621 net.cpp:148] Top shape: 24 320 7 7 (376320)
I0403 17:57:28.699584 15621 net.cpp:156] Memory required for data: 1297544736
I0403 17:57:28.699601 15621 layer_factory.hpp:77] Creating layer inception_5a/relu_3x3
I0403 17:57:28.699623 15621 net.cpp:91] Creating Layer inception_5a/relu_3x3
I0403 17:57:28.699640 15621 net.cpp:425] inception_5a/relu_3x3 <- inception_5a/3x3
I0403 17:57:28.699657 15621 net.cpp:386] inception_5a/relu_3x3 -> inception_5a/3x3 (in-place)
I0403 17:57:28.699937 15621 net.cpp:141] Setting up inception_5a/relu_3x3
I0403 17:57:28.699964 15621 net.cpp:148] Top shape: 24 320 7 7 (376320)
I0403 17:57:28.699981 15621 net.cpp:156] Memory required for data: 1299050016
I0403 17:57:28.699998 15621 layer_factory.hpp:77] Creating layer inception_5a/5x5_reduce
I0403 17:57:28.700022 15621 net.cpp:91] Creating Layer inception_5a/5x5_reduce
I0403 17:57:28.700042 15621 net.cpp:425] inception_5a/5x5_reduce <- pool4/3x3_s2_pool4/3x3_s2_0_split_2
I0403 17:57:28.700060 15621 net.cpp:399] inception_5a/5x5_reduce -> inception_5a/5x5_reduce
I0403 17:57:28.701220 15621 net.cpp:141] Setting up inception_5a/5x5_reduce
I0403 17:57:28.701252 15621 net.cpp:148] Top shape: 24 32 7 7 (37632)
I0403 17:57:28.701269 15621 net.cpp:156] Memory required for data: 1299200544
I0403 17:57:28.701289 15621 layer_factory.hpp:77] Creating layer inception_5a/relu_5x5_reduce
I0403 17:57:28.701308 15621 net.cpp:91] Creating Layer inception_5a/relu_5x5_reduce
I0403 17:57:28.701333 15621 net.cpp:425] inception_5a/relu_5x5_reduce <- inception_5a/5x5_reduce
I0403 17:57:28.701351 15621 net.cpp:386] inception_5a/relu_5x5_reduce -> inception_5a/5x5_reduce (in-place)
I0403 17:57:28.701678 15621 net.cpp:141] Setting up inception_5a/relu_5x5_reduce
I0403 17:57:28.701707 15621 net.cpp:148] Top shape: 24 32 7 7 (37632)
I0403 17:57:28.701725 15621 net.cpp:156] Memory required for data: 1299351072
I0403 17:57:28.701740 15621 layer_factory.hpp:77] Creating layer inception_5a/5x5
I0403 17:57:28.701766 15621 net.cpp:91] Creating Layer inception_5a/5x5
I0403 17:57:28.701784 15621 net.cpp:425] inception_5a/5x5 <- inception_5a/5x5_reduce
I0403 17:57:28.701807 15621 net.cpp:399] inception_5a/5x5 -> inception_5a/5x5
I0403 17:57:28.703536 15621 net.cpp:141] Setting up inception_5a/5x5
I0403 17:57:28.703577 15621 net.cpp:148] Top shape: 24 128 7 7 (150528)
I0403 17:57:28.703593 15621 net.cpp:156] Memory required for data: 1299953184
I0403 17:57:28.703611 15621 layer_factory.hpp:77] Creating layer inception_5a/relu_5x5
I0403 17:57:28.703632 15621 net.cpp:91] Creating Layer inception_5a/relu_5x5
I0403 17:57:28.703649 15621 net.cpp:425] inception_5a/relu_5x5 <- inception_5a/5x5
I0403 17:57:28.703667 15621 net.cpp:386] inception_5a/relu_5x5 -> inception_5a/5x5 (in-place)
I0403 17:57:28.703855 15621 net.cpp:141] Setting up inception_5a/relu_5x5
I0403 17:57:28.703881 15621 net.cpp:148] Top shape: 24 128 7 7 (150528)
I0403 17:57:28.703896 15621 net.cpp:156] Memory required for data: 1300555296
I0403 17:57:28.703910 15621 layer_factory.hpp:77] Creating layer inception_5a/pool
I0403 17:57:28.703927 15621 net.cpp:91] Creating Layer inception_5a/pool
I0403 17:57:28.703943 15621 net.cpp:425] inception_5a/pool <- pool4/3x3_s2_pool4/3x3_s2_0_split_3
I0403 17:57:28.703964 15621 net.cpp:399] inception_5a/pool -> inception_5a/pool
I0403 17:57:28.704038 15621 net.cpp:141] Setting up inception_5a/pool
I0403 17:57:28.704062 15621 net.cpp:148] Top shape: 24 832 7 7 (978432)
I0403 17:57:28.704077 15621 net.cpp:156] Memory required for data: 1304469024
I0403 17:57:28.704092 15621 layer_factory.hpp:77] Creating layer inception_5a/pool_proj
I0403 17:57:28.704116 15621 net.cpp:91] Creating Layer inception_5a/pool_proj
I0403 17:57:28.704134 15621 net.cpp:425] inception_5a/pool_proj <- inception_5a/pool
I0403 17:57:28.704154 15621 net.cpp:399] inception_5a/pool_proj -> inception_5a/pool_proj
I0403 17:57:28.706409 15621 net.cpp:141] Setting up inception_5a/pool_proj
I0403 17:57:28.706439 15621 net.cpp:148] Top shape: 24 128 7 7 (150528)
I0403 17:57:28.706454 15621 net.cpp:156] Memory required for data: 1305071136
I0403 17:57:28.706473 15621 layer_factory.hpp:77] Creating layer inception_5a/relu_pool_proj
I0403 17:57:28.706495 15621 net.cpp:91] Creating Layer inception_5a/relu_pool_proj
I0403 17:57:28.706511 15621 net.cpp:425] inception_5a/relu_pool_proj <- inception_5a/pool_proj
I0403 17:57:28.706529 15621 net.cpp:386] inception_5a/relu_pool_proj -> inception_5a/pool_proj (in-place)
I0403 17:57:28.706820 15621 net.cpp:141] Setting up inception_5a/relu_pool_proj
I0403 17:57:28.706846 15621 net.cpp:148] Top shape: 24 128 7 7 (150528)
I0403 17:57:28.706861 15621 net.cpp:156] Memory required for data: 1305673248
I0403 17:57:28.706876 15621 layer_factory.hpp:77] Creating layer inception_5a/output
I0403 17:57:28.706897 15621 net.cpp:91] Creating Layer inception_5a/output
I0403 17:57:28.706913 15621 net.cpp:425] inception_5a/output <- inception_5a/1x1
I0403 17:57:28.706930 15621 net.cpp:425] inception_5a/output <- inception_5a/3x3
I0403 17:57:28.706946 15621 net.cpp:425] inception_5a/output <- inception_5a/5x5
I0403 17:57:28.706962 15621 net.cpp:425] inception_5a/output <- inception_5a/pool_proj
I0403 17:57:28.706982 15621 net.cpp:399] inception_5a/output -> inception_5a/output
I0403 17:57:28.707036 15621 net.cpp:141] Setting up inception_5a/output
I0403 17:57:28.707058 15621 net.cpp:148] Top shape: 24 832 7 7 (978432)
I0403 17:57:28.707073 15621 net.cpp:156] Memory required for data: 1309586976
I0403 17:57:28.707088 15621 layer_factory.hpp:77] Creating layer inception_5a/output_inception_5a/output_0_split
I0403 17:57:28.707105 15621 net.cpp:91] Creating Layer inception_5a/output_inception_5a/output_0_split
I0403 17:57:28.707121 15621 net.cpp:425] inception_5a/output_inception_5a/output_0_split <- inception_5a/output
I0403 17:57:28.707141 15621 net.cpp:399] inception_5a/output_inception_5a/output_0_split -> inception_5a/output_inception_5a/output_0_split_0
I0403 17:57:28.707164 15621 net.cpp:399] inception_5a/output_inception_5a/output_0_split -> inception_5a/output_inception_5a/output_0_split_1
I0403 17:57:28.707183 15621 net.cpp:399] inception_5a/output_inception_5a/output_0_split -> inception_5a/output_inception_5a/output_0_split_2
I0403 17:57:28.707203 15621 net.cpp:399] inception_5a/output_inception_5a/output_0_split -> inception_5a/output_inception_5a/output_0_split_3
I0403 17:57:28.707311 15621 net.cpp:141] Setting up inception_5a/output_inception_5a/output_0_split
I0403 17:57:28.707339 15621 net.cpp:148] Top shape: 24 832 7 7 (978432)
I0403 17:57:28.707355 15621 net.cpp:148] Top shape: 24 832 7 7 (978432)
I0403 17:57:28.707371 15621 net.cpp:148] Top shape: 24 832 7 7 (978432)
I0403 17:57:28.707386 15621 net.cpp:148] Top shape: 24 832 7 7 (978432)
I0403 17:57:28.707401 15621 net.cpp:156] Memory required for data: 1325241888
I0403 17:57:28.707415 15621 layer_factory.hpp:77] Creating layer inception_5b/1x1
I0403 17:57:28.707437 15621 net.cpp:91] Creating Layer inception_5b/1x1
I0403 17:57:28.707455 15621 net.cpp:425] inception_5b/1x1 <- inception_5a/output_inception_5a/output_0_split_0
I0403 17:57:28.707474 15621 net.cpp:399] inception_5b/1x1 -> inception_5b/1x1
I0403 17:57:28.711237 15621 net.cpp:141] Setting up inception_5b/1x1
I0403 17:57:28.711267 15621 net.cpp:148] Top shape: 24 384 7 7 (451584)
I0403 17:57:28.711284 15621 net.cpp:156] Memory required for data: 1327048224
I0403 17:57:28.711302 15621 layer_factory.hpp:77] Creating layer inception_5b/relu_1x1
I0403 17:57:28.711323 15621 net.cpp:91] Creating Layer inception_5b/relu_1x1
I0403 17:57:28.711340 15621 net.cpp:425] inception_5b/relu_1x1 <- inception_5b/1x1
I0403 17:57:28.711359 15621 net.cpp:386] inception_5b/relu_1x1 -> inception_5b/1x1 (in-place)
I0403 17:57:28.711663 15621 net.cpp:141] Setting up inception_5b/relu_1x1
I0403 17:57:28.711688 15621 net.cpp:148] Top shape: 24 384 7 7 (451584)
I0403 17:57:28.711704 15621 net.cpp:156] Memory required for data: 1328854560
I0403 17:57:28.711719 15621 layer_factory.hpp:77] Creating layer inception_5b/3x3_reduce
I0403 17:57:28.711742 15621 net.cpp:91] Creating Layer inception_5b/3x3_reduce
I0403 17:57:28.711761 15621 net.cpp:425] inception_5b/3x3_reduce <- inception_5a/output_inception_5a/output_0_split_1
I0403 17:57:28.711783 15621 net.cpp:399] inception_5b/3x3_reduce -> inception_5b/3x3_reduce
I0403 17:57:28.714426 15621 net.cpp:141] Setting up inception_5b/3x3_reduce
I0403 17:57:28.714455 15621 net.cpp:148] Top shape: 24 192 7 7 (225792)
I0403 17:57:28.714471 15621 net.cpp:156] Memory required for data: 1329757728
I0403 17:57:28.714490 15621 layer_factory.hpp:77] Creating layer inception_5b/relu_3x3_reduce
I0403 17:57:28.714510 15621 net.cpp:91] Creating Layer inception_5b/relu_3x3_reduce
I0403 17:57:28.714527 15621 net.cpp:425] inception_5b/relu_3x3_reduce <- inception_5b/3x3_reduce
I0403 17:57:28.714545 15621 net.cpp:386] inception_5b/relu_3x3_reduce -> inception_5b/3x3_reduce (in-place)
I0403 17:57:28.714732 15621 net.cpp:141] Setting up inception_5b/relu_3x3_reduce
I0403 17:57:28.714759 15621 net.cpp:148] Top shape: 24 192 7 7 (225792)
I0403 17:57:28.714776 15621 net.cpp:156] Memory required for data: 1330660896
I0403 17:57:28.714790 15621 layer_factory.hpp:77] Creating layer inception_5b/3x3
I0403 17:57:28.714813 15621 net.cpp:91] Creating Layer inception_5b/3x3
I0403 17:57:28.714831 15621 net.cpp:425] inception_5b/3x3 <- inception_5b/3x3_reduce
I0403 17:57:28.714850 15621 net.cpp:399] inception_5b/3x3 -> inception_5b/3x3
I0403 17:57:28.721529 15621 net.cpp:141] Setting up inception_5b/3x3
I0403 17:57:28.721557 15621 net.cpp:148] Top shape: 24 384 7 7 (451584)
I0403 17:57:28.721572 15621 net.cpp:156] Memory required for data: 1332467232
I0403 17:57:28.721590 15621 layer_factory.hpp:77] Creating layer inception_5b/relu_3x3
I0403 17:57:28.721611 15621 net.cpp:91] Creating Layer inception_5b/relu_3x3
I0403 17:57:28.721627 15621 net.cpp:425] inception_5b/relu_3x3 <- inception_5b/3x3
I0403 17:57:28.721644 15621 net.cpp:386] inception_5b/relu_3x3 -> inception_5b/3x3 (in-place)
I0403 17:57:28.721930 15621 net.cpp:141] Setting up inception_5b/relu_3x3
I0403 17:57:28.721956 15621 net.cpp:148] Top shape: 24 384 7 7 (451584)
I0403 17:57:28.721971 15621 net.cpp:156] Memory required for data: 1334273568
I0403 17:57:28.721989 15621 layer_factory.hpp:77] Creating layer inception_5b/5x5_reduce
I0403 17:57:28.722029 15621 net.cpp:91] Creating Layer inception_5b/5x5_reduce
I0403 17:57:28.722048 15621 net.cpp:425] inception_5b/5x5_reduce <- inception_5a/output_inception_5a/output_0_split_2
I0403 17:57:28.722069 15621 net.cpp:399] inception_5b/5x5_reduce -> inception_5b/5x5_reduce
I0403 17:57:28.723304 15621 net.cpp:141] Setting up inception_5b/5x5_reduce
I0403 17:57:28.723332 15621 net.cpp:148] Top shape: 24 48 7 7 (56448)
I0403 17:57:28.723348 15621 net.cpp:156] Memory required for data: 1334499360
I0403 17:57:28.723366 15621 layer_factory.hpp:77] Creating layer inception_5b/relu_5x5_reduce
I0403 17:57:28.723387 15621 net.cpp:91] Creating Layer inception_5b/relu_5x5_reduce
I0403 17:57:28.723405 15621 net.cpp:425] inception_5b/relu_5x5_reduce <- inception_5b/5x5_reduce
I0403 17:57:28.723435 15621 net.cpp:386] inception_5b/relu_5x5_reduce -> inception_5b/5x5_reduce (in-place)
I0403 17:57:28.723798 15621 net.cpp:141] Setting up inception_5b/relu_5x5_reduce
I0403 17:57:28.723824 15621 net.cpp:148] Top shape: 24 48 7 7 (56448)
I0403 17:57:28.723839 15621 net.cpp:156] Memory required for data: 1334725152
I0403 17:57:28.723852 15621 layer_factory.hpp:77] Creating layer inception_5b/5x5
I0403 17:57:28.723872 15621 net.cpp:91] Creating Layer inception_5b/5x5
I0403 17:57:28.723891 15621 net.cpp:425] inception_5b/5x5 <- inception_5b/5x5_reduce
I0403 17:57:28.723908 15621 net.cpp:399] inception_5b/5x5 -> inception_5b/5x5
I0403 17:57:28.725893 15621 net.cpp:141] Setting up inception_5b/5x5
I0403 17:57:28.725922 15621 net.cpp:148] Top shape: 24 128 7 7 (150528)
I0403 17:57:28.725939 15621 net.cpp:156] Memory required for data: 1335327264
I0403 17:57:28.725956 15621 layer_factory.hpp:77] Creating layer inception_5b/relu_5x5
I0403 17:57:28.725975 15621 net.cpp:91] Creating Layer inception_5b/relu_5x5
I0403 17:57:28.725996 15621 net.cpp:425] inception_5b/relu_5x5 <- inception_5b/5x5
I0403 17:57:28.726013 15621 net.cpp:386] inception_5b/relu_5x5 -> inception_5b/5x5 (in-place)
I0403 17:57:28.726199 15621 net.cpp:141] Setting up inception_5b/relu_5x5
I0403 17:57:28.726225 15621 net.cpp:148] Top shape: 24 128 7 7 (150528)
I0403 17:57:28.726241 15621 net.cpp:156] Memory required for data: 1335929376
I0403 17:57:28.726255 15621 layer_factory.hpp:77] Creating layer inception_5b/pool
I0403 17:57:28.726274 15621 net.cpp:91] Creating Layer inception_5b/pool
I0403 17:57:28.726289 15621 net.cpp:425] inception_5b/pool <- inception_5a/output_inception_5a/output_0_split_3
I0403 17:57:28.726310 15621 net.cpp:399] inception_5b/pool -> inception_5b/pool
I0403 17:57:28.726379 15621 net.cpp:141] Setting up inception_5b/pool
I0403 17:57:28.726405 15621 net.cpp:148] Top shape: 24 832 7 7 (978432)
I0403 17:57:28.726421 15621 net.cpp:156] Memory required for data: 1339843104
I0403 17:57:28.726436 15621 layer_factory.hpp:77] Creating layer inception_5b/pool_proj
I0403 17:57:28.726457 15621 net.cpp:91] Creating Layer inception_5b/pool_proj
I0403 17:57:28.726475 15621 net.cpp:425] inception_5b/pool_proj <- inception_5b/pool
I0403 17:57:28.726493 15621 net.cpp:399] inception_5b/pool_proj -> inception_5b/pool_proj
I0403 17:57:28.728720 15621 net.cpp:141] Setting up inception_5b/pool_proj
I0403 17:57:28.728749 15621 net.cpp:148] Top shape: 24 128 7 7 (150528)
I0403 17:57:28.728765 15621 net.cpp:156] Memory required for data: 1340445216
I0403 17:57:28.728783 15621 layer_factory.hpp:77] Creating layer inception_5b/relu_pool_proj
I0403 17:57:28.728803 15621 net.cpp:91] Creating Layer inception_5b/relu_pool_proj
I0403 17:57:28.728821 15621 net.cpp:425] inception_5b/relu_pool_proj <- inception_5b/pool_proj
I0403 17:57:28.728838 15621 net.cpp:386] inception_5b/relu_pool_proj -> inception_5b/pool_proj (in-place)
I0403 17:57:28.729137 15621 net.cpp:141] Setting up inception_5b/relu_pool_proj
I0403 17:57:28.729162 15621 net.cpp:148] Top shape: 24 128 7 7 (150528)
I0403 17:57:28.729178 15621 net.cpp:156] Memory required for data: 1341047328
I0403 17:57:28.729193 15621 layer_factory.hpp:77] Creating layer inception_5b/output
I0403 17:57:28.729212 15621 net.cpp:91] Creating Layer inception_5b/output
I0403 17:57:28.729243 15621 net.cpp:425] inception_5b/output <- inception_5b/1x1
I0403 17:57:28.729260 15621 net.cpp:425] inception_5b/output <- inception_5b/3x3
I0403 17:57:28.729276 15621 net.cpp:425] inception_5b/output <- inception_5b/5x5
I0403 17:57:28.729292 15621 net.cpp:425] inception_5b/output <- inception_5b/pool_proj
I0403 17:57:28.729310 15621 net.cpp:399] inception_5b/output -> inception_5b/output
I0403 17:57:28.729362 15621 net.cpp:141] Setting up inception_5b/output
I0403 17:57:28.729387 15621 net.cpp:148] Top shape: 24 1024 7 7 (1204224)
I0403 17:57:28.729400 15621 net.cpp:156] Memory required for data: 1345864224
I0403 17:57:28.729414 15621 layer_factory.hpp:77] Creating layer pool5/7x7_s1
I0403 17:57:28.729432 15621 net.cpp:91] Creating Layer pool5/7x7_s1
I0403 17:57:28.729449 15621 net.cpp:425] pool5/7x7_s1 <- inception_5b/output
I0403 17:57:28.729468 15621 net.cpp:399] pool5/7x7_s1 -> pool5/7x7_s1
I0403 17:57:28.729674 15621 net.cpp:141] Setting up pool5/7x7_s1
I0403 17:57:28.729699 15621 net.cpp:148] Top shape: 24 1024 1 1 (24576)
I0403 17:57:28.729713 15621 net.cpp:156] Memory required for data: 1345962528
I0403 17:57:28.729727 15621 layer_factory.hpp:77] Creating layer pool5/drop_7x7_s1
I0403 17:57:28.729748 15621 net.cpp:91] Creating Layer pool5/drop_7x7_s1
I0403 17:57:28.729765 15621 net.cpp:425] pool5/drop_7x7_s1 <- pool5/7x7_s1
I0403 17:57:28.729784 15621 net.cpp:386] pool5/drop_7x7_s1 -> pool5/7x7_s1 (in-place)
I0403 17:57:28.729833 15621 net.cpp:141] Setting up pool5/drop_7x7_s1
I0403 17:57:28.729856 15621 net.cpp:148] Top shape: 24 1024 1 1 (24576)
I0403 17:57:28.729871 15621 net.cpp:156] Memory required for data: 1346060832
I0403 17:57:28.729885 15621 layer_factory.hpp:77] Creating layer loss3/classifier_plantvillage
I0403 17:57:28.729907 15621 net.cpp:91] Creating Layer loss3/classifier_plantvillage
I0403 17:57:28.729923 15621 net.cpp:425] loss3/classifier_plantvillage <- pool5/7x7_s1
I0403 17:57:28.729941 15621 net.cpp:399] loss3/classifier_plantvillage -> loss3/classifier_plantvillage
I0403 17:57:28.730358 15621 net.cpp:141] Setting up loss3/classifier_plantvillage
I0403 17:57:28.730382 15621 net.cpp:148] Top shape: 24 38 (912)
I0403 17:57:28.730396 15621 net.cpp:156] Memory required for data: 1346064480
I0403 17:57:28.730414 15621 layer_factory.hpp:77] Creating layer loss3/classifier_plantvillage_loss3/classifier_plantvillage_0_split
I0403 17:57:28.730432 15621 net.cpp:91] Creating Layer loss3/classifier_plantvillage_loss3/classifier_plantvillage_0_split
I0403 17:57:28.730448 15621 net.cpp:425] loss3/classifier_plantvillage_loss3/classifier_plantvillage_0_split <- loss3/classifier_plantvillage
I0403 17:57:28.730468 15621 net.cpp:399] loss3/classifier_plantvillage_loss3/classifier_plantvillage_0_split -> loss3/classifier_plantvillage_loss3/classifier_plantvillage_0_split_0
I0403 17:57:28.730489 15621 net.cpp:399] loss3/classifier_plantvillage_loss3/classifier_plantvillage_0_split -> loss3/classifier_plantvillage_loss3/classifier_plantvillage_0_split_1
I0403 17:57:28.730509 15621 net.cpp:399] loss3/classifier_plantvillage_loss3/classifier_plantvillage_0_split -> loss3/classifier_plantvillage_loss3/classifier_plantvillage_0_split_2
I0403 17:57:28.730530 15621 net.cpp:399] loss3/classifier_plantvillage_loss3/classifier_plantvillage_0_split -> loss3/classifier_plantvillage_loss3/classifier_plantvillage_0_split_3
I0403 17:57:28.730625 15621 net.cpp:141] Setting up loss3/classifier_plantvillage_loss3/classifier_plantvillage_0_split
I0403 17:57:28.730649 15621 net.cpp:148] Top shape: 24 38 (912)
I0403 17:57:28.730665 15621 net.cpp:148] Top shape: 24 38 (912)
I0403 17:57:28.730680 15621 net.cpp:148] Top shape: 24 38 (912)
I0403 17:57:28.730695 15621 net.cpp:148] Top shape: 24 38 (912)
I0403 17:57:28.730710 15621 net.cpp:156] Memory required for data: 1346079072
I0403 17:57:28.730725 15621 layer_factory.hpp:77] Creating layer loss1/loss
I0403 17:57:28.730744 15621 net.cpp:91] Creating Layer loss1/loss
I0403 17:57:28.730762 15621 net.cpp:425] loss1/loss <- loss1/classifier_plantvillage_loss1/classifier_plantvillage_0_split_0
I0403 17:57:28.730792 15621 net.cpp:425] loss1/loss <- label_data_1_split_0
…
