…
I0403 18:07:14.346271 16238 net.cpp:313] The NetState phase (1) differed from the phase (0) specified by a rule in layer data
I0403 18:07:14.347410 16238 net.cpp:49] Initializing net from parameters: 
state {
  phase: TEST
}
layer {
  name: "data"
  type: "Data"
  top: "data"
  top: "label"
  include {
    phase: TEST
  }
  transform_param {
    mirror: false
    crop_size: 224
    mean_file: "/home/mohanty/data/final_dataset/lmdb/grayscale-60-40/mean.binaryproto"
  }
  data_param {
    source: "/home/mohanty/data/final_dataset/lmdb/grayscale-60-40/test_db"
    batch_size: 24
    backend: LMDB
  }
}
layer {
  name: "conv1/7x7_s2"
  type: "Convolution"
  bottom: "data"
  top: "conv1/7x7_s2"
  param {
    lr_mult: 1
    decay_mult: 1
  }
  param {
    lr_mult: 2
    decay_mult: 0
  }
  convolution_param {
    num_output: 64
    pad: 3
    kernel_size: 7
    stride: 2
    weight_filler {
      type: "xavier"
      std: 0.1
    }
    bias_filler {
      type: "constant"
      value: 0.2
    }
  }
}
layer {
  name: "conv1/relu_7x7"
  type: "ReLU"
  bottom: "conv1/7x7_s2"
  top: "conv1/7x7_s2"
}
layer {
  name: "pool1/3x3_s2"
  type: "Pooling"
  bottom: "conv1/7x7_s2"
  top: "pool1/3x3_s2"
  pooling_param {
    pool: MAX
    kernel_size: 3
    stride: 2
  }
}
layer {
  name: "pool1/norm1"
  type: "LRN"
  bottom: "pool1/3x3_s2"
  top: "pool1/norm1"
  lrn_param {
    local_size: 5
    alpha: 0.0001
    beta: 0.75
  }
}
layer {
  name: "conv2/3x3_reduce"
  type: "Convolution"
  bottom: "pool1/norm1"
  top: "conv2/3x3_reduce"
  param {
    lr_mult: 1
    decay_mult: 1
  }
  param {
    lr_mult: 2
    decay_mult: 0
  }
  convolution_param {
    num_output: 64
    kernel_size: 1
    weight_filler {
      type: "xavier"
      std: 0.1
    }
    bias_filler {
      type: "constant"
      value: 0.2
    }
  }
}
layer {
  name: "conv2/relu_3x3_reduce"
  type: "ReLU"
  bottom: "conv2/3x3_reduce"
  top: "conv2/3x3_reduce"
}
layer {
  name: "conv2/3x3"
  type: "Convolution"
  bottom: "conv2/3x3_reduce"
  top: "conv2/3x3"
  param {
    lr_mult: 1
    decay_mult: 1
  }
  param {
    lr_mult: 2
    decay_mult: 0
  }
  convolution_param {
    num_output: 192
    pad: 1
    kernel_size: 3
    weight_filler {
      type: "xavier"
      std: 0.03
    }
    bias_filler {
      type: "constant"
      value: 0.2
    }
  }
}
layer {
  name: "conv2/relu_3x3"
  type: "ReLU"
  bottom: "conv2/3x3"
  top: "conv2/3x3"
}
layer {
  name: "conv2/norm2"
  type: "LRN"
  bottom: "conv2/3x3"
  top: "conv2/norm2"
  lrn_param {
    local_size: 5
    alpha: 0.0001
    beta: 0.75
  }
}
layer {
  name: "pool2/3x3_s2"
  type: "Pooling"
  bottom: "conv2/norm2"
  top: "pool2/3x3_s2"
  pooling_param {
    pool: MAX
    kernel_size: 3
    stride: 2
  }
}
layer {
  name: "inception_3a/1x1"
  type: "Convolution"
  bottom: "pool2/3x3_s2"
  top: "inception_3a/1x1"
  param {
    lr_mult: 1
    decay_mult: 1
  }
  param {
    lr_mult: 2
    decay_mult: 0
  }
  convolution_param {
    num_output: 64
    kernel_size: 1
    weight_filler {
      type: "xavier"
      std: 0.03
    }
    bias_filler {
      type: "constant"
      value: 0.2
    }
  }
}
layer {
  name: "inception_3a/relu_1x1"
  type: "ReLU"
  bottom: "inception_3a/1x1"
  top: "inception_3a/1x1"
}
layer {
  name: "inception_3a/3x3_reduce"
  type: "Convolution"
  bottom: "pool2/3x3_s2"
  top: "inception_3a/3x3_reduce"
  param {
    lr_mult: 1
    decay_mult: 1
  }
  param {
    lr_mult: 2
    decay_mult: 0
  }
  convolution_param {
    num_output: 96
    kernel_size: 1
    weight_filler {
      type: "xavier"
      std: 0.09
    }
    bias_filler {
      type: "constant"
      value: 0.2
    }
  }
}
layer {
  name: "inception_3a/relu_3x3_reduce"
  type: "ReLU"
  bottom: "inception_3a/3x3_reduce"
  top: "inception_3a/3x3_reduce"
}
layer {
  name: "inception_3a/3x3"
  type: "Convolution"
  bottom: "inception_3a/3x3_reduce"
  top: "inception_3a/3x3"
  param {
    lr_mult: 1
    decay_mult: 1
  }
  param {
    lr_mult: 2
    decay_mult: 0
  }
  convolution_param {
    num_output: 128
    pad: 1
    kernel_size: 3
    weight_filler {
      type: "xavier"
      std: 0.03
    }
    bias_filler {
      type: "constant"
      value: 0.2
    }
  }
}
layer {
  name: "inception_3a/relu_3x3"
  type: "ReLU"
  bottom: "inception_3a/3x3"
  top: "inception_3a/3x3"
}
layer {
  name: "inception_3a/5x5_reduce"
  type: "Convolution"
  bottom: "pool2/3x3_s2"
  top: "inception_3a/5x5_reduce"
  param {
    lr_mult: 1
    decay_mult: 1
  }
  param {
    lr_mult: 2
    decay_mult: 0
  }
  convolution_param {
    num_output: 16
    kernel_size: 1
    weight_filler {
      type: "xavier"
      std: 0.2
    }
    bias_filler {
      type: "constant"
      value: 0.2
    }
  }
}
layer {
  name: "inception_3a/relu_5x5_reduce"
  type: "ReLU"
  bottom: "inception_3a/5x5_reduce"
  top: "inception_3a/5x5_reduce"
}
layer {
  name: "inception_3a/5x5"
  type: "Convolution"
  bottom: "inception_3a/5x5_reduce"
  top: "inception_3a/5x5"
  param {
    lr_mult: 1
    decay_mult: 1
  }
  param {
    lr_mult: 2
    decay_mult: 0
  }
  convolution_param {
    num_output: 32
    pad: 2
    kernel_size: 5
    weight_filler {
      type: "xavier"
      std: 0.03
    }
    bias_filler {
      type: "constant"
      value: 0.2
    }
  }
}
layer {
  name: "inception_3a/relu_5x5"
  type: "ReLU"
  bottom: "inception_3a/5x5"
  top: "inception_3a/5x5"
}
layer {
  name: "inception_3a/pool"
  type: "Pooling"
  bottom: "pool2/3x3_s2"
  top: "inception_3a/pool"
  pooling_param {
    pool: MAX
    kernel_size: 3
    stride: 1
    pad: 1
  }
}
layer {
  name: "inception_3a/pool_proj"
  type: "Convolution"
  bottom: "inception_3a/pool"
  top: "inception_3a/pool_proj"
  param {
    lr_mult: 1
    decay_mult: 1
  }
  param {
    lr_mult: 2
    decay_mult: 0
  }
  convolution_param {
    num_output: 32
    kernel_size: 1
    weight_filler {
      type: "xavier"
      std: 0.1
    }
    bias_filler {
      type: "constant"
      value: 0.2
    }
  }
}
layer {
  name: "inception_3a/relu_pool_proj"
  type: "ReLU"
  bottom: "inception_3a/pool_proj"
  top: "inception_3a/pool_proj"
}
layer {
  name: "inception_3a/output"
  type: "Concat"
  bottom: "inception_3a/1x1"
  bottom: "inception_3a/3x3"
  bottom: "inception_3a/5x5"
  bottom: "inception_3a/pool_proj"
  top: "inception_3a/output"
}
layer {
  name: "inception_3b/1x1"
  type: "Convolution"
  bottom: "inception_3a/output"
  top: "inception_3b/1x1"
  param {
    lr_mult: 1
    decay_mult: 1
  }
  param {
    lr_mult: 2
    decay_mult: 0
  }
  convolution_param {
    num_output: 128
    kernel_size: 1
    weight_filler {
      type: "xavier"
      std: 0.03
    }
    bias_filler {
      type: "constant"
      value: 0.2
    }
  }
}
layer {
  name: "inception_3b/relu_1x1"
  type: "ReLU"
  bottom: "inception_3b/1x1"
  top: "inception_3b/1x1"
}
layer {
  name: "inception_3b/3x3_reduce"
  type: "Convolution"
  bottom: "inception_3a/output"
  top: "inception_3b/3x3_reduce"
  param {
    lr_mult: 1
    decay_mult: 1
  }
  param {
    lr_mult: 2
    decay_mult: 0
  }
  convolution_param {
    num_output: 128
    kernel_size: 1
    weight_filler {
      type: "xavier"
      std: 0.09
    }
    bias_filler {
      type: "constant"
      value: 0.2
    }
  }
}
layer {
  name: "inception_3b/relu_3x3_reduce"
  type: "ReLU"
  bottom: "inception_3b/3x3_reduce"
  top: "inception_3b/3x3_reduce"
}
layer {
  name: "inception_3b/3x3"
  type: "Convolution"
  bottom: "inception_3b/3x3_reduce"
  top: "inception_3b/3x3"
  param {
    lr_mult: 1
    decay_mult: 1
  }
  param {
    lr_mult: 2
    decay_mult: 0
  }
  convolution_param {
    num_output: 192
    pad: 1
    kernel_size: 3
    weight_filler {
      type: "xavier"
      std: 0.03
    }
    bias_filler {
      type: "constant"
      value: 0.2
    }
  }
}
layer {
  name: "inception_3b/relu_3x3"
  type: "ReLU"
  bottom: "inception_3b/3x3"
  top: "inception_3b/3x3"
}
layer {
  name: "inception_3b/5x5_reduce"
  type: "Convolution"
  bottom: "inception_3a/output"
  top: "inception_3b/5x5_reduce"
  param {
    lr_mult: 1
    decay_mult: 1
  }
  param {
    lr_mult: 2
    decay_mult: 0
  }
  convolution_param {
    num_output: 32
    kernel_size: 1
    weight_filler {
      type: "xavier"
      std: 0.2
    }
    bias_filler {
      type: "constant"
      value: 0.2
    }
  }
}
layer {
  name: "inception_3b/relu_5x5_reduce"
  type: "ReLU"
  bottom: "inception_3b/5x5_reduce"
  top: "inception_3b/5x5_reduce"
}
layer {
  name: "inception_3b/5x5"
  type: "Convolution"
  bottom: "inception_3b/5x5_reduce"
  top: "inception_3b/5x5"
  param {
    lr_mult: 1
    decay_mult: 1
  }
  param {
    lr_mult: 2
    decay_mult: 0
  }
  convolution_param {
    num_output: 96
    pad: 2
    kernel_size: 5
    weight_filler {
      type: "xavier"
      std: 0.03
    }
    bias_filler {
      type: "constant"
      value: 0.2
    }
  }
}
layer {
  name: "inception_3b/relu_5x5"
  type: "ReLU"
  bottom: "inception_3b/5x5"
  top: "inception_3b/5x5"
}
layer {
  name: "inception_3b/pool"
  type: "Pooling"
  bottom: "inception_3a/output"
  top: "inception_3b/pool"
  pooling_param {
    pool: MAX
    kernel_size: 3
    stride: 1
    pad: 1
  }
}
layer {
  name: "inception_3b/pool_proj"
  type: "Convolution"
  bottom: "inception_3b/pool"
  top: "inception_3b/pool_proj"
  param {
    lr_mult: 1
    decay_mult: 1
  }
  param {
    lr_mult: 2
    decay_mult: 0
  }
  convolution_param {
    num_output: 64
    kernel_size: 1
    weight_filler {
      type: "xavier"
      std: 0.1
    }
    bias_filler {
      type: "constant"
      value: 0.2
    }
  }
}
layer {
  name: "inception_3b/relu_pool_proj"
  type: "ReLU"
  bottom: "inception_3b/pool_proj"
  top: "inception_3b/pool_proj"
}
layer {
  name: "inception_3b/output"
  type: "Concat"
  bottom: "inception_3b/1x1"
  bottom: "inception_3b/3x3"
  bottom: "inception_3b/5x5"
  bottom: "inception_3b/pool_proj"
  top: "inception_3b/output"
}
layer {
  name: "pool3/3x3_s2"
  type: "Pooling"
  bottom: "inception_3b/output"
  top: "pool3/3x3_s2"
  pooling_param {
    pool: MAX
    kernel_size: 3
    stride: 2
  }
}
layer {
  name: "inception_4a/1x1"
  type: "Convolution"
  bottom: "pool3/3x3_s2"
  top: "inception_4a/1x1"
  param {
    lr_mult: 1
    decay_mult: 1
  }
  param {
    lr_mult: 2
    decay_mult: 0
  }
  convolution_param {
    num_output: 192
    kernel_size: 1
    weight_filler {
      type: "xavier"
      std: 0.03
    }
    bias_filler {
      type: "constant"
      value: 0.2
    }
  }
}
layer {
  name: "inception_4a/relu_1x1"
  type: "ReLU"
  bottom: "inception_4a/1x1"
  top: "inception_4a/1x1"
}
layer {
  name: "inception_4a/3x3_reduce"
  type: "Convolution"
  bottom: "pool3/3x3_s2"
  top: "inception_4a/3x3_reduce"
  param {
    lr_mult: 1
    decay_mult: 1
  }
  param {
    lr_mult: 2
    decay_mult: 0
  }
  convolution_param {
    num_output: 96
    kernel_size: 1
    weight_filler {
      type: "xavier"
      std: 0.09
    }
    bias_filler {
      type: "constant"
      value: 0.2
    }
  }
}
layer {
  name: "inception_4a/relu_3x3_reduce"
  type: "ReLU"
  bottom: "inception_4a/3x3_reduce"
  top: "inception_4a/3x3_reduce"
}
layer {
  name: "inception_4a/3x3"
  type: "Convolution"
  bottom: "inception_4a/3x3_reduce"
  top: "inception_4a/3x3"
  param {
    lr_mult: 1
    decay_mult: 1
  }
  param {
    lr_mult: 2
    decay_mult: 0
  }
  convolution_param {
    num_output: 208
    pad: 1
    kernel_size: 3
    weight_filler {
      type: "xavier"
      std: 0.03
    }
    bias_filler {
      type: "constant"
      value: 0.2
    }
  }
}
layer {
  name: "inception_4a/relu_3x3"
  type: "ReLU"
  bottom: "inception_4a/3x3"
  top: "inception_4a/3x3"
}
layer {
  name: "inception_4a/5x5_reduce"
  type: "Convolution"
  bottom: "pool3/3x3_s2"
  top: "inception_4a/5x5_reduce"
  param {
    lr_mult: 1
    decay_mult: 1
  }
  param {
    lr_mult: 2
    decay_mult: 0
  }
  convolution_param {
    num_output: 16
    kernel_size: 1
    weight_filler {
      type: "xavier"
      std: 0.2
    }
    bias_filler {
      type: "constant"
      value: 0.2
    }
  }
}
layer {
  name: "inception_4a/relu_5x5_reduce"
  type: "ReLU"
  bottom: "inception_4a/5x5_reduce"
  top: "inception_4a/5x5_reduce"
}
layer {
  name: "inception_4a/5x5"
  type: "Convolution"
  bottom: "inception_4a/5x5_reduce"
  top: "inception_4a/5x5"
  param {
    lr_mult: 1
    decay_mult: 1
  }
  param {
    lr_mult: 2
    decay_mult: 0
  }
  convolution_param {
    num_output: 48
    pad: 2
    kernel_size: 5
    weight_filler {
      type: "xavier"
      std: 0.03
    }
    bias_filler {
      type: "constant"
      value: 0.2
    }
  }
}
layer {
  name: "inception_4a/relu_5x5"
  type: "ReLU"
  bottom: "inception_4a/5x5"
  top: "inception_4a/5x5"
}
layer {
  name: "inception_4a/pool"
  type: "Pooling"
  bottom: "pool3/3x3_s2"
  top: "inception_4a/pool"
  pooling_param {
    pool: MAX
    kernel_size: 3
    stride: 1
    pad: 1
  }
}
layer {
  name: "inception_4a/pool_proj"
  type: "Convolution"
  bottom: "inception_4a/pool"
  top: "inception_4a/pool_proj"
  param {
    lr_mult: 1
    decay_mult: 1
  }
  param {
    lr_mult: 2
    decay_mult: 0
  }
  convolution_param {
    num_output: 64
    kernel_size: 1
    weight_filler {
      type: "xavier"
      std: 0.1
    }
    bias_filler {
      type: "constant"
      value: 0.2
    }
  }
}
layer {
  name: "inception_4a/relu_pool_proj"
  type: "ReLU"
  bottom: "inception_4a/pool_proj"
  top: "inception_4a/pool_proj"
}
layer {
  name: "inception_4a/output"
  type: "Concat"
  bottom: "inception_4a/1x1"
  bottom: "inception_4a/3x3"
  bottom: "inception_4a/5x5"
  bottom: "inception_4a/pool_proj"
  top: "inception_4a/output"
}
layer {
  name: "loss1/ave_pool"
  type: "Pooling"
  bottom: "inception_4a/output"
  top: "loss1/ave_pool"
  pooling_param {
    pool: AVE
    kernel_size: 5
    stride: 3
  }
}
layer {
  name: "loss1/conv"
  type: "Convolution"
  bottom: "loss1/ave_pool"
  top: "loss1/conv"
  param {
    lr_mult: 1
    decay_mult: 1
  }
  param {
    lr_mult: 2
    decay_mult: 0
  }
  convolution_param {
    num_output: 128
    kernel_size: 1
    weight_filler {
      type: "xavier"
      std: 0.08
    }
    bias_filler {
      type: "constant"
      value: 0.2
    }
  }
}
layer {
  name: "loss1/relu_conv"
  type: "ReLU"
  bottom: "loss1/conv"
  top: "loss1/conv"
}
layer {
  name: "loss1/fc"
  type: "InnerProduct"
  bottom: "loss1/conv"
  top: "loss1/fc"
  param {
    lr_mult: 1
    decay_mult: 1
  }
  param {
    lr_mult: 2
    decay_mult: 0
  }
  inner_product_param {
    num_output: 1024
    weight_filler {
      type: "xavier"
      std: 0.02
    }
    bias_filler {
      type: "constant"
      value: 0.2
    }
  }
}
layer {
  name: "loss1/relu_fc"
  type: "ReLU"
  bottom: "loss1/fc"
  top: "loss1/fc"
}
layer {
  name: "loss1/drop_fc"
  type: "Dropout"
  bottom: "loss1/fc"
  top: "loss1/fc"
  dropout_param {
    dropout_ratio: 0.7
  }
}
layer {
  name: "loss1/classifier_plantvillage"
  type: "InnerProduct"
  bottom: "loss1/fc"
  top: "loss1/classifier_plantvillage"
  param {
    lr_mult: 1
    decay_mult: 1
  }
  param {
    lr_mult: 2
    decay_mult: 0
  }
  inner_product_param {
    num_output: 38
    weight_filler {
      type: "xavier"
      std: 0.0009765625
    }
    bias_filler {
      type: "constant"
      value: 0
    }
  }
}
layer {
  name: "inception_4b/1x1"
  type: "Convolution"
  bottom: "inception_4a/output"
  top: "inception_4b/1x1"
  param {
    lr_mult: 1
    decay_mult: 1
  }
  param {
    lr_mult: 2
    decay_mult: 0
  }
  convolution_param {
    num_output: 160
    kernel_size: 1
    weight_filler {
      type: "xavier"
      std: 0.03
    }
    bias_filler {
      type: "constant"
      value: 0.2
    }
  }
}
layer {
  name: "inception_4b/relu_1x1"
  type: "ReLU"
  bottom: "inception_4b/1x1"
  top: "inception_4b/1x1"
}
layer {
  name: "inception_4b/3x3_reduce"
  type: "Convolution"
  bottom: "inception_4a/output"
  top: "inception_4b/3x3_reduce"
  param {
    lr_mult: 1
    decay_mult: 1
  }
  param {
    lr_mult: 2
    decay_mult: 0
  }
  convolution_param {
    num_output: 112
    kernel_size: 1
    weight_filler {
      type: "xavier"
      std: 0.09
    }
    bias_filler {
      type: "constant"
      value: 0.2
    }
  }
}
layer {
  name: "inception_4b/relu_3x3_reduce"
  type: "ReLU"
  bottom: "inception_4b/3x3_reduce"
  top: "inception_4b/3x3_reduce"
}
layer {
  name: "inception_4b/3x3"
  type: "Convolution"
  bottom: "inception_4b/3x3_reduce"
  top: "inception_4b/3x3"
  param {
    lr_mult: 1
    decay_mult: 1
  }
  param {
    lr_mult: 2
    decay_mult: 0
  }
  convolution_param {
    num_output: 224
    pad: 1
    kernel_size: 3
    weight_filler {
      type: "xavier"
      std: 0.03
    }
    bias_filler {
      type: "constant"
      value: 0.2
    }
  }
}
layer {
  name: "inception_4b/relu_3x3"
  type: "ReLU"
  bottom: "inception_4b/3x3"
  top: "inception_4b/3x3"
}
layer {
  name: "inception_4b/5x5_reduce"
  type: "Convolution"
  bottom: "inception_4a/output"
  top: "inception_4b/5x5_reduce"
  param {
    lr_mult: 1
    decay_mult: 1
  }
  param {
    lr_mult: 2
    decay_mult: 0
  }
  convolution_param {
    num_output: 24
    kernel_size: 1
    weight_filler {
      type: "xavier"
      std: 0.2
    }
    bias_filler {
      type: "constant"
      value: 0.2
    }
  }
}
layer {
  name: "inception_4b/relu_5x5_reduce"
  type: "ReLU"
  bottom: "inception_4b/5x5_reduce"
  top: "inception_4b/5x5_reduce"
}
layer {
  name: "inception_4b/5x5"
  type: "Convolution"
  bottom: "inception_4b/5x5_reduce"
  top: "inception_4b/5x5"
  param {
    lr_mult: 1
    decay_mult: 1
  }
  param {
    lr_mult: 2
    decay_mult: 0
  }
  convolution_param {
    num_output: 64
    pad: 2
    kernel_size: 5
    weight_filler {
      type: "xavier"
      std: 0.03
    }
    bias_filler {
      type: "constant"
      value: 0.2
    }
  }
}
layer {
  name: "inception_4b/relu_5x5"
  type: "ReLU"
  bottom: "inception_4b/5x5"
  top: "inception_4b/5x5"
}
layer {
  name: "inception_4b/pool"
  type: "Pooling"
  bottom: "inception_4a/output"
  top: "inception_4b/pool"
  pooling_param {
    pool: MAX
    kernel_size: 3
    stride: 1
    pad: 1
  }
}
layer {
  name: "inception_4b/pool_proj"
  type: "Convolution"
  bottom: "inception_4b/pool"
  top: "inception_4b/pool_proj"
  param {
    lr_mult: 1
    decay_mult: 1
  }
  param {
    lr_mult: 2
    decay_mult: 0
  }
  convolution_param {
    num_output: 64
    kernel_size: 1
    weight_filler {
      type: "xavier"
      std: 0.1
    }
    bias_filler {
      type: "constant"
      value: 0.2
    }
  }
}
layer {
  name: "inception_4b/relu_pool_proj"
  type: "ReLU"
  bottom: "inception_4b/pool_proj"
  top: "inception_4b/pool_proj"
}
layer {
  name: "inception_4b/output"
  type: "Concat"
  bottom: "inception_4b/1x1"
  bottom: "inception_4b/3x3"
  bottom: "inception_4b/5x5"
  bottom: "inception_4b/pool_proj"
  top: "inception_4b/output"
}
layer {
  name: "inception_4c/1x1"
  type: "Convolution"
  bottom: "inception_4b/output"
  top: "inception_4c/1x1"
  param {
    lr_mult: 1
    decay_mult: 1
  }
  param {
    lr_mult: 2
    decay_mult: 0
  }
  convolution_param {
    num_output: 128
    kernel_size: 1
    weight_filler {
      type: "xavier"
      std: 0.03
    }
    bias_filler {
      type: "constant"
      value: 0.2
    }
  }
}
layer {
  name: "inception_4c/relu_1x1"
  type: "ReLU"
  bottom: "inception_4c/1x1"
  top: "inception_4c/1x1"
}
layer {
  name: "inception_4c/3x3_reduce"
  type: "Convolution"
  bottom: "inception_4b/output"
  top: "inception_4c/3x3_reduce"
  param {
    lr_mult: 1
    decay_mult: 1
  }
  param {
    lr_mult: 2
    decay_mult: 0
  }
  convolution_param {
    num_output: 128
    kernel_size: 1
    weight_filler {
      type: "xavier"
      std: 0.09
    }
    bias_filler {
      type: "constant"
      value: 0.2
    }
  }
}
layer {
  name: "inception_4c/relu_3x3_reduce"
  type: "ReLU"
  bottom: "inception_4c/3x3_reduce"
  top: "inception_4c/3x3_reduce"
}
layer {
  name: "inception_4c/3x3"
  type: "Convolution"
  bottom: "inception_4c/3x3_reduce"
  top: "inception_4c/3x3"
  param {
    lr_mult: 1
    decay_mult: 1
  }
  param {
    lr_mult: 2
    decay_mult: 0
  }
  convolution_param {
    num_output: 256
    pad: 1
    kernel_size: 3
    weight_filler {
      type: "xavier"
      std: 0.03
    }
    bias_filler {
      type: "constant"
      value: 0.2
    }
  }
}
layer {
  name: "inception_4c/relu_3x3"
  type: "ReLU"
  bottom: "inception_4c/3x3"
  top: "inception_4c/3x3"
}
layer {
  name: "inception_4c/5x5_reduce"
  type: "Convolution"
  bottom: "inception_4b/output"
  top: "inception_4c/5x5_reduce"
  param {
    lr_mult: 1
    decay_mult: 1
  }
  param {
    lr_mult: 2
    decay_mult: 0
  }
  convolution_param {
    num_output: 24
    kernel_size: 1
    weight_filler {
      type: "xavier"
      std: 0.2
    }
    bias_filler {
      type: "constant"
      value: 0.2
    }
  }
}
layer {
  name: "inception_4c/relu_5x5_reduce"
  type: "ReLU"
  bottom: "inception_4c/5x5_reduce"
  top: "inception_4c/5x5_reduce"
}
layer {
  name: "inception_4c/5x5"
  type: "Convolution"
  bottom: "inception_4c/5x5_reduce"
  top: "inception_4c/5x5"
  param {
    lr_mult: 1
    decay_mult: 1
  }
  param {
    lr_mult: 2
    decay_mult: 0
  }
  convolution_param {
    num_output: 64
    pad: 2
    kernel_size: 5
    weight_filler {
      type: "xavier"
      std: 0.03
    }
    bias_filler {
      type: "constant"
      value: 0.2
    }
  }
}
layer {
  name: "inception_4c/relu_5x5"
  type: "ReLU"
  bottom: "inception_4c/5x5"
  top: "inception_4c/5x5"
}
layer {
  name: "inception_4c/pool"
  type: "Pooling"
  bottom: "inception_4b/output"
  top: "inception_4c/pool"
  pooling_param {
    pool: MAX
    kernel_size: 3
    stride: 1
    pad: 1
  }
}
layer {
  name: "inception_4c/pool_proj"
  type: "Convolution"
  bottom: "inception_4c/pool"
  top: "inception_4c/pool_proj"
  param {
    lr_mult: 1
    decay_mult: 1
  }
  param {
    lr_mult: 2
    decay_mult: 0
  }
  convolution_param {
    num_output: 64
    kernel_size: 1
    weight_filler {
      type: "xavier"
      std: 0.1
    }
    bias_filler {
      type: "constant"
      value: 0.2
    }
  }
}
layer {
  name: "inception_4c/relu_pool_proj"
  type: "ReLU"
  bottom: "inception_4c/pool_proj"
  top: "inception_4c/pool_proj"
}
layer {
  name: "inception_4c/output"
  type: "Concat"
  bottom: "inception_4c/1x1"
  bottom: "inception_4c/3x3"
  bottom: "inception_4c/5x5"
  bottom: "inception_4c/pool_proj"
  top: "inception_4c/output"
}
layer {
  name: "inception_4d/1x1"
  type: "Convolution"
  bottom: "inception_4c/output"
  top: "inception_4d/1x1"
  param {
    lr_mult: 1
    decay_mult: 1
  }
  param {
    lr_mult: 2
    decay_mult: 0
  }
  convolution_param {
    num_output: 112
    kernel_size: 1
    weight_filler {
      type: "xavier"
      std: 0.03
    }
    bias_filler {
      type: "constant"
      value: 0.2
    }
  }
}
layer {
  name: "inception_4d/relu_1x1"
  type: "ReLU"
  bottom: "inception_4d/1x1"
  top: "inception_4d/1x1"
}
layer {
  name: "inception_4d/3x3_reduce"
  type: "Convolution"
  bottom: "inception_4c/output"
  top: "inception_4d/3x3_reduce"
  param {
    lr_mult: 1
    decay_mult: 1
  }
  param {
    lr_mult: 2
    decay_mult: 0
  }
  convolution_param {
    num_output: 144
    kernel_size: 1
    weight_filler {
      type: "xavier"
      std: 0.09
    }
    bias_filler {
      type: "constant"
      value: 0.2
    }
  }
}
layer {
  name: "inception_4d/relu_3x3_reduce"
  type: "ReLU"
  bottom: "inception_4d/3x3_reduce"
  top: "inception_4d/3x3_reduce"
}
layer {
  name: "inception_4d/3x3"
  type: "Convolution"
  bottom: "inception_4d/3x3_reduce"
  top: "inception_4d/3x3"
  param {
    lr_mult: 1
    decay_mult: 1
  }
  param {
    lr_mult: 2
    decay_mult: 0
  }
  convolution_param {
    num_output: 288
    pad: 1
    kernel_size: 3
    weight_filler {
      type: "xavier"
      std: 0.03
    }
    bias_filler {
      type: "constant"
      value: 0.2
    }
  }
}
layer {
  name: "inception_4d/relu_3x3"
  type: "ReLU"
  bottom: "inception_4d/3x3"
  top: "inception_4d/3x3"
}
layer {
  name: "inception_4d/5x5_reduce"
  type: "Convolution"
  bottom: "inception_4c/output"
  top: "inception_4d/5x5_reduce"
  param {
    lr_mult: 1
    decay_mult: 1
  }
  param {
    lr_mult: 2
    decay_mult: 0
  }
  convolution_param {
    num_output: 32
    kernel_size: 1
    weight_filler {
      type: "xavier"
      std: 0.2
    }
    bias_filler {
      type: "constant"
      value: 0.2
    }
  }
}
layer {
  name: "inception_4d/relu_5x5_reduce"
  type: "ReLU"
  bottom: "inception_4d/5x5_reduce"
  top: "inception_4d/5x5_reduce"
}
layer {
  name: "inception_4d/5x5"
  type: "Convolution"
  bottom: "inception_4d/5x5_reduce"
  top: "inception_4d/5x5"
  param {
    lr_mult: 1
    decay_mult: 1
  }
  param {
    lr_mult: 2
    decay_mult: 0
  }
  convolution_param {
    num_output: 64
    pad: 2
    kernel_size: 5
    weight_filler {
      type: "xavier"
      std: 0.03
    }
    bias_filler {
      type: "constant"
      value: 0.2
    }
  }
}
layer {
  name: "inception_4d/relu_5x5"
  type: "ReLU"
  bottom: "inception_4d/5x5"
  top: "inception_4d/5x5"
}
layer {
  name: "inception_4d/pool"
  type: "Pooling"
  bottom: "inception_4c/output"
  top: "inception_4d/pool"
  pooling_param {
    pool: MAX
    kernel_size: 3
    stride: 1
    pad: 1
  }
}
layer {
  name: "inception_4d/pool_proj"
  type: "Convolution"
  bottom: "inception_4d/pool"
  top: "inception_4d/pool_proj"
  param {
    lr_mult: 1
    decay_mult: 1
  }
  param {
    lr_mult: 2
    decay_mult: 0
  }
  convolution_param {
    num_output: 64
    kernel_size: 1
    weight_filler {
      type: "xavier"
      std: 0.1
    }
    bias_filler {
      type: "constant"
      value: 0.2
    }
  }
}
layer {
  name: "inception_4d/relu_pool_proj"
  type: "ReLU"
  bottom: "inception_4d/pool_proj"
  top: "inception_4d/pool_proj"
}
layer {
  name: "inception_4d/output"
  type: "Concat"
  bottom: "inception_4d/1x1"
  bottom: "inception_4d/3x3"
  bottom: "inception_4d/5x5"
  bottom: "inception_4d/pool_proj"
  top: "inception_4d/output"
}
layer {
  name: "loss2/ave_pool"
  type: "Pooling"
  bottom: "inception_4d/output"
  top: "loss2/ave_pool"
  pooling_param {
    pool: AVE
    kernel_size: 5
    stride: 3
  }
}
layer {
  name: "loss2/conv"
  type: "Convolution"
  bottom: "loss2/ave_pool"
  top: "loss2/conv"
  param {
    lr_mult: 1
    decay_mult: 1
  }
  param {
    lr_mult: 2
    decay_mult: 0
  }
  convolution_param {
    num_output: 128
    kernel_size: 1
    weight_filler {
      type: "xavier"
      std: 0.08
    }
    bias_filler {
      type: "constant"
      value: 0.2
    }
  }
}
layer {
  name: "loss2/relu_conv"
  type: "ReLU"
  bottom: "loss2/conv"
  top: "loss2/conv"
}
layer {
  name: "loss2/fc"
  type: "InnerProduct"
  bottom: "loss2/conv"
  top: "loss2/fc"
  param {
    lr_mult: 1
    decay_mult: 1
  }
  param {
    lr_mult: 2
    decay_mult: 0
  }
  inner_product_param {
    num_output: 1024
    weight_filler {
      type: "xavier"
      std: 0.02
    }
    bias_filler {
      type: "constant"
      value: 0.2
    }
  }
}
layer {
  name: "loss2/relu_fc"
  type: "ReLU"
  bottom: "loss2/fc"
  top: "loss2/fc"
}
layer {
  name: "loss2/drop_fc"
  type: "Dropout"
  bottom: "loss2/fc"
  top: "loss2/fc"
  dropout_param {
    dropout_ratio: 0.7
  }
}
layer {
  name: "loss2/classifier_plantvillage"
  type: "InnerProduct"
  bottom: "loss2/fc"
  top: "loss2/classifier_plantvillage"
  param {
    lr_mult: 1
    decay_mult: 1
  }
  param {
    lr_mult: 2
    decay_mult: 0
  }
  inner_product_param {
    num_output: 38
    weight_filler {
      type: "xavier"
      std: 0.0009765625
    }
    bias_filler {
      type: "constant"
      value: 0
    }
  }
}
layer {
  name: "inception_4e/1x1"
  type: "Convolution"
  bottom: "inception_4d/output"
  top: "inception_4e/1x1"
  param {
    lr_mult: 1
    decay_mult: 1
  }
  param {
    lr_mult: 2
    decay_mult: 0
  }
  convolution_param {
    num_output: 256
    kernel_size: 1
    weight_filler {
      type: "xavier"
      std: 0.03
    }
    bias_filler {
      type: "constant"
      value: 0.2
    }
  }
}
layer {
  name: "inception_4e/relu_1x1"
  type: "ReLU"
  bottom: "inception_4e/1x1"
  top: "inception_4e/1x1"
}
layer {
  name: "inception_4e/3x3_reduce"
  type: "Convolution"
  bottom: "inception_4d/output"
  top: "inception_4e/3x3_reduce"
  param {
    lr_mult: 1
    decay_mult: 1
  }
  param {
    lr_mult: 2
    decay_mult: 0
  }
  convolution_param {
    num_output: 160
    kernel_size: 1
    weight_filler {
      type: "xavier"
      std: 0.09
    }
    bias_filler {
      type: "constant"
      value: 0.2
    }
  }
}
layer {
  name: "inception_4e/relu_3x3_reduce"
  type: "ReLU"
  bottom: "inception_4e/3x3_reduce"
  top: "inception_4e/3x3_reduce"
}
layer {
  name: "inception_4e/3x3"
  type: "Convolution"
  bottom: "inception_4e/3x3_reduce"
  top: "inception_4e/3x3"
  param {
    lr_mult: 1
    decay_mult: 1
  }
  param {
    lr_mult: 2
    decay_mult: 0
  }
  convolution_param {
    num_output: 320
    pad: 1
    kernel_size: 3
    weight_filler {
      type: "xavier"
      std: 0.03
    }
    bias_filler {
      type: "constant"
      value: 0.2
    }
  }
}
layer {
  name: "inception_4e/relu_3x3"
  type: "ReLU"
  bottom: "inception_4e/3x3"
  top: "inception_4e/3x3"
}
layer {
  name: "inception_4e/5x5_reduce"
  type: "Convolution"
  bottom: "inception_4d/output"
  top: "inception_4e/5x5_reduce"
  param {
    lr_mult: 1
    decay_mult: 1
  }
  param {
    lr_mult: 2
    decay_mult: 0
  }
  convolution_param {
    num_output: 32
    kernel_size: 1
    weight_filler {
      type: "xavier"
      std: 0.2
    }
    bias_filler {
      type: "constant"
      value: 0.2
    }
  }
}
layer {
  name: "inception_4e/relu_5x5_reduce"
  type: "ReLU"
  bottom: "inception_4e/5x5_reduce"
  top: "inception_4e/5x5_reduce"
}
layer {
  name: "inception_4e/5x5"
  type: "Convolution"
  bottom: "inception_4e/5x5_reduce"
  top: "inception_4e/
I0403 18:07:14.348659 16238 layer_factory.hpp:77] Creating layer data
I0403 18:07:14.349264 16238 net.cpp:91] Creating Layer data
I0403 18:07:14.349294 16238 net.cpp:399] data -> data
I0403 18:07:14.349345 16238 net.cpp:399] data -> label
I0403 18:07:14.349385 16238 data_transformer.cpp:25] Loading mean file from: /home/mohanty/data/final_dataset/lmdb/grayscale-60-40/mean.binaryproto
I0403 18:07:14.350540 16241 db_lmdb.cpp:38] Opened lmdb /home/mohanty/data/final_dataset/lmdb/grayscale-60-40/test_db
I0403 18:07:14.362980 16238 data_layer.cpp:41] output data size: 24,3,224,224
I0403 18:07:14.390400 16238 net.cpp:141] Setting up data
I0403 18:07:14.390489 16238 net.cpp:148] Top shape: 24 3 224 224 (3612672)
I0403 18:07:14.390513 16238 net.cpp:148] Top shape: 24 (24)
I0403 18:07:14.390529 16238 net.cpp:156] Memory required for data: 14450784
I0403 18:07:14.390558 16238 layer_factory.hpp:77] Creating layer label_data_1_split
I0403 18:07:14.390585 16238 net.cpp:91] Creating Layer label_data_1_split
I0403 18:07:14.390604 16238 net.cpp:425] label_data_1_split <- label
I0403 18:07:14.390635 16238 net.cpp:399] label_data_1_split -> label_data_1_split_0
I0403 18:07:14.390664 16238 net.cpp:399] label_data_1_split -> label_data_1_split_1
I0403 18:07:14.390687 16238 net.cpp:399] label_data_1_split -> label_data_1_split_2
I0403 18:07:14.390709 16238 net.cpp:399] label_data_1_split -> label_data_1_split_3
I0403 18:07:14.390730 16238 net.cpp:399] label_data_1_split -> label_data_1_split_4
I0403 18:07:14.390750 16238 net.cpp:399] label_data_1_split -> label_data_1_split_5
I0403 18:07:14.390770 16238 net.cpp:399] label_data_1_split -> label_data_1_split_6
I0403 18:07:14.390792 16238 net.cpp:399] label_data_1_split -> label_data_1_split_7
I0403 18:07:14.390812 16238 net.cpp:399] label_data_1_split -> label_data_1_split_8
I0403 18:07:14.390833 16238 net.cpp:399] label_data_1_split -> label_data_1_split_9
I0403 18:07:14.390954 16238 net.cpp:141] Setting up label_data_1_split
I0403 18:07:14.390982 16238 net.cpp:148] Top shape: 24 (24)
I0403 18:07:14.391001 16238 net.cpp:148] Top shape: 24 (24)
I0403 18:07:14.391018 16238 net.cpp:148] Top shape: 24 (24)
I0403 18:07:14.391034 16238 net.cpp:148] Top shape: 24 (24)
I0403 18:07:14.391052 16238 net.cpp:148] Top shape: 24 (24)
I0403 18:07:14.391067 16238 net.cpp:148] Top shape: 24 (24)
I0403 18:07:14.391084 16238 net.cpp:148] Top shape: 24 (24)
I0403 18:07:14.391100 16238 net.cpp:148] Top shape: 24 (24)
I0403 18:07:14.391116 16238 net.cpp:148] Top shape: 24 (24)
I0403 18:07:14.391134 16238 net.cpp:148] Top shape: 24 (24)
I0403 18:07:14.391178 16238 net.cpp:156] Memory required for data: 14451744
I0403 18:07:14.391196 16238 layer_factory.hpp:77] Creating layer conv1/7x7_s2
I0403 18:07:14.391228 16238 net.cpp:91] Creating Layer conv1/7x7_s2
I0403 18:07:14.391247 16238 net.cpp:425] conv1/7x7_s2 <- data
I0403 18:07:14.391268 16238 net.cpp:399] conv1/7x7_s2 -> conv1/7x7_s2
I0403 18:07:14.535058 16238 net.cpp:141] Setting up conv1/7x7_s2
I0403 18:07:14.535146 16238 net.cpp:148] Top shape: 24 64 112 112 (19267584)
I0403 18:07:14.535164 16238 net.cpp:156] Memory required for data: 91522080
I0403 18:07:14.535197 16238 layer_factory.hpp:77] Creating layer conv1/relu_7x7
I0403 18:07:14.535226 16238 net.cpp:91] Creating Layer conv1/relu_7x7
I0403 18:07:14.535246 16238 net.cpp:425] conv1/relu_7x7 <- conv1/7x7_s2
I0403 18:07:14.535265 16238 net.cpp:386] conv1/relu_7x7 -> conv1/7x7_s2 (in-place)
I0403 18:07:14.535574 16238 net.cpp:141] Setting up conv1/relu_7x7
I0403 18:07:14.535604 16238 net.cpp:148] Top shape: 24 64 112 112 (19267584)
I0403 18:07:14.535620 16238 net.cpp:156] Memory required for data: 168592416
I0403 18:07:14.535636 16238 layer_factory.hpp:77] Creating layer pool1/3x3_s2
I0403 18:07:14.535663 16238 net.cpp:91] Creating Layer pool1/3x3_s2
I0403 18:07:14.535683 16238 net.cpp:425] pool1/3x3_s2 <- conv1/7x7_s2
I0403 18:07:14.535703 16238 net.cpp:399] pool1/3x3_s2 -> pool1/3x3_s2
I0403 18:07:14.535781 16238 net.cpp:141] Setting up pool1/3x3_s2
I0403 18:07:14.535807 16238 net.cpp:148] Top shape: 24 64 56 56 (4816896)
I0403 18:07:14.535822 16238 net.cpp:156] Memory required for data: 187860000
I0403 18:07:14.535838 16238 layer_factory.hpp:77] Creating layer pool1/norm1
I0403 18:07:14.535866 16238 net.cpp:91] Creating Layer pool1/norm1
I0403 18:07:14.535886 16238 net.cpp:425] pool1/norm1 <- pool1/3x3_s2
I0403 18:07:14.535905 16238 net.cpp:399] pool1/norm1 -> pool1/norm1
I0403 18:07:14.536231 16238 net.cpp:141] Setting up pool1/norm1
I0403 18:07:14.536265 16238 net.cpp:148] Top shape: 24 64 56 56 (4816896)
I0403 18:07:14.536283 16238 net.cpp:156] Memory required for data: 207127584
I0403 18:07:14.536299 16238 layer_factory.hpp:77] Creating layer conv2/3x3_reduce
I0403 18:07:14.536325 16238 net.cpp:91] Creating Layer conv2/3x3_reduce
I0403 18:07:14.536344 16238 net.cpp:425] conv2/3x3_reduce <- pool1/norm1
I0403 18:07:14.536365 16238 net.cpp:399] conv2/3x3_reduce -> conv2/3x3_reduce
I0403 18:07:14.537873 16238 net.cpp:141] Setting up conv2/3x3_reduce
I0403 18:07:14.537904 16238 net.cpp:148] Top shape: 24 64 56 56 (4816896)
I0403 18:07:14.537922 16238 net.cpp:156] Memory required for data: 226395168
I0403 18:07:14.537945 16238 layer_factory.hpp:77] Creating layer conv2/relu_3x3_reduce
I0403 18:07:14.537964 16238 net.cpp:91] Creating Layer conv2/relu_3x3_reduce
I0403 18:07:14.537992 16238 net.cpp:425] conv2/relu_3x3_reduce <- conv2/3x3_reduce
I0403 18:07:14.538017 16238 net.cpp:386] conv2/relu_3x3_reduce -> conv2/3x3_reduce (in-place)
I0403 18:07:14.538300 16238 net.cpp:141] Setting up conv2/relu_3x3_reduce
I0403 18:07:14.538328 16238 net.cpp:148] Top shape: 24 64 56 56 (4816896)
I0403 18:07:14.538344 16238 net.cpp:156] Memory required for data: 245662752
I0403 18:07:14.538360 16238 layer_factory.hpp:77] Creating layer conv2/3x3
I0403 18:07:14.538385 16238 net.cpp:91] Creating Layer conv2/3x3
I0403 18:07:14.538404 16238 net.cpp:425] conv2/3x3 <- conv2/3x3_reduce
I0403 18:07:14.538429 16238 net.cpp:399] conv2/3x3 -> conv2/3x3
I0403 18:07:14.540875 16238 net.cpp:141] Setting up conv2/3x3
I0403 18:07:14.540907 16238 net.cpp:148] Top shape: 24 192 56 56 (14450688)
I0403 18:07:14.541000 16238 net.cpp:156] Memory required for data: 303465504
I0403 18:07:14.541031 16238 layer_factory.hpp:77] Creating layer conv2/relu_3x3
I0403 18:07:14.541056 16238 net.cpp:91] Creating Layer conv2/relu_3x3
I0403 18:07:14.541074 16238 net.cpp:425] conv2/relu_3x3 <- conv2/3x3
I0403 18:07:14.541093 16238 net.cpp:386] conv2/relu_3x3 -> conv2/3x3 (in-place)
I0403 18:07:14.541280 16238 net.cpp:141] Setting up conv2/relu_3x3
I0403 18:07:14.541308 16238 net.cpp:148] Top shape: 24 192 56 56 (14450688)
I0403 18:07:14.541357 16238 net.cpp:156] Memory required for data: 361268256
I0403 18:07:14.541373 16238 layer_factory.hpp:77] Creating layer conv2/norm2
I0403 18:07:14.541393 16238 net.cpp:91] Creating Layer conv2/norm2
I0403 18:07:14.541410 16238 net.cpp:425] conv2/norm2 <- conv2/3x3
I0403 18:07:14.541431 16238 net.cpp:399] conv2/norm2 -> conv2/norm2
I0403 18:07:14.541761 16238 net.cpp:141] Setting up conv2/norm2
I0403 18:07:14.541790 16238 net.cpp:148] Top shape: 24 192 56 56 (14450688)
I0403 18:07:14.541806 16238 net.cpp:156] Memory required for data: 419071008
I0403 18:07:14.541821 16238 layer_factory.hpp:77] Creating layer pool2/3x3_s2
I0403 18:07:14.541841 16238 net.cpp:91] Creating Layer pool2/3x3_s2
I0403 18:07:14.541857 16238 net.cpp:425] pool2/3x3_s2 <- conv2/norm2
I0403 18:07:14.541878 16238 net.cpp:399] pool2/3x3_s2 -> pool2/3x3_s2
I0403 18:07:14.541934 16238 net.cpp:141] Setting up pool2/3x3_s2
I0403 18:07:14.541960 16238 net.cpp:148] Top shape: 24 192 28 28 (3612672)
I0403 18:07:14.541975 16238 net.cpp:156] Memory required for data: 433521696
I0403 18:07:14.541998 16238 layer_factory.hpp:77] Creating layer pool2/3x3_s2_pool2/3x3_s2_0_split
I0403 18:07:14.542021 16238 net.cpp:91] Creating Layer pool2/3x3_s2_pool2/3x3_s2_0_split
I0403 18:07:14.542045 16238 net.cpp:425] pool2/3x3_s2_pool2/3x3_s2_0_split <- pool2/3x3_s2
I0403 18:07:14.542063 16238 net.cpp:399] pool2/3x3_s2_pool2/3x3_s2_0_split -> pool2/3x3_s2_pool2/3x3_s2_0_split_0
I0403 18:07:14.542088 16238 net.cpp:399] pool2/3x3_s2_pool2/3x3_s2_0_split -> pool2/3x3_s2_pool2/3x3_s2_0_split_1
I0403 18:07:14.542109 16238 net.cpp:399] pool2/3x3_s2_pool2/3x3_s2_0_split -> pool2/3x3_s2_pool2/3x3_s2_0_split_2
I0403 18:07:14.542130 16238 net.cpp:399] pool2/3x3_s2_pool2/3x3_s2_0_split -> pool2/3x3_s2_pool2/3x3_s2_0_split_3
I0403 18:07:14.542207 16238 net.cpp:141] Setting up pool2/3x3_s2_pool2/3x3_s2_0_split
I0403 18:07:14.542232 16238 net.cpp:148] Top shape: 24 192 28 28 (3612672)
I0403 18:07:14.542248 16238 net.cpp:148] Top shape: 24 192 28 28 (3612672)
I0403 18:07:14.542265 16238 net.cpp:148] Top shape: 24 192 28 28 (3612672)
I0403 18:07:14.542282 16238 net.cpp:148] Top shape: 24 192 28 28 (3612672)
I0403 18:07:14.542297 16238 net.cpp:156] Memory required for data: 491324448
I0403 18:07:14.542320 16238 layer_factory.hpp:77] Creating layer inception_3a/1x1
I0403 18:07:14.542345 16238 net.cpp:91] Creating Layer inception_3a/1x1
I0403 18:07:14.542362 16238 net.cpp:425] inception_3a/1x1 <- pool2/3x3_s2_pool2/3x3_s2_0_split_0
I0403 18:07:14.542384 16238 net.cpp:399] inception_3a/1x1 -> inception_3a/1x1
I0403 18:07:14.544035 16238 net.cpp:141] Setting up inception_3a/1x1
I0403 18:07:14.544066 16238 net.cpp:148] Top shape: 24 64 28 28 (1204224)
I0403 18:07:14.544083 16238 net.cpp:156] Memory required for data: 496141344
I0403 18:07:14.544103 16238 layer_factory.hpp:77] Creating layer inception_3a/relu_1x1
I0403 18:07:14.544126 16238 net.cpp:91] Creating Layer inception_3a/relu_1x1
I0403 18:07:14.544142 16238 net.cpp:425] inception_3a/relu_1x1 <- inception_3a/1x1
I0403 18:07:14.544162 16238 net.cpp:386] inception_3a/relu_1x1 -> inception_3a/1x1 (in-place)
I0403 18:07:14.544347 16238 net.cpp:141] Setting up inception_3a/relu_1x1
I0403 18:07:14.544373 16238 net.cpp:148] Top shape: 24 64 28 28 (1204224)
I0403 18:07:14.544389 16238 net.cpp:156] Memory required for data: 500958240
I0403 18:07:14.544404 16238 layer_factory.hpp:77] Creating layer inception_3a/3x3_reduce
I0403 18:07:14.544430 16238 net.cpp:91] Creating Layer inception_3a/3x3_reduce
I0403 18:07:14.544450 16238 net.cpp:425] inception_3a/3x3_reduce <- pool2/3x3_s2_pool2/3x3_s2_0_split_1
I0403 18:07:14.544471 16238 net.cpp:399] inception_3a/3x3_reduce -> inception_3a/3x3_reduce
I0403 18:07:14.546284 16238 net.cpp:141] Setting up inception_3a/3x3_reduce
I0403 18:07:14.546315 16238 net.cpp:148] Top shape: 24 96 28 28 (1806336)
I0403 18:07:14.546332 16238 net.cpp:156] Memory required for data: 508183584
I0403 18:07:14.546355 16238 layer_factory.hpp:77] Creating layer inception_3a/relu_3x3_reduce
I0403 18:07:14.546396 16238 net.cpp:91] Creating Layer inception_3a/relu_3x3_reduce
I0403 18:07:14.546414 16238 net.cpp:425] inception_3a/relu_3x3_reduce <- inception_3a/3x3_reduce
I0403 18:07:14.546434 16238 net.cpp:386] inception_3a/relu_3x3_reduce -> inception_3a/3x3_reduce (in-place)
I0403 18:07:14.546625 16238 net.cpp:141] Setting up inception_3a/relu_3x3_reduce
I0403 18:07:14.546653 16238 net.cpp:148] Top shape: 24 96 28 28 (1806336)
I0403 18:07:14.546700 16238 net.cpp:156] Memory required for data: 515408928
I0403 18:07:14.546721 16238 layer_factory.hpp:77] Creating layer inception_3a/3x3
I0403 18:07:14.546746 16238 net.cpp:91] Creating Layer inception_3a/3x3
I0403 18:07:14.546766 16238 net.cpp:425] inception_3a/3x3 <- inception_3a/3x3_reduce
I0403 18:07:14.546788 16238 net.cpp:399] inception_3a/3x3 -> inception_3a/3x3
I0403 18:07:14.548540 16238 net.cpp:141] Setting up inception_3a/3x3
I0403 18:07:14.548570 16238 net.cpp:148] Top shape: 24 128 28 28 (2408448)
I0403 18:07:14.548588 16238 net.cpp:156] Memory required for data: 525042720
I0403 18:07:14.548607 16238 layer_factory.hpp:77] Creating layer inception_3a/relu_3x3
I0403 18:07:14.548629 16238 net.cpp:91] Creating Layer inception_3a/relu_3x3
I0403 18:07:14.548647 16238 net.cpp:425] inception_3a/relu_3x3 <- inception_3a/3x3
I0403 18:07:14.548666 16238 net.cpp:386] inception_3a/relu_3x3 -> inception_3a/3x3 (in-place)
I0403 18:07:14.548952 16238 net.cpp:141] Setting up inception_3a/relu_3x3
I0403 18:07:14.548985 16238 net.cpp:148] Top shape: 24 128 28 28 (2408448)
I0403 18:07:14.549001 16238 net.cpp:156] Memory required for data: 534676512
I0403 18:07:14.549017 16238 layer_factory.hpp:77] Creating layer inception_3a/5x5_reduce
I0403 18:07:14.549041 16238 net.cpp:91] Creating Layer inception_3a/5x5_reduce
I0403 18:07:14.549060 16238 net.cpp:425] inception_3a/5x5_reduce <- pool2/3x3_s2_pool2/3x3_s2_0_split_2
I0403 18:07:14.549082 16238 net.cpp:399] inception_3a/5x5_reduce -> inception_3a/5x5_reduce
I0403 18:07:14.550091 16238 net.cpp:141] Setting up inception_3a/5x5_reduce
I0403 18:07:14.550120 16238 net.cpp:148] Top shape: 24 16 28 28 (301056)
I0403 18:07:14.550137 16238 net.cpp:156] Memory required for data: 535880736
I0403 18:07:14.550158 16238 layer_factory.hpp:77] Creating layer inception_3a/relu_5x5_reduce
I0403 18:07:14.550189 16238 net.cpp:91] Creating Layer inception_3a/relu_5x5_reduce
I0403 18:07:14.550205 16238 net.cpp:425] inception_3a/relu_5x5_reduce <- inception_3a/5x5_reduce
I0403 18:07:14.550225 16238 net.cpp:386] inception_3a/relu_5x5_reduce -> inception_3a/5x5_reduce (in-place)
I0403 18:07:14.550540 16238 net.cpp:141] Setting up inception_3a/relu_5x5_reduce
I0403 18:07:14.550571 16238 net.cpp:148] Top shape: 24 16 28 28 (301056)
I0403 18:07:14.550588 16238 net.cpp:156] Memory required for data: 537084960
I0403 18:07:14.550603 16238 layer_factory.hpp:77] Creating layer inception_3a/5x5
I0403 18:07:14.550627 16238 net.cpp:91] Creating Layer inception_3a/5x5
I0403 18:07:14.550645 16238 net.cpp:425] inception_3a/5x5 <- inception_3a/5x5_reduce
I0403 18:07:14.550665 16238 net.cpp:399] inception_3a/5x5 -> inception_3a/5x5
I0403 18:07:14.551730 16238 net.cpp:141] Setting up inception_3a/5x5
I0403 18:07:14.551759 16238 net.cpp:148] Top shape: 24 32 28 28 (602112)
I0403 18:07:14.551776 16238 net.cpp:156] Memory required for data: 539493408
I0403 18:07:14.551795 16238 layer_factory.hpp:77] Creating layer inception_3a/relu_5x5
I0403 18:07:14.551818 16238 net.cpp:91] Creating Layer inception_3a/relu_5x5
I0403 18:07:14.551836 16238 net.cpp:425] inception_3a/relu_5x5 <- inception_3a/5x5
I0403 18:07:14.551853 16238 net.cpp:386] inception_3a/relu_5x5 -> inception_3a/5x5 (in-place)
I0403 18:07:14.552040 16238 net.cpp:141] Setting up inception_3a/relu_5x5
I0403 18:07:14.552067 16238 net.cpp:148] Top shape: 24 32 28 28 (602112)
I0403 18:07:14.552083 16238 net.cpp:156] Memory required for data: 541901856
I0403 18:07:14.552098 16238 layer_factory.hpp:77] Creating layer inception_3a/pool
I0403 18:07:14.552120 16238 net.cpp:91] Creating Layer inception_3a/pool
I0403 18:07:14.552152 16238 net.cpp:425] inception_3a/pool <- pool2/3x3_s2_pool2/3x3_s2_0_split_3
I0403 18:07:14.552172 16238 net.cpp:399] inception_3a/pool -> inception_3a/pool
I0403 18:07:14.552233 16238 net.cpp:141] Setting up inception_3a/pool
I0403 18:07:14.552258 16238 net.cpp:148] Top shape: 24 192 28 28 (3612672)
I0403 18:07:14.552274 16238 net.cpp:156] Memory required for data: 556352544
I0403 18:07:14.552289 16238 layer_factory.hpp:77] Creating layer inception_3a/pool_proj
I0403 18:07:14.552312 16238 net.cpp:91] Creating Layer inception_3a/pool_proj
I0403 18:07:14.552331 16238 net.cpp:425] inception_3a/pool_proj <- inception_3a/pool
I0403 18:07:14.552355 16238 net.cpp:399] inception_3a/pool_proj -> inception_3a/pool_proj
I0403 18:07:14.553365 16238 net.cpp:141] Setting up inception_3a/pool_proj
I0403 18:07:14.553396 16238 net.cpp:148] Top shape: 24 32 28 28 (602112)
I0403 18:07:14.553414 16238 net.cpp:156] Memory required for data: 558760992
I0403 18:07:14.553437 16238 layer_factory.hpp:77] Creating layer inception_3a/relu_pool_proj
I0403 18:07:14.553459 16238 net.cpp:91] Creating Layer inception_3a/relu_pool_proj
I0403 18:07:14.553478 16238 net.cpp:425] inception_3a/relu_pool_proj <- inception_3a/pool_proj
I0403 18:07:14.553495 16238 net.cpp:386] inception_3a/relu_pool_proj -> inception_3a/pool_proj (in-place)
I0403 18:07:14.553778 16238 net.cpp:141] Setting up inception_3a/relu_pool_proj
I0403 18:07:14.553807 16238 net.cpp:148] Top shape: 24 32 28 28 (602112)
I0403 18:07:14.553822 16238 net.cpp:156] Memory required for data: 561169440
I0403 18:07:14.553838 16238 layer_factory.hpp:77] Creating layer inception_3a/output
I0403 18:07:14.553859 16238 net.cpp:91] Creating Layer inception_3a/output
I0403 18:07:14.553876 16238 net.cpp:425] inception_3a/output <- inception_3a/1x1
I0403 18:07:14.553894 16238 net.cpp:425] inception_3a/output <- inception_3a/3x3
I0403 18:07:14.553911 16238 net.cpp:425] inception_3a/output <- inception_3a/5x5
I0403 18:07:14.553930 16238 net.cpp:425] inception_3a/output <- inception_3a/pool_proj
I0403 18:07:14.553947 16238 net.cpp:399] inception_3a/output -> inception_3a/output
I0403 18:07:14.553998 16238 net.cpp:141] Setting up inception_3a/output
I0403 18:07:14.554028 16238 net.cpp:148] Top shape: 24 256 28 28 (4816896)
I0403 18:07:14.554044 16238 net.cpp:156] Memory required for data: 580437024
I0403 18:07:14.554059 16238 layer_factory.hpp:77] Creating layer inception_3a/output_inception_3a/output_0_split
I0403 18:07:14.554077 16238 net.cpp:91] Creating Layer inception_3a/output_inception_3a/output_0_split
I0403 18:07:14.554093 16238 net.cpp:425] inception_3a/output_inception_3a/output_0_split <- inception_3a/output
I0403 18:07:14.554113 16238 net.cpp:399] inception_3a/output_inception_3a/output_0_split -> inception_3a/output_inception_3a/output_0_split_0
I0403 18:07:14.554136 16238 net.cpp:399] inception_3a/output_inception_3a/output_0_split -> inception_3a/output_inception_3a/output_0_split_1
I0403 18:07:14.554159 16238 net.cpp:399] inception_3a/output_inception_3a/output_0_split -> inception_3a/output_inception_3a/output_0_split_2
I0403 18:07:14.554182 16238 net.cpp:399] inception_3a/output_inception_3a/output_0_split -> inception_3a/output_inception_3a/output_0_split_3
I0403 18:07:14.554260 16238 net.cpp:141] Setting up inception_3a/output_inception_3a/output_0_split
I0403 18:07:14.554283 16238 net.cpp:148] Top shape: 24 256 28 28 (4816896)
I0403 18:07:14.554301 16238 net.cpp:148] Top shape: 24 256 28 28 (4816896)
I0403 18:07:14.554318 16238 net.cpp:148] Top shape: 24 256 28 28 (4816896)
I0403 18:07:14.554334 16238 net.cpp:148] Top shape: 24 256 28 28 (4816896)
I0403 18:07:14.554349 16238 net.cpp:156] Memory required for data: 657507360
I0403 18:07:14.554364 16238 layer_factory.hpp:77] Creating layer inception_3b/1x1
I0403 18:07:14.554388 16238 net.cpp:91] Creating Layer inception_3b/1x1
I0403 18:07:14.554406 16238 net.cpp:425] inception_3b/1x1 <- inception_3a/output_inception_3a/output_0_split_0
I0403 18:07:14.554428 16238 net.cpp:399] inception_3b/1x1 -> inception_3b/1x1
I0403 18:07:14.555634 16238 net.cpp:141] Setting up inception_3b/1x1
I0403 18:07:14.555675 16238 net.cpp:148] Top shape: 24 128 28 28 (2408448)
I0403 18:07:14.555692 16238 net.cpp:156] Memory required for data: 667141152
I0403 18:07:14.555712 16238 layer_factory.hpp:77] Creating layer inception_3b/relu_1x1
I0403 18:07:14.555732 16238 net.cpp:91] Creating Layer inception_3b/relu_1x1
I0403 18:07:14.555748 16238 net.cpp:425] inception_3b/relu_1x1 <- inception_3b/1x1
I0403 18:07:14.555769 16238 net.cpp:386] inception_3b/relu_1x1 -> inception_3b/1x1 (in-place)
I0403 18:07:14.555958 16238 net.cpp:141] Setting up inception_3b/relu_1x1
I0403 18:07:14.555987 16238 net.cpp:148] Top shape: 24 128 28 28 (2408448)
I0403 18:07:14.556005 16238 net.cpp:156] Memory required for data: 676774944
I0403 18:07:14.556020 16238 layer_factory.hpp:77] Creating layer inception_3b/3x3_reduce
I0403 18:07:14.556043 16238 net.cpp:91] Creating Layer inception_3b/3x3_reduce
I0403 18:07:14.556062 16238 net.cpp:425] inception_3b/3x3_reduce <- inception_3a/output_inception_3a/output_0_split_1
I0403 18:07:14.556085 16238 net.cpp:399] inception_3b/3x3_reduce -> inception_3b/3x3_reduce
I0403 18:07:14.557289 16238 net.cpp:141] Setting up inception_3b/3x3_reduce
I0403 18:07:14.557318 16238 net.cpp:148] Top shape: 24 128 28 28 (2408448)
I0403 18:07:14.557334 16238 net.cpp:156] Memory required for data: 686408736
I0403 18:07:14.557354 16238 layer_factory.hpp:77] Creating layer inception_3b/relu_3x3_reduce
I0403 18:07:14.557374 16238 net.cpp:91] Creating Layer inception_3b/relu_3x3_reduce
I0403 18:07:14.557390 16238 net.cpp:425] inception_3b/relu_3x3_reduce <- inception_3b/3x3_reduce
I0403 18:07:14.557411 16238 net.cpp:386] inception_3b/relu_3x3_reduce -> inception_3b/3x3_reduce (in-place)
I0403 18:07:14.557593 16238 net.cpp:141] Setting up inception_3b/relu_3x3_reduce
I0403 18:07:14.557620 16238 net.cpp:148] Top shape: 24 128 28 28 (2408448)
I0403 18:07:14.557634 16238 net.cpp:156] Memory required for data: 696042528
I0403 18:07:14.557651 16238 layer_factory.hpp:77] Creating layer inception_3b/3x3
I0403 18:07:14.557677 16238 net.cpp:91] Creating Layer inception_3b/3x3
I0403 18:07:14.557696 16238 net.cpp:425] inception_3b/3x3 <- inception_3b/3x3_reduce
I0403 18:07:14.557716 16238 net.cpp:399] inception_3b/3x3 -> inception_3b/3x3
I0403 18:07:14.560796 16238 net.cpp:141] Setting up inception_3b/3x3
I0403 18:07:14.560827 16238 net.cpp:148] Top shape: 24 192 28 28 (3612672)
I0403 18:07:14.560844 16238 net.cpp:156] Memory required for data: 710493216
I0403 18:07:14.560864 16238 layer_factory.hpp:77] Creating layer inception_3b/relu_3x3
I0403 18:07:14.560886 16238 net.cpp:91] Creating Layer inception_3b/relu_3x3
I0403 18:07:14.560904 16238 net.cpp:425] inception_3b/relu_3x3 <- inception_3b/3x3
I0403 18:07:14.560923 16238 net.cpp:386] inception_3b/relu_3x3 -> inception_3b/3x3 (in-place)
I0403 18:07:14.561220 16238 net.cpp:141] Setting up inception_3b/relu_3x3
I0403 18:07:14.561249 16238 net.cpp:148] Top shape: 24 192 28 28 (3612672)
I0403 18:07:14.561264 16238 net.cpp:156] Memory required for data: 724943904
I0403 18:07:14.561280 16238 layer_factory.hpp:77] Creating layer inception_3b/5x5_reduce
I0403 18:07:14.561305 16238 net.cpp:91] Creating Layer inception_3b/5x5_reduce
I0403 18:07:14.561323 16238 net.cpp:425] inception_3b/5x5_reduce <- inception_3a/output_inception_3a/output_0_split_2
I0403 18:07:14.561347 16238 net.cpp:399] inception_3b/5x5_reduce -> inception_3b/5x5_reduce
I0403 18:07:14.562381 16238 net.cpp:141] Setting up inception_3b/5x5_reduce
I0403 18:07:14.562410 16238 net.cpp:148] Top shape: 24 32 28 28 (602112)
I0403 18:07:14.562427 16238 net.cpp:156] Memory required for data: 727352352
I0403 18:07:14.562445 16238 layer_factory.hpp:77] Creating layer inception_3b/relu_5x5_reduce
I0403 18:07:14.562466 16238 net.cpp:91] Creating Layer inception_3b/relu_5x5_reduce
I0403 18:07:14.562484 16238 net.cpp:425] inception_3b/relu_5x5_reduce <- inception_3b/5x5_reduce
I0403 18:07:14.562501 16238 net.cpp:386] inception_3b/relu_5x5_reduce -> inception_3b/5x5_reduce (in-place)
I0403 18:07:14.562705 16238 net.cpp:141] Setting up inception_3b/relu_5x5_reduce
I0403 18:07:14.562731 16238 net.cpp:148] Top shape: 24 32 28 28 (602112)
I0403 18:07:14.562747 16238 net.cpp:156] Memory required for data: 729760800
I0403 18:07:14.562762 16238 layer_factory.hpp:77] Creating layer inception_3b/5x5
I0403 18:07:14.562788 16238 net.cpp:91] Creating Layer inception_3b/5x5
I0403 18:07:14.562806 16238 net.cpp:425] inception_3b/5x5 <- inception_3b/5x5_reduce
I0403 18:07:14.562825 16238 net.cpp:399] inception_3b/5x5 -> inception_3b/5x5
I0403 18:07:14.564828 16238 net.cpp:141] Setting up inception_3b/5x5
I0403 18:07:14.564860 16238 net.cpp:148] Top shape: 24 96 28 28 (1806336)
I0403 18:07:14.564877 16238 net.cpp:156] Memory required for data: 736986144
I0403 18:07:14.564896 16238 layer_factory.hpp:77] Creating layer inception_3b/relu_5x5
I0403 18:07:14.564914 16238 net.cpp:91] Creating Layer inception_3b/relu_5x5
I0403 18:07:14.564932 16238 net.cpp:425] inception_3b/relu_5x5 <- inception_3b/5x5
I0403 18:07:14.564952 16238 net.cpp:386] inception_3b/relu_5x5 -> inception_3b/5x5 (in-place)
I0403 18:07:14.565152 16238 net.cpp:141] Setting up inception_3b/relu_5x5
I0403 18:07:14.565178 16238 net.cpp:148] Top shape: 24 96 28 28 (1806336)
I0403 18:07:14.565193 16238 net.cpp:156] Memory required for data: 744211488
I0403 18:07:14.565208 16238 layer_factory.hpp:77] Creating layer inception_3b/pool
I0403 18:07:14.565227 16238 net.cpp:91] Creating Layer inception_3b/pool
I0403 18:07:14.565243 16238 net.cpp:425] inception_3b/pool <- inception_3a/output_inception_3a/output_0_split_3
I0403 18:07:14.565263 16238 net.cpp:399] inception_3b/pool -> inception_3b/pool
I0403 18:07:14.565322 16238 net.cpp:141] Setting up inception_3b/pool
I0403 18:07:14.565346 16238 net.cpp:148] Top shape: 24 256 28 28 (4816896)
I0403 18:07:14.565361 16238 net.cpp:156] Memory required for data: 763479072
I0403 18:07:14.565376 16238 layer_factory.hpp:77] Creating layer inception_3b/pool_proj
I0403 18:07:14.565398 16238 net.cpp:91] Creating Layer inception_3b/pool_proj
I0403 18:07:14.565417 16238 net.cpp:425] inception_3b/pool_proj <- inception_3b/pool
I0403 18:07:14.565438 16238 net.cpp:399] inception_3b/pool_proj -> inception_3b/pool_proj
I0403 18:07:14.566532 16238 net.cpp:141] Setting up inception_3b/pool_proj
I0403 18:07:14.566560 16238 net.cpp:148] Top shape: 24 64 28 28 (1204224)
I0403 18:07:14.566576 16238 net.cpp:156] Memory required for data: 768295968
I0403 18:07:14.566596 16238 layer_factory.hpp:77] Creating layer inception_3b/relu_pool_proj
I0403 18:07:14.566617 16238 net.cpp:91] Creating Layer inception_3b/relu_pool_proj
I0403 18:07:14.566635 16238 net.cpp:425] inception_3b/relu_pool_proj <- inception_3b/pool_proj
I0403 18:07:14.566653 16238 net.cpp:386] inception_3b/relu_pool_proj -> inception_3b/pool_proj (in-place)
I0403 18:07:14.567055 16238 net.cpp:141] Setting up inception_3b/relu_pool_proj
I0403 18:07:14.567082 16238 net.cpp:148] Top shape: 24 64 28 28 (1204224)
I0403 18:07:14.567098 16238 net.cpp:156] Memory required for data: 773112864
I0403 18:07:14.567114 16238 layer_factory.hpp:77] Creating layer inception_3b/output
I0403 18:07:14.567134 16238 net.cpp:91] Creating Layer inception_3b/output
I0403 18:07:14.567152 16238 net.cpp:425] inception_3b/output <- inception_3b/1x1
I0403 18:07:14.567168 16238 net.cpp:425] inception_3b/output <- inception_3b/3x3
I0403 18:07:14.567185 16238 net.cpp:425] inception_3b/output <- inception_3b/5x5
I0403 18:07:14.567201 16238 net.cpp:425] inception_3b/output <- inception_3b/pool_proj
I0403 18:07:14.567219 16238 net.cpp:399] inception_3b/output -> inception_3b/output
I0403 18:07:14.567265 16238 net.cpp:141] Setting up inception_3b/output
I0403 18:07:14.567291 16238 net.cpp:148] Top shape: 24 480 28 28 (9031680)
I0403 18:07:14.567306 16238 net.cpp:156] Memory required for data: 809239584
I0403 18:07:14.567320 16238 layer_factory.hpp:77] Creating layer pool3/3x3_s2
I0403 18:07:14.567338 16238 net.cpp:91] Creating Layer pool3/3x3_s2
I0403 18:07:14.567358 16238 net.cpp:425] pool3/3x3_s2 <- inception_3b/output
I0403 18:07:14.567391 16238 net.cpp:399] pool3/3x3_s2 -> pool3/3x3_s2
I0403 18:07:14.567452 16238 net.cpp:141] Setting up pool3/3x3_s2
I0403 18:07:14.567476 16238 net.cpp:148] Top shape: 24 480 14 14 (2257920)
I0403 18:07:14.567492 16238 net.cpp:156] Memory required for data: 818271264
I0403 18:07:14.567507 16238 layer_factory.hpp:77] Creating layer pool3/3x3_s2_pool3/3x3_s2_0_split
I0403 18:07:14.567523 16238 net.cpp:91] Creating Layer pool3/3x3_s2_pool3/3x3_s2_0_split
I0403 18:07:14.567539 16238 net.cpp:425] pool3/3x3_s2_pool3/3x3_s2_0_split <- pool3/3x3_s2
I0403 18:07:14.567560 16238 net.cpp:399] pool3/3x3_s2_pool3/3x3_s2_0_split -> pool3/3x3_s2_pool3/3x3_s2_0_split_0
I0403 18:07:14.567581 16238 net.cpp:399] pool3/3x3_s2_pool3/3x3_s2_0_split -> pool3/3x3_s2_pool3/3x3_s2_0_split_1
I0403 18:07:14.567602 16238 net.cpp:399] pool3/3x3_s2_pool3/3x3_s2_0_split -> pool3/3x3_s2_pool3/3x3_s2_0_split_2
I0403 18:07:14.567621 16238 net.cpp:399] pool3/3x3_s2_pool3/3x3_s2_0_split -> pool3/3x3_s2_pool3/3x3_s2_0_split_3
I0403 18:07:14.567701 16238 net.cpp:141] Setting up pool3/3x3_s2_pool3/3x3_s2_0_split
I0403 18:07:14.567724 16238 net.cpp:148] Top shape: 24 480 14 14 (2257920)
I0403 18:07:14.567741 16238 net.cpp:148] Top shape: 24 480 14 14 (2257920)
I0403 18:07:14.567757 16238 net.cpp:148] Top shape: 24 480 14 14 (2257920)
I0403 18:07:14.567773 16238 net.cpp:148] Top shape: 24 480 14 14 (2257920)
I0403 18:07:14.567787 16238 net.cpp:156] Memory required for data: 854397984
I0403 18:07:14.567802 16238 layer_factory.hpp:77] Creating layer inception_4a/1x1
I0403 18:07:14.567827 16238 net.cpp:91] Creating Layer inception_4a/1x1
I0403 18:07:14.567845 16238 net.cpp:425] inception_4a/1x1 <- pool3/3x3_s2_pool3/3x3_s2_0_split_0
I0403 18:07:14.567864 16238 net.cpp:399] inception_4a/1x1 -> inception_4a/1x1
I0403 18:07:14.569496 16238 net.cpp:141] Setting up inception_4a/1x1
I0403 18:07:14.569527 16238 net.cpp:148] Top shape: 24 192 14 14 (903168)
I0403 18:07:14.569550 16238 net.cpp:156] Memory required for data: 858010656
I0403 18:07:14.569569 16238 layer_factory.hpp:77] Creating layer inception_4a/relu_1x1
I0403 18:07:14.569588 16238 net.cpp:91] Creating Layer inception_4a/relu_1x1
I0403 18:07:14.569605 16238 net.cpp:425] inception_4a/relu_1x1 <- inception_4a/1x1
I0403 18:07:14.569627 16238 net.cpp:386] inception_4a/relu_1x1 -> inception_4a/1x1 (in-place)
I0403 18:07:14.569807 16238 net.cpp:141] Setting up inception_4a/relu_1x1
I0403 18:07:14.569831 16238 net.cpp:148] Top shape: 24 192 14 14 (903168)
I0403 18:07:14.569846 16238 net.cpp:156] Memory required for data: 861623328
I0403 18:07:14.569861 16238 layer_factory.hpp:77] Creating layer inception_4a/3x3_reduce
I0403 18:07:14.569886 16238 net.cpp:91] Creating Layer inception_4a/3x3_reduce
I0403 18:07:14.569905 16238 net.cpp:425] inception_4a/3x3_reduce <- pool3/3x3_s2_pool3/3x3_s2_0_split_1
I0403 18:07:14.569928 16238 net.cpp:399] inception_4a/3x3_reduce -> inception_4a/3x3_reduce
I0403 18:07:14.571244 16238 net.cpp:141] Setting up inception_4a/3x3_reduce
I0403 18:07:14.571274 16238 net.cpp:148] Top shape: 24 96 14 14 (451584)
I0403 18:07:14.571290 16238 net.cpp:156] Memory required for data: 863429664
I0403 18:07:14.571313 16238 layer_factory.hpp:77] Creating layer inception_4a/relu_3x3_reduce
I0403 18:07:14.571336 16238 net.cpp:91] Creating Layer inception_4a/relu_3x3_reduce
I0403 18:07:14.571353 16238 net.cpp:425] inception_4a/relu_3x3_reduce <- inception_4a/3x3_reduce
I0403 18:07:14.571372 16238 net.cpp:386] inception_4a/relu_3x3_reduce -> inception_4a/3x3_reduce (in-place)
I0403 18:07:14.571552 16238 net.cpp:141] Setting up inception_4a/relu_3x3_reduce
I0403 18:07:14.571576 16238 net.cpp:148] Top shape: 24 96 14 14 (451584)
I0403 18:07:14.571591 16238 net.cpp:156] Memory required for data: 865236000
I0403 18:07:14.571607 16238 layer_factory.hpp:77] Creating layer inception_4a/3x3
I0403 18:07:14.571630 16238 net.cpp:91] Creating Layer inception_4a/3x3
I0403 18:07:14.571648 16238 net.cpp:425] inception_4a/3x3 <- inception_4a/3x3_reduce
I0403 18:07:14.571669 16238 net.cpp:399] inception_4a/3x3 -> inception_4a/3x3
I0403 18:07:14.574409 16238 net.cpp:141] Setting up inception_4a/3x3
I0403 18:07:14.574440 16238 net.cpp:148] Top shape: 24 208 14 14 (978432)
I0403 18:07:14.574456 16238 net.cpp:156] Memory required for data: 869149728
I0403 18:07:14.574486 16238 layer_factory.hpp:77] Creating layer inception_4a/relu_3x3
I0403 18:07:14.574504 16238 net.cpp:91] Creating Layer inception_4a/relu_3x3
I0403 18:07:14.574525 16238 net.cpp:425] inception_4a/relu_3x3 <- inception_4a/3x3
I0403 18:07:14.574543 16238 net.cpp:386] inception_4a/relu_3x3 -> inception_4a/3x3 (in-place)
I0403 18:07:14.574831 16238 net.cpp:141] Setting up inception_4a/relu_3x3
I0403 18:07:14.574857 16238 net.cpp:148] Top shape: 24 208 14 14 (978432)
I0403 18:07:14.574873 16238 net.cpp:156] Memory required for data: 873063456
I0403 18:07:14.574889 16238 layer_factory.hpp:77] Creating layer inception_4a/5x5_reduce
I0403 18:07:14.574923 16238 net.cpp:91] Creating Layer inception_4a/5x5_reduce
I0403 18:07:14.574941 16238 net.cpp:425] inception_4a/5x5_reduce <- pool3/3x3_s2_pool3/3x3_s2_0_split_2
I0403 18:07:14.574964 16238 net.cpp:399] inception_4a/5x5_reduce -> inception_4a/5x5_reduce
I0403 18:07:14.576052 16238 net.cpp:141] Setting up inception_4a/5x5_reduce
I0403 18:07:14.576082 16238 net.cpp:148] Top shape: 24 16 14 14 (75264)
I0403 18:07:14.576098 16238 net.cpp:156] Memory required for data: 873364512
I0403 18:07:14.576118 16238 layer_factory.hpp:77] Creating layer inception_4a/relu_5x5_reduce
I0403 18:07:14.576140 16238 net.cpp:91] Creating Layer inception_4a/relu_5x5_reduce
I0403 18:07:14.576159 16238 net.cpp:425] inception_4a/relu_5x5_reduce <- inception_4a/5x5_reduce
I0403 18:07:14.576176 16238 net.cpp:386] inception_4a/relu_5x5_reduce -> inception_4a/5x5_reduce (in-place)
I0403 18:07:14.576364 16238 net.cpp:141] Setting up inception_4a/relu_5x5_reduce
I0403 18:07:14.576390 16238 net.cpp:148] Top shape: 24 16 14 14 (75264)
I0403 18:07:14.576406 16238 net.cpp:156] Memory required for data: 873665568
I0403 18:07:14.576421 16238 layer_factory.hpp:77] Creating layer inception_4a/5x5
I0403 18:07:14.576447 16238 net.cpp:91] Creating Layer inception_4a/5x5
I0403 18:07:14.576465 16238 net.cpp:425] inception_4a/5x5 <- inception_4a/5x5_reduce
I0403 18:07:14.576485 16238 net.cpp:399] inception_4a/5x5 -> inception_4a/5x5
I0403 18:07:14.577618 16238 net.cpp:141] Setting up inception_4a/5x5
I0403 18:07:14.577647 16238 net.cpp:148] Top shape: 24 48 14 14 (225792)
I0403 18:07:14.577667 16238 net.cpp:156] Memory required for data: 874568736
I0403 18:07:14.577687 16238 layer_factory.hpp:77] Creating layer inception_4a/relu_5x5
I0403 18:07:14.577705 16238 net.cpp:91] Creating Layer inception_4a/relu_5x5
I0403 18:07:14.577723 16238 net.cpp:425] inception_4a/relu_5x5 <- inception_4a/5x5
I0403 18:07:14.577741 16238 net.cpp:386] inception_4a/relu_5x5 -> inception_4a/5x5 (in-place)
I0403 18:07:14.577931 16238 net.cpp:141] Setting up inception_4a/relu_5x5
I0403 18:07:14.577960 16238 net.cpp:148] Top shape: 24 48 14 14 (225792)
I0403 18:07:14.577975 16238 net.cpp:156] Memory required for data: 875471904
I0403 18:07:14.578003 16238 layer_factory.hpp:77] Creating layer inception_4a/pool
I0403 18:07:14.578022 16238 net.cpp:91] Creating Layer inception_4a/pool
I0403 18:07:14.578039 16238 net.cpp:425] inception_4a/pool <- pool3/3x3_s2_pool3/3x3_s2_0_split_3
I0403 18:07:14.578061 16238 net.cpp:399] inception_4a/pool -> inception_4a/pool
I0403 18:07:14.578125 16238 net.cpp:141] Setting up inception_4a/pool
I0403 18:07:14.578153 16238 net.cpp:148] Top shape: 24 480 14 14 (2257920)
I0403 18:07:14.578169 16238 net.cpp:156] Memory required for data: 884503584
I0403 18:07:14.578184 16238 layer_factory.hpp:77] Creating layer inception_4a/pool_proj
I0403 18:07:14.578205 16238 net.cpp:91] Creating Layer inception_4a/pool_proj
I0403 18:07:14.578223 16238 net.cpp:425] inception_4a/pool_proj <- inception_4a/pool
I0403 18:07:14.578246 16238 net.cpp:399] inception_4a/pool_proj -> inception_4a/pool_proj
I0403 18:07:14.579468 16238 net.cpp:141] Setting up inception_4a/pool_proj
I0403 18:07:14.579502 16238 net.cpp:148] Top shape: 24 64 14 14 (301056)
I0403 18:07:14.579535 16238 net.cpp:156] Memory required for data: 885707808
I0403 18:07:14.579555 16238 layer_factory.hpp:77] Creating layer inception_4a/relu_pool_proj
I0403 18:07:14.579576 16238 net.cpp:91] Creating Layer inception_4a/relu_pool_proj
I0403 18:07:14.579592 16238 net.cpp:425] inception_4a/relu_pool_proj <- inception_4a/pool_proj
I0403 18:07:14.579610 16238 net.cpp:386] inception_4a/relu_pool_proj -> inception_4a/pool_proj (in-place)
I0403 18:07:14.579908 16238 net.cpp:141] Setting up inception_4a/relu_pool_proj
I0403 18:07:14.579941 16238 net.cpp:148] Top shape: 24 64 14 14 (301056)
I0403 18:07:14.579957 16238 net.cpp:156] Memory required for data: 886912032
I0403 18:07:14.579973 16238 layer_factory.hpp:77] Creating layer inception_4a/output
I0403 18:07:14.579996 16238 net.cpp:91] Creating Layer inception_4a/output
I0403 18:07:14.580014 16238 net.cpp:425] inception_4a/output <- inception_4a/1x1
I0403 18:07:14.580031 16238 net.cpp:425] inception_4a/output <- inception_4a/3x3
I0403 18:07:14.580049 16238 net.cpp:425] inception_4a/output <- inception_4a/5x5
I0403 18:07:14.580065 16238 net.cpp:425] inception_4a/output <- inception_4a/pool_proj
I0403 18:07:14.580083 16238 net.cpp:399] inception_4a/output -> inception_4a/output
I0403 18:07:14.580132 16238 net.cpp:141] Setting up inception_4a/output
I0403 18:07:14.580157 16238 net.cpp:148] Top shape: 24 512 14 14 (2408448)
I0403 18:07:14.580171 16238 net.cpp:156] Memory required for data: 896545824
I0403 18:07:14.580188 16238 layer_factory.hpp:77] Creating layer inception_4a/output_inception_4a/output_0_split
I0403 18:07:14.580207 16238 net.cpp:91] Creating Layer inception_4a/output_inception_4a/output_0_split
I0403 18:07:14.580225 16238 net.cpp:425] inception_4a/output_inception_4a/output_0_split <- inception_4a/output
I0403 18:07:14.580245 16238 net.cpp:399] inception_4a/output_inception_4a/output_0_split -> inception_4a/output_inception_4a/output_0_split_0
I0403 18:07:14.580266 16238 net.cpp:399] inception_4a/output_inception_4a/output_0_split -> inception_4a/output_inception_4a/output_0_split_1
I0403 18:07:14.580287 16238 net.cpp:399] inception_4a/output_inception_4a/output_0_split -> inception_4a/output_inception_4a/output_0_split_2
I0403 18:07:14.580309 16238 net.cpp:399] inception_4a/output_inception_4a/output_0_split -> inception_4a/output_inception_4a/output_0_split_3
I0403 18:07:14.580332 16238 net.cpp:399] inception_4a/output_inception_4a/output_0_split -> inception_4a/output_inception_4a/output_0_split_4
I0403 18:07:14.580427 16238 net.cpp:141] Setting up inception_4a/output_inception_4a/output_0_split
I0403 18:07:14.580452 16238 net.cpp:148] Top shape: 24 512 14 14 (2408448)
I0403 18:07:14.580469 16238 net.cpp:148] Top shape: 24 512 14 14 (2408448)
I0403 18:07:14.580487 16238 net.cpp:148] Top shape: 24 512 14 14 (2408448)
I0403 18:07:14.580502 16238 net.cpp:148] Top shape: 24 512 14 14 (2408448)
I0403 18:07:14.580518 16238 net.cpp:148] Top shape: 24 512 14 14 (2408448)
I0403 18:07:14.580533 16238 net.cpp:156] Memory required for data: 944714784
I0403 18:07:14.580549 16238 layer_factory.hpp:77] Creating layer loss1/ave_pool
I0403 18:07:14.580569 16238 net.cpp:91] Creating Layer loss1/ave_pool
I0403 18:07:14.580586 16238 net.cpp:425] loss1/ave_pool <- inception_4a/output_inception_4a/output_0_split_0
I0403 18:07:14.580605 16238 net.cpp:399] loss1/ave_pool -> loss1/ave_pool
I0403 18:07:14.580822 16238 net.cpp:141] Setting up loss1/ave_pool
I0403 18:07:14.580852 16238 net.cpp:148] Top shape: 24 512 4 4 (196608)
I0403 18:07:14.580868 16238 net.cpp:156] Memory required for data: 945501216
I0403 18:07:14.580884 16238 layer_factory.hpp:77] Creating layer loss1/conv
I0403 18:07:14.580909 16238 net.cpp:91] Creating Layer loss1/conv
I0403 18:07:14.580929 16238 net.cpp:425] loss1/conv <- loss1/ave_pool
I0403 18:07:14.580947 16238 net.cpp:399] loss1/conv -> loss1/conv
I0403 18:07:14.582433 16238 net.cpp:141] Setting up loss1/conv
I0403 18:07:14.582463 16238 net.cpp:148] Top shape: 24 128 4 4 (49152)
I0403 18:07:14.582496 16238 net.cpp:156] Memory required for data: 945697824
I0403 18:07:14.582517 16238 layer_factory.hpp:77] Creating layer loss1/relu_conv
I0403 18:07:14.582540 16238 net.cpp:91] Creating Layer loss1/relu_conv
I0403 18:07:14.582557 16238 net.cpp:425] loss1/relu_conv <- loss1/conv
I0403 18:07:14.582576 16238 net.cpp:386] loss1/relu_conv -> loss1/conv (in-place)
I0403 18:07:14.582872 16238 net.cpp:141] Setting up loss1/relu_conv
I0403 18:07:14.582900 16238 net.cpp:148] Top shape: 24 128 4 4 (49152)
I0403 18:07:14.582916 16238 net.cpp:156] Memory required for data: 945894432
I0403 18:07:14.582931 16238 layer_factory.hpp:77] Creating layer loss1/fc
I0403 18:07:14.582958 16238 net.cpp:91] Creating Layer loss1/fc
I0403 18:07:14.582981 16238 net.cpp:425] loss1/fc <- loss1/conv
I0403 18:07:14.583003 16238 net.cpp:399] loss1/fc -> loss1/fc
I0403 18:07:14.601526 16238 net.cpp:141] Setting up loss1/fc
I0403 18:07:14.601562 16238 net.cpp:148] Top shape: 24 1024 (24576)
I0403 18:07:14.601579 16238 net.cpp:156] Memory required for data: 945992736
I0403 18:07:14.601598 16238 layer_factory.hpp:77] Creating layer loss1/relu_fc
I0403 18:07:14.601619 16238 net.cpp:91] Creating Layer loss1/relu_fc
I0403 18:07:14.601635 16238 net.cpp:425] loss1/relu_fc <- loss1/fc
I0403 18:07:14.601655 16238 net.cpp:386] loss1/relu_fc -> loss1/fc (in-place)
I0403 18:07:14.601850 16238 net.cpp:141] Setting up loss1/relu_fc
I0403 18:07:14.601874 16238 net.cpp:148] Top shape: 24 1024 (24576)
I0403 18:07:14.601889 16238 net.cpp:156] Memory required for data: 946091040
I0403 18:07:14.601904 16238 layer_factory.hpp:77] Creating layer loss1/drop_fc
I0403 18:07:14.601933 16238 net.cpp:91] Creating Layer loss1/drop_fc
I0403 18:07:14.601950 16238 net.cpp:425] loss1/drop_fc <- loss1/fc
I0403 18:07:14.601970 16238 net.cpp:386] loss1/drop_fc -> loss1/fc (in-place)
I0403 18:07:14.602027 16238 net.cpp:141] Setting up loss1/drop_fc
I0403 18:07:14.602051 16238 net.cpp:148] Top shape: 24 1024 (24576)
I0403 18:07:14.602066 16238 net.cpp:156] Memory required for data: 946189344
I0403 18:07:14.602082 16238 layer_factory.hpp:77] Creating layer loss1/classifier_plantvillage
I0403 18:07:14.602104 16238 net.cpp:91] Creating Layer loss1/classifier_plantvillage
I0403 18:07:14.602123 16238 net.cpp:425] loss1/classifier_plantvillage <- loss1/fc
I0403 18:07:14.602144 16238 net.cpp:399] loss1/classifier_plantvillage -> loss1/classifier_plantvillage
I0403 18:07:14.603070 16238 net.cpp:141] Setting up loss1/classifier_plantvillage
I0403 18:07:14.603101 16238 net.cpp:148] Top shape: 24 38 (912)
I0403 18:07:14.603117 16238 net.cpp:156] Memory required for data: 946192992
I0403 18:07:14.603137 16238 layer_factory.hpp:77] Creating layer loss1/classifier_plantvillage_loss1/classifier_plantvillage_0_split
I0403 18:07:14.603154 16238 net.cpp:91] Creating Layer loss1/classifier_plantvillage_loss1/classifier_plantvillage_0_split
I0403 18:07:14.603170 16238 net.cpp:425] loss1/classifier_plantvillage_loss1/classifier_plantvillage_0_split <- loss1/classifier_plantvillage
I0403 18:07:14.603191 16238 net.cpp:399] loss1/classifier_plantvillage_loss1/classifier_plantvillage_0_split -> loss1/classifier_plantvillage_loss1/classifier_plantvillage_0_split_0
I0403 18:07:14.603214 16238 net.cpp:399] loss1/classifier_plantvillage_loss1/classifier_plantvillage_0_split -> loss1/classifier_plantvillage_loss1/classifier_plantvillage_0_split_1
I0403 18:07:14.603234 16238 net.cpp:399] loss1/classifier_plantvillage_loss1/classifier_plantvillage_0_split -> loss1/classifier_plantvillage_loss1/classifier_plantvillage_0_split_2
I0403 18:07:14.603301 16238 net.cpp:141] Setting up loss1/classifier_plantvillage_loss1/classifier_plantvillage_0_split
I0403 18:07:14.603324 16238 net.cpp:148] Top shape: 24 38 (912)
I0403 18:07:14.603341 16238 net.cpp:148] Top shape: 24 38 (912)
I0403 18:07:14.603358 16238 net.cpp:148] Top shape: 24 38 (912)
I0403 18:07:14.603371 16238 net.cpp:156] Memory required for data: 946203936
I0403 18:07:14.603386 16238 layer_factory.hpp:77] Creating layer inception_4b/1x1
I0403 18:07:14.603410 16238 net.cpp:91] Creating Layer inception_4b/1x1
I0403 18:07:14.603442 16238 net.cpp:425] inception_4b/1x1 <- inception_4a/output_inception_4a/output_0_split_1
I0403 18:07:14.603464 16238 net.cpp:399] inception_4b/1x1 -> inception_4b/1x1
I0403 18:07:14.605152 16238 net.cpp:141] Setting up inception_4b/1x1
I0403 18:07:14.605181 16238 net.cpp:148] Top shape: 24 160 14 14 (752640)
I0403 18:07:14.605197 16238 net.cpp:156] Memory required for data: 949214496
I0403 18:07:14.605216 16238 layer_factory.hpp:77] Creating layer inception_4b/relu_1x1
I0403 18:07:14.605237 16238 net.cpp:91] Creating Layer inception_4b/relu_1x1
I0403 18:07:14.605254 16238 net.cpp:425] inception_4b/relu_1x1 <- inception_4b/1x1
I0403 18:07:14.605273 16238 net.cpp:386] inception_4b/relu_1x1 -> inception_4b/1x1 (in-place)
I0403 18:07:14.605458 16238 net.cpp:141] Setting up inception_4b/relu_1x1
I0403 18:07:14.605484 16238 net.cpp:148] Top shape: 24 160 14 14 (752640)
I0403 18:07:14.605499 16238 net.cpp:156] Memory required for data: 952225056
I0403 18:07:14.605514 16238 layer_factory.hpp:77] Creating layer inception_4b/3x3_reduce
I0403 18:07:14.605536 16238 net.cpp:91] Creating Layer inception_4b/3x3_reduce
I0403 18:07:14.605556 16238 net.cpp:425] inception_4b/3x3_reduce <- inception_4a/output_inception_4a/output_0_split_2
I0403 18:07:14.605576 16238 net.cpp:399] inception_4b/3x3_reduce -> inception_4b/3x3_reduce
I0403 18:07:14.606958 16238 net.cpp:141] Setting up inception_4b/3x3_reduce
I0403 18:07:14.606992 16238 net.cpp:148] Top shape: 24 112 14 14 (526848)
I0403 18:07:14.607008 16238 net.cpp:156] Memory required for data: 954332448
I0403 18:07:14.607028 16238 layer_factory.hpp:77] Creating layer inception_4b/relu_3x3_reduce
I0403 18:07:14.607048 16238 net.cpp:91] Creating Layer inception_4b/relu_3x3_reduce
I0403 18:07:14.607066 16238 net.cpp:425] inception_4b/relu_3x3_reduce <- inception_4b/3x3_reduce
I0403 18:07:14.607084 16238 net.cpp:386] inception_4b/relu_3x3_reduce -> inception_4b/3x3_reduce (in-place)
I0403 18:07:14.607370 16238 net.cpp:141] Setting up inception_4b/relu_3x3_reduce
I0403 18:07:14.607398 16238 net.cpp:148] Top shape: 24 112 14 14 (526848)
I0403 18:07:14.607414 16238 net.cpp:156] Memory required for data: 956439840
I0403 18:07:14.607429 16238 layer_factory.hpp:77] Creating layer inception_4b/3x3
I0403 18:07:14.607451 16238 net.cpp:91] Creating Layer inception_4b/3x3
I0403 18:07:14.607470 16238 net.cpp:425] inception_4b/3x3 <- inception_4b/3x3_reduce
I0403 18:07:14.607491 16238 net.cpp:399] inception_4b/3x3 -> inception_4b/3x3
I0403 18:07:14.610579 16238 net.cpp:141] Setting up inception_4b/3x3
I0403 18:07:14.610610 16238 net.cpp:148] Top shape: 24 224 14 14 (1053696)
I0403 18:07:14.610627 16238 net.cpp:156] Memory required for data: 960654624
I0403 18:07:14.610646 16238 layer_factory.hpp:77] Creating layer inception_4b/relu_3x3
I0403 18:07:14.610666 16238 net.cpp:91] Creating Layer inception_4b/relu_3x3
I0403 18:07:14.610682 16238 net.cpp:425] inception_4b/relu_3x3 <- inception_4b/3x3
I0403 18:07:14.610702 16238 net.cpp:386] inception_4b/relu_3x3 -> inception_4b/3x3 (in-place)
I0403 18:07:14.610893 16238 net.cpp:141] Setting up inception_4b/relu_3x3
I0403 18:07:14.610918 16238 net.cpp:148] Top shape: 24 224 14 14 (1053696)
I0403 18:07:14.610934 16238 net.cpp:156] Memory required for data: 964869408
I0403 18:07:14.610949 16238 layer_factory.hpp:77] Creating layer inception_4b/5x5_reduce
I0403 18:07:14.610971 16238 net.cpp:91] Creating Layer inception_4b/5x5_reduce
I0403 18:07:14.610996 16238 net.cpp:425] inception_4b/5x5_reduce <- inception_4a/output_inception_4a/output_0_split_3
I0403 18:07:14.611018 16238 net.cpp:399] inception_4b/5x5_reduce -> inception_4b/5x5_reduce
I0403 18:07:14.612126 16238 net.cpp:141] Setting up inception_4b/5x5_reduce
I0403 18:07:14.612154 16238 net.cpp:148] Top shape: 24 24 14 14 (112896)
I0403 18:07:14.612171 16238 net.cpp:156] Memory required for data: 965320992
I0403 18:07:14.612190 16238 layer_factory.hpp:77] Creating layer inception_4b/relu_5x5_reduce
I0403 18:07:14.612211 16238 net.cpp:91] Creating Layer inception_4b/relu_5x5_reduce
I0403 18:07:14.612243 16238 net.cpp:425] inception_4b/relu_5x5_reduce <- inception_4b/5x5_reduce
I0403 18:07:14.612262 16238 net.cpp:386] inception_4b/relu_5x5_reduce -> inception_4b/5x5_reduce (in-place)
I0403 18:07:14.612449 16238 net.cpp:141] Setting up inception_4b/relu_5x5_reduce
I0403 18:07:14.612478 16238 net.cpp:148] Top shape: 24 24 14 14 (112896)
I0403 18:07:14.612493 16238 net.cpp:156] Memory required for data: 965772576
I0403 18:07:14.612509 16238 layer_factory.hpp:77] Creating layer inception_4b/5x5
I0403 18:07:14.612530 16238 net.cpp:91] Creating Layer inception_4b/5x5
I0403 18:07:14.612548 16238 net.cpp:425] inception_4b/5x5 <- inception_4b/5x5_reduce
I0403 18:07:14.612568 16238 net.cpp:399] inception_4b/5x5 -> inception_4b/5x5
I0403 18:07:14.613826 16238 net.cpp:141] Setting up inception_4b/5x5
I0403 18:07:14.613854 16238 net.cpp:148] Top shape: 24 64 14 14 (301056)
I0403 18:07:14.613870 16238 net.cpp:156] Memory required for data: 966976800
I0403 18:07:14.613889 16238 layer_factory.hpp:77] Creating layer inception_4b/relu_5x5
I0403 18:07:14.613910 16238 net.cpp:91] Creating Layer inception_4b/relu_5x5
I0403 18:07:14.613930 16238 net.cpp:425] inception_4b/relu_5x5 <- inception_4b/5x5
I0403 18:07:14.613948 16238 net.cpp:386] inception_4b/relu_5x5 -> inception_4b/5x5 (in-place)
I0403 18:07:14.614248 16238 net.cpp:141] Setting up inception_4b/relu_5x5
I0403 18:07:14.614275 16238 net.cpp:148] Top shape: 24 64 14 14 (301056)
I0403 18:07:14.614291 16238 net.cpp:156] Memory required for data: 968181024
I0403 18:07:14.614306 16238 layer_factory.hpp:77] Creating layer inception_4b/pool
I0403 18:07:14.614326 16238 net.cpp:91] Creating Layer inception_4b/pool
I0403 18:07:14.614342 16238 net.cpp:425] inception_4b/pool <- inception_4a/output_inception_4a/output_0_split_4
I0403 18:07:14.614364 16238 net.cpp:399] inception_4b/pool -> inception_4b/pool
I0403 18:07:14.614431 16238 net.cpp:141] Setting up inception_4b/pool
I0403 18:07:14.614455 16238 net.cpp:148] Top shape: 24 512 14 14 (2408448)
I0403 18:07:14.614480 16238 net.cpp:156] Memory required for data: 977814816
I0403 18:07:14.614495 16238 layer_factory.hpp:77] Creating layer inception_4b/pool_proj
I0403 18:07:14.614517 16238 net.cpp:91] Creating Layer inception_4b/pool_proj
I0403 18:07:14.614536 16238 net.cpp:425] inception_4b/pool_proj <- inception_4b/pool
I0403 18:07:14.614557 16238 net.cpp:399] inception_4b/pool_proj -> inception_4b/pool_proj
I0403 18:07:14.615792 16238 net.cpp:141] Setting up inception_4b/pool_proj
I0403 18:07:14.615820 16238 net.cpp:148] Top shape: 24 64 14 14 (301056)
I0403 18:07:14.615836 16238 net.cpp:156] Memory required for data: 979019040
I0403 18:07:14.615855 16238 layer_factory.hpp:77] Creating layer inception_4b/relu_pool_proj
I0403 18:07:14.615877 16238 net.cpp:91] Creating Layer inception_4b/relu_pool_proj
I0403 18:07:14.615896 16238 net.cpp:425] inception_4b/relu_pool_proj <- inception_4b/pool_proj
I0403 18:07:14.615914 16238 net.cpp:386] inception_4b/relu_pool_proj -> inception_4b/pool_proj (in-place)
I0403 18:07:14.616107 16238 net.cpp:141] Setting up inception_4b/relu_pool_proj
I0403 18:07:14.616133 16238 net.cpp:148] Top shape: 24 64 14 14 (301056)
I0403 18:07:14.616148 16238 net.cpp:156] Memory required for data: 980223264
I0403 18:07:14.616164 16238 layer_factory.hpp:77] Creating layer inception_4b/output
I0403 18:07:14.616184 16238 net.cpp:91] Creating Layer inception_4b/output
I0403 18:07:14.616202 16238 net.cpp:425] inception_4b/output <- inception_4b/1x1
I0403 18:07:14.616219 16238 net.cpp:425] inception_4b/output <- inception_4b/3x3
I0403 18:07:14.616235 16238 net.cpp:425] inception_4b/output <- inception_4b/5x5
I0403 18:07:14.616251 16238 net.cpp:425] inception_4b/output <- inception_4b/pool_proj
I0403 18:07:14.616268 16238 net.cpp:399] inception_4b/output -> inception_4b/output
I0403 18:07:14.616317 16238 net.cpp:141] Setting up inception_4b/output
I0403 18:07:14.616341 16238 net.cpp:148] Top shape: 24 512 14 14 (2408448)
I0403 18:07:14.616356 16238 net.cpp:156] Memory required for data: 989857056
I0403 18:07:14.616385 16238 layer_factory.hpp:77] Creating layer inception_4b/output_inception_4b/output_0_split
I0403 18:07:14.616405 16238 net.cpp:91] Creating Layer inception_4b/output_inception_4b/output_0_split
I0403 18:07:14.616421 16238 net.cpp:425] inception_4b/output_inception_4b/output_0_split <- inception_4b/output
I0403 18:07:14.616441 16238 net.cpp:399] inception_4b/output_inception_4b/output_0_split -> inception_4b/output_inception_4b/output_0_split_0
I0403 18:07:14.616464 16238 net.cpp:399] inception_4b/output_inception_4b/output_0_split -> inception_4b/output_inception_4b/output_0_split_1
I0403 18:07:14.616485 16238 net.cpp:399] inception_4b/output_inception_4b/output_0_split -> inception_4b/output_inception_4b/output_0_split_2
I0403 18:07:14.616506 16238 net.cpp:399] inception_4b/output_inception_4b/output_0_split -> inception_4b/output_inception_4b/output_0_split_3
I0403 18:07:14.616595 16238 net.cpp:141] Setting up inception_4b/output_inception_4b/output_0_split
I0403 18:07:14.616618 16238 net.cpp:148] Top shape: 24 512 14 14 (2408448)
I0403 18:07:14.616636 16238 net.cpp:148] Top shape: 24 512 14 14 (2408448)
I0403 18:07:14.616652 16238 net.cpp:148] Top shape: 24 512 14 14 (2408448)
I0403 18:07:14.616667 16238 net.cpp:148] Top shape: 24 512 14 14 (2408448)
I0403 18:07:14.616682 16238 net.cpp:156] Memory required for data: 1028392224
I0403 18:07:14.616695 16238 layer_factory.hpp:77] Creating layer inception_4c/1x1
I0403 18:07:14.616719 16238 net.cpp:91] Creating Layer inception_4c/1x1
I0403 18:07:14.616736 16238 net.cpp:425] inception_4c/1x1 <- inception_4b/output_inception_4b/output_0_split_0
I0403 18:07:14.616757 16238 net.cpp:399] inception_4c/1x1 -> inception_4c/1x1
I0403 18:07:14.618276 16238 net.cpp:141] Setting up inception_4c/1x1
I0403 18:07:14.618306 16238 net.cpp:148] Top shape: 24 128 14 14 (602112)
I0403 18:07:14.618321 16238 net.cpp:156] Memory required for data: 1030800672
I0403 18:07:14.618343 16238 layer_factory.hpp:77] Creating layer inception_4c/relu_1x1
I0403 18:07:14.618362 16238 net.cpp:91] Creating Layer inception_4c/relu_1x1
I0403 18:07:14.618379 16238 net.cpp:425] inception_4c/relu_1x1 <- inception_4c/1x1
I0403 18:07:14.618398 16238 net.cpp:386] inception_4c/relu_1x1 -> inception_4c/1x1 (in-place)
I0403 18:07:14.618583 16238 net.cpp:141] Setting up inception_4c/relu_1x1
I0403 18:07:14.618608 16238 net.cpp:148] Top shape: 24 128 14 14 (602112)
I0403 18:07:14.618623 16238 net.cpp:156] Memory required for data: 1033209120
I0403 18:07:14.618639 16238 layer_factory.hpp:77] Creating layer inception_4c/3x3_reduce
I0403 18:07:14.618661 16238 net.cpp:91] Creating Layer inception_4c/3x3_reduce
I0403 18:07:14.618680 16238 net.cpp:425] inception_4c/3x3_reduce <- inception_4b/output_inception_4b/output_0_split_1
I0403 18:07:14.618701 16238 net.cpp:399] inception_4c/3x3_reduce -> inception_4c/3x3_reduce
I0403 18:07:14.620682 16238 net.cpp:141] Setting up inception_4c/3x3_reduce
I0403 18:07:14.620712 16238 net.cpp:148] Top shape: 24 128 14 14 (602112)
I0403 18:07:14.620728 16238 net.cpp:156] Memory required for data: 1035617568
I0403 18:07:14.620746 16238 layer_factory.hpp:77] Creating layer inception_4c/relu_3x3_reduce
I0403 18:07:14.620765 16238 net.cpp:91] Creating Layer inception_4c/relu_3x3_reduce
I0403 18:07:14.620782 16238 net.cpp:425] inception_4c/relu_3x3_reduce <- inception_4c/3x3_reduce
I0403 18:07:14.620802 16238 net.cpp:386] inception_4c/relu_3x3_reduce -> inception_4c/3x3_reduce (in-place)
I0403 18:07:14.621101 16238 net.cpp:141] Setting up inception_4c/relu_3x3_reduce
I0403 18:07:14.621129 16238 net.cpp:148] Top shape: 24 128 14 14 (602112)
I0403 18:07:14.621143 16238 net.cpp:156] Memory required for data: 1038026016
I0403 18:07:14.621160 16238 layer_factory.hpp:77] Creating layer inception_4c/3x3
I0403 18:07:14.621183 16238 net.cpp:91] Creating Layer inception_4c/3x3
I0403 18:07:14.621201 16238 net.cpp:425] inception_4c/3x3 <- inception_4c/3x3_reduce
I0403 18:07:14.621223 16238 net.cpp:399] inception_4c/3x3 -> inception_4c/3x3
I0403 18:07:14.624953 16238 net.cpp:141] Setting up inception_4c/3x3
I0403 18:07:14.625000 16238 net.cpp:148] Top shape: 24 256 14 14 (1204224)
I0403 18:07:14.625017 16238 net.cpp:156] Memory required for data: 1042842912
I0403 18:07:14.625051 16238 layer_factory.hpp:77] Creating layer inception_4c/relu_3x3
I0403 18:07:14.625074 16238 net.cpp:91] Creating Layer inception_4c/relu_3x3
I0403 18:07:14.625092 16238 net.cpp:425] inception_4c/relu_3x3 <- inception_4c/3x3
I0403 18:07:14.625109 16238 net.cpp:386] inception_4c/relu_3x3 -> inception_4c/3x3 (in-place)
I0403 18:07:14.625299 16238 net.cpp:141] Setting up inception_4c/relu_3x3
I0403 18:07:14.625325 16238 net.cpp:148] Top shape: 24 256 14 14 (1204224)
I0403 18:07:14.625340 16238 net.cpp:156] Memory required for data: 1047659808
I0403 18:07:14.625355 16238 layer_factory.hpp:77] Creating layer inception_4c/5x5_reduce
I0403 18:07:14.625380 16238 net.cpp:91] Creating Layer inception_4c/5x5_reduce
I0403 18:07:14.625397 16238 net.cpp:425] inception_4c/5x5_reduce <- inception_4b/output_inception_4b/output_0_split_2
I0403 18:07:14.625419 16238 net.cpp:399] inception_4c/5x5_reduce -> inception_4c/5x5_reduce
I0403 18:07:14.626533 16238 net.cpp:141] Setting up inception_4c/5x5_reduce
I0403 18:07:14.626562 16238 net.cpp:148] Top shape: 24 24 14 14 (112896)
I0403 18:07:14.626579 16238 net.cpp:156] Memory required for data: 1048111392
I0403 18:07:14.626598 16238 layer_factory.hpp:77] Creating layer inception_4c/relu_5x5_reduce
I0403 18:07:14.626619 16238 net.cpp:91] Creating Layer inception_4c/relu_5x5_reduce
I0403 18:07:14.626637 16238 net.cpp:425] inception_4c/relu_5x5_reduce <- inception_4c/5x5_reduce
I0403 18:07:14.626655 16238 net.cpp:386] inception_4c/relu_5x5_reduce -> inception_4c/5x5_reduce (in-place)
I0403 18:07:14.626843 16238 net.cpp:141] Setting up inception_4c/relu_5x5_reduce
I0403 18:07:14.626870 16238 net.cpp:148] Top shape: 24 24 14 14 (112896)
I0403 18:07:14.626886 16238 net.cpp:156] Memory required for data: 1048562976
I0403 18:07:14.626901 16238 layer_factory.hpp:77] Creating layer inception_4c/5x5
I0403 18:07:14.626922 16238 net.cpp:91] Creating Layer inception_4c/5x5
I0403 18:07:14.626940 16238 net.cpp:425] inception_4c/5x5 <- inception_4c/5x5_reduce
I0403 18:07:14.626961 16238 net.cpp:399] inception_4c/5x5 -> inception_4c/5x5
I0403 18:07:14.628306 16238 net.cpp:141] Setting up inception_4c/5x5
I0403 18:07:14.628335 16238 net.cpp:148] Top shape: 24 64 14 14 (301056)
I0403 18:07:14.628351 16238 net.cpp:156] Memory required for data: 1049767200
I0403 18:07:14.628371 16238 layer_factory.hpp:77] Creating layer inception_4c/relu_5x5
I0403 18:07:14.628392 16238 net.cpp:91] Creating Layer inception_4c/relu_5x5
I0403 18:07:14.628410 16238 net.cpp:425] inception_4c/relu_5x5 <- inception_4c/5x5
I0403 18:07:14.628428 16238 net.cpp:386] inception_4c/relu_5x5 -> inception_4c/5x5 (in-place)
I0403 18:07:14.628736 16238 net.cpp:141] Setting up inception_4c/relu_5x5
I0403 18:07:14.628764 16238 net.cpp:148] Top shape: 24 64 14 14 (301056)
I0403 18:07:14.628780 16238 net.cpp:156] Memory required for data: 1050971424
I0403 18:07:14.628796 16238 layer_factory.hpp:77] Creating layer inception_4c/pool
I0403 18:07:14.628818 16238 net.cpp:91] Creating Layer inception_4c/pool
I0403 18:07:14.628837 16238 net.cpp:425] inception_4c/pool <- inception_4b/output_inception_4b/output_0_split_3
I0403 18:07:14.628856 16238 net.cpp:399] inception_4c/pool -> inception_4c/pool
I0403 18:07:14.628929 16238 net.cpp:141] Setting up inception_4c/pool
I0403 18:07:14.628955 16238 net.cpp:148] Top shape: 24 512 14 14 (2408448)
I0403 18:07:14.628970 16238 net.cpp:156] Memory required for data: 1060605216
I0403 18:07:14.628990 16238 layer_factory.hpp:77] Creating layer inception_4c/pool_proj
I0403 18:07:14.629015 16238 net.cpp:91] Creating Layer inception_4c/pool_proj
I0403 18:07:14.629034 16238 net.cpp:425] inception_4c/pool_proj <- inception_4c/pool
I0403 18:07:14.629056 16238 net.cpp:399] inception_4c/pool_proj -> inception_4c/pool_proj
I0403 18:07:14.630368 16238 net.cpp:141] Setting up inception_4c/pool_proj
I0403 18:07:14.630398 16238 net.cpp:148] Top shape: 24 64 14 14 (301056)
I0403 18:07:14.630430 16238 net.cpp:156] Memory required for data: 1061809440
I0403 18:07:14.630450 16238 layer_factory.hpp:77] Creating layer inception_4c/relu_pool_proj
I0403 18:07:14.630483 16238 net.cpp:91] Creating Layer inception_4c/relu_pool_proj
I0403 18:07:14.630502 16238 net.cpp:425] inception_4c/relu_pool_proj <- inception_4c/pool_proj
I0403 18:07:14.630520 16238 net.cpp:386] inception_4c/relu_pool_proj -> inception_4c/pool_proj (in-place)
I0403 18:07:14.630717 16238 net.cpp:141] Setting up inception_4c/relu_pool_proj
I0403 18:07:14.630743 16238 net.cpp:148] Top shape: 24 64 14 14 (301056)
I0403 18:07:14.630759 16238 net.cpp:156] Memory required for data: 1063013664
I0403 18:07:14.630774 16238 layer_factory.hpp:77] Creating layer inception_4c/output
I0403 18:07:14.630795 16238 net.cpp:91] Creating Layer inception_4c/output
I0403 18:07:14.630812 16238 net.cpp:425] inception_4c/output <- inception_4c/1x1
I0403 18:07:14.630830 16238 net.cpp:425] inception_4c/output <- inception_4c/3x3
I0403 18:07:14.630847 16238 net.cpp:425] inception_4c/output <- inception_4c/5x5
I0403 18:07:14.630863 16238 net.cpp:425] inception_4c/output <- inception_4c/pool_proj
I0403 18:07:14.630882 16238 net.cpp:399] inception_4c/output -> inception_4c/output
I0403 18:07:14.630933 16238 net.cpp:141] Setting up inception_4c/output
I0403 18:07:14.630959 16238 net.cpp:148] Top shape: 24 512 14 14 (2408448)
I0403 18:07:14.630973 16238 net.cpp:156] Memory required for data: 1072647456
I0403 18:07:14.630995 16238 layer_factory.hpp:77] Creating layer inception_4c/output_inception_4c/output_0_split
I0403 18:07:14.631012 16238 net.cpp:91] Creating Layer inception_4c/output_inception_4c/output_0_split
I0403 18:07:14.631029 16238 net.cpp:425] inception_4c/output_inception_4c/output_0_split <- inception_4c/output
I0403 18:07:14.631052 16238 net.cpp:399] inception_4c/output_inception_4c/output_0_split -> inception_4c/output_inception_4c/output_0_split_0
I0403 18:07:14.631073 16238 net.cpp:399] inception_4c/output_inception_4c/output_0_split -> inception_4c/output_inception_4c/output_0_split_1
I0403 18:07:14.631095 16238 net.cpp:399] inception_4c/output_inception_4c/output_0_split -> inception_4c/output_inception_4c/output_0_split_2
I0403 18:07:14.631116 16238 net.cpp:399] inception_4c/output_inception_4c/output_0_split -> inception_4c/output_inception_4c/output_0_split_3
I0403 18:07:14.631208 16238 net.cpp:141] Setting up inception_4c/output_inception_4c/output_0_split
I0403 18:07:14.631234 16238 net.cpp:148] Top shape: 24 512 14 14 (2408448)
I0403 18:07:14.631253 16238 net.cpp:148] Top shape: 24 512 14 14 (2408448)
I0403 18:07:14.631270 16238 net.cpp:148] Top shape: 24 512 14 14 (2408448)
I0403 18:07:14.631288 16238 net.cpp:148] Top shape: 24 512 14 14 (2408448)
I0403 18:07:14.631301 16238 net.cpp:156] Memory required for data: 1111182624
I0403 18:07:14.631316 16238 layer_factory.hpp:77] Creating layer inception_4d/1x1
I0403 18:07:14.631340 16238 net.cpp:91] Creating Layer inception_4d/1x1
I0403 18:07:14.631359 16238 net.cpp:425] inception_4d/1x1 <- inception_4c/output_inception_4c/output_0_split_0
I0403 18:07:14.631381 16238 net.cpp:399] inception_4d/1x1 -> inception_4d/1x1
I0403 18:07:14.632858 16238 net.cpp:141] Setting up inception_4d/1x1
I0403 18:07:14.632890 16238 net.cpp:148] Top shape: 24 112 14 14 (526848)
I0403 18:07:14.632906 16238 net.cpp:156] Memory required for data: 1113290016
I0403 18:07:14.632927 16238 layer_factory.hpp:77] Creating layer inception_4d/relu_1x1
I0403 18:07:14.632946 16238 net.cpp:91] Creating Layer inception_4d/relu_1x1
I0403 18:07:14.632964 16238 net.cpp:425] inception_4d/relu_1x1 <- inception_4d/1x1
I0403 18:07:14.632988 16238 net.cpp:386] inception_4d/relu_1x1 -> inception_4d/1x1 (in-place)
I0403 18:07:14.633188 16238 net.cpp:141] Setting up inception_4d/relu_1x1
I0403 18:07:14.633214 16238 net.cpp:148] Top shape: 24 112 14 14 (526848)
I0403 18:07:14.633230 16238 net.cpp:156] Memory required for data: 1115397408
I0403 18:07:14.633246 16238 layer_factory.hpp:77] Creating layer inception_4d/3x3_reduce
I0403 18:07:14.633287 16238 net.cpp:91] Creating Layer inception_4d/3x3_reduce
I0403 18:07:14.633307 16238 net.cpp:425] inception_4d/3x3_reduce <- inception_4c/output_inception_4c/output_0_split_1
I0403 18:07:14.633330 16238 net.cpp:399] inception_4d/3x3_reduce -> inception_4d/3x3_reduce
I0403 18:07:14.634943 16238 net.cpp:141] Setting up inception_4d/3x3_reduce
I0403 18:07:14.634974 16238 net.cpp:148] Top shape: 24 144 14 14 (677376)
I0403 18:07:14.634996 16238 net.cpp:156] Memory required for data: 1118106912
I0403 18:07:14.635017 16238 layer_factory.hpp:77] Creating layer inception_4d/relu_3x3_reduce
I0403 18:07:14.635036 16238 net.cpp:91] Creating Layer inception_4d/relu_3x3_reduce
I0403 18:07:14.635054 16238 net.cpp:425] inception_4d/relu_3x3_reduce <- inception_4d/3x3_reduce
I0403 18:07:14.635072 16238 net.cpp:386] inception_4d/relu_3x3_reduce -> inception_4d/3x3_reduce (in-place)
I0403 18:07:14.635381 16238 net.cpp:141] Setting up inception_4d/relu_3x3_reduce
I0403 18:07:14.635411 16238 net.cpp:148] Top shape: 24 144 14 14 (677376)
I0403 18:07:14.635428 16238 net.cpp:156] Memory required for data: 1120816416
I0403 18:07:14.635444 16238 layer_factory.hpp:77] Creating layer inception_4d/3x3
I0403 18:07:14.635468 16238 net.cpp:91] Creating Layer inception_4d/3x3
I0403 18:07:14.635486 16238 net.cpp:425] inception_4d/3x3 <- inception_4d/3x3_reduce
I0403 18:07:14.635507 16238 net.cpp:399] inception_4d/3x3 -> inception_4d/3x3
I0403 18:07:14.640036 16238 net.cpp:141] Setting up inception_4d/3x3
I0403 18:07:14.640067 16238 net.cpp:148] Top shape: 24 288 14 14 (1354752)
I0403 18:07:14.640084 16238 net.cpp:156] Memory required for data: 1126235424
I0403 18:07:14.640105 16238 layer_factory.hpp:77] Creating layer inception_4d/relu_3x3
I0403 18:07:14.640123 16238 net.cpp:91] Creating Layer inception_4d/relu_3x3
I0403 18:07:14.640141 16238 net.cpp:425] inception_4d/relu_3x3 <- inception_4d/3x3
I0403 18:07:14.640161 16238 net.cpp:386] inception_4d/relu_3x3 -> inception_4d/3x3 (in-place)
I0403 18:07:14.640358 16238 net.cpp:141] Setting up inception_4d/relu_3x3
I0403 18:07:14.640385 16238 net.cpp:148] Top shape: 24 288 14 14 (1354752)
I0403 18:07:14.640401 16238 net.cpp:156] Memory required for data: 1131654432
I0403 18:07:14.640416 16238 layer_factory.hpp:77] Creating layer inception_4d/5x5_reduce
I0403 18:07:14.640440 16238 net.cpp:91] Creating Layer inception_4d/5x5_reduce
I0403 18:07:14.640460 16238 net.cpp:425] inception_4d/5x5_reduce <- inception_4c/output_inception_4c/output_0_split_2
I0403 18:07:14.640481 16238 net.cpp:399] inception_4d/5x5_reduce -> inception_4d/5x5_reduce
I0403 18:07:14.641702 16238 net.cpp:141] Setting up inception_4d/5x5_reduce
I0403 18:07:14.641734 16238 net.cpp:148] Top shape: 24 32 14 14 (150528)
I0403 18:07:14.641752 16238 net.cpp:156] Memory required for data: 1132256544
I0403 18:07:14.641772 16238 layer_factory.hpp:77] Creating layer inception_4d/relu_5x5_reduce
I0403 18:07:14.641790 16238 net.cpp:91] Creating Layer inception_4d/relu_5x5_reduce
I0403 18:07:14.641808 16238 net.cpp:425] inception_4d/relu_5x5_reduce <- inception_4d/5x5_reduce
I0403 18:07:14.641829 16238 net.cpp:386] inception_4d/relu_5x5_reduce -> inception_4d/5x5_reduce (in-place)
I0403 18:07:14.642038 16238 net.cpp:141] Setting up inception_4d/relu_5x5_reduce
I0403 18:07:14.642065 16238 net.cpp:148] Top shape: 24 32 14 14 (150528)
I0403 18:07:14.642081 16238 net.cpp:156] Memory required for data: 1132858656
I0403 18:07:14.642096 16238 layer_factory.hpp:77] Creating layer inception_4d/5x5
I0403 18:07:14.642119 16238 net.cpp:91] Creating Layer inception_4d/5x5
I0403 18:07:14.642139 16238 net.cpp:425] inception_4d/5x5 <- inception_4d/5x5_reduce
I0403 18:07:14.642163 16238 net.cpp:399] inception_4d/5x5 -> inception_4d/5x5
I0403 18:07:14.643725 16238 net.cpp:141] Setting up inception_4d/5x5
I0403 18:07:14.643755 16238 net.cpp:148] Top shape: 24 64 14 14 (301056)
I0403 18:07:14.643772 16238 net.cpp:156] Memory required for data: 1134062880
I0403 18:07:14.643791 16238 layer_factory.hpp:77] Creating layer inception_4d/relu_5x5
I0403 18:07:14.643829 16238 net.cpp:91] Creating Layer inception_4d/relu_5x5
I0403 18:07:14.643848 16238 net.cpp:425] inception_4d/relu_5x5 <- inception_4d/5x5
I0403 18:07:14.643867 16238 net.cpp:386] inception_4d/relu_5x5 -> inception_4d/5x5 (in-place)
I0403 18:07:14.644189 16238 net.cpp:141] Setting up inception_4d/relu_5x5
I0403 18:07:14.644217 16238 net.cpp:148] Top shape: 24 64 14 14 (301056)
I0403 18:07:14.644233 16238 net.cpp:156] Memory required for data: 1135267104
I0403 18:07:14.644249 16238 layer_factory.hpp:77] Creating layer inception_4d/pool
I0403 18:07:14.644271 16238 net.cpp:91] Creating Layer inception_4d/pool
I0403 18:07:14.644290 16238 net.cpp:425] inception_4d/pool <- inception_4c/output_inception_4c/output_0_split_3
I0403 18:07:14.644310 16238 net.cpp:399] inception_4d/pool -> inception_4d/pool
I0403 18:07:14.644382 16238 net.cpp:141] Setting up inception_4d/pool
I0403 18:07:14.644408 16238 net.cpp:148] Top shape: 24 512 14 14 (2408448)
I0403 18:07:14.644423 16238 net.cpp:156] Memory required for data: 1144900896
I0403 18:07:14.644439 16238 layer_factory.hpp:77] Creating layer inception_4d/pool_proj
I0403 18:07:14.644464 16238 net.cpp:91] Creating Layer inception_4d/pool_proj
I0403 18:07:14.644482 16238 net.cpp:425] inception_4d/pool_proj <- inception_4d/pool
I0403 18:07:14.644505 16238 net.cpp:399] inception_4d/pool_proj -> inception_4d/pool_proj
I0403 18:07:14.646394 16238 net.cpp:141] Setting up inception_4d/pool_proj
I0403 18:07:14.646425 16238 net.cpp:148] Top shape: 24 64 14 14 (301056)
I0403 18:07:14.646442 16238 net.cpp:156] Memory required for data: 1146105120
I0403 18:07:14.646473 16238 layer_factory.hpp:77] Creating layer inception_4d/relu_pool_proj
I0403 18:07:14.646492 16238 net.cpp:91] Creating Layer inception_4d/relu_pool_proj
I0403 18:07:14.646517 16238 net.cpp:425] inception_4d/relu_pool_proj <- inception_4d/pool_proj
I0403 18:07:14.646538 16238 net.cpp:386] inception_4d/relu_pool_proj -> inception_4d/pool_proj (in-place)
I0403 18:07:14.646729 16238 net.cpp:141] Setting up inception_4d/relu_pool_proj
I0403 18:07:14.646754 16238 net.cpp:148] Top shape: 24 64 14 14 (301056)
I0403 18:07:14.646770 16238 net.cpp:156] Memory required for data: 1147309344
I0403 18:07:14.646786 16238 layer_factory.hpp:77] Creating layer inception_4d/output
I0403 18:07:14.646806 16238 net.cpp:91] Creating Layer inception_4d/output
I0403 18:07:14.646822 16238 net.cpp:425] inception_4d/output <- inception_4d/1x1
I0403 18:07:14.646839 16238 net.cpp:425] inception_4d/output <- inception_4d/3x3
I0403 18:07:14.646857 16238 net.cpp:425] inception_4d/output <- inception_4d/5x5
I0403 18:07:14.646873 16238 net.cpp:425] inception_4d/output <- inception_4d/pool_proj
I0403 18:07:14.646891 16238 net.cpp:399] inception_4d/output -> inception_4d/output
I0403 18:07:14.646942 16238 net.cpp:141] Setting up inception_4d/output
I0403 18:07:14.646966 16238 net.cpp:148] Top shape: 24 528 14 14 (2483712)
I0403 18:07:14.646986 16238 net.cpp:156] Memory required for data: 1157244192
I0403 18:07:14.647002 16238 layer_factory.hpp:77] Creating layer inception_4d/output_inception_4d/output_0_split
I0403 18:07:14.647020 16238 net.cpp:91] Creating Layer inception_4d/output_inception_4d/output_0_split
I0403 18:07:14.647037 16238 net.cpp:425] inception_4d/output_inception_4d/output_0_split <- inception_4d/output
I0403 18:07:14.647058 16238 net.cpp:399] inception_4d/output_inception_4d/output_0_split -> inception_4d/output_inception_4d/output_0_split_0
I0403 18:07:14.647079 16238 net.cpp:399] inception_4d/output_inception_4d/output_0_split -> inception_4d/output_inception_4d/output_0_split_1
I0403 18:07:14.647101 16238 net.cpp:399] inception_4d/output_inception_4d/output_0_split -> inception_4d/output_inception_4d/output_0_split_2
I0403 18:07:14.647122 16238 net.cpp:399] inception_4d/output_inception_4d/output_0_split -> inception_4d/output_inception_4d/output_0_split_3
I0403 18:07:14.647143 16238 net.cpp:399] inception_4d/output_inception_4d/output_0_split -> inception_4d/output_inception_4d/output_0_split_4
I0403 18:07:14.647250 16238 net.cpp:141] Setting up inception_4d/output_inception_4d/output_0_split
I0403 18:07:14.647289 16238 net.cpp:148] Top shape: 24 528 14 14 (2483712)
I0403 18:07:14.647307 16238 net.cpp:148] Top shape: 24 528 14 14 (2483712)
I0403 18:07:14.647325 16238 net.cpp:148] Top shape: 24 528 14 14 (2483712)
I0403 18:07:14.647341 16238 net.cpp:148] Top shape: 24 528 14 14 (2483712)
I0403 18:07:14.647357 16238 net.cpp:148] Top shape: 24 528 14 14 (2483712)
I0403 18:07:14.647372 16238 net.cpp:156] Memory required for data: 1206918432
I0403 18:07:14.647387 16238 layer_factory.hpp:77] Creating layer loss2/ave_pool
I0403 18:07:14.647405 16238 net.cpp:91] Creating Layer loss2/ave_pool
I0403 18:07:14.647421 16238 net.cpp:425] loss2/ave_pool <- inception_4d/output_inception_4d/output_0_split_0
I0403 18:07:14.647442 16238 net.cpp:399] loss2/ave_pool -> loss2/ave_pool
I0403 18:07:14.647773 16238 net.cpp:141] Setting up loss2/ave_pool
I0403 18:07:14.647800 16238 net.cpp:148] Top shape: 24 528 4 4 (202752)
I0403 18:07:14.647816 16238 net.cpp:156] Memory required for data: 1207729440
I0403 18:07:14.647831 16238 layer_factory.hpp:77] Creating layer loss2/conv
I0403 18:07:14.647855 16238 net.cpp:91] Creating Layer loss2/conv
I0403 18:07:14.647873 16238 net.cpp:425] loss2/conv <- loss2/ave_pool
I0403 18:07:14.647896 16238 net.cpp:399] loss2/conv -> loss2/conv
I0403 18:07:14.649883 16238 net.cpp:141] Setting up loss2/conv
I0403 18:07:14.649911 16238 net.cpp:148] Top shape: 24 128 4 4 (49152)
I0403 18:07:14.649929 16238 net.cpp:156] Memory required for data: 1207926048
I0403 18:07:14.649946 16238 layer_factory.hpp:77] Creating layer loss2/relu_conv
I0403 18:07:14.649968 16238 net.cpp:91] Creating Layer loss2/relu_conv
I0403 18:07:14.649991 16238 net.cpp:425] loss2/relu_conv <- loss2/conv
I0403 18:07:14.650009 16238 net.cpp:386] loss2/relu_conv -> loss2/conv (in-place)
I0403 18:07:14.650310 16238 net.cpp:141] Setting up loss2/relu_conv
I0403 18:07:14.650337 16238 net.cpp:148] Top shape: 24 128 4 4 (49152)
I0403 18:07:14.650353 16238 net.cpp:156] Memory required for data: 1208122656
I0403 18:07:14.650369 16238 layer_factory.hpp:77] Creating layer loss2/fc
I0403 18:07:14.650390 16238 net.cpp:91] Creating Layer loss2/fc
I0403 18:07:14.650408 16238 net.cpp:425] loss2/fc <- loss2/conv
I0403 18:07:14.650429 16238 net.cpp:399] loss2/fc -> loss2/fc
I0403 18:07:14.668638 16238 net.cpp:141] Setting up loss2/fc
I0403 18:07:14.668671 16238 net.cpp:148] Top shape: 24 1024 (24576)
I0403 18:07:14.668687 16238 net.cpp:156] Memory required for data: 1208220960
I0403 18:07:14.668706 16238 layer_factory.hpp:77] Creating layer loss2/relu_fc
I0403 18:07:14.668725 16238 net.cpp:91] Creating Layer loss2/relu_fc
I0403 18:07:14.668742 16238 net.cpp:425] loss2/relu_fc <- loss2/fc
I0403 18:07:14.668763 16238 net.cpp:386] loss2/relu_fc -> loss2/fc (in-place)
I0403 18:07:14.669083 16238 net.cpp:141] Setting up loss2/relu_fc
I0403 18:07:14.669111 16238 net.cpp:148] Top shape: 24 1024 (24576)
I0403 18:07:14.669126 16238 net.cpp:156] Memory required for data: 1208319264
I0403 18:07:14.669142 16238 layer_factory.hpp:77] Creating layer loss2/drop_fc
I0403 18:07:14.669160 16238 net.cpp:91] Creating Layer loss2/drop_fc
I0403 18:07:14.669178 16238 net.cpp:425] loss2/drop_fc <- loss2/fc
I0403 18:07:14.669198 16238 net.cpp:386] loss2/drop_fc -> loss2/fc (in-place)
I0403 18:07:14.669250 16238 net.cpp:141] Setting up loss2/drop_fc
I0403 18:07:14.669277 16238 net.cpp:148] Top shape: 24 1024 (24576)
I0403 18:07:14.669294 16238 net.cpp:156] Memory required for data: 1208417568
I0403 18:07:14.669309 16238 layer_factory.hpp:77] Creating layer loss2/classifier_plantvillage
I0403 18:07:14.669334 16238 net.cpp:91] Creating Layer loss2/classifier_plantvillage
I0403 18:07:14.669351 16238 net.cpp:425] loss2/classifier_plantvillage <- loss2/fc
I0403 18:07:14.669373 16238 net.cpp:399] loss2/classifier_plantvillage -> loss2/classifier_plantvillage
I0403 18:07:14.669785 16238 net.cpp:141] Setting up loss2/classifier_plantvillage
I0403 18:07:14.669812 16238 net.cpp:148] Top shape: 24 38 (912)
I0403 18:07:14.669844 16238 net.cpp:156] Memory required for data: 1208421216
I0403 18:07:14.669864 16238 layer_factory.hpp:77] Creating layer loss2/classifier_plantvillage_loss2/classifier_plantvillage_0_split
I0403 18:07:14.669883 16238 net.cpp:91] Creating Layer loss2/classifier_plantvillage_loss2/classifier_plantvillage_0_split
I0403 18:07:14.669900 16238 net.cpp:425] loss2/classifier_plantvillage_loss2/classifier_plantvillage_0_split <- loss2/classifier_plantvillage
I0403 18:07:14.669919 16238 net.cpp:399] loss2/classifier_plantvillage_loss2/classifier_plantvillage_0_split -> loss2/classifier_plantvillage_loss2/classifier_plantvillage_0_split_0
I0403 18:07:14.669939 16238 net.cpp:399] loss2/classifier_plantvillage_loss2/classifier_plantvillage_0_split -> loss2/classifier_plantvillage_loss2/classifier_plantvillage_0_split_1
I0403 18:07:14.669962 16238 net.cpp:399] loss2/classifier_plantvillage_loss2/classifier_plantvillage_0_split -> loss2/classifier_plantvillage_loss2/classifier_plantvillage_0_split_2
I0403 18:07:14.670048 16238 net.cpp:141] Setting up loss2/classifier_plantvillage_loss2/classifier_plantvillage_0_split
I0403 18:07:14.670073 16238 net.cpp:148] Top shape: 24 38 (912)
I0403 18:07:14.670090 16238 net.cpp:148] Top shape: 24 38 (912)
I0403 18:07:14.670105 16238 net.cpp:148] Top shape: 24 38 (912)
I0403 18:07:14.670120 16238 net.cpp:156] Memory required for data: 1208432160
I0403 18:07:14.670135 16238 layer_factory.hpp:77] Creating layer inception_4e/1x1
I0403 18:07:14.670156 16238 net.cpp:91] Creating Layer inception_4e/1x1
I0403 18:07:14.670173 16238 net.cpp:425] inception_4e/1x1 <- inception_4d/output_inception_4d/output_0_split_1
I0403 18:07:14.670200 16238 net.cpp:399] inception_4e/1x1 -> inception_4e/1x1
I0403 18:07:14.672080 16238 net.cpp:141] Setting up inception_4e/1x1
I0403 18:07:14.672109 16238 net.cpp:148] Top shape: 24 256 14 14 (1204224)
I0403 18:07:14.672125 16238 net.cpp:156] Memory required for data: 1213249056
I0403 18:07:14.672144 16238 layer_factory.hpp:77] Creating layer inception_4e/relu_1x1
I0403 18:07:14.672166 16238 net.cpp:91] Creating Layer inception_4e/relu_1x1
I0403 18:07:14.672185 16238 net.cpp:425] inception_4e/relu_1x1 <- inception_4e/1x1
I0403 18:07:14.672204 16238 net.cpp:386] inception_4e/relu_1x1 -> inception_4e/1x1 (in-place)
I0403 18:07:14.672505 16238 net.cpp:141] Setting up inception_4e/relu_1x1
I0403 18:07:14.672533 16238 net.cpp:148] Top shape: 24 256 14 14 (1204224)
I0403 18:07:14.672547 16238 net.cpp:156] Memory required for data: 1218065952
I0403 18:07:14.672564 16238 layer_factory.hpp:77] Creating layer inception_4e/3x3_reduce
I0403 18:07:14.672588 16238 net.cpp:91] Creating Layer inception_4e/3x3_reduce
I0403 18:07:14.672606 16238 net.cpp:425] inception_4e/3x3_reduce <- inception_4d/output_inception_4d/output_0_split_2
I0403 18:07:14.672626 16238 net.cpp:399] inception_4e/3x3_reduce -> inception_4e/3x3_reduce
I0403 18:07:14.674804 16238 net.cpp:141] Setting up inception_4e/3x3_reduce
I0403 18:07:14.674834 16238 net.cpp:148] Top shape: 24 160 14 14 (752640)
I0403 18:07:14.674850 16238 net.cpp:156] Memory required for data: 1221076512
I0403 18:07:14.674870 16238 layer_factory.hpp:77] Creating layer inception_4e/relu_3x3_reduce
I0403 18:07:14.674890 16238 net.cpp:91] Creating Layer inception_4e/relu_3x3_reduce
I0403 18:07:14.674917 16238 net.cpp:425] inception_4e/relu_3x3_reduce <- inception_4e/3x3_reduce
I0403 18:07:14.674935 16238 net.cpp:386] inception_4e/relu_3x3_reduce -> inception_4e/3x3_reduce (in-place)
I0403 18:07:14.675134 16238 net.cpp:141] Setting up inception_4e/relu_3x3_reduce
I0403 18:07:14.675163 16238 net.cpp:148] Top shape: 24 160 14 14 (752640)
I0403 18:07:14.675180 16238 net.cpp:156] Memory required for data: 1224087072
I0403 18:07:14.675196 16238 layer_factory.hpp:77] Creating layer inception_4e/3x3
I0403 18:07:14.675228 16238 net.cpp:91] Creating Layer inception_4e/3x3
I0403 18:07:14.675247 16238 net.cpp:425] inception_4e/3x3 <- inception_4e/3x3_reduce
I0403 18:07:14.675266 16238 net.cpp:399] inception_4e/3x3 -> inception_4e/3x3
I0403 18:07:14.680428 16238 net.cpp:141] Setting up inception_4e/3x3
I0403 18:07:14.680472 16238 net.cpp:148] Top shape: 24 320 14 14 (1505280)
I0403 18:07:14.680491 16238 net.cpp:156] Memory required for data: 1230108192
I0403 18:07:14.680510 16238 layer_factory.hpp:77] Creating layer inception_4e/relu_3x3
I0403 18:07:14.680528 16238 net.cpp:91] Creating Layer inception_4e/relu_3x3
I0403 18:07:14.680546 16238 net.cpp:425] inception_4e/relu_3x3 <- inception_4e/3x3
I0403 18:07:14.680565 16238 net.cpp:386] inception_4e/relu_3x3 -> inception_4e/3x3 (in-place)
I0403 18:07:14.680873 16238 net.cpp:141] Setting up inception_4e/relu_3x3
I0403 18:07:14.680903 16238 net.cpp:148] Top shape: 24 320 14 14 (1505280)
I0403 18:07:14.680922 16238 net.cpp:156] Memory required for data: 1236129312
I0403 18:07:14.680938 16238 layer_factory.hpp:77] Creating layer inception_4e/5x5_reduce
I0403 18:07:14.680961 16238 net.cpp:91] Creating Layer inception_4e/5x5_reduce
I0403 18:07:14.680984 16238 net.cpp:425] inception_4e/5x5_reduce <- inception_4d/output_inception_4d/output_0_split_3
I0403 18:07:14.681007 16238 net.cpp:399] inception_4e/5x5_reduce -> inception_4e/5x5_reduce
I0403 18:07:14.682109 16238 net.cpp:141] Setting up inception_4e/5x5_reduce
I0403 18:07:14.682138 16238 net.cpp:148] Top shape: 24 32 14 14 (150528)
I0403 18:07:14.682153 16238 net.cpp:156] Memory required for data: 1236731424
I0403 18:07:14.682173 16238 layer_factory.hpp:77] Creating layer inception_4e/relu_5x5_reduce
I0403 18:07:14.682193 16238 net.cpp:91] Creating Layer inception_4e/relu_5x5_reduce
I0403 18:07:14.682210 16238 net.cpp:425] inception_4e/relu_5x5_reduce <- inception_4e/5x5_reduce
I0403 18:07:14.682229 16238 net.cpp:386] inception_4e/relu_5x5_reduce -> inception_4e/5x5_reduce (in-place)
I0403 18:07:14.682538 16238 net.cpp:141] Setting up inception_4e/relu_5x5_reduce
I0403 18:07:14.682564 16238 net.cpp:148] Top shape: 24 32 14 14 (150528)
I0403 18:07:14.682579 16238 net.cpp:156] Memory required for data: 1237333536
I0403 18:07:14.682595 16238 layer_factory.hpp:77] Creating layer inception_4e/5x5
I0403 18:07:14.682636 16238 net.cpp:91] Creating Layer inception_4e/5x5
I0403 18:07:14.682656 16238 net.cpp:425] inception_4e/5x5 <- inception_4e/5x5_reduce
I0403 18:07:14.682678 16238 net.cpp:399] inception_4e/5x5 -> inception_4e/5x5
I0403 18:07:14.684588 16238 net.cpp:141] Setting up inception_4e/5x5
I0403 18:07:14.684617 16238 net.cpp:148] Top shape: 24 128 14 14 (602112)
I0403 18:07:14.684633 16238 net.cpp:156] Memory required for data: 1239741984
I0403 18:07:14.684653 16238 layer_factory.hpp:77] Creating layer inception_4e/relu_5x5
I0403 18:07:14.684672 16238 net.cpp:91] Creating Layer inception_4e/relu_5x5
I0403 18:07:14.684690 16238 net.cpp:425] inception_4e/relu_5x5 <- inception_4e/5x5
I0403 18:07:14.684710 16238 net.cpp:386] inception_4e/relu_5x5 -> inception_4e/5x5 (in-place)
I0403 18:07:14.684913 16238 net.cpp:141] Setting up inception_4e/relu_5x5
I0403 18:07:14.684939 16238 net.cpp:148] Top shape: 24 128 14 14 (602112)
I0403 18:07:14.684954 16238 net.cpp:156] Memory required for data: 1242150432
I0403 18:07:14.684969 16238 layer_factory.hpp:77] Creating layer inception_4e/pool
I0403 18:07:14.685009 16238 net.cpp:91] Creating Layer inception_4e/pool
I0403 18:07:14.685029 16238 net.cpp:425] inception_4e/pool <- inception_4d/output_inception_4d/output_0_split_4
I0403 18:07:14.685056 16238 net.cpp:399] inception_4e/pool -> inception_4e/pool
I0403 18:07:14.685132 16238 net.cpp:141] Setting up inception_4e/pool
I0403 18:07:14.685158 16238 net.cpp:148] Top shape: 24 528 14 14 (2483712)
I0403 18:07:14.685173 16238 net.cpp:156] Memory required for data: 1252085280
I0403 18:07:14.685189 16238 layer_factory.hpp:77] Creating layer inception_4e/pool_proj
I0403 18:07:14.685211 16238 net.cpp:91] Creating Layer inception_4e/pool_proj
I0403 18:07:14.685230 16238 net.cpp:425] inception_4e/pool_proj <- inception_4e/pool
I0403 18:07:14.685251 16238 net.cpp:399] inception_4e/pool_proj -> inception_4e/pool_proj
I0403 18:07:14.686877 16238 net.cpp:141] Setting up inception_4e/pool_proj
I0403 18:07:14.686918 16238 net.cpp:148] Top shape: 24 128 14 14 (602112)
I0403 18:07:14.686935 16238 net.cpp:156] Memory required for data: 1254493728
I0403 18:07:14.686955 16238 layer_factory.hpp:77] Creating layer inception_4e/relu_pool_proj
I0403 18:07:14.686975 16238 net.cpp:91] Creating Layer inception_4e/relu_pool_proj
I0403 18:07:14.686997 16238 net.cpp:425] inception_4e/relu_pool_proj <- inception_4e/pool_proj
I0403 18:07:14.687019 16238 net.cpp:386] inception_4e/relu_pool_proj -> inception_4e/pool_proj (in-place)
I0403 18:07:14.687338 16238 net.cpp:141] Setting up inception_4e/relu_pool_proj
I0403 18:07:14.687366 16238 net.cpp:148] Top shape: 24 128 14 14 (602112)
I0403 18:07:14.687381 16238 net.cpp:156] Memory required for data: 1256902176
I0403 18:07:14.687396 16238 layer_factory.hpp:77] Creating layer inception_4e/output
I0403 18:07:14.687414 16238 net.cpp:91] Creating Layer inception_4e/output
I0403 18:07:14.687430 16238 net.cpp:425] inception_4e/output <- inception_4e/1x1
I0403 18:07:14.687448 16238 net.cpp:425] inception_4e/output <- inception_4e/3x3
I0403 18:07:14.687464 16238 net.cpp:425] inception_4e/output <- inception_4e/5x5
I0403 18:07:14.687481 16238 net.cpp:425] inception_4e/output <- inception_4e/pool_proj
I0403 18:07:14.687504 16238 net.cpp:399] inception_4e/output -> inception_4e/output
I0403 18:07:14.687556 16238 net.cpp:141] Setting up inception_4e/output
I0403 18:07:14.687582 16238 net.cpp:148] Top shape: 24 832 14 14 (3913728)
I0403 18:07:14.687597 16238 net.cpp:156] Memory required for data: 1272557088
I0403 18:07:14.687613 16238 layer_factory.hpp:77] Creating layer pool4/3x3_s2
I0403 18:07:14.687630 16238 net.cpp:91] Creating Layer pool4/3x3_s2
I0403 18:07:14.687647 16238 net.cpp:425] pool4/3x3_s2 <- inception_4e/output
I0403 18:07:14.687665 16238 net.cpp:399] pool4/3x3_s2 -> pool4/3x3_s2
I0403 18:07:14.687736 16238 net.cpp:141] Setting up pool4/3x3_s2
I0403 18:07:14.687760 16238 net.cpp:148] Top shape: 24 832 7 7 (978432)
I0403 18:07:14.687775 16238 net.cpp:156] Memory required for data: 1276470816
I0403 18:07:14.687790 16238 layer_factory.hpp:77] Creating layer pool4/3x3_s2_pool4/3x3_s2_0_split
I0403 18:07:14.687808 16238 net.cpp:91] Creating Layer pool4/3x3_s2_pool4/3x3_s2_0_split
I0403 18:07:14.687824 16238 net.cpp:425] pool4/3x3_s2_pool4/3x3_s2_0_split <- pool4/3x3_s2
I0403 18:07:14.687844 16238 net.cpp:399] pool4/3x3_s2_pool4/3x3_s2_0_split -> pool4/3x3_s2_pool4/3x3_s2_0_split_0
I0403 18:07:14.687865 16238 net.cpp:399] pool4/3x3_s2_pool4/3x3_s2_0_split -> pool4/3x3_s2_pool4/3x3_s2_0_split_1
I0403 18:07:14.687885 16238 net.cpp:399] pool4/3x3_s2_pool4/3x3_s2_0_split -> pool4/3x3_s2_pool4/3x3_s2_0_split_2
I0403 18:07:14.687907 16238 net.cpp:399] pool4/3x3_s2_pool4/3x3_s2_0_split -> pool4/3x3_s2_pool4/3x3_s2_0_split_3
I0403 18:07:14.688017 16238 net.cpp:141] Setting up pool4/3x3_s2_pool4/3x3_s2_0_split
I0403 18:07:14.688042 16238 net.cpp:148] Top shape: 24 832 7 7 (978432)
I0403 18:07:14.688060 16238 net.cpp:148] Top shape: 24 832 7 7 (978432)
I0403 18:07:14.688076 16238 net.cpp:148] Top shape: 24 832 7 7 (978432)
I0403 18:07:14.688091 16238 net.cpp:148] Top shape: 24 832 7 7 (978432)
I0403 18:07:14.688105 16238 net.cpp:156] Memory required for data: 1292125728
I0403 18:07:14.688120 16238 layer_factory.hpp:77] Creating layer inception_5a/1x1
I0403 18:07:14.688143 16238 net.cpp:91] Creating Layer inception_5a/1x1
I0403 18:07:14.688161 16238 net.cpp:425] inception_5a/1x1 <- pool4/3x3_s2_pool4/3x3_s2_0_split_0
I0403 18:07:14.688182 16238 net.cpp:399] inception_5a/1x1 -> inception_5a/1x1
I0403 18:07:14.691155 16238 net.cpp:141] Setting up inception_5a/1x1
I0403 18:07:14.691185 16238 net.cpp:148] Top shape: 24 256 7 7 (301056)
I0403 18:07:14.691201 16238 net.cpp:156] Memory required for data: 1293329952
I0403 18:07:14.691221 16238 layer_factory.hpp:77] Creating layer inception_5a/relu_1x1
I0403 18:07:14.691242 16238 net.cpp:91] Creating Layer inception_5a/relu_1x1
I0403 18:07:14.691259 16238 net.cpp:425] inception_5a/relu_1x1 <- inception_5a/1x1
I0403 18:07:14.691277 16238 net.cpp:386] inception_5a/relu_1x1 -> inception_5a/1x1 (in-place)
I0403 18:07:14.691601 16238 net.cpp:141] Setting up inception_5a/relu_1x1
I0403 18:07:14.691627 16238 net.cpp:148] Top shape: 24 256 7 7 (301056)
I0403 18:07:14.691643 16238 net.cpp:156] Memory required for data: 1294534176
I0403 18:07:14.691659 16238 layer_factory.hpp:77] Creating layer inception_5a/3x3_reduce
I0403 18:07:14.691682 16238 net.cpp:91] Creating Layer inception_5a/3x3_reduce
I0403 18:07:14.691701 16238 net.cpp:425] inception_5a/3x3_reduce <- pool4/3x3_s2_pool4/3x3_s2_0_split_1
I0403 18:07:14.691723 16238 net.cpp:399] inception_5a/3x3_reduce -> inception_5a/3x3_reduce
I0403 18:07:14.694249 16238 net.cpp:141] Setting up inception_5a/3x3_reduce
I0403 18:07:14.694279 16238 net.cpp:148] Top shape: 24 160 7 7 (188160)
I0403 18:07:14.694295 16238 net.cpp:156] Memory required for data: 1295286816
I0403 18:07:14.694314 16238 layer_factory.hpp:77] Creating layer inception_5a/relu_3x3_reduce
I0403 18:07:14.694331 16238 net.cpp:91] Creating Layer inception_5a/relu_3x3_reduce
I0403 18:07:14.694347 16238 net.cpp:425] inception_5a/relu_3x3_reduce <- inception_5a/3x3_reduce
I0403 18:07:14.694367 16238 net.cpp:386] inception_5a/relu_3x3_reduce -> inception_5a/3x3_reduce (in-place)
I0403 18:07:14.694556 16238 net.cpp:141] Setting up inception_5a/relu_3x3_reduce
I0403 18:07:14.694581 16238 net.cpp:148] Top shape: 24 160 7 7 (188160)
I0403 18:07:14.694597 16238 net.cpp:156] Memory required for data: 1296039456
I0403 18:07:14.694610 16238 layer_factory.hpp:77] Creating layer inception_5a/3x3
I0403 18:07:14.694634 16238 net.cpp:91] Creating Layer inception_5a/3x3
I0403 18:07:14.694653 16238 net.cpp:425] inception_5a/3x3 <- inception_5a/3x3_reduce
I0403 18:07:14.694674 16238 net.cpp:399] inception_5a/3x3 -> inception_5a/3x3
I0403 18:07:14.699726 16238 net.cpp:141] Setting up inception_5a/3x3
I0403 18:07:14.699758 16238 net.cpp:148] Top shape: 24 320 7 7 (376320)
I0403 18:07:14.699774 16238 net.cpp:156] Memory required for data: 1297544736
I0403 18:07:14.699793 16238 layer_factory.hpp:77] Creating layer inception_5a/relu_3x3
I0403 18:07:14.699815 16238 net.cpp:91] Creating Layer inception_5a/relu_3x3
I0403 18:07:14.699832 16238 net.cpp:425] inception_5a/relu_3x3 <- inception_5a/3x3
I0403 18:07:14.699851 16238 net.cpp:386] inception_5a/relu_3x3 -> inception_5a/3x3 (in-place)
I0403 18:07:14.700165 16238 net.cpp:141] Setting up inception_5a/relu_3x3
I0403 18:07:14.700191 16238 net.cpp:148] Top shape: 24 320 7 7 (376320)
I0403 18:07:14.700206 16238 net.cpp:156] Memory required for data: 1299050016
I0403 18:07:14.700222 16238 layer_factory.hpp:77] Creating layer inception_5a/5x5_reduce
I0403 18:07:14.700243 16238 net.cpp:91] Creating Layer inception_5a/5x5_reduce
I0403 18:07:14.700263 16238 net.cpp:425] inception_5a/5x5_reduce <- pool4/3x3_s2_pool4/3x3_s2_0_split_2
I0403 18:07:14.700284 16238 net.cpp:399] inception_5a/5x5_reduce -> inception_5a/5x5_reduce
I0403 18:07:14.701462 16238 net.cpp:141] Setting up inception_5a/5x5_reduce
I0403 18:07:14.701493 16238 net.cpp:148] Top shape: 24 32 7 7 (37632)
I0403 18:07:14.701509 16238 net.cpp:156] Memory required for data: 1299200544
I0403 18:07:14.701529 16238 layer_factory.hpp:77] Creating layer inception_5a/relu_5x5_reduce
I0403 18:07:14.701546 16238 net.cpp:91] Creating Layer inception_5a/relu_5x5_reduce
I0403 18:07:14.701563 16238 net.cpp:425] inception_5a/relu_5x5_reduce <- inception_5a/5x5_reduce
I0403 18:07:14.701581 16238 net.cpp:386] inception_5a/relu_5x5_reduce -> inception_5a/5x5_reduce (in-place)
I0403 18:07:14.701885 16238 net.cpp:141] Setting up inception_5a/relu_5x5_reduce
I0403 18:07:14.701911 16238 net.cpp:148] Top shape: 24 32 7 7 (37632)
I0403 18:07:14.701927 16238 net.cpp:156] Memory required for data: 1299351072
I0403 18:07:14.701942 16238 layer_factory.hpp:77] Creating layer inception_5a/5x5
I0403 18:07:14.701966 16238 net.cpp:91] Creating Layer inception_5a/5x5
I0403 18:07:14.701995 16238 net.cpp:425] inception_5a/5x5 <- inception_5a/5x5_reduce
I0403 18:07:14.702019 16238 net.cpp:399] inception_5a/5x5 -> inception_5a/5x5
I0403 18:07:14.703740 16238 net.cpp:141] Setting up inception_5a/5x5
I0403 18:07:14.703778 16238 net.cpp:148] Top shape: 24 128 7 7 (150528)
I0403 18:07:14.703794 16238 net.cpp:156] Memory required for data: 1299953184
I0403 18:07:14.703812 16238 layer_factory.hpp:77] Creating layer inception_5a/relu_5x5
I0403 18:07:14.703832 16238 net.cpp:91] Creating Layer inception_5a/relu_5x5
I0403 18:07:14.703850 16238 net.cpp:425] inception_5a/relu_5x5 <- inception_5a/5x5
I0403 18:07:14.703866 16238 net.cpp:386] inception_5a/relu_5x5 -> inception_5a/5x5 (in-place)
I0403 18:07:14.704056 16238 net.cpp:141] Setting up inception_5a/relu_5x5
I0403 18:07:14.704080 16238 net.cpp:148] Top shape: 24 128 7 7 (150528)
I0403 18:07:14.704097 16238 net.cpp:156] Memory required for data: 1300555296
I0403 18:07:14.704113 16238 layer_factory.hpp:77] Creating layer inception_5a/pool
I0403 18:07:14.704130 16238 net.cpp:91] Creating Layer inception_5a/pool
I0403 18:07:14.704146 16238 net.cpp:425] inception_5a/pool <- pool4/3x3_s2_pool4/3x3_s2_0_split_3
I0403 18:07:14.704164 16238 net.cpp:399] inception_5a/pool -> inception_5a/pool
I0403 18:07:14.704233 16238 net.cpp:141] Setting up inception_5a/pool
I0403 18:07:14.704257 16238 net.cpp:148] Top shape: 24 832 7 7 (978432)
I0403 18:07:14.704270 16238 net.cpp:156] Memory required for data: 1304469024
I0403 18:07:14.704284 16238 layer_factory.hpp:77] Creating layer inception_5a/pool_proj
I0403 18:07:14.704305 16238 net.cpp:91] Creating Layer inception_5a/pool_proj
I0403 18:07:14.704324 16238 net.cpp:425] inception_5a/pool_proj <- inception_5a/pool
I0403 18:07:14.704344 16238 net.cpp:399] inception_5a/pool_proj -> inception_5a/pool_proj
I0403 18:07:14.706578 16238 net.cpp:141] Setting up inception_5a/pool_proj
I0403 18:07:14.706606 16238 net.cpp:148] Top shape: 24 128 7 7 (150528)
I0403 18:07:14.706621 16238 net.cpp:156] Memory required for data: 1305071136
I0403 18:07:14.706640 16238 layer_factory.hpp:77] Creating layer inception_5a/relu_pool_proj
I0403 18:07:14.706656 16238 net.cpp:91] Creating Layer inception_5a/relu_pool_proj
I0403 18:07:14.706676 16238 net.cpp:425] inception_5a/relu_pool_proj <- inception_5a/pool_proj
I0403 18:07:14.706692 16238 net.cpp:386] inception_5a/relu_pool_proj -> inception_5a/pool_proj (in-place)
I0403 18:07:14.706989 16238 net.cpp:141] Setting up inception_5a/relu_pool_proj
I0403 18:07:14.707015 16238 net.cpp:148] Top shape: 24 128 7 7 (150528)
I0403 18:07:14.707041 16238 net.cpp:156] Memory required for data: 1305673248
I0403 18:07:14.707056 16238 layer_factory.hpp:77] Creating layer inception_5a/output
I0403 18:07:14.707073 16238 net.cpp:91] Creating Layer inception_5a/output
I0403 18:07:14.707089 16238 net.cpp:425] inception_5a/output <- inception_5a/1x1
I0403 18:07:14.707105 16238 net.cpp:425] inception_5a/output <- inception_5a/3x3
I0403 18:07:14.707123 16238 net.cpp:425] inception_5a/output <- inception_5a/5x5
I0403 18:07:14.707139 16238 net.cpp:425] inception_5a/output <- inception_5a/pool_proj
I0403 18:07:14.707157 16238 net.cpp:399] inception_5a/output -> inception_5a/output
I0403 18:07:14.707207 16238 net.cpp:141] Setting up inception_5a/output
I0403 18:07:14.707233 16238 net.cpp:148] Top shape: 24 832 7 7 (978432)
I0403 18:07:14.707249 16238 net.cpp:156] Memory required for data: 1309586976
I0403 18:07:14.707264 16238 layer_factory.hpp:77] Creating layer inception_5a/output_inception_5a/output_0_split
I0403 18:07:14.707281 16238 net.cpp:91] Creating Layer inception_5a/output_inception_5a/output_0_split
I0403 18:07:14.707296 16238 net.cpp:425] inception_5a/output_inception_5a/output_0_split <- inception_5a/output
I0403 18:07:14.707315 16238 net.cpp:399] inception_5a/output_inception_5a/output_0_split -> inception_5a/output_inception_5a/output_0_split_0
I0403 18:07:14.707340 16238 net.cpp:399] inception_5a/output_inception_5a/output_0_split -> inception_5a/output_inception_5a/output_0_split_1
I0403 18:07:14.707360 16238 net.cpp:399] inception_5a/output_inception_5a/output_0_split -> inception_5a/output_inception_5a/output_0_split_2
I0403 18:07:14.707379 16238 net.cpp:399] inception_5a/output_inception_5a/output_0_split -> inception_5a/output_inception_5a/output_0_split_3
I0403 18:07:14.707489 16238 net.cpp:141] Setting up inception_5a/output_inception_5a/output_0_split
I0403 18:07:14.707514 16238 net.cpp:148] Top shape: 24 832 7 7 (978432)
I0403 18:07:14.707530 16238 net.cpp:148] Top shape: 24 832 7 7 (978432)
I0403 18:07:14.707545 16238 net.cpp:148] Top shape: 24 832 7 7 (978432)
I0403 18:07:14.707561 16238 net.cpp:148] Top shape: 24 832 7 7 (978432)
I0403 18:07:14.707576 16238 net.cpp:156] Memory required for data: 1325241888
I0403 18:07:14.707589 16238 layer_factory.hpp:77] Creating layer inception_5b/1x1
I0403 18:07:14.707612 16238 net.cpp:91] Creating Layer inception_5b/1x1
I0403 18:07:14.707629 16238 net.cpp:425] inception_5b/1x1 <- inception_5a/output_inception_5a/output_0_split_0
I0403 18:07:14.707650 16238 net.cpp:399] inception_5b/1x1 -> inception_5b/1x1
I0403 18:07:14.711349 16238 net.cpp:141] Setting up inception_5b/1x1
I0403 18:07:14.711377 16238 net.cpp:148] Top shape: 24 384 7 7 (451584)
I0403 18:07:14.711393 16238 net.cpp:156] Memory required for data: 1327048224
I0403 18:07:14.711411 16238 layer_factory.hpp:77] Creating layer inception_5b/relu_1x1
I0403 18:07:14.711429 16238 net.cpp:91] Creating Layer inception_5b/relu_1x1
I0403 18:07:14.711446 16238 net.cpp:425] inception_5b/relu_1x1 <- inception_5b/1x1
I0403 18:07:14.711464 16238 net.cpp:386] inception_5b/relu_1x1 -> inception_5b/1x1 (in-place)
I0403 18:07:14.711766 16238 net.cpp:141] Setting up inception_5b/relu_1x1
I0403 18:07:14.711791 16238 net.cpp:148] Top shape: 24 384 7 7 (451584)
I0403 18:07:14.711807 16238 net.cpp:156] Memory required for data: 1328854560
I0403 18:07:14.711820 16238 layer_factory.hpp:77] Creating layer inception_5b/3x3_reduce
I0403 18:07:14.711845 16238 net.cpp:91] Creating Layer inception_5b/3x3_reduce
I0403 18:07:14.711864 16238 net.cpp:425] inception_5b/3x3_reduce <- inception_5a/output_inception_5a/output_0_split_1
I0403 18:07:14.711887 16238 net.cpp:399] inception_5b/3x3_reduce -> inception_5b/3x3_reduce
I0403 18:07:14.714480 16238 net.cpp:141] Setting up inception_5b/3x3_reduce
I0403 18:07:14.714510 16238 net.cpp:148] Top shape: 24 192 7 7 (225792)
I0403 18:07:14.714526 16238 net.cpp:156] Memory required for data: 1329757728
I0403 18:07:14.714545 16238 layer_factory.hpp:77] Creating layer inception_5b/relu_3x3_reduce
I0403 18:07:14.714562 16238 net.cpp:91] Creating Layer inception_5b/relu_3x3_reduce
I0403 18:07:14.714578 16238 net.cpp:425] inception_5b/relu_3x3_reduce <- inception_5b/3x3_reduce
I0403 18:07:14.714598 16238 net.cpp:386] inception_5b/relu_3x3_reduce -> inception_5b/3x3_reduce (in-place)
I0403 18:07:14.714782 16238 net.cpp:141] Setting up inception_5b/relu_3x3_reduce
I0403 18:07:14.714807 16238 net.cpp:148] Top shape: 24 192 7 7 (225792)
I0403 18:07:14.714821 16238 net.cpp:156] Memory required for data: 1330660896
I0403 18:07:14.714835 16238 layer_factory.hpp:77] Creating layer inception_5b/3x3
I0403 18:07:14.714857 16238 net.cpp:91] Creating Layer inception_5b/3x3
I0403 18:07:14.714875 16238 net.cpp:425] inception_5b/3x3 <- inception_5b/3x3_reduce
I0403 18:07:14.714897 16238 net.cpp:399] inception_5b/3x3 -> inception_5b/3x3
I0403 18:07:14.721441 16238 net.cpp:141] Setting up inception_5b/3x3
I0403 18:07:14.721468 16238 net.cpp:148] Top shape: 24 384 7 7 (451584)
I0403 18:07:14.721484 16238 net.cpp:156] Memory required for data: 1332467232
I0403 18:07:14.721503 16238 layer_factory.hpp:77] Creating layer inception_5b/relu_3x3
I0403 18:07:14.721520 16238 net.cpp:91] Creating Layer inception_5b/relu_3x3
I0403 18:07:14.721540 16238 net.cpp:425] inception_5b/relu_3x3 <- inception_5b/3x3
I0403 18:07:14.721557 16238 net.cpp:386] inception_5b/relu_3x3 -> inception_5b/3x3 (in-place)
I0403 18:07:14.721853 16238 net.cpp:141] Setting up inception_5b/relu_3x3
I0403 18:07:14.721879 16238 net.cpp:148] Top shape: 24 384 7 7 (451584)
I0403 18:07:14.721894 16238 net.cpp:156] Memory required for data: 1334273568
I0403 18:07:14.721909 16238 layer_factory.hpp:77] Creating layer inception_5b/5x5_reduce
I0403 18:07:14.721945 16238 net.cpp:91] Creating Layer inception_5b/5x5_reduce
I0403 18:07:14.721963 16238 net.cpp:425] inception_5b/5x5_reduce <- inception_5a/output_inception_5a/output_0_split_2
I0403 18:07:14.721989 16238 net.cpp:399] inception_5b/5x5_reduce -> inception_5b/5x5_reduce
I0403 18:07:14.723237 16238 net.cpp:141] Setting up inception_5b/5x5_reduce
I0403 18:07:14.723264 16238 net.cpp:148] Top shape: 24 48 7 7 (56448)
I0403 18:07:14.723279 16238 net.cpp:156] Memory required for data: 1334499360
I0403 18:07:14.723297 16238 layer_factory.hpp:77] Creating layer inception_5b/relu_5x5_reduce
I0403 18:07:14.723315 16238 net.cpp:91] Creating Layer inception_5b/relu_5x5_reduce
I0403 18:07:14.723332 16238 net.cpp:425] inception_5b/relu_5x5_reduce <- inception_5b/5x5_reduce
I0403 18:07:14.723351 16238 net.cpp:386] inception_5b/relu_5x5_reduce -> inception_5b/5x5_reduce (in-place)
I0403 18:07:14.723719 16238 net.cpp:141] Setting up inception_5b/relu_5x5_reduce
I0403 18:07:14.723745 16238 net.cpp:148] Top shape: 24 48 7 7 (56448)
I0403 18:07:14.723760 16238 net.cpp:156] Memory required for data: 1334725152
I0403 18:07:14.723775 16238 layer_factory.hpp:77] Creating layer inception_5b/5x5
I0403 18:07:14.723795 16238 net.cpp:91] Creating Layer inception_5b/5x5
I0403 18:07:14.723811 16238 net.cpp:425] inception_5b/5x5 <- inception_5b/5x5_reduce
I0403 18:07:14.723830 16238 net.cpp:399] inception_5b/5x5 -> inception_5b/5x5
I0403 18:07:14.725834 16238 net.cpp:141] Setting up inception_5b/5x5
I0403 18:07:14.725862 16238 net.cpp:148] Top shape: 24 128 7 7 (150528)
I0403 18:07:14.725877 16238 net.cpp:156] Memory required for data: 1335327264
I0403 18:07:14.725894 16238 layer_factory.hpp:77] Creating layer inception_5b/relu_5x5
I0403 18:07:14.725914 16238 net.cpp:91] Creating Layer inception_5b/relu_5x5
I0403 18:07:14.725934 16238 net.cpp:425] inception_5b/relu_5x5 <- inception_5b/5x5
I0403 18:07:14.725950 16238 net.cpp:386] inception_5b/relu_5x5 -> inception_5b/5x5 (in-place)
I0403 18:07:14.726145 16238 net.cpp:141] Setting up inception_5b/relu_5x5
I0403 18:07:14.726168 16238 net.cpp:148] Top shape: 24 128 7 7 (150528)
I0403 18:07:14.726192 16238 net.cpp:156] Memory required for data: 1335929376
I0403 18:07:14.726207 16238 layer_factory.hpp:77] Creating layer inception_5b/pool
I0403 18:07:14.726227 16238 net.cpp:91] Creating Layer inception_5b/pool
I0403 18:07:14.726244 16238 net.cpp:425] inception_5b/pool <- inception_5a/output_inception_5a/output_0_split_3
I0403 18:07:14.726263 16238 net.cpp:399] inception_5b/pool -> inception_5b/pool
I0403 18:07:14.726336 16238 net.cpp:141] Setting up inception_5b/pool
I0403 18:07:14.726358 16238 net.cpp:148] Top shape: 24 832 7 7 (978432)
I0403 18:07:14.726372 16238 net.cpp:156] Memory required for data: 1339843104
I0403 18:07:14.726387 16238 layer_factory.hpp:77] Creating layer inception_5b/pool_proj
I0403 18:07:14.726408 16238 net.cpp:91] Creating Layer inception_5b/pool_proj
I0403 18:07:14.726426 16238 net.cpp:425] inception_5b/pool_proj <- inception_5b/pool
I0403 18:07:14.726446 16238 net.cpp:399] inception_5b/pool_proj -> inception_5b/pool_proj
I0403 18:07:14.728703 16238 net.cpp:141] Setting up inception_5b/pool_proj
I0403 18:07:14.728731 16238 net.cpp:148] Top shape: 24 128 7 7 (150528)
I0403 18:07:14.728747 16238 net.cpp:156] Memory required for data: 1340445216
I0403 18:07:14.728765 16238 layer_factory.hpp:77] Creating layer inception_5b/relu_pool_proj
I0403 18:07:14.728783 16238 net.cpp:91] Creating Layer inception_5b/relu_pool_proj
I0403 18:07:14.728799 16238 net.cpp:425] inception_5b/relu_pool_proj <- inception_5b/pool_proj
I0403 18:07:14.728819 16238 net.cpp:386] inception_5b/relu_pool_proj -> inception_5b/pool_proj (in-place)
I0403 18:07:14.729116 16238 net.cpp:141] Setting up inception_5b/relu_pool_proj
I0403 18:07:14.729142 16238 net.cpp:148] Top shape: 24 128 7 7 (150528)
I0403 18:07:14.729157 16238 net.cpp:156] Memory required for data: 1341047328
I0403 18:07:14.729171 16238 layer_factory.hpp:77] Creating layer inception_5b/output
I0403 18:07:14.729188 16238 net.cpp:91] Creating Layer inception_5b/output
I0403 18:07:14.729233 16238 net.cpp:425] inception_5b/output <- inception_5b/1x1
I0403 18:07:14.729254 16238 net.cpp:425] inception_5b/output <- inception_5b/3x3
I0403 18:07:14.729269 16238 net.cpp:425] inception_5b/output <- inception_5b/5x5
I0403 18:07:14.729285 16238 net.cpp:425] inception_5b/output <- inception_5b/pool_proj
I0403 18:07:14.729305 16238 net.cpp:399] inception_5b/output -> inception_5b/output
I0403 18:07:14.729357 16238 net.cpp:141] Setting up inception_5b/output
I0403 18:07:14.729384 16238 net.cpp:148] Top shape: 24 1024 7 7 (1204224)
I0403 18:07:14.729400 16238 net.cpp:156] Memory required for data: 1345864224
I0403 18:07:14.729415 16238 layer_factory.hpp:77] Creating layer pool5/7x7_s1
I0403 18:07:14.729432 16238 net.cpp:91] Creating Layer pool5/7x7_s1
I0403 18:07:14.729449 16238 net.cpp:425] pool5/7x7_s1 <- inception_5b/output
I0403 18:07:14.729470 16238 net.cpp:399] pool5/7x7_s1 -> pool5/7x7_s1
I0403 18:07:14.729687 16238 net.cpp:141] Setting up pool5/7x7_s1
I0403 18:07:14.729725 16238 net.cpp:148] Top shape: 24 1024 1 1 (24576)
I0403 18:07:14.729739 16238 net.cpp:156] Memory required for data: 1345962528
I0403 18:07:14.729753 16238 layer_factory.hpp:77] Creating layer pool5/drop_7x7_s1
I0403 18:07:14.729771 16238 net.cpp:91] Creating Layer pool5/drop_7x7_s1
I0403 18:07:14.729786 16238 net.cpp:425] pool5/drop_7x7_s1 <- pool5/7x7_s1
I0403 18:07:14.729805 16238 net.cpp:386] pool5/drop_7x7_s1 -> pool5/7x7_s1 (in-place)
I0403 18:07:14.729856 16238 net.cpp:141] Setting up pool5/drop_7x7_s1
I0403 18:07:14.729879 16238 net.cpp:148] Top shape: 24 1024 1 1 (24576)
I0403 18:07:14.729893 16238 net.cpp:156] Memory required for data: 1346060832
I0403 18:07:14.729908 16238 layer_factory.hpp:77] Creating layer loss3/classifier_plantvillage
I0403 18:07:14.729928 16238 net.cpp:91] Creating Layer loss3/classifier_plantvillage
I0403 18:07:14.729944 16238 net.cpp:425] loss3/classifier_plantvillage <- pool5/7x7_s1
I0403 18:07:14.729965 16238 net.cpp:399] loss3/classifier_plantvillage -> loss3/classifier_plantvillage
I0403 18:07:14.730387 16238 net.cpp:141] Setting up loss3/classifier_plantvillage
I0403 18:07:14.730412 16238 net.cpp:148] Top shape: 24 38 (912)
I0403 18:07:14.730427 16238 net.cpp:156] Memory required for data: 1346064480
I0403 18:07:14.730443 16238 layer_factory.hpp:77] Creating layer loss3/classifier_plantvillage_loss3/classifier_plantvillage_0_split
I0403 18:07:14.730465 16238 net.cpp:91] Creating Layer loss3/classifier_plantvillage_loss3/classifier_plantvillage_0_split
I0403 18:07:14.730481 16238 net.cpp:425] loss3/classifier_plantvillage_loss3/classifier_plantvillage_0_split <- loss3/classifier_plantvillage
I0403 18:07:14.730501 16238 net.cpp:399] loss3/classifier_plantvillage_loss3/classifier_plantvillage_0_split -> loss3/classifier_plantvillage_loss3/classifier_plantvillage_0_split_0
I0403 18:07:14.730522 16238 net.cpp:399] loss3/classifier_plantvillage_loss3/classifier_plantvillage_0_split -> loss3/classifier_plantvillage_loss3/classifier_plantvillage_0_split_1
I0403 18:07:14.730541 16238 net.cpp:399] loss3/classifier_plantvillage_loss3/classifier_plantvillage_0_split -> loss3/classifier_plantvillage_loss3/classifier_plantvillage_0_split_2
I0403 18:07:14.730561 16238 net.cpp:399] loss3/classifier_plantvillage_loss3/classifier_plantvillage_0_split -> loss3/classifier_plantvillage_loss3/classifier_plantvillage_0_split_3
I0403 18:07:14.730661 16238 net.cpp:141] Setting up loss3/classifier_plantvillage_loss3/classifier_plantvillage_0_split
I0403 18:07:14.730684 16238 net.cpp:148] Top shape: 24 38 (912)
I0403 18:07:14.730700 16238 net.cpp:148] Top shape: 24 38 (912)
I0403 18:07:14.730715 16238 net.cpp:148] Top shape: 24 38 (912)
I0403 18:07:14.730731 16238 net.cpp:148] Top shape: 24 38 (912)
I0403 18:07:14.730744 16238 net.cpp:156] Memory required for data: 1346079072
I0403 18:07:14.730759 16238 layer_factory.hpp:77] Creating layer loss1/loss
I0403 18:07:14.730780 16238 net.cpp:91] Creating Layer loss1/loss
I0403 18:07:14.730798 16238 net.cpp:425] loss1/loss <- loss1/classifier_plantvillage_loss1/classifier_plantvillage_0_split_0
I0403 18:07:14.730829 16238 net.cpp:425] loss1/loss <- label_data_1_split_0
…
