…
I0403 17:44:50.982250 14833 net.cpp:313] The NetState phase (1) differed from the phase (0) specified by a rule in layer data
I0403 17:44:50.983392 14833 net.cpp:49] Initializing net from parameters: 
state {
  phase: TEST
}
layer {
  name: "data"
  type: "Data"
  top: "data"
  top: "label"
  include {
    phase: TEST
  }
  transform_param {
    mirror: false
    crop_size: 224
    mean_file: "/home/mohanty/data/final_dataset/lmdb/grayscale-60-40/mean.binaryproto"
  }
  data_param {
    source: "/home/mohanty/data/final_dataset/lmdb/grayscale-60-40/test_db"
    batch_size: 24
    backend: LMDB
  }
}
layer {
  name: "conv1/7x7_s2"
  type: "Convolution"
  bottom: "data"
  top: "conv1/7x7_s2"
  param {
    lr_mult: 1
    decay_mult: 1
  }
  param {
    lr_mult: 2
    decay_mult: 0
  }
  convolution_param {
    num_output: 64
    pad: 3
    kernel_size: 7
    stride: 2
    weight_filler {
      type: "xavier"
      std: 0.1
    }
    bias_filler {
      type: "constant"
      value: 0.2
    }
  }
}
layer {
  name: "conv1/relu_7x7"
  type: "ReLU"
  bottom: "conv1/7x7_s2"
  top: "conv1/7x7_s2"
}
layer {
  name: "pool1/3x3_s2"
  type: "Pooling"
  bottom: "conv1/7x7_s2"
  top: "pool1/3x3_s2"
  pooling_param {
    pool: MAX
    kernel_size: 3
    stride: 2
  }
}
layer {
  name: "pool1/norm1"
  type: "LRN"
  bottom: "pool1/3x3_s2"
  top: "pool1/norm1"
  lrn_param {
    local_size: 5
    alpha: 0.0001
    beta: 0.75
  }
}
layer {
  name: "conv2/3x3_reduce"
  type: "Convolution"
  bottom: "pool1/norm1"
  top: "conv2/3x3_reduce"
  param {
    lr_mult: 1
    decay_mult: 1
  }
  param {
    lr_mult: 2
    decay_mult: 0
  }
  convolution_param {
    num_output: 64
    kernel_size: 1
    weight_filler {
      type: "xavier"
      std: 0.1
    }
    bias_filler {
      type: "constant"
      value: 0.2
    }
  }
}
layer {
  name: "conv2/relu_3x3_reduce"
  type: "ReLU"
  bottom: "conv2/3x3_reduce"
  top: "conv2/3x3_reduce"
}
layer {
  name: "conv2/3x3"
  type: "Convolution"
  bottom: "conv2/3x3_reduce"
  top: "conv2/3x3"
  param {
    lr_mult: 1
    decay_mult: 1
  }
  param {
    lr_mult: 2
    decay_mult: 0
  }
  convolution_param {
    num_output: 192
    pad: 1
    kernel_size: 3
    weight_filler {
      type: "xavier"
      std: 0.03
    }
    bias_filler {
      type: "constant"
      value: 0.2
    }
  }
}
layer {
  name: "conv2/relu_3x3"
  type: "ReLU"
  bottom: "conv2/3x3"
  top: "conv2/3x3"
}
layer {
  name: "conv2/norm2"
  type: "LRN"
  bottom: "conv2/3x3"
  top: "conv2/norm2"
  lrn_param {
    local_size: 5
    alpha: 0.0001
    beta: 0.75
  }
}
layer {
  name: "pool2/3x3_s2"
  type: "Pooling"
  bottom: "conv2/norm2"
  top: "pool2/3x3_s2"
  pooling_param {
    pool: MAX
    kernel_size: 3
    stride: 2
  }
}
layer {
  name: "inception_3a/1x1"
  type: "Convolution"
  bottom: "pool2/3x3_s2"
  top: "inception_3a/1x1"
  param {
    lr_mult: 1
    decay_mult: 1
  }
  param {
    lr_mult: 2
    decay_mult: 0
  }
  convolution_param {
    num_output: 64
    kernel_size: 1
    weight_filler {
      type: "xavier"
      std: 0.03
    }
    bias_filler {
      type: "constant"
      value: 0.2
    }
  }
}
layer {
  name: "inception_3a/relu_1x1"
  type: "ReLU"
  bottom: "inception_3a/1x1"
  top: "inception_3a/1x1"
}
layer {
  name: "inception_3a/3x3_reduce"
  type: "Convolution"
  bottom: "pool2/3x3_s2"
  top: "inception_3a/3x3_reduce"
  param {
    lr_mult: 1
    decay_mult: 1
  }
  param {
    lr_mult: 2
    decay_mult: 0
  }
  convolution_param {
    num_output: 96
    kernel_size: 1
    weight_filler {
      type: "xavier"
      std: 0.09
    }
    bias_filler {
      type: "constant"
      value: 0.2
    }
  }
}
layer {
  name: "inception_3a/relu_3x3_reduce"
  type: "ReLU"
  bottom: "inception_3a/3x3_reduce"
  top: "inception_3a/3x3_reduce"
}
layer {
  name: "inception_3a/3x3"
  type: "Convolution"
  bottom: "inception_3a/3x3_reduce"
  top: "inception_3a/3x3"
  param {
    lr_mult: 1
    decay_mult: 1
  }
  param {
    lr_mult: 2
    decay_mult: 0
  }
  convolution_param {
    num_output: 128
    pad: 1
    kernel_size: 3
    weight_filler {
      type: "xavier"
      std: 0.03
    }
    bias_filler {
      type: "constant"
      value: 0.2
    }
  }
}
layer {
  name: "inception_3a/relu_3x3"
  type: "ReLU"
  bottom: "inception_3a/3x3"
  top: "inception_3a/3x3"
}
layer {
  name: "inception_3a/5x5_reduce"
  type: "Convolution"
  bottom: "pool2/3x3_s2"
  top: "inception_3a/5x5_reduce"
  param {
    lr_mult: 1
    decay_mult: 1
  }
  param {
    lr_mult: 2
    decay_mult: 0
  }
  convolution_param {
    num_output: 16
    kernel_size: 1
    weight_filler {
      type: "xavier"
      std: 0.2
    }
    bias_filler {
      type: "constant"
      value: 0.2
    }
  }
}
layer {
  name: "inception_3a/relu_5x5_reduce"
  type: "ReLU"
  bottom: "inception_3a/5x5_reduce"
  top: "inception_3a/5x5_reduce"
}
layer {
  name: "inception_3a/5x5"
  type: "Convolution"
  bottom: "inception_3a/5x5_reduce"
  top: "inception_3a/5x5"
  param {
    lr_mult: 1
    decay_mult: 1
  }
  param {
    lr_mult: 2
    decay_mult: 0
  }
  convolution_param {
    num_output: 32
    pad: 2
    kernel_size: 5
    weight_filler {
      type: "xavier"
      std: 0.03
    }
    bias_filler {
      type: "constant"
      value: 0.2
    }
  }
}
layer {
  name: "inception_3a/relu_5x5"
  type: "ReLU"
  bottom: "inception_3a/5x5"
  top: "inception_3a/5x5"
}
layer {
  name: "inception_3a/pool"
  type: "Pooling"
  bottom: "pool2/3x3_s2"
  top: "inception_3a/pool"
  pooling_param {
    pool: MAX
    kernel_size: 3
    stride: 1
    pad: 1
  }
}
layer {
  name: "inception_3a/pool_proj"
  type: "Convolution"
  bottom: "inception_3a/pool"
  top: "inception_3a/pool_proj"
  param {
    lr_mult: 1
    decay_mult: 1
  }
  param {
    lr_mult: 2
    decay_mult: 0
  }
  convolution_param {
    num_output: 32
    kernel_size: 1
    weight_filler {
      type: "xavier"
      std: 0.1
    }
    bias_filler {
      type: "constant"
      value: 0.2
    }
  }
}
layer {
  name: "inception_3a/relu_pool_proj"
  type: "ReLU"
  bottom: "inception_3a/pool_proj"
  top: "inception_3a/pool_proj"
}
layer {
  name: "inception_3a/output"
  type: "Concat"
  bottom: "inception_3a/1x1"
  bottom: "inception_3a/3x3"
  bottom: "inception_3a/5x5"
  bottom: "inception_3a/pool_proj"
  top: "inception_3a/output"
}
layer {
  name: "inception_3b/1x1"
  type: "Convolution"
  bottom: "inception_3a/output"
  top: "inception_3b/1x1"
  param {
    lr_mult: 1
    decay_mult: 1
  }
  param {
    lr_mult: 2
    decay_mult: 0
  }
  convolution_param {
    num_output: 128
    kernel_size: 1
    weight_filler {
      type: "xavier"
      std: 0.03
    }
    bias_filler {
      type: "constant"
      value: 0.2
    }
  }
}
layer {
  name: "inception_3b/relu_1x1"
  type: "ReLU"
  bottom: "inception_3b/1x1"
  top: "inception_3b/1x1"
}
layer {
  name: "inception_3b/3x3_reduce"
  type: "Convolution"
  bottom: "inception_3a/output"
  top: "inception_3b/3x3_reduce"
  param {
    lr_mult: 1
    decay_mult: 1
  }
  param {
    lr_mult: 2
    decay_mult: 0
  }
  convolution_param {
    num_output: 128
    kernel_size: 1
    weight_filler {
      type: "xavier"
      std: 0.09
    }
    bias_filler {
      type: "constant"
      value: 0.2
    }
  }
}
layer {
  name: "inception_3b/relu_3x3_reduce"
  type: "ReLU"
  bottom: "inception_3b/3x3_reduce"
  top: "inception_3b/3x3_reduce"
}
layer {
  name: "inception_3b/3x3"
  type: "Convolution"
  bottom: "inception_3b/3x3_reduce"
  top: "inception_3b/3x3"
  param {
    lr_mult: 1
    decay_mult: 1
  }
  param {
    lr_mult: 2
    decay_mult: 0
  }
  convolution_param {
    num_output: 192
    pad: 1
    kernel_size: 3
    weight_filler {
      type: "xavier"
      std: 0.03
    }
    bias_filler {
      type: "constant"
      value: 0.2
    }
  }
}
layer {
  name: "inception_3b/relu_3x3"
  type: "ReLU"
  bottom: "inception_3b/3x3"
  top: "inception_3b/3x3"
}
layer {
  name: "inception_3b/5x5_reduce"
  type: "Convolution"
  bottom: "inception_3a/output"
  top: "inception_3b/5x5_reduce"
  param {
    lr_mult: 1
    decay_mult: 1
  }
  param {
    lr_mult: 2
    decay_mult: 0
  }
  convolution_param {
    num_output: 32
    kernel_size: 1
    weight_filler {
      type: "xavier"
      std: 0.2
    }
    bias_filler {
      type: "constant"
      value: 0.2
    }
  }
}
layer {
  name: "inception_3b/relu_5x5_reduce"
  type: "ReLU"
  bottom: "inception_3b/5x5_reduce"
  top: "inception_3b/5x5_reduce"
}
layer {
  name: "inception_3b/5x5"
  type: "Convolution"
  bottom: "inception_3b/5x5_reduce"
  top: "inception_3b/5x5"
  param {
    lr_mult: 1
    decay_mult: 1
  }
  param {
    lr_mult: 2
    decay_mult: 0
  }
  convolution_param {
    num_output: 96
    pad: 2
    kernel_size: 5
    weight_filler {
      type: "xavier"
      std: 0.03
    }
    bias_filler {
      type: "constant"
      value: 0.2
    }
  }
}
layer {
  name: "inception_3b/relu_5x5"
  type: "ReLU"
  bottom: "inception_3b/5x5"
  top: "inception_3b/5x5"
}
layer {
  name: "inception_3b/pool"
  type: "Pooling"
  bottom: "inception_3a/output"
  top: "inception_3b/pool"
  pooling_param {
    pool: MAX
    kernel_size: 3
    stride: 1
    pad: 1
  }
}
layer {
  name: "inception_3b/pool_proj"
  type: "Convolution"
  bottom: "inception_3b/pool"
  top: "inception_3b/pool_proj"
  param {
    lr_mult: 1
    decay_mult: 1
  }
  param {
    lr_mult: 2
    decay_mult: 0
  }
  convolution_param {
    num_output: 64
    kernel_size: 1
    weight_filler {
      type: "xavier"
      std: 0.1
    }
    bias_filler {
      type: "constant"
      value: 0.2
    }
  }
}
layer {
  name: "inception_3b/relu_pool_proj"
  type: "ReLU"
  bottom: "inception_3b/pool_proj"
  top: "inception_3b/pool_proj"
}
layer {
  name: "inception_3b/output"
  type: "Concat"
  bottom: "inception_3b/1x1"
  bottom: "inception_3b/3x3"
  bottom: "inception_3b/5x5"
  bottom: "inception_3b/pool_proj"
  top: "inception_3b/output"
}
layer {
  name: "pool3/3x3_s2"
  type: "Pooling"
  bottom: "inception_3b/output"
  top: "pool3/3x3_s2"
  pooling_param {
    pool: MAX
    kernel_size: 3
    stride: 2
  }
}
layer {
  name: "inception_4a/1x1"
  type: "Convolution"
  bottom: "pool3/3x3_s2"
  top: "inception_4a/1x1"
  param {
    lr_mult: 1
    decay_mult: 1
  }
  param {
    lr_mult: 2
    decay_mult: 0
  }
  convolution_param {
    num_output: 192
    kernel_size: 1
    weight_filler {
      type: "xavier"
      std: 0.03
    }
    bias_filler {
      type: "constant"
      value: 0.2
    }
  }
}
layer {
  name: "inception_4a/relu_1x1"
  type: "ReLU"
  bottom: "inception_4a/1x1"
  top: "inception_4a/1x1"
}
layer {
  name: "inception_4a/3x3_reduce"
  type: "Convolution"
  bottom: "pool3/3x3_s2"
  top: "inception_4a/3x3_reduce"
  param {
    lr_mult: 1
    decay_mult: 1
  }
  param {
    lr_mult: 2
    decay_mult: 0
  }
  convolution_param {
    num_output: 96
    kernel_size: 1
    weight_filler {
      type: "xavier"
      std: 0.09
    }
    bias_filler {
      type: "constant"
      value: 0.2
    }
  }
}
layer {
  name: "inception_4a/relu_3x3_reduce"
  type: "ReLU"
  bottom: "inception_4a/3x3_reduce"
  top: "inception_4a/3x3_reduce"
}
layer {
  name: "inception_4a/3x3"
  type: "Convolution"
  bottom: "inception_4a/3x3_reduce"
  top: "inception_4a/3x3"
  param {
    lr_mult: 1
    decay_mult: 1
  }
  param {
    lr_mult: 2
    decay_mult: 0
  }
  convolution_param {
    num_output: 208
    pad: 1
    kernel_size: 3
    weight_filler {
      type: "xavier"
      std: 0.03
    }
    bias_filler {
      type: "constant"
      value: 0.2
    }
  }
}
layer {
  name: "inception_4a/relu_3x3"
  type: "ReLU"
  bottom: "inception_4a/3x3"
  top: "inception_4a/3x3"
}
layer {
  name: "inception_4a/5x5_reduce"
  type: "Convolution"
  bottom: "pool3/3x3_s2"
  top: "inception_4a/5x5_reduce"
  param {
    lr_mult: 1
    decay_mult: 1
  }
  param {
    lr_mult: 2
    decay_mult: 0
  }
  convolution_param {
    num_output: 16
    kernel_size: 1
    weight_filler {
      type: "xavier"
      std: 0.2
    }
    bias_filler {
      type: "constant"
      value: 0.2
    }
  }
}
layer {
  name: "inception_4a/relu_5x5_reduce"
  type: "ReLU"
  bottom: "inception_4a/5x5_reduce"
  top: "inception_4a/5x5_reduce"
}
layer {
  name: "inception_4a/5x5"
  type: "Convolution"
  bottom: "inception_4a/5x5_reduce"
  top: "inception_4a/5x5"
  param {
    lr_mult: 1
    decay_mult: 1
  }
  param {
    lr_mult: 2
    decay_mult: 0
  }
  convolution_param {
    num_output: 48
    pad: 2
    kernel_size: 5
    weight_filler {
      type: "xavier"
      std: 0.03
    }
    bias_filler {
      type: "constant"
      value: 0.2
    }
  }
}
layer {
  name: "inception_4a/relu_5x5"
  type: "ReLU"
  bottom: "inception_4a/5x5"
  top: "inception_4a/5x5"
}
layer {
  name: "inception_4a/pool"
  type: "Pooling"
  bottom: "pool3/3x3_s2"
  top: "inception_4a/pool"
  pooling_param {
    pool: MAX
    kernel_size: 3
    stride: 1
    pad: 1
  }
}
layer {
  name: "inception_4a/pool_proj"
  type: "Convolution"
  bottom: "inception_4a/pool"
  top: "inception_4a/pool_proj"
  param {
    lr_mult: 1
    decay_mult: 1
  }
  param {
    lr_mult: 2
    decay_mult: 0
  }
  convolution_param {
    num_output: 64
    kernel_size: 1
    weight_filler {
      type: "xavier"
      std: 0.1
    }
    bias_filler {
      type: "constant"
      value: 0.2
    }
  }
}
layer {
  name: "inception_4a/relu_pool_proj"
  type: "ReLU"
  bottom: "inception_4a/pool_proj"
  top: "inception_4a/pool_proj"
}
layer {
  name: "inception_4a/output"
  type: "Concat"
  bottom: "inception_4a/1x1"
  bottom: "inception_4a/3x3"
  bottom: "inception_4a/5x5"
  bottom: "inception_4a/pool_proj"
  top: "inception_4a/output"
}
layer {
  name: "loss1/ave_pool"
  type: "Pooling"
  bottom: "inception_4a/output"
  top: "loss1/ave_pool"
  pooling_param {
    pool: AVE
    kernel_size: 5
    stride: 3
  }
}
layer {
  name: "loss1/conv"
  type: "Convolution"
  bottom: "loss1/ave_pool"
  top: "loss1/conv"
  param {
    lr_mult: 1
    decay_mult: 1
  }
  param {
    lr_mult: 2
    decay_mult: 0
  }
  convolution_param {
    num_output: 128
    kernel_size: 1
    weight_filler {
      type: "xavier"
      std: 0.08
    }
    bias_filler {
      type: "constant"
      value: 0.2
    }
  }
}
layer {
  name: "loss1/relu_conv"
  type: "ReLU"
  bottom: "loss1/conv"
  top: "loss1/conv"
}
layer {
  name: "loss1/fc"
  type: "InnerProduct"
  bottom: "loss1/conv"
  top: "loss1/fc"
  param {
    lr_mult: 1
    decay_mult: 1
  }
  param {
    lr_mult: 2
    decay_mult: 0
  }
  inner_product_param {
    num_output: 1024
    weight_filler {
      type: "xavier"
      std: 0.02
    }
    bias_filler {
      type: "constant"
      value: 0.2
    }
  }
}
layer {
  name: "loss1/relu_fc"
  type: "ReLU"
  bottom: "loss1/fc"
  top: "loss1/fc"
}
layer {
  name: "loss1/drop_fc"
  type: "Dropout"
  bottom: "loss1/fc"
  top: "loss1/fc"
  dropout_param {
    dropout_ratio: 0.7
  }
}
layer {
  name: "loss1/classifier_plantvillage"
  type: "InnerProduct"
  bottom: "loss1/fc"
  top: "loss1/classifier_plantvillage"
  param {
    lr_mult: 1
    decay_mult: 1
  }
  param {
    lr_mult: 2
    decay_mult: 0
  }
  inner_product_param {
    num_output: 38
    weight_filler {
      type: "xavier"
      std: 0.0009765625
    }
    bias_filler {
      type: "constant"
      value: 0
    }
  }
}
layer {
  name: "inception_4b/1x1"
  type: "Convolution"
  bottom: "inception_4a/output"
  top: "inception_4b/1x1"
  param {
    lr_mult: 1
    decay_mult: 1
  }
  param {
    lr_mult: 2
    decay_mult: 0
  }
  convolution_param {
    num_output: 160
    kernel_size: 1
    weight_filler {
      type: "xavier"
      std: 0.03
    }
    bias_filler {
      type: "constant"
      value: 0.2
    }
  }
}
layer {
  name: "inception_4b/relu_1x1"
  type: "ReLU"
  bottom: "inception_4b/1x1"
  top: "inception_4b/1x1"
}
layer {
  name: "inception_4b/3x3_reduce"
  type: "Convolution"
  bottom: "inception_4a/output"
  top: "inception_4b/3x3_reduce"
  param {
    lr_mult: 1
    decay_mult: 1
  }
  param {
    lr_mult: 2
    decay_mult: 0
  }
  convolution_param {
    num_output: 112
    kernel_size: 1
    weight_filler {
      type: "xavier"
      std: 0.09
    }
    bias_filler {
      type: "constant"
      value: 0.2
    }
  }
}
layer {
  name: "inception_4b/relu_3x3_reduce"
  type: "ReLU"
  bottom: "inception_4b/3x3_reduce"
  top: "inception_4b/3x3_reduce"
}
layer {
  name: "inception_4b/3x3"
  type: "Convolution"
  bottom: "inception_4b/3x3_reduce"
  top: "inception_4b/3x3"
  param {
    lr_mult: 1
    decay_mult: 1
  }
  param {
    lr_mult: 2
    decay_mult: 0
  }
  convolution_param {
    num_output: 224
    pad: 1
    kernel_size: 3
    weight_filler {
      type: "xavier"
      std: 0.03
    }
    bias_filler {
      type: "constant"
      value: 0.2
    }
  }
}
layer {
  name: "inception_4b/relu_3x3"
  type: "ReLU"
  bottom: "inception_4b/3x3"
  top: "inception_4b/3x3"
}
layer {
  name: "inception_4b/5x5_reduce"
  type: "Convolution"
  bottom: "inception_4a/output"
  top: "inception_4b/5x5_reduce"
  param {
    lr_mult: 1
    decay_mult: 1
  }
  param {
    lr_mult: 2
    decay_mult: 0
  }
  convolution_param {
    num_output: 24
    kernel_size: 1
    weight_filler {
      type: "xavier"
      std: 0.2
    }
    bias_filler {
      type: "constant"
      value: 0.2
    }
  }
}
layer {
  name: "inception_4b/relu_5x5_reduce"
  type: "ReLU"
  bottom: "inception_4b/5x5_reduce"
  top: "inception_4b/5x5_reduce"
}
layer {
  name: "inception_4b/5x5"
  type: "Convolution"
  bottom: "inception_4b/5x5_reduce"
  top: "inception_4b/5x5"
  param {
    lr_mult: 1
    decay_mult: 1
  }
  param {
    lr_mult: 2
    decay_mult: 0
  }
  convolution_param {
    num_output: 64
    pad: 2
    kernel_size: 5
    weight_filler {
      type: "xavier"
      std: 0.03
    }
    bias_filler {
      type: "constant"
      value: 0.2
    }
  }
}
layer {
  name: "inception_4b/relu_5x5"
  type: "ReLU"
  bottom: "inception_4b/5x5"
  top: "inception_4b/5x5"
}
layer {
  name: "inception_4b/pool"
  type: "Pooling"
  bottom: "inception_4a/output"
  top: "inception_4b/pool"
  pooling_param {
    pool: MAX
    kernel_size: 3
    stride: 1
    pad: 1
  }
}
layer {
  name: "inception_4b/pool_proj"
  type: "Convolution"
  bottom: "inception_4b/pool"
  top: "inception_4b/pool_proj"
  param {
    lr_mult: 1
    decay_mult: 1
  }
  param {
    lr_mult: 2
    decay_mult: 0
  }
  convolution_param {
    num_output: 64
    kernel_size: 1
    weight_filler {
      type: "xavier"
      std: 0.1
    }
    bias_filler {
      type: "constant"
      value: 0.2
    }
  }
}
layer {
  name: "inception_4b/relu_pool_proj"
  type: "ReLU"
  bottom: "inception_4b/pool_proj"
  top: "inception_4b/pool_proj"
}
layer {
  name: "inception_4b/output"
  type: "Concat"
  bottom: "inception_4b/1x1"
  bottom: "inception_4b/3x3"
  bottom: "inception_4b/5x5"
  bottom: "inception_4b/pool_proj"
  top: "inception_4b/output"
}
layer {
  name: "inception_4c/1x1"
  type: "Convolution"
  bottom: "inception_4b/output"
  top: "inception_4c/1x1"
  param {
    lr_mult: 1
    decay_mult: 1
  }
  param {
    lr_mult: 2
    decay_mult: 0
  }
  convolution_param {
    num_output: 128
    kernel_size: 1
    weight_filler {
      type: "xavier"
      std: 0.03
    }
    bias_filler {
      type: "constant"
      value: 0.2
    }
  }
}
layer {
  name: "inception_4c/relu_1x1"
  type: "ReLU"
  bottom: "inception_4c/1x1"
  top: "inception_4c/1x1"
}
layer {
  name: "inception_4c/3x3_reduce"
  type: "Convolution"
  bottom: "inception_4b/output"
  top: "inception_4c/3x3_reduce"
  param {
    lr_mult: 1
    decay_mult: 1
  }
  param {
    lr_mult: 2
    decay_mult: 0
  }
  convolution_param {
    num_output: 128
    kernel_size: 1
    weight_filler {
      type: "xavier"
      std: 0.09
    }
    bias_filler {
      type: "constant"
      value: 0.2
    }
  }
}
layer {
  name: "inception_4c/relu_3x3_reduce"
  type: "ReLU"
  bottom: "inception_4c/3x3_reduce"
  top: "inception_4c/3x3_reduce"
}
layer {
  name: "inception_4c/3x3"
  type: "Convolution"
  bottom: "inception_4c/3x3_reduce"
  top: "inception_4c/3x3"
  param {
    lr_mult: 1
    decay_mult: 1
  }
  param {
    lr_mult: 2
    decay_mult: 0
  }
  convolution_param {
    num_output: 256
    pad: 1
    kernel_size: 3
    weight_filler {
      type: "xavier"
      std: 0.03
    }
    bias_filler {
      type: "constant"
      value: 0.2
    }
  }
}
layer {
  name: "inception_4c/relu_3x3"
  type: "ReLU"
  bottom: "inception_4c/3x3"
  top: "inception_4c/3x3"
}
layer {
  name: "inception_4c/5x5_reduce"
  type: "Convolution"
  bottom: "inception_4b/output"
  top: "inception_4c/5x5_reduce"
  param {
    lr_mult: 1
    decay_mult: 1
  }
  param {
    lr_mult: 2
    decay_mult: 0
  }
  convolution_param {
    num_output: 24
    kernel_size: 1
    weight_filler {
      type: "xavier"
      std: 0.2
    }
    bias_filler {
      type: "constant"
      value: 0.2
    }
  }
}
layer {
  name: "inception_4c/relu_5x5_reduce"
  type: "ReLU"
  bottom: "inception_4c/5x5_reduce"
  top: "inception_4c/5x5_reduce"
}
layer {
  name: "inception_4c/5x5"
  type: "Convolution"
  bottom: "inception_4c/5x5_reduce"
  top: "inception_4c/5x5"
  param {
    lr_mult: 1
    decay_mult: 1
  }
  param {
    lr_mult: 2
    decay_mult: 0
  }
  convolution_param {
    num_output: 64
    pad: 2
    kernel_size: 5
    weight_filler {
      type: "xavier"
      std: 0.03
    }
    bias_filler {
      type: "constant"
      value: 0.2
    }
  }
}
layer {
  name: "inception_4c/relu_5x5"
  type: "ReLU"
  bottom: "inception_4c/5x5"
  top: "inception_4c/5x5"
}
layer {
  name: "inception_4c/pool"
  type: "Pooling"
  bottom: "inception_4b/output"
  top: "inception_4c/pool"
  pooling_param {
    pool: MAX
    kernel_size: 3
    stride: 1
    pad: 1
  }
}
layer {
  name: "inception_4c/pool_proj"
  type: "Convolution"
  bottom: "inception_4c/pool"
  top: "inception_4c/pool_proj"
  param {
    lr_mult: 1
    decay_mult: 1
  }
  param {
    lr_mult: 2
    decay_mult: 0
  }
  convolution_param {
    num_output: 64
    kernel_size: 1
    weight_filler {
      type: "xavier"
      std: 0.1
    }
    bias_filler {
      type: "constant"
      value: 0.2
    }
  }
}
layer {
  name: "inception_4c/relu_pool_proj"
  type: "ReLU"
  bottom: "inception_4c/pool_proj"
  top: "inception_4c/pool_proj"
}
layer {
  name: "inception_4c/output"
  type: "Concat"
  bottom: "inception_4c/1x1"
  bottom: "inception_4c/3x3"
  bottom: "inception_4c/5x5"
  bottom: "inception_4c/pool_proj"
  top: "inception_4c/output"
}
layer {
  name: "inception_4d/1x1"
  type: "Convolution"
  bottom: "inception_4c/output"
  top: "inception_4d/1x1"
  param {
    lr_mult: 1
    decay_mult: 1
  }
  param {
    lr_mult: 2
    decay_mult: 0
  }
  convolution_param {
    num_output: 112
    kernel_size: 1
    weight_filler {
      type: "xavier"
      std: 0.03
    }
    bias_filler {
      type: "constant"
      value: 0.2
    }
  }
}
layer {
  name: "inception_4d/relu_1x1"
  type: "ReLU"
  bottom: "inception_4d/1x1"
  top: "inception_4d/1x1"
}
layer {
  name: "inception_4d/3x3_reduce"
  type: "Convolution"
  bottom: "inception_4c/output"
  top: "inception_4d/3x3_reduce"
  param {
    lr_mult: 1
    decay_mult: 1
  }
  param {
    lr_mult: 2
    decay_mult: 0
  }
  convolution_param {
    num_output: 144
    kernel_size: 1
    weight_filler {
      type: "xavier"
      std: 0.09
    }
    bias_filler {
      type: "constant"
      value: 0.2
    }
  }
}
layer {
  name: "inception_4d/relu_3x3_reduce"
  type: "ReLU"
  bottom: "inception_4d/3x3_reduce"
  top: "inception_4d/3x3_reduce"
}
layer {
  name: "inception_4d/3x3"
  type: "Convolution"
  bottom: "inception_4d/3x3_reduce"
  top: "inception_4d/3x3"
  param {
    lr_mult: 1
    decay_mult: 1
  }
  param {
    lr_mult: 2
    decay_mult: 0
  }
  convolution_param {
    num_output: 288
    pad: 1
    kernel_size: 3
    weight_filler {
      type: "xavier"
      std: 0.03
    }
    bias_filler {
      type: "constant"
      value: 0.2
    }
  }
}
layer {
  name: "inception_4d/relu_3x3"
  type: "ReLU"
  bottom: "inception_4d/3x3"
  top: "inception_4d/3x3"
}
layer {
  name: "inception_4d/5x5_reduce"
  type: "Convolution"
  bottom: "inception_4c/output"
  top: "inception_4d/5x5_reduce"
  param {
    lr_mult: 1
    decay_mult: 1
  }
  param {
    lr_mult: 2
    decay_mult: 0
  }
  convolution_param {
    num_output: 32
    kernel_size: 1
    weight_filler {
      type: "xavier"
      std: 0.2
    }
    bias_filler {
      type: "constant"
      value: 0.2
    }
  }
}
layer {
  name: "inception_4d/relu_5x5_reduce"
  type: "ReLU"
  bottom: "inception_4d/5x5_reduce"
  top: "inception_4d/5x5_reduce"
}
layer {
  name: "inception_4d/5x5"
  type: "Convolution"
  bottom: "inception_4d/5x5_reduce"
  top: "inception_4d/5x5"
  param {
    lr_mult: 1
    decay_mult: 1
  }
  param {
    lr_mult: 2
    decay_mult: 0
  }
  convolution_param {
    num_output: 64
    pad: 2
    kernel_size: 5
    weight_filler {
      type: "xavier"
      std: 0.03
    }
    bias_filler {
      type: "constant"
      value: 0.2
    }
  }
}
layer {
  name: "inception_4d/relu_5x5"
  type: "ReLU"
  bottom: "inception_4d/5x5"
  top: "inception_4d/5x5"
}
layer {
  name: "inception_4d/pool"
  type: "Pooling"
  bottom: "inception_4c/output"
  top: "inception_4d/pool"
  pooling_param {
    pool: MAX
    kernel_size: 3
    stride: 1
    pad: 1
  }
}
layer {
  name: "inception_4d/pool_proj"
  type: "Convolution"
  bottom: "inception_4d/pool"
  top: "inception_4d/pool_proj"
  param {
    lr_mult: 1
    decay_mult: 1
  }
  param {
    lr_mult: 2
    decay_mult: 0
  }
  convolution_param {
    num_output: 64
    kernel_size: 1
    weight_filler {
      type: "xavier"
      std: 0.1
    }
    bias_filler {
      type: "constant"
      value: 0.2
    }
  }
}
layer {
  name: "inception_4d/relu_pool_proj"
  type: "ReLU"
  bottom: "inception_4d/pool_proj"
  top: "inception_4d/pool_proj"
}
layer {
  name: "inception_4d/output"
  type: "Concat"
  bottom: "inception_4d/1x1"
  bottom: "inception_4d/3x3"
  bottom: "inception_4d/5x5"
  bottom: "inception_4d/pool_proj"
  top: "inception_4d/output"
}
layer {
  name: "loss2/ave_pool"
  type: "Pooling"
  bottom: "inception_4d/output"
  top: "loss2/ave_pool"
  pooling_param {
    pool: AVE
    kernel_size: 5
    stride: 3
  }
}
layer {
  name: "loss2/conv"
  type: "Convolution"
  bottom: "loss2/ave_pool"
  top: "loss2/conv"
  param {
    lr_mult: 1
    decay_mult: 1
  }
  param {
    lr_mult: 2
    decay_mult: 0
  }
  convolution_param {
    num_output: 128
    kernel_size: 1
    weight_filler {
      type: "xavier"
      std: 0.08
    }
    bias_filler {
      type: "constant"
      value: 0.2
    }
  }
}
layer {
  name: "loss2/relu_conv"
  type: "ReLU"
  bottom: "loss2/conv"
  top: "loss2/conv"
}
layer {
  name: "loss2/fc"
  type: "InnerProduct"
  bottom: "loss2/conv"
  top: "loss2/fc"
  param {
    lr_mult: 1
    decay_mult: 1
  }
  param {
    lr_mult: 2
    decay_mult: 0
  }
  inner_product_param {
    num_output: 1024
    weight_filler {
      type: "xavier"
      std: 0.02
    }
    bias_filler {
      type: "constant"
      value: 0.2
    }
  }
}
layer {
  name: "loss2/relu_fc"
  type: "ReLU"
  bottom: "loss2/fc"
  top: "loss2/fc"
}
layer {
  name: "loss2/drop_fc"
  type: "Dropout"
  bottom: "loss2/fc"
  top: "loss2/fc"
  dropout_param {
    dropout_ratio: 0.7
  }
}
layer {
  name: "loss2/classifier_plantvillage"
  type: "InnerProduct"
  bottom: "loss2/fc"
  top: "loss2/classifier_plantvillage"
  param {
    lr_mult: 1
    decay_mult: 1
  }
  param {
    lr_mult: 2
    decay_mult: 0
  }
  inner_product_param {
    num_output: 38
    weight_filler {
      type: "xavier"
      std: 0.0009765625
    }
    bias_filler {
      type: "constant"
      value: 0
    }
  }
}
layer {
  name: "inception_4e/1x1"
  type: "Convolution"
  bottom: "inception_4d/output"
  top: "inception_4e/1x1"
  param {
    lr_mult: 1
    decay_mult: 1
  }
  param {
    lr_mult: 2
    decay_mult: 0
  }
  convolution_param {
    num_output: 256
    kernel_size: 1
    weight_filler {
      type: "xavier"
      std: 0.03
    }
    bias_filler {
      type: "constant"
      value: 0.2
    }
  }
}
layer {
  name: "inception_4e/relu_1x1"
  type: "ReLU"
  bottom: "inception_4e/1x1"
  top: "inception_4e/1x1"
}
layer {
  name: "inception_4e/3x3_reduce"
  type: "Convolution"
  bottom: "inception_4d/output"
  top: "inception_4e/3x3_reduce"
  param {
    lr_mult: 1
    decay_mult: 1
  }
  param {
    lr_mult: 2
    decay_mult: 0
  }
  convolution_param {
    num_output: 160
    kernel_size: 1
    weight_filler {
      type: "xavier"
      std: 0.09
    }
    bias_filler {
      type: "constant"
      value: 0.2
    }
  }
}
layer {
  name: "inception_4e/relu_3x3_reduce"
  type: "ReLU"
  bottom: "inception_4e/3x3_reduce"
  top: "inception_4e/3x3_reduce"
}
layer {
  name: "inception_4e/3x3"
  type: "Convolution"
  bottom: "inception_4e/3x3_reduce"
  top: "inception_4e/3x3"
  param {
    lr_mult: 1
    decay_mult: 1
  }
  param {
    lr_mult: 2
    decay_mult: 0
  }
  convolution_param {
    num_output: 320
    pad: 1
    kernel_size: 3
    weight_filler {
      type: "xavier"
      std: 0.03
    }
    bias_filler {
      type: "constant"
      value: 0.2
    }
  }
}
layer {
  name: "inception_4e/relu_3x3"
  type: "ReLU"
  bottom: "inception_4e/3x3"
  top: "inception_4e/3x3"
}
layer {
  name: "inception_4e/5x5_reduce"
  type: "Convolution"
  bottom: "inception_4d/output"
  top: "inception_4e/5x5_reduce"
  param {
    lr_mult: 1
    decay_mult: 1
  }
  param {
    lr_mult: 2
    decay_mult: 0
  }
  convolution_param {
    num_output: 32
    kernel_size: 1
    weight_filler {
      type: "xavier"
      std: 0.2
    }
    bias_filler {
      type: "constant"
      value: 0.2
    }
  }
}
layer {
  name: "inception_4e/relu_5x5_reduce"
  type: "ReLU"
  bottom: "inception_4e/5x5_reduce"
  top: "inception_4e/5x5_reduce"
}
layer {
  name: "inception_4e/5x5"
  type: "Convolution"
  bottom: "inception_4e/5x5_reduce"
  top: "inception_4e/
I0403 17:44:50.984630 14833 layer_factory.hpp:77] Creating layer data
I0403 17:44:50.985208 14833 net.cpp:91] Creating Layer data
I0403 17:44:50.985237 14833 net.cpp:399] data -> data
I0403 17:44:50.985286 14833 net.cpp:399] data -> label
I0403 17:44:50.985323 14833 data_transformer.cpp:25] Loading mean file from: /home/mohanty/data/final_dataset/lmdb/grayscale-60-40/mean.binaryproto
I0403 17:44:50.986445 14838 db_lmdb.cpp:38] Opened lmdb /home/mohanty/data/final_dataset/lmdb/grayscale-60-40/test_db
I0403 17:44:50.998100 14833 data_layer.cpp:41] output data size: 24,3,224,224
I0403 17:44:51.024091 14833 net.cpp:141] Setting up data
I0403 17:44:51.024168 14833 net.cpp:148] Top shape: 24 3 224 224 (3612672)
I0403 17:44:51.024193 14833 net.cpp:148] Top shape: 24 (24)
I0403 17:44:51.024207 14833 net.cpp:156] Memory required for data: 14450784
I0403 17:44:51.024235 14833 layer_factory.hpp:77] Creating layer label_data_1_split
I0403 17:44:51.024262 14833 net.cpp:91] Creating Layer label_data_1_split
I0403 17:44:51.024281 14833 net.cpp:425] label_data_1_split <- label
I0403 17:44:51.024312 14833 net.cpp:399] label_data_1_split -> label_data_1_split_0
I0403 17:44:51.024340 14833 net.cpp:399] label_data_1_split -> label_data_1_split_1
I0403 17:44:51.024363 14833 net.cpp:399] label_data_1_split -> label_data_1_split_2
I0403 17:44:51.024384 14833 net.cpp:399] label_data_1_split -> label_data_1_split_3
I0403 17:44:51.024404 14833 net.cpp:399] label_data_1_split -> label_data_1_split_4
I0403 17:44:51.024425 14833 net.cpp:399] label_data_1_split -> label_data_1_split_5
I0403 17:44:51.024444 14833 net.cpp:399] label_data_1_split -> label_data_1_split_6
I0403 17:44:51.024464 14833 net.cpp:399] label_data_1_split -> label_data_1_split_7
I0403 17:44:51.024483 14833 net.cpp:399] label_data_1_split -> label_data_1_split_8
I0403 17:44:51.024503 14833 net.cpp:399] label_data_1_split -> label_data_1_split_9
I0403 17:44:51.024619 14833 net.cpp:141] Setting up label_data_1_split
I0403 17:44:51.024643 14833 net.cpp:148] Top shape: 24 (24)
I0403 17:44:51.024660 14833 net.cpp:148] Top shape: 24 (24)
I0403 17:44:51.024675 14833 net.cpp:148] Top shape: 24 (24)
I0403 17:44:51.024691 14833 net.cpp:148] Top shape: 24 (24)
I0403 17:44:51.024708 14833 net.cpp:148] Top shape: 24 (24)
I0403 17:44:51.024723 14833 net.cpp:148] Top shape: 24 (24)
I0403 17:44:51.024739 14833 net.cpp:148] Top shape: 24 (24)
I0403 17:44:51.024754 14833 net.cpp:148] Top shape: 24 (24)
I0403 17:44:51.024770 14833 net.cpp:148] Top shape: 24 (24)
I0403 17:44:51.024785 14833 net.cpp:148] Top shape: 24 (24)
I0403 17:44:51.024821 14833 net.cpp:156] Memory required for data: 14451744
I0403 17:44:51.024837 14833 layer_factory.hpp:77] Creating layer conv1/7x7_s2
I0403 17:44:51.024869 14833 net.cpp:91] Creating Layer conv1/7x7_s2
I0403 17:44:51.024888 14833 net.cpp:425] conv1/7x7_s2 <- data
I0403 17:44:51.024907 14833 net.cpp:399] conv1/7x7_s2 -> conv1/7x7_s2
I0403 17:44:51.157275 14833 net.cpp:141] Setting up conv1/7x7_s2
I0403 17:44:51.157359 14833 net.cpp:148] Top shape: 24 64 112 112 (19267584)
I0403 17:44:51.157378 14833 net.cpp:156] Memory required for data: 91522080
I0403 17:44:51.157413 14833 layer_factory.hpp:77] Creating layer conv1/relu_7x7
I0403 17:44:51.157440 14833 net.cpp:91] Creating Layer conv1/relu_7x7
I0403 17:44:51.157459 14833 net.cpp:425] conv1/relu_7x7 <- conv1/7x7_s2
I0403 17:44:51.157477 14833 net.cpp:386] conv1/relu_7x7 -> conv1/7x7_s2 (in-place)
I0403 17:44:51.157730 14833 net.cpp:141] Setting up conv1/relu_7x7
I0403 17:44:51.157757 14833 net.cpp:148] Top shape: 24 64 112 112 (19267584)
I0403 17:44:51.157771 14833 net.cpp:156] Memory required for data: 168592416
I0403 17:44:51.157786 14833 layer_factory.hpp:77] Creating layer pool1/3x3_s2
I0403 17:44:51.157811 14833 net.cpp:91] Creating Layer pool1/3x3_s2
I0403 17:44:51.157829 14833 net.cpp:425] pool1/3x3_s2 <- conv1/7x7_s2
I0403 17:44:51.157846 14833 net.cpp:399] pool1/3x3_s2 -> pool1/3x3_s2
I0403 17:44:51.157919 14833 net.cpp:141] Setting up pool1/3x3_s2
I0403 17:44:51.157943 14833 net.cpp:148] Top shape: 24 64 56 56 (4816896)
I0403 17:44:51.157958 14833 net.cpp:156] Memory required for data: 187860000
I0403 17:44:51.157973 14833 layer_factory.hpp:77] Creating layer pool1/norm1
I0403 17:44:51.158009 14833 net.cpp:91] Creating Layer pool1/norm1
I0403 17:44:51.158027 14833 net.cpp:425] pool1/norm1 <- pool1/3x3_s2
I0403 17:44:51.158046 14833 net.cpp:399] pool1/norm1 -> pool1/norm1
I0403 17:44:51.158327 14833 net.cpp:141] Setting up pool1/norm1
I0403 17:44:51.158354 14833 net.cpp:148] Top shape: 24 64 56 56 (4816896)
I0403 17:44:51.158370 14833 net.cpp:156] Memory required for data: 207127584
I0403 17:44:51.158385 14833 layer_factory.hpp:77] Creating layer conv2/3x3_reduce
I0403 17:44:51.158408 14833 net.cpp:91] Creating Layer conv2/3x3_reduce
I0403 17:44:51.158426 14833 net.cpp:425] conv2/3x3_reduce <- pool1/norm1
I0403 17:44:51.158443 14833 net.cpp:399] conv2/3x3_reduce -> conv2/3x3_reduce
I0403 17:44:51.159806 14833 net.cpp:141] Setting up conv2/3x3_reduce
I0403 17:44:51.159835 14833 net.cpp:148] Top shape: 24 64 56 56 (4816896)
I0403 17:44:51.159852 14833 net.cpp:156] Memory required for data: 226395168
I0403 17:44:51.159871 14833 layer_factory.hpp:77] Creating layer conv2/relu_3x3_reduce
I0403 17:44:51.159893 14833 net.cpp:91] Creating Layer conv2/relu_3x3_reduce
I0403 17:44:51.159909 14833 net.cpp:425] conv2/relu_3x3_reduce <- conv2/3x3_reduce
I0403 17:44:51.159929 14833 net.cpp:386] conv2/relu_3x3_reduce -> conv2/3x3_reduce (in-place)
I0403 17:44:51.160197 14833 net.cpp:141] Setting up conv2/relu_3x3_reduce
I0403 17:44:51.160223 14833 net.cpp:148] Top shape: 24 64 56 56 (4816896)
I0403 17:44:51.160238 14833 net.cpp:156] Memory required for data: 245662752
I0403 17:44:51.160254 14833 layer_factory.hpp:77] Creating layer conv2/3x3
I0403 17:44:51.160279 14833 net.cpp:91] Creating Layer conv2/3x3
I0403 17:44:51.160295 14833 net.cpp:425] conv2/3x3 <- conv2/3x3_reduce
I0403 17:44:51.160315 14833 net.cpp:399] conv2/3x3 -> conv2/3x3
I0403 17:44:51.162595 14833 net.cpp:141] Setting up conv2/3x3
I0403 17:44:51.162626 14833 net.cpp:148] Top shape: 24 192 56 56 (14450688)
I0403 17:44:51.162641 14833 net.cpp:156] Memory required for data: 303465504
I0403 17:44:51.162662 14833 layer_factory.hpp:77] Creating layer conv2/relu_3x3
I0403 17:44:51.162684 14833 net.cpp:91] Creating Layer conv2/relu_3x3
I0403 17:44:51.162701 14833 net.cpp:425] conv2/relu_3x3 <- conv2/3x3
I0403 17:44:51.162719 14833 net.cpp:386] conv2/relu_3x3 -> conv2/3x3 (in-place)
I0403 17:44:51.162894 14833 net.cpp:141] Setting up conv2/relu_3x3
I0403 17:44:51.162920 14833 net.cpp:148] Top shape: 24 192 56 56 (14450688)
I0403 17:44:51.162966 14833 net.cpp:156] Memory required for data: 361268256
I0403 17:44:51.162986 14833 layer_factory.hpp:77] Creating layer conv2/norm2
I0403 17:44:51.163005 14833 net.cpp:91] Creating Layer conv2/norm2
I0403 17:44:51.163022 14833 net.cpp:425] conv2/norm2 <- conv2/3x3
I0403 17:44:51.163041 14833 net.cpp:399] conv2/norm2 -> conv2/norm2
I0403 17:44:51.163348 14833 net.cpp:141] Setting up conv2/norm2
I0403 17:44:51.163375 14833 net.cpp:148] Top shape: 24 192 56 56 (14450688)
I0403 17:44:51.163389 14833 net.cpp:156] Memory required for data: 419071008
I0403 17:44:51.163403 14833 layer_factory.hpp:77] Creating layer pool2/3x3_s2
I0403 17:44:51.163421 14833 net.cpp:91] Creating Layer pool2/3x3_s2
I0403 17:44:51.163436 14833 net.cpp:425] pool2/3x3_s2 <- conv2/norm2
I0403 17:44:51.163456 14833 net.cpp:399] pool2/3x3_s2 -> pool2/3x3_s2
I0403 17:44:51.163508 14833 net.cpp:141] Setting up pool2/3x3_s2
I0403 17:44:51.163532 14833 net.cpp:148] Top shape: 24 192 28 28 (3612672)
I0403 17:44:51.163545 14833 net.cpp:156] Memory required for data: 433521696
I0403 17:44:51.163560 14833 layer_factory.hpp:77] Creating layer pool2/3x3_s2_pool2/3x3_s2_0_split
I0403 17:44:51.163579 14833 net.cpp:91] Creating Layer pool2/3x3_s2_pool2/3x3_s2_0_split
I0403 17:44:51.163595 14833 net.cpp:425] pool2/3x3_s2_pool2/3x3_s2_0_split <- pool2/3x3_s2
I0403 17:44:51.163614 14833 net.cpp:399] pool2/3x3_s2_pool2/3x3_s2_0_split -> pool2/3x3_s2_pool2/3x3_s2_0_split_0
I0403 17:44:51.163635 14833 net.cpp:399] pool2/3x3_s2_pool2/3x3_s2_0_split -> pool2/3x3_s2_pool2/3x3_s2_0_split_1
I0403 17:44:51.163655 14833 net.cpp:399] pool2/3x3_s2_pool2/3x3_s2_0_split -> pool2/3x3_s2_pool2/3x3_s2_0_split_2
I0403 17:44:51.163672 14833 net.cpp:399] pool2/3x3_s2_pool2/3x3_s2_0_split -> pool2/3x3_s2_pool2/3x3_s2_0_split_3
I0403 17:44:51.163740 14833 net.cpp:141] Setting up pool2/3x3_s2_pool2/3x3_s2_0_split
I0403 17:44:51.163763 14833 net.cpp:148] Top shape: 24 192 28 28 (3612672)
I0403 17:44:51.163779 14833 net.cpp:148] Top shape: 24 192 28 28 (3612672)
I0403 17:44:51.163794 14833 net.cpp:148] Top shape: 24 192 28 28 (3612672)
I0403 17:44:51.163810 14833 net.cpp:148] Top shape: 24 192 28 28 (3612672)
I0403 17:44:51.163823 14833 net.cpp:156] Memory required for data: 491324448
I0403 17:44:51.163838 14833 layer_factory.hpp:77] Creating layer inception_3a/1x1
I0403 17:44:51.163861 14833 net.cpp:91] Creating Layer inception_3a/1x1
I0403 17:44:51.163877 14833 net.cpp:425] inception_3a/1x1 <- pool2/3x3_s2_pool2/3x3_s2_0_split_0
I0403 17:44:51.163898 14833 net.cpp:399] inception_3a/1x1 -> inception_3a/1x1
I0403 17:44:51.165431 14833 net.cpp:141] Setting up inception_3a/1x1
I0403 17:44:51.165459 14833 net.cpp:148] Top shape: 24 64 28 28 (1204224)
I0403 17:44:51.165477 14833 net.cpp:156] Memory required for data: 496141344
I0403 17:44:51.165494 14833 layer_factory.hpp:77] Creating layer inception_3a/relu_1x1
I0403 17:44:51.165514 14833 net.cpp:91] Creating Layer inception_3a/relu_1x1
I0403 17:44:51.165531 14833 net.cpp:425] inception_3a/relu_1x1 <- inception_3a/1x1
I0403 17:44:51.165547 14833 net.cpp:386] inception_3a/relu_1x1 -> inception_3a/1x1 (in-place)
I0403 17:44:51.165719 14833 net.cpp:141] Setting up inception_3a/relu_1x1
I0403 17:44:51.165743 14833 net.cpp:148] Top shape: 24 64 28 28 (1204224)
I0403 17:44:51.165760 14833 net.cpp:156] Memory required for data: 500958240
I0403 17:44:51.165776 14833 layer_factory.hpp:77] Creating layer inception_3a/3x3_reduce
I0403 17:44:51.165802 14833 net.cpp:91] Creating Layer inception_3a/3x3_reduce
I0403 17:44:51.165819 14833 net.cpp:425] inception_3a/3x3_reduce <- pool2/3x3_s2_pool2/3x3_s2_0_split_1
I0403 17:44:51.165839 14833 net.cpp:399] inception_3a/3x3_reduce -> inception_3a/3x3_reduce
I0403 17:44:51.167511 14833 net.cpp:141] Setting up inception_3a/3x3_reduce
I0403 17:44:51.167541 14833 net.cpp:148] Top shape: 24 96 28 28 (1806336)
I0403 17:44:51.167557 14833 net.cpp:156] Memory required for data: 508183584
I0403 17:44:51.167582 14833 layer_factory.hpp:77] Creating layer inception_3a/relu_3x3_reduce
I0403 17:44:51.167624 14833 net.cpp:91] Creating Layer inception_3a/relu_3x3_reduce
I0403 17:44:51.167644 14833 net.cpp:425] inception_3a/relu_3x3_reduce <- inception_3a/3x3_reduce
I0403 17:44:51.167661 14833 net.cpp:386] inception_3a/relu_3x3_reduce -> inception_3a/3x3_reduce (in-place)
I0403 17:44:51.167841 14833 net.cpp:141] Setting up inception_3a/relu_3x3_reduce
I0403 17:44:51.167865 14833 net.cpp:148] Top shape: 24 96 28 28 (1806336)
I0403 17:44:51.167881 14833 net.cpp:156] Memory required for data: 515408928
I0403 17:44:51.167896 14833 layer_factory.hpp:77] Creating layer inception_3a/3x3
I0403 17:44:51.167917 14833 net.cpp:91] Creating Layer inception_3a/3x3
I0403 17:44:51.167933 14833 net.cpp:425] inception_3a/3x3 <- inception_3a/3x3_reduce
I0403 17:44:51.167955 14833 net.cpp:399] inception_3a/3x3 -> inception_3a/3x3
I0403 17:44:51.169636 14833 net.cpp:141] Setting up inception_3a/3x3
I0403 17:44:51.169666 14833 net.cpp:148] Top shape: 24 128 28 28 (2408448)
I0403 17:44:51.169682 14833 net.cpp:156] Memory required for data: 525042720
I0403 17:44:51.169700 14833 layer_factory.hpp:77] Creating layer inception_3a/relu_3x3
I0403 17:44:51.169721 14833 net.cpp:91] Creating Layer inception_3a/relu_3x3
I0403 17:44:51.169737 14833 net.cpp:425] inception_3a/relu_3x3 <- inception_3a/3x3
I0403 17:44:51.169754 14833 net.cpp:386] inception_3a/relu_3x3 -> inception_3a/3x3 (in-place)
I0403 17:44:51.170027 14833 net.cpp:141] Setting up inception_3a/relu_3x3
I0403 17:44:51.170054 14833 net.cpp:148] Top shape: 24 128 28 28 (2408448)
I0403 17:44:51.170069 14833 net.cpp:156] Memory required for data: 534676512
I0403 17:44:51.170084 14833 layer_factory.hpp:77] Creating layer inception_3a/5x5_reduce
I0403 17:44:51.170107 14833 net.cpp:91] Creating Layer inception_3a/5x5_reduce
I0403 17:44:51.170125 14833 net.cpp:425] inception_3a/5x5_reduce <- pool2/3x3_s2_pool2/3x3_s2_0_split_2
I0403 17:44:51.170145 14833 net.cpp:399] inception_3a/5x5_reduce -> inception_3a/5x5_reduce
I0403 17:44:51.171103 14833 net.cpp:141] Setting up inception_3a/5x5_reduce
I0403 17:44:51.171130 14833 net.cpp:148] Top shape: 24 16 28 28 (301056)
I0403 17:44:51.171146 14833 net.cpp:156] Memory required for data: 535880736
I0403 17:44:51.171165 14833 layer_factory.hpp:77] Creating layer inception_3a/relu_5x5_reduce
I0403 17:44:51.171186 14833 net.cpp:91] Creating Layer inception_3a/relu_5x5_reduce
I0403 17:44:51.171205 14833 net.cpp:425] inception_3a/relu_5x5_reduce <- inception_3a/5x5_reduce
I0403 17:44:51.171221 14833 net.cpp:386] inception_3a/relu_5x5_reduce -> inception_3a/5x5_reduce (in-place)
I0403 17:44:51.171515 14833 net.cpp:141] Setting up inception_3a/relu_5x5_reduce
I0403 17:44:51.171545 14833 net.cpp:148] Top shape: 24 16 28 28 (301056)
I0403 17:44:51.171560 14833 net.cpp:156] Memory required for data: 537084960
I0403 17:44:51.171574 14833 layer_factory.hpp:77] Creating layer inception_3a/5x5
I0403 17:44:51.171597 14833 net.cpp:91] Creating Layer inception_3a/5x5
I0403 17:44:51.171613 14833 net.cpp:425] inception_3a/5x5 <- inception_3a/5x5_reduce
I0403 17:44:51.171633 14833 net.cpp:399] inception_3a/5x5 -> inception_3a/5x5
I0403 17:44:51.172629 14833 net.cpp:141] Setting up inception_3a/5x5
I0403 17:44:51.172658 14833 net.cpp:148] Top shape: 24 32 28 28 (602112)
I0403 17:44:51.172673 14833 net.cpp:156] Memory required for data: 539493408
I0403 17:44:51.172691 14833 layer_factory.hpp:77] Creating layer inception_3a/relu_5x5
I0403 17:44:51.172713 14833 net.cpp:91] Creating Layer inception_3a/relu_5x5
I0403 17:44:51.172729 14833 net.cpp:425] inception_3a/relu_5x5 <- inception_3a/5x5
I0403 17:44:51.172745 14833 net.cpp:386] inception_3a/relu_5x5 -> inception_3a/5x5 (in-place)
I0403 17:44:51.172935 14833 net.cpp:141] Setting up inception_3a/relu_5x5
I0403 17:44:51.172958 14833 net.cpp:148] Top shape: 24 32 28 28 (602112)
I0403 17:44:51.172973 14833 net.cpp:156] Memory required for data: 541901856
I0403 17:44:51.172992 14833 layer_factory.hpp:77] Creating layer inception_3a/pool
I0403 17:44:51.173013 14833 net.cpp:91] Creating Layer inception_3a/pool
I0403 17:44:51.173043 14833 net.cpp:425] inception_3a/pool <- pool2/3x3_s2_pool2/3x3_s2_0_split_3
I0403 17:44:51.173061 14833 net.cpp:399] inception_3a/pool -> inception_3a/pool
I0403 17:44:51.173120 14833 net.cpp:141] Setting up inception_3a/pool
I0403 17:44:51.173143 14833 net.cpp:148] Top shape: 24 192 28 28 (3612672)
I0403 17:44:51.173157 14833 net.cpp:156] Memory required for data: 556352544
I0403 17:44:51.173172 14833 layer_factory.hpp:77] Creating layer inception_3a/pool_proj
I0403 17:44:51.173194 14833 net.cpp:91] Creating Layer inception_3a/pool_proj
I0403 17:44:51.173212 14833 net.cpp:425] inception_3a/pool_proj <- inception_3a/pool
I0403 17:44:51.173233 14833 net.cpp:399] inception_3a/pool_proj -> inception_3a/pool_proj
I0403 17:44:51.174182 14833 net.cpp:141] Setting up inception_3a/pool_proj
I0403 17:44:51.174212 14833 net.cpp:148] Top shape: 24 32 28 28 (602112)
I0403 17:44:51.174228 14833 net.cpp:156] Memory required for data: 558760992
I0403 17:44:51.174250 14833 layer_factory.hpp:77] Creating layer inception_3a/relu_pool_proj
I0403 17:44:51.174271 14833 net.cpp:91] Creating Layer inception_3a/relu_pool_proj
I0403 17:44:51.174288 14833 net.cpp:425] inception_3a/relu_pool_proj <- inception_3a/pool_proj
I0403 17:44:51.174305 14833 net.cpp:386] inception_3a/relu_pool_proj -> inception_3a/pool_proj (in-place)
I0403 17:44:51.174576 14833 net.cpp:141] Setting up inception_3a/relu_pool_proj
I0403 17:44:51.174602 14833 net.cpp:148] Top shape: 24 32 28 28 (602112)
I0403 17:44:51.174618 14833 net.cpp:156] Memory required for data: 561169440
I0403 17:44:51.174633 14833 layer_factory.hpp:77] Creating layer inception_3a/output
I0403 17:44:51.174652 14833 net.cpp:91] Creating Layer inception_3a/output
I0403 17:44:51.174669 14833 net.cpp:425] inception_3a/output <- inception_3a/1x1
I0403 17:44:51.174686 14833 net.cpp:425] inception_3a/output <- inception_3a/3x3
I0403 17:44:51.174705 14833 net.cpp:425] inception_3a/output <- inception_3a/5x5
I0403 17:44:51.174721 14833 net.cpp:425] inception_3a/output <- inception_3a/pool_proj
I0403 17:44:51.174741 14833 net.cpp:399] inception_3a/output -> inception_3a/output
I0403 17:44:51.174787 14833 net.cpp:141] Setting up inception_3a/output
I0403 17:44:51.174811 14833 net.cpp:148] Top shape: 24 256 28 28 (4816896)
I0403 17:44:51.174826 14833 net.cpp:156] Memory required for data: 580437024
I0403 17:44:51.174841 14833 layer_factory.hpp:77] Creating layer inception_3a/output_inception_3a/output_0_split
I0403 17:44:51.174859 14833 net.cpp:91] Creating Layer inception_3a/output_inception_3a/output_0_split
I0403 17:44:51.174873 14833 net.cpp:425] inception_3a/output_inception_3a/output_0_split <- inception_3a/output
I0403 17:44:51.174892 14833 net.cpp:399] inception_3a/output_inception_3a/output_0_split -> inception_3a/output_inception_3a/output_0_split_0
I0403 17:44:51.174913 14833 net.cpp:399] inception_3a/output_inception_3a/output_0_split -> inception_3a/output_inception_3a/output_0_split_1
I0403 17:44:51.174937 14833 net.cpp:399] inception_3a/output_inception_3a/output_0_split -> inception_3a/output_inception_3a/output_0_split_2
I0403 17:44:51.174957 14833 net.cpp:399] inception_3a/output_inception_3a/output_0_split -> inception_3a/output_inception_3a/output_0_split_3
I0403 17:44:51.175034 14833 net.cpp:141] Setting up inception_3a/output_inception_3a/output_0_split
I0403 17:44:51.175056 14833 net.cpp:148] Top shape: 24 256 28 28 (4816896)
I0403 17:44:51.175072 14833 net.cpp:148] Top shape: 24 256 28 28 (4816896)
I0403 17:44:51.175087 14833 net.cpp:148] Top shape: 24 256 28 28 (4816896)
I0403 17:44:51.175102 14833 net.cpp:148] Top shape: 24 256 28 28 (4816896)
I0403 17:44:51.175115 14833 net.cpp:156] Memory required for data: 657507360
I0403 17:44:51.175130 14833 layer_factory.hpp:77] Creating layer inception_3b/1x1
I0403 17:44:51.175153 14833 net.cpp:91] Creating Layer inception_3b/1x1
I0403 17:44:51.175170 14833 net.cpp:425] inception_3b/1x1 <- inception_3a/output_inception_3a/output_0_split_0
I0403 17:44:51.175190 14833 net.cpp:399] inception_3b/1x1 -> inception_3b/1x1
I0403 17:44:51.176343 14833 net.cpp:141] Setting up inception_3b/1x1
I0403 17:44:51.176384 14833 net.cpp:148] Top shape: 24 128 28 28 (2408448)
I0403 17:44:51.176403 14833 net.cpp:156] Memory required for data: 667141152
I0403 17:44:51.176421 14833 layer_factory.hpp:77] Creating layer inception_3b/relu_1x1
I0403 17:44:51.176440 14833 net.cpp:91] Creating Layer inception_3b/relu_1x1
I0403 17:44:51.176458 14833 net.cpp:425] inception_3b/relu_1x1 <- inception_3b/1x1
I0403 17:44:51.176479 14833 net.cpp:386] inception_3b/relu_1x1 -> inception_3b/1x1 (in-place)
I0403 17:44:51.176654 14833 net.cpp:141] Setting up inception_3b/relu_1x1
I0403 17:44:51.176681 14833 net.cpp:148] Top shape: 24 128 28 28 (2408448)
I0403 17:44:51.176697 14833 net.cpp:156] Memory required for data: 676774944
I0403 17:44:51.176712 14833 layer_factory.hpp:77] Creating layer inception_3b/3x3_reduce
I0403 17:44:51.176734 14833 net.cpp:91] Creating Layer inception_3b/3x3_reduce
I0403 17:44:51.176754 14833 net.cpp:425] inception_3b/3x3_reduce <- inception_3a/output_inception_3a/output_0_split_1
I0403 17:44:51.176775 14833 net.cpp:399] inception_3b/3x3_reduce -> inception_3b/3x3_reduce
I0403 17:44:51.177906 14833 net.cpp:141] Setting up inception_3b/3x3_reduce
I0403 17:44:51.177937 14833 net.cpp:148] Top shape: 24 128 28 28 (2408448)
I0403 17:44:51.177965 14833 net.cpp:156] Memory required for data: 686408736
I0403 17:44:51.177994 14833 layer_factory.hpp:77] Creating layer inception_3b/relu_3x3_reduce
I0403 17:44:51.178014 14833 net.cpp:91] Creating Layer inception_3b/relu_3x3_reduce
I0403 17:44:51.178030 14833 net.cpp:425] inception_3b/relu_3x3_reduce <- inception_3b/3x3_reduce
I0403 17:44:51.178053 14833 net.cpp:386] inception_3b/relu_3x3_reduce -> inception_3b/3x3_reduce (in-place)
I0403 17:44:51.178221 14833 net.cpp:141] Setting up inception_3b/relu_3x3_reduce
I0403 17:44:51.178246 14833 net.cpp:148] Top shape: 24 128 28 28 (2408448)
I0403 17:44:51.178261 14833 net.cpp:156] Memory required for data: 696042528
I0403 17:44:51.178277 14833 layer_factory.hpp:77] Creating layer inception_3b/3x3
I0403 17:44:51.178303 14833 net.cpp:91] Creating Layer inception_3b/3x3
I0403 17:44:51.178321 14833 net.cpp:425] inception_3b/3x3 <- inception_3b/3x3_reduce
I0403 17:44:51.178340 14833 net.cpp:399] inception_3b/3x3 -> inception_3b/3x3
I0403 17:44:51.181218 14833 net.cpp:141] Setting up inception_3b/3x3
I0403 17:44:51.181246 14833 net.cpp:148] Top shape: 24 192 28 28 (3612672)
I0403 17:44:51.181273 14833 net.cpp:156] Memory required for data: 710493216
I0403 17:44:51.181291 14833 layer_factory.hpp:77] Creating layer inception_3b/relu_3x3
I0403 17:44:51.181313 14833 net.cpp:91] Creating Layer inception_3b/relu_3x3
I0403 17:44:51.181329 14833 net.cpp:425] inception_3b/relu_3x3 <- inception_3b/3x3
I0403 17:44:51.181345 14833 net.cpp:386] inception_3b/relu_3x3 -> inception_3b/3x3 (in-place)
I0403 17:44:51.181630 14833 net.cpp:141] Setting up inception_3b/relu_3x3
I0403 17:44:51.181655 14833 net.cpp:148] Top shape: 24 192 28 28 (3612672)
I0403 17:44:51.181670 14833 net.cpp:156] Memory required for data: 724943904
I0403 17:44:51.181684 14833 layer_factory.hpp:77] Creating layer inception_3b/5x5_reduce
I0403 17:44:51.181707 14833 net.cpp:91] Creating Layer inception_3b/5x5_reduce
I0403 17:44:51.181725 14833 net.cpp:425] inception_3b/5x5_reduce <- inception_3a/output_inception_3a/output_0_split_2
I0403 17:44:51.181746 14833 net.cpp:399] inception_3b/5x5_reduce -> inception_3b/5x5_reduce
I0403 17:44:51.182693 14833 net.cpp:141] Setting up inception_3b/5x5_reduce
I0403 17:44:51.182719 14833 net.cpp:148] Top shape: 24 32 28 28 (602112)
I0403 17:44:51.182734 14833 net.cpp:156] Memory required for data: 727352352
I0403 17:44:51.182751 14833 layer_factory.hpp:77] Creating layer inception_3b/relu_5x5_reduce
I0403 17:44:51.182771 14833 net.cpp:91] Creating Layer inception_3b/relu_5x5_reduce
I0403 17:44:51.182787 14833 net.cpp:425] inception_3b/relu_5x5_reduce <- inception_3b/5x5_reduce
I0403 17:44:51.182804 14833 net.cpp:386] inception_3b/relu_5x5_reduce -> inception_3b/5x5_reduce (in-place)
I0403 17:44:51.182992 14833 net.cpp:141] Setting up inception_3b/relu_5x5_reduce
I0403 17:44:51.183017 14833 net.cpp:148] Top shape: 24 32 28 28 (602112)
I0403 17:44:51.183030 14833 net.cpp:156] Memory required for data: 729760800
I0403 17:44:51.183045 14833 layer_factory.hpp:77] Creating layer inception_3b/5x5
I0403 17:44:51.183068 14833 net.cpp:91] Creating Layer inception_3b/5x5
I0403 17:44:51.183085 14833 net.cpp:425] inception_3b/5x5 <- inception_3b/5x5_reduce
I0403 17:44:51.183104 14833 net.cpp:399] inception_3b/5x5 -> inception_3b/5x5
I0403 17:44:51.185022 14833 net.cpp:141] Setting up inception_3b/5x5
I0403 17:44:51.185052 14833 net.cpp:148] Top shape: 24 96 28 28 (1806336)
I0403 17:44:51.185067 14833 net.cpp:156] Memory required for data: 736986144
I0403 17:44:51.185086 14833 layer_factory.hpp:77] Creating layer inception_3b/relu_5x5
I0403 17:44:51.185102 14833 net.cpp:91] Creating Layer inception_3b/relu_5x5
I0403 17:44:51.185117 14833 net.cpp:425] inception_3b/relu_5x5 <- inception_3b/5x5
I0403 17:44:51.185137 14833 net.cpp:386] inception_3b/relu_5x5 -> inception_3b/5x5 (in-place)
I0403 17:44:51.185320 14833 net.cpp:141] Setting up inception_3b/relu_5x5
I0403 17:44:51.185344 14833 net.cpp:148] Top shape: 24 96 28 28 (1806336)
I0403 17:44:51.185359 14833 net.cpp:156] Memory required for data: 744211488
I0403 17:44:51.185372 14833 layer_factory.hpp:77] Creating layer inception_3b/pool
I0403 17:44:51.185389 14833 net.cpp:91] Creating Layer inception_3b/pool
I0403 17:44:51.185405 14833 net.cpp:425] inception_3b/pool <- inception_3a/output_inception_3a/output_0_split_3
I0403 17:44:51.185421 14833 net.cpp:399] inception_3b/pool -> inception_3b/pool
I0403 17:44:51.185477 14833 net.cpp:141] Setting up inception_3b/pool
I0403 17:44:51.185499 14833 net.cpp:148] Top shape: 24 256 28 28 (4816896)
I0403 17:44:51.185513 14833 net.cpp:156] Memory required for data: 763479072
I0403 17:44:51.185528 14833 layer_factory.hpp:77] Creating layer inception_3b/pool_proj
I0403 17:44:51.185549 14833 net.cpp:91] Creating Layer inception_3b/pool_proj
I0403 17:44:51.185565 14833 net.cpp:425] inception_3b/pool_proj <- inception_3b/pool
I0403 17:44:51.185585 14833 net.cpp:399] inception_3b/pool_proj -> inception_3b/pool_proj
I0403 17:44:51.186591 14833 net.cpp:141] Setting up inception_3b/pool_proj
I0403 17:44:51.186619 14833 net.cpp:148] Top shape: 24 64 28 28 (1204224)
I0403 17:44:51.186632 14833 net.cpp:156] Memory required for data: 768295968
I0403 17:44:51.186650 14833 layer_factory.hpp:77] Creating layer inception_3b/relu_pool_proj
I0403 17:44:51.186669 14833 net.cpp:91] Creating Layer inception_3b/relu_pool_proj
I0403 17:44:51.186686 14833 net.cpp:425] inception_3b/relu_pool_proj <- inception_3b/pool_proj
I0403 17:44:51.186702 14833 net.cpp:386] inception_3b/relu_pool_proj -> inception_3b/pool_proj (in-place)
I0403 17:44:51.187086 14833 net.cpp:141] Setting up inception_3b/relu_pool_proj
I0403 17:44:51.187113 14833 net.cpp:148] Top shape: 24 64 28 28 (1204224)
I0403 17:44:51.187126 14833 net.cpp:156] Memory required for data: 773112864
I0403 17:44:51.187140 14833 layer_factory.hpp:77] Creating layer inception_3b/output
I0403 17:44:51.187160 14833 net.cpp:91] Creating Layer inception_3b/output
I0403 17:44:51.187175 14833 net.cpp:425] inception_3b/output <- inception_3b/1x1
I0403 17:44:51.187191 14833 net.cpp:425] inception_3b/output <- inception_3b/3x3
I0403 17:44:51.187218 14833 net.cpp:425] inception_3b/output <- inception_3b/5x5
I0403 17:44:51.187234 14833 net.cpp:425] inception_3b/output <- inception_3b/pool_proj
I0403 17:44:51.187252 14833 net.cpp:399] inception_3b/output -> inception_3b/output
I0403 17:44:51.187296 14833 net.cpp:141] Setting up inception_3b/output
I0403 17:44:51.187319 14833 net.cpp:148] Top shape: 24 480 28 28 (9031680)
I0403 17:44:51.187333 14833 net.cpp:156] Memory required for data: 809239584
I0403 17:44:51.187347 14833 layer_factory.hpp:77] Creating layer pool3/3x3_s2
I0403 17:44:51.187364 14833 net.cpp:91] Creating Layer pool3/3x3_s2
I0403 17:44:51.187381 14833 net.cpp:425] pool3/3x3_s2 <- inception_3b/output
I0403 17:44:51.187440 14833 net.cpp:399] pool3/3x3_s2 -> pool3/3x3_s2
I0403 17:44:51.187515 14833 net.cpp:141] Setting up pool3/3x3_s2
I0403 17:44:51.187537 14833 net.cpp:148] Top shape: 24 480 14 14 (2257920)
I0403 17:44:51.187551 14833 net.cpp:156] Memory required for data: 818271264
I0403 17:44:51.187566 14833 layer_factory.hpp:77] Creating layer pool3/3x3_s2_pool3/3x3_s2_0_split
I0403 17:44:51.187583 14833 net.cpp:91] Creating Layer pool3/3x3_s2_pool3/3x3_s2_0_split
I0403 17:44:51.187598 14833 net.cpp:425] pool3/3x3_s2_pool3/3x3_s2_0_split <- pool3/3x3_s2
I0403 17:44:51.187618 14833 net.cpp:399] pool3/3x3_s2_pool3/3x3_s2_0_split -> pool3/3x3_s2_pool3/3x3_s2_0_split_0
I0403 17:44:51.187638 14833 net.cpp:399] pool3/3x3_s2_pool3/3x3_s2_0_split -> pool3/3x3_s2_pool3/3x3_s2_0_split_1
I0403 17:44:51.187657 14833 net.cpp:399] pool3/3x3_s2_pool3/3x3_s2_0_split -> pool3/3x3_s2_pool3/3x3_s2_0_split_2
I0403 17:44:51.187687 14833 net.cpp:399] pool3/3x3_s2_pool3/3x3_s2_0_split -> pool3/3x3_s2_pool3/3x3_s2_0_split_3
I0403 17:44:51.187760 14833 net.cpp:141] Setting up pool3/3x3_s2_pool3/3x3_s2_0_split
I0403 17:44:51.187783 14833 net.cpp:148] Top shape: 24 480 14 14 (2257920)
I0403 17:44:51.187798 14833 net.cpp:148] Top shape: 24 480 14 14 (2257920)
I0403 17:44:51.187813 14833 net.cpp:148] Top shape: 24 480 14 14 (2257920)
I0403 17:44:51.187827 14833 net.cpp:148] Top shape: 24 480 14 14 (2257920)
I0403 17:44:51.187840 14833 net.cpp:156] Memory required for data: 854397984
I0403 17:44:51.187854 14833 layer_factory.hpp:77] Creating layer inception_4a/1x1
I0403 17:44:51.187876 14833 net.cpp:91] Creating Layer inception_4a/1x1
I0403 17:44:51.187893 14833 net.cpp:425] inception_4a/1x1 <- pool3/3x3_s2_pool3/3x3_s2_0_split_0
I0403 17:44:51.187911 14833 net.cpp:399] inception_4a/1x1 -> inception_4a/1x1
I0403 17:44:51.189429 14833 net.cpp:141] Setting up inception_4a/1x1
I0403 17:44:51.189456 14833 net.cpp:148] Top shape: 24 192 14 14 (903168)
I0403 17:44:51.189472 14833 net.cpp:156] Memory required for data: 858010656
I0403 17:44:51.189489 14833 layer_factory.hpp:77] Creating layer inception_4a/relu_1x1
I0403 17:44:51.189507 14833 net.cpp:91] Creating Layer inception_4a/relu_1x1
I0403 17:44:51.189522 14833 net.cpp:425] inception_4a/relu_1x1 <- inception_4a/1x1
I0403 17:44:51.189541 14833 net.cpp:386] inception_4a/relu_1x1 -> inception_4a/1x1 (in-place)
I0403 17:44:51.189710 14833 net.cpp:141] Setting up inception_4a/relu_1x1
I0403 17:44:51.189733 14833 net.cpp:148] Top shape: 24 192 14 14 (903168)
I0403 17:44:51.189748 14833 net.cpp:156] Memory required for data: 861623328
I0403 17:44:51.189761 14833 layer_factory.hpp:77] Creating layer inception_4a/3x3_reduce
I0403 17:44:51.189784 14833 net.cpp:91] Creating Layer inception_4a/3x3_reduce
I0403 17:44:51.189800 14833 net.cpp:425] inception_4a/3x3_reduce <- pool3/3x3_s2_pool3/3x3_s2_0_split_1
I0403 17:44:51.189821 14833 net.cpp:399] inception_4a/3x3_reduce -> inception_4a/3x3_reduce
I0403 17:44:51.191074 14833 net.cpp:141] Setting up inception_4a/3x3_reduce
I0403 17:44:51.191102 14833 net.cpp:148] Top shape: 24 96 14 14 (451584)
I0403 17:44:51.191118 14833 net.cpp:156] Memory required for data: 863429664
I0403 17:44:51.191139 14833 layer_factory.hpp:77] Creating layer inception_4a/relu_3x3_reduce
I0403 17:44:51.191160 14833 net.cpp:91] Creating Layer inception_4a/relu_3x3_reduce
I0403 17:44:51.191177 14833 net.cpp:425] inception_4a/relu_3x3_reduce <- inception_4a/3x3_reduce
I0403 17:44:51.191195 14833 net.cpp:386] inception_4a/relu_3x3_reduce -> inception_4a/3x3_reduce (in-place)
I0403 17:44:51.191362 14833 net.cpp:141] Setting up inception_4a/relu_3x3_reduce
I0403 17:44:51.191386 14833 net.cpp:148] Top shape: 24 96 14 14 (451584)
I0403 17:44:51.191400 14833 net.cpp:156] Memory required for data: 865236000
I0403 17:44:51.191413 14833 layer_factory.hpp:77] Creating layer inception_4a/3x3
I0403 17:44:51.191434 14833 net.cpp:91] Creating Layer inception_4a/3x3
I0403 17:44:51.191450 14833 net.cpp:425] inception_4a/3x3 <- inception_4a/3x3_reduce
I0403 17:44:51.191473 14833 net.cpp:399] inception_4a/3x3 -> inception_4a/3x3
I0403 17:44:51.194089 14833 net.cpp:141] Setting up inception_4a/3x3
I0403 17:44:51.194118 14833 net.cpp:148] Top shape: 24 208 14 14 (978432)
I0403 17:44:51.194133 14833 net.cpp:156] Memory required for data: 869149728
I0403 17:44:51.194149 14833 layer_factory.hpp:77] Creating layer inception_4a/relu_3x3
I0403 17:44:51.194166 14833 net.cpp:91] Creating Layer inception_4a/relu_3x3
I0403 17:44:51.194181 14833 net.cpp:425] inception_4a/relu_3x3 <- inception_4a/3x3
I0403 17:44:51.194200 14833 net.cpp:386] inception_4a/relu_3x3 -> inception_4a/3x3 (in-place)
I0403 17:44:51.194468 14833 net.cpp:141] Setting up inception_4a/relu_3x3
I0403 17:44:51.194494 14833 net.cpp:148] Top shape: 24 208 14 14 (978432)
I0403 17:44:51.194507 14833 net.cpp:156] Memory required for data: 873063456
I0403 17:44:51.194521 14833 layer_factory.hpp:77] Creating layer inception_4a/5x5_reduce
I0403 17:44:51.194545 14833 net.cpp:91] Creating Layer inception_4a/5x5_reduce
I0403 17:44:51.194561 14833 net.cpp:425] inception_4a/5x5_reduce <- pool3/3x3_s2_pool3/3x3_s2_0_split_2
I0403 17:44:51.194581 14833 net.cpp:399] inception_4a/5x5_reduce -> inception_4a/5x5_reduce
I0403 17:44:51.195565 14833 net.cpp:141] Setting up inception_4a/5x5_reduce
I0403 17:44:51.195591 14833 net.cpp:148] Top shape: 24 16 14 14 (75264)
I0403 17:44:51.195606 14833 net.cpp:156] Memory required for data: 873364512
I0403 17:44:51.195623 14833 layer_factory.hpp:77] Creating layer inception_4a/relu_5x5_reduce
I0403 17:44:51.195643 14833 net.cpp:91] Creating Layer inception_4a/relu_5x5_reduce
I0403 17:44:51.195659 14833 net.cpp:425] inception_4a/relu_5x5_reduce <- inception_4a/5x5_reduce
I0403 17:44:51.195677 14833 net.cpp:386] inception_4a/relu_5x5_reduce -> inception_4a/5x5_reduce (in-place)
I0403 17:44:51.195847 14833 net.cpp:141] Setting up inception_4a/relu_5x5_reduce
I0403 17:44:51.195870 14833 net.cpp:148] Top shape: 24 16 14 14 (75264)
I0403 17:44:51.195883 14833 net.cpp:156] Memory required for data: 873665568
I0403 17:44:51.195897 14833 layer_factory.hpp:77] Creating layer inception_4a/5x5
I0403 17:44:51.195920 14833 net.cpp:91] Creating Layer inception_4a/5x5
I0403 17:44:51.195936 14833 net.cpp:425] inception_4a/5x5 <- inception_4a/5x5_reduce
I0403 17:44:51.195955 14833 net.cpp:399] inception_4a/5x5 -> inception_4a/5x5
I0403 17:44:51.197005 14833 net.cpp:141] Setting up inception_4a/5x5
I0403 17:44:51.197031 14833 net.cpp:148] Top shape: 24 48 14 14 (225792)
I0403 17:44:51.197046 14833 net.cpp:156] Memory required for data: 874568736
I0403 17:44:51.197063 14833 layer_factory.hpp:77] Creating layer inception_4a/relu_5x5
I0403 17:44:51.197082 14833 net.cpp:91] Creating Layer inception_4a/relu_5x5
I0403 17:44:51.197098 14833 net.cpp:425] inception_4a/relu_5x5 <- inception_4a/5x5
I0403 17:44:51.197127 14833 net.cpp:386] inception_4a/relu_5x5 -> inception_4a/5x5 (in-place)
I0403 17:44:51.197304 14833 net.cpp:141] Setting up inception_4a/relu_5x5
I0403 17:44:51.197331 14833 net.cpp:148] Top shape: 24 48 14 14 (225792)
I0403 17:44:51.197346 14833 net.cpp:156] Memory required for data: 875471904
I0403 17:44:51.197360 14833 layer_factory.hpp:77] Creating layer inception_4a/pool
I0403 17:44:51.197378 14833 net.cpp:91] Creating Layer inception_4a/pool
I0403 17:44:51.197403 14833 net.cpp:425] inception_4a/pool <- pool3/3x3_s2_pool3/3x3_s2_0_split_3
I0403 17:44:51.197424 14833 net.cpp:399] inception_4a/pool -> inception_4a/pool
I0403 17:44:51.197484 14833 net.cpp:141] Setting up inception_4a/pool
I0403 17:44:51.197509 14833 net.cpp:148] Top shape: 24 480 14 14 (2257920)
I0403 17:44:51.197523 14833 net.cpp:156] Memory required for data: 884503584
I0403 17:44:51.197537 14833 layer_factory.hpp:77] Creating layer inception_4a/pool_proj
I0403 17:44:51.197556 14833 net.cpp:91] Creating Layer inception_4a/pool_proj
I0403 17:44:51.197573 14833 net.cpp:425] inception_4a/pool_proj <- inception_4a/pool
I0403 17:44:51.197592 14833 net.cpp:399] inception_4a/pool_proj -> inception_4a/pool_proj
I0403 17:44:51.198727 14833 net.cpp:141] Setting up inception_4a/pool_proj
I0403 17:44:51.198758 14833 net.cpp:148] Top shape: 24 64 14 14 (301056)
I0403 17:44:51.198787 14833 net.cpp:156] Memory required for data: 885707808
I0403 17:44:51.198807 14833 layer_factory.hpp:77] Creating layer inception_4a/relu_pool_proj
I0403 17:44:51.198823 14833 net.cpp:91] Creating Layer inception_4a/relu_pool_proj
I0403 17:44:51.198838 14833 net.cpp:425] inception_4a/relu_pool_proj <- inception_4a/pool_proj
I0403 17:44:51.198855 14833 net.cpp:386] inception_4a/relu_pool_proj -> inception_4a/pool_proj (in-place)
I0403 17:44:51.199134 14833 net.cpp:141] Setting up inception_4a/relu_pool_proj
I0403 17:44:51.199162 14833 net.cpp:148] Top shape: 24 64 14 14 (301056)
I0403 17:44:51.199177 14833 net.cpp:156] Memory required for data: 886912032
I0403 17:44:51.199192 14833 layer_factory.hpp:77] Creating layer inception_4a/output
I0403 17:44:51.199220 14833 net.cpp:91] Creating Layer inception_4a/output
I0403 17:44:51.199236 14833 net.cpp:425] inception_4a/output <- inception_4a/1x1
I0403 17:44:51.199252 14833 net.cpp:425] inception_4a/output <- inception_4a/3x3
I0403 17:44:51.199268 14833 net.cpp:425] inception_4a/output <- inception_4a/5x5
I0403 17:44:51.199285 14833 net.cpp:425] inception_4a/output <- inception_4a/pool_proj
I0403 17:44:51.199301 14833 net.cpp:399] inception_4a/output -> inception_4a/output
I0403 17:44:51.199347 14833 net.cpp:141] Setting up inception_4a/output
I0403 17:44:51.199369 14833 net.cpp:148] Top shape: 24 512 14 14 (2408448)
I0403 17:44:51.199384 14833 net.cpp:156] Memory required for data: 896545824
I0403 17:44:51.199398 14833 layer_factory.hpp:77] Creating layer inception_4a/output_inception_4a/output_0_split
I0403 17:44:51.199419 14833 net.cpp:91] Creating Layer inception_4a/output_inception_4a/output_0_split
I0403 17:44:51.199434 14833 net.cpp:425] inception_4a/output_inception_4a/output_0_split <- inception_4a/output
I0403 17:44:51.199451 14833 net.cpp:399] inception_4a/output_inception_4a/output_0_split -> inception_4a/output_inception_4a/output_0_split_0
I0403 17:44:51.199471 14833 net.cpp:399] inception_4a/output_inception_4a/output_0_split -> inception_4a/output_inception_4a/output_0_split_1
I0403 17:44:51.199491 14833 net.cpp:399] inception_4a/output_inception_4a/output_0_split -> inception_4a/output_inception_4a/output_0_split_2
I0403 17:44:51.199524 14833 net.cpp:399] inception_4a/output_inception_4a/output_0_split -> inception_4a/output_inception_4a/output_0_split_3
I0403 17:44:51.199544 14833 net.cpp:399] inception_4a/output_inception_4a/output_0_split -> inception_4a/output_inception_4a/output_0_split_4
I0403 17:44:51.199633 14833 net.cpp:141] Setting up inception_4a/output_inception_4a/output_0_split
I0403 17:44:51.199656 14833 net.cpp:148] Top shape: 24 512 14 14 (2408448)
I0403 17:44:51.199671 14833 net.cpp:148] Top shape: 24 512 14 14 (2408448)
I0403 17:44:51.199686 14833 net.cpp:148] Top shape: 24 512 14 14 (2408448)
I0403 17:44:51.199700 14833 net.cpp:148] Top shape: 24 512 14 14 (2408448)
I0403 17:44:51.199714 14833 net.cpp:148] Top shape: 24 512 14 14 (2408448)
I0403 17:44:51.199728 14833 net.cpp:156] Memory required for data: 944714784
I0403 17:44:51.199743 14833 layer_factory.hpp:77] Creating layer loss1/ave_pool
I0403 17:44:51.199761 14833 net.cpp:91] Creating Layer loss1/ave_pool
I0403 17:44:51.199777 14833 net.cpp:425] loss1/ave_pool <- inception_4a/output_inception_4a/output_0_split_0
I0403 17:44:51.199795 14833 net.cpp:399] loss1/ave_pool -> loss1/ave_pool
I0403 17:44:51.199991 14833 net.cpp:141] Setting up loss1/ave_pool
I0403 17:44:51.200018 14833 net.cpp:148] Top shape: 24 512 4 4 (196608)
I0403 17:44:51.200033 14833 net.cpp:156] Memory required for data: 945501216
I0403 17:44:51.200047 14833 layer_factory.hpp:77] Creating layer loss1/conv
I0403 17:44:51.200067 14833 net.cpp:91] Creating Layer loss1/conv
I0403 17:44:51.200084 14833 net.cpp:425] loss1/conv <- loss1/ave_pool
I0403 17:44:51.200103 14833 net.cpp:399] loss1/conv -> loss1/conv
I0403 17:44:51.201457 14833 net.cpp:141] Setting up loss1/conv
I0403 17:44:51.201483 14833 net.cpp:148] Top shape: 24 128 4 4 (49152)
I0403 17:44:51.201511 14833 net.cpp:156] Memory required for data: 945697824
I0403 17:44:51.201531 14833 layer_factory.hpp:77] Creating layer loss1/relu_conv
I0403 17:44:51.201548 14833 net.cpp:91] Creating Layer loss1/relu_conv
I0403 17:44:51.201567 14833 net.cpp:425] loss1/relu_conv <- loss1/conv
I0403 17:44:51.201584 14833 net.cpp:386] loss1/relu_conv -> loss1/conv (in-place)
I0403 17:44:51.201856 14833 net.cpp:141] Setting up loss1/relu_conv
I0403 17:44:51.201882 14833 net.cpp:148] Top shape: 24 128 4 4 (49152)
I0403 17:44:51.201896 14833 net.cpp:156] Memory required for data: 945894432
I0403 17:44:51.201910 14833 layer_factory.hpp:77] Creating layer loss1/fc
I0403 17:44:51.201936 14833 net.cpp:91] Creating Layer loss1/fc
I0403 17:44:51.201956 14833 net.cpp:425] loss1/fc <- loss1/conv
I0403 17:44:51.201973 14833 net.cpp:399] loss1/fc -> loss1/fc
I0403 17:44:51.219166 14833 net.cpp:141] Setting up loss1/fc
I0403 17:44:51.219198 14833 net.cpp:148] Top shape: 24 1024 (24576)
I0403 17:44:51.219225 14833 net.cpp:156] Memory required for data: 945992736
I0403 17:44:51.219244 14833 layer_factory.hpp:77] Creating layer loss1/relu_fc
I0403 17:44:51.219264 14833 net.cpp:91] Creating Layer loss1/relu_fc
I0403 17:44:51.219282 14833 net.cpp:425] loss1/relu_fc <- loss1/fc
I0403 17:44:51.219301 14833 net.cpp:386] loss1/relu_fc -> loss1/fc (in-place)
I0403 17:44:51.219490 14833 net.cpp:141] Setting up loss1/relu_fc
I0403 17:44:51.219526 14833 net.cpp:148] Top shape: 24 1024 (24576)
I0403 17:44:51.219539 14833 net.cpp:156] Memory required for data: 946091040
I0403 17:44:51.219553 14833 layer_factory.hpp:77] Creating layer loss1/drop_fc
I0403 17:44:51.219578 14833 net.cpp:91] Creating Layer loss1/drop_fc
I0403 17:44:51.219595 14833 net.cpp:425] loss1/drop_fc <- loss1/fc
I0403 17:44:51.219614 14833 net.cpp:386] loss1/drop_fc -> loss1/fc (in-place)
I0403 17:44:51.219663 14833 net.cpp:141] Setting up loss1/drop_fc
I0403 17:44:51.219686 14833 net.cpp:148] Top shape: 24 1024 (24576)
I0403 17:44:51.219699 14833 net.cpp:156] Memory required for data: 946189344
I0403 17:44:51.219714 14833 layer_factory.hpp:77] Creating layer loss1/classifier_plantvillage
I0403 17:44:51.219735 14833 net.cpp:91] Creating Layer loss1/classifier_plantvillage
I0403 17:44:51.219753 14833 net.cpp:425] loss1/classifier_plantvillage <- loss1/fc
I0403 17:44:51.219772 14833 net.cpp:399] loss1/classifier_plantvillage -> loss1/classifier_plantvillage
I0403 17:44:51.220652 14833 net.cpp:141] Setting up loss1/classifier_plantvillage
I0403 17:44:51.220681 14833 net.cpp:148] Top shape: 24 38 (912)
I0403 17:44:51.220697 14833 net.cpp:156] Memory required for data: 946192992
I0403 17:44:51.220715 14833 layer_factory.hpp:77] Creating layer loss1/classifier_plantvillage_loss1/classifier_plantvillage_0_split
I0403 17:44:51.220732 14833 net.cpp:91] Creating Layer loss1/classifier_plantvillage_loss1/classifier_plantvillage_0_split
I0403 17:44:51.220747 14833 net.cpp:425] loss1/classifier_plantvillage_loss1/classifier_plantvillage_0_split <- loss1/classifier_plantvillage
I0403 17:44:51.220767 14833 net.cpp:399] loss1/classifier_plantvillage_loss1/classifier_plantvillage_0_split -> loss1/classifier_plantvillage_loss1/classifier_plantvillage_0_split_0
I0403 17:44:51.220788 14833 net.cpp:399] loss1/classifier_plantvillage_loss1/classifier_plantvillage_0_split -> loss1/classifier_plantvillage_loss1/classifier_plantvillage_0_split_1
I0403 17:44:51.220806 14833 net.cpp:399] loss1/classifier_plantvillage_loss1/classifier_plantvillage_0_split -> loss1/classifier_plantvillage_loss1/classifier_plantvillage_0_split_2
I0403 17:44:51.220870 14833 net.cpp:141] Setting up loss1/classifier_plantvillage_loss1/classifier_plantvillage_0_split
I0403 17:44:51.220891 14833 net.cpp:148] Top shape: 24 38 (912)
I0403 17:44:51.220907 14833 net.cpp:148] Top shape: 24 38 (912)
I0403 17:44:51.220924 14833 net.cpp:148] Top shape: 24 38 (912)
I0403 17:44:51.220937 14833 net.cpp:156] Memory required for data: 946203936
I0403 17:44:51.220952 14833 layer_factory.hpp:77] Creating layer inception_4b/1x1
I0403 17:44:51.220973 14833 net.cpp:91] Creating Layer inception_4b/1x1
I0403 17:44:51.221009 14833 net.cpp:425] inception_4b/1x1 <- inception_4a/output_inception_4a/output_0_split_1
I0403 17:44:51.221029 14833 net.cpp:399] inception_4b/1x1 -> inception_4b/1x1
I0403 17:44:51.222622 14833 net.cpp:141] Setting up inception_4b/1x1
I0403 17:44:51.222650 14833 net.cpp:148] Top shape: 24 160 14 14 (752640)
I0403 17:44:51.222664 14833 net.cpp:156] Memory required for data: 949214496
I0403 17:44:51.222682 14833 layer_factory.hpp:77] Creating layer inception_4b/relu_1x1
I0403 17:44:51.222702 14833 net.cpp:91] Creating Layer inception_4b/relu_1x1
I0403 17:44:51.222719 14833 net.cpp:425] inception_4b/relu_1x1 <- inception_4b/1x1
I0403 17:44:51.222735 14833 net.cpp:386] inception_4b/relu_1x1 -> inception_4b/1x1 (in-place)
I0403 17:44:51.222906 14833 net.cpp:141] Setting up inception_4b/relu_1x1
I0403 17:44:51.222931 14833 net.cpp:148] Top shape: 24 160 14 14 (752640)
I0403 17:44:51.222945 14833 net.cpp:156] Memory required for data: 952225056
I0403 17:44:51.222959 14833 layer_factory.hpp:77] Creating layer inception_4b/3x3_reduce
I0403 17:44:51.222983 14833 net.cpp:91] Creating Layer inception_4b/3x3_reduce
I0403 17:44:51.223002 14833 net.cpp:425] inception_4b/3x3_reduce <- inception_4a/output_inception_4a/output_0_split_2
I0403 17:44:51.223021 14833 net.cpp:399] inception_4b/3x3_reduce -> inception_4b/3x3_reduce
I0403 17:44:51.224357 14833 net.cpp:141] Setting up inception_4b/3x3_reduce
I0403 17:44:51.224385 14833 net.cpp:148] Top shape: 24 112 14 14 (526848)
I0403 17:44:51.224400 14833 net.cpp:156] Memory required for data: 954332448
I0403 17:44:51.224417 14833 layer_factory.hpp:77] Creating layer inception_4b/relu_3x3_reduce
I0403 17:44:51.224436 14833 net.cpp:91] Creating Layer inception_4b/relu_3x3_reduce
I0403 17:44:51.224452 14833 net.cpp:425] inception_4b/relu_3x3_reduce <- inception_4b/3x3_reduce
I0403 17:44:51.224468 14833 net.cpp:386] inception_4b/relu_3x3_reduce -> inception_4b/3x3_reduce (in-place)
I0403 17:44:51.224745 14833 net.cpp:141] Setting up inception_4b/relu_3x3_reduce
I0403 17:44:51.224771 14833 net.cpp:148] Top shape: 24 112 14 14 (526848)
I0403 17:44:51.224784 14833 net.cpp:156] Memory required for data: 956439840
I0403 17:44:51.224799 14833 layer_factory.hpp:77] Creating layer inception_4b/3x3
I0403 17:44:51.224822 14833 net.cpp:91] Creating Layer inception_4b/3x3
I0403 17:44:51.224838 14833 net.cpp:425] inception_4b/3x3 <- inception_4b/3x3_reduce
I0403 17:44:51.224860 14833 net.cpp:399] inception_4b/3x3 -> inception_4b/3x3
I0403 17:44:51.227747 14833 net.cpp:141] Setting up inception_4b/3x3
I0403 17:44:51.227777 14833 net.cpp:148] Top shape: 24 224 14 14 (1053696)
I0403 17:44:51.227792 14833 net.cpp:156] Memory required for data: 960654624
I0403 17:44:51.227810 14833 layer_factory.hpp:77] Creating layer inception_4b/relu_3x3
I0403 17:44:51.227828 14833 net.cpp:91] Creating Layer inception_4b/relu_3x3
I0403 17:44:51.227844 14833 net.cpp:425] inception_4b/relu_3x3 <- inception_4b/3x3
I0403 17:44:51.227862 14833 net.cpp:386] inception_4b/relu_3x3 -> inception_4b/3x3 (in-place)
I0403 17:44:51.228060 14833 net.cpp:141] Setting up inception_4b/relu_3x3
I0403 17:44:51.228085 14833 net.cpp:148] Top shape: 24 224 14 14 (1053696)
I0403 17:44:51.228099 14833 net.cpp:156] Memory required for data: 964869408
I0403 17:44:51.228113 14833 layer_factory.hpp:77] Creating layer inception_4b/5x5_reduce
I0403 17:44:51.228137 14833 net.cpp:91] Creating Layer inception_4b/5x5_reduce
I0403 17:44:51.228153 14833 net.cpp:425] inception_4b/5x5_reduce <- inception_4a/output_inception_4a/output_0_split_3
I0403 17:44:51.228175 14833 net.cpp:399] inception_4b/5x5_reduce -> inception_4b/5x5_reduce
I0403 17:44:51.229240 14833 net.cpp:141] Setting up inception_4b/5x5_reduce
I0403 17:44:51.229267 14833 net.cpp:148] Top shape: 24 24 14 14 (112896)
I0403 17:44:51.229282 14833 net.cpp:156] Memory required for data: 965320992
I0403 17:44:51.229300 14833 layer_factory.hpp:77] Creating layer inception_4b/relu_5x5_reduce
I0403 17:44:51.229320 14833 net.cpp:91] Creating Layer inception_4b/relu_5x5_reduce
I0403 17:44:51.229348 14833 net.cpp:425] inception_4b/relu_5x5_reduce <- inception_4b/5x5_reduce
I0403 17:44:51.229367 14833 net.cpp:386] inception_4b/relu_5x5_reduce -> inception_4b/5x5_reduce (in-place)
I0403 17:44:51.229542 14833 net.cpp:141] Setting up inception_4b/relu_5x5_reduce
I0403 17:44:51.229569 14833 net.cpp:148] Top shape: 24 24 14 14 (112896)
I0403 17:44:51.229583 14833 net.cpp:156] Memory required for data: 965772576
I0403 17:44:51.229598 14833 layer_factory.hpp:77] Creating layer inception_4b/5x5
I0403 17:44:51.229619 14833 net.cpp:91] Creating Layer inception_4b/5x5
I0403 17:44:51.229636 14833 net.cpp:425] inception_4b/5x5 <- inception_4b/5x5_reduce
I0403 17:44:51.229655 14833 net.cpp:399] inception_4b/5x5 -> inception_4b/5x5
I0403 17:44:51.230842 14833 net.cpp:141] Setting up inception_4b/5x5
I0403 17:44:51.230868 14833 net.cpp:148] Top shape: 24 64 14 14 (301056)
I0403 17:44:51.230885 14833 net.cpp:156] Memory required for data: 966976800
I0403 17:44:51.230901 14833 layer_factory.hpp:77] Creating layer inception_4b/relu_5x5
I0403 17:44:51.230921 14833 net.cpp:91] Creating Layer inception_4b/relu_5x5
I0403 17:44:51.230937 14833 net.cpp:425] inception_4b/relu_5x5 <- inception_4b/5x5
I0403 17:44:51.230953 14833 net.cpp:386] inception_4b/relu_5x5 -> inception_4b/5x5 (in-place)
I0403 17:44:51.231245 14833 net.cpp:141] Setting up inception_4b/relu_5x5
I0403 17:44:51.231271 14833 net.cpp:148] Top shape: 24 64 14 14 (301056)
I0403 17:44:51.231286 14833 net.cpp:156] Memory required for data: 968181024
I0403 17:44:51.231299 14833 layer_factory.hpp:77] Creating layer inception_4b/pool
I0403 17:44:51.231317 14833 net.cpp:91] Creating Layer inception_4b/pool
I0403 17:44:51.231333 14833 net.cpp:425] inception_4b/pool <- inception_4a/output_inception_4a/output_0_split_4
I0403 17:44:51.231354 14833 net.cpp:399] inception_4b/pool -> inception_4b/pool
I0403 17:44:51.231418 14833 net.cpp:141] Setting up inception_4b/pool
I0403 17:44:51.231441 14833 net.cpp:148] Top shape: 24 512 14 14 (2408448)
I0403 17:44:51.231456 14833 net.cpp:156] Memory required for data: 977814816
I0403 17:44:51.231470 14833 layer_factory.hpp:77] Creating layer inception_4b/pool_proj
I0403 17:44:51.231504 14833 net.cpp:91] Creating Layer inception_4b/pool_proj
I0403 17:44:51.231521 14833 net.cpp:425] inception_4b/pool_proj <- inception_4b/pool
I0403 17:44:51.231541 14833 net.cpp:399] inception_4b/pool_proj -> inception_4b/pool_proj
I0403 17:44:51.232697 14833 net.cpp:141] Setting up inception_4b/pool_proj
I0403 17:44:51.232724 14833 net.cpp:148] Top shape: 24 64 14 14 (301056)
I0403 17:44:51.232738 14833 net.cpp:156] Memory required for data: 979019040
I0403 17:44:51.232756 14833 layer_factory.hpp:77] Creating layer inception_4b/relu_pool_proj
I0403 17:44:51.232777 14833 net.cpp:91] Creating Layer inception_4b/relu_pool_proj
I0403 17:44:51.232795 14833 net.cpp:425] inception_4b/relu_pool_proj <- inception_4b/pool_proj
I0403 17:44:51.232811 14833 net.cpp:386] inception_4b/relu_pool_proj -> inception_4b/pool_proj (in-place)
I0403 17:44:51.232991 14833 net.cpp:141] Setting up inception_4b/relu_pool_proj
I0403 17:44:51.233016 14833 net.cpp:148] Top shape: 24 64 14 14 (301056)
I0403 17:44:51.233029 14833 net.cpp:156] Memory required for data: 980223264
I0403 17:44:51.233043 14833 layer_factory.hpp:77] Creating layer inception_4b/output
I0403 17:44:51.233062 14833 net.cpp:91] Creating Layer inception_4b/output
I0403 17:44:51.233078 14833 net.cpp:425] inception_4b/output <- inception_4b/1x1
I0403 17:44:51.233093 14833 net.cpp:425] inception_4b/output <- inception_4b/3x3
I0403 17:44:51.233108 14833 net.cpp:425] inception_4b/output <- inception_4b/5x5
I0403 17:44:51.233124 14833 net.cpp:425] inception_4b/output <- inception_4b/pool_proj
I0403 17:44:51.233140 14833 net.cpp:399] inception_4b/output -> inception_4b/output
I0403 17:44:51.233186 14833 net.cpp:141] Setting up inception_4b/output
I0403 17:44:51.233208 14833 net.cpp:148] Top shape: 24 512 14 14 (2408448)
I0403 17:44:51.233222 14833 net.cpp:156] Memory required for data: 989857056
I0403 17:44:51.233249 14833 layer_factory.hpp:77] Creating layer inception_4b/output_inception_4b/output_0_split
I0403 17:44:51.233268 14833 net.cpp:91] Creating Layer inception_4b/output_inception_4b/output_0_split
I0403 17:44:51.233283 14833 net.cpp:425] inception_4b/output_inception_4b/output_0_split <- inception_4b/output
I0403 17:44:51.233302 14833 net.cpp:399] inception_4b/output_inception_4b/output_0_split -> inception_4b/output_inception_4b/output_0_split_0
I0403 17:44:51.233322 14833 net.cpp:399] inception_4b/output_inception_4b/output_0_split -> inception_4b/output_inception_4b/output_0_split_1
I0403 17:44:51.233342 14833 net.cpp:399] inception_4b/output_inception_4b/output_0_split -> inception_4b/output_inception_4b/output_0_split_2
I0403 17:44:51.233361 14833 net.cpp:399] inception_4b/output_inception_4b/output_0_split -> inception_4b/output_inception_4b/output_0_split_3
I0403 17:44:51.233443 14833 net.cpp:141] Setting up inception_4b/output_inception_4b/output_0_split
I0403 17:44:51.233465 14833 net.cpp:148] Top shape: 24 512 14 14 (2408448)
I0403 17:44:51.233481 14833 net.cpp:148] Top shape: 24 512 14 14 (2408448)
I0403 17:44:51.233496 14833 net.cpp:148] Top shape: 24 512 14 14 (2408448)
I0403 17:44:51.233511 14833 net.cpp:148] Top shape: 24 512 14 14 (2408448)
I0403 17:44:51.233525 14833 net.cpp:156] Memory required for data: 1028392224
I0403 17:44:51.233537 14833 layer_factory.hpp:77] Creating layer inception_4c/1x1
I0403 17:44:51.233559 14833 net.cpp:91] Creating Layer inception_4c/1x1
I0403 17:44:51.233577 14833 net.cpp:425] inception_4c/1x1 <- inception_4b/output_inception_4b/output_0_split_0
I0403 17:44:51.233597 14833 net.cpp:399] inception_4c/1x1 -> inception_4c/1x1
I0403 17:44:51.234972 14833 net.cpp:141] Setting up inception_4c/1x1
I0403 17:44:51.235002 14833 net.cpp:148] Top shape: 24 128 14 14 (602112)
I0403 17:44:51.235018 14833 net.cpp:156] Memory required for data: 1030800672
I0403 17:44:51.235035 14833 layer_factory.hpp:77] Creating layer inception_4c/relu_1x1
I0403 17:44:51.235055 14833 net.cpp:91] Creating Layer inception_4c/relu_1x1
I0403 17:44:51.235072 14833 net.cpp:425] inception_4c/relu_1x1 <- inception_4c/1x1
I0403 17:44:51.235090 14833 net.cpp:386] inception_4c/relu_1x1 -> inception_4c/1x1 (in-place)
I0403 17:44:51.235263 14833 net.cpp:141] Setting up inception_4c/relu_1x1
I0403 17:44:51.235287 14833 net.cpp:148] Top shape: 24 128 14 14 (602112)
I0403 17:44:51.235301 14833 net.cpp:156] Memory required for data: 1033209120
I0403 17:44:51.235316 14833 layer_factory.hpp:77] Creating layer inception_4c/3x3_reduce
I0403 17:44:51.235337 14833 net.cpp:91] Creating Layer inception_4c/3x3_reduce
I0403 17:44:51.235353 14833 net.cpp:425] inception_4c/3x3_reduce <- inception_4b/output_inception_4b/output_0_split_1
I0403 17:44:51.235376 14833 net.cpp:399] inception_4c/3x3_reduce -> inception_4c/3x3_reduce
I0403 17:44:51.237251 14833 net.cpp:141] Setting up inception_4c/3x3_reduce
I0403 17:44:51.237277 14833 net.cpp:148] Top shape: 24 128 14 14 (602112)
I0403 17:44:51.237293 14833 net.cpp:156] Memory required for data: 1035617568
I0403 17:44:51.237310 14833 layer_factory.hpp:77] Creating layer inception_4c/relu_3x3_reduce
I0403 17:44:51.237329 14833 net.cpp:91] Creating Layer inception_4c/relu_3x3_reduce
I0403 17:44:51.237342 14833 net.cpp:425] inception_4c/relu_3x3_reduce <- inception_4c/3x3_reduce
I0403 17:44:51.237361 14833 net.cpp:386] inception_4c/relu_3x3_reduce -> inception_4c/3x3_reduce (in-place)
I0403 17:44:51.237638 14833 net.cpp:141] Setting up inception_4c/relu_3x3_reduce
I0403 17:44:51.237664 14833 net.cpp:148] Top shape: 24 128 14 14 (602112)
I0403 17:44:51.237679 14833 net.cpp:156] Memory required for data: 1038026016
I0403 17:44:51.237694 14833 layer_factory.hpp:77] Creating layer inception_4c/3x3
I0403 17:44:51.237717 14833 net.cpp:91] Creating Layer inception_4c/3x3
I0403 17:44:51.237735 14833 net.cpp:425] inception_4c/3x3 <- inception_4c/3x3_reduce
I0403 17:44:51.237756 14833 net.cpp:399] inception_4c/3x3 -> inception_4c/3x3
I0403 17:44:51.241252 14833 net.cpp:141] Setting up inception_4c/3x3
I0403 17:44:51.241292 14833 net.cpp:148] Top shape: 24 256 14 14 (1204224)
I0403 17:44:51.241308 14833 net.cpp:156] Memory required for data: 1042842912
I0403 17:44:51.241339 14833 layer_factory.hpp:77] Creating layer inception_4c/relu_3x3
I0403 17:44:51.241360 14833 net.cpp:91] Creating Layer inception_4c/relu_3x3
I0403 17:44:51.241377 14833 net.cpp:425] inception_4c/relu_3x3 <- inception_4c/3x3
I0403 17:44:51.241394 14833 net.cpp:386] inception_4c/relu_3x3 -> inception_4c/3x3 (in-place)
I0403 17:44:51.241570 14833 net.cpp:141] Setting up inception_4c/relu_3x3
I0403 17:44:51.241595 14833 net.cpp:148] Top shape: 24 256 14 14 (1204224)
I0403 17:44:51.241608 14833 net.cpp:156] Memory required for data: 1047659808
I0403 17:44:51.241622 14833 layer_factory.hpp:77] Creating layer inception_4c/5x5_reduce
I0403 17:44:51.241644 14833 net.cpp:91] Creating Layer inception_4c/5x5_reduce
I0403 17:44:51.241662 14833 net.cpp:425] inception_4c/5x5_reduce <- inception_4b/output_inception_4b/output_0_split_2
I0403 17:44:51.241683 14833 net.cpp:399] inception_4c/5x5_reduce -> inception_4c/5x5_reduce
I0403 17:44:51.242734 14833 net.cpp:141] Setting up inception_4c/5x5_reduce
I0403 17:44:51.242763 14833 net.cpp:148] Top shape: 24 24 14 14 (112896)
I0403 17:44:51.242777 14833 net.cpp:156] Memory required for data: 1048111392
I0403 17:44:51.242795 14833 layer_factory.hpp:77] Creating layer inception_4c/relu_5x5_reduce
I0403 17:44:51.242815 14833 net.cpp:91] Creating Layer inception_4c/relu_5x5_reduce
I0403 17:44:51.242831 14833 net.cpp:425] inception_4c/relu_5x5_reduce <- inception_4c/5x5_reduce
I0403 17:44:51.242848 14833 net.cpp:386] inception_4c/relu_5x5_reduce -> inception_4c/5x5_reduce (in-place)
I0403 17:44:51.243027 14833 net.cpp:141] Setting up inception_4c/relu_5x5_reduce
I0403 17:44:51.243054 14833 net.cpp:148] Top shape: 24 24 14 14 (112896)
I0403 17:44:51.243069 14833 net.cpp:156] Memory required for data: 1048562976
I0403 17:44:51.243083 14833 layer_factory.hpp:77] Creating layer inception_4c/5x5
I0403 17:44:51.243103 14833 net.cpp:91] Creating Layer inception_4c/5x5
I0403 17:44:51.243119 14833 net.cpp:425] inception_4c/5x5 <- inception_4c/5x5_reduce
I0403 17:44:51.243140 14833 net.cpp:399] inception_4c/5x5 -> inception_4c/5x5
I0403 17:44:51.244339 14833 net.cpp:141] Setting up inception_4c/5x5
I0403 17:44:51.244366 14833 net.cpp:148] Top shape: 24 64 14 14 (301056)
I0403 17:44:51.244381 14833 net.cpp:156] Memory required for data: 1049767200
I0403 17:44:51.244398 14833 layer_factory.hpp:77] Creating layer inception_4c/relu_5x5
I0403 17:44:51.244418 14833 net.cpp:91] Creating Layer inception_4c/relu_5x5
I0403 17:44:51.244436 14833 net.cpp:425] inception_4c/relu_5x5 <- inception_4c/5x5
I0403 17:44:51.244451 14833 net.cpp:386] inception_4c/relu_5x5 -> inception_4c/5x5 (in-place)
I0403 17:44:51.244729 14833 net.cpp:141] Setting up inception_4c/relu_5x5
I0403 17:44:51.244753 14833 net.cpp:148] Top shape: 24 64 14 14 (301056)
I0403 17:44:51.244768 14833 net.cpp:156] Memory required for data: 1050971424
I0403 17:44:51.244782 14833 layer_factory.hpp:77] Creating layer inception_4c/pool
I0403 17:44:51.244802 14833 net.cpp:91] Creating Layer inception_4c/pool
I0403 17:44:51.244818 14833 net.cpp:425] inception_4c/pool <- inception_4b/output_inception_4b/output_0_split_3
I0403 17:44:51.244835 14833 net.cpp:399] inception_4c/pool -> inception_4c/pool
I0403 17:44:51.244899 14833 net.cpp:141] Setting up inception_4c/pool
I0403 17:44:51.244922 14833 net.cpp:148] Top shape: 24 512 14 14 (2408448)
I0403 17:44:51.244937 14833 net.cpp:156] Memory required for data: 1060605216
I0403 17:44:51.244952 14833 layer_factory.hpp:77] Creating layer inception_4c/pool_proj
I0403 17:44:51.244973 14833 net.cpp:91] Creating Layer inception_4c/pool_proj
I0403 17:44:51.244994 14833 net.cpp:425] inception_4c/pool_proj <- inception_4c/pool
I0403 17:44:51.245014 14833 net.cpp:399] inception_4c/pool_proj -> inception_4c/pool_proj
I0403 17:44:51.246215 14833 net.cpp:141] Setting up inception_4c/pool_proj
I0403 17:44:51.246243 14833 net.cpp:148] Top shape: 24 64 14 14 (301056)
I0403 17:44:51.246284 14833 net.cpp:156] Memory required for data: 1061809440
I0403 17:44:51.246301 14833 layer_factory.hpp:77] Creating layer inception_4c/relu_pool_proj
I0403 17:44:51.246322 14833 net.cpp:91] Creating Layer inception_4c/relu_pool_proj
I0403 17:44:51.246338 14833 net.cpp:425] inception_4c/relu_pool_proj <- inception_4c/pool_proj
I0403 17:44:51.246356 14833 net.cpp:386] inception_4c/relu_pool_proj -> inception_4c/pool_proj (in-place)
I0403 17:44:51.246531 14833 net.cpp:141] Setting up inception_4c/relu_pool_proj
I0403 17:44:51.246556 14833 net.cpp:148] Top shape: 24 64 14 14 (301056)
I0403 17:44:51.246569 14833 net.cpp:156] Memory required for data: 1063013664
I0403 17:44:51.246583 14833 layer_factory.hpp:77] Creating layer inception_4c/output
I0403 17:44:51.246603 14833 net.cpp:91] Creating Layer inception_4c/output
I0403 17:44:51.246618 14833 net.cpp:425] inception_4c/output <- inception_4c/1x1
I0403 17:44:51.246634 14833 net.cpp:425] inception_4c/output <- inception_4c/3x3
I0403 17:44:51.246649 14833 net.cpp:425] inception_4c/output <- inception_4c/5x5
I0403 17:44:51.246665 14833 net.cpp:425] inception_4c/output <- inception_4c/pool_proj
I0403 17:44:51.246680 14833 net.cpp:399] inception_4c/output -> inception_4c/output
I0403 17:44:51.246726 14833 net.cpp:141] Setting up inception_4c/output
I0403 17:44:51.246748 14833 net.cpp:148] Top shape: 24 512 14 14 (2408448)
I0403 17:44:51.246762 14833 net.cpp:156] Memory required for data: 1072647456
I0403 17:44:51.246775 14833 layer_factory.hpp:77] Creating layer inception_4c/output_inception_4c/output_0_split
I0403 17:44:51.246793 14833 net.cpp:91] Creating Layer inception_4c/output_inception_4c/output_0_split
I0403 17:44:51.246808 14833 net.cpp:425] inception_4c/output_inception_4c/output_0_split <- inception_4c/output
I0403 17:44:51.246829 14833 net.cpp:399] inception_4c/output_inception_4c/output_0_split -> inception_4c/output_inception_4c/output_0_split_0
I0403 17:44:51.246848 14833 net.cpp:399] inception_4c/output_inception_4c/output_0_split -> inception_4c/output_inception_4c/output_0_split_1
I0403 17:44:51.246867 14833 net.cpp:399] inception_4c/output_inception_4c/output_0_split -> inception_4c/output_inception_4c/output_0_split_2
I0403 17:44:51.246886 14833 net.cpp:399] inception_4c/output_inception_4c/output_0_split -> inception_4c/output_inception_4c/output_0_split_3
I0403 17:44:51.246969 14833 net.cpp:141] Setting up inception_4c/output_inception_4c/output_0_split
I0403 17:44:51.246999 14833 net.cpp:148] Top shape: 24 512 14 14 (2408448)
I0403 17:44:51.247014 14833 net.cpp:148] Top shape: 24 512 14 14 (2408448)
I0403 17:44:51.247030 14833 net.cpp:148] Top shape: 24 512 14 14 (2408448)
I0403 17:44:51.247045 14833 net.cpp:148] Top shape: 24 512 14 14 (2408448)
I0403 17:44:51.247057 14833 net.cpp:156] Memory required for data: 1111182624
I0403 17:44:51.247071 14833 layer_factory.hpp:77] Creating layer inception_4d/1x1
I0403 17:44:51.247092 14833 net.cpp:91] Creating Layer inception_4d/1x1
I0403 17:44:51.247108 14833 net.cpp:425] inception_4d/1x1 <- inception_4c/output_inception_4c/output_0_split_0
I0403 17:44:51.247128 14833 net.cpp:399] inception_4d/1x1 -> inception_4d/1x1
I0403 17:44:51.248469 14833 net.cpp:141] Setting up inception_4d/1x1
I0403 17:44:51.248498 14833 net.cpp:148] Top shape: 24 112 14 14 (526848)
I0403 17:44:51.248514 14833 net.cpp:156] Memory required for data: 1113290016
I0403 17:44:51.248533 14833 layer_factory.hpp:77] Creating layer inception_4d/relu_1x1
I0403 17:44:51.248549 14833 net.cpp:91] Creating Layer inception_4d/relu_1x1
I0403 17:44:51.248564 14833 net.cpp:425] inception_4d/relu_1x1 <- inception_4d/1x1
I0403 17:44:51.248584 14833 net.cpp:386] inception_4d/relu_1x1 -> inception_4d/1x1 (in-place)
I0403 17:44:51.248762 14833 net.cpp:141] Setting up inception_4d/relu_1x1
I0403 17:44:51.248786 14833 net.cpp:148] Top shape: 24 112 14 14 (526848)
I0403 17:44:51.248800 14833 net.cpp:156] Memory required for data: 1115397408
I0403 17:44:51.248814 14833 layer_factory.hpp:77] Creating layer inception_4d/3x3_reduce
I0403 17:44:51.248849 14833 net.cpp:91] Creating Layer inception_4d/3x3_reduce
I0403 17:44:51.248867 14833 net.cpp:425] inception_4d/3x3_reduce <- inception_4c/output_inception_4c/output_0_split_1
I0403 17:44:51.248888 14833 net.cpp:399] inception_4d/3x3_reduce -> inception_4d/3x3_reduce
I0403 17:44:51.250349 14833 net.cpp:141] Setting up inception_4d/3x3_reduce
I0403 17:44:51.250377 14833 net.cpp:148] Top shape: 24 144 14 14 (677376)
I0403 17:44:51.250393 14833 net.cpp:156] Memory required for data: 1118106912
I0403 17:44:51.250411 14833 layer_factory.hpp:77] Creating layer inception_4d/relu_3x3_reduce
I0403 17:44:51.250427 14833 net.cpp:91] Creating Layer inception_4d/relu_3x3_reduce
I0403 17:44:51.250443 14833 net.cpp:425] inception_4d/relu_3x3_reduce <- inception_4d/3x3_reduce
I0403 17:44:51.250460 14833 net.cpp:386] inception_4d/relu_3x3_reduce -> inception_4d/3x3_reduce (in-place)
I0403 17:44:51.250738 14833 net.cpp:141] Setting up inception_4d/relu_3x3_reduce
I0403 17:44:51.250766 14833 net.cpp:148] Top shape: 24 144 14 14 (677376)
I0403 17:44:51.250780 14833 net.cpp:156] Memory required for data: 1120816416
I0403 17:44:51.250795 14833 layer_factory.hpp:77] Creating layer inception_4d/3x3
I0403 17:44:51.250818 14833 net.cpp:91] Creating Layer inception_4d/3x3
I0403 17:44:51.250835 14833 net.cpp:425] inception_4d/3x3 <- inception_4d/3x3_reduce
I0403 17:44:51.250854 14833 net.cpp:399] inception_4d/3x3 -> inception_4d/3x3
I0403 17:44:51.255095 14833 net.cpp:141] Setting up inception_4d/3x3
I0403 17:44:51.255122 14833 net.cpp:148] Top shape: 24 288 14 14 (1354752)
I0403 17:44:51.255137 14833 net.cpp:156] Memory required for data: 1126235424
I0403 17:44:51.255156 14833 layer_factory.hpp:77] Creating layer inception_4d/relu_3x3
I0403 17:44:51.255173 14833 net.cpp:91] Creating Layer inception_4d/relu_3x3
I0403 17:44:51.255189 14833 net.cpp:425] inception_4d/relu_3x3 <- inception_4d/3x3
I0403 17:44:51.255208 14833 net.cpp:386] inception_4d/relu_3x3 -> inception_4d/3x3 (in-place)
I0403 17:44:51.255388 14833 net.cpp:141] Setting up inception_4d/relu_3x3
I0403 17:44:51.255411 14833 net.cpp:148] Top shape: 24 288 14 14 (1354752)
I0403 17:44:51.255425 14833 net.cpp:156] Memory required for data: 1131654432
I0403 17:44:51.255439 14833 layer_factory.hpp:77] Creating layer inception_4d/5x5_reduce
I0403 17:44:51.255460 14833 net.cpp:91] Creating Layer inception_4d/5x5_reduce
I0403 17:44:51.255476 14833 net.cpp:425] inception_4d/5x5_reduce <- inception_4c/output_inception_4c/output_0_split_2
I0403 17:44:51.255496 14833 net.cpp:399] inception_4d/5x5_reduce -> inception_4d/5x5_reduce
I0403 17:44:51.256610 14833 net.cpp:141] Setting up inception_4d/5x5_reduce
I0403 17:44:51.256639 14833 net.cpp:148] Top shape: 24 32 14 14 (150528)
I0403 17:44:51.256655 14833 net.cpp:156] Memory required for data: 1132256544
I0403 17:44:51.256672 14833 layer_factory.hpp:77] Creating layer inception_4d/relu_5x5_reduce
I0403 17:44:51.256690 14833 net.cpp:91] Creating Layer inception_4d/relu_5x5_reduce
I0403 17:44:51.256706 14833 net.cpp:425] inception_4d/relu_5x5_reduce <- inception_4d/5x5_reduce
I0403 17:44:51.256726 14833 net.cpp:386] inception_4d/relu_5x5_reduce -> inception_4d/5x5_reduce (in-place)
I0403 17:44:51.256904 14833 net.cpp:141] Setting up inception_4d/relu_5x5_reduce
I0403 17:44:51.256929 14833 net.cpp:148] Top shape: 24 32 14 14 (150528)
I0403 17:44:51.256943 14833 net.cpp:156] Memory required for data: 1132858656
I0403 17:44:51.256958 14833 layer_factory.hpp:77] Creating layer inception_4d/5x5
I0403 17:44:51.256983 14833 net.cpp:91] Creating Layer inception_4d/5x5
I0403 17:44:51.257001 14833 net.cpp:425] inception_4d/5x5 <- inception_4d/5x5_reduce
I0403 17:44:51.257021 14833 net.cpp:399] inception_4d/5x5 -> inception_4d/5x5
I0403 17:44:51.258453 14833 net.cpp:141] Setting up inception_4d/5x5
I0403 17:44:51.258481 14833 net.cpp:148] Top shape: 24 64 14 14 (301056)
I0403 17:44:51.258496 14833 net.cpp:156] Memory required for data: 1134062880
I0403 17:44:51.258513 14833 layer_factory.hpp:77] Creating layer inception_4d/relu_5x5
I0403 17:44:51.258548 14833 net.cpp:91] Creating Layer inception_4d/relu_5x5
I0403 17:44:51.258565 14833 net.cpp:425] inception_4d/relu_5x5 <- inception_4d/5x5
I0403 17:44:51.258582 14833 net.cpp:386] inception_4d/relu_5x5 -> inception_4d/5x5 (in-place)
I0403 17:44:51.258874 14833 net.cpp:141] Setting up inception_4d/relu_5x5
I0403 17:44:51.258899 14833 net.cpp:148] Top shape: 24 64 14 14 (301056)
I0403 17:44:51.258913 14833 net.cpp:156] Memory required for data: 1135267104
I0403 17:44:51.258930 14833 layer_factory.hpp:77] Creating layer inception_4d/pool
I0403 17:44:51.258949 14833 net.cpp:91] Creating Layer inception_4d/pool
I0403 17:44:51.258966 14833 net.cpp:425] inception_4d/pool <- inception_4c/output_inception_4c/output_0_split_3
I0403 17:44:51.258987 14833 net.cpp:399] inception_4d/pool -> inception_4d/pool
I0403 17:44:51.259055 14833 net.cpp:141] Setting up inception_4d/pool
I0403 17:44:51.259078 14833 net.cpp:148] Top shape: 24 512 14 14 (2408448)
I0403 17:44:51.259093 14833 net.cpp:156] Memory required for data: 1144900896
I0403 17:44:51.259106 14833 layer_factory.hpp:77] Creating layer inception_4d/pool_proj
I0403 17:44:51.259129 14833 net.cpp:91] Creating Layer inception_4d/pool_proj
I0403 17:44:51.259145 14833 net.cpp:425] inception_4d/pool_proj <- inception_4d/pool
I0403 17:44:51.259165 14833 net.cpp:399] inception_4d/pool_proj -> inception_4d/pool_proj
I0403 17:44:51.260869 14833 net.cpp:141] Setting up inception_4d/pool_proj
I0403 17:44:51.260896 14833 net.cpp:148] Top shape: 24 64 14 14 (301056)
I0403 17:44:51.260911 14833 net.cpp:156] Memory required for data: 1146105120
I0403 17:44:51.260931 14833 layer_factory.hpp:77] Creating layer inception_4d/relu_pool_proj
I0403 17:44:51.260947 14833 net.cpp:91] Creating Layer inception_4d/relu_pool_proj
I0403 17:44:51.260962 14833 net.cpp:425] inception_4d/relu_pool_proj <- inception_4d/pool_proj
I0403 17:44:51.260985 14833 net.cpp:386] inception_4d/relu_pool_proj -> inception_4d/pool_proj (in-place)
I0403 17:44:51.261164 14833 net.cpp:141] Setting up inception_4d/relu_pool_proj
I0403 17:44:51.261188 14833 net.cpp:148] Top shape: 24 64 14 14 (301056)
I0403 17:44:51.261201 14833 net.cpp:156] Memory required for data: 1147309344
I0403 17:44:51.261215 14833 layer_factory.hpp:77] Creating layer inception_4d/output
I0403 17:44:51.261235 14833 net.cpp:91] Creating Layer inception_4d/output
I0403 17:44:51.261250 14833 net.cpp:425] inception_4d/output <- inception_4d/1x1
I0403 17:44:51.261266 14833 net.cpp:425] inception_4d/output <- inception_4d/3x3
I0403 17:44:51.261281 14833 net.cpp:425] inception_4d/output <- inception_4d/5x5
I0403 17:44:51.261296 14833 net.cpp:425] inception_4d/output <- inception_4d/pool_proj
I0403 17:44:51.261312 14833 net.cpp:399] inception_4d/output -> inception_4d/output
I0403 17:44:51.261358 14833 net.cpp:141] Setting up inception_4d/output
I0403 17:44:51.261381 14833 net.cpp:148] Top shape: 24 528 14 14 (2483712)
I0403 17:44:51.261394 14833 net.cpp:156] Memory required for data: 1157244192
I0403 17:44:51.261409 14833 layer_factory.hpp:77] Creating layer inception_4d/output_inception_4d/output_0_split
I0403 17:44:51.261425 14833 net.cpp:91] Creating Layer inception_4d/output_inception_4d/output_0_split
I0403 17:44:51.261440 14833 net.cpp:425] inception_4d/output_inception_4d/output_0_split <- inception_4d/output
I0403 17:44:51.261459 14833 net.cpp:399] inception_4d/output_inception_4d/output_0_split -> inception_4d/output_inception_4d/output_0_split_0
I0403 17:44:51.261479 14833 net.cpp:399] inception_4d/output_inception_4d/output_0_split -> inception_4d/output_inception_4d/output_0_split_1
I0403 17:44:51.261499 14833 net.cpp:399] inception_4d/output_inception_4d/output_0_split -> inception_4d/output_inception_4d/output_0_split_2
I0403 17:44:51.261518 14833 net.cpp:399] inception_4d/output_inception_4d/output_0_split -> inception_4d/output_inception_4d/output_0_split_3
I0403 17:44:51.261538 14833 net.cpp:399] inception_4d/output_inception_4d/output_0_split -> inception_4d/output_inception_4d/output_0_split_4
I0403 17:44:51.261637 14833 net.cpp:141] Setting up inception_4d/output_inception_4d/output_0_split
I0403 17:44:51.261672 14833 net.cpp:148] Top shape: 24 528 14 14 (2483712)
I0403 17:44:51.261690 14833 net.cpp:148] Top shape: 24 528 14 14 (2483712)
I0403 17:44:51.261706 14833 net.cpp:148] Top shape: 24 528 14 14 (2483712)
I0403 17:44:51.261723 14833 net.cpp:148] Top shape: 24 528 14 14 (2483712)
I0403 17:44:51.261739 14833 net.cpp:148] Top shape: 24 528 14 14 (2483712)
I0403 17:44:51.261752 14833 net.cpp:156] Memory required for data: 1206918432
I0403 17:44:51.261766 14833 layer_factory.hpp:77] Creating layer loss2/ave_pool
I0403 17:44:51.261783 14833 net.cpp:91] Creating Layer loss2/ave_pool
I0403 17:44:51.261800 14833 net.cpp:425] loss2/ave_pool <- inception_4d/output_inception_4d/output_0_split_0
I0403 17:44:51.261818 14833 net.cpp:399] loss2/ave_pool -> loss2/ave_pool
I0403 17:44:51.262148 14833 net.cpp:141] Setting up loss2/ave_pool
I0403 17:44:51.262176 14833 net.cpp:148] Top shape: 24 528 4 4 (202752)
I0403 17:44:51.262192 14833 net.cpp:156] Memory required for data: 1207729440
I0403 17:44:51.262205 14833 layer_factory.hpp:77] Creating layer loss2/conv
I0403 17:44:51.262228 14833 net.cpp:91] Creating Layer loss2/conv
I0403 17:44:51.262244 14833 net.cpp:425] loss2/conv <- loss2/ave_pool
I0403 17:44:51.262266 14833 net.cpp:399] loss2/conv -> loss2/conv
I0403 17:44:51.264114 14833 net.cpp:141] Setting up loss2/conv
I0403 17:44:51.264142 14833 net.cpp:148] Top shape: 24 128 4 4 (49152)
I0403 17:44:51.264156 14833 net.cpp:156] Memory required for data: 1207926048
I0403 17:44:51.264174 14833 layer_factory.hpp:77] Creating layer loss2/relu_conv
I0403 17:44:51.264194 14833 net.cpp:91] Creating Layer loss2/relu_conv
I0403 17:44:51.264210 14833 net.cpp:425] loss2/relu_conv <- loss2/conv
I0403 17:44:51.264228 14833 net.cpp:386] loss2/relu_conv -> loss2/conv (in-place)
I0403 17:44:51.264510 14833 net.cpp:141] Setting up loss2/relu_conv
I0403 17:44:51.264535 14833 net.cpp:148] Top shape: 24 128 4 4 (49152)
I0403 17:44:51.264550 14833 net.cpp:156] Memory required for data: 1208122656
I0403 17:44:51.264564 14833 layer_factory.hpp:77] Creating layer loss2/fc
I0403 17:44:51.264585 14833 net.cpp:91] Creating Layer loss2/fc
I0403 17:44:51.264602 14833 net.cpp:425] loss2/fc <- loss2/conv
I0403 17:44:51.264619 14833 net.cpp:399] loss2/fc -> loss2/fc
I0403 17:44:51.281780 14833 net.cpp:141] Setting up loss2/fc
I0403 17:44:51.281812 14833 net.cpp:148] Top shape: 24 1024 (24576)
I0403 17:44:51.281827 14833 net.cpp:156] Memory required for data: 1208220960
I0403 17:44:51.281847 14833 layer_factory.hpp:77] Creating layer loss2/relu_fc
I0403 17:44:51.281865 14833 net.cpp:91] Creating Layer loss2/relu_fc
I0403 17:44:51.281880 14833 net.cpp:425] loss2/relu_fc <- loss2/fc
I0403 17:44:51.281899 14833 net.cpp:386] loss2/relu_fc -> loss2/fc (in-place)
I0403 17:44:51.282193 14833 net.cpp:141] Setting up loss2/relu_fc
I0403 17:44:51.282218 14833 net.cpp:148] Top shape: 24 1024 (24576)
I0403 17:44:51.282233 14833 net.cpp:156] Memory required for data: 1208319264
I0403 17:44:51.282248 14833 layer_factory.hpp:77] Creating layer loss2/drop_fc
I0403 17:44:51.282264 14833 net.cpp:91] Creating Layer loss2/drop_fc
I0403 17:44:51.282279 14833 net.cpp:425] loss2/drop_fc <- loss2/fc
I0403 17:44:51.282299 14833 net.cpp:386] loss2/drop_fc -> loss2/fc (in-place)
I0403 17:44:51.282346 14833 net.cpp:141] Setting up loss2/drop_fc
I0403 17:44:51.282371 14833 net.cpp:148] Top shape: 24 1024 (24576)
I0403 17:44:51.282385 14833 net.cpp:156] Memory required for data: 1208417568
I0403 17:44:51.282399 14833 layer_factory.hpp:77] Creating layer loss2/classifier_plantvillage
I0403 17:44:51.282418 14833 net.cpp:91] Creating Layer loss2/classifier_plantvillage
I0403 17:44:51.282433 14833 net.cpp:425] loss2/classifier_plantvillage <- loss2/fc
I0403 17:44:51.282451 14833 net.cpp:399] loss2/classifier_plantvillage -> loss2/classifier_plantvillage
I0403 17:44:51.282840 14833 net.cpp:141] Setting up loss2/classifier_plantvillage
I0403 17:44:51.282866 14833 net.cpp:148] Top shape: 24 38 (912)
I0403 17:44:51.282894 14833 net.cpp:156] Memory required for data: 1208421216
I0403 17:44:51.282912 14833 layer_factory.hpp:77] Creating layer loss2/classifier_plantvillage_loss2/classifier_plantvillage_0_split
I0403 17:44:51.282932 14833 net.cpp:91] Creating Layer loss2/classifier_plantvillage_loss2/classifier_plantvillage_0_split
I0403 17:44:51.282946 14833 net.cpp:425] loss2/classifier_plantvillage_loss2/classifier_plantvillage_0_split <- loss2/classifier_plantvillage
I0403 17:44:51.282963 14833 net.cpp:399] loss2/classifier_plantvillage_loss2/classifier_plantvillage_0_split -> loss2/classifier_plantvillage_loss2/classifier_plantvillage_0_split_0
I0403 17:44:51.282986 14833 net.cpp:399] loss2/classifier_plantvillage_loss2/classifier_plantvillage_0_split -> loss2/classifier_plantvillage_loss2/classifier_plantvillage_0_split_1
I0403 17:44:51.283010 14833 net.cpp:399] loss2/classifier_plantvillage_loss2/classifier_plantvillage_0_split -> loss2/classifier_plantvillage_loss2/classifier_plantvillage_0_split_2
I0403 17:44:51.283083 14833 net.cpp:141] Setting up loss2/classifier_plantvillage_loss2/classifier_plantvillage_0_split
I0403 17:44:51.283107 14833 net.cpp:148] Top shape: 24 38 (912)
I0403 17:44:51.283121 14833 net.cpp:148] Top shape: 24 38 (912)
I0403 17:44:51.283136 14833 net.cpp:148] Top shape: 24 38 (912)
I0403 17:44:51.283149 14833 net.cpp:156] Memory required for data: 1208432160
I0403 17:44:51.283164 14833 layer_factory.hpp:77] Creating layer inception_4e/1x1
I0403 17:44:51.283184 14833 net.cpp:91] Creating Layer inception_4e/1x1
I0403 17:44:51.283200 14833 net.cpp:425] inception_4e/1x1 <- inception_4d/output_inception_4d/output_0_split_1
I0403 17:44:51.283232 14833 net.cpp:399] inception_4e/1x1 -> inception_4e/1x1
I0403 17:44:51.285017 14833 net.cpp:141] Setting up inception_4e/1x1
I0403 17:44:51.285043 14833 net.cpp:148] Top shape: 24 256 14 14 (1204224)
I0403 17:44:51.285058 14833 net.cpp:156] Memory required for data: 1213249056
I0403 17:44:51.285075 14833 layer_factory.hpp:77] Creating layer inception_4e/relu_1x1
I0403 17:44:51.285094 14833 net.cpp:91] Creating Layer inception_4e/relu_1x1
I0403 17:44:51.285110 14833 net.cpp:425] inception_4e/relu_1x1 <- inception_4e/1x1
I0403 17:44:51.285127 14833 net.cpp:386] inception_4e/relu_1x1 -> inception_4e/1x1 (in-place)
I0403 17:44:51.285419 14833 net.cpp:141] Setting up inception_4e/relu_1x1
I0403 17:44:51.285444 14833 net.cpp:148] Top shape: 24 256 14 14 (1204224)
I0403 17:44:51.285459 14833 net.cpp:156] Memory required for data: 1218065952
I0403 17:44:51.285473 14833 layer_factory.hpp:77] Creating layer inception_4e/3x3_reduce
I0403 17:44:51.285496 14833 net.cpp:91] Creating Layer inception_4e/3x3_reduce
I0403 17:44:51.285513 14833 net.cpp:425] inception_4e/3x3_reduce <- inception_4d/output_inception_4d/output_0_split_2
I0403 17:44:51.285531 14833 net.cpp:399] inception_4e/3x3_reduce -> inception_4e/3x3_reduce
I0403 17:44:51.287603 14833 net.cpp:141] Setting up inception_4e/3x3_reduce
I0403 17:44:51.287631 14833 net.cpp:148] Top shape: 24 160 14 14 (752640)
I0403 17:44:51.287647 14833 net.cpp:156] Memory required for data: 1221076512
I0403 17:44:51.287663 14833 layer_factory.hpp:77] Creating layer inception_4e/relu_3x3_reduce
I0403 17:44:51.287683 14833 net.cpp:91] Creating Layer inception_4e/relu_3x3_reduce
I0403 17:44:51.287699 14833 net.cpp:425] inception_4e/relu_3x3_reduce <- inception_4e/3x3_reduce
I0403 17:44:51.287715 14833 net.cpp:386] inception_4e/relu_3x3_reduce -> inception_4e/3x3_reduce (in-place)
I0403 17:44:51.287895 14833 net.cpp:141] Setting up inception_4e/relu_3x3_reduce
I0403 17:44:51.287921 14833 net.cpp:148] Top shape: 24 160 14 14 (752640)
I0403 17:44:51.287936 14833 net.cpp:156] Memory required for data: 1224087072
I0403 17:44:51.287950 14833 layer_factory.hpp:77] Creating layer inception_4e/3x3
I0403 17:44:51.287973 14833 net.cpp:91] Creating Layer inception_4e/3x3
I0403 17:44:51.288000 14833 net.cpp:425] inception_4e/3x3 <- inception_4e/3x3_reduce
I0403 17:44:51.288020 14833 net.cpp:399] inception_4e/3x3 -> inception_4e/3x3
I0403 17:44:51.292863 14833 net.cpp:141] Setting up inception_4e/3x3
I0403 17:44:51.292906 14833 net.cpp:148] Top shape: 24 320 14 14 (1505280)
I0403 17:44:51.292923 14833 net.cpp:156] Memory required for data: 1230108192
I0403 17:44:51.292942 14833 layer_factory.hpp:77] Creating layer inception_4e/relu_3x3
I0403 17:44:51.292958 14833 net.cpp:91] Creating Layer inception_4e/relu_3x3
I0403 17:44:51.292974 14833 net.cpp:425] inception_4e/relu_3x3 <- inception_4e/3x3
I0403 17:44:51.292997 14833 net.cpp:386] inception_4e/relu_3x3 -> inception_4e/3x3 (in-place)
I0403 17:44:51.293287 14833 net.cpp:141] Setting up inception_4e/relu_3x3
I0403 17:44:51.293318 14833 net.cpp:148] Top shape: 24 320 14 14 (1505280)
I0403 17:44:51.293334 14833 net.cpp:156] Memory required for data: 1236129312
I0403 17:44:51.293347 14833 layer_factory.hpp:77] Creating layer inception_4e/5x5_reduce
I0403 17:44:51.293370 14833 net.cpp:91] Creating Layer inception_4e/5x5_reduce
I0403 17:44:51.293388 14833 net.cpp:425] inception_4e/5x5_reduce <- inception_4d/output_inception_4d/output_0_split_3
I0403 17:44:51.293406 14833 net.cpp:399] inception_4e/5x5_reduce -> inception_4e/5x5_reduce
I0403 17:44:51.294442 14833 net.cpp:141] Setting up inception_4e/5x5_reduce
I0403 17:44:51.294469 14833 net.cpp:148] Top shape: 24 32 14 14 (150528)
I0403 17:44:51.294483 14833 net.cpp:156] Memory required for data: 1236731424
I0403 17:44:51.294502 14833 layer_factory.hpp:77] Creating layer inception_4e/relu_5x5_reduce
I0403 17:44:51.294520 14833 net.cpp:91] Creating Layer inception_4e/relu_5x5_reduce
I0403 17:44:51.294538 14833 net.cpp:425] inception_4e/relu_5x5_reduce <- inception_4e/5x5_reduce
I0403 17:44:51.294554 14833 net.cpp:386] inception_4e/relu_5x5_reduce -> inception_4e/5x5_reduce (in-place)
I0403 17:44:51.294862 14833 net.cpp:141] Setting up inception_4e/relu_5x5_reduce
I0403 17:44:51.294888 14833 net.cpp:148] Top shape: 24 32 14 14 (150528)
I0403 17:44:51.294915 14833 net.cpp:156] Memory required for data: 1237333536
I0403 17:44:51.294929 14833 layer_factory.hpp:77] Creating layer inception_4e/5x5
I0403 17:44:51.294965 14833 net.cpp:91] Creating Layer inception_4e/5x5
I0403 17:44:51.294986 14833 net.cpp:425] inception_4e/5x5 <- inception_4e/5x5_reduce
I0403 17:44:51.295008 14833 net.cpp:399] inception_4e/5x5 -> inception_4e/5x5
I0403 17:44:51.296793 14833 net.cpp:141] Setting up inception_4e/5x5
I0403 17:44:51.296820 14833 net.cpp:148] Top shape: 24 128 14 14 (602112)
I0403 17:44:51.296835 14833 net.cpp:156] Memory required for data: 1239741984
I0403 17:44:51.296854 14833 layer_factory.hpp:77] Creating layer inception_4e/relu_5x5
I0403 17:44:51.296870 14833 net.cpp:91] Creating Layer inception_4e/relu_5x5
I0403 17:44:51.296885 14833 net.cpp:425] inception_4e/relu_5x5 <- inception_4e/5x5
I0403 17:44:51.296903 14833 net.cpp:386] inception_4e/relu_5x5 -> inception_4e/5x5 (in-place)
I0403 17:44:51.297101 14833 net.cpp:141] Setting up inception_4e/relu_5x5
I0403 17:44:51.297125 14833 net.cpp:148] Top shape: 24 128 14 14 (602112)
I0403 17:44:51.297138 14833 net.cpp:156] Memory required for data: 1242150432
I0403 17:44:51.297153 14833 layer_factory.hpp:77] Creating layer inception_4e/pool
I0403 17:44:51.297173 14833 net.cpp:91] Creating Layer inception_4e/pool
I0403 17:44:51.297188 14833 net.cpp:425] inception_4e/pool <- inception_4d/output_inception_4d/output_0_split_4
I0403 17:44:51.297205 14833 net.cpp:399] inception_4e/pool -> inception_4e/pool
I0403 17:44:51.297274 14833 net.cpp:141] Setting up inception_4e/pool
I0403 17:44:51.297297 14833 net.cpp:148] Top shape: 24 528 14 14 (2483712)
I0403 17:44:51.297310 14833 net.cpp:156] Memory required for data: 1252085280
I0403 17:44:51.297324 14833 layer_factory.hpp:77] Creating layer inception_4e/pool_proj
I0403 17:44:51.297345 14833 net.cpp:91] Creating Layer inception_4e/pool_proj
I0403 17:44:51.297361 14833 net.cpp:425] inception_4e/pool_proj <- inception_4e/pool
I0403 17:44:51.297381 14833 net.cpp:399] inception_4e/pool_proj -> inception_4e/pool_proj
I0403 17:44:51.298852 14833 net.cpp:141] Setting up inception_4e/pool_proj
I0403 17:44:51.298890 14833 net.cpp:148] Top shape: 24 128 14 14 (602112)
I0403 17:44:51.298907 14833 net.cpp:156] Memory required for data: 1254493728
I0403 17:44:51.298924 14833 layer_factory.hpp:77] Creating layer inception_4e/relu_pool_proj
I0403 17:44:51.298941 14833 net.cpp:91] Creating Layer inception_4e/relu_pool_proj
I0403 17:44:51.298957 14833 net.cpp:425] inception_4e/relu_pool_proj <- inception_4e/pool_proj
I0403 17:44:51.298976 14833 net.cpp:386] inception_4e/relu_pool_proj -> inception_4e/pool_proj (in-place)
I0403 17:44:51.299270 14833 net.cpp:141] Setting up inception_4e/relu_pool_proj
I0403 17:44:51.299296 14833 net.cpp:148] Top shape: 24 128 14 14 (602112)
I0403 17:44:51.299310 14833 net.cpp:156] Memory required for data: 1256902176
I0403 17:44:51.299324 14833 layer_factory.hpp:77] Creating layer inception_4e/output
I0403 17:44:51.299341 14833 net.cpp:91] Creating Layer inception_4e/output
I0403 17:44:51.299356 14833 net.cpp:425] inception_4e/output <- inception_4e/1x1
I0403 17:44:51.299372 14833 net.cpp:425] inception_4e/output <- inception_4e/3x3
I0403 17:44:51.299387 14833 net.cpp:425] inception_4e/output <- inception_4e/5x5
I0403 17:44:51.299402 14833 net.cpp:425] inception_4e/output <- inception_4e/pool_proj
I0403 17:44:51.299422 14833 net.cpp:399] inception_4e/output -> inception_4e/output
I0403 17:44:51.299469 14833 net.cpp:141] Setting up inception_4e/output
I0403 17:44:51.299494 14833 net.cpp:148] Top shape: 24 832 14 14 (3913728)
I0403 17:44:51.299510 14833 net.cpp:156] Memory required for data: 1272557088
I0403 17:44:51.299525 14833 layer_factory.hpp:77] Creating layer pool4/3x3_s2
I0403 17:44:51.299540 14833 net.cpp:91] Creating Layer pool4/3x3_s2
I0403 17:44:51.299556 14833 net.cpp:425] pool4/3x3_s2 <- inception_4e/output
I0403 17:44:51.299572 14833 net.cpp:399] pool4/3x3_s2 -> pool4/3x3_s2
I0403 17:44:51.299638 14833 net.cpp:141] Setting up pool4/3x3_s2
I0403 17:44:51.299661 14833 net.cpp:148] Top shape: 24 832 7 7 (978432)
I0403 17:44:51.299675 14833 net.cpp:156] Memory required for data: 1276470816
I0403 17:44:51.299690 14833 layer_factory.hpp:77] Creating layer pool4/3x3_s2_pool4/3x3_s2_0_split
I0403 17:44:51.299705 14833 net.cpp:91] Creating Layer pool4/3x3_s2_pool4/3x3_s2_0_split
I0403 17:44:51.299721 14833 net.cpp:425] pool4/3x3_s2_pool4/3x3_s2_0_split <- pool4/3x3_s2
I0403 17:44:51.299738 14833 net.cpp:399] pool4/3x3_s2_pool4/3x3_s2_0_split -> pool4/3x3_s2_pool4/3x3_s2_0_split_0
I0403 17:44:51.299758 14833 net.cpp:399] pool4/3x3_s2_pool4/3x3_s2_0_split -> pool4/3x3_s2_pool4/3x3_s2_0_split_1
I0403 17:44:51.299777 14833 net.cpp:399] pool4/3x3_s2_pool4/3x3_s2_0_split -> pool4/3x3_s2_pool4/3x3_s2_0_split_2
I0403 17:44:51.299799 14833 net.cpp:399] pool4/3x3_s2_pool4/3x3_s2_0_split -> pool4/3x3_s2_pool4/3x3_s2_0_split_3
I0403 17:44:51.299887 14833 net.cpp:141] Setting up pool4/3x3_s2_pool4/3x3_s2_0_split
I0403 17:44:51.299911 14833 net.cpp:148] Top shape: 24 832 7 7 (978432)
I0403 17:44:51.299927 14833 net.cpp:148] Top shape: 24 832 7 7 (978432)
I0403 17:44:51.299942 14833 net.cpp:148] Top shape: 24 832 7 7 (978432)
I0403 17:44:51.299957 14833 net.cpp:148] Top shape: 24 832 7 7 (978432)
I0403 17:44:51.299970 14833 net.cpp:156] Memory required for data: 1292125728
I0403 17:44:51.299988 14833 layer_factory.hpp:77] Creating layer inception_5a/1x1
I0403 17:44:51.300010 14833 net.cpp:91] Creating Layer inception_5a/1x1
I0403 17:44:51.300027 14833 net.cpp:425] inception_5a/1x1 <- pool4/3x3_s2_pool4/3x3_s2_0_split_0
I0403 17:44:51.300047 14833 net.cpp:399] inception_5a/1x1 -> inception_5a/1x1
I0403 17:44:51.302817 14833 net.cpp:141] Setting up inception_5a/1x1
I0403 17:44:51.302846 14833 net.cpp:148] Top shape: 24 256 7 7 (301056)
I0403 17:44:51.302862 14833 net.cpp:156] Memory required for data: 1293329952
I0403 17:44:51.302880 14833 layer_factory.hpp:77] Creating layer inception_5a/relu_1x1
I0403 17:44:51.302899 14833 net.cpp:91] Creating Layer inception_5a/relu_1x1
I0403 17:44:51.302916 14833 net.cpp:425] inception_5a/relu_1x1 <- inception_5a/1x1
I0403 17:44:51.302932 14833 net.cpp:386] inception_5a/relu_1x1 -> inception_5a/1x1 (in-place)
I0403 17:44:51.303239 14833 net.cpp:141] Setting up inception_5a/relu_1x1
I0403 17:44:51.303266 14833 net.cpp:148] Top shape: 24 256 7 7 (301056)
I0403 17:44:51.303279 14833 net.cpp:156] Memory required for data: 1294534176
I0403 17:44:51.303293 14833 layer_factory.hpp:77] Creating layer inception_5a/3x3_reduce
I0403 17:44:51.303315 14833 net.cpp:91] Creating Layer inception_5a/3x3_reduce
I0403 17:44:51.303331 14833 net.cpp:425] inception_5a/3x3_reduce <- pool4/3x3_s2_pool4/3x3_s2_0_split_1
I0403 17:44:51.303351 14833 net.cpp:399] inception_5a/3x3_reduce -> inception_5a/3x3_reduce
I0403 17:44:51.305732 14833 net.cpp:141] Setting up inception_5a/3x3_reduce
I0403 17:44:51.305763 14833 net.cpp:148] Top shape: 24 160 7 7 (188160)
I0403 17:44:51.305776 14833 net.cpp:156] Memory required for data: 1295286816
I0403 17:44:51.305794 14833 layer_factory.hpp:77] Creating layer inception_5a/relu_3x3_reduce
I0403 17:44:51.305811 14833 net.cpp:91] Creating Layer inception_5a/relu_3x3_reduce
I0403 17:44:51.305827 14833 net.cpp:425] inception_5a/relu_3x3_reduce <- inception_5a/3x3_reduce
I0403 17:44:51.305846 14833 net.cpp:386] inception_5a/relu_3x3_reduce -> inception_5a/3x3_reduce (in-place)
I0403 17:44:51.306036 14833 net.cpp:141] Setting up inception_5a/relu_3x3_reduce
I0403 17:44:51.306061 14833 net.cpp:148] Top shape: 24 160 7 7 (188160)
I0403 17:44:51.306074 14833 net.cpp:156] Memory required for data: 1296039456
I0403 17:44:51.306088 14833 layer_factory.hpp:77] Creating layer inception_5a/3x3
I0403 17:44:51.306112 14833 net.cpp:91] Creating Layer inception_5a/3x3
I0403 17:44:51.306128 14833 net.cpp:425] inception_5a/3x3 <- inception_5a/3x3_reduce
I0403 17:44:51.306149 14833 net.cpp:399] inception_5a/3x3 -> inception_5a/3x3
I0403 17:44:51.311043 14833 net.cpp:141] Setting up inception_5a/3x3
I0403 17:44:51.311072 14833 net.cpp:148] Top shape: 24 320 7 7 (376320)
I0403 17:44:51.311087 14833 net.cpp:156] Memory required for data: 1297544736
I0403 17:44:51.311105 14833 layer_factory.hpp:77] Creating layer inception_5a/relu_3x3
I0403 17:44:51.311126 14833 net.cpp:91] Creating Layer inception_5a/relu_3x3
I0403 17:44:51.311142 14833 net.cpp:425] inception_5a/relu_3x3 <- inception_5a/3x3
I0403 17:44:51.311159 14833 net.cpp:386] inception_5a/relu_3x3 -> inception_5a/3x3 (in-place)
I0403 17:44:51.311449 14833 net.cpp:141] Setting up inception_5a/relu_3x3
I0403 17:44:51.311475 14833 net.cpp:148] Top shape: 24 320 7 7 (376320)
I0403 17:44:51.311488 14833 net.cpp:156] Memory required for data: 1299050016
I0403 17:44:51.311503 14833 layer_factory.hpp:77] Creating layer inception_5a/5x5_reduce
I0403 17:44:51.311525 14833 net.cpp:91] Creating Layer inception_5a/5x5_reduce
I0403 17:44:51.311542 14833 net.cpp:425] inception_5a/5x5_reduce <- pool4/3x3_s2_pool4/3x3_s2_0_split_2
I0403 17:44:51.311563 14833 net.cpp:399] inception_5a/5x5_reduce -> inception_5a/5x5_reduce
I0403 17:44:51.312697 14833 net.cpp:141] Setting up inception_5a/5x5_reduce
I0403 17:44:51.312726 14833 net.cpp:148] Top shape: 24 32 7 7 (37632)
I0403 17:44:51.312742 14833 net.cpp:156] Memory required for data: 1299200544
I0403 17:44:51.312760 14833 layer_factory.hpp:77] Creating layer inception_5a/relu_5x5_reduce
I0403 17:44:51.312777 14833 net.cpp:91] Creating Layer inception_5a/relu_5x5_reduce
I0403 17:44:51.312793 14833 net.cpp:425] inception_5a/relu_5x5_reduce <- inception_5a/5x5_reduce
I0403 17:44:51.312809 14833 net.cpp:386] inception_5a/relu_5x5_reduce -> inception_5a/5x5_reduce (in-place)
I0403 17:44:51.313104 14833 net.cpp:141] Setting up inception_5a/relu_5x5_reduce
I0403 17:44:51.313129 14833 net.cpp:148] Top shape: 24 32 7 7 (37632)
I0403 17:44:51.313143 14833 net.cpp:156] Memory required for data: 1299351072
I0403 17:44:51.313158 14833 layer_factory.hpp:77] Creating layer inception_5a/5x5
I0403 17:44:51.313180 14833 net.cpp:91] Creating Layer inception_5a/5x5
I0403 17:44:51.313196 14833 net.cpp:425] inception_5a/5x5 <- inception_5a/5x5_reduce
I0403 17:44:51.313217 14833 net.cpp:399] inception_5a/5x5 -> inception_5a/5x5
I0403 17:44:51.314894 14833 net.cpp:141] Setting up inception_5a/5x5
I0403 17:44:51.314934 14833 net.cpp:148] Top shape: 24 128 7 7 (150528)
I0403 17:44:51.314949 14833 net.cpp:156] Memory required for data: 1299953184
I0403 17:44:51.314967 14833 layer_factory.hpp:77] Creating layer inception_5a/relu_5x5
I0403 17:44:51.314991 14833 net.cpp:91] Creating Layer inception_5a/relu_5x5
I0403 17:44:51.315008 14833 net.cpp:425] inception_5a/relu_5x5 <- inception_5a/5x5
I0403 17:44:51.315026 14833 net.cpp:386] inception_5a/relu_5x5 -> inception_5a/5x5 (in-place)
I0403 17:44:51.315224 14833 net.cpp:141] Setting up inception_5a/relu_5x5
I0403 17:44:51.315249 14833 net.cpp:148] Top shape: 24 128 7 7 (150528)
I0403 17:44:51.315263 14833 net.cpp:156] Memory required for data: 1300555296
I0403 17:44:51.315277 14833 layer_factory.hpp:77] Creating layer inception_5a/pool
I0403 17:44:51.315296 14833 net.cpp:91] Creating Layer inception_5a/pool
I0403 17:44:51.315313 14833 net.cpp:425] inception_5a/pool <- pool4/3x3_s2_pool4/3x3_s2_0_split_3
I0403 17:44:51.315331 14833 net.cpp:399] inception_5a/pool -> inception_5a/pool
I0403 17:44:51.315403 14833 net.cpp:141] Setting up inception_5a/pool
I0403 17:44:51.315426 14833 net.cpp:148] Top shape: 24 832 7 7 (978432)
I0403 17:44:51.315441 14833 net.cpp:156] Memory required for data: 1304469024
I0403 17:44:51.315455 14833 layer_factory.hpp:77] Creating layer inception_5a/pool_proj
I0403 17:44:51.315477 14833 net.cpp:91] Creating Layer inception_5a/pool_proj
I0403 17:44:51.315506 14833 net.cpp:425] inception_5a/pool_proj <- inception_5a/pool
I0403 17:44:51.315527 14833 net.cpp:399] inception_5a/pool_proj -> inception_5a/pool_proj
I0403 17:44:51.317755 14833 net.cpp:141] Setting up inception_5a/pool_proj
I0403 17:44:51.317783 14833 net.cpp:148] Top shape: 24 128 7 7 (150528)
I0403 17:44:51.317798 14833 net.cpp:156] Memory required for data: 1305071136
I0403 17:44:51.317816 14833 layer_factory.hpp:77] Creating layer inception_5a/relu_pool_proj
I0403 17:44:51.317833 14833 net.cpp:91] Creating Layer inception_5a/relu_pool_proj
I0403 17:44:51.317849 14833 net.cpp:425] inception_5a/relu_pool_proj <- inception_5a/pool_proj
I0403 17:44:51.317868 14833 net.cpp:386] inception_5a/relu_pool_proj -> inception_5a/pool_proj (in-place)
I0403 17:44:51.318164 14833 net.cpp:141] Setting up inception_5a/relu_pool_proj
I0403 17:44:51.318189 14833 net.cpp:148] Top shape: 24 128 7 7 (150528)
I0403 17:44:51.318204 14833 net.cpp:156] Memory required for data: 1305673248
I0403 17:44:51.318218 14833 layer_factory.hpp:77] Creating layer inception_5a/output
I0403 17:44:51.318235 14833 net.cpp:91] Creating Layer inception_5a/output
I0403 17:44:51.318250 14833 net.cpp:425] inception_5a/output <- inception_5a/1x1
I0403 17:44:51.318266 14833 net.cpp:425] inception_5a/output <- inception_5a/3x3
I0403 17:44:51.318281 14833 net.cpp:425] inception_5a/output <- inception_5a/5x5
I0403 17:44:51.318296 14833 net.cpp:425] inception_5a/output <- inception_5a/pool_proj
I0403 17:44:51.318315 14833 net.cpp:399] inception_5a/output -> inception_5a/output
I0403 17:44:51.318363 14833 net.cpp:141] Setting up inception_5a/output
I0403 17:44:51.318388 14833 net.cpp:148] Top shape: 24 832 7 7 (978432)
I0403 17:44:51.318403 14833 net.cpp:156] Memory required for data: 1309586976
I0403 17:44:51.318418 14833 layer_factory.hpp:77] Creating layer inception_5a/output_inception_5a/output_0_split
I0403 17:44:51.318434 14833 net.cpp:91] Creating Layer inception_5a/output_inception_5a/output_0_split
I0403 17:44:51.318449 14833 net.cpp:425] inception_5a/output_inception_5a/output_0_split <- inception_5a/output
I0403 17:44:51.318465 14833 net.cpp:399] inception_5a/output_inception_5a/output_0_split -> inception_5a/output_inception_5a/output_0_split_0
I0403 17:44:51.318490 14833 net.cpp:399] inception_5a/output_inception_5a/output_0_split -> inception_5a/output_inception_5a/output_0_split_1
I0403 17:44:51.318508 14833 net.cpp:399] inception_5a/output_inception_5a/output_0_split -> inception_5a/output_inception_5a/output_0_split_2
I0403 17:44:51.318528 14833 net.cpp:399] inception_5a/output_inception_5a/output_0_split -> inception_5a/output_inception_5a/output_0_split_3
I0403 17:44:51.318637 14833 net.cpp:141] Setting up inception_5a/output_inception_5a/output_0_split
I0403 17:44:51.318660 14833 net.cpp:148] Top shape: 24 832 7 7 (978432)
I0403 17:44:51.318676 14833 net.cpp:148] Top shape: 24 832 7 7 (978432)
I0403 17:44:51.318691 14833 net.cpp:148] Top shape: 24 832 7 7 (978432)
I0403 17:44:51.318706 14833 net.cpp:148] Top shape: 24 832 7 7 (978432)
I0403 17:44:51.318718 14833 net.cpp:156] Memory required for data: 1325241888
I0403 17:44:51.318732 14833 layer_factory.hpp:77] Creating layer inception_5b/1x1
I0403 17:44:51.318754 14833 net.cpp:91] Creating Layer inception_5b/1x1
I0403 17:44:51.318770 14833 net.cpp:425] inception_5b/1x1 <- inception_5a/output_inception_5a/output_0_split_0
I0403 17:44:51.318791 14833 net.cpp:399] inception_5b/1x1 -> inception_5b/1x1
I0403 17:44:51.322458 14833 net.cpp:141] Setting up inception_5b/1x1
I0403 17:44:51.322487 14833 net.cpp:148] Top shape: 24 384 7 7 (451584)
I0403 17:44:51.322504 14833 net.cpp:156] Memory required for data: 1327048224
I0403 17:44:51.322521 14833 layer_factory.hpp:77] Creating layer inception_5b/relu_1x1
I0403 17:44:51.322538 14833 net.cpp:91] Creating Layer inception_5b/relu_1x1
I0403 17:44:51.322554 14833 net.cpp:425] inception_5b/relu_1x1 <- inception_5b/1x1
I0403 17:44:51.322574 14833 net.cpp:386] inception_5b/relu_1x1 -> inception_5b/1x1 (in-place)
I0403 17:44:51.322870 14833 net.cpp:141] Setting up inception_5b/relu_1x1
I0403 17:44:51.322896 14833 net.cpp:148] Top shape: 24 384 7 7 (451584)
I0403 17:44:51.322911 14833 net.cpp:156] Memory required for data: 1328854560
I0403 17:44:51.322927 14833 layer_factory.hpp:77] Creating layer inception_5b/3x3_reduce
I0403 17:44:51.322948 14833 net.cpp:91] Creating Layer inception_5b/3x3_reduce
I0403 17:44:51.322967 14833 net.cpp:425] inception_5b/3x3_reduce <- inception_5a/output_inception_5a/output_0_split_1
I0403 17:44:51.323000 14833 net.cpp:399] inception_5b/3x3_reduce -> inception_5b/3x3_reduce
I0403 17:44:51.325654 14833 net.cpp:141] Setting up inception_5b/3x3_reduce
I0403 17:44:51.325685 14833 net.cpp:148] Top shape: 24 192 7 7 (225792)
I0403 17:44:51.325701 14833 net.cpp:156] Memory required for data: 1329757728
I0403 17:44:51.325719 14833 layer_factory.hpp:77] Creating layer inception_5b/relu_3x3_reduce
I0403 17:44:51.325737 14833 net.cpp:91] Creating Layer inception_5b/relu_3x3_reduce
I0403 17:44:51.325753 14833 net.cpp:425] inception_5b/relu_3x3_reduce <- inception_5b/3x3_reduce
I0403 17:44:51.325773 14833 net.cpp:386] inception_5b/relu_3x3_reduce -> inception_5b/3x3_reduce (in-place)
I0403 17:44:51.325958 14833 net.cpp:141] Setting up inception_5b/relu_3x3_reduce
I0403 17:44:51.325985 14833 net.cpp:148] Top shape: 24 192 7 7 (225792)
I0403 17:44:51.326001 14833 net.cpp:156] Memory required for data: 1330660896
I0403 17:44:51.326015 14833 layer_factory.hpp:77] Creating layer inception_5b/3x3
I0403 17:44:51.326036 14833 net.cpp:91] Creating Layer inception_5b/3x3
I0403 17:44:51.326053 14833 net.cpp:425] inception_5b/3x3 <- inception_5b/3x3_reduce
I0403 17:44:51.326074 14833 net.cpp:399] inception_5b/3x3 -> inception_5b/3x3
I0403 17:44:51.332622 14833 net.cpp:141] Setting up inception_5b/3x3
I0403 17:44:51.332651 14833 net.cpp:148] Top shape: 24 384 7 7 (451584)
I0403 17:44:51.332669 14833 net.cpp:156] Memory required for data: 1332467232
I0403 17:44:51.332687 14833 layer_factory.hpp:77] Creating layer inception_5b/relu_3x3
I0403 17:44:51.332705 14833 net.cpp:91] Creating Layer inception_5b/relu_3x3
I0403 17:44:51.332751 14833 net.cpp:425] inception_5b/relu_3x3 <- inception_5b/3x3
I0403 17:44:51.332770 14833 net.cpp:386] inception_5b/relu_3x3 -> inception_5b/3x3 (in-place)
I0403 17:44:51.333083 14833 net.cpp:141] Setting up inception_5b/relu_3x3
I0403 17:44:51.333109 14833 net.cpp:148] Top shape: 24 384 7 7 (451584)
I0403 17:44:51.333124 14833 net.cpp:156] Memory required for data: 1334273568
I0403 17:44:51.333138 14833 layer_factory.hpp:77] Creating layer inception_5b/5x5_reduce
I0403 17:44:51.333175 14833 net.cpp:91] Creating Layer inception_5b/5x5_reduce
I0403 17:44:51.333194 14833 net.cpp:425] inception_5b/5x5_reduce <- inception_5a/output_inception_5a/output_0_split_2
I0403 17:44:51.333216 14833 net.cpp:399] inception_5b/5x5_reduce -> inception_5b/5x5_reduce
I0403 17:44:51.334458 14833 net.cpp:141] Setting up inception_5b/5x5_reduce
I0403 17:44:51.334486 14833 net.cpp:148] Top shape: 24 48 7 7 (56448)
I0403 17:44:51.334501 14833 net.cpp:156] Memory required for data: 1334499360
I0403 17:44:51.334518 14833 layer_factory.hpp:77] Creating layer inception_5b/relu_5x5_reduce
I0403 17:44:51.334537 14833 net.cpp:91] Creating Layer inception_5b/relu_5x5_reduce
I0403 17:44:51.334553 14833 net.cpp:425] inception_5b/relu_5x5_reduce <- inception_5b/5x5_reduce
I0403 17:44:51.334571 14833 net.cpp:386] inception_5b/relu_5x5_reduce -> inception_5b/5x5_reduce (in-place)
I0403 17:44:51.334936 14833 net.cpp:141] Setting up inception_5b/relu_5x5_reduce
I0403 17:44:51.334962 14833 net.cpp:148] Top shape: 24 48 7 7 (56448)
I0403 17:44:51.334981 14833 net.cpp:156] Memory required for data: 1334725152
I0403 17:44:51.334996 14833 layer_factory.hpp:77] Creating layer inception_5b/5x5
I0403 17:44:51.335016 14833 net.cpp:91] Creating Layer inception_5b/5x5
I0403 17:44:51.335033 14833 net.cpp:425] inception_5b/5x5 <- inception_5b/5x5_reduce
I0403 17:44:51.335052 14833 net.cpp:399] inception_5b/5x5 -> inception_5b/5x5
I0403 17:44:51.337051 14833 net.cpp:141] Setting up inception_5b/5x5
I0403 17:44:51.337079 14833 net.cpp:148] Top shape: 24 128 7 7 (150528)
I0403 17:44:51.337093 14833 net.cpp:156] Memory required for data: 1335327264
I0403 17:44:51.337112 14833 layer_factory.hpp:77] Creating layer inception_5b/relu_5x5
I0403 17:44:51.337131 14833 net.cpp:91] Creating Layer inception_5b/relu_5x5
I0403 17:44:51.337148 14833 net.cpp:425] inception_5b/relu_5x5 <- inception_5b/5x5
I0403 17:44:51.337167 14833 net.cpp:386] inception_5b/relu_5x5 -> inception_5b/5x5 (in-place)
I0403 17:44:51.337357 14833 net.cpp:141] Setting up inception_5b/relu_5x5
I0403 17:44:51.337381 14833 net.cpp:148] Top shape: 24 128 7 7 (150528)
I0403 17:44:51.337395 14833 net.cpp:156] Memory required for data: 1335929376
I0403 17:44:51.337410 14833 layer_factory.hpp:77] Creating layer inception_5b/pool
I0403 17:44:51.337430 14833 net.cpp:91] Creating Layer inception_5b/pool
I0403 17:44:51.337447 14833 net.cpp:425] inception_5b/pool <- inception_5a/output_inception_5a/output_0_split_3
I0403 17:44:51.337465 14833 net.cpp:399] inception_5b/pool -> inception_5b/pool
I0403 17:44:51.337535 14833 net.cpp:141] Setting up inception_5b/pool
I0403 17:44:51.337558 14833 net.cpp:148] Top shape: 24 832 7 7 (978432)
I0403 17:44:51.337573 14833 net.cpp:156] Memory required for data: 1339843104
I0403 17:44:51.337587 14833 layer_factory.hpp:77] Creating layer inception_5b/pool_proj
I0403 17:44:51.337609 14833 net.cpp:91] Creating Layer inception_5b/pool_proj
I0403 17:44:51.337626 14833 net.cpp:425] inception_5b/pool_proj <- inception_5b/pool
I0403 17:44:51.337646 14833 net.cpp:399] inception_5b/pool_proj -> inception_5b/pool_proj
I0403 17:44:51.339910 14833 net.cpp:141] Setting up inception_5b/pool_proj
I0403 17:44:51.339939 14833 net.cpp:148] Top shape: 24 128 7 7 (150528)
I0403 17:44:51.339954 14833 net.cpp:156] Memory required for data: 1340445216
I0403 17:44:51.339972 14833 layer_factory.hpp:77] Creating layer inception_5b/relu_pool_proj
I0403 17:44:51.339993 14833 net.cpp:91] Creating Layer inception_5b/relu_pool_proj
I0403 17:44:51.340010 14833 net.cpp:425] inception_5b/relu_pool_proj <- inception_5b/pool_proj
I0403 17:44:51.340029 14833 net.cpp:386] inception_5b/relu_pool_proj -> inception_5b/pool_proj (in-place)
I0403 17:44:51.340339 14833 net.cpp:141] Setting up inception_5b/relu_pool_proj
I0403 17:44:51.340365 14833 net.cpp:148] Top shape: 24 128 7 7 (150528)
I0403 17:44:51.340380 14833 net.cpp:156] Memory required for data: 1341047328
I0403 17:44:51.340396 14833 layer_factory.hpp:77] Creating layer inception_5b/output
I0403 17:44:51.340414 14833 net.cpp:91] Creating Layer inception_5b/output
I0403 17:44:51.340452 14833 net.cpp:425] inception_5b/output <- inception_5b/1x1
I0403 17:44:51.340471 14833 net.cpp:425] inception_5b/output <- inception_5b/3x3
I0403 17:44:51.340487 14833 net.cpp:425] inception_5b/output <- inception_5b/5x5
I0403 17:44:51.340503 14833 net.cpp:425] inception_5b/output <- inception_5b/pool_proj
I0403 17:44:51.340523 14833 net.cpp:399] inception_5b/output -> inception_5b/output
I0403 17:44:51.340574 14833 net.cpp:141] Setting up inception_5b/output
I0403 17:44:51.340600 14833 net.cpp:148] Top shape: 24 1024 7 7 (1204224)
I0403 17:44:51.340615 14833 net.cpp:156] Memory required for data: 1345864224
I0403 17:44:51.340628 14833 layer_factory.hpp:77] Creating layer pool5/7x7_s1
I0403 17:44:51.340646 14833 net.cpp:91] Creating Layer pool5/7x7_s1
I0403 17:44:51.340662 14833 net.cpp:425] pool5/7x7_s1 <- inception_5b/output
I0403 17:44:51.340682 14833 net.cpp:399] pool5/7x7_s1 -> pool5/7x7_s1
I0403 17:44:51.340908 14833 net.cpp:141] Setting up pool5/7x7_s1
I0403 17:44:51.340932 14833 net.cpp:148] Top shape: 24 1024 1 1 (24576)
I0403 17:44:51.340946 14833 net.cpp:156] Memory required for data: 1345962528
I0403 17:44:51.340960 14833 layer_factory.hpp:77] Creating layer pool5/drop_7x7_s1
I0403 17:44:51.340976 14833 net.cpp:91] Creating Layer pool5/drop_7x7_s1
I0403 17:44:51.340997 14833 net.cpp:425] pool5/drop_7x7_s1 <- pool5/7x7_s1
I0403 17:44:51.341017 14833 net.cpp:386] pool5/drop_7x7_s1 -> pool5/7x7_s1 (in-place)
I0403 17:44:51.341068 14833 net.cpp:141] Setting up pool5/drop_7x7_s1
I0403 17:44:51.341089 14833 net.cpp:148] Top shape: 24 1024 1 1 (24576)
I0403 17:44:51.341104 14833 net.cpp:156] Memory required for data: 1346060832
I0403 17:44:51.341117 14833 layer_factory.hpp:77] Creating layer loss3/classifier_plantvillage
I0403 17:44:51.341135 14833 net.cpp:91] Creating Layer loss3/classifier_plantvillage
I0403 17:44:51.341150 14833 net.cpp:425] loss3/classifier_plantvillage <- pool5/7x7_s1
I0403 17:44:51.341171 14833 net.cpp:399] loss3/classifier_plantvillage -> loss3/classifier_plantvillage
I0403 17:44:51.341584 14833 net.cpp:141] Setting up loss3/classifier_plantvillage
I0403 17:44:51.341609 14833 net.cpp:148] Top shape: 24 38 (912)
I0403 17:44:51.341622 14833 net.cpp:156] Memory required for data: 1346064480
I0403 17:44:51.341640 14833 layer_factory.hpp:77] Creating layer loss3/classifier_plantvillage_loss3/classifier_plantvillage_0_split
I0403 17:44:51.341660 14833 net.cpp:91] Creating Layer loss3/classifier_plantvillage_loss3/classifier_plantvillage_0_split
I0403 17:44:51.341677 14833 net.cpp:425] loss3/classifier_plantvillage_loss3/classifier_plantvillage_0_split <- loss3/classifier_plantvillage
I0403 17:44:51.341694 14833 net.cpp:399] loss3/classifier_plantvillage_loss3/classifier_plantvillage_0_split -> loss3/classifier_plantvillage_loss3/classifier_plantvillage_0_split_0
I0403 17:44:51.341717 14833 net.cpp:399] loss3/classifier_plantvillage_loss3/classifier_plantvillage_0_split -> loss3/classifier_plantvillage_loss3/classifier_plantvillage_0_split_1
I0403 17:44:51.341735 14833 net.cpp:399] loss3/classifier_plantvillage_loss3/classifier_plantvillage_0_split -> loss3/classifier_plantvillage_loss3/classifier_plantvillage_0_split_2
I0403 17:44:51.341754 14833 net.cpp:399] loss3/classifier_plantvillage_loss3/classifier_plantvillage_0_split -> loss3/classifier_plantvillage_loss3/classifier_plantvillage_0_split_3
I0403 17:44:51.341851 14833 net.cpp:141] Setting up loss3/classifier_plantvillage_loss3/classifier_plantvillage_0_split
I0403 17:44:51.341873 14833 net.cpp:148] Top shape: 24 38 (912)
I0403 17:44:51.341888 14833 net.cpp:148] Top shape: 24 38 (912)
I0403 17:44:51.341903 14833 net.cpp:148] Top shape: 24 38 (912)
I0403 17:44:51.341918 14833 net.cpp:148] Top shape: 24 38 (912)
I0403 17:44:51.341933 14833 net.cpp:156] Memory required for data: 1346079072
I0403 17:44:51.341946 14833 layer_factory.hpp:77] Creating layer loss1/loss
I0403 17:44:51.341966 14833 net.cpp:91] Creating Layer loss1/loss
I0403 17:44:51.341986 14833 net.cpp:425] loss1/loss <- loss1/classifier_plantvillage_loss1/classifier_plantvillage_0_split_0
I0403 17:44:51.342016 14833 net.cpp:425] loss1/loss <- label_data_1_split_0
…
