…
I0403 17:43:26.262867 14748 net.cpp:313] The NetState phase (1) differed from the phase (0) specified by a rule in layer data
I0403 17:43:26.264118 14748 net.cpp:49] Initializing net from parameters: 
state {
  phase: TEST
}
layer {
  name: "data"
  type: "Data"
  top: "data"
  top: "label"
  include {
    phase: TEST
  }
  transform_param {
    mirror: false
    crop_size: 224
    mean_file: "/home/mohanty/data/final_dataset/lmdb/grayscale-60-40/mean.binaryproto"
  }
  data_param {
    source: "/home/mohanty/data/final_dataset/lmdb/grayscale-60-40/test_db"
    batch_size: 24
    backend: LMDB
  }
}
layer {
  name: "conv1/7x7_s2"
  type: "Convolution"
  bottom: "data"
  top: "conv1/7x7_s2"
  param {
    lr_mult: 1
    decay_mult: 1
  }
  param {
    lr_mult: 2
    decay_mult: 0
  }
  convolution_param {
    num_output: 64
    pad: 3
    kernel_size: 7
    stride: 2
    weight_filler {
      type: "xavier"
      std: 0.1
    }
    bias_filler {
      type: "constant"
      value: 0.2
    }
  }
}
layer {
  name: "conv1/relu_7x7"
  type: "ReLU"
  bottom: "conv1/7x7_s2"
  top: "conv1/7x7_s2"
}
layer {
  name: "pool1/3x3_s2"
  type: "Pooling"
  bottom: "conv1/7x7_s2"
  top: "pool1/3x3_s2"
  pooling_param {
    pool: MAX
    kernel_size: 3
    stride: 2
  }
}
layer {
  name: "pool1/norm1"
  type: "LRN"
  bottom: "pool1/3x3_s2"
  top: "pool1/norm1"
  lrn_param {
    local_size: 5
    alpha: 0.0001
    beta: 0.75
  }
}
layer {
  name: "conv2/3x3_reduce"
  type: "Convolution"
  bottom: "pool1/norm1"
  top: "conv2/3x3_reduce"
  param {
    lr_mult: 1
    decay_mult: 1
  }
  param {
    lr_mult: 2
    decay_mult: 0
  }
  convolution_param {
    num_output: 64
    kernel_size: 1
    weight_filler {
      type: "xavier"
      std: 0.1
    }
    bias_filler {
      type: "constant"
      value: 0.2
    }
  }
}
layer {
  name: "conv2/relu_3x3_reduce"
  type: "ReLU"
  bottom: "conv2/3x3_reduce"
  top: "conv2/3x3_reduce"
}
layer {
  name: "conv2/3x3"
  type: "Convolution"
  bottom: "conv2/3x3_reduce"
  top: "conv2/3x3"
  param {
    lr_mult: 1
    decay_mult: 1
  }
  param {
    lr_mult: 2
    decay_mult: 0
  }
  convolution_param {
    num_output: 192
    pad: 1
    kernel_size: 3
    weight_filler {
      type: "xavier"
      std: 0.03
    }
    bias_filler {
      type: "constant"
      value: 0.2
    }
  }
}
layer {
  name: "conv2/relu_3x3"
  type: "ReLU"
  bottom: "conv2/3x3"
  top: "conv2/3x3"
}
layer {
  name: "conv2/norm2"
  type: "LRN"
  bottom: "conv2/3x3"
  top: "conv2/norm2"
  lrn_param {
    local_size: 5
    alpha: 0.0001
    beta: 0.75
  }
}
layer {
  name: "pool2/3x3_s2"
  type: "Pooling"
  bottom: "conv2/norm2"
  top: "pool2/3x3_s2"
  pooling_param {
    pool: MAX
    kernel_size: 3
    stride: 2
  }
}
layer {
  name: "inception_3a/1x1"
  type: "Convolution"
  bottom: "pool2/3x3_s2"
  top: "inception_3a/1x1"
  param {
    lr_mult: 1
    decay_mult: 1
  }
  param {
    lr_mult: 2
    decay_mult: 0
  }
  convolution_param {
    num_output: 64
    kernel_size: 1
    weight_filler {
      type: "xavier"
      std: 0.03
    }
    bias_filler {
      type: "constant"
      value: 0.2
    }
  }
}
layer {
  name: "inception_3a/relu_1x1"
  type: "ReLU"
  bottom: "inception_3a/1x1"
  top: "inception_3a/1x1"
}
layer {
  name: "inception_3a/3x3_reduce"
  type: "Convolution"
  bottom: "pool2/3x3_s2"
  top: "inception_3a/3x3_reduce"
  param {
    lr_mult: 1
    decay_mult: 1
  }
  param {
    lr_mult: 2
    decay_mult: 0
  }
  convolution_param {
    num_output: 96
    kernel_size: 1
    weight_filler {
      type: "xavier"
      std: 0.09
    }
    bias_filler {
      type: "constant"
      value: 0.2
    }
  }
}
layer {
  name: "inception_3a/relu_3x3_reduce"
  type: "ReLU"
  bottom: "inception_3a/3x3_reduce"
  top: "inception_3a/3x3_reduce"
}
layer {
  name: "inception_3a/3x3"
  type: "Convolution"
  bottom: "inception_3a/3x3_reduce"
  top: "inception_3a/3x3"
  param {
    lr_mult: 1
    decay_mult: 1
  }
  param {
    lr_mult: 2
    decay_mult: 0
  }
  convolution_param {
    num_output: 128
    pad: 1
    kernel_size: 3
    weight_filler {
      type: "xavier"
      std: 0.03
    }
    bias_filler {
      type: "constant"
      value: 0.2
    }
  }
}
layer {
  name: "inception_3a/relu_3x3"
  type: "ReLU"
  bottom: "inception_3a/3x3"
  top: "inception_3a/3x3"
}
layer {
  name: "inception_3a/5x5_reduce"
  type: "Convolution"
  bottom: "pool2/3x3_s2"
  top: "inception_3a/5x5_reduce"
  param {
    lr_mult: 1
    decay_mult: 1
  }
  param {
    lr_mult: 2
    decay_mult: 0
  }
  convolution_param {
    num_output: 16
    kernel_size: 1
    weight_filler {
      type: "xavier"
      std: 0.2
    }
    bias_filler {
      type: "constant"
      value: 0.2
    }
  }
}
layer {
  name: "inception_3a/relu_5x5_reduce"
  type: "ReLU"
  bottom: "inception_3a/5x5_reduce"
  top: "inception_3a/5x5_reduce"
}
layer {
  name: "inception_3a/5x5"
  type: "Convolution"
  bottom: "inception_3a/5x5_reduce"
  top: "inception_3a/5x5"
  param {
    lr_mult: 1
    decay_mult: 1
  }
  param {
    lr_mult: 2
    decay_mult: 0
  }
  convolution_param {
    num_output: 32
    pad: 2
    kernel_size: 5
    weight_filler {
      type: "xavier"
      std: 0.03
    }
    bias_filler {
      type: "constant"
      value: 0.2
    }
  }
}
layer {
  name: "inception_3a/relu_5x5"
  type: "ReLU"
  bottom: "inception_3a/5x5"
  top: "inception_3a/5x5"
}
layer {
  name: "inception_3a/pool"
  type: "Pooling"
  bottom: "pool2/3x3_s2"
  top: "inception_3a/pool"
  pooling_param {
    pool: MAX
    kernel_size: 3
    stride: 1
    pad: 1
  }
}
layer {
  name: "inception_3a/pool_proj"
  type: "Convolution"
  bottom: "inception_3a/pool"
  top: "inception_3a/pool_proj"
  param {
    lr_mult: 1
    decay_mult: 1
  }
  param {
    lr_mult: 2
    decay_mult: 0
  }
  convolution_param {
    num_output: 32
    kernel_size: 1
    weight_filler {
      type: "xavier"
      std: 0.1
    }
    bias_filler {
      type: "constant"
      value: 0.2
    }
  }
}
layer {
  name: "inception_3a/relu_pool_proj"
  type: "ReLU"
  bottom: "inception_3a/pool_proj"
  top: "inception_3a/pool_proj"
}
layer {
  name: "inception_3a/output"
  type: "Concat"
  bottom: "inception_3a/1x1"
  bottom: "inception_3a/3x3"
  bottom: "inception_3a/5x5"
  bottom: "inception_3a/pool_proj"
  top: "inception_3a/output"
}
layer {
  name: "inception_3b/1x1"
  type: "Convolution"
  bottom: "inception_3a/output"
  top: "inception_3b/1x1"
  param {
    lr_mult: 1
    decay_mult: 1
  }
  param {
    lr_mult: 2
    decay_mult: 0
  }
  convolution_param {
    num_output: 128
    kernel_size: 1
    weight_filler {
      type: "xavier"
      std: 0.03
    }
    bias_filler {
      type: "constant"
      value: 0.2
    }
  }
}
layer {
  name: "inception_3b/relu_1x1"
  type: "ReLU"
  bottom: "inception_3b/1x1"
  top: "inception_3b/1x1"
}
layer {
  name: "inception_3b/3x3_reduce"
  type: "Convolution"
  bottom: "inception_3a/output"
  top: "inception_3b/3x3_reduce"
  param {
    lr_mult: 1
    decay_mult: 1
  }
  param {
    lr_mult: 2
    decay_mult: 0
  }
  convolution_param {
    num_output: 128
    kernel_size: 1
    weight_filler {
      type: "xavier"
      std: 0.09
    }
    bias_filler {
      type: "constant"
      value: 0.2
    }
  }
}
layer {
  name: "inception_3b/relu_3x3_reduce"
  type: "ReLU"
  bottom: "inception_3b/3x3_reduce"
  top: "inception_3b/3x3_reduce"
}
layer {
  name: "inception_3b/3x3"
  type: "Convolution"
  bottom: "inception_3b/3x3_reduce"
  top: "inception_3b/3x3"
  param {
    lr_mult: 1
    decay_mult: 1
  }
  param {
    lr_mult: 2
    decay_mult: 0
  }
  convolution_param {
    num_output: 192
    pad: 1
    kernel_size: 3
    weight_filler {
      type: "xavier"
      std: 0.03
    }
    bias_filler {
      type: "constant"
      value: 0.2
    }
  }
}
layer {
  name: "inception_3b/relu_3x3"
  type: "ReLU"
  bottom: "inception_3b/3x3"
  top: "inception_3b/3x3"
}
layer {
  name: "inception_3b/5x5_reduce"
  type: "Convolution"
  bottom: "inception_3a/output"
  top: "inception_3b/5x5_reduce"
  param {
    lr_mult: 1
    decay_mult: 1
  }
  param {
    lr_mult: 2
    decay_mult: 0
  }
  convolution_param {
    num_output: 32
    kernel_size: 1
    weight_filler {
      type: "xavier"
      std: 0.2
    }
    bias_filler {
      type: "constant"
      value: 0.2
    }
  }
}
layer {
  name: "inception_3b/relu_5x5_reduce"
  type: "ReLU"
  bottom: "inception_3b/5x5_reduce"
  top: "inception_3b/5x5_reduce"
}
layer {
  name: "inception_3b/5x5"
  type: "Convolution"
  bottom: "inception_3b/5x5_reduce"
  top: "inception_3b/5x5"
  param {
    lr_mult: 1
    decay_mult: 1
  }
  param {
    lr_mult: 2
    decay_mult: 0
  }
  convolution_param {
    num_output: 96
    pad: 2
    kernel_size: 5
    weight_filler {
      type: "xavier"
      std: 0.03
    }
    bias_filler {
      type: "constant"
      value: 0.2
    }
  }
}
layer {
  name: "inception_3b/relu_5x5"
  type: "ReLU"
  bottom: "inception_3b/5x5"
  top: "inception_3b/5x5"
}
layer {
  name: "inception_3b/pool"
  type: "Pooling"
  bottom: "inception_3a/output"
  top: "inception_3b/pool"
  pooling_param {
    pool: MAX
    kernel_size: 3
    stride: 1
    pad: 1
  }
}
layer {
  name: "inception_3b/pool_proj"
  type: "Convolution"
  bottom: "inception_3b/pool"
  top: "inception_3b/pool_proj"
  param {
    lr_mult: 1
    decay_mult: 1
  }
  param {
    lr_mult: 2
    decay_mult: 0
  }
  convolution_param {
    num_output: 64
    kernel_size: 1
    weight_filler {
      type: "xavier"
      std: 0.1
    }
    bias_filler {
      type: "constant"
      value: 0.2
    }
  }
}
layer {
  name: "inception_3b/relu_pool_proj"
  type: "ReLU"
  bottom: "inception_3b/pool_proj"
  top: "inception_3b/pool_proj"
}
layer {
  name: "inception_3b/output"
  type: "Concat"
  bottom: "inception_3b/1x1"
  bottom: "inception_3b/3x3"
  bottom: "inception_3b/5x5"
  bottom: "inception_3b/pool_proj"
  top: "inception_3b/output"
}
layer {
  name: "pool3/3x3_s2"
  type: "Pooling"
  bottom: "inception_3b/output"
  top: "pool3/3x3_s2"
  pooling_param {
    pool: MAX
    kernel_size: 3
    stride: 2
  }
}
layer {
  name: "inception_4a/1x1"
  type: "Convolution"
  bottom: "pool3/3x3_s2"
  top: "inception_4a/1x1"
  param {
    lr_mult: 1
    decay_mult: 1
  }
  param {
    lr_mult: 2
    decay_mult: 0
  }
  convolution_param {
    num_output: 192
    kernel_size: 1
    weight_filler {
      type: "xavier"
      std: 0.03
    }
    bias_filler {
      type: "constant"
      value: 0.2
    }
  }
}
layer {
  name: "inception_4a/relu_1x1"
  type: "ReLU"
  bottom: "inception_4a/1x1"
  top: "inception_4a/1x1"
}
layer {
  name: "inception_4a/3x3_reduce"
  type: "Convolution"
  bottom: "pool3/3x3_s2"
  top: "inception_4a/3x3_reduce"
  param {
    lr_mult: 1
    decay_mult: 1
  }
  param {
    lr_mult: 2
    decay_mult: 0
  }
  convolution_param {
    num_output: 96
    kernel_size: 1
    weight_filler {
      type: "xavier"
      std: 0.09
    }
    bias_filler {
      type: "constant"
      value: 0.2
    }
  }
}
layer {
  name: "inception_4a/relu_3x3_reduce"
  type: "ReLU"
  bottom: "inception_4a/3x3_reduce"
  top: "inception_4a/3x3_reduce"
}
layer {
  name: "inception_4a/3x3"
  type: "Convolution"
  bottom: "inception_4a/3x3_reduce"
  top: "inception_4a/3x3"
  param {
    lr_mult: 1
    decay_mult: 1
  }
  param {
    lr_mult: 2
    decay_mult: 0
  }
  convolution_param {
    num_output: 208
    pad: 1
    kernel_size: 3
    weight_filler {
      type: "xavier"
      std: 0.03
    }
    bias_filler {
      type: "constant"
      value: 0.2
    }
  }
}
layer {
  name: "inception_4a/relu_3x3"
  type: "ReLU"
  bottom: "inception_4a/3x3"
  top: "inception_4a/3x3"
}
layer {
  name: "inception_4a/5x5_reduce"
  type: "Convolution"
  bottom: "pool3/3x3_s2"
  top: "inception_4a/5x5_reduce"
  param {
    lr_mult: 1
    decay_mult: 1
  }
  param {
    lr_mult: 2
    decay_mult: 0
  }
  convolution_param {
    num_output: 16
    kernel_size: 1
    weight_filler {
      type: "xavier"
      std: 0.2
    }
    bias_filler {
      type: "constant"
      value: 0.2
    }
  }
}
layer {
  name: "inception_4a/relu_5x5_reduce"
  type: "ReLU"
  bottom: "inception_4a/5x5_reduce"
  top: "inception_4a/5x5_reduce"
}
layer {
  name: "inception_4a/5x5"
  type: "Convolution"
  bottom: "inception_4a/5x5_reduce"
  top: "inception_4a/5x5"
  param {
    lr_mult: 1
    decay_mult: 1
  }
  param {
    lr_mult: 2
    decay_mult: 0
  }
  convolution_param {
    num_output: 48
    pad: 2
    kernel_size: 5
    weight_filler {
      type: "xavier"
      std: 0.03
    }
    bias_filler {
      type: "constant"
      value: 0.2
    }
  }
}
layer {
  name: "inception_4a/relu_5x5"
  type: "ReLU"
  bottom: "inception_4a/5x5"
  top: "inception_4a/5x5"
}
layer {
  name: "inception_4a/pool"
  type: "Pooling"
  bottom: "pool3/3x3_s2"
  top: "inception_4a/pool"
  pooling_param {
    pool: MAX
    kernel_size: 3
    stride: 1
    pad: 1
  }
}
layer {
  name: "inception_4a/pool_proj"
  type: "Convolution"
  bottom: "inception_4a/pool"
  top: "inception_4a/pool_proj"
  param {
    lr_mult: 1
    decay_mult: 1
  }
  param {
    lr_mult: 2
    decay_mult: 0
  }
  convolution_param {
    num_output: 64
    kernel_size: 1
    weight_filler {
      type: "xavier"
      std: 0.1
    }
    bias_filler {
      type: "constant"
      value: 0.2
    }
  }
}
layer {
  name: "inception_4a/relu_pool_proj"
  type: "ReLU"
  bottom: "inception_4a/pool_proj"
  top: "inception_4a/pool_proj"
}
layer {
  name: "inception_4a/output"
  type: "Concat"
  bottom: "inception_4a/1x1"
  bottom: "inception_4a/3x3"
  bottom: "inception_4a/5x5"
  bottom: "inception_4a/pool_proj"
  top: "inception_4a/output"
}
layer {
  name: "loss1/ave_pool"
  type: "Pooling"
  bottom: "inception_4a/output"
  top: "loss1/ave_pool"
  pooling_param {
    pool: AVE
    kernel_size: 5
    stride: 3
  }
}
layer {
  name: "loss1/conv"
  type: "Convolution"
  bottom: "loss1/ave_pool"
  top: "loss1/conv"
  param {
    lr_mult: 1
    decay_mult: 1
  }
  param {
    lr_mult: 2
    decay_mult: 0
  }
  convolution_param {
    num_output: 128
    kernel_size: 1
    weight_filler {
      type: "xavier"
      std: 0.08
    }
    bias_filler {
      type: "constant"
      value: 0.2
    }
  }
}
layer {
  name: "loss1/relu_conv"
  type: "ReLU"
  bottom: "loss1/conv"
  top: "loss1/conv"
}
layer {
  name: "loss1/fc"
  type: "InnerProduct"
  bottom: "loss1/conv"
  top: "loss1/fc"
  param {
    lr_mult: 1
    decay_mult: 1
  }
  param {
    lr_mult: 2
    decay_mult: 0
  }
  inner_product_param {
    num_output: 1024
    weight_filler {
      type: "xavier"
      std: 0.02
    }
    bias_filler {
      type: "constant"
      value: 0.2
    }
  }
}
layer {
  name: "loss1/relu_fc"
  type: "ReLU"
  bottom: "loss1/fc"
  top: "loss1/fc"
}
layer {
  name: "loss1/drop_fc"
  type: "Dropout"
  bottom: "loss1/fc"
  top: "loss1/fc"
  dropout_param {
    dropout_ratio: 0.7
  }
}
layer {
  name: "loss1/classifier_plantvillage"
  type: "InnerProduct"
  bottom: "loss1/fc"
  top: "loss1/classifier_plantvillage"
  param {
    lr_mult: 1
    decay_mult: 1
  }
  param {
    lr_mult: 2
    decay_mult: 0
  }
  inner_product_param {
    num_output: 38
    weight_filler {
      type: "xavier"
      std: 0.0009765625
    }
    bias_filler {
      type: "constant"
      value: 0
    }
  }
}
layer {
  name: "inception_4b/1x1"
  type: "Convolution"
  bottom: "inception_4a/output"
  top: "inception_4b/1x1"
  param {
    lr_mult: 1
    decay_mult: 1
  }
  param {
    lr_mult: 2
    decay_mult: 0
  }
  convolution_param {
    num_output: 160
    kernel_size: 1
    weight_filler {
      type: "xavier"
      std: 0.03
    }
    bias_filler {
      type: "constant"
      value: 0.2
    }
  }
}
layer {
  name: "inception_4b/relu_1x1"
  type: "ReLU"
  bottom: "inception_4b/1x1"
  top: "inception_4b/1x1"
}
layer {
  name: "inception_4b/3x3_reduce"
  type: "Convolution"
  bottom: "inception_4a/output"
  top: "inception_4b/3x3_reduce"
  param {
    lr_mult: 1
    decay_mult: 1
  }
  param {
    lr_mult: 2
    decay_mult: 0
  }
  convolution_param {
    num_output: 112
    kernel_size: 1
    weight_filler {
      type: "xavier"
      std: 0.09
    }
    bias_filler {
      type: "constant"
      value: 0.2
    }
  }
}
layer {
  name: "inception_4b/relu_3x3_reduce"
  type: "ReLU"
  bottom: "inception_4b/3x3_reduce"
  top: "inception_4b/3x3_reduce"
}
layer {
  name: "inception_4b/3x3"
  type: "Convolution"
  bottom: "inception_4b/3x3_reduce"
  top: "inception_4b/3x3"
  param {
    lr_mult: 1
    decay_mult: 1
  }
  param {
    lr_mult: 2
    decay_mult: 0
  }
  convolution_param {
    num_output: 224
    pad: 1
    kernel_size: 3
    weight_filler {
      type: "xavier"
      std: 0.03
    }
    bias_filler {
      type: "constant"
      value: 0.2
    }
  }
}
layer {
  name: "inception_4b/relu_3x3"
  type: "ReLU"
  bottom: "inception_4b/3x3"
  top: "inception_4b/3x3"
}
layer {
  name: "inception_4b/5x5_reduce"
  type: "Convolution"
  bottom: "inception_4a/output"
  top: "inception_4b/5x5_reduce"
  param {
    lr_mult: 1
    decay_mult: 1
  }
  param {
    lr_mult: 2
    decay_mult: 0
  }
  convolution_param {
    num_output: 24
    kernel_size: 1
    weight_filler {
      type: "xavier"
      std: 0.2
    }
    bias_filler {
      type: "constant"
      value: 0.2
    }
  }
}
layer {
  name: "inception_4b/relu_5x5_reduce"
  type: "ReLU"
  bottom: "inception_4b/5x5_reduce"
  top: "inception_4b/5x5_reduce"
}
layer {
  name: "inception_4b/5x5"
  type: "Convolution"
  bottom: "inception_4b/5x5_reduce"
  top: "inception_4b/5x5"
  param {
    lr_mult: 1
    decay_mult: 1
  }
  param {
    lr_mult: 2
    decay_mult: 0
  }
  convolution_param {
    num_output: 64
    pad: 2
    kernel_size: 5
    weight_filler {
      type: "xavier"
      std: 0.03
    }
    bias_filler {
      type: "constant"
      value: 0.2
    }
  }
}
layer {
  name: "inception_4b/relu_5x5"
  type: "ReLU"
  bottom: "inception_4b/5x5"
  top: "inception_4b/5x5"
}
layer {
  name: "inception_4b/pool"
  type: "Pooling"
  bottom: "inception_4a/output"
  top: "inception_4b/pool"
  pooling_param {
    pool: MAX
    kernel_size: 3
    stride: 1
    pad: 1
  }
}
layer {
  name: "inception_4b/pool_proj"
  type: "Convolution"
  bottom: "inception_4b/pool"
  top: "inception_4b/pool_proj"
  param {
    lr_mult: 1
    decay_mult: 1
  }
  param {
    lr_mult: 2
    decay_mult: 0
  }
  convolution_param {
    num_output: 64
    kernel_size: 1
    weight_filler {
      type: "xavier"
      std: 0.1
    }
    bias_filler {
      type: "constant"
      value: 0.2
    }
  }
}
layer {
  name: "inception_4b/relu_pool_proj"
  type: "ReLU"
  bottom: "inception_4b/pool_proj"
  top: "inception_4b/pool_proj"
}
layer {
  name: "inception_4b/output"
  type: "Concat"
  bottom: "inception_4b/1x1"
  bottom: "inception_4b/3x3"
  bottom: "inception_4b/5x5"
  bottom: "inception_4b/pool_proj"
  top: "inception_4b/output"
}
layer {
  name: "inception_4c/1x1"
  type: "Convolution"
  bottom: "inception_4b/output"
  top: "inception_4c/1x1"
  param {
    lr_mult: 1
    decay_mult: 1
  }
  param {
    lr_mult: 2
    decay_mult: 0
  }
  convolution_param {
    num_output: 128
    kernel_size: 1
    weight_filler {
      type: "xavier"
      std: 0.03
    }
    bias_filler {
      type: "constant"
      value: 0.2
    }
  }
}
layer {
  name: "inception_4c/relu_1x1"
  type: "ReLU"
  bottom: "inception_4c/1x1"
  top: "inception_4c/1x1"
}
layer {
  name: "inception_4c/3x3_reduce"
  type: "Convolution"
  bottom: "inception_4b/output"
  top: "inception_4c/3x3_reduce"
  param {
    lr_mult: 1
    decay_mult: 1
  }
  param {
    lr_mult: 2
    decay_mult: 0
  }
  convolution_param {
    num_output: 128
    kernel_size: 1
    weight_filler {
      type: "xavier"
      std: 0.09
    }
    bias_filler {
      type: "constant"
      value: 0.2
    }
  }
}
layer {
  name: "inception_4c/relu_3x3_reduce"
  type: "ReLU"
  bottom: "inception_4c/3x3_reduce"
  top: "inception_4c/3x3_reduce"
}
layer {
  name: "inception_4c/3x3"
  type: "Convolution"
  bottom: "inception_4c/3x3_reduce"
  top: "inception_4c/3x3"
  param {
    lr_mult: 1
    decay_mult: 1
  }
  param {
    lr_mult: 2
    decay_mult: 0
  }
  convolution_param {
    num_output: 256
    pad: 1
    kernel_size: 3
    weight_filler {
      type: "xavier"
      std: 0.03
    }
    bias_filler {
      type: "constant"
      value: 0.2
    }
  }
}
layer {
  name: "inception_4c/relu_3x3"
  type: "ReLU"
  bottom: "inception_4c/3x3"
  top: "inception_4c/3x3"
}
layer {
  name: "inception_4c/5x5_reduce"
  type: "Convolution"
  bottom: "inception_4b/output"
  top: "inception_4c/5x5_reduce"
  param {
    lr_mult: 1
    decay_mult: 1
  }
  param {
    lr_mult: 2
    decay_mult: 0
  }
  convolution_param {
    num_output: 24
    kernel_size: 1
    weight_filler {
      type: "xavier"
      std: 0.2
    }
    bias_filler {
      type: "constant"
      value: 0.2
    }
  }
}
layer {
  name: "inception_4c/relu_5x5_reduce"
  type: "ReLU"
  bottom: "inception_4c/5x5_reduce"
  top: "inception_4c/5x5_reduce"
}
layer {
  name: "inception_4c/5x5"
  type: "Convolution"
  bottom: "inception_4c/5x5_reduce"
  top: "inception_4c/5x5"
  param {
    lr_mult: 1
    decay_mult: 1
  }
  param {
    lr_mult: 2
    decay_mult: 0
  }
  convolution_param {
    num_output: 64
    pad: 2
    kernel_size: 5
    weight_filler {
      type: "xavier"
      std: 0.03
    }
    bias_filler {
      type: "constant"
      value: 0.2
    }
  }
}
layer {
  name: "inception_4c/relu_5x5"
  type: "ReLU"
  bottom: "inception_4c/5x5"
  top: "inception_4c/5x5"
}
layer {
  name: "inception_4c/pool"
  type: "Pooling"
  bottom: "inception_4b/output"
  top: "inception_4c/pool"
  pooling_param {
    pool: MAX
    kernel_size: 3
    stride: 1
    pad: 1
  }
}
layer {
  name: "inception_4c/pool_proj"
  type: "Convolution"
  bottom: "inception_4c/pool"
  top: "inception_4c/pool_proj"
  param {
    lr_mult: 1
    decay_mult: 1
  }
  param {
    lr_mult: 2
    decay_mult: 0
  }
  convolution_param {
    num_output: 64
    kernel_size: 1
    weight_filler {
      type: "xavier"
      std: 0.1
    }
    bias_filler {
      type: "constant"
      value: 0.2
    }
  }
}
layer {
  name: "inception_4c/relu_pool_proj"
  type: "ReLU"
  bottom: "inception_4c/pool_proj"
  top: "inception_4c/pool_proj"
}
layer {
  name: "inception_4c/output"
  type: "Concat"
  bottom: "inception_4c/1x1"
  bottom: "inception_4c/3x3"
  bottom: "inception_4c/5x5"
  bottom: "inception_4c/pool_proj"
  top: "inception_4c/output"
}
layer {
  name: "inception_4d/1x1"
  type: "Convolution"
  bottom: "inception_4c/output"
  top: "inception_4d/1x1"
  param {
    lr_mult: 1
    decay_mult: 1
  }
  param {
    lr_mult: 2
    decay_mult: 0
  }
  convolution_param {
    num_output: 112
    kernel_size: 1
    weight_filler {
      type: "xavier"
      std: 0.03
    }
    bias_filler {
      type: "constant"
      value: 0.2
    }
  }
}
layer {
  name: "inception_4d/relu_1x1"
  type: "ReLU"
  bottom: "inception_4d/1x1"
  top: "inception_4d/1x1"
}
layer {
  name: "inception_4d/3x3_reduce"
  type: "Convolution"
  bottom: "inception_4c/output"
  top: "inception_4d/3x3_reduce"
  param {
    lr_mult: 1
    decay_mult: 1
  }
  param {
    lr_mult: 2
    decay_mult: 0
  }
  convolution_param {
    num_output: 144
    kernel_size: 1
    weight_filler {
      type: "xavier"
      std: 0.09
    }
    bias_filler {
      type: "constant"
      value: 0.2
    }
  }
}
layer {
  name: "inception_4d/relu_3x3_reduce"
  type: "ReLU"
  bottom: "inception_4d/3x3_reduce"
  top: "inception_4d/3x3_reduce"
}
layer {
  name: "inception_4d/3x3"
  type: "Convolution"
  bottom: "inception_4d/3x3_reduce"
  top: "inception_4d/3x3"
  param {
    lr_mult: 1
    decay_mult: 1
  }
  param {
    lr_mult: 2
    decay_mult: 0
  }
  convolution_param {
    num_output: 288
    pad: 1
    kernel_size: 3
    weight_filler {
      type: "xavier"
      std: 0.03
    }
    bias_filler {
      type: "constant"
      value: 0.2
    }
  }
}
layer {
  name: "inception_4d/relu_3x3"
  type: "ReLU"
  bottom: "inception_4d/3x3"
  top: "inception_4d/3x3"
}
layer {
  name: "inception_4d/5x5_reduce"
  type: "Convolution"
  bottom: "inception_4c/output"
  top: "inception_4d/5x5_reduce"
  param {
    lr_mult: 1
    decay_mult: 1
  }
  param {
    lr_mult: 2
    decay_mult: 0
  }
  convolution_param {
    num_output: 32
    kernel_size: 1
    weight_filler {
      type: "xavier"
      std: 0.2
    }
    bias_filler {
      type: "constant"
      value: 0.2
    }
  }
}
layer {
  name: "inception_4d/relu_5x5_reduce"
  type: "ReLU"
  bottom: "inception_4d/5x5_reduce"
  top: "inception_4d/5x5_reduce"
}
layer {
  name: "inception_4d/5x5"
  type: "Convolution"
  bottom: "inception_4d/5x5_reduce"
  top: "inception_4d/5x5"
  param {
    lr_mult: 1
    decay_mult: 1
  }
  param {
    lr_mult: 2
    decay_mult: 0
  }
  convolution_param {
    num_output: 64
    pad: 2
    kernel_size: 5
    weight_filler {
      type: "xavier"
      std: 0.03
    }
    bias_filler {
      type: "constant"
      value: 0.2
    }
  }
}
layer {
  name: "inception_4d/relu_5x5"
  type: "ReLU"
  bottom: "inception_4d/5x5"
  top: "inception_4d/5x5"
}
layer {
  name: "inception_4d/pool"
  type: "Pooling"
  bottom: "inception_4c/output"
  top: "inception_4d/pool"
  pooling_param {
    pool: MAX
    kernel_size: 3
    stride: 1
    pad: 1
  }
}
layer {
  name: "inception_4d/pool_proj"
  type: "Convolution"
  bottom: "inception_4d/pool"
  top: "inception_4d/pool_proj"
  param {
    lr_mult: 1
    decay_mult: 1
  }
  param {
    lr_mult: 2
    decay_mult: 0
  }
  convolution_param {
    num_output: 64
    kernel_size: 1
    weight_filler {
      type: "xavier"
      std: 0.1
    }
    bias_filler {
      type: "constant"
      value: 0.2
    }
  }
}
layer {
  name: "inception_4d/relu_pool_proj"
  type: "ReLU"
  bottom: "inception_4d/pool_proj"
  top: "inception_4d/pool_proj"
}
layer {
  name: "inception_4d/output"
  type: "Concat"
  bottom: "inception_4d/1x1"
  bottom: "inception_4d/3x3"
  bottom: "inception_4d/5x5"
  bottom: "inception_4d/pool_proj"
  top: "inception_4d/output"
}
layer {
  name: "loss2/ave_pool"
  type: "Pooling"
  bottom: "inception_4d/output"
  top: "loss2/ave_pool"
  pooling_param {
    pool: AVE
    kernel_size: 5
    stride: 3
  }
}
layer {
  name: "loss2/conv"
  type: "Convolution"
  bottom: "loss2/ave_pool"
  top: "loss2/conv"
  param {
    lr_mult: 1
    decay_mult: 1
  }
  param {
    lr_mult: 2
    decay_mult: 0
  }
  convolution_param {
    num_output: 128
    kernel_size: 1
    weight_filler {
      type: "xavier"
      std: 0.08
    }
    bias_filler {
      type: "constant"
      value: 0.2
    }
  }
}
layer {
  name: "loss2/relu_conv"
  type: "ReLU"
  bottom: "loss2/conv"
  top: "loss2/conv"
}
layer {
  name: "loss2/fc"
  type: "InnerProduct"
  bottom: "loss2/conv"
  top: "loss2/fc"
  param {
    lr_mult: 1
    decay_mult: 1
  }
  param {
    lr_mult: 2
    decay_mult: 0
  }
  inner_product_param {
    num_output: 1024
    weight_filler {
      type: "xavier"
      std: 0.02
    }
    bias_filler {
      type: "constant"
      value: 0.2
    }
  }
}
layer {
  name: "loss2/relu_fc"
  type: "ReLU"
  bottom: "loss2/fc"
  top: "loss2/fc"
}
layer {
  name: "loss2/drop_fc"
  type: "Dropout"
  bottom: "loss2/fc"
  top: "loss2/fc"
  dropout_param {
    dropout_ratio: 0.7
  }
}
layer {
  name: "loss2/classifier_plantvillage"
  type: "InnerProduct"
  bottom: "loss2/fc"
  top: "loss2/classifier_plantvillage"
  param {
    lr_mult: 1
    decay_mult: 1
  }
  param {
    lr_mult: 2
    decay_mult: 0
  }
  inner_product_param {
    num_output: 38
    weight_filler {
      type: "xavier"
      std: 0.0009765625
    }
    bias_filler {
      type: "constant"
      value: 0
    }
  }
}
layer {
  name: "inception_4e/1x1"
  type: "Convolution"
  bottom: "inception_4d/output"
  top: "inception_4e/1x1"
  param {
    lr_mult: 1
    decay_mult: 1
  }
  param {
    lr_mult: 2
    decay_mult: 0
  }
  convolution_param {
    num_output: 256
    kernel_size: 1
    weight_filler {
      type: "xavier"
      std: 0.03
    }
    bias_filler {
      type: "constant"
      value: 0.2
    }
  }
}
layer {
  name: "inception_4e/relu_1x1"
  type: "ReLU"
  bottom: "inception_4e/1x1"
  top: "inception_4e/1x1"
}
layer {
  name: "inception_4e/3x3_reduce"
  type: "Convolution"
  bottom: "inception_4d/output"
  top: "inception_4e/3x3_reduce"
  param {
    lr_mult: 1
    decay_mult: 1
  }
  param {
    lr_mult: 2
    decay_mult: 0
  }
  convolution_param {
    num_output: 160
    kernel_size: 1
    weight_filler {
      type: "xavier"
      std: 0.09
    }
    bias_filler {
      type: "constant"
      value: 0.2
    }
  }
}
layer {
  name: "inception_4e/relu_3x3_reduce"
  type: "ReLU"
  bottom: "inception_4e/3x3_reduce"
  top: "inception_4e/3x3_reduce"
}
layer {
  name: "inception_4e/3x3"
  type: "Convolution"
  bottom: "inception_4e/3x3_reduce"
  top: "inception_4e/3x3"
  param {
    lr_mult: 1
    decay_mult: 1
  }
  param {
    lr_mult: 2
    decay_mult: 0
  }
  convolution_param {
    num_output: 320
    pad: 1
    kernel_size: 3
    weight_filler {
      type: "xavier"
      std: 0.03
    }
    bias_filler {
      type: "constant"
      value: 0.2
    }
  }
}
layer {
  name: "inception_4e/relu_3x3"
  type: "ReLU"
  bottom: "inception_4e/3x3"
  top: "inception_4e/3x3"
}
layer {
  name: "inception_4e/5x5_reduce"
  type: "Convolution"
  bottom: "inception_4d/output"
  top: "inception_4e/5x5_reduce"
  param {
    lr_mult: 1
    decay_mult: 1
  }
  param {
    lr_mult: 2
    decay_mult: 0
  }
  convolution_param {
    num_output: 32
    kernel_size: 1
    weight_filler {
      type: "xavier"
      std: 0.2
    }
    bias_filler {
      type: "constant"
      value: 0.2
    }
  }
}
layer {
  name: "inception_4e/relu_5x5_reduce"
  type: "ReLU"
  bottom: "inception_4e/5x5_reduce"
  top: "inception_4e/5x5_reduce"
}
layer {
  name: "inception_4e/5x5"
  type: "Convolution"
  bottom: "inception_4e/5x5_reduce"
  top: "inception_4e/
I0403 17:43:26.265352 14748 layer_factory.hpp:77] Creating layer data
I0403 17:43:26.265974 14748 net.cpp:91] Creating Layer data
I0403 17:43:26.266015 14748 net.cpp:399] data -> data
I0403 17:43:26.266067 14748 net.cpp:399] data -> label
I0403 17:43:26.266105 14748 data_transformer.cpp:25] Loading mean file from: /home/mohanty/data/final_dataset/lmdb/grayscale-60-40/mean.binaryproto
I0403 17:43:26.267329 14750 db_lmdb.cpp:38] Opened lmdb /home/mohanty/data/final_dataset/lmdb/grayscale-60-40/test_db
I0403 17:43:26.279577 14748 data_layer.cpp:41] output data size: 24,3,224,224
I0403 17:43:26.306267 14748 net.cpp:141] Setting up data
I0403 17:43:26.306349 14748 net.cpp:148] Top shape: 24 3 224 224 (3612672)
I0403 17:43:26.306372 14748 net.cpp:148] Top shape: 24 (24)
I0403 17:43:26.306391 14748 net.cpp:156] Memory required for data: 14450784
I0403 17:43:26.306419 14748 layer_factory.hpp:77] Creating layer label_data_1_split
I0403 17:43:26.306447 14748 net.cpp:91] Creating Layer label_data_1_split
I0403 17:43:26.306468 14748 net.cpp:425] label_data_1_split <- label
I0403 17:43:26.306500 14748 net.cpp:399] label_data_1_split -> label_data_1_split_0
I0403 17:43:26.306530 14748 net.cpp:399] label_data_1_split -> label_data_1_split_1
I0403 17:43:26.306555 14748 net.cpp:399] label_data_1_split -> label_data_1_split_2
I0403 17:43:26.306576 14748 net.cpp:399] label_data_1_split -> label_data_1_split_3
I0403 17:43:26.306598 14748 net.cpp:399] label_data_1_split -> label_data_1_split_4
I0403 17:43:26.306619 14748 net.cpp:399] label_data_1_split -> label_data_1_split_5
I0403 17:43:26.306641 14748 net.cpp:399] label_data_1_split -> label_data_1_split_6
I0403 17:43:26.306663 14748 net.cpp:399] label_data_1_split -> label_data_1_split_7
I0403 17:43:26.306684 14748 net.cpp:399] label_data_1_split -> label_data_1_split_8
I0403 17:43:26.306706 14748 net.cpp:399] label_data_1_split -> label_data_1_split_9
I0403 17:43:26.306825 14748 net.cpp:141] Setting up label_data_1_split
I0403 17:43:26.306849 14748 net.cpp:148] Top shape: 24 (24)
I0403 17:43:26.306869 14748 net.cpp:148] Top shape: 24 (24)
I0403 17:43:26.306886 14748 net.cpp:148] Top shape: 24 (24)
I0403 17:43:26.306902 14748 net.cpp:148] Top shape: 24 (24)
I0403 17:43:26.306918 14748 net.cpp:148] Top shape: 24 (24)
I0403 17:43:26.306934 14748 net.cpp:148] Top shape: 24 (24)
I0403 17:43:26.306956 14748 net.cpp:148] Top shape: 24 (24)
I0403 17:43:26.306974 14748 net.cpp:148] Top shape: 24 (24)
I0403 17:43:26.306991 14748 net.cpp:148] Top shape: 24 (24)
I0403 17:43:26.307009 14748 net.cpp:148] Top shape: 24 (24)
I0403 17:43:26.307049 14748 net.cpp:156] Memory required for data: 14451744
I0403 17:43:26.307065 14748 layer_factory.hpp:77] Creating layer conv1/7x7_s2
I0403 17:43:26.307099 14748 net.cpp:91] Creating Layer conv1/7x7_s2
I0403 17:43:26.307119 14748 net.cpp:425] conv1/7x7_s2 <- data
I0403 17:43:26.307140 14748 net.cpp:399] conv1/7x7_s2 -> conv1/7x7_s2
I0403 17:43:26.445181 14748 net.cpp:141] Setting up conv1/7x7_s2
I0403 17:43:26.445268 14748 net.cpp:148] Top shape: 24 64 112 112 (19267584)
I0403 17:43:26.445286 14748 net.cpp:156] Memory required for data: 91522080
I0403 17:43:26.445318 14748 layer_factory.hpp:77] Creating layer conv1/relu_7x7
I0403 17:43:26.445346 14748 net.cpp:91] Creating Layer conv1/relu_7x7
I0403 17:43:26.445365 14748 net.cpp:425] conv1/relu_7x7 <- conv1/7x7_s2
I0403 17:43:26.445386 14748 net.cpp:386] conv1/relu_7x7 -> conv1/7x7_s2 (in-place)
I0403 17:43:26.445643 14748 net.cpp:141] Setting up conv1/relu_7x7
I0403 17:43:26.445670 14748 net.cpp:148] Top shape: 24 64 112 112 (19267584)
I0403 17:43:26.445688 14748 net.cpp:156] Memory required for data: 168592416
I0403 17:43:26.445703 14748 layer_factory.hpp:77] Creating layer pool1/3x3_s2
I0403 17:43:26.445729 14748 net.cpp:91] Creating Layer pool1/3x3_s2
I0403 17:43:26.445747 14748 net.cpp:425] pool1/3x3_s2 <- conv1/7x7_s2
I0403 17:43:26.445766 14748 net.cpp:399] pool1/3x3_s2 -> pool1/3x3_s2
I0403 17:43:26.445842 14748 net.cpp:141] Setting up pool1/3x3_s2
I0403 17:43:26.445868 14748 net.cpp:148] Top shape: 24 64 56 56 (4816896)
I0403 17:43:26.445886 14748 net.cpp:156] Memory required for data: 187860000
I0403 17:43:26.445902 14748 layer_factory.hpp:77] Creating layer pool1/norm1
I0403 17:43:26.445937 14748 net.cpp:91] Creating Layer pool1/norm1
I0403 17:43:26.445961 14748 net.cpp:425] pool1/norm1 <- pool1/3x3_s2
I0403 17:43:26.445981 14748 net.cpp:399] pool1/norm1 -> pool1/norm1
I0403 17:43:26.446281 14748 net.cpp:141] Setting up pool1/norm1
I0403 17:43:26.446308 14748 net.cpp:148] Top shape: 24 64 56 56 (4816896)
I0403 17:43:26.446324 14748 net.cpp:156] Memory required for data: 207127584
I0403 17:43:26.446341 14748 layer_factory.hpp:77] Creating layer conv2/3x3_reduce
I0403 17:43:26.446363 14748 net.cpp:91] Creating Layer conv2/3x3_reduce
I0403 17:43:26.446382 14748 net.cpp:425] conv2/3x3_reduce <- pool1/norm1
I0403 17:43:26.446405 14748 net.cpp:399] conv2/3x3_reduce -> conv2/3x3_reduce
I0403 17:43:26.447832 14748 net.cpp:141] Setting up conv2/3x3_reduce
I0403 17:43:26.447863 14748 net.cpp:148] Top shape: 24 64 56 56 (4816896)
I0403 17:43:26.447880 14748 net.cpp:156] Memory required for data: 226395168
I0403 17:43:26.447901 14748 layer_factory.hpp:77] Creating layer conv2/relu_3x3_reduce
I0403 17:43:26.447919 14748 net.cpp:91] Creating Layer conv2/relu_3x3_reduce
I0403 17:43:26.447937 14748 net.cpp:425] conv2/relu_3x3_reduce <- conv2/3x3_reduce
I0403 17:43:26.447968 14748 net.cpp:386] conv2/relu_3x3_reduce -> conv2/3x3_reduce (in-place)
I0403 17:43:26.448238 14748 net.cpp:141] Setting up conv2/relu_3x3_reduce
I0403 17:43:26.448267 14748 net.cpp:148] Top shape: 24 64 56 56 (4816896)
I0403 17:43:26.448282 14748 net.cpp:156] Memory required for data: 245662752
I0403 17:43:26.448298 14748 layer_factory.hpp:77] Creating layer conv2/3x3
I0403 17:43:26.448323 14748 net.cpp:91] Creating Layer conv2/3x3
I0403 17:43:26.448340 14748 net.cpp:425] conv2/3x3 <- conv2/3x3_reduce
I0403 17:43:26.448359 14748 net.cpp:399] conv2/3x3 -> conv2/3x3
I0403 17:43:26.450637 14748 net.cpp:141] Setting up conv2/3x3
I0403 17:43:26.450671 14748 net.cpp:148] Top shape: 24 192 56 56 (14450688)
I0403 17:43:26.450691 14748 net.cpp:156] Memory required for data: 303465504
I0403 17:43:26.450714 14748 layer_factory.hpp:77] Creating layer conv2/relu_3x3
I0403 17:43:26.450736 14748 net.cpp:91] Creating Layer conv2/relu_3x3
I0403 17:43:26.450752 14748 net.cpp:425] conv2/relu_3x3 <- conv2/3x3
I0403 17:43:26.450773 14748 net.cpp:386] conv2/relu_3x3 -> conv2/3x3 (in-place)
I0403 17:43:26.450954 14748 net.cpp:141] Setting up conv2/relu_3x3
I0403 17:43:26.450986 14748 net.cpp:148] Top shape: 24 192 56 56 (14450688)
I0403 17:43:26.451045 14748 net.cpp:156] Memory required for data: 361268256
I0403 17:43:26.451061 14748 layer_factory.hpp:77] Creating layer conv2/norm2
I0403 17:43:26.451083 14748 net.cpp:91] Creating Layer conv2/norm2
I0403 17:43:26.451100 14748 net.cpp:425] conv2/norm2 <- conv2/3x3
I0403 17:43:26.451119 14748 net.cpp:399] conv2/norm2 -> conv2/norm2
I0403 17:43:26.451448 14748 net.cpp:141] Setting up conv2/norm2
I0403 17:43:26.451475 14748 net.cpp:148] Top shape: 24 192 56 56 (14450688)
I0403 17:43:26.451491 14748 net.cpp:156] Memory required for data: 419071008
I0403 17:43:26.451505 14748 layer_factory.hpp:77] Creating layer pool2/3x3_s2
I0403 17:43:26.451527 14748 net.cpp:91] Creating Layer pool2/3x3_s2
I0403 17:43:26.451545 14748 net.cpp:425] pool2/3x3_s2 <- conv2/norm2
I0403 17:43:26.451565 14748 net.cpp:399] pool2/3x3_s2 -> pool2/3x3_s2
I0403 17:43:26.451617 14748 net.cpp:141] Setting up pool2/3x3_s2
I0403 17:43:26.451640 14748 net.cpp:148] Top shape: 24 192 28 28 (3612672)
I0403 17:43:26.451656 14748 net.cpp:156] Memory required for data: 433521696
I0403 17:43:26.451670 14748 layer_factory.hpp:77] Creating layer pool2/3x3_s2_pool2/3x3_s2_0_split
I0403 17:43:26.451689 14748 net.cpp:91] Creating Layer pool2/3x3_s2_pool2/3x3_s2_0_split
I0403 17:43:26.451709 14748 net.cpp:425] pool2/3x3_s2_pool2/3x3_s2_0_split <- pool2/3x3_s2
I0403 17:43:26.451725 14748 net.cpp:399] pool2/3x3_s2_pool2/3x3_s2_0_split -> pool2/3x3_s2_pool2/3x3_s2_0_split_0
I0403 17:43:26.451745 14748 net.cpp:399] pool2/3x3_s2_pool2/3x3_s2_0_split -> pool2/3x3_s2_pool2/3x3_s2_0_split_1
I0403 17:43:26.451766 14748 net.cpp:399] pool2/3x3_s2_pool2/3x3_s2_0_split -> pool2/3x3_s2_pool2/3x3_s2_0_split_2
I0403 17:43:26.451786 14748 net.cpp:399] pool2/3x3_s2_pool2/3x3_s2_0_split -> pool2/3x3_s2_pool2/3x3_s2_0_split_3
I0403 17:43:26.451856 14748 net.cpp:141] Setting up pool2/3x3_s2_pool2/3x3_s2_0_split
I0403 17:43:26.451879 14748 net.cpp:148] Top shape: 24 192 28 28 (3612672)
I0403 17:43:26.451896 14748 net.cpp:148] Top shape: 24 192 28 28 (3612672)
I0403 17:43:26.451912 14748 net.cpp:148] Top shape: 24 192 28 28 (3612672)
I0403 17:43:26.451930 14748 net.cpp:148] Top shape: 24 192 28 28 (3612672)
I0403 17:43:26.451944 14748 net.cpp:156] Memory required for data: 491324448
I0403 17:43:26.451963 14748 layer_factory.hpp:77] Creating layer inception_3a/1x1
I0403 17:43:26.451987 14748 net.cpp:91] Creating Layer inception_3a/1x1
I0403 17:43:26.452005 14748 net.cpp:425] inception_3a/1x1 <- pool2/3x3_s2_pool2/3x3_s2_0_split_0
I0403 17:43:26.452026 14748 net.cpp:399] inception_3a/1x1 -> inception_3a/1x1
I0403 17:43:26.453557 14748 net.cpp:141] Setting up inception_3a/1x1
I0403 17:43:26.453589 14748 net.cpp:148] Top shape: 24 64 28 28 (1204224)
I0403 17:43:26.453605 14748 net.cpp:156] Memory required for data: 496141344
I0403 17:43:26.453624 14748 layer_factory.hpp:77] Creating layer inception_3a/relu_1x1
I0403 17:43:26.453642 14748 net.cpp:91] Creating Layer inception_3a/relu_1x1
I0403 17:43:26.453658 14748 net.cpp:425] inception_3a/relu_1x1 <- inception_3a/1x1
I0403 17:43:26.453676 14748 net.cpp:386] inception_3a/relu_1x1 -> inception_3a/1x1 (in-place)
I0403 17:43:26.453847 14748 net.cpp:141] Setting up inception_3a/relu_1x1
I0403 17:43:26.453872 14748 net.cpp:148] Top shape: 24 64 28 28 (1204224)
I0403 17:43:26.453887 14748 net.cpp:156] Memory required for data: 500958240
I0403 17:43:26.453902 14748 layer_factory.hpp:77] Creating layer inception_3a/3x3_reduce
I0403 17:43:26.453925 14748 net.cpp:91] Creating Layer inception_3a/3x3_reduce
I0403 17:43:26.453943 14748 net.cpp:425] inception_3a/3x3_reduce <- pool2/3x3_s2_pool2/3x3_s2_0_split_1
I0403 17:43:26.453969 14748 net.cpp:399] inception_3a/3x3_reduce -> inception_3a/3x3_reduce
I0403 17:43:26.455687 14748 net.cpp:141] Setting up inception_3a/3x3_reduce
I0403 17:43:26.455719 14748 net.cpp:148] Top shape: 24 96 28 28 (1806336)
I0403 17:43:26.455736 14748 net.cpp:156] Memory required for data: 508183584
I0403 17:43:26.455760 14748 layer_factory.hpp:77] Creating layer inception_3a/relu_3x3_reduce
I0403 17:43:26.455798 14748 net.cpp:91] Creating Layer inception_3a/relu_3x3_reduce
I0403 17:43:26.455818 14748 net.cpp:425] inception_3a/relu_3x3_reduce <- inception_3a/3x3_reduce
I0403 17:43:26.455837 14748 net.cpp:386] inception_3a/relu_3x3_reduce -> inception_3a/3x3_reduce (in-place)
I0403 17:43:26.456024 14748 net.cpp:141] Setting up inception_3a/relu_3x3_reduce
I0403 17:43:26.456050 14748 net.cpp:148] Top shape: 24 96 28 28 (1806336)
I0403 17:43:26.456066 14748 net.cpp:156] Memory required for data: 515408928
I0403 17:43:26.456082 14748 layer_factory.hpp:77] Creating layer inception_3a/3x3
I0403 17:43:26.456106 14748 net.cpp:91] Creating Layer inception_3a/3x3
I0403 17:43:26.456125 14748 net.cpp:425] inception_3a/3x3 <- inception_3a/3x3_reduce
I0403 17:43:26.456145 14748 net.cpp:399] inception_3a/3x3 -> inception_3a/3x3
I0403 17:43:26.457772 14748 net.cpp:141] Setting up inception_3a/3x3
I0403 17:43:26.457798 14748 net.cpp:148] Top shape: 24 128 28 28 (2408448)
I0403 17:43:26.457814 14748 net.cpp:156] Memory required for data: 525042720
I0403 17:43:26.457834 14748 layer_factory.hpp:77] Creating layer inception_3a/relu_3x3
I0403 17:43:26.457852 14748 net.cpp:91] Creating Layer inception_3a/relu_3x3
I0403 17:43:26.457870 14748 net.cpp:425] inception_3a/relu_3x3 <- inception_3a/3x3
I0403 17:43:26.457888 14748 net.cpp:386] inception_3a/relu_3x3 -> inception_3a/3x3 (in-place)
I0403 17:43:26.458168 14748 net.cpp:141] Setting up inception_3a/relu_3x3
I0403 17:43:26.458195 14748 net.cpp:148] Top shape: 24 128 28 28 (2408448)
I0403 17:43:26.458211 14748 net.cpp:156] Memory required for data: 534676512
I0403 17:43:26.458226 14748 layer_factory.hpp:77] Creating layer inception_3a/5x5_reduce
I0403 17:43:26.458250 14748 net.cpp:91] Creating Layer inception_3a/5x5_reduce
I0403 17:43:26.458267 14748 net.cpp:425] inception_3a/5x5_reduce <- pool2/3x3_s2_pool2/3x3_s2_0_split_2
I0403 17:43:26.458288 14748 net.cpp:399] inception_3a/5x5_reduce -> inception_3a/5x5_reduce
I0403 17:43:26.459234 14748 net.cpp:141] Setting up inception_3a/5x5_reduce
I0403 17:43:26.459261 14748 net.cpp:148] Top shape: 24 16 28 28 (301056)
I0403 17:43:26.459276 14748 net.cpp:156] Memory required for data: 535880736
I0403 17:43:26.459295 14748 layer_factory.hpp:77] Creating layer inception_3a/relu_5x5_reduce
I0403 17:43:26.459312 14748 net.cpp:91] Creating Layer inception_3a/relu_5x5_reduce
I0403 17:43:26.459328 14748 net.cpp:425] inception_3a/relu_5x5_reduce <- inception_3a/5x5_reduce
I0403 17:43:26.459349 14748 net.cpp:386] inception_3a/relu_5x5_reduce -> inception_3a/5x5_reduce (in-place)
I0403 17:43:26.459645 14748 net.cpp:141] Setting up inception_3a/relu_5x5_reduce
I0403 17:43:26.459671 14748 net.cpp:148] Top shape: 24 16 28 28 (301056)
I0403 17:43:26.459686 14748 net.cpp:156] Memory required for data: 537084960
I0403 17:43:26.459702 14748 layer_factory.hpp:77] Creating layer inception_3a/5x5
I0403 17:43:26.459724 14748 net.cpp:91] Creating Layer inception_3a/5x5
I0403 17:43:26.459743 14748 net.cpp:425] inception_3a/5x5 <- inception_3a/5x5_reduce
I0403 17:43:26.459764 14748 net.cpp:399] inception_3a/5x5 -> inception_3a/5x5
I0403 17:43:26.460760 14748 net.cpp:141] Setting up inception_3a/5x5
I0403 17:43:26.460790 14748 net.cpp:148] Top shape: 24 32 28 28 (602112)
I0403 17:43:26.460806 14748 net.cpp:156] Memory required for data: 539493408
I0403 17:43:26.460825 14748 layer_factory.hpp:77] Creating layer inception_3a/relu_5x5
I0403 17:43:26.460844 14748 net.cpp:91] Creating Layer inception_3a/relu_5x5
I0403 17:43:26.460860 14748 net.cpp:425] inception_3a/relu_5x5 <- inception_3a/5x5
I0403 17:43:26.460880 14748 net.cpp:386] inception_3a/relu_5x5 -> inception_3a/5x5 (in-place)
I0403 17:43:26.461076 14748 net.cpp:141] Setting up inception_3a/relu_5x5
I0403 17:43:26.461102 14748 net.cpp:148] Top shape: 24 32 28 28 (602112)
I0403 17:43:26.461117 14748 net.cpp:156] Memory required for data: 541901856
I0403 17:43:26.461133 14748 layer_factory.hpp:77] Creating layer inception_3a/pool
I0403 17:43:26.461151 14748 net.cpp:91] Creating Layer inception_3a/pool
I0403 17:43:26.461182 14748 net.cpp:425] inception_3a/pool <- pool2/3x3_s2_pool2/3x3_s2_0_split_3
I0403 17:43:26.461205 14748 net.cpp:399] inception_3a/pool -> inception_3a/pool
I0403 17:43:26.461275 14748 net.cpp:141] Setting up inception_3a/pool
I0403 17:43:26.461298 14748 net.cpp:148] Top shape: 24 192 28 28 (3612672)
I0403 17:43:26.461313 14748 net.cpp:156] Memory required for data: 556352544
I0403 17:43:26.461328 14748 layer_factory.hpp:77] Creating layer inception_3a/pool_proj
I0403 17:43:26.461350 14748 net.cpp:91] Creating Layer inception_3a/pool_proj
I0403 17:43:26.461369 14748 net.cpp:425] inception_3a/pool_proj <- inception_3a/pool
I0403 17:43:26.461390 14748 net.cpp:399] inception_3a/pool_proj -> inception_3a/pool_proj
I0403 17:43:26.462374 14748 net.cpp:141] Setting up inception_3a/pool_proj
I0403 17:43:26.462402 14748 net.cpp:148] Top shape: 24 32 28 28 (602112)
I0403 17:43:26.462419 14748 net.cpp:156] Memory required for data: 558760992
I0403 17:43:26.462443 14748 layer_factory.hpp:77] Creating layer inception_3a/relu_pool_proj
I0403 17:43:26.462465 14748 net.cpp:91] Creating Layer inception_3a/relu_pool_proj
I0403 17:43:26.462481 14748 net.cpp:425] inception_3a/relu_pool_proj <- inception_3a/pool_proj
I0403 17:43:26.462502 14748 net.cpp:386] inception_3a/relu_pool_proj -> inception_3a/pool_proj (in-place)
I0403 17:43:26.462788 14748 net.cpp:141] Setting up inception_3a/relu_pool_proj
I0403 17:43:26.462816 14748 net.cpp:148] Top shape: 24 32 28 28 (602112)
I0403 17:43:26.462832 14748 net.cpp:156] Memory required for data: 561169440
I0403 17:43:26.462848 14748 layer_factory.hpp:77] Creating layer inception_3a/output
I0403 17:43:26.462867 14748 net.cpp:91] Creating Layer inception_3a/output
I0403 17:43:26.462882 14748 net.cpp:425] inception_3a/output <- inception_3a/1x1
I0403 17:43:26.462899 14748 net.cpp:425] inception_3a/output <- inception_3a/3x3
I0403 17:43:26.462916 14748 net.cpp:425] inception_3a/output <- inception_3a/5x5
I0403 17:43:26.462932 14748 net.cpp:425] inception_3a/output <- inception_3a/pool_proj
I0403 17:43:26.462957 14748 net.cpp:399] inception_3a/output -> inception_3a/output
I0403 17:43:26.463006 14748 net.cpp:141] Setting up inception_3a/output
I0403 17:43:26.463032 14748 net.cpp:148] Top shape: 24 256 28 28 (4816896)
I0403 17:43:26.463049 14748 net.cpp:156] Memory required for data: 580437024
I0403 17:43:26.463064 14748 layer_factory.hpp:77] Creating layer inception_3a/output_inception_3a/output_0_split
I0403 17:43:26.463083 14748 net.cpp:91] Creating Layer inception_3a/output_inception_3a/output_0_split
I0403 17:43:26.463099 14748 net.cpp:425] inception_3a/output_inception_3a/output_0_split <- inception_3a/output
I0403 17:43:26.463116 14748 net.cpp:399] inception_3a/output_inception_3a/output_0_split -> inception_3a/output_inception_3a/output_0_split_0
I0403 17:43:26.463136 14748 net.cpp:399] inception_3a/output_inception_3a/output_0_split -> inception_3a/output_inception_3a/output_0_split_1
I0403 17:43:26.463161 14748 net.cpp:399] inception_3a/output_inception_3a/output_0_split -> inception_3a/output_inception_3a/output_0_split_2
I0403 17:43:26.463184 14748 net.cpp:399] inception_3a/output_inception_3a/output_0_split -> inception_3a/output_inception_3a/output_0_split_3
I0403 17:43:26.463261 14748 net.cpp:141] Setting up inception_3a/output_inception_3a/output_0_split
I0403 17:43:26.463286 14748 net.cpp:148] Top shape: 24 256 28 28 (4816896)
I0403 17:43:26.463304 14748 net.cpp:148] Top shape: 24 256 28 28 (4816896)
I0403 17:43:26.463320 14748 net.cpp:148] Top shape: 24 256 28 28 (4816896)
I0403 17:43:26.463336 14748 net.cpp:148] Top shape: 24 256 28 28 (4816896)
I0403 17:43:26.463351 14748 net.cpp:156] Memory required for data: 657507360
I0403 17:43:26.463366 14748 layer_factory.hpp:77] Creating layer inception_3b/1x1
I0403 17:43:26.463389 14748 net.cpp:91] Creating Layer inception_3b/1x1
I0403 17:43:26.463407 14748 net.cpp:425] inception_3b/1x1 <- inception_3a/output_inception_3a/output_0_split_0
I0403 17:43:26.463428 14748 net.cpp:399] inception_3b/1x1 -> inception_3b/1x1
I0403 17:43:26.464587 14748 net.cpp:141] Setting up inception_3b/1x1
I0403 17:43:26.464627 14748 net.cpp:148] Top shape: 24 128 28 28 (2408448)
I0403 17:43:26.464644 14748 net.cpp:156] Memory required for data: 667141152
I0403 17:43:26.464664 14748 layer_factory.hpp:77] Creating layer inception_3b/relu_1x1
I0403 17:43:26.464686 14748 net.cpp:91] Creating Layer inception_3b/relu_1x1
I0403 17:43:26.464704 14748 net.cpp:425] inception_3b/relu_1x1 <- inception_3b/1x1
I0403 17:43:26.464721 14748 net.cpp:386] inception_3b/relu_1x1 -> inception_3b/1x1 (in-place)
I0403 17:43:26.464900 14748 net.cpp:141] Setting up inception_3b/relu_1x1
I0403 17:43:26.464926 14748 net.cpp:148] Top shape: 24 128 28 28 (2408448)
I0403 17:43:26.464941 14748 net.cpp:156] Memory required for data: 676774944
I0403 17:43:26.464962 14748 layer_factory.hpp:77] Creating layer inception_3b/3x3_reduce
I0403 17:43:26.464987 14748 net.cpp:91] Creating Layer inception_3b/3x3_reduce
I0403 17:43:26.465005 14748 net.cpp:425] inception_3b/3x3_reduce <- inception_3a/output_inception_3a/output_0_split_1
I0403 17:43:26.465026 14748 net.cpp:399] inception_3b/3x3_reduce -> inception_3b/3x3_reduce
I0403 17:43:26.466178 14748 net.cpp:141] Setting up inception_3b/3x3_reduce
I0403 17:43:26.466210 14748 net.cpp:148] Top shape: 24 128 28 28 (2408448)
I0403 17:43:26.466228 14748 net.cpp:156] Memory required for data: 686408736
I0403 17:43:26.466246 14748 layer_factory.hpp:77] Creating layer inception_3b/relu_3x3_reduce
I0403 17:43:26.466265 14748 net.cpp:91] Creating Layer inception_3b/relu_3x3_reduce
I0403 17:43:26.466281 14748 net.cpp:425] inception_3b/relu_3x3_reduce <- inception_3b/3x3_reduce
I0403 17:43:26.466300 14748 net.cpp:386] inception_3b/relu_3x3_reduce -> inception_3b/3x3_reduce (in-place)
I0403 17:43:26.466483 14748 net.cpp:141] Setting up inception_3b/relu_3x3_reduce
I0403 17:43:26.466511 14748 net.cpp:148] Top shape: 24 128 28 28 (2408448)
I0403 17:43:26.466528 14748 net.cpp:156] Memory required for data: 696042528
I0403 17:43:26.466544 14748 layer_factory.hpp:77] Creating layer inception_3b/3x3
I0403 17:43:26.466569 14748 net.cpp:91] Creating Layer inception_3b/3x3
I0403 17:43:26.466588 14748 net.cpp:425] inception_3b/3x3 <- inception_3b/3x3_reduce
I0403 17:43:26.466609 14748 net.cpp:399] inception_3b/3x3 -> inception_3b/3x3
I0403 17:43:26.469626 14748 net.cpp:141] Setting up inception_3b/3x3
I0403 17:43:26.469656 14748 net.cpp:148] Top shape: 24 192 28 28 (3612672)
I0403 17:43:26.469673 14748 net.cpp:156] Memory required for data: 710493216
I0403 17:43:26.469692 14748 layer_factory.hpp:77] Creating layer inception_3b/relu_3x3
I0403 17:43:26.469712 14748 net.cpp:91] Creating Layer inception_3b/relu_3x3
I0403 17:43:26.469728 14748 net.cpp:425] inception_3b/relu_3x3 <- inception_3b/3x3
I0403 17:43:26.469749 14748 net.cpp:386] inception_3b/relu_3x3 -> inception_3b/3x3 (in-place)
I0403 17:43:26.470034 14748 net.cpp:141] Setting up inception_3b/relu_3x3
I0403 17:43:26.470062 14748 net.cpp:148] Top shape: 24 192 28 28 (3612672)
I0403 17:43:26.470077 14748 net.cpp:156] Memory required for data: 724943904
I0403 17:43:26.470093 14748 layer_factory.hpp:77] Creating layer inception_3b/5x5_reduce
I0403 17:43:26.470118 14748 net.cpp:91] Creating Layer inception_3b/5x5_reduce
I0403 17:43:26.470137 14748 net.cpp:425] inception_3b/5x5_reduce <- inception_3a/output_inception_3a/output_0_split_2
I0403 17:43:26.470161 14748 net.cpp:399] inception_3b/5x5_reduce -> inception_3b/5x5_reduce
I0403 17:43:26.471170 14748 net.cpp:141] Setting up inception_3b/5x5_reduce
I0403 17:43:26.471200 14748 net.cpp:148] Top shape: 24 32 28 28 (602112)
I0403 17:43:26.471216 14748 net.cpp:156] Memory required for data: 727352352
I0403 17:43:26.471243 14748 layer_factory.hpp:77] Creating layer inception_3b/relu_5x5_reduce
I0403 17:43:26.471261 14748 net.cpp:91] Creating Layer inception_3b/relu_5x5_reduce
I0403 17:43:26.471278 14748 net.cpp:425] inception_3b/relu_5x5_reduce <- inception_3b/5x5_reduce
I0403 17:43:26.471298 14748 net.cpp:386] inception_3b/relu_5x5_reduce -> inception_3b/5x5_reduce (in-place)
I0403 17:43:26.471496 14748 net.cpp:141] Setting up inception_3b/relu_5x5_reduce
I0403 17:43:26.471521 14748 net.cpp:148] Top shape: 24 32 28 28 (602112)
I0403 17:43:26.471536 14748 net.cpp:156] Memory required for data: 729760800
I0403 17:43:26.471552 14748 layer_factory.hpp:77] Creating layer inception_3b/5x5
I0403 17:43:26.471575 14748 net.cpp:91] Creating Layer inception_3b/5x5
I0403 17:43:26.471593 14748 net.cpp:425] inception_3b/5x5 <- inception_3b/5x5_reduce
I0403 17:43:26.471616 14748 net.cpp:399] inception_3b/5x5 -> inception_3b/5x5
I0403 17:43:26.473618 14748 net.cpp:141] Setting up inception_3b/5x5
I0403 17:43:26.473650 14748 net.cpp:148] Top shape: 24 96 28 28 (1806336)
I0403 17:43:26.473666 14748 net.cpp:156] Memory required for data: 736986144
I0403 17:43:26.473686 14748 layer_factory.hpp:77] Creating layer inception_3b/relu_5x5
I0403 17:43:26.473704 14748 net.cpp:91] Creating Layer inception_3b/relu_5x5
I0403 17:43:26.473721 14748 net.cpp:425] inception_3b/relu_5x5 <- inception_3b/5x5
I0403 17:43:26.473740 14748 net.cpp:386] inception_3b/relu_5x5 -> inception_3b/5x5 (in-place)
I0403 17:43:26.473940 14748 net.cpp:141] Setting up inception_3b/relu_5x5
I0403 17:43:26.473970 14748 net.cpp:148] Top shape: 24 96 28 28 (1806336)
I0403 17:43:26.473986 14748 net.cpp:156] Memory required for data: 744211488
I0403 17:43:26.474002 14748 layer_factory.hpp:77] Creating layer inception_3b/pool
I0403 17:43:26.474021 14748 net.cpp:91] Creating Layer inception_3b/pool
I0403 17:43:26.474038 14748 net.cpp:425] inception_3b/pool <- inception_3a/output_inception_3a/output_0_split_3
I0403 17:43:26.474056 14748 net.cpp:399] inception_3b/pool -> inception_3b/pool
I0403 17:43:26.474114 14748 net.cpp:141] Setting up inception_3b/pool
I0403 17:43:26.474140 14748 net.cpp:148] Top shape: 24 256 28 28 (4816896)
I0403 17:43:26.474158 14748 net.cpp:156] Memory required for data: 763479072
I0403 17:43:26.474172 14748 layer_factory.hpp:77] Creating layer inception_3b/pool_proj
I0403 17:43:26.474194 14748 net.cpp:91] Creating Layer inception_3b/pool_proj
I0403 17:43:26.474210 14748 net.cpp:425] inception_3b/pool_proj <- inception_3b/pool
I0403 17:43:26.474232 14748 net.cpp:399] inception_3b/pool_proj -> inception_3b/pool_proj
I0403 17:43:26.475311 14748 net.cpp:141] Setting up inception_3b/pool_proj
I0403 17:43:26.475338 14748 net.cpp:148] Top shape: 24 64 28 28 (1204224)
I0403 17:43:26.475354 14748 net.cpp:156] Memory required for data: 768295968
I0403 17:43:26.475373 14748 layer_factory.hpp:77] Creating layer inception_3b/relu_pool_proj
I0403 17:43:26.475394 14748 net.cpp:91] Creating Layer inception_3b/relu_pool_proj
I0403 17:43:26.475412 14748 net.cpp:425] inception_3b/relu_pool_proj <- inception_3b/pool_proj
I0403 17:43:26.475430 14748 net.cpp:386] inception_3b/relu_pool_proj -> inception_3b/pool_proj (in-place)
I0403 17:43:26.475829 14748 net.cpp:141] Setting up inception_3b/relu_pool_proj
I0403 17:43:26.475857 14748 net.cpp:148] Top shape: 24 64 28 28 (1204224)
I0403 17:43:26.475872 14748 net.cpp:156] Memory required for data: 773112864
I0403 17:43:26.475888 14748 layer_factory.hpp:77] Creating layer inception_3b/output
I0403 17:43:26.475905 14748 net.cpp:91] Creating Layer inception_3b/output
I0403 17:43:26.475922 14748 net.cpp:425] inception_3b/output <- inception_3b/1x1
I0403 17:43:26.475940 14748 net.cpp:425] inception_3b/output <- inception_3b/3x3
I0403 17:43:26.475962 14748 net.cpp:425] inception_3b/output <- inception_3b/5x5
I0403 17:43:26.475980 14748 net.cpp:425] inception_3b/output <- inception_3b/pool_proj
I0403 17:43:26.475999 14748 net.cpp:399] inception_3b/output -> inception_3b/output
I0403 17:43:26.476044 14748 net.cpp:141] Setting up inception_3b/output
I0403 17:43:26.476070 14748 net.cpp:148] Top shape: 24 480 28 28 (9031680)
I0403 17:43:26.476086 14748 net.cpp:156] Memory required for data: 809239584
I0403 17:43:26.476102 14748 layer_factory.hpp:77] Creating layer pool3/3x3_s2
I0403 17:43:26.476120 14748 net.cpp:91] Creating Layer pool3/3x3_s2
I0403 17:43:26.476137 14748 net.cpp:425] pool3/3x3_s2 <- inception_3b/output
I0403 17:43:26.476174 14748 net.cpp:399] pool3/3x3_s2 -> pool3/3x3_s2
I0403 17:43:26.476235 14748 net.cpp:141] Setting up pool3/3x3_s2
I0403 17:43:26.476259 14748 net.cpp:148] Top shape: 24 480 14 14 (2257920)
I0403 17:43:26.476274 14748 net.cpp:156] Memory required for data: 818271264
I0403 17:43:26.476290 14748 layer_factory.hpp:77] Creating layer pool3/3x3_s2_pool3/3x3_s2_0_split
I0403 17:43:26.476313 14748 net.cpp:91] Creating Layer pool3/3x3_s2_pool3/3x3_s2_0_split
I0403 17:43:26.476330 14748 net.cpp:425] pool3/3x3_s2_pool3/3x3_s2_0_split <- pool3/3x3_s2
I0403 17:43:26.476348 14748 net.cpp:399] pool3/3x3_s2_pool3/3x3_s2_0_split -> pool3/3x3_s2_pool3/3x3_s2_0_split_0
I0403 17:43:26.476369 14748 net.cpp:399] pool3/3x3_s2_pool3/3x3_s2_0_split -> pool3/3x3_s2_pool3/3x3_s2_0_split_1
I0403 17:43:26.476393 14748 net.cpp:399] pool3/3x3_s2_pool3/3x3_s2_0_split -> pool3/3x3_s2_pool3/3x3_s2_0_split_2
I0403 17:43:26.476414 14748 net.cpp:399] pool3/3x3_s2_pool3/3x3_s2_0_split -> pool3/3x3_s2_pool3/3x3_s2_0_split_3
I0403 17:43:26.476490 14748 net.cpp:141] Setting up pool3/3x3_s2_pool3/3x3_s2_0_split
I0403 17:43:26.476514 14748 net.cpp:148] Top shape: 24 480 14 14 (2257920)
I0403 17:43:26.476531 14748 net.cpp:148] Top shape: 24 480 14 14 (2257920)
I0403 17:43:26.476548 14748 net.cpp:148] Top shape: 24 480 14 14 (2257920)
I0403 17:43:26.476563 14748 net.cpp:148] Top shape: 24 480 14 14 (2257920)
I0403 17:43:26.476578 14748 net.cpp:156] Memory required for data: 854397984
I0403 17:43:26.476593 14748 layer_factory.hpp:77] Creating layer inception_4a/1x1
I0403 17:43:26.476616 14748 net.cpp:91] Creating Layer inception_4a/1x1
I0403 17:43:26.476634 14748 net.cpp:425] inception_4a/1x1 <- pool3/3x3_s2_pool3/3x3_s2_0_split_0
I0403 17:43:26.476655 14748 net.cpp:399] inception_4a/1x1 -> inception_4a/1x1
I0403 17:43:26.478276 14748 net.cpp:141] Setting up inception_4a/1x1
I0403 17:43:26.478304 14748 net.cpp:148] Top shape: 24 192 14 14 (903168)
I0403 17:43:26.478320 14748 net.cpp:156] Memory required for data: 858010656
I0403 17:43:26.478339 14748 layer_factory.hpp:77] Creating layer inception_4a/relu_1x1
I0403 17:43:26.478361 14748 net.cpp:91] Creating Layer inception_4a/relu_1x1
I0403 17:43:26.478379 14748 net.cpp:425] inception_4a/relu_1x1 <- inception_4a/1x1
I0403 17:43:26.478396 14748 net.cpp:386] inception_4a/relu_1x1 -> inception_4a/1x1 (in-place)
I0403 17:43:26.478576 14748 net.cpp:141] Setting up inception_4a/relu_1x1
I0403 17:43:26.478605 14748 net.cpp:148] Top shape: 24 192 14 14 (903168)
I0403 17:43:26.478621 14748 net.cpp:156] Memory required for data: 861623328
I0403 17:43:26.478637 14748 layer_factory.hpp:77] Creating layer inception_4a/3x3_reduce
I0403 17:43:26.478660 14748 net.cpp:91] Creating Layer inception_4a/3x3_reduce
I0403 17:43:26.478678 14748 net.cpp:425] inception_4a/3x3_reduce <- pool3/3x3_s2_pool3/3x3_s2_0_split_1
I0403 17:43:26.478698 14748 net.cpp:399] inception_4a/3x3_reduce -> inception_4a/3x3_reduce
I0403 17:43:26.480002 14748 net.cpp:141] Setting up inception_4a/3x3_reduce
I0403 17:43:26.480031 14748 net.cpp:148] Top shape: 24 96 14 14 (451584)
I0403 17:43:26.480047 14748 net.cpp:156] Memory required for data: 863429664
I0403 17:43:26.480072 14748 layer_factory.hpp:77] Creating layer inception_4a/relu_3x3_reduce
I0403 17:43:26.480096 14748 net.cpp:91] Creating Layer inception_4a/relu_3x3_reduce
I0403 17:43:26.480113 14748 net.cpp:425] inception_4a/relu_3x3_reduce <- inception_4a/3x3_reduce
I0403 17:43:26.480132 14748 net.cpp:386] inception_4a/relu_3x3_reduce -> inception_4a/3x3_reduce (in-place)
I0403 17:43:26.480312 14748 net.cpp:141] Setting up inception_4a/relu_3x3_reduce
I0403 17:43:26.480337 14748 net.cpp:148] Top shape: 24 96 14 14 (451584)
I0403 17:43:26.480353 14748 net.cpp:156] Memory required for data: 865236000
I0403 17:43:26.480370 14748 layer_factory.hpp:77] Creating layer inception_4a/3x3
I0403 17:43:26.480392 14748 net.cpp:91] Creating Layer inception_4a/3x3
I0403 17:43:26.480411 14748 net.cpp:425] inception_4a/3x3 <- inception_4a/3x3_reduce
I0403 17:43:26.480430 14748 net.cpp:399] inception_4a/3x3 -> inception_4a/3x3
I0403 17:43:26.483157 14748 net.cpp:141] Setting up inception_4a/3x3
I0403 17:43:26.483189 14748 net.cpp:148] Top shape: 24 208 14 14 (978432)
I0403 17:43:26.483206 14748 net.cpp:156] Memory required for data: 869149728
I0403 17:43:26.483227 14748 layer_factory.hpp:77] Creating layer inception_4a/relu_3x3
I0403 17:43:26.483245 14748 net.cpp:91] Creating Layer inception_4a/relu_3x3
I0403 17:43:26.483261 14748 net.cpp:425] inception_4a/relu_3x3 <- inception_4a/3x3
I0403 17:43:26.483279 14748 net.cpp:386] inception_4a/relu_3x3 -> inception_4a/3x3 (in-place)
I0403 17:43:26.483563 14748 net.cpp:141] Setting up inception_4a/relu_3x3
I0403 17:43:26.483592 14748 net.cpp:148] Top shape: 24 208 14 14 (978432)
I0403 17:43:26.483608 14748 net.cpp:156] Memory required for data: 873063456
I0403 17:43:26.483624 14748 layer_factory.hpp:77] Creating layer inception_4a/5x5_reduce
I0403 17:43:26.483647 14748 net.cpp:91] Creating Layer inception_4a/5x5_reduce
I0403 17:43:26.483665 14748 net.cpp:425] inception_4a/5x5_reduce <- pool3/3x3_s2_pool3/3x3_s2_0_split_2
I0403 17:43:26.483685 14748 net.cpp:399] inception_4a/5x5_reduce -> inception_4a/5x5_reduce
I0403 17:43:26.484760 14748 net.cpp:141] Setting up inception_4a/5x5_reduce
I0403 17:43:26.484791 14748 net.cpp:148] Top shape: 24 16 14 14 (75264)
I0403 17:43:26.484808 14748 net.cpp:156] Memory required for data: 873364512
I0403 17:43:26.484827 14748 layer_factory.hpp:77] Creating layer inception_4a/relu_5x5_reduce
I0403 17:43:26.484846 14748 net.cpp:91] Creating Layer inception_4a/relu_5x5_reduce
I0403 17:43:26.484863 14748 net.cpp:425] inception_4a/relu_5x5_reduce <- inception_4a/5x5_reduce
I0403 17:43:26.484884 14748 net.cpp:386] inception_4a/relu_5x5_reduce -> inception_4a/5x5_reduce (in-place)
I0403 17:43:26.485072 14748 net.cpp:141] Setting up inception_4a/relu_5x5_reduce
I0403 17:43:26.485098 14748 net.cpp:148] Top shape: 24 16 14 14 (75264)
I0403 17:43:26.485113 14748 net.cpp:156] Memory required for data: 873665568
I0403 17:43:26.485128 14748 layer_factory.hpp:77] Creating layer inception_4a/5x5
I0403 17:43:26.485152 14748 net.cpp:91] Creating Layer inception_4a/5x5
I0403 17:43:26.485169 14748 net.cpp:425] inception_4a/5x5 <- inception_4a/5x5_reduce
I0403 17:43:26.485191 14748 net.cpp:399] inception_4a/5x5 -> inception_4a/5x5
I0403 17:43:26.486291 14748 net.cpp:141] Setting up inception_4a/5x5
I0403 17:43:26.486320 14748 net.cpp:148] Top shape: 24 48 14 14 (225792)
I0403 17:43:26.486335 14748 net.cpp:156] Memory required for data: 874568736
I0403 17:43:26.486354 14748 layer_factory.hpp:77] Creating layer inception_4a/relu_5x5
I0403 17:43:26.486373 14748 net.cpp:91] Creating Layer inception_4a/relu_5x5
I0403 17:43:26.486390 14748 net.cpp:425] inception_4a/relu_5x5 <- inception_4a/5x5
I0403 17:43:26.486410 14748 net.cpp:386] inception_4a/relu_5x5 -> inception_4a/5x5 (in-place)
I0403 17:43:26.486594 14748 net.cpp:141] Setting up inception_4a/relu_5x5
I0403 17:43:26.486619 14748 net.cpp:148] Top shape: 24 48 14 14 (225792)
I0403 17:43:26.486634 14748 net.cpp:156] Memory required for data: 875471904
I0403 17:43:26.486650 14748 layer_factory.hpp:77] Creating layer inception_4a/pool
I0403 17:43:26.486670 14748 net.cpp:91] Creating Layer inception_4a/pool
I0403 17:43:26.486688 14748 net.cpp:425] inception_4a/pool <- pool3/3x3_s2_pool3/3x3_s2_0_split_3
I0403 17:43:26.486707 14748 net.cpp:399] inception_4a/pool -> inception_4a/pool
I0403 17:43:26.486770 14748 net.cpp:141] Setting up inception_4a/pool
I0403 17:43:26.486794 14748 net.cpp:148] Top shape: 24 480 14 14 (2257920)
I0403 17:43:26.486809 14748 net.cpp:156] Memory required for data: 884503584
I0403 17:43:26.486824 14748 layer_factory.hpp:77] Creating layer inception_4a/pool_proj
I0403 17:43:26.486847 14748 net.cpp:91] Creating Layer inception_4a/pool_proj
I0403 17:43:26.486865 14748 net.cpp:425] inception_4a/pool_proj <- inception_4a/pool
I0403 17:43:26.486886 14748 net.cpp:399] inception_4a/pool_proj -> inception_4a/pool_proj
I0403 17:43:26.488114 14748 net.cpp:141] Setting up inception_4a/pool_proj
I0403 17:43:26.488142 14748 net.cpp:148] Top shape: 24 64 14 14 (301056)
I0403 17:43:26.488173 14748 net.cpp:156] Memory required for data: 885707808
I0403 17:43:26.488194 14748 layer_factory.hpp:77] Creating layer inception_4a/relu_pool_proj
I0403 17:43:26.488216 14748 net.cpp:91] Creating Layer inception_4a/relu_pool_proj
I0403 17:43:26.488234 14748 net.cpp:425] inception_4a/relu_pool_proj <- inception_4a/pool_proj
I0403 17:43:26.488252 14748 net.cpp:386] inception_4a/relu_pool_proj -> inception_4a/pool_proj (in-place)
I0403 17:43:26.488541 14748 net.cpp:141] Setting up inception_4a/relu_pool_proj
I0403 17:43:26.488569 14748 net.cpp:148] Top shape: 24 64 14 14 (301056)
I0403 17:43:26.488584 14748 net.cpp:156] Memory required for data: 886912032
I0403 17:43:26.488600 14748 layer_factory.hpp:77] Creating layer inception_4a/output
I0403 17:43:26.488618 14748 net.cpp:91] Creating Layer inception_4a/output
I0403 17:43:26.488634 14748 net.cpp:425] inception_4a/output <- inception_4a/1x1
I0403 17:43:26.488654 14748 net.cpp:425] inception_4a/output <- inception_4a/3x3
I0403 17:43:26.488672 14748 net.cpp:425] inception_4a/output <- inception_4a/5x5
I0403 17:43:26.488688 14748 net.cpp:425] inception_4a/output <- inception_4a/pool_proj
I0403 17:43:26.488705 14748 net.cpp:399] inception_4a/output -> inception_4a/output
I0403 17:43:26.488754 14748 net.cpp:141] Setting up inception_4a/output
I0403 17:43:26.488777 14748 net.cpp:148] Top shape: 24 512 14 14 (2408448)
I0403 17:43:26.488792 14748 net.cpp:156] Memory required for data: 896545824
I0403 17:43:26.488808 14748 layer_factory.hpp:77] Creating layer inception_4a/output_inception_4a/output_0_split
I0403 17:43:26.488827 14748 net.cpp:91] Creating Layer inception_4a/output_inception_4a/output_0_split
I0403 17:43:26.488843 14748 net.cpp:425] inception_4a/output_inception_4a/output_0_split <- inception_4a/output
I0403 17:43:26.488863 14748 net.cpp:399] inception_4a/output_inception_4a/output_0_split -> inception_4a/output_inception_4a/output_0_split_0
I0403 17:43:26.488885 14748 net.cpp:399] inception_4a/output_inception_4a/output_0_split -> inception_4a/output_inception_4a/output_0_split_1
I0403 17:43:26.488908 14748 net.cpp:399] inception_4a/output_inception_4a/output_0_split -> inception_4a/output_inception_4a/output_0_split_2
I0403 17:43:26.488929 14748 net.cpp:399] inception_4a/output_inception_4a/output_0_split -> inception_4a/output_inception_4a/output_0_split_3
I0403 17:43:26.488955 14748 net.cpp:399] inception_4a/output_inception_4a/output_0_split -> inception_4a/output_inception_4a/output_0_split_4
I0403 17:43:26.489050 14748 net.cpp:141] Setting up inception_4a/output_inception_4a/output_0_split
I0403 17:43:26.489076 14748 net.cpp:148] Top shape: 24 512 14 14 (2408448)
I0403 17:43:26.489094 14748 net.cpp:148] Top shape: 24 512 14 14 (2408448)
I0403 17:43:26.489109 14748 net.cpp:148] Top shape: 24 512 14 14 (2408448)
I0403 17:43:26.489125 14748 net.cpp:148] Top shape: 24 512 14 14 (2408448)
I0403 17:43:26.489141 14748 net.cpp:148] Top shape: 24 512 14 14 (2408448)
I0403 17:43:26.489156 14748 net.cpp:156] Memory required for data: 944714784
I0403 17:43:26.489171 14748 layer_factory.hpp:77] Creating layer loss1/ave_pool
I0403 17:43:26.489188 14748 net.cpp:91] Creating Layer loss1/ave_pool
I0403 17:43:26.489204 14748 net.cpp:425] loss1/ave_pool <- inception_4a/output_inception_4a/output_0_split_0
I0403 17:43:26.489225 14748 net.cpp:399] loss1/ave_pool -> loss1/ave_pool
I0403 17:43:26.489435 14748 net.cpp:141] Setting up loss1/ave_pool
I0403 17:43:26.489462 14748 net.cpp:148] Top shape: 24 512 4 4 (196608)
I0403 17:43:26.489478 14748 net.cpp:156] Memory required for data: 945501216
I0403 17:43:26.489493 14748 layer_factory.hpp:77] Creating layer loss1/conv
I0403 17:43:26.489516 14748 net.cpp:91] Creating Layer loss1/conv
I0403 17:43:26.489534 14748 net.cpp:425] loss1/conv <- loss1/ave_pool
I0403 17:43:26.489555 14748 net.cpp:399] loss1/conv -> loss1/conv
I0403 17:43:26.490986 14748 net.cpp:141] Setting up loss1/conv
I0403 17:43:26.491017 14748 net.cpp:148] Top shape: 24 128 4 4 (49152)
I0403 17:43:26.491047 14748 net.cpp:156] Memory required for data: 945697824
I0403 17:43:26.491067 14748 layer_factory.hpp:77] Creating layer loss1/relu_conv
I0403 17:43:26.491086 14748 net.cpp:91] Creating Layer loss1/relu_conv
I0403 17:43:26.491103 14748 net.cpp:425] loss1/relu_conv <- loss1/conv
I0403 17:43:26.491122 14748 net.cpp:386] loss1/relu_conv -> loss1/conv (in-place)
I0403 17:43:26.491411 14748 net.cpp:141] Setting up loss1/relu_conv
I0403 17:43:26.491441 14748 net.cpp:148] Top shape: 24 128 4 4 (49152)
I0403 17:43:26.491457 14748 net.cpp:156] Memory required for data: 945894432
I0403 17:43:26.491472 14748 layer_factory.hpp:77] Creating layer loss1/fc
I0403 17:43:26.491497 14748 net.cpp:91] Creating Layer loss1/fc
I0403 17:43:26.491516 14748 net.cpp:425] loss1/fc <- loss1/conv
I0403 17:43:26.491539 14748 net.cpp:399] loss1/fc -> loss1/fc
I0403 17:43:26.509801 14748 net.cpp:141] Setting up loss1/fc
I0403 17:43:26.509836 14748 net.cpp:148] Top shape: 24 1024 (24576)
I0403 17:43:26.509855 14748 net.cpp:156] Memory required for data: 945992736
I0403 17:43:26.509873 14748 layer_factory.hpp:77] Creating layer loss1/relu_fc
I0403 17:43:26.509896 14748 net.cpp:91] Creating Layer loss1/relu_fc
I0403 17:43:26.509914 14748 net.cpp:425] loss1/relu_fc <- loss1/fc
I0403 17:43:26.509937 14748 net.cpp:386] loss1/relu_fc -> loss1/fc (in-place)
I0403 17:43:26.510130 14748 net.cpp:141] Setting up loss1/relu_fc
I0403 17:43:26.510159 14748 net.cpp:148] Top shape: 24 1024 (24576)
I0403 17:43:26.510175 14748 net.cpp:156] Memory required for data: 946091040
I0403 17:43:26.510191 14748 layer_factory.hpp:77] Creating layer loss1/drop_fc
I0403 17:43:26.510217 14748 net.cpp:91] Creating Layer loss1/drop_fc
I0403 17:43:26.510236 14748 net.cpp:425] loss1/drop_fc <- loss1/fc
I0403 17:43:26.510256 14748 net.cpp:386] loss1/drop_fc -> loss1/fc (in-place)
I0403 17:43:26.510309 14748 net.cpp:141] Setting up loss1/drop_fc
I0403 17:43:26.510334 14748 net.cpp:148] Top shape: 24 1024 (24576)
I0403 17:43:26.510349 14748 net.cpp:156] Memory required for data: 946189344
I0403 17:43:26.510365 14748 layer_factory.hpp:77] Creating layer loss1/classifier_plantvillage
I0403 17:43:26.510388 14748 net.cpp:91] Creating Layer loss1/classifier_plantvillage
I0403 17:43:26.510406 14748 net.cpp:425] loss1/classifier_plantvillage <- loss1/fc
I0403 17:43:26.510426 14748 net.cpp:399] loss1/classifier_plantvillage -> loss1/classifier_plantvillage
I0403 17:43:26.511380 14748 net.cpp:141] Setting up loss1/classifier_plantvillage
I0403 17:43:26.511414 14748 net.cpp:148] Top shape: 24 38 (912)
I0403 17:43:26.511430 14748 net.cpp:156] Memory required for data: 946192992
I0403 17:43:26.511451 14748 layer_factory.hpp:77] Creating layer loss1/classifier_plantvillage_loss1/classifier_plantvillage_0_split
I0403 17:43:26.511471 14748 net.cpp:91] Creating Layer loss1/classifier_plantvillage_loss1/classifier_plantvillage_0_split
I0403 17:43:26.511487 14748 net.cpp:425] loss1/classifier_plantvillage_loss1/classifier_plantvillage_0_split <- loss1/classifier_plantvillage
I0403 17:43:26.511518 14748 net.cpp:399] loss1/classifier_plantvillage_loss1/classifier_plantvillage_0_split -> loss1/classifier_plantvillage_loss1/classifier_plantvillage_0_split_0
I0403 17:43:26.511539 14748 net.cpp:399] loss1/classifier_plantvillage_loss1/classifier_plantvillage_0_split -> loss1/classifier_plantvillage_loss1/classifier_plantvillage_0_split_1
I0403 17:43:26.511561 14748 net.cpp:399] loss1/classifier_plantvillage_loss1/classifier_plantvillage_0_split -> loss1/classifier_plantvillage_loss1/classifier_plantvillage_0_split_2
I0403 17:43:26.511629 14748 net.cpp:141] Setting up loss1/classifier_plantvillage_loss1/classifier_plantvillage_0_split
I0403 17:43:26.511653 14748 net.cpp:148] Top shape: 24 38 (912)
I0403 17:43:26.511670 14748 net.cpp:148] Top shape: 24 38 (912)
I0403 17:43:26.511685 14748 net.cpp:148] Top shape: 24 38 (912)
I0403 17:43:26.511700 14748 net.cpp:156] Memory required for data: 946203936
I0403 17:43:26.511715 14748 layer_factory.hpp:77] Creating layer inception_4b/1x1
I0403 17:43:26.511736 14748 net.cpp:91] Creating Layer inception_4b/1x1
I0403 17:43:26.511770 14748 net.cpp:425] inception_4b/1x1 <- inception_4a/output_inception_4a/output_0_split_1
I0403 17:43:26.511795 14748 net.cpp:399] inception_4b/1x1 -> inception_4b/1x1
I0403 17:43:26.513476 14748 net.cpp:141] Setting up inception_4b/1x1
I0403 17:43:26.513507 14748 net.cpp:148] Top shape: 24 160 14 14 (752640)
I0403 17:43:26.513525 14748 net.cpp:156] Memory required for data: 949214496
I0403 17:43:26.513543 14748 layer_factory.hpp:77] Creating layer inception_4b/relu_1x1
I0403 17:43:26.513563 14748 net.cpp:91] Creating Layer inception_4b/relu_1x1
I0403 17:43:26.513581 14748 net.cpp:425] inception_4b/relu_1x1 <- inception_4b/1x1
I0403 17:43:26.513598 14748 net.cpp:386] inception_4b/relu_1x1 -> inception_4b/1x1 (in-place)
I0403 17:43:26.513784 14748 net.cpp:141] Setting up inception_4b/relu_1x1
I0403 17:43:26.513809 14748 net.cpp:148] Top shape: 24 160 14 14 (752640)
I0403 17:43:26.513825 14748 net.cpp:156] Memory required for data: 952225056
I0403 17:43:26.513841 14748 layer_factory.hpp:77] Creating layer inception_4b/3x3_reduce
I0403 17:43:26.513864 14748 net.cpp:91] Creating Layer inception_4b/3x3_reduce
I0403 17:43:26.513883 14748 net.cpp:425] inception_4b/3x3_reduce <- inception_4a/output_inception_4a/output_0_split_2
I0403 17:43:26.513907 14748 net.cpp:399] inception_4b/3x3_reduce -> inception_4b/3x3_reduce
I0403 17:43:26.515282 14748 net.cpp:141] Setting up inception_4b/3x3_reduce
I0403 17:43:26.515311 14748 net.cpp:148] Top shape: 24 112 14 14 (526848)
I0403 17:43:26.515326 14748 net.cpp:156] Memory required for data: 954332448
I0403 17:43:26.515347 14748 layer_factory.hpp:77] Creating layer inception_4b/relu_3x3_reduce
I0403 17:43:26.515365 14748 net.cpp:91] Creating Layer inception_4b/relu_3x3_reduce
I0403 17:43:26.515386 14748 net.cpp:425] inception_4b/relu_3x3_reduce <- inception_4b/3x3_reduce
I0403 17:43:26.515404 14748 net.cpp:386] inception_4b/relu_3x3_reduce -> inception_4b/3x3_reduce (in-place)
I0403 17:43:26.515689 14748 net.cpp:141] Setting up inception_4b/relu_3x3_reduce
I0403 17:43:26.515717 14748 net.cpp:148] Top shape: 24 112 14 14 (526848)
I0403 17:43:26.515733 14748 net.cpp:156] Memory required for data: 956439840
I0403 17:43:26.515749 14748 layer_factory.hpp:77] Creating layer inception_4b/3x3
I0403 17:43:26.515772 14748 net.cpp:91] Creating Layer inception_4b/3x3
I0403 17:43:26.515791 14748 net.cpp:425] inception_4b/3x3 <- inception_4b/3x3_reduce
I0403 17:43:26.515816 14748 net.cpp:399] inception_4b/3x3 -> inception_4b/3x3
I0403 17:43:26.518864 14748 net.cpp:141] Setting up inception_4b/3x3
I0403 17:43:26.518894 14748 net.cpp:148] Top shape: 24 224 14 14 (1053696)
I0403 17:43:26.518910 14748 net.cpp:156] Memory required for data: 960654624
I0403 17:43:26.518931 14748 layer_factory.hpp:77] Creating layer inception_4b/relu_3x3
I0403 17:43:26.518956 14748 net.cpp:91] Creating Layer inception_4b/relu_3x3
I0403 17:43:26.518975 14748 net.cpp:425] inception_4b/relu_3x3 <- inception_4b/3x3
I0403 17:43:26.518993 14748 net.cpp:386] inception_4b/relu_3x3 -> inception_4b/3x3 (in-place)
I0403 17:43:26.519181 14748 net.cpp:141] Setting up inception_4b/relu_3x3
I0403 17:43:26.519208 14748 net.cpp:148] Top shape: 24 224 14 14 (1053696)
I0403 17:43:26.519224 14748 net.cpp:156] Memory required for data: 964869408
I0403 17:43:26.519239 14748 layer_factory.hpp:77] Creating layer inception_4b/5x5_reduce
I0403 17:43:26.519263 14748 net.cpp:91] Creating Layer inception_4b/5x5_reduce
I0403 17:43:26.519280 14748 net.cpp:425] inception_4b/5x5_reduce <- inception_4a/output_inception_4a/output_0_split_3
I0403 17:43:26.519300 14748 net.cpp:399] inception_4b/5x5_reduce -> inception_4b/5x5_reduce
I0403 17:43:26.520408 14748 net.cpp:141] Setting up inception_4b/5x5_reduce
I0403 17:43:26.520439 14748 net.cpp:148] Top shape: 24 24 14 14 (112896)
I0403 17:43:26.520457 14748 net.cpp:156] Memory required for data: 965320992
I0403 17:43:26.520476 14748 layer_factory.hpp:77] Creating layer inception_4b/relu_5x5_reduce
I0403 17:43:26.520495 14748 net.cpp:91] Creating Layer inception_4b/relu_5x5_reduce
I0403 17:43:26.520526 14748 net.cpp:425] inception_4b/relu_5x5_reduce <- inception_4b/5x5_reduce
I0403 17:43:26.520548 14748 net.cpp:386] inception_4b/relu_5x5_reduce -> inception_4b/5x5_reduce (in-place)
I0403 17:43:26.520740 14748 net.cpp:141] Setting up inception_4b/relu_5x5_reduce
I0403 17:43:26.520764 14748 net.cpp:148] Top shape: 24 24 14 14 (112896)
I0403 17:43:26.520781 14748 net.cpp:156] Memory required for data: 965772576
I0403 17:43:26.520795 14748 layer_factory.hpp:77] Creating layer inception_4b/5x5
I0403 17:43:26.520819 14748 net.cpp:91] Creating Layer inception_4b/5x5
I0403 17:43:26.520838 14748 net.cpp:425] inception_4b/5x5 <- inception_4b/5x5_reduce
I0403 17:43:26.520859 14748 net.cpp:399] inception_4b/5x5 -> inception_4b/5x5
I0403 17:43:26.522128 14748 net.cpp:141] Setting up inception_4b/5x5
I0403 17:43:26.522158 14748 net.cpp:148] Top shape: 24 64 14 14 (301056)
I0403 17:43:26.522176 14748 net.cpp:156] Memory required for data: 966976800
I0403 17:43:26.522195 14748 layer_factory.hpp:77] Creating layer inception_4b/relu_5x5
I0403 17:43:26.522214 14748 net.cpp:91] Creating Layer inception_4b/relu_5x5
I0403 17:43:26.522231 14748 net.cpp:425] inception_4b/relu_5x5 <- inception_4b/5x5
I0403 17:43:26.522250 14748 net.cpp:386] inception_4b/relu_5x5 -> inception_4b/5x5 (in-place)
I0403 17:43:26.522544 14748 net.cpp:141] Setting up inception_4b/relu_5x5
I0403 17:43:26.522574 14748 net.cpp:148] Top shape: 24 64 14 14 (301056)
I0403 17:43:26.522590 14748 net.cpp:156] Memory required for data: 968181024
I0403 17:43:26.522605 14748 layer_factory.hpp:77] Creating layer inception_4b/pool
I0403 17:43:26.522624 14748 net.cpp:91] Creating Layer inception_4b/pool
I0403 17:43:26.522642 14748 net.cpp:425] inception_4b/pool <- inception_4a/output_inception_4a/output_0_split_4
I0403 17:43:26.522663 14748 net.cpp:399] inception_4b/pool -> inception_4b/pool
I0403 17:43:26.522729 14748 net.cpp:141] Setting up inception_4b/pool
I0403 17:43:26.522753 14748 net.cpp:148] Top shape: 24 512 14 14 (2408448)
I0403 17:43:26.522768 14748 net.cpp:156] Memory required for data: 977814816
I0403 17:43:26.522784 14748 layer_factory.hpp:77] Creating layer inception_4b/pool_proj
I0403 17:43:26.522807 14748 net.cpp:91] Creating Layer inception_4b/pool_proj
I0403 17:43:26.522825 14748 net.cpp:425] inception_4b/pool_proj <- inception_4b/pool
I0403 17:43:26.522847 14748 net.cpp:399] inception_4b/pool_proj -> inception_4b/pool_proj
I0403 17:43:26.524091 14748 net.cpp:141] Setting up inception_4b/pool_proj
I0403 17:43:26.524119 14748 net.cpp:148] Top shape: 24 64 14 14 (301056)
I0403 17:43:26.524135 14748 net.cpp:156] Memory required for data: 979019040
I0403 17:43:26.524154 14748 layer_factory.hpp:77] Creating layer inception_4b/relu_pool_proj
I0403 17:43:26.524173 14748 net.cpp:91] Creating Layer inception_4b/relu_pool_proj
I0403 17:43:26.524190 14748 net.cpp:425] inception_4b/relu_pool_proj <- inception_4b/pool_proj
I0403 17:43:26.524211 14748 net.cpp:386] inception_4b/relu_pool_proj -> inception_4b/pool_proj (in-place)
I0403 17:43:26.524399 14748 net.cpp:141] Setting up inception_4b/relu_pool_proj
I0403 17:43:26.524425 14748 net.cpp:148] Top shape: 24 64 14 14 (301056)
I0403 17:43:26.524440 14748 net.cpp:156] Memory required for data: 980223264
I0403 17:43:26.524454 14748 layer_factory.hpp:77] Creating layer inception_4b/output
I0403 17:43:26.524472 14748 net.cpp:91] Creating Layer inception_4b/output
I0403 17:43:26.524488 14748 net.cpp:425] inception_4b/output <- inception_4b/1x1
I0403 17:43:26.524508 14748 net.cpp:425] inception_4b/output <- inception_4b/3x3
I0403 17:43:26.524525 14748 net.cpp:425] inception_4b/output <- inception_4b/5x5
I0403 17:43:26.524543 14748 net.cpp:425] inception_4b/output <- inception_4b/pool_proj
I0403 17:43:26.524560 14748 net.cpp:399] inception_4b/output -> inception_4b/output
I0403 17:43:26.524606 14748 net.cpp:141] Setting up inception_4b/output
I0403 17:43:26.524632 14748 net.cpp:148] Top shape: 24 512 14 14 (2408448)
I0403 17:43:26.524648 14748 net.cpp:156] Memory required for data: 989857056
I0403 17:43:26.524678 14748 layer_factory.hpp:77] Creating layer inception_4b/output_inception_4b/output_0_split
I0403 17:43:26.524698 14748 net.cpp:91] Creating Layer inception_4b/output_inception_4b/output_0_split
I0403 17:43:26.524714 14748 net.cpp:425] inception_4b/output_inception_4b/output_0_split <- inception_4b/output
I0403 17:43:26.524735 14748 net.cpp:399] inception_4b/output_inception_4b/output_0_split -> inception_4b/output_inception_4b/output_0_split_0
I0403 17:43:26.524757 14748 net.cpp:399] inception_4b/output_inception_4b/output_0_split -> inception_4b/output_inception_4b/output_0_split_1
I0403 17:43:26.524780 14748 net.cpp:399] inception_4b/output_inception_4b/output_0_split -> inception_4b/output_inception_4b/output_0_split_2
I0403 17:43:26.524801 14748 net.cpp:399] inception_4b/output_inception_4b/output_0_split -> inception_4b/output_inception_4b/output_0_split_3
I0403 17:43:26.524883 14748 net.cpp:141] Setting up inception_4b/output_inception_4b/output_0_split
I0403 17:43:26.524909 14748 net.cpp:148] Top shape: 24 512 14 14 (2408448)
I0403 17:43:26.524930 14748 net.cpp:148] Top shape: 24 512 14 14 (2408448)
I0403 17:43:26.524948 14748 net.cpp:148] Top shape: 24 512 14 14 (2408448)
I0403 17:43:26.524966 14748 net.cpp:148] Top shape: 24 512 14 14 (2408448)
I0403 17:43:26.524981 14748 net.cpp:156] Memory required for data: 1028392224
I0403 17:43:26.524996 14748 layer_factory.hpp:77] Creating layer inception_4c/1x1
I0403 17:43:26.525019 14748 net.cpp:91] Creating Layer inception_4c/1x1
I0403 17:43:26.525038 14748 net.cpp:425] inception_4c/1x1 <- inception_4b/output_inception_4b/output_0_split_0
I0403 17:43:26.525058 14748 net.cpp:399] inception_4c/1x1 -> inception_4c/1x1
I0403 17:43:26.526520 14748 net.cpp:141] Setting up inception_4c/1x1
I0403 17:43:26.526547 14748 net.cpp:148] Top shape: 24 128 14 14 (602112)
I0403 17:43:26.526563 14748 net.cpp:156] Memory required for data: 1030800672
I0403 17:43:26.526582 14748 layer_factory.hpp:77] Creating layer inception_4c/relu_1x1
I0403 17:43:26.526604 14748 net.cpp:91] Creating Layer inception_4c/relu_1x1
I0403 17:43:26.526623 14748 net.cpp:425] inception_4c/relu_1x1 <- inception_4c/1x1
I0403 17:43:26.526641 14748 net.cpp:386] inception_4c/relu_1x1 -> inception_4c/1x1 (in-place)
I0403 17:43:26.526829 14748 net.cpp:141] Setting up inception_4c/relu_1x1
I0403 17:43:26.526855 14748 net.cpp:148] Top shape: 24 128 14 14 (602112)
I0403 17:43:26.526870 14748 net.cpp:156] Memory required for data: 1033209120
I0403 17:43:26.526886 14748 layer_factory.hpp:77] Creating layer inception_4c/3x3_reduce
I0403 17:43:26.526911 14748 net.cpp:91] Creating Layer inception_4c/3x3_reduce
I0403 17:43:26.526932 14748 net.cpp:425] inception_4c/3x3_reduce <- inception_4b/output_inception_4b/output_0_split_1
I0403 17:43:26.526954 14748 net.cpp:399] inception_4c/3x3_reduce -> inception_4c/3x3_reduce
I0403 17:43:26.528940 14748 net.cpp:141] Setting up inception_4c/3x3_reduce
I0403 17:43:26.528975 14748 net.cpp:148] Top shape: 24 128 14 14 (602112)
I0403 17:43:26.528993 14748 net.cpp:156] Memory required for data: 1035617568
I0403 17:43:26.529013 14748 layer_factory.hpp:77] Creating layer inception_4c/relu_3x3_reduce
I0403 17:43:26.529031 14748 net.cpp:91] Creating Layer inception_4c/relu_3x3_reduce
I0403 17:43:26.529059 14748 net.cpp:425] inception_4c/relu_3x3_reduce <- inception_4c/3x3_reduce
I0403 17:43:26.529079 14748 net.cpp:386] inception_4c/relu_3x3_reduce -> inception_4c/3x3_reduce (in-place)
I0403 17:43:26.529364 14748 net.cpp:141] Setting up inception_4c/relu_3x3_reduce
I0403 17:43:26.529392 14748 net.cpp:148] Top shape: 24 128 14 14 (602112)
I0403 17:43:26.529409 14748 net.cpp:156] Memory required for data: 1038026016
I0403 17:43:26.529424 14748 layer_factory.hpp:77] Creating layer inception_4c/3x3
I0403 17:43:26.529448 14748 net.cpp:91] Creating Layer inception_4c/3x3
I0403 17:43:26.529465 14748 net.cpp:425] inception_4c/3x3 <- inception_4c/3x3_reduce
I0403 17:43:26.529485 14748 net.cpp:399] inception_4c/3x3 -> inception_4c/3x3
I0403 17:43:26.533082 14748 net.cpp:141] Setting up inception_4c/3x3
I0403 17:43:26.533123 14748 net.cpp:148] Top shape: 24 256 14 14 (1204224)
I0403 17:43:26.533140 14748 net.cpp:156] Memory required for data: 1042842912
I0403 17:43:26.533171 14748 layer_factory.hpp:77] Creating layer inception_4c/relu_3x3
I0403 17:43:26.533192 14748 net.cpp:91] Creating Layer inception_4c/relu_3x3
I0403 17:43:26.533221 14748 net.cpp:425] inception_4c/relu_3x3 <- inception_4c/3x3
I0403 17:43:26.533241 14748 net.cpp:386] inception_4c/relu_3x3 -> inception_4c/3x3 (in-place)
I0403 17:43:26.533429 14748 net.cpp:141] Setting up inception_4c/relu_3x3
I0403 17:43:26.533457 14748 net.cpp:148] Top shape: 24 256 14 14 (1204224)
I0403 17:43:26.533473 14748 net.cpp:156] Memory required for data: 1047659808
I0403 17:43:26.533488 14748 layer_factory.hpp:77] Creating layer inception_4c/5x5_reduce
I0403 17:43:26.533524 14748 net.cpp:91] Creating Layer inception_4c/5x5_reduce
I0403 17:43:26.533542 14748 net.cpp:425] inception_4c/5x5_reduce <- inception_4b/output_inception_4b/output_0_split_2
I0403 17:43:26.533561 14748 net.cpp:399] inception_4c/5x5_reduce -> inception_4c/5x5_reduce
I0403 17:43:26.534644 14748 net.cpp:141] Setting up inception_4c/5x5_reduce
I0403 17:43:26.534675 14748 net.cpp:148] Top shape: 24 24 14 14 (112896)
I0403 17:43:26.534692 14748 net.cpp:156] Memory required for data: 1048111392
I0403 17:43:26.534710 14748 layer_factory.hpp:77] Creating layer inception_4c/relu_5x5_reduce
I0403 17:43:26.534729 14748 net.cpp:91] Creating Layer inception_4c/relu_5x5_reduce
I0403 17:43:26.534745 14748 net.cpp:425] inception_4c/relu_5x5_reduce <- inception_4c/5x5_reduce
I0403 17:43:26.534765 14748 net.cpp:386] inception_4c/relu_5x5_reduce -> inception_4c/5x5_reduce (in-place)
I0403 17:43:26.534953 14748 net.cpp:141] Setting up inception_4c/relu_5x5_reduce
I0403 17:43:26.534984 14748 net.cpp:148] Top shape: 24 24 14 14 (112896)
I0403 17:43:26.535012 14748 net.cpp:156] Memory required for data: 1048562976
I0403 17:43:26.535028 14748 layer_factory.hpp:77] Creating layer inception_4c/5x5
I0403 17:43:26.535053 14748 net.cpp:91] Creating Layer inception_4c/5x5
I0403 17:43:26.535071 14748 net.cpp:425] inception_4c/5x5 <- inception_4c/5x5_reduce
I0403 17:43:26.535092 14748 net.cpp:399] inception_4c/5x5 -> inception_4c/5x5
I0403 17:43:26.536348 14748 net.cpp:141] Setting up inception_4c/5x5
I0403 17:43:26.536375 14748 net.cpp:148] Top shape: 24 64 14 14 (301056)
I0403 17:43:26.536391 14748 net.cpp:156] Memory required for data: 1049767200
I0403 17:43:26.536409 14748 layer_factory.hpp:77] Creating layer inception_4c/relu_5x5
I0403 17:43:26.536432 14748 net.cpp:91] Creating Layer inception_4c/relu_5x5
I0403 17:43:26.536448 14748 net.cpp:425] inception_4c/relu_5x5 <- inception_4c/5x5
I0403 17:43:26.536465 14748 net.cpp:386] inception_4c/relu_5x5 -> inception_4c/5x5 (in-place)
I0403 17:43:26.536756 14748 net.cpp:141] Setting up inception_4c/relu_5x5
I0403 17:43:26.536782 14748 net.cpp:148] Top shape: 24 64 14 14 (301056)
I0403 17:43:26.536798 14748 net.cpp:156] Memory required for data: 1050971424
I0403 17:43:26.536813 14748 layer_factory.hpp:77] Creating layer inception_4c/pool
I0403 17:43:26.536834 14748 net.cpp:91] Creating Layer inception_4c/pool
I0403 17:43:26.536849 14748 net.cpp:425] inception_4c/pool <- inception_4b/output_inception_4b/output_0_split_3
I0403 17:43:26.536867 14748 net.cpp:399] inception_4c/pool -> inception_4c/pool
I0403 17:43:26.536933 14748 net.cpp:141] Setting up inception_4c/pool
I0403 17:43:26.536962 14748 net.cpp:148] Top shape: 24 512 14 14 (2408448)
I0403 17:43:26.536978 14748 net.cpp:156] Memory required for data: 1060605216
I0403 17:43:26.536993 14748 layer_factory.hpp:77] Creating layer inception_4c/pool_proj
I0403 17:43:26.537014 14748 net.cpp:91] Creating Layer inception_4c/pool_proj
I0403 17:43:26.537032 14748 net.cpp:425] inception_4c/pool_proj <- inception_4c/pool
I0403 17:43:26.537053 14748 net.cpp:399] inception_4c/pool_proj -> inception_4c/pool_proj
I0403 17:43:26.538282 14748 net.cpp:141] Setting up inception_4c/pool_proj
I0403 17:43:26.538312 14748 net.cpp:148] Top shape: 24 64 14 14 (301056)
I0403 17:43:26.538341 14748 net.cpp:156] Memory required for data: 1061809440
I0403 17:43:26.538362 14748 layer_factory.hpp:77] Creating layer inception_4c/relu_pool_proj
I0403 17:43:26.538380 14748 net.cpp:91] Creating Layer inception_4c/relu_pool_proj
I0403 17:43:26.538395 14748 net.cpp:425] inception_4c/relu_pool_proj <- inception_4c/pool_proj
I0403 17:43:26.538416 14748 net.cpp:386] inception_4c/relu_pool_proj -> inception_4c/pool_proj (in-place)
I0403 17:43:26.538599 14748 net.cpp:141] Setting up inception_4c/relu_pool_proj
I0403 17:43:26.538625 14748 net.cpp:148] Top shape: 24 64 14 14 (301056)
I0403 17:43:26.538640 14748 net.cpp:156] Memory required for data: 1063013664
I0403 17:43:26.538655 14748 layer_factory.hpp:77] Creating layer inception_4c/output
I0403 17:43:26.538672 14748 net.cpp:91] Creating Layer inception_4c/output
I0403 17:43:26.538687 14748 net.cpp:425] inception_4c/output <- inception_4c/1x1
I0403 17:43:26.538704 14748 net.cpp:425] inception_4c/output <- inception_4c/3x3
I0403 17:43:26.538722 14748 net.cpp:425] inception_4c/output <- inception_4c/5x5
I0403 17:43:26.538738 14748 net.cpp:425] inception_4c/output <- inception_4c/pool_proj
I0403 17:43:26.538758 14748 net.cpp:399] inception_4c/output -> inception_4c/output
I0403 17:43:26.538803 14748 net.cpp:141] Setting up inception_4c/output
I0403 17:43:26.538830 14748 net.cpp:148] Top shape: 24 512 14 14 (2408448)
I0403 17:43:26.538846 14748 net.cpp:156] Memory required for data: 1072647456
I0403 17:43:26.538861 14748 layer_factory.hpp:77] Creating layer inception_4c/output_inception_4c/output_0_split
I0403 17:43:26.538878 14748 net.cpp:91] Creating Layer inception_4c/output_inception_4c/output_0_split
I0403 17:43:26.538893 14748 net.cpp:425] inception_4c/output_inception_4c/output_0_split <- inception_4c/output
I0403 17:43:26.538915 14748 net.cpp:399] inception_4c/output_inception_4c/output_0_split -> inception_4c/output_inception_4c/output_0_split_0
I0403 17:43:26.538936 14748 net.cpp:399] inception_4c/output_inception_4c/output_0_split -> inception_4c/output_inception_4c/output_0_split_1
I0403 17:43:26.538964 14748 net.cpp:399] inception_4c/output_inception_4c/output_0_split -> inception_4c/output_inception_4c/output_0_split_2
I0403 17:43:26.538985 14748 net.cpp:399] inception_4c/output_inception_4c/output_0_split -> inception_4c/output_inception_4c/output_0_split_3
I0403 17:43:26.539070 14748 net.cpp:141] Setting up inception_4c/output_inception_4c/output_0_split
I0403 17:43:26.539095 14748 net.cpp:148] Top shape: 24 512 14 14 (2408448)
I0403 17:43:26.539113 14748 net.cpp:148] Top shape: 24 512 14 14 (2408448)
I0403 17:43:26.539129 14748 net.cpp:148] Top shape: 24 512 14 14 (2408448)
I0403 17:43:26.539145 14748 net.cpp:148] Top shape: 24 512 14 14 (2408448)
I0403 17:43:26.539160 14748 net.cpp:156] Memory required for data: 1111182624
I0403 17:43:26.539173 14748 layer_factory.hpp:77] Creating layer inception_4d/1x1
I0403 17:43:26.539193 14748 net.cpp:91] Creating Layer inception_4d/1x1
I0403 17:43:26.539211 14748 net.cpp:425] inception_4d/1x1 <- inception_4c/output_inception_4c/output_0_split_0
I0403 17:43:26.539232 14748 net.cpp:399] inception_4d/1x1 -> inception_4d/1x1
I0403 17:43:26.540614 14748 net.cpp:141] Setting up inception_4d/1x1
I0403 17:43:26.540642 14748 net.cpp:148] Top shape: 24 112 14 14 (526848)
I0403 17:43:26.540657 14748 net.cpp:156] Memory required for data: 1113290016
I0403 17:43:26.540676 14748 layer_factory.hpp:77] Creating layer inception_4d/relu_1x1
I0403 17:43:26.540698 14748 net.cpp:91] Creating Layer inception_4d/relu_1x1
I0403 17:43:26.540714 14748 net.cpp:425] inception_4d/relu_1x1 <- inception_4d/1x1
I0403 17:43:26.540732 14748 net.cpp:386] inception_4d/relu_1x1 -> inception_4d/1x1 (in-place)
I0403 17:43:26.540917 14748 net.cpp:141] Setting up inception_4d/relu_1x1
I0403 17:43:26.540945 14748 net.cpp:148] Top shape: 24 112 14 14 (526848)
I0403 17:43:26.540964 14748 net.cpp:156] Memory required for data: 1115397408
I0403 17:43:26.540980 14748 layer_factory.hpp:77] Creating layer inception_4d/3x3_reduce
I0403 17:43:26.541016 14748 net.cpp:91] Creating Layer inception_4d/3x3_reduce
I0403 17:43:26.541035 14748 net.cpp:425] inception_4d/3x3_reduce <- inception_4c/output_inception_4c/output_0_split_1
I0403 17:43:26.541055 14748 net.cpp:399] inception_4d/3x3_reduce -> inception_4d/3x3_reduce
I0403 17:43:26.542556 14748 net.cpp:141] Setting up inception_4d/3x3_reduce
I0403 17:43:26.542582 14748 net.cpp:148] Top shape: 24 144 14 14 (677376)
I0403 17:43:26.542598 14748 net.cpp:156] Memory required for data: 1118106912
I0403 17:43:26.542616 14748 layer_factory.hpp:77] Creating layer inception_4d/relu_3x3_reduce
I0403 17:43:26.542637 14748 net.cpp:91] Creating Layer inception_4d/relu_3x3_reduce
I0403 17:43:26.542654 14748 net.cpp:425] inception_4d/relu_3x3_reduce <- inception_4d/3x3_reduce
I0403 17:43:26.542672 14748 net.cpp:386] inception_4d/relu_3x3_reduce -> inception_4d/3x3_reduce (in-place)
I0403 17:43:26.542963 14748 net.cpp:141] Setting up inception_4d/relu_3x3_reduce
I0403 17:43:26.542989 14748 net.cpp:148] Top shape: 24 144 14 14 (677376)
I0403 17:43:26.543004 14748 net.cpp:156] Memory required for data: 1120816416
I0403 17:43:26.543020 14748 layer_factory.hpp:77] Creating layer inception_4d/3x3
I0403 17:43:26.543042 14748 net.cpp:91] Creating Layer inception_4d/3x3
I0403 17:43:26.543061 14748 net.cpp:425] inception_4d/3x3 <- inception_4d/3x3_reduce
I0403 17:43:26.543084 14748 net.cpp:399] inception_4d/3x3 -> inception_4d/3x3
I0403 17:43:26.547355 14748 net.cpp:141] Setting up inception_4d/3x3
I0403 17:43:26.547386 14748 net.cpp:148] Top shape: 24 288 14 14 (1354752)
I0403 17:43:26.547405 14748 net.cpp:156] Memory required for data: 1126235424
I0403 17:43:26.547423 14748 layer_factory.hpp:77] Creating layer inception_4d/relu_3x3
I0403 17:43:26.547446 14748 net.cpp:91] Creating Layer inception_4d/relu_3x3
I0403 17:43:26.547463 14748 net.cpp:425] inception_4d/relu_3x3 <- inception_4d/3x3
I0403 17:43:26.547482 14748 net.cpp:386] inception_4d/relu_3x3 -> inception_4d/3x3 (in-place)
I0403 17:43:26.547667 14748 net.cpp:141] Setting up inception_4d/relu_3x3
I0403 17:43:26.547693 14748 net.cpp:148] Top shape: 24 288 14 14 (1354752)
I0403 17:43:26.547708 14748 net.cpp:156] Memory required for data: 1131654432
I0403 17:43:26.547724 14748 layer_factory.hpp:77] Creating layer inception_4d/5x5_reduce
I0403 17:43:26.547745 14748 net.cpp:91] Creating Layer inception_4d/5x5_reduce
I0403 17:43:26.547763 14748 net.cpp:425] inception_4d/5x5_reduce <- inception_4c/output_inception_4c/output_0_split_2
I0403 17:43:26.547785 14748 net.cpp:399] inception_4d/5x5_reduce -> inception_4d/5x5_reduce
I0403 17:43:26.548936 14748 net.cpp:141] Setting up inception_4d/5x5_reduce
I0403 17:43:26.548970 14748 net.cpp:148] Top shape: 24 32 14 14 (150528)
I0403 17:43:26.548987 14748 net.cpp:156] Memory required for data: 1132256544
I0403 17:43:26.549006 14748 layer_factory.hpp:77] Creating layer inception_4d/relu_5x5_reduce
I0403 17:43:26.549026 14748 net.cpp:91] Creating Layer inception_4d/relu_5x5_reduce
I0403 17:43:26.549042 14748 net.cpp:425] inception_4d/relu_5x5_reduce <- inception_4d/5x5_reduce
I0403 17:43:26.549060 14748 net.cpp:386] inception_4d/relu_5x5_reduce -> inception_4d/5x5_reduce (in-place)
I0403 17:43:26.549249 14748 net.cpp:141] Setting up inception_4d/relu_5x5_reduce
I0403 17:43:26.549276 14748 net.cpp:148] Top shape: 24 32 14 14 (150528)
I0403 17:43:26.549293 14748 net.cpp:156] Memory required for data: 1132858656
I0403 17:43:26.549309 14748 layer_factory.hpp:77] Creating layer inception_4d/5x5
I0403 17:43:26.549331 14748 net.cpp:91] Creating Layer inception_4d/5x5
I0403 17:43:26.549350 14748 net.cpp:425] inception_4d/5x5 <- inception_4d/5x5_reduce
I0403 17:43:26.549368 14748 net.cpp:399] inception_4d/5x5 -> inception_4d/5x5
I0403 17:43:26.550839 14748 net.cpp:141] Setting up inception_4d/5x5
I0403 17:43:26.550868 14748 net.cpp:148] Top shape: 24 64 14 14 (301056)
I0403 17:43:26.550884 14748 net.cpp:156] Memory required for data: 1134062880
I0403 17:43:26.550902 14748 layer_factory.hpp:77] Creating layer inception_4d/relu_5x5
I0403 17:43:26.550942 14748 net.cpp:91] Creating Layer inception_4d/relu_5x5
I0403 17:43:26.550964 14748 net.cpp:425] inception_4d/relu_5x5 <- inception_4d/5x5
I0403 17:43:26.550986 14748 net.cpp:386] inception_4d/relu_5x5 -> inception_4d/5x5 (in-place)
I0403 17:43:26.551287 14748 net.cpp:141] Setting up inception_4d/relu_5x5
I0403 17:43:26.551313 14748 net.cpp:148] Top shape: 24 64 14 14 (301056)
I0403 17:43:26.551328 14748 net.cpp:156] Memory required for data: 1135267104
I0403 17:43:26.551344 14748 layer_factory.hpp:77] Creating layer inception_4d/pool
I0403 17:43:26.551362 14748 net.cpp:91] Creating Layer inception_4d/pool
I0403 17:43:26.551378 14748 net.cpp:425] inception_4d/pool <- inception_4c/output_inception_4c/output_0_split_3
I0403 17:43:26.551398 14748 net.cpp:399] inception_4d/pool -> inception_4d/pool
I0403 17:43:26.551465 14748 net.cpp:141] Setting up inception_4d/pool
I0403 17:43:26.551491 14748 net.cpp:148] Top shape: 24 512 14 14 (2408448)
I0403 17:43:26.551506 14748 net.cpp:156] Memory required for data: 1144900896
I0403 17:43:26.551522 14748 layer_factory.hpp:77] Creating layer inception_4d/pool_proj
I0403 17:43:26.551543 14748 net.cpp:91] Creating Layer inception_4d/pool_proj
I0403 17:43:26.551561 14748 net.cpp:425] inception_4d/pool_proj <- inception_4d/pool
I0403 17:43:26.551580 14748 net.cpp:399] inception_4d/pool_proj -> inception_4d/pool_proj
I0403 17:43:26.553382 14748 net.cpp:141] Setting up inception_4d/pool_proj
I0403 17:43:26.553413 14748 net.cpp:148] Top shape: 24 64 14 14 (301056)
I0403 17:43:26.553428 14748 net.cpp:156] Memory required for data: 1146105120
I0403 17:43:26.553447 14748 layer_factory.hpp:77] Creating layer inception_4d/relu_pool_proj
I0403 17:43:26.553467 14748 net.cpp:91] Creating Layer inception_4d/relu_pool_proj
I0403 17:43:26.553484 14748 net.cpp:425] inception_4d/relu_pool_proj <- inception_4d/pool_proj
I0403 17:43:26.553503 14748 net.cpp:386] inception_4d/relu_pool_proj -> inception_4d/pool_proj (in-place)
I0403 17:43:26.553689 14748 net.cpp:141] Setting up inception_4d/relu_pool_proj
I0403 17:43:26.553714 14748 net.cpp:148] Top shape: 24 64 14 14 (301056)
I0403 17:43:26.553728 14748 net.cpp:156] Memory required for data: 1147309344
I0403 17:43:26.553745 14748 layer_factory.hpp:77] Creating layer inception_4d/output
I0403 17:43:26.553761 14748 net.cpp:91] Creating Layer inception_4d/output
I0403 17:43:26.553777 14748 net.cpp:425] inception_4d/output <- inception_4d/1x1
I0403 17:43:26.553794 14748 net.cpp:425] inception_4d/output <- inception_4d/3x3
I0403 17:43:26.553812 14748 net.cpp:425] inception_4d/output <- inception_4d/5x5
I0403 17:43:26.553828 14748 net.cpp:425] inception_4d/output <- inception_4d/pool_proj
I0403 17:43:26.553846 14748 net.cpp:399] inception_4d/output -> inception_4d/output
I0403 17:43:26.553894 14748 net.cpp:141] Setting up inception_4d/output
I0403 17:43:26.553920 14748 net.cpp:148] Top shape: 24 528 14 14 (2483712)
I0403 17:43:26.553936 14748 net.cpp:156] Memory required for data: 1157244192
I0403 17:43:26.553956 14748 layer_factory.hpp:77] Creating layer inception_4d/output_inception_4d/output_0_split
I0403 17:43:26.553974 14748 net.cpp:91] Creating Layer inception_4d/output_inception_4d/output_0_split
I0403 17:43:26.553990 14748 net.cpp:425] inception_4d/output_inception_4d/output_0_split <- inception_4d/output
I0403 17:43:26.554008 14748 net.cpp:399] inception_4d/output_inception_4d/output_0_split -> inception_4d/output_inception_4d/output_0_split_0
I0403 17:43:26.554029 14748 net.cpp:399] inception_4d/output_inception_4d/output_0_split -> inception_4d/output_inception_4d/output_0_split_1
I0403 17:43:26.554052 14748 net.cpp:399] inception_4d/output_inception_4d/output_0_split -> inception_4d/output_inception_4d/output_0_split_2
I0403 17:43:26.554075 14748 net.cpp:399] inception_4d/output_inception_4d/output_0_split -> inception_4d/output_inception_4d/output_0_split_3
I0403 17:43:26.554095 14748 net.cpp:399] inception_4d/output_inception_4d/output_0_split -> inception_4d/output_inception_4d/output_0_split_4
I0403 17:43:26.554200 14748 net.cpp:141] Setting up inception_4d/output_inception_4d/output_0_split
I0403 17:43:26.554236 14748 net.cpp:148] Top shape: 24 528 14 14 (2483712)
I0403 17:43:26.554253 14748 net.cpp:148] Top shape: 24 528 14 14 (2483712)
I0403 17:43:26.554270 14748 net.cpp:148] Top shape: 24 528 14 14 (2483712)
I0403 17:43:26.554286 14748 net.cpp:148] Top shape: 24 528 14 14 (2483712)
I0403 17:43:26.554301 14748 net.cpp:148] Top shape: 24 528 14 14 (2483712)
I0403 17:43:26.554316 14748 net.cpp:156] Memory required for data: 1206918432
I0403 17:43:26.554330 14748 layer_factory.hpp:77] Creating layer loss2/ave_pool
I0403 17:43:26.554350 14748 net.cpp:91] Creating Layer loss2/ave_pool
I0403 17:43:26.554368 14748 net.cpp:425] loss2/ave_pool <- inception_4d/output_inception_4d/output_0_split_0
I0403 17:43:26.554386 14748 net.cpp:399] loss2/ave_pool -> loss2/ave_pool
I0403 17:43:26.554702 14748 net.cpp:141] Setting up loss2/ave_pool
I0403 17:43:26.554728 14748 net.cpp:148] Top shape: 24 528 4 4 (202752)
I0403 17:43:26.554743 14748 net.cpp:156] Memory required for data: 1207729440
I0403 17:43:26.554757 14748 layer_factory.hpp:77] Creating layer loss2/conv
I0403 17:43:26.554781 14748 net.cpp:91] Creating Layer loss2/conv
I0403 17:43:26.554800 14748 net.cpp:425] loss2/conv <- loss2/ave_pool
I0403 17:43:26.554818 14748 net.cpp:399] loss2/conv -> loss2/conv
I0403 17:43:26.556768 14748 net.cpp:141] Setting up loss2/conv
I0403 17:43:26.556797 14748 net.cpp:148] Top shape: 24 128 4 4 (49152)
I0403 17:43:26.556813 14748 net.cpp:156] Memory required for data: 1207926048
I0403 17:43:26.556831 14748 layer_factory.hpp:77] Creating layer loss2/relu_conv
I0403 17:43:26.556850 14748 net.cpp:91] Creating Layer loss2/relu_conv
I0403 17:43:26.556866 14748 net.cpp:425] loss2/relu_conv <- loss2/conv
I0403 17:43:26.556886 14748 net.cpp:386] loss2/relu_conv -> loss2/conv (in-place)
I0403 17:43:26.557176 14748 net.cpp:141] Setting up loss2/relu_conv
I0403 17:43:26.557202 14748 net.cpp:148] Top shape: 24 128 4 4 (49152)
I0403 17:43:26.557217 14748 net.cpp:156] Memory required for data: 1208122656
I0403 17:43:26.557232 14748 layer_factory.hpp:77] Creating layer loss2/fc
I0403 17:43:26.557251 14748 net.cpp:91] Creating Layer loss2/fc
I0403 17:43:26.557268 14748 net.cpp:425] loss2/fc <- loss2/conv
I0403 17:43:26.557289 14748 net.cpp:399] loss2/fc -> loss2/fc
I0403 17:43:26.574923 14748 net.cpp:141] Setting up loss2/fc
I0403 17:43:26.574964 14748 net.cpp:148] Top shape: 24 1024 (24576)
I0403 17:43:26.574980 14748 net.cpp:156] Memory required for data: 1208220960
I0403 17:43:26.575000 14748 layer_factory.hpp:77] Creating layer loss2/relu_fc
I0403 17:43:26.575019 14748 net.cpp:91] Creating Layer loss2/relu_fc
I0403 17:43:26.575037 14748 net.cpp:425] loss2/relu_fc <- loss2/fc
I0403 17:43:26.575057 14748 net.cpp:386] loss2/relu_fc -> loss2/fc (in-place)
I0403 17:43:26.575374 14748 net.cpp:141] Setting up loss2/relu_fc
I0403 17:43:26.575404 14748 net.cpp:148] Top shape: 24 1024 (24576)
I0403 17:43:26.575422 14748 net.cpp:156] Memory required for data: 1208319264
I0403 17:43:26.575436 14748 layer_factory.hpp:77] Creating layer loss2/drop_fc
I0403 17:43:26.575455 14748 net.cpp:91] Creating Layer loss2/drop_fc
I0403 17:43:26.575472 14748 net.cpp:425] loss2/drop_fc <- loss2/fc
I0403 17:43:26.575503 14748 net.cpp:386] loss2/drop_fc -> loss2/fc (in-place)
I0403 17:43:26.575553 14748 net.cpp:141] Setting up loss2/drop_fc
I0403 17:43:26.575577 14748 net.cpp:148] Top shape: 24 1024 (24576)
I0403 17:43:26.575592 14748 net.cpp:156] Memory required for data: 1208417568
I0403 17:43:26.575606 14748 layer_factory.hpp:77] Creating layer loss2/classifier_plantvillage
I0403 17:43:26.575628 14748 net.cpp:91] Creating Layer loss2/classifier_plantvillage
I0403 17:43:26.575645 14748 net.cpp:425] loss2/classifier_plantvillage <- loss2/fc
I0403 17:43:26.575664 14748 net.cpp:399] loss2/classifier_plantvillage -> loss2/classifier_plantvillage
I0403 17:43:26.576071 14748 net.cpp:141] Setting up loss2/classifier_plantvillage
I0403 17:43:26.576097 14748 net.cpp:148] Top shape: 24 38 (912)
I0403 17:43:26.576129 14748 net.cpp:156] Memory required for data: 1208421216
I0403 17:43:26.576148 14748 layer_factory.hpp:77] Creating layer loss2/classifier_plantvillage_loss2/classifier_plantvillage_0_split
I0403 17:43:26.576167 14748 net.cpp:91] Creating Layer loss2/classifier_plantvillage_loss2/classifier_plantvillage_0_split
I0403 17:43:26.576184 14748 net.cpp:425] loss2/classifier_plantvillage_loss2/classifier_plantvillage_0_split <- loss2/classifier_plantvillage
I0403 17:43:26.576205 14748 net.cpp:399] loss2/classifier_plantvillage_loss2/classifier_plantvillage_0_split -> loss2/classifier_plantvillage_loss2/classifier_plantvillage_0_split_0
I0403 17:43:26.576225 14748 net.cpp:399] loss2/classifier_plantvillage_loss2/classifier_plantvillage_0_split -> loss2/classifier_plantvillage_loss2/classifier_plantvillage_0_split_1
I0403 17:43:26.576246 14748 net.cpp:399] loss2/classifier_plantvillage_loss2/classifier_plantvillage_0_split -> loss2/classifier_plantvillage_loss2/classifier_plantvillage_0_split_2
I0403 17:43:26.576323 14748 net.cpp:141] Setting up loss2/classifier_plantvillage_loss2/classifier_plantvillage_0_split
I0403 17:43:26.576347 14748 net.cpp:148] Top shape: 24 38 (912)
I0403 17:43:26.576364 14748 net.cpp:148] Top shape: 24 38 (912)
I0403 17:43:26.576380 14748 net.cpp:148] Top shape: 24 38 (912)
I0403 17:43:26.576392 14748 net.cpp:156] Memory required for data: 1208432160
I0403 17:43:26.576407 14748 layer_factory.hpp:77] Creating layer inception_4e/1x1
I0403 17:43:26.576429 14748 net.cpp:91] Creating Layer inception_4e/1x1
I0403 17:43:26.576447 14748 net.cpp:425] inception_4e/1x1 <- inception_4d/output_inception_4d/output_0_split_1
I0403 17:43:26.576467 14748 net.cpp:399] inception_4e/1x1 -> inception_4e/1x1
I0403 17:43:26.578297 14748 net.cpp:141] Setting up inception_4e/1x1
I0403 17:43:26.578325 14748 net.cpp:148] Top shape: 24 256 14 14 (1204224)
I0403 17:43:26.578341 14748 net.cpp:156] Memory required for data: 1213249056
I0403 17:43:26.578359 14748 layer_factory.hpp:77] Creating layer inception_4e/relu_1x1
I0403 17:43:26.578379 14748 net.cpp:91] Creating Layer inception_4e/relu_1x1
I0403 17:43:26.578397 14748 net.cpp:425] inception_4e/relu_1x1 <- inception_4e/1x1
I0403 17:43:26.578413 14748 net.cpp:386] inception_4e/relu_1x1 -> inception_4e/1x1 (in-place)
I0403 17:43:26.578709 14748 net.cpp:141] Setting up inception_4e/relu_1x1
I0403 17:43:26.578735 14748 net.cpp:148] Top shape: 24 256 14 14 (1204224)
I0403 17:43:26.578750 14748 net.cpp:156] Memory required for data: 1218065952
I0403 17:43:26.578765 14748 layer_factory.hpp:77] Creating layer inception_4e/3x3_reduce
I0403 17:43:26.578788 14748 net.cpp:91] Creating Layer inception_4e/3x3_reduce
I0403 17:43:26.578805 14748 net.cpp:425] inception_4e/3x3_reduce <- inception_4d/output_inception_4d/output_0_split_2
I0403 17:43:26.578826 14748 net.cpp:399] inception_4e/3x3_reduce -> inception_4e/3x3_reduce
I0403 17:43:26.580977 14748 net.cpp:141] Setting up inception_4e/3x3_reduce
I0403 17:43:26.581007 14748 net.cpp:148] Top shape: 24 160 14 14 (752640)
I0403 17:43:26.581022 14748 net.cpp:156] Memory required for data: 1221076512
I0403 17:43:26.581039 14748 layer_factory.hpp:77] Creating layer inception_4e/relu_3x3_reduce
I0403 17:43:26.581058 14748 net.cpp:91] Creating Layer inception_4e/relu_3x3_reduce
I0403 17:43:26.581074 14748 net.cpp:425] inception_4e/relu_3x3_reduce <- inception_4e/3x3_reduce
I0403 17:43:26.581094 14748 net.cpp:386] inception_4e/relu_3x3_reduce -> inception_4e/3x3_reduce (in-place)
I0403 17:43:26.581281 14748 net.cpp:141] Setting up inception_4e/relu_3x3_reduce
I0403 17:43:26.581306 14748 net.cpp:148] Top shape: 24 160 14 14 (752640)
I0403 17:43:26.581321 14748 net.cpp:156] Memory required for data: 1224087072
I0403 17:43:26.581336 14748 layer_factory.hpp:77] Creating layer inception_4e/3x3
I0403 17:43:26.581358 14748 net.cpp:91] Creating Layer inception_4e/3x3
I0403 17:43:26.581375 14748 net.cpp:425] inception_4e/3x3 <- inception_4e/3x3_reduce
I0403 17:43:26.581396 14748 net.cpp:399] inception_4e/3x3 -> inception_4e/3x3
I0403 17:43:26.586402 14748 net.cpp:141] Setting up inception_4e/3x3
I0403 17:43:26.586443 14748 net.cpp:148] Top shape: 24 320 14 14 (1505280)
I0403 17:43:26.586460 14748 net.cpp:156] Memory required for data: 1230108192
I0403 17:43:26.586479 14748 layer_factory.hpp:77] Creating layer inception_4e/relu_3x3
I0403 17:43:26.586499 14748 net.cpp:91] Creating Layer inception_4e/relu_3x3
I0403 17:43:26.586516 14748 net.cpp:425] inception_4e/relu_3x3 <- inception_4e/3x3
I0403 17:43:26.586534 14748 net.cpp:386] inception_4e/relu_3x3 -> inception_4e/3x3 (in-place)
I0403 17:43:26.586833 14748 net.cpp:141] Setting up inception_4e/relu_3x3
I0403 17:43:26.586859 14748 net.cpp:148] Top shape: 24 320 14 14 (1505280)
I0403 17:43:26.586877 14748 net.cpp:156] Memory required for data: 1236129312
I0403 17:43:26.586892 14748 layer_factory.hpp:77] Creating layer inception_4e/5x5_reduce
I0403 17:43:26.586913 14748 net.cpp:91] Creating Layer inception_4e/5x5_reduce
I0403 17:43:26.586930 14748 net.cpp:425] inception_4e/5x5_reduce <- inception_4d/output_inception_4d/output_0_split_3
I0403 17:43:26.586959 14748 net.cpp:399] inception_4e/5x5_reduce -> inception_4e/5x5_reduce
I0403 17:43:26.588040 14748 net.cpp:141] Setting up inception_4e/5x5_reduce
I0403 17:43:26.588068 14748 net.cpp:148] Top shape: 24 32 14 14 (150528)
I0403 17:43:26.588083 14748 net.cpp:156] Memory required for data: 1236731424
I0403 17:43:26.588101 14748 layer_factory.hpp:77] Creating layer inception_4e/relu_5x5_reduce
I0403 17:43:26.588119 14748 net.cpp:91] Creating Layer inception_4e/relu_5x5_reduce
I0403 17:43:26.588136 14748 net.cpp:425] inception_4e/relu_5x5_reduce <- inception_4e/5x5_reduce
I0403 17:43:26.588156 14748 net.cpp:386] inception_4e/relu_5x5_reduce -> inception_4e/5x5_reduce (in-place)
I0403 17:43:26.588454 14748 net.cpp:141] Setting up inception_4e/relu_5x5_reduce
I0403 17:43:26.588479 14748 net.cpp:148] Top shape: 24 32 14 14 (150528)
I0403 17:43:26.588495 14748 net.cpp:156] Memory required for data: 1237333536
I0403 17:43:26.588510 14748 layer_factory.hpp:77] Creating layer inception_4e/5x5
I0403 17:43:26.588548 14748 net.cpp:91] Creating Layer inception_4e/5x5
I0403 17:43:26.588567 14748 net.cpp:425] inception_4e/5x5 <- inception_4e/5x5_reduce
I0403 17:43:26.588588 14748 net.cpp:399] inception_4e/5x5 -> inception_4e/5x5
I0403 17:43:26.590426 14748 net.cpp:141] Setting up inception_4e/5x5
I0403 17:43:26.590457 14748 net.cpp:148] Top shape: 24 128 14 14 (602112)
I0403 17:43:26.590474 14748 net.cpp:156] Memory required for data: 1239741984
I0403 17:43:26.590493 14748 layer_factory.hpp:77] Creating layer inception_4e/relu_5x5
I0403 17:43:26.590512 14748 net.cpp:91] Creating Layer inception_4e/relu_5x5
I0403 17:43:26.590528 14748 net.cpp:425] inception_4e/relu_5x5 <- inception_4e/5x5
I0403 17:43:26.590548 14748 net.cpp:386] inception_4e/relu_5x5 -> inception_4e/5x5 (in-place)
I0403 17:43:26.590744 14748 net.cpp:141] Setting up inception_4e/relu_5x5
I0403 17:43:26.590770 14748 net.cpp:148] Top shape: 24 128 14 14 (602112)
I0403 17:43:26.590785 14748 net.cpp:156] Memory required for data: 1242150432
I0403 17:43:26.590800 14748 layer_factory.hpp:77] Creating layer inception_4e/pool
I0403 17:43:26.590818 14748 net.cpp:91] Creating Layer inception_4e/pool
I0403 17:43:26.590834 14748 net.cpp:425] inception_4e/pool <- inception_4d/output_inception_4d/output_0_split_4
I0403 17:43:26.590855 14748 net.cpp:399] inception_4e/pool -> inception_4e/pool
I0403 17:43:26.590925 14748 net.cpp:141] Setting up inception_4e/pool
I0403 17:43:26.590955 14748 net.cpp:148] Top shape: 24 528 14 14 (2483712)
I0403 17:43:26.590976 14748 net.cpp:156] Memory required for data: 1252085280
I0403 17:43:26.591002 14748 layer_factory.hpp:77] Creating layer inception_4e/pool_proj
I0403 17:43:26.591029 14748 net.cpp:91] Creating Layer inception_4e/pool_proj
I0403 17:43:26.591048 14748 net.cpp:425] inception_4e/pool_proj <- inception_4e/pool
I0403 17:43:26.591068 14748 net.cpp:399] inception_4e/pool_proj -> inception_4e/pool_proj
I0403 17:43:26.592618 14748 net.cpp:141] Setting up inception_4e/pool_proj
I0403 17:43:26.592658 14748 net.cpp:148] Top shape: 24 128 14 14 (602112)
I0403 17:43:26.592674 14748 net.cpp:156] Memory required for data: 1254493728
I0403 17:43:26.592694 14748 layer_factory.hpp:77] Creating layer inception_4e/relu_pool_proj
I0403 17:43:26.592715 14748 net.cpp:91] Creating Layer inception_4e/relu_pool_proj
I0403 17:43:26.592731 14748 net.cpp:425] inception_4e/relu_pool_proj <- inception_4e/pool_proj
I0403 17:43:26.592749 14748 net.cpp:386] inception_4e/relu_pool_proj -> inception_4e/pool_proj (in-place)
I0403 17:43:26.593045 14748 net.cpp:141] Setting up inception_4e/relu_pool_proj
I0403 17:43:26.593071 14748 net.cpp:148] Top shape: 24 128 14 14 (602112)
I0403 17:43:26.593086 14748 net.cpp:156] Memory required for data: 1256902176
I0403 17:43:26.593102 14748 layer_factory.hpp:77] Creating layer inception_4e/output
I0403 17:43:26.593122 14748 net.cpp:91] Creating Layer inception_4e/output
I0403 17:43:26.593138 14748 net.cpp:425] inception_4e/output <- inception_4e/1x1
I0403 17:43:26.593155 14748 net.cpp:425] inception_4e/output <- inception_4e/3x3
I0403 17:43:26.593171 14748 net.cpp:425] inception_4e/output <- inception_4e/5x5
I0403 17:43:26.593188 14748 net.cpp:425] inception_4e/output <- inception_4e/pool_proj
I0403 17:43:26.593205 14748 net.cpp:399] inception_4e/output -> inception_4e/output
I0403 17:43:26.593256 14748 net.cpp:141] Setting up inception_4e/output
I0403 17:43:26.593281 14748 net.cpp:148] Top shape: 24 832 14 14 (3913728)
I0403 17:43:26.593296 14748 net.cpp:156] Memory required for data: 1272557088
I0403 17:43:26.593310 14748 layer_factory.hpp:77] Creating layer pool4/3x3_s2
I0403 17:43:26.593328 14748 net.cpp:91] Creating Layer pool4/3x3_s2
I0403 17:43:26.593345 14748 net.cpp:425] pool4/3x3_s2 <- inception_4e/output
I0403 17:43:26.593366 14748 net.cpp:399] pool4/3x3_s2 -> pool4/3x3_s2
I0403 17:43:26.593436 14748 net.cpp:141] Setting up pool4/3x3_s2
I0403 17:43:26.593461 14748 net.cpp:148] Top shape: 24 832 7 7 (978432)
I0403 17:43:26.593475 14748 net.cpp:156] Memory required for data: 1276470816
I0403 17:43:26.593490 14748 layer_factory.hpp:77] Creating layer pool4/3x3_s2_pool4/3x3_s2_0_split
I0403 17:43:26.593508 14748 net.cpp:91] Creating Layer pool4/3x3_s2_pool4/3x3_s2_0_split
I0403 17:43:26.593524 14748 net.cpp:425] pool4/3x3_s2_pool4/3x3_s2_0_split <- pool4/3x3_s2
I0403 17:43:26.593545 14748 net.cpp:399] pool4/3x3_s2_pool4/3x3_s2_0_split -> pool4/3x3_s2_pool4/3x3_s2_0_split_0
I0403 17:43:26.593566 14748 net.cpp:399] pool4/3x3_s2_pool4/3x3_s2_0_split -> pool4/3x3_s2_pool4/3x3_s2_0_split_1
I0403 17:43:26.593587 14748 net.cpp:399] pool4/3x3_s2_pool4/3x3_s2_0_split -> pool4/3x3_s2_pool4/3x3_s2_0_split_2
I0403 17:43:26.593607 14748 net.cpp:399] pool4/3x3_s2_pool4/3x3_s2_0_split -> pool4/3x3_s2_pool4/3x3_s2_0_split_3
I0403 17:43:26.593698 14748 net.cpp:141] Setting up pool4/3x3_s2_pool4/3x3_s2_0_split
I0403 17:43:26.593724 14748 net.cpp:148] Top shape: 24 832 7 7 (978432)
I0403 17:43:26.593740 14748 net.cpp:148] Top shape: 24 832 7 7 (978432)
I0403 17:43:26.593756 14748 net.cpp:148] Top shape: 24 832 7 7 (978432)
I0403 17:43:26.593771 14748 net.cpp:148] Top shape: 24 832 7 7 (978432)
I0403 17:43:26.593786 14748 net.cpp:156] Memory required for data: 1292125728
I0403 17:43:26.593801 14748 layer_factory.hpp:77] Creating layer inception_5a/1x1
I0403 17:43:26.593823 14748 net.cpp:91] Creating Layer inception_5a/1x1
I0403 17:43:26.593840 14748 net.cpp:425] inception_5a/1x1 <- pool4/3x3_s2_pool4/3x3_s2_0_split_0
I0403 17:43:26.593860 14748 net.cpp:399] inception_5a/1x1 -> inception_5a/1x1
I0403 17:43:26.596751 14748 net.cpp:141] Setting up inception_5a/1x1
I0403 17:43:26.596781 14748 net.cpp:148] Top shape: 24 256 7 7 (301056)
I0403 17:43:26.596796 14748 net.cpp:156] Memory required for data: 1293329952
I0403 17:43:26.596815 14748 layer_factory.hpp:77] Creating layer inception_5a/relu_1x1
I0403 17:43:26.596833 14748 net.cpp:91] Creating Layer inception_5a/relu_1x1
I0403 17:43:26.596850 14748 net.cpp:425] inception_5a/relu_1x1 <- inception_5a/1x1
I0403 17:43:26.596870 14748 net.cpp:386] inception_5a/relu_1x1 -> inception_5a/1x1 (in-place)
I0403 17:43:26.597190 14748 net.cpp:141] Setting up inception_5a/relu_1x1
I0403 17:43:26.597229 14748 net.cpp:148] Top shape: 24 256 7 7 (301056)
I0403 17:43:26.597244 14748 net.cpp:156] Memory required for data: 1294534176
I0403 17:43:26.597260 14748 layer_factory.hpp:77] Creating layer inception_5a/3x3_reduce
I0403 17:43:26.597283 14748 net.cpp:91] Creating Layer inception_5a/3x3_reduce
I0403 17:43:26.597303 14748 net.cpp:425] inception_5a/3x3_reduce <- pool4/3x3_s2_pool4/3x3_s2_0_split_1
I0403 17:43:26.597326 14748 net.cpp:399] inception_5a/3x3_reduce -> inception_5a/3x3_reduce
I0403 17:43:26.599810 14748 net.cpp:141] Setting up inception_5a/3x3_reduce
I0403 17:43:26.599840 14748 net.cpp:148] Top shape: 24 160 7 7 (188160)
I0403 17:43:26.599856 14748 net.cpp:156] Memory required for data: 1295286816
I0403 17:43:26.599876 14748 layer_factory.hpp:77] Creating layer inception_5a/relu_3x3_reduce
I0403 17:43:26.599896 14748 net.cpp:91] Creating Layer inception_5a/relu_3x3_reduce
I0403 17:43:26.599913 14748 net.cpp:425] inception_5a/relu_3x3_reduce <- inception_5a/3x3_reduce
I0403 17:43:26.599932 14748 net.cpp:386] inception_5a/relu_3x3_reduce -> inception_5a/3x3_reduce (in-place)
I0403 17:43:26.600124 14748 net.cpp:141] Setting up inception_5a/relu_3x3_reduce
I0403 17:43:26.600152 14748 net.cpp:148] Top shape: 24 160 7 7 (188160)
I0403 17:43:26.600167 14748 net.cpp:156] Memory required for data: 1296039456
I0403 17:43:26.600183 14748 layer_factory.hpp:77] Creating layer inception_5a/3x3
I0403 17:43:26.600206 14748 net.cpp:91] Creating Layer inception_5a/3x3
I0403 17:43:26.600225 14748 net.cpp:425] inception_5a/3x3 <- inception_5a/3x3_reduce
I0403 17:43:26.600245 14748 net.cpp:399] inception_5a/3x3 -> inception_5a/3x3
I0403 17:43:26.605268 14748 net.cpp:141] Setting up inception_5a/3x3
I0403 17:43:26.605300 14748 net.cpp:148] Top shape: 24 320 7 7 (376320)
I0403 17:43:26.605319 14748 net.cpp:156] Memory required for data: 1297544736
I0403 17:43:26.605337 14748 layer_factory.hpp:77] Creating layer inception_5a/relu_3x3
I0403 17:43:26.605356 14748 net.cpp:91] Creating Layer inception_5a/relu_3x3
I0403 17:43:26.605372 14748 net.cpp:425] inception_5a/relu_3x3 <- inception_5a/3x3
I0403 17:43:26.605393 14748 net.cpp:386] inception_5a/relu_3x3 -> inception_5a/3x3 (in-place)
I0403 17:43:26.605689 14748 net.cpp:141] Setting up inception_5a/relu_3x3
I0403 17:43:26.605716 14748 net.cpp:148] Top shape: 24 320 7 7 (376320)
I0403 17:43:26.605732 14748 net.cpp:156] Memory required for data: 1299050016
I0403 17:43:26.605747 14748 layer_factory.hpp:77] Creating layer inception_5a/5x5_reduce
I0403 17:43:26.605772 14748 net.cpp:91] Creating Layer inception_5a/5x5_reduce
I0403 17:43:26.605789 14748 net.cpp:425] inception_5a/5x5_reduce <- pool4/3x3_s2_pool4/3x3_s2_0_split_2
I0403 17:43:26.605809 14748 net.cpp:399] inception_5a/5x5_reduce -> inception_5a/5x5_reduce
I0403 17:43:26.606986 14748 net.cpp:141] Setting up inception_5a/5x5_reduce
I0403 17:43:26.607015 14748 net.cpp:148] Top shape: 24 32 7 7 (37632)
I0403 17:43:26.607033 14748 net.cpp:156] Memory required for data: 1299200544
I0403 17:43:26.607051 14748 layer_factory.hpp:77] Creating layer inception_5a/relu_5x5_reduce
I0403 17:43:26.607069 14748 net.cpp:91] Creating Layer inception_5a/relu_5x5_reduce
I0403 17:43:26.607085 14748 net.cpp:425] inception_5a/relu_5x5_reduce <- inception_5a/5x5_reduce
I0403 17:43:26.607106 14748 net.cpp:386] inception_5a/relu_5x5_reduce -> inception_5a/5x5_reduce (in-place)
I0403 17:43:26.607406 14748 net.cpp:141] Setting up inception_5a/relu_5x5_reduce
I0403 17:43:26.607432 14748 net.cpp:148] Top shape: 24 32 7 7 (37632)
I0403 17:43:26.607447 14748 net.cpp:156] Memory required for data: 1299351072
I0403 17:43:26.607463 14748 layer_factory.hpp:77] Creating layer inception_5a/5x5
I0403 17:43:26.607487 14748 net.cpp:91] Creating Layer inception_5a/5x5
I0403 17:43:26.607506 14748 net.cpp:425] inception_5a/5x5 <- inception_5a/5x5_reduce
I0403 17:43:26.607527 14748 net.cpp:399] inception_5a/5x5 -> inception_5a/5x5
I0403 17:43:26.609309 14748 net.cpp:141] Setting up inception_5a/5x5
I0403 17:43:26.609351 14748 net.cpp:148] Top shape: 24 128 7 7 (150528)
I0403 17:43:26.609369 14748 net.cpp:156] Memory required for data: 1299953184
I0403 17:43:26.609386 14748 layer_factory.hpp:77] Creating layer inception_5a/relu_5x5
I0403 17:43:26.609405 14748 net.cpp:91] Creating Layer inception_5a/relu_5x5
I0403 17:43:26.609422 14748 net.cpp:425] inception_5a/relu_5x5 <- inception_5a/5x5
I0403 17:43:26.609442 14748 net.cpp:386] inception_5a/relu_5x5 -> inception_5a/5x5 (in-place)
I0403 17:43:26.609637 14748 net.cpp:141] Setting up inception_5a/relu_5x5
I0403 17:43:26.609661 14748 net.cpp:148] Top shape: 24 128 7 7 (150528)
I0403 17:43:26.609676 14748 net.cpp:156] Memory required for data: 1300555296
I0403 17:43:26.609691 14748 layer_factory.hpp:77] Creating layer inception_5a/pool
I0403 17:43:26.609709 14748 net.cpp:91] Creating Layer inception_5a/pool
I0403 17:43:26.609724 14748 net.cpp:425] inception_5a/pool <- pool4/3x3_s2_pool4/3x3_s2_0_split_3
I0403 17:43:26.609745 14748 net.cpp:399] inception_5a/pool -> inception_5a/pool
I0403 17:43:26.609817 14748 net.cpp:141] Setting up inception_5a/pool
I0403 17:43:26.609840 14748 net.cpp:148] Top shape: 24 832 7 7 (978432)
I0403 17:43:26.609854 14748 net.cpp:156] Memory required for data: 1304469024
I0403 17:43:26.609869 14748 layer_factory.hpp:77] Creating layer inception_5a/pool_proj
I0403 17:43:26.609894 14748 net.cpp:91] Creating Layer inception_5a/pool_proj
I0403 17:43:26.609911 14748 net.cpp:425] inception_5a/pool_proj <- inception_5a/pool
I0403 17:43:26.609931 14748 net.cpp:399] inception_5a/pool_proj -> inception_5a/pool_proj
I0403 17:43:26.612222 14748 net.cpp:141] Setting up inception_5a/pool_proj
I0403 17:43:26.612254 14748 net.cpp:148] Top shape: 24 128 7 7 (150528)
I0403 17:43:26.612270 14748 net.cpp:156] Memory required for data: 1305071136
I0403 17:43:26.612290 14748 layer_factory.hpp:77] Creating layer inception_5a/relu_pool_proj
I0403 17:43:26.612308 14748 net.cpp:91] Creating Layer inception_5a/relu_pool_proj
I0403 17:43:26.612324 14748 net.cpp:425] inception_5a/relu_pool_proj <- inception_5a/pool_proj
I0403 17:43:26.612342 14748 net.cpp:386] inception_5a/relu_pool_proj -> inception_5a/pool_proj (in-place)
I0403 17:43:26.612658 14748 net.cpp:141] Setting up inception_5a/relu_pool_proj
I0403 17:43:26.612687 14748 net.cpp:148] Top shape: 24 128 7 7 (150528)
I0403 17:43:26.612704 14748 net.cpp:156] Memory required for data: 1305673248
I0403 17:43:26.612720 14748 layer_factory.hpp:77] Creating layer inception_5a/output
I0403 17:43:26.612737 14748 net.cpp:91] Creating Layer inception_5a/output
I0403 17:43:26.612753 14748 net.cpp:425] inception_5a/output <- inception_5a/1x1
I0403 17:43:26.612771 14748 net.cpp:425] inception_5a/output <- inception_5a/3x3
I0403 17:43:26.612789 14748 net.cpp:425] inception_5a/output <- inception_5a/5x5
I0403 17:43:26.612807 14748 net.cpp:425] inception_5a/output <- inception_5a/pool_proj
I0403 17:43:26.612823 14748 net.cpp:399] inception_5a/output -> inception_5a/output
I0403 17:43:26.612876 14748 net.cpp:141] Setting up inception_5a/output
I0403 17:43:26.612900 14748 net.cpp:148] Top shape: 24 832 7 7 (978432)
I0403 17:43:26.612915 14748 net.cpp:156] Memory required for data: 1309586976
I0403 17:43:26.612931 14748 layer_factory.hpp:77] Creating layer inception_5a/output_inception_5a/output_0_split
I0403 17:43:26.612956 14748 net.cpp:91] Creating Layer inception_5a/output_inception_5a/output_0_split
I0403 17:43:26.612974 14748 net.cpp:425] inception_5a/output_inception_5a/output_0_split <- inception_5a/output
I0403 17:43:26.612993 14748 net.cpp:399] inception_5a/output_inception_5a/output_0_split -> inception_5a/output_inception_5a/output_0_split_0
I0403 17:43:26.613014 14748 net.cpp:399] inception_5a/output_inception_5a/output_0_split -> inception_5a/output_inception_5a/output_0_split_1
I0403 17:43:26.613035 14748 net.cpp:399] inception_5a/output_inception_5a/output_0_split -> inception_5a/output_inception_5a/output_0_split_2
I0403 17:43:26.613057 14748 net.cpp:399] inception_5a/output_inception_5a/output_0_split -> inception_5a/output_inception_5a/output_0_split_3
I0403 17:43:26.613173 14748 net.cpp:141] Setting up inception_5a/output_inception_5a/output_0_split
I0403 17:43:26.613198 14748 net.cpp:148] Top shape: 24 832 7 7 (978432)
I0403 17:43:26.613229 14748 net.cpp:148] Top shape: 24 832 7 7 (978432)
I0403 17:43:26.613245 14748 net.cpp:148] Top shape: 24 832 7 7 (978432)
I0403 17:43:26.613261 14748 net.cpp:148] Top shape: 24 832 7 7 (978432)
I0403 17:43:26.613276 14748 net.cpp:156] Memory required for data: 1325241888
I0403 17:43:26.613292 14748 layer_factory.hpp:77] Creating layer inception_5b/1x1
I0403 17:43:26.613318 14748 net.cpp:91] Creating Layer inception_5b/1x1
I0403 17:43:26.613337 14748 net.cpp:425] inception_5b/1x1 <- inception_5a/output_inception_5a/output_0_split_0
I0403 17:43:26.613359 14748 net.cpp:399] inception_5b/1x1 -> inception_5b/1x1
I0403 17:43:26.617302 14748 net.cpp:141] Setting up inception_5b/1x1
I0403 17:43:26.617333 14748 net.cpp:148] Top shape: 24 384 7 7 (451584)
I0403 17:43:26.617349 14748 net.cpp:156] Memory required for data: 1327048224
I0403 17:43:26.617368 14748 layer_factory.hpp:77] Creating layer inception_5b/relu_1x1
I0403 17:43:26.617389 14748 net.cpp:91] Creating Layer inception_5b/relu_1x1
I0403 17:43:26.617408 14748 net.cpp:425] inception_5b/relu_1x1 <- inception_5b/1x1
I0403 17:43:26.617426 14748 net.cpp:386] inception_5b/relu_1x1 -> inception_5b/1x1 (in-place)
I0403 17:43:26.617741 14748 net.cpp:141] Setting up inception_5b/relu_1x1
I0403 17:43:26.617769 14748 net.cpp:148] Top shape: 24 384 7 7 (451584)
I0403 17:43:26.617784 14748 net.cpp:156] Memory required for data: 1328854560
I0403 17:43:26.617799 14748 layer_factory.hpp:77] Creating layer inception_5b/3x3_reduce
I0403 17:43:26.617823 14748 net.cpp:91] Creating Layer inception_5b/3x3_reduce
I0403 17:43:26.617846 14748 net.cpp:425] inception_5b/3x3_reduce <- inception_5a/output_inception_5a/output_0_split_1
I0403 17:43:26.617866 14748 net.cpp:399] inception_5b/3x3_reduce -> inception_5b/3x3_reduce
I0403 17:43:26.620615 14748 net.cpp:141] Setting up inception_5b/3x3_reduce
I0403 17:43:26.620647 14748 net.cpp:148] Top shape: 24 192 7 7 (225792)
I0403 17:43:26.620664 14748 net.cpp:156] Memory required for data: 1329757728
I0403 17:43:26.620683 14748 layer_factory.hpp:77] Creating layer inception_5b/relu_3x3_reduce
I0403 17:43:26.620702 14748 net.cpp:91] Creating Layer inception_5b/relu_3x3_reduce
I0403 17:43:26.620719 14748 net.cpp:425] inception_5b/relu_3x3_reduce <- inception_5b/3x3_reduce
I0403 17:43:26.620738 14748 net.cpp:386] inception_5b/relu_3x3_reduce -> inception_5b/3x3_reduce (in-place)
I0403 17:43:26.620939 14748 net.cpp:141] Setting up inception_5b/relu_3x3_reduce
I0403 17:43:26.620970 14748 net.cpp:148] Top shape: 24 192 7 7 (225792)
I0403 17:43:26.620987 14748 net.cpp:156] Memory required for data: 1330660896
I0403 17:43:26.621003 14748 layer_factory.hpp:77] Creating layer inception_5b/3x3
I0403 17:43:26.621026 14748 net.cpp:91] Creating Layer inception_5b/3x3
I0403 17:43:26.621044 14748 net.cpp:425] inception_5b/3x3 <- inception_5b/3x3_reduce
I0403 17:43:26.621064 14748 net.cpp:399] inception_5b/3x3 -> inception_5b/3x3
I0403 17:43:26.628093 14748 net.cpp:141] Setting up inception_5b/3x3
I0403 17:43:26.628126 14748 net.cpp:148] Top shape: 24 384 7 7 (451584)
I0403 17:43:26.628144 14748 net.cpp:156] Memory required for data: 1332467232
I0403 17:43:26.628165 14748 layer_factory.hpp:77] Creating layer inception_5b/relu_3x3
I0403 17:43:26.628185 14748 net.cpp:91] Creating Layer inception_5b/relu_3x3
I0403 17:43:26.628204 14748 net.cpp:425] inception_5b/relu_3x3 <- inception_5b/3x3
I0403 17:43:26.628224 14748 net.cpp:386] inception_5b/relu_3x3 -> inception_5b/3x3 (in-place)
I0403 17:43:26.628540 14748 net.cpp:141] Setting up inception_5b/relu_3x3
I0403 17:43:26.628568 14748 net.cpp:148] Top shape: 24 384 7 7 (451584)
I0403 17:43:26.628585 14748 net.cpp:156] Memory required for data: 1334273568
I0403 17:43:26.628602 14748 layer_factory.hpp:77] Creating layer inception_5b/5x5_reduce
I0403 17:43:26.628640 14748 net.cpp:91] Creating Layer inception_5b/5x5_reduce
I0403 17:43:26.628661 14748 net.cpp:425] inception_5b/5x5_reduce <- inception_5a/output_inception_5a/output_0_split_2
I0403 17:43:26.628681 14748 net.cpp:399] inception_5b/5x5_reduce -> inception_5b/5x5_reduce
I0403 17:43:26.630074 14748 net.cpp:141] Setting up inception_5b/5x5_reduce
I0403 17:43:26.630103 14748 net.cpp:148] Top shape: 24 48 7 7 (56448)
I0403 17:43:26.630120 14748 net.cpp:156] Memory required for data: 1334499360
I0403 17:43:26.630139 14748 layer_factory.hpp:77] Creating layer inception_5b/relu_5x5_reduce
I0403 17:43:26.630161 14748 net.cpp:91] Creating Layer inception_5b/relu_5x5_reduce
I0403 17:43:26.630178 14748 net.cpp:425] inception_5b/relu_5x5_reduce <- inception_5b/5x5_reduce
I0403 17:43:26.630197 14748 net.cpp:386] inception_5b/relu_5x5_reduce -> inception_5b/5x5_reduce (in-place)
I0403 17:43:26.630589 14748 net.cpp:141] Setting up inception_5b/relu_5x5_reduce
I0403 17:43:26.630615 14748 net.cpp:148] Top shape: 24 48 7 7 (56448)
I0403 17:43:26.630631 14748 net.cpp:156] Memory required for data: 1334725152
I0403 17:43:26.630648 14748 layer_factory.hpp:77] Creating layer inception_5b/5x5
I0403 17:43:26.630669 14748 net.cpp:91] Creating Layer inception_5b/5x5
I0403 17:43:26.630688 14748 net.cpp:425] inception_5b/5x5 <- inception_5b/5x5_reduce
I0403 17:43:26.630707 14748 net.cpp:399] inception_5b/5x5 -> inception_5b/5x5
I0403 17:43:26.632835 14748 net.cpp:141] Setting up inception_5b/5x5
I0403 17:43:26.632863 14748 net.cpp:148] Top shape: 24 128 7 7 (150528)
I0403 17:43:26.632879 14748 net.cpp:156] Memory required for data: 1335327264
I0403 17:43:26.632899 14748 layer_factory.hpp:77] Creating layer inception_5b/relu_5x5
I0403 17:43:26.632917 14748 net.cpp:91] Creating Layer inception_5b/relu_5x5
I0403 17:43:26.632935 14748 net.cpp:425] inception_5b/relu_5x5 <- inception_5b/5x5
I0403 17:43:26.632959 14748 net.cpp:386] inception_5b/relu_5x5 -> inception_5b/5x5 (in-place)
I0403 17:43:26.633167 14748 net.cpp:141] Setting up inception_5b/relu_5x5
I0403 17:43:26.633191 14748 net.cpp:148] Top shape: 24 128 7 7 (150528)
I0403 17:43:26.633206 14748 net.cpp:156] Memory required for data: 1335929376
I0403 17:43:26.633222 14748 layer_factory.hpp:77] Creating layer inception_5b/pool
I0403 17:43:26.633244 14748 net.cpp:91] Creating Layer inception_5b/pool
I0403 17:43:26.633261 14748 net.cpp:425] inception_5b/pool <- inception_5a/output_inception_5a/output_0_split_3
I0403 17:43:26.633280 14748 net.cpp:399] inception_5b/pool -> inception_5b/pool
I0403 17:43:26.633355 14748 net.cpp:141] Setting up inception_5b/pool
I0403 17:43:26.633380 14748 net.cpp:148] Top shape: 24 832 7 7 (978432)
I0403 17:43:26.633395 14748 net.cpp:156] Memory required for data: 1339843104
I0403 17:43:26.633411 14748 layer_factory.hpp:77] Creating layer inception_5b/pool_proj
I0403 17:43:26.633433 14748 net.cpp:91] Creating Layer inception_5b/pool_proj
I0403 17:43:26.633452 14748 net.cpp:425] inception_5b/pool_proj <- inception_5b/pool
I0403 17:43:26.633474 14748 net.cpp:399] inception_5b/pool_proj -> inception_5b/pool_proj
I0403 17:43:26.635856 14748 net.cpp:141] Setting up inception_5b/pool_proj
I0403 17:43:26.635890 14748 net.cpp:148] Top shape: 24 128 7 7 (150528)
I0403 17:43:26.635906 14748 net.cpp:156] Memory required for data: 1340445216
I0403 17:43:26.635927 14748 layer_factory.hpp:77] Creating layer inception_5b/relu_pool_proj
I0403 17:43:26.635951 14748 net.cpp:91] Creating Layer inception_5b/relu_pool_proj
I0403 17:43:26.635968 14748 net.cpp:425] inception_5b/relu_pool_proj <- inception_5b/pool_proj
I0403 17:43:26.635989 14748 net.cpp:386] inception_5b/relu_pool_proj -> inception_5b/pool_proj (in-place)
I0403 17:43:26.636298 14748 net.cpp:141] Setting up inception_5b/relu_pool_proj
I0403 17:43:26.636328 14748 net.cpp:148] Top shape: 24 128 7 7 (150528)
I0403 17:43:26.636344 14748 net.cpp:156] Memory required for data: 1341047328
I0403 17:43:26.636360 14748 layer_factory.hpp:77] Creating layer inception_5b/output
I0403 17:43:26.636379 14748 net.cpp:91] Creating Layer inception_5b/output
I0403 17:43:26.636410 14748 net.cpp:425] inception_5b/output <- inception_5b/1x1
I0403 17:43:26.636430 14748 net.cpp:425] inception_5b/output <- inception_5b/3x3
I0403 17:43:26.636446 14748 net.cpp:425] inception_5b/output <- inception_5b/5x5
I0403 17:43:26.636463 14748 net.cpp:425] inception_5b/output <- inception_5b/pool_proj
I0403 17:43:26.636482 14748 net.cpp:399] inception_5b/output -> inception_5b/output
I0403 17:43:26.636538 14748 net.cpp:141] Setting up inception_5b/output
I0403 17:43:26.636561 14748 net.cpp:148] Top shape: 24 1024 7 7 (1204224)
I0403 17:43:26.636577 14748 net.cpp:156] Memory required for data: 1345864224
I0403 17:43:26.636592 14748 layer_factory.hpp:77] Creating layer pool5/7x7_s1
I0403 17:43:26.636613 14748 net.cpp:91] Creating Layer pool5/7x7_s1
I0403 17:43:26.636631 14748 net.cpp:425] pool5/7x7_s1 <- inception_5b/output
I0403 17:43:26.636651 14748 net.cpp:399] pool5/7x7_s1 -> pool5/7x7_s1
I0403 17:43:26.636876 14748 net.cpp:141] Setting up pool5/7x7_s1
I0403 17:43:26.636904 14748 net.cpp:148] Top shape: 24 1024 1 1 (24576)
I0403 17:43:26.636922 14748 net.cpp:156] Memory required for data: 1345962528
I0403 17:43:26.636937 14748 layer_factory.hpp:77] Creating layer pool5/drop_7x7_s1
I0403 17:43:26.636960 14748 net.cpp:91] Creating Layer pool5/drop_7x7_s1
I0403 17:43:26.636978 14748 net.cpp:425] pool5/drop_7x7_s1 <- pool5/7x7_s1
I0403 17:43:26.636999 14748 net.cpp:386] pool5/drop_7x7_s1 -> pool5/7x7_s1 (in-place)
I0403 17:43:26.637051 14748 net.cpp:141] Setting up pool5/drop_7x7_s1
I0403 17:43:26.637075 14748 net.cpp:148] Top shape: 24 1024 1 1 (24576)
I0403 17:43:26.637090 14748 net.cpp:156] Memory required for data: 1346060832
I0403 17:43:26.637105 14748 layer_factory.hpp:77] Creating layer loss3/classifier_plantvillage
I0403 17:43:26.637128 14748 net.cpp:91] Creating Layer loss3/classifier_plantvillage
I0403 17:43:26.637146 14748 net.cpp:425] loss3/classifier_plantvillage <- pool5/7x7_s1
I0403 17:43:26.637168 14748 net.cpp:399] loss3/classifier_plantvillage -> loss3/classifier_plantvillage
I0403 17:43:26.637606 14748 net.cpp:141] Setting up loss3/classifier_plantvillage
I0403 17:43:26.637631 14748 net.cpp:148] Top shape: 24 38 (912)
I0403 17:43:26.637646 14748 net.cpp:156] Memory required for data: 1346064480
I0403 17:43:26.637665 14748 layer_factory.hpp:77] Creating layer loss3/classifier_plantvillage_loss3/classifier_plantvillage_0_split
I0403 17:43:26.637687 14748 net.cpp:91] Creating Layer loss3/classifier_plantvillage_loss3/classifier_plantvillage_0_split
I0403 17:43:26.637706 14748 net.cpp:425] loss3/classifier_plantvillage_loss3/classifier_plantvillage_0_split <- loss3/classifier_plantvillage
I0403 17:43:26.637724 14748 net.cpp:399] loss3/classifier_plantvillage_loss3/classifier_plantvillage_0_split -> loss3/classifier_plantvillage_loss3/classifier_plantvillage_0_split_0
I0403 17:43:26.637747 14748 net.cpp:399] loss3/classifier_plantvillage_loss3/classifier_plantvillage_0_split -> loss3/classifier_plantvillage_loss3/classifier_plantvillage_0_split_1
I0403 17:43:26.637766 14748 net.cpp:399] loss3/classifier_plantvillage_loss3/classifier_plantvillage_0_split -> loss3/classifier_plantvillage_loss3/classifier_plantvillage_0_split_2
I0403 17:43:26.637789 14748 net.cpp:399] loss3/classifier_plantvillage_loss3/classifier_plantvillage_0_split -> loss3/classifier_plantvillage_loss3/classifier_plantvillage_0_split_3
I0403 17:43:26.637890 14748 net.cpp:141] Setting up loss3/classifier_plantvillage_loss3/classifier_plantvillage_0_split
I0403 17:43:26.637914 14748 net.cpp:148] Top shape: 24 38 (912)
I0403 17:43:26.637931 14748 net.cpp:148] Top shape: 24 38 (912)
I0403 17:43:26.637958 14748 net.cpp:148] Top shape: 24 38 (912)
I0403 17:43:26.637976 14748 net.cpp:148] Top shape: 24 38 (912)
I0403 17:43:26.637991 14748 net.cpp:156] Memory required for data: 1346079072
I0403 17:43:26.638006 14748 layer_factory.hpp:77] Creating layer loss1/loss
I0403 17:43:26.638030 14748 net.cpp:91] Creating Layer loss1/loss
I0403 17:43:26.638047 14748 net.cpp:425] loss1/loss <- loss1/classifier_plantvillage_loss1/classifier_plantvillage_0_split_0
I0403 17:43:26.638079 14748 net.cpp:425] loss1/loss <- label_data_1_split_0
…
