…
I0403 18:16:59.708968 16845 net.cpp:313] The NetState phase (1) differed from the phase (0) specified by a rule in layer data
I0403 18:16:59.710175 16845 net.cpp:49] Initializing net from parameters: 
state {
  phase: TEST
}
layer {
  name: "data"
  type: "Data"
  top: "data"
  top: "label"
  include {
    phase: TEST
  }
  transform_param {
    mirror: false
    crop_size: 224
    mean_file: "/home/mohanty/data/final_dataset/lmdb/grayscale-60-40/mean.binaryproto"
  }
  data_param {
    source: "/home/mohanty/data/final_dataset/lmdb/grayscale-60-40/test_db"
    batch_size: 24
    backend: LMDB
  }
}
layer {
  name: "conv1/7x7_s2"
  type: "Convolution"
  bottom: "data"
  top: "conv1/7x7_s2"
  param {
    lr_mult: 1
    decay_mult: 1
  }
  param {
    lr_mult: 2
    decay_mult: 0
  }
  convolution_param {
    num_output: 64
    pad: 3
    kernel_size: 7
    stride: 2
    weight_filler {
      type: "xavier"
      std: 0.1
    }
    bias_filler {
      type: "constant"
      value: 0.2
    }
  }
}
layer {
  name: "conv1/relu_7x7"
  type: "ReLU"
  bottom: "conv1/7x7_s2"
  top: "conv1/7x7_s2"
}
layer {
  name: "pool1/3x3_s2"
  type: "Pooling"
  bottom: "conv1/7x7_s2"
  top: "pool1/3x3_s2"
  pooling_param {
    pool: MAX
    kernel_size: 3
    stride: 2
  }
}
layer {
  name: "pool1/norm1"
  type: "LRN"
  bottom: "pool1/3x3_s2"
  top: "pool1/norm1"
  lrn_param {
    local_size: 5
    alpha: 0.0001
    beta: 0.75
  }
}
layer {
  name: "conv2/3x3_reduce"
  type: "Convolution"
  bottom: "pool1/norm1"
  top: "conv2/3x3_reduce"
  param {
    lr_mult: 1
    decay_mult: 1
  }
  param {
    lr_mult: 2
    decay_mult: 0
  }
  convolution_param {
    num_output: 64
    kernel_size: 1
    weight_filler {
      type: "xavier"
      std: 0.1
    }
    bias_filler {
      type: "constant"
      value: 0.2
    }
  }
}
layer {
  name: "conv2/relu_3x3_reduce"
  type: "ReLU"
  bottom: "conv2/3x3_reduce"
  top: "conv2/3x3_reduce"
}
layer {
  name: "conv2/3x3"
  type: "Convolution"
  bottom: "conv2/3x3_reduce"
  top: "conv2/3x3"
  param {
    lr_mult: 1
    decay_mult: 1
  }
  param {
    lr_mult: 2
    decay_mult: 0
  }
  convolution_param {
    num_output: 192
    pad: 1
    kernel_size: 3
    weight_filler {
      type: "xavier"
      std: 0.03
    }
    bias_filler {
      type: "constant"
      value: 0.2
    }
  }
}
layer {
  name: "conv2/relu_3x3"
  type: "ReLU"
  bottom: "conv2/3x3"
  top: "conv2/3x3"
}
layer {
  name: "conv2/norm2"
  type: "LRN"
  bottom: "conv2/3x3"
  top: "conv2/norm2"
  lrn_param {
    local_size: 5
    alpha: 0.0001
    beta: 0.75
  }
}
layer {
  name: "pool2/3x3_s2"
  type: "Pooling"
  bottom: "conv2/norm2"
  top: "pool2/3x3_s2"
  pooling_param {
    pool: MAX
    kernel_size: 3
    stride: 2
  }
}
layer {
  name: "inception_3a/1x1"
  type: "Convolution"
  bottom: "pool2/3x3_s2"
  top: "inception_3a/1x1"
  param {
    lr_mult: 1
    decay_mult: 1
  }
  param {
    lr_mult: 2
    decay_mult: 0
  }
  convolution_param {
    num_output: 64
    kernel_size: 1
    weight_filler {
      type: "xavier"
      std: 0.03
    }
    bias_filler {
      type: "constant"
      value: 0.2
    }
  }
}
layer {
  name: "inception_3a/relu_1x1"
  type: "ReLU"
  bottom: "inception_3a/1x1"
  top: "inception_3a/1x1"
}
layer {
  name: "inception_3a/3x3_reduce"
  type: "Convolution"
  bottom: "pool2/3x3_s2"
  top: "inception_3a/3x3_reduce"
  param {
    lr_mult: 1
    decay_mult: 1
  }
  param {
    lr_mult: 2
    decay_mult: 0
  }
  convolution_param {
    num_output: 96
    kernel_size: 1
    weight_filler {
      type: "xavier"
      std: 0.09
    }
    bias_filler {
      type: "constant"
      value: 0.2
    }
  }
}
layer {
  name: "inception_3a/relu_3x3_reduce"
  type: "ReLU"
  bottom: "inception_3a/3x3_reduce"
  top: "inception_3a/3x3_reduce"
}
layer {
  name: "inception_3a/3x3"
  type: "Convolution"
  bottom: "inception_3a/3x3_reduce"
  top: "inception_3a/3x3"
  param {
    lr_mult: 1
    decay_mult: 1
  }
  param {
    lr_mult: 2
    decay_mult: 0
  }
  convolution_param {
    num_output: 128
    pad: 1
    kernel_size: 3
    weight_filler {
      type: "xavier"
      std: 0.03
    }
    bias_filler {
      type: "constant"
      value: 0.2
    }
  }
}
layer {
  name: "inception_3a/relu_3x3"
  type: "ReLU"
  bottom: "inception_3a/3x3"
  top: "inception_3a/3x3"
}
layer {
  name: "inception_3a/5x5_reduce"
  type: "Convolution"
  bottom: "pool2/3x3_s2"
  top: "inception_3a/5x5_reduce"
  param {
    lr_mult: 1
    decay_mult: 1
  }
  param {
    lr_mult: 2
    decay_mult: 0
  }
  convolution_param {
    num_output: 16
    kernel_size: 1
    weight_filler {
      type: "xavier"
      std: 0.2
    }
    bias_filler {
      type: "constant"
      value: 0.2
    }
  }
}
layer {
  name: "inception_3a/relu_5x5_reduce"
  type: "ReLU"
  bottom: "inception_3a/5x5_reduce"
  top: "inception_3a/5x5_reduce"
}
layer {
  name: "inception_3a/5x5"
  type: "Convolution"
  bottom: "inception_3a/5x5_reduce"
  top: "inception_3a/5x5"
  param {
    lr_mult: 1
    decay_mult: 1
  }
  param {
    lr_mult: 2
    decay_mult: 0
  }
  convolution_param {
    num_output: 32
    pad: 2
    kernel_size: 5
    weight_filler {
      type: "xavier"
      std: 0.03
    }
    bias_filler {
      type: "constant"
      value: 0.2
    }
  }
}
layer {
  name: "inception_3a/relu_5x5"
  type: "ReLU"
  bottom: "inception_3a/5x5"
  top: "inception_3a/5x5"
}
layer {
  name: "inception_3a/pool"
  type: "Pooling"
  bottom: "pool2/3x3_s2"
  top: "inception_3a/pool"
  pooling_param {
    pool: MAX
    kernel_size: 3
    stride: 1
    pad: 1
  }
}
layer {
  name: "inception_3a/pool_proj"
  type: "Convolution"
  bottom: "inception_3a/pool"
  top: "inception_3a/pool_proj"
  param {
    lr_mult: 1
    decay_mult: 1
  }
  param {
    lr_mult: 2
    decay_mult: 0
  }
  convolution_param {
    num_output: 32
    kernel_size: 1
    weight_filler {
      type: "xavier"
      std: 0.1
    }
    bias_filler {
      type: "constant"
      value: 0.2
    }
  }
}
layer {
  name: "inception_3a/relu_pool_proj"
  type: "ReLU"
  bottom: "inception_3a/pool_proj"
  top: "inception_3a/pool_proj"
}
layer {
  name: "inception_3a/output"
  type: "Concat"
  bottom: "inception_3a/1x1"
  bottom: "inception_3a/3x3"
  bottom: "inception_3a/5x5"
  bottom: "inception_3a/pool_proj"
  top: "inception_3a/output"
}
layer {
  name: "inception_3b/1x1"
  type: "Convolution"
  bottom: "inception_3a/output"
  top: "inception_3b/1x1"
  param {
    lr_mult: 1
    decay_mult: 1
  }
  param {
    lr_mult: 2
    decay_mult: 0
  }
  convolution_param {
    num_output: 128
    kernel_size: 1
    weight_filler {
      type: "xavier"
      std: 0.03
    }
    bias_filler {
      type: "constant"
      value: 0.2
    }
  }
}
layer {
  name: "inception_3b/relu_1x1"
  type: "ReLU"
  bottom: "inception_3b/1x1"
  top: "inception_3b/1x1"
}
layer {
  name: "inception_3b/3x3_reduce"
  type: "Convolution"
  bottom: "inception_3a/output"
  top: "inception_3b/3x3_reduce"
  param {
    lr_mult: 1
    decay_mult: 1
  }
  param {
    lr_mult: 2
    decay_mult: 0
  }
  convolution_param {
    num_output: 128
    kernel_size: 1
    weight_filler {
      type: "xavier"
      std: 0.09
    }
    bias_filler {
      type: "constant"
      value: 0.2
    }
  }
}
layer {
  name: "inception_3b/relu_3x3_reduce"
  type: "ReLU"
  bottom: "inception_3b/3x3_reduce"
  top: "inception_3b/3x3_reduce"
}
layer {
  name: "inception_3b/3x3"
  type: "Convolution"
  bottom: "inception_3b/3x3_reduce"
  top: "inception_3b/3x3"
  param {
    lr_mult: 1
    decay_mult: 1
  }
  param {
    lr_mult: 2
    decay_mult: 0
  }
  convolution_param {
    num_output: 192
    pad: 1
    kernel_size: 3
    weight_filler {
      type: "xavier"
      std: 0.03
    }
    bias_filler {
      type: "constant"
      value: 0.2
    }
  }
}
layer {
  name: "inception_3b/relu_3x3"
  type: "ReLU"
  bottom: "inception_3b/3x3"
  top: "inception_3b/3x3"
}
layer {
  name: "inception_3b/5x5_reduce"
  type: "Convolution"
  bottom: "inception_3a/output"
  top: "inception_3b/5x5_reduce"
  param {
    lr_mult: 1
    decay_mult: 1
  }
  param {
    lr_mult: 2
    decay_mult: 0
  }
  convolution_param {
    num_output: 32
    kernel_size: 1
    weight_filler {
      type: "xavier"
      std: 0.2
    }
    bias_filler {
      type: "constant"
      value: 0.2
    }
  }
}
layer {
  name: "inception_3b/relu_5x5_reduce"
  type: "ReLU"
  bottom: "inception_3b/5x5_reduce"
  top: "inception_3b/5x5_reduce"
}
layer {
  name: "inception_3b/5x5"
  type: "Convolution"
  bottom: "inception_3b/5x5_reduce"
  top: "inception_3b/5x5"
  param {
    lr_mult: 1
    decay_mult: 1
  }
  param {
    lr_mult: 2
    decay_mult: 0
  }
  convolution_param {
    num_output: 96
    pad: 2
    kernel_size: 5
    weight_filler {
      type: "xavier"
      std: 0.03
    }
    bias_filler {
      type: "constant"
      value: 0.2
    }
  }
}
layer {
  name: "inception_3b/relu_5x5"
  type: "ReLU"
  bottom: "inception_3b/5x5"
  top: "inception_3b/5x5"
}
layer {
  name: "inception_3b/pool"
  type: "Pooling"
  bottom: "inception_3a/output"
  top: "inception_3b/pool"
  pooling_param {
    pool: MAX
    kernel_size: 3
    stride: 1
    pad: 1
  }
}
layer {
  name: "inception_3b/pool_proj"
  type: "Convolution"
  bottom: "inception_3b/pool"
  top: "inception_3b/pool_proj"
  param {
    lr_mult: 1
    decay_mult: 1
  }
  param {
    lr_mult: 2
    decay_mult: 0
  }
  convolution_param {
    num_output: 64
    kernel_size: 1
    weight_filler {
      type: "xavier"
      std: 0.1
    }
    bias_filler {
      type: "constant"
      value: 0.2
    }
  }
}
layer {
  name: "inception_3b/relu_pool_proj"
  type: "ReLU"
  bottom: "inception_3b/pool_proj"
  top: "inception_3b/pool_proj"
}
layer {
  name: "inception_3b/output"
  type: "Concat"
  bottom: "inception_3b/1x1"
  bottom: "inception_3b/3x3"
  bottom: "inception_3b/5x5"
  bottom: "inception_3b/pool_proj"
  top: "inception_3b/output"
}
layer {
  name: "pool3/3x3_s2"
  type: "Pooling"
  bottom: "inception_3b/output"
  top: "pool3/3x3_s2"
  pooling_param {
    pool: MAX
    kernel_size: 3
    stride: 2
  }
}
layer {
  name: "inception_4a/1x1"
  type: "Convolution"
  bottom: "pool3/3x3_s2"
  top: "inception_4a/1x1"
  param {
    lr_mult: 1
    decay_mult: 1
  }
  param {
    lr_mult: 2
    decay_mult: 0
  }
  convolution_param {
    num_output: 192
    kernel_size: 1
    weight_filler {
      type: "xavier"
      std: 0.03
    }
    bias_filler {
      type: "constant"
      value: 0.2
    }
  }
}
layer {
  name: "inception_4a/relu_1x1"
  type: "ReLU"
  bottom: "inception_4a/1x1"
  top: "inception_4a/1x1"
}
layer {
  name: "inception_4a/3x3_reduce"
  type: "Convolution"
  bottom: "pool3/3x3_s2"
  top: "inception_4a/3x3_reduce"
  param {
    lr_mult: 1
    decay_mult: 1
  }
  param {
    lr_mult: 2
    decay_mult: 0
  }
  convolution_param {
    num_output: 96
    kernel_size: 1
    weight_filler {
      type: "xavier"
      std: 0.09
    }
    bias_filler {
      type: "constant"
      value: 0.2
    }
  }
}
layer {
  name: "inception_4a/relu_3x3_reduce"
  type: "ReLU"
  bottom: "inception_4a/3x3_reduce"
  top: "inception_4a/3x3_reduce"
}
layer {
  name: "inception_4a/3x3"
  type: "Convolution"
  bottom: "inception_4a/3x3_reduce"
  top: "inception_4a/3x3"
  param {
    lr_mult: 1
    decay_mult: 1
  }
  param {
    lr_mult: 2
    decay_mult: 0
  }
  convolution_param {
    num_output: 208
    pad: 1
    kernel_size: 3
    weight_filler {
      type: "xavier"
      std: 0.03
    }
    bias_filler {
      type: "constant"
      value: 0.2
    }
  }
}
layer {
  name: "inception_4a/relu_3x3"
  type: "ReLU"
  bottom: "inception_4a/3x3"
  top: "inception_4a/3x3"
}
layer {
  name: "inception_4a/5x5_reduce"
  type: "Convolution"
  bottom: "pool3/3x3_s2"
  top: "inception_4a/5x5_reduce"
  param {
    lr_mult: 1
    decay_mult: 1
  }
  param {
    lr_mult: 2
    decay_mult: 0
  }
  convolution_param {
    num_output: 16
    kernel_size: 1
    weight_filler {
      type: "xavier"
      std: 0.2
    }
    bias_filler {
      type: "constant"
      value: 0.2
    }
  }
}
layer {
  name: "inception_4a/relu_5x5_reduce"
  type: "ReLU"
  bottom: "inception_4a/5x5_reduce"
  top: "inception_4a/5x5_reduce"
}
layer {
  name: "inception_4a/5x5"
  type: "Convolution"
  bottom: "inception_4a/5x5_reduce"
  top: "inception_4a/5x5"
  param {
    lr_mult: 1
    decay_mult: 1
  }
  param {
    lr_mult: 2
    decay_mult: 0
  }
  convolution_param {
    num_output: 48
    pad: 2
    kernel_size: 5
    weight_filler {
      type: "xavier"
      std: 0.03
    }
    bias_filler {
      type: "constant"
      value: 0.2
    }
  }
}
layer {
  name: "inception_4a/relu_5x5"
  type: "ReLU"
  bottom: "inception_4a/5x5"
  top: "inception_4a/5x5"
}
layer {
  name: "inception_4a/pool"
  type: "Pooling"
  bottom: "pool3/3x3_s2"
  top: "inception_4a/pool"
  pooling_param {
    pool: MAX
    kernel_size: 3
    stride: 1
    pad: 1
  }
}
layer {
  name: "inception_4a/pool_proj"
  type: "Convolution"
  bottom: "inception_4a/pool"
  top: "inception_4a/pool_proj"
  param {
    lr_mult: 1
    decay_mult: 1
  }
  param {
    lr_mult: 2
    decay_mult: 0
  }
  convolution_param {
    num_output: 64
    kernel_size: 1
    weight_filler {
      type: "xavier"
      std: 0.1
    }
    bias_filler {
      type: "constant"
      value: 0.2
    }
  }
}
layer {
  name: "inception_4a/relu_pool_proj"
  type: "ReLU"
  bottom: "inception_4a/pool_proj"
  top: "inception_4a/pool_proj"
}
layer {
  name: "inception_4a/output"
  type: "Concat"
  bottom: "inception_4a/1x1"
  bottom: "inception_4a/3x3"
  bottom: "inception_4a/5x5"
  bottom: "inception_4a/pool_proj"
  top: "inception_4a/output"
}
layer {
  name: "loss1/ave_pool"
  type: "Pooling"
  bottom: "inception_4a/output"
  top: "loss1/ave_pool"
  pooling_param {
    pool: AVE
    kernel_size: 5
    stride: 3
  }
}
layer {
  name: "loss1/conv"
  type: "Convolution"
  bottom: "loss1/ave_pool"
  top: "loss1/conv"
  param {
    lr_mult: 1
    decay_mult: 1
  }
  param {
    lr_mult: 2
    decay_mult: 0
  }
  convolution_param {
    num_output: 128
    kernel_size: 1
    weight_filler {
      type: "xavier"
      std: 0.08
    }
    bias_filler {
      type: "constant"
      value: 0.2
    }
  }
}
layer {
  name: "loss1/relu_conv"
  type: "ReLU"
  bottom: "loss1/conv"
  top: "loss1/conv"
}
layer {
  name: "loss1/fc"
  type: "InnerProduct"
  bottom: "loss1/conv"
  top: "loss1/fc"
  param {
    lr_mult: 1
    decay_mult: 1
  }
  param {
    lr_mult: 2
    decay_mult: 0
  }
  inner_product_param {
    num_output: 1024
    weight_filler {
      type: "xavier"
      std: 0.02
    }
    bias_filler {
      type: "constant"
      value: 0.2
    }
  }
}
layer {
  name: "loss1/relu_fc"
  type: "ReLU"
  bottom: "loss1/fc"
  top: "loss1/fc"
}
layer {
  name: "loss1/drop_fc"
  type: "Dropout"
  bottom: "loss1/fc"
  top: "loss1/fc"
  dropout_param {
    dropout_ratio: 0.7
  }
}
layer {
  name: "loss1/classifier_plantvillage"
  type: "InnerProduct"
  bottom: "loss1/fc"
  top: "loss1/classifier_plantvillage"
  param {
    lr_mult: 1
    decay_mult: 1
  }
  param {
    lr_mult: 2
    decay_mult: 0
  }
  inner_product_param {
    num_output: 38
    weight_filler {
      type: "xavier"
      std: 0.0009765625
    }
    bias_filler {
      type: "constant"
      value: 0
    }
  }
}
layer {
  name: "inception_4b/1x1"
  type: "Convolution"
  bottom: "inception_4a/output"
  top: "inception_4b/1x1"
  param {
    lr_mult: 1
    decay_mult: 1
  }
  param {
    lr_mult: 2
    decay_mult: 0
  }
  convolution_param {
    num_output: 160
    kernel_size: 1
    weight_filler {
      type: "xavier"
      std: 0.03
    }
    bias_filler {
      type: "constant"
      value: 0.2
    }
  }
}
layer {
  name: "inception_4b/relu_1x1"
  type: "ReLU"
  bottom: "inception_4b/1x1"
  top: "inception_4b/1x1"
}
layer {
  name: "inception_4b/3x3_reduce"
  type: "Convolution"
  bottom: "inception_4a/output"
  top: "inception_4b/3x3_reduce"
  param {
    lr_mult: 1
    decay_mult: 1
  }
  param {
    lr_mult: 2
    decay_mult: 0
  }
  convolution_param {
    num_output: 112
    kernel_size: 1
    weight_filler {
      type: "xavier"
      std: 0.09
    }
    bias_filler {
      type: "constant"
      value: 0.2
    }
  }
}
layer {
  name: "inception_4b/relu_3x3_reduce"
  type: "ReLU"
  bottom: "inception_4b/3x3_reduce"
  top: "inception_4b/3x3_reduce"
}
layer {
  name: "inception_4b/3x3"
  type: "Convolution"
  bottom: "inception_4b/3x3_reduce"
  top: "inception_4b/3x3"
  param {
    lr_mult: 1
    decay_mult: 1
  }
  param {
    lr_mult: 2
    decay_mult: 0
  }
  convolution_param {
    num_output: 224
    pad: 1
    kernel_size: 3
    weight_filler {
      type: "xavier"
      std: 0.03
    }
    bias_filler {
      type: "constant"
      value: 0.2
    }
  }
}
layer {
  name: "inception_4b/relu_3x3"
  type: "ReLU"
  bottom: "inception_4b/3x3"
  top: "inception_4b/3x3"
}
layer {
  name: "inception_4b/5x5_reduce"
  type: "Convolution"
  bottom: "inception_4a/output"
  top: "inception_4b/5x5_reduce"
  param {
    lr_mult: 1
    decay_mult: 1
  }
  param {
    lr_mult: 2
    decay_mult: 0
  }
  convolution_param {
    num_output: 24
    kernel_size: 1
    weight_filler {
      type: "xavier"
      std: 0.2
    }
    bias_filler {
      type: "constant"
      value: 0.2
    }
  }
}
layer {
  name: "inception_4b/relu_5x5_reduce"
  type: "ReLU"
  bottom: "inception_4b/5x5_reduce"
  top: "inception_4b/5x5_reduce"
}
layer {
  name: "inception_4b/5x5"
  type: "Convolution"
  bottom: "inception_4b/5x5_reduce"
  top: "inception_4b/5x5"
  param {
    lr_mult: 1
    decay_mult: 1
  }
  param {
    lr_mult: 2
    decay_mult: 0
  }
  convolution_param {
    num_output: 64
    pad: 2
    kernel_size: 5
    weight_filler {
      type: "xavier"
      std: 0.03
    }
    bias_filler {
      type: "constant"
      value: 0.2
    }
  }
}
layer {
  name: "inception_4b/relu_5x5"
  type: "ReLU"
  bottom: "inception_4b/5x5"
  top: "inception_4b/5x5"
}
layer {
  name: "inception_4b/pool"
  type: "Pooling"
  bottom: "inception_4a/output"
  top: "inception_4b/pool"
  pooling_param {
    pool: MAX
    kernel_size: 3
    stride: 1
    pad: 1
  }
}
layer {
  name: "inception_4b/pool_proj"
  type: "Convolution"
  bottom: "inception_4b/pool"
  top: "inception_4b/pool_proj"
  param {
    lr_mult: 1
    decay_mult: 1
  }
  param {
    lr_mult: 2
    decay_mult: 0
  }
  convolution_param {
    num_output: 64
    kernel_size: 1
    weight_filler {
      type: "xavier"
      std: 0.1
    }
    bias_filler {
      type: "constant"
      value: 0.2
    }
  }
}
layer {
  name: "inception_4b/relu_pool_proj"
  type: "ReLU"
  bottom: "inception_4b/pool_proj"
  top: "inception_4b/pool_proj"
}
layer {
  name: "inception_4b/output"
  type: "Concat"
  bottom: "inception_4b/1x1"
  bottom: "inception_4b/3x3"
  bottom: "inception_4b/5x5"
  bottom: "inception_4b/pool_proj"
  top: "inception_4b/output"
}
layer {
  name: "inception_4c/1x1"
  type: "Convolution"
  bottom: "inception_4b/output"
  top: "inception_4c/1x1"
  param {
    lr_mult: 1
    decay_mult: 1
  }
  param {
    lr_mult: 2
    decay_mult: 0
  }
  convolution_param {
    num_output: 128
    kernel_size: 1
    weight_filler {
      type: "xavier"
      std: 0.03
    }
    bias_filler {
      type: "constant"
      value: 0.2
    }
  }
}
layer {
  name: "inception_4c/relu_1x1"
  type: "ReLU"
  bottom: "inception_4c/1x1"
  top: "inception_4c/1x1"
}
layer {
  name: "inception_4c/3x3_reduce"
  type: "Convolution"
  bottom: "inception_4b/output"
  top: "inception_4c/3x3_reduce"
  param {
    lr_mult: 1
    decay_mult: 1
  }
  param {
    lr_mult: 2
    decay_mult: 0
  }
  convolution_param {
    num_output: 128
    kernel_size: 1
    weight_filler {
      type: "xavier"
      std: 0.09
    }
    bias_filler {
      type: "constant"
      value: 0.2
    }
  }
}
layer {
  name: "inception_4c/relu_3x3_reduce"
  type: "ReLU"
  bottom: "inception_4c/3x3_reduce"
  top: "inception_4c/3x3_reduce"
}
layer {
  name: "inception_4c/3x3"
  type: "Convolution"
  bottom: "inception_4c/3x3_reduce"
  top: "inception_4c/3x3"
  param {
    lr_mult: 1
    decay_mult: 1
  }
  param {
    lr_mult: 2
    decay_mult: 0
  }
  convolution_param {
    num_output: 256
    pad: 1
    kernel_size: 3
    weight_filler {
      type: "xavier"
      std: 0.03
    }
    bias_filler {
      type: "constant"
      value: 0.2
    }
  }
}
layer {
  name: "inception_4c/relu_3x3"
  type: "ReLU"
  bottom: "inception_4c/3x3"
  top: "inception_4c/3x3"
}
layer {
  name: "inception_4c/5x5_reduce"
  type: "Convolution"
  bottom: "inception_4b/output"
  top: "inception_4c/5x5_reduce"
  param {
    lr_mult: 1
    decay_mult: 1
  }
  param {
    lr_mult: 2
    decay_mult: 0
  }
  convolution_param {
    num_output: 24
    kernel_size: 1
    weight_filler {
      type: "xavier"
      std: 0.2
    }
    bias_filler {
      type: "constant"
      value: 0.2
    }
  }
}
layer {
  name: "inception_4c/relu_5x5_reduce"
  type: "ReLU"
  bottom: "inception_4c/5x5_reduce"
  top: "inception_4c/5x5_reduce"
}
layer {
  name: "inception_4c/5x5"
  type: "Convolution"
  bottom: "inception_4c/5x5_reduce"
  top: "inception_4c/5x5"
  param {
    lr_mult: 1
    decay_mult: 1
  }
  param {
    lr_mult: 2
    decay_mult: 0
  }
  convolution_param {
    num_output: 64
    pad: 2
    kernel_size: 5
    weight_filler {
      type: "xavier"
      std: 0.03
    }
    bias_filler {
      type: "constant"
      value: 0.2
    }
  }
}
layer {
  name: "inception_4c/relu_5x5"
  type: "ReLU"
  bottom: "inception_4c/5x5"
  top: "inception_4c/5x5"
}
layer {
  name: "inception_4c/pool"
  type: "Pooling"
  bottom: "inception_4b/output"
  top: "inception_4c/pool"
  pooling_param {
    pool: MAX
    kernel_size: 3
    stride: 1
    pad: 1
  }
}
layer {
  name: "inception_4c/pool_proj"
  type: "Convolution"
  bottom: "inception_4c/pool"
  top: "inception_4c/pool_proj"
  param {
    lr_mult: 1
    decay_mult: 1
  }
  param {
    lr_mult: 2
    decay_mult: 0
  }
  convolution_param {
    num_output: 64
    kernel_size: 1
    weight_filler {
      type: "xavier"
      std: 0.1
    }
    bias_filler {
      type: "constant"
      value: 0.2
    }
  }
}
layer {
  name: "inception_4c/relu_pool_proj"
  type: "ReLU"
  bottom: "inception_4c/pool_proj"
  top: "inception_4c/pool_proj"
}
layer {
  name: "inception_4c/output"
  type: "Concat"
  bottom: "inception_4c/1x1"
  bottom: "inception_4c/3x3"
  bottom: "inception_4c/5x5"
  bottom: "inception_4c/pool_proj"
  top: "inception_4c/output"
}
layer {
  name: "inception_4d/1x1"
  type: "Convolution"
  bottom: "inception_4c/output"
  top: "inception_4d/1x1"
  param {
    lr_mult: 1
    decay_mult: 1
  }
  param {
    lr_mult: 2
    decay_mult: 0
  }
  convolution_param {
    num_output: 112
    kernel_size: 1
    weight_filler {
      type: "xavier"
      std: 0.03
    }
    bias_filler {
      type: "constant"
      value: 0.2
    }
  }
}
layer {
  name: "inception_4d/relu_1x1"
  type: "ReLU"
  bottom: "inception_4d/1x1"
  top: "inception_4d/1x1"
}
layer {
  name: "inception_4d/3x3_reduce"
  type: "Convolution"
  bottom: "inception_4c/output"
  top: "inception_4d/3x3_reduce"
  param {
    lr_mult: 1
    decay_mult: 1
  }
  param {
    lr_mult: 2
    decay_mult: 0
  }
  convolution_param {
    num_output: 144
    kernel_size: 1
    weight_filler {
      type: "xavier"
      std: 0.09
    }
    bias_filler {
      type: "constant"
      value: 0.2
    }
  }
}
layer {
  name: "inception_4d/relu_3x3_reduce"
  type: "ReLU"
  bottom: "inception_4d/3x3_reduce"
  top: "inception_4d/3x3_reduce"
}
layer {
  name: "inception_4d/3x3"
  type: "Convolution"
  bottom: "inception_4d/3x3_reduce"
  top: "inception_4d/3x3"
  param {
    lr_mult: 1
    decay_mult: 1
  }
  param {
    lr_mult: 2
    decay_mult: 0
  }
  convolution_param {
    num_output: 288
    pad: 1
    kernel_size: 3
    weight_filler {
      type: "xavier"
      std: 0.03
    }
    bias_filler {
      type: "constant"
      value: 0.2
    }
  }
}
layer {
  name: "inception_4d/relu_3x3"
  type: "ReLU"
  bottom: "inception_4d/3x3"
  top: "inception_4d/3x3"
}
layer {
  name: "inception_4d/5x5_reduce"
  type: "Convolution"
  bottom: "inception_4c/output"
  top: "inception_4d/5x5_reduce"
  param {
    lr_mult: 1
    decay_mult: 1
  }
  param {
    lr_mult: 2
    decay_mult: 0
  }
  convolution_param {
    num_output: 32
    kernel_size: 1
    weight_filler {
      type: "xavier"
      std: 0.2
    }
    bias_filler {
      type: "constant"
      value: 0.2
    }
  }
}
layer {
  name: "inception_4d/relu_5x5_reduce"
  type: "ReLU"
  bottom: "inception_4d/5x5_reduce"
  top: "inception_4d/5x5_reduce"
}
layer {
  name: "inception_4d/5x5"
  type: "Convolution"
  bottom: "inception_4d/5x5_reduce"
  top: "inception_4d/5x5"
  param {
    lr_mult: 1
    decay_mult: 1
  }
  param {
    lr_mult: 2
    decay_mult: 0
  }
  convolution_param {
    num_output: 64
    pad: 2
    kernel_size: 5
    weight_filler {
      type: "xavier"
      std: 0.03
    }
    bias_filler {
      type: "constant"
      value: 0.2
    }
  }
}
layer {
  name: "inception_4d/relu_5x5"
  type: "ReLU"
  bottom: "inception_4d/5x5"
  top: "inception_4d/5x5"
}
layer {
  name: "inception_4d/pool"
  type: "Pooling"
  bottom: "inception_4c/output"
  top: "inception_4d/pool"
  pooling_param {
    pool: MAX
    kernel_size: 3
    stride: 1
    pad: 1
  }
}
layer {
  name: "inception_4d/pool_proj"
  type: "Convolution"
  bottom: "inception_4d/pool"
  top: "inception_4d/pool_proj"
  param {
    lr_mult: 1
    decay_mult: 1
  }
  param {
    lr_mult: 2
    decay_mult: 0
  }
  convolution_param {
    num_output: 64
    kernel_size: 1
    weight_filler {
      type: "xavier"
      std: 0.1
    }
    bias_filler {
      type: "constant"
      value: 0.2
    }
  }
}
layer {
  name: "inception_4d/relu_pool_proj"
  type: "ReLU"
  bottom: "inception_4d/pool_proj"
  top: "inception_4d/pool_proj"
}
layer {
  name: "inception_4d/output"
  type: "Concat"
  bottom: "inception_4d/1x1"
  bottom: "inception_4d/3x3"
  bottom: "inception_4d/5x5"
  bottom: "inception_4d/pool_proj"
  top: "inception_4d/output"
}
layer {
  name: "loss2/ave_pool"
  type: "Pooling"
  bottom: "inception_4d/output"
  top: "loss2/ave_pool"
  pooling_param {
    pool: AVE
    kernel_size: 5
    stride: 3
  }
}
layer {
  name: "loss2/conv"
  type: "Convolution"
  bottom: "loss2/ave_pool"
  top: "loss2/conv"
  param {
    lr_mult: 1
    decay_mult: 1
  }
  param {
    lr_mult: 2
    decay_mult: 0
  }
  convolution_param {
    num_output: 128
    kernel_size: 1
    weight_filler {
      type: "xavier"
      std: 0.08
    }
    bias_filler {
      type: "constant"
      value: 0.2
    }
  }
}
layer {
  name: "loss2/relu_conv"
  type: "ReLU"
  bottom: "loss2/conv"
  top: "loss2/conv"
}
layer {
  name: "loss2/fc"
  type: "InnerProduct"
  bottom: "loss2/conv"
  top: "loss2/fc"
  param {
    lr_mult: 1
    decay_mult: 1
  }
  param {
    lr_mult: 2
    decay_mult: 0
  }
  inner_product_param {
    num_output: 1024
    weight_filler {
      type: "xavier"
      std: 0.02
    }
    bias_filler {
      type: "constant"
      value: 0.2
    }
  }
}
layer {
  name: "loss2/relu_fc"
  type: "ReLU"
  bottom: "loss2/fc"
  top: "loss2/fc"
}
layer {
  name: "loss2/drop_fc"
  type: "Dropout"
  bottom: "loss2/fc"
  top: "loss2/fc"
  dropout_param {
    dropout_ratio: 0.7
  }
}
layer {
  name: "loss2/classifier_plantvillage"
  type: "InnerProduct"
  bottom: "loss2/fc"
  top: "loss2/classifier_plantvillage"
  param {
    lr_mult: 1
    decay_mult: 1
  }
  param {
    lr_mult: 2
    decay_mult: 0
  }
  inner_product_param {
    num_output: 38
    weight_filler {
      type: "xavier"
      std: 0.0009765625
    }
    bias_filler {
      type: "constant"
      value: 0
    }
  }
}
layer {
  name: "inception_4e/1x1"
  type: "Convolution"
  bottom: "inception_4d/output"
  top: "inception_4e/1x1"
  param {
    lr_mult: 1
    decay_mult: 1
  }
  param {
    lr_mult: 2
    decay_mult: 0
  }
  convolution_param {
    num_output: 256
    kernel_size: 1
    weight_filler {
      type: "xavier"
      std: 0.03
    }
    bias_filler {
      type: "constant"
      value: 0.2
    }
  }
}
layer {
  name: "inception_4e/relu_1x1"
  type: "ReLU"
  bottom: "inception_4e/1x1"
  top: "inception_4e/1x1"
}
layer {
  name: "inception_4e/3x3_reduce"
  type: "Convolution"
  bottom: "inception_4d/output"
  top: "inception_4e/3x3_reduce"
  param {
    lr_mult: 1
    decay_mult: 1
  }
  param {
    lr_mult: 2
    decay_mult: 0
  }
  convolution_param {
    num_output: 160
    kernel_size: 1
    weight_filler {
      type: "xavier"
      std: 0.09
    }
    bias_filler {
      type: "constant"
      value: 0.2
    }
  }
}
layer {
  name: "inception_4e/relu_3x3_reduce"
  type: "ReLU"
  bottom: "inception_4e/3x3_reduce"
  top: "inception_4e/3x3_reduce"
}
layer {
  name: "inception_4e/3x3"
  type: "Convolution"
  bottom: "inception_4e/3x3_reduce"
  top: "inception_4e/3x3"
  param {
    lr_mult: 1
    decay_mult: 1
  }
  param {
    lr_mult: 2
    decay_mult: 0
  }
  convolution_param {
    num_output: 320
    pad: 1
    kernel_size: 3
    weight_filler {
      type: "xavier"
      std: 0.03
    }
    bias_filler {
      type: "constant"
      value: 0.2
    }
  }
}
layer {
  name: "inception_4e/relu_3x3"
  type: "ReLU"
  bottom: "inception_4e/3x3"
  top: "inception_4e/3x3"
}
layer {
  name: "inception_4e/5x5_reduce"
  type: "Convolution"
  bottom: "inception_4d/output"
  top: "inception_4e/5x5_reduce"
  param {
    lr_mult: 1
    decay_mult: 1
  }
  param {
    lr_mult: 2
    decay_mult: 0
  }
  convolution_param {
    num_output: 32
    kernel_size: 1
    weight_filler {
      type: "xavier"
      std: 0.2
    }
    bias_filler {
      type: "constant"
      value: 0.2
    }
  }
}
layer {
  name: "inception_4e/relu_5x5_reduce"
  type: "ReLU"
  bottom: "inception_4e/5x5_reduce"
  top: "inception_4e/5x5_reduce"
}
layer {
  name: "inception_4e/5x5"
  type: "Convolution"
  bottom: "inception_4e/5x5_reduce"
  top: "inception_4e/
I0403 18:16:59.711428 16845 layer_factory.hpp:77] Creating layer data
I0403 18:16:59.712045 16845 net.cpp:91] Creating Layer data
I0403 18:16:59.712076 16845 net.cpp:399] data -> data
I0403 18:16:59.712128 16845 net.cpp:399] data -> label
I0403 18:16:59.712168 16845 data_transformer.cpp:25] Loading mean file from: /home/mohanty/data/final_dataset/lmdb/grayscale-60-40/mean.binaryproto
I0403 18:16:59.713320 16847 db_lmdb.cpp:38] Opened lmdb /home/mohanty/data/final_dataset/lmdb/grayscale-60-40/test_db
I0403 18:16:59.725610 16845 data_layer.cpp:41] output data size: 24,3,224,224
I0403 18:16:59.752740 16845 net.cpp:141] Setting up data
I0403 18:16:59.752830 16845 net.cpp:148] Top shape: 24 3 224 224 (3612672)
I0403 18:16:59.752853 16845 net.cpp:148] Top shape: 24 (24)
I0403 18:16:59.752869 16845 net.cpp:156] Memory required for data: 14450784
I0403 18:16:59.752898 16845 layer_factory.hpp:77] Creating layer label_data_1_split
I0403 18:16:59.752926 16845 net.cpp:91] Creating Layer label_data_1_split
I0403 18:16:59.752945 16845 net.cpp:425] label_data_1_split <- label
I0403 18:16:59.752980 16845 net.cpp:399] label_data_1_split -> label_data_1_split_0
I0403 18:16:59.753010 16845 net.cpp:399] label_data_1_split -> label_data_1_split_1
I0403 18:16:59.753032 16845 net.cpp:399] label_data_1_split -> label_data_1_split_2
I0403 18:16:59.753054 16845 net.cpp:399] label_data_1_split -> label_data_1_split_3
I0403 18:16:59.753075 16845 net.cpp:399] label_data_1_split -> label_data_1_split_4
I0403 18:16:59.753095 16845 net.cpp:399] label_data_1_split -> label_data_1_split_5
I0403 18:16:59.753115 16845 net.cpp:399] label_data_1_split -> label_data_1_split_6
I0403 18:16:59.753136 16845 net.cpp:399] label_data_1_split -> label_data_1_split_7
I0403 18:16:59.753156 16845 net.cpp:399] label_data_1_split -> label_data_1_split_8
I0403 18:16:59.753180 16845 net.cpp:399] label_data_1_split -> label_data_1_split_9
I0403 18:16:59.753301 16845 net.cpp:141] Setting up label_data_1_split
I0403 18:16:59.753325 16845 net.cpp:148] Top shape: 24 (24)
I0403 18:16:59.753343 16845 net.cpp:148] Top shape: 24 (24)
I0403 18:16:59.753360 16845 net.cpp:148] Top shape: 24 (24)
I0403 18:16:59.753376 16845 net.cpp:148] Top shape: 24 (24)
I0403 18:16:59.753393 16845 net.cpp:148] Top shape: 24 (24)
I0403 18:16:59.753409 16845 net.cpp:148] Top shape: 24 (24)
I0403 18:16:59.753425 16845 net.cpp:148] Top shape: 24 (24)
I0403 18:16:59.753442 16845 net.cpp:148] Top shape: 24 (24)
I0403 18:16:59.753458 16845 net.cpp:148] Top shape: 24 (24)
I0403 18:16:59.753474 16845 net.cpp:148] Top shape: 24 (24)
I0403 18:16:59.753520 16845 net.cpp:156] Memory required for data: 14451744
I0403 18:16:59.753536 16845 layer_factory.hpp:77] Creating layer conv1/7x7_s2
I0403 18:16:59.753569 16845 net.cpp:91] Creating Layer conv1/7x7_s2
I0403 18:16:59.753588 16845 net.cpp:425] conv1/7x7_s2 <- data
I0403 18:16:59.753609 16845 net.cpp:399] conv1/7x7_s2 -> conv1/7x7_s2
I0403 18:16:59.896800 16845 net.cpp:141] Setting up conv1/7x7_s2
I0403 18:16:59.896883 16845 net.cpp:148] Top shape: 24 64 112 112 (19267584)
I0403 18:16:59.896901 16845 net.cpp:156] Memory required for data: 91522080
I0403 18:16:59.896934 16845 layer_factory.hpp:77] Creating layer conv1/relu_7x7
I0403 18:16:59.896968 16845 net.cpp:91] Creating Layer conv1/relu_7x7
I0403 18:16:59.896989 16845 net.cpp:425] conv1/relu_7x7 <- conv1/7x7_s2
I0403 18:16:59.897011 16845 net.cpp:386] conv1/relu_7x7 -> conv1/7x7_s2 (in-place)
I0403 18:16:59.897279 16845 net.cpp:141] Setting up conv1/relu_7x7
I0403 18:16:59.897306 16845 net.cpp:148] Top shape: 24 64 112 112 (19267584)
I0403 18:16:59.897323 16845 net.cpp:156] Memory required for data: 168592416
I0403 18:16:59.897339 16845 layer_factory.hpp:77] Creating layer pool1/3x3_s2
I0403 18:16:59.897367 16845 net.cpp:91] Creating Layer pool1/3x3_s2
I0403 18:16:59.897387 16845 net.cpp:425] pool1/3x3_s2 <- conv1/7x7_s2
I0403 18:16:59.897408 16845 net.cpp:399] pool1/3x3_s2 -> pool1/3x3_s2
I0403 18:16:59.897485 16845 net.cpp:141] Setting up pool1/3x3_s2
I0403 18:16:59.897510 16845 net.cpp:148] Top shape: 24 64 56 56 (4816896)
I0403 18:16:59.897526 16845 net.cpp:156] Memory required for data: 187860000
I0403 18:16:59.897541 16845 layer_factory.hpp:77] Creating layer pool1/norm1
I0403 18:16:59.897567 16845 net.cpp:91] Creating Layer pool1/norm1
I0403 18:16:59.897586 16845 net.cpp:425] pool1/norm1 <- pool1/3x3_s2
I0403 18:16:59.897605 16845 net.cpp:399] pool1/norm1 -> pool1/norm1
I0403 18:16:59.897904 16845 net.cpp:141] Setting up pool1/norm1
I0403 18:16:59.897934 16845 net.cpp:148] Top shape: 24 64 56 56 (4816896)
I0403 18:16:59.898000 16845 net.cpp:156] Memory required for data: 207127584
I0403 18:16:59.898022 16845 layer_factory.hpp:77] Creating layer conv2/3x3_reduce
I0403 18:16:59.898049 16845 net.cpp:91] Creating Layer conv2/3x3_reduce
I0403 18:16:59.898066 16845 net.cpp:425] conv2/3x3_reduce <- pool1/norm1
I0403 18:16:59.898087 16845 net.cpp:399] conv2/3x3_reduce -> conv2/3x3_reduce
I0403 18:16:59.899471 16845 net.cpp:141] Setting up conv2/3x3_reduce
I0403 18:16:59.899502 16845 net.cpp:148] Top shape: 24 64 56 56 (4816896)
I0403 18:16:59.899520 16845 net.cpp:156] Memory required for data: 226395168
I0403 18:16:59.899543 16845 layer_factory.hpp:77] Creating layer conv2/relu_3x3_reduce
I0403 18:16:59.899562 16845 net.cpp:91] Creating Layer conv2/relu_3x3_reduce
I0403 18:16:59.899580 16845 net.cpp:425] conv2/relu_3x3_reduce <- conv2/3x3_reduce
I0403 18:16:59.899598 16845 net.cpp:386] conv2/relu_3x3_reduce -> conv2/3x3_reduce (in-place)
I0403 18:16:59.899899 16845 net.cpp:141] Setting up conv2/relu_3x3_reduce
I0403 18:16:59.899927 16845 net.cpp:148] Top shape: 24 64 56 56 (4816896)
I0403 18:16:59.899945 16845 net.cpp:156] Memory required for data: 245662752
I0403 18:16:59.899966 16845 layer_factory.hpp:77] Creating layer conv2/3x3
I0403 18:16:59.899989 16845 net.cpp:91] Creating Layer conv2/3x3
I0403 18:16:59.900008 16845 net.cpp:425] conv2/3x3 <- conv2/3x3_reduce
I0403 18:16:59.900027 16845 net.cpp:399] conv2/3x3 -> conv2/3x3
I0403 18:16:59.902431 16845 net.cpp:141] Setting up conv2/3x3
I0403 18:16:59.902463 16845 net.cpp:148] Top shape: 24 192 56 56 (14450688)
I0403 18:16:59.902480 16845 net.cpp:156] Memory required for data: 303465504
I0403 18:16:59.902503 16845 layer_factory.hpp:77] Creating layer conv2/relu_3x3
I0403 18:16:59.902524 16845 net.cpp:91] Creating Layer conv2/relu_3x3
I0403 18:16:59.902541 16845 net.cpp:425] conv2/relu_3x3 <- conv2/3x3
I0403 18:16:59.902560 16845 net.cpp:386] conv2/relu_3x3 -> conv2/3x3 (in-place)
I0403 18:16:59.902727 16845 net.cpp:141] Setting up conv2/relu_3x3
I0403 18:16:59.902755 16845 net.cpp:148] Top shape: 24 192 56 56 (14450688)
I0403 18:16:59.902802 16845 net.cpp:156] Memory required for data: 361268256
I0403 18:16:59.902819 16845 layer_factory.hpp:77] Creating layer conv2/norm2
I0403 18:16:59.902839 16845 net.cpp:91] Creating Layer conv2/norm2
I0403 18:16:59.902858 16845 net.cpp:425] conv2/norm2 <- conv2/3x3
I0403 18:16:59.902878 16845 net.cpp:399] conv2/norm2 -> conv2/norm2
I0403 18:16:59.903178 16845 net.cpp:141] Setting up conv2/norm2
I0403 18:16:59.903206 16845 net.cpp:148] Top shape: 24 192 56 56 (14450688)
I0403 18:16:59.903223 16845 net.cpp:156] Memory required for data: 419071008
I0403 18:16:59.903239 16845 layer_factory.hpp:77] Creating layer pool2/3x3_s2
I0403 18:16:59.903259 16845 net.cpp:91] Creating Layer pool2/3x3_s2
I0403 18:16:59.903276 16845 net.cpp:425] pool2/3x3_s2 <- conv2/norm2
I0403 18:16:59.903295 16845 net.cpp:399] pool2/3x3_s2 -> pool2/3x3_s2
I0403 18:16:59.903347 16845 net.cpp:141] Setting up pool2/3x3_s2
I0403 18:16:59.903372 16845 net.cpp:148] Top shape: 24 192 28 28 (3612672)
I0403 18:16:59.903388 16845 net.cpp:156] Memory required for data: 433521696
I0403 18:16:59.903404 16845 layer_factory.hpp:77] Creating layer pool2/3x3_s2_pool2/3x3_s2_0_split
I0403 18:16:59.903424 16845 net.cpp:91] Creating Layer pool2/3x3_s2_pool2/3x3_s2_0_split
I0403 18:16:59.903439 16845 net.cpp:425] pool2/3x3_s2_pool2/3x3_s2_0_split <- pool2/3x3_s2
I0403 18:16:59.903457 16845 net.cpp:399] pool2/3x3_s2_pool2/3x3_s2_0_split -> pool2/3x3_s2_pool2/3x3_s2_0_split_0
I0403 18:16:59.903501 16845 net.cpp:399] pool2/3x3_s2_pool2/3x3_s2_0_split -> pool2/3x3_s2_pool2/3x3_s2_0_split_1
I0403 18:16:59.903530 16845 net.cpp:399] pool2/3x3_s2_pool2/3x3_s2_0_split -> pool2/3x3_s2_pool2/3x3_s2_0_split_2
I0403 18:16:59.903553 16845 net.cpp:399] pool2/3x3_s2_pool2/3x3_s2_0_split -> pool2/3x3_s2_pool2/3x3_s2_0_split_3
I0403 18:16:59.903622 16845 net.cpp:141] Setting up pool2/3x3_s2_pool2/3x3_s2_0_split
I0403 18:16:59.903647 16845 net.cpp:148] Top shape: 24 192 28 28 (3612672)
I0403 18:16:59.903664 16845 net.cpp:148] Top shape: 24 192 28 28 (3612672)
I0403 18:16:59.903681 16845 net.cpp:148] Top shape: 24 192 28 28 (3612672)
I0403 18:16:59.903697 16845 net.cpp:148] Top shape: 24 192 28 28 (3612672)
I0403 18:16:59.903712 16845 net.cpp:156] Memory required for data: 491324448
I0403 18:16:59.903728 16845 layer_factory.hpp:77] Creating layer inception_3a/1x1
I0403 18:16:59.903750 16845 net.cpp:91] Creating Layer inception_3a/1x1
I0403 18:16:59.903767 16845 net.cpp:425] inception_3a/1x1 <- pool2/3x3_s2_pool2/3x3_s2_0_split_0
I0403 18:16:59.903787 16845 net.cpp:399] inception_3a/1x1 -> inception_3a/1x1
I0403 18:16:59.905308 16845 net.cpp:141] Setting up inception_3a/1x1
I0403 18:16:59.905340 16845 net.cpp:148] Top shape: 24 64 28 28 (1204224)
I0403 18:16:59.905357 16845 net.cpp:156] Memory required for data: 496141344
I0403 18:16:59.905377 16845 layer_factory.hpp:77] Creating layer inception_3a/relu_1x1
I0403 18:16:59.905397 16845 net.cpp:91] Creating Layer inception_3a/relu_1x1
I0403 18:16:59.905414 16845 net.cpp:425] inception_3a/relu_1x1 <- inception_3a/1x1
I0403 18:16:59.905434 16845 net.cpp:386] inception_3a/relu_1x1 -> inception_3a/1x1 (in-place)
I0403 18:16:59.905639 16845 net.cpp:141] Setting up inception_3a/relu_1x1
I0403 18:16:59.905666 16845 net.cpp:148] Top shape: 24 64 28 28 (1204224)
I0403 18:16:59.905683 16845 net.cpp:156] Memory required for data: 500958240
I0403 18:16:59.905699 16845 layer_factory.hpp:77] Creating layer inception_3a/3x3_reduce
I0403 18:16:59.905721 16845 net.cpp:91] Creating Layer inception_3a/3x3_reduce
I0403 18:16:59.905738 16845 net.cpp:425] inception_3a/3x3_reduce <- pool2/3x3_s2_pool2/3x3_s2_0_split_1
I0403 18:16:59.905757 16845 net.cpp:399] inception_3a/3x3_reduce -> inception_3a/3x3_reduce
I0403 18:16:59.907528 16845 net.cpp:141] Setting up inception_3a/3x3_reduce
I0403 18:16:59.907560 16845 net.cpp:148] Top shape: 24 96 28 28 (1806336)
I0403 18:16:59.907577 16845 net.cpp:156] Memory required for data: 508183584
I0403 18:16:59.907600 16845 layer_factory.hpp:77] Creating layer inception_3a/relu_3x3_reduce
I0403 18:16:59.907640 16845 net.cpp:91] Creating Layer inception_3a/relu_3x3_reduce
I0403 18:16:59.907660 16845 net.cpp:425] inception_3a/relu_3x3_reduce <- inception_3a/3x3_reduce
I0403 18:16:59.907678 16845 net.cpp:386] inception_3a/relu_3x3_reduce -> inception_3a/3x3_reduce (in-place)
I0403 18:16:59.907874 16845 net.cpp:141] Setting up inception_3a/relu_3x3_reduce
I0403 18:16:59.907904 16845 net.cpp:148] Top shape: 24 96 28 28 (1806336)
I0403 18:16:59.907920 16845 net.cpp:156] Memory required for data: 515408928
I0403 18:16:59.907937 16845 layer_factory.hpp:77] Creating layer inception_3a/3x3
I0403 18:16:59.907966 16845 net.cpp:91] Creating Layer inception_3a/3x3
I0403 18:16:59.907985 16845 net.cpp:425] inception_3a/3x3 <- inception_3a/3x3_reduce
I0403 18:16:59.908006 16845 net.cpp:399] inception_3a/3x3 -> inception_3a/3x3
I0403 18:16:59.909741 16845 net.cpp:141] Setting up inception_3a/3x3
I0403 18:16:59.909771 16845 net.cpp:148] Top shape: 24 128 28 28 (2408448)
I0403 18:16:59.909787 16845 net.cpp:156] Memory required for data: 525042720
I0403 18:16:59.909806 16845 layer_factory.hpp:77] Creating layer inception_3a/relu_3x3
I0403 18:16:59.909826 16845 net.cpp:91] Creating Layer inception_3a/relu_3x3
I0403 18:16:59.909847 16845 net.cpp:425] inception_3a/relu_3x3 <- inception_3a/3x3
I0403 18:16:59.909865 16845 net.cpp:386] inception_3a/relu_3x3 -> inception_3a/3x3 (in-place)
I0403 18:16:59.910151 16845 net.cpp:141] Setting up inception_3a/relu_3x3
I0403 18:16:59.910181 16845 net.cpp:148] Top shape: 24 128 28 28 (2408448)
I0403 18:16:59.910197 16845 net.cpp:156] Memory required for data: 534676512
I0403 18:16:59.910213 16845 layer_factory.hpp:77] Creating layer inception_3a/5x5_reduce
I0403 18:16:59.910238 16845 net.cpp:91] Creating Layer inception_3a/5x5_reduce
I0403 18:16:59.910255 16845 net.cpp:425] inception_3a/5x5_reduce <- pool2/3x3_s2_pool2/3x3_s2_0_split_2
I0403 18:16:59.910279 16845 net.cpp:399] inception_3a/5x5_reduce -> inception_3a/5x5_reduce
I0403 18:16:59.911286 16845 net.cpp:141] Setting up inception_3a/5x5_reduce
I0403 18:16:59.911315 16845 net.cpp:148] Top shape: 24 16 28 28 (301056)
I0403 18:16:59.911332 16845 net.cpp:156] Memory required for data: 535880736
I0403 18:16:59.911351 16845 layer_factory.hpp:77] Creating layer inception_3a/relu_5x5_reduce
I0403 18:16:59.911373 16845 net.cpp:91] Creating Layer inception_3a/relu_5x5_reduce
I0403 18:16:59.911391 16845 net.cpp:425] inception_3a/relu_5x5_reduce <- inception_3a/5x5_reduce
I0403 18:16:59.911411 16845 net.cpp:386] inception_3a/relu_5x5_reduce -> inception_3a/5x5_reduce (in-place)
I0403 18:16:59.911720 16845 net.cpp:141] Setting up inception_3a/relu_5x5_reduce
I0403 18:16:59.911747 16845 net.cpp:148] Top shape: 24 16 28 28 (301056)
I0403 18:16:59.911763 16845 net.cpp:156] Memory required for data: 537084960
I0403 18:16:59.911780 16845 layer_factory.hpp:77] Creating layer inception_3a/5x5
I0403 18:16:59.911805 16845 net.cpp:91] Creating Layer inception_3a/5x5
I0403 18:16:59.911823 16845 net.cpp:425] inception_3a/5x5 <- inception_3a/5x5_reduce
I0403 18:16:59.911845 16845 net.cpp:399] inception_3a/5x5 -> inception_3a/5x5
I0403 18:16:59.912916 16845 net.cpp:141] Setting up inception_3a/5x5
I0403 18:16:59.912952 16845 net.cpp:148] Top shape: 24 32 28 28 (602112)
I0403 18:16:59.912971 16845 net.cpp:156] Memory required for data: 539493408
I0403 18:16:59.912992 16845 layer_factory.hpp:77] Creating layer inception_3a/relu_5x5
I0403 18:16:59.913010 16845 net.cpp:91] Creating Layer inception_3a/relu_5x5
I0403 18:16:59.913028 16845 net.cpp:425] inception_3a/relu_5x5 <- inception_3a/5x5
I0403 18:16:59.913048 16845 net.cpp:386] inception_3a/relu_5x5 -> inception_3a/5x5 (in-place)
I0403 18:16:59.913233 16845 net.cpp:141] Setting up inception_3a/relu_5x5
I0403 18:16:59.913259 16845 net.cpp:148] Top shape: 24 32 28 28 (602112)
I0403 18:16:59.913275 16845 net.cpp:156] Memory required for data: 541901856
I0403 18:16:59.913290 16845 layer_factory.hpp:77] Creating layer inception_3a/pool
I0403 18:16:59.913310 16845 net.cpp:91] Creating Layer inception_3a/pool
I0403 18:16:59.913341 16845 net.cpp:425] inception_3a/pool <- pool2/3x3_s2_pool2/3x3_s2_0_split_3
I0403 18:16:59.913363 16845 net.cpp:399] inception_3a/pool -> inception_3a/pool
I0403 18:16:59.913427 16845 net.cpp:141] Setting up inception_3a/pool
I0403 18:16:59.913452 16845 net.cpp:148] Top shape: 24 192 28 28 (3612672)
I0403 18:16:59.913467 16845 net.cpp:156] Memory required for data: 556352544
I0403 18:16:59.913483 16845 layer_factory.hpp:77] Creating layer inception_3a/pool_proj
I0403 18:16:59.913506 16845 net.cpp:91] Creating Layer inception_3a/pool_proj
I0403 18:16:59.913525 16845 net.cpp:425] inception_3a/pool_proj <- inception_3a/pool
I0403 18:16:59.913548 16845 net.cpp:399] inception_3a/pool_proj -> inception_3a/pool_proj
I0403 18:16:59.914572 16845 net.cpp:141] Setting up inception_3a/pool_proj
I0403 18:16:59.914602 16845 net.cpp:148] Top shape: 24 32 28 28 (602112)
I0403 18:16:59.914618 16845 net.cpp:156] Memory required for data: 558760992
I0403 18:16:59.914644 16845 layer_factory.hpp:77] Creating layer inception_3a/relu_pool_proj
I0403 18:16:59.914667 16845 net.cpp:91] Creating Layer inception_3a/relu_pool_proj
I0403 18:16:59.914685 16845 net.cpp:425] inception_3a/relu_pool_proj <- inception_3a/pool_proj
I0403 18:16:59.914703 16845 net.cpp:386] inception_3a/relu_pool_proj -> inception_3a/pool_proj (in-place)
I0403 18:16:59.915000 16845 net.cpp:141] Setting up inception_3a/relu_pool_proj
I0403 18:16:59.915029 16845 net.cpp:148] Top shape: 24 32 28 28 (602112)
I0403 18:16:59.915045 16845 net.cpp:156] Memory required for data: 561169440
I0403 18:16:59.915060 16845 layer_factory.hpp:77] Creating layer inception_3a/output
I0403 18:16:59.915081 16845 net.cpp:91] Creating Layer inception_3a/output
I0403 18:16:59.915096 16845 net.cpp:425] inception_3a/output <- inception_3a/1x1
I0403 18:16:59.915114 16845 net.cpp:425] inception_3a/output <- inception_3a/3x3
I0403 18:16:59.915130 16845 net.cpp:425] inception_3a/output <- inception_3a/5x5
I0403 18:16:59.915146 16845 net.cpp:425] inception_3a/output <- inception_3a/pool_proj
I0403 18:16:59.915168 16845 net.cpp:399] inception_3a/output -> inception_3a/output
I0403 18:16:59.915217 16845 net.cpp:141] Setting up inception_3a/output
I0403 18:16:59.915244 16845 net.cpp:148] Top shape: 24 256 28 28 (4816896)
I0403 18:16:59.915261 16845 net.cpp:156] Memory required for data: 580437024
I0403 18:16:59.915277 16845 layer_factory.hpp:77] Creating layer inception_3a/output_inception_3a/output_0_split
I0403 18:16:59.915295 16845 net.cpp:91] Creating Layer inception_3a/output_inception_3a/output_0_split
I0403 18:16:59.915312 16845 net.cpp:425] inception_3a/output_inception_3a/output_0_split <- inception_3a/output
I0403 18:16:59.915330 16845 net.cpp:399] inception_3a/output_inception_3a/output_0_split -> inception_3a/output_inception_3a/output_0_split_0
I0403 18:16:59.915354 16845 net.cpp:399] inception_3a/output_inception_3a/output_0_split -> inception_3a/output_inception_3a/output_0_split_1
I0403 18:16:59.915379 16845 net.cpp:399] inception_3a/output_inception_3a/output_0_split -> inception_3a/output_inception_3a/output_0_split_2
I0403 18:16:59.915400 16845 net.cpp:399] inception_3a/output_inception_3a/output_0_split -> inception_3a/output_inception_3a/output_0_split_3
I0403 18:16:59.915478 16845 net.cpp:141] Setting up inception_3a/output_inception_3a/output_0_split
I0403 18:16:59.915503 16845 net.cpp:148] Top shape: 24 256 28 28 (4816896)
I0403 18:16:59.915521 16845 net.cpp:148] Top shape: 24 256 28 28 (4816896)
I0403 18:16:59.915539 16845 net.cpp:148] Top shape: 24 256 28 28 (4816896)
I0403 18:16:59.915555 16845 net.cpp:148] Top shape: 24 256 28 28 (4816896)
I0403 18:16:59.915570 16845 net.cpp:156] Memory required for data: 657507360
I0403 18:16:59.915586 16845 layer_factory.hpp:77] Creating layer inception_3b/1x1
I0403 18:16:59.915609 16845 net.cpp:91] Creating Layer inception_3b/1x1
I0403 18:16:59.915628 16845 net.cpp:425] inception_3b/1x1 <- inception_3a/output_inception_3a/output_0_split_0
I0403 18:16:59.915650 16845 net.cpp:399] inception_3b/1x1 -> inception_3b/1x1
I0403 18:16:59.916852 16845 net.cpp:141] Setting up inception_3b/1x1
I0403 18:16:59.916898 16845 net.cpp:148] Top shape: 24 128 28 28 (2408448)
I0403 18:16:59.916915 16845 net.cpp:156] Memory required for data: 667141152
I0403 18:16:59.916934 16845 layer_factory.hpp:77] Creating layer inception_3b/relu_1x1
I0403 18:16:59.916959 16845 net.cpp:91] Creating Layer inception_3b/relu_1x1
I0403 18:16:59.916977 16845 net.cpp:425] inception_3b/relu_1x1 <- inception_3b/1x1
I0403 18:16:59.916996 16845 net.cpp:386] inception_3b/relu_1x1 -> inception_3b/1x1 (in-place)
I0403 18:16:59.917181 16845 net.cpp:141] Setting up inception_3b/relu_1x1
I0403 18:16:59.917207 16845 net.cpp:148] Top shape: 24 128 28 28 (2408448)
I0403 18:16:59.917222 16845 net.cpp:156] Memory required for data: 676774944
I0403 18:16:59.917238 16845 layer_factory.hpp:77] Creating layer inception_3b/3x3_reduce
I0403 18:16:59.917263 16845 net.cpp:91] Creating Layer inception_3b/3x3_reduce
I0403 18:16:59.917280 16845 net.cpp:425] inception_3b/3x3_reduce <- inception_3a/output_inception_3a/output_0_split_1
I0403 18:16:59.917304 16845 net.cpp:399] inception_3b/3x3_reduce -> inception_3b/3x3_reduce
I0403 18:16:59.918499 16845 net.cpp:141] Setting up inception_3b/3x3_reduce
I0403 18:16:59.918531 16845 net.cpp:148] Top shape: 24 128 28 28 (2408448)
I0403 18:16:59.918548 16845 net.cpp:156] Memory required for data: 686408736
I0403 18:16:59.918568 16845 layer_factory.hpp:77] Creating layer inception_3b/relu_3x3_reduce
I0403 18:16:59.918587 16845 net.cpp:91] Creating Layer inception_3b/relu_3x3_reduce
I0403 18:16:59.918606 16845 net.cpp:425] inception_3b/relu_3x3_reduce <- inception_3b/3x3_reduce
I0403 18:16:59.918627 16845 net.cpp:386] inception_3b/relu_3x3_reduce -> inception_3b/3x3_reduce (in-place)
I0403 18:16:59.918812 16845 net.cpp:141] Setting up inception_3b/relu_3x3_reduce
I0403 18:16:59.918838 16845 net.cpp:148] Top shape: 24 128 28 28 (2408448)
I0403 18:16:59.918853 16845 net.cpp:156] Memory required for data: 696042528
I0403 18:16:59.918869 16845 layer_factory.hpp:77] Creating layer inception_3b/3x3
I0403 18:16:59.918896 16845 net.cpp:91] Creating Layer inception_3b/3x3
I0403 18:16:59.918916 16845 net.cpp:425] inception_3b/3x3 <- inception_3b/3x3_reduce
I0403 18:16:59.918936 16845 net.cpp:399] inception_3b/3x3 -> inception_3b/3x3
I0403 18:16:59.922013 16845 net.cpp:141] Setting up inception_3b/3x3
I0403 18:16:59.922041 16845 net.cpp:148] Top shape: 24 192 28 28 (3612672)
I0403 18:16:59.922058 16845 net.cpp:156] Memory required for data: 710493216
I0403 18:16:59.922078 16845 layer_factory.hpp:77] Creating layer inception_3b/relu_3x3
I0403 18:16:59.922097 16845 net.cpp:91] Creating Layer inception_3b/relu_3x3
I0403 18:16:59.922118 16845 net.cpp:425] inception_3b/relu_3x3 <- inception_3b/3x3
I0403 18:16:59.922137 16845 net.cpp:386] inception_3b/relu_3x3 -> inception_3b/3x3 (in-place)
I0403 18:16:59.922428 16845 net.cpp:141] Setting up inception_3b/relu_3x3
I0403 18:16:59.922456 16845 net.cpp:148] Top shape: 24 192 28 28 (3612672)
I0403 18:16:59.922472 16845 net.cpp:156] Memory required for data: 724943904
I0403 18:16:59.922489 16845 layer_factory.hpp:77] Creating layer inception_3b/5x5_reduce
I0403 18:16:59.922518 16845 net.cpp:91] Creating Layer inception_3b/5x5_reduce
I0403 18:16:59.922536 16845 net.cpp:425] inception_3b/5x5_reduce <- inception_3a/output_inception_3a/output_0_split_2
I0403 18:16:59.922559 16845 net.cpp:399] inception_3b/5x5_reduce -> inception_3b/5x5_reduce
I0403 18:16:59.923604 16845 net.cpp:141] Setting up inception_3b/5x5_reduce
I0403 18:16:59.923635 16845 net.cpp:148] Top shape: 24 32 28 28 (602112)
I0403 18:16:59.923650 16845 net.cpp:156] Memory required for data: 727352352
I0403 18:16:59.923671 16845 layer_factory.hpp:77] Creating layer inception_3b/relu_5x5_reduce
I0403 18:16:59.923691 16845 net.cpp:91] Creating Layer inception_3b/relu_5x5_reduce
I0403 18:16:59.923708 16845 net.cpp:425] inception_3b/relu_5x5_reduce <- inception_3b/5x5_reduce
I0403 18:16:59.923729 16845 net.cpp:386] inception_3b/relu_5x5_reduce -> inception_3b/5x5_reduce (in-place)
I0403 18:16:59.923928 16845 net.cpp:141] Setting up inception_3b/relu_5x5_reduce
I0403 18:16:59.923959 16845 net.cpp:148] Top shape: 24 32 28 28 (602112)
I0403 18:16:59.923976 16845 net.cpp:156] Memory required for data: 729760800
I0403 18:16:59.923991 16845 layer_factory.hpp:77] Creating layer inception_3b/5x5
I0403 18:16:59.924015 16845 net.cpp:91] Creating Layer inception_3b/5x5
I0403 18:16:59.924034 16845 net.cpp:425] inception_3b/5x5 <- inception_3b/5x5_reduce
I0403 18:16:59.924057 16845 net.cpp:399] inception_3b/5x5 -> inception_3b/5x5
I0403 18:16:59.926126 16845 net.cpp:141] Setting up inception_3b/5x5
I0403 18:16:59.926158 16845 net.cpp:148] Top shape: 24 96 28 28 (1806336)
I0403 18:16:59.926177 16845 net.cpp:156] Memory required for data: 736986144
I0403 18:16:59.926198 16845 layer_factory.hpp:77] Creating layer inception_3b/relu_5x5
I0403 18:16:59.926216 16845 net.cpp:91] Creating Layer inception_3b/relu_5x5
I0403 18:16:59.926234 16845 net.cpp:425] inception_3b/relu_5x5 <- inception_3b/5x5
I0403 18:16:59.926254 16845 net.cpp:386] inception_3b/relu_5x5 -> inception_3b/5x5 (in-place)
I0403 18:16:59.926460 16845 net.cpp:141] Setting up inception_3b/relu_5x5
I0403 18:16:59.926486 16845 net.cpp:148] Top shape: 24 96 28 28 (1806336)
I0403 18:16:59.926501 16845 net.cpp:156] Memory required for data: 744211488
I0403 18:16:59.926517 16845 layer_factory.hpp:77] Creating layer inception_3b/pool
I0403 18:16:59.926537 16845 net.cpp:91] Creating Layer inception_3b/pool
I0403 18:16:59.926553 16845 net.cpp:425] inception_3b/pool <- inception_3a/output_inception_3a/output_0_split_3
I0403 18:16:59.926573 16845 net.cpp:399] inception_3b/pool -> inception_3b/pool
I0403 18:16:59.926631 16845 net.cpp:141] Setting up inception_3b/pool
I0403 18:16:59.926656 16845 net.cpp:148] Top shape: 24 256 28 28 (4816896)
I0403 18:16:59.926672 16845 net.cpp:156] Memory required for data: 763479072
I0403 18:16:59.926688 16845 layer_factory.hpp:77] Creating layer inception_3b/pool_proj
I0403 18:16:59.926713 16845 net.cpp:91] Creating Layer inception_3b/pool_proj
I0403 18:16:59.926733 16845 net.cpp:425] inception_3b/pool_proj <- inception_3b/pool
I0403 18:16:59.926753 16845 net.cpp:399] inception_3b/pool_proj -> inception_3b/pool_proj
I0403 18:16:59.927867 16845 net.cpp:141] Setting up inception_3b/pool_proj
I0403 18:16:59.927896 16845 net.cpp:148] Top shape: 24 64 28 28 (1204224)
I0403 18:16:59.927912 16845 net.cpp:156] Memory required for data: 768295968
I0403 18:16:59.927932 16845 layer_factory.hpp:77] Creating layer inception_3b/relu_pool_proj
I0403 18:16:59.927958 16845 net.cpp:91] Creating Layer inception_3b/relu_pool_proj
I0403 18:16:59.927978 16845 net.cpp:425] inception_3b/relu_pool_proj <- inception_3b/pool_proj
I0403 18:16:59.927996 16845 net.cpp:386] inception_3b/relu_pool_proj -> inception_3b/pool_proj (in-place)
I0403 18:16:59.928413 16845 net.cpp:141] Setting up inception_3b/relu_pool_proj
I0403 18:16:59.928442 16845 net.cpp:148] Top shape: 24 64 28 28 (1204224)
I0403 18:16:59.928458 16845 net.cpp:156] Memory required for data: 773112864
I0403 18:16:59.928474 16845 layer_factory.hpp:77] Creating layer inception_3b/output
I0403 18:16:59.928495 16845 net.cpp:91] Creating Layer inception_3b/output
I0403 18:16:59.928514 16845 net.cpp:425] inception_3b/output <- inception_3b/1x1
I0403 18:16:59.928530 16845 net.cpp:425] inception_3b/output <- inception_3b/3x3
I0403 18:16:59.928547 16845 net.cpp:425] inception_3b/output <- inception_3b/5x5
I0403 18:16:59.928565 16845 net.cpp:425] inception_3b/output <- inception_3b/pool_proj
I0403 18:16:59.928583 16845 net.cpp:399] inception_3b/output -> inception_3b/output
I0403 18:16:59.928628 16845 net.cpp:141] Setting up inception_3b/output
I0403 18:16:59.928655 16845 net.cpp:148] Top shape: 24 480 28 28 (9031680)
I0403 18:16:59.928671 16845 net.cpp:156] Memory required for data: 809239584
I0403 18:16:59.928688 16845 layer_factory.hpp:77] Creating layer pool3/3x3_s2
I0403 18:16:59.928705 16845 net.cpp:91] Creating Layer pool3/3x3_s2
I0403 18:16:59.928722 16845 net.cpp:425] pool3/3x3_s2 <- inception_3b/output
I0403 18:16:59.928761 16845 net.cpp:399] pool3/3x3_s2 -> pool3/3x3_s2
I0403 18:16:59.928822 16845 net.cpp:141] Setting up pool3/3x3_s2
I0403 18:16:59.928849 16845 net.cpp:148] Top shape: 24 480 14 14 (2257920)
I0403 18:16:59.928866 16845 net.cpp:156] Memory required for data: 818271264
I0403 18:16:59.928882 16845 layer_factory.hpp:77] Creating layer pool3/3x3_s2_pool3/3x3_s2_0_split
I0403 18:16:59.928900 16845 net.cpp:91] Creating Layer pool3/3x3_s2_pool3/3x3_s2_0_split
I0403 18:16:59.928917 16845 net.cpp:425] pool3/3x3_s2_pool3/3x3_s2_0_split <- pool3/3x3_s2
I0403 18:16:59.928936 16845 net.cpp:399] pool3/3x3_s2_pool3/3x3_s2_0_split -> pool3/3x3_s2_pool3/3x3_s2_0_split_0
I0403 18:16:59.928968 16845 net.cpp:399] pool3/3x3_s2_pool3/3x3_s2_0_split -> pool3/3x3_s2_pool3/3x3_s2_0_split_1
I0403 18:16:59.928997 16845 net.cpp:399] pool3/3x3_s2_pool3/3x3_s2_0_split -> pool3/3x3_s2_pool3/3x3_s2_0_split_2
I0403 18:16:59.929019 16845 net.cpp:399] pool3/3x3_s2_pool3/3x3_s2_0_split -> pool3/3x3_s2_pool3/3x3_s2_0_split_3
I0403 18:16:59.929102 16845 net.cpp:141] Setting up pool3/3x3_s2_pool3/3x3_s2_0_split
I0403 18:16:59.929126 16845 net.cpp:148] Top shape: 24 480 14 14 (2257920)
I0403 18:16:59.929144 16845 net.cpp:148] Top shape: 24 480 14 14 (2257920)
I0403 18:16:59.929162 16845 net.cpp:148] Top shape: 24 480 14 14 (2257920)
I0403 18:16:59.929179 16845 net.cpp:148] Top shape: 24 480 14 14 (2257920)
I0403 18:16:59.929194 16845 net.cpp:156] Memory required for data: 854397984
I0403 18:16:59.929210 16845 layer_factory.hpp:77] Creating layer inception_4a/1x1
I0403 18:16:59.929234 16845 net.cpp:91] Creating Layer inception_4a/1x1
I0403 18:16:59.929252 16845 net.cpp:425] inception_4a/1x1 <- pool3/3x3_s2_pool3/3x3_s2_0_split_0
I0403 18:16:59.929275 16845 net.cpp:399] inception_4a/1x1 -> inception_4a/1x1
I0403 18:16:59.930930 16845 net.cpp:141] Setting up inception_4a/1x1
I0403 18:16:59.930963 16845 net.cpp:148] Top shape: 24 192 14 14 (903168)
I0403 18:16:59.930980 16845 net.cpp:156] Memory required for data: 858010656
I0403 18:16:59.931000 16845 layer_factory.hpp:77] Creating layer inception_4a/relu_1x1
I0403 18:16:59.931021 16845 net.cpp:91] Creating Layer inception_4a/relu_1x1
I0403 18:16:59.931040 16845 net.cpp:425] inception_4a/relu_1x1 <- inception_4a/1x1
I0403 18:16:59.931058 16845 net.cpp:386] inception_4a/relu_1x1 -> inception_4a/1x1 (in-place)
I0403 18:16:59.931241 16845 net.cpp:141] Setting up inception_4a/relu_1x1
I0403 18:16:59.931270 16845 net.cpp:148] Top shape: 24 192 14 14 (903168)
I0403 18:16:59.931285 16845 net.cpp:156] Memory required for data: 861623328
I0403 18:16:59.931301 16845 layer_factory.hpp:77] Creating layer inception_4a/3x3_reduce
I0403 18:16:59.931324 16845 net.cpp:91] Creating Layer inception_4a/3x3_reduce
I0403 18:16:59.931344 16845 net.cpp:425] inception_4a/3x3_reduce <- pool3/3x3_s2_pool3/3x3_s2_0_split_1
I0403 18:16:59.931366 16845 net.cpp:399] inception_4a/3x3_reduce -> inception_4a/3x3_reduce
I0403 18:16:59.932698 16845 net.cpp:141] Setting up inception_4a/3x3_reduce
I0403 18:16:59.932728 16845 net.cpp:148] Top shape: 24 96 14 14 (451584)
I0403 18:16:59.932744 16845 net.cpp:156] Memory required for data: 863429664
I0403 18:16:59.932770 16845 layer_factory.hpp:77] Creating layer inception_4a/relu_3x3_reduce
I0403 18:16:59.932795 16845 net.cpp:91] Creating Layer inception_4a/relu_3x3_reduce
I0403 18:16:59.932812 16845 net.cpp:425] inception_4a/relu_3x3_reduce <- inception_4a/3x3_reduce
I0403 18:16:59.932832 16845 net.cpp:386] inception_4a/relu_3x3_reduce -> inception_4a/3x3_reduce (in-place)
I0403 18:16:59.933024 16845 net.cpp:141] Setting up inception_4a/relu_3x3_reduce
I0403 18:16:59.933053 16845 net.cpp:148] Top shape: 24 96 14 14 (451584)
I0403 18:16:59.933070 16845 net.cpp:156] Memory required for data: 865236000
I0403 18:16:59.933086 16845 layer_factory.hpp:77] Creating layer inception_4a/3x3
I0403 18:16:59.933109 16845 net.cpp:91] Creating Layer inception_4a/3x3
I0403 18:16:59.933128 16845 net.cpp:425] inception_4a/3x3 <- inception_4a/3x3_reduce
I0403 18:16:59.933150 16845 net.cpp:399] inception_4a/3x3 -> inception_4a/3x3
I0403 18:16:59.935966 16845 net.cpp:141] Setting up inception_4a/3x3
I0403 18:16:59.935998 16845 net.cpp:148] Top shape: 24 208 14 14 (978432)
I0403 18:16:59.936017 16845 net.cpp:156] Memory required for data: 869149728
I0403 18:16:59.936036 16845 layer_factory.hpp:77] Creating layer inception_4a/relu_3x3
I0403 18:16:59.936056 16845 net.cpp:91] Creating Layer inception_4a/relu_3x3
I0403 18:16:59.936074 16845 net.cpp:425] inception_4a/relu_3x3 <- inception_4a/3x3
I0403 18:16:59.936094 16845 net.cpp:386] inception_4a/relu_3x3 -> inception_4a/3x3 (in-place)
I0403 18:16:59.936383 16845 net.cpp:141] Setting up inception_4a/relu_3x3
I0403 18:16:59.936411 16845 net.cpp:148] Top shape: 24 208 14 14 (978432)
I0403 18:16:59.936429 16845 net.cpp:156] Memory required for data: 873063456
I0403 18:16:59.936444 16845 layer_factory.hpp:77] Creating layer inception_4a/5x5_reduce
I0403 18:16:59.936470 16845 net.cpp:91] Creating Layer inception_4a/5x5_reduce
I0403 18:16:59.936489 16845 net.cpp:425] inception_4a/5x5_reduce <- pool3/3x3_s2_pool3/3x3_s2_0_split_2
I0403 18:16:59.936509 16845 net.cpp:399] inception_4a/5x5_reduce -> inception_4a/5x5_reduce
I0403 18:16:59.937582 16845 net.cpp:141] Setting up inception_4a/5x5_reduce
I0403 18:16:59.937613 16845 net.cpp:148] Top shape: 24 16 14 14 (75264)
I0403 18:16:59.937631 16845 net.cpp:156] Memory required for data: 873364512
I0403 18:16:59.937651 16845 layer_factory.hpp:77] Creating layer inception_4a/relu_5x5_reduce
I0403 18:16:59.937670 16845 net.cpp:91] Creating Layer inception_4a/relu_5x5_reduce
I0403 18:16:59.937687 16845 net.cpp:425] inception_4a/relu_5x5_reduce <- inception_4a/5x5_reduce
I0403 18:16:59.937708 16845 net.cpp:386] inception_4a/relu_5x5_reduce -> inception_4a/5x5_reduce (in-place)
I0403 18:16:59.937897 16845 net.cpp:141] Setting up inception_4a/relu_5x5_reduce
I0403 18:16:59.937924 16845 net.cpp:148] Top shape: 24 16 14 14 (75264)
I0403 18:16:59.937940 16845 net.cpp:156] Memory required for data: 873665568
I0403 18:16:59.937960 16845 layer_factory.hpp:77] Creating layer inception_4a/5x5
I0403 18:16:59.937984 16845 net.cpp:91] Creating Layer inception_4a/5x5
I0403 18:16:59.938004 16845 net.cpp:425] inception_4a/5x5 <- inception_4a/5x5_reduce
I0403 18:16:59.938025 16845 net.cpp:399] inception_4a/5x5 -> inception_4a/5x5
I0403 18:16:59.939182 16845 net.cpp:141] Setting up inception_4a/5x5
I0403 18:16:59.939211 16845 net.cpp:148] Top shape: 24 48 14 14 (225792)
I0403 18:16:59.939229 16845 net.cpp:156] Memory required for data: 874568736
I0403 18:16:59.939247 16845 layer_factory.hpp:77] Creating layer inception_4a/relu_5x5
I0403 18:16:59.939270 16845 net.cpp:91] Creating Layer inception_4a/relu_5x5
I0403 18:16:59.939287 16845 net.cpp:425] inception_4a/relu_5x5 <- inception_4a/5x5
I0403 18:16:59.939306 16845 net.cpp:386] inception_4a/relu_5x5 -> inception_4a/5x5 (in-place)
I0403 18:16:59.939496 16845 net.cpp:141] Setting up inception_4a/relu_5x5
I0403 18:16:59.939522 16845 net.cpp:148] Top shape: 24 48 14 14 (225792)
I0403 18:16:59.939538 16845 net.cpp:156] Memory required for data: 875471904
I0403 18:16:59.939553 16845 layer_factory.hpp:77] Creating layer inception_4a/pool
I0403 18:16:59.939575 16845 net.cpp:91] Creating Layer inception_4a/pool
I0403 18:16:59.939594 16845 net.cpp:425] inception_4a/pool <- pool3/3x3_s2_pool3/3x3_s2_0_split_3
I0403 18:16:59.939612 16845 net.cpp:399] inception_4a/pool -> inception_4a/pool
I0403 18:16:59.939678 16845 net.cpp:141] Setting up inception_4a/pool
I0403 18:16:59.939703 16845 net.cpp:148] Top shape: 24 480 14 14 (2257920)
I0403 18:16:59.939719 16845 net.cpp:156] Memory required for data: 884503584
I0403 18:16:59.939734 16845 layer_factory.hpp:77] Creating layer inception_4a/pool_proj
I0403 18:16:59.939759 16845 net.cpp:91] Creating Layer inception_4a/pool_proj
I0403 18:16:59.939776 16845 net.cpp:425] inception_4a/pool_proj <- inception_4a/pool
I0403 18:16:59.939798 16845 net.cpp:399] inception_4a/pool_proj -> inception_4a/pool_proj
I0403 18:16:59.941031 16845 net.cpp:141] Setting up inception_4a/pool_proj
I0403 18:16:59.941061 16845 net.cpp:148] Top shape: 24 64 14 14 (301056)
I0403 18:16:59.941093 16845 net.cpp:156] Memory required for data: 885707808
I0403 18:16:59.941113 16845 layer_factory.hpp:77] Creating layer inception_4a/relu_pool_proj
I0403 18:16:59.941136 16845 net.cpp:91] Creating Layer inception_4a/relu_pool_proj
I0403 18:16:59.941154 16845 net.cpp:425] inception_4a/relu_pool_proj <- inception_4a/pool_proj
I0403 18:16:59.941174 16845 net.cpp:386] inception_4a/relu_pool_proj -> inception_4a/pool_proj (in-place)
I0403 18:16:59.941470 16845 net.cpp:141] Setting up inception_4a/relu_pool_proj
I0403 18:16:59.941498 16845 net.cpp:148] Top shape: 24 64 14 14 (301056)
I0403 18:16:59.941514 16845 net.cpp:156] Memory required for data: 886912032
I0403 18:16:59.941530 16845 layer_factory.hpp:77] Creating layer inception_4a/output
I0403 18:16:59.941552 16845 net.cpp:91] Creating Layer inception_4a/output
I0403 18:16:59.941570 16845 net.cpp:425] inception_4a/output <- inception_4a/1x1
I0403 18:16:59.941587 16845 net.cpp:425] inception_4a/output <- inception_4a/3x3
I0403 18:16:59.941604 16845 net.cpp:425] inception_4a/output <- inception_4a/5x5
I0403 18:16:59.941620 16845 net.cpp:425] inception_4a/output <- inception_4a/pool_proj
I0403 18:16:59.941638 16845 net.cpp:399] inception_4a/output -> inception_4a/output
I0403 18:16:59.941687 16845 net.cpp:141] Setting up inception_4a/output
I0403 18:16:59.941712 16845 net.cpp:148] Top shape: 24 512 14 14 (2408448)
I0403 18:16:59.941728 16845 net.cpp:156] Memory required for data: 896545824
I0403 18:16:59.941743 16845 layer_factory.hpp:77] Creating layer inception_4a/output_inception_4a/output_0_split
I0403 18:16:59.941762 16845 net.cpp:91] Creating Layer inception_4a/output_inception_4a/output_0_split
I0403 18:16:59.941779 16845 net.cpp:425] inception_4a/output_inception_4a/output_0_split <- inception_4a/output
I0403 18:16:59.941800 16845 net.cpp:399] inception_4a/output_inception_4a/output_0_split -> inception_4a/output_inception_4a/output_0_split_0
I0403 18:16:59.941823 16845 net.cpp:399] inception_4a/output_inception_4a/output_0_split -> inception_4a/output_inception_4a/output_0_split_1
I0403 18:16:59.941845 16845 net.cpp:399] inception_4a/output_inception_4a/output_0_split -> inception_4a/output_inception_4a/output_0_split_2
I0403 18:16:59.941866 16845 net.cpp:399] inception_4a/output_inception_4a/output_0_split -> inception_4a/output_inception_4a/output_0_split_3
I0403 18:16:59.941887 16845 net.cpp:399] inception_4a/output_inception_4a/output_0_split -> inception_4a/output_inception_4a/output_0_split_4
I0403 18:16:59.941992 16845 net.cpp:141] Setting up inception_4a/output_inception_4a/output_0_split
I0403 18:16:59.942016 16845 net.cpp:148] Top shape: 24 512 14 14 (2408448)
I0403 18:16:59.942034 16845 net.cpp:148] Top shape: 24 512 14 14 (2408448)
I0403 18:16:59.942052 16845 net.cpp:148] Top shape: 24 512 14 14 (2408448)
I0403 18:16:59.942070 16845 net.cpp:148] Top shape: 24 512 14 14 (2408448)
I0403 18:16:59.942085 16845 net.cpp:148] Top shape: 24 512 14 14 (2408448)
I0403 18:16:59.942100 16845 net.cpp:156] Memory required for data: 944714784
I0403 18:16:59.942116 16845 layer_factory.hpp:77] Creating layer loss1/ave_pool
I0403 18:16:59.942134 16845 net.cpp:91] Creating Layer loss1/ave_pool
I0403 18:16:59.942152 16845 net.cpp:425] loss1/ave_pool <- inception_4a/output_inception_4a/output_0_split_0
I0403 18:16:59.942173 16845 net.cpp:399] loss1/ave_pool -> loss1/ave_pool
I0403 18:16:59.942391 16845 net.cpp:141] Setting up loss1/ave_pool
I0403 18:16:59.942419 16845 net.cpp:148] Top shape: 24 512 4 4 (196608)
I0403 18:16:59.942435 16845 net.cpp:156] Memory required for data: 945501216
I0403 18:16:59.942451 16845 layer_factory.hpp:77] Creating layer loss1/conv
I0403 18:16:59.942473 16845 net.cpp:91] Creating Layer loss1/conv
I0403 18:16:59.942492 16845 net.cpp:425] loss1/conv <- loss1/ave_pool
I0403 18:16:59.942513 16845 net.cpp:399] loss1/conv -> loss1/conv
I0403 18:16:59.944020 16845 net.cpp:141] Setting up loss1/conv
I0403 18:16:59.944052 16845 net.cpp:148] Top shape: 24 128 4 4 (49152)
I0403 18:16:59.944083 16845 net.cpp:156] Memory required for data: 945697824
I0403 18:16:59.944105 16845 layer_factory.hpp:77] Creating layer loss1/relu_conv
I0403 18:16:59.944125 16845 net.cpp:91] Creating Layer loss1/relu_conv
I0403 18:16:59.944142 16845 net.cpp:425] loss1/relu_conv <- loss1/conv
I0403 18:16:59.944164 16845 net.cpp:386] loss1/relu_conv -> loss1/conv (in-place)
I0403 18:16:59.944464 16845 net.cpp:141] Setting up loss1/relu_conv
I0403 18:16:59.944494 16845 net.cpp:148] Top shape: 24 128 4 4 (49152)
I0403 18:16:59.944511 16845 net.cpp:156] Memory required for data: 945894432
I0403 18:16:59.944527 16845 layer_factory.hpp:77] Creating layer loss1/fc
I0403 18:16:59.944552 16845 net.cpp:91] Creating Layer loss1/fc
I0403 18:16:59.944572 16845 net.cpp:425] loss1/fc <- loss1/conv
I0403 18:16:59.944594 16845 net.cpp:399] loss1/fc -> loss1/fc
I0403 18:16:59.963316 16845 net.cpp:141] Setting up loss1/fc
I0403 18:16:59.963353 16845 net.cpp:148] Top shape: 24 1024 (24576)
I0403 18:16:59.963371 16845 net.cpp:156] Memory required for data: 945992736
I0403 18:16:59.963390 16845 layer_factory.hpp:77] Creating layer loss1/relu_fc
I0403 18:16:59.963413 16845 net.cpp:91] Creating Layer loss1/relu_fc
I0403 18:16:59.963431 16845 net.cpp:425] loss1/relu_fc <- loss1/fc
I0403 18:16:59.963449 16845 net.cpp:386] loss1/relu_fc -> loss1/fc (in-place)
I0403 18:16:59.963644 16845 net.cpp:141] Setting up loss1/relu_fc
I0403 18:16:59.963671 16845 net.cpp:148] Top shape: 24 1024 (24576)
I0403 18:16:59.963686 16845 net.cpp:156] Memory required for data: 946091040
I0403 18:16:59.963702 16845 layer_factory.hpp:77] Creating layer loss1/drop_fc
I0403 18:16:59.963728 16845 net.cpp:91] Creating Layer loss1/drop_fc
I0403 18:16:59.963747 16845 net.cpp:425] loss1/drop_fc <- loss1/fc
I0403 18:16:59.963768 16845 net.cpp:386] loss1/drop_fc -> loss1/fc (in-place)
I0403 18:16:59.963822 16845 net.cpp:141] Setting up loss1/drop_fc
I0403 18:16:59.963846 16845 net.cpp:148] Top shape: 24 1024 (24576)
I0403 18:16:59.963862 16845 net.cpp:156] Memory required for data: 946189344
I0403 18:16:59.963878 16845 layer_factory.hpp:77] Creating layer loss1/classifier_plantvillage
I0403 18:16:59.963902 16845 net.cpp:91] Creating Layer loss1/classifier_plantvillage
I0403 18:16:59.963922 16845 net.cpp:425] loss1/classifier_plantvillage <- loss1/fc
I0403 18:16:59.963940 16845 net.cpp:399] loss1/classifier_plantvillage -> loss1/classifier_plantvillage
I0403 18:16:59.964897 16845 net.cpp:141] Setting up loss1/classifier_plantvillage
I0403 18:16:59.964927 16845 net.cpp:148] Top shape: 24 38 (912)
I0403 18:16:59.964944 16845 net.cpp:156] Memory required for data: 946192992
I0403 18:16:59.964968 16845 layer_factory.hpp:77] Creating layer loss1/classifier_plantvillage_loss1/classifier_plantvillage_0_split
I0403 18:16:59.964992 16845 net.cpp:91] Creating Layer loss1/classifier_plantvillage_loss1/classifier_plantvillage_0_split
I0403 18:16:59.965009 16845 net.cpp:425] loss1/classifier_plantvillage_loss1/classifier_plantvillage_0_split <- loss1/classifier_plantvillage
I0403 18:16:59.965029 16845 net.cpp:399] loss1/classifier_plantvillage_loss1/classifier_plantvillage_0_split -> loss1/classifier_plantvillage_loss1/classifier_plantvillage_0_split_0
I0403 18:16:59.965054 16845 net.cpp:399] loss1/classifier_plantvillage_loss1/classifier_plantvillage_0_split -> loss1/classifier_plantvillage_loss1/classifier_plantvillage_0_split_1
I0403 18:16:59.965075 16845 net.cpp:399] loss1/classifier_plantvillage_loss1/classifier_plantvillage_0_split -> loss1/classifier_plantvillage_loss1/classifier_plantvillage_0_split_2
I0403 18:16:59.965145 16845 net.cpp:141] Setting up loss1/classifier_plantvillage_loss1/classifier_plantvillage_0_split
I0403 18:16:59.965169 16845 net.cpp:148] Top shape: 24 38 (912)
I0403 18:16:59.965188 16845 net.cpp:148] Top shape: 24 38 (912)
I0403 18:16:59.965204 16845 net.cpp:148] Top shape: 24 38 (912)
I0403 18:16:59.965219 16845 net.cpp:156] Memory required for data: 946203936
I0403 18:16:59.965234 16845 layer_factory.hpp:77] Creating layer inception_4b/1x1
I0403 18:16:59.965258 16845 net.cpp:91] Creating Layer inception_4b/1x1
I0403 18:16:59.965292 16845 net.cpp:425] inception_4b/1x1 <- inception_4a/output_inception_4a/output_0_split_1
I0403 18:16:59.965314 16845 net.cpp:399] inception_4b/1x1 -> inception_4b/1x1
I0403 18:16:59.967056 16845 net.cpp:141] Setting up inception_4b/1x1
I0403 18:16:59.967088 16845 net.cpp:148] Top shape: 24 160 14 14 (752640)
I0403 18:16:59.967105 16845 net.cpp:156] Memory required for data: 949214496
I0403 18:16:59.967125 16845 layer_factory.hpp:77] Creating layer inception_4b/relu_1x1
I0403 18:16:59.967144 16845 net.cpp:91] Creating Layer inception_4b/relu_1x1
I0403 18:16:59.967161 16845 net.cpp:425] inception_4b/relu_1x1 <- inception_4b/1x1
I0403 18:16:59.967183 16845 net.cpp:386] inception_4b/relu_1x1 -> inception_4b/1x1 (in-place)
I0403 18:16:59.967372 16845 net.cpp:141] Setting up inception_4b/relu_1x1
I0403 18:16:59.967398 16845 net.cpp:148] Top shape: 24 160 14 14 (752640)
I0403 18:16:59.967414 16845 net.cpp:156] Memory required for data: 952225056
I0403 18:16:59.967430 16845 layer_factory.hpp:77] Creating layer inception_4b/3x3_reduce
I0403 18:16:59.967456 16845 net.cpp:91] Creating Layer inception_4b/3x3_reduce
I0403 18:16:59.967475 16845 net.cpp:425] inception_4b/3x3_reduce <- inception_4a/output_inception_4a/output_0_split_2
I0403 18:16:59.967497 16845 net.cpp:399] inception_4b/3x3_reduce -> inception_4b/3x3_reduce
I0403 18:16:59.968927 16845 net.cpp:141] Setting up inception_4b/3x3_reduce
I0403 18:16:59.968968 16845 net.cpp:148] Top shape: 24 112 14 14 (526848)
I0403 18:16:59.968986 16845 net.cpp:156] Memory required for data: 954332448
I0403 18:16:59.969007 16845 layer_factory.hpp:77] Creating layer inception_4b/relu_3x3_reduce
I0403 18:16:59.969025 16845 net.cpp:91] Creating Layer inception_4b/relu_3x3_reduce
I0403 18:16:59.969043 16845 net.cpp:425] inception_4b/relu_3x3_reduce <- inception_4b/3x3_reduce
I0403 18:16:59.969063 16845 net.cpp:386] inception_4b/relu_3x3_reduce -> inception_4b/3x3_reduce (in-place)
I0403 18:16:59.969362 16845 net.cpp:141] Setting up inception_4b/relu_3x3_reduce
I0403 18:16:59.969390 16845 net.cpp:148] Top shape: 24 112 14 14 (526848)
I0403 18:16:59.969406 16845 net.cpp:156] Memory required for data: 956439840
I0403 18:16:59.969422 16845 layer_factory.hpp:77] Creating layer inception_4b/3x3
I0403 18:16:59.969446 16845 net.cpp:91] Creating Layer inception_4b/3x3
I0403 18:16:59.969466 16845 net.cpp:425] inception_4b/3x3 <- inception_4b/3x3_reduce
I0403 18:16:59.969488 16845 net.cpp:399] inception_4b/3x3 -> inception_4b/3x3
I0403 18:16:59.972640 16845 net.cpp:141] Setting up inception_4b/3x3
I0403 18:16:59.972671 16845 net.cpp:148] Top shape: 24 224 14 14 (1053696)
I0403 18:16:59.972687 16845 net.cpp:156] Memory required for data: 960654624
I0403 18:16:59.972707 16845 layer_factory.hpp:77] Creating layer inception_4b/relu_3x3
I0403 18:16:59.972729 16845 net.cpp:91] Creating Layer inception_4b/relu_3x3
I0403 18:16:59.972749 16845 net.cpp:425] inception_4b/relu_3x3 <- inception_4b/3x3
I0403 18:16:59.972767 16845 net.cpp:386] inception_4b/relu_3x3 -> inception_4b/3x3 (in-place)
I0403 18:16:59.972962 16845 net.cpp:141] Setting up inception_4b/relu_3x3
I0403 18:16:59.972990 16845 net.cpp:148] Top shape: 24 224 14 14 (1053696)
I0403 18:16:59.973004 16845 net.cpp:156] Memory required for data: 964869408
I0403 18:16:59.973021 16845 layer_factory.hpp:77] Creating layer inception_4b/5x5_reduce
I0403 18:16:59.973044 16845 net.cpp:91] Creating Layer inception_4b/5x5_reduce
I0403 18:16:59.973062 16845 net.cpp:425] inception_4b/5x5_reduce <- inception_4a/output_inception_4a/output_0_split_3
I0403 18:16:59.973086 16845 net.cpp:399] inception_4b/5x5_reduce -> inception_4b/5x5_reduce
I0403 18:16:59.974242 16845 net.cpp:141] Setting up inception_4b/5x5_reduce
I0403 18:16:59.974272 16845 net.cpp:148] Top shape: 24 24 14 14 (112896)
I0403 18:16:59.974288 16845 net.cpp:156] Memory required for data: 965320992
I0403 18:16:59.974308 16845 layer_factory.hpp:77] Creating layer inception_4b/relu_5x5_reduce
I0403 18:16:59.974328 16845 net.cpp:91] Creating Layer inception_4b/relu_5x5_reduce
I0403 18:16:59.974360 16845 net.cpp:425] inception_4b/relu_5x5_reduce <- inception_4b/5x5_reduce
I0403 18:16:59.974383 16845 net.cpp:386] inception_4b/relu_5x5_reduce -> inception_4b/5x5_reduce (in-place)
I0403 18:16:59.974581 16845 net.cpp:141] Setting up inception_4b/relu_5x5_reduce
I0403 18:16:59.974608 16845 net.cpp:148] Top shape: 24 24 14 14 (112896)
I0403 18:16:59.974624 16845 net.cpp:156] Memory required for data: 965772576
I0403 18:16:59.974642 16845 layer_factory.hpp:77] Creating layer inception_4b/5x5
I0403 18:16:59.974666 16845 net.cpp:91] Creating Layer inception_4b/5x5
I0403 18:16:59.974684 16845 net.cpp:425] inception_4b/5x5 <- inception_4b/5x5_reduce
I0403 18:16:59.974707 16845 net.cpp:399] inception_4b/5x5 -> inception_4b/5x5
I0403 18:16:59.976019 16845 net.cpp:141] Setting up inception_4b/5x5
I0403 18:16:59.976050 16845 net.cpp:148] Top shape: 24 64 14 14 (301056)
I0403 18:16:59.976068 16845 net.cpp:156] Memory required for data: 966976800
I0403 18:16:59.976088 16845 layer_factory.hpp:77] Creating layer inception_4b/relu_5x5
I0403 18:16:59.976106 16845 net.cpp:91] Creating Layer inception_4b/relu_5x5
I0403 18:16:59.976125 16845 net.cpp:425] inception_4b/relu_5x5 <- inception_4b/5x5
I0403 18:16:59.976146 16845 net.cpp:386] inception_4b/relu_5x5 -> inception_4b/5x5 (in-place)
I0403 18:16:59.976449 16845 net.cpp:141] Setting up inception_4b/relu_5x5
I0403 18:16:59.976480 16845 net.cpp:148] Top shape: 24 64 14 14 (301056)
I0403 18:16:59.976497 16845 net.cpp:156] Memory required for data: 968181024
I0403 18:16:59.976512 16845 layer_factory.hpp:77] Creating layer inception_4b/pool
I0403 18:16:59.976531 16845 net.cpp:91] Creating Layer inception_4b/pool
I0403 18:16:59.976549 16845 net.cpp:425] inception_4b/pool <- inception_4a/output_inception_4a/output_0_split_4
I0403 18:16:59.976572 16845 net.cpp:399] inception_4b/pool -> inception_4b/pool
I0403 18:16:59.976639 16845 net.cpp:141] Setting up inception_4b/pool
I0403 18:16:59.976666 16845 net.cpp:148] Top shape: 24 512 14 14 (2408448)
I0403 18:16:59.976682 16845 net.cpp:156] Memory required for data: 977814816
I0403 18:16:59.976698 16845 layer_factory.hpp:77] Creating layer inception_4b/pool_proj
I0403 18:16:59.976719 16845 net.cpp:91] Creating Layer inception_4b/pool_proj
I0403 18:16:59.976737 16845 net.cpp:425] inception_4b/pool_proj <- inception_4b/pool
I0403 18:16:59.976759 16845 net.cpp:399] inception_4b/pool_proj -> inception_4b/pool_proj
I0403 18:16:59.978045 16845 net.cpp:141] Setting up inception_4b/pool_proj
I0403 18:16:59.978075 16845 net.cpp:148] Top shape: 24 64 14 14 (301056)
I0403 18:16:59.978092 16845 net.cpp:156] Memory required for data: 979019040
I0403 18:16:59.978111 16845 layer_factory.hpp:77] Creating layer inception_4b/relu_pool_proj
I0403 18:16:59.978132 16845 net.cpp:91] Creating Layer inception_4b/relu_pool_proj
I0403 18:16:59.978149 16845 net.cpp:425] inception_4b/relu_pool_proj <- inception_4b/pool_proj
I0403 18:16:59.978170 16845 net.cpp:386] inception_4b/relu_pool_proj -> inception_4b/pool_proj (in-place)
I0403 18:16:59.978364 16845 net.cpp:141] Setting up inception_4b/relu_pool_proj
I0403 18:16:59.978391 16845 net.cpp:148] Top shape: 24 64 14 14 (301056)
I0403 18:16:59.978406 16845 net.cpp:156] Memory required for data: 980223264
I0403 18:16:59.978422 16845 layer_factory.hpp:77] Creating layer inception_4b/output
I0403 18:16:59.978440 16845 net.cpp:91] Creating Layer inception_4b/output
I0403 18:16:59.978456 16845 net.cpp:425] inception_4b/output <- inception_4b/1x1
I0403 18:16:59.978477 16845 net.cpp:425] inception_4b/output <- inception_4b/3x3
I0403 18:16:59.978494 16845 net.cpp:425] inception_4b/output <- inception_4b/5x5
I0403 18:16:59.978513 16845 net.cpp:425] inception_4b/output <- inception_4b/pool_proj
I0403 18:16:59.978530 16845 net.cpp:399] inception_4b/output -> inception_4b/output
I0403 18:16:59.978580 16845 net.cpp:141] Setting up inception_4b/output
I0403 18:16:59.978605 16845 net.cpp:148] Top shape: 24 512 14 14 (2408448)
I0403 18:16:59.978621 16845 net.cpp:156] Memory required for data: 989857056
I0403 18:16:59.978651 16845 layer_factory.hpp:77] Creating layer inception_4b/output_inception_4b/output_0_split
I0403 18:16:59.978670 16845 net.cpp:91] Creating Layer inception_4b/output_inception_4b/output_0_split
I0403 18:16:59.978688 16845 net.cpp:425] inception_4b/output_inception_4b/output_0_split <- inception_4b/output
I0403 18:16:59.978708 16845 net.cpp:399] inception_4b/output_inception_4b/output_0_split -> inception_4b/output_inception_4b/output_0_split_0
I0403 18:16:59.978731 16845 net.cpp:399] inception_4b/output_inception_4b/output_0_split -> inception_4b/output_inception_4b/output_0_split_1
I0403 18:16:59.978754 16845 net.cpp:399] inception_4b/output_inception_4b/output_0_split -> inception_4b/output_inception_4b/output_0_split_2
I0403 18:16:59.978775 16845 net.cpp:399] inception_4b/output_inception_4b/output_0_split -> inception_4b/output_inception_4b/output_0_split_3
I0403 18:16:59.978865 16845 net.cpp:141] Setting up inception_4b/output_inception_4b/output_0_split
I0403 18:16:59.978891 16845 net.cpp:148] Top shape: 24 512 14 14 (2408448)
I0403 18:16:59.978909 16845 net.cpp:148] Top shape: 24 512 14 14 (2408448)
I0403 18:16:59.978925 16845 net.cpp:148] Top shape: 24 512 14 14 (2408448)
I0403 18:16:59.978942 16845 net.cpp:148] Top shape: 24 512 14 14 (2408448)
I0403 18:16:59.978970 16845 net.cpp:156] Memory required for data: 1028392224
I0403 18:16:59.978986 16845 layer_factory.hpp:77] Creating layer inception_4c/1x1
I0403 18:16:59.979010 16845 net.cpp:91] Creating Layer inception_4c/1x1
I0403 18:16:59.979029 16845 net.cpp:425] inception_4c/1x1 <- inception_4b/output_inception_4b/output_0_split_0
I0403 18:16:59.979049 16845 net.cpp:399] inception_4c/1x1 -> inception_4c/1x1
I0403 18:16:59.980569 16845 net.cpp:141] Setting up inception_4c/1x1
I0403 18:16:59.980599 16845 net.cpp:148] Top shape: 24 128 14 14 (602112)
I0403 18:16:59.980615 16845 net.cpp:156] Memory required for data: 1030800672
I0403 18:16:59.980634 16845 layer_factory.hpp:77] Creating layer inception_4c/relu_1x1
I0403 18:16:59.980657 16845 net.cpp:91] Creating Layer inception_4c/relu_1x1
I0403 18:16:59.980675 16845 net.cpp:425] inception_4c/relu_1x1 <- inception_4c/1x1
I0403 18:16:59.980695 16845 net.cpp:386] inception_4c/relu_1x1 -> inception_4c/1x1 (in-place)
I0403 18:16:59.980888 16845 net.cpp:141] Setting up inception_4c/relu_1x1
I0403 18:16:59.980926 16845 net.cpp:148] Top shape: 24 128 14 14 (602112)
I0403 18:16:59.980942 16845 net.cpp:156] Memory required for data: 1033209120
I0403 18:16:59.980962 16845 layer_factory.hpp:77] Creating layer inception_4c/3x3_reduce
I0403 18:16:59.980986 16845 net.cpp:91] Creating Layer inception_4c/3x3_reduce
I0403 18:16:59.981006 16845 net.cpp:425] inception_4c/3x3_reduce <- inception_4b/output_inception_4b/output_0_split_1
I0403 18:16:59.981026 16845 net.cpp:399] inception_4c/3x3_reduce -> inception_4c/3x3_reduce
I0403 18:16:59.983088 16845 net.cpp:141] Setting up inception_4c/3x3_reduce
I0403 18:16:59.983121 16845 net.cpp:148] Top shape: 24 128 14 14 (602112)
I0403 18:16:59.983137 16845 net.cpp:156] Memory required for data: 1035617568
I0403 18:16:59.983157 16845 layer_factory.hpp:77] Creating layer inception_4c/relu_3x3_reduce
I0403 18:16:59.983178 16845 net.cpp:91] Creating Layer inception_4c/relu_3x3_reduce
I0403 18:16:59.983196 16845 net.cpp:425] inception_4c/relu_3x3_reduce <- inception_4c/3x3_reduce
I0403 18:16:59.983217 16845 net.cpp:386] inception_4c/relu_3x3_reduce -> inception_4c/3x3_reduce (in-place)
I0403 18:16:59.983520 16845 net.cpp:141] Setting up inception_4c/relu_3x3_reduce
I0403 18:16:59.983551 16845 net.cpp:148] Top shape: 24 128 14 14 (602112)
I0403 18:16:59.983566 16845 net.cpp:156] Memory required for data: 1038026016
I0403 18:16:59.983582 16845 layer_factory.hpp:77] Creating layer inception_4c/3x3
I0403 18:16:59.983608 16845 net.cpp:91] Creating Layer inception_4c/3x3
I0403 18:16:59.983628 16845 net.cpp:425] inception_4c/3x3 <- inception_4c/3x3_reduce
I0403 18:16:59.983650 16845 net.cpp:399] inception_4c/3x3 -> inception_4c/3x3
I0403 18:16:59.987475 16845 net.cpp:141] Setting up inception_4c/3x3
I0403 18:16:59.987520 16845 net.cpp:148] Top shape: 24 256 14 14 (1204224)
I0403 18:16:59.987539 16845 net.cpp:156] Memory required for data: 1042842912
I0403 18:16:59.987571 16845 layer_factory.hpp:77] Creating layer inception_4c/relu_3x3
I0403 18:16:59.987594 16845 net.cpp:91] Creating Layer inception_4c/relu_3x3
I0403 18:16:59.987612 16845 net.cpp:425] inception_4c/relu_3x3 <- inception_4c/3x3
I0403 18:16:59.987632 16845 net.cpp:386] inception_4c/relu_3x3 -> inception_4c/3x3 (in-place)
I0403 18:16:59.987828 16845 net.cpp:141] Setting up inception_4c/relu_3x3
I0403 18:16:59.987855 16845 net.cpp:148] Top shape: 24 256 14 14 (1204224)
I0403 18:16:59.987871 16845 net.cpp:156] Memory required for data: 1047659808
I0403 18:16:59.987887 16845 layer_factory.hpp:77] Creating layer inception_4c/5x5_reduce
I0403 18:16:59.987911 16845 net.cpp:91] Creating Layer inception_4c/5x5_reduce
I0403 18:16:59.987931 16845 net.cpp:425] inception_4c/5x5_reduce <- inception_4b/output_inception_4b/output_0_split_2
I0403 18:16:59.987958 16845 net.cpp:399] inception_4c/5x5_reduce -> inception_4c/5x5_reduce
I0403 18:16:59.989140 16845 net.cpp:141] Setting up inception_4c/5x5_reduce
I0403 18:16:59.989171 16845 net.cpp:148] Top shape: 24 24 14 14 (112896)
I0403 18:16:59.989188 16845 net.cpp:156] Memory required for data: 1048111392
I0403 18:16:59.989208 16845 layer_factory.hpp:77] Creating layer inception_4c/relu_5x5_reduce
I0403 18:16:59.989226 16845 net.cpp:91] Creating Layer inception_4c/relu_5x5_reduce
I0403 18:16:59.989244 16845 net.cpp:425] inception_4c/relu_5x5_reduce <- inception_4c/5x5_reduce
I0403 18:16:59.989265 16845 net.cpp:386] inception_4c/relu_5x5_reduce -> inception_4c/5x5_reduce (in-place)
I0403 18:16:59.989459 16845 net.cpp:141] Setting up inception_4c/relu_5x5_reduce
I0403 18:16:59.989485 16845 net.cpp:148] Top shape: 24 24 14 14 (112896)
I0403 18:16:59.989501 16845 net.cpp:156] Memory required for data: 1048562976
I0403 18:16:59.989517 16845 layer_factory.hpp:77] Creating layer inception_4c/5x5
I0403 18:16:59.989540 16845 net.cpp:91] Creating Layer inception_4c/5x5
I0403 18:16:59.989560 16845 net.cpp:425] inception_4c/5x5 <- inception_4c/5x5_reduce
I0403 18:16:59.989583 16845 net.cpp:399] inception_4c/5x5 -> inception_4c/5x5
I0403 18:16:59.990921 16845 net.cpp:141] Setting up inception_4c/5x5
I0403 18:16:59.990952 16845 net.cpp:148] Top shape: 24 64 14 14 (301056)
I0403 18:16:59.990972 16845 net.cpp:156] Memory required for data: 1049767200
I0403 18:16:59.990990 16845 layer_factory.hpp:77] Creating layer inception_4c/relu_5x5
I0403 18:16:59.991013 16845 net.cpp:91] Creating Layer inception_4c/relu_5x5
I0403 18:16:59.991030 16845 net.cpp:425] inception_4c/relu_5x5 <- inception_4c/5x5
I0403 18:16:59.991050 16845 net.cpp:386] inception_4c/relu_5x5 -> inception_4c/5x5 (in-place)
I0403 18:16:59.991356 16845 net.cpp:141] Setting up inception_4c/relu_5x5
I0403 18:16:59.991384 16845 net.cpp:148] Top shape: 24 64 14 14 (301056)
I0403 18:16:59.991401 16845 net.cpp:156] Memory required for data: 1050971424
I0403 18:16:59.991416 16845 layer_factory.hpp:77] Creating layer inception_4c/pool
I0403 18:16:59.991437 16845 net.cpp:91] Creating Layer inception_4c/pool
I0403 18:16:59.991456 16845 net.cpp:425] inception_4c/pool <- inception_4b/output_inception_4b/output_0_split_3
I0403 18:16:59.991477 16845 net.cpp:399] inception_4c/pool -> inception_4c/pool
I0403 18:16:59.991549 16845 net.cpp:141] Setting up inception_4c/pool
I0403 18:16:59.991575 16845 net.cpp:148] Top shape: 24 512 14 14 (2408448)
I0403 18:16:59.991590 16845 net.cpp:156] Memory required for data: 1060605216
I0403 18:16:59.991606 16845 layer_factory.hpp:77] Creating layer inception_4c/pool_proj
I0403 18:16:59.991629 16845 net.cpp:91] Creating Layer inception_4c/pool_proj
I0403 18:16:59.991648 16845 net.cpp:425] inception_4c/pool_proj <- inception_4c/pool
I0403 18:16:59.991670 16845 net.cpp:399] inception_4c/pool_proj -> inception_4c/pool_proj
I0403 18:16:59.992975 16845 net.cpp:141] Setting up inception_4c/pool_proj
I0403 18:16:59.993007 16845 net.cpp:148] Top shape: 24 64 14 14 (301056)
I0403 18:16:59.993038 16845 net.cpp:156] Memory required for data: 1061809440
I0403 18:16:59.993059 16845 layer_factory.hpp:77] Creating layer inception_4c/relu_pool_proj
I0403 18:16:59.993079 16845 net.cpp:91] Creating Layer inception_4c/relu_pool_proj
I0403 18:16:59.993098 16845 net.cpp:425] inception_4c/relu_pool_proj <- inception_4c/pool_proj
I0403 18:16:59.993119 16845 net.cpp:386] inception_4c/relu_pool_proj -> inception_4c/pool_proj (in-place)
I0403 18:16:59.993312 16845 net.cpp:141] Setting up inception_4c/relu_pool_proj
I0403 18:16:59.993338 16845 net.cpp:148] Top shape: 24 64 14 14 (301056)
I0403 18:16:59.993353 16845 net.cpp:156] Memory required for data: 1063013664
I0403 18:16:59.993369 16845 layer_factory.hpp:77] Creating layer inception_4c/output
I0403 18:16:59.993387 16845 net.cpp:91] Creating Layer inception_4c/output
I0403 18:16:59.993404 16845 net.cpp:425] inception_4c/output <- inception_4c/1x1
I0403 18:16:59.993422 16845 net.cpp:425] inception_4c/output <- inception_4c/3x3
I0403 18:16:59.993438 16845 net.cpp:425] inception_4c/output <- inception_4c/5x5
I0403 18:16:59.993455 16845 net.cpp:425] inception_4c/output <- inception_4c/pool_proj
I0403 18:16:59.993476 16845 net.cpp:399] inception_4c/output -> inception_4c/output
I0403 18:16:59.993530 16845 net.cpp:141] Setting up inception_4c/output
I0403 18:16:59.993553 16845 net.cpp:148] Top shape: 24 512 14 14 (2408448)
I0403 18:16:59.993569 16845 net.cpp:156] Memory required for data: 1072647456
I0403 18:16:59.993584 16845 layer_factory.hpp:77] Creating layer inception_4c/output_inception_4c/output_0_split
I0403 18:16:59.993602 16845 net.cpp:91] Creating Layer inception_4c/output_inception_4c/output_0_split
I0403 18:16:59.993619 16845 net.cpp:425] inception_4c/output_inception_4c/output_0_split <- inception_4c/output
I0403 18:16:59.993640 16845 net.cpp:399] inception_4c/output_inception_4c/output_0_split -> inception_4c/output_inception_4c/output_0_split_0
I0403 18:16:59.993662 16845 net.cpp:399] inception_4c/output_inception_4c/output_0_split -> inception_4c/output_inception_4c/output_0_split_1
I0403 18:16:59.993685 16845 net.cpp:399] inception_4c/output_inception_4c/output_0_split -> inception_4c/output_inception_4c/output_0_split_2
I0403 18:16:59.993705 16845 net.cpp:399] inception_4c/output_inception_4c/output_0_split -> inception_4c/output_inception_4c/output_0_split_3
I0403 18:16:59.993800 16845 net.cpp:141] Setting up inception_4c/output_inception_4c/output_0_split
I0403 18:16:59.993827 16845 net.cpp:148] Top shape: 24 512 14 14 (2408448)
I0403 18:16:59.993846 16845 net.cpp:148] Top shape: 24 512 14 14 (2408448)
I0403 18:16:59.993863 16845 net.cpp:148] Top shape: 24 512 14 14 (2408448)
I0403 18:16:59.993880 16845 net.cpp:148] Top shape: 24 512 14 14 (2408448)
I0403 18:16:59.993894 16845 net.cpp:156] Memory required for data: 1111182624
I0403 18:16:59.993909 16845 layer_factory.hpp:77] Creating layer inception_4d/1x1
I0403 18:16:59.993933 16845 net.cpp:91] Creating Layer inception_4d/1x1
I0403 18:16:59.993955 16845 net.cpp:425] inception_4d/1x1 <- inception_4c/output_inception_4c/output_0_split_0
I0403 18:16:59.993978 16845 net.cpp:399] inception_4d/1x1 -> inception_4d/1x1
I0403 18:16:59.995442 16845 net.cpp:141] Setting up inception_4d/1x1
I0403 18:16:59.995471 16845 net.cpp:148] Top shape: 24 112 14 14 (526848)
I0403 18:16:59.995486 16845 net.cpp:156] Memory required for data: 1113290016
I0403 18:16:59.995506 16845 layer_factory.hpp:77] Creating layer inception_4d/relu_1x1
I0403 18:16:59.995527 16845 net.cpp:91] Creating Layer inception_4d/relu_1x1
I0403 18:16:59.995544 16845 net.cpp:425] inception_4d/relu_1x1 <- inception_4d/1x1
I0403 18:16:59.995563 16845 net.cpp:386] inception_4d/relu_1x1 -> inception_4d/1x1 (in-place)
I0403 18:16:59.995754 16845 net.cpp:141] Setting up inception_4d/relu_1x1
I0403 18:16:59.995779 16845 net.cpp:148] Top shape: 24 112 14 14 (526848)
I0403 18:16:59.995795 16845 net.cpp:156] Memory required for data: 1115397408
I0403 18:16:59.995810 16845 layer_factory.hpp:77] Creating layer inception_4d/3x3_reduce
I0403 18:16:59.995847 16845 net.cpp:91] Creating Layer inception_4d/3x3_reduce
I0403 18:16:59.995867 16845 net.cpp:425] inception_4d/3x3_reduce <- inception_4c/output_inception_4c/output_0_split_1
I0403 18:16:59.995889 16845 net.cpp:399] inception_4d/3x3_reduce -> inception_4d/3x3_reduce
I0403 18:16:59.997455 16845 net.cpp:141] Setting up inception_4d/3x3_reduce
I0403 18:16:59.997483 16845 net.cpp:148] Top shape: 24 144 14 14 (677376)
I0403 18:16:59.997499 16845 net.cpp:156] Memory required for data: 1118106912
I0403 18:16:59.997519 16845 layer_factory.hpp:77] Creating layer inception_4d/relu_3x3_reduce
I0403 18:16:59.997540 16845 net.cpp:91] Creating Layer inception_4d/relu_3x3_reduce
I0403 18:16:59.997558 16845 net.cpp:425] inception_4d/relu_3x3_reduce <- inception_4d/3x3_reduce
I0403 18:16:59.997576 16845 net.cpp:386] inception_4d/relu_3x3_reduce -> inception_4d/3x3_reduce (in-place)
I0403 18:16:59.997874 16845 net.cpp:141] Setting up inception_4d/relu_3x3_reduce
I0403 18:16:59.997901 16845 net.cpp:148] Top shape: 24 144 14 14 (677376)
I0403 18:16:59.997917 16845 net.cpp:156] Memory required for data: 1120816416
I0403 18:16:59.997933 16845 layer_factory.hpp:77] Creating layer inception_4d/3x3
I0403 18:16:59.997961 16845 net.cpp:91] Creating Layer inception_4d/3x3
I0403 18:16:59.997979 16845 net.cpp:425] inception_4d/3x3 <- inception_4d/3x3_reduce
I0403 18:16:59.998002 16845 net.cpp:399] inception_4d/3x3 -> inception_4d/3x3
I0403 18:17:00.002390 16845 net.cpp:141] Setting up inception_4d/3x3
I0403 18:17:00.002423 16845 net.cpp:148] Top shape: 24 288 14 14 (1354752)
I0403 18:17:00.002439 16845 net.cpp:156] Memory required for data: 1126235424
I0403 18:17:00.002459 16845 layer_factory.hpp:77] Creating layer inception_4d/relu_3x3
I0403 18:17:00.002476 16845 net.cpp:91] Creating Layer inception_4d/relu_3x3
I0403 18:17:00.002493 16845 net.cpp:425] inception_4d/relu_3x3 <- inception_4d/3x3
I0403 18:17:00.002511 16845 net.cpp:386] inception_4d/relu_3x3 -> inception_4d/3x3 (in-place)
I0403 18:17:00.002698 16845 net.cpp:141] Setting up inception_4d/relu_3x3
I0403 18:17:00.002723 16845 net.cpp:148] Top shape: 24 288 14 14 (1354752)
I0403 18:17:00.002738 16845 net.cpp:156] Memory required for data: 1131654432
I0403 18:17:00.002754 16845 layer_factory.hpp:77] Creating layer inception_4d/5x5_reduce
I0403 18:17:00.002776 16845 net.cpp:91] Creating Layer inception_4d/5x5_reduce
I0403 18:17:00.002794 16845 net.cpp:425] inception_4d/5x5_reduce <- inception_4c/output_inception_4c/output_0_split_2
I0403 18:17:00.002817 16845 net.cpp:399] inception_4d/5x5_reduce -> inception_4d/5x5_reduce
I0403 18:17:00.003975 16845 net.cpp:141] Setting up inception_4d/5x5_reduce
I0403 18:17:00.004005 16845 net.cpp:148] Top shape: 24 32 14 14 (150528)
I0403 18:17:00.004022 16845 net.cpp:156] Memory required for data: 1132256544
I0403 18:17:00.004040 16845 layer_factory.hpp:77] Creating layer inception_4d/relu_5x5_reduce
I0403 18:17:00.004060 16845 net.cpp:91] Creating Layer inception_4d/relu_5x5_reduce
I0403 18:17:00.004076 16845 net.cpp:425] inception_4d/relu_5x5_reduce <- inception_4d/5x5_reduce
I0403 18:17:00.004096 16845 net.cpp:386] inception_4d/relu_5x5_reduce -> inception_4d/5x5_reduce (in-place)
I0403 18:17:00.004283 16845 net.cpp:141] Setting up inception_4d/relu_5x5_reduce
I0403 18:17:00.004307 16845 net.cpp:148] Top shape: 24 32 14 14 (150528)
I0403 18:17:00.004323 16845 net.cpp:156] Memory required for data: 1132858656
I0403 18:17:00.004338 16845 layer_factory.hpp:77] Creating layer inception_4d/5x5
I0403 18:17:00.004359 16845 net.cpp:91] Creating Layer inception_4d/5x5
I0403 18:17:00.004379 16845 net.cpp:425] inception_4d/5x5 <- inception_4d/5x5_reduce
I0403 18:17:00.004400 16845 net.cpp:399] inception_4d/5x5 -> inception_4d/5x5
I0403 18:17:00.005882 16845 net.cpp:141] Setting up inception_4d/5x5
I0403 18:17:00.005909 16845 net.cpp:148] Top shape: 24 64 14 14 (301056)
I0403 18:17:00.005925 16845 net.cpp:156] Memory required for data: 1134062880
I0403 18:17:00.005944 16845 layer_factory.hpp:77] Creating layer inception_4d/relu_5x5
I0403 18:17:00.005981 16845 net.cpp:91] Creating Layer inception_4d/relu_5x5
I0403 18:17:00.006000 16845 net.cpp:425] inception_4d/relu_5x5 <- inception_4d/5x5
I0403 18:17:00.006021 16845 net.cpp:386] inception_4d/relu_5x5 -> inception_4d/5x5 (in-place)
I0403 18:17:00.006326 16845 net.cpp:141] Setting up inception_4d/relu_5x5
I0403 18:17:00.006353 16845 net.cpp:148] Top shape: 24 64 14 14 (301056)
I0403 18:17:00.006368 16845 net.cpp:156] Memory required for data: 1135267104
I0403 18:17:00.006383 16845 layer_factory.hpp:77] Creating layer inception_4d/pool
I0403 18:17:00.006402 16845 net.cpp:91] Creating Layer inception_4d/pool
I0403 18:17:00.006418 16845 net.cpp:425] inception_4d/pool <- inception_4c/output_inception_4c/output_0_split_3
I0403 18:17:00.006439 16845 net.cpp:399] inception_4d/pool -> inception_4d/pool
I0403 18:17:00.006506 16845 net.cpp:141] Setting up inception_4d/pool
I0403 18:17:00.006531 16845 net.cpp:148] Top shape: 24 512 14 14 (2408448)
I0403 18:17:00.006546 16845 net.cpp:156] Memory required for data: 1144900896
I0403 18:17:00.006561 16845 layer_factory.hpp:77] Creating layer inception_4d/pool_proj
I0403 18:17:00.006583 16845 net.cpp:91] Creating Layer inception_4d/pool_proj
I0403 18:17:00.006603 16845 net.cpp:425] inception_4d/pool_proj <- inception_4d/pool
I0403 18:17:00.006623 16845 net.cpp:399] inception_4d/pool_proj -> inception_4d/pool_proj
I0403 18:17:00.008419 16845 net.cpp:141] Setting up inception_4d/pool_proj
I0403 18:17:00.008451 16845 net.cpp:148] Top shape: 24 64 14 14 (301056)
I0403 18:17:00.008467 16845 net.cpp:156] Memory required for data: 1146105120
I0403 18:17:00.008486 16845 layer_factory.hpp:77] Creating layer inception_4d/relu_pool_proj
I0403 18:17:00.008505 16845 net.cpp:91] Creating Layer inception_4d/relu_pool_proj
I0403 18:17:00.008522 16845 net.cpp:425] inception_4d/relu_pool_proj <- inception_4d/pool_proj
I0403 18:17:00.008540 16845 net.cpp:386] inception_4d/relu_pool_proj -> inception_4d/pool_proj (in-place)
I0403 18:17:00.008726 16845 net.cpp:141] Setting up inception_4d/relu_pool_proj
I0403 18:17:00.008750 16845 net.cpp:148] Top shape: 24 64 14 14 (301056)
I0403 18:17:00.008765 16845 net.cpp:156] Memory required for data: 1147309344
I0403 18:17:00.008781 16845 layer_factory.hpp:77] Creating layer inception_4d/output
I0403 18:17:00.008798 16845 net.cpp:91] Creating Layer inception_4d/output
I0403 18:17:00.008815 16845 net.cpp:425] inception_4d/output <- inception_4d/1x1
I0403 18:17:00.008831 16845 net.cpp:425] inception_4d/output <- inception_4d/3x3
I0403 18:17:00.008847 16845 net.cpp:425] inception_4d/output <- inception_4d/5x5
I0403 18:17:00.008863 16845 net.cpp:425] inception_4d/output <- inception_4d/pool_proj
I0403 18:17:00.008883 16845 net.cpp:399] inception_4d/output -> inception_4d/output
I0403 18:17:00.008931 16845 net.cpp:141] Setting up inception_4d/output
I0403 18:17:00.008961 16845 net.cpp:148] Top shape: 24 528 14 14 (2483712)
I0403 18:17:00.008977 16845 net.cpp:156] Memory required for data: 1157244192
I0403 18:17:00.008992 16845 layer_factory.hpp:77] Creating layer inception_4d/output_inception_4d/output_0_split
I0403 18:17:00.009011 16845 net.cpp:91] Creating Layer inception_4d/output_inception_4d/output_0_split
I0403 18:17:00.009027 16845 net.cpp:425] inception_4d/output_inception_4d/output_0_split <- inception_4d/output
I0403 18:17:00.009048 16845 net.cpp:399] inception_4d/output_inception_4d/output_0_split -> inception_4d/output_inception_4d/output_0_split_0
I0403 18:17:00.009069 16845 net.cpp:399] inception_4d/output_inception_4d/output_0_split -> inception_4d/output_inception_4d/output_0_split_1
I0403 18:17:00.009090 16845 net.cpp:399] inception_4d/output_inception_4d/output_0_split -> inception_4d/output_inception_4d/output_0_split_2
I0403 18:17:00.009111 16845 net.cpp:399] inception_4d/output_inception_4d/output_0_split -> inception_4d/output_inception_4d/output_0_split_3
I0403 18:17:00.009130 16845 net.cpp:399] inception_4d/output_inception_4d/output_0_split -> inception_4d/output_inception_4d/output_0_split_4
I0403 18:17:00.009235 16845 net.cpp:141] Setting up inception_4d/output_inception_4d/output_0_split
I0403 18:17:00.009273 16845 net.cpp:148] Top shape: 24 528 14 14 (2483712)
I0403 18:17:00.009290 16845 net.cpp:148] Top shape: 24 528 14 14 (2483712)
I0403 18:17:00.009305 16845 net.cpp:148] Top shape: 24 528 14 14 (2483712)
I0403 18:17:00.009320 16845 net.cpp:148] Top shape: 24 528 14 14 (2483712)
I0403 18:17:00.009336 16845 net.cpp:148] Top shape: 24 528 14 14 (2483712)
I0403 18:17:00.009351 16845 net.cpp:156] Memory required for data: 1206918432
I0403 18:17:00.009366 16845 layer_factory.hpp:77] Creating layer loss2/ave_pool
I0403 18:17:00.009385 16845 net.cpp:91] Creating Layer loss2/ave_pool
I0403 18:17:00.009402 16845 net.cpp:425] loss2/ave_pool <- inception_4d/output_inception_4d/output_0_split_0
I0403 18:17:00.009421 16845 net.cpp:399] loss2/ave_pool -> loss2/ave_pool
I0403 18:17:00.009728 16845 net.cpp:141] Setting up loss2/ave_pool
I0403 18:17:00.009757 16845 net.cpp:148] Top shape: 24 528 4 4 (202752)
I0403 18:17:00.009773 16845 net.cpp:156] Memory required for data: 1207729440
I0403 18:17:00.009789 16845 layer_factory.hpp:77] Creating layer loss2/conv
I0403 18:17:00.009811 16845 net.cpp:91] Creating Layer loss2/conv
I0403 18:17:00.009829 16845 net.cpp:425] loss2/conv <- loss2/ave_pool
I0403 18:17:00.009850 16845 net.cpp:399] loss2/conv -> loss2/conv
I0403 18:17:00.011747 16845 net.cpp:141] Setting up loss2/conv
I0403 18:17:00.011775 16845 net.cpp:148] Top shape: 24 128 4 4 (49152)
I0403 18:17:00.011791 16845 net.cpp:156] Memory required for data: 1207926048
I0403 18:17:00.011809 16845 layer_factory.hpp:77] Creating layer loss2/relu_conv
I0403 18:17:00.011831 16845 net.cpp:91] Creating Layer loss2/relu_conv
I0403 18:17:00.011848 16845 net.cpp:425] loss2/relu_conv <- loss2/conv
I0403 18:17:00.011868 16845 net.cpp:386] loss2/relu_conv -> loss2/conv (in-place)
I0403 18:17:00.012158 16845 net.cpp:141] Setting up loss2/relu_conv
I0403 18:17:00.012186 16845 net.cpp:148] Top shape: 24 128 4 4 (49152)
I0403 18:17:00.012200 16845 net.cpp:156] Memory required for data: 1208122656
I0403 18:17:00.012215 16845 layer_factory.hpp:77] Creating layer loss2/fc
I0403 18:17:00.012238 16845 net.cpp:91] Creating Layer loss2/fc
I0403 18:17:00.012256 16845 net.cpp:425] loss2/fc <- loss2/conv
I0403 18:17:00.012275 16845 net.cpp:399] loss2/fc -> loss2/fc
I0403 18:17:00.030447 16845 net.cpp:141] Setting up loss2/fc
I0403 18:17:00.030481 16845 net.cpp:148] Top shape: 24 1024 (24576)
I0403 18:17:00.030498 16845 net.cpp:156] Memory required for data: 1208220960
I0403 18:17:00.030516 16845 layer_factory.hpp:77] Creating layer loss2/relu_fc
I0403 18:17:00.030535 16845 net.cpp:91] Creating Layer loss2/relu_fc
I0403 18:17:00.030553 16845 net.cpp:425] loss2/relu_fc <- loss2/fc
I0403 18:17:00.030575 16845 net.cpp:386] loss2/relu_fc -> loss2/fc (in-place)
I0403 18:17:00.030884 16845 net.cpp:141] Setting up loss2/relu_fc
I0403 18:17:00.030925 16845 net.cpp:148] Top shape: 24 1024 (24576)
I0403 18:17:00.030941 16845 net.cpp:156] Memory required for data: 1208319264
I0403 18:17:00.030961 16845 layer_factory.hpp:77] Creating layer loss2/drop_fc
I0403 18:17:00.030979 16845 net.cpp:91] Creating Layer loss2/drop_fc
I0403 18:17:00.030997 16845 net.cpp:425] loss2/drop_fc <- loss2/fc
I0403 18:17:00.031016 16845 net.cpp:386] loss2/drop_fc -> loss2/fc (in-place)
I0403 18:17:00.031065 16845 net.cpp:141] Setting up loss2/drop_fc
I0403 18:17:00.031088 16845 net.cpp:148] Top shape: 24 1024 (24576)
I0403 18:17:00.031102 16845 net.cpp:156] Memory required for data: 1208417568
I0403 18:17:00.031117 16845 layer_factory.hpp:77] Creating layer loss2/classifier_plantvillage
I0403 18:17:00.031139 16845 net.cpp:91] Creating Layer loss2/classifier_plantvillage
I0403 18:17:00.031167 16845 net.cpp:425] loss2/classifier_plantvillage <- loss2/fc
I0403 18:17:00.031188 16845 net.cpp:399] loss2/classifier_plantvillage -> loss2/classifier_plantvillage
I0403 18:17:00.031591 16845 net.cpp:141] Setting up loss2/classifier_plantvillage
I0403 18:17:00.031616 16845 net.cpp:148] Top shape: 24 38 (912)
I0403 18:17:00.031649 16845 net.cpp:156] Memory required for data: 1208421216
I0403 18:17:00.031668 16845 layer_factory.hpp:77] Creating layer loss2/classifier_plantvillage_loss2/classifier_plantvillage_0_split
I0403 18:17:00.031690 16845 net.cpp:91] Creating Layer loss2/classifier_plantvillage_loss2/classifier_plantvillage_0_split
I0403 18:17:00.031708 16845 net.cpp:425] loss2/classifier_plantvillage_loss2/classifier_plantvillage_0_split <- loss2/classifier_plantvillage
I0403 18:17:00.031725 16845 net.cpp:399] loss2/classifier_plantvillage_loss2/classifier_plantvillage_0_split -> loss2/classifier_plantvillage_loss2/classifier_plantvillage_0_split_0
I0403 18:17:00.031745 16845 net.cpp:399] loss2/classifier_plantvillage_loss2/classifier_plantvillage_0_split -> loss2/classifier_plantvillage_loss2/classifier_plantvillage_0_split_1
I0403 18:17:00.031766 16845 net.cpp:399] loss2/classifier_plantvillage_loss2/classifier_plantvillage_0_split -> loss2/classifier_plantvillage_loss2/classifier_plantvillage_0_split_2
I0403 18:17:00.031844 16845 net.cpp:141] Setting up loss2/classifier_plantvillage_loss2/classifier_plantvillage_0_split
I0403 18:17:00.031868 16845 net.cpp:148] Top shape: 24 38 (912)
I0403 18:17:00.031883 16845 net.cpp:148] Top shape: 24 38 (912)
I0403 18:17:00.031899 16845 net.cpp:148] Top shape: 24 38 (912)
I0403 18:17:00.031913 16845 net.cpp:156] Memory required for data: 1208432160
I0403 18:17:00.031927 16845 layer_factory.hpp:77] Creating layer inception_4e/1x1
I0403 18:17:00.031951 16845 net.cpp:91] Creating Layer inception_4e/1x1
I0403 18:17:00.031970 16845 net.cpp:425] inception_4e/1x1 <- inception_4d/output_inception_4d/output_0_split_1
I0403 18:17:00.031991 16845 net.cpp:399] inception_4e/1x1 -> inception_4e/1x1
I0403 18:17:00.033818 16845 net.cpp:141] Setting up inception_4e/1x1
I0403 18:17:00.033845 16845 net.cpp:148] Top shape: 24 256 14 14 (1204224)
I0403 18:17:00.033862 16845 net.cpp:156] Memory required for data: 1213249056
I0403 18:17:00.033880 16845 layer_factory.hpp:77] Creating layer inception_4e/relu_1x1
I0403 18:17:00.033901 16845 net.cpp:91] Creating Layer inception_4e/relu_1x1
I0403 18:17:00.033920 16845 net.cpp:425] inception_4e/relu_1x1 <- inception_4e/1x1
I0403 18:17:00.033937 16845 net.cpp:386] inception_4e/relu_1x1 -> inception_4e/1x1 (in-place)
I0403 18:17:00.034245 16845 net.cpp:141] Setting up inception_4e/relu_1x1
I0403 18:17:00.034272 16845 net.cpp:148] Top shape: 24 256 14 14 (1204224)
I0403 18:17:00.034287 16845 net.cpp:156] Memory required for data: 1218065952
I0403 18:17:00.034302 16845 layer_factory.hpp:77] Creating layer inception_4e/3x3_reduce
I0403 18:17:00.034325 16845 net.cpp:91] Creating Layer inception_4e/3x3_reduce
I0403 18:17:00.034343 16845 net.cpp:425] inception_4e/3x3_reduce <- inception_4d/output_inception_4d/output_0_split_2
I0403 18:17:00.034364 16845 net.cpp:399] inception_4e/3x3_reduce -> inception_4e/3x3_reduce
I0403 18:17:00.036494 16845 net.cpp:141] Setting up inception_4e/3x3_reduce
I0403 18:17:00.036523 16845 net.cpp:148] Top shape: 24 160 14 14 (752640)
I0403 18:17:00.036538 16845 net.cpp:156] Memory required for data: 1221076512
I0403 18:17:00.036557 16845 layer_factory.hpp:77] Creating layer inception_4e/relu_3x3_reduce
I0403 18:17:00.036577 16845 net.cpp:91] Creating Layer inception_4e/relu_3x3_reduce
I0403 18:17:00.036594 16845 net.cpp:425] inception_4e/relu_3x3_reduce <- inception_4e/3x3_reduce
I0403 18:17:00.036612 16845 net.cpp:386] inception_4e/relu_3x3_reduce -> inception_4e/3x3_reduce (in-place)
I0403 18:17:00.036798 16845 net.cpp:141] Setting up inception_4e/relu_3x3_reduce
I0403 18:17:00.036823 16845 net.cpp:148] Top shape: 24 160 14 14 (752640)
I0403 18:17:00.036837 16845 net.cpp:156] Memory required for data: 1224087072
I0403 18:17:00.036852 16845 layer_factory.hpp:77] Creating layer inception_4e/3x3
I0403 18:17:00.036875 16845 net.cpp:91] Creating Layer inception_4e/3x3
I0403 18:17:00.036891 16845 net.cpp:425] inception_4e/3x3 <- inception_4e/3x3_reduce
I0403 18:17:00.036912 16845 net.cpp:399] inception_4e/3x3 -> inception_4e/3x3
I0403 18:17:00.041906 16845 net.cpp:141] Setting up inception_4e/3x3
I0403 18:17:00.041950 16845 net.cpp:148] Top shape: 24 320 14 14 (1505280)
I0403 18:17:00.041968 16845 net.cpp:156] Memory required for data: 1230108192
I0403 18:17:00.041987 16845 layer_factory.hpp:77] Creating layer inception_4e/relu_3x3
I0403 18:17:00.042008 16845 net.cpp:91] Creating Layer inception_4e/relu_3x3
I0403 18:17:00.042026 16845 net.cpp:425] inception_4e/relu_3x3 <- inception_4e/3x3
I0403 18:17:00.042042 16845 net.cpp:386] inception_4e/relu_3x3 -> inception_4e/3x3 (in-place)
I0403 18:17:00.042342 16845 net.cpp:141] Setting up inception_4e/relu_3x3
I0403 18:17:00.042369 16845 net.cpp:148] Top shape: 24 320 14 14 (1505280)
I0403 18:17:00.042384 16845 net.cpp:156] Memory required for data: 1236129312
I0403 18:17:00.042399 16845 layer_factory.hpp:77] Creating layer inception_4e/5x5_reduce
I0403 18:17:00.042426 16845 net.cpp:91] Creating Layer inception_4e/5x5_reduce
I0403 18:17:00.042445 16845 net.cpp:425] inception_4e/5x5_reduce <- inception_4d/output_inception_4d/output_0_split_3
I0403 18:17:00.042464 16845 net.cpp:399] inception_4e/5x5_reduce -> inception_4e/5x5_reduce
I0403 18:17:00.043555 16845 net.cpp:141] Setting up inception_4e/5x5_reduce
I0403 18:17:00.043581 16845 net.cpp:148] Top shape: 24 32 14 14 (150528)
I0403 18:17:00.043597 16845 net.cpp:156] Memory required for data: 1236731424
I0403 18:17:00.043615 16845 layer_factory.hpp:77] Creating layer inception_4e/relu_5x5_reduce
I0403 18:17:00.043634 16845 net.cpp:91] Creating Layer inception_4e/relu_5x5_reduce
I0403 18:17:00.043650 16845 net.cpp:425] inception_4e/relu_5x5_reduce <- inception_4e/5x5_reduce
I0403 18:17:00.043670 16845 net.cpp:386] inception_4e/relu_5x5_reduce -> inception_4e/5x5_reduce (in-place)
I0403 18:17:00.043973 16845 net.cpp:141] Setting up inception_4e/relu_5x5_reduce
I0403 18:17:00.043999 16845 net.cpp:148] Top shape: 24 32 14 14 (150528)
I0403 18:17:00.044015 16845 net.cpp:156] Memory required for data: 1237333536
I0403 18:17:00.044030 16845 layer_factory.hpp:77] Creating layer inception_4e/5x5
I0403 18:17:00.044069 16845 net.cpp:91] Creating Layer inception_4e/5x5
I0403 18:17:00.044092 16845 net.cpp:425] inception_4e/5x5 <- inception_4e/5x5_reduce
I0403 18:17:00.044113 16845 net.cpp:399] inception_4e/5x5 -> inception_4e/5x5
I0403 18:17:00.045966 16845 net.cpp:141] Setting up inception_4e/5x5
I0403 18:17:00.045994 16845 net.cpp:148] Top shape: 24 128 14 14 (602112)
I0403 18:17:00.046010 16845 net.cpp:156] Memory required for data: 1239741984
I0403 18:17:00.046028 16845 layer_factory.hpp:77] Creating layer inception_4e/relu_5x5
I0403 18:17:00.046046 16845 net.cpp:91] Creating Layer inception_4e/relu_5x5
I0403 18:17:00.046063 16845 net.cpp:425] inception_4e/relu_5x5 <- inception_4e/5x5
I0403 18:17:00.046083 16845 net.cpp:386] inception_4e/relu_5x5 -> inception_4e/5x5 (in-place)
I0403 18:17:00.046283 16845 net.cpp:141] Setting up inception_4e/relu_5x5
I0403 18:17:00.046308 16845 net.cpp:148] Top shape: 24 128 14 14 (602112)
I0403 18:17:00.046322 16845 net.cpp:156] Memory required for data: 1242150432
I0403 18:17:00.046337 16845 layer_factory.hpp:77] Creating layer inception_4e/pool
I0403 18:17:00.046357 16845 net.cpp:91] Creating Layer inception_4e/pool
I0403 18:17:00.046375 16845 net.cpp:425] inception_4e/pool <- inception_4d/output_inception_4d/output_0_split_4
I0403 18:17:00.046392 16845 net.cpp:399] inception_4e/pool -> inception_4e/pool
I0403 18:17:00.046465 16845 net.cpp:141] Setting up inception_4e/pool
I0403 18:17:00.046490 16845 net.cpp:148] Top shape: 24 528 14 14 (2483712)
I0403 18:17:00.046504 16845 net.cpp:156] Memory required for data: 1252085280
I0403 18:17:00.046519 16845 layer_factory.hpp:77] Creating layer inception_4e/pool_proj
I0403 18:17:00.046541 16845 net.cpp:91] Creating Layer inception_4e/pool_proj
I0403 18:17:00.046560 16845 net.cpp:425] inception_4e/pool_proj <- inception_4e/pool
I0403 18:17:00.046581 16845 net.cpp:399] inception_4e/pool_proj -> inception_4e/pool_proj
I0403 18:17:00.048086 16845 net.cpp:141] Setting up inception_4e/pool_proj
I0403 18:17:00.048128 16845 net.cpp:148] Top shape: 24 128 14 14 (602112)
I0403 18:17:00.048146 16845 net.cpp:156] Memory required for data: 1254493728
I0403 18:17:00.048164 16845 layer_factory.hpp:77] Creating layer inception_4e/relu_pool_proj
I0403 18:17:00.048183 16845 net.cpp:91] Creating Layer inception_4e/relu_pool_proj
I0403 18:17:00.048200 16845 net.cpp:425] inception_4e/relu_pool_proj <- inception_4e/pool_proj
I0403 18:17:00.048218 16845 net.cpp:386] inception_4e/relu_pool_proj -> inception_4e/pool_proj (in-place)
I0403 18:17:00.048516 16845 net.cpp:141] Setting up inception_4e/relu_pool_proj
I0403 18:17:00.048544 16845 net.cpp:148] Top shape: 24 128 14 14 (602112)
I0403 18:17:00.048560 16845 net.cpp:156] Memory required for data: 1256902176
I0403 18:17:00.048576 16845 layer_factory.hpp:77] Creating layer inception_4e/output
I0403 18:17:00.048593 16845 net.cpp:91] Creating Layer inception_4e/output
I0403 18:17:00.048609 16845 net.cpp:425] inception_4e/output <- inception_4e/1x1
I0403 18:17:00.048627 16845 net.cpp:425] inception_4e/output <- inception_4e/3x3
I0403 18:17:00.048642 16845 net.cpp:425] inception_4e/output <- inception_4e/5x5
I0403 18:17:00.048660 16845 net.cpp:425] inception_4e/output <- inception_4e/pool_proj
I0403 18:17:00.048676 16845 net.cpp:399] inception_4e/output -> inception_4e/output
I0403 18:17:00.048727 16845 net.cpp:141] Setting up inception_4e/output
I0403 18:17:00.048750 16845 net.cpp:148] Top shape: 24 832 14 14 (3913728)
I0403 18:17:00.048765 16845 net.cpp:156] Memory required for data: 1272557088
I0403 18:17:00.048779 16845 layer_factory.hpp:77] Creating layer pool4/3x3_s2
I0403 18:17:00.048799 16845 net.cpp:91] Creating Layer pool4/3x3_s2
I0403 18:17:00.048817 16845 net.cpp:425] pool4/3x3_s2 <- inception_4e/output
I0403 18:17:00.048835 16845 net.cpp:399] pool4/3x3_s2 -> pool4/3x3_s2
I0403 18:17:00.048903 16845 net.cpp:141] Setting up pool4/3x3_s2
I0403 18:17:00.048926 16845 net.cpp:148] Top shape: 24 832 7 7 (978432)
I0403 18:17:00.048941 16845 net.cpp:156] Memory required for data: 1276470816
I0403 18:17:00.048967 16845 layer_factory.hpp:77] Creating layer pool4/3x3_s2_pool4/3x3_s2_0_split
I0403 18:17:00.048986 16845 net.cpp:91] Creating Layer pool4/3x3_s2_pool4/3x3_s2_0_split
I0403 18:17:00.049003 16845 net.cpp:425] pool4/3x3_s2_pool4/3x3_s2_0_split <- pool4/3x3_s2
I0403 18:17:00.049023 16845 net.cpp:399] pool4/3x3_s2_pool4/3x3_s2_0_split -> pool4/3x3_s2_pool4/3x3_s2_0_split_0
I0403 18:17:00.049046 16845 net.cpp:399] pool4/3x3_s2_pool4/3x3_s2_0_split -> pool4/3x3_s2_pool4/3x3_s2_0_split_1
I0403 18:17:00.049065 16845 net.cpp:399] pool4/3x3_s2_pool4/3x3_s2_0_split -> pool4/3x3_s2_pool4/3x3_s2_0_split_2
I0403 18:17:00.049087 16845 net.cpp:399] pool4/3x3_s2_pool4/3x3_s2_0_split -> pool4/3x3_s2_pool4/3x3_s2_0_split_3
I0403 18:17:00.049178 16845 net.cpp:141] Setting up pool4/3x3_s2_pool4/3x3_s2_0_split
I0403 18:17:00.049204 16845 net.cpp:148] Top shape: 24 832 7 7 (978432)
I0403 18:17:00.049222 16845 net.cpp:148] Top shape: 24 832 7 7 (978432)
I0403 18:17:00.049238 16845 net.cpp:148] Top shape: 24 832 7 7 (978432)
I0403 18:17:00.049254 16845 net.cpp:148] Top shape: 24 832 7 7 (978432)
I0403 18:17:00.049269 16845 net.cpp:156] Memory required for data: 1292125728
I0403 18:17:00.049284 16845 layer_factory.hpp:77] Creating layer inception_5a/1x1
I0403 18:17:00.049306 16845 net.cpp:91] Creating Layer inception_5a/1x1
I0403 18:17:00.049324 16845 net.cpp:425] inception_5a/1x1 <- pool4/3x3_s2_pool4/3x3_s2_0_split_0
I0403 18:17:00.049343 16845 net.cpp:399] inception_5a/1x1 -> inception_5a/1x1
I0403 18:17:00.052207 16845 net.cpp:141] Setting up inception_5a/1x1
I0403 18:17:00.052237 16845 net.cpp:148] Top shape: 24 256 7 7 (301056)
I0403 18:17:00.052253 16845 net.cpp:156] Memory required for data: 1293329952
I0403 18:17:00.052271 16845 layer_factory.hpp:77] Creating layer inception_5a/relu_1x1
I0403 18:17:00.052289 16845 net.cpp:91] Creating Layer inception_5a/relu_1x1
I0403 18:17:00.052305 16845 net.cpp:425] inception_5a/relu_1x1 <- inception_5a/1x1
I0403 18:17:00.052325 16845 net.cpp:386] inception_5a/relu_1x1 -> inception_5a/1x1 (in-place)
I0403 18:17:00.052639 16845 net.cpp:141] Setting up inception_5a/relu_1x1
I0403 18:17:00.052666 16845 net.cpp:148] Top shape: 24 256 7 7 (301056)
I0403 18:17:00.052681 16845 net.cpp:156] Memory required for data: 1294534176
I0403 18:17:00.052697 16845 layer_factory.hpp:77] Creating layer inception_5a/3x3_reduce
I0403 18:17:00.052719 16845 net.cpp:91] Creating Layer inception_5a/3x3_reduce
I0403 18:17:00.052737 16845 net.cpp:425] inception_5a/3x3_reduce <- pool4/3x3_s2_pool4/3x3_s2_0_split_1
I0403 18:17:00.052759 16845 net.cpp:399] inception_5a/3x3_reduce -> inception_5a/3x3_reduce
I0403 18:17:00.055219 16845 net.cpp:141] Setting up inception_5a/3x3_reduce
I0403 18:17:00.055249 16845 net.cpp:148] Top shape: 24 160 7 7 (188160)
I0403 18:17:00.055268 16845 net.cpp:156] Memory required for data: 1295286816
I0403 18:17:00.055285 16845 layer_factory.hpp:77] Creating layer inception_5a/relu_3x3_reduce
I0403 18:17:00.055305 16845 net.cpp:91] Creating Layer inception_5a/relu_3x3_reduce
I0403 18:17:00.055320 16845 net.cpp:425] inception_5a/relu_3x3_reduce <- inception_5a/3x3_reduce
I0403 18:17:00.055337 16845 net.cpp:386] inception_5a/relu_3x3_reduce -> inception_5a/3x3_reduce (in-place)
I0403 18:17:00.055528 16845 net.cpp:141] Setting up inception_5a/relu_3x3_reduce
I0403 18:17:00.055555 16845 net.cpp:148] Top shape: 24 160 7 7 (188160)
I0403 18:17:00.055572 16845 net.cpp:156] Memory required for data: 1296039456
I0403 18:17:00.055588 16845 layer_factory.hpp:77] Creating layer inception_5a/3x3
I0403 18:17:00.055609 16845 net.cpp:91] Creating Layer inception_5a/3x3
I0403 18:17:00.055627 16845 net.cpp:425] inception_5a/3x3 <- inception_5a/3x3_reduce
I0403 18:17:00.055649 16845 net.cpp:399] inception_5a/3x3 -> inception_5a/3x3
I0403 18:17:00.060683 16845 net.cpp:141] Setting up inception_5a/3x3
I0403 18:17:00.060713 16845 net.cpp:148] Top shape: 24 320 7 7 (376320)
I0403 18:17:00.060729 16845 net.cpp:156] Memory required for data: 1297544736
I0403 18:17:00.060747 16845 layer_factory.hpp:77] Creating layer inception_5a/relu_3x3
I0403 18:17:00.060766 16845 net.cpp:91] Creating Layer inception_5a/relu_3x3
I0403 18:17:00.060783 16845 net.cpp:425] inception_5a/relu_3x3 <- inception_5a/3x3
I0403 18:17:00.060802 16845 net.cpp:386] inception_5a/relu_3x3 -> inception_5a/3x3 (in-place)
I0403 18:17:00.061105 16845 net.cpp:141] Setting up inception_5a/relu_3x3
I0403 18:17:00.061132 16845 net.cpp:148] Top shape: 24 320 7 7 (376320)
I0403 18:17:00.061148 16845 net.cpp:156] Memory required for data: 1299050016
I0403 18:17:00.061163 16845 layer_factory.hpp:77] Creating layer inception_5a/5x5_reduce
I0403 18:17:00.061187 16845 net.cpp:91] Creating Layer inception_5a/5x5_reduce
I0403 18:17:00.061204 16845 net.cpp:425] inception_5a/5x5_reduce <- pool4/3x3_s2_pool4/3x3_s2_0_split_2
I0403 18:17:00.061228 16845 net.cpp:399] inception_5a/5x5_reduce -> inception_5a/5x5_reduce
I0403 18:17:00.062398 16845 net.cpp:141] Setting up inception_5a/5x5_reduce
I0403 18:17:00.062429 16845 net.cpp:148] Top shape: 24 32 7 7 (37632)
I0403 18:17:00.062446 16845 net.cpp:156] Memory required for data: 1299200544
I0403 18:17:00.062465 16845 layer_factory.hpp:77] Creating layer inception_5a/relu_5x5_reduce
I0403 18:17:00.062485 16845 net.cpp:91] Creating Layer inception_5a/relu_5x5_reduce
I0403 18:17:00.062504 16845 net.cpp:425] inception_5a/relu_5x5_reduce <- inception_5a/5x5_reduce
I0403 18:17:00.062521 16845 net.cpp:386] inception_5a/relu_5x5_reduce -> inception_5a/5x5_reduce (in-place)
I0403 18:17:00.062819 16845 net.cpp:141] Setting up inception_5a/relu_5x5_reduce
I0403 18:17:00.062844 16845 net.cpp:148] Top shape: 24 32 7 7 (37632)
I0403 18:17:00.062860 16845 net.cpp:156] Memory required for data: 1299351072
I0403 18:17:00.062875 16845 layer_factory.hpp:77] Creating layer inception_5a/5x5
I0403 18:17:00.062896 16845 net.cpp:91] Creating Layer inception_5a/5x5
I0403 18:17:00.062914 16845 net.cpp:425] inception_5a/5x5 <- inception_5a/5x5_reduce
I0403 18:17:00.062937 16845 net.cpp:399] inception_5a/5x5 -> inception_5a/5x5
I0403 18:17:00.064673 16845 net.cpp:141] Setting up inception_5a/5x5
I0403 18:17:00.064713 16845 net.cpp:148] Top shape: 24 128 7 7 (150528)
I0403 18:17:00.064729 16845 net.cpp:156] Memory required for data: 1299953184
I0403 18:17:00.064748 16845 layer_factory.hpp:77] Creating layer inception_5a/relu_5x5
I0403 18:17:00.064766 16845 net.cpp:91] Creating Layer inception_5a/relu_5x5
I0403 18:17:00.064784 16845 net.cpp:425] inception_5a/relu_5x5 <- inception_5a/5x5
I0403 18:17:00.064803 16845 net.cpp:386] inception_5a/relu_5x5 -> inception_5a/5x5 (in-place)
I0403 18:17:00.065002 16845 net.cpp:141] Setting up inception_5a/relu_5x5
I0403 18:17:00.065027 16845 net.cpp:148] Top shape: 24 128 7 7 (150528)
I0403 18:17:00.065042 16845 net.cpp:156] Memory required for data: 1300555296
I0403 18:17:00.065058 16845 layer_factory.hpp:77] Creating layer inception_5a/pool
I0403 18:17:00.065079 16845 net.cpp:91] Creating Layer inception_5a/pool
I0403 18:17:00.065096 16845 net.cpp:425] inception_5a/pool <- pool4/3x3_s2_pool4/3x3_s2_0_split_3
I0403 18:17:00.065115 16845 net.cpp:399] inception_5a/pool -> inception_5a/pool
I0403 18:17:00.065186 16845 net.cpp:141] Setting up inception_5a/pool
I0403 18:17:00.065210 16845 net.cpp:148] Top shape: 24 832 7 7 (978432)
I0403 18:17:00.065227 16845 net.cpp:156] Memory required for data: 1304469024
I0403 18:17:00.065242 16845 layer_factory.hpp:77] Creating layer inception_5a/pool_proj
I0403 18:17:00.065263 16845 net.cpp:91] Creating Layer inception_5a/pool_proj
I0403 18:17:00.065280 16845 net.cpp:425] inception_5a/pool_proj <- inception_5a/pool
I0403 18:17:00.065302 16845 net.cpp:399] inception_5a/pool_proj -> inception_5a/pool_proj
I0403 18:17:00.067595 16845 net.cpp:141] Setting up inception_5a/pool_proj
I0403 18:17:00.067626 16845 net.cpp:148] Top shape: 24 128 7 7 (150528)
I0403 18:17:00.067643 16845 net.cpp:156] Memory required for data: 1305071136
I0403 18:17:00.067662 16845 layer_factory.hpp:77] Creating layer inception_5a/relu_pool_proj
I0403 18:17:00.067680 16845 net.cpp:91] Creating Layer inception_5a/relu_pool_proj
I0403 18:17:00.067697 16845 net.cpp:425] inception_5a/relu_pool_proj <- inception_5a/pool_proj
I0403 18:17:00.067718 16845 net.cpp:386] inception_5a/relu_pool_proj -> inception_5a/pool_proj (in-place)
I0403 18:17:00.068014 16845 net.cpp:141] Setting up inception_5a/relu_pool_proj
I0403 18:17:00.068042 16845 net.cpp:148] Top shape: 24 128 7 7 (150528)
I0403 18:17:00.068058 16845 net.cpp:156] Memory required for data: 1305673248
I0403 18:17:00.068073 16845 layer_factory.hpp:77] Creating layer inception_5a/output
I0403 18:17:00.068091 16845 net.cpp:91] Creating Layer inception_5a/output
I0403 18:17:00.068107 16845 net.cpp:425] inception_5a/output <- inception_5a/1x1
I0403 18:17:00.068125 16845 net.cpp:425] inception_5a/output <- inception_5a/3x3
I0403 18:17:00.068141 16845 net.cpp:425] inception_5a/output <- inception_5a/5x5
I0403 18:17:00.068157 16845 net.cpp:425] inception_5a/output <- inception_5a/pool_proj
I0403 18:17:00.068178 16845 net.cpp:399] inception_5a/output -> inception_5a/output
I0403 18:17:00.068228 16845 net.cpp:141] Setting up inception_5a/output
I0403 18:17:00.068251 16845 net.cpp:148] Top shape: 24 832 7 7 (978432)
I0403 18:17:00.068266 16845 net.cpp:156] Memory required for data: 1309586976
I0403 18:17:00.068281 16845 layer_factory.hpp:77] Creating layer inception_5a/output_inception_5a/output_0_split
I0403 18:17:00.068302 16845 net.cpp:91] Creating Layer inception_5a/output_inception_5a/output_0_split
I0403 18:17:00.068320 16845 net.cpp:425] inception_5a/output_inception_5a/output_0_split <- inception_5a/output
I0403 18:17:00.068338 16845 net.cpp:399] inception_5a/output_inception_5a/output_0_split -> inception_5a/output_inception_5a/output_0_split_0
I0403 18:17:00.068358 16845 net.cpp:399] inception_5a/output_inception_5a/output_0_split -> inception_5a/output_inception_5a/output_0_split_1
I0403 18:17:00.068379 16845 net.cpp:399] inception_5a/output_inception_5a/output_0_split -> inception_5a/output_inception_5a/output_0_split_2
I0403 18:17:00.068403 16845 net.cpp:399] inception_5a/output_inception_5a/output_0_split -> inception_5a/output_inception_5a/output_0_split_3
I0403 18:17:00.068518 16845 net.cpp:141] Setting up inception_5a/output_inception_5a/output_0_split
I0403 18:17:00.068542 16845 net.cpp:148] Top shape: 24 832 7 7 (978432)
I0403 18:17:00.068558 16845 net.cpp:148] Top shape: 24 832 7 7 (978432)
I0403 18:17:00.068575 16845 net.cpp:148] Top shape: 24 832 7 7 (978432)
I0403 18:17:00.068591 16845 net.cpp:148] Top shape: 24 832 7 7 (978432)
I0403 18:17:00.068606 16845 net.cpp:156] Memory required for data: 1325241888
I0403 18:17:00.068620 16845 layer_factory.hpp:77] Creating layer inception_5b/1x1
I0403 18:17:00.068644 16845 net.cpp:91] Creating Layer inception_5b/1x1
I0403 18:17:00.068660 16845 net.cpp:425] inception_5b/1x1 <- inception_5a/output_inception_5a/output_0_split_0
I0403 18:17:00.068681 16845 net.cpp:399] inception_5b/1x1 -> inception_5b/1x1
I0403 18:17:00.072463 16845 net.cpp:141] Setting up inception_5b/1x1
I0403 18:17:00.072494 16845 net.cpp:148] Top shape: 24 384 7 7 (451584)
I0403 18:17:00.072511 16845 net.cpp:156] Memory required for data: 1327048224
I0403 18:17:00.072530 16845 layer_factory.hpp:77] Creating layer inception_5b/relu_1x1
I0403 18:17:00.072548 16845 net.cpp:91] Creating Layer inception_5b/relu_1x1
I0403 18:17:00.072566 16845 net.cpp:425] inception_5b/relu_1x1 <- inception_5b/1x1
I0403 18:17:00.072583 16845 net.cpp:386] inception_5b/relu_1x1 -> inception_5b/1x1 (in-place)
I0403 18:17:00.072888 16845 net.cpp:141] Setting up inception_5b/relu_1x1
I0403 18:17:00.072916 16845 net.cpp:148] Top shape: 24 384 7 7 (451584)
I0403 18:17:00.072933 16845 net.cpp:156] Memory required for data: 1328854560
I0403 18:17:00.072952 16845 layer_factory.hpp:77] Creating layer inception_5b/3x3_reduce
I0403 18:17:00.072975 16845 net.cpp:91] Creating Layer inception_5b/3x3_reduce
I0403 18:17:00.072993 16845 net.cpp:425] inception_5b/3x3_reduce <- inception_5a/output_inception_5a/output_0_split_1
I0403 18:17:00.073014 16845 net.cpp:399] inception_5b/3x3_reduce -> inception_5b/3x3_reduce
I0403 18:17:00.075677 16845 net.cpp:141] Setting up inception_5b/3x3_reduce
I0403 18:17:00.075707 16845 net.cpp:148] Top shape: 24 192 7 7 (225792)
I0403 18:17:00.075726 16845 net.cpp:156] Memory required for data: 1329757728
I0403 18:17:00.075744 16845 layer_factory.hpp:77] Creating layer inception_5b/relu_3x3_reduce
I0403 18:17:00.075762 16845 net.cpp:91] Creating Layer inception_5b/relu_3x3_reduce
I0403 18:17:00.075779 16845 net.cpp:425] inception_5b/relu_3x3_reduce <- inception_5b/3x3_reduce
I0403 18:17:00.075799 16845 net.cpp:386] inception_5b/relu_3x3_reduce -> inception_5b/3x3_reduce (in-place)
I0403 18:17:00.075997 16845 net.cpp:141] Setting up inception_5b/relu_3x3_reduce
I0403 18:17:00.076025 16845 net.cpp:148] Top shape: 24 192 7 7 (225792)
I0403 18:17:00.076040 16845 net.cpp:156] Memory required for data: 1330660896
I0403 18:17:00.076055 16845 layer_factory.hpp:77] Creating layer inception_5b/3x3
I0403 18:17:00.076077 16845 net.cpp:91] Creating Layer inception_5b/3x3
I0403 18:17:00.076095 16845 net.cpp:425] inception_5b/3x3 <- inception_5b/3x3_reduce
I0403 18:17:00.076118 16845 net.cpp:399] inception_5b/3x3 -> inception_5b/3x3
I0403 18:17:00.083084 16845 net.cpp:141] Setting up inception_5b/3x3
I0403 18:17:00.083117 16845 net.cpp:148] Top shape: 24 384 7 7 (451584)
I0403 18:17:00.083134 16845 net.cpp:156] Memory required for data: 1332467232
I0403 18:17:00.083153 16845 layer_factory.hpp:77] Creating layer inception_5b/relu_3x3
I0403 18:17:00.083174 16845 net.cpp:91] Creating Layer inception_5b/relu_3x3
I0403 18:17:00.083192 16845 net.cpp:425] inception_5b/relu_3x3 <- inception_5b/3x3
I0403 18:17:00.083214 16845 net.cpp:386] inception_5b/relu_3x3 -> inception_5b/3x3 (in-place)
I0403 18:17:00.083519 16845 net.cpp:141] Setting up inception_5b/relu_3x3
I0403 18:17:00.083549 16845 net.cpp:148] Top shape: 24 384 7 7 (451584)
I0403 18:17:00.083565 16845 net.cpp:156] Memory required for data: 1334273568
I0403 18:17:00.083580 16845 layer_factory.hpp:77] Creating layer inception_5b/5x5_reduce
I0403 18:17:00.083621 16845 net.cpp:91] Creating Layer inception_5b/5x5_reduce
I0403 18:17:00.083642 16845 net.cpp:425] inception_5b/5x5_reduce <- inception_5a/output_inception_5a/output_0_split_2
I0403 18:17:00.083662 16845 net.cpp:399] inception_5b/5x5_reduce -> inception_5b/5x5_reduce
I0403 18:17:00.084988 16845 net.cpp:141] Setting up inception_5b/5x5_reduce
I0403 18:17:00.085019 16845 net.cpp:148] Top shape: 24 48 7 7 (56448)
I0403 18:17:00.085037 16845 net.cpp:156] Memory required for data: 1334499360
I0403 18:17:00.085057 16845 layer_factory.hpp:77] Creating layer inception_5b/relu_5x5_reduce
I0403 18:17:00.085077 16845 net.cpp:91] Creating Layer inception_5b/relu_5x5_reduce
I0403 18:17:00.085093 16845 net.cpp:425] inception_5b/relu_5x5_reduce <- inception_5b/5x5_reduce
I0403 18:17:00.085110 16845 net.cpp:386] inception_5b/relu_5x5_reduce -> inception_5b/5x5_reduce (in-place)
I0403 18:17:00.085495 16845 net.cpp:141] Setting up inception_5b/relu_5x5_reduce
I0403 18:17:00.085522 16845 net.cpp:148] Top shape: 24 48 7 7 (56448)
I0403 18:17:00.085538 16845 net.cpp:156] Memory required for data: 1334725152
I0403 18:17:00.085556 16845 layer_factory.hpp:77] Creating layer inception_5b/5x5
I0403 18:17:00.085577 16845 net.cpp:91] Creating Layer inception_5b/5x5
I0403 18:17:00.085594 16845 net.cpp:425] inception_5b/5x5 <- inception_5b/5x5_reduce
I0403 18:17:00.085614 16845 net.cpp:399] inception_5b/5x5 -> inception_5b/5x5
I0403 18:17:00.087744 16845 net.cpp:141] Setting up inception_5b/5x5
I0403 18:17:00.087774 16845 net.cpp:148] Top shape: 24 128 7 7 (150528)
I0403 18:17:00.087790 16845 net.cpp:156] Memory required for data: 1335327264
I0403 18:17:00.087810 16845 layer_factory.hpp:77] Creating layer inception_5b/relu_5x5
I0403 18:17:00.087828 16845 net.cpp:91] Creating Layer inception_5b/relu_5x5
I0403 18:17:00.087846 16845 net.cpp:425] inception_5b/relu_5x5 <- inception_5b/5x5
I0403 18:17:00.087867 16845 net.cpp:386] inception_5b/relu_5x5 -> inception_5b/5x5 (in-place)
I0403 18:17:00.088071 16845 net.cpp:141] Setting up inception_5b/relu_5x5
I0403 18:17:00.088098 16845 net.cpp:148] Top shape: 24 128 7 7 (150528)
I0403 18:17:00.088114 16845 net.cpp:156] Memory required for data: 1335929376
I0403 18:17:00.088129 16845 layer_factory.hpp:77] Creating layer inception_5b/pool
I0403 18:17:00.088151 16845 net.cpp:91] Creating Layer inception_5b/pool
I0403 18:17:00.088171 16845 net.cpp:425] inception_5b/pool <- inception_5a/output_inception_5a/output_0_split_3
I0403 18:17:00.088191 16845 net.cpp:399] inception_5b/pool -> inception_5b/pool
I0403 18:17:00.088268 16845 net.cpp:141] Setting up inception_5b/pool
I0403 18:17:00.088292 16845 net.cpp:148] Top shape: 24 832 7 7 (978432)
I0403 18:17:00.088309 16845 net.cpp:156] Memory required for data: 1339843104
I0403 18:17:00.088322 16845 layer_factory.hpp:77] Creating layer inception_5b/pool_proj
I0403 18:17:00.088346 16845 net.cpp:91] Creating Layer inception_5b/pool_proj
I0403 18:17:00.088363 16845 net.cpp:425] inception_5b/pool_proj <- inception_5b/pool
I0403 18:17:00.088385 16845 net.cpp:399] inception_5b/pool_proj -> inception_5b/pool_proj
I0403 18:17:00.090778 16845 net.cpp:141] Setting up inception_5b/pool_proj
I0403 18:17:00.090811 16845 net.cpp:148] Top shape: 24 128 7 7 (150528)
I0403 18:17:00.090829 16845 net.cpp:156] Memory required for data: 1340445216
I0403 18:17:00.090849 16845 layer_factory.hpp:77] Creating layer inception_5b/relu_pool_proj
I0403 18:17:00.090868 16845 net.cpp:91] Creating Layer inception_5b/relu_pool_proj
I0403 18:17:00.090886 16845 net.cpp:425] inception_5b/relu_pool_proj <- inception_5b/pool_proj
I0403 18:17:00.090908 16845 net.cpp:386] inception_5b/relu_pool_proj -> inception_5b/pool_proj (in-place)
I0403 18:17:00.091217 16845 net.cpp:141] Setting up inception_5b/relu_pool_proj
I0403 18:17:00.091246 16845 net.cpp:148] Top shape: 24 128 7 7 (150528)
I0403 18:17:00.091262 16845 net.cpp:156] Memory required for data: 1341047328
I0403 18:17:00.091277 16845 layer_factory.hpp:77] Creating layer inception_5b/output
I0403 18:17:00.091296 16845 net.cpp:91] Creating Layer inception_5b/output
I0403 18:17:00.091328 16845 net.cpp:425] inception_5b/output <- inception_5b/1x1
I0403 18:17:00.091346 16845 net.cpp:425] inception_5b/output <- inception_5b/3x3
I0403 18:17:00.091363 16845 net.cpp:425] inception_5b/output <- inception_5b/5x5
I0403 18:17:00.091380 16845 net.cpp:425] inception_5b/output <- inception_5b/pool_proj
I0403 18:17:00.091399 16845 net.cpp:399] inception_5b/output -> inception_5b/output
I0403 18:17:00.091454 16845 net.cpp:141] Setting up inception_5b/output
I0403 18:17:00.091478 16845 net.cpp:148] Top shape: 24 1024 7 7 (1204224)
I0403 18:17:00.091495 16845 net.cpp:156] Memory required for data: 1345864224
I0403 18:17:00.091509 16845 layer_factory.hpp:77] Creating layer pool5/7x7_s1
I0403 18:17:00.091531 16845 net.cpp:91] Creating Layer pool5/7x7_s1
I0403 18:17:00.091548 16845 net.cpp:425] pool5/7x7_s1 <- inception_5b/output
I0403 18:17:00.091567 16845 net.cpp:399] pool5/7x7_s1 -> pool5/7x7_s1
I0403 18:17:00.091795 16845 net.cpp:141] Setting up pool5/7x7_s1
I0403 18:17:00.091821 16845 net.cpp:148] Top shape: 24 1024 1 1 (24576)
I0403 18:17:00.091837 16845 net.cpp:156] Memory required for data: 1345962528
I0403 18:17:00.091852 16845 layer_factory.hpp:77] Creating layer pool5/drop_7x7_s1
I0403 18:17:00.091871 16845 net.cpp:91] Creating Layer pool5/drop_7x7_s1
I0403 18:17:00.091887 16845 net.cpp:425] pool5/drop_7x7_s1 <- pool5/7x7_s1
I0403 18:17:00.091908 16845 net.cpp:386] pool5/drop_7x7_s1 -> pool5/7x7_s1 (in-place)
I0403 18:17:00.091964 16845 net.cpp:141] Setting up pool5/drop_7x7_s1
I0403 18:17:00.091992 16845 net.cpp:148] Top shape: 24 1024 1 1 (24576)
I0403 18:17:00.092010 16845 net.cpp:156] Memory required for data: 1346060832
I0403 18:17:00.092025 16845 layer_factory.hpp:77] Creating layer loss3/classifier_plantvillage
I0403 18:17:00.092044 16845 net.cpp:91] Creating Layer loss3/classifier_plantvillage
I0403 18:17:00.092061 16845 net.cpp:425] loss3/classifier_plantvillage <- pool5/7x7_s1
I0403 18:17:00.092083 16845 net.cpp:399] loss3/classifier_plantvillage -> loss3/classifier_plantvillage
I0403 18:17:00.092528 16845 net.cpp:141] Setting up loss3/classifier_plantvillage
I0403 18:17:00.092553 16845 net.cpp:148] Top shape: 24 38 (912)
I0403 18:17:00.092569 16845 net.cpp:156] Memory required for data: 1346064480
I0403 18:17:00.092588 16845 layer_factory.hpp:77] Creating layer loss3/classifier_plantvillage_loss3/classifier_plantvillage_0_split
I0403 18:17:00.092610 16845 net.cpp:91] Creating Layer loss3/classifier_plantvillage_loss3/classifier_plantvillage_0_split
I0403 18:17:00.092628 16845 net.cpp:425] loss3/classifier_plantvillage_loss3/classifier_plantvillage_0_split <- loss3/classifier_plantvillage
I0403 18:17:00.092648 16845 net.cpp:399] loss3/classifier_plantvillage_loss3/classifier_plantvillage_0_split -> loss3/classifier_plantvillage_loss3/classifier_plantvillage_0_split_0
I0403 18:17:00.092669 16845 net.cpp:399] loss3/classifier_plantvillage_loss3/classifier_plantvillage_0_split -> loss3/classifier_plantvillage_loss3/classifier_plantvillage_0_split_1
I0403 18:17:00.092692 16845 net.cpp:399] loss3/classifier_plantvillage_loss3/classifier_plantvillage_0_split -> loss3/classifier_plantvillage_loss3/classifier_plantvillage_0_split_2
I0403 18:17:00.092715 16845 net.cpp:399] loss3/classifier_plantvillage_loss3/classifier_plantvillage_0_split -> loss3/classifier_plantvillage_loss3/classifier_plantvillage_0_split_3
I0403 18:17:00.092820 16845 net.cpp:141] Setting up loss3/classifier_plantvillage_loss3/classifier_plantvillage_0_split
I0403 18:17:00.092844 16845 net.cpp:148] Top shape: 24 38 (912)
I0403 18:17:00.092861 16845 net.cpp:148] Top shape: 24 38 (912)
I0403 18:17:00.092877 16845 net.cpp:148] Top shape: 24 38 (912)
I0403 18:17:00.092893 16845 net.cpp:148] Top shape: 24 38 (912)
I0403 18:17:00.092907 16845 net.cpp:156] Memory required for data: 1346079072
I0403 18:17:00.092923 16845 layer_factory.hpp:77] Creating layer loss1/loss
I0403 18:17:00.092944 16845 net.cpp:91] Creating Layer loss1/loss
I0403 18:17:00.092967 16845 net.cpp:425] loss1/loss <- loss1/classifier_plantvillage_loss1/classifier_plantvillage_0_split_0
I0403 18:17:00.092999 16845 net.cpp:425] loss1/loss <- label_data_1_split_0
…
