…
I0403 17:42:02.769337 14670 net.cpp:313] The NetState phase (1) differed from the phase (0) specified by a rule in layer data
I0403 17:42:02.770530 14670 net.cpp:49] Initializing net from parameters: 
state {
  phase: TEST
}
layer {
  name: "data"
  type: "Data"
  top: "data"
  top: "label"
  include {
    phase: TEST
  }
  transform_param {
    mirror: false
    crop_size: 224
    mean_file: "/home/mohanty/data/final_dataset/lmdb/grayscale-60-40/mean.binaryproto"
  }
  data_param {
    source: "/home/mohanty/data/final_dataset/lmdb/grayscale-60-40/test_db"
    batch_size: 24
    backend: LMDB
  }
}
layer {
  name: "conv1/7x7_s2"
  type: "Convolution"
  bottom: "data"
  top: "conv1/7x7_s2"
  param {
    lr_mult: 1
    decay_mult: 1
  }
  param {
    lr_mult: 2
    decay_mult: 0
  }
  convolution_param {
    num_output: 64
    pad: 3
    kernel_size: 7
    stride: 2
    weight_filler {
      type: "xavier"
      std: 0.1
    }
    bias_filler {
      type: "constant"
      value: 0.2
    }
  }
}
layer {
  name: "conv1/relu_7x7"
  type: "ReLU"
  bottom: "conv1/7x7_s2"
  top: "conv1/7x7_s2"
}
layer {
  name: "pool1/3x3_s2"
  type: "Pooling"
  bottom: "conv1/7x7_s2"
  top: "pool1/3x3_s2"
  pooling_param {
    pool: MAX
    kernel_size: 3
    stride: 2
  }
}
layer {
  name: "pool1/norm1"
  type: "LRN"
  bottom: "pool1/3x3_s2"
  top: "pool1/norm1"
  lrn_param {
    local_size: 5
    alpha: 0.0001
    beta: 0.75
  }
}
layer {
  name: "conv2/3x3_reduce"
  type: "Convolution"
  bottom: "pool1/norm1"
  top: "conv2/3x3_reduce"
  param {
    lr_mult: 1
    decay_mult: 1
  }
  param {
    lr_mult: 2
    decay_mult: 0
  }
  convolution_param {
    num_output: 64
    kernel_size: 1
    weight_filler {
      type: "xavier"
      std: 0.1
    }
    bias_filler {
      type: "constant"
      value: 0.2
    }
  }
}
layer {
  name: "conv2/relu_3x3_reduce"
  type: "ReLU"
  bottom: "conv2/3x3_reduce"
  top: "conv2/3x3_reduce"
}
layer {
  name: "conv2/3x3"
  type: "Convolution"
  bottom: "conv2/3x3_reduce"
  top: "conv2/3x3"
  param {
    lr_mult: 1
    decay_mult: 1
  }
  param {
    lr_mult: 2
    decay_mult: 0
  }
  convolution_param {
    num_output: 192
    pad: 1
    kernel_size: 3
    weight_filler {
      type: "xavier"
      std: 0.03
    }
    bias_filler {
      type: "constant"
      value: 0.2
    }
  }
}
layer {
  name: "conv2/relu_3x3"
  type: "ReLU"
  bottom: "conv2/3x3"
  top: "conv2/3x3"
}
layer {
  name: "conv2/norm2"
  type: "LRN"
  bottom: "conv2/3x3"
  top: "conv2/norm2"
  lrn_param {
    local_size: 5
    alpha: 0.0001
    beta: 0.75
  }
}
layer {
  name: "pool2/3x3_s2"
  type: "Pooling"
  bottom: "conv2/norm2"
  top: "pool2/3x3_s2"
  pooling_param {
    pool: MAX
    kernel_size: 3
    stride: 2
  }
}
layer {
  name: "inception_3a/1x1"
  type: "Convolution"
  bottom: "pool2/3x3_s2"
  top: "inception_3a/1x1"
  param {
    lr_mult: 1
    decay_mult: 1
  }
  param {
    lr_mult: 2
    decay_mult: 0
  }
  convolution_param {
    num_output: 64
    kernel_size: 1
    weight_filler {
      type: "xavier"
      std: 0.03
    }
    bias_filler {
      type: "constant"
      value: 0.2
    }
  }
}
layer {
  name: "inception_3a/relu_1x1"
  type: "ReLU"
  bottom: "inception_3a/1x1"
  top: "inception_3a/1x1"
}
layer {
  name: "inception_3a/3x3_reduce"
  type: "Convolution"
  bottom: "pool2/3x3_s2"
  top: "inception_3a/3x3_reduce"
  param {
    lr_mult: 1
    decay_mult: 1
  }
  param {
    lr_mult: 2
    decay_mult: 0
  }
  convolution_param {
    num_output: 96
    kernel_size: 1
    weight_filler {
      type: "xavier"
      std: 0.09
    }
    bias_filler {
      type: "constant"
      value: 0.2
    }
  }
}
layer {
  name: "inception_3a/relu_3x3_reduce"
  type: "ReLU"
  bottom: "inception_3a/3x3_reduce"
  top: "inception_3a/3x3_reduce"
}
layer {
  name: "inception_3a/3x3"
  type: "Convolution"
  bottom: "inception_3a/3x3_reduce"
  top: "inception_3a/3x3"
  param {
    lr_mult: 1
    decay_mult: 1
  }
  param {
    lr_mult: 2
    decay_mult: 0
  }
  convolution_param {
    num_output: 128
    pad: 1
    kernel_size: 3
    weight_filler {
      type: "xavier"
      std: 0.03
    }
    bias_filler {
      type: "constant"
      value: 0.2
    }
  }
}
layer {
  name: "inception_3a/relu_3x3"
  type: "ReLU"
  bottom: "inception_3a/3x3"
  top: "inception_3a/3x3"
}
layer {
  name: "inception_3a/5x5_reduce"
  type: "Convolution"
  bottom: "pool2/3x3_s2"
  top: "inception_3a/5x5_reduce"
  param {
    lr_mult: 1
    decay_mult: 1
  }
  param {
    lr_mult: 2
    decay_mult: 0
  }
  convolution_param {
    num_output: 16
    kernel_size: 1
    weight_filler {
      type: "xavier"
      std: 0.2
    }
    bias_filler {
      type: "constant"
      value: 0.2
    }
  }
}
layer {
  name: "inception_3a/relu_5x5_reduce"
  type: "ReLU"
  bottom: "inception_3a/5x5_reduce"
  top: "inception_3a/5x5_reduce"
}
layer {
  name: "inception_3a/5x5"
  type: "Convolution"
  bottom: "inception_3a/5x5_reduce"
  top: "inception_3a/5x5"
  param {
    lr_mult: 1
    decay_mult: 1
  }
  param {
    lr_mult: 2
    decay_mult: 0
  }
  convolution_param {
    num_output: 32
    pad: 2
    kernel_size: 5
    weight_filler {
      type: "xavier"
      std: 0.03
    }
    bias_filler {
      type: "constant"
      value: 0.2
    }
  }
}
layer {
  name: "inception_3a/relu_5x5"
  type: "ReLU"
  bottom: "inception_3a/5x5"
  top: "inception_3a/5x5"
}
layer {
  name: "inception_3a/pool"
  type: "Pooling"
  bottom: "pool2/3x3_s2"
  top: "inception_3a/pool"
  pooling_param {
    pool: MAX
    kernel_size: 3
    stride: 1
    pad: 1
  }
}
layer {
  name: "inception_3a/pool_proj"
  type: "Convolution"
  bottom: "inception_3a/pool"
  top: "inception_3a/pool_proj"
  param {
    lr_mult: 1
    decay_mult: 1
  }
  param {
    lr_mult: 2
    decay_mult: 0
  }
  convolution_param {
    num_output: 32
    kernel_size: 1
    weight_filler {
      type: "xavier"
      std: 0.1
    }
    bias_filler {
      type: "constant"
      value: 0.2
    }
  }
}
layer {
  name: "inception_3a/relu_pool_proj"
  type: "ReLU"
  bottom: "inception_3a/pool_proj"
  top: "inception_3a/pool_proj"
}
layer {
  name: "inception_3a/output"
  type: "Concat"
  bottom: "inception_3a/1x1"
  bottom: "inception_3a/3x3"
  bottom: "inception_3a/5x5"
  bottom: "inception_3a/pool_proj"
  top: "inception_3a/output"
}
layer {
  name: "inception_3b/1x1"
  type: "Convolution"
  bottom: "inception_3a/output"
  top: "inception_3b/1x1"
  param {
    lr_mult: 1
    decay_mult: 1
  }
  param {
    lr_mult: 2
    decay_mult: 0
  }
  convolution_param {
    num_output: 128
    kernel_size: 1
    weight_filler {
      type: "xavier"
      std: 0.03
    }
    bias_filler {
      type: "constant"
      value: 0.2
    }
  }
}
layer {
  name: "inception_3b/relu_1x1"
  type: "ReLU"
  bottom: "inception_3b/1x1"
  top: "inception_3b/1x1"
}
layer {
  name: "inception_3b/3x3_reduce"
  type: "Convolution"
  bottom: "inception_3a/output"
  top: "inception_3b/3x3_reduce"
  param {
    lr_mult: 1
    decay_mult: 1
  }
  param {
    lr_mult: 2
    decay_mult: 0
  }
  convolution_param {
    num_output: 128
    kernel_size: 1
    weight_filler {
      type: "xavier"
      std: 0.09
    }
    bias_filler {
      type: "constant"
      value: 0.2
    }
  }
}
layer {
  name: "inception_3b/relu_3x3_reduce"
  type: "ReLU"
  bottom: "inception_3b/3x3_reduce"
  top: "inception_3b/3x3_reduce"
}
layer {
  name: "inception_3b/3x3"
  type: "Convolution"
  bottom: "inception_3b/3x3_reduce"
  top: "inception_3b/3x3"
  param {
    lr_mult: 1
    decay_mult: 1
  }
  param {
    lr_mult: 2
    decay_mult: 0
  }
  convolution_param {
    num_output: 192
    pad: 1
    kernel_size: 3
    weight_filler {
      type: "xavier"
      std: 0.03
    }
    bias_filler {
      type: "constant"
      value: 0.2
    }
  }
}
layer {
  name: "inception_3b/relu_3x3"
  type: "ReLU"
  bottom: "inception_3b/3x3"
  top: "inception_3b/3x3"
}
layer {
  name: "inception_3b/5x5_reduce"
  type: "Convolution"
  bottom: "inception_3a/output"
  top: "inception_3b/5x5_reduce"
  param {
    lr_mult: 1
    decay_mult: 1
  }
  param {
    lr_mult: 2
    decay_mult: 0
  }
  convolution_param {
    num_output: 32
    kernel_size: 1
    weight_filler {
      type: "xavier"
      std: 0.2
    }
    bias_filler {
      type: "constant"
      value: 0.2
    }
  }
}
layer {
  name: "inception_3b/relu_5x5_reduce"
  type: "ReLU"
  bottom: "inception_3b/5x5_reduce"
  top: "inception_3b/5x5_reduce"
}
layer {
  name: "inception_3b/5x5"
  type: "Convolution"
  bottom: "inception_3b/5x5_reduce"
  top: "inception_3b/5x5"
  param {
    lr_mult: 1
    decay_mult: 1
  }
  param {
    lr_mult: 2
    decay_mult: 0
  }
  convolution_param {
    num_output: 96
    pad: 2
    kernel_size: 5
    weight_filler {
      type: "xavier"
      std: 0.03
    }
    bias_filler {
      type: "constant"
      value: 0.2
    }
  }
}
layer {
  name: "inception_3b/relu_5x5"
  type: "ReLU"
  bottom: "inception_3b/5x5"
  top: "inception_3b/5x5"
}
layer {
  name: "inception_3b/pool"
  type: "Pooling"
  bottom: "inception_3a/output"
  top: "inception_3b/pool"
  pooling_param {
    pool: MAX
    kernel_size: 3
    stride: 1
    pad: 1
  }
}
layer {
  name: "inception_3b/pool_proj"
  type: "Convolution"
  bottom: "inception_3b/pool"
  top: "inception_3b/pool_proj"
  param {
    lr_mult: 1
    decay_mult: 1
  }
  param {
    lr_mult: 2
    decay_mult: 0
  }
  convolution_param {
    num_output: 64
    kernel_size: 1
    weight_filler {
      type: "xavier"
      std: 0.1
    }
    bias_filler {
      type: "constant"
      value: 0.2
    }
  }
}
layer {
  name: "inception_3b/relu_pool_proj"
  type: "ReLU"
  bottom: "inception_3b/pool_proj"
  top: "inception_3b/pool_proj"
}
layer {
  name: "inception_3b/output"
  type: "Concat"
  bottom: "inception_3b/1x1"
  bottom: "inception_3b/3x3"
  bottom: "inception_3b/5x5"
  bottom: "inception_3b/pool_proj"
  top: "inception_3b/output"
}
layer {
  name: "pool3/3x3_s2"
  type: "Pooling"
  bottom: "inception_3b/output"
  top: "pool3/3x3_s2"
  pooling_param {
    pool: MAX
    kernel_size: 3
    stride: 2
  }
}
layer {
  name: "inception_4a/1x1"
  type: "Convolution"
  bottom: "pool3/3x3_s2"
  top: "inception_4a/1x1"
  param {
    lr_mult: 1
    decay_mult: 1
  }
  param {
    lr_mult: 2
    decay_mult: 0
  }
  convolution_param {
    num_output: 192
    kernel_size: 1
    weight_filler {
      type: "xavier"
      std: 0.03
    }
    bias_filler {
      type: "constant"
      value: 0.2
    }
  }
}
layer {
  name: "inception_4a/relu_1x1"
  type: "ReLU"
  bottom: "inception_4a/1x1"
  top: "inception_4a/1x1"
}
layer {
  name: "inception_4a/3x3_reduce"
  type: "Convolution"
  bottom: "pool3/3x3_s2"
  top: "inception_4a/3x3_reduce"
  param {
    lr_mult: 1
    decay_mult: 1
  }
  param {
    lr_mult: 2
    decay_mult: 0
  }
  convolution_param {
    num_output: 96
    kernel_size: 1
    weight_filler {
      type: "xavier"
      std: 0.09
    }
    bias_filler {
      type: "constant"
      value: 0.2
    }
  }
}
layer {
  name: "inception_4a/relu_3x3_reduce"
  type: "ReLU"
  bottom: "inception_4a/3x3_reduce"
  top: "inception_4a/3x3_reduce"
}
layer {
  name: "inception_4a/3x3"
  type: "Convolution"
  bottom: "inception_4a/3x3_reduce"
  top: "inception_4a/3x3"
  param {
    lr_mult: 1
    decay_mult: 1
  }
  param {
    lr_mult: 2
    decay_mult: 0
  }
  convolution_param {
    num_output: 208
    pad: 1
    kernel_size: 3
    weight_filler {
      type: "xavier"
      std: 0.03
    }
    bias_filler {
      type: "constant"
      value: 0.2
    }
  }
}
layer {
  name: "inception_4a/relu_3x3"
  type: "ReLU"
  bottom: "inception_4a/3x3"
  top: "inception_4a/3x3"
}
layer {
  name: "inception_4a/5x5_reduce"
  type: "Convolution"
  bottom: "pool3/3x3_s2"
  top: "inception_4a/5x5_reduce"
  param {
    lr_mult: 1
    decay_mult: 1
  }
  param {
    lr_mult: 2
    decay_mult: 0
  }
  convolution_param {
    num_output: 16
    kernel_size: 1
    weight_filler {
      type: "xavier"
      std: 0.2
    }
    bias_filler {
      type: "constant"
      value: 0.2
    }
  }
}
layer {
  name: "inception_4a/relu_5x5_reduce"
  type: "ReLU"
  bottom: "inception_4a/5x5_reduce"
  top: "inception_4a/5x5_reduce"
}
layer {
  name: "inception_4a/5x5"
  type: "Convolution"
  bottom: "inception_4a/5x5_reduce"
  top: "inception_4a/5x5"
  param {
    lr_mult: 1
    decay_mult: 1
  }
  param {
    lr_mult: 2
    decay_mult: 0
  }
  convolution_param {
    num_output: 48
    pad: 2
    kernel_size: 5
    weight_filler {
      type: "xavier"
      std: 0.03
    }
    bias_filler {
      type: "constant"
      value: 0.2
    }
  }
}
layer {
  name: "inception_4a/relu_5x5"
  type: "ReLU"
  bottom: "inception_4a/5x5"
  top: "inception_4a/5x5"
}
layer {
  name: "inception_4a/pool"
  type: "Pooling"
  bottom: "pool3/3x3_s2"
  top: "inception_4a/pool"
  pooling_param {
    pool: MAX
    kernel_size: 3
    stride: 1
    pad: 1
  }
}
layer {
  name: "inception_4a/pool_proj"
  type: "Convolution"
  bottom: "inception_4a/pool"
  top: "inception_4a/pool_proj"
  param {
    lr_mult: 1
    decay_mult: 1
  }
  param {
    lr_mult: 2
    decay_mult: 0
  }
  convolution_param {
    num_output: 64
    kernel_size: 1
    weight_filler {
      type: "xavier"
      std: 0.1
    }
    bias_filler {
      type: "constant"
      value: 0.2
    }
  }
}
layer {
  name: "inception_4a/relu_pool_proj"
  type: "ReLU"
  bottom: "inception_4a/pool_proj"
  top: "inception_4a/pool_proj"
}
layer {
  name: "inception_4a/output"
  type: "Concat"
  bottom: "inception_4a/1x1"
  bottom: "inception_4a/3x3"
  bottom: "inception_4a/5x5"
  bottom: "inception_4a/pool_proj"
  top: "inception_4a/output"
}
layer {
  name: "loss1/ave_pool"
  type: "Pooling"
  bottom: "inception_4a/output"
  top: "loss1/ave_pool"
  pooling_param {
    pool: AVE
    kernel_size: 5
    stride: 3
  }
}
layer {
  name: "loss1/conv"
  type: "Convolution"
  bottom: "loss1/ave_pool"
  top: "loss1/conv"
  param {
    lr_mult: 1
    decay_mult: 1
  }
  param {
    lr_mult: 2
    decay_mult: 0
  }
  convolution_param {
    num_output: 128
    kernel_size: 1
    weight_filler {
      type: "xavier"
      std: 0.08
    }
    bias_filler {
      type: "constant"
      value: 0.2
    }
  }
}
layer {
  name: "loss1/relu_conv"
  type: "ReLU"
  bottom: "loss1/conv"
  top: "loss1/conv"
}
layer {
  name: "loss1/fc"
  type: "InnerProduct"
  bottom: "loss1/conv"
  top: "loss1/fc"
  param {
    lr_mult: 1
    decay_mult: 1
  }
  param {
    lr_mult: 2
    decay_mult: 0
  }
  inner_product_param {
    num_output: 1024
    weight_filler {
      type: "xavier"
      std: 0.02
    }
    bias_filler {
      type: "constant"
      value: 0.2
    }
  }
}
layer {
  name: "loss1/relu_fc"
  type: "ReLU"
  bottom: "loss1/fc"
  top: "loss1/fc"
}
layer {
  name: "loss1/drop_fc"
  type: "Dropout"
  bottom: "loss1/fc"
  top: "loss1/fc"
  dropout_param {
    dropout_ratio: 0.7
  }
}
layer {
  name: "loss1/classifier_plantvillage"
  type: "InnerProduct"
  bottom: "loss1/fc"
  top: "loss1/classifier_plantvillage"
  param {
    lr_mult: 1
    decay_mult: 1
  }
  param {
    lr_mult: 2
    decay_mult: 0
  }
  inner_product_param {
    num_output: 38
    weight_filler {
      type: "xavier"
      std: 0.0009765625
    }
    bias_filler {
      type: "constant"
      value: 0
    }
  }
}
layer {
  name: "inception_4b/1x1"
  type: "Convolution"
  bottom: "inception_4a/output"
  top: "inception_4b/1x1"
  param {
    lr_mult: 1
    decay_mult: 1
  }
  param {
    lr_mult: 2
    decay_mult: 0
  }
  convolution_param {
    num_output: 160
    kernel_size: 1
    weight_filler {
      type: "xavier"
      std: 0.03
    }
    bias_filler {
      type: "constant"
      value: 0.2
    }
  }
}
layer {
  name: "inception_4b/relu_1x1"
  type: "ReLU"
  bottom: "inception_4b/1x1"
  top: "inception_4b/1x1"
}
layer {
  name: "inception_4b/3x3_reduce"
  type: "Convolution"
  bottom: "inception_4a/output"
  top: "inception_4b/3x3_reduce"
  param {
    lr_mult: 1
    decay_mult: 1
  }
  param {
    lr_mult: 2
    decay_mult: 0
  }
  convolution_param {
    num_output: 112
    kernel_size: 1
    weight_filler {
      type: "xavier"
      std: 0.09
    }
    bias_filler {
      type: "constant"
      value: 0.2
    }
  }
}
layer {
  name: "inception_4b/relu_3x3_reduce"
  type: "ReLU"
  bottom: "inception_4b/3x3_reduce"
  top: "inception_4b/3x3_reduce"
}
layer {
  name: "inception_4b/3x3"
  type: "Convolution"
  bottom: "inception_4b/3x3_reduce"
  top: "inception_4b/3x3"
  param {
    lr_mult: 1
    decay_mult: 1
  }
  param {
    lr_mult: 2
    decay_mult: 0
  }
  convolution_param {
    num_output: 224
    pad: 1
    kernel_size: 3
    weight_filler {
      type: "xavier"
      std: 0.03
    }
    bias_filler {
      type: "constant"
      value: 0.2
    }
  }
}
layer {
  name: "inception_4b/relu_3x3"
  type: "ReLU"
  bottom: "inception_4b/3x3"
  top: "inception_4b/3x3"
}
layer {
  name: "inception_4b/5x5_reduce"
  type: "Convolution"
  bottom: "inception_4a/output"
  top: "inception_4b/5x5_reduce"
  param {
    lr_mult: 1
    decay_mult: 1
  }
  param {
    lr_mult: 2
    decay_mult: 0
  }
  convolution_param {
    num_output: 24
    kernel_size: 1
    weight_filler {
      type: "xavier"
      std: 0.2
    }
    bias_filler {
      type: "constant"
      value: 0.2
    }
  }
}
layer {
  name: "inception_4b/relu_5x5_reduce"
  type: "ReLU"
  bottom: "inception_4b/5x5_reduce"
  top: "inception_4b/5x5_reduce"
}
layer {
  name: "inception_4b/5x5"
  type: "Convolution"
  bottom: "inception_4b/5x5_reduce"
  top: "inception_4b/5x5"
  param {
    lr_mult: 1
    decay_mult: 1
  }
  param {
    lr_mult: 2
    decay_mult: 0
  }
  convolution_param {
    num_output: 64
    pad: 2
    kernel_size: 5
    weight_filler {
      type: "xavier"
      std: 0.03
    }
    bias_filler {
      type: "constant"
      value: 0.2
    }
  }
}
layer {
  name: "inception_4b/relu_5x5"
  type: "ReLU"
  bottom: "inception_4b/5x5"
  top: "inception_4b/5x5"
}
layer {
  name: "inception_4b/pool"
  type: "Pooling"
  bottom: "inception_4a/output"
  top: "inception_4b/pool"
  pooling_param {
    pool: MAX
    kernel_size: 3
    stride: 1
    pad: 1
  }
}
layer {
  name: "inception_4b/pool_proj"
  type: "Convolution"
  bottom: "inception_4b/pool"
  top: "inception_4b/pool_proj"
  param {
    lr_mult: 1
    decay_mult: 1
  }
  param {
    lr_mult: 2
    decay_mult: 0
  }
  convolution_param {
    num_output: 64
    kernel_size: 1
    weight_filler {
      type: "xavier"
      std: 0.1
    }
    bias_filler {
      type: "constant"
      value: 0.2
    }
  }
}
layer {
  name: "inception_4b/relu_pool_proj"
  type: "ReLU"
  bottom: "inception_4b/pool_proj"
  top: "inception_4b/pool_proj"
}
layer {
  name: "inception_4b/output"
  type: "Concat"
  bottom: "inception_4b/1x1"
  bottom: "inception_4b/3x3"
  bottom: "inception_4b/5x5"
  bottom: "inception_4b/pool_proj"
  top: "inception_4b/output"
}
layer {
  name: "inception_4c/1x1"
  type: "Convolution"
  bottom: "inception_4b/output"
  top: "inception_4c/1x1"
  param {
    lr_mult: 1
    decay_mult: 1
  }
  param {
    lr_mult: 2
    decay_mult: 0
  }
  convolution_param {
    num_output: 128
    kernel_size: 1
    weight_filler {
      type: "xavier"
      std: 0.03
    }
    bias_filler {
      type: "constant"
      value: 0.2
    }
  }
}
layer {
  name: "inception_4c/relu_1x1"
  type: "ReLU"
  bottom: "inception_4c/1x1"
  top: "inception_4c/1x1"
}
layer {
  name: "inception_4c/3x3_reduce"
  type: "Convolution"
  bottom: "inception_4b/output"
  top: "inception_4c/3x3_reduce"
  param {
    lr_mult: 1
    decay_mult: 1
  }
  param {
    lr_mult: 2
    decay_mult: 0
  }
  convolution_param {
    num_output: 128
    kernel_size: 1
    weight_filler {
      type: "xavier"
      std: 0.09
    }
    bias_filler {
      type: "constant"
      value: 0.2
    }
  }
}
layer {
  name: "inception_4c/relu_3x3_reduce"
  type: "ReLU"
  bottom: "inception_4c/3x3_reduce"
  top: "inception_4c/3x3_reduce"
}
layer {
  name: "inception_4c/3x3"
  type: "Convolution"
  bottom: "inception_4c/3x3_reduce"
  top: "inception_4c/3x3"
  param {
    lr_mult: 1
    decay_mult: 1
  }
  param {
    lr_mult: 2
    decay_mult: 0
  }
  convolution_param {
    num_output: 256
    pad: 1
    kernel_size: 3
    weight_filler {
      type: "xavier"
      std: 0.03
    }
    bias_filler {
      type: "constant"
      value: 0.2
    }
  }
}
layer {
  name: "inception_4c/relu_3x3"
  type: "ReLU"
  bottom: "inception_4c/3x3"
  top: "inception_4c/3x3"
}
layer {
  name: "inception_4c/5x5_reduce"
  type: "Convolution"
  bottom: "inception_4b/output"
  top: "inception_4c/5x5_reduce"
  param {
    lr_mult: 1
    decay_mult: 1
  }
  param {
    lr_mult: 2
    decay_mult: 0
  }
  convolution_param {
    num_output: 24
    kernel_size: 1
    weight_filler {
      type: "xavier"
      std: 0.2
    }
    bias_filler {
      type: "constant"
      value: 0.2
    }
  }
}
layer {
  name: "inception_4c/relu_5x5_reduce"
  type: "ReLU"
  bottom: "inception_4c/5x5_reduce"
  top: "inception_4c/5x5_reduce"
}
layer {
  name: "inception_4c/5x5"
  type: "Convolution"
  bottom: "inception_4c/5x5_reduce"
  top: "inception_4c/5x5"
  param {
    lr_mult: 1
    decay_mult: 1
  }
  param {
    lr_mult: 2
    decay_mult: 0
  }
  convolution_param {
    num_output: 64
    pad: 2
    kernel_size: 5
    weight_filler {
      type: "xavier"
      std: 0.03
    }
    bias_filler {
      type: "constant"
      value: 0.2
    }
  }
}
layer {
  name: "inception_4c/relu_5x5"
  type: "ReLU"
  bottom: "inception_4c/5x5"
  top: "inception_4c/5x5"
}
layer {
  name: "inception_4c/pool"
  type: "Pooling"
  bottom: "inception_4b/output"
  top: "inception_4c/pool"
  pooling_param {
    pool: MAX
    kernel_size: 3
    stride: 1
    pad: 1
  }
}
layer {
  name: "inception_4c/pool_proj"
  type: "Convolution"
  bottom: "inception_4c/pool"
  top: "inception_4c/pool_proj"
  param {
    lr_mult: 1
    decay_mult: 1
  }
  param {
    lr_mult: 2
    decay_mult: 0
  }
  convolution_param {
    num_output: 64
    kernel_size: 1
    weight_filler {
      type: "xavier"
      std: 0.1
    }
    bias_filler {
      type: "constant"
      value: 0.2
    }
  }
}
layer {
  name: "inception_4c/relu_pool_proj"
  type: "ReLU"
  bottom: "inception_4c/pool_proj"
  top: "inception_4c/pool_proj"
}
layer {
  name: "inception_4c/output"
  type: "Concat"
  bottom: "inception_4c/1x1"
  bottom: "inception_4c/3x3"
  bottom: "inception_4c/5x5"
  bottom: "inception_4c/pool_proj"
  top: "inception_4c/output"
}
layer {
  name: "inception_4d/1x1"
  type: "Convolution"
  bottom: "inception_4c/output"
  top: "inception_4d/1x1"
  param {
    lr_mult: 1
    decay_mult: 1
  }
  param {
    lr_mult: 2
    decay_mult: 0
  }
  convolution_param {
    num_output: 112
    kernel_size: 1
    weight_filler {
      type: "xavier"
      std: 0.03
    }
    bias_filler {
      type: "constant"
      value: 0.2
    }
  }
}
layer {
  name: "inception_4d/relu_1x1"
  type: "ReLU"
  bottom: "inception_4d/1x1"
  top: "inception_4d/1x1"
}
layer {
  name: "inception_4d/3x3_reduce"
  type: "Convolution"
  bottom: "inception_4c/output"
  top: "inception_4d/3x3_reduce"
  param {
    lr_mult: 1
    decay_mult: 1
  }
  param {
    lr_mult: 2
    decay_mult: 0
  }
  convolution_param {
    num_output: 144
    kernel_size: 1
    weight_filler {
      type: "xavier"
      std: 0.09
    }
    bias_filler {
      type: "constant"
      value: 0.2
    }
  }
}
layer {
  name: "inception_4d/relu_3x3_reduce"
  type: "ReLU"
  bottom: "inception_4d/3x3_reduce"
  top: "inception_4d/3x3_reduce"
}
layer {
  name: "inception_4d/3x3"
  type: "Convolution"
  bottom: "inception_4d/3x3_reduce"
  top: "inception_4d/3x3"
  param {
    lr_mult: 1
    decay_mult: 1
  }
  param {
    lr_mult: 2
    decay_mult: 0
  }
  convolution_param {
    num_output: 288
    pad: 1
    kernel_size: 3
    weight_filler {
      type: "xavier"
      std: 0.03
    }
    bias_filler {
      type: "constant"
      value: 0.2
    }
  }
}
layer {
  name: "inception_4d/relu_3x3"
  type: "ReLU"
  bottom: "inception_4d/3x3"
  top: "inception_4d/3x3"
}
layer {
  name: "inception_4d/5x5_reduce"
  type: "Convolution"
  bottom: "inception_4c/output"
  top: "inception_4d/5x5_reduce"
  param {
    lr_mult: 1
    decay_mult: 1
  }
  param {
    lr_mult: 2
    decay_mult: 0
  }
  convolution_param {
    num_output: 32
    kernel_size: 1
    weight_filler {
      type: "xavier"
      std: 0.2
    }
    bias_filler {
      type: "constant"
      value: 0.2
    }
  }
}
layer {
  name: "inception_4d/relu_5x5_reduce"
  type: "ReLU"
  bottom: "inception_4d/5x5_reduce"
  top: "inception_4d/5x5_reduce"
}
layer {
  name: "inception_4d/5x5"
  type: "Convolution"
  bottom: "inception_4d/5x5_reduce"
  top: "inception_4d/5x5"
  param {
    lr_mult: 1
    decay_mult: 1
  }
  param {
    lr_mult: 2
    decay_mult: 0
  }
  convolution_param {
    num_output: 64
    pad: 2
    kernel_size: 5
    weight_filler {
      type: "xavier"
      std: 0.03
    }
    bias_filler {
      type: "constant"
      value: 0.2
    }
  }
}
layer {
  name: "inception_4d/relu_5x5"
  type: "ReLU"
  bottom: "inception_4d/5x5"
  top: "inception_4d/5x5"
}
layer {
  name: "inception_4d/pool"
  type: "Pooling"
  bottom: "inception_4c/output"
  top: "inception_4d/pool"
  pooling_param {
    pool: MAX
    kernel_size: 3
    stride: 1
    pad: 1
  }
}
layer {
  name: "inception_4d/pool_proj"
  type: "Convolution"
  bottom: "inception_4d/pool"
  top: "inception_4d/pool_proj"
  param {
    lr_mult: 1
    decay_mult: 1
  }
  param {
    lr_mult: 2
    decay_mult: 0
  }
  convolution_param {
    num_output: 64
    kernel_size: 1
    weight_filler {
      type: "xavier"
      std: 0.1
    }
    bias_filler {
      type: "constant"
      value: 0.2
    }
  }
}
layer {
  name: "inception_4d/relu_pool_proj"
  type: "ReLU"
  bottom: "inception_4d/pool_proj"
  top: "inception_4d/pool_proj"
}
layer {
  name: "inception_4d/output"
  type: "Concat"
  bottom: "inception_4d/1x1"
  bottom: "inception_4d/3x3"
  bottom: "inception_4d/5x5"
  bottom: "inception_4d/pool_proj"
  top: "inception_4d/output"
}
layer {
  name: "loss2/ave_pool"
  type: "Pooling"
  bottom: "inception_4d/output"
  top: "loss2/ave_pool"
  pooling_param {
    pool: AVE
    kernel_size: 5
    stride: 3
  }
}
layer {
  name: "loss2/conv"
  type: "Convolution"
  bottom: "loss2/ave_pool"
  top: "loss2/conv"
  param {
    lr_mult: 1
    decay_mult: 1
  }
  param {
    lr_mult: 2
    decay_mult: 0
  }
  convolution_param {
    num_output: 128
    kernel_size: 1
    weight_filler {
      type: "xavier"
      std: 0.08
    }
    bias_filler {
      type: "constant"
      value: 0.2
    }
  }
}
layer {
  name: "loss2/relu_conv"
  type: "ReLU"
  bottom: "loss2/conv"
  top: "loss2/conv"
}
layer {
  name: "loss2/fc"
  type: "InnerProduct"
  bottom: "loss2/conv"
  top: "loss2/fc"
  param {
    lr_mult: 1
    decay_mult: 1
  }
  param {
    lr_mult: 2
    decay_mult: 0
  }
  inner_product_param {
    num_output: 1024
    weight_filler {
      type: "xavier"
      std: 0.02
    }
    bias_filler {
      type: "constant"
      value: 0.2
    }
  }
}
layer {
  name: "loss2/relu_fc"
  type: "ReLU"
  bottom: "loss2/fc"
  top: "loss2/fc"
}
layer {
  name: "loss2/drop_fc"
  type: "Dropout"
  bottom: "loss2/fc"
  top: "loss2/fc"
  dropout_param {
    dropout_ratio: 0.7
  }
}
layer {
  name: "loss2/classifier_plantvillage"
  type: "InnerProduct"
  bottom: "loss2/fc"
  top: "loss2/classifier_plantvillage"
  param {
    lr_mult: 1
    decay_mult: 1
  }
  param {
    lr_mult: 2
    decay_mult: 0
  }
  inner_product_param {
    num_output: 38
    weight_filler {
      type: "xavier"
      std: 0.0009765625
    }
    bias_filler {
      type: "constant"
      value: 0
    }
  }
}
layer {
  name: "inception_4e/1x1"
  type: "Convolution"
  bottom: "inception_4d/output"
  top: "inception_4e/1x1"
  param {
    lr_mult: 1
    decay_mult: 1
  }
  param {
    lr_mult: 2
    decay_mult: 0
  }
  convolution_param {
    num_output: 256
    kernel_size: 1
    weight_filler {
      type: "xavier"
      std: 0.03
    }
    bias_filler {
      type: "constant"
      value: 0.2
    }
  }
}
layer {
  name: "inception_4e/relu_1x1"
  type: "ReLU"
  bottom: "inception_4e/1x1"
  top: "inception_4e/1x1"
}
layer {
  name: "inception_4e/3x3_reduce"
  type: "Convolution"
  bottom: "inception_4d/output"
  top: "inception_4e/3x3_reduce"
  param {
    lr_mult: 1
    decay_mult: 1
  }
  param {
    lr_mult: 2
    decay_mult: 0
  }
  convolution_param {
    num_output: 160
    kernel_size: 1
    weight_filler {
      type: "xavier"
      std: 0.09
    }
    bias_filler {
      type: "constant"
      value: 0.2
    }
  }
}
layer {
  name: "inception_4e/relu_3x3_reduce"
  type: "ReLU"
  bottom: "inception_4e/3x3_reduce"
  top: "inception_4e/3x3_reduce"
}
layer {
  name: "inception_4e/3x3"
  type: "Convolution"
  bottom: "inception_4e/3x3_reduce"
  top: "inception_4e/3x3"
  param {
    lr_mult: 1
    decay_mult: 1
  }
  param {
    lr_mult: 2
    decay_mult: 0
  }
  convolution_param {
    num_output: 320
    pad: 1
    kernel_size: 3
    weight_filler {
      type: "xavier"
      std: 0.03
    }
    bias_filler {
      type: "constant"
      value: 0.2
    }
  }
}
layer {
  name: "inception_4e/relu_3x3"
  type: "ReLU"
  bottom: "inception_4e/3x3"
  top: "inception_4e/3x3"
}
layer {
  name: "inception_4e/5x5_reduce"
  type: "Convolution"
  bottom: "inception_4d/output"
  top: "inception_4e/5x5_reduce"
  param {
    lr_mult: 1
    decay_mult: 1
  }
  param {
    lr_mult: 2
    decay_mult: 0
  }
  convolution_param {
    num_output: 32
    kernel_size: 1
    weight_filler {
      type: "xavier"
      std: 0.2
    }
    bias_filler {
      type: "constant"
      value: 0.2
    }
  }
}
layer {
  name: "inception_4e/relu_5x5_reduce"
  type: "ReLU"
  bottom: "inception_4e/5x5_reduce"
  top: "inception_4e/5x5_reduce"
}
layer {
  name: "inception_4e/5x5"
  type: "Convolution"
  bottom: "inception_4e/5x5_reduce"
  top: "inception_4e/
I0403 17:42:02.771741 14670 layer_factory.hpp:77] Creating layer data
I0403 17:42:02.772337 14670 net.cpp:91] Creating Layer data
I0403 17:42:02.772367 14670 net.cpp:399] data -> data
I0403 17:42:02.772415 14670 net.cpp:399] data -> label
I0403 17:42:02.772454 14670 data_transformer.cpp:25] Loading mean file from: /home/mohanty/data/final_dataset/lmdb/grayscale-60-40/mean.binaryproto
I0403 17:42:02.773612 14673 db_lmdb.cpp:38] Opened lmdb /home/mohanty/data/final_dataset/lmdb/grayscale-60-40/test_db
I0403 17:42:02.785553 14670 data_layer.cpp:41] output data size: 24,3,224,224
I0403 17:42:02.812434 14670 net.cpp:141] Setting up data
I0403 17:42:02.812511 14670 net.cpp:148] Top shape: 24 3 224 224 (3612672)
I0403 17:42:02.812535 14670 net.cpp:148] Top shape: 24 (24)
I0403 17:42:02.812551 14670 net.cpp:156] Memory required for data: 14450784
I0403 17:42:02.812577 14670 layer_factory.hpp:77] Creating layer label_data_1_split
I0403 17:42:02.812604 14670 net.cpp:91] Creating Layer label_data_1_split
I0403 17:42:02.812623 14670 net.cpp:425] label_data_1_split <- label
I0403 17:42:02.812654 14670 net.cpp:399] label_data_1_split -> label_data_1_split_0
I0403 17:42:02.812682 14670 net.cpp:399] label_data_1_split -> label_data_1_split_1
I0403 17:42:02.812705 14670 net.cpp:399] label_data_1_split -> label_data_1_split_2
I0403 17:42:02.812727 14670 net.cpp:399] label_data_1_split -> label_data_1_split_3
I0403 17:42:02.812747 14670 net.cpp:399] label_data_1_split -> label_data_1_split_4
I0403 17:42:02.812767 14670 net.cpp:399] label_data_1_split -> label_data_1_split_5
I0403 17:42:02.812788 14670 net.cpp:399] label_data_1_split -> label_data_1_split_6
I0403 17:42:02.812808 14670 net.cpp:399] label_data_1_split -> label_data_1_split_7
I0403 17:42:02.812829 14670 net.cpp:399] label_data_1_split -> label_data_1_split_8
I0403 17:42:02.812849 14670 net.cpp:399] label_data_1_split -> label_data_1_split_9
I0403 17:42:02.812964 14670 net.cpp:141] Setting up label_data_1_split
I0403 17:42:02.812994 14670 net.cpp:148] Top shape: 24 (24)
I0403 17:42:02.813011 14670 net.cpp:148] Top shape: 24 (24)
I0403 17:42:02.813027 14670 net.cpp:148] Top shape: 24 (24)
I0403 17:42:02.813043 14670 net.cpp:148] Top shape: 24 (24)
I0403 17:42:02.813060 14670 net.cpp:148] Top shape: 24 (24)
I0403 17:42:02.813076 14670 net.cpp:148] Top shape: 24 (24)
I0403 17:42:02.813091 14670 net.cpp:148] Top shape: 24 (24)
I0403 17:42:02.813107 14670 net.cpp:148] Top shape: 24 (24)
I0403 17:42:02.813122 14670 net.cpp:148] Top shape: 24 (24)
I0403 17:42:02.813139 14670 net.cpp:148] Top shape: 24 (24)
I0403 17:42:02.813184 14670 net.cpp:156] Memory required for data: 14451744
I0403 17:42:02.813200 14670 layer_factory.hpp:77] Creating layer conv1/7x7_s2
I0403 17:42:02.813232 14670 net.cpp:91] Creating Layer conv1/7x7_s2
I0403 17:42:02.813251 14670 net.cpp:425] conv1/7x7_s2 <- data
I0403 17:42:02.813271 14670 net.cpp:399] conv1/7x7_s2 -> conv1/7x7_s2
I0403 17:42:02.954799 14670 net.cpp:141] Setting up conv1/7x7_s2
I0403 17:42:02.954887 14670 net.cpp:148] Top shape: 24 64 112 112 (19267584)
I0403 17:42:02.954905 14670 net.cpp:156] Memory required for data: 91522080
I0403 17:42:02.954938 14670 layer_factory.hpp:77] Creating layer conv1/relu_7x7
I0403 17:42:02.954967 14670 net.cpp:91] Creating Layer conv1/relu_7x7
I0403 17:42:02.954991 14670 net.cpp:425] conv1/relu_7x7 <- conv1/7x7_s2
I0403 17:42:02.955011 14670 net.cpp:386] conv1/relu_7x7 -> conv1/7x7_s2 (in-place)
I0403 17:42:02.955277 14670 net.cpp:141] Setting up conv1/relu_7x7
I0403 17:42:02.955307 14670 net.cpp:148] Top shape: 24 64 112 112 (19267584)
I0403 17:42:02.955324 14670 net.cpp:156] Memory required for data: 168592416
I0403 17:42:02.955341 14670 layer_factory.hpp:77] Creating layer pool1/3x3_s2
I0403 17:42:02.955368 14670 net.cpp:91] Creating Layer pool1/3x3_s2
I0403 17:42:02.955387 14670 net.cpp:425] pool1/3x3_s2 <- conv1/7x7_s2
I0403 17:42:02.955407 14670 net.cpp:399] pool1/3x3_s2 -> pool1/3x3_s2
I0403 17:42:02.955483 14670 net.cpp:141] Setting up pool1/3x3_s2
I0403 17:42:02.955516 14670 net.cpp:148] Top shape: 24 64 56 56 (4816896)
I0403 17:42:02.955533 14670 net.cpp:156] Memory required for data: 187860000
I0403 17:42:02.955549 14670 layer_factory.hpp:77] Creating layer pool1/norm1
I0403 17:42:02.955574 14670 net.cpp:91] Creating Layer pool1/norm1
I0403 17:42:02.955592 14670 net.cpp:425] pool1/norm1 <- pool1/3x3_s2
I0403 17:42:02.955611 14670 net.cpp:399] pool1/norm1 -> pool1/norm1
I0403 17:42:02.955920 14670 net.cpp:141] Setting up pool1/norm1
I0403 17:42:02.955948 14670 net.cpp:148] Top shape: 24 64 56 56 (4816896)
I0403 17:42:02.955965 14670 net.cpp:156] Memory required for data: 207127584
I0403 17:42:02.955989 14670 layer_factory.hpp:77] Creating layer conv2/3x3_reduce
I0403 17:42:02.956024 14670 net.cpp:91] Creating Layer conv2/3x3_reduce
I0403 17:42:02.956043 14670 net.cpp:425] conv2/3x3_reduce <- pool1/norm1
I0403 17:42:02.956063 14670 net.cpp:399] conv2/3x3_reduce -> conv2/3x3_reduce
I0403 17:42:02.957427 14670 net.cpp:141] Setting up conv2/3x3_reduce
I0403 17:42:02.957458 14670 net.cpp:148] Top shape: 24 64 56 56 (4816896)
I0403 17:42:02.957475 14670 net.cpp:156] Memory required for data: 226395168
I0403 17:42:02.957497 14670 layer_factory.hpp:77] Creating layer conv2/relu_3x3_reduce
I0403 17:42:02.957517 14670 net.cpp:91] Creating Layer conv2/relu_3x3_reduce
I0403 17:42:02.957535 14670 net.cpp:425] conv2/relu_3x3_reduce <- conv2/3x3_reduce
I0403 17:42:02.957552 14670 net.cpp:386] conv2/relu_3x3_reduce -> conv2/3x3_reduce (in-place)
I0403 17:42:02.957828 14670 net.cpp:141] Setting up conv2/relu_3x3_reduce
I0403 17:42:02.957854 14670 net.cpp:148] Top shape: 24 64 56 56 (4816896)
I0403 17:42:02.957871 14670 net.cpp:156] Memory required for data: 245662752
I0403 17:42:02.957887 14670 layer_factory.hpp:77] Creating layer conv2/3x3
I0403 17:42:02.957911 14670 net.cpp:91] Creating Layer conv2/3x3
I0403 17:42:02.957931 14670 net.cpp:425] conv2/3x3 <- conv2/3x3_reduce
I0403 17:42:02.957949 14670 net.cpp:399] conv2/3x3 -> conv2/3x3
I0403 17:42:02.960294 14670 net.cpp:141] Setting up conv2/3x3
I0403 17:42:02.960326 14670 net.cpp:148] Top shape: 24 192 56 56 (14450688)
I0403 17:42:02.960343 14670 net.cpp:156] Memory required for data: 303465504
I0403 17:42:02.960366 14670 layer_factory.hpp:77] Creating layer conv2/relu_3x3
I0403 17:42:02.960386 14670 net.cpp:91] Creating Layer conv2/relu_3x3
I0403 17:42:02.960403 14670 net.cpp:425] conv2/relu_3x3 <- conv2/3x3
I0403 17:42:02.960422 14670 net.cpp:386] conv2/relu_3x3 -> conv2/3x3 (in-place)
I0403 17:42:02.960597 14670 net.cpp:141] Setting up conv2/relu_3x3
I0403 17:42:02.960623 14670 net.cpp:148] Top shape: 24 192 56 56 (14450688)
I0403 17:42:02.960670 14670 net.cpp:156] Memory required for data: 361268256
I0403 17:42:02.960687 14670 layer_factory.hpp:77] Creating layer conv2/norm2
I0403 17:42:02.960707 14670 net.cpp:91] Creating Layer conv2/norm2
I0403 17:42:02.960726 14670 net.cpp:425] conv2/norm2 <- conv2/3x3
I0403 17:42:02.960744 14670 net.cpp:399] conv2/norm2 -> conv2/norm2
I0403 17:42:02.961060 14670 net.cpp:141] Setting up conv2/norm2
I0403 17:42:02.961087 14670 net.cpp:148] Top shape: 24 192 56 56 (14450688)
I0403 17:42:02.961103 14670 net.cpp:156] Memory required for data: 419071008
I0403 17:42:02.961119 14670 layer_factory.hpp:77] Creating layer pool2/3x3_s2
I0403 17:42:02.961141 14670 net.cpp:91] Creating Layer pool2/3x3_s2
I0403 17:42:02.961159 14670 net.cpp:425] pool2/3x3_s2 <- conv2/norm2
I0403 17:42:02.961179 14670 net.cpp:399] pool2/3x3_s2 -> pool2/3x3_s2
I0403 17:42:02.961233 14670 net.cpp:141] Setting up pool2/3x3_s2
I0403 17:42:02.961258 14670 net.cpp:148] Top shape: 24 192 28 28 (3612672)
I0403 17:42:02.961273 14670 net.cpp:156] Memory required for data: 433521696
I0403 17:42:02.961289 14670 layer_factory.hpp:77] Creating layer pool2/3x3_s2_pool2/3x3_s2_0_split
I0403 17:42:02.961308 14670 net.cpp:91] Creating Layer pool2/3x3_s2_pool2/3x3_s2_0_split
I0403 17:42:02.961324 14670 net.cpp:425] pool2/3x3_s2_pool2/3x3_s2_0_split <- pool2/3x3_s2
I0403 17:42:02.961345 14670 net.cpp:399] pool2/3x3_s2_pool2/3x3_s2_0_split -> pool2/3x3_s2_pool2/3x3_s2_0_split_0
I0403 17:42:02.961367 14670 net.cpp:399] pool2/3x3_s2_pool2/3x3_s2_0_split -> pool2/3x3_s2_pool2/3x3_s2_0_split_1
I0403 17:42:02.961391 14670 net.cpp:399] pool2/3x3_s2_pool2/3x3_s2_0_split -> pool2/3x3_s2_pool2/3x3_s2_0_split_2
I0403 17:42:02.961415 14670 net.cpp:399] pool2/3x3_s2_pool2/3x3_s2_0_split -> pool2/3x3_s2_pool2/3x3_s2_0_split_3
I0403 17:42:02.961488 14670 net.cpp:141] Setting up pool2/3x3_s2_pool2/3x3_s2_0_split
I0403 17:42:02.961513 14670 net.cpp:148] Top shape: 24 192 28 28 (3612672)
I0403 17:42:02.961529 14670 net.cpp:148] Top shape: 24 192 28 28 (3612672)
I0403 17:42:02.961546 14670 net.cpp:148] Top shape: 24 192 28 28 (3612672)
I0403 17:42:02.961562 14670 net.cpp:148] Top shape: 24 192 28 28 (3612672)
I0403 17:42:02.961577 14670 net.cpp:156] Memory required for data: 491324448
I0403 17:42:02.961592 14670 layer_factory.hpp:77] Creating layer inception_3a/1x1
I0403 17:42:02.961617 14670 net.cpp:91] Creating Layer inception_3a/1x1
I0403 17:42:02.961637 14670 net.cpp:425] inception_3a/1x1 <- pool2/3x3_s2_pool2/3x3_s2_0_split_0
I0403 17:42:02.961657 14670 net.cpp:399] inception_3a/1x1 -> inception_3a/1x1
I0403 17:42:02.963279 14670 net.cpp:141] Setting up inception_3a/1x1
I0403 17:42:02.963310 14670 net.cpp:148] Top shape: 24 64 28 28 (1204224)
I0403 17:42:02.963327 14670 net.cpp:156] Memory required for data: 496141344
I0403 17:42:02.963346 14670 layer_factory.hpp:77] Creating layer inception_3a/relu_1x1
I0403 17:42:02.963368 14670 net.cpp:91] Creating Layer inception_3a/relu_1x1
I0403 17:42:02.963388 14670 net.cpp:425] inception_3a/relu_1x1 <- inception_3a/1x1
I0403 17:42:02.963408 14670 net.cpp:386] inception_3a/relu_1x1 -> inception_3a/1x1 (in-place)
I0403 17:42:02.963589 14670 net.cpp:141] Setting up inception_3a/relu_1x1
I0403 17:42:02.963618 14670 net.cpp:148] Top shape: 24 64 28 28 (1204224)
I0403 17:42:02.963635 14670 net.cpp:156] Memory required for data: 500958240
I0403 17:42:02.963651 14670 layer_factory.hpp:77] Creating layer inception_3a/3x3_reduce
I0403 17:42:02.963675 14670 net.cpp:91] Creating Layer inception_3a/3x3_reduce
I0403 17:42:02.963695 14670 net.cpp:425] inception_3a/3x3_reduce <- pool2/3x3_s2_pool2/3x3_s2_0_split_1
I0403 17:42:02.963716 14670 net.cpp:399] inception_3a/3x3_reduce -> inception_3a/3x3_reduce
I0403 17:42:02.965443 14670 net.cpp:141] Setting up inception_3a/3x3_reduce
I0403 17:42:02.965473 14670 net.cpp:148] Top shape: 24 96 28 28 (1806336)
I0403 17:42:02.965490 14670 net.cpp:156] Memory required for data: 508183584
I0403 17:42:02.965514 14670 layer_factory.hpp:77] Creating layer inception_3a/relu_3x3_reduce
I0403 17:42:02.965550 14670 net.cpp:91] Creating Layer inception_3a/relu_3x3_reduce
I0403 17:42:02.965569 14670 net.cpp:425] inception_3a/relu_3x3_reduce <- inception_3a/3x3_reduce
I0403 17:42:02.965586 14670 net.cpp:386] inception_3a/relu_3x3_reduce -> inception_3a/3x3_reduce (in-place)
I0403 17:42:02.965775 14670 net.cpp:141] Setting up inception_3a/relu_3x3_reduce
I0403 17:42:02.965800 14670 net.cpp:148] Top shape: 24 96 28 28 (1806336)
I0403 17:42:02.965814 14670 net.cpp:156] Memory required for data: 515408928
I0403 17:42:02.965829 14670 layer_factory.hpp:77] Creating layer inception_3a/3x3
I0403 17:42:02.965853 14670 net.cpp:91] Creating Layer inception_3a/3x3
I0403 17:42:02.965873 14670 net.cpp:425] inception_3a/3x3 <- inception_3a/3x3_reduce
I0403 17:42:02.965893 14670 net.cpp:399] inception_3a/3x3 -> inception_3a/3x3
I0403 17:42:02.967581 14670 net.cpp:141] Setting up inception_3a/3x3
I0403 17:42:02.967610 14670 net.cpp:148] Top shape: 24 128 28 28 (2408448)
I0403 17:42:02.967627 14670 net.cpp:156] Memory required for data: 525042720
I0403 17:42:02.967646 14670 layer_factory.hpp:77] Creating layer inception_3a/relu_3x3
I0403 17:42:02.967667 14670 net.cpp:91] Creating Layer inception_3a/relu_3x3
I0403 17:42:02.967685 14670 net.cpp:425] inception_3a/relu_3x3 <- inception_3a/3x3
I0403 17:42:02.967702 14670 net.cpp:386] inception_3a/relu_3x3 -> inception_3a/3x3 (in-place)
I0403 17:42:02.967986 14670 net.cpp:141] Setting up inception_3a/relu_3x3
I0403 17:42:02.968014 14670 net.cpp:148] Top shape: 24 128 28 28 (2408448)
I0403 17:42:02.968030 14670 net.cpp:156] Memory required for data: 534676512
I0403 17:42:02.968046 14670 layer_factory.hpp:77] Creating layer inception_3a/5x5_reduce
I0403 17:42:02.968071 14670 net.cpp:91] Creating Layer inception_3a/5x5_reduce
I0403 17:42:02.968089 14670 net.cpp:425] inception_3a/5x5_reduce <- pool2/3x3_s2_pool2/3x3_s2_0_split_2
I0403 17:42:02.968109 14670 net.cpp:399] inception_3a/5x5_reduce -> inception_3a/5x5_reduce
I0403 17:42:02.969079 14670 net.cpp:141] Setting up inception_3a/5x5_reduce
I0403 17:42:02.969110 14670 net.cpp:148] Top shape: 24 16 28 28 (301056)
I0403 17:42:02.969127 14670 net.cpp:156] Memory required for data: 535880736
I0403 17:42:02.969146 14670 layer_factory.hpp:77] Creating layer inception_3a/relu_5x5_reduce
I0403 17:42:02.969166 14670 net.cpp:91] Creating Layer inception_3a/relu_5x5_reduce
I0403 17:42:02.969182 14670 net.cpp:425] inception_3a/relu_5x5_reduce <- inception_3a/5x5_reduce
I0403 17:42:02.969204 14670 net.cpp:386] inception_3a/relu_5x5_reduce -> inception_3a/5x5_reduce (in-place)
I0403 17:42:02.969503 14670 net.cpp:141] Setting up inception_3a/relu_5x5_reduce
I0403 17:42:02.969532 14670 net.cpp:148] Top shape: 24 16 28 28 (301056)
I0403 17:42:02.969549 14670 net.cpp:156] Memory required for data: 537084960
I0403 17:42:02.969565 14670 layer_factory.hpp:77] Creating layer inception_3a/5x5
I0403 17:42:02.969588 14670 net.cpp:91] Creating Layer inception_3a/5x5
I0403 17:42:02.969605 14670 net.cpp:425] inception_3a/5x5 <- inception_3a/5x5_reduce
I0403 17:42:02.969624 14670 net.cpp:399] inception_3a/5x5 -> inception_3a/5x5
I0403 17:42:02.970651 14670 net.cpp:141] Setting up inception_3a/5x5
I0403 17:42:02.970679 14670 net.cpp:148] Top shape: 24 32 28 28 (602112)
I0403 17:42:02.970695 14670 net.cpp:156] Memory required for data: 539493408
I0403 17:42:02.970715 14670 layer_factory.hpp:77] Creating layer inception_3a/relu_5x5
I0403 17:42:02.970736 14670 net.cpp:91] Creating Layer inception_3a/relu_5x5
I0403 17:42:02.970754 14670 net.cpp:425] inception_3a/relu_5x5 <- inception_3a/5x5
I0403 17:42:02.970772 14670 net.cpp:386] inception_3a/relu_5x5 -> inception_3a/5x5 (in-place)
I0403 17:42:02.970947 14670 net.cpp:141] Setting up inception_3a/relu_5x5
I0403 17:42:02.970974 14670 net.cpp:148] Top shape: 24 32 28 28 (602112)
I0403 17:42:02.970995 14670 net.cpp:156] Memory required for data: 541901856
I0403 17:42:02.971010 14670 layer_factory.hpp:77] Creating layer inception_3a/pool
I0403 17:42:02.971029 14670 net.cpp:91] Creating Layer inception_3a/pool
I0403 17:42:02.971060 14670 net.cpp:425] inception_3a/pool <- pool2/3x3_s2_pool2/3x3_s2_0_split_3
I0403 17:42:02.971082 14670 net.cpp:399] inception_3a/pool -> inception_3a/pool
I0403 17:42:02.971143 14670 net.cpp:141] Setting up inception_3a/pool
I0403 17:42:02.971166 14670 net.cpp:148] Top shape: 24 192 28 28 (3612672)
I0403 17:42:02.971181 14670 net.cpp:156] Memory required for data: 556352544
I0403 17:42:02.971196 14670 layer_factory.hpp:77] Creating layer inception_3a/pool_proj
I0403 17:42:02.971227 14670 net.cpp:91] Creating Layer inception_3a/pool_proj
I0403 17:42:02.971248 14670 net.cpp:425] inception_3a/pool_proj <- inception_3a/pool
I0403 17:42:02.971268 14670 net.cpp:399] inception_3a/pool_proj -> inception_3a/pool_proj
I0403 17:42:02.972254 14670 net.cpp:141] Setting up inception_3a/pool_proj
I0403 17:42:02.972282 14670 net.cpp:148] Top shape: 24 32 28 28 (602112)
I0403 17:42:02.972298 14670 net.cpp:156] Memory required for data: 558760992
I0403 17:42:02.972322 14670 layer_factory.hpp:77] Creating layer inception_3a/relu_pool_proj
I0403 17:42:02.972342 14670 net.cpp:91] Creating Layer inception_3a/relu_pool_proj
I0403 17:42:02.972359 14670 net.cpp:425] inception_3a/relu_pool_proj <- inception_3a/pool_proj
I0403 17:42:02.972379 14670 net.cpp:386] inception_3a/relu_pool_proj -> inception_3a/pool_proj (in-place)
I0403 17:42:02.972661 14670 net.cpp:141] Setting up inception_3a/relu_pool_proj
I0403 17:42:02.972687 14670 net.cpp:148] Top shape: 24 32 28 28 (602112)
I0403 17:42:02.972703 14670 net.cpp:156] Memory required for data: 561169440
I0403 17:42:02.972718 14670 layer_factory.hpp:77] Creating layer inception_3a/output
I0403 17:42:02.972739 14670 net.cpp:91] Creating Layer inception_3a/output
I0403 17:42:02.972756 14670 net.cpp:425] inception_3a/output <- inception_3a/1x1
I0403 17:42:02.972774 14670 net.cpp:425] inception_3a/output <- inception_3a/3x3
I0403 17:42:02.972790 14670 net.cpp:425] inception_3a/output <- inception_3a/5x5
I0403 17:42:02.972805 14670 net.cpp:425] inception_3a/output <- inception_3a/pool_proj
I0403 17:42:02.972822 14670 net.cpp:399] inception_3a/output -> inception_3a/output
I0403 17:42:02.972872 14670 net.cpp:141] Setting up inception_3a/output
I0403 17:42:02.972894 14670 net.cpp:148] Top shape: 24 256 28 28 (4816896)
I0403 17:42:02.972910 14670 net.cpp:156] Memory required for data: 580437024
I0403 17:42:02.972928 14670 layer_factory.hpp:77] Creating layer inception_3a/output_inception_3a/output_0_split
I0403 17:42:02.972944 14670 net.cpp:91] Creating Layer inception_3a/output_inception_3a/output_0_split
I0403 17:42:02.972960 14670 net.cpp:425] inception_3a/output_inception_3a/output_0_split <- inception_3a/output
I0403 17:42:02.972985 14670 net.cpp:399] inception_3a/output_inception_3a/output_0_split -> inception_3a/output_inception_3a/output_0_split_0
I0403 17:42:02.973007 14670 net.cpp:399] inception_3a/output_inception_3a/output_0_split -> inception_3a/output_inception_3a/output_0_split_1
I0403 17:42:02.973034 14670 net.cpp:399] inception_3a/output_inception_3a/output_0_split -> inception_3a/output_inception_3a/output_0_split_2
I0403 17:42:02.973057 14670 net.cpp:399] inception_3a/output_inception_3a/output_0_split -> inception_3a/output_inception_3a/output_0_split_3
I0403 17:42:02.973132 14670 net.cpp:141] Setting up inception_3a/output_inception_3a/output_0_split
I0403 17:42:02.973156 14670 net.cpp:148] Top shape: 24 256 28 28 (4816896)
I0403 17:42:02.973176 14670 net.cpp:148] Top shape: 24 256 28 28 (4816896)
I0403 17:42:02.973193 14670 net.cpp:148] Top shape: 24 256 28 28 (4816896)
I0403 17:42:02.973209 14670 net.cpp:148] Top shape: 24 256 28 28 (4816896)
I0403 17:42:02.973223 14670 net.cpp:156] Memory required for data: 657507360
I0403 17:42:02.973238 14670 layer_factory.hpp:77] Creating layer inception_3b/1x1
I0403 17:42:02.973258 14670 net.cpp:91] Creating Layer inception_3b/1x1
I0403 17:42:02.973275 14670 net.cpp:425] inception_3b/1x1 <- inception_3a/output_inception_3a/output_0_split_0
I0403 17:42:02.973296 14670 net.cpp:399] inception_3b/1x1 -> inception_3b/1x1
I0403 17:42:02.974454 14670 net.cpp:141] Setting up inception_3b/1x1
I0403 17:42:02.974494 14670 net.cpp:148] Top shape: 24 128 28 28 (2408448)
I0403 17:42:02.974511 14670 net.cpp:156] Memory required for data: 667141152
I0403 17:42:02.974530 14670 layer_factory.hpp:77] Creating layer inception_3b/relu_1x1
I0403 17:42:02.974552 14670 net.cpp:91] Creating Layer inception_3b/relu_1x1
I0403 17:42:02.974570 14670 net.cpp:425] inception_3b/relu_1x1 <- inception_3b/1x1
I0403 17:42:02.974587 14670 net.cpp:386] inception_3b/relu_1x1 -> inception_3b/1x1 (in-place)
I0403 17:42:02.974771 14670 net.cpp:141] Setting up inception_3b/relu_1x1
I0403 17:42:02.974795 14670 net.cpp:148] Top shape: 24 128 28 28 (2408448)
I0403 17:42:02.974812 14670 net.cpp:156] Memory required for data: 676774944
I0403 17:42:02.974827 14670 layer_factory.hpp:77] Creating layer inception_3b/3x3_reduce
I0403 17:42:02.974851 14670 net.cpp:91] Creating Layer inception_3b/3x3_reduce
I0403 17:42:02.974871 14670 net.cpp:425] inception_3b/3x3_reduce <- inception_3a/output_inception_3a/output_0_split_1
I0403 17:42:02.974891 14670 net.cpp:399] inception_3b/3x3_reduce -> inception_3b/3x3_reduce
I0403 17:42:02.976047 14670 net.cpp:141] Setting up inception_3b/3x3_reduce
I0403 17:42:02.976075 14670 net.cpp:148] Top shape: 24 128 28 28 (2408448)
I0403 17:42:02.976091 14670 net.cpp:156] Memory required for data: 686408736
I0403 17:42:02.976109 14670 layer_factory.hpp:77] Creating layer inception_3b/relu_3x3_reduce
I0403 17:42:02.976130 14670 net.cpp:91] Creating Layer inception_3b/relu_3x3_reduce
I0403 17:42:02.976148 14670 net.cpp:425] inception_3b/relu_3x3_reduce <- inception_3b/3x3_reduce
I0403 17:42:02.976167 14670 net.cpp:386] inception_3b/relu_3x3_reduce -> inception_3b/3x3_reduce (in-place)
I0403 17:42:02.976346 14670 net.cpp:141] Setting up inception_3b/relu_3x3_reduce
I0403 17:42:02.976373 14670 net.cpp:148] Top shape: 24 128 28 28 (2408448)
I0403 17:42:02.976388 14670 net.cpp:156] Memory required for data: 696042528
I0403 17:42:02.976403 14670 layer_factory.hpp:77] Creating layer inception_3b/3x3
I0403 17:42:02.976428 14670 net.cpp:91] Creating Layer inception_3b/3x3
I0403 17:42:02.976446 14670 net.cpp:425] inception_3b/3x3 <- inception_3b/3x3_reduce
I0403 17:42:02.976469 14670 net.cpp:399] inception_3b/3x3 -> inception_3b/3x3
I0403 17:42:02.979462 14670 net.cpp:141] Setting up inception_3b/3x3
I0403 17:42:02.979492 14670 net.cpp:148] Top shape: 24 192 28 28 (3612672)
I0403 17:42:02.979508 14670 net.cpp:156] Memory required for data: 710493216
I0403 17:42:02.979528 14670 layer_factory.hpp:77] Creating layer inception_3b/relu_3x3
I0403 17:42:02.979550 14670 net.cpp:91] Creating Layer inception_3b/relu_3x3
I0403 17:42:02.979568 14670 net.cpp:425] inception_3b/relu_3x3 <- inception_3b/3x3
I0403 17:42:02.979586 14670 net.cpp:386] inception_3b/relu_3x3 -> inception_3b/3x3 (in-place)
I0403 17:42:02.979868 14670 net.cpp:141] Setting up inception_3b/relu_3x3
I0403 17:42:02.979895 14670 net.cpp:148] Top shape: 24 192 28 28 (3612672)
I0403 17:42:02.979912 14670 net.cpp:156] Memory required for data: 724943904
I0403 17:42:02.979929 14670 layer_factory.hpp:77] Creating layer inception_3b/5x5_reduce
I0403 17:42:02.979955 14670 net.cpp:91] Creating Layer inception_3b/5x5_reduce
I0403 17:42:02.979974 14670 net.cpp:425] inception_3b/5x5_reduce <- inception_3a/output_inception_3a/output_0_split_2
I0403 17:42:02.980000 14670 net.cpp:399] inception_3b/5x5_reduce -> inception_3b/5x5_reduce
I0403 17:42:02.981016 14670 net.cpp:141] Setting up inception_3b/5x5_reduce
I0403 17:42:02.981045 14670 net.cpp:148] Top shape: 24 32 28 28 (602112)
I0403 17:42:02.981060 14670 net.cpp:156] Memory required for data: 727352352
I0403 17:42:02.981079 14670 layer_factory.hpp:77] Creating layer inception_3b/relu_5x5_reduce
I0403 17:42:02.981101 14670 net.cpp:91] Creating Layer inception_3b/relu_5x5_reduce
I0403 17:42:02.981118 14670 net.cpp:425] inception_3b/relu_5x5_reduce <- inception_3b/5x5_reduce
I0403 17:42:02.981137 14670 net.cpp:386] inception_3b/relu_5x5_reduce -> inception_3b/5x5_reduce (in-place)
I0403 17:42:02.981333 14670 net.cpp:141] Setting up inception_3b/relu_5x5_reduce
I0403 17:42:02.981359 14670 net.cpp:148] Top shape: 24 32 28 28 (602112)
I0403 17:42:02.981376 14670 net.cpp:156] Memory required for data: 729760800
I0403 17:42:02.981391 14670 layer_factory.hpp:77] Creating layer inception_3b/5x5
I0403 17:42:02.981413 14670 net.cpp:91] Creating Layer inception_3b/5x5
I0403 17:42:02.981432 14670 net.cpp:425] inception_3b/5x5 <- inception_3b/5x5_reduce
I0403 17:42:02.981454 14670 net.cpp:399] inception_3b/5x5 -> inception_3b/5x5
I0403 17:42:02.983458 14670 net.cpp:141] Setting up inception_3b/5x5
I0403 17:42:02.983487 14670 net.cpp:148] Top shape: 24 96 28 28 (1806336)
I0403 17:42:02.983510 14670 net.cpp:156] Memory required for data: 736986144
I0403 17:42:02.983527 14670 layer_factory.hpp:77] Creating layer inception_3b/relu_5x5
I0403 17:42:02.983549 14670 net.cpp:91] Creating Layer inception_3b/relu_5x5
I0403 17:42:02.983567 14670 net.cpp:425] inception_3b/relu_5x5 <- inception_3b/5x5
I0403 17:42:02.983584 14670 net.cpp:386] inception_3b/relu_5x5 -> inception_3b/5x5 (in-place)
I0403 17:42:02.983783 14670 net.cpp:141] Setting up inception_3b/relu_5x5
I0403 17:42:02.983808 14670 net.cpp:148] Top shape: 24 96 28 28 (1806336)
I0403 17:42:02.983824 14670 net.cpp:156] Memory required for data: 744211488
I0403 17:42:02.983839 14670 layer_factory.hpp:77] Creating layer inception_3b/pool
I0403 17:42:02.983857 14670 net.cpp:91] Creating Layer inception_3b/pool
I0403 17:42:02.983875 14670 net.cpp:425] inception_3b/pool <- inception_3a/output_inception_3a/output_0_split_3
I0403 17:42:02.983894 14670 net.cpp:399] inception_3b/pool -> inception_3b/pool
I0403 17:42:02.983952 14670 net.cpp:141] Setting up inception_3b/pool
I0403 17:42:02.983974 14670 net.cpp:148] Top shape: 24 256 28 28 (4816896)
I0403 17:42:02.983995 14670 net.cpp:156] Memory required for data: 763479072
I0403 17:42:02.984010 14670 layer_factory.hpp:77] Creating layer inception_3b/pool_proj
I0403 17:42:02.984033 14670 net.cpp:91] Creating Layer inception_3b/pool_proj
I0403 17:42:02.984052 14670 net.cpp:425] inception_3b/pool_proj <- inception_3b/pool
I0403 17:42:02.984073 14670 net.cpp:399] inception_3b/pool_proj -> inception_3b/pool_proj
I0403 17:42:02.985148 14670 net.cpp:141] Setting up inception_3b/pool_proj
I0403 17:42:02.985177 14670 net.cpp:148] Top shape: 24 64 28 28 (1204224)
I0403 17:42:02.985193 14670 net.cpp:156] Memory required for data: 768295968
I0403 17:42:02.985216 14670 layer_factory.hpp:77] Creating layer inception_3b/relu_pool_proj
I0403 17:42:02.985235 14670 net.cpp:91] Creating Layer inception_3b/relu_pool_proj
I0403 17:42:02.985251 14670 net.cpp:425] inception_3b/relu_pool_proj <- inception_3b/pool_proj
I0403 17:42:02.985271 14670 net.cpp:386] inception_3b/relu_pool_proj -> inception_3b/pool_proj (in-place)
I0403 17:42:02.985672 14670 net.cpp:141] Setting up inception_3b/relu_pool_proj
I0403 17:42:02.985702 14670 net.cpp:148] Top shape: 24 64 28 28 (1204224)
I0403 17:42:02.985719 14670 net.cpp:156] Memory required for data: 773112864
I0403 17:42:02.985734 14670 layer_factory.hpp:77] Creating layer inception_3b/output
I0403 17:42:02.985752 14670 net.cpp:91] Creating Layer inception_3b/output
I0403 17:42:02.985769 14670 net.cpp:425] inception_3b/output <- inception_3b/1x1
I0403 17:42:02.985786 14670 net.cpp:425] inception_3b/output <- inception_3b/3x3
I0403 17:42:02.985802 14670 net.cpp:425] inception_3b/output <- inception_3b/5x5
I0403 17:42:02.985818 14670 net.cpp:425] inception_3b/output <- inception_3b/pool_proj
I0403 17:42:02.985838 14670 net.cpp:399] inception_3b/output -> inception_3b/output
I0403 17:42:02.985883 14670 net.cpp:141] Setting up inception_3b/output
I0403 17:42:02.985906 14670 net.cpp:148] Top shape: 24 480 28 28 (9031680)
I0403 17:42:02.985924 14670 net.cpp:156] Memory required for data: 809239584
I0403 17:42:02.985939 14670 layer_factory.hpp:77] Creating layer pool3/3x3_s2
I0403 17:42:02.985960 14670 net.cpp:91] Creating Layer pool3/3x3_s2
I0403 17:42:02.985976 14670 net.cpp:425] pool3/3x3_s2 <- inception_3b/output
I0403 17:42:02.986016 14670 net.cpp:399] pool3/3x3_s2 -> pool3/3x3_s2
I0403 17:42:02.986078 14670 net.cpp:141] Setting up pool3/3x3_s2
I0403 17:42:02.986101 14670 net.cpp:148] Top shape: 24 480 14 14 (2257920)
I0403 17:42:02.986116 14670 net.cpp:156] Memory required for data: 818271264
I0403 17:42:02.986132 14670 layer_factory.hpp:77] Creating layer pool3/3x3_s2_pool3/3x3_s2_0_split
I0403 17:42:02.986150 14670 net.cpp:91] Creating Layer pool3/3x3_s2_pool3/3x3_s2_0_split
I0403 17:42:02.986166 14670 net.cpp:425] pool3/3x3_s2_pool3/3x3_s2_0_split <- pool3/3x3_s2
I0403 17:42:02.986186 14670 net.cpp:399] pool3/3x3_s2_pool3/3x3_s2_0_split -> pool3/3x3_s2_pool3/3x3_s2_0_split_0
I0403 17:42:02.986207 14670 net.cpp:399] pool3/3x3_s2_pool3/3x3_s2_0_split -> pool3/3x3_s2_pool3/3x3_s2_0_split_1
I0403 17:42:02.986228 14670 net.cpp:399] pool3/3x3_s2_pool3/3x3_s2_0_split -> pool3/3x3_s2_pool3/3x3_s2_0_split_2
I0403 17:42:02.986248 14670 net.cpp:399] pool3/3x3_s2_pool3/3x3_s2_0_split -> pool3/3x3_s2_pool3/3x3_s2_0_split_3
I0403 17:42:02.986330 14670 net.cpp:141] Setting up pool3/3x3_s2_pool3/3x3_s2_0_split
I0403 17:42:02.986354 14670 net.cpp:148] Top shape: 24 480 14 14 (2257920)
I0403 17:42:02.986371 14670 net.cpp:148] Top shape: 24 480 14 14 (2257920)
I0403 17:42:02.986389 14670 net.cpp:148] Top shape: 24 480 14 14 (2257920)
I0403 17:42:02.986405 14670 net.cpp:148] Top shape: 24 480 14 14 (2257920)
I0403 17:42:02.986419 14670 net.cpp:156] Memory required for data: 854397984
I0403 17:42:02.986434 14670 layer_factory.hpp:77] Creating layer inception_4a/1x1
I0403 17:42:02.986457 14670 net.cpp:91] Creating Layer inception_4a/1x1
I0403 17:42:02.986475 14670 net.cpp:425] inception_4a/1x1 <- pool3/3x3_s2_pool3/3x3_s2_0_split_0
I0403 17:42:02.986497 14670 net.cpp:399] inception_4a/1x1 -> inception_4a/1x1
I0403 17:42:02.988111 14670 net.cpp:141] Setting up inception_4a/1x1
I0403 17:42:02.988138 14670 net.cpp:148] Top shape: 24 192 14 14 (903168)
I0403 17:42:02.988154 14670 net.cpp:156] Memory required for data: 858010656
I0403 17:42:02.988173 14670 layer_factory.hpp:77] Creating layer inception_4a/relu_1x1
I0403 17:42:02.988191 14670 net.cpp:91] Creating Layer inception_4a/relu_1x1
I0403 17:42:02.988209 14670 net.cpp:425] inception_4a/relu_1x1 <- inception_4a/1x1
I0403 17:42:02.988229 14670 net.cpp:386] inception_4a/relu_1x1 -> inception_4a/1x1 (in-place)
I0403 17:42:02.988409 14670 net.cpp:141] Setting up inception_4a/relu_1x1
I0403 17:42:02.988435 14670 net.cpp:148] Top shape: 24 192 14 14 (903168)
I0403 17:42:02.988450 14670 net.cpp:156] Memory required for data: 861623328
I0403 17:42:02.988464 14670 layer_factory.hpp:77] Creating layer inception_4a/3x3_reduce
I0403 17:42:02.988487 14670 net.cpp:91] Creating Layer inception_4a/3x3_reduce
I0403 17:42:02.988505 14670 net.cpp:425] inception_4a/3x3_reduce <- pool3/3x3_s2_pool3/3x3_s2_0_split_1
I0403 17:42:02.988528 14670 net.cpp:399] inception_4a/3x3_reduce -> inception_4a/3x3_reduce
I0403 17:42:02.989826 14670 net.cpp:141] Setting up inception_4a/3x3_reduce
I0403 17:42:02.989855 14670 net.cpp:148] Top shape: 24 96 14 14 (451584)
I0403 17:42:02.989871 14670 net.cpp:156] Memory required for data: 863429664
I0403 17:42:02.989897 14670 layer_factory.hpp:77] Creating layer inception_4a/relu_3x3_reduce
I0403 17:42:02.989917 14670 net.cpp:91] Creating Layer inception_4a/relu_3x3_reduce
I0403 17:42:02.989933 14670 net.cpp:425] inception_4a/relu_3x3_reduce <- inception_4a/3x3_reduce
I0403 17:42:02.989951 14670 net.cpp:386] inception_4a/relu_3x3_reduce -> inception_4a/3x3_reduce (in-place)
I0403 17:42:02.990135 14670 net.cpp:141] Setting up inception_4a/relu_3x3_reduce
I0403 17:42:02.990160 14670 net.cpp:148] Top shape: 24 96 14 14 (451584)
I0403 17:42:02.990175 14670 net.cpp:156] Memory required for data: 865236000
I0403 17:42:02.990191 14670 layer_factory.hpp:77] Creating layer inception_4a/3x3
I0403 17:42:02.990214 14670 net.cpp:91] Creating Layer inception_4a/3x3
I0403 17:42:02.990231 14670 net.cpp:425] inception_4a/3x3 <- inception_4a/3x3_reduce
I0403 17:42:02.990253 14670 net.cpp:399] inception_4a/3x3 -> inception_4a/3x3
I0403 17:42:02.992985 14670 net.cpp:141] Setting up inception_4a/3x3
I0403 17:42:02.993015 14670 net.cpp:148] Top shape: 24 208 14 14 (978432)
I0403 17:42:02.993031 14670 net.cpp:156] Memory required for data: 869149728
I0403 17:42:02.993052 14670 layer_factory.hpp:77] Creating layer inception_4a/relu_3x3
I0403 17:42:02.993072 14670 net.cpp:91] Creating Layer inception_4a/relu_3x3
I0403 17:42:02.993089 14670 net.cpp:425] inception_4a/relu_3x3 <- inception_4a/3x3
I0403 17:42:02.993108 14670 net.cpp:386] inception_4a/relu_3x3 -> inception_4a/3x3 (in-place)
I0403 17:42:02.993397 14670 net.cpp:141] Setting up inception_4a/relu_3x3
I0403 17:42:02.993424 14670 net.cpp:148] Top shape: 24 208 14 14 (978432)
I0403 17:42:02.993439 14670 net.cpp:156] Memory required for data: 873063456
I0403 17:42:02.993454 14670 layer_factory.hpp:77] Creating layer inception_4a/5x5_reduce
I0403 17:42:02.993477 14670 net.cpp:91] Creating Layer inception_4a/5x5_reduce
I0403 17:42:02.993495 14670 net.cpp:425] inception_4a/5x5_reduce <- pool3/3x3_s2_pool3/3x3_s2_0_split_2
I0403 17:42:02.993517 14670 net.cpp:399] inception_4a/5x5_reduce -> inception_4a/5x5_reduce
I0403 17:42:02.994567 14670 net.cpp:141] Setting up inception_4a/5x5_reduce
I0403 17:42:02.994596 14670 net.cpp:148] Top shape: 24 16 14 14 (75264)
I0403 17:42:02.994611 14670 net.cpp:156] Memory required for data: 873364512
I0403 17:42:02.994631 14670 layer_factory.hpp:77] Creating layer inception_4a/relu_5x5_reduce
I0403 17:42:02.994650 14670 net.cpp:91] Creating Layer inception_4a/relu_5x5_reduce
I0403 17:42:02.994668 14670 net.cpp:425] inception_4a/relu_5x5_reduce <- inception_4a/5x5_reduce
I0403 17:42:02.994685 14670 net.cpp:386] inception_4a/relu_5x5_reduce -> inception_4a/5x5_reduce (in-place)
I0403 17:42:02.994869 14670 net.cpp:141] Setting up inception_4a/relu_5x5_reduce
I0403 17:42:02.994899 14670 net.cpp:148] Top shape: 24 16 14 14 (75264)
I0403 17:42:02.994915 14670 net.cpp:156] Memory required for data: 873665568
I0403 17:42:02.994931 14670 layer_factory.hpp:77] Creating layer inception_4a/5x5
I0403 17:42:02.994954 14670 net.cpp:91] Creating Layer inception_4a/5x5
I0403 17:42:02.994972 14670 net.cpp:425] inception_4a/5x5 <- inception_4a/5x5_reduce
I0403 17:42:02.994997 14670 net.cpp:399] inception_4a/5x5 -> inception_4a/5x5
I0403 17:42:02.996115 14670 net.cpp:141] Setting up inception_4a/5x5
I0403 17:42:02.996146 14670 net.cpp:148] Top shape: 24 48 14 14 (225792)
I0403 17:42:02.996162 14670 net.cpp:156] Memory required for data: 874568736
I0403 17:42:02.996181 14670 layer_factory.hpp:77] Creating layer inception_4a/relu_5x5
I0403 17:42:02.996201 14670 net.cpp:91] Creating Layer inception_4a/relu_5x5
I0403 17:42:02.996217 14670 net.cpp:425] inception_4a/relu_5x5 <- inception_4a/5x5
I0403 17:42:02.996238 14670 net.cpp:386] inception_4a/relu_5x5 -> inception_4a/5x5 (in-place)
I0403 17:42:02.996420 14670 net.cpp:141] Setting up inception_4a/relu_5x5
I0403 17:42:02.996445 14670 net.cpp:148] Top shape: 24 48 14 14 (225792)
I0403 17:42:02.996460 14670 net.cpp:156] Memory required for data: 875471904
I0403 17:42:02.996475 14670 layer_factory.hpp:77] Creating layer inception_4a/pool
I0403 17:42:02.996493 14670 net.cpp:91] Creating Layer inception_4a/pool
I0403 17:42:02.996510 14670 net.cpp:425] inception_4a/pool <- pool3/3x3_s2_pool3/3x3_s2_0_split_3
I0403 17:42:02.996531 14670 net.cpp:399] inception_4a/pool -> inception_4a/pool
I0403 17:42:02.996595 14670 net.cpp:141] Setting up inception_4a/pool
I0403 17:42:02.996619 14670 net.cpp:148] Top shape: 24 480 14 14 (2257920)
I0403 17:42:02.996634 14670 net.cpp:156] Memory required for data: 884503584
I0403 17:42:02.996649 14670 layer_factory.hpp:77] Creating layer inception_4a/pool_proj
I0403 17:42:02.996672 14670 net.cpp:91] Creating Layer inception_4a/pool_proj
I0403 17:42:02.996691 14670 net.cpp:425] inception_4a/pool_proj <- inception_4a/pool
I0403 17:42:02.996711 14670 net.cpp:399] inception_4a/pool_proj -> inception_4a/pool_proj
I0403 17:42:02.997895 14670 net.cpp:141] Setting up inception_4a/pool_proj
I0403 17:42:02.997928 14670 net.cpp:148] Top shape: 24 64 14 14 (301056)
I0403 17:42:02.997959 14670 net.cpp:156] Memory required for data: 885707808
I0403 17:42:02.997989 14670 layer_factory.hpp:77] Creating layer inception_4a/relu_pool_proj
I0403 17:42:02.998011 14670 net.cpp:91] Creating Layer inception_4a/relu_pool_proj
I0403 17:42:02.998029 14670 net.cpp:425] inception_4a/relu_pool_proj <- inception_4a/pool_proj
I0403 17:42:02.998050 14670 net.cpp:386] inception_4a/relu_pool_proj -> inception_4a/pool_proj (in-place)
I0403 17:42:02.998343 14670 net.cpp:141] Setting up inception_4a/relu_pool_proj
I0403 17:42:02.998373 14670 net.cpp:148] Top shape: 24 64 14 14 (301056)
I0403 17:42:02.998389 14670 net.cpp:156] Memory required for data: 886912032
I0403 17:42:02.998404 14670 layer_factory.hpp:77] Creating layer inception_4a/output
I0403 17:42:02.998423 14670 net.cpp:91] Creating Layer inception_4a/output
I0403 17:42:02.998440 14670 net.cpp:425] inception_4a/output <- inception_4a/1x1
I0403 17:42:02.998456 14670 net.cpp:425] inception_4a/output <- inception_4a/3x3
I0403 17:42:02.998473 14670 net.cpp:425] inception_4a/output <- inception_4a/5x5
I0403 17:42:02.998489 14670 net.cpp:425] inception_4a/output <- inception_4a/pool_proj
I0403 17:42:02.998508 14670 net.cpp:399] inception_4a/output -> inception_4a/output
I0403 17:42:02.998554 14670 net.cpp:141] Setting up inception_4a/output
I0403 17:42:02.998579 14670 net.cpp:148] Top shape: 24 512 14 14 (2408448)
I0403 17:42:02.998594 14670 net.cpp:156] Memory required for data: 896545824
I0403 17:42:02.998608 14670 layer_factory.hpp:77] Creating layer inception_4a/output_inception_4a/output_0_split
I0403 17:42:02.998628 14670 net.cpp:91] Creating Layer inception_4a/output_inception_4a/output_0_split
I0403 17:42:02.998646 14670 net.cpp:425] inception_4a/output_inception_4a/output_0_split <- inception_4a/output
I0403 17:42:02.998664 14670 net.cpp:399] inception_4a/output_inception_4a/output_0_split -> inception_4a/output_inception_4a/output_0_split_0
I0403 17:42:02.998688 14670 net.cpp:399] inception_4a/output_inception_4a/output_0_split -> inception_4a/output_inception_4a/output_0_split_1
I0403 17:42:02.998709 14670 net.cpp:399] inception_4a/output_inception_4a/output_0_split -> inception_4a/output_inception_4a/output_0_split_2
I0403 17:42:02.998730 14670 net.cpp:399] inception_4a/output_inception_4a/output_0_split -> inception_4a/output_inception_4a/output_0_split_3
I0403 17:42:02.998751 14670 net.cpp:399] inception_4a/output_inception_4a/output_0_split -> inception_4a/output_inception_4a/output_0_split_4
I0403 17:42:02.998845 14670 net.cpp:141] Setting up inception_4a/output_inception_4a/output_0_split
I0403 17:42:02.998869 14670 net.cpp:148] Top shape: 24 512 14 14 (2408448)
I0403 17:42:02.998886 14670 net.cpp:148] Top shape: 24 512 14 14 (2408448)
I0403 17:42:02.998903 14670 net.cpp:148] Top shape: 24 512 14 14 (2408448)
I0403 17:42:02.998919 14670 net.cpp:148] Top shape: 24 512 14 14 (2408448)
I0403 17:42:02.998934 14670 net.cpp:148] Top shape: 24 512 14 14 (2408448)
I0403 17:42:02.998949 14670 net.cpp:156] Memory required for data: 944714784
I0403 17:42:02.998963 14670 layer_factory.hpp:77] Creating layer loss1/ave_pool
I0403 17:42:02.998987 14670 net.cpp:91] Creating Layer loss1/ave_pool
I0403 17:42:02.999006 14670 net.cpp:425] loss1/ave_pool <- inception_4a/output_inception_4a/output_0_split_0
I0403 17:42:02.999024 14670 net.cpp:399] loss1/ave_pool -> loss1/ave_pool
I0403 17:42:02.999246 14670 net.cpp:141] Setting up loss1/ave_pool
I0403 17:42:02.999272 14670 net.cpp:148] Top shape: 24 512 4 4 (196608)
I0403 17:42:02.999289 14670 net.cpp:156] Memory required for data: 945501216
I0403 17:42:02.999303 14670 layer_factory.hpp:77] Creating layer loss1/conv
I0403 17:42:02.999326 14670 net.cpp:91] Creating Layer loss1/conv
I0403 17:42:02.999344 14670 net.cpp:425] loss1/conv <- loss1/ave_pool
I0403 17:42:02.999366 14670 net.cpp:399] loss1/conv -> loss1/conv
I0403 17:42:03.000805 14670 net.cpp:141] Setting up loss1/conv
I0403 17:42:03.000834 14670 net.cpp:148] Top shape: 24 128 4 4 (49152)
I0403 17:42:03.000864 14670 net.cpp:156] Memory required for data: 945697824
I0403 17:42:03.000885 14670 layer_factory.hpp:77] Creating layer loss1/relu_conv
I0403 17:42:03.000906 14670 net.cpp:91] Creating Layer loss1/relu_conv
I0403 17:42:03.000928 14670 net.cpp:425] loss1/relu_conv <- loss1/conv
I0403 17:42:03.000946 14670 net.cpp:386] loss1/relu_conv -> loss1/conv (in-place)
I0403 17:42:03.001240 14670 net.cpp:141] Setting up loss1/relu_conv
I0403 17:42:03.001267 14670 net.cpp:148] Top shape: 24 128 4 4 (49152)
I0403 17:42:03.001283 14670 net.cpp:156] Memory required for data: 945894432
I0403 17:42:03.001298 14670 layer_factory.hpp:77] Creating layer loss1/fc
I0403 17:42:03.001324 14670 net.cpp:91] Creating Layer loss1/fc
I0403 17:42:03.001344 14670 net.cpp:425] loss1/fc <- loss1/conv
I0403 17:42:03.001363 14670 net.cpp:399] loss1/fc -> loss1/fc
I0403 17:42:03.019556 14670 net.cpp:141] Setting up loss1/fc
I0403 17:42:03.019592 14670 net.cpp:148] Top shape: 24 1024 (24576)
I0403 17:42:03.019610 14670 net.cpp:156] Memory required for data: 945992736
I0403 17:42:03.019630 14670 layer_factory.hpp:77] Creating layer loss1/relu_fc
I0403 17:42:03.019649 14670 net.cpp:91] Creating Layer loss1/relu_fc
I0403 17:42:03.019665 14670 net.cpp:425] loss1/relu_fc <- loss1/fc
I0403 17:42:03.019686 14670 net.cpp:386] loss1/relu_fc -> loss1/fc (in-place)
I0403 17:42:03.019883 14670 net.cpp:141] Setting up loss1/relu_fc
I0403 17:42:03.019908 14670 net.cpp:148] Top shape: 24 1024 (24576)
I0403 17:42:03.019927 14670 net.cpp:156] Memory required for data: 946091040
I0403 17:42:03.019942 14670 layer_factory.hpp:77] Creating layer loss1/drop_fc
I0403 17:42:03.019969 14670 net.cpp:91] Creating Layer loss1/drop_fc
I0403 17:42:03.019992 14670 net.cpp:425] loss1/drop_fc <- loss1/fc
I0403 17:42:03.020012 14670 net.cpp:386] loss1/drop_fc -> loss1/fc (in-place)
I0403 17:42:03.020063 14670 net.cpp:141] Setting up loss1/drop_fc
I0403 17:42:03.020090 14670 net.cpp:148] Top shape: 24 1024 (24576)
I0403 17:42:03.020107 14670 net.cpp:156] Memory required for data: 946189344
I0403 17:42:03.020123 14670 layer_factory.hpp:77] Creating layer loss1/classifier_plantvillage
I0403 17:42:03.020141 14670 net.cpp:91] Creating Layer loss1/classifier_plantvillage
I0403 17:42:03.020159 14670 net.cpp:425] loss1/classifier_plantvillage <- loss1/fc
I0403 17:42:03.020181 14670 net.cpp:399] loss1/classifier_plantvillage -> loss1/classifier_plantvillage
I0403 17:42:03.021106 14670 net.cpp:141] Setting up loss1/classifier_plantvillage
I0403 17:42:03.021136 14670 net.cpp:148] Top shape: 24 38 (912)
I0403 17:42:03.021150 14670 net.cpp:156] Memory required for data: 946192992
I0403 17:42:03.021169 14670 layer_factory.hpp:77] Creating layer loss1/classifier_plantvillage_loss1/classifier_plantvillage_0_split
I0403 17:42:03.021188 14670 net.cpp:91] Creating Layer loss1/classifier_plantvillage_loss1/classifier_plantvillage_0_split
I0403 17:42:03.021204 14670 net.cpp:425] loss1/classifier_plantvillage_loss1/classifier_plantvillage_0_split <- loss1/classifier_plantvillage
I0403 17:42:03.021225 14670 net.cpp:399] loss1/classifier_plantvillage_loss1/classifier_plantvillage_0_split -> loss1/classifier_plantvillage_loss1/classifier_plantvillage_0_split_0
I0403 17:42:03.021248 14670 net.cpp:399] loss1/classifier_plantvillage_loss1/classifier_plantvillage_0_split -> loss1/classifier_plantvillage_loss1/classifier_plantvillage_0_split_1
I0403 17:42:03.021270 14670 net.cpp:399] loss1/classifier_plantvillage_loss1/classifier_plantvillage_0_split -> loss1/classifier_plantvillage_loss1/classifier_plantvillage_0_split_2
I0403 17:42:03.021342 14670 net.cpp:141] Setting up loss1/classifier_plantvillage_loss1/classifier_plantvillage_0_split
I0403 17:42:03.021365 14670 net.cpp:148] Top shape: 24 38 (912)
I0403 17:42:03.021381 14670 net.cpp:148] Top shape: 24 38 (912)
I0403 17:42:03.021399 14670 net.cpp:148] Top shape: 24 38 (912)
I0403 17:42:03.021412 14670 net.cpp:156] Memory required for data: 946203936
I0403 17:42:03.021426 14670 layer_factory.hpp:77] Creating layer inception_4b/1x1
I0403 17:42:03.021450 14670 net.cpp:91] Creating Layer inception_4b/1x1
I0403 17:42:03.021482 14670 net.cpp:425] inception_4b/1x1 <- inception_4a/output_inception_4a/output_0_split_1
I0403 17:42:03.021503 14670 net.cpp:399] inception_4b/1x1 -> inception_4b/1x1
I0403 17:42:03.023198 14670 net.cpp:141] Setting up inception_4b/1x1
I0403 17:42:03.023234 14670 net.cpp:148] Top shape: 24 160 14 14 (752640)
I0403 17:42:03.023250 14670 net.cpp:156] Memory required for data: 949214496
I0403 17:42:03.023268 14670 layer_factory.hpp:77] Creating layer inception_4b/relu_1x1
I0403 17:42:03.023290 14670 net.cpp:91] Creating Layer inception_4b/relu_1x1
I0403 17:42:03.023308 14670 net.cpp:425] inception_4b/relu_1x1 <- inception_4b/1x1
I0403 17:42:03.023326 14670 net.cpp:386] inception_4b/relu_1x1 -> inception_4b/1x1 (in-place)
I0403 17:42:03.023511 14670 net.cpp:141] Setting up inception_4b/relu_1x1
I0403 17:42:03.023538 14670 net.cpp:148] Top shape: 24 160 14 14 (752640)
I0403 17:42:03.023555 14670 net.cpp:156] Memory required for data: 952225056
I0403 17:42:03.023571 14670 layer_factory.hpp:77] Creating layer inception_4b/3x3_reduce
I0403 17:42:03.023593 14670 net.cpp:91] Creating Layer inception_4b/3x3_reduce
I0403 17:42:03.023612 14670 net.cpp:425] inception_4b/3x3_reduce <- inception_4a/output_inception_4a/output_0_split_2
I0403 17:42:03.023630 14670 net.cpp:399] inception_4b/3x3_reduce -> inception_4b/3x3_reduce
I0403 17:42:03.025032 14670 net.cpp:141] Setting up inception_4b/3x3_reduce
I0403 17:42:03.025064 14670 net.cpp:148] Top shape: 24 112 14 14 (526848)
I0403 17:42:03.025081 14670 net.cpp:156] Memory required for data: 954332448
I0403 17:42:03.025100 14670 layer_factory.hpp:77] Creating layer inception_4b/relu_3x3_reduce
I0403 17:42:03.025120 14670 net.cpp:91] Creating Layer inception_4b/relu_3x3_reduce
I0403 17:42:03.025136 14670 net.cpp:425] inception_4b/relu_3x3_reduce <- inception_4b/3x3_reduce
I0403 17:42:03.025156 14670 net.cpp:386] inception_4b/relu_3x3_reduce -> inception_4b/3x3_reduce (in-place)
I0403 17:42:03.025449 14670 net.cpp:141] Setting up inception_4b/relu_3x3_reduce
I0403 17:42:03.025478 14670 net.cpp:148] Top shape: 24 112 14 14 (526848)
I0403 17:42:03.025495 14670 net.cpp:156] Memory required for data: 956439840
I0403 17:42:03.025509 14670 layer_factory.hpp:77] Creating layer inception_4b/3x3
I0403 17:42:03.025532 14670 net.cpp:91] Creating Layer inception_4b/3x3
I0403 17:42:03.025552 14670 net.cpp:425] inception_4b/3x3 <- inception_4b/3x3_reduce
I0403 17:42:03.025570 14670 net.cpp:399] inception_4b/3x3 -> inception_4b/3x3
I0403 17:42:03.028642 14670 net.cpp:141] Setting up inception_4b/3x3
I0403 17:42:03.028672 14670 net.cpp:148] Top shape: 24 224 14 14 (1053696)
I0403 17:42:03.028688 14670 net.cpp:156] Memory required for data: 960654624
I0403 17:42:03.028707 14670 layer_factory.hpp:77] Creating layer inception_4b/relu_3x3
I0403 17:42:03.028726 14670 net.cpp:91] Creating Layer inception_4b/relu_3x3
I0403 17:42:03.028743 14670 net.cpp:425] inception_4b/relu_3x3 <- inception_4b/3x3
I0403 17:42:03.028764 14670 net.cpp:386] inception_4b/relu_3x3 -> inception_4b/3x3 (in-place)
I0403 17:42:03.028950 14670 net.cpp:141] Setting up inception_4b/relu_3x3
I0403 17:42:03.028975 14670 net.cpp:148] Top shape: 24 224 14 14 (1053696)
I0403 17:42:03.028996 14670 net.cpp:156] Memory required for data: 964869408
I0403 17:42:03.029012 14670 layer_factory.hpp:77] Creating layer inception_4b/5x5_reduce
I0403 17:42:03.029036 14670 net.cpp:91] Creating Layer inception_4b/5x5_reduce
I0403 17:42:03.029053 14670 net.cpp:425] inception_4b/5x5_reduce <- inception_4a/output_inception_4a/output_0_split_3
I0403 17:42:03.029077 14670 net.cpp:399] inception_4b/5x5_reduce -> inception_4b/5x5_reduce
I0403 17:42:03.030194 14670 net.cpp:141] Setting up inception_4b/5x5_reduce
I0403 17:42:03.030232 14670 net.cpp:148] Top shape: 24 24 14 14 (112896)
I0403 17:42:03.030252 14670 net.cpp:156] Memory required for data: 965320992
I0403 17:42:03.030272 14670 layer_factory.hpp:77] Creating layer inception_4b/relu_5x5_reduce
I0403 17:42:03.030292 14670 net.cpp:91] Creating Layer inception_4b/relu_5x5_reduce
I0403 17:42:03.030323 14670 net.cpp:425] inception_4b/relu_5x5_reduce <- inception_4b/5x5_reduce
I0403 17:42:03.030342 14670 net.cpp:386] inception_4b/relu_5x5_reduce -> inception_4b/5x5_reduce (in-place)
I0403 17:42:03.030539 14670 net.cpp:141] Setting up inception_4b/relu_5x5_reduce
I0403 17:42:03.030566 14670 net.cpp:148] Top shape: 24 24 14 14 (112896)
I0403 17:42:03.030582 14670 net.cpp:156] Memory required for data: 965772576
I0403 17:42:03.030597 14670 layer_factory.hpp:77] Creating layer inception_4b/5x5
I0403 17:42:03.030621 14670 net.cpp:91] Creating Layer inception_4b/5x5
I0403 17:42:03.030638 14670 net.cpp:425] inception_4b/5x5 <- inception_4b/5x5_reduce
I0403 17:42:03.030658 14670 net.cpp:399] inception_4b/5x5 -> inception_4b/5x5
I0403 17:42:03.031924 14670 net.cpp:141] Setting up inception_4b/5x5
I0403 17:42:03.031954 14670 net.cpp:148] Top shape: 24 64 14 14 (301056)
I0403 17:42:03.031970 14670 net.cpp:156] Memory required for data: 966976800
I0403 17:42:03.031993 14670 layer_factory.hpp:77] Creating layer inception_4b/relu_5x5
I0403 17:42:03.032016 14670 net.cpp:91] Creating Layer inception_4b/relu_5x5
I0403 17:42:03.032033 14670 net.cpp:425] inception_4b/relu_5x5 <- inception_4b/5x5
I0403 17:42:03.032052 14670 net.cpp:386] inception_4b/relu_5x5 -> inception_4b/5x5 (in-place)
I0403 17:42:03.032343 14670 net.cpp:141] Setting up inception_4b/relu_5x5
I0403 17:42:03.032371 14670 net.cpp:148] Top shape: 24 64 14 14 (301056)
I0403 17:42:03.032387 14670 net.cpp:156] Memory required for data: 968181024
I0403 17:42:03.032402 14670 layer_factory.hpp:77] Creating layer inception_4b/pool
I0403 17:42:03.032424 14670 net.cpp:91] Creating Layer inception_4b/pool
I0403 17:42:03.032443 14670 net.cpp:425] inception_4b/pool <- inception_4a/output_inception_4a/output_0_split_4
I0403 17:42:03.032461 14670 net.cpp:399] inception_4b/pool -> inception_4b/pool
I0403 17:42:03.032528 14670 net.cpp:141] Setting up inception_4b/pool
I0403 17:42:03.032552 14670 net.cpp:148] Top shape: 24 512 14 14 (2408448)
I0403 17:42:03.032580 14670 net.cpp:156] Memory required for data: 977814816
I0403 17:42:03.032596 14670 layer_factory.hpp:77] Creating layer inception_4b/pool_proj
I0403 17:42:03.032619 14670 net.cpp:91] Creating Layer inception_4b/pool_proj
I0403 17:42:03.032639 14670 net.cpp:425] inception_4b/pool_proj <- inception_4b/pool
I0403 17:42:03.032661 14670 net.cpp:399] inception_4b/pool_proj -> inception_4b/pool_proj
I0403 17:42:03.033910 14670 net.cpp:141] Setting up inception_4b/pool_proj
I0403 17:42:03.033939 14670 net.cpp:148] Top shape: 24 64 14 14 (301056)
I0403 17:42:03.033954 14670 net.cpp:156] Memory required for data: 979019040
I0403 17:42:03.033973 14670 layer_factory.hpp:77] Creating layer inception_4b/relu_pool_proj
I0403 17:42:03.033999 14670 net.cpp:91] Creating Layer inception_4b/relu_pool_proj
I0403 17:42:03.034018 14670 net.cpp:425] inception_4b/relu_pool_proj <- inception_4b/pool_proj
I0403 17:42:03.034037 14670 net.cpp:386] inception_4b/relu_pool_proj -> inception_4b/pool_proj (in-place)
I0403 17:42:03.034227 14670 net.cpp:141] Setting up inception_4b/relu_pool_proj
I0403 17:42:03.034252 14670 net.cpp:148] Top shape: 24 64 14 14 (301056)
I0403 17:42:03.034267 14670 net.cpp:156] Memory required for data: 980223264
I0403 17:42:03.034282 14670 layer_factory.hpp:77] Creating layer inception_4b/output
I0403 17:42:03.034301 14670 net.cpp:91] Creating Layer inception_4b/output
I0403 17:42:03.034317 14670 net.cpp:425] inception_4b/output <- inception_4b/1x1
I0403 17:42:03.034333 14670 net.cpp:425] inception_4b/output <- inception_4b/3x3
I0403 17:42:03.034349 14670 net.cpp:425] inception_4b/output <- inception_4b/5x5
I0403 17:42:03.034365 14670 net.cpp:425] inception_4b/output <- inception_4b/pool_proj
I0403 17:42:03.034385 14670 net.cpp:399] inception_4b/output -> inception_4b/output
I0403 17:42:03.034433 14670 net.cpp:141] Setting up inception_4b/output
I0403 17:42:03.034457 14670 net.cpp:148] Top shape: 24 512 14 14 (2408448)
I0403 17:42:03.034476 14670 net.cpp:156] Memory required for data: 989857056
I0403 17:42:03.034504 14670 layer_factory.hpp:77] Creating layer inception_4b/output_inception_4b/output_0_split
I0403 17:42:03.034523 14670 net.cpp:91] Creating Layer inception_4b/output_inception_4b/output_0_split
I0403 17:42:03.034539 14670 net.cpp:425] inception_4b/output_inception_4b/output_0_split <- inception_4b/output
I0403 17:42:03.034557 14670 net.cpp:399] inception_4b/output_inception_4b/output_0_split -> inception_4b/output_inception_4b/output_0_split_0
I0403 17:42:03.034579 14670 net.cpp:399] inception_4b/output_inception_4b/output_0_split -> inception_4b/output_inception_4b/output_0_split_1
I0403 17:42:03.034600 14670 net.cpp:399] inception_4b/output_inception_4b/output_0_split -> inception_4b/output_inception_4b/output_0_split_2
I0403 17:42:03.034622 14670 net.cpp:399] inception_4b/output_inception_4b/output_0_split -> inception_4b/output_inception_4b/output_0_split_3
I0403 17:42:03.034711 14670 net.cpp:141] Setting up inception_4b/output_inception_4b/output_0_split
I0403 17:42:03.034734 14670 net.cpp:148] Top shape: 24 512 14 14 (2408448)
I0403 17:42:03.034751 14670 net.cpp:148] Top shape: 24 512 14 14 (2408448)
I0403 17:42:03.034768 14670 net.cpp:148] Top shape: 24 512 14 14 (2408448)
I0403 17:42:03.034785 14670 net.cpp:148] Top shape: 24 512 14 14 (2408448)
I0403 17:42:03.034797 14670 net.cpp:156] Memory required for data: 1028392224
I0403 17:42:03.034812 14670 layer_factory.hpp:77] Creating layer inception_4c/1x1
I0403 17:42:03.034835 14670 net.cpp:91] Creating Layer inception_4c/1x1
I0403 17:42:03.034853 14670 net.cpp:425] inception_4c/1x1 <- inception_4b/output_inception_4b/output_0_split_0
I0403 17:42:03.034876 14670 net.cpp:399] inception_4c/1x1 -> inception_4c/1x1
I0403 17:42:03.036358 14670 net.cpp:141] Setting up inception_4c/1x1
I0403 17:42:03.036387 14670 net.cpp:148] Top shape: 24 128 14 14 (602112)
I0403 17:42:03.036403 14670 net.cpp:156] Memory required for data: 1030800672
I0403 17:42:03.036422 14670 layer_factory.hpp:77] Creating layer inception_4c/relu_1x1
I0403 17:42:03.036440 14670 net.cpp:91] Creating Layer inception_4c/relu_1x1
I0403 17:42:03.036458 14670 net.cpp:425] inception_4c/relu_1x1 <- inception_4c/1x1
I0403 17:42:03.036478 14670 net.cpp:386] inception_4c/relu_1x1 -> inception_4c/1x1 (in-place)
I0403 17:42:03.036664 14670 net.cpp:141] Setting up inception_4c/relu_1x1
I0403 17:42:03.036689 14670 net.cpp:148] Top shape: 24 128 14 14 (602112)
I0403 17:42:03.036705 14670 net.cpp:156] Memory required for data: 1033209120
I0403 17:42:03.036720 14670 layer_factory.hpp:77] Creating layer inception_4c/3x3_reduce
I0403 17:42:03.036742 14670 net.cpp:91] Creating Layer inception_4c/3x3_reduce
I0403 17:42:03.036761 14670 net.cpp:425] inception_4c/3x3_reduce <- inception_4b/output_inception_4b/output_0_split_1
I0403 17:42:03.036784 14670 net.cpp:399] inception_4c/3x3_reduce -> inception_4c/3x3_reduce
I0403 17:42:03.038797 14670 net.cpp:141] Setting up inception_4c/3x3_reduce
I0403 17:42:03.038827 14670 net.cpp:148] Top shape: 24 128 14 14 (602112)
I0403 17:42:03.038843 14670 net.cpp:156] Memory required for data: 1035617568
I0403 17:42:03.038862 14670 layer_factory.hpp:77] Creating layer inception_4c/relu_3x3_reduce
I0403 17:42:03.038883 14670 net.cpp:91] Creating Layer inception_4c/relu_3x3_reduce
I0403 17:42:03.038902 14670 net.cpp:425] inception_4c/relu_3x3_reduce <- inception_4c/3x3_reduce
I0403 17:42:03.038919 14670 net.cpp:386] inception_4c/relu_3x3_reduce -> inception_4c/3x3_reduce (in-place)
I0403 17:42:03.039227 14670 net.cpp:141] Setting up inception_4c/relu_3x3_reduce
I0403 17:42:03.039254 14670 net.cpp:148] Top shape: 24 128 14 14 (602112)
I0403 17:42:03.039269 14670 net.cpp:156] Memory required for data: 1038026016
I0403 17:42:03.039285 14670 layer_factory.hpp:77] Creating layer inception_4c/3x3
I0403 17:42:03.039309 14670 net.cpp:91] Creating Layer inception_4c/3x3
I0403 17:42:03.039327 14670 net.cpp:425] inception_4c/3x3 <- inception_4c/3x3_reduce
I0403 17:42:03.039350 14670 net.cpp:399] inception_4c/3x3 -> inception_4c/3x3
I0403 17:42:03.043076 14670 net.cpp:141] Setting up inception_4c/3x3
I0403 17:42:03.043118 14670 net.cpp:148] Top shape: 24 256 14 14 (1204224)
I0403 17:42:03.043135 14670 net.cpp:156] Memory required for data: 1042842912
I0403 17:42:03.043169 14670 layer_factory.hpp:77] Creating layer inception_4c/relu_3x3
I0403 17:42:03.043191 14670 net.cpp:91] Creating Layer inception_4c/relu_3x3
I0403 17:42:03.043210 14670 net.cpp:425] inception_4c/relu_3x3 <- inception_4c/3x3
I0403 17:42:03.043227 14670 net.cpp:386] inception_4c/relu_3x3 -> inception_4c/3x3 (in-place)
I0403 17:42:03.043416 14670 net.cpp:141] Setting up inception_4c/relu_3x3
I0403 17:42:03.043444 14670 net.cpp:148] Top shape: 24 256 14 14 (1204224)
I0403 17:42:03.043462 14670 net.cpp:156] Memory required for data: 1047659808
I0403 17:42:03.043478 14670 layer_factory.hpp:77] Creating layer inception_4c/5x5_reduce
I0403 17:42:03.043498 14670 net.cpp:91] Creating Layer inception_4c/5x5_reduce
I0403 17:42:03.043516 14670 net.cpp:425] inception_4c/5x5_reduce <- inception_4b/output_inception_4b/output_0_split_2
I0403 17:42:03.043540 14670 net.cpp:399] inception_4c/5x5_reduce -> inception_4c/5x5_reduce
I0403 17:42:03.044668 14670 net.cpp:141] Setting up inception_4c/5x5_reduce
I0403 17:42:03.044697 14670 net.cpp:148] Top shape: 24 24 14 14 (112896)
I0403 17:42:03.044713 14670 net.cpp:156] Memory required for data: 1048111392
I0403 17:42:03.044733 14670 layer_factory.hpp:77] Creating layer inception_4c/relu_5x5_reduce
I0403 17:42:03.044754 14670 net.cpp:91] Creating Layer inception_4c/relu_5x5_reduce
I0403 17:42:03.044770 14670 net.cpp:425] inception_4c/relu_5x5_reduce <- inception_4c/5x5_reduce
I0403 17:42:03.044788 14670 net.cpp:386] inception_4c/relu_5x5_reduce -> inception_4c/5x5_reduce (in-place)
I0403 17:42:03.044983 14670 net.cpp:141] Setting up inception_4c/relu_5x5_reduce
I0403 17:42:03.045011 14670 net.cpp:148] Top shape: 24 24 14 14 (112896)
I0403 17:42:03.045028 14670 net.cpp:156] Memory required for data: 1048562976
I0403 17:42:03.045043 14670 layer_factory.hpp:77] Creating layer inception_4c/5x5
I0403 17:42:03.045068 14670 net.cpp:91] Creating Layer inception_4c/5x5
I0403 17:42:03.045085 14670 net.cpp:425] inception_4c/5x5 <- inception_4c/5x5_reduce
I0403 17:42:03.045105 14670 net.cpp:399] inception_4c/5x5 -> inception_4c/5x5
I0403 17:42:03.046386 14670 net.cpp:141] Setting up inception_4c/5x5
I0403 17:42:03.046418 14670 net.cpp:148] Top shape: 24 64 14 14 (301056)
I0403 17:42:03.046434 14670 net.cpp:156] Memory required for data: 1049767200
I0403 17:42:03.046454 14670 layer_factory.hpp:77] Creating layer inception_4c/relu_5x5
I0403 17:42:03.046473 14670 net.cpp:91] Creating Layer inception_4c/relu_5x5
I0403 17:42:03.046489 14670 net.cpp:425] inception_4c/relu_5x5 <- inception_4c/5x5
I0403 17:42:03.046510 14670 net.cpp:386] inception_4c/relu_5x5 -> inception_4c/5x5 (in-place)
I0403 17:42:03.046809 14670 net.cpp:141] Setting up inception_4c/relu_5x5
I0403 17:42:03.046838 14670 net.cpp:148] Top shape: 24 64 14 14 (301056)
I0403 17:42:03.046854 14670 net.cpp:156] Memory required for data: 1050971424
I0403 17:42:03.046869 14670 layer_factory.hpp:77] Creating layer inception_4c/pool
I0403 17:42:03.046887 14670 net.cpp:91] Creating Layer inception_4c/pool
I0403 17:42:03.046905 14670 net.cpp:425] inception_4c/pool <- inception_4b/output_inception_4b/output_0_split_3
I0403 17:42:03.046927 14670 net.cpp:399] inception_4c/pool -> inception_4c/pool
I0403 17:42:03.047000 14670 net.cpp:141] Setting up inception_4c/pool
I0403 17:42:03.047025 14670 net.cpp:148] Top shape: 24 512 14 14 (2408448)
I0403 17:42:03.047040 14670 net.cpp:156] Memory required for data: 1060605216
I0403 17:42:03.047055 14670 layer_factory.hpp:77] Creating layer inception_4c/pool_proj
I0403 17:42:03.047080 14670 net.cpp:91] Creating Layer inception_4c/pool_proj
I0403 17:42:03.047098 14670 net.cpp:425] inception_4c/pool_proj <- inception_4c/pool
I0403 17:42:03.047118 14670 net.cpp:399] inception_4c/pool_proj -> inception_4c/pool_proj
I0403 17:42:03.048393 14670 net.cpp:141] Setting up inception_4c/pool_proj
I0403 17:42:03.048423 14670 net.cpp:148] Top shape: 24 64 14 14 (301056)
I0403 17:42:03.048452 14670 net.cpp:156] Memory required for data: 1061809440
I0403 17:42:03.048473 14670 layer_factory.hpp:77] Creating layer inception_4c/relu_pool_proj
I0403 17:42:03.048496 14670 net.cpp:91] Creating Layer inception_4c/relu_pool_proj
I0403 17:42:03.048513 14670 net.cpp:425] inception_4c/relu_pool_proj <- inception_4c/pool_proj
I0403 17:42:03.048532 14670 net.cpp:386] inception_4c/relu_pool_proj -> inception_4c/pool_proj (in-place)
I0403 17:42:03.048722 14670 net.cpp:141] Setting up inception_4c/relu_pool_proj
I0403 17:42:03.048748 14670 net.cpp:148] Top shape: 24 64 14 14 (301056)
I0403 17:42:03.048764 14670 net.cpp:156] Memory required for data: 1063013664
I0403 17:42:03.048780 14670 layer_factory.hpp:77] Creating layer inception_4c/output
I0403 17:42:03.048799 14670 net.cpp:91] Creating Layer inception_4c/output
I0403 17:42:03.048815 14670 net.cpp:425] inception_4c/output <- inception_4c/1x1
I0403 17:42:03.048831 14670 net.cpp:425] inception_4c/output <- inception_4c/3x3
I0403 17:42:03.048847 14670 net.cpp:425] inception_4c/output <- inception_4c/5x5
I0403 17:42:03.048864 14670 net.cpp:425] inception_4c/output <- inception_4c/pool_proj
I0403 17:42:03.048882 14670 net.cpp:399] inception_4c/output -> inception_4c/output
I0403 17:42:03.048931 14670 net.cpp:141] Setting up inception_4c/output
I0403 17:42:03.048955 14670 net.cpp:148] Top shape: 24 512 14 14 (2408448)
I0403 17:42:03.048971 14670 net.cpp:156] Memory required for data: 1072647456
I0403 17:42:03.048991 14670 layer_factory.hpp:77] Creating layer inception_4c/output_inception_4c/output_0_split
I0403 17:42:03.049012 14670 net.cpp:91] Creating Layer inception_4c/output_inception_4c/output_0_split
I0403 17:42:03.049031 14670 net.cpp:425] inception_4c/output_inception_4c/output_0_split <- inception_4c/output
I0403 17:42:03.049049 14670 net.cpp:399] inception_4c/output_inception_4c/output_0_split -> inception_4c/output_inception_4c/output_0_split_0
I0403 17:42:03.049070 14670 net.cpp:399] inception_4c/output_inception_4c/output_0_split -> inception_4c/output_inception_4c/output_0_split_1
I0403 17:42:03.049091 14670 net.cpp:399] inception_4c/output_inception_4c/output_0_split -> inception_4c/output_inception_4c/output_0_split_2
I0403 17:42:03.049115 14670 net.cpp:399] inception_4c/output_inception_4c/output_0_split -> inception_4c/output_inception_4c/output_0_split_3
I0403 17:42:03.049208 14670 net.cpp:141] Setting up inception_4c/output_inception_4c/output_0_split
I0403 17:42:03.049233 14670 net.cpp:148] Top shape: 24 512 14 14 (2408448)
I0403 17:42:03.049250 14670 net.cpp:148] Top shape: 24 512 14 14 (2408448)
I0403 17:42:03.049266 14670 net.cpp:148] Top shape: 24 512 14 14 (2408448)
I0403 17:42:03.049283 14670 net.cpp:148] Top shape: 24 512 14 14 (2408448)
I0403 17:42:03.049298 14670 net.cpp:156] Memory required for data: 1111182624
I0403 17:42:03.049312 14670 layer_factory.hpp:77] Creating layer inception_4d/1x1
I0403 17:42:03.049335 14670 net.cpp:91] Creating Layer inception_4d/1x1
I0403 17:42:03.049353 14670 net.cpp:425] inception_4d/1x1 <- inception_4c/output_inception_4c/output_0_split_0
I0403 17:42:03.049376 14670 net.cpp:399] inception_4d/1x1 -> inception_4d/1x1
I0403 17:42:03.050796 14670 net.cpp:141] Setting up inception_4d/1x1
I0403 17:42:03.050824 14670 net.cpp:148] Top shape: 24 112 14 14 (526848)
I0403 17:42:03.050840 14670 net.cpp:156] Memory required for data: 1113290016
I0403 17:42:03.050859 14670 layer_factory.hpp:77] Creating layer inception_4d/relu_1x1
I0403 17:42:03.050879 14670 net.cpp:91] Creating Layer inception_4d/relu_1x1
I0403 17:42:03.050895 14670 net.cpp:425] inception_4d/relu_1x1 <- inception_4d/1x1
I0403 17:42:03.050916 14670 net.cpp:386] inception_4d/relu_1x1 -> inception_4d/1x1 (in-place)
I0403 17:42:03.051111 14670 net.cpp:141] Setting up inception_4d/relu_1x1
I0403 17:42:03.051136 14670 net.cpp:148] Top shape: 24 112 14 14 (526848)
I0403 17:42:03.051152 14670 net.cpp:156] Memory required for data: 1115397408
I0403 17:42:03.051168 14670 layer_factory.hpp:77] Creating layer inception_4d/3x3_reduce
I0403 17:42:03.051205 14670 net.cpp:91] Creating Layer inception_4d/3x3_reduce
I0403 17:42:03.051224 14670 net.cpp:425] inception_4d/3x3_reduce <- inception_4c/output_inception_4c/output_0_split_1
I0403 17:42:03.051246 14670 net.cpp:399] inception_4d/3x3_reduce -> inception_4d/3x3_reduce
I0403 17:42:03.052801 14670 net.cpp:141] Setting up inception_4d/3x3_reduce
I0403 17:42:03.052831 14670 net.cpp:148] Top shape: 24 144 14 14 (677376)
I0403 17:42:03.052850 14670 net.cpp:156] Memory required for data: 1118106912
I0403 17:42:03.052870 14670 layer_factory.hpp:77] Creating layer inception_4d/relu_3x3_reduce
I0403 17:42:03.052888 14670 net.cpp:91] Creating Layer inception_4d/relu_3x3_reduce
I0403 17:42:03.052906 14670 net.cpp:425] inception_4d/relu_3x3_reduce <- inception_4d/3x3_reduce
I0403 17:42:03.052927 14670 net.cpp:386] inception_4d/relu_3x3_reduce -> inception_4d/3x3_reduce (in-place)
I0403 17:42:03.053231 14670 net.cpp:141] Setting up inception_4d/relu_3x3_reduce
I0403 17:42:03.053259 14670 net.cpp:148] Top shape: 24 144 14 14 (677376)
I0403 17:42:03.053277 14670 net.cpp:156] Memory required for data: 1120816416
I0403 17:42:03.053292 14670 layer_factory.hpp:77] Creating layer inception_4d/3x3
I0403 17:42:03.053315 14670 net.cpp:91] Creating Layer inception_4d/3x3
I0403 17:42:03.053334 14670 net.cpp:425] inception_4d/3x3 <- inception_4d/3x3_reduce
I0403 17:42:03.053354 14670 net.cpp:399] inception_4d/3x3 -> inception_4d/3x3
I0403 17:42:03.057799 14670 net.cpp:141] Setting up inception_4d/3x3
I0403 17:42:03.057831 14670 net.cpp:148] Top shape: 24 288 14 14 (1354752)
I0403 17:42:03.057847 14670 net.cpp:156] Memory required for data: 1126235424
I0403 17:42:03.057867 14670 layer_factory.hpp:77] Creating layer inception_4d/relu_3x3
I0403 17:42:03.057888 14670 net.cpp:91] Creating Layer inception_4d/relu_3x3
I0403 17:42:03.057905 14670 net.cpp:425] inception_4d/relu_3x3 <- inception_4d/3x3
I0403 17:42:03.057924 14670 net.cpp:386] inception_4d/relu_3x3 -> inception_4d/3x3 (in-place)
I0403 17:42:03.058131 14670 net.cpp:141] Setting up inception_4d/relu_3x3
I0403 17:42:03.058157 14670 net.cpp:148] Top shape: 24 288 14 14 (1354752)
I0403 17:42:03.058172 14670 net.cpp:156] Memory required for data: 1131654432
I0403 17:42:03.058187 14670 layer_factory.hpp:77] Creating layer inception_4d/5x5_reduce
I0403 17:42:03.058212 14670 net.cpp:91] Creating Layer inception_4d/5x5_reduce
I0403 17:42:03.058230 14670 net.cpp:425] inception_4d/5x5_reduce <- inception_4c/output_inception_4c/output_0_split_2
I0403 17:42:03.058250 14670 net.cpp:399] inception_4d/5x5_reduce -> inception_4d/5x5_reduce
I0403 17:42:03.059428 14670 net.cpp:141] Setting up inception_4d/5x5_reduce
I0403 17:42:03.059458 14670 net.cpp:148] Top shape: 24 32 14 14 (150528)
I0403 17:42:03.059473 14670 net.cpp:156] Memory required for data: 1132256544
I0403 17:42:03.059491 14670 layer_factory.hpp:77] Creating layer inception_4d/relu_5x5_reduce
I0403 17:42:03.059512 14670 net.cpp:91] Creating Layer inception_4d/relu_5x5_reduce
I0403 17:42:03.059530 14670 net.cpp:425] inception_4d/relu_5x5_reduce <- inception_4d/5x5_reduce
I0403 17:42:03.059548 14670 net.cpp:386] inception_4d/relu_5x5_reduce -> inception_4d/5x5_reduce (in-place)
I0403 17:42:03.059741 14670 net.cpp:141] Setting up inception_4d/relu_5x5_reduce
I0403 17:42:03.059767 14670 net.cpp:148] Top shape: 24 32 14 14 (150528)
I0403 17:42:03.059785 14670 net.cpp:156] Memory required for data: 1132858656
I0403 17:42:03.059800 14670 layer_factory.hpp:77] Creating layer inception_4d/5x5
I0403 17:42:03.059820 14670 net.cpp:91] Creating Layer inception_4d/5x5
I0403 17:42:03.059839 14670 net.cpp:425] inception_4d/5x5 <- inception_4d/5x5_reduce
I0403 17:42:03.059860 14670 net.cpp:399] inception_4d/5x5 -> inception_4d/5x5
I0403 17:42:03.061383 14670 net.cpp:141] Setting up inception_4d/5x5
I0403 17:42:03.061414 14670 net.cpp:148] Top shape: 24 64 14 14 (301056)
I0403 17:42:03.061430 14670 net.cpp:156] Memory required for data: 1134062880
I0403 17:42:03.061450 14670 layer_factory.hpp:77] Creating layer inception_4d/relu_5x5
I0403 17:42:03.061483 14670 net.cpp:91] Creating Layer inception_4d/relu_5x5
I0403 17:42:03.061501 14670 net.cpp:425] inception_4d/relu_5x5 <- inception_4d/5x5
I0403 17:42:03.061519 14670 net.cpp:386] inception_4d/relu_5x5 -> inception_4d/5x5 (in-place)
I0403 17:42:03.061830 14670 net.cpp:141] Setting up inception_4d/relu_5x5
I0403 17:42:03.061859 14670 net.cpp:148] Top shape: 24 64 14 14 (301056)
I0403 17:42:03.061875 14670 net.cpp:156] Memory required for data: 1135267104
I0403 17:42:03.061890 14670 layer_factory.hpp:77] Creating layer inception_4d/pool
I0403 17:42:03.061909 14670 net.cpp:91] Creating Layer inception_4d/pool
I0403 17:42:03.061928 14670 net.cpp:425] inception_4d/pool <- inception_4c/output_inception_4c/output_0_split_3
I0403 17:42:03.061946 14670 net.cpp:399] inception_4d/pool -> inception_4d/pool
I0403 17:42:03.062021 14670 net.cpp:141] Setting up inception_4d/pool
I0403 17:42:03.062046 14670 net.cpp:148] Top shape: 24 512 14 14 (2408448)
I0403 17:42:03.062060 14670 net.cpp:156] Memory required for data: 1144900896
I0403 17:42:03.062075 14670 layer_factory.hpp:77] Creating layer inception_4d/pool_proj
I0403 17:42:03.062098 14670 net.cpp:91] Creating Layer inception_4d/pool_proj
I0403 17:42:03.062116 14670 net.cpp:425] inception_4d/pool_proj <- inception_4d/pool
I0403 17:42:03.062137 14670 net.cpp:399] inception_4d/pool_proj -> inception_4d/pool_proj
I0403 17:42:03.063954 14670 net.cpp:141] Setting up inception_4d/pool_proj
I0403 17:42:03.063987 14670 net.cpp:148] Top shape: 24 64 14 14 (301056)
I0403 17:42:03.064005 14670 net.cpp:156] Memory required for data: 1146105120
I0403 17:42:03.064024 14670 layer_factory.hpp:77] Creating layer inception_4d/relu_pool_proj
I0403 17:42:03.064045 14670 net.cpp:91] Creating Layer inception_4d/relu_pool_proj
I0403 17:42:03.064064 14670 net.cpp:425] inception_4d/relu_pool_proj <- inception_4d/pool_proj
I0403 17:42:03.064080 14670 net.cpp:386] inception_4d/relu_pool_proj -> inception_4d/pool_proj (in-place)
I0403 17:42:03.064272 14670 net.cpp:141] Setting up inception_4d/relu_pool_proj
I0403 17:42:03.064298 14670 net.cpp:148] Top shape: 24 64 14 14 (301056)
I0403 17:42:03.064313 14670 net.cpp:156] Memory required for data: 1147309344
I0403 17:42:03.064328 14670 layer_factory.hpp:77] Creating layer inception_4d/output
I0403 17:42:03.064348 14670 net.cpp:91] Creating Layer inception_4d/output
I0403 17:42:03.064365 14670 net.cpp:425] inception_4d/output <- inception_4d/1x1
I0403 17:42:03.064383 14670 net.cpp:425] inception_4d/output <- inception_4d/3x3
I0403 17:42:03.064399 14670 net.cpp:425] inception_4d/output <- inception_4d/5x5
I0403 17:42:03.064415 14670 net.cpp:425] inception_4d/output <- inception_4d/pool_proj
I0403 17:42:03.064432 14670 net.cpp:399] inception_4d/output -> inception_4d/output
I0403 17:42:03.064483 14670 net.cpp:141] Setting up inception_4d/output
I0403 17:42:03.064507 14670 net.cpp:148] Top shape: 24 528 14 14 (2483712)
I0403 17:42:03.064522 14670 net.cpp:156] Memory required for data: 1157244192
I0403 17:42:03.064538 14670 layer_factory.hpp:77] Creating layer inception_4d/output_inception_4d/output_0_split
I0403 17:42:03.064555 14670 net.cpp:91] Creating Layer inception_4d/output_inception_4d/output_0_split
I0403 17:42:03.064573 14670 net.cpp:425] inception_4d/output_inception_4d/output_0_split <- inception_4d/output
I0403 17:42:03.064592 14670 net.cpp:399] inception_4d/output_inception_4d/output_0_split -> inception_4d/output_inception_4d/output_0_split_0
I0403 17:42:03.064615 14670 net.cpp:399] inception_4d/output_inception_4d/output_0_split -> inception_4d/output_inception_4d/output_0_split_1
I0403 17:42:03.064635 14670 net.cpp:399] inception_4d/output_inception_4d/output_0_split -> inception_4d/output_inception_4d/output_0_split_2
I0403 17:42:03.064661 14670 net.cpp:399] inception_4d/output_inception_4d/output_0_split -> inception_4d/output_inception_4d/output_0_split_3
I0403 17:42:03.064682 14670 net.cpp:399] inception_4d/output_inception_4d/output_0_split -> inception_4d/output_inception_4d/output_0_split_4
I0403 17:42:03.064790 14670 net.cpp:141] Setting up inception_4d/output_inception_4d/output_0_split
I0403 17:42:03.064826 14670 net.cpp:148] Top shape: 24 528 14 14 (2483712)
I0403 17:42:03.064844 14670 net.cpp:148] Top shape: 24 528 14 14 (2483712)
I0403 17:42:03.064860 14670 net.cpp:148] Top shape: 24 528 14 14 (2483712)
I0403 17:42:03.064877 14670 net.cpp:148] Top shape: 24 528 14 14 (2483712)
I0403 17:42:03.064893 14670 net.cpp:148] Top shape: 24 528 14 14 (2483712)
I0403 17:42:03.064908 14670 net.cpp:156] Memory required for data: 1206918432
I0403 17:42:03.064924 14670 layer_factory.hpp:77] Creating layer loss2/ave_pool
I0403 17:42:03.064942 14670 net.cpp:91] Creating Layer loss2/ave_pool
I0403 17:42:03.064959 14670 net.cpp:425] loss2/ave_pool <- inception_4d/output_inception_4d/output_0_split_0
I0403 17:42:03.064983 14670 net.cpp:399] loss2/ave_pool -> loss2/ave_pool
I0403 17:42:03.065305 14670 net.cpp:141] Setting up loss2/ave_pool
I0403 17:42:03.065332 14670 net.cpp:148] Top shape: 24 528 4 4 (202752)
I0403 17:42:03.065348 14670 net.cpp:156] Memory required for data: 1207729440
I0403 17:42:03.065363 14670 layer_factory.hpp:77] Creating layer loss2/conv
I0403 17:42:03.065387 14670 net.cpp:91] Creating Layer loss2/conv
I0403 17:42:03.065404 14670 net.cpp:425] loss2/conv <- loss2/ave_pool
I0403 17:42:03.065426 14670 net.cpp:399] loss2/conv -> loss2/conv
I0403 17:42:03.067370 14670 net.cpp:141] Setting up loss2/conv
I0403 17:42:03.067402 14670 net.cpp:148] Top shape: 24 128 4 4 (49152)
I0403 17:42:03.067420 14670 net.cpp:156] Memory required for data: 1207926048
I0403 17:42:03.067438 14670 layer_factory.hpp:77] Creating layer loss2/relu_conv
I0403 17:42:03.067456 14670 net.cpp:91] Creating Layer loss2/relu_conv
I0403 17:42:03.067473 14670 net.cpp:425] loss2/relu_conv <- loss2/conv
I0403 17:42:03.067494 14670 net.cpp:386] loss2/relu_conv -> loss2/conv (in-place)
I0403 17:42:03.067790 14670 net.cpp:141] Setting up loss2/relu_conv
I0403 17:42:03.067821 14670 net.cpp:148] Top shape: 24 128 4 4 (49152)
I0403 17:42:03.067837 14670 net.cpp:156] Memory required for data: 1208122656
I0403 17:42:03.067853 14670 layer_factory.hpp:77] Creating layer loss2/fc
I0403 17:42:03.067873 14670 net.cpp:91] Creating Layer loss2/fc
I0403 17:42:03.067890 14670 net.cpp:425] loss2/fc <- loss2/conv
I0403 17:42:03.067914 14670 net.cpp:399] loss2/fc -> loss2/fc
I0403 17:42:03.086072 14670 net.cpp:141] Setting up loss2/fc
I0403 17:42:03.086108 14670 net.cpp:148] Top shape: 24 1024 (24576)
I0403 17:42:03.086127 14670 net.cpp:156] Memory required for data: 1208220960
I0403 17:42:03.086145 14670 layer_factory.hpp:77] Creating layer loss2/relu_fc
I0403 17:42:03.086168 14670 net.cpp:91] Creating Layer loss2/relu_fc
I0403 17:42:03.086185 14670 net.cpp:425] loss2/relu_fc <- loss2/fc
I0403 17:42:03.086204 14670 net.cpp:386] loss2/relu_fc -> loss2/fc (in-place)
I0403 17:42:03.086514 14670 net.cpp:141] Setting up loss2/relu_fc
I0403 17:42:03.086541 14670 net.cpp:148] Top shape: 24 1024 (24576)
I0403 17:42:03.086556 14670 net.cpp:156] Memory required for data: 1208319264
I0403 17:42:03.086571 14670 layer_factory.hpp:77] Creating layer loss2/drop_fc
I0403 17:42:03.086592 14670 net.cpp:91] Creating Layer loss2/drop_fc
I0403 17:42:03.086611 14670 net.cpp:425] loss2/drop_fc <- loss2/fc
I0403 17:42:03.086628 14670 net.cpp:386] loss2/drop_fc -> loss2/fc (in-place)
I0403 17:42:03.086680 14670 net.cpp:141] Setting up loss2/drop_fc
I0403 17:42:03.086704 14670 net.cpp:148] Top shape: 24 1024 (24576)
I0403 17:42:03.086719 14670 net.cpp:156] Memory required for data: 1208417568
I0403 17:42:03.086733 14670 layer_factory.hpp:77] Creating layer loss2/classifier_plantvillage
I0403 17:42:03.086752 14670 net.cpp:91] Creating Layer loss2/classifier_plantvillage
I0403 17:42:03.086769 14670 net.cpp:425] loss2/classifier_plantvillage <- loss2/fc
I0403 17:42:03.086791 14670 net.cpp:399] loss2/classifier_plantvillage -> loss2/classifier_plantvillage
I0403 17:42:03.087218 14670 net.cpp:141] Setting up loss2/classifier_plantvillage
I0403 17:42:03.087242 14670 net.cpp:148] Top shape: 24 38 (912)
I0403 17:42:03.087275 14670 net.cpp:156] Memory required for data: 1208421216
I0403 17:42:03.087296 14670 layer_factory.hpp:77] Creating layer loss2/classifier_plantvillage_loss2/classifier_plantvillage_0_split
I0403 17:42:03.087314 14670 net.cpp:91] Creating Layer loss2/classifier_plantvillage_loss2/classifier_plantvillage_0_split
I0403 17:42:03.087330 14670 net.cpp:425] loss2/classifier_plantvillage_loss2/classifier_plantvillage_0_split <- loss2/classifier_plantvillage
I0403 17:42:03.087352 14670 net.cpp:399] loss2/classifier_plantvillage_loss2/classifier_plantvillage_0_split -> loss2/classifier_plantvillage_loss2/classifier_plantvillage_0_split_0
I0403 17:42:03.087373 14670 net.cpp:399] loss2/classifier_plantvillage_loss2/classifier_plantvillage_0_split -> loss2/classifier_plantvillage_loss2/classifier_plantvillage_0_split_1
I0403 17:42:03.087395 14670 net.cpp:399] loss2/classifier_plantvillage_loss2/classifier_plantvillage_0_split -> loss2/classifier_plantvillage_loss2/classifier_plantvillage_0_split_2
I0403 17:42:03.087473 14670 net.cpp:141] Setting up loss2/classifier_plantvillage_loss2/classifier_plantvillage_0_split
I0403 17:42:03.087507 14670 net.cpp:148] Top shape: 24 38 (912)
I0403 17:42:03.087523 14670 net.cpp:148] Top shape: 24 38 (912)
I0403 17:42:03.087539 14670 net.cpp:148] Top shape: 24 38 (912)
I0403 17:42:03.087553 14670 net.cpp:156] Memory required for data: 1208432160
I0403 17:42:03.087568 14670 layer_factory.hpp:77] Creating layer inception_4e/1x1
I0403 17:42:03.087591 14670 net.cpp:91] Creating Layer inception_4e/1x1
I0403 17:42:03.087610 14670 net.cpp:425] inception_4e/1x1 <- inception_4d/output_inception_4d/output_0_split_1
I0403 17:42:03.087628 14670 net.cpp:399] inception_4e/1x1 -> inception_4e/1x1
I0403 17:42:03.089561 14670 net.cpp:141] Setting up inception_4e/1x1
I0403 17:42:03.089592 14670 net.cpp:148] Top shape: 24 256 14 14 (1204224)
I0403 17:42:03.089608 14670 net.cpp:156] Memory required for data: 1213249056
I0403 17:42:03.089627 14670 layer_factory.hpp:77] Creating layer inception_4e/relu_1x1
I0403 17:42:03.089645 14670 net.cpp:91] Creating Layer inception_4e/relu_1x1
I0403 17:42:03.089663 14670 net.cpp:425] inception_4e/relu_1x1 <- inception_4e/1x1
I0403 17:42:03.089681 14670 net.cpp:386] inception_4e/relu_1x1 -> inception_4e/1x1 (in-place)
I0403 17:42:03.089984 14670 net.cpp:141] Setting up inception_4e/relu_1x1
I0403 17:42:03.090013 14670 net.cpp:148] Top shape: 24 256 14 14 (1204224)
I0403 17:42:03.090029 14670 net.cpp:156] Memory required for data: 1218065952
I0403 17:42:03.090044 14670 layer_factory.hpp:77] Creating layer inception_4e/3x3_reduce
I0403 17:42:03.090066 14670 net.cpp:91] Creating Layer inception_4e/3x3_reduce
I0403 17:42:03.090085 14670 net.cpp:425] inception_4e/3x3_reduce <- inception_4d/output_inception_4d/output_0_split_2
I0403 17:42:03.090103 14670 net.cpp:399] inception_4e/3x3_reduce -> inception_4e/3x3_reduce
I0403 17:42:03.092221 14670 net.cpp:141] Setting up inception_4e/3x3_reduce
I0403 17:42:03.092249 14670 net.cpp:148] Top shape: 24 160 14 14 (752640)
I0403 17:42:03.092265 14670 net.cpp:156] Memory required for data: 1221076512
I0403 17:42:03.092284 14670 layer_factory.hpp:77] Creating layer inception_4e/relu_3x3_reduce
I0403 17:42:03.092304 14670 net.cpp:91] Creating Layer inception_4e/relu_3x3_reduce
I0403 17:42:03.092322 14670 net.cpp:425] inception_4e/relu_3x3_reduce <- inception_4e/3x3_reduce
I0403 17:42:03.092339 14670 net.cpp:386] inception_4e/relu_3x3_reduce -> inception_4e/3x3_reduce (in-place)
I0403 17:42:03.092525 14670 net.cpp:141] Setting up inception_4e/relu_3x3_reduce
I0403 17:42:03.092550 14670 net.cpp:148] Top shape: 24 160 14 14 (752640)
I0403 17:42:03.092566 14670 net.cpp:156] Memory required for data: 1224087072
I0403 17:42:03.092581 14670 layer_factory.hpp:77] Creating layer inception_4e/3x3
I0403 17:42:03.092602 14670 net.cpp:91] Creating Layer inception_4e/3x3
I0403 17:42:03.092619 14670 net.cpp:425] inception_4e/3x3 <- inception_4e/3x3_reduce
I0403 17:42:03.092641 14670 net.cpp:399] inception_4e/3x3 -> inception_4e/3x3
I0403 17:42:03.097683 14670 net.cpp:141] Setting up inception_4e/3x3
I0403 17:42:03.097724 14670 net.cpp:148] Top shape: 24 320 14 14 (1505280)
I0403 17:42:03.097743 14670 net.cpp:156] Memory required for data: 1230108192
I0403 17:42:03.097760 14670 layer_factory.hpp:77] Creating layer inception_4e/relu_3x3
I0403 17:42:03.097779 14670 net.cpp:91] Creating Layer inception_4e/relu_3x3
I0403 17:42:03.097795 14670 net.cpp:425] inception_4e/relu_3x3 <- inception_4e/3x3
I0403 17:42:03.097815 14670 net.cpp:386] inception_4e/relu_3x3 -> inception_4e/3x3 (in-place)
I0403 17:42:03.098127 14670 net.cpp:141] Setting up inception_4e/relu_3x3
I0403 17:42:03.098153 14670 net.cpp:148] Top shape: 24 320 14 14 (1505280)
I0403 17:42:03.098170 14670 net.cpp:156] Memory required for data: 1236129312
I0403 17:42:03.098183 14670 layer_factory.hpp:77] Creating layer inception_4e/5x5_reduce
I0403 17:42:03.098217 14670 net.cpp:91] Creating Layer inception_4e/5x5_reduce
I0403 17:42:03.098237 14670 net.cpp:425] inception_4e/5x5_reduce <- inception_4d/output_inception_4d/output_0_split_3
I0403 17:42:03.098258 14670 net.cpp:399] inception_4e/5x5_reduce -> inception_4e/5x5_reduce
I0403 17:42:03.099339 14670 net.cpp:141] Setting up inception_4e/5x5_reduce
I0403 17:42:03.099369 14670 net.cpp:148] Top shape: 24 32 14 14 (150528)
I0403 17:42:03.099385 14670 net.cpp:156] Memory required for data: 1236731424
I0403 17:42:03.099403 14670 layer_factory.hpp:77] Creating layer inception_4e/relu_5x5_reduce
I0403 17:42:03.099421 14670 net.cpp:91] Creating Layer inception_4e/relu_5x5_reduce
I0403 17:42:03.099438 14670 net.cpp:425] inception_4e/relu_5x5_reduce <- inception_4e/5x5_reduce
I0403 17:42:03.099455 14670 net.cpp:386] inception_4e/relu_5x5_reduce -> inception_4e/5x5_reduce (in-place)
I0403 17:42:03.099761 14670 net.cpp:141] Setting up inception_4e/relu_5x5_reduce
I0403 17:42:03.099791 14670 net.cpp:148] Top shape: 24 32 14 14 (150528)
I0403 17:42:03.099807 14670 net.cpp:156] Memory required for data: 1237333536
I0403 17:42:03.099822 14670 layer_factory.hpp:77] Creating layer inception_4e/5x5
I0403 17:42:03.099860 14670 net.cpp:91] Creating Layer inception_4e/5x5
I0403 17:42:03.099880 14670 net.cpp:425] inception_4e/5x5 <- inception_4e/5x5_reduce
I0403 17:42:03.099900 14670 net.cpp:399] inception_4e/5x5 -> inception_4e/5x5
I0403 17:42:03.101758 14670 net.cpp:141] Setting up inception_4e/5x5
I0403 17:42:03.101786 14670 net.cpp:148] Top shape: 24 128 14 14 (602112)
I0403 17:42:03.101801 14670 net.cpp:156] Memory required for data: 1239741984
I0403 17:42:03.101820 14670 layer_factory.hpp:77] Creating layer inception_4e/relu_5x5
I0403 17:42:03.101842 14670 net.cpp:91] Creating Layer inception_4e/relu_5x5
I0403 17:42:03.101860 14670 net.cpp:425] inception_4e/relu_5x5 <- inception_4e/5x5
I0403 17:42:03.101877 14670 net.cpp:386] inception_4e/relu_5x5 -> inception_4e/5x5 (in-place)
I0403 17:42:03.102080 14670 net.cpp:141] Setting up inception_4e/relu_5x5
I0403 17:42:03.102108 14670 net.cpp:148] Top shape: 24 128 14 14 (602112)
I0403 17:42:03.102123 14670 net.cpp:156] Memory required for data: 1242150432
I0403 17:42:03.102138 14670 layer_factory.hpp:77] Creating layer inception_4e/pool
I0403 17:42:03.102157 14670 net.cpp:91] Creating Layer inception_4e/pool
I0403 17:42:03.102174 14670 net.cpp:425] inception_4e/pool <- inception_4d/output_inception_4d/output_0_split_4
I0403 17:42:03.102193 14670 net.cpp:399] inception_4e/pool -> inception_4e/pool
I0403 17:42:03.102263 14670 net.cpp:141] Setting up inception_4e/pool
I0403 17:42:03.102288 14670 net.cpp:148] Top shape: 24 528 14 14 (2483712)
I0403 17:42:03.102303 14670 net.cpp:156] Memory required for data: 1252085280
I0403 17:42:03.102318 14670 layer_factory.hpp:77] Creating layer inception_4e/pool_proj
I0403 17:42:03.102339 14670 net.cpp:91] Creating Layer inception_4e/pool_proj
I0403 17:42:03.102356 14670 net.cpp:425] inception_4e/pool_proj <- inception_4e/pool
I0403 17:42:03.102377 14670 net.cpp:399] inception_4e/pool_proj -> inception_4e/pool_proj
I0403 17:42:03.103889 14670 net.cpp:141] Setting up inception_4e/pool_proj
I0403 17:42:03.103930 14670 net.cpp:148] Top shape: 24 128 14 14 (602112)
I0403 17:42:03.103946 14670 net.cpp:156] Memory required for data: 1254493728
I0403 17:42:03.103965 14670 layer_factory.hpp:77] Creating layer inception_4e/relu_pool_proj
I0403 17:42:03.103991 14670 net.cpp:91] Creating Layer inception_4e/relu_pool_proj
I0403 17:42:03.104009 14670 net.cpp:425] inception_4e/relu_pool_proj <- inception_4e/pool_proj
I0403 17:42:03.104027 14670 net.cpp:386] inception_4e/relu_pool_proj -> inception_4e/pool_proj (in-place)
I0403 17:42:03.104321 14670 net.cpp:141] Setting up inception_4e/relu_pool_proj
I0403 17:42:03.104346 14670 net.cpp:148] Top shape: 24 128 14 14 (602112)
I0403 17:42:03.104362 14670 net.cpp:156] Memory required for data: 1256902176
I0403 17:42:03.104377 14670 layer_factory.hpp:77] Creating layer inception_4e/output
I0403 17:42:03.104398 14670 net.cpp:91] Creating Layer inception_4e/output
I0403 17:42:03.104414 14670 net.cpp:425] inception_4e/output <- inception_4e/1x1
I0403 17:42:03.104432 14670 net.cpp:425] inception_4e/output <- inception_4e/3x3
I0403 17:42:03.104449 14670 net.cpp:425] inception_4e/output <- inception_4e/5x5
I0403 17:42:03.104466 14670 net.cpp:425] inception_4e/output <- inception_4e/pool_proj
I0403 17:42:03.104483 14670 net.cpp:399] inception_4e/output -> inception_4e/output
I0403 17:42:03.104532 14670 net.cpp:141] Setting up inception_4e/output
I0403 17:42:03.104557 14670 net.cpp:148] Top shape: 24 832 14 14 (3913728)
I0403 17:42:03.104573 14670 net.cpp:156] Memory required for data: 1272557088
I0403 17:42:03.104588 14670 layer_factory.hpp:77] Creating layer pool4/3x3_s2
I0403 17:42:03.104606 14670 net.cpp:91] Creating Layer pool4/3x3_s2
I0403 17:42:03.104622 14670 net.cpp:425] pool4/3x3_s2 <- inception_4e/output
I0403 17:42:03.104643 14670 net.cpp:399] pool4/3x3_s2 -> pool4/3x3_s2
I0403 17:42:03.104710 14670 net.cpp:141] Setting up pool4/3x3_s2
I0403 17:42:03.104737 14670 net.cpp:148] Top shape: 24 832 7 7 (978432)
I0403 17:42:03.104751 14670 net.cpp:156] Memory required for data: 1276470816
I0403 17:42:03.104766 14670 layer_factory.hpp:77] Creating layer pool4/3x3_s2_pool4/3x3_s2_0_split
I0403 17:42:03.104784 14670 net.cpp:91] Creating Layer pool4/3x3_s2_pool4/3x3_s2_0_split
I0403 17:42:03.104799 14670 net.cpp:425] pool4/3x3_s2_pool4/3x3_s2_0_split <- pool4/3x3_s2
I0403 17:42:03.104816 14670 net.cpp:399] pool4/3x3_s2_pool4/3x3_s2_0_split -> pool4/3x3_s2_pool4/3x3_s2_0_split_0
I0403 17:42:03.104837 14670 net.cpp:399] pool4/3x3_s2_pool4/3x3_s2_0_split -> pool4/3x3_s2_pool4/3x3_s2_0_split_1
I0403 17:42:03.104861 14670 net.cpp:399] pool4/3x3_s2_pool4/3x3_s2_0_split -> pool4/3x3_s2_pool4/3x3_s2_0_split_2
I0403 17:42:03.104882 14670 net.cpp:399] pool4/3x3_s2_pool4/3x3_s2_0_split -> pool4/3x3_s2_pool4/3x3_s2_0_split_3
I0403 17:42:03.104975 14670 net.cpp:141] Setting up pool4/3x3_s2_pool4/3x3_s2_0_split
I0403 17:42:03.105002 14670 net.cpp:148] Top shape: 24 832 7 7 (978432)
I0403 17:42:03.105020 14670 net.cpp:148] Top shape: 24 832 7 7 (978432)
I0403 17:42:03.105036 14670 net.cpp:148] Top shape: 24 832 7 7 (978432)
I0403 17:42:03.105051 14670 net.cpp:148] Top shape: 24 832 7 7 (978432)
I0403 17:42:03.105065 14670 net.cpp:156] Memory required for data: 1292125728
I0403 17:42:03.105079 14670 layer_factory.hpp:77] Creating layer inception_5a/1x1
I0403 17:42:03.105103 14670 net.cpp:91] Creating Layer inception_5a/1x1
I0403 17:42:03.105119 14670 net.cpp:425] inception_5a/1x1 <- pool4/3x3_s2_pool4/3x3_s2_0_split_0
I0403 17:42:03.105141 14670 net.cpp:399] inception_5a/1x1 -> inception_5a/1x1
I0403 17:42:03.108009 14670 net.cpp:141] Setting up inception_5a/1x1
I0403 17:42:03.108038 14670 net.cpp:148] Top shape: 24 256 7 7 (301056)
I0403 17:42:03.108054 14670 net.cpp:156] Memory required for data: 1293329952
I0403 17:42:03.108073 14670 layer_factory.hpp:77] Creating layer inception_5a/relu_1x1
I0403 17:42:03.108094 14670 net.cpp:91] Creating Layer inception_5a/relu_1x1
I0403 17:42:03.108113 14670 net.cpp:425] inception_5a/relu_1x1 <- inception_5a/1x1
I0403 17:42:03.108130 14670 net.cpp:386] inception_5a/relu_1x1 -> inception_5a/1x1 (in-place)
I0403 17:42:03.108448 14670 net.cpp:141] Setting up inception_5a/relu_1x1
I0403 17:42:03.108474 14670 net.cpp:148] Top shape: 24 256 7 7 (301056)
I0403 17:42:03.108489 14670 net.cpp:156] Memory required for data: 1294534176
I0403 17:42:03.108505 14670 layer_factory.hpp:77] Creating layer inception_5a/3x3_reduce
I0403 17:42:03.108530 14670 net.cpp:91] Creating Layer inception_5a/3x3_reduce
I0403 17:42:03.108547 14670 net.cpp:425] inception_5a/3x3_reduce <- pool4/3x3_s2_pool4/3x3_s2_0_split_1
I0403 17:42:03.108566 14670 net.cpp:399] inception_5a/3x3_reduce -> inception_5a/3x3_reduce
I0403 17:42:03.111089 14670 net.cpp:141] Setting up inception_5a/3x3_reduce
I0403 17:42:03.111119 14670 net.cpp:148] Top shape: 24 160 7 7 (188160)
I0403 17:42:03.111135 14670 net.cpp:156] Memory required for data: 1295286816
I0403 17:42:03.111155 14670 layer_factory.hpp:77] Creating layer inception_5a/relu_3x3_reduce
I0403 17:42:03.111176 14670 net.cpp:91] Creating Layer inception_5a/relu_3x3_reduce
I0403 17:42:03.111193 14670 net.cpp:425] inception_5a/relu_3x3_reduce <- inception_5a/3x3_reduce
I0403 17:42:03.111219 14670 net.cpp:386] inception_5a/relu_3x3_reduce -> inception_5a/3x3_reduce (in-place)
I0403 17:42:03.111423 14670 net.cpp:141] Setting up inception_5a/relu_3x3_reduce
I0403 17:42:03.111446 14670 net.cpp:148] Top shape: 24 160 7 7 (188160)
I0403 17:42:03.111461 14670 net.cpp:156] Memory required for data: 1296039456
I0403 17:42:03.111475 14670 layer_factory.hpp:77] Creating layer inception_5a/3x3
I0403 17:42:03.111508 14670 net.cpp:91] Creating Layer inception_5a/3x3
I0403 17:42:03.111526 14670 net.cpp:425] inception_5a/3x3 <- inception_5a/3x3_reduce
I0403 17:42:03.111548 14670 net.cpp:399] inception_5a/3x3 -> inception_5a/3x3
I0403 17:42:03.116602 14670 net.cpp:141] Setting up inception_5a/3x3
I0403 17:42:03.116632 14670 net.cpp:148] Top shape: 24 320 7 7 (376320)
I0403 17:42:03.116648 14670 net.cpp:156] Memory required for data: 1297544736
I0403 17:42:03.116667 14670 layer_factory.hpp:77] Creating layer inception_5a/relu_3x3
I0403 17:42:03.116688 14670 net.cpp:91] Creating Layer inception_5a/relu_3x3
I0403 17:42:03.116705 14670 net.cpp:425] inception_5a/relu_3x3 <- inception_5a/3x3
I0403 17:42:03.116722 14670 net.cpp:386] inception_5a/relu_3x3 -> inception_5a/3x3 (in-place)
I0403 17:42:03.117028 14670 net.cpp:141] Setting up inception_5a/relu_3x3
I0403 17:42:03.117054 14670 net.cpp:148] Top shape: 24 320 7 7 (376320)
I0403 17:42:03.117069 14670 net.cpp:156] Memory required for data: 1299050016
I0403 17:42:03.117084 14670 layer_factory.hpp:77] Creating layer inception_5a/5x5_reduce
I0403 17:42:03.117106 14670 net.cpp:91] Creating Layer inception_5a/5x5_reduce
I0403 17:42:03.117125 14670 net.cpp:425] inception_5a/5x5_reduce <- pool4/3x3_s2_pool4/3x3_s2_0_split_2
I0403 17:42:03.117148 14670 net.cpp:399] inception_5a/5x5_reduce -> inception_5a/5x5_reduce
I0403 17:42:03.118343 14670 net.cpp:141] Setting up inception_5a/5x5_reduce
I0403 17:42:03.118374 14670 net.cpp:148] Top shape: 24 32 7 7 (37632)
I0403 17:42:03.118391 14670 net.cpp:156] Memory required for data: 1299200544
I0403 17:42:03.118409 14670 layer_factory.hpp:77] Creating layer inception_5a/relu_5x5_reduce
I0403 17:42:03.118428 14670 net.cpp:91] Creating Layer inception_5a/relu_5x5_reduce
I0403 17:42:03.118444 14670 net.cpp:425] inception_5a/relu_5x5_reduce <- inception_5a/5x5_reduce
I0403 17:42:03.118461 14670 net.cpp:386] inception_5a/relu_5x5_reduce -> inception_5a/5x5_reduce (in-place)
I0403 17:42:03.118768 14670 net.cpp:141] Setting up inception_5a/relu_5x5_reduce
I0403 17:42:03.118796 14670 net.cpp:148] Top shape: 24 32 7 7 (37632)
I0403 17:42:03.118813 14670 net.cpp:156] Memory required for data: 1299351072
I0403 17:42:03.118827 14670 layer_factory.hpp:77] Creating layer inception_5a/5x5
I0403 17:42:03.118849 14670 net.cpp:91] Creating Layer inception_5a/5x5
I0403 17:42:03.118867 14670 net.cpp:425] inception_5a/5x5 <- inception_5a/5x5_reduce
I0403 17:42:03.118887 14670 net.cpp:399] inception_5a/5x5 -> inception_5a/5x5
I0403 17:42:03.120631 14670 net.cpp:141] Setting up inception_5a/5x5
I0403 17:42:03.120671 14670 net.cpp:148] Top shape: 24 128 7 7 (150528)
I0403 17:42:03.120687 14670 net.cpp:156] Memory required for data: 1299953184
I0403 17:42:03.120705 14670 layer_factory.hpp:77] Creating layer inception_5a/relu_5x5
I0403 17:42:03.120726 14670 net.cpp:91] Creating Layer inception_5a/relu_5x5
I0403 17:42:03.120744 14670 net.cpp:425] inception_5a/relu_5x5 <- inception_5a/5x5
I0403 17:42:03.120761 14670 net.cpp:386] inception_5a/relu_5x5 -> inception_5a/5x5 (in-place)
I0403 17:42:03.120956 14670 net.cpp:141] Setting up inception_5a/relu_5x5
I0403 17:42:03.120987 14670 net.cpp:148] Top shape: 24 128 7 7 (150528)
I0403 17:42:03.121004 14670 net.cpp:156] Memory required for data: 1300555296
I0403 17:42:03.121021 14670 layer_factory.hpp:77] Creating layer inception_5a/pool
I0403 17:42:03.121037 14670 net.cpp:91] Creating Layer inception_5a/pool
I0403 17:42:03.121053 14670 net.cpp:425] inception_5a/pool <- pool4/3x3_s2_pool4/3x3_s2_0_split_3
I0403 17:42:03.121074 14670 net.cpp:399] inception_5a/pool -> inception_5a/pool
I0403 17:42:03.121148 14670 net.cpp:141] Setting up inception_5a/pool
I0403 17:42:03.121172 14670 net.cpp:148] Top shape: 24 832 7 7 (978432)
I0403 17:42:03.121186 14670 net.cpp:156] Memory required for data: 1304469024
I0403 17:42:03.121201 14670 layer_factory.hpp:77] Creating layer inception_5a/pool_proj
I0403 17:42:03.121223 14670 net.cpp:91] Creating Layer inception_5a/pool_proj
I0403 17:42:03.121242 14670 net.cpp:425] inception_5a/pool_proj <- inception_5a/pool
I0403 17:42:03.121263 14670 net.cpp:399] inception_5a/pool_proj -> inception_5a/pool_proj
I0403 17:42:03.123771 14670 net.cpp:141] Setting up inception_5a/pool_proj
I0403 17:42:03.123801 14670 net.cpp:148] Top shape: 24 128 7 7 (150528)
I0403 17:42:03.123817 14670 net.cpp:156] Memory required for data: 1305071136
I0403 17:42:03.123836 14670 layer_factory.hpp:77] Creating layer inception_5a/relu_pool_proj
I0403 17:42:03.123857 14670 net.cpp:91] Creating Layer inception_5a/relu_pool_proj
I0403 17:42:03.123874 14670 net.cpp:425] inception_5a/relu_pool_proj <- inception_5a/pool_proj
I0403 17:42:03.123893 14670 net.cpp:386] inception_5a/relu_pool_proj -> inception_5a/pool_proj (in-place)
I0403 17:42:03.124198 14670 net.cpp:141] Setting up inception_5a/relu_pool_proj
I0403 17:42:03.124230 14670 net.cpp:148] Top shape: 24 128 7 7 (150528)
I0403 17:42:03.124245 14670 net.cpp:156] Memory required for data: 1305673248
I0403 17:42:03.124260 14670 layer_factory.hpp:77] Creating layer inception_5a/output
I0403 17:42:03.124279 14670 net.cpp:91] Creating Layer inception_5a/output
I0403 17:42:03.124294 14670 net.cpp:425] inception_5a/output <- inception_5a/1x1
I0403 17:42:03.124312 14670 net.cpp:425] inception_5a/output <- inception_5a/3x3
I0403 17:42:03.124328 14670 net.cpp:425] inception_5a/output <- inception_5a/5x5
I0403 17:42:03.124344 14670 net.cpp:425] inception_5a/output <- inception_5a/pool_proj
I0403 17:42:03.124363 14670 net.cpp:399] inception_5a/output -> inception_5a/output
I0403 17:42:03.124418 14670 net.cpp:141] Setting up inception_5a/output
I0403 17:42:03.124440 14670 net.cpp:148] Top shape: 24 832 7 7 (978432)
I0403 17:42:03.124455 14670 net.cpp:156] Memory required for data: 1309586976
I0403 17:42:03.124470 14670 layer_factory.hpp:77] Creating layer inception_5a/output_inception_5a/output_0_split
I0403 17:42:03.124487 14670 net.cpp:91] Creating Layer inception_5a/output_inception_5a/output_0_split
I0403 17:42:03.124510 14670 net.cpp:425] inception_5a/output_inception_5a/output_0_split <- inception_5a/output
I0403 17:42:03.124528 14670 net.cpp:399] inception_5a/output_inception_5a/output_0_split -> inception_5a/output_inception_5a/output_0_split_0
I0403 17:42:03.124549 14670 net.cpp:399] inception_5a/output_inception_5a/output_0_split -> inception_5a/output_inception_5a/output_0_split_1
I0403 17:42:03.124570 14670 net.cpp:399] inception_5a/output_inception_5a/output_0_split -> inception_5a/output_inception_5a/output_0_split_2
I0403 17:42:03.124591 14670 net.cpp:399] inception_5a/output_inception_5a/output_0_split -> inception_5a/output_inception_5a/output_0_split_3
I0403 17:42:03.124706 14670 net.cpp:141] Setting up inception_5a/output_inception_5a/output_0_split
I0403 17:42:03.124732 14670 net.cpp:148] Top shape: 24 832 7 7 (978432)
I0403 17:42:03.124749 14670 net.cpp:148] Top shape: 24 832 7 7 (978432)
I0403 17:42:03.124765 14670 net.cpp:148] Top shape: 24 832 7 7 (978432)
I0403 17:42:03.124781 14670 net.cpp:148] Top shape: 24 832 7 7 (978432)
I0403 17:42:03.124795 14670 net.cpp:156] Memory required for data: 1325241888
I0403 17:42:03.124811 14670 layer_factory.hpp:77] Creating layer inception_5b/1x1
I0403 17:42:03.124832 14670 net.cpp:91] Creating Layer inception_5b/1x1
I0403 17:42:03.124850 14670 net.cpp:425] inception_5b/1x1 <- inception_5a/output_inception_5a/output_0_split_0
I0403 17:42:03.124869 14670 net.cpp:399] inception_5b/1x1 -> inception_5b/1x1
I0403 17:42:03.128669 14670 net.cpp:141] Setting up inception_5b/1x1
I0403 17:42:03.128700 14670 net.cpp:148] Top shape: 24 384 7 7 (451584)
I0403 17:42:03.128715 14670 net.cpp:156] Memory required for data: 1327048224
I0403 17:42:03.128733 14670 layer_factory.hpp:77] Creating layer inception_5b/relu_1x1
I0403 17:42:03.128754 14670 net.cpp:91] Creating Layer inception_5b/relu_1x1
I0403 17:42:03.128772 14670 net.cpp:425] inception_5b/relu_1x1 <- inception_5b/1x1
I0403 17:42:03.128789 14670 net.cpp:386] inception_5b/relu_1x1 -> inception_5b/1x1 (in-place)
I0403 17:42:03.129106 14670 net.cpp:141] Setting up inception_5b/relu_1x1
I0403 17:42:03.129132 14670 net.cpp:148] Top shape: 24 384 7 7 (451584)
I0403 17:42:03.129147 14670 net.cpp:156] Memory required for data: 1328854560
I0403 17:42:03.129161 14670 layer_factory.hpp:77] Creating layer inception_5b/3x3_reduce
I0403 17:42:03.129184 14670 net.cpp:91] Creating Layer inception_5b/3x3_reduce
I0403 17:42:03.129201 14670 net.cpp:425] inception_5b/3x3_reduce <- inception_5a/output_inception_5a/output_0_split_1
I0403 17:42:03.129225 14670 net.cpp:399] inception_5b/3x3_reduce -> inception_5b/3x3_reduce
I0403 17:42:03.131901 14670 net.cpp:141] Setting up inception_5b/3x3_reduce
I0403 17:42:03.131933 14670 net.cpp:148] Top shape: 24 192 7 7 (225792)
I0403 17:42:03.131949 14670 net.cpp:156] Memory required for data: 1329757728
I0403 17:42:03.131968 14670 layer_factory.hpp:77] Creating layer inception_5b/relu_3x3_reduce
I0403 17:42:03.131994 14670 net.cpp:91] Creating Layer inception_5b/relu_3x3_reduce
I0403 17:42:03.132012 14670 net.cpp:425] inception_5b/relu_3x3_reduce <- inception_5b/3x3_reduce
I0403 17:42:03.132030 14670 net.cpp:386] inception_5b/relu_3x3_reduce -> inception_5b/3x3_reduce (in-place)
I0403 17:42:03.132225 14670 net.cpp:141] Setting up inception_5b/relu_3x3_reduce
I0403 17:42:03.132251 14670 net.cpp:148] Top shape: 24 192 7 7 (225792)
I0403 17:42:03.132266 14670 net.cpp:156] Memory required for data: 1330660896
I0403 17:42:03.132282 14670 layer_factory.hpp:77] Creating layer inception_5b/3x3
I0403 17:42:03.132302 14670 net.cpp:91] Creating Layer inception_5b/3x3
I0403 17:42:03.132318 14670 net.cpp:425] inception_5b/3x3 <- inception_5b/3x3_reduce
I0403 17:42:03.132339 14670 net.cpp:399] inception_5b/3x3 -> inception_5b/3x3
I0403 17:42:03.139127 14670 net.cpp:141] Setting up inception_5b/3x3
I0403 17:42:03.139165 14670 net.cpp:148] Top shape: 24 384 7 7 (451584)
I0403 17:42:03.139183 14670 net.cpp:156] Memory required for data: 1332467232
I0403 17:42:03.139201 14670 layer_factory.hpp:77] Creating layer inception_5b/relu_3x3
I0403 17:42:03.139225 14670 net.cpp:91] Creating Layer inception_5b/relu_3x3
I0403 17:42:03.139242 14670 net.cpp:425] inception_5b/relu_3x3 <- inception_5b/3x3
I0403 17:42:03.139262 14670 net.cpp:386] inception_5b/relu_3x3 -> inception_5b/3x3 (in-place)
I0403 17:42:03.139564 14670 net.cpp:141] Setting up inception_5b/relu_3x3
I0403 17:42:03.139590 14670 net.cpp:148] Top shape: 24 384 7 7 (451584)
I0403 17:42:03.139605 14670 net.cpp:156] Memory required for data: 1334273568
I0403 17:42:03.139621 14670 layer_factory.hpp:77] Creating layer inception_5b/5x5_reduce
I0403 17:42:03.139659 14670 net.cpp:91] Creating Layer inception_5b/5x5_reduce
I0403 17:42:03.139678 14670 net.cpp:425] inception_5b/5x5_reduce <- inception_5a/output_inception_5a/output_0_split_2
I0403 17:42:03.139701 14670 net.cpp:399] inception_5b/5x5_reduce -> inception_5b/5x5_reduce
I0403 17:42:03.140995 14670 net.cpp:141] Setting up inception_5b/5x5_reduce
I0403 17:42:03.141023 14670 net.cpp:148] Top shape: 24 48 7 7 (56448)
I0403 17:42:03.141039 14670 net.cpp:156] Memory required for data: 1334499360
I0403 17:42:03.141058 14670 layer_factory.hpp:77] Creating layer inception_5b/relu_5x5_reduce
I0403 17:42:03.141079 14670 net.cpp:91] Creating Layer inception_5b/relu_5x5_reduce
I0403 17:42:03.141096 14670 net.cpp:425] inception_5b/relu_5x5_reduce <- inception_5b/5x5_reduce
I0403 17:42:03.141114 14670 net.cpp:386] inception_5b/relu_5x5_reduce -> inception_5b/5x5_reduce (in-place)
I0403 17:42:03.141494 14670 net.cpp:141] Setting up inception_5b/relu_5x5_reduce
I0403 17:42:03.141520 14670 net.cpp:148] Top shape: 24 48 7 7 (56448)
I0403 17:42:03.141535 14670 net.cpp:156] Memory required for data: 1334725152
I0403 17:42:03.141551 14670 layer_factory.hpp:77] Creating layer inception_5b/5x5
I0403 17:42:03.141571 14670 net.cpp:91] Creating Layer inception_5b/5x5
I0403 17:42:03.141588 14670 net.cpp:425] inception_5b/5x5 <- inception_5b/5x5_reduce
I0403 17:42:03.141607 14670 net.cpp:399] inception_5b/5x5 -> inception_5b/5x5
I0403 17:42:03.143703 14670 net.cpp:141] Setting up inception_5b/5x5
I0403 17:42:03.143731 14670 net.cpp:148] Top shape: 24 128 7 7 (150528)
I0403 17:42:03.143748 14670 net.cpp:156] Memory required for data: 1335327264
I0403 17:42:03.143765 14670 layer_factory.hpp:77] Creating layer inception_5b/relu_5x5
I0403 17:42:03.143785 14670 net.cpp:91] Creating Layer inception_5b/relu_5x5
I0403 17:42:03.143802 14670 net.cpp:425] inception_5b/relu_5x5 <- inception_5b/5x5
I0403 17:42:03.143821 14670 net.cpp:386] inception_5b/relu_5x5 -> inception_5b/5x5 (in-place)
I0403 17:42:03.144021 14670 net.cpp:141] Setting up inception_5b/relu_5x5
I0403 17:42:03.144047 14670 net.cpp:148] Top shape: 24 128 7 7 (150528)
I0403 17:42:03.144062 14670 net.cpp:156] Memory required for data: 1335929376
I0403 17:42:03.144078 14670 layer_factory.hpp:77] Creating layer inception_5b/pool
I0403 17:42:03.144094 14670 net.cpp:91] Creating Layer inception_5b/pool
I0403 17:42:03.144111 14670 net.cpp:425] inception_5b/pool <- inception_5a/output_inception_5a/output_0_split_3
I0403 17:42:03.144131 14670 net.cpp:399] inception_5b/pool -> inception_5b/pool
I0403 17:42:03.144207 14670 net.cpp:141] Setting up inception_5b/pool
I0403 17:42:03.144230 14670 net.cpp:148] Top shape: 24 832 7 7 (978432)
I0403 17:42:03.144245 14670 net.cpp:156] Memory required for data: 1339843104
I0403 17:42:03.144260 14670 layer_factory.hpp:77] Creating layer inception_5b/pool_proj
I0403 17:42:03.144286 14670 net.cpp:91] Creating Layer inception_5b/pool_proj
I0403 17:42:03.144304 14670 net.cpp:425] inception_5b/pool_proj <- inception_5b/pool
I0403 17:42:03.144325 14670 net.cpp:399] inception_5b/pool_proj -> inception_5b/pool_proj
I0403 17:42:03.146663 14670 net.cpp:141] Setting up inception_5b/pool_proj
I0403 17:42:03.146693 14670 net.cpp:148] Top shape: 24 128 7 7 (150528)
I0403 17:42:03.146709 14670 net.cpp:156] Memory required for data: 1340445216
I0403 17:42:03.146728 14670 layer_factory.hpp:77] Creating layer inception_5b/relu_pool_proj
I0403 17:42:03.146749 14670 net.cpp:91] Creating Layer inception_5b/relu_pool_proj
I0403 17:42:03.146766 14670 net.cpp:425] inception_5b/relu_pool_proj <- inception_5b/pool_proj
I0403 17:42:03.146785 14670 net.cpp:386] inception_5b/relu_pool_proj -> inception_5b/pool_proj (in-place)
I0403 17:42:03.147096 14670 net.cpp:141] Setting up inception_5b/relu_pool_proj
I0403 17:42:03.147122 14670 net.cpp:148] Top shape: 24 128 7 7 (150528)
I0403 17:42:03.147137 14670 net.cpp:156] Memory required for data: 1341047328
I0403 17:42:03.147152 14670 layer_factory.hpp:77] Creating layer inception_5b/output
I0403 17:42:03.147172 14670 net.cpp:91] Creating Layer inception_5b/output
I0403 17:42:03.147202 14670 net.cpp:425] inception_5b/output <- inception_5b/1x1
I0403 17:42:03.147220 14670 net.cpp:425] inception_5b/output <- inception_5b/3x3
I0403 17:42:03.147238 14670 net.cpp:425] inception_5b/output <- inception_5b/5x5
I0403 17:42:03.147255 14670 net.cpp:425] inception_5b/output <- inception_5b/pool_proj
I0403 17:42:03.147272 14670 net.cpp:399] inception_5b/output -> inception_5b/output
I0403 17:42:03.147327 14670 net.cpp:141] Setting up inception_5b/output
I0403 17:42:03.147351 14670 net.cpp:148] Top shape: 24 1024 7 7 (1204224)
I0403 17:42:03.147366 14670 net.cpp:156] Memory required for data: 1345864224
I0403 17:42:03.147379 14670 layer_factory.hpp:77] Creating layer pool5/7x7_s1
I0403 17:42:03.147397 14670 net.cpp:91] Creating Layer pool5/7x7_s1
I0403 17:42:03.147413 14670 net.cpp:425] pool5/7x7_s1 <- inception_5b/output
I0403 17:42:03.147434 14670 net.cpp:399] pool5/7x7_s1 -> pool5/7x7_s1
I0403 17:42:03.147656 14670 net.cpp:141] Setting up pool5/7x7_s1
I0403 17:42:03.147681 14670 net.cpp:148] Top shape: 24 1024 1 1 (24576)
I0403 17:42:03.147699 14670 net.cpp:156] Memory required for data: 1345962528
I0403 17:42:03.147714 14670 layer_factory.hpp:77] Creating layer pool5/drop_7x7_s1
I0403 17:42:03.147732 14670 net.cpp:91] Creating Layer pool5/drop_7x7_s1
I0403 17:42:03.147749 14670 net.cpp:425] pool5/drop_7x7_s1 <- pool5/7x7_s1
I0403 17:42:03.147768 14670 net.cpp:386] pool5/drop_7x7_s1 -> pool5/7x7_s1 (in-place)
I0403 17:42:03.147819 14670 net.cpp:141] Setting up pool5/drop_7x7_s1
I0403 17:42:03.147841 14670 net.cpp:148] Top shape: 24 1024 1 1 (24576)
I0403 17:42:03.147856 14670 net.cpp:156] Memory required for data: 1346060832
I0403 17:42:03.147871 14670 layer_factory.hpp:77] Creating layer loss3/classifier_plantvillage
I0403 17:42:03.147892 14670 net.cpp:91] Creating Layer loss3/classifier_plantvillage
I0403 17:42:03.147909 14670 net.cpp:425] loss3/classifier_plantvillage <- pool5/7x7_s1
I0403 17:42:03.147930 14670 net.cpp:399] loss3/classifier_plantvillage -> loss3/classifier_plantvillage
I0403 17:42:03.148407 14670 net.cpp:141] Setting up loss3/classifier_plantvillage
I0403 17:42:03.148432 14670 net.cpp:148] Top shape: 24 38 (912)
I0403 17:42:03.148447 14670 net.cpp:156] Memory required for data: 1346064480
I0403 17:42:03.148466 14670 layer_factory.hpp:77] Creating layer loss3/classifier_plantvillage_loss3/classifier_plantvillage_0_split
I0403 17:42:03.148484 14670 net.cpp:91] Creating Layer loss3/classifier_plantvillage_loss3/classifier_plantvillage_0_split
I0403 17:42:03.148502 14670 net.cpp:425] loss3/classifier_plantvillage_loss3/classifier_plantvillage_0_split <- loss3/classifier_plantvillage
I0403 17:42:03.148524 14670 net.cpp:399] loss3/classifier_plantvillage_loss3/classifier_plantvillage_0_split -> loss3/classifier_plantvillage_loss3/classifier_plantvillage_0_split_0
I0403 17:42:03.148545 14670 net.cpp:399] loss3/classifier_plantvillage_loss3/classifier_plantvillage_0_split -> loss3/classifier_plantvillage_loss3/classifier_plantvillage_0_split_1
I0403 17:42:03.148566 14670 net.cpp:399] loss3/classifier_plantvillage_loss3/classifier_plantvillage_0_split -> loss3/classifier_plantvillage_loss3/classifier_plantvillage_0_split_2
I0403 17:42:03.148586 14670 net.cpp:399] loss3/classifier_plantvillage_loss3/classifier_plantvillage_0_split -> loss3/classifier_plantvillage_loss3/classifier_plantvillage_0_split_3
I0403 17:42:03.148690 14670 net.cpp:141] Setting up loss3/classifier_plantvillage_loss3/classifier_plantvillage_0_split
I0403 17:42:03.148716 14670 net.cpp:148] Top shape: 24 38 (912)
I0403 17:42:03.148733 14670 net.cpp:148] Top shape: 24 38 (912)
I0403 17:42:03.148749 14670 net.cpp:148] Top shape: 24 38 (912)
I0403 17:42:03.148764 14670 net.cpp:148] Top shape: 24 38 (912)
I0403 17:42:03.148778 14670 net.cpp:156] Memory required for data: 1346079072
I0403 17:42:03.148793 14670 layer_factory.hpp:77] Creating layer loss1/loss
I0403 17:42:03.148815 14670 net.cpp:91] Creating Layer loss1/loss
I0403 17:42:03.148833 14670 net.cpp:425] loss1/loss <- loss1/classifier_plantvillage_loss1/classifier_plantvillage_0_split_0
I0403 17:42:03.148869 14670 net.cpp:425] loss1/loss <- label_data_1_split_0
…
