…
I0403 17:56:04.888435 15543 net.cpp:313] The NetState phase (1) differed from the phase (0) specified by a rule in layer data
I0403 17:56:04.889598 15543 net.cpp:49] Initializing net from parameters: 
state {
  phase: TEST
}
layer {
  name: "data"
  type: "Data"
  top: "data"
  top: "label"
  include {
    phase: TEST
  }
  transform_param {
    mirror: false
    crop_size: 224
    mean_file: "/home/mohanty/data/final_dataset/lmdb/grayscale-60-40/mean.binaryproto"
  }
  data_param {
    source: "/home/mohanty/data/final_dataset/lmdb/grayscale-60-40/test_db"
    batch_size: 24
    backend: LMDB
  }
}
layer {
  name: "conv1/7x7_s2"
  type: "Convolution"
  bottom: "data"
  top: "conv1/7x7_s2"
  param {
    lr_mult: 1
    decay_mult: 1
  }
  param {
    lr_mult: 2
    decay_mult: 0
  }
  convolution_param {
    num_output: 64
    pad: 3
    kernel_size: 7
    stride: 2
    weight_filler {
      type: "xavier"
      std: 0.1
    }
    bias_filler {
      type: "constant"
      value: 0.2
    }
  }
}
layer {
  name: "conv1/relu_7x7"
  type: "ReLU"
  bottom: "conv1/7x7_s2"
  top: "conv1/7x7_s2"
}
layer {
  name: "pool1/3x3_s2"
  type: "Pooling"
  bottom: "conv1/7x7_s2"
  top: "pool1/3x3_s2"
  pooling_param {
    pool: MAX
    kernel_size: 3
    stride: 2
  }
}
layer {
  name: "pool1/norm1"
  type: "LRN"
  bottom: "pool1/3x3_s2"
  top: "pool1/norm1"
  lrn_param {
    local_size: 5
    alpha: 0.0001
    beta: 0.75
  }
}
layer {
  name: "conv2/3x3_reduce"
  type: "Convolution"
  bottom: "pool1/norm1"
  top: "conv2/3x3_reduce"
  param {
    lr_mult: 1
    decay_mult: 1
  }
  param {
    lr_mult: 2
    decay_mult: 0
  }
  convolution_param {
    num_output: 64
    kernel_size: 1
    weight_filler {
      type: "xavier"
      std: 0.1
    }
    bias_filler {
      type: "constant"
      value: 0.2
    }
  }
}
layer {
  name: "conv2/relu_3x3_reduce"
  type: "ReLU"
  bottom: "conv2/3x3_reduce"
  top: "conv2/3x3_reduce"
}
layer {
  name: "conv2/3x3"
  type: "Convolution"
  bottom: "conv2/3x3_reduce"
  top: "conv2/3x3"
  param {
    lr_mult: 1
    decay_mult: 1
  }
  param {
    lr_mult: 2
    decay_mult: 0
  }
  convolution_param {
    num_output: 192
    pad: 1
    kernel_size: 3
    weight_filler {
      type: "xavier"
      std: 0.03
    }
    bias_filler {
      type: "constant"
      value: 0.2
    }
  }
}
layer {
  name: "conv2/relu_3x3"
  type: "ReLU"
  bottom: "conv2/3x3"
  top: "conv2/3x3"
}
layer {
  name: "conv2/norm2"
  type: "LRN"
  bottom: "conv2/3x3"
  top: "conv2/norm2"
  lrn_param {
    local_size: 5
    alpha: 0.0001
    beta: 0.75
  }
}
layer {
  name: "pool2/3x3_s2"
  type: "Pooling"
  bottom: "conv2/norm2"
  top: "pool2/3x3_s2"
  pooling_param {
    pool: MAX
    kernel_size: 3
    stride: 2
  }
}
layer {
  name: "inception_3a/1x1"
  type: "Convolution"
  bottom: "pool2/3x3_s2"
  top: "inception_3a/1x1"
  param {
    lr_mult: 1
    decay_mult: 1
  }
  param {
    lr_mult: 2
    decay_mult: 0
  }
  convolution_param {
    num_output: 64
    kernel_size: 1
    weight_filler {
      type: "xavier"
      std: 0.03
    }
    bias_filler {
      type: "constant"
      value: 0.2
    }
  }
}
layer {
  name: "inception_3a/relu_1x1"
  type: "ReLU"
  bottom: "inception_3a/1x1"
  top: "inception_3a/1x1"
}
layer {
  name: "inception_3a/3x3_reduce"
  type: "Convolution"
  bottom: "pool2/3x3_s2"
  top: "inception_3a/3x3_reduce"
  param {
    lr_mult: 1
    decay_mult: 1
  }
  param {
    lr_mult: 2
    decay_mult: 0
  }
  convolution_param {
    num_output: 96
    kernel_size: 1
    weight_filler {
      type: "xavier"
      std: 0.09
    }
    bias_filler {
      type: "constant"
      value: 0.2
    }
  }
}
layer {
  name: "inception_3a/relu_3x3_reduce"
  type: "ReLU"
  bottom: "inception_3a/3x3_reduce"
  top: "inception_3a/3x3_reduce"
}
layer {
  name: "inception_3a/3x3"
  type: "Convolution"
  bottom: "inception_3a/3x3_reduce"
  top: "inception_3a/3x3"
  param {
    lr_mult: 1
    decay_mult: 1
  }
  param {
    lr_mult: 2
    decay_mult: 0
  }
  convolution_param {
    num_output: 128
    pad: 1
    kernel_size: 3
    weight_filler {
      type: "xavier"
      std: 0.03
    }
    bias_filler {
      type: "constant"
      value: 0.2
    }
  }
}
layer {
  name: "inception_3a/relu_3x3"
  type: "ReLU"
  bottom: "inception_3a/3x3"
  top: "inception_3a/3x3"
}
layer {
  name: "inception_3a/5x5_reduce"
  type: "Convolution"
  bottom: "pool2/3x3_s2"
  top: "inception_3a/5x5_reduce"
  param {
    lr_mult: 1
    decay_mult: 1
  }
  param {
    lr_mult: 2
    decay_mult: 0
  }
  convolution_param {
    num_output: 16
    kernel_size: 1
    weight_filler {
      type: "xavier"
      std: 0.2
    }
    bias_filler {
      type: "constant"
      value: 0.2
    }
  }
}
layer {
  name: "inception_3a/relu_5x5_reduce"
  type: "ReLU"
  bottom: "inception_3a/5x5_reduce"
  top: "inception_3a/5x5_reduce"
}
layer {
  name: "inception_3a/5x5"
  type: "Convolution"
  bottom: "inception_3a/5x5_reduce"
  top: "inception_3a/5x5"
  param {
    lr_mult: 1
    decay_mult: 1
  }
  param {
    lr_mult: 2
    decay_mult: 0
  }
  convolution_param {
    num_output: 32
    pad: 2
    kernel_size: 5
    weight_filler {
      type: "xavier"
      std: 0.03
    }
    bias_filler {
      type: "constant"
      value: 0.2
    }
  }
}
layer {
  name: "inception_3a/relu_5x5"
  type: "ReLU"
  bottom: "inception_3a/5x5"
  top: "inception_3a/5x5"
}
layer {
  name: "inception_3a/pool"
  type: "Pooling"
  bottom: "pool2/3x3_s2"
  top: "inception_3a/pool"
  pooling_param {
    pool: MAX
    kernel_size: 3
    stride: 1
    pad: 1
  }
}
layer {
  name: "inception_3a/pool_proj"
  type: "Convolution"
  bottom: "inception_3a/pool"
  top: "inception_3a/pool_proj"
  param {
    lr_mult: 1
    decay_mult: 1
  }
  param {
    lr_mult: 2
    decay_mult: 0
  }
  convolution_param {
    num_output: 32
    kernel_size: 1
    weight_filler {
      type: "xavier"
      std: 0.1
    }
    bias_filler {
      type: "constant"
      value: 0.2
    }
  }
}
layer {
  name: "inception_3a/relu_pool_proj"
  type: "ReLU"
  bottom: "inception_3a/pool_proj"
  top: "inception_3a/pool_proj"
}
layer {
  name: "inception_3a/output"
  type: "Concat"
  bottom: "inception_3a/1x1"
  bottom: "inception_3a/3x3"
  bottom: "inception_3a/5x5"
  bottom: "inception_3a/pool_proj"
  top: "inception_3a/output"
}
layer {
  name: "inception_3b/1x1"
  type: "Convolution"
  bottom: "inception_3a/output"
  top: "inception_3b/1x1"
  param {
    lr_mult: 1
    decay_mult: 1
  }
  param {
    lr_mult: 2
    decay_mult: 0
  }
  convolution_param {
    num_output: 128
    kernel_size: 1
    weight_filler {
      type: "xavier"
      std: 0.03
    }
    bias_filler {
      type: "constant"
      value: 0.2
    }
  }
}
layer {
  name: "inception_3b/relu_1x1"
  type: "ReLU"
  bottom: "inception_3b/1x1"
  top: "inception_3b/1x1"
}
layer {
  name: "inception_3b/3x3_reduce"
  type: "Convolution"
  bottom: "inception_3a/output"
  top: "inception_3b/3x3_reduce"
  param {
    lr_mult: 1
    decay_mult: 1
  }
  param {
    lr_mult: 2
    decay_mult: 0
  }
  convolution_param {
    num_output: 128
    kernel_size: 1
    weight_filler {
      type: "xavier"
      std: 0.09
    }
    bias_filler {
      type: "constant"
      value: 0.2
    }
  }
}
layer {
  name: "inception_3b/relu_3x3_reduce"
  type: "ReLU"
  bottom: "inception_3b/3x3_reduce"
  top: "inception_3b/3x3_reduce"
}
layer {
  name: "inception_3b/3x3"
  type: "Convolution"
  bottom: "inception_3b/3x3_reduce"
  top: "inception_3b/3x3"
  param {
    lr_mult: 1
    decay_mult: 1
  }
  param {
    lr_mult: 2
    decay_mult: 0
  }
  convolution_param {
    num_output: 192
    pad: 1
    kernel_size: 3
    weight_filler {
      type: "xavier"
      std: 0.03
    }
    bias_filler {
      type: "constant"
      value: 0.2
    }
  }
}
layer {
  name: "inception_3b/relu_3x3"
  type: "ReLU"
  bottom: "inception_3b/3x3"
  top: "inception_3b/3x3"
}
layer {
  name: "inception_3b/5x5_reduce"
  type: "Convolution"
  bottom: "inception_3a/output"
  top: "inception_3b/5x5_reduce"
  param {
    lr_mult: 1
    decay_mult: 1
  }
  param {
    lr_mult: 2
    decay_mult: 0
  }
  convolution_param {
    num_output: 32
    kernel_size: 1
    weight_filler {
      type: "xavier"
      std: 0.2
    }
    bias_filler {
      type: "constant"
      value: 0.2
    }
  }
}
layer {
  name: "inception_3b/relu_5x5_reduce"
  type: "ReLU"
  bottom: "inception_3b/5x5_reduce"
  top: "inception_3b/5x5_reduce"
}
layer {
  name: "inception_3b/5x5"
  type: "Convolution"
  bottom: "inception_3b/5x5_reduce"
  top: "inception_3b/5x5"
  param {
    lr_mult: 1
    decay_mult: 1
  }
  param {
    lr_mult: 2
    decay_mult: 0
  }
  convolution_param {
    num_output: 96
    pad: 2
    kernel_size: 5
    weight_filler {
      type: "xavier"
      std: 0.03
    }
    bias_filler {
      type: "constant"
      value: 0.2
    }
  }
}
layer {
  name: "inception_3b/relu_5x5"
  type: "ReLU"
  bottom: "inception_3b/5x5"
  top: "inception_3b/5x5"
}
layer {
  name: "inception_3b/pool"
  type: "Pooling"
  bottom: "inception_3a/output"
  top: "inception_3b/pool"
  pooling_param {
    pool: MAX
    kernel_size: 3
    stride: 1
    pad: 1
  }
}
layer {
  name: "inception_3b/pool_proj"
  type: "Convolution"
  bottom: "inception_3b/pool"
  top: "inception_3b/pool_proj"
  param {
    lr_mult: 1
    decay_mult: 1
  }
  param {
    lr_mult: 2
    decay_mult: 0
  }
  convolution_param {
    num_output: 64
    kernel_size: 1
    weight_filler {
      type: "xavier"
      std: 0.1
    }
    bias_filler {
      type: "constant"
      value: 0.2
    }
  }
}
layer {
  name: "inception_3b/relu_pool_proj"
  type: "ReLU"
  bottom: "inception_3b/pool_proj"
  top: "inception_3b/pool_proj"
}
layer {
  name: "inception_3b/output"
  type: "Concat"
  bottom: "inception_3b/1x1"
  bottom: "inception_3b/3x3"
  bottom: "inception_3b/5x5"
  bottom: "inception_3b/pool_proj"
  top: "inception_3b/output"
}
layer {
  name: "pool3/3x3_s2"
  type: "Pooling"
  bottom: "inception_3b/output"
  top: "pool3/3x3_s2"
  pooling_param {
    pool: MAX
    kernel_size: 3
    stride: 2
  }
}
layer {
  name: "inception_4a/1x1"
  type: "Convolution"
  bottom: "pool3/3x3_s2"
  top: "inception_4a/1x1"
  param {
    lr_mult: 1
    decay_mult: 1
  }
  param {
    lr_mult: 2
    decay_mult: 0
  }
  convolution_param {
    num_output: 192
    kernel_size: 1
    weight_filler {
      type: "xavier"
      std: 0.03
    }
    bias_filler {
      type: "constant"
      value: 0.2
    }
  }
}
layer {
  name: "inception_4a/relu_1x1"
  type: "ReLU"
  bottom: "inception_4a/1x1"
  top: "inception_4a/1x1"
}
layer {
  name: "inception_4a/3x3_reduce"
  type: "Convolution"
  bottom: "pool3/3x3_s2"
  top: "inception_4a/3x3_reduce"
  param {
    lr_mult: 1
    decay_mult: 1
  }
  param {
    lr_mult: 2
    decay_mult: 0
  }
  convolution_param {
    num_output: 96
    kernel_size: 1
    weight_filler {
      type: "xavier"
      std: 0.09
    }
    bias_filler {
      type: "constant"
      value: 0.2
    }
  }
}
layer {
  name: "inception_4a/relu_3x3_reduce"
  type: "ReLU"
  bottom: "inception_4a/3x3_reduce"
  top: "inception_4a/3x3_reduce"
}
layer {
  name: "inception_4a/3x3"
  type: "Convolution"
  bottom: "inception_4a/3x3_reduce"
  top: "inception_4a/3x3"
  param {
    lr_mult: 1
    decay_mult: 1
  }
  param {
    lr_mult: 2
    decay_mult: 0
  }
  convolution_param {
    num_output: 208
    pad: 1
    kernel_size: 3
    weight_filler {
      type: "xavier"
      std: 0.03
    }
    bias_filler {
      type: "constant"
      value: 0.2
    }
  }
}
layer {
  name: "inception_4a/relu_3x3"
  type: "ReLU"
  bottom: "inception_4a/3x3"
  top: "inception_4a/3x3"
}
layer {
  name: "inception_4a/5x5_reduce"
  type: "Convolution"
  bottom: "pool3/3x3_s2"
  top: "inception_4a/5x5_reduce"
  param {
    lr_mult: 1
    decay_mult: 1
  }
  param {
    lr_mult: 2
    decay_mult: 0
  }
  convolution_param {
    num_output: 16
    kernel_size: 1
    weight_filler {
      type: "xavier"
      std: 0.2
    }
    bias_filler {
      type: "constant"
      value: 0.2
    }
  }
}
layer {
  name: "inception_4a/relu_5x5_reduce"
  type: "ReLU"
  bottom: "inception_4a/5x5_reduce"
  top: "inception_4a/5x5_reduce"
}
layer {
  name: "inception_4a/5x5"
  type: "Convolution"
  bottom: "inception_4a/5x5_reduce"
  top: "inception_4a/5x5"
  param {
    lr_mult: 1
    decay_mult: 1
  }
  param {
    lr_mult: 2
    decay_mult: 0
  }
  convolution_param {
    num_output: 48
    pad: 2
    kernel_size: 5
    weight_filler {
      type: "xavier"
      std: 0.03
    }
    bias_filler {
      type: "constant"
      value: 0.2
    }
  }
}
layer {
  name: "inception_4a/relu_5x5"
  type: "ReLU"
  bottom: "inception_4a/5x5"
  top: "inception_4a/5x5"
}
layer {
  name: "inception_4a/pool"
  type: "Pooling"
  bottom: "pool3/3x3_s2"
  top: "inception_4a/pool"
  pooling_param {
    pool: MAX
    kernel_size: 3
    stride: 1
    pad: 1
  }
}
layer {
  name: "inception_4a/pool_proj"
  type: "Convolution"
  bottom: "inception_4a/pool"
  top: "inception_4a/pool_proj"
  param {
    lr_mult: 1
    decay_mult: 1
  }
  param {
    lr_mult: 2
    decay_mult: 0
  }
  convolution_param {
    num_output: 64
    kernel_size: 1
    weight_filler {
      type: "xavier"
      std: 0.1
    }
    bias_filler {
      type: "constant"
      value: 0.2
    }
  }
}
layer {
  name: "inception_4a/relu_pool_proj"
  type: "ReLU"
  bottom: "inception_4a/pool_proj"
  top: "inception_4a/pool_proj"
}
layer {
  name: "inception_4a/output"
  type: "Concat"
  bottom: "inception_4a/1x1"
  bottom: "inception_4a/3x3"
  bottom: "inception_4a/5x5"
  bottom: "inception_4a/pool_proj"
  top: "inception_4a/output"
}
layer {
  name: "loss1/ave_pool"
  type: "Pooling"
  bottom: "inception_4a/output"
  top: "loss1/ave_pool"
  pooling_param {
    pool: AVE
    kernel_size: 5
    stride: 3
  }
}
layer {
  name: "loss1/conv"
  type: "Convolution"
  bottom: "loss1/ave_pool"
  top: "loss1/conv"
  param {
    lr_mult: 1
    decay_mult: 1
  }
  param {
    lr_mult: 2
    decay_mult: 0
  }
  convolution_param {
    num_output: 128
    kernel_size: 1
    weight_filler {
      type: "xavier"
      std: 0.08
    }
    bias_filler {
      type: "constant"
      value: 0.2
    }
  }
}
layer {
  name: "loss1/relu_conv"
  type: "ReLU"
  bottom: "loss1/conv"
  top: "loss1/conv"
}
layer {
  name: "loss1/fc"
  type: "InnerProduct"
  bottom: "loss1/conv"
  top: "loss1/fc"
  param {
    lr_mult: 1
    decay_mult: 1
  }
  param {
    lr_mult: 2
    decay_mult: 0
  }
  inner_product_param {
    num_output: 1024
    weight_filler {
      type: "xavier"
      std: 0.02
    }
    bias_filler {
      type: "constant"
      value: 0.2
    }
  }
}
layer {
  name: "loss1/relu_fc"
  type: "ReLU"
  bottom: "loss1/fc"
  top: "loss1/fc"
}
layer {
  name: "loss1/drop_fc"
  type: "Dropout"
  bottom: "loss1/fc"
  top: "loss1/fc"
  dropout_param {
    dropout_ratio: 0.7
  }
}
layer {
  name: "loss1/classifier_plantvillage"
  type: "InnerProduct"
  bottom: "loss1/fc"
  top: "loss1/classifier_plantvillage"
  param {
    lr_mult: 1
    decay_mult: 1
  }
  param {
    lr_mult: 2
    decay_mult: 0
  }
  inner_product_param {
    num_output: 38
    weight_filler {
      type: "xavier"
      std: 0.0009765625
    }
    bias_filler {
      type: "constant"
      value: 0
    }
  }
}
layer {
  name: "inception_4b/1x1"
  type: "Convolution"
  bottom: "inception_4a/output"
  top: "inception_4b/1x1"
  param {
    lr_mult: 1
    decay_mult: 1
  }
  param {
    lr_mult: 2
    decay_mult: 0
  }
  convolution_param {
    num_output: 160
    kernel_size: 1
    weight_filler {
      type: "xavier"
      std: 0.03
    }
    bias_filler {
      type: "constant"
      value: 0.2
    }
  }
}
layer {
  name: "inception_4b/relu_1x1"
  type: "ReLU"
  bottom: "inception_4b/1x1"
  top: "inception_4b/1x1"
}
layer {
  name: "inception_4b/3x3_reduce"
  type: "Convolution"
  bottom: "inception_4a/output"
  top: "inception_4b/3x3_reduce"
  param {
    lr_mult: 1
    decay_mult: 1
  }
  param {
    lr_mult: 2
    decay_mult: 0
  }
  convolution_param {
    num_output: 112
    kernel_size: 1
    weight_filler {
      type: "xavier"
      std: 0.09
    }
    bias_filler {
      type: "constant"
      value: 0.2
    }
  }
}
layer {
  name: "inception_4b/relu_3x3_reduce"
  type: "ReLU"
  bottom: "inception_4b/3x3_reduce"
  top: "inception_4b/3x3_reduce"
}
layer {
  name: "inception_4b/3x3"
  type: "Convolution"
  bottom: "inception_4b/3x3_reduce"
  top: "inception_4b/3x3"
  param {
    lr_mult: 1
    decay_mult: 1
  }
  param {
    lr_mult: 2
    decay_mult: 0
  }
  convolution_param {
    num_output: 224
    pad: 1
    kernel_size: 3
    weight_filler {
      type: "xavier"
      std: 0.03
    }
    bias_filler {
      type: "constant"
      value: 0.2
    }
  }
}
layer {
  name: "inception_4b/relu_3x3"
  type: "ReLU"
  bottom: "inception_4b/3x3"
  top: "inception_4b/3x3"
}
layer {
  name: "inception_4b/5x5_reduce"
  type: "Convolution"
  bottom: "inception_4a/output"
  top: "inception_4b/5x5_reduce"
  param {
    lr_mult: 1
    decay_mult: 1
  }
  param {
    lr_mult: 2
    decay_mult: 0
  }
  convolution_param {
    num_output: 24
    kernel_size: 1
    weight_filler {
      type: "xavier"
      std: 0.2
    }
    bias_filler {
      type: "constant"
      value: 0.2
    }
  }
}
layer {
  name: "inception_4b/relu_5x5_reduce"
  type: "ReLU"
  bottom: "inception_4b/5x5_reduce"
  top: "inception_4b/5x5_reduce"
}
layer {
  name: "inception_4b/5x5"
  type: "Convolution"
  bottom: "inception_4b/5x5_reduce"
  top: "inception_4b/5x5"
  param {
    lr_mult: 1
    decay_mult: 1
  }
  param {
    lr_mult: 2
    decay_mult: 0
  }
  convolution_param {
    num_output: 64
    pad: 2
    kernel_size: 5
    weight_filler {
      type: "xavier"
      std: 0.03
    }
    bias_filler {
      type: "constant"
      value: 0.2
    }
  }
}
layer {
  name: "inception_4b/relu_5x5"
  type: "ReLU"
  bottom: "inception_4b/5x5"
  top: "inception_4b/5x5"
}
layer {
  name: "inception_4b/pool"
  type: "Pooling"
  bottom: "inception_4a/output"
  top: "inception_4b/pool"
  pooling_param {
    pool: MAX
    kernel_size: 3
    stride: 1
    pad: 1
  }
}
layer {
  name: "inception_4b/pool_proj"
  type: "Convolution"
  bottom: "inception_4b/pool"
  top: "inception_4b/pool_proj"
  param {
    lr_mult: 1
    decay_mult: 1
  }
  param {
    lr_mult: 2
    decay_mult: 0
  }
  convolution_param {
    num_output: 64
    kernel_size: 1
    weight_filler {
      type: "xavier"
      std: 0.1
    }
    bias_filler {
      type: "constant"
      value: 0.2
    }
  }
}
layer {
  name: "inception_4b/relu_pool_proj"
  type: "ReLU"
  bottom: "inception_4b/pool_proj"
  top: "inception_4b/pool_proj"
}
layer {
  name: "inception_4b/output"
  type: "Concat"
  bottom: "inception_4b/1x1"
  bottom: "inception_4b/3x3"
  bottom: "inception_4b/5x5"
  bottom: "inception_4b/pool_proj"
  top: "inception_4b/output"
}
layer {
  name: "inception_4c/1x1"
  type: "Convolution"
  bottom: "inception_4b/output"
  top: "inception_4c/1x1"
  param {
    lr_mult: 1
    decay_mult: 1
  }
  param {
    lr_mult: 2
    decay_mult: 0
  }
  convolution_param {
    num_output: 128
    kernel_size: 1
    weight_filler {
      type: "xavier"
      std: 0.03
    }
    bias_filler {
      type: "constant"
      value: 0.2
    }
  }
}
layer {
  name: "inception_4c/relu_1x1"
  type: "ReLU"
  bottom: "inception_4c/1x1"
  top: "inception_4c/1x1"
}
layer {
  name: "inception_4c/3x3_reduce"
  type: "Convolution"
  bottom: "inception_4b/output"
  top: "inception_4c/3x3_reduce"
  param {
    lr_mult: 1
    decay_mult: 1
  }
  param {
    lr_mult: 2
    decay_mult: 0
  }
  convolution_param {
    num_output: 128
    kernel_size: 1
    weight_filler {
      type: "xavier"
      std: 0.09
    }
    bias_filler {
      type: "constant"
      value: 0.2
    }
  }
}
layer {
  name: "inception_4c/relu_3x3_reduce"
  type: "ReLU"
  bottom: "inception_4c/3x3_reduce"
  top: "inception_4c/3x3_reduce"
}
layer {
  name: "inception_4c/3x3"
  type: "Convolution"
  bottom: "inception_4c/3x3_reduce"
  top: "inception_4c/3x3"
  param {
    lr_mult: 1
    decay_mult: 1
  }
  param {
    lr_mult: 2
    decay_mult: 0
  }
  convolution_param {
    num_output: 256
    pad: 1
    kernel_size: 3
    weight_filler {
      type: "xavier"
      std: 0.03
    }
    bias_filler {
      type: "constant"
      value: 0.2
    }
  }
}
layer {
  name: "inception_4c/relu_3x3"
  type: "ReLU"
  bottom: "inception_4c/3x3"
  top: "inception_4c/3x3"
}
layer {
  name: "inception_4c/5x5_reduce"
  type: "Convolution"
  bottom: "inception_4b/output"
  top: "inception_4c/5x5_reduce"
  param {
    lr_mult: 1
    decay_mult: 1
  }
  param {
    lr_mult: 2
    decay_mult: 0
  }
  convolution_param {
    num_output: 24
    kernel_size: 1
    weight_filler {
      type: "xavier"
      std: 0.2
    }
    bias_filler {
      type: "constant"
      value: 0.2
    }
  }
}
layer {
  name: "inception_4c/relu_5x5_reduce"
  type: "ReLU"
  bottom: "inception_4c/5x5_reduce"
  top: "inception_4c/5x5_reduce"
}
layer {
  name: "inception_4c/5x5"
  type: "Convolution"
  bottom: "inception_4c/5x5_reduce"
  top: "inception_4c/5x5"
  param {
    lr_mult: 1
    decay_mult: 1
  }
  param {
    lr_mult: 2
    decay_mult: 0
  }
  convolution_param {
    num_output: 64
    pad: 2
    kernel_size: 5
    weight_filler {
      type: "xavier"
      std: 0.03
    }
    bias_filler {
      type: "constant"
      value: 0.2
    }
  }
}
layer {
  name: "inception_4c/relu_5x5"
  type: "ReLU"
  bottom: "inception_4c/5x5"
  top: "inception_4c/5x5"
}
layer {
  name: "inception_4c/pool"
  type: "Pooling"
  bottom: "inception_4b/output"
  top: "inception_4c/pool"
  pooling_param {
    pool: MAX
    kernel_size: 3
    stride: 1
    pad: 1
  }
}
layer {
  name: "inception_4c/pool_proj"
  type: "Convolution"
  bottom: "inception_4c/pool"
  top: "inception_4c/pool_proj"
  param {
    lr_mult: 1
    decay_mult: 1
  }
  param {
    lr_mult: 2
    decay_mult: 0
  }
  convolution_param {
    num_output: 64
    kernel_size: 1
    weight_filler {
      type: "xavier"
      std: 0.1
    }
    bias_filler {
      type: "constant"
      value: 0.2
    }
  }
}
layer {
  name: "inception_4c/relu_pool_proj"
  type: "ReLU"
  bottom: "inception_4c/pool_proj"
  top: "inception_4c/pool_proj"
}
layer {
  name: "inception_4c/output"
  type: "Concat"
  bottom: "inception_4c/1x1"
  bottom: "inception_4c/3x3"
  bottom: "inception_4c/5x5"
  bottom: "inception_4c/pool_proj"
  top: "inception_4c/output"
}
layer {
  name: "inception_4d/1x1"
  type: "Convolution"
  bottom: "inception_4c/output"
  top: "inception_4d/1x1"
  param {
    lr_mult: 1
    decay_mult: 1
  }
  param {
    lr_mult: 2
    decay_mult: 0
  }
  convolution_param {
    num_output: 112
    kernel_size: 1
    weight_filler {
      type: "xavier"
      std: 0.03
    }
    bias_filler {
      type: "constant"
      value: 0.2
    }
  }
}
layer {
  name: "inception_4d/relu_1x1"
  type: "ReLU"
  bottom: "inception_4d/1x1"
  top: "inception_4d/1x1"
}
layer {
  name: "inception_4d/3x3_reduce"
  type: "Convolution"
  bottom: "inception_4c/output"
  top: "inception_4d/3x3_reduce"
  param {
    lr_mult: 1
    decay_mult: 1
  }
  param {
    lr_mult: 2
    decay_mult: 0
  }
  convolution_param {
    num_output: 144
    kernel_size: 1
    weight_filler {
      type: "xavier"
      std: 0.09
    }
    bias_filler {
      type: "constant"
      value: 0.2
    }
  }
}
layer {
  name: "inception_4d/relu_3x3_reduce"
  type: "ReLU"
  bottom: "inception_4d/3x3_reduce"
  top: "inception_4d/3x3_reduce"
}
layer {
  name: "inception_4d/3x3"
  type: "Convolution"
  bottom: "inception_4d/3x3_reduce"
  top: "inception_4d/3x3"
  param {
    lr_mult: 1
    decay_mult: 1
  }
  param {
    lr_mult: 2
    decay_mult: 0
  }
  convolution_param {
    num_output: 288
    pad: 1
    kernel_size: 3
    weight_filler {
      type: "xavier"
      std: 0.03
    }
    bias_filler {
      type: "constant"
      value: 0.2
    }
  }
}
layer {
  name: "inception_4d/relu_3x3"
  type: "ReLU"
  bottom: "inception_4d/3x3"
  top: "inception_4d/3x3"
}
layer {
  name: "inception_4d/5x5_reduce"
  type: "Convolution"
  bottom: "inception_4c/output"
  top: "inception_4d/5x5_reduce"
  param {
    lr_mult: 1
    decay_mult: 1
  }
  param {
    lr_mult: 2
    decay_mult: 0
  }
  convolution_param {
    num_output: 32
    kernel_size: 1
    weight_filler {
      type: "xavier"
      std: 0.2
    }
    bias_filler {
      type: "constant"
      value: 0.2
    }
  }
}
layer {
  name: "inception_4d/relu_5x5_reduce"
  type: "ReLU"
  bottom: "inception_4d/5x5_reduce"
  top: "inception_4d/5x5_reduce"
}
layer {
  name: "inception_4d/5x5"
  type: "Convolution"
  bottom: "inception_4d/5x5_reduce"
  top: "inception_4d/5x5"
  param {
    lr_mult: 1
    decay_mult: 1
  }
  param {
    lr_mult: 2
    decay_mult: 0
  }
  convolution_param {
    num_output: 64
    pad: 2
    kernel_size: 5
    weight_filler {
      type: "xavier"
      std: 0.03
    }
    bias_filler {
      type: "constant"
      value: 0.2
    }
  }
}
layer {
  name: "inception_4d/relu_5x5"
  type: "ReLU"
  bottom: "inception_4d/5x5"
  top: "inception_4d/5x5"
}
layer {
  name: "inception_4d/pool"
  type: "Pooling"
  bottom: "inception_4c/output"
  top: "inception_4d/pool"
  pooling_param {
    pool: MAX
    kernel_size: 3
    stride: 1
    pad: 1
  }
}
layer {
  name: "inception_4d/pool_proj"
  type: "Convolution"
  bottom: "inception_4d/pool"
  top: "inception_4d/pool_proj"
  param {
    lr_mult: 1
    decay_mult: 1
  }
  param {
    lr_mult: 2
    decay_mult: 0
  }
  convolution_param {
    num_output: 64
    kernel_size: 1
    weight_filler {
      type: "xavier"
      std: 0.1
    }
    bias_filler {
      type: "constant"
      value: 0.2
    }
  }
}
layer {
  name: "inception_4d/relu_pool_proj"
  type: "ReLU"
  bottom: "inception_4d/pool_proj"
  top: "inception_4d/pool_proj"
}
layer {
  name: "inception_4d/output"
  type: "Concat"
  bottom: "inception_4d/1x1"
  bottom: "inception_4d/3x3"
  bottom: "inception_4d/5x5"
  bottom: "inception_4d/pool_proj"
  top: "inception_4d/output"
}
layer {
  name: "loss2/ave_pool"
  type: "Pooling"
  bottom: "inception_4d/output"
  top: "loss2/ave_pool"
  pooling_param {
    pool: AVE
    kernel_size: 5
    stride: 3
  }
}
layer {
  name: "loss2/conv"
  type: "Convolution"
  bottom: "loss2/ave_pool"
  top: "loss2/conv"
  param {
    lr_mult: 1
    decay_mult: 1
  }
  param {
    lr_mult: 2
    decay_mult: 0
  }
  convolution_param {
    num_output: 128
    kernel_size: 1
    weight_filler {
      type: "xavier"
      std: 0.08
    }
    bias_filler {
      type: "constant"
      value: 0.2
    }
  }
}
layer {
  name: "loss2/relu_conv"
  type: "ReLU"
  bottom: "loss2/conv"
  top: "loss2/conv"
}
layer {
  name: "loss2/fc"
  type: "InnerProduct"
  bottom: "loss2/conv"
  top: "loss2/fc"
  param {
    lr_mult: 1
    decay_mult: 1
  }
  param {
    lr_mult: 2
    decay_mult: 0
  }
  inner_product_param {
    num_output: 1024
    weight_filler {
      type: "xavier"
      std: 0.02
    }
    bias_filler {
      type: "constant"
      value: 0.2
    }
  }
}
layer {
  name: "loss2/relu_fc"
  type: "ReLU"
  bottom: "loss2/fc"
  top: "loss2/fc"
}
layer {
  name: "loss2/drop_fc"
  type: "Dropout"
  bottom: "loss2/fc"
  top: "loss2/fc"
  dropout_param {
    dropout_ratio: 0.7
  }
}
layer {
  name: "loss2/classifier_plantvillage"
  type: "InnerProduct"
  bottom: "loss2/fc"
  top: "loss2/classifier_plantvillage"
  param {
    lr_mult: 1
    decay_mult: 1
  }
  param {
    lr_mult: 2
    decay_mult: 0
  }
  inner_product_param {
    num_output: 38
    weight_filler {
      type: "xavier"
      std: 0.0009765625
    }
    bias_filler {
      type: "constant"
      value: 0
    }
  }
}
layer {
  name: "inception_4e/1x1"
  type: "Convolution"
  bottom: "inception_4d/output"
  top: "inception_4e/1x1"
  param {
    lr_mult: 1
    decay_mult: 1
  }
  param {
    lr_mult: 2
    decay_mult: 0
  }
  convolution_param {
    num_output: 256
    kernel_size: 1
    weight_filler {
      type: "xavier"
      std: 0.03
    }
    bias_filler {
      type: "constant"
      value: 0.2
    }
  }
}
layer {
  name: "inception_4e/relu_1x1"
  type: "ReLU"
  bottom: "inception_4e/1x1"
  top: "inception_4e/1x1"
}
layer {
  name: "inception_4e/3x3_reduce"
  type: "Convolution"
  bottom: "inception_4d/output"
  top: "inception_4e/3x3_reduce"
  param {
    lr_mult: 1
    decay_mult: 1
  }
  param {
    lr_mult: 2
    decay_mult: 0
  }
  convolution_param {
    num_output: 160
    kernel_size: 1
    weight_filler {
      type: "xavier"
      std: 0.09
    }
    bias_filler {
      type: "constant"
      value: 0.2
    }
  }
}
layer {
  name: "inception_4e/relu_3x3_reduce"
  type: "ReLU"
  bottom: "inception_4e/3x3_reduce"
  top: "inception_4e/3x3_reduce"
}
layer {
  name: "inception_4e/3x3"
  type: "Convolution"
  bottom: "inception_4e/3x3_reduce"
  top: "inception_4e/3x3"
  param {
    lr_mult: 1
    decay_mult: 1
  }
  param {
    lr_mult: 2
    decay_mult: 0
  }
  convolution_param {
    num_output: 320
    pad: 1
    kernel_size: 3
    weight_filler {
      type: "xavier"
      std: 0.03
    }
    bias_filler {
      type: "constant"
      value: 0.2
    }
  }
}
layer {
  name: "inception_4e/relu_3x3"
  type: "ReLU"
  bottom: "inception_4e/3x3"
  top: "inception_4e/3x3"
}
layer {
  name: "inception_4e/5x5_reduce"
  type: "Convolution"
  bottom: "inception_4d/output"
  top: "inception_4e/5x5_reduce"
  param {
    lr_mult: 1
    decay_mult: 1
  }
  param {
    lr_mult: 2
    decay_mult: 0
  }
  convolution_param {
    num_output: 32
    kernel_size: 1
    weight_filler {
      type: "xavier"
      std: 0.2
    }
    bias_filler {
      type: "constant"
      value: 0.2
    }
  }
}
layer {
  name: "inception_4e/relu_5x5_reduce"
  type: "ReLU"
  bottom: "inception_4e/5x5_reduce"
  top: "inception_4e/5x5_reduce"
}
layer {
  name: "inception_4e/5x5"
  type: "Convolution"
  bottom: "inception_4e/5x5_reduce"
  top: "inception_4e/
I0403 17:56:04.890782 15543 layer_factory.hpp:77] Creating layer data
I0403 17:56:04.891360 15543 net.cpp:91] Creating Layer data
I0403 17:56:04.891389 15543 net.cpp:399] data -> data
I0403 17:56:04.891439 15543 net.cpp:399] data -> label
I0403 17:56:04.891475 15543 data_transformer.cpp:25] Loading mean file from: /home/mohanty/data/final_dataset/lmdb/grayscale-60-40/mean.binaryproto
I0403 17:56:04.892565 15547 db_lmdb.cpp:38] Opened lmdb /home/mohanty/data/final_dataset/lmdb/grayscale-60-40/test_db
I0403 17:56:04.904471 15543 data_layer.cpp:41] output data size: 24,3,224,224
I0403 17:56:04.931445 15543 net.cpp:141] Setting up data
I0403 17:56:04.931529 15543 net.cpp:148] Top shape: 24 3 224 224 (3612672)
I0403 17:56:04.931552 15543 net.cpp:148] Top shape: 24 (24)
I0403 17:56:04.931568 15543 net.cpp:156] Memory required for data: 14450784
I0403 17:56:04.931596 15543 layer_factory.hpp:77] Creating layer label_data_1_split
I0403 17:56:04.931623 15543 net.cpp:91] Creating Layer label_data_1_split
I0403 17:56:04.931641 15543 net.cpp:425] label_data_1_split <- label
I0403 17:56:04.931674 15543 net.cpp:399] label_data_1_split -> label_data_1_split_0
I0403 17:56:04.931704 15543 net.cpp:399] label_data_1_split -> label_data_1_split_1
I0403 17:56:04.931726 15543 net.cpp:399] label_data_1_split -> label_data_1_split_2
I0403 17:56:04.931747 15543 net.cpp:399] label_data_1_split -> label_data_1_split_3
I0403 17:56:04.931766 15543 net.cpp:399] label_data_1_split -> label_data_1_split_4
I0403 17:56:04.931787 15543 net.cpp:399] label_data_1_split -> label_data_1_split_5
I0403 17:56:04.931807 15543 net.cpp:399] label_data_1_split -> label_data_1_split_6
I0403 17:56:04.931828 15543 net.cpp:399] label_data_1_split -> label_data_1_split_7
I0403 17:56:04.931848 15543 net.cpp:399] label_data_1_split -> label_data_1_split_8
I0403 17:56:04.931867 15543 net.cpp:399] label_data_1_split -> label_data_1_split_9
I0403 17:56:04.932008 15543 net.cpp:141] Setting up label_data_1_split
I0403 17:56:04.932032 15543 net.cpp:148] Top shape: 24 (24)
I0403 17:56:04.932050 15543 net.cpp:148] Top shape: 24 (24)
I0403 17:56:04.932067 15543 net.cpp:148] Top shape: 24 (24)
I0403 17:56:04.932083 15543 net.cpp:148] Top shape: 24 (24)
I0403 17:56:04.932099 15543 net.cpp:148] Top shape: 24 (24)
I0403 17:56:04.932116 15543 net.cpp:148] Top shape: 24 (24)
I0403 17:56:04.932132 15543 net.cpp:148] Top shape: 24 (24)
I0403 17:56:04.932148 15543 net.cpp:148] Top shape: 24 (24)
I0403 17:56:04.932164 15543 net.cpp:148] Top shape: 24 (24)
I0403 17:56:04.932183 15543 net.cpp:148] Top shape: 24 (24)
I0403 17:56:04.932227 15543 net.cpp:156] Memory required for data: 14451744
I0403 17:56:04.932245 15543 layer_factory.hpp:77] Creating layer conv1/7x7_s2
I0403 17:56:04.932276 15543 net.cpp:91] Creating Layer conv1/7x7_s2
I0403 17:56:04.932296 15543 net.cpp:425] conv1/7x7_s2 <- data
I0403 17:56:04.932317 15543 net.cpp:399] conv1/7x7_s2 -> conv1/7x7_s2
I0403 17:56:05.073307 15543 net.cpp:141] Setting up conv1/7x7_s2
I0403 17:56:05.073395 15543 net.cpp:148] Top shape: 24 64 112 112 (19267584)
I0403 17:56:05.073412 15543 net.cpp:156] Memory required for data: 91522080
I0403 17:56:05.073444 15543 layer_factory.hpp:77] Creating layer conv1/relu_7x7
I0403 17:56:05.073472 15543 net.cpp:91] Creating Layer conv1/relu_7x7
I0403 17:56:05.073490 15543 net.cpp:425] conv1/relu_7x7 <- conv1/7x7_s2
I0403 17:56:05.073510 15543 net.cpp:386] conv1/relu_7x7 -> conv1/7x7_s2 (in-place)
I0403 17:56:05.073770 15543 net.cpp:141] Setting up conv1/relu_7x7
I0403 17:56:05.073798 15543 net.cpp:148] Top shape: 24 64 112 112 (19267584)
I0403 17:56:05.073814 15543 net.cpp:156] Memory required for data: 168592416
I0403 17:56:05.073830 15543 layer_factory.hpp:77] Creating layer pool1/3x3_s2
I0403 17:56:05.073855 15543 net.cpp:91] Creating Layer pool1/3x3_s2
I0403 17:56:05.073873 15543 net.cpp:425] pool1/3x3_s2 <- conv1/7x7_s2
I0403 17:56:05.073891 15543 net.cpp:399] pool1/3x3_s2 -> pool1/3x3_s2
I0403 17:56:05.074002 15543 net.cpp:141] Setting up pool1/3x3_s2
I0403 17:56:05.074028 15543 net.cpp:148] Top shape: 24 64 56 56 (4816896)
I0403 17:56:05.074044 15543 net.cpp:156] Memory required for data: 187860000
I0403 17:56:05.074059 15543 layer_factory.hpp:77] Creating layer pool1/norm1
I0403 17:56:05.074084 15543 net.cpp:91] Creating Layer pool1/norm1
I0403 17:56:05.074102 15543 net.cpp:425] pool1/norm1 <- pool1/3x3_s2
I0403 17:56:05.074120 15543 net.cpp:399] pool1/norm1 -> pool1/norm1
I0403 17:56:05.074407 15543 net.cpp:141] Setting up pool1/norm1
I0403 17:56:05.074434 15543 net.cpp:148] Top shape: 24 64 56 56 (4816896)
I0403 17:56:05.074450 15543 net.cpp:156] Memory required for data: 207127584
I0403 17:56:05.074466 15543 layer_factory.hpp:77] Creating layer conv2/3x3_reduce
I0403 17:56:05.074491 15543 net.cpp:91] Creating Layer conv2/3x3_reduce
I0403 17:56:05.074508 15543 net.cpp:425] conv2/3x3_reduce <- pool1/norm1
I0403 17:56:05.074527 15543 net.cpp:399] conv2/3x3_reduce -> conv2/3x3_reduce
I0403 17:56:05.076004 15543 net.cpp:141] Setting up conv2/3x3_reduce
I0403 17:56:05.076033 15543 net.cpp:148] Top shape: 24 64 56 56 (4816896)
I0403 17:56:05.076050 15543 net.cpp:156] Memory required for data: 226395168
I0403 17:56:05.076071 15543 layer_factory.hpp:77] Creating layer conv2/relu_3x3_reduce
I0403 17:56:05.076091 15543 net.cpp:91] Creating Layer conv2/relu_3x3_reduce
I0403 17:56:05.076107 15543 net.cpp:425] conv2/relu_3x3_reduce <- conv2/3x3_reduce
I0403 17:56:05.076128 15543 net.cpp:386] conv2/relu_3x3_reduce -> conv2/3x3_reduce (in-place)
I0403 17:56:05.076403 15543 net.cpp:141] Setting up conv2/relu_3x3_reduce
I0403 17:56:05.076431 15543 net.cpp:148] Top shape: 24 64 56 56 (4816896)
I0403 17:56:05.076447 15543 net.cpp:156] Memory required for data: 245662752
I0403 17:56:05.076462 15543 layer_factory.hpp:77] Creating layer conv2/3x3
I0403 17:56:05.076486 15543 net.cpp:91] Creating Layer conv2/3x3
I0403 17:56:05.076505 15543 net.cpp:425] conv2/3x3 <- conv2/3x3_reduce
I0403 17:56:05.076529 15543 net.cpp:399] conv2/3x3 -> conv2/3x3
I0403 17:56:05.078899 15543 net.cpp:141] Setting up conv2/3x3
I0403 17:56:05.078933 15543 net.cpp:148] Top shape: 24 192 56 56 (14450688)
I0403 17:56:05.078954 15543 net.cpp:156] Memory required for data: 303465504
I0403 17:56:05.078979 15543 layer_factory.hpp:77] Creating layer conv2/relu_3x3
I0403 17:56:05.078999 15543 net.cpp:91] Creating Layer conv2/relu_3x3
I0403 17:56:05.079015 15543 net.cpp:425] conv2/relu_3x3 <- conv2/3x3
I0403 17:56:05.079035 15543 net.cpp:386] conv2/relu_3x3 -> conv2/3x3 (in-place)
I0403 17:56:05.079216 15543 net.cpp:141] Setting up conv2/relu_3x3
I0403 17:56:05.079241 15543 net.cpp:148] Top shape: 24 192 56 56 (14450688)
I0403 17:56:05.079290 15543 net.cpp:156] Memory required for data: 361268256
I0403 17:56:05.079308 15543 layer_factory.hpp:77] Creating layer conv2/norm2
I0403 17:56:05.079329 15543 net.cpp:91] Creating Layer conv2/norm2
I0403 17:56:05.079345 15543 net.cpp:425] conv2/norm2 <- conv2/3x3
I0403 17:56:05.079365 15543 net.cpp:399] conv2/norm2 -> conv2/norm2
I0403 17:56:05.079718 15543 net.cpp:141] Setting up conv2/norm2
I0403 17:56:05.079748 15543 net.cpp:148] Top shape: 24 192 56 56 (14450688)
I0403 17:56:05.079766 15543 net.cpp:156] Memory required for data: 419071008
I0403 17:56:05.079780 15543 layer_factory.hpp:77] Creating layer pool2/3x3_s2
I0403 17:56:05.079798 15543 net.cpp:91] Creating Layer pool2/3x3_s2
I0403 17:56:05.079814 15543 net.cpp:425] pool2/3x3_s2 <- conv2/norm2
I0403 17:56:05.079833 15543 net.cpp:399] pool2/3x3_s2 -> pool2/3x3_s2
I0403 17:56:05.079890 15543 net.cpp:141] Setting up pool2/3x3_s2
I0403 17:56:05.079913 15543 net.cpp:148] Top shape: 24 192 28 28 (3612672)
I0403 17:56:05.079929 15543 net.cpp:156] Memory required for data: 433521696
I0403 17:56:05.079944 15543 layer_factory.hpp:77] Creating layer pool2/3x3_s2_pool2/3x3_s2_0_split
I0403 17:56:05.079970 15543 net.cpp:91] Creating Layer pool2/3x3_s2_pool2/3x3_s2_0_split
I0403 17:56:05.079988 15543 net.cpp:425] pool2/3x3_s2_pool2/3x3_s2_0_split <- pool2/3x3_s2
I0403 17:56:05.080005 15543 net.cpp:399] pool2/3x3_s2_pool2/3x3_s2_0_split -> pool2/3x3_s2_pool2/3x3_s2_0_split_0
I0403 17:56:05.080025 15543 net.cpp:399] pool2/3x3_s2_pool2/3x3_s2_0_split -> pool2/3x3_s2_pool2/3x3_s2_0_split_1
I0403 17:56:05.080046 15543 net.cpp:399] pool2/3x3_s2_pool2/3x3_s2_0_split -> pool2/3x3_s2_pool2/3x3_s2_0_split_2
I0403 17:56:05.080071 15543 net.cpp:399] pool2/3x3_s2_pool2/3x3_s2_0_split -> pool2/3x3_s2_pool2/3x3_s2_0_split_3
I0403 17:56:05.080145 15543 net.cpp:141] Setting up pool2/3x3_s2_pool2/3x3_s2_0_split
I0403 17:56:05.080168 15543 net.cpp:148] Top shape: 24 192 28 28 (3612672)
I0403 17:56:05.080185 15543 net.cpp:148] Top shape: 24 192 28 28 (3612672)
I0403 17:56:05.080201 15543 net.cpp:148] Top shape: 24 192 28 28 (3612672)
I0403 17:56:05.080217 15543 net.cpp:148] Top shape: 24 192 28 28 (3612672)
I0403 17:56:05.080232 15543 net.cpp:156] Memory required for data: 491324448
I0403 17:56:05.080246 15543 layer_factory.hpp:77] Creating layer inception_3a/1x1
I0403 17:56:05.080271 15543 net.cpp:91] Creating Layer inception_3a/1x1
I0403 17:56:05.080289 15543 net.cpp:425] inception_3a/1x1 <- pool2/3x3_s2_pool2/3x3_s2_0_split_0
I0403 17:56:05.080310 15543 net.cpp:399] inception_3a/1x1 -> inception_3a/1x1
I0403 17:56:05.081959 15543 net.cpp:141] Setting up inception_3a/1x1
I0403 17:56:05.081991 15543 net.cpp:148] Top shape: 24 64 28 28 (1204224)
I0403 17:56:05.082008 15543 net.cpp:156] Memory required for data: 496141344
I0403 17:56:05.082027 15543 layer_factory.hpp:77] Creating layer inception_3a/relu_1x1
I0403 17:56:05.082046 15543 net.cpp:91] Creating Layer inception_3a/relu_1x1
I0403 17:56:05.082062 15543 net.cpp:425] inception_3a/relu_1x1 <- inception_3a/1x1
I0403 17:56:05.082085 15543 net.cpp:386] inception_3a/relu_1x1 -> inception_3a/1x1 (in-place)
I0403 17:56:05.082265 15543 net.cpp:141] Setting up inception_3a/relu_1x1
I0403 17:56:05.082291 15543 net.cpp:148] Top shape: 24 64 28 28 (1204224)
I0403 17:56:05.082306 15543 net.cpp:156] Memory required for data: 500958240
I0403 17:56:05.082322 15543 layer_factory.hpp:77] Creating layer inception_3a/3x3_reduce
I0403 17:56:05.082345 15543 net.cpp:91] Creating Layer inception_3a/3x3_reduce
I0403 17:56:05.082362 15543 net.cpp:425] inception_3a/3x3_reduce <- pool2/3x3_s2_pool2/3x3_s2_0_split_1
I0403 17:56:05.082384 15543 net.cpp:399] inception_3a/3x3_reduce -> inception_3a/3x3_reduce
I0403 17:56:05.086308 15543 net.cpp:141] Setting up inception_3a/3x3_reduce
I0403 17:56:05.086344 15543 net.cpp:148] Top shape: 24 96 28 28 (1806336)
I0403 17:56:05.086361 15543 net.cpp:156] Memory required for data: 508183584
I0403 17:56:05.086385 15543 layer_factory.hpp:77] Creating layer inception_3a/relu_3x3_reduce
I0403 17:56:05.086423 15543 net.cpp:91] Creating Layer inception_3a/relu_3x3_reduce
I0403 17:56:05.086442 15543 net.cpp:425] inception_3a/relu_3x3_reduce <- inception_3a/3x3_reduce
I0403 17:56:05.086462 15543 net.cpp:386] inception_3a/relu_3x3_reduce -> inception_3a/3x3_reduce (in-place)
I0403 17:56:05.086649 15543 net.cpp:141] Setting up inception_3a/relu_3x3_reduce
I0403 17:56:05.086680 15543 net.cpp:148] Top shape: 24 96 28 28 (1806336)
I0403 17:56:05.086696 15543 net.cpp:156] Memory required for data: 515408928
I0403 17:56:05.086712 15543 layer_factory.hpp:77] Creating layer inception_3a/3x3
I0403 17:56:05.086735 15543 net.cpp:91] Creating Layer inception_3a/3x3
I0403 17:56:05.086752 15543 net.cpp:425] inception_3a/3x3 <- inception_3a/3x3_reduce
I0403 17:56:05.086771 15543 net.cpp:399] inception_3a/3x3 -> inception_3a/3x3
I0403 17:56:05.088480 15543 net.cpp:141] Setting up inception_3a/3x3
I0403 17:56:05.088510 15543 net.cpp:148] Top shape: 24 128 28 28 (2408448)
I0403 17:56:05.088527 15543 net.cpp:156] Memory required for data: 525042720
I0403 17:56:05.088546 15543 layer_factory.hpp:77] Creating layer inception_3a/relu_3x3
I0403 17:56:05.088567 15543 net.cpp:91] Creating Layer inception_3a/relu_3x3
I0403 17:56:05.088584 15543 net.cpp:425] inception_3a/relu_3x3 <- inception_3a/3x3
I0403 17:56:05.088603 15543 net.cpp:386] inception_3a/relu_3x3 -> inception_3a/3x3 (in-place)
I0403 17:56:05.088882 15543 net.cpp:141] Setting up inception_3a/relu_3x3
I0403 17:56:05.088910 15543 net.cpp:148] Top shape: 24 128 28 28 (2408448)
I0403 17:56:05.088927 15543 net.cpp:156] Memory required for data: 534676512
I0403 17:56:05.088943 15543 layer_factory.hpp:77] Creating layer inception_3a/5x5_reduce
I0403 17:56:05.088987 15543 net.cpp:91] Creating Layer inception_3a/5x5_reduce
I0403 17:56:05.089007 15543 net.cpp:425] inception_3a/5x5_reduce <- pool2/3x3_s2_pool2/3x3_s2_0_split_2
I0403 17:56:05.089030 15543 net.cpp:399] inception_3a/5x5_reduce -> inception_3a/5x5_reduce
I0403 17:56:05.090045 15543 net.cpp:141] Setting up inception_3a/5x5_reduce
I0403 17:56:05.090076 15543 net.cpp:148] Top shape: 24 16 28 28 (301056)
I0403 17:56:05.090093 15543 net.cpp:156] Memory required for data: 535880736
I0403 17:56:05.090112 15543 layer_factory.hpp:77] Creating layer inception_3a/relu_5x5_reduce
I0403 17:56:05.090134 15543 net.cpp:91] Creating Layer inception_3a/relu_5x5_reduce
I0403 17:56:05.090152 15543 net.cpp:425] inception_3a/relu_5x5_reduce <- inception_3a/5x5_reduce
I0403 17:56:05.090170 15543 net.cpp:386] inception_3a/relu_5x5_reduce -> inception_3a/5x5_reduce (in-place)
I0403 17:56:05.090481 15543 net.cpp:141] Setting up inception_3a/relu_5x5_reduce
I0403 17:56:05.090509 15543 net.cpp:148] Top shape: 24 16 28 28 (301056)
I0403 17:56:05.090525 15543 net.cpp:156] Memory required for data: 537084960
I0403 17:56:05.090540 15543 layer_factory.hpp:77] Creating layer inception_3a/5x5
I0403 17:56:05.090567 15543 net.cpp:91] Creating Layer inception_3a/5x5
I0403 17:56:05.090586 15543 net.cpp:425] inception_3a/5x5 <- inception_3a/5x5_reduce
I0403 17:56:05.090608 15543 net.cpp:399] inception_3a/5x5 -> inception_3a/5x5
I0403 17:56:05.091670 15543 net.cpp:141] Setting up inception_3a/5x5
I0403 17:56:05.091699 15543 net.cpp:148] Top shape: 24 32 28 28 (602112)
I0403 17:56:05.091717 15543 net.cpp:156] Memory required for data: 539493408
I0403 17:56:05.091735 15543 layer_factory.hpp:77] Creating layer inception_3a/relu_5x5
I0403 17:56:05.091754 15543 net.cpp:91] Creating Layer inception_3a/relu_5x5
I0403 17:56:05.091771 15543 net.cpp:425] inception_3a/relu_5x5 <- inception_3a/5x5
I0403 17:56:05.091792 15543 net.cpp:386] inception_3a/relu_5x5 -> inception_3a/5x5 (in-place)
I0403 17:56:05.091979 15543 net.cpp:141] Setting up inception_3a/relu_5x5
I0403 17:56:05.092005 15543 net.cpp:148] Top shape: 24 32 28 28 (602112)
I0403 17:56:05.092022 15543 net.cpp:156] Memory required for data: 541901856
I0403 17:56:05.092037 15543 layer_factory.hpp:77] Creating layer inception_3a/pool
I0403 17:56:05.092059 15543 net.cpp:91] Creating Layer inception_3a/pool
I0403 17:56:05.092092 15543 net.cpp:425] inception_3a/pool <- pool2/3x3_s2_pool2/3x3_s2_0_split_3
I0403 17:56:05.092111 15543 net.cpp:399] inception_3a/pool -> inception_3a/pool
I0403 17:56:05.092173 15543 net.cpp:141] Setting up inception_3a/pool
I0403 17:56:05.092198 15543 net.cpp:148] Top shape: 24 192 28 28 (3612672)
I0403 17:56:05.092214 15543 net.cpp:156] Memory required for data: 556352544
I0403 17:56:05.092229 15543 layer_factory.hpp:77] Creating layer inception_3a/pool_proj
I0403 17:56:05.092252 15543 net.cpp:91] Creating Layer inception_3a/pool_proj
I0403 17:56:05.092272 15543 net.cpp:425] inception_3a/pool_proj <- inception_3a/pool
I0403 17:56:05.092294 15543 net.cpp:399] inception_3a/pool_proj -> inception_3a/pool_proj
I0403 17:56:05.093308 15543 net.cpp:141] Setting up inception_3a/pool_proj
I0403 17:56:05.093338 15543 net.cpp:148] Top shape: 24 32 28 28 (602112)
I0403 17:56:05.093354 15543 net.cpp:156] Memory required for data: 558760992
I0403 17:56:05.093379 15543 layer_factory.hpp:77] Creating layer inception_3a/relu_pool_proj
I0403 17:56:05.093401 15543 net.cpp:91] Creating Layer inception_3a/relu_pool_proj
I0403 17:56:05.093420 15543 net.cpp:425] inception_3a/relu_pool_proj <- inception_3a/pool_proj
I0403 17:56:05.093437 15543 net.cpp:386] inception_3a/relu_pool_proj -> inception_3a/pool_proj (in-place)
I0403 17:56:05.093726 15543 net.cpp:141] Setting up inception_3a/relu_pool_proj
I0403 17:56:05.093755 15543 net.cpp:148] Top shape: 24 32 28 28 (602112)
I0403 17:56:05.093771 15543 net.cpp:156] Memory required for data: 561169440
I0403 17:56:05.093787 15543 layer_factory.hpp:77] Creating layer inception_3a/output
I0403 17:56:05.093806 15543 net.cpp:91] Creating Layer inception_3a/output
I0403 17:56:05.093822 15543 net.cpp:425] inception_3a/output <- inception_3a/1x1
I0403 17:56:05.093840 15543 net.cpp:425] inception_3a/output <- inception_3a/3x3
I0403 17:56:05.093858 15543 net.cpp:425] inception_3a/output <- inception_3a/5x5
I0403 17:56:05.093874 15543 net.cpp:425] inception_3a/output <- inception_3a/pool_proj
I0403 17:56:05.093894 15543 net.cpp:399] inception_3a/output -> inception_3a/output
I0403 17:56:05.093943 15543 net.cpp:141] Setting up inception_3a/output
I0403 17:56:05.093976 15543 net.cpp:148] Top shape: 24 256 28 28 (4816896)
I0403 17:56:05.093992 15543 net.cpp:156] Memory required for data: 580437024
I0403 17:56:05.094008 15543 layer_factory.hpp:77] Creating layer inception_3a/output_inception_3a/output_0_split
I0403 17:56:05.094027 15543 net.cpp:91] Creating Layer inception_3a/output_inception_3a/output_0_split
I0403 17:56:05.094043 15543 net.cpp:425] inception_3a/output_inception_3a/output_0_split <- inception_3a/output
I0403 17:56:05.094064 15543 net.cpp:399] inception_3a/output_inception_3a/output_0_split -> inception_3a/output_inception_3a/output_0_split_0
I0403 17:56:05.094087 15543 net.cpp:399] inception_3a/output_inception_3a/output_0_split -> inception_3a/output_inception_3a/output_0_split_1
I0403 17:56:05.094110 15543 net.cpp:399] inception_3a/output_inception_3a/output_0_split -> inception_3a/output_inception_3a/output_0_split_2
I0403 17:56:05.094132 15543 net.cpp:399] inception_3a/output_inception_3a/output_0_split -> inception_3a/output_inception_3a/output_0_split_3
I0403 17:56:05.094220 15543 net.cpp:141] Setting up inception_3a/output_inception_3a/output_0_split
I0403 17:56:05.094245 15543 net.cpp:148] Top shape: 24 256 28 28 (4816896)
I0403 17:56:05.094264 15543 net.cpp:148] Top shape: 24 256 28 28 (4816896)
I0403 17:56:05.094280 15543 net.cpp:148] Top shape: 24 256 28 28 (4816896)
I0403 17:56:05.094295 15543 net.cpp:148] Top shape: 24 256 28 28 (4816896)
I0403 17:56:05.094308 15543 net.cpp:156] Memory required for data: 657507360
I0403 17:56:05.094323 15543 layer_factory.hpp:77] Creating layer inception_3b/1x1
I0403 17:56:05.094347 15543 net.cpp:91] Creating Layer inception_3b/1x1
I0403 17:56:05.094365 15543 net.cpp:425] inception_3b/1x1 <- inception_3a/output_inception_3a/output_0_split_0
I0403 17:56:05.094386 15543 net.cpp:399] inception_3b/1x1 -> inception_3b/1x1
I0403 17:56:05.095541 15543 net.cpp:141] Setting up inception_3b/1x1
I0403 17:56:05.095584 15543 net.cpp:148] Top shape: 24 128 28 28 (2408448)
I0403 17:56:05.095602 15543 net.cpp:156] Memory required for data: 667141152
I0403 17:56:05.095621 15543 layer_factory.hpp:77] Creating layer inception_3b/relu_1x1
I0403 17:56:05.095640 15543 net.cpp:91] Creating Layer inception_3b/relu_1x1
I0403 17:56:05.095656 15543 net.cpp:425] inception_3b/relu_1x1 <- inception_3b/1x1
I0403 17:56:05.095675 15543 net.cpp:386] inception_3b/relu_1x1 -> inception_3b/1x1 (in-place)
I0403 17:56:05.095854 15543 net.cpp:141] Setting up inception_3b/relu_1x1
I0403 17:56:05.095880 15543 net.cpp:148] Top shape: 24 128 28 28 (2408448)
I0403 17:56:05.095896 15543 net.cpp:156] Memory required for data: 676774944
I0403 17:56:05.095911 15543 layer_factory.hpp:77] Creating layer inception_3b/3x3_reduce
I0403 17:56:05.095935 15543 net.cpp:91] Creating Layer inception_3b/3x3_reduce
I0403 17:56:05.095957 15543 net.cpp:425] inception_3b/3x3_reduce <- inception_3a/output_inception_3a/output_0_split_1
I0403 17:56:05.095980 15543 net.cpp:399] inception_3b/3x3_reduce -> inception_3b/3x3_reduce
I0403 17:56:05.097143 15543 net.cpp:141] Setting up inception_3b/3x3_reduce
I0403 17:56:05.097174 15543 net.cpp:148] Top shape: 24 128 28 28 (2408448)
I0403 17:56:05.097192 15543 net.cpp:156] Memory required for data: 686408736
I0403 17:56:05.097221 15543 layer_factory.hpp:77] Creating layer inception_3b/relu_3x3_reduce
I0403 17:56:05.097239 15543 net.cpp:91] Creating Layer inception_3b/relu_3x3_reduce
I0403 17:56:05.097254 15543 net.cpp:425] inception_3b/relu_3x3_reduce <- inception_3b/3x3_reduce
I0403 17:56:05.097275 15543 net.cpp:386] inception_3b/relu_3x3_reduce -> inception_3b/3x3_reduce (in-place)
I0403 17:56:05.097448 15543 net.cpp:141] Setting up inception_3b/relu_3x3_reduce
I0403 17:56:05.097473 15543 net.cpp:148] Top shape: 24 128 28 28 (2408448)
I0403 17:56:05.097488 15543 net.cpp:156] Memory required for data: 696042528
I0403 17:56:05.097502 15543 layer_factory.hpp:77] Creating layer inception_3b/3x3
I0403 17:56:05.097528 15543 net.cpp:91] Creating Layer inception_3b/3x3
I0403 17:56:05.097546 15543 net.cpp:425] inception_3b/3x3 <- inception_3b/3x3_reduce
I0403 17:56:05.097565 15543 net.cpp:399] inception_3b/3x3 -> inception_3b/3x3
I0403 17:56:05.100495 15543 net.cpp:141] Setting up inception_3b/3x3
I0403 17:56:05.100524 15543 net.cpp:148] Top shape: 24 192 28 28 (3612672)
I0403 17:56:05.100540 15543 net.cpp:156] Memory required for data: 710493216
I0403 17:56:05.100559 15543 layer_factory.hpp:77] Creating layer inception_3b/relu_3x3
I0403 17:56:05.100579 15543 net.cpp:91] Creating Layer inception_3b/relu_3x3
I0403 17:56:05.100597 15543 net.cpp:425] inception_3b/relu_3x3 <- inception_3b/3x3
I0403 17:56:05.100615 15543 net.cpp:386] inception_3b/relu_3x3 -> inception_3b/3x3 (in-place)
I0403 17:56:05.100888 15543 net.cpp:141] Setting up inception_3b/relu_3x3
I0403 17:56:05.100914 15543 net.cpp:148] Top shape: 24 192 28 28 (3612672)
I0403 17:56:05.100930 15543 net.cpp:156] Memory required for data: 724943904
I0403 17:56:05.100945 15543 layer_factory.hpp:77] Creating layer inception_3b/5x5_reduce
I0403 17:56:05.100973 15543 net.cpp:91] Creating Layer inception_3b/5x5_reduce
I0403 17:56:05.100991 15543 net.cpp:425] inception_3b/5x5_reduce <- inception_3a/output_inception_3a/output_0_split_2
I0403 17:56:05.101012 15543 net.cpp:399] inception_3b/5x5_reduce -> inception_3b/5x5_reduce
I0403 17:56:05.102026 15543 net.cpp:141] Setting up inception_3b/5x5_reduce
I0403 17:56:05.102054 15543 net.cpp:148] Top shape: 24 32 28 28 (602112)
I0403 17:56:05.102071 15543 net.cpp:156] Memory required for data: 727352352
I0403 17:56:05.102088 15543 layer_factory.hpp:77] Creating layer inception_3b/relu_5x5_reduce
I0403 17:56:05.102108 15543 net.cpp:91] Creating Layer inception_3b/relu_5x5_reduce
I0403 17:56:05.102123 15543 net.cpp:425] inception_3b/relu_5x5_reduce <- inception_3b/5x5_reduce
I0403 17:56:05.102144 15543 net.cpp:386] inception_3b/relu_5x5_reduce -> inception_3b/5x5_reduce (in-place)
I0403 17:56:05.102336 15543 net.cpp:141] Setting up inception_3b/relu_5x5_reduce
I0403 17:56:05.102361 15543 net.cpp:148] Top shape: 24 32 28 28 (602112)
I0403 17:56:05.102376 15543 net.cpp:156] Memory required for data: 729760800
I0403 17:56:05.102391 15543 layer_factory.hpp:77] Creating layer inception_3b/5x5
I0403 17:56:05.102413 15543 net.cpp:91] Creating Layer inception_3b/5x5
I0403 17:56:05.102432 15543 net.cpp:425] inception_3b/5x5 <- inception_3b/5x5_reduce
I0403 17:56:05.102452 15543 net.cpp:399] inception_3b/5x5 -> inception_3b/5x5
I0403 17:56:05.104418 15543 net.cpp:141] Setting up inception_3b/5x5
I0403 17:56:05.104449 15543 net.cpp:148] Top shape: 24 96 28 28 (1806336)
I0403 17:56:05.104467 15543 net.cpp:156] Memory required for data: 736986144
I0403 17:56:05.104486 15543 layer_factory.hpp:77] Creating layer inception_3b/relu_5x5
I0403 17:56:05.104517 15543 net.cpp:91] Creating Layer inception_3b/relu_5x5
I0403 17:56:05.104533 15543 net.cpp:425] inception_3b/relu_5x5 <- inception_3b/5x5
I0403 17:56:05.104552 15543 net.cpp:386] inception_3b/relu_5x5 -> inception_3b/5x5 (in-place)
I0403 17:56:05.104744 15543 net.cpp:141] Setting up inception_3b/relu_5x5
I0403 17:56:05.104769 15543 net.cpp:148] Top shape: 24 96 28 28 (1806336)
I0403 17:56:05.104784 15543 net.cpp:156] Memory required for data: 744211488
I0403 17:56:05.104799 15543 layer_factory.hpp:77] Creating layer inception_3b/pool
I0403 17:56:05.104816 15543 net.cpp:91] Creating Layer inception_3b/pool
I0403 17:56:05.104833 15543 net.cpp:425] inception_3b/pool <- inception_3a/output_inception_3a/output_0_split_3
I0403 17:56:05.104851 15543 net.cpp:399] inception_3b/pool -> inception_3b/pool
I0403 17:56:05.104918 15543 net.cpp:141] Setting up inception_3b/pool
I0403 17:56:05.104943 15543 net.cpp:148] Top shape: 24 256 28 28 (4816896)
I0403 17:56:05.104962 15543 net.cpp:156] Memory required for data: 763479072
I0403 17:56:05.104979 15543 layer_factory.hpp:77] Creating layer inception_3b/pool_proj
I0403 17:56:05.105003 15543 net.cpp:91] Creating Layer inception_3b/pool_proj
I0403 17:56:05.105021 15543 net.cpp:425] inception_3b/pool_proj <- inception_3b/pool
I0403 17:56:05.105041 15543 net.cpp:399] inception_3b/pool_proj -> inception_3b/pool_proj
I0403 17:56:05.106159 15543 net.cpp:141] Setting up inception_3b/pool_proj
I0403 17:56:05.106187 15543 net.cpp:148] Top shape: 24 64 28 28 (1204224)
I0403 17:56:05.106202 15543 net.cpp:156] Memory required for data: 768295968
I0403 17:56:05.106221 15543 layer_factory.hpp:77] Creating layer inception_3b/relu_pool_proj
I0403 17:56:05.106241 15543 net.cpp:91] Creating Layer inception_3b/relu_pool_proj
I0403 17:56:05.106258 15543 net.cpp:425] inception_3b/relu_pool_proj <- inception_3b/pool_proj
I0403 17:56:05.106276 15543 net.cpp:386] inception_3b/relu_pool_proj -> inception_3b/pool_proj (in-place)
I0403 17:56:05.106663 15543 net.cpp:141] Setting up inception_3b/relu_pool_proj
I0403 17:56:05.106690 15543 net.cpp:148] Top shape: 24 64 28 28 (1204224)
I0403 17:56:05.106705 15543 net.cpp:156] Memory required for data: 773112864
I0403 17:56:05.106720 15543 layer_factory.hpp:77] Creating layer inception_3b/output
I0403 17:56:05.106739 15543 net.cpp:91] Creating Layer inception_3b/output
I0403 17:56:05.106756 15543 net.cpp:425] inception_3b/output <- inception_3b/1x1
I0403 17:56:05.106772 15543 net.cpp:425] inception_3b/output <- inception_3b/3x3
I0403 17:56:05.106788 15543 net.cpp:425] inception_3b/output <- inception_3b/5x5
I0403 17:56:05.106804 15543 net.cpp:425] inception_3b/output <- inception_3b/pool_proj
I0403 17:56:05.106822 15543 net.cpp:399] inception_3b/output -> inception_3b/output
I0403 17:56:05.106863 15543 net.cpp:141] Setting up inception_3b/output
I0403 17:56:05.106889 15543 net.cpp:148] Top shape: 24 480 28 28 (9031680)
I0403 17:56:05.106917 15543 net.cpp:156] Memory required for data: 809239584
I0403 17:56:05.106931 15543 layer_factory.hpp:77] Creating layer pool3/3x3_s2
I0403 17:56:05.106955 15543 net.cpp:91] Creating Layer pool3/3x3_s2
I0403 17:56:05.106972 15543 net.cpp:425] pool3/3x3_s2 <- inception_3b/output
I0403 17:56:05.107008 15543 net.cpp:399] pool3/3x3_s2 -> pool3/3x3_s2
I0403 17:56:05.107069 15543 net.cpp:141] Setting up pool3/3x3_s2
I0403 17:56:05.107095 15543 net.cpp:148] Top shape: 24 480 14 14 (2257920)
I0403 17:56:05.107111 15543 net.cpp:156] Memory required for data: 818271264
I0403 17:56:05.107126 15543 layer_factory.hpp:77] Creating layer pool3/3x3_s2_pool3/3x3_s2_0_split
I0403 17:56:05.107144 15543 net.cpp:91] Creating Layer pool3/3x3_s2_pool3/3x3_s2_0_split
I0403 17:56:05.107161 15543 net.cpp:425] pool3/3x3_s2_pool3/3x3_s2_0_split <- pool3/3x3_s2
I0403 17:56:05.107177 15543 net.cpp:399] pool3/3x3_s2_pool3/3x3_s2_0_split -> pool3/3x3_s2_pool3/3x3_s2_0_split_0
I0403 17:56:05.107209 15543 net.cpp:399] pool3/3x3_s2_pool3/3x3_s2_0_split -> pool3/3x3_s2_pool3/3x3_s2_0_split_1
I0403 17:56:05.107231 15543 net.cpp:399] pool3/3x3_s2_pool3/3x3_s2_0_split -> pool3/3x3_s2_pool3/3x3_s2_0_split_2
I0403 17:56:05.107252 15543 net.cpp:399] pool3/3x3_s2_pool3/3x3_s2_0_split -> pool3/3x3_s2_pool3/3x3_s2_0_split_3
I0403 17:56:05.107329 15543 net.cpp:141] Setting up pool3/3x3_s2_pool3/3x3_s2_0_split
I0403 17:56:05.107352 15543 net.cpp:148] Top shape: 24 480 14 14 (2257920)
I0403 17:56:05.107368 15543 net.cpp:148] Top shape: 24 480 14 14 (2257920)
I0403 17:56:05.107384 15543 net.cpp:148] Top shape: 24 480 14 14 (2257920)
I0403 17:56:05.107400 15543 net.cpp:148] Top shape: 24 480 14 14 (2257920)
I0403 17:56:05.107414 15543 net.cpp:156] Memory required for data: 854397984
I0403 17:56:05.107429 15543 layer_factory.hpp:77] Creating layer inception_4a/1x1
I0403 17:56:05.107450 15543 net.cpp:91] Creating Layer inception_4a/1x1
I0403 17:56:05.107467 15543 net.cpp:425] inception_4a/1x1 <- pool3/3x3_s2_pool3/3x3_s2_0_split_0
I0403 17:56:05.107488 15543 net.cpp:399] inception_4a/1x1 -> inception_4a/1x1
I0403 17:56:05.109035 15543 net.cpp:141] Setting up inception_4a/1x1
I0403 17:56:05.109062 15543 net.cpp:148] Top shape: 24 192 14 14 (903168)
I0403 17:56:05.109078 15543 net.cpp:156] Memory required for data: 858010656
I0403 17:56:05.109096 15543 layer_factory.hpp:77] Creating layer inception_4a/relu_1x1
I0403 17:56:05.109115 15543 net.cpp:91] Creating Layer inception_4a/relu_1x1
I0403 17:56:05.109132 15543 net.cpp:425] inception_4a/relu_1x1 <- inception_4a/1x1
I0403 17:56:05.109148 15543 net.cpp:386] inception_4a/relu_1x1 -> inception_4a/1x1 (in-place)
I0403 17:56:05.109338 15543 net.cpp:141] Setting up inception_4a/relu_1x1
I0403 17:56:05.109361 15543 net.cpp:148] Top shape: 24 192 14 14 (903168)
I0403 17:56:05.109376 15543 net.cpp:156] Memory required for data: 861623328
I0403 17:56:05.109391 15543 layer_factory.hpp:77] Creating layer inception_4a/3x3_reduce
I0403 17:56:05.109413 15543 net.cpp:91] Creating Layer inception_4a/3x3_reduce
I0403 17:56:05.109431 15543 net.cpp:425] inception_4a/3x3_reduce <- pool3/3x3_s2_pool3/3x3_s2_0_split_1
I0403 17:56:05.109452 15543 net.cpp:399] inception_4a/3x3_reduce -> inception_4a/3x3_reduce
I0403 17:56:05.110690 15543 net.cpp:141] Setting up inception_4a/3x3_reduce
I0403 17:56:05.110718 15543 net.cpp:148] Top shape: 24 96 14 14 (451584)
I0403 17:56:05.110733 15543 net.cpp:156] Memory required for data: 863429664
I0403 17:56:05.110759 15543 layer_factory.hpp:77] Creating layer inception_4a/relu_3x3_reduce
I0403 17:56:05.110780 15543 net.cpp:91] Creating Layer inception_4a/relu_3x3_reduce
I0403 17:56:05.110796 15543 net.cpp:425] inception_4a/relu_3x3_reduce <- inception_4a/3x3_reduce
I0403 17:56:05.110812 15543 net.cpp:386] inception_4a/relu_3x3_reduce -> inception_4a/3x3_reduce (in-place)
I0403 17:56:05.111002 15543 net.cpp:141] Setting up inception_4a/relu_3x3_reduce
I0403 17:56:05.111029 15543 net.cpp:148] Top shape: 24 96 14 14 (451584)
I0403 17:56:05.111045 15543 net.cpp:156] Memory required for data: 865236000
I0403 17:56:05.111060 15543 layer_factory.hpp:77] Creating layer inception_4a/3x3
I0403 17:56:05.111083 15543 net.cpp:91] Creating Layer inception_4a/3x3
I0403 17:56:05.111099 15543 net.cpp:425] inception_4a/3x3 <- inception_4a/3x3_reduce
I0403 17:56:05.111117 15543 net.cpp:399] inception_4a/3x3 -> inception_4a/3x3
I0403 17:56:05.113731 15543 net.cpp:141] Setting up inception_4a/3x3
I0403 17:56:05.113760 15543 net.cpp:148] Top shape: 24 208 14 14 (978432)
I0403 17:56:05.113777 15543 net.cpp:156] Memory required for data: 869149728
I0403 17:56:05.113795 15543 layer_factory.hpp:77] Creating layer inception_4a/relu_3x3
I0403 17:56:05.113811 15543 net.cpp:91] Creating Layer inception_4a/relu_3x3
I0403 17:56:05.113827 15543 net.cpp:425] inception_4a/relu_3x3 <- inception_4a/3x3
I0403 17:56:05.113847 15543 net.cpp:386] inception_4a/relu_3x3 -> inception_4a/3x3 (in-place)
I0403 17:56:05.114120 15543 net.cpp:141] Setting up inception_4a/relu_3x3
I0403 17:56:05.114147 15543 net.cpp:148] Top shape: 24 208 14 14 (978432)
I0403 17:56:05.114163 15543 net.cpp:156] Memory required for data: 873063456
I0403 17:56:05.114178 15543 layer_factory.hpp:77] Creating layer inception_4a/5x5_reduce
I0403 17:56:05.114202 15543 net.cpp:91] Creating Layer inception_4a/5x5_reduce
I0403 17:56:05.114218 15543 net.cpp:425] inception_4a/5x5_reduce <- pool3/3x3_s2_pool3/3x3_s2_0_split_2
I0403 17:56:05.114236 15543 net.cpp:399] inception_4a/5x5_reduce -> inception_4a/5x5_reduce
I0403 17:56:05.115259 15543 net.cpp:141] Setting up inception_4a/5x5_reduce
I0403 17:56:05.115288 15543 net.cpp:148] Top shape: 24 16 14 14 (75264)
I0403 17:56:05.115304 15543 net.cpp:156] Memory required for data: 873364512
I0403 17:56:05.115322 15543 layer_factory.hpp:77] Creating layer inception_4a/relu_5x5_reduce
I0403 17:56:05.115339 15543 net.cpp:91] Creating Layer inception_4a/relu_5x5_reduce
I0403 17:56:05.115355 15543 net.cpp:425] inception_4a/relu_5x5_reduce <- inception_4a/5x5_reduce
I0403 17:56:05.115375 15543 net.cpp:386] inception_4a/relu_5x5_reduce -> inception_4a/5x5_reduce (in-place)
I0403 17:56:05.115546 15543 net.cpp:141] Setting up inception_4a/relu_5x5_reduce
I0403 17:56:05.115571 15543 net.cpp:148] Top shape: 24 16 14 14 (75264)
I0403 17:56:05.115584 15543 net.cpp:156] Memory required for data: 873665568
I0403 17:56:05.115598 15543 layer_factory.hpp:77] Creating layer inception_4a/5x5
I0403 17:56:05.115620 15543 net.cpp:91] Creating Layer inception_4a/5x5
I0403 17:56:05.115638 15543 net.cpp:425] inception_4a/5x5 <- inception_4a/5x5_reduce
I0403 17:56:05.115658 15543 net.cpp:399] inception_4a/5x5 -> inception_4a/5x5
I0403 17:56:05.116708 15543 net.cpp:141] Setting up inception_4a/5x5
I0403 17:56:05.116734 15543 net.cpp:148] Top shape: 24 48 14 14 (225792)
I0403 17:56:05.116750 15543 net.cpp:156] Memory required for data: 874568736
I0403 17:56:05.116768 15543 layer_factory.hpp:77] Creating layer inception_4a/relu_5x5
I0403 17:56:05.116789 15543 net.cpp:91] Creating Layer inception_4a/relu_5x5
I0403 17:56:05.116806 15543 net.cpp:425] inception_4a/relu_5x5 <- inception_4a/5x5
I0403 17:56:05.116822 15543 net.cpp:386] inception_4a/relu_5x5 -> inception_4a/5x5 (in-place)
I0403 17:56:05.116999 15543 net.cpp:141] Setting up inception_4a/relu_5x5
I0403 17:56:05.117023 15543 net.cpp:148] Top shape: 24 48 14 14 (225792)
I0403 17:56:05.117038 15543 net.cpp:156] Memory required for data: 875471904
I0403 17:56:05.117053 15543 layer_factory.hpp:77] Creating layer inception_4a/pool
I0403 17:56:05.117072 15543 net.cpp:91] Creating Layer inception_4a/pool
I0403 17:56:05.117089 15543 net.cpp:425] inception_4a/pool <- pool3/3x3_s2_pool3/3x3_s2_0_split_3
I0403 17:56:05.117107 15543 net.cpp:399] inception_4a/pool -> inception_4a/pool
I0403 17:56:05.117166 15543 net.cpp:141] Setting up inception_4a/pool
I0403 17:56:05.117188 15543 net.cpp:148] Top shape: 24 480 14 14 (2257920)
I0403 17:56:05.117202 15543 net.cpp:156] Memory required for data: 884503584
I0403 17:56:05.117228 15543 layer_factory.hpp:77] Creating layer inception_4a/pool_proj
I0403 17:56:05.117250 15543 net.cpp:91] Creating Layer inception_4a/pool_proj
I0403 17:56:05.117267 15543 net.cpp:425] inception_4a/pool_proj <- inception_4a/pool
I0403 17:56:05.117288 15543 net.cpp:399] inception_4a/pool_proj -> inception_4a/pool_proj
I0403 17:56:05.118438 15543 net.cpp:141] Setting up inception_4a/pool_proj
I0403 17:56:05.118465 15543 net.cpp:148] Top shape: 24 64 14 14 (301056)
I0403 17:56:05.118494 15543 net.cpp:156] Memory required for data: 885707808
I0403 17:56:05.118513 15543 layer_factory.hpp:77] Creating layer inception_4a/relu_pool_proj
I0403 17:56:05.118562 15543 net.cpp:91] Creating Layer inception_4a/relu_pool_proj
I0403 17:56:05.118579 15543 net.cpp:425] inception_4a/relu_pool_proj <- inception_4a/pool_proj
I0403 17:56:05.118597 15543 net.cpp:386] inception_4a/relu_pool_proj -> inception_4a/pool_proj (in-place)
I0403 17:56:05.118886 15543 net.cpp:141] Setting up inception_4a/relu_pool_proj
I0403 17:56:05.118911 15543 net.cpp:148] Top shape: 24 64 14 14 (301056)
I0403 17:56:05.118927 15543 net.cpp:156] Memory required for data: 886912032
I0403 17:56:05.118942 15543 layer_factory.hpp:77] Creating layer inception_4a/output
I0403 17:56:05.118966 15543 net.cpp:91] Creating Layer inception_4a/output
I0403 17:56:05.118983 15543 net.cpp:425] inception_4a/output <- inception_4a/1x1
I0403 17:56:05.118999 15543 net.cpp:425] inception_4a/output <- inception_4a/3x3
I0403 17:56:05.119014 15543 net.cpp:425] inception_4a/output <- inception_4a/5x5
I0403 17:56:05.119029 15543 net.cpp:425] inception_4a/output <- inception_4a/pool_proj
I0403 17:56:05.119045 15543 net.cpp:399] inception_4a/output -> inception_4a/output
I0403 17:56:05.119091 15543 net.cpp:141] Setting up inception_4a/output
I0403 17:56:05.119112 15543 net.cpp:148] Top shape: 24 512 14 14 (2408448)
I0403 17:56:05.119127 15543 net.cpp:156] Memory required for data: 896545824
I0403 17:56:05.119140 15543 layer_factory.hpp:77] Creating layer inception_4a/output_inception_4a/output_0_split
I0403 17:56:05.119158 15543 net.cpp:91] Creating Layer inception_4a/output_inception_4a/output_0_split
I0403 17:56:05.119173 15543 net.cpp:425] inception_4a/output_inception_4a/output_0_split <- inception_4a/output
I0403 17:56:05.119191 15543 net.cpp:399] inception_4a/output_inception_4a/output_0_split -> inception_4a/output_inception_4a/output_0_split_0
I0403 17:56:05.119211 15543 net.cpp:399] inception_4a/output_inception_4a/output_0_split -> inception_4a/output_inception_4a/output_0_split_1
I0403 17:56:05.119232 15543 net.cpp:399] inception_4a/output_inception_4a/output_0_split -> inception_4a/output_inception_4a/output_0_split_2
I0403 17:56:05.119251 15543 net.cpp:399] inception_4a/output_inception_4a/output_0_split -> inception_4a/output_inception_4a/output_0_split_3
I0403 17:56:05.119272 15543 net.cpp:399] inception_4a/output_inception_4a/output_0_split -> inception_4a/output_inception_4a/output_0_split_4
I0403 17:56:05.119366 15543 net.cpp:141] Setting up inception_4a/output_inception_4a/output_0_split
I0403 17:56:05.119390 15543 net.cpp:148] Top shape: 24 512 14 14 (2408448)
I0403 17:56:05.119405 15543 net.cpp:148] Top shape: 24 512 14 14 (2408448)
I0403 17:56:05.119420 15543 net.cpp:148] Top shape: 24 512 14 14 (2408448)
I0403 17:56:05.119434 15543 net.cpp:148] Top shape: 24 512 14 14 (2408448)
I0403 17:56:05.119449 15543 net.cpp:148] Top shape: 24 512 14 14 (2408448)
I0403 17:56:05.119462 15543 net.cpp:156] Memory required for data: 944714784
I0403 17:56:05.119477 15543 layer_factory.hpp:77] Creating layer loss1/ave_pool
I0403 17:56:05.119493 15543 net.cpp:91] Creating Layer loss1/ave_pool
I0403 17:56:05.119508 15543 net.cpp:425] loss1/ave_pool <- inception_4a/output_inception_4a/output_0_split_0
I0403 17:56:05.119527 15543 net.cpp:399] loss1/ave_pool -> loss1/ave_pool
I0403 17:56:05.119724 15543 net.cpp:141] Setting up loss1/ave_pool
I0403 17:56:05.119750 15543 net.cpp:148] Top shape: 24 512 4 4 (196608)
I0403 17:56:05.119766 15543 net.cpp:156] Memory required for data: 945501216
I0403 17:56:05.119781 15543 layer_factory.hpp:77] Creating layer loss1/conv
I0403 17:56:05.119799 15543 net.cpp:91] Creating Layer loss1/conv
I0403 17:56:05.119817 15543 net.cpp:425] loss1/conv <- loss1/ave_pool
I0403 17:56:05.119837 15543 net.cpp:399] loss1/conv -> loss1/conv
I0403 17:56:05.121253 15543 net.cpp:141] Setting up loss1/conv
I0403 17:56:05.121284 15543 net.cpp:148] Top shape: 24 128 4 4 (49152)
I0403 17:56:05.121314 15543 net.cpp:156] Memory required for data: 945697824
I0403 17:56:05.121333 15543 layer_factory.hpp:77] Creating layer loss1/relu_conv
I0403 17:56:05.121351 15543 net.cpp:91] Creating Layer loss1/relu_conv
I0403 17:56:05.121367 15543 net.cpp:425] loss1/relu_conv <- loss1/conv
I0403 17:56:05.121387 15543 net.cpp:386] loss1/relu_conv -> loss1/conv (in-place)
I0403 17:56:05.121668 15543 net.cpp:141] Setting up loss1/relu_conv
I0403 17:56:05.121696 15543 net.cpp:148] Top shape: 24 128 4 4 (49152)
I0403 17:56:05.121712 15543 net.cpp:156] Memory required for data: 945894432
I0403 17:56:05.121727 15543 layer_factory.hpp:77] Creating layer loss1/fc
I0403 17:56:05.121750 15543 net.cpp:91] Creating Layer loss1/fc
I0403 17:56:05.121768 15543 net.cpp:425] loss1/fc <- loss1/conv
I0403 17:56:05.121789 15543 net.cpp:399] loss1/fc -> loss1/fc
I0403 17:56:05.139467 15543 net.cpp:141] Setting up loss1/fc
I0403 17:56:05.139502 15543 net.cpp:148] Top shape: 24 1024 (24576)
I0403 17:56:05.139516 15543 net.cpp:156] Memory required for data: 945992736
I0403 17:56:05.139534 15543 layer_factory.hpp:77] Creating layer loss1/relu_fc
I0403 17:56:05.139554 15543 net.cpp:91] Creating Layer loss1/relu_fc
I0403 17:56:05.139570 15543 net.cpp:425] loss1/relu_fc <- loss1/fc
I0403 17:56:05.139588 15543 net.cpp:386] loss1/relu_fc -> loss1/fc (in-place)
I0403 17:56:05.139768 15543 net.cpp:141] Setting up loss1/relu_fc
I0403 17:56:05.139792 15543 net.cpp:148] Top shape: 24 1024 (24576)
I0403 17:56:05.139806 15543 net.cpp:156] Memory required for data: 946091040
I0403 17:56:05.139821 15543 layer_factory.hpp:77] Creating layer loss1/drop_fc
I0403 17:56:05.139847 15543 net.cpp:91] Creating Layer loss1/drop_fc
I0403 17:56:05.139863 15543 net.cpp:425] loss1/drop_fc <- loss1/fc
I0403 17:56:05.139883 15543 net.cpp:386] loss1/drop_fc -> loss1/fc (in-place)
I0403 17:56:05.139931 15543 net.cpp:141] Setting up loss1/drop_fc
I0403 17:56:05.139957 15543 net.cpp:148] Top shape: 24 1024 (24576)
I0403 17:56:05.139973 15543 net.cpp:156] Memory required for data: 946189344
I0403 17:56:05.139987 15543 layer_factory.hpp:77] Creating layer loss1/classifier_plantvillage
I0403 17:56:05.140009 15543 net.cpp:91] Creating Layer loss1/classifier_plantvillage
I0403 17:56:05.140027 15543 net.cpp:425] loss1/classifier_plantvillage <- loss1/fc
I0403 17:56:05.140043 15543 net.cpp:399] loss1/classifier_plantvillage -> loss1/classifier_plantvillage
I0403 17:56:05.140918 15543 net.cpp:141] Setting up loss1/classifier_plantvillage
I0403 17:56:05.140949 15543 net.cpp:148] Top shape: 24 38 (912)
I0403 17:56:05.140966 15543 net.cpp:156] Memory required for data: 946192992
I0403 17:56:05.140985 15543 layer_factory.hpp:77] Creating layer loss1/classifier_plantvillage_loss1/classifier_plantvillage_0_split
I0403 17:56:05.141005 15543 net.cpp:91] Creating Layer loss1/classifier_plantvillage_loss1/classifier_plantvillage_0_split
I0403 17:56:05.141021 15543 net.cpp:425] loss1/classifier_plantvillage_loss1/classifier_plantvillage_0_split <- loss1/classifier_plantvillage
I0403 17:56:05.141037 15543 net.cpp:399] loss1/classifier_plantvillage_loss1/classifier_plantvillage_0_split -> loss1/classifier_plantvillage_loss1/classifier_plantvillage_0_split_0
I0403 17:56:05.141060 15543 net.cpp:399] loss1/classifier_plantvillage_loss1/classifier_plantvillage_0_split -> loss1/classifier_plantvillage_loss1/classifier_plantvillage_0_split_1
I0403 17:56:05.141080 15543 net.cpp:399] loss1/classifier_plantvillage_loss1/classifier_plantvillage_0_split -> loss1/classifier_plantvillage_loss1/classifier_plantvillage_0_split_2
I0403 17:56:05.141144 15543 net.cpp:141] Setting up loss1/classifier_plantvillage_loss1/classifier_plantvillage_0_split
I0403 17:56:05.141166 15543 net.cpp:148] Top shape: 24 38 (912)
I0403 17:56:05.141181 15543 net.cpp:148] Top shape: 24 38 (912)
I0403 17:56:05.141196 15543 net.cpp:148] Top shape: 24 38 (912)
I0403 17:56:05.141222 15543 net.cpp:156] Memory required for data: 946203936
I0403 17:56:05.141237 15543 layer_factory.hpp:77] Creating layer inception_4b/1x1
I0403 17:56:05.141259 15543 net.cpp:91] Creating Layer inception_4b/1x1
I0403 17:56:05.141294 15543 net.cpp:425] inception_4b/1x1 <- inception_4a/output_inception_4a/output_0_split_1
I0403 17:56:05.141314 15543 net.cpp:399] inception_4b/1x1 -> inception_4b/1x1
I0403 17:56:05.142940 15543 net.cpp:141] Setting up inception_4b/1x1
I0403 17:56:05.142976 15543 net.cpp:148] Top shape: 24 160 14 14 (752640)
I0403 17:56:05.142993 15543 net.cpp:156] Memory required for data: 949214496
I0403 17:56:05.143012 15543 layer_factory.hpp:77] Creating layer inception_4b/relu_1x1
I0403 17:56:05.143029 15543 net.cpp:91] Creating Layer inception_4b/relu_1x1
I0403 17:56:05.143046 15543 net.cpp:425] inception_4b/relu_1x1 <- inception_4b/1x1
I0403 17:56:05.143065 15543 net.cpp:386] inception_4b/relu_1x1 -> inception_4b/1x1 (in-place)
I0403 17:56:05.143239 15543 net.cpp:141] Setting up inception_4b/relu_1x1
I0403 17:56:05.143263 15543 net.cpp:148] Top shape: 24 160 14 14 (752640)
I0403 17:56:05.143278 15543 net.cpp:156] Memory required for data: 952225056
I0403 17:56:05.143292 15543 layer_factory.hpp:77] Creating layer inception_4b/3x3_reduce
I0403 17:56:05.143316 15543 net.cpp:91] Creating Layer inception_4b/3x3_reduce
I0403 17:56:05.143334 15543 net.cpp:425] inception_4b/3x3_reduce <- inception_4a/output_inception_4a/output_0_split_2
I0403 17:56:05.143354 15543 net.cpp:399] inception_4b/3x3_reduce -> inception_4b/3x3_reduce
I0403 17:56:05.144672 15543 net.cpp:141] Setting up inception_4b/3x3_reduce
I0403 17:56:05.144700 15543 net.cpp:148] Top shape: 24 112 14 14 (526848)
I0403 17:56:05.144714 15543 net.cpp:156] Memory required for data: 954332448
I0403 17:56:05.144732 15543 layer_factory.hpp:77] Creating layer inception_4b/relu_3x3_reduce
I0403 17:56:05.144752 15543 net.cpp:91] Creating Layer inception_4b/relu_3x3_reduce
I0403 17:56:05.144768 15543 net.cpp:425] inception_4b/relu_3x3_reduce <- inception_4b/3x3_reduce
I0403 17:56:05.144785 15543 net.cpp:386] inception_4b/relu_3x3_reduce -> inception_4b/3x3_reduce (in-place)
I0403 17:56:05.145067 15543 net.cpp:141] Setting up inception_4b/relu_3x3_reduce
I0403 17:56:05.145093 15543 net.cpp:148] Top shape: 24 112 14 14 (526848)
I0403 17:56:05.145107 15543 net.cpp:156] Memory required for data: 956439840
I0403 17:56:05.145123 15543 layer_factory.hpp:77] Creating layer inception_4b/3x3
I0403 17:56:05.145143 15543 net.cpp:91] Creating Layer inception_4b/3x3
I0403 17:56:05.145160 15543 net.cpp:425] inception_4b/3x3 <- inception_4b/3x3_reduce
I0403 17:56:05.145180 15543 net.cpp:399] inception_4b/3x3 -> inception_4b/3x3
I0403 17:56:05.148104 15543 net.cpp:141] Setting up inception_4b/3x3
I0403 17:56:05.148133 15543 net.cpp:148] Top shape: 24 224 14 14 (1053696)
I0403 17:56:05.148149 15543 net.cpp:156] Memory required for data: 960654624
I0403 17:56:05.148167 15543 layer_factory.hpp:77] Creating layer inception_4b/relu_3x3
I0403 17:56:05.148187 15543 net.cpp:91] Creating Layer inception_4b/relu_3x3
I0403 17:56:05.148205 15543 net.cpp:425] inception_4b/relu_3x3 <- inception_4b/3x3
I0403 17:56:05.148221 15543 net.cpp:386] inception_4b/relu_3x3 -> inception_4b/3x3 (in-place)
I0403 17:56:05.148396 15543 net.cpp:141] Setting up inception_4b/relu_3x3
I0403 17:56:05.148421 15543 net.cpp:148] Top shape: 24 224 14 14 (1053696)
I0403 17:56:05.148434 15543 net.cpp:156] Memory required for data: 964869408
I0403 17:56:05.148447 15543 layer_factory.hpp:77] Creating layer inception_4b/5x5_reduce
I0403 17:56:05.148469 15543 net.cpp:91] Creating Layer inception_4b/5x5_reduce
I0403 17:56:05.148486 15543 net.cpp:425] inception_4b/5x5_reduce <- inception_4a/output_inception_4a/output_0_split_3
I0403 17:56:05.148509 15543 net.cpp:399] inception_4b/5x5_reduce -> inception_4b/5x5_reduce
I0403 17:56:05.149592 15543 net.cpp:141] Setting up inception_4b/5x5_reduce
I0403 17:56:05.149619 15543 net.cpp:148] Top shape: 24 24 14 14 (112896)
I0403 17:56:05.149634 15543 net.cpp:156] Memory required for data: 965320992
I0403 17:56:05.149652 15543 layer_factory.hpp:77] Creating layer inception_4b/relu_5x5_reduce
I0403 17:56:05.149669 15543 net.cpp:91] Creating Layer inception_4b/relu_5x5_reduce
I0403 17:56:05.149698 15543 net.cpp:425] inception_4b/relu_5x5_reduce <- inception_4b/5x5_reduce
I0403 17:56:05.149718 15543 net.cpp:386] inception_4b/relu_5x5_reduce -> inception_4b/5x5_reduce (in-place)
I0403 17:56:05.149899 15543 net.cpp:141] Setting up inception_4b/relu_5x5_reduce
I0403 17:56:05.149924 15543 net.cpp:148] Top shape: 24 24 14 14 (112896)
I0403 17:56:05.149940 15543 net.cpp:156] Memory required for data: 965772576
I0403 17:56:05.149958 15543 layer_factory.hpp:77] Creating layer inception_4b/5x5
I0403 17:56:05.149981 15543 net.cpp:91] Creating Layer inception_4b/5x5
I0403 17:56:05.149998 15543 net.cpp:425] inception_4b/5x5 <- inception_4b/5x5_reduce
I0403 17:56:05.150019 15543 net.cpp:399] inception_4b/5x5 -> inception_4b/5x5
I0403 17:56:05.151223 15543 net.cpp:141] Setting up inception_4b/5x5
I0403 17:56:05.151253 15543 net.cpp:148] Top shape: 24 64 14 14 (301056)
I0403 17:56:05.151269 15543 net.cpp:156] Memory required for data: 966976800
I0403 17:56:05.151288 15543 layer_factory.hpp:77] Creating layer inception_4b/relu_5x5
I0403 17:56:05.151306 15543 net.cpp:91] Creating Layer inception_4b/relu_5x5
I0403 17:56:05.151324 15543 net.cpp:425] inception_4b/relu_5x5 <- inception_4b/5x5
I0403 17:56:05.151343 15543 net.cpp:386] inception_4b/relu_5x5 -> inception_4b/5x5 (in-place)
I0403 17:56:05.151633 15543 net.cpp:141] Setting up inception_4b/relu_5x5
I0403 17:56:05.151659 15543 net.cpp:148] Top shape: 24 64 14 14 (301056)
I0403 17:56:05.151674 15543 net.cpp:156] Memory required for data: 968181024
I0403 17:56:05.151690 15543 layer_factory.hpp:77] Creating layer inception_4b/pool
I0403 17:56:05.151706 15543 net.cpp:91] Creating Layer inception_4b/pool
I0403 17:56:05.151722 15543 net.cpp:425] inception_4b/pool <- inception_4a/output_inception_4a/output_0_split_4
I0403 17:56:05.151742 15543 net.cpp:399] inception_4b/pool -> inception_4b/pool
I0403 17:56:05.151803 15543 net.cpp:141] Setting up inception_4b/pool
I0403 17:56:05.151828 15543 net.cpp:148] Top shape: 24 512 14 14 (2408448)
I0403 17:56:05.151842 15543 net.cpp:156] Memory required for data: 977814816
I0403 17:56:05.151857 15543 layer_factory.hpp:77] Creating layer inception_4b/pool_proj
I0403 17:56:05.151878 15543 net.cpp:91] Creating Layer inception_4b/pool_proj
I0403 17:56:05.151895 15543 net.cpp:425] inception_4b/pool_proj <- inception_4b/pool
I0403 17:56:05.151913 15543 net.cpp:399] inception_4b/pool_proj -> inception_4b/pool_proj
I0403 17:56:05.153080 15543 net.cpp:141] Setting up inception_4b/pool_proj
I0403 17:56:05.153107 15543 net.cpp:148] Top shape: 24 64 14 14 (301056)
I0403 17:56:05.153122 15543 net.cpp:156] Memory required for data: 979019040
I0403 17:56:05.153141 15543 layer_factory.hpp:77] Creating layer inception_4b/relu_pool_proj
I0403 17:56:05.153158 15543 net.cpp:91] Creating Layer inception_4b/relu_pool_proj
I0403 17:56:05.153177 15543 net.cpp:425] inception_4b/relu_pool_proj <- inception_4b/pool_proj
I0403 17:56:05.153193 15543 net.cpp:386] inception_4b/relu_pool_proj -> inception_4b/pool_proj (in-place)
I0403 17:56:05.153369 15543 net.cpp:141] Setting up inception_4b/relu_pool_proj
I0403 17:56:05.153393 15543 net.cpp:148] Top shape: 24 64 14 14 (301056)
I0403 17:56:05.153408 15543 net.cpp:156] Memory required for data: 980223264
I0403 17:56:05.153422 15543 layer_factory.hpp:77] Creating layer inception_4b/output
I0403 17:56:05.153441 15543 net.cpp:91] Creating Layer inception_4b/output
I0403 17:56:05.153457 15543 net.cpp:425] inception_4b/output <- inception_4b/1x1
I0403 17:56:05.153473 15543 net.cpp:425] inception_4b/output <- inception_4b/3x3
I0403 17:56:05.153489 15543 net.cpp:425] inception_4b/output <- inception_4b/5x5
I0403 17:56:05.153504 15543 net.cpp:425] inception_4b/output <- inception_4b/pool_proj
I0403 17:56:05.153522 15543 net.cpp:399] inception_4b/output -> inception_4b/output
I0403 17:56:05.153566 15543 net.cpp:141] Setting up inception_4b/output
I0403 17:56:05.153589 15543 net.cpp:148] Top shape: 24 512 14 14 (2408448)
I0403 17:56:05.153602 15543 net.cpp:156] Memory required for data: 989857056
I0403 17:56:05.153630 15543 layer_factory.hpp:77] Creating layer inception_4b/output_inception_4b/output_0_split
I0403 17:56:05.153648 15543 net.cpp:91] Creating Layer inception_4b/output_inception_4b/output_0_split
I0403 17:56:05.153664 15543 net.cpp:425] inception_4b/output_inception_4b/output_0_split <- inception_4b/output
I0403 17:56:05.153686 15543 net.cpp:399] inception_4b/output_inception_4b/output_0_split -> inception_4b/output_inception_4b/output_0_split_0
I0403 17:56:05.153707 15543 net.cpp:399] inception_4b/output_inception_4b/output_0_split -> inception_4b/output_inception_4b/output_0_split_1
I0403 17:56:05.153728 15543 net.cpp:399] inception_4b/output_inception_4b/output_0_split -> inception_4b/output_inception_4b/output_0_split_2
I0403 17:56:05.153746 15543 net.cpp:399] inception_4b/output_inception_4b/output_0_split -> inception_4b/output_inception_4b/output_0_split_3
I0403 17:56:05.153826 15543 net.cpp:141] Setting up inception_4b/output_inception_4b/output_0_split
I0403 17:56:05.153852 15543 net.cpp:148] Top shape: 24 512 14 14 (2408448)
I0403 17:56:05.153869 15543 net.cpp:148] Top shape: 24 512 14 14 (2408448)
I0403 17:56:05.153885 15543 net.cpp:148] Top shape: 24 512 14 14 (2408448)
I0403 17:56:05.153899 15543 net.cpp:148] Top shape: 24 512 14 14 (2408448)
I0403 17:56:05.153913 15543 net.cpp:156] Memory required for data: 1028392224
I0403 17:56:05.153929 15543 layer_factory.hpp:77] Creating layer inception_4c/1x1
I0403 17:56:05.153954 15543 net.cpp:91] Creating Layer inception_4c/1x1
I0403 17:56:05.153973 15543 net.cpp:425] inception_4c/1x1 <- inception_4b/output_inception_4b/output_0_split_0
I0403 17:56:05.153991 15543 net.cpp:399] inception_4c/1x1 -> inception_4c/1x1
I0403 17:56:05.155372 15543 net.cpp:141] Setting up inception_4c/1x1
I0403 17:56:05.155400 15543 net.cpp:148] Top shape: 24 128 14 14 (602112)
I0403 17:56:05.155416 15543 net.cpp:156] Memory required for data: 1030800672
I0403 17:56:05.155432 15543 layer_factory.hpp:77] Creating layer inception_4c/relu_1x1
I0403 17:56:05.155453 15543 net.cpp:91] Creating Layer inception_4c/relu_1x1
I0403 17:56:05.155470 15543 net.cpp:425] inception_4c/relu_1x1 <- inception_4c/1x1
I0403 17:56:05.155488 15543 net.cpp:386] inception_4c/relu_1x1 -> inception_4c/1x1 (in-place)
I0403 17:56:05.155663 15543 net.cpp:141] Setting up inception_4c/relu_1x1
I0403 17:56:05.155689 15543 net.cpp:148] Top shape: 24 128 14 14 (602112)
I0403 17:56:05.155704 15543 net.cpp:156] Memory required for data: 1033209120
I0403 17:56:05.155717 15543 layer_factory.hpp:77] Creating layer inception_4c/3x3_reduce
I0403 17:56:05.155738 15543 net.cpp:91] Creating Layer inception_4c/3x3_reduce
I0403 17:56:05.155755 15543 net.cpp:425] inception_4c/3x3_reduce <- inception_4b/output_inception_4b/output_0_split_1
I0403 17:56:05.155774 15543 net.cpp:399] inception_4c/3x3_reduce -> inception_4c/3x3_reduce
I0403 17:56:05.157697 15543 net.cpp:141] Setting up inception_4c/3x3_reduce
I0403 17:56:05.157726 15543 net.cpp:148] Top shape: 24 128 14 14 (602112)
I0403 17:56:05.157740 15543 net.cpp:156] Memory required for data: 1035617568
I0403 17:56:05.157759 15543 layer_factory.hpp:77] Creating layer inception_4c/relu_3x3_reduce
I0403 17:56:05.157776 15543 net.cpp:91] Creating Layer inception_4c/relu_3x3_reduce
I0403 17:56:05.157791 15543 net.cpp:425] inception_4c/relu_3x3_reduce <- inception_4c/3x3_reduce
I0403 17:56:05.157810 15543 net.cpp:386] inception_4c/relu_3x3_reduce -> inception_4c/3x3_reduce (in-place)
I0403 17:56:05.158105 15543 net.cpp:141] Setting up inception_4c/relu_3x3_reduce
I0403 17:56:05.158131 15543 net.cpp:148] Top shape: 24 128 14 14 (602112)
I0403 17:56:05.158146 15543 net.cpp:156] Memory required for data: 1038026016
I0403 17:56:05.158161 15543 layer_factory.hpp:77] Creating layer inception_4c/3x3
I0403 17:56:05.158185 15543 net.cpp:91] Creating Layer inception_4c/3x3
I0403 17:56:05.158201 15543 net.cpp:425] inception_4c/3x3 <- inception_4c/3x3_reduce
I0403 17:56:05.158221 15543 net.cpp:399] inception_4c/3x3 -> inception_4c/3x3
I0403 17:56:05.161833 15543 net.cpp:141] Setting up inception_4c/3x3
I0403 17:56:05.161872 15543 net.cpp:148] Top shape: 24 256 14 14 (1204224)
I0403 17:56:05.161887 15543 net.cpp:156] Memory required for data: 1042842912
I0403 17:56:05.161921 15543 layer_factory.hpp:77] Creating layer inception_4c/relu_3x3
I0403 17:56:05.161942 15543 net.cpp:91] Creating Layer inception_4c/relu_3x3
I0403 17:56:05.161963 15543 net.cpp:425] inception_4c/relu_3x3 <- inception_4c/3x3
I0403 17:56:05.161983 15543 net.cpp:386] inception_4c/relu_3x3 -> inception_4c/3x3 (in-place)
I0403 17:56:05.162160 15543 net.cpp:141] Setting up inception_4c/relu_3x3
I0403 17:56:05.162184 15543 net.cpp:148] Top shape: 24 256 14 14 (1204224)
I0403 17:56:05.162199 15543 net.cpp:156] Memory required for data: 1047659808
I0403 17:56:05.162214 15543 layer_factory.hpp:77] Creating layer inception_4c/5x5_reduce
I0403 17:56:05.162236 15543 net.cpp:91] Creating Layer inception_4c/5x5_reduce
I0403 17:56:05.162253 15543 net.cpp:425] inception_4c/5x5_reduce <- inception_4b/output_inception_4b/output_0_split_2
I0403 17:56:05.162274 15543 net.cpp:399] inception_4c/5x5_reduce -> inception_4c/5x5_reduce
I0403 17:56:05.163328 15543 net.cpp:141] Setting up inception_4c/5x5_reduce
I0403 17:56:05.163355 15543 net.cpp:148] Top shape: 24 24 14 14 (112896)
I0403 17:56:05.163372 15543 net.cpp:156] Memory required for data: 1048111392
I0403 17:56:05.163388 15543 layer_factory.hpp:77] Creating layer inception_4c/relu_5x5_reduce
I0403 17:56:05.163405 15543 net.cpp:91] Creating Layer inception_4c/relu_5x5_reduce
I0403 17:56:05.163421 15543 net.cpp:425] inception_4c/relu_5x5_reduce <- inception_4c/5x5_reduce
I0403 17:56:05.163439 15543 net.cpp:386] inception_4c/relu_5x5_reduce -> inception_4c/5x5_reduce (in-place)
I0403 17:56:05.163619 15543 net.cpp:141] Setting up inception_4c/relu_5x5_reduce
I0403 17:56:05.163643 15543 net.cpp:148] Top shape: 24 24 14 14 (112896)
I0403 17:56:05.163657 15543 net.cpp:156] Memory required for data: 1048562976
I0403 17:56:05.163672 15543 layer_factory.hpp:77] Creating layer inception_4c/5x5
I0403 17:56:05.163694 15543 net.cpp:91] Creating Layer inception_4c/5x5
I0403 17:56:05.163712 15543 net.cpp:425] inception_4c/5x5 <- inception_4c/5x5_reduce
I0403 17:56:05.163733 15543 net.cpp:399] inception_4c/5x5 -> inception_4c/5x5
I0403 17:56:05.164935 15543 net.cpp:141] Setting up inception_4c/5x5
I0403 17:56:05.164966 15543 net.cpp:148] Top shape: 24 64 14 14 (301056)
I0403 17:56:05.164983 15543 net.cpp:156] Memory required for data: 1049767200
I0403 17:56:05.165000 15543 layer_factory.hpp:77] Creating layer inception_4c/relu_5x5
I0403 17:56:05.165019 15543 net.cpp:91] Creating Layer inception_4c/relu_5x5
I0403 17:56:05.165036 15543 net.cpp:425] inception_4c/relu_5x5 <- inception_4c/5x5
I0403 17:56:05.165052 15543 net.cpp:386] inception_4c/relu_5x5 -> inception_4c/5x5 (in-place)
I0403 17:56:05.165350 15543 net.cpp:141] Setting up inception_4c/relu_5x5
I0403 17:56:05.165376 15543 net.cpp:148] Top shape: 24 64 14 14 (301056)
I0403 17:56:05.165392 15543 net.cpp:156] Memory required for data: 1050971424
I0403 17:56:05.165406 15543 layer_factory.hpp:77] Creating layer inception_4c/pool
I0403 17:56:05.165426 15543 net.cpp:91] Creating Layer inception_4c/pool
I0403 17:56:05.165443 15543 net.cpp:425] inception_4c/pool <- inception_4b/output_inception_4b/output_0_split_3
I0403 17:56:05.165462 15543 net.cpp:399] inception_4c/pool -> inception_4c/pool
I0403 17:56:05.165539 15543 net.cpp:141] Setting up inception_4c/pool
I0403 17:56:05.165561 15543 net.cpp:148] Top shape: 24 512 14 14 (2408448)
I0403 17:56:05.165576 15543 net.cpp:156] Memory required for data: 1060605216
I0403 17:56:05.165591 15543 layer_factory.hpp:77] Creating layer inception_4c/pool_proj
I0403 17:56:05.165612 15543 net.cpp:91] Creating Layer inception_4c/pool_proj
I0403 17:56:05.165629 15543 net.cpp:425] inception_4c/pool_proj <- inception_4c/pool
I0403 17:56:05.165649 15543 net.cpp:399] inception_4c/pool_proj -> inception_4c/pool_proj
I0403 17:56:05.166827 15543 net.cpp:141] Setting up inception_4c/pool_proj
I0403 17:56:05.166854 15543 net.cpp:148] Top shape: 24 64 14 14 (301056)
I0403 17:56:05.166882 15543 net.cpp:156] Memory required for data: 1061809440
I0403 17:56:05.166901 15543 layer_factory.hpp:77] Creating layer inception_4c/relu_pool_proj
I0403 17:56:05.166926 15543 net.cpp:91] Creating Layer inception_4c/relu_pool_proj
I0403 17:56:05.166942 15543 net.cpp:425] inception_4c/relu_pool_proj <- inception_4c/pool_proj
I0403 17:56:05.166967 15543 net.cpp:386] inception_4c/relu_pool_proj -> inception_4c/pool_proj (in-place)
I0403 17:56:05.167145 15543 net.cpp:141] Setting up inception_4c/relu_pool_proj
I0403 17:56:05.167170 15543 net.cpp:148] Top shape: 24 64 14 14 (301056)
I0403 17:56:05.167184 15543 net.cpp:156] Memory required for data: 1063013664
I0403 17:56:05.167198 15543 layer_factory.hpp:77] Creating layer inception_4c/output
I0403 17:56:05.167224 15543 net.cpp:91] Creating Layer inception_4c/output
I0403 17:56:05.167239 15543 net.cpp:425] inception_4c/output <- inception_4c/1x1
I0403 17:56:05.167258 15543 net.cpp:425] inception_4c/output <- inception_4c/3x3
I0403 17:56:05.167273 15543 net.cpp:425] inception_4c/output <- inception_4c/5x5
I0403 17:56:05.167289 15543 net.cpp:425] inception_4c/output <- inception_4c/pool_proj
I0403 17:56:05.167305 15543 net.cpp:399] inception_4c/output -> inception_4c/output
I0403 17:56:05.167352 15543 net.cpp:141] Setting up inception_4c/output
I0403 17:56:05.167376 15543 net.cpp:148] Top shape: 24 512 14 14 (2408448)
I0403 17:56:05.167389 15543 net.cpp:156] Memory required for data: 1072647456
I0403 17:56:05.167403 15543 layer_factory.hpp:77] Creating layer inception_4c/output_inception_4c/output_0_split
I0403 17:56:05.167419 15543 net.cpp:91] Creating Layer inception_4c/output_inception_4c/output_0_split
I0403 17:56:05.167434 15543 net.cpp:425] inception_4c/output_inception_4c/output_0_split <- inception_4c/output
I0403 17:56:05.167453 15543 net.cpp:399] inception_4c/output_inception_4c/output_0_split -> inception_4c/output_inception_4c/output_0_split_0
I0403 17:56:05.167474 15543 net.cpp:399] inception_4c/output_inception_4c/output_0_split -> inception_4c/output_inception_4c/output_0_split_1
I0403 17:56:05.167493 15543 net.cpp:399] inception_4c/output_inception_4c/output_0_split -> inception_4c/output_inception_4c/output_0_split_2
I0403 17:56:05.167513 15543 net.cpp:399] inception_4c/output_inception_4c/output_0_split -> inception_4c/output_inception_4c/output_0_split_3
I0403 17:56:05.167596 15543 net.cpp:141] Setting up inception_4c/output_inception_4c/output_0_split
I0403 17:56:05.167621 15543 net.cpp:148] Top shape: 24 512 14 14 (2408448)
I0403 17:56:05.167637 15543 net.cpp:148] Top shape: 24 512 14 14 (2408448)
I0403 17:56:05.167652 15543 net.cpp:148] Top shape: 24 512 14 14 (2408448)
I0403 17:56:05.167667 15543 net.cpp:148] Top shape: 24 512 14 14 (2408448)
I0403 17:56:05.167680 15543 net.cpp:156] Memory required for data: 1111182624
I0403 17:56:05.167695 15543 layer_factory.hpp:77] Creating layer inception_4d/1x1
I0403 17:56:05.167716 15543 net.cpp:91] Creating Layer inception_4d/1x1
I0403 17:56:05.167732 15543 net.cpp:425] inception_4d/1x1 <- inception_4c/output_inception_4c/output_0_split_0
I0403 17:56:05.167750 15543 net.cpp:399] inception_4d/1x1 -> inception_4d/1x1
I0403 17:56:05.169129 15543 net.cpp:141] Setting up inception_4d/1x1
I0403 17:56:05.169158 15543 net.cpp:148] Top shape: 24 112 14 14 (526848)
I0403 17:56:05.169174 15543 net.cpp:156] Memory required for data: 1113290016
I0403 17:56:05.169193 15543 layer_factory.hpp:77] Creating layer inception_4d/relu_1x1
I0403 17:56:05.169211 15543 net.cpp:91] Creating Layer inception_4d/relu_1x1
I0403 17:56:05.169227 15543 net.cpp:425] inception_4d/relu_1x1 <- inception_4d/1x1
I0403 17:56:05.169248 15543 net.cpp:386] inception_4d/relu_1x1 -> inception_4d/1x1 (in-place)
I0403 17:56:05.169426 15543 net.cpp:141] Setting up inception_4d/relu_1x1
I0403 17:56:05.169450 15543 net.cpp:148] Top shape: 24 112 14 14 (526848)
I0403 17:56:05.169464 15543 net.cpp:156] Memory required for data: 1115397408
I0403 17:56:05.169478 15543 layer_factory.hpp:77] Creating layer inception_4d/3x3_reduce
I0403 17:56:05.169513 15543 net.cpp:91] Creating Layer inception_4d/3x3_reduce
I0403 17:56:05.169531 15543 net.cpp:425] inception_4d/3x3_reduce <- inception_4c/output_inception_4c/output_0_split_1
I0403 17:56:05.169553 15543 net.cpp:399] inception_4d/3x3_reduce -> inception_4d/3x3_reduce
I0403 17:56:05.171064 15543 net.cpp:141] Setting up inception_4d/3x3_reduce
I0403 17:56:05.171092 15543 net.cpp:148] Top shape: 24 144 14 14 (677376)
I0403 17:56:05.171108 15543 net.cpp:156] Memory required for data: 1118106912
I0403 17:56:05.171126 15543 layer_factory.hpp:77] Creating layer inception_4d/relu_3x3_reduce
I0403 17:56:05.171146 15543 net.cpp:91] Creating Layer inception_4d/relu_3x3_reduce
I0403 17:56:05.171164 15543 net.cpp:425] inception_4d/relu_3x3_reduce <- inception_4d/3x3_reduce
I0403 17:56:05.171180 15543 net.cpp:386] inception_4d/relu_3x3_reduce -> inception_4d/3x3_reduce (in-place)
I0403 17:56:05.171468 15543 net.cpp:141] Setting up inception_4d/relu_3x3_reduce
I0403 17:56:05.171494 15543 net.cpp:148] Top shape: 24 144 14 14 (677376)
I0403 17:56:05.171509 15543 net.cpp:156] Memory required for data: 1120816416
I0403 17:56:05.171525 15543 layer_factory.hpp:77] Creating layer inception_4d/3x3
I0403 17:56:05.171546 15543 net.cpp:91] Creating Layer inception_4d/3x3
I0403 17:56:05.171564 15543 net.cpp:425] inception_4d/3x3 <- inception_4d/3x3_reduce
I0403 17:56:05.171586 15543 net.cpp:399] inception_4d/3x3 -> inception_4d/3x3
I0403 17:56:05.175873 15543 net.cpp:141] Setting up inception_4d/3x3
I0403 17:56:05.175904 15543 net.cpp:148] Top shape: 24 288 14 14 (1354752)
I0403 17:56:05.175922 15543 net.cpp:156] Memory required for data: 1126235424
I0403 17:56:05.175940 15543 layer_factory.hpp:77] Creating layer inception_4d/relu_3x3
I0403 17:56:05.175963 15543 net.cpp:91] Creating Layer inception_4d/relu_3x3
I0403 17:56:05.175981 15543 net.cpp:425] inception_4d/relu_3x3 <- inception_4d/3x3
I0403 17:56:05.175998 15543 net.cpp:386] inception_4d/relu_3x3 -> inception_4d/3x3 (in-place)
I0403 17:56:05.176184 15543 net.cpp:141] Setting up inception_4d/relu_3x3
I0403 17:56:05.176208 15543 net.cpp:148] Top shape: 24 288 14 14 (1354752)
I0403 17:56:05.176223 15543 net.cpp:156] Memory required for data: 1131654432
I0403 17:56:05.176239 15543 layer_factory.hpp:77] Creating layer inception_4d/5x5_reduce
I0403 17:56:05.176262 15543 net.cpp:91] Creating Layer inception_4d/5x5_reduce
I0403 17:56:05.176280 15543 net.cpp:425] inception_4d/5x5_reduce <- inception_4c/output_inception_4c/output_0_split_2
I0403 17:56:05.176301 15543 net.cpp:399] inception_4d/5x5_reduce -> inception_4d/5x5_reduce
I0403 17:56:05.177445 15543 net.cpp:141] Setting up inception_4d/5x5_reduce
I0403 17:56:05.177475 15543 net.cpp:148] Top shape: 24 32 14 14 (150528)
I0403 17:56:05.177492 15543 net.cpp:156] Memory required for data: 1132256544
I0403 17:56:05.177511 15543 layer_factory.hpp:77] Creating layer inception_4d/relu_5x5_reduce
I0403 17:56:05.177528 15543 net.cpp:91] Creating Layer inception_4d/relu_5x5_reduce
I0403 17:56:05.177546 15543 net.cpp:425] inception_4d/relu_5x5_reduce <- inception_4d/5x5_reduce
I0403 17:56:05.177564 15543 net.cpp:386] inception_4d/relu_5x5_reduce -> inception_4d/5x5_reduce (in-place)
I0403 17:56:05.177752 15543 net.cpp:141] Setting up inception_4d/relu_5x5_reduce
I0403 17:56:05.177777 15543 net.cpp:148] Top shape: 24 32 14 14 (150528)
I0403 17:56:05.177791 15543 net.cpp:156] Memory required for data: 1132858656
I0403 17:56:05.177805 15543 layer_factory.hpp:77] Creating layer inception_4d/5x5
I0403 17:56:05.177827 15543 net.cpp:91] Creating Layer inception_4d/5x5
I0403 17:56:05.177845 15543 net.cpp:425] inception_4d/5x5 <- inception_4d/5x5_reduce
I0403 17:56:05.177866 15543 net.cpp:399] inception_4d/5x5 -> inception_4d/5x5
I0403 17:56:05.179350 15543 net.cpp:141] Setting up inception_4d/5x5
I0403 17:56:05.179378 15543 net.cpp:148] Top shape: 24 64 14 14 (301056)
I0403 17:56:05.179394 15543 net.cpp:156] Memory required for data: 1134062880
I0403 17:56:05.179414 15543 layer_factory.hpp:77] Creating layer inception_4d/relu_5x5
I0403 17:56:05.179450 15543 net.cpp:91] Creating Layer inception_4d/relu_5x5
I0403 17:56:05.179467 15543 net.cpp:425] inception_4d/relu_5x5 <- inception_4d/5x5
I0403 17:56:05.179486 15543 net.cpp:386] inception_4d/relu_5x5 -> inception_4d/5x5 (in-place)
I0403 17:56:05.179785 15543 net.cpp:141] Setting up inception_4d/relu_5x5
I0403 17:56:05.179811 15543 net.cpp:148] Top shape: 24 64 14 14 (301056)
I0403 17:56:05.179826 15543 net.cpp:156] Memory required for data: 1135267104
I0403 17:56:05.179841 15543 layer_factory.hpp:77] Creating layer inception_4d/pool
I0403 17:56:05.179859 15543 net.cpp:91] Creating Layer inception_4d/pool
I0403 17:56:05.179875 15543 net.cpp:425] inception_4d/pool <- inception_4c/output_inception_4c/output_0_split_3
I0403 17:56:05.179895 15543 net.cpp:399] inception_4d/pool -> inception_4d/pool
I0403 17:56:05.179967 15543 net.cpp:141] Setting up inception_4d/pool
I0403 17:56:05.179992 15543 net.cpp:148] Top shape: 24 512 14 14 (2408448)
I0403 17:56:05.180007 15543 net.cpp:156] Memory required for data: 1144900896
I0403 17:56:05.180022 15543 layer_factory.hpp:77] Creating layer inception_4d/pool_proj
I0403 17:56:05.180047 15543 net.cpp:91] Creating Layer inception_4d/pool_proj
I0403 17:56:05.180065 15543 net.cpp:425] inception_4d/pool_proj <- inception_4d/pool
I0403 17:56:05.180084 15543 net.cpp:399] inception_4d/pool_proj -> inception_4d/pool_proj
I0403 17:56:05.181869 15543 net.cpp:141] Setting up inception_4d/pool_proj
I0403 17:56:05.181902 15543 net.cpp:148] Top shape: 24 64 14 14 (301056)
I0403 17:56:05.181921 15543 net.cpp:156] Memory required for data: 1146105120
I0403 17:56:05.181938 15543 layer_factory.hpp:77] Creating layer inception_4d/relu_pool_proj
I0403 17:56:05.181962 15543 net.cpp:91] Creating Layer inception_4d/relu_pool_proj
I0403 17:56:05.181979 15543 net.cpp:425] inception_4d/relu_pool_proj <- inception_4d/pool_proj
I0403 17:56:05.181996 15543 net.cpp:386] inception_4d/relu_pool_proj -> inception_4d/pool_proj (in-place)
I0403 17:56:05.182184 15543 net.cpp:141] Setting up inception_4d/relu_pool_proj
I0403 17:56:05.182210 15543 net.cpp:148] Top shape: 24 64 14 14 (301056)
I0403 17:56:05.182225 15543 net.cpp:156] Memory required for data: 1147309344
I0403 17:56:05.182240 15543 layer_factory.hpp:77] Creating layer inception_4d/output
I0403 17:56:05.182257 15543 net.cpp:91] Creating Layer inception_4d/output
I0403 17:56:05.182273 15543 net.cpp:425] inception_4d/output <- inception_4d/1x1
I0403 17:56:05.182291 15543 net.cpp:425] inception_4d/output <- inception_4d/3x3
I0403 17:56:05.182306 15543 net.cpp:425] inception_4d/output <- inception_4d/5x5
I0403 17:56:05.182322 15543 net.cpp:425] inception_4d/output <- inception_4d/pool_proj
I0403 17:56:05.182342 15543 net.cpp:399] inception_4d/output -> inception_4d/output
I0403 17:56:05.182389 15543 net.cpp:141] Setting up inception_4d/output
I0403 17:56:05.182415 15543 net.cpp:148] Top shape: 24 528 14 14 (2483712)
I0403 17:56:05.182431 15543 net.cpp:156] Memory required for data: 1157244192
I0403 17:56:05.182446 15543 layer_factory.hpp:77] Creating layer inception_4d/output_inception_4d/output_0_split
I0403 17:56:05.182463 15543 net.cpp:91] Creating Layer inception_4d/output_inception_4d/output_0_split
I0403 17:56:05.182479 15543 net.cpp:425] inception_4d/output_inception_4d/output_0_split <- inception_4d/output
I0403 17:56:05.182500 15543 net.cpp:399] inception_4d/output_inception_4d/output_0_split -> inception_4d/output_inception_4d/output_0_split_0
I0403 17:56:05.182521 15543 net.cpp:399] inception_4d/output_inception_4d/output_0_split -> inception_4d/output_inception_4d/output_0_split_1
I0403 17:56:05.182543 15543 net.cpp:399] inception_4d/output_inception_4d/output_0_split -> inception_4d/output_inception_4d/output_0_split_2
I0403 17:56:05.182564 15543 net.cpp:399] inception_4d/output_inception_4d/output_0_split -> inception_4d/output_inception_4d/output_0_split_3
I0403 17:56:05.182584 15543 net.cpp:399] inception_4d/output_inception_4d/output_0_split -> inception_4d/output_inception_4d/output_0_split_4
I0403 17:56:05.182684 15543 net.cpp:141] Setting up inception_4d/output_inception_4d/output_0_split
I0403 17:56:05.182719 15543 net.cpp:148] Top shape: 24 528 14 14 (2483712)
I0403 17:56:05.182736 15543 net.cpp:148] Top shape: 24 528 14 14 (2483712)
I0403 17:56:05.182752 15543 net.cpp:148] Top shape: 24 528 14 14 (2483712)
I0403 17:56:05.182768 15543 net.cpp:148] Top shape: 24 528 14 14 (2483712)
I0403 17:56:05.182783 15543 net.cpp:148] Top shape: 24 528 14 14 (2483712)
I0403 17:56:05.182797 15543 net.cpp:156] Memory required for data: 1206918432
I0403 17:56:05.182812 15543 layer_factory.hpp:77] Creating layer loss2/ave_pool
I0403 17:56:05.182832 15543 net.cpp:91] Creating Layer loss2/ave_pool
I0403 17:56:05.182849 15543 net.cpp:425] loss2/ave_pool <- inception_4d/output_inception_4d/output_0_split_0
I0403 17:56:05.182868 15543 net.cpp:399] loss2/ave_pool -> loss2/ave_pool
I0403 17:56:05.183187 15543 net.cpp:141] Setting up loss2/ave_pool
I0403 17:56:05.183215 15543 net.cpp:148] Top shape: 24 528 4 4 (202752)
I0403 17:56:05.183231 15543 net.cpp:156] Memory required for data: 1207729440
I0403 17:56:05.183246 15543 layer_factory.hpp:77] Creating layer loss2/conv
I0403 17:56:05.183269 15543 net.cpp:91] Creating Layer loss2/conv
I0403 17:56:05.183286 15543 net.cpp:425] loss2/conv <- loss2/ave_pool
I0403 17:56:05.183306 15543 net.cpp:399] loss2/conv -> loss2/conv
I0403 17:56:05.185199 15543 net.cpp:141] Setting up loss2/conv
I0403 17:56:05.185227 15543 net.cpp:148] Top shape: 24 128 4 4 (49152)
I0403 17:56:05.185243 15543 net.cpp:156] Memory required for data: 1207926048
I0403 17:56:05.185261 15543 layer_factory.hpp:77] Creating layer loss2/relu_conv
I0403 17:56:05.185282 15543 net.cpp:91] Creating Layer loss2/relu_conv
I0403 17:56:05.185300 15543 net.cpp:425] loss2/relu_conv <- loss2/conv
I0403 17:56:05.185317 15543 net.cpp:386] loss2/relu_conv -> loss2/conv (in-place)
I0403 17:56:05.185606 15543 net.cpp:141] Setting up loss2/relu_conv
I0403 17:56:05.185631 15543 net.cpp:148] Top shape: 24 128 4 4 (49152)
I0403 17:56:05.185647 15543 net.cpp:156] Memory required for data: 1208122656
I0403 17:56:05.185662 15543 layer_factory.hpp:77] Creating layer loss2/fc
I0403 17:56:05.185681 15543 net.cpp:91] Creating Layer loss2/fc
I0403 17:56:05.185698 15543 net.cpp:425] loss2/fc <- loss2/conv
I0403 17:56:05.185716 15543 net.cpp:399] loss2/fc -> loss2/fc
I0403 17:56:05.202997 15543 net.cpp:141] Setting up loss2/fc
I0403 17:56:05.203033 15543 net.cpp:148] Top shape: 24 1024 (24576)
I0403 17:56:05.203048 15543 net.cpp:156] Memory required for data: 1208220960
I0403 17:56:05.203068 15543 layer_factory.hpp:77] Creating layer loss2/relu_fc
I0403 17:56:05.203084 15543 net.cpp:91] Creating Layer loss2/relu_fc
I0403 17:56:05.203099 15543 net.cpp:425] loss2/relu_fc <- loss2/fc
I0403 17:56:05.203119 15543 net.cpp:386] loss2/relu_fc -> loss2/fc (in-place)
I0403 17:56:05.203410 15543 net.cpp:141] Setting up loss2/relu_fc
I0403 17:56:05.203438 15543 net.cpp:148] Top shape: 24 1024 (24576)
I0403 17:56:05.203454 15543 net.cpp:156] Memory required for data: 1208319264
I0403 17:56:05.203469 15543 layer_factory.hpp:77] Creating layer loss2/drop_fc
I0403 17:56:05.203487 15543 net.cpp:91] Creating Layer loss2/drop_fc
I0403 17:56:05.203502 15543 net.cpp:425] loss2/drop_fc <- loss2/fc
I0403 17:56:05.203522 15543 net.cpp:386] loss2/drop_fc -> loss2/fc (in-place)
I0403 17:56:05.203570 15543 net.cpp:141] Setting up loss2/drop_fc
I0403 17:56:05.203593 15543 net.cpp:148] Top shape: 24 1024 (24576)
I0403 17:56:05.203606 15543 net.cpp:156] Memory required for data: 1208417568
I0403 17:56:05.203621 15543 layer_factory.hpp:77] Creating layer loss2/classifier_plantvillage
I0403 17:56:05.203641 15543 net.cpp:91] Creating Layer loss2/classifier_plantvillage
I0403 17:56:05.203657 15543 net.cpp:425] loss2/classifier_plantvillage <- loss2/fc
I0403 17:56:05.203676 15543 net.cpp:399] loss2/classifier_plantvillage -> loss2/classifier_plantvillage
I0403 17:56:05.204069 15543 net.cpp:141] Setting up loss2/classifier_plantvillage
I0403 17:56:05.204094 15543 net.cpp:148] Top shape: 24 38 (912)
I0403 17:56:05.204124 15543 net.cpp:156] Memory required for data: 1208421216
I0403 17:56:05.204143 15543 layer_factory.hpp:77] Creating layer loss2/classifier_plantvillage_loss2/classifier_plantvillage_0_split
I0403 17:56:05.204162 15543 net.cpp:91] Creating Layer loss2/classifier_plantvillage_loss2/classifier_plantvillage_0_split
I0403 17:56:05.204179 15543 net.cpp:425] loss2/classifier_plantvillage_loss2/classifier_plantvillage_0_split <- loss2/classifier_plantvillage
I0403 17:56:05.204196 15543 net.cpp:399] loss2/classifier_plantvillage_loss2/classifier_plantvillage_0_split -> loss2/classifier_plantvillage_loss2/classifier_plantvillage_0_split_0
I0403 17:56:05.204216 15543 net.cpp:399] loss2/classifier_plantvillage_loss2/classifier_plantvillage_0_split -> loss2/classifier_plantvillage_loss2/classifier_plantvillage_0_split_1
I0403 17:56:05.204237 15543 net.cpp:399] loss2/classifier_plantvillage_loss2/classifier_plantvillage_0_split -> loss2/classifier_plantvillage_loss2/classifier_plantvillage_0_split_2
I0403 17:56:05.204313 15543 net.cpp:141] Setting up loss2/classifier_plantvillage_loss2/classifier_plantvillage_0_split
I0403 17:56:05.204336 15543 net.cpp:148] Top shape: 24 38 (912)
I0403 17:56:05.204351 15543 net.cpp:148] Top shape: 24 38 (912)
I0403 17:56:05.204366 15543 net.cpp:148] Top shape: 24 38 (912)
I0403 17:56:05.204380 15543 net.cpp:156] Memory required for data: 1208432160
I0403 17:56:05.204394 15543 layer_factory.hpp:77] Creating layer inception_4e/1x1
I0403 17:56:05.204413 15543 net.cpp:91] Creating Layer inception_4e/1x1
I0403 17:56:05.204430 15543 net.cpp:425] inception_4e/1x1 <- inception_4d/output_inception_4d/output_0_split_1
I0403 17:56:05.204450 15543 net.cpp:399] inception_4e/1x1 -> inception_4e/1x1
I0403 17:56:05.206260 15543 net.cpp:141] Setting up inception_4e/1x1
I0403 17:56:05.206289 15543 net.cpp:148] Top shape: 24 256 14 14 (1204224)
I0403 17:56:05.206303 15543 net.cpp:156] Memory required for data: 1213249056
I0403 17:56:05.206321 15543 layer_factory.hpp:77] Creating layer inception_4e/relu_1x1
I0403 17:56:05.206341 15543 net.cpp:91] Creating Layer inception_4e/relu_1x1
I0403 17:56:05.206357 15543 net.cpp:425] inception_4e/relu_1x1 <- inception_4e/1x1
I0403 17:56:05.206374 15543 net.cpp:386] inception_4e/relu_1x1 -> inception_4e/1x1 (in-place)
I0403 17:56:05.206665 15543 net.cpp:141] Setting up inception_4e/relu_1x1
I0403 17:56:05.206691 15543 net.cpp:148] Top shape: 24 256 14 14 (1204224)
I0403 17:56:05.206706 15543 net.cpp:156] Memory required for data: 1218065952
I0403 17:56:05.206719 15543 layer_factory.hpp:77] Creating layer inception_4e/3x3_reduce
I0403 17:56:05.206742 15543 net.cpp:91] Creating Layer inception_4e/3x3_reduce
I0403 17:56:05.206758 15543 net.cpp:425] inception_4e/3x3_reduce <- inception_4d/output_inception_4d/output_0_split_2
I0403 17:56:05.206779 15543 net.cpp:399] inception_4e/3x3_reduce -> inception_4e/3x3_reduce
I0403 17:56:05.208870 15543 net.cpp:141] Setting up inception_4e/3x3_reduce
I0403 17:56:05.208899 15543 net.cpp:148] Top shape: 24 160 14 14 (752640)
I0403 17:56:05.208914 15543 net.cpp:156] Memory required for data: 1221076512
I0403 17:56:05.208931 15543 layer_factory.hpp:77] Creating layer inception_4e/relu_3x3_reduce
I0403 17:56:05.208956 15543 net.cpp:91] Creating Layer inception_4e/relu_3x3_reduce
I0403 17:56:05.208973 15543 net.cpp:425] inception_4e/relu_3x3_reduce <- inception_4e/3x3_reduce
I0403 17:56:05.208989 15543 net.cpp:386] inception_4e/relu_3x3_reduce -> inception_4e/3x3_reduce (in-place)
I0403 17:56:05.209172 15543 net.cpp:141] Setting up inception_4e/relu_3x3_reduce
I0403 17:56:05.209195 15543 net.cpp:148] Top shape: 24 160 14 14 (752640)
I0403 17:56:05.209209 15543 net.cpp:156] Memory required for data: 1224087072
I0403 17:56:05.209224 15543 layer_factory.hpp:77] Creating layer inception_4e/3x3
I0403 17:56:05.209245 15543 net.cpp:91] Creating Layer inception_4e/3x3
I0403 17:56:05.209262 15543 net.cpp:425] inception_4e/3x3 <- inception_4e/3x3_reduce
I0403 17:56:05.209283 15543 net.cpp:399] inception_4e/3x3 -> inception_4e/3x3
I0403 17:56:05.214197 15543 net.cpp:141] Setting up inception_4e/3x3
I0403 17:56:05.214236 15543 net.cpp:148] Top shape: 24 320 14 14 (1505280)
I0403 17:56:05.214252 15543 net.cpp:156] Memory required for data: 1230108192
I0403 17:56:05.214269 15543 layer_factory.hpp:77] Creating layer inception_4e/relu_3x3
I0403 17:56:05.214290 15543 net.cpp:91] Creating Layer inception_4e/relu_3x3
I0403 17:56:05.214308 15543 net.cpp:425] inception_4e/relu_3x3 <- inception_4e/3x3
I0403 17:56:05.214323 15543 net.cpp:386] inception_4e/relu_3x3 -> inception_4e/3x3 (in-place)
I0403 17:56:05.214615 15543 net.cpp:141] Setting up inception_4e/relu_3x3
I0403 17:56:05.214643 15543 net.cpp:148] Top shape: 24 320 14 14 (1505280)
I0403 17:56:05.214659 15543 net.cpp:156] Memory required for data: 1236129312
I0403 17:56:05.214674 15543 layer_factory.hpp:77] Creating layer inception_4e/5x5_reduce
I0403 17:56:05.214697 15543 net.cpp:91] Creating Layer inception_4e/5x5_reduce
I0403 17:56:05.214715 15543 net.cpp:425] inception_4e/5x5_reduce <- inception_4d/output_inception_4d/output_0_split_3
I0403 17:56:05.214733 15543 net.cpp:399] inception_4e/5x5_reduce -> inception_4e/5x5_reduce
I0403 17:56:05.215776 15543 net.cpp:141] Setting up inception_4e/5x5_reduce
I0403 17:56:05.215803 15543 net.cpp:148] Top shape: 24 32 14 14 (150528)
I0403 17:56:05.215817 15543 net.cpp:156] Memory required for data: 1236731424
I0403 17:56:05.215834 15543 layer_factory.hpp:77] Creating layer inception_4e/relu_5x5_reduce
I0403 17:56:05.215855 15543 net.cpp:91] Creating Layer inception_4e/relu_5x5_reduce
I0403 17:56:05.215872 15543 net.cpp:425] inception_4e/relu_5x5_reduce <- inception_4e/5x5_reduce
I0403 17:56:05.215888 15543 net.cpp:386] inception_4e/relu_5x5_reduce -> inception_4e/5x5_reduce (in-place)
I0403 17:56:05.216186 15543 net.cpp:141] Setting up inception_4e/relu_5x5_reduce
I0403 17:56:05.216212 15543 net.cpp:148] Top shape: 24 32 14 14 (150528)
I0403 17:56:05.216226 15543 net.cpp:156] Memory required for data: 1237333536
I0403 17:56:05.216240 15543 layer_factory.hpp:77] Creating layer inception_4e/5x5
I0403 17:56:05.216277 15543 net.cpp:91] Creating Layer inception_4e/5x5
I0403 17:56:05.216296 15543 net.cpp:425] inception_4e/5x5 <- inception_4e/5x5_reduce
I0403 17:56:05.216315 15543 net.cpp:399] inception_4e/5x5 -> inception_4e/5x5
I0403 17:56:05.218138 15543 net.cpp:141] Setting up inception_4e/5x5
I0403 17:56:05.218165 15543 net.cpp:148] Top shape: 24 128 14 14 (602112)
I0403 17:56:05.218181 15543 net.cpp:156] Memory required for data: 1239741984
I0403 17:56:05.218200 15543 layer_factory.hpp:77] Creating layer inception_4e/relu_5x5
I0403 17:56:05.218217 15543 net.cpp:91] Creating Layer inception_4e/relu_5x5
I0403 17:56:05.218233 15543 net.cpp:425] inception_4e/relu_5x5 <- inception_4e/5x5
I0403 17:56:05.218252 15543 net.cpp:386] inception_4e/relu_5x5 -> inception_4e/5x5 (in-place)
I0403 17:56:05.218444 15543 net.cpp:141] Setting up inception_4e/relu_5x5
I0403 17:56:05.218468 15543 net.cpp:148] Top shape: 24 128 14 14 (602112)
I0403 17:56:05.218482 15543 net.cpp:156] Memory required for data: 1242150432
I0403 17:56:05.218497 15543 layer_factory.hpp:77] Creating layer inception_4e/pool
I0403 17:56:05.218516 15543 net.cpp:91] Creating Layer inception_4e/pool
I0403 17:56:05.218533 15543 net.cpp:425] inception_4e/pool <- inception_4d/output_inception_4d/output_0_split_4
I0403 17:56:05.218550 15543 net.cpp:399] inception_4e/pool -> inception_4e/pool
I0403 17:56:05.218619 15543 net.cpp:141] Setting up inception_4e/pool
I0403 17:56:05.218642 15543 net.cpp:148] Top shape: 24 528 14 14 (2483712)
I0403 17:56:05.218657 15543 net.cpp:156] Memory required for data: 1252085280
I0403 17:56:05.218670 15543 layer_factory.hpp:77] Creating layer inception_4e/pool_proj
I0403 17:56:05.218691 15543 net.cpp:91] Creating Layer inception_4e/pool_proj
I0403 17:56:05.218708 15543 net.cpp:425] inception_4e/pool_proj <- inception_4e/pool
I0403 17:56:05.218729 15543 net.cpp:399] inception_4e/pool_proj -> inception_4e/pool_proj
I0403 17:56:05.220211 15543 net.cpp:141] Setting up inception_4e/pool_proj
I0403 17:56:05.220252 15543 net.cpp:148] Top shape: 24 128 14 14 (602112)
I0403 17:56:05.220269 15543 net.cpp:156] Memory required for data: 1254493728
I0403 17:56:05.220286 15543 layer_factory.hpp:77] Creating layer inception_4e/relu_pool_proj
I0403 17:56:05.220304 15543 net.cpp:91] Creating Layer inception_4e/relu_pool_proj
I0403 17:56:05.220320 15543 net.cpp:425] inception_4e/relu_pool_proj <- inception_4e/pool_proj
I0403 17:56:05.220340 15543 net.cpp:386] inception_4e/relu_pool_proj -> inception_4e/pool_proj (in-place)
I0403 17:56:05.220636 15543 net.cpp:141] Setting up inception_4e/relu_pool_proj
I0403 17:56:05.220664 15543 net.cpp:148] Top shape: 24 128 14 14 (602112)
I0403 17:56:05.220679 15543 net.cpp:156] Memory required for data: 1256902176
I0403 17:56:05.220695 15543 layer_factory.hpp:77] Creating layer inception_4e/output
I0403 17:56:05.220711 15543 net.cpp:91] Creating Layer inception_4e/output
I0403 17:56:05.220727 15543 net.cpp:425] inception_4e/output <- inception_4e/1x1
I0403 17:56:05.220743 15543 net.cpp:425] inception_4e/output <- inception_4e/3x3
I0403 17:56:05.220759 15543 net.cpp:425] inception_4e/output <- inception_4e/5x5
I0403 17:56:05.220774 15543 net.cpp:425] inception_4e/output <- inception_4e/pool_proj
I0403 17:56:05.220790 15543 net.cpp:399] inception_4e/output -> inception_4e/output
I0403 17:56:05.220839 15543 net.cpp:141] Setting up inception_4e/output
I0403 17:56:05.220862 15543 net.cpp:148] Top shape: 24 832 14 14 (3913728)
I0403 17:56:05.220876 15543 net.cpp:156] Memory required for data: 1272557088
I0403 17:56:05.220890 15543 layer_factory.hpp:77] Creating layer pool4/3x3_s2
I0403 17:56:05.220909 15543 net.cpp:91] Creating Layer pool4/3x3_s2
I0403 17:56:05.220927 15543 net.cpp:425] pool4/3x3_s2 <- inception_4e/output
I0403 17:56:05.220943 15543 net.cpp:399] pool4/3x3_s2 -> pool4/3x3_s2
I0403 17:56:05.221016 15543 net.cpp:141] Setting up pool4/3x3_s2
I0403 17:56:05.221040 15543 net.cpp:148] Top shape: 24 832 7 7 (978432)
I0403 17:56:05.221053 15543 net.cpp:156] Memory required for data: 1276470816
I0403 17:56:05.221067 15543 layer_factory.hpp:77] Creating layer pool4/3x3_s2_pool4/3x3_s2_0_split
I0403 17:56:05.221084 15543 net.cpp:91] Creating Layer pool4/3x3_s2_pool4/3x3_s2_0_split
I0403 17:56:05.221101 15543 net.cpp:425] pool4/3x3_s2_pool4/3x3_s2_0_split <- pool4/3x3_s2
I0403 17:56:05.221119 15543 net.cpp:399] pool4/3x3_s2_pool4/3x3_s2_0_split -> pool4/3x3_s2_pool4/3x3_s2_0_split_0
I0403 17:56:05.221139 15543 net.cpp:399] pool4/3x3_s2_pool4/3x3_s2_0_split -> pool4/3x3_s2_pool4/3x3_s2_0_split_1
I0403 17:56:05.221160 15543 net.cpp:399] pool4/3x3_s2_pool4/3x3_s2_0_split -> pool4/3x3_s2_pool4/3x3_s2_0_split_2
I0403 17:56:05.221179 15543 net.cpp:399] pool4/3x3_s2_pool4/3x3_s2_0_split -> pool4/3x3_s2_pool4/3x3_s2_0_split_3
I0403 17:56:05.221282 15543 net.cpp:141] Setting up pool4/3x3_s2_pool4/3x3_s2_0_split
I0403 17:56:05.221307 15543 net.cpp:148] Top shape: 24 832 7 7 (978432)
I0403 17:56:05.221324 15543 net.cpp:148] Top shape: 24 832 7 7 (978432)
I0403 17:56:05.221340 15543 net.cpp:148] Top shape: 24 832 7 7 (978432)
I0403 17:56:05.221355 15543 net.cpp:148] Top shape: 24 832 7 7 (978432)
I0403 17:56:05.221369 15543 net.cpp:156] Memory required for data: 1292125728
I0403 17:56:05.221384 15543 layer_factory.hpp:77] Creating layer inception_5a/1x1
I0403 17:56:05.221405 15543 net.cpp:91] Creating Layer inception_5a/1x1
I0403 17:56:05.221422 15543 net.cpp:425] inception_5a/1x1 <- pool4/3x3_s2_pool4/3x3_s2_0_split_0
I0403 17:56:05.221441 15543 net.cpp:399] inception_5a/1x1 -> inception_5a/1x1
I0403 17:56:05.224242 15543 net.cpp:141] Setting up inception_5a/1x1
I0403 17:56:05.224270 15543 net.cpp:148] Top shape: 24 256 7 7 (301056)
I0403 17:56:05.224287 15543 net.cpp:156] Memory required for data: 1293329952
I0403 17:56:05.224304 15543 layer_factory.hpp:77] Creating layer inception_5a/relu_1x1
I0403 17:56:05.224323 15543 net.cpp:91] Creating Layer inception_5a/relu_1x1
I0403 17:56:05.224341 15543 net.cpp:425] inception_5a/relu_1x1 <- inception_5a/1x1
I0403 17:56:05.224359 15543 net.cpp:386] inception_5a/relu_1x1 -> inception_5a/1x1 (in-place)
I0403 17:56:05.224668 15543 net.cpp:141] Setting up inception_5a/relu_1x1
I0403 17:56:05.224694 15543 net.cpp:148] Top shape: 24 256 7 7 (301056)
I0403 17:56:05.224709 15543 net.cpp:156] Memory required for data: 1294534176
I0403 17:56:05.224722 15543 layer_factory.hpp:77] Creating layer inception_5a/3x3_reduce
I0403 17:56:05.224745 15543 net.cpp:91] Creating Layer inception_5a/3x3_reduce
I0403 17:56:05.224763 15543 net.cpp:425] inception_5a/3x3_reduce <- pool4/3x3_s2_pool4/3x3_s2_0_split_1
I0403 17:56:05.224784 15543 net.cpp:399] inception_5a/3x3_reduce -> inception_5a/3x3_reduce
I0403 17:56:05.227278 15543 net.cpp:141] Setting up inception_5a/3x3_reduce
I0403 17:56:05.227310 15543 net.cpp:148] Top shape: 24 160 7 7 (188160)
I0403 17:56:05.227326 15543 net.cpp:156] Memory required for data: 1295286816
I0403 17:56:05.227345 15543 layer_factory.hpp:77] Creating layer inception_5a/relu_3x3_reduce
I0403 17:56:05.227363 15543 net.cpp:91] Creating Layer inception_5a/relu_3x3_reduce
I0403 17:56:05.227380 15543 net.cpp:425] inception_5a/relu_3x3_reduce <- inception_5a/3x3_reduce
I0403 17:56:05.227397 15543 net.cpp:386] inception_5a/relu_3x3_reduce -> inception_5a/3x3_reduce (in-place)
I0403 17:56:05.227589 15543 net.cpp:141] Setting up inception_5a/relu_3x3_reduce
I0403 17:56:05.227615 15543 net.cpp:148] Top shape: 24 160 7 7 (188160)
I0403 17:56:05.227629 15543 net.cpp:156] Memory required for data: 1296039456
I0403 17:56:05.227645 15543 layer_factory.hpp:77] Creating layer inception_5a/3x3
I0403 17:56:05.227669 15543 net.cpp:91] Creating Layer inception_5a/3x3
I0403 17:56:05.227685 15543 net.cpp:425] inception_5a/3x3 <- inception_5a/3x3_reduce
I0403 17:56:05.227707 15543 net.cpp:399] inception_5a/3x3 -> inception_5a/3x3
I0403 17:56:05.232822 15543 net.cpp:141] Setting up inception_5a/3x3
I0403 17:56:05.232851 15543 net.cpp:148] Top shape: 24 320 7 7 (376320)
I0403 17:56:05.232867 15543 net.cpp:156] Memory required for data: 1297544736
I0403 17:56:05.232885 15543 layer_factory.hpp:77] Creating layer inception_5a/relu_3x3
I0403 17:56:05.232903 15543 net.cpp:91] Creating Layer inception_5a/relu_3x3
I0403 17:56:05.232923 15543 net.cpp:425] inception_5a/relu_3x3 <- inception_5a/3x3
I0403 17:56:05.232941 15543 net.cpp:386] inception_5a/relu_3x3 -> inception_5a/3x3 (in-place)
I0403 17:56:05.233249 15543 net.cpp:141] Setting up inception_5a/relu_3x3
I0403 17:56:05.233276 15543 net.cpp:148] Top shape: 24 320 7 7 (376320)
I0403 17:56:05.233291 15543 net.cpp:156] Memory required for data: 1299050016
I0403 17:56:05.233306 15543 layer_factory.hpp:77] Creating layer inception_5a/5x5_reduce
I0403 17:56:05.233328 15543 net.cpp:91] Creating Layer inception_5a/5x5_reduce
I0403 17:56:05.233346 15543 net.cpp:425] inception_5a/5x5_reduce <- pool4/3x3_s2_pool4/3x3_s2_0_split_2
I0403 17:56:05.233367 15543 net.cpp:399] inception_5a/5x5_reduce -> inception_5a/5x5_reduce
I0403 17:56:05.234554 15543 net.cpp:141] Setting up inception_5a/5x5_reduce
I0403 17:56:05.234582 15543 net.cpp:148] Top shape: 24 32 7 7 (37632)
I0403 17:56:05.234597 15543 net.cpp:156] Memory required for data: 1299200544
I0403 17:56:05.234616 15543 layer_factory.hpp:77] Creating layer inception_5a/relu_5x5_reduce
I0403 17:56:05.234637 15543 net.cpp:91] Creating Layer inception_5a/relu_5x5_reduce
I0403 17:56:05.234654 15543 net.cpp:425] inception_5a/relu_5x5_reduce <- inception_5a/5x5_reduce
I0403 17:56:05.234673 15543 net.cpp:386] inception_5a/relu_5x5_reduce -> inception_5a/5x5_reduce (in-place)
I0403 17:56:05.234979 15543 net.cpp:141] Setting up inception_5a/relu_5x5_reduce
I0403 17:56:05.235007 15543 net.cpp:148] Top shape: 24 32 7 7 (37632)
I0403 17:56:05.235021 15543 net.cpp:156] Memory required for data: 1299351072
I0403 17:56:05.235038 15543 layer_factory.hpp:77] Creating layer inception_5a/5x5
I0403 17:56:05.235059 15543 net.cpp:91] Creating Layer inception_5a/5x5
I0403 17:56:05.235077 15543 net.cpp:425] inception_5a/5x5 <- inception_5a/5x5_reduce
I0403 17:56:05.235100 15543 net.cpp:399] inception_5a/5x5 -> inception_5a/5x5
I0403 17:56:05.236837 15543 net.cpp:141] Setting up inception_5a/5x5
I0403 17:56:05.236876 15543 net.cpp:148] Top shape: 24 128 7 7 (150528)
I0403 17:56:05.236892 15543 net.cpp:156] Memory required for data: 1299953184
I0403 17:56:05.236910 15543 layer_factory.hpp:77] Creating layer inception_5a/relu_5x5
I0403 17:56:05.236930 15543 net.cpp:91] Creating Layer inception_5a/relu_5x5
I0403 17:56:05.236950 15543 net.cpp:425] inception_5a/relu_5x5 <- inception_5a/5x5
I0403 17:56:05.236973 15543 net.cpp:386] inception_5a/relu_5x5 -> inception_5a/5x5 (in-place)
I0403 17:56:05.237166 15543 net.cpp:141] Setting up inception_5a/relu_5x5
I0403 17:56:05.237191 15543 net.cpp:148] Top shape: 24 128 7 7 (150528)
I0403 17:56:05.237218 15543 net.cpp:156] Memory required for data: 1300555296
I0403 17:56:05.237233 15543 layer_factory.hpp:77] Creating layer inception_5a/pool
I0403 17:56:05.237253 15543 net.cpp:91] Creating Layer inception_5a/pool
I0403 17:56:05.237272 15543 net.cpp:425] inception_5a/pool <- pool4/3x3_s2_pool4/3x3_s2_0_split_3
I0403 17:56:05.237289 15543 net.cpp:399] inception_5a/pool -> inception_5a/pool
I0403 17:56:05.237365 15543 net.cpp:141] Setting up inception_5a/pool
I0403 17:56:05.237390 15543 net.cpp:148] Top shape: 24 832 7 7 (978432)
I0403 17:56:05.237404 15543 net.cpp:156] Memory required for data: 1304469024
I0403 17:56:05.237419 15543 layer_factory.hpp:77] Creating layer inception_5a/pool_proj
I0403 17:56:05.237442 15543 net.cpp:91] Creating Layer inception_5a/pool_proj
I0403 17:56:05.237460 15543 net.cpp:425] inception_5a/pool_proj <- inception_5a/pool
I0403 17:56:05.237483 15543 net.cpp:399] inception_5a/pool_proj -> inception_5a/pool_proj
I0403 17:56:05.239794 15543 net.cpp:141] Setting up inception_5a/pool_proj
I0403 17:56:05.239825 15543 net.cpp:148] Top shape: 24 128 7 7 (150528)
I0403 17:56:05.239842 15543 net.cpp:156] Memory required for data: 1305071136
I0403 17:56:05.239861 15543 layer_factory.hpp:77] Creating layer inception_5a/relu_pool_proj
I0403 17:56:05.239881 15543 net.cpp:91] Creating Layer inception_5a/relu_pool_proj
I0403 17:56:05.239897 15543 net.cpp:425] inception_5a/relu_pool_proj <- inception_5a/pool_proj
I0403 17:56:05.239915 15543 net.cpp:386] inception_5a/relu_pool_proj -> inception_5a/pool_proj (in-place)
I0403 17:56:05.240216 15543 net.cpp:141] Setting up inception_5a/relu_pool_proj
I0403 17:56:05.240244 15543 net.cpp:148] Top shape: 24 128 7 7 (150528)
I0403 17:56:05.240262 15543 net.cpp:156] Memory required for data: 1305673248
I0403 17:56:05.240275 15543 layer_factory.hpp:77] Creating layer inception_5a/output
I0403 17:56:05.240293 15543 net.cpp:91] Creating Layer inception_5a/output
I0403 17:56:05.240309 15543 net.cpp:425] inception_5a/output <- inception_5a/1x1
I0403 17:56:05.240325 15543 net.cpp:425] inception_5a/output <- inception_5a/3x3
I0403 17:56:05.240341 15543 net.cpp:425] inception_5a/output <- inception_5a/5x5
I0403 17:56:05.240357 15543 net.cpp:425] inception_5a/output <- inception_5a/pool_proj
I0403 17:56:05.240377 15543 net.cpp:399] inception_5a/output -> inception_5a/output
I0403 17:56:05.240427 15543 net.cpp:141] Setting up inception_5a/output
I0403 17:56:05.240452 15543 net.cpp:148] Top shape: 24 832 7 7 (978432)
I0403 17:56:05.240465 15543 net.cpp:156] Memory required for data: 1309586976
I0403 17:56:05.240480 15543 layer_factory.hpp:77] Creating layer inception_5a/output_inception_5a/output_0_split
I0403 17:56:05.240500 15543 net.cpp:91] Creating Layer inception_5a/output_inception_5a/output_0_split
I0403 17:56:05.240517 15543 net.cpp:425] inception_5a/output_inception_5a/output_0_split <- inception_5a/output
I0403 17:56:05.240535 15543 net.cpp:399] inception_5a/output_inception_5a/output_0_split -> inception_5a/output_inception_5a/output_0_split_0
I0403 17:56:05.240555 15543 net.cpp:399] inception_5a/output_inception_5a/output_0_split -> inception_5a/output_inception_5a/output_0_split_1
I0403 17:56:05.240577 15543 net.cpp:399] inception_5a/output_inception_5a/output_0_split -> inception_5a/output_inception_5a/output_0_split_2
I0403 17:56:05.240599 15543 net.cpp:399] inception_5a/output_inception_5a/output_0_split -> inception_5a/output_inception_5a/output_0_split_3
I0403 17:56:05.240710 15543 net.cpp:141] Setting up inception_5a/output_inception_5a/output_0_split
I0403 17:56:05.240733 15543 net.cpp:148] Top shape: 24 832 7 7 (978432)
I0403 17:56:05.240749 15543 net.cpp:148] Top shape: 24 832 7 7 (978432)
I0403 17:56:05.240766 15543 net.cpp:148] Top shape: 24 832 7 7 (978432)
I0403 17:56:05.240782 15543 net.cpp:148] Top shape: 24 832 7 7 (978432)
I0403 17:56:05.240794 15543 net.cpp:156] Memory required for data: 1325241888
I0403 17:56:05.240808 15543 layer_factory.hpp:77] Creating layer inception_5b/1x1
I0403 17:56:05.240830 15543 net.cpp:91] Creating Layer inception_5b/1x1
I0403 17:56:05.240849 15543 net.cpp:425] inception_5b/1x1 <- inception_5a/output_inception_5a/output_0_split_0
I0403 17:56:05.240869 15543 net.cpp:399] inception_5b/1x1 -> inception_5b/1x1
I0403 17:56:05.244602 15543 net.cpp:141] Setting up inception_5b/1x1
I0403 17:56:05.244633 15543 net.cpp:148] Top shape: 24 384 7 7 (451584)
I0403 17:56:05.244650 15543 net.cpp:156] Memory required for data: 1327048224
I0403 17:56:05.244668 15543 layer_factory.hpp:77] Creating layer inception_5b/relu_1x1
I0403 17:56:05.244686 15543 net.cpp:91] Creating Layer inception_5b/relu_1x1
I0403 17:56:05.244702 15543 net.cpp:425] inception_5b/relu_1x1 <- inception_5b/1x1
I0403 17:56:05.244719 15543 net.cpp:386] inception_5b/relu_1x1 -> inception_5b/1x1 (in-place)
I0403 17:56:05.245023 15543 net.cpp:141] Setting up inception_5b/relu_1x1
I0403 17:56:05.245050 15543 net.cpp:148] Top shape: 24 384 7 7 (451584)
I0403 17:56:05.245065 15543 net.cpp:156] Memory required for data: 1328854560
I0403 17:56:05.245080 15543 layer_factory.hpp:77] Creating layer inception_5b/3x3_reduce
I0403 17:56:05.245102 15543 net.cpp:91] Creating Layer inception_5b/3x3_reduce
I0403 17:56:05.245120 15543 net.cpp:425] inception_5b/3x3_reduce <- inception_5a/output_inception_5a/output_0_split_1
I0403 17:56:05.245138 15543 net.cpp:399] inception_5b/3x3_reduce -> inception_5b/3x3_reduce
I0403 17:56:05.247805 15543 net.cpp:141] Setting up inception_5b/3x3_reduce
I0403 17:56:05.247838 15543 net.cpp:148] Top shape: 24 192 7 7 (225792)
I0403 17:56:05.247855 15543 net.cpp:156] Memory required for data: 1329757728
I0403 17:56:05.247874 15543 layer_factory.hpp:77] Creating layer inception_5b/relu_3x3_reduce
I0403 17:56:05.247891 15543 net.cpp:91] Creating Layer inception_5b/relu_3x3_reduce
I0403 17:56:05.247906 15543 net.cpp:425] inception_5b/relu_3x3_reduce <- inception_5b/3x3_reduce
I0403 17:56:05.247927 15543 net.cpp:386] inception_5b/relu_3x3_reduce -> inception_5b/3x3_reduce (in-place)
I0403 17:56:05.248124 15543 net.cpp:141] Setting up inception_5b/relu_3x3_reduce
I0403 17:56:05.248148 15543 net.cpp:148] Top shape: 24 192 7 7 (225792)
I0403 17:56:05.248163 15543 net.cpp:156] Memory required for data: 1330660896
I0403 17:56:05.248178 15543 layer_factory.hpp:77] Creating layer inception_5b/3x3
I0403 17:56:05.248203 15543 net.cpp:91] Creating Layer inception_5b/3x3
I0403 17:56:05.248220 15543 net.cpp:425] inception_5b/3x3 <- inception_5b/3x3_reduce
I0403 17:56:05.248241 15543 net.cpp:399] inception_5b/3x3 -> inception_5b/3x3
I0403 17:56:05.254890 15543 net.cpp:141] Setting up inception_5b/3x3
I0403 17:56:05.254920 15543 net.cpp:148] Top shape: 24 384 7 7 (451584)
I0403 17:56:05.254936 15543 net.cpp:156] Memory required for data: 1332467232
I0403 17:56:05.254959 15543 layer_factory.hpp:77] Creating layer inception_5b/relu_3x3
I0403 17:56:05.254978 15543 net.cpp:91] Creating Layer inception_5b/relu_3x3
I0403 17:56:05.254994 15543 net.cpp:425] inception_5b/relu_3x3 <- inception_5b/3x3
I0403 17:56:05.255013 15543 net.cpp:386] inception_5b/relu_3x3 -> inception_5b/3x3 (in-place)
I0403 17:56:05.255302 15543 net.cpp:141] Setting up inception_5b/relu_3x3
I0403 17:56:05.255331 15543 net.cpp:148] Top shape: 24 384 7 7 (451584)
I0403 17:56:05.255347 15543 net.cpp:156] Memory required for data: 1334273568
I0403 17:56:05.255360 15543 layer_factory.hpp:77] Creating layer inception_5b/5x5_reduce
I0403 17:56:05.255398 15543 net.cpp:91] Creating Layer inception_5b/5x5_reduce
I0403 17:56:05.255415 15543 net.cpp:425] inception_5b/5x5_reduce <- inception_5a/output_inception_5a/output_0_split_2
I0403 17:56:05.255434 15543 net.cpp:399] inception_5b/5x5_reduce -> inception_5b/5x5_reduce
I0403 17:56:05.256711 15543 net.cpp:141] Setting up inception_5b/5x5_reduce
I0403 17:56:05.256741 15543 net.cpp:148] Top shape: 24 48 7 7 (56448)
I0403 17:56:05.256757 15543 net.cpp:156] Memory required for data: 1334499360
I0403 17:56:05.256774 15543 layer_factory.hpp:77] Creating layer inception_5b/relu_5x5_reduce
I0403 17:56:05.256791 15543 net.cpp:91] Creating Layer inception_5b/relu_5x5_reduce
I0403 17:56:05.256808 15543 net.cpp:425] inception_5b/relu_5x5_reduce <- inception_5b/5x5_reduce
I0403 17:56:05.256826 15543 net.cpp:386] inception_5b/relu_5x5_reduce -> inception_5b/5x5_reduce (in-place)
I0403 17:56:05.257196 15543 net.cpp:141] Setting up inception_5b/relu_5x5_reduce
I0403 17:56:05.257222 15543 net.cpp:148] Top shape: 24 48 7 7 (56448)
I0403 17:56:05.257238 15543 net.cpp:156] Memory required for data: 1334725152
I0403 17:56:05.257253 15543 layer_factory.hpp:77] Creating layer inception_5b/5x5
I0403 17:56:05.257272 15543 net.cpp:91] Creating Layer inception_5b/5x5
I0403 17:56:05.257289 15543 net.cpp:425] inception_5b/5x5 <- inception_5b/5x5_reduce
I0403 17:56:05.257308 15543 net.cpp:399] inception_5b/5x5 -> inception_5b/5x5
I0403 17:56:05.259326 15543 net.cpp:141] Setting up inception_5b/5x5
I0403 17:56:05.259353 15543 net.cpp:148] Top shape: 24 128 7 7 (150528)
I0403 17:56:05.259368 15543 net.cpp:156] Memory required for data: 1335327264
I0403 17:56:05.259387 15543 layer_factory.hpp:77] Creating layer inception_5b/relu_5x5
I0403 17:56:05.259404 15543 net.cpp:91] Creating Layer inception_5b/relu_5x5
I0403 17:56:05.259423 15543 net.cpp:425] inception_5b/relu_5x5 <- inception_5b/5x5
I0403 17:56:05.259440 15543 net.cpp:386] inception_5b/relu_5x5 -> inception_5b/5x5 (in-place)
I0403 17:56:05.259630 15543 net.cpp:141] Setting up inception_5b/relu_5x5
I0403 17:56:05.259654 15543 net.cpp:148] Top shape: 24 128 7 7 (150528)
I0403 17:56:05.259670 15543 net.cpp:156] Memory required for data: 1335929376
I0403 17:56:05.259683 15543 layer_factory.hpp:77] Creating layer inception_5b/pool
I0403 17:56:05.259703 15543 net.cpp:91] Creating Layer inception_5b/pool
I0403 17:56:05.259721 15543 net.cpp:425] inception_5b/pool <- inception_5a/output_inception_5a/output_0_split_3
I0403 17:56:05.259737 15543 net.cpp:399] inception_5b/pool -> inception_5b/pool
I0403 17:56:05.259809 15543 net.cpp:141] Setting up inception_5b/pool
I0403 17:56:05.259832 15543 net.cpp:148] Top shape: 24 832 7 7 (978432)
I0403 17:56:05.259846 15543 net.cpp:156] Memory required for data: 1339843104
I0403 17:56:05.259860 15543 layer_factory.hpp:77] Creating layer inception_5b/pool_proj
I0403 17:56:05.259882 15543 net.cpp:91] Creating Layer inception_5b/pool_proj
I0403 17:56:05.259898 15543 net.cpp:425] inception_5b/pool_proj <- inception_5b/pool
I0403 17:56:05.259919 15543 net.cpp:399] inception_5b/pool_proj -> inception_5b/pool_proj
I0403 17:56:05.262220 15543 net.cpp:141] Setting up inception_5b/pool_proj
I0403 17:56:05.262249 15543 net.cpp:148] Top shape: 24 128 7 7 (150528)
I0403 17:56:05.262265 15543 net.cpp:156] Memory required for data: 1340445216
I0403 17:56:05.262284 15543 layer_factory.hpp:77] Creating layer inception_5b/relu_pool_proj
I0403 17:56:05.262300 15543 net.cpp:91] Creating Layer inception_5b/relu_pool_proj
I0403 17:56:05.262316 15543 net.cpp:425] inception_5b/relu_pool_proj <- inception_5b/pool_proj
I0403 17:56:05.262336 15543 net.cpp:386] inception_5b/relu_pool_proj -> inception_5b/pool_proj (in-place)
I0403 17:56:05.262629 15543 net.cpp:141] Setting up inception_5b/relu_pool_proj
I0403 17:56:05.262655 15543 net.cpp:148] Top shape: 24 128 7 7 (150528)
I0403 17:56:05.262670 15543 net.cpp:156] Memory required for data: 1341047328
I0403 17:56:05.262683 15543 layer_factory.hpp:77] Creating layer inception_5b/output
I0403 17:56:05.262701 15543 net.cpp:91] Creating Layer inception_5b/output
I0403 17:56:05.262730 15543 net.cpp:425] inception_5b/output <- inception_5b/1x1
I0403 17:56:05.262748 15543 net.cpp:425] inception_5b/output <- inception_5b/3x3
I0403 17:56:05.262763 15543 net.cpp:425] inception_5b/output <- inception_5b/5x5
I0403 17:56:05.262780 15543 net.cpp:425] inception_5b/output <- inception_5b/pool_proj
I0403 17:56:05.262799 15543 net.cpp:399] inception_5b/output -> inception_5b/output
I0403 17:56:05.262848 15543 net.cpp:141] Setting up inception_5b/output
I0403 17:56:05.262871 15543 net.cpp:148] Top shape: 24 1024 7 7 (1204224)
I0403 17:56:05.262889 15543 net.cpp:156] Memory required for data: 1345864224
I0403 17:56:05.262903 15543 layer_factory.hpp:77] Creating layer pool5/7x7_s1
I0403 17:56:05.262923 15543 net.cpp:91] Creating Layer pool5/7x7_s1
I0403 17:56:05.262938 15543 net.cpp:425] pool5/7x7_s1 <- inception_5b/output
I0403 17:56:05.262960 15543 net.cpp:399] pool5/7x7_s1 -> pool5/7x7_s1
I0403 17:56:05.263177 15543 net.cpp:141] Setting up pool5/7x7_s1
I0403 17:56:05.263202 15543 net.cpp:148] Top shape: 24 1024 1 1 (24576)
I0403 17:56:05.263216 15543 net.cpp:156] Memory required for data: 1345962528
I0403 17:56:05.263231 15543 layer_factory.hpp:77] Creating layer pool5/drop_7x7_s1
I0403 17:56:05.263248 15543 net.cpp:91] Creating Layer pool5/drop_7x7_s1
I0403 17:56:05.263264 15543 net.cpp:425] pool5/drop_7x7_s1 <- pool5/7x7_s1
I0403 17:56:05.263283 15543 net.cpp:386] pool5/drop_7x7_s1 -> pool5/7x7_s1 (in-place)
I0403 17:56:05.263332 15543 net.cpp:141] Setting up pool5/drop_7x7_s1
I0403 17:56:05.263357 15543 net.cpp:148] Top shape: 24 1024 1 1 (24576)
I0403 17:56:05.263372 15543 net.cpp:156] Memory required for data: 1346060832
I0403 17:56:05.263387 15543 layer_factory.hpp:77] Creating layer loss3/classifier_plantvillage
I0403 17:56:05.263406 15543 net.cpp:91] Creating Layer loss3/classifier_plantvillage
I0403 17:56:05.263422 15543 net.cpp:425] loss3/classifier_plantvillage <- pool5/7x7_s1
I0403 17:56:05.263443 15543 net.cpp:399] loss3/classifier_plantvillage -> loss3/classifier_plantvillage
I0403 17:56:05.263859 15543 net.cpp:141] Setting up loss3/classifier_plantvillage
I0403 17:56:05.263882 15543 net.cpp:148] Top shape: 24 38 (912)
I0403 17:56:05.263896 15543 net.cpp:156] Memory required for data: 1346064480
I0403 17:56:05.263914 15543 layer_factory.hpp:77] Creating layer loss3/classifier_plantvillage_loss3/classifier_plantvillage_0_split
I0403 17:56:05.263936 15543 net.cpp:91] Creating Layer loss3/classifier_plantvillage_loss3/classifier_plantvillage_0_split
I0403 17:56:05.263955 15543 net.cpp:425] loss3/classifier_plantvillage_loss3/classifier_plantvillage_0_split <- loss3/classifier_plantvillage
I0403 17:56:05.263974 15543 net.cpp:399] loss3/classifier_plantvillage_loss3/classifier_plantvillage_0_split -> loss3/classifier_plantvillage_loss3/classifier_plantvillage_0_split_0
I0403 17:56:05.263994 15543 net.cpp:399] loss3/classifier_plantvillage_loss3/classifier_plantvillage_0_split -> loss3/classifier_plantvillage_loss3/classifier_plantvillage_0_split_1
I0403 17:56:05.264017 15543 net.cpp:399] loss3/classifier_plantvillage_loss3/classifier_plantvillage_0_split -> loss3/classifier_plantvillage_loss3/classifier_plantvillage_0_split_2
I0403 17:56:05.264037 15543 net.cpp:399] loss3/classifier_plantvillage_loss3/classifier_plantvillage_0_split -> loss3/classifier_plantvillage_loss3/classifier_plantvillage_0_split_3
I0403 17:56:05.264135 15543 net.cpp:141] Setting up loss3/classifier_plantvillage_loss3/classifier_plantvillage_0_split
I0403 17:56:05.264158 15543 net.cpp:148] Top shape: 24 38 (912)
I0403 17:56:05.264174 15543 net.cpp:148] Top shape: 24 38 (912)
I0403 17:56:05.264189 15543 net.cpp:148] Top shape: 24 38 (912)
I0403 17:56:05.264204 15543 net.cpp:148] Top shape: 24 38 (912)
I0403 17:56:05.264219 15543 net.cpp:156] Memory required for data: 1346079072
I0403 17:56:05.264232 15543 layer_factory.hpp:77] Creating layer loss1/loss
I0403 17:56:05.264253 15543 net.cpp:91] Creating Layer loss1/loss
I0403 17:56:05.264269 15543 net.cpp:425] loss1/loss <- loss1/classifier_plantvillage_loss1/classifier_plantvillage_0_split_0
I0403 17:56:05.264299 15543 net.cpp:425] loss1/loss <- label_data_1_split_0
…
