…
I0403 17:46:15.566476 14937 net.cpp:313] The NetState phase (1) differed from the phase (0) specified by a rule in layer data
I0403 17:46:15.567606 14937 net.cpp:49] Initializing net from parameters: 
state {
  phase: TEST
}
layer {
  name: "data"
  type: "Data"
  top: "data"
  top: "label"
  include {
    phase: TEST
  }
  transform_param {
    mirror: false
    crop_size: 224
    mean_file: "/home/mohanty/data/final_dataset/lmdb/grayscale-60-40/mean.binaryproto"
  }
  data_param {
    source: "/home/mohanty/data/final_dataset/lmdb/grayscale-60-40/test_db"
    batch_size: 24
    backend: LMDB
  }
}
layer {
  name: "conv1/7x7_s2"
  type: "Convolution"
  bottom: "data"
  top: "conv1/7x7_s2"
  param {
    lr_mult: 1
    decay_mult: 1
  }
  param {
    lr_mult: 2
    decay_mult: 0
  }
  convolution_param {
    num_output: 64
    pad: 3
    kernel_size: 7
    stride: 2
    weight_filler {
      type: "xavier"
      std: 0.1
    }
    bias_filler {
      type: "constant"
      value: 0.2
    }
  }
}
layer {
  name: "conv1/relu_7x7"
  type: "ReLU"
  bottom: "conv1/7x7_s2"
  top: "conv1/7x7_s2"
}
layer {
  name: "pool1/3x3_s2"
  type: "Pooling"
  bottom: "conv1/7x7_s2"
  top: "pool1/3x3_s2"
  pooling_param {
    pool: MAX
    kernel_size: 3
    stride: 2
  }
}
layer {
  name: "pool1/norm1"
  type: "LRN"
  bottom: "pool1/3x3_s2"
  top: "pool1/norm1"
  lrn_param {
    local_size: 5
    alpha: 0.0001
    beta: 0.75
  }
}
layer {
  name: "conv2/3x3_reduce"
  type: "Convolution"
  bottom: "pool1/norm1"
  top: "conv2/3x3_reduce"
  param {
    lr_mult: 1
    decay_mult: 1
  }
  param {
    lr_mult: 2
    decay_mult: 0
  }
  convolution_param {
    num_output: 64
    kernel_size: 1
    weight_filler {
      type: "xavier"
      std: 0.1
    }
    bias_filler {
      type: "constant"
      value: 0.2
    }
  }
}
layer {
  name: "conv2/relu_3x3_reduce"
  type: "ReLU"
  bottom: "conv2/3x3_reduce"
  top: "conv2/3x3_reduce"
}
layer {
  name: "conv2/3x3"
  type: "Convolution"
  bottom: "conv2/3x3_reduce"
  top: "conv2/3x3"
  param {
    lr_mult: 1
    decay_mult: 1
  }
  param {
    lr_mult: 2
    decay_mult: 0
  }
  convolution_param {
    num_output: 192
    pad: 1
    kernel_size: 3
    weight_filler {
      type: "xavier"
      std: 0.03
    }
    bias_filler {
      type: "constant"
      value: 0.2
    }
  }
}
layer {
  name: "conv2/relu_3x3"
  type: "ReLU"
  bottom: "conv2/3x3"
  top: "conv2/3x3"
}
layer {
  name: "conv2/norm2"
  type: "LRN"
  bottom: "conv2/3x3"
  top: "conv2/norm2"
  lrn_param {
    local_size: 5
    alpha: 0.0001
    beta: 0.75
  }
}
layer {
  name: "pool2/3x3_s2"
  type: "Pooling"
  bottom: "conv2/norm2"
  top: "pool2/3x3_s2"
  pooling_param {
    pool: MAX
    kernel_size: 3
    stride: 2
  }
}
layer {
  name: "inception_3a/1x1"
  type: "Convolution"
  bottom: "pool2/3x3_s2"
  top: "inception_3a/1x1"
  param {
    lr_mult: 1
    decay_mult: 1
  }
  param {
    lr_mult: 2
    decay_mult: 0
  }
  convolution_param {
    num_output: 64
    kernel_size: 1
    weight_filler {
      type: "xavier"
      std: 0.03
    }
    bias_filler {
      type: "constant"
      value: 0.2
    }
  }
}
layer {
  name: "inception_3a/relu_1x1"
  type: "ReLU"
  bottom: "inception_3a/1x1"
  top: "inception_3a/1x1"
}
layer {
  name: "inception_3a/3x3_reduce"
  type: "Convolution"
  bottom: "pool2/3x3_s2"
  top: "inception_3a/3x3_reduce"
  param {
    lr_mult: 1
    decay_mult: 1
  }
  param {
    lr_mult: 2
    decay_mult: 0
  }
  convolution_param {
    num_output: 96
    kernel_size: 1
    weight_filler {
      type: "xavier"
      std: 0.09
    }
    bias_filler {
      type: "constant"
      value: 0.2
    }
  }
}
layer {
  name: "inception_3a/relu_3x3_reduce"
  type: "ReLU"
  bottom: "inception_3a/3x3_reduce"
  top: "inception_3a/3x3_reduce"
}
layer {
  name: "inception_3a/3x3"
  type: "Convolution"
  bottom: "inception_3a/3x3_reduce"
  top: "inception_3a/3x3"
  param {
    lr_mult: 1
    decay_mult: 1
  }
  param {
    lr_mult: 2
    decay_mult: 0
  }
  convolution_param {
    num_output: 128
    pad: 1
    kernel_size: 3
    weight_filler {
      type: "xavier"
      std: 0.03
    }
    bias_filler {
      type: "constant"
      value: 0.2
    }
  }
}
layer {
  name: "inception_3a/relu_3x3"
  type: "ReLU"
  bottom: "inception_3a/3x3"
  top: "inception_3a/3x3"
}
layer {
  name: "inception_3a/5x5_reduce"
  type: "Convolution"
  bottom: "pool2/3x3_s2"
  top: "inception_3a/5x5_reduce"
  param {
    lr_mult: 1
    decay_mult: 1
  }
  param {
    lr_mult: 2
    decay_mult: 0
  }
  convolution_param {
    num_output: 16
    kernel_size: 1
    weight_filler {
      type: "xavier"
      std: 0.2
    }
    bias_filler {
      type: "constant"
      value: 0.2
    }
  }
}
layer {
  name: "inception_3a/relu_5x5_reduce"
  type: "ReLU"
  bottom: "inception_3a/5x5_reduce"
  top: "inception_3a/5x5_reduce"
}
layer {
  name: "inception_3a/5x5"
  type: "Convolution"
  bottom: "inception_3a/5x5_reduce"
  top: "inception_3a/5x5"
  param {
    lr_mult: 1
    decay_mult: 1
  }
  param {
    lr_mult: 2
    decay_mult: 0
  }
  convolution_param {
    num_output: 32
    pad: 2
    kernel_size: 5
    weight_filler {
      type: "xavier"
      std: 0.03
    }
    bias_filler {
      type: "constant"
      value: 0.2
    }
  }
}
layer {
  name: "inception_3a/relu_5x5"
  type: "ReLU"
  bottom: "inception_3a/5x5"
  top: "inception_3a/5x5"
}
layer {
  name: "inception_3a/pool"
  type: "Pooling"
  bottom: "pool2/3x3_s2"
  top: "inception_3a/pool"
  pooling_param {
    pool: MAX
    kernel_size: 3
    stride: 1
    pad: 1
  }
}
layer {
  name: "inception_3a/pool_proj"
  type: "Convolution"
  bottom: "inception_3a/pool"
  top: "inception_3a/pool_proj"
  param {
    lr_mult: 1
    decay_mult: 1
  }
  param {
    lr_mult: 2
    decay_mult: 0
  }
  convolution_param {
    num_output: 32
    kernel_size: 1
    weight_filler {
      type: "xavier"
      std: 0.1
    }
    bias_filler {
      type: "constant"
      value: 0.2
    }
  }
}
layer {
  name: "inception_3a/relu_pool_proj"
  type: "ReLU"
  bottom: "inception_3a/pool_proj"
  top: "inception_3a/pool_proj"
}
layer {
  name: "inception_3a/output"
  type: "Concat"
  bottom: "inception_3a/1x1"
  bottom: "inception_3a/3x3"
  bottom: "inception_3a/5x5"
  bottom: "inception_3a/pool_proj"
  top: "inception_3a/output"
}
layer {
  name: "inception_3b/1x1"
  type: "Convolution"
  bottom: "inception_3a/output"
  top: "inception_3b/1x1"
  param {
    lr_mult: 1
    decay_mult: 1
  }
  param {
    lr_mult: 2
    decay_mult: 0
  }
  convolution_param {
    num_output: 128
    kernel_size: 1
    weight_filler {
      type: "xavier"
      std: 0.03
    }
    bias_filler {
      type: "constant"
      value: 0.2
    }
  }
}
layer {
  name: "inception_3b/relu_1x1"
  type: "ReLU"
  bottom: "inception_3b/1x1"
  top: "inception_3b/1x1"
}
layer {
  name: "inception_3b/3x3_reduce"
  type: "Convolution"
  bottom: "inception_3a/output"
  top: "inception_3b/3x3_reduce"
  param {
    lr_mult: 1
    decay_mult: 1
  }
  param {
    lr_mult: 2
    decay_mult: 0
  }
  convolution_param {
    num_output: 128
    kernel_size: 1
    weight_filler {
      type: "xavier"
      std: 0.09
    }
    bias_filler {
      type: "constant"
      value: 0.2
    }
  }
}
layer {
  name: "inception_3b/relu_3x3_reduce"
  type: "ReLU"
  bottom: "inception_3b/3x3_reduce"
  top: "inception_3b/3x3_reduce"
}
layer {
  name: "inception_3b/3x3"
  type: "Convolution"
  bottom: "inception_3b/3x3_reduce"
  top: "inception_3b/3x3"
  param {
    lr_mult: 1
    decay_mult: 1
  }
  param {
    lr_mult: 2
    decay_mult: 0
  }
  convolution_param {
    num_output: 192
    pad: 1
    kernel_size: 3
    weight_filler {
      type: "xavier"
      std: 0.03
    }
    bias_filler {
      type: "constant"
      value: 0.2
    }
  }
}
layer {
  name: "inception_3b/relu_3x3"
  type: "ReLU"
  bottom: "inception_3b/3x3"
  top: "inception_3b/3x3"
}
layer {
  name: "inception_3b/5x5_reduce"
  type: "Convolution"
  bottom: "inception_3a/output"
  top: "inception_3b/5x5_reduce"
  param {
    lr_mult: 1
    decay_mult: 1
  }
  param {
    lr_mult: 2
    decay_mult: 0
  }
  convolution_param {
    num_output: 32
    kernel_size: 1
    weight_filler {
      type: "xavier"
      std: 0.2
    }
    bias_filler {
      type: "constant"
      value: 0.2
    }
  }
}
layer {
  name: "inception_3b/relu_5x5_reduce"
  type: "ReLU"
  bottom: "inception_3b/5x5_reduce"
  top: "inception_3b/5x5_reduce"
}
layer {
  name: "inception_3b/5x5"
  type: "Convolution"
  bottom: "inception_3b/5x5_reduce"
  top: "inception_3b/5x5"
  param {
    lr_mult: 1
    decay_mult: 1
  }
  param {
    lr_mult: 2
    decay_mult: 0
  }
  convolution_param {
    num_output: 96
    pad: 2
    kernel_size: 5
    weight_filler {
      type: "xavier"
      std: 0.03
    }
    bias_filler {
      type: "constant"
      value: 0.2
    }
  }
}
layer {
  name: "inception_3b/relu_5x5"
  type: "ReLU"
  bottom: "inception_3b/5x5"
  top: "inception_3b/5x5"
}
layer {
  name: "inception_3b/pool"
  type: "Pooling"
  bottom: "inception_3a/output"
  top: "inception_3b/pool"
  pooling_param {
    pool: MAX
    kernel_size: 3
    stride: 1
    pad: 1
  }
}
layer {
  name: "inception_3b/pool_proj"
  type: "Convolution"
  bottom: "inception_3b/pool"
  top: "inception_3b/pool_proj"
  param {
    lr_mult: 1
    decay_mult: 1
  }
  param {
    lr_mult: 2
    decay_mult: 0
  }
  convolution_param {
    num_output: 64
    kernel_size: 1
    weight_filler {
      type: "xavier"
      std: 0.1
    }
    bias_filler {
      type: "constant"
      value: 0.2
    }
  }
}
layer {
  name: "inception_3b/relu_pool_proj"
  type: "ReLU"
  bottom: "inception_3b/pool_proj"
  top: "inception_3b/pool_proj"
}
layer {
  name: "inception_3b/output"
  type: "Concat"
  bottom: "inception_3b/1x1"
  bottom: "inception_3b/3x3"
  bottom: "inception_3b/5x5"
  bottom: "inception_3b/pool_proj"
  top: "inception_3b/output"
}
layer {
  name: "pool3/3x3_s2"
  type: "Pooling"
  bottom: "inception_3b/output"
  top: "pool3/3x3_s2"
  pooling_param {
    pool: MAX
    kernel_size: 3
    stride: 2
  }
}
layer {
  name: "inception_4a/1x1"
  type: "Convolution"
  bottom: "pool3/3x3_s2"
  top: "inception_4a/1x1"
  param {
    lr_mult: 1
    decay_mult: 1
  }
  param {
    lr_mult: 2
    decay_mult: 0
  }
  convolution_param {
    num_output: 192
    kernel_size: 1
    weight_filler {
      type: "xavier"
      std: 0.03
    }
    bias_filler {
      type: "constant"
      value: 0.2
    }
  }
}
layer {
  name: "inception_4a/relu_1x1"
  type: "ReLU"
  bottom: "inception_4a/1x1"
  top: "inception_4a/1x1"
}
layer {
  name: "inception_4a/3x3_reduce"
  type: "Convolution"
  bottom: "pool3/3x3_s2"
  top: "inception_4a/3x3_reduce"
  param {
    lr_mult: 1
    decay_mult: 1
  }
  param {
    lr_mult: 2
    decay_mult: 0
  }
  convolution_param {
    num_output: 96
    kernel_size: 1
    weight_filler {
      type: "xavier"
      std: 0.09
    }
    bias_filler {
      type: "constant"
      value: 0.2
    }
  }
}
layer {
  name: "inception_4a/relu_3x3_reduce"
  type: "ReLU"
  bottom: "inception_4a/3x3_reduce"
  top: "inception_4a/3x3_reduce"
}
layer {
  name: "inception_4a/3x3"
  type: "Convolution"
  bottom: "inception_4a/3x3_reduce"
  top: "inception_4a/3x3"
  param {
    lr_mult: 1
    decay_mult: 1
  }
  param {
    lr_mult: 2
    decay_mult: 0
  }
  convolution_param {
    num_output: 208
    pad: 1
    kernel_size: 3
    weight_filler {
      type: "xavier"
      std: 0.03
    }
    bias_filler {
      type: "constant"
      value: 0.2
    }
  }
}
layer {
  name: "inception_4a/relu_3x3"
  type: "ReLU"
  bottom: "inception_4a/3x3"
  top: "inception_4a/3x3"
}
layer {
  name: "inception_4a/5x5_reduce"
  type: "Convolution"
  bottom: "pool3/3x3_s2"
  top: "inception_4a/5x5_reduce"
  param {
    lr_mult: 1
    decay_mult: 1
  }
  param {
    lr_mult: 2
    decay_mult: 0
  }
  convolution_param {
    num_output: 16
    kernel_size: 1
    weight_filler {
      type: "xavier"
      std: 0.2
    }
    bias_filler {
      type: "constant"
      value: 0.2
    }
  }
}
layer {
  name: "inception_4a/relu_5x5_reduce"
  type: "ReLU"
  bottom: "inception_4a/5x5_reduce"
  top: "inception_4a/5x5_reduce"
}
layer {
  name: "inception_4a/5x5"
  type: "Convolution"
  bottom: "inception_4a/5x5_reduce"
  top: "inception_4a/5x5"
  param {
    lr_mult: 1
    decay_mult: 1
  }
  param {
    lr_mult: 2
    decay_mult: 0
  }
  convolution_param {
    num_output: 48
    pad: 2
    kernel_size: 5
    weight_filler {
      type: "xavier"
      std: 0.03
    }
    bias_filler {
      type: "constant"
      value: 0.2
    }
  }
}
layer {
  name: "inception_4a/relu_5x5"
  type: "ReLU"
  bottom: "inception_4a/5x5"
  top: "inception_4a/5x5"
}
layer {
  name: "inception_4a/pool"
  type: "Pooling"
  bottom: "pool3/3x3_s2"
  top: "inception_4a/pool"
  pooling_param {
    pool: MAX
    kernel_size: 3
    stride: 1
    pad: 1
  }
}
layer {
  name: "inception_4a/pool_proj"
  type: "Convolution"
  bottom: "inception_4a/pool"
  top: "inception_4a/pool_proj"
  param {
    lr_mult: 1
    decay_mult: 1
  }
  param {
    lr_mult: 2
    decay_mult: 0
  }
  convolution_param {
    num_output: 64
    kernel_size: 1
    weight_filler {
      type: "xavier"
      std: 0.1
    }
    bias_filler {
      type: "constant"
      value: 0.2
    }
  }
}
layer {
  name: "inception_4a/relu_pool_proj"
  type: "ReLU"
  bottom: "inception_4a/pool_proj"
  top: "inception_4a/pool_proj"
}
layer {
  name: "inception_4a/output"
  type: "Concat"
  bottom: "inception_4a/1x1"
  bottom: "inception_4a/3x3"
  bottom: "inception_4a/5x5"
  bottom: "inception_4a/pool_proj"
  top: "inception_4a/output"
}
layer {
  name: "loss1/ave_pool"
  type: "Pooling"
  bottom: "inception_4a/output"
  top: "loss1/ave_pool"
  pooling_param {
    pool: AVE
    kernel_size: 5
    stride: 3
  }
}
layer {
  name: "loss1/conv"
  type: "Convolution"
  bottom: "loss1/ave_pool"
  top: "loss1/conv"
  param {
    lr_mult: 1
    decay_mult: 1
  }
  param {
    lr_mult: 2
    decay_mult: 0
  }
  convolution_param {
    num_output: 128
    kernel_size: 1
    weight_filler {
      type: "xavier"
      std: 0.08
    }
    bias_filler {
      type: "constant"
      value: 0.2
    }
  }
}
layer {
  name: "loss1/relu_conv"
  type: "ReLU"
  bottom: "loss1/conv"
  top: "loss1/conv"
}
layer {
  name: "loss1/fc"
  type: "InnerProduct"
  bottom: "loss1/conv"
  top: "loss1/fc"
  param {
    lr_mult: 1
    decay_mult: 1
  }
  param {
    lr_mult: 2
    decay_mult: 0
  }
  inner_product_param {
    num_output: 1024
    weight_filler {
      type: "xavier"
      std: 0.02
    }
    bias_filler {
      type: "constant"
      value: 0.2
    }
  }
}
layer {
  name: "loss1/relu_fc"
  type: "ReLU"
  bottom: "loss1/fc"
  top: "loss1/fc"
}
layer {
  name: "loss1/drop_fc"
  type: "Dropout"
  bottom: "loss1/fc"
  top: "loss1/fc"
  dropout_param {
    dropout_ratio: 0.7
  }
}
layer {
  name: "loss1/classifier_plantvillage"
  type: "InnerProduct"
  bottom: "loss1/fc"
  top: "loss1/classifier_plantvillage"
  param {
    lr_mult: 1
    decay_mult: 1
  }
  param {
    lr_mult: 2
    decay_mult: 0
  }
  inner_product_param {
    num_output: 38
    weight_filler {
      type: "xavier"
      std: 0.0009765625
    }
    bias_filler {
      type: "constant"
      value: 0
    }
  }
}
layer {
  name: "inception_4b/1x1"
  type: "Convolution"
  bottom: "inception_4a/output"
  top: "inception_4b/1x1"
  param {
    lr_mult: 1
    decay_mult: 1
  }
  param {
    lr_mult: 2
    decay_mult: 0
  }
  convolution_param {
    num_output: 160
    kernel_size: 1
    weight_filler {
      type: "xavier"
      std: 0.03
    }
    bias_filler {
      type: "constant"
      value: 0.2
    }
  }
}
layer {
  name: "inception_4b/relu_1x1"
  type: "ReLU"
  bottom: "inception_4b/1x1"
  top: "inception_4b/1x1"
}
layer {
  name: "inception_4b/3x3_reduce"
  type: "Convolution"
  bottom: "inception_4a/output"
  top: "inception_4b/3x3_reduce"
  param {
    lr_mult: 1
    decay_mult: 1
  }
  param {
    lr_mult: 2
    decay_mult: 0
  }
  convolution_param {
    num_output: 112
    kernel_size: 1
    weight_filler {
      type: "xavier"
      std: 0.09
    }
    bias_filler {
      type: "constant"
      value: 0.2
    }
  }
}
layer {
  name: "inception_4b/relu_3x3_reduce"
  type: "ReLU"
  bottom: "inception_4b/3x3_reduce"
  top: "inception_4b/3x3_reduce"
}
layer {
  name: "inception_4b/3x3"
  type: "Convolution"
  bottom: "inception_4b/3x3_reduce"
  top: "inception_4b/3x3"
  param {
    lr_mult: 1
    decay_mult: 1
  }
  param {
    lr_mult: 2
    decay_mult: 0
  }
  convolution_param {
    num_output: 224
    pad: 1
    kernel_size: 3
    weight_filler {
      type: "xavier"
      std: 0.03
    }
    bias_filler {
      type: "constant"
      value: 0.2
    }
  }
}
layer {
  name: "inception_4b/relu_3x3"
  type: "ReLU"
  bottom: "inception_4b/3x3"
  top: "inception_4b/3x3"
}
layer {
  name: "inception_4b/5x5_reduce"
  type: "Convolution"
  bottom: "inception_4a/output"
  top: "inception_4b/5x5_reduce"
  param {
    lr_mult: 1
    decay_mult: 1
  }
  param {
    lr_mult: 2
    decay_mult: 0
  }
  convolution_param {
    num_output: 24
    kernel_size: 1
    weight_filler {
      type: "xavier"
      std: 0.2
    }
    bias_filler {
      type: "constant"
      value: 0.2
    }
  }
}
layer {
  name: "inception_4b/relu_5x5_reduce"
  type: "ReLU"
  bottom: "inception_4b/5x5_reduce"
  top: "inception_4b/5x5_reduce"
}
layer {
  name: "inception_4b/5x5"
  type: "Convolution"
  bottom: "inception_4b/5x5_reduce"
  top: "inception_4b/5x5"
  param {
    lr_mult: 1
    decay_mult: 1
  }
  param {
    lr_mult: 2
    decay_mult: 0
  }
  convolution_param {
    num_output: 64
    pad: 2
    kernel_size: 5
    weight_filler {
      type: "xavier"
      std: 0.03
    }
    bias_filler {
      type: "constant"
      value: 0.2
    }
  }
}
layer {
  name: "inception_4b/relu_5x5"
  type: "ReLU"
  bottom: "inception_4b/5x5"
  top: "inception_4b/5x5"
}
layer {
  name: "inception_4b/pool"
  type: "Pooling"
  bottom: "inception_4a/output"
  top: "inception_4b/pool"
  pooling_param {
    pool: MAX
    kernel_size: 3
    stride: 1
    pad: 1
  }
}
layer {
  name: "inception_4b/pool_proj"
  type: "Convolution"
  bottom: "inception_4b/pool"
  top: "inception_4b/pool_proj"
  param {
    lr_mult: 1
    decay_mult: 1
  }
  param {
    lr_mult: 2
    decay_mult: 0
  }
  convolution_param {
    num_output: 64
    kernel_size: 1
    weight_filler {
      type: "xavier"
      std: 0.1
    }
    bias_filler {
      type: "constant"
      value: 0.2
    }
  }
}
layer {
  name: "inception_4b/relu_pool_proj"
  type: "ReLU"
  bottom: "inception_4b/pool_proj"
  top: "inception_4b/pool_proj"
}
layer {
  name: "inception_4b/output"
  type: "Concat"
  bottom: "inception_4b/1x1"
  bottom: "inception_4b/3x3"
  bottom: "inception_4b/5x5"
  bottom: "inception_4b/pool_proj"
  top: "inception_4b/output"
}
layer {
  name: "inception_4c/1x1"
  type: "Convolution"
  bottom: "inception_4b/output"
  top: "inception_4c/1x1"
  param {
    lr_mult: 1
    decay_mult: 1
  }
  param {
    lr_mult: 2
    decay_mult: 0
  }
  convolution_param {
    num_output: 128
    kernel_size: 1
    weight_filler {
      type: "xavier"
      std: 0.03
    }
    bias_filler {
      type: "constant"
      value: 0.2
    }
  }
}
layer {
  name: "inception_4c/relu_1x1"
  type: "ReLU"
  bottom: "inception_4c/1x1"
  top: "inception_4c/1x1"
}
layer {
  name: "inception_4c/3x3_reduce"
  type: "Convolution"
  bottom: "inception_4b/output"
  top: "inception_4c/3x3_reduce"
  param {
    lr_mult: 1
    decay_mult: 1
  }
  param {
    lr_mult: 2
    decay_mult: 0
  }
  convolution_param {
    num_output: 128
    kernel_size: 1
    weight_filler {
      type: "xavier"
      std: 0.09
    }
    bias_filler {
      type: "constant"
      value: 0.2
    }
  }
}
layer {
  name: "inception_4c/relu_3x3_reduce"
  type: "ReLU"
  bottom: "inception_4c/3x3_reduce"
  top: "inception_4c/3x3_reduce"
}
layer {
  name: "inception_4c/3x3"
  type: "Convolution"
  bottom: "inception_4c/3x3_reduce"
  top: "inception_4c/3x3"
  param {
    lr_mult: 1
    decay_mult: 1
  }
  param {
    lr_mult: 2
    decay_mult: 0
  }
  convolution_param {
    num_output: 256
    pad: 1
    kernel_size: 3
    weight_filler {
      type: "xavier"
      std: 0.03
    }
    bias_filler {
      type: "constant"
      value: 0.2
    }
  }
}
layer {
  name: "inception_4c/relu_3x3"
  type: "ReLU"
  bottom: "inception_4c/3x3"
  top: "inception_4c/3x3"
}
layer {
  name: "inception_4c/5x5_reduce"
  type: "Convolution"
  bottom: "inception_4b/output"
  top: "inception_4c/5x5_reduce"
  param {
    lr_mult: 1
    decay_mult: 1
  }
  param {
    lr_mult: 2
    decay_mult: 0
  }
  convolution_param {
    num_output: 24
    kernel_size: 1
    weight_filler {
      type: "xavier"
      std: 0.2
    }
    bias_filler {
      type: "constant"
      value: 0.2
    }
  }
}
layer {
  name: "inception_4c/relu_5x5_reduce"
  type: "ReLU"
  bottom: "inception_4c/5x5_reduce"
  top: "inception_4c/5x5_reduce"
}
layer {
  name: "inception_4c/5x5"
  type: "Convolution"
  bottom: "inception_4c/5x5_reduce"
  top: "inception_4c/5x5"
  param {
    lr_mult: 1
    decay_mult: 1
  }
  param {
    lr_mult: 2
    decay_mult: 0
  }
  convolution_param {
    num_output: 64
    pad: 2
    kernel_size: 5
    weight_filler {
      type: "xavier"
      std: 0.03
    }
    bias_filler {
      type: "constant"
      value: 0.2
    }
  }
}
layer {
  name: "inception_4c/relu_5x5"
  type: "ReLU"
  bottom: "inception_4c/5x5"
  top: "inception_4c/5x5"
}
layer {
  name: "inception_4c/pool"
  type: "Pooling"
  bottom: "inception_4b/output"
  top: "inception_4c/pool"
  pooling_param {
    pool: MAX
    kernel_size: 3
    stride: 1
    pad: 1
  }
}
layer {
  name: "inception_4c/pool_proj"
  type: "Convolution"
  bottom: "inception_4c/pool"
  top: "inception_4c/pool_proj"
  param {
    lr_mult: 1
    decay_mult: 1
  }
  param {
    lr_mult: 2
    decay_mult: 0
  }
  convolution_param {
    num_output: 64
    kernel_size: 1
    weight_filler {
      type: "xavier"
      std: 0.1
    }
    bias_filler {
      type: "constant"
      value: 0.2
    }
  }
}
layer {
  name: "inception_4c/relu_pool_proj"
  type: "ReLU"
  bottom: "inception_4c/pool_proj"
  top: "inception_4c/pool_proj"
}
layer {
  name: "inception_4c/output"
  type: "Concat"
  bottom: "inception_4c/1x1"
  bottom: "inception_4c/3x3"
  bottom: "inception_4c/5x5"
  bottom: "inception_4c/pool_proj"
  top: "inception_4c/output"
}
layer {
  name: "inception_4d/1x1"
  type: "Convolution"
  bottom: "inception_4c/output"
  top: "inception_4d/1x1"
  param {
    lr_mult: 1
    decay_mult: 1
  }
  param {
    lr_mult: 2
    decay_mult: 0
  }
  convolution_param {
    num_output: 112
    kernel_size: 1
    weight_filler {
      type: "xavier"
      std: 0.03
    }
    bias_filler {
      type: "constant"
      value: 0.2
    }
  }
}
layer {
  name: "inception_4d/relu_1x1"
  type: "ReLU"
  bottom: "inception_4d/1x1"
  top: "inception_4d/1x1"
}
layer {
  name: "inception_4d/3x3_reduce"
  type: "Convolution"
  bottom: "inception_4c/output"
  top: "inception_4d/3x3_reduce"
  param {
    lr_mult: 1
    decay_mult: 1
  }
  param {
    lr_mult: 2
    decay_mult: 0
  }
  convolution_param {
    num_output: 144
    kernel_size: 1
    weight_filler {
      type: "xavier"
      std: 0.09
    }
    bias_filler {
      type: "constant"
      value: 0.2
    }
  }
}
layer {
  name: "inception_4d/relu_3x3_reduce"
  type: "ReLU"
  bottom: "inception_4d/3x3_reduce"
  top: "inception_4d/3x3_reduce"
}
layer {
  name: "inception_4d/3x3"
  type: "Convolution"
  bottom: "inception_4d/3x3_reduce"
  top: "inception_4d/3x3"
  param {
    lr_mult: 1
    decay_mult: 1
  }
  param {
    lr_mult: 2
    decay_mult: 0
  }
  convolution_param {
    num_output: 288
    pad: 1
    kernel_size: 3
    weight_filler {
      type: "xavier"
      std: 0.03
    }
    bias_filler {
      type: "constant"
      value: 0.2
    }
  }
}
layer {
  name: "inception_4d/relu_3x3"
  type: "ReLU"
  bottom: "inception_4d/3x3"
  top: "inception_4d/3x3"
}
layer {
  name: "inception_4d/5x5_reduce"
  type: "Convolution"
  bottom: "inception_4c/output"
  top: "inception_4d/5x5_reduce"
  param {
    lr_mult: 1
    decay_mult: 1
  }
  param {
    lr_mult: 2
    decay_mult: 0
  }
  convolution_param {
    num_output: 32
    kernel_size: 1
    weight_filler {
      type: "xavier"
      std: 0.2
    }
    bias_filler {
      type: "constant"
      value: 0.2
    }
  }
}
layer {
  name: "inception_4d/relu_5x5_reduce"
  type: "ReLU"
  bottom: "inception_4d/5x5_reduce"
  top: "inception_4d/5x5_reduce"
}
layer {
  name: "inception_4d/5x5"
  type: "Convolution"
  bottom: "inception_4d/5x5_reduce"
  top: "inception_4d/5x5"
  param {
    lr_mult: 1
    decay_mult: 1
  }
  param {
    lr_mult: 2
    decay_mult: 0
  }
  convolution_param {
    num_output: 64
    pad: 2
    kernel_size: 5
    weight_filler {
      type: "xavier"
      std: 0.03
    }
    bias_filler {
      type: "constant"
      value: 0.2
    }
  }
}
layer {
  name: "inception_4d/relu_5x5"
  type: "ReLU"
  bottom: "inception_4d/5x5"
  top: "inception_4d/5x5"
}
layer {
  name: "inception_4d/pool"
  type: "Pooling"
  bottom: "inception_4c/output"
  top: "inception_4d/pool"
  pooling_param {
    pool: MAX
    kernel_size: 3
    stride: 1
    pad: 1
  }
}
layer {
  name: "inception_4d/pool_proj"
  type: "Convolution"
  bottom: "inception_4d/pool"
  top: "inception_4d/pool_proj"
  param {
    lr_mult: 1
    decay_mult: 1
  }
  param {
    lr_mult: 2
    decay_mult: 0
  }
  convolution_param {
    num_output: 64
    kernel_size: 1
    weight_filler {
      type: "xavier"
      std: 0.1
    }
    bias_filler {
      type: "constant"
      value: 0.2
    }
  }
}
layer {
  name: "inception_4d/relu_pool_proj"
  type: "ReLU"
  bottom: "inception_4d/pool_proj"
  top: "inception_4d/pool_proj"
}
layer {
  name: "inception_4d/output"
  type: "Concat"
  bottom: "inception_4d/1x1"
  bottom: "inception_4d/3x3"
  bottom: "inception_4d/5x5"
  bottom: "inception_4d/pool_proj"
  top: "inception_4d/output"
}
layer {
  name: "loss2/ave_pool"
  type: "Pooling"
  bottom: "inception_4d/output"
  top: "loss2/ave_pool"
  pooling_param {
    pool: AVE
    kernel_size: 5
    stride: 3
  }
}
layer {
  name: "loss2/conv"
  type: "Convolution"
  bottom: "loss2/ave_pool"
  top: "loss2/conv"
  param {
    lr_mult: 1
    decay_mult: 1
  }
  param {
    lr_mult: 2
    decay_mult: 0
  }
  convolution_param {
    num_output: 128
    kernel_size: 1
    weight_filler {
      type: "xavier"
      std: 0.08
    }
    bias_filler {
      type: "constant"
      value: 0.2
    }
  }
}
layer {
  name: "loss2/relu_conv"
  type: "ReLU"
  bottom: "loss2/conv"
  top: "loss2/conv"
}
layer {
  name: "loss2/fc"
  type: "InnerProduct"
  bottom: "loss2/conv"
  top: "loss2/fc"
  param {
    lr_mult: 1
    decay_mult: 1
  }
  param {
    lr_mult: 2
    decay_mult: 0
  }
  inner_product_param {
    num_output: 1024
    weight_filler {
      type: "xavier"
      std: 0.02
    }
    bias_filler {
      type: "constant"
      value: 0.2
    }
  }
}
layer {
  name: "loss2/relu_fc"
  type: "ReLU"
  bottom: "loss2/fc"
  top: "loss2/fc"
}
layer {
  name: "loss2/drop_fc"
  type: "Dropout"
  bottom: "loss2/fc"
  top: "loss2/fc"
  dropout_param {
    dropout_ratio: 0.7
  }
}
layer {
  name: "loss2/classifier_plantvillage"
  type: "InnerProduct"
  bottom: "loss2/fc"
  top: "loss2/classifier_plantvillage"
  param {
    lr_mult: 1
    decay_mult: 1
  }
  param {
    lr_mult: 2
    decay_mult: 0
  }
  inner_product_param {
    num_output: 38
    weight_filler {
      type: "xavier"
      std: 0.0009765625
    }
    bias_filler {
      type: "constant"
      value: 0
    }
  }
}
layer {
  name: "inception_4e/1x1"
  type: "Convolution"
  bottom: "inception_4d/output"
  top: "inception_4e/1x1"
  param {
    lr_mult: 1
    decay_mult: 1
  }
  param {
    lr_mult: 2
    decay_mult: 0
  }
  convolution_param {
    num_output: 256
    kernel_size: 1
    weight_filler {
      type: "xavier"
      std: 0.03
    }
    bias_filler {
      type: "constant"
      value: 0.2
    }
  }
}
layer {
  name: "inception_4e/relu_1x1"
  type: "ReLU"
  bottom: "inception_4e/1x1"
  top: "inception_4e/1x1"
}
layer {
  name: "inception_4e/3x3_reduce"
  type: "Convolution"
  bottom: "inception_4d/output"
  top: "inception_4e/3x3_reduce"
  param {
    lr_mult: 1
    decay_mult: 1
  }
  param {
    lr_mult: 2
    decay_mult: 0
  }
  convolution_param {
    num_output: 160
    kernel_size: 1
    weight_filler {
      type: "xavier"
      std: 0.09
    }
    bias_filler {
      type: "constant"
      value: 0.2
    }
  }
}
layer {
  name: "inception_4e/relu_3x3_reduce"
  type: "ReLU"
  bottom: "inception_4e/3x3_reduce"
  top: "inception_4e/3x3_reduce"
}
layer {
  name: "inception_4e/3x3"
  type: "Convolution"
  bottom: "inception_4e/3x3_reduce"
  top: "inception_4e/3x3"
  param {
    lr_mult: 1
    decay_mult: 1
  }
  param {
    lr_mult: 2
    decay_mult: 0
  }
  convolution_param {
    num_output: 320
    pad: 1
    kernel_size: 3
    weight_filler {
      type: "xavier"
      std: 0.03
    }
    bias_filler {
      type: "constant"
      value: 0.2
    }
  }
}
layer {
  name: "inception_4e/relu_3x3"
  type: "ReLU"
  bottom: "inception_4e/3x3"
  top: "inception_4e/3x3"
}
layer {
  name: "inception_4e/5x5_reduce"
  type: "Convolution"
  bottom: "inception_4d/output"
  top: "inception_4e/5x5_reduce"
  param {
    lr_mult: 1
    decay_mult: 1
  }
  param {
    lr_mult: 2
    decay_mult: 0
  }
  convolution_param {
    num_output: 32
    kernel_size: 1
    weight_filler {
      type: "xavier"
      std: 0.2
    }
    bias_filler {
      type: "constant"
      value: 0.2
    }
  }
}
layer {
  name: "inception_4e/relu_5x5_reduce"
  type: "ReLU"
  bottom: "inception_4e/5x5_reduce"
  top: "inception_4e/5x5_reduce"
}
layer {
  name: "inception_4e/5x5"
  type: "Convolution"
  bottom: "inception_4e/5x5_reduce"
  top: "inception_4e/
I0403 17:46:15.568799 14937 layer_factory.hpp:77] Creating layer data
I0403 17:46:15.569396 14937 net.cpp:91] Creating Layer data
I0403 17:46:15.569425 14937 net.cpp:399] data -> data
I0403 17:46:15.569476 14937 net.cpp:399] data -> label
I0403 17:46:15.569514 14937 data_transformer.cpp:25] Loading mean file from: /home/mohanty/data/final_dataset/lmdb/grayscale-60-40/mean.binaryproto
I0403 17:46:15.570641 14939 db_lmdb.cpp:38] Opened lmdb /home/mohanty/data/final_dataset/lmdb/grayscale-60-40/test_db
I0403 17:46:15.582173 14937 data_layer.cpp:41] output data size: 24,3,224,224
I0403 17:46:15.608330 14937 net.cpp:141] Setting up data
I0403 17:46:15.608409 14937 net.cpp:148] Top shape: 24 3 224 224 (3612672)
I0403 17:46:15.608434 14937 net.cpp:148] Top shape: 24 (24)
I0403 17:46:15.608450 14937 net.cpp:156] Memory required for data: 14450784
I0403 17:46:15.608479 14937 layer_factory.hpp:77] Creating layer label_data_1_split
I0403 17:46:15.608508 14937 net.cpp:91] Creating Layer label_data_1_split
I0403 17:46:15.608530 14937 net.cpp:425] label_data_1_split <- label
I0403 17:46:15.608563 14937 net.cpp:399] label_data_1_split -> label_data_1_split_0
I0403 17:46:15.608592 14937 net.cpp:399] label_data_1_split -> label_data_1_split_1
I0403 17:46:15.608616 14937 net.cpp:399] label_data_1_split -> label_data_1_split_2
I0403 17:46:15.608640 14937 net.cpp:399] label_data_1_split -> label_data_1_split_3
I0403 17:46:15.608661 14937 net.cpp:399] label_data_1_split -> label_data_1_split_4
I0403 17:46:15.608685 14937 net.cpp:399] label_data_1_split -> label_data_1_split_5
I0403 17:46:15.608705 14937 net.cpp:399] label_data_1_split -> label_data_1_split_6
I0403 17:46:15.608728 14937 net.cpp:399] label_data_1_split -> label_data_1_split_7
I0403 17:46:15.608749 14937 net.cpp:399] label_data_1_split -> label_data_1_split_8
I0403 17:46:15.608772 14937 net.cpp:399] label_data_1_split -> label_data_1_split_9
I0403 17:46:15.608887 14937 net.cpp:141] Setting up label_data_1_split
I0403 17:46:15.608913 14937 net.cpp:148] Top shape: 24 (24)
I0403 17:46:15.608933 14937 net.cpp:148] Top shape: 24 (24)
I0403 17:46:15.608954 14937 net.cpp:148] Top shape: 24 (24)
I0403 17:46:15.608973 14937 net.cpp:148] Top shape: 24 (24)
I0403 17:46:15.608989 14937 net.cpp:148] Top shape: 24 (24)
I0403 17:46:15.609006 14937 net.cpp:148] Top shape: 24 (24)
I0403 17:46:15.609025 14937 net.cpp:148] Top shape: 24 (24)
I0403 17:46:15.609042 14937 net.cpp:148] Top shape: 24 (24)
I0403 17:46:15.609060 14937 net.cpp:148] Top shape: 24 (24)
I0403 17:46:15.609076 14937 net.cpp:148] Top shape: 24 (24)
I0403 17:46:15.609113 14937 net.cpp:156] Memory required for data: 14451744
I0403 17:46:15.609132 14937 layer_factory.hpp:77] Creating layer conv1/7x7_s2
I0403 17:46:15.609164 14937 net.cpp:91] Creating Layer conv1/7x7_s2
I0403 17:46:15.609184 14937 net.cpp:425] conv1/7x7_s2 <- data
I0403 17:46:15.609205 14937 net.cpp:399] conv1/7x7_s2 -> conv1/7x7_s2
I0403 17:46:15.745020 14937 net.cpp:141] Setting up conv1/7x7_s2
I0403 17:46:15.745106 14937 net.cpp:148] Top shape: 24 64 112 112 (19267584)
I0403 17:46:15.745124 14937 net.cpp:156] Memory required for data: 91522080
I0403 17:46:15.745157 14937 layer_factory.hpp:77] Creating layer conv1/relu_7x7
I0403 17:46:15.745185 14937 net.cpp:91] Creating Layer conv1/relu_7x7
I0403 17:46:15.745205 14937 net.cpp:425] conv1/relu_7x7 <- conv1/7x7_s2
I0403 17:46:15.745225 14937 net.cpp:386] conv1/relu_7x7 -> conv1/7x7_s2 (in-place)
I0403 17:46:15.745492 14937 net.cpp:141] Setting up conv1/relu_7x7
I0403 17:46:15.745518 14937 net.cpp:148] Top shape: 24 64 112 112 (19267584)
I0403 17:46:15.745535 14937 net.cpp:156] Memory required for data: 168592416
I0403 17:46:15.745553 14937 layer_factory.hpp:77] Creating layer pool1/3x3_s2
I0403 17:46:15.745578 14937 net.cpp:91] Creating Layer pool1/3x3_s2
I0403 17:46:15.745597 14937 net.cpp:425] pool1/3x3_s2 <- conv1/7x7_s2
I0403 17:46:15.745616 14937 net.cpp:399] pool1/3x3_s2 -> pool1/3x3_s2
I0403 17:46:15.745692 14937 net.cpp:141] Setting up pool1/3x3_s2
I0403 17:46:15.745715 14937 net.cpp:148] Top shape: 24 64 56 56 (4816896)
I0403 17:46:15.745731 14937 net.cpp:156] Memory required for data: 187860000
I0403 17:46:15.745748 14937 layer_factory.hpp:77] Creating layer pool1/norm1
I0403 17:46:15.745772 14937 net.cpp:91] Creating Layer pool1/norm1
I0403 17:46:15.745790 14937 net.cpp:425] pool1/norm1 <- pool1/3x3_s2
I0403 17:46:15.745810 14937 net.cpp:399] pool1/norm1 -> pool1/norm1
I0403 17:46:15.746098 14937 net.cpp:141] Setting up pool1/norm1
I0403 17:46:15.746124 14937 net.cpp:148] Top shape: 24 64 56 56 (4816896)
I0403 17:46:15.746140 14937 net.cpp:156] Memory required for data: 207127584
I0403 17:46:15.746157 14937 layer_factory.hpp:77] Creating layer conv2/3x3_reduce
I0403 17:46:15.746183 14937 net.cpp:91] Creating Layer conv2/3x3_reduce
I0403 17:46:15.746201 14937 net.cpp:425] conv2/3x3_reduce <- pool1/norm1
I0403 17:46:15.746232 14937 net.cpp:399] conv2/3x3_reduce -> conv2/3x3_reduce
I0403 17:46:15.747625 14937 net.cpp:141] Setting up conv2/3x3_reduce
I0403 17:46:15.747655 14937 net.cpp:148] Top shape: 24 64 56 56 (4816896)
I0403 17:46:15.747673 14937 net.cpp:156] Memory required for data: 226395168
I0403 17:46:15.747697 14937 layer_factory.hpp:77] Creating layer conv2/relu_3x3_reduce
I0403 17:46:15.747719 14937 net.cpp:91] Creating Layer conv2/relu_3x3_reduce
I0403 17:46:15.747735 14937 net.cpp:425] conv2/relu_3x3_reduce <- conv2/3x3_reduce
I0403 17:46:15.747755 14937 net.cpp:386] conv2/relu_3x3_reduce -> conv2/3x3_reduce (in-place)
I0403 17:46:15.748044 14937 net.cpp:141] Setting up conv2/relu_3x3_reduce
I0403 17:46:15.748070 14937 net.cpp:148] Top shape: 24 64 56 56 (4816896)
I0403 17:46:15.748086 14937 net.cpp:156] Memory required for data: 245662752
I0403 17:46:15.748102 14937 layer_factory.hpp:77] Creating layer conv2/3x3
I0403 17:46:15.748127 14937 net.cpp:91] Creating Layer conv2/3x3
I0403 17:46:15.748147 14937 net.cpp:425] conv2/3x3 <- conv2/3x3_reduce
I0403 17:46:15.748168 14937 net.cpp:399] conv2/3x3 -> conv2/3x3
I0403 17:46:15.750460 14937 net.cpp:141] Setting up conv2/3x3
I0403 17:46:15.750490 14937 net.cpp:148] Top shape: 24 192 56 56 (14450688)
I0403 17:46:15.750509 14937 net.cpp:156] Memory required for data: 303465504
I0403 17:46:15.750533 14937 layer_factory.hpp:77] Creating layer conv2/relu_3x3
I0403 17:46:15.750555 14937 net.cpp:91] Creating Layer conv2/relu_3x3
I0403 17:46:15.750571 14937 net.cpp:425] conv2/relu_3x3 <- conv2/3x3
I0403 17:46:15.750589 14937 net.cpp:386] conv2/relu_3x3 -> conv2/3x3 (in-place)
I0403 17:46:15.750776 14937 net.cpp:141] Setting up conv2/relu_3x3
I0403 17:46:15.750803 14937 net.cpp:148] Top shape: 24 192 56 56 (14450688)
I0403 17:46:15.750849 14937 net.cpp:156] Memory required for data: 361268256
I0403 17:46:15.750865 14937 layer_factory.hpp:77] Creating layer conv2/norm2
I0403 17:46:15.750885 14937 net.cpp:91] Creating Layer conv2/norm2
I0403 17:46:15.750915 14937 net.cpp:425] conv2/norm2 <- conv2/3x3
I0403 17:46:15.750934 14937 net.cpp:399] conv2/norm2 -> conv2/norm2
I0403 17:46:15.751242 14937 net.cpp:141] Setting up conv2/norm2
I0403 17:46:15.751269 14937 net.cpp:148] Top shape: 24 192 56 56 (14450688)
I0403 17:46:15.751286 14937 net.cpp:156] Memory required for data: 419071008
I0403 17:46:15.751301 14937 layer_factory.hpp:77] Creating layer pool2/3x3_s2
I0403 17:46:15.751322 14937 net.cpp:91] Creating Layer pool2/3x3_s2
I0403 17:46:15.751339 14937 net.cpp:425] pool2/3x3_s2 <- conv2/norm2
I0403 17:46:15.751358 14937 net.cpp:399] pool2/3x3_s2 -> pool2/3x3_s2
I0403 17:46:15.751412 14937 net.cpp:141] Setting up pool2/3x3_s2
I0403 17:46:15.751435 14937 net.cpp:148] Top shape: 24 192 28 28 (3612672)
I0403 17:46:15.751451 14937 net.cpp:156] Memory required for data: 433521696
I0403 17:46:15.751466 14937 layer_factory.hpp:77] Creating layer pool2/3x3_s2_pool2/3x3_s2_0_split
I0403 17:46:15.751485 14937 net.cpp:91] Creating Layer pool2/3x3_s2_pool2/3x3_s2_0_split
I0403 17:46:15.751502 14937 net.cpp:425] pool2/3x3_s2_pool2/3x3_s2_0_split <- pool2/3x3_s2
I0403 17:46:15.751524 14937 net.cpp:399] pool2/3x3_s2_pool2/3x3_s2_0_split -> pool2/3x3_s2_pool2/3x3_s2_0_split_0
I0403 17:46:15.751545 14937 net.cpp:399] pool2/3x3_s2_pool2/3x3_s2_0_split -> pool2/3x3_s2_pool2/3x3_s2_0_split_1
I0403 17:46:15.751566 14937 net.cpp:399] pool2/3x3_s2_pool2/3x3_s2_0_split -> pool2/3x3_s2_pool2/3x3_s2_0_split_2
I0403 17:46:15.751587 14937 net.cpp:399] pool2/3x3_s2_pool2/3x3_s2_0_split -> pool2/3x3_s2_pool2/3x3_s2_0_split_3
I0403 17:46:15.751662 14937 net.cpp:141] Setting up pool2/3x3_s2_pool2/3x3_s2_0_split
I0403 17:46:15.751684 14937 net.cpp:148] Top shape: 24 192 28 28 (3612672)
I0403 17:46:15.751701 14937 net.cpp:148] Top shape: 24 192 28 28 (3612672)
I0403 17:46:15.751718 14937 net.cpp:148] Top shape: 24 192 28 28 (3612672)
I0403 17:46:15.751735 14937 net.cpp:148] Top shape: 24 192 28 28 (3612672)
I0403 17:46:15.751750 14937 net.cpp:156] Memory required for data: 491324448
I0403 17:46:15.751766 14937 layer_factory.hpp:77] Creating layer inception_3a/1x1
I0403 17:46:15.751794 14937 net.cpp:91] Creating Layer inception_3a/1x1
I0403 17:46:15.751813 14937 net.cpp:425] inception_3a/1x1 <- pool2/3x3_s2_pool2/3x3_s2_0_split_0
I0403 17:46:15.751832 14937 net.cpp:399] inception_3a/1x1 -> inception_3a/1x1
I0403 17:46:15.753393 14937 net.cpp:141] Setting up inception_3a/1x1
I0403 17:46:15.753423 14937 net.cpp:148] Top shape: 24 64 28 28 (1204224)
I0403 17:46:15.753439 14937 net.cpp:156] Memory required for data: 496141344
I0403 17:46:15.753459 14937 layer_factory.hpp:77] Creating layer inception_3a/relu_1x1
I0403 17:46:15.753481 14937 net.cpp:91] Creating Layer inception_3a/relu_1x1
I0403 17:46:15.753499 14937 net.cpp:425] inception_3a/relu_1x1 <- inception_3a/1x1
I0403 17:46:15.753518 14937 net.cpp:386] inception_3a/relu_1x1 -> inception_3a/1x1 (in-place)
I0403 17:46:15.753692 14937 net.cpp:141] Setting up inception_3a/relu_1x1
I0403 17:46:15.753720 14937 net.cpp:148] Top shape: 24 64 28 28 (1204224)
I0403 17:46:15.753736 14937 net.cpp:156] Memory required for data: 500958240
I0403 17:46:15.753752 14937 layer_factory.hpp:77] Creating layer inception_3a/3x3_reduce
I0403 17:46:15.753775 14937 net.cpp:91] Creating Layer inception_3a/3x3_reduce
I0403 17:46:15.753794 14937 net.cpp:425] inception_3a/3x3_reduce <- pool2/3x3_s2_pool2/3x3_s2_0_split_1
I0403 17:46:15.753815 14937 net.cpp:399] inception_3a/3x3_reduce -> inception_3a/3x3_reduce
I0403 17:46:15.755517 14937 net.cpp:141] Setting up inception_3a/3x3_reduce
I0403 17:46:15.755545 14937 net.cpp:148] Top shape: 24 96 28 28 (1806336)
I0403 17:46:15.755564 14937 net.cpp:156] Memory required for data: 508183584
I0403 17:46:15.755589 14937 layer_factory.hpp:77] Creating layer inception_3a/relu_3x3_reduce
I0403 17:46:15.755625 14937 net.cpp:91] Creating Layer inception_3a/relu_3x3_reduce
I0403 17:46:15.755645 14937 net.cpp:425] inception_3a/relu_3x3_reduce <- inception_3a/3x3_reduce
I0403 17:46:15.755666 14937 net.cpp:386] inception_3a/relu_3x3_reduce -> inception_3a/3x3_reduce (in-place)
I0403 17:46:15.755848 14937 net.cpp:141] Setting up inception_3a/relu_3x3_reduce
I0403 17:46:15.755875 14937 net.cpp:148] Top shape: 24 96 28 28 (1806336)
I0403 17:46:15.755892 14937 net.cpp:156] Memory required for data: 515408928
I0403 17:46:15.755909 14937 layer_factory.hpp:77] Creating layer inception_3a/3x3
I0403 17:46:15.755938 14937 net.cpp:91] Creating Layer inception_3a/3x3
I0403 17:46:15.755960 14937 net.cpp:425] inception_3a/3x3 <- inception_3a/3x3_reduce
I0403 17:46:15.755983 14937 net.cpp:399] inception_3a/3x3 -> inception_3a/3x3
I0403 17:46:15.757617 14937 net.cpp:141] Setting up inception_3a/3x3
I0403 17:46:15.757645 14937 net.cpp:148] Top shape: 24 128 28 28 (2408448)
I0403 17:46:15.757661 14937 net.cpp:156] Memory required for data: 525042720
I0403 17:46:15.757680 14937 layer_factory.hpp:77] Creating layer inception_3a/relu_3x3
I0403 17:46:15.757702 14937 net.cpp:91] Creating Layer inception_3a/relu_3x3
I0403 17:46:15.757720 14937 net.cpp:425] inception_3a/relu_3x3 <- inception_3a/3x3
I0403 17:46:15.757740 14937 net.cpp:386] inception_3a/relu_3x3 -> inception_3a/3x3 (in-place)
I0403 17:46:15.758023 14937 net.cpp:141] Setting up inception_3a/relu_3x3
I0403 17:46:15.758049 14937 net.cpp:148] Top shape: 24 128 28 28 (2408448)
I0403 17:46:15.758065 14937 net.cpp:156] Memory required for data: 534676512
I0403 17:46:15.758081 14937 layer_factory.hpp:77] Creating layer inception_3a/5x5_reduce
I0403 17:46:15.758106 14937 net.cpp:91] Creating Layer inception_3a/5x5_reduce
I0403 17:46:15.758126 14937 net.cpp:425] inception_3a/5x5_reduce <- pool2/3x3_s2_pool2/3x3_s2_0_split_2
I0403 17:46:15.758146 14937 net.cpp:399] inception_3a/5x5_reduce -> inception_3a/5x5_reduce
I0403 17:46:15.759104 14937 net.cpp:141] Setting up inception_3a/5x5_reduce
I0403 17:46:15.759133 14937 net.cpp:148] Top shape: 24 16 28 28 (301056)
I0403 17:46:15.759151 14937 net.cpp:156] Memory required for data: 535880736
I0403 17:46:15.759171 14937 layer_factory.hpp:77] Creating layer inception_3a/relu_5x5_reduce
I0403 17:46:15.759191 14937 net.cpp:91] Creating Layer inception_3a/relu_5x5_reduce
I0403 17:46:15.759220 14937 net.cpp:425] inception_3a/relu_5x5_reduce <- inception_3a/5x5_reduce
I0403 17:46:15.759243 14937 net.cpp:386] inception_3a/relu_5x5_reduce -> inception_3a/5x5_reduce (in-place)
I0403 17:46:15.759555 14937 net.cpp:141] Setting up inception_3a/relu_5x5_reduce
I0403 17:46:15.759584 14937 net.cpp:148] Top shape: 24 16 28 28 (301056)
I0403 17:46:15.759601 14937 net.cpp:156] Memory required for data: 537084960
I0403 17:46:15.759618 14937 layer_factory.hpp:77] Creating layer inception_3a/5x5
I0403 17:46:15.759640 14937 net.cpp:91] Creating Layer inception_3a/5x5
I0403 17:46:15.759660 14937 net.cpp:425] inception_3a/5x5 <- inception_3a/5x5_reduce
I0403 17:46:15.759680 14937 net.cpp:399] inception_3a/5x5 -> inception_3a/5x5
I0403 17:46:15.760685 14937 net.cpp:141] Setting up inception_3a/5x5
I0403 17:46:15.760713 14937 net.cpp:148] Top shape: 24 32 28 28 (602112)
I0403 17:46:15.760730 14937 net.cpp:156] Memory required for data: 539493408
I0403 17:46:15.760751 14937 layer_factory.hpp:77] Creating layer inception_3a/relu_5x5
I0403 17:46:15.760771 14937 net.cpp:91] Creating Layer inception_3a/relu_5x5
I0403 17:46:15.760790 14937 net.cpp:425] inception_3a/relu_5x5 <- inception_3a/5x5
I0403 17:46:15.760808 14937 net.cpp:386] inception_3a/relu_5x5 -> inception_3a/5x5 (in-place)
I0403 17:46:15.760983 14937 net.cpp:141] Setting up inception_3a/relu_5x5
I0403 17:46:15.761010 14937 net.cpp:148] Top shape: 24 32 28 28 (602112)
I0403 17:46:15.761028 14937 net.cpp:156] Memory required for data: 541901856
I0403 17:46:15.761042 14937 layer_factory.hpp:77] Creating layer inception_3a/pool
I0403 17:46:15.761061 14937 net.cpp:91] Creating Layer inception_3a/pool
I0403 17:46:15.761092 14937 net.cpp:425] inception_3a/pool <- pool2/3x3_s2_pool2/3x3_s2_0_split_3
I0403 17:46:15.761114 14937 net.cpp:399] inception_3a/pool -> inception_3a/pool
I0403 17:46:15.761173 14937 net.cpp:141] Setting up inception_3a/pool
I0403 17:46:15.761196 14937 net.cpp:148] Top shape: 24 192 28 28 (3612672)
I0403 17:46:15.761212 14937 net.cpp:156] Memory required for data: 556352544
I0403 17:46:15.761229 14937 layer_factory.hpp:77] Creating layer inception_3a/pool_proj
I0403 17:46:15.761251 14937 net.cpp:91] Creating Layer inception_3a/pool_proj
I0403 17:46:15.761270 14937 net.cpp:425] inception_3a/pool_proj <- inception_3a/pool
I0403 17:46:15.761292 14937 net.cpp:399] inception_3a/pool_proj -> inception_3a/pool_proj
I0403 17:46:15.762255 14937 net.cpp:141] Setting up inception_3a/pool_proj
I0403 17:46:15.762284 14937 net.cpp:148] Top shape: 24 32 28 28 (602112)
I0403 17:46:15.762300 14937 net.cpp:156] Memory required for data: 558760992
I0403 17:46:15.762326 14937 layer_factory.hpp:77] Creating layer inception_3a/relu_pool_proj
I0403 17:46:15.762346 14937 net.cpp:91] Creating Layer inception_3a/relu_pool_proj
I0403 17:46:15.762363 14937 net.cpp:425] inception_3a/relu_pool_proj <- inception_3a/pool_proj
I0403 17:46:15.762384 14937 net.cpp:386] inception_3a/relu_pool_proj -> inception_3a/pool_proj (in-place)
I0403 17:46:15.762658 14937 net.cpp:141] Setting up inception_3a/relu_pool_proj
I0403 17:46:15.762686 14937 net.cpp:148] Top shape: 24 32 28 28 (602112)
I0403 17:46:15.762701 14937 net.cpp:156] Memory required for data: 561169440
I0403 17:46:15.762717 14937 layer_factory.hpp:77] Creating layer inception_3a/output
I0403 17:46:15.762738 14937 net.cpp:91] Creating Layer inception_3a/output
I0403 17:46:15.762756 14937 net.cpp:425] inception_3a/output <- inception_3a/1x1
I0403 17:46:15.762773 14937 net.cpp:425] inception_3a/output <- inception_3a/3x3
I0403 17:46:15.762790 14937 net.cpp:425] inception_3a/output <- inception_3a/5x5
I0403 17:46:15.762809 14937 net.cpp:425] inception_3a/output <- inception_3a/pool_proj
I0403 17:46:15.762826 14937 net.cpp:399] inception_3a/output -> inception_3a/output
I0403 17:46:15.762874 14937 net.cpp:141] Setting up inception_3a/output
I0403 17:46:15.762898 14937 net.cpp:148] Top shape: 24 256 28 28 (4816896)
I0403 17:46:15.762914 14937 net.cpp:156] Memory required for data: 580437024
I0403 17:46:15.762931 14937 layer_factory.hpp:77] Creating layer inception_3a/output_inception_3a/output_0_split
I0403 17:46:15.762953 14937 net.cpp:91] Creating Layer inception_3a/output_inception_3a/output_0_split
I0403 17:46:15.762971 14937 net.cpp:425] inception_3a/output_inception_3a/output_0_split <- inception_3a/output
I0403 17:46:15.762992 14937 net.cpp:399] inception_3a/output_inception_3a/output_0_split -> inception_3a/output_inception_3a/output_0_split_0
I0403 17:46:15.763015 14937 net.cpp:399] inception_3a/output_inception_3a/output_0_split -> inception_3a/output_inception_3a/output_0_split_1
I0403 17:46:15.763041 14937 net.cpp:399] inception_3a/output_inception_3a/output_0_split -> inception_3a/output_inception_3a/output_0_split_2
I0403 17:46:15.763063 14937 net.cpp:399] inception_3a/output_inception_3a/output_0_split -> inception_3a/output_inception_3a/output_0_split_3
I0403 17:46:15.763137 14937 net.cpp:141] Setting up inception_3a/output_inception_3a/output_0_split
I0403 17:46:15.763161 14937 net.cpp:148] Top shape: 24 256 28 28 (4816896)
I0403 17:46:15.763182 14937 net.cpp:148] Top shape: 24 256 28 28 (4816896)
I0403 17:46:15.763200 14937 net.cpp:148] Top shape: 24 256 28 28 (4816896)
I0403 17:46:15.763217 14937 net.cpp:148] Top shape: 24 256 28 28 (4816896)
I0403 17:46:15.763232 14937 net.cpp:156] Memory required for data: 657507360
I0403 17:46:15.763248 14937 layer_factory.hpp:77] Creating layer inception_3b/1x1
I0403 17:46:15.763270 14937 net.cpp:91] Creating Layer inception_3b/1x1
I0403 17:46:15.763288 14937 net.cpp:425] inception_3b/1x1 <- inception_3a/output_inception_3a/output_0_split_0
I0403 17:46:15.763310 14937 net.cpp:399] inception_3b/1x1 -> inception_3b/1x1
I0403 17:46:15.764441 14937 net.cpp:141] Setting up inception_3b/1x1
I0403 17:46:15.764480 14937 net.cpp:148] Top shape: 24 128 28 28 (2408448)
I0403 17:46:15.764497 14937 net.cpp:156] Memory required for data: 667141152
I0403 17:46:15.764518 14937 layer_factory.hpp:77] Creating layer inception_3b/relu_1x1
I0403 17:46:15.764539 14937 net.cpp:91] Creating Layer inception_3b/relu_1x1
I0403 17:46:15.764557 14937 net.cpp:425] inception_3b/relu_1x1 <- inception_3b/1x1
I0403 17:46:15.764575 14937 net.cpp:386] inception_3b/relu_1x1 -> inception_3b/1x1 (in-place)
I0403 17:46:15.764751 14937 net.cpp:141] Setting up inception_3b/relu_1x1
I0403 17:46:15.764777 14937 net.cpp:148] Top shape: 24 128 28 28 (2408448)
I0403 17:46:15.764792 14937 net.cpp:156] Memory required for data: 676774944
I0403 17:46:15.764808 14937 layer_factory.hpp:77] Creating layer inception_3b/3x3_reduce
I0403 17:46:15.764835 14937 net.cpp:91] Creating Layer inception_3b/3x3_reduce
I0403 17:46:15.764855 14937 net.cpp:425] inception_3b/3x3_reduce <- inception_3a/output_inception_3a/output_0_split_1
I0403 17:46:15.764875 14937 net.cpp:399] inception_3b/3x3_reduce -> inception_3b/3x3_reduce
I0403 17:46:15.766042 14937 net.cpp:141] Setting up inception_3b/3x3_reduce
I0403 17:46:15.766070 14937 net.cpp:148] Top shape: 24 128 28 28 (2408448)
I0403 17:46:15.766088 14937 net.cpp:156] Memory required for data: 686408736
I0403 17:46:15.766106 14937 layer_factory.hpp:77] Creating layer inception_3b/relu_3x3_reduce
I0403 17:46:15.766127 14937 net.cpp:91] Creating Layer inception_3b/relu_3x3_reduce
I0403 17:46:15.766145 14937 net.cpp:425] inception_3b/relu_3x3_reduce <- inception_3b/3x3_reduce
I0403 17:46:15.766165 14937 net.cpp:386] inception_3b/relu_3x3_reduce -> inception_3b/3x3_reduce (in-place)
I0403 17:46:15.766350 14937 net.cpp:141] Setting up inception_3b/relu_3x3_reduce
I0403 17:46:15.766379 14937 net.cpp:148] Top shape: 24 128 28 28 (2408448)
I0403 17:46:15.766397 14937 net.cpp:156] Memory required for data: 696042528
I0403 17:46:15.766413 14937 layer_factory.hpp:77] Creating layer inception_3b/3x3
I0403 17:46:15.766439 14937 net.cpp:91] Creating Layer inception_3b/3x3
I0403 17:46:15.766459 14937 net.cpp:425] inception_3b/3x3 <- inception_3b/3x3_reduce
I0403 17:46:15.766482 14937 net.cpp:399] inception_3b/3x3 -> inception_3b/3x3
I0403 17:46:15.769414 14937 net.cpp:141] Setting up inception_3b/3x3
I0403 17:46:15.769443 14937 net.cpp:148] Top shape: 24 192 28 28 (3612672)
I0403 17:46:15.769459 14937 net.cpp:156] Memory required for data: 710493216
I0403 17:46:15.769479 14937 layer_factory.hpp:77] Creating layer inception_3b/relu_3x3
I0403 17:46:15.769500 14937 net.cpp:91] Creating Layer inception_3b/relu_3x3
I0403 17:46:15.769518 14937 net.cpp:425] inception_3b/relu_3x3 <- inception_3b/3x3
I0403 17:46:15.769537 14937 net.cpp:386] inception_3b/relu_3x3 -> inception_3b/3x3 (in-place)
I0403 17:46:15.769819 14937 net.cpp:141] Setting up inception_3b/relu_3x3
I0403 17:46:15.769845 14937 net.cpp:148] Top shape: 24 192 28 28 (3612672)
I0403 17:46:15.769861 14937 net.cpp:156] Memory required for data: 724943904
I0403 17:46:15.769877 14937 layer_factory.hpp:77] Creating layer inception_3b/5x5_reduce
I0403 17:46:15.769903 14937 net.cpp:91] Creating Layer inception_3b/5x5_reduce
I0403 17:46:15.769924 14937 net.cpp:425] inception_3b/5x5_reduce <- inception_3a/output_inception_3a/output_0_split_2
I0403 17:46:15.769945 14937 net.cpp:399] inception_3b/5x5_reduce -> inception_3b/5x5_reduce
I0403 17:46:15.770933 14937 net.cpp:141] Setting up inception_3b/5x5_reduce
I0403 17:46:15.770966 14937 net.cpp:148] Top shape: 24 32 28 28 (602112)
I0403 17:46:15.770982 14937 net.cpp:156] Memory required for data: 727352352
I0403 17:46:15.771001 14937 layer_factory.hpp:77] Creating layer inception_3b/relu_5x5_reduce
I0403 17:46:15.771023 14937 net.cpp:91] Creating Layer inception_3b/relu_5x5_reduce
I0403 17:46:15.771042 14937 net.cpp:425] inception_3b/relu_5x5_reduce <- inception_3b/5x5_reduce
I0403 17:46:15.771061 14937 net.cpp:386] inception_3b/relu_5x5_reduce -> inception_3b/5x5_reduce (in-place)
I0403 17:46:15.771253 14937 net.cpp:141] Setting up inception_3b/relu_5x5_reduce
I0403 17:46:15.771281 14937 net.cpp:148] Top shape: 24 32 28 28 (602112)
I0403 17:46:15.771296 14937 net.cpp:156] Memory required for data: 729760800
I0403 17:46:15.771312 14937 layer_factory.hpp:77] Creating layer inception_3b/5x5
I0403 17:46:15.771337 14937 net.cpp:91] Creating Layer inception_3b/5x5
I0403 17:46:15.771355 14937 net.cpp:425] inception_3b/5x5 <- inception_3b/5x5_reduce
I0403 17:46:15.771375 14937 net.cpp:399] inception_3b/5x5 -> inception_3b/5x5
I0403 17:46:15.773365 14937 net.cpp:141] Setting up inception_3b/5x5
I0403 17:46:15.773394 14937 net.cpp:148] Top shape: 24 96 28 28 (1806336)
I0403 17:46:15.773411 14937 net.cpp:156] Memory required for data: 736986144
I0403 17:46:15.773430 14937 layer_factory.hpp:77] Creating layer inception_3b/relu_5x5
I0403 17:46:15.773452 14937 net.cpp:91] Creating Layer inception_3b/relu_5x5
I0403 17:46:15.773469 14937 net.cpp:425] inception_3b/relu_5x5 <- inception_3b/5x5
I0403 17:46:15.773488 14937 net.cpp:386] inception_3b/relu_5x5 -> inception_3b/5x5 (in-place)
I0403 17:46:15.773676 14937 net.cpp:141] Setting up inception_3b/relu_5x5
I0403 17:46:15.773702 14937 net.cpp:148] Top shape: 24 96 28 28 (1806336)
I0403 17:46:15.773717 14937 net.cpp:156] Memory required for data: 744211488
I0403 17:46:15.773735 14937 layer_factory.hpp:77] Creating layer inception_3b/pool
I0403 17:46:15.773752 14937 net.cpp:91] Creating Layer inception_3b/pool
I0403 17:46:15.773771 14937 net.cpp:425] inception_3b/pool <- inception_3a/output_inception_3a/output_0_split_3
I0403 17:46:15.773789 14937 net.cpp:399] inception_3b/pool -> inception_3b/pool
I0403 17:46:15.773845 14937 net.cpp:141] Setting up inception_3b/pool
I0403 17:46:15.773869 14937 net.cpp:148] Top shape: 24 256 28 28 (4816896)
I0403 17:46:15.773885 14937 net.cpp:156] Memory required for data: 763479072
I0403 17:46:15.773901 14937 layer_factory.hpp:77] Creating layer inception_3b/pool_proj
I0403 17:46:15.773924 14937 net.cpp:91] Creating Layer inception_3b/pool_proj
I0403 17:46:15.773943 14937 net.cpp:425] inception_3b/pool_proj <- inception_3b/pool
I0403 17:46:15.773970 14937 net.cpp:399] inception_3b/pool_proj -> inception_3b/pool_proj
I0403 17:46:15.775038 14937 net.cpp:141] Setting up inception_3b/pool_proj
I0403 17:46:15.775066 14937 net.cpp:148] Top shape: 24 64 28 28 (1204224)
I0403 17:46:15.775084 14937 net.cpp:156] Memory required for data: 768295968
I0403 17:46:15.775104 14937 layer_factory.hpp:77] Creating layer inception_3b/relu_pool_proj
I0403 17:46:15.775123 14937 net.cpp:91] Creating Layer inception_3b/relu_pool_proj
I0403 17:46:15.775142 14937 net.cpp:425] inception_3b/relu_pool_proj <- inception_3b/pool_proj
I0403 17:46:15.775163 14937 net.cpp:386] inception_3b/relu_pool_proj -> inception_3b/pool_proj (in-place)
I0403 17:46:15.775566 14937 net.cpp:141] Setting up inception_3b/relu_pool_proj
I0403 17:46:15.775598 14937 net.cpp:148] Top shape: 24 64 28 28 (1204224)
I0403 17:46:15.775614 14937 net.cpp:156] Memory required for data: 773112864
I0403 17:46:15.775630 14937 layer_factory.hpp:77] Creating layer inception_3b/output
I0403 17:46:15.775650 14937 net.cpp:91] Creating Layer inception_3b/output
I0403 17:46:15.775666 14937 net.cpp:425] inception_3b/output <- inception_3b/1x1
I0403 17:46:15.775684 14937 net.cpp:425] inception_3b/output <- inception_3b/3x3
I0403 17:46:15.775701 14937 net.cpp:425] inception_3b/output <- inception_3b/5x5
I0403 17:46:15.775718 14937 net.cpp:425] inception_3b/output <- inception_3b/pool_proj
I0403 17:46:15.775737 14937 net.cpp:399] inception_3b/output -> inception_3b/output
I0403 17:46:15.775782 14937 net.cpp:141] Setting up inception_3b/output
I0403 17:46:15.775806 14937 net.cpp:148] Top shape: 24 480 28 28 (9031680)
I0403 17:46:15.775821 14937 net.cpp:156] Memory required for data: 809239584
I0403 17:46:15.775837 14937 layer_factory.hpp:77] Creating layer pool3/3x3_s2
I0403 17:46:15.775858 14937 net.cpp:91] Creating Layer pool3/3x3_s2
I0403 17:46:15.775876 14937 net.cpp:425] pool3/3x3_s2 <- inception_3b/output
I0403 17:46:15.775910 14937 net.cpp:399] pool3/3x3_s2 -> pool3/3x3_s2
I0403 17:46:15.775977 14937 net.cpp:141] Setting up pool3/3x3_s2
I0403 17:46:15.776001 14937 net.cpp:148] Top shape: 24 480 14 14 (2257920)
I0403 17:46:15.776017 14937 net.cpp:156] Memory required for data: 818271264
I0403 17:46:15.776033 14937 layer_factory.hpp:77] Creating layer pool3/3x3_s2_pool3/3x3_s2_0_split
I0403 17:46:15.776051 14937 net.cpp:91] Creating Layer pool3/3x3_s2_pool3/3x3_s2_0_split
I0403 17:46:15.776068 14937 net.cpp:425] pool3/3x3_s2_pool3/3x3_s2_0_split <- pool3/3x3_s2
I0403 17:46:15.776088 14937 net.cpp:399] pool3/3x3_s2_pool3/3x3_s2_0_split -> pool3/3x3_s2_pool3/3x3_s2_0_split_0
I0403 17:46:15.776110 14937 net.cpp:399] pool3/3x3_s2_pool3/3x3_s2_0_split -> pool3/3x3_s2_pool3/3x3_s2_0_split_1
I0403 17:46:15.776131 14937 net.cpp:399] pool3/3x3_s2_pool3/3x3_s2_0_split -> pool3/3x3_s2_pool3/3x3_s2_0_split_2
I0403 17:46:15.776152 14937 net.cpp:399] pool3/3x3_s2_pool3/3x3_s2_0_split -> pool3/3x3_s2_pool3/3x3_s2_0_split_3
I0403 17:46:15.776228 14937 net.cpp:141] Setting up pool3/3x3_s2_pool3/3x3_s2_0_split
I0403 17:46:15.776253 14937 net.cpp:148] Top shape: 24 480 14 14 (2257920)
I0403 17:46:15.776271 14937 net.cpp:148] Top shape: 24 480 14 14 (2257920)
I0403 17:46:15.776288 14937 net.cpp:148] Top shape: 24 480 14 14 (2257920)
I0403 17:46:15.776304 14937 net.cpp:148] Top shape: 24 480 14 14 (2257920)
I0403 17:46:15.776319 14937 net.cpp:156] Memory required for data: 854397984
I0403 17:46:15.776335 14937 layer_factory.hpp:77] Creating layer inception_4a/1x1
I0403 17:46:15.776358 14937 net.cpp:91] Creating Layer inception_4a/1x1
I0403 17:46:15.776376 14937 net.cpp:425] inception_4a/1x1 <- pool3/3x3_s2_pool3/3x3_s2_0_split_0
I0403 17:46:15.776398 14937 net.cpp:399] inception_4a/1x1 -> inception_4a/1x1
I0403 17:46:15.777968 14937 net.cpp:141] Setting up inception_4a/1x1
I0403 17:46:15.777997 14937 net.cpp:148] Top shape: 24 192 14 14 (903168)
I0403 17:46:15.778012 14937 net.cpp:156] Memory required for data: 858010656
I0403 17:46:15.778033 14937 layer_factory.hpp:77] Creating layer inception_4a/relu_1x1
I0403 17:46:15.778051 14937 net.cpp:91] Creating Layer inception_4a/relu_1x1
I0403 17:46:15.778069 14937 net.cpp:425] inception_4a/relu_1x1 <- inception_4a/1x1
I0403 17:46:15.778090 14937 net.cpp:386] inception_4a/relu_1x1 -> inception_4a/1x1 (in-place)
I0403 17:46:15.778266 14937 net.cpp:141] Setting up inception_4a/relu_1x1
I0403 17:46:15.778291 14937 net.cpp:148] Top shape: 24 192 14 14 (903168)
I0403 17:46:15.778307 14937 net.cpp:156] Memory required for data: 861623328
I0403 17:46:15.778323 14937 layer_factory.hpp:77] Creating layer inception_4a/3x3_reduce
I0403 17:46:15.778347 14937 net.cpp:91] Creating Layer inception_4a/3x3_reduce
I0403 17:46:15.778365 14937 net.cpp:425] inception_4a/3x3_reduce <- pool3/3x3_s2_pool3/3x3_s2_0_split_1
I0403 17:46:15.778388 14937 net.cpp:399] inception_4a/3x3_reduce -> inception_4a/3x3_reduce
I0403 17:46:15.779695 14937 net.cpp:141] Setting up inception_4a/3x3_reduce
I0403 17:46:15.779724 14937 net.cpp:148] Top shape: 24 96 14 14 (451584)
I0403 17:46:15.779742 14937 net.cpp:156] Memory required for data: 863429664
I0403 17:46:15.779768 14937 layer_factory.hpp:77] Creating layer inception_4a/relu_3x3_reduce
I0403 17:46:15.779789 14937 net.cpp:91] Creating Layer inception_4a/relu_3x3_reduce
I0403 17:46:15.779808 14937 net.cpp:425] inception_4a/relu_3x3_reduce <- inception_4a/3x3_reduce
I0403 17:46:15.779825 14937 net.cpp:386] inception_4a/relu_3x3_reduce -> inception_4a/3x3_reduce (in-place)
I0403 17:46:15.780007 14937 net.cpp:141] Setting up inception_4a/relu_3x3_reduce
I0403 17:46:15.780033 14937 net.cpp:148] Top shape: 24 96 14 14 (451584)
I0403 17:46:15.780050 14937 net.cpp:156] Memory required for data: 865236000
I0403 17:46:15.780066 14937 layer_factory.hpp:77] Creating layer inception_4a/3x3
I0403 17:46:15.780089 14937 net.cpp:91] Creating Layer inception_4a/3x3
I0403 17:46:15.780107 14937 net.cpp:425] inception_4a/3x3 <- inception_4a/3x3_reduce
I0403 17:46:15.780130 14937 net.cpp:399] inception_4a/3x3 -> inception_4a/3x3
I0403 17:46:15.782819 14937 net.cpp:141] Setting up inception_4a/3x3
I0403 17:46:15.782846 14937 net.cpp:148] Top shape: 24 208 14 14 (978432)
I0403 17:46:15.782863 14937 net.cpp:156] Memory required for data: 869149728
I0403 17:46:15.782882 14937 layer_factory.hpp:77] Creating layer inception_4a/relu_3x3
I0403 17:46:15.782904 14937 net.cpp:91] Creating Layer inception_4a/relu_3x3
I0403 17:46:15.782924 14937 net.cpp:425] inception_4a/relu_3x3 <- inception_4a/3x3
I0403 17:46:15.782943 14937 net.cpp:386] inception_4a/relu_3x3 -> inception_4a/3x3 (in-place)
I0403 17:46:15.783231 14937 net.cpp:141] Setting up inception_4a/relu_3x3
I0403 17:46:15.783257 14937 net.cpp:148] Top shape: 24 208 14 14 (978432)
I0403 17:46:15.783273 14937 net.cpp:156] Memory required for data: 873063456
I0403 17:46:15.783289 14937 layer_factory.hpp:77] Creating layer inception_4a/5x5_reduce
I0403 17:46:15.783313 14937 net.cpp:91] Creating Layer inception_4a/5x5_reduce
I0403 17:46:15.783332 14937 net.cpp:425] inception_4a/5x5_reduce <- pool3/3x3_s2_pool3/3x3_s2_0_split_2
I0403 17:46:15.783354 14937 net.cpp:399] inception_4a/5x5_reduce -> inception_4a/5x5_reduce
I0403 17:46:15.784379 14937 net.cpp:141] Setting up inception_4a/5x5_reduce
I0403 17:46:15.784405 14937 net.cpp:148] Top shape: 24 16 14 14 (75264)
I0403 17:46:15.784422 14937 net.cpp:156] Memory required for data: 873364512
I0403 17:46:15.784441 14937 layer_factory.hpp:77] Creating layer inception_4a/relu_5x5_reduce
I0403 17:46:15.784463 14937 net.cpp:91] Creating Layer inception_4a/relu_5x5_reduce
I0403 17:46:15.784482 14937 net.cpp:425] inception_4a/relu_5x5_reduce <- inception_4a/5x5_reduce
I0403 17:46:15.784500 14937 net.cpp:386] inception_4a/relu_5x5_reduce -> inception_4a/5x5_reduce (in-place)
I0403 17:46:15.784677 14937 net.cpp:141] Setting up inception_4a/relu_5x5_reduce
I0403 17:46:15.784705 14937 net.cpp:148] Top shape: 24 16 14 14 (75264)
I0403 17:46:15.784721 14937 net.cpp:156] Memory required for data: 873665568
I0403 17:46:15.784737 14937 layer_factory.hpp:77] Creating layer inception_4a/5x5
I0403 17:46:15.784761 14937 net.cpp:91] Creating Layer inception_4a/5x5
I0403 17:46:15.784780 14937 net.cpp:425] inception_4a/5x5 <- inception_4a/5x5_reduce
I0403 17:46:15.784800 14937 net.cpp:399] inception_4a/5x5 -> inception_4a/5x5
I0403 17:46:15.785878 14937 net.cpp:141] Setting up inception_4a/5x5
I0403 17:46:15.785908 14937 net.cpp:148] Top shape: 24 48 14 14 (225792)
I0403 17:46:15.785926 14937 net.cpp:156] Memory required for data: 874568736
I0403 17:46:15.785949 14937 layer_factory.hpp:77] Creating layer inception_4a/relu_5x5
I0403 17:46:15.785970 14937 net.cpp:91] Creating Layer inception_4a/relu_5x5
I0403 17:46:15.785989 14937 net.cpp:425] inception_4a/relu_5x5 <- inception_4a/5x5
I0403 17:46:15.786010 14937 net.cpp:386] inception_4a/relu_5x5 -> inception_4a/5x5 (in-place)
I0403 17:46:15.786188 14937 net.cpp:141] Setting up inception_4a/relu_5x5
I0403 17:46:15.786214 14937 net.cpp:148] Top shape: 24 48 14 14 (225792)
I0403 17:46:15.786231 14937 net.cpp:156] Memory required for data: 875471904
I0403 17:46:15.786247 14937 layer_factory.hpp:77] Creating layer inception_4a/pool
I0403 17:46:15.786265 14937 net.cpp:91] Creating Layer inception_4a/pool
I0403 17:46:15.786283 14937 net.cpp:425] inception_4a/pool <- pool3/3x3_s2_pool3/3x3_s2_0_split_3
I0403 17:46:15.786305 14937 net.cpp:399] inception_4a/pool -> inception_4a/pool
I0403 17:46:15.786368 14937 net.cpp:141] Setting up inception_4a/pool
I0403 17:46:15.786392 14937 net.cpp:148] Top shape: 24 480 14 14 (2257920)
I0403 17:46:15.786408 14937 net.cpp:156] Memory required for data: 884503584
I0403 17:46:15.786424 14937 layer_factory.hpp:77] Creating layer inception_4a/pool_proj
I0403 17:46:15.786449 14937 net.cpp:91] Creating Layer inception_4a/pool_proj
I0403 17:46:15.786468 14937 net.cpp:425] inception_4a/pool_proj <- inception_4a/pool
I0403 17:46:15.786489 14937 net.cpp:399] inception_4a/pool_proj -> inception_4a/pool_proj
I0403 17:46:15.787678 14937 net.cpp:141] Setting up inception_4a/pool_proj
I0403 17:46:15.787708 14937 net.cpp:148] Top shape: 24 64 14 14 (301056)
I0403 17:46:15.787740 14937 net.cpp:156] Memory required for data: 885707808
I0403 17:46:15.787761 14937 layer_factory.hpp:77] Creating layer inception_4a/relu_pool_proj
I0403 17:46:15.787781 14937 net.cpp:91] Creating Layer inception_4a/relu_pool_proj
I0403 17:46:15.787797 14937 net.cpp:425] inception_4a/relu_pool_proj <- inception_4a/pool_proj
I0403 17:46:15.787819 14937 net.cpp:386] inception_4a/relu_pool_proj -> inception_4a/pool_proj (in-place)
I0403 17:46:15.788111 14937 net.cpp:141] Setting up inception_4a/relu_pool_proj
I0403 17:46:15.788139 14937 net.cpp:148] Top shape: 24 64 14 14 (301056)
I0403 17:46:15.788156 14937 net.cpp:156] Memory required for data: 886912032
I0403 17:46:15.788172 14937 layer_factory.hpp:77] Creating layer inception_4a/output
I0403 17:46:15.788192 14937 net.cpp:91] Creating Layer inception_4a/output
I0403 17:46:15.788208 14937 net.cpp:425] inception_4a/output <- inception_4a/1x1
I0403 17:46:15.788226 14937 net.cpp:425] inception_4a/output <- inception_4a/3x3
I0403 17:46:15.788244 14937 net.cpp:425] inception_4a/output <- inception_4a/5x5
I0403 17:46:15.788260 14937 net.cpp:425] inception_4a/output <- inception_4a/pool_proj
I0403 17:46:15.788280 14937 net.cpp:399] inception_4a/output -> inception_4a/output
I0403 17:46:15.788326 14937 net.cpp:141] Setting up inception_4a/output
I0403 17:46:15.788349 14937 net.cpp:148] Top shape: 24 512 14 14 (2408448)
I0403 17:46:15.788364 14937 net.cpp:156] Memory required for data: 896545824
I0403 17:46:15.788381 14937 layer_factory.hpp:77] Creating layer inception_4a/output_inception_4a/output_0_split
I0403 17:46:15.788401 14937 net.cpp:91] Creating Layer inception_4a/output_inception_4a/output_0_split
I0403 17:46:15.788419 14937 net.cpp:425] inception_4a/output_inception_4a/output_0_split <- inception_4a/output
I0403 17:46:15.788439 14937 net.cpp:399] inception_4a/output_inception_4a/output_0_split -> inception_4a/output_inception_4a/output_0_split_0
I0403 17:46:15.788463 14937 net.cpp:399] inception_4a/output_inception_4a/output_0_split -> inception_4a/output_inception_4a/output_0_split_1
I0403 17:46:15.788486 14937 net.cpp:399] inception_4a/output_inception_4a/output_0_split -> inception_4a/output_inception_4a/output_0_split_2
I0403 17:46:15.788507 14937 net.cpp:399] inception_4a/output_inception_4a/output_0_split -> inception_4a/output_inception_4a/output_0_split_3
I0403 17:46:15.788529 14937 net.cpp:399] inception_4a/output_inception_4a/output_0_split -> inception_4a/output_inception_4a/output_0_split_4
I0403 17:46:15.788621 14937 net.cpp:141] Setting up inception_4a/output_inception_4a/output_0_split
I0403 17:46:15.788645 14937 net.cpp:148] Top shape: 24 512 14 14 (2408448)
I0403 17:46:15.788663 14937 net.cpp:148] Top shape: 24 512 14 14 (2408448)
I0403 17:46:15.788681 14937 net.cpp:148] Top shape: 24 512 14 14 (2408448)
I0403 17:46:15.788697 14937 net.cpp:148] Top shape: 24 512 14 14 (2408448)
I0403 17:46:15.788714 14937 net.cpp:148] Top shape: 24 512 14 14 (2408448)
I0403 17:46:15.788728 14937 net.cpp:156] Memory required for data: 944714784
I0403 17:46:15.788744 14937 layer_factory.hpp:77] Creating layer loss1/ave_pool
I0403 17:46:15.788765 14937 net.cpp:91] Creating Layer loss1/ave_pool
I0403 17:46:15.788784 14937 net.cpp:425] loss1/ave_pool <- inception_4a/output_inception_4a/output_0_split_0
I0403 17:46:15.788802 14937 net.cpp:399] loss1/ave_pool -> loss1/ave_pool
I0403 17:46:15.789014 14937 net.cpp:141] Setting up loss1/ave_pool
I0403 17:46:15.789041 14937 net.cpp:148] Top shape: 24 512 4 4 (196608)
I0403 17:46:15.789057 14937 net.cpp:156] Memory required for data: 945501216
I0403 17:46:15.789073 14937 layer_factory.hpp:77] Creating layer loss1/conv
I0403 17:46:15.789096 14937 net.cpp:91] Creating Layer loss1/conv
I0403 17:46:15.789114 14937 net.cpp:425] loss1/conv <- loss1/ave_pool
I0403 17:46:15.789137 14937 net.cpp:399] loss1/conv -> loss1/conv
I0403 17:46:15.790529 14937 net.cpp:141] Setting up loss1/conv
I0403 17:46:15.790557 14937 net.cpp:148] Top shape: 24 128 4 4 (49152)
I0403 17:46:15.790587 14937 net.cpp:156] Memory required for data: 945697824
I0403 17:46:15.790608 14937 layer_factory.hpp:77] Creating layer loss1/relu_conv
I0403 17:46:15.790629 14937 net.cpp:91] Creating Layer loss1/relu_conv
I0403 17:46:15.790648 14937 net.cpp:425] loss1/relu_conv <- loss1/conv
I0403 17:46:15.790666 14937 net.cpp:386] loss1/relu_conv -> loss1/conv (in-place)
I0403 17:46:15.790953 14937 net.cpp:141] Setting up loss1/relu_conv
I0403 17:46:15.790980 14937 net.cpp:148] Top shape: 24 128 4 4 (49152)
I0403 17:46:15.790997 14937 net.cpp:156] Memory required for data: 945894432
I0403 17:46:15.791013 14937 layer_factory.hpp:77] Creating layer loss1/fc
I0403 17:46:15.791039 14937 net.cpp:91] Creating Layer loss1/fc
I0403 17:46:15.791059 14937 net.cpp:425] loss1/fc <- loss1/conv
I0403 17:46:15.791079 14937 net.cpp:399] loss1/fc -> loss1/fc
I0403 17:46:15.808801 14937 net.cpp:141] Setting up loss1/fc
I0403 17:46:15.808836 14937 net.cpp:148] Top shape: 24 1024 (24576)
I0403 17:46:15.808853 14937 net.cpp:156] Memory required for data: 945992736
I0403 17:46:15.808873 14937 layer_factory.hpp:77] Creating layer loss1/relu_fc
I0403 17:46:15.808892 14937 net.cpp:91] Creating Layer loss1/relu_fc
I0403 17:46:15.808909 14937 net.cpp:425] loss1/relu_fc <- loss1/fc
I0403 17:46:15.808931 14937 net.cpp:386] loss1/relu_fc -> loss1/fc (in-place)
I0403 17:46:15.809118 14937 net.cpp:141] Setting up loss1/relu_fc
I0403 17:46:15.809144 14937 net.cpp:148] Top shape: 24 1024 (24576)
I0403 17:46:15.809159 14937 net.cpp:156] Memory required for data: 946091040
I0403 17:46:15.809175 14937 layer_factory.hpp:77] Creating layer loss1/drop_fc
I0403 17:46:15.809202 14937 net.cpp:91] Creating Layer loss1/drop_fc
I0403 17:46:15.809222 14937 net.cpp:425] loss1/drop_fc <- loss1/fc
I0403 17:46:15.809242 14937 net.cpp:386] loss1/drop_fc -> loss1/fc (in-place)
I0403 17:46:15.809291 14937 net.cpp:141] Setting up loss1/drop_fc
I0403 17:46:15.809317 14937 net.cpp:148] Top shape: 24 1024 (24576)
I0403 17:46:15.809334 14937 net.cpp:156] Memory required for data: 946189344
I0403 17:46:15.809350 14937 layer_factory.hpp:77] Creating layer loss1/classifier_plantvillage
I0403 17:46:15.809370 14937 net.cpp:91] Creating Layer loss1/classifier_plantvillage
I0403 17:46:15.809387 14937 net.cpp:425] loss1/classifier_plantvillage <- loss1/fc
I0403 17:46:15.809409 14937 net.cpp:399] loss1/classifier_plantvillage -> loss1/classifier_plantvillage
I0403 17:46:15.810333 14937 net.cpp:141] Setting up loss1/classifier_plantvillage
I0403 17:46:15.810362 14937 net.cpp:148] Top shape: 24 38 (912)
I0403 17:46:15.810379 14937 net.cpp:156] Memory required for data: 946192992
I0403 17:46:15.810398 14937 layer_factory.hpp:77] Creating layer loss1/classifier_plantvillage_loss1/classifier_plantvillage_0_split
I0403 17:46:15.810417 14937 net.cpp:91] Creating Layer loss1/classifier_plantvillage_loss1/classifier_plantvillage_0_split
I0403 17:46:15.810436 14937 net.cpp:425] loss1/classifier_plantvillage_loss1/classifier_plantvillage_0_split <- loss1/classifier_plantvillage
I0403 17:46:15.810457 14937 net.cpp:399] loss1/classifier_plantvillage_loss1/classifier_plantvillage_0_split -> loss1/classifier_plantvillage_loss1/classifier_plantvillage_0_split_0
I0403 17:46:15.810480 14937 net.cpp:399] loss1/classifier_plantvillage_loss1/classifier_plantvillage_0_split -> loss1/classifier_plantvillage_loss1/classifier_plantvillage_0_split_1
I0403 17:46:15.810514 14937 net.cpp:399] loss1/classifier_plantvillage_loss1/classifier_plantvillage_0_split -> loss1/classifier_plantvillage_loss1/classifier_plantvillage_0_split_2
I0403 17:46:15.810582 14937 net.cpp:141] Setting up loss1/classifier_plantvillage_loss1/classifier_plantvillage_0_split
I0403 17:46:15.810606 14937 net.cpp:148] Top shape: 24 38 (912)
I0403 17:46:15.810623 14937 net.cpp:148] Top shape: 24 38 (912)
I0403 17:46:15.810641 14937 net.cpp:148] Top shape: 24 38 (912)
I0403 17:46:15.810654 14937 net.cpp:156] Memory required for data: 946203936
I0403 17:46:15.810670 14937 layer_factory.hpp:77] Creating layer inception_4b/1x1
I0403 17:46:15.810694 14937 net.cpp:91] Creating Layer inception_4b/1x1
I0403 17:46:15.810726 14937 net.cpp:425] inception_4b/1x1 <- inception_4a/output_inception_4a/output_0_split_1
I0403 17:46:15.810748 14937 net.cpp:399] inception_4b/1x1 -> inception_4b/1x1
I0403 17:46:15.812402 14937 net.cpp:141] Setting up inception_4b/1x1
I0403 17:46:15.812430 14937 net.cpp:148] Top shape: 24 160 14 14 (752640)
I0403 17:46:15.812446 14937 net.cpp:156] Memory required for data: 949214496
I0403 17:46:15.812466 14937 layer_factory.hpp:77] Creating layer inception_4b/relu_1x1
I0403 17:46:15.812487 14937 net.cpp:91] Creating Layer inception_4b/relu_1x1
I0403 17:46:15.812505 14937 net.cpp:425] inception_4b/relu_1x1 <- inception_4b/1x1
I0403 17:46:15.812523 14937 net.cpp:386] inception_4b/relu_1x1 -> inception_4b/1x1 (in-place)
I0403 17:46:15.812703 14937 net.cpp:141] Setting up inception_4b/relu_1x1
I0403 17:46:15.812731 14937 net.cpp:148] Top shape: 24 160 14 14 (752640)
I0403 17:46:15.812747 14937 net.cpp:156] Memory required for data: 952225056
I0403 17:46:15.812763 14937 layer_factory.hpp:77] Creating layer inception_4b/3x3_reduce
I0403 17:46:15.812786 14937 net.cpp:91] Creating Layer inception_4b/3x3_reduce
I0403 17:46:15.812805 14937 net.cpp:425] inception_4b/3x3_reduce <- inception_4a/output_inception_4a/output_0_split_2
I0403 17:46:15.812825 14937 net.cpp:399] inception_4b/3x3_reduce -> inception_4b/3x3_reduce
I0403 17:46:15.814194 14937 net.cpp:141] Setting up inception_4b/3x3_reduce
I0403 17:46:15.814225 14937 net.cpp:148] Top shape: 24 112 14 14 (526848)
I0403 17:46:15.814242 14937 net.cpp:156] Memory required for data: 954332448
I0403 17:46:15.814262 14937 layer_factory.hpp:77] Creating layer inception_4b/relu_3x3_reduce
I0403 17:46:15.814281 14937 net.cpp:91] Creating Layer inception_4b/relu_3x3_reduce
I0403 17:46:15.814298 14937 net.cpp:425] inception_4b/relu_3x3_reduce <- inception_4b/3x3_reduce
I0403 17:46:15.814317 14937 net.cpp:386] inception_4b/relu_3x3_reduce -> inception_4b/3x3_reduce (in-place)
I0403 17:46:15.814602 14937 net.cpp:141] Setting up inception_4b/relu_3x3_reduce
I0403 17:46:15.814631 14937 net.cpp:148] Top shape: 24 112 14 14 (526848)
I0403 17:46:15.814648 14937 net.cpp:156] Memory required for data: 956439840
I0403 17:46:15.814663 14937 layer_factory.hpp:77] Creating layer inception_4b/3x3
I0403 17:46:15.814687 14937 net.cpp:91] Creating Layer inception_4b/3x3
I0403 17:46:15.814707 14937 net.cpp:425] inception_4b/3x3 <- inception_4b/3x3_reduce
I0403 17:46:15.814726 14937 net.cpp:399] inception_4b/3x3 -> inception_4b/3x3
I0403 17:46:15.817703 14937 net.cpp:141] Setting up inception_4b/3x3
I0403 17:46:15.817733 14937 net.cpp:148] Top shape: 24 224 14 14 (1053696)
I0403 17:46:15.817749 14937 net.cpp:156] Memory required for data: 960654624
I0403 17:46:15.817769 14937 layer_factory.hpp:77] Creating layer inception_4b/relu_3x3
I0403 17:46:15.817787 14937 net.cpp:91] Creating Layer inception_4b/relu_3x3
I0403 17:46:15.817805 14937 net.cpp:425] inception_4b/relu_3x3 <- inception_4b/3x3
I0403 17:46:15.817826 14937 net.cpp:386] inception_4b/relu_3x3 -> inception_4b/3x3 (in-place)
I0403 17:46:15.818020 14937 net.cpp:141] Setting up inception_4b/relu_3x3
I0403 17:46:15.818047 14937 net.cpp:148] Top shape: 24 224 14 14 (1053696)
I0403 17:46:15.818063 14937 net.cpp:156] Memory required for data: 964869408
I0403 17:46:15.818078 14937 layer_factory.hpp:77] Creating layer inception_4b/5x5_reduce
I0403 17:46:15.818101 14937 net.cpp:91] Creating Layer inception_4b/5x5_reduce
I0403 17:46:15.818121 14937 net.cpp:425] inception_4b/5x5_reduce <- inception_4a/output_inception_4a/output_0_split_3
I0403 17:46:15.818145 14937 net.cpp:399] inception_4b/5x5_reduce -> inception_4b/5x5_reduce
I0403 17:46:15.819236 14937 net.cpp:141] Setting up inception_4b/5x5_reduce
I0403 17:46:15.819264 14937 net.cpp:148] Top shape: 24 24 14 14 (112896)
I0403 17:46:15.819281 14937 net.cpp:156] Memory required for data: 965320992
I0403 17:46:15.819301 14937 layer_factory.hpp:77] Creating layer inception_4b/relu_5x5_reduce
I0403 17:46:15.819326 14937 net.cpp:91] Creating Layer inception_4b/relu_5x5_reduce
I0403 17:46:15.819357 14937 net.cpp:425] inception_4b/relu_5x5_reduce <- inception_4b/5x5_reduce
I0403 17:46:15.819378 14937 net.cpp:386] inception_4b/relu_5x5_reduce -> inception_4b/5x5_reduce (in-place)
I0403 17:46:15.819562 14937 net.cpp:141] Setting up inception_4b/relu_5x5_reduce
I0403 17:46:15.819589 14937 net.cpp:148] Top shape: 24 24 14 14 (112896)
I0403 17:46:15.819607 14937 net.cpp:156] Memory required for data: 965772576
I0403 17:46:15.819622 14937 layer_factory.hpp:77] Creating layer inception_4b/5x5
I0403 17:46:15.819645 14937 net.cpp:91] Creating Layer inception_4b/5x5
I0403 17:46:15.819664 14937 net.cpp:425] inception_4b/5x5 <- inception_4b/5x5_reduce
I0403 17:46:15.819684 14937 net.cpp:399] inception_4b/5x5 -> inception_4b/5x5
I0403 17:46:15.820909 14937 net.cpp:141] Setting up inception_4b/5x5
I0403 17:46:15.820938 14937 net.cpp:148] Top shape: 24 64 14 14 (301056)
I0403 17:46:15.820960 14937 net.cpp:156] Memory required for data: 966976800
I0403 17:46:15.820978 14937 layer_factory.hpp:77] Creating layer inception_4b/relu_5x5
I0403 17:46:15.821002 14937 net.cpp:91] Creating Layer inception_4b/relu_5x5
I0403 17:46:15.821019 14937 net.cpp:425] inception_4b/relu_5x5 <- inception_4b/5x5
I0403 17:46:15.821038 14937 net.cpp:386] inception_4b/relu_5x5 -> inception_4b/5x5 (in-place)
I0403 17:46:15.821323 14937 net.cpp:141] Setting up inception_4b/relu_5x5
I0403 17:46:15.821351 14937 net.cpp:148] Top shape: 24 64 14 14 (301056)
I0403 17:46:15.821367 14937 net.cpp:156] Memory required for data: 968181024
I0403 17:46:15.821382 14937 layer_factory.hpp:77] Creating layer inception_4b/pool
I0403 17:46:15.821405 14937 net.cpp:91] Creating Layer inception_4b/pool
I0403 17:46:15.821424 14937 net.cpp:425] inception_4b/pool <- inception_4a/output_inception_4a/output_0_split_4
I0403 17:46:15.821444 14937 net.cpp:399] inception_4b/pool -> inception_4b/pool
I0403 17:46:15.821509 14937 net.cpp:141] Setting up inception_4b/pool
I0403 17:46:15.821533 14937 net.cpp:148] Top shape: 24 512 14 14 (2408448)
I0403 17:46:15.821549 14937 net.cpp:156] Memory required for data: 977814816
I0403 17:46:15.821565 14937 layer_factory.hpp:77] Creating layer inception_4b/pool_proj
I0403 17:46:15.821588 14937 net.cpp:91] Creating Layer inception_4b/pool_proj
I0403 17:46:15.821606 14937 net.cpp:425] inception_4b/pool_proj <- inception_4b/pool
I0403 17:46:15.821629 14937 net.cpp:399] inception_4b/pool_proj -> inception_4b/pool_proj
I0403 17:46:15.822834 14937 net.cpp:141] Setting up inception_4b/pool_proj
I0403 17:46:15.822862 14937 net.cpp:148] Top shape: 24 64 14 14 (301056)
I0403 17:46:15.822878 14937 net.cpp:156] Memory required for data: 979019040
I0403 17:46:15.822897 14937 layer_factory.hpp:77] Creating layer inception_4b/relu_pool_proj
I0403 17:46:15.822921 14937 net.cpp:91] Creating Layer inception_4b/relu_pool_proj
I0403 17:46:15.822940 14937 net.cpp:425] inception_4b/relu_pool_proj <- inception_4b/pool_proj
I0403 17:46:15.822964 14937 net.cpp:386] inception_4b/relu_pool_proj -> inception_4b/pool_proj (in-place)
I0403 17:46:15.823146 14937 net.cpp:141] Setting up inception_4b/relu_pool_proj
I0403 17:46:15.823173 14937 net.cpp:148] Top shape: 24 64 14 14 (301056)
I0403 17:46:15.823189 14937 net.cpp:156] Memory required for data: 980223264
I0403 17:46:15.823217 14937 layer_factory.hpp:77] Creating layer inception_4b/output
I0403 17:46:15.823236 14937 net.cpp:91] Creating Layer inception_4b/output
I0403 17:46:15.823253 14937 net.cpp:425] inception_4b/output <- inception_4b/1x1
I0403 17:46:15.823272 14937 net.cpp:425] inception_4b/output <- inception_4b/3x3
I0403 17:46:15.823290 14937 net.cpp:425] inception_4b/output <- inception_4b/5x5
I0403 17:46:15.823308 14937 net.cpp:425] inception_4b/output <- inception_4b/pool_proj
I0403 17:46:15.823326 14937 net.cpp:399] inception_4b/output -> inception_4b/output
I0403 17:46:15.823376 14937 net.cpp:141] Setting up inception_4b/output
I0403 17:46:15.823400 14937 net.cpp:148] Top shape: 24 512 14 14 (2408448)
I0403 17:46:15.823416 14937 net.cpp:156] Memory required for data: 989857056
I0403 17:46:15.823447 14937 layer_factory.hpp:77] Creating layer inception_4b/output_inception_4b/output_0_split
I0403 17:46:15.823469 14937 net.cpp:91] Creating Layer inception_4b/output_inception_4b/output_0_split
I0403 17:46:15.823487 14937 net.cpp:425] inception_4b/output_inception_4b/output_0_split <- inception_4b/output
I0403 17:46:15.823518 14937 net.cpp:399] inception_4b/output_inception_4b/output_0_split -> inception_4b/output_inception_4b/output_0_split_0
I0403 17:46:15.823541 14937 net.cpp:399] inception_4b/output_inception_4b/output_0_split -> inception_4b/output_inception_4b/output_0_split_1
I0403 17:46:15.823564 14937 net.cpp:399] inception_4b/output_inception_4b/output_0_split -> inception_4b/output_inception_4b/output_0_split_2
I0403 17:46:15.823587 14937 net.cpp:399] inception_4b/output_inception_4b/output_0_split -> inception_4b/output_inception_4b/output_0_split_3
I0403 17:46:15.823675 14937 net.cpp:141] Setting up inception_4b/output_inception_4b/output_0_split
I0403 17:46:15.823700 14937 net.cpp:148] Top shape: 24 512 14 14 (2408448)
I0403 17:46:15.823717 14937 net.cpp:148] Top shape: 24 512 14 14 (2408448)
I0403 17:46:15.823734 14937 net.cpp:148] Top shape: 24 512 14 14 (2408448)
I0403 17:46:15.823750 14937 net.cpp:148] Top shape: 24 512 14 14 (2408448)
I0403 17:46:15.823765 14937 net.cpp:156] Memory required for data: 1028392224
I0403 17:46:15.823781 14937 layer_factory.hpp:77] Creating layer inception_4c/1x1
I0403 17:46:15.823804 14937 net.cpp:91] Creating Layer inception_4c/1x1
I0403 17:46:15.823823 14937 net.cpp:425] inception_4c/1x1 <- inception_4b/output_inception_4b/output_0_split_0
I0403 17:46:15.823845 14937 net.cpp:399] inception_4c/1x1 -> inception_4c/1x1
I0403 17:46:15.825285 14937 net.cpp:141] Setting up inception_4c/1x1
I0403 17:46:15.825314 14937 net.cpp:148] Top shape: 24 128 14 14 (602112)
I0403 17:46:15.825330 14937 net.cpp:156] Memory required for data: 1030800672
I0403 17:46:15.825350 14937 layer_factory.hpp:77] Creating layer inception_4c/relu_1x1
I0403 17:46:15.825369 14937 net.cpp:91] Creating Layer inception_4c/relu_1x1
I0403 17:46:15.825387 14937 net.cpp:425] inception_4c/relu_1x1 <- inception_4c/1x1
I0403 17:46:15.825407 14937 net.cpp:386] inception_4c/relu_1x1 -> inception_4c/1x1 (in-place)
I0403 17:46:15.825590 14937 net.cpp:141] Setting up inception_4c/relu_1x1
I0403 17:46:15.825616 14937 net.cpp:148] Top shape: 24 128 14 14 (602112)
I0403 17:46:15.825631 14937 net.cpp:156] Memory required for data: 1033209120
I0403 17:46:15.825647 14937 layer_factory.hpp:77] Creating layer inception_4c/3x3_reduce
I0403 17:46:15.825670 14937 net.cpp:91] Creating Layer inception_4c/3x3_reduce
I0403 17:46:15.825688 14937 net.cpp:425] inception_4c/3x3_reduce <- inception_4b/output_inception_4b/output_0_split_1
I0403 17:46:15.825712 14937 net.cpp:399] inception_4c/3x3_reduce -> inception_4c/3x3_reduce
I0403 17:46:15.827662 14937 net.cpp:141] Setting up inception_4c/3x3_reduce
I0403 17:46:15.827692 14937 net.cpp:148] Top shape: 24 128 14 14 (602112)
I0403 17:46:15.827708 14937 net.cpp:156] Memory required for data: 1035617568
I0403 17:46:15.827728 14937 layer_factory.hpp:77] Creating layer inception_4c/relu_3x3_reduce
I0403 17:46:15.827749 14937 net.cpp:91] Creating Layer inception_4c/relu_3x3_reduce
I0403 17:46:15.827767 14937 net.cpp:425] inception_4c/relu_3x3_reduce <- inception_4c/3x3_reduce
I0403 17:46:15.827786 14937 net.cpp:386] inception_4c/relu_3x3_reduce -> inception_4c/3x3_reduce (in-place)
I0403 17:46:15.828084 14937 net.cpp:141] Setting up inception_4c/relu_3x3_reduce
I0403 17:46:15.828111 14937 net.cpp:148] Top shape: 24 128 14 14 (602112)
I0403 17:46:15.828127 14937 net.cpp:156] Memory required for data: 1038026016
I0403 17:46:15.828143 14937 layer_factory.hpp:77] Creating layer inception_4c/3x3
I0403 17:46:15.828167 14937 net.cpp:91] Creating Layer inception_4c/3x3
I0403 17:46:15.828186 14937 net.cpp:425] inception_4c/3x3 <- inception_4c/3x3_reduce
I0403 17:46:15.828209 14937 net.cpp:399] inception_4c/3x3 -> inception_4c/3x3
I0403 17:46:15.831812 14937 net.cpp:141] Setting up inception_4c/3x3
I0403 17:46:15.831852 14937 net.cpp:148] Top shape: 24 256 14 14 (1204224)
I0403 17:46:15.831869 14937 net.cpp:156] Memory required for data: 1042842912
I0403 17:46:15.831902 14937 layer_factory.hpp:77] Creating layer inception_4c/relu_3x3
I0403 17:46:15.831926 14937 net.cpp:91] Creating Layer inception_4c/relu_3x3
I0403 17:46:15.831943 14937 net.cpp:425] inception_4c/relu_3x3 <- inception_4c/3x3
I0403 17:46:15.831967 14937 net.cpp:386] inception_4c/relu_3x3 -> inception_4c/3x3 (in-place)
I0403 17:46:15.832147 14937 net.cpp:141] Setting up inception_4c/relu_3x3
I0403 17:46:15.832172 14937 net.cpp:148] Top shape: 24 256 14 14 (1204224)
I0403 17:46:15.832190 14937 net.cpp:156] Memory required for data: 1047659808
I0403 17:46:15.832206 14937 layer_factory.hpp:77] Creating layer inception_4c/5x5_reduce
I0403 17:46:15.832226 14937 net.cpp:91] Creating Layer inception_4c/5x5_reduce
I0403 17:46:15.832244 14937 net.cpp:425] inception_4c/5x5_reduce <- inception_4b/output_inception_4b/output_0_split_2
I0403 17:46:15.832267 14937 net.cpp:399] inception_4c/5x5_reduce -> inception_4c/5x5_reduce
I0403 17:46:15.833340 14937 net.cpp:141] Setting up inception_4c/5x5_reduce
I0403 17:46:15.833367 14937 net.cpp:148] Top shape: 24 24 14 14 (112896)
I0403 17:46:15.833384 14937 net.cpp:156] Memory required for data: 1048111392
I0403 17:46:15.833402 14937 layer_factory.hpp:77] Creating layer inception_4c/relu_5x5_reduce
I0403 17:46:15.833423 14937 net.cpp:91] Creating Layer inception_4c/relu_5x5_reduce
I0403 17:46:15.833441 14937 net.cpp:425] inception_4c/relu_5x5_reduce <- inception_4c/5x5_reduce
I0403 17:46:15.833459 14937 net.cpp:386] inception_4c/relu_5x5_reduce -> inception_4c/5x5_reduce (in-place)
I0403 17:46:15.833643 14937 net.cpp:141] Setting up inception_4c/relu_5x5_reduce
I0403 17:46:15.833670 14937 net.cpp:148] Top shape: 24 24 14 14 (112896)
I0403 17:46:15.833686 14937 net.cpp:156] Memory required for data: 1048562976
I0403 17:46:15.833701 14937 layer_factory.hpp:77] Creating layer inception_4c/5x5
I0403 17:46:15.833724 14937 net.cpp:91] Creating Layer inception_4c/5x5
I0403 17:46:15.833744 14937 net.cpp:425] inception_4c/5x5 <- inception_4c/5x5_reduce
I0403 17:46:15.833762 14937 net.cpp:399] inception_4c/5x5 -> inception_4c/5x5
I0403 17:46:15.834980 14937 net.cpp:141] Setting up inception_4c/5x5
I0403 17:46:15.835008 14937 net.cpp:148] Top shape: 24 64 14 14 (301056)
I0403 17:46:15.835024 14937 net.cpp:156] Memory required for data: 1049767200
I0403 17:46:15.835044 14937 layer_factory.hpp:77] Creating layer inception_4c/relu_5x5
I0403 17:46:15.835062 14937 net.cpp:91] Creating Layer inception_4c/relu_5x5
I0403 17:46:15.835079 14937 net.cpp:425] inception_4c/relu_5x5 <- inception_4c/5x5
I0403 17:46:15.835099 14937 net.cpp:386] inception_4c/relu_5x5 -> inception_4c/5x5 (in-place)
I0403 17:46:15.835378 14937 net.cpp:141] Setting up inception_4c/relu_5x5
I0403 17:46:15.835405 14937 net.cpp:148] Top shape: 24 64 14 14 (301056)
I0403 17:46:15.835422 14937 net.cpp:156] Memory required for data: 1050971424
I0403 17:46:15.835438 14937 layer_factory.hpp:77] Creating layer inception_4c/pool
I0403 17:46:15.835455 14937 net.cpp:91] Creating Layer inception_4c/pool
I0403 17:46:15.835474 14937 net.cpp:425] inception_4c/pool <- inception_4b/output_inception_4b/output_0_split_3
I0403 17:46:15.835494 14937 net.cpp:399] inception_4c/pool -> inception_4c/pool
I0403 17:46:15.835558 14937 net.cpp:141] Setting up inception_4c/pool
I0403 17:46:15.835582 14937 net.cpp:148] Top shape: 24 512 14 14 (2408448)
I0403 17:46:15.835597 14937 net.cpp:156] Memory required for data: 1060605216
I0403 17:46:15.835613 14937 layer_factory.hpp:77] Creating layer inception_4c/pool_proj
I0403 17:46:15.835636 14937 net.cpp:91] Creating Layer inception_4c/pool_proj
I0403 17:46:15.835654 14937 net.cpp:425] inception_4c/pool_proj <- inception_4c/pool
I0403 17:46:15.835675 14937 net.cpp:399] inception_4c/pool_proj -> inception_4c/pool_proj
I0403 17:46:15.836869 14937 net.cpp:141] Setting up inception_4c/pool_proj
I0403 17:46:15.836896 14937 net.cpp:148] Top shape: 24 64 14 14 (301056)
I0403 17:46:15.836927 14937 net.cpp:156] Memory required for data: 1061809440
I0403 17:46:15.836951 14937 layer_factory.hpp:77] Creating layer inception_4c/relu_pool_proj
I0403 17:46:15.836974 14937 net.cpp:91] Creating Layer inception_4c/relu_pool_proj
I0403 17:46:15.836992 14937 net.cpp:425] inception_4c/relu_pool_proj <- inception_4c/pool_proj
I0403 17:46:15.837010 14937 net.cpp:386] inception_4c/relu_pool_proj -> inception_4c/pool_proj (in-place)
I0403 17:46:15.837191 14937 net.cpp:141] Setting up inception_4c/relu_pool_proj
I0403 17:46:15.837219 14937 net.cpp:148] Top shape: 24 64 14 14 (301056)
I0403 17:46:15.837235 14937 net.cpp:156] Memory required for data: 1063013664
I0403 17:46:15.837251 14937 layer_factory.hpp:77] Creating layer inception_4c/output
I0403 17:46:15.837270 14937 net.cpp:91] Creating Layer inception_4c/output
I0403 17:46:15.837285 14937 net.cpp:425] inception_4c/output <- inception_4c/1x1
I0403 17:46:15.837303 14937 net.cpp:425] inception_4c/output <- inception_4c/3x3
I0403 17:46:15.837319 14937 net.cpp:425] inception_4c/output <- inception_4c/5x5
I0403 17:46:15.837335 14937 net.cpp:425] inception_4c/output <- inception_4c/pool_proj
I0403 17:46:15.837353 14937 net.cpp:399] inception_4c/output -> inception_4c/output
I0403 17:46:15.837401 14937 net.cpp:141] Setting up inception_4c/output
I0403 17:46:15.837424 14937 net.cpp:148] Top shape: 24 512 14 14 (2408448)
I0403 17:46:15.837440 14937 net.cpp:156] Memory required for data: 1072647456
I0403 17:46:15.837455 14937 layer_factory.hpp:77] Creating layer inception_4c/output_inception_4c/output_0_split
I0403 17:46:15.837476 14937 net.cpp:91] Creating Layer inception_4c/output_inception_4c/output_0_split
I0403 17:46:15.837491 14937 net.cpp:425] inception_4c/output_inception_4c/output_0_split <- inception_4c/output
I0403 17:46:15.837509 14937 net.cpp:399] inception_4c/output_inception_4c/output_0_split -> inception_4c/output_inception_4c/output_0_split_0
I0403 17:46:15.837530 14937 net.cpp:399] inception_4c/output_inception_4c/output_0_split -> inception_4c/output_inception_4c/output_0_split_1
I0403 17:46:15.837551 14937 net.cpp:399] inception_4c/output_inception_4c/output_0_split -> inception_4c/output_inception_4c/output_0_split_2
I0403 17:46:15.837574 14937 net.cpp:399] inception_4c/output_inception_4c/output_0_split -> inception_4c/output_inception_4c/output_0_split_3
I0403 17:46:15.837662 14937 net.cpp:141] Setting up inception_4c/output_inception_4c/output_0_split
I0403 17:46:15.837687 14937 net.cpp:148] Top shape: 24 512 14 14 (2408448)
I0403 17:46:15.837703 14937 net.cpp:148] Top shape: 24 512 14 14 (2408448)
I0403 17:46:15.837720 14937 net.cpp:148] Top shape: 24 512 14 14 (2408448)
I0403 17:46:15.837736 14937 net.cpp:148] Top shape: 24 512 14 14 (2408448)
I0403 17:46:15.837750 14937 net.cpp:156] Memory required for data: 1111182624
I0403 17:46:15.837765 14937 layer_factory.hpp:77] Creating layer inception_4d/1x1
I0403 17:46:15.837788 14937 net.cpp:91] Creating Layer inception_4d/1x1
I0403 17:46:15.837806 14937 net.cpp:425] inception_4d/1x1 <- inception_4c/output_inception_4c/output_0_split_0
I0403 17:46:15.837827 14937 net.cpp:399] inception_4d/1x1 -> inception_4d/1x1
I0403 17:46:15.839190 14937 net.cpp:141] Setting up inception_4d/1x1
I0403 17:46:15.839217 14937 net.cpp:148] Top shape: 24 112 14 14 (526848)
I0403 17:46:15.839234 14937 net.cpp:156] Memory required for data: 1113290016
I0403 17:46:15.839252 14937 layer_factory.hpp:77] Creating layer inception_4d/relu_1x1
I0403 17:46:15.839272 14937 net.cpp:91] Creating Layer inception_4d/relu_1x1
I0403 17:46:15.839288 14937 net.cpp:425] inception_4d/relu_1x1 <- inception_4d/1x1
I0403 17:46:15.839309 14937 net.cpp:386] inception_4d/relu_1x1 -> inception_4d/1x1 (in-place)
I0403 17:46:15.839491 14937 net.cpp:141] Setting up inception_4d/relu_1x1
I0403 17:46:15.839516 14937 net.cpp:148] Top shape: 24 112 14 14 (526848)
I0403 17:46:15.839531 14937 net.cpp:156] Memory required for data: 1115397408
I0403 17:46:15.839547 14937 layer_factory.hpp:77] Creating layer inception_4d/3x3_reduce
I0403 17:46:15.839583 14937 net.cpp:91] Creating Layer inception_4d/3x3_reduce
I0403 17:46:15.839602 14937 net.cpp:425] inception_4d/3x3_reduce <- inception_4c/output_inception_4c/output_0_split_1
I0403 17:46:15.839624 14937 net.cpp:399] inception_4d/3x3_reduce -> inception_4d/3x3_reduce
I0403 17:46:15.841106 14937 net.cpp:141] Setting up inception_4d/3x3_reduce
I0403 17:46:15.841135 14937 net.cpp:148] Top shape: 24 144 14 14 (677376)
I0403 17:46:15.841152 14937 net.cpp:156] Memory required for data: 1118106912
I0403 17:46:15.841171 14937 layer_factory.hpp:77] Creating layer inception_4d/relu_3x3_reduce
I0403 17:46:15.841189 14937 net.cpp:91] Creating Layer inception_4d/relu_3x3_reduce
I0403 17:46:15.841207 14937 net.cpp:425] inception_4d/relu_3x3_reduce <- inception_4d/3x3_reduce
I0403 17:46:15.841228 14937 net.cpp:386] inception_4d/relu_3x3_reduce -> inception_4d/3x3_reduce (in-place)
I0403 17:46:15.841516 14937 net.cpp:141] Setting up inception_4d/relu_3x3_reduce
I0403 17:46:15.841543 14937 net.cpp:148] Top shape: 24 144 14 14 (677376)
I0403 17:46:15.841559 14937 net.cpp:156] Memory required for data: 1120816416
I0403 17:46:15.841575 14937 layer_factory.hpp:77] Creating layer inception_4d/3x3
I0403 17:46:15.841598 14937 net.cpp:91] Creating Layer inception_4d/3x3
I0403 17:46:15.841617 14937 net.cpp:425] inception_4d/3x3 <- inception_4d/3x3_reduce
I0403 17:46:15.841636 14937 net.cpp:399] inception_4d/3x3 -> inception_4d/3x3
I0403 17:46:15.845819 14937 net.cpp:141] Setting up inception_4d/3x3
I0403 17:46:15.845849 14937 net.cpp:148] Top shape: 24 288 14 14 (1354752)
I0403 17:46:15.845865 14937 net.cpp:156] Memory required for data: 1126235424
I0403 17:46:15.845885 14937 layer_factory.hpp:77] Creating layer inception_4d/relu_3x3
I0403 17:46:15.845906 14937 net.cpp:91] Creating Layer inception_4d/relu_3x3
I0403 17:46:15.845927 14937 net.cpp:425] inception_4d/relu_3x3 <- inception_4d/3x3
I0403 17:46:15.845944 14937 net.cpp:386] inception_4d/relu_3x3 -> inception_4d/3x3 (in-place)
I0403 17:46:15.846130 14937 net.cpp:141] Setting up inception_4d/relu_3x3
I0403 17:46:15.846155 14937 net.cpp:148] Top shape: 24 288 14 14 (1354752)
I0403 17:46:15.846170 14937 net.cpp:156] Memory required for data: 1131654432
I0403 17:46:15.846185 14937 layer_factory.hpp:77] Creating layer inception_4d/5x5_reduce
I0403 17:46:15.846210 14937 net.cpp:91] Creating Layer inception_4d/5x5_reduce
I0403 17:46:15.846228 14937 net.cpp:425] inception_4d/5x5_reduce <- inception_4c/output_inception_4c/output_0_split_2
I0403 17:46:15.846248 14937 net.cpp:399] inception_4d/5x5_reduce -> inception_4d/5x5_reduce
I0403 17:46:15.847414 14937 net.cpp:141] Setting up inception_4d/5x5_reduce
I0403 17:46:15.847440 14937 net.cpp:148] Top shape: 24 32 14 14 (150528)
I0403 17:46:15.847456 14937 net.cpp:156] Memory required for data: 1132256544
I0403 17:46:15.847476 14937 layer_factory.hpp:77] Creating layer inception_4d/relu_5x5_reduce
I0403 17:46:15.847496 14937 net.cpp:91] Creating Layer inception_4d/relu_5x5_reduce
I0403 17:46:15.847513 14937 net.cpp:425] inception_4d/relu_5x5_reduce <- inception_4d/5x5_reduce
I0403 17:46:15.847532 14937 net.cpp:386] inception_4d/relu_5x5_reduce -> inception_4d/5x5_reduce (in-place)
I0403 17:46:15.847714 14937 net.cpp:141] Setting up inception_4d/relu_5x5_reduce
I0403 17:46:15.847738 14937 net.cpp:148] Top shape: 24 32 14 14 (150528)
I0403 17:46:15.847756 14937 net.cpp:156] Memory required for data: 1132858656
I0403 17:46:15.847772 14937 layer_factory.hpp:77] Creating layer inception_4d/5x5
I0403 17:46:15.847792 14937 net.cpp:91] Creating Layer inception_4d/5x5
I0403 17:46:15.847810 14937 net.cpp:425] inception_4d/5x5 <- inception_4d/5x5_reduce
I0403 17:46:15.847831 14937 net.cpp:399] inception_4d/5x5 -> inception_4d/5x5
I0403 17:46:15.849279 14937 net.cpp:141] Setting up inception_4d/5x5
I0403 17:46:15.849308 14937 net.cpp:148] Top shape: 24 64 14 14 (301056)
I0403 17:46:15.849325 14937 net.cpp:156] Memory required for data: 1134062880
I0403 17:46:15.849344 14937 layer_factory.hpp:77] Creating layer inception_4d/relu_5x5
I0403 17:46:15.849380 14937 net.cpp:91] Creating Layer inception_4d/relu_5x5
I0403 17:46:15.849397 14937 net.cpp:425] inception_4d/relu_5x5 <- inception_4d/5x5
I0403 17:46:15.849416 14937 net.cpp:386] inception_4d/relu_5x5 -> inception_4d/5x5 (in-place)
I0403 17:46:15.849709 14937 net.cpp:141] Setting up inception_4d/relu_5x5
I0403 17:46:15.849735 14937 net.cpp:148] Top shape: 24 64 14 14 (301056)
I0403 17:46:15.849751 14937 net.cpp:156] Memory required for data: 1135267104
I0403 17:46:15.849767 14937 layer_factory.hpp:77] Creating layer inception_4d/pool
I0403 17:46:15.849786 14937 net.cpp:91] Creating Layer inception_4d/pool
I0403 17:46:15.849803 14937 net.cpp:425] inception_4d/pool <- inception_4c/output_inception_4c/output_0_split_3
I0403 17:46:15.849822 14937 net.cpp:399] inception_4d/pool -> inception_4d/pool
I0403 17:46:15.849887 14937 net.cpp:141] Setting up inception_4d/pool
I0403 17:46:15.849911 14937 net.cpp:148] Top shape: 24 512 14 14 (2408448)
I0403 17:46:15.849928 14937 net.cpp:156] Memory required for data: 1144900896
I0403 17:46:15.849943 14937 layer_factory.hpp:77] Creating layer inception_4d/pool_proj
I0403 17:46:15.849972 14937 net.cpp:91] Creating Layer inception_4d/pool_proj
I0403 17:46:15.849989 14937 net.cpp:425] inception_4d/pool_proj <- inception_4d/pool
I0403 17:46:15.850011 14937 net.cpp:399] inception_4d/pool_proj -> inception_4d/pool_proj
I0403 17:46:15.851724 14937 net.cpp:141] Setting up inception_4d/pool_proj
I0403 17:46:15.851752 14937 net.cpp:148] Top shape: 24 64 14 14 (301056)
I0403 17:46:15.851768 14937 net.cpp:156] Memory required for data: 1146105120
I0403 17:46:15.851788 14937 layer_factory.hpp:77] Creating layer inception_4d/relu_pool_proj
I0403 17:46:15.851809 14937 net.cpp:91] Creating Layer inception_4d/relu_pool_proj
I0403 17:46:15.851826 14937 net.cpp:425] inception_4d/relu_pool_proj <- inception_4d/pool_proj
I0403 17:46:15.851845 14937 net.cpp:386] inception_4d/relu_pool_proj -> inception_4d/pool_proj (in-place)
I0403 17:46:15.852031 14937 net.cpp:141] Setting up inception_4d/relu_pool_proj
I0403 17:46:15.852056 14937 net.cpp:148] Top shape: 24 64 14 14 (301056)
I0403 17:46:15.852072 14937 net.cpp:156] Memory required for data: 1147309344
I0403 17:46:15.852087 14937 layer_factory.hpp:77] Creating layer inception_4d/output
I0403 17:46:15.852108 14937 net.cpp:91] Creating Layer inception_4d/output
I0403 17:46:15.852124 14937 net.cpp:425] inception_4d/output <- inception_4d/1x1
I0403 17:46:15.852141 14937 net.cpp:425] inception_4d/output <- inception_4d/3x3
I0403 17:46:15.852159 14937 net.cpp:425] inception_4d/output <- inception_4d/5x5
I0403 17:46:15.852174 14937 net.cpp:425] inception_4d/output <- inception_4d/pool_proj
I0403 17:46:15.852192 14937 net.cpp:399] inception_4d/output -> inception_4d/output
I0403 17:46:15.852241 14937 net.cpp:141] Setting up inception_4d/output
I0403 17:46:15.852263 14937 net.cpp:148] Top shape: 24 528 14 14 (2483712)
I0403 17:46:15.852278 14937 net.cpp:156] Memory required for data: 1157244192
I0403 17:46:15.852293 14937 layer_factory.hpp:77] Creating layer inception_4d/output_inception_4d/output_0_split
I0403 17:46:15.852311 14937 net.cpp:91] Creating Layer inception_4d/output_inception_4d/output_0_split
I0403 17:46:15.852327 14937 net.cpp:425] inception_4d/output_inception_4d/output_0_split <- inception_4d/output
I0403 17:46:15.852347 14937 net.cpp:399] inception_4d/output_inception_4d/output_0_split -> inception_4d/output_inception_4d/output_0_split_0
I0403 17:46:15.852370 14937 net.cpp:399] inception_4d/output_inception_4d/output_0_split -> inception_4d/output_inception_4d/output_0_split_1
I0403 17:46:15.852391 14937 net.cpp:399] inception_4d/output_inception_4d/output_0_split -> inception_4d/output_inception_4d/output_0_split_2
I0403 17:46:15.852416 14937 net.cpp:399] inception_4d/output_inception_4d/output_0_split -> inception_4d/output_inception_4d/output_0_split_3
I0403 17:46:15.852437 14937 net.cpp:399] inception_4d/output_inception_4d/output_0_split -> inception_4d/output_inception_4d/output_0_split_4
I0403 17:46:15.852538 14937 net.cpp:141] Setting up inception_4d/output_inception_4d/output_0_split
I0403 17:46:15.852573 14937 net.cpp:148] Top shape: 24 528 14 14 (2483712)
I0403 17:46:15.852591 14937 net.cpp:148] Top shape: 24 528 14 14 (2483712)
I0403 17:46:15.852607 14937 net.cpp:148] Top shape: 24 528 14 14 (2483712)
I0403 17:46:15.852623 14937 net.cpp:148] Top shape: 24 528 14 14 (2483712)
I0403 17:46:15.852638 14937 net.cpp:148] Top shape: 24 528 14 14 (2483712)
I0403 17:46:15.852653 14937 net.cpp:156] Memory required for data: 1206918432
I0403 17:46:15.852669 14937 layer_factory.hpp:77] Creating layer loss2/ave_pool
I0403 17:46:15.852686 14937 net.cpp:91] Creating Layer loss2/ave_pool
I0403 17:46:15.852704 14937 net.cpp:425] loss2/ave_pool <- inception_4d/output_inception_4d/output_0_split_0
I0403 17:46:15.852725 14937 net.cpp:399] loss2/ave_pool -> loss2/ave_pool
I0403 17:46:15.853031 14937 net.cpp:141] Setting up loss2/ave_pool
I0403 17:46:15.853057 14937 net.cpp:148] Top shape: 24 528 4 4 (202752)
I0403 17:46:15.853073 14937 net.cpp:156] Memory required for data: 1207729440
I0403 17:46:15.853088 14937 layer_factory.hpp:77] Creating layer loss2/conv
I0403 17:46:15.853111 14937 net.cpp:91] Creating Layer loss2/conv
I0403 17:46:15.853129 14937 net.cpp:425] loss2/conv <- loss2/ave_pool
I0403 17:46:15.853152 14937 net.cpp:399] loss2/conv -> loss2/conv
I0403 17:46:15.855000 14937 net.cpp:141] Setting up loss2/conv
I0403 17:46:15.855029 14937 net.cpp:148] Top shape: 24 128 4 4 (49152)
I0403 17:46:15.855046 14937 net.cpp:156] Memory required for data: 1207926048
I0403 17:46:15.855067 14937 layer_factory.hpp:77] Creating layer loss2/relu_conv
I0403 17:46:15.855084 14937 net.cpp:91] Creating Layer loss2/relu_conv
I0403 17:46:15.855101 14937 net.cpp:425] loss2/relu_conv <- loss2/conv
I0403 17:46:15.855123 14937 net.cpp:386] loss2/relu_conv -> loss2/conv (in-place)
I0403 17:46:15.855417 14937 net.cpp:141] Setting up loss2/relu_conv
I0403 17:46:15.855445 14937 net.cpp:148] Top shape: 24 128 4 4 (49152)
I0403 17:46:15.855463 14937 net.cpp:156] Memory required for data: 1208122656
I0403 17:46:15.855479 14937 layer_factory.hpp:77] Creating layer loss2/fc
I0403 17:46:15.855510 14937 net.cpp:91] Creating Layer loss2/fc
I0403 17:46:15.855526 14937 net.cpp:425] loss2/fc <- loss2/conv
I0403 17:46:15.855550 14937 net.cpp:399] loss2/fc -> loss2/fc
I0403 17:46:15.872654 14937 net.cpp:141] Setting up loss2/fc
I0403 17:46:15.872686 14937 net.cpp:148] Top shape: 24 1024 (24576)
I0403 17:46:15.872704 14937 net.cpp:156] Memory required for data: 1208220960
I0403 17:46:15.872722 14937 layer_factory.hpp:77] Creating layer loss2/relu_fc
I0403 17:46:15.872743 14937 net.cpp:91] Creating Layer loss2/relu_fc
I0403 17:46:15.872761 14937 net.cpp:425] loss2/relu_fc <- loss2/fc
I0403 17:46:15.872779 14937 net.cpp:386] loss2/relu_fc -> loss2/fc (in-place)
I0403 17:46:15.873080 14937 net.cpp:141] Setting up loss2/relu_fc
I0403 17:46:15.873106 14937 net.cpp:148] Top shape: 24 1024 (24576)
I0403 17:46:15.873121 14937 net.cpp:156] Memory required for data: 1208319264
I0403 17:46:15.873136 14937 layer_factory.hpp:77] Creating layer loss2/drop_fc
I0403 17:46:15.873157 14937 net.cpp:91] Creating Layer loss2/drop_fc
I0403 17:46:15.873173 14937 net.cpp:425] loss2/drop_fc <- loss2/fc
I0403 17:46:15.873191 14937 net.cpp:386] loss2/drop_fc -> loss2/fc (in-place)
I0403 17:46:15.873255 14937 net.cpp:141] Setting up loss2/drop_fc
I0403 17:46:15.873278 14937 net.cpp:148] Top shape: 24 1024 (24576)
I0403 17:46:15.873294 14937 net.cpp:156] Memory required for data: 1208417568
I0403 17:46:15.873309 14937 layer_factory.hpp:77] Creating layer loss2/classifier_plantvillage
I0403 17:46:15.873329 14937 net.cpp:91] Creating Layer loss2/classifier_plantvillage
I0403 17:46:15.873347 14937 net.cpp:425] loss2/classifier_plantvillage <- loss2/fc
I0403 17:46:15.873369 14937 net.cpp:399] loss2/classifier_plantvillage -> loss2/classifier_plantvillage
I0403 17:46:15.873781 14937 net.cpp:141] Setting up loss2/classifier_plantvillage
I0403 17:46:15.873805 14937 net.cpp:148] Top shape: 24 38 (912)
I0403 17:46:15.873839 14937 net.cpp:156] Memory required for data: 1208421216
I0403 17:46:15.873859 14937 layer_factory.hpp:77] Creating layer loss2/classifier_plantvillage_loss2/classifier_plantvillage_0_split
I0403 17:46:15.873878 14937 net.cpp:91] Creating Layer loss2/classifier_plantvillage_loss2/classifier_plantvillage_0_split
I0403 17:46:15.873895 14937 net.cpp:425] loss2/classifier_plantvillage_loss2/classifier_plantvillage_0_split <- loss2/classifier_plantvillage
I0403 17:46:15.873916 14937 net.cpp:399] loss2/classifier_plantvillage_loss2/classifier_plantvillage_0_split -> loss2/classifier_plantvillage_loss2/classifier_plantvillage_0_split_0
I0403 17:46:15.873939 14937 net.cpp:399] loss2/classifier_plantvillage_loss2/classifier_plantvillage_0_split -> loss2/classifier_plantvillage_loss2/classifier_plantvillage_0_split_1
I0403 17:46:15.873963 14937 net.cpp:399] loss2/classifier_plantvillage_loss2/classifier_plantvillage_0_split -> loss2/classifier_plantvillage_loss2/classifier_plantvillage_0_split_2
I0403 17:46:15.874039 14937 net.cpp:141] Setting up loss2/classifier_plantvillage_loss2/classifier_plantvillage_0_split
I0403 17:46:15.874063 14937 net.cpp:148] Top shape: 24 38 (912)
I0403 17:46:15.874079 14937 net.cpp:148] Top shape: 24 38 (912)
I0403 17:46:15.874096 14937 net.cpp:148] Top shape: 24 38 (912)
I0403 17:46:15.874110 14937 net.cpp:156] Memory required for data: 1208432160
I0403 17:46:15.874126 14937 layer_factory.hpp:77] Creating layer inception_4e/1x1
I0403 17:46:15.874148 14937 net.cpp:91] Creating Layer inception_4e/1x1
I0403 17:46:15.874166 14937 net.cpp:425] inception_4e/1x1 <- inception_4d/output_inception_4d/output_0_split_1
I0403 17:46:15.874186 14937 net.cpp:399] inception_4e/1x1 -> inception_4e/1x1
I0403 17:46:15.875993 14937 net.cpp:141] Setting up inception_4e/1x1
I0403 17:46:15.876022 14937 net.cpp:148] Top shape: 24 256 14 14 (1204224)
I0403 17:46:15.876039 14937 net.cpp:156] Memory required for data: 1213249056
I0403 17:46:15.876058 14937 layer_factory.hpp:77] Creating layer inception_4e/relu_1x1
I0403 17:46:15.876077 14937 net.cpp:91] Creating Layer inception_4e/relu_1x1
I0403 17:46:15.876093 14937 net.cpp:425] inception_4e/relu_1x1 <- inception_4e/1x1
I0403 17:46:15.876112 14937 net.cpp:386] inception_4e/relu_1x1 -> inception_4e/1x1 (in-place)
I0403 17:46:15.876401 14937 net.cpp:141] Setting up inception_4e/relu_1x1
I0403 17:46:15.876428 14937 net.cpp:148] Top shape: 24 256 14 14 (1204224)
I0403 17:46:15.876444 14937 net.cpp:156] Memory required for data: 1218065952
I0403 17:46:15.876461 14937 layer_factory.hpp:77] Creating layer inception_4e/3x3_reduce
I0403 17:46:15.876483 14937 net.cpp:91] Creating Layer inception_4e/3x3_reduce
I0403 17:46:15.876502 14937 net.cpp:425] inception_4e/3x3_reduce <- inception_4d/output_inception_4d/output_0_split_2
I0403 17:46:15.876521 14937 net.cpp:399] inception_4e/3x3_reduce -> inception_4e/3x3_reduce
I0403 17:46:15.878631 14937 net.cpp:141] Setting up inception_4e/3x3_reduce
I0403 17:46:15.878659 14937 net.cpp:148] Top shape: 24 160 14 14 (752640)
I0403 17:46:15.878675 14937 net.cpp:156] Memory required for data: 1221076512
I0403 17:46:15.878693 14937 layer_factory.hpp:77] Creating layer inception_4e/relu_3x3_reduce
I0403 17:46:15.878715 14937 net.cpp:91] Creating Layer inception_4e/relu_3x3_reduce
I0403 17:46:15.878732 14937 net.cpp:425] inception_4e/relu_3x3_reduce <- inception_4e/3x3_reduce
I0403 17:46:15.878751 14937 net.cpp:386] inception_4e/relu_3x3_reduce -> inception_4e/3x3_reduce (in-place)
I0403 17:46:15.878933 14937 net.cpp:141] Setting up inception_4e/relu_3x3_reduce
I0403 17:46:15.878962 14937 net.cpp:148] Top shape: 24 160 14 14 (752640)
I0403 17:46:15.878978 14937 net.cpp:156] Memory required for data: 1224087072
I0403 17:46:15.878994 14937 layer_factory.hpp:77] Creating layer inception_4e/3x3
I0403 17:46:15.879016 14937 net.cpp:91] Creating Layer inception_4e/3x3
I0403 17:46:15.879035 14937 net.cpp:425] inception_4e/3x3 <- inception_4e/3x3_reduce
I0403 17:46:15.879058 14937 net.cpp:399] inception_4e/3x3 -> inception_4e/3x3
I0403 17:46:15.884099 14937 net.cpp:141] Setting up inception_4e/3x3
I0403 17:46:15.884137 14937 net.cpp:148] Top shape: 24 320 14 14 (1505280)
I0403 17:46:15.884155 14937 net.cpp:156] Memory required for data: 1230108192
I0403 17:46:15.884173 14937 layer_factory.hpp:77] Creating layer inception_4e/relu_3x3
I0403 17:46:15.884192 14937 net.cpp:91] Creating Layer inception_4e/relu_3x3
I0403 17:46:15.884208 14937 net.cpp:425] inception_4e/relu_3x3 <- inception_4e/3x3
I0403 17:46:15.884228 14937 net.cpp:386] inception_4e/relu_3x3 -> inception_4e/3x3 (in-place)
I0403 17:46:15.884524 14937 net.cpp:141] Setting up inception_4e/relu_3x3
I0403 17:46:15.884551 14937 net.cpp:148] Top shape: 24 320 14 14 (1505280)
I0403 17:46:15.884565 14937 net.cpp:156] Memory required for data: 1236129312
I0403 17:46:15.884582 14937 layer_factory.hpp:77] Creating layer inception_4e/5x5_reduce
I0403 17:46:15.884604 14937 net.cpp:91] Creating Layer inception_4e/5x5_reduce
I0403 17:46:15.884624 14937 net.cpp:425] inception_4e/5x5_reduce <- inception_4d/output_inception_4d/output_0_split_3
I0403 17:46:15.884646 14937 net.cpp:399] inception_4e/5x5_reduce -> inception_4e/5x5_reduce
I0403 17:46:15.885733 14937 net.cpp:141] Setting up inception_4e/5x5_reduce
I0403 17:46:15.885762 14937 net.cpp:148] Top shape: 24 32 14 14 (150528)
I0403 17:46:15.885781 14937 net.cpp:156] Memory required for data: 1236731424
I0403 17:46:15.885798 14937 layer_factory.hpp:77] Creating layer inception_4e/relu_5x5_reduce
I0403 17:46:15.885818 14937 net.cpp:91] Creating Layer inception_4e/relu_5x5_reduce
I0403 17:46:15.885834 14937 net.cpp:425] inception_4e/relu_5x5_reduce <- inception_4e/5x5_reduce
I0403 17:46:15.885851 14937 net.cpp:386] inception_4e/relu_5x5_reduce -> inception_4e/5x5_reduce (in-place)
I0403 17:46:15.886145 14937 net.cpp:141] Setting up inception_4e/relu_5x5_reduce
I0403 17:46:15.886173 14937 net.cpp:148] Top shape: 24 32 14 14 (150528)
I0403 17:46:15.886189 14937 net.cpp:156] Memory required for data: 1237333536
I0403 17:46:15.886205 14937 layer_factory.hpp:77] Creating layer inception_4e/5x5
I0403 17:46:15.886245 14937 net.cpp:91] Creating Layer inception_4e/5x5
I0403 17:46:15.886265 14937 net.cpp:425] inception_4e/5x5 <- inception_4e/5x5_reduce
I0403 17:46:15.886286 14937 net.cpp:399] inception_4e/5x5 -> inception_4e/5x5
I0403 17:46:15.888140 14937 net.cpp:141] Setting up inception_4e/5x5
I0403 17:46:15.888169 14937 net.cpp:148] Top shape: 24 128 14 14 (602112)
I0403 17:46:15.888185 14937 net.cpp:156] Memory required for data: 1239741984
I0403 17:46:15.888205 14937 layer_factory.hpp:77] Creating layer inception_4e/relu_5x5
I0403 17:46:15.888226 14937 net.cpp:91] Creating Layer inception_4e/relu_5x5
I0403 17:46:15.888242 14937 net.cpp:425] inception_4e/relu_5x5 <- inception_4e/5x5
I0403 17:46:15.888260 14937 net.cpp:386] inception_4e/relu_5x5 -> inception_4e/5x5 (in-place)
I0403 17:46:15.888455 14937 net.cpp:141] Setting up inception_4e/relu_5x5
I0403 17:46:15.888483 14937 net.cpp:148] Top shape: 24 128 14 14 (602112)
I0403 17:46:15.888499 14937 net.cpp:156] Memory required for data: 1242150432
I0403 17:46:15.888514 14937 layer_factory.hpp:77] Creating layer inception_4e/pool
I0403 17:46:15.888532 14937 net.cpp:91] Creating Layer inception_4e/pool
I0403 17:46:15.888550 14937 net.cpp:425] inception_4e/pool <- inception_4d/output_inception_4d/output_0_split_4
I0403 17:46:15.888571 14937 net.cpp:399] inception_4e/pool -> inception_4e/pool
I0403 17:46:15.888639 14937 net.cpp:141] Setting up inception_4e/pool
I0403 17:46:15.888664 14937 net.cpp:148] Top shape: 24 528 14 14 (2483712)
I0403 17:46:15.888679 14937 net.cpp:156] Memory required for data: 1252085280
I0403 17:46:15.888694 14937 layer_factory.hpp:77] Creating layer inception_4e/pool_proj
I0403 17:46:15.888716 14937 net.cpp:91] Creating Layer inception_4e/pool_proj
I0403 17:46:15.888736 14937 net.cpp:425] inception_4e/pool_proj <- inception_4e/pool
I0403 17:46:15.888756 14937 net.cpp:399] inception_4e/pool_proj -> inception_4e/pool_proj
I0403 17:46:15.890233 14937 net.cpp:141] Setting up inception_4e/pool_proj
I0403 17:46:15.890271 14937 net.cpp:148] Top shape: 24 128 14 14 (602112)
I0403 17:46:15.890287 14937 net.cpp:156] Memory required for data: 1254493728
I0403 17:46:15.890306 14937 layer_factory.hpp:77] Creating layer inception_4e/relu_pool_proj
I0403 17:46:15.890327 14937 net.cpp:91] Creating Layer inception_4e/relu_pool_proj
I0403 17:46:15.890347 14937 net.cpp:425] inception_4e/relu_pool_proj <- inception_4e/pool_proj
I0403 17:46:15.890364 14937 net.cpp:386] inception_4e/relu_pool_proj -> inception_4e/pool_proj (in-place)
I0403 17:46:15.890653 14937 net.cpp:141] Setting up inception_4e/relu_pool_proj
I0403 17:46:15.890678 14937 net.cpp:148] Top shape: 24 128 14 14 (602112)
I0403 17:46:15.890694 14937 net.cpp:156] Memory required for data: 1256902176
I0403 17:46:15.890709 14937 layer_factory.hpp:77] Creating layer inception_4e/output
I0403 17:46:15.890729 14937 net.cpp:91] Creating Layer inception_4e/output
I0403 17:46:15.890748 14937 net.cpp:425] inception_4e/output <- inception_4e/1x1
I0403 17:46:15.890764 14937 net.cpp:425] inception_4e/output <- inception_4e/3x3
I0403 17:46:15.890780 14937 net.cpp:425] inception_4e/output <- inception_4e/5x5
I0403 17:46:15.890797 14937 net.cpp:425] inception_4e/output <- inception_4e/pool_proj
I0403 17:46:15.890815 14937 net.cpp:399] inception_4e/output -> inception_4e/output
I0403 17:46:15.890863 14937 net.cpp:141] Setting up inception_4e/output
I0403 17:46:15.890889 14937 net.cpp:148] Top shape: 24 832 14 14 (3913728)
I0403 17:46:15.890905 14937 net.cpp:156] Memory required for data: 1272557088
I0403 17:46:15.890923 14937 layer_factory.hpp:77] Creating layer pool4/3x3_s2
I0403 17:46:15.890940 14937 net.cpp:91] Creating Layer pool4/3x3_s2
I0403 17:46:15.890961 14937 net.cpp:425] pool4/3x3_s2 <- inception_4e/output
I0403 17:46:15.890985 14937 net.cpp:399] pool4/3x3_s2 -> pool4/3x3_s2
I0403 17:46:15.891052 14937 net.cpp:141] Setting up pool4/3x3_s2
I0403 17:46:15.891077 14937 net.cpp:148] Top shape: 24 832 7 7 (978432)
I0403 17:46:15.891094 14937 net.cpp:156] Memory required for data: 1276470816
I0403 17:46:15.891110 14937 layer_factory.hpp:77] Creating layer pool4/3x3_s2_pool4/3x3_s2_0_split
I0403 17:46:15.891127 14937 net.cpp:91] Creating Layer pool4/3x3_s2_pool4/3x3_s2_0_split
I0403 17:46:15.891144 14937 net.cpp:425] pool4/3x3_s2_pool4/3x3_s2_0_split <- pool4/3x3_s2
I0403 17:46:15.891163 14937 net.cpp:399] pool4/3x3_s2_pool4/3x3_s2_0_split -> pool4/3x3_s2_pool4/3x3_s2_0_split_0
I0403 17:46:15.891183 14937 net.cpp:399] pool4/3x3_s2_pool4/3x3_s2_0_split -> pool4/3x3_s2_pool4/3x3_s2_0_split_1
I0403 17:46:15.891207 14937 net.cpp:399] pool4/3x3_s2_pool4/3x3_s2_0_split -> pool4/3x3_s2_pool4/3x3_s2_0_split_2
I0403 17:46:15.891229 14937 net.cpp:399] pool4/3x3_s2_pool4/3x3_s2_0_split -> pool4/3x3_s2_pool4/3x3_s2_0_split_3
I0403 17:46:15.891320 14937 net.cpp:141] Setting up pool4/3x3_s2_pool4/3x3_s2_0_split
I0403 17:46:15.891345 14937 net.cpp:148] Top shape: 24 832 7 7 (978432)
I0403 17:46:15.891361 14937 net.cpp:148] Top shape: 24 832 7 7 (978432)
I0403 17:46:15.891377 14937 net.cpp:148] Top shape: 24 832 7 7 (978432)
I0403 17:46:15.891393 14937 net.cpp:148] Top shape: 24 832 7 7 (978432)
I0403 17:46:15.891408 14937 net.cpp:156] Memory required for data: 1292125728
I0403 17:46:15.891423 14937 layer_factory.hpp:77] Creating layer inception_5a/1x1
I0403 17:46:15.891446 14937 net.cpp:91] Creating Layer inception_5a/1x1
I0403 17:46:15.891465 14937 net.cpp:425] inception_5a/1x1 <- pool4/3x3_s2_pool4/3x3_s2_0_split_0
I0403 17:46:15.891489 14937 net.cpp:399] inception_5a/1x1 -> inception_5a/1x1
I0403 17:46:15.894275 14937 net.cpp:141] Setting up inception_5a/1x1
I0403 17:46:15.894304 14937 net.cpp:148] Top shape: 24 256 7 7 (301056)
I0403 17:46:15.894320 14937 net.cpp:156] Memory required for data: 1293329952
I0403 17:46:15.894338 14937 layer_factory.hpp:77] Creating layer inception_5a/relu_1x1
I0403 17:46:15.894361 14937 net.cpp:91] Creating Layer inception_5a/relu_1x1
I0403 17:46:15.894377 14937 net.cpp:425] inception_5a/relu_1x1 <- inception_5a/1x1
I0403 17:46:15.894397 14937 net.cpp:386] inception_5a/relu_1x1 -> inception_5a/1x1 (in-place)
I0403 17:46:15.894701 14937 net.cpp:141] Setting up inception_5a/relu_1x1
I0403 17:46:15.894726 14937 net.cpp:148] Top shape: 24 256 7 7 (301056)
I0403 17:46:15.894742 14937 net.cpp:156] Memory required for data: 1294534176
I0403 17:46:15.894757 14937 layer_factory.hpp:77] Creating layer inception_5a/3x3_reduce
I0403 17:46:15.894781 14937 net.cpp:91] Creating Layer inception_5a/3x3_reduce
I0403 17:46:15.894800 14937 net.cpp:425] inception_5a/3x3_reduce <- pool4/3x3_s2_pool4/3x3_s2_0_split_1
I0403 17:46:15.894820 14937 net.cpp:399] inception_5a/3x3_reduce -> inception_5a/3x3_reduce
I0403 17:46:15.897212 14937 net.cpp:141] Setting up inception_5a/3x3_reduce
I0403 17:46:15.897240 14937 net.cpp:148] Top shape: 24 160 7 7 (188160)
I0403 17:46:15.897258 14937 net.cpp:156] Memory required for data: 1295286816
I0403 17:46:15.897276 14937 layer_factory.hpp:77] Creating layer inception_5a/relu_3x3_reduce
I0403 17:46:15.897300 14937 net.cpp:91] Creating Layer inception_5a/relu_3x3_reduce
I0403 17:46:15.897318 14937 net.cpp:425] inception_5a/relu_3x3_reduce <- inception_5a/3x3_reduce
I0403 17:46:15.897336 14937 net.cpp:386] inception_5a/relu_3x3_reduce -> inception_5a/3x3_reduce (in-place)
I0403 17:46:15.897521 14937 net.cpp:141] Setting up inception_5a/relu_3x3_reduce
I0403 17:46:15.897546 14937 net.cpp:148] Top shape: 24 160 7 7 (188160)
I0403 17:46:15.897562 14937 net.cpp:156] Memory required for data: 1296039456
I0403 17:46:15.897578 14937 layer_factory.hpp:77] Creating layer inception_5a/3x3
I0403 17:46:15.897599 14937 net.cpp:91] Creating Layer inception_5a/3x3
I0403 17:46:15.897619 14937 net.cpp:425] inception_5a/3x3 <- inception_5a/3x3_reduce
I0403 17:46:15.897641 14937 net.cpp:399] inception_5a/3x3 -> inception_5a/3x3
I0403 17:46:15.902590 14937 net.cpp:141] Setting up inception_5a/3x3
I0403 17:46:15.902619 14937 net.cpp:148] Top shape: 24 320 7 7 (376320)
I0403 17:46:15.902637 14937 net.cpp:156] Memory required for data: 1297544736
I0403 17:46:15.902657 14937 layer_factory.hpp:77] Creating layer inception_5a/relu_3x3
I0403 17:46:15.902678 14937 net.cpp:91] Creating Layer inception_5a/relu_3x3
I0403 17:46:15.902696 14937 net.cpp:425] inception_5a/relu_3x3 <- inception_5a/3x3
I0403 17:46:15.902715 14937 net.cpp:386] inception_5a/relu_3x3 -> inception_5a/3x3 (in-place)
I0403 17:46:15.903024 14937 net.cpp:141] Setting up inception_5a/relu_3x3
I0403 17:46:15.903050 14937 net.cpp:148] Top shape: 24 320 7 7 (376320)
I0403 17:46:15.903066 14937 net.cpp:156] Memory required for data: 1299050016
I0403 17:46:15.903081 14937 layer_factory.hpp:77] Creating layer inception_5a/5x5_reduce
I0403 17:46:15.903105 14937 net.cpp:91] Creating Layer inception_5a/5x5_reduce
I0403 17:46:15.903123 14937 net.cpp:425] inception_5a/5x5_reduce <- pool4/3x3_s2_pool4/3x3_s2_0_split_2
I0403 17:46:15.903146 14937 net.cpp:399] inception_5a/5x5_reduce -> inception_5a/5x5_reduce
I0403 17:46:15.904296 14937 net.cpp:141] Setting up inception_5a/5x5_reduce
I0403 17:46:15.904325 14937 net.cpp:148] Top shape: 24 32 7 7 (37632)
I0403 17:46:15.904341 14937 net.cpp:156] Memory required for data: 1299200544
I0403 17:46:15.904361 14937 layer_factory.hpp:77] Creating layer inception_5a/relu_5x5_reduce
I0403 17:46:15.904381 14937 net.cpp:91] Creating Layer inception_5a/relu_5x5_reduce
I0403 17:46:15.904398 14937 net.cpp:425] inception_5a/relu_5x5_reduce <- inception_5a/5x5_reduce
I0403 17:46:15.904417 14937 net.cpp:386] inception_5a/relu_5x5_reduce -> inception_5a/5x5_reduce (in-place)
I0403 17:46:15.904711 14937 net.cpp:141] Setting up inception_5a/relu_5x5_reduce
I0403 17:46:15.904739 14937 net.cpp:148] Top shape: 24 32 7 7 (37632)
I0403 17:46:15.904757 14937 net.cpp:156] Memory required for data: 1299351072
I0403 17:46:15.904772 14937 layer_factory.hpp:77] Creating layer inception_5a/5x5
I0403 17:46:15.904794 14937 net.cpp:91] Creating Layer inception_5a/5x5
I0403 17:46:15.904814 14937 net.cpp:425] inception_5a/5x5 <- inception_5a/5x5_reduce
I0403 17:46:15.904832 14937 net.cpp:399] inception_5a/5x5 -> inception_5a/5x5
I0403 17:46:15.906518 14937 net.cpp:141] Setting up inception_5a/5x5
I0403 17:46:15.906556 14937 net.cpp:148] Top shape: 24 128 7 7 (150528)
I0403 17:46:15.906574 14937 net.cpp:156] Memory required for data: 1299953184
I0403 17:46:15.906591 14937 layer_factory.hpp:77] Creating layer inception_5a/relu_5x5
I0403 17:46:15.906613 14937 net.cpp:91] Creating Layer inception_5a/relu_5x5
I0403 17:46:15.906631 14937 net.cpp:425] inception_5a/relu_5x5 <- inception_5a/5x5
I0403 17:46:15.906649 14937 net.cpp:386] inception_5a/relu_5x5 -> inception_5a/5x5 (in-place)
I0403 17:46:15.906842 14937 net.cpp:141] Setting up inception_5a/relu_5x5
I0403 17:46:15.906869 14937 net.cpp:148] Top shape: 24 128 7 7 (150528)
I0403 17:46:15.906885 14937 net.cpp:156] Memory required for data: 1300555296
I0403 17:46:15.906900 14937 layer_factory.hpp:77] Creating layer inception_5a/pool
I0403 17:46:15.906919 14937 net.cpp:91] Creating Layer inception_5a/pool
I0403 17:46:15.906935 14937 net.cpp:425] inception_5a/pool <- pool4/3x3_s2_pool4/3x3_s2_0_split_3
I0403 17:46:15.906960 14937 net.cpp:399] inception_5a/pool -> inception_5a/pool
I0403 17:46:15.907032 14937 net.cpp:141] Setting up inception_5a/pool
I0403 17:46:15.907055 14937 net.cpp:148] Top shape: 24 832 7 7 (978432)
I0403 17:46:15.907070 14937 net.cpp:156] Memory required for data: 1304469024
I0403 17:46:15.907085 14937 layer_factory.hpp:77] Creating layer inception_5a/pool_proj
I0403 17:46:15.907107 14937 net.cpp:91] Creating Layer inception_5a/pool_proj
I0403 17:46:15.907125 14937 net.cpp:425] inception_5a/pool_proj <- inception_5a/pool
I0403 17:46:15.907147 14937 net.cpp:399] inception_5a/pool_proj -> inception_5a/pool_proj
I0403 17:46:15.909385 14937 net.cpp:141] Setting up inception_5a/pool_proj
I0403 17:46:15.909414 14937 net.cpp:148] Top shape: 24 128 7 7 (150528)
I0403 17:46:15.909430 14937 net.cpp:156] Memory required for data: 1305071136
I0403 17:46:15.909449 14937 layer_factory.hpp:77] Creating layer inception_5a/relu_pool_proj
I0403 17:46:15.909471 14937 net.cpp:91] Creating Layer inception_5a/relu_pool_proj
I0403 17:46:15.909488 14937 net.cpp:425] inception_5a/relu_pool_proj <- inception_5a/pool_proj
I0403 17:46:15.909507 14937 net.cpp:386] inception_5a/relu_pool_proj -> inception_5a/pool_proj (in-place)
I0403 17:46:15.909793 14937 net.cpp:141] Setting up inception_5a/relu_pool_proj
I0403 17:46:15.909819 14937 net.cpp:148] Top shape: 24 128 7 7 (150528)
I0403 17:46:15.909834 14937 net.cpp:156] Memory required for data: 1305673248
I0403 17:46:15.909850 14937 layer_factory.hpp:77] Creating layer inception_5a/output
I0403 17:46:15.909868 14937 net.cpp:91] Creating Layer inception_5a/output
I0403 17:46:15.909884 14937 net.cpp:425] inception_5a/output <- inception_5a/1x1
I0403 17:46:15.909901 14937 net.cpp:425] inception_5a/output <- inception_5a/3x3
I0403 17:46:15.909919 14937 net.cpp:425] inception_5a/output <- inception_5a/5x5
I0403 17:46:15.909935 14937 net.cpp:425] inception_5a/output <- inception_5a/pool_proj
I0403 17:46:15.909960 14937 net.cpp:399] inception_5a/output -> inception_5a/output
I0403 17:46:15.910015 14937 net.cpp:141] Setting up inception_5a/output
I0403 17:46:15.910038 14937 net.cpp:148] Top shape: 24 832 7 7 (978432)
I0403 17:46:15.910053 14937 net.cpp:156] Memory required for data: 1309586976
I0403 17:46:15.910069 14937 layer_factory.hpp:77] Creating layer inception_5a/output_inception_5a/output_0_split
I0403 17:46:15.910087 14937 net.cpp:91] Creating Layer inception_5a/output_inception_5a/output_0_split
I0403 17:46:15.910104 14937 net.cpp:425] inception_5a/output_inception_5a/output_0_split <- inception_5a/output
I0403 17:46:15.910123 14937 net.cpp:399] inception_5a/output_inception_5a/output_0_split -> inception_5a/output_inception_5a/output_0_split_0
I0403 17:46:15.910145 14937 net.cpp:399] inception_5a/output_inception_5a/output_0_split -> inception_5a/output_inception_5a/output_0_split_1
I0403 17:46:15.910166 14937 net.cpp:399] inception_5a/output_inception_5a/output_0_split -> inception_5a/output_inception_5a/output_0_split_2
I0403 17:46:15.910187 14937 net.cpp:399] inception_5a/output_inception_5a/output_0_split -> inception_5a/output_inception_5a/output_0_split_3
I0403 17:46:15.910298 14937 net.cpp:141] Setting up inception_5a/output_inception_5a/output_0_split
I0403 17:46:15.910325 14937 net.cpp:148] Top shape: 24 832 7 7 (978432)
I0403 17:46:15.910341 14937 net.cpp:148] Top shape: 24 832 7 7 (978432)
I0403 17:46:15.910357 14937 net.cpp:148] Top shape: 24 832 7 7 (978432)
I0403 17:46:15.910373 14937 net.cpp:148] Top shape: 24 832 7 7 (978432)
I0403 17:46:15.910387 14937 net.cpp:156] Memory required for data: 1325241888
I0403 17:46:15.910403 14937 layer_factory.hpp:77] Creating layer inception_5b/1x1
I0403 17:46:15.910426 14937 net.cpp:91] Creating Layer inception_5b/1x1
I0403 17:46:15.910445 14937 net.cpp:425] inception_5b/1x1 <- inception_5a/output_inception_5a/output_0_split_0
I0403 17:46:15.910465 14937 net.cpp:399] inception_5b/1x1 -> inception_5b/1x1
I0403 17:46:15.914134 14937 net.cpp:141] Setting up inception_5b/1x1
I0403 17:46:15.914163 14937 net.cpp:148] Top shape: 24 384 7 7 (451584)
I0403 17:46:15.914180 14937 net.cpp:156] Memory required for data: 1327048224
I0403 17:46:15.914199 14937 layer_factory.hpp:77] Creating layer inception_5b/relu_1x1
I0403 17:46:15.914221 14937 net.cpp:91] Creating Layer inception_5b/relu_1x1
I0403 17:46:15.914238 14937 net.cpp:425] inception_5b/relu_1x1 <- inception_5b/1x1
I0403 17:46:15.914257 14937 net.cpp:386] inception_5b/relu_1x1 -> inception_5b/1x1 (in-place)
I0403 17:46:15.914553 14937 net.cpp:141] Setting up inception_5b/relu_1x1
I0403 17:46:15.914579 14937 net.cpp:148] Top shape: 24 384 7 7 (451584)
I0403 17:46:15.914594 14937 net.cpp:156] Memory required for data: 1328854560
I0403 17:46:15.914609 14937 layer_factory.hpp:77] Creating layer inception_5b/3x3_reduce
I0403 17:46:15.914633 14937 net.cpp:91] Creating Layer inception_5b/3x3_reduce
I0403 17:46:15.914651 14937 net.cpp:425] inception_5b/3x3_reduce <- inception_5a/output_inception_5a/output_0_split_1
I0403 17:46:15.914674 14937 net.cpp:399] inception_5b/3x3_reduce -> inception_5b/3x3_reduce
I0403 17:46:15.917301 14937 net.cpp:141] Setting up inception_5b/3x3_reduce
I0403 17:46:15.917330 14937 net.cpp:148] Top shape: 24 192 7 7 (225792)
I0403 17:46:15.917346 14937 net.cpp:156] Memory required for data: 1329757728
I0403 17:46:15.917364 14937 layer_factory.hpp:77] Creating layer inception_5b/relu_3x3_reduce
I0403 17:46:15.917385 14937 net.cpp:91] Creating Layer inception_5b/relu_3x3_reduce
I0403 17:46:15.917403 14937 net.cpp:425] inception_5b/relu_3x3_reduce <- inception_5b/3x3_reduce
I0403 17:46:15.917421 14937 net.cpp:386] inception_5b/relu_3x3_reduce -> inception_5b/3x3_reduce (in-place)
I0403 17:46:15.917608 14937 net.cpp:141] Setting up inception_5b/relu_3x3_reduce
I0403 17:46:15.917632 14937 net.cpp:148] Top shape: 24 192 7 7 (225792)
I0403 17:46:15.917650 14937 net.cpp:156] Memory required for data: 1330660896
I0403 17:46:15.917665 14937 layer_factory.hpp:77] Creating layer inception_5b/3x3
I0403 17:46:15.917686 14937 net.cpp:91] Creating Layer inception_5b/3x3
I0403 17:46:15.917703 14937 net.cpp:425] inception_5b/3x3 <- inception_5b/3x3_reduce
I0403 17:46:15.917726 14937 net.cpp:399] inception_5b/3x3 -> inception_5b/3x3
I0403 17:46:15.924365 14937 net.cpp:141] Setting up inception_5b/3x3
I0403 17:46:15.924393 14937 net.cpp:148] Top shape: 24 384 7 7 (451584)
I0403 17:46:15.924409 14937 net.cpp:156] Memory required for data: 1332467232
I0403 17:46:15.924428 14937 layer_factory.hpp:77] Creating layer inception_5b/relu_3x3
I0403 17:46:15.924449 14937 net.cpp:91] Creating Layer inception_5b/relu_3x3
I0403 17:46:15.924468 14937 net.cpp:425] inception_5b/relu_3x3 <- inception_5b/3x3
I0403 17:46:15.924485 14937 net.cpp:386] inception_5b/relu_3x3 -> inception_5b/3x3 (in-place)
I0403 17:46:15.924779 14937 net.cpp:141] Setting up inception_5b/relu_3x3
I0403 17:46:15.924805 14937 net.cpp:148] Top shape: 24 384 7 7 (451584)
I0403 17:46:15.924820 14937 net.cpp:156] Memory required for data: 1334273568
I0403 17:46:15.924836 14937 layer_factory.hpp:77] Creating layer inception_5b/5x5_reduce
I0403 17:46:15.924873 14937 net.cpp:91] Creating Layer inception_5b/5x5_reduce
I0403 17:46:15.924893 14937 net.cpp:425] inception_5b/5x5_reduce <- inception_5a/output_inception_5a/output_0_split_2
I0403 17:46:15.924916 14937 net.cpp:399] inception_5b/5x5_reduce -> inception_5b/5x5_reduce
I0403 17:46:15.926173 14937 net.cpp:141] Setting up inception_5b/5x5_reduce
I0403 17:46:15.926200 14937 net.cpp:148] Top shape: 24 48 7 7 (56448)
I0403 17:46:15.926216 14937 net.cpp:156] Memory required for data: 1334499360
I0403 17:46:15.926235 14937 layer_factory.hpp:77] Creating layer inception_5b/relu_5x5_reduce
I0403 17:46:15.926256 14937 net.cpp:91] Creating Layer inception_5b/relu_5x5_reduce
I0403 17:46:15.926275 14937 net.cpp:425] inception_5b/relu_5x5_reduce <- inception_5b/5x5_reduce
I0403 17:46:15.926292 14937 net.cpp:386] inception_5b/relu_5x5_reduce -> inception_5b/5x5_reduce (in-place)
I0403 17:46:15.926662 14937 net.cpp:141] Setting up inception_5b/relu_5x5_reduce
I0403 17:46:15.926688 14937 net.cpp:148] Top shape: 24 48 7 7 (56448)
I0403 17:46:15.926703 14937 net.cpp:156] Memory required for data: 1334725152
I0403 17:46:15.926719 14937 layer_factory.hpp:77] Creating layer inception_5b/5x5
I0403 17:46:15.926740 14937 net.cpp:91] Creating Layer inception_5b/5x5
I0403 17:46:15.926759 14937 net.cpp:425] inception_5b/5x5 <- inception_5b/5x5_reduce
I0403 17:46:15.926777 14937 net.cpp:399] inception_5b/5x5 -> inception_5b/5x5
I0403 17:46:15.928789 14937 net.cpp:141] Setting up inception_5b/5x5
I0403 17:46:15.928817 14937 net.cpp:148] Top shape: 24 128 7 7 (150528)
I0403 17:46:15.928833 14937 net.cpp:156] Memory required for data: 1335327264
I0403 17:46:15.928851 14937 layer_factory.hpp:77] Creating layer inception_5b/relu_5x5
I0403 17:46:15.928872 14937 net.cpp:91] Creating Layer inception_5b/relu_5x5
I0403 17:46:15.928890 14937 net.cpp:425] inception_5b/relu_5x5 <- inception_5b/5x5
I0403 17:46:15.928907 14937 net.cpp:386] inception_5b/relu_5x5 -> inception_5b/5x5 (in-place)
I0403 17:46:15.929107 14937 net.cpp:141] Setting up inception_5b/relu_5x5
I0403 17:46:15.929133 14937 net.cpp:148] Top shape: 24 128 7 7 (150528)
I0403 17:46:15.929149 14937 net.cpp:156] Memory required for data: 1335929376
I0403 17:46:15.929164 14937 layer_factory.hpp:77] Creating layer inception_5b/pool
I0403 17:46:15.929183 14937 net.cpp:91] Creating Layer inception_5b/pool
I0403 17:46:15.929199 14937 net.cpp:425] inception_5b/pool <- inception_5a/output_inception_5a/output_0_split_3
I0403 17:46:15.929220 14937 net.cpp:399] inception_5b/pool -> inception_5b/pool
I0403 17:46:15.929293 14937 net.cpp:141] Setting up inception_5b/pool
I0403 17:46:15.929316 14937 net.cpp:148] Top shape: 24 832 7 7 (978432)
I0403 17:46:15.929332 14937 net.cpp:156] Memory required for data: 1339843104
I0403 17:46:15.929347 14937 layer_factory.hpp:77] Creating layer inception_5b/pool_proj
I0403 17:46:15.929371 14937 net.cpp:91] Creating Layer inception_5b/pool_proj
I0403 17:46:15.929390 14937 net.cpp:425] inception_5b/pool_proj <- inception_5b/pool
I0403 17:46:15.929409 14937 net.cpp:399] inception_5b/pool_proj -> inception_5b/pool_proj
I0403 17:46:15.931704 14937 net.cpp:141] Setting up inception_5b/pool_proj
I0403 17:46:15.931732 14937 net.cpp:148] Top shape: 24 128 7 7 (150528)
I0403 17:46:15.931748 14937 net.cpp:156] Memory required for data: 1340445216
I0403 17:46:15.931767 14937 layer_factory.hpp:77] Creating layer inception_5b/relu_pool_proj
I0403 17:46:15.931788 14937 net.cpp:91] Creating Layer inception_5b/relu_pool_proj
I0403 17:46:15.931807 14937 net.cpp:425] inception_5b/relu_pool_proj <- inception_5b/pool_proj
I0403 17:46:15.931825 14937 net.cpp:386] inception_5b/relu_pool_proj -> inception_5b/pool_proj (in-place)
I0403 17:46:15.932123 14937 net.cpp:141] Setting up inception_5b/relu_pool_proj
I0403 17:46:15.932149 14937 net.cpp:148] Top shape: 24 128 7 7 (150528)
I0403 17:46:15.932164 14937 net.cpp:156] Memory required for data: 1341047328
I0403 17:46:15.932180 14937 layer_factory.hpp:77] Creating layer inception_5b/output
I0403 17:46:15.932200 14937 net.cpp:91] Creating Layer inception_5b/output
I0403 17:46:15.932230 14937 net.cpp:425] inception_5b/output <- inception_5b/1x1
I0403 17:46:15.932250 14937 net.cpp:425] inception_5b/output <- inception_5b/3x3
I0403 17:46:15.932266 14937 net.cpp:425] inception_5b/output <- inception_5b/5x5
I0403 17:46:15.932282 14937 net.cpp:425] inception_5b/output <- inception_5b/pool_proj
I0403 17:46:15.932301 14937 net.cpp:399] inception_5b/output -> inception_5b/output
I0403 17:46:15.932358 14937 net.cpp:141] Setting up inception_5b/output
I0403 17:46:15.932381 14937 net.cpp:148] Top shape: 24 1024 7 7 (1204224)
I0403 17:46:15.932396 14937 net.cpp:156] Memory required for data: 1345864224
I0403 17:46:15.932412 14937 layer_factory.hpp:77] Creating layer pool5/7x7_s1
I0403 17:46:15.932430 14937 net.cpp:91] Creating Layer pool5/7x7_s1
I0403 17:46:15.932446 14937 net.cpp:425] pool5/7x7_s1 <- inception_5b/output
I0403 17:46:15.932467 14937 net.cpp:399] pool5/7x7_s1 -> pool5/7x7_s1
I0403 17:46:15.932679 14937 net.cpp:141] Setting up pool5/7x7_s1
I0403 17:46:15.932704 14937 net.cpp:148] Top shape: 24 1024 1 1 (24576)
I0403 17:46:15.932720 14937 net.cpp:156] Memory required for data: 1345962528
I0403 17:46:15.932735 14937 layer_factory.hpp:77] Creating layer pool5/drop_7x7_s1
I0403 17:46:15.932756 14937 net.cpp:91] Creating Layer pool5/drop_7x7_s1
I0403 17:46:15.932775 14937 net.cpp:425] pool5/drop_7x7_s1 <- pool5/7x7_s1
I0403 17:46:15.932792 14937 net.cpp:386] pool5/drop_7x7_s1 -> pool5/7x7_s1 (in-place)
I0403 17:46:15.932843 14937 net.cpp:141] Setting up pool5/drop_7x7_s1
I0403 17:46:15.932868 14937 net.cpp:148] Top shape: 24 1024 1 1 (24576)
I0403 17:46:15.932883 14937 net.cpp:156] Memory required for data: 1346060832
I0403 17:46:15.932898 14937 layer_factory.hpp:77] Creating layer loss3/classifier_plantvillage
I0403 17:46:15.932919 14937 net.cpp:91] Creating Layer loss3/classifier_plantvillage
I0403 17:46:15.932937 14937 net.cpp:425] loss3/classifier_plantvillage <- pool5/7x7_s1
I0403 17:46:15.932965 14937 net.cpp:399] loss3/classifier_plantvillage -> loss3/classifier_plantvillage
I0403 17:46:15.933418 14937 net.cpp:141] Setting up loss3/classifier_plantvillage
I0403 17:46:15.933444 14937 net.cpp:148] Top shape: 24 38 (912)
I0403 17:46:15.933459 14937 net.cpp:156] Memory required for data: 1346064480
I0403 17:46:15.933476 14937 layer_factory.hpp:77] Creating layer loss3/classifier_plantvillage_loss3/classifier_plantvillage_0_split
I0403 17:46:15.933495 14937 net.cpp:91] Creating Layer loss3/classifier_plantvillage_loss3/classifier_plantvillage_0_split
I0403 17:46:15.933512 14937 net.cpp:425] loss3/classifier_plantvillage_loss3/classifier_plantvillage_0_split <- loss3/classifier_plantvillage
I0403 17:46:15.933534 14937 net.cpp:399] loss3/classifier_plantvillage_loss3/classifier_plantvillage_0_split -> loss3/classifier_plantvillage_loss3/classifier_plantvillage_0_split_0
I0403 17:46:15.933557 14937 net.cpp:399] loss3/classifier_plantvillage_loss3/classifier_plantvillage_0_split -> loss3/classifier_plantvillage_loss3/classifier_plantvillage_0_split_1
I0403 17:46:15.933578 14937 net.cpp:399] loss3/classifier_plantvillage_loss3/classifier_plantvillage_0_split -> loss3/classifier_plantvillage_loss3/classifier_plantvillage_0_split_2
I0403 17:46:15.933599 14937 net.cpp:399] loss3/classifier_plantvillage_loss3/classifier_plantvillage_0_split -> loss3/classifier_plantvillage_loss3/classifier_plantvillage_0_split_3
I0403 17:46:15.933701 14937 net.cpp:141] Setting up loss3/classifier_plantvillage_loss3/classifier_plantvillage_0_split
I0403 17:46:15.933727 14937 net.cpp:148] Top shape: 24 38 (912)
I0403 17:46:15.933745 14937 net.cpp:148] Top shape: 24 38 (912)
I0403 17:46:15.933763 14937 net.cpp:148] Top shape: 24 38 (912)
I0403 17:46:15.933779 14937 net.cpp:148] Top shape: 24 38 (912)
I0403 17:46:15.933792 14937 net.cpp:156] Memory required for data: 1346079072
I0403 17:46:15.933807 14937 layer_factory.hpp:77] Creating layer loss1/loss
I0403 17:46:15.933830 14937 net.cpp:91] Creating Layer loss1/loss
I0403 17:46:15.933847 14937 net.cpp:425] loss1/loss <- loss1/classifier_plantvillage_loss1/classifier_plantvillage_0_split_0
I0403 17:46:15.933878 14937 net.cpp:425] loss1/loss <- label_data_1_split_0
…
