…
I0403 17:49:04.145843 15099 net.cpp:313] The NetState phase (1) differed from the phase (0) specified by a rule in layer data
I0403 17:49:04.147053 15099 net.cpp:49] Initializing net from parameters: 
state {
  phase: TEST
}
layer {
  name: "data"
  type: "Data"
  top: "data"
  top: "label"
  include {
    phase: TEST
  }
  transform_param {
    mirror: false
    crop_size: 224
    mean_file: "/home/mohanty/data/final_dataset/lmdb/grayscale-60-40/mean.binaryproto"
  }
  data_param {
    source: "/home/mohanty/data/final_dataset/lmdb/grayscale-60-40/test_db"
    batch_size: 24
    backend: LMDB
  }
}
layer {
  name: "conv1/7x7_s2"
  type: "Convolution"
  bottom: "data"
  top: "conv1/7x7_s2"
  param {
    lr_mult: 1
    decay_mult: 1
  }
  param {
    lr_mult: 2
    decay_mult: 0
  }
  convolution_param {
    num_output: 64
    pad: 3
    kernel_size: 7
    stride: 2
    weight_filler {
      type: "xavier"
      std: 0.1
    }
    bias_filler {
      type: "constant"
      value: 0.2
    }
  }
}
layer {
  name: "conv1/relu_7x7"
  type: "ReLU"
  bottom: "conv1/7x7_s2"
  top: "conv1/7x7_s2"
}
layer {
  name: "pool1/3x3_s2"
  type: "Pooling"
  bottom: "conv1/7x7_s2"
  top: "pool1/3x3_s2"
  pooling_param {
    pool: MAX
    kernel_size: 3
    stride: 2
  }
}
layer {
  name: "pool1/norm1"
  type: "LRN"
  bottom: "pool1/3x3_s2"
  top: "pool1/norm1"
  lrn_param {
    local_size: 5
    alpha: 0.0001
    beta: 0.75
  }
}
layer {
  name: "conv2/3x3_reduce"
  type: "Convolution"
  bottom: "pool1/norm1"
  top: "conv2/3x3_reduce"
  param {
    lr_mult: 1
    decay_mult: 1
  }
  param {
    lr_mult: 2
    decay_mult: 0
  }
  convolution_param {
    num_output: 64
    kernel_size: 1
    weight_filler {
      type: "xavier"
      std: 0.1
    }
    bias_filler {
      type: "constant"
      value: 0.2
    }
  }
}
layer {
  name: "conv2/relu_3x3_reduce"
  type: "ReLU"
  bottom: "conv2/3x3_reduce"
  top: "conv2/3x3_reduce"
}
layer {
  name: "conv2/3x3"
  type: "Convolution"
  bottom: "conv2/3x3_reduce"
  top: "conv2/3x3"
  param {
    lr_mult: 1
    decay_mult: 1
  }
  param {
    lr_mult: 2
    decay_mult: 0
  }
  convolution_param {
    num_output: 192
    pad: 1
    kernel_size: 3
    weight_filler {
      type: "xavier"
      std: 0.03
    }
    bias_filler {
      type: "constant"
      value: 0.2
    }
  }
}
layer {
  name: "conv2/relu_3x3"
  type: "ReLU"
  bottom: "conv2/3x3"
  top: "conv2/3x3"
}
layer {
  name: "conv2/norm2"
  type: "LRN"
  bottom: "conv2/3x3"
  top: "conv2/norm2"
  lrn_param {
    local_size: 5
    alpha: 0.0001
    beta: 0.75
  }
}
layer {
  name: "pool2/3x3_s2"
  type: "Pooling"
  bottom: "conv2/norm2"
  top: "pool2/3x3_s2"
  pooling_param {
    pool: MAX
    kernel_size: 3
    stride: 2
  }
}
layer {
  name: "inception_3a/1x1"
  type: "Convolution"
  bottom: "pool2/3x3_s2"
  top: "inception_3a/1x1"
  param {
    lr_mult: 1
    decay_mult: 1
  }
  param {
    lr_mult: 2
    decay_mult: 0
  }
  convolution_param {
    num_output: 64
    kernel_size: 1
    weight_filler {
      type: "xavier"
      std: 0.03
    }
    bias_filler {
      type: "constant"
      value: 0.2
    }
  }
}
layer {
  name: "inception_3a/relu_1x1"
  type: "ReLU"
  bottom: "inception_3a/1x1"
  top: "inception_3a/1x1"
}
layer {
  name: "inception_3a/3x3_reduce"
  type: "Convolution"
  bottom: "pool2/3x3_s2"
  top: "inception_3a/3x3_reduce"
  param {
    lr_mult: 1
    decay_mult: 1
  }
  param {
    lr_mult: 2
    decay_mult: 0
  }
  convolution_param {
    num_output: 96
    kernel_size: 1
    weight_filler {
      type: "xavier"
      std: 0.09
    }
    bias_filler {
      type: "constant"
      value: 0.2
    }
  }
}
layer {
  name: "inception_3a/relu_3x3_reduce"
  type: "ReLU"
  bottom: "inception_3a/3x3_reduce"
  top: "inception_3a/3x3_reduce"
}
layer {
  name: "inception_3a/3x3"
  type: "Convolution"
  bottom: "inception_3a/3x3_reduce"
  top: "inception_3a/3x3"
  param {
    lr_mult: 1
    decay_mult: 1
  }
  param {
    lr_mult: 2
    decay_mult: 0
  }
  convolution_param {
    num_output: 128
    pad: 1
    kernel_size: 3
    weight_filler {
      type: "xavier"
      std: 0.03
    }
    bias_filler {
      type: "constant"
      value: 0.2
    }
  }
}
layer {
  name: "inception_3a/relu_3x3"
  type: "ReLU"
  bottom: "inception_3a/3x3"
  top: "inception_3a/3x3"
}
layer {
  name: "inception_3a/5x5_reduce"
  type: "Convolution"
  bottom: "pool2/3x3_s2"
  top: "inception_3a/5x5_reduce"
  param {
    lr_mult: 1
    decay_mult: 1
  }
  param {
    lr_mult: 2
    decay_mult: 0
  }
  convolution_param {
    num_output: 16
    kernel_size: 1
    weight_filler {
      type: "xavier"
      std: 0.2
    }
    bias_filler {
      type: "constant"
      value: 0.2
    }
  }
}
layer {
  name: "inception_3a/relu_5x5_reduce"
  type: "ReLU"
  bottom: "inception_3a/5x5_reduce"
  top: "inception_3a/5x5_reduce"
}
layer {
  name: "inception_3a/5x5"
  type: "Convolution"
  bottom: "inception_3a/5x5_reduce"
  top: "inception_3a/5x5"
  param {
    lr_mult: 1
    decay_mult: 1
  }
  param {
    lr_mult: 2
    decay_mult: 0
  }
  convolution_param {
    num_output: 32
    pad: 2
    kernel_size: 5
    weight_filler {
      type: "xavier"
      std: 0.03
    }
    bias_filler {
      type: "constant"
      value: 0.2
    }
  }
}
layer {
  name: "inception_3a/relu_5x5"
  type: "ReLU"
  bottom: "inception_3a/5x5"
  top: "inception_3a/5x5"
}
layer {
  name: "inception_3a/pool"
  type: "Pooling"
  bottom: "pool2/3x3_s2"
  top: "inception_3a/pool"
  pooling_param {
    pool: MAX
    kernel_size: 3
    stride: 1
    pad: 1
  }
}
layer {
  name: "inception_3a/pool_proj"
  type: "Convolution"
  bottom: "inception_3a/pool"
  top: "inception_3a/pool_proj"
  param {
    lr_mult: 1
    decay_mult: 1
  }
  param {
    lr_mult: 2
    decay_mult: 0
  }
  convolution_param {
    num_output: 32
    kernel_size: 1
    weight_filler {
      type: "xavier"
      std: 0.1
    }
    bias_filler {
      type: "constant"
      value: 0.2
    }
  }
}
layer {
  name: "inception_3a/relu_pool_proj"
  type: "ReLU"
  bottom: "inception_3a/pool_proj"
  top: "inception_3a/pool_proj"
}
layer {
  name: "inception_3a/output"
  type: "Concat"
  bottom: "inception_3a/1x1"
  bottom: "inception_3a/3x3"
  bottom: "inception_3a/5x5"
  bottom: "inception_3a/pool_proj"
  top: "inception_3a/output"
}
layer {
  name: "inception_3b/1x1"
  type: "Convolution"
  bottom: "inception_3a/output"
  top: "inception_3b/1x1"
  param {
    lr_mult: 1
    decay_mult: 1
  }
  param {
    lr_mult: 2
    decay_mult: 0
  }
  convolution_param {
    num_output: 128
    kernel_size: 1
    weight_filler {
      type: "xavier"
      std: 0.03
    }
    bias_filler {
      type: "constant"
      value: 0.2
    }
  }
}
layer {
  name: "inception_3b/relu_1x1"
  type: "ReLU"
  bottom: "inception_3b/1x1"
  top: "inception_3b/1x1"
}
layer {
  name: "inception_3b/3x3_reduce"
  type: "Convolution"
  bottom: "inception_3a/output"
  top: "inception_3b/3x3_reduce"
  param {
    lr_mult: 1
    decay_mult: 1
  }
  param {
    lr_mult: 2
    decay_mult: 0
  }
  convolution_param {
    num_output: 128
    kernel_size: 1
    weight_filler {
      type: "xavier"
      std: 0.09
    }
    bias_filler {
      type: "constant"
      value: 0.2
    }
  }
}
layer {
  name: "inception_3b/relu_3x3_reduce"
  type: "ReLU"
  bottom: "inception_3b/3x3_reduce"
  top: "inception_3b/3x3_reduce"
}
layer {
  name: "inception_3b/3x3"
  type: "Convolution"
  bottom: "inception_3b/3x3_reduce"
  top: "inception_3b/3x3"
  param {
    lr_mult: 1
    decay_mult: 1
  }
  param {
    lr_mult: 2
    decay_mult: 0
  }
  convolution_param {
    num_output: 192
    pad: 1
    kernel_size: 3
    weight_filler {
      type: "xavier"
      std: 0.03
    }
    bias_filler {
      type: "constant"
      value: 0.2
    }
  }
}
layer {
  name: "inception_3b/relu_3x3"
  type: "ReLU"
  bottom: "inception_3b/3x3"
  top: "inception_3b/3x3"
}
layer {
  name: "inception_3b/5x5_reduce"
  type: "Convolution"
  bottom: "inception_3a/output"
  top: "inception_3b/5x5_reduce"
  param {
    lr_mult: 1
    decay_mult: 1
  }
  param {
    lr_mult: 2
    decay_mult: 0
  }
  convolution_param {
    num_output: 32
    kernel_size: 1
    weight_filler {
      type: "xavier"
      std: 0.2
    }
    bias_filler {
      type: "constant"
      value: 0.2
    }
  }
}
layer {
  name: "inception_3b/relu_5x5_reduce"
  type: "ReLU"
  bottom: "inception_3b/5x5_reduce"
  top: "inception_3b/5x5_reduce"
}
layer {
  name: "inception_3b/5x5"
  type: "Convolution"
  bottom: "inception_3b/5x5_reduce"
  top: "inception_3b/5x5"
  param {
    lr_mult: 1
    decay_mult: 1
  }
  param {
    lr_mult: 2
    decay_mult: 0
  }
  convolution_param {
    num_output: 96
    pad: 2
    kernel_size: 5
    weight_filler {
      type: "xavier"
      std: 0.03
    }
    bias_filler {
      type: "constant"
      value: 0.2
    }
  }
}
layer {
  name: "inception_3b/relu_5x5"
  type: "ReLU"
  bottom: "inception_3b/5x5"
  top: "inception_3b/5x5"
}
layer {
  name: "inception_3b/pool"
  type: "Pooling"
  bottom: "inception_3a/output"
  top: "inception_3b/pool"
  pooling_param {
    pool: MAX
    kernel_size: 3
    stride: 1
    pad: 1
  }
}
layer {
  name: "inception_3b/pool_proj"
  type: "Convolution"
  bottom: "inception_3b/pool"
  top: "inception_3b/pool_proj"
  param {
    lr_mult: 1
    decay_mult: 1
  }
  param {
    lr_mult: 2
    decay_mult: 0
  }
  convolution_param {
    num_output: 64
    kernel_size: 1
    weight_filler {
      type: "xavier"
      std: 0.1
    }
    bias_filler {
      type: "constant"
      value: 0.2
    }
  }
}
layer {
  name: "inception_3b/relu_pool_proj"
  type: "ReLU"
  bottom: "inception_3b/pool_proj"
  top: "inception_3b/pool_proj"
}
layer {
  name: "inception_3b/output"
  type: "Concat"
  bottom: "inception_3b/1x1"
  bottom: "inception_3b/3x3"
  bottom: "inception_3b/5x5"
  bottom: "inception_3b/pool_proj"
  top: "inception_3b/output"
}
layer {
  name: "pool3/3x3_s2"
  type: "Pooling"
  bottom: "inception_3b/output"
  top: "pool3/3x3_s2"
  pooling_param {
    pool: MAX
    kernel_size: 3
    stride: 2
  }
}
layer {
  name: "inception_4a/1x1"
  type: "Convolution"
  bottom: "pool3/3x3_s2"
  top: "inception_4a/1x1"
  param {
    lr_mult: 1
    decay_mult: 1
  }
  param {
    lr_mult: 2
    decay_mult: 0
  }
  convolution_param {
    num_output: 192
    kernel_size: 1
    weight_filler {
      type: "xavier"
      std: 0.03
    }
    bias_filler {
      type: "constant"
      value: 0.2
    }
  }
}
layer {
  name: "inception_4a/relu_1x1"
  type: "ReLU"
  bottom: "inception_4a/1x1"
  top: "inception_4a/1x1"
}
layer {
  name: "inception_4a/3x3_reduce"
  type: "Convolution"
  bottom: "pool3/3x3_s2"
  top: "inception_4a/3x3_reduce"
  param {
    lr_mult: 1
    decay_mult: 1
  }
  param {
    lr_mult: 2
    decay_mult: 0
  }
  convolution_param {
    num_output: 96
    kernel_size: 1
    weight_filler {
      type: "xavier"
      std: 0.09
    }
    bias_filler {
      type: "constant"
      value: 0.2
    }
  }
}
layer {
  name: "inception_4a/relu_3x3_reduce"
  type: "ReLU"
  bottom: "inception_4a/3x3_reduce"
  top: "inception_4a/3x3_reduce"
}
layer {
  name: "inception_4a/3x3"
  type: "Convolution"
  bottom: "inception_4a/3x3_reduce"
  top: "inception_4a/3x3"
  param {
    lr_mult: 1
    decay_mult: 1
  }
  param {
    lr_mult: 2
    decay_mult: 0
  }
  convolution_param {
    num_output: 208
    pad: 1
    kernel_size: 3
    weight_filler {
      type: "xavier"
      std: 0.03
    }
    bias_filler {
      type: "constant"
      value: 0.2
    }
  }
}
layer {
  name: "inception_4a/relu_3x3"
  type: "ReLU"
  bottom: "inception_4a/3x3"
  top: "inception_4a/3x3"
}
layer {
  name: "inception_4a/5x5_reduce"
  type: "Convolution"
  bottom: "pool3/3x3_s2"
  top: "inception_4a/5x5_reduce"
  param {
    lr_mult: 1
    decay_mult: 1
  }
  param {
    lr_mult: 2
    decay_mult: 0
  }
  convolution_param {
    num_output: 16
    kernel_size: 1
    weight_filler {
      type: "xavier"
      std: 0.2
    }
    bias_filler {
      type: "constant"
      value: 0.2
    }
  }
}
layer {
  name: "inception_4a/relu_5x5_reduce"
  type: "ReLU"
  bottom: "inception_4a/5x5_reduce"
  top: "inception_4a/5x5_reduce"
}
layer {
  name: "inception_4a/5x5"
  type: "Convolution"
  bottom: "inception_4a/5x5_reduce"
  top: "inception_4a/5x5"
  param {
    lr_mult: 1
    decay_mult: 1
  }
  param {
    lr_mult: 2
    decay_mult: 0
  }
  convolution_param {
    num_output: 48
    pad: 2
    kernel_size: 5
    weight_filler {
      type: "xavier"
      std: 0.03
    }
    bias_filler {
      type: "constant"
      value: 0.2
    }
  }
}
layer {
  name: "inception_4a/relu_5x5"
  type: "ReLU"
  bottom: "inception_4a/5x5"
  top: "inception_4a/5x5"
}
layer {
  name: "inception_4a/pool"
  type: "Pooling"
  bottom: "pool3/3x3_s2"
  top: "inception_4a/pool"
  pooling_param {
    pool: MAX
    kernel_size: 3
    stride: 1
    pad: 1
  }
}
layer {
  name: "inception_4a/pool_proj"
  type: "Convolution"
  bottom: "inception_4a/pool"
  top: "inception_4a/pool_proj"
  param {
    lr_mult: 1
    decay_mult: 1
  }
  param {
    lr_mult: 2
    decay_mult: 0
  }
  convolution_param {
    num_output: 64
    kernel_size: 1
    weight_filler {
      type: "xavier"
      std: 0.1
    }
    bias_filler {
      type: "constant"
      value: 0.2
    }
  }
}
layer {
  name: "inception_4a/relu_pool_proj"
  type: "ReLU"
  bottom: "inception_4a/pool_proj"
  top: "inception_4a/pool_proj"
}
layer {
  name: "inception_4a/output"
  type: "Concat"
  bottom: "inception_4a/1x1"
  bottom: "inception_4a/3x3"
  bottom: "inception_4a/5x5"
  bottom: "inception_4a/pool_proj"
  top: "inception_4a/output"
}
layer {
  name: "loss1/ave_pool"
  type: "Pooling"
  bottom: "inception_4a/output"
  top: "loss1/ave_pool"
  pooling_param {
    pool: AVE
    kernel_size: 5
    stride: 3
  }
}
layer {
  name: "loss1/conv"
  type: "Convolution"
  bottom: "loss1/ave_pool"
  top: "loss1/conv"
  param {
    lr_mult: 1
    decay_mult: 1
  }
  param {
    lr_mult: 2
    decay_mult: 0
  }
  convolution_param {
    num_output: 128
    kernel_size: 1
    weight_filler {
      type: "xavier"
      std: 0.08
    }
    bias_filler {
      type: "constant"
      value: 0.2
    }
  }
}
layer {
  name: "loss1/relu_conv"
  type: "ReLU"
  bottom: "loss1/conv"
  top: "loss1/conv"
}
layer {
  name: "loss1/fc"
  type: "InnerProduct"
  bottom: "loss1/conv"
  top: "loss1/fc"
  param {
    lr_mult: 1
    decay_mult: 1
  }
  param {
    lr_mult: 2
    decay_mult: 0
  }
  inner_product_param {
    num_output: 1024
    weight_filler {
      type: "xavier"
      std: 0.02
    }
    bias_filler {
      type: "constant"
      value: 0.2
    }
  }
}
layer {
  name: "loss1/relu_fc"
  type: "ReLU"
  bottom: "loss1/fc"
  top: "loss1/fc"
}
layer {
  name: "loss1/drop_fc"
  type: "Dropout"
  bottom: "loss1/fc"
  top: "loss1/fc"
  dropout_param {
    dropout_ratio: 0.7
  }
}
layer {
  name: "loss1/classifier_plantvillage"
  type: "InnerProduct"
  bottom: "loss1/fc"
  top: "loss1/classifier_plantvillage"
  param {
    lr_mult: 1
    decay_mult: 1
  }
  param {
    lr_mult: 2
    decay_mult: 0
  }
  inner_product_param {
    num_output: 38
    weight_filler {
      type: "xavier"
      std: 0.0009765625
    }
    bias_filler {
      type: "constant"
      value: 0
    }
  }
}
layer {
  name: "inception_4b/1x1"
  type: "Convolution"
  bottom: "inception_4a/output"
  top: "inception_4b/1x1"
  param {
    lr_mult: 1
    decay_mult: 1
  }
  param {
    lr_mult: 2
    decay_mult: 0
  }
  convolution_param {
    num_output: 160
    kernel_size: 1
    weight_filler {
      type: "xavier"
      std: 0.03
    }
    bias_filler {
      type: "constant"
      value: 0.2
    }
  }
}
layer {
  name: "inception_4b/relu_1x1"
  type: "ReLU"
  bottom: "inception_4b/1x1"
  top: "inception_4b/1x1"
}
layer {
  name: "inception_4b/3x3_reduce"
  type: "Convolution"
  bottom: "inception_4a/output"
  top: "inception_4b/3x3_reduce"
  param {
    lr_mult: 1
    decay_mult: 1
  }
  param {
    lr_mult: 2
    decay_mult: 0
  }
  convolution_param {
    num_output: 112
    kernel_size: 1
    weight_filler {
      type: "xavier"
      std: 0.09
    }
    bias_filler {
      type: "constant"
      value: 0.2
    }
  }
}
layer {
  name: "inception_4b/relu_3x3_reduce"
  type: "ReLU"
  bottom: "inception_4b/3x3_reduce"
  top: "inception_4b/3x3_reduce"
}
layer {
  name: "inception_4b/3x3"
  type: "Convolution"
  bottom: "inception_4b/3x3_reduce"
  top: "inception_4b/3x3"
  param {
    lr_mult: 1
    decay_mult: 1
  }
  param {
    lr_mult: 2
    decay_mult: 0
  }
  convolution_param {
    num_output: 224
    pad: 1
    kernel_size: 3
    weight_filler {
      type: "xavier"
      std: 0.03
    }
    bias_filler {
      type: "constant"
      value: 0.2
    }
  }
}
layer {
  name: "inception_4b/relu_3x3"
  type: "ReLU"
  bottom: "inception_4b/3x3"
  top: "inception_4b/3x3"
}
layer {
  name: "inception_4b/5x5_reduce"
  type: "Convolution"
  bottom: "inception_4a/output"
  top: "inception_4b/5x5_reduce"
  param {
    lr_mult: 1
    decay_mult: 1
  }
  param {
    lr_mult: 2
    decay_mult: 0
  }
  convolution_param {
    num_output: 24
    kernel_size: 1
    weight_filler {
      type: "xavier"
      std: 0.2
    }
    bias_filler {
      type: "constant"
      value: 0.2
    }
  }
}
layer {
  name: "inception_4b/relu_5x5_reduce"
  type: "ReLU"
  bottom: "inception_4b/5x5_reduce"
  top: "inception_4b/5x5_reduce"
}
layer {
  name: "inception_4b/5x5"
  type: "Convolution"
  bottom: "inception_4b/5x5_reduce"
  top: "inception_4b/5x5"
  param {
    lr_mult: 1
    decay_mult: 1
  }
  param {
    lr_mult: 2
    decay_mult: 0
  }
  convolution_param {
    num_output: 64
    pad: 2
    kernel_size: 5
    weight_filler {
      type: "xavier"
      std: 0.03
    }
    bias_filler {
      type: "constant"
      value: 0.2
    }
  }
}
layer {
  name: "inception_4b/relu_5x5"
  type: "ReLU"
  bottom: "inception_4b/5x5"
  top: "inception_4b/5x5"
}
layer {
  name: "inception_4b/pool"
  type: "Pooling"
  bottom: "inception_4a/output"
  top: "inception_4b/pool"
  pooling_param {
    pool: MAX
    kernel_size: 3
    stride: 1
    pad: 1
  }
}
layer {
  name: "inception_4b/pool_proj"
  type: "Convolution"
  bottom: "inception_4b/pool"
  top: "inception_4b/pool_proj"
  param {
    lr_mult: 1
    decay_mult: 1
  }
  param {
    lr_mult: 2
    decay_mult: 0
  }
  convolution_param {
    num_output: 64
    kernel_size: 1
    weight_filler {
      type: "xavier"
      std: 0.1
    }
    bias_filler {
      type: "constant"
      value: 0.2
    }
  }
}
layer {
  name: "inception_4b/relu_pool_proj"
  type: "ReLU"
  bottom: "inception_4b/pool_proj"
  top: "inception_4b/pool_proj"
}
layer {
  name: "inception_4b/output"
  type: "Concat"
  bottom: "inception_4b/1x1"
  bottom: "inception_4b/3x3"
  bottom: "inception_4b/5x5"
  bottom: "inception_4b/pool_proj"
  top: "inception_4b/output"
}
layer {
  name: "inception_4c/1x1"
  type: "Convolution"
  bottom: "inception_4b/output"
  top: "inception_4c/1x1"
  param {
    lr_mult: 1
    decay_mult: 1
  }
  param {
    lr_mult: 2
    decay_mult: 0
  }
  convolution_param {
    num_output: 128
    kernel_size: 1
    weight_filler {
      type: "xavier"
      std: 0.03
    }
    bias_filler {
      type: "constant"
      value: 0.2
    }
  }
}
layer {
  name: "inception_4c/relu_1x1"
  type: "ReLU"
  bottom: "inception_4c/1x1"
  top: "inception_4c/1x1"
}
layer {
  name: "inception_4c/3x3_reduce"
  type: "Convolution"
  bottom: "inception_4b/output"
  top: "inception_4c/3x3_reduce"
  param {
    lr_mult: 1
    decay_mult: 1
  }
  param {
    lr_mult: 2
    decay_mult: 0
  }
  convolution_param {
    num_output: 128
    kernel_size: 1
    weight_filler {
      type: "xavier"
      std: 0.09
    }
    bias_filler {
      type: "constant"
      value: 0.2
    }
  }
}
layer {
  name: "inception_4c/relu_3x3_reduce"
  type: "ReLU"
  bottom: "inception_4c/3x3_reduce"
  top: "inception_4c/3x3_reduce"
}
layer {
  name: "inception_4c/3x3"
  type: "Convolution"
  bottom: "inception_4c/3x3_reduce"
  top: "inception_4c/3x3"
  param {
    lr_mult: 1
    decay_mult: 1
  }
  param {
    lr_mult: 2
    decay_mult: 0
  }
  convolution_param {
    num_output: 256
    pad: 1
    kernel_size: 3
    weight_filler {
      type: "xavier"
      std: 0.03
    }
    bias_filler {
      type: "constant"
      value: 0.2
    }
  }
}
layer {
  name: "inception_4c/relu_3x3"
  type: "ReLU"
  bottom: "inception_4c/3x3"
  top: "inception_4c/3x3"
}
layer {
  name: "inception_4c/5x5_reduce"
  type: "Convolution"
  bottom: "inception_4b/output"
  top: "inception_4c/5x5_reduce"
  param {
    lr_mult: 1
    decay_mult: 1
  }
  param {
    lr_mult: 2
    decay_mult: 0
  }
  convolution_param {
    num_output: 24
    kernel_size: 1
    weight_filler {
      type: "xavier"
      std: 0.2
    }
    bias_filler {
      type: "constant"
      value: 0.2
    }
  }
}
layer {
  name: "inception_4c/relu_5x5_reduce"
  type: "ReLU"
  bottom: "inception_4c/5x5_reduce"
  top: "inception_4c/5x5_reduce"
}
layer {
  name: "inception_4c/5x5"
  type: "Convolution"
  bottom: "inception_4c/5x5_reduce"
  top: "inception_4c/5x5"
  param {
    lr_mult: 1
    decay_mult: 1
  }
  param {
    lr_mult: 2
    decay_mult: 0
  }
  convolution_param {
    num_output: 64
    pad: 2
    kernel_size: 5
    weight_filler {
      type: "xavier"
      std: 0.03
    }
    bias_filler {
      type: "constant"
      value: 0.2
    }
  }
}
layer {
  name: "inception_4c/relu_5x5"
  type: "ReLU"
  bottom: "inception_4c/5x5"
  top: "inception_4c/5x5"
}
layer {
  name: "inception_4c/pool"
  type: "Pooling"
  bottom: "inception_4b/output"
  top: "inception_4c/pool"
  pooling_param {
    pool: MAX
    kernel_size: 3
    stride: 1
    pad: 1
  }
}
layer {
  name: "inception_4c/pool_proj"
  type: "Convolution"
  bottom: "inception_4c/pool"
  top: "inception_4c/pool_proj"
  param {
    lr_mult: 1
    decay_mult: 1
  }
  param {
    lr_mult: 2
    decay_mult: 0
  }
  convolution_param {
    num_output: 64
    kernel_size: 1
    weight_filler {
      type: "xavier"
      std: 0.1
    }
    bias_filler {
      type: "constant"
      value: 0.2
    }
  }
}
layer {
  name: "inception_4c/relu_pool_proj"
  type: "ReLU"
  bottom: "inception_4c/pool_proj"
  top: "inception_4c/pool_proj"
}
layer {
  name: "inception_4c/output"
  type: "Concat"
  bottom: "inception_4c/1x1"
  bottom: "inception_4c/3x3"
  bottom: "inception_4c/5x5"
  bottom: "inception_4c/pool_proj"
  top: "inception_4c/output"
}
layer {
  name: "inception_4d/1x1"
  type: "Convolution"
  bottom: "inception_4c/output"
  top: "inception_4d/1x1"
  param {
    lr_mult: 1
    decay_mult: 1
  }
  param {
    lr_mult: 2
    decay_mult: 0
  }
  convolution_param {
    num_output: 112
    kernel_size: 1
    weight_filler {
      type: "xavier"
      std: 0.03
    }
    bias_filler {
      type: "constant"
      value: 0.2
    }
  }
}
layer {
  name: "inception_4d/relu_1x1"
  type: "ReLU"
  bottom: "inception_4d/1x1"
  top: "inception_4d/1x1"
}
layer {
  name: "inception_4d/3x3_reduce"
  type: "Convolution"
  bottom: "inception_4c/output"
  top: "inception_4d/3x3_reduce"
  param {
    lr_mult: 1
    decay_mult: 1
  }
  param {
    lr_mult: 2
    decay_mult: 0
  }
  convolution_param {
    num_output: 144
    kernel_size: 1
    weight_filler {
      type: "xavier"
      std: 0.09
    }
    bias_filler {
      type: "constant"
      value: 0.2
    }
  }
}
layer {
  name: "inception_4d/relu_3x3_reduce"
  type: "ReLU"
  bottom: "inception_4d/3x3_reduce"
  top: "inception_4d/3x3_reduce"
}
layer {
  name: "inception_4d/3x3"
  type: "Convolution"
  bottom: "inception_4d/3x3_reduce"
  top: "inception_4d/3x3"
  param {
    lr_mult: 1
    decay_mult: 1
  }
  param {
    lr_mult: 2
    decay_mult: 0
  }
  convolution_param {
    num_output: 288
    pad: 1
    kernel_size: 3
    weight_filler {
      type: "xavier"
      std: 0.03
    }
    bias_filler {
      type: "constant"
      value: 0.2
    }
  }
}
layer {
  name: "inception_4d/relu_3x3"
  type: "ReLU"
  bottom: "inception_4d/3x3"
  top: "inception_4d/3x3"
}
layer {
  name: "inception_4d/5x5_reduce"
  type: "Convolution"
  bottom: "inception_4c/output"
  top: "inception_4d/5x5_reduce"
  param {
    lr_mult: 1
    decay_mult: 1
  }
  param {
    lr_mult: 2
    decay_mult: 0
  }
  convolution_param {
    num_output: 32
    kernel_size: 1
    weight_filler {
      type: "xavier"
      std: 0.2
    }
    bias_filler {
      type: "constant"
      value: 0.2
    }
  }
}
layer {
  name: "inception_4d/relu_5x5_reduce"
  type: "ReLU"
  bottom: "inception_4d/5x5_reduce"
  top: "inception_4d/5x5_reduce"
}
layer {
  name: "inception_4d/5x5"
  type: "Convolution"
  bottom: "inception_4d/5x5_reduce"
  top: "inception_4d/5x5"
  param {
    lr_mult: 1
    decay_mult: 1
  }
  param {
    lr_mult: 2
    decay_mult: 0
  }
  convolution_param {
    num_output: 64
    pad: 2
    kernel_size: 5
    weight_filler {
      type: "xavier"
      std: 0.03
    }
    bias_filler {
      type: "constant"
      value: 0.2
    }
  }
}
layer {
  name: "inception_4d/relu_5x5"
  type: "ReLU"
  bottom: "inception_4d/5x5"
  top: "inception_4d/5x5"
}
layer {
  name: "inception_4d/pool"
  type: "Pooling"
  bottom: "inception_4c/output"
  top: "inception_4d/pool"
  pooling_param {
    pool: MAX
    kernel_size: 3
    stride: 1
    pad: 1
  }
}
layer {
  name: "inception_4d/pool_proj"
  type: "Convolution"
  bottom: "inception_4d/pool"
  top: "inception_4d/pool_proj"
  param {
    lr_mult: 1
    decay_mult: 1
  }
  param {
    lr_mult: 2
    decay_mult: 0
  }
  convolution_param {
    num_output: 64
    kernel_size: 1
    weight_filler {
      type: "xavier"
      std: 0.1
    }
    bias_filler {
      type: "constant"
      value: 0.2
    }
  }
}
layer {
  name: "inception_4d/relu_pool_proj"
  type: "ReLU"
  bottom: "inception_4d/pool_proj"
  top: "inception_4d/pool_proj"
}
layer {
  name: "inception_4d/output"
  type: "Concat"
  bottom: "inception_4d/1x1"
  bottom: "inception_4d/3x3"
  bottom: "inception_4d/5x5"
  bottom: "inception_4d/pool_proj"
  top: "inception_4d/output"
}
layer {
  name: "loss2/ave_pool"
  type: "Pooling"
  bottom: "inception_4d/output"
  top: "loss2/ave_pool"
  pooling_param {
    pool: AVE
    kernel_size: 5
    stride: 3
  }
}
layer {
  name: "loss2/conv"
  type: "Convolution"
  bottom: "loss2/ave_pool"
  top: "loss2/conv"
  param {
    lr_mult: 1
    decay_mult: 1
  }
  param {
    lr_mult: 2
    decay_mult: 0
  }
  convolution_param {
    num_output: 128
    kernel_size: 1
    weight_filler {
      type: "xavier"
      std: 0.08
    }
    bias_filler {
      type: "constant"
      value: 0.2
    }
  }
}
layer {
  name: "loss2/relu_conv"
  type: "ReLU"
  bottom: "loss2/conv"
  top: "loss2/conv"
}
layer {
  name: "loss2/fc"
  type: "InnerProduct"
  bottom: "loss2/conv"
  top: "loss2/fc"
  param {
    lr_mult: 1
    decay_mult: 1
  }
  param {
    lr_mult: 2
    decay_mult: 0
  }
  inner_product_param {
    num_output: 1024
    weight_filler {
      type: "xavier"
      std: 0.02
    }
    bias_filler {
      type: "constant"
      value: 0.2
    }
  }
}
layer {
  name: "loss2/relu_fc"
  type: "ReLU"
  bottom: "loss2/fc"
  top: "loss2/fc"
}
layer {
  name: "loss2/drop_fc"
  type: "Dropout"
  bottom: "loss2/fc"
  top: "loss2/fc"
  dropout_param {
    dropout_ratio: 0.7
  }
}
layer {
  name: "loss2/classifier_plantvillage"
  type: "InnerProduct"
  bottom: "loss2/fc"
  top: "loss2/classifier_plantvillage"
  param {
    lr_mult: 1
    decay_mult: 1
  }
  param {
    lr_mult: 2
    decay_mult: 0
  }
  inner_product_param {
    num_output: 38
    weight_filler {
      type: "xavier"
      std: 0.0009765625
    }
    bias_filler {
      type: "constant"
      value: 0
    }
  }
}
layer {
  name: "inception_4e/1x1"
  type: "Convolution"
  bottom: "inception_4d/output"
  top: "inception_4e/1x1"
  param {
    lr_mult: 1
    decay_mult: 1
  }
  param {
    lr_mult: 2
    decay_mult: 0
  }
  convolution_param {
    num_output: 256
    kernel_size: 1
    weight_filler {
      type: "xavier"
      std: 0.03
    }
    bias_filler {
      type: "constant"
      value: 0.2
    }
  }
}
layer {
  name: "inception_4e/relu_1x1"
  type: "ReLU"
  bottom: "inception_4e/1x1"
  top: "inception_4e/1x1"
}
layer {
  name: "inception_4e/3x3_reduce"
  type: "Convolution"
  bottom: "inception_4d/output"
  top: "inception_4e/3x3_reduce"
  param {
    lr_mult: 1
    decay_mult: 1
  }
  param {
    lr_mult: 2
    decay_mult: 0
  }
  convolution_param {
    num_output: 160
    kernel_size: 1
    weight_filler {
      type: "xavier"
      std: 0.09
    }
    bias_filler {
      type: "constant"
      value: 0.2
    }
  }
}
layer {
  name: "inception_4e/relu_3x3_reduce"
  type: "ReLU"
  bottom: "inception_4e/3x3_reduce"
  top: "inception_4e/3x3_reduce"
}
layer {
  name: "inception_4e/3x3"
  type: "Convolution"
  bottom: "inception_4e/3x3_reduce"
  top: "inception_4e/3x3"
  param {
    lr_mult: 1
    decay_mult: 1
  }
  param {
    lr_mult: 2
    decay_mult: 0
  }
  convolution_param {
    num_output: 320
    pad: 1
    kernel_size: 3
    weight_filler {
      type: "xavier"
      std: 0.03
    }
    bias_filler {
      type: "constant"
      value: 0.2
    }
  }
}
layer {
  name: "inception_4e/relu_3x3"
  type: "ReLU"
  bottom: "inception_4e/3x3"
  top: "inception_4e/3x3"
}
layer {
  name: "inception_4e/5x5_reduce"
  type: "Convolution"
  bottom: "inception_4d/output"
  top: "inception_4e/5x5_reduce"
  param {
    lr_mult: 1
    decay_mult: 1
  }
  param {
    lr_mult: 2
    decay_mult: 0
  }
  convolution_param {
    num_output: 32
    kernel_size: 1
    weight_filler {
      type: "xavier"
      std: 0.2
    }
    bias_filler {
      type: "constant"
      value: 0.2
    }
  }
}
layer {
  name: "inception_4e/relu_5x5_reduce"
  type: "ReLU"
  bottom: "inception_4e/5x5_reduce"
  top: "inception_4e/5x5_reduce"
}
layer {
  name: "inception_4e/5x5"
  type: "Convolution"
  bottom: "inception_4e/5x5_reduce"
  top: "inception_4e/
I0403 17:49:04.148331 15099 layer_factory.hpp:77] Creating layer data
I0403 17:49:04.148932 15099 net.cpp:91] Creating Layer data
I0403 17:49:04.148962 15099 net.cpp:399] data -> data
I0403 17:49:04.149021 15099 net.cpp:399] data -> label
I0403 17:49:04.149060 15099 data_transformer.cpp:25] Loading mean file from: /home/mohanty/data/final_dataset/lmdb/grayscale-60-40/mean.binaryproto
I0403 17:49:04.150256 15101 db_lmdb.cpp:38] Opened lmdb /home/mohanty/data/final_dataset/lmdb/grayscale-60-40/test_db
I0403 17:49:04.162075 15099 data_layer.cpp:41] output data size: 24,3,224,224
I0403 17:49:04.188735 15099 net.cpp:141] Setting up data
I0403 17:49:04.188815 15099 net.cpp:148] Top shape: 24 3 224 224 (3612672)
I0403 17:49:04.188839 15099 net.cpp:148] Top shape: 24 (24)
I0403 17:49:04.188858 15099 net.cpp:156] Memory required for data: 14450784
I0403 17:49:04.188886 15099 layer_factory.hpp:77] Creating layer label_data_1_split
I0403 17:49:04.188915 15099 net.cpp:91] Creating Layer label_data_1_split
I0403 17:49:04.188936 15099 net.cpp:425] label_data_1_split <- label
I0403 17:49:04.188967 15099 net.cpp:399] label_data_1_split -> label_data_1_split_0
I0403 17:49:04.189002 15099 net.cpp:399] label_data_1_split -> label_data_1_split_1
I0403 17:49:04.189026 15099 net.cpp:399] label_data_1_split -> label_data_1_split_2
I0403 17:49:04.189049 15099 net.cpp:399] label_data_1_split -> label_data_1_split_3
I0403 17:49:04.189070 15099 net.cpp:399] label_data_1_split -> label_data_1_split_4
I0403 17:49:04.189092 15099 net.cpp:399] label_data_1_split -> label_data_1_split_5
I0403 17:49:04.189113 15099 net.cpp:399] label_data_1_split -> label_data_1_split_6
I0403 17:49:04.189136 15099 net.cpp:399] label_data_1_split -> label_data_1_split_7
I0403 17:49:04.189157 15099 net.cpp:399] label_data_1_split -> label_data_1_split_8
I0403 17:49:04.189179 15099 net.cpp:399] label_data_1_split -> label_data_1_split_9
I0403 17:49:04.189296 15099 net.cpp:141] Setting up label_data_1_split
I0403 17:49:04.189319 15099 net.cpp:148] Top shape: 24 (24)
I0403 17:49:04.189337 15099 net.cpp:148] Top shape: 24 (24)
I0403 17:49:04.189352 15099 net.cpp:148] Top shape: 24 (24)
I0403 17:49:04.189369 15099 net.cpp:148] Top shape: 24 (24)
I0403 17:49:04.189384 15099 net.cpp:148] Top shape: 24 (24)
I0403 17:49:04.189400 15099 net.cpp:148] Top shape: 24 (24)
I0403 17:49:04.189416 15099 net.cpp:148] Top shape: 24 (24)
I0403 17:49:04.189431 15099 net.cpp:148] Top shape: 24 (24)
I0403 17:49:04.189447 15099 net.cpp:148] Top shape: 24 (24)
I0403 17:49:04.189463 15099 net.cpp:148] Top shape: 24 (24)
I0403 17:49:04.189499 15099 net.cpp:156] Memory required for data: 14451744
I0403 17:49:04.189515 15099 layer_factory.hpp:77] Creating layer conv1/7x7_s2
I0403 17:49:04.189548 15099 net.cpp:91] Creating Layer conv1/7x7_s2
I0403 17:49:04.189568 15099 net.cpp:425] conv1/7x7_s2 <- data
I0403 17:49:04.189587 15099 net.cpp:399] conv1/7x7_s2 -> conv1/7x7_s2
I0403 17:49:04.326234 15099 net.cpp:141] Setting up conv1/7x7_s2
I0403 17:49:04.326323 15099 net.cpp:148] Top shape: 24 64 112 112 (19267584)
I0403 17:49:04.326339 15099 net.cpp:156] Memory required for data: 91522080
I0403 17:49:04.326371 15099 layer_factory.hpp:77] Creating layer conv1/relu_7x7
I0403 17:49:04.326398 15099 net.cpp:91] Creating Layer conv1/relu_7x7
I0403 17:49:04.326417 15099 net.cpp:425] conv1/relu_7x7 <- conv1/7x7_s2
I0403 17:49:04.326436 15099 net.cpp:386] conv1/relu_7x7 -> conv1/7x7_s2 (in-place)
I0403 17:49:04.326689 15099 net.cpp:141] Setting up conv1/relu_7x7
I0403 17:49:04.326716 15099 net.cpp:148] Top shape: 24 64 112 112 (19267584)
I0403 17:49:04.326732 15099 net.cpp:156] Memory required for data: 168592416
I0403 17:49:04.326750 15099 layer_factory.hpp:77] Creating layer pool1/3x3_s2
I0403 17:49:04.326776 15099 net.cpp:91] Creating Layer pool1/3x3_s2
I0403 17:49:04.326797 15099 net.cpp:425] pool1/3x3_s2 <- conv1/7x7_s2
I0403 17:49:04.326818 15099 net.cpp:399] pool1/3x3_s2 -> pool1/3x3_s2
I0403 17:49:04.326894 15099 net.cpp:141] Setting up pool1/3x3_s2
I0403 17:49:04.326917 15099 net.cpp:148] Top shape: 24 64 56 56 (4816896)
I0403 17:49:04.326932 15099 net.cpp:156] Memory required for data: 187860000
I0403 17:49:04.326947 15099 layer_factory.hpp:77] Creating layer pool1/norm1
I0403 17:49:04.326972 15099 net.cpp:91] Creating Layer pool1/norm1
I0403 17:49:04.326994 15099 net.cpp:425] pool1/norm1 <- pool1/3x3_s2
I0403 17:49:04.327013 15099 net.cpp:399] pool1/norm1 -> pool1/norm1
I0403 17:49:04.327299 15099 net.cpp:141] Setting up pool1/norm1
I0403 17:49:04.327327 15099 net.cpp:148] Top shape: 24 64 56 56 (4816896)
I0403 17:49:04.327342 15099 net.cpp:156] Memory required for data: 207127584
I0403 17:49:04.327356 15099 layer_factory.hpp:77] Creating layer conv2/3x3_reduce
I0403 17:49:04.327383 15099 net.cpp:91] Creating Layer conv2/3x3_reduce
I0403 17:49:04.327400 15099 net.cpp:425] conv2/3x3_reduce <- pool1/norm1
I0403 17:49:04.327421 15099 net.cpp:399] conv2/3x3_reduce -> conv2/3x3_reduce
I0403 17:49:04.328852 15099 net.cpp:141] Setting up conv2/3x3_reduce
I0403 17:49:04.328882 15099 net.cpp:148] Top shape: 24 64 56 56 (4816896)
I0403 17:49:04.328898 15099 net.cpp:156] Memory required for data: 226395168
I0403 17:49:04.328919 15099 layer_factory.hpp:77] Creating layer conv2/relu_3x3_reduce
I0403 17:49:04.328938 15099 net.cpp:91] Creating Layer conv2/relu_3x3_reduce
I0403 17:49:04.328953 15099 net.cpp:425] conv2/relu_3x3_reduce <- conv2/3x3_reduce
I0403 17:49:04.328974 15099 net.cpp:386] conv2/relu_3x3_reduce -> conv2/3x3_reduce (in-place)
I0403 17:49:04.329243 15099 net.cpp:141] Setting up conv2/relu_3x3_reduce
I0403 17:49:04.329270 15099 net.cpp:148] Top shape: 24 64 56 56 (4816896)
I0403 17:49:04.329287 15099 net.cpp:156] Memory required for data: 245662752
I0403 17:49:04.329301 15099 layer_factory.hpp:77] Creating layer conv2/3x3
I0403 17:49:04.329325 15099 net.cpp:91] Creating Layer conv2/3x3
I0403 17:49:04.329344 15099 net.cpp:425] conv2/3x3 <- conv2/3x3_reduce
I0403 17:49:04.329366 15099 net.cpp:399] conv2/3x3 -> conv2/3x3
I0403 17:49:04.331650 15099 net.cpp:141] Setting up conv2/3x3
I0403 17:49:04.331681 15099 net.cpp:148] Top shape: 24 192 56 56 (14450688)
I0403 17:49:04.331696 15099 net.cpp:156] Memory required for data: 303465504
I0403 17:49:04.331718 15099 layer_factory.hpp:77] Creating layer conv2/relu_3x3
I0403 17:49:04.331738 15099 net.cpp:91] Creating Layer conv2/relu_3x3
I0403 17:49:04.331754 15099 net.cpp:425] conv2/relu_3x3 <- conv2/3x3
I0403 17:49:04.331775 15099 net.cpp:386] conv2/relu_3x3 -> conv2/3x3 (in-place)
I0403 17:49:04.331949 15099 net.cpp:141] Setting up conv2/relu_3x3
I0403 17:49:04.331974 15099 net.cpp:148] Top shape: 24 192 56 56 (14450688)
I0403 17:49:04.332025 15099 net.cpp:156] Memory required for data: 361268256
I0403 17:49:04.332042 15099 layer_factory.hpp:77] Creating layer conv2/norm2
I0403 17:49:04.332064 15099 net.cpp:91] Creating Layer conv2/norm2
I0403 17:49:04.332084 15099 net.cpp:425] conv2/norm2 <- conv2/3x3
I0403 17:49:04.332106 15099 net.cpp:399] conv2/norm2 -> conv2/norm2
I0403 17:49:04.332412 15099 net.cpp:141] Setting up conv2/norm2
I0403 17:49:04.332440 15099 net.cpp:148] Top shape: 24 192 56 56 (14450688)
I0403 17:49:04.332456 15099 net.cpp:156] Memory required for data: 419071008
I0403 17:49:04.332473 15099 layer_factory.hpp:77] Creating layer pool2/3x3_s2
I0403 17:49:04.332489 15099 net.cpp:91] Creating Layer pool2/3x3_s2
I0403 17:49:04.332505 15099 net.cpp:425] pool2/3x3_s2 <- conv2/norm2
I0403 17:49:04.332525 15099 net.cpp:399] pool2/3x3_s2 -> pool2/3x3_s2
I0403 17:49:04.332578 15099 net.cpp:141] Setting up pool2/3x3_s2
I0403 17:49:04.332600 15099 net.cpp:148] Top shape: 24 192 28 28 (3612672)
I0403 17:49:04.332615 15099 net.cpp:156] Memory required for data: 433521696
I0403 17:49:04.332630 15099 layer_factory.hpp:77] Creating layer pool2/3x3_s2_pool2/3x3_s2_0_split
I0403 17:49:04.332650 15099 net.cpp:91] Creating Layer pool2/3x3_s2_pool2/3x3_s2_0_split
I0403 17:49:04.332667 15099 net.cpp:425] pool2/3x3_s2_pool2/3x3_s2_0_split <- pool2/3x3_s2
I0403 17:49:04.332685 15099 net.cpp:399] pool2/3x3_s2_pool2/3x3_s2_0_split -> pool2/3x3_s2_pool2/3x3_s2_0_split_0
I0403 17:49:04.332705 15099 net.cpp:399] pool2/3x3_s2_pool2/3x3_s2_0_split -> pool2/3x3_s2_pool2/3x3_s2_0_split_1
I0403 17:49:04.332728 15099 net.cpp:399] pool2/3x3_s2_pool2/3x3_s2_0_split -> pool2/3x3_s2_pool2/3x3_s2_0_split_2
I0403 17:49:04.332749 15099 net.cpp:399] pool2/3x3_s2_pool2/3x3_s2_0_split -> pool2/3x3_s2_pool2/3x3_s2_0_split_3
I0403 17:49:04.332821 15099 net.cpp:141] Setting up pool2/3x3_s2_pool2/3x3_s2_0_split
I0403 17:49:04.332844 15099 net.cpp:148] Top shape: 24 192 28 28 (3612672)
I0403 17:49:04.332861 15099 net.cpp:148] Top shape: 24 192 28 28 (3612672)
I0403 17:49:04.332876 15099 net.cpp:148] Top shape: 24 192 28 28 (3612672)
I0403 17:49:04.332892 15099 net.cpp:148] Top shape: 24 192 28 28 (3612672)
I0403 17:49:04.332906 15099 net.cpp:156] Memory required for data: 491324448
I0403 17:49:04.332923 15099 layer_factory.hpp:77] Creating layer inception_3a/1x1
I0403 17:49:04.332947 15099 net.cpp:91] Creating Layer inception_3a/1x1
I0403 17:49:04.332964 15099 net.cpp:425] inception_3a/1x1 <- pool2/3x3_s2_pool2/3x3_s2_0_split_0
I0403 17:49:04.332989 15099 net.cpp:399] inception_3a/1x1 -> inception_3a/1x1
I0403 17:49:04.334524 15099 net.cpp:141] Setting up inception_3a/1x1
I0403 17:49:04.334555 15099 net.cpp:148] Top shape: 24 64 28 28 (1204224)
I0403 17:49:04.334573 15099 net.cpp:156] Memory required for data: 496141344
I0403 17:49:04.334591 15099 layer_factory.hpp:77] Creating layer inception_3a/relu_1x1
I0403 17:49:04.334609 15099 net.cpp:91] Creating Layer inception_3a/relu_1x1
I0403 17:49:04.334626 15099 net.cpp:425] inception_3a/relu_1x1 <- inception_3a/1x1
I0403 17:49:04.334646 15099 net.cpp:386] inception_3a/relu_1x1 -> inception_3a/1x1 (in-place)
I0403 17:49:04.334821 15099 net.cpp:141] Setting up inception_3a/relu_1x1
I0403 17:49:04.334846 15099 net.cpp:148] Top shape: 24 64 28 28 (1204224)
I0403 17:49:04.334861 15099 net.cpp:156] Memory required for data: 500958240
I0403 17:49:04.334875 15099 layer_factory.hpp:77] Creating layer inception_3a/3x3_reduce
I0403 17:49:04.334898 15099 net.cpp:91] Creating Layer inception_3a/3x3_reduce
I0403 17:49:04.334915 15099 net.cpp:425] inception_3a/3x3_reduce <- pool2/3x3_s2_pool2/3x3_s2_0_split_1
I0403 17:49:04.334936 15099 net.cpp:399] inception_3a/3x3_reduce -> inception_3a/3x3_reduce
I0403 17:49:04.336626 15099 net.cpp:141] Setting up inception_3a/3x3_reduce
I0403 17:49:04.336655 15099 net.cpp:148] Top shape: 24 96 28 28 (1806336)
I0403 17:49:04.336671 15099 net.cpp:156] Memory required for data: 508183584
I0403 17:49:04.336694 15099 layer_factory.hpp:77] Creating layer inception_3a/relu_3x3_reduce
I0403 17:49:04.336731 15099 net.cpp:91] Creating Layer inception_3a/relu_3x3_reduce
I0403 17:49:04.336751 15099 net.cpp:425] inception_3a/relu_3x3_reduce <- inception_3a/3x3_reduce
I0403 17:49:04.336771 15099 net.cpp:386] inception_3a/relu_3x3_reduce -> inception_3a/3x3_reduce (in-place)
I0403 17:49:04.336953 15099 net.cpp:141] Setting up inception_3a/relu_3x3_reduce
I0403 17:49:04.336985 15099 net.cpp:148] Top shape: 24 96 28 28 (1806336)
I0403 17:49:04.337004 15099 net.cpp:156] Memory required for data: 515408928
I0403 17:49:04.337020 15099 layer_factory.hpp:77] Creating layer inception_3a/3x3
I0403 17:49:04.337044 15099 net.cpp:91] Creating Layer inception_3a/3x3
I0403 17:49:04.337061 15099 net.cpp:425] inception_3a/3x3 <- inception_3a/3x3_reduce
I0403 17:49:04.337082 15099 net.cpp:399] inception_3a/3x3 -> inception_3a/3x3
I0403 17:49:04.338712 15099 net.cpp:141] Setting up inception_3a/3x3
I0403 17:49:04.338740 15099 net.cpp:148] Top shape: 24 128 28 28 (2408448)
I0403 17:49:04.338757 15099 net.cpp:156] Memory required for data: 525042720
I0403 17:49:04.338774 15099 layer_factory.hpp:77] Creating layer inception_3a/relu_3x3
I0403 17:49:04.338798 15099 net.cpp:91] Creating Layer inception_3a/relu_3x3
I0403 17:49:04.338814 15099 net.cpp:425] inception_3a/relu_3x3 <- inception_3a/3x3
I0403 17:49:04.338832 15099 net.cpp:386] inception_3a/relu_3x3 -> inception_3a/3x3 (in-place)
I0403 17:49:04.339115 15099 net.cpp:141] Setting up inception_3a/relu_3x3
I0403 17:49:04.339141 15099 net.cpp:148] Top shape: 24 128 28 28 (2408448)
I0403 17:49:04.339156 15099 net.cpp:156] Memory required for data: 534676512
I0403 17:49:04.339171 15099 layer_factory.hpp:77] Creating layer inception_3a/5x5_reduce
I0403 17:49:04.339196 15099 net.cpp:91] Creating Layer inception_3a/5x5_reduce
I0403 17:49:04.339215 15099 net.cpp:425] inception_3a/5x5_reduce <- pool2/3x3_s2_pool2/3x3_s2_0_split_2
I0403 17:49:04.339236 15099 net.cpp:399] inception_3a/5x5_reduce -> inception_3a/5x5_reduce
I0403 17:49:04.340176 15099 net.cpp:141] Setting up inception_3a/5x5_reduce
I0403 17:49:04.340204 15099 net.cpp:148] Top shape: 24 16 28 28 (301056)
I0403 17:49:04.340219 15099 net.cpp:156] Memory required for data: 535880736
I0403 17:49:04.340237 15099 layer_factory.hpp:77] Creating layer inception_3a/relu_5x5_reduce
I0403 17:49:04.340258 15099 net.cpp:91] Creating Layer inception_3a/relu_5x5_reduce
I0403 17:49:04.340276 15099 net.cpp:425] inception_3a/relu_5x5_reduce <- inception_3a/5x5_reduce
I0403 17:49:04.340293 15099 net.cpp:386] inception_3a/relu_5x5_reduce -> inception_3a/5x5_reduce (in-place)
I0403 17:49:04.340600 15099 net.cpp:141] Setting up inception_3a/relu_5x5_reduce
I0403 17:49:04.340627 15099 net.cpp:148] Top shape: 24 16 28 28 (301056)
I0403 17:49:04.340643 15099 net.cpp:156] Memory required for data: 537084960
I0403 17:49:04.340659 15099 layer_factory.hpp:77] Creating layer inception_3a/5x5
I0403 17:49:04.340682 15099 net.cpp:91] Creating Layer inception_3a/5x5
I0403 17:49:04.340700 15099 net.cpp:425] inception_3a/5x5 <- inception_3a/5x5_reduce
I0403 17:49:04.340723 15099 net.cpp:399] inception_3a/5x5 -> inception_3a/5x5
I0403 17:49:04.341814 15099 net.cpp:141] Setting up inception_3a/5x5
I0403 17:49:04.341842 15099 net.cpp:148] Top shape: 24 32 28 28 (602112)
I0403 17:49:04.341859 15099 net.cpp:156] Memory required for data: 539493408
I0403 17:49:04.341879 15099 layer_factory.hpp:77] Creating layer inception_3a/relu_5x5
I0403 17:49:04.341898 15099 net.cpp:91] Creating Layer inception_3a/relu_5x5
I0403 17:49:04.341927 15099 net.cpp:425] inception_3a/relu_5x5 <- inception_3a/5x5
I0403 17:49:04.341945 15099 net.cpp:386] inception_3a/relu_5x5 -> inception_3a/5x5 (in-place)
I0403 17:49:04.342129 15099 net.cpp:141] Setting up inception_3a/relu_5x5
I0403 17:49:04.342167 15099 net.cpp:148] Top shape: 24 32 28 28 (602112)
I0403 17:49:04.342183 15099 net.cpp:156] Memory required for data: 541901856
I0403 17:49:04.342200 15099 layer_factory.hpp:77] Creating layer inception_3a/pool
I0403 17:49:04.342241 15099 net.cpp:91] Creating Layer inception_3a/pool
I0403 17:49:04.342269 15099 net.cpp:425] inception_3a/pool <- pool2/3x3_s2_pool2/3x3_s2_0_split_3
I0403 17:49:04.342289 15099 net.cpp:399] inception_3a/pool -> inception_3a/pool
I0403 17:49:04.342360 15099 net.cpp:141] Setting up inception_3a/pool
I0403 17:49:04.342382 15099 net.cpp:148] Top shape: 24 192 28 28 (3612672)
I0403 17:49:04.342396 15099 net.cpp:156] Memory required for data: 556352544
I0403 17:49:04.342411 15099 layer_factory.hpp:77] Creating layer inception_3a/pool_proj
I0403 17:49:04.342432 15099 net.cpp:91] Creating Layer inception_3a/pool_proj
I0403 17:49:04.342449 15099 net.cpp:425] inception_3a/pool_proj <- inception_3a/pool
I0403 17:49:04.342470 15099 net.cpp:399] inception_3a/pool_proj -> inception_3a/pool_proj
I0403 17:49:04.343456 15099 net.cpp:141] Setting up inception_3a/pool_proj
I0403 17:49:04.343485 15099 net.cpp:148] Top shape: 24 32 28 28 (602112)
I0403 17:49:04.343510 15099 net.cpp:156] Memory required for data: 558760992
I0403 17:49:04.343531 15099 layer_factory.hpp:77] Creating layer inception_3a/relu_pool_proj
I0403 17:49:04.343551 15099 net.cpp:91] Creating Layer inception_3a/relu_pool_proj
I0403 17:49:04.343567 15099 net.cpp:425] inception_3a/relu_pool_proj <- inception_3a/pool_proj
I0403 17:49:04.343585 15099 net.cpp:386] inception_3a/relu_pool_proj -> inception_3a/pool_proj (in-place)
I0403 17:49:04.343847 15099 net.cpp:141] Setting up inception_3a/relu_pool_proj
I0403 17:49:04.343871 15099 net.cpp:148] Top shape: 24 32 28 28 (602112)
I0403 17:49:04.343886 15099 net.cpp:156] Memory required for data: 561169440
I0403 17:49:04.343901 15099 layer_factory.hpp:77] Creating layer inception_3a/output
I0403 17:49:04.343919 15099 net.cpp:91] Creating Layer inception_3a/output
I0403 17:49:04.343946 15099 net.cpp:425] inception_3a/output <- inception_3a/1x1
I0403 17:49:04.343963 15099 net.cpp:425] inception_3a/output <- inception_3a/3x3
I0403 17:49:04.343983 15099 net.cpp:425] inception_3a/output <- inception_3a/5x5
I0403 17:49:04.344002 15099 net.cpp:425] inception_3a/output <- inception_3a/pool_proj
I0403 17:49:04.344034 15099 net.cpp:399] inception_3a/output -> inception_3a/output
I0403 17:49:04.344081 15099 net.cpp:141] Setting up inception_3a/output
I0403 17:49:04.344108 15099 net.cpp:148] Top shape: 24 256 28 28 (4816896)
I0403 17:49:04.344136 15099 net.cpp:156] Memory required for data: 580437024
I0403 17:49:04.344152 15099 layer_factory.hpp:77] Creating layer inception_3a/output_inception_3a/output_0_split
I0403 17:49:04.344172 15099 net.cpp:91] Creating Layer inception_3a/output_inception_3a/output_0_split
I0403 17:49:04.344188 15099 net.cpp:425] inception_3a/output_inception_3a/output_0_split <- inception_3a/output
I0403 17:49:04.344209 15099 net.cpp:399] inception_3a/output_inception_3a/output_0_split -> inception_3a/output_inception_3a/output_0_split_0
I0403 17:49:04.344243 15099 net.cpp:399] inception_3a/output_inception_3a/output_0_split -> inception_3a/output_inception_3a/output_0_split_1
I0403 17:49:04.344265 15099 net.cpp:399] inception_3a/output_inception_3a/output_0_split -> inception_3a/output_inception_3a/output_0_split_2
I0403 17:49:04.344286 15099 net.cpp:399] inception_3a/output_inception_3a/output_0_split -> inception_3a/output_inception_3a/output_0_split_3
I0403 17:49:04.344372 15099 net.cpp:141] Setting up inception_3a/output_inception_3a/output_0_split
I0403 17:49:04.344394 15099 net.cpp:148] Top shape: 24 256 28 28 (4816896)
I0403 17:49:04.344411 15099 net.cpp:148] Top shape: 24 256 28 28 (4816896)
I0403 17:49:04.344439 15099 net.cpp:148] Top shape: 24 256 28 28 (4816896)
I0403 17:49:04.344455 15099 net.cpp:148] Top shape: 24 256 28 28 (4816896)
I0403 17:49:04.344468 15099 net.cpp:156] Memory required for data: 657507360
I0403 17:49:04.344482 15099 layer_factory.hpp:77] Creating layer inception_3b/1x1
I0403 17:49:04.344513 15099 net.cpp:91] Creating Layer inception_3b/1x1
I0403 17:49:04.344529 15099 net.cpp:425] inception_3b/1x1 <- inception_3a/output_inception_3a/output_0_split_0
I0403 17:49:04.344550 15099 net.cpp:399] inception_3b/1x1 -> inception_3b/1x1
I0403 17:49:04.345736 15099 net.cpp:141] Setting up inception_3b/1x1
I0403 17:49:04.345777 15099 net.cpp:148] Top shape: 24 128 28 28 (2408448)
I0403 17:49:04.345793 15099 net.cpp:156] Memory required for data: 667141152
I0403 17:49:04.345810 15099 layer_factory.hpp:77] Creating layer inception_3b/relu_1x1
I0403 17:49:04.345829 15099 net.cpp:91] Creating Layer inception_3b/relu_1x1
I0403 17:49:04.345844 15099 net.cpp:425] inception_3b/relu_1x1 <- inception_3b/1x1
I0403 17:49:04.345863 15099 net.cpp:386] inception_3b/relu_1x1 -> inception_3b/1x1 (in-place)
I0403 17:49:04.346067 15099 net.cpp:141] Setting up inception_3b/relu_1x1
I0403 17:49:04.346092 15099 net.cpp:148] Top shape: 24 128 28 28 (2408448)
I0403 17:49:04.346107 15099 net.cpp:156] Memory required for data: 676774944
I0403 17:49:04.346122 15099 layer_factory.hpp:77] Creating layer inception_3b/3x3_reduce
I0403 17:49:04.346145 15099 net.cpp:91] Creating Layer inception_3b/3x3_reduce
I0403 17:49:04.346164 15099 net.cpp:425] inception_3b/3x3_reduce <- inception_3a/output_inception_3a/output_0_split_1
I0403 17:49:04.346186 15099 net.cpp:399] inception_3b/3x3_reduce -> inception_3b/3x3_reduce
I0403 17:49:04.347362 15099 net.cpp:141] Setting up inception_3b/3x3_reduce
I0403 17:49:04.347391 15099 net.cpp:148] Top shape: 24 128 28 28 (2408448)
I0403 17:49:04.347409 15099 net.cpp:156] Memory required for data: 686408736
I0403 17:49:04.347426 15099 layer_factory.hpp:77] Creating layer inception_3b/relu_3x3_reduce
I0403 17:49:04.347445 15099 net.cpp:91] Creating Layer inception_3b/relu_3x3_reduce
I0403 17:49:04.347460 15099 net.cpp:425] inception_3b/relu_3x3_reduce <- inception_3b/3x3_reduce
I0403 17:49:04.347479 15099 net.cpp:386] inception_3b/relu_3x3_reduce -> inception_3b/3x3_reduce (in-place)
I0403 17:49:04.347645 15099 net.cpp:141] Setting up inception_3b/relu_3x3_reduce
I0403 17:49:04.347669 15099 net.cpp:148] Top shape: 24 128 28 28 (2408448)
I0403 17:49:04.347683 15099 net.cpp:156] Memory required for data: 696042528
I0403 17:49:04.347698 15099 layer_factory.hpp:77] Creating layer inception_3b/3x3
I0403 17:49:04.347723 15099 net.cpp:91] Creating Layer inception_3b/3x3
I0403 17:49:04.347741 15099 net.cpp:425] inception_3b/3x3 <- inception_3b/3x3_reduce
I0403 17:49:04.347760 15099 net.cpp:399] inception_3b/3x3 -> inception_3b/3x3
I0403 17:49:04.350735 15099 net.cpp:141] Setting up inception_3b/3x3
I0403 17:49:04.350762 15099 net.cpp:148] Top shape: 24 192 28 28 (3612672)
I0403 17:49:04.350777 15099 net.cpp:156] Memory required for data: 710493216
I0403 17:49:04.350795 15099 layer_factory.hpp:77] Creating layer inception_3b/relu_3x3
I0403 17:49:04.350818 15099 net.cpp:91] Creating Layer inception_3b/relu_3x3
I0403 17:49:04.350836 15099 net.cpp:425] inception_3b/relu_3x3 <- inception_3b/3x3
I0403 17:49:04.350853 15099 net.cpp:386] inception_3b/relu_3x3 -> inception_3b/3x3 (in-place)
I0403 17:49:04.351137 15099 net.cpp:141] Setting up inception_3b/relu_3x3
I0403 17:49:04.351164 15099 net.cpp:148] Top shape: 24 192 28 28 (3612672)
I0403 17:49:04.351179 15099 net.cpp:156] Memory required for data: 724943904
I0403 17:49:04.351194 15099 layer_factory.hpp:77] Creating layer inception_3b/5x5_reduce
I0403 17:49:04.351227 15099 net.cpp:91] Creating Layer inception_3b/5x5_reduce
I0403 17:49:04.351245 15099 net.cpp:425] inception_3b/5x5_reduce <- inception_3a/output_inception_3a/output_0_split_2
I0403 17:49:04.351268 15099 net.cpp:399] inception_3b/5x5_reduce -> inception_3b/5x5_reduce
I0403 17:49:04.352285 15099 net.cpp:141] Setting up inception_3b/5x5_reduce
I0403 17:49:04.352313 15099 net.cpp:148] Top shape: 24 32 28 28 (602112)
I0403 17:49:04.352329 15099 net.cpp:156] Memory required for data: 727352352
I0403 17:49:04.352347 15099 layer_factory.hpp:77] Creating layer inception_3b/relu_5x5_reduce
I0403 17:49:04.352380 15099 net.cpp:91] Creating Layer inception_3b/relu_5x5_reduce
I0403 17:49:04.352396 15099 net.cpp:425] inception_3b/relu_5x5_reduce <- inception_3b/5x5_reduce
I0403 17:49:04.352413 15099 net.cpp:386] inception_3b/relu_5x5_reduce -> inception_3b/5x5_reduce (in-place)
I0403 17:49:04.352597 15099 net.cpp:141] Setting up inception_3b/relu_5x5_reduce
I0403 17:49:04.352622 15099 net.cpp:148] Top shape: 24 32 28 28 (602112)
I0403 17:49:04.352635 15099 net.cpp:156] Memory required for data: 729760800
I0403 17:49:04.352650 15099 layer_factory.hpp:77] Creating layer inception_3b/5x5
I0403 17:49:04.352671 15099 net.cpp:91] Creating Layer inception_3b/5x5
I0403 17:49:04.352687 15099 net.cpp:425] inception_3b/5x5 <- inception_3b/5x5_reduce
I0403 17:49:04.352708 15099 net.cpp:399] inception_3b/5x5 -> inception_3b/5x5
I0403 17:49:04.354666 15099 net.cpp:141] Setting up inception_3b/5x5
I0403 17:49:04.354696 15099 net.cpp:148] Top shape: 24 96 28 28 (1806336)
I0403 17:49:04.354712 15099 net.cpp:156] Memory required for data: 736986144
I0403 17:49:04.354730 15099 layer_factory.hpp:77] Creating layer inception_3b/relu_5x5
I0403 17:49:04.354748 15099 net.cpp:91] Creating Layer inception_3b/relu_5x5
I0403 17:49:04.354763 15099 net.cpp:425] inception_3b/relu_5x5 <- inception_3b/5x5
I0403 17:49:04.354784 15099 net.cpp:386] inception_3b/relu_5x5 -> inception_3b/5x5 (in-place)
I0403 17:49:04.354967 15099 net.cpp:141] Setting up inception_3b/relu_5x5
I0403 17:49:04.354995 15099 net.cpp:148] Top shape: 24 96 28 28 (1806336)
I0403 17:49:04.355010 15099 net.cpp:156] Memory required for data: 744211488
I0403 17:49:04.355038 15099 layer_factory.hpp:77] Creating layer inception_3b/pool
I0403 17:49:04.355056 15099 net.cpp:91] Creating Layer inception_3b/pool
I0403 17:49:04.355072 15099 net.cpp:425] inception_3b/pool <- inception_3a/output_inception_3a/output_0_split_3
I0403 17:49:04.355090 15099 net.cpp:399] inception_3b/pool -> inception_3b/pool
I0403 17:49:04.355145 15099 net.cpp:141] Setting up inception_3b/pool
I0403 17:49:04.355168 15099 net.cpp:148] Top shape: 24 256 28 28 (4816896)
I0403 17:49:04.355183 15099 net.cpp:156] Memory required for data: 763479072
I0403 17:49:04.355197 15099 layer_factory.hpp:77] Creating layer inception_3b/pool_proj
I0403 17:49:04.355232 15099 net.cpp:91] Creating Layer inception_3b/pool_proj
I0403 17:49:04.355249 15099 net.cpp:425] inception_3b/pool_proj <- inception_3b/pool
I0403 17:49:04.355268 15099 net.cpp:399] inception_3b/pool_proj -> inception_3b/pool_proj
I0403 17:49:04.356323 15099 net.cpp:141] Setting up inception_3b/pool_proj
I0403 17:49:04.356349 15099 net.cpp:148] Top shape: 24 64 28 28 (1204224)
I0403 17:49:04.356365 15099 net.cpp:156] Memory required for data: 768295968
I0403 17:49:04.356384 15099 layer_factory.hpp:77] Creating layer inception_3b/relu_pool_proj
I0403 17:49:04.356403 15099 net.cpp:91] Creating Layer inception_3b/relu_pool_proj
I0403 17:49:04.356420 15099 net.cpp:425] inception_3b/relu_pool_proj <- inception_3b/pool_proj
I0403 17:49:04.356436 15099 net.cpp:386] inception_3b/relu_pool_proj -> inception_3b/pool_proj (in-place)
I0403 17:49:04.356817 15099 net.cpp:141] Setting up inception_3b/relu_pool_proj
I0403 17:49:04.356843 15099 net.cpp:148] Top shape: 24 64 28 28 (1204224)
I0403 17:49:04.356858 15099 net.cpp:156] Memory required for data: 773112864
I0403 17:49:04.356873 15099 layer_factory.hpp:77] Creating layer inception_3b/output
I0403 17:49:04.356891 15099 net.cpp:91] Creating Layer inception_3b/output
I0403 17:49:04.356907 15099 net.cpp:425] inception_3b/output <- inception_3b/1x1
I0403 17:49:04.356926 15099 net.cpp:425] inception_3b/output <- inception_3b/3x3
I0403 17:49:04.356942 15099 net.cpp:425] inception_3b/output <- inception_3b/5x5
I0403 17:49:04.356957 15099 net.cpp:425] inception_3b/output <- inception_3b/pool_proj
I0403 17:49:04.356974 15099 net.cpp:399] inception_3b/output -> inception_3b/output
I0403 17:49:04.357034 15099 net.cpp:141] Setting up inception_3b/output
I0403 17:49:04.357058 15099 net.cpp:148] Top shape: 24 480 28 28 (9031680)
I0403 17:49:04.357072 15099 net.cpp:156] Memory required for data: 809239584
I0403 17:49:04.357100 15099 layer_factory.hpp:77] Creating layer pool3/3x3_s2
I0403 17:49:04.357117 15099 net.cpp:91] Creating Layer pool3/3x3_s2
I0403 17:49:04.357133 15099 net.cpp:425] pool3/3x3_s2 <- inception_3b/output
I0403 17:49:04.357169 15099 net.cpp:399] pool3/3x3_s2 -> pool3/3x3_s2
I0403 17:49:04.357230 15099 net.cpp:141] Setting up pool3/3x3_s2
I0403 17:49:04.357256 15099 net.cpp:148] Top shape: 24 480 14 14 (2257920)
I0403 17:49:04.357272 15099 net.cpp:156] Memory required for data: 818271264
I0403 17:49:04.357287 15099 layer_factory.hpp:77] Creating layer pool3/3x3_s2_pool3/3x3_s2_0_split
I0403 17:49:04.357317 15099 net.cpp:91] Creating Layer pool3/3x3_s2_pool3/3x3_s2_0_split
I0403 17:49:04.357332 15099 net.cpp:425] pool3/3x3_s2_pool3/3x3_s2_0_split <- pool3/3x3_s2
I0403 17:49:04.357349 15099 net.cpp:399] pool3/3x3_s2_pool3/3x3_s2_0_split -> pool3/3x3_s2_pool3/3x3_s2_0_split_0
I0403 17:49:04.357378 15099 net.cpp:399] pool3/3x3_s2_pool3/3x3_s2_0_split -> pool3/3x3_s2_pool3/3x3_s2_0_split_1
I0403 17:49:04.357399 15099 net.cpp:399] pool3/3x3_s2_pool3/3x3_s2_0_split -> pool3/3x3_s2_pool3/3x3_s2_0_split_2
I0403 17:49:04.357430 15099 net.cpp:399] pool3/3x3_s2_pool3/3x3_s2_0_split -> pool3/3x3_s2_pool3/3x3_s2_0_split_3
I0403 17:49:04.357519 15099 net.cpp:141] Setting up pool3/3x3_s2_pool3/3x3_s2_0_split
I0403 17:49:04.357542 15099 net.cpp:148] Top shape: 24 480 14 14 (2257920)
I0403 17:49:04.357558 15099 net.cpp:148] Top shape: 24 480 14 14 (2257920)
I0403 17:49:04.357574 15099 net.cpp:148] Top shape: 24 480 14 14 (2257920)
I0403 17:49:04.357589 15099 net.cpp:148] Top shape: 24 480 14 14 (2257920)
I0403 17:49:04.357602 15099 net.cpp:156] Memory required for data: 854397984
I0403 17:49:04.357617 15099 layer_factory.hpp:77] Creating layer inception_4a/1x1
I0403 17:49:04.357638 15099 net.cpp:91] Creating Layer inception_4a/1x1
I0403 17:49:04.357656 15099 net.cpp:425] inception_4a/1x1 <- pool3/3x3_s2_pool3/3x3_s2_0_split_0
I0403 17:49:04.357678 15099 net.cpp:399] inception_4a/1x1 -> inception_4a/1x1
I0403 17:49:04.359263 15099 net.cpp:141] Setting up inception_4a/1x1
I0403 17:49:04.359290 15099 net.cpp:148] Top shape: 24 192 14 14 (903168)
I0403 17:49:04.359307 15099 net.cpp:156] Memory required for data: 858010656
I0403 17:49:04.359336 15099 layer_factory.hpp:77] Creating layer inception_4a/relu_1x1
I0403 17:49:04.359355 15099 net.cpp:91] Creating Layer inception_4a/relu_1x1
I0403 17:49:04.359372 15099 net.cpp:425] inception_4a/relu_1x1 <- inception_4a/1x1
I0403 17:49:04.359390 15099 net.cpp:386] inception_4a/relu_1x1 -> inception_4a/1x1 (in-place)
I0403 17:49:04.359562 15099 net.cpp:141] Setting up inception_4a/relu_1x1
I0403 17:49:04.359586 15099 net.cpp:148] Top shape: 24 192 14 14 (903168)
I0403 17:49:04.359601 15099 net.cpp:156] Memory required for data: 861623328
I0403 17:49:04.359614 15099 layer_factory.hpp:77] Creating layer inception_4a/3x3_reduce
I0403 17:49:04.359635 15099 net.cpp:91] Creating Layer inception_4a/3x3_reduce
I0403 17:49:04.359652 15099 net.cpp:425] inception_4a/3x3_reduce <- pool3/3x3_s2_pool3/3x3_s2_0_split_1
I0403 17:49:04.359674 15099 net.cpp:399] inception_4a/3x3_reduce -> inception_4a/3x3_reduce
I0403 17:49:04.360939 15099 net.cpp:141] Setting up inception_4a/3x3_reduce
I0403 17:49:04.360966 15099 net.cpp:148] Top shape: 24 96 14 14 (451584)
I0403 17:49:04.360986 15099 net.cpp:156] Memory required for data: 863429664
I0403 17:49:04.361009 15099 layer_factory.hpp:77] Creating layer inception_4a/relu_3x3_reduce
I0403 17:49:04.361043 15099 net.cpp:91] Creating Layer inception_4a/relu_3x3_reduce
I0403 17:49:04.361060 15099 net.cpp:425] inception_4a/relu_3x3_reduce <- inception_4a/3x3_reduce
I0403 17:49:04.361079 15099 net.cpp:386] inception_4a/relu_3x3_reduce -> inception_4a/3x3_reduce (in-place)
I0403 17:49:04.361253 15099 net.cpp:141] Setting up inception_4a/relu_3x3_reduce
I0403 17:49:04.361289 15099 net.cpp:148] Top shape: 24 96 14 14 (451584)
I0403 17:49:04.361316 15099 net.cpp:156] Memory required for data: 865236000
I0403 17:49:04.361331 15099 layer_factory.hpp:77] Creating layer inception_4a/3x3
I0403 17:49:04.361353 15099 net.cpp:91] Creating Layer inception_4a/3x3
I0403 17:49:04.361371 15099 net.cpp:425] inception_4a/3x3 <- inception_4a/3x3_reduce
I0403 17:49:04.361390 15099 net.cpp:399] inception_4a/3x3 -> inception_4a/3x3
I0403 17:49:04.364065 15099 net.cpp:141] Setting up inception_4a/3x3
I0403 17:49:04.364097 15099 net.cpp:148] Top shape: 24 208 14 14 (978432)
I0403 17:49:04.364114 15099 net.cpp:156] Memory required for data: 869149728
I0403 17:49:04.364133 15099 layer_factory.hpp:77] Creating layer inception_4a/relu_3x3
I0403 17:49:04.364152 15099 net.cpp:91] Creating Layer inception_4a/relu_3x3
I0403 17:49:04.364169 15099 net.cpp:425] inception_4a/relu_3x3 <- inception_4a/3x3
I0403 17:49:04.364188 15099 net.cpp:386] inception_4a/relu_3x3 -> inception_4a/3x3 (in-place)
I0403 17:49:04.364480 15099 net.cpp:141] Setting up inception_4a/relu_3x3
I0403 17:49:04.364516 15099 net.cpp:148] Top shape: 24 208 14 14 (978432)
I0403 17:49:04.364531 15099 net.cpp:156] Memory required for data: 873063456
I0403 17:49:04.364547 15099 layer_factory.hpp:77] Creating layer inception_4a/5x5_reduce
I0403 17:49:04.364572 15099 net.cpp:91] Creating Layer inception_4a/5x5_reduce
I0403 17:49:04.364588 15099 net.cpp:425] inception_4a/5x5_reduce <- pool3/3x3_s2_pool3/3x3_s2_0_split_2
I0403 17:49:04.364606 15099 net.cpp:399] inception_4a/5x5_reduce -> inception_4a/5x5_reduce
I0403 17:49:04.365619 15099 net.cpp:141] Setting up inception_4a/5x5_reduce
I0403 17:49:04.365645 15099 net.cpp:148] Top shape: 24 16 14 14 (75264)
I0403 17:49:04.365660 15099 net.cpp:156] Memory required for data: 873364512
I0403 17:49:04.365679 15099 layer_factory.hpp:77] Creating layer inception_4a/relu_5x5_reduce
I0403 17:49:04.365696 15099 net.cpp:91] Creating Layer inception_4a/relu_5x5_reduce
I0403 17:49:04.365715 15099 net.cpp:425] inception_4a/relu_5x5_reduce <- inception_4a/5x5_reduce
I0403 17:49:04.365731 15099 net.cpp:386] inception_4a/relu_5x5_reduce -> inception_4a/5x5_reduce (in-place)
I0403 17:49:04.365902 15099 net.cpp:141] Setting up inception_4a/relu_5x5_reduce
I0403 17:49:04.365927 15099 net.cpp:148] Top shape: 24 16 14 14 (75264)
I0403 17:49:04.365942 15099 net.cpp:156] Memory required for data: 873665568
I0403 17:49:04.365957 15099 layer_factory.hpp:77] Creating layer inception_4a/5x5
I0403 17:49:04.365980 15099 net.cpp:91] Creating Layer inception_4a/5x5
I0403 17:49:04.365999 15099 net.cpp:425] inception_4a/5x5 <- inception_4a/5x5_reduce
I0403 17:49:04.366031 15099 net.cpp:399] inception_4a/5x5 -> inception_4a/5x5
I0403 17:49:04.367106 15099 net.cpp:141] Setting up inception_4a/5x5
I0403 17:49:04.367135 15099 net.cpp:148] Top shape: 24 48 14 14 (225792)
I0403 17:49:04.367149 15099 net.cpp:156] Memory required for data: 874568736
I0403 17:49:04.367168 15099 layer_factory.hpp:77] Creating layer inception_4a/relu_5x5
I0403 17:49:04.367188 15099 net.cpp:91] Creating Layer inception_4a/relu_5x5
I0403 17:49:04.367205 15099 net.cpp:425] inception_4a/relu_5x5 <- inception_4a/5x5
I0403 17:49:04.367223 15099 net.cpp:386] inception_4a/relu_5x5 -> inception_4a/5x5 (in-place)
I0403 17:49:04.367409 15099 net.cpp:141] Setting up inception_4a/relu_5x5
I0403 17:49:04.367435 15099 net.cpp:148] Top shape: 24 48 14 14 (225792)
I0403 17:49:04.367451 15099 net.cpp:156] Memory required for data: 875471904
I0403 17:49:04.367465 15099 layer_factory.hpp:77] Creating layer inception_4a/pool
I0403 17:49:04.367482 15099 net.cpp:91] Creating Layer inception_4a/pool
I0403 17:49:04.367497 15099 net.cpp:425] inception_4a/pool <- pool3/3x3_s2_pool3/3x3_s2_0_split_3
I0403 17:49:04.367517 15099 net.cpp:399] inception_4a/pool -> inception_4a/pool
I0403 17:49:04.367575 15099 net.cpp:141] Setting up inception_4a/pool
I0403 17:49:04.367599 15099 net.cpp:148] Top shape: 24 480 14 14 (2257920)
I0403 17:49:04.367611 15099 net.cpp:156] Memory required for data: 884503584
I0403 17:49:04.367625 15099 layer_factory.hpp:77] Creating layer inception_4a/pool_proj
I0403 17:49:04.367647 15099 net.cpp:91] Creating Layer inception_4a/pool_proj
I0403 17:49:04.367665 15099 net.cpp:425] inception_4a/pool_proj <- inception_4a/pool
I0403 17:49:04.367687 15099 net.cpp:399] inception_4a/pool_proj -> inception_4a/pool_proj
I0403 17:49:04.368844 15099 net.cpp:141] Setting up inception_4a/pool_proj
I0403 17:49:04.368875 15099 net.cpp:148] Top shape: 24 64 14 14 (301056)
I0403 17:49:04.368903 15099 net.cpp:156] Memory required for data: 885707808
I0403 17:49:04.368923 15099 layer_factory.hpp:77] Creating layer inception_4a/relu_pool_proj
I0403 17:49:04.368942 15099 net.cpp:91] Creating Layer inception_4a/relu_pool_proj
I0403 17:49:04.368957 15099 net.cpp:425] inception_4a/relu_pool_proj <- inception_4a/pool_proj
I0403 17:49:04.368975 15099 net.cpp:386] inception_4a/relu_pool_proj -> inception_4a/pool_proj (in-place)
I0403 17:49:04.369256 15099 net.cpp:141] Setting up inception_4a/relu_pool_proj
I0403 17:49:04.369283 15099 net.cpp:148] Top shape: 24 64 14 14 (301056)
I0403 17:49:04.369298 15099 net.cpp:156] Memory required for data: 886912032
I0403 17:49:04.369313 15099 layer_factory.hpp:77] Creating layer inception_4a/output
I0403 17:49:04.369330 15099 net.cpp:91] Creating Layer inception_4a/output
I0403 17:49:04.369345 15099 net.cpp:425] inception_4a/output <- inception_4a/1x1
I0403 17:49:04.369362 15099 net.cpp:425] inception_4a/output <- inception_4a/3x3
I0403 17:49:04.369377 15099 net.cpp:425] inception_4a/output <- inception_4a/5x5
I0403 17:49:04.369393 15099 net.cpp:425] inception_4a/output <- inception_4a/pool_proj
I0403 17:49:04.369410 15099 net.cpp:399] inception_4a/output -> inception_4a/output
I0403 17:49:04.369456 15099 net.cpp:141] Setting up inception_4a/output
I0403 17:49:04.369477 15099 net.cpp:148] Top shape: 24 512 14 14 (2408448)
I0403 17:49:04.369491 15099 net.cpp:156] Memory required for data: 896545824
I0403 17:49:04.369506 15099 layer_factory.hpp:77] Creating layer inception_4a/output_inception_4a/output_0_split
I0403 17:49:04.369524 15099 net.cpp:91] Creating Layer inception_4a/output_inception_4a/output_0_split
I0403 17:49:04.369541 15099 net.cpp:425] inception_4a/output_inception_4a/output_0_split <- inception_4a/output
I0403 17:49:04.369559 15099 net.cpp:399] inception_4a/output_inception_4a/output_0_split -> inception_4a/output_inception_4a/output_0_split_0
I0403 17:49:04.369580 15099 net.cpp:399] inception_4a/output_inception_4a/output_0_split -> inception_4a/output_inception_4a/output_0_split_1
I0403 17:49:04.369601 15099 net.cpp:399] inception_4a/output_inception_4a/output_0_split -> inception_4a/output_inception_4a/output_0_split_2
I0403 17:49:04.369621 15099 net.cpp:399] inception_4a/output_inception_4a/output_0_split -> inception_4a/output_inception_4a/output_0_split_3
I0403 17:49:04.369640 15099 net.cpp:399] inception_4a/output_inception_4a/output_0_split -> inception_4a/output_inception_4a/output_0_split_4
I0403 17:49:04.369730 15099 net.cpp:141] Setting up inception_4a/output_inception_4a/output_0_split
I0403 17:49:04.369752 15099 net.cpp:148] Top shape: 24 512 14 14 (2408448)
I0403 17:49:04.369768 15099 net.cpp:148] Top shape: 24 512 14 14 (2408448)
I0403 17:49:04.369784 15099 net.cpp:148] Top shape: 24 512 14 14 (2408448)
I0403 17:49:04.369799 15099 net.cpp:148] Top shape: 24 512 14 14 (2408448)
I0403 17:49:04.369813 15099 net.cpp:148] Top shape: 24 512 14 14 (2408448)
I0403 17:49:04.369827 15099 net.cpp:156] Memory required for data: 944714784
I0403 17:49:04.369842 15099 layer_factory.hpp:77] Creating layer loss1/ave_pool
I0403 17:49:04.369859 15099 net.cpp:91] Creating Layer loss1/ave_pool
I0403 17:49:04.369875 15099 net.cpp:425] loss1/ave_pool <- inception_4a/output_inception_4a/output_0_split_0
I0403 17:49:04.369895 15099 net.cpp:399] loss1/ave_pool -> loss1/ave_pool
I0403 17:49:04.370113 15099 net.cpp:141] Setting up loss1/ave_pool
I0403 17:49:04.370142 15099 net.cpp:148] Top shape: 24 512 4 4 (196608)
I0403 17:49:04.370158 15099 net.cpp:156] Memory required for data: 945501216
I0403 17:49:04.370173 15099 layer_factory.hpp:77] Creating layer loss1/conv
I0403 17:49:04.370194 15099 net.cpp:91] Creating Layer loss1/conv
I0403 17:49:04.370211 15099 net.cpp:425] loss1/conv <- loss1/ave_pool
I0403 17:49:04.370232 15099 net.cpp:399] loss1/conv -> loss1/conv
I0403 17:49:04.371731 15099 net.cpp:141] Setting up loss1/conv
I0403 17:49:04.371763 15099 net.cpp:148] Top shape: 24 128 4 4 (49152)
I0403 17:49:04.371793 15099 net.cpp:156] Memory required for data: 945697824
I0403 17:49:04.371811 15099 layer_factory.hpp:77] Creating layer loss1/relu_conv
I0403 17:49:04.371830 15099 net.cpp:91] Creating Layer loss1/relu_conv
I0403 17:49:04.371846 15099 net.cpp:425] loss1/relu_conv <- loss1/conv
I0403 17:49:04.371865 15099 net.cpp:386] loss1/relu_conv -> loss1/conv (in-place)
I0403 17:49:04.372135 15099 net.cpp:141] Setting up loss1/relu_conv
I0403 17:49:04.372164 15099 net.cpp:148] Top shape: 24 128 4 4 (49152)
I0403 17:49:04.372179 15099 net.cpp:156] Memory required for data: 945894432
I0403 17:49:04.372195 15099 layer_factory.hpp:77] Creating layer loss1/fc
I0403 17:49:04.372216 15099 net.cpp:91] Creating Layer loss1/fc
I0403 17:49:04.372233 15099 net.cpp:425] loss1/fc <- loss1/conv
I0403 17:49:04.372256 15099 net.cpp:399] loss1/fc -> loss1/fc
I0403 17:49:04.389641 15099 net.cpp:141] Setting up loss1/fc
I0403 17:49:04.389674 15099 net.cpp:148] Top shape: 24 1024 (24576)
I0403 17:49:04.389690 15099 net.cpp:156] Memory required for data: 945992736
I0403 17:49:04.389710 15099 layer_factory.hpp:77] Creating layer loss1/relu_fc
I0403 17:49:04.389731 15099 net.cpp:91] Creating Layer loss1/relu_fc
I0403 17:49:04.389750 15099 net.cpp:425] loss1/relu_fc <- loss1/fc
I0403 17:49:04.389767 15099 net.cpp:386] loss1/relu_fc -> loss1/fc (in-place)
I0403 17:49:04.389948 15099 net.cpp:141] Setting up loss1/relu_fc
I0403 17:49:04.389972 15099 net.cpp:148] Top shape: 24 1024 (24576)
I0403 17:49:04.389991 15099 net.cpp:156] Memory required for data: 946091040
I0403 17:49:04.390007 15099 layer_factory.hpp:77] Creating layer loss1/drop_fc
I0403 17:49:04.390032 15099 net.cpp:91] Creating Layer loss1/drop_fc
I0403 17:49:04.390048 15099 net.cpp:425] loss1/drop_fc <- loss1/fc
I0403 17:49:04.390069 15099 net.cpp:386] loss1/drop_fc -> loss1/fc (in-place)
I0403 17:49:04.390117 15099 net.cpp:141] Setting up loss1/drop_fc
I0403 17:49:04.390139 15099 net.cpp:148] Top shape: 24 1024 (24576)
I0403 17:49:04.390154 15099 net.cpp:156] Memory required for data: 946189344
I0403 17:49:04.390168 15099 layer_factory.hpp:77] Creating layer loss1/classifier_plantvillage
I0403 17:49:04.390190 15099 net.cpp:91] Creating Layer loss1/classifier_plantvillage
I0403 17:49:04.390208 15099 net.cpp:425] loss1/classifier_plantvillage <- loss1/fc
I0403 17:49:04.390225 15099 net.cpp:399] loss1/classifier_plantvillage -> loss1/classifier_plantvillage
I0403 17:49:04.391108 15099 net.cpp:141] Setting up loss1/classifier_plantvillage
I0403 17:49:04.391137 15099 net.cpp:148] Top shape: 24 38 (912)
I0403 17:49:04.391154 15099 net.cpp:156] Memory required for data: 946192992
I0403 17:49:04.391171 15099 layer_factory.hpp:77] Creating layer loss1/classifier_plantvillage_loss1/classifier_plantvillage_0_split
I0403 17:49:04.391187 15099 net.cpp:91] Creating Layer loss1/classifier_plantvillage_loss1/classifier_plantvillage_0_split
I0403 17:49:04.391203 15099 net.cpp:425] loss1/classifier_plantvillage_loss1/classifier_plantvillage_0_split <- loss1/classifier_plantvillage
I0403 17:49:04.391223 15099 net.cpp:399] loss1/classifier_plantvillage_loss1/classifier_plantvillage_0_split -> loss1/classifier_plantvillage_loss1/classifier_plantvillage_0_split_0
I0403 17:49:04.391245 15099 net.cpp:399] loss1/classifier_plantvillage_loss1/classifier_plantvillage_0_split -> loss1/classifier_plantvillage_loss1/classifier_plantvillage_0_split_1
I0403 17:49:04.391265 15099 net.cpp:399] loss1/classifier_plantvillage_loss1/classifier_plantvillage_0_split -> loss1/classifier_plantvillage_loss1/classifier_plantvillage_0_split_2
I0403 17:49:04.391327 15099 net.cpp:141] Setting up loss1/classifier_plantvillage_loss1/classifier_plantvillage_0_split
I0403 17:49:04.391350 15099 net.cpp:148] Top shape: 24 38 (912)
I0403 17:49:04.391366 15099 net.cpp:148] Top shape: 24 38 (912)
I0403 17:49:04.391381 15099 net.cpp:148] Top shape: 24 38 (912)
I0403 17:49:04.391394 15099 net.cpp:156] Memory required for data: 946203936
I0403 17:49:04.391408 15099 layer_factory.hpp:77] Creating layer inception_4b/1x1
I0403 17:49:04.391430 15099 net.cpp:91] Creating Layer inception_4b/1x1
I0403 17:49:04.391461 15099 net.cpp:425] inception_4b/1x1 <- inception_4a/output_inception_4a/output_0_split_1
I0403 17:49:04.391481 15099 net.cpp:399] inception_4b/1x1 -> inception_4b/1x1
I0403 17:49:04.393081 15099 net.cpp:141] Setting up inception_4b/1x1
I0403 17:49:04.393110 15099 net.cpp:148] Top shape: 24 160 14 14 (752640)
I0403 17:49:04.393124 15099 net.cpp:156] Memory required for data: 949214496
I0403 17:49:04.393142 15099 layer_factory.hpp:77] Creating layer inception_4b/relu_1x1
I0403 17:49:04.393160 15099 net.cpp:91] Creating Layer inception_4b/relu_1x1
I0403 17:49:04.393175 15099 net.cpp:425] inception_4b/relu_1x1 <- inception_4b/1x1
I0403 17:49:04.393195 15099 net.cpp:386] inception_4b/relu_1x1 -> inception_4b/1x1 (in-place)
I0403 17:49:04.393369 15099 net.cpp:141] Setting up inception_4b/relu_1x1
I0403 17:49:04.393394 15099 net.cpp:148] Top shape: 24 160 14 14 (752640)
I0403 17:49:04.393409 15099 net.cpp:156] Memory required for data: 952225056
I0403 17:49:04.393424 15099 layer_factory.hpp:77] Creating layer inception_4b/3x3_reduce
I0403 17:49:04.393445 15099 net.cpp:91] Creating Layer inception_4b/3x3_reduce
I0403 17:49:04.393462 15099 net.cpp:425] inception_4b/3x3_reduce <- inception_4a/output_inception_4a/output_0_split_2
I0403 17:49:04.393484 15099 net.cpp:399] inception_4b/3x3_reduce -> inception_4b/3x3_reduce
I0403 17:49:04.394795 15099 net.cpp:141] Setting up inception_4b/3x3_reduce
I0403 17:49:04.394822 15099 net.cpp:148] Top shape: 24 112 14 14 (526848)
I0403 17:49:04.394837 15099 net.cpp:156] Memory required for data: 954332448
I0403 17:49:04.394855 15099 layer_factory.hpp:77] Creating layer inception_4b/relu_3x3_reduce
I0403 17:49:04.394876 15099 net.cpp:91] Creating Layer inception_4b/relu_3x3_reduce
I0403 17:49:04.394891 15099 net.cpp:425] inception_4b/relu_3x3_reduce <- inception_4b/3x3_reduce
I0403 17:49:04.394909 15099 net.cpp:386] inception_4b/relu_3x3_reduce -> inception_4b/3x3_reduce (in-place)
I0403 17:49:04.395193 15099 net.cpp:141] Setting up inception_4b/relu_3x3_reduce
I0403 17:49:04.395218 15099 net.cpp:148] Top shape: 24 112 14 14 (526848)
I0403 17:49:04.395233 15099 net.cpp:156] Memory required for data: 956439840
I0403 17:49:04.395248 15099 layer_factory.hpp:77] Creating layer inception_4b/3x3
I0403 17:49:04.395270 15099 net.cpp:91] Creating Layer inception_4b/3x3
I0403 17:49:04.395287 15099 net.cpp:425] inception_4b/3x3 <- inception_4b/3x3_reduce
I0403 17:49:04.395309 15099 net.cpp:399] inception_4b/3x3 -> inception_4b/3x3
I0403 17:49:04.398197 15099 net.cpp:141] Setting up inception_4b/3x3
I0403 17:49:04.398227 15099 net.cpp:148] Top shape: 24 224 14 14 (1053696)
I0403 17:49:04.398244 15099 net.cpp:156] Memory required for data: 960654624
I0403 17:49:04.398262 15099 layer_factory.hpp:77] Creating layer inception_4b/relu_3x3
I0403 17:49:04.398282 15099 net.cpp:91] Creating Layer inception_4b/relu_3x3
I0403 17:49:04.398298 15099 net.cpp:425] inception_4b/relu_3x3 <- inception_4b/3x3
I0403 17:49:04.398316 15099 net.cpp:386] inception_4b/relu_3x3 -> inception_4b/3x3 (in-place)
I0403 17:49:04.398491 15099 net.cpp:141] Setting up inception_4b/relu_3x3
I0403 17:49:04.398515 15099 net.cpp:148] Top shape: 24 224 14 14 (1053696)
I0403 17:49:04.398530 15099 net.cpp:156] Memory required for data: 964869408
I0403 17:49:04.398545 15099 layer_factory.hpp:77] Creating layer inception_4b/5x5_reduce
I0403 17:49:04.398566 15099 net.cpp:91] Creating Layer inception_4b/5x5_reduce
I0403 17:49:04.398584 15099 net.cpp:425] inception_4b/5x5_reduce <- inception_4a/output_inception_4a/output_0_split_3
I0403 17:49:04.398609 15099 net.cpp:399] inception_4b/5x5_reduce -> inception_4b/5x5_reduce
I0403 17:49:04.399657 15099 net.cpp:141] Setting up inception_4b/5x5_reduce
I0403 17:49:04.399683 15099 net.cpp:148] Top shape: 24 24 14 14 (112896)
I0403 17:49:04.399698 15099 net.cpp:156] Memory required for data: 965320992
I0403 17:49:04.399716 15099 layer_factory.hpp:77] Creating layer inception_4b/relu_5x5_reduce
I0403 17:49:04.399734 15099 net.cpp:91] Creating Layer inception_4b/relu_5x5_reduce
I0403 17:49:04.399765 15099 net.cpp:425] inception_4b/relu_5x5_reduce <- inception_4b/5x5_reduce
I0403 17:49:04.399785 15099 net.cpp:386] inception_4b/relu_5x5_reduce -> inception_4b/5x5_reduce (in-place)
I0403 17:49:04.399960 15099 net.cpp:141] Setting up inception_4b/relu_5x5_reduce
I0403 17:49:04.399987 15099 net.cpp:148] Top shape: 24 24 14 14 (112896)
I0403 17:49:04.400003 15099 net.cpp:156] Memory required for data: 965772576
I0403 17:49:04.400018 15099 layer_factory.hpp:77] Creating layer inception_4b/5x5
I0403 17:49:04.400040 15099 net.cpp:91] Creating Layer inception_4b/5x5
I0403 17:49:04.400058 15099 net.cpp:425] inception_4b/5x5 <- inception_4b/5x5_reduce
I0403 17:49:04.400079 15099 net.cpp:399] inception_4b/5x5 -> inception_4b/5x5
I0403 17:49:04.401260 15099 net.cpp:141] Setting up inception_4b/5x5
I0403 17:49:04.401288 15099 net.cpp:148] Top shape: 24 64 14 14 (301056)
I0403 17:49:04.401303 15099 net.cpp:156] Memory required for data: 966976800
I0403 17:49:04.401321 15099 layer_factory.hpp:77] Creating layer inception_4b/relu_5x5
I0403 17:49:04.401338 15099 net.cpp:91] Creating Layer inception_4b/relu_5x5
I0403 17:49:04.401355 15099 net.cpp:425] inception_4b/relu_5x5 <- inception_4b/5x5
I0403 17:49:04.401373 15099 net.cpp:386] inception_4b/relu_5x5 -> inception_4b/5x5 (in-place)
I0403 17:49:04.401650 15099 net.cpp:141] Setting up inception_4b/relu_5x5
I0403 17:49:04.401675 15099 net.cpp:148] Top shape: 24 64 14 14 (301056)
I0403 17:49:04.401690 15099 net.cpp:156] Memory required for data: 968181024
I0403 17:49:04.401706 15099 layer_factory.hpp:77] Creating layer inception_4b/pool
I0403 17:49:04.401723 15099 net.cpp:91] Creating Layer inception_4b/pool
I0403 17:49:04.401739 15099 net.cpp:425] inception_4b/pool <- inception_4a/output_inception_4a/output_0_split_4
I0403 17:49:04.401760 15099 net.cpp:399] inception_4b/pool -> inception_4b/pool
I0403 17:49:04.401823 15099 net.cpp:141] Setting up inception_4b/pool
I0403 17:49:04.401847 15099 net.cpp:148] Top shape: 24 512 14 14 (2408448)
I0403 17:49:04.401862 15099 net.cpp:156] Memory required for data: 977814816
I0403 17:49:04.401877 15099 layer_factory.hpp:77] Creating layer inception_4b/pool_proj
I0403 17:49:04.401901 15099 net.cpp:91] Creating Layer inception_4b/pool_proj
I0403 17:49:04.401918 15099 net.cpp:425] inception_4b/pool_proj <- inception_4b/pool
I0403 17:49:04.401937 15099 net.cpp:399] inception_4b/pool_proj -> inception_4b/pool_proj
I0403 17:49:04.403100 15099 net.cpp:141] Setting up inception_4b/pool_proj
I0403 17:49:04.403126 15099 net.cpp:148] Top shape: 24 64 14 14 (301056)
I0403 17:49:04.403141 15099 net.cpp:156] Memory required for data: 979019040
I0403 17:49:04.403159 15099 layer_factory.hpp:77] Creating layer inception_4b/relu_pool_proj
I0403 17:49:04.403179 15099 net.cpp:91] Creating Layer inception_4b/relu_pool_proj
I0403 17:49:04.403195 15099 net.cpp:425] inception_4b/relu_pool_proj <- inception_4b/pool_proj
I0403 17:49:04.403213 15099 net.cpp:386] inception_4b/relu_pool_proj -> inception_4b/pool_proj (in-place)
I0403 17:49:04.403386 15099 net.cpp:141] Setting up inception_4b/relu_pool_proj
I0403 17:49:04.403410 15099 net.cpp:148] Top shape: 24 64 14 14 (301056)
I0403 17:49:04.403424 15099 net.cpp:156] Memory required for data: 980223264
I0403 17:49:04.403439 15099 layer_factory.hpp:77] Creating layer inception_4b/output
I0403 17:49:04.403458 15099 net.cpp:91] Creating Layer inception_4b/output
I0403 17:49:04.403475 15099 net.cpp:425] inception_4b/output <- inception_4b/1x1
I0403 17:49:04.403491 15099 net.cpp:425] inception_4b/output <- inception_4b/3x3
I0403 17:49:04.403506 15099 net.cpp:425] inception_4b/output <- inception_4b/5x5
I0403 17:49:04.403522 15099 net.cpp:425] inception_4b/output <- inception_4b/pool_proj
I0403 17:49:04.403538 15099 net.cpp:399] inception_4b/output -> inception_4b/output
I0403 17:49:04.403584 15099 net.cpp:141] Setting up inception_4b/output
I0403 17:49:04.403606 15099 net.cpp:148] Top shape: 24 512 14 14 (2408448)
I0403 17:49:04.403620 15099 net.cpp:156] Memory required for data: 989857056
I0403 17:49:04.403648 15099 layer_factory.hpp:77] Creating layer inception_4b/output_inception_4b/output_0_split
I0403 17:49:04.403666 15099 net.cpp:91] Creating Layer inception_4b/output_inception_4b/output_0_split
I0403 17:49:04.403681 15099 net.cpp:425] inception_4b/output_inception_4b/output_0_split <- inception_4b/output
I0403 17:49:04.403702 15099 net.cpp:399] inception_4b/output_inception_4b/output_0_split -> inception_4b/output_inception_4b/output_0_split_0
I0403 17:49:04.403723 15099 net.cpp:399] inception_4b/output_inception_4b/output_0_split -> inception_4b/output_inception_4b/output_0_split_1
I0403 17:49:04.403743 15099 net.cpp:399] inception_4b/output_inception_4b/output_0_split -> inception_4b/output_inception_4b/output_0_split_2
I0403 17:49:04.403761 15099 net.cpp:399] inception_4b/output_inception_4b/output_0_split -> inception_4b/output_inception_4b/output_0_split_3
I0403 17:49:04.403842 15099 net.cpp:141] Setting up inception_4b/output_inception_4b/output_0_split
I0403 17:49:04.403867 15099 net.cpp:148] Top shape: 24 512 14 14 (2408448)
I0403 17:49:04.403883 15099 net.cpp:148] Top shape: 24 512 14 14 (2408448)
I0403 17:49:04.403898 15099 net.cpp:148] Top shape: 24 512 14 14 (2408448)
I0403 17:49:04.403914 15099 net.cpp:148] Top shape: 24 512 14 14 (2408448)
I0403 17:49:04.403928 15099 net.cpp:156] Memory required for data: 1028392224
I0403 17:49:04.403942 15099 layer_factory.hpp:77] Creating layer inception_4c/1x1
I0403 17:49:04.403964 15099 net.cpp:91] Creating Layer inception_4c/1x1
I0403 17:49:04.403985 15099 net.cpp:425] inception_4c/1x1 <- inception_4b/output_inception_4b/output_0_split_0
I0403 17:49:04.404006 15099 net.cpp:399] inception_4c/1x1 -> inception_4c/1x1
I0403 17:49:04.405386 15099 net.cpp:141] Setting up inception_4c/1x1
I0403 17:49:04.405413 15099 net.cpp:148] Top shape: 24 128 14 14 (602112)
I0403 17:49:04.405428 15099 net.cpp:156] Memory required for data: 1030800672
I0403 17:49:04.405447 15099 layer_factory.hpp:77] Creating layer inception_4c/relu_1x1
I0403 17:49:04.405467 15099 net.cpp:91] Creating Layer inception_4c/relu_1x1
I0403 17:49:04.405485 15099 net.cpp:425] inception_4c/relu_1x1 <- inception_4c/1x1
I0403 17:49:04.405503 15099 net.cpp:386] inception_4c/relu_1x1 -> inception_4c/1x1 (in-place)
I0403 17:49:04.405679 15099 net.cpp:141] Setting up inception_4c/relu_1x1
I0403 17:49:04.405704 15099 net.cpp:148] Top shape: 24 128 14 14 (602112)
I0403 17:49:04.405719 15099 net.cpp:156] Memory required for data: 1033209120
I0403 17:49:04.405733 15099 layer_factory.hpp:77] Creating layer inception_4c/3x3_reduce
I0403 17:49:04.405755 15099 net.cpp:91] Creating Layer inception_4c/3x3_reduce
I0403 17:49:04.405772 15099 net.cpp:425] inception_4c/3x3_reduce <- inception_4b/output_inception_4b/output_0_split_1
I0403 17:49:04.405793 15099 net.cpp:399] inception_4c/3x3_reduce -> inception_4c/3x3_reduce
I0403 17:49:04.407672 15099 net.cpp:141] Setting up inception_4c/3x3_reduce
I0403 17:49:04.407699 15099 net.cpp:148] Top shape: 24 128 14 14 (602112)
I0403 17:49:04.407714 15099 net.cpp:156] Memory required for data: 1035617568
I0403 17:49:04.407733 15099 layer_factory.hpp:77] Creating layer inception_4c/relu_3x3_reduce
I0403 17:49:04.407750 15099 net.cpp:91] Creating Layer inception_4c/relu_3x3_reduce
I0403 17:49:04.407766 15099 net.cpp:425] inception_4c/relu_3x3_reduce <- inception_4c/3x3_reduce
I0403 17:49:04.407786 15099 net.cpp:386] inception_4c/relu_3x3_reduce -> inception_4c/3x3_reduce (in-place)
I0403 17:49:04.408079 15099 net.cpp:141] Setting up inception_4c/relu_3x3_reduce
I0403 17:49:04.408105 15099 net.cpp:148] Top shape: 24 128 14 14 (602112)
I0403 17:49:04.408120 15099 net.cpp:156] Memory required for data: 1038026016
I0403 17:49:04.408135 15099 layer_factory.hpp:77] Creating layer inception_4c/3x3
I0403 17:49:04.408157 15099 net.cpp:91] Creating Layer inception_4c/3x3
I0403 17:49:04.408176 15099 net.cpp:425] inception_4c/3x3 <- inception_4c/3x3_reduce
I0403 17:49:04.408200 15099 net.cpp:399] inception_4c/3x3 -> inception_4c/3x3
I0403 17:49:04.411761 15099 net.cpp:141] Setting up inception_4c/3x3
I0403 17:49:04.411803 15099 net.cpp:148] Top shape: 24 256 14 14 (1204224)
I0403 17:49:04.411819 15099 net.cpp:156] Memory required for data: 1042842912
I0403 17:49:04.411851 15099 layer_factory.hpp:77] Creating layer inception_4c/relu_3x3
I0403 17:49:04.411875 15099 net.cpp:91] Creating Layer inception_4c/relu_3x3
I0403 17:49:04.411891 15099 net.cpp:425] inception_4c/relu_3x3 <- inception_4c/3x3
I0403 17:49:04.411908 15099 net.cpp:386] inception_4c/relu_3x3 -> inception_4c/3x3 (in-place)
I0403 17:49:04.412089 15099 net.cpp:141] Setting up inception_4c/relu_3x3
I0403 17:49:04.412114 15099 net.cpp:148] Top shape: 24 256 14 14 (1204224)
I0403 17:49:04.412128 15099 net.cpp:156] Memory required for data: 1047659808
I0403 17:49:04.412143 15099 layer_factory.hpp:77] Creating layer inception_4c/5x5_reduce
I0403 17:49:04.412166 15099 net.cpp:91] Creating Layer inception_4c/5x5_reduce
I0403 17:49:04.412184 15099 net.cpp:425] inception_4c/5x5_reduce <- inception_4b/output_inception_4b/output_0_split_2
I0403 17:49:04.412205 15099 net.cpp:399] inception_4c/5x5_reduce -> inception_4c/5x5_reduce
I0403 17:49:04.413272 15099 net.cpp:141] Setting up inception_4c/5x5_reduce
I0403 17:49:04.413300 15099 net.cpp:148] Top shape: 24 24 14 14 (112896)
I0403 17:49:04.413316 15099 net.cpp:156] Memory required for data: 1048111392
I0403 17:49:04.413334 15099 layer_factory.hpp:77] Creating layer inception_4c/relu_5x5_reduce
I0403 17:49:04.413352 15099 net.cpp:91] Creating Layer inception_4c/relu_5x5_reduce
I0403 17:49:04.413368 15099 net.cpp:425] inception_4c/relu_5x5_reduce <- inception_4c/5x5_reduce
I0403 17:49:04.413388 15099 net.cpp:386] inception_4c/relu_5x5_reduce -> inception_4c/5x5_reduce (in-place)
I0403 17:49:04.413583 15099 net.cpp:141] Setting up inception_4c/relu_5x5_reduce
I0403 17:49:04.413606 15099 net.cpp:148] Top shape: 24 24 14 14 (112896)
I0403 17:49:04.413621 15099 net.cpp:156] Memory required for data: 1048562976
I0403 17:49:04.413636 15099 layer_factory.hpp:77] Creating layer inception_4c/5x5
I0403 17:49:04.413658 15099 net.cpp:91] Creating Layer inception_4c/5x5
I0403 17:49:04.413676 15099 net.cpp:425] inception_4c/5x5 <- inception_4c/5x5_reduce
I0403 17:49:04.413696 15099 net.cpp:399] inception_4c/5x5 -> inception_4c/5x5
I0403 17:49:04.414937 15099 net.cpp:141] Setting up inception_4c/5x5
I0403 17:49:04.414963 15099 net.cpp:148] Top shape: 24 64 14 14 (301056)
I0403 17:49:04.414983 15099 net.cpp:156] Memory required for data: 1049767200
I0403 17:49:04.415002 15099 layer_factory.hpp:77] Creating layer inception_4c/relu_5x5
I0403 17:49:04.415022 15099 net.cpp:91] Creating Layer inception_4c/relu_5x5
I0403 17:49:04.415040 15099 net.cpp:425] inception_4c/relu_5x5 <- inception_4c/5x5
I0403 17:49:04.415056 15099 net.cpp:386] inception_4c/relu_5x5 -> inception_4c/5x5 (in-place)
I0403 17:49:04.415336 15099 net.cpp:141] Setting up inception_4c/relu_5x5
I0403 17:49:04.415361 15099 net.cpp:148] Top shape: 24 64 14 14 (301056)
I0403 17:49:04.415376 15099 net.cpp:156] Memory required for data: 1050971424
I0403 17:49:04.415391 15099 layer_factory.hpp:77] Creating layer inception_4c/pool
I0403 17:49:04.415410 15099 net.cpp:91] Creating Layer inception_4c/pool
I0403 17:49:04.415428 15099 net.cpp:425] inception_4c/pool <- inception_4b/output_inception_4b/output_0_split_3
I0403 17:49:04.415446 15099 net.cpp:399] inception_4c/pool -> inception_4c/pool
I0403 17:49:04.415511 15099 net.cpp:141] Setting up inception_4c/pool
I0403 17:49:04.415534 15099 net.cpp:148] Top shape: 24 512 14 14 (2408448)
I0403 17:49:04.415549 15099 net.cpp:156] Memory required for data: 1060605216
I0403 17:49:04.415562 15099 layer_factory.hpp:77] Creating layer inception_4c/pool_proj
I0403 17:49:04.415583 15099 net.cpp:91] Creating Layer inception_4c/pool_proj
I0403 17:49:04.415601 15099 net.cpp:425] inception_4c/pool_proj <- inception_4c/pool
I0403 17:49:04.415622 15099 net.cpp:399] inception_4c/pool_proj -> inception_4c/pool_proj
I0403 17:49:04.416810 15099 net.cpp:141] Setting up inception_4c/pool_proj
I0403 17:49:04.416838 15099 net.cpp:148] Top shape: 24 64 14 14 (301056)
I0403 17:49:04.416867 15099 net.cpp:156] Memory required for data: 1061809440
I0403 17:49:04.416887 15099 layer_factory.hpp:77] Creating layer inception_4c/relu_pool_proj
I0403 17:49:04.416905 15099 net.cpp:91] Creating Layer inception_4c/relu_pool_proj
I0403 17:49:04.416924 15099 net.cpp:425] inception_4c/relu_pool_proj <- inception_4c/pool_proj
I0403 17:49:04.416942 15099 net.cpp:386] inception_4c/relu_pool_proj -> inception_4c/pool_proj (in-place)
I0403 17:49:04.417126 15099 net.cpp:141] Setting up inception_4c/relu_pool_proj
I0403 17:49:04.417151 15099 net.cpp:148] Top shape: 24 64 14 14 (301056)
I0403 17:49:04.417165 15099 net.cpp:156] Memory required for data: 1063013664
I0403 17:49:04.417181 15099 layer_factory.hpp:77] Creating layer inception_4c/output
I0403 17:49:04.417201 15099 net.cpp:91] Creating Layer inception_4c/output
I0403 17:49:04.417217 15099 net.cpp:425] inception_4c/output <- inception_4c/1x1
I0403 17:49:04.417233 15099 net.cpp:425] inception_4c/output <- inception_4c/3x3
I0403 17:49:04.417249 15099 net.cpp:425] inception_4c/output <- inception_4c/5x5
I0403 17:49:04.417264 15099 net.cpp:425] inception_4c/output <- inception_4c/pool_proj
I0403 17:49:04.417281 15099 net.cpp:399] inception_4c/output -> inception_4c/output
I0403 17:49:04.417327 15099 net.cpp:141] Setting up inception_4c/output
I0403 17:49:04.417349 15099 net.cpp:148] Top shape: 24 512 14 14 (2408448)
I0403 17:49:04.417364 15099 net.cpp:156] Memory required for data: 1072647456
I0403 17:49:04.417378 15099 layer_factory.hpp:77] Creating layer inception_4c/output_inception_4c/output_0_split
I0403 17:49:04.417395 15099 net.cpp:91] Creating Layer inception_4c/output_inception_4c/output_0_split
I0403 17:49:04.417410 15099 net.cpp:425] inception_4c/output_inception_4c/output_0_split <- inception_4c/output
I0403 17:49:04.417429 15099 net.cpp:399] inception_4c/output_inception_4c/output_0_split -> inception_4c/output_inception_4c/output_0_split_0
I0403 17:49:04.417450 15099 net.cpp:399] inception_4c/output_inception_4c/output_0_split -> inception_4c/output_inception_4c/output_0_split_1
I0403 17:49:04.417469 15099 net.cpp:399] inception_4c/output_inception_4c/output_0_split -> inception_4c/output_inception_4c/output_0_split_2
I0403 17:49:04.417490 15099 net.cpp:399] inception_4c/output_inception_4c/output_0_split -> inception_4c/output_inception_4c/output_0_split_3
I0403 17:49:04.417573 15099 net.cpp:141] Setting up inception_4c/output_inception_4c/output_0_split
I0403 17:49:04.417598 15099 net.cpp:148] Top shape: 24 512 14 14 (2408448)
I0403 17:49:04.417614 15099 net.cpp:148] Top shape: 24 512 14 14 (2408448)
I0403 17:49:04.417629 15099 net.cpp:148] Top shape: 24 512 14 14 (2408448)
I0403 17:49:04.417644 15099 net.cpp:148] Top shape: 24 512 14 14 (2408448)
I0403 17:49:04.417659 15099 net.cpp:156] Memory required for data: 1111182624
I0403 17:49:04.417672 15099 layer_factory.hpp:77] Creating layer inception_4d/1x1
I0403 17:49:04.417693 15099 net.cpp:91] Creating Layer inception_4d/1x1
I0403 17:49:04.417711 15099 net.cpp:425] inception_4d/1x1 <- inception_4c/output_inception_4c/output_0_split_0
I0403 17:49:04.417731 15099 net.cpp:399] inception_4d/1x1 -> inception_4d/1x1
I0403 17:49:04.419083 15099 net.cpp:141] Setting up inception_4d/1x1
I0403 17:49:04.419114 15099 net.cpp:148] Top shape: 24 112 14 14 (526848)
I0403 17:49:04.419131 15099 net.cpp:156] Memory required for data: 1113290016
I0403 17:49:04.419149 15099 layer_factory.hpp:77] Creating layer inception_4d/relu_1x1
I0403 17:49:04.419167 15099 net.cpp:91] Creating Layer inception_4d/relu_1x1
I0403 17:49:04.419183 15099 net.cpp:425] inception_4d/relu_1x1 <- inception_4d/1x1
I0403 17:49:04.419203 15099 net.cpp:386] inception_4d/relu_1x1 -> inception_4d/1x1 (in-place)
I0403 17:49:04.419384 15099 net.cpp:141] Setting up inception_4d/relu_1x1
I0403 17:49:04.419407 15099 net.cpp:148] Top shape: 24 112 14 14 (526848)
I0403 17:49:04.419423 15099 net.cpp:156] Memory required for data: 1115397408
I0403 17:49:04.419438 15099 layer_factory.hpp:77] Creating layer inception_4d/3x3_reduce
I0403 17:49:04.419473 15099 net.cpp:91] Creating Layer inception_4d/3x3_reduce
I0403 17:49:04.419492 15099 net.cpp:425] inception_4d/3x3_reduce <- inception_4c/output_inception_4c/output_0_split_1
I0403 17:49:04.419513 15099 net.cpp:399] inception_4d/3x3_reduce -> inception_4d/3x3_reduce
I0403 17:49:04.421027 15099 net.cpp:141] Setting up inception_4d/3x3_reduce
I0403 17:49:04.421054 15099 net.cpp:148] Top shape: 24 144 14 14 (677376)
I0403 17:49:04.421072 15099 net.cpp:156] Memory required for data: 1118106912
I0403 17:49:04.421092 15099 layer_factory.hpp:77] Creating layer inception_4d/relu_3x3_reduce
I0403 17:49:04.421110 15099 net.cpp:91] Creating Layer inception_4d/relu_3x3_reduce
I0403 17:49:04.421126 15099 net.cpp:425] inception_4d/relu_3x3_reduce <- inception_4d/3x3_reduce
I0403 17:49:04.421144 15099 net.cpp:386] inception_4d/relu_3x3_reduce -> inception_4d/3x3_reduce (in-place)
I0403 17:49:04.421429 15099 net.cpp:141] Setting up inception_4d/relu_3x3_reduce
I0403 17:49:04.421455 15099 net.cpp:148] Top shape: 24 144 14 14 (677376)
I0403 17:49:04.421473 15099 net.cpp:156] Memory required for data: 1120816416
I0403 17:49:04.421488 15099 layer_factory.hpp:77] Creating layer inception_4d/3x3
I0403 17:49:04.421507 15099 net.cpp:91] Creating Layer inception_4d/3x3
I0403 17:49:04.421525 15099 net.cpp:425] inception_4d/3x3 <- inception_4d/3x3_reduce
I0403 17:49:04.421545 15099 net.cpp:399] inception_4d/3x3 -> inception_4d/3x3
I0403 17:49:04.425674 15099 net.cpp:141] Setting up inception_4d/3x3
I0403 17:49:04.425704 15099 net.cpp:148] Top shape: 24 288 14 14 (1354752)
I0403 17:49:04.425720 15099 net.cpp:156] Memory required for data: 1126235424
I0403 17:49:04.425740 15099 layer_factory.hpp:77] Creating layer inception_4d/relu_3x3
I0403 17:49:04.425756 15099 net.cpp:91] Creating Layer inception_4d/relu_3x3
I0403 17:49:04.425773 15099 net.cpp:425] inception_4d/relu_3x3 <- inception_4d/3x3
I0403 17:49:04.425792 15099 net.cpp:386] inception_4d/relu_3x3 -> inception_4d/3x3 (in-place)
I0403 17:49:04.425973 15099 net.cpp:141] Setting up inception_4d/relu_3x3
I0403 17:49:04.426002 15099 net.cpp:148] Top shape: 24 288 14 14 (1354752)
I0403 17:49:04.426017 15099 net.cpp:156] Memory required for data: 1131654432
I0403 17:49:04.426031 15099 layer_factory.hpp:77] Creating layer inception_4d/5x5_reduce
I0403 17:49:04.426053 15099 net.cpp:91] Creating Layer inception_4d/5x5_reduce
I0403 17:49:04.426070 15099 net.cpp:425] inception_4d/5x5_reduce <- inception_4c/output_inception_4c/output_0_split_2
I0403 17:49:04.426092 15099 net.cpp:399] inception_4d/5x5_reduce -> inception_4d/5x5_reduce
I0403 17:49:04.427211 15099 net.cpp:141] Setting up inception_4d/5x5_reduce
I0403 17:49:04.427240 15099 net.cpp:148] Top shape: 24 32 14 14 (150528)
I0403 17:49:04.427258 15099 net.cpp:156] Memory required for data: 1132256544
I0403 17:49:04.427276 15099 layer_factory.hpp:77] Creating layer inception_4d/relu_5x5_reduce
I0403 17:49:04.427294 15099 net.cpp:91] Creating Layer inception_4d/relu_5x5_reduce
I0403 17:49:04.427310 15099 net.cpp:425] inception_4d/relu_5x5_reduce <- inception_4d/5x5_reduce
I0403 17:49:04.427330 15099 net.cpp:386] inception_4d/relu_5x5_reduce -> inception_4d/5x5_reduce (in-place)
I0403 17:49:04.427512 15099 net.cpp:141] Setting up inception_4d/relu_5x5_reduce
I0403 17:49:04.427536 15099 net.cpp:148] Top shape: 24 32 14 14 (150528)
I0403 17:49:04.427552 15099 net.cpp:156] Memory required for data: 1132858656
I0403 17:49:04.427567 15099 layer_factory.hpp:77] Creating layer inception_4d/5x5
I0403 17:49:04.427588 15099 net.cpp:91] Creating Layer inception_4d/5x5
I0403 17:49:04.427606 15099 net.cpp:425] inception_4d/5x5 <- inception_4d/5x5_reduce
I0403 17:49:04.427628 15099 net.cpp:399] inception_4d/5x5 -> inception_4d/5x5
I0403 17:49:04.429077 15099 net.cpp:141] Setting up inception_4d/5x5
I0403 17:49:04.429105 15099 net.cpp:148] Top shape: 24 64 14 14 (301056)
I0403 17:49:04.429121 15099 net.cpp:156] Memory required for data: 1134062880
I0403 17:49:04.429138 15099 layer_factory.hpp:77] Creating layer inception_4d/relu_5x5
I0403 17:49:04.429172 15099 net.cpp:91] Creating Layer inception_4d/relu_5x5
I0403 17:49:04.429190 15099 net.cpp:425] inception_4d/relu_5x5 <- inception_4d/5x5
I0403 17:49:04.429208 15099 net.cpp:386] inception_4d/relu_5x5 -> inception_4d/5x5 (in-place)
I0403 17:49:04.429503 15099 net.cpp:141] Setting up inception_4d/relu_5x5
I0403 17:49:04.429528 15099 net.cpp:148] Top shape: 24 64 14 14 (301056)
I0403 17:49:04.429544 15099 net.cpp:156] Memory required for data: 1135267104
I0403 17:49:04.429559 15099 layer_factory.hpp:77] Creating layer inception_4d/pool
I0403 17:49:04.429579 15099 net.cpp:91] Creating Layer inception_4d/pool
I0403 17:49:04.429596 15099 net.cpp:425] inception_4d/pool <- inception_4c/output_inception_4c/output_0_split_3
I0403 17:49:04.429615 15099 net.cpp:399] inception_4d/pool -> inception_4d/pool
I0403 17:49:04.429682 15099 net.cpp:141] Setting up inception_4d/pool
I0403 17:49:04.429704 15099 net.cpp:148] Top shape: 24 512 14 14 (2408448)
I0403 17:49:04.429719 15099 net.cpp:156] Memory required for data: 1144900896
I0403 17:49:04.429733 15099 layer_factory.hpp:77] Creating layer inception_4d/pool_proj
I0403 17:49:04.429755 15099 net.cpp:91] Creating Layer inception_4d/pool_proj
I0403 17:49:04.429774 15099 net.cpp:425] inception_4d/pool_proj <- inception_4d/pool
I0403 17:49:04.429795 15099 net.cpp:399] inception_4d/pool_proj -> inception_4d/pool_proj
I0403 17:49:04.431511 15099 net.cpp:141] Setting up inception_4d/pool_proj
I0403 17:49:04.431540 15099 net.cpp:148] Top shape: 24 64 14 14 (301056)
I0403 17:49:04.431555 15099 net.cpp:156] Memory required for data: 1146105120
I0403 17:49:04.431573 15099 layer_factory.hpp:77] Creating layer inception_4d/relu_pool_proj
I0403 17:49:04.431592 15099 net.cpp:91] Creating Layer inception_4d/relu_pool_proj
I0403 17:49:04.431608 15099 net.cpp:425] inception_4d/relu_pool_proj <- inception_4d/pool_proj
I0403 17:49:04.431628 15099 net.cpp:386] inception_4d/relu_pool_proj -> inception_4d/pool_proj (in-place)
I0403 17:49:04.431813 15099 net.cpp:141] Setting up inception_4d/relu_pool_proj
I0403 17:49:04.431836 15099 net.cpp:148] Top shape: 24 64 14 14 (301056)
I0403 17:49:04.431851 15099 net.cpp:156] Memory required for data: 1147309344
I0403 17:49:04.431866 15099 layer_factory.hpp:77] Creating layer inception_4d/output
I0403 17:49:04.431884 15099 net.cpp:91] Creating Layer inception_4d/output
I0403 17:49:04.431898 15099 net.cpp:425] inception_4d/output <- inception_4d/1x1
I0403 17:49:04.431915 15099 net.cpp:425] inception_4d/output <- inception_4d/3x3
I0403 17:49:04.431936 15099 net.cpp:425] inception_4d/output <- inception_4d/5x5
I0403 17:49:04.431951 15099 net.cpp:425] inception_4d/output <- inception_4d/pool_proj
I0403 17:49:04.431968 15099 net.cpp:399] inception_4d/output -> inception_4d/output
I0403 17:49:04.432018 15099 net.cpp:141] Setting up inception_4d/output
I0403 17:49:04.432044 15099 net.cpp:148] Top shape: 24 528 14 14 (2483712)
I0403 17:49:04.432060 15099 net.cpp:156] Memory required for data: 1157244192
I0403 17:49:04.432073 15099 layer_factory.hpp:77] Creating layer inception_4d/output_inception_4d/output_0_split
I0403 17:49:04.432091 15099 net.cpp:91] Creating Layer inception_4d/output_inception_4d/output_0_split
I0403 17:49:04.432107 15099 net.cpp:425] inception_4d/output_inception_4d/output_0_split <- inception_4d/output
I0403 17:49:04.432128 15099 net.cpp:399] inception_4d/output_inception_4d/output_0_split -> inception_4d/output_inception_4d/output_0_split_0
I0403 17:49:04.432149 15099 net.cpp:399] inception_4d/output_inception_4d/output_0_split -> inception_4d/output_inception_4d/output_0_split_1
I0403 17:49:04.432169 15099 net.cpp:399] inception_4d/output_inception_4d/output_0_split -> inception_4d/output_inception_4d/output_0_split_2
I0403 17:49:04.432190 15099 net.cpp:399] inception_4d/output_inception_4d/output_0_split -> inception_4d/output_inception_4d/output_0_split_3
I0403 17:49:04.432210 15099 net.cpp:399] inception_4d/output_inception_4d/output_0_split -> inception_4d/output_inception_4d/output_0_split_4
I0403 17:49:04.432309 15099 net.cpp:141] Setting up inception_4d/output_inception_4d/output_0_split
I0403 17:49:04.432344 15099 net.cpp:148] Top shape: 24 528 14 14 (2483712)
I0403 17:49:04.432363 15099 net.cpp:148] Top shape: 24 528 14 14 (2483712)
I0403 17:49:04.432380 15099 net.cpp:148] Top shape: 24 528 14 14 (2483712)
I0403 17:49:04.432396 15099 net.cpp:148] Top shape: 24 528 14 14 (2483712)
I0403 17:49:04.432411 15099 net.cpp:148] Top shape: 24 528 14 14 (2483712)
I0403 17:49:04.432425 15099 net.cpp:156] Memory required for data: 1206918432
I0403 17:49:04.432440 15099 layer_factory.hpp:77] Creating layer loss2/ave_pool
I0403 17:49:04.432456 15099 net.cpp:91] Creating Layer loss2/ave_pool
I0403 17:49:04.432472 15099 net.cpp:425] loss2/ave_pool <- inception_4d/output_inception_4d/output_0_split_0
I0403 17:49:04.432493 15099 net.cpp:399] loss2/ave_pool -> loss2/ave_pool
I0403 17:49:04.432798 15099 net.cpp:141] Setting up loss2/ave_pool
I0403 17:49:04.432824 15099 net.cpp:148] Top shape: 24 528 4 4 (202752)
I0403 17:49:04.432839 15099 net.cpp:156] Memory required for data: 1207729440
I0403 17:49:04.432854 15099 layer_factory.hpp:77] Creating layer loss2/conv
I0403 17:49:04.432876 15099 net.cpp:91] Creating Layer loss2/conv
I0403 17:49:04.432893 15099 net.cpp:425] loss2/conv <- loss2/ave_pool
I0403 17:49:04.432914 15099 net.cpp:399] loss2/conv -> loss2/conv
I0403 17:49:04.434769 15099 net.cpp:141] Setting up loss2/conv
I0403 17:49:04.434797 15099 net.cpp:148] Top shape: 24 128 4 4 (49152)
I0403 17:49:04.434813 15099 net.cpp:156] Memory required for data: 1207926048
I0403 17:49:04.434831 15099 layer_factory.hpp:77] Creating layer loss2/relu_conv
I0403 17:49:04.434850 15099 net.cpp:91] Creating Layer loss2/relu_conv
I0403 17:49:04.434867 15099 net.cpp:425] loss2/relu_conv <- loss2/conv
I0403 17:49:04.434885 15099 net.cpp:386] loss2/relu_conv -> loss2/conv (in-place)
I0403 17:49:04.435168 15099 net.cpp:141] Setting up loss2/relu_conv
I0403 17:49:04.435192 15099 net.cpp:148] Top shape: 24 128 4 4 (49152)
I0403 17:49:04.435209 15099 net.cpp:156] Memory required for data: 1208122656
I0403 17:49:04.435223 15099 layer_factory.hpp:77] Creating layer loss2/fc
I0403 17:49:04.435243 15099 net.cpp:91] Creating Layer loss2/fc
I0403 17:49:04.435261 15099 net.cpp:425] loss2/fc <- loss2/conv
I0403 17:49:04.435281 15099 net.cpp:399] loss2/fc -> loss2/fc
I0403 17:49:04.452517 15099 net.cpp:141] Setting up loss2/fc
I0403 17:49:04.452550 15099 net.cpp:148] Top shape: 24 1024 (24576)
I0403 17:49:04.452566 15099 net.cpp:156] Memory required for data: 1208220960
I0403 17:49:04.452585 15099 layer_factory.hpp:77] Creating layer loss2/relu_fc
I0403 17:49:04.452603 15099 net.cpp:91] Creating Layer loss2/relu_fc
I0403 17:49:04.452620 15099 net.cpp:425] loss2/relu_fc <- loss2/fc
I0403 17:49:04.452639 15099 net.cpp:386] loss2/relu_fc -> loss2/fc (in-place)
I0403 17:49:04.452929 15099 net.cpp:141] Setting up loss2/relu_fc
I0403 17:49:04.452955 15099 net.cpp:148] Top shape: 24 1024 (24576)
I0403 17:49:04.452968 15099 net.cpp:156] Memory required for data: 1208319264
I0403 17:49:04.452988 15099 layer_factory.hpp:77] Creating layer loss2/drop_fc
I0403 17:49:04.453006 15099 net.cpp:91] Creating Layer loss2/drop_fc
I0403 17:49:04.453022 15099 net.cpp:425] loss2/drop_fc <- loss2/fc
I0403 17:49:04.453042 15099 net.cpp:386] loss2/drop_fc -> loss2/fc (in-place)
I0403 17:49:04.453090 15099 net.cpp:141] Setting up loss2/drop_fc
I0403 17:49:04.453112 15099 net.cpp:148] Top shape: 24 1024 (24576)
I0403 17:49:04.453126 15099 net.cpp:156] Memory required for data: 1208417568
I0403 17:49:04.453141 15099 layer_factory.hpp:77] Creating layer loss2/classifier_plantvillage
I0403 17:49:04.453162 15099 net.cpp:91] Creating Layer loss2/classifier_plantvillage
I0403 17:49:04.453179 15099 net.cpp:425] loss2/classifier_plantvillage <- loss2/fc
I0403 17:49:04.453200 15099 net.cpp:399] loss2/classifier_plantvillage -> loss2/classifier_plantvillage
I0403 17:49:04.453593 15099 net.cpp:141] Setting up loss2/classifier_plantvillage
I0403 17:49:04.453619 15099 net.cpp:148] Top shape: 24 38 (912)
I0403 17:49:04.453649 15099 net.cpp:156] Memory required for data: 1208421216
I0403 17:49:04.453667 15099 layer_factory.hpp:77] Creating layer loss2/classifier_plantvillage_loss2/classifier_plantvillage_0_split
I0403 17:49:04.453685 15099 net.cpp:91] Creating Layer loss2/classifier_plantvillage_loss2/classifier_plantvillage_0_split
I0403 17:49:04.453702 15099 net.cpp:425] loss2/classifier_plantvillage_loss2/classifier_plantvillage_0_split <- loss2/classifier_plantvillage
I0403 17:49:04.453719 15099 net.cpp:399] loss2/classifier_plantvillage_loss2/classifier_plantvillage_0_split -> loss2/classifier_plantvillage_loss2/classifier_plantvillage_0_split_0
I0403 17:49:04.453739 15099 net.cpp:399] loss2/classifier_plantvillage_loss2/classifier_plantvillage_0_split -> loss2/classifier_plantvillage_loss2/classifier_plantvillage_0_split_1
I0403 17:49:04.453759 15099 net.cpp:399] loss2/classifier_plantvillage_loss2/classifier_plantvillage_0_split -> loss2/classifier_plantvillage_loss2/classifier_plantvillage_0_split_2
I0403 17:49:04.453835 15099 net.cpp:141] Setting up loss2/classifier_plantvillage_loss2/classifier_plantvillage_0_split
I0403 17:49:04.453856 15099 net.cpp:148] Top shape: 24 38 (912)
I0403 17:49:04.453872 15099 net.cpp:148] Top shape: 24 38 (912)
I0403 17:49:04.453887 15099 net.cpp:148] Top shape: 24 38 (912)
I0403 17:49:04.453901 15099 net.cpp:156] Memory required for data: 1208432160
I0403 17:49:04.453913 15099 layer_factory.hpp:77] Creating layer inception_4e/1x1
I0403 17:49:04.453933 15099 net.cpp:91] Creating Layer inception_4e/1x1
I0403 17:49:04.453950 15099 net.cpp:425] inception_4e/1x1 <- inception_4d/output_inception_4d/output_0_split_1
I0403 17:49:04.453971 15099 net.cpp:399] inception_4e/1x1 -> inception_4e/1x1
I0403 17:49:04.455746 15099 net.cpp:141] Setting up inception_4e/1x1
I0403 17:49:04.455773 15099 net.cpp:148] Top shape: 24 256 14 14 (1204224)
I0403 17:49:04.455788 15099 net.cpp:156] Memory required for data: 1213249056
I0403 17:49:04.455806 15099 layer_factory.hpp:77] Creating layer inception_4e/relu_1x1
I0403 17:49:04.455826 15099 net.cpp:91] Creating Layer inception_4e/relu_1x1
I0403 17:49:04.455843 15099 net.cpp:425] inception_4e/relu_1x1 <- inception_4e/1x1
I0403 17:49:04.455860 15099 net.cpp:386] inception_4e/relu_1x1 -> inception_4e/1x1 (in-place)
I0403 17:49:04.456153 15099 net.cpp:141] Setting up inception_4e/relu_1x1
I0403 17:49:04.456178 15099 net.cpp:148] Top shape: 24 256 14 14 (1204224)
I0403 17:49:04.456193 15099 net.cpp:156] Memory required for data: 1218065952
I0403 17:49:04.456208 15099 layer_factory.hpp:77] Creating layer inception_4e/3x3_reduce
I0403 17:49:04.456230 15099 net.cpp:91] Creating Layer inception_4e/3x3_reduce
I0403 17:49:04.456248 15099 net.cpp:425] inception_4e/3x3_reduce <- inception_4d/output_inception_4d/output_0_split_2
I0403 17:49:04.456269 15099 net.cpp:399] inception_4e/3x3_reduce -> inception_4e/3x3_reduce
I0403 17:49:04.458340 15099 net.cpp:141] Setting up inception_4e/3x3_reduce
I0403 17:49:04.458369 15099 net.cpp:148] Top shape: 24 160 14 14 (752640)
I0403 17:49:04.458384 15099 net.cpp:156] Memory required for data: 1221076512
I0403 17:49:04.458401 15099 layer_factory.hpp:77] Creating layer inception_4e/relu_3x3_reduce
I0403 17:49:04.458422 15099 net.cpp:91] Creating Layer inception_4e/relu_3x3_reduce
I0403 17:49:04.458439 15099 net.cpp:425] inception_4e/relu_3x3_reduce <- inception_4e/3x3_reduce
I0403 17:49:04.458456 15099 net.cpp:386] inception_4e/relu_3x3_reduce -> inception_4e/3x3_reduce (in-place)
I0403 17:49:04.458641 15099 net.cpp:141] Setting up inception_4e/relu_3x3_reduce
I0403 17:49:04.458664 15099 net.cpp:148] Top shape: 24 160 14 14 (752640)
I0403 17:49:04.458678 15099 net.cpp:156] Memory required for data: 1224087072
I0403 17:49:04.458693 15099 layer_factory.hpp:77] Creating layer inception_4e/3x3
I0403 17:49:04.458716 15099 net.cpp:91] Creating Layer inception_4e/3x3
I0403 17:49:04.458734 15099 net.cpp:425] inception_4e/3x3 <- inception_4e/3x3_reduce
I0403 17:49:04.458752 15099 net.cpp:399] inception_4e/3x3 -> inception_4e/3x3
I0403 17:49:04.463640 15099 net.cpp:141] Setting up inception_4e/3x3
I0403 17:49:04.463681 15099 net.cpp:148] Top shape: 24 320 14 14 (1505280)
I0403 17:49:04.463697 15099 net.cpp:156] Memory required for data: 1230108192
I0403 17:49:04.463716 15099 layer_factory.hpp:77] Creating layer inception_4e/relu_3x3
I0403 17:49:04.463735 15099 net.cpp:91] Creating Layer inception_4e/relu_3x3
I0403 17:49:04.463752 15099 net.cpp:425] inception_4e/relu_3x3 <- inception_4e/3x3
I0403 17:49:04.463768 15099 net.cpp:386] inception_4e/relu_3x3 -> inception_4e/3x3 (in-place)
I0403 17:49:04.464068 15099 net.cpp:141] Setting up inception_4e/relu_3x3
I0403 17:49:04.464095 15099 net.cpp:148] Top shape: 24 320 14 14 (1505280)
I0403 17:49:04.464112 15099 net.cpp:156] Memory required for data: 1236129312
I0403 17:49:04.464126 15099 layer_factory.hpp:77] Creating layer inception_4e/5x5_reduce
I0403 17:49:04.464148 15099 net.cpp:91] Creating Layer inception_4e/5x5_reduce
I0403 17:49:04.464166 15099 net.cpp:425] inception_4e/5x5_reduce <- inception_4d/output_inception_4d/output_0_split_3
I0403 17:49:04.464185 15099 net.cpp:399] inception_4e/5x5_reduce -> inception_4e/5x5_reduce
I0403 17:49:04.465250 15099 net.cpp:141] Setting up inception_4e/5x5_reduce
I0403 17:49:04.465277 15099 net.cpp:148] Top shape: 24 32 14 14 (150528)
I0403 17:49:04.465293 15099 net.cpp:156] Memory required for data: 1236731424
I0403 17:49:04.465312 15099 layer_factory.hpp:77] Creating layer inception_4e/relu_5x5_reduce
I0403 17:49:04.465333 15099 net.cpp:91] Creating Layer inception_4e/relu_5x5_reduce
I0403 17:49:04.465350 15099 net.cpp:425] inception_4e/relu_5x5_reduce <- inception_4e/5x5_reduce
I0403 17:49:04.465368 15099 net.cpp:386] inception_4e/relu_5x5_reduce -> inception_4e/5x5_reduce (in-place)
I0403 17:49:04.465672 15099 net.cpp:141] Setting up inception_4e/relu_5x5_reduce
I0403 17:49:04.465698 15099 net.cpp:148] Top shape: 24 32 14 14 (150528)
I0403 17:49:04.465713 15099 net.cpp:156] Memory required for data: 1237333536
I0403 17:49:04.465728 15099 layer_factory.hpp:77] Creating layer inception_4e/5x5
I0403 17:49:04.465764 15099 net.cpp:91] Creating Layer inception_4e/5x5
I0403 17:49:04.465783 15099 net.cpp:425] inception_4e/5x5 <- inception_4e/5x5_reduce
I0403 17:49:04.465803 15099 net.cpp:399] inception_4e/5x5 -> inception_4e/5x5
I0403 17:49:04.467613 15099 net.cpp:141] Setting up inception_4e/5x5
I0403 17:49:04.467640 15099 net.cpp:148] Top shape: 24 128 14 14 (602112)
I0403 17:49:04.467655 15099 net.cpp:156] Memory required for data: 1239741984
I0403 17:49:04.467674 15099 layer_factory.hpp:77] Creating layer inception_4e/relu_5x5
I0403 17:49:04.467691 15099 net.cpp:91] Creating Layer inception_4e/relu_5x5
I0403 17:49:04.467707 15099 net.cpp:425] inception_4e/relu_5x5 <- inception_4e/5x5
I0403 17:49:04.467726 15099 net.cpp:386] inception_4e/relu_5x5 -> inception_4e/5x5 (in-place)
I0403 17:49:04.467921 15099 net.cpp:141] Setting up inception_4e/relu_5x5
I0403 17:49:04.467947 15099 net.cpp:148] Top shape: 24 128 14 14 (602112)
I0403 17:49:04.467960 15099 net.cpp:156] Memory required for data: 1242150432
I0403 17:49:04.467975 15099 layer_factory.hpp:77] Creating layer inception_4e/pool
I0403 17:49:04.468006 15099 net.cpp:91] Creating Layer inception_4e/pool
I0403 17:49:04.468024 15099 net.cpp:425] inception_4e/pool <- inception_4d/output_inception_4d/output_0_split_4
I0403 17:49:04.468042 15099 net.cpp:399] inception_4e/pool -> inception_4e/pool
I0403 17:49:04.468111 15099 net.cpp:141] Setting up inception_4e/pool
I0403 17:49:04.468134 15099 net.cpp:148] Top shape: 24 528 14 14 (2483712)
I0403 17:49:04.468148 15099 net.cpp:156] Memory required for data: 1252085280
I0403 17:49:04.468163 15099 layer_factory.hpp:77] Creating layer inception_4e/pool_proj
I0403 17:49:04.468184 15099 net.cpp:91] Creating Layer inception_4e/pool_proj
I0403 17:49:04.468202 15099 net.cpp:425] inception_4e/pool_proj <- inception_4e/pool
I0403 17:49:04.468224 15099 net.cpp:399] inception_4e/pool_proj -> inception_4e/pool_proj
I0403 17:49:04.469698 15099 net.cpp:141] Setting up inception_4e/pool_proj
I0403 17:49:04.469737 15099 net.cpp:148] Top shape: 24 128 14 14 (602112)
I0403 17:49:04.469753 15099 net.cpp:156] Memory required for data: 1254493728
I0403 17:49:04.469770 15099 layer_factory.hpp:77] Creating layer inception_4e/relu_pool_proj
I0403 17:49:04.469789 15099 net.cpp:91] Creating Layer inception_4e/relu_pool_proj
I0403 17:49:04.469805 15099 net.cpp:425] inception_4e/relu_pool_proj <- inception_4e/pool_proj
I0403 17:49:04.469823 15099 net.cpp:386] inception_4e/relu_pool_proj -> inception_4e/pool_proj (in-place)
I0403 17:49:04.470118 15099 net.cpp:141] Setting up inception_4e/relu_pool_proj
I0403 17:49:04.470144 15099 net.cpp:148] Top shape: 24 128 14 14 (602112)
I0403 17:49:04.470158 15099 net.cpp:156] Memory required for data: 1256902176
I0403 17:49:04.470173 15099 layer_factory.hpp:77] Creating layer inception_4e/output
I0403 17:49:04.470191 15099 net.cpp:91] Creating Layer inception_4e/output
I0403 17:49:04.470206 15099 net.cpp:425] inception_4e/output <- inception_4e/1x1
I0403 17:49:04.470221 15099 net.cpp:425] inception_4e/output <- inception_4e/3x3
I0403 17:49:04.470237 15099 net.cpp:425] inception_4e/output <- inception_4e/5x5
I0403 17:49:04.470252 15099 net.cpp:425] inception_4e/output <- inception_4e/pool_proj
I0403 17:49:04.470271 15099 net.cpp:399] inception_4e/output -> inception_4e/output
I0403 17:49:04.470319 15099 net.cpp:141] Setting up inception_4e/output
I0403 17:49:04.470345 15099 net.cpp:148] Top shape: 24 832 14 14 (3913728)
I0403 17:49:04.470360 15099 net.cpp:156] Memory required for data: 1272557088
I0403 17:49:04.470373 15099 layer_factory.hpp:77] Creating layer pool4/3x3_s2
I0403 17:49:04.470391 15099 net.cpp:91] Creating Layer pool4/3x3_s2
I0403 17:49:04.470407 15099 net.cpp:425] pool4/3x3_s2 <- inception_4e/output
I0403 17:49:04.470424 15099 net.cpp:399] pool4/3x3_s2 -> pool4/3x3_s2
I0403 17:49:04.470491 15099 net.cpp:141] Setting up pool4/3x3_s2
I0403 17:49:04.470513 15099 net.cpp:148] Top shape: 24 832 7 7 (978432)
I0403 17:49:04.470528 15099 net.cpp:156] Memory required for data: 1276470816
I0403 17:49:04.470542 15099 layer_factory.hpp:77] Creating layer pool4/3x3_s2_pool4/3x3_s2_0_split
I0403 17:49:04.470559 15099 net.cpp:91] Creating Layer pool4/3x3_s2_pool4/3x3_s2_0_split
I0403 17:49:04.470576 15099 net.cpp:425] pool4/3x3_s2_pool4/3x3_s2_0_split <- pool4/3x3_s2
I0403 17:49:04.470594 15099 net.cpp:399] pool4/3x3_s2_pool4/3x3_s2_0_split -> pool4/3x3_s2_pool4/3x3_s2_0_split_0
I0403 17:49:04.470615 15099 net.cpp:399] pool4/3x3_s2_pool4/3x3_s2_0_split -> pool4/3x3_s2_pool4/3x3_s2_0_split_1
I0403 17:49:04.470635 15099 net.cpp:399] pool4/3x3_s2_pool4/3x3_s2_0_split -> pool4/3x3_s2_pool4/3x3_s2_0_split_2
I0403 17:49:04.470655 15099 net.cpp:399] pool4/3x3_s2_pool4/3x3_s2_0_split -> pool4/3x3_s2_pool4/3x3_s2_0_split_3
I0403 17:49:04.470748 15099 net.cpp:141] Setting up pool4/3x3_s2_pool4/3x3_s2_0_split
I0403 17:49:04.470772 15099 net.cpp:148] Top shape: 24 832 7 7 (978432)
I0403 17:49:04.470788 15099 net.cpp:148] Top shape: 24 832 7 7 (978432)
I0403 17:49:04.470803 15099 net.cpp:148] Top shape: 24 832 7 7 (978432)
I0403 17:49:04.470816 15099 net.cpp:148] Top shape: 24 832 7 7 (978432)
I0403 17:49:04.470830 15099 net.cpp:156] Memory required for data: 1292125728
I0403 17:49:04.470844 15099 layer_factory.hpp:77] Creating layer inception_5a/1x1
I0403 17:49:04.470865 15099 net.cpp:91] Creating Layer inception_5a/1x1
I0403 17:49:04.470883 15099 net.cpp:425] inception_5a/1x1 <- pool4/3x3_s2_pool4/3x3_s2_0_split_0
I0403 17:49:04.470904 15099 net.cpp:399] inception_5a/1x1 -> inception_5a/1x1
I0403 17:49:04.473727 15099 net.cpp:141] Setting up inception_5a/1x1
I0403 17:49:04.473757 15099 net.cpp:148] Top shape: 24 256 7 7 (301056)
I0403 17:49:04.473772 15099 net.cpp:156] Memory required for data: 1293329952
I0403 17:49:04.473789 15099 layer_factory.hpp:77] Creating layer inception_5a/relu_1x1
I0403 17:49:04.473809 15099 net.cpp:91] Creating Layer inception_5a/relu_1x1
I0403 17:49:04.473825 15099 net.cpp:425] inception_5a/relu_1x1 <- inception_5a/1x1
I0403 17:49:04.473844 15099 net.cpp:386] inception_5a/relu_1x1 -> inception_5a/1x1 (in-place)
I0403 17:49:04.474153 15099 net.cpp:141] Setting up inception_5a/relu_1x1
I0403 17:49:04.474179 15099 net.cpp:148] Top shape: 24 256 7 7 (301056)
I0403 17:49:04.474195 15099 net.cpp:156] Memory required for data: 1294534176
I0403 17:49:04.474210 15099 layer_factory.hpp:77] Creating layer inception_5a/3x3_reduce
I0403 17:49:04.474232 15099 net.cpp:91] Creating Layer inception_5a/3x3_reduce
I0403 17:49:04.474251 15099 net.cpp:425] inception_5a/3x3_reduce <- pool4/3x3_s2_pool4/3x3_s2_0_split_1
I0403 17:49:04.474272 15099 net.cpp:399] inception_5a/3x3_reduce -> inception_5a/3x3_reduce
I0403 17:49:04.476698 15099 net.cpp:141] Setting up inception_5a/3x3_reduce
I0403 17:49:04.476730 15099 net.cpp:148] Top shape: 24 160 7 7 (188160)
I0403 17:49:04.476747 15099 net.cpp:156] Memory required for data: 1295286816
I0403 17:49:04.476765 15099 layer_factory.hpp:77] Creating layer inception_5a/relu_3x3_reduce
I0403 17:49:04.476783 15099 net.cpp:91] Creating Layer inception_5a/relu_3x3_reduce
I0403 17:49:04.476800 15099 net.cpp:425] inception_5a/relu_3x3_reduce <- inception_5a/3x3_reduce
I0403 17:49:04.476817 15099 net.cpp:386] inception_5a/relu_3x3_reduce -> inception_5a/3x3_reduce (in-place)
I0403 17:49:04.477007 15099 net.cpp:141] Setting up inception_5a/relu_3x3_reduce
I0403 17:49:04.477032 15099 net.cpp:148] Top shape: 24 160 7 7 (188160)
I0403 17:49:04.477047 15099 net.cpp:156] Memory required for data: 1296039456
I0403 17:49:04.477062 15099 layer_factory.hpp:77] Creating layer inception_5a/3x3
I0403 17:49:04.477083 15099 net.cpp:91] Creating Layer inception_5a/3x3
I0403 17:49:04.477102 15099 net.cpp:425] inception_5a/3x3 <- inception_5a/3x3_reduce
I0403 17:49:04.477123 15099 net.cpp:399] inception_5a/3x3 -> inception_5a/3x3
I0403 17:49:04.482065 15099 net.cpp:141] Setting up inception_5a/3x3
I0403 17:49:04.482095 15099 net.cpp:148] Top shape: 24 320 7 7 (376320)
I0403 17:49:04.482111 15099 net.cpp:156] Memory required for data: 1297544736
I0403 17:49:04.482130 15099 layer_factory.hpp:77] Creating layer inception_5a/relu_3x3
I0403 17:49:04.482147 15099 net.cpp:91] Creating Layer inception_5a/relu_3x3
I0403 17:49:04.482163 15099 net.cpp:425] inception_5a/relu_3x3 <- inception_5a/3x3
I0403 17:49:04.482183 15099 net.cpp:386] inception_5a/relu_3x3 -> inception_5a/3x3 (in-place)
I0403 17:49:04.482475 15099 net.cpp:141] Setting up inception_5a/relu_3x3
I0403 17:49:04.482501 15099 net.cpp:148] Top shape: 24 320 7 7 (376320)
I0403 17:49:04.482516 15099 net.cpp:156] Memory required for data: 1299050016
I0403 17:49:04.482530 15099 layer_factory.hpp:77] Creating layer inception_5a/5x5_reduce
I0403 17:49:04.482553 15099 net.cpp:91] Creating Layer inception_5a/5x5_reduce
I0403 17:49:04.482571 15099 net.cpp:425] inception_5a/5x5_reduce <- pool4/3x3_s2_pool4/3x3_s2_0_split_2
I0403 17:49:04.482594 15099 net.cpp:399] inception_5a/5x5_reduce -> inception_5a/5x5_reduce
I0403 17:49:04.483748 15099 net.cpp:141] Setting up inception_5a/5x5_reduce
I0403 17:49:04.483778 15099 net.cpp:148] Top shape: 24 32 7 7 (37632)
I0403 17:49:04.483794 15099 net.cpp:156] Memory required for data: 1299200544
I0403 17:49:04.483814 15099 layer_factory.hpp:77] Creating layer inception_5a/relu_5x5_reduce
I0403 17:49:04.483831 15099 net.cpp:91] Creating Layer inception_5a/relu_5x5_reduce
I0403 17:49:04.483849 15099 net.cpp:425] inception_5a/relu_5x5_reduce <- inception_5a/5x5_reduce
I0403 17:49:04.483866 15099 net.cpp:386] inception_5a/relu_5x5_reduce -> inception_5a/5x5_reduce (in-place)
I0403 17:49:04.484168 15099 net.cpp:141] Setting up inception_5a/relu_5x5_reduce
I0403 17:49:04.484192 15099 net.cpp:148] Top shape: 24 32 7 7 (37632)
I0403 17:49:04.484207 15099 net.cpp:156] Memory required for data: 1299351072
I0403 17:49:04.484222 15099 layer_factory.hpp:77] Creating layer inception_5a/5x5
I0403 17:49:04.484246 15099 net.cpp:91] Creating Layer inception_5a/5x5
I0403 17:49:04.484263 15099 net.cpp:425] inception_5a/5x5 <- inception_5a/5x5_reduce
I0403 17:49:04.484285 15099 net.cpp:399] inception_5a/5x5 -> inception_5a/5x5
I0403 17:49:04.485986 15099 net.cpp:141] Setting up inception_5a/5x5
I0403 17:49:04.486027 15099 net.cpp:148] Top shape: 24 128 7 7 (150528)
I0403 17:49:04.486043 15099 net.cpp:156] Memory required for data: 1299953184
I0403 17:49:04.486062 15099 layer_factory.hpp:77] Creating layer inception_5a/relu_5x5
I0403 17:49:04.486079 15099 net.cpp:91] Creating Layer inception_5a/relu_5x5
I0403 17:49:04.486096 15099 net.cpp:425] inception_5a/relu_5x5 <- inception_5a/5x5
I0403 17:49:04.486116 15099 net.cpp:386] inception_5a/relu_5x5 -> inception_5a/5x5 (in-place)
I0403 17:49:04.486304 15099 net.cpp:141] Setting up inception_5a/relu_5x5
I0403 17:49:04.486330 15099 net.cpp:148] Top shape: 24 128 7 7 (150528)
I0403 17:49:04.486343 15099 net.cpp:156] Memory required for data: 1300555296
I0403 17:49:04.486358 15099 layer_factory.hpp:77] Creating layer inception_5a/pool
I0403 17:49:04.486378 15099 net.cpp:91] Creating Layer inception_5a/pool
I0403 17:49:04.486395 15099 net.cpp:425] inception_5a/pool <- pool4/3x3_s2_pool4/3x3_s2_0_split_3
I0403 17:49:04.486413 15099 net.cpp:399] inception_5a/pool -> inception_5a/pool
I0403 17:49:04.486484 15099 net.cpp:141] Setting up inception_5a/pool
I0403 17:49:04.486505 15099 net.cpp:148] Top shape: 24 832 7 7 (978432)
I0403 17:49:04.486521 15099 net.cpp:156] Memory required for data: 1304469024
I0403 17:49:04.486536 15099 layer_factory.hpp:77] Creating layer inception_5a/pool_proj
I0403 17:49:04.486557 15099 net.cpp:91] Creating Layer inception_5a/pool_proj
I0403 17:49:04.486574 15099 net.cpp:425] inception_5a/pool_proj <- inception_5a/pool
I0403 17:49:04.486595 15099 net.cpp:399] inception_5a/pool_proj -> inception_5a/pool_proj
I0403 17:49:04.488880 15099 net.cpp:141] Setting up inception_5a/pool_proj
I0403 17:49:04.488910 15099 net.cpp:148] Top shape: 24 128 7 7 (150528)
I0403 17:49:04.488929 15099 net.cpp:156] Memory required for data: 1305071136
I0403 17:49:04.488947 15099 layer_factory.hpp:77] Creating layer inception_5a/relu_pool_proj
I0403 17:49:04.488965 15099 net.cpp:91] Creating Layer inception_5a/relu_pool_proj
I0403 17:49:04.488984 15099 net.cpp:425] inception_5a/relu_pool_proj <- inception_5a/pool_proj
I0403 17:49:04.489006 15099 net.cpp:386] inception_5a/relu_pool_proj -> inception_5a/pool_proj (in-place)
I0403 17:49:04.489300 15099 net.cpp:141] Setting up inception_5a/relu_pool_proj
I0403 17:49:04.489327 15099 net.cpp:148] Top shape: 24 128 7 7 (150528)
I0403 17:49:04.489343 15099 net.cpp:156] Memory required for data: 1305673248
I0403 17:49:04.489358 15099 layer_factory.hpp:77] Creating layer inception_5a/output
I0403 17:49:04.489375 15099 net.cpp:91] Creating Layer inception_5a/output
I0403 17:49:04.489392 15099 net.cpp:425] inception_5a/output <- inception_5a/1x1
I0403 17:49:04.489408 15099 net.cpp:425] inception_5a/output <- inception_5a/3x3
I0403 17:49:04.489424 15099 net.cpp:425] inception_5a/output <- inception_5a/5x5
I0403 17:49:04.489441 15099 net.cpp:425] inception_5a/output <- inception_5a/pool_proj
I0403 17:49:04.489460 15099 net.cpp:399] inception_5a/output -> inception_5a/output
I0403 17:49:04.489508 15099 net.cpp:141] Setting up inception_5a/output
I0403 17:49:04.489531 15099 net.cpp:148] Top shape: 24 832 7 7 (978432)
I0403 17:49:04.489545 15099 net.cpp:156] Memory required for data: 1309586976
I0403 17:49:04.489560 15099 layer_factory.hpp:77] Creating layer inception_5a/output_inception_5a/output_0_split
I0403 17:49:04.489580 15099 net.cpp:91] Creating Layer inception_5a/output_inception_5a/output_0_split
I0403 17:49:04.489598 15099 net.cpp:425] inception_5a/output_inception_5a/output_0_split <- inception_5a/output
I0403 17:49:04.489615 15099 net.cpp:399] inception_5a/output_inception_5a/output_0_split -> inception_5a/output_inception_5a/output_0_split_0
I0403 17:49:04.489635 15099 net.cpp:399] inception_5a/output_inception_5a/output_0_split -> inception_5a/output_inception_5a/output_0_split_1
I0403 17:49:04.489660 15099 net.cpp:399] inception_5a/output_inception_5a/output_0_split -> inception_5a/output_inception_5a/output_0_split_2
I0403 17:49:04.489680 15099 net.cpp:399] inception_5a/output_inception_5a/output_0_split -> inception_5a/output_inception_5a/output_0_split_3
I0403 17:49:04.489787 15099 net.cpp:141] Setting up inception_5a/output_inception_5a/output_0_split
I0403 17:49:04.489810 15099 net.cpp:148] Top shape: 24 832 7 7 (978432)
I0403 17:49:04.489826 15099 net.cpp:148] Top shape: 24 832 7 7 (978432)
I0403 17:49:04.489841 15099 net.cpp:148] Top shape: 24 832 7 7 (978432)
I0403 17:49:04.489856 15099 net.cpp:148] Top shape: 24 832 7 7 (978432)
I0403 17:49:04.489871 15099 net.cpp:156] Memory required for data: 1325241888
I0403 17:49:04.489884 15099 layer_factory.hpp:77] Creating layer inception_5b/1x1
I0403 17:49:04.489907 15099 net.cpp:91] Creating Layer inception_5b/1x1
I0403 17:49:04.489925 15099 net.cpp:425] inception_5b/1x1 <- inception_5a/output_inception_5a/output_0_split_0
I0403 17:49:04.489946 15099 net.cpp:399] inception_5b/1x1 -> inception_5b/1x1
I0403 17:49:04.493669 15099 net.cpp:141] Setting up inception_5b/1x1
I0403 17:49:04.493700 15099 net.cpp:148] Top shape: 24 384 7 7 (451584)
I0403 17:49:04.493716 15099 net.cpp:156] Memory required for data: 1327048224
I0403 17:49:04.493734 15099 layer_factory.hpp:77] Creating layer inception_5b/relu_1x1
I0403 17:49:04.493752 15099 net.cpp:91] Creating Layer inception_5b/relu_1x1
I0403 17:49:04.493768 15099 net.cpp:425] inception_5b/relu_1x1 <- inception_5b/1x1
I0403 17:49:04.493787 15099 net.cpp:386] inception_5b/relu_1x1 -> inception_5b/1x1 (in-place)
I0403 17:49:04.494091 15099 net.cpp:141] Setting up inception_5b/relu_1x1
I0403 17:49:04.494118 15099 net.cpp:148] Top shape: 24 384 7 7 (451584)
I0403 17:49:04.494134 15099 net.cpp:156] Memory required for data: 1328854560
I0403 17:49:04.494149 15099 layer_factory.hpp:77] Creating layer inception_5b/3x3_reduce
I0403 17:49:04.494171 15099 net.cpp:91] Creating Layer inception_5b/3x3_reduce
I0403 17:49:04.494189 15099 net.cpp:425] inception_5b/3x3_reduce <- inception_5a/output_inception_5a/output_0_split_1
I0403 17:49:04.494209 15099 net.cpp:399] inception_5b/3x3_reduce -> inception_5b/3x3_reduce
I0403 17:49:04.496809 15099 net.cpp:141] Setting up inception_5b/3x3_reduce
I0403 17:49:04.496839 15099 net.cpp:148] Top shape: 24 192 7 7 (225792)
I0403 17:49:04.496855 15099 net.cpp:156] Memory required for data: 1329757728
I0403 17:49:04.496875 15099 layer_factory.hpp:77] Creating layer inception_5b/relu_3x3_reduce
I0403 17:49:04.496891 15099 net.cpp:91] Creating Layer inception_5b/relu_3x3_reduce
I0403 17:49:04.496908 15099 net.cpp:425] inception_5b/relu_3x3_reduce <- inception_5b/3x3_reduce
I0403 17:49:04.496929 15099 net.cpp:386] inception_5b/relu_3x3_reduce -> inception_5b/3x3_reduce (in-place)
I0403 17:49:04.497123 15099 net.cpp:141] Setting up inception_5b/relu_3x3_reduce
I0403 17:49:04.497146 15099 net.cpp:148] Top shape: 24 192 7 7 (225792)
I0403 17:49:04.497161 15099 net.cpp:156] Memory required for data: 1330660896
I0403 17:49:04.497176 15099 layer_factory.hpp:77] Creating layer inception_5b/3x3
I0403 17:49:04.497198 15099 net.cpp:91] Creating Layer inception_5b/3x3
I0403 17:49:04.497215 15099 net.cpp:425] inception_5b/3x3 <- inception_5b/3x3_reduce
I0403 17:49:04.497237 15099 net.cpp:399] inception_5b/3x3 -> inception_5b/3x3
I0403 17:49:04.503789 15099 net.cpp:141] Setting up inception_5b/3x3
I0403 17:49:04.503819 15099 net.cpp:148] Top shape: 24 384 7 7 (451584)
I0403 17:49:04.503835 15099 net.cpp:156] Memory required for data: 1332467232
I0403 17:49:04.503854 15099 layer_factory.hpp:77] Creating layer inception_5b/relu_3x3
I0403 17:49:04.503872 15099 net.cpp:91] Creating Layer inception_5b/relu_3x3
I0403 17:49:04.503888 15099 net.cpp:425] inception_5b/relu_3x3 <- inception_5b/3x3
I0403 17:49:04.503908 15099 net.cpp:386] inception_5b/relu_3x3 -> inception_5b/3x3 (in-place)
I0403 17:49:04.504205 15099 net.cpp:141] Setting up inception_5b/relu_3x3
I0403 17:49:04.504233 15099 net.cpp:148] Top shape: 24 384 7 7 (451584)
I0403 17:49:04.504250 15099 net.cpp:156] Memory required for data: 1334273568
I0403 17:49:04.504264 15099 layer_factory.hpp:77] Creating layer inception_5b/5x5_reduce
I0403 17:49:04.504300 15099 net.cpp:91] Creating Layer inception_5b/5x5_reduce
I0403 17:49:04.504319 15099 net.cpp:425] inception_5b/5x5_reduce <- inception_5a/output_inception_5a/output_0_split_2
I0403 17:49:04.504343 15099 net.cpp:399] inception_5b/5x5_reduce -> inception_5b/5x5_reduce
I0403 17:49:04.505631 15099 net.cpp:141] Setting up inception_5b/5x5_reduce
I0403 17:49:04.505658 15099 net.cpp:148] Top shape: 24 48 7 7 (56448)
I0403 17:49:04.505673 15099 net.cpp:156] Memory required for data: 1334499360
I0403 17:49:04.505691 15099 layer_factory.hpp:77] Creating layer inception_5b/relu_5x5_reduce
I0403 17:49:04.505708 15099 net.cpp:91] Creating Layer inception_5b/relu_5x5_reduce
I0403 17:49:04.505724 15099 net.cpp:425] inception_5b/relu_5x5_reduce <- inception_5b/5x5_reduce
I0403 17:49:04.505744 15099 net.cpp:386] inception_5b/relu_5x5_reduce -> inception_5b/5x5_reduce (in-place)
I0403 17:49:04.506114 15099 net.cpp:141] Setting up inception_5b/relu_5x5_reduce
I0403 17:49:04.506139 15099 net.cpp:148] Top shape: 24 48 7 7 (56448)
I0403 17:49:04.506155 15099 net.cpp:156] Memory required for data: 1334725152
I0403 17:49:04.506170 15099 layer_factory.hpp:77] Creating layer inception_5b/5x5
I0403 17:49:04.506189 15099 net.cpp:91] Creating Layer inception_5b/5x5
I0403 17:49:04.506206 15099 net.cpp:425] inception_5b/5x5 <- inception_5b/5x5_reduce
I0403 17:49:04.506225 15099 net.cpp:399] inception_5b/5x5 -> inception_5b/5x5
I0403 17:49:04.508254 15099 net.cpp:141] Setting up inception_5b/5x5
I0403 17:49:04.508280 15099 net.cpp:148] Top shape: 24 128 7 7 (150528)
I0403 17:49:04.508296 15099 net.cpp:156] Memory required for data: 1335327264
I0403 17:49:04.508313 15099 layer_factory.hpp:77] Creating layer inception_5b/relu_5x5
I0403 17:49:04.508333 15099 net.cpp:91] Creating Layer inception_5b/relu_5x5
I0403 17:49:04.508350 15099 net.cpp:425] inception_5b/relu_5x5 <- inception_5b/5x5
I0403 17:49:04.508368 15099 net.cpp:386] inception_5b/relu_5x5 -> inception_5b/5x5 (in-place)
I0403 17:49:04.508560 15099 net.cpp:141] Setting up inception_5b/relu_5x5
I0403 17:49:04.508584 15099 net.cpp:148] Top shape: 24 128 7 7 (150528)
I0403 17:49:04.508599 15099 net.cpp:156] Memory required for data: 1335929376
I0403 17:49:04.508615 15099 layer_factory.hpp:77] Creating layer inception_5b/pool
I0403 17:49:04.508633 15099 net.cpp:91] Creating Layer inception_5b/pool
I0403 17:49:04.508651 15099 net.cpp:425] inception_5b/pool <- inception_5a/output_inception_5a/output_0_split_3
I0403 17:49:04.508668 15099 net.cpp:399] inception_5b/pool -> inception_5b/pool
I0403 17:49:04.508741 15099 net.cpp:141] Setting up inception_5b/pool
I0403 17:49:04.508764 15099 net.cpp:148] Top shape: 24 832 7 7 (978432)
I0403 17:49:04.508780 15099 net.cpp:156] Memory required for data: 1339843104
I0403 17:49:04.508795 15099 layer_factory.hpp:77] Creating layer inception_5b/pool_proj
I0403 17:49:04.508816 15099 net.cpp:91] Creating Layer inception_5b/pool_proj
I0403 17:49:04.508833 15099 net.cpp:425] inception_5b/pool_proj <- inception_5b/pool
I0403 17:49:04.508854 15099 net.cpp:399] inception_5b/pool_proj -> inception_5b/pool_proj
I0403 17:49:04.511184 15099 net.cpp:141] Setting up inception_5b/pool_proj
I0403 17:49:04.511212 15099 net.cpp:148] Top shape: 24 128 7 7 (150528)
I0403 17:49:04.511229 15099 net.cpp:156] Memory required for data: 1340445216
I0403 17:49:04.511247 15099 layer_factory.hpp:77] Creating layer inception_5b/relu_pool_proj
I0403 17:49:04.511265 15099 net.cpp:91] Creating Layer inception_5b/relu_pool_proj
I0403 17:49:04.511281 15099 net.cpp:425] inception_5b/relu_pool_proj <- inception_5b/pool_proj
I0403 17:49:04.511301 15099 net.cpp:386] inception_5b/relu_pool_proj -> inception_5b/pool_proj (in-place)
I0403 17:49:04.511595 15099 net.cpp:141] Setting up inception_5b/relu_pool_proj
I0403 17:49:04.511620 15099 net.cpp:148] Top shape: 24 128 7 7 (150528)
I0403 17:49:04.511636 15099 net.cpp:156] Memory required for data: 1341047328
I0403 17:49:04.511651 15099 layer_factory.hpp:77] Creating layer inception_5b/output
I0403 17:49:04.511668 15099 net.cpp:91] Creating Layer inception_5b/output
I0403 17:49:04.511698 15099 net.cpp:425] inception_5b/output <- inception_5b/1x1
I0403 17:49:04.511715 15099 net.cpp:425] inception_5b/output <- inception_5b/3x3
I0403 17:49:04.511731 15099 net.cpp:425] inception_5b/output <- inception_5b/5x5
I0403 17:49:04.511747 15099 net.cpp:425] inception_5b/output <- inception_5b/pool_proj
I0403 17:49:04.511766 15099 net.cpp:399] inception_5b/output -> inception_5b/output
I0403 17:49:04.511817 15099 net.cpp:141] Setting up inception_5b/output
I0403 17:49:04.511842 15099 net.cpp:148] Top shape: 24 1024 7 7 (1204224)
I0403 17:49:04.511858 15099 net.cpp:156] Memory required for data: 1345864224
I0403 17:49:04.511873 15099 layer_factory.hpp:77] Creating layer pool5/7x7_s1
I0403 17:49:04.511889 15099 net.cpp:91] Creating Layer pool5/7x7_s1
I0403 17:49:04.511905 15099 net.cpp:425] pool5/7x7_s1 <- inception_5b/output
I0403 17:49:04.511925 15099 net.cpp:399] pool5/7x7_s1 -> pool5/7x7_s1
I0403 17:49:04.512146 15099 net.cpp:141] Setting up pool5/7x7_s1
I0403 17:49:04.512171 15099 net.cpp:148] Top shape: 24 1024 1 1 (24576)
I0403 17:49:04.512186 15099 net.cpp:156] Memory required for data: 1345962528
I0403 17:49:04.512200 15099 layer_factory.hpp:77] Creating layer pool5/drop_7x7_s1
I0403 17:49:04.512217 15099 net.cpp:91] Creating Layer pool5/drop_7x7_s1
I0403 17:49:04.512233 15099 net.cpp:425] pool5/drop_7x7_s1 <- pool5/7x7_s1
I0403 17:49:04.512253 15099 net.cpp:386] pool5/drop_7x7_s1 -> pool5/7x7_s1 (in-place)
I0403 17:49:04.512301 15099 net.cpp:141] Setting up pool5/drop_7x7_s1
I0403 17:49:04.512326 15099 net.cpp:148] Top shape: 24 1024 1 1 (24576)
I0403 17:49:04.512341 15099 net.cpp:156] Memory required for data: 1346060832
I0403 17:49:04.512356 15099 layer_factory.hpp:77] Creating layer loss3/classifier_plantvillage
I0403 17:49:04.512373 15099 net.cpp:91] Creating Layer loss3/classifier_plantvillage
I0403 17:49:04.512390 15099 net.cpp:425] loss3/classifier_plantvillage <- pool5/7x7_s1
I0403 17:49:04.512411 15099 net.cpp:399] loss3/classifier_plantvillage -> loss3/classifier_plantvillage
I0403 17:49:04.512828 15099 net.cpp:141] Setting up loss3/classifier_plantvillage
I0403 17:49:04.512852 15099 net.cpp:148] Top shape: 24 38 (912)
I0403 17:49:04.512867 15099 net.cpp:156] Memory required for data: 1346064480
I0403 17:49:04.512886 15099 layer_factory.hpp:77] Creating layer loss3/classifier_plantvillage_loss3/classifier_plantvillage_0_split
I0403 17:49:04.512907 15099 net.cpp:91] Creating Layer loss3/classifier_plantvillage_loss3/classifier_plantvillage_0_split
I0403 17:49:04.512924 15099 net.cpp:425] loss3/classifier_plantvillage_loss3/classifier_plantvillage_0_split <- loss3/classifier_plantvillage
I0403 17:49:04.512943 15099 net.cpp:399] loss3/classifier_plantvillage_loss3/classifier_plantvillage_0_split -> loss3/classifier_plantvillage_loss3/classifier_plantvillage_0_split_0
I0403 17:49:04.512965 15099 net.cpp:399] loss3/classifier_plantvillage_loss3/classifier_plantvillage_0_split -> loss3/classifier_plantvillage_loss3/classifier_plantvillage_0_split_1
I0403 17:49:04.512990 15099 net.cpp:399] loss3/classifier_plantvillage_loss3/classifier_plantvillage_0_split -> loss3/classifier_plantvillage_loss3/classifier_plantvillage_0_split_2
I0403 17:49:04.513011 15099 net.cpp:399] loss3/classifier_plantvillage_loss3/classifier_plantvillage_0_split -> loss3/classifier_plantvillage_loss3/classifier_plantvillage_0_split_3
I0403 17:49:04.513110 15099 net.cpp:141] Setting up loss3/classifier_plantvillage_loss3/classifier_plantvillage_0_split
I0403 17:49:04.513133 15099 net.cpp:148] Top shape: 24 38 (912)
I0403 17:49:04.513149 15099 net.cpp:148] Top shape: 24 38 (912)
I0403 17:49:04.513164 15099 net.cpp:148] Top shape: 24 38 (912)
I0403 17:49:04.513180 15099 net.cpp:148] Top shape: 24 38 (912)
I0403 17:49:04.513192 15099 net.cpp:156] Memory required for data: 1346079072
I0403 17:49:04.513206 15099 layer_factory.hpp:77] Creating layer loss1/loss
I0403 17:49:04.513228 15099 net.cpp:91] Creating Layer loss1/loss
I0403 17:49:04.513245 15099 net.cpp:425] loss1/loss <- loss1/classifier_plantvillage_loss1/classifier_plantvillage_0_split_0
I0403 17:49:04.513276 15099 net.cpp:425] loss1/loss <- label_data_1_split_0
…
