…
I0403 18:15:36.154328 16761 net.cpp:313] The NetState phase (1) differed from the phase (0) specified by a rule in layer data
I0403 18:15:36.155506 16761 net.cpp:49] Initializing net from parameters: 
state {
  phase: TEST
}
layer {
  name: "data"
  type: "Data"
  top: "data"
  top: "label"
  include {
    phase: TEST
  }
  transform_param {
    mirror: false
    crop_size: 224
    mean_file: "/home/mohanty/data/final_dataset/lmdb/grayscale-60-40/mean.binaryproto"
  }
  data_param {
    source: "/home/mohanty/data/final_dataset/lmdb/grayscale-60-40/test_db"
    batch_size: 24
    backend: LMDB
  }
}
layer {
  name: "conv1/7x7_s2"
  type: "Convolution"
  bottom: "data"
  top: "conv1/7x7_s2"
  param {
    lr_mult: 1
    decay_mult: 1
  }
  param {
    lr_mult: 2
    decay_mult: 0
  }
  convolution_param {
    num_output: 64
    pad: 3
    kernel_size: 7
    stride: 2
    weight_filler {
      type: "xavier"
      std: 0.1
    }
    bias_filler {
      type: "constant"
      value: 0.2
    }
  }
}
layer {
  name: "conv1/relu_7x7"
  type: "ReLU"
  bottom: "conv1/7x7_s2"
  top: "conv1/7x7_s2"
}
layer {
  name: "pool1/3x3_s2"
  type: "Pooling"
  bottom: "conv1/7x7_s2"
  top: "pool1/3x3_s2"
  pooling_param {
    pool: MAX
    kernel_size: 3
    stride: 2
  }
}
layer {
  name: "pool1/norm1"
  type: "LRN"
  bottom: "pool1/3x3_s2"
  top: "pool1/norm1"
  lrn_param {
    local_size: 5
    alpha: 0.0001
    beta: 0.75
  }
}
layer {
  name: "conv2/3x3_reduce"
  type: "Convolution"
  bottom: "pool1/norm1"
  top: "conv2/3x3_reduce"
  param {
    lr_mult: 1
    decay_mult: 1
  }
  param {
    lr_mult: 2
    decay_mult: 0
  }
  convolution_param {
    num_output: 64
    kernel_size: 1
    weight_filler {
      type: "xavier"
      std: 0.1
    }
    bias_filler {
      type: "constant"
      value: 0.2
    }
  }
}
layer {
  name: "conv2/relu_3x3_reduce"
  type: "ReLU"
  bottom: "conv2/3x3_reduce"
  top: "conv2/3x3_reduce"
}
layer {
  name: "conv2/3x3"
  type: "Convolution"
  bottom: "conv2/3x3_reduce"
  top: "conv2/3x3"
  param {
    lr_mult: 1
    decay_mult: 1
  }
  param {
    lr_mult: 2
    decay_mult: 0
  }
  convolution_param {
    num_output: 192
    pad: 1
    kernel_size: 3
    weight_filler {
      type: "xavier"
      std: 0.03
    }
    bias_filler {
      type: "constant"
      value: 0.2
    }
  }
}
layer {
  name: "conv2/relu_3x3"
  type: "ReLU"
  bottom: "conv2/3x3"
  top: "conv2/3x3"
}
layer {
  name: "conv2/norm2"
  type: "LRN"
  bottom: "conv2/3x3"
  top: "conv2/norm2"
  lrn_param {
    local_size: 5
    alpha: 0.0001
    beta: 0.75
  }
}
layer {
  name: "pool2/3x3_s2"
  type: "Pooling"
  bottom: "conv2/norm2"
  top: "pool2/3x3_s2"
  pooling_param {
    pool: MAX
    kernel_size: 3
    stride: 2
  }
}
layer {
  name: "inception_3a/1x1"
  type: "Convolution"
  bottom: "pool2/3x3_s2"
  top: "inception_3a/1x1"
  param {
    lr_mult: 1
    decay_mult: 1
  }
  param {
    lr_mult: 2
    decay_mult: 0
  }
  convolution_param {
    num_output: 64
    kernel_size: 1
    weight_filler {
      type: "xavier"
      std: 0.03
    }
    bias_filler {
      type: "constant"
      value: 0.2
    }
  }
}
layer {
  name: "inception_3a/relu_1x1"
  type: "ReLU"
  bottom: "inception_3a/1x1"
  top: "inception_3a/1x1"
}
layer {
  name: "inception_3a/3x3_reduce"
  type: "Convolution"
  bottom: "pool2/3x3_s2"
  top: "inception_3a/3x3_reduce"
  param {
    lr_mult: 1
    decay_mult: 1
  }
  param {
    lr_mult: 2
    decay_mult: 0
  }
  convolution_param {
    num_output: 96
    kernel_size: 1
    weight_filler {
      type: "xavier"
      std: 0.09
    }
    bias_filler {
      type: "constant"
      value: 0.2
    }
  }
}
layer {
  name: "inception_3a/relu_3x3_reduce"
  type: "ReLU"
  bottom: "inception_3a/3x3_reduce"
  top: "inception_3a/3x3_reduce"
}
layer {
  name: "inception_3a/3x3"
  type: "Convolution"
  bottom: "inception_3a/3x3_reduce"
  top: "inception_3a/3x3"
  param {
    lr_mult: 1
    decay_mult: 1
  }
  param {
    lr_mult: 2
    decay_mult: 0
  }
  convolution_param {
    num_output: 128
    pad: 1
    kernel_size: 3
    weight_filler {
      type: "xavier"
      std: 0.03
    }
    bias_filler {
      type: "constant"
      value: 0.2
    }
  }
}
layer {
  name: "inception_3a/relu_3x3"
  type: "ReLU"
  bottom: "inception_3a/3x3"
  top: "inception_3a/3x3"
}
layer {
  name: "inception_3a/5x5_reduce"
  type: "Convolution"
  bottom: "pool2/3x3_s2"
  top: "inception_3a/5x5_reduce"
  param {
    lr_mult: 1
    decay_mult: 1
  }
  param {
    lr_mult: 2
    decay_mult: 0
  }
  convolution_param {
    num_output: 16
    kernel_size: 1
    weight_filler {
      type: "xavier"
      std: 0.2
    }
    bias_filler {
      type: "constant"
      value: 0.2
    }
  }
}
layer {
  name: "inception_3a/relu_5x5_reduce"
  type: "ReLU"
  bottom: "inception_3a/5x5_reduce"
  top: "inception_3a/5x5_reduce"
}
layer {
  name: "inception_3a/5x5"
  type: "Convolution"
  bottom: "inception_3a/5x5_reduce"
  top: "inception_3a/5x5"
  param {
    lr_mult: 1
    decay_mult: 1
  }
  param {
    lr_mult: 2
    decay_mult: 0
  }
  convolution_param {
    num_output: 32
    pad: 2
    kernel_size: 5
    weight_filler {
      type: "xavier"
      std: 0.03
    }
    bias_filler {
      type: "constant"
      value: 0.2
    }
  }
}
layer {
  name: "inception_3a/relu_5x5"
  type: "ReLU"
  bottom: "inception_3a/5x5"
  top: "inception_3a/5x5"
}
layer {
  name: "inception_3a/pool"
  type: "Pooling"
  bottom: "pool2/3x3_s2"
  top: "inception_3a/pool"
  pooling_param {
    pool: MAX
    kernel_size: 3
    stride: 1
    pad: 1
  }
}
layer {
  name: "inception_3a/pool_proj"
  type: "Convolution"
  bottom: "inception_3a/pool"
  top: "inception_3a/pool_proj"
  param {
    lr_mult: 1
    decay_mult: 1
  }
  param {
    lr_mult: 2
    decay_mult: 0
  }
  convolution_param {
    num_output: 32
    kernel_size: 1
    weight_filler {
      type: "xavier"
      std: 0.1
    }
    bias_filler {
      type: "constant"
      value: 0.2
    }
  }
}
layer {
  name: "inception_3a/relu_pool_proj"
  type: "ReLU"
  bottom: "inception_3a/pool_proj"
  top: "inception_3a/pool_proj"
}
layer {
  name: "inception_3a/output"
  type: "Concat"
  bottom: "inception_3a/1x1"
  bottom: "inception_3a/3x3"
  bottom: "inception_3a/5x5"
  bottom: "inception_3a/pool_proj"
  top: "inception_3a/output"
}
layer {
  name: "inception_3b/1x1"
  type: "Convolution"
  bottom: "inception_3a/output"
  top: "inception_3b/1x1"
  param {
    lr_mult: 1
    decay_mult: 1
  }
  param {
    lr_mult: 2
    decay_mult: 0
  }
  convolution_param {
    num_output: 128
    kernel_size: 1
    weight_filler {
      type: "xavier"
      std: 0.03
    }
    bias_filler {
      type: "constant"
      value: 0.2
    }
  }
}
layer {
  name: "inception_3b/relu_1x1"
  type: "ReLU"
  bottom: "inception_3b/1x1"
  top: "inception_3b/1x1"
}
layer {
  name: "inception_3b/3x3_reduce"
  type: "Convolution"
  bottom: "inception_3a/output"
  top: "inception_3b/3x3_reduce"
  param {
    lr_mult: 1
    decay_mult: 1
  }
  param {
    lr_mult: 2
    decay_mult: 0
  }
  convolution_param {
    num_output: 128
    kernel_size: 1
    weight_filler {
      type: "xavier"
      std: 0.09
    }
    bias_filler {
      type: "constant"
      value: 0.2
    }
  }
}
layer {
  name: "inception_3b/relu_3x3_reduce"
  type: "ReLU"
  bottom: "inception_3b/3x3_reduce"
  top: "inception_3b/3x3_reduce"
}
layer {
  name: "inception_3b/3x3"
  type: "Convolution"
  bottom: "inception_3b/3x3_reduce"
  top: "inception_3b/3x3"
  param {
    lr_mult: 1
    decay_mult: 1
  }
  param {
    lr_mult: 2
    decay_mult: 0
  }
  convolution_param {
    num_output: 192
    pad: 1
    kernel_size: 3
    weight_filler {
      type: "xavier"
      std: 0.03
    }
    bias_filler {
      type: "constant"
      value: 0.2
    }
  }
}
layer {
  name: "inception_3b/relu_3x3"
  type: "ReLU"
  bottom: "inception_3b/3x3"
  top: "inception_3b/3x3"
}
layer {
  name: "inception_3b/5x5_reduce"
  type: "Convolution"
  bottom: "inception_3a/output"
  top: "inception_3b/5x5_reduce"
  param {
    lr_mult: 1
    decay_mult: 1
  }
  param {
    lr_mult: 2
    decay_mult: 0
  }
  convolution_param {
    num_output: 32
    kernel_size: 1
    weight_filler {
      type: "xavier"
      std: 0.2
    }
    bias_filler {
      type: "constant"
      value: 0.2
    }
  }
}
layer {
  name: "inception_3b/relu_5x5_reduce"
  type: "ReLU"
  bottom: "inception_3b/5x5_reduce"
  top: "inception_3b/5x5_reduce"
}
layer {
  name: "inception_3b/5x5"
  type: "Convolution"
  bottom: "inception_3b/5x5_reduce"
  top: "inception_3b/5x5"
  param {
    lr_mult: 1
    decay_mult: 1
  }
  param {
    lr_mult: 2
    decay_mult: 0
  }
  convolution_param {
    num_output: 96
    pad: 2
    kernel_size: 5
    weight_filler {
      type: "xavier"
      std: 0.03
    }
    bias_filler {
      type: "constant"
      value: 0.2
    }
  }
}
layer {
  name: "inception_3b/relu_5x5"
  type: "ReLU"
  bottom: "inception_3b/5x5"
  top: "inception_3b/5x5"
}
layer {
  name: "inception_3b/pool"
  type: "Pooling"
  bottom: "inception_3a/output"
  top: "inception_3b/pool"
  pooling_param {
    pool: MAX
    kernel_size: 3
    stride: 1
    pad: 1
  }
}
layer {
  name: "inception_3b/pool_proj"
  type: "Convolution"
  bottom: "inception_3b/pool"
  top: "inception_3b/pool_proj"
  param {
    lr_mult: 1
    decay_mult: 1
  }
  param {
    lr_mult: 2
    decay_mult: 0
  }
  convolution_param {
    num_output: 64
    kernel_size: 1
    weight_filler {
      type: "xavier"
      std: 0.1
    }
    bias_filler {
      type: "constant"
      value: 0.2
    }
  }
}
layer {
  name: "inception_3b/relu_pool_proj"
  type: "ReLU"
  bottom: "inception_3b/pool_proj"
  top: "inception_3b/pool_proj"
}
layer {
  name: "inception_3b/output"
  type: "Concat"
  bottom: "inception_3b/1x1"
  bottom: "inception_3b/3x3"
  bottom: "inception_3b/5x5"
  bottom: "inception_3b/pool_proj"
  top: "inception_3b/output"
}
layer {
  name: "pool3/3x3_s2"
  type: "Pooling"
  bottom: "inception_3b/output"
  top: "pool3/3x3_s2"
  pooling_param {
    pool: MAX
    kernel_size: 3
    stride: 2
  }
}
layer {
  name: "inception_4a/1x1"
  type: "Convolution"
  bottom: "pool3/3x3_s2"
  top: "inception_4a/1x1"
  param {
    lr_mult: 1
    decay_mult: 1
  }
  param {
    lr_mult: 2
    decay_mult: 0
  }
  convolution_param {
    num_output: 192
    kernel_size: 1
    weight_filler {
      type: "xavier"
      std: 0.03
    }
    bias_filler {
      type: "constant"
      value: 0.2
    }
  }
}
layer {
  name: "inception_4a/relu_1x1"
  type: "ReLU"
  bottom: "inception_4a/1x1"
  top: "inception_4a/1x1"
}
layer {
  name: "inception_4a/3x3_reduce"
  type: "Convolution"
  bottom: "pool3/3x3_s2"
  top: "inception_4a/3x3_reduce"
  param {
    lr_mult: 1
    decay_mult: 1
  }
  param {
    lr_mult: 2
    decay_mult: 0
  }
  convolution_param {
    num_output: 96
    kernel_size: 1
    weight_filler {
      type: "xavier"
      std: 0.09
    }
    bias_filler {
      type: "constant"
      value: 0.2
    }
  }
}
layer {
  name: "inception_4a/relu_3x3_reduce"
  type: "ReLU"
  bottom: "inception_4a/3x3_reduce"
  top: "inception_4a/3x3_reduce"
}
layer {
  name: "inception_4a/3x3"
  type: "Convolution"
  bottom: "inception_4a/3x3_reduce"
  top: "inception_4a/3x3"
  param {
    lr_mult: 1
    decay_mult: 1
  }
  param {
    lr_mult: 2
    decay_mult: 0
  }
  convolution_param {
    num_output: 208
    pad: 1
    kernel_size: 3
    weight_filler {
      type: "xavier"
      std: 0.03
    }
    bias_filler {
      type: "constant"
      value: 0.2
    }
  }
}
layer {
  name: "inception_4a/relu_3x3"
  type: "ReLU"
  bottom: "inception_4a/3x3"
  top: "inception_4a/3x3"
}
layer {
  name: "inception_4a/5x5_reduce"
  type: "Convolution"
  bottom: "pool3/3x3_s2"
  top: "inception_4a/5x5_reduce"
  param {
    lr_mult: 1
    decay_mult: 1
  }
  param {
    lr_mult: 2
    decay_mult: 0
  }
  convolution_param {
    num_output: 16
    kernel_size: 1
    weight_filler {
      type: "xavier"
      std: 0.2
    }
    bias_filler {
      type: "constant"
      value: 0.2
    }
  }
}
layer {
  name: "inception_4a/relu_5x5_reduce"
  type: "ReLU"
  bottom: "inception_4a/5x5_reduce"
  top: "inception_4a/5x5_reduce"
}
layer {
  name: "inception_4a/5x5"
  type: "Convolution"
  bottom: "inception_4a/5x5_reduce"
  top: "inception_4a/5x5"
  param {
    lr_mult: 1
    decay_mult: 1
  }
  param {
    lr_mult: 2
    decay_mult: 0
  }
  convolution_param {
    num_output: 48
    pad: 2
    kernel_size: 5
    weight_filler {
      type: "xavier"
      std: 0.03
    }
    bias_filler {
      type: "constant"
      value: 0.2
    }
  }
}
layer {
  name: "inception_4a/relu_5x5"
  type: "ReLU"
  bottom: "inception_4a/5x5"
  top: "inception_4a/5x5"
}
layer {
  name: "inception_4a/pool"
  type: "Pooling"
  bottom: "pool3/3x3_s2"
  top: "inception_4a/pool"
  pooling_param {
    pool: MAX
    kernel_size: 3
    stride: 1
    pad: 1
  }
}
layer {
  name: "inception_4a/pool_proj"
  type: "Convolution"
  bottom: "inception_4a/pool"
  top: "inception_4a/pool_proj"
  param {
    lr_mult: 1
    decay_mult: 1
  }
  param {
    lr_mult: 2
    decay_mult: 0
  }
  convolution_param {
    num_output: 64
    kernel_size: 1
    weight_filler {
      type: "xavier"
      std: 0.1
    }
    bias_filler {
      type: "constant"
      value: 0.2
    }
  }
}
layer {
  name: "inception_4a/relu_pool_proj"
  type: "ReLU"
  bottom: "inception_4a/pool_proj"
  top: "inception_4a/pool_proj"
}
layer {
  name: "inception_4a/output"
  type: "Concat"
  bottom: "inception_4a/1x1"
  bottom: "inception_4a/3x3"
  bottom: "inception_4a/5x5"
  bottom: "inception_4a/pool_proj"
  top: "inception_4a/output"
}
layer {
  name: "loss1/ave_pool"
  type: "Pooling"
  bottom: "inception_4a/output"
  top: "loss1/ave_pool"
  pooling_param {
    pool: AVE
    kernel_size: 5
    stride: 3
  }
}
layer {
  name: "loss1/conv"
  type: "Convolution"
  bottom: "loss1/ave_pool"
  top: "loss1/conv"
  param {
    lr_mult: 1
    decay_mult: 1
  }
  param {
    lr_mult: 2
    decay_mult: 0
  }
  convolution_param {
    num_output: 128
    kernel_size: 1
    weight_filler {
      type: "xavier"
      std: 0.08
    }
    bias_filler {
      type: "constant"
      value: 0.2
    }
  }
}
layer {
  name: "loss1/relu_conv"
  type: "ReLU"
  bottom: "loss1/conv"
  top: "loss1/conv"
}
layer {
  name: "loss1/fc"
  type: "InnerProduct"
  bottom: "loss1/conv"
  top: "loss1/fc"
  param {
    lr_mult: 1
    decay_mult: 1
  }
  param {
    lr_mult: 2
    decay_mult: 0
  }
  inner_product_param {
    num_output: 1024
    weight_filler {
      type: "xavier"
      std: 0.02
    }
    bias_filler {
      type: "constant"
      value: 0.2
    }
  }
}
layer {
  name: "loss1/relu_fc"
  type: "ReLU"
  bottom: "loss1/fc"
  top: "loss1/fc"
}
layer {
  name: "loss1/drop_fc"
  type: "Dropout"
  bottom: "loss1/fc"
  top: "loss1/fc"
  dropout_param {
    dropout_ratio: 0.7
  }
}
layer {
  name: "loss1/classifier_plantvillage"
  type: "InnerProduct"
  bottom: "loss1/fc"
  top: "loss1/classifier_plantvillage"
  param {
    lr_mult: 1
    decay_mult: 1
  }
  param {
    lr_mult: 2
    decay_mult: 0
  }
  inner_product_param {
    num_output: 38
    weight_filler {
      type: "xavier"
      std: 0.0009765625
    }
    bias_filler {
      type: "constant"
      value: 0
    }
  }
}
layer {
  name: "inception_4b/1x1"
  type: "Convolution"
  bottom: "inception_4a/output"
  top: "inception_4b/1x1"
  param {
    lr_mult: 1
    decay_mult: 1
  }
  param {
    lr_mult: 2
    decay_mult: 0
  }
  convolution_param {
    num_output: 160
    kernel_size: 1
    weight_filler {
      type: "xavier"
      std: 0.03
    }
    bias_filler {
      type: "constant"
      value: 0.2
    }
  }
}
layer {
  name: "inception_4b/relu_1x1"
  type: "ReLU"
  bottom: "inception_4b/1x1"
  top: "inception_4b/1x1"
}
layer {
  name: "inception_4b/3x3_reduce"
  type: "Convolution"
  bottom: "inception_4a/output"
  top: "inception_4b/3x3_reduce"
  param {
    lr_mult: 1
    decay_mult: 1
  }
  param {
    lr_mult: 2
    decay_mult: 0
  }
  convolution_param {
    num_output: 112
    kernel_size: 1
    weight_filler {
      type: "xavier"
      std: 0.09
    }
    bias_filler {
      type: "constant"
      value: 0.2
    }
  }
}
layer {
  name: "inception_4b/relu_3x3_reduce"
  type: "ReLU"
  bottom: "inception_4b/3x3_reduce"
  top: "inception_4b/3x3_reduce"
}
layer {
  name: "inception_4b/3x3"
  type: "Convolution"
  bottom: "inception_4b/3x3_reduce"
  top: "inception_4b/3x3"
  param {
    lr_mult: 1
    decay_mult: 1
  }
  param {
    lr_mult: 2
    decay_mult: 0
  }
  convolution_param {
    num_output: 224
    pad: 1
    kernel_size: 3
    weight_filler {
      type: "xavier"
      std: 0.03
    }
    bias_filler {
      type: "constant"
      value: 0.2
    }
  }
}
layer {
  name: "inception_4b/relu_3x3"
  type: "ReLU"
  bottom: "inception_4b/3x3"
  top: "inception_4b/3x3"
}
layer {
  name: "inception_4b/5x5_reduce"
  type: "Convolution"
  bottom: "inception_4a/output"
  top: "inception_4b/5x5_reduce"
  param {
    lr_mult: 1
    decay_mult: 1
  }
  param {
    lr_mult: 2
    decay_mult: 0
  }
  convolution_param {
    num_output: 24
    kernel_size: 1
    weight_filler {
      type: "xavier"
      std: 0.2
    }
    bias_filler {
      type: "constant"
      value: 0.2
    }
  }
}
layer {
  name: "inception_4b/relu_5x5_reduce"
  type: "ReLU"
  bottom: "inception_4b/5x5_reduce"
  top: "inception_4b/5x5_reduce"
}
layer {
  name: "inception_4b/5x5"
  type: "Convolution"
  bottom: "inception_4b/5x5_reduce"
  top: "inception_4b/5x5"
  param {
    lr_mult: 1
    decay_mult: 1
  }
  param {
    lr_mult: 2
    decay_mult: 0
  }
  convolution_param {
    num_output: 64
    pad: 2
    kernel_size: 5
    weight_filler {
      type: "xavier"
      std: 0.03
    }
    bias_filler {
      type: "constant"
      value: 0.2
    }
  }
}
layer {
  name: "inception_4b/relu_5x5"
  type: "ReLU"
  bottom: "inception_4b/5x5"
  top: "inception_4b/5x5"
}
layer {
  name: "inception_4b/pool"
  type: "Pooling"
  bottom: "inception_4a/output"
  top: "inception_4b/pool"
  pooling_param {
    pool: MAX
    kernel_size: 3
    stride: 1
    pad: 1
  }
}
layer {
  name: "inception_4b/pool_proj"
  type: "Convolution"
  bottom: "inception_4b/pool"
  top: "inception_4b/pool_proj"
  param {
    lr_mult: 1
    decay_mult: 1
  }
  param {
    lr_mult: 2
    decay_mult: 0
  }
  convolution_param {
    num_output: 64
    kernel_size: 1
    weight_filler {
      type: "xavier"
      std: 0.1
    }
    bias_filler {
      type: "constant"
      value: 0.2
    }
  }
}
layer {
  name: "inception_4b/relu_pool_proj"
  type: "ReLU"
  bottom: "inception_4b/pool_proj"
  top: "inception_4b/pool_proj"
}
layer {
  name: "inception_4b/output"
  type: "Concat"
  bottom: "inception_4b/1x1"
  bottom: "inception_4b/3x3"
  bottom: "inception_4b/5x5"
  bottom: "inception_4b/pool_proj"
  top: "inception_4b/output"
}
layer {
  name: "inception_4c/1x1"
  type: "Convolution"
  bottom: "inception_4b/output"
  top: "inception_4c/1x1"
  param {
    lr_mult: 1
    decay_mult: 1
  }
  param {
    lr_mult: 2
    decay_mult: 0
  }
  convolution_param {
    num_output: 128
    kernel_size: 1
    weight_filler {
      type: "xavier"
      std: 0.03
    }
    bias_filler {
      type: "constant"
      value: 0.2
    }
  }
}
layer {
  name: "inception_4c/relu_1x1"
  type: "ReLU"
  bottom: "inception_4c/1x1"
  top: "inception_4c/1x1"
}
layer {
  name: "inception_4c/3x3_reduce"
  type: "Convolution"
  bottom: "inception_4b/output"
  top: "inception_4c/3x3_reduce"
  param {
    lr_mult: 1
    decay_mult: 1
  }
  param {
    lr_mult: 2
    decay_mult: 0
  }
  convolution_param {
    num_output: 128
    kernel_size: 1
    weight_filler {
      type: "xavier"
      std: 0.09
    }
    bias_filler {
      type: "constant"
      value: 0.2
    }
  }
}
layer {
  name: "inception_4c/relu_3x3_reduce"
  type: "ReLU"
  bottom: "inception_4c/3x3_reduce"
  top: "inception_4c/3x3_reduce"
}
layer {
  name: "inception_4c/3x3"
  type: "Convolution"
  bottom: "inception_4c/3x3_reduce"
  top: "inception_4c/3x3"
  param {
    lr_mult: 1
    decay_mult: 1
  }
  param {
    lr_mult: 2
    decay_mult: 0
  }
  convolution_param {
    num_output: 256
    pad: 1
    kernel_size: 3
    weight_filler {
      type: "xavier"
      std: 0.03
    }
    bias_filler {
      type: "constant"
      value: 0.2
    }
  }
}
layer {
  name: "inception_4c/relu_3x3"
  type: "ReLU"
  bottom: "inception_4c/3x3"
  top: "inception_4c/3x3"
}
layer {
  name: "inception_4c/5x5_reduce"
  type: "Convolution"
  bottom: "inception_4b/output"
  top: "inception_4c/5x5_reduce"
  param {
    lr_mult: 1
    decay_mult: 1
  }
  param {
    lr_mult: 2
    decay_mult: 0
  }
  convolution_param {
    num_output: 24
    kernel_size: 1
    weight_filler {
      type: "xavier"
      std: 0.2
    }
    bias_filler {
      type: "constant"
      value: 0.2
    }
  }
}
layer {
  name: "inception_4c/relu_5x5_reduce"
  type: "ReLU"
  bottom: "inception_4c/5x5_reduce"
  top: "inception_4c/5x5_reduce"
}
layer {
  name: "inception_4c/5x5"
  type: "Convolution"
  bottom: "inception_4c/5x5_reduce"
  top: "inception_4c/5x5"
  param {
    lr_mult: 1
    decay_mult: 1
  }
  param {
    lr_mult: 2
    decay_mult: 0
  }
  convolution_param {
    num_output: 64
    pad: 2
    kernel_size: 5
    weight_filler {
      type: "xavier"
      std: 0.03
    }
    bias_filler {
      type: "constant"
      value: 0.2
    }
  }
}
layer {
  name: "inception_4c/relu_5x5"
  type: "ReLU"
  bottom: "inception_4c/5x5"
  top: "inception_4c/5x5"
}
layer {
  name: "inception_4c/pool"
  type: "Pooling"
  bottom: "inception_4b/output"
  top: "inception_4c/pool"
  pooling_param {
    pool: MAX
    kernel_size: 3
    stride: 1
    pad: 1
  }
}
layer {
  name: "inception_4c/pool_proj"
  type: "Convolution"
  bottom: "inception_4c/pool"
  top: "inception_4c/pool_proj"
  param {
    lr_mult: 1
    decay_mult: 1
  }
  param {
    lr_mult: 2
    decay_mult: 0
  }
  convolution_param {
    num_output: 64
    kernel_size: 1
    weight_filler {
      type: "xavier"
      std: 0.1
    }
    bias_filler {
      type: "constant"
      value: 0.2
    }
  }
}
layer {
  name: "inception_4c/relu_pool_proj"
  type: "ReLU"
  bottom: "inception_4c/pool_proj"
  top: "inception_4c/pool_proj"
}
layer {
  name: "inception_4c/output"
  type: "Concat"
  bottom: "inception_4c/1x1"
  bottom: "inception_4c/3x3"
  bottom: "inception_4c/5x5"
  bottom: "inception_4c/pool_proj"
  top: "inception_4c/output"
}
layer {
  name: "inception_4d/1x1"
  type: "Convolution"
  bottom: "inception_4c/output"
  top: "inception_4d/1x1"
  param {
    lr_mult: 1
    decay_mult: 1
  }
  param {
    lr_mult: 2
    decay_mult: 0
  }
  convolution_param {
    num_output: 112
    kernel_size: 1
    weight_filler {
      type: "xavier"
      std: 0.03
    }
    bias_filler {
      type: "constant"
      value: 0.2
    }
  }
}
layer {
  name: "inception_4d/relu_1x1"
  type: "ReLU"
  bottom: "inception_4d/1x1"
  top: "inception_4d/1x1"
}
layer {
  name: "inception_4d/3x3_reduce"
  type: "Convolution"
  bottom: "inception_4c/output"
  top: "inception_4d/3x3_reduce"
  param {
    lr_mult: 1
    decay_mult: 1
  }
  param {
    lr_mult: 2
    decay_mult: 0
  }
  convolution_param {
    num_output: 144
    kernel_size: 1
    weight_filler {
      type: "xavier"
      std: 0.09
    }
    bias_filler {
      type: "constant"
      value: 0.2
    }
  }
}
layer {
  name: "inception_4d/relu_3x3_reduce"
  type: "ReLU"
  bottom: "inception_4d/3x3_reduce"
  top: "inception_4d/3x3_reduce"
}
layer {
  name: "inception_4d/3x3"
  type: "Convolution"
  bottom: "inception_4d/3x3_reduce"
  top: "inception_4d/3x3"
  param {
    lr_mult: 1
    decay_mult: 1
  }
  param {
    lr_mult: 2
    decay_mult: 0
  }
  convolution_param {
    num_output: 288
    pad: 1
    kernel_size: 3
    weight_filler {
      type: "xavier"
      std: 0.03
    }
    bias_filler {
      type: "constant"
      value: 0.2
    }
  }
}
layer {
  name: "inception_4d/relu_3x3"
  type: "ReLU"
  bottom: "inception_4d/3x3"
  top: "inception_4d/3x3"
}
layer {
  name: "inception_4d/5x5_reduce"
  type: "Convolution"
  bottom: "inception_4c/output"
  top: "inception_4d/5x5_reduce"
  param {
    lr_mult: 1
    decay_mult: 1
  }
  param {
    lr_mult: 2
    decay_mult: 0
  }
  convolution_param {
    num_output: 32
    kernel_size: 1
    weight_filler {
      type: "xavier"
      std: 0.2
    }
    bias_filler {
      type: "constant"
      value: 0.2
    }
  }
}
layer {
  name: "inception_4d/relu_5x5_reduce"
  type: "ReLU"
  bottom: "inception_4d/5x5_reduce"
  top: "inception_4d/5x5_reduce"
}
layer {
  name: "inception_4d/5x5"
  type: "Convolution"
  bottom: "inception_4d/5x5_reduce"
  top: "inception_4d/5x5"
  param {
    lr_mult: 1
    decay_mult: 1
  }
  param {
    lr_mult: 2
    decay_mult: 0
  }
  convolution_param {
    num_output: 64
    pad: 2
    kernel_size: 5
    weight_filler {
      type: "xavier"
      std: 0.03
    }
    bias_filler {
      type: "constant"
      value: 0.2
    }
  }
}
layer {
  name: "inception_4d/relu_5x5"
  type: "ReLU"
  bottom: "inception_4d/5x5"
  top: "inception_4d/5x5"
}
layer {
  name: "inception_4d/pool"
  type: "Pooling"
  bottom: "inception_4c/output"
  top: "inception_4d/pool"
  pooling_param {
    pool: MAX
    kernel_size: 3
    stride: 1
    pad: 1
  }
}
layer {
  name: "inception_4d/pool_proj"
  type: "Convolution"
  bottom: "inception_4d/pool"
  top: "inception_4d/pool_proj"
  param {
    lr_mult: 1
    decay_mult: 1
  }
  param {
    lr_mult: 2
    decay_mult: 0
  }
  convolution_param {
    num_output: 64
    kernel_size: 1
    weight_filler {
      type: "xavier"
      std: 0.1
    }
    bias_filler {
      type: "constant"
      value: 0.2
    }
  }
}
layer {
  name: "inception_4d/relu_pool_proj"
  type: "ReLU"
  bottom: "inception_4d/pool_proj"
  top: "inception_4d/pool_proj"
}
layer {
  name: "inception_4d/output"
  type: "Concat"
  bottom: "inception_4d/1x1"
  bottom: "inception_4d/3x3"
  bottom: "inception_4d/5x5"
  bottom: "inception_4d/pool_proj"
  top: "inception_4d/output"
}
layer {
  name: "loss2/ave_pool"
  type: "Pooling"
  bottom: "inception_4d/output"
  top: "loss2/ave_pool"
  pooling_param {
    pool: AVE
    kernel_size: 5
    stride: 3
  }
}
layer {
  name: "loss2/conv"
  type: "Convolution"
  bottom: "loss2/ave_pool"
  top: "loss2/conv"
  param {
    lr_mult: 1
    decay_mult: 1
  }
  param {
    lr_mult: 2
    decay_mult: 0
  }
  convolution_param {
    num_output: 128
    kernel_size: 1
    weight_filler {
      type: "xavier"
      std: 0.08
    }
    bias_filler {
      type: "constant"
      value: 0.2
    }
  }
}
layer {
  name: "loss2/relu_conv"
  type: "ReLU"
  bottom: "loss2/conv"
  top: "loss2/conv"
}
layer {
  name: "loss2/fc"
  type: "InnerProduct"
  bottom: "loss2/conv"
  top: "loss2/fc"
  param {
    lr_mult: 1
    decay_mult: 1
  }
  param {
    lr_mult: 2
    decay_mult: 0
  }
  inner_product_param {
    num_output: 1024
    weight_filler {
      type: "xavier"
      std: 0.02
    }
    bias_filler {
      type: "constant"
      value: 0.2
    }
  }
}
layer {
  name: "loss2/relu_fc"
  type: "ReLU"
  bottom: "loss2/fc"
  top: "loss2/fc"
}
layer {
  name: "loss2/drop_fc"
  type: "Dropout"
  bottom: "loss2/fc"
  top: "loss2/fc"
  dropout_param {
    dropout_ratio: 0.7
  }
}
layer {
  name: "loss2/classifier_plantvillage"
  type: "InnerProduct"
  bottom: "loss2/fc"
  top: "loss2/classifier_plantvillage"
  param {
    lr_mult: 1
    decay_mult: 1
  }
  param {
    lr_mult: 2
    decay_mult: 0
  }
  inner_product_param {
    num_output: 38
    weight_filler {
      type: "xavier"
      std: 0.0009765625
    }
    bias_filler {
      type: "constant"
      value: 0
    }
  }
}
layer {
  name: "inception_4e/1x1"
  type: "Convolution"
  bottom: "inception_4d/output"
  top: "inception_4e/1x1"
  param {
    lr_mult: 1
    decay_mult: 1
  }
  param {
    lr_mult: 2
    decay_mult: 0
  }
  convolution_param {
    num_output: 256
    kernel_size: 1
    weight_filler {
      type: "xavier"
      std: 0.03
    }
    bias_filler {
      type: "constant"
      value: 0.2
    }
  }
}
layer {
  name: "inception_4e/relu_1x1"
  type: "ReLU"
  bottom: "inception_4e/1x1"
  top: "inception_4e/1x1"
}
layer {
  name: "inception_4e/3x3_reduce"
  type: "Convolution"
  bottom: "inception_4d/output"
  top: "inception_4e/3x3_reduce"
  param {
    lr_mult: 1
    decay_mult: 1
  }
  param {
    lr_mult: 2
    decay_mult: 0
  }
  convolution_param {
    num_output: 160
    kernel_size: 1
    weight_filler {
      type: "xavier"
      std: 0.09
    }
    bias_filler {
      type: "constant"
      value: 0.2
    }
  }
}
layer {
  name: "inception_4e/relu_3x3_reduce"
  type: "ReLU"
  bottom: "inception_4e/3x3_reduce"
  top: "inception_4e/3x3_reduce"
}
layer {
  name: "inception_4e/3x3"
  type: "Convolution"
  bottom: "inception_4e/3x3_reduce"
  top: "inception_4e/3x3"
  param {
    lr_mult: 1
    decay_mult: 1
  }
  param {
    lr_mult: 2
    decay_mult: 0
  }
  convolution_param {
    num_output: 320
    pad: 1
    kernel_size: 3
    weight_filler {
      type: "xavier"
      std: 0.03
    }
    bias_filler {
      type: "constant"
      value: 0.2
    }
  }
}
layer {
  name: "inception_4e/relu_3x3"
  type: "ReLU"
  bottom: "inception_4e/3x3"
  top: "inception_4e/3x3"
}
layer {
  name: "inception_4e/5x5_reduce"
  type: "Convolution"
  bottom: "inception_4d/output"
  top: "inception_4e/5x5_reduce"
  param {
    lr_mult: 1
    decay_mult: 1
  }
  param {
    lr_mult: 2
    decay_mult: 0
  }
  convolution_param {
    num_output: 32
    kernel_size: 1
    weight_filler {
      type: "xavier"
      std: 0.2
    }
    bias_filler {
      type: "constant"
      value: 0.2
    }
  }
}
layer {
  name: "inception_4e/relu_5x5_reduce"
  type: "ReLU"
  bottom: "inception_4e/5x5_reduce"
  top: "inception_4e/5x5_reduce"
}
layer {
  name: "inception_4e/5x5"
  type: "Convolution"
  bottom: "inception_4e/5x5_reduce"
  top: "inception_4e/
I0403 18:15:36.156749 16761 layer_factory.hpp:77] Creating layer data
I0403 18:15:36.157361 16761 net.cpp:91] Creating Layer data
I0403 18:15:36.157394 16761 net.cpp:399] data -> data
I0403 18:15:36.157446 16761 net.cpp:399] data -> label
I0403 18:15:36.157485 16761 data_transformer.cpp:25] Loading mean file from: /home/mohanty/data/final_dataset/lmdb/grayscale-60-40/mean.binaryproto
I0403 18:15:36.158713 16772 db_lmdb.cpp:38] Opened lmdb /home/mohanty/data/final_dataset/lmdb/grayscale-60-40/test_db
I0403 18:15:36.171110 16761 data_layer.cpp:41] output data size: 24,3,224,224
I0403 18:15:36.198091 16761 net.cpp:141] Setting up data
I0403 18:15:36.198174 16761 net.cpp:148] Top shape: 24 3 224 224 (3612672)
I0403 18:15:36.198199 16761 net.cpp:148] Top shape: 24 (24)
I0403 18:15:36.198216 16761 net.cpp:156] Memory required for data: 14450784
I0403 18:15:36.198245 16761 layer_factory.hpp:77] Creating layer label_data_1_split
I0403 18:15:36.198272 16761 net.cpp:91] Creating Layer label_data_1_split
I0403 18:15:36.198293 16761 net.cpp:425] label_data_1_split <- label
I0403 18:15:36.198325 16761 net.cpp:399] label_data_1_split -> label_data_1_split_0
I0403 18:15:36.198355 16761 net.cpp:399] label_data_1_split -> label_data_1_split_1
I0403 18:15:36.198379 16761 net.cpp:399] label_data_1_split -> label_data_1_split_2
I0403 18:15:36.198401 16761 net.cpp:399] label_data_1_split -> label_data_1_split_3
I0403 18:15:36.198422 16761 net.cpp:399] label_data_1_split -> label_data_1_split_4
I0403 18:15:36.198443 16761 net.cpp:399] label_data_1_split -> label_data_1_split_5
I0403 18:15:36.198465 16761 net.cpp:399] label_data_1_split -> label_data_1_split_6
I0403 18:15:36.198488 16761 net.cpp:399] label_data_1_split -> label_data_1_split_7
I0403 18:15:36.198509 16761 net.cpp:399] label_data_1_split -> label_data_1_split_8
I0403 18:15:36.198529 16761 net.cpp:399] label_data_1_split -> label_data_1_split_9
I0403 18:15:36.198650 16761 net.cpp:141] Setting up label_data_1_split
I0403 18:15:36.198676 16761 net.cpp:148] Top shape: 24 (24)
I0403 18:15:36.198695 16761 net.cpp:148] Top shape: 24 (24)
I0403 18:15:36.198714 16761 net.cpp:148] Top shape: 24 (24)
I0403 18:15:36.198730 16761 net.cpp:148] Top shape: 24 (24)
I0403 18:15:36.198746 16761 net.cpp:148] Top shape: 24 (24)
I0403 18:15:36.198762 16761 net.cpp:148] Top shape: 24 (24)
I0403 18:15:36.198779 16761 net.cpp:148] Top shape: 24 (24)
I0403 18:15:36.198796 16761 net.cpp:148] Top shape: 24 (24)
I0403 18:15:36.198813 16761 net.cpp:148] Top shape: 24 (24)
I0403 18:15:36.198830 16761 net.cpp:148] Top shape: 24 (24)
I0403 18:15:36.198874 16761 net.cpp:156] Memory required for data: 14451744
I0403 18:15:36.198891 16761 layer_factory.hpp:77] Creating layer conv1/7x7_s2
I0403 18:15:36.198925 16761 net.cpp:91] Creating Layer conv1/7x7_s2
I0403 18:15:36.198943 16761 net.cpp:425] conv1/7x7_s2 <- data
I0403 18:15:36.198976 16761 net.cpp:399] conv1/7x7_s2 -> conv1/7x7_s2
I0403 18:15:36.340925 16761 net.cpp:141] Setting up conv1/7x7_s2
I0403 18:15:36.341019 16761 net.cpp:148] Top shape: 24 64 112 112 (19267584)
I0403 18:15:36.341038 16761 net.cpp:156] Memory required for data: 91522080
I0403 18:15:36.341070 16761 layer_factory.hpp:77] Creating layer conv1/relu_7x7
I0403 18:15:36.341099 16761 net.cpp:91] Creating Layer conv1/relu_7x7
I0403 18:15:36.341120 16761 net.cpp:425] conv1/relu_7x7 <- conv1/7x7_s2
I0403 18:15:36.341140 16761 net.cpp:386] conv1/relu_7x7 -> conv1/7x7_s2 (in-place)
I0403 18:15:36.341506 16761 net.cpp:141] Setting up conv1/relu_7x7
I0403 18:15:36.341534 16761 net.cpp:148] Top shape: 24 64 112 112 (19267584)
I0403 18:15:36.341550 16761 net.cpp:156] Memory required for data: 168592416
I0403 18:15:36.341567 16761 layer_factory.hpp:77] Creating layer pool1/3x3_s2
I0403 18:15:36.341593 16761 net.cpp:91] Creating Layer pool1/3x3_s2
I0403 18:15:36.341611 16761 net.cpp:425] pool1/3x3_s2 <- conv1/7x7_s2
I0403 18:15:36.341631 16761 net.cpp:399] pool1/3x3_s2 -> pool1/3x3_s2
I0403 18:15:36.341707 16761 net.cpp:141] Setting up pool1/3x3_s2
I0403 18:15:36.341732 16761 net.cpp:148] Top shape: 24 64 56 56 (4816896)
I0403 18:15:36.341748 16761 net.cpp:156] Memory required for data: 187860000
I0403 18:15:36.341763 16761 layer_factory.hpp:77] Creating layer pool1/norm1
I0403 18:15:36.341789 16761 net.cpp:91] Creating Layer pool1/norm1
I0403 18:15:36.341807 16761 net.cpp:425] pool1/norm1 <- pool1/3x3_s2
I0403 18:15:36.341826 16761 net.cpp:399] pool1/norm1 -> pool1/norm1
I0403 18:15:36.342131 16761 net.cpp:141] Setting up pool1/norm1
I0403 18:15:36.342160 16761 net.cpp:148] Top shape: 24 64 56 56 (4816896)
I0403 18:15:36.342177 16761 net.cpp:156] Memory required for data: 207127584
I0403 18:15:36.342193 16761 layer_factory.hpp:77] Creating layer conv2/3x3_reduce
I0403 18:15:36.342221 16761 net.cpp:91] Creating Layer conv2/3x3_reduce
I0403 18:15:36.342237 16761 net.cpp:425] conv2/3x3_reduce <- pool1/norm1
I0403 18:15:36.342257 16761 net.cpp:399] conv2/3x3_reduce -> conv2/3x3_reduce
I0403 18:15:36.343680 16761 net.cpp:141] Setting up conv2/3x3_reduce
I0403 18:15:36.343711 16761 net.cpp:148] Top shape: 24 64 56 56 (4816896)
I0403 18:15:36.343727 16761 net.cpp:156] Memory required for data: 226395168
I0403 18:15:36.343750 16761 layer_factory.hpp:77] Creating layer conv2/relu_3x3_reduce
I0403 18:15:36.343770 16761 net.cpp:91] Creating Layer conv2/relu_3x3_reduce
I0403 18:15:36.343786 16761 net.cpp:425] conv2/relu_3x3_reduce <- conv2/3x3_reduce
I0403 18:15:36.343804 16761 net.cpp:386] conv2/relu_3x3_reduce -> conv2/3x3_reduce (in-place)
I0403 18:15:36.344074 16761 net.cpp:141] Setting up conv2/relu_3x3_reduce
I0403 18:15:36.344101 16761 net.cpp:148] Top shape: 24 64 56 56 (4816896)
I0403 18:15:36.344117 16761 net.cpp:156] Memory required for data: 245662752
I0403 18:15:36.344133 16761 layer_factory.hpp:77] Creating layer conv2/3x3
I0403 18:15:36.344157 16761 net.cpp:91] Creating Layer conv2/3x3
I0403 18:15:36.344177 16761 net.cpp:425] conv2/3x3 <- conv2/3x3_reduce
I0403 18:15:36.344197 16761 net.cpp:399] conv2/3x3 -> conv2/3x3
I0403 18:15:36.346565 16761 net.cpp:141] Setting up conv2/3x3
I0403 18:15:36.346597 16761 net.cpp:148] Top shape: 24 192 56 56 (14450688)
I0403 18:15:36.346614 16761 net.cpp:156] Memory required for data: 303465504
I0403 18:15:36.346637 16761 layer_factory.hpp:77] Creating layer conv2/relu_3x3
I0403 18:15:36.346657 16761 net.cpp:91] Creating Layer conv2/relu_3x3
I0403 18:15:36.346675 16761 net.cpp:425] conv2/relu_3x3 <- conv2/3x3
I0403 18:15:36.346731 16761 net.cpp:386] conv2/relu_3x3 -> conv2/3x3 (in-place)
I0403 18:15:36.346909 16761 net.cpp:141] Setting up conv2/relu_3x3
I0403 18:15:36.346936 16761 net.cpp:148] Top shape: 24 192 56 56 (14450688)
I0403 18:15:36.346987 16761 net.cpp:156] Memory required for data: 361268256
I0403 18:15:36.347007 16761 layer_factory.hpp:77] Creating layer conv2/norm2
I0403 18:15:36.347026 16761 net.cpp:91] Creating Layer conv2/norm2
I0403 18:15:36.347043 16761 net.cpp:425] conv2/norm2 <- conv2/3x3
I0403 18:15:36.347062 16761 net.cpp:399] conv2/norm2 -> conv2/norm2
I0403 18:15:36.347362 16761 net.cpp:141] Setting up conv2/norm2
I0403 18:15:36.347390 16761 net.cpp:148] Top shape: 24 192 56 56 (14450688)
I0403 18:15:36.347406 16761 net.cpp:156] Memory required for data: 419071008
I0403 18:15:36.347422 16761 layer_factory.hpp:77] Creating layer pool2/3x3_s2
I0403 18:15:36.347442 16761 net.cpp:91] Creating Layer pool2/3x3_s2
I0403 18:15:36.347460 16761 net.cpp:425] pool2/3x3_s2 <- conv2/norm2
I0403 18:15:36.347477 16761 net.cpp:399] pool2/3x3_s2 -> pool2/3x3_s2
I0403 18:15:36.347529 16761 net.cpp:141] Setting up pool2/3x3_s2
I0403 18:15:36.347553 16761 net.cpp:148] Top shape: 24 192 28 28 (3612672)
I0403 18:15:36.347569 16761 net.cpp:156] Memory required for data: 433521696
I0403 18:15:36.347585 16761 layer_factory.hpp:77] Creating layer pool2/3x3_s2_pool2/3x3_s2_0_split
I0403 18:15:36.347604 16761 net.cpp:91] Creating Layer pool2/3x3_s2_pool2/3x3_s2_0_split
I0403 18:15:36.347620 16761 net.cpp:425] pool2/3x3_s2_pool2/3x3_s2_0_split <- pool2/3x3_s2
I0403 18:15:36.347638 16761 net.cpp:399] pool2/3x3_s2_pool2/3x3_s2_0_split -> pool2/3x3_s2_pool2/3x3_s2_0_split_0
I0403 18:15:36.347658 16761 net.cpp:399] pool2/3x3_s2_pool2/3x3_s2_0_split -> pool2/3x3_s2_pool2/3x3_s2_0_split_1
I0403 18:15:36.347681 16761 net.cpp:399] pool2/3x3_s2_pool2/3x3_s2_0_split -> pool2/3x3_s2_pool2/3x3_s2_0_split_2
I0403 18:15:36.347700 16761 net.cpp:399] pool2/3x3_s2_pool2/3x3_s2_0_split -> pool2/3x3_s2_pool2/3x3_s2_0_split_3
I0403 18:15:36.347766 16761 net.cpp:141] Setting up pool2/3x3_s2_pool2/3x3_s2_0_split
I0403 18:15:36.347790 16761 net.cpp:148] Top shape: 24 192 28 28 (3612672)
I0403 18:15:36.347807 16761 net.cpp:148] Top shape: 24 192 28 28 (3612672)
I0403 18:15:36.347825 16761 net.cpp:148] Top shape: 24 192 28 28 (3612672)
I0403 18:15:36.347841 16761 net.cpp:148] Top shape: 24 192 28 28 (3612672)
I0403 18:15:36.347856 16761 net.cpp:156] Memory required for data: 491324448
I0403 18:15:36.347872 16761 layer_factory.hpp:77] Creating layer inception_3a/1x1
I0403 18:15:36.347892 16761 net.cpp:91] Creating Layer inception_3a/1x1
I0403 18:15:36.347910 16761 net.cpp:425] inception_3a/1x1 <- pool2/3x3_s2_pool2/3x3_s2_0_split_0
I0403 18:15:36.347929 16761 net.cpp:399] inception_3a/1x1 -> inception_3a/1x1
I0403 18:15:36.349514 16761 net.cpp:141] Setting up inception_3a/1x1
I0403 18:15:36.349545 16761 net.cpp:148] Top shape: 24 64 28 28 (1204224)
I0403 18:15:36.349561 16761 net.cpp:156] Memory required for data: 496141344
I0403 18:15:36.349581 16761 layer_factory.hpp:77] Creating layer inception_3a/relu_1x1
I0403 18:15:36.349601 16761 net.cpp:91] Creating Layer inception_3a/relu_1x1
I0403 18:15:36.349617 16761 net.cpp:425] inception_3a/relu_1x1 <- inception_3a/1x1
I0403 18:15:36.349642 16761 net.cpp:386] inception_3a/relu_1x1 -> inception_3a/1x1 (in-place)
I0403 18:15:36.349828 16761 net.cpp:141] Setting up inception_3a/relu_1x1
I0403 18:15:36.349855 16761 net.cpp:148] Top shape: 24 64 28 28 (1204224)
I0403 18:15:36.349871 16761 net.cpp:156] Memory required for data: 500958240
I0403 18:15:36.349887 16761 layer_factory.hpp:77] Creating layer inception_3a/3x3_reduce
I0403 18:15:36.349910 16761 net.cpp:91] Creating Layer inception_3a/3x3_reduce
I0403 18:15:36.349928 16761 net.cpp:425] inception_3a/3x3_reduce <- pool2/3x3_s2_pool2/3x3_s2_0_split_1
I0403 18:15:36.349951 16761 net.cpp:399] inception_3a/3x3_reduce -> inception_3a/3x3_reduce
I0403 18:15:36.351800 16761 net.cpp:141] Setting up inception_3a/3x3_reduce
I0403 18:15:36.351832 16761 net.cpp:148] Top shape: 24 96 28 28 (1806336)
I0403 18:15:36.351850 16761 net.cpp:156] Memory required for data: 508183584
I0403 18:15:36.351872 16761 layer_factory.hpp:77] Creating layer inception_3a/relu_3x3_reduce
I0403 18:15:36.351913 16761 net.cpp:91] Creating Layer inception_3a/relu_3x3_reduce
I0403 18:15:36.351935 16761 net.cpp:425] inception_3a/relu_3x3_reduce <- inception_3a/3x3_reduce
I0403 18:15:36.351954 16761 net.cpp:386] inception_3a/relu_3x3_reduce -> inception_3a/3x3_reduce (in-place)
I0403 18:15:36.352149 16761 net.cpp:141] Setting up inception_3a/relu_3x3_reduce
I0403 18:15:36.352177 16761 net.cpp:148] Top shape: 24 96 28 28 (1806336)
I0403 18:15:36.352195 16761 net.cpp:156] Memory required for data: 515408928
I0403 18:15:36.352221 16761 layer_factory.hpp:77] Creating layer inception_3a/3x3
I0403 18:15:36.352244 16761 net.cpp:91] Creating Layer inception_3a/3x3
I0403 18:15:36.352262 16761 net.cpp:425] inception_3a/3x3 <- inception_3a/3x3_reduce
I0403 18:15:36.352283 16761 net.cpp:399] inception_3a/3x3 -> inception_3a/3x3
I0403 18:15:36.354002 16761 net.cpp:141] Setting up inception_3a/3x3
I0403 18:15:36.354032 16761 net.cpp:148] Top shape: 24 128 28 28 (2408448)
I0403 18:15:36.354048 16761 net.cpp:156] Memory required for data: 525042720
I0403 18:15:36.354068 16761 layer_factory.hpp:77] Creating layer inception_3a/relu_3x3
I0403 18:15:36.354089 16761 net.cpp:91] Creating Layer inception_3a/relu_3x3
I0403 18:15:36.354107 16761 net.cpp:425] inception_3a/relu_3x3 <- inception_3a/3x3
I0403 18:15:36.354125 16761 net.cpp:386] inception_3a/relu_3x3 -> inception_3a/3x3 (in-place)
I0403 18:15:36.354445 16761 net.cpp:141] Setting up inception_3a/relu_3x3
I0403 18:15:36.354472 16761 net.cpp:148] Top shape: 24 128 28 28 (2408448)
I0403 18:15:36.354488 16761 net.cpp:156] Memory required for data: 534676512
I0403 18:15:36.354504 16761 layer_factory.hpp:77] Creating layer inception_3a/5x5_reduce
I0403 18:15:36.354528 16761 net.cpp:91] Creating Layer inception_3a/5x5_reduce
I0403 18:15:36.354545 16761 net.cpp:425] inception_3a/5x5_reduce <- pool2/3x3_s2_pool2/3x3_s2_0_split_2
I0403 18:15:36.354568 16761 net.cpp:399] inception_3a/5x5_reduce -> inception_3a/5x5_reduce
I0403 18:15:36.355552 16761 net.cpp:141] Setting up inception_3a/5x5_reduce
I0403 18:15:36.355581 16761 net.cpp:148] Top shape: 24 16 28 28 (301056)
I0403 18:15:36.355598 16761 net.cpp:156] Memory required for data: 535880736
I0403 18:15:36.355618 16761 layer_factory.hpp:77] Creating layer inception_3a/relu_5x5_reduce
I0403 18:15:36.355638 16761 net.cpp:91] Creating Layer inception_3a/relu_5x5_reduce
I0403 18:15:36.355656 16761 net.cpp:425] inception_3a/relu_5x5_reduce <- inception_3a/5x5_reduce
I0403 18:15:36.355675 16761 net.cpp:386] inception_3a/relu_5x5_reduce -> inception_3a/5x5_reduce (in-place)
I0403 18:15:36.356043 16761 net.cpp:141] Setting up inception_3a/relu_5x5_reduce
I0403 18:15:36.356071 16761 net.cpp:148] Top shape: 24 16 28 28 (301056)
I0403 18:15:36.356088 16761 net.cpp:156] Memory required for data: 537084960
I0403 18:15:36.356104 16761 layer_factory.hpp:77] Creating layer inception_3a/5x5
I0403 18:15:36.356129 16761 net.cpp:91] Creating Layer inception_3a/5x5
I0403 18:15:36.356148 16761 net.cpp:425] inception_3a/5x5 <- inception_3a/5x5_reduce
I0403 18:15:36.356169 16761 net.cpp:399] inception_3a/5x5 -> inception_3a/5x5
I0403 18:15:36.357278 16761 net.cpp:141] Setting up inception_3a/5x5
I0403 18:15:36.357308 16761 net.cpp:148] Top shape: 24 32 28 28 (602112)
I0403 18:15:36.357326 16761 net.cpp:156] Memory required for data: 539493408
I0403 18:15:36.357345 16761 layer_factory.hpp:77] Creating layer inception_3a/relu_5x5
I0403 18:15:36.357365 16761 net.cpp:91] Creating Layer inception_3a/relu_5x5
I0403 18:15:36.357383 16761 net.cpp:425] inception_3a/relu_5x5 <- inception_3a/5x5
I0403 18:15:36.357403 16761 net.cpp:386] inception_3a/relu_5x5 -> inception_3a/5x5 (in-place)
I0403 18:15:36.357580 16761 net.cpp:141] Setting up inception_3a/relu_5x5
I0403 18:15:36.357606 16761 net.cpp:148] Top shape: 24 32 28 28 (602112)
I0403 18:15:36.357621 16761 net.cpp:156] Memory required for data: 541901856
I0403 18:15:36.357637 16761 layer_factory.hpp:77] Creating layer inception_3a/pool
I0403 18:15:36.357657 16761 net.cpp:91] Creating Layer inception_3a/pool
I0403 18:15:36.357688 16761 net.cpp:425] inception_3a/pool <- pool2/3x3_s2_pool2/3x3_s2_0_split_3
I0403 18:15:36.357707 16761 net.cpp:399] inception_3a/pool -> inception_3a/pool
I0403 18:15:36.357767 16761 net.cpp:141] Setting up inception_3a/pool
I0403 18:15:36.357791 16761 net.cpp:148] Top shape: 24 192 28 28 (3612672)
I0403 18:15:36.357806 16761 net.cpp:156] Memory required for data: 556352544
I0403 18:15:36.357821 16761 layer_factory.hpp:77] Creating layer inception_3a/pool_proj
I0403 18:15:36.357844 16761 net.cpp:91] Creating Layer inception_3a/pool_proj
I0403 18:15:36.357862 16761 net.cpp:425] inception_3a/pool_proj <- inception_3a/pool
I0403 18:15:36.357883 16761 net.cpp:399] inception_3a/pool_proj -> inception_3a/pool_proj
I0403 18:15:36.358873 16761 net.cpp:141] Setting up inception_3a/pool_proj
I0403 18:15:36.358906 16761 net.cpp:148] Top shape: 24 32 28 28 (602112)
I0403 18:15:36.358924 16761 net.cpp:156] Memory required for data: 558760992
I0403 18:15:36.358947 16761 layer_factory.hpp:77] Creating layer inception_3a/relu_pool_proj
I0403 18:15:36.358968 16761 net.cpp:91] Creating Layer inception_3a/relu_pool_proj
I0403 18:15:36.358999 16761 net.cpp:425] inception_3a/relu_pool_proj <- inception_3a/pool_proj
I0403 18:15:36.359019 16761 net.cpp:386] inception_3a/relu_pool_proj -> inception_3a/pool_proj (in-place)
I0403 18:15:36.359303 16761 net.cpp:141] Setting up inception_3a/relu_pool_proj
I0403 18:15:36.359330 16761 net.cpp:148] Top shape: 24 32 28 28 (602112)
I0403 18:15:36.359346 16761 net.cpp:156] Memory required for data: 561169440
I0403 18:15:36.359364 16761 layer_factory.hpp:77] Creating layer inception_3a/output
I0403 18:15:36.359381 16761 net.cpp:91] Creating Layer inception_3a/output
I0403 18:15:36.359398 16761 net.cpp:425] inception_3a/output <- inception_3a/1x1
I0403 18:15:36.359416 16761 net.cpp:425] inception_3a/output <- inception_3a/3x3
I0403 18:15:36.359431 16761 net.cpp:425] inception_3a/output <- inception_3a/5x5
I0403 18:15:36.359448 16761 net.cpp:425] inception_3a/output <- inception_3a/pool_proj
I0403 18:15:36.359468 16761 net.cpp:399] inception_3a/output -> inception_3a/output
I0403 18:15:36.359519 16761 net.cpp:141] Setting up inception_3a/output
I0403 18:15:36.359542 16761 net.cpp:148] Top shape: 24 256 28 28 (4816896)
I0403 18:15:36.359557 16761 net.cpp:156] Memory required for data: 580437024
I0403 18:15:36.359573 16761 layer_factory.hpp:77] Creating layer inception_3a/output_inception_3a/output_0_split
I0403 18:15:36.359591 16761 net.cpp:91] Creating Layer inception_3a/output_inception_3a/output_0_split
I0403 18:15:36.359607 16761 net.cpp:425] inception_3a/output_inception_3a/output_0_split <- inception_3a/output
I0403 18:15:36.359628 16761 net.cpp:399] inception_3a/output_inception_3a/output_0_split -> inception_3a/output_inception_3a/output_0_split_0
I0403 18:15:36.359648 16761 net.cpp:399] inception_3a/output_inception_3a/output_0_split -> inception_3a/output_inception_3a/output_0_split_1
I0403 18:15:36.359671 16761 net.cpp:399] inception_3a/output_inception_3a/output_0_split -> inception_3a/output_inception_3a/output_0_split_2
I0403 18:15:36.359694 16761 net.cpp:399] inception_3a/output_inception_3a/output_0_split -> inception_3a/output_inception_3a/output_0_split_3
I0403 18:15:36.359773 16761 net.cpp:141] Setting up inception_3a/output_inception_3a/output_0_split
I0403 18:15:36.359797 16761 net.cpp:148] Top shape: 24 256 28 28 (4816896)
I0403 18:15:36.359814 16761 net.cpp:148] Top shape: 24 256 28 28 (4816896)
I0403 18:15:36.359830 16761 net.cpp:148] Top shape: 24 256 28 28 (4816896)
I0403 18:15:36.359846 16761 net.cpp:148] Top shape: 24 256 28 28 (4816896)
I0403 18:15:36.359860 16761 net.cpp:156] Memory required for data: 657507360
I0403 18:15:36.359876 16761 layer_factory.hpp:77] Creating layer inception_3b/1x1
I0403 18:15:36.359899 16761 net.cpp:91] Creating Layer inception_3b/1x1
I0403 18:15:36.359916 16761 net.cpp:425] inception_3b/1x1 <- inception_3a/output_inception_3a/output_0_split_0
I0403 18:15:36.359938 16761 net.cpp:399] inception_3b/1x1 -> inception_3b/1x1
I0403 18:15:36.361096 16761 net.cpp:141] Setting up inception_3b/1x1
I0403 18:15:36.361140 16761 net.cpp:148] Top shape: 24 128 28 28 (2408448)
I0403 18:15:36.361156 16761 net.cpp:156] Memory required for data: 667141152
I0403 18:15:36.361176 16761 layer_factory.hpp:77] Creating layer inception_3b/relu_1x1
I0403 18:15:36.361196 16761 net.cpp:91] Creating Layer inception_3b/relu_1x1
I0403 18:15:36.361222 16761 net.cpp:425] inception_3b/relu_1x1 <- inception_3b/1x1
I0403 18:15:36.361241 16761 net.cpp:386] inception_3b/relu_1x1 -> inception_3b/1x1 (in-place)
I0403 18:15:36.361419 16761 net.cpp:141] Setting up inception_3b/relu_1x1
I0403 18:15:36.361445 16761 net.cpp:148] Top shape: 24 128 28 28 (2408448)
I0403 18:15:36.361460 16761 net.cpp:156] Memory required for data: 676774944
I0403 18:15:36.361475 16761 layer_factory.hpp:77] Creating layer inception_3b/3x3_reduce
I0403 18:15:36.361498 16761 net.cpp:91] Creating Layer inception_3b/3x3_reduce
I0403 18:15:36.361516 16761 net.cpp:425] inception_3b/3x3_reduce <- inception_3a/output_inception_3a/output_0_split_1
I0403 18:15:36.361538 16761 net.cpp:399] inception_3b/3x3_reduce -> inception_3b/3x3_reduce
I0403 18:15:36.362690 16761 net.cpp:141] Setting up inception_3b/3x3_reduce
I0403 18:15:36.362720 16761 net.cpp:148] Top shape: 24 128 28 28 (2408448)
I0403 18:15:36.362735 16761 net.cpp:156] Memory required for data: 686408736
I0403 18:15:36.362754 16761 layer_factory.hpp:77] Creating layer inception_3b/relu_3x3_reduce
I0403 18:15:36.362772 16761 net.cpp:91] Creating Layer inception_3b/relu_3x3_reduce
I0403 18:15:36.362789 16761 net.cpp:425] inception_3b/relu_3x3_reduce <- inception_3b/3x3_reduce
I0403 18:15:36.362809 16761 net.cpp:386] inception_3b/relu_3x3_reduce -> inception_3b/3x3_reduce (in-place)
I0403 18:15:36.362987 16761 net.cpp:141] Setting up inception_3b/relu_3x3_reduce
I0403 18:15:36.363013 16761 net.cpp:148] Top shape: 24 128 28 28 (2408448)
I0403 18:15:36.363029 16761 net.cpp:156] Memory required for data: 696042528
I0403 18:15:36.363044 16761 layer_factory.hpp:77] Creating layer inception_3b/3x3
I0403 18:15:36.363070 16761 net.cpp:91] Creating Layer inception_3b/3x3
I0403 18:15:36.363090 16761 net.cpp:425] inception_3b/3x3 <- inception_3b/3x3_reduce
I0403 18:15:36.363109 16761 net.cpp:399] inception_3b/3x3 -> inception_3b/3x3
I0403 18:15:36.366097 16761 net.cpp:141] Setting up inception_3b/3x3
I0403 18:15:36.366127 16761 net.cpp:148] Top shape: 24 192 28 28 (3612672)
I0403 18:15:36.366143 16761 net.cpp:156] Memory required for data: 710493216
I0403 18:15:36.366161 16761 layer_factory.hpp:77] Creating layer inception_3b/relu_3x3
I0403 18:15:36.366183 16761 net.cpp:91] Creating Layer inception_3b/relu_3x3
I0403 18:15:36.366201 16761 net.cpp:425] inception_3b/relu_3x3 <- inception_3b/3x3
I0403 18:15:36.366219 16761 net.cpp:386] inception_3b/relu_3x3 -> inception_3b/3x3 (in-place)
I0403 18:15:36.366503 16761 net.cpp:141] Setting up inception_3b/relu_3x3
I0403 18:15:36.366529 16761 net.cpp:148] Top shape: 24 192 28 28 (3612672)
I0403 18:15:36.366546 16761 net.cpp:156] Memory required for data: 724943904
I0403 18:15:36.366561 16761 layer_factory.hpp:77] Creating layer inception_3b/5x5_reduce
I0403 18:15:36.366585 16761 net.cpp:91] Creating Layer inception_3b/5x5_reduce
I0403 18:15:36.366603 16761 net.cpp:425] inception_3b/5x5_reduce <- inception_3a/output_inception_3a/output_0_split_2
I0403 18:15:36.366626 16761 net.cpp:399] inception_3b/5x5_reduce -> inception_3b/5x5_reduce
I0403 18:15:36.367638 16761 net.cpp:141] Setting up inception_3b/5x5_reduce
I0403 18:15:36.367667 16761 net.cpp:148] Top shape: 24 32 28 28 (602112)
I0403 18:15:36.367683 16761 net.cpp:156] Memory required for data: 727352352
I0403 18:15:36.367702 16761 layer_factory.hpp:77] Creating layer inception_3b/relu_5x5_reduce
I0403 18:15:36.367722 16761 net.cpp:91] Creating Layer inception_3b/relu_5x5_reduce
I0403 18:15:36.367740 16761 net.cpp:425] inception_3b/relu_5x5_reduce <- inception_3b/5x5_reduce
I0403 18:15:36.367758 16761 net.cpp:386] inception_3b/relu_5x5_reduce -> inception_3b/5x5_reduce (in-place)
I0403 18:15:36.367952 16761 net.cpp:141] Setting up inception_3b/relu_5x5_reduce
I0403 18:15:36.367982 16761 net.cpp:148] Top shape: 24 32 28 28 (602112)
I0403 18:15:36.368002 16761 net.cpp:156] Memory required for data: 729760800
I0403 18:15:36.368017 16761 layer_factory.hpp:77] Creating layer inception_3b/5x5
I0403 18:15:36.368038 16761 net.cpp:91] Creating Layer inception_3b/5x5
I0403 18:15:36.368055 16761 net.cpp:425] inception_3b/5x5 <- inception_3b/5x5_reduce
I0403 18:15:36.368077 16761 net.cpp:399] inception_3b/5x5 -> inception_3b/5x5
I0403 18:15:36.370086 16761 net.cpp:141] Setting up inception_3b/5x5
I0403 18:15:36.370116 16761 net.cpp:148] Top shape: 24 96 28 28 (1806336)
I0403 18:15:36.370132 16761 net.cpp:156] Memory required for data: 736986144
I0403 18:15:36.370152 16761 layer_factory.hpp:77] Creating layer inception_3b/relu_5x5
I0403 18:15:36.370174 16761 net.cpp:91] Creating Layer inception_3b/relu_5x5
I0403 18:15:36.370190 16761 net.cpp:425] inception_3b/relu_5x5 <- inception_3b/5x5
I0403 18:15:36.370210 16761 net.cpp:386] inception_3b/relu_5x5 -> inception_3b/5x5 (in-place)
I0403 18:15:36.370404 16761 net.cpp:141] Setting up inception_3b/relu_5x5
I0403 18:15:36.370429 16761 net.cpp:148] Top shape: 24 96 28 28 (1806336)
I0403 18:15:36.370445 16761 net.cpp:156] Memory required for data: 744211488
I0403 18:15:36.370460 16761 layer_factory.hpp:77] Creating layer inception_3b/pool
I0403 18:15:36.370478 16761 net.cpp:91] Creating Layer inception_3b/pool
I0403 18:15:36.370494 16761 net.cpp:425] inception_3b/pool <- inception_3a/output_inception_3a/output_0_split_3
I0403 18:15:36.370513 16761 net.cpp:399] inception_3b/pool -> inception_3b/pool
I0403 18:15:36.370573 16761 net.cpp:141] Setting up inception_3b/pool
I0403 18:15:36.370596 16761 net.cpp:148] Top shape: 24 256 28 28 (4816896)
I0403 18:15:36.370611 16761 net.cpp:156] Memory required for data: 763479072
I0403 18:15:36.370627 16761 layer_factory.hpp:77] Creating layer inception_3b/pool_proj
I0403 18:15:36.370650 16761 net.cpp:91] Creating Layer inception_3b/pool_proj
I0403 18:15:36.370668 16761 net.cpp:425] inception_3b/pool_proj <- inception_3b/pool
I0403 18:15:36.370689 16761 net.cpp:399] inception_3b/pool_proj -> inception_3b/pool_proj
I0403 18:15:36.371815 16761 net.cpp:141] Setting up inception_3b/pool_proj
I0403 18:15:36.371847 16761 net.cpp:148] Top shape: 24 64 28 28 (1204224)
I0403 18:15:36.371865 16761 net.cpp:156] Memory required for data: 768295968
I0403 18:15:36.371884 16761 layer_factory.hpp:77] Creating layer inception_3b/relu_pool_proj
I0403 18:15:36.371903 16761 net.cpp:91] Creating Layer inception_3b/relu_pool_proj
I0403 18:15:36.371920 16761 net.cpp:425] inception_3b/relu_pool_proj <- inception_3b/pool_proj
I0403 18:15:36.371938 16761 net.cpp:386] inception_3b/relu_pool_proj -> inception_3b/pool_proj (in-place)
I0403 18:15:36.372367 16761 net.cpp:141] Setting up inception_3b/relu_pool_proj
I0403 18:15:36.372395 16761 net.cpp:148] Top shape: 24 64 28 28 (1204224)
I0403 18:15:36.372411 16761 net.cpp:156] Memory required for data: 773112864
I0403 18:15:36.372426 16761 layer_factory.hpp:77] Creating layer inception_3b/output
I0403 18:15:36.372447 16761 net.cpp:91] Creating Layer inception_3b/output
I0403 18:15:36.372464 16761 net.cpp:425] inception_3b/output <- inception_3b/1x1
I0403 18:15:36.372481 16761 net.cpp:425] inception_3b/output <- inception_3b/3x3
I0403 18:15:36.372498 16761 net.cpp:425] inception_3b/output <- inception_3b/5x5
I0403 18:15:36.372514 16761 net.cpp:425] inception_3b/output <- inception_3b/pool_proj
I0403 18:15:36.372531 16761 net.cpp:399] inception_3b/output -> inception_3b/output
I0403 18:15:36.372577 16761 net.cpp:141] Setting up inception_3b/output
I0403 18:15:36.372601 16761 net.cpp:148] Top shape: 24 480 28 28 (9031680)
I0403 18:15:36.372616 16761 net.cpp:156] Memory required for data: 809239584
I0403 18:15:36.372630 16761 layer_factory.hpp:77] Creating layer pool3/3x3_s2
I0403 18:15:36.372648 16761 net.cpp:91] Creating Layer pool3/3x3_s2
I0403 18:15:36.372664 16761 net.cpp:425] pool3/3x3_s2 <- inception_3b/output
I0403 18:15:36.372702 16761 net.cpp:399] pool3/3x3_s2 -> pool3/3x3_s2
I0403 18:15:36.372761 16761 net.cpp:141] Setting up pool3/3x3_s2
I0403 18:15:36.372786 16761 net.cpp:148] Top shape: 24 480 14 14 (2257920)
I0403 18:15:36.372800 16761 net.cpp:156] Memory required for data: 818271264
I0403 18:15:36.372815 16761 layer_factory.hpp:77] Creating layer pool3/3x3_s2_pool3/3x3_s2_0_split
I0403 18:15:36.372835 16761 net.cpp:91] Creating Layer pool3/3x3_s2_pool3/3x3_s2_0_split
I0403 18:15:36.372851 16761 net.cpp:425] pool3/3x3_s2_pool3/3x3_s2_0_split <- pool3/3x3_s2
I0403 18:15:36.372871 16761 net.cpp:399] pool3/3x3_s2_pool3/3x3_s2_0_split -> pool3/3x3_s2_pool3/3x3_s2_0_split_0
I0403 18:15:36.372892 16761 net.cpp:399] pool3/3x3_s2_pool3/3x3_s2_0_split -> pool3/3x3_s2_pool3/3x3_s2_0_split_1
I0403 18:15:36.372912 16761 net.cpp:399] pool3/3x3_s2_pool3/3x3_s2_0_split -> pool3/3x3_s2_pool3/3x3_s2_0_split_2
I0403 18:15:36.372932 16761 net.cpp:399] pool3/3x3_s2_pool3/3x3_s2_0_split -> pool3/3x3_s2_pool3/3x3_s2_0_split_3
I0403 18:15:36.373013 16761 net.cpp:141] Setting up pool3/3x3_s2_pool3/3x3_s2_0_split
I0403 18:15:36.373037 16761 net.cpp:148] Top shape: 24 480 14 14 (2257920)
I0403 18:15:36.373057 16761 net.cpp:148] Top shape: 24 480 14 14 (2257920)
I0403 18:15:36.373073 16761 net.cpp:148] Top shape: 24 480 14 14 (2257920)
I0403 18:15:36.373090 16761 net.cpp:148] Top shape: 24 480 14 14 (2257920)
I0403 18:15:36.373103 16761 net.cpp:156] Memory required for data: 854397984
I0403 18:15:36.373118 16761 layer_factory.hpp:77] Creating layer inception_4a/1x1
I0403 18:15:36.373139 16761 net.cpp:91] Creating Layer inception_4a/1x1
I0403 18:15:36.373157 16761 net.cpp:425] inception_4a/1x1 <- pool3/3x3_s2_pool3/3x3_s2_0_split_0
I0403 18:15:36.373179 16761 net.cpp:399] inception_4a/1x1 -> inception_4a/1x1
I0403 18:15:36.374785 16761 net.cpp:141] Setting up inception_4a/1x1
I0403 18:15:36.374815 16761 net.cpp:148] Top shape: 24 192 14 14 (903168)
I0403 18:15:36.374832 16761 net.cpp:156] Memory required for data: 858010656
I0403 18:15:36.374851 16761 layer_factory.hpp:77] Creating layer inception_4a/relu_1x1
I0403 18:15:36.374871 16761 net.cpp:91] Creating Layer inception_4a/relu_1x1
I0403 18:15:36.374886 16761 net.cpp:425] inception_4a/relu_1x1 <- inception_4a/1x1
I0403 18:15:36.374903 16761 net.cpp:386] inception_4a/relu_1x1 -> inception_4a/1x1 (in-place)
I0403 18:15:36.375090 16761 net.cpp:141] Setting up inception_4a/relu_1x1
I0403 18:15:36.375116 16761 net.cpp:148] Top shape: 24 192 14 14 (903168)
I0403 18:15:36.375133 16761 net.cpp:156] Memory required for data: 861623328
I0403 18:15:36.375147 16761 layer_factory.hpp:77] Creating layer inception_4a/3x3_reduce
I0403 18:15:36.375169 16761 net.cpp:91] Creating Layer inception_4a/3x3_reduce
I0403 18:15:36.375187 16761 net.cpp:425] inception_4a/3x3_reduce <- pool3/3x3_s2_pool3/3x3_s2_0_split_1
I0403 18:15:36.375210 16761 net.cpp:399] inception_4a/3x3_reduce -> inception_4a/3x3_reduce
I0403 18:15:36.376497 16761 net.cpp:141] Setting up inception_4a/3x3_reduce
I0403 18:15:36.376528 16761 net.cpp:148] Top shape: 24 96 14 14 (451584)
I0403 18:15:36.376544 16761 net.cpp:156] Memory required for data: 863429664
I0403 18:15:36.376569 16761 layer_factory.hpp:77] Creating layer inception_4a/relu_3x3_reduce
I0403 18:15:36.376590 16761 net.cpp:91] Creating Layer inception_4a/relu_3x3_reduce
I0403 18:15:36.376606 16761 net.cpp:425] inception_4a/relu_3x3_reduce <- inception_4a/3x3_reduce
I0403 18:15:36.376623 16761 net.cpp:386] inception_4a/relu_3x3_reduce -> inception_4a/3x3_reduce (in-place)
I0403 18:15:36.376804 16761 net.cpp:141] Setting up inception_4a/relu_3x3_reduce
I0403 18:15:36.376832 16761 net.cpp:148] Top shape: 24 96 14 14 (451584)
I0403 18:15:36.376848 16761 net.cpp:156] Memory required for data: 865236000
I0403 18:15:36.376863 16761 layer_factory.hpp:77] Creating layer inception_4a/3x3
I0403 18:15:36.376886 16761 net.cpp:91] Creating Layer inception_4a/3x3
I0403 18:15:36.376904 16761 net.cpp:425] inception_4a/3x3 <- inception_4a/3x3_reduce
I0403 18:15:36.376924 16761 net.cpp:399] inception_4a/3x3 -> inception_4a/3x3
I0403 18:15:36.379667 16761 net.cpp:141] Setting up inception_4a/3x3
I0403 18:15:36.379696 16761 net.cpp:148] Top shape: 24 208 14 14 (978432)
I0403 18:15:36.379714 16761 net.cpp:156] Memory required for data: 869149728
I0403 18:15:36.379731 16761 layer_factory.hpp:77] Creating layer inception_4a/relu_3x3
I0403 18:15:36.379750 16761 net.cpp:91] Creating Layer inception_4a/relu_3x3
I0403 18:15:36.379767 16761 net.cpp:425] inception_4a/relu_3x3 <- inception_4a/3x3
I0403 18:15:36.379788 16761 net.cpp:386] inception_4a/relu_3x3 -> inception_4a/3x3 (in-place)
I0403 18:15:36.380074 16761 net.cpp:141] Setting up inception_4a/relu_3x3
I0403 18:15:36.380101 16761 net.cpp:148] Top shape: 24 208 14 14 (978432)
I0403 18:15:36.380117 16761 net.cpp:156] Memory required for data: 873063456
I0403 18:15:36.380132 16761 layer_factory.hpp:77] Creating layer inception_4a/5x5_reduce
I0403 18:15:36.380156 16761 net.cpp:91] Creating Layer inception_4a/5x5_reduce
I0403 18:15:36.380177 16761 net.cpp:425] inception_4a/5x5_reduce <- pool3/3x3_s2_pool3/3x3_s2_0_split_2
I0403 18:15:36.380198 16761 net.cpp:399] inception_4a/5x5_reduce -> inception_4a/5x5_reduce
I0403 18:15:36.381232 16761 net.cpp:141] Setting up inception_4a/5x5_reduce
I0403 18:15:36.381260 16761 net.cpp:148] Top shape: 24 16 14 14 (75264)
I0403 18:15:36.381276 16761 net.cpp:156] Memory required for data: 873364512
I0403 18:15:36.381295 16761 layer_factory.hpp:77] Creating layer inception_4a/relu_5x5_reduce
I0403 18:15:36.381314 16761 net.cpp:91] Creating Layer inception_4a/relu_5x5_reduce
I0403 18:15:36.381331 16761 net.cpp:425] inception_4a/relu_5x5_reduce <- inception_4a/5x5_reduce
I0403 18:15:36.381352 16761 net.cpp:386] inception_4a/relu_5x5_reduce -> inception_4a/5x5_reduce (in-place)
I0403 18:15:36.381536 16761 net.cpp:141] Setting up inception_4a/relu_5x5_reduce
I0403 18:15:36.381562 16761 net.cpp:148] Top shape: 24 16 14 14 (75264)
I0403 18:15:36.381577 16761 net.cpp:156] Memory required for data: 873665568
I0403 18:15:36.381593 16761 layer_factory.hpp:77] Creating layer inception_4a/5x5
I0403 18:15:36.381616 16761 net.cpp:91] Creating Layer inception_4a/5x5
I0403 18:15:36.381634 16761 net.cpp:425] inception_4a/5x5 <- inception_4a/5x5_reduce
I0403 18:15:36.381656 16761 net.cpp:399] inception_4a/5x5 -> inception_4a/5x5
I0403 18:15:36.382753 16761 net.cpp:141] Setting up inception_4a/5x5
I0403 18:15:36.382781 16761 net.cpp:148] Top shape: 24 48 14 14 (225792)
I0403 18:15:36.382797 16761 net.cpp:156] Memory required for data: 874568736
I0403 18:15:36.382815 16761 layer_factory.hpp:77] Creating layer inception_4a/relu_5x5
I0403 18:15:36.382836 16761 net.cpp:91] Creating Layer inception_4a/relu_5x5
I0403 18:15:36.382854 16761 net.cpp:425] inception_4a/relu_5x5 <- inception_4a/5x5
I0403 18:15:36.382872 16761 net.cpp:386] inception_4a/relu_5x5 -> inception_4a/5x5 (in-place)
I0403 18:15:36.383072 16761 net.cpp:141] Setting up inception_4a/relu_5x5
I0403 18:15:36.383100 16761 net.cpp:148] Top shape: 24 48 14 14 (225792)
I0403 18:15:36.383117 16761 net.cpp:156] Memory required for data: 875471904
I0403 18:15:36.383133 16761 layer_factory.hpp:77] Creating layer inception_4a/pool
I0403 18:15:36.383152 16761 net.cpp:91] Creating Layer inception_4a/pool
I0403 18:15:36.383169 16761 net.cpp:425] inception_4a/pool <- pool3/3x3_s2_pool3/3x3_s2_0_split_3
I0403 18:15:36.383190 16761 net.cpp:399] inception_4a/pool -> inception_4a/pool
I0403 18:15:36.383255 16761 net.cpp:141] Setting up inception_4a/pool
I0403 18:15:36.383280 16761 net.cpp:148] Top shape: 24 480 14 14 (2257920)
I0403 18:15:36.383296 16761 net.cpp:156] Memory required for data: 884503584
I0403 18:15:36.383311 16761 layer_factory.hpp:77] Creating layer inception_4a/pool_proj
I0403 18:15:36.383347 16761 net.cpp:91] Creating Layer inception_4a/pool_proj
I0403 18:15:36.383365 16761 net.cpp:425] inception_4a/pool_proj <- inception_4a/pool
I0403 18:15:36.383384 16761 net.cpp:399] inception_4a/pool_proj -> inception_4a/pool_proj
I0403 18:15:36.384568 16761 net.cpp:141] Setting up inception_4a/pool_proj
I0403 18:15:36.384598 16761 net.cpp:148] Top shape: 24 64 14 14 (301056)
I0403 18:15:36.384627 16761 net.cpp:156] Memory required for data: 885707808
I0403 18:15:36.384650 16761 layer_factory.hpp:77] Creating layer inception_4a/relu_pool_proj
I0403 18:15:36.384670 16761 net.cpp:91] Creating Layer inception_4a/relu_pool_proj
I0403 18:15:36.384687 16761 net.cpp:425] inception_4a/relu_pool_proj <- inception_4a/pool_proj
I0403 18:15:36.384706 16761 net.cpp:386] inception_4a/relu_pool_proj -> inception_4a/pool_proj (in-place)
I0403 18:15:36.384999 16761 net.cpp:141] Setting up inception_4a/relu_pool_proj
I0403 18:15:36.385027 16761 net.cpp:148] Top shape: 24 64 14 14 (301056)
I0403 18:15:36.385043 16761 net.cpp:156] Memory required for data: 886912032
I0403 18:15:36.385059 16761 layer_factory.hpp:77] Creating layer inception_4a/output
I0403 18:15:36.385077 16761 net.cpp:91] Creating Layer inception_4a/output
I0403 18:15:36.385093 16761 net.cpp:425] inception_4a/output <- inception_4a/1x1
I0403 18:15:36.385110 16761 net.cpp:425] inception_4a/output <- inception_4a/3x3
I0403 18:15:36.385128 16761 net.cpp:425] inception_4a/output <- inception_4a/5x5
I0403 18:15:36.385144 16761 net.cpp:425] inception_4a/output <- inception_4a/pool_proj
I0403 18:15:36.385161 16761 net.cpp:399] inception_4a/output -> inception_4a/output
I0403 18:15:36.385210 16761 net.cpp:141] Setting up inception_4a/output
I0403 18:15:36.385233 16761 net.cpp:148] Top shape: 24 512 14 14 (2408448)
I0403 18:15:36.385248 16761 net.cpp:156] Memory required for data: 896545824
I0403 18:15:36.385263 16761 layer_factory.hpp:77] Creating layer inception_4a/output_inception_4a/output_0_split
I0403 18:15:36.385280 16761 net.cpp:91] Creating Layer inception_4a/output_inception_4a/output_0_split
I0403 18:15:36.385296 16761 net.cpp:425] inception_4a/output_inception_4a/output_0_split <- inception_4a/output
I0403 18:15:36.385318 16761 net.cpp:399] inception_4a/output_inception_4a/output_0_split -> inception_4a/output_inception_4a/output_0_split_0
I0403 18:15:36.385339 16761 net.cpp:399] inception_4a/output_inception_4a/output_0_split -> inception_4a/output_inception_4a/output_0_split_1
I0403 18:15:36.385360 16761 net.cpp:399] inception_4a/output_inception_4a/output_0_split -> inception_4a/output_inception_4a/output_0_split_2
I0403 18:15:36.385385 16761 net.cpp:399] inception_4a/output_inception_4a/output_0_split -> inception_4a/output_inception_4a/output_0_split_3
I0403 18:15:36.385407 16761 net.cpp:399] inception_4a/output_inception_4a/output_0_split -> inception_4a/output_inception_4a/output_0_split_4
I0403 18:15:36.385501 16761 net.cpp:141] Setting up inception_4a/output_inception_4a/output_0_split
I0403 18:15:36.385524 16761 net.cpp:148] Top shape: 24 512 14 14 (2408448)
I0403 18:15:36.385541 16761 net.cpp:148] Top shape: 24 512 14 14 (2408448)
I0403 18:15:36.385558 16761 net.cpp:148] Top shape: 24 512 14 14 (2408448)
I0403 18:15:36.385574 16761 net.cpp:148] Top shape: 24 512 14 14 (2408448)
I0403 18:15:36.385591 16761 net.cpp:148] Top shape: 24 512 14 14 (2408448)
I0403 18:15:36.385604 16761 net.cpp:156] Memory required for data: 944714784
I0403 18:15:36.385619 16761 layer_factory.hpp:77] Creating layer loss1/ave_pool
I0403 18:15:36.385637 16761 net.cpp:91] Creating Layer loss1/ave_pool
I0403 18:15:36.385653 16761 net.cpp:425] loss1/ave_pool <- inception_4a/output_inception_4a/output_0_split_0
I0403 18:15:36.385673 16761 net.cpp:399] loss1/ave_pool -> loss1/ave_pool
I0403 18:15:36.385882 16761 net.cpp:141] Setting up loss1/ave_pool
I0403 18:15:36.385910 16761 net.cpp:148] Top shape: 24 512 4 4 (196608)
I0403 18:15:36.385927 16761 net.cpp:156] Memory required for data: 945501216
I0403 18:15:36.385942 16761 layer_factory.hpp:77] Creating layer loss1/conv
I0403 18:15:36.385965 16761 net.cpp:91] Creating Layer loss1/conv
I0403 18:15:36.385987 16761 net.cpp:425] loss1/conv <- loss1/ave_pool
I0403 18:15:36.386008 16761 net.cpp:399] loss1/conv -> loss1/conv
I0403 18:15:36.387447 16761 net.cpp:141] Setting up loss1/conv
I0403 18:15:36.387476 16761 net.cpp:148] Top shape: 24 128 4 4 (49152)
I0403 18:15:36.387507 16761 net.cpp:156] Memory required for data: 945697824
I0403 18:15:36.387527 16761 layer_factory.hpp:77] Creating layer loss1/relu_conv
I0403 18:15:36.387547 16761 net.cpp:91] Creating Layer loss1/relu_conv
I0403 18:15:36.387563 16761 net.cpp:425] loss1/relu_conv <- loss1/conv
I0403 18:15:36.387583 16761 net.cpp:386] loss1/relu_conv -> loss1/conv (in-place)
I0403 18:15:36.387878 16761 net.cpp:141] Setting up loss1/relu_conv
I0403 18:15:36.387905 16761 net.cpp:148] Top shape: 24 128 4 4 (49152)
I0403 18:15:36.387922 16761 net.cpp:156] Memory required for data: 945894432
I0403 18:15:36.387936 16761 layer_factory.hpp:77] Creating layer loss1/fc
I0403 18:15:36.387960 16761 net.cpp:91] Creating Layer loss1/fc
I0403 18:15:36.387984 16761 net.cpp:425] loss1/fc <- loss1/conv
I0403 18:15:36.388006 16761 net.cpp:399] loss1/fc -> loss1/fc
I0403 18:15:36.406216 16761 net.cpp:141] Setting up loss1/fc
I0403 18:15:36.406251 16761 net.cpp:148] Top shape: 24 1024 (24576)
I0403 18:15:36.406268 16761 net.cpp:156] Memory required for data: 945992736
I0403 18:15:36.406287 16761 layer_factory.hpp:77] Creating layer loss1/relu_fc
I0403 18:15:36.406307 16761 net.cpp:91] Creating Layer loss1/relu_fc
I0403 18:15:36.406323 16761 net.cpp:425] loss1/relu_fc <- loss1/fc
I0403 18:15:36.406342 16761 net.cpp:386] loss1/relu_fc -> loss1/fc (in-place)
I0403 18:15:36.406533 16761 net.cpp:141] Setting up loss1/relu_fc
I0403 18:15:36.406558 16761 net.cpp:148] Top shape: 24 1024 (24576)
I0403 18:15:36.406574 16761 net.cpp:156] Memory required for data: 946091040
I0403 18:15:36.406589 16761 layer_factory.hpp:77] Creating layer loss1/drop_fc
I0403 18:15:36.406616 16761 net.cpp:91] Creating Layer loss1/drop_fc
I0403 18:15:36.406635 16761 net.cpp:425] loss1/drop_fc <- loss1/fc
I0403 18:15:36.406656 16761 net.cpp:386] loss1/drop_fc -> loss1/fc (in-place)
I0403 18:15:36.406708 16761 net.cpp:141] Setting up loss1/drop_fc
I0403 18:15:36.406731 16761 net.cpp:148] Top shape: 24 1024 (24576)
I0403 18:15:36.406746 16761 net.cpp:156] Memory required for data: 946189344
I0403 18:15:36.406762 16761 layer_factory.hpp:77] Creating layer loss1/classifier_plantvillage
I0403 18:15:36.406785 16761 net.cpp:91] Creating Layer loss1/classifier_plantvillage
I0403 18:15:36.406802 16761 net.cpp:425] loss1/classifier_plantvillage <- loss1/fc
I0403 18:15:36.406821 16761 net.cpp:399] loss1/classifier_plantvillage -> loss1/classifier_plantvillage
I0403 18:15:36.407750 16761 net.cpp:141] Setting up loss1/classifier_plantvillage
I0403 18:15:36.407780 16761 net.cpp:148] Top shape: 24 38 (912)
I0403 18:15:36.407798 16761 net.cpp:156] Memory required for data: 946192992
I0403 18:15:36.407815 16761 layer_factory.hpp:77] Creating layer loss1/classifier_plantvillage_loss1/classifier_plantvillage_0_split
I0403 18:15:36.407834 16761 net.cpp:91] Creating Layer loss1/classifier_plantvillage_loss1/classifier_plantvillage_0_split
I0403 18:15:36.407850 16761 net.cpp:425] loss1/classifier_plantvillage_loss1/classifier_plantvillage_0_split <- loss1/classifier_plantvillage
I0403 18:15:36.407867 16761 net.cpp:399] loss1/classifier_plantvillage_loss1/classifier_plantvillage_0_split -> loss1/classifier_plantvillage_loss1/classifier_plantvillage_0_split_0
I0403 18:15:36.407891 16761 net.cpp:399] loss1/classifier_plantvillage_loss1/classifier_plantvillage_0_split -> loss1/classifier_plantvillage_loss1/classifier_plantvillage_0_split_1
I0403 18:15:36.407912 16761 net.cpp:399] loss1/classifier_plantvillage_loss1/classifier_plantvillage_0_split -> loss1/classifier_plantvillage_loss1/classifier_plantvillage_0_split_2
I0403 18:15:36.407989 16761 net.cpp:141] Setting up loss1/classifier_plantvillage_loss1/classifier_plantvillage_0_split
I0403 18:15:36.408013 16761 net.cpp:148] Top shape: 24 38 (912)
I0403 18:15:36.408030 16761 net.cpp:148] Top shape: 24 38 (912)
I0403 18:15:36.408046 16761 net.cpp:148] Top shape: 24 38 (912)
I0403 18:15:36.408061 16761 net.cpp:156] Memory required for data: 946203936
I0403 18:15:36.408076 16761 layer_factory.hpp:77] Creating layer inception_4b/1x1
I0403 18:15:36.408097 16761 net.cpp:91] Creating Layer inception_4b/1x1
I0403 18:15:36.408129 16761 net.cpp:425] inception_4b/1x1 <- inception_4a/output_inception_4a/output_0_split_1
I0403 18:15:36.408152 16761 net.cpp:399] inception_4b/1x1 -> inception_4b/1x1
I0403 18:15:36.409816 16761 net.cpp:141] Setting up inception_4b/1x1
I0403 18:15:36.409844 16761 net.cpp:148] Top shape: 24 160 14 14 (752640)
I0403 18:15:36.409859 16761 net.cpp:156] Memory required for data: 949214496
I0403 18:15:36.409878 16761 layer_factory.hpp:77] Creating layer inception_4b/relu_1x1
I0403 18:15:36.409896 16761 net.cpp:91] Creating Layer inception_4b/relu_1x1
I0403 18:15:36.409912 16761 net.cpp:425] inception_4b/relu_1x1 <- inception_4b/1x1
I0403 18:15:36.409931 16761 net.cpp:386] inception_4b/relu_1x1 -> inception_4b/1x1 (in-place)
I0403 18:15:36.410117 16761 net.cpp:141] Setting up inception_4b/relu_1x1
I0403 18:15:36.410143 16761 net.cpp:148] Top shape: 24 160 14 14 (752640)
I0403 18:15:36.410158 16761 net.cpp:156] Memory required for data: 952225056
I0403 18:15:36.410174 16761 layer_factory.hpp:77] Creating layer inception_4b/3x3_reduce
I0403 18:15:36.410197 16761 net.cpp:91] Creating Layer inception_4b/3x3_reduce
I0403 18:15:36.410213 16761 net.cpp:425] inception_4b/3x3_reduce <- inception_4a/output_inception_4a/output_0_split_2
I0403 18:15:36.410236 16761 net.cpp:399] inception_4b/3x3_reduce -> inception_4b/3x3_reduce
I0403 18:15:36.411579 16761 net.cpp:141] Setting up inception_4b/3x3_reduce
I0403 18:15:36.411607 16761 net.cpp:148] Top shape: 24 112 14 14 (526848)
I0403 18:15:36.411623 16761 net.cpp:156] Memory required for data: 954332448
I0403 18:15:36.411641 16761 layer_factory.hpp:77] Creating layer inception_4b/relu_3x3_reduce
I0403 18:15:36.411662 16761 net.cpp:91] Creating Layer inception_4b/relu_3x3_reduce
I0403 18:15:36.411680 16761 net.cpp:425] inception_4b/relu_3x3_reduce <- inception_4b/3x3_reduce
I0403 18:15:36.411697 16761 net.cpp:386] inception_4b/relu_3x3_reduce -> inception_4b/3x3_reduce (in-place)
I0403 18:15:36.411985 16761 net.cpp:141] Setting up inception_4b/relu_3x3_reduce
I0403 18:15:36.412012 16761 net.cpp:148] Top shape: 24 112 14 14 (526848)
I0403 18:15:36.412027 16761 net.cpp:156] Memory required for data: 956439840
I0403 18:15:36.412044 16761 layer_factory.hpp:77] Creating layer inception_4b/3x3
I0403 18:15:36.412065 16761 net.cpp:91] Creating Layer inception_4b/3x3
I0403 18:15:36.412083 16761 net.cpp:425] inception_4b/3x3 <- inception_4b/3x3_reduce
I0403 18:15:36.412104 16761 net.cpp:399] inception_4b/3x3 -> inception_4b/3x3
I0403 18:15:36.415071 16761 net.cpp:141] Setting up inception_4b/3x3
I0403 18:15:36.415102 16761 net.cpp:148] Top shape: 24 224 14 14 (1053696)
I0403 18:15:36.415118 16761 net.cpp:156] Memory required for data: 960654624
I0403 18:15:36.415138 16761 layer_factory.hpp:77] Creating layer inception_4b/relu_3x3
I0403 18:15:36.415155 16761 net.cpp:91] Creating Layer inception_4b/relu_3x3
I0403 18:15:36.415174 16761 net.cpp:425] inception_4b/relu_3x3 <- inception_4b/3x3
I0403 18:15:36.415192 16761 net.cpp:386] inception_4b/relu_3x3 -> inception_4b/3x3 (in-place)
I0403 18:15:36.415377 16761 net.cpp:141] Setting up inception_4b/relu_3x3
I0403 18:15:36.415402 16761 net.cpp:148] Top shape: 24 224 14 14 (1053696)
I0403 18:15:36.415417 16761 net.cpp:156] Memory required for data: 964869408
I0403 18:15:36.415431 16761 layer_factory.hpp:77] Creating layer inception_4b/5x5_reduce
I0403 18:15:36.415455 16761 net.cpp:91] Creating Layer inception_4b/5x5_reduce
I0403 18:15:36.415473 16761 net.cpp:425] inception_4b/5x5_reduce <- inception_4a/output_inception_4a/output_0_split_3
I0403 18:15:36.415495 16761 net.cpp:399] inception_4b/5x5_reduce -> inception_4b/5x5_reduce
I0403 18:15:36.416576 16761 net.cpp:141] Setting up inception_4b/5x5_reduce
I0403 18:15:36.416604 16761 net.cpp:148] Top shape: 24 24 14 14 (112896)
I0403 18:15:36.416620 16761 net.cpp:156] Memory required for data: 965320992
I0403 18:15:36.416637 16761 layer_factory.hpp:77] Creating layer inception_4b/relu_5x5_reduce
I0403 18:15:36.416658 16761 net.cpp:91] Creating Layer inception_4b/relu_5x5_reduce
I0403 18:15:36.416689 16761 net.cpp:425] inception_4b/relu_5x5_reduce <- inception_4b/5x5_reduce
I0403 18:15:36.416709 16761 net.cpp:386] inception_4b/relu_5x5_reduce -> inception_4b/5x5_reduce (in-place)
I0403 18:15:36.416898 16761 net.cpp:141] Setting up inception_4b/relu_5x5_reduce
I0403 18:15:36.416923 16761 net.cpp:148] Top shape: 24 24 14 14 (112896)
I0403 18:15:36.416937 16761 net.cpp:156] Memory required for data: 965772576
I0403 18:15:36.416952 16761 layer_factory.hpp:77] Creating layer inception_4b/5x5
I0403 18:15:36.416975 16761 net.cpp:91] Creating Layer inception_4b/5x5
I0403 18:15:36.416998 16761 net.cpp:425] inception_4b/5x5 <- inception_4b/5x5_reduce
I0403 18:15:36.417017 16761 net.cpp:399] inception_4b/5x5 -> inception_4b/5x5
I0403 18:15:36.418254 16761 net.cpp:141] Setting up inception_4b/5x5
I0403 18:15:36.418282 16761 net.cpp:148] Top shape: 24 64 14 14 (301056)
I0403 18:15:36.418298 16761 net.cpp:156] Memory required for data: 966976800
I0403 18:15:36.418315 16761 layer_factory.hpp:77] Creating layer inception_4b/relu_5x5
I0403 18:15:36.418334 16761 net.cpp:91] Creating Layer inception_4b/relu_5x5
I0403 18:15:36.418350 16761 net.cpp:425] inception_4b/relu_5x5 <- inception_4b/5x5
I0403 18:15:36.418370 16761 net.cpp:386] inception_4b/relu_5x5 -> inception_4b/5x5 (in-place)
I0403 18:15:36.418658 16761 net.cpp:141] Setting up inception_4b/relu_5x5
I0403 18:15:36.418684 16761 net.cpp:148] Top shape: 24 64 14 14 (301056)
I0403 18:15:36.418699 16761 net.cpp:156] Memory required for data: 968181024
I0403 18:15:36.418715 16761 layer_factory.hpp:77] Creating layer inception_4b/pool
I0403 18:15:36.418732 16761 net.cpp:91] Creating Layer inception_4b/pool
I0403 18:15:36.418748 16761 net.cpp:425] inception_4b/pool <- inception_4a/output_inception_4a/output_0_split_4
I0403 18:15:36.418768 16761 net.cpp:399] inception_4b/pool -> inception_4b/pool
I0403 18:15:36.418833 16761 net.cpp:141] Setting up inception_4b/pool
I0403 18:15:36.418855 16761 net.cpp:148] Top shape: 24 512 14 14 (2408448)
I0403 18:15:36.418870 16761 net.cpp:156] Memory required for data: 977814816
I0403 18:15:36.418885 16761 layer_factory.hpp:77] Creating layer inception_4b/pool_proj
I0403 18:15:36.418908 16761 net.cpp:91] Creating Layer inception_4b/pool_proj
I0403 18:15:36.418926 16761 net.cpp:425] inception_4b/pool_proj <- inception_4b/pool
I0403 18:15:36.418946 16761 net.cpp:399] inception_4b/pool_proj -> inception_4b/pool_proj
I0403 18:15:36.420197 16761 net.cpp:141] Setting up inception_4b/pool_proj
I0403 18:15:36.420227 16761 net.cpp:148] Top shape: 24 64 14 14 (301056)
I0403 18:15:36.420243 16761 net.cpp:156] Memory required for data: 979019040
I0403 18:15:36.420261 16761 layer_factory.hpp:77] Creating layer inception_4b/relu_pool_proj
I0403 18:15:36.420282 16761 net.cpp:91] Creating Layer inception_4b/relu_pool_proj
I0403 18:15:36.420300 16761 net.cpp:425] inception_4b/relu_pool_proj <- inception_4b/pool_proj
I0403 18:15:36.420331 16761 net.cpp:386] inception_4b/relu_pool_proj -> inception_4b/pool_proj (in-place)
I0403 18:15:36.420512 16761 net.cpp:141] Setting up inception_4b/relu_pool_proj
I0403 18:15:36.420537 16761 net.cpp:148] Top shape: 24 64 14 14 (301056)
I0403 18:15:36.420557 16761 net.cpp:156] Memory required for data: 980223264
I0403 18:15:36.420572 16761 layer_factory.hpp:77] Creating layer inception_4b/output
I0403 18:15:36.420588 16761 net.cpp:91] Creating Layer inception_4b/output
I0403 18:15:36.420604 16761 net.cpp:425] inception_4b/output <- inception_4b/1x1
I0403 18:15:36.420620 16761 net.cpp:425] inception_4b/output <- inception_4b/3x3
I0403 18:15:36.420637 16761 net.cpp:425] inception_4b/output <- inception_4b/5x5
I0403 18:15:36.420653 16761 net.cpp:425] inception_4b/output <- inception_4b/pool_proj
I0403 18:15:36.420670 16761 net.cpp:399] inception_4b/output -> inception_4b/output
I0403 18:15:36.420716 16761 net.cpp:141] Setting up inception_4b/output
I0403 18:15:36.420738 16761 net.cpp:148] Top shape: 24 512 14 14 (2408448)
I0403 18:15:36.420753 16761 net.cpp:156] Memory required for data: 989857056
I0403 18:15:36.420783 16761 layer_factory.hpp:77] Creating layer inception_4b/output_inception_4b/output_0_split
I0403 18:15:36.420801 16761 net.cpp:91] Creating Layer inception_4b/output_inception_4b/output_0_split
I0403 18:15:36.420817 16761 net.cpp:425] inception_4b/output_inception_4b/output_0_split <- inception_4b/output
I0403 18:15:36.420837 16761 net.cpp:399] inception_4b/output_inception_4b/output_0_split -> inception_4b/output_inception_4b/output_0_split_0
I0403 18:15:36.420857 16761 net.cpp:399] inception_4b/output_inception_4b/output_0_split -> inception_4b/output_inception_4b/output_0_split_1
I0403 18:15:36.420878 16761 net.cpp:399] inception_4b/output_inception_4b/output_0_split -> inception_4b/output_inception_4b/output_0_split_2
I0403 18:15:36.420898 16761 net.cpp:399] inception_4b/output_inception_4b/output_0_split -> inception_4b/output_inception_4b/output_0_split_3
I0403 18:15:36.420987 16761 net.cpp:141] Setting up inception_4b/output_inception_4b/output_0_split
I0403 18:15:36.421011 16761 net.cpp:148] Top shape: 24 512 14 14 (2408448)
I0403 18:15:36.421028 16761 net.cpp:148] Top shape: 24 512 14 14 (2408448)
I0403 18:15:36.421043 16761 net.cpp:148] Top shape: 24 512 14 14 (2408448)
I0403 18:15:36.421058 16761 net.cpp:148] Top shape: 24 512 14 14 (2408448)
I0403 18:15:36.421072 16761 net.cpp:156] Memory required for data: 1028392224
I0403 18:15:36.421087 16761 layer_factory.hpp:77] Creating layer inception_4c/1x1
I0403 18:15:36.421109 16761 net.cpp:91] Creating Layer inception_4c/1x1
I0403 18:15:36.421128 16761 net.cpp:425] inception_4c/1x1 <- inception_4b/output_inception_4b/output_0_split_0
I0403 18:15:36.421149 16761 net.cpp:399] inception_4c/1x1 -> inception_4c/1x1
I0403 18:15:36.422595 16761 net.cpp:141] Setting up inception_4c/1x1
I0403 18:15:36.422626 16761 net.cpp:148] Top shape: 24 128 14 14 (602112)
I0403 18:15:36.422643 16761 net.cpp:156] Memory required for data: 1030800672
I0403 18:15:36.422662 16761 layer_factory.hpp:77] Creating layer inception_4c/relu_1x1
I0403 18:15:36.422682 16761 net.cpp:91] Creating Layer inception_4c/relu_1x1
I0403 18:15:36.422698 16761 net.cpp:425] inception_4c/relu_1x1 <- inception_4c/1x1
I0403 18:15:36.422714 16761 net.cpp:386] inception_4c/relu_1x1 -> inception_4c/1x1 (in-place)
I0403 18:15:36.422899 16761 net.cpp:141] Setting up inception_4c/relu_1x1
I0403 18:15:36.422926 16761 net.cpp:148] Top shape: 24 128 14 14 (602112)
I0403 18:15:36.422942 16761 net.cpp:156] Memory required for data: 1033209120
I0403 18:15:36.422958 16761 layer_factory.hpp:77] Creating layer inception_4c/3x3_reduce
I0403 18:15:36.422983 16761 net.cpp:91] Creating Layer inception_4c/3x3_reduce
I0403 18:15:36.423002 16761 net.cpp:425] inception_4c/3x3_reduce <- inception_4b/output_inception_4b/output_0_split_1
I0403 18:15:36.423023 16761 net.cpp:399] inception_4c/3x3_reduce -> inception_4c/3x3_reduce
I0403 18:15:36.424958 16761 net.cpp:141] Setting up inception_4c/3x3_reduce
I0403 18:15:36.424991 16761 net.cpp:148] Top shape: 24 128 14 14 (602112)
I0403 18:15:36.425009 16761 net.cpp:156] Memory required for data: 1035617568
I0403 18:15:36.425027 16761 layer_factory.hpp:77] Creating layer inception_4c/relu_3x3_reduce
I0403 18:15:36.425045 16761 net.cpp:91] Creating Layer inception_4c/relu_3x3_reduce
I0403 18:15:36.425065 16761 net.cpp:425] inception_4c/relu_3x3_reduce <- inception_4c/3x3_reduce
I0403 18:15:36.425083 16761 net.cpp:386] inception_4c/relu_3x3_reduce -> inception_4c/3x3_reduce (in-place)
I0403 18:15:36.425370 16761 net.cpp:141] Setting up inception_4c/relu_3x3_reduce
I0403 18:15:36.425396 16761 net.cpp:148] Top shape: 24 128 14 14 (602112)
I0403 18:15:36.425412 16761 net.cpp:156] Memory required for data: 1038026016
I0403 18:15:36.425427 16761 layer_factory.hpp:77] Creating layer inception_4c/3x3
I0403 18:15:36.425451 16761 net.cpp:91] Creating Layer inception_4c/3x3
I0403 18:15:36.425467 16761 net.cpp:425] inception_4c/3x3 <- inception_4c/3x3_reduce
I0403 18:15:36.425490 16761 net.cpp:399] inception_4c/3x3 -> inception_4c/3x3
I0403 18:15:36.429095 16761 net.cpp:141] Setting up inception_4c/3x3
I0403 18:15:36.429136 16761 net.cpp:148] Top shape: 24 256 14 14 (1204224)
I0403 18:15:36.429152 16761 net.cpp:156] Memory required for data: 1042842912
I0403 18:15:36.429184 16761 layer_factory.hpp:77] Creating layer inception_4c/relu_3x3
I0403 18:15:36.429205 16761 net.cpp:91] Creating Layer inception_4c/relu_3x3
I0403 18:15:36.429222 16761 net.cpp:425] inception_4c/relu_3x3 <- inception_4c/3x3
I0403 18:15:36.429242 16761 net.cpp:386] inception_4c/relu_3x3 -> inception_4c/3x3 (in-place)
I0403 18:15:36.429425 16761 net.cpp:141] Setting up inception_4c/relu_3x3
I0403 18:15:36.429450 16761 net.cpp:148] Top shape: 24 256 14 14 (1204224)
I0403 18:15:36.429466 16761 net.cpp:156] Memory required for data: 1047659808
I0403 18:15:36.429479 16761 layer_factory.hpp:77] Creating layer inception_4c/5x5_reduce
I0403 18:15:36.429502 16761 net.cpp:91] Creating Layer inception_4c/5x5_reduce
I0403 18:15:36.429520 16761 net.cpp:425] inception_4c/5x5_reduce <- inception_4b/output_inception_4b/output_0_split_2
I0403 18:15:36.429541 16761 net.cpp:399] inception_4c/5x5_reduce -> inception_4c/5x5_reduce
I0403 18:15:36.430631 16761 net.cpp:141] Setting up inception_4c/5x5_reduce
I0403 18:15:36.430660 16761 net.cpp:148] Top shape: 24 24 14 14 (112896)
I0403 18:15:36.430675 16761 net.cpp:156] Memory required for data: 1048111392
I0403 18:15:36.430693 16761 layer_factory.hpp:77] Creating layer inception_4c/relu_5x5_reduce
I0403 18:15:36.430713 16761 net.cpp:91] Creating Layer inception_4c/relu_5x5_reduce
I0403 18:15:36.430732 16761 net.cpp:425] inception_4c/relu_5x5_reduce <- inception_4c/5x5_reduce
I0403 18:15:36.430748 16761 net.cpp:386] inception_4c/relu_5x5_reduce -> inception_4c/5x5_reduce (in-place)
I0403 18:15:36.430934 16761 net.cpp:141] Setting up inception_4c/relu_5x5_reduce
I0403 18:15:36.430959 16761 net.cpp:148] Top shape: 24 24 14 14 (112896)
I0403 18:15:36.430974 16761 net.cpp:156] Memory required for data: 1048562976
I0403 18:15:36.430994 16761 layer_factory.hpp:77] Creating layer inception_4c/5x5
I0403 18:15:36.431018 16761 net.cpp:91] Creating Layer inception_4c/5x5
I0403 18:15:36.431035 16761 net.cpp:425] inception_4c/5x5 <- inception_4c/5x5_reduce
I0403 18:15:36.431054 16761 net.cpp:399] inception_4c/5x5 -> inception_4c/5x5
I0403 18:15:36.432293 16761 net.cpp:141] Setting up inception_4c/5x5
I0403 18:15:36.432320 16761 net.cpp:148] Top shape: 24 64 14 14 (301056)
I0403 18:15:36.432337 16761 net.cpp:156] Memory required for data: 1049767200
I0403 18:15:36.432354 16761 layer_factory.hpp:77] Creating layer inception_4c/relu_5x5
I0403 18:15:36.432376 16761 net.cpp:91] Creating Layer inception_4c/relu_5x5
I0403 18:15:36.432391 16761 net.cpp:425] inception_4c/relu_5x5 <- inception_4c/5x5
I0403 18:15:36.432409 16761 net.cpp:386] inception_4c/relu_5x5 -> inception_4c/5x5 (in-place)
I0403 18:15:36.432700 16761 net.cpp:141] Setting up inception_4c/relu_5x5
I0403 18:15:36.432726 16761 net.cpp:148] Top shape: 24 64 14 14 (301056)
I0403 18:15:36.432744 16761 net.cpp:156] Memory required for data: 1050971424
I0403 18:15:36.432760 16761 layer_factory.hpp:77] Creating layer inception_4c/pool
I0403 18:15:36.432777 16761 net.cpp:91] Creating Layer inception_4c/pool
I0403 18:15:36.432795 16761 net.cpp:425] inception_4c/pool <- inception_4b/output_inception_4b/output_0_split_3
I0403 18:15:36.432812 16761 net.cpp:399] inception_4c/pool -> inception_4c/pool
I0403 18:15:36.432878 16761 net.cpp:141] Setting up inception_4c/pool
I0403 18:15:36.432901 16761 net.cpp:148] Top shape: 24 512 14 14 (2408448)
I0403 18:15:36.432917 16761 net.cpp:156] Memory required for data: 1060605216
I0403 18:15:36.432931 16761 layer_factory.hpp:77] Creating layer inception_4c/pool_proj
I0403 18:15:36.432953 16761 net.cpp:91] Creating Layer inception_4c/pool_proj
I0403 18:15:36.432971 16761 net.cpp:425] inception_4c/pool_proj <- inception_4c/pool
I0403 18:15:36.432997 16761 net.cpp:399] inception_4c/pool_proj -> inception_4c/pool_proj
I0403 18:15:36.434226 16761 net.cpp:141] Setting up inception_4c/pool_proj
I0403 18:15:36.434253 16761 net.cpp:148] Top shape: 24 64 14 14 (301056)
I0403 18:15:36.434283 16761 net.cpp:156] Memory required for data: 1061809440
I0403 18:15:36.434303 16761 layer_factory.hpp:77] Creating layer inception_4c/relu_pool_proj
I0403 18:15:36.434321 16761 net.cpp:91] Creating Layer inception_4c/relu_pool_proj
I0403 18:15:36.434337 16761 net.cpp:425] inception_4c/relu_pool_proj <- inception_4c/pool_proj
I0403 18:15:36.434358 16761 net.cpp:386] inception_4c/relu_pool_proj -> inception_4c/pool_proj (in-place)
I0403 18:15:36.434543 16761 net.cpp:141] Setting up inception_4c/relu_pool_proj
I0403 18:15:36.434568 16761 net.cpp:148] Top shape: 24 64 14 14 (301056)
I0403 18:15:36.434583 16761 net.cpp:156] Memory required for data: 1063013664
I0403 18:15:36.434598 16761 layer_factory.hpp:77] Creating layer inception_4c/output
I0403 18:15:36.434620 16761 net.cpp:91] Creating Layer inception_4c/output
I0403 18:15:36.434636 16761 net.cpp:425] inception_4c/output <- inception_4c/1x1
I0403 18:15:36.434653 16761 net.cpp:425] inception_4c/output <- inception_4c/3x3
I0403 18:15:36.434669 16761 net.cpp:425] inception_4c/output <- inception_4c/5x5
I0403 18:15:36.434684 16761 net.cpp:425] inception_4c/output <- inception_4c/pool_proj
I0403 18:15:36.434700 16761 net.cpp:399] inception_4c/output -> inception_4c/output
I0403 18:15:36.434747 16761 net.cpp:141] Setting up inception_4c/output
I0403 18:15:36.434772 16761 net.cpp:148] Top shape: 24 512 14 14 (2408448)
I0403 18:15:36.434785 16761 net.cpp:156] Memory required for data: 1072647456
I0403 18:15:36.434801 16761 layer_factory.hpp:77] Creating layer inception_4c/output_inception_4c/output_0_split
I0403 18:15:36.434818 16761 net.cpp:91] Creating Layer inception_4c/output_inception_4c/output_0_split
I0403 18:15:36.434834 16761 net.cpp:425] inception_4c/output_inception_4c/output_0_split <- inception_4c/output
I0403 18:15:36.434854 16761 net.cpp:399] inception_4c/output_inception_4c/output_0_split -> inception_4c/output_inception_4c/output_0_split_0
I0403 18:15:36.434875 16761 net.cpp:399] inception_4c/output_inception_4c/output_0_split -> inception_4c/output_inception_4c/output_0_split_1
I0403 18:15:36.434895 16761 net.cpp:399] inception_4c/output_inception_4c/output_0_split -> inception_4c/output_inception_4c/output_0_split_2
I0403 18:15:36.434916 16761 net.cpp:399] inception_4c/output_inception_4c/output_0_split -> inception_4c/output_inception_4c/output_0_split_3
I0403 18:15:36.435004 16761 net.cpp:141] Setting up inception_4c/output_inception_4c/output_0_split
I0403 18:15:36.435029 16761 net.cpp:148] Top shape: 24 512 14 14 (2408448)
I0403 18:15:36.435045 16761 net.cpp:148] Top shape: 24 512 14 14 (2408448)
I0403 18:15:36.435060 16761 net.cpp:148] Top shape: 24 512 14 14 (2408448)
I0403 18:15:36.435076 16761 net.cpp:148] Top shape: 24 512 14 14 (2408448)
I0403 18:15:36.435091 16761 net.cpp:156] Memory required for data: 1111182624
I0403 18:15:36.435104 16761 layer_factory.hpp:77] Creating layer inception_4d/1x1
I0403 18:15:36.435127 16761 net.cpp:91] Creating Layer inception_4d/1x1
I0403 18:15:36.435145 16761 net.cpp:425] inception_4d/1x1 <- inception_4c/output_inception_4c/output_0_split_0
I0403 18:15:36.435168 16761 net.cpp:399] inception_4d/1x1 -> inception_4d/1x1
I0403 18:15:36.436553 16761 net.cpp:141] Setting up inception_4d/1x1
I0403 18:15:36.436583 16761 net.cpp:148] Top shape: 24 112 14 14 (526848)
I0403 18:15:36.436599 16761 net.cpp:156] Memory required for data: 1113290016
I0403 18:15:36.436619 16761 layer_factory.hpp:77] Creating layer inception_4d/relu_1x1
I0403 18:15:36.436637 16761 net.cpp:91] Creating Layer inception_4d/relu_1x1
I0403 18:15:36.436655 16761 net.cpp:425] inception_4d/relu_1x1 <- inception_4d/1x1
I0403 18:15:36.436673 16761 net.cpp:386] inception_4d/relu_1x1 -> inception_4d/1x1 (in-place)
I0403 18:15:36.436863 16761 net.cpp:141] Setting up inception_4d/relu_1x1
I0403 18:15:36.436888 16761 net.cpp:148] Top shape: 24 112 14 14 (526848)
I0403 18:15:36.436903 16761 net.cpp:156] Memory required for data: 1115397408
I0403 18:15:36.436918 16761 layer_factory.hpp:77] Creating layer inception_4d/3x3_reduce
I0403 18:15:36.436954 16761 net.cpp:91] Creating Layer inception_4d/3x3_reduce
I0403 18:15:36.436972 16761 net.cpp:425] inception_4d/3x3_reduce <- inception_4c/output_inception_4c/output_0_split_1
I0403 18:15:36.437000 16761 net.cpp:399] inception_4d/3x3_reduce -> inception_4d/3x3_reduce
I0403 18:15:36.438560 16761 net.cpp:141] Setting up inception_4d/3x3_reduce
I0403 18:15:36.438587 16761 net.cpp:148] Top shape: 24 144 14 14 (677376)
I0403 18:15:36.438602 16761 net.cpp:156] Memory required for data: 1118106912
I0403 18:15:36.438621 16761 layer_factory.hpp:77] Creating layer inception_4d/relu_3x3_reduce
I0403 18:15:36.438642 16761 net.cpp:91] Creating Layer inception_4d/relu_3x3_reduce
I0403 18:15:36.438658 16761 net.cpp:425] inception_4d/relu_3x3_reduce <- inception_4d/3x3_reduce
I0403 18:15:36.438676 16761 net.cpp:386] inception_4d/relu_3x3_reduce -> inception_4d/3x3_reduce (in-place)
I0403 18:15:36.438969 16761 net.cpp:141] Setting up inception_4d/relu_3x3_reduce
I0403 18:15:36.439005 16761 net.cpp:148] Top shape: 24 144 14 14 (677376)
I0403 18:15:36.439021 16761 net.cpp:156] Memory required for data: 1120816416
I0403 18:15:36.439036 16761 layer_factory.hpp:77] Creating layer inception_4d/3x3
I0403 18:15:36.439060 16761 net.cpp:91] Creating Layer inception_4d/3x3
I0403 18:15:36.439077 16761 net.cpp:425] inception_4d/3x3 <- inception_4d/3x3_reduce
I0403 18:15:36.439097 16761 net.cpp:399] inception_4d/3x3 -> inception_4d/3x3
I0403 18:15:36.446508 16761 net.cpp:141] Setting up inception_4d/3x3
I0403 18:15:36.446547 16761 net.cpp:148] Top shape: 24 288 14 14 (1354752)
I0403 18:15:36.446564 16761 net.cpp:156] Memory required for data: 1126235424
I0403 18:15:36.446583 16761 layer_factory.hpp:77] Creating layer inception_4d/relu_3x3
I0403 18:15:36.446602 16761 net.cpp:91] Creating Layer inception_4d/relu_3x3
I0403 18:15:36.446619 16761 net.cpp:425] inception_4d/relu_3x3 <- inception_4d/3x3
I0403 18:15:36.446640 16761 net.cpp:386] inception_4d/relu_3x3 -> inception_4d/3x3 (in-place)
I0403 18:15:36.446826 16761 net.cpp:141] Setting up inception_4d/relu_3x3
I0403 18:15:36.446851 16761 net.cpp:148] Top shape: 24 288 14 14 (1354752)
I0403 18:15:36.446866 16761 net.cpp:156] Memory required for data: 1131654432
I0403 18:15:36.446882 16761 layer_factory.hpp:77] Creating layer inception_4d/5x5_reduce
I0403 18:15:36.446903 16761 net.cpp:91] Creating Layer inception_4d/5x5_reduce
I0403 18:15:36.446921 16761 net.cpp:425] inception_4d/5x5_reduce <- inception_4c/output_inception_4c/output_0_split_2
I0403 18:15:36.446943 16761 net.cpp:399] inception_4d/5x5_reduce -> inception_4d/5x5_reduce
I0403 18:15:36.448107 16761 net.cpp:141] Setting up inception_4d/5x5_reduce
I0403 18:15:36.448135 16761 net.cpp:148] Top shape: 24 32 14 14 (150528)
I0403 18:15:36.448150 16761 net.cpp:156] Memory required for data: 1132256544
I0403 18:15:36.448169 16761 layer_factory.hpp:77] Creating layer inception_4d/relu_5x5_reduce
I0403 18:15:36.448187 16761 net.cpp:91] Creating Layer inception_4d/relu_5x5_reduce
I0403 18:15:36.448204 16761 net.cpp:425] inception_4d/relu_5x5_reduce <- inception_4d/5x5_reduce
I0403 18:15:36.448223 16761 net.cpp:386] inception_4d/relu_5x5_reduce -> inception_4d/5x5_reduce (in-place)
I0403 18:15:36.448415 16761 net.cpp:141] Setting up inception_4d/relu_5x5_reduce
I0403 18:15:36.448439 16761 net.cpp:148] Top shape: 24 32 14 14 (150528)
I0403 18:15:36.448454 16761 net.cpp:156] Memory required for data: 1132858656
I0403 18:15:36.448469 16761 layer_factory.hpp:77] Creating layer inception_4d/5x5
I0403 18:15:36.448493 16761 net.cpp:91] Creating Layer inception_4d/5x5
I0403 18:15:36.448509 16761 net.cpp:425] inception_4d/5x5 <- inception_4d/5x5_reduce
I0403 18:15:36.448530 16761 net.cpp:399] inception_4d/5x5 -> inception_4d/5x5
I0403 18:15:36.450044 16761 net.cpp:141] Setting up inception_4d/5x5
I0403 18:15:36.450073 16761 net.cpp:148] Top shape: 24 64 14 14 (301056)
I0403 18:15:36.450088 16761 net.cpp:156] Memory required for data: 1134062880
I0403 18:15:36.450108 16761 layer_factory.hpp:77] Creating layer inception_4d/relu_5x5
I0403 18:15:36.450146 16761 net.cpp:91] Creating Layer inception_4d/relu_5x5
I0403 18:15:36.450165 16761 net.cpp:425] inception_4d/relu_5x5 <- inception_4d/5x5
I0403 18:15:36.450183 16761 net.cpp:386] inception_4d/relu_5x5 -> inception_4d/5x5 (in-place)
I0403 18:15:36.450492 16761 net.cpp:141] Setting up inception_4d/relu_5x5
I0403 18:15:36.450518 16761 net.cpp:148] Top shape: 24 64 14 14 (301056)
I0403 18:15:36.450534 16761 net.cpp:156] Memory required for data: 1135267104
I0403 18:15:36.450549 16761 layer_factory.hpp:77] Creating layer inception_4d/pool
I0403 18:15:36.450569 16761 net.cpp:91] Creating Layer inception_4d/pool
I0403 18:15:36.450587 16761 net.cpp:425] inception_4d/pool <- inception_4c/output_inception_4c/output_0_split_3
I0403 18:15:36.450605 16761 net.cpp:399] inception_4d/pool -> inception_4d/pool
I0403 18:15:36.450673 16761 net.cpp:141] Setting up inception_4d/pool
I0403 18:15:36.450697 16761 net.cpp:148] Top shape: 24 512 14 14 (2408448)
I0403 18:15:36.450711 16761 net.cpp:156] Memory required for data: 1144900896
I0403 18:15:36.450726 16761 layer_factory.hpp:77] Creating layer inception_4d/pool_proj
I0403 18:15:36.450747 16761 net.cpp:91] Creating Layer inception_4d/pool_proj
I0403 18:15:36.450767 16761 net.cpp:425] inception_4d/pool_proj <- inception_4d/pool
I0403 18:15:36.450788 16761 net.cpp:399] inception_4d/pool_proj -> inception_4d/pool_proj
I0403 18:15:36.452553 16761 net.cpp:141] Setting up inception_4d/pool_proj
I0403 18:15:36.452584 16761 net.cpp:148] Top shape: 24 64 14 14 (301056)
I0403 18:15:36.452601 16761 net.cpp:156] Memory required for data: 1146105120
I0403 18:15:36.452620 16761 layer_factory.hpp:77] Creating layer inception_4d/relu_pool_proj
I0403 18:15:36.452638 16761 net.cpp:91] Creating Layer inception_4d/relu_pool_proj
I0403 18:15:36.452654 16761 net.cpp:425] inception_4d/relu_pool_proj <- inception_4d/pool_proj
I0403 18:15:36.452675 16761 net.cpp:386] inception_4d/relu_pool_proj -> inception_4d/pool_proj (in-place)
I0403 18:15:36.452862 16761 net.cpp:141] Setting up inception_4d/relu_pool_proj
I0403 18:15:36.452886 16761 net.cpp:148] Top shape: 24 64 14 14 (301056)
I0403 18:15:36.452901 16761 net.cpp:156] Memory required for data: 1147309344
I0403 18:15:36.452916 16761 layer_factory.hpp:77] Creating layer inception_4d/output
I0403 18:15:36.452934 16761 net.cpp:91] Creating Layer inception_4d/output
I0403 18:15:36.452950 16761 net.cpp:425] inception_4d/output <- inception_4d/1x1
I0403 18:15:36.452966 16761 net.cpp:425] inception_4d/output <- inception_4d/3x3
I0403 18:15:36.452987 16761 net.cpp:425] inception_4d/output <- inception_4d/5x5
I0403 18:15:36.453004 16761 net.cpp:425] inception_4d/output <- inception_4d/pool_proj
I0403 18:15:36.453027 16761 net.cpp:399] inception_4d/output -> inception_4d/output
I0403 18:15:36.453078 16761 net.cpp:141] Setting up inception_4d/output
I0403 18:15:36.453100 16761 net.cpp:148] Top shape: 24 528 14 14 (2483712)
I0403 18:15:36.453115 16761 net.cpp:156] Memory required for data: 1157244192
I0403 18:15:36.453130 16761 layer_factory.hpp:77] Creating layer inception_4d/output_inception_4d/output_0_split
I0403 18:15:36.453147 16761 net.cpp:91] Creating Layer inception_4d/output_inception_4d/output_0_split
I0403 18:15:36.453163 16761 net.cpp:425] inception_4d/output_inception_4d/output_0_split <- inception_4d/output
I0403 18:15:36.453184 16761 net.cpp:399] inception_4d/output_inception_4d/output_0_split -> inception_4d/output_inception_4d/output_0_split_0
I0403 18:15:36.453207 16761 net.cpp:399] inception_4d/output_inception_4d/output_0_split -> inception_4d/output_inception_4d/output_0_split_1
I0403 18:15:36.453227 16761 net.cpp:399] inception_4d/output_inception_4d/output_0_split -> inception_4d/output_inception_4d/output_0_split_2
I0403 18:15:36.453248 16761 net.cpp:399] inception_4d/output_inception_4d/output_0_split -> inception_4d/output_inception_4d/output_0_split_3
I0403 18:15:36.453268 16761 net.cpp:399] inception_4d/output_inception_4d/output_0_split -> inception_4d/output_inception_4d/output_0_split_4
I0403 18:15:36.453369 16761 net.cpp:141] Setting up inception_4d/output_inception_4d/output_0_split
I0403 18:15:36.453408 16761 net.cpp:148] Top shape: 24 528 14 14 (2483712)
I0403 18:15:36.453424 16761 net.cpp:148] Top shape: 24 528 14 14 (2483712)
I0403 18:15:36.453440 16761 net.cpp:148] Top shape: 24 528 14 14 (2483712)
I0403 18:15:36.453455 16761 net.cpp:148] Top shape: 24 528 14 14 (2483712)
I0403 18:15:36.453471 16761 net.cpp:148] Top shape: 24 528 14 14 (2483712)
I0403 18:15:36.453485 16761 net.cpp:156] Memory required for data: 1206918432
I0403 18:15:36.453500 16761 layer_factory.hpp:77] Creating layer loss2/ave_pool
I0403 18:15:36.453516 16761 net.cpp:91] Creating Layer loss2/ave_pool
I0403 18:15:36.453533 16761 net.cpp:425] loss2/ave_pool <- inception_4d/output_inception_4d/output_0_split_0
I0403 18:15:36.453553 16761 net.cpp:399] loss2/ave_pool -> loss2/ave_pool
I0403 18:15:36.453867 16761 net.cpp:141] Setting up loss2/ave_pool
I0403 18:15:36.453896 16761 net.cpp:148] Top shape: 24 528 4 4 (202752)
I0403 18:15:36.453912 16761 net.cpp:156] Memory required for data: 1207729440
I0403 18:15:36.453927 16761 layer_factory.hpp:77] Creating layer loss2/conv
I0403 18:15:36.453948 16761 net.cpp:91] Creating Layer loss2/conv
I0403 18:15:36.453966 16761 net.cpp:425] loss2/conv <- loss2/ave_pool
I0403 18:15:36.453992 16761 net.cpp:399] loss2/conv -> loss2/conv
I0403 18:15:36.455884 16761 net.cpp:141] Setting up loss2/conv
I0403 18:15:36.455912 16761 net.cpp:148] Top shape: 24 128 4 4 (49152)
I0403 18:15:36.455929 16761 net.cpp:156] Memory required for data: 1207926048
I0403 18:15:36.455946 16761 layer_factory.hpp:77] Creating layer loss2/relu_conv
I0403 18:15:36.455968 16761 net.cpp:91] Creating Layer loss2/relu_conv
I0403 18:15:36.455989 16761 net.cpp:425] loss2/relu_conv <- loss2/conv
I0403 18:15:36.456008 16761 net.cpp:386] loss2/relu_conv -> loss2/conv (in-place)
I0403 18:15:36.456298 16761 net.cpp:141] Setting up loss2/relu_conv
I0403 18:15:36.456324 16761 net.cpp:148] Top shape: 24 128 4 4 (49152)
I0403 18:15:36.456339 16761 net.cpp:156] Memory required for data: 1208122656
I0403 18:15:36.456354 16761 layer_factory.hpp:77] Creating layer loss2/fc
I0403 18:15:36.456375 16761 net.cpp:91] Creating Layer loss2/fc
I0403 18:15:36.456393 16761 net.cpp:425] loss2/fc <- loss2/conv
I0403 18:15:36.456413 16761 net.cpp:399] loss2/fc -> loss2/fc
I0403 18:15:36.474068 16761 net.cpp:141] Setting up loss2/fc
I0403 18:15:36.474100 16761 net.cpp:148] Top shape: 24 1024 (24576)
I0403 18:15:36.474117 16761 net.cpp:156] Memory required for data: 1208220960
I0403 18:15:36.474134 16761 layer_factory.hpp:77] Creating layer loss2/relu_fc
I0403 18:15:36.474153 16761 net.cpp:91] Creating Layer loss2/relu_fc
I0403 18:15:36.474170 16761 net.cpp:425] loss2/relu_fc <- loss2/fc
I0403 18:15:36.474191 16761 net.cpp:386] loss2/relu_fc -> loss2/fc (in-place)
I0403 18:15:36.474493 16761 net.cpp:141] Setting up loss2/relu_fc
I0403 18:15:36.474519 16761 net.cpp:148] Top shape: 24 1024 (24576)
I0403 18:15:36.474534 16761 net.cpp:156] Memory required for data: 1208319264
I0403 18:15:36.474550 16761 layer_factory.hpp:77] Creating layer loss2/drop_fc
I0403 18:15:36.474567 16761 net.cpp:91] Creating Layer loss2/drop_fc
I0403 18:15:36.474584 16761 net.cpp:425] loss2/drop_fc <- loss2/fc
I0403 18:15:36.474603 16761 net.cpp:386] loss2/drop_fc -> loss2/fc (in-place)
I0403 18:15:36.474653 16761 net.cpp:141] Setting up loss2/drop_fc
I0403 18:15:36.474678 16761 net.cpp:148] Top shape: 24 1024 (24576)
I0403 18:15:36.474694 16761 net.cpp:156] Memory required for data: 1208417568
I0403 18:15:36.474709 16761 layer_factory.hpp:77] Creating layer loss2/classifier_plantvillage
I0403 18:15:36.474725 16761 net.cpp:91] Creating Layer loss2/classifier_plantvillage
I0403 18:15:36.474742 16761 net.cpp:425] loss2/classifier_plantvillage <- loss2/fc
I0403 18:15:36.474764 16761 net.cpp:399] loss2/classifier_plantvillage -> loss2/classifier_plantvillage
I0403 18:15:36.475172 16761 net.cpp:141] Setting up loss2/classifier_plantvillage
I0403 18:15:36.475198 16761 net.cpp:148] Top shape: 24 38 (912)
I0403 18:15:36.475229 16761 net.cpp:156] Memory required for data: 1208421216
I0403 18:15:36.475247 16761 layer_factory.hpp:77] Creating layer loss2/classifier_plantvillage_loss2/classifier_plantvillage_0_split
I0403 18:15:36.475268 16761 net.cpp:91] Creating Layer loss2/classifier_plantvillage_loss2/classifier_plantvillage_0_split
I0403 18:15:36.475284 16761 net.cpp:425] loss2/classifier_plantvillage_loss2/classifier_plantvillage_0_split <- loss2/classifier_plantvillage
I0403 18:15:36.475303 16761 net.cpp:399] loss2/classifier_plantvillage_loss2/classifier_plantvillage_0_split -> loss2/classifier_plantvillage_loss2/classifier_plantvillage_0_split_0
I0403 18:15:36.475323 16761 net.cpp:399] loss2/classifier_plantvillage_loss2/classifier_plantvillage_0_split -> loss2/classifier_plantvillage_loss2/classifier_plantvillage_0_split_1
I0403 18:15:36.475347 16761 net.cpp:399] loss2/classifier_plantvillage_loss2/classifier_plantvillage_0_split -> loss2/classifier_plantvillage_loss2/classifier_plantvillage_0_split_2
I0403 18:15:36.475426 16761 net.cpp:141] Setting up loss2/classifier_plantvillage_loss2/classifier_plantvillage_0_split
I0403 18:15:36.475450 16761 net.cpp:148] Top shape: 24 38 (912)
I0403 18:15:36.475466 16761 net.cpp:148] Top shape: 24 38 (912)
I0403 18:15:36.475481 16761 net.cpp:148] Top shape: 24 38 (912)
I0403 18:15:36.475494 16761 net.cpp:156] Memory required for data: 1208432160
I0403 18:15:36.475509 16761 layer_factory.hpp:77] Creating layer inception_4e/1x1
I0403 18:15:36.475530 16761 net.cpp:91] Creating Layer inception_4e/1x1
I0403 18:15:36.475548 16761 net.cpp:425] inception_4e/1x1 <- inception_4d/output_inception_4d/output_0_split_1
I0403 18:15:36.475567 16761 net.cpp:399] inception_4e/1x1 -> inception_4e/1x1
I0403 18:15:36.477427 16761 net.cpp:141] Setting up inception_4e/1x1
I0403 18:15:36.477454 16761 net.cpp:148] Top shape: 24 256 14 14 (1204224)
I0403 18:15:36.477470 16761 net.cpp:156] Memory required for data: 1213249056
I0403 18:15:36.477488 16761 layer_factory.hpp:77] Creating layer inception_4e/relu_1x1
I0403 18:15:36.477509 16761 net.cpp:91] Creating Layer inception_4e/relu_1x1
I0403 18:15:36.477527 16761 net.cpp:425] inception_4e/relu_1x1 <- inception_4e/1x1
I0403 18:15:36.477545 16761 net.cpp:386] inception_4e/relu_1x1 -> inception_4e/1x1 (in-place)
I0403 18:15:36.477848 16761 net.cpp:141] Setting up inception_4e/relu_1x1
I0403 18:15:36.477874 16761 net.cpp:148] Top shape: 24 256 14 14 (1204224)
I0403 18:15:36.477890 16761 net.cpp:156] Memory required for data: 1218065952
I0403 18:15:36.477905 16761 layer_factory.hpp:77] Creating layer inception_4e/3x3_reduce
I0403 18:15:36.477927 16761 net.cpp:91] Creating Layer inception_4e/3x3_reduce
I0403 18:15:36.477944 16761 net.cpp:425] inception_4e/3x3_reduce <- inception_4d/output_inception_4d/output_0_split_2
I0403 18:15:36.477967 16761 net.cpp:399] inception_4e/3x3_reduce -> inception_4e/3x3_reduce
I0403 18:15:36.480114 16761 net.cpp:141] Setting up inception_4e/3x3_reduce
I0403 18:15:36.480144 16761 net.cpp:148] Top shape: 24 160 14 14 (752640)
I0403 18:15:36.480160 16761 net.cpp:156] Memory required for data: 1221076512
I0403 18:15:36.480180 16761 layer_factory.hpp:77] Creating layer inception_4e/relu_3x3_reduce
I0403 18:15:36.480201 16761 net.cpp:91] Creating Layer inception_4e/relu_3x3_reduce
I0403 18:15:36.480218 16761 net.cpp:425] inception_4e/relu_3x3_reduce <- inception_4e/3x3_reduce
I0403 18:15:36.480237 16761 net.cpp:386] inception_4e/relu_3x3_reduce -> inception_4e/3x3_reduce (in-place)
I0403 18:15:36.480425 16761 net.cpp:141] Setting up inception_4e/relu_3x3_reduce
I0403 18:15:36.480453 16761 net.cpp:148] Top shape: 24 160 14 14 (752640)
I0403 18:15:36.480469 16761 net.cpp:156] Memory required for data: 1224087072
I0403 18:15:36.480484 16761 layer_factory.hpp:77] Creating layer inception_4e/3x3
I0403 18:15:36.480506 16761 net.cpp:91] Creating Layer inception_4e/3x3
I0403 18:15:36.480525 16761 net.cpp:425] inception_4e/3x3 <- inception_4e/3x3_reduce
I0403 18:15:36.480543 16761 net.cpp:399] inception_4e/3x3 -> inception_4e/3x3
I0403 18:15:36.485591 16761 net.cpp:141] Setting up inception_4e/3x3
I0403 18:15:36.485636 16761 net.cpp:148] Top shape: 24 320 14 14 (1505280)
I0403 18:15:36.485653 16761 net.cpp:156] Memory required for data: 1230108192
I0403 18:15:36.485673 16761 layer_factory.hpp:77] Creating layer inception_4e/relu_3x3
I0403 18:15:36.485692 16761 net.cpp:91] Creating Layer inception_4e/relu_3x3
I0403 18:15:36.485709 16761 net.cpp:425] inception_4e/relu_3x3 <- inception_4e/3x3
I0403 18:15:36.485726 16761 net.cpp:386] inception_4e/relu_3x3 -> inception_4e/3x3 (in-place)
I0403 18:15:36.486035 16761 net.cpp:141] Setting up inception_4e/relu_3x3
I0403 18:15:36.486063 16761 net.cpp:148] Top shape: 24 320 14 14 (1505280)
I0403 18:15:36.486079 16761 net.cpp:156] Memory required for data: 1236129312
I0403 18:15:36.486094 16761 layer_factory.hpp:77] Creating layer inception_4e/5x5_reduce
I0403 18:15:36.486119 16761 net.cpp:91] Creating Layer inception_4e/5x5_reduce
I0403 18:15:36.486136 16761 net.cpp:425] inception_4e/5x5_reduce <- inception_4d/output_inception_4d/output_0_split_3
I0403 18:15:36.486158 16761 net.cpp:399] inception_4e/5x5_reduce -> inception_4e/5x5_reduce
I0403 18:15:36.487236 16761 net.cpp:141] Setting up inception_4e/5x5_reduce
I0403 18:15:36.487263 16761 net.cpp:148] Top shape: 24 32 14 14 (150528)
I0403 18:15:36.487278 16761 net.cpp:156] Memory required for data: 1236731424
I0403 18:15:36.487298 16761 layer_factory.hpp:77] Creating layer inception_4e/relu_5x5_reduce
I0403 18:15:36.487318 16761 net.cpp:91] Creating Layer inception_4e/relu_5x5_reduce
I0403 18:15:36.487334 16761 net.cpp:425] inception_4e/relu_5x5_reduce <- inception_4e/5x5_reduce
I0403 18:15:36.487351 16761 net.cpp:386] inception_4e/relu_5x5_reduce -> inception_4e/5x5_reduce (in-place)
I0403 18:15:36.487649 16761 net.cpp:141] Setting up inception_4e/relu_5x5_reduce
I0403 18:15:36.487675 16761 net.cpp:148] Top shape: 24 32 14 14 (150528)
I0403 18:15:36.487691 16761 net.cpp:156] Memory required for data: 1237333536
I0403 18:15:36.487706 16761 layer_factory.hpp:77] Creating layer inception_4e/5x5
I0403 18:15:36.487746 16761 net.cpp:91] Creating Layer inception_4e/5x5
I0403 18:15:36.487766 16761 net.cpp:425] inception_4e/5x5 <- inception_4e/5x5_reduce
I0403 18:15:36.487785 16761 net.cpp:399] inception_4e/5x5 -> inception_4e/5x5
I0403 18:15:36.489644 16761 net.cpp:141] Setting up inception_4e/5x5
I0403 18:15:36.489671 16761 net.cpp:148] Top shape: 24 128 14 14 (602112)
I0403 18:15:36.489687 16761 net.cpp:156] Memory required for data: 1239741984
I0403 18:15:36.489706 16761 layer_factory.hpp:77] Creating layer inception_4e/relu_5x5
I0403 18:15:36.489725 16761 net.cpp:91] Creating Layer inception_4e/relu_5x5
I0403 18:15:36.489744 16761 net.cpp:425] inception_4e/relu_5x5 <- inception_4e/5x5
I0403 18:15:36.489763 16761 net.cpp:386] inception_4e/relu_5x5 -> inception_4e/5x5 (in-place)
I0403 18:15:36.489964 16761 net.cpp:141] Setting up inception_4e/relu_5x5
I0403 18:15:36.489992 16761 net.cpp:148] Top shape: 24 128 14 14 (602112)
I0403 18:15:36.490010 16761 net.cpp:156] Memory required for data: 1242150432
I0403 18:15:36.490023 16761 layer_factory.hpp:77] Creating layer inception_4e/pool
I0403 18:15:36.490044 16761 net.cpp:91] Creating Layer inception_4e/pool
I0403 18:15:36.490061 16761 net.cpp:425] inception_4e/pool <- inception_4d/output_inception_4d/output_0_split_4
I0403 18:15:36.490080 16761 net.cpp:399] inception_4e/pool -> inception_4e/pool
I0403 18:15:36.490154 16761 net.cpp:141] Setting up inception_4e/pool
I0403 18:15:36.490178 16761 net.cpp:148] Top shape: 24 528 14 14 (2483712)
I0403 18:15:36.490193 16761 net.cpp:156] Memory required for data: 1252085280
I0403 18:15:36.490207 16761 layer_factory.hpp:77] Creating layer inception_4e/pool_proj
I0403 18:15:36.490229 16761 net.cpp:91] Creating Layer inception_4e/pool_proj
I0403 18:15:36.490247 16761 net.cpp:425] inception_4e/pool_proj <- inception_4e/pool
I0403 18:15:36.490268 16761 net.cpp:399] inception_4e/pool_proj -> inception_4e/pool_proj
I0403 18:15:36.491776 16761 net.cpp:141] Setting up inception_4e/pool_proj
I0403 18:15:36.491818 16761 net.cpp:148] Top shape: 24 128 14 14 (602112)
I0403 18:15:36.491837 16761 net.cpp:156] Memory required for data: 1254493728
I0403 18:15:36.491854 16761 layer_factory.hpp:77] Creating layer inception_4e/relu_pool_proj
I0403 18:15:36.491873 16761 net.cpp:91] Creating Layer inception_4e/relu_pool_proj
I0403 18:15:36.491889 16761 net.cpp:425] inception_4e/relu_pool_proj <- inception_4e/pool_proj
I0403 18:15:36.491921 16761 net.cpp:386] inception_4e/relu_pool_proj -> inception_4e/pool_proj (in-place)
I0403 18:15:36.492239 16761 net.cpp:141] Setting up inception_4e/relu_pool_proj
I0403 18:15:36.492267 16761 net.cpp:148] Top shape: 24 128 14 14 (602112)
I0403 18:15:36.492283 16761 net.cpp:156] Memory required for data: 1256902176
I0403 18:15:36.492300 16761 layer_factory.hpp:77] Creating layer inception_4e/output
I0403 18:15:36.492317 16761 net.cpp:91] Creating Layer inception_4e/output
I0403 18:15:36.492333 16761 net.cpp:425] inception_4e/output <- inception_4e/1x1
I0403 18:15:36.492350 16761 net.cpp:425] inception_4e/output <- inception_4e/3x3
I0403 18:15:36.492367 16761 net.cpp:425] inception_4e/output <- inception_4e/5x5
I0403 18:15:36.492382 16761 net.cpp:425] inception_4e/output <- inception_4e/pool_proj
I0403 18:15:36.492401 16761 net.cpp:399] inception_4e/output -> inception_4e/output
I0403 18:15:36.492451 16761 net.cpp:141] Setting up inception_4e/output
I0403 18:15:36.492475 16761 net.cpp:148] Top shape: 24 832 14 14 (3913728)
I0403 18:15:36.492489 16761 net.cpp:156] Memory required for data: 1272557088
I0403 18:15:36.492504 16761 layer_factory.hpp:77] Creating layer pool4/3x3_s2
I0403 18:15:36.492524 16761 net.cpp:91] Creating Layer pool4/3x3_s2
I0403 18:15:36.492542 16761 net.cpp:425] pool4/3x3_s2 <- inception_4e/output
I0403 18:15:36.492559 16761 net.cpp:399] pool4/3x3_s2 -> pool4/3x3_s2
I0403 18:15:36.492630 16761 net.cpp:141] Setting up pool4/3x3_s2
I0403 18:15:36.492653 16761 net.cpp:148] Top shape: 24 832 7 7 (978432)
I0403 18:15:36.492668 16761 net.cpp:156] Memory required for data: 1276470816
I0403 18:15:36.492682 16761 layer_factory.hpp:77] Creating layer pool4/3x3_s2_pool4/3x3_s2_0_split
I0403 18:15:36.492702 16761 net.cpp:91] Creating Layer pool4/3x3_s2_pool4/3x3_s2_0_split
I0403 18:15:36.492718 16761 net.cpp:425] pool4/3x3_s2_pool4/3x3_s2_0_split <- pool4/3x3_s2
I0403 18:15:36.492735 16761 net.cpp:399] pool4/3x3_s2_pool4/3x3_s2_0_split -> pool4/3x3_s2_pool4/3x3_s2_0_split_0
I0403 18:15:36.492756 16761 net.cpp:399] pool4/3x3_s2_pool4/3x3_s2_0_split -> pool4/3x3_s2_pool4/3x3_s2_0_split_1
I0403 18:15:36.492776 16761 net.cpp:399] pool4/3x3_s2_pool4/3x3_s2_0_split -> pool4/3x3_s2_pool4/3x3_s2_0_split_2
I0403 18:15:36.492795 16761 net.cpp:399] pool4/3x3_s2_pool4/3x3_s2_0_split -> pool4/3x3_s2_pool4/3x3_s2_0_split_3
I0403 18:15:36.492887 16761 net.cpp:141] Setting up pool4/3x3_s2_pool4/3x3_s2_0_split
I0403 18:15:36.492910 16761 net.cpp:148] Top shape: 24 832 7 7 (978432)
I0403 18:15:36.492928 16761 net.cpp:148] Top shape: 24 832 7 7 (978432)
I0403 18:15:36.492944 16761 net.cpp:148] Top shape: 24 832 7 7 (978432)
I0403 18:15:36.492959 16761 net.cpp:148] Top shape: 24 832 7 7 (978432)
I0403 18:15:36.492971 16761 net.cpp:156] Memory required for data: 1292125728
I0403 18:15:36.492990 16761 layer_factory.hpp:77] Creating layer inception_5a/1x1
I0403 18:15:36.493013 16761 net.cpp:91] Creating Layer inception_5a/1x1
I0403 18:15:36.493031 16761 net.cpp:425] inception_5a/1x1 <- pool4/3x3_s2_pool4/3x3_s2_0_split_0
I0403 18:15:36.493053 16761 net.cpp:399] inception_5a/1x1 -> inception_5a/1x1
I0403 18:15:36.495965 16761 net.cpp:141] Setting up inception_5a/1x1
I0403 18:15:36.496000 16761 net.cpp:148] Top shape: 24 256 7 7 (301056)
I0403 18:15:36.496016 16761 net.cpp:156] Memory required for data: 1293329952
I0403 18:15:36.496033 16761 layer_factory.hpp:77] Creating layer inception_5a/relu_1x1
I0403 18:15:36.496053 16761 net.cpp:91] Creating Layer inception_5a/relu_1x1
I0403 18:15:36.496071 16761 net.cpp:425] inception_5a/relu_1x1 <- inception_5a/1x1
I0403 18:15:36.496089 16761 net.cpp:386] inception_5a/relu_1x1 -> inception_5a/1x1 (in-place)
I0403 18:15:36.496407 16761 net.cpp:141] Setting up inception_5a/relu_1x1
I0403 18:15:36.496433 16761 net.cpp:148] Top shape: 24 256 7 7 (301056)
I0403 18:15:36.496449 16761 net.cpp:156] Memory required for data: 1294534176
I0403 18:15:36.496464 16761 layer_factory.hpp:77] Creating layer inception_5a/3x3_reduce
I0403 18:15:36.496486 16761 net.cpp:91] Creating Layer inception_5a/3x3_reduce
I0403 18:15:36.496505 16761 net.cpp:425] inception_5a/3x3_reduce <- pool4/3x3_s2_pool4/3x3_s2_0_split_1
I0403 18:15:36.496526 16761 net.cpp:399] inception_5a/3x3_reduce -> inception_5a/3x3_reduce
I0403 18:15:36.498994 16761 net.cpp:141] Setting up inception_5a/3x3_reduce
I0403 18:15:36.499025 16761 net.cpp:148] Top shape: 24 160 7 7 (188160)
I0403 18:15:36.499042 16761 net.cpp:156] Memory required for data: 1295286816
I0403 18:15:36.499061 16761 layer_factory.hpp:77] Creating layer inception_5a/relu_3x3_reduce
I0403 18:15:36.499079 16761 net.cpp:91] Creating Layer inception_5a/relu_3x3_reduce
I0403 18:15:36.499095 16761 net.cpp:425] inception_5a/relu_3x3_reduce <- inception_5a/3x3_reduce
I0403 18:15:36.499115 16761 net.cpp:386] inception_5a/relu_3x3_reduce -> inception_5a/3x3_reduce (in-place)
I0403 18:15:36.499310 16761 net.cpp:141] Setting up inception_5a/relu_3x3_reduce
I0403 18:15:36.499335 16761 net.cpp:148] Top shape: 24 160 7 7 (188160)
I0403 18:15:36.499348 16761 net.cpp:156] Memory required for data: 1296039456
I0403 18:15:36.499363 16761 layer_factory.hpp:77] Creating layer inception_5a/3x3
I0403 18:15:36.499385 16761 net.cpp:91] Creating Layer inception_5a/3x3
I0403 18:15:36.499403 16761 net.cpp:425] inception_5a/3x3 <- inception_5a/3x3_reduce
I0403 18:15:36.499426 16761 net.cpp:399] inception_5a/3x3 -> inception_5a/3x3
I0403 18:15:36.504462 16761 net.cpp:141] Setting up inception_5a/3x3
I0403 18:15:36.504492 16761 net.cpp:148] Top shape: 24 320 7 7 (376320)
I0403 18:15:36.504509 16761 net.cpp:156] Memory required for data: 1297544736
I0403 18:15:36.504529 16761 layer_factory.hpp:77] Creating layer inception_5a/relu_3x3
I0403 18:15:36.504550 16761 net.cpp:91] Creating Layer inception_5a/relu_3x3
I0403 18:15:36.504567 16761 net.cpp:425] inception_5a/relu_3x3 <- inception_5a/3x3
I0403 18:15:36.504585 16761 net.cpp:386] inception_5a/relu_3x3 -> inception_5a/3x3 (in-place)
I0403 18:15:36.504883 16761 net.cpp:141] Setting up inception_5a/relu_3x3
I0403 18:15:36.504909 16761 net.cpp:148] Top shape: 24 320 7 7 (376320)
I0403 18:15:36.504925 16761 net.cpp:156] Memory required for data: 1299050016
I0403 18:15:36.504940 16761 layer_factory.hpp:77] Creating layer inception_5a/5x5_reduce
I0403 18:15:36.504961 16761 net.cpp:91] Creating Layer inception_5a/5x5_reduce
I0403 18:15:36.504982 16761 net.cpp:425] inception_5a/5x5_reduce <- pool4/3x3_s2_pool4/3x3_s2_0_split_2
I0403 18:15:36.505007 16761 net.cpp:399] inception_5a/5x5_reduce -> inception_5a/5x5_reduce
I0403 18:15:36.506186 16761 net.cpp:141] Setting up inception_5a/5x5_reduce
I0403 18:15:36.506213 16761 net.cpp:148] Top shape: 24 32 7 7 (37632)
I0403 18:15:36.506230 16761 net.cpp:156] Memory required for data: 1299200544
I0403 18:15:36.506248 16761 layer_factory.hpp:77] Creating layer inception_5a/relu_5x5_reduce
I0403 18:15:36.506268 16761 net.cpp:91] Creating Layer inception_5a/relu_5x5_reduce
I0403 18:15:36.506286 16761 net.cpp:425] inception_5a/relu_5x5_reduce <- inception_5a/5x5_reduce
I0403 18:15:36.506304 16761 net.cpp:386] inception_5a/relu_5x5_reduce -> inception_5a/5x5_reduce (in-place)
I0403 18:15:36.506606 16761 net.cpp:141] Setting up inception_5a/relu_5x5_reduce
I0403 18:15:36.506633 16761 net.cpp:148] Top shape: 24 32 7 7 (37632)
I0403 18:15:36.506647 16761 net.cpp:156] Memory required for data: 1299351072
I0403 18:15:36.506662 16761 layer_factory.hpp:77] Creating layer inception_5a/5x5
I0403 18:15:36.506685 16761 net.cpp:91] Creating Layer inception_5a/5x5
I0403 18:15:36.506702 16761 net.cpp:425] inception_5a/5x5 <- inception_5a/5x5_reduce
I0403 18:15:36.506723 16761 net.cpp:399] inception_5a/5x5 -> inception_5a/5x5
I0403 18:15:36.508522 16761 net.cpp:141] Setting up inception_5a/5x5
I0403 18:15:36.508563 16761 net.cpp:148] Top shape: 24 128 7 7 (150528)
I0403 18:15:36.508579 16761 net.cpp:156] Memory required for data: 1299953184
I0403 18:15:36.508597 16761 layer_factory.hpp:77] Creating layer inception_5a/relu_5x5
I0403 18:15:36.508618 16761 net.cpp:91] Creating Layer inception_5a/relu_5x5
I0403 18:15:36.508635 16761 net.cpp:425] inception_5a/relu_5x5 <- inception_5a/5x5
I0403 18:15:36.508654 16761 net.cpp:386] inception_5a/relu_5x5 -> inception_5a/5x5 (in-place)
I0403 18:15:36.508855 16761 net.cpp:141] Setting up inception_5a/relu_5x5
I0403 18:15:36.508882 16761 net.cpp:148] Top shape: 24 128 7 7 (150528)
I0403 18:15:36.508896 16761 net.cpp:156] Memory required for data: 1300555296
I0403 18:15:36.508911 16761 layer_factory.hpp:77] Creating layer inception_5a/pool
I0403 18:15:36.508931 16761 net.cpp:91] Creating Layer inception_5a/pool
I0403 18:15:36.508949 16761 net.cpp:425] inception_5a/pool <- pool4/3x3_s2_pool4/3x3_s2_0_split_3
I0403 18:15:36.508968 16761 net.cpp:399] inception_5a/pool -> inception_5a/pool
I0403 18:15:36.509054 16761 net.cpp:141] Setting up inception_5a/pool
I0403 18:15:36.509079 16761 net.cpp:148] Top shape: 24 832 7 7 (978432)
I0403 18:15:36.509094 16761 net.cpp:156] Memory required for data: 1304469024
I0403 18:15:36.509109 16761 layer_factory.hpp:77] Creating layer inception_5a/pool_proj
I0403 18:15:36.509132 16761 net.cpp:91] Creating Layer inception_5a/pool_proj
I0403 18:15:36.509150 16761 net.cpp:425] inception_5a/pool_proj <- inception_5a/pool
I0403 18:15:36.509171 16761 net.cpp:399] inception_5a/pool_proj -> inception_5a/pool_proj
I0403 18:15:36.511540 16761 net.cpp:141] Setting up inception_5a/pool_proj
I0403 18:15:36.511570 16761 net.cpp:148] Top shape: 24 128 7 7 (150528)
I0403 18:15:36.511586 16761 net.cpp:156] Memory required for data: 1305071136
I0403 18:15:36.511605 16761 layer_factory.hpp:77] Creating layer inception_5a/relu_pool_proj
I0403 18:15:36.511623 16761 net.cpp:91] Creating Layer inception_5a/relu_pool_proj
I0403 18:15:36.511641 16761 net.cpp:425] inception_5a/relu_pool_proj <- inception_5a/pool_proj
I0403 18:15:36.511661 16761 net.cpp:386] inception_5a/relu_pool_proj -> inception_5a/pool_proj (in-place)
I0403 18:15:36.511970 16761 net.cpp:141] Setting up inception_5a/relu_pool_proj
I0403 18:15:36.512001 16761 net.cpp:148] Top shape: 24 128 7 7 (150528)
I0403 18:15:36.512017 16761 net.cpp:156] Memory required for data: 1305673248
I0403 18:15:36.512032 16761 layer_factory.hpp:77] Creating layer inception_5a/output
I0403 18:15:36.512049 16761 net.cpp:91] Creating Layer inception_5a/output
I0403 18:15:36.512065 16761 net.cpp:425] inception_5a/output <- inception_5a/1x1
I0403 18:15:36.512082 16761 net.cpp:425] inception_5a/output <- inception_5a/3x3
I0403 18:15:36.512099 16761 net.cpp:425] inception_5a/output <- inception_5a/5x5
I0403 18:15:36.512115 16761 net.cpp:425] inception_5a/output <- inception_5a/pool_proj
I0403 18:15:36.512135 16761 net.cpp:399] inception_5a/output -> inception_5a/output
I0403 18:15:36.512187 16761 net.cpp:141] Setting up inception_5a/output
I0403 18:15:36.512214 16761 net.cpp:148] Top shape: 24 832 7 7 (978432)
I0403 18:15:36.512229 16761 net.cpp:156] Memory required for data: 1309586976
I0403 18:15:36.512244 16761 layer_factory.hpp:77] Creating layer inception_5a/output_inception_5a/output_0_split
I0403 18:15:36.512262 16761 net.cpp:91] Creating Layer inception_5a/output_inception_5a/output_0_split
I0403 18:15:36.512279 16761 net.cpp:425] inception_5a/output_inception_5a/output_0_split <- inception_5a/output
I0403 18:15:36.512296 16761 net.cpp:399] inception_5a/output_inception_5a/output_0_split -> inception_5a/output_inception_5a/output_0_split_0
I0403 18:15:36.512316 16761 net.cpp:399] inception_5a/output_inception_5a/output_0_split -> inception_5a/output_inception_5a/output_0_split_1
I0403 18:15:36.512339 16761 net.cpp:399] inception_5a/output_inception_5a/output_0_split -> inception_5a/output_inception_5a/output_0_split_2
I0403 18:15:36.512362 16761 net.cpp:399] inception_5a/output_inception_5a/output_0_split -> inception_5a/output_inception_5a/output_0_split_3
I0403 18:15:36.512480 16761 net.cpp:141] Setting up inception_5a/output_inception_5a/output_0_split
I0403 18:15:36.512504 16761 net.cpp:148] Top shape: 24 832 7 7 (978432)
I0403 18:15:36.512521 16761 net.cpp:148] Top shape: 24 832 7 7 (978432)
I0403 18:15:36.512537 16761 net.cpp:148] Top shape: 24 832 7 7 (978432)
I0403 18:15:36.512552 16761 net.cpp:148] Top shape: 24 832 7 7 (978432)
I0403 18:15:36.512567 16761 net.cpp:156] Memory required for data: 1325241888
I0403 18:15:36.512581 16761 layer_factory.hpp:77] Creating layer inception_5b/1x1
I0403 18:15:36.512604 16761 net.cpp:91] Creating Layer inception_5b/1x1
I0403 18:15:36.512622 16761 net.cpp:425] inception_5b/1x1 <- inception_5a/output_inception_5a/output_0_split_0
I0403 18:15:36.512645 16761 net.cpp:399] inception_5b/1x1 -> inception_5b/1x1
I0403 18:15:36.516535 16761 net.cpp:141] Setting up inception_5b/1x1
I0403 18:15:36.516568 16761 net.cpp:148] Top shape: 24 384 7 7 (451584)
I0403 18:15:36.516585 16761 net.cpp:156] Memory required for data: 1327048224
I0403 18:15:36.516603 16761 layer_factory.hpp:77] Creating layer inception_5b/relu_1x1
I0403 18:15:36.516623 16761 net.cpp:91] Creating Layer inception_5b/relu_1x1
I0403 18:15:36.516640 16761 net.cpp:425] inception_5b/relu_1x1 <- inception_5b/1x1
I0403 18:15:36.516661 16761 net.cpp:386] inception_5b/relu_1x1 -> inception_5b/1x1 (in-place)
I0403 18:15:36.516975 16761 net.cpp:141] Setting up inception_5b/relu_1x1
I0403 18:15:36.517007 16761 net.cpp:148] Top shape: 24 384 7 7 (451584)
I0403 18:15:36.517024 16761 net.cpp:156] Memory required for data: 1328854560
I0403 18:15:36.517040 16761 layer_factory.hpp:77] Creating layer inception_5b/3x3_reduce
I0403 18:15:36.517063 16761 net.cpp:91] Creating Layer inception_5b/3x3_reduce
I0403 18:15:36.517082 16761 net.cpp:425] inception_5b/3x3_reduce <- inception_5a/output_inception_5a/output_0_split_1
I0403 18:15:36.517102 16761 net.cpp:399] inception_5b/3x3_reduce -> inception_5b/3x3_reduce
I0403 18:15:36.519852 16761 net.cpp:141] Setting up inception_5b/3x3_reduce
I0403 18:15:36.519886 16761 net.cpp:148] Top shape: 24 192 7 7 (225792)
I0403 18:15:36.519902 16761 net.cpp:156] Memory required for data: 1329757728
I0403 18:15:36.519922 16761 layer_factory.hpp:77] Creating layer inception_5b/relu_3x3_reduce
I0403 18:15:36.519940 16761 net.cpp:91] Creating Layer inception_5b/relu_3x3_reduce
I0403 18:15:36.519958 16761 net.cpp:425] inception_5b/relu_3x3_reduce <- inception_5b/3x3_reduce
I0403 18:15:36.519982 16761 net.cpp:386] inception_5b/relu_3x3_reduce -> inception_5b/3x3_reduce (in-place)
I0403 18:15:36.520181 16761 net.cpp:141] Setting up inception_5b/relu_3x3_reduce
I0403 18:15:36.520207 16761 net.cpp:148] Top shape: 24 192 7 7 (225792)
I0403 18:15:36.520223 16761 net.cpp:156] Memory required for data: 1330660896
I0403 18:15:36.520238 16761 layer_factory.hpp:77] Creating layer inception_5b/3x3
I0403 18:15:36.520262 16761 net.cpp:91] Creating Layer inception_5b/3x3
I0403 18:15:36.520280 16761 net.cpp:425] inception_5b/3x3 <- inception_5b/3x3_reduce
I0403 18:15:36.520303 16761 net.cpp:399] inception_5b/3x3 -> inception_5b/3x3
I0403 18:15:36.527222 16761 net.cpp:141] Setting up inception_5b/3x3
I0403 18:15:36.527253 16761 net.cpp:148] Top shape: 24 384 7 7 (451584)
I0403 18:15:36.527271 16761 net.cpp:156] Memory required for data: 1332467232
I0403 18:15:36.527289 16761 layer_factory.hpp:77] Creating layer inception_5b/relu_3x3
I0403 18:15:36.527308 16761 net.cpp:91] Creating Layer inception_5b/relu_3x3
I0403 18:15:36.527326 16761 net.cpp:425] inception_5b/relu_3x3 <- inception_5b/3x3
I0403 18:15:36.527348 16761 net.cpp:386] inception_5b/relu_3x3 -> inception_5b/3x3 (in-place)
I0403 18:15:36.527659 16761 net.cpp:141] Setting up inception_5b/relu_3x3
I0403 18:15:36.527688 16761 net.cpp:148] Top shape: 24 384 7 7 (451584)
I0403 18:15:36.527704 16761 net.cpp:156] Memory required for data: 1334273568
I0403 18:15:36.527719 16761 layer_factory.hpp:77] Creating layer inception_5b/5x5_reduce
I0403 18:15:36.527757 16761 net.cpp:91] Creating Layer inception_5b/5x5_reduce
I0403 18:15:36.527777 16761 net.cpp:425] inception_5b/5x5_reduce <- inception_5a/output_inception_5a/output_0_split_2
I0403 18:15:36.527801 16761 net.cpp:399] inception_5b/5x5_reduce -> inception_5b/5x5_reduce
I0403 18:15:36.529151 16761 net.cpp:141] Setting up inception_5b/5x5_reduce
I0403 18:15:36.529183 16761 net.cpp:148] Top shape: 24 48 7 7 (56448)
I0403 18:15:36.529201 16761 net.cpp:156] Memory required for data: 1334499360
I0403 18:15:36.529222 16761 layer_factory.hpp:77] Creating layer inception_5b/relu_5x5_reduce
I0403 18:15:36.529240 16761 net.cpp:91] Creating Layer inception_5b/relu_5x5_reduce
I0403 18:15:36.529258 16761 net.cpp:425] inception_5b/relu_5x5_reduce <- inception_5b/5x5_reduce
I0403 18:15:36.529279 16761 net.cpp:386] inception_5b/relu_5x5_reduce -> inception_5b/5x5_reduce (in-place)
I0403 18:15:36.529681 16761 net.cpp:141] Setting up inception_5b/relu_5x5_reduce
I0403 18:15:36.529708 16761 net.cpp:148] Top shape: 24 48 7 7 (56448)
I0403 18:15:36.529724 16761 net.cpp:156] Memory required for data: 1334725152
I0403 18:15:36.529741 16761 layer_factory.hpp:77] Creating layer inception_5b/5x5
I0403 18:15:36.529762 16761 net.cpp:91] Creating Layer inception_5b/5x5
I0403 18:15:36.529779 16761 net.cpp:425] inception_5b/5x5 <- inception_5b/5x5_reduce
I0403 18:15:36.529799 16761 net.cpp:399] inception_5b/5x5 -> inception_5b/5x5
I0403 18:15:36.531924 16761 net.cpp:141] Setting up inception_5b/5x5
I0403 18:15:36.531952 16761 net.cpp:148] Top shape: 24 128 7 7 (150528)
I0403 18:15:36.531968 16761 net.cpp:156] Memory required for data: 1335327264
I0403 18:15:36.531992 16761 layer_factory.hpp:77] Creating layer inception_5b/relu_5x5
I0403 18:15:36.532016 16761 net.cpp:91] Creating Layer inception_5b/relu_5x5
I0403 18:15:36.532034 16761 net.cpp:425] inception_5b/relu_5x5 <- inception_5b/5x5
I0403 18:15:36.532052 16761 net.cpp:386] inception_5b/relu_5x5 -> inception_5b/5x5 (in-place)
I0403 18:15:36.532258 16761 net.cpp:141] Setting up inception_5b/relu_5x5
I0403 18:15:36.532284 16761 net.cpp:148] Top shape: 24 128 7 7 (150528)
I0403 18:15:36.532299 16761 net.cpp:156] Memory required for data: 1335929376
I0403 18:15:36.532315 16761 layer_factory.hpp:77] Creating layer inception_5b/pool
I0403 18:15:36.532335 16761 net.cpp:91] Creating Layer inception_5b/pool
I0403 18:15:36.532353 16761 net.cpp:425] inception_5b/pool <- inception_5a/output_inception_5a/output_0_split_3
I0403 18:15:36.532372 16761 net.cpp:399] inception_5b/pool -> inception_5b/pool
I0403 18:15:36.532447 16761 net.cpp:141] Setting up inception_5b/pool
I0403 18:15:36.532472 16761 net.cpp:148] Top shape: 24 832 7 7 (978432)
I0403 18:15:36.532487 16761 net.cpp:156] Memory required for data: 1339843104
I0403 18:15:36.532503 16761 layer_factory.hpp:77] Creating layer inception_5b/pool_proj
I0403 18:15:36.532526 16761 net.cpp:91] Creating Layer inception_5b/pool_proj
I0403 18:15:36.532544 16761 net.cpp:425] inception_5b/pool_proj <- inception_5b/pool
I0403 18:15:36.532567 16761 net.cpp:399] inception_5b/pool_proj -> inception_5b/pool_proj
I0403 18:15:36.534945 16761 net.cpp:141] Setting up inception_5b/pool_proj
I0403 18:15:36.534976 16761 net.cpp:148] Top shape: 24 128 7 7 (150528)
I0403 18:15:36.534997 16761 net.cpp:156] Memory required for data: 1340445216
I0403 18:15:36.535017 16761 layer_factory.hpp:77] Creating layer inception_5b/relu_pool_proj
I0403 18:15:36.535037 16761 net.cpp:91] Creating Layer inception_5b/relu_pool_proj
I0403 18:15:36.535053 16761 net.cpp:425] inception_5b/relu_pool_proj <- inception_5b/pool_proj
I0403 18:15:36.535075 16761 net.cpp:386] inception_5b/relu_pool_proj -> inception_5b/pool_proj (in-place)
I0403 18:15:36.535382 16761 net.cpp:141] Setting up inception_5b/relu_pool_proj
I0403 18:15:36.535409 16761 net.cpp:148] Top shape: 24 128 7 7 (150528)
I0403 18:15:36.535425 16761 net.cpp:156] Memory required for data: 1341047328
I0403 18:15:36.535441 16761 layer_factory.hpp:77] Creating layer inception_5b/output
I0403 18:15:36.535459 16761 net.cpp:91] Creating Layer inception_5b/output
I0403 18:15:36.535490 16761 net.cpp:425] inception_5b/output <- inception_5b/1x1
I0403 18:15:36.535509 16761 net.cpp:425] inception_5b/output <- inception_5b/3x3
I0403 18:15:36.535527 16761 net.cpp:425] inception_5b/output <- inception_5b/5x5
I0403 18:15:36.535544 16761 net.cpp:425] inception_5b/output <- inception_5b/pool_proj
I0403 18:15:36.535565 16761 net.cpp:399] inception_5b/output -> inception_5b/output
I0403 18:15:36.535619 16761 net.cpp:141] Setting up inception_5b/output
I0403 18:15:36.535645 16761 net.cpp:148] Top shape: 24 1024 7 7 (1204224)
I0403 18:15:36.535661 16761 net.cpp:156] Memory required for data: 1345864224
I0403 18:15:36.535676 16761 layer_factory.hpp:77] Creating layer pool5/7x7_s1
I0403 18:15:36.535696 16761 net.cpp:91] Creating Layer pool5/7x7_s1
I0403 18:15:36.535712 16761 net.cpp:425] pool5/7x7_s1 <- inception_5b/output
I0403 18:15:36.535735 16761 net.cpp:399] pool5/7x7_s1 -> pool5/7x7_s1
I0403 18:15:36.535961 16761 net.cpp:141] Setting up pool5/7x7_s1
I0403 18:15:36.535991 16761 net.cpp:148] Top shape: 24 1024 1 1 (24576)
I0403 18:15:36.536007 16761 net.cpp:156] Memory required for data: 1345962528
I0403 18:15:36.536023 16761 layer_factory.hpp:77] Creating layer pool5/drop_7x7_s1
I0403 18:15:36.536042 16761 net.cpp:91] Creating Layer pool5/drop_7x7_s1
I0403 18:15:36.536059 16761 net.cpp:425] pool5/drop_7x7_s1 <- pool5/7x7_s1
I0403 18:15:36.536079 16761 net.cpp:386] pool5/drop_7x7_s1 -> pool5/7x7_s1 (in-place)
I0403 18:15:36.536133 16761 net.cpp:141] Setting up pool5/drop_7x7_s1
I0403 18:15:36.536159 16761 net.cpp:148] Top shape: 24 1024 1 1 (24576)
I0403 18:15:36.536176 16761 net.cpp:156] Memory required for data: 1346060832
I0403 18:15:36.536192 16761 layer_factory.hpp:77] Creating layer loss3/classifier_plantvillage
I0403 18:15:36.536211 16761 net.cpp:91] Creating Layer loss3/classifier_plantvillage
I0403 18:15:36.536228 16761 net.cpp:425] loss3/classifier_plantvillage <- pool5/7x7_s1
I0403 18:15:36.536250 16761 net.cpp:399] loss3/classifier_plantvillage -> loss3/classifier_plantvillage
I0403 18:15:36.536691 16761 net.cpp:141] Setting up loss3/classifier_plantvillage
I0403 18:15:36.536720 16761 net.cpp:148] Top shape: 24 38 (912)
I0403 18:15:36.536737 16761 net.cpp:156] Memory required for data: 1346064480
I0403 18:15:36.536756 16761 layer_factory.hpp:77] Creating layer loss3/classifier_plantvillage_loss3/classifier_plantvillage_0_split
I0403 18:15:36.536774 16761 net.cpp:91] Creating Layer loss3/classifier_plantvillage_loss3/classifier_plantvillage_0_split
I0403 18:15:36.536792 16761 net.cpp:425] loss3/classifier_plantvillage_loss3/classifier_plantvillage_0_split <- loss3/classifier_plantvillage
I0403 18:15:36.536810 16761 net.cpp:399] loss3/classifier_plantvillage_loss3/classifier_plantvillage_0_split -> loss3/classifier_plantvillage_loss3/classifier_plantvillage_0_split_0
I0403 18:15:36.536831 16761 net.cpp:399] loss3/classifier_plantvillage_loss3/classifier_plantvillage_0_split -> loss3/classifier_plantvillage_loss3/classifier_plantvillage_0_split_1
I0403 18:15:36.536854 16761 net.cpp:399] loss3/classifier_plantvillage_loss3/classifier_plantvillage_0_split -> loss3/classifier_plantvillage_loss3/classifier_plantvillage_0_split_2
I0403 18:15:36.536876 16761 net.cpp:399] loss3/classifier_plantvillage_loss3/classifier_plantvillage_0_split -> loss3/classifier_plantvillage_loss3/classifier_plantvillage_0_split_3
I0403 18:15:36.536984 16761 net.cpp:141] Setting up loss3/classifier_plantvillage_loss3/classifier_plantvillage_0_split
I0403 18:15:36.537009 16761 net.cpp:148] Top shape: 24 38 (912)
I0403 18:15:36.537025 16761 net.cpp:148] Top shape: 24 38 (912)
I0403 18:15:36.537041 16761 net.cpp:148] Top shape: 24 38 (912)
I0403 18:15:36.537057 16761 net.cpp:148] Top shape: 24 38 (912)
I0403 18:15:36.537071 16761 net.cpp:156] Memory required for data: 1346079072
I0403 18:15:36.537086 16761 layer_factory.hpp:77] Creating layer loss1/loss
I0403 18:15:36.537111 16761 net.cpp:91] Creating Layer loss1/loss
I0403 18:15:36.537129 16761 net.cpp:425] loss1/loss <- loss1/classifier_plantvillage_loss1/classifier_plantvillage_0_split_0
I0403 18:15:36.537161 16761 net.cpp:425] loss1/loss <- label_data_1_split_0
…
