…
I0403 18:18:24.450392 16938 net.cpp:313] The NetState phase (1) differed from the phase (0) specified by a rule in layer data
I0403 18:18:24.451649 16938 net.cpp:49] Initializing net from parameters: 
state {
  phase: TEST
}
layer {
  name: "data"
  type: "Data"
  top: "data"
  top: "label"
  include {
    phase: TEST
  }
  transform_param {
    mirror: false
    crop_size: 224
    mean_file: "/home/mohanty/data/final_dataset/lmdb/grayscale-60-40/mean.binaryproto"
  }
  data_param {
    source: "/home/mohanty/data/final_dataset/lmdb/grayscale-60-40/test_db"
    batch_size: 24
    backend: LMDB
  }
}
layer {
  name: "conv1/7x7_s2"
  type: "Convolution"
  bottom: "data"
  top: "conv1/7x7_s2"
  param {
    lr_mult: 1
    decay_mult: 1
  }
  param {
    lr_mult: 2
    decay_mult: 0
  }
  convolution_param {
    num_output: 64
    pad: 3
    kernel_size: 7
    stride: 2
    weight_filler {
      type: "xavier"
      std: 0.1
    }
    bias_filler {
      type: "constant"
      value: 0.2
    }
  }
}
layer {
  name: "conv1/relu_7x7"
  type: "ReLU"
  bottom: "conv1/7x7_s2"
  top: "conv1/7x7_s2"
}
layer {
  name: "pool1/3x3_s2"
  type: "Pooling"
  bottom: "conv1/7x7_s2"
  top: "pool1/3x3_s2"
  pooling_param {
    pool: MAX
    kernel_size: 3
    stride: 2
  }
}
layer {
  name: "pool1/norm1"
  type: "LRN"
  bottom: "pool1/3x3_s2"
  top: "pool1/norm1"
  lrn_param {
    local_size: 5
    alpha: 0.0001
    beta: 0.75
  }
}
layer {
  name: "conv2/3x3_reduce"
  type: "Convolution"
  bottom: "pool1/norm1"
  top: "conv2/3x3_reduce"
  param {
    lr_mult: 1
    decay_mult: 1
  }
  param {
    lr_mult: 2
    decay_mult: 0
  }
  convolution_param {
    num_output: 64
    kernel_size: 1
    weight_filler {
      type: "xavier"
      std: 0.1
    }
    bias_filler {
      type: "constant"
      value: 0.2
    }
  }
}
layer {
  name: "conv2/relu_3x3_reduce"
  type: "ReLU"
  bottom: "conv2/3x3_reduce"
  top: "conv2/3x3_reduce"
}
layer {
  name: "conv2/3x3"
  type: "Convolution"
  bottom: "conv2/3x3_reduce"
  top: "conv2/3x3"
  param {
    lr_mult: 1
    decay_mult: 1
  }
  param {
    lr_mult: 2
    decay_mult: 0
  }
  convolution_param {
    num_output: 192
    pad: 1
    kernel_size: 3
    weight_filler {
      type: "xavier"
      std: 0.03
    }
    bias_filler {
      type: "constant"
      value: 0.2
    }
  }
}
layer {
  name: "conv2/relu_3x3"
  type: "ReLU"
  bottom: "conv2/3x3"
  top: "conv2/3x3"
}
layer {
  name: "conv2/norm2"
  type: "LRN"
  bottom: "conv2/3x3"
  top: "conv2/norm2"
  lrn_param {
    local_size: 5
    alpha: 0.0001
    beta: 0.75
  }
}
layer {
  name: "pool2/3x3_s2"
  type: "Pooling"
  bottom: "conv2/norm2"
  top: "pool2/3x3_s2"
  pooling_param {
    pool: MAX
    kernel_size: 3
    stride: 2
  }
}
layer {
  name: "inception_3a/1x1"
  type: "Convolution"
  bottom: "pool2/3x3_s2"
  top: "inception_3a/1x1"
  param {
    lr_mult: 1
    decay_mult: 1
  }
  param {
    lr_mult: 2
    decay_mult: 0
  }
  convolution_param {
    num_output: 64
    kernel_size: 1
    weight_filler {
      type: "xavier"
      std: 0.03
    }
    bias_filler {
      type: "constant"
      value: 0.2
    }
  }
}
layer {
  name: "inception_3a/relu_1x1"
  type: "ReLU"
  bottom: "inception_3a/1x1"
  top: "inception_3a/1x1"
}
layer {
  name: "inception_3a/3x3_reduce"
  type: "Convolution"
  bottom: "pool2/3x3_s2"
  top: "inception_3a/3x3_reduce"
  param {
    lr_mult: 1
    decay_mult: 1
  }
  param {
    lr_mult: 2
    decay_mult: 0
  }
  convolution_param {
    num_output: 96
    kernel_size: 1
    weight_filler {
      type: "xavier"
      std: 0.09
    }
    bias_filler {
      type: "constant"
      value: 0.2
    }
  }
}
layer {
  name: "inception_3a/relu_3x3_reduce"
  type: "ReLU"
  bottom: "inception_3a/3x3_reduce"
  top: "inception_3a/3x3_reduce"
}
layer {
  name: "inception_3a/3x3"
  type: "Convolution"
  bottom: "inception_3a/3x3_reduce"
  top: "inception_3a/3x3"
  param {
    lr_mult: 1
    decay_mult: 1
  }
  param {
    lr_mult: 2
    decay_mult: 0
  }
  convolution_param {
    num_output: 128
    pad: 1
    kernel_size: 3
    weight_filler {
      type: "xavier"
      std: 0.03
    }
    bias_filler {
      type: "constant"
      value: 0.2
    }
  }
}
layer {
  name: "inception_3a/relu_3x3"
  type: "ReLU"
  bottom: "inception_3a/3x3"
  top: "inception_3a/3x3"
}
layer {
  name: "inception_3a/5x5_reduce"
  type: "Convolution"
  bottom: "pool2/3x3_s2"
  top: "inception_3a/5x5_reduce"
  param {
    lr_mult: 1
    decay_mult: 1
  }
  param {
    lr_mult: 2
    decay_mult: 0
  }
  convolution_param {
    num_output: 16
    kernel_size: 1
    weight_filler {
      type: "xavier"
      std: 0.2
    }
    bias_filler {
      type: "constant"
      value: 0.2
    }
  }
}
layer {
  name: "inception_3a/relu_5x5_reduce"
  type: "ReLU"
  bottom: "inception_3a/5x5_reduce"
  top: "inception_3a/5x5_reduce"
}
layer {
  name: "inception_3a/5x5"
  type: "Convolution"
  bottom: "inception_3a/5x5_reduce"
  top: "inception_3a/5x5"
  param {
    lr_mult: 1
    decay_mult: 1
  }
  param {
    lr_mult: 2
    decay_mult: 0
  }
  convolution_param {
    num_output: 32
    pad: 2
    kernel_size: 5
    weight_filler {
      type: "xavier"
      std: 0.03
    }
    bias_filler {
      type: "constant"
      value: 0.2
    }
  }
}
layer {
  name: "inception_3a/relu_5x5"
  type: "ReLU"
  bottom: "inception_3a/5x5"
  top: "inception_3a/5x5"
}
layer {
  name: "inception_3a/pool"
  type: "Pooling"
  bottom: "pool2/3x3_s2"
  top: "inception_3a/pool"
  pooling_param {
    pool: MAX
    kernel_size: 3
    stride: 1
    pad: 1
  }
}
layer {
  name: "inception_3a/pool_proj"
  type: "Convolution"
  bottom: "inception_3a/pool"
  top: "inception_3a/pool_proj"
  param {
    lr_mult: 1
    decay_mult: 1
  }
  param {
    lr_mult: 2
    decay_mult: 0
  }
  convolution_param {
    num_output: 32
    kernel_size: 1
    weight_filler {
      type: "xavier"
      std: 0.1
    }
    bias_filler {
      type: "constant"
      value: 0.2
    }
  }
}
layer {
  name: "inception_3a/relu_pool_proj"
  type: "ReLU"
  bottom: "inception_3a/pool_proj"
  top: "inception_3a/pool_proj"
}
layer {
  name: "inception_3a/output"
  type: "Concat"
  bottom: "inception_3a/1x1"
  bottom: "inception_3a/3x3"
  bottom: "inception_3a/5x5"
  bottom: "inception_3a/pool_proj"
  top: "inception_3a/output"
}
layer {
  name: "inception_3b/1x1"
  type: "Convolution"
  bottom: "inception_3a/output"
  top: "inception_3b/1x1"
  param {
    lr_mult: 1
    decay_mult: 1
  }
  param {
    lr_mult: 2
    decay_mult: 0
  }
  convolution_param {
    num_output: 128
    kernel_size: 1
    weight_filler {
      type: "xavier"
      std: 0.03
    }
    bias_filler {
      type: "constant"
      value: 0.2
    }
  }
}
layer {
  name: "inception_3b/relu_1x1"
  type: "ReLU"
  bottom: "inception_3b/1x1"
  top: "inception_3b/1x1"
}
layer {
  name: "inception_3b/3x3_reduce"
  type: "Convolution"
  bottom: "inception_3a/output"
  top: "inception_3b/3x3_reduce"
  param {
    lr_mult: 1
    decay_mult: 1
  }
  param {
    lr_mult: 2
    decay_mult: 0
  }
  convolution_param {
    num_output: 128
    kernel_size: 1
    weight_filler {
      type: "xavier"
      std: 0.09
    }
    bias_filler {
      type: "constant"
      value: 0.2
    }
  }
}
layer {
  name: "inception_3b/relu_3x3_reduce"
  type: "ReLU"
  bottom: "inception_3b/3x3_reduce"
  top: "inception_3b/3x3_reduce"
}
layer {
  name: "inception_3b/3x3"
  type: "Convolution"
  bottom: "inception_3b/3x3_reduce"
  top: "inception_3b/3x3"
  param {
    lr_mult: 1
    decay_mult: 1
  }
  param {
    lr_mult: 2
    decay_mult: 0
  }
  convolution_param {
    num_output: 192
    pad: 1
    kernel_size: 3
    weight_filler {
      type: "xavier"
      std: 0.03
    }
    bias_filler {
      type: "constant"
      value: 0.2
    }
  }
}
layer {
  name: "inception_3b/relu_3x3"
  type: "ReLU"
  bottom: "inception_3b/3x3"
  top: "inception_3b/3x3"
}
layer {
  name: "inception_3b/5x5_reduce"
  type: "Convolution"
  bottom: "inception_3a/output"
  top: "inception_3b/5x5_reduce"
  param {
    lr_mult: 1
    decay_mult: 1
  }
  param {
    lr_mult: 2
    decay_mult: 0
  }
  convolution_param {
    num_output: 32
    kernel_size: 1
    weight_filler {
      type: "xavier"
      std: 0.2
    }
    bias_filler {
      type: "constant"
      value: 0.2
    }
  }
}
layer {
  name: "inception_3b/relu_5x5_reduce"
  type: "ReLU"
  bottom: "inception_3b/5x5_reduce"
  top: "inception_3b/5x5_reduce"
}
layer {
  name: "inception_3b/5x5"
  type: "Convolution"
  bottom: "inception_3b/5x5_reduce"
  top: "inception_3b/5x5"
  param {
    lr_mult: 1
    decay_mult: 1
  }
  param {
    lr_mult: 2
    decay_mult: 0
  }
  convolution_param {
    num_output: 96
    pad: 2
    kernel_size: 5
    weight_filler {
      type: "xavier"
      std: 0.03
    }
    bias_filler {
      type: "constant"
      value: 0.2
    }
  }
}
layer {
  name: "inception_3b/relu_5x5"
  type: "ReLU"
  bottom: "inception_3b/5x5"
  top: "inception_3b/5x5"
}
layer {
  name: "inception_3b/pool"
  type: "Pooling"
  bottom: "inception_3a/output"
  top: "inception_3b/pool"
  pooling_param {
    pool: MAX
    kernel_size: 3
    stride: 1
    pad: 1
  }
}
layer {
  name: "inception_3b/pool_proj"
  type: "Convolution"
  bottom: "inception_3b/pool"
  top: "inception_3b/pool_proj"
  param {
    lr_mult: 1
    decay_mult: 1
  }
  param {
    lr_mult: 2
    decay_mult: 0
  }
  convolution_param {
    num_output: 64
    kernel_size: 1
    weight_filler {
      type: "xavier"
      std: 0.1
    }
    bias_filler {
      type: "constant"
      value: 0.2
    }
  }
}
layer {
  name: "inception_3b/relu_pool_proj"
  type: "ReLU"
  bottom: "inception_3b/pool_proj"
  top: "inception_3b/pool_proj"
}
layer {
  name: "inception_3b/output"
  type: "Concat"
  bottom: "inception_3b/1x1"
  bottom: "inception_3b/3x3"
  bottom: "inception_3b/5x5"
  bottom: "inception_3b/pool_proj"
  top: "inception_3b/output"
}
layer {
  name: "pool3/3x3_s2"
  type: "Pooling"
  bottom: "inception_3b/output"
  top: "pool3/3x3_s2"
  pooling_param {
    pool: MAX
    kernel_size: 3
    stride: 2
  }
}
layer {
  name: "inception_4a/1x1"
  type: "Convolution"
  bottom: "pool3/3x3_s2"
  top: "inception_4a/1x1"
  param {
    lr_mult: 1
    decay_mult: 1
  }
  param {
    lr_mult: 2
    decay_mult: 0
  }
  convolution_param {
    num_output: 192
    kernel_size: 1
    weight_filler {
      type: "xavier"
      std: 0.03
    }
    bias_filler {
      type: "constant"
      value: 0.2
    }
  }
}
layer {
  name: "inception_4a/relu_1x1"
  type: "ReLU"
  bottom: "inception_4a/1x1"
  top: "inception_4a/1x1"
}
layer {
  name: "inception_4a/3x3_reduce"
  type: "Convolution"
  bottom: "pool3/3x3_s2"
  top: "inception_4a/3x3_reduce"
  param {
    lr_mult: 1
    decay_mult: 1
  }
  param {
    lr_mult: 2
    decay_mult: 0
  }
  convolution_param {
    num_output: 96
    kernel_size: 1
    weight_filler {
      type: "xavier"
      std: 0.09
    }
    bias_filler {
      type: "constant"
      value: 0.2
    }
  }
}
layer {
  name: "inception_4a/relu_3x3_reduce"
  type: "ReLU"
  bottom: "inception_4a/3x3_reduce"
  top: "inception_4a/3x3_reduce"
}
layer {
  name: "inception_4a/3x3"
  type: "Convolution"
  bottom: "inception_4a/3x3_reduce"
  top: "inception_4a/3x3"
  param {
    lr_mult: 1
    decay_mult: 1
  }
  param {
    lr_mult: 2
    decay_mult: 0
  }
  convolution_param {
    num_output: 208
    pad: 1
    kernel_size: 3
    weight_filler {
      type: "xavier"
      std: 0.03
    }
    bias_filler {
      type: "constant"
      value: 0.2
    }
  }
}
layer {
  name: "inception_4a/relu_3x3"
  type: "ReLU"
  bottom: "inception_4a/3x3"
  top: "inception_4a/3x3"
}
layer {
  name: "inception_4a/5x5_reduce"
  type: "Convolution"
  bottom: "pool3/3x3_s2"
  top: "inception_4a/5x5_reduce"
  param {
    lr_mult: 1
    decay_mult: 1
  }
  param {
    lr_mult: 2
    decay_mult: 0
  }
  convolution_param {
    num_output: 16
    kernel_size: 1
    weight_filler {
      type: "xavier"
      std: 0.2
    }
    bias_filler {
      type: "constant"
      value: 0.2
    }
  }
}
layer {
  name: "inception_4a/relu_5x5_reduce"
  type: "ReLU"
  bottom: "inception_4a/5x5_reduce"
  top: "inception_4a/5x5_reduce"
}
layer {
  name: "inception_4a/5x5"
  type: "Convolution"
  bottom: "inception_4a/5x5_reduce"
  top: "inception_4a/5x5"
  param {
    lr_mult: 1
    decay_mult: 1
  }
  param {
    lr_mult: 2
    decay_mult: 0
  }
  convolution_param {
    num_output: 48
    pad: 2
    kernel_size: 5
    weight_filler {
      type: "xavier"
      std: 0.03
    }
    bias_filler {
      type: "constant"
      value: 0.2
    }
  }
}
layer {
  name: "inception_4a/relu_5x5"
  type: "ReLU"
  bottom: "inception_4a/5x5"
  top: "inception_4a/5x5"
}
layer {
  name: "inception_4a/pool"
  type: "Pooling"
  bottom: "pool3/3x3_s2"
  top: "inception_4a/pool"
  pooling_param {
    pool: MAX
    kernel_size: 3
    stride: 1
    pad: 1
  }
}
layer {
  name: "inception_4a/pool_proj"
  type: "Convolution"
  bottom: "inception_4a/pool"
  top: "inception_4a/pool_proj"
  param {
    lr_mult: 1
    decay_mult: 1
  }
  param {
    lr_mult: 2
    decay_mult: 0
  }
  convolution_param {
    num_output: 64
    kernel_size: 1
    weight_filler {
      type: "xavier"
      std: 0.1
    }
    bias_filler {
      type: "constant"
      value: 0.2
    }
  }
}
layer {
  name: "inception_4a/relu_pool_proj"
  type: "ReLU"
  bottom: "inception_4a/pool_proj"
  top: "inception_4a/pool_proj"
}
layer {
  name: "inception_4a/output"
  type: "Concat"
  bottom: "inception_4a/1x1"
  bottom: "inception_4a/3x3"
  bottom: "inception_4a/5x5"
  bottom: "inception_4a/pool_proj"
  top: "inception_4a/output"
}
layer {
  name: "loss1/ave_pool"
  type: "Pooling"
  bottom: "inception_4a/output"
  top: "loss1/ave_pool"
  pooling_param {
    pool: AVE
    kernel_size: 5
    stride: 3
  }
}
layer {
  name: "loss1/conv"
  type: "Convolution"
  bottom: "loss1/ave_pool"
  top: "loss1/conv"
  param {
    lr_mult: 1
    decay_mult: 1
  }
  param {
    lr_mult: 2
    decay_mult: 0
  }
  convolution_param {
    num_output: 128
    kernel_size: 1
    weight_filler {
      type: "xavier"
      std: 0.08
    }
    bias_filler {
      type: "constant"
      value: 0.2
    }
  }
}
layer {
  name: "loss1/relu_conv"
  type: "ReLU"
  bottom: "loss1/conv"
  top: "loss1/conv"
}
layer {
  name: "loss1/fc"
  type: "InnerProduct"
  bottom: "loss1/conv"
  top: "loss1/fc"
  param {
    lr_mult: 1
    decay_mult: 1
  }
  param {
    lr_mult: 2
    decay_mult: 0
  }
  inner_product_param {
    num_output: 1024
    weight_filler {
      type: "xavier"
      std: 0.02
    }
    bias_filler {
      type: "constant"
      value: 0.2
    }
  }
}
layer {
  name: "loss1/relu_fc"
  type: "ReLU"
  bottom: "loss1/fc"
  top: "loss1/fc"
}
layer {
  name: "loss1/drop_fc"
  type: "Dropout"
  bottom: "loss1/fc"
  top: "loss1/fc"
  dropout_param {
    dropout_ratio: 0.7
  }
}
layer {
  name: "loss1/classifier_plantvillage"
  type: "InnerProduct"
  bottom: "loss1/fc"
  top: "loss1/classifier_plantvillage"
  param {
    lr_mult: 1
    decay_mult: 1
  }
  param {
    lr_mult: 2
    decay_mult: 0
  }
  inner_product_param {
    num_output: 38
    weight_filler {
      type: "xavier"
      std: 0.0009765625
    }
    bias_filler {
      type: "constant"
      value: 0
    }
  }
}
layer {
  name: "inception_4b/1x1"
  type: "Convolution"
  bottom: "inception_4a/output"
  top: "inception_4b/1x1"
  param {
    lr_mult: 1
    decay_mult: 1
  }
  param {
    lr_mult: 2
    decay_mult: 0
  }
  convolution_param {
    num_output: 160
    kernel_size: 1
    weight_filler {
      type: "xavier"
      std: 0.03
    }
    bias_filler {
      type: "constant"
      value: 0.2
    }
  }
}
layer {
  name: "inception_4b/relu_1x1"
  type: "ReLU"
  bottom: "inception_4b/1x1"
  top: "inception_4b/1x1"
}
layer {
  name: "inception_4b/3x3_reduce"
  type: "Convolution"
  bottom: "inception_4a/output"
  top: "inception_4b/3x3_reduce"
  param {
    lr_mult: 1
    decay_mult: 1
  }
  param {
    lr_mult: 2
    decay_mult: 0
  }
  convolution_param {
    num_output: 112
    kernel_size: 1
    weight_filler {
      type: "xavier"
      std: 0.09
    }
    bias_filler {
      type: "constant"
      value: 0.2
    }
  }
}
layer {
  name: "inception_4b/relu_3x3_reduce"
  type: "ReLU"
  bottom: "inception_4b/3x3_reduce"
  top: "inception_4b/3x3_reduce"
}
layer {
  name: "inception_4b/3x3"
  type: "Convolution"
  bottom: "inception_4b/3x3_reduce"
  top: "inception_4b/3x3"
  param {
    lr_mult: 1
    decay_mult: 1
  }
  param {
    lr_mult: 2
    decay_mult: 0
  }
  convolution_param {
    num_output: 224
    pad: 1
    kernel_size: 3
    weight_filler {
      type: "xavier"
      std: 0.03
    }
    bias_filler {
      type: "constant"
      value: 0.2
    }
  }
}
layer {
  name: "inception_4b/relu_3x3"
  type: "ReLU"
  bottom: "inception_4b/3x3"
  top: "inception_4b/3x3"
}
layer {
  name: "inception_4b/5x5_reduce"
  type: "Convolution"
  bottom: "inception_4a/output"
  top: "inception_4b/5x5_reduce"
  param {
    lr_mult: 1
    decay_mult: 1
  }
  param {
    lr_mult: 2
    decay_mult: 0
  }
  convolution_param {
    num_output: 24
    kernel_size: 1
    weight_filler {
      type: "xavier"
      std: 0.2
    }
    bias_filler {
      type: "constant"
      value: 0.2
    }
  }
}
layer {
  name: "inception_4b/relu_5x5_reduce"
  type: "ReLU"
  bottom: "inception_4b/5x5_reduce"
  top: "inception_4b/5x5_reduce"
}
layer {
  name: "inception_4b/5x5"
  type: "Convolution"
  bottom: "inception_4b/5x5_reduce"
  top: "inception_4b/5x5"
  param {
    lr_mult: 1
    decay_mult: 1
  }
  param {
    lr_mult: 2
    decay_mult: 0
  }
  convolution_param {
    num_output: 64
    pad: 2
    kernel_size: 5
    weight_filler {
      type: "xavier"
      std: 0.03
    }
    bias_filler {
      type: "constant"
      value: 0.2
    }
  }
}
layer {
  name: "inception_4b/relu_5x5"
  type: "ReLU"
  bottom: "inception_4b/5x5"
  top: "inception_4b/5x5"
}
layer {
  name: "inception_4b/pool"
  type: "Pooling"
  bottom: "inception_4a/output"
  top: "inception_4b/pool"
  pooling_param {
    pool: MAX
    kernel_size: 3
    stride: 1
    pad: 1
  }
}
layer {
  name: "inception_4b/pool_proj"
  type: "Convolution"
  bottom: "inception_4b/pool"
  top: "inception_4b/pool_proj"
  param {
    lr_mult: 1
    decay_mult: 1
  }
  param {
    lr_mult: 2
    decay_mult: 0
  }
  convolution_param {
    num_output: 64
    kernel_size: 1
    weight_filler {
      type: "xavier"
      std: 0.1
    }
    bias_filler {
      type: "constant"
      value: 0.2
    }
  }
}
layer {
  name: "inception_4b/relu_pool_proj"
  type: "ReLU"
  bottom: "inception_4b/pool_proj"
  top: "inception_4b/pool_proj"
}
layer {
  name: "inception_4b/output"
  type: "Concat"
  bottom: "inception_4b/1x1"
  bottom: "inception_4b/3x3"
  bottom: "inception_4b/5x5"
  bottom: "inception_4b/pool_proj"
  top: "inception_4b/output"
}
layer {
  name: "inception_4c/1x1"
  type: "Convolution"
  bottom: "inception_4b/output"
  top: "inception_4c/1x1"
  param {
    lr_mult: 1
    decay_mult: 1
  }
  param {
    lr_mult: 2
    decay_mult: 0
  }
  convolution_param {
    num_output: 128
    kernel_size: 1
    weight_filler {
      type: "xavier"
      std: 0.03
    }
    bias_filler {
      type: "constant"
      value: 0.2
    }
  }
}
layer {
  name: "inception_4c/relu_1x1"
  type: "ReLU"
  bottom: "inception_4c/1x1"
  top: "inception_4c/1x1"
}
layer {
  name: "inception_4c/3x3_reduce"
  type: "Convolution"
  bottom: "inception_4b/output"
  top: "inception_4c/3x3_reduce"
  param {
    lr_mult: 1
    decay_mult: 1
  }
  param {
    lr_mult: 2
    decay_mult: 0
  }
  convolution_param {
    num_output: 128
    kernel_size: 1
    weight_filler {
      type: "xavier"
      std: 0.09
    }
    bias_filler {
      type: "constant"
      value: 0.2
    }
  }
}
layer {
  name: "inception_4c/relu_3x3_reduce"
  type: "ReLU"
  bottom: "inception_4c/3x3_reduce"
  top: "inception_4c/3x3_reduce"
}
layer {
  name: "inception_4c/3x3"
  type: "Convolution"
  bottom: "inception_4c/3x3_reduce"
  top: "inception_4c/3x3"
  param {
    lr_mult: 1
    decay_mult: 1
  }
  param {
    lr_mult: 2
    decay_mult: 0
  }
  convolution_param {
    num_output: 256
    pad: 1
    kernel_size: 3
    weight_filler {
      type: "xavier"
      std: 0.03
    }
    bias_filler {
      type: "constant"
      value: 0.2
    }
  }
}
layer {
  name: "inception_4c/relu_3x3"
  type: "ReLU"
  bottom: "inception_4c/3x3"
  top: "inception_4c/3x3"
}
layer {
  name: "inception_4c/5x5_reduce"
  type: "Convolution"
  bottom: "inception_4b/output"
  top: "inception_4c/5x5_reduce"
  param {
    lr_mult: 1
    decay_mult: 1
  }
  param {
    lr_mult: 2
    decay_mult: 0
  }
  convolution_param {
    num_output: 24
    kernel_size: 1
    weight_filler {
      type: "xavier"
      std: 0.2
    }
    bias_filler {
      type: "constant"
      value: 0.2
    }
  }
}
layer {
  name: "inception_4c/relu_5x5_reduce"
  type: "ReLU"
  bottom: "inception_4c/5x5_reduce"
  top: "inception_4c/5x5_reduce"
}
layer {
  name: "inception_4c/5x5"
  type: "Convolution"
  bottom: "inception_4c/5x5_reduce"
  top: "inception_4c/5x5"
  param {
    lr_mult: 1
    decay_mult: 1
  }
  param {
    lr_mult: 2
    decay_mult: 0
  }
  convolution_param {
    num_output: 64
    pad: 2
    kernel_size: 5
    weight_filler {
      type: "xavier"
      std: 0.03
    }
    bias_filler {
      type: "constant"
      value: 0.2
    }
  }
}
layer {
  name: "inception_4c/relu_5x5"
  type: "ReLU"
  bottom: "inception_4c/5x5"
  top: "inception_4c/5x5"
}
layer {
  name: "inception_4c/pool"
  type: "Pooling"
  bottom: "inception_4b/output"
  top: "inception_4c/pool"
  pooling_param {
    pool: MAX
    kernel_size: 3
    stride: 1
    pad: 1
  }
}
layer {
  name: "inception_4c/pool_proj"
  type: "Convolution"
  bottom: "inception_4c/pool"
  top: "inception_4c/pool_proj"
  param {
    lr_mult: 1
    decay_mult: 1
  }
  param {
    lr_mult: 2
    decay_mult: 0
  }
  convolution_param {
    num_output: 64
    kernel_size: 1
    weight_filler {
      type: "xavier"
      std: 0.1
    }
    bias_filler {
      type: "constant"
      value: 0.2
    }
  }
}
layer {
  name: "inception_4c/relu_pool_proj"
  type: "ReLU"
  bottom: "inception_4c/pool_proj"
  top: "inception_4c/pool_proj"
}
layer {
  name: "inception_4c/output"
  type: "Concat"
  bottom: "inception_4c/1x1"
  bottom: "inception_4c/3x3"
  bottom: "inception_4c/5x5"
  bottom: "inception_4c/pool_proj"
  top: "inception_4c/output"
}
layer {
  name: "inception_4d/1x1"
  type: "Convolution"
  bottom: "inception_4c/output"
  top: "inception_4d/1x1"
  param {
    lr_mult: 1
    decay_mult: 1
  }
  param {
    lr_mult: 2
    decay_mult: 0
  }
  convolution_param {
    num_output: 112
    kernel_size: 1
    weight_filler {
      type: "xavier"
      std: 0.03
    }
    bias_filler {
      type: "constant"
      value: 0.2
    }
  }
}
layer {
  name: "inception_4d/relu_1x1"
  type: "ReLU"
  bottom: "inception_4d/1x1"
  top: "inception_4d/1x1"
}
layer {
  name: "inception_4d/3x3_reduce"
  type: "Convolution"
  bottom: "inception_4c/output"
  top: "inception_4d/3x3_reduce"
  param {
    lr_mult: 1
    decay_mult: 1
  }
  param {
    lr_mult: 2
    decay_mult: 0
  }
  convolution_param {
    num_output: 144
    kernel_size: 1
    weight_filler {
      type: "xavier"
      std: 0.09
    }
    bias_filler {
      type: "constant"
      value: 0.2
    }
  }
}
layer {
  name: "inception_4d/relu_3x3_reduce"
  type: "ReLU"
  bottom: "inception_4d/3x3_reduce"
  top: "inception_4d/3x3_reduce"
}
layer {
  name: "inception_4d/3x3"
  type: "Convolution"
  bottom: "inception_4d/3x3_reduce"
  top: "inception_4d/3x3"
  param {
    lr_mult: 1
    decay_mult: 1
  }
  param {
    lr_mult: 2
    decay_mult: 0
  }
  convolution_param {
    num_output: 288
    pad: 1
    kernel_size: 3
    weight_filler {
      type: "xavier"
      std: 0.03
    }
    bias_filler {
      type: "constant"
      value: 0.2
    }
  }
}
layer {
  name: "inception_4d/relu_3x3"
  type: "ReLU"
  bottom: "inception_4d/3x3"
  top: "inception_4d/3x3"
}
layer {
  name: "inception_4d/5x5_reduce"
  type: "Convolution"
  bottom: "inception_4c/output"
  top: "inception_4d/5x5_reduce"
  param {
    lr_mult: 1
    decay_mult: 1
  }
  param {
    lr_mult: 2
    decay_mult: 0
  }
  convolution_param {
    num_output: 32
    kernel_size: 1
    weight_filler {
      type: "xavier"
      std: 0.2
    }
    bias_filler {
      type: "constant"
      value: 0.2
    }
  }
}
layer {
  name: "inception_4d/relu_5x5_reduce"
  type: "ReLU"
  bottom: "inception_4d/5x5_reduce"
  top: "inception_4d/5x5_reduce"
}
layer {
  name: "inception_4d/5x5"
  type: "Convolution"
  bottom: "inception_4d/5x5_reduce"
  top: "inception_4d/5x5"
  param {
    lr_mult: 1
    decay_mult: 1
  }
  param {
    lr_mult: 2
    decay_mult: 0
  }
  convolution_param {
    num_output: 64
    pad: 2
    kernel_size: 5
    weight_filler {
      type: "xavier"
      std: 0.03
    }
    bias_filler {
      type: "constant"
      value: 0.2
    }
  }
}
layer {
  name: "inception_4d/relu_5x5"
  type: "ReLU"
  bottom: "inception_4d/5x5"
  top: "inception_4d/5x5"
}
layer {
  name: "inception_4d/pool"
  type: "Pooling"
  bottom: "inception_4c/output"
  top: "inception_4d/pool"
  pooling_param {
    pool: MAX
    kernel_size: 3
    stride: 1
    pad: 1
  }
}
layer {
  name: "inception_4d/pool_proj"
  type: "Convolution"
  bottom: "inception_4d/pool"
  top: "inception_4d/pool_proj"
  param {
    lr_mult: 1
    decay_mult: 1
  }
  param {
    lr_mult: 2
    decay_mult: 0
  }
  convolution_param {
    num_output: 64
    kernel_size: 1
    weight_filler {
      type: "xavier"
      std: 0.1
    }
    bias_filler {
      type: "constant"
      value: 0.2
    }
  }
}
layer {
  name: "inception_4d/relu_pool_proj"
  type: "ReLU"
  bottom: "inception_4d/pool_proj"
  top: "inception_4d/pool_proj"
}
layer {
  name: "inception_4d/output"
  type: "Concat"
  bottom: "inception_4d/1x1"
  bottom: "inception_4d/3x3"
  bottom: "inception_4d/5x5"
  bottom: "inception_4d/pool_proj"
  top: "inception_4d/output"
}
layer {
  name: "loss2/ave_pool"
  type: "Pooling"
  bottom: "inception_4d/output"
  top: "loss2/ave_pool"
  pooling_param {
    pool: AVE
    kernel_size: 5
    stride: 3
  }
}
layer {
  name: "loss2/conv"
  type: "Convolution"
  bottom: "loss2/ave_pool"
  top: "loss2/conv"
  param {
    lr_mult: 1
    decay_mult: 1
  }
  param {
    lr_mult: 2
    decay_mult: 0
  }
  convolution_param {
    num_output: 128
    kernel_size: 1
    weight_filler {
      type: "xavier"
      std: 0.08
    }
    bias_filler {
      type: "constant"
      value: 0.2
    }
  }
}
layer {
  name: "loss2/relu_conv"
  type: "ReLU"
  bottom: "loss2/conv"
  top: "loss2/conv"
}
layer {
  name: "loss2/fc"
  type: "InnerProduct"
  bottom: "loss2/conv"
  top: "loss2/fc"
  param {
    lr_mult: 1
    decay_mult: 1
  }
  param {
    lr_mult: 2
    decay_mult: 0
  }
  inner_product_param {
    num_output: 1024
    weight_filler {
      type: "xavier"
      std: 0.02
    }
    bias_filler {
      type: "constant"
      value: 0.2
    }
  }
}
layer {
  name: "loss2/relu_fc"
  type: "ReLU"
  bottom: "loss2/fc"
  top: "loss2/fc"
}
layer {
  name: "loss2/drop_fc"
  type: "Dropout"
  bottom: "loss2/fc"
  top: "loss2/fc"
  dropout_param {
    dropout_ratio: 0.7
  }
}
layer {
  name: "loss2/classifier_plantvillage"
  type: "InnerProduct"
  bottom: "loss2/fc"
  top: "loss2/classifier_plantvillage"
  param {
    lr_mult: 1
    decay_mult: 1
  }
  param {
    lr_mult: 2
    decay_mult: 0
  }
  inner_product_param {
    num_output: 38
    weight_filler {
      type: "xavier"
      std: 0.0009765625
    }
    bias_filler {
      type: "constant"
      value: 0
    }
  }
}
layer {
  name: "inception_4e/1x1"
  type: "Convolution"
  bottom: "inception_4d/output"
  top: "inception_4e/1x1"
  param {
    lr_mult: 1
    decay_mult: 1
  }
  param {
    lr_mult: 2
    decay_mult: 0
  }
  convolution_param {
    num_output: 256
    kernel_size: 1
    weight_filler {
      type: "xavier"
      std: 0.03
    }
    bias_filler {
      type: "constant"
      value: 0.2
    }
  }
}
layer {
  name: "inception_4e/relu_1x1"
  type: "ReLU"
  bottom: "inception_4e/1x1"
  top: "inception_4e/1x1"
}
layer {
  name: "inception_4e/3x3_reduce"
  type: "Convolution"
  bottom: "inception_4d/output"
  top: "inception_4e/3x3_reduce"
  param {
    lr_mult: 1
    decay_mult: 1
  }
  param {
    lr_mult: 2
    decay_mult: 0
  }
  convolution_param {
    num_output: 160
    kernel_size: 1
    weight_filler {
      type: "xavier"
      std: 0.09
    }
    bias_filler {
      type: "constant"
      value: 0.2
    }
  }
}
layer {
  name: "inception_4e/relu_3x3_reduce"
  type: "ReLU"
  bottom: "inception_4e/3x3_reduce"
  top: "inception_4e/3x3_reduce"
}
layer {
  name: "inception_4e/3x3"
  type: "Convolution"
  bottom: "inception_4e/3x3_reduce"
  top: "inception_4e/3x3"
  param {
    lr_mult: 1
    decay_mult: 1
  }
  param {
    lr_mult: 2
    decay_mult: 0
  }
  convolution_param {
    num_output: 320
    pad: 1
    kernel_size: 3
    weight_filler {
      type: "xavier"
      std: 0.03
    }
    bias_filler {
      type: "constant"
      value: 0.2
    }
  }
}
layer {
  name: "inception_4e/relu_3x3"
  type: "ReLU"
  bottom: "inception_4e/3x3"
  top: "inception_4e/3x3"
}
layer {
  name: "inception_4e/5x5_reduce"
  type: "Convolution"
  bottom: "inception_4d/output"
  top: "inception_4e/5x5_reduce"
  param {
    lr_mult: 1
    decay_mult: 1
  }
  param {
    lr_mult: 2
    decay_mult: 0
  }
  convolution_param {
    num_output: 32
    kernel_size: 1
    weight_filler {
      type: "xavier"
      std: 0.2
    }
    bias_filler {
      type: "constant"
      value: 0.2
    }
  }
}
layer {
  name: "inception_4e/relu_5x5_reduce"
  type: "ReLU"
  bottom: "inception_4e/5x5_reduce"
  top: "inception_4e/5x5_reduce"
}
layer {
  name: "inception_4e/5x5"
  type: "Convolution"
  bottom: "inception_4e/5x5_reduce"
  top: "inception_4e/
I0403 18:18:24.452875 16938 layer_factory.hpp:77] Creating layer data
I0403 18:18:24.453505 16938 net.cpp:91] Creating Layer data
I0403 18:18:24.453536 16938 net.cpp:399] data -> data
I0403 18:18:24.453591 16938 net.cpp:399] data -> label
I0403 18:18:24.453629 16938 data_transformer.cpp:25] Loading mean file from: /home/mohanty/data/final_dataset/lmdb/grayscale-60-40/mean.binaryproto
I0403 18:18:24.454783 16941 db_lmdb.cpp:38] Opened lmdb /home/mohanty/data/final_dataset/lmdb/grayscale-60-40/test_db
I0403 18:18:24.466984 16938 data_layer.cpp:41] output data size: 24,3,224,224
I0403 18:18:24.494096 16938 net.cpp:141] Setting up data
I0403 18:18:24.494185 16938 net.cpp:148] Top shape: 24 3 224 224 (3612672)
I0403 18:18:24.494211 16938 net.cpp:148] Top shape: 24 (24)
I0403 18:18:24.494227 16938 net.cpp:156] Memory required for data: 14450784
I0403 18:18:24.494257 16938 layer_factory.hpp:77] Creating layer label_data_1_split
I0403 18:18:24.494285 16938 net.cpp:91] Creating Layer label_data_1_split
I0403 18:18:24.494304 16938 net.cpp:425] label_data_1_split <- label
I0403 18:18:24.494336 16938 net.cpp:399] label_data_1_split -> label_data_1_split_0
I0403 18:18:24.494366 16938 net.cpp:399] label_data_1_split -> label_data_1_split_1
I0403 18:18:24.494390 16938 net.cpp:399] label_data_1_split -> label_data_1_split_2
I0403 18:18:24.494415 16938 net.cpp:399] label_data_1_split -> label_data_1_split_3
I0403 18:18:24.494436 16938 net.cpp:399] label_data_1_split -> label_data_1_split_4
I0403 18:18:24.494457 16938 net.cpp:399] label_data_1_split -> label_data_1_split_5
I0403 18:18:24.494477 16938 net.cpp:399] label_data_1_split -> label_data_1_split_6
I0403 18:18:24.494499 16938 net.cpp:399] label_data_1_split -> label_data_1_split_7
I0403 18:18:24.494519 16938 net.cpp:399] label_data_1_split -> label_data_1_split_8
I0403 18:18:24.494539 16938 net.cpp:399] label_data_1_split -> label_data_1_split_9
I0403 18:18:24.494659 16938 net.cpp:141] Setting up label_data_1_split
I0403 18:18:24.494684 16938 net.cpp:148] Top shape: 24 (24)
I0403 18:18:24.494702 16938 net.cpp:148] Top shape: 24 (24)
I0403 18:18:24.494719 16938 net.cpp:148] Top shape: 24 (24)
I0403 18:18:24.494736 16938 net.cpp:148] Top shape: 24 (24)
I0403 18:18:24.494752 16938 net.cpp:148] Top shape: 24 (24)
I0403 18:18:24.494768 16938 net.cpp:148] Top shape: 24 (24)
I0403 18:18:24.494786 16938 net.cpp:148] Top shape: 24 (24)
I0403 18:18:24.494802 16938 net.cpp:148] Top shape: 24 (24)
I0403 18:18:24.494818 16938 net.cpp:148] Top shape: 24 (24)
I0403 18:18:24.494835 16938 net.cpp:148] Top shape: 24 (24)
I0403 18:18:24.494881 16938 net.cpp:156] Memory required for data: 14451744
I0403 18:18:24.494899 16938 layer_factory.hpp:77] Creating layer conv1/7x7_s2
I0403 18:18:24.494931 16938 net.cpp:91] Creating Layer conv1/7x7_s2
I0403 18:18:24.494951 16938 net.cpp:425] conv1/7x7_s2 <- data
I0403 18:18:24.494972 16938 net.cpp:399] conv1/7x7_s2 -> conv1/7x7_s2
I0403 18:18:24.636869 16938 net.cpp:141] Setting up conv1/7x7_s2
I0403 18:18:24.636948 16938 net.cpp:148] Top shape: 24 64 112 112 (19267584)
I0403 18:18:24.636967 16938 net.cpp:156] Memory required for data: 91522080
I0403 18:18:24.637003 16938 layer_factory.hpp:77] Creating layer conv1/relu_7x7
I0403 18:18:24.637033 16938 net.cpp:91] Creating Layer conv1/relu_7x7
I0403 18:18:24.637053 16938 net.cpp:425] conv1/relu_7x7 <- conv1/7x7_s2
I0403 18:18:24.637073 16938 net.cpp:386] conv1/relu_7x7 -> conv1/7x7_s2 (in-place)
I0403 18:18:24.637341 16938 net.cpp:141] Setting up conv1/relu_7x7
I0403 18:18:24.637369 16938 net.cpp:148] Top shape: 24 64 112 112 (19267584)
I0403 18:18:24.637387 16938 net.cpp:156] Memory required for data: 168592416
I0403 18:18:24.637403 16938 layer_factory.hpp:77] Creating layer pool1/3x3_s2
I0403 18:18:24.637429 16938 net.cpp:91] Creating Layer pool1/3x3_s2
I0403 18:18:24.637449 16938 net.cpp:425] pool1/3x3_s2 <- conv1/7x7_s2
I0403 18:18:24.637468 16938 net.cpp:399] pool1/3x3_s2 -> pool1/3x3_s2
I0403 18:18:24.637545 16938 net.cpp:141] Setting up pool1/3x3_s2
I0403 18:18:24.637570 16938 net.cpp:148] Top shape: 24 64 56 56 (4816896)
I0403 18:18:24.637586 16938 net.cpp:156] Memory required for data: 187860000
I0403 18:18:24.637603 16938 layer_factory.hpp:77] Creating layer pool1/norm1
I0403 18:18:24.637629 16938 net.cpp:91] Creating Layer pool1/norm1
I0403 18:18:24.637646 16938 net.cpp:425] pool1/norm1 <- pool1/3x3_s2
I0403 18:18:24.637665 16938 net.cpp:399] pool1/norm1 -> pool1/norm1
I0403 18:18:24.638003 16938 net.cpp:141] Setting up pool1/norm1
I0403 18:18:24.638032 16938 net.cpp:148] Top shape: 24 64 56 56 (4816896)
I0403 18:18:24.638049 16938 net.cpp:156] Memory required for data: 207127584
I0403 18:18:24.638067 16938 layer_factory.hpp:77] Creating layer conv2/3x3_reduce
I0403 18:18:24.638092 16938 net.cpp:91] Creating Layer conv2/3x3_reduce
I0403 18:18:24.638109 16938 net.cpp:425] conv2/3x3_reduce <- pool1/norm1
I0403 18:18:24.638130 16938 net.cpp:399] conv2/3x3_reduce -> conv2/3x3_reduce
I0403 18:18:24.639606 16938 net.cpp:141] Setting up conv2/3x3_reduce
I0403 18:18:24.639639 16938 net.cpp:148] Top shape: 24 64 56 56 (4816896)
I0403 18:18:24.639657 16938 net.cpp:156] Memory required for data: 226395168
I0403 18:18:24.639678 16938 layer_factory.hpp:77] Creating layer conv2/relu_3x3_reduce
I0403 18:18:24.639699 16938 net.cpp:91] Creating Layer conv2/relu_3x3_reduce
I0403 18:18:24.639716 16938 net.cpp:425] conv2/relu_3x3_reduce <- conv2/3x3_reduce
I0403 18:18:24.639734 16938 net.cpp:386] conv2/relu_3x3_reduce -> conv2/3x3_reduce (in-place)
I0403 18:18:24.640002 16938 net.cpp:141] Setting up conv2/relu_3x3_reduce
I0403 18:18:24.640030 16938 net.cpp:148] Top shape: 24 64 56 56 (4816896)
I0403 18:18:24.640046 16938 net.cpp:156] Memory required for data: 245662752
I0403 18:18:24.640064 16938 layer_factory.hpp:77] Creating layer conv2/3x3
I0403 18:18:24.640086 16938 net.cpp:91] Creating Layer conv2/3x3
I0403 18:18:24.640105 16938 net.cpp:425] conv2/3x3 <- conv2/3x3_reduce
I0403 18:18:24.640125 16938 net.cpp:399] conv2/3x3 -> conv2/3x3
I0403 18:18:24.642443 16938 net.cpp:141] Setting up conv2/3x3
I0403 18:18:24.642475 16938 net.cpp:148] Top shape: 24 192 56 56 (14450688)
I0403 18:18:24.642493 16938 net.cpp:156] Memory required for data: 303465504
I0403 18:18:24.642515 16938 layer_factory.hpp:77] Creating layer conv2/relu_3x3
I0403 18:18:24.642535 16938 net.cpp:91] Creating Layer conv2/relu_3x3
I0403 18:18:24.642552 16938 net.cpp:425] conv2/relu_3x3 <- conv2/3x3
I0403 18:18:24.642570 16938 net.cpp:386] conv2/relu_3x3 -> conv2/3x3 (in-place)
I0403 18:18:24.642776 16938 net.cpp:141] Setting up conv2/relu_3x3
I0403 18:18:24.642802 16938 net.cpp:148] Top shape: 24 192 56 56 (14450688)
I0403 18:18:24.642848 16938 net.cpp:156] Memory required for data: 361268256
I0403 18:18:24.642864 16938 layer_factory.hpp:77] Creating layer conv2/norm2
I0403 18:18:24.642884 16938 net.cpp:91] Creating Layer conv2/norm2
I0403 18:18:24.642901 16938 net.cpp:425] conv2/norm2 <- conv2/3x3
I0403 18:18:24.642920 16938 net.cpp:399] conv2/norm2 -> conv2/norm2
I0403 18:18:24.643216 16938 net.cpp:141] Setting up conv2/norm2
I0403 18:18:24.643244 16938 net.cpp:148] Top shape: 24 192 56 56 (14450688)
I0403 18:18:24.643260 16938 net.cpp:156] Memory required for data: 419071008
I0403 18:18:24.643275 16938 layer_factory.hpp:77] Creating layer pool2/3x3_s2
I0403 18:18:24.643295 16938 net.cpp:91] Creating Layer pool2/3x3_s2
I0403 18:18:24.643311 16938 net.cpp:425] pool2/3x3_s2 <- conv2/norm2
I0403 18:18:24.643329 16938 net.cpp:399] pool2/3x3_s2 -> pool2/3x3_s2
I0403 18:18:24.643379 16938 net.cpp:141] Setting up pool2/3x3_s2
I0403 18:18:24.643402 16938 net.cpp:148] Top shape: 24 192 28 28 (3612672)
I0403 18:18:24.643419 16938 net.cpp:156] Memory required for data: 433521696
I0403 18:18:24.643434 16938 layer_factory.hpp:77] Creating layer pool2/3x3_s2_pool2/3x3_s2_0_split
I0403 18:18:24.643452 16938 net.cpp:91] Creating Layer pool2/3x3_s2_pool2/3x3_s2_0_split
I0403 18:18:24.643470 16938 net.cpp:425] pool2/3x3_s2_pool2/3x3_s2_0_split <- pool2/3x3_s2
I0403 18:18:24.643486 16938 net.cpp:399] pool2/3x3_s2_pool2/3x3_s2_0_split -> pool2/3x3_s2_pool2/3x3_s2_0_split_0
I0403 18:18:24.643507 16938 net.cpp:399] pool2/3x3_s2_pool2/3x3_s2_0_split -> pool2/3x3_s2_pool2/3x3_s2_0_split_1
I0403 18:18:24.643527 16938 net.cpp:399] pool2/3x3_s2_pool2/3x3_s2_0_split -> pool2/3x3_s2_pool2/3x3_s2_0_split_2
I0403 18:18:24.643546 16938 net.cpp:399] pool2/3x3_s2_pool2/3x3_s2_0_split -> pool2/3x3_s2_pool2/3x3_s2_0_split_3
I0403 18:18:24.643611 16938 net.cpp:141] Setting up pool2/3x3_s2_pool2/3x3_s2_0_split
I0403 18:18:24.643635 16938 net.cpp:148] Top shape: 24 192 28 28 (3612672)
I0403 18:18:24.643651 16938 net.cpp:148] Top shape: 24 192 28 28 (3612672)
I0403 18:18:24.643667 16938 net.cpp:148] Top shape: 24 192 28 28 (3612672)
I0403 18:18:24.643683 16938 net.cpp:148] Top shape: 24 192 28 28 (3612672)
I0403 18:18:24.643697 16938 net.cpp:156] Memory required for data: 491324448
I0403 18:18:24.643712 16938 layer_factory.hpp:77] Creating layer inception_3a/1x1
I0403 18:18:24.643734 16938 net.cpp:91] Creating Layer inception_3a/1x1
I0403 18:18:24.643753 16938 net.cpp:425] inception_3a/1x1 <- pool2/3x3_s2_pool2/3x3_s2_0_split_0
I0403 18:18:24.643771 16938 net.cpp:399] inception_3a/1x1 -> inception_3a/1x1
I0403 18:18:24.645313 16938 net.cpp:141] Setting up inception_3a/1x1
I0403 18:18:24.645344 16938 net.cpp:148] Top shape: 24 64 28 28 (1204224)
I0403 18:18:24.645361 16938 net.cpp:156] Memory required for data: 496141344
I0403 18:18:24.645387 16938 layer_factory.hpp:77] Creating layer inception_3a/relu_1x1
I0403 18:18:24.645407 16938 net.cpp:91] Creating Layer inception_3a/relu_1x1
I0403 18:18:24.645423 16938 net.cpp:425] inception_3a/relu_1x1 <- inception_3a/1x1
I0403 18:18:24.645442 16938 net.cpp:386] inception_3a/relu_1x1 -> inception_3a/1x1 (in-place)
I0403 18:18:24.645622 16938 net.cpp:141] Setting up inception_3a/relu_1x1
I0403 18:18:24.645650 16938 net.cpp:148] Top shape: 24 64 28 28 (1204224)
I0403 18:18:24.645668 16938 net.cpp:156] Memory required for data: 500958240
I0403 18:18:24.645683 16938 layer_factory.hpp:77] Creating layer inception_3a/3x3_reduce
I0403 18:18:24.645704 16938 net.cpp:91] Creating Layer inception_3a/3x3_reduce
I0403 18:18:24.645721 16938 net.cpp:425] inception_3a/3x3_reduce <- pool2/3x3_s2_pool2/3x3_s2_0_split_1
I0403 18:18:24.645745 16938 net.cpp:399] inception_3a/3x3_reduce -> inception_3a/3x3_reduce
I0403 18:18:24.647510 16938 net.cpp:141] Setting up inception_3a/3x3_reduce
I0403 18:18:24.647541 16938 net.cpp:148] Top shape: 24 96 28 28 (1806336)
I0403 18:18:24.647557 16938 net.cpp:156] Memory required for data: 508183584
I0403 18:18:24.647583 16938 layer_factory.hpp:77] Creating layer inception_3a/relu_3x3_reduce
I0403 18:18:24.647619 16938 net.cpp:91] Creating Layer inception_3a/relu_3x3_reduce
I0403 18:18:24.647637 16938 net.cpp:425] inception_3a/relu_3x3_reduce <- inception_3a/3x3_reduce
I0403 18:18:24.647656 16938 net.cpp:386] inception_3a/relu_3x3_reduce -> inception_3a/3x3_reduce (in-place)
I0403 18:18:24.647850 16938 net.cpp:141] Setting up inception_3a/relu_3x3_reduce
I0403 18:18:24.647876 16938 net.cpp:148] Top shape: 24 96 28 28 (1806336)
I0403 18:18:24.647892 16938 net.cpp:156] Memory required for data: 515408928
I0403 18:18:24.647917 16938 layer_factory.hpp:77] Creating layer inception_3a/3x3
I0403 18:18:24.647941 16938 net.cpp:91] Creating Layer inception_3a/3x3
I0403 18:18:24.647960 16938 net.cpp:425] inception_3a/3x3 <- inception_3a/3x3_reduce
I0403 18:18:24.647992 16938 net.cpp:399] inception_3a/3x3 -> inception_3a/3x3
I0403 18:18:24.649783 16938 net.cpp:141] Setting up inception_3a/3x3
I0403 18:18:24.649813 16938 net.cpp:148] Top shape: 24 128 28 28 (2408448)
I0403 18:18:24.649832 16938 net.cpp:156] Memory required for data: 525042720
I0403 18:18:24.649850 16938 layer_factory.hpp:77] Creating layer inception_3a/relu_3x3
I0403 18:18:24.649873 16938 net.cpp:91] Creating Layer inception_3a/relu_3x3
I0403 18:18:24.649889 16938 net.cpp:425] inception_3a/relu_3x3 <- inception_3a/3x3
I0403 18:18:24.649907 16938 net.cpp:386] inception_3a/relu_3x3 -> inception_3a/3x3 (in-place)
I0403 18:18:24.650228 16938 net.cpp:141] Setting up inception_3a/relu_3x3
I0403 18:18:24.650255 16938 net.cpp:148] Top shape: 24 128 28 28 (2408448)
I0403 18:18:24.650271 16938 net.cpp:156] Memory required for data: 534676512
I0403 18:18:24.650286 16938 layer_factory.hpp:77] Creating layer inception_3a/5x5_reduce
I0403 18:18:24.650310 16938 net.cpp:91] Creating Layer inception_3a/5x5_reduce
I0403 18:18:24.650331 16938 net.cpp:425] inception_3a/5x5_reduce <- pool2/3x3_s2_pool2/3x3_s2_0_split_2
I0403 18:18:24.650351 16938 net.cpp:399] inception_3a/5x5_reduce -> inception_3a/5x5_reduce
I0403 18:18:24.651345 16938 net.cpp:141] Setting up inception_3a/5x5_reduce
I0403 18:18:24.651374 16938 net.cpp:148] Top shape: 24 16 28 28 (301056)
I0403 18:18:24.651391 16938 net.cpp:156] Memory required for data: 535880736
I0403 18:18:24.651409 16938 layer_factory.hpp:77] Creating layer inception_3a/relu_5x5_reduce
I0403 18:18:24.651430 16938 net.cpp:91] Creating Layer inception_3a/relu_5x5_reduce
I0403 18:18:24.651448 16938 net.cpp:425] inception_3a/relu_5x5_reduce <- inception_3a/5x5_reduce
I0403 18:18:24.651468 16938 net.cpp:386] inception_3a/relu_5x5_reduce -> inception_3a/5x5_reduce (in-place)
I0403 18:18:24.651775 16938 net.cpp:141] Setting up inception_3a/relu_5x5_reduce
I0403 18:18:24.651804 16938 net.cpp:148] Top shape: 24 16 28 28 (301056)
I0403 18:18:24.651821 16938 net.cpp:156] Memory required for data: 537084960
I0403 18:18:24.651871 16938 layer_factory.hpp:77] Creating layer inception_3a/5x5
I0403 18:18:24.651901 16938 net.cpp:91] Creating Layer inception_3a/5x5
I0403 18:18:24.651921 16938 net.cpp:425] inception_3a/5x5 <- inception_3a/5x5_reduce
I0403 18:18:24.651942 16938 net.cpp:399] inception_3a/5x5 -> inception_3a/5x5
I0403 18:18:24.652982 16938 net.cpp:141] Setting up inception_3a/5x5
I0403 18:18:24.653012 16938 net.cpp:148] Top shape: 24 32 28 28 (602112)
I0403 18:18:24.653028 16938 net.cpp:156] Memory required for data: 539493408
I0403 18:18:24.653048 16938 layer_factory.hpp:77] Creating layer inception_3a/relu_5x5
I0403 18:18:24.653069 16938 net.cpp:91] Creating Layer inception_3a/relu_5x5
I0403 18:18:24.653086 16938 net.cpp:425] inception_3a/relu_5x5 <- inception_3a/5x5
I0403 18:18:24.653105 16938 net.cpp:386] inception_3a/relu_5x5 -> inception_3a/5x5 (in-place)
I0403 18:18:24.653283 16938 net.cpp:141] Setting up inception_3a/relu_5x5
I0403 18:18:24.653311 16938 net.cpp:148] Top shape: 24 32 28 28 (602112)
I0403 18:18:24.653327 16938 net.cpp:156] Memory required for data: 541901856
I0403 18:18:24.653342 16938 layer_factory.hpp:77] Creating layer inception_3a/pool
I0403 18:18:24.653362 16938 net.cpp:91] Creating Layer inception_3a/pool
I0403 18:18:24.653393 16938 net.cpp:425] inception_3a/pool <- pool2/3x3_s2_pool2/3x3_s2_0_split_3
I0403 18:18:24.653442 16938 net.cpp:399] inception_3a/pool -> inception_3a/pool
I0403 18:18:24.653508 16938 net.cpp:141] Setting up inception_3a/pool
I0403 18:18:24.653532 16938 net.cpp:148] Top shape: 24 192 28 28 (3612672)
I0403 18:18:24.653548 16938 net.cpp:156] Memory required for data: 556352544
I0403 18:18:24.653563 16938 layer_factory.hpp:77] Creating layer inception_3a/pool_proj
I0403 18:18:24.653586 16938 net.cpp:91] Creating Layer inception_3a/pool_proj
I0403 18:18:24.653606 16938 net.cpp:425] inception_3a/pool_proj <- inception_3a/pool
I0403 18:18:24.653630 16938 net.cpp:399] inception_3a/pool_proj -> inception_3a/pool_proj
I0403 18:18:24.654626 16938 net.cpp:141] Setting up inception_3a/pool_proj
I0403 18:18:24.654656 16938 net.cpp:148] Top shape: 24 32 28 28 (602112)
I0403 18:18:24.654672 16938 net.cpp:156] Memory required for data: 558760992
I0403 18:18:24.654695 16938 layer_factory.hpp:77] Creating layer inception_3a/relu_pool_proj
I0403 18:18:24.654719 16938 net.cpp:91] Creating Layer inception_3a/relu_pool_proj
I0403 18:18:24.654738 16938 net.cpp:425] inception_3a/relu_pool_proj <- inception_3a/pool_proj
I0403 18:18:24.654757 16938 net.cpp:386] inception_3a/relu_pool_proj -> inception_3a/pool_proj (in-place)
I0403 18:18:24.655048 16938 net.cpp:141] Setting up inception_3a/relu_pool_proj
I0403 18:18:24.655076 16938 net.cpp:148] Top shape: 24 32 28 28 (602112)
I0403 18:18:24.655092 16938 net.cpp:156] Memory required for data: 561169440
I0403 18:18:24.655107 16938 layer_factory.hpp:77] Creating layer inception_3a/output
I0403 18:18:24.655128 16938 net.cpp:91] Creating Layer inception_3a/output
I0403 18:18:24.655145 16938 net.cpp:425] inception_3a/output <- inception_3a/1x1
I0403 18:18:24.655164 16938 net.cpp:425] inception_3a/output <- inception_3a/3x3
I0403 18:18:24.655180 16938 net.cpp:425] inception_3a/output <- inception_3a/5x5
I0403 18:18:24.655196 16938 net.cpp:425] inception_3a/output <- inception_3a/pool_proj
I0403 18:18:24.655215 16938 net.cpp:399] inception_3a/output -> inception_3a/output
I0403 18:18:24.655263 16938 net.cpp:141] Setting up inception_3a/output
I0403 18:18:24.655287 16938 net.cpp:148] Top shape: 24 256 28 28 (4816896)
I0403 18:18:24.655303 16938 net.cpp:156] Memory required for data: 580437024
I0403 18:18:24.655318 16938 layer_factory.hpp:77] Creating layer inception_3a/output_inception_3a/output_0_split
I0403 18:18:24.655335 16938 net.cpp:91] Creating Layer inception_3a/output_inception_3a/output_0_split
I0403 18:18:24.655351 16938 net.cpp:425] inception_3a/output_inception_3a/output_0_split <- inception_3a/output
I0403 18:18:24.655371 16938 net.cpp:399] inception_3a/output_inception_3a/output_0_split -> inception_3a/output_inception_3a/output_0_split_0
I0403 18:18:24.655392 16938 net.cpp:399] inception_3a/output_inception_3a/output_0_split -> inception_3a/output_inception_3a/output_0_split_1
I0403 18:18:24.655419 16938 net.cpp:399] inception_3a/output_inception_3a/output_0_split -> inception_3a/output_inception_3a/output_0_split_2
I0403 18:18:24.655441 16938 net.cpp:399] inception_3a/output_inception_3a/output_0_split -> inception_3a/output_inception_3a/output_0_split_3
I0403 18:18:24.655516 16938 net.cpp:141] Setting up inception_3a/output_inception_3a/output_0_split
I0403 18:18:24.655539 16938 net.cpp:148] Top shape: 24 256 28 28 (4816896)
I0403 18:18:24.655557 16938 net.cpp:148] Top shape: 24 256 28 28 (4816896)
I0403 18:18:24.655575 16938 net.cpp:148] Top shape: 24 256 28 28 (4816896)
I0403 18:18:24.655591 16938 net.cpp:148] Top shape: 24 256 28 28 (4816896)
I0403 18:18:24.655606 16938 net.cpp:156] Memory required for data: 657507360
I0403 18:18:24.655621 16938 layer_factory.hpp:77] Creating layer inception_3b/1x1
I0403 18:18:24.655642 16938 net.cpp:91] Creating Layer inception_3b/1x1
I0403 18:18:24.655661 16938 net.cpp:425] inception_3b/1x1 <- inception_3a/output_inception_3a/output_0_split_0
I0403 18:18:24.655683 16938 net.cpp:399] inception_3b/1x1 -> inception_3b/1x1
I0403 18:18:24.656842 16938 net.cpp:141] Setting up inception_3b/1x1
I0403 18:18:24.656883 16938 net.cpp:148] Top shape: 24 128 28 28 (2408448)
I0403 18:18:24.656899 16938 net.cpp:156] Memory required for data: 667141152
I0403 18:18:24.656919 16938 layer_factory.hpp:77] Creating layer inception_3b/relu_1x1
I0403 18:18:24.656939 16938 net.cpp:91] Creating Layer inception_3b/relu_1x1
I0403 18:18:24.656957 16938 net.cpp:425] inception_3b/relu_1x1 <- inception_3b/1x1
I0403 18:18:24.656975 16938 net.cpp:386] inception_3b/relu_1x1 -> inception_3b/1x1 (in-place)
I0403 18:18:24.657160 16938 net.cpp:141] Setting up inception_3b/relu_1x1
I0403 18:18:24.657186 16938 net.cpp:148] Top shape: 24 128 28 28 (2408448)
I0403 18:18:24.657202 16938 net.cpp:156] Memory required for data: 676774944
I0403 18:18:24.657217 16938 layer_factory.hpp:77] Creating layer inception_3b/3x3_reduce
I0403 18:18:24.657244 16938 net.cpp:91] Creating Layer inception_3b/3x3_reduce
I0403 18:18:24.657263 16938 net.cpp:425] inception_3b/3x3_reduce <- inception_3a/output_inception_3a/output_0_split_1
I0403 18:18:24.657284 16938 net.cpp:399] inception_3b/3x3_reduce -> inception_3b/3x3_reduce
I0403 18:18:24.658445 16938 net.cpp:141] Setting up inception_3b/3x3_reduce
I0403 18:18:24.658474 16938 net.cpp:148] Top shape: 24 128 28 28 (2408448)
I0403 18:18:24.658490 16938 net.cpp:156] Memory required for data: 686408736
I0403 18:18:24.658509 16938 layer_factory.hpp:77] Creating layer inception_3b/relu_3x3_reduce
I0403 18:18:24.658529 16938 net.cpp:91] Creating Layer inception_3b/relu_3x3_reduce
I0403 18:18:24.658545 16938 net.cpp:425] inception_3b/relu_3x3_reduce <- inception_3b/3x3_reduce
I0403 18:18:24.658566 16938 net.cpp:386] inception_3b/relu_3x3_reduce -> inception_3b/3x3_reduce (in-place)
I0403 18:18:24.658743 16938 net.cpp:141] Setting up inception_3b/relu_3x3_reduce
I0403 18:18:24.658768 16938 net.cpp:148] Top shape: 24 128 28 28 (2408448)
I0403 18:18:24.658784 16938 net.cpp:156] Memory required for data: 696042528
I0403 18:18:24.658799 16938 layer_factory.hpp:77] Creating layer inception_3b/3x3
I0403 18:18:24.658826 16938 net.cpp:91] Creating Layer inception_3b/3x3
I0403 18:18:24.658845 16938 net.cpp:425] inception_3b/3x3 <- inception_3b/3x3_reduce
I0403 18:18:24.658869 16938 net.cpp:399] inception_3b/3x3 -> inception_3b/3x3
I0403 18:18:24.661847 16938 net.cpp:141] Setting up inception_3b/3x3
I0403 18:18:24.661877 16938 net.cpp:148] Top shape: 24 192 28 28 (3612672)
I0403 18:18:24.661895 16938 net.cpp:156] Memory required for data: 710493216
I0403 18:18:24.661913 16938 layer_factory.hpp:77] Creating layer inception_3b/relu_3x3
I0403 18:18:24.661936 16938 net.cpp:91] Creating Layer inception_3b/relu_3x3
I0403 18:18:24.661954 16938 net.cpp:425] inception_3b/relu_3x3 <- inception_3b/3x3
I0403 18:18:24.661972 16938 net.cpp:386] inception_3b/relu_3x3 -> inception_3b/3x3 (in-place)
I0403 18:18:24.662272 16938 net.cpp:141] Setting up inception_3b/relu_3x3
I0403 18:18:24.662298 16938 net.cpp:148] Top shape: 24 192 28 28 (3612672)
I0403 18:18:24.662314 16938 net.cpp:156] Memory required for data: 724943904
I0403 18:18:24.662329 16938 layer_factory.hpp:77] Creating layer inception_3b/5x5_reduce
I0403 18:18:24.662353 16938 net.cpp:91] Creating Layer inception_3b/5x5_reduce
I0403 18:18:24.662372 16938 net.cpp:425] inception_3b/5x5_reduce <- inception_3a/output_inception_3a/output_0_split_2
I0403 18:18:24.662392 16938 net.cpp:399] inception_3b/5x5_reduce -> inception_3b/5x5_reduce
I0403 18:18:24.663368 16938 net.cpp:141] Setting up inception_3b/5x5_reduce
I0403 18:18:24.663395 16938 net.cpp:148] Top shape: 24 32 28 28 (602112)
I0403 18:18:24.663411 16938 net.cpp:156] Memory required for data: 727352352
I0403 18:18:24.663430 16938 layer_factory.hpp:77] Creating layer inception_3b/relu_5x5_reduce
I0403 18:18:24.663452 16938 net.cpp:91] Creating Layer inception_3b/relu_5x5_reduce
I0403 18:18:24.663470 16938 net.cpp:425] inception_3b/relu_5x5_reduce <- inception_3b/5x5_reduce
I0403 18:18:24.663487 16938 net.cpp:386] inception_3b/relu_5x5_reduce -> inception_3b/5x5_reduce (in-place)
I0403 18:18:24.663674 16938 net.cpp:141] Setting up inception_3b/relu_5x5_reduce
I0403 18:18:24.663702 16938 net.cpp:148] Top shape: 24 32 28 28 (602112)
I0403 18:18:24.663717 16938 net.cpp:156] Memory required for data: 729760800
I0403 18:18:24.663732 16938 layer_factory.hpp:77] Creating layer inception_3b/5x5
I0403 18:18:24.663753 16938 net.cpp:91] Creating Layer inception_3b/5x5
I0403 18:18:24.663771 16938 net.cpp:425] inception_3b/5x5 <- inception_3b/5x5_reduce
I0403 18:18:24.663790 16938 net.cpp:399] inception_3b/5x5 -> inception_3b/5x5
I0403 18:18:24.665743 16938 net.cpp:141] Setting up inception_3b/5x5
I0403 18:18:24.665773 16938 net.cpp:148] Top shape: 24 96 28 28 (1806336)
I0403 18:18:24.665789 16938 net.cpp:156] Memory required for data: 736986144
I0403 18:18:24.665808 16938 layer_factory.hpp:77] Creating layer inception_3b/relu_5x5
I0403 18:18:24.665827 16938 net.cpp:91] Creating Layer inception_3b/relu_5x5
I0403 18:18:24.665843 16938 net.cpp:425] inception_3b/relu_5x5 <- inception_3b/5x5
I0403 18:18:24.665863 16938 net.cpp:386] inception_3b/relu_5x5 -> inception_3b/5x5 (in-place)
I0403 18:18:24.666060 16938 net.cpp:141] Setting up inception_3b/relu_5x5
I0403 18:18:24.666086 16938 net.cpp:148] Top shape: 24 96 28 28 (1806336)
I0403 18:18:24.666101 16938 net.cpp:156] Memory required for data: 744211488
I0403 18:18:24.666115 16938 layer_factory.hpp:77] Creating layer inception_3b/pool
I0403 18:18:24.666133 16938 net.cpp:91] Creating Layer inception_3b/pool
I0403 18:18:24.666151 16938 net.cpp:425] inception_3b/pool <- inception_3a/output_inception_3a/output_0_split_3
I0403 18:18:24.666168 16938 net.cpp:399] inception_3b/pool -> inception_3b/pool
I0403 18:18:24.666224 16938 net.cpp:141] Setting up inception_3b/pool
I0403 18:18:24.666246 16938 net.cpp:148] Top shape: 24 256 28 28 (4816896)
I0403 18:18:24.666261 16938 net.cpp:156] Memory required for data: 763479072
I0403 18:18:24.666275 16938 layer_factory.hpp:77] Creating layer inception_3b/pool_proj
I0403 18:18:24.666297 16938 net.cpp:91] Creating Layer inception_3b/pool_proj
I0403 18:18:24.666316 16938 net.cpp:425] inception_3b/pool_proj <- inception_3b/pool
I0403 18:18:24.666337 16938 net.cpp:399] inception_3b/pool_proj -> inception_3b/pool_proj
I0403 18:18:24.667382 16938 net.cpp:141] Setting up inception_3b/pool_proj
I0403 18:18:24.667412 16938 net.cpp:148] Top shape: 24 64 28 28 (1204224)
I0403 18:18:24.667428 16938 net.cpp:156] Memory required for data: 768295968
I0403 18:18:24.667446 16938 layer_factory.hpp:77] Creating layer inception_3b/relu_pool_proj
I0403 18:18:24.667465 16938 net.cpp:91] Creating Layer inception_3b/relu_pool_proj
I0403 18:18:24.667482 16938 net.cpp:425] inception_3b/relu_pool_proj <- inception_3b/pool_proj
I0403 18:18:24.667502 16938 net.cpp:386] inception_3b/relu_pool_proj -> inception_3b/pool_proj (in-place)
I0403 18:18:24.667896 16938 net.cpp:141] Setting up inception_3b/relu_pool_proj
I0403 18:18:24.667937 16938 net.cpp:148] Top shape: 24 64 28 28 (1204224)
I0403 18:18:24.667954 16938 net.cpp:156] Memory required for data: 773112864
I0403 18:18:24.667968 16938 layer_factory.hpp:77] Creating layer inception_3b/output
I0403 18:18:24.667999 16938 net.cpp:91] Creating Layer inception_3b/output
I0403 18:18:24.668016 16938 net.cpp:425] inception_3b/output <- inception_3b/1x1
I0403 18:18:24.668033 16938 net.cpp:425] inception_3b/output <- inception_3b/3x3
I0403 18:18:24.668050 16938 net.cpp:425] inception_3b/output <- inception_3b/5x5
I0403 18:18:24.668066 16938 net.cpp:425] inception_3b/output <- inception_3b/pool_proj
I0403 18:18:24.668082 16938 net.cpp:399] inception_3b/output -> inception_3b/output
I0403 18:18:24.668128 16938 net.cpp:141] Setting up inception_3b/output
I0403 18:18:24.668149 16938 net.cpp:148] Top shape: 24 480 28 28 (9031680)
I0403 18:18:24.668164 16938 net.cpp:156] Memory required for data: 809239584
I0403 18:18:24.668179 16938 layer_factory.hpp:77] Creating layer pool3/3x3_s2
I0403 18:18:24.668200 16938 net.cpp:91] Creating Layer pool3/3x3_s2
I0403 18:18:24.668216 16938 net.cpp:425] pool3/3x3_s2 <- inception_3b/output
I0403 18:18:24.668249 16938 net.cpp:399] pool3/3x3_s2 -> pool3/3x3_s2
I0403 18:18:24.668308 16938 net.cpp:141] Setting up pool3/3x3_s2
I0403 18:18:24.668332 16938 net.cpp:148] Top shape: 24 480 14 14 (2257920)
I0403 18:18:24.668347 16938 net.cpp:156] Memory required for data: 818271264
I0403 18:18:24.668361 16938 layer_factory.hpp:77] Creating layer pool3/3x3_s2_pool3/3x3_s2_0_split
I0403 18:18:24.668380 16938 net.cpp:91] Creating Layer pool3/3x3_s2_pool3/3x3_s2_0_split
I0403 18:18:24.668395 16938 net.cpp:425] pool3/3x3_s2_pool3/3x3_s2_0_split <- pool3/3x3_s2
I0403 18:18:24.668414 16938 net.cpp:399] pool3/3x3_s2_pool3/3x3_s2_0_split -> pool3/3x3_s2_pool3/3x3_s2_0_split_0
I0403 18:18:24.668436 16938 net.cpp:399] pool3/3x3_s2_pool3/3x3_s2_0_split -> pool3/3x3_s2_pool3/3x3_s2_0_split_1
I0403 18:18:24.668455 16938 net.cpp:399] pool3/3x3_s2_pool3/3x3_s2_0_split -> pool3/3x3_s2_pool3/3x3_s2_0_split_2
I0403 18:18:24.668474 16938 net.cpp:399] pool3/3x3_s2_pool3/3x3_s2_0_split -> pool3/3x3_s2_pool3/3x3_s2_0_split_3
I0403 18:18:24.668551 16938 net.cpp:141] Setting up pool3/3x3_s2_pool3/3x3_s2_0_split
I0403 18:18:24.668576 16938 net.cpp:148] Top shape: 24 480 14 14 (2257920)
I0403 18:18:24.668593 16938 net.cpp:148] Top shape: 24 480 14 14 (2257920)
I0403 18:18:24.668609 16938 net.cpp:148] Top shape: 24 480 14 14 (2257920)
I0403 18:18:24.668625 16938 net.cpp:148] Top shape: 24 480 14 14 (2257920)
I0403 18:18:24.668638 16938 net.cpp:156] Memory required for data: 854397984
I0403 18:18:24.668653 16938 layer_factory.hpp:77] Creating layer inception_4a/1x1
I0403 18:18:24.668676 16938 net.cpp:91] Creating Layer inception_4a/1x1
I0403 18:18:24.668694 16938 net.cpp:425] inception_4a/1x1 <- pool3/3x3_s2_pool3/3x3_s2_0_split_0
I0403 18:18:24.668714 16938 net.cpp:399] inception_4a/1x1 -> inception_4a/1x1
I0403 18:18:24.670285 16938 net.cpp:141] Setting up inception_4a/1x1
I0403 18:18:24.670313 16938 net.cpp:148] Top shape: 24 192 14 14 (903168)
I0403 18:18:24.670330 16938 net.cpp:156] Memory required for data: 858010656
I0403 18:18:24.670348 16938 layer_factory.hpp:77] Creating layer inception_4a/relu_1x1
I0403 18:18:24.670367 16938 net.cpp:91] Creating Layer inception_4a/relu_1x1
I0403 18:18:24.670382 16938 net.cpp:425] inception_4a/relu_1x1 <- inception_4a/1x1
I0403 18:18:24.670403 16938 net.cpp:386] inception_4a/relu_1x1 -> inception_4a/1x1 (in-place)
I0403 18:18:24.670579 16938 net.cpp:141] Setting up inception_4a/relu_1x1
I0403 18:18:24.670604 16938 net.cpp:148] Top shape: 24 192 14 14 (903168)
I0403 18:18:24.670619 16938 net.cpp:156] Memory required for data: 861623328
I0403 18:18:24.670634 16938 layer_factory.hpp:77] Creating layer inception_4a/3x3_reduce
I0403 18:18:24.670656 16938 net.cpp:91] Creating Layer inception_4a/3x3_reduce
I0403 18:18:24.670673 16938 net.cpp:425] inception_4a/3x3_reduce <- pool3/3x3_s2_pool3/3x3_s2_0_split_1
I0403 18:18:24.670696 16938 net.cpp:399] inception_4a/3x3_reduce -> inception_4a/3x3_reduce
I0403 18:18:24.671970 16938 net.cpp:141] Setting up inception_4a/3x3_reduce
I0403 18:18:24.672004 16938 net.cpp:148] Top shape: 24 96 14 14 (451584)
I0403 18:18:24.672021 16938 net.cpp:156] Memory required for data: 863429664
I0403 18:18:24.672046 16938 layer_factory.hpp:77] Creating layer inception_4a/relu_3x3_reduce
I0403 18:18:24.672066 16938 net.cpp:91] Creating Layer inception_4a/relu_3x3_reduce
I0403 18:18:24.672083 16938 net.cpp:425] inception_4a/relu_3x3_reduce <- inception_4a/3x3_reduce
I0403 18:18:24.672101 16938 net.cpp:386] inception_4a/relu_3x3_reduce -> inception_4a/3x3_reduce (in-place)
I0403 18:18:24.672286 16938 net.cpp:141] Setting up inception_4a/relu_3x3_reduce
I0403 18:18:24.672318 16938 net.cpp:148] Top shape: 24 96 14 14 (451584)
I0403 18:18:24.672333 16938 net.cpp:156] Memory required for data: 865236000
I0403 18:18:24.672348 16938 layer_factory.hpp:77] Creating layer inception_4a/3x3
I0403 18:18:24.672371 16938 net.cpp:91] Creating Layer inception_4a/3x3
I0403 18:18:24.672389 16938 net.cpp:425] inception_4a/3x3 <- inception_4a/3x3_reduce
I0403 18:18:24.672410 16938 net.cpp:399] inception_4a/3x3 -> inception_4a/3x3
I0403 18:18:24.675086 16938 net.cpp:141] Setting up inception_4a/3x3
I0403 18:18:24.675115 16938 net.cpp:148] Top shape: 24 208 14 14 (978432)
I0403 18:18:24.675132 16938 net.cpp:156] Memory required for data: 869149728
I0403 18:18:24.675151 16938 layer_factory.hpp:77] Creating layer inception_4a/relu_3x3
I0403 18:18:24.675171 16938 net.cpp:91] Creating Layer inception_4a/relu_3x3
I0403 18:18:24.675189 16938 net.cpp:425] inception_4a/relu_3x3 <- inception_4a/3x3
I0403 18:18:24.675207 16938 net.cpp:386] inception_4a/relu_3x3 -> inception_4a/3x3 (in-place)
I0403 18:18:24.675495 16938 net.cpp:141] Setting up inception_4a/relu_3x3
I0403 18:18:24.675521 16938 net.cpp:148] Top shape: 24 208 14 14 (978432)
I0403 18:18:24.675536 16938 net.cpp:156] Memory required for data: 873063456
I0403 18:18:24.675557 16938 layer_factory.hpp:77] Creating layer inception_4a/5x5_reduce
I0403 18:18:24.675580 16938 net.cpp:91] Creating Layer inception_4a/5x5_reduce
I0403 18:18:24.675598 16938 net.cpp:425] inception_4a/5x5_reduce <- pool3/3x3_s2_pool3/3x3_s2_0_split_2
I0403 18:18:24.675619 16938 net.cpp:399] inception_4a/5x5_reduce -> inception_4a/5x5_reduce
I0403 18:18:24.676630 16938 net.cpp:141] Setting up inception_4a/5x5_reduce
I0403 18:18:24.676657 16938 net.cpp:148] Top shape: 24 16 14 14 (75264)
I0403 18:18:24.676672 16938 net.cpp:156] Memory required for data: 873364512
I0403 18:18:24.676690 16938 layer_factory.hpp:77] Creating layer inception_4a/relu_5x5_reduce
I0403 18:18:24.676712 16938 net.cpp:91] Creating Layer inception_4a/relu_5x5_reduce
I0403 18:18:24.676729 16938 net.cpp:425] inception_4a/relu_5x5_reduce <- inception_4a/5x5_reduce
I0403 18:18:24.676748 16938 net.cpp:386] inception_4a/relu_5x5_reduce -> inception_4a/5x5_reduce (in-place)
I0403 18:18:24.676920 16938 net.cpp:141] Setting up inception_4a/relu_5x5_reduce
I0403 18:18:24.676949 16938 net.cpp:148] Top shape: 24 16 14 14 (75264)
I0403 18:18:24.676965 16938 net.cpp:156] Memory required for data: 873665568
I0403 18:18:24.676985 16938 layer_factory.hpp:77] Creating layer inception_4a/5x5
I0403 18:18:24.677008 16938 net.cpp:91] Creating Layer inception_4a/5x5
I0403 18:18:24.677026 16938 net.cpp:425] inception_4a/5x5 <- inception_4a/5x5_reduce
I0403 18:18:24.677047 16938 net.cpp:399] inception_4a/5x5 -> inception_4a/5x5
I0403 18:18:24.678120 16938 net.cpp:141] Setting up inception_4a/5x5
I0403 18:18:24.678149 16938 net.cpp:148] Top shape: 24 48 14 14 (225792)
I0403 18:18:24.678166 16938 net.cpp:156] Memory required for data: 874568736
I0403 18:18:24.678185 16938 layer_factory.hpp:77] Creating layer inception_4a/relu_5x5
I0403 18:18:24.678203 16938 net.cpp:91] Creating Layer inception_4a/relu_5x5
I0403 18:18:24.678220 16938 net.cpp:425] inception_4a/relu_5x5 <- inception_4a/5x5
I0403 18:18:24.678239 16938 net.cpp:386] inception_4a/relu_5x5 -> inception_4a/5x5 (in-place)
I0403 18:18:24.678418 16938 net.cpp:141] Setting up inception_4a/relu_5x5
I0403 18:18:24.678443 16938 net.cpp:148] Top shape: 24 48 14 14 (225792)
I0403 18:18:24.678458 16938 net.cpp:156] Memory required for data: 875471904
I0403 18:18:24.678473 16938 layer_factory.hpp:77] Creating layer inception_4a/pool
I0403 18:18:24.678491 16938 net.cpp:91] Creating Layer inception_4a/pool
I0403 18:18:24.678508 16938 net.cpp:425] inception_4a/pool <- pool3/3x3_s2_pool3/3x3_s2_0_split_3
I0403 18:18:24.678527 16938 net.cpp:399] inception_4a/pool -> inception_4a/pool
I0403 18:18:24.678597 16938 net.cpp:141] Setting up inception_4a/pool
I0403 18:18:24.678620 16938 net.cpp:148] Top shape: 24 480 14 14 (2257920)
I0403 18:18:24.678635 16938 net.cpp:156] Memory required for data: 884503584
I0403 18:18:24.678649 16938 layer_factory.hpp:77] Creating layer inception_4a/pool_proj
I0403 18:18:24.678673 16938 net.cpp:91] Creating Layer inception_4a/pool_proj
I0403 18:18:24.678691 16938 net.cpp:425] inception_4a/pool_proj <- inception_4a/pool
I0403 18:18:24.678710 16938 net.cpp:399] inception_4a/pool_proj -> inception_4a/pool_proj
I0403 18:18:24.679868 16938 net.cpp:141] Setting up inception_4a/pool_proj
I0403 18:18:24.679898 16938 net.cpp:148] Top shape: 24 64 14 14 (301056)
I0403 18:18:24.679931 16938 net.cpp:156] Memory required for data: 885707808
I0403 18:18:24.679951 16938 layer_factory.hpp:77] Creating layer inception_4a/relu_pool_proj
I0403 18:18:24.679970 16938 net.cpp:91] Creating Layer inception_4a/relu_pool_proj
I0403 18:18:24.679991 16938 net.cpp:425] inception_4a/relu_pool_proj <- inception_4a/pool_proj
I0403 18:18:24.680013 16938 net.cpp:386] inception_4a/relu_pool_proj -> inception_4a/pool_proj (in-place)
I0403 18:18:24.680289 16938 net.cpp:141] Setting up inception_4a/relu_pool_proj
I0403 18:18:24.680317 16938 net.cpp:148] Top shape: 24 64 14 14 (301056)
I0403 18:18:24.680333 16938 net.cpp:156] Memory required for data: 886912032
I0403 18:18:24.680348 16938 layer_factory.hpp:77] Creating layer inception_4a/output
I0403 18:18:24.680366 16938 net.cpp:91] Creating Layer inception_4a/output
I0403 18:18:24.680382 16938 net.cpp:425] inception_4a/output <- inception_4a/1x1
I0403 18:18:24.680400 16938 net.cpp:425] inception_4a/output <- inception_4a/3x3
I0403 18:18:24.680416 16938 net.cpp:425] inception_4a/output <- inception_4a/5x5
I0403 18:18:24.680433 16938 net.cpp:425] inception_4a/output <- inception_4a/pool_proj
I0403 18:18:24.680451 16938 net.cpp:399] inception_4a/output -> inception_4a/output
I0403 18:18:24.680495 16938 net.cpp:141] Setting up inception_4a/output
I0403 18:18:24.680518 16938 net.cpp:148] Top shape: 24 512 14 14 (2408448)
I0403 18:18:24.680542 16938 net.cpp:156] Memory required for data: 896545824
I0403 18:18:24.680557 16938 layer_factory.hpp:77] Creating layer inception_4a/output_inception_4a/output_0_split
I0403 18:18:24.680577 16938 net.cpp:91] Creating Layer inception_4a/output_inception_4a/output_0_split
I0403 18:18:24.680593 16938 net.cpp:425] inception_4a/output_inception_4a/output_0_split <- inception_4a/output
I0403 18:18:24.680611 16938 net.cpp:399] inception_4a/output_inception_4a/output_0_split -> inception_4a/output_inception_4a/output_0_split_0
I0403 18:18:24.680635 16938 net.cpp:399] inception_4a/output_inception_4a/output_0_split -> inception_4a/output_inception_4a/output_0_split_1
I0403 18:18:24.680656 16938 net.cpp:399] inception_4a/output_inception_4a/output_0_split -> inception_4a/output_inception_4a/output_0_split_2
I0403 18:18:24.680677 16938 net.cpp:399] inception_4a/output_inception_4a/output_0_split -> inception_4a/output_inception_4a/output_0_split_3
I0403 18:18:24.680697 16938 net.cpp:399] inception_4a/output_inception_4a/output_0_split -> inception_4a/output_inception_4a/output_0_split_4
I0403 18:18:24.680788 16938 net.cpp:141] Setting up inception_4a/output_inception_4a/output_0_split
I0403 18:18:24.680810 16938 net.cpp:148] Top shape: 24 512 14 14 (2408448)
I0403 18:18:24.680826 16938 net.cpp:148] Top shape: 24 512 14 14 (2408448)
I0403 18:18:24.680843 16938 net.cpp:148] Top shape: 24 512 14 14 (2408448)
I0403 18:18:24.680858 16938 net.cpp:148] Top shape: 24 512 14 14 (2408448)
I0403 18:18:24.680874 16938 net.cpp:148] Top shape: 24 512 14 14 (2408448)
I0403 18:18:24.680888 16938 net.cpp:156] Memory required for data: 944714784
I0403 18:18:24.680902 16938 layer_factory.hpp:77] Creating layer loss1/ave_pool
I0403 18:18:24.680923 16938 net.cpp:91] Creating Layer loss1/ave_pool
I0403 18:18:24.680939 16938 net.cpp:425] loss1/ave_pool <- inception_4a/output_inception_4a/output_0_split_0
I0403 18:18:24.680958 16938 net.cpp:399] loss1/ave_pool -> loss1/ave_pool
I0403 18:18:24.681164 16938 net.cpp:141] Setting up loss1/ave_pool
I0403 18:18:24.681192 16938 net.cpp:148] Top shape: 24 512 4 4 (196608)
I0403 18:18:24.681210 16938 net.cpp:156] Memory required for data: 945501216
I0403 18:18:24.681224 16938 layer_factory.hpp:77] Creating layer loss1/conv
I0403 18:18:24.681247 16938 net.cpp:91] Creating Layer loss1/conv
I0403 18:18:24.681265 16938 net.cpp:425] loss1/conv <- loss1/ave_pool
I0403 18:18:24.681285 16938 net.cpp:399] loss1/conv -> loss1/conv
I0403 18:18:24.682675 16938 net.cpp:141] Setting up loss1/conv
I0403 18:18:24.682703 16938 net.cpp:148] Top shape: 24 128 4 4 (49152)
I0403 18:18:24.682734 16938 net.cpp:156] Memory required for data: 945697824
I0403 18:18:24.682752 16938 layer_factory.hpp:77] Creating layer loss1/relu_conv
I0403 18:18:24.682773 16938 net.cpp:91] Creating Layer loss1/relu_conv
I0403 18:18:24.682790 16938 net.cpp:425] loss1/relu_conv <- loss1/conv
I0403 18:18:24.682807 16938 net.cpp:386] loss1/relu_conv -> loss1/conv (in-place)
I0403 18:18:24.683094 16938 net.cpp:141] Setting up loss1/relu_conv
I0403 18:18:24.683120 16938 net.cpp:148] Top shape: 24 128 4 4 (49152)
I0403 18:18:24.683135 16938 net.cpp:156] Memory required for data: 945894432
I0403 18:18:24.683151 16938 layer_factory.hpp:77] Creating layer loss1/fc
I0403 18:18:24.683177 16938 net.cpp:91] Creating Layer loss1/fc
I0403 18:18:24.683195 16938 net.cpp:425] loss1/fc <- loss1/conv
I0403 18:18:24.683214 16938 net.cpp:399] loss1/fc -> loss1/fc
I0403 18:18:24.700767 16938 net.cpp:141] Setting up loss1/fc
I0403 18:18:24.700801 16938 net.cpp:148] Top shape: 24 1024 (24576)
I0403 18:18:24.700817 16938 net.cpp:156] Memory required for data: 945992736
I0403 18:18:24.700836 16938 layer_factory.hpp:77] Creating layer loss1/relu_fc
I0403 18:18:24.700855 16938 net.cpp:91] Creating Layer loss1/relu_fc
I0403 18:18:24.700870 16938 net.cpp:425] loss1/relu_fc <- loss1/fc
I0403 18:18:24.700889 16938 net.cpp:386] loss1/relu_fc -> loss1/fc (in-place)
I0403 18:18:24.701071 16938 net.cpp:141] Setting up loss1/relu_fc
I0403 18:18:24.701097 16938 net.cpp:148] Top shape: 24 1024 (24576)
I0403 18:18:24.701112 16938 net.cpp:156] Memory required for data: 946091040
I0403 18:18:24.701125 16938 layer_factory.hpp:77] Creating layer loss1/drop_fc
I0403 18:18:24.701150 16938 net.cpp:91] Creating Layer loss1/drop_fc
I0403 18:18:24.701167 16938 net.cpp:425] loss1/drop_fc <- loss1/fc
I0403 18:18:24.701187 16938 net.cpp:386] loss1/drop_fc -> loss1/fc (in-place)
I0403 18:18:24.701237 16938 net.cpp:141] Setting up loss1/drop_fc
I0403 18:18:24.701262 16938 net.cpp:148] Top shape: 24 1024 (24576)
I0403 18:18:24.701278 16938 net.cpp:156] Memory required for data: 946189344
I0403 18:18:24.701293 16938 layer_factory.hpp:77] Creating layer loss1/classifier_plantvillage
I0403 18:18:24.701311 16938 net.cpp:91] Creating Layer loss1/classifier_plantvillage
I0403 18:18:24.701326 16938 net.cpp:425] loss1/classifier_plantvillage <- loss1/fc
I0403 18:18:24.701347 16938 net.cpp:399] loss1/classifier_plantvillage -> loss1/classifier_plantvillage
I0403 18:18:24.702226 16938 net.cpp:141] Setting up loss1/classifier_plantvillage
I0403 18:18:24.702255 16938 net.cpp:148] Top shape: 24 38 (912)
I0403 18:18:24.702270 16938 net.cpp:156] Memory required for data: 946192992
I0403 18:18:24.702287 16938 layer_factory.hpp:77] Creating layer loss1/classifier_plantvillage_loss1/classifier_plantvillage_0_split
I0403 18:18:24.702304 16938 net.cpp:91] Creating Layer loss1/classifier_plantvillage_loss1/classifier_plantvillage_0_split
I0403 18:18:24.702321 16938 net.cpp:425] loss1/classifier_plantvillage_loss1/classifier_plantvillage_0_split <- loss1/classifier_plantvillage
I0403 18:18:24.702340 16938 net.cpp:399] loss1/classifier_plantvillage_loss1/classifier_plantvillage_0_split -> loss1/classifier_plantvillage_loss1/classifier_plantvillage_0_split_0
I0403 18:18:24.702361 16938 net.cpp:399] loss1/classifier_plantvillage_loss1/classifier_plantvillage_0_split -> loss1/classifier_plantvillage_loss1/classifier_plantvillage_0_split_1
I0403 18:18:24.702381 16938 net.cpp:399] loss1/classifier_plantvillage_loss1/classifier_plantvillage_0_split -> loss1/classifier_plantvillage_loss1/classifier_plantvillage_0_split_2
I0403 18:18:24.702447 16938 net.cpp:141] Setting up loss1/classifier_plantvillage_loss1/classifier_plantvillage_0_split
I0403 18:18:24.702469 16938 net.cpp:148] Top shape: 24 38 (912)
I0403 18:18:24.702486 16938 net.cpp:148] Top shape: 24 38 (912)
I0403 18:18:24.702502 16938 net.cpp:148] Top shape: 24 38 (912)
I0403 18:18:24.702515 16938 net.cpp:156] Memory required for data: 946203936
I0403 18:18:24.702529 16938 layer_factory.hpp:77] Creating layer inception_4b/1x1
I0403 18:18:24.702553 16938 net.cpp:91] Creating Layer inception_4b/1x1
I0403 18:18:24.702584 16938 net.cpp:425] inception_4b/1x1 <- inception_4a/output_inception_4a/output_0_split_1
I0403 18:18:24.702605 16938 net.cpp:399] inception_4b/1x1 -> inception_4b/1x1
I0403 18:18:24.704208 16938 net.cpp:141] Setting up inception_4b/1x1
I0403 18:18:24.704236 16938 net.cpp:148] Top shape: 24 160 14 14 (752640)
I0403 18:18:24.704251 16938 net.cpp:156] Memory required for data: 949214496
I0403 18:18:24.704268 16938 layer_factory.hpp:77] Creating layer inception_4b/relu_1x1
I0403 18:18:24.704289 16938 net.cpp:91] Creating Layer inception_4b/relu_1x1
I0403 18:18:24.704306 16938 net.cpp:425] inception_4b/relu_1x1 <- inception_4b/1x1
I0403 18:18:24.704324 16938 net.cpp:386] inception_4b/relu_1x1 -> inception_4b/1x1 (in-place)
I0403 18:18:24.704496 16938 net.cpp:141] Setting up inception_4b/relu_1x1
I0403 18:18:24.704524 16938 net.cpp:148] Top shape: 24 160 14 14 (752640)
I0403 18:18:24.704538 16938 net.cpp:156] Memory required for data: 952225056
I0403 18:18:24.704552 16938 layer_factory.hpp:77] Creating layer inception_4b/3x3_reduce
I0403 18:18:24.704576 16938 net.cpp:91] Creating Layer inception_4b/3x3_reduce
I0403 18:18:24.704594 16938 net.cpp:425] inception_4b/3x3_reduce <- inception_4a/output_inception_4a/output_0_split_2
I0403 18:18:24.704613 16938 net.cpp:399] inception_4b/3x3_reduce -> inception_4b/3x3_reduce
I0403 18:18:24.705935 16938 net.cpp:141] Setting up inception_4b/3x3_reduce
I0403 18:18:24.705965 16938 net.cpp:148] Top shape: 24 112 14 14 (526848)
I0403 18:18:24.705984 16938 net.cpp:156] Memory required for data: 954332448
I0403 18:18:24.706004 16938 layer_factory.hpp:77] Creating layer inception_4b/relu_3x3_reduce
I0403 18:18:24.706022 16938 net.cpp:91] Creating Layer inception_4b/relu_3x3_reduce
I0403 18:18:24.706038 16938 net.cpp:425] inception_4b/relu_3x3_reduce <- inception_4b/3x3_reduce
I0403 18:18:24.706055 16938 net.cpp:386] inception_4b/relu_3x3_reduce -> inception_4b/3x3_reduce (in-place)
I0403 18:18:24.706334 16938 net.cpp:141] Setting up inception_4b/relu_3x3_reduce
I0403 18:18:24.706362 16938 net.cpp:148] Top shape: 24 112 14 14 (526848)
I0403 18:18:24.706377 16938 net.cpp:156] Memory required for data: 956439840
I0403 18:18:24.706393 16938 layer_factory.hpp:77] Creating layer inception_4b/3x3
I0403 18:18:24.706411 16938 net.cpp:91] Creating Layer inception_4b/3x3
I0403 18:18:24.706429 16938 net.cpp:425] inception_4b/3x3 <- inception_4b/3x3_reduce
I0403 18:18:24.706450 16938 net.cpp:399] inception_4b/3x3 -> inception_4b/3x3
I0403 18:18:24.709378 16938 net.cpp:141] Setting up inception_4b/3x3
I0403 18:18:24.709408 16938 net.cpp:148] Top shape: 24 224 14 14 (1053696)
I0403 18:18:24.709424 16938 net.cpp:156] Memory required for data: 960654624
I0403 18:18:24.709441 16938 layer_factory.hpp:77] Creating layer inception_4b/relu_3x3
I0403 18:18:24.709460 16938 net.cpp:91] Creating Layer inception_4b/relu_3x3
I0403 18:18:24.709475 16938 net.cpp:425] inception_4b/relu_3x3 <- inception_4b/3x3
I0403 18:18:24.709494 16938 net.cpp:386] inception_4b/relu_3x3 -> inception_4b/3x3 (in-place)
I0403 18:18:24.709671 16938 net.cpp:141] Setting up inception_4b/relu_3x3
I0403 18:18:24.709695 16938 net.cpp:148] Top shape: 24 224 14 14 (1053696)
I0403 18:18:24.709709 16938 net.cpp:156] Memory required for data: 964869408
I0403 18:18:24.709724 16938 layer_factory.hpp:77] Creating layer inception_4b/5x5_reduce
I0403 18:18:24.709745 16938 net.cpp:91] Creating Layer inception_4b/5x5_reduce
I0403 18:18:24.709764 16938 net.cpp:425] inception_4b/5x5_reduce <- inception_4a/output_inception_4a/output_0_split_3
I0403 18:18:24.709785 16938 net.cpp:399] inception_4b/5x5_reduce -> inception_4b/5x5_reduce
I0403 18:18:24.710841 16938 net.cpp:141] Setting up inception_4b/5x5_reduce
I0403 18:18:24.710867 16938 net.cpp:148] Top shape: 24 24 14 14 (112896)
I0403 18:18:24.710883 16938 net.cpp:156] Memory required for data: 965320992
I0403 18:18:24.710901 16938 layer_factory.hpp:77] Creating layer inception_4b/relu_5x5_reduce
I0403 18:18:24.710923 16938 net.cpp:91] Creating Layer inception_4b/relu_5x5_reduce
I0403 18:18:24.710953 16938 net.cpp:425] inception_4b/relu_5x5_reduce <- inception_4b/5x5_reduce
I0403 18:18:24.710970 16938 net.cpp:386] inception_4b/relu_5x5_reduce -> inception_4b/5x5_reduce (in-place)
I0403 18:18:24.711155 16938 net.cpp:141] Setting up inception_4b/relu_5x5_reduce
I0403 18:18:24.711182 16938 net.cpp:148] Top shape: 24 24 14 14 (112896)
I0403 18:18:24.711199 16938 net.cpp:156] Memory required for data: 965772576
I0403 18:18:24.711212 16938 layer_factory.hpp:77] Creating layer inception_4b/5x5
I0403 18:18:24.711236 16938 net.cpp:91] Creating Layer inception_4b/5x5
I0403 18:18:24.711252 16938 net.cpp:425] inception_4b/5x5 <- inception_4b/5x5_reduce
I0403 18:18:24.711272 16938 net.cpp:399] inception_4b/5x5 -> inception_4b/5x5
I0403 18:18:24.712461 16938 net.cpp:141] Setting up inception_4b/5x5
I0403 18:18:24.712488 16938 net.cpp:148] Top shape: 24 64 14 14 (301056)
I0403 18:18:24.712503 16938 net.cpp:156] Memory required for data: 966976800
I0403 18:18:24.712522 16938 layer_factory.hpp:77] Creating layer inception_4b/relu_5x5
I0403 18:18:24.712541 16938 net.cpp:91] Creating Layer inception_4b/relu_5x5
I0403 18:18:24.712558 16938 net.cpp:425] inception_4b/relu_5x5 <- inception_4b/5x5
I0403 18:18:24.712574 16938 net.cpp:386] inception_4b/relu_5x5 -> inception_4b/5x5 (in-place)
I0403 18:18:24.712851 16938 net.cpp:141] Setting up inception_4b/relu_5x5
I0403 18:18:24.712877 16938 net.cpp:148] Top shape: 24 64 14 14 (301056)
I0403 18:18:24.712890 16938 net.cpp:156] Memory required for data: 968181024
I0403 18:18:24.712905 16938 layer_factory.hpp:77] Creating layer inception_4b/pool
I0403 18:18:24.712925 16938 net.cpp:91] Creating Layer inception_4b/pool
I0403 18:18:24.712941 16938 net.cpp:425] inception_4b/pool <- inception_4a/output_inception_4a/output_0_split_4
I0403 18:18:24.712960 16938 net.cpp:399] inception_4b/pool -> inception_4b/pool
I0403 18:18:24.713042 16938 net.cpp:141] Setting up inception_4b/pool
I0403 18:18:24.713065 16938 net.cpp:148] Top shape: 24 512 14 14 (2408448)
I0403 18:18:24.713081 16938 net.cpp:156] Memory required for data: 977814816
I0403 18:18:24.713096 16938 layer_factory.hpp:77] Creating layer inception_4b/pool_proj
I0403 18:18:24.713119 16938 net.cpp:91] Creating Layer inception_4b/pool_proj
I0403 18:18:24.713136 16938 net.cpp:425] inception_4b/pool_proj <- inception_4b/pool
I0403 18:18:24.713158 16938 net.cpp:399] inception_4b/pool_proj -> inception_4b/pool_proj
I0403 18:18:24.714341 16938 net.cpp:141] Setting up inception_4b/pool_proj
I0403 18:18:24.714368 16938 net.cpp:148] Top shape: 24 64 14 14 (301056)
I0403 18:18:24.714385 16938 net.cpp:156] Memory required for data: 979019040
I0403 18:18:24.714402 16938 layer_factory.hpp:77] Creating layer inception_4b/relu_pool_proj
I0403 18:18:24.714424 16938 net.cpp:91] Creating Layer inception_4b/relu_pool_proj
I0403 18:18:24.714442 16938 net.cpp:425] inception_4b/relu_pool_proj <- inception_4b/pool_proj
I0403 18:18:24.714459 16938 net.cpp:386] inception_4b/relu_pool_proj -> inception_4b/pool_proj (in-place)
I0403 18:18:24.714634 16938 net.cpp:141] Setting up inception_4b/relu_pool_proj
I0403 18:18:24.714661 16938 net.cpp:148] Top shape: 24 64 14 14 (301056)
I0403 18:18:24.714678 16938 net.cpp:156] Memory required for data: 980223264
I0403 18:18:24.714691 16938 layer_factory.hpp:77] Creating layer inception_4b/output
I0403 18:18:24.714709 16938 net.cpp:91] Creating Layer inception_4b/output
I0403 18:18:24.714725 16938 net.cpp:425] inception_4b/output <- inception_4b/1x1
I0403 18:18:24.714740 16938 net.cpp:425] inception_4b/output <- inception_4b/3x3
I0403 18:18:24.714756 16938 net.cpp:425] inception_4b/output <- inception_4b/5x5
I0403 18:18:24.714771 16938 net.cpp:425] inception_4b/output <- inception_4b/pool_proj
I0403 18:18:24.714787 16938 net.cpp:399] inception_4b/output -> inception_4b/output
I0403 18:18:24.714833 16938 net.cpp:141] Setting up inception_4b/output
I0403 18:18:24.714856 16938 net.cpp:148] Top shape: 24 512 14 14 (2408448)
I0403 18:18:24.714870 16938 net.cpp:156] Memory required for data: 989857056
I0403 18:18:24.714898 16938 layer_factory.hpp:77] Creating layer inception_4b/output_inception_4b/output_0_split
I0403 18:18:24.714920 16938 net.cpp:91] Creating Layer inception_4b/output_inception_4b/output_0_split
I0403 18:18:24.714936 16938 net.cpp:425] inception_4b/output_inception_4b/output_0_split <- inception_4b/output
I0403 18:18:24.714953 16938 net.cpp:399] inception_4b/output_inception_4b/output_0_split -> inception_4b/output_inception_4b/output_0_split_0
I0403 18:18:24.714972 16938 net.cpp:399] inception_4b/output_inception_4b/output_0_split -> inception_4b/output_inception_4b/output_0_split_1
I0403 18:18:24.714998 16938 net.cpp:399] inception_4b/output_inception_4b/output_0_split -> inception_4b/output_inception_4b/output_0_split_2
I0403 18:18:24.715020 16938 net.cpp:399] inception_4b/output_inception_4b/output_0_split -> inception_4b/output_inception_4b/output_0_split_3
I0403 18:18:24.715104 16938 net.cpp:141] Setting up inception_4b/output_inception_4b/output_0_split
I0403 18:18:24.715126 16938 net.cpp:148] Top shape: 24 512 14 14 (2408448)
I0403 18:18:24.715142 16938 net.cpp:148] Top shape: 24 512 14 14 (2408448)
I0403 18:18:24.715157 16938 net.cpp:148] Top shape: 24 512 14 14 (2408448)
I0403 18:18:24.715174 16938 net.cpp:148] Top shape: 24 512 14 14 (2408448)
I0403 18:18:24.715188 16938 net.cpp:156] Memory required for data: 1028392224
I0403 18:18:24.715203 16938 layer_factory.hpp:77] Creating layer inception_4c/1x1
I0403 18:18:24.715224 16938 net.cpp:91] Creating Layer inception_4c/1x1
I0403 18:18:24.715241 16938 net.cpp:425] inception_4c/1x1 <- inception_4b/output_inception_4b/output_0_split_0
I0403 18:18:24.715261 16938 net.cpp:399] inception_4c/1x1 -> inception_4c/1x1
I0403 18:18:24.716651 16938 net.cpp:141] Setting up inception_4c/1x1
I0403 18:18:24.716681 16938 net.cpp:148] Top shape: 24 128 14 14 (602112)
I0403 18:18:24.716696 16938 net.cpp:156] Memory required for data: 1030800672
I0403 18:18:24.716714 16938 layer_factory.hpp:77] Creating layer inception_4c/relu_1x1
I0403 18:18:24.716732 16938 net.cpp:91] Creating Layer inception_4c/relu_1x1
I0403 18:18:24.716748 16938 net.cpp:425] inception_4c/relu_1x1 <- inception_4c/1x1
I0403 18:18:24.716768 16938 net.cpp:386] inception_4c/relu_1x1 -> inception_4c/1x1 (in-place)
I0403 18:18:24.716949 16938 net.cpp:141] Setting up inception_4c/relu_1x1
I0403 18:18:24.716974 16938 net.cpp:148] Top shape: 24 128 14 14 (602112)
I0403 18:18:24.716994 16938 net.cpp:156] Memory required for data: 1033209120
I0403 18:18:24.717010 16938 layer_factory.hpp:77] Creating layer inception_4c/3x3_reduce
I0403 18:18:24.717031 16938 net.cpp:91] Creating Layer inception_4c/3x3_reduce
I0403 18:18:24.717048 16938 net.cpp:425] inception_4c/3x3_reduce <- inception_4b/output_inception_4b/output_0_split_1
I0403 18:18:24.717070 16938 net.cpp:399] inception_4c/3x3_reduce -> inception_4c/3x3_reduce
I0403 18:18:24.718966 16938 net.cpp:141] Setting up inception_4c/3x3_reduce
I0403 18:18:24.719004 16938 net.cpp:148] Top shape: 24 128 14 14 (602112)
I0403 18:18:24.719022 16938 net.cpp:156] Memory required for data: 1035617568
I0403 18:18:24.719040 16938 layer_factory.hpp:77] Creating layer inception_4c/relu_3x3_reduce
I0403 18:18:24.719060 16938 net.cpp:91] Creating Layer inception_4c/relu_3x3_reduce
I0403 18:18:24.719077 16938 net.cpp:425] inception_4c/relu_3x3_reduce <- inception_4c/3x3_reduce
I0403 18:18:24.719094 16938 net.cpp:386] inception_4c/relu_3x3_reduce -> inception_4c/3x3_reduce (in-place)
I0403 18:18:24.719382 16938 net.cpp:141] Setting up inception_4c/relu_3x3_reduce
I0403 18:18:24.719406 16938 net.cpp:148] Top shape: 24 128 14 14 (602112)
I0403 18:18:24.719421 16938 net.cpp:156] Memory required for data: 1038026016
I0403 18:18:24.719436 16938 layer_factory.hpp:77] Creating layer inception_4c/3x3
I0403 18:18:24.719458 16938 net.cpp:91] Creating Layer inception_4c/3x3
I0403 18:18:24.719476 16938 net.cpp:425] inception_4c/3x3 <- inception_4c/3x3_reduce
I0403 18:18:24.719497 16938 net.cpp:399] inception_4c/3x3 -> inception_4c/3x3
I0403 18:18:24.723001 16938 net.cpp:141] Setting up inception_4c/3x3
I0403 18:18:24.723042 16938 net.cpp:148] Top shape: 24 256 14 14 (1204224)
I0403 18:18:24.723057 16938 net.cpp:156] Memory required for data: 1042842912
I0403 18:18:24.723088 16938 layer_factory.hpp:77] Creating layer inception_4c/relu_3x3
I0403 18:18:24.723110 16938 net.cpp:91] Creating Layer inception_4c/relu_3x3
I0403 18:18:24.723127 16938 net.cpp:425] inception_4c/relu_3x3 <- inception_4c/3x3
I0403 18:18:24.723145 16938 net.cpp:386] inception_4c/relu_3x3 -> inception_4c/3x3 (in-place)
I0403 18:18:24.723322 16938 net.cpp:141] Setting up inception_4c/relu_3x3
I0403 18:18:24.723347 16938 net.cpp:148] Top shape: 24 256 14 14 (1204224)
I0403 18:18:24.723361 16938 net.cpp:156] Memory required for data: 1047659808
I0403 18:18:24.723376 16938 layer_factory.hpp:77] Creating layer inception_4c/5x5_reduce
I0403 18:18:24.723398 16938 net.cpp:91] Creating Layer inception_4c/5x5_reduce
I0403 18:18:24.723415 16938 net.cpp:425] inception_4c/5x5_reduce <- inception_4b/output_inception_4b/output_0_split_2
I0403 18:18:24.723438 16938 net.cpp:399] inception_4c/5x5_reduce -> inception_4c/5x5_reduce
I0403 18:18:24.724501 16938 net.cpp:141] Setting up inception_4c/5x5_reduce
I0403 18:18:24.724529 16938 net.cpp:148] Top shape: 24 24 14 14 (112896)
I0403 18:18:24.724545 16938 net.cpp:156] Memory required for data: 1048111392
I0403 18:18:24.724562 16938 layer_factory.hpp:77] Creating layer inception_4c/relu_5x5_reduce
I0403 18:18:24.724582 16938 net.cpp:91] Creating Layer inception_4c/relu_5x5_reduce
I0403 18:18:24.724599 16938 net.cpp:425] inception_4c/relu_5x5_reduce <- inception_4c/5x5_reduce
I0403 18:18:24.724617 16938 net.cpp:386] inception_4c/relu_5x5_reduce -> inception_4c/5x5_reduce (in-place)
I0403 18:18:24.724799 16938 net.cpp:141] Setting up inception_4c/relu_5x5_reduce
I0403 18:18:24.724825 16938 net.cpp:148] Top shape: 24 24 14 14 (112896)
I0403 18:18:24.724840 16938 net.cpp:156] Memory required for data: 1048562976
I0403 18:18:24.724855 16938 layer_factory.hpp:77] Creating layer inception_4c/5x5
I0403 18:18:24.724877 16938 net.cpp:91] Creating Layer inception_4c/5x5
I0403 18:18:24.724895 16938 net.cpp:425] inception_4c/5x5 <- inception_4c/5x5_reduce
I0403 18:18:24.724913 16938 net.cpp:399] inception_4c/5x5 -> inception_4c/5x5
I0403 18:18:24.726156 16938 net.cpp:141] Setting up inception_4c/5x5
I0403 18:18:24.726187 16938 net.cpp:148] Top shape: 24 64 14 14 (301056)
I0403 18:18:24.726203 16938 net.cpp:156] Memory required for data: 1049767200
I0403 18:18:24.726222 16938 layer_factory.hpp:77] Creating layer inception_4c/relu_5x5
I0403 18:18:24.726238 16938 net.cpp:91] Creating Layer inception_4c/relu_5x5
I0403 18:18:24.726254 16938 net.cpp:425] inception_4c/relu_5x5 <- inception_4c/5x5
I0403 18:18:24.726271 16938 net.cpp:386] inception_4c/relu_5x5 -> inception_4c/5x5 (in-place)
I0403 18:18:24.726552 16938 net.cpp:141] Setting up inception_4c/relu_5x5
I0403 18:18:24.726579 16938 net.cpp:148] Top shape: 24 64 14 14 (301056)
I0403 18:18:24.726596 16938 net.cpp:156] Memory required for data: 1050971424
I0403 18:18:24.726610 16938 layer_factory.hpp:77] Creating layer inception_4c/pool
I0403 18:18:24.726629 16938 net.cpp:91] Creating Layer inception_4c/pool
I0403 18:18:24.726644 16938 net.cpp:425] inception_4c/pool <- inception_4b/output_inception_4b/output_0_split_3
I0403 18:18:24.726665 16938 net.cpp:399] inception_4c/pool -> inception_4c/pool
I0403 18:18:24.726729 16938 net.cpp:141] Setting up inception_4c/pool
I0403 18:18:24.726752 16938 net.cpp:148] Top shape: 24 512 14 14 (2408448)
I0403 18:18:24.726768 16938 net.cpp:156] Memory required for data: 1060605216
I0403 18:18:24.726781 16938 layer_factory.hpp:77] Creating layer inception_4c/pool_proj
I0403 18:18:24.726804 16938 net.cpp:91] Creating Layer inception_4c/pool_proj
I0403 18:18:24.726821 16938 net.cpp:425] inception_4c/pool_proj <- inception_4c/pool
I0403 18:18:24.726842 16938 net.cpp:399] inception_4c/pool_proj -> inception_4c/pool_proj
I0403 18:18:24.728050 16938 net.cpp:141] Setting up inception_4c/pool_proj
I0403 18:18:24.728080 16938 net.cpp:148] Top shape: 24 64 14 14 (301056)
I0403 18:18:24.728108 16938 net.cpp:156] Memory required for data: 1061809440
I0403 18:18:24.728127 16938 layer_factory.hpp:77] Creating layer inception_4c/relu_pool_proj
I0403 18:18:24.728148 16938 net.cpp:91] Creating Layer inception_4c/relu_pool_proj
I0403 18:18:24.728165 16938 net.cpp:425] inception_4c/relu_pool_proj <- inception_4c/pool_proj
I0403 18:18:24.728183 16938 net.cpp:386] inception_4c/relu_pool_proj -> inception_4c/pool_proj (in-place)
I0403 18:18:24.728361 16938 net.cpp:141] Setting up inception_4c/relu_pool_proj
I0403 18:18:24.728389 16938 net.cpp:148] Top shape: 24 64 14 14 (301056)
I0403 18:18:24.728404 16938 net.cpp:156] Memory required for data: 1063013664
I0403 18:18:24.728418 16938 layer_factory.hpp:77] Creating layer inception_4c/output
I0403 18:18:24.728435 16938 net.cpp:91] Creating Layer inception_4c/output
I0403 18:18:24.728451 16938 net.cpp:425] inception_4c/output <- inception_4c/1x1
I0403 18:18:24.728466 16938 net.cpp:425] inception_4c/output <- inception_4c/3x3
I0403 18:18:24.728482 16938 net.cpp:425] inception_4c/output <- inception_4c/5x5
I0403 18:18:24.728497 16938 net.cpp:425] inception_4c/output <- inception_4c/pool_proj
I0403 18:18:24.728514 16938 net.cpp:399] inception_4c/output -> inception_4c/output
I0403 18:18:24.728561 16938 net.cpp:141] Setting up inception_4c/output
I0403 18:18:24.728585 16938 net.cpp:148] Top shape: 24 512 14 14 (2408448)
I0403 18:18:24.728600 16938 net.cpp:156] Memory required for data: 1072647456
I0403 18:18:24.728613 16938 layer_factory.hpp:77] Creating layer inception_4c/output_inception_4c/output_0_split
I0403 18:18:24.728631 16938 net.cpp:91] Creating Layer inception_4c/output_inception_4c/output_0_split
I0403 18:18:24.728648 16938 net.cpp:425] inception_4c/output_inception_4c/output_0_split <- inception_4c/output
I0403 18:18:24.728667 16938 net.cpp:399] inception_4c/output_inception_4c/output_0_split -> inception_4c/output_inception_4c/output_0_split_0
I0403 18:18:24.728685 16938 net.cpp:399] inception_4c/output_inception_4c/output_0_split -> inception_4c/output_inception_4c/output_0_split_1
I0403 18:18:24.728705 16938 net.cpp:399] inception_4c/output_inception_4c/output_0_split -> inception_4c/output_inception_4c/output_0_split_2
I0403 18:18:24.728724 16938 net.cpp:399] inception_4c/output_inception_4c/output_0_split -> inception_4c/output_inception_4c/output_0_split_3
I0403 18:18:24.728808 16938 net.cpp:141] Setting up inception_4c/output_inception_4c/output_0_split
I0403 18:18:24.728832 16938 net.cpp:148] Top shape: 24 512 14 14 (2408448)
I0403 18:18:24.728847 16938 net.cpp:148] Top shape: 24 512 14 14 (2408448)
I0403 18:18:24.728863 16938 net.cpp:148] Top shape: 24 512 14 14 (2408448)
I0403 18:18:24.728878 16938 net.cpp:148] Top shape: 24 512 14 14 (2408448)
I0403 18:18:24.728890 16938 net.cpp:156] Memory required for data: 1111182624
I0403 18:18:24.728904 16938 layer_factory.hpp:77] Creating layer inception_4d/1x1
I0403 18:18:24.728927 16938 net.cpp:91] Creating Layer inception_4d/1x1
I0403 18:18:24.728945 16938 net.cpp:425] inception_4d/1x1 <- inception_4c/output_inception_4c/output_0_split_0
I0403 18:18:24.728965 16938 net.cpp:399] inception_4d/1x1 -> inception_4d/1x1
I0403 18:18:24.730320 16938 net.cpp:141] Setting up inception_4d/1x1
I0403 18:18:24.730348 16938 net.cpp:148] Top shape: 24 112 14 14 (526848)
I0403 18:18:24.730363 16938 net.cpp:156] Memory required for data: 1113290016
I0403 18:18:24.730381 16938 layer_factory.hpp:77] Creating layer inception_4d/relu_1x1
I0403 18:18:24.730399 16938 net.cpp:91] Creating Layer inception_4d/relu_1x1
I0403 18:18:24.730415 16938 net.cpp:425] inception_4d/relu_1x1 <- inception_4d/1x1
I0403 18:18:24.730434 16938 net.cpp:386] inception_4d/relu_1x1 -> inception_4d/1x1 (in-place)
I0403 18:18:24.730617 16938 net.cpp:141] Setting up inception_4d/relu_1x1
I0403 18:18:24.730654 16938 net.cpp:148] Top shape: 24 112 14 14 (526848)
I0403 18:18:24.730669 16938 net.cpp:156] Memory required for data: 1115397408
I0403 18:18:24.730684 16938 layer_factory.hpp:77] Creating layer inception_4d/3x3_reduce
I0403 18:18:24.730720 16938 net.cpp:91] Creating Layer inception_4d/3x3_reduce
I0403 18:18:24.730739 16938 net.cpp:425] inception_4d/3x3_reduce <- inception_4c/output_inception_4c/output_0_split_1
I0403 18:18:24.730762 16938 net.cpp:399] inception_4d/3x3_reduce -> inception_4d/3x3_reduce
I0403 18:18:24.732264 16938 net.cpp:141] Setting up inception_4d/3x3_reduce
I0403 18:18:24.732292 16938 net.cpp:148] Top shape: 24 144 14 14 (677376)
I0403 18:18:24.732308 16938 net.cpp:156] Memory required for data: 1118106912
I0403 18:18:24.732326 16938 layer_factory.hpp:77] Creating layer inception_4d/relu_3x3_reduce
I0403 18:18:24.732344 16938 net.cpp:91] Creating Layer inception_4d/relu_3x3_reduce
I0403 18:18:24.732359 16938 net.cpp:425] inception_4d/relu_3x3_reduce <- inception_4d/3x3_reduce
I0403 18:18:24.732378 16938 net.cpp:386] inception_4d/relu_3x3_reduce -> inception_4d/3x3_reduce (in-place)
I0403 18:18:24.732663 16938 net.cpp:141] Setting up inception_4d/relu_3x3_reduce
I0403 18:18:24.732691 16938 net.cpp:148] Top shape: 24 144 14 14 (677376)
I0403 18:18:24.732707 16938 net.cpp:156] Memory required for data: 1120816416
I0403 18:18:24.732722 16938 layer_factory.hpp:77] Creating layer inception_4d/3x3
I0403 18:18:24.732743 16938 net.cpp:91] Creating Layer inception_4d/3x3
I0403 18:18:24.732760 16938 net.cpp:425] inception_4d/3x3 <- inception_4d/3x3_reduce
I0403 18:18:24.732779 16938 net.cpp:399] inception_4d/3x3 -> inception_4d/3x3
I0403 18:18:24.736956 16938 net.cpp:141] Setting up inception_4d/3x3
I0403 18:18:24.736989 16938 net.cpp:148] Top shape: 24 288 14 14 (1354752)
I0403 18:18:24.737005 16938 net.cpp:156] Memory required for data: 1126235424
I0403 18:18:24.737025 16938 layer_factory.hpp:77] Creating layer inception_4d/relu_3x3
I0403 18:18:24.737045 16938 net.cpp:91] Creating Layer inception_4d/relu_3x3
I0403 18:18:24.737061 16938 net.cpp:425] inception_4d/relu_3x3 <- inception_4d/3x3
I0403 18:18:24.737077 16938 net.cpp:386] inception_4d/relu_3x3 -> inception_4d/3x3 (in-place)
I0403 18:18:24.737257 16938 net.cpp:141] Setting up inception_4d/relu_3x3
I0403 18:18:24.737280 16938 net.cpp:148] Top shape: 24 288 14 14 (1354752)
I0403 18:18:24.737295 16938 net.cpp:156] Memory required for data: 1131654432
I0403 18:18:24.737309 16938 layer_factory.hpp:77] Creating layer inception_4d/5x5_reduce
I0403 18:18:24.737331 16938 net.cpp:91] Creating Layer inception_4d/5x5_reduce
I0403 18:18:24.737350 16938 net.cpp:425] inception_4d/5x5_reduce <- inception_4c/output_inception_4c/output_0_split_2
I0403 18:18:24.737368 16938 net.cpp:399] inception_4d/5x5_reduce -> inception_4d/5x5_reduce
I0403 18:18:24.738486 16938 net.cpp:141] Setting up inception_4d/5x5_reduce
I0403 18:18:24.738513 16938 net.cpp:148] Top shape: 24 32 14 14 (150528)
I0403 18:18:24.738528 16938 net.cpp:156] Memory required for data: 1132256544
I0403 18:18:24.738546 16938 layer_factory.hpp:77] Creating layer inception_4d/relu_5x5_reduce
I0403 18:18:24.738564 16938 net.cpp:91] Creating Layer inception_4d/relu_5x5_reduce
I0403 18:18:24.738579 16938 net.cpp:425] inception_4d/relu_5x5_reduce <- inception_4d/5x5_reduce
I0403 18:18:24.738598 16938 net.cpp:386] inception_4d/relu_5x5_reduce -> inception_4d/5x5_reduce (in-place)
I0403 18:18:24.738780 16938 net.cpp:141] Setting up inception_4d/relu_5x5_reduce
I0403 18:18:24.738804 16938 net.cpp:148] Top shape: 24 32 14 14 (150528)
I0403 18:18:24.738818 16938 net.cpp:156] Memory required for data: 1132858656
I0403 18:18:24.738832 16938 layer_factory.hpp:77] Creating layer inception_4d/5x5
I0403 18:18:24.738854 16938 net.cpp:91] Creating Layer inception_4d/5x5
I0403 18:18:24.738873 16938 net.cpp:425] inception_4d/5x5 <- inception_4d/5x5_reduce
I0403 18:18:24.738893 16938 net.cpp:399] inception_4d/5x5 -> inception_4d/5x5
I0403 18:18:24.740345 16938 net.cpp:141] Setting up inception_4d/5x5
I0403 18:18:24.740373 16938 net.cpp:148] Top shape: 24 64 14 14 (301056)
I0403 18:18:24.740389 16938 net.cpp:156] Memory required for data: 1134062880
I0403 18:18:24.740408 16938 layer_factory.hpp:77] Creating layer inception_4d/relu_5x5
I0403 18:18:24.740442 16938 net.cpp:91] Creating Layer inception_4d/relu_5x5
I0403 18:18:24.740459 16938 net.cpp:425] inception_4d/relu_5x5 <- inception_4d/5x5
I0403 18:18:24.740476 16938 net.cpp:386] inception_4d/relu_5x5 -> inception_4d/5x5 (in-place)
I0403 18:18:24.740770 16938 net.cpp:141] Setting up inception_4d/relu_5x5
I0403 18:18:24.740798 16938 net.cpp:148] Top shape: 24 64 14 14 (301056)
I0403 18:18:24.740814 16938 net.cpp:156] Memory required for data: 1135267104
I0403 18:18:24.740828 16938 layer_factory.hpp:77] Creating layer inception_4d/pool
I0403 18:18:24.740846 16938 net.cpp:91] Creating Layer inception_4d/pool
I0403 18:18:24.740862 16938 net.cpp:425] inception_4d/pool <- inception_4c/output_inception_4c/output_0_split_3
I0403 18:18:24.740880 16938 net.cpp:399] inception_4d/pool -> inception_4d/pool
I0403 18:18:24.740945 16938 net.cpp:141] Setting up inception_4d/pool
I0403 18:18:24.740968 16938 net.cpp:148] Top shape: 24 512 14 14 (2408448)
I0403 18:18:24.740986 16938 net.cpp:156] Memory required for data: 1144900896
I0403 18:18:24.741001 16938 layer_factory.hpp:77] Creating layer inception_4d/pool_proj
I0403 18:18:24.741024 16938 net.cpp:91] Creating Layer inception_4d/pool_proj
I0403 18:18:24.741041 16938 net.cpp:425] inception_4d/pool_proj <- inception_4d/pool
I0403 18:18:24.741062 16938 net.cpp:399] inception_4d/pool_proj -> inception_4d/pool_proj
I0403 18:18:24.742772 16938 net.cpp:141] Setting up inception_4d/pool_proj
I0403 18:18:24.742801 16938 net.cpp:148] Top shape: 24 64 14 14 (301056)
I0403 18:18:24.742816 16938 net.cpp:156] Memory required for data: 1146105120
I0403 18:18:24.742835 16938 layer_factory.hpp:77] Creating layer inception_4d/relu_pool_proj
I0403 18:18:24.742854 16938 net.cpp:91] Creating Layer inception_4d/relu_pool_proj
I0403 18:18:24.742871 16938 net.cpp:425] inception_4d/relu_pool_proj <- inception_4d/pool_proj
I0403 18:18:24.742888 16938 net.cpp:386] inception_4d/relu_pool_proj -> inception_4d/pool_proj (in-place)
I0403 18:18:24.743077 16938 net.cpp:141] Setting up inception_4d/relu_pool_proj
I0403 18:18:24.743101 16938 net.cpp:148] Top shape: 24 64 14 14 (301056)
I0403 18:18:24.743115 16938 net.cpp:156] Memory required for data: 1147309344
I0403 18:18:24.743130 16938 layer_factory.hpp:77] Creating layer inception_4d/output
I0403 18:18:24.743149 16938 net.cpp:91] Creating Layer inception_4d/output
I0403 18:18:24.743165 16938 net.cpp:425] inception_4d/output <- inception_4d/1x1
I0403 18:18:24.743181 16938 net.cpp:425] inception_4d/output <- inception_4d/3x3
I0403 18:18:24.743197 16938 net.cpp:425] inception_4d/output <- inception_4d/5x5
I0403 18:18:24.743213 16938 net.cpp:425] inception_4d/output <- inception_4d/pool_proj
I0403 18:18:24.743229 16938 net.cpp:399] inception_4d/output -> inception_4d/output
I0403 18:18:24.743278 16938 net.cpp:141] Setting up inception_4d/output
I0403 18:18:24.743299 16938 net.cpp:148] Top shape: 24 528 14 14 (2483712)
I0403 18:18:24.743314 16938 net.cpp:156] Memory required for data: 1157244192
I0403 18:18:24.743327 16938 layer_factory.hpp:77] Creating layer inception_4d/output_inception_4d/output_0_split
I0403 18:18:24.743345 16938 net.cpp:91] Creating Layer inception_4d/output_inception_4d/output_0_split
I0403 18:18:24.743360 16938 net.cpp:425] inception_4d/output_inception_4d/output_0_split <- inception_4d/output
I0403 18:18:24.743381 16938 net.cpp:399] inception_4d/output_inception_4d/output_0_split -> inception_4d/output_inception_4d/output_0_split_0
I0403 18:18:24.743401 16938 net.cpp:399] inception_4d/output_inception_4d/output_0_split -> inception_4d/output_inception_4d/output_0_split_1
I0403 18:18:24.743422 16938 net.cpp:399] inception_4d/output_inception_4d/output_0_split -> inception_4d/output_inception_4d/output_0_split_2
I0403 18:18:24.743440 16938 net.cpp:399] inception_4d/output_inception_4d/output_0_split -> inception_4d/output_inception_4d/output_0_split_3
I0403 18:18:24.743463 16938 net.cpp:399] inception_4d/output_inception_4d/output_0_split -> inception_4d/output_inception_4d/output_0_split_4
I0403 18:18:24.743561 16938 net.cpp:141] Setting up inception_4d/output_inception_4d/output_0_split
I0403 18:18:24.743595 16938 net.cpp:148] Top shape: 24 528 14 14 (2483712)
I0403 18:18:24.743612 16938 net.cpp:148] Top shape: 24 528 14 14 (2483712)
I0403 18:18:24.743626 16938 net.cpp:148] Top shape: 24 528 14 14 (2483712)
I0403 18:18:24.743641 16938 net.cpp:148] Top shape: 24 528 14 14 (2483712)
I0403 18:18:24.743656 16938 net.cpp:148] Top shape: 24 528 14 14 (2483712)
I0403 18:18:24.743669 16938 net.cpp:156] Memory required for data: 1206918432
I0403 18:18:24.743685 16938 layer_factory.hpp:77] Creating layer loss2/ave_pool
I0403 18:18:24.743701 16938 net.cpp:91] Creating Layer loss2/ave_pool
I0403 18:18:24.743717 16938 net.cpp:425] loss2/ave_pool <- inception_4d/output_inception_4d/output_0_split_0
I0403 18:18:24.743737 16938 net.cpp:399] loss2/ave_pool -> loss2/ave_pool
I0403 18:18:24.744048 16938 net.cpp:141] Setting up loss2/ave_pool
I0403 18:18:24.744074 16938 net.cpp:148] Top shape: 24 528 4 4 (202752)
I0403 18:18:24.744088 16938 net.cpp:156] Memory required for data: 1207729440
I0403 18:18:24.744102 16938 layer_factory.hpp:77] Creating layer loss2/conv
I0403 18:18:24.744125 16938 net.cpp:91] Creating Layer loss2/conv
I0403 18:18:24.744143 16938 net.cpp:425] loss2/conv <- loss2/ave_pool
I0403 18:18:24.744163 16938 net.cpp:399] loss2/conv -> loss2/conv
I0403 18:18:24.746004 16938 net.cpp:141] Setting up loss2/conv
I0403 18:18:24.746032 16938 net.cpp:148] Top shape: 24 128 4 4 (49152)
I0403 18:18:24.746047 16938 net.cpp:156] Memory required for data: 1207926048
I0403 18:18:24.746065 16938 layer_factory.hpp:77] Creating layer loss2/relu_conv
I0403 18:18:24.746086 16938 net.cpp:91] Creating Layer loss2/relu_conv
I0403 18:18:24.746104 16938 net.cpp:425] loss2/relu_conv <- loss2/conv
I0403 18:18:24.746120 16938 net.cpp:386] loss2/relu_conv -> loss2/conv (in-place)
I0403 18:18:24.746400 16938 net.cpp:141] Setting up loss2/relu_conv
I0403 18:18:24.746426 16938 net.cpp:148] Top shape: 24 128 4 4 (49152)
I0403 18:18:24.746441 16938 net.cpp:156] Memory required for data: 1208122656
I0403 18:18:24.746456 16938 layer_factory.hpp:77] Creating layer loss2/fc
I0403 18:18:24.746476 16938 net.cpp:91] Creating Layer loss2/fc
I0403 18:18:24.746493 16938 net.cpp:425] loss2/fc <- loss2/conv
I0403 18:18:24.746513 16938 net.cpp:399] loss2/fc -> loss2/fc
I0403 18:18:24.763772 16938 net.cpp:141] Setting up loss2/fc
I0403 18:18:24.763806 16938 net.cpp:148] Top shape: 24 1024 (24576)
I0403 18:18:24.763823 16938 net.cpp:156] Memory required for data: 1208220960
I0403 18:18:24.763842 16938 layer_factory.hpp:77] Creating layer loss2/relu_fc
I0403 18:18:24.763860 16938 net.cpp:91] Creating Layer loss2/relu_fc
I0403 18:18:24.763876 16938 net.cpp:425] loss2/relu_fc <- loss2/fc
I0403 18:18:24.763897 16938 net.cpp:386] loss2/relu_fc -> loss2/fc (in-place)
I0403 18:18:24.764214 16938 net.cpp:141] Setting up loss2/relu_fc
I0403 18:18:24.764241 16938 net.cpp:148] Top shape: 24 1024 (24576)
I0403 18:18:24.764257 16938 net.cpp:156] Memory required for data: 1208319264
I0403 18:18:24.764272 16938 layer_factory.hpp:77] Creating layer loss2/drop_fc
I0403 18:18:24.764291 16938 net.cpp:91] Creating Layer loss2/drop_fc
I0403 18:18:24.764307 16938 net.cpp:425] loss2/drop_fc <- loss2/fc
I0403 18:18:24.764328 16938 net.cpp:386] loss2/drop_fc -> loss2/fc (in-place)
I0403 18:18:24.764379 16938 net.cpp:141] Setting up loss2/drop_fc
I0403 18:18:24.764402 16938 net.cpp:148] Top shape: 24 1024 (24576)
I0403 18:18:24.764416 16938 net.cpp:156] Memory required for data: 1208417568
I0403 18:18:24.764431 16938 layer_factory.hpp:77] Creating layer loss2/classifier_plantvillage
I0403 18:18:24.764449 16938 net.cpp:91] Creating Layer loss2/classifier_plantvillage
I0403 18:18:24.764466 16938 net.cpp:425] loss2/classifier_plantvillage <- loss2/fc
I0403 18:18:24.764487 16938 net.cpp:399] loss2/classifier_plantvillage -> loss2/classifier_plantvillage
I0403 18:18:24.764889 16938 net.cpp:141] Setting up loss2/classifier_plantvillage
I0403 18:18:24.764914 16938 net.cpp:148] Top shape: 24 38 (912)
I0403 18:18:24.764942 16938 net.cpp:156] Memory required for data: 1208421216
I0403 18:18:24.764961 16938 layer_factory.hpp:77] Creating layer loss2/classifier_plantvillage_loss2/classifier_plantvillage_0_split
I0403 18:18:24.764987 16938 net.cpp:91] Creating Layer loss2/classifier_plantvillage_loss2/classifier_plantvillage_0_split
I0403 18:18:24.765007 16938 net.cpp:425] loss2/classifier_plantvillage_loss2/classifier_plantvillage_0_split <- loss2/classifier_plantvillage
I0403 18:18:24.765025 16938 net.cpp:399] loss2/classifier_plantvillage_loss2/classifier_plantvillage_0_split -> loss2/classifier_plantvillage_loss2/classifier_plantvillage_0_split_0
I0403 18:18:24.765046 16938 net.cpp:399] loss2/classifier_plantvillage_loss2/classifier_plantvillage_0_split -> loss2/classifier_plantvillage_loss2/classifier_plantvillage_0_split_1
I0403 18:18:24.765066 16938 net.cpp:399] loss2/classifier_plantvillage_loss2/classifier_plantvillage_0_split -> loss2/classifier_plantvillage_loss2/classifier_plantvillage_0_split_2
I0403 18:18:24.765141 16938 net.cpp:141] Setting up loss2/classifier_plantvillage_loss2/classifier_plantvillage_0_split
I0403 18:18:24.765164 16938 net.cpp:148] Top shape: 24 38 (912)
I0403 18:18:24.765179 16938 net.cpp:148] Top shape: 24 38 (912)
I0403 18:18:24.765194 16938 net.cpp:148] Top shape: 24 38 (912)
I0403 18:18:24.765208 16938 net.cpp:156] Memory required for data: 1208432160
I0403 18:18:24.765223 16938 layer_factory.hpp:77] Creating layer inception_4e/1x1
I0403 18:18:24.765244 16938 net.cpp:91] Creating Layer inception_4e/1x1
I0403 18:18:24.765260 16938 net.cpp:425] inception_4e/1x1 <- inception_4d/output_inception_4d/output_0_split_1
I0403 18:18:24.765280 16938 net.cpp:399] inception_4e/1x1 -> inception_4e/1x1
I0403 18:18:24.767088 16938 net.cpp:141] Setting up inception_4e/1x1
I0403 18:18:24.767118 16938 net.cpp:148] Top shape: 24 256 14 14 (1204224)
I0403 18:18:24.767134 16938 net.cpp:156] Memory required for data: 1213249056
I0403 18:18:24.767153 16938 layer_factory.hpp:77] Creating layer inception_4e/relu_1x1
I0403 18:18:24.767169 16938 net.cpp:91] Creating Layer inception_4e/relu_1x1
I0403 18:18:24.767185 16938 net.cpp:425] inception_4e/relu_1x1 <- inception_4e/1x1
I0403 18:18:24.767202 16938 net.cpp:386] inception_4e/relu_1x1 -> inception_4e/1x1 (in-place)
I0403 18:18:24.767495 16938 net.cpp:141] Setting up inception_4e/relu_1x1
I0403 18:18:24.767524 16938 net.cpp:148] Top shape: 24 256 14 14 (1204224)
I0403 18:18:24.767539 16938 net.cpp:156] Memory required for data: 1218065952
I0403 18:18:24.767554 16938 layer_factory.hpp:77] Creating layer inception_4e/3x3_reduce
I0403 18:18:24.767575 16938 net.cpp:91] Creating Layer inception_4e/3x3_reduce
I0403 18:18:24.767593 16938 net.cpp:425] inception_4e/3x3_reduce <- inception_4d/output_inception_4d/output_0_split_2
I0403 18:18:24.767612 16938 net.cpp:399] inception_4e/3x3_reduce -> inception_4e/3x3_reduce
I0403 18:18:24.769685 16938 net.cpp:141] Setting up inception_4e/3x3_reduce
I0403 18:18:24.769716 16938 net.cpp:148] Top shape: 24 160 14 14 (752640)
I0403 18:18:24.769731 16938 net.cpp:156] Memory required for data: 1221076512
I0403 18:18:24.769749 16938 layer_factory.hpp:77] Creating layer inception_4e/relu_3x3_reduce
I0403 18:18:24.769769 16938 net.cpp:91] Creating Layer inception_4e/relu_3x3_reduce
I0403 18:18:24.769786 16938 net.cpp:425] inception_4e/relu_3x3_reduce <- inception_4e/3x3_reduce
I0403 18:18:24.769804 16938 net.cpp:386] inception_4e/relu_3x3_reduce -> inception_4e/3x3_reduce (in-place)
I0403 18:18:24.769990 16938 net.cpp:141] Setting up inception_4e/relu_3x3_reduce
I0403 18:18:24.770016 16938 net.cpp:148] Top shape: 24 160 14 14 (752640)
I0403 18:18:24.770031 16938 net.cpp:156] Memory required for data: 1224087072
I0403 18:18:24.770045 16938 layer_factory.hpp:77] Creating layer inception_4e/3x3
I0403 18:18:24.770067 16938 net.cpp:91] Creating Layer inception_4e/3x3
I0403 18:18:24.770086 16938 net.cpp:425] inception_4e/3x3 <- inception_4e/3x3_reduce
I0403 18:18:24.770107 16938 net.cpp:399] inception_4e/3x3 -> inception_4e/3x3
I0403 18:18:24.774961 16938 net.cpp:141] Setting up inception_4e/3x3
I0403 18:18:24.775004 16938 net.cpp:148] Top shape: 24 320 14 14 (1505280)
I0403 18:18:24.775020 16938 net.cpp:156] Memory required for data: 1230108192
I0403 18:18:24.775039 16938 layer_factory.hpp:77] Creating layer inception_4e/relu_3x3
I0403 18:18:24.775056 16938 net.cpp:91] Creating Layer inception_4e/relu_3x3
I0403 18:18:24.775073 16938 net.cpp:425] inception_4e/relu_3x3 <- inception_4e/3x3
I0403 18:18:24.775091 16938 net.cpp:386] inception_4e/relu_3x3 -> inception_4e/3x3 (in-place)
I0403 18:18:24.775390 16938 net.cpp:141] Setting up inception_4e/relu_3x3
I0403 18:18:24.775416 16938 net.cpp:148] Top shape: 24 320 14 14 (1505280)
I0403 18:18:24.775431 16938 net.cpp:156] Memory required for data: 1236129312
I0403 18:18:24.775445 16938 layer_factory.hpp:77] Creating layer inception_4e/5x5_reduce
I0403 18:18:24.775468 16938 net.cpp:91] Creating Layer inception_4e/5x5_reduce
I0403 18:18:24.775486 16938 net.cpp:425] inception_4e/5x5_reduce <- inception_4d/output_inception_4d/output_0_split_3
I0403 18:18:24.775507 16938 net.cpp:399] inception_4e/5x5_reduce -> inception_4e/5x5_reduce
I0403 18:18:24.776553 16938 net.cpp:141] Setting up inception_4e/5x5_reduce
I0403 18:18:24.776582 16938 net.cpp:148] Top shape: 24 32 14 14 (150528)
I0403 18:18:24.776598 16938 net.cpp:156] Memory required for data: 1236731424
I0403 18:18:24.776617 16938 layer_factory.hpp:77] Creating layer inception_4e/relu_5x5_reduce
I0403 18:18:24.776635 16938 net.cpp:91] Creating Layer inception_4e/relu_5x5_reduce
I0403 18:18:24.776651 16938 net.cpp:425] inception_4e/relu_5x5_reduce <- inception_4e/5x5_reduce
I0403 18:18:24.776669 16938 net.cpp:386] inception_4e/relu_5x5_reduce -> inception_4e/5x5_reduce (in-place)
I0403 18:18:24.776962 16938 net.cpp:141] Setting up inception_4e/relu_5x5_reduce
I0403 18:18:24.776993 16938 net.cpp:148] Top shape: 24 32 14 14 (150528)
I0403 18:18:24.777009 16938 net.cpp:156] Memory required for data: 1237333536
I0403 18:18:24.777024 16938 layer_factory.hpp:77] Creating layer inception_4e/5x5
I0403 18:18:24.777060 16938 net.cpp:91] Creating Layer inception_4e/5x5
I0403 18:18:24.777081 16938 net.cpp:425] inception_4e/5x5 <- inception_4e/5x5_reduce
I0403 18:18:24.777101 16938 net.cpp:399] inception_4e/5x5 -> inception_4e/5x5
I0403 18:18:24.778916 16938 net.cpp:141] Setting up inception_4e/5x5
I0403 18:18:24.778944 16938 net.cpp:148] Top shape: 24 128 14 14 (602112)
I0403 18:18:24.778959 16938 net.cpp:156] Memory required for data: 1239741984
I0403 18:18:24.778986 16938 layer_factory.hpp:77] Creating layer inception_4e/relu_5x5
I0403 18:18:24.779011 16938 net.cpp:91] Creating Layer inception_4e/relu_5x5
I0403 18:18:24.779027 16938 net.cpp:425] inception_4e/relu_5x5 <- inception_4e/5x5
I0403 18:18:24.779044 16938 net.cpp:386] inception_4e/relu_5x5 -> inception_4e/5x5 (in-place)
I0403 18:18:24.779242 16938 net.cpp:141] Setting up inception_4e/relu_5x5
I0403 18:18:24.779266 16938 net.cpp:148] Top shape: 24 128 14 14 (602112)
I0403 18:18:24.779280 16938 net.cpp:156] Memory required for data: 1242150432
I0403 18:18:24.779295 16938 layer_factory.hpp:77] Creating layer inception_4e/pool
I0403 18:18:24.779315 16938 net.cpp:91] Creating Layer inception_4e/pool
I0403 18:18:24.779332 16938 net.cpp:425] inception_4e/pool <- inception_4d/output_inception_4d/output_0_split_4
I0403 18:18:24.779352 16938 net.cpp:399] inception_4e/pool -> inception_4e/pool
I0403 18:18:24.779419 16938 net.cpp:141] Setting up inception_4e/pool
I0403 18:18:24.779443 16938 net.cpp:148] Top shape: 24 528 14 14 (2483712)
I0403 18:18:24.779456 16938 net.cpp:156] Memory required for data: 1252085280
I0403 18:18:24.779470 16938 layer_factory.hpp:77] Creating layer inception_4e/pool_proj
I0403 18:18:24.779492 16938 net.cpp:91] Creating Layer inception_4e/pool_proj
I0403 18:18:24.779510 16938 net.cpp:425] inception_4e/pool_proj <- inception_4e/pool
I0403 18:18:24.779530 16938 net.cpp:399] inception_4e/pool_proj -> inception_4e/pool_proj
I0403 18:18:24.781007 16938 net.cpp:141] Setting up inception_4e/pool_proj
I0403 18:18:24.781044 16938 net.cpp:148] Top shape: 24 128 14 14 (602112)
I0403 18:18:24.781060 16938 net.cpp:156] Memory required for data: 1254493728
I0403 18:18:24.781077 16938 layer_factory.hpp:77] Creating layer inception_4e/relu_pool_proj
I0403 18:18:24.781097 16938 net.cpp:91] Creating Layer inception_4e/relu_pool_proj
I0403 18:18:24.781114 16938 net.cpp:425] inception_4e/relu_pool_proj <- inception_4e/pool_proj
I0403 18:18:24.781131 16938 net.cpp:386] inception_4e/relu_pool_proj -> inception_4e/pool_proj (in-place)
I0403 18:18:24.781419 16938 net.cpp:141] Setting up inception_4e/relu_pool_proj
I0403 18:18:24.781443 16938 net.cpp:148] Top shape: 24 128 14 14 (602112)
I0403 18:18:24.781458 16938 net.cpp:156] Memory required for data: 1256902176
I0403 18:18:24.781473 16938 layer_factory.hpp:77] Creating layer inception_4e/output
I0403 18:18:24.781491 16938 net.cpp:91] Creating Layer inception_4e/output
I0403 18:18:24.781505 16938 net.cpp:425] inception_4e/output <- inception_4e/1x1
I0403 18:18:24.781522 16938 net.cpp:425] inception_4e/output <- inception_4e/3x3
I0403 18:18:24.781540 16938 net.cpp:425] inception_4e/output <- inception_4e/5x5
I0403 18:18:24.781556 16938 net.cpp:425] inception_4e/output <- inception_4e/pool_proj
I0403 18:18:24.781574 16938 net.cpp:399] inception_4e/output -> inception_4e/output
I0403 18:18:24.781620 16938 net.cpp:141] Setting up inception_4e/output
I0403 18:18:24.781646 16938 net.cpp:148] Top shape: 24 832 14 14 (3913728)
I0403 18:18:24.781661 16938 net.cpp:156] Memory required for data: 1272557088
I0403 18:18:24.781674 16938 layer_factory.hpp:77] Creating layer pool4/3x3_s2
I0403 18:18:24.781692 16938 net.cpp:91] Creating Layer pool4/3x3_s2
I0403 18:18:24.781708 16938 net.cpp:425] pool4/3x3_s2 <- inception_4e/output
I0403 18:18:24.781729 16938 net.cpp:399] pool4/3x3_s2 -> pool4/3x3_s2
I0403 18:18:24.781793 16938 net.cpp:141] Setting up pool4/3x3_s2
I0403 18:18:24.781816 16938 net.cpp:148] Top shape: 24 832 7 7 (978432)
I0403 18:18:24.781831 16938 net.cpp:156] Memory required for data: 1276470816
I0403 18:18:24.781844 16938 layer_factory.hpp:77] Creating layer pool4/3x3_s2_pool4/3x3_s2_0_split
I0403 18:18:24.781863 16938 net.cpp:91] Creating Layer pool4/3x3_s2_pool4/3x3_s2_0_split
I0403 18:18:24.781880 16938 net.cpp:425] pool4/3x3_s2_pool4/3x3_s2_0_split <- pool4/3x3_s2
I0403 18:18:24.781898 16938 net.cpp:399] pool4/3x3_s2_pool4/3x3_s2_0_split -> pool4/3x3_s2_pool4/3x3_s2_0_split_0
I0403 18:18:24.781918 16938 net.cpp:399] pool4/3x3_s2_pool4/3x3_s2_0_split -> pool4/3x3_s2_pool4/3x3_s2_0_split_1
I0403 18:18:24.781936 16938 net.cpp:399] pool4/3x3_s2_pool4/3x3_s2_0_split -> pool4/3x3_s2_pool4/3x3_s2_0_split_2
I0403 18:18:24.781958 16938 net.cpp:399] pool4/3x3_s2_pool4/3x3_s2_0_split -> pool4/3x3_s2_pool4/3x3_s2_0_split_3
I0403 18:18:24.782052 16938 net.cpp:141] Setting up pool4/3x3_s2_pool4/3x3_s2_0_split
I0403 18:18:24.782075 16938 net.cpp:148] Top shape: 24 832 7 7 (978432)
I0403 18:18:24.782091 16938 net.cpp:148] Top shape: 24 832 7 7 (978432)
I0403 18:18:24.782105 16938 net.cpp:148] Top shape: 24 832 7 7 (978432)
I0403 18:18:24.782121 16938 net.cpp:148] Top shape: 24 832 7 7 (978432)
I0403 18:18:24.782135 16938 net.cpp:156] Memory required for data: 1292125728
I0403 18:18:24.782148 16938 layer_factory.hpp:77] Creating layer inception_5a/1x1
I0403 18:18:24.782171 16938 net.cpp:91] Creating Layer inception_5a/1x1
I0403 18:18:24.782187 16938 net.cpp:425] inception_5a/1x1 <- pool4/3x3_s2_pool4/3x3_s2_0_split_0
I0403 18:18:24.782208 16938 net.cpp:399] inception_5a/1x1 -> inception_5a/1x1
I0403 18:18:24.784981 16938 net.cpp:141] Setting up inception_5a/1x1
I0403 18:18:24.785009 16938 net.cpp:148] Top shape: 24 256 7 7 (301056)
I0403 18:18:24.785025 16938 net.cpp:156] Memory required for data: 1293329952
I0403 18:18:24.785043 16938 layer_factory.hpp:77] Creating layer inception_5a/relu_1x1
I0403 18:18:24.785063 16938 net.cpp:91] Creating Layer inception_5a/relu_1x1
I0403 18:18:24.785080 16938 net.cpp:425] inception_5a/relu_1x1 <- inception_5a/1x1
I0403 18:18:24.785097 16938 net.cpp:386] inception_5a/relu_1x1 -> inception_5a/1x1 (in-place)
I0403 18:18:24.785403 16938 net.cpp:141] Setting up inception_5a/relu_1x1
I0403 18:18:24.785429 16938 net.cpp:148] Top shape: 24 256 7 7 (301056)
I0403 18:18:24.785442 16938 net.cpp:156] Memory required for data: 1294534176
I0403 18:18:24.785457 16938 layer_factory.hpp:77] Creating layer inception_5a/3x3_reduce
I0403 18:18:24.785480 16938 net.cpp:91] Creating Layer inception_5a/3x3_reduce
I0403 18:18:24.785497 16938 net.cpp:425] inception_5a/3x3_reduce <- pool4/3x3_s2_pool4/3x3_s2_0_split_1
I0403 18:18:24.785518 16938 net.cpp:399] inception_5a/3x3_reduce -> inception_5a/3x3_reduce
I0403 18:18:24.787907 16938 net.cpp:141] Setting up inception_5a/3x3_reduce
I0403 18:18:24.787935 16938 net.cpp:148] Top shape: 24 160 7 7 (188160)
I0403 18:18:24.787951 16938 net.cpp:156] Memory required for data: 1295286816
I0403 18:18:24.787969 16938 layer_factory.hpp:77] Creating layer inception_5a/relu_3x3_reduce
I0403 18:18:24.787992 16938 net.cpp:91] Creating Layer inception_5a/relu_3x3_reduce
I0403 18:18:24.788008 16938 net.cpp:425] inception_5a/relu_3x3_reduce <- inception_5a/3x3_reduce
I0403 18:18:24.788030 16938 net.cpp:386] inception_5a/relu_3x3_reduce -> inception_5a/3x3_reduce (in-place)
I0403 18:18:24.788216 16938 net.cpp:141] Setting up inception_5a/relu_3x3_reduce
I0403 18:18:24.788240 16938 net.cpp:148] Top shape: 24 160 7 7 (188160)
I0403 18:18:24.788255 16938 net.cpp:156] Memory required for data: 1296039456
I0403 18:18:24.788269 16938 layer_factory.hpp:77] Creating layer inception_5a/3x3
I0403 18:18:24.788290 16938 net.cpp:91] Creating Layer inception_5a/3x3
I0403 18:18:24.788308 16938 net.cpp:425] inception_5a/3x3 <- inception_5a/3x3_reduce
I0403 18:18:24.788329 16938 net.cpp:399] inception_5a/3x3 -> inception_5a/3x3
I0403 18:18:24.793295 16938 net.cpp:141] Setting up inception_5a/3x3
I0403 18:18:24.793328 16938 net.cpp:148] Top shape: 24 320 7 7 (376320)
I0403 18:18:24.793344 16938 net.cpp:156] Memory required for data: 1297544736
I0403 18:18:24.793362 16938 layer_factory.hpp:77] Creating layer inception_5a/relu_3x3
I0403 18:18:24.793383 16938 net.cpp:91] Creating Layer inception_5a/relu_3x3
I0403 18:18:24.793401 16938 net.cpp:425] inception_5a/relu_3x3 <- inception_5a/3x3
I0403 18:18:24.793418 16938 net.cpp:386] inception_5a/relu_3x3 -> inception_5a/3x3 (in-place)
I0403 18:18:24.793738 16938 net.cpp:141] Setting up inception_5a/relu_3x3
I0403 18:18:24.793763 16938 net.cpp:148] Top shape: 24 320 7 7 (376320)
I0403 18:18:24.793778 16938 net.cpp:156] Memory required for data: 1299050016
I0403 18:18:24.793792 16938 layer_factory.hpp:77] Creating layer inception_5a/5x5_reduce
I0403 18:18:24.793815 16938 net.cpp:91] Creating Layer inception_5a/5x5_reduce
I0403 18:18:24.793833 16938 net.cpp:425] inception_5a/5x5_reduce <- pool4/3x3_s2_pool4/3x3_s2_0_split_2
I0403 18:18:24.793854 16938 net.cpp:399] inception_5a/5x5_reduce -> inception_5a/5x5_reduce
I0403 18:18:24.795018 16938 net.cpp:141] Setting up inception_5a/5x5_reduce
I0403 18:18:24.795045 16938 net.cpp:148] Top shape: 24 32 7 7 (37632)
I0403 18:18:24.795060 16938 net.cpp:156] Memory required for data: 1299200544
I0403 18:18:24.795079 16938 layer_factory.hpp:77] Creating layer inception_5a/relu_5x5_reduce
I0403 18:18:24.795099 16938 net.cpp:91] Creating Layer inception_5a/relu_5x5_reduce
I0403 18:18:24.795115 16938 net.cpp:425] inception_5a/relu_5x5_reduce <- inception_5a/5x5_reduce
I0403 18:18:24.795132 16938 net.cpp:386] inception_5a/relu_5x5_reduce -> inception_5a/5x5_reduce (in-place)
I0403 18:18:24.795426 16938 net.cpp:141] Setting up inception_5a/relu_5x5_reduce
I0403 18:18:24.795451 16938 net.cpp:148] Top shape: 24 32 7 7 (37632)
I0403 18:18:24.795466 16938 net.cpp:156] Memory required for data: 1299351072
I0403 18:18:24.795481 16938 layer_factory.hpp:77] Creating layer inception_5a/5x5
I0403 18:18:24.795506 16938 net.cpp:91] Creating Layer inception_5a/5x5
I0403 18:18:24.795523 16938 net.cpp:425] inception_5a/5x5 <- inception_5a/5x5_reduce
I0403 18:18:24.795542 16938 net.cpp:399] inception_5a/5x5 -> inception_5a/5x5
I0403 18:18:24.797229 16938 net.cpp:141] Setting up inception_5a/5x5
I0403 18:18:24.797267 16938 net.cpp:148] Top shape: 24 128 7 7 (150528)
I0403 18:18:24.797282 16938 net.cpp:156] Memory required for data: 1299953184
I0403 18:18:24.797300 16938 layer_factory.hpp:77] Creating layer inception_5a/relu_5x5
I0403 18:18:24.797322 16938 net.cpp:91] Creating Layer inception_5a/relu_5x5
I0403 18:18:24.797338 16938 net.cpp:425] inception_5a/relu_5x5 <- inception_5a/5x5
I0403 18:18:24.797355 16938 net.cpp:386] inception_5a/relu_5x5 -> inception_5a/5x5 (in-place)
I0403 18:18:24.797547 16938 net.cpp:141] Setting up inception_5a/relu_5x5
I0403 18:18:24.797574 16938 net.cpp:148] Top shape: 24 128 7 7 (150528)
I0403 18:18:24.797590 16938 net.cpp:156] Memory required for data: 1300555296
I0403 18:18:24.797603 16938 layer_factory.hpp:77] Creating layer inception_5a/pool
I0403 18:18:24.797621 16938 net.cpp:91] Creating Layer inception_5a/pool
I0403 18:18:24.797636 16938 net.cpp:425] inception_5a/pool <- pool4/3x3_s2_pool4/3x3_s2_0_split_3
I0403 18:18:24.797657 16938 net.cpp:399] inception_5a/pool -> inception_5a/pool
I0403 18:18:24.797724 16938 net.cpp:141] Setting up inception_5a/pool
I0403 18:18:24.797747 16938 net.cpp:148] Top shape: 24 832 7 7 (978432)
I0403 18:18:24.797761 16938 net.cpp:156] Memory required for data: 1304469024
I0403 18:18:24.797776 16938 layer_factory.hpp:77] Creating layer inception_5a/pool_proj
I0403 18:18:24.797798 16938 net.cpp:91] Creating Layer inception_5a/pool_proj
I0403 18:18:24.797814 16938 net.cpp:425] inception_5a/pool_proj <- inception_5a/pool
I0403 18:18:24.797835 16938 net.cpp:399] inception_5a/pool_proj -> inception_5a/pool_proj
I0403 18:18:24.800086 16938 net.cpp:141] Setting up inception_5a/pool_proj
I0403 18:18:24.800113 16938 net.cpp:148] Top shape: 24 128 7 7 (150528)
I0403 18:18:24.800129 16938 net.cpp:156] Memory required for data: 1305071136
I0403 18:18:24.800148 16938 layer_factory.hpp:77] Creating layer inception_5a/relu_pool_proj
I0403 18:18:24.800168 16938 net.cpp:91] Creating Layer inception_5a/relu_pool_proj
I0403 18:18:24.800184 16938 net.cpp:425] inception_5a/relu_pool_proj <- inception_5a/pool_proj
I0403 18:18:24.800215 16938 net.cpp:386] inception_5a/relu_pool_proj -> inception_5a/pool_proj (in-place)
I0403 18:18:24.800525 16938 net.cpp:141] Setting up inception_5a/relu_pool_proj
I0403 18:18:24.800551 16938 net.cpp:148] Top shape: 24 128 7 7 (150528)
I0403 18:18:24.800566 16938 net.cpp:156] Memory required for data: 1305673248
I0403 18:18:24.800580 16938 layer_factory.hpp:77] Creating layer inception_5a/output
I0403 18:18:24.800598 16938 net.cpp:91] Creating Layer inception_5a/output
I0403 18:18:24.800614 16938 net.cpp:425] inception_5a/output <- inception_5a/1x1
I0403 18:18:24.800631 16938 net.cpp:425] inception_5a/output <- inception_5a/3x3
I0403 18:18:24.800647 16938 net.cpp:425] inception_5a/output <- inception_5a/5x5
I0403 18:18:24.800663 16938 net.cpp:425] inception_5a/output <- inception_5a/pool_proj
I0403 18:18:24.800681 16938 net.cpp:399] inception_5a/output -> inception_5a/output
I0403 18:18:24.800730 16938 net.cpp:141] Setting up inception_5a/output
I0403 18:18:24.800758 16938 net.cpp:148] Top shape: 24 832 7 7 (978432)
I0403 18:18:24.800772 16938 net.cpp:156] Memory required for data: 1309586976
I0403 18:18:24.800786 16938 layer_factory.hpp:77] Creating layer inception_5a/output_inception_5a/output_0_split
I0403 18:18:24.800803 16938 net.cpp:91] Creating Layer inception_5a/output_inception_5a/output_0_split
I0403 18:18:24.800819 16938 net.cpp:425] inception_5a/output_inception_5a/output_0_split <- inception_5a/output
I0403 18:18:24.800838 16938 net.cpp:399] inception_5a/output_inception_5a/output_0_split -> inception_5a/output_inception_5a/output_0_split_0
I0403 18:18:24.800859 16938 net.cpp:399] inception_5a/output_inception_5a/output_0_split -> inception_5a/output_inception_5a/output_0_split_1
I0403 18:18:24.800879 16938 net.cpp:399] inception_5a/output_inception_5a/output_0_split -> inception_5a/output_inception_5a/output_0_split_2
I0403 18:18:24.800899 16938 net.cpp:399] inception_5a/output_inception_5a/output_0_split -> inception_5a/output_inception_5a/output_0_split_3
I0403 18:18:24.801014 16938 net.cpp:141] Setting up inception_5a/output_inception_5a/output_0_split
I0403 18:18:24.801038 16938 net.cpp:148] Top shape: 24 832 7 7 (978432)
I0403 18:18:24.801054 16938 net.cpp:148] Top shape: 24 832 7 7 (978432)
I0403 18:18:24.801069 16938 net.cpp:148] Top shape: 24 832 7 7 (978432)
I0403 18:18:24.801084 16938 net.cpp:148] Top shape: 24 832 7 7 (978432)
I0403 18:18:24.801097 16938 net.cpp:156] Memory required for data: 1325241888
I0403 18:18:24.801111 16938 layer_factory.hpp:77] Creating layer inception_5b/1x1
I0403 18:18:24.801136 16938 net.cpp:91] Creating Layer inception_5b/1x1
I0403 18:18:24.801152 16938 net.cpp:425] inception_5b/1x1 <- inception_5a/output_inception_5a/output_0_split_0
I0403 18:18:24.801170 16938 net.cpp:399] inception_5b/1x1 -> inception_5b/1x1
I0403 18:18:24.804839 16938 net.cpp:141] Setting up inception_5b/1x1
I0403 18:18:24.804868 16938 net.cpp:148] Top shape: 24 384 7 7 (451584)
I0403 18:18:24.804883 16938 net.cpp:156] Memory required for data: 1327048224
I0403 18:18:24.804903 16938 layer_factory.hpp:77] Creating layer inception_5b/relu_1x1
I0403 18:18:24.804920 16938 net.cpp:91] Creating Layer inception_5b/relu_1x1
I0403 18:18:24.804939 16938 net.cpp:425] inception_5b/relu_1x1 <- inception_5b/1x1
I0403 18:18:24.804956 16938 net.cpp:386] inception_5b/relu_1x1 -> inception_5b/1x1 (in-place)
I0403 18:18:24.805275 16938 net.cpp:141] Setting up inception_5b/relu_1x1
I0403 18:18:24.805302 16938 net.cpp:148] Top shape: 24 384 7 7 (451584)
I0403 18:18:24.805317 16938 net.cpp:156] Memory required for data: 1328854560
I0403 18:18:24.805332 16938 layer_factory.hpp:77] Creating layer inception_5b/3x3_reduce
I0403 18:18:24.805356 16938 net.cpp:91] Creating Layer inception_5b/3x3_reduce
I0403 18:18:24.805373 16938 net.cpp:425] inception_5b/3x3_reduce <- inception_5a/output_inception_5a/output_0_split_1
I0403 18:18:24.805397 16938 net.cpp:399] inception_5b/3x3_reduce -> inception_5b/3x3_reduce
I0403 18:18:24.808012 16938 net.cpp:141] Setting up inception_5b/3x3_reduce
I0403 18:18:24.808040 16938 net.cpp:148] Top shape: 24 192 7 7 (225792)
I0403 18:18:24.808056 16938 net.cpp:156] Memory required for data: 1329757728
I0403 18:18:24.808074 16938 layer_factory.hpp:77] Creating layer inception_5b/relu_3x3_reduce
I0403 18:18:24.808092 16938 net.cpp:91] Creating Layer inception_5b/relu_3x3_reduce
I0403 18:18:24.808109 16938 net.cpp:425] inception_5b/relu_3x3_reduce <- inception_5b/3x3_reduce
I0403 18:18:24.808127 16938 net.cpp:386] inception_5b/relu_3x3_reduce -> inception_5b/3x3_reduce (in-place)
I0403 18:18:24.808316 16938 net.cpp:141] Setting up inception_5b/relu_3x3_reduce
I0403 18:18:24.808341 16938 net.cpp:148] Top shape: 24 192 7 7 (225792)
I0403 18:18:24.808357 16938 net.cpp:156] Memory required for data: 1330660896
I0403 18:18:24.808370 16938 layer_factory.hpp:77] Creating layer inception_5b/3x3
I0403 18:18:24.808393 16938 net.cpp:91] Creating Layer inception_5b/3x3
I0403 18:18:24.808410 16938 net.cpp:425] inception_5b/3x3 <- inception_5b/3x3_reduce
I0403 18:18:24.808431 16938 net.cpp:399] inception_5b/3x3 -> inception_5b/3x3
I0403 18:18:24.815042 16938 net.cpp:141] Setting up inception_5b/3x3
I0403 18:18:24.815073 16938 net.cpp:148] Top shape: 24 384 7 7 (451584)
I0403 18:18:24.815088 16938 net.cpp:156] Memory required for data: 1332467232
I0403 18:18:24.815107 16938 layer_factory.hpp:77] Creating layer inception_5b/relu_3x3
I0403 18:18:24.815129 16938 net.cpp:91] Creating Layer inception_5b/relu_3x3
I0403 18:18:24.815148 16938 net.cpp:425] inception_5b/relu_3x3 <- inception_5b/3x3
I0403 18:18:24.815167 16938 net.cpp:386] inception_5b/relu_3x3 -> inception_5b/3x3 (in-place)
I0403 18:18:24.815462 16938 net.cpp:141] Setting up inception_5b/relu_3x3
I0403 18:18:24.815488 16938 net.cpp:148] Top shape: 24 384 7 7 (451584)
I0403 18:18:24.815503 16938 net.cpp:156] Memory required for data: 1334273568
I0403 18:18:24.815518 16938 layer_factory.hpp:77] Creating layer inception_5b/5x5_reduce
I0403 18:18:24.815557 16938 net.cpp:91] Creating Layer inception_5b/5x5_reduce
I0403 18:18:24.815575 16938 net.cpp:425] inception_5b/5x5_reduce <- inception_5a/output_inception_5a/output_0_split_2
I0403 18:18:24.815598 16938 net.cpp:399] inception_5b/5x5_reduce -> inception_5b/5x5_reduce
I0403 18:18:24.816854 16938 net.cpp:141] Setting up inception_5b/5x5_reduce
I0403 18:18:24.816880 16938 net.cpp:148] Top shape: 24 48 7 7 (56448)
I0403 18:18:24.816896 16938 net.cpp:156] Memory required for data: 1334499360
I0403 18:18:24.816915 16938 layer_factory.hpp:77] Creating layer inception_5b/relu_5x5_reduce
I0403 18:18:24.816934 16938 net.cpp:91] Creating Layer inception_5b/relu_5x5_reduce
I0403 18:18:24.816952 16938 net.cpp:425] inception_5b/relu_5x5_reduce <- inception_5b/5x5_reduce
I0403 18:18:24.816969 16938 net.cpp:386] inception_5b/relu_5x5_reduce -> inception_5b/5x5_reduce (in-place)
I0403 18:18:24.817342 16938 net.cpp:141] Setting up inception_5b/relu_5x5_reduce
I0403 18:18:24.817368 16938 net.cpp:148] Top shape: 24 48 7 7 (56448)
I0403 18:18:24.817383 16938 net.cpp:156] Memory required for data: 1334725152
I0403 18:18:24.817397 16938 layer_factory.hpp:77] Creating layer inception_5b/5x5
I0403 18:18:24.817417 16938 net.cpp:91] Creating Layer inception_5b/5x5
I0403 18:18:24.817435 16938 net.cpp:425] inception_5b/5x5 <- inception_5b/5x5_reduce
I0403 18:18:24.817454 16938 net.cpp:399] inception_5b/5x5 -> inception_5b/5x5
I0403 18:18:24.819466 16938 net.cpp:141] Setting up inception_5b/5x5
I0403 18:18:24.819494 16938 net.cpp:148] Top shape: 24 128 7 7 (150528)
I0403 18:18:24.819509 16938 net.cpp:156] Memory required for data: 1335327264
I0403 18:18:24.819528 16938 layer_factory.hpp:77] Creating layer inception_5b/relu_5x5
I0403 18:18:24.819548 16938 net.cpp:91] Creating Layer inception_5b/relu_5x5
I0403 18:18:24.819564 16938 net.cpp:425] inception_5b/relu_5x5 <- inception_5b/5x5
I0403 18:18:24.819582 16938 net.cpp:386] inception_5b/relu_5x5 -> inception_5b/5x5 (in-place)
I0403 18:18:24.819775 16938 net.cpp:141] Setting up inception_5b/relu_5x5
I0403 18:18:24.819802 16938 net.cpp:148] Top shape: 24 128 7 7 (150528)
I0403 18:18:24.819818 16938 net.cpp:156] Memory required for data: 1335929376
I0403 18:18:24.819833 16938 layer_factory.hpp:77] Creating layer inception_5b/pool
I0403 18:18:24.819850 16938 net.cpp:91] Creating Layer inception_5b/pool
I0403 18:18:24.819867 16938 net.cpp:425] inception_5b/pool <- inception_5a/output_inception_5a/output_0_split_3
I0403 18:18:24.819887 16938 net.cpp:399] inception_5b/pool -> inception_5b/pool
I0403 18:18:24.819958 16938 net.cpp:141] Setting up inception_5b/pool
I0403 18:18:24.819985 16938 net.cpp:148] Top shape: 24 832 7 7 (978432)
I0403 18:18:24.820001 16938 net.cpp:156] Memory required for data: 1339843104
I0403 18:18:24.820016 16938 layer_factory.hpp:77] Creating layer inception_5b/pool_proj
I0403 18:18:24.820037 16938 net.cpp:91] Creating Layer inception_5b/pool_proj
I0403 18:18:24.820055 16938 net.cpp:425] inception_5b/pool_proj <- inception_5b/pool
I0403 18:18:24.820076 16938 net.cpp:399] inception_5b/pool_proj -> inception_5b/pool_proj
I0403 18:18:24.822363 16938 net.cpp:141] Setting up inception_5b/pool_proj
I0403 18:18:24.822392 16938 net.cpp:148] Top shape: 24 128 7 7 (150528)
I0403 18:18:24.822407 16938 net.cpp:156] Memory required for data: 1340445216
I0403 18:18:24.822425 16938 layer_factory.hpp:77] Creating layer inception_5b/relu_pool_proj
I0403 18:18:24.822445 16938 net.cpp:91] Creating Layer inception_5b/relu_pool_proj
I0403 18:18:24.822463 16938 net.cpp:425] inception_5b/relu_pool_proj <- inception_5b/pool_proj
I0403 18:18:24.822480 16938 net.cpp:386] inception_5b/relu_pool_proj -> inception_5b/pool_proj (in-place)
I0403 18:18:24.822774 16938 net.cpp:141] Setting up inception_5b/relu_pool_proj
I0403 18:18:24.822800 16938 net.cpp:148] Top shape: 24 128 7 7 (150528)
I0403 18:18:24.822815 16938 net.cpp:156] Memory required for data: 1341047328
I0403 18:18:24.822830 16938 layer_factory.hpp:77] Creating layer inception_5b/output
I0403 18:18:24.822847 16938 net.cpp:91] Creating Layer inception_5b/output
I0403 18:18:24.822880 16938 net.cpp:425] inception_5b/output <- inception_5b/1x1
I0403 18:18:24.822897 16938 net.cpp:425] inception_5b/output <- inception_5b/3x3
I0403 18:18:24.822913 16938 net.cpp:425] inception_5b/output <- inception_5b/5x5
I0403 18:18:24.822929 16938 net.cpp:425] inception_5b/output <- inception_5b/pool_proj
I0403 18:18:24.822947 16938 net.cpp:399] inception_5b/output -> inception_5b/output
I0403 18:18:24.822999 16938 net.cpp:141] Setting up inception_5b/output
I0403 18:18:24.823027 16938 net.cpp:148] Top shape: 24 1024 7 7 (1204224)
I0403 18:18:24.823043 16938 net.cpp:156] Memory required for data: 1345864224
I0403 18:18:24.823058 16938 layer_factory.hpp:77] Creating layer pool5/7x7_s1
I0403 18:18:24.823076 16938 net.cpp:91] Creating Layer pool5/7x7_s1
I0403 18:18:24.823091 16938 net.cpp:425] pool5/7x7_s1 <- inception_5b/output
I0403 18:18:24.823112 16938 net.cpp:399] pool5/7x7_s1 -> pool5/7x7_s1
I0403 18:18:24.823325 16938 net.cpp:141] Setting up pool5/7x7_s1
I0403 18:18:24.823350 16938 net.cpp:148] Top shape: 24 1024 1 1 (24576)
I0403 18:18:24.823364 16938 net.cpp:156] Memory required for data: 1345962528
I0403 18:18:24.823379 16938 layer_factory.hpp:77] Creating layer pool5/drop_7x7_s1
I0403 18:18:24.823398 16938 net.cpp:91] Creating Layer pool5/drop_7x7_s1
I0403 18:18:24.823415 16938 net.cpp:425] pool5/drop_7x7_s1 <- pool5/7x7_s1
I0403 18:18:24.823432 16938 net.cpp:386] pool5/drop_7x7_s1 -> pool5/7x7_s1 (in-place)
I0403 18:18:24.823484 16938 net.cpp:141] Setting up pool5/drop_7x7_s1
I0403 18:18:24.823508 16938 net.cpp:148] Top shape: 24 1024 1 1 (24576)
I0403 18:18:24.823521 16938 net.cpp:156] Memory required for data: 1346060832
I0403 18:18:24.823535 16938 layer_factory.hpp:77] Creating layer loss3/classifier_plantvillage
I0403 18:18:24.823554 16938 net.cpp:91] Creating Layer loss3/classifier_plantvillage
I0403 18:18:24.823573 16938 net.cpp:425] loss3/classifier_plantvillage <- pool5/7x7_s1
I0403 18:18:24.823592 16938 net.cpp:399] loss3/classifier_plantvillage -> loss3/classifier_plantvillage
I0403 18:18:24.824015 16938 net.cpp:141] Setting up loss3/classifier_plantvillage
I0403 18:18:24.824039 16938 net.cpp:148] Top shape: 24 38 (912)
I0403 18:18:24.824054 16938 net.cpp:156] Memory required for data: 1346064480
I0403 18:18:24.824071 16938 layer_factory.hpp:77] Creating layer loss3/classifier_plantvillage_loss3/classifier_plantvillage_0_split
I0403 18:18:24.824090 16938 net.cpp:91] Creating Layer loss3/classifier_plantvillage_loss3/classifier_plantvillage_0_split
I0403 18:18:24.824105 16938 net.cpp:425] loss3/classifier_plantvillage_loss3/classifier_plantvillage_0_split <- loss3/classifier_plantvillage
I0403 18:18:24.824126 16938 net.cpp:399] loss3/classifier_plantvillage_loss3/classifier_plantvillage_0_split -> loss3/classifier_plantvillage_loss3/classifier_plantvillage_0_split_0
I0403 18:18:24.824147 16938 net.cpp:399] loss3/classifier_plantvillage_loss3/classifier_plantvillage_0_split -> loss3/classifier_plantvillage_loss3/classifier_plantvillage_0_split_1
I0403 18:18:24.824168 16938 net.cpp:399] loss3/classifier_plantvillage_loss3/classifier_plantvillage_0_split -> loss3/classifier_plantvillage_loss3/classifier_plantvillage_0_split_2
I0403 18:18:24.824187 16938 net.cpp:399] loss3/classifier_plantvillage_loss3/classifier_plantvillage_0_split -> loss3/classifier_plantvillage_loss3/classifier_plantvillage_0_split_3
I0403 18:18:24.824288 16938 net.cpp:141] Setting up loss3/classifier_plantvillage_loss3/classifier_plantvillage_0_split
I0403 18:18:24.824311 16938 net.cpp:148] Top shape: 24 38 (912)
I0403 18:18:24.824326 16938 net.cpp:148] Top shape: 24 38 (912)
I0403 18:18:24.824342 16938 net.cpp:148] Top shape: 24 38 (912)
I0403 18:18:24.824357 16938 net.cpp:148] Top shape: 24 38 (912)
I0403 18:18:24.824369 16938 net.cpp:156] Memory required for data: 1346079072
I0403 18:18:24.824383 16938 layer_factory.hpp:77] Creating layer loss1/loss
I0403 18:18:24.824407 16938 net.cpp:91] Creating Layer loss1/loss
I0403 18:18:24.824424 16938 net.cpp:425] loss1/loss <- loss1/classifier_plantvillage_loss1/classifier_plantvillage_0_split_0
I0403 18:18:24.824455 16938 net.cpp:425] loss1/loss <- label_data_1_split_0
…
