…
I0403 17:47:40.592211 15016 net.cpp:313] The NetState phase (1) differed from the phase (0) specified by a rule in layer data
I0403 17:47:40.593386 15016 net.cpp:49] Initializing net from parameters: 
state {
  phase: TEST
}
layer {
  name: "data"
  type: "Data"
  top: "data"
  top: "label"
  include {
    phase: TEST
  }
  transform_param {
    mirror: false
    crop_size: 224
    mean_file: "/home/mohanty/data/final_dataset/lmdb/grayscale-60-40/mean.binaryproto"
  }
  data_param {
    source: "/home/mohanty/data/final_dataset/lmdb/grayscale-60-40/test_db"
    batch_size: 24
    backend: LMDB
  }
}
layer {
  name: "conv1/7x7_s2"
  type: "Convolution"
  bottom: "data"
  top: "conv1/7x7_s2"
  param {
    lr_mult: 1
    decay_mult: 1
  }
  param {
    lr_mult: 2
    decay_mult: 0
  }
  convolution_param {
    num_output: 64
    pad: 3
    kernel_size: 7
    stride: 2
    weight_filler {
      type: "xavier"
      std: 0.1
    }
    bias_filler {
      type: "constant"
      value: 0.2
    }
  }
}
layer {
  name: "conv1/relu_7x7"
  type: "ReLU"
  bottom: "conv1/7x7_s2"
  top: "conv1/7x7_s2"
}
layer {
  name: "pool1/3x3_s2"
  type: "Pooling"
  bottom: "conv1/7x7_s2"
  top: "pool1/3x3_s2"
  pooling_param {
    pool: MAX
    kernel_size: 3
    stride: 2
  }
}
layer {
  name: "pool1/norm1"
  type: "LRN"
  bottom: "pool1/3x3_s2"
  top: "pool1/norm1"
  lrn_param {
    local_size: 5
    alpha: 0.0001
    beta: 0.75
  }
}
layer {
  name: "conv2/3x3_reduce"
  type: "Convolution"
  bottom: "pool1/norm1"
  top: "conv2/3x3_reduce"
  param {
    lr_mult: 1
    decay_mult: 1
  }
  param {
    lr_mult: 2
    decay_mult: 0
  }
  convolution_param {
    num_output: 64
    kernel_size: 1
    weight_filler {
      type: "xavier"
      std: 0.1
    }
    bias_filler {
      type: "constant"
      value: 0.2
    }
  }
}
layer {
  name: "conv2/relu_3x3_reduce"
  type: "ReLU"
  bottom: "conv2/3x3_reduce"
  top: "conv2/3x3_reduce"
}
layer {
  name: "conv2/3x3"
  type: "Convolution"
  bottom: "conv2/3x3_reduce"
  top: "conv2/3x3"
  param {
    lr_mult: 1
    decay_mult: 1
  }
  param {
    lr_mult: 2
    decay_mult: 0
  }
  convolution_param {
    num_output: 192
    pad: 1
    kernel_size: 3
    weight_filler {
      type: "xavier"
      std: 0.03
    }
    bias_filler {
      type: "constant"
      value: 0.2
    }
  }
}
layer {
  name: "conv2/relu_3x3"
  type: "ReLU"
  bottom: "conv2/3x3"
  top: "conv2/3x3"
}
layer {
  name: "conv2/norm2"
  type: "LRN"
  bottom: "conv2/3x3"
  top: "conv2/norm2"
  lrn_param {
    local_size: 5
    alpha: 0.0001
    beta: 0.75
  }
}
layer {
  name: "pool2/3x3_s2"
  type: "Pooling"
  bottom: "conv2/norm2"
  top: "pool2/3x3_s2"
  pooling_param {
    pool: MAX
    kernel_size: 3
    stride: 2
  }
}
layer {
  name: "inception_3a/1x1"
  type: "Convolution"
  bottom: "pool2/3x3_s2"
  top: "inception_3a/1x1"
  param {
    lr_mult: 1
    decay_mult: 1
  }
  param {
    lr_mult: 2
    decay_mult: 0
  }
  convolution_param {
    num_output: 64
    kernel_size: 1
    weight_filler {
      type: "xavier"
      std: 0.03
    }
    bias_filler {
      type: "constant"
      value: 0.2
    }
  }
}
layer {
  name: "inception_3a/relu_1x1"
  type: "ReLU"
  bottom: "inception_3a/1x1"
  top: "inception_3a/1x1"
}
layer {
  name: "inception_3a/3x3_reduce"
  type: "Convolution"
  bottom: "pool2/3x3_s2"
  top: "inception_3a/3x3_reduce"
  param {
    lr_mult: 1
    decay_mult: 1
  }
  param {
    lr_mult: 2
    decay_mult: 0
  }
  convolution_param {
    num_output: 96
    kernel_size: 1
    weight_filler {
      type: "xavier"
      std: 0.09
    }
    bias_filler {
      type: "constant"
      value: 0.2
    }
  }
}
layer {
  name: "inception_3a/relu_3x3_reduce"
  type: "ReLU"
  bottom: "inception_3a/3x3_reduce"
  top: "inception_3a/3x3_reduce"
}
layer {
  name: "inception_3a/3x3"
  type: "Convolution"
  bottom: "inception_3a/3x3_reduce"
  top: "inception_3a/3x3"
  param {
    lr_mult: 1
    decay_mult: 1
  }
  param {
    lr_mult: 2
    decay_mult: 0
  }
  convolution_param {
    num_output: 128
    pad: 1
    kernel_size: 3
    weight_filler {
      type: "xavier"
      std: 0.03
    }
    bias_filler {
      type: "constant"
      value: 0.2
    }
  }
}
layer {
  name: "inception_3a/relu_3x3"
  type: "ReLU"
  bottom: "inception_3a/3x3"
  top: "inception_3a/3x3"
}
layer {
  name: "inception_3a/5x5_reduce"
  type: "Convolution"
  bottom: "pool2/3x3_s2"
  top: "inception_3a/5x5_reduce"
  param {
    lr_mult: 1
    decay_mult: 1
  }
  param {
    lr_mult: 2
    decay_mult: 0
  }
  convolution_param {
    num_output: 16
    kernel_size: 1
    weight_filler {
      type: "xavier"
      std: 0.2
    }
    bias_filler {
      type: "constant"
      value: 0.2
    }
  }
}
layer {
  name: "inception_3a/relu_5x5_reduce"
  type: "ReLU"
  bottom: "inception_3a/5x5_reduce"
  top: "inception_3a/5x5_reduce"
}
layer {
  name: "inception_3a/5x5"
  type: "Convolution"
  bottom: "inception_3a/5x5_reduce"
  top: "inception_3a/5x5"
  param {
    lr_mult: 1
    decay_mult: 1
  }
  param {
    lr_mult: 2
    decay_mult: 0
  }
  convolution_param {
    num_output: 32
    pad: 2
    kernel_size: 5
    weight_filler {
      type: "xavier"
      std: 0.03
    }
    bias_filler {
      type: "constant"
      value: 0.2
    }
  }
}
layer {
  name: "inception_3a/relu_5x5"
  type: "ReLU"
  bottom: "inception_3a/5x5"
  top: "inception_3a/5x5"
}
layer {
  name: "inception_3a/pool"
  type: "Pooling"
  bottom: "pool2/3x3_s2"
  top: "inception_3a/pool"
  pooling_param {
    pool: MAX
    kernel_size: 3
    stride: 1
    pad: 1
  }
}
layer {
  name: "inception_3a/pool_proj"
  type: "Convolution"
  bottom: "inception_3a/pool"
  top: "inception_3a/pool_proj"
  param {
    lr_mult: 1
    decay_mult: 1
  }
  param {
    lr_mult: 2
    decay_mult: 0
  }
  convolution_param {
    num_output: 32
    kernel_size: 1
    weight_filler {
      type: "xavier"
      std: 0.1
    }
    bias_filler {
      type: "constant"
      value: 0.2
    }
  }
}
layer {
  name: "inception_3a/relu_pool_proj"
  type: "ReLU"
  bottom: "inception_3a/pool_proj"
  top: "inception_3a/pool_proj"
}
layer {
  name: "inception_3a/output"
  type: "Concat"
  bottom: "inception_3a/1x1"
  bottom: "inception_3a/3x3"
  bottom: "inception_3a/5x5"
  bottom: "inception_3a/pool_proj"
  top: "inception_3a/output"
}
layer {
  name: "inception_3b/1x1"
  type: "Convolution"
  bottom: "inception_3a/output"
  top: "inception_3b/1x1"
  param {
    lr_mult: 1
    decay_mult: 1
  }
  param {
    lr_mult: 2
    decay_mult: 0
  }
  convolution_param {
    num_output: 128
    kernel_size: 1
    weight_filler {
      type: "xavier"
      std: 0.03
    }
    bias_filler {
      type: "constant"
      value: 0.2
    }
  }
}
layer {
  name: "inception_3b/relu_1x1"
  type: "ReLU"
  bottom: "inception_3b/1x1"
  top: "inception_3b/1x1"
}
layer {
  name: "inception_3b/3x3_reduce"
  type: "Convolution"
  bottom: "inception_3a/output"
  top: "inception_3b/3x3_reduce"
  param {
    lr_mult: 1
    decay_mult: 1
  }
  param {
    lr_mult: 2
    decay_mult: 0
  }
  convolution_param {
    num_output: 128
    kernel_size: 1
    weight_filler {
      type: "xavier"
      std: 0.09
    }
    bias_filler {
      type: "constant"
      value: 0.2
    }
  }
}
layer {
  name: "inception_3b/relu_3x3_reduce"
  type: "ReLU"
  bottom: "inception_3b/3x3_reduce"
  top: "inception_3b/3x3_reduce"
}
layer {
  name: "inception_3b/3x3"
  type: "Convolution"
  bottom: "inception_3b/3x3_reduce"
  top: "inception_3b/3x3"
  param {
    lr_mult: 1
    decay_mult: 1
  }
  param {
    lr_mult: 2
    decay_mult: 0
  }
  convolution_param {
    num_output: 192
    pad: 1
    kernel_size: 3
    weight_filler {
      type: "xavier"
      std: 0.03
    }
    bias_filler {
      type: "constant"
      value: 0.2
    }
  }
}
layer {
  name: "inception_3b/relu_3x3"
  type: "ReLU"
  bottom: "inception_3b/3x3"
  top: "inception_3b/3x3"
}
layer {
  name: "inception_3b/5x5_reduce"
  type: "Convolution"
  bottom: "inception_3a/output"
  top: "inception_3b/5x5_reduce"
  param {
    lr_mult: 1
    decay_mult: 1
  }
  param {
    lr_mult: 2
    decay_mult: 0
  }
  convolution_param {
    num_output: 32
    kernel_size: 1
    weight_filler {
      type: "xavier"
      std: 0.2
    }
    bias_filler {
      type: "constant"
      value: 0.2
    }
  }
}
layer {
  name: "inception_3b/relu_5x5_reduce"
  type: "ReLU"
  bottom: "inception_3b/5x5_reduce"
  top: "inception_3b/5x5_reduce"
}
layer {
  name: "inception_3b/5x5"
  type: "Convolution"
  bottom: "inception_3b/5x5_reduce"
  top: "inception_3b/5x5"
  param {
    lr_mult: 1
    decay_mult: 1
  }
  param {
    lr_mult: 2
    decay_mult: 0
  }
  convolution_param {
    num_output: 96
    pad: 2
    kernel_size: 5
    weight_filler {
      type: "xavier"
      std: 0.03
    }
    bias_filler {
      type: "constant"
      value: 0.2
    }
  }
}
layer {
  name: "inception_3b/relu_5x5"
  type: "ReLU"
  bottom: "inception_3b/5x5"
  top: "inception_3b/5x5"
}
layer {
  name: "inception_3b/pool"
  type: "Pooling"
  bottom: "inception_3a/output"
  top: "inception_3b/pool"
  pooling_param {
    pool: MAX
    kernel_size: 3
    stride: 1
    pad: 1
  }
}
layer {
  name: "inception_3b/pool_proj"
  type: "Convolution"
  bottom: "inception_3b/pool"
  top: "inception_3b/pool_proj"
  param {
    lr_mult: 1
    decay_mult: 1
  }
  param {
    lr_mult: 2
    decay_mult: 0
  }
  convolution_param {
    num_output: 64
    kernel_size: 1
    weight_filler {
      type: "xavier"
      std: 0.1
    }
    bias_filler {
      type: "constant"
      value: 0.2
    }
  }
}
layer {
  name: "inception_3b/relu_pool_proj"
  type: "ReLU"
  bottom: "inception_3b/pool_proj"
  top: "inception_3b/pool_proj"
}
layer {
  name: "inception_3b/output"
  type: "Concat"
  bottom: "inception_3b/1x1"
  bottom: "inception_3b/3x3"
  bottom: "inception_3b/5x5"
  bottom: "inception_3b/pool_proj"
  top: "inception_3b/output"
}
layer {
  name: "pool3/3x3_s2"
  type: "Pooling"
  bottom: "inception_3b/output"
  top: "pool3/3x3_s2"
  pooling_param {
    pool: MAX
    kernel_size: 3
    stride: 2
  }
}
layer {
  name: "inception_4a/1x1"
  type: "Convolution"
  bottom: "pool3/3x3_s2"
  top: "inception_4a/1x1"
  param {
    lr_mult: 1
    decay_mult: 1
  }
  param {
    lr_mult: 2
    decay_mult: 0
  }
  convolution_param {
    num_output: 192
    kernel_size: 1
    weight_filler {
      type: "xavier"
      std: 0.03
    }
    bias_filler {
      type: "constant"
      value: 0.2
    }
  }
}
layer {
  name: "inception_4a/relu_1x1"
  type: "ReLU"
  bottom: "inception_4a/1x1"
  top: "inception_4a/1x1"
}
layer {
  name: "inception_4a/3x3_reduce"
  type: "Convolution"
  bottom: "pool3/3x3_s2"
  top: "inception_4a/3x3_reduce"
  param {
    lr_mult: 1
    decay_mult: 1
  }
  param {
    lr_mult: 2
    decay_mult: 0
  }
  convolution_param {
    num_output: 96
    kernel_size: 1
    weight_filler {
      type: "xavier"
      std: 0.09
    }
    bias_filler {
      type: "constant"
      value: 0.2
    }
  }
}
layer {
  name: "inception_4a/relu_3x3_reduce"
  type: "ReLU"
  bottom: "inception_4a/3x3_reduce"
  top: "inception_4a/3x3_reduce"
}
layer {
  name: "inception_4a/3x3"
  type: "Convolution"
  bottom: "inception_4a/3x3_reduce"
  top: "inception_4a/3x3"
  param {
    lr_mult: 1
    decay_mult: 1
  }
  param {
    lr_mult: 2
    decay_mult: 0
  }
  convolution_param {
    num_output: 208
    pad: 1
    kernel_size: 3
    weight_filler {
      type: "xavier"
      std: 0.03
    }
    bias_filler {
      type: "constant"
      value: 0.2
    }
  }
}
layer {
  name: "inception_4a/relu_3x3"
  type: "ReLU"
  bottom: "inception_4a/3x3"
  top: "inception_4a/3x3"
}
layer {
  name: "inception_4a/5x5_reduce"
  type: "Convolution"
  bottom: "pool3/3x3_s2"
  top: "inception_4a/5x5_reduce"
  param {
    lr_mult: 1
    decay_mult: 1
  }
  param {
    lr_mult: 2
    decay_mult: 0
  }
  convolution_param {
    num_output: 16
    kernel_size: 1
    weight_filler {
      type: "xavier"
      std: 0.2
    }
    bias_filler {
      type: "constant"
      value: 0.2
    }
  }
}
layer {
  name: "inception_4a/relu_5x5_reduce"
  type: "ReLU"
  bottom: "inception_4a/5x5_reduce"
  top: "inception_4a/5x5_reduce"
}
layer {
  name: "inception_4a/5x5"
  type: "Convolution"
  bottom: "inception_4a/5x5_reduce"
  top: "inception_4a/5x5"
  param {
    lr_mult: 1
    decay_mult: 1
  }
  param {
    lr_mult: 2
    decay_mult: 0
  }
  convolution_param {
    num_output: 48
    pad: 2
    kernel_size: 5
    weight_filler {
      type: "xavier"
      std: 0.03
    }
    bias_filler {
      type: "constant"
      value: 0.2
    }
  }
}
layer {
  name: "inception_4a/relu_5x5"
  type: "ReLU"
  bottom: "inception_4a/5x5"
  top: "inception_4a/5x5"
}
layer {
  name: "inception_4a/pool"
  type: "Pooling"
  bottom: "pool3/3x3_s2"
  top: "inception_4a/pool"
  pooling_param {
    pool: MAX
    kernel_size: 3
    stride: 1
    pad: 1
  }
}
layer {
  name: "inception_4a/pool_proj"
  type: "Convolution"
  bottom: "inception_4a/pool"
  top: "inception_4a/pool_proj"
  param {
    lr_mult: 1
    decay_mult: 1
  }
  param {
    lr_mult: 2
    decay_mult: 0
  }
  convolution_param {
    num_output: 64
    kernel_size: 1
    weight_filler {
      type: "xavier"
      std: 0.1
    }
    bias_filler {
      type: "constant"
      value: 0.2
    }
  }
}
layer {
  name: "inception_4a/relu_pool_proj"
  type: "ReLU"
  bottom: "inception_4a/pool_proj"
  top: "inception_4a/pool_proj"
}
layer {
  name: "inception_4a/output"
  type: "Concat"
  bottom: "inception_4a/1x1"
  bottom: "inception_4a/3x3"
  bottom: "inception_4a/5x5"
  bottom: "inception_4a/pool_proj"
  top: "inception_4a/output"
}
layer {
  name: "loss1/ave_pool"
  type: "Pooling"
  bottom: "inception_4a/output"
  top: "loss1/ave_pool"
  pooling_param {
    pool: AVE
    kernel_size: 5
    stride: 3
  }
}
layer {
  name: "loss1/conv"
  type: "Convolution"
  bottom: "loss1/ave_pool"
  top: "loss1/conv"
  param {
    lr_mult: 1
    decay_mult: 1
  }
  param {
    lr_mult: 2
    decay_mult: 0
  }
  convolution_param {
    num_output: 128
    kernel_size: 1
    weight_filler {
      type: "xavier"
      std: 0.08
    }
    bias_filler {
      type: "constant"
      value: 0.2
    }
  }
}
layer {
  name: "loss1/relu_conv"
  type: "ReLU"
  bottom: "loss1/conv"
  top: "loss1/conv"
}
layer {
  name: "loss1/fc"
  type: "InnerProduct"
  bottom: "loss1/conv"
  top: "loss1/fc"
  param {
    lr_mult: 1
    decay_mult: 1
  }
  param {
    lr_mult: 2
    decay_mult: 0
  }
  inner_product_param {
    num_output: 1024
    weight_filler {
      type: "xavier"
      std: 0.02
    }
    bias_filler {
      type: "constant"
      value: 0.2
    }
  }
}
layer {
  name: "loss1/relu_fc"
  type: "ReLU"
  bottom: "loss1/fc"
  top: "loss1/fc"
}
layer {
  name: "loss1/drop_fc"
  type: "Dropout"
  bottom: "loss1/fc"
  top: "loss1/fc"
  dropout_param {
    dropout_ratio: 0.7
  }
}
layer {
  name: "loss1/classifier_plantvillage"
  type: "InnerProduct"
  bottom: "loss1/fc"
  top: "loss1/classifier_plantvillage"
  param {
    lr_mult: 1
    decay_mult: 1
  }
  param {
    lr_mult: 2
    decay_mult: 0
  }
  inner_product_param {
    num_output: 38
    weight_filler {
      type: "xavier"
      std: 0.0009765625
    }
    bias_filler {
      type: "constant"
      value: 0
    }
  }
}
layer {
  name: "inception_4b/1x1"
  type: "Convolution"
  bottom: "inception_4a/output"
  top: "inception_4b/1x1"
  param {
    lr_mult: 1
    decay_mult: 1
  }
  param {
    lr_mult: 2
    decay_mult: 0
  }
  convolution_param {
    num_output: 160
    kernel_size: 1
    weight_filler {
      type: "xavier"
      std: 0.03
    }
    bias_filler {
      type: "constant"
      value: 0.2
    }
  }
}
layer {
  name: "inception_4b/relu_1x1"
  type: "ReLU"
  bottom: "inception_4b/1x1"
  top: "inception_4b/1x1"
}
layer {
  name: "inception_4b/3x3_reduce"
  type: "Convolution"
  bottom: "inception_4a/output"
  top: "inception_4b/3x3_reduce"
  param {
    lr_mult: 1
    decay_mult: 1
  }
  param {
    lr_mult: 2
    decay_mult: 0
  }
  convolution_param {
    num_output: 112
    kernel_size: 1
    weight_filler {
      type: "xavier"
      std: 0.09
    }
    bias_filler {
      type: "constant"
      value: 0.2
    }
  }
}
layer {
  name: "inception_4b/relu_3x3_reduce"
  type: "ReLU"
  bottom: "inception_4b/3x3_reduce"
  top: "inception_4b/3x3_reduce"
}
layer {
  name: "inception_4b/3x3"
  type: "Convolution"
  bottom: "inception_4b/3x3_reduce"
  top: "inception_4b/3x3"
  param {
    lr_mult: 1
    decay_mult: 1
  }
  param {
    lr_mult: 2
    decay_mult: 0
  }
  convolution_param {
    num_output: 224
    pad: 1
    kernel_size: 3
    weight_filler {
      type: "xavier"
      std: 0.03
    }
    bias_filler {
      type: "constant"
      value: 0.2
    }
  }
}
layer {
  name: "inception_4b/relu_3x3"
  type: "ReLU"
  bottom: "inception_4b/3x3"
  top: "inception_4b/3x3"
}
layer {
  name: "inception_4b/5x5_reduce"
  type: "Convolution"
  bottom: "inception_4a/output"
  top: "inception_4b/5x5_reduce"
  param {
    lr_mult: 1
    decay_mult: 1
  }
  param {
    lr_mult: 2
    decay_mult: 0
  }
  convolution_param {
    num_output: 24
    kernel_size: 1
    weight_filler {
      type: "xavier"
      std: 0.2
    }
    bias_filler {
      type: "constant"
      value: 0.2
    }
  }
}
layer {
  name: "inception_4b/relu_5x5_reduce"
  type: "ReLU"
  bottom: "inception_4b/5x5_reduce"
  top: "inception_4b/5x5_reduce"
}
layer {
  name: "inception_4b/5x5"
  type: "Convolution"
  bottom: "inception_4b/5x5_reduce"
  top: "inception_4b/5x5"
  param {
    lr_mult: 1
    decay_mult: 1
  }
  param {
    lr_mult: 2
    decay_mult: 0
  }
  convolution_param {
    num_output: 64
    pad: 2
    kernel_size: 5
    weight_filler {
      type: "xavier"
      std: 0.03
    }
    bias_filler {
      type: "constant"
      value: 0.2
    }
  }
}
layer {
  name: "inception_4b/relu_5x5"
  type: "ReLU"
  bottom: "inception_4b/5x5"
  top: "inception_4b/5x5"
}
layer {
  name: "inception_4b/pool"
  type: "Pooling"
  bottom: "inception_4a/output"
  top: "inception_4b/pool"
  pooling_param {
    pool: MAX
    kernel_size: 3
    stride: 1
    pad: 1
  }
}
layer {
  name: "inception_4b/pool_proj"
  type: "Convolution"
  bottom: "inception_4b/pool"
  top: "inception_4b/pool_proj"
  param {
    lr_mult: 1
    decay_mult: 1
  }
  param {
    lr_mult: 2
    decay_mult: 0
  }
  convolution_param {
    num_output: 64
    kernel_size: 1
    weight_filler {
      type: "xavier"
      std: 0.1
    }
    bias_filler {
      type: "constant"
      value: 0.2
    }
  }
}
layer {
  name: "inception_4b/relu_pool_proj"
  type: "ReLU"
  bottom: "inception_4b/pool_proj"
  top: "inception_4b/pool_proj"
}
layer {
  name: "inception_4b/output"
  type: "Concat"
  bottom: "inception_4b/1x1"
  bottom: "inception_4b/3x3"
  bottom: "inception_4b/5x5"
  bottom: "inception_4b/pool_proj"
  top: "inception_4b/output"
}
layer {
  name: "inception_4c/1x1"
  type: "Convolution"
  bottom: "inception_4b/output"
  top: "inception_4c/1x1"
  param {
    lr_mult: 1
    decay_mult: 1
  }
  param {
    lr_mult: 2
    decay_mult: 0
  }
  convolution_param {
    num_output: 128
    kernel_size: 1
    weight_filler {
      type: "xavier"
      std: 0.03
    }
    bias_filler {
      type: "constant"
      value: 0.2
    }
  }
}
layer {
  name: "inception_4c/relu_1x1"
  type: "ReLU"
  bottom: "inception_4c/1x1"
  top: "inception_4c/1x1"
}
layer {
  name: "inception_4c/3x3_reduce"
  type: "Convolution"
  bottom: "inception_4b/output"
  top: "inception_4c/3x3_reduce"
  param {
    lr_mult: 1
    decay_mult: 1
  }
  param {
    lr_mult: 2
    decay_mult: 0
  }
  convolution_param {
    num_output: 128
    kernel_size: 1
    weight_filler {
      type: "xavier"
      std: 0.09
    }
    bias_filler {
      type: "constant"
      value: 0.2
    }
  }
}
layer {
  name: "inception_4c/relu_3x3_reduce"
  type: "ReLU"
  bottom: "inception_4c/3x3_reduce"
  top: "inception_4c/3x3_reduce"
}
layer {
  name: "inception_4c/3x3"
  type: "Convolution"
  bottom: "inception_4c/3x3_reduce"
  top: "inception_4c/3x3"
  param {
    lr_mult: 1
    decay_mult: 1
  }
  param {
    lr_mult: 2
    decay_mult: 0
  }
  convolution_param {
    num_output: 256
    pad: 1
    kernel_size: 3
    weight_filler {
      type: "xavier"
      std: 0.03
    }
    bias_filler {
      type: "constant"
      value: 0.2
    }
  }
}
layer {
  name: "inception_4c/relu_3x3"
  type: "ReLU"
  bottom: "inception_4c/3x3"
  top: "inception_4c/3x3"
}
layer {
  name: "inception_4c/5x5_reduce"
  type: "Convolution"
  bottom: "inception_4b/output"
  top: "inception_4c/5x5_reduce"
  param {
    lr_mult: 1
    decay_mult: 1
  }
  param {
    lr_mult: 2
    decay_mult: 0
  }
  convolution_param {
    num_output: 24
    kernel_size: 1
    weight_filler {
      type: "xavier"
      std: 0.2
    }
    bias_filler {
      type: "constant"
      value: 0.2
    }
  }
}
layer {
  name: "inception_4c/relu_5x5_reduce"
  type: "ReLU"
  bottom: "inception_4c/5x5_reduce"
  top: "inception_4c/5x5_reduce"
}
layer {
  name: "inception_4c/5x5"
  type: "Convolution"
  bottom: "inception_4c/5x5_reduce"
  top: "inception_4c/5x5"
  param {
    lr_mult: 1
    decay_mult: 1
  }
  param {
    lr_mult: 2
    decay_mult: 0
  }
  convolution_param {
    num_output: 64
    pad: 2
    kernel_size: 5
    weight_filler {
      type: "xavier"
      std: 0.03
    }
    bias_filler {
      type: "constant"
      value: 0.2
    }
  }
}
layer {
  name: "inception_4c/relu_5x5"
  type: "ReLU"
  bottom: "inception_4c/5x5"
  top: "inception_4c/5x5"
}
layer {
  name: "inception_4c/pool"
  type: "Pooling"
  bottom: "inception_4b/output"
  top: "inception_4c/pool"
  pooling_param {
    pool: MAX
    kernel_size: 3
    stride: 1
    pad: 1
  }
}
layer {
  name: "inception_4c/pool_proj"
  type: "Convolution"
  bottom: "inception_4c/pool"
  top: "inception_4c/pool_proj"
  param {
    lr_mult: 1
    decay_mult: 1
  }
  param {
    lr_mult: 2
    decay_mult: 0
  }
  convolution_param {
    num_output: 64
    kernel_size: 1
    weight_filler {
      type: "xavier"
      std: 0.1
    }
    bias_filler {
      type: "constant"
      value: 0.2
    }
  }
}
layer {
  name: "inception_4c/relu_pool_proj"
  type: "ReLU"
  bottom: "inception_4c/pool_proj"
  top: "inception_4c/pool_proj"
}
layer {
  name: "inception_4c/output"
  type: "Concat"
  bottom: "inception_4c/1x1"
  bottom: "inception_4c/3x3"
  bottom: "inception_4c/5x5"
  bottom: "inception_4c/pool_proj"
  top: "inception_4c/output"
}
layer {
  name: "inception_4d/1x1"
  type: "Convolution"
  bottom: "inception_4c/output"
  top: "inception_4d/1x1"
  param {
    lr_mult: 1
    decay_mult: 1
  }
  param {
    lr_mult: 2
    decay_mult: 0
  }
  convolution_param {
    num_output: 112
    kernel_size: 1
    weight_filler {
      type: "xavier"
      std: 0.03
    }
    bias_filler {
      type: "constant"
      value: 0.2
    }
  }
}
layer {
  name: "inception_4d/relu_1x1"
  type: "ReLU"
  bottom: "inception_4d/1x1"
  top: "inception_4d/1x1"
}
layer {
  name: "inception_4d/3x3_reduce"
  type: "Convolution"
  bottom: "inception_4c/output"
  top: "inception_4d/3x3_reduce"
  param {
    lr_mult: 1
    decay_mult: 1
  }
  param {
    lr_mult: 2
    decay_mult: 0
  }
  convolution_param {
    num_output: 144
    kernel_size: 1
    weight_filler {
      type: "xavier"
      std: 0.09
    }
    bias_filler {
      type: "constant"
      value: 0.2
    }
  }
}
layer {
  name: "inception_4d/relu_3x3_reduce"
  type: "ReLU"
  bottom: "inception_4d/3x3_reduce"
  top: "inception_4d/3x3_reduce"
}
layer {
  name: "inception_4d/3x3"
  type: "Convolution"
  bottom: "inception_4d/3x3_reduce"
  top: "inception_4d/3x3"
  param {
    lr_mult: 1
    decay_mult: 1
  }
  param {
    lr_mult: 2
    decay_mult: 0
  }
  convolution_param {
    num_output: 288
    pad: 1
    kernel_size: 3
    weight_filler {
      type: "xavier"
      std: 0.03
    }
    bias_filler {
      type: "constant"
      value: 0.2
    }
  }
}
layer {
  name: "inception_4d/relu_3x3"
  type: "ReLU"
  bottom: "inception_4d/3x3"
  top: "inception_4d/3x3"
}
layer {
  name: "inception_4d/5x5_reduce"
  type: "Convolution"
  bottom: "inception_4c/output"
  top: "inception_4d/5x5_reduce"
  param {
    lr_mult: 1
    decay_mult: 1
  }
  param {
    lr_mult: 2
    decay_mult: 0
  }
  convolution_param {
    num_output: 32
    kernel_size: 1
    weight_filler {
      type: "xavier"
      std: 0.2
    }
    bias_filler {
      type: "constant"
      value: 0.2
    }
  }
}
layer {
  name: "inception_4d/relu_5x5_reduce"
  type: "ReLU"
  bottom: "inception_4d/5x5_reduce"
  top: "inception_4d/5x5_reduce"
}
layer {
  name: "inception_4d/5x5"
  type: "Convolution"
  bottom: "inception_4d/5x5_reduce"
  top: "inception_4d/5x5"
  param {
    lr_mult: 1
    decay_mult: 1
  }
  param {
    lr_mult: 2
    decay_mult: 0
  }
  convolution_param {
    num_output: 64
    pad: 2
    kernel_size: 5
    weight_filler {
      type: "xavier"
      std: 0.03
    }
    bias_filler {
      type: "constant"
      value: 0.2
    }
  }
}
layer {
  name: "inception_4d/relu_5x5"
  type: "ReLU"
  bottom: "inception_4d/5x5"
  top: "inception_4d/5x5"
}
layer {
  name: "inception_4d/pool"
  type: "Pooling"
  bottom: "inception_4c/output"
  top: "inception_4d/pool"
  pooling_param {
    pool: MAX
    kernel_size: 3
    stride: 1
    pad: 1
  }
}
layer {
  name: "inception_4d/pool_proj"
  type: "Convolution"
  bottom: "inception_4d/pool"
  top: "inception_4d/pool_proj"
  param {
    lr_mult: 1
    decay_mult: 1
  }
  param {
    lr_mult: 2
    decay_mult: 0
  }
  convolution_param {
    num_output: 64
    kernel_size: 1
    weight_filler {
      type: "xavier"
      std: 0.1
    }
    bias_filler {
      type: "constant"
      value: 0.2
    }
  }
}
layer {
  name: "inception_4d/relu_pool_proj"
  type: "ReLU"
  bottom: "inception_4d/pool_proj"
  top: "inception_4d/pool_proj"
}
layer {
  name: "inception_4d/output"
  type: "Concat"
  bottom: "inception_4d/1x1"
  bottom: "inception_4d/3x3"
  bottom: "inception_4d/5x5"
  bottom: "inception_4d/pool_proj"
  top: "inception_4d/output"
}
layer {
  name: "loss2/ave_pool"
  type: "Pooling"
  bottom: "inception_4d/output"
  top: "loss2/ave_pool"
  pooling_param {
    pool: AVE
    kernel_size: 5
    stride: 3
  }
}
layer {
  name: "loss2/conv"
  type: "Convolution"
  bottom: "loss2/ave_pool"
  top: "loss2/conv"
  param {
    lr_mult: 1
    decay_mult: 1
  }
  param {
    lr_mult: 2
    decay_mult: 0
  }
  convolution_param {
    num_output: 128
    kernel_size: 1
    weight_filler {
      type: "xavier"
      std: 0.08
    }
    bias_filler {
      type: "constant"
      value: 0.2
    }
  }
}
layer {
  name: "loss2/relu_conv"
  type: "ReLU"
  bottom: "loss2/conv"
  top: "loss2/conv"
}
layer {
  name: "loss2/fc"
  type: "InnerProduct"
  bottom: "loss2/conv"
  top: "loss2/fc"
  param {
    lr_mult: 1
    decay_mult: 1
  }
  param {
    lr_mult: 2
    decay_mult: 0
  }
  inner_product_param {
    num_output: 1024
    weight_filler {
      type: "xavier"
      std: 0.02
    }
    bias_filler {
      type: "constant"
      value: 0.2
    }
  }
}
layer {
  name: "loss2/relu_fc"
  type: "ReLU"
  bottom: "loss2/fc"
  top: "loss2/fc"
}
layer {
  name: "loss2/drop_fc"
  type: "Dropout"
  bottom: "loss2/fc"
  top: "loss2/fc"
  dropout_param {
    dropout_ratio: 0.7
  }
}
layer {
  name: "loss2/classifier_plantvillage"
  type: "InnerProduct"
  bottom: "loss2/fc"
  top: "loss2/classifier_plantvillage"
  param {
    lr_mult: 1
    decay_mult: 1
  }
  param {
    lr_mult: 2
    decay_mult: 0
  }
  inner_product_param {
    num_output: 38
    weight_filler {
      type: "xavier"
      std: 0.0009765625
    }
    bias_filler {
      type: "constant"
      value: 0
    }
  }
}
layer {
  name: "inception_4e/1x1"
  type: "Convolution"
  bottom: "inception_4d/output"
  top: "inception_4e/1x1"
  param {
    lr_mult: 1
    decay_mult: 1
  }
  param {
    lr_mult: 2
    decay_mult: 0
  }
  convolution_param {
    num_output: 256
    kernel_size: 1
    weight_filler {
      type: "xavier"
      std: 0.03
    }
    bias_filler {
      type: "constant"
      value: 0.2
    }
  }
}
layer {
  name: "inception_4e/relu_1x1"
  type: "ReLU"
  bottom: "inception_4e/1x1"
  top: "inception_4e/1x1"
}
layer {
  name: "inception_4e/3x3_reduce"
  type: "Convolution"
  bottom: "inception_4d/output"
  top: "inception_4e/3x3_reduce"
  param {
    lr_mult: 1
    decay_mult: 1
  }
  param {
    lr_mult: 2
    decay_mult: 0
  }
  convolution_param {
    num_output: 160
    kernel_size: 1
    weight_filler {
      type: "xavier"
      std: 0.09
    }
    bias_filler {
      type: "constant"
      value: 0.2
    }
  }
}
layer {
  name: "inception_4e/relu_3x3_reduce"
  type: "ReLU"
  bottom: "inception_4e/3x3_reduce"
  top: "inception_4e/3x3_reduce"
}
layer {
  name: "inception_4e/3x3"
  type: "Convolution"
  bottom: "inception_4e/3x3_reduce"
  top: "inception_4e/3x3"
  param {
    lr_mult: 1
    decay_mult: 1
  }
  param {
    lr_mult: 2
    decay_mult: 0
  }
  convolution_param {
    num_output: 320
    pad: 1
    kernel_size: 3
    weight_filler {
      type: "xavier"
      std: 0.03
    }
    bias_filler {
      type: "constant"
      value: 0.2
    }
  }
}
layer {
  name: "inception_4e/relu_3x3"
  type: "ReLU"
  bottom: "inception_4e/3x3"
  top: "inception_4e/3x3"
}
layer {
  name: "inception_4e/5x5_reduce"
  type: "Convolution"
  bottom: "inception_4d/output"
  top: "inception_4e/5x5_reduce"
  param {
    lr_mult: 1
    decay_mult: 1
  }
  param {
    lr_mult: 2
    decay_mult: 0
  }
  convolution_param {
    num_output: 32
    kernel_size: 1
    weight_filler {
      type: "xavier"
      std: 0.2
    }
    bias_filler {
      type: "constant"
      value: 0.2
    }
  }
}
layer {
  name: "inception_4e/relu_5x5_reduce"
  type: "ReLU"
  bottom: "inception_4e/5x5_reduce"
  top: "inception_4e/5x5_reduce"
}
layer {
  name: "inception_4e/5x5"
  type: "Convolution"
  bottom: "inception_4e/5x5_reduce"
  top: "inception_4e/
I0403 17:47:40.594588 15016 layer_factory.hpp:77] Creating layer data
I0403 17:47:40.595185 15016 net.cpp:91] Creating Layer data
I0403 17:47:40.595214 15016 net.cpp:399] data -> data
I0403 17:47:40.595265 15016 net.cpp:399] data -> label
I0403 17:47:40.595304 15016 data_transformer.cpp:25] Loading mean file from: /home/mohanty/data/final_dataset/lmdb/grayscale-60-40/mean.binaryproto
I0403 17:47:40.596421 15018 db_lmdb.cpp:38] Opened lmdb /home/mohanty/data/final_dataset/lmdb/grayscale-60-40/test_db
I0403 17:47:40.608058 15016 data_layer.cpp:41] output data size: 24,3,224,224
I0403 17:47:40.634125 15016 net.cpp:141] Setting up data
I0403 17:47:40.634207 15016 net.cpp:148] Top shape: 24 3 224 224 (3612672)
I0403 17:47:40.634232 15016 net.cpp:148] Top shape: 24 (24)
I0403 17:47:40.634248 15016 net.cpp:156] Memory required for data: 14450784
I0403 17:47:40.634277 15016 layer_factory.hpp:77] Creating layer label_data_1_split
I0403 17:47:40.634305 15016 net.cpp:91] Creating Layer label_data_1_split
I0403 17:47:40.634325 15016 net.cpp:425] label_data_1_split <- label
I0403 17:47:40.634356 15016 net.cpp:399] label_data_1_split -> label_data_1_split_0
I0403 17:47:40.634387 15016 net.cpp:399] label_data_1_split -> label_data_1_split_1
I0403 17:47:40.634409 15016 net.cpp:399] label_data_1_split -> label_data_1_split_2
I0403 17:47:40.634431 15016 net.cpp:399] label_data_1_split -> label_data_1_split_3
I0403 17:47:40.634454 15016 net.cpp:399] label_data_1_split -> label_data_1_split_4
I0403 17:47:40.634474 15016 net.cpp:399] label_data_1_split -> label_data_1_split_5
I0403 17:47:40.634495 15016 net.cpp:399] label_data_1_split -> label_data_1_split_6
I0403 17:47:40.634515 15016 net.cpp:399] label_data_1_split -> label_data_1_split_7
I0403 17:47:40.634533 15016 net.cpp:399] label_data_1_split -> label_data_1_split_8
I0403 17:47:40.634554 15016 net.cpp:399] label_data_1_split -> label_data_1_split_9
I0403 17:47:40.634668 15016 net.cpp:141] Setting up label_data_1_split
I0403 17:47:40.634692 15016 net.cpp:148] Top shape: 24 (24)
I0403 17:47:40.634709 15016 net.cpp:148] Top shape: 24 (24)
I0403 17:47:40.634726 15016 net.cpp:148] Top shape: 24 (24)
I0403 17:47:40.634742 15016 net.cpp:148] Top shape: 24 (24)
I0403 17:47:40.634757 15016 net.cpp:148] Top shape: 24 (24)
I0403 17:47:40.634773 15016 net.cpp:148] Top shape: 24 (24)
I0403 17:47:40.634789 15016 net.cpp:148] Top shape: 24 (24)
I0403 17:47:40.634805 15016 net.cpp:148] Top shape: 24 (24)
I0403 17:47:40.634821 15016 net.cpp:148] Top shape: 24 (24)
I0403 17:47:40.634837 15016 net.cpp:148] Top shape: 24 (24)
I0403 17:47:40.634873 15016 net.cpp:156] Memory required for data: 14451744
I0403 17:47:40.634891 15016 layer_factory.hpp:77] Creating layer conv1/7x7_s2
I0403 17:47:40.634922 15016 net.cpp:91] Creating Layer conv1/7x7_s2
I0403 17:47:40.634940 15016 net.cpp:425] conv1/7x7_s2 <- data
I0403 17:47:40.634965 15016 net.cpp:399] conv1/7x7_s2 -> conv1/7x7_s2
I0403 17:47:40.770679 15016 net.cpp:141] Setting up conv1/7x7_s2
I0403 17:47:40.770766 15016 net.cpp:148] Top shape: 24 64 112 112 (19267584)
I0403 17:47:40.770786 15016 net.cpp:156] Memory required for data: 91522080
I0403 17:47:40.770817 15016 layer_factory.hpp:77] Creating layer conv1/relu_7x7
I0403 17:47:40.770844 15016 net.cpp:91] Creating Layer conv1/relu_7x7
I0403 17:47:40.770864 15016 net.cpp:425] conv1/relu_7x7 <- conv1/7x7_s2
I0403 17:47:40.770884 15016 net.cpp:386] conv1/relu_7x7 -> conv1/7x7_s2 (in-place)
I0403 17:47:40.771158 15016 net.cpp:141] Setting up conv1/relu_7x7
I0403 17:47:40.771188 15016 net.cpp:148] Top shape: 24 64 112 112 (19267584)
I0403 17:47:40.771205 15016 net.cpp:156] Memory required for data: 168592416
I0403 17:47:40.771220 15016 layer_factory.hpp:77] Creating layer pool1/3x3_s2
I0403 17:47:40.771245 15016 net.cpp:91] Creating Layer pool1/3x3_s2
I0403 17:47:40.771265 15016 net.cpp:425] pool1/3x3_s2 <- conv1/7x7_s2
I0403 17:47:40.771286 15016 net.cpp:399] pool1/3x3_s2 -> pool1/3x3_s2
I0403 17:47:40.771366 15016 net.cpp:141] Setting up pool1/3x3_s2
I0403 17:47:40.771391 15016 net.cpp:148] Top shape: 24 64 56 56 (4816896)
I0403 17:47:40.771407 15016 net.cpp:156] Memory required for data: 187860000
I0403 17:47:40.771421 15016 layer_factory.hpp:77] Creating layer pool1/norm1
I0403 17:47:40.771448 15016 net.cpp:91] Creating Layer pool1/norm1
I0403 17:47:40.771467 15016 net.cpp:425] pool1/norm1 <- pool1/3x3_s2
I0403 17:47:40.771486 15016 net.cpp:399] pool1/norm1 -> pool1/norm1
I0403 17:47:40.771807 15016 net.cpp:141] Setting up pool1/norm1
I0403 17:47:40.771837 15016 net.cpp:148] Top shape: 24 64 56 56 (4816896)
I0403 17:47:40.771854 15016 net.cpp:156] Memory required for data: 207127584
I0403 17:47:40.771869 15016 layer_factory.hpp:77] Creating layer conv2/3x3_reduce
I0403 17:47:40.771898 15016 net.cpp:91] Creating Layer conv2/3x3_reduce
I0403 17:47:40.771916 15016 net.cpp:425] conv2/3x3_reduce <- pool1/norm1
I0403 17:47:40.771935 15016 net.cpp:399] conv2/3x3_reduce -> conv2/3x3_reduce
I0403 17:47:40.773336 15016 net.cpp:141] Setting up conv2/3x3_reduce
I0403 17:47:40.773372 15016 net.cpp:148] Top shape: 24 64 56 56 (4816896)
I0403 17:47:40.773391 15016 net.cpp:156] Memory required for data: 226395168
I0403 17:47:40.773413 15016 layer_factory.hpp:77] Creating layer conv2/relu_3x3_reduce
I0403 17:47:40.773435 15016 net.cpp:91] Creating Layer conv2/relu_3x3_reduce
I0403 17:47:40.773453 15016 net.cpp:425] conv2/relu_3x3_reduce <- conv2/3x3_reduce
I0403 17:47:40.773470 15016 net.cpp:386] conv2/relu_3x3_reduce -> conv2/3x3_reduce (in-place)
I0403 17:47:40.773735 15016 net.cpp:141] Setting up conv2/relu_3x3_reduce
I0403 17:47:40.773761 15016 net.cpp:148] Top shape: 24 64 56 56 (4816896)
I0403 17:47:40.773775 15016 net.cpp:156] Memory required for data: 245662752
I0403 17:47:40.773792 15016 layer_factory.hpp:77] Creating layer conv2/3x3
I0403 17:47:40.773816 15016 net.cpp:91] Creating Layer conv2/3x3
I0403 17:47:40.773834 15016 net.cpp:425] conv2/3x3 <- conv2/3x3_reduce
I0403 17:47:40.773859 15016 net.cpp:399] conv2/3x3 -> conv2/3x3
I0403 17:47:40.776171 15016 net.cpp:141] Setting up conv2/3x3
I0403 17:47:40.776201 15016 net.cpp:148] Top shape: 24 192 56 56 (14450688)
I0403 17:47:40.776218 15016 net.cpp:156] Memory required for data: 303465504
I0403 17:47:40.776239 15016 layer_factory.hpp:77] Creating layer conv2/relu_3x3
I0403 17:47:40.776262 15016 net.cpp:91] Creating Layer conv2/relu_3x3
I0403 17:47:40.776279 15016 net.cpp:425] conv2/relu_3x3 <- conv2/3x3
I0403 17:47:40.776298 15016 net.cpp:386] conv2/relu_3x3 -> conv2/3x3 (in-place)
I0403 17:47:40.776474 15016 net.cpp:141] Setting up conv2/relu_3x3
I0403 17:47:40.776502 15016 net.cpp:148] Top shape: 24 192 56 56 (14450688)
I0403 17:47:40.776549 15016 net.cpp:156] Memory required for data: 361268256
I0403 17:47:40.776566 15016 layer_factory.hpp:77] Creating layer conv2/norm2
I0403 17:47:40.776584 15016 net.cpp:91] Creating Layer conv2/norm2
I0403 17:47:40.776602 15016 net.cpp:425] conv2/norm2 <- conv2/3x3
I0403 17:47:40.776623 15016 net.cpp:399] conv2/norm2 -> conv2/norm2
I0403 17:47:40.776926 15016 net.cpp:141] Setting up conv2/norm2
I0403 17:47:40.776957 15016 net.cpp:148] Top shape: 24 192 56 56 (14450688)
I0403 17:47:40.776974 15016 net.cpp:156] Memory required for data: 419071008
I0403 17:47:40.776993 15016 layer_factory.hpp:77] Creating layer pool2/3x3_s2
I0403 17:47:40.777014 15016 net.cpp:91] Creating Layer pool2/3x3_s2
I0403 17:47:40.777032 15016 net.cpp:425] pool2/3x3_s2 <- conv2/norm2
I0403 17:47:40.777056 15016 net.cpp:399] pool2/3x3_s2 -> pool2/3x3_s2
I0403 17:47:40.777112 15016 net.cpp:141] Setting up pool2/3x3_s2
I0403 17:47:40.777137 15016 net.cpp:148] Top shape: 24 192 28 28 (3612672)
I0403 17:47:40.777151 15016 net.cpp:156] Memory required for data: 433521696
I0403 17:47:40.777166 15016 layer_factory.hpp:77] Creating layer pool2/3x3_s2_pool2/3x3_s2_0_split
I0403 17:47:40.777186 15016 net.cpp:91] Creating Layer pool2/3x3_s2_pool2/3x3_s2_0_split
I0403 17:47:40.777204 15016 net.cpp:425] pool2/3x3_s2_pool2/3x3_s2_0_split <- pool2/3x3_s2
I0403 17:47:40.777225 15016 net.cpp:399] pool2/3x3_s2_pool2/3x3_s2_0_split -> pool2/3x3_s2_pool2/3x3_s2_0_split_0
I0403 17:47:40.777245 15016 net.cpp:399] pool2/3x3_s2_pool2/3x3_s2_0_split -> pool2/3x3_s2_pool2/3x3_s2_0_split_1
I0403 17:47:40.777266 15016 net.cpp:399] pool2/3x3_s2_pool2/3x3_s2_0_split -> pool2/3x3_s2_pool2/3x3_s2_0_split_2
I0403 17:47:40.777287 15016 net.cpp:399] pool2/3x3_s2_pool2/3x3_s2_0_split -> pool2/3x3_s2_pool2/3x3_s2_0_split_3
I0403 17:47:40.777357 15016 net.cpp:141] Setting up pool2/3x3_s2_pool2/3x3_s2_0_split
I0403 17:47:40.777384 15016 net.cpp:148] Top shape: 24 192 28 28 (3612672)
I0403 17:47:40.777401 15016 net.cpp:148] Top shape: 24 192 28 28 (3612672)
I0403 17:47:40.777417 15016 net.cpp:148] Top shape: 24 192 28 28 (3612672)
I0403 17:47:40.777433 15016 net.cpp:148] Top shape: 24 192 28 28 (3612672)
I0403 17:47:40.777447 15016 net.cpp:156] Memory required for data: 491324448
I0403 17:47:40.777462 15016 layer_factory.hpp:77] Creating layer inception_3a/1x1
I0403 17:47:40.777483 15016 net.cpp:91] Creating Layer inception_3a/1x1
I0403 17:47:40.777501 15016 net.cpp:425] inception_3a/1x1 <- pool2/3x3_s2_pool2/3x3_s2_0_split_0
I0403 17:47:40.777523 15016 net.cpp:399] inception_3a/1x1 -> inception_3a/1x1
I0403 17:47:40.779052 15016 net.cpp:141] Setting up inception_3a/1x1
I0403 17:47:40.779081 15016 net.cpp:148] Top shape: 24 64 28 28 (1204224)
I0403 17:47:40.779098 15016 net.cpp:156] Memory required for data: 496141344
I0403 17:47:40.779117 15016 layer_factory.hpp:77] Creating layer inception_3a/relu_1x1
I0403 17:47:40.779141 15016 net.cpp:91] Creating Layer inception_3a/relu_1x1
I0403 17:47:40.779160 15016 net.cpp:425] inception_3a/relu_1x1 <- inception_3a/1x1
I0403 17:47:40.779180 15016 net.cpp:386] inception_3a/relu_1x1 -> inception_3a/1x1 (in-place)
I0403 17:47:40.779355 15016 net.cpp:141] Setting up inception_3a/relu_1x1
I0403 17:47:40.779381 15016 net.cpp:148] Top shape: 24 64 28 28 (1204224)
I0403 17:47:40.779397 15016 net.cpp:156] Memory required for data: 500958240
I0403 17:47:40.779412 15016 layer_factory.hpp:77] Creating layer inception_3a/3x3_reduce
I0403 17:47:40.779438 15016 net.cpp:91] Creating Layer inception_3a/3x3_reduce
I0403 17:47:40.779458 15016 net.cpp:425] inception_3a/3x3_reduce <- pool2/3x3_s2_pool2/3x3_s2_0_split_1
I0403 17:47:40.779479 15016 net.cpp:399] inception_3a/3x3_reduce -> inception_3a/3x3_reduce
I0403 17:47:40.781155 15016 net.cpp:141] Setting up inception_3a/3x3_reduce
I0403 17:47:40.781185 15016 net.cpp:148] Top shape: 24 96 28 28 (1806336)
I0403 17:47:40.781201 15016 net.cpp:156] Memory required for data: 508183584
I0403 17:47:40.781224 15016 layer_factory.hpp:77] Creating layer inception_3a/relu_3x3_reduce
I0403 17:47:40.781260 15016 net.cpp:91] Creating Layer inception_3a/relu_3x3_reduce
I0403 17:47:40.781280 15016 net.cpp:425] inception_3a/relu_3x3_reduce <- inception_3a/3x3_reduce
I0403 17:47:40.781301 15016 net.cpp:386] inception_3a/relu_3x3_reduce -> inception_3a/3x3_reduce (in-place)
I0403 17:47:40.781484 15016 net.cpp:141] Setting up inception_3a/relu_3x3_reduce
I0403 17:47:40.781509 15016 net.cpp:148] Top shape: 24 96 28 28 (1806336)
I0403 17:47:40.781524 15016 net.cpp:156] Memory required for data: 515408928
I0403 17:47:40.781540 15016 layer_factory.hpp:77] Creating layer inception_3a/3x3
I0403 17:47:40.781563 15016 net.cpp:91] Creating Layer inception_3a/3x3
I0403 17:47:40.781581 15016 net.cpp:425] inception_3a/3x3 <- inception_3a/3x3_reduce
I0403 17:47:40.781605 15016 net.cpp:399] inception_3a/3x3 -> inception_3a/3x3
I0403 17:47:40.783257 15016 net.cpp:141] Setting up inception_3a/3x3
I0403 17:47:40.783287 15016 net.cpp:148] Top shape: 24 128 28 28 (2408448)
I0403 17:47:40.783303 15016 net.cpp:156] Memory required for data: 525042720
I0403 17:47:40.783323 15016 layer_factory.hpp:77] Creating layer inception_3a/relu_3x3
I0403 17:47:40.783344 15016 net.cpp:91] Creating Layer inception_3a/relu_3x3
I0403 17:47:40.783362 15016 net.cpp:425] inception_3a/relu_3x3 <- inception_3a/3x3
I0403 17:47:40.783381 15016 net.cpp:386] inception_3a/relu_3x3 -> inception_3a/3x3 (in-place)
I0403 17:47:40.783673 15016 net.cpp:141] Setting up inception_3a/relu_3x3
I0403 17:47:40.783699 15016 net.cpp:148] Top shape: 24 128 28 28 (2408448)
I0403 17:47:40.783713 15016 net.cpp:156] Memory required for data: 534676512
I0403 17:47:40.783730 15016 layer_factory.hpp:77] Creating layer inception_3a/5x5_reduce
I0403 17:47:40.783753 15016 net.cpp:91] Creating Layer inception_3a/5x5_reduce
I0403 17:47:40.783771 15016 net.cpp:425] inception_3a/5x5_reduce <- pool2/3x3_s2_pool2/3x3_s2_0_split_2
I0403 17:47:40.783794 15016 net.cpp:399] inception_3a/5x5_reduce -> inception_3a/5x5_reduce
I0403 17:47:40.784749 15016 net.cpp:141] Setting up inception_3a/5x5_reduce
I0403 17:47:40.784778 15016 net.cpp:148] Top shape: 24 16 28 28 (301056)
I0403 17:47:40.784795 15016 net.cpp:156] Memory required for data: 535880736
I0403 17:47:40.784814 15016 layer_factory.hpp:77] Creating layer inception_3a/relu_5x5_reduce
I0403 17:47:40.784833 15016 net.cpp:91] Creating Layer inception_3a/relu_5x5_reduce
I0403 17:47:40.784850 15016 net.cpp:425] inception_3a/relu_5x5_reduce <- inception_3a/5x5_reduce
I0403 17:47:40.784868 15016 net.cpp:386] inception_3a/relu_5x5_reduce -> inception_3a/5x5_reduce (in-place)
I0403 17:47:40.785169 15016 net.cpp:141] Setting up inception_3a/relu_5x5_reduce
I0403 17:47:40.785197 15016 net.cpp:148] Top shape: 24 16 28 28 (301056)
I0403 17:47:40.785213 15016 net.cpp:156] Memory required for data: 537084960
I0403 17:47:40.785228 15016 layer_factory.hpp:77] Creating layer inception_3a/5x5
I0403 17:47:40.785253 15016 net.cpp:91] Creating Layer inception_3a/5x5
I0403 17:47:40.785270 15016 net.cpp:425] inception_3a/5x5 <- inception_3a/5x5_reduce
I0403 17:47:40.785292 15016 net.cpp:399] inception_3a/5x5 -> inception_3a/5x5
I0403 17:47:40.786299 15016 net.cpp:141] Setting up inception_3a/5x5
I0403 17:47:40.786326 15016 net.cpp:148] Top shape: 24 32 28 28 (602112)
I0403 17:47:40.786342 15016 net.cpp:156] Memory required for data: 539493408
I0403 17:47:40.786361 15016 layer_factory.hpp:77] Creating layer inception_3a/relu_5x5
I0403 17:47:40.786382 15016 net.cpp:91] Creating Layer inception_3a/relu_5x5
I0403 17:47:40.786399 15016 net.cpp:425] inception_3a/relu_5x5 <- inception_3a/5x5
I0403 17:47:40.786417 15016 net.cpp:386] inception_3a/relu_5x5 -> inception_3a/5x5 (in-place)
I0403 17:47:40.786588 15016 net.cpp:141] Setting up inception_3a/relu_5x5
I0403 17:47:40.786615 15016 net.cpp:148] Top shape: 24 32 28 28 (602112)
I0403 17:47:40.786633 15016 net.cpp:156] Memory required for data: 541901856
I0403 17:47:40.786648 15016 layer_factory.hpp:77] Creating layer inception_3a/pool
I0403 17:47:40.786666 15016 net.cpp:91] Creating Layer inception_3a/pool
I0403 17:47:40.786696 15016 net.cpp:425] inception_3a/pool <- pool2/3x3_s2_pool2/3x3_s2_0_split_3
I0403 17:47:40.786720 15016 net.cpp:399] inception_3a/pool -> inception_3a/pool
I0403 17:47:40.786777 15016 net.cpp:141] Setting up inception_3a/pool
I0403 17:47:40.786800 15016 net.cpp:148] Top shape: 24 192 28 28 (3612672)
I0403 17:47:40.786816 15016 net.cpp:156] Memory required for data: 556352544
I0403 17:47:40.786831 15016 layer_factory.hpp:77] Creating layer inception_3a/pool_proj
I0403 17:47:40.786854 15016 net.cpp:91] Creating Layer inception_3a/pool_proj
I0403 17:47:40.786872 15016 net.cpp:425] inception_3a/pool_proj <- inception_3a/pool
I0403 17:47:40.786895 15016 net.cpp:399] inception_3a/pool_proj -> inception_3a/pool_proj
I0403 17:47:40.787850 15016 net.cpp:141] Setting up inception_3a/pool_proj
I0403 17:47:40.787878 15016 net.cpp:148] Top shape: 24 32 28 28 (602112)
I0403 17:47:40.787895 15016 net.cpp:156] Memory required for data: 558760992
I0403 17:47:40.787919 15016 layer_factory.hpp:77] Creating layer inception_3a/relu_pool_proj
I0403 17:47:40.787940 15016 net.cpp:91] Creating Layer inception_3a/relu_pool_proj
I0403 17:47:40.787968 15016 net.cpp:425] inception_3a/relu_pool_proj <- inception_3a/pool_proj
I0403 17:47:40.787989 15016 net.cpp:386] inception_3a/relu_pool_proj -> inception_3a/pool_proj (in-place)
I0403 17:47:40.788264 15016 net.cpp:141] Setting up inception_3a/relu_pool_proj
I0403 17:47:40.788291 15016 net.cpp:148] Top shape: 24 32 28 28 (602112)
I0403 17:47:40.788307 15016 net.cpp:156] Memory required for data: 561169440
I0403 17:47:40.788322 15016 layer_factory.hpp:77] Creating layer inception_3a/output
I0403 17:47:40.788344 15016 net.cpp:91] Creating Layer inception_3a/output
I0403 17:47:40.788362 15016 net.cpp:425] inception_3a/output <- inception_3a/1x1
I0403 17:47:40.788379 15016 net.cpp:425] inception_3a/output <- inception_3a/3x3
I0403 17:47:40.788396 15016 net.cpp:425] inception_3a/output <- inception_3a/5x5
I0403 17:47:40.788413 15016 net.cpp:425] inception_3a/output <- inception_3a/pool_proj
I0403 17:47:40.788430 15016 net.cpp:399] inception_3a/output -> inception_3a/output
I0403 17:47:40.788480 15016 net.cpp:141] Setting up inception_3a/output
I0403 17:47:40.788503 15016 net.cpp:148] Top shape: 24 256 28 28 (4816896)
I0403 17:47:40.788518 15016 net.cpp:156] Memory required for data: 580437024
I0403 17:47:40.788534 15016 layer_factory.hpp:77] Creating layer inception_3a/output_inception_3a/output_0_split
I0403 17:47:40.788552 15016 net.cpp:91] Creating Layer inception_3a/output_inception_3a/output_0_split
I0403 17:47:40.788568 15016 net.cpp:425] inception_3a/output_inception_3a/output_0_split <- inception_3a/output
I0403 17:47:40.788589 15016 net.cpp:399] inception_3a/output_inception_3a/output_0_split -> inception_3a/output_inception_3a/output_0_split_0
I0403 17:47:40.788610 15016 net.cpp:399] inception_3a/output_inception_3a/output_0_split -> inception_3a/output_inception_3a/output_0_split_1
I0403 17:47:40.788633 15016 net.cpp:399] inception_3a/output_inception_3a/output_0_split -> inception_3a/output_inception_3a/output_0_split_2
I0403 17:47:40.788657 15016 net.cpp:399] inception_3a/output_inception_3a/output_0_split -> inception_3a/output_inception_3a/output_0_split_3
I0403 17:47:40.788734 15016 net.cpp:141] Setting up inception_3a/output_inception_3a/output_0_split
I0403 17:47:40.788758 15016 net.cpp:148] Top shape: 24 256 28 28 (4816896)
I0403 17:47:40.788775 15016 net.cpp:148] Top shape: 24 256 28 28 (4816896)
I0403 17:47:40.788791 15016 net.cpp:148] Top shape: 24 256 28 28 (4816896)
I0403 17:47:40.788808 15016 net.cpp:148] Top shape: 24 256 28 28 (4816896)
I0403 17:47:40.788822 15016 net.cpp:156] Memory required for data: 657507360
I0403 17:47:40.788838 15016 layer_factory.hpp:77] Creating layer inception_3b/1x1
I0403 17:47:40.788861 15016 net.cpp:91] Creating Layer inception_3b/1x1
I0403 17:47:40.788879 15016 net.cpp:425] inception_3b/1x1 <- inception_3a/output_inception_3a/output_0_split_0
I0403 17:47:40.788900 15016 net.cpp:399] inception_3b/1x1 -> inception_3b/1x1
I0403 17:47:40.790032 15016 net.cpp:141] Setting up inception_3b/1x1
I0403 17:47:40.790071 15016 net.cpp:148] Top shape: 24 128 28 28 (2408448)
I0403 17:47:40.790088 15016 net.cpp:156] Memory required for data: 667141152
I0403 17:47:40.790107 15016 layer_factory.hpp:77] Creating layer inception_3b/relu_1x1
I0403 17:47:40.790128 15016 net.cpp:91] Creating Layer inception_3b/relu_1x1
I0403 17:47:40.790146 15016 net.cpp:425] inception_3b/relu_1x1 <- inception_3b/1x1
I0403 17:47:40.790164 15016 net.cpp:386] inception_3b/relu_1x1 -> inception_3b/1x1 (in-place)
I0403 17:47:40.790339 15016 net.cpp:141] Setting up inception_3b/relu_1x1
I0403 17:47:40.790364 15016 net.cpp:148] Top shape: 24 128 28 28 (2408448)
I0403 17:47:40.790380 15016 net.cpp:156] Memory required for data: 676774944
I0403 17:47:40.790395 15016 layer_factory.hpp:77] Creating layer inception_3b/3x3_reduce
I0403 17:47:40.790417 15016 net.cpp:91] Creating Layer inception_3b/3x3_reduce
I0403 17:47:40.790436 15016 net.cpp:425] inception_3b/3x3_reduce <- inception_3a/output_inception_3a/output_0_split_1
I0403 17:47:40.790458 15016 net.cpp:399] inception_3b/3x3_reduce -> inception_3b/3x3_reduce
I0403 17:47:40.791579 15016 net.cpp:141] Setting up inception_3b/3x3_reduce
I0403 17:47:40.791606 15016 net.cpp:148] Top shape: 24 128 28 28 (2408448)
I0403 17:47:40.791622 15016 net.cpp:156] Memory required for data: 686408736
I0403 17:47:40.791641 15016 layer_factory.hpp:77] Creating layer inception_3b/relu_3x3_reduce
I0403 17:47:40.791663 15016 net.cpp:91] Creating Layer inception_3b/relu_3x3_reduce
I0403 17:47:40.791682 15016 net.cpp:425] inception_3b/relu_3x3_reduce <- inception_3b/3x3_reduce
I0403 17:47:40.791699 15016 net.cpp:386] inception_3b/relu_3x3_reduce -> inception_3b/3x3_reduce (in-place)
I0403 17:47:40.791873 15016 net.cpp:141] Setting up inception_3b/relu_3x3_reduce
I0403 17:47:40.791898 15016 net.cpp:148] Top shape: 24 128 28 28 (2408448)
I0403 17:47:40.791914 15016 net.cpp:156] Memory required for data: 696042528
I0403 17:47:40.791930 15016 layer_factory.hpp:77] Creating layer inception_3b/3x3
I0403 17:47:40.791960 15016 net.cpp:91] Creating Layer inception_3b/3x3
I0403 17:47:40.791980 15016 net.cpp:425] inception_3b/3x3 <- inception_3b/3x3_reduce
I0403 17:47:40.792001 15016 net.cpp:399] inception_3b/3x3 -> inception_3b/3x3
I0403 17:47:40.794903 15016 net.cpp:141] Setting up inception_3b/3x3
I0403 17:47:40.794934 15016 net.cpp:148] Top shape: 24 192 28 28 (3612672)
I0403 17:47:40.794955 15016 net.cpp:156] Memory required for data: 710493216
I0403 17:47:40.794975 15016 layer_factory.hpp:77] Creating layer inception_3b/relu_3x3
I0403 17:47:40.794996 15016 net.cpp:91] Creating Layer inception_3b/relu_3x3
I0403 17:47:40.795014 15016 net.cpp:425] inception_3b/relu_3x3 <- inception_3b/3x3
I0403 17:47:40.795032 15016 net.cpp:386] inception_3b/relu_3x3 -> inception_3b/3x3 (in-place)
I0403 17:47:40.795318 15016 net.cpp:141] Setting up inception_3b/relu_3x3
I0403 17:47:40.795346 15016 net.cpp:148] Top shape: 24 192 28 28 (3612672)
I0403 17:47:40.795361 15016 net.cpp:156] Memory required for data: 724943904
I0403 17:47:40.795377 15016 layer_factory.hpp:77] Creating layer inception_3b/5x5_reduce
I0403 17:47:40.795403 15016 net.cpp:91] Creating Layer inception_3b/5x5_reduce
I0403 17:47:40.795423 15016 net.cpp:425] inception_3b/5x5_reduce <- inception_3a/output_inception_3a/output_0_split_2
I0403 17:47:40.795445 15016 net.cpp:399] inception_3b/5x5_reduce -> inception_3b/5x5_reduce
I0403 17:47:40.796452 15016 net.cpp:141] Setting up inception_3b/5x5_reduce
I0403 17:47:40.796480 15016 net.cpp:148] Top shape: 24 32 28 28 (602112)
I0403 17:47:40.796495 15016 net.cpp:156] Memory required for data: 727352352
I0403 17:47:40.796514 15016 layer_factory.hpp:77] Creating layer inception_3b/relu_5x5_reduce
I0403 17:47:40.796535 15016 net.cpp:91] Creating Layer inception_3b/relu_5x5_reduce
I0403 17:47:40.796555 15016 net.cpp:425] inception_3b/relu_5x5_reduce <- inception_3b/5x5_reduce
I0403 17:47:40.796571 15016 net.cpp:386] inception_3b/relu_5x5_reduce -> inception_3b/5x5_reduce (in-place)
I0403 17:47:40.796766 15016 net.cpp:141] Setting up inception_3b/relu_5x5_reduce
I0403 17:47:40.796794 15016 net.cpp:148] Top shape: 24 32 28 28 (602112)
I0403 17:47:40.796810 15016 net.cpp:156] Memory required for data: 729760800
I0403 17:47:40.796828 15016 layer_factory.hpp:77] Creating layer inception_3b/5x5
I0403 17:47:40.796850 15016 net.cpp:91] Creating Layer inception_3b/5x5
I0403 17:47:40.796869 15016 net.cpp:425] inception_3b/5x5 <- inception_3b/5x5_reduce
I0403 17:47:40.796887 15016 net.cpp:399] inception_3b/5x5 -> inception_3b/5x5
I0403 17:47:40.798857 15016 net.cpp:141] Setting up inception_3b/5x5
I0403 17:47:40.798885 15016 net.cpp:148] Top shape: 24 96 28 28 (1806336)
I0403 17:47:40.798902 15016 net.cpp:156] Memory required for data: 736986144
I0403 17:47:40.798921 15016 layer_factory.hpp:77] Creating layer inception_3b/relu_5x5
I0403 17:47:40.798943 15016 net.cpp:91] Creating Layer inception_3b/relu_5x5
I0403 17:47:40.798965 15016 net.cpp:425] inception_3b/relu_5x5 <- inception_3b/5x5
I0403 17:47:40.798984 15016 net.cpp:386] inception_3b/relu_5x5 -> inception_3b/5x5 (in-place)
I0403 17:47:40.799185 15016 net.cpp:141] Setting up inception_3b/relu_5x5
I0403 17:47:40.799211 15016 net.cpp:148] Top shape: 24 96 28 28 (1806336)
I0403 17:47:40.799227 15016 net.cpp:156] Memory required for data: 744211488
I0403 17:47:40.799242 15016 layer_factory.hpp:77] Creating layer inception_3b/pool
I0403 17:47:40.799263 15016 net.cpp:91] Creating Layer inception_3b/pool
I0403 17:47:40.799279 15016 net.cpp:425] inception_3b/pool <- inception_3a/output_inception_3a/output_0_split_3
I0403 17:47:40.799299 15016 net.cpp:399] inception_3b/pool -> inception_3b/pool
I0403 17:47:40.799358 15016 net.cpp:141] Setting up inception_3b/pool
I0403 17:47:40.799382 15016 net.cpp:148] Top shape: 24 256 28 28 (4816896)
I0403 17:47:40.799398 15016 net.cpp:156] Memory required for data: 763479072
I0403 17:47:40.799413 15016 layer_factory.hpp:77] Creating layer inception_3b/pool_proj
I0403 17:47:40.799437 15016 net.cpp:91] Creating Layer inception_3b/pool_proj
I0403 17:47:40.799456 15016 net.cpp:425] inception_3b/pool_proj <- inception_3b/pool
I0403 17:47:40.799490 15016 net.cpp:399] inception_3b/pool_proj -> inception_3b/pool_proj
I0403 17:47:40.800575 15016 net.cpp:141] Setting up inception_3b/pool_proj
I0403 17:47:40.800603 15016 net.cpp:148] Top shape: 24 64 28 28 (1204224)
I0403 17:47:40.800621 15016 net.cpp:156] Memory required for data: 768295968
I0403 17:47:40.800639 15016 layer_factory.hpp:77] Creating layer inception_3b/relu_pool_proj
I0403 17:47:40.800658 15016 net.cpp:91] Creating Layer inception_3b/relu_pool_proj
I0403 17:47:40.800675 15016 net.cpp:425] inception_3b/relu_pool_proj <- inception_3b/pool_proj
I0403 17:47:40.800696 15016 net.cpp:386] inception_3b/relu_pool_proj -> inception_3b/pool_proj (in-place)
I0403 17:47:40.801092 15016 net.cpp:141] Setting up inception_3b/relu_pool_proj
I0403 17:47:40.801121 15016 net.cpp:148] Top shape: 24 64 28 28 (1204224)
I0403 17:47:40.801137 15016 net.cpp:156] Memory required for data: 773112864
I0403 17:47:40.801153 15016 layer_factory.hpp:77] Creating layer inception_3b/output
I0403 17:47:40.801172 15016 net.cpp:91] Creating Layer inception_3b/output
I0403 17:47:40.801188 15016 net.cpp:425] inception_3b/output <- inception_3b/1x1
I0403 17:47:40.801206 15016 net.cpp:425] inception_3b/output <- inception_3b/3x3
I0403 17:47:40.801223 15016 net.cpp:425] inception_3b/output <- inception_3b/5x5
I0403 17:47:40.801240 15016 net.cpp:425] inception_3b/output <- inception_3b/pool_proj
I0403 17:47:40.801257 15016 net.cpp:399] inception_3b/output -> inception_3b/output
I0403 17:47:40.801304 15016 net.cpp:141] Setting up inception_3b/output
I0403 17:47:40.801327 15016 net.cpp:148] Top shape: 24 480 28 28 (9031680)
I0403 17:47:40.801342 15016 net.cpp:156] Memory required for data: 809239584
I0403 17:47:40.801358 15016 layer_factory.hpp:77] Creating layer pool3/3x3_s2
I0403 17:47:40.801379 15016 net.cpp:91] Creating Layer pool3/3x3_s2
I0403 17:47:40.801396 15016 net.cpp:425] pool3/3x3_s2 <- inception_3b/output
I0403 17:47:40.801430 15016 net.cpp:399] pool3/3x3_s2 -> pool3/3x3_s2
I0403 17:47:40.801491 15016 net.cpp:141] Setting up pool3/3x3_s2
I0403 17:47:40.801514 15016 net.cpp:148] Top shape: 24 480 14 14 (2257920)
I0403 17:47:40.801530 15016 net.cpp:156] Memory required for data: 818271264
I0403 17:47:40.801545 15016 layer_factory.hpp:77] Creating layer pool3/3x3_s2_pool3/3x3_s2_0_split
I0403 17:47:40.801563 15016 net.cpp:91] Creating Layer pool3/3x3_s2_pool3/3x3_s2_0_split
I0403 17:47:40.801579 15016 net.cpp:425] pool3/3x3_s2_pool3/3x3_s2_0_split <- pool3/3x3_s2
I0403 17:47:40.801599 15016 net.cpp:399] pool3/3x3_s2_pool3/3x3_s2_0_split -> pool3/3x3_s2_pool3/3x3_s2_0_split_0
I0403 17:47:40.801621 15016 net.cpp:399] pool3/3x3_s2_pool3/3x3_s2_0_split -> pool3/3x3_s2_pool3/3x3_s2_0_split_1
I0403 17:47:40.801642 15016 net.cpp:399] pool3/3x3_s2_pool3/3x3_s2_0_split -> pool3/3x3_s2_pool3/3x3_s2_0_split_2
I0403 17:47:40.801662 15016 net.cpp:399] pool3/3x3_s2_pool3/3x3_s2_0_split -> pool3/3x3_s2_pool3/3x3_s2_0_split_3
I0403 17:47:40.801741 15016 net.cpp:141] Setting up pool3/3x3_s2_pool3/3x3_s2_0_split
I0403 17:47:40.801766 15016 net.cpp:148] Top shape: 24 480 14 14 (2257920)
I0403 17:47:40.801784 15016 net.cpp:148] Top shape: 24 480 14 14 (2257920)
I0403 17:47:40.801800 15016 net.cpp:148] Top shape: 24 480 14 14 (2257920)
I0403 17:47:40.801817 15016 net.cpp:148] Top shape: 24 480 14 14 (2257920)
I0403 17:47:40.801831 15016 net.cpp:156] Memory required for data: 854397984
I0403 17:47:40.801846 15016 layer_factory.hpp:77] Creating layer inception_4a/1x1
I0403 17:47:40.801872 15016 net.cpp:91] Creating Layer inception_4a/1x1
I0403 17:47:40.801890 15016 net.cpp:425] inception_4a/1x1 <- pool3/3x3_s2_pool3/3x3_s2_0_split_0
I0403 17:47:40.801909 15016 net.cpp:399] inception_4a/1x1 -> inception_4a/1x1
I0403 17:47:40.803464 15016 net.cpp:141] Setting up inception_4a/1x1
I0403 17:47:40.803496 15016 net.cpp:148] Top shape: 24 192 14 14 (903168)
I0403 17:47:40.803514 15016 net.cpp:156] Memory required for data: 858010656
I0403 17:47:40.803532 15016 layer_factory.hpp:77] Creating layer inception_4a/relu_1x1
I0403 17:47:40.803551 15016 net.cpp:91] Creating Layer inception_4a/relu_1x1
I0403 17:47:40.803567 15016 net.cpp:425] inception_4a/relu_1x1 <- inception_4a/1x1
I0403 17:47:40.803588 15016 net.cpp:386] inception_4a/relu_1x1 -> inception_4a/1x1 (in-place)
I0403 17:47:40.803766 15016 net.cpp:141] Setting up inception_4a/relu_1x1
I0403 17:47:40.803791 15016 net.cpp:148] Top shape: 24 192 14 14 (903168)
I0403 17:47:40.803807 15016 net.cpp:156] Memory required for data: 861623328
I0403 17:47:40.803822 15016 layer_factory.hpp:77] Creating layer inception_4a/3x3_reduce
I0403 17:47:40.803844 15016 net.cpp:91] Creating Layer inception_4a/3x3_reduce
I0403 17:47:40.803863 15016 net.cpp:425] inception_4a/3x3_reduce <- pool3/3x3_s2_pool3/3x3_s2_0_split_1
I0403 17:47:40.803884 15016 net.cpp:399] inception_4a/3x3_reduce -> inception_4a/3x3_reduce
I0403 17:47:40.805152 15016 net.cpp:141] Setting up inception_4a/3x3_reduce
I0403 17:47:40.805179 15016 net.cpp:148] Top shape: 24 96 14 14 (451584)
I0403 17:47:40.805197 15016 net.cpp:156] Memory required for data: 863429664
I0403 17:47:40.805219 15016 layer_factory.hpp:77] Creating layer inception_4a/relu_3x3_reduce
I0403 17:47:40.805241 15016 net.cpp:91] Creating Layer inception_4a/relu_3x3_reduce
I0403 17:47:40.805259 15016 net.cpp:425] inception_4a/relu_3x3_reduce <- inception_4a/3x3_reduce
I0403 17:47:40.805279 15016 net.cpp:386] inception_4a/relu_3x3_reduce -> inception_4a/3x3_reduce (in-place)
I0403 17:47:40.805454 15016 net.cpp:141] Setting up inception_4a/relu_3x3_reduce
I0403 17:47:40.805480 15016 net.cpp:148] Top shape: 24 96 14 14 (451584)
I0403 17:47:40.805495 15016 net.cpp:156] Memory required for data: 865236000
I0403 17:47:40.805510 15016 layer_factory.hpp:77] Creating layer inception_4a/3x3
I0403 17:47:40.805533 15016 net.cpp:91] Creating Layer inception_4a/3x3
I0403 17:47:40.805552 15016 net.cpp:425] inception_4a/3x3 <- inception_4a/3x3_reduce
I0403 17:47:40.805574 15016 net.cpp:399] inception_4a/3x3 -> inception_4a/3x3
I0403 17:47:40.808238 15016 net.cpp:141] Setting up inception_4a/3x3
I0403 17:47:40.808267 15016 net.cpp:148] Top shape: 24 208 14 14 (978432)
I0403 17:47:40.808284 15016 net.cpp:156] Memory required for data: 869149728
I0403 17:47:40.808302 15016 layer_factory.hpp:77] Creating layer inception_4a/relu_3x3
I0403 17:47:40.808325 15016 net.cpp:91] Creating Layer inception_4a/relu_3x3
I0403 17:47:40.808343 15016 net.cpp:425] inception_4a/relu_3x3 <- inception_4a/3x3
I0403 17:47:40.808362 15016 net.cpp:386] inception_4a/relu_3x3 -> inception_4a/3x3 (in-place)
I0403 17:47:40.808637 15016 net.cpp:141] Setting up inception_4a/relu_3x3
I0403 17:47:40.808663 15016 net.cpp:148] Top shape: 24 208 14 14 (978432)
I0403 17:47:40.808679 15016 net.cpp:156] Memory required for data: 873063456
I0403 17:47:40.808696 15016 layer_factory.hpp:77] Creating layer inception_4a/5x5_reduce
I0403 17:47:40.808718 15016 net.cpp:91] Creating Layer inception_4a/5x5_reduce
I0403 17:47:40.808737 15016 net.cpp:425] inception_4a/5x5_reduce <- pool3/3x3_s2_pool3/3x3_s2_0_split_2
I0403 17:47:40.808759 15016 net.cpp:399] inception_4a/5x5_reduce -> inception_4a/5x5_reduce
I0403 17:47:40.809763 15016 net.cpp:141] Setting up inception_4a/5x5_reduce
I0403 17:47:40.809790 15016 net.cpp:148] Top shape: 24 16 14 14 (75264)
I0403 17:47:40.809808 15016 net.cpp:156] Memory required for data: 873364512
I0403 17:47:40.809826 15016 layer_factory.hpp:77] Creating layer inception_4a/relu_5x5_reduce
I0403 17:47:40.809847 15016 net.cpp:91] Creating Layer inception_4a/relu_5x5_reduce
I0403 17:47:40.809866 15016 net.cpp:425] inception_4a/relu_5x5_reduce <- inception_4a/5x5_reduce
I0403 17:47:40.809885 15016 net.cpp:386] inception_4a/relu_5x5_reduce -> inception_4a/5x5_reduce (in-place)
I0403 17:47:40.810089 15016 net.cpp:141] Setting up inception_4a/relu_5x5_reduce
I0403 17:47:40.810117 15016 net.cpp:148] Top shape: 24 16 14 14 (75264)
I0403 17:47:40.810134 15016 net.cpp:156] Memory required for data: 873665568
I0403 17:47:40.810151 15016 layer_factory.hpp:77] Creating layer inception_4a/5x5
I0403 17:47:40.810178 15016 net.cpp:91] Creating Layer inception_4a/5x5
I0403 17:47:40.810195 15016 net.cpp:425] inception_4a/5x5 <- inception_4a/5x5_reduce
I0403 17:47:40.810216 15016 net.cpp:399] inception_4a/5x5 -> inception_4a/5x5
I0403 17:47:40.811300 15016 net.cpp:141] Setting up inception_4a/5x5
I0403 17:47:40.811329 15016 net.cpp:148] Top shape: 24 48 14 14 (225792)
I0403 17:47:40.811347 15016 net.cpp:156] Memory required for data: 874568736
I0403 17:47:40.811365 15016 layer_factory.hpp:77] Creating layer inception_4a/relu_5x5
I0403 17:47:40.811384 15016 net.cpp:91] Creating Layer inception_4a/relu_5x5
I0403 17:47:40.811401 15016 net.cpp:425] inception_4a/relu_5x5 <- inception_4a/5x5
I0403 17:47:40.811419 15016 net.cpp:386] inception_4a/relu_5x5 -> inception_4a/5x5 (in-place)
I0403 17:47:40.811597 15016 net.cpp:141] Setting up inception_4a/relu_5x5
I0403 17:47:40.811624 15016 net.cpp:148] Top shape: 24 48 14 14 (225792)
I0403 17:47:40.811638 15016 net.cpp:156] Memory required for data: 875471904
I0403 17:47:40.811655 15016 layer_factory.hpp:77] Creating layer inception_4a/pool
I0403 17:47:40.811672 15016 net.cpp:91] Creating Layer inception_4a/pool
I0403 17:47:40.811689 15016 net.cpp:425] inception_4a/pool <- pool3/3x3_s2_pool3/3x3_s2_0_split_3
I0403 17:47:40.811710 15016 net.cpp:399] inception_4a/pool -> inception_4a/pool
I0403 17:47:40.811772 15016 net.cpp:141] Setting up inception_4a/pool
I0403 17:47:40.811799 15016 net.cpp:148] Top shape: 24 480 14 14 (2257920)
I0403 17:47:40.811815 15016 net.cpp:156] Memory required for data: 884503584
I0403 17:47:40.811830 15016 layer_factory.hpp:77] Creating layer inception_4a/pool_proj
I0403 17:47:40.811853 15016 net.cpp:91] Creating Layer inception_4a/pool_proj
I0403 17:47:40.811872 15016 net.cpp:425] inception_4a/pool_proj <- inception_4a/pool
I0403 17:47:40.811892 15016 net.cpp:399] inception_4a/pool_proj -> inception_4a/pool_proj
I0403 17:47:40.813063 15016 net.cpp:141] Setting up inception_4a/pool_proj
I0403 17:47:40.813102 15016 net.cpp:148] Top shape: 24 64 14 14 (301056)
I0403 17:47:40.813133 15016 net.cpp:156] Memory required for data: 885707808
I0403 17:47:40.813154 15016 layer_factory.hpp:77] Creating layer inception_4a/relu_pool_proj
I0403 17:47:40.813174 15016 net.cpp:91] Creating Layer inception_4a/relu_pool_proj
I0403 17:47:40.813190 15016 net.cpp:425] inception_4a/relu_pool_proj <- inception_4a/pool_proj
I0403 17:47:40.813212 15016 net.cpp:386] inception_4a/relu_pool_proj -> inception_4a/pool_proj (in-place)
I0403 17:47:40.813508 15016 net.cpp:141] Setting up inception_4a/relu_pool_proj
I0403 17:47:40.813534 15016 net.cpp:148] Top shape: 24 64 14 14 (301056)
I0403 17:47:40.813549 15016 net.cpp:156] Memory required for data: 886912032
I0403 17:47:40.813565 15016 layer_factory.hpp:77] Creating layer inception_4a/output
I0403 17:47:40.813581 15016 net.cpp:91] Creating Layer inception_4a/output
I0403 17:47:40.813597 15016 net.cpp:425] inception_4a/output <- inception_4a/1x1
I0403 17:47:40.813616 15016 net.cpp:425] inception_4a/output <- inception_4a/3x3
I0403 17:47:40.813632 15016 net.cpp:425] inception_4a/output <- inception_4a/5x5
I0403 17:47:40.813647 15016 net.cpp:425] inception_4a/output <- inception_4a/pool_proj
I0403 17:47:40.813668 15016 net.cpp:399] inception_4a/output -> inception_4a/output
I0403 17:47:40.813711 15016 net.cpp:141] Setting up inception_4a/output
I0403 17:47:40.813735 15016 net.cpp:148] Top shape: 24 512 14 14 (2408448)
I0403 17:47:40.813755 15016 net.cpp:156] Memory required for data: 896545824
I0403 17:47:40.813771 15016 layer_factory.hpp:77] Creating layer inception_4a/output_inception_4a/output_0_split
I0403 17:47:40.813787 15016 net.cpp:91] Creating Layer inception_4a/output_inception_4a/output_0_split
I0403 17:47:40.813803 15016 net.cpp:425] inception_4a/output_inception_4a/output_0_split <- inception_4a/output
I0403 17:47:40.813822 15016 net.cpp:399] inception_4a/output_inception_4a/output_0_split -> inception_4a/output_inception_4a/output_0_split_0
I0403 17:47:40.813843 15016 net.cpp:399] inception_4a/output_inception_4a/output_0_split -> inception_4a/output_inception_4a/output_0_split_1
I0403 17:47:40.813865 15016 net.cpp:399] inception_4a/output_inception_4a/output_0_split -> inception_4a/output_inception_4a/output_0_split_2
I0403 17:47:40.813887 15016 net.cpp:399] inception_4a/output_inception_4a/output_0_split -> inception_4a/output_inception_4a/output_0_split_3
I0403 17:47:40.813907 15016 net.cpp:399] inception_4a/output_inception_4a/output_0_split -> inception_4a/output_inception_4a/output_0_split_4
I0403 17:47:40.814007 15016 net.cpp:141] Setting up inception_4a/output_inception_4a/output_0_split
I0403 17:47:40.814030 15016 net.cpp:148] Top shape: 24 512 14 14 (2408448)
I0403 17:47:40.814048 15016 net.cpp:148] Top shape: 24 512 14 14 (2408448)
I0403 17:47:40.814064 15016 net.cpp:148] Top shape: 24 512 14 14 (2408448)
I0403 17:47:40.814079 15016 net.cpp:148] Top shape: 24 512 14 14 (2408448)
I0403 17:47:40.814093 15016 net.cpp:148] Top shape: 24 512 14 14 (2408448)
I0403 17:47:40.814107 15016 net.cpp:156] Memory required for data: 944714784
I0403 17:47:40.814122 15016 layer_factory.hpp:77] Creating layer loss1/ave_pool
I0403 17:47:40.814142 15016 net.cpp:91] Creating Layer loss1/ave_pool
I0403 17:47:40.814159 15016 net.cpp:425] loss1/ave_pool <- inception_4a/output_inception_4a/output_0_split_0
I0403 17:47:40.814177 15016 net.cpp:399] loss1/ave_pool -> loss1/ave_pool
I0403 17:47:40.814373 15016 net.cpp:141] Setting up loss1/ave_pool
I0403 17:47:40.814399 15016 net.cpp:148] Top shape: 24 512 4 4 (196608)
I0403 17:47:40.814414 15016 net.cpp:156] Memory required for data: 945501216
I0403 17:47:40.814429 15016 layer_factory.hpp:77] Creating layer loss1/conv
I0403 17:47:40.814451 15016 net.cpp:91] Creating Layer loss1/conv
I0403 17:47:40.814468 15016 net.cpp:425] loss1/conv <- loss1/ave_pool
I0403 17:47:40.814489 15016 net.cpp:399] loss1/conv -> loss1/conv
I0403 17:47:40.815878 15016 net.cpp:141] Setting up loss1/conv
I0403 17:47:40.815906 15016 net.cpp:148] Top shape: 24 128 4 4 (49152)
I0403 17:47:40.815934 15016 net.cpp:156] Memory required for data: 945697824
I0403 17:47:40.815958 15016 layer_factory.hpp:77] Creating layer loss1/relu_conv
I0403 17:47:40.815980 15016 net.cpp:91] Creating Layer loss1/relu_conv
I0403 17:47:40.815997 15016 net.cpp:425] loss1/relu_conv <- loss1/conv
I0403 17:47:40.816015 15016 net.cpp:386] loss1/relu_conv -> loss1/conv (in-place)
I0403 17:47:40.816290 15016 net.cpp:141] Setting up loss1/relu_conv
I0403 17:47:40.816315 15016 net.cpp:148] Top shape: 24 128 4 4 (49152)
I0403 17:47:40.816331 15016 net.cpp:156] Memory required for data: 945894432
I0403 17:47:40.816346 15016 layer_factory.hpp:77] Creating layer loss1/fc
I0403 17:47:40.816373 15016 net.cpp:91] Creating Layer loss1/fc
I0403 17:47:40.816391 15016 net.cpp:425] loss1/fc <- loss1/conv
I0403 17:47:40.816409 15016 net.cpp:399] loss1/fc -> loss1/fc
I0403 17:47:40.833619 15016 net.cpp:141] Setting up loss1/fc
I0403 17:47:40.833653 15016 net.cpp:148] Top shape: 24 1024 (24576)
I0403 17:47:40.833670 15016 net.cpp:156] Memory required for data: 945992736
I0403 17:47:40.833690 15016 layer_factory.hpp:77] Creating layer loss1/relu_fc
I0403 17:47:40.833709 15016 net.cpp:91] Creating Layer loss1/relu_fc
I0403 17:47:40.833725 15016 net.cpp:425] loss1/relu_fc <- loss1/fc
I0403 17:47:40.833745 15016 net.cpp:386] loss1/relu_fc -> loss1/fc (in-place)
I0403 17:47:40.833927 15016 net.cpp:141] Setting up loss1/relu_fc
I0403 17:47:40.833955 15016 net.cpp:148] Top shape: 24 1024 (24576)
I0403 17:47:40.833971 15016 net.cpp:156] Memory required for data: 946091040
I0403 17:47:40.833986 15016 layer_factory.hpp:77] Creating layer loss1/drop_fc
I0403 17:47:40.834014 15016 net.cpp:91] Creating Layer loss1/drop_fc
I0403 17:47:40.834033 15016 net.cpp:425] loss1/drop_fc <- loss1/fc
I0403 17:47:40.834050 15016 net.cpp:386] loss1/drop_fc -> loss1/fc (in-place)
I0403 17:47:40.834100 15016 net.cpp:141] Setting up loss1/drop_fc
I0403 17:47:40.834125 15016 net.cpp:148] Top shape: 24 1024 (24576)
I0403 17:47:40.834141 15016 net.cpp:156] Memory required for data: 946189344
I0403 17:47:40.834157 15016 layer_factory.hpp:77] Creating layer loss1/classifier_plantvillage
I0403 17:47:40.834177 15016 net.cpp:91] Creating Layer loss1/classifier_plantvillage
I0403 17:47:40.834192 15016 net.cpp:425] loss1/classifier_plantvillage <- loss1/fc
I0403 17:47:40.834213 15016 net.cpp:399] loss1/classifier_plantvillage -> loss1/classifier_plantvillage
I0403 17:47:40.835089 15016 net.cpp:141] Setting up loss1/classifier_plantvillage
I0403 17:47:40.835116 15016 net.cpp:148] Top shape: 24 38 (912)
I0403 17:47:40.835132 15016 net.cpp:156] Memory required for data: 946192992
I0403 17:47:40.835150 15016 layer_factory.hpp:77] Creating layer loss1/classifier_plantvillage_loss1/classifier_plantvillage_0_split
I0403 17:47:40.835168 15016 net.cpp:91] Creating Layer loss1/classifier_plantvillage_loss1/classifier_plantvillage_0_split
I0403 17:47:40.835185 15016 net.cpp:425] loss1/classifier_plantvillage_loss1/classifier_plantvillage_0_split <- loss1/classifier_plantvillage
I0403 17:47:40.835206 15016 net.cpp:399] loss1/classifier_plantvillage_loss1/classifier_plantvillage_0_split -> loss1/classifier_plantvillage_loss1/classifier_plantvillage_0_split_0
I0403 17:47:40.835227 15016 net.cpp:399] loss1/classifier_plantvillage_loss1/classifier_plantvillage_0_split -> loss1/classifier_plantvillage_loss1/classifier_plantvillage_0_split_1
I0403 17:47:40.835247 15016 net.cpp:399] loss1/classifier_plantvillage_loss1/classifier_plantvillage_0_split -> loss1/classifier_plantvillage_loss1/classifier_plantvillage_0_split_2
I0403 17:47:40.835311 15016 net.cpp:141] Setting up loss1/classifier_plantvillage_loss1/classifier_plantvillage_0_split
I0403 17:47:40.835336 15016 net.cpp:148] Top shape: 24 38 (912)
I0403 17:47:40.835355 15016 net.cpp:148] Top shape: 24 38 (912)
I0403 17:47:40.835371 15016 net.cpp:148] Top shape: 24 38 (912)
I0403 17:47:40.835384 15016 net.cpp:156] Memory required for data: 946203936
I0403 17:47:40.835399 15016 layer_factory.hpp:77] Creating layer inception_4b/1x1
I0403 17:47:40.835420 15016 net.cpp:91] Creating Layer inception_4b/1x1
I0403 17:47:40.835454 15016 net.cpp:425] inception_4b/1x1 <- inception_4a/output_inception_4a/output_0_split_1
I0403 17:47:40.835474 15016 net.cpp:399] inception_4b/1x1 -> inception_4b/1x1
I0403 17:47:40.837087 15016 net.cpp:141] Setting up inception_4b/1x1
I0403 17:47:40.837116 15016 net.cpp:148] Top shape: 24 160 14 14 (752640)
I0403 17:47:40.837131 15016 net.cpp:156] Memory required for data: 949214496
I0403 17:47:40.837149 15016 layer_factory.hpp:77] Creating layer inception_4b/relu_1x1
I0403 17:47:40.837170 15016 net.cpp:91] Creating Layer inception_4b/relu_1x1
I0403 17:47:40.837188 15016 net.cpp:425] inception_4b/relu_1x1 <- inception_4b/1x1
I0403 17:47:40.837206 15016 net.cpp:386] inception_4b/relu_1x1 -> inception_4b/1x1 (in-place)
I0403 17:47:40.837380 15016 net.cpp:141] Setting up inception_4b/relu_1x1
I0403 17:47:40.837407 15016 net.cpp:148] Top shape: 24 160 14 14 (752640)
I0403 17:47:40.837422 15016 net.cpp:156] Memory required for data: 952225056
I0403 17:47:40.837438 15016 layer_factory.hpp:77] Creating layer inception_4b/3x3_reduce
I0403 17:47:40.837460 15016 net.cpp:91] Creating Layer inception_4b/3x3_reduce
I0403 17:47:40.837478 15016 net.cpp:425] inception_4b/3x3_reduce <- inception_4a/output_inception_4a/output_0_split_2
I0403 17:47:40.837498 15016 net.cpp:399] inception_4b/3x3_reduce -> inception_4b/3x3_reduce
I0403 17:47:40.838799 15016 net.cpp:141] Setting up inception_4b/3x3_reduce
I0403 17:47:40.838826 15016 net.cpp:148] Top shape: 24 112 14 14 (526848)
I0403 17:47:40.838841 15016 net.cpp:156] Memory required for data: 954332448
I0403 17:47:40.838860 15016 layer_factory.hpp:77] Creating layer inception_4b/relu_3x3_reduce
I0403 17:47:40.838881 15016 net.cpp:91] Creating Layer inception_4b/relu_3x3_reduce
I0403 17:47:40.838899 15016 net.cpp:425] inception_4b/relu_3x3_reduce <- inception_4b/3x3_reduce
I0403 17:47:40.838917 15016 net.cpp:386] inception_4b/relu_3x3_reduce -> inception_4b/3x3_reduce (in-place)
I0403 17:47:40.839192 15016 net.cpp:141] Setting up inception_4b/relu_3x3_reduce
I0403 17:47:40.839217 15016 net.cpp:148] Top shape: 24 112 14 14 (526848)
I0403 17:47:40.839233 15016 net.cpp:156] Memory required for data: 956439840
I0403 17:47:40.839248 15016 layer_factory.hpp:77] Creating layer inception_4b/3x3
I0403 17:47:40.839272 15016 net.cpp:91] Creating Layer inception_4b/3x3
I0403 17:47:40.839289 15016 net.cpp:425] inception_4b/3x3 <- inception_4b/3x3_reduce
I0403 17:47:40.839309 15016 net.cpp:399] inception_4b/3x3 -> inception_4b/3x3
I0403 17:47:40.842185 15016 net.cpp:141] Setting up inception_4b/3x3
I0403 17:47:40.842213 15016 net.cpp:148] Top shape: 24 224 14 14 (1053696)
I0403 17:47:40.842229 15016 net.cpp:156] Memory required for data: 960654624
I0403 17:47:40.842247 15016 layer_factory.hpp:77] Creating layer inception_4b/relu_3x3
I0403 17:47:40.842267 15016 net.cpp:91] Creating Layer inception_4b/relu_3x3
I0403 17:47:40.842283 15016 net.cpp:425] inception_4b/relu_3x3 <- inception_4b/3x3
I0403 17:47:40.842303 15016 net.cpp:386] inception_4b/relu_3x3 -> inception_4b/3x3 (in-place)
I0403 17:47:40.842478 15016 net.cpp:141] Setting up inception_4b/relu_3x3
I0403 17:47:40.842501 15016 net.cpp:148] Top shape: 24 224 14 14 (1053696)
I0403 17:47:40.842516 15016 net.cpp:156] Memory required for data: 964869408
I0403 17:47:40.842531 15016 layer_factory.hpp:77] Creating layer inception_4b/5x5_reduce
I0403 17:47:40.842553 15016 net.cpp:91] Creating Layer inception_4b/5x5_reduce
I0403 17:47:40.842572 15016 net.cpp:425] inception_4b/5x5_reduce <- inception_4a/output_inception_4a/output_0_split_3
I0403 17:47:40.842594 15016 net.cpp:399] inception_4b/5x5_reduce -> inception_4b/5x5_reduce
I0403 17:47:40.843647 15016 net.cpp:141] Setting up inception_4b/5x5_reduce
I0403 17:47:40.843672 15016 net.cpp:148] Top shape: 24 24 14 14 (112896)
I0403 17:47:40.843688 15016 net.cpp:156] Memory required for data: 965320992
I0403 17:47:40.843706 15016 layer_factory.hpp:77] Creating layer inception_4b/relu_5x5_reduce
I0403 17:47:40.843727 15016 net.cpp:91] Creating Layer inception_4b/relu_5x5_reduce
I0403 17:47:40.843758 15016 net.cpp:425] inception_4b/relu_5x5_reduce <- inception_4b/5x5_reduce
I0403 17:47:40.843777 15016 net.cpp:386] inception_4b/relu_5x5_reduce -> inception_4b/5x5_reduce (in-place)
I0403 17:47:40.843955 15016 net.cpp:141] Setting up inception_4b/relu_5x5_reduce
I0403 17:47:40.843983 15016 net.cpp:148] Top shape: 24 24 14 14 (112896)
I0403 17:47:40.843999 15016 net.cpp:156] Memory required for data: 965772576
I0403 17:47:40.844014 15016 layer_factory.hpp:77] Creating layer inception_4b/5x5
I0403 17:47:40.844039 15016 net.cpp:91] Creating Layer inception_4b/5x5
I0403 17:47:40.844056 15016 net.cpp:425] inception_4b/5x5 <- inception_4b/5x5_reduce
I0403 17:47:40.844079 15016 net.cpp:399] inception_4b/5x5 -> inception_4b/5x5
I0403 17:47:40.845270 15016 net.cpp:141] Setting up inception_4b/5x5
I0403 17:47:40.845299 15016 net.cpp:148] Top shape: 24 64 14 14 (301056)
I0403 17:47:40.845314 15016 net.cpp:156] Memory required for data: 966976800
I0403 17:47:40.845332 15016 layer_factory.hpp:77] Creating layer inception_4b/relu_5x5
I0403 17:47:40.845352 15016 net.cpp:91] Creating Layer inception_4b/relu_5x5
I0403 17:47:40.845371 15016 net.cpp:425] inception_4b/relu_5x5 <- inception_4b/5x5
I0403 17:47:40.845387 15016 net.cpp:386] inception_4b/relu_5x5 -> inception_4b/5x5 (in-place)
I0403 17:47:40.845672 15016 net.cpp:141] Setting up inception_4b/relu_5x5
I0403 17:47:40.845697 15016 net.cpp:148] Top shape: 24 64 14 14 (301056)
I0403 17:47:40.845713 15016 net.cpp:156] Memory required for data: 968181024
I0403 17:47:40.845729 15016 layer_factory.hpp:77] Creating layer inception_4b/pool
I0403 17:47:40.845749 15016 net.cpp:91] Creating Layer inception_4b/pool
I0403 17:47:40.845767 15016 net.cpp:425] inception_4b/pool <- inception_4a/output_inception_4a/output_0_split_4
I0403 17:47:40.845787 15016 net.cpp:399] inception_4b/pool -> inception_4b/pool
I0403 17:47:40.845851 15016 net.cpp:141] Setting up inception_4b/pool
I0403 17:47:40.845875 15016 net.cpp:148] Top shape: 24 512 14 14 (2408448)
I0403 17:47:40.845890 15016 net.cpp:156] Memory required for data: 977814816
I0403 17:47:40.845904 15016 layer_factory.hpp:77] Creating layer inception_4b/pool_proj
I0403 17:47:40.845928 15016 net.cpp:91] Creating Layer inception_4b/pool_proj
I0403 17:47:40.845950 15016 net.cpp:425] inception_4b/pool_proj <- inception_4b/pool
I0403 17:47:40.845973 15016 net.cpp:399] inception_4b/pool_proj -> inception_4b/pool_proj
I0403 17:47:40.847163 15016 net.cpp:141] Setting up inception_4b/pool_proj
I0403 17:47:40.847203 15016 net.cpp:148] Top shape: 24 64 14 14 (301056)
I0403 17:47:40.847218 15016 net.cpp:156] Memory required for data: 979019040
I0403 17:47:40.847237 15016 layer_factory.hpp:77] Creating layer inception_4b/relu_pool_proj
I0403 17:47:40.847259 15016 net.cpp:91] Creating Layer inception_4b/relu_pool_proj
I0403 17:47:40.847277 15016 net.cpp:425] inception_4b/relu_pool_proj <- inception_4b/pool_proj
I0403 17:47:40.847295 15016 net.cpp:386] inception_4b/relu_pool_proj -> inception_4b/pool_proj (in-place)
I0403 17:47:40.847488 15016 net.cpp:141] Setting up inception_4b/relu_pool_proj
I0403 17:47:40.847514 15016 net.cpp:148] Top shape: 24 64 14 14 (301056)
I0403 17:47:40.847530 15016 net.cpp:156] Memory required for data: 980223264
I0403 17:47:40.847545 15016 layer_factory.hpp:77] Creating layer inception_4b/output
I0403 17:47:40.847564 15016 net.cpp:91] Creating Layer inception_4b/output
I0403 17:47:40.847580 15016 net.cpp:425] inception_4b/output <- inception_4b/1x1
I0403 17:47:40.847597 15016 net.cpp:425] inception_4b/output <- inception_4b/3x3
I0403 17:47:40.847615 15016 net.cpp:425] inception_4b/output <- inception_4b/5x5
I0403 17:47:40.847630 15016 net.cpp:425] inception_4b/output <- inception_4b/pool_proj
I0403 17:47:40.847648 15016 net.cpp:399] inception_4b/output -> inception_4b/output
I0403 17:47:40.847694 15016 net.cpp:141] Setting up inception_4b/output
I0403 17:47:40.847717 15016 net.cpp:148] Top shape: 24 512 14 14 (2408448)
I0403 17:47:40.847731 15016 net.cpp:156] Memory required for data: 989857056
I0403 17:47:40.847764 15016 layer_factory.hpp:77] Creating layer inception_4b/output_inception_4b/output_0_split
I0403 17:47:40.847785 15016 net.cpp:91] Creating Layer inception_4b/output_inception_4b/output_0_split
I0403 17:47:40.847801 15016 net.cpp:425] inception_4b/output_inception_4b/output_0_split <- inception_4b/output
I0403 17:47:40.847820 15016 net.cpp:399] inception_4b/output_inception_4b/output_0_split -> inception_4b/output_inception_4b/output_0_split_0
I0403 17:47:40.847841 15016 net.cpp:399] inception_4b/output_inception_4b/output_0_split -> inception_4b/output_inception_4b/output_0_split_1
I0403 17:47:40.847861 15016 net.cpp:399] inception_4b/output_inception_4b/output_0_split -> inception_4b/output_inception_4b/output_0_split_2
I0403 17:47:40.847884 15016 net.cpp:399] inception_4b/output_inception_4b/output_0_split -> inception_4b/output_inception_4b/output_0_split_3
I0403 17:47:40.847980 15016 net.cpp:141] Setting up inception_4b/output_inception_4b/output_0_split
I0403 17:47:40.848003 15016 net.cpp:148] Top shape: 24 512 14 14 (2408448)
I0403 17:47:40.848021 15016 net.cpp:148] Top shape: 24 512 14 14 (2408448)
I0403 17:47:40.848036 15016 net.cpp:148] Top shape: 24 512 14 14 (2408448)
I0403 17:47:40.848052 15016 net.cpp:148] Top shape: 24 512 14 14 (2408448)
I0403 17:47:40.848065 15016 net.cpp:156] Memory required for data: 1028392224
I0403 17:47:40.848080 15016 layer_factory.hpp:77] Creating layer inception_4c/1x1
I0403 17:47:40.848103 15016 net.cpp:91] Creating Layer inception_4c/1x1
I0403 17:47:40.848120 15016 net.cpp:425] inception_4c/1x1 <- inception_4b/output_inception_4b/output_0_split_0
I0403 17:47:40.848141 15016 net.cpp:399] inception_4c/1x1 -> inception_4c/1x1
I0403 17:47:40.849531 15016 net.cpp:141] Setting up inception_4c/1x1
I0403 17:47:40.849561 15016 net.cpp:148] Top shape: 24 128 14 14 (602112)
I0403 17:47:40.849578 15016 net.cpp:156] Memory required for data: 1030800672
I0403 17:47:40.849596 15016 layer_factory.hpp:77] Creating layer inception_4c/relu_1x1
I0403 17:47:40.849614 15016 net.cpp:91] Creating Layer inception_4c/relu_1x1
I0403 17:47:40.849630 15016 net.cpp:425] inception_4c/relu_1x1 <- inception_4c/1x1
I0403 17:47:40.849650 15016 net.cpp:386] inception_4c/relu_1x1 -> inception_4c/1x1 (in-place)
I0403 17:47:40.849825 15016 net.cpp:141] Setting up inception_4c/relu_1x1
I0403 17:47:40.849850 15016 net.cpp:148] Top shape: 24 128 14 14 (602112)
I0403 17:47:40.849864 15016 net.cpp:156] Memory required for data: 1033209120
I0403 17:47:40.849880 15016 layer_factory.hpp:77] Creating layer inception_4c/3x3_reduce
I0403 17:47:40.849902 15016 net.cpp:91] Creating Layer inception_4c/3x3_reduce
I0403 17:47:40.849922 15016 net.cpp:425] inception_4c/3x3_reduce <- inception_4b/output_inception_4b/output_0_split_1
I0403 17:47:40.849944 15016 net.cpp:399] inception_4c/3x3_reduce -> inception_4c/3x3_reduce
I0403 17:47:40.851830 15016 net.cpp:141] Setting up inception_4c/3x3_reduce
I0403 17:47:40.851858 15016 net.cpp:148] Top shape: 24 128 14 14 (602112)
I0403 17:47:40.851874 15016 net.cpp:156] Memory required for data: 1035617568
I0403 17:47:40.851892 15016 layer_factory.hpp:77] Creating layer inception_4c/relu_3x3_reduce
I0403 17:47:40.851913 15016 net.cpp:91] Creating Layer inception_4c/relu_3x3_reduce
I0403 17:47:40.851930 15016 net.cpp:425] inception_4c/relu_3x3_reduce <- inception_4c/3x3_reduce
I0403 17:47:40.851953 15016 net.cpp:386] inception_4c/relu_3x3_reduce -> inception_4c/3x3_reduce (in-place)
I0403 17:47:40.852231 15016 net.cpp:141] Setting up inception_4c/relu_3x3_reduce
I0403 17:47:40.852257 15016 net.cpp:148] Top shape: 24 128 14 14 (602112)
I0403 17:47:40.852272 15016 net.cpp:156] Memory required for data: 1038026016
I0403 17:47:40.852288 15016 layer_factory.hpp:77] Creating layer inception_4c/3x3
I0403 17:47:40.852310 15016 net.cpp:91] Creating Layer inception_4c/3x3
I0403 17:47:40.852329 15016 net.cpp:425] inception_4c/3x3 <- inception_4c/3x3_reduce
I0403 17:47:40.852351 15016 net.cpp:399] inception_4c/3x3 -> inception_4c/3x3
I0403 17:47:40.855847 15016 net.cpp:141] Setting up inception_4c/3x3
I0403 17:47:40.855886 15016 net.cpp:148] Top shape: 24 256 14 14 (1204224)
I0403 17:47:40.855902 15016 net.cpp:156] Memory required for data: 1042842912
I0403 17:47:40.855937 15016 layer_factory.hpp:77] Creating layer inception_4c/relu_3x3
I0403 17:47:40.855963 15016 net.cpp:91] Creating Layer inception_4c/relu_3x3
I0403 17:47:40.855983 15016 net.cpp:425] inception_4c/relu_3x3 <- inception_4c/3x3
I0403 17:47:40.855999 15016 net.cpp:386] inception_4c/relu_3x3 -> inception_4c/3x3 (in-place)
I0403 17:47:40.856178 15016 net.cpp:141] Setting up inception_4c/relu_3x3
I0403 17:47:40.856201 15016 net.cpp:148] Top shape: 24 256 14 14 (1204224)
I0403 17:47:40.856216 15016 net.cpp:156] Memory required for data: 1047659808
I0403 17:47:40.856231 15016 layer_factory.hpp:77] Creating layer inception_4c/5x5_reduce
I0403 17:47:40.856256 15016 net.cpp:91] Creating Layer inception_4c/5x5_reduce
I0403 17:47:40.856274 15016 net.cpp:425] inception_4c/5x5_reduce <- inception_4b/output_inception_4b/output_0_split_2
I0403 17:47:40.856294 15016 net.cpp:399] inception_4c/5x5_reduce -> inception_4c/5x5_reduce
I0403 17:47:40.857354 15016 net.cpp:141] Setting up inception_4c/5x5_reduce
I0403 17:47:40.857381 15016 net.cpp:148] Top shape: 24 24 14 14 (112896)
I0403 17:47:40.857396 15016 net.cpp:156] Memory required for data: 1048111392
I0403 17:47:40.857415 15016 layer_factory.hpp:77] Creating layer inception_4c/relu_5x5_reduce
I0403 17:47:40.857435 15016 net.cpp:91] Creating Layer inception_4c/relu_5x5_reduce
I0403 17:47:40.857452 15016 net.cpp:425] inception_4c/relu_5x5_reduce <- inception_4c/5x5_reduce
I0403 17:47:40.857470 15016 net.cpp:386] inception_4c/relu_5x5_reduce -> inception_4c/5x5_reduce (in-place)
I0403 17:47:40.857647 15016 net.cpp:141] Setting up inception_4c/relu_5x5_reduce
I0403 17:47:40.857674 15016 net.cpp:148] Top shape: 24 24 14 14 (112896)
I0403 17:47:40.857689 15016 net.cpp:156] Memory required for data: 1048562976
I0403 17:47:40.857705 15016 layer_factory.hpp:77] Creating layer inception_4c/5x5
I0403 17:47:40.857728 15016 net.cpp:91] Creating Layer inception_4c/5x5
I0403 17:47:40.857745 15016 net.cpp:425] inception_4c/5x5 <- inception_4c/5x5_reduce
I0403 17:47:40.857764 15016 net.cpp:399] inception_4c/5x5 -> inception_4c/5x5
I0403 17:47:40.858991 15016 net.cpp:141] Setting up inception_4c/5x5
I0403 17:47:40.859020 15016 net.cpp:148] Top shape: 24 64 14 14 (301056)
I0403 17:47:40.859040 15016 net.cpp:156] Memory required for data: 1049767200
I0403 17:47:40.859057 15016 layer_factory.hpp:77] Creating layer inception_4c/relu_5x5
I0403 17:47:40.859076 15016 net.cpp:91] Creating Layer inception_4c/relu_5x5
I0403 17:47:40.859092 15016 net.cpp:425] inception_4c/relu_5x5 <- inception_4c/5x5
I0403 17:47:40.859112 15016 net.cpp:386] inception_4c/relu_5x5 -> inception_4c/5x5 (in-place)
I0403 17:47:40.859402 15016 net.cpp:141] Setting up inception_4c/relu_5x5
I0403 17:47:40.859431 15016 net.cpp:148] Top shape: 24 64 14 14 (301056)
I0403 17:47:40.859447 15016 net.cpp:156] Memory required for data: 1050971424
I0403 17:47:40.859462 15016 layer_factory.hpp:77] Creating layer inception_4c/pool
I0403 17:47:40.859480 15016 net.cpp:91] Creating Layer inception_4c/pool
I0403 17:47:40.859498 15016 net.cpp:425] inception_4c/pool <- inception_4b/output_inception_4b/output_0_split_3
I0403 17:47:40.859518 15016 net.cpp:399] inception_4c/pool -> inception_4c/pool
I0403 17:47:40.859581 15016 net.cpp:141] Setting up inception_4c/pool
I0403 17:47:40.859606 15016 net.cpp:148] Top shape: 24 512 14 14 (2408448)
I0403 17:47:40.859621 15016 net.cpp:156] Memory required for data: 1060605216
I0403 17:47:40.859635 15016 layer_factory.hpp:77] Creating layer inception_4c/pool_proj
I0403 17:47:40.859658 15016 net.cpp:91] Creating Layer inception_4c/pool_proj
I0403 17:47:40.859675 15016 net.cpp:425] inception_4c/pool_proj <- inception_4c/pool
I0403 17:47:40.859696 15016 net.cpp:399] inception_4c/pool_proj -> inception_4c/pool_proj
I0403 17:47:40.860929 15016 net.cpp:141] Setting up inception_4c/pool_proj
I0403 17:47:40.860973 15016 net.cpp:148] Top shape: 24 64 14 14 (301056)
I0403 17:47:40.861006 15016 net.cpp:156] Memory required for data: 1061809440
I0403 17:47:40.861027 15016 layer_factory.hpp:77] Creating layer inception_4c/relu_pool_proj
I0403 17:47:40.861050 15016 net.cpp:91] Creating Layer inception_4c/relu_pool_proj
I0403 17:47:40.861069 15016 net.cpp:425] inception_4c/relu_pool_proj <- inception_4c/pool_proj
I0403 17:47:40.861088 15016 net.cpp:386] inception_4c/relu_pool_proj -> inception_4c/pool_proj (in-place)
I0403 17:47:40.861299 15016 net.cpp:141] Setting up inception_4c/relu_pool_proj
I0403 17:47:40.861325 15016 net.cpp:148] Top shape: 24 64 14 14 (301056)
I0403 17:47:40.861341 15016 net.cpp:156] Memory required for data: 1063013664
I0403 17:47:40.861356 15016 layer_factory.hpp:77] Creating layer inception_4c/output
I0403 17:47:40.861374 15016 net.cpp:91] Creating Layer inception_4c/output
I0403 17:47:40.861392 15016 net.cpp:425] inception_4c/output <- inception_4c/1x1
I0403 17:47:40.861409 15016 net.cpp:425] inception_4c/output <- inception_4c/3x3
I0403 17:47:40.861425 15016 net.cpp:425] inception_4c/output <- inception_4c/5x5
I0403 17:47:40.861441 15016 net.cpp:425] inception_4c/output <- inception_4c/pool_proj
I0403 17:47:40.861461 15016 net.cpp:399] inception_4c/output -> inception_4c/output
I0403 17:47:40.861507 15016 net.cpp:141] Setting up inception_4c/output
I0403 17:47:40.861531 15016 net.cpp:148] Top shape: 24 512 14 14 (2408448)
I0403 17:47:40.861546 15016 net.cpp:156] Memory required for data: 1072647456
I0403 17:47:40.861562 15016 layer_factory.hpp:77] Creating layer inception_4c/output_inception_4c/output_0_split
I0403 17:47:40.861582 15016 net.cpp:91] Creating Layer inception_4c/output_inception_4c/output_0_split
I0403 17:47:40.861598 15016 net.cpp:425] inception_4c/output_inception_4c/output_0_split <- inception_4c/output
I0403 17:47:40.861616 15016 net.cpp:399] inception_4c/output_inception_4c/output_0_split -> inception_4c/output_inception_4c/output_0_split_0
I0403 17:47:40.861637 15016 net.cpp:399] inception_4c/output_inception_4c/output_0_split -> inception_4c/output_inception_4c/output_0_split_1
I0403 17:47:40.861657 15016 net.cpp:399] inception_4c/output_inception_4c/output_0_split -> inception_4c/output_inception_4c/output_0_split_2
I0403 17:47:40.861681 15016 net.cpp:399] inception_4c/output_inception_4c/output_0_split -> inception_4c/output_inception_4c/output_0_split_3
I0403 17:47:40.861766 15016 net.cpp:141] Setting up inception_4c/output_inception_4c/output_0_split
I0403 17:47:40.861790 15016 net.cpp:148] Top shape: 24 512 14 14 (2408448)
I0403 17:47:40.861806 15016 net.cpp:148] Top shape: 24 512 14 14 (2408448)
I0403 17:47:40.861824 15016 net.cpp:148] Top shape: 24 512 14 14 (2408448)
I0403 17:47:40.861840 15016 net.cpp:148] Top shape: 24 512 14 14 (2408448)
I0403 17:47:40.861852 15016 net.cpp:156] Memory required for data: 1111182624
I0403 17:47:40.861867 15016 layer_factory.hpp:77] Creating layer inception_4d/1x1
I0403 17:47:40.861891 15016 net.cpp:91] Creating Layer inception_4d/1x1
I0403 17:47:40.861907 15016 net.cpp:425] inception_4d/1x1 <- inception_4c/output_inception_4c/output_0_split_0
I0403 17:47:40.861933 15016 net.cpp:399] inception_4d/1x1 -> inception_4d/1x1
I0403 17:47:40.863286 15016 net.cpp:141] Setting up inception_4d/1x1
I0403 17:47:40.863314 15016 net.cpp:148] Top shape: 24 112 14 14 (526848)
I0403 17:47:40.863332 15016 net.cpp:156] Memory required for data: 1113290016
I0403 17:47:40.863350 15016 layer_factory.hpp:77] Creating layer inception_4d/relu_1x1
I0403 17:47:40.863371 15016 net.cpp:91] Creating Layer inception_4d/relu_1x1
I0403 17:47:40.863390 15016 net.cpp:425] inception_4d/relu_1x1 <- inception_4d/1x1
I0403 17:47:40.863409 15016 net.cpp:386] inception_4d/relu_1x1 -> inception_4d/1x1 (in-place)
I0403 17:47:40.863600 15016 net.cpp:141] Setting up inception_4d/relu_1x1
I0403 17:47:40.863623 15016 net.cpp:148] Top shape: 24 112 14 14 (526848)
I0403 17:47:40.863639 15016 net.cpp:156] Memory required for data: 1115397408
I0403 17:47:40.863654 15016 layer_factory.hpp:77] Creating layer inception_4d/3x3_reduce
I0403 17:47:40.863692 15016 net.cpp:91] Creating Layer inception_4d/3x3_reduce
I0403 17:47:40.863710 15016 net.cpp:425] inception_4d/3x3_reduce <- inception_4c/output_inception_4c/output_0_split_1
I0403 17:47:40.863732 15016 net.cpp:399] inception_4d/3x3_reduce -> inception_4d/3x3_reduce
I0403 17:47:40.865195 15016 net.cpp:141] Setting up inception_4d/3x3_reduce
I0403 17:47:40.865224 15016 net.cpp:148] Top shape: 24 144 14 14 (677376)
I0403 17:47:40.865239 15016 net.cpp:156] Memory required for data: 1118106912
I0403 17:47:40.865258 15016 layer_factory.hpp:77] Creating layer inception_4d/relu_3x3_reduce
I0403 17:47:40.865277 15016 net.cpp:91] Creating Layer inception_4d/relu_3x3_reduce
I0403 17:47:40.865293 15016 net.cpp:425] inception_4d/relu_3x3_reduce <- inception_4d/3x3_reduce
I0403 17:47:40.865314 15016 net.cpp:386] inception_4d/relu_3x3_reduce -> inception_4d/3x3_reduce (in-place)
I0403 17:47:40.865593 15016 net.cpp:141] Setting up inception_4d/relu_3x3_reduce
I0403 17:47:40.865619 15016 net.cpp:148] Top shape: 24 144 14 14 (677376)
I0403 17:47:40.865634 15016 net.cpp:156] Memory required for data: 1120816416
I0403 17:47:40.865649 15016 layer_factory.hpp:77] Creating layer inception_4d/3x3
I0403 17:47:40.865672 15016 net.cpp:91] Creating Layer inception_4d/3x3
I0403 17:47:40.865690 15016 net.cpp:425] inception_4d/3x3 <- inception_4d/3x3_reduce
I0403 17:47:40.865712 15016 net.cpp:399] inception_4d/3x3 -> inception_4d/3x3
I0403 17:47:40.869881 15016 net.cpp:141] Setting up inception_4d/3x3
I0403 17:47:40.869910 15016 net.cpp:148] Top shape: 24 288 14 14 (1354752)
I0403 17:47:40.869930 15016 net.cpp:156] Memory required for data: 1126235424
I0403 17:47:40.869953 15016 layer_factory.hpp:77] Creating layer inception_4d/relu_3x3
I0403 17:47:40.869976 15016 net.cpp:91] Creating Layer inception_4d/relu_3x3
I0403 17:47:40.869995 15016 net.cpp:425] inception_4d/relu_3x3 <- inception_4d/3x3
I0403 17:47:40.870014 15016 net.cpp:386] inception_4d/relu_3x3 -> inception_4d/3x3 (in-place)
I0403 17:47:40.870193 15016 net.cpp:141] Setting up inception_4d/relu_3x3
I0403 17:47:40.870218 15016 net.cpp:148] Top shape: 24 288 14 14 (1354752)
I0403 17:47:40.870234 15016 net.cpp:156] Memory required for data: 1131654432
I0403 17:47:40.870249 15016 layer_factory.hpp:77] Creating layer inception_4d/5x5_reduce
I0403 17:47:40.870273 15016 net.cpp:91] Creating Layer inception_4d/5x5_reduce
I0403 17:47:40.870291 15016 net.cpp:425] inception_4d/5x5_reduce <- inception_4c/output_inception_4c/output_0_split_2
I0403 17:47:40.870312 15016 net.cpp:399] inception_4d/5x5_reduce -> inception_4d/5x5_reduce
I0403 17:47:40.871424 15016 net.cpp:141] Setting up inception_4d/5x5_reduce
I0403 17:47:40.871451 15016 net.cpp:148] Top shape: 24 32 14 14 (150528)
I0403 17:47:40.871467 15016 net.cpp:156] Memory required for data: 1132256544
I0403 17:47:40.871485 15016 layer_factory.hpp:77] Creating layer inception_4d/relu_5x5_reduce
I0403 17:47:40.871505 15016 net.cpp:91] Creating Layer inception_4d/relu_5x5_reduce
I0403 17:47:40.871523 15016 net.cpp:425] inception_4d/relu_5x5_reduce <- inception_4d/5x5_reduce
I0403 17:47:40.871541 15016 net.cpp:386] inception_4d/relu_5x5_reduce -> inception_4d/5x5_reduce (in-place)
I0403 17:47:40.871722 15016 net.cpp:141] Setting up inception_4d/relu_5x5_reduce
I0403 17:47:40.871747 15016 net.cpp:148] Top shape: 24 32 14 14 (150528)
I0403 17:47:40.871762 15016 net.cpp:156] Memory required for data: 1132858656
I0403 17:47:40.871778 15016 layer_factory.hpp:77] Creating layer inception_4d/5x5
I0403 17:47:40.871801 15016 net.cpp:91] Creating Layer inception_4d/5x5
I0403 17:47:40.871819 15016 net.cpp:425] inception_4d/5x5 <- inception_4d/5x5_reduce
I0403 17:47:40.871840 15016 net.cpp:399] inception_4d/5x5 -> inception_4d/5x5
I0403 17:47:40.873275 15016 net.cpp:141] Setting up inception_4d/5x5
I0403 17:47:40.873301 15016 net.cpp:148] Top shape: 24 64 14 14 (301056)
I0403 17:47:40.873317 15016 net.cpp:156] Memory required for data: 1134062880
I0403 17:47:40.873335 15016 layer_factory.hpp:77] Creating layer inception_4d/relu_5x5
I0403 17:47:40.873370 15016 net.cpp:91] Creating Layer inception_4d/relu_5x5
I0403 17:47:40.873389 15016 net.cpp:425] inception_4d/relu_5x5 <- inception_4d/5x5
I0403 17:47:40.873406 15016 net.cpp:386] inception_4d/relu_5x5 -> inception_4d/5x5 (in-place)
I0403 17:47:40.873702 15016 net.cpp:141] Setting up inception_4d/relu_5x5
I0403 17:47:40.873728 15016 net.cpp:148] Top shape: 24 64 14 14 (301056)
I0403 17:47:40.873742 15016 net.cpp:156] Memory required for data: 1135267104
I0403 17:47:40.873757 15016 layer_factory.hpp:77] Creating layer inception_4d/pool
I0403 17:47:40.873778 15016 net.cpp:91] Creating Layer inception_4d/pool
I0403 17:47:40.873796 15016 net.cpp:425] inception_4d/pool <- inception_4c/output_inception_4c/output_0_split_3
I0403 17:47:40.873816 15016 net.cpp:399] inception_4d/pool -> inception_4d/pool
I0403 17:47:40.873884 15016 net.cpp:141] Setting up inception_4d/pool
I0403 17:47:40.873908 15016 net.cpp:148] Top shape: 24 512 14 14 (2408448)
I0403 17:47:40.873925 15016 net.cpp:156] Memory required for data: 1144900896
I0403 17:47:40.873940 15016 layer_factory.hpp:77] Creating layer inception_4d/pool_proj
I0403 17:47:40.873967 15016 net.cpp:91] Creating Layer inception_4d/pool_proj
I0403 17:47:40.873986 15016 net.cpp:425] inception_4d/pool_proj <- inception_4d/pool
I0403 17:47:40.874007 15016 net.cpp:399] inception_4d/pool_proj -> inception_4d/pool_proj
I0403 17:47:40.875730 15016 net.cpp:141] Setting up inception_4d/pool_proj
I0403 17:47:40.875757 15016 net.cpp:148] Top shape: 24 64 14 14 (301056)
I0403 17:47:40.875773 15016 net.cpp:156] Memory required for data: 1146105120
I0403 17:47:40.875792 15016 layer_factory.hpp:77] Creating layer inception_4d/relu_pool_proj
I0403 17:47:40.875813 15016 net.cpp:91] Creating Layer inception_4d/relu_pool_proj
I0403 17:47:40.875830 15016 net.cpp:425] inception_4d/relu_pool_proj <- inception_4d/pool_proj
I0403 17:47:40.875849 15016 net.cpp:386] inception_4d/relu_pool_proj -> inception_4d/pool_proj (in-place)
I0403 17:47:40.876034 15016 net.cpp:141] Setting up inception_4d/relu_pool_proj
I0403 17:47:40.876058 15016 net.cpp:148] Top shape: 24 64 14 14 (301056)
I0403 17:47:40.876075 15016 net.cpp:156] Memory required for data: 1147309344
I0403 17:47:40.876091 15016 layer_factory.hpp:77] Creating layer inception_4d/output
I0403 17:47:40.876109 15016 net.cpp:91] Creating Layer inception_4d/output
I0403 17:47:40.876126 15016 net.cpp:425] inception_4d/output <- inception_4d/1x1
I0403 17:47:40.876142 15016 net.cpp:425] inception_4d/output <- inception_4d/3x3
I0403 17:47:40.876158 15016 net.cpp:425] inception_4d/output <- inception_4d/5x5
I0403 17:47:40.876174 15016 net.cpp:425] inception_4d/output <- inception_4d/pool_proj
I0403 17:47:40.876191 15016 net.cpp:399] inception_4d/output -> inception_4d/output
I0403 17:47:40.876240 15016 net.cpp:141] Setting up inception_4d/output
I0403 17:47:40.876265 15016 net.cpp:148] Top shape: 24 528 14 14 (2483712)
I0403 17:47:40.876279 15016 net.cpp:156] Memory required for data: 1157244192
I0403 17:47:40.876296 15016 layer_factory.hpp:77] Creating layer inception_4d/output_inception_4d/output_0_split
I0403 17:47:40.876313 15016 net.cpp:91] Creating Layer inception_4d/output_inception_4d/output_0_split
I0403 17:47:40.876329 15016 net.cpp:425] inception_4d/output_inception_4d/output_0_split <- inception_4d/output
I0403 17:47:40.876350 15016 net.cpp:399] inception_4d/output_inception_4d/output_0_split -> inception_4d/output_inception_4d/output_0_split_0
I0403 17:47:40.876371 15016 net.cpp:399] inception_4d/output_inception_4d/output_0_split -> inception_4d/output_inception_4d/output_0_split_1
I0403 17:47:40.876392 15016 net.cpp:399] inception_4d/output_inception_4d/output_0_split -> inception_4d/output_inception_4d/output_0_split_2
I0403 17:47:40.876413 15016 net.cpp:399] inception_4d/output_inception_4d/output_0_split -> inception_4d/output_inception_4d/output_0_split_3
I0403 17:47:40.876433 15016 net.cpp:399] inception_4d/output_inception_4d/output_0_split -> inception_4d/output_inception_4d/output_0_split_4
I0403 17:47:40.876535 15016 net.cpp:141] Setting up inception_4d/output_inception_4d/output_0_split
I0403 17:47:40.876571 15016 net.cpp:148] Top shape: 24 528 14 14 (2483712)
I0403 17:47:40.876590 15016 net.cpp:148] Top shape: 24 528 14 14 (2483712)
I0403 17:47:40.876605 15016 net.cpp:148] Top shape: 24 528 14 14 (2483712)
I0403 17:47:40.876622 15016 net.cpp:148] Top shape: 24 528 14 14 (2483712)
I0403 17:47:40.876637 15016 net.cpp:148] Top shape: 24 528 14 14 (2483712)
I0403 17:47:40.876652 15016 net.cpp:156] Memory required for data: 1206918432
I0403 17:47:40.876665 15016 layer_factory.hpp:77] Creating layer loss2/ave_pool
I0403 17:47:40.876683 15016 net.cpp:91] Creating Layer loss2/ave_pool
I0403 17:47:40.876700 15016 net.cpp:425] loss2/ave_pool <- inception_4d/output_inception_4d/output_0_split_0
I0403 17:47:40.876721 15016 net.cpp:399] loss2/ave_pool -> loss2/ave_pool
I0403 17:47:40.877035 15016 net.cpp:141] Setting up loss2/ave_pool
I0403 17:47:40.877060 15016 net.cpp:148] Top shape: 24 528 4 4 (202752)
I0403 17:47:40.877077 15016 net.cpp:156] Memory required for data: 1207729440
I0403 17:47:40.877092 15016 layer_factory.hpp:77] Creating layer loss2/conv
I0403 17:47:40.877115 15016 net.cpp:91] Creating Layer loss2/conv
I0403 17:47:40.877133 15016 net.cpp:425] loss2/conv <- loss2/ave_pool
I0403 17:47:40.877156 15016 net.cpp:399] loss2/conv -> loss2/conv
I0403 17:47:40.879077 15016 net.cpp:141] Setting up loss2/conv
I0403 17:47:40.879109 15016 net.cpp:148] Top shape: 24 128 4 4 (49152)
I0403 17:47:40.879125 15016 net.cpp:156] Memory required for data: 1207926048
I0403 17:47:40.879144 15016 layer_factory.hpp:77] Creating layer loss2/relu_conv
I0403 17:47:40.879163 15016 net.cpp:91] Creating Layer loss2/relu_conv
I0403 17:47:40.879192 15016 net.cpp:425] loss2/relu_conv <- loss2/conv
I0403 17:47:40.879210 15016 net.cpp:386] loss2/relu_conv -> loss2/conv (in-place)
I0403 17:47:40.879505 15016 net.cpp:141] Setting up loss2/relu_conv
I0403 17:47:40.879534 15016 net.cpp:148] Top shape: 24 128 4 4 (49152)
I0403 17:47:40.879550 15016 net.cpp:156] Memory required for data: 1208122656
I0403 17:47:40.879565 15016 layer_factory.hpp:77] Creating layer loss2/fc
I0403 17:47:40.879583 15016 net.cpp:91] Creating Layer loss2/fc
I0403 17:47:40.879601 15016 net.cpp:425] loss2/fc <- loss2/conv
I0403 17:47:40.879621 15016 net.cpp:399] loss2/fc -> loss2/fc
I0403 17:47:40.896765 15016 net.cpp:141] Setting up loss2/fc
I0403 17:47:40.896800 15016 net.cpp:148] Top shape: 24 1024 (24576)
I0403 17:47:40.896816 15016 net.cpp:156] Memory required for data: 1208220960
I0403 17:47:40.896834 15016 layer_factory.hpp:77] Creating layer loss2/relu_fc
I0403 17:47:40.896857 15016 net.cpp:91] Creating Layer loss2/relu_fc
I0403 17:47:40.896875 15016 net.cpp:425] loss2/relu_fc <- loss2/fc
I0403 17:47:40.896894 15016 net.cpp:386] loss2/relu_fc -> loss2/fc (in-place)
I0403 17:47:40.897193 15016 net.cpp:141] Setting up loss2/relu_fc
I0403 17:47:40.897219 15016 net.cpp:148] Top shape: 24 1024 (24576)
I0403 17:47:40.897234 15016 net.cpp:156] Memory required for data: 1208319264
I0403 17:47:40.897248 15016 layer_factory.hpp:77] Creating layer loss2/drop_fc
I0403 17:47:40.897269 15016 net.cpp:91] Creating Layer loss2/drop_fc
I0403 17:47:40.897287 15016 net.cpp:425] loss2/drop_fc <- loss2/fc
I0403 17:47:40.897305 15016 net.cpp:386] loss2/drop_fc -> loss2/fc (in-place)
I0403 17:47:40.897353 15016 net.cpp:141] Setting up loss2/drop_fc
I0403 17:47:40.897378 15016 net.cpp:148] Top shape: 24 1024 (24576)
I0403 17:47:40.897393 15016 net.cpp:156] Memory required for data: 1208417568
I0403 17:47:40.897408 15016 layer_factory.hpp:77] Creating layer loss2/classifier_plantvillage
I0403 17:47:40.897426 15016 net.cpp:91] Creating Layer loss2/classifier_plantvillage
I0403 17:47:40.897444 15016 net.cpp:425] loss2/classifier_plantvillage <- loss2/fc
I0403 17:47:40.897464 15016 net.cpp:399] loss2/classifier_plantvillage -> loss2/classifier_plantvillage
I0403 17:47:40.897857 15016 net.cpp:141] Setting up loss2/classifier_plantvillage
I0403 17:47:40.897881 15016 net.cpp:148] Top shape: 24 38 (912)
I0403 17:47:40.897912 15016 net.cpp:156] Memory required for data: 1208421216
I0403 17:47:40.897933 15016 layer_factory.hpp:77] Creating layer loss2/classifier_plantvillage_loss2/classifier_plantvillage_0_split
I0403 17:47:40.897959 15016 net.cpp:91] Creating Layer loss2/classifier_plantvillage_loss2/classifier_plantvillage_0_split
I0403 17:47:40.897979 15016 net.cpp:425] loss2/classifier_plantvillage_loss2/classifier_plantvillage_0_split <- loss2/classifier_plantvillage
I0403 17:47:40.897996 15016 net.cpp:399] loss2/classifier_plantvillage_loss2/classifier_plantvillage_0_split -> loss2/classifier_plantvillage_loss2/classifier_plantvillage_0_split_0
I0403 17:47:40.898020 15016 net.cpp:399] loss2/classifier_plantvillage_loss2/classifier_plantvillage_0_split -> loss2/classifier_plantvillage_loss2/classifier_plantvillage_0_split_1
I0403 17:47:40.898041 15016 net.cpp:399] loss2/classifier_plantvillage_loss2/classifier_plantvillage_0_split -> loss2/classifier_plantvillage_loss2/classifier_plantvillage_0_split_2
I0403 17:47:40.898116 15016 net.cpp:141] Setting up loss2/classifier_plantvillage_loss2/classifier_plantvillage_0_split
I0403 17:47:40.898139 15016 net.cpp:148] Top shape: 24 38 (912)
I0403 17:47:40.898159 15016 net.cpp:148] Top shape: 24 38 (912)
I0403 17:47:40.898175 15016 net.cpp:148] Top shape: 24 38 (912)
I0403 17:47:40.898188 15016 net.cpp:156] Memory required for data: 1208432160
I0403 17:47:40.898203 15016 layer_factory.hpp:77] Creating layer inception_4e/1x1
I0403 17:47:40.898224 15016 net.cpp:91] Creating Layer inception_4e/1x1
I0403 17:47:40.898241 15016 net.cpp:425] inception_4e/1x1 <- inception_4d/output_inception_4d/output_0_split_1
I0403 17:47:40.898262 15016 net.cpp:399] inception_4e/1x1 -> inception_4e/1x1
I0403 17:47:40.900032 15016 net.cpp:141] Setting up inception_4e/1x1
I0403 17:47:40.900061 15016 net.cpp:148] Top shape: 24 256 14 14 (1204224)
I0403 17:47:40.900077 15016 net.cpp:156] Memory required for data: 1213249056
I0403 17:47:40.900096 15016 layer_factory.hpp:77] Creating layer inception_4e/relu_1x1
I0403 17:47:40.900115 15016 net.cpp:91] Creating Layer inception_4e/relu_1x1
I0403 17:47:40.900131 15016 net.cpp:425] inception_4e/relu_1x1 <- inception_4e/1x1
I0403 17:47:40.900151 15016 net.cpp:386] inception_4e/relu_1x1 -> inception_4e/1x1 (in-place)
I0403 17:47:40.900440 15016 net.cpp:141] Setting up inception_4e/relu_1x1
I0403 17:47:40.900467 15016 net.cpp:148] Top shape: 24 256 14 14 (1204224)
I0403 17:47:40.900483 15016 net.cpp:156] Memory required for data: 1218065952
I0403 17:47:40.900499 15016 layer_factory.hpp:77] Creating layer inception_4e/3x3_reduce
I0403 17:47:40.900522 15016 net.cpp:91] Creating Layer inception_4e/3x3_reduce
I0403 17:47:40.900540 15016 net.cpp:425] inception_4e/3x3_reduce <- inception_4d/output_inception_4d/output_0_split_2
I0403 17:47:40.900559 15016 net.cpp:399] inception_4e/3x3_reduce -> inception_4e/3x3_reduce
I0403 17:47:40.902623 15016 net.cpp:141] Setting up inception_4e/3x3_reduce
I0403 17:47:40.902652 15016 net.cpp:148] Top shape: 24 160 14 14 (752640)
I0403 17:47:40.902669 15016 net.cpp:156] Memory required for data: 1221076512
I0403 17:47:40.902688 15016 layer_factory.hpp:77] Creating layer inception_4e/relu_3x3_reduce
I0403 17:47:40.902707 15016 net.cpp:91] Creating Layer inception_4e/relu_3x3_reduce
I0403 17:47:40.902724 15016 net.cpp:425] inception_4e/relu_3x3_reduce <- inception_4e/3x3_reduce
I0403 17:47:40.902741 15016 net.cpp:386] inception_4e/relu_3x3_reduce -> inception_4e/3x3_reduce (in-place)
I0403 17:47:40.902921 15016 net.cpp:141] Setting up inception_4e/relu_3x3_reduce
I0403 17:47:40.902951 15016 net.cpp:148] Top shape: 24 160 14 14 (752640)
I0403 17:47:40.902968 15016 net.cpp:156] Memory required for data: 1224087072
I0403 17:47:40.902984 15016 layer_factory.hpp:77] Creating layer inception_4e/3x3
I0403 17:47:40.903007 15016 net.cpp:91] Creating Layer inception_4e/3x3
I0403 17:47:40.903024 15016 net.cpp:425] inception_4e/3x3 <- inception_4e/3x3_reduce
I0403 17:47:40.903043 15016 net.cpp:399] inception_4e/3x3 -> inception_4e/3x3
I0403 17:47:40.907903 15016 net.cpp:141] Setting up inception_4e/3x3
I0403 17:47:40.907954 15016 net.cpp:148] Top shape: 24 320 14 14 (1505280)
I0403 17:47:40.907974 15016 net.cpp:156] Memory required for data: 1230108192
I0403 17:47:40.907994 15016 layer_factory.hpp:77] Creating layer inception_4e/relu_3x3
I0403 17:47:40.908011 15016 net.cpp:91] Creating Layer inception_4e/relu_3x3
I0403 17:47:40.908028 15016 net.cpp:425] inception_4e/relu_3x3 <- inception_4e/3x3
I0403 17:47:40.908048 15016 net.cpp:386] inception_4e/relu_3x3 -> inception_4e/3x3 (in-place)
I0403 17:47:40.908340 15016 net.cpp:141] Setting up inception_4e/relu_3x3
I0403 17:47:40.908366 15016 net.cpp:148] Top shape: 24 320 14 14 (1505280)
I0403 17:47:40.908382 15016 net.cpp:156] Memory required for data: 1236129312
I0403 17:47:40.908398 15016 layer_factory.hpp:77] Creating layer inception_4e/5x5_reduce
I0403 17:47:40.908421 15016 net.cpp:91] Creating Layer inception_4e/5x5_reduce
I0403 17:47:40.908440 15016 net.cpp:425] inception_4e/5x5_reduce <- inception_4d/output_inception_4d/output_0_split_3
I0403 17:47:40.908462 15016 net.cpp:399] inception_4e/5x5_reduce -> inception_4e/5x5_reduce
I0403 17:47:40.909502 15016 net.cpp:141] Setting up inception_4e/5x5_reduce
I0403 17:47:40.909529 15016 net.cpp:148] Top shape: 24 32 14 14 (150528)
I0403 17:47:40.909544 15016 net.cpp:156] Memory required for data: 1236731424
I0403 17:47:40.909562 15016 layer_factory.hpp:77] Creating layer inception_4e/relu_5x5_reduce
I0403 17:47:40.909584 15016 net.cpp:91] Creating Layer inception_4e/relu_5x5_reduce
I0403 17:47:40.909600 15016 net.cpp:425] inception_4e/relu_5x5_reduce <- inception_4e/5x5_reduce
I0403 17:47:40.909618 15016 net.cpp:386] inception_4e/relu_5x5_reduce -> inception_4e/5x5_reduce (in-place)
I0403 17:47:40.909914 15016 net.cpp:141] Setting up inception_4e/relu_5x5_reduce
I0403 17:47:40.909940 15016 net.cpp:148] Top shape: 24 32 14 14 (150528)
I0403 17:47:40.909960 15016 net.cpp:156] Memory required for data: 1237333536
I0403 17:47:40.909976 15016 layer_factory.hpp:77] Creating layer inception_4e/5x5
I0403 17:47:40.910014 15016 net.cpp:91] Creating Layer inception_4e/5x5
I0403 17:47:40.910033 15016 net.cpp:425] inception_4e/5x5 <- inception_4e/5x5_reduce
I0403 17:47:40.910053 15016 net.cpp:399] inception_4e/5x5 -> inception_4e/5x5
I0403 17:47:40.911877 15016 net.cpp:141] Setting up inception_4e/5x5
I0403 17:47:40.911906 15016 net.cpp:148] Top shape: 24 128 14 14 (602112)
I0403 17:47:40.911922 15016 net.cpp:156] Memory required for data: 1239741984
I0403 17:47:40.911942 15016 layer_factory.hpp:77] Creating layer inception_4e/relu_5x5
I0403 17:47:40.911967 15016 net.cpp:91] Creating Layer inception_4e/relu_5x5
I0403 17:47:40.911985 15016 net.cpp:425] inception_4e/relu_5x5 <- inception_4e/5x5
I0403 17:47:40.912003 15016 net.cpp:386] inception_4e/relu_5x5 -> inception_4e/5x5 (in-place)
I0403 17:47:40.912194 15016 net.cpp:141] Setting up inception_4e/relu_5x5
I0403 17:47:40.912220 15016 net.cpp:148] Top shape: 24 128 14 14 (602112)
I0403 17:47:40.912236 15016 net.cpp:156] Memory required for data: 1242150432
I0403 17:47:40.912251 15016 layer_factory.hpp:77] Creating layer inception_4e/pool
I0403 17:47:40.912271 15016 net.cpp:91] Creating Layer inception_4e/pool
I0403 17:47:40.912286 15016 net.cpp:425] inception_4e/pool <- inception_4d/output_inception_4d/output_0_split_4
I0403 17:47:40.912304 15016 net.cpp:399] inception_4e/pool -> inception_4e/pool
I0403 17:47:40.912374 15016 net.cpp:141] Setting up inception_4e/pool
I0403 17:47:40.912396 15016 net.cpp:148] Top shape: 24 528 14 14 (2483712)
I0403 17:47:40.912411 15016 net.cpp:156] Memory required for data: 1252085280
I0403 17:47:40.912427 15016 layer_factory.hpp:77] Creating layer inception_4e/pool_proj
I0403 17:47:40.912451 15016 net.cpp:91] Creating Layer inception_4e/pool_proj
I0403 17:47:40.912469 15016 net.cpp:425] inception_4e/pool_proj <- inception_4e/pool
I0403 17:47:40.912490 15016 net.cpp:399] inception_4e/pool_proj -> inception_4e/pool_proj
I0403 17:47:40.913991 15016 net.cpp:141] Setting up inception_4e/pool_proj
I0403 17:47:40.914031 15016 net.cpp:148] Top shape: 24 128 14 14 (602112)
I0403 17:47:40.914047 15016 net.cpp:156] Memory required for data: 1254493728
I0403 17:47:40.914065 15016 layer_factory.hpp:77] Creating layer inception_4e/relu_pool_proj
I0403 17:47:40.914089 15016 net.cpp:91] Creating Layer inception_4e/relu_pool_proj
I0403 17:47:40.914108 15016 net.cpp:425] inception_4e/relu_pool_proj <- inception_4e/pool_proj
I0403 17:47:40.914124 15016 net.cpp:386] inception_4e/relu_pool_proj -> inception_4e/pool_proj (in-place)
I0403 17:47:40.914412 15016 net.cpp:141] Setting up inception_4e/relu_pool_proj
I0403 17:47:40.914438 15016 net.cpp:148] Top shape: 24 128 14 14 (602112)
I0403 17:47:40.914453 15016 net.cpp:156] Memory required for data: 1256902176
I0403 17:47:40.914469 15016 layer_factory.hpp:77] Creating layer inception_4e/output
I0403 17:47:40.914487 15016 net.cpp:91] Creating Layer inception_4e/output
I0403 17:47:40.914504 15016 net.cpp:425] inception_4e/output <- inception_4e/1x1
I0403 17:47:40.914520 15016 net.cpp:425] inception_4e/output <- inception_4e/3x3
I0403 17:47:40.914538 15016 net.cpp:425] inception_4e/output <- inception_4e/5x5
I0403 17:47:40.914554 15016 net.cpp:425] inception_4e/output <- inception_4e/pool_proj
I0403 17:47:40.914574 15016 net.cpp:399] inception_4e/output -> inception_4e/output
I0403 17:47:40.914626 15016 net.cpp:141] Setting up inception_4e/output
I0403 17:47:40.914650 15016 net.cpp:148] Top shape: 24 832 14 14 (3913728)
I0403 17:47:40.914665 15016 net.cpp:156] Memory required for data: 1272557088
I0403 17:47:40.914680 15016 layer_factory.hpp:77] Creating layer pool4/3x3_s2
I0403 17:47:40.914698 15016 net.cpp:91] Creating Layer pool4/3x3_s2
I0403 17:47:40.914716 15016 net.cpp:425] pool4/3x3_s2 <- inception_4e/output
I0403 17:47:40.914736 15016 net.cpp:399] pool4/3x3_s2 -> pool4/3x3_s2
I0403 17:47:40.914803 15016 net.cpp:141] Setting up pool4/3x3_s2
I0403 17:47:40.914825 15016 net.cpp:148] Top shape: 24 832 7 7 (978432)
I0403 17:47:40.914841 15016 net.cpp:156] Memory required for data: 1276470816
I0403 17:47:40.914855 15016 layer_factory.hpp:77] Creating layer pool4/3x3_s2_pool4/3x3_s2_0_split
I0403 17:47:40.914877 15016 net.cpp:91] Creating Layer pool4/3x3_s2_pool4/3x3_s2_0_split
I0403 17:47:40.914894 15016 net.cpp:425] pool4/3x3_s2_pool4/3x3_s2_0_split <- pool4/3x3_s2
I0403 17:47:40.914913 15016 net.cpp:399] pool4/3x3_s2_pool4/3x3_s2_0_split -> pool4/3x3_s2_pool4/3x3_s2_0_split_0
I0403 17:47:40.914933 15016 net.cpp:399] pool4/3x3_s2_pool4/3x3_s2_0_split -> pool4/3x3_s2_pool4/3x3_s2_0_split_1
I0403 17:47:40.914961 15016 net.cpp:399] pool4/3x3_s2_pool4/3x3_s2_0_split -> pool4/3x3_s2_pool4/3x3_s2_0_split_2
I0403 17:47:40.914983 15016 net.cpp:399] pool4/3x3_s2_pool4/3x3_s2_0_split -> pool4/3x3_s2_pool4/3x3_s2_0_split_3
I0403 17:47:40.915071 15016 net.cpp:141] Setting up pool4/3x3_s2_pool4/3x3_s2_0_split
I0403 17:47:40.915094 15016 net.cpp:148] Top shape: 24 832 7 7 (978432)
I0403 17:47:40.915112 15016 net.cpp:148] Top shape: 24 832 7 7 (978432)
I0403 17:47:40.915127 15016 net.cpp:148] Top shape: 24 832 7 7 (978432)
I0403 17:47:40.915143 15016 net.cpp:148] Top shape: 24 832 7 7 (978432)
I0403 17:47:40.915158 15016 net.cpp:156] Memory required for data: 1292125728
I0403 17:47:40.915172 15016 layer_factory.hpp:77] Creating layer inception_5a/1x1
I0403 17:47:40.915195 15016 net.cpp:91] Creating Layer inception_5a/1x1
I0403 17:47:40.915213 15016 net.cpp:425] inception_5a/1x1 <- pool4/3x3_s2_pool4/3x3_s2_0_split_0
I0403 17:47:40.915235 15016 net.cpp:399] inception_5a/1x1 -> inception_5a/1x1
I0403 17:47:40.918023 15016 net.cpp:141] Setting up inception_5a/1x1
I0403 17:47:40.918051 15016 net.cpp:148] Top shape: 24 256 7 7 (301056)
I0403 17:47:40.918066 15016 net.cpp:156] Memory required for data: 1293329952
I0403 17:47:40.918084 15016 layer_factory.hpp:77] Creating layer inception_5a/relu_1x1
I0403 17:47:40.918107 15016 net.cpp:91] Creating Layer inception_5a/relu_1x1
I0403 17:47:40.918124 15016 net.cpp:425] inception_5a/relu_1x1 <- inception_5a/1x1
I0403 17:47:40.918141 15016 net.cpp:386] inception_5a/relu_1x1 -> inception_5a/1x1 (in-place)
I0403 17:47:40.918450 15016 net.cpp:141] Setting up inception_5a/relu_1x1
I0403 17:47:40.918475 15016 net.cpp:148] Top shape: 24 256 7 7 (301056)
I0403 17:47:40.918490 15016 net.cpp:156] Memory required for data: 1294534176
I0403 17:47:40.918506 15016 layer_factory.hpp:77] Creating layer inception_5a/3x3_reduce
I0403 17:47:40.918529 15016 net.cpp:91] Creating Layer inception_5a/3x3_reduce
I0403 17:47:40.918547 15016 net.cpp:425] inception_5a/3x3_reduce <- pool4/3x3_s2_pool4/3x3_s2_0_split_1
I0403 17:47:40.918570 15016 net.cpp:399] inception_5a/3x3_reduce -> inception_5a/3x3_reduce
I0403 17:47:40.920984 15016 net.cpp:141] Setting up inception_5a/3x3_reduce
I0403 17:47:40.921011 15016 net.cpp:148] Top shape: 24 160 7 7 (188160)
I0403 17:47:40.921027 15016 net.cpp:156] Memory required for data: 1295286816
I0403 17:47:40.921046 15016 layer_factory.hpp:77] Creating layer inception_5a/relu_3x3_reduce
I0403 17:47:40.921064 15016 net.cpp:91] Creating Layer inception_5a/relu_3x3_reduce
I0403 17:47:40.921080 15016 net.cpp:425] inception_5a/relu_3x3_reduce <- inception_5a/3x3_reduce
I0403 17:47:40.921100 15016 net.cpp:386] inception_5a/relu_3x3_reduce -> inception_5a/3x3_reduce (in-place)
I0403 17:47:40.921283 15016 net.cpp:141] Setting up inception_5a/relu_3x3_reduce
I0403 17:47:40.921308 15016 net.cpp:148] Top shape: 24 160 7 7 (188160)
I0403 17:47:40.921324 15016 net.cpp:156] Memory required for data: 1296039456
I0403 17:47:40.921339 15016 layer_factory.hpp:77] Creating layer inception_5a/3x3
I0403 17:47:40.921362 15016 net.cpp:91] Creating Layer inception_5a/3x3
I0403 17:47:40.921380 15016 net.cpp:425] inception_5a/3x3 <- inception_5a/3x3_reduce
I0403 17:47:40.921402 15016 net.cpp:399] inception_5a/3x3 -> inception_5a/3x3
I0403 17:47:40.926313 15016 net.cpp:141] Setting up inception_5a/3x3
I0403 17:47:40.926342 15016 net.cpp:148] Top shape: 24 320 7 7 (376320)
I0403 17:47:40.926357 15016 net.cpp:156] Memory required for data: 1297544736
I0403 17:47:40.926375 15016 layer_factory.hpp:77] Creating layer inception_5a/relu_3x3
I0403 17:47:40.926396 15016 net.cpp:91] Creating Layer inception_5a/relu_3x3
I0403 17:47:40.926414 15016 net.cpp:425] inception_5a/relu_3x3 <- inception_5a/3x3
I0403 17:47:40.926431 15016 net.cpp:386] inception_5a/relu_3x3 -> inception_5a/3x3 (in-place)
I0403 17:47:40.926718 15016 net.cpp:141] Setting up inception_5a/relu_3x3
I0403 17:47:40.926743 15016 net.cpp:148] Top shape: 24 320 7 7 (376320)
I0403 17:47:40.926759 15016 net.cpp:156] Memory required for data: 1299050016
I0403 17:47:40.926774 15016 layer_factory.hpp:77] Creating layer inception_5a/5x5_reduce
I0403 17:47:40.926796 15016 net.cpp:91] Creating Layer inception_5a/5x5_reduce
I0403 17:47:40.926815 15016 net.cpp:425] inception_5a/5x5_reduce <- pool4/3x3_s2_pool4/3x3_s2_0_split_2
I0403 17:47:40.926838 15016 net.cpp:399] inception_5a/5x5_reduce -> inception_5a/5x5_reduce
I0403 17:47:40.928031 15016 net.cpp:141] Setting up inception_5a/5x5_reduce
I0403 17:47:40.928061 15016 net.cpp:148] Top shape: 24 32 7 7 (37632)
I0403 17:47:40.928078 15016 net.cpp:156] Memory required for data: 1299200544
I0403 17:47:40.928097 15016 layer_factory.hpp:77] Creating layer inception_5a/relu_5x5_reduce
I0403 17:47:40.928117 15016 net.cpp:91] Creating Layer inception_5a/relu_5x5_reduce
I0403 17:47:40.928133 15016 net.cpp:425] inception_5a/relu_5x5_reduce <- inception_5a/5x5_reduce
I0403 17:47:40.928150 15016 net.cpp:386] inception_5a/relu_5x5_reduce -> inception_5a/5x5_reduce (in-place)
I0403 17:47:40.928442 15016 net.cpp:141] Setting up inception_5a/relu_5x5_reduce
I0403 17:47:40.928469 15016 net.cpp:148] Top shape: 24 32 7 7 (37632)
I0403 17:47:40.928486 15016 net.cpp:156] Memory required for data: 1299351072
I0403 17:47:40.928501 15016 layer_factory.hpp:77] Creating layer inception_5a/5x5
I0403 17:47:40.928524 15016 net.cpp:91] Creating Layer inception_5a/5x5
I0403 17:47:40.928542 15016 net.cpp:425] inception_5a/5x5 <- inception_5a/5x5_reduce
I0403 17:47:40.928562 15016 net.cpp:399] inception_5a/5x5 -> inception_5a/5x5
I0403 17:47:40.930260 15016 net.cpp:141] Setting up inception_5a/5x5
I0403 17:47:40.930300 15016 net.cpp:148] Top shape: 24 128 7 7 (150528)
I0403 17:47:40.930316 15016 net.cpp:156] Memory required for data: 1299953184
I0403 17:47:40.930335 15016 layer_factory.hpp:77] Creating layer inception_5a/relu_5x5
I0403 17:47:40.930356 15016 net.cpp:91] Creating Layer inception_5a/relu_5x5
I0403 17:47:40.930376 15016 net.cpp:425] inception_5a/relu_5x5 <- inception_5a/5x5
I0403 17:47:40.930393 15016 net.cpp:386] inception_5a/relu_5x5 -> inception_5a/5x5 (in-place)
I0403 17:47:40.930588 15016 net.cpp:141] Setting up inception_5a/relu_5x5
I0403 17:47:40.930616 15016 net.cpp:148] Top shape: 24 128 7 7 (150528)
I0403 17:47:40.930631 15016 net.cpp:156] Memory required for data: 1300555296
I0403 17:47:40.930647 15016 layer_factory.hpp:77] Creating layer inception_5a/pool
I0403 17:47:40.930665 15016 net.cpp:91] Creating Layer inception_5a/pool
I0403 17:47:40.930681 15016 net.cpp:425] inception_5a/pool <- pool4/3x3_s2_pool4/3x3_s2_0_split_3
I0403 17:47:40.930699 15016 net.cpp:399] inception_5a/pool -> inception_5a/pool
I0403 17:47:40.930770 15016 net.cpp:141] Setting up inception_5a/pool
I0403 17:47:40.930794 15016 net.cpp:148] Top shape: 24 832 7 7 (978432)
I0403 17:47:40.930809 15016 net.cpp:156] Memory required for data: 1304469024
I0403 17:47:40.930824 15016 layer_factory.hpp:77] Creating layer inception_5a/pool_proj
I0403 17:47:40.930846 15016 net.cpp:91] Creating Layer inception_5a/pool_proj
I0403 17:47:40.930865 15016 net.cpp:425] inception_5a/pool_proj <- inception_5a/pool
I0403 17:47:40.930886 15016 net.cpp:399] inception_5a/pool_proj -> inception_5a/pool_proj
I0403 17:47:40.933117 15016 net.cpp:141] Setting up inception_5a/pool_proj
I0403 17:47:40.933145 15016 net.cpp:148] Top shape: 24 128 7 7 (150528)
I0403 17:47:40.933161 15016 net.cpp:156] Memory required for data: 1305071136
I0403 17:47:40.933179 15016 layer_factory.hpp:77] Creating layer inception_5a/relu_pool_proj
I0403 17:47:40.933200 15016 net.cpp:91] Creating Layer inception_5a/relu_pool_proj
I0403 17:47:40.933218 15016 net.cpp:425] inception_5a/relu_pool_proj <- inception_5a/pool_proj
I0403 17:47:40.933236 15016 net.cpp:386] inception_5a/relu_pool_proj -> inception_5a/pool_proj (in-place)
I0403 17:47:40.933522 15016 net.cpp:141] Setting up inception_5a/relu_pool_proj
I0403 17:47:40.933548 15016 net.cpp:148] Top shape: 24 128 7 7 (150528)
I0403 17:47:40.933563 15016 net.cpp:156] Memory required for data: 1305673248
I0403 17:47:40.933578 15016 layer_factory.hpp:77] Creating layer inception_5a/output
I0403 17:47:40.933596 15016 net.cpp:91] Creating Layer inception_5a/output
I0403 17:47:40.933615 15016 net.cpp:425] inception_5a/output <- inception_5a/1x1
I0403 17:47:40.933632 15016 net.cpp:425] inception_5a/output <- inception_5a/3x3
I0403 17:47:40.933650 15016 net.cpp:425] inception_5a/output <- inception_5a/5x5
I0403 17:47:40.933666 15016 net.cpp:425] inception_5a/output <- inception_5a/pool_proj
I0403 17:47:40.933683 15016 net.cpp:399] inception_5a/output -> inception_5a/output
I0403 17:47:40.933732 15016 net.cpp:141] Setting up inception_5a/output
I0403 17:47:40.933758 15016 net.cpp:148] Top shape: 24 832 7 7 (978432)
I0403 17:47:40.933773 15016 net.cpp:156] Memory required for data: 1309586976
I0403 17:47:40.933789 15016 layer_factory.hpp:77] Creating layer inception_5a/output_inception_5a/output_0_split
I0403 17:47:40.933805 15016 net.cpp:91] Creating Layer inception_5a/output_inception_5a/output_0_split
I0403 17:47:40.933822 15016 net.cpp:425] inception_5a/output_inception_5a/output_0_split <- inception_5a/output
I0403 17:47:40.933841 15016 net.cpp:399] inception_5a/output_inception_5a/output_0_split -> inception_5a/output_inception_5a/output_0_split_0
I0403 17:47:40.933862 15016 net.cpp:399] inception_5a/output_inception_5a/output_0_split -> inception_5a/output_inception_5a/output_0_split_1
I0403 17:47:40.933882 15016 net.cpp:399] inception_5a/output_inception_5a/output_0_split -> inception_5a/output_inception_5a/output_0_split_2
I0403 17:47:40.933902 15016 net.cpp:399] inception_5a/output_inception_5a/output_0_split -> inception_5a/output_inception_5a/output_0_split_3
I0403 17:47:40.934016 15016 net.cpp:141] Setting up inception_5a/output_inception_5a/output_0_split
I0403 17:47:40.934042 15016 net.cpp:148] Top shape: 24 832 7 7 (978432)
I0403 17:47:40.934061 15016 net.cpp:148] Top shape: 24 832 7 7 (978432)
I0403 17:47:40.934077 15016 net.cpp:148] Top shape: 24 832 7 7 (978432)
I0403 17:47:40.934092 15016 net.cpp:148] Top shape: 24 832 7 7 (978432)
I0403 17:47:40.934105 15016 net.cpp:156] Memory required for data: 1325241888
I0403 17:47:40.934120 15016 layer_factory.hpp:77] Creating layer inception_5b/1x1
I0403 17:47:40.934144 15016 net.cpp:91] Creating Layer inception_5b/1x1
I0403 17:47:40.934161 15016 net.cpp:425] inception_5b/1x1 <- inception_5a/output_inception_5a/output_0_split_0
I0403 17:47:40.934180 15016 net.cpp:399] inception_5b/1x1 -> inception_5b/1x1
I0403 17:47:40.937873 15016 net.cpp:141] Setting up inception_5b/1x1
I0403 17:47:40.937902 15016 net.cpp:148] Top shape: 24 384 7 7 (451584)
I0403 17:47:40.937921 15016 net.cpp:156] Memory required for data: 1327048224
I0403 17:47:40.937938 15016 layer_factory.hpp:77] Creating layer inception_5b/relu_1x1
I0403 17:47:40.937968 15016 net.cpp:91] Creating Layer inception_5b/relu_1x1
I0403 17:47:40.937986 15016 net.cpp:425] inception_5b/relu_1x1 <- inception_5b/1x1
I0403 17:47:40.938006 15016 net.cpp:386] inception_5b/relu_1x1 -> inception_5b/1x1 (in-place)
I0403 17:47:40.938307 15016 net.cpp:141] Setting up inception_5b/relu_1x1
I0403 17:47:40.938331 15016 net.cpp:148] Top shape: 24 384 7 7 (451584)
I0403 17:47:40.938347 15016 net.cpp:156] Memory required for data: 1328854560
I0403 17:47:40.938362 15016 layer_factory.hpp:77] Creating layer inception_5b/3x3_reduce
I0403 17:47:40.938385 15016 net.cpp:91] Creating Layer inception_5b/3x3_reduce
I0403 17:47:40.938405 15016 net.cpp:425] inception_5b/3x3_reduce <- inception_5a/output_inception_5a/output_0_split_1
I0403 17:47:40.938427 15016 net.cpp:399] inception_5b/3x3_reduce -> inception_5b/3x3_reduce
I0403 17:47:40.941030 15016 net.cpp:141] Setting up inception_5b/3x3_reduce
I0403 17:47:40.941056 15016 net.cpp:148] Top shape: 24 192 7 7 (225792)
I0403 17:47:40.941072 15016 net.cpp:156] Memory required for data: 1329757728
I0403 17:47:40.941090 15016 layer_factory.hpp:77] Creating layer inception_5b/relu_3x3_reduce
I0403 17:47:40.941112 15016 net.cpp:91] Creating Layer inception_5b/relu_3x3_reduce
I0403 17:47:40.941128 15016 net.cpp:425] inception_5b/relu_3x3_reduce <- inception_5b/3x3_reduce
I0403 17:47:40.941146 15016 net.cpp:386] inception_5b/relu_3x3_reduce -> inception_5b/3x3_reduce (in-place)
I0403 17:47:40.941334 15016 net.cpp:141] Setting up inception_5b/relu_3x3_reduce
I0403 17:47:40.941359 15016 net.cpp:148] Top shape: 24 192 7 7 (225792)
I0403 17:47:40.941373 15016 net.cpp:156] Memory required for data: 1330660896
I0403 17:47:40.941388 15016 layer_factory.hpp:77] Creating layer inception_5b/3x3
I0403 17:47:40.941413 15016 net.cpp:91] Creating Layer inception_5b/3x3
I0403 17:47:40.941432 15016 net.cpp:425] inception_5b/3x3 <- inception_5b/3x3_reduce
I0403 17:47:40.941452 15016 net.cpp:399] inception_5b/3x3 -> inception_5b/3x3
I0403 17:47:40.948055 15016 net.cpp:141] Setting up inception_5b/3x3
I0403 17:47:40.948082 15016 net.cpp:148] Top shape: 24 384 7 7 (451584)
I0403 17:47:40.948098 15016 net.cpp:156] Memory required for data: 1332467232
I0403 17:47:40.948117 15016 layer_factory.hpp:77] Creating layer inception_5b/relu_3x3
I0403 17:47:40.948137 15016 net.cpp:91] Creating Layer inception_5b/relu_3x3
I0403 17:47:40.948155 15016 net.cpp:425] inception_5b/relu_3x3 <- inception_5b/3x3
I0403 17:47:40.948173 15016 net.cpp:386] inception_5b/relu_3x3 -> inception_5b/3x3 (in-place)
I0403 17:47:40.948464 15016 net.cpp:141] Setting up inception_5b/relu_3x3
I0403 17:47:40.948490 15016 net.cpp:148] Top shape: 24 384 7 7 (451584)
I0403 17:47:40.948505 15016 net.cpp:156] Memory required for data: 1334273568
I0403 17:47:40.948520 15016 layer_factory.hpp:77] Creating layer inception_5b/5x5_reduce
I0403 17:47:40.948557 15016 net.cpp:91] Creating Layer inception_5b/5x5_reduce
I0403 17:47:40.948577 15016 net.cpp:425] inception_5b/5x5_reduce <- inception_5a/output_inception_5a/output_0_split_2
I0403 17:47:40.948598 15016 net.cpp:399] inception_5b/5x5_reduce -> inception_5b/5x5_reduce
I0403 17:47:40.949851 15016 net.cpp:141] Setting up inception_5b/5x5_reduce
I0403 17:47:40.949878 15016 net.cpp:148] Top shape: 24 48 7 7 (56448)
I0403 17:47:40.949893 15016 net.cpp:156] Memory required for data: 1334499360
I0403 17:47:40.949911 15016 layer_factory.hpp:77] Creating layer inception_5b/relu_5x5_reduce
I0403 17:47:40.949934 15016 net.cpp:91] Creating Layer inception_5b/relu_5x5_reduce
I0403 17:47:40.949955 15016 net.cpp:425] inception_5b/relu_5x5_reduce <- inception_5b/5x5_reduce
I0403 17:47:40.949975 15016 net.cpp:386] inception_5b/relu_5x5_reduce -> inception_5b/5x5_reduce (in-place)
I0403 17:47:40.950343 15016 net.cpp:141] Setting up inception_5b/relu_5x5_reduce
I0403 17:47:40.950369 15016 net.cpp:148] Top shape: 24 48 7 7 (56448)
I0403 17:47:40.950384 15016 net.cpp:156] Memory required for data: 1334725152
I0403 17:47:40.950399 15016 layer_factory.hpp:77] Creating layer inception_5b/5x5
I0403 17:47:40.950420 15016 net.cpp:91] Creating Layer inception_5b/5x5
I0403 17:47:40.950438 15016 net.cpp:425] inception_5b/5x5 <- inception_5b/5x5_reduce
I0403 17:47:40.950458 15016 net.cpp:399] inception_5b/5x5 -> inception_5b/5x5
I0403 17:47:40.952471 15016 net.cpp:141] Setting up inception_5b/5x5
I0403 17:47:40.952497 15016 net.cpp:148] Top shape: 24 128 7 7 (150528)
I0403 17:47:40.952513 15016 net.cpp:156] Memory required for data: 1335327264
I0403 17:47:40.952533 15016 layer_factory.hpp:77] Creating layer inception_5b/relu_5x5
I0403 17:47:40.952553 15016 net.cpp:91] Creating Layer inception_5b/relu_5x5
I0403 17:47:40.952570 15016 net.cpp:425] inception_5b/relu_5x5 <- inception_5b/5x5
I0403 17:47:40.952589 15016 net.cpp:386] inception_5b/relu_5x5 -> inception_5b/5x5 (in-place)
I0403 17:47:40.952778 15016 net.cpp:141] Setting up inception_5b/relu_5x5
I0403 17:47:40.952805 15016 net.cpp:148] Top shape: 24 128 7 7 (150528)
I0403 17:47:40.952821 15016 net.cpp:156] Memory required for data: 1335929376
I0403 17:47:40.952836 15016 layer_factory.hpp:77] Creating layer inception_5b/pool
I0403 17:47:40.952852 15016 net.cpp:91] Creating Layer inception_5b/pool
I0403 17:47:40.952869 15016 net.cpp:425] inception_5b/pool <- inception_5a/output_inception_5a/output_0_split_3
I0403 17:47:40.952890 15016 net.cpp:399] inception_5b/pool -> inception_5b/pool
I0403 17:47:40.952966 15016 net.cpp:141] Setting up inception_5b/pool
I0403 17:47:40.952991 15016 net.cpp:148] Top shape: 24 832 7 7 (978432)
I0403 17:47:40.953006 15016 net.cpp:156] Memory required for data: 1339843104
I0403 17:47:40.953021 15016 layer_factory.hpp:77] Creating layer inception_5b/pool_proj
I0403 17:47:40.953042 15016 net.cpp:91] Creating Layer inception_5b/pool_proj
I0403 17:47:40.953059 15016 net.cpp:425] inception_5b/pool_proj <- inception_5b/pool
I0403 17:47:40.953080 15016 net.cpp:399] inception_5b/pool_proj -> inception_5b/pool_proj
I0403 17:47:40.955329 15016 net.cpp:141] Setting up inception_5b/pool_proj
I0403 17:47:40.955358 15016 net.cpp:148] Top shape: 24 128 7 7 (150528)
I0403 17:47:40.955373 15016 net.cpp:156] Memory required for data: 1340445216
I0403 17:47:40.955391 15016 layer_factory.hpp:77] Creating layer inception_5b/relu_pool_proj
I0403 17:47:40.955411 15016 net.cpp:91] Creating Layer inception_5b/relu_pool_proj
I0403 17:47:40.955430 15016 net.cpp:425] inception_5b/relu_pool_proj <- inception_5b/pool_proj
I0403 17:47:40.955447 15016 net.cpp:386] inception_5b/relu_pool_proj -> inception_5b/pool_proj (in-place)
I0403 17:47:40.955737 15016 net.cpp:141] Setting up inception_5b/relu_pool_proj
I0403 17:47:40.955762 15016 net.cpp:148] Top shape: 24 128 7 7 (150528)
I0403 17:47:40.955778 15016 net.cpp:156] Memory required for data: 1341047328
I0403 17:47:40.955793 15016 layer_factory.hpp:77] Creating layer inception_5b/output
I0403 17:47:40.955811 15016 net.cpp:91] Creating Layer inception_5b/output
I0403 17:47:40.955844 15016 net.cpp:425] inception_5b/output <- inception_5b/1x1
I0403 17:47:40.955863 15016 net.cpp:425] inception_5b/output <- inception_5b/3x3
I0403 17:47:40.955880 15016 net.cpp:425] inception_5b/output <- inception_5b/5x5
I0403 17:47:40.955898 15016 net.cpp:425] inception_5b/output <- inception_5b/pool_proj
I0403 17:47:40.955917 15016 net.cpp:399] inception_5b/output -> inception_5b/output
I0403 17:47:40.955976 15016 net.cpp:141] Setting up inception_5b/output
I0403 17:47:40.955999 15016 net.cpp:148] Top shape: 24 1024 7 7 (1204224)
I0403 17:47:40.956014 15016 net.cpp:156] Memory required for data: 1345864224
I0403 17:47:40.956029 15016 layer_factory.hpp:77] Creating layer pool5/7x7_s1
I0403 17:47:40.956046 15016 net.cpp:91] Creating Layer pool5/7x7_s1
I0403 17:47:40.956063 15016 net.cpp:425] pool5/7x7_s1 <- inception_5b/output
I0403 17:47:40.956084 15016 net.cpp:399] pool5/7x7_s1 -> pool5/7x7_s1
I0403 17:47:40.956293 15016 net.cpp:141] Setting up pool5/7x7_s1
I0403 17:47:40.956318 15016 net.cpp:148] Top shape: 24 1024 1 1 (24576)
I0403 17:47:40.956333 15016 net.cpp:156] Memory required for data: 1345962528
I0403 17:47:40.956348 15016 layer_factory.hpp:77] Creating layer pool5/drop_7x7_s1
I0403 17:47:40.956368 15016 net.cpp:91] Creating Layer pool5/drop_7x7_s1
I0403 17:47:40.956387 15016 net.cpp:425] pool5/drop_7x7_s1 <- pool5/7x7_s1
I0403 17:47:40.956403 15016 net.cpp:386] pool5/drop_7x7_s1 -> pool5/7x7_s1 (in-place)
I0403 17:47:40.956459 15016 net.cpp:141] Setting up pool5/drop_7x7_s1
I0403 17:47:40.956481 15016 net.cpp:148] Top shape: 24 1024 1 1 (24576)
I0403 17:47:40.956496 15016 net.cpp:156] Memory required for data: 1346060832
I0403 17:47:40.956509 15016 layer_factory.hpp:77] Creating layer loss3/classifier_plantvillage
I0403 17:47:40.956529 15016 net.cpp:91] Creating Layer loss3/classifier_plantvillage
I0403 17:47:40.956545 15016 net.cpp:425] loss3/classifier_plantvillage <- pool5/7x7_s1
I0403 17:47:40.956567 15016 net.cpp:399] loss3/classifier_plantvillage -> loss3/classifier_plantvillage
I0403 17:47:40.956992 15016 net.cpp:141] Setting up loss3/classifier_plantvillage
I0403 17:47:40.957016 15016 net.cpp:148] Top shape: 24 38 (912)
I0403 17:47:40.957031 15016 net.cpp:156] Memory required for data: 1346064480
I0403 17:47:40.957051 15016 layer_factory.hpp:77] Creating layer loss3/classifier_plantvillage_loss3/classifier_plantvillage_0_split
I0403 17:47:40.957068 15016 net.cpp:91] Creating Layer loss3/classifier_plantvillage_loss3/classifier_plantvillage_0_split
I0403 17:47:40.957084 15016 net.cpp:425] loss3/classifier_plantvillage_loss3/classifier_plantvillage_0_split <- loss3/classifier_plantvillage
I0403 17:47:40.957105 15016 net.cpp:399] loss3/classifier_plantvillage_loss3/classifier_plantvillage_0_split -> loss3/classifier_plantvillage_loss3/classifier_plantvillage_0_split_0
I0403 17:47:40.957126 15016 net.cpp:399] loss3/classifier_plantvillage_loss3/classifier_plantvillage_0_split -> loss3/classifier_plantvillage_loss3/classifier_plantvillage_0_split_1
I0403 17:47:40.957146 15016 net.cpp:399] loss3/classifier_plantvillage_loss3/classifier_plantvillage_0_split -> loss3/classifier_plantvillage_loss3/classifier_plantvillage_0_split_2
I0403 17:47:40.957167 15016 net.cpp:399] loss3/classifier_plantvillage_loss3/classifier_plantvillage_0_split -> loss3/classifier_plantvillage_loss3/classifier_plantvillage_0_split_3
I0403 17:47:40.957265 15016 net.cpp:141] Setting up loss3/classifier_plantvillage_loss3/classifier_plantvillage_0_split
I0403 17:47:40.957288 15016 net.cpp:148] Top shape: 24 38 (912)
I0403 17:47:40.957304 15016 net.cpp:148] Top shape: 24 38 (912)
I0403 17:47:40.957320 15016 net.cpp:148] Top shape: 24 38 (912)
I0403 17:47:40.957336 15016 net.cpp:148] Top shape: 24 38 (912)
I0403 17:47:40.957350 15016 net.cpp:156] Memory required for data: 1346079072
I0403 17:47:40.957365 15016 layer_factory.hpp:77] Creating layer loss1/loss
I0403 17:47:40.957386 15016 net.cpp:91] Creating Layer loss1/loss
I0403 17:47:40.957406 15016 net.cpp:425] loss1/loss <- loss1/classifier_plantvillage_loss1/classifier_plantvillage_0_split_0
I0403 17:47:40.957435 15016 net.cpp:425] loss1/loss <- label_data_1_split_0
…
