…
I0403 18:12:48.407009 16581 net.cpp:313] The NetState phase (1) differed from the phase (0) specified by a rule in layer data
I0403 18:12:48.408220 16581 net.cpp:49] Initializing net from parameters: 
state {
  phase: TEST
}
layer {
  name: "data"
  type: "Data"
  top: "data"
  top: "label"
  include {
    phase: TEST
  }
  transform_param {
    mirror: false
    crop_size: 224
    mean_file: "/home/mohanty/data/final_dataset/lmdb/grayscale-60-40/mean.binaryproto"
  }
  data_param {
    source: "/home/mohanty/data/final_dataset/lmdb/grayscale-60-40/test_db"
    batch_size: 24
    backend: LMDB
  }
}
layer {
  name: "conv1/7x7_s2"
  type: "Convolution"
  bottom: "data"
  top: "conv1/7x7_s2"
  param {
    lr_mult: 1
    decay_mult: 1
  }
  param {
    lr_mult: 2
    decay_mult: 0
  }
  convolution_param {
    num_output: 64
    pad: 3
    kernel_size: 7
    stride: 2
    weight_filler {
      type: "xavier"
      std: 0.1
    }
    bias_filler {
      type: "constant"
      value: 0.2
    }
  }
}
layer {
  name: "conv1/relu_7x7"
  type: "ReLU"
  bottom: "conv1/7x7_s2"
  top: "conv1/7x7_s2"
}
layer {
  name: "pool1/3x3_s2"
  type: "Pooling"
  bottom: "conv1/7x7_s2"
  top: "pool1/3x3_s2"
  pooling_param {
    pool: MAX
    kernel_size: 3
    stride: 2
  }
}
layer {
  name: "pool1/norm1"
  type: "LRN"
  bottom: "pool1/3x3_s2"
  top: "pool1/norm1"
  lrn_param {
    local_size: 5
    alpha: 0.0001
    beta: 0.75
  }
}
layer {
  name: "conv2/3x3_reduce"
  type: "Convolution"
  bottom: "pool1/norm1"
  top: "conv2/3x3_reduce"
  param {
    lr_mult: 1
    decay_mult: 1
  }
  param {
    lr_mult: 2
    decay_mult: 0
  }
  convolution_param {
    num_output: 64
    kernel_size: 1
    weight_filler {
      type: "xavier"
      std: 0.1
    }
    bias_filler {
      type: "constant"
      value: 0.2
    }
  }
}
layer {
  name: "conv2/relu_3x3_reduce"
  type: "ReLU"
  bottom: "conv2/3x3_reduce"
  top: "conv2/3x3_reduce"
}
layer {
  name: "conv2/3x3"
  type: "Convolution"
  bottom: "conv2/3x3_reduce"
  top: "conv2/3x3"
  param {
    lr_mult: 1
    decay_mult: 1
  }
  param {
    lr_mult: 2
    decay_mult: 0
  }
  convolution_param {
    num_output: 192
    pad: 1
    kernel_size: 3
    weight_filler {
      type: "xavier"
      std: 0.03
    }
    bias_filler {
      type: "constant"
      value: 0.2
    }
  }
}
layer {
  name: "conv2/relu_3x3"
  type: "ReLU"
  bottom: "conv2/3x3"
  top: "conv2/3x3"
}
layer {
  name: "conv2/norm2"
  type: "LRN"
  bottom: "conv2/3x3"
  top: "conv2/norm2"
  lrn_param {
    local_size: 5
    alpha: 0.0001
    beta: 0.75
  }
}
layer {
  name: "pool2/3x3_s2"
  type: "Pooling"
  bottom: "conv2/norm2"
  top: "pool2/3x3_s2"
  pooling_param {
    pool: MAX
    kernel_size: 3
    stride: 2
  }
}
layer {
  name: "inception_3a/1x1"
  type: "Convolution"
  bottom: "pool2/3x3_s2"
  top: "inception_3a/1x1"
  param {
    lr_mult: 1
    decay_mult: 1
  }
  param {
    lr_mult: 2
    decay_mult: 0
  }
  convolution_param {
    num_output: 64
    kernel_size: 1
    weight_filler {
      type: "xavier"
      std: 0.03
    }
    bias_filler {
      type: "constant"
      value: 0.2
    }
  }
}
layer {
  name: "inception_3a/relu_1x1"
  type: "ReLU"
  bottom: "inception_3a/1x1"
  top: "inception_3a/1x1"
}
layer {
  name: "inception_3a/3x3_reduce"
  type: "Convolution"
  bottom: "pool2/3x3_s2"
  top: "inception_3a/3x3_reduce"
  param {
    lr_mult: 1
    decay_mult: 1
  }
  param {
    lr_mult: 2
    decay_mult: 0
  }
  convolution_param {
    num_output: 96
    kernel_size: 1
    weight_filler {
      type: "xavier"
      std: 0.09
    }
    bias_filler {
      type: "constant"
      value: 0.2
    }
  }
}
layer {
  name: "inception_3a/relu_3x3_reduce"
  type: "ReLU"
  bottom: "inception_3a/3x3_reduce"
  top: "inception_3a/3x3_reduce"
}
layer {
  name: "inception_3a/3x3"
  type: "Convolution"
  bottom: "inception_3a/3x3_reduce"
  top: "inception_3a/3x3"
  param {
    lr_mult: 1
    decay_mult: 1
  }
  param {
    lr_mult: 2
    decay_mult: 0
  }
  convolution_param {
    num_output: 128
    pad: 1
    kernel_size: 3
    weight_filler {
      type: "xavier"
      std: 0.03
    }
    bias_filler {
      type: "constant"
      value: 0.2
    }
  }
}
layer {
  name: "inception_3a/relu_3x3"
  type: "ReLU"
  bottom: "inception_3a/3x3"
  top: "inception_3a/3x3"
}
layer {
  name: "inception_3a/5x5_reduce"
  type: "Convolution"
  bottom: "pool2/3x3_s2"
  top: "inception_3a/5x5_reduce"
  param {
    lr_mult: 1
    decay_mult: 1
  }
  param {
    lr_mult: 2
    decay_mult: 0
  }
  convolution_param {
    num_output: 16
    kernel_size: 1
    weight_filler {
      type: "xavier"
      std: 0.2
    }
    bias_filler {
      type: "constant"
      value: 0.2
    }
  }
}
layer {
  name: "inception_3a/relu_5x5_reduce"
  type: "ReLU"
  bottom: "inception_3a/5x5_reduce"
  top: "inception_3a/5x5_reduce"
}
layer {
  name: "inception_3a/5x5"
  type: "Convolution"
  bottom: "inception_3a/5x5_reduce"
  top: "inception_3a/5x5"
  param {
    lr_mult: 1
    decay_mult: 1
  }
  param {
    lr_mult: 2
    decay_mult: 0
  }
  convolution_param {
    num_output: 32
    pad: 2
    kernel_size: 5
    weight_filler {
      type: "xavier"
      std: 0.03
    }
    bias_filler {
      type: "constant"
      value: 0.2
    }
  }
}
layer {
  name: "inception_3a/relu_5x5"
  type: "ReLU"
  bottom: "inception_3a/5x5"
  top: "inception_3a/5x5"
}
layer {
  name: "inception_3a/pool"
  type: "Pooling"
  bottom: "pool2/3x3_s2"
  top: "inception_3a/pool"
  pooling_param {
    pool: MAX
    kernel_size: 3
    stride: 1
    pad: 1
  }
}
layer {
  name: "inception_3a/pool_proj"
  type: "Convolution"
  bottom: "inception_3a/pool"
  top: "inception_3a/pool_proj"
  param {
    lr_mult: 1
    decay_mult: 1
  }
  param {
    lr_mult: 2
    decay_mult: 0
  }
  convolution_param {
    num_output: 32
    kernel_size: 1
    weight_filler {
      type: "xavier"
      std: 0.1
    }
    bias_filler {
      type: "constant"
      value: 0.2
    }
  }
}
layer {
  name: "inception_3a/relu_pool_proj"
  type: "ReLU"
  bottom: "inception_3a/pool_proj"
  top: "inception_3a/pool_proj"
}
layer {
  name: "inception_3a/output"
  type: "Concat"
  bottom: "inception_3a/1x1"
  bottom: "inception_3a/3x3"
  bottom: "inception_3a/5x5"
  bottom: "inception_3a/pool_proj"
  top: "inception_3a/output"
}
layer {
  name: "inception_3b/1x1"
  type: "Convolution"
  bottom: "inception_3a/output"
  top: "inception_3b/1x1"
  param {
    lr_mult: 1
    decay_mult: 1
  }
  param {
    lr_mult: 2
    decay_mult: 0
  }
  convolution_param {
    num_output: 128
    kernel_size: 1
    weight_filler {
      type: "xavier"
      std: 0.03
    }
    bias_filler {
      type: "constant"
      value: 0.2
    }
  }
}
layer {
  name: "inception_3b/relu_1x1"
  type: "ReLU"
  bottom: "inception_3b/1x1"
  top: "inception_3b/1x1"
}
layer {
  name: "inception_3b/3x3_reduce"
  type: "Convolution"
  bottom: "inception_3a/output"
  top: "inception_3b/3x3_reduce"
  param {
    lr_mult: 1
    decay_mult: 1
  }
  param {
    lr_mult: 2
    decay_mult: 0
  }
  convolution_param {
    num_output: 128
    kernel_size: 1
    weight_filler {
      type: "xavier"
      std: 0.09
    }
    bias_filler {
      type: "constant"
      value: 0.2
    }
  }
}
layer {
  name: "inception_3b/relu_3x3_reduce"
  type: "ReLU"
  bottom: "inception_3b/3x3_reduce"
  top: "inception_3b/3x3_reduce"
}
layer {
  name: "inception_3b/3x3"
  type: "Convolution"
  bottom: "inception_3b/3x3_reduce"
  top: "inception_3b/3x3"
  param {
    lr_mult: 1
    decay_mult: 1
  }
  param {
    lr_mult: 2
    decay_mult: 0
  }
  convolution_param {
    num_output: 192
    pad: 1
    kernel_size: 3
    weight_filler {
      type: "xavier"
      std: 0.03
    }
    bias_filler {
      type: "constant"
      value: 0.2
    }
  }
}
layer {
  name: "inception_3b/relu_3x3"
  type: "ReLU"
  bottom: "inception_3b/3x3"
  top: "inception_3b/3x3"
}
layer {
  name: "inception_3b/5x5_reduce"
  type: "Convolution"
  bottom: "inception_3a/output"
  top: "inception_3b/5x5_reduce"
  param {
    lr_mult: 1
    decay_mult: 1
  }
  param {
    lr_mult: 2
    decay_mult: 0
  }
  convolution_param {
    num_output: 32
    kernel_size: 1
    weight_filler {
      type: "xavier"
      std: 0.2
    }
    bias_filler {
      type: "constant"
      value: 0.2
    }
  }
}
layer {
  name: "inception_3b/relu_5x5_reduce"
  type: "ReLU"
  bottom: "inception_3b/5x5_reduce"
  top: "inception_3b/5x5_reduce"
}
layer {
  name: "inception_3b/5x5"
  type: "Convolution"
  bottom: "inception_3b/5x5_reduce"
  top: "inception_3b/5x5"
  param {
    lr_mult: 1
    decay_mult: 1
  }
  param {
    lr_mult: 2
    decay_mult: 0
  }
  convolution_param {
    num_output: 96
    pad: 2
    kernel_size: 5
    weight_filler {
      type: "xavier"
      std: 0.03
    }
    bias_filler {
      type: "constant"
      value: 0.2
    }
  }
}
layer {
  name: "inception_3b/relu_5x5"
  type: "ReLU"
  bottom: "inception_3b/5x5"
  top: "inception_3b/5x5"
}
layer {
  name: "inception_3b/pool"
  type: "Pooling"
  bottom: "inception_3a/output"
  top: "inception_3b/pool"
  pooling_param {
    pool: MAX
    kernel_size: 3
    stride: 1
    pad: 1
  }
}
layer {
  name: "inception_3b/pool_proj"
  type: "Convolution"
  bottom: "inception_3b/pool"
  top: "inception_3b/pool_proj"
  param {
    lr_mult: 1
    decay_mult: 1
  }
  param {
    lr_mult: 2
    decay_mult: 0
  }
  convolution_param {
    num_output: 64
    kernel_size: 1
    weight_filler {
      type: "xavier"
      std: 0.1
    }
    bias_filler {
      type: "constant"
      value: 0.2
    }
  }
}
layer {
  name: "inception_3b/relu_pool_proj"
  type: "ReLU"
  bottom: "inception_3b/pool_proj"
  top: "inception_3b/pool_proj"
}
layer {
  name: "inception_3b/output"
  type: "Concat"
  bottom: "inception_3b/1x1"
  bottom: "inception_3b/3x3"
  bottom: "inception_3b/5x5"
  bottom: "inception_3b/pool_proj"
  top: "inception_3b/output"
}
layer {
  name: "pool3/3x3_s2"
  type: "Pooling"
  bottom: "inception_3b/output"
  top: "pool3/3x3_s2"
  pooling_param {
    pool: MAX
    kernel_size: 3
    stride: 2
  }
}
layer {
  name: "inception_4a/1x1"
  type: "Convolution"
  bottom: "pool3/3x3_s2"
  top: "inception_4a/1x1"
  param {
    lr_mult: 1
    decay_mult: 1
  }
  param {
    lr_mult: 2
    decay_mult: 0
  }
  convolution_param {
    num_output: 192
    kernel_size: 1
    weight_filler {
      type: "xavier"
      std: 0.03
    }
    bias_filler {
      type: "constant"
      value: 0.2
    }
  }
}
layer {
  name: "inception_4a/relu_1x1"
  type: "ReLU"
  bottom: "inception_4a/1x1"
  top: "inception_4a/1x1"
}
layer {
  name: "inception_4a/3x3_reduce"
  type: "Convolution"
  bottom: "pool3/3x3_s2"
  top: "inception_4a/3x3_reduce"
  param {
    lr_mult: 1
    decay_mult: 1
  }
  param {
    lr_mult: 2
    decay_mult: 0
  }
  convolution_param {
    num_output: 96
    kernel_size: 1
    weight_filler {
      type: "xavier"
      std: 0.09
    }
    bias_filler {
      type: "constant"
      value: 0.2
    }
  }
}
layer {
  name: "inception_4a/relu_3x3_reduce"
  type: "ReLU"
  bottom: "inception_4a/3x3_reduce"
  top: "inception_4a/3x3_reduce"
}
layer {
  name: "inception_4a/3x3"
  type: "Convolution"
  bottom: "inception_4a/3x3_reduce"
  top: "inception_4a/3x3"
  param {
    lr_mult: 1
    decay_mult: 1
  }
  param {
    lr_mult: 2
    decay_mult: 0
  }
  convolution_param {
    num_output: 208
    pad: 1
    kernel_size: 3
    weight_filler {
      type: "xavier"
      std: 0.03
    }
    bias_filler {
      type: "constant"
      value: 0.2
    }
  }
}
layer {
  name: "inception_4a/relu_3x3"
  type: "ReLU"
  bottom: "inception_4a/3x3"
  top: "inception_4a/3x3"
}
layer {
  name: "inception_4a/5x5_reduce"
  type: "Convolution"
  bottom: "pool3/3x3_s2"
  top: "inception_4a/5x5_reduce"
  param {
    lr_mult: 1
    decay_mult: 1
  }
  param {
    lr_mult: 2
    decay_mult: 0
  }
  convolution_param {
    num_output: 16
    kernel_size: 1
    weight_filler {
      type: "xavier"
      std: 0.2
    }
    bias_filler {
      type: "constant"
      value: 0.2
    }
  }
}
layer {
  name: "inception_4a/relu_5x5_reduce"
  type: "ReLU"
  bottom: "inception_4a/5x5_reduce"
  top: "inception_4a/5x5_reduce"
}
layer {
  name: "inception_4a/5x5"
  type: "Convolution"
  bottom: "inception_4a/5x5_reduce"
  top: "inception_4a/5x5"
  param {
    lr_mult: 1
    decay_mult: 1
  }
  param {
    lr_mult: 2
    decay_mult: 0
  }
  convolution_param {
    num_output: 48
    pad: 2
    kernel_size: 5
    weight_filler {
      type: "xavier"
      std: 0.03
    }
    bias_filler {
      type: "constant"
      value: 0.2
    }
  }
}
layer {
  name: "inception_4a/relu_5x5"
  type: "ReLU"
  bottom: "inception_4a/5x5"
  top: "inception_4a/5x5"
}
layer {
  name: "inception_4a/pool"
  type: "Pooling"
  bottom: "pool3/3x3_s2"
  top: "inception_4a/pool"
  pooling_param {
    pool: MAX
    kernel_size: 3
    stride: 1
    pad: 1
  }
}
layer {
  name: "inception_4a/pool_proj"
  type: "Convolution"
  bottom: "inception_4a/pool"
  top: "inception_4a/pool_proj"
  param {
    lr_mult: 1
    decay_mult: 1
  }
  param {
    lr_mult: 2
    decay_mult: 0
  }
  convolution_param {
    num_output: 64
    kernel_size: 1
    weight_filler {
      type: "xavier"
      std: 0.1
    }
    bias_filler {
      type: "constant"
      value: 0.2
    }
  }
}
layer {
  name: "inception_4a/relu_pool_proj"
  type: "ReLU"
  bottom: "inception_4a/pool_proj"
  top: "inception_4a/pool_proj"
}
layer {
  name: "inception_4a/output"
  type: "Concat"
  bottom: "inception_4a/1x1"
  bottom: "inception_4a/3x3"
  bottom: "inception_4a/5x5"
  bottom: "inception_4a/pool_proj"
  top: "inception_4a/output"
}
layer {
  name: "loss1/ave_pool"
  type: "Pooling"
  bottom: "inception_4a/output"
  top: "loss1/ave_pool"
  pooling_param {
    pool: AVE
    kernel_size: 5
    stride: 3
  }
}
layer {
  name: "loss1/conv"
  type: "Convolution"
  bottom: "loss1/ave_pool"
  top: "loss1/conv"
  param {
    lr_mult: 1
    decay_mult: 1
  }
  param {
    lr_mult: 2
    decay_mult: 0
  }
  convolution_param {
    num_output: 128
    kernel_size: 1
    weight_filler {
      type: "xavier"
      std: 0.08
    }
    bias_filler {
      type: "constant"
      value: 0.2
    }
  }
}
layer {
  name: "loss1/relu_conv"
  type: "ReLU"
  bottom: "loss1/conv"
  top: "loss1/conv"
}
layer {
  name: "loss1/fc"
  type: "InnerProduct"
  bottom: "loss1/conv"
  top: "loss1/fc"
  param {
    lr_mult: 1
    decay_mult: 1
  }
  param {
    lr_mult: 2
    decay_mult: 0
  }
  inner_product_param {
    num_output: 1024
    weight_filler {
      type: "xavier"
      std: 0.02
    }
    bias_filler {
      type: "constant"
      value: 0.2
    }
  }
}
layer {
  name: "loss1/relu_fc"
  type: "ReLU"
  bottom: "loss1/fc"
  top: "loss1/fc"
}
layer {
  name: "loss1/drop_fc"
  type: "Dropout"
  bottom: "loss1/fc"
  top: "loss1/fc"
  dropout_param {
    dropout_ratio: 0.7
  }
}
layer {
  name: "loss1/classifier_plantvillage"
  type: "InnerProduct"
  bottom: "loss1/fc"
  top: "loss1/classifier_plantvillage"
  param {
    lr_mult: 1
    decay_mult: 1
  }
  param {
    lr_mult: 2
    decay_mult: 0
  }
  inner_product_param {
    num_output: 38
    weight_filler {
      type: "xavier"
      std: 0.0009765625
    }
    bias_filler {
      type: "constant"
      value: 0
    }
  }
}
layer {
  name: "inception_4b/1x1"
  type: "Convolution"
  bottom: "inception_4a/output"
  top: "inception_4b/1x1"
  param {
    lr_mult: 1
    decay_mult: 1
  }
  param {
    lr_mult: 2
    decay_mult: 0
  }
  convolution_param {
    num_output: 160
    kernel_size: 1
    weight_filler {
      type: "xavier"
      std: 0.03
    }
    bias_filler {
      type: "constant"
      value: 0.2
    }
  }
}
layer {
  name: "inception_4b/relu_1x1"
  type: "ReLU"
  bottom: "inception_4b/1x1"
  top: "inception_4b/1x1"
}
layer {
  name: "inception_4b/3x3_reduce"
  type: "Convolution"
  bottom: "inception_4a/output"
  top: "inception_4b/3x3_reduce"
  param {
    lr_mult: 1
    decay_mult: 1
  }
  param {
    lr_mult: 2
    decay_mult: 0
  }
  convolution_param {
    num_output: 112
    kernel_size: 1
    weight_filler {
      type: "xavier"
      std: 0.09
    }
    bias_filler {
      type: "constant"
      value: 0.2
    }
  }
}
layer {
  name: "inception_4b/relu_3x3_reduce"
  type: "ReLU"
  bottom: "inception_4b/3x3_reduce"
  top: "inception_4b/3x3_reduce"
}
layer {
  name: "inception_4b/3x3"
  type: "Convolution"
  bottom: "inception_4b/3x3_reduce"
  top: "inception_4b/3x3"
  param {
    lr_mult: 1
    decay_mult: 1
  }
  param {
    lr_mult: 2
    decay_mult: 0
  }
  convolution_param {
    num_output: 224
    pad: 1
    kernel_size: 3
    weight_filler {
      type: "xavier"
      std: 0.03
    }
    bias_filler {
      type: "constant"
      value: 0.2
    }
  }
}
layer {
  name: "inception_4b/relu_3x3"
  type: "ReLU"
  bottom: "inception_4b/3x3"
  top: "inception_4b/3x3"
}
layer {
  name: "inception_4b/5x5_reduce"
  type: "Convolution"
  bottom: "inception_4a/output"
  top: "inception_4b/5x5_reduce"
  param {
    lr_mult: 1
    decay_mult: 1
  }
  param {
    lr_mult: 2
    decay_mult: 0
  }
  convolution_param {
    num_output: 24
    kernel_size: 1
    weight_filler {
      type: "xavier"
      std: 0.2
    }
    bias_filler {
      type: "constant"
      value: 0.2
    }
  }
}
layer {
  name: "inception_4b/relu_5x5_reduce"
  type: "ReLU"
  bottom: "inception_4b/5x5_reduce"
  top: "inception_4b/5x5_reduce"
}
layer {
  name: "inception_4b/5x5"
  type: "Convolution"
  bottom: "inception_4b/5x5_reduce"
  top: "inception_4b/5x5"
  param {
    lr_mult: 1
    decay_mult: 1
  }
  param {
    lr_mult: 2
    decay_mult: 0
  }
  convolution_param {
    num_output: 64
    pad: 2
    kernel_size: 5
    weight_filler {
      type: "xavier"
      std: 0.03
    }
    bias_filler {
      type: "constant"
      value: 0.2
    }
  }
}
layer {
  name: "inception_4b/relu_5x5"
  type: "ReLU"
  bottom: "inception_4b/5x5"
  top: "inception_4b/5x5"
}
layer {
  name: "inception_4b/pool"
  type: "Pooling"
  bottom: "inception_4a/output"
  top: "inception_4b/pool"
  pooling_param {
    pool: MAX
    kernel_size: 3
    stride: 1
    pad: 1
  }
}
layer {
  name: "inception_4b/pool_proj"
  type: "Convolution"
  bottom: "inception_4b/pool"
  top: "inception_4b/pool_proj"
  param {
    lr_mult: 1
    decay_mult: 1
  }
  param {
    lr_mult: 2
    decay_mult: 0
  }
  convolution_param {
    num_output: 64
    kernel_size: 1
    weight_filler {
      type: "xavier"
      std: 0.1
    }
    bias_filler {
      type: "constant"
      value: 0.2
    }
  }
}
layer {
  name: "inception_4b/relu_pool_proj"
  type: "ReLU"
  bottom: "inception_4b/pool_proj"
  top: "inception_4b/pool_proj"
}
layer {
  name: "inception_4b/output"
  type: "Concat"
  bottom: "inception_4b/1x1"
  bottom: "inception_4b/3x3"
  bottom: "inception_4b/5x5"
  bottom: "inception_4b/pool_proj"
  top: "inception_4b/output"
}
layer {
  name: "inception_4c/1x1"
  type: "Convolution"
  bottom: "inception_4b/output"
  top: "inception_4c/1x1"
  param {
    lr_mult: 1
    decay_mult: 1
  }
  param {
    lr_mult: 2
    decay_mult: 0
  }
  convolution_param {
    num_output: 128
    kernel_size: 1
    weight_filler {
      type: "xavier"
      std: 0.03
    }
    bias_filler {
      type: "constant"
      value: 0.2
    }
  }
}
layer {
  name: "inception_4c/relu_1x1"
  type: "ReLU"
  bottom: "inception_4c/1x1"
  top: "inception_4c/1x1"
}
layer {
  name: "inception_4c/3x3_reduce"
  type: "Convolution"
  bottom: "inception_4b/output"
  top: "inception_4c/3x3_reduce"
  param {
    lr_mult: 1
    decay_mult: 1
  }
  param {
    lr_mult: 2
    decay_mult: 0
  }
  convolution_param {
    num_output: 128
    kernel_size: 1
    weight_filler {
      type: "xavier"
      std: 0.09
    }
    bias_filler {
      type: "constant"
      value: 0.2
    }
  }
}
layer {
  name: "inception_4c/relu_3x3_reduce"
  type: "ReLU"
  bottom: "inception_4c/3x3_reduce"
  top: "inception_4c/3x3_reduce"
}
layer {
  name: "inception_4c/3x3"
  type: "Convolution"
  bottom: "inception_4c/3x3_reduce"
  top: "inception_4c/3x3"
  param {
    lr_mult: 1
    decay_mult: 1
  }
  param {
    lr_mult: 2
    decay_mult: 0
  }
  convolution_param {
    num_output: 256
    pad: 1
    kernel_size: 3
    weight_filler {
      type: "xavier"
      std: 0.03
    }
    bias_filler {
      type: "constant"
      value: 0.2
    }
  }
}
layer {
  name: "inception_4c/relu_3x3"
  type: "ReLU"
  bottom: "inception_4c/3x3"
  top: "inception_4c/3x3"
}
layer {
  name: "inception_4c/5x5_reduce"
  type: "Convolution"
  bottom: "inception_4b/output"
  top: "inception_4c/5x5_reduce"
  param {
    lr_mult: 1
    decay_mult: 1
  }
  param {
    lr_mult: 2
    decay_mult: 0
  }
  convolution_param {
    num_output: 24
    kernel_size: 1
    weight_filler {
      type: "xavier"
      std: 0.2
    }
    bias_filler {
      type: "constant"
      value: 0.2
    }
  }
}
layer {
  name: "inception_4c/relu_5x5_reduce"
  type: "ReLU"
  bottom: "inception_4c/5x5_reduce"
  top: "inception_4c/5x5_reduce"
}
layer {
  name: "inception_4c/5x5"
  type: "Convolution"
  bottom: "inception_4c/5x5_reduce"
  top: "inception_4c/5x5"
  param {
    lr_mult: 1
    decay_mult: 1
  }
  param {
    lr_mult: 2
    decay_mult: 0
  }
  convolution_param {
    num_output: 64
    pad: 2
    kernel_size: 5
    weight_filler {
      type: "xavier"
      std: 0.03
    }
    bias_filler {
      type: "constant"
      value: 0.2
    }
  }
}
layer {
  name: "inception_4c/relu_5x5"
  type: "ReLU"
  bottom: "inception_4c/5x5"
  top: "inception_4c/5x5"
}
layer {
  name: "inception_4c/pool"
  type: "Pooling"
  bottom: "inception_4b/output"
  top: "inception_4c/pool"
  pooling_param {
    pool: MAX
    kernel_size: 3
    stride: 1
    pad: 1
  }
}
layer {
  name: "inception_4c/pool_proj"
  type: "Convolution"
  bottom: "inception_4c/pool"
  top: "inception_4c/pool_proj"
  param {
    lr_mult: 1
    decay_mult: 1
  }
  param {
    lr_mult: 2
    decay_mult: 0
  }
  convolution_param {
    num_output: 64
    kernel_size: 1
    weight_filler {
      type: "xavier"
      std: 0.1
    }
    bias_filler {
      type: "constant"
      value: 0.2
    }
  }
}
layer {
  name: "inception_4c/relu_pool_proj"
  type: "ReLU"
  bottom: "inception_4c/pool_proj"
  top: "inception_4c/pool_proj"
}
layer {
  name: "inception_4c/output"
  type: "Concat"
  bottom: "inception_4c/1x1"
  bottom: "inception_4c/3x3"
  bottom: "inception_4c/5x5"
  bottom: "inception_4c/pool_proj"
  top: "inception_4c/output"
}
layer {
  name: "inception_4d/1x1"
  type: "Convolution"
  bottom: "inception_4c/output"
  top: "inception_4d/1x1"
  param {
    lr_mult: 1
    decay_mult: 1
  }
  param {
    lr_mult: 2
    decay_mult: 0
  }
  convolution_param {
    num_output: 112
    kernel_size: 1
    weight_filler {
      type: "xavier"
      std: 0.03
    }
    bias_filler {
      type: "constant"
      value: 0.2
    }
  }
}
layer {
  name: "inception_4d/relu_1x1"
  type: "ReLU"
  bottom: "inception_4d/1x1"
  top: "inception_4d/1x1"
}
layer {
  name: "inception_4d/3x3_reduce"
  type: "Convolution"
  bottom: "inception_4c/output"
  top: "inception_4d/3x3_reduce"
  param {
    lr_mult: 1
    decay_mult: 1
  }
  param {
    lr_mult: 2
    decay_mult: 0
  }
  convolution_param {
    num_output: 144
    kernel_size: 1
    weight_filler {
      type: "xavier"
      std: 0.09
    }
    bias_filler {
      type: "constant"
      value: 0.2
    }
  }
}
layer {
  name: "inception_4d/relu_3x3_reduce"
  type: "ReLU"
  bottom: "inception_4d/3x3_reduce"
  top: "inception_4d/3x3_reduce"
}
layer {
  name: "inception_4d/3x3"
  type: "Convolution"
  bottom: "inception_4d/3x3_reduce"
  top: "inception_4d/3x3"
  param {
    lr_mult: 1
    decay_mult: 1
  }
  param {
    lr_mult: 2
    decay_mult: 0
  }
  convolution_param {
    num_output: 288
    pad: 1
    kernel_size: 3
    weight_filler {
      type: "xavier"
      std: 0.03
    }
    bias_filler {
      type: "constant"
      value: 0.2
    }
  }
}
layer {
  name: "inception_4d/relu_3x3"
  type: "ReLU"
  bottom: "inception_4d/3x3"
  top: "inception_4d/3x3"
}
layer {
  name: "inception_4d/5x5_reduce"
  type: "Convolution"
  bottom: "inception_4c/output"
  top: "inception_4d/5x5_reduce"
  param {
    lr_mult: 1
    decay_mult: 1
  }
  param {
    lr_mult: 2
    decay_mult: 0
  }
  convolution_param {
    num_output: 32
    kernel_size: 1
    weight_filler {
      type: "xavier"
      std: 0.2
    }
    bias_filler {
      type: "constant"
      value: 0.2
    }
  }
}
layer {
  name: "inception_4d/relu_5x5_reduce"
  type: "ReLU"
  bottom: "inception_4d/5x5_reduce"
  top: "inception_4d/5x5_reduce"
}
layer {
  name: "inception_4d/5x5"
  type: "Convolution"
  bottom: "inception_4d/5x5_reduce"
  top: "inception_4d/5x5"
  param {
    lr_mult: 1
    decay_mult: 1
  }
  param {
    lr_mult: 2
    decay_mult: 0
  }
  convolution_param {
    num_output: 64
    pad: 2
    kernel_size: 5
    weight_filler {
      type: "xavier"
      std: 0.03
    }
    bias_filler {
      type: "constant"
      value: 0.2
    }
  }
}
layer {
  name: "inception_4d/relu_5x5"
  type: "ReLU"
  bottom: "inception_4d/5x5"
  top: "inception_4d/5x5"
}
layer {
  name: "inception_4d/pool"
  type: "Pooling"
  bottom: "inception_4c/output"
  top: "inception_4d/pool"
  pooling_param {
    pool: MAX
    kernel_size: 3
    stride: 1
    pad: 1
  }
}
layer {
  name: "inception_4d/pool_proj"
  type: "Convolution"
  bottom: "inception_4d/pool"
  top: "inception_4d/pool_proj"
  param {
    lr_mult: 1
    decay_mult: 1
  }
  param {
    lr_mult: 2
    decay_mult: 0
  }
  convolution_param {
    num_output: 64
    kernel_size: 1
    weight_filler {
      type: "xavier"
      std: 0.1
    }
    bias_filler {
      type: "constant"
      value: 0.2
    }
  }
}
layer {
  name: "inception_4d/relu_pool_proj"
  type: "ReLU"
  bottom: "inception_4d/pool_proj"
  top: "inception_4d/pool_proj"
}
layer {
  name: "inception_4d/output"
  type: "Concat"
  bottom: "inception_4d/1x1"
  bottom: "inception_4d/3x3"
  bottom: "inception_4d/5x5"
  bottom: "inception_4d/pool_proj"
  top: "inception_4d/output"
}
layer {
  name: "loss2/ave_pool"
  type: "Pooling"
  bottom: "inception_4d/output"
  top: "loss2/ave_pool"
  pooling_param {
    pool: AVE
    kernel_size: 5
    stride: 3
  }
}
layer {
  name: "loss2/conv"
  type: "Convolution"
  bottom: "loss2/ave_pool"
  top: "loss2/conv"
  param {
    lr_mult: 1
    decay_mult: 1
  }
  param {
    lr_mult: 2
    decay_mult: 0
  }
  convolution_param {
    num_output: 128
    kernel_size: 1
    weight_filler {
      type: "xavier"
      std: 0.08
    }
    bias_filler {
      type: "constant"
      value: 0.2
    }
  }
}
layer {
  name: "loss2/relu_conv"
  type: "ReLU"
  bottom: "loss2/conv"
  top: "loss2/conv"
}
layer {
  name: "loss2/fc"
  type: "InnerProduct"
  bottom: "loss2/conv"
  top: "loss2/fc"
  param {
    lr_mult: 1
    decay_mult: 1
  }
  param {
    lr_mult: 2
    decay_mult: 0
  }
  inner_product_param {
    num_output: 1024
    weight_filler {
      type: "xavier"
      std: 0.02
    }
    bias_filler {
      type: "constant"
      value: 0.2
    }
  }
}
layer {
  name: "loss2/relu_fc"
  type: "ReLU"
  bottom: "loss2/fc"
  top: "loss2/fc"
}
layer {
  name: "loss2/drop_fc"
  type: "Dropout"
  bottom: "loss2/fc"
  top: "loss2/fc"
  dropout_param {
    dropout_ratio: 0.7
  }
}
layer {
  name: "loss2/classifier_plantvillage"
  type: "InnerProduct"
  bottom: "loss2/fc"
  top: "loss2/classifier_plantvillage"
  param {
    lr_mult: 1
    decay_mult: 1
  }
  param {
    lr_mult: 2
    decay_mult: 0
  }
  inner_product_param {
    num_output: 38
    weight_filler {
      type: "xavier"
      std: 0.0009765625
    }
    bias_filler {
      type: "constant"
      value: 0
    }
  }
}
layer {
  name: "inception_4e/1x1"
  type: "Convolution"
  bottom: "inception_4d/output"
  top: "inception_4e/1x1"
  param {
    lr_mult: 1
    decay_mult: 1
  }
  param {
    lr_mult: 2
    decay_mult: 0
  }
  convolution_param {
    num_output: 256
    kernel_size: 1
    weight_filler {
      type: "xavier"
      std: 0.03
    }
    bias_filler {
      type: "constant"
      value: 0.2
    }
  }
}
layer {
  name: "inception_4e/relu_1x1"
  type: "ReLU"
  bottom: "inception_4e/1x1"
  top: "inception_4e/1x1"
}
layer {
  name: "inception_4e/3x3_reduce"
  type: "Convolution"
  bottom: "inception_4d/output"
  top: "inception_4e/3x3_reduce"
  param {
    lr_mult: 1
    decay_mult: 1
  }
  param {
    lr_mult: 2
    decay_mult: 0
  }
  convolution_param {
    num_output: 160
    kernel_size: 1
    weight_filler {
      type: "xavier"
      std: 0.09
    }
    bias_filler {
      type: "constant"
      value: 0.2
    }
  }
}
layer {
  name: "inception_4e/relu_3x3_reduce"
  type: "ReLU"
  bottom: "inception_4e/3x3_reduce"
  top: "inception_4e/3x3_reduce"
}
layer {
  name: "inception_4e/3x3"
  type: "Convolution"
  bottom: "inception_4e/3x3_reduce"
  top: "inception_4e/3x3"
  param {
    lr_mult: 1
    decay_mult: 1
  }
  param {
    lr_mult: 2
    decay_mult: 0
  }
  convolution_param {
    num_output: 320
    pad: 1
    kernel_size: 3
    weight_filler {
      type: "xavier"
      std: 0.03
    }
    bias_filler {
      type: "constant"
      value: 0.2
    }
  }
}
layer {
  name: "inception_4e/relu_3x3"
  type: "ReLU"
  bottom: "inception_4e/3x3"
  top: "inception_4e/3x3"
}
layer {
  name: "inception_4e/5x5_reduce"
  type: "Convolution"
  bottom: "inception_4d/output"
  top: "inception_4e/5x5_reduce"
  param {
    lr_mult: 1
    decay_mult: 1
  }
  param {
    lr_mult: 2
    decay_mult: 0
  }
  convolution_param {
    num_output: 32
    kernel_size: 1
    weight_filler {
      type: "xavier"
      std: 0.2
    }
    bias_filler {
      type: "constant"
      value: 0.2
    }
  }
}
layer {
  name: "inception_4e/relu_5x5_reduce"
  type: "ReLU"
  bottom: "inception_4e/5x5_reduce"
  top: "inception_4e/5x5_reduce"
}
layer {
  name: "inception_4e/5x5"
  type: "Convolution"
  bottom: "inception_4e/5x5_reduce"
  top: "inception_4e/
I0403 18:12:48.409472 16581 layer_factory.hpp:77] Creating layer data
I0403 18:12:48.410085 16581 net.cpp:91] Creating Layer data
I0403 18:12:48.410120 16581 net.cpp:399] data -> data
I0403 18:12:48.410172 16581 net.cpp:399] data -> label
I0403 18:12:48.410209 16581 data_transformer.cpp:25] Loading mean file from: /home/mohanty/data/final_dataset/lmdb/grayscale-60-40/mean.binaryproto
I0403 18:12:48.411389 16583 db_lmdb.cpp:38] Opened lmdb /home/mohanty/data/final_dataset/lmdb/grayscale-60-40/test_db
I0403 18:12:48.423517 16581 data_layer.cpp:41] output data size: 24,3,224,224
I0403 18:12:48.450600 16581 net.cpp:141] Setting up data
I0403 18:12:48.450686 16581 net.cpp:148] Top shape: 24 3 224 224 (3612672)
I0403 18:12:48.450708 16581 net.cpp:148] Top shape: 24 (24)
I0403 18:12:48.450723 16581 net.cpp:156] Memory required for data: 14450784
I0403 18:12:48.450750 16581 layer_factory.hpp:77] Creating layer label_data_1_split
I0403 18:12:48.450778 16581 net.cpp:91] Creating Layer label_data_1_split
I0403 18:12:48.450795 16581 net.cpp:425] label_data_1_split <- label
I0403 18:12:48.450826 16581 net.cpp:399] label_data_1_split -> label_data_1_split_0
I0403 18:12:48.450853 16581 net.cpp:399] label_data_1_split -> label_data_1_split_1
I0403 18:12:48.450875 16581 net.cpp:399] label_data_1_split -> label_data_1_split_2
I0403 18:12:48.450894 16581 net.cpp:399] label_data_1_split -> label_data_1_split_3
I0403 18:12:48.450913 16581 net.cpp:399] label_data_1_split -> label_data_1_split_4
I0403 18:12:48.450934 16581 net.cpp:399] label_data_1_split -> label_data_1_split_5
I0403 18:12:48.450965 16581 net.cpp:399] label_data_1_split -> label_data_1_split_6
I0403 18:12:48.450987 16581 net.cpp:399] label_data_1_split -> label_data_1_split_7
I0403 18:12:48.451006 16581 net.cpp:399] label_data_1_split -> label_data_1_split_8
I0403 18:12:48.451026 16581 net.cpp:399] label_data_1_split -> label_data_1_split_9
I0403 18:12:48.451143 16581 net.cpp:141] Setting up label_data_1_split
I0403 18:12:48.451166 16581 net.cpp:148] Top shape: 24 (24)
I0403 18:12:48.451182 16581 net.cpp:148] Top shape: 24 (24)
I0403 18:12:48.451198 16581 net.cpp:148] Top shape: 24 (24)
I0403 18:12:48.451213 16581 net.cpp:148] Top shape: 24 (24)
I0403 18:12:48.451230 16581 net.cpp:148] Top shape: 24 (24)
I0403 18:12:48.451244 16581 net.cpp:148] Top shape: 24 (24)
I0403 18:12:48.451259 16581 net.cpp:148] Top shape: 24 (24)
I0403 18:12:48.451275 16581 net.cpp:148] Top shape: 24 (24)
I0403 18:12:48.451290 16581 net.cpp:148] Top shape: 24 (24)
I0403 18:12:48.451306 16581 net.cpp:148] Top shape: 24 (24)
I0403 18:12:48.451349 16581 net.cpp:156] Memory required for data: 14451744
I0403 18:12:48.451366 16581 layer_factory.hpp:77] Creating layer conv1/7x7_s2
I0403 18:12:48.451398 16581 net.cpp:91] Creating Layer conv1/7x7_s2
I0403 18:12:48.451416 16581 net.cpp:425] conv1/7x7_s2 <- data
I0403 18:12:48.451436 16581 net.cpp:399] conv1/7x7_s2 -> conv1/7x7_s2
I0403 18:12:48.590838 16581 net.cpp:141] Setting up conv1/7x7_s2
I0403 18:12:48.590925 16581 net.cpp:148] Top shape: 24 64 112 112 (19267584)
I0403 18:12:48.590942 16581 net.cpp:156] Memory required for data: 91522080
I0403 18:12:48.590978 16581 layer_factory.hpp:77] Creating layer conv1/relu_7x7
I0403 18:12:48.591006 16581 net.cpp:91] Creating Layer conv1/relu_7x7
I0403 18:12:48.591024 16581 net.cpp:425] conv1/relu_7x7 <- conv1/7x7_s2
I0403 18:12:48.591043 16581 net.cpp:386] conv1/relu_7x7 -> conv1/7x7_s2 (in-place)
I0403 18:12:48.591300 16581 net.cpp:141] Setting up conv1/relu_7x7
I0403 18:12:48.591327 16581 net.cpp:148] Top shape: 24 64 112 112 (19267584)
I0403 18:12:48.591343 16581 net.cpp:156] Memory required for data: 168592416
I0403 18:12:48.591359 16581 layer_factory.hpp:77] Creating layer pool1/3x3_s2
I0403 18:12:48.591384 16581 net.cpp:91] Creating Layer pool1/3x3_s2
I0403 18:12:48.591403 16581 net.cpp:425] pool1/3x3_s2 <- conv1/7x7_s2
I0403 18:12:48.591423 16581 net.cpp:399] pool1/3x3_s2 -> pool1/3x3_s2
I0403 18:12:48.591496 16581 net.cpp:141] Setting up pool1/3x3_s2
I0403 18:12:48.591521 16581 net.cpp:148] Top shape: 24 64 56 56 (4816896)
I0403 18:12:48.591536 16581 net.cpp:156] Memory required for data: 187860000
I0403 18:12:48.591552 16581 layer_factory.hpp:77] Creating layer pool1/norm1
I0403 18:12:48.591578 16581 net.cpp:91] Creating Layer pool1/norm1
I0403 18:12:48.591595 16581 net.cpp:425] pool1/norm1 <- pool1/3x3_s2
I0403 18:12:48.591614 16581 net.cpp:399] pool1/norm1 -> pool1/norm1
I0403 18:12:48.591907 16581 net.cpp:141] Setting up pool1/norm1
I0403 18:12:48.591974 16581 net.cpp:148] Top shape: 24 64 56 56 (4816896)
I0403 18:12:48.591995 16581 net.cpp:156] Memory required for data: 207127584
I0403 18:12:48.592010 16581 layer_factory.hpp:77] Creating layer conv2/3x3_reduce
I0403 18:12:48.592036 16581 net.cpp:91] Creating Layer conv2/3x3_reduce
I0403 18:12:48.592053 16581 net.cpp:425] conv2/3x3_reduce <- pool1/norm1
I0403 18:12:48.592072 16581 net.cpp:399] conv2/3x3_reduce -> conv2/3x3_reduce
I0403 18:12:48.593407 16581 net.cpp:141] Setting up conv2/3x3_reduce
I0403 18:12:48.593437 16581 net.cpp:148] Top shape: 24 64 56 56 (4816896)
I0403 18:12:48.593454 16581 net.cpp:156] Memory required for data: 226395168
I0403 18:12:48.593477 16581 layer_factory.hpp:77] Creating layer conv2/relu_3x3_reduce
I0403 18:12:48.593495 16581 net.cpp:91] Creating Layer conv2/relu_3x3_reduce
I0403 18:12:48.593510 16581 net.cpp:425] conv2/relu_3x3_reduce <- conv2/3x3_reduce
I0403 18:12:48.593528 16581 net.cpp:386] conv2/relu_3x3_reduce -> conv2/3x3_reduce (in-place)
I0403 18:12:48.593783 16581 net.cpp:141] Setting up conv2/relu_3x3_reduce
I0403 18:12:48.593858 16581 net.cpp:148] Top shape: 24 64 56 56 (4816896)
I0403 18:12:48.593878 16581 net.cpp:156] Memory required for data: 245662752
I0403 18:12:48.593895 16581 layer_factory.hpp:77] Creating layer conv2/3x3
I0403 18:12:48.593917 16581 net.cpp:91] Creating Layer conv2/3x3
I0403 18:12:48.593933 16581 net.cpp:425] conv2/3x3 <- conv2/3x3_reduce
I0403 18:12:48.593956 16581 net.cpp:399] conv2/3x3 -> conv2/3x3
I0403 18:12:48.596276 16581 net.cpp:141] Setting up conv2/3x3
I0403 18:12:48.596307 16581 net.cpp:148] Top shape: 24 192 56 56 (14450688)
I0403 18:12:48.596323 16581 net.cpp:156] Memory required for data: 303465504
I0403 18:12:48.596346 16581 layer_factory.hpp:77] Creating layer conv2/relu_3x3
I0403 18:12:48.596369 16581 net.cpp:91] Creating Layer conv2/relu_3x3
I0403 18:12:48.596385 16581 net.cpp:425] conv2/relu_3x3 <- conv2/3x3
I0403 18:12:48.596403 16581 net.cpp:386] conv2/relu_3x3 -> conv2/3x3 (in-place)
I0403 18:12:48.596586 16581 net.cpp:141] Setting up conv2/relu_3x3
I0403 18:12:48.596611 16581 net.cpp:148] Top shape: 24 192 56 56 (14450688)
I0403 18:12:48.596658 16581 net.cpp:156] Memory required for data: 361268256
I0403 18:12:48.596675 16581 layer_factory.hpp:77] Creating layer conv2/norm2
I0403 18:12:48.596698 16581 net.cpp:91] Creating Layer conv2/norm2
I0403 18:12:48.596719 16581 net.cpp:425] conv2/norm2 <- conv2/3x3
I0403 18:12:48.596736 16581 net.cpp:399] conv2/norm2 -> conv2/norm2
I0403 18:12:48.597080 16581 net.cpp:141] Setting up conv2/norm2
I0403 18:12:48.597108 16581 net.cpp:148] Top shape: 24 192 56 56 (14450688)
I0403 18:12:48.597124 16581 net.cpp:156] Memory required for data: 419071008
I0403 18:12:48.597141 16581 layer_factory.hpp:77] Creating layer pool2/3x3_s2
I0403 18:12:48.597162 16581 net.cpp:91] Creating Layer pool2/3x3_s2
I0403 18:12:48.597179 16581 net.cpp:425] pool2/3x3_s2 <- conv2/norm2
I0403 18:12:48.597198 16581 net.cpp:399] pool2/3x3_s2 -> pool2/3x3_s2
I0403 18:12:48.597254 16581 net.cpp:141] Setting up pool2/3x3_s2
I0403 18:12:48.597278 16581 net.cpp:148] Top shape: 24 192 28 28 (3612672)
I0403 18:12:48.597302 16581 net.cpp:156] Memory required for data: 433521696
I0403 18:12:48.597318 16581 layer_factory.hpp:77] Creating layer pool2/3x3_s2_pool2/3x3_s2_0_split
I0403 18:12:48.597409 16581 net.cpp:91] Creating Layer pool2/3x3_s2_pool2/3x3_s2_0_split
I0403 18:12:48.597431 16581 net.cpp:425] pool2/3x3_s2_pool2/3x3_s2_0_split <- pool2/3x3_s2
I0403 18:12:48.597453 16581 net.cpp:399] pool2/3x3_s2_pool2/3x3_s2_0_split -> pool2/3x3_s2_pool2/3x3_s2_0_split_0
I0403 18:12:48.597476 16581 net.cpp:399] pool2/3x3_s2_pool2/3x3_s2_0_split -> pool2/3x3_s2_pool2/3x3_s2_0_split_1
I0403 18:12:48.597496 16581 net.cpp:399] pool2/3x3_s2_pool2/3x3_s2_0_split -> pool2/3x3_s2_pool2/3x3_s2_0_split_2
I0403 18:12:48.597517 16581 net.cpp:399] pool2/3x3_s2_pool2/3x3_s2_0_split -> pool2/3x3_s2_pool2/3x3_s2_0_split_3
I0403 18:12:48.597594 16581 net.cpp:141] Setting up pool2/3x3_s2_pool2/3x3_s2_0_split
I0403 18:12:48.597617 16581 net.cpp:148] Top shape: 24 192 28 28 (3612672)
I0403 18:12:48.597635 16581 net.cpp:148] Top shape: 24 192 28 28 (3612672)
I0403 18:12:48.597651 16581 net.cpp:148] Top shape: 24 192 28 28 (3612672)
I0403 18:12:48.597667 16581 net.cpp:148] Top shape: 24 192 28 28 (3612672)
I0403 18:12:48.597681 16581 net.cpp:156] Memory required for data: 491324448
I0403 18:12:48.597697 16581 layer_factory.hpp:77] Creating layer inception_3a/1x1
I0403 18:12:48.597720 16581 net.cpp:91] Creating Layer inception_3a/1x1
I0403 18:12:48.597738 16581 net.cpp:425] inception_3a/1x1 <- pool2/3x3_s2_pool2/3x3_s2_0_split_0
I0403 18:12:48.597760 16581 net.cpp:399] inception_3a/1x1 -> inception_3a/1x1
I0403 18:12:48.599408 16581 net.cpp:141] Setting up inception_3a/1x1
I0403 18:12:48.599442 16581 net.cpp:148] Top shape: 24 64 28 28 (1204224)
I0403 18:12:48.599459 16581 net.cpp:156] Memory required for data: 496141344
I0403 18:12:48.599479 16581 layer_factory.hpp:77] Creating layer inception_3a/relu_1x1
I0403 18:12:48.599498 16581 net.cpp:91] Creating Layer inception_3a/relu_1x1
I0403 18:12:48.599514 16581 net.cpp:425] inception_3a/relu_1x1 <- inception_3a/1x1
I0403 18:12:48.599534 16581 net.cpp:386] inception_3a/relu_1x1 -> inception_3a/1x1 (in-place)
I0403 18:12:48.599717 16581 net.cpp:141] Setting up inception_3a/relu_1x1
I0403 18:12:48.599745 16581 net.cpp:148] Top shape: 24 64 28 28 (1204224)
I0403 18:12:48.599761 16581 net.cpp:156] Memory required for data: 500958240
I0403 18:12:48.599777 16581 layer_factory.hpp:77] Creating layer inception_3a/3x3_reduce
I0403 18:12:48.599802 16581 net.cpp:91] Creating Layer inception_3a/3x3_reduce
I0403 18:12:48.599820 16581 net.cpp:425] inception_3a/3x3_reduce <- pool2/3x3_s2_pool2/3x3_s2_0_split_1
I0403 18:12:48.599841 16581 net.cpp:399] inception_3a/3x3_reduce -> inception_3a/3x3_reduce
I0403 18:12:48.601645 16581 net.cpp:141] Setting up inception_3a/3x3_reduce
I0403 18:12:48.601675 16581 net.cpp:148] Top shape: 24 96 28 28 (1806336)
I0403 18:12:48.601692 16581 net.cpp:156] Memory required for data: 508183584
I0403 18:12:48.601717 16581 layer_factory.hpp:77] Creating layer inception_3a/relu_3x3_reduce
I0403 18:12:48.601753 16581 net.cpp:91] Creating Layer inception_3a/relu_3x3_reduce
I0403 18:12:48.601773 16581 net.cpp:425] inception_3a/relu_3x3_reduce <- inception_3a/3x3_reduce
I0403 18:12:48.601794 16581 net.cpp:386] inception_3a/relu_3x3_reduce -> inception_3a/3x3_reduce (in-place)
I0403 18:12:48.601995 16581 net.cpp:141] Setting up inception_3a/relu_3x3_reduce
I0403 18:12:48.602021 16581 net.cpp:148] Top shape: 24 96 28 28 (1806336)
I0403 18:12:48.602037 16581 net.cpp:156] Memory required for data: 515408928
I0403 18:12:48.602052 16581 layer_factory.hpp:77] Creating layer inception_3a/3x3
I0403 18:12:48.602077 16581 net.cpp:91] Creating Layer inception_3a/3x3
I0403 18:12:48.602097 16581 net.cpp:425] inception_3a/3x3 <- inception_3a/3x3_reduce
I0403 18:12:48.602116 16581 net.cpp:399] inception_3a/3x3 -> inception_3a/3x3
I0403 18:12:48.603896 16581 net.cpp:141] Setting up inception_3a/3x3
I0403 18:12:48.603930 16581 net.cpp:148] Top shape: 24 128 28 28 (2408448)
I0403 18:12:48.603951 16581 net.cpp:156] Memory required for data: 525042720
I0403 18:12:48.603972 16581 layer_factory.hpp:77] Creating layer inception_3a/relu_3x3
I0403 18:12:48.603991 16581 net.cpp:91] Creating Layer inception_3a/relu_3x3
I0403 18:12:48.604008 16581 net.cpp:425] inception_3a/relu_3x3 <- inception_3a/3x3
I0403 18:12:48.604028 16581 net.cpp:386] inception_3a/relu_3x3 -> inception_3a/3x3 (in-place)
I0403 18:12:48.604315 16581 net.cpp:141] Setting up inception_3a/relu_3x3
I0403 18:12:48.604346 16581 net.cpp:148] Top shape: 24 128 28 28 (2408448)
I0403 18:12:48.604360 16581 net.cpp:156] Memory required for data: 534676512
I0403 18:12:48.604377 16581 layer_factory.hpp:77] Creating layer inception_3a/5x5_reduce
I0403 18:12:48.604399 16581 net.cpp:91] Creating Layer inception_3a/5x5_reduce
I0403 18:12:48.604418 16581 net.cpp:425] inception_3a/5x5_reduce <- pool2/3x3_s2_pool2/3x3_s2_0_split_2
I0403 18:12:48.604440 16581 net.cpp:399] inception_3a/5x5_reduce -> inception_3a/5x5_reduce
I0403 18:12:48.605448 16581 net.cpp:141] Setting up inception_3a/5x5_reduce
I0403 18:12:48.605478 16581 net.cpp:148] Top shape: 24 16 28 28 (301056)
I0403 18:12:48.605494 16581 net.cpp:156] Memory required for data: 535880736
I0403 18:12:48.605514 16581 layer_factory.hpp:77] Creating layer inception_3a/relu_5x5_reduce
I0403 18:12:48.605532 16581 net.cpp:91] Creating Layer inception_3a/relu_5x5_reduce
I0403 18:12:48.605550 16581 net.cpp:425] inception_3a/relu_5x5_reduce <- inception_3a/5x5_reduce
I0403 18:12:48.605571 16581 net.cpp:386] inception_3a/relu_5x5_reduce -> inception_3a/5x5_reduce (in-place)
I0403 18:12:48.605882 16581 net.cpp:141] Setting up inception_3a/relu_5x5_reduce
I0403 18:12:48.605909 16581 net.cpp:148] Top shape: 24 16 28 28 (301056)
I0403 18:12:48.605927 16581 net.cpp:156] Memory required for data: 537084960
I0403 18:12:48.605943 16581 layer_factory.hpp:77] Creating layer inception_3a/5x5
I0403 18:12:48.605973 16581 net.cpp:91] Creating Layer inception_3a/5x5
I0403 18:12:48.605991 16581 net.cpp:425] inception_3a/5x5 <- inception_3a/5x5_reduce
I0403 18:12:48.606014 16581 net.cpp:399] inception_3a/5x5 -> inception_3a/5x5
I0403 18:12:48.607074 16581 net.cpp:141] Setting up inception_3a/5x5
I0403 18:12:48.607106 16581 net.cpp:148] Top shape: 24 32 28 28 (602112)
I0403 18:12:48.607123 16581 net.cpp:156] Memory required for data: 539493408
I0403 18:12:48.607143 16581 layer_factory.hpp:77] Creating layer inception_3a/relu_5x5
I0403 18:12:48.607161 16581 net.cpp:91] Creating Layer inception_3a/relu_5x5
I0403 18:12:48.607178 16581 net.cpp:425] inception_3a/relu_5x5 <- inception_3a/5x5
I0403 18:12:48.607197 16581 net.cpp:386] inception_3a/relu_5x5 -> inception_3a/5x5 (in-place)
I0403 18:12:48.607379 16581 net.cpp:141] Setting up inception_3a/relu_5x5
I0403 18:12:48.607405 16581 net.cpp:148] Top shape: 24 32 28 28 (602112)
I0403 18:12:48.607420 16581 net.cpp:156] Memory required for data: 541901856
I0403 18:12:48.607436 16581 layer_factory.hpp:77] Creating layer inception_3a/pool
I0403 18:12:48.607455 16581 net.cpp:91] Creating Layer inception_3a/pool
I0403 18:12:48.607486 16581 net.cpp:425] inception_3a/pool <- pool2/3x3_s2_pool2/3x3_s2_0_split_3
I0403 18:12:48.607509 16581 net.cpp:399] inception_3a/pool -> inception_3a/pool
I0403 18:12:48.607569 16581 net.cpp:141] Setting up inception_3a/pool
I0403 18:12:48.607595 16581 net.cpp:148] Top shape: 24 192 28 28 (3612672)
I0403 18:12:48.607612 16581 net.cpp:156] Memory required for data: 556352544
I0403 18:12:48.607627 16581 layer_factory.hpp:77] Creating layer inception_3a/pool_proj
I0403 18:12:48.607650 16581 net.cpp:91] Creating Layer inception_3a/pool_proj
I0403 18:12:48.607669 16581 net.cpp:425] inception_3a/pool_proj <- inception_3a/pool
I0403 18:12:48.607688 16581 net.cpp:399] inception_3a/pool_proj -> inception_3a/pool_proj
I0403 18:12:48.608702 16581 net.cpp:141] Setting up inception_3a/pool_proj
I0403 18:12:48.608732 16581 net.cpp:148] Top shape: 24 32 28 28 (602112)
I0403 18:12:48.608748 16581 net.cpp:156] Memory required for data: 558760992
I0403 18:12:48.608774 16581 layer_factory.hpp:77] Creating layer inception_3a/relu_pool_proj
I0403 18:12:48.608795 16581 net.cpp:91] Creating Layer inception_3a/relu_pool_proj
I0403 18:12:48.608813 16581 net.cpp:425] inception_3a/relu_pool_proj <- inception_3a/pool_proj
I0403 18:12:48.608832 16581 net.cpp:386] inception_3a/relu_pool_proj -> inception_3a/pool_proj (in-place)
I0403 18:12:48.609127 16581 net.cpp:141] Setting up inception_3a/relu_pool_proj
I0403 18:12:48.609158 16581 net.cpp:148] Top shape: 24 32 28 28 (602112)
I0403 18:12:48.609174 16581 net.cpp:156] Memory required for data: 561169440
I0403 18:12:48.609190 16581 layer_factory.hpp:77] Creating layer inception_3a/output
I0403 18:12:48.609208 16581 net.cpp:91] Creating Layer inception_3a/output
I0403 18:12:48.609225 16581 net.cpp:425] inception_3a/output <- inception_3a/1x1
I0403 18:12:48.609242 16581 net.cpp:425] inception_3a/output <- inception_3a/3x3
I0403 18:12:48.609259 16581 net.cpp:425] inception_3a/output <- inception_3a/5x5
I0403 18:12:48.609277 16581 net.cpp:425] inception_3a/output <- inception_3a/pool_proj
I0403 18:12:48.609293 16581 net.cpp:399] inception_3a/output -> inception_3a/output
I0403 18:12:48.609344 16581 net.cpp:141] Setting up inception_3a/output
I0403 18:12:48.609367 16581 net.cpp:148] Top shape: 24 256 28 28 (4816896)
I0403 18:12:48.609382 16581 net.cpp:156] Memory required for data: 580437024
I0403 18:12:48.609398 16581 layer_factory.hpp:77] Creating layer inception_3a/output_inception_3a/output_0_split
I0403 18:12:48.609418 16581 net.cpp:91] Creating Layer inception_3a/output_inception_3a/output_0_split
I0403 18:12:48.609436 16581 net.cpp:425] inception_3a/output_inception_3a/output_0_split <- inception_3a/output
I0403 18:12:48.609452 16581 net.cpp:399] inception_3a/output_inception_3a/output_0_split -> inception_3a/output_inception_3a/output_0_split_0
I0403 18:12:48.609473 16581 net.cpp:399] inception_3a/output_inception_3a/output_0_split -> inception_3a/output_inception_3a/output_0_split_1
I0403 18:12:48.609498 16581 net.cpp:399] inception_3a/output_inception_3a/output_0_split -> inception_3a/output_inception_3a/output_0_split_2
I0403 18:12:48.609520 16581 net.cpp:399] inception_3a/output_inception_3a/output_0_split -> inception_3a/output_inception_3a/output_0_split_3
I0403 18:12:48.609598 16581 net.cpp:141] Setting up inception_3a/output_inception_3a/output_0_split
I0403 18:12:48.609622 16581 net.cpp:148] Top shape: 24 256 28 28 (4816896)
I0403 18:12:48.609639 16581 net.cpp:148] Top shape: 24 256 28 28 (4816896)
I0403 18:12:48.609657 16581 net.cpp:148] Top shape: 24 256 28 28 (4816896)
I0403 18:12:48.609673 16581 net.cpp:148] Top shape: 24 256 28 28 (4816896)
I0403 18:12:48.609686 16581 net.cpp:156] Memory required for data: 657507360
I0403 18:12:48.609702 16581 layer_factory.hpp:77] Creating layer inception_3b/1x1
I0403 18:12:48.609727 16581 net.cpp:91] Creating Layer inception_3b/1x1
I0403 18:12:48.609745 16581 net.cpp:425] inception_3b/1x1 <- inception_3a/output_inception_3a/output_0_split_0
I0403 18:12:48.609766 16581 net.cpp:399] inception_3b/1x1 -> inception_3b/1x1
I0403 18:12:48.610970 16581 net.cpp:141] Setting up inception_3b/1x1
I0403 18:12:48.611012 16581 net.cpp:148] Top shape: 24 128 28 28 (2408448)
I0403 18:12:48.611029 16581 net.cpp:156] Memory required for data: 667141152
I0403 18:12:48.611048 16581 layer_factory.hpp:77] Creating layer inception_3b/relu_1x1
I0403 18:12:48.611069 16581 net.cpp:91] Creating Layer inception_3b/relu_1x1
I0403 18:12:48.611088 16581 net.cpp:425] inception_3b/relu_1x1 <- inception_3b/1x1
I0403 18:12:48.611105 16581 net.cpp:386] inception_3b/relu_1x1 -> inception_3b/1x1 (in-place)
I0403 18:12:48.611311 16581 net.cpp:141] Setting up inception_3b/relu_1x1
I0403 18:12:48.611338 16581 net.cpp:148] Top shape: 24 128 28 28 (2408448)
I0403 18:12:48.611353 16581 net.cpp:156] Memory required for data: 676774944
I0403 18:12:48.611369 16581 layer_factory.hpp:77] Creating layer inception_3b/3x3_reduce
I0403 18:12:48.611393 16581 net.cpp:91] Creating Layer inception_3b/3x3_reduce
I0403 18:12:48.611412 16581 net.cpp:425] inception_3b/3x3_reduce <- inception_3a/output_inception_3a/output_0_split_1
I0403 18:12:48.611433 16581 net.cpp:399] inception_3b/3x3_reduce -> inception_3b/3x3_reduce
I0403 18:12:48.612627 16581 net.cpp:141] Setting up inception_3b/3x3_reduce
I0403 18:12:48.612656 16581 net.cpp:148] Top shape: 24 128 28 28 (2408448)
I0403 18:12:48.612673 16581 net.cpp:156] Memory required for data: 686408736
I0403 18:12:48.612691 16581 layer_factory.hpp:77] Creating layer inception_3b/relu_3x3_reduce
I0403 18:12:48.612715 16581 net.cpp:91] Creating Layer inception_3b/relu_3x3_reduce
I0403 18:12:48.612731 16581 net.cpp:425] inception_3b/relu_3x3_reduce <- inception_3b/3x3_reduce
I0403 18:12:48.612749 16581 net.cpp:386] inception_3b/relu_3x3_reduce -> inception_3b/3x3_reduce (in-place)
I0403 18:12:48.612933 16581 net.cpp:141] Setting up inception_3b/relu_3x3_reduce
I0403 18:12:48.612967 16581 net.cpp:148] Top shape: 24 128 28 28 (2408448)
I0403 18:12:48.612983 16581 net.cpp:156] Memory required for data: 696042528
I0403 18:12:48.612999 16581 layer_factory.hpp:77] Creating layer inception_3b/3x3
I0403 18:12:48.613024 16581 net.cpp:91] Creating Layer inception_3b/3x3
I0403 18:12:48.613044 16581 net.cpp:425] inception_3b/3x3 <- inception_3b/3x3_reduce
I0403 18:12:48.613065 16581 net.cpp:399] inception_3b/3x3 -> inception_3b/3x3
I0403 18:12:48.616117 16581 net.cpp:141] Setting up inception_3b/3x3
I0403 18:12:48.616148 16581 net.cpp:148] Top shape: 24 192 28 28 (3612672)
I0403 18:12:48.616166 16581 net.cpp:156] Memory required for data: 710493216
I0403 18:12:48.616185 16581 layer_factory.hpp:77] Creating layer inception_3b/relu_3x3
I0403 18:12:48.616204 16581 net.cpp:91] Creating Layer inception_3b/relu_3x3
I0403 18:12:48.616221 16581 net.cpp:425] inception_3b/relu_3x3 <- inception_3b/3x3
I0403 18:12:48.616242 16581 net.cpp:386] inception_3b/relu_3x3 -> inception_3b/3x3 (in-place)
I0403 18:12:48.616538 16581 net.cpp:141] Setting up inception_3b/relu_3x3
I0403 18:12:48.616566 16581 net.cpp:148] Top shape: 24 192 28 28 (3612672)
I0403 18:12:48.616582 16581 net.cpp:156] Memory required for data: 724943904
I0403 18:12:48.616597 16581 layer_factory.hpp:77] Creating layer inception_3b/5x5_reduce
I0403 18:12:48.616621 16581 net.cpp:91] Creating Layer inception_3b/5x5_reduce
I0403 18:12:48.616638 16581 net.cpp:425] inception_3b/5x5_reduce <- inception_3a/output_inception_3a/output_0_split_2
I0403 18:12:48.616662 16581 net.cpp:399] inception_3b/5x5_reduce -> inception_3b/5x5_reduce
I0403 18:12:48.617666 16581 net.cpp:141] Setting up inception_3b/5x5_reduce
I0403 18:12:48.617697 16581 net.cpp:148] Top shape: 24 32 28 28 (602112)
I0403 18:12:48.617713 16581 net.cpp:156] Memory required for data: 727352352
I0403 18:12:48.617732 16581 layer_factory.hpp:77] Creating layer inception_3b/relu_5x5_reduce
I0403 18:12:48.617750 16581 net.cpp:91] Creating Layer inception_3b/relu_5x5_reduce
I0403 18:12:48.617768 16581 net.cpp:425] inception_3b/relu_5x5_reduce <- inception_3b/5x5_reduce
I0403 18:12:48.617785 16581 net.cpp:386] inception_3b/relu_5x5_reduce -> inception_3b/5x5_reduce (in-place)
I0403 18:12:48.617992 16581 net.cpp:141] Setting up inception_3b/relu_5x5_reduce
I0403 18:12:48.618018 16581 net.cpp:148] Top shape: 24 32 28 28 (602112)
I0403 18:12:48.618033 16581 net.cpp:156] Memory required for data: 729760800
I0403 18:12:48.618048 16581 layer_factory.hpp:77] Creating layer inception_3b/5x5
I0403 18:12:48.618072 16581 net.cpp:91] Creating Layer inception_3b/5x5
I0403 18:12:48.618089 16581 net.cpp:425] inception_3b/5x5 <- inception_3b/5x5_reduce
I0403 18:12:48.618109 16581 net.cpp:399] inception_3b/5x5 -> inception_3b/5x5
I0403 18:12:48.620146 16581 net.cpp:141] Setting up inception_3b/5x5
I0403 18:12:48.620177 16581 net.cpp:148] Top shape: 24 96 28 28 (1806336)
I0403 18:12:48.620193 16581 net.cpp:156] Memory required for data: 736986144
I0403 18:12:48.620211 16581 layer_factory.hpp:77] Creating layer inception_3b/relu_5x5
I0403 18:12:48.620232 16581 net.cpp:91] Creating Layer inception_3b/relu_5x5
I0403 18:12:48.620249 16581 net.cpp:425] inception_3b/relu_5x5 <- inception_3b/5x5
I0403 18:12:48.620266 16581 net.cpp:386] inception_3b/relu_5x5 -> inception_3b/5x5 (in-place)
I0403 18:12:48.620465 16581 net.cpp:141] Setting up inception_3b/relu_5x5
I0403 18:12:48.620491 16581 net.cpp:148] Top shape: 24 96 28 28 (1806336)
I0403 18:12:48.620507 16581 net.cpp:156] Memory required for data: 744211488
I0403 18:12:48.620522 16581 layer_factory.hpp:77] Creating layer inception_3b/pool
I0403 18:12:48.620539 16581 net.cpp:91] Creating Layer inception_3b/pool
I0403 18:12:48.620556 16581 net.cpp:425] inception_3b/pool <- inception_3a/output_inception_3a/output_0_split_3
I0403 18:12:48.620574 16581 net.cpp:399] inception_3b/pool -> inception_3b/pool
I0403 18:12:48.620631 16581 net.cpp:141] Setting up inception_3b/pool
I0403 18:12:48.620654 16581 net.cpp:148] Top shape: 24 256 28 28 (4816896)
I0403 18:12:48.620669 16581 net.cpp:156] Memory required for data: 763479072
I0403 18:12:48.620684 16581 layer_factory.hpp:77] Creating layer inception_3b/pool_proj
I0403 18:12:48.620707 16581 net.cpp:91] Creating Layer inception_3b/pool_proj
I0403 18:12:48.620725 16581 net.cpp:425] inception_3b/pool_proj <- inception_3b/pool
I0403 18:12:48.620746 16581 net.cpp:399] inception_3b/pool_proj -> inception_3b/pool_proj
I0403 18:12:48.621829 16581 net.cpp:141] Setting up inception_3b/pool_proj
I0403 18:12:48.621857 16581 net.cpp:148] Top shape: 24 64 28 28 (1204224)
I0403 18:12:48.621875 16581 net.cpp:156] Memory required for data: 768295968
I0403 18:12:48.621892 16581 layer_factory.hpp:77] Creating layer inception_3b/relu_pool_proj
I0403 18:12:48.621913 16581 net.cpp:91] Creating Layer inception_3b/relu_pool_proj
I0403 18:12:48.621932 16581 net.cpp:425] inception_3b/relu_pool_proj <- inception_3b/pool_proj
I0403 18:12:48.621953 16581 net.cpp:386] inception_3b/relu_pool_proj -> inception_3b/pool_proj (in-place)
I0403 18:12:48.622354 16581 net.cpp:141] Setting up inception_3b/relu_pool_proj
I0403 18:12:48.622381 16581 net.cpp:148] Top shape: 24 64 28 28 (1204224)
I0403 18:12:48.622397 16581 net.cpp:156] Memory required for data: 773112864
I0403 18:12:48.622412 16581 layer_factory.hpp:77] Creating layer inception_3b/output
I0403 18:12:48.622431 16581 net.cpp:91] Creating Layer inception_3b/output
I0403 18:12:48.622447 16581 net.cpp:425] inception_3b/output <- inception_3b/1x1
I0403 18:12:48.622463 16581 net.cpp:425] inception_3b/output <- inception_3b/3x3
I0403 18:12:48.622480 16581 net.cpp:425] inception_3b/output <- inception_3b/5x5
I0403 18:12:48.622496 16581 net.cpp:425] inception_3b/output <- inception_3b/pool_proj
I0403 18:12:48.622515 16581 net.cpp:399] inception_3b/output -> inception_3b/output
I0403 18:12:48.622560 16581 net.cpp:141] Setting up inception_3b/output
I0403 18:12:48.622586 16581 net.cpp:148] Top shape: 24 480 28 28 (9031680)
I0403 18:12:48.622601 16581 net.cpp:156] Memory required for data: 809239584
I0403 18:12:48.622616 16581 layer_factory.hpp:77] Creating layer pool3/3x3_s2
I0403 18:12:48.622633 16581 net.cpp:91] Creating Layer pool3/3x3_s2
I0403 18:12:48.622648 16581 net.cpp:425] pool3/3x3_s2 <- inception_3b/output
I0403 18:12:48.622681 16581 net.cpp:399] pool3/3x3_s2 -> pool3/3x3_s2
I0403 18:12:48.622743 16581 net.cpp:141] Setting up pool3/3x3_s2
I0403 18:12:48.622766 16581 net.cpp:148] Top shape: 24 480 14 14 (2257920)
I0403 18:12:48.622781 16581 net.cpp:156] Memory required for data: 818271264
I0403 18:12:48.622797 16581 layer_factory.hpp:77] Creating layer pool3/3x3_s2_pool3/3x3_s2_0_split
I0403 18:12:48.622814 16581 net.cpp:91] Creating Layer pool3/3x3_s2_pool3/3x3_s2_0_split
I0403 18:12:48.622830 16581 net.cpp:425] pool3/3x3_s2_pool3/3x3_s2_0_split <- pool3/3x3_s2
I0403 18:12:48.622849 16581 net.cpp:399] pool3/3x3_s2_pool3/3x3_s2_0_split -> pool3/3x3_s2_pool3/3x3_s2_0_split_0
I0403 18:12:48.622870 16581 net.cpp:399] pool3/3x3_s2_pool3/3x3_s2_0_split -> pool3/3x3_s2_pool3/3x3_s2_0_split_1
I0403 18:12:48.622890 16581 net.cpp:399] pool3/3x3_s2_pool3/3x3_s2_0_split -> pool3/3x3_s2_pool3/3x3_s2_0_split_2
I0403 18:12:48.622915 16581 net.cpp:399] pool3/3x3_s2_pool3/3x3_s2_0_split -> pool3/3x3_s2_pool3/3x3_s2_0_split_3
I0403 18:12:48.623000 16581 net.cpp:141] Setting up pool3/3x3_s2_pool3/3x3_s2_0_split
I0403 18:12:48.623023 16581 net.cpp:148] Top shape: 24 480 14 14 (2257920)
I0403 18:12:48.623040 16581 net.cpp:148] Top shape: 24 480 14 14 (2257920)
I0403 18:12:48.623056 16581 net.cpp:148] Top shape: 24 480 14 14 (2257920)
I0403 18:12:48.623072 16581 net.cpp:148] Top shape: 24 480 14 14 (2257920)
I0403 18:12:48.623086 16581 net.cpp:156] Memory required for data: 854397984
I0403 18:12:48.623101 16581 layer_factory.hpp:77] Creating layer inception_4a/1x1
I0403 18:12:48.623123 16581 net.cpp:91] Creating Layer inception_4a/1x1
I0403 18:12:48.623141 16581 net.cpp:425] inception_4a/1x1 <- pool3/3x3_s2_pool3/3x3_s2_0_split_0
I0403 18:12:48.623162 16581 net.cpp:399] inception_4a/1x1 -> inception_4a/1x1
I0403 18:12:48.624776 16581 net.cpp:141] Setting up inception_4a/1x1
I0403 18:12:48.624804 16581 net.cpp:148] Top shape: 24 192 14 14 (903168)
I0403 18:12:48.624821 16581 net.cpp:156] Memory required for data: 858010656
I0403 18:12:48.624840 16581 layer_factory.hpp:77] Creating layer inception_4a/relu_1x1
I0403 18:12:48.624861 16581 net.cpp:91] Creating Layer inception_4a/relu_1x1
I0403 18:12:48.624878 16581 net.cpp:425] inception_4a/relu_1x1 <- inception_4a/1x1
I0403 18:12:48.624897 16581 net.cpp:386] inception_4a/relu_1x1 -> inception_4a/1x1 (in-place)
I0403 18:12:48.625082 16581 net.cpp:141] Setting up inception_4a/relu_1x1
I0403 18:12:48.625108 16581 net.cpp:148] Top shape: 24 192 14 14 (903168)
I0403 18:12:48.625124 16581 net.cpp:156] Memory required for data: 861623328
I0403 18:12:48.625139 16581 layer_factory.hpp:77] Creating layer inception_4a/3x3_reduce
I0403 18:12:48.625164 16581 net.cpp:91] Creating Layer inception_4a/3x3_reduce
I0403 18:12:48.625182 16581 net.cpp:425] inception_4a/3x3_reduce <- pool3/3x3_s2_pool3/3x3_s2_0_split_1
I0403 18:12:48.625201 16581 net.cpp:399] inception_4a/3x3_reduce -> inception_4a/3x3_reduce
I0403 18:12:48.626507 16581 net.cpp:141] Setting up inception_4a/3x3_reduce
I0403 18:12:48.626534 16581 net.cpp:148] Top shape: 24 96 14 14 (451584)
I0403 18:12:48.626550 16581 net.cpp:156] Memory required for data: 863429664
I0403 18:12:48.626576 16581 layer_factory.hpp:77] Creating layer inception_4a/relu_3x3_reduce
I0403 18:12:48.626597 16581 net.cpp:91] Creating Layer inception_4a/relu_3x3_reduce
I0403 18:12:48.626613 16581 net.cpp:425] inception_4a/relu_3x3_reduce <- inception_4a/3x3_reduce
I0403 18:12:48.626634 16581 net.cpp:386] inception_4a/relu_3x3_reduce -> inception_4a/3x3_reduce (in-place)
I0403 18:12:48.626816 16581 net.cpp:141] Setting up inception_4a/relu_3x3_reduce
I0403 18:12:48.626842 16581 net.cpp:148] Top shape: 24 96 14 14 (451584)
I0403 18:12:48.626857 16581 net.cpp:156] Memory required for data: 865236000
I0403 18:12:48.626873 16581 layer_factory.hpp:77] Creating layer inception_4a/3x3
I0403 18:12:48.626894 16581 net.cpp:91] Creating Layer inception_4a/3x3
I0403 18:12:48.626914 16581 net.cpp:425] inception_4a/3x3 <- inception_4a/3x3_reduce
I0403 18:12:48.626934 16581 net.cpp:399] inception_4a/3x3 -> inception_4a/3x3
I0403 18:12:48.629673 16581 net.cpp:141] Setting up inception_4a/3x3
I0403 18:12:48.629703 16581 net.cpp:148] Top shape: 24 208 14 14 (978432)
I0403 18:12:48.629720 16581 net.cpp:156] Memory required for data: 869149728
I0403 18:12:48.629740 16581 layer_factory.hpp:77] Creating layer inception_4a/relu_3x3
I0403 18:12:48.629757 16581 net.cpp:91] Creating Layer inception_4a/relu_3x3
I0403 18:12:48.629775 16581 net.cpp:425] inception_4a/relu_3x3 <- inception_4a/3x3
I0403 18:12:48.629792 16581 net.cpp:386] inception_4a/relu_3x3 -> inception_4a/3x3 (in-place)
I0403 18:12:48.630077 16581 net.cpp:141] Setting up inception_4a/relu_3x3
I0403 18:12:48.630105 16581 net.cpp:148] Top shape: 24 208 14 14 (978432)
I0403 18:12:48.630122 16581 net.cpp:156] Memory required for data: 873063456
I0403 18:12:48.630138 16581 layer_factory.hpp:77] Creating layer inception_4a/5x5_reduce
I0403 18:12:48.630159 16581 net.cpp:91] Creating Layer inception_4a/5x5_reduce
I0403 18:12:48.630177 16581 net.cpp:425] inception_4a/5x5_reduce <- pool3/3x3_s2_pool3/3x3_s2_0_split_2
I0403 18:12:48.630199 16581 net.cpp:399] inception_4a/5x5_reduce -> inception_4a/5x5_reduce
I0403 18:12:48.631258 16581 net.cpp:141] Setting up inception_4a/5x5_reduce
I0403 18:12:48.631299 16581 net.cpp:148] Top shape: 24 16 14 14 (75264)
I0403 18:12:48.631316 16581 net.cpp:156] Memory required for data: 873364512
I0403 18:12:48.631335 16581 layer_factory.hpp:77] Creating layer inception_4a/relu_5x5_reduce
I0403 18:12:48.631355 16581 net.cpp:91] Creating Layer inception_4a/relu_5x5_reduce
I0403 18:12:48.631371 16581 net.cpp:425] inception_4a/relu_5x5_reduce <- inception_4a/5x5_reduce
I0403 18:12:48.631391 16581 net.cpp:386] inception_4a/relu_5x5_reduce -> inception_4a/5x5_reduce (in-place)
I0403 18:12:48.631583 16581 net.cpp:141] Setting up inception_4a/relu_5x5_reduce
I0403 18:12:48.631609 16581 net.cpp:148] Top shape: 24 16 14 14 (75264)
I0403 18:12:48.631625 16581 net.cpp:156] Memory required for data: 873665568
I0403 18:12:48.631640 16581 layer_factory.hpp:77] Creating layer inception_4a/5x5
I0403 18:12:48.631664 16581 net.cpp:91] Creating Layer inception_4a/5x5
I0403 18:12:48.631682 16581 net.cpp:425] inception_4a/5x5 <- inception_4a/5x5_reduce
I0403 18:12:48.631705 16581 net.cpp:399] inception_4a/5x5 -> inception_4a/5x5
I0403 18:12:48.632845 16581 net.cpp:141] Setting up inception_4a/5x5
I0403 18:12:48.632874 16581 net.cpp:148] Top shape: 24 48 14 14 (225792)
I0403 18:12:48.632891 16581 net.cpp:156] Memory required for data: 874568736
I0403 18:12:48.632910 16581 layer_factory.hpp:77] Creating layer inception_4a/relu_5x5
I0403 18:12:48.632931 16581 net.cpp:91] Creating Layer inception_4a/relu_5x5
I0403 18:12:48.632952 16581 net.cpp:425] inception_4a/relu_5x5 <- inception_4a/5x5
I0403 18:12:48.632974 16581 net.cpp:386] inception_4a/relu_5x5 -> inception_4a/5x5 (in-place)
I0403 18:12:48.633162 16581 net.cpp:141] Setting up inception_4a/relu_5x5
I0403 18:12:48.633188 16581 net.cpp:148] Top shape: 24 48 14 14 (225792)
I0403 18:12:48.633203 16581 net.cpp:156] Memory required for data: 875471904
I0403 18:12:48.633219 16581 layer_factory.hpp:77] Creating layer inception_4a/pool
I0403 18:12:48.633239 16581 net.cpp:91] Creating Layer inception_4a/pool
I0403 18:12:48.633257 16581 net.cpp:425] inception_4a/pool <- pool3/3x3_s2_pool3/3x3_s2_0_split_3
I0403 18:12:48.633275 16581 net.cpp:399] inception_4a/pool -> inception_4a/pool
I0403 18:12:48.633342 16581 net.cpp:141] Setting up inception_4a/pool
I0403 18:12:48.633365 16581 net.cpp:148] Top shape: 24 480 14 14 (2257920)
I0403 18:12:48.633380 16581 net.cpp:156] Memory required for data: 884503584
I0403 18:12:48.633395 16581 layer_factory.hpp:77] Creating layer inception_4a/pool_proj
I0403 18:12:48.633419 16581 net.cpp:91] Creating Layer inception_4a/pool_proj
I0403 18:12:48.633436 16581 net.cpp:425] inception_4a/pool_proj <- inception_4a/pool
I0403 18:12:48.633458 16581 net.cpp:399] inception_4a/pool_proj -> inception_4a/pool_proj
I0403 18:12:48.634690 16581 net.cpp:141] Setting up inception_4a/pool_proj
I0403 18:12:48.634719 16581 net.cpp:148] Top shape: 24 64 14 14 (301056)
I0403 18:12:48.634750 16581 net.cpp:156] Memory required for data: 885707808
I0403 18:12:48.634771 16581 layer_factory.hpp:77] Creating layer inception_4a/relu_pool_proj
I0403 18:12:48.634793 16581 net.cpp:91] Creating Layer inception_4a/relu_pool_proj
I0403 18:12:48.634811 16581 net.cpp:425] inception_4a/relu_pool_proj <- inception_4a/pool_proj
I0403 18:12:48.634830 16581 net.cpp:386] inception_4a/relu_pool_proj -> inception_4a/pool_proj (in-place)
I0403 18:12:48.635134 16581 net.cpp:141] Setting up inception_4a/relu_pool_proj
I0403 18:12:48.635162 16581 net.cpp:148] Top shape: 24 64 14 14 (301056)
I0403 18:12:48.635179 16581 net.cpp:156] Memory required for data: 886912032
I0403 18:12:48.635195 16581 layer_factory.hpp:77] Creating layer inception_4a/output
I0403 18:12:48.635213 16581 net.cpp:91] Creating Layer inception_4a/output
I0403 18:12:48.635231 16581 net.cpp:425] inception_4a/output <- inception_4a/1x1
I0403 18:12:48.635248 16581 net.cpp:425] inception_4a/output <- inception_4a/3x3
I0403 18:12:48.635265 16581 net.cpp:425] inception_4a/output <- inception_4a/5x5
I0403 18:12:48.635282 16581 net.cpp:425] inception_4a/output <- inception_4a/pool_proj
I0403 18:12:48.635301 16581 net.cpp:399] inception_4a/output -> inception_4a/output
I0403 18:12:48.635351 16581 net.cpp:141] Setting up inception_4a/output
I0403 18:12:48.635375 16581 net.cpp:148] Top shape: 24 512 14 14 (2408448)
I0403 18:12:48.635391 16581 net.cpp:156] Memory required for data: 896545824
I0403 18:12:48.635408 16581 layer_factory.hpp:77] Creating layer inception_4a/output_inception_4a/output_0_split
I0403 18:12:48.635426 16581 net.cpp:91] Creating Layer inception_4a/output_inception_4a/output_0_split
I0403 18:12:48.635442 16581 net.cpp:425] inception_4a/output_inception_4a/output_0_split <- inception_4a/output
I0403 18:12:48.635462 16581 net.cpp:399] inception_4a/output_inception_4a/output_0_split -> inception_4a/output_inception_4a/output_0_split_0
I0403 18:12:48.635485 16581 net.cpp:399] inception_4a/output_inception_4a/output_0_split -> inception_4a/output_inception_4a/output_0_split_1
I0403 18:12:48.635507 16581 net.cpp:399] inception_4a/output_inception_4a/output_0_split -> inception_4a/output_inception_4a/output_0_split_2
I0403 18:12:48.635529 16581 net.cpp:399] inception_4a/output_inception_4a/output_0_split -> inception_4a/output_inception_4a/output_0_split_3
I0403 18:12:48.635550 16581 net.cpp:399] inception_4a/output_inception_4a/output_0_split -> inception_4a/output_inception_4a/output_0_split_4
I0403 18:12:48.635648 16581 net.cpp:141] Setting up inception_4a/output_inception_4a/output_0_split
I0403 18:12:48.635675 16581 net.cpp:148] Top shape: 24 512 14 14 (2408448)
I0403 18:12:48.635692 16581 net.cpp:148] Top shape: 24 512 14 14 (2408448)
I0403 18:12:48.635710 16581 net.cpp:148] Top shape: 24 512 14 14 (2408448)
I0403 18:12:48.635727 16581 net.cpp:148] Top shape: 24 512 14 14 (2408448)
I0403 18:12:48.635743 16581 net.cpp:148] Top shape: 24 512 14 14 (2408448)
I0403 18:12:48.635757 16581 net.cpp:156] Memory required for data: 944714784
I0403 18:12:48.635773 16581 layer_factory.hpp:77] Creating layer loss1/ave_pool
I0403 18:12:48.635792 16581 net.cpp:91] Creating Layer loss1/ave_pool
I0403 18:12:48.635809 16581 net.cpp:425] loss1/ave_pool <- inception_4a/output_inception_4a/output_0_split_0
I0403 18:12:48.635830 16581 net.cpp:399] loss1/ave_pool -> loss1/ave_pool
I0403 18:12:48.636051 16581 net.cpp:141] Setting up loss1/ave_pool
I0403 18:12:48.636078 16581 net.cpp:148] Top shape: 24 512 4 4 (196608)
I0403 18:12:48.636095 16581 net.cpp:156] Memory required for data: 945501216
I0403 18:12:48.636109 16581 layer_factory.hpp:77] Creating layer loss1/conv
I0403 18:12:48.636133 16581 net.cpp:91] Creating Layer loss1/conv
I0403 18:12:48.636152 16581 net.cpp:425] loss1/conv <- loss1/ave_pool
I0403 18:12:48.636173 16581 net.cpp:399] loss1/conv -> loss1/conv
I0403 18:12:48.637661 16581 net.cpp:141] Setting up loss1/conv
I0403 18:12:48.637693 16581 net.cpp:148] Top shape: 24 128 4 4 (49152)
I0403 18:12:48.637724 16581 net.cpp:156] Memory required for data: 945697824
I0403 18:12:48.637745 16581 layer_factory.hpp:77] Creating layer loss1/relu_conv
I0403 18:12:48.637765 16581 net.cpp:91] Creating Layer loss1/relu_conv
I0403 18:12:48.637783 16581 net.cpp:425] loss1/relu_conv <- loss1/conv
I0403 18:12:48.637800 16581 net.cpp:386] loss1/relu_conv -> loss1/conv (in-place)
I0403 18:12:48.638110 16581 net.cpp:141] Setting up loss1/relu_conv
I0403 18:12:48.638142 16581 net.cpp:148] Top shape: 24 128 4 4 (49152)
I0403 18:12:48.638159 16581 net.cpp:156] Memory required for data: 945894432
I0403 18:12:48.638176 16581 layer_factory.hpp:77] Creating layer loss1/fc
I0403 18:12:48.638201 16581 net.cpp:91] Creating Layer loss1/fc
I0403 18:12:48.638221 16581 net.cpp:425] loss1/fc <- loss1/conv
I0403 18:12:48.638243 16581 net.cpp:399] loss1/fc -> loss1/fc
I0403 18:12:48.656805 16581 net.cpp:141] Setting up loss1/fc
I0403 18:12:48.656841 16581 net.cpp:148] Top shape: 24 1024 (24576)
I0403 18:12:48.656857 16581 net.cpp:156] Memory required for data: 945992736
I0403 18:12:48.656875 16581 layer_factory.hpp:77] Creating layer loss1/relu_fc
I0403 18:12:48.656896 16581 net.cpp:91] Creating Layer loss1/relu_fc
I0403 18:12:48.656914 16581 net.cpp:425] loss1/relu_fc <- loss1/fc
I0403 18:12:48.656932 16581 net.cpp:386] loss1/relu_fc -> loss1/fc (in-place)
I0403 18:12:48.657127 16581 net.cpp:141] Setting up loss1/relu_fc
I0403 18:12:48.657153 16581 net.cpp:148] Top shape: 24 1024 (24576)
I0403 18:12:48.657168 16581 net.cpp:156] Memory required for data: 946091040
I0403 18:12:48.657184 16581 layer_factory.hpp:77] Creating layer loss1/drop_fc
I0403 18:12:48.657212 16581 net.cpp:91] Creating Layer loss1/drop_fc
I0403 18:12:48.657229 16581 net.cpp:425] loss1/drop_fc <- loss1/fc
I0403 18:12:48.657246 16581 net.cpp:386] loss1/drop_fc -> loss1/fc (in-place)
I0403 18:12:48.657300 16581 net.cpp:141] Setting up loss1/drop_fc
I0403 18:12:48.657325 16581 net.cpp:148] Top shape: 24 1024 (24576)
I0403 18:12:48.657340 16581 net.cpp:156] Memory required for data: 946189344
I0403 18:12:48.657356 16581 layer_factory.hpp:77] Creating layer loss1/classifier_plantvillage
I0403 18:12:48.657374 16581 net.cpp:91] Creating Layer loss1/classifier_plantvillage
I0403 18:12:48.657390 16581 net.cpp:425] loss1/classifier_plantvillage <- loss1/fc
I0403 18:12:48.657413 16581 net.cpp:399] loss1/classifier_plantvillage -> loss1/classifier_plantvillage
I0403 18:12:48.658346 16581 net.cpp:141] Setting up loss1/classifier_plantvillage
I0403 18:12:48.658380 16581 net.cpp:148] Top shape: 24 38 (912)
I0403 18:12:48.658397 16581 net.cpp:156] Memory required for data: 946192992
I0403 18:12:48.658416 16581 layer_factory.hpp:77] Creating layer loss1/classifier_plantvillage_loss1/classifier_plantvillage_0_split
I0403 18:12:48.658434 16581 net.cpp:91] Creating Layer loss1/classifier_plantvillage_loss1/classifier_plantvillage_0_split
I0403 18:12:48.658450 16581 net.cpp:425] loss1/classifier_plantvillage_loss1/classifier_plantvillage_0_split <- loss1/classifier_plantvillage
I0403 18:12:48.658469 16581 net.cpp:399] loss1/classifier_plantvillage_loss1/classifier_plantvillage_0_split -> loss1/classifier_plantvillage_loss1/classifier_plantvillage_0_split_0
I0403 18:12:48.658489 16581 net.cpp:399] loss1/classifier_plantvillage_loss1/classifier_plantvillage_0_split -> loss1/classifier_plantvillage_loss1/classifier_plantvillage_0_split_1
I0403 18:12:48.658510 16581 net.cpp:399] loss1/classifier_plantvillage_loss1/classifier_plantvillage_0_split -> loss1/classifier_plantvillage_loss1/classifier_plantvillage_0_split_2
I0403 18:12:48.658579 16581 net.cpp:141] Setting up loss1/classifier_plantvillage_loss1/classifier_plantvillage_0_split
I0403 18:12:48.658603 16581 net.cpp:148] Top shape: 24 38 (912)
I0403 18:12:48.658619 16581 net.cpp:148] Top shape: 24 38 (912)
I0403 18:12:48.658635 16581 net.cpp:148] Top shape: 24 38 (912)
I0403 18:12:48.658650 16581 net.cpp:156] Memory required for data: 946203936
I0403 18:12:48.658665 16581 layer_factory.hpp:77] Creating layer inception_4b/1x1
I0403 18:12:48.658687 16581 net.cpp:91] Creating Layer inception_4b/1x1
I0403 18:12:48.658721 16581 net.cpp:425] inception_4b/1x1 <- inception_4a/output_inception_4a/output_0_split_1
I0403 18:12:48.658745 16581 net.cpp:399] inception_4b/1x1 -> inception_4b/1x1
I0403 18:12:48.660437 16581 net.cpp:141] Setting up inception_4b/1x1
I0403 18:12:48.660470 16581 net.cpp:148] Top shape: 24 160 14 14 (752640)
I0403 18:12:48.660486 16581 net.cpp:156] Memory required for data: 949214496
I0403 18:12:48.660506 16581 layer_factory.hpp:77] Creating layer inception_4b/relu_1x1
I0403 18:12:48.660523 16581 net.cpp:91] Creating Layer inception_4b/relu_1x1
I0403 18:12:48.660539 16581 net.cpp:425] inception_4b/relu_1x1 <- inception_4b/1x1
I0403 18:12:48.660557 16581 net.cpp:386] inception_4b/relu_1x1 -> inception_4b/1x1 (in-place)
I0403 18:12:48.660744 16581 net.cpp:141] Setting up inception_4b/relu_1x1
I0403 18:12:48.660770 16581 net.cpp:148] Top shape: 24 160 14 14 (752640)
I0403 18:12:48.660785 16581 net.cpp:156] Memory required for data: 952225056
I0403 18:12:48.660800 16581 layer_factory.hpp:77] Creating layer inception_4b/3x3_reduce
I0403 18:12:48.660823 16581 net.cpp:91] Creating Layer inception_4b/3x3_reduce
I0403 18:12:48.660840 16581 net.cpp:425] inception_4b/3x3_reduce <- inception_4a/output_inception_4a/output_0_split_2
I0403 18:12:48.660864 16581 net.cpp:399] inception_4b/3x3_reduce -> inception_4b/3x3_reduce
I0403 18:12:48.662256 16581 net.cpp:141] Setting up inception_4b/3x3_reduce
I0403 18:12:48.662287 16581 net.cpp:148] Top shape: 24 112 14 14 (526848)
I0403 18:12:48.662304 16581 net.cpp:156] Memory required for data: 954332448
I0403 18:12:48.662322 16581 layer_factory.hpp:77] Creating layer inception_4b/relu_3x3_reduce
I0403 18:12:48.662341 16581 net.cpp:91] Creating Layer inception_4b/relu_3x3_reduce
I0403 18:12:48.662358 16581 net.cpp:425] inception_4b/relu_3x3_reduce <- inception_4b/3x3_reduce
I0403 18:12:48.662377 16581 net.cpp:386] inception_4b/relu_3x3_reduce -> inception_4b/3x3_reduce (in-place)
I0403 18:12:48.662665 16581 net.cpp:141] Setting up inception_4b/relu_3x3_reduce
I0403 18:12:48.662693 16581 net.cpp:148] Top shape: 24 112 14 14 (526848)
I0403 18:12:48.662709 16581 net.cpp:156] Memory required for data: 956439840
I0403 18:12:48.662724 16581 layer_factory.hpp:77] Creating layer inception_4b/3x3
I0403 18:12:48.662747 16581 net.cpp:91] Creating Layer inception_4b/3x3
I0403 18:12:48.662765 16581 net.cpp:425] inception_4b/3x3 <- inception_4b/3x3_reduce
I0403 18:12:48.662787 16581 net.cpp:399] inception_4b/3x3 -> inception_4b/3x3
I0403 18:12:48.665838 16581 net.cpp:141] Setting up inception_4b/3x3
I0403 18:12:48.665868 16581 net.cpp:148] Top shape: 24 224 14 14 (1053696)
I0403 18:12:48.665884 16581 net.cpp:156] Memory required for data: 960654624
I0403 18:12:48.665902 16581 layer_factory.hpp:77] Creating layer inception_4b/relu_3x3
I0403 18:12:48.665925 16581 net.cpp:91] Creating Layer inception_4b/relu_3x3
I0403 18:12:48.665941 16581 net.cpp:425] inception_4b/relu_3x3 <- inception_4b/3x3
I0403 18:12:48.665966 16581 net.cpp:386] inception_4b/relu_3x3 -> inception_4b/3x3 (in-place)
I0403 18:12:48.666155 16581 net.cpp:141] Setting up inception_4b/relu_3x3
I0403 18:12:48.666180 16581 net.cpp:148] Top shape: 24 224 14 14 (1053696)
I0403 18:12:48.666195 16581 net.cpp:156] Memory required for data: 964869408
I0403 18:12:48.666210 16581 layer_factory.hpp:77] Creating layer inception_4b/5x5_reduce
I0403 18:12:48.666234 16581 net.cpp:91] Creating Layer inception_4b/5x5_reduce
I0403 18:12:48.666252 16581 net.cpp:425] inception_4b/5x5_reduce <- inception_4a/output_inception_4a/output_0_split_3
I0403 18:12:48.666272 16581 net.cpp:399] inception_4b/5x5_reduce -> inception_4b/5x5_reduce
I0403 18:12:48.667388 16581 net.cpp:141] Setting up inception_4b/5x5_reduce
I0403 18:12:48.667418 16581 net.cpp:148] Top shape: 24 24 14 14 (112896)
I0403 18:12:48.667435 16581 net.cpp:156] Memory required for data: 965320992
I0403 18:12:48.667454 16581 layer_factory.hpp:77] Creating layer inception_4b/relu_5x5_reduce
I0403 18:12:48.667472 16581 net.cpp:91] Creating Layer inception_4b/relu_5x5_reduce
I0403 18:12:48.667503 16581 net.cpp:425] inception_4b/relu_5x5_reduce <- inception_4b/5x5_reduce
I0403 18:12:48.667526 16581 net.cpp:386] inception_4b/relu_5x5_reduce -> inception_4b/5x5_reduce (in-place)
I0403 18:12:48.667719 16581 net.cpp:141] Setting up inception_4b/relu_5x5_reduce
I0403 18:12:48.667745 16581 net.cpp:148] Top shape: 24 24 14 14 (112896)
I0403 18:12:48.667760 16581 net.cpp:156] Memory required for data: 965772576
I0403 18:12:48.667775 16581 layer_factory.hpp:77] Creating layer inception_4b/5x5
I0403 18:12:48.667798 16581 net.cpp:91] Creating Layer inception_4b/5x5
I0403 18:12:48.667816 16581 net.cpp:425] inception_4b/5x5 <- inception_4b/5x5_reduce
I0403 18:12:48.667837 16581 net.cpp:399] inception_4b/5x5 -> inception_4b/5x5
I0403 18:12:48.669107 16581 net.cpp:141] Setting up inception_4b/5x5
I0403 18:12:48.669138 16581 net.cpp:148] Top shape: 24 64 14 14 (301056)
I0403 18:12:48.669155 16581 net.cpp:156] Memory required for data: 966976800
I0403 18:12:48.669174 16581 layer_factory.hpp:77] Creating layer inception_4b/relu_5x5
I0403 18:12:48.669193 16581 net.cpp:91] Creating Layer inception_4b/relu_5x5
I0403 18:12:48.669209 16581 net.cpp:425] inception_4b/relu_5x5 <- inception_4b/5x5
I0403 18:12:48.669226 16581 net.cpp:386] inception_4b/relu_5x5 -> inception_4b/5x5 (in-place)
I0403 18:12:48.669517 16581 net.cpp:141] Setting up inception_4b/relu_5x5
I0403 18:12:48.669545 16581 net.cpp:148] Top shape: 24 64 14 14 (301056)
I0403 18:12:48.669561 16581 net.cpp:156] Memory required for data: 968181024
I0403 18:12:48.669577 16581 layer_factory.hpp:77] Creating layer inception_4b/pool
I0403 18:12:48.669595 16581 net.cpp:91] Creating Layer inception_4b/pool
I0403 18:12:48.669612 16581 net.cpp:425] inception_4b/pool <- inception_4a/output_inception_4a/output_0_split_4
I0403 18:12:48.669631 16581 net.cpp:399] inception_4b/pool -> inception_4b/pool
I0403 18:12:48.669697 16581 net.cpp:141] Setting up inception_4b/pool
I0403 18:12:48.669720 16581 net.cpp:148] Top shape: 24 512 14 14 (2408448)
I0403 18:12:48.669735 16581 net.cpp:156] Memory required for data: 977814816
I0403 18:12:48.669751 16581 layer_factory.hpp:77] Creating layer inception_4b/pool_proj
I0403 18:12:48.669773 16581 net.cpp:91] Creating Layer inception_4b/pool_proj
I0403 18:12:48.669791 16581 net.cpp:425] inception_4b/pool_proj <- inception_4b/pool
I0403 18:12:48.669812 16581 net.cpp:399] inception_4b/pool_proj -> inception_4b/pool_proj
I0403 18:12:48.671066 16581 net.cpp:141] Setting up inception_4b/pool_proj
I0403 18:12:48.671097 16581 net.cpp:148] Top shape: 24 64 14 14 (301056)
I0403 18:12:48.671113 16581 net.cpp:156] Memory required for data: 979019040
I0403 18:12:48.671131 16581 layer_factory.hpp:77] Creating layer inception_4b/relu_pool_proj
I0403 18:12:48.671149 16581 net.cpp:91] Creating Layer inception_4b/relu_pool_proj
I0403 18:12:48.671165 16581 net.cpp:425] inception_4b/relu_pool_proj <- inception_4b/pool_proj
I0403 18:12:48.671185 16581 net.cpp:386] inception_4b/relu_pool_proj -> inception_4b/pool_proj (in-place)
I0403 18:12:48.671371 16581 net.cpp:141] Setting up inception_4b/relu_pool_proj
I0403 18:12:48.671396 16581 net.cpp:148] Top shape: 24 64 14 14 (301056)
I0403 18:12:48.671411 16581 net.cpp:156] Memory required for data: 980223264
I0403 18:12:48.671425 16581 layer_factory.hpp:77] Creating layer inception_4b/output
I0403 18:12:48.671442 16581 net.cpp:91] Creating Layer inception_4b/output
I0403 18:12:48.671458 16581 net.cpp:425] inception_4b/output <- inception_4b/1x1
I0403 18:12:48.671474 16581 net.cpp:425] inception_4b/output <- inception_4b/3x3
I0403 18:12:48.671490 16581 net.cpp:425] inception_4b/output <- inception_4b/5x5
I0403 18:12:48.671506 16581 net.cpp:425] inception_4b/output <- inception_4b/pool_proj
I0403 18:12:48.671525 16581 net.cpp:399] inception_4b/output -> inception_4b/output
I0403 18:12:48.671569 16581 net.cpp:141] Setting up inception_4b/output
I0403 18:12:48.671594 16581 net.cpp:148] Top shape: 24 512 14 14 (2408448)
I0403 18:12:48.671609 16581 net.cpp:156] Memory required for data: 989857056
I0403 18:12:48.671638 16581 layer_factory.hpp:77] Creating layer inception_4b/output_inception_4b/output_0_split
I0403 18:12:48.671658 16581 net.cpp:91] Creating Layer inception_4b/output_inception_4b/output_0_split
I0403 18:12:48.671674 16581 net.cpp:425] inception_4b/output_inception_4b/output_0_split <- inception_4b/output
I0403 18:12:48.671694 16581 net.cpp:399] inception_4b/output_inception_4b/output_0_split -> inception_4b/output_inception_4b/output_0_split_0
I0403 18:12:48.671715 16581 net.cpp:399] inception_4b/output_inception_4b/output_0_split -> inception_4b/output_inception_4b/output_0_split_1
I0403 18:12:48.671736 16581 net.cpp:399] inception_4b/output_inception_4b/output_0_split -> inception_4b/output_inception_4b/output_0_split_2
I0403 18:12:48.671756 16581 net.cpp:399] inception_4b/output_inception_4b/output_0_split -> inception_4b/output_inception_4b/output_0_split_3
I0403 18:12:48.671838 16581 net.cpp:141] Setting up inception_4b/output_inception_4b/output_0_split
I0403 18:12:48.671861 16581 net.cpp:148] Top shape: 24 512 14 14 (2408448)
I0403 18:12:48.671876 16581 net.cpp:148] Top shape: 24 512 14 14 (2408448)
I0403 18:12:48.671891 16581 net.cpp:148] Top shape: 24 512 14 14 (2408448)
I0403 18:12:48.671907 16581 net.cpp:148] Top shape: 24 512 14 14 (2408448)
I0403 18:12:48.671929 16581 net.cpp:156] Memory required for data: 1028392224
I0403 18:12:48.671944 16581 layer_factory.hpp:77] Creating layer inception_4c/1x1
I0403 18:12:48.671972 16581 net.cpp:91] Creating Layer inception_4c/1x1
I0403 18:12:48.671990 16581 net.cpp:425] inception_4c/1x1 <- inception_4b/output_inception_4b/output_0_split_0
I0403 18:12:48.672011 16581 net.cpp:399] inception_4c/1x1 -> inception_4c/1x1
I0403 18:12:48.673452 16581 net.cpp:141] Setting up inception_4c/1x1
I0403 18:12:48.673480 16581 net.cpp:148] Top shape: 24 128 14 14 (602112)
I0403 18:12:48.673494 16581 net.cpp:156] Memory required for data: 1030800672
I0403 18:12:48.673513 16581 layer_factory.hpp:77] Creating layer inception_4c/relu_1x1
I0403 18:12:48.673534 16581 net.cpp:91] Creating Layer inception_4c/relu_1x1
I0403 18:12:48.673552 16581 net.cpp:425] inception_4c/relu_1x1 <- inception_4c/1x1
I0403 18:12:48.673568 16581 net.cpp:386] inception_4c/relu_1x1 -> inception_4c/1x1 (in-place)
I0403 18:12:48.673749 16581 net.cpp:141] Setting up inception_4c/relu_1x1
I0403 18:12:48.673774 16581 net.cpp:148] Top shape: 24 128 14 14 (602112)
I0403 18:12:48.673789 16581 net.cpp:156] Memory required for data: 1033209120
I0403 18:12:48.673804 16581 layer_factory.hpp:77] Creating layer inception_4c/3x3_reduce
I0403 18:12:48.673826 16581 net.cpp:91] Creating Layer inception_4c/3x3_reduce
I0403 18:12:48.673843 16581 net.cpp:425] inception_4c/3x3_reduce <- inception_4b/output_inception_4b/output_0_split_1
I0403 18:12:48.673862 16581 net.cpp:399] inception_4c/3x3_reduce -> inception_4c/3x3_reduce
I0403 18:12:48.675807 16581 net.cpp:141] Setting up inception_4c/3x3_reduce
I0403 18:12:48.675835 16581 net.cpp:148] Top shape: 24 128 14 14 (602112)
I0403 18:12:48.675850 16581 net.cpp:156] Memory required for data: 1035617568
I0403 18:12:48.675868 16581 layer_factory.hpp:77] Creating layer inception_4c/relu_3x3_reduce
I0403 18:12:48.675889 16581 net.cpp:91] Creating Layer inception_4c/relu_3x3_reduce
I0403 18:12:48.675906 16581 net.cpp:425] inception_4c/relu_3x3_reduce <- inception_4c/3x3_reduce
I0403 18:12:48.675926 16581 net.cpp:386] inception_4c/relu_3x3_reduce -> inception_4c/3x3_reduce (in-place)
I0403 18:12:48.676213 16581 net.cpp:141] Setting up inception_4c/relu_3x3_reduce
I0403 18:12:48.676239 16581 net.cpp:148] Top shape: 24 128 14 14 (602112)
I0403 18:12:48.676254 16581 net.cpp:156] Memory required for data: 1038026016
I0403 18:12:48.676268 16581 layer_factory.hpp:77] Creating layer inception_4c/3x3
I0403 18:12:48.676293 16581 net.cpp:91] Creating Layer inception_4c/3x3
I0403 18:12:48.676312 16581 net.cpp:425] inception_4c/3x3 <- inception_4c/3x3_reduce
I0403 18:12:48.676331 16581 net.cpp:399] inception_4c/3x3 -> inception_4c/3x3
I0403 18:12:48.679929 16581 net.cpp:141] Setting up inception_4c/3x3
I0403 18:12:48.679976 16581 net.cpp:148] Top shape: 24 256 14 14 (1204224)
I0403 18:12:48.679993 16581 net.cpp:156] Memory required for data: 1042842912
I0403 18:12:48.680024 16581 layer_factory.hpp:77] Creating layer inception_4c/relu_3x3
I0403 18:12:48.680044 16581 net.cpp:91] Creating Layer inception_4c/relu_3x3
I0403 18:12:48.680061 16581 net.cpp:425] inception_4c/relu_3x3 <- inception_4c/3x3
I0403 18:12:48.680079 16581 net.cpp:386] inception_4c/relu_3x3 -> inception_4c/3x3 (in-place)
I0403 18:12:48.680261 16581 net.cpp:141] Setting up inception_4c/relu_3x3
I0403 18:12:48.680289 16581 net.cpp:148] Top shape: 24 256 14 14 (1204224)
I0403 18:12:48.680305 16581 net.cpp:156] Memory required for data: 1047659808
I0403 18:12:48.680320 16581 layer_factory.hpp:77] Creating layer inception_4c/5x5_reduce
I0403 18:12:48.680342 16581 net.cpp:91] Creating Layer inception_4c/5x5_reduce
I0403 18:12:48.680361 16581 net.cpp:425] inception_4c/5x5_reduce <- inception_4b/output_inception_4b/output_0_split_2
I0403 18:12:48.680379 16581 net.cpp:399] inception_4c/5x5_reduce -> inception_4c/5x5_reduce
I0403 18:12:48.681470 16581 net.cpp:141] Setting up inception_4c/5x5_reduce
I0403 18:12:48.681500 16581 net.cpp:148] Top shape: 24 24 14 14 (112896)
I0403 18:12:48.681515 16581 net.cpp:156] Memory required for data: 1048111392
I0403 18:12:48.681535 16581 layer_factory.hpp:77] Creating layer inception_4c/relu_5x5_reduce
I0403 18:12:48.681552 16581 net.cpp:91] Creating Layer inception_4c/relu_5x5_reduce
I0403 18:12:48.681570 16581 net.cpp:425] inception_4c/relu_5x5_reduce <- inception_4c/5x5_reduce
I0403 18:12:48.681588 16581 net.cpp:386] inception_4c/relu_5x5_reduce -> inception_4c/5x5_reduce (in-place)
I0403 18:12:48.681771 16581 net.cpp:141] Setting up inception_4c/relu_5x5_reduce
I0403 18:12:48.681794 16581 net.cpp:148] Top shape: 24 24 14 14 (112896)
I0403 18:12:48.681809 16581 net.cpp:156] Memory required for data: 1048562976
I0403 18:12:48.681824 16581 layer_factory.hpp:77] Creating layer inception_4c/5x5
I0403 18:12:48.681848 16581 net.cpp:91] Creating Layer inception_4c/5x5
I0403 18:12:48.681865 16581 net.cpp:425] inception_4c/5x5 <- inception_4c/5x5_reduce
I0403 18:12:48.681886 16581 net.cpp:399] inception_4c/5x5 -> inception_4c/5x5
I0403 18:12:48.683193 16581 net.cpp:141] Setting up inception_4c/5x5
I0403 18:12:48.683221 16581 net.cpp:148] Top shape: 24 64 14 14 (301056)
I0403 18:12:48.683236 16581 net.cpp:156] Memory required for data: 1049767200
I0403 18:12:48.683255 16581 layer_factory.hpp:77] Creating layer inception_4c/relu_5x5
I0403 18:12:48.683276 16581 net.cpp:91] Creating Layer inception_4c/relu_5x5
I0403 18:12:48.683292 16581 net.cpp:425] inception_4c/relu_5x5 <- inception_4c/5x5
I0403 18:12:48.683310 16581 net.cpp:386] inception_4c/relu_5x5 -> inception_4c/5x5 (in-place)
I0403 18:12:48.683607 16581 net.cpp:141] Setting up inception_4c/relu_5x5
I0403 18:12:48.683634 16581 net.cpp:148] Top shape: 24 64 14 14 (301056)
I0403 18:12:48.683650 16581 net.cpp:156] Memory required for data: 1050971424
I0403 18:12:48.683665 16581 layer_factory.hpp:77] Creating layer inception_4c/pool
I0403 18:12:48.683682 16581 net.cpp:91] Creating Layer inception_4c/pool
I0403 18:12:48.683698 16581 net.cpp:425] inception_4c/pool <- inception_4b/output_inception_4b/output_0_split_3
I0403 18:12:48.683719 16581 net.cpp:399] inception_4c/pool -> inception_4c/pool
I0403 18:12:48.683786 16581 net.cpp:141] Setting up inception_4c/pool
I0403 18:12:48.683812 16581 net.cpp:148] Top shape: 24 512 14 14 (2408448)
I0403 18:12:48.683827 16581 net.cpp:156] Memory required for data: 1060605216
I0403 18:12:48.683843 16581 layer_factory.hpp:77] Creating layer inception_4c/pool_proj
I0403 18:12:48.683866 16581 net.cpp:91] Creating Layer inception_4c/pool_proj
I0403 18:12:48.683883 16581 net.cpp:425] inception_4c/pool_proj <- inception_4c/pool
I0403 18:12:48.683902 16581 net.cpp:399] inception_4c/pool_proj -> inception_4c/pool_proj
I0403 18:12:48.685178 16581 net.cpp:141] Setting up inception_4c/pool_proj
I0403 18:12:48.685209 16581 net.cpp:148] Top shape: 24 64 14 14 (301056)
I0403 18:12:48.685240 16581 net.cpp:156] Memory required for data: 1061809440
I0403 18:12:48.685261 16581 layer_factory.hpp:77] Creating layer inception_4c/relu_pool_proj
I0403 18:12:48.685278 16581 net.cpp:91] Creating Layer inception_4c/relu_pool_proj
I0403 18:12:48.685295 16581 net.cpp:425] inception_4c/relu_pool_proj <- inception_4c/pool_proj
I0403 18:12:48.685313 16581 net.cpp:386] inception_4c/relu_pool_proj -> inception_4c/pool_proj (in-place)
I0403 18:12:48.685504 16581 net.cpp:141] Setting up inception_4c/relu_pool_proj
I0403 18:12:48.685529 16581 net.cpp:148] Top shape: 24 64 14 14 (301056)
I0403 18:12:48.685544 16581 net.cpp:156] Memory required for data: 1063013664
I0403 18:12:48.685560 16581 layer_factory.hpp:77] Creating layer inception_4c/output
I0403 18:12:48.685577 16581 net.cpp:91] Creating Layer inception_4c/output
I0403 18:12:48.685595 16581 net.cpp:425] inception_4c/output <- inception_4c/1x1
I0403 18:12:48.685611 16581 net.cpp:425] inception_4c/output <- inception_4c/3x3
I0403 18:12:48.685627 16581 net.cpp:425] inception_4c/output <- inception_4c/5x5
I0403 18:12:48.685643 16581 net.cpp:425] inception_4c/output <- inception_4c/pool_proj
I0403 18:12:48.685663 16581 net.cpp:399] inception_4c/output -> inception_4c/output
I0403 18:12:48.685711 16581 net.cpp:141] Setting up inception_4c/output
I0403 18:12:48.685736 16581 net.cpp:148] Top shape: 24 512 14 14 (2408448)
I0403 18:12:48.685753 16581 net.cpp:156] Memory required for data: 1072647456
I0403 18:12:48.685767 16581 layer_factory.hpp:77] Creating layer inception_4c/output_inception_4c/output_0_split
I0403 18:12:48.685786 16581 net.cpp:91] Creating Layer inception_4c/output_inception_4c/output_0_split
I0403 18:12:48.685801 16581 net.cpp:425] inception_4c/output_inception_4c/output_0_split <- inception_4c/output
I0403 18:12:48.685818 16581 net.cpp:399] inception_4c/output_inception_4c/output_0_split -> inception_4c/output_inception_4c/output_0_split_0
I0403 18:12:48.685842 16581 net.cpp:399] inception_4c/output_inception_4c/output_0_split -> inception_4c/output_inception_4c/output_0_split_1
I0403 18:12:48.685863 16581 net.cpp:399] inception_4c/output_inception_4c/output_0_split -> inception_4c/output_inception_4c/output_0_split_2
I0403 18:12:48.685883 16581 net.cpp:399] inception_4c/output_inception_4c/output_0_split -> inception_4c/output_inception_4c/output_0_split_3
I0403 18:12:48.685979 16581 net.cpp:141] Setting up inception_4c/output_inception_4c/output_0_split
I0403 18:12:48.686002 16581 net.cpp:148] Top shape: 24 512 14 14 (2408448)
I0403 18:12:48.686019 16581 net.cpp:148] Top shape: 24 512 14 14 (2408448)
I0403 18:12:48.686035 16581 net.cpp:148] Top shape: 24 512 14 14 (2408448)
I0403 18:12:48.686051 16581 net.cpp:148] Top shape: 24 512 14 14 (2408448)
I0403 18:12:48.686065 16581 net.cpp:156] Memory required for data: 1111182624
I0403 18:12:48.686080 16581 layer_factory.hpp:77] Creating layer inception_4d/1x1
I0403 18:12:48.686103 16581 net.cpp:91] Creating Layer inception_4d/1x1
I0403 18:12:48.686121 16581 net.cpp:425] inception_4d/1x1 <- inception_4c/output_inception_4c/output_0_split_0
I0403 18:12:48.686142 16581 net.cpp:399] inception_4d/1x1 -> inception_4d/1x1
I0403 18:12:48.687613 16581 net.cpp:141] Setting up inception_4d/1x1
I0403 18:12:48.687641 16581 net.cpp:148] Top shape: 24 112 14 14 (526848)
I0403 18:12:48.687657 16581 net.cpp:156] Memory required for data: 1113290016
I0403 18:12:48.687675 16581 layer_factory.hpp:77] Creating layer inception_4d/relu_1x1
I0403 18:12:48.687695 16581 net.cpp:91] Creating Layer inception_4d/relu_1x1
I0403 18:12:48.687714 16581 net.cpp:425] inception_4d/relu_1x1 <- inception_4d/1x1
I0403 18:12:48.687732 16581 net.cpp:386] inception_4d/relu_1x1 -> inception_4d/1x1 (in-place)
I0403 18:12:48.687923 16581 net.cpp:141] Setting up inception_4d/relu_1x1
I0403 18:12:48.687960 16581 net.cpp:148] Top shape: 24 112 14 14 (526848)
I0403 18:12:48.687980 16581 net.cpp:156] Memory required for data: 1115397408
I0403 18:12:48.687995 16581 layer_factory.hpp:77] Creating layer inception_4d/3x3_reduce
I0403 18:12:48.688032 16581 net.cpp:91] Creating Layer inception_4d/3x3_reduce
I0403 18:12:48.688051 16581 net.cpp:425] inception_4d/3x3_reduce <- inception_4c/output_inception_4c/output_0_split_1
I0403 18:12:48.688071 16581 net.cpp:399] inception_4d/3x3_reduce -> inception_4d/3x3_reduce
I0403 18:12:48.689651 16581 net.cpp:141] Setting up inception_4d/3x3_reduce
I0403 18:12:48.689678 16581 net.cpp:148] Top shape: 24 144 14 14 (677376)
I0403 18:12:48.689694 16581 net.cpp:156] Memory required for data: 1118106912
I0403 18:12:48.689713 16581 layer_factory.hpp:77] Creating layer inception_4d/relu_3x3_reduce
I0403 18:12:48.689731 16581 net.cpp:91] Creating Layer inception_4d/relu_3x3_reduce
I0403 18:12:48.689749 16581 net.cpp:425] inception_4d/relu_3x3_reduce <- inception_4d/3x3_reduce
I0403 18:12:48.689769 16581 net.cpp:386] inception_4d/relu_3x3_reduce -> inception_4d/3x3_reduce (in-place)
I0403 18:12:48.690084 16581 net.cpp:141] Setting up inception_4d/relu_3x3_reduce
I0403 18:12:48.690112 16581 net.cpp:148] Top shape: 24 144 14 14 (677376)
I0403 18:12:48.690129 16581 net.cpp:156] Memory required for data: 1120816416
I0403 18:12:48.690145 16581 layer_factory.hpp:77] Creating layer inception_4d/3x3
I0403 18:12:48.690170 16581 net.cpp:91] Creating Layer inception_4d/3x3
I0403 18:12:48.690188 16581 net.cpp:425] inception_4d/3x3 <- inception_4d/3x3_reduce
I0403 18:12:48.690210 16581 net.cpp:399] inception_4d/3x3 -> inception_4d/3x3
I0403 18:12:48.694603 16581 net.cpp:141] Setting up inception_4d/3x3
I0403 18:12:48.694631 16581 net.cpp:148] Top shape: 24 288 14 14 (1354752)
I0403 18:12:48.694648 16581 net.cpp:156] Memory required for data: 1126235424
I0403 18:12:48.694666 16581 layer_factory.hpp:77] Creating layer inception_4d/relu_3x3
I0403 18:12:48.694686 16581 net.cpp:91] Creating Layer inception_4d/relu_3x3
I0403 18:12:48.694705 16581 net.cpp:425] inception_4d/relu_3x3 <- inception_4d/3x3
I0403 18:12:48.694721 16581 net.cpp:386] inception_4d/relu_3x3 -> inception_4d/3x3 (in-place)
I0403 18:12:48.694905 16581 net.cpp:141] Setting up inception_4d/relu_3x3
I0403 18:12:48.694936 16581 net.cpp:148] Top shape: 24 288 14 14 (1354752)
I0403 18:12:48.694954 16581 net.cpp:156] Memory required for data: 1131654432
I0403 18:12:48.694970 16581 layer_factory.hpp:77] Creating layer inception_4d/5x5_reduce
I0403 18:12:48.694993 16581 net.cpp:91] Creating Layer inception_4d/5x5_reduce
I0403 18:12:48.695010 16581 net.cpp:425] inception_4d/5x5_reduce <- inception_4c/output_inception_4c/output_0_split_2
I0403 18:12:48.695031 16581 net.cpp:399] inception_4d/5x5_reduce -> inception_4d/5x5_reduce
I0403 18:12:48.696200 16581 net.cpp:141] Setting up inception_4d/5x5_reduce
I0403 18:12:48.696241 16581 net.cpp:148] Top shape: 24 32 14 14 (150528)
I0403 18:12:48.696256 16581 net.cpp:156] Memory required for data: 1132256544
I0403 18:12:48.696275 16581 layer_factory.hpp:77] Creating layer inception_4d/relu_5x5_reduce
I0403 18:12:48.696295 16581 net.cpp:91] Creating Layer inception_4d/relu_5x5_reduce
I0403 18:12:48.696311 16581 net.cpp:425] inception_4d/relu_5x5_reduce <- inception_4d/5x5_reduce
I0403 18:12:48.696328 16581 net.cpp:386] inception_4d/relu_5x5_reduce -> inception_4d/5x5_reduce (in-place)
I0403 18:12:48.696518 16581 net.cpp:141] Setting up inception_4d/relu_5x5_reduce
I0403 18:12:48.696545 16581 net.cpp:148] Top shape: 24 32 14 14 (150528)
I0403 18:12:48.696562 16581 net.cpp:156] Memory required for data: 1132858656
I0403 18:12:48.696575 16581 layer_factory.hpp:77] Creating layer inception_4d/5x5
I0403 18:12:48.696598 16581 net.cpp:91] Creating Layer inception_4d/5x5
I0403 18:12:48.696614 16581 net.cpp:425] inception_4d/5x5 <- inception_4d/5x5_reduce
I0403 18:12:48.696633 16581 net.cpp:399] inception_4d/5x5 -> inception_4d/5x5
I0403 18:12:48.698123 16581 net.cpp:141] Setting up inception_4d/5x5
I0403 18:12:48.698154 16581 net.cpp:148] Top shape: 24 64 14 14 (301056)
I0403 18:12:48.698170 16581 net.cpp:156] Memory required for data: 1134062880
I0403 18:12:48.698189 16581 layer_factory.hpp:77] Creating layer inception_4d/relu_5x5
I0403 18:12:48.698221 16581 net.cpp:91] Creating Layer inception_4d/relu_5x5
I0403 18:12:48.698240 16581 net.cpp:425] inception_4d/relu_5x5 <- inception_4d/5x5
I0403 18:12:48.698259 16581 net.cpp:386] inception_4d/relu_5x5 -> inception_4d/5x5 (in-place)
I0403 18:12:48.698562 16581 net.cpp:141] Setting up inception_4d/relu_5x5
I0403 18:12:48.698591 16581 net.cpp:148] Top shape: 24 64 14 14 (301056)
I0403 18:12:48.698607 16581 net.cpp:156] Memory required for data: 1135267104
I0403 18:12:48.698622 16581 layer_factory.hpp:77] Creating layer inception_4d/pool
I0403 18:12:48.698640 16581 net.cpp:91] Creating Layer inception_4d/pool
I0403 18:12:48.698657 16581 net.cpp:425] inception_4d/pool <- inception_4c/output_inception_4c/output_0_split_3
I0403 18:12:48.698676 16581 net.cpp:399] inception_4d/pool -> inception_4d/pool
I0403 18:12:48.698743 16581 net.cpp:141] Setting up inception_4d/pool
I0403 18:12:48.698770 16581 net.cpp:148] Top shape: 24 512 14 14 (2408448)
I0403 18:12:48.698784 16581 net.cpp:156] Memory required for data: 1144900896
I0403 18:12:48.698799 16581 layer_factory.hpp:77] Creating layer inception_4d/pool_proj
I0403 18:12:48.698818 16581 net.cpp:91] Creating Layer inception_4d/pool_proj
I0403 18:12:48.698837 16581 net.cpp:425] inception_4d/pool_proj <- inception_4d/pool
I0403 18:12:48.698858 16581 net.cpp:399] inception_4d/pool_proj -> inception_4d/pool_proj
I0403 18:12:48.700614 16581 net.cpp:141] Setting up inception_4d/pool_proj
I0403 18:12:48.700642 16581 net.cpp:148] Top shape: 24 64 14 14 (301056)
I0403 18:12:48.700656 16581 net.cpp:156] Memory required for data: 1146105120
I0403 18:12:48.700675 16581 layer_factory.hpp:77] Creating layer inception_4d/relu_pool_proj
I0403 18:12:48.700695 16581 net.cpp:91] Creating Layer inception_4d/relu_pool_proj
I0403 18:12:48.700711 16581 net.cpp:425] inception_4d/relu_pool_proj <- inception_4d/pool_proj
I0403 18:12:48.700728 16581 net.cpp:386] inception_4d/relu_pool_proj -> inception_4d/pool_proj (in-place)
I0403 18:12:48.700907 16581 net.cpp:141] Setting up inception_4d/relu_pool_proj
I0403 18:12:48.700933 16581 net.cpp:148] Top shape: 24 64 14 14 (301056)
I0403 18:12:48.700952 16581 net.cpp:156] Memory required for data: 1147309344
I0403 18:12:48.700968 16581 layer_factory.hpp:77] Creating layer inception_4d/output
I0403 18:12:48.700984 16581 net.cpp:91] Creating Layer inception_4d/output
I0403 18:12:48.701000 16581 net.cpp:425] inception_4d/output <- inception_4d/1x1
I0403 18:12:48.701016 16581 net.cpp:425] inception_4d/output <- inception_4d/3x3
I0403 18:12:48.701031 16581 net.cpp:425] inception_4d/output <- inception_4d/5x5
I0403 18:12:48.701047 16581 net.cpp:425] inception_4d/output <- inception_4d/pool_proj
I0403 18:12:48.701063 16581 net.cpp:399] inception_4d/output -> inception_4d/output
I0403 18:12:48.701112 16581 net.cpp:141] Setting up inception_4d/output
I0403 18:12:48.701134 16581 net.cpp:148] Top shape: 24 528 14 14 (2483712)
I0403 18:12:48.701148 16581 net.cpp:156] Memory required for data: 1157244192
I0403 18:12:48.701161 16581 layer_factory.hpp:77] Creating layer inception_4d/output_inception_4d/output_0_split
I0403 18:12:48.701179 16581 net.cpp:91] Creating Layer inception_4d/output_inception_4d/output_0_split
I0403 18:12:48.701195 16581 net.cpp:425] inception_4d/output_inception_4d/output_0_split <- inception_4d/output
I0403 18:12:48.701213 16581 net.cpp:399] inception_4d/output_inception_4d/output_0_split -> inception_4d/output_inception_4d/output_0_split_0
I0403 18:12:48.701232 16581 net.cpp:399] inception_4d/output_inception_4d/output_0_split -> inception_4d/output_inception_4d/output_0_split_1
I0403 18:12:48.701254 16581 net.cpp:399] inception_4d/output_inception_4d/output_0_split -> inception_4d/output_inception_4d/output_0_split_2
I0403 18:12:48.701275 16581 net.cpp:399] inception_4d/output_inception_4d/output_0_split -> inception_4d/output_inception_4d/output_0_split_3
I0403 18:12:48.701294 16581 net.cpp:399] inception_4d/output_inception_4d/output_0_split -> inception_4d/output_inception_4d/output_0_split_4
I0403 18:12:48.701397 16581 net.cpp:141] Setting up inception_4d/output_inception_4d/output_0_split
I0403 18:12:48.701431 16581 net.cpp:148] Top shape: 24 528 14 14 (2483712)
I0403 18:12:48.701448 16581 net.cpp:148] Top shape: 24 528 14 14 (2483712)
I0403 18:12:48.701463 16581 net.cpp:148] Top shape: 24 528 14 14 (2483712)
I0403 18:12:48.701478 16581 net.cpp:148] Top shape: 24 528 14 14 (2483712)
I0403 18:12:48.701493 16581 net.cpp:148] Top shape: 24 528 14 14 (2483712)
I0403 18:12:48.701508 16581 net.cpp:156] Memory required for data: 1206918432
I0403 18:12:48.701521 16581 layer_factory.hpp:77] Creating layer loss2/ave_pool
I0403 18:12:48.701541 16581 net.cpp:91] Creating Layer loss2/ave_pool
I0403 18:12:48.701557 16581 net.cpp:425] loss2/ave_pool <- inception_4d/output_inception_4d/output_0_split_0
I0403 18:12:48.701575 16581 net.cpp:399] loss2/ave_pool -> loss2/ave_pool
I0403 18:12:48.701877 16581 net.cpp:141] Setting up loss2/ave_pool
I0403 18:12:48.701902 16581 net.cpp:148] Top shape: 24 528 4 4 (202752)
I0403 18:12:48.701917 16581 net.cpp:156] Memory required for data: 1207729440
I0403 18:12:48.701932 16581 layer_factory.hpp:77] Creating layer loss2/conv
I0403 18:12:48.701958 16581 net.cpp:91] Creating Layer loss2/conv
I0403 18:12:48.701977 16581 net.cpp:425] loss2/conv <- loss2/ave_pool
I0403 18:12:48.701995 16581 net.cpp:399] loss2/conv -> loss2/conv
I0403 18:12:48.703830 16581 net.cpp:141] Setting up loss2/conv
I0403 18:12:48.703857 16581 net.cpp:148] Top shape: 24 128 4 4 (49152)
I0403 18:12:48.703872 16581 net.cpp:156] Memory required for data: 1207926048
I0403 18:12:48.703891 16581 layer_factory.hpp:77] Creating layer loss2/relu_conv
I0403 18:12:48.703907 16581 net.cpp:91] Creating Layer loss2/relu_conv
I0403 18:12:48.703927 16581 net.cpp:425] loss2/relu_conv <- loss2/conv
I0403 18:12:48.703945 16581 net.cpp:386] loss2/relu_conv -> loss2/conv (in-place)
I0403 18:12:48.704228 16581 net.cpp:141] Setting up loss2/relu_conv
I0403 18:12:48.704254 16581 net.cpp:148] Top shape: 24 128 4 4 (49152)
I0403 18:12:48.704268 16581 net.cpp:156] Memory required for data: 1208122656
I0403 18:12:48.704283 16581 layer_factory.hpp:77] Creating layer loss2/fc
I0403 18:12:48.704301 16581 net.cpp:91] Creating Layer loss2/fc
I0403 18:12:48.704316 16581 net.cpp:425] loss2/fc <- loss2/conv
I0403 18:12:48.704337 16581 net.cpp:399] loss2/fc -> loss2/fc
I0403 18:12:48.721475 16581 net.cpp:141] Setting up loss2/fc
I0403 18:12:48.721516 16581 net.cpp:148] Top shape: 24 1024 (24576)
I0403 18:12:48.721532 16581 net.cpp:156] Memory required for data: 1208220960
I0403 18:12:48.721549 16581 layer_factory.hpp:77] Creating layer loss2/relu_fc
I0403 18:12:48.721567 16581 net.cpp:91] Creating Layer loss2/relu_fc
I0403 18:12:48.721583 16581 net.cpp:425] loss2/relu_fc <- loss2/fc
I0403 18:12:48.721599 16581 net.cpp:386] loss2/relu_fc -> loss2/fc (in-place)
I0403 18:12:48.721889 16581 net.cpp:141] Setting up loss2/relu_fc
I0403 18:12:48.721915 16581 net.cpp:148] Top shape: 24 1024 (24576)
I0403 18:12:48.721931 16581 net.cpp:156] Memory required for data: 1208319264
I0403 18:12:48.721949 16581 layer_factory.hpp:77] Creating layer loss2/drop_fc
I0403 18:12:48.721968 16581 net.cpp:91] Creating Layer loss2/drop_fc
I0403 18:12:48.721984 16581 net.cpp:425] loss2/drop_fc <- loss2/fc
I0403 18:12:48.722002 16581 net.cpp:386] loss2/drop_fc -> loss2/fc (in-place)
I0403 18:12:48.722053 16581 net.cpp:141] Setting up loss2/drop_fc
I0403 18:12:48.722074 16581 net.cpp:148] Top shape: 24 1024 (24576)
I0403 18:12:48.722089 16581 net.cpp:156] Memory required for data: 1208417568
I0403 18:12:48.722101 16581 layer_factory.hpp:77] Creating layer loss2/classifier_plantvillage
I0403 18:12:48.722121 16581 net.cpp:91] Creating Layer loss2/classifier_plantvillage
I0403 18:12:48.722137 16581 net.cpp:425] loss2/classifier_plantvillage <- loss2/fc
I0403 18:12:48.722157 16581 net.cpp:399] loss2/classifier_plantvillage -> loss2/classifier_plantvillage
I0403 18:12:48.722563 16581 net.cpp:141] Setting up loss2/classifier_plantvillage
I0403 18:12:48.722587 16581 net.cpp:148] Top shape: 24 38 (912)
I0403 18:12:48.722616 16581 net.cpp:156] Memory required for data: 1208421216
I0403 18:12:48.722635 16581 layer_factory.hpp:77] Creating layer loss2/classifier_plantvillage_loss2/classifier_plantvillage_0_split
I0403 18:12:48.722652 16581 net.cpp:91] Creating Layer loss2/classifier_plantvillage_loss2/classifier_plantvillage_0_split
I0403 18:12:48.722668 16581 net.cpp:425] loss2/classifier_plantvillage_loss2/classifier_plantvillage_0_split <- loss2/classifier_plantvillage
I0403 18:12:48.722688 16581 net.cpp:399] loss2/classifier_plantvillage_loss2/classifier_plantvillage_0_split -> loss2/classifier_plantvillage_loss2/classifier_plantvillage_0_split_0
I0403 18:12:48.722708 16581 net.cpp:399] loss2/classifier_plantvillage_loss2/classifier_plantvillage_0_split -> loss2/classifier_plantvillage_loss2/classifier_plantvillage_0_split_1
I0403 18:12:48.722728 16581 net.cpp:399] loss2/classifier_plantvillage_loss2/classifier_plantvillage_0_split -> loss2/classifier_plantvillage_loss2/classifier_plantvillage_0_split_2
I0403 18:12:48.722803 16581 net.cpp:141] Setting up loss2/classifier_plantvillage_loss2/classifier_plantvillage_0_split
I0403 18:12:48.722827 16581 net.cpp:148] Top shape: 24 38 (912)
I0403 18:12:48.722843 16581 net.cpp:148] Top shape: 24 38 (912)
I0403 18:12:48.722859 16581 net.cpp:148] Top shape: 24 38 (912)
I0403 18:12:48.722872 16581 net.cpp:156] Memory required for data: 1208432160
I0403 18:12:48.722887 16581 layer_factory.hpp:77] Creating layer inception_4e/1x1
I0403 18:12:48.722908 16581 net.cpp:91] Creating Layer inception_4e/1x1
I0403 18:12:48.722926 16581 net.cpp:425] inception_4e/1x1 <- inception_4d/output_inception_4d/output_0_split_1
I0403 18:12:48.722945 16581 net.cpp:399] inception_4e/1x1 -> inception_4e/1x1
I0403 18:12:48.724720 16581 net.cpp:141] Setting up inception_4e/1x1
I0403 18:12:48.724747 16581 net.cpp:148] Top shape: 24 256 14 14 (1204224)
I0403 18:12:48.724762 16581 net.cpp:156] Memory required for data: 1213249056
I0403 18:12:48.724779 16581 layer_factory.hpp:77] Creating layer inception_4e/relu_1x1
I0403 18:12:48.724797 16581 net.cpp:91] Creating Layer inception_4e/relu_1x1
I0403 18:12:48.724843 16581 net.cpp:425] inception_4e/relu_1x1 <- inception_4e/1x1
I0403 18:12:48.724860 16581 net.cpp:386] inception_4e/relu_1x1 -> inception_4e/1x1 (in-place)
I0403 18:12:48.725189 16581 net.cpp:141] Setting up inception_4e/relu_1x1
I0403 18:12:48.725225 16581 net.cpp:148] Top shape: 24 256 14 14 (1204224)
I0403 18:12:48.725240 16581 net.cpp:156] Memory required for data: 1218065952
I0403 18:12:48.725255 16581 layer_factory.hpp:77] Creating layer inception_4e/3x3_reduce
I0403 18:12:48.725277 16581 net.cpp:91] Creating Layer inception_4e/3x3_reduce
I0403 18:12:48.725296 16581 net.cpp:425] inception_4e/3x3_reduce <- inception_4d/output_inception_4d/output_0_split_2
I0403 18:12:48.725317 16581 net.cpp:399] inception_4e/3x3_reduce -> inception_4e/3x3_reduce
I0403 18:12:48.727423 16581 net.cpp:141] Setting up inception_4e/3x3_reduce
I0403 18:12:48.727452 16581 net.cpp:148] Top shape: 24 160 14 14 (752640)
I0403 18:12:48.727468 16581 net.cpp:156] Memory required for data: 1221076512
I0403 18:12:48.727485 16581 layer_factory.hpp:77] Creating layer inception_4e/relu_3x3_reduce
I0403 18:12:48.727504 16581 net.cpp:91] Creating Layer inception_4e/relu_3x3_reduce
I0403 18:12:48.727519 16581 net.cpp:425] inception_4e/relu_3x3_reduce <- inception_4e/3x3_reduce
I0403 18:12:48.727538 16581 net.cpp:386] inception_4e/relu_3x3_reduce -> inception_4e/3x3_reduce (in-place)
I0403 18:12:48.727720 16581 net.cpp:141] Setting up inception_4e/relu_3x3_reduce
I0403 18:12:48.727744 16581 net.cpp:148] Top shape: 24 160 14 14 (752640)
I0403 18:12:48.727758 16581 net.cpp:156] Memory required for data: 1224087072
I0403 18:12:48.727773 16581 layer_factory.hpp:77] Creating layer inception_4e/3x3
I0403 18:12:48.727794 16581 net.cpp:91] Creating Layer inception_4e/3x3
I0403 18:12:48.727812 16581 net.cpp:425] inception_4e/3x3 <- inception_4e/3x3_reduce
I0403 18:12:48.727831 16581 net.cpp:399] inception_4e/3x3 -> inception_4e/3x3
I0403 18:12:48.732703 16581 net.cpp:141] Setting up inception_4e/3x3
I0403 18:12:48.732743 16581 net.cpp:148] Top shape: 24 320 14 14 (1505280)
I0403 18:12:48.732758 16581 net.cpp:156] Memory required for data: 1230108192
I0403 18:12:48.732776 16581 layer_factory.hpp:77] Creating layer inception_4e/relu_3x3
I0403 18:12:48.732796 16581 net.cpp:91] Creating Layer inception_4e/relu_3x3
I0403 18:12:48.732813 16581 net.cpp:425] inception_4e/relu_3x3 <- inception_4e/3x3
I0403 18:12:48.732831 16581 net.cpp:386] inception_4e/relu_3x3 -> inception_4e/3x3 (in-place)
I0403 18:12:48.733129 16581 net.cpp:141] Setting up inception_4e/relu_3x3
I0403 18:12:48.733153 16581 net.cpp:148] Top shape: 24 320 14 14 (1505280)
I0403 18:12:48.733168 16581 net.cpp:156] Memory required for data: 1236129312
I0403 18:12:48.733183 16581 layer_factory.hpp:77] Creating layer inception_4e/5x5_reduce
I0403 18:12:48.733216 16581 net.cpp:91] Creating Layer inception_4e/5x5_reduce
I0403 18:12:48.733232 16581 net.cpp:425] inception_4e/5x5_reduce <- inception_4d/output_inception_4d/output_0_split_3
I0403 18:12:48.733253 16581 net.cpp:399] inception_4e/5x5_reduce -> inception_4e/5x5_reduce
I0403 18:12:48.734300 16581 net.cpp:141] Setting up inception_4e/5x5_reduce
I0403 18:12:48.734329 16581 net.cpp:148] Top shape: 24 32 14 14 (150528)
I0403 18:12:48.734345 16581 net.cpp:156] Memory required for data: 1236731424
I0403 18:12:48.734364 16581 layer_factory.hpp:77] Creating layer inception_4e/relu_5x5_reduce
I0403 18:12:48.734380 16581 net.cpp:91] Creating Layer inception_4e/relu_5x5_reduce
I0403 18:12:48.734396 16581 net.cpp:425] inception_4e/relu_5x5_reduce <- inception_4e/5x5_reduce
I0403 18:12:48.734416 16581 net.cpp:386] inception_4e/relu_5x5_reduce -> inception_4e/5x5_reduce (in-place)
I0403 18:12:48.734702 16581 net.cpp:141] Setting up inception_4e/relu_5x5_reduce
I0403 18:12:48.734730 16581 net.cpp:148] Top shape: 24 32 14 14 (150528)
I0403 18:12:48.734745 16581 net.cpp:156] Memory required for data: 1237333536
I0403 18:12:48.734760 16581 layer_factory.hpp:77] Creating layer inception_4e/5x5
I0403 18:12:48.734797 16581 net.cpp:91] Creating Layer inception_4e/5x5
I0403 18:12:48.734815 16581 net.cpp:425] inception_4e/5x5 <- inception_4e/5x5_reduce
I0403 18:12:48.734834 16581 net.cpp:399] inception_4e/5x5 -> inception_4e/5x5
I0403 18:12:48.736620 16581 net.cpp:141] Setting up inception_4e/5x5
I0403 18:12:48.736647 16581 net.cpp:148] Top shape: 24 128 14 14 (602112)
I0403 18:12:48.736662 16581 net.cpp:156] Memory required for data: 1239741984
I0403 18:12:48.736681 16581 layer_factory.hpp:77] Creating layer inception_4e/relu_5x5
I0403 18:12:48.736701 16581 net.cpp:91] Creating Layer inception_4e/relu_5x5
I0403 18:12:48.736716 16581 net.cpp:425] inception_4e/relu_5x5 <- inception_4e/5x5
I0403 18:12:48.736733 16581 net.cpp:386] inception_4e/relu_5x5 -> inception_4e/5x5 (in-place)
I0403 18:12:48.736925 16581 net.cpp:141] Setting up inception_4e/relu_5x5
I0403 18:12:48.736953 16581 net.cpp:148] Top shape: 24 128 14 14 (602112)
I0403 18:12:48.736968 16581 net.cpp:156] Memory required for data: 1242150432
I0403 18:12:48.736982 16581 layer_factory.hpp:77] Creating layer inception_4e/pool
I0403 18:12:48.736999 16581 net.cpp:91] Creating Layer inception_4e/pool
I0403 18:12:48.737016 16581 net.cpp:425] inception_4e/pool <- inception_4d/output_inception_4d/output_0_split_4
I0403 18:12:48.737036 16581 net.cpp:399] inception_4e/pool -> inception_4e/pool
I0403 18:12:48.737105 16581 net.cpp:141] Setting up inception_4e/pool
I0403 18:12:48.737128 16581 net.cpp:148] Top shape: 24 528 14 14 (2483712)
I0403 18:12:48.737143 16581 net.cpp:156] Memory required for data: 1252085280
I0403 18:12:48.737156 16581 layer_factory.hpp:77] Creating layer inception_4e/pool_proj
I0403 18:12:48.737181 16581 net.cpp:91] Creating Layer inception_4e/pool_proj
I0403 18:12:48.737198 16581 net.cpp:425] inception_4e/pool_proj <- inception_4e/pool
I0403 18:12:48.737216 16581 net.cpp:399] inception_4e/pool_proj -> inception_4e/pool_proj
I0403 18:12:48.738723 16581 net.cpp:141] Setting up inception_4e/pool_proj
I0403 18:12:48.738764 16581 net.cpp:148] Top shape: 24 128 14 14 (602112)
I0403 18:12:48.738780 16581 net.cpp:156] Memory required for data: 1254493728
I0403 18:12:48.738797 16581 layer_factory.hpp:77] Creating layer inception_4e/relu_pool_proj
I0403 18:12:48.738818 16581 net.cpp:91] Creating Layer inception_4e/relu_pool_proj
I0403 18:12:48.738837 16581 net.cpp:425] inception_4e/relu_pool_proj <- inception_4e/pool_proj
I0403 18:12:48.738853 16581 net.cpp:386] inception_4e/relu_pool_proj -> inception_4e/pool_proj (in-place)
I0403 18:12:48.739152 16581 net.cpp:141] Setting up inception_4e/relu_pool_proj
I0403 18:12:48.739178 16581 net.cpp:148] Top shape: 24 128 14 14 (602112)
I0403 18:12:48.739192 16581 net.cpp:156] Memory required for data: 1256902176
I0403 18:12:48.739207 16581 layer_factory.hpp:77] Creating layer inception_4e/output
I0403 18:12:48.739228 16581 net.cpp:91] Creating Layer inception_4e/output
I0403 18:12:48.739244 16581 net.cpp:425] inception_4e/output <- inception_4e/1x1
I0403 18:12:48.739261 16581 net.cpp:425] inception_4e/output <- inception_4e/3x3
I0403 18:12:48.739276 16581 net.cpp:425] inception_4e/output <- inception_4e/5x5
I0403 18:12:48.739292 16581 net.cpp:425] inception_4e/output <- inception_4e/pool_proj
I0403 18:12:48.739310 16581 net.cpp:399] inception_4e/output -> inception_4e/output
I0403 18:12:48.739359 16581 net.cpp:141] Setting up inception_4e/output
I0403 18:12:48.739382 16581 net.cpp:148] Top shape: 24 832 14 14 (3913728)
I0403 18:12:48.739398 16581 net.cpp:156] Memory required for data: 1272557088
I0403 18:12:48.739411 16581 layer_factory.hpp:77] Creating layer pool4/3x3_s2
I0403 18:12:48.739429 16581 net.cpp:91] Creating Layer pool4/3x3_s2
I0403 18:12:48.739444 16581 net.cpp:425] pool4/3x3_s2 <- inception_4e/output
I0403 18:12:48.739466 16581 net.cpp:399] pool4/3x3_s2 -> pool4/3x3_s2
I0403 18:12:48.739532 16581 net.cpp:141] Setting up pool4/3x3_s2
I0403 18:12:48.739557 16581 net.cpp:148] Top shape: 24 832 7 7 (978432)
I0403 18:12:48.739572 16581 net.cpp:156] Memory required for data: 1276470816
I0403 18:12:48.739585 16581 layer_factory.hpp:77] Creating layer pool4/3x3_s2_pool4/3x3_s2_0_split
I0403 18:12:48.739605 16581 net.cpp:91] Creating Layer pool4/3x3_s2_pool4/3x3_s2_0_split
I0403 18:12:48.739622 16581 net.cpp:425] pool4/3x3_s2_pool4/3x3_s2_0_split <- pool4/3x3_s2
I0403 18:12:48.739642 16581 net.cpp:399] pool4/3x3_s2_pool4/3x3_s2_0_split -> pool4/3x3_s2_pool4/3x3_s2_0_split_0
I0403 18:12:48.739663 16581 net.cpp:399] pool4/3x3_s2_pool4/3x3_s2_0_split -> pool4/3x3_s2_pool4/3x3_s2_0_split_1
I0403 18:12:48.739683 16581 net.cpp:399] pool4/3x3_s2_pool4/3x3_s2_0_split -> pool4/3x3_s2_pool4/3x3_s2_0_split_2
I0403 18:12:48.739703 16581 net.cpp:399] pool4/3x3_s2_pool4/3x3_s2_0_split -> pool4/3x3_s2_pool4/3x3_s2_0_split_3
I0403 18:12:48.739794 16581 net.cpp:141] Setting up pool4/3x3_s2_pool4/3x3_s2_0_split
I0403 18:12:48.739819 16581 net.cpp:148] Top shape: 24 832 7 7 (978432)
I0403 18:12:48.739835 16581 net.cpp:148] Top shape: 24 832 7 7 (978432)
I0403 18:12:48.739850 16581 net.cpp:148] Top shape: 24 832 7 7 (978432)
I0403 18:12:48.739866 16581 net.cpp:148] Top shape: 24 832 7 7 (978432)
I0403 18:12:48.739879 16581 net.cpp:156] Memory required for data: 1292125728
I0403 18:12:48.739893 16581 layer_factory.hpp:77] Creating layer inception_5a/1x1
I0403 18:12:48.739917 16581 net.cpp:91] Creating Layer inception_5a/1x1
I0403 18:12:48.739934 16581 net.cpp:425] inception_5a/1x1 <- pool4/3x3_s2_pool4/3x3_s2_0_split_0
I0403 18:12:48.739956 16581 net.cpp:399] inception_5a/1x1 -> inception_5a/1x1
I0403 18:12:48.742818 16581 net.cpp:141] Setting up inception_5a/1x1
I0403 18:12:48.742849 16581 net.cpp:148] Top shape: 24 256 7 7 (301056)
I0403 18:12:48.742866 16581 net.cpp:156] Memory required for data: 1293329952
I0403 18:12:48.742884 16581 layer_factory.hpp:77] Creating layer inception_5a/relu_1x1
I0403 18:12:48.742902 16581 net.cpp:91] Creating Layer inception_5a/relu_1x1
I0403 18:12:48.742920 16581 net.cpp:425] inception_5a/relu_1x1 <- inception_5a/1x1
I0403 18:12:48.742938 16581 net.cpp:386] inception_5a/relu_1x1 -> inception_5a/1x1 (in-place)
I0403 18:12:48.743255 16581 net.cpp:141] Setting up inception_5a/relu_1x1
I0403 18:12:48.743283 16581 net.cpp:148] Top shape: 24 256 7 7 (301056)
I0403 18:12:48.743299 16581 net.cpp:156] Memory required for data: 1294534176
I0403 18:12:48.743315 16581 layer_factory.hpp:77] Creating layer inception_5a/3x3_reduce
I0403 18:12:48.743337 16581 net.cpp:91] Creating Layer inception_5a/3x3_reduce
I0403 18:12:48.743355 16581 net.cpp:425] inception_5a/3x3_reduce <- pool4/3x3_s2_pool4/3x3_s2_0_split_1
I0403 18:12:48.743374 16581 net.cpp:399] inception_5a/3x3_reduce -> inception_5a/3x3_reduce
I0403 18:12:48.745841 16581 net.cpp:141] Setting up inception_5a/3x3_reduce
I0403 18:12:48.745872 16581 net.cpp:148] Top shape: 24 160 7 7 (188160)
I0403 18:12:48.745887 16581 net.cpp:156] Memory required for data: 1295286816
I0403 18:12:48.745905 16581 layer_factory.hpp:77] Creating layer inception_5a/relu_3x3_reduce
I0403 18:12:48.745928 16581 net.cpp:91] Creating Layer inception_5a/relu_3x3_reduce
I0403 18:12:48.745944 16581 net.cpp:425] inception_5a/relu_3x3_reduce <- inception_5a/3x3_reduce
I0403 18:12:48.745967 16581 net.cpp:386] inception_5a/relu_3x3_reduce -> inception_5a/3x3_reduce (in-place)
I0403 18:12:48.746158 16581 net.cpp:141] Setting up inception_5a/relu_3x3_reduce
I0403 18:12:48.746186 16581 net.cpp:148] Top shape: 24 160 7 7 (188160)
I0403 18:12:48.746201 16581 net.cpp:156] Memory required for data: 1296039456
I0403 18:12:48.746217 16581 layer_factory.hpp:77] Creating layer inception_5a/3x3
I0403 18:12:48.746238 16581 net.cpp:91] Creating Layer inception_5a/3x3
I0403 18:12:48.746256 16581 net.cpp:425] inception_5a/3x3 <- inception_5a/3x3_reduce
I0403 18:12:48.746275 16581 net.cpp:399] inception_5a/3x3 -> inception_5a/3x3
I0403 18:12:48.751381 16581 net.cpp:141] Setting up inception_5a/3x3
I0403 18:12:48.751413 16581 net.cpp:148] Top shape: 24 320 7 7 (376320)
I0403 18:12:48.751430 16581 net.cpp:156] Memory required for data: 1297544736
I0403 18:12:48.751449 16581 layer_factory.hpp:77] Creating layer inception_5a/relu_3x3
I0403 18:12:48.751466 16581 net.cpp:91] Creating Layer inception_5a/relu_3x3
I0403 18:12:48.751483 16581 net.cpp:425] inception_5a/relu_3x3 <- inception_5a/3x3
I0403 18:12:48.751502 16581 net.cpp:386] inception_5a/relu_3x3 -> inception_5a/3x3 (in-place)
I0403 18:12:48.751799 16581 net.cpp:141] Setting up inception_5a/relu_3x3
I0403 18:12:48.751827 16581 net.cpp:148] Top shape: 24 320 7 7 (376320)
I0403 18:12:48.751843 16581 net.cpp:156] Memory required for data: 1299050016
I0403 18:12:48.751858 16581 layer_factory.hpp:77] Creating layer inception_5a/5x5_reduce
I0403 18:12:48.751881 16581 net.cpp:91] Creating Layer inception_5a/5x5_reduce
I0403 18:12:48.751899 16581 net.cpp:425] inception_5a/5x5_reduce <- pool4/3x3_s2_pool4/3x3_s2_0_split_2
I0403 18:12:48.751919 16581 net.cpp:399] inception_5a/5x5_reduce -> inception_5a/5x5_reduce
I0403 18:12:48.753100 16581 net.cpp:141] Setting up inception_5a/5x5_reduce
I0403 18:12:48.753131 16581 net.cpp:148] Top shape: 24 32 7 7 (37632)
I0403 18:12:48.753149 16581 net.cpp:156] Memory required for data: 1299200544
I0403 18:12:48.753166 16581 layer_factory.hpp:77] Creating layer inception_5a/relu_5x5_reduce
I0403 18:12:48.753185 16581 net.cpp:91] Creating Layer inception_5a/relu_5x5_reduce
I0403 18:12:48.753201 16581 net.cpp:425] inception_5a/relu_5x5_reduce <- inception_5a/5x5_reduce
I0403 18:12:48.753221 16581 net.cpp:386] inception_5a/relu_5x5_reduce -> inception_5a/5x5_reduce (in-place)
I0403 18:12:48.753522 16581 net.cpp:141] Setting up inception_5a/relu_5x5_reduce
I0403 18:12:48.753548 16581 net.cpp:148] Top shape: 24 32 7 7 (37632)
I0403 18:12:48.753563 16581 net.cpp:156] Memory required for data: 1299351072
I0403 18:12:48.753578 16581 layer_factory.hpp:77] Creating layer inception_5a/5x5
I0403 18:12:48.753600 16581 net.cpp:91] Creating Layer inception_5a/5x5
I0403 18:12:48.753618 16581 net.cpp:425] inception_5a/5x5 <- inception_5a/5x5_reduce
I0403 18:12:48.753639 16581 net.cpp:399] inception_5a/5x5 -> inception_5a/5x5
I0403 18:12:48.755383 16581 net.cpp:141] Setting up inception_5a/5x5
I0403 18:12:48.755424 16581 net.cpp:148] Top shape: 24 128 7 7 (150528)
I0403 18:12:48.755440 16581 net.cpp:156] Memory required for data: 1299953184
I0403 18:12:48.755458 16581 layer_factory.hpp:77] Creating layer inception_5a/relu_5x5
I0403 18:12:48.755476 16581 net.cpp:91] Creating Layer inception_5a/relu_5x5
I0403 18:12:48.755493 16581 net.cpp:425] inception_5a/relu_5x5 <- inception_5a/5x5
I0403 18:12:48.755512 16581 net.cpp:386] inception_5a/relu_5x5 -> inception_5a/5x5 (in-place)
I0403 18:12:48.755698 16581 net.cpp:141] Setting up inception_5a/relu_5x5
I0403 18:12:48.755722 16581 net.cpp:148] Top shape: 24 128 7 7 (150528)
I0403 18:12:48.755738 16581 net.cpp:156] Memory required for data: 1300555296
I0403 18:12:48.755753 16581 layer_factory.hpp:77] Creating layer inception_5a/pool
I0403 18:12:48.755769 16581 net.cpp:91] Creating Layer inception_5a/pool
I0403 18:12:48.755785 16581 net.cpp:425] inception_5a/pool <- pool4/3x3_s2_pool4/3x3_s2_0_split_3
I0403 18:12:48.755807 16581 net.cpp:399] inception_5a/pool -> inception_5a/pool
I0403 18:12:48.755877 16581 net.cpp:141] Setting up inception_5a/pool
I0403 18:12:48.755911 16581 net.cpp:148] Top shape: 24 832 7 7 (978432)
I0403 18:12:48.755928 16581 net.cpp:156] Memory required for data: 1304469024
I0403 18:12:48.755941 16581 layer_factory.hpp:77] Creating layer inception_5a/pool_proj
I0403 18:12:48.755970 16581 net.cpp:91] Creating Layer inception_5a/pool_proj
I0403 18:12:48.755988 16581 net.cpp:425] inception_5a/pool_proj <- inception_5a/pool
I0403 18:12:48.756006 16581 net.cpp:399] inception_5a/pool_proj -> inception_5a/pool_proj
I0403 18:12:48.758255 16581 net.cpp:141] Setting up inception_5a/pool_proj
I0403 18:12:48.758286 16581 net.cpp:148] Top shape: 24 128 7 7 (150528)
I0403 18:12:48.758306 16581 net.cpp:156] Memory required for data: 1305071136
I0403 18:12:48.758323 16581 layer_factory.hpp:77] Creating layer inception_5a/relu_pool_proj
I0403 18:12:48.758340 16581 net.cpp:91] Creating Layer inception_5a/relu_pool_proj
I0403 18:12:48.758357 16581 net.cpp:425] inception_5a/relu_pool_proj <- inception_5a/pool_proj
I0403 18:12:48.758373 16581 net.cpp:386] inception_5a/relu_pool_proj -> inception_5a/pool_proj (in-place)
I0403 18:12:48.758662 16581 net.cpp:141] Setting up inception_5a/relu_pool_proj
I0403 18:12:48.758687 16581 net.cpp:148] Top shape: 24 128 7 7 (150528)
I0403 18:12:48.758705 16581 net.cpp:156] Memory required for data: 1305673248
I0403 18:12:48.758720 16581 layer_factory.hpp:77] Creating layer inception_5a/output
I0403 18:12:48.758738 16581 net.cpp:91] Creating Layer inception_5a/output
I0403 18:12:48.758752 16581 net.cpp:425] inception_5a/output <- inception_5a/1x1
I0403 18:12:48.758769 16581 net.cpp:425] inception_5a/output <- inception_5a/3x3
I0403 18:12:48.758785 16581 net.cpp:425] inception_5a/output <- inception_5a/5x5
I0403 18:12:48.758800 16581 net.cpp:425] inception_5a/output <- inception_5a/pool_proj
I0403 18:12:48.758817 16581 net.cpp:399] inception_5a/output -> inception_5a/output
I0403 18:12:48.758867 16581 net.cpp:141] Setting up inception_5a/output
I0403 18:12:48.758889 16581 net.cpp:148] Top shape: 24 832 7 7 (978432)
I0403 18:12:48.758903 16581 net.cpp:156] Memory required for data: 1309586976
I0403 18:12:48.758918 16581 layer_factory.hpp:77] Creating layer inception_5a/output_inception_5a/output_0_split
I0403 18:12:48.758934 16581 net.cpp:91] Creating Layer inception_5a/output_inception_5a/output_0_split
I0403 18:12:48.758954 16581 net.cpp:425] inception_5a/output_inception_5a/output_0_split <- inception_5a/output
I0403 18:12:48.758973 16581 net.cpp:399] inception_5a/output_inception_5a/output_0_split -> inception_5a/output_inception_5a/output_0_split_0
I0403 18:12:48.758994 16581 net.cpp:399] inception_5a/output_inception_5a/output_0_split -> inception_5a/output_inception_5a/output_0_split_1
I0403 18:12:48.759014 16581 net.cpp:399] inception_5a/output_inception_5a/output_0_split -> inception_5a/output_inception_5a/output_0_split_2
I0403 18:12:48.759034 16581 net.cpp:399] inception_5a/output_inception_5a/output_0_split -> inception_5a/output_inception_5a/output_0_split_3
I0403 18:12:48.759145 16581 net.cpp:141] Setting up inception_5a/output_inception_5a/output_0_split
I0403 18:12:48.759167 16581 net.cpp:148] Top shape: 24 832 7 7 (978432)
I0403 18:12:48.759183 16581 net.cpp:148] Top shape: 24 832 7 7 (978432)
I0403 18:12:48.759198 16581 net.cpp:148] Top shape: 24 832 7 7 (978432)
I0403 18:12:48.759213 16581 net.cpp:148] Top shape: 24 832 7 7 (978432)
I0403 18:12:48.759227 16581 net.cpp:156] Memory required for data: 1325241888
I0403 18:12:48.759241 16581 layer_factory.hpp:77] Creating layer inception_5b/1x1
I0403 18:12:48.759263 16581 net.cpp:91] Creating Layer inception_5b/1x1
I0403 18:12:48.759280 16581 net.cpp:425] inception_5b/1x1 <- inception_5a/output_inception_5a/output_0_split_0
I0403 18:12:48.759302 16581 net.cpp:399] inception_5b/1x1 -> inception_5b/1x1
I0403 18:12:48.762985 16581 net.cpp:141] Setting up inception_5b/1x1
I0403 18:12:48.763015 16581 net.cpp:148] Top shape: 24 384 7 7 (451584)
I0403 18:12:48.763031 16581 net.cpp:156] Memory required for data: 1327048224
I0403 18:12:48.763048 16581 layer_factory.hpp:77] Creating layer inception_5b/relu_1x1
I0403 18:12:48.763067 16581 net.cpp:91] Creating Layer inception_5b/relu_1x1
I0403 18:12:48.763084 16581 net.cpp:425] inception_5b/relu_1x1 <- inception_5b/1x1
I0403 18:12:48.763101 16581 net.cpp:386] inception_5b/relu_1x1 -> inception_5b/1x1 (in-place)
I0403 18:12:48.763404 16581 net.cpp:141] Setting up inception_5b/relu_1x1
I0403 18:12:48.763430 16581 net.cpp:148] Top shape: 24 384 7 7 (451584)
I0403 18:12:48.763444 16581 net.cpp:156] Memory required for data: 1328854560
I0403 18:12:48.763459 16581 layer_factory.hpp:77] Creating layer inception_5b/3x3_reduce
I0403 18:12:48.763480 16581 net.cpp:91] Creating Layer inception_5b/3x3_reduce
I0403 18:12:48.763497 16581 net.cpp:425] inception_5b/3x3_reduce <- inception_5a/output_inception_5a/output_0_split_1
I0403 18:12:48.763520 16581 net.cpp:399] inception_5b/3x3_reduce -> inception_5b/3x3_reduce
I0403 18:12:48.766178 16581 net.cpp:141] Setting up inception_5b/3x3_reduce
I0403 18:12:48.766207 16581 net.cpp:148] Top shape: 24 192 7 7 (225792)
I0403 18:12:48.766223 16581 net.cpp:156] Memory required for data: 1329757728
I0403 18:12:48.766242 16581 layer_factory.hpp:77] Creating layer inception_5b/relu_3x3_reduce
I0403 18:12:48.766261 16581 net.cpp:91] Creating Layer inception_5b/relu_3x3_reduce
I0403 18:12:48.766278 16581 net.cpp:425] inception_5b/relu_3x3_reduce <- inception_5b/3x3_reduce
I0403 18:12:48.766295 16581 net.cpp:386] inception_5b/relu_3x3_reduce -> inception_5b/3x3_reduce (in-place)
I0403 18:12:48.766482 16581 net.cpp:141] Setting up inception_5b/relu_3x3_reduce
I0403 18:12:48.766508 16581 net.cpp:148] Top shape: 24 192 7 7 (225792)
I0403 18:12:48.766525 16581 net.cpp:156] Memory required for data: 1330660896
I0403 18:12:48.766538 16581 layer_factory.hpp:77] Creating layer inception_5b/3x3
I0403 18:12:48.766559 16581 net.cpp:91] Creating Layer inception_5b/3x3
I0403 18:12:48.766577 16581 net.cpp:425] inception_5b/3x3 <- inception_5b/3x3_reduce
I0403 18:12:48.766594 16581 net.cpp:399] inception_5b/3x3 -> inception_5b/3x3
I0403 18:12:48.773356 16581 net.cpp:141] Setting up inception_5b/3x3
I0403 18:12:48.773385 16581 net.cpp:148] Top shape: 24 384 7 7 (451584)
I0403 18:12:48.773402 16581 net.cpp:156] Memory required for data: 1332467232
I0403 18:12:48.773421 16581 layer_factory.hpp:77] Creating layer inception_5b/relu_3x3
I0403 18:12:48.773437 16581 net.cpp:91] Creating Layer inception_5b/relu_3x3
I0403 18:12:48.773453 16581 net.cpp:425] inception_5b/relu_3x3 <- inception_5b/3x3
I0403 18:12:48.773470 16581 net.cpp:386] inception_5b/relu_3x3 -> inception_5b/3x3 (in-place)
I0403 18:12:48.773761 16581 net.cpp:141] Setting up inception_5b/relu_3x3
I0403 18:12:48.773787 16581 net.cpp:148] Top shape: 24 384 7 7 (451584)
I0403 18:12:48.773804 16581 net.cpp:156] Memory required for data: 1334273568
I0403 18:12:48.773818 16581 layer_factory.hpp:77] Creating layer inception_5b/5x5_reduce
I0403 18:12:48.773854 16581 net.cpp:91] Creating Layer inception_5b/5x5_reduce
I0403 18:12:48.773870 16581 net.cpp:425] inception_5b/5x5_reduce <- inception_5a/output_inception_5a/output_0_split_2
I0403 18:12:48.773892 16581 net.cpp:399] inception_5b/5x5_reduce -> inception_5b/5x5_reduce
I0403 18:12:48.775142 16581 net.cpp:141] Setting up inception_5b/5x5_reduce
I0403 18:12:48.775169 16581 net.cpp:148] Top shape: 24 48 7 7 (56448)
I0403 18:12:48.775184 16581 net.cpp:156] Memory required for data: 1334499360
I0403 18:12:48.775202 16581 layer_factory.hpp:77] Creating layer inception_5b/relu_5x5_reduce
I0403 18:12:48.775221 16581 net.cpp:91] Creating Layer inception_5b/relu_5x5_reduce
I0403 18:12:48.775238 16581 net.cpp:425] inception_5b/relu_5x5_reduce <- inception_5b/5x5_reduce
I0403 18:12:48.775255 16581 net.cpp:386] inception_5b/relu_5x5_reduce -> inception_5b/5x5_reduce (in-place)
I0403 18:12:48.775619 16581 net.cpp:141] Setting up inception_5b/relu_5x5_reduce
I0403 18:12:48.775645 16581 net.cpp:148] Top shape: 24 48 7 7 (56448)
I0403 18:12:48.775660 16581 net.cpp:156] Memory required for data: 1334725152
I0403 18:12:48.775674 16581 layer_factory.hpp:77] Creating layer inception_5b/5x5
I0403 18:12:48.775693 16581 net.cpp:91] Creating Layer inception_5b/5x5
I0403 18:12:48.775710 16581 net.cpp:425] inception_5b/5x5 <- inception_5b/5x5_reduce
I0403 18:12:48.775728 16581 net.cpp:399] inception_5b/5x5 -> inception_5b/5x5
I0403 18:12:48.777736 16581 net.cpp:141] Setting up inception_5b/5x5
I0403 18:12:48.777766 16581 net.cpp:148] Top shape: 24 128 7 7 (150528)
I0403 18:12:48.777781 16581 net.cpp:156] Memory required for data: 1335327264
I0403 18:12:48.777799 16581 layer_factory.hpp:77] Creating layer inception_5b/relu_5x5
I0403 18:12:48.777817 16581 net.cpp:91] Creating Layer inception_5b/relu_5x5
I0403 18:12:48.777833 16581 net.cpp:425] inception_5b/relu_5x5 <- inception_5b/5x5
I0403 18:12:48.777849 16581 net.cpp:386] inception_5b/relu_5x5 -> inception_5b/5x5 (in-place)
I0403 18:12:48.778049 16581 net.cpp:141] Setting up inception_5b/relu_5x5
I0403 18:12:48.778074 16581 net.cpp:148] Top shape: 24 128 7 7 (150528)
I0403 18:12:48.778090 16581 net.cpp:156] Memory required for data: 1335929376
I0403 18:12:48.778103 16581 layer_factory.hpp:77] Creating layer inception_5b/pool
I0403 18:12:48.778120 16581 net.cpp:91] Creating Layer inception_5b/pool
I0403 18:12:48.778136 16581 net.cpp:425] inception_5b/pool <- inception_5a/output_inception_5a/output_0_split_3
I0403 18:12:48.778158 16581 net.cpp:399] inception_5b/pool -> inception_5b/pool
I0403 18:12:48.778229 16581 net.cpp:141] Setting up inception_5b/pool
I0403 18:12:48.778254 16581 net.cpp:148] Top shape: 24 832 7 7 (978432)
I0403 18:12:48.778269 16581 net.cpp:156] Memory required for data: 1339843104
I0403 18:12:48.778282 16581 layer_factory.hpp:77] Creating layer inception_5b/pool_proj
I0403 18:12:48.778303 16581 net.cpp:91] Creating Layer inception_5b/pool_proj
I0403 18:12:48.778321 16581 net.cpp:425] inception_5b/pool_proj <- inception_5b/pool
I0403 18:12:48.778338 16581 net.cpp:399] inception_5b/pool_proj -> inception_5b/pool_proj
I0403 18:12:48.780621 16581 net.cpp:141] Setting up inception_5b/pool_proj
I0403 18:12:48.780649 16581 net.cpp:148] Top shape: 24 128 7 7 (150528)
I0403 18:12:48.780665 16581 net.cpp:156] Memory required for data: 1340445216
I0403 18:12:48.780683 16581 layer_factory.hpp:77] Creating layer inception_5b/relu_pool_proj
I0403 18:12:48.780702 16581 net.cpp:91] Creating Layer inception_5b/relu_pool_proj
I0403 18:12:48.780720 16581 net.cpp:425] inception_5b/relu_pool_proj <- inception_5b/pool_proj
I0403 18:12:48.780736 16581 net.cpp:386] inception_5b/relu_pool_proj -> inception_5b/pool_proj (in-place)
I0403 18:12:48.781031 16581 net.cpp:141] Setting up inception_5b/relu_pool_proj
I0403 18:12:48.781057 16581 net.cpp:148] Top shape: 24 128 7 7 (150528)
I0403 18:12:48.781072 16581 net.cpp:156] Memory required for data: 1341047328
I0403 18:12:48.781086 16581 layer_factory.hpp:77] Creating layer inception_5b/output
I0403 18:12:48.781105 16581 net.cpp:91] Creating Layer inception_5b/output
I0403 18:12:48.781134 16581 net.cpp:425] inception_5b/output <- inception_5b/1x1
I0403 18:12:48.781152 16581 net.cpp:425] inception_5b/output <- inception_5b/3x3
I0403 18:12:48.781169 16581 net.cpp:425] inception_5b/output <- inception_5b/5x5
I0403 18:12:48.781185 16581 net.cpp:425] inception_5b/output <- inception_5b/pool_proj
I0403 18:12:48.781201 16581 net.cpp:399] inception_5b/output -> inception_5b/output
I0403 18:12:48.781254 16581 net.cpp:141] Setting up inception_5b/output
I0403 18:12:48.781276 16581 net.cpp:148] Top shape: 24 1024 7 7 (1204224)
I0403 18:12:48.781291 16581 net.cpp:156] Memory required for data: 1345864224
I0403 18:12:48.781306 16581 layer_factory.hpp:77] Creating layer pool5/7x7_s1
I0403 18:12:48.781323 16581 net.cpp:91] Creating Layer pool5/7x7_s1
I0403 18:12:48.781338 16581 net.cpp:425] pool5/7x7_s1 <- inception_5b/output
I0403 18:12:48.781358 16581 net.cpp:399] pool5/7x7_s1 -> pool5/7x7_s1
I0403 18:12:48.781570 16581 net.cpp:141] Setting up pool5/7x7_s1
I0403 18:12:48.781597 16581 net.cpp:148] Top shape: 24 1024 1 1 (24576)
I0403 18:12:48.781612 16581 net.cpp:156] Memory required for data: 1345962528
I0403 18:12:48.781628 16581 layer_factory.hpp:77] Creating layer pool5/drop_7x7_s1
I0403 18:12:48.781646 16581 net.cpp:91] Creating Layer pool5/drop_7x7_s1
I0403 18:12:48.781661 16581 net.cpp:425] pool5/drop_7x7_s1 <- pool5/7x7_s1
I0403 18:12:48.781679 16581 net.cpp:386] pool5/drop_7x7_s1 -> pool5/7x7_s1 (in-place)
I0403 18:12:48.781728 16581 net.cpp:141] Setting up pool5/drop_7x7_s1
I0403 18:12:48.781750 16581 net.cpp:148] Top shape: 24 1024 1 1 (24576)
I0403 18:12:48.781764 16581 net.cpp:156] Memory required for data: 1346060832
I0403 18:12:48.781779 16581 layer_factory.hpp:77] Creating layer loss3/classifier_plantvillage
I0403 18:12:48.781800 16581 net.cpp:91] Creating Layer loss3/classifier_plantvillage
I0403 18:12:48.781816 16581 net.cpp:425] loss3/classifier_plantvillage <- pool5/7x7_s1
I0403 18:12:48.781836 16581 net.cpp:399] loss3/classifier_plantvillage -> loss3/classifier_plantvillage
I0403 18:12:48.782254 16581 net.cpp:141] Setting up loss3/classifier_plantvillage
I0403 18:12:48.782277 16581 net.cpp:148] Top shape: 24 38 (912)
I0403 18:12:48.782291 16581 net.cpp:156] Memory required for data: 1346064480
I0403 18:12:48.782308 16581 layer_factory.hpp:77] Creating layer loss3/classifier_plantvillage_loss3/classifier_plantvillage_0_split
I0403 18:12:48.782326 16581 net.cpp:91] Creating Layer loss3/classifier_plantvillage_loss3/classifier_plantvillage_0_split
I0403 18:12:48.782346 16581 net.cpp:425] loss3/classifier_plantvillage_loss3/classifier_plantvillage_0_split <- loss3/classifier_plantvillage
I0403 18:12:48.782362 16581 net.cpp:399] loss3/classifier_plantvillage_loss3/classifier_plantvillage_0_split -> loss3/classifier_plantvillage_loss3/classifier_plantvillage_0_split_0
I0403 18:12:48.782382 16581 net.cpp:399] loss3/classifier_plantvillage_loss3/classifier_plantvillage_0_split -> loss3/classifier_plantvillage_loss3/classifier_plantvillage_0_split_1
I0403 18:12:48.782402 16581 net.cpp:399] loss3/classifier_plantvillage_loss3/classifier_plantvillage_0_split -> loss3/classifier_plantvillage_loss3/classifier_plantvillage_0_split_2
I0403 18:12:48.782421 16581 net.cpp:399] loss3/classifier_plantvillage_loss3/classifier_plantvillage_0_split -> loss3/classifier_plantvillage_loss3/classifier_plantvillage_0_split_3
I0403 18:12:48.782518 16581 net.cpp:141] Setting up loss3/classifier_plantvillage_loss3/classifier_plantvillage_0_split
I0403 18:12:48.782541 16581 net.cpp:148] Top shape: 24 38 (912)
I0403 18:12:48.782557 16581 net.cpp:148] Top shape: 24 38 (912)
I0403 18:12:48.782572 16581 net.cpp:148] Top shape: 24 38 (912)
I0403 18:12:48.782587 16581 net.cpp:148] Top shape: 24 38 (912)
I0403 18:12:48.782600 16581 net.cpp:156] Memory required for data: 1346079072
I0403 18:12:48.782613 16581 layer_factory.hpp:77] Creating layer loss1/loss
I0403 18:12:48.782634 16581 net.cpp:91] Creating Layer loss1/loss
I0403 18:12:48.782651 16581 net.cpp:425] loss1/loss <- loss1/classifier_plantvillage_loss1/classifier_plantvillage_0_split_0
I0403 18:12:48.782681 16581 net.cpp:425] loss1/loss <- label_data_1_split_0
…
