…
I0403 17:53:17.123955 15353 net.cpp:313] The NetState phase (1) differed from the phase (0) specified by a rule in layer data
I0403 17:53:17.125100 15353 net.cpp:49] Initializing net from parameters: 
state {
  phase: TEST
}
layer {
  name: "data"
  type: "Data"
  top: "data"
  top: "label"
  include {
    phase: TEST
  }
  transform_param {
    mirror: false
    crop_size: 224
    mean_file: "/home/mohanty/data/final_dataset/lmdb/grayscale-60-40/mean.binaryproto"
  }
  data_param {
    source: "/home/mohanty/data/final_dataset/lmdb/grayscale-60-40/test_db"
    batch_size: 24
    backend: LMDB
  }
}
layer {
  name: "conv1/7x7_s2"
  type: "Convolution"
  bottom: "data"
  top: "conv1/7x7_s2"
  param {
    lr_mult: 1
    decay_mult: 1
  }
  param {
    lr_mult: 2
    decay_mult: 0
  }
  convolution_param {
    num_output: 64
    pad: 3
    kernel_size: 7
    stride: 2
    weight_filler {
      type: "xavier"
      std: 0.1
    }
    bias_filler {
      type: "constant"
      value: 0.2
    }
  }
}
layer {
  name: "conv1/relu_7x7"
  type: "ReLU"
  bottom: "conv1/7x7_s2"
  top: "conv1/7x7_s2"
}
layer {
  name: "pool1/3x3_s2"
  type: "Pooling"
  bottom: "conv1/7x7_s2"
  top: "pool1/3x3_s2"
  pooling_param {
    pool: MAX
    kernel_size: 3
    stride: 2
  }
}
layer {
  name: "pool1/norm1"
  type: "LRN"
  bottom: "pool1/3x3_s2"
  top: "pool1/norm1"
  lrn_param {
    local_size: 5
    alpha: 0.0001
    beta: 0.75
  }
}
layer {
  name: "conv2/3x3_reduce"
  type: "Convolution"
  bottom: "pool1/norm1"
  top: "conv2/3x3_reduce"
  param {
    lr_mult: 1
    decay_mult: 1
  }
  param {
    lr_mult: 2
    decay_mult: 0
  }
  convolution_param {
    num_output: 64
    kernel_size: 1
    weight_filler {
      type: "xavier"
      std: 0.1
    }
    bias_filler {
      type: "constant"
      value: 0.2
    }
  }
}
layer {
  name: "conv2/relu_3x3_reduce"
  type: "ReLU"
  bottom: "conv2/3x3_reduce"
  top: "conv2/3x3_reduce"
}
layer {
  name: "conv2/3x3"
  type: "Convolution"
  bottom: "conv2/3x3_reduce"
  top: "conv2/3x3"
  param {
    lr_mult: 1
    decay_mult: 1
  }
  param {
    lr_mult: 2
    decay_mult: 0
  }
  convolution_param {
    num_output: 192
    pad: 1
    kernel_size: 3
    weight_filler {
      type: "xavier"
      std: 0.03
    }
    bias_filler {
      type: "constant"
      value: 0.2
    }
  }
}
layer {
  name: "conv2/relu_3x3"
  type: "ReLU"
  bottom: "conv2/3x3"
  top: "conv2/3x3"
}
layer {
  name: "conv2/norm2"
  type: "LRN"
  bottom: "conv2/3x3"
  top: "conv2/norm2"
  lrn_param {
    local_size: 5
    alpha: 0.0001
    beta: 0.75
  }
}
layer {
  name: "pool2/3x3_s2"
  type: "Pooling"
  bottom: "conv2/norm2"
  top: "pool2/3x3_s2"
  pooling_param {
    pool: MAX
    kernel_size: 3
    stride: 2
  }
}
layer {
  name: "inception_3a/1x1"
  type: "Convolution"
  bottom: "pool2/3x3_s2"
  top: "inception_3a/1x1"
  param {
    lr_mult: 1
    decay_mult: 1
  }
  param {
    lr_mult: 2
    decay_mult: 0
  }
  convolution_param {
    num_output: 64
    kernel_size: 1
    weight_filler {
      type: "xavier"
      std: 0.03
    }
    bias_filler {
      type: "constant"
      value: 0.2
    }
  }
}
layer {
  name: "inception_3a/relu_1x1"
  type: "ReLU"
  bottom: "inception_3a/1x1"
  top: "inception_3a/1x1"
}
layer {
  name: "inception_3a/3x3_reduce"
  type: "Convolution"
  bottom: "pool2/3x3_s2"
  top: "inception_3a/3x3_reduce"
  param {
    lr_mult: 1
    decay_mult: 1
  }
  param {
    lr_mult: 2
    decay_mult: 0
  }
  convolution_param {
    num_output: 96
    kernel_size: 1
    weight_filler {
      type: "xavier"
      std: 0.09
    }
    bias_filler {
      type: "constant"
      value: 0.2
    }
  }
}
layer {
  name: "inception_3a/relu_3x3_reduce"
  type: "ReLU"
  bottom: "inception_3a/3x3_reduce"
  top: "inception_3a/3x3_reduce"
}
layer {
  name: "inception_3a/3x3"
  type: "Convolution"
  bottom: "inception_3a/3x3_reduce"
  top: "inception_3a/3x3"
  param {
    lr_mult: 1
    decay_mult: 1
  }
  param {
    lr_mult: 2
    decay_mult: 0
  }
  convolution_param {
    num_output: 128
    pad: 1
    kernel_size: 3
    weight_filler {
      type: "xavier"
      std: 0.03
    }
    bias_filler {
      type: "constant"
      value: 0.2
    }
  }
}
layer {
  name: "inception_3a/relu_3x3"
  type: "ReLU"
  bottom: "inception_3a/3x3"
  top: "inception_3a/3x3"
}
layer {
  name: "inception_3a/5x5_reduce"
  type: "Convolution"
  bottom: "pool2/3x3_s2"
  top: "inception_3a/5x5_reduce"
  param {
    lr_mult: 1
    decay_mult: 1
  }
  param {
    lr_mult: 2
    decay_mult: 0
  }
  convolution_param {
    num_output: 16
    kernel_size: 1
    weight_filler {
      type: "xavier"
      std: 0.2
    }
    bias_filler {
      type: "constant"
      value: 0.2
    }
  }
}
layer {
  name: "inception_3a/relu_5x5_reduce"
  type: "ReLU"
  bottom: "inception_3a/5x5_reduce"
  top: "inception_3a/5x5_reduce"
}
layer {
  name: "inception_3a/5x5"
  type: "Convolution"
  bottom: "inception_3a/5x5_reduce"
  top: "inception_3a/5x5"
  param {
    lr_mult: 1
    decay_mult: 1
  }
  param {
    lr_mult: 2
    decay_mult: 0
  }
  convolution_param {
    num_output: 32
    pad: 2
    kernel_size: 5
    weight_filler {
      type: "xavier"
      std: 0.03
    }
    bias_filler {
      type: "constant"
      value: 0.2
    }
  }
}
layer {
  name: "inception_3a/relu_5x5"
  type: "ReLU"
  bottom: "inception_3a/5x5"
  top: "inception_3a/5x5"
}
layer {
  name: "inception_3a/pool"
  type: "Pooling"
  bottom: "pool2/3x3_s2"
  top: "inception_3a/pool"
  pooling_param {
    pool: MAX
    kernel_size: 3
    stride: 1
    pad: 1
  }
}
layer {
  name: "inception_3a/pool_proj"
  type: "Convolution"
  bottom: "inception_3a/pool"
  top: "inception_3a/pool_proj"
  param {
    lr_mult: 1
    decay_mult: 1
  }
  param {
    lr_mult: 2
    decay_mult: 0
  }
  convolution_param {
    num_output: 32
    kernel_size: 1
    weight_filler {
      type: "xavier"
      std: 0.1
    }
    bias_filler {
      type: "constant"
      value: 0.2
    }
  }
}
layer {
  name: "inception_3a/relu_pool_proj"
  type: "ReLU"
  bottom: "inception_3a/pool_proj"
  top: "inception_3a/pool_proj"
}
layer {
  name: "inception_3a/output"
  type: "Concat"
  bottom: "inception_3a/1x1"
  bottom: "inception_3a/3x3"
  bottom: "inception_3a/5x5"
  bottom: "inception_3a/pool_proj"
  top: "inception_3a/output"
}
layer {
  name: "inception_3b/1x1"
  type: "Convolution"
  bottom: "inception_3a/output"
  top: "inception_3b/1x1"
  param {
    lr_mult: 1
    decay_mult: 1
  }
  param {
    lr_mult: 2
    decay_mult: 0
  }
  convolution_param {
    num_output: 128
    kernel_size: 1
    weight_filler {
      type: "xavier"
      std: 0.03
    }
    bias_filler {
      type: "constant"
      value: 0.2
    }
  }
}
layer {
  name: "inception_3b/relu_1x1"
  type: "ReLU"
  bottom: "inception_3b/1x1"
  top: "inception_3b/1x1"
}
layer {
  name: "inception_3b/3x3_reduce"
  type: "Convolution"
  bottom: "inception_3a/output"
  top: "inception_3b/3x3_reduce"
  param {
    lr_mult: 1
    decay_mult: 1
  }
  param {
    lr_mult: 2
    decay_mult: 0
  }
  convolution_param {
    num_output: 128
    kernel_size: 1
    weight_filler {
      type: "xavier"
      std: 0.09
    }
    bias_filler {
      type: "constant"
      value: 0.2
    }
  }
}
layer {
  name: "inception_3b/relu_3x3_reduce"
  type: "ReLU"
  bottom: "inception_3b/3x3_reduce"
  top: "inception_3b/3x3_reduce"
}
layer {
  name: "inception_3b/3x3"
  type: "Convolution"
  bottom: "inception_3b/3x3_reduce"
  top: "inception_3b/3x3"
  param {
    lr_mult: 1
    decay_mult: 1
  }
  param {
    lr_mult: 2
    decay_mult: 0
  }
  convolution_param {
    num_output: 192
    pad: 1
    kernel_size: 3
    weight_filler {
      type: "xavier"
      std: 0.03
    }
    bias_filler {
      type: "constant"
      value: 0.2
    }
  }
}
layer {
  name: "inception_3b/relu_3x3"
  type: "ReLU"
  bottom: "inception_3b/3x3"
  top: "inception_3b/3x3"
}
layer {
  name: "inception_3b/5x5_reduce"
  type: "Convolution"
  bottom: "inception_3a/output"
  top: "inception_3b/5x5_reduce"
  param {
    lr_mult: 1
    decay_mult: 1
  }
  param {
    lr_mult: 2
    decay_mult: 0
  }
  convolution_param {
    num_output: 32
    kernel_size: 1
    weight_filler {
      type: "xavier"
      std: 0.2
    }
    bias_filler {
      type: "constant"
      value: 0.2
    }
  }
}
layer {
  name: "inception_3b/relu_5x5_reduce"
  type: "ReLU"
  bottom: "inception_3b/5x5_reduce"
  top: "inception_3b/5x5_reduce"
}
layer {
  name: "inception_3b/5x5"
  type: "Convolution"
  bottom: "inception_3b/5x5_reduce"
  top: "inception_3b/5x5"
  param {
    lr_mult: 1
    decay_mult: 1
  }
  param {
    lr_mult: 2
    decay_mult: 0
  }
  convolution_param {
    num_output: 96
    pad: 2
    kernel_size: 5
    weight_filler {
      type: "xavier"
      std: 0.03
    }
    bias_filler {
      type: "constant"
      value: 0.2
    }
  }
}
layer {
  name: "inception_3b/relu_5x5"
  type: "ReLU"
  bottom: "inception_3b/5x5"
  top: "inception_3b/5x5"
}
layer {
  name: "inception_3b/pool"
  type: "Pooling"
  bottom: "inception_3a/output"
  top: "inception_3b/pool"
  pooling_param {
    pool: MAX
    kernel_size: 3
    stride: 1
    pad: 1
  }
}
layer {
  name: "inception_3b/pool_proj"
  type: "Convolution"
  bottom: "inception_3b/pool"
  top: "inception_3b/pool_proj"
  param {
    lr_mult: 1
    decay_mult: 1
  }
  param {
    lr_mult: 2
    decay_mult: 0
  }
  convolution_param {
    num_output: 64
    kernel_size: 1
    weight_filler {
      type: "xavier"
      std: 0.1
    }
    bias_filler {
      type: "constant"
      value: 0.2
    }
  }
}
layer {
  name: "inception_3b/relu_pool_proj"
  type: "ReLU"
  bottom: "inception_3b/pool_proj"
  top: "inception_3b/pool_proj"
}
layer {
  name: "inception_3b/output"
  type: "Concat"
  bottom: "inception_3b/1x1"
  bottom: "inception_3b/3x3"
  bottom: "inception_3b/5x5"
  bottom: "inception_3b/pool_proj"
  top: "inception_3b/output"
}
layer {
  name: "pool3/3x3_s2"
  type: "Pooling"
  bottom: "inception_3b/output"
  top: "pool3/3x3_s2"
  pooling_param {
    pool: MAX
    kernel_size: 3
    stride: 2
  }
}
layer {
  name: "inception_4a/1x1"
  type: "Convolution"
  bottom: "pool3/3x3_s2"
  top: "inception_4a/1x1"
  param {
    lr_mult: 1
    decay_mult: 1
  }
  param {
    lr_mult: 2
    decay_mult: 0
  }
  convolution_param {
    num_output: 192
    kernel_size: 1
    weight_filler {
      type: "xavier"
      std: 0.03
    }
    bias_filler {
      type: "constant"
      value: 0.2
    }
  }
}
layer {
  name: "inception_4a/relu_1x1"
  type: "ReLU"
  bottom: "inception_4a/1x1"
  top: "inception_4a/1x1"
}
layer {
  name: "inception_4a/3x3_reduce"
  type: "Convolution"
  bottom: "pool3/3x3_s2"
  top: "inception_4a/3x3_reduce"
  param {
    lr_mult: 1
    decay_mult: 1
  }
  param {
    lr_mult: 2
    decay_mult: 0
  }
  convolution_param {
    num_output: 96
    kernel_size: 1
    weight_filler {
      type: "xavier"
      std: 0.09
    }
    bias_filler {
      type: "constant"
      value: 0.2
    }
  }
}
layer {
  name: "inception_4a/relu_3x3_reduce"
  type: "ReLU"
  bottom: "inception_4a/3x3_reduce"
  top: "inception_4a/3x3_reduce"
}
layer {
  name: "inception_4a/3x3"
  type: "Convolution"
  bottom: "inception_4a/3x3_reduce"
  top: "inception_4a/3x3"
  param {
    lr_mult: 1
    decay_mult: 1
  }
  param {
    lr_mult: 2
    decay_mult: 0
  }
  convolution_param {
    num_output: 208
    pad: 1
    kernel_size: 3
    weight_filler {
      type: "xavier"
      std: 0.03
    }
    bias_filler {
      type: "constant"
      value: 0.2
    }
  }
}
layer {
  name: "inception_4a/relu_3x3"
  type: "ReLU"
  bottom: "inception_4a/3x3"
  top: "inception_4a/3x3"
}
layer {
  name: "inception_4a/5x5_reduce"
  type: "Convolution"
  bottom: "pool3/3x3_s2"
  top: "inception_4a/5x5_reduce"
  param {
    lr_mult: 1
    decay_mult: 1
  }
  param {
    lr_mult: 2
    decay_mult: 0
  }
  convolution_param {
    num_output: 16
    kernel_size: 1
    weight_filler {
      type: "xavier"
      std: 0.2
    }
    bias_filler {
      type: "constant"
      value: 0.2
    }
  }
}
layer {
  name: "inception_4a/relu_5x5_reduce"
  type: "ReLU"
  bottom: "inception_4a/5x5_reduce"
  top: "inception_4a/5x5_reduce"
}
layer {
  name: "inception_4a/5x5"
  type: "Convolution"
  bottom: "inception_4a/5x5_reduce"
  top: "inception_4a/5x5"
  param {
    lr_mult: 1
    decay_mult: 1
  }
  param {
    lr_mult: 2
    decay_mult: 0
  }
  convolution_param {
    num_output: 48
    pad: 2
    kernel_size: 5
    weight_filler {
      type: "xavier"
      std: 0.03
    }
    bias_filler {
      type: "constant"
      value: 0.2
    }
  }
}
layer {
  name: "inception_4a/relu_5x5"
  type: "ReLU"
  bottom: "inception_4a/5x5"
  top: "inception_4a/5x5"
}
layer {
  name: "inception_4a/pool"
  type: "Pooling"
  bottom: "pool3/3x3_s2"
  top: "inception_4a/pool"
  pooling_param {
    pool: MAX
    kernel_size: 3
    stride: 1
    pad: 1
  }
}
layer {
  name: "inception_4a/pool_proj"
  type: "Convolution"
  bottom: "inception_4a/pool"
  top: "inception_4a/pool_proj"
  param {
    lr_mult: 1
    decay_mult: 1
  }
  param {
    lr_mult: 2
    decay_mult: 0
  }
  convolution_param {
    num_output: 64
    kernel_size: 1
    weight_filler {
      type: "xavier"
      std: 0.1
    }
    bias_filler {
      type: "constant"
      value: 0.2
    }
  }
}
layer {
  name: "inception_4a/relu_pool_proj"
  type: "ReLU"
  bottom: "inception_4a/pool_proj"
  top: "inception_4a/pool_proj"
}
layer {
  name: "inception_4a/output"
  type: "Concat"
  bottom: "inception_4a/1x1"
  bottom: "inception_4a/3x3"
  bottom: "inception_4a/5x5"
  bottom: "inception_4a/pool_proj"
  top: "inception_4a/output"
}
layer {
  name: "loss1/ave_pool"
  type: "Pooling"
  bottom: "inception_4a/output"
  top: "loss1/ave_pool"
  pooling_param {
    pool: AVE
    kernel_size: 5
    stride: 3
  }
}
layer {
  name: "loss1/conv"
  type: "Convolution"
  bottom: "loss1/ave_pool"
  top: "loss1/conv"
  param {
    lr_mult: 1
    decay_mult: 1
  }
  param {
    lr_mult: 2
    decay_mult: 0
  }
  convolution_param {
    num_output: 128
    kernel_size: 1
    weight_filler {
      type: "xavier"
      std: 0.08
    }
    bias_filler {
      type: "constant"
      value: 0.2
    }
  }
}
layer {
  name: "loss1/relu_conv"
  type: "ReLU"
  bottom: "loss1/conv"
  top: "loss1/conv"
}
layer {
  name: "loss1/fc"
  type: "InnerProduct"
  bottom: "loss1/conv"
  top: "loss1/fc"
  param {
    lr_mult: 1
    decay_mult: 1
  }
  param {
    lr_mult: 2
    decay_mult: 0
  }
  inner_product_param {
    num_output: 1024
    weight_filler {
      type: "xavier"
      std: 0.02
    }
    bias_filler {
      type: "constant"
      value: 0.2
    }
  }
}
layer {
  name: "loss1/relu_fc"
  type: "ReLU"
  bottom: "loss1/fc"
  top: "loss1/fc"
}
layer {
  name: "loss1/drop_fc"
  type: "Dropout"
  bottom: "loss1/fc"
  top: "loss1/fc"
  dropout_param {
    dropout_ratio: 0.7
  }
}
layer {
  name: "loss1/classifier_plantvillage"
  type: "InnerProduct"
  bottom: "loss1/fc"
  top: "loss1/classifier_plantvillage"
  param {
    lr_mult: 1
    decay_mult: 1
  }
  param {
    lr_mult: 2
    decay_mult: 0
  }
  inner_product_param {
    num_output: 38
    weight_filler {
      type: "xavier"
      std: 0.0009765625
    }
    bias_filler {
      type: "constant"
      value: 0
    }
  }
}
layer {
  name: "inception_4b/1x1"
  type: "Convolution"
  bottom: "inception_4a/output"
  top: "inception_4b/1x1"
  param {
    lr_mult: 1
    decay_mult: 1
  }
  param {
    lr_mult: 2
    decay_mult: 0
  }
  convolution_param {
    num_output: 160
    kernel_size: 1
    weight_filler {
      type: "xavier"
      std: 0.03
    }
    bias_filler {
      type: "constant"
      value: 0.2
    }
  }
}
layer {
  name: "inception_4b/relu_1x1"
  type: "ReLU"
  bottom: "inception_4b/1x1"
  top: "inception_4b/1x1"
}
layer {
  name: "inception_4b/3x3_reduce"
  type: "Convolution"
  bottom: "inception_4a/output"
  top: "inception_4b/3x3_reduce"
  param {
    lr_mult: 1
    decay_mult: 1
  }
  param {
    lr_mult: 2
    decay_mult: 0
  }
  convolution_param {
    num_output: 112
    kernel_size: 1
    weight_filler {
      type: "xavier"
      std: 0.09
    }
    bias_filler {
      type: "constant"
      value: 0.2
    }
  }
}
layer {
  name: "inception_4b/relu_3x3_reduce"
  type: "ReLU"
  bottom: "inception_4b/3x3_reduce"
  top: "inception_4b/3x3_reduce"
}
layer {
  name: "inception_4b/3x3"
  type: "Convolution"
  bottom: "inception_4b/3x3_reduce"
  top: "inception_4b/3x3"
  param {
    lr_mult: 1
    decay_mult: 1
  }
  param {
    lr_mult: 2
    decay_mult: 0
  }
  convolution_param {
    num_output: 224
    pad: 1
    kernel_size: 3
    weight_filler {
      type: "xavier"
      std: 0.03
    }
    bias_filler {
      type: "constant"
      value: 0.2
    }
  }
}
layer {
  name: "inception_4b/relu_3x3"
  type: "ReLU"
  bottom: "inception_4b/3x3"
  top: "inception_4b/3x3"
}
layer {
  name: "inception_4b/5x5_reduce"
  type: "Convolution"
  bottom: "inception_4a/output"
  top: "inception_4b/5x5_reduce"
  param {
    lr_mult: 1
    decay_mult: 1
  }
  param {
    lr_mult: 2
    decay_mult: 0
  }
  convolution_param {
    num_output: 24
    kernel_size: 1
    weight_filler {
      type: "xavier"
      std: 0.2
    }
    bias_filler {
      type: "constant"
      value: 0.2
    }
  }
}
layer {
  name: "inception_4b/relu_5x5_reduce"
  type: "ReLU"
  bottom: "inception_4b/5x5_reduce"
  top: "inception_4b/5x5_reduce"
}
layer {
  name: "inception_4b/5x5"
  type: "Convolution"
  bottom: "inception_4b/5x5_reduce"
  top: "inception_4b/5x5"
  param {
    lr_mult: 1
    decay_mult: 1
  }
  param {
    lr_mult: 2
    decay_mult: 0
  }
  convolution_param {
    num_output: 64
    pad: 2
    kernel_size: 5
    weight_filler {
      type: "xavier"
      std: 0.03
    }
    bias_filler {
      type: "constant"
      value: 0.2
    }
  }
}
layer {
  name: "inception_4b/relu_5x5"
  type: "ReLU"
  bottom: "inception_4b/5x5"
  top: "inception_4b/5x5"
}
layer {
  name: "inception_4b/pool"
  type: "Pooling"
  bottom: "inception_4a/output"
  top: "inception_4b/pool"
  pooling_param {
    pool: MAX
    kernel_size: 3
    stride: 1
    pad: 1
  }
}
layer {
  name: "inception_4b/pool_proj"
  type: "Convolution"
  bottom: "inception_4b/pool"
  top: "inception_4b/pool_proj"
  param {
    lr_mult: 1
    decay_mult: 1
  }
  param {
    lr_mult: 2
    decay_mult: 0
  }
  convolution_param {
    num_output: 64
    kernel_size: 1
    weight_filler {
      type: "xavier"
      std: 0.1
    }
    bias_filler {
      type: "constant"
      value: 0.2
    }
  }
}
layer {
  name: "inception_4b/relu_pool_proj"
  type: "ReLU"
  bottom: "inception_4b/pool_proj"
  top: "inception_4b/pool_proj"
}
layer {
  name: "inception_4b/output"
  type: "Concat"
  bottom: "inception_4b/1x1"
  bottom: "inception_4b/3x3"
  bottom: "inception_4b/5x5"
  bottom: "inception_4b/pool_proj"
  top: "inception_4b/output"
}
layer {
  name: "inception_4c/1x1"
  type: "Convolution"
  bottom: "inception_4b/output"
  top: "inception_4c/1x1"
  param {
    lr_mult: 1
    decay_mult: 1
  }
  param {
    lr_mult: 2
    decay_mult: 0
  }
  convolution_param {
    num_output: 128
    kernel_size: 1
    weight_filler {
      type: "xavier"
      std: 0.03
    }
    bias_filler {
      type: "constant"
      value: 0.2
    }
  }
}
layer {
  name: "inception_4c/relu_1x1"
  type: "ReLU"
  bottom: "inception_4c/1x1"
  top: "inception_4c/1x1"
}
layer {
  name: "inception_4c/3x3_reduce"
  type: "Convolution"
  bottom: "inception_4b/output"
  top: "inception_4c/3x3_reduce"
  param {
    lr_mult: 1
    decay_mult: 1
  }
  param {
    lr_mult: 2
    decay_mult: 0
  }
  convolution_param {
    num_output: 128
    kernel_size: 1
    weight_filler {
      type: "xavier"
      std: 0.09
    }
    bias_filler {
      type: "constant"
      value: 0.2
    }
  }
}
layer {
  name: "inception_4c/relu_3x3_reduce"
  type: "ReLU"
  bottom: "inception_4c/3x3_reduce"
  top: "inception_4c/3x3_reduce"
}
layer {
  name: "inception_4c/3x3"
  type: "Convolution"
  bottom: "inception_4c/3x3_reduce"
  top: "inception_4c/3x3"
  param {
    lr_mult: 1
    decay_mult: 1
  }
  param {
    lr_mult: 2
    decay_mult: 0
  }
  convolution_param {
    num_output: 256
    pad: 1
    kernel_size: 3
    weight_filler {
      type: "xavier"
      std: 0.03
    }
    bias_filler {
      type: "constant"
      value: 0.2
    }
  }
}
layer {
  name: "inception_4c/relu_3x3"
  type: "ReLU"
  bottom: "inception_4c/3x3"
  top: "inception_4c/3x3"
}
layer {
  name: "inception_4c/5x5_reduce"
  type: "Convolution"
  bottom: "inception_4b/output"
  top: "inception_4c/5x5_reduce"
  param {
    lr_mult: 1
    decay_mult: 1
  }
  param {
    lr_mult: 2
    decay_mult: 0
  }
  convolution_param {
    num_output: 24
    kernel_size: 1
    weight_filler {
      type: "xavier"
      std: 0.2
    }
    bias_filler {
      type: "constant"
      value: 0.2
    }
  }
}
layer {
  name: "inception_4c/relu_5x5_reduce"
  type: "ReLU"
  bottom: "inception_4c/5x5_reduce"
  top: "inception_4c/5x5_reduce"
}
layer {
  name: "inception_4c/5x5"
  type: "Convolution"
  bottom: "inception_4c/5x5_reduce"
  top: "inception_4c/5x5"
  param {
    lr_mult: 1
    decay_mult: 1
  }
  param {
    lr_mult: 2
    decay_mult: 0
  }
  convolution_param {
    num_output: 64
    pad: 2
    kernel_size: 5
    weight_filler {
      type: "xavier"
      std: 0.03
    }
    bias_filler {
      type: "constant"
      value: 0.2
    }
  }
}
layer {
  name: "inception_4c/relu_5x5"
  type: "ReLU"
  bottom: "inception_4c/5x5"
  top: "inception_4c/5x5"
}
layer {
  name: "inception_4c/pool"
  type: "Pooling"
  bottom: "inception_4b/output"
  top: "inception_4c/pool"
  pooling_param {
    pool: MAX
    kernel_size: 3
    stride: 1
    pad: 1
  }
}
layer {
  name: "inception_4c/pool_proj"
  type: "Convolution"
  bottom: "inception_4c/pool"
  top: "inception_4c/pool_proj"
  param {
    lr_mult: 1
    decay_mult: 1
  }
  param {
    lr_mult: 2
    decay_mult: 0
  }
  convolution_param {
    num_output: 64
    kernel_size: 1
    weight_filler {
      type: "xavier"
      std: 0.1
    }
    bias_filler {
      type: "constant"
      value: 0.2
    }
  }
}
layer {
  name: "inception_4c/relu_pool_proj"
  type: "ReLU"
  bottom: "inception_4c/pool_proj"
  top: "inception_4c/pool_proj"
}
layer {
  name: "inception_4c/output"
  type: "Concat"
  bottom: "inception_4c/1x1"
  bottom: "inception_4c/3x3"
  bottom: "inception_4c/5x5"
  bottom: "inception_4c/pool_proj"
  top: "inception_4c/output"
}
layer {
  name: "inception_4d/1x1"
  type: "Convolution"
  bottom: "inception_4c/output"
  top: "inception_4d/1x1"
  param {
    lr_mult: 1
    decay_mult: 1
  }
  param {
    lr_mult: 2
    decay_mult: 0
  }
  convolution_param {
    num_output: 112
    kernel_size: 1
    weight_filler {
      type: "xavier"
      std: 0.03
    }
    bias_filler {
      type: "constant"
      value: 0.2
    }
  }
}
layer {
  name: "inception_4d/relu_1x1"
  type: "ReLU"
  bottom: "inception_4d/1x1"
  top: "inception_4d/1x1"
}
layer {
  name: "inception_4d/3x3_reduce"
  type: "Convolution"
  bottom: "inception_4c/output"
  top: "inception_4d/3x3_reduce"
  param {
    lr_mult: 1
    decay_mult: 1
  }
  param {
    lr_mult: 2
    decay_mult: 0
  }
  convolution_param {
    num_output: 144
    kernel_size: 1
    weight_filler {
      type: "xavier"
      std: 0.09
    }
    bias_filler {
      type: "constant"
      value: 0.2
    }
  }
}
layer {
  name: "inception_4d/relu_3x3_reduce"
  type: "ReLU"
  bottom: "inception_4d/3x3_reduce"
  top: "inception_4d/3x3_reduce"
}
layer {
  name: "inception_4d/3x3"
  type: "Convolution"
  bottom: "inception_4d/3x3_reduce"
  top: "inception_4d/3x3"
  param {
    lr_mult: 1
    decay_mult: 1
  }
  param {
    lr_mult: 2
    decay_mult: 0
  }
  convolution_param {
    num_output: 288
    pad: 1
    kernel_size: 3
    weight_filler {
      type: "xavier"
      std: 0.03
    }
    bias_filler {
      type: "constant"
      value: 0.2
    }
  }
}
layer {
  name: "inception_4d/relu_3x3"
  type: "ReLU"
  bottom: "inception_4d/3x3"
  top: "inception_4d/3x3"
}
layer {
  name: "inception_4d/5x5_reduce"
  type: "Convolution"
  bottom: "inception_4c/output"
  top: "inception_4d/5x5_reduce"
  param {
    lr_mult: 1
    decay_mult: 1
  }
  param {
    lr_mult: 2
    decay_mult: 0
  }
  convolution_param {
    num_output: 32
    kernel_size: 1
    weight_filler {
      type: "xavier"
      std: 0.2
    }
    bias_filler {
      type: "constant"
      value: 0.2
    }
  }
}
layer {
  name: "inception_4d/relu_5x5_reduce"
  type: "ReLU"
  bottom: "inception_4d/5x5_reduce"
  top: "inception_4d/5x5_reduce"
}
layer {
  name: "inception_4d/5x5"
  type: "Convolution"
  bottom: "inception_4d/5x5_reduce"
  top: "inception_4d/5x5"
  param {
    lr_mult: 1
    decay_mult: 1
  }
  param {
    lr_mult: 2
    decay_mult: 0
  }
  convolution_param {
    num_output: 64
    pad: 2
    kernel_size: 5
    weight_filler {
      type: "xavier"
      std: 0.03
    }
    bias_filler {
      type: "constant"
      value: 0.2
    }
  }
}
layer {
  name: "inception_4d/relu_5x5"
  type: "ReLU"
  bottom: "inception_4d/5x5"
  top: "inception_4d/5x5"
}
layer {
  name: "inception_4d/pool"
  type: "Pooling"
  bottom: "inception_4c/output"
  top: "inception_4d/pool"
  pooling_param {
    pool: MAX
    kernel_size: 3
    stride: 1
    pad: 1
  }
}
layer {
  name: "inception_4d/pool_proj"
  type: "Convolution"
  bottom: "inception_4d/pool"
  top: "inception_4d/pool_proj"
  param {
    lr_mult: 1
    decay_mult: 1
  }
  param {
    lr_mult: 2
    decay_mult: 0
  }
  convolution_param {
    num_output: 64
    kernel_size: 1
    weight_filler {
      type: "xavier"
      std: 0.1
    }
    bias_filler {
      type: "constant"
      value: 0.2
    }
  }
}
layer {
  name: "inception_4d/relu_pool_proj"
  type: "ReLU"
  bottom: "inception_4d/pool_proj"
  top: "inception_4d/pool_proj"
}
layer {
  name: "inception_4d/output"
  type: "Concat"
  bottom: "inception_4d/1x1"
  bottom: "inception_4d/3x3"
  bottom: "inception_4d/5x5"
  bottom: "inception_4d/pool_proj"
  top: "inception_4d/output"
}
layer {
  name: "loss2/ave_pool"
  type: "Pooling"
  bottom: "inception_4d/output"
  top: "loss2/ave_pool"
  pooling_param {
    pool: AVE
    kernel_size: 5
    stride: 3
  }
}
layer {
  name: "loss2/conv"
  type: "Convolution"
  bottom: "loss2/ave_pool"
  top: "loss2/conv"
  param {
    lr_mult: 1
    decay_mult: 1
  }
  param {
    lr_mult: 2
    decay_mult: 0
  }
  convolution_param {
    num_output: 128
    kernel_size: 1
    weight_filler {
      type: "xavier"
      std: 0.08
    }
    bias_filler {
      type: "constant"
      value: 0.2
    }
  }
}
layer {
  name: "loss2/relu_conv"
  type: "ReLU"
  bottom: "loss2/conv"
  top: "loss2/conv"
}
layer {
  name: "loss2/fc"
  type: "InnerProduct"
  bottom: "loss2/conv"
  top: "loss2/fc"
  param {
    lr_mult: 1
    decay_mult: 1
  }
  param {
    lr_mult: 2
    decay_mult: 0
  }
  inner_product_param {
    num_output: 1024
    weight_filler {
      type: "xavier"
      std: 0.02
    }
    bias_filler {
      type: "constant"
      value: 0.2
    }
  }
}
layer {
  name: "loss2/relu_fc"
  type: "ReLU"
  bottom: "loss2/fc"
  top: "loss2/fc"
}
layer {
  name: "loss2/drop_fc"
  type: "Dropout"
  bottom: "loss2/fc"
  top: "loss2/fc"
  dropout_param {
    dropout_ratio: 0.7
  }
}
layer {
  name: "loss2/classifier_plantvillage"
  type: "InnerProduct"
  bottom: "loss2/fc"
  top: "loss2/classifier_plantvillage"
  param {
    lr_mult: 1
    decay_mult: 1
  }
  param {
    lr_mult: 2
    decay_mult: 0
  }
  inner_product_param {
    num_output: 38
    weight_filler {
      type: "xavier"
      std: 0.0009765625
    }
    bias_filler {
      type: "constant"
      value: 0
    }
  }
}
layer {
  name: "inception_4e/1x1"
  type: "Convolution"
  bottom: "inception_4d/output"
  top: "inception_4e/1x1"
  param {
    lr_mult: 1
    decay_mult: 1
  }
  param {
    lr_mult: 2
    decay_mult: 0
  }
  convolution_param {
    num_output: 256
    kernel_size: 1
    weight_filler {
      type: "xavier"
      std: 0.03
    }
    bias_filler {
      type: "constant"
      value: 0.2
    }
  }
}
layer {
  name: "inception_4e/relu_1x1"
  type: "ReLU"
  bottom: "inception_4e/1x1"
  top: "inception_4e/1x1"
}
layer {
  name: "inception_4e/3x3_reduce"
  type: "Convolution"
  bottom: "inception_4d/output"
  top: "inception_4e/3x3_reduce"
  param {
    lr_mult: 1
    decay_mult: 1
  }
  param {
    lr_mult: 2
    decay_mult: 0
  }
  convolution_param {
    num_output: 160
    kernel_size: 1
    weight_filler {
      type: "xavier"
      std: 0.09
    }
    bias_filler {
      type: "constant"
      value: 0.2
    }
  }
}
layer {
  name: "inception_4e/relu_3x3_reduce"
  type: "ReLU"
  bottom: "inception_4e/3x3_reduce"
  top: "inception_4e/3x3_reduce"
}
layer {
  name: "inception_4e/3x3"
  type: "Convolution"
  bottom: "inception_4e/3x3_reduce"
  top: "inception_4e/3x3"
  param {
    lr_mult: 1
    decay_mult: 1
  }
  param {
    lr_mult: 2
    decay_mult: 0
  }
  convolution_param {
    num_output: 320
    pad: 1
    kernel_size: 3
    weight_filler {
      type: "xavier"
      std: 0.03
    }
    bias_filler {
      type: "constant"
      value: 0.2
    }
  }
}
layer {
  name: "inception_4e/relu_3x3"
  type: "ReLU"
  bottom: "inception_4e/3x3"
  top: "inception_4e/3x3"
}
layer {
  name: "inception_4e/5x5_reduce"
  type: "Convolution"
  bottom: "inception_4d/output"
  top: "inception_4e/5x5_reduce"
  param {
    lr_mult: 1
    decay_mult: 1
  }
  param {
    lr_mult: 2
    decay_mult: 0
  }
  convolution_param {
    num_output: 32
    kernel_size: 1
    weight_filler {
      type: "xavier"
      std: 0.2
    }
    bias_filler {
      type: "constant"
      value: 0.2
    }
  }
}
layer {
  name: "inception_4e/relu_5x5_reduce"
  type: "ReLU"
  bottom: "inception_4e/5x5_reduce"
  top: "inception_4e/5x5_reduce"
}
layer {
  name: "inception_4e/5x5"
  type: "Convolution"
  bottom: "inception_4e/5x5_reduce"
  top: "inception_4e/
I0403 17:53:17.126348 15353 layer_factory.hpp:77] Creating layer data
I0403 17:53:17.126943 15353 net.cpp:91] Creating Layer data
I0403 17:53:17.126972 15353 net.cpp:399] data -> data
I0403 17:53:17.127033 15353 net.cpp:399] data -> label
I0403 17:53:17.127071 15353 data_transformer.cpp:25] Loading mean file from: /home/mohanty/data/final_dataset/lmdb/grayscale-60-40/mean.binaryproto
I0403 17:53:17.128234 15356 db_lmdb.cpp:38] Opened lmdb /home/mohanty/data/final_dataset/lmdb/grayscale-60-40/test_db
I0403 17:53:17.140153 15353 data_layer.cpp:41] output data size: 24,3,224,224
I0403 17:53:17.166708 15353 net.cpp:141] Setting up data
I0403 17:53:17.166795 15353 net.cpp:148] Top shape: 24 3 224 224 (3612672)
I0403 17:53:17.166818 15353 net.cpp:148] Top shape: 24 (24)
I0403 17:53:17.166834 15353 net.cpp:156] Memory required for data: 14450784
I0403 17:53:17.166862 15353 layer_factory.hpp:77] Creating layer label_data_1_split
I0403 17:53:17.166887 15353 net.cpp:91] Creating Layer label_data_1_split
I0403 17:53:17.166906 15353 net.cpp:425] label_data_1_split <- label
I0403 17:53:17.166939 15353 net.cpp:399] label_data_1_split -> label_data_1_split_0
I0403 17:53:17.166968 15353 net.cpp:399] label_data_1_split -> label_data_1_split_1
I0403 17:53:17.166995 15353 net.cpp:399] label_data_1_split -> label_data_1_split_2
I0403 17:53:17.167016 15353 net.cpp:399] label_data_1_split -> label_data_1_split_3
I0403 17:53:17.167037 15353 net.cpp:399] label_data_1_split -> label_data_1_split_4
I0403 17:53:17.167057 15353 net.cpp:399] label_data_1_split -> label_data_1_split_5
I0403 17:53:17.167076 15353 net.cpp:399] label_data_1_split -> label_data_1_split_6
I0403 17:53:17.167098 15353 net.cpp:399] label_data_1_split -> label_data_1_split_7
I0403 17:53:17.167117 15353 net.cpp:399] label_data_1_split -> label_data_1_split_8
I0403 17:53:17.167137 15353 net.cpp:399] label_data_1_split -> label_data_1_split_9
I0403 17:53:17.167254 15353 net.cpp:141] Setting up label_data_1_split
I0403 17:53:17.167278 15353 net.cpp:148] Top shape: 24 (24)
I0403 17:53:17.167294 15353 net.cpp:148] Top shape: 24 (24)
I0403 17:53:17.167310 15353 net.cpp:148] Top shape: 24 (24)
I0403 17:53:17.167326 15353 net.cpp:148] Top shape: 24 (24)
I0403 17:53:17.167342 15353 net.cpp:148] Top shape: 24 (24)
I0403 17:53:17.167358 15353 net.cpp:148] Top shape: 24 (24)
I0403 17:53:17.167374 15353 net.cpp:148] Top shape: 24 (24)
I0403 17:53:17.167390 15353 net.cpp:148] Top shape: 24 (24)
I0403 17:53:17.167407 15353 net.cpp:148] Top shape: 24 (24)
I0403 17:53:17.167423 15353 net.cpp:148] Top shape: 24 (24)
I0403 17:53:17.167479 15353 net.cpp:156] Memory required for data: 14451744
I0403 17:53:17.167495 15353 layer_factory.hpp:77] Creating layer conv1/7x7_s2
I0403 17:53:17.167528 15353 net.cpp:91] Creating Layer conv1/7x7_s2
I0403 17:53:17.167547 15353 net.cpp:425] conv1/7x7_s2 <- data
I0403 17:53:17.167568 15353 net.cpp:399] conv1/7x7_s2 -> conv1/7x7_s2
I0403 17:53:17.306105 15353 net.cpp:141] Setting up conv1/7x7_s2
I0403 17:53:17.306195 15353 net.cpp:148] Top shape: 24 64 112 112 (19267584)
I0403 17:53:17.306212 15353 net.cpp:156] Memory required for data: 91522080
I0403 17:53:17.306244 15353 layer_factory.hpp:77] Creating layer conv1/relu_7x7
I0403 17:53:17.306273 15353 net.cpp:91] Creating Layer conv1/relu_7x7
I0403 17:53:17.306294 15353 net.cpp:425] conv1/relu_7x7 <- conv1/7x7_s2
I0403 17:53:17.306314 15353 net.cpp:386] conv1/relu_7x7 -> conv1/7x7_s2 (in-place)
I0403 17:53:17.306591 15353 net.cpp:141] Setting up conv1/relu_7x7
I0403 17:53:17.306619 15353 net.cpp:148] Top shape: 24 64 112 112 (19267584)
I0403 17:53:17.306635 15353 net.cpp:156] Memory required for data: 168592416
I0403 17:53:17.306651 15353 layer_factory.hpp:77] Creating layer pool1/3x3_s2
I0403 17:53:17.306677 15353 net.cpp:91] Creating Layer pool1/3x3_s2
I0403 17:53:17.306697 15353 net.cpp:425] pool1/3x3_s2 <- conv1/7x7_s2
I0403 17:53:17.306716 15353 net.cpp:399] pool1/3x3_s2 -> pool1/3x3_s2
I0403 17:53:17.306793 15353 net.cpp:141] Setting up pool1/3x3_s2
I0403 17:53:17.306818 15353 net.cpp:148] Top shape: 24 64 56 56 (4816896)
I0403 17:53:17.306834 15353 net.cpp:156] Memory required for data: 187860000
I0403 17:53:17.306850 15353 layer_factory.hpp:77] Creating layer pool1/norm1
I0403 17:53:17.306876 15353 net.cpp:91] Creating Layer pool1/norm1
I0403 17:53:17.306895 15353 net.cpp:425] pool1/norm1 <- pool1/3x3_s2
I0403 17:53:17.306924 15353 net.cpp:399] pool1/norm1 -> pool1/norm1
I0403 17:53:17.307224 15353 net.cpp:141] Setting up pool1/norm1
I0403 17:53:17.307252 15353 net.cpp:148] Top shape: 24 64 56 56 (4816896)
I0403 17:53:17.307268 15353 net.cpp:156] Memory required for data: 207127584
I0403 17:53:17.307284 15353 layer_factory.hpp:77] Creating layer conv2/3x3_reduce
I0403 17:53:17.307309 15353 net.cpp:91] Creating Layer conv2/3x3_reduce
I0403 17:53:17.307327 15353 net.cpp:425] conv2/3x3_reduce <- pool1/norm1
I0403 17:53:17.307345 15353 net.cpp:399] conv2/3x3_reduce -> conv2/3x3_reduce
I0403 17:53:17.308729 15353 net.cpp:141] Setting up conv2/3x3_reduce
I0403 17:53:17.308759 15353 net.cpp:148] Top shape: 24 64 56 56 (4816896)
I0403 17:53:17.308776 15353 net.cpp:156] Memory required for data: 226395168
I0403 17:53:17.308799 15353 layer_factory.hpp:77] Creating layer conv2/relu_3x3_reduce
I0403 17:53:17.308817 15353 net.cpp:91] Creating Layer conv2/relu_3x3_reduce
I0403 17:53:17.308833 15353 net.cpp:425] conv2/relu_3x3_reduce <- conv2/3x3_reduce
I0403 17:53:17.308851 15353 net.cpp:386] conv2/relu_3x3_reduce -> conv2/3x3_reduce (in-place)
I0403 17:53:17.309121 15353 net.cpp:141] Setting up conv2/relu_3x3_reduce
I0403 17:53:17.309149 15353 net.cpp:148] Top shape: 24 64 56 56 (4816896)
I0403 17:53:17.309165 15353 net.cpp:156] Memory required for data: 245662752
I0403 17:53:17.309180 15353 layer_factory.hpp:77] Creating layer conv2/3x3
I0403 17:53:17.309203 15353 net.cpp:91] Creating Layer conv2/3x3
I0403 17:53:17.309221 15353 net.cpp:425] conv2/3x3 <- conv2/3x3_reduce
I0403 17:53:17.309240 15353 net.cpp:399] conv2/3x3 -> conv2/3x3
I0403 17:53:17.311570 15353 net.cpp:141] Setting up conv2/3x3
I0403 17:53:17.311601 15353 net.cpp:148] Top shape: 24 192 56 56 (14450688)
I0403 17:53:17.311619 15353 net.cpp:156] Memory required for data: 303465504
I0403 17:53:17.311641 15353 layer_factory.hpp:77] Creating layer conv2/relu_3x3
I0403 17:53:17.311661 15353 net.cpp:91] Creating Layer conv2/relu_3x3
I0403 17:53:17.311678 15353 net.cpp:425] conv2/relu_3x3 <- conv2/3x3
I0403 17:53:17.311696 15353 net.cpp:386] conv2/relu_3x3 -> conv2/3x3 (in-place)
I0403 17:53:17.311861 15353 net.cpp:141] Setting up conv2/relu_3x3
I0403 17:53:17.311887 15353 net.cpp:148] Top shape: 24 192 56 56 (14450688)
I0403 17:53:17.311933 15353 net.cpp:156] Memory required for data: 361268256
I0403 17:53:17.311950 15353 layer_factory.hpp:77] Creating layer conv2/norm2
I0403 17:53:17.311970 15353 net.cpp:91] Creating Layer conv2/norm2
I0403 17:53:17.311993 15353 net.cpp:425] conv2/norm2 <- conv2/3x3
I0403 17:53:17.312013 15353 net.cpp:399] conv2/norm2 -> conv2/norm2
I0403 17:53:17.312325 15353 net.cpp:141] Setting up conv2/norm2
I0403 17:53:17.312355 15353 net.cpp:148] Top shape: 24 192 56 56 (14450688)
I0403 17:53:17.312371 15353 net.cpp:156] Memory required for data: 419071008
I0403 17:53:17.312386 15353 layer_factory.hpp:77] Creating layer pool2/3x3_s2
I0403 17:53:17.312405 15353 net.cpp:91] Creating Layer pool2/3x3_s2
I0403 17:53:17.312422 15353 net.cpp:425] pool2/3x3_s2 <- conv2/norm2
I0403 17:53:17.312440 15353 net.cpp:399] pool2/3x3_s2 -> pool2/3x3_s2
I0403 17:53:17.312492 15353 net.cpp:141] Setting up pool2/3x3_s2
I0403 17:53:17.312516 15353 net.cpp:148] Top shape: 24 192 28 28 (3612672)
I0403 17:53:17.312532 15353 net.cpp:156] Memory required for data: 433521696
I0403 17:53:17.312547 15353 layer_factory.hpp:77] Creating layer pool2/3x3_s2_pool2/3x3_s2_0_split
I0403 17:53:17.312566 15353 net.cpp:91] Creating Layer pool2/3x3_s2_pool2/3x3_s2_0_split
I0403 17:53:17.312582 15353 net.cpp:425] pool2/3x3_s2_pool2/3x3_s2_0_split <- pool2/3x3_s2
I0403 17:53:17.312599 15353 net.cpp:399] pool2/3x3_s2_pool2/3x3_s2_0_split -> pool2/3x3_s2_pool2/3x3_s2_0_split_0
I0403 17:53:17.312619 15353 net.cpp:399] pool2/3x3_s2_pool2/3x3_s2_0_split -> pool2/3x3_s2_pool2/3x3_s2_0_split_1
I0403 17:53:17.312640 15353 net.cpp:399] pool2/3x3_s2_pool2/3x3_s2_0_split -> pool2/3x3_s2_pool2/3x3_s2_0_split_2
I0403 17:53:17.312660 15353 net.cpp:399] pool2/3x3_s2_pool2/3x3_s2_0_split -> pool2/3x3_s2_pool2/3x3_s2_0_split_3
I0403 17:53:17.312727 15353 net.cpp:141] Setting up pool2/3x3_s2_pool2/3x3_s2_0_split
I0403 17:53:17.312750 15353 net.cpp:148] Top shape: 24 192 28 28 (3612672)
I0403 17:53:17.312767 15353 net.cpp:148] Top shape: 24 192 28 28 (3612672)
I0403 17:53:17.312784 15353 net.cpp:148] Top shape: 24 192 28 28 (3612672)
I0403 17:53:17.312801 15353 net.cpp:148] Top shape: 24 192 28 28 (3612672)
I0403 17:53:17.312815 15353 net.cpp:156] Memory required for data: 491324448
I0403 17:53:17.312830 15353 layer_factory.hpp:77] Creating layer inception_3a/1x1
I0403 17:53:17.312851 15353 net.cpp:91] Creating Layer inception_3a/1x1
I0403 17:53:17.312870 15353 net.cpp:425] inception_3a/1x1 <- pool2/3x3_s2_pool2/3x3_s2_0_split_0
I0403 17:53:17.312888 15353 net.cpp:399] inception_3a/1x1 -> inception_3a/1x1
I0403 17:53:17.314474 15353 net.cpp:141] Setting up inception_3a/1x1
I0403 17:53:17.314504 15353 net.cpp:148] Top shape: 24 64 28 28 (1204224)
I0403 17:53:17.314520 15353 net.cpp:156] Memory required for data: 496141344
I0403 17:53:17.314539 15353 layer_factory.hpp:77] Creating layer inception_3a/relu_1x1
I0403 17:53:17.314560 15353 net.cpp:91] Creating Layer inception_3a/relu_1x1
I0403 17:53:17.314577 15353 net.cpp:425] inception_3a/relu_1x1 <- inception_3a/1x1
I0403 17:53:17.314595 15353 net.cpp:386] inception_3a/relu_1x1 -> inception_3a/1x1 (in-place)
I0403 17:53:17.314772 15353 net.cpp:141] Setting up inception_3a/relu_1x1
I0403 17:53:17.314798 15353 net.cpp:148] Top shape: 24 64 28 28 (1204224)
I0403 17:53:17.314813 15353 net.cpp:156] Memory required for data: 500958240
I0403 17:53:17.314829 15353 layer_factory.hpp:77] Creating layer inception_3a/3x3_reduce
I0403 17:53:17.314851 15353 net.cpp:91] Creating Layer inception_3a/3x3_reduce
I0403 17:53:17.314869 15353 net.cpp:425] inception_3a/3x3_reduce <- pool2/3x3_s2_pool2/3x3_s2_0_split_1
I0403 17:53:17.314891 15353 net.cpp:399] inception_3a/3x3_reduce -> inception_3a/3x3_reduce
I0403 17:53:17.316604 15353 net.cpp:141] Setting up inception_3a/3x3_reduce
I0403 17:53:17.316637 15353 net.cpp:148] Top shape: 24 96 28 28 (1806336)
I0403 17:53:17.316653 15353 net.cpp:156] Memory required for data: 508183584
I0403 17:53:17.316675 15353 layer_factory.hpp:77] Creating layer inception_3a/relu_3x3_reduce
I0403 17:53:17.316711 15353 net.cpp:91] Creating Layer inception_3a/relu_3x3_reduce
I0403 17:53:17.316730 15353 net.cpp:425] inception_3a/relu_3x3_reduce <- inception_3a/3x3_reduce
I0403 17:53:17.316751 15353 net.cpp:386] inception_3a/relu_3x3_reduce -> inception_3a/3x3_reduce (in-place)
I0403 17:53:17.316936 15353 net.cpp:141] Setting up inception_3a/relu_3x3_reduce
I0403 17:53:17.316962 15353 net.cpp:148] Top shape: 24 96 28 28 (1806336)
I0403 17:53:17.316977 15353 net.cpp:156] Memory required for data: 515408928
I0403 17:53:17.316998 15353 layer_factory.hpp:77] Creating layer inception_3a/3x3
I0403 17:53:17.317021 15353 net.cpp:91] Creating Layer inception_3a/3x3
I0403 17:53:17.317039 15353 net.cpp:425] inception_3a/3x3 <- inception_3a/3x3_reduce
I0403 17:53:17.317061 15353 net.cpp:399] inception_3a/3x3 -> inception_3a/3x3
I0403 17:53:17.318759 15353 net.cpp:141] Setting up inception_3a/3x3
I0403 17:53:17.318790 15353 net.cpp:148] Top shape: 24 128 28 28 (2408448)
I0403 17:53:17.318809 15353 net.cpp:156] Memory required for data: 525042720
I0403 17:53:17.318830 15353 layer_factory.hpp:77] Creating layer inception_3a/relu_3x3
I0403 17:53:17.318848 15353 net.cpp:91] Creating Layer inception_3a/relu_3x3
I0403 17:53:17.318866 15353 net.cpp:425] inception_3a/relu_3x3 <- inception_3a/3x3
I0403 17:53:17.318897 15353 net.cpp:386] inception_3a/relu_3x3 -> inception_3a/3x3 (in-place)
I0403 17:53:17.319181 15353 net.cpp:141] Setting up inception_3a/relu_3x3
I0403 17:53:17.319211 15353 net.cpp:148] Top shape: 24 128 28 28 (2408448)
I0403 17:53:17.319226 15353 net.cpp:156] Memory required for data: 534676512
I0403 17:53:17.319242 15353 layer_factory.hpp:77] Creating layer inception_3a/5x5_reduce
I0403 17:53:17.319265 15353 net.cpp:91] Creating Layer inception_3a/5x5_reduce
I0403 17:53:17.319283 15353 net.cpp:425] inception_3a/5x5_reduce <- pool2/3x3_s2_pool2/3x3_s2_0_split_2
I0403 17:53:17.319303 15353 net.cpp:399] inception_3a/5x5_reduce -> inception_3a/5x5_reduce
I0403 17:53:17.320276 15353 net.cpp:141] Setting up inception_3a/5x5_reduce
I0403 17:53:17.320304 15353 net.cpp:148] Top shape: 24 16 28 28 (301056)
I0403 17:53:17.320320 15353 net.cpp:156] Memory required for data: 535880736
I0403 17:53:17.320339 15353 layer_factory.hpp:77] Creating layer inception_3a/relu_5x5_reduce
I0403 17:53:17.320358 15353 net.cpp:91] Creating Layer inception_3a/relu_5x5_reduce
I0403 17:53:17.320374 15353 net.cpp:425] inception_3a/relu_5x5_reduce <- inception_3a/5x5_reduce
I0403 17:53:17.320395 15353 net.cpp:386] inception_3a/relu_5x5_reduce -> inception_3a/5x5_reduce (in-place)
I0403 17:53:17.320696 15353 net.cpp:141] Setting up inception_3a/relu_5x5_reduce
I0403 17:53:17.320724 15353 net.cpp:148] Top shape: 24 16 28 28 (301056)
I0403 17:53:17.320739 15353 net.cpp:156] Memory required for data: 537084960
I0403 17:53:17.320755 15353 layer_factory.hpp:77] Creating layer inception_3a/5x5
I0403 17:53:17.320777 15353 net.cpp:91] Creating Layer inception_3a/5x5
I0403 17:53:17.320794 15353 net.cpp:425] inception_3a/5x5 <- inception_3a/5x5_reduce
I0403 17:53:17.320817 15353 net.cpp:399] inception_3a/5x5 -> inception_3a/5x5
I0403 17:53:17.321842 15353 net.cpp:141] Setting up inception_3a/5x5
I0403 17:53:17.321872 15353 net.cpp:148] Top shape: 24 32 28 28 (602112)
I0403 17:53:17.321889 15353 net.cpp:156] Memory required for data: 539493408
I0403 17:53:17.321908 15353 layer_factory.hpp:77] Creating layer inception_3a/relu_5x5
I0403 17:53:17.321928 15353 net.cpp:91] Creating Layer inception_3a/relu_5x5
I0403 17:53:17.321944 15353 net.cpp:425] inception_3a/relu_5x5 <- inception_3a/5x5
I0403 17:53:17.321964 15353 net.cpp:386] inception_3a/relu_5x5 -> inception_3a/5x5 (in-place)
I0403 17:53:17.322149 15353 net.cpp:141] Setting up inception_3a/relu_5x5
I0403 17:53:17.322175 15353 net.cpp:148] Top shape: 24 32 28 28 (602112)
I0403 17:53:17.322190 15353 net.cpp:156] Memory required for data: 541901856
I0403 17:53:17.322206 15353 layer_factory.hpp:77] Creating layer inception_3a/pool
I0403 17:53:17.322223 15353 net.cpp:91] Creating Layer inception_3a/pool
I0403 17:53:17.322254 15353 net.cpp:425] inception_3a/pool <- pool2/3x3_s2_pool2/3x3_s2_0_split_3
I0403 17:53:17.322276 15353 net.cpp:399] inception_3a/pool -> inception_3a/pool
I0403 17:53:17.322335 15353 net.cpp:141] Setting up inception_3a/pool
I0403 17:53:17.322357 15353 net.cpp:148] Top shape: 24 192 28 28 (3612672)
I0403 17:53:17.322372 15353 net.cpp:156] Memory required for data: 556352544
I0403 17:53:17.322387 15353 layer_factory.hpp:77] Creating layer inception_3a/pool_proj
I0403 17:53:17.322412 15353 net.cpp:91] Creating Layer inception_3a/pool_proj
I0403 17:53:17.322430 15353 net.cpp:425] inception_3a/pool_proj <- inception_3a/pool
I0403 17:53:17.322449 15353 net.cpp:399] inception_3a/pool_proj -> inception_3a/pool_proj
I0403 17:53:17.323421 15353 net.cpp:141] Setting up inception_3a/pool_proj
I0403 17:53:17.323448 15353 net.cpp:148] Top shape: 24 32 28 28 (602112)
I0403 17:53:17.323464 15353 net.cpp:156] Memory required for data: 558760992
I0403 17:53:17.323488 15353 layer_factory.hpp:77] Creating layer inception_3a/relu_pool_proj
I0403 17:53:17.323508 15353 net.cpp:91] Creating Layer inception_3a/relu_pool_proj
I0403 17:53:17.323525 15353 net.cpp:425] inception_3a/relu_pool_proj <- inception_3a/pool_proj
I0403 17:53:17.323545 15353 net.cpp:386] inception_3a/relu_pool_proj -> inception_3a/pool_proj (in-place)
I0403 17:53:17.323822 15353 net.cpp:141] Setting up inception_3a/relu_pool_proj
I0403 17:53:17.323850 15353 net.cpp:148] Top shape: 24 32 28 28 (602112)
I0403 17:53:17.323866 15353 net.cpp:156] Memory required for data: 561169440
I0403 17:53:17.323881 15353 layer_factory.hpp:77] Creating layer inception_3a/output
I0403 17:53:17.323900 15353 net.cpp:91] Creating Layer inception_3a/output
I0403 17:53:17.323916 15353 net.cpp:425] inception_3a/output <- inception_3a/1x1
I0403 17:53:17.323933 15353 net.cpp:425] inception_3a/output <- inception_3a/3x3
I0403 17:53:17.323951 15353 net.cpp:425] inception_3a/output <- inception_3a/5x5
I0403 17:53:17.323966 15353 net.cpp:425] inception_3a/output <- inception_3a/pool_proj
I0403 17:53:17.323990 15353 net.cpp:399] inception_3a/output -> inception_3a/output
I0403 17:53:17.324039 15353 net.cpp:141] Setting up inception_3a/output
I0403 17:53:17.324062 15353 net.cpp:148] Top shape: 24 256 28 28 (4816896)
I0403 17:53:17.324077 15353 net.cpp:156] Memory required for data: 580437024
I0403 17:53:17.324092 15353 layer_factory.hpp:77] Creating layer inception_3a/output_inception_3a/output_0_split
I0403 17:53:17.324112 15353 net.cpp:91] Creating Layer inception_3a/output_inception_3a/output_0_split
I0403 17:53:17.324129 15353 net.cpp:425] inception_3a/output_inception_3a/output_0_split <- inception_3a/output
I0403 17:53:17.324147 15353 net.cpp:399] inception_3a/output_inception_3a/output_0_split -> inception_3a/output_inception_3a/output_0_split_0
I0403 17:53:17.324167 15353 net.cpp:399] inception_3a/output_inception_3a/output_0_split -> inception_3a/output_inception_3a/output_0_split_1
I0403 17:53:17.324193 15353 net.cpp:399] inception_3a/output_inception_3a/output_0_split -> inception_3a/output_inception_3a/output_0_split_2
I0403 17:53:17.324223 15353 net.cpp:399] inception_3a/output_inception_3a/output_0_split -> inception_3a/output_inception_3a/output_0_split_3
I0403 17:53:17.324298 15353 net.cpp:141] Setting up inception_3a/output_inception_3a/output_0_split
I0403 17:53:17.324323 15353 net.cpp:148] Top shape: 24 256 28 28 (4816896)
I0403 17:53:17.324342 15353 net.cpp:148] Top shape: 24 256 28 28 (4816896)
I0403 17:53:17.324358 15353 net.cpp:148] Top shape: 24 256 28 28 (4816896)
I0403 17:53:17.324373 15353 net.cpp:148] Top shape: 24 256 28 28 (4816896)
I0403 17:53:17.324388 15353 net.cpp:156] Memory required for data: 657507360
I0403 17:53:17.324404 15353 layer_factory.hpp:77] Creating layer inception_3b/1x1
I0403 17:53:17.324426 15353 net.cpp:91] Creating Layer inception_3b/1x1
I0403 17:53:17.324445 15353 net.cpp:425] inception_3b/1x1 <- inception_3a/output_inception_3a/output_0_split_0
I0403 17:53:17.324463 15353 net.cpp:399] inception_3b/1x1 -> inception_3b/1x1
I0403 17:53:17.325615 15353 net.cpp:141] Setting up inception_3b/1x1
I0403 17:53:17.325654 15353 net.cpp:148] Top shape: 24 128 28 28 (2408448)
I0403 17:53:17.325670 15353 net.cpp:156] Memory required for data: 667141152
I0403 17:53:17.325688 15353 layer_factory.hpp:77] Creating layer inception_3b/relu_1x1
I0403 17:53:17.325711 15353 net.cpp:91] Creating Layer inception_3b/relu_1x1
I0403 17:53:17.325726 15353 net.cpp:425] inception_3b/relu_1x1 <- inception_3b/1x1
I0403 17:53:17.325744 15353 net.cpp:386] inception_3b/relu_1x1 -> inception_3b/1x1 (in-place)
I0403 17:53:17.325917 15353 net.cpp:141] Setting up inception_3b/relu_1x1
I0403 17:53:17.325943 15353 net.cpp:148] Top shape: 24 128 28 28 (2408448)
I0403 17:53:17.325958 15353 net.cpp:156] Memory required for data: 676774944
I0403 17:53:17.325973 15353 layer_factory.hpp:77] Creating layer inception_3b/3x3_reduce
I0403 17:53:17.326000 15353 net.cpp:91] Creating Layer inception_3b/3x3_reduce
I0403 17:53:17.326019 15353 net.cpp:425] inception_3b/3x3_reduce <- inception_3a/output_inception_3a/output_0_split_1
I0403 17:53:17.326036 15353 net.cpp:399] inception_3b/3x3_reduce -> inception_3b/3x3_reduce
I0403 17:53:17.327198 15353 net.cpp:141] Setting up inception_3b/3x3_reduce
I0403 17:53:17.327234 15353 net.cpp:148] Top shape: 24 128 28 28 (2408448)
I0403 17:53:17.327250 15353 net.cpp:156] Memory required for data: 686408736
I0403 17:53:17.327267 15353 layer_factory.hpp:77] Creating layer inception_3b/relu_3x3_reduce
I0403 17:53:17.327287 15353 net.cpp:91] Creating Layer inception_3b/relu_3x3_reduce
I0403 17:53:17.327306 15353 net.cpp:425] inception_3b/relu_3x3_reduce <- inception_3b/3x3_reduce
I0403 17:53:17.327322 15353 net.cpp:386] inception_3b/relu_3x3_reduce -> inception_3b/3x3_reduce (in-place)
I0403 17:53:17.327491 15353 net.cpp:141] Setting up inception_3b/relu_3x3_reduce
I0403 17:53:17.327524 15353 net.cpp:148] Top shape: 24 128 28 28 (2408448)
I0403 17:53:17.327539 15353 net.cpp:156] Memory required for data: 696042528
I0403 17:53:17.327555 15353 layer_factory.hpp:77] Creating layer inception_3b/3x3
I0403 17:53:17.327579 15353 net.cpp:91] Creating Layer inception_3b/3x3
I0403 17:53:17.327596 15353 net.cpp:425] inception_3b/3x3 <- inception_3b/3x3_reduce
I0403 17:53:17.327617 15353 net.cpp:399] inception_3b/3x3 -> inception_3b/3x3
I0403 17:53:17.330490 15353 net.cpp:141] Setting up inception_3b/3x3
I0403 17:53:17.330521 15353 net.cpp:148] Top shape: 24 192 28 28 (3612672)
I0403 17:53:17.330538 15353 net.cpp:156] Memory required for data: 710493216
I0403 17:53:17.330556 15353 layer_factory.hpp:77] Creating layer inception_3b/relu_3x3
I0403 17:53:17.330574 15353 net.cpp:91] Creating Layer inception_3b/relu_3x3
I0403 17:53:17.330590 15353 net.cpp:425] inception_3b/relu_3x3 <- inception_3b/3x3
I0403 17:53:17.330610 15353 net.cpp:386] inception_3b/relu_3x3 -> inception_3b/3x3 (in-place)
I0403 17:53:17.330881 15353 net.cpp:141] Setting up inception_3b/relu_3x3
I0403 17:53:17.330909 15353 net.cpp:148] Top shape: 24 192 28 28 (3612672)
I0403 17:53:17.330927 15353 net.cpp:156] Memory required for data: 724943904
I0403 17:53:17.330942 15353 layer_factory.hpp:77] Creating layer inception_3b/5x5_reduce
I0403 17:53:17.330965 15353 net.cpp:91] Creating Layer inception_3b/5x5_reduce
I0403 17:53:17.330987 15353 net.cpp:425] inception_3b/5x5_reduce <- inception_3a/output_inception_3a/output_0_split_2
I0403 17:53:17.331008 15353 net.cpp:399] inception_3b/5x5_reduce -> inception_3b/5x5_reduce
I0403 17:53:17.332000 15353 net.cpp:141] Setting up inception_3b/5x5_reduce
I0403 17:53:17.332029 15353 net.cpp:148] Top shape: 24 32 28 28 (602112)
I0403 17:53:17.332046 15353 net.cpp:156] Memory required for data: 727352352
I0403 17:53:17.332065 15353 layer_factory.hpp:77] Creating layer inception_3b/relu_5x5_reduce
I0403 17:53:17.332083 15353 net.cpp:91] Creating Layer inception_3b/relu_5x5_reduce
I0403 17:53:17.332100 15353 net.cpp:425] inception_3b/relu_5x5_reduce <- inception_3b/5x5_reduce
I0403 17:53:17.332120 15353 net.cpp:386] inception_3b/relu_5x5_reduce -> inception_3b/5x5_reduce (in-place)
I0403 17:53:17.332319 15353 net.cpp:141] Setting up inception_3b/relu_5x5_reduce
I0403 17:53:17.332345 15353 net.cpp:148] Top shape: 24 32 28 28 (602112)
I0403 17:53:17.332360 15353 net.cpp:156] Memory required for data: 729760800
I0403 17:53:17.332373 15353 layer_factory.hpp:77] Creating layer inception_3b/5x5
I0403 17:53:17.332396 15353 net.cpp:91] Creating Layer inception_3b/5x5
I0403 17:53:17.332413 15353 net.cpp:425] inception_3b/5x5 <- inception_3b/5x5_reduce
I0403 17:53:17.332435 15353 net.cpp:399] inception_3b/5x5 -> inception_3b/5x5
I0403 17:53:17.334413 15353 net.cpp:141] Setting up inception_3b/5x5
I0403 17:53:17.334441 15353 net.cpp:148] Top shape: 24 96 28 28 (1806336)
I0403 17:53:17.334457 15353 net.cpp:156] Memory required for data: 736986144
I0403 17:53:17.334475 15353 layer_factory.hpp:77] Creating layer inception_3b/relu_5x5
I0403 17:53:17.334496 15353 net.cpp:91] Creating Layer inception_3b/relu_5x5
I0403 17:53:17.334512 15353 net.cpp:425] inception_3b/relu_5x5 <- inception_3b/5x5
I0403 17:53:17.334530 15353 net.cpp:386] inception_3b/relu_5x5 -> inception_3b/5x5 (in-place)
I0403 17:53:17.334718 15353 net.cpp:141] Setting up inception_3b/relu_5x5
I0403 17:53:17.334743 15353 net.cpp:148] Top shape: 24 96 28 28 (1806336)
I0403 17:53:17.334758 15353 net.cpp:156] Memory required for data: 744211488
I0403 17:53:17.334772 15353 layer_factory.hpp:77] Creating layer inception_3b/pool
I0403 17:53:17.334789 15353 net.cpp:91] Creating Layer inception_3b/pool
I0403 17:53:17.334805 15353 net.cpp:425] inception_3b/pool <- inception_3a/output_inception_3a/output_0_split_3
I0403 17:53:17.334823 15353 net.cpp:399] inception_3b/pool -> inception_3b/pool
I0403 17:53:17.334878 15353 net.cpp:141] Setting up inception_3b/pool
I0403 17:53:17.334900 15353 net.cpp:148] Top shape: 24 256 28 28 (4816896)
I0403 17:53:17.334915 15353 net.cpp:156] Memory required for data: 763479072
I0403 17:53:17.334930 15353 layer_factory.hpp:77] Creating layer inception_3b/pool_proj
I0403 17:53:17.334954 15353 net.cpp:91] Creating Layer inception_3b/pool_proj
I0403 17:53:17.334971 15353 net.cpp:425] inception_3b/pool_proj <- inception_3b/pool
I0403 17:53:17.334995 15353 net.cpp:399] inception_3b/pool_proj -> inception_3b/pool_proj
I0403 17:53:17.336037 15353 net.cpp:141] Setting up inception_3b/pool_proj
I0403 17:53:17.336064 15353 net.cpp:148] Top shape: 24 64 28 28 (1204224)
I0403 17:53:17.336079 15353 net.cpp:156] Memory required for data: 768295968
I0403 17:53:17.336097 15353 layer_factory.hpp:77] Creating layer inception_3b/relu_pool_proj
I0403 17:53:17.336117 15353 net.cpp:91] Creating Layer inception_3b/relu_pool_proj
I0403 17:53:17.336132 15353 net.cpp:425] inception_3b/relu_pool_proj <- inception_3b/pool_proj
I0403 17:53:17.336151 15353 net.cpp:386] inception_3b/relu_pool_proj -> inception_3b/pool_proj (in-place)
I0403 17:53:17.336544 15353 net.cpp:141] Setting up inception_3b/relu_pool_proj
I0403 17:53:17.336570 15353 net.cpp:148] Top shape: 24 64 28 28 (1204224)
I0403 17:53:17.336585 15353 net.cpp:156] Memory required for data: 773112864
I0403 17:53:17.336613 15353 layer_factory.hpp:77] Creating layer inception_3b/output
I0403 17:53:17.336630 15353 net.cpp:91] Creating Layer inception_3b/output
I0403 17:53:17.336648 15353 net.cpp:425] inception_3b/output <- inception_3b/1x1
I0403 17:53:17.336665 15353 net.cpp:425] inception_3b/output <- inception_3b/3x3
I0403 17:53:17.336681 15353 net.cpp:425] inception_3b/output <- inception_3b/5x5
I0403 17:53:17.336699 15353 net.cpp:425] inception_3b/output <- inception_3b/pool_proj
I0403 17:53:17.336717 15353 net.cpp:399] inception_3b/output -> inception_3b/output
I0403 17:53:17.336762 15353 net.cpp:141] Setting up inception_3b/output
I0403 17:53:17.336787 15353 net.cpp:148] Top shape: 24 480 28 28 (9031680)
I0403 17:53:17.336804 15353 net.cpp:156] Memory required for data: 809239584
I0403 17:53:17.336819 15353 layer_factory.hpp:77] Creating layer pool3/3x3_s2
I0403 17:53:17.336836 15353 net.cpp:91] Creating Layer pool3/3x3_s2
I0403 17:53:17.336853 15353 net.cpp:425] pool3/3x3_s2 <- inception_3b/output
I0403 17:53:17.336889 15353 net.cpp:399] pool3/3x3_s2 -> pool3/3x3_s2
I0403 17:53:17.336961 15353 net.cpp:141] Setting up pool3/3x3_s2
I0403 17:53:17.337002 15353 net.cpp:148] Top shape: 24 480 14 14 (2257920)
I0403 17:53:17.337018 15353 net.cpp:156] Memory required for data: 818271264
I0403 17:53:17.337041 15353 layer_factory.hpp:77] Creating layer pool3/3x3_s2_pool3/3x3_s2_0_split
I0403 17:53:17.337060 15353 net.cpp:91] Creating Layer pool3/3x3_s2_pool3/3x3_s2_0_split
I0403 17:53:17.337077 15353 net.cpp:425] pool3/3x3_s2_pool3/3x3_s2_0_split <- pool3/3x3_s2
I0403 17:53:17.337095 15353 net.cpp:399] pool3/3x3_s2_pool3/3x3_s2_0_split -> pool3/3x3_s2_pool3/3x3_s2_0_split_0
I0403 17:53:17.337116 15353 net.cpp:399] pool3/3x3_s2_pool3/3x3_s2_0_split -> pool3/3x3_s2_pool3/3x3_s2_0_split_1
I0403 17:53:17.337136 15353 net.cpp:399] pool3/3x3_s2_pool3/3x3_s2_0_split -> pool3/3x3_s2_pool3/3x3_s2_0_split_2
I0403 17:53:17.337155 15353 net.cpp:399] pool3/3x3_s2_pool3/3x3_s2_0_split -> pool3/3x3_s2_pool3/3x3_s2_0_split_3
I0403 17:53:17.337234 15353 net.cpp:141] Setting up pool3/3x3_s2_pool3/3x3_s2_0_split
I0403 17:53:17.337256 15353 net.cpp:148] Top shape: 24 480 14 14 (2257920)
I0403 17:53:17.337273 15353 net.cpp:148] Top shape: 24 480 14 14 (2257920)
I0403 17:53:17.337288 15353 net.cpp:148] Top shape: 24 480 14 14 (2257920)
I0403 17:53:17.337304 15353 net.cpp:148] Top shape: 24 480 14 14 (2257920)
I0403 17:53:17.337328 15353 net.cpp:156] Memory required for data: 854397984
I0403 17:53:17.337343 15353 layer_factory.hpp:77] Creating layer inception_4a/1x1
I0403 17:53:17.337366 15353 net.cpp:91] Creating Layer inception_4a/1x1
I0403 17:53:17.337383 15353 net.cpp:425] inception_4a/1x1 <- pool3/3x3_s2_pool3/3x3_s2_0_split_0
I0403 17:53:17.337405 15353 net.cpp:399] inception_4a/1x1 -> inception_4a/1x1
I0403 17:53:17.339023 15353 net.cpp:141] Setting up inception_4a/1x1
I0403 17:53:17.339052 15353 net.cpp:148] Top shape: 24 192 14 14 (903168)
I0403 17:53:17.339068 15353 net.cpp:156] Memory required for data: 858010656
I0403 17:53:17.339087 15353 layer_factory.hpp:77] Creating layer inception_4a/relu_1x1
I0403 17:53:17.339108 15353 net.cpp:91] Creating Layer inception_4a/relu_1x1
I0403 17:53:17.339125 15353 net.cpp:425] inception_4a/relu_1x1 <- inception_4a/1x1
I0403 17:53:17.339143 15353 net.cpp:386] inception_4a/relu_1x1 -> inception_4a/1x1 (in-place)
I0403 17:53:17.339321 15353 net.cpp:141] Setting up inception_4a/relu_1x1
I0403 17:53:17.339349 15353 net.cpp:148] Top shape: 24 192 14 14 (903168)
I0403 17:53:17.339365 15353 net.cpp:156] Memory required for data: 861623328
I0403 17:53:17.339381 15353 layer_factory.hpp:77] Creating layer inception_4a/3x3_reduce
I0403 17:53:17.339404 15353 net.cpp:91] Creating Layer inception_4a/3x3_reduce
I0403 17:53:17.339422 15353 net.cpp:425] inception_4a/3x3_reduce <- pool3/3x3_s2_pool3/3x3_s2_0_split_1
I0403 17:53:17.339442 15353 net.cpp:399] inception_4a/3x3_reduce -> inception_4a/3x3_reduce
I0403 17:53:17.340744 15353 net.cpp:141] Setting up inception_4a/3x3_reduce
I0403 17:53:17.340773 15353 net.cpp:148] Top shape: 24 96 14 14 (451584)
I0403 17:53:17.340788 15353 net.cpp:156] Memory required for data: 863429664
I0403 17:53:17.340814 15353 layer_factory.hpp:77] Creating layer inception_4a/relu_3x3_reduce
I0403 17:53:17.340834 15353 net.cpp:91] Creating Layer inception_4a/relu_3x3_reduce
I0403 17:53:17.340852 15353 net.cpp:425] inception_4a/relu_3x3_reduce <- inception_4a/3x3_reduce
I0403 17:53:17.340872 15353 net.cpp:386] inception_4a/relu_3x3_reduce -> inception_4a/3x3_reduce (in-place)
I0403 17:53:17.341055 15353 net.cpp:141] Setting up inception_4a/relu_3x3_reduce
I0403 17:53:17.341081 15353 net.cpp:148] Top shape: 24 96 14 14 (451584)
I0403 17:53:17.341096 15353 net.cpp:156] Memory required for data: 865236000
I0403 17:53:17.341111 15353 layer_factory.hpp:77] Creating layer inception_4a/3x3
I0403 17:53:17.341135 15353 net.cpp:91] Creating Layer inception_4a/3x3
I0403 17:53:17.341151 15353 net.cpp:425] inception_4a/3x3 <- inception_4a/3x3_reduce
I0403 17:53:17.341172 15353 net.cpp:399] inception_4a/3x3 -> inception_4a/3x3
I0403 17:53:17.343886 15353 net.cpp:141] Setting up inception_4a/3x3
I0403 17:53:17.343914 15353 net.cpp:148] Top shape: 24 208 14 14 (978432)
I0403 17:53:17.343931 15353 net.cpp:156] Memory required for data: 869149728
I0403 17:53:17.343950 15353 layer_factory.hpp:77] Creating layer inception_4a/relu_3x3
I0403 17:53:17.343971 15353 net.cpp:91] Creating Layer inception_4a/relu_3x3
I0403 17:53:17.343994 15353 net.cpp:425] inception_4a/relu_3x3 <- inception_4a/3x3
I0403 17:53:17.344013 15353 net.cpp:386] inception_4a/relu_3x3 -> inception_4a/3x3 (in-place)
I0403 17:53:17.344298 15353 net.cpp:141] Setting up inception_4a/relu_3x3
I0403 17:53:17.344326 15353 net.cpp:148] Top shape: 24 208 14 14 (978432)
I0403 17:53:17.344341 15353 net.cpp:156] Memory required for data: 873063456
I0403 17:53:17.344357 15353 layer_factory.hpp:77] Creating layer inception_4a/5x5_reduce
I0403 17:53:17.344382 15353 net.cpp:91] Creating Layer inception_4a/5x5_reduce
I0403 17:53:17.344399 15353 net.cpp:425] inception_4a/5x5_reduce <- pool3/3x3_s2_pool3/3x3_s2_0_split_2
I0403 17:53:17.344419 15353 net.cpp:399] inception_4a/5x5_reduce -> inception_4a/5x5_reduce
I0403 17:53:17.345455 15353 net.cpp:141] Setting up inception_4a/5x5_reduce
I0403 17:53:17.345485 15353 net.cpp:148] Top shape: 24 16 14 14 (75264)
I0403 17:53:17.345501 15353 net.cpp:156] Memory required for data: 873364512
I0403 17:53:17.345520 15353 layer_factory.hpp:77] Creating layer inception_4a/relu_5x5_reduce
I0403 17:53:17.345538 15353 net.cpp:91] Creating Layer inception_4a/relu_5x5_reduce
I0403 17:53:17.345554 15353 net.cpp:425] inception_4a/relu_5x5_reduce <- inception_4a/5x5_reduce
I0403 17:53:17.345576 15353 net.cpp:386] inception_4a/relu_5x5_reduce -> inception_4a/5x5_reduce (in-place)
I0403 17:53:17.345757 15353 net.cpp:141] Setting up inception_4a/relu_5x5_reduce
I0403 17:53:17.345782 15353 net.cpp:148] Top shape: 24 16 14 14 (75264)
I0403 17:53:17.345798 15353 net.cpp:156] Memory required for data: 873665568
I0403 17:53:17.345813 15353 layer_factory.hpp:77] Creating layer inception_4a/5x5
I0403 17:53:17.345835 15353 net.cpp:91] Creating Layer inception_4a/5x5
I0403 17:53:17.345854 15353 net.cpp:425] inception_4a/5x5 <- inception_4a/5x5_reduce
I0403 17:53:17.345875 15353 net.cpp:399] inception_4a/5x5 -> inception_4a/5x5
I0403 17:53:17.346985 15353 net.cpp:141] Setting up inception_4a/5x5
I0403 17:53:17.347013 15353 net.cpp:148] Top shape: 24 48 14 14 (225792)
I0403 17:53:17.347029 15353 net.cpp:156] Memory required for data: 874568736
I0403 17:53:17.347048 15353 layer_factory.hpp:77] Creating layer inception_4a/relu_5x5
I0403 17:53:17.347066 15353 net.cpp:91] Creating Layer inception_4a/relu_5x5
I0403 17:53:17.347086 15353 net.cpp:425] inception_4a/relu_5x5 <- inception_4a/5x5
I0403 17:53:17.347105 15353 net.cpp:386] inception_4a/relu_5x5 -> inception_4a/5x5 (in-place)
I0403 17:53:17.347285 15353 net.cpp:141] Setting up inception_4a/relu_5x5
I0403 17:53:17.347311 15353 net.cpp:148] Top shape: 24 48 14 14 (225792)
I0403 17:53:17.347326 15353 net.cpp:156] Memory required for data: 875471904
I0403 17:53:17.347340 15353 layer_factory.hpp:77] Creating layer inception_4a/pool
I0403 17:53:17.347363 15353 net.cpp:91] Creating Layer inception_4a/pool
I0403 17:53:17.347381 15353 net.cpp:425] inception_4a/pool <- pool3/3x3_s2_pool3/3x3_s2_0_split_3
I0403 17:53:17.347399 15353 net.cpp:399] inception_4a/pool -> inception_4a/pool
I0403 17:53:17.347463 15353 net.cpp:141] Setting up inception_4a/pool
I0403 17:53:17.347487 15353 net.cpp:148] Top shape: 24 480 14 14 (2257920)
I0403 17:53:17.347502 15353 net.cpp:156] Memory required for data: 884503584
I0403 17:53:17.347517 15353 layer_factory.hpp:77] Creating layer inception_4a/pool_proj
I0403 17:53:17.347540 15353 net.cpp:91] Creating Layer inception_4a/pool_proj
I0403 17:53:17.347558 15353 net.cpp:425] inception_4a/pool_proj <- inception_4a/pool
I0403 17:53:17.347579 15353 net.cpp:399] inception_4a/pool_proj -> inception_4a/pool_proj
I0403 17:53:17.348768 15353 net.cpp:141] Setting up inception_4a/pool_proj
I0403 17:53:17.348796 15353 net.cpp:148] Top shape: 24 64 14 14 (301056)
I0403 17:53:17.348827 15353 net.cpp:156] Memory required for data: 885707808
I0403 17:53:17.348847 15353 layer_factory.hpp:77] Creating layer inception_4a/relu_pool_proj
I0403 17:53:17.348868 15353 net.cpp:91] Creating Layer inception_4a/relu_pool_proj
I0403 17:53:17.348886 15353 net.cpp:425] inception_4a/relu_pool_proj <- inception_4a/pool_proj
I0403 17:53:17.348904 15353 net.cpp:386] inception_4a/relu_pool_proj -> inception_4a/pool_proj (in-place)
I0403 17:53:17.349195 15353 net.cpp:141] Setting up inception_4a/relu_pool_proj
I0403 17:53:17.349221 15353 net.cpp:148] Top shape: 24 64 14 14 (301056)
I0403 17:53:17.349237 15353 net.cpp:156] Memory required for data: 886912032
I0403 17:53:17.349252 15353 layer_factory.hpp:77] Creating layer inception_4a/output
I0403 17:53:17.349270 15353 net.cpp:91] Creating Layer inception_4a/output
I0403 17:53:17.349289 15353 net.cpp:425] inception_4a/output <- inception_4a/1x1
I0403 17:53:17.349306 15353 net.cpp:425] inception_4a/output <- inception_4a/3x3
I0403 17:53:17.349323 15353 net.cpp:425] inception_4a/output <- inception_4a/5x5
I0403 17:53:17.349339 15353 net.cpp:425] inception_4a/output <- inception_4a/pool_proj
I0403 17:53:17.349356 15353 net.cpp:399] inception_4a/output -> inception_4a/output
I0403 17:53:17.349400 15353 net.cpp:141] Setting up inception_4a/output
I0403 17:53:17.349426 15353 net.cpp:148] Top shape: 24 512 14 14 (2408448)
I0403 17:53:17.349442 15353 net.cpp:156] Memory required for data: 896545824
I0403 17:53:17.349457 15353 layer_factory.hpp:77] Creating layer inception_4a/output_inception_4a/output_0_split
I0403 17:53:17.349473 15353 net.cpp:91] Creating Layer inception_4a/output_inception_4a/output_0_split
I0403 17:53:17.349489 15353 net.cpp:425] inception_4a/output_inception_4a/output_0_split <- inception_4a/output
I0403 17:53:17.349510 15353 net.cpp:399] inception_4a/output_inception_4a/output_0_split -> inception_4a/output_inception_4a/output_0_split_0
I0403 17:53:17.349530 15353 net.cpp:399] inception_4a/output_inception_4a/output_0_split -> inception_4a/output_inception_4a/output_0_split_1
I0403 17:53:17.349551 15353 net.cpp:399] inception_4a/output_inception_4a/output_0_split -> inception_4a/output_inception_4a/output_0_split_2
I0403 17:53:17.349572 15353 net.cpp:399] inception_4a/output_inception_4a/output_0_split -> inception_4a/output_inception_4a/output_0_split_3
I0403 17:53:17.349593 15353 net.cpp:399] inception_4a/output_inception_4a/output_0_split -> inception_4a/output_inception_4a/output_0_split_4
I0403 17:53:17.349689 15353 net.cpp:141] Setting up inception_4a/output_inception_4a/output_0_split
I0403 17:53:17.349712 15353 net.cpp:148] Top shape: 24 512 14 14 (2408448)
I0403 17:53:17.349731 15353 net.cpp:148] Top shape: 24 512 14 14 (2408448)
I0403 17:53:17.349747 15353 net.cpp:148] Top shape: 24 512 14 14 (2408448)
I0403 17:53:17.349764 15353 net.cpp:148] Top shape: 24 512 14 14 (2408448)
I0403 17:53:17.349781 15353 net.cpp:148] Top shape: 24 512 14 14 (2408448)
I0403 17:53:17.349794 15353 net.cpp:156] Memory required for data: 944714784
I0403 17:53:17.349809 15353 layer_factory.hpp:77] Creating layer loss1/ave_pool
I0403 17:53:17.349828 15353 net.cpp:91] Creating Layer loss1/ave_pool
I0403 17:53:17.349843 15353 net.cpp:425] loss1/ave_pool <- inception_4a/output_inception_4a/output_0_split_0
I0403 17:53:17.349864 15353 net.cpp:399] loss1/ave_pool -> loss1/ave_pool
I0403 17:53:17.350077 15353 net.cpp:141] Setting up loss1/ave_pool
I0403 17:53:17.350105 15353 net.cpp:148] Top shape: 24 512 4 4 (196608)
I0403 17:53:17.350119 15353 net.cpp:156] Memory required for data: 945501216
I0403 17:53:17.350136 15353 layer_factory.hpp:77] Creating layer loss1/conv
I0403 17:53:17.350157 15353 net.cpp:91] Creating Layer loss1/conv
I0403 17:53:17.350175 15353 net.cpp:425] loss1/conv <- loss1/ave_pool
I0403 17:53:17.350196 15353 net.cpp:399] loss1/conv -> loss1/conv
I0403 17:53:17.351632 15353 net.cpp:141] Setting up loss1/conv
I0403 17:53:17.351661 15353 net.cpp:148] Top shape: 24 128 4 4 (49152)
I0403 17:53:17.351691 15353 net.cpp:156] Memory required for data: 945697824
I0403 17:53:17.351711 15353 layer_factory.hpp:77] Creating layer loss1/relu_conv
I0403 17:53:17.351732 15353 net.cpp:91] Creating Layer loss1/relu_conv
I0403 17:53:17.351749 15353 net.cpp:425] loss1/relu_conv <- loss1/conv
I0403 17:53:17.351766 15353 net.cpp:386] loss1/relu_conv -> loss1/conv (in-place)
I0403 17:53:17.352058 15353 net.cpp:141] Setting up loss1/relu_conv
I0403 17:53:17.352084 15353 net.cpp:148] Top shape: 24 128 4 4 (49152)
I0403 17:53:17.352099 15353 net.cpp:156] Memory required for data: 945894432
I0403 17:53:17.352115 15353 layer_factory.hpp:77] Creating layer loss1/fc
I0403 17:53:17.352141 15353 net.cpp:91] Creating Layer loss1/fc
I0403 17:53:17.352160 15353 net.cpp:425] loss1/fc <- loss1/conv
I0403 17:53:17.352181 15353 net.cpp:399] loss1/fc -> loss1/fc
I0403 17:53:17.369982 15353 net.cpp:141] Setting up loss1/fc
I0403 17:53:17.370015 15353 net.cpp:148] Top shape: 24 1024 (24576)
I0403 17:53:17.370031 15353 net.cpp:156] Memory required for data: 945992736
I0403 17:53:17.370049 15353 layer_factory.hpp:77] Creating layer loss1/relu_fc
I0403 17:53:17.370067 15353 net.cpp:91] Creating Layer loss1/relu_fc
I0403 17:53:17.370084 15353 net.cpp:425] loss1/relu_fc <- loss1/fc
I0403 17:53:17.370102 15353 net.cpp:386] loss1/relu_fc -> loss1/fc (in-place)
I0403 17:53:17.370285 15353 net.cpp:141] Setting up loss1/relu_fc
I0403 17:53:17.370311 15353 net.cpp:148] Top shape: 24 1024 (24576)
I0403 17:53:17.370326 15353 net.cpp:156] Memory required for data: 946091040
I0403 17:53:17.370342 15353 layer_factory.hpp:77] Creating layer loss1/drop_fc
I0403 17:53:17.370367 15353 net.cpp:91] Creating Layer loss1/drop_fc
I0403 17:53:17.370383 15353 net.cpp:425] loss1/drop_fc <- loss1/fc
I0403 17:53:17.370400 15353 net.cpp:386] loss1/drop_fc -> loss1/fc (in-place)
I0403 17:53:17.370452 15353 net.cpp:141] Setting up loss1/drop_fc
I0403 17:53:17.370476 15353 net.cpp:148] Top shape: 24 1024 (24576)
I0403 17:53:17.370489 15353 net.cpp:156] Memory required for data: 946189344
I0403 17:53:17.370504 15353 layer_factory.hpp:77] Creating layer loss1/classifier_plantvillage
I0403 17:53:17.370522 15353 net.cpp:91] Creating Layer loss1/classifier_plantvillage
I0403 17:53:17.370537 15353 net.cpp:425] loss1/classifier_plantvillage <- loss1/fc
I0403 17:53:17.370561 15353 net.cpp:399] loss1/classifier_plantvillage -> loss1/classifier_plantvillage
I0403 17:53:17.371464 15353 net.cpp:141] Setting up loss1/classifier_plantvillage
I0403 17:53:17.371492 15353 net.cpp:148] Top shape: 24 38 (912)
I0403 17:53:17.371507 15353 net.cpp:156] Memory required for data: 946192992
I0403 17:53:17.371526 15353 layer_factory.hpp:77] Creating layer loss1/classifier_plantvillage_loss1/classifier_plantvillage_0_split
I0403 17:53:17.371546 15353 net.cpp:91] Creating Layer loss1/classifier_plantvillage_loss1/classifier_plantvillage_0_split
I0403 17:53:17.371562 15353 net.cpp:425] loss1/classifier_plantvillage_loss1/classifier_plantvillage_0_split <- loss1/classifier_plantvillage
I0403 17:53:17.371580 15353 net.cpp:399] loss1/classifier_plantvillage_loss1/classifier_plantvillage_0_split -> loss1/classifier_plantvillage_loss1/classifier_plantvillage_0_split_0
I0403 17:53:17.371600 15353 net.cpp:399] loss1/classifier_plantvillage_loss1/classifier_plantvillage_0_split -> loss1/classifier_plantvillage_loss1/classifier_plantvillage_0_split_1
I0403 17:53:17.371620 15353 net.cpp:399] loss1/classifier_plantvillage_loss1/classifier_plantvillage_0_split -> loss1/classifier_plantvillage_loss1/classifier_plantvillage_0_split_2
I0403 17:53:17.371690 15353 net.cpp:141] Setting up loss1/classifier_plantvillage_loss1/classifier_plantvillage_0_split
I0403 17:53:17.371712 15353 net.cpp:148] Top shape: 24 38 (912)
I0403 17:53:17.371729 15353 net.cpp:148] Top shape: 24 38 (912)
I0403 17:53:17.371744 15353 net.cpp:148] Top shape: 24 38 (912)
I0403 17:53:17.371757 15353 net.cpp:156] Memory required for data: 946203936
I0403 17:53:17.371773 15353 layer_factory.hpp:77] Creating layer inception_4b/1x1
I0403 17:53:17.371794 15353 net.cpp:91] Creating Layer inception_4b/1x1
I0403 17:53:17.371827 15353 net.cpp:425] inception_4b/1x1 <- inception_4a/output_inception_4a/output_0_split_1
I0403 17:53:17.371847 15353 net.cpp:399] inception_4b/1x1 -> inception_4b/1x1
I0403 17:53:17.373504 15353 net.cpp:141] Setting up inception_4b/1x1
I0403 17:53:17.373534 15353 net.cpp:148] Top shape: 24 160 14 14 (752640)
I0403 17:53:17.373551 15353 net.cpp:156] Memory required for data: 949214496
I0403 17:53:17.373569 15353 layer_factory.hpp:77] Creating layer inception_4b/relu_1x1
I0403 17:53:17.373589 15353 net.cpp:91] Creating Layer inception_4b/relu_1x1
I0403 17:53:17.373605 15353 net.cpp:425] inception_4b/relu_1x1 <- inception_4b/1x1
I0403 17:53:17.373625 15353 net.cpp:386] inception_4b/relu_1x1 -> inception_4b/1x1 (in-place)
I0403 17:53:17.373800 15353 net.cpp:141] Setting up inception_4b/relu_1x1
I0403 17:53:17.373826 15353 net.cpp:148] Top shape: 24 160 14 14 (752640)
I0403 17:53:17.373841 15353 net.cpp:156] Memory required for data: 952225056
I0403 17:53:17.373855 15353 layer_factory.hpp:77] Creating layer inception_4b/3x3_reduce
I0403 17:53:17.373879 15353 net.cpp:91] Creating Layer inception_4b/3x3_reduce
I0403 17:53:17.373898 15353 net.cpp:425] inception_4b/3x3_reduce <- inception_4a/output_inception_4a/output_0_split_2
I0403 17:53:17.373917 15353 net.cpp:399] inception_4b/3x3_reduce -> inception_4b/3x3_reduce
I0403 17:53:17.375263 15353 net.cpp:141] Setting up inception_4b/3x3_reduce
I0403 17:53:17.375290 15353 net.cpp:148] Top shape: 24 112 14 14 (526848)
I0403 17:53:17.375305 15353 net.cpp:156] Memory required for data: 954332448
I0403 17:53:17.375324 15353 layer_factory.hpp:77] Creating layer inception_4b/relu_3x3_reduce
I0403 17:53:17.375342 15353 net.cpp:91] Creating Layer inception_4b/relu_3x3_reduce
I0403 17:53:17.375358 15353 net.cpp:425] inception_4b/relu_3x3_reduce <- inception_4b/3x3_reduce
I0403 17:53:17.375377 15353 net.cpp:386] inception_4b/relu_3x3_reduce -> inception_4b/3x3_reduce (in-place)
I0403 17:53:17.375656 15353 net.cpp:141] Setting up inception_4b/relu_3x3_reduce
I0403 17:53:17.375681 15353 net.cpp:148] Top shape: 24 112 14 14 (526848)
I0403 17:53:17.375697 15353 net.cpp:156] Memory required for data: 956439840
I0403 17:53:17.375712 15353 layer_factory.hpp:77] Creating layer inception_4b/3x3
I0403 17:53:17.375735 15353 net.cpp:91] Creating Layer inception_4b/3x3
I0403 17:53:17.375752 15353 net.cpp:425] inception_4b/3x3 <- inception_4b/3x3_reduce
I0403 17:53:17.375773 15353 net.cpp:399] inception_4b/3x3 -> inception_4b/3x3
I0403 17:53:17.378737 15353 net.cpp:141] Setting up inception_4b/3x3
I0403 17:53:17.378767 15353 net.cpp:148] Top shape: 24 224 14 14 (1053696)
I0403 17:53:17.378783 15353 net.cpp:156] Memory required for data: 960654624
I0403 17:53:17.378801 15353 layer_factory.hpp:77] Creating layer inception_4b/relu_3x3
I0403 17:53:17.378823 15353 net.cpp:91] Creating Layer inception_4b/relu_3x3
I0403 17:53:17.378839 15353 net.cpp:425] inception_4b/relu_3x3 <- inception_4b/3x3
I0403 17:53:17.378857 15353 net.cpp:386] inception_4b/relu_3x3 -> inception_4b/3x3 (in-place)
I0403 17:53:17.379043 15353 net.cpp:141] Setting up inception_4b/relu_3x3
I0403 17:53:17.379070 15353 net.cpp:148] Top shape: 24 224 14 14 (1053696)
I0403 17:53:17.379086 15353 net.cpp:156] Memory required for data: 964869408
I0403 17:53:17.379101 15353 layer_factory.hpp:77] Creating layer inception_4b/5x5_reduce
I0403 17:53:17.379123 15353 net.cpp:91] Creating Layer inception_4b/5x5_reduce
I0403 17:53:17.379142 15353 net.cpp:425] inception_4b/5x5_reduce <- inception_4a/output_inception_4a/output_0_split_3
I0403 17:53:17.379160 15353 net.cpp:399] inception_4b/5x5_reduce -> inception_4b/5x5_reduce
I0403 17:53:17.380235 15353 net.cpp:141] Setting up inception_4b/5x5_reduce
I0403 17:53:17.380264 15353 net.cpp:148] Top shape: 24 24 14 14 (112896)
I0403 17:53:17.380280 15353 net.cpp:156] Memory required for data: 965320992
I0403 17:53:17.380298 15353 layer_factory.hpp:77] Creating layer inception_4b/relu_5x5_reduce
I0403 17:53:17.380317 15353 net.cpp:91] Creating Layer inception_4b/relu_5x5_reduce
I0403 17:53:17.380347 15353 net.cpp:425] inception_4b/relu_5x5_reduce <- inception_4b/5x5_reduce
I0403 17:53:17.380368 15353 net.cpp:386] inception_4b/relu_5x5_reduce -> inception_4b/5x5_reduce (in-place)
I0403 17:53:17.380551 15353 net.cpp:141] Setting up inception_4b/relu_5x5_reduce
I0403 17:53:17.380576 15353 net.cpp:148] Top shape: 24 24 14 14 (112896)
I0403 17:53:17.380590 15353 net.cpp:156] Memory required for data: 965772576
I0403 17:53:17.380605 15353 layer_factory.hpp:77] Creating layer inception_4b/5x5
I0403 17:53:17.380627 15353 net.cpp:91] Creating Layer inception_4b/5x5
I0403 17:53:17.380645 15353 net.cpp:425] inception_4b/5x5 <- inception_4b/5x5_reduce
I0403 17:53:17.380666 15353 net.cpp:399] inception_4b/5x5 -> inception_4b/5x5
I0403 17:53:17.381880 15353 net.cpp:141] Setting up inception_4b/5x5
I0403 17:53:17.381907 15353 net.cpp:148] Top shape: 24 64 14 14 (301056)
I0403 17:53:17.381924 15353 net.cpp:156] Memory required for data: 966976800
I0403 17:53:17.381944 15353 layer_factory.hpp:77] Creating layer inception_4b/relu_5x5
I0403 17:53:17.381963 15353 net.cpp:91] Creating Layer inception_4b/relu_5x5
I0403 17:53:17.381983 15353 net.cpp:425] inception_4b/relu_5x5 <- inception_4b/5x5
I0403 17:53:17.382002 15353 net.cpp:386] inception_4b/relu_5x5 -> inception_4b/5x5 (in-place)
I0403 17:53:17.382307 15353 net.cpp:141] Setting up inception_4b/relu_5x5
I0403 17:53:17.382349 15353 net.cpp:148] Top shape: 24 64 14 14 (301056)
I0403 17:53:17.382366 15353 net.cpp:156] Memory required for data: 968181024
I0403 17:53:17.382381 15353 layer_factory.hpp:77] Creating layer inception_4b/pool
I0403 17:53:17.382400 15353 net.cpp:91] Creating Layer inception_4b/pool
I0403 17:53:17.382416 15353 net.cpp:425] inception_4b/pool <- inception_4a/output_inception_4a/output_0_split_4
I0403 17:53:17.382437 15353 net.cpp:399] inception_4b/pool -> inception_4b/pool
I0403 17:53:17.382500 15353 net.cpp:141] Setting up inception_4b/pool
I0403 17:53:17.382524 15353 net.cpp:148] Top shape: 24 512 14 14 (2408448)
I0403 17:53:17.382539 15353 net.cpp:156] Memory required for data: 977814816
I0403 17:53:17.382552 15353 layer_factory.hpp:77] Creating layer inception_4b/pool_proj
I0403 17:53:17.382575 15353 net.cpp:91] Creating Layer inception_4b/pool_proj
I0403 17:53:17.382591 15353 net.cpp:425] inception_4b/pool_proj <- inception_4b/pool
I0403 17:53:17.382612 15353 net.cpp:399] inception_4b/pool_proj -> inception_4b/pool_proj
I0403 17:53:17.383805 15353 net.cpp:141] Setting up inception_4b/pool_proj
I0403 17:53:17.383833 15353 net.cpp:148] Top shape: 24 64 14 14 (301056)
I0403 17:53:17.383849 15353 net.cpp:156] Memory required for data: 979019040
I0403 17:53:17.383868 15353 layer_factory.hpp:77] Creating layer inception_4b/relu_pool_proj
I0403 17:53:17.383885 15353 net.cpp:91] Creating Layer inception_4b/relu_pool_proj
I0403 17:53:17.383901 15353 net.cpp:425] inception_4b/relu_pool_proj <- inception_4b/pool_proj
I0403 17:53:17.383920 15353 net.cpp:386] inception_4b/relu_pool_proj -> inception_4b/pool_proj (in-place)
I0403 17:53:17.384104 15353 net.cpp:141] Setting up inception_4b/relu_pool_proj
I0403 17:53:17.384129 15353 net.cpp:148] Top shape: 24 64 14 14 (301056)
I0403 17:53:17.384143 15353 net.cpp:156] Memory required for data: 980223264
I0403 17:53:17.384158 15353 layer_factory.hpp:77] Creating layer inception_4b/output
I0403 17:53:17.384176 15353 net.cpp:91] Creating Layer inception_4b/output
I0403 17:53:17.384191 15353 net.cpp:425] inception_4b/output <- inception_4b/1x1
I0403 17:53:17.384207 15353 net.cpp:425] inception_4b/output <- inception_4b/3x3
I0403 17:53:17.384223 15353 net.cpp:425] inception_4b/output <- inception_4b/5x5
I0403 17:53:17.384239 15353 net.cpp:425] inception_4b/output <- inception_4b/pool_proj
I0403 17:53:17.384258 15353 net.cpp:399] inception_4b/output -> inception_4b/output
I0403 17:53:17.384304 15353 net.cpp:141] Setting up inception_4b/output
I0403 17:53:17.384328 15353 net.cpp:148] Top shape: 24 512 14 14 (2408448)
I0403 17:53:17.384343 15353 net.cpp:156] Memory required for data: 989857056
I0403 17:53:17.384373 15353 layer_factory.hpp:77] Creating layer inception_4b/output_inception_4b/output_0_split
I0403 17:53:17.384392 15353 net.cpp:91] Creating Layer inception_4b/output_inception_4b/output_0_split
I0403 17:53:17.384408 15353 net.cpp:425] inception_4b/output_inception_4b/output_0_split <- inception_4b/output
I0403 17:53:17.384426 15353 net.cpp:399] inception_4b/output_inception_4b/output_0_split -> inception_4b/output_inception_4b/output_0_split_0
I0403 17:53:17.384449 15353 net.cpp:399] inception_4b/output_inception_4b/output_0_split -> inception_4b/output_inception_4b/output_0_split_1
I0403 17:53:17.384469 15353 net.cpp:399] inception_4b/output_inception_4b/output_0_split -> inception_4b/output_inception_4b/output_0_split_2
I0403 17:53:17.384488 15353 net.cpp:399] inception_4b/output_inception_4b/output_0_split -> inception_4b/output_inception_4b/output_0_split_3
I0403 17:53:17.384572 15353 net.cpp:141] Setting up inception_4b/output_inception_4b/output_0_split
I0403 17:53:17.384594 15353 net.cpp:148] Top shape: 24 512 14 14 (2408448)
I0403 17:53:17.384611 15353 net.cpp:148] Top shape: 24 512 14 14 (2408448)
I0403 17:53:17.384626 15353 net.cpp:148] Top shape: 24 512 14 14 (2408448)
I0403 17:53:17.384641 15353 net.cpp:148] Top shape: 24 512 14 14 (2408448)
I0403 17:53:17.384654 15353 net.cpp:156] Memory required for data: 1028392224
I0403 17:53:17.384670 15353 layer_factory.hpp:77] Creating layer inception_4c/1x1
I0403 17:53:17.384692 15353 net.cpp:91] Creating Layer inception_4c/1x1
I0403 17:53:17.384709 15353 net.cpp:425] inception_4c/1x1 <- inception_4b/output_inception_4b/output_0_split_0
I0403 17:53:17.384727 15353 net.cpp:399] inception_4c/1x1 -> inception_4c/1x1
I0403 17:53:17.386211 15353 net.cpp:141] Setting up inception_4c/1x1
I0403 17:53:17.386240 15353 net.cpp:148] Top shape: 24 128 14 14 (602112)
I0403 17:53:17.386255 15353 net.cpp:156] Memory required for data: 1030800672
I0403 17:53:17.386273 15353 layer_factory.hpp:77] Creating layer inception_4c/relu_1x1
I0403 17:53:17.386294 15353 net.cpp:91] Creating Layer inception_4c/relu_1x1
I0403 17:53:17.386312 15353 net.cpp:425] inception_4c/relu_1x1 <- inception_4c/1x1
I0403 17:53:17.386329 15353 net.cpp:386] inception_4c/relu_1x1 -> inception_4c/1x1 (in-place)
I0403 17:53:17.386513 15353 net.cpp:141] Setting up inception_4c/relu_1x1
I0403 17:53:17.386538 15353 net.cpp:148] Top shape: 24 128 14 14 (602112)
I0403 17:53:17.386554 15353 net.cpp:156] Memory required for data: 1033209120
I0403 17:53:17.386569 15353 layer_factory.hpp:77] Creating layer inception_4c/3x3_reduce
I0403 17:53:17.386591 15353 net.cpp:91] Creating Layer inception_4c/3x3_reduce
I0403 17:53:17.386610 15353 net.cpp:425] inception_4c/3x3_reduce <- inception_4b/output_inception_4b/output_0_split_1
I0403 17:53:17.386631 15353 net.cpp:399] inception_4c/3x3_reduce -> inception_4c/3x3_reduce
I0403 17:53:17.388643 15353 net.cpp:141] Setting up inception_4c/3x3_reduce
I0403 17:53:17.388674 15353 net.cpp:148] Top shape: 24 128 14 14 (602112)
I0403 17:53:17.388691 15353 net.cpp:156] Memory required for data: 1035617568
I0403 17:53:17.388710 15353 layer_factory.hpp:77] Creating layer inception_4c/relu_3x3_reduce
I0403 17:53:17.388728 15353 net.cpp:91] Creating Layer inception_4c/relu_3x3_reduce
I0403 17:53:17.388744 15353 net.cpp:425] inception_4c/relu_3x3_reduce <- inception_4c/3x3_reduce
I0403 17:53:17.388762 15353 net.cpp:386] inception_4c/relu_3x3_reduce -> inception_4c/3x3_reduce (in-place)
I0403 17:53:17.389062 15353 net.cpp:141] Setting up inception_4c/relu_3x3_reduce
I0403 17:53:17.389091 15353 net.cpp:148] Top shape: 24 128 14 14 (602112)
I0403 17:53:17.389107 15353 net.cpp:156] Memory required for data: 1038026016
I0403 17:53:17.389123 15353 layer_factory.hpp:77] Creating layer inception_4c/3x3
I0403 17:53:17.389147 15353 net.cpp:91] Creating Layer inception_4c/3x3
I0403 17:53:17.389165 15353 net.cpp:425] inception_4c/3x3 <- inception_4c/3x3_reduce
I0403 17:53:17.389185 15353 net.cpp:399] inception_4c/3x3 -> inception_4c/3x3
I0403 17:53:17.392885 15353 net.cpp:141] Setting up inception_4c/3x3
I0403 17:53:17.392930 15353 net.cpp:148] Top shape: 24 256 14 14 (1204224)
I0403 17:53:17.392947 15353 net.cpp:156] Memory required for data: 1042842912
I0403 17:53:17.392984 15353 layer_factory.hpp:77] Creating layer inception_4c/relu_3x3
I0403 17:53:17.393007 15353 net.cpp:91] Creating Layer inception_4c/relu_3x3
I0403 17:53:17.393023 15353 net.cpp:425] inception_4c/relu_3x3 <- inception_4c/3x3
I0403 17:53:17.393043 15353 net.cpp:386] inception_4c/relu_3x3 -> inception_4c/3x3 (in-place)
I0403 17:53:17.393232 15353 net.cpp:141] Setting up inception_4c/relu_3x3
I0403 17:53:17.393260 15353 net.cpp:148] Top shape: 24 256 14 14 (1204224)
I0403 17:53:17.393275 15353 net.cpp:156] Memory required for data: 1047659808
I0403 17:53:17.393290 15353 layer_factory.hpp:77] Creating layer inception_4c/5x5_reduce
I0403 17:53:17.393316 15353 net.cpp:91] Creating Layer inception_4c/5x5_reduce
I0403 17:53:17.393333 15353 net.cpp:425] inception_4c/5x5_reduce <- inception_4b/output_inception_4b/output_0_split_2
I0403 17:53:17.393357 15353 net.cpp:399] inception_4c/5x5_reduce -> inception_4c/5x5_reduce
I0403 17:53:17.394461 15353 net.cpp:141] Setting up inception_4c/5x5_reduce
I0403 17:53:17.394491 15353 net.cpp:148] Top shape: 24 24 14 14 (112896)
I0403 17:53:17.394507 15353 net.cpp:156] Memory required for data: 1048111392
I0403 17:53:17.394526 15353 layer_factory.hpp:77] Creating layer inception_4c/relu_5x5_reduce
I0403 17:53:17.394543 15353 net.cpp:91] Creating Layer inception_4c/relu_5x5_reduce
I0403 17:53:17.394559 15353 net.cpp:425] inception_4c/relu_5x5_reduce <- inception_4c/5x5_reduce
I0403 17:53:17.394577 15353 net.cpp:386] inception_4c/relu_5x5_reduce -> inception_4c/5x5_reduce (in-place)
I0403 17:53:17.394762 15353 net.cpp:141] Setting up inception_4c/relu_5x5_reduce
I0403 17:53:17.394785 15353 net.cpp:148] Top shape: 24 24 14 14 (112896)
I0403 17:53:17.394800 15353 net.cpp:156] Memory required for data: 1048562976
I0403 17:53:17.394815 15353 layer_factory.hpp:77] Creating layer inception_4c/5x5
I0403 17:53:17.394837 15353 net.cpp:91] Creating Layer inception_4c/5x5
I0403 17:53:17.394855 15353 net.cpp:425] inception_4c/5x5 <- inception_4c/5x5_reduce
I0403 17:53:17.394876 15353 net.cpp:399] inception_4c/5x5 -> inception_4c/5x5
I0403 17:53:17.396126 15353 net.cpp:141] Setting up inception_4c/5x5
I0403 17:53:17.396152 15353 net.cpp:148] Top shape: 24 64 14 14 (301056)
I0403 17:53:17.396167 15353 net.cpp:156] Memory required for data: 1049767200
I0403 17:53:17.396185 15353 layer_factory.hpp:77] Creating layer inception_4c/relu_5x5
I0403 17:53:17.396203 15353 net.cpp:91] Creating Layer inception_4c/relu_5x5
I0403 17:53:17.396220 15353 net.cpp:425] inception_4c/relu_5x5 <- inception_4c/5x5
I0403 17:53:17.396239 15353 net.cpp:386] inception_4c/relu_5x5 -> inception_4c/5x5 (in-place)
I0403 17:53:17.396527 15353 net.cpp:141] Setting up inception_4c/relu_5x5
I0403 17:53:17.396553 15353 net.cpp:148] Top shape: 24 64 14 14 (301056)
I0403 17:53:17.396567 15353 net.cpp:156] Memory required for data: 1050971424
I0403 17:53:17.396582 15353 layer_factory.hpp:77] Creating layer inception_4c/pool
I0403 17:53:17.396600 15353 net.cpp:91] Creating Layer inception_4c/pool
I0403 17:53:17.396617 15353 net.cpp:425] inception_4c/pool <- inception_4b/output_inception_4b/output_0_split_3
I0403 17:53:17.396637 15353 net.cpp:399] inception_4c/pool -> inception_4c/pool
I0403 17:53:17.396703 15353 net.cpp:141] Setting up inception_4c/pool
I0403 17:53:17.396728 15353 net.cpp:148] Top shape: 24 512 14 14 (2408448)
I0403 17:53:17.396742 15353 net.cpp:156] Memory required for data: 1060605216
I0403 17:53:17.396756 15353 layer_factory.hpp:77] Creating layer inception_4c/pool_proj
I0403 17:53:17.396780 15353 net.cpp:91] Creating Layer inception_4c/pool_proj
I0403 17:53:17.396797 15353 net.cpp:425] inception_4c/pool_proj <- inception_4c/pool
I0403 17:53:17.396816 15353 net.cpp:399] inception_4c/pool_proj -> inception_4c/pool_proj
I0403 17:53:17.398047 15353 net.cpp:141] Setting up inception_4c/pool_proj
I0403 17:53:17.398079 15353 net.cpp:148] Top shape: 24 64 14 14 (301056)
I0403 17:53:17.398108 15353 net.cpp:156] Memory required for data: 1061809440
I0403 17:53:17.398128 15353 layer_factory.hpp:77] Creating layer inception_4c/relu_pool_proj
I0403 17:53:17.398145 15353 net.cpp:91] Creating Layer inception_4c/relu_pool_proj
I0403 17:53:17.398161 15353 net.cpp:425] inception_4c/relu_pool_proj <- inception_4c/pool_proj
I0403 17:53:17.398181 15353 net.cpp:386] inception_4c/relu_pool_proj -> inception_4c/pool_proj (in-place)
I0403 17:53:17.398362 15353 net.cpp:141] Setting up inception_4c/relu_pool_proj
I0403 17:53:17.398387 15353 net.cpp:148] Top shape: 24 64 14 14 (301056)
I0403 17:53:17.398402 15353 net.cpp:156] Memory required for data: 1063013664
I0403 17:53:17.398416 15353 layer_factory.hpp:77] Creating layer inception_4c/output
I0403 17:53:17.398433 15353 net.cpp:91] Creating Layer inception_4c/output
I0403 17:53:17.398449 15353 net.cpp:425] inception_4c/output <- inception_4c/1x1
I0403 17:53:17.398466 15353 net.cpp:425] inception_4c/output <- inception_4c/3x3
I0403 17:53:17.398481 15353 net.cpp:425] inception_4c/output <- inception_4c/5x5
I0403 17:53:17.398497 15353 net.cpp:425] inception_4c/output <- inception_4c/pool_proj
I0403 17:53:17.398515 15353 net.cpp:399] inception_4c/output -> inception_4c/output
I0403 17:53:17.398561 15353 net.cpp:141] Setting up inception_4c/output
I0403 17:53:17.398587 15353 net.cpp:148] Top shape: 24 512 14 14 (2408448)
I0403 17:53:17.398602 15353 net.cpp:156] Memory required for data: 1072647456
I0403 17:53:17.398617 15353 layer_factory.hpp:77] Creating layer inception_4c/output_inception_4c/output_0_split
I0403 17:53:17.398633 15353 net.cpp:91] Creating Layer inception_4c/output_inception_4c/output_0_split
I0403 17:53:17.398649 15353 net.cpp:425] inception_4c/output_inception_4c/output_0_split <- inception_4c/output
I0403 17:53:17.398666 15353 net.cpp:399] inception_4c/output_inception_4c/output_0_split -> inception_4c/output_inception_4c/output_0_split_0
I0403 17:53:17.398687 15353 net.cpp:399] inception_4c/output_inception_4c/output_0_split -> inception_4c/output_inception_4c/output_0_split_1
I0403 17:53:17.398708 15353 net.cpp:399] inception_4c/output_inception_4c/output_0_split -> inception_4c/output_inception_4c/output_0_split_2
I0403 17:53:17.398727 15353 net.cpp:399] inception_4c/output_inception_4c/output_0_split -> inception_4c/output_inception_4c/output_0_split_3
I0403 17:53:17.398813 15353 net.cpp:141] Setting up inception_4c/output_inception_4c/output_0_split
I0403 17:53:17.398836 15353 net.cpp:148] Top shape: 24 512 14 14 (2408448)
I0403 17:53:17.398854 15353 net.cpp:148] Top shape: 24 512 14 14 (2408448)
I0403 17:53:17.398869 15353 net.cpp:148] Top shape: 24 512 14 14 (2408448)
I0403 17:53:17.398885 15353 net.cpp:148] Top shape: 24 512 14 14 (2408448)
I0403 17:53:17.398898 15353 net.cpp:156] Memory required for data: 1111182624
I0403 17:53:17.398912 15353 layer_factory.hpp:77] Creating layer inception_4d/1x1
I0403 17:53:17.398936 15353 net.cpp:91] Creating Layer inception_4d/1x1
I0403 17:53:17.398954 15353 net.cpp:425] inception_4d/1x1 <- inception_4c/output_inception_4c/output_0_split_0
I0403 17:53:17.398972 15353 net.cpp:399] inception_4d/1x1 -> inception_4d/1x1
I0403 17:53:17.400360 15353 net.cpp:141] Setting up inception_4d/1x1
I0403 17:53:17.400388 15353 net.cpp:148] Top shape: 24 112 14 14 (526848)
I0403 17:53:17.400403 15353 net.cpp:156] Memory required for data: 1113290016
I0403 17:53:17.400423 15353 layer_factory.hpp:77] Creating layer inception_4d/relu_1x1
I0403 17:53:17.400442 15353 net.cpp:91] Creating Layer inception_4d/relu_1x1
I0403 17:53:17.400460 15353 net.cpp:425] inception_4d/relu_1x1 <- inception_4d/1x1
I0403 17:53:17.400476 15353 net.cpp:386] inception_4d/relu_1x1 -> inception_4d/1x1 (in-place)
I0403 17:53:17.400657 15353 net.cpp:141] Setting up inception_4d/relu_1x1
I0403 17:53:17.400683 15353 net.cpp:148] Top shape: 24 112 14 14 (526848)
I0403 17:53:17.400699 15353 net.cpp:156] Memory required for data: 1115397408
I0403 17:53:17.400714 15353 layer_factory.hpp:77] Creating layer inception_4d/3x3_reduce
I0403 17:53:17.400749 15353 net.cpp:91] Creating Layer inception_4d/3x3_reduce
I0403 17:53:17.400768 15353 net.cpp:425] inception_4d/3x3_reduce <- inception_4c/output_inception_4c/output_0_split_1
I0403 17:53:17.400787 15353 net.cpp:399] inception_4d/3x3_reduce -> inception_4d/3x3_reduce
I0403 17:53:17.402308 15353 net.cpp:141] Setting up inception_4d/3x3_reduce
I0403 17:53:17.402335 15353 net.cpp:148] Top shape: 24 144 14 14 (677376)
I0403 17:53:17.402351 15353 net.cpp:156] Memory required for data: 1118106912
I0403 17:53:17.402369 15353 layer_factory.hpp:77] Creating layer inception_4d/relu_3x3_reduce
I0403 17:53:17.402390 15353 net.cpp:91] Creating Layer inception_4d/relu_3x3_reduce
I0403 17:53:17.402406 15353 net.cpp:425] inception_4d/relu_3x3_reduce <- inception_4d/3x3_reduce
I0403 17:53:17.402425 15353 net.cpp:386] inception_4d/relu_3x3_reduce -> inception_4d/3x3_reduce (in-place)
I0403 17:53:17.402719 15353 net.cpp:141] Setting up inception_4d/relu_3x3_reduce
I0403 17:53:17.402745 15353 net.cpp:148] Top shape: 24 144 14 14 (677376)
I0403 17:53:17.402760 15353 net.cpp:156] Memory required for data: 1120816416
I0403 17:53:17.402775 15353 layer_factory.hpp:77] Creating layer inception_4d/3x3
I0403 17:53:17.402797 15353 net.cpp:91] Creating Layer inception_4d/3x3
I0403 17:53:17.402814 15353 net.cpp:425] inception_4d/3x3 <- inception_4d/3x3_reduce
I0403 17:53:17.402835 15353 net.cpp:399] inception_4d/3x3 -> inception_4d/3x3
I0403 17:53:17.407029 15353 net.cpp:141] Setting up inception_4d/3x3
I0403 17:53:17.407057 15353 net.cpp:148] Top shape: 24 288 14 14 (1354752)
I0403 17:53:17.407071 15353 net.cpp:156] Memory required for data: 1126235424
I0403 17:53:17.407089 15353 layer_factory.hpp:77] Creating layer inception_4d/relu_3x3
I0403 17:53:17.407109 15353 net.cpp:91] Creating Layer inception_4d/relu_3x3
I0403 17:53:17.407125 15353 net.cpp:425] inception_4d/relu_3x3 <- inception_4d/3x3
I0403 17:53:17.407142 15353 net.cpp:386] inception_4d/relu_3x3 -> inception_4d/3x3 (in-place)
I0403 17:53:17.407320 15353 net.cpp:141] Setting up inception_4d/relu_3x3
I0403 17:53:17.407346 15353 net.cpp:148] Top shape: 24 288 14 14 (1354752)
I0403 17:53:17.407361 15353 net.cpp:156] Memory required for data: 1131654432
I0403 17:53:17.407376 15353 layer_factory.hpp:77] Creating layer inception_4d/5x5_reduce
I0403 17:53:17.407397 15353 net.cpp:91] Creating Layer inception_4d/5x5_reduce
I0403 17:53:17.407414 15353 net.cpp:425] inception_4d/5x5_reduce <- inception_4c/output_inception_4c/output_0_split_2
I0403 17:53:17.407433 15353 net.cpp:399] inception_4d/5x5_reduce -> inception_4d/5x5_reduce
I0403 17:53:17.408586 15353 net.cpp:141] Setting up inception_4d/5x5_reduce
I0403 17:53:17.408613 15353 net.cpp:148] Top shape: 24 32 14 14 (150528)
I0403 17:53:17.408628 15353 net.cpp:156] Memory required for data: 1132256544
I0403 17:53:17.408645 15353 layer_factory.hpp:77] Creating layer inception_4d/relu_5x5_reduce
I0403 17:53:17.408665 15353 net.cpp:91] Creating Layer inception_4d/relu_5x5_reduce
I0403 17:53:17.408682 15353 net.cpp:425] inception_4d/relu_5x5_reduce <- inception_4d/5x5_reduce
I0403 17:53:17.408699 15353 net.cpp:386] inception_4d/relu_5x5_reduce -> inception_4d/5x5_reduce (in-place)
I0403 17:53:17.408882 15353 net.cpp:141] Setting up inception_4d/relu_5x5_reduce
I0403 17:53:17.408910 15353 net.cpp:148] Top shape: 24 32 14 14 (150528)
I0403 17:53:17.408926 15353 net.cpp:156] Memory required for data: 1132858656
I0403 17:53:17.408941 15353 layer_factory.hpp:77] Creating layer inception_4d/5x5
I0403 17:53:17.408962 15353 net.cpp:91] Creating Layer inception_4d/5x5
I0403 17:53:17.408983 15353 net.cpp:425] inception_4d/5x5 <- inception_4d/5x5_reduce
I0403 17:53:17.409003 15353 net.cpp:399] inception_4d/5x5 -> inception_4d/5x5
I0403 17:53:17.410440 15353 net.cpp:141] Setting up inception_4d/5x5
I0403 17:53:17.410467 15353 net.cpp:148] Top shape: 24 64 14 14 (301056)
I0403 17:53:17.410482 15353 net.cpp:156] Memory required for data: 1134062880
I0403 17:53:17.410501 15353 layer_factory.hpp:77] Creating layer inception_4d/relu_5x5
I0403 17:53:17.410533 15353 net.cpp:91] Creating Layer inception_4d/relu_5x5
I0403 17:53:17.410550 15353 net.cpp:425] inception_4d/relu_5x5 <- inception_4d/5x5
I0403 17:53:17.410569 15353 net.cpp:386] inception_4d/relu_5x5 -> inception_4d/5x5 (in-place)
I0403 17:53:17.410861 15353 net.cpp:141] Setting up inception_4d/relu_5x5
I0403 17:53:17.410887 15353 net.cpp:148] Top shape: 24 64 14 14 (301056)
I0403 17:53:17.410902 15353 net.cpp:156] Memory required for data: 1135267104
I0403 17:53:17.410917 15353 layer_factory.hpp:77] Creating layer inception_4d/pool
I0403 17:53:17.410933 15353 net.cpp:91] Creating Layer inception_4d/pool
I0403 17:53:17.410949 15353 net.cpp:425] inception_4d/pool <- inception_4c/output_inception_4c/output_0_split_3
I0403 17:53:17.410969 15353 net.cpp:399] inception_4d/pool -> inception_4d/pool
I0403 17:53:17.411038 15353 net.cpp:141] Setting up inception_4d/pool
I0403 17:53:17.411062 15353 net.cpp:148] Top shape: 24 512 14 14 (2408448)
I0403 17:53:17.411075 15353 net.cpp:156] Memory required for data: 1144900896
I0403 17:53:17.411089 15353 layer_factory.hpp:77] Creating layer inception_4d/pool_proj
I0403 17:53:17.411113 15353 net.cpp:91] Creating Layer inception_4d/pool_proj
I0403 17:53:17.411129 15353 net.cpp:425] inception_4d/pool_proj <- inception_4d/pool
I0403 17:53:17.411149 15353 net.cpp:399] inception_4d/pool_proj -> inception_4d/pool_proj
I0403 17:53:17.412854 15353 net.cpp:141] Setting up inception_4d/pool_proj
I0403 17:53:17.412883 15353 net.cpp:148] Top shape: 24 64 14 14 (301056)
I0403 17:53:17.412899 15353 net.cpp:156] Memory required for data: 1146105120
I0403 17:53:17.412916 15353 layer_factory.hpp:77] Creating layer inception_4d/relu_pool_proj
I0403 17:53:17.412966 15353 net.cpp:91] Creating Layer inception_4d/relu_pool_proj
I0403 17:53:17.412987 15353 net.cpp:425] inception_4d/relu_pool_proj <- inception_4d/pool_proj
I0403 17:53:17.413005 15353 net.cpp:386] inception_4d/relu_pool_proj -> inception_4d/pool_proj (in-place)
I0403 17:53:17.413192 15353 net.cpp:141] Setting up inception_4d/relu_pool_proj
I0403 17:53:17.413230 15353 net.cpp:148] Top shape: 24 64 14 14 (301056)
I0403 17:53:17.413245 15353 net.cpp:156] Memory required for data: 1147309344
I0403 17:53:17.413260 15353 layer_factory.hpp:77] Creating layer inception_4d/output
I0403 17:53:17.413277 15353 net.cpp:91] Creating Layer inception_4d/output
I0403 17:53:17.413292 15353 net.cpp:425] inception_4d/output <- inception_4d/1x1
I0403 17:53:17.413308 15353 net.cpp:425] inception_4d/output <- inception_4d/3x3
I0403 17:53:17.413323 15353 net.cpp:425] inception_4d/output <- inception_4d/5x5
I0403 17:53:17.413338 15353 net.cpp:425] inception_4d/output <- inception_4d/pool_proj
I0403 17:53:17.413357 15353 net.cpp:399] inception_4d/output -> inception_4d/output
I0403 17:53:17.413403 15353 net.cpp:141] Setting up inception_4d/output
I0403 17:53:17.413426 15353 net.cpp:148] Top shape: 24 528 14 14 (2483712)
I0403 17:53:17.413441 15353 net.cpp:156] Memory required for data: 1157244192
I0403 17:53:17.413455 15353 layer_factory.hpp:77] Creating layer inception_4d/output_inception_4d/output_0_split
I0403 17:53:17.413475 15353 net.cpp:91] Creating Layer inception_4d/output_inception_4d/output_0_split
I0403 17:53:17.413491 15353 net.cpp:425] inception_4d/output_inception_4d/output_0_split <- inception_4d/output
I0403 17:53:17.413508 15353 net.cpp:399] inception_4d/output_inception_4d/output_0_split -> inception_4d/output_inception_4d/output_0_split_0
I0403 17:53:17.413532 15353 net.cpp:399] inception_4d/output_inception_4d/output_0_split -> inception_4d/output_inception_4d/output_0_split_1
I0403 17:53:17.413553 15353 net.cpp:399] inception_4d/output_inception_4d/output_0_split -> inception_4d/output_inception_4d/output_0_split_2
I0403 17:53:17.413573 15353 net.cpp:399] inception_4d/output_inception_4d/output_0_split -> inception_4d/output_inception_4d/output_0_split_3
I0403 17:53:17.413594 15353 net.cpp:399] inception_4d/output_inception_4d/output_0_split -> inception_4d/output_inception_4d/output_0_split_4
I0403 17:53:17.413691 15353 net.cpp:141] Setting up inception_4d/output_inception_4d/output_0_split
I0403 17:53:17.413725 15353 net.cpp:148] Top shape: 24 528 14 14 (2483712)
I0403 17:53:17.413741 15353 net.cpp:148] Top shape: 24 528 14 14 (2483712)
I0403 17:53:17.413756 15353 net.cpp:148] Top shape: 24 528 14 14 (2483712)
I0403 17:53:17.413771 15353 net.cpp:148] Top shape: 24 528 14 14 (2483712)
I0403 17:53:17.413786 15353 net.cpp:148] Top shape: 24 528 14 14 (2483712)
I0403 17:53:17.413800 15353 net.cpp:156] Memory required for data: 1206918432
I0403 17:53:17.413813 15353 layer_factory.hpp:77] Creating layer loss2/ave_pool
I0403 17:53:17.413833 15353 net.cpp:91] Creating Layer loss2/ave_pool
I0403 17:53:17.413849 15353 net.cpp:425] loss2/ave_pool <- inception_4d/output_inception_4d/output_0_split_0
I0403 17:53:17.413866 15353 net.cpp:399] loss2/ave_pool -> loss2/ave_pool
I0403 17:53:17.414172 15353 net.cpp:141] Setting up loss2/ave_pool
I0403 17:53:17.414197 15353 net.cpp:148] Top shape: 24 528 4 4 (202752)
I0403 17:53:17.414216 15353 net.cpp:156] Memory required for data: 1207729440
I0403 17:53:17.414230 15353 layer_factory.hpp:77] Creating layer loss2/conv
I0403 17:53:17.414249 15353 net.cpp:91] Creating Layer loss2/conv
I0403 17:53:17.414265 15353 net.cpp:425] loss2/conv <- loss2/ave_pool
I0403 17:53:17.414286 15353 net.cpp:399] loss2/conv -> loss2/conv
I0403 17:53:17.416137 15353 net.cpp:141] Setting up loss2/conv
I0403 17:53:17.416167 15353 net.cpp:148] Top shape: 24 128 4 4 (49152)
I0403 17:53:17.416182 15353 net.cpp:156] Memory required for data: 1207926048
I0403 17:53:17.416200 15353 layer_factory.hpp:77] Creating layer loss2/relu_conv
I0403 17:53:17.416218 15353 net.cpp:91] Creating Layer loss2/relu_conv
I0403 17:53:17.416235 15353 net.cpp:425] loss2/relu_conv <- loss2/conv
I0403 17:53:17.416254 15353 net.cpp:386] loss2/relu_conv -> loss2/conv (in-place)
I0403 17:53:17.416532 15353 net.cpp:141] Setting up loss2/relu_conv
I0403 17:53:17.416560 15353 net.cpp:148] Top shape: 24 128 4 4 (49152)
I0403 17:53:17.416575 15353 net.cpp:156] Memory required for data: 1208122656
I0403 17:53:17.416590 15353 layer_factory.hpp:77] Creating layer loss2/fc
I0403 17:53:17.416609 15353 net.cpp:91] Creating Layer loss2/fc
I0403 17:53:17.416625 15353 net.cpp:425] loss2/fc <- loss2/conv
I0403 17:53:17.416646 15353 net.cpp:399] loss2/fc -> loss2/fc
I0403 17:53:17.433770 15353 net.cpp:141] Setting up loss2/fc
I0403 17:53:17.433804 15353 net.cpp:148] Top shape: 24 1024 (24576)
I0403 17:53:17.433820 15353 net.cpp:156] Memory required for data: 1208220960
I0403 17:53:17.433837 15353 layer_factory.hpp:77] Creating layer loss2/relu_fc
I0403 17:53:17.433857 15353 net.cpp:91] Creating Layer loss2/relu_fc
I0403 17:53:17.433873 15353 net.cpp:425] loss2/relu_fc <- loss2/fc
I0403 17:53:17.433890 15353 net.cpp:386] loss2/relu_fc -> loss2/fc (in-place)
I0403 17:53:17.434180 15353 net.cpp:141] Setting up loss2/relu_fc
I0403 17:53:17.434206 15353 net.cpp:148] Top shape: 24 1024 (24576)
I0403 17:53:17.434221 15353 net.cpp:156] Memory required for data: 1208319264
I0403 17:53:17.434236 15353 layer_factory.hpp:77] Creating layer loss2/drop_fc
I0403 17:53:17.434254 15353 net.cpp:91] Creating Layer loss2/drop_fc
I0403 17:53:17.434270 15353 net.cpp:425] loss2/drop_fc <- loss2/fc
I0403 17:53:17.434288 15353 net.cpp:386] loss2/drop_fc -> loss2/fc (in-place)
I0403 17:53:17.434339 15353 net.cpp:141] Setting up loss2/drop_fc
I0403 17:53:17.434361 15353 net.cpp:148] Top shape: 24 1024 (24576)
I0403 17:53:17.434376 15353 net.cpp:156] Memory required for data: 1208417568
I0403 17:53:17.434389 15353 layer_factory.hpp:77] Creating layer loss2/classifier_plantvillage
I0403 17:53:17.434409 15353 net.cpp:91] Creating Layer loss2/classifier_plantvillage
I0403 17:53:17.434427 15353 net.cpp:425] loss2/classifier_plantvillage <- loss2/fc
I0403 17:53:17.434444 15353 net.cpp:399] loss2/classifier_plantvillage -> loss2/classifier_plantvillage
I0403 17:53:17.434834 15353 net.cpp:141] Setting up loss2/classifier_plantvillage
I0403 17:53:17.434859 15353 net.cpp:148] Top shape: 24 38 (912)
I0403 17:53:17.434888 15353 net.cpp:156] Memory required for data: 1208421216
I0403 17:53:17.434907 15353 layer_factory.hpp:77] Creating layer loss2/classifier_plantvillage_loss2/classifier_plantvillage_0_split
I0403 17:53:17.434926 15353 net.cpp:91] Creating Layer loss2/classifier_plantvillage_loss2/classifier_plantvillage_0_split
I0403 17:53:17.434942 15353 net.cpp:425] loss2/classifier_plantvillage_loss2/classifier_plantvillage_0_split <- loss2/classifier_plantvillage
I0403 17:53:17.434960 15353 net.cpp:399] loss2/classifier_plantvillage_loss2/classifier_plantvillage_0_split -> loss2/classifier_plantvillage_loss2/classifier_plantvillage_0_split_0
I0403 17:53:17.434985 15353 net.cpp:399] loss2/classifier_plantvillage_loss2/classifier_plantvillage_0_split -> loss2/classifier_plantvillage_loss2/classifier_plantvillage_0_split_1
I0403 17:53:17.435006 15353 net.cpp:399] loss2/classifier_plantvillage_loss2/classifier_plantvillage_0_split -> loss2/classifier_plantvillage_loss2/classifier_plantvillage_0_split_2
I0403 17:53:17.435081 15353 net.cpp:141] Setting up loss2/classifier_plantvillage_loss2/classifier_plantvillage_0_split
I0403 17:53:17.435106 15353 net.cpp:148] Top shape: 24 38 (912)
I0403 17:53:17.435122 15353 net.cpp:148] Top shape: 24 38 (912)
I0403 17:53:17.435137 15353 net.cpp:148] Top shape: 24 38 (912)
I0403 17:53:17.435149 15353 net.cpp:156] Memory required for data: 1208432160
I0403 17:53:17.435176 15353 layer_factory.hpp:77] Creating layer inception_4e/1x1
I0403 17:53:17.435196 15353 net.cpp:91] Creating Layer inception_4e/1x1
I0403 17:53:17.435214 15353 net.cpp:425] inception_4e/1x1 <- inception_4d/output_inception_4d/output_0_split_1
I0403 17:53:17.435232 15353 net.cpp:399] inception_4e/1x1 -> inception_4e/1x1
I0403 17:53:17.437069 15353 net.cpp:141] Setting up inception_4e/1x1
I0403 17:53:17.437096 15353 net.cpp:148] Top shape: 24 256 14 14 (1204224)
I0403 17:53:17.437113 15353 net.cpp:156] Memory required for data: 1213249056
I0403 17:53:17.437130 15353 layer_factory.hpp:77] Creating layer inception_4e/relu_1x1
I0403 17:53:17.437147 15353 net.cpp:91] Creating Layer inception_4e/relu_1x1
I0403 17:53:17.437163 15353 net.cpp:425] inception_4e/relu_1x1 <- inception_4e/1x1
I0403 17:53:17.437183 15353 net.cpp:386] inception_4e/relu_1x1 -> inception_4e/1x1 (in-place)
I0403 17:53:17.437477 15353 net.cpp:141] Setting up inception_4e/relu_1x1
I0403 17:53:17.437504 15353 net.cpp:148] Top shape: 24 256 14 14 (1204224)
I0403 17:53:17.437518 15353 net.cpp:156] Memory required for data: 1218065952
I0403 17:53:17.437535 15353 layer_factory.hpp:77] Creating layer inception_4e/3x3_reduce
I0403 17:53:17.437556 15353 net.cpp:91] Creating Layer inception_4e/3x3_reduce
I0403 17:53:17.437574 15353 net.cpp:425] inception_4e/3x3_reduce <- inception_4d/output_inception_4d/output_0_split_2
I0403 17:53:17.437595 15353 net.cpp:399] inception_4e/3x3_reduce -> inception_4e/3x3_reduce
I0403 17:53:17.439723 15353 net.cpp:141] Setting up inception_4e/3x3_reduce
I0403 17:53:17.439754 15353 net.cpp:148] Top shape: 24 160 14 14 (752640)
I0403 17:53:17.439770 15353 net.cpp:156] Memory required for data: 1221076512
I0403 17:53:17.439788 15353 layer_factory.hpp:77] Creating layer inception_4e/relu_3x3_reduce
I0403 17:53:17.439806 15353 net.cpp:91] Creating Layer inception_4e/relu_3x3_reduce
I0403 17:53:17.439823 15353 net.cpp:425] inception_4e/relu_3x3_reduce <- inception_4e/3x3_reduce
I0403 17:53:17.439842 15353 net.cpp:386] inception_4e/relu_3x3_reduce -> inception_4e/3x3_reduce (in-place)
I0403 17:53:17.440033 15353 net.cpp:141] Setting up inception_4e/relu_3x3_reduce
I0403 17:53:17.440058 15353 net.cpp:148] Top shape: 24 160 14 14 (752640)
I0403 17:53:17.440073 15353 net.cpp:156] Memory required for data: 1224087072
I0403 17:53:17.440088 15353 layer_factory.hpp:77] Creating layer inception_4e/3x3
I0403 17:53:17.440109 15353 net.cpp:91] Creating Layer inception_4e/3x3
I0403 17:53:17.440127 15353 net.cpp:425] inception_4e/3x3 <- inception_4e/3x3_reduce
I0403 17:53:17.440150 15353 net.cpp:399] inception_4e/3x3 -> inception_4e/3x3
I0403 17:53:17.445165 15353 net.cpp:141] Setting up inception_4e/3x3
I0403 17:53:17.445205 15353 net.cpp:148] Top shape: 24 320 14 14 (1505280)
I0403 17:53:17.445222 15353 net.cpp:156] Memory required for data: 1230108192
I0403 17:53:17.445240 15353 layer_factory.hpp:77] Creating layer inception_4e/relu_3x3
I0403 17:53:17.445261 15353 net.cpp:91] Creating Layer inception_4e/relu_3x3
I0403 17:53:17.445277 15353 net.cpp:425] inception_4e/relu_3x3 <- inception_4e/3x3
I0403 17:53:17.445296 15353 net.cpp:386] inception_4e/relu_3x3 -> inception_4e/3x3 (in-place)
I0403 17:53:17.445593 15353 net.cpp:141] Setting up inception_4e/relu_3x3
I0403 17:53:17.445619 15353 net.cpp:148] Top shape: 24 320 14 14 (1505280)
I0403 17:53:17.445636 15353 net.cpp:156] Memory required for data: 1236129312
I0403 17:53:17.445650 15353 layer_factory.hpp:77] Creating layer inception_4e/5x5_reduce
I0403 17:53:17.445674 15353 net.cpp:91] Creating Layer inception_4e/5x5_reduce
I0403 17:53:17.445693 15353 net.cpp:425] inception_4e/5x5_reduce <- inception_4d/output_inception_4d/output_0_split_3
I0403 17:53:17.445714 15353 net.cpp:399] inception_4e/5x5_reduce -> inception_4e/5x5_reduce
I0403 17:53:17.446795 15353 net.cpp:141] Setting up inception_4e/5x5_reduce
I0403 17:53:17.446822 15353 net.cpp:148] Top shape: 24 32 14 14 (150528)
I0403 17:53:17.446838 15353 net.cpp:156] Memory required for data: 1236731424
I0403 17:53:17.446856 15353 layer_factory.hpp:77] Creating layer inception_4e/relu_5x5_reduce
I0403 17:53:17.446876 15353 net.cpp:91] Creating Layer inception_4e/relu_5x5_reduce
I0403 17:53:17.446892 15353 net.cpp:425] inception_4e/relu_5x5_reduce <- inception_4e/5x5_reduce
I0403 17:53:17.446910 15353 net.cpp:386] inception_4e/relu_5x5_reduce -> inception_4e/5x5_reduce (in-place)
I0403 17:53:17.447213 15353 net.cpp:141] Setting up inception_4e/relu_5x5_reduce
I0403 17:53:17.447240 15353 net.cpp:148] Top shape: 24 32 14 14 (150528)
I0403 17:53:17.447254 15353 net.cpp:156] Memory required for data: 1237333536
I0403 17:53:17.447269 15353 layer_factory.hpp:77] Creating layer inception_4e/5x5
I0403 17:53:17.447306 15353 net.cpp:91] Creating Layer inception_4e/5x5
I0403 17:53:17.447325 15353 net.cpp:425] inception_4e/5x5 <- inception_4e/5x5_reduce
I0403 17:53:17.447345 15353 net.cpp:399] inception_4e/5x5 -> inception_4e/5x5
I0403 17:53:17.449218 15353 net.cpp:141] Setting up inception_4e/5x5
I0403 17:53:17.449249 15353 net.cpp:148] Top shape: 24 128 14 14 (602112)
I0403 17:53:17.449265 15353 net.cpp:156] Memory required for data: 1239741984
I0403 17:53:17.449285 15353 layer_factory.hpp:77] Creating layer inception_4e/relu_5x5
I0403 17:53:17.449301 15353 net.cpp:91] Creating Layer inception_4e/relu_5x5
I0403 17:53:17.449317 15353 net.cpp:425] inception_4e/relu_5x5 <- inception_4e/5x5
I0403 17:53:17.449336 15353 net.cpp:386] inception_4e/relu_5x5 -> inception_4e/5x5 (in-place)
I0403 17:53:17.449537 15353 net.cpp:141] Setting up inception_4e/relu_5x5
I0403 17:53:17.449561 15353 net.cpp:148] Top shape: 24 128 14 14 (602112)
I0403 17:53:17.449576 15353 net.cpp:156] Memory required for data: 1242150432
I0403 17:53:17.449591 15353 layer_factory.hpp:77] Creating layer inception_4e/pool
I0403 17:53:17.449609 15353 net.cpp:91] Creating Layer inception_4e/pool
I0403 17:53:17.449625 15353 net.cpp:425] inception_4e/pool <- inception_4d/output_inception_4d/output_0_split_4
I0403 17:53:17.449645 15353 net.cpp:399] inception_4e/pool -> inception_4e/pool
I0403 17:53:17.449715 15353 net.cpp:141] Setting up inception_4e/pool
I0403 17:53:17.449741 15353 net.cpp:148] Top shape: 24 528 14 14 (2483712)
I0403 17:53:17.449756 15353 net.cpp:156] Memory required for data: 1252085280
I0403 17:53:17.449771 15353 layer_factory.hpp:77] Creating layer inception_4e/pool_proj
I0403 17:53:17.449793 15353 net.cpp:91] Creating Layer inception_4e/pool_proj
I0403 17:53:17.449811 15353 net.cpp:425] inception_4e/pool_proj <- inception_4e/pool
I0403 17:53:17.449831 15353 net.cpp:399] inception_4e/pool_proj -> inception_4e/pool_proj
I0403 17:53:17.451342 15353 net.cpp:141] Setting up inception_4e/pool_proj
I0403 17:53:17.451381 15353 net.cpp:148] Top shape: 24 128 14 14 (602112)
I0403 17:53:17.451400 15353 net.cpp:156] Memory required for data: 1254493728
I0403 17:53:17.451418 15353 layer_factory.hpp:77] Creating layer inception_4e/relu_pool_proj
I0403 17:53:17.451436 15353 net.cpp:91] Creating Layer inception_4e/relu_pool_proj
I0403 17:53:17.451452 15353 net.cpp:425] inception_4e/relu_pool_proj <- inception_4e/pool_proj
I0403 17:53:17.451469 15353 net.cpp:386] inception_4e/relu_pool_proj -> inception_4e/pool_proj (in-place)
I0403 17:53:17.451763 15353 net.cpp:141] Setting up inception_4e/relu_pool_proj
I0403 17:53:17.451789 15353 net.cpp:148] Top shape: 24 128 14 14 (602112)
I0403 17:53:17.451807 15353 net.cpp:156] Memory required for data: 1256902176
I0403 17:53:17.451822 15353 layer_factory.hpp:77] Creating layer inception_4e/output
I0403 17:53:17.451841 15353 net.cpp:91] Creating Layer inception_4e/output
I0403 17:53:17.451856 15353 net.cpp:425] inception_4e/output <- inception_4e/1x1
I0403 17:53:17.451872 15353 net.cpp:425] inception_4e/output <- inception_4e/3x3
I0403 17:53:17.451889 15353 net.cpp:425] inception_4e/output <- inception_4e/5x5
I0403 17:53:17.451905 15353 net.cpp:425] inception_4e/output <- inception_4e/pool_proj
I0403 17:53:17.451922 15353 net.cpp:399] inception_4e/output -> inception_4e/output
I0403 17:53:17.452004 15353 net.cpp:141] Setting up inception_4e/output
I0403 17:53:17.452029 15353 net.cpp:148] Top shape: 24 832 14 14 (3913728)
I0403 17:53:17.452044 15353 net.cpp:156] Memory required for data: 1272557088
I0403 17:53:17.452059 15353 layer_factory.hpp:77] Creating layer pool4/3x3_s2
I0403 17:53:17.452080 15353 net.cpp:91] Creating Layer pool4/3x3_s2
I0403 17:53:17.452096 15353 net.cpp:425] pool4/3x3_s2 <- inception_4e/output
I0403 17:53:17.452114 15353 net.cpp:399] pool4/3x3_s2 -> pool4/3x3_s2
I0403 17:53:17.452183 15353 net.cpp:141] Setting up pool4/3x3_s2
I0403 17:53:17.452206 15353 net.cpp:148] Top shape: 24 832 7 7 (978432)
I0403 17:53:17.452221 15353 net.cpp:156] Memory required for data: 1276470816
I0403 17:53:17.452236 15353 layer_factory.hpp:77] Creating layer pool4/3x3_s2_pool4/3x3_s2_0_split
I0403 17:53:17.452253 15353 net.cpp:91] Creating Layer pool4/3x3_s2_pool4/3x3_s2_0_split
I0403 17:53:17.452270 15353 net.cpp:425] pool4/3x3_s2_pool4/3x3_s2_0_split <- pool4/3x3_s2
I0403 17:53:17.452291 15353 net.cpp:399] pool4/3x3_s2_pool4/3x3_s2_0_split -> pool4/3x3_s2_pool4/3x3_s2_0_split_0
I0403 17:53:17.452312 15353 net.cpp:399] pool4/3x3_s2_pool4/3x3_s2_0_split -> pool4/3x3_s2_pool4/3x3_s2_0_split_1
I0403 17:53:17.452333 15353 net.cpp:399] pool4/3x3_s2_pool4/3x3_s2_0_split -> pool4/3x3_s2_pool4/3x3_s2_0_split_2
I0403 17:53:17.452353 15353 net.cpp:399] pool4/3x3_s2_pool4/3x3_s2_0_split -> pool4/3x3_s2_pool4/3x3_s2_0_split_3
I0403 17:53:17.452445 15353 net.cpp:141] Setting up pool4/3x3_s2_pool4/3x3_s2_0_split
I0403 17:53:17.452467 15353 net.cpp:148] Top shape: 24 832 7 7 (978432)
I0403 17:53:17.452484 15353 net.cpp:148] Top shape: 24 832 7 7 (978432)
I0403 17:53:17.452509 15353 net.cpp:148] Top shape: 24 832 7 7 (978432)
I0403 17:53:17.452524 15353 net.cpp:148] Top shape: 24 832 7 7 (978432)
I0403 17:53:17.452538 15353 net.cpp:156] Memory required for data: 1292125728
I0403 17:53:17.452553 15353 layer_factory.hpp:77] Creating layer inception_5a/1x1
I0403 17:53:17.452576 15353 net.cpp:91] Creating Layer inception_5a/1x1
I0403 17:53:17.452594 15353 net.cpp:425] inception_5a/1x1 <- pool4/3x3_s2_pool4/3x3_s2_0_split_0
I0403 17:53:17.452613 15353 net.cpp:399] inception_5a/1x1 -> inception_5a/1x1
I0403 17:53:17.455425 15353 net.cpp:141] Setting up inception_5a/1x1
I0403 17:53:17.455453 15353 net.cpp:148] Top shape: 24 256 7 7 (301056)
I0403 17:53:17.455469 15353 net.cpp:156] Memory required for data: 1293329952
I0403 17:53:17.455487 15353 layer_factory.hpp:77] Creating layer inception_5a/relu_1x1
I0403 17:53:17.455504 15353 net.cpp:91] Creating Layer inception_5a/relu_1x1
I0403 17:53:17.455520 15353 net.cpp:425] inception_5a/relu_1x1 <- inception_5a/1x1
I0403 17:53:17.455539 15353 net.cpp:386] inception_5a/relu_1x1 -> inception_5a/1x1 (in-place)
I0403 17:53:17.455840 15353 net.cpp:141] Setting up inception_5a/relu_1x1
I0403 17:53:17.455868 15353 net.cpp:148] Top shape: 24 256 7 7 (301056)
I0403 17:53:17.455883 15353 net.cpp:156] Memory required for data: 1294534176
I0403 17:53:17.455898 15353 layer_factory.hpp:77] Creating layer inception_5a/3x3_reduce
I0403 17:53:17.455919 15353 net.cpp:91] Creating Layer inception_5a/3x3_reduce
I0403 17:53:17.455936 15353 net.cpp:425] inception_5a/3x3_reduce <- pool4/3x3_s2_pool4/3x3_s2_0_split_1
I0403 17:53:17.455955 15353 net.cpp:399] inception_5a/3x3_reduce -> inception_5a/3x3_reduce
I0403 17:53:17.458365 15353 net.cpp:141] Setting up inception_5a/3x3_reduce
I0403 17:53:17.458395 15353 net.cpp:148] Top shape: 24 160 7 7 (188160)
I0403 17:53:17.458410 15353 net.cpp:156] Memory required for data: 1295286816
I0403 17:53:17.458428 15353 layer_factory.hpp:77] Creating layer inception_5a/relu_3x3_reduce
I0403 17:53:17.458448 15353 net.cpp:91] Creating Layer inception_5a/relu_3x3_reduce
I0403 17:53:17.458464 15353 net.cpp:425] inception_5a/relu_3x3_reduce <- inception_5a/3x3_reduce
I0403 17:53:17.458482 15353 net.cpp:386] inception_5a/relu_3x3_reduce -> inception_5a/3x3_reduce (in-place)
I0403 17:53:17.458662 15353 net.cpp:141] Setting up inception_5a/relu_3x3_reduce
I0403 17:53:17.458688 15353 net.cpp:148] Top shape: 24 160 7 7 (188160)
I0403 17:53:17.458703 15353 net.cpp:156] Memory required for data: 1296039456
I0403 17:53:17.458717 15353 layer_factory.hpp:77] Creating layer inception_5a/3x3
I0403 17:53:17.458739 15353 net.cpp:91] Creating Layer inception_5a/3x3
I0403 17:53:17.458756 15353 net.cpp:425] inception_5a/3x3 <- inception_5a/3x3_reduce
I0403 17:53:17.458775 15353 net.cpp:399] inception_5a/3x3 -> inception_5a/3x3
I0403 17:53:17.463668 15353 net.cpp:141] Setting up inception_5a/3x3
I0403 17:53:17.463698 15353 net.cpp:148] Top shape: 24 320 7 7 (376320)
I0403 17:53:17.463714 15353 net.cpp:156] Memory required for data: 1297544736
I0403 17:53:17.463733 15353 layer_factory.hpp:77] Creating layer inception_5a/relu_3x3
I0403 17:53:17.463750 15353 net.cpp:91] Creating Layer inception_5a/relu_3x3
I0403 17:53:17.463767 15353 net.cpp:425] inception_5a/relu_3x3 <- inception_5a/3x3
I0403 17:53:17.463783 15353 net.cpp:386] inception_5a/relu_3x3 -> inception_5a/3x3 (in-place)
I0403 17:53:17.464077 15353 net.cpp:141] Setting up inception_5a/relu_3x3
I0403 17:53:17.464105 15353 net.cpp:148] Top shape: 24 320 7 7 (376320)
I0403 17:53:17.464120 15353 net.cpp:156] Memory required for data: 1299050016
I0403 17:53:17.464135 15353 layer_factory.hpp:77] Creating layer inception_5a/5x5_reduce
I0403 17:53:17.464157 15353 net.cpp:91] Creating Layer inception_5a/5x5_reduce
I0403 17:53:17.464175 15353 net.cpp:425] inception_5a/5x5_reduce <- pool4/3x3_s2_pool4/3x3_s2_0_split_2
I0403 17:53:17.464195 15353 net.cpp:399] inception_5a/5x5_reduce -> inception_5a/5x5_reduce
I0403 17:53:17.465340 15353 net.cpp:141] Setting up inception_5a/5x5_reduce
I0403 17:53:17.465370 15353 net.cpp:148] Top shape: 24 32 7 7 (37632)
I0403 17:53:17.465386 15353 net.cpp:156] Memory required for data: 1299200544
I0403 17:53:17.465404 15353 layer_factory.hpp:77] Creating layer inception_5a/relu_5x5_reduce
I0403 17:53:17.465422 15353 net.cpp:91] Creating Layer inception_5a/relu_5x5_reduce
I0403 17:53:17.465437 15353 net.cpp:425] inception_5a/relu_5x5_reduce <- inception_5a/5x5_reduce
I0403 17:53:17.465456 15353 net.cpp:386] inception_5a/relu_5x5_reduce -> inception_5a/5x5_reduce (in-place)
I0403 17:53:17.465747 15353 net.cpp:141] Setting up inception_5a/relu_5x5_reduce
I0403 17:53:17.465772 15353 net.cpp:148] Top shape: 24 32 7 7 (37632)
I0403 17:53:17.465787 15353 net.cpp:156] Memory required for data: 1299351072
I0403 17:53:17.465802 15353 layer_factory.hpp:77] Creating layer inception_5a/5x5
I0403 17:53:17.465823 15353 net.cpp:91] Creating Layer inception_5a/5x5
I0403 17:53:17.465842 15353 net.cpp:425] inception_5a/5x5 <- inception_5a/5x5_reduce
I0403 17:53:17.465863 15353 net.cpp:399] inception_5a/5x5 -> inception_5a/5x5
I0403 17:53:17.467545 15353 net.cpp:141] Setting up inception_5a/5x5
I0403 17:53:17.467586 15353 net.cpp:148] Top shape: 24 128 7 7 (150528)
I0403 17:53:17.467603 15353 net.cpp:156] Memory required for data: 1299953184
I0403 17:53:17.467622 15353 layer_factory.hpp:77] Creating layer inception_5a/relu_5x5
I0403 17:53:17.467639 15353 net.cpp:91] Creating Layer inception_5a/relu_5x5
I0403 17:53:17.467655 15353 net.cpp:425] inception_5a/relu_5x5 <- inception_5a/5x5
I0403 17:53:17.467671 15353 net.cpp:386] inception_5a/relu_5x5 -> inception_5a/5x5 (in-place)
I0403 17:53:17.467859 15353 net.cpp:141] Setting up inception_5a/relu_5x5
I0403 17:53:17.467883 15353 net.cpp:148] Top shape: 24 128 7 7 (150528)
I0403 17:53:17.467897 15353 net.cpp:156] Memory required for data: 1300555296
I0403 17:53:17.467911 15353 layer_factory.hpp:77] Creating layer inception_5a/pool
I0403 17:53:17.467931 15353 net.cpp:91] Creating Layer inception_5a/pool
I0403 17:53:17.467947 15353 net.cpp:425] inception_5a/pool <- pool4/3x3_s2_pool4/3x3_s2_0_split_3
I0403 17:53:17.467967 15353 net.cpp:399] inception_5a/pool -> inception_5a/pool
I0403 17:53:17.468045 15353 net.cpp:141] Setting up inception_5a/pool
I0403 17:53:17.468070 15353 net.cpp:148] Top shape: 24 832 7 7 (978432)
I0403 17:53:17.468086 15353 net.cpp:156] Memory required for data: 1304469024
I0403 17:53:17.468099 15353 layer_factory.hpp:77] Creating layer inception_5a/pool_proj
I0403 17:53:17.468121 15353 net.cpp:91] Creating Layer inception_5a/pool_proj
I0403 17:53:17.468137 15353 net.cpp:425] inception_5a/pool_proj <- inception_5a/pool
I0403 17:53:17.468157 15353 net.cpp:399] inception_5a/pool_proj -> inception_5a/pool_proj
I0403 17:53:17.470381 15353 net.cpp:141] Setting up inception_5a/pool_proj
I0403 17:53:17.470407 15353 net.cpp:148] Top shape: 24 128 7 7 (150528)
I0403 17:53:17.470423 15353 net.cpp:156] Memory required for data: 1305071136
I0403 17:53:17.470441 15353 layer_factory.hpp:77] Creating layer inception_5a/relu_pool_proj
I0403 17:53:17.470461 15353 net.cpp:91] Creating Layer inception_5a/relu_pool_proj
I0403 17:53:17.470479 15353 net.cpp:425] inception_5a/relu_pool_proj <- inception_5a/pool_proj
I0403 17:53:17.470495 15353 net.cpp:386] inception_5a/relu_pool_proj -> inception_5a/pool_proj (in-place)
I0403 17:53:17.470787 15353 net.cpp:141] Setting up inception_5a/relu_pool_proj
I0403 17:53:17.470811 15353 net.cpp:148] Top shape: 24 128 7 7 (150528)
I0403 17:53:17.470826 15353 net.cpp:156] Memory required for data: 1305673248
I0403 17:53:17.470840 15353 layer_factory.hpp:77] Creating layer inception_5a/output
I0403 17:53:17.470860 15353 net.cpp:91] Creating Layer inception_5a/output
I0403 17:53:17.470875 15353 net.cpp:425] inception_5a/output <- inception_5a/1x1
I0403 17:53:17.470892 15353 net.cpp:425] inception_5a/output <- inception_5a/3x3
I0403 17:53:17.470907 15353 net.cpp:425] inception_5a/output <- inception_5a/5x5
I0403 17:53:17.470924 15353 net.cpp:425] inception_5a/output <- inception_5a/pool_proj
I0403 17:53:17.470940 15353 net.cpp:399] inception_5a/output -> inception_5a/output
I0403 17:53:17.470995 15353 net.cpp:141] Setting up inception_5a/output
I0403 17:53:17.471019 15353 net.cpp:148] Top shape: 24 832 7 7 (978432)
I0403 17:53:17.471032 15353 net.cpp:156] Memory required for data: 1309586976
I0403 17:53:17.471046 15353 layer_factory.hpp:77] Creating layer inception_5a/output_inception_5a/output_0_split
I0403 17:53:17.471063 15353 net.cpp:91] Creating Layer inception_5a/output_inception_5a/output_0_split
I0403 17:53:17.471079 15353 net.cpp:425] inception_5a/output_inception_5a/output_0_split <- inception_5a/output
I0403 17:53:17.471098 15353 net.cpp:399] inception_5a/output_inception_5a/output_0_split -> inception_5a/output_inception_5a/output_0_split_0
I0403 17:53:17.471118 15353 net.cpp:399] inception_5a/output_inception_5a/output_0_split -> inception_5a/output_inception_5a/output_0_split_1
I0403 17:53:17.471138 15353 net.cpp:399] inception_5a/output_inception_5a/output_0_split -> inception_5a/output_inception_5a/output_0_split_2
I0403 17:53:17.471158 15353 net.cpp:399] inception_5a/output_inception_5a/output_0_split -> inception_5a/output_inception_5a/output_0_split_3
I0403 17:53:17.471269 15353 net.cpp:141] Setting up inception_5a/output_inception_5a/output_0_split
I0403 17:53:17.471294 15353 net.cpp:148] Top shape: 24 832 7 7 (978432)
I0403 17:53:17.471310 15353 net.cpp:148] Top shape: 24 832 7 7 (978432)
I0403 17:53:17.471326 15353 net.cpp:148] Top shape: 24 832 7 7 (978432)
I0403 17:53:17.471341 15353 net.cpp:148] Top shape: 24 832 7 7 (978432)
I0403 17:53:17.471354 15353 net.cpp:156] Memory required for data: 1325241888
I0403 17:53:17.471369 15353 layer_factory.hpp:77] Creating layer inception_5b/1x1
I0403 17:53:17.471390 15353 net.cpp:91] Creating Layer inception_5b/1x1
I0403 17:53:17.471407 15353 net.cpp:425] inception_5b/1x1 <- inception_5a/output_inception_5a/output_0_split_0
I0403 17:53:17.471427 15353 net.cpp:399] inception_5b/1x1 -> inception_5b/1x1
I0403 17:53:17.475098 15353 net.cpp:141] Setting up inception_5b/1x1
I0403 17:53:17.475126 15353 net.cpp:148] Top shape: 24 384 7 7 (451584)
I0403 17:53:17.475142 15353 net.cpp:156] Memory required for data: 1327048224
I0403 17:53:17.475159 15353 layer_factory.hpp:77] Creating layer inception_5b/relu_1x1
I0403 17:53:17.475179 15353 net.cpp:91] Creating Layer inception_5b/relu_1x1
I0403 17:53:17.475196 15353 net.cpp:425] inception_5b/relu_1x1 <- inception_5b/1x1
I0403 17:53:17.475214 15353 net.cpp:386] inception_5b/relu_1x1 -> inception_5b/1x1 (in-place)
I0403 17:53:17.475514 15353 net.cpp:141] Setting up inception_5b/relu_1x1
I0403 17:53:17.475539 15353 net.cpp:148] Top shape: 24 384 7 7 (451584)
I0403 17:53:17.475554 15353 net.cpp:156] Memory required for data: 1328854560
I0403 17:53:17.475569 15353 layer_factory.hpp:77] Creating layer inception_5b/3x3_reduce
I0403 17:53:17.475591 15353 net.cpp:91] Creating Layer inception_5b/3x3_reduce
I0403 17:53:17.475608 15353 net.cpp:425] inception_5b/3x3_reduce <- inception_5a/output_inception_5a/output_0_split_1
I0403 17:53:17.475630 15353 net.cpp:399] inception_5b/3x3_reduce -> inception_5b/3x3_reduce
I0403 17:53:17.478252 15353 net.cpp:141] Setting up inception_5b/3x3_reduce
I0403 17:53:17.478281 15353 net.cpp:148] Top shape: 24 192 7 7 (225792)
I0403 17:53:17.478297 15353 net.cpp:156] Memory required for data: 1329757728
I0403 17:53:17.478315 15353 layer_factory.hpp:77] Creating layer inception_5b/relu_3x3_reduce
I0403 17:53:17.478334 15353 net.cpp:91] Creating Layer inception_5b/relu_3x3_reduce
I0403 17:53:17.478353 15353 net.cpp:425] inception_5b/relu_3x3_reduce <- inception_5b/3x3_reduce
I0403 17:53:17.478369 15353 net.cpp:386] inception_5b/relu_3x3_reduce -> inception_5b/3x3_reduce (in-place)
I0403 17:53:17.478555 15353 net.cpp:141] Setting up inception_5b/relu_3x3_reduce
I0403 17:53:17.478580 15353 net.cpp:148] Top shape: 24 192 7 7 (225792)
I0403 17:53:17.478595 15353 net.cpp:156] Memory required for data: 1330660896
I0403 17:53:17.478610 15353 layer_factory.hpp:77] Creating layer inception_5b/3x3
I0403 17:53:17.478631 15353 net.cpp:91] Creating Layer inception_5b/3x3
I0403 17:53:17.478648 15353 net.cpp:425] inception_5b/3x3 <- inception_5b/3x3_reduce
I0403 17:53:17.478669 15353 net.cpp:399] inception_5b/3x3 -> inception_5b/3x3
I0403 17:53:17.485340 15353 net.cpp:141] Setting up inception_5b/3x3
I0403 17:53:17.485368 15353 net.cpp:148] Top shape: 24 384 7 7 (451584)
I0403 17:53:17.485383 15353 net.cpp:156] Memory required for data: 1332467232
I0403 17:53:17.485401 15353 layer_factory.hpp:77] Creating layer inception_5b/relu_3x3
I0403 17:53:17.485421 15353 net.cpp:91] Creating Layer inception_5b/relu_3x3
I0403 17:53:17.485438 15353 net.cpp:425] inception_5b/relu_3x3 <- inception_5b/3x3
I0403 17:53:17.485456 15353 net.cpp:386] inception_5b/relu_3x3 -> inception_5b/3x3 (in-place)
I0403 17:53:17.485746 15353 net.cpp:141] Setting up inception_5b/relu_3x3
I0403 17:53:17.485772 15353 net.cpp:148] Top shape: 24 384 7 7 (451584)
I0403 17:53:17.485787 15353 net.cpp:156] Memory required for data: 1334273568
I0403 17:53:17.485802 15353 layer_factory.hpp:77] Creating layer inception_5b/5x5_reduce
I0403 17:53:17.485843 15353 net.cpp:91] Creating Layer inception_5b/5x5_reduce
I0403 17:53:17.485862 15353 net.cpp:425] inception_5b/5x5_reduce <- inception_5a/output_inception_5a/output_0_split_2
I0403 17:53:17.485882 15353 net.cpp:399] inception_5b/5x5_reduce -> inception_5b/5x5_reduce
I0403 17:53:17.487141 15353 net.cpp:141] Setting up inception_5b/5x5_reduce
I0403 17:53:17.487169 15353 net.cpp:148] Top shape: 24 48 7 7 (56448)
I0403 17:53:17.487186 15353 net.cpp:156] Memory required for data: 1334499360
I0403 17:53:17.487203 15353 layer_factory.hpp:77] Creating layer inception_5b/relu_5x5_reduce
I0403 17:53:17.487221 15353 net.cpp:91] Creating Layer inception_5b/relu_5x5_reduce
I0403 17:53:17.487237 15353 net.cpp:425] inception_5b/relu_5x5_reduce <- inception_5b/5x5_reduce
I0403 17:53:17.487253 15353 net.cpp:386] inception_5b/relu_5x5_reduce -> inception_5b/5x5_reduce (in-place)
I0403 17:53:17.487619 15353 net.cpp:141] Setting up inception_5b/relu_5x5_reduce
I0403 17:53:17.487645 15353 net.cpp:148] Top shape: 24 48 7 7 (56448)
I0403 17:53:17.487660 15353 net.cpp:156] Memory required for data: 1334725152
I0403 17:53:17.487674 15353 layer_factory.hpp:77] Creating layer inception_5b/5x5
I0403 17:53:17.487695 15353 net.cpp:91] Creating Layer inception_5b/5x5
I0403 17:53:17.487712 15353 net.cpp:425] inception_5b/5x5 <- inception_5b/5x5_reduce
I0403 17:53:17.487730 15353 net.cpp:399] inception_5b/5x5 -> inception_5b/5x5
I0403 17:53:17.489742 15353 net.cpp:141] Setting up inception_5b/5x5
I0403 17:53:17.489770 15353 net.cpp:148] Top shape: 24 128 7 7 (150528)
I0403 17:53:17.489786 15353 net.cpp:156] Memory required for data: 1335327264
I0403 17:53:17.489804 15353 layer_factory.hpp:77] Creating layer inception_5b/relu_5x5
I0403 17:53:17.489821 15353 net.cpp:91] Creating Layer inception_5b/relu_5x5
I0403 17:53:17.489837 15353 net.cpp:425] inception_5b/relu_5x5 <- inception_5b/5x5
I0403 17:53:17.489857 15353 net.cpp:386] inception_5b/relu_5x5 -> inception_5b/5x5 (in-place)
I0403 17:53:17.490052 15353 net.cpp:141] Setting up inception_5b/relu_5x5
I0403 17:53:17.490077 15353 net.cpp:148] Top shape: 24 128 7 7 (150528)
I0403 17:53:17.490092 15353 net.cpp:156] Memory required for data: 1335929376
I0403 17:53:17.490105 15353 layer_factory.hpp:77] Creating layer inception_5b/pool
I0403 17:53:17.490124 15353 net.cpp:91] Creating Layer inception_5b/pool
I0403 17:53:17.490140 15353 net.cpp:425] inception_5b/pool <- inception_5a/output_inception_5a/output_0_split_3
I0403 17:53:17.490160 15353 net.cpp:399] inception_5b/pool -> inception_5b/pool
I0403 17:53:17.490236 15353 net.cpp:141] Setting up inception_5b/pool
I0403 17:53:17.490258 15353 net.cpp:148] Top shape: 24 832 7 7 (978432)
I0403 17:53:17.490272 15353 net.cpp:156] Memory required for data: 1339843104
I0403 17:53:17.490286 15353 layer_factory.hpp:77] Creating layer inception_5b/pool_proj
I0403 17:53:17.490310 15353 net.cpp:91] Creating Layer inception_5b/pool_proj
I0403 17:53:17.490327 15353 net.cpp:425] inception_5b/pool_proj <- inception_5b/pool
I0403 17:53:17.490346 15353 net.cpp:399] inception_5b/pool_proj -> inception_5b/pool_proj
I0403 17:53:17.492676 15353 net.cpp:141] Setting up inception_5b/pool_proj
I0403 17:53:17.492707 15353 net.cpp:148] Top shape: 24 128 7 7 (150528)
I0403 17:53:17.492723 15353 net.cpp:156] Memory required for data: 1340445216
I0403 17:53:17.492743 15353 layer_factory.hpp:77] Creating layer inception_5b/relu_pool_proj
I0403 17:53:17.492760 15353 net.cpp:91] Creating Layer inception_5b/relu_pool_proj
I0403 17:53:17.492776 15353 net.cpp:425] inception_5b/relu_pool_proj <- inception_5b/pool_proj
I0403 17:53:17.492794 15353 net.cpp:386] inception_5b/relu_pool_proj -> inception_5b/pool_proj (in-place)
I0403 17:53:17.493104 15353 net.cpp:141] Setting up inception_5b/relu_pool_proj
I0403 17:53:17.493134 15353 net.cpp:148] Top shape: 24 128 7 7 (150528)
I0403 17:53:17.493149 15353 net.cpp:156] Memory required for data: 1341047328
I0403 17:53:17.493165 15353 layer_factory.hpp:77] Creating layer inception_5b/output
I0403 17:53:17.493181 15353 net.cpp:91] Creating Layer inception_5b/output
I0403 17:53:17.493221 15353 net.cpp:425] inception_5b/output <- inception_5b/1x1
I0403 17:53:17.493239 15353 net.cpp:425] inception_5b/output <- inception_5b/3x3
I0403 17:53:17.493257 15353 net.cpp:425] inception_5b/output <- inception_5b/5x5
I0403 17:53:17.493273 15353 net.cpp:425] inception_5b/output <- inception_5b/pool_proj
I0403 17:53:17.493288 15353 net.cpp:399] inception_5b/output -> inception_5b/output
I0403 17:53:17.493355 15353 net.cpp:141] Setting up inception_5b/output
I0403 17:53:17.493381 15353 net.cpp:148] Top shape: 24 1024 7 7 (1204224)
I0403 17:53:17.493396 15353 net.cpp:156] Memory required for data: 1345864224
I0403 17:53:17.493410 15353 layer_factory.hpp:77] Creating layer pool5/7x7_s1
I0403 17:53:17.493432 15353 net.cpp:91] Creating Layer pool5/7x7_s1
I0403 17:53:17.493448 15353 net.cpp:425] pool5/7x7_s1 <- inception_5b/output
I0403 17:53:17.493468 15353 net.cpp:399] pool5/7x7_s1 -> pool5/7x7_s1
I0403 17:53:17.493711 15353 net.cpp:141] Setting up pool5/7x7_s1
I0403 17:53:17.493739 15353 net.cpp:148] Top shape: 24 1024 1 1 (24576)
I0403 17:53:17.493754 15353 net.cpp:156] Memory required for data: 1345962528
I0403 17:53:17.493769 15353 layer_factory.hpp:77] Creating layer pool5/drop_7x7_s1
I0403 17:53:17.493788 15353 net.cpp:91] Creating Layer pool5/drop_7x7_s1
I0403 17:53:17.493803 15353 net.cpp:425] pool5/drop_7x7_s1 <- pool5/7x7_s1
I0403 17:53:17.493820 15353 net.cpp:386] pool5/drop_7x7_s1 -> pool5/7x7_s1 (in-place)
I0403 17:53:17.493872 15353 net.cpp:141] Setting up pool5/drop_7x7_s1
I0403 17:53:17.493896 15353 net.cpp:148] Top shape: 24 1024 1 1 (24576)
I0403 17:53:17.493911 15353 net.cpp:156] Memory required for data: 1346060832
I0403 17:53:17.493927 15353 layer_factory.hpp:77] Creating layer loss3/classifier_plantvillage
I0403 17:53:17.493947 15353 net.cpp:91] Creating Layer loss3/classifier_plantvillage
I0403 17:53:17.493964 15353 net.cpp:425] loss3/classifier_plantvillage <- pool5/7x7_s1
I0403 17:53:17.493986 15353 net.cpp:399] loss3/classifier_plantvillage -> loss3/classifier_plantvillage
I0403 17:53:17.494418 15353 net.cpp:141] Setting up loss3/classifier_plantvillage
I0403 17:53:17.494442 15353 net.cpp:148] Top shape: 24 38 (912)
I0403 17:53:17.494457 15353 net.cpp:156] Memory required for data: 1346064480
I0403 17:53:17.494475 15353 layer_factory.hpp:77] Creating layer loss3/classifier_plantvillage_loss3/classifier_plantvillage_0_split
I0403 17:53:17.494493 15353 net.cpp:91] Creating Layer loss3/classifier_plantvillage_loss3/classifier_plantvillage_0_split
I0403 17:53:17.494509 15353 net.cpp:425] loss3/classifier_plantvillage_loss3/classifier_plantvillage_0_split <- loss3/classifier_plantvillage
I0403 17:53:17.494529 15353 net.cpp:399] loss3/classifier_plantvillage_loss3/classifier_plantvillage_0_split -> loss3/classifier_plantvillage_loss3/classifier_plantvillage_0_split_0
I0403 17:53:17.494550 15353 net.cpp:399] loss3/classifier_plantvillage_loss3/classifier_plantvillage_0_split -> loss3/classifier_plantvillage_loss3/classifier_plantvillage_0_split_1
I0403 17:53:17.494570 15353 net.cpp:399] loss3/classifier_plantvillage_loss3/classifier_plantvillage_0_split -> loss3/classifier_plantvillage_loss3/classifier_plantvillage_0_split_2
I0403 17:53:17.494590 15353 net.cpp:399] loss3/classifier_plantvillage_loss3/classifier_plantvillage_0_split -> loss3/classifier_plantvillage_loss3/classifier_plantvillage_0_split_3
I0403 17:53:17.494695 15353 net.cpp:141] Setting up loss3/classifier_plantvillage_loss3/classifier_plantvillage_0_split
I0403 17:53:17.494719 15353 net.cpp:148] Top shape: 24 38 (912)
I0403 17:53:17.494735 15353 net.cpp:148] Top shape: 24 38 (912)
I0403 17:53:17.494750 15353 net.cpp:148] Top shape: 24 38 (912)
I0403 17:53:17.494766 15353 net.cpp:148] Top shape: 24 38 (912)
I0403 17:53:17.494781 15353 net.cpp:156] Memory required for data: 1346079072
I0403 17:53:17.494794 15353 layer_factory.hpp:77] Creating layer loss1/loss
I0403 17:53:17.494815 15353 net.cpp:91] Creating Layer loss1/loss
I0403 17:53:17.494832 15353 net.cpp:425] loss1/loss <- loss1/classifier_plantvillage_loss1/classifier_plantvillage_0_split_0
I0403 17:53:17.494863 15353 net.cpp:425] loss1/loss <- label_data_1_split_0
…
