…
I0403 18:10:01.378043 16404 net.cpp:313] The NetState phase (1) differed from the phase (0) specified by a rule in layer data
I0403 18:10:01.379189 16404 net.cpp:49] Initializing net from parameters: 
state {
  phase: TEST
}
layer {
  name: "data"
  type: "Data"
  top: "data"
  top: "label"
  include {
    phase: TEST
  }
  transform_param {
    mirror: false
    crop_size: 224
    mean_file: "/home/mohanty/data/final_dataset/lmdb/grayscale-60-40/mean.binaryproto"
  }
  data_param {
    source: "/home/mohanty/data/final_dataset/lmdb/grayscale-60-40/test_db"
    batch_size: 24
    backend: LMDB
  }
}
layer {
  name: "conv1/7x7_s2"
  type: "Convolution"
  bottom: "data"
  top: "conv1/7x7_s2"
  param {
    lr_mult: 1
    decay_mult: 1
  }
  param {
    lr_mult: 2
    decay_mult: 0
  }
  convolution_param {
    num_output: 64
    pad: 3
    kernel_size: 7
    stride: 2
    weight_filler {
      type: "xavier"
      std: 0.1
    }
    bias_filler {
      type: "constant"
      value: 0.2
    }
  }
}
layer {
  name: "conv1/relu_7x7"
  type: "ReLU"
  bottom: "conv1/7x7_s2"
  top: "conv1/7x7_s2"
}
layer {
  name: "pool1/3x3_s2"
  type: "Pooling"
  bottom: "conv1/7x7_s2"
  top: "pool1/3x3_s2"
  pooling_param {
    pool: MAX
    kernel_size: 3
    stride: 2
  }
}
layer {
  name: "pool1/norm1"
  type: "LRN"
  bottom: "pool1/3x3_s2"
  top: "pool1/norm1"
  lrn_param {
    local_size: 5
    alpha: 0.0001
    beta: 0.75
  }
}
layer {
  name: "conv2/3x3_reduce"
  type: "Convolution"
  bottom: "pool1/norm1"
  top: "conv2/3x3_reduce"
  param {
    lr_mult: 1
    decay_mult: 1
  }
  param {
    lr_mult: 2
    decay_mult: 0
  }
  convolution_param {
    num_output: 64
    kernel_size: 1
    weight_filler {
      type: "xavier"
      std: 0.1
    }
    bias_filler {
      type: "constant"
      value: 0.2
    }
  }
}
layer {
  name: "conv2/relu_3x3_reduce"
  type: "ReLU"
  bottom: "conv2/3x3_reduce"
  top: "conv2/3x3_reduce"
}
layer {
  name: "conv2/3x3"
  type: "Convolution"
  bottom: "conv2/3x3_reduce"
  top: "conv2/3x3"
  param {
    lr_mult: 1
    decay_mult: 1
  }
  param {
    lr_mult: 2
    decay_mult: 0
  }
  convolution_param {
    num_output: 192
    pad: 1
    kernel_size: 3
    weight_filler {
      type: "xavier"
      std: 0.03
    }
    bias_filler {
      type: "constant"
      value: 0.2
    }
  }
}
layer {
  name: "conv2/relu_3x3"
  type: "ReLU"
  bottom: "conv2/3x3"
  top: "conv2/3x3"
}
layer {
  name: "conv2/norm2"
  type: "LRN"
  bottom: "conv2/3x3"
  top: "conv2/norm2"
  lrn_param {
    local_size: 5
    alpha: 0.0001
    beta: 0.75
  }
}
layer {
  name: "pool2/3x3_s2"
  type: "Pooling"
  bottom: "conv2/norm2"
  top: "pool2/3x3_s2"
  pooling_param {
    pool: MAX
    kernel_size: 3
    stride: 2
  }
}
layer {
  name: "inception_3a/1x1"
  type: "Convolution"
  bottom: "pool2/3x3_s2"
  top: "inception_3a/1x1"
  param {
    lr_mult: 1
    decay_mult: 1
  }
  param {
    lr_mult: 2
    decay_mult: 0
  }
  convolution_param {
    num_output: 64
    kernel_size: 1
    weight_filler {
      type: "xavier"
      std: 0.03
    }
    bias_filler {
      type: "constant"
      value: 0.2
    }
  }
}
layer {
  name: "inception_3a/relu_1x1"
  type: "ReLU"
  bottom: "inception_3a/1x1"
  top: "inception_3a/1x1"
}
layer {
  name: "inception_3a/3x3_reduce"
  type: "Convolution"
  bottom: "pool2/3x3_s2"
  top: "inception_3a/3x3_reduce"
  param {
    lr_mult: 1
    decay_mult: 1
  }
  param {
    lr_mult: 2
    decay_mult: 0
  }
  convolution_param {
    num_output: 96
    kernel_size: 1
    weight_filler {
      type: "xavier"
      std: 0.09
    }
    bias_filler {
      type: "constant"
      value: 0.2
    }
  }
}
layer {
  name: "inception_3a/relu_3x3_reduce"
  type: "ReLU"
  bottom: "inception_3a/3x3_reduce"
  top: "inception_3a/3x3_reduce"
}
layer {
  name: "inception_3a/3x3"
  type: "Convolution"
  bottom: "inception_3a/3x3_reduce"
  top: "inception_3a/3x3"
  param {
    lr_mult: 1
    decay_mult: 1
  }
  param {
    lr_mult: 2
    decay_mult: 0
  }
  convolution_param {
    num_output: 128
    pad: 1
    kernel_size: 3
    weight_filler {
      type: "xavier"
      std: 0.03
    }
    bias_filler {
      type: "constant"
      value: 0.2
    }
  }
}
layer {
  name: "inception_3a/relu_3x3"
  type: "ReLU"
  bottom: "inception_3a/3x3"
  top: "inception_3a/3x3"
}
layer {
  name: "inception_3a/5x5_reduce"
  type: "Convolution"
  bottom: "pool2/3x3_s2"
  top: "inception_3a/5x5_reduce"
  param {
    lr_mult: 1
    decay_mult: 1
  }
  param {
    lr_mult: 2
    decay_mult: 0
  }
  convolution_param {
    num_output: 16
    kernel_size: 1
    weight_filler {
      type: "xavier"
      std: 0.2
    }
    bias_filler {
      type: "constant"
      value: 0.2
    }
  }
}
layer {
  name: "inception_3a/relu_5x5_reduce"
  type: "ReLU"
  bottom: "inception_3a/5x5_reduce"
  top: "inception_3a/5x5_reduce"
}
layer {
  name: "inception_3a/5x5"
  type: "Convolution"
  bottom: "inception_3a/5x5_reduce"
  top: "inception_3a/5x5"
  param {
    lr_mult: 1
    decay_mult: 1
  }
  param {
    lr_mult: 2
    decay_mult: 0
  }
  convolution_param {
    num_output: 32
    pad: 2
    kernel_size: 5
    weight_filler {
      type: "xavier"
      std: 0.03
    }
    bias_filler {
      type: "constant"
      value: 0.2
    }
  }
}
layer {
  name: "inception_3a/relu_5x5"
  type: "ReLU"
  bottom: "inception_3a/5x5"
  top: "inception_3a/5x5"
}
layer {
  name: "inception_3a/pool"
  type: "Pooling"
  bottom: "pool2/3x3_s2"
  top: "inception_3a/pool"
  pooling_param {
    pool: MAX
    kernel_size: 3
    stride: 1
    pad: 1
  }
}
layer {
  name: "inception_3a/pool_proj"
  type: "Convolution"
  bottom: "inception_3a/pool"
  top: "inception_3a/pool_proj"
  param {
    lr_mult: 1
    decay_mult: 1
  }
  param {
    lr_mult: 2
    decay_mult: 0
  }
  convolution_param {
    num_output: 32
    kernel_size: 1
    weight_filler {
      type: "xavier"
      std: 0.1
    }
    bias_filler {
      type: "constant"
      value: 0.2
    }
  }
}
layer {
  name: "inception_3a/relu_pool_proj"
  type: "ReLU"
  bottom: "inception_3a/pool_proj"
  top: "inception_3a/pool_proj"
}
layer {
  name: "inception_3a/output"
  type: "Concat"
  bottom: "inception_3a/1x1"
  bottom: "inception_3a/3x3"
  bottom: "inception_3a/5x5"
  bottom: "inception_3a/pool_proj"
  top: "inception_3a/output"
}
layer {
  name: "inception_3b/1x1"
  type: "Convolution"
  bottom: "inception_3a/output"
  top: "inception_3b/1x1"
  param {
    lr_mult: 1
    decay_mult: 1
  }
  param {
    lr_mult: 2
    decay_mult: 0
  }
  convolution_param {
    num_output: 128
    kernel_size: 1
    weight_filler {
      type: "xavier"
      std: 0.03
    }
    bias_filler {
      type: "constant"
      value: 0.2
    }
  }
}
layer {
  name: "inception_3b/relu_1x1"
  type: "ReLU"
  bottom: "inception_3b/1x1"
  top: "inception_3b/1x1"
}
layer {
  name: "inception_3b/3x3_reduce"
  type: "Convolution"
  bottom: "inception_3a/output"
  top: "inception_3b/3x3_reduce"
  param {
    lr_mult: 1
    decay_mult: 1
  }
  param {
    lr_mult: 2
    decay_mult: 0
  }
  convolution_param {
    num_output: 128
    kernel_size: 1
    weight_filler {
      type: "xavier"
      std: 0.09
    }
    bias_filler {
      type: "constant"
      value: 0.2
    }
  }
}
layer {
  name: "inception_3b/relu_3x3_reduce"
  type: "ReLU"
  bottom: "inception_3b/3x3_reduce"
  top: "inception_3b/3x3_reduce"
}
layer {
  name: "inception_3b/3x3"
  type: "Convolution"
  bottom: "inception_3b/3x3_reduce"
  top: "inception_3b/3x3"
  param {
    lr_mult: 1
    decay_mult: 1
  }
  param {
    lr_mult: 2
    decay_mult: 0
  }
  convolution_param {
    num_output: 192
    pad: 1
    kernel_size: 3
    weight_filler {
      type: "xavier"
      std: 0.03
    }
    bias_filler {
      type: "constant"
      value: 0.2
    }
  }
}
layer {
  name: "inception_3b/relu_3x3"
  type: "ReLU"
  bottom: "inception_3b/3x3"
  top: "inception_3b/3x3"
}
layer {
  name: "inception_3b/5x5_reduce"
  type: "Convolution"
  bottom: "inception_3a/output"
  top: "inception_3b/5x5_reduce"
  param {
    lr_mult: 1
    decay_mult: 1
  }
  param {
    lr_mult: 2
    decay_mult: 0
  }
  convolution_param {
    num_output: 32
    kernel_size: 1
    weight_filler {
      type: "xavier"
      std: 0.2
    }
    bias_filler {
      type: "constant"
      value: 0.2
    }
  }
}
layer {
  name: "inception_3b/relu_5x5_reduce"
  type: "ReLU"
  bottom: "inception_3b/5x5_reduce"
  top: "inception_3b/5x5_reduce"
}
layer {
  name: "inception_3b/5x5"
  type: "Convolution"
  bottom: "inception_3b/5x5_reduce"
  top: "inception_3b/5x5"
  param {
    lr_mult: 1
    decay_mult: 1
  }
  param {
    lr_mult: 2
    decay_mult: 0
  }
  convolution_param {
    num_output: 96
    pad: 2
    kernel_size: 5
    weight_filler {
      type: "xavier"
      std: 0.03
    }
    bias_filler {
      type: "constant"
      value: 0.2
    }
  }
}
layer {
  name: "inception_3b/relu_5x5"
  type: "ReLU"
  bottom: "inception_3b/5x5"
  top: "inception_3b/5x5"
}
layer {
  name: "inception_3b/pool"
  type: "Pooling"
  bottom: "inception_3a/output"
  top: "inception_3b/pool"
  pooling_param {
    pool: MAX
    kernel_size: 3
    stride: 1
    pad: 1
  }
}
layer {
  name: "inception_3b/pool_proj"
  type: "Convolution"
  bottom: "inception_3b/pool"
  top: "inception_3b/pool_proj"
  param {
    lr_mult: 1
    decay_mult: 1
  }
  param {
    lr_mult: 2
    decay_mult: 0
  }
  convolution_param {
    num_output: 64
    kernel_size: 1
    weight_filler {
      type: "xavier"
      std: 0.1
    }
    bias_filler {
      type: "constant"
      value: 0.2
    }
  }
}
layer {
  name: "inception_3b/relu_pool_proj"
  type: "ReLU"
  bottom: "inception_3b/pool_proj"
  top: "inception_3b/pool_proj"
}
layer {
  name: "inception_3b/output"
  type: "Concat"
  bottom: "inception_3b/1x1"
  bottom: "inception_3b/3x3"
  bottom: "inception_3b/5x5"
  bottom: "inception_3b/pool_proj"
  top: "inception_3b/output"
}
layer {
  name: "pool3/3x3_s2"
  type: "Pooling"
  bottom: "inception_3b/output"
  top: "pool3/3x3_s2"
  pooling_param {
    pool: MAX
    kernel_size: 3
    stride: 2
  }
}
layer {
  name: "inception_4a/1x1"
  type: "Convolution"
  bottom: "pool3/3x3_s2"
  top: "inception_4a/1x1"
  param {
    lr_mult: 1
    decay_mult: 1
  }
  param {
    lr_mult: 2
    decay_mult: 0
  }
  convolution_param {
    num_output: 192
    kernel_size: 1
    weight_filler {
      type: "xavier"
      std: 0.03
    }
    bias_filler {
      type: "constant"
      value: 0.2
    }
  }
}
layer {
  name: "inception_4a/relu_1x1"
  type: "ReLU"
  bottom: "inception_4a/1x1"
  top: "inception_4a/1x1"
}
layer {
  name: "inception_4a/3x3_reduce"
  type: "Convolution"
  bottom: "pool3/3x3_s2"
  top: "inception_4a/3x3_reduce"
  param {
    lr_mult: 1
    decay_mult: 1
  }
  param {
    lr_mult: 2
    decay_mult: 0
  }
  convolution_param {
    num_output: 96
    kernel_size: 1
    weight_filler {
      type: "xavier"
      std: 0.09
    }
    bias_filler {
      type: "constant"
      value: 0.2
    }
  }
}
layer {
  name: "inception_4a/relu_3x3_reduce"
  type: "ReLU"
  bottom: "inception_4a/3x3_reduce"
  top: "inception_4a/3x3_reduce"
}
layer {
  name: "inception_4a/3x3"
  type: "Convolution"
  bottom: "inception_4a/3x3_reduce"
  top: "inception_4a/3x3"
  param {
    lr_mult: 1
    decay_mult: 1
  }
  param {
    lr_mult: 2
    decay_mult: 0
  }
  convolution_param {
    num_output: 208
    pad: 1
    kernel_size: 3
    weight_filler {
      type: "xavier"
      std: 0.03
    }
    bias_filler {
      type: "constant"
      value: 0.2
    }
  }
}
layer {
  name: "inception_4a/relu_3x3"
  type: "ReLU"
  bottom: "inception_4a/3x3"
  top: "inception_4a/3x3"
}
layer {
  name: "inception_4a/5x5_reduce"
  type: "Convolution"
  bottom: "pool3/3x3_s2"
  top: "inception_4a/5x5_reduce"
  param {
    lr_mult: 1
    decay_mult: 1
  }
  param {
    lr_mult: 2
    decay_mult: 0
  }
  convolution_param {
    num_output: 16
    kernel_size: 1
    weight_filler {
      type: "xavier"
      std: 0.2
    }
    bias_filler {
      type: "constant"
      value: 0.2
    }
  }
}
layer {
  name: "inception_4a/relu_5x5_reduce"
  type: "ReLU"
  bottom: "inception_4a/5x5_reduce"
  top: "inception_4a/5x5_reduce"
}
layer {
  name: "inception_4a/5x5"
  type: "Convolution"
  bottom: "inception_4a/5x5_reduce"
  top: "inception_4a/5x5"
  param {
    lr_mult: 1
    decay_mult: 1
  }
  param {
    lr_mult: 2
    decay_mult: 0
  }
  convolution_param {
    num_output: 48
    pad: 2
    kernel_size: 5
    weight_filler {
      type: "xavier"
      std: 0.03
    }
    bias_filler {
      type: "constant"
      value: 0.2
    }
  }
}
layer {
  name: "inception_4a/relu_5x5"
  type: "ReLU"
  bottom: "inception_4a/5x5"
  top: "inception_4a/5x5"
}
layer {
  name: "inception_4a/pool"
  type: "Pooling"
  bottom: "pool3/3x3_s2"
  top: "inception_4a/pool"
  pooling_param {
    pool: MAX
    kernel_size: 3
    stride: 1
    pad: 1
  }
}
layer {
  name: "inception_4a/pool_proj"
  type: "Convolution"
  bottom: "inception_4a/pool"
  top: "inception_4a/pool_proj"
  param {
    lr_mult: 1
    decay_mult: 1
  }
  param {
    lr_mult: 2
    decay_mult: 0
  }
  convolution_param {
    num_output: 64
    kernel_size: 1
    weight_filler {
      type: "xavier"
      std: 0.1
    }
    bias_filler {
      type: "constant"
      value: 0.2
    }
  }
}
layer {
  name: "inception_4a/relu_pool_proj"
  type: "ReLU"
  bottom: "inception_4a/pool_proj"
  top: "inception_4a/pool_proj"
}
layer {
  name: "inception_4a/output"
  type: "Concat"
  bottom: "inception_4a/1x1"
  bottom: "inception_4a/3x3"
  bottom: "inception_4a/5x5"
  bottom: "inception_4a/pool_proj"
  top: "inception_4a/output"
}
layer {
  name: "loss1/ave_pool"
  type: "Pooling"
  bottom: "inception_4a/output"
  top: "loss1/ave_pool"
  pooling_param {
    pool: AVE
    kernel_size: 5
    stride: 3
  }
}
layer {
  name: "loss1/conv"
  type: "Convolution"
  bottom: "loss1/ave_pool"
  top: "loss1/conv"
  param {
    lr_mult: 1
    decay_mult: 1
  }
  param {
    lr_mult: 2
    decay_mult: 0
  }
  convolution_param {
    num_output: 128
    kernel_size: 1
    weight_filler {
      type: "xavier"
      std: 0.08
    }
    bias_filler {
      type: "constant"
      value: 0.2
    }
  }
}
layer {
  name: "loss1/relu_conv"
  type: "ReLU"
  bottom: "loss1/conv"
  top: "loss1/conv"
}
layer {
  name: "loss1/fc"
  type: "InnerProduct"
  bottom: "loss1/conv"
  top: "loss1/fc"
  param {
    lr_mult: 1
    decay_mult: 1
  }
  param {
    lr_mult: 2
    decay_mult: 0
  }
  inner_product_param {
    num_output: 1024
    weight_filler {
      type: "xavier"
      std: 0.02
    }
    bias_filler {
      type: "constant"
      value: 0.2
    }
  }
}
layer {
  name: "loss1/relu_fc"
  type: "ReLU"
  bottom: "loss1/fc"
  top: "loss1/fc"
}
layer {
  name: "loss1/drop_fc"
  type: "Dropout"
  bottom: "loss1/fc"
  top: "loss1/fc"
  dropout_param {
    dropout_ratio: 0.7
  }
}
layer {
  name: "loss1/classifier_plantvillage"
  type: "InnerProduct"
  bottom: "loss1/fc"
  top: "loss1/classifier_plantvillage"
  param {
    lr_mult: 1
    decay_mult: 1
  }
  param {
    lr_mult: 2
    decay_mult: 0
  }
  inner_product_param {
    num_output: 38
    weight_filler {
      type: "xavier"
      std: 0.0009765625
    }
    bias_filler {
      type: "constant"
      value: 0
    }
  }
}
layer {
  name: "inception_4b/1x1"
  type: "Convolution"
  bottom: "inception_4a/output"
  top: "inception_4b/1x1"
  param {
    lr_mult: 1
    decay_mult: 1
  }
  param {
    lr_mult: 2
    decay_mult: 0
  }
  convolution_param {
    num_output: 160
    kernel_size: 1
    weight_filler {
      type: "xavier"
      std: 0.03
    }
    bias_filler {
      type: "constant"
      value: 0.2
    }
  }
}
layer {
  name: "inception_4b/relu_1x1"
  type: "ReLU"
  bottom: "inception_4b/1x1"
  top: "inception_4b/1x1"
}
layer {
  name: "inception_4b/3x3_reduce"
  type: "Convolution"
  bottom: "inception_4a/output"
  top: "inception_4b/3x3_reduce"
  param {
    lr_mult: 1
    decay_mult: 1
  }
  param {
    lr_mult: 2
    decay_mult: 0
  }
  convolution_param {
    num_output: 112
    kernel_size: 1
    weight_filler {
      type: "xavier"
      std: 0.09
    }
    bias_filler {
      type: "constant"
      value: 0.2
    }
  }
}
layer {
  name: "inception_4b/relu_3x3_reduce"
  type: "ReLU"
  bottom: "inception_4b/3x3_reduce"
  top: "inception_4b/3x3_reduce"
}
layer {
  name: "inception_4b/3x3"
  type: "Convolution"
  bottom: "inception_4b/3x3_reduce"
  top: "inception_4b/3x3"
  param {
    lr_mult: 1
    decay_mult: 1
  }
  param {
    lr_mult: 2
    decay_mult: 0
  }
  convolution_param {
    num_output: 224
    pad: 1
    kernel_size: 3
    weight_filler {
      type: "xavier"
      std: 0.03
    }
    bias_filler {
      type: "constant"
      value: 0.2
    }
  }
}
layer {
  name: "inception_4b/relu_3x3"
  type: "ReLU"
  bottom: "inception_4b/3x3"
  top: "inception_4b/3x3"
}
layer {
  name: "inception_4b/5x5_reduce"
  type: "Convolution"
  bottom: "inception_4a/output"
  top: "inception_4b/5x5_reduce"
  param {
    lr_mult: 1
    decay_mult: 1
  }
  param {
    lr_mult: 2
    decay_mult: 0
  }
  convolution_param {
    num_output: 24
    kernel_size: 1
    weight_filler {
      type: "xavier"
      std: 0.2
    }
    bias_filler {
      type: "constant"
      value: 0.2
    }
  }
}
layer {
  name: "inception_4b/relu_5x5_reduce"
  type: "ReLU"
  bottom: "inception_4b/5x5_reduce"
  top: "inception_4b/5x5_reduce"
}
layer {
  name: "inception_4b/5x5"
  type: "Convolution"
  bottom: "inception_4b/5x5_reduce"
  top: "inception_4b/5x5"
  param {
    lr_mult: 1
    decay_mult: 1
  }
  param {
    lr_mult: 2
    decay_mult: 0
  }
  convolution_param {
    num_output: 64
    pad: 2
    kernel_size: 5
    weight_filler {
      type: "xavier"
      std: 0.03
    }
    bias_filler {
      type: "constant"
      value: 0.2
    }
  }
}
layer {
  name: "inception_4b/relu_5x5"
  type: "ReLU"
  bottom: "inception_4b/5x5"
  top: "inception_4b/5x5"
}
layer {
  name: "inception_4b/pool"
  type: "Pooling"
  bottom: "inception_4a/output"
  top: "inception_4b/pool"
  pooling_param {
    pool: MAX
    kernel_size: 3
    stride: 1
    pad: 1
  }
}
layer {
  name: "inception_4b/pool_proj"
  type: "Convolution"
  bottom: "inception_4b/pool"
  top: "inception_4b/pool_proj"
  param {
    lr_mult: 1
    decay_mult: 1
  }
  param {
    lr_mult: 2
    decay_mult: 0
  }
  convolution_param {
    num_output: 64
    kernel_size: 1
    weight_filler {
      type: "xavier"
      std: 0.1
    }
    bias_filler {
      type: "constant"
      value: 0.2
    }
  }
}
layer {
  name: "inception_4b/relu_pool_proj"
  type: "ReLU"
  bottom: "inception_4b/pool_proj"
  top: "inception_4b/pool_proj"
}
layer {
  name: "inception_4b/output"
  type: "Concat"
  bottom: "inception_4b/1x1"
  bottom: "inception_4b/3x3"
  bottom: "inception_4b/5x5"
  bottom: "inception_4b/pool_proj"
  top: "inception_4b/output"
}
layer {
  name: "inception_4c/1x1"
  type: "Convolution"
  bottom: "inception_4b/output"
  top: "inception_4c/1x1"
  param {
    lr_mult: 1
    decay_mult: 1
  }
  param {
    lr_mult: 2
    decay_mult: 0
  }
  convolution_param {
    num_output: 128
    kernel_size: 1
    weight_filler {
      type: "xavier"
      std: 0.03
    }
    bias_filler {
      type: "constant"
      value: 0.2
    }
  }
}
layer {
  name: "inception_4c/relu_1x1"
  type: "ReLU"
  bottom: "inception_4c/1x1"
  top: "inception_4c/1x1"
}
layer {
  name: "inception_4c/3x3_reduce"
  type: "Convolution"
  bottom: "inception_4b/output"
  top: "inception_4c/3x3_reduce"
  param {
    lr_mult: 1
    decay_mult: 1
  }
  param {
    lr_mult: 2
    decay_mult: 0
  }
  convolution_param {
    num_output: 128
    kernel_size: 1
    weight_filler {
      type: "xavier"
      std: 0.09
    }
    bias_filler {
      type: "constant"
      value: 0.2
    }
  }
}
layer {
  name: "inception_4c/relu_3x3_reduce"
  type: "ReLU"
  bottom: "inception_4c/3x3_reduce"
  top: "inception_4c/3x3_reduce"
}
layer {
  name: "inception_4c/3x3"
  type: "Convolution"
  bottom: "inception_4c/3x3_reduce"
  top: "inception_4c/3x3"
  param {
    lr_mult: 1
    decay_mult: 1
  }
  param {
    lr_mult: 2
    decay_mult: 0
  }
  convolution_param {
    num_output: 256
    pad: 1
    kernel_size: 3
    weight_filler {
      type: "xavier"
      std: 0.03
    }
    bias_filler {
      type: "constant"
      value: 0.2
    }
  }
}
layer {
  name: "inception_4c/relu_3x3"
  type: "ReLU"
  bottom: "inception_4c/3x3"
  top: "inception_4c/3x3"
}
layer {
  name: "inception_4c/5x5_reduce"
  type: "Convolution"
  bottom: "inception_4b/output"
  top: "inception_4c/5x5_reduce"
  param {
    lr_mult: 1
    decay_mult: 1
  }
  param {
    lr_mult: 2
    decay_mult: 0
  }
  convolution_param {
    num_output: 24
    kernel_size: 1
    weight_filler {
      type: "xavier"
      std: 0.2
    }
    bias_filler {
      type: "constant"
      value: 0.2
    }
  }
}
layer {
  name: "inception_4c/relu_5x5_reduce"
  type: "ReLU"
  bottom: "inception_4c/5x5_reduce"
  top: "inception_4c/5x5_reduce"
}
layer {
  name: "inception_4c/5x5"
  type: "Convolution"
  bottom: "inception_4c/5x5_reduce"
  top: "inception_4c/5x5"
  param {
    lr_mult: 1
    decay_mult: 1
  }
  param {
    lr_mult: 2
    decay_mult: 0
  }
  convolution_param {
    num_output: 64
    pad: 2
    kernel_size: 5
    weight_filler {
      type: "xavier"
      std: 0.03
    }
    bias_filler {
      type: "constant"
      value: 0.2
    }
  }
}
layer {
  name: "inception_4c/relu_5x5"
  type: "ReLU"
  bottom: "inception_4c/5x5"
  top: "inception_4c/5x5"
}
layer {
  name: "inception_4c/pool"
  type: "Pooling"
  bottom: "inception_4b/output"
  top: "inception_4c/pool"
  pooling_param {
    pool: MAX
    kernel_size: 3
    stride: 1
    pad: 1
  }
}
layer {
  name: "inception_4c/pool_proj"
  type: "Convolution"
  bottom: "inception_4c/pool"
  top: "inception_4c/pool_proj"
  param {
    lr_mult: 1
    decay_mult: 1
  }
  param {
    lr_mult: 2
    decay_mult: 0
  }
  convolution_param {
    num_output: 64
    kernel_size: 1
    weight_filler {
      type: "xavier"
      std: 0.1
    }
    bias_filler {
      type: "constant"
      value: 0.2
    }
  }
}
layer {
  name: "inception_4c/relu_pool_proj"
  type: "ReLU"
  bottom: "inception_4c/pool_proj"
  top: "inception_4c/pool_proj"
}
layer {
  name: "inception_4c/output"
  type: "Concat"
  bottom: "inception_4c/1x1"
  bottom: "inception_4c/3x3"
  bottom: "inception_4c/5x5"
  bottom: "inception_4c/pool_proj"
  top: "inception_4c/output"
}
layer {
  name: "inception_4d/1x1"
  type: "Convolution"
  bottom: "inception_4c/output"
  top: "inception_4d/1x1"
  param {
    lr_mult: 1
    decay_mult: 1
  }
  param {
    lr_mult: 2
    decay_mult: 0
  }
  convolution_param {
    num_output: 112
    kernel_size: 1
    weight_filler {
      type: "xavier"
      std: 0.03
    }
    bias_filler {
      type: "constant"
      value: 0.2
    }
  }
}
layer {
  name: "inception_4d/relu_1x1"
  type: "ReLU"
  bottom: "inception_4d/1x1"
  top: "inception_4d/1x1"
}
layer {
  name: "inception_4d/3x3_reduce"
  type: "Convolution"
  bottom: "inception_4c/output"
  top: "inception_4d/3x3_reduce"
  param {
    lr_mult: 1
    decay_mult: 1
  }
  param {
    lr_mult: 2
    decay_mult: 0
  }
  convolution_param {
    num_output: 144
    kernel_size: 1
    weight_filler {
      type: "xavier"
      std: 0.09
    }
    bias_filler {
      type: "constant"
      value: 0.2
    }
  }
}
layer {
  name: "inception_4d/relu_3x3_reduce"
  type: "ReLU"
  bottom: "inception_4d/3x3_reduce"
  top: "inception_4d/3x3_reduce"
}
layer {
  name: "inception_4d/3x3"
  type: "Convolution"
  bottom: "inception_4d/3x3_reduce"
  top: "inception_4d/3x3"
  param {
    lr_mult: 1
    decay_mult: 1
  }
  param {
    lr_mult: 2
    decay_mult: 0
  }
  convolution_param {
    num_output: 288
    pad: 1
    kernel_size: 3
    weight_filler {
      type: "xavier"
      std: 0.03
    }
    bias_filler {
      type: "constant"
      value: 0.2
    }
  }
}
layer {
  name: "inception_4d/relu_3x3"
  type: "ReLU"
  bottom: "inception_4d/3x3"
  top: "inception_4d/3x3"
}
layer {
  name: "inception_4d/5x5_reduce"
  type: "Convolution"
  bottom: "inception_4c/output"
  top: "inception_4d/5x5_reduce"
  param {
    lr_mult: 1
    decay_mult: 1
  }
  param {
    lr_mult: 2
    decay_mult: 0
  }
  convolution_param {
    num_output: 32
    kernel_size: 1
    weight_filler {
      type: "xavier"
      std: 0.2
    }
    bias_filler {
      type: "constant"
      value: 0.2
    }
  }
}
layer {
  name: "inception_4d/relu_5x5_reduce"
  type: "ReLU"
  bottom: "inception_4d/5x5_reduce"
  top: "inception_4d/5x5_reduce"
}
layer {
  name: "inception_4d/5x5"
  type: "Convolution"
  bottom: "inception_4d/5x5_reduce"
  top: "inception_4d/5x5"
  param {
    lr_mult: 1
    decay_mult: 1
  }
  param {
    lr_mult: 2
    decay_mult: 0
  }
  convolution_param {
    num_output: 64
    pad: 2
    kernel_size: 5
    weight_filler {
      type: "xavier"
      std: 0.03
    }
    bias_filler {
      type: "constant"
      value: 0.2
    }
  }
}
layer {
  name: "inception_4d/relu_5x5"
  type: "ReLU"
  bottom: "inception_4d/5x5"
  top: "inception_4d/5x5"
}
layer {
  name: "inception_4d/pool"
  type: "Pooling"
  bottom: "inception_4c/output"
  top: "inception_4d/pool"
  pooling_param {
    pool: MAX
    kernel_size: 3
    stride: 1
    pad: 1
  }
}
layer {
  name: "inception_4d/pool_proj"
  type: "Convolution"
  bottom: "inception_4d/pool"
  top: "inception_4d/pool_proj"
  param {
    lr_mult: 1
    decay_mult: 1
  }
  param {
    lr_mult: 2
    decay_mult: 0
  }
  convolution_param {
    num_output: 64
    kernel_size: 1
    weight_filler {
      type: "xavier"
      std: 0.1
    }
    bias_filler {
      type: "constant"
      value: 0.2
    }
  }
}
layer {
  name: "inception_4d/relu_pool_proj"
  type: "ReLU"
  bottom: "inception_4d/pool_proj"
  top: "inception_4d/pool_proj"
}
layer {
  name: "inception_4d/output"
  type: "Concat"
  bottom: "inception_4d/1x1"
  bottom: "inception_4d/3x3"
  bottom: "inception_4d/5x5"
  bottom: "inception_4d/pool_proj"
  top: "inception_4d/output"
}
layer {
  name: "loss2/ave_pool"
  type: "Pooling"
  bottom: "inception_4d/output"
  top: "loss2/ave_pool"
  pooling_param {
    pool: AVE
    kernel_size: 5
    stride: 3
  }
}
layer {
  name: "loss2/conv"
  type: "Convolution"
  bottom: "loss2/ave_pool"
  top: "loss2/conv"
  param {
    lr_mult: 1
    decay_mult: 1
  }
  param {
    lr_mult: 2
    decay_mult: 0
  }
  convolution_param {
    num_output: 128
    kernel_size: 1
    weight_filler {
      type: "xavier"
      std: 0.08
    }
    bias_filler {
      type: "constant"
      value: 0.2
    }
  }
}
layer {
  name: "loss2/relu_conv"
  type: "ReLU"
  bottom: "loss2/conv"
  top: "loss2/conv"
}
layer {
  name: "loss2/fc"
  type: "InnerProduct"
  bottom: "loss2/conv"
  top: "loss2/fc"
  param {
    lr_mult: 1
    decay_mult: 1
  }
  param {
    lr_mult: 2
    decay_mult: 0
  }
  inner_product_param {
    num_output: 1024
    weight_filler {
      type: "xavier"
      std: 0.02
    }
    bias_filler {
      type: "constant"
      value: 0.2
    }
  }
}
layer {
  name: "loss2/relu_fc"
  type: "ReLU"
  bottom: "loss2/fc"
  top: "loss2/fc"
}
layer {
  name: "loss2/drop_fc"
  type: "Dropout"
  bottom: "loss2/fc"
  top: "loss2/fc"
  dropout_param {
    dropout_ratio: 0.7
  }
}
layer {
  name: "loss2/classifier_plantvillage"
  type: "InnerProduct"
  bottom: "loss2/fc"
  top: "loss2/classifier_plantvillage"
  param {
    lr_mult: 1
    decay_mult: 1
  }
  param {
    lr_mult: 2
    decay_mult: 0
  }
  inner_product_param {
    num_output: 38
    weight_filler {
      type: "xavier"
      std: 0.0009765625
    }
    bias_filler {
      type: "constant"
      value: 0
    }
  }
}
layer {
  name: "inception_4e/1x1"
  type: "Convolution"
  bottom: "inception_4d/output"
  top: "inception_4e/1x1"
  param {
    lr_mult: 1
    decay_mult: 1
  }
  param {
    lr_mult: 2
    decay_mult: 0
  }
  convolution_param {
    num_output: 256
    kernel_size: 1
    weight_filler {
      type: "xavier"
      std: 0.03
    }
    bias_filler {
      type: "constant"
      value: 0.2
    }
  }
}
layer {
  name: "inception_4e/relu_1x1"
  type: "ReLU"
  bottom: "inception_4e/1x1"
  top: "inception_4e/1x1"
}
layer {
  name: "inception_4e/3x3_reduce"
  type: "Convolution"
  bottom: "inception_4d/output"
  top: "inception_4e/3x3_reduce"
  param {
    lr_mult: 1
    decay_mult: 1
  }
  param {
    lr_mult: 2
    decay_mult: 0
  }
  convolution_param {
    num_output: 160
    kernel_size: 1
    weight_filler {
      type: "xavier"
      std: 0.09
    }
    bias_filler {
      type: "constant"
      value: 0.2
    }
  }
}
layer {
  name: "inception_4e/relu_3x3_reduce"
  type: "ReLU"
  bottom: "inception_4e/3x3_reduce"
  top: "inception_4e/3x3_reduce"
}
layer {
  name: "inception_4e/3x3"
  type: "Convolution"
  bottom: "inception_4e/3x3_reduce"
  top: "inception_4e/3x3"
  param {
    lr_mult: 1
    decay_mult: 1
  }
  param {
    lr_mult: 2
    decay_mult: 0
  }
  convolution_param {
    num_output: 320
    pad: 1
    kernel_size: 3
    weight_filler {
      type: "xavier"
      std: 0.03
    }
    bias_filler {
      type: "constant"
      value: 0.2
    }
  }
}
layer {
  name: "inception_4e/relu_3x3"
  type: "ReLU"
  bottom: "inception_4e/3x3"
  top: "inception_4e/3x3"
}
layer {
  name: "inception_4e/5x5_reduce"
  type: "Convolution"
  bottom: "inception_4d/output"
  top: "inception_4e/5x5_reduce"
  param {
    lr_mult: 1
    decay_mult: 1
  }
  param {
    lr_mult: 2
    decay_mult: 0
  }
  convolution_param {
    num_output: 32
    kernel_size: 1
    weight_filler {
      type: "xavier"
      std: 0.2
    }
    bias_filler {
      type: "constant"
      value: 0.2
    }
  }
}
layer {
  name: "inception_4e/relu_5x5_reduce"
  type: "ReLU"
  bottom: "inception_4e/5x5_reduce"
  top: "inception_4e/5x5_reduce"
}
layer {
  name: "inception_4e/5x5"
  type: "Convolution"
  bottom: "inception_4e/5x5_reduce"
  top: "inception_4e/
I0403 18:10:01.380432 16404 layer_factory.hpp:77] Creating layer data
I0403 18:10:01.381031 16404 net.cpp:91] Creating Layer data
I0403 18:10:01.381062 16404 net.cpp:399] data -> data
I0403 18:10:01.381113 16404 net.cpp:399] data -> label
I0403 18:10:01.381148 16404 data_transformer.cpp:25] Loading mean file from: /home/mohanty/data/final_dataset/lmdb/grayscale-60-40/mean.binaryproto
I0403 18:10:01.382280 16406 db_lmdb.cpp:38] Opened lmdb /home/mohanty/data/final_dataset/lmdb/grayscale-60-40/test_db
I0403 18:10:01.394258 16404 data_layer.cpp:41] output data size: 24,3,224,224
I0403 18:10:01.420629 16404 net.cpp:141] Setting up data
I0403 18:10:01.420714 16404 net.cpp:148] Top shape: 24 3 224 224 (3612672)
I0403 18:10:01.420737 16404 net.cpp:148] Top shape: 24 (24)
I0403 18:10:01.420752 16404 net.cpp:156] Memory required for data: 14450784
I0403 18:10:01.420778 16404 layer_factory.hpp:77] Creating layer label_data_1_split
I0403 18:10:01.420804 16404 net.cpp:91] Creating Layer label_data_1_split
I0403 18:10:01.420821 16404 net.cpp:425] label_data_1_split <- label
I0403 18:10:01.420852 16404 net.cpp:399] label_data_1_split -> label_data_1_split_0
I0403 18:10:01.420879 16404 net.cpp:399] label_data_1_split -> label_data_1_split_1
I0403 18:10:01.420902 16404 net.cpp:399] label_data_1_split -> label_data_1_split_2
I0403 18:10:01.420922 16404 net.cpp:399] label_data_1_split -> label_data_1_split_3
I0403 18:10:01.420941 16404 net.cpp:399] label_data_1_split -> label_data_1_split_4
I0403 18:10:01.420961 16404 net.cpp:399] label_data_1_split -> label_data_1_split_5
I0403 18:10:01.420984 16404 net.cpp:399] label_data_1_split -> label_data_1_split_6
I0403 18:10:01.421005 16404 net.cpp:399] label_data_1_split -> label_data_1_split_7
I0403 18:10:01.421025 16404 net.cpp:399] label_data_1_split -> label_data_1_split_8
I0403 18:10:01.421044 16404 net.cpp:399] label_data_1_split -> label_data_1_split_9
I0403 18:10:01.421155 16404 net.cpp:141] Setting up label_data_1_split
I0403 18:10:01.421178 16404 net.cpp:148] Top shape: 24 (24)
I0403 18:10:01.421195 16404 net.cpp:148] Top shape: 24 (24)
I0403 18:10:01.421210 16404 net.cpp:148] Top shape: 24 (24)
I0403 18:10:01.421226 16404 net.cpp:148] Top shape: 24 (24)
I0403 18:10:01.421241 16404 net.cpp:148] Top shape: 24 (24)
I0403 18:10:01.421254 16404 net.cpp:148] Top shape: 24 (24)
I0403 18:10:01.421270 16404 net.cpp:148] Top shape: 24 (24)
I0403 18:10:01.421284 16404 net.cpp:148] Top shape: 24 (24)
I0403 18:10:01.421300 16404 net.cpp:148] Top shape: 24 (24)
I0403 18:10:01.421315 16404 net.cpp:148] Top shape: 24 (24)
I0403 18:10:01.421358 16404 net.cpp:156] Memory required for data: 14451744
I0403 18:10:01.421375 16404 layer_factory.hpp:77] Creating layer conv1/7x7_s2
I0403 18:10:01.421404 16404 net.cpp:91] Creating Layer conv1/7x7_s2
I0403 18:10:01.421423 16404 net.cpp:425] conv1/7x7_s2 <- data
I0403 18:10:01.421442 16404 net.cpp:399] conv1/7x7_s2 -> conv1/7x7_s2
I0403 18:10:01.558094 16404 net.cpp:141] Setting up conv1/7x7_s2
I0403 18:10:01.558179 16404 net.cpp:148] Top shape: 24 64 112 112 (19267584)
I0403 18:10:01.558195 16404 net.cpp:156] Memory required for data: 91522080
I0403 18:10:01.558225 16404 layer_factory.hpp:77] Creating layer conv1/relu_7x7
I0403 18:10:01.558251 16404 net.cpp:91] Creating Layer conv1/relu_7x7
I0403 18:10:01.558269 16404 net.cpp:425] conv1/relu_7x7 <- conv1/7x7_s2
I0403 18:10:01.558287 16404 net.cpp:386] conv1/relu_7x7 -> conv1/7x7_s2 (in-place)
I0403 18:10:01.558542 16404 net.cpp:141] Setting up conv1/relu_7x7
I0403 18:10:01.558568 16404 net.cpp:148] Top shape: 24 64 112 112 (19267584)
I0403 18:10:01.558583 16404 net.cpp:156] Memory required for data: 168592416
I0403 18:10:01.558598 16404 layer_factory.hpp:77] Creating layer pool1/3x3_s2
I0403 18:10:01.558622 16404 net.cpp:91] Creating Layer pool1/3x3_s2
I0403 18:10:01.558640 16404 net.cpp:425] pool1/3x3_s2 <- conv1/7x7_s2
I0403 18:10:01.558658 16404 net.cpp:399] pool1/3x3_s2 -> pool1/3x3_s2
I0403 18:10:01.558732 16404 net.cpp:141] Setting up pool1/3x3_s2
I0403 18:10:01.558756 16404 net.cpp:148] Top shape: 24 64 56 56 (4816896)
I0403 18:10:01.558770 16404 net.cpp:156] Memory required for data: 187860000
I0403 18:10:01.558785 16404 layer_factory.hpp:77] Creating layer pool1/norm1
I0403 18:10:01.558809 16404 net.cpp:91] Creating Layer pool1/norm1
I0403 18:10:01.558826 16404 net.cpp:425] pool1/norm1 <- pool1/3x3_s2
I0403 18:10:01.558845 16404 net.cpp:399] pool1/norm1 -> pool1/norm1
I0403 18:10:01.559134 16404 net.cpp:141] Setting up pool1/norm1
I0403 18:10:01.559160 16404 net.cpp:148] Top shape: 24 64 56 56 (4816896)
I0403 18:10:01.559175 16404 net.cpp:156] Memory required for data: 207127584
I0403 18:10:01.559190 16404 layer_factory.hpp:77] Creating layer conv2/3x3_reduce
I0403 18:10:01.559214 16404 net.cpp:91] Creating Layer conv2/3x3_reduce
I0403 18:10:01.559232 16404 net.cpp:425] conv2/3x3_reduce <- pool1/norm1
I0403 18:10:01.559250 16404 net.cpp:399] conv2/3x3_reduce -> conv2/3x3_reduce
I0403 18:10:01.560562 16404 net.cpp:141] Setting up conv2/3x3_reduce
I0403 18:10:01.560591 16404 net.cpp:148] Top shape: 24 64 56 56 (4816896)
I0403 18:10:01.560607 16404 net.cpp:156] Memory required for data: 226395168
I0403 18:10:01.560628 16404 layer_factory.hpp:77] Creating layer conv2/relu_3x3_reduce
I0403 18:10:01.560647 16404 net.cpp:91] Creating Layer conv2/relu_3x3_reduce
I0403 18:10:01.560662 16404 net.cpp:425] conv2/relu_3x3_reduce <- conv2/3x3_reduce
I0403 18:10:01.560678 16404 net.cpp:386] conv2/relu_3x3_reduce -> conv2/3x3_reduce (in-place)
I0403 18:10:01.560931 16404 net.cpp:141] Setting up conv2/relu_3x3_reduce
I0403 18:10:01.560956 16404 net.cpp:148] Top shape: 24 64 56 56 (4816896)
I0403 18:10:01.560972 16404 net.cpp:156] Memory required for data: 245662752
I0403 18:10:01.560992 16404 layer_factory.hpp:77] Creating layer conv2/3x3
I0403 18:10:01.561013 16404 net.cpp:91] Creating Layer conv2/3x3
I0403 18:10:01.561030 16404 net.cpp:425] conv2/3x3 <- conv2/3x3_reduce
I0403 18:10:01.561048 16404 net.cpp:399] conv2/3x3 -> conv2/3x3
I0403 18:10:01.563279 16404 net.cpp:141] Setting up conv2/3x3
I0403 18:10:01.563308 16404 net.cpp:148] Top shape: 24 192 56 56 (14450688)
I0403 18:10:01.563326 16404 net.cpp:156] Memory required for data: 303465504
I0403 18:10:01.563351 16404 layer_factory.hpp:77] Creating layer conv2/relu_3x3
I0403 18:10:01.563371 16404 net.cpp:91] Creating Layer conv2/relu_3x3
I0403 18:10:01.563388 16404 net.cpp:425] conv2/relu_3x3 <- conv2/3x3
I0403 18:10:01.563405 16404 net.cpp:386] conv2/relu_3x3 -> conv2/3x3 (in-place)
I0403 18:10:01.563566 16404 net.cpp:141] Setting up conv2/relu_3x3
I0403 18:10:01.563591 16404 net.cpp:148] Top shape: 24 192 56 56 (14450688)
I0403 18:10:01.563635 16404 net.cpp:156] Memory required for data: 361268256
I0403 18:10:01.563652 16404 layer_factory.hpp:77] Creating layer conv2/norm2
I0403 18:10:01.563670 16404 net.cpp:91] Creating Layer conv2/norm2
I0403 18:10:01.563686 16404 net.cpp:425] conv2/norm2 <- conv2/3x3
I0403 18:10:01.563705 16404 net.cpp:399] conv2/norm2 -> conv2/norm2
I0403 18:10:01.563995 16404 net.cpp:141] Setting up conv2/norm2
I0403 18:10:01.564021 16404 net.cpp:148] Top shape: 24 192 56 56 (14450688)
I0403 18:10:01.564036 16404 net.cpp:156] Memory required for data: 419071008
I0403 18:10:01.564051 16404 layer_factory.hpp:77] Creating layer pool2/3x3_s2
I0403 18:10:01.564070 16404 net.cpp:91] Creating Layer pool2/3x3_s2
I0403 18:10:01.564086 16404 net.cpp:425] pool2/3x3_s2 <- conv2/norm2
I0403 18:10:01.564105 16404 net.cpp:399] pool2/3x3_s2 -> pool2/3x3_s2
I0403 18:10:01.564153 16404 net.cpp:141] Setting up pool2/3x3_s2
I0403 18:10:01.564177 16404 net.cpp:148] Top shape: 24 192 28 28 (3612672)
I0403 18:10:01.564190 16404 net.cpp:156] Memory required for data: 433521696
I0403 18:10:01.564204 16404 layer_factory.hpp:77] Creating layer pool2/3x3_s2_pool2/3x3_s2_0_split
I0403 18:10:01.564223 16404 net.cpp:91] Creating Layer pool2/3x3_s2_pool2/3x3_s2_0_split
I0403 18:10:01.564237 16404 net.cpp:425] pool2/3x3_s2_pool2/3x3_s2_0_split <- pool2/3x3_s2
I0403 18:10:01.564254 16404 net.cpp:399] pool2/3x3_s2_pool2/3x3_s2_0_split -> pool2/3x3_s2_pool2/3x3_s2_0_split_0
I0403 18:10:01.564273 16404 net.cpp:399] pool2/3x3_s2_pool2/3x3_s2_0_split -> pool2/3x3_s2_pool2/3x3_s2_0_split_1
I0403 18:10:01.564293 16404 net.cpp:399] pool2/3x3_s2_pool2/3x3_s2_0_split -> pool2/3x3_s2_pool2/3x3_s2_0_split_2
I0403 18:10:01.564313 16404 net.cpp:399] pool2/3x3_s2_pool2/3x3_s2_0_split -> pool2/3x3_s2_pool2/3x3_s2_0_split_3
I0403 18:10:01.564378 16404 net.cpp:141] Setting up pool2/3x3_s2_pool2/3x3_s2_0_split
I0403 18:10:01.564399 16404 net.cpp:148] Top shape: 24 192 28 28 (3612672)
I0403 18:10:01.564415 16404 net.cpp:148] Top shape: 24 192 28 28 (3612672)
I0403 18:10:01.564430 16404 net.cpp:148] Top shape: 24 192 28 28 (3612672)
I0403 18:10:01.564445 16404 net.cpp:148] Top shape: 24 192 28 28 (3612672)
I0403 18:10:01.564460 16404 net.cpp:156] Memory required for data: 491324448
I0403 18:10:01.564474 16404 layer_factory.hpp:77] Creating layer inception_3a/1x1
I0403 18:10:01.564494 16404 net.cpp:91] Creating Layer inception_3a/1x1
I0403 18:10:01.564512 16404 net.cpp:425] inception_3a/1x1 <- pool2/3x3_s2_pool2/3x3_s2_0_split_0
I0403 18:10:01.564528 16404 net.cpp:399] inception_3a/1x1 -> inception_3a/1x1
I0403 18:10:01.565999 16404 net.cpp:141] Setting up inception_3a/1x1
I0403 18:10:01.566028 16404 net.cpp:148] Top shape: 24 64 28 28 (1204224)
I0403 18:10:01.566045 16404 net.cpp:156] Memory required for data: 496141344
I0403 18:10:01.566063 16404 layer_factory.hpp:77] Creating layer inception_3a/relu_1x1
I0403 18:10:01.566082 16404 net.cpp:91] Creating Layer inception_3a/relu_1x1
I0403 18:10:01.566097 16404 net.cpp:425] inception_3a/relu_1x1 <- inception_3a/1x1
I0403 18:10:01.566113 16404 net.cpp:386] inception_3a/relu_1x1 -> inception_3a/1x1 (in-place)
I0403 18:10:01.566269 16404 net.cpp:141] Setting up inception_3a/relu_1x1
I0403 18:10:01.566294 16404 net.cpp:148] Top shape: 24 64 28 28 (1204224)
I0403 18:10:01.566309 16404 net.cpp:156] Memory required for data: 500958240
I0403 18:10:01.566324 16404 layer_factory.hpp:77] Creating layer inception_3a/3x3_reduce
I0403 18:10:01.566350 16404 net.cpp:91] Creating Layer inception_3a/3x3_reduce
I0403 18:10:01.566367 16404 net.cpp:425] inception_3a/3x3_reduce <- pool2/3x3_s2_pool2/3x3_s2_0_split_1
I0403 18:10:01.566386 16404 net.cpp:399] inception_3a/3x3_reduce -> inception_3a/3x3_reduce
I0403 18:10:01.568060 16404 net.cpp:141] Setting up inception_3a/3x3_reduce
I0403 18:10:01.568091 16404 net.cpp:148] Top shape: 24 96 28 28 (1806336)
I0403 18:10:01.568109 16404 net.cpp:156] Memory required for data: 508183584
I0403 18:10:01.568130 16404 layer_factory.hpp:77] Creating layer inception_3a/relu_3x3_reduce
I0403 18:10:01.568166 16404 net.cpp:91] Creating Layer inception_3a/relu_3x3_reduce
I0403 18:10:01.568184 16404 net.cpp:425] inception_3a/relu_3x3_reduce <- inception_3a/3x3_reduce
I0403 18:10:01.568203 16404 net.cpp:386] inception_3a/relu_3x3_reduce -> inception_3a/3x3_reduce (in-place)
I0403 18:10:01.568383 16404 net.cpp:141] Setting up inception_3a/relu_3x3_reduce
I0403 18:10:01.568408 16404 net.cpp:148] Top shape: 24 96 28 28 (1806336)
I0403 18:10:01.568423 16404 net.cpp:156] Memory required for data: 515408928
I0403 18:10:01.568438 16404 layer_factory.hpp:77] Creating layer inception_3a/3x3
I0403 18:10:01.568460 16404 net.cpp:91] Creating Layer inception_3a/3x3
I0403 18:10:01.568477 16404 net.cpp:425] inception_3a/3x3 <- inception_3a/3x3_reduce
I0403 18:10:01.568495 16404 net.cpp:399] inception_3a/3x3 -> inception_3a/3x3
I0403 18:10:01.570128 16404 net.cpp:141] Setting up inception_3a/3x3
I0403 18:10:01.570158 16404 net.cpp:148] Top shape: 24 128 28 28 (2408448)
I0403 18:10:01.570173 16404 net.cpp:156] Memory required for data: 525042720
I0403 18:10:01.570191 16404 layer_factory.hpp:77] Creating layer inception_3a/relu_3x3
I0403 18:10:01.570209 16404 net.cpp:91] Creating Layer inception_3a/relu_3x3
I0403 18:10:01.570225 16404 net.cpp:425] inception_3a/relu_3x3 <- inception_3a/3x3
I0403 18:10:01.570245 16404 net.cpp:386] inception_3a/relu_3x3 -> inception_3a/3x3 (in-place)
I0403 18:10:01.570511 16404 net.cpp:141] Setting up inception_3a/relu_3x3
I0403 18:10:01.570538 16404 net.cpp:148] Top shape: 24 128 28 28 (2408448)
I0403 18:10:01.570552 16404 net.cpp:156] Memory required for data: 534676512
I0403 18:10:01.570567 16404 layer_factory.hpp:77] Creating layer inception_3a/5x5_reduce
I0403 18:10:01.570590 16404 net.cpp:91] Creating Layer inception_3a/5x5_reduce
I0403 18:10:01.570607 16404 net.cpp:425] inception_3a/5x5_reduce <- pool2/3x3_s2_pool2/3x3_s2_0_split_2
I0403 18:10:01.570628 16404 net.cpp:399] inception_3a/5x5_reduce -> inception_3a/5x5_reduce
I0403 18:10:01.571574 16404 net.cpp:141] Setting up inception_3a/5x5_reduce
I0403 18:10:01.571601 16404 net.cpp:148] Top shape: 24 16 28 28 (301056)
I0403 18:10:01.571617 16404 net.cpp:156] Memory required for data: 535880736
I0403 18:10:01.571635 16404 layer_factory.hpp:77] Creating layer inception_3a/relu_5x5_reduce
I0403 18:10:01.571653 16404 net.cpp:91] Creating Layer inception_3a/relu_5x5_reduce
I0403 18:10:01.571671 16404 net.cpp:425] inception_3a/relu_5x5_reduce <- inception_3a/5x5_reduce
I0403 18:10:01.571692 16404 net.cpp:386] inception_3a/relu_5x5_reduce -> inception_3a/5x5_reduce (in-place)
I0403 18:10:01.571987 16404 net.cpp:141] Setting up inception_3a/relu_5x5_reduce
I0403 18:10:01.572013 16404 net.cpp:148] Top shape: 24 16 28 28 (301056)
I0403 18:10:01.572028 16404 net.cpp:156] Memory required for data: 537084960
I0403 18:10:01.572043 16404 layer_factory.hpp:77] Creating layer inception_3a/5x5
I0403 18:10:01.572065 16404 net.cpp:91] Creating Layer inception_3a/5x5
I0403 18:10:01.572082 16404 net.cpp:425] inception_3a/5x5 <- inception_3a/5x5_reduce
I0403 18:10:01.572103 16404 net.cpp:399] inception_3a/5x5 -> inception_3a/5x5
I0403 18:10:01.573103 16404 net.cpp:141] Setting up inception_3a/5x5
I0403 18:10:01.573133 16404 net.cpp:148] Top shape: 24 32 28 28 (602112)
I0403 18:10:01.573149 16404 net.cpp:156] Memory required for data: 539493408
I0403 18:10:01.573168 16404 layer_factory.hpp:77] Creating layer inception_3a/relu_5x5
I0403 18:10:01.573185 16404 net.cpp:91] Creating Layer inception_3a/relu_5x5
I0403 18:10:01.573201 16404 net.cpp:425] inception_3a/relu_5x5 <- inception_3a/5x5
I0403 18:10:01.573218 16404 net.cpp:386] inception_3a/relu_5x5 -> inception_3a/5x5 (in-place)
I0403 18:10:01.573391 16404 net.cpp:141] Setting up inception_3a/relu_5x5
I0403 18:10:01.573416 16404 net.cpp:148] Top shape: 24 32 28 28 (602112)
I0403 18:10:01.573431 16404 net.cpp:156] Memory required for data: 541901856
I0403 18:10:01.573446 16404 layer_factory.hpp:77] Creating layer inception_3a/pool
I0403 18:10:01.573462 16404 net.cpp:91] Creating Layer inception_3a/pool
I0403 18:10:01.573493 16404 net.cpp:425] inception_3a/pool <- pool2/3x3_s2_pool2/3x3_s2_0_split_3
I0403 18:10:01.573513 16404 net.cpp:399] inception_3a/pool -> inception_3a/pool
I0403 18:10:01.573570 16404 net.cpp:141] Setting up inception_3a/pool
I0403 18:10:01.573596 16404 net.cpp:148] Top shape: 24 192 28 28 (3612672)
I0403 18:10:01.573611 16404 net.cpp:156] Memory required for data: 556352544
I0403 18:10:01.573626 16404 layer_factory.hpp:77] Creating layer inception_3a/pool_proj
I0403 18:10:01.573648 16404 net.cpp:91] Creating Layer inception_3a/pool_proj
I0403 18:10:01.573665 16404 net.cpp:425] inception_3a/pool_proj <- inception_3a/pool
I0403 18:10:01.573683 16404 net.cpp:399] inception_3a/pool_proj -> inception_3a/pool_proj
I0403 18:10:01.574640 16404 net.cpp:141] Setting up inception_3a/pool_proj
I0403 18:10:01.574666 16404 net.cpp:148] Top shape: 24 32 28 28 (602112)
I0403 18:10:01.574681 16404 net.cpp:156] Memory required for data: 558760992
I0403 18:10:01.574705 16404 layer_factory.hpp:77] Creating layer inception_3a/relu_pool_proj
I0403 18:10:01.574725 16404 net.cpp:91] Creating Layer inception_3a/relu_pool_proj
I0403 18:10:01.574741 16404 net.cpp:425] inception_3a/relu_pool_proj <- inception_3a/pool_proj
I0403 18:10:01.574764 16404 net.cpp:386] inception_3a/relu_pool_proj -> inception_3a/pool_proj (in-place)
I0403 18:10:01.575042 16404 net.cpp:141] Setting up inception_3a/relu_pool_proj
I0403 18:10:01.575068 16404 net.cpp:148] Top shape: 24 32 28 28 (602112)
I0403 18:10:01.575083 16404 net.cpp:156] Memory required for data: 561169440
I0403 18:10:01.575098 16404 layer_factory.hpp:77] Creating layer inception_3a/output
I0403 18:10:01.575116 16404 net.cpp:91] Creating Layer inception_3a/output
I0403 18:10:01.575131 16404 net.cpp:425] inception_3a/output <- inception_3a/1x1
I0403 18:10:01.575147 16404 net.cpp:425] inception_3a/output <- inception_3a/3x3
I0403 18:10:01.575163 16404 net.cpp:425] inception_3a/output <- inception_3a/5x5
I0403 18:10:01.575179 16404 net.cpp:425] inception_3a/output <- inception_3a/pool_proj
I0403 18:10:01.575196 16404 net.cpp:399] inception_3a/output -> inception_3a/output
I0403 18:10:01.575245 16404 net.cpp:141] Setting up inception_3a/output
I0403 18:10:01.575268 16404 net.cpp:148] Top shape: 24 256 28 28 (4816896)
I0403 18:10:01.575284 16404 net.cpp:156] Memory required for data: 580437024
I0403 18:10:01.575297 16404 layer_factory.hpp:77] Creating layer inception_3a/output_inception_3a/output_0_split
I0403 18:10:01.575317 16404 net.cpp:91] Creating Layer inception_3a/output_inception_3a/output_0_split
I0403 18:10:01.575333 16404 net.cpp:425] inception_3a/output_inception_3a/output_0_split <- inception_3a/output
I0403 18:10:01.575350 16404 net.cpp:399] inception_3a/output_inception_3a/output_0_split -> inception_3a/output_inception_3a/output_0_split_0
I0403 18:10:01.575371 16404 net.cpp:399] inception_3a/output_inception_3a/output_0_split -> inception_3a/output_inception_3a/output_0_split_1
I0403 18:10:01.575394 16404 net.cpp:399] inception_3a/output_inception_3a/output_0_split -> inception_3a/output_inception_3a/output_0_split_2
I0403 18:10:01.575415 16404 net.cpp:399] inception_3a/output_inception_3a/output_0_split -> inception_3a/output_inception_3a/output_0_split_3
I0403 18:10:01.575489 16404 net.cpp:141] Setting up inception_3a/output_inception_3a/output_0_split
I0403 18:10:01.575511 16404 net.cpp:148] Top shape: 24 256 28 28 (4816896)
I0403 18:10:01.575528 16404 net.cpp:148] Top shape: 24 256 28 28 (4816896)
I0403 18:10:01.575543 16404 net.cpp:148] Top shape: 24 256 28 28 (4816896)
I0403 18:10:01.575558 16404 net.cpp:148] Top shape: 24 256 28 28 (4816896)
I0403 18:10:01.575572 16404 net.cpp:156] Memory required for data: 657507360
I0403 18:10:01.575585 16404 layer_factory.hpp:77] Creating layer inception_3b/1x1
I0403 18:10:01.575609 16404 net.cpp:91] Creating Layer inception_3b/1x1
I0403 18:10:01.575626 16404 net.cpp:425] inception_3b/1x1 <- inception_3a/output_inception_3a/output_0_split_0
I0403 18:10:01.575645 16404 net.cpp:399] inception_3b/1x1 -> inception_3b/1x1
I0403 18:10:01.576808 16404 net.cpp:141] Setting up inception_3b/1x1
I0403 18:10:01.576848 16404 net.cpp:148] Top shape: 24 128 28 28 (2408448)
I0403 18:10:01.576864 16404 net.cpp:156] Memory required for data: 667141152
I0403 18:10:01.576881 16404 layer_factory.hpp:77] Creating layer inception_3b/relu_1x1
I0403 18:10:01.576911 16404 net.cpp:91] Creating Layer inception_3b/relu_1x1
I0403 18:10:01.576930 16404 net.cpp:425] inception_3b/relu_1x1 <- inception_3b/1x1
I0403 18:10:01.576948 16404 net.cpp:386] inception_3b/relu_1x1 -> inception_3b/1x1 (in-place)
I0403 18:10:01.577124 16404 net.cpp:141] Setting up inception_3b/relu_1x1
I0403 18:10:01.577149 16404 net.cpp:148] Top shape: 24 128 28 28 (2408448)
I0403 18:10:01.577164 16404 net.cpp:156] Memory required for data: 676774944
I0403 18:10:01.577179 16404 layer_factory.hpp:77] Creating layer inception_3b/3x3_reduce
I0403 18:10:01.577201 16404 net.cpp:91] Creating Layer inception_3b/3x3_reduce
I0403 18:10:01.577221 16404 net.cpp:425] inception_3b/3x3_reduce <- inception_3a/output_inception_3a/output_0_split_1
I0403 18:10:01.577241 16404 net.cpp:399] inception_3b/3x3_reduce -> inception_3b/3x3_reduce
I0403 18:10:01.578428 16404 net.cpp:141] Setting up inception_3b/3x3_reduce
I0403 18:10:01.578459 16404 net.cpp:148] Top shape: 24 128 28 28 (2408448)
I0403 18:10:01.578495 16404 net.cpp:156] Memory required for data: 686408736
I0403 18:10:01.578515 16404 layer_factory.hpp:77] Creating layer inception_3b/relu_3x3_reduce
I0403 18:10:01.578544 16404 net.cpp:91] Creating Layer inception_3b/relu_3x3_reduce
I0403 18:10:01.578560 16404 net.cpp:425] inception_3b/relu_3x3_reduce <- inception_3b/3x3_reduce
I0403 18:10:01.578577 16404 net.cpp:386] inception_3b/relu_3x3_reduce -> inception_3b/3x3_reduce (in-place)
I0403 18:10:01.578770 16404 net.cpp:141] Setting up inception_3b/relu_3x3_reduce
I0403 18:10:01.578796 16404 net.cpp:148] Top shape: 24 128 28 28 (2408448)
I0403 18:10:01.578812 16404 net.cpp:156] Memory required for data: 696042528
I0403 18:10:01.578829 16404 layer_factory.hpp:77] Creating layer inception_3b/3x3
I0403 18:10:01.578853 16404 net.cpp:91] Creating Layer inception_3b/3x3
I0403 18:10:01.578871 16404 net.cpp:425] inception_3b/3x3 <- inception_3b/3x3_reduce
I0403 18:10:01.578892 16404 net.cpp:399] inception_3b/3x3 -> inception_3b/3x3
I0403 18:10:01.581789 16404 net.cpp:141] Setting up inception_3b/3x3
I0403 18:10:01.581818 16404 net.cpp:148] Top shape: 24 192 28 28 (3612672)
I0403 18:10:01.581835 16404 net.cpp:156] Memory required for data: 710493216
I0403 18:10:01.581852 16404 layer_factory.hpp:77] Creating layer inception_3b/relu_3x3
I0403 18:10:01.581871 16404 net.cpp:91] Creating Layer inception_3b/relu_3x3
I0403 18:10:01.581887 16404 net.cpp:425] inception_3b/relu_3x3 <- inception_3b/3x3
I0403 18:10:01.581905 16404 net.cpp:386] inception_3b/relu_3x3 -> inception_3b/3x3 (in-place)
I0403 18:10:01.582185 16404 net.cpp:141] Setting up inception_3b/relu_3x3
I0403 18:10:01.582213 16404 net.cpp:148] Top shape: 24 192 28 28 (3612672)
I0403 18:10:01.582228 16404 net.cpp:156] Memory required for data: 724943904
I0403 18:10:01.582243 16404 layer_factory.hpp:77] Creating layer inception_3b/5x5_reduce
I0403 18:10:01.582264 16404 net.cpp:91] Creating Layer inception_3b/5x5_reduce
I0403 18:10:01.582283 16404 net.cpp:425] inception_3b/5x5_reduce <- inception_3a/output_inception_3a/output_0_split_2
I0403 18:10:01.582305 16404 net.cpp:399] inception_3b/5x5_reduce -> inception_3b/5x5_reduce
I0403 18:10:01.583292 16404 net.cpp:141] Setting up inception_3b/5x5_reduce
I0403 18:10:01.583322 16404 net.cpp:148] Top shape: 24 32 28 28 (602112)
I0403 18:10:01.583338 16404 net.cpp:156] Memory required for data: 727352352
I0403 18:10:01.583355 16404 layer_factory.hpp:77] Creating layer inception_3b/relu_5x5_reduce
I0403 18:10:01.583385 16404 net.cpp:91] Creating Layer inception_3b/relu_5x5_reduce
I0403 18:10:01.583401 16404 net.cpp:425] inception_3b/relu_5x5_reduce <- inception_3b/5x5_reduce
I0403 18:10:01.583420 16404 net.cpp:386] inception_3b/relu_5x5_reduce -> inception_3b/5x5_reduce (in-place)
I0403 18:10:01.583606 16404 net.cpp:141] Setting up inception_3b/relu_5x5_reduce
I0403 18:10:01.583629 16404 net.cpp:148] Top shape: 24 32 28 28 (602112)
I0403 18:10:01.583643 16404 net.cpp:156] Memory required for data: 729760800
I0403 18:10:01.583657 16404 layer_factory.hpp:77] Creating layer inception_3b/5x5
I0403 18:10:01.583688 16404 net.cpp:91] Creating Layer inception_3b/5x5
I0403 18:10:01.583704 16404 net.cpp:425] inception_3b/5x5 <- inception_3b/5x5_reduce
I0403 18:10:01.583725 16404 net.cpp:399] inception_3b/5x5 -> inception_3b/5x5
I0403 18:10:01.585620 16404 net.cpp:141] Setting up inception_3b/5x5
I0403 18:10:01.585649 16404 net.cpp:148] Top shape: 24 96 28 28 (1806336)
I0403 18:10:01.585664 16404 net.cpp:156] Memory required for data: 736986144
I0403 18:10:01.585681 16404 layer_factory.hpp:77] Creating layer inception_3b/relu_5x5
I0403 18:10:01.585701 16404 net.cpp:91] Creating Layer inception_3b/relu_5x5
I0403 18:10:01.585718 16404 net.cpp:425] inception_3b/relu_5x5 <- inception_3b/5x5
I0403 18:10:01.585734 16404 net.cpp:386] inception_3b/relu_5x5 -> inception_3b/5x5 (in-place)
I0403 18:10:01.585933 16404 net.cpp:141] Setting up inception_3b/relu_5x5
I0403 18:10:01.585958 16404 net.cpp:148] Top shape: 24 96 28 28 (1806336)
I0403 18:10:01.585973 16404 net.cpp:156] Memory required for data: 744211488
I0403 18:10:01.585991 16404 layer_factory.hpp:77] Creating layer inception_3b/pool
I0403 18:10:01.586010 16404 net.cpp:91] Creating Layer inception_3b/pool
I0403 18:10:01.586026 16404 net.cpp:425] inception_3b/pool <- inception_3a/output_inception_3a/output_0_split_3
I0403 18:10:01.586045 16404 net.cpp:399] inception_3b/pool -> inception_3b/pool
I0403 18:10:01.586100 16404 net.cpp:141] Setting up inception_3b/pool
I0403 18:10:01.586123 16404 net.cpp:148] Top shape: 24 256 28 28 (4816896)
I0403 18:10:01.586138 16404 net.cpp:156] Memory required for data: 763479072
I0403 18:10:01.586151 16404 layer_factory.hpp:77] Creating layer inception_3b/pool_proj
I0403 18:10:01.586174 16404 net.cpp:91] Creating Layer inception_3b/pool_proj
I0403 18:10:01.586191 16404 net.cpp:425] inception_3b/pool_proj <- inception_3b/pool
I0403 18:10:01.586225 16404 net.cpp:399] inception_3b/pool_proj -> inception_3b/pool_proj
I0403 18:10:01.587245 16404 net.cpp:141] Setting up inception_3b/pool_proj
I0403 18:10:01.587272 16404 net.cpp:148] Top shape: 24 64 28 28 (1204224)
I0403 18:10:01.587287 16404 net.cpp:156] Memory required for data: 768295968
I0403 18:10:01.587304 16404 layer_factory.hpp:77] Creating layer inception_3b/relu_pool_proj
I0403 18:10:01.587323 16404 net.cpp:91] Creating Layer inception_3b/relu_pool_proj
I0403 18:10:01.587340 16404 net.cpp:425] inception_3b/relu_pool_proj <- inception_3b/pool_proj
I0403 18:10:01.587357 16404 net.cpp:386] inception_3b/relu_pool_proj -> inception_3b/pool_proj (in-place)
I0403 18:10:01.587736 16404 net.cpp:141] Setting up inception_3b/relu_pool_proj
I0403 18:10:01.587761 16404 net.cpp:148] Top shape: 24 64 28 28 (1204224)
I0403 18:10:01.587776 16404 net.cpp:156] Memory required for data: 773112864
I0403 18:10:01.587790 16404 layer_factory.hpp:77] Creating layer inception_3b/output
I0403 18:10:01.587807 16404 net.cpp:91] Creating Layer inception_3b/output
I0403 18:10:01.587823 16404 net.cpp:425] inception_3b/output <- inception_3b/1x1
I0403 18:10:01.587838 16404 net.cpp:425] inception_3b/output <- inception_3b/3x3
I0403 18:10:01.587853 16404 net.cpp:425] inception_3b/output <- inception_3b/5x5
I0403 18:10:01.587869 16404 net.cpp:425] inception_3b/output <- inception_3b/pool_proj
I0403 18:10:01.587888 16404 net.cpp:399] inception_3b/output -> inception_3b/output
I0403 18:10:01.587930 16404 net.cpp:141] Setting up inception_3b/output
I0403 18:10:01.587954 16404 net.cpp:148] Top shape: 24 480 28 28 (9031680)
I0403 18:10:01.587968 16404 net.cpp:156] Memory required for data: 809239584
I0403 18:10:01.587993 16404 layer_factory.hpp:77] Creating layer pool3/3x3_s2
I0403 18:10:01.588012 16404 net.cpp:91] Creating Layer pool3/3x3_s2
I0403 18:10:01.588028 16404 net.cpp:425] pool3/3x3_s2 <- inception_3b/output
I0403 18:10:01.588060 16404 net.cpp:399] pool3/3x3_s2 -> pool3/3x3_s2
I0403 18:10:01.588120 16404 net.cpp:141] Setting up pool3/3x3_s2
I0403 18:10:01.588143 16404 net.cpp:148] Top shape: 24 480 14 14 (2257920)
I0403 18:10:01.588157 16404 net.cpp:156] Memory required for data: 818271264
I0403 18:10:01.588171 16404 layer_factory.hpp:77] Creating layer pool3/3x3_s2_pool3/3x3_s2_0_split
I0403 18:10:01.588191 16404 net.cpp:91] Creating Layer pool3/3x3_s2_pool3/3x3_s2_0_split
I0403 18:10:01.588207 16404 net.cpp:425] pool3/3x3_s2_pool3/3x3_s2_0_split <- pool3/3x3_s2
I0403 18:10:01.588223 16404 net.cpp:399] pool3/3x3_s2_pool3/3x3_s2_0_split -> pool3/3x3_s2_pool3/3x3_s2_0_split_0
I0403 18:10:01.588243 16404 net.cpp:399] pool3/3x3_s2_pool3/3x3_s2_0_split -> pool3/3x3_s2_pool3/3x3_s2_0_split_1
I0403 18:10:01.588260 16404 net.cpp:399] pool3/3x3_s2_pool3/3x3_s2_0_split -> pool3/3x3_s2_pool3/3x3_s2_0_split_2
I0403 18:10:01.588282 16404 net.cpp:399] pool3/3x3_s2_pool3/3x3_s2_0_split -> pool3/3x3_s2_pool3/3x3_s2_0_split_3
I0403 18:10:01.588356 16404 net.cpp:141] Setting up pool3/3x3_s2_pool3/3x3_s2_0_split
I0403 18:10:01.588377 16404 net.cpp:148] Top shape: 24 480 14 14 (2257920)
I0403 18:10:01.588393 16404 net.cpp:148] Top shape: 24 480 14 14 (2257920)
I0403 18:10:01.588408 16404 net.cpp:148] Top shape: 24 480 14 14 (2257920)
I0403 18:10:01.588423 16404 net.cpp:148] Top shape: 24 480 14 14 (2257920)
I0403 18:10:01.588436 16404 net.cpp:156] Memory required for data: 854397984
I0403 18:10:01.588450 16404 layer_factory.hpp:77] Creating layer inception_4a/1x1
I0403 18:10:01.588471 16404 net.cpp:91] Creating Layer inception_4a/1x1
I0403 18:10:01.588488 16404 net.cpp:425] inception_4a/1x1 <- pool3/3x3_s2_pool3/3x3_s2_0_split_0
I0403 18:10:01.588508 16404 net.cpp:399] inception_4a/1x1 -> inception_4a/1x1
I0403 18:10:01.590021 16404 net.cpp:141] Setting up inception_4a/1x1
I0403 18:10:01.590049 16404 net.cpp:148] Top shape: 24 192 14 14 (903168)
I0403 18:10:01.590064 16404 net.cpp:156] Memory required for data: 858010656
I0403 18:10:01.590081 16404 layer_factory.hpp:77] Creating layer inception_4a/relu_1x1
I0403 18:10:01.590101 16404 net.cpp:91] Creating Layer inception_4a/relu_1x1
I0403 18:10:01.590118 16404 net.cpp:425] inception_4a/relu_1x1 <- inception_4a/1x1
I0403 18:10:01.590134 16404 net.cpp:386] inception_4a/relu_1x1 -> inception_4a/1x1 (in-place)
I0403 18:10:01.590303 16404 net.cpp:141] Setting up inception_4a/relu_1x1
I0403 18:10:01.590327 16404 net.cpp:148] Top shape: 24 192 14 14 (903168)
I0403 18:10:01.590342 16404 net.cpp:156] Memory required for data: 861623328
I0403 18:10:01.590355 16404 layer_factory.hpp:77] Creating layer inception_4a/3x3_reduce
I0403 18:10:01.590379 16404 net.cpp:91] Creating Layer inception_4a/3x3_reduce
I0403 18:10:01.590396 16404 net.cpp:425] inception_4a/3x3_reduce <- pool3/3x3_s2_pool3/3x3_s2_0_split_1
I0403 18:10:01.590415 16404 net.cpp:399] inception_4a/3x3_reduce -> inception_4a/3x3_reduce
I0403 18:10:01.591650 16404 net.cpp:141] Setting up inception_4a/3x3_reduce
I0403 18:10:01.591676 16404 net.cpp:148] Top shape: 24 96 14 14 (451584)
I0403 18:10:01.591691 16404 net.cpp:156] Memory required for data: 863429664
I0403 18:10:01.591716 16404 layer_factory.hpp:77] Creating layer inception_4a/relu_3x3_reduce
I0403 18:10:01.591734 16404 net.cpp:91] Creating Layer inception_4a/relu_3x3_reduce
I0403 18:10:01.591750 16404 net.cpp:425] inception_4a/relu_3x3_reduce <- inception_4a/3x3_reduce
I0403 18:10:01.591770 16404 net.cpp:386] inception_4a/relu_3x3_reduce -> inception_4a/3x3_reduce (in-place)
I0403 18:10:01.591939 16404 net.cpp:141] Setting up inception_4a/relu_3x3_reduce
I0403 18:10:01.591963 16404 net.cpp:148] Top shape: 24 96 14 14 (451584)
I0403 18:10:01.591976 16404 net.cpp:156] Memory required for data: 865236000
I0403 18:10:01.591995 16404 layer_factory.hpp:77] Creating layer inception_4a/3x3
I0403 18:10:01.592021 16404 net.cpp:91] Creating Layer inception_4a/3x3
I0403 18:10:01.592038 16404 net.cpp:425] inception_4a/3x3 <- inception_4a/3x3_reduce
I0403 18:10:01.592056 16404 net.cpp:399] inception_4a/3x3 -> inception_4a/3x3
I0403 18:10:01.594676 16404 net.cpp:141] Setting up inception_4a/3x3
I0403 18:10:01.594705 16404 net.cpp:148] Top shape: 24 208 14 14 (978432)
I0403 18:10:01.594722 16404 net.cpp:156] Memory required for data: 869149728
I0403 18:10:01.594740 16404 layer_factory.hpp:77] Creating layer inception_4a/relu_3x3
I0403 18:10:01.594758 16404 net.cpp:91] Creating Layer inception_4a/relu_3x3
I0403 18:10:01.594774 16404 net.cpp:425] inception_4a/relu_3x3 <- inception_4a/3x3
I0403 18:10:01.594790 16404 net.cpp:386] inception_4a/relu_3x3 -> inception_4a/3x3 (in-place)
I0403 18:10:01.595064 16404 net.cpp:141] Setting up inception_4a/relu_3x3
I0403 18:10:01.595093 16404 net.cpp:148] Top shape: 24 208 14 14 (978432)
I0403 18:10:01.595108 16404 net.cpp:156] Memory required for data: 873063456
I0403 18:10:01.595121 16404 layer_factory.hpp:77] Creating layer inception_4a/5x5_reduce
I0403 18:10:01.595140 16404 net.cpp:91] Creating Layer inception_4a/5x5_reduce
I0403 18:10:01.595157 16404 net.cpp:425] inception_4a/5x5_reduce <- pool3/3x3_s2_pool3/3x3_s2_0_split_2
I0403 18:10:01.595177 16404 net.cpp:399] inception_4a/5x5_reduce -> inception_4a/5x5_reduce
I0403 18:10:01.596168 16404 net.cpp:141] Setting up inception_4a/5x5_reduce
I0403 18:10:01.596195 16404 net.cpp:148] Top shape: 24 16 14 14 (75264)
I0403 18:10:01.596211 16404 net.cpp:156] Memory required for data: 873364512
I0403 18:10:01.596230 16404 layer_factory.hpp:77] Creating layer inception_4a/relu_5x5_reduce
I0403 18:10:01.596247 16404 net.cpp:91] Creating Layer inception_4a/relu_5x5_reduce
I0403 18:10:01.596263 16404 net.cpp:425] inception_4a/relu_5x5_reduce <- inception_4a/5x5_reduce
I0403 18:10:01.596281 16404 net.cpp:386] inception_4a/relu_5x5_reduce -> inception_4a/5x5_reduce (in-place)
I0403 18:10:01.596456 16404 net.cpp:141] Setting up inception_4a/relu_5x5_reduce
I0403 18:10:01.596480 16404 net.cpp:148] Top shape: 24 16 14 14 (75264)
I0403 18:10:01.596494 16404 net.cpp:156] Memory required for data: 873665568
I0403 18:10:01.596508 16404 layer_factory.hpp:77] Creating layer inception_4a/5x5
I0403 18:10:01.596530 16404 net.cpp:91] Creating Layer inception_4a/5x5
I0403 18:10:01.596547 16404 net.cpp:425] inception_4a/5x5 <- inception_4a/5x5_reduce
I0403 18:10:01.596567 16404 net.cpp:399] inception_4a/5x5 -> inception_4a/5x5
I0403 18:10:01.597615 16404 net.cpp:141] Setting up inception_4a/5x5
I0403 18:10:01.597643 16404 net.cpp:148] Top shape: 24 48 14 14 (225792)
I0403 18:10:01.597657 16404 net.cpp:156] Memory required for data: 874568736
I0403 18:10:01.597676 16404 layer_factory.hpp:77] Creating layer inception_4a/relu_5x5
I0403 18:10:01.597692 16404 net.cpp:91] Creating Layer inception_4a/relu_5x5
I0403 18:10:01.597709 16404 net.cpp:425] inception_4a/relu_5x5 <- inception_4a/5x5
I0403 18:10:01.597728 16404 net.cpp:386] inception_4a/relu_5x5 -> inception_4a/5x5 (in-place)
I0403 18:10:01.597900 16404 net.cpp:141] Setting up inception_4a/relu_5x5
I0403 18:10:01.597926 16404 net.cpp:148] Top shape: 24 48 14 14 (225792)
I0403 18:10:01.597940 16404 net.cpp:156] Memory required for data: 875471904
I0403 18:10:01.597955 16404 layer_factory.hpp:77] Creating layer inception_4a/pool
I0403 18:10:01.597975 16404 net.cpp:91] Creating Layer inception_4a/pool
I0403 18:10:01.598016 16404 net.cpp:425] inception_4a/pool <- pool3/3x3_s2_pool3/3x3_s2_0_split_3
I0403 18:10:01.598042 16404 net.cpp:399] inception_4a/pool -> inception_4a/pool
I0403 18:10:01.598105 16404 net.cpp:141] Setting up inception_4a/pool
I0403 18:10:01.598129 16404 net.cpp:148] Top shape: 24 480 14 14 (2257920)
I0403 18:10:01.598143 16404 net.cpp:156] Memory required for data: 884503584
I0403 18:10:01.598158 16404 layer_factory.hpp:77] Creating layer inception_4a/pool_proj
I0403 18:10:01.598181 16404 net.cpp:91] Creating Layer inception_4a/pool_proj
I0403 18:10:01.598197 16404 net.cpp:425] inception_4a/pool_proj <- inception_4a/pool
I0403 18:10:01.598217 16404 net.cpp:399] inception_4a/pool_proj -> inception_4a/pool_proj
I0403 18:10:01.599373 16404 net.cpp:141] Setting up inception_4a/pool_proj
I0403 18:10:01.599401 16404 net.cpp:148] Top shape: 24 64 14 14 (301056)
I0403 18:10:01.599432 16404 net.cpp:156] Memory required for data: 885707808
I0403 18:10:01.599452 16404 layer_factory.hpp:77] Creating layer inception_4a/relu_pool_proj
I0403 18:10:01.599473 16404 net.cpp:91] Creating Layer inception_4a/relu_pool_proj
I0403 18:10:01.599490 16404 net.cpp:425] inception_4a/relu_pool_proj <- inception_4a/pool_proj
I0403 18:10:01.599508 16404 net.cpp:386] inception_4a/relu_pool_proj -> inception_4a/pool_proj (in-place)
I0403 18:10:01.599788 16404 net.cpp:141] Setting up inception_4a/relu_pool_proj
I0403 18:10:01.599814 16404 net.cpp:148] Top shape: 24 64 14 14 (301056)
I0403 18:10:01.599829 16404 net.cpp:156] Memory required for data: 886912032
I0403 18:10:01.599844 16404 layer_factory.hpp:77] Creating layer inception_4a/output
I0403 18:10:01.599861 16404 net.cpp:91] Creating Layer inception_4a/output
I0403 18:10:01.599877 16404 net.cpp:425] inception_4a/output <- inception_4a/1x1
I0403 18:10:01.599895 16404 net.cpp:425] inception_4a/output <- inception_4a/3x3
I0403 18:10:01.599910 16404 net.cpp:425] inception_4a/output <- inception_4a/5x5
I0403 18:10:01.599927 16404 net.cpp:425] inception_4a/output <- inception_4a/pool_proj
I0403 18:10:01.599946 16404 net.cpp:399] inception_4a/output -> inception_4a/output
I0403 18:10:01.599997 16404 net.cpp:141] Setting up inception_4a/output
I0403 18:10:01.600020 16404 net.cpp:148] Top shape: 24 512 14 14 (2408448)
I0403 18:10:01.600035 16404 net.cpp:156] Memory required for data: 896545824
I0403 18:10:01.600049 16404 layer_factory.hpp:77] Creating layer inception_4a/output_inception_4a/output_0_split
I0403 18:10:01.600067 16404 net.cpp:91] Creating Layer inception_4a/output_inception_4a/output_0_split
I0403 18:10:01.600085 16404 net.cpp:425] inception_4a/output_inception_4a/output_0_split <- inception_4a/output
I0403 18:10:01.600103 16404 net.cpp:399] inception_4a/output_inception_4a/output_0_split -> inception_4a/output_inception_4a/output_0_split_0
I0403 18:10:01.600126 16404 net.cpp:399] inception_4a/output_inception_4a/output_0_split -> inception_4a/output_inception_4a/output_0_split_1
I0403 18:10:01.600147 16404 net.cpp:399] inception_4a/output_inception_4a/output_0_split -> inception_4a/output_inception_4a/output_0_split_2
I0403 18:10:01.600165 16404 net.cpp:399] inception_4a/output_inception_4a/output_0_split -> inception_4a/output_inception_4a/output_0_split_3
I0403 18:10:01.600185 16404 net.cpp:399] inception_4a/output_inception_4a/output_0_split -> inception_4a/output_inception_4a/output_0_split_4
I0403 18:10:01.600277 16404 net.cpp:141] Setting up inception_4a/output_inception_4a/output_0_split
I0403 18:10:01.600302 16404 net.cpp:148] Top shape: 24 512 14 14 (2408448)
I0403 18:10:01.600320 16404 net.cpp:148] Top shape: 24 512 14 14 (2408448)
I0403 18:10:01.600337 16404 net.cpp:148] Top shape: 24 512 14 14 (2408448)
I0403 18:10:01.600352 16404 net.cpp:148] Top shape: 24 512 14 14 (2408448)
I0403 18:10:01.600366 16404 net.cpp:148] Top shape: 24 512 14 14 (2408448)
I0403 18:10:01.600380 16404 net.cpp:156] Memory required for data: 944714784
I0403 18:10:01.600395 16404 layer_factory.hpp:77] Creating layer loss1/ave_pool
I0403 18:10:01.600412 16404 net.cpp:91] Creating Layer loss1/ave_pool
I0403 18:10:01.600428 16404 net.cpp:425] loss1/ave_pool <- inception_4a/output_inception_4a/output_0_split_0
I0403 18:10:01.600447 16404 net.cpp:399] loss1/ave_pool -> loss1/ave_pool
I0403 18:10:01.600647 16404 net.cpp:141] Setting up loss1/ave_pool
I0403 18:10:01.600673 16404 net.cpp:148] Top shape: 24 512 4 4 (196608)
I0403 18:10:01.600687 16404 net.cpp:156] Memory required for data: 945501216
I0403 18:10:01.600703 16404 layer_factory.hpp:77] Creating layer loss1/conv
I0403 18:10:01.600724 16404 net.cpp:91] Creating Layer loss1/conv
I0403 18:10:01.600741 16404 net.cpp:425] loss1/conv <- loss1/ave_pool
I0403 18:10:01.600762 16404 net.cpp:399] loss1/conv -> loss1/conv
I0403 18:10:01.602155 16404 net.cpp:141] Setting up loss1/conv
I0403 18:10:01.602198 16404 net.cpp:148] Top shape: 24 128 4 4 (49152)
I0403 18:10:01.602227 16404 net.cpp:156] Memory required for data: 945697824
I0403 18:10:01.602248 16404 layer_factory.hpp:77] Creating layer loss1/relu_conv
I0403 18:10:01.602267 16404 net.cpp:91] Creating Layer loss1/relu_conv
I0403 18:10:01.602284 16404 net.cpp:425] loss1/relu_conv <- loss1/conv
I0403 18:10:01.602301 16404 net.cpp:386] loss1/relu_conv -> loss1/conv (in-place)
I0403 18:10:01.602598 16404 net.cpp:141] Setting up loss1/relu_conv
I0403 18:10:01.602627 16404 net.cpp:148] Top shape: 24 128 4 4 (49152)
I0403 18:10:01.602643 16404 net.cpp:156] Memory required for data: 945894432
I0403 18:10:01.602658 16404 layer_factory.hpp:77] Creating layer loss1/fc
I0403 18:10:01.602680 16404 net.cpp:91] Creating Layer loss1/fc
I0403 18:10:01.602699 16404 net.cpp:425] loss1/fc <- loss1/conv
I0403 18:10:01.602720 16404 net.cpp:399] loss1/fc -> loss1/fc
I0403 18:10:01.620301 16404 net.cpp:141] Setting up loss1/fc
I0403 18:10:01.620337 16404 net.cpp:148] Top shape: 24 1024 (24576)
I0403 18:10:01.620350 16404 net.cpp:156] Memory required for data: 945992736
I0403 18:10:01.620368 16404 layer_factory.hpp:77] Creating layer loss1/relu_fc
I0403 18:10:01.620388 16404 net.cpp:91] Creating Layer loss1/relu_fc
I0403 18:10:01.620404 16404 net.cpp:425] loss1/relu_fc <- loss1/fc
I0403 18:10:01.620420 16404 net.cpp:386] loss1/relu_fc -> loss1/fc (in-place)
I0403 18:10:01.620599 16404 net.cpp:141] Setting up loss1/relu_fc
I0403 18:10:01.620623 16404 net.cpp:148] Top shape: 24 1024 (24576)
I0403 18:10:01.620638 16404 net.cpp:156] Memory required for data: 946091040
I0403 18:10:01.620652 16404 layer_factory.hpp:77] Creating layer loss1/drop_fc
I0403 18:10:01.620676 16404 net.cpp:91] Creating Layer loss1/drop_fc
I0403 18:10:01.620693 16404 net.cpp:425] loss1/drop_fc <- loss1/fc
I0403 18:10:01.620710 16404 net.cpp:386] loss1/drop_fc -> loss1/fc (in-place)
I0403 18:10:01.620760 16404 net.cpp:141] Setting up loss1/drop_fc
I0403 18:10:01.620782 16404 net.cpp:148] Top shape: 24 1024 (24576)
I0403 18:10:01.620796 16404 net.cpp:156] Memory required for data: 946189344
I0403 18:10:01.620811 16404 layer_factory.hpp:77] Creating layer loss1/classifier_plantvillage
I0403 18:10:01.620828 16404 net.cpp:91] Creating Layer loss1/classifier_plantvillage
I0403 18:10:01.620848 16404 net.cpp:425] loss1/classifier_plantvillage <- loss1/fc
I0403 18:10:01.620865 16404 net.cpp:399] loss1/classifier_plantvillage -> loss1/classifier_plantvillage
I0403 18:10:01.621743 16404 net.cpp:141] Setting up loss1/classifier_plantvillage
I0403 18:10:01.621773 16404 net.cpp:148] Top shape: 24 38 (912)
I0403 18:10:01.621788 16404 net.cpp:156] Memory required for data: 946192992
I0403 18:10:01.621804 16404 layer_factory.hpp:77] Creating layer loss1/classifier_plantvillage_loss1/classifier_plantvillage_0_split
I0403 18:10:01.621822 16404 net.cpp:91] Creating Layer loss1/classifier_plantvillage_loss1/classifier_plantvillage_0_split
I0403 18:10:01.621839 16404 net.cpp:425] loss1/classifier_plantvillage_loss1/classifier_plantvillage_0_split <- loss1/classifier_plantvillage
I0403 18:10:01.621855 16404 net.cpp:399] loss1/classifier_plantvillage_loss1/classifier_plantvillage_0_split -> loss1/classifier_plantvillage_loss1/classifier_plantvillage_0_split_0
I0403 18:10:01.621875 16404 net.cpp:399] loss1/classifier_plantvillage_loss1/classifier_plantvillage_0_split -> loss1/classifier_plantvillage_loss1/classifier_plantvillage_0_split_1
I0403 18:10:01.621893 16404 net.cpp:399] loss1/classifier_plantvillage_loss1/classifier_plantvillage_0_split -> loss1/classifier_plantvillage_loss1/classifier_plantvillage_0_split_2
I0403 18:10:01.621958 16404 net.cpp:141] Setting up loss1/classifier_plantvillage_loss1/classifier_plantvillage_0_split
I0403 18:10:01.621984 16404 net.cpp:148] Top shape: 24 38 (912)
I0403 18:10:01.622001 16404 net.cpp:148] Top shape: 24 38 (912)
I0403 18:10:01.622016 16404 net.cpp:148] Top shape: 24 38 (912)
I0403 18:10:01.622030 16404 net.cpp:156] Memory required for data: 946203936
I0403 18:10:01.622043 16404 layer_factory.hpp:77] Creating layer inception_4b/1x1
I0403 18:10:01.622062 16404 net.cpp:91] Creating Layer inception_4b/1x1
I0403 18:10:01.622094 16404 net.cpp:425] inception_4b/1x1 <- inception_4a/output_inception_4a/output_0_split_1
I0403 18:10:01.622117 16404 net.cpp:399] inception_4b/1x1 -> inception_4b/1x1
I0403 18:10:01.623711 16404 net.cpp:141] Setting up inception_4b/1x1
I0403 18:10:01.623741 16404 net.cpp:148] Top shape: 24 160 14 14 (752640)
I0403 18:10:01.623757 16404 net.cpp:156] Memory required for data: 949214496
I0403 18:10:01.623775 16404 layer_factory.hpp:77] Creating layer inception_4b/relu_1x1
I0403 18:10:01.623793 16404 net.cpp:91] Creating Layer inception_4b/relu_1x1
I0403 18:10:01.623810 16404 net.cpp:425] inception_4b/relu_1x1 <- inception_4b/1x1
I0403 18:10:01.623826 16404 net.cpp:386] inception_4b/relu_1x1 -> inception_4b/1x1 (in-place)
I0403 18:10:01.624006 16404 net.cpp:141] Setting up inception_4b/relu_1x1
I0403 18:10:01.624030 16404 net.cpp:148] Top shape: 24 160 14 14 (752640)
I0403 18:10:01.624044 16404 net.cpp:156] Memory required for data: 952225056
I0403 18:10:01.624058 16404 layer_factory.hpp:77] Creating layer inception_4b/3x3_reduce
I0403 18:10:01.624079 16404 net.cpp:91] Creating Layer inception_4b/3x3_reduce
I0403 18:10:01.624095 16404 net.cpp:425] inception_4b/3x3_reduce <- inception_4a/output_inception_4a/output_0_split_2
I0403 18:10:01.624117 16404 net.cpp:399] inception_4b/3x3_reduce -> inception_4b/3x3_reduce
I0403 18:10:01.625422 16404 net.cpp:141] Setting up inception_4b/3x3_reduce
I0403 18:10:01.625448 16404 net.cpp:148] Top shape: 24 112 14 14 (526848)
I0403 18:10:01.625463 16404 net.cpp:156] Memory required for data: 954332448
I0403 18:10:01.625480 16404 layer_factory.hpp:77] Creating layer inception_4b/relu_3x3_reduce
I0403 18:10:01.625499 16404 net.cpp:91] Creating Layer inception_4b/relu_3x3_reduce
I0403 18:10:01.625514 16404 net.cpp:425] inception_4b/relu_3x3_reduce <- inception_4b/3x3_reduce
I0403 18:10:01.625532 16404 net.cpp:386] inception_4b/relu_3x3_reduce -> inception_4b/3x3_reduce (in-place)
I0403 18:10:01.625808 16404 net.cpp:141] Setting up inception_4b/relu_3x3_reduce
I0403 18:10:01.625834 16404 net.cpp:148] Top shape: 24 112 14 14 (526848)
I0403 18:10:01.625849 16404 net.cpp:156] Memory required for data: 956439840
I0403 18:10:01.625864 16404 layer_factory.hpp:77] Creating layer inception_4b/3x3
I0403 18:10:01.625885 16404 net.cpp:91] Creating Layer inception_4b/3x3
I0403 18:10:01.625901 16404 net.cpp:425] inception_4b/3x3 <- inception_4b/3x3_reduce
I0403 18:10:01.625921 16404 net.cpp:399] inception_4b/3x3 -> inception_4b/3x3
I0403 18:10:01.628839 16404 net.cpp:141] Setting up inception_4b/3x3
I0403 18:10:01.628867 16404 net.cpp:148] Top shape: 24 224 14 14 (1053696)
I0403 18:10:01.628883 16404 net.cpp:156] Memory required for data: 960654624
I0403 18:10:01.628901 16404 layer_factory.hpp:77] Creating layer inception_4b/relu_3x3
I0403 18:10:01.628921 16404 net.cpp:91] Creating Layer inception_4b/relu_3x3
I0403 18:10:01.628937 16404 net.cpp:425] inception_4b/relu_3x3 <- inception_4b/3x3
I0403 18:10:01.628953 16404 net.cpp:386] inception_4b/relu_3x3 -> inception_4b/3x3 (in-place)
I0403 18:10:01.629132 16404 net.cpp:141] Setting up inception_4b/relu_3x3
I0403 18:10:01.629159 16404 net.cpp:148] Top shape: 24 224 14 14 (1053696)
I0403 18:10:01.629174 16404 net.cpp:156] Memory required for data: 964869408
I0403 18:10:01.629189 16404 layer_factory.hpp:77] Creating layer inception_4b/5x5_reduce
I0403 18:10:01.629209 16404 net.cpp:91] Creating Layer inception_4b/5x5_reduce
I0403 18:10:01.629226 16404 net.cpp:425] inception_4b/5x5_reduce <- inception_4a/output_inception_4a/output_0_split_3
I0403 18:10:01.629245 16404 net.cpp:399] inception_4b/5x5_reduce -> inception_4b/5x5_reduce
I0403 18:10:01.630295 16404 net.cpp:141] Setting up inception_4b/5x5_reduce
I0403 18:10:01.630323 16404 net.cpp:148] Top shape: 24 24 14 14 (112896)
I0403 18:10:01.630339 16404 net.cpp:156] Memory required for data: 965320992
I0403 18:10:01.630357 16404 layer_factory.hpp:77] Creating layer inception_4b/relu_5x5_reduce
I0403 18:10:01.630374 16404 net.cpp:91] Creating Layer inception_4b/relu_5x5_reduce
I0403 18:10:01.630404 16404 net.cpp:425] inception_4b/relu_5x5_reduce <- inception_4b/5x5_reduce
I0403 18:10:01.630425 16404 net.cpp:386] inception_4b/relu_5x5_reduce -> inception_4b/5x5_reduce (in-place)
I0403 18:10:01.630604 16404 net.cpp:141] Setting up inception_4b/relu_5x5_reduce
I0403 18:10:01.630628 16404 net.cpp:148] Top shape: 24 24 14 14 (112896)
I0403 18:10:01.630642 16404 net.cpp:156] Memory required for data: 965772576
I0403 18:10:01.630656 16404 layer_factory.hpp:77] Creating layer inception_4b/5x5
I0403 18:10:01.630677 16404 net.cpp:91] Creating Layer inception_4b/5x5
I0403 18:10:01.630694 16404 net.cpp:425] inception_4b/5x5 <- inception_4b/5x5_reduce
I0403 18:10:01.630715 16404 net.cpp:399] inception_4b/5x5 -> inception_4b/5x5
I0403 18:10:01.631901 16404 net.cpp:141] Setting up inception_4b/5x5
I0403 18:10:01.631932 16404 net.cpp:148] Top shape: 24 64 14 14 (301056)
I0403 18:10:01.631948 16404 net.cpp:156] Memory required for data: 966976800
I0403 18:10:01.631966 16404 layer_factory.hpp:77] Creating layer inception_4b/relu_5x5
I0403 18:10:01.631988 16404 net.cpp:91] Creating Layer inception_4b/relu_5x5
I0403 18:10:01.632005 16404 net.cpp:425] inception_4b/relu_5x5 <- inception_4b/5x5
I0403 18:10:01.632022 16404 net.cpp:386] inception_4b/relu_5x5 -> inception_4b/5x5 (in-place)
I0403 18:10:01.632299 16404 net.cpp:141] Setting up inception_4b/relu_5x5
I0403 18:10:01.632328 16404 net.cpp:148] Top shape: 24 64 14 14 (301056)
I0403 18:10:01.632344 16404 net.cpp:156] Memory required for data: 968181024
I0403 18:10:01.632357 16404 layer_factory.hpp:77] Creating layer inception_4b/pool
I0403 18:10:01.632375 16404 net.cpp:91] Creating Layer inception_4b/pool
I0403 18:10:01.632391 16404 net.cpp:425] inception_4b/pool <- inception_4a/output_inception_4a/output_0_split_4
I0403 18:10:01.632408 16404 net.cpp:399] inception_4b/pool -> inception_4b/pool
I0403 18:10:01.632470 16404 net.cpp:141] Setting up inception_4b/pool
I0403 18:10:01.632493 16404 net.cpp:148] Top shape: 24 512 14 14 (2408448)
I0403 18:10:01.632506 16404 net.cpp:156] Memory required for data: 977814816
I0403 18:10:01.632520 16404 layer_factory.hpp:77] Creating layer inception_4b/pool_proj
I0403 18:10:01.632542 16404 net.cpp:91] Creating Layer inception_4b/pool_proj
I0403 18:10:01.632560 16404 net.cpp:425] inception_4b/pool_proj <- inception_4b/pool
I0403 18:10:01.632578 16404 net.cpp:399] inception_4b/pool_proj -> inception_4b/pool_proj
I0403 18:10:01.633741 16404 net.cpp:141] Setting up inception_4b/pool_proj
I0403 18:10:01.633771 16404 net.cpp:148] Top shape: 24 64 14 14 (301056)
I0403 18:10:01.633786 16404 net.cpp:156] Memory required for data: 979019040
I0403 18:10:01.633805 16404 layer_factory.hpp:77] Creating layer inception_4b/relu_pool_proj
I0403 18:10:01.633822 16404 net.cpp:91] Creating Layer inception_4b/relu_pool_proj
I0403 18:10:01.633837 16404 net.cpp:425] inception_4b/relu_pool_proj <- inception_4b/pool_proj
I0403 18:10:01.633857 16404 net.cpp:386] inception_4b/relu_pool_proj -> inception_4b/pool_proj (in-place)
I0403 18:10:01.634039 16404 net.cpp:141] Setting up inception_4b/relu_pool_proj
I0403 18:10:01.634063 16404 net.cpp:148] Top shape: 24 64 14 14 (301056)
I0403 18:10:01.634078 16404 net.cpp:156] Memory required for data: 980223264
I0403 18:10:01.634091 16404 layer_factory.hpp:77] Creating layer inception_4b/output
I0403 18:10:01.634109 16404 net.cpp:91] Creating Layer inception_4b/output
I0403 18:10:01.634122 16404 net.cpp:425] inception_4b/output <- inception_4b/1x1
I0403 18:10:01.634138 16404 net.cpp:425] inception_4b/output <- inception_4b/3x3
I0403 18:10:01.634155 16404 net.cpp:425] inception_4b/output <- inception_4b/5x5
I0403 18:10:01.634182 16404 net.cpp:425] inception_4b/output <- inception_4b/pool_proj
I0403 18:10:01.634202 16404 net.cpp:399] inception_4b/output -> inception_4b/output
I0403 18:10:01.634248 16404 net.cpp:141] Setting up inception_4b/output
I0403 18:10:01.634271 16404 net.cpp:148] Top shape: 24 512 14 14 (2408448)
I0403 18:10:01.634287 16404 net.cpp:156] Memory required for data: 989857056
I0403 18:10:01.634316 16404 layer_factory.hpp:77] Creating layer inception_4b/output_inception_4b/output_0_split
I0403 18:10:01.634333 16404 net.cpp:91] Creating Layer inception_4b/output_inception_4b/output_0_split
I0403 18:10:01.634349 16404 net.cpp:425] inception_4b/output_inception_4b/output_0_split <- inception_4b/output
I0403 18:10:01.634369 16404 net.cpp:399] inception_4b/output_inception_4b/output_0_split -> inception_4b/output_inception_4b/output_0_split_0
I0403 18:10:01.634390 16404 net.cpp:399] inception_4b/output_inception_4b/output_0_split -> inception_4b/output_inception_4b/output_0_split_1
I0403 18:10:01.634412 16404 net.cpp:399] inception_4b/output_inception_4b/output_0_split -> inception_4b/output_inception_4b/output_0_split_2
I0403 18:10:01.634430 16404 net.cpp:399] inception_4b/output_inception_4b/output_0_split -> inception_4b/output_inception_4b/output_0_split_3
I0403 18:10:01.634521 16404 net.cpp:141] Setting up inception_4b/output_inception_4b/output_0_split
I0403 18:10:01.634546 16404 net.cpp:148] Top shape: 24 512 14 14 (2408448)
I0403 18:10:01.634563 16404 net.cpp:148] Top shape: 24 512 14 14 (2408448)
I0403 18:10:01.634578 16404 net.cpp:148] Top shape: 24 512 14 14 (2408448)
I0403 18:10:01.634593 16404 net.cpp:148] Top shape: 24 512 14 14 (2408448)
I0403 18:10:01.634606 16404 net.cpp:156] Memory required for data: 1028392224
I0403 18:10:01.634620 16404 layer_factory.hpp:77] Creating layer inception_4c/1x1
I0403 18:10:01.634639 16404 net.cpp:91] Creating Layer inception_4c/1x1
I0403 18:10:01.634656 16404 net.cpp:425] inception_4c/1x1 <- inception_4b/output_inception_4b/output_0_split_0
I0403 18:10:01.634676 16404 net.cpp:399] inception_4c/1x1 -> inception_4c/1x1
I0403 18:10:01.636077 16404 net.cpp:141] Setting up inception_4c/1x1
I0403 18:10:01.636104 16404 net.cpp:148] Top shape: 24 128 14 14 (602112)
I0403 18:10:01.636119 16404 net.cpp:156] Memory required for data: 1030800672
I0403 18:10:01.636137 16404 layer_factory.hpp:77] Creating layer inception_4c/relu_1x1
I0403 18:10:01.636157 16404 net.cpp:91] Creating Layer inception_4c/relu_1x1
I0403 18:10:01.636173 16404 net.cpp:425] inception_4c/relu_1x1 <- inception_4c/1x1
I0403 18:10:01.636190 16404 net.cpp:386] inception_4c/relu_1x1 -> inception_4c/1x1 (in-place)
I0403 18:10:01.636368 16404 net.cpp:141] Setting up inception_4c/relu_1x1
I0403 18:10:01.636391 16404 net.cpp:148] Top shape: 24 128 14 14 (602112)
I0403 18:10:01.636405 16404 net.cpp:156] Memory required for data: 1033209120
I0403 18:10:01.636420 16404 layer_factory.hpp:77] Creating layer inception_4c/3x3_reduce
I0403 18:10:01.636445 16404 net.cpp:91] Creating Layer inception_4c/3x3_reduce
I0403 18:10:01.636461 16404 net.cpp:425] inception_4c/3x3_reduce <- inception_4b/output_inception_4b/output_0_split_1
I0403 18:10:01.636479 16404 net.cpp:399] inception_4c/3x3_reduce -> inception_4c/3x3_reduce
I0403 18:10:01.638377 16404 net.cpp:141] Setting up inception_4c/3x3_reduce
I0403 18:10:01.638406 16404 net.cpp:148] Top shape: 24 128 14 14 (602112)
I0403 18:10:01.638422 16404 net.cpp:156] Memory required for data: 1035617568
I0403 18:10:01.638439 16404 layer_factory.hpp:77] Creating layer inception_4c/relu_3x3_reduce
I0403 18:10:01.638459 16404 net.cpp:91] Creating Layer inception_4c/relu_3x3_reduce
I0403 18:10:01.638475 16404 net.cpp:425] inception_4c/relu_3x3_reduce <- inception_4c/3x3_reduce
I0403 18:10:01.638492 16404 net.cpp:386] inception_4c/relu_3x3_reduce -> inception_4c/3x3_reduce (in-place)
I0403 18:10:01.638777 16404 net.cpp:141] Setting up inception_4c/relu_3x3_reduce
I0403 18:10:01.638803 16404 net.cpp:148] Top shape: 24 128 14 14 (602112)
I0403 18:10:01.638818 16404 net.cpp:156] Memory required for data: 1038026016
I0403 18:10:01.638833 16404 layer_factory.hpp:77] Creating layer inception_4c/3x3
I0403 18:10:01.638857 16404 net.cpp:91] Creating Layer inception_4c/3x3
I0403 18:10:01.638875 16404 net.cpp:425] inception_4c/3x3 <- inception_4c/3x3_reduce
I0403 18:10:01.638892 16404 net.cpp:399] inception_4c/3x3 -> inception_4c/3x3
I0403 18:10:01.642439 16404 net.cpp:141] Setting up inception_4c/3x3
I0403 18:10:01.642494 16404 net.cpp:148] Top shape: 24 256 14 14 (1204224)
I0403 18:10:01.642511 16404 net.cpp:156] Memory required for data: 1042842912
I0403 18:10:01.642542 16404 layer_factory.hpp:77] Creating layer inception_4c/relu_3x3
I0403 18:10:01.642562 16404 net.cpp:91] Creating Layer inception_4c/relu_3x3
I0403 18:10:01.642578 16404 net.cpp:425] inception_4c/relu_3x3 <- inception_4c/3x3
I0403 18:10:01.642595 16404 net.cpp:386] inception_4c/relu_3x3 -> inception_4c/3x3 (in-place)
I0403 18:10:01.642771 16404 net.cpp:141] Setting up inception_4c/relu_3x3
I0403 18:10:01.642796 16404 net.cpp:148] Top shape: 24 256 14 14 (1204224)
I0403 18:10:01.642812 16404 net.cpp:156] Memory required for data: 1047659808
I0403 18:10:01.642827 16404 layer_factory.hpp:77] Creating layer inception_4c/5x5_reduce
I0403 18:10:01.642848 16404 net.cpp:91] Creating Layer inception_4c/5x5_reduce
I0403 18:10:01.642865 16404 net.cpp:425] inception_4c/5x5_reduce <- inception_4b/output_inception_4b/output_0_split_2
I0403 18:10:01.642884 16404 net.cpp:399] inception_4c/5x5_reduce -> inception_4c/5x5_reduce
I0403 18:10:01.643946 16404 net.cpp:141] Setting up inception_4c/5x5_reduce
I0403 18:10:01.643976 16404 net.cpp:148] Top shape: 24 24 14 14 (112896)
I0403 18:10:01.643996 16404 net.cpp:156] Memory required for data: 1048111392
I0403 18:10:01.644016 16404 layer_factory.hpp:77] Creating layer inception_4c/relu_5x5_reduce
I0403 18:10:01.644032 16404 net.cpp:91] Creating Layer inception_4c/relu_5x5_reduce
I0403 18:10:01.644048 16404 net.cpp:425] inception_4c/relu_5x5_reduce <- inception_4c/5x5_reduce
I0403 18:10:01.644068 16404 net.cpp:386] inception_4c/relu_5x5_reduce -> inception_4c/5x5_reduce (in-place)
I0403 18:10:01.644244 16404 net.cpp:141] Setting up inception_4c/relu_5x5_reduce
I0403 18:10:01.644268 16404 net.cpp:148] Top shape: 24 24 14 14 (112896)
I0403 18:10:01.644282 16404 net.cpp:156] Memory required for data: 1048562976
I0403 18:10:01.644296 16404 layer_factory.hpp:77] Creating layer inception_4c/5x5
I0403 18:10:01.644320 16404 net.cpp:91] Creating Layer inception_4c/5x5
I0403 18:10:01.644337 16404 net.cpp:425] inception_4c/5x5 <- inception_4c/5x5_reduce
I0403 18:10:01.644357 16404 net.cpp:399] inception_4c/5x5 -> inception_4c/5x5
I0403 18:10:01.645560 16404 net.cpp:141] Setting up inception_4c/5x5
I0403 18:10:01.645586 16404 net.cpp:148] Top shape: 24 64 14 14 (301056)
I0403 18:10:01.645601 16404 net.cpp:156] Memory required for data: 1049767200
I0403 18:10:01.645619 16404 layer_factory.hpp:77] Creating layer inception_4c/relu_5x5
I0403 18:10:01.645638 16404 net.cpp:91] Creating Layer inception_4c/relu_5x5
I0403 18:10:01.645655 16404 net.cpp:425] inception_4c/relu_5x5 <- inception_4c/5x5
I0403 18:10:01.645673 16404 net.cpp:386] inception_4c/relu_5x5 -> inception_4c/5x5 (in-place)
I0403 18:10:01.645951 16404 net.cpp:141] Setting up inception_4c/relu_5x5
I0403 18:10:01.645977 16404 net.cpp:148] Top shape: 24 64 14 14 (301056)
I0403 18:10:01.645995 16404 net.cpp:156] Memory required for data: 1050971424
I0403 18:10:01.646010 16404 layer_factory.hpp:77] Creating layer inception_4c/pool
I0403 18:10:01.646028 16404 net.cpp:91] Creating Layer inception_4c/pool
I0403 18:10:01.646044 16404 net.cpp:425] inception_4c/pool <- inception_4b/output_inception_4b/output_0_split_3
I0403 18:10:01.646064 16404 net.cpp:399] inception_4c/pool -> inception_4c/pool
I0403 18:10:01.646127 16404 net.cpp:141] Setting up inception_4c/pool
I0403 18:10:01.646150 16404 net.cpp:148] Top shape: 24 512 14 14 (2408448)
I0403 18:10:01.646165 16404 net.cpp:156] Memory required for data: 1060605216
I0403 18:10:01.646180 16404 layer_factory.hpp:77] Creating layer inception_4c/pool_proj
I0403 18:10:01.646201 16404 net.cpp:91] Creating Layer inception_4c/pool_proj
I0403 18:10:01.646219 16404 net.cpp:425] inception_4c/pool_proj <- inception_4c/pool
I0403 18:10:01.646239 16404 net.cpp:399] inception_4c/pool_proj -> inception_4c/pool_proj
I0403 18:10:01.647459 16404 net.cpp:141] Setting up inception_4c/pool_proj
I0403 18:10:01.647490 16404 net.cpp:148] Top shape: 24 64 14 14 (301056)
I0403 18:10:01.647519 16404 net.cpp:156] Memory required for data: 1061809440
I0403 18:10:01.647538 16404 layer_factory.hpp:77] Creating layer inception_4c/relu_pool_proj
I0403 18:10:01.647557 16404 net.cpp:91] Creating Layer inception_4c/relu_pool_proj
I0403 18:10:01.647573 16404 net.cpp:425] inception_4c/relu_pool_proj <- inception_4c/pool_proj
I0403 18:10:01.647591 16404 net.cpp:386] inception_4c/relu_pool_proj -> inception_4c/pool_proj (in-place)
I0403 18:10:01.647775 16404 net.cpp:141] Setting up inception_4c/relu_pool_proj
I0403 18:10:01.647799 16404 net.cpp:148] Top shape: 24 64 14 14 (301056)
I0403 18:10:01.647814 16404 net.cpp:156] Memory required for data: 1063013664
I0403 18:10:01.647830 16404 layer_factory.hpp:77] Creating layer inception_4c/output
I0403 18:10:01.647846 16404 net.cpp:91] Creating Layer inception_4c/output
I0403 18:10:01.647862 16404 net.cpp:425] inception_4c/output <- inception_4c/1x1
I0403 18:10:01.647878 16404 net.cpp:425] inception_4c/output <- inception_4c/3x3
I0403 18:10:01.647894 16404 net.cpp:425] inception_4c/output <- inception_4c/5x5
I0403 18:10:01.647910 16404 net.cpp:425] inception_4c/output <- inception_4c/pool_proj
I0403 18:10:01.647933 16404 net.cpp:399] inception_4c/output -> inception_4c/output
I0403 18:10:01.647989 16404 net.cpp:141] Setting up inception_4c/output
I0403 18:10:01.648015 16404 net.cpp:148] Top shape: 24 512 14 14 (2408448)
I0403 18:10:01.648030 16404 net.cpp:156] Memory required for data: 1072647456
I0403 18:10:01.648046 16404 layer_factory.hpp:77] Creating layer inception_4c/output_inception_4c/output_0_split
I0403 18:10:01.648062 16404 net.cpp:91] Creating Layer inception_4c/output_inception_4c/output_0_split
I0403 18:10:01.648077 16404 net.cpp:425] inception_4c/output_inception_4c/output_0_split <- inception_4c/output
I0403 18:10:01.648097 16404 net.cpp:399] inception_4c/output_inception_4c/output_0_split -> inception_4c/output_inception_4c/output_0_split_0
I0403 18:10:01.648118 16404 net.cpp:399] inception_4c/output_inception_4c/output_0_split -> inception_4c/output_inception_4c/output_0_split_1
I0403 18:10:01.648138 16404 net.cpp:399] inception_4c/output_inception_4c/output_0_split -> inception_4c/output_inception_4c/output_0_split_2
I0403 18:10:01.648159 16404 net.cpp:399] inception_4c/output_inception_4c/output_0_split -> inception_4c/output_inception_4c/output_0_split_3
I0403 18:10:01.648246 16404 net.cpp:141] Setting up inception_4c/output_inception_4c/output_0_split
I0403 18:10:01.648268 16404 net.cpp:148] Top shape: 24 512 14 14 (2408448)
I0403 18:10:01.648284 16404 net.cpp:148] Top shape: 24 512 14 14 (2408448)
I0403 18:10:01.648298 16404 net.cpp:148] Top shape: 24 512 14 14 (2408448)
I0403 18:10:01.648314 16404 net.cpp:148] Top shape: 24 512 14 14 (2408448)
I0403 18:10:01.648327 16404 net.cpp:156] Memory required for data: 1111182624
I0403 18:10:01.648342 16404 layer_factory.hpp:77] Creating layer inception_4d/1x1
I0403 18:10:01.648365 16404 net.cpp:91] Creating Layer inception_4d/1x1
I0403 18:10:01.648381 16404 net.cpp:425] inception_4d/1x1 <- inception_4c/output_inception_4c/output_0_split_0
I0403 18:10:01.648402 16404 net.cpp:399] inception_4d/1x1 -> inception_4d/1x1
I0403 18:10:01.649781 16404 net.cpp:141] Setting up inception_4d/1x1
I0403 18:10:01.649808 16404 net.cpp:148] Top shape: 24 112 14 14 (526848)
I0403 18:10:01.649824 16404 net.cpp:156] Memory required for data: 1113290016
I0403 18:10:01.649842 16404 layer_factory.hpp:77] Creating layer inception_4d/relu_1x1
I0403 18:10:01.649863 16404 net.cpp:91] Creating Layer inception_4d/relu_1x1
I0403 18:10:01.649879 16404 net.cpp:425] inception_4d/relu_1x1 <- inception_4d/1x1
I0403 18:10:01.649896 16404 net.cpp:386] inception_4d/relu_1x1 -> inception_4d/1x1 (in-place)
I0403 18:10:01.650087 16404 net.cpp:141] Setting up inception_4d/relu_1x1
I0403 18:10:01.650115 16404 net.cpp:148] Top shape: 24 112 14 14 (526848)
I0403 18:10:01.650130 16404 net.cpp:156] Memory required for data: 1115397408
I0403 18:10:01.650146 16404 layer_factory.hpp:77] Creating layer inception_4d/3x3_reduce
I0403 18:10:01.650192 16404 net.cpp:91] Creating Layer inception_4d/3x3_reduce
I0403 18:10:01.650213 16404 net.cpp:425] inception_4d/3x3_reduce <- inception_4c/output_inception_4c/output_0_split_1
I0403 18:10:01.650231 16404 net.cpp:399] inception_4d/3x3_reduce -> inception_4d/3x3_reduce
I0403 18:10:01.651763 16404 net.cpp:141] Setting up inception_4d/3x3_reduce
I0403 18:10:01.651792 16404 net.cpp:148] Top shape: 24 144 14 14 (677376)
I0403 18:10:01.651808 16404 net.cpp:156] Memory required for data: 1118106912
I0403 18:10:01.651825 16404 layer_factory.hpp:77] Creating layer inception_4d/relu_3x3_reduce
I0403 18:10:01.651845 16404 net.cpp:91] Creating Layer inception_4d/relu_3x3_reduce
I0403 18:10:01.651862 16404 net.cpp:425] inception_4d/relu_3x3_reduce <- inception_4d/3x3_reduce
I0403 18:10:01.651880 16404 net.cpp:386] inception_4d/relu_3x3_reduce -> inception_4d/3x3_reduce (in-place)
I0403 18:10:01.652179 16404 net.cpp:141] Setting up inception_4d/relu_3x3_reduce
I0403 18:10:01.652204 16404 net.cpp:148] Top shape: 24 144 14 14 (677376)
I0403 18:10:01.652220 16404 net.cpp:156] Memory required for data: 1120816416
I0403 18:10:01.652235 16404 layer_factory.hpp:77] Creating layer inception_4d/3x3
I0403 18:10:01.652256 16404 net.cpp:91] Creating Layer inception_4d/3x3
I0403 18:10:01.652274 16404 net.cpp:425] inception_4d/3x3 <- inception_4d/3x3_reduce
I0403 18:10:01.652295 16404 net.cpp:399] inception_4d/3x3 -> inception_4d/3x3
I0403 18:10:01.656539 16404 net.cpp:141] Setting up inception_4d/3x3
I0403 18:10:01.656570 16404 net.cpp:148] Top shape: 24 288 14 14 (1354752)
I0403 18:10:01.656587 16404 net.cpp:156] Memory required for data: 1126235424
I0403 18:10:01.656606 16404 layer_factory.hpp:77] Creating layer inception_4d/relu_3x3
I0403 18:10:01.656627 16404 net.cpp:91] Creating Layer inception_4d/relu_3x3
I0403 18:10:01.656643 16404 net.cpp:425] inception_4d/relu_3x3 <- inception_4d/3x3
I0403 18:10:01.656661 16404 net.cpp:386] inception_4d/relu_3x3 -> inception_4d/3x3 (in-place)
I0403 18:10:01.656847 16404 net.cpp:141] Setting up inception_4d/relu_3x3
I0403 18:10:01.656873 16404 net.cpp:148] Top shape: 24 288 14 14 (1354752)
I0403 18:10:01.656888 16404 net.cpp:156] Memory required for data: 1131654432
I0403 18:10:01.656903 16404 layer_factory.hpp:77] Creating layer inception_4d/5x5_reduce
I0403 18:10:01.656924 16404 net.cpp:91] Creating Layer inception_4d/5x5_reduce
I0403 18:10:01.656942 16404 net.cpp:425] inception_4d/5x5_reduce <- inception_4c/output_inception_4c/output_0_split_2
I0403 18:10:01.656963 16404 net.cpp:399] inception_4d/5x5_reduce -> inception_4d/5x5_reduce
I0403 18:10:01.658121 16404 net.cpp:141] Setting up inception_4d/5x5_reduce
I0403 18:10:01.658149 16404 net.cpp:148] Top shape: 24 32 14 14 (150528)
I0403 18:10:01.658165 16404 net.cpp:156] Memory required for data: 1132256544
I0403 18:10:01.658184 16404 layer_factory.hpp:77] Creating layer inception_4d/relu_5x5_reduce
I0403 18:10:01.658205 16404 net.cpp:91] Creating Layer inception_4d/relu_5x5_reduce
I0403 18:10:01.658222 16404 net.cpp:425] inception_4d/relu_5x5_reduce <- inception_4d/5x5_reduce
I0403 18:10:01.658239 16404 net.cpp:386] inception_4d/relu_5x5_reduce -> inception_4d/5x5_reduce (in-place)
I0403 18:10:01.658427 16404 net.cpp:141] Setting up inception_4d/relu_5x5_reduce
I0403 18:10:01.658453 16404 net.cpp:148] Top shape: 24 32 14 14 (150528)
I0403 18:10:01.658468 16404 net.cpp:156] Memory required for data: 1132858656
I0403 18:10:01.658483 16404 layer_factory.hpp:77] Creating layer inception_4d/5x5
I0403 18:10:01.658505 16404 net.cpp:91] Creating Layer inception_4d/5x5
I0403 18:10:01.658524 16404 net.cpp:425] inception_4d/5x5 <- inception_4d/5x5_reduce
I0403 18:10:01.658541 16404 net.cpp:399] inception_4d/5x5 -> inception_4d/5x5
I0403 18:10:01.660018 16404 net.cpp:141] Setting up inception_4d/5x5
I0403 18:10:01.660048 16404 net.cpp:148] Top shape: 24 64 14 14 (301056)
I0403 18:10:01.660064 16404 net.cpp:156] Memory required for data: 1134062880
I0403 18:10:01.660084 16404 layer_factory.hpp:77] Creating layer inception_4d/relu_5x5
I0403 18:10:01.660116 16404 net.cpp:91] Creating Layer inception_4d/relu_5x5
I0403 18:10:01.660133 16404 net.cpp:425] inception_4d/relu_5x5 <- inception_4d/5x5
I0403 18:10:01.660153 16404 net.cpp:386] inception_4d/relu_5x5 -> inception_4d/5x5 (in-place)
I0403 18:10:01.660454 16404 net.cpp:141] Setting up inception_4d/relu_5x5
I0403 18:10:01.660481 16404 net.cpp:148] Top shape: 24 64 14 14 (301056)
I0403 18:10:01.660497 16404 net.cpp:156] Memory required for data: 1135267104
I0403 18:10:01.660512 16404 layer_factory.hpp:77] Creating layer inception_4d/pool
I0403 18:10:01.660531 16404 net.cpp:91] Creating Layer inception_4d/pool
I0403 18:10:01.660547 16404 net.cpp:425] inception_4d/pool <- inception_4c/output_inception_4c/output_0_split_3
I0403 18:10:01.660567 16404 net.cpp:399] inception_4d/pool -> inception_4d/pool
I0403 18:10:01.660634 16404 net.cpp:141] Setting up inception_4d/pool
I0403 18:10:01.660658 16404 net.cpp:148] Top shape: 24 512 14 14 (2408448)
I0403 18:10:01.660673 16404 net.cpp:156] Memory required for data: 1144900896
I0403 18:10:01.660688 16404 layer_factory.hpp:77] Creating layer inception_4d/pool_proj
I0403 18:10:01.660711 16404 net.cpp:91] Creating Layer inception_4d/pool_proj
I0403 18:10:01.660728 16404 net.cpp:425] inception_4d/pool_proj <- inception_4d/pool
I0403 18:10:01.660747 16404 net.cpp:399] inception_4d/pool_proj -> inception_4d/pool_proj
I0403 18:10:01.662503 16404 net.cpp:141] Setting up inception_4d/pool_proj
I0403 18:10:01.662533 16404 net.cpp:148] Top shape: 24 64 14 14 (301056)
I0403 18:10:01.662549 16404 net.cpp:156] Memory required for data: 1146105120
I0403 18:10:01.662567 16404 layer_factory.hpp:77] Creating layer inception_4d/relu_pool_proj
I0403 18:10:01.662587 16404 net.cpp:91] Creating Layer inception_4d/relu_pool_proj
I0403 18:10:01.662606 16404 net.cpp:425] inception_4d/relu_pool_proj <- inception_4d/pool_proj
I0403 18:10:01.662622 16404 net.cpp:386] inception_4d/relu_pool_proj -> inception_4d/pool_proj (in-place)
I0403 18:10:01.662807 16404 net.cpp:141] Setting up inception_4d/relu_pool_proj
I0403 18:10:01.662832 16404 net.cpp:148] Top shape: 24 64 14 14 (301056)
I0403 18:10:01.662847 16404 net.cpp:156] Memory required for data: 1147309344
I0403 18:10:01.662860 16404 layer_factory.hpp:77] Creating layer inception_4d/output
I0403 18:10:01.662878 16404 net.cpp:91] Creating Layer inception_4d/output
I0403 18:10:01.662892 16404 net.cpp:425] inception_4d/output <- inception_4d/1x1
I0403 18:10:01.662909 16404 net.cpp:425] inception_4d/output <- inception_4d/3x3
I0403 18:10:01.662927 16404 net.cpp:425] inception_4d/output <- inception_4d/5x5
I0403 18:10:01.662943 16404 net.cpp:425] inception_4d/output <- inception_4d/pool_proj
I0403 18:10:01.662962 16404 net.cpp:399] inception_4d/output -> inception_4d/output
I0403 18:10:01.663013 16404 net.cpp:141] Setting up inception_4d/output
I0403 18:10:01.663038 16404 net.cpp:148] Top shape: 24 528 14 14 (2483712)
I0403 18:10:01.663058 16404 net.cpp:156] Memory required for data: 1157244192
I0403 18:10:01.663072 16404 layer_factory.hpp:77] Creating layer inception_4d/output_inception_4d/output_0_split
I0403 18:10:01.663089 16404 net.cpp:91] Creating Layer inception_4d/output_inception_4d/output_0_split
I0403 18:10:01.663106 16404 net.cpp:425] inception_4d/output_inception_4d/output_0_split <- inception_4d/output
I0403 18:10:01.663125 16404 net.cpp:399] inception_4d/output_inception_4d/output_0_split -> inception_4d/output_inception_4d/output_0_split_0
I0403 18:10:01.663146 16404 net.cpp:399] inception_4d/output_inception_4d/output_0_split -> inception_4d/output_inception_4d/output_0_split_1
I0403 18:10:01.663168 16404 net.cpp:399] inception_4d/output_inception_4d/output_0_split -> inception_4d/output_inception_4d/output_0_split_2
I0403 18:10:01.663192 16404 net.cpp:399] inception_4d/output_inception_4d/output_0_split -> inception_4d/output_inception_4d/output_0_split_3
I0403 18:10:01.663211 16404 net.cpp:399] inception_4d/output_inception_4d/output_0_split -> inception_4d/output_inception_4d/output_0_split_4
I0403 18:10:01.663313 16404 net.cpp:141] Setting up inception_4d/output_inception_4d/output_0_split
I0403 18:10:01.663348 16404 net.cpp:148] Top shape: 24 528 14 14 (2483712)
I0403 18:10:01.663364 16404 net.cpp:148] Top shape: 24 528 14 14 (2483712)
I0403 18:10:01.663380 16404 net.cpp:148] Top shape: 24 528 14 14 (2483712)
I0403 18:10:01.663396 16404 net.cpp:148] Top shape: 24 528 14 14 (2483712)
I0403 18:10:01.663411 16404 net.cpp:148] Top shape: 24 528 14 14 (2483712)
I0403 18:10:01.663425 16404 net.cpp:156] Memory required for data: 1206918432
I0403 18:10:01.663439 16404 layer_factory.hpp:77] Creating layer loss2/ave_pool
I0403 18:10:01.663460 16404 net.cpp:91] Creating Layer loss2/ave_pool
I0403 18:10:01.663475 16404 net.cpp:425] loss2/ave_pool <- inception_4d/output_inception_4d/output_0_split_0
I0403 18:10:01.663494 16404 net.cpp:399] loss2/ave_pool -> loss2/ave_pool
I0403 18:10:01.663805 16404 net.cpp:141] Setting up loss2/ave_pool
I0403 18:10:01.663831 16404 net.cpp:148] Top shape: 24 528 4 4 (202752)
I0403 18:10:01.663846 16404 net.cpp:156] Memory required for data: 1207729440
I0403 18:10:01.663861 16404 layer_factory.hpp:77] Creating layer loss2/conv
I0403 18:10:01.663887 16404 net.cpp:91] Creating Layer loss2/conv
I0403 18:10:01.663903 16404 net.cpp:425] loss2/conv <- loss2/ave_pool
I0403 18:10:01.663924 16404 net.cpp:399] loss2/conv -> loss2/conv
I0403 18:10:01.665799 16404 net.cpp:141] Setting up loss2/conv
I0403 18:10:01.665827 16404 net.cpp:148] Top shape: 24 128 4 4 (49152)
I0403 18:10:01.665843 16404 net.cpp:156] Memory required for data: 1207926048
I0403 18:10:01.665860 16404 layer_factory.hpp:77] Creating layer loss2/relu_conv
I0403 18:10:01.665877 16404 net.cpp:91] Creating Layer loss2/relu_conv
I0403 18:10:01.665894 16404 net.cpp:425] loss2/relu_conv <- loss2/conv
I0403 18:10:01.665912 16404 net.cpp:386] loss2/relu_conv -> loss2/conv (in-place)
I0403 18:10:01.666221 16404 net.cpp:141] Setting up loss2/relu_conv
I0403 18:10:01.666249 16404 net.cpp:148] Top shape: 24 128 4 4 (49152)
I0403 18:10:01.666263 16404 net.cpp:156] Memory required for data: 1208122656
I0403 18:10:01.666278 16404 layer_factory.hpp:77] Creating layer loss2/fc
I0403 18:10:01.666296 16404 net.cpp:91] Creating Layer loss2/fc
I0403 18:10:01.666313 16404 net.cpp:425] loss2/fc <- loss2/conv
I0403 18:10:01.666333 16404 net.cpp:399] loss2/fc -> loss2/fc
I0403 18:10:01.683507 16404 net.cpp:141] Setting up loss2/fc
I0403 18:10:01.683542 16404 net.cpp:148] Top shape: 24 1024 (24576)
I0403 18:10:01.683557 16404 net.cpp:156] Memory required for data: 1208220960
I0403 18:10:01.683575 16404 layer_factory.hpp:77] Creating layer loss2/relu_fc
I0403 18:10:01.683593 16404 net.cpp:91] Creating Layer loss2/relu_fc
I0403 18:10:01.683609 16404 net.cpp:425] loss2/relu_fc <- loss2/fc
I0403 18:10:01.683625 16404 net.cpp:386] loss2/relu_fc -> loss2/fc (in-place)
I0403 18:10:01.683922 16404 net.cpp:141] Setting up loss2/relu_fc
I0403 18:10:01.683949 16404 net.cpp:148] Top shape: 24 1024 (24576)
I0403 18:10:01.683964 16404 net.cpp:156] Memory required for data: 1208319264
I0403 18:10:01.683984 16404 layer_factory.hpp:77] Creating layer loss2/drop_fc
I0403 18:10:01.684002 16404 net.cpp:91] Creating Layer loss2/drop_fc
I0403 18:10:01.684018 16404 net.cpp:425] loss2/drop_fc <- loss2/fc
I0403 18:10:01.684034 16404 net.cpp:386] loss2/drop_fc -> loss2/fc (in-place)
I0403 18:10:01.684083 16404 net.cpp:141] Setting up loss2/drop_fc
I0403 18:10:01.684105 16404 net.cpp:148] Top shape: 24 1024 (24576)
I0403 18:10:01.684119 16404 net.cpp:156] Memory required for data: 1208417568
I0403 18:10:01.684134 16404 layer_factory.hpp:77] Creating layer loss2/classifier_plantvillage
I0403 18:10:01.684152 16404 net.cpp:91] Creating Layer loss2/classifier_plantvillage
I0403 18:10:01.684168 16404 net.cpp:425] loss2/classifier_plantvillage <- loss2/fc
I0403 18:10:01.684186 16404 net.cpp:399] loss2/classifier_plantvillage -> loss2/classifier_plantvillage
I0403 18:10:01.684579 16404 net.cpp:141] Setting up loss2/classifier_plantvillage
I0403 18:10:01.684603 16404 net.cpp:148] Top shape: 24 38 (912)
I0403 18:10:01.684633 16404 net.cpp:156] Memory required for data: 1208421216
I0403 18:10:01.684653 16404 layer_factory.hpp:77] Creating layer loss2/classifier_plantvillage_loss2/classifier_plantvillage_0_split
I0403 18:10:01.684669 16404 net.cpp:91] Creating Layer loss2/classifier_plantvillage_loss2/classifier_plantvillage_0_split
I0403 18:10:01.684685 16404 net.cpp:425] loss2/classifier_plantvillage_loss2/classifier_plantvillage_0_split <- loss2/classifier_plantvillage
I0403 18:10:01.684705 16404 net.cpp:399] loss2/classifier_plantvillage_loss2/classifier_plantvillage_0_split -> loss2/classifier_plantvillage_loss2/classifier_plantvillage_0_split_0
I0403 18:10:01.684725 16404 net.cpp:399] loss2/classifier_plantvillage_loss2/classifier_plantvillage_0_split -> loss2/classifier_plantvillage_loss2/classifier_plantvillage_0_split_1
I0403 18:10:01.684746 16404 net.cpp:399] loss2/classifier_plantvillage_loss2/classifier_plantvillage_0_split -> loss2/classifier_plantvillage_loss2/classifier_plantvillage_0_split_2
I0403 18:10:01.684820 16404 net.cpp:141] Setting up loss2/classifier_plantvillage_loss2/classifier_plantvillage_0_split
I0403 18:10:01.684842 16404 net.cpp:148] Top shape: 24 38 (912)
I0403 18:10:01.684859 16404 net.cpp:148] Top shape: 24 38 (912)
I0403 18:10:01.684872 16404 net.cpp:148] Top shape: 24 38 (912)
I0403 18:10:01.684886 16404 net.cpp:156] Memory required for data: 1208432160
I0403 18:10:01.684900 16404 layer_factory.hpp:77] Creating layer inception_4e/1x1
I0403 18:10:01.684924 16404 net.cpp:91] Creating Layer inception_4e/1x1
I0403 18:10:01.684942 16404 net.cpp:425] inception_4e/1x1 <- inception_4d/output_inception_4d/output_0_split_1
I0403 18:10:01.684959 16404 net.cpp:399] inception_4e/1x1 -> inception_4e/1x1
I0403 18:10:01.686728 16404 net.cpp:141] Setting up inception_4e/1x1
I0403 18:10:01.686754 16404 net.cpp:148] Top shape: 24 256 14 14 (1204224)
I0403 18:10:01.686769 16404 net.cpp:156] Memory required for data: 1213249056
I0403 18:10:01.686787 16404 layer_factory.hpp:77] Creating layer inception_4e/relu_1x1
I0403 18:10:01.686807 16404 net.cpp:91] Creating Layer inception_4e/relu_1x1
I0403 18:10:01.686825 16404 net.cpp:425] inception_4e/relu_1x1 <- inception_4e/1x1
I0403 18:10:01.686841 16404 net.cpp:386] inception_4e/relu_1x1 -> inception_4e/1x1 (in-place)
I0403 18:10:01.687132 16404 net.cpp:141] Setting up inception_4e/relu_1x1
I0403 18:10:01.687157 16404 net.cpp:148] Top shape: 24 256 14 14 (1204224)
I0403 18:10:01.687171 16404 net.cpp:156] Memory required for data: 1218065952
I0403 18:10:01.687186 16404 layer_factory.hpp:77] Creating layer inception_4e/3x3_reduce
I0403 18:10:01.687207 16404 net.cpp:91] Creating Layer inception_4e/3x3_reduce
I0403 18:10:01.687224 16404 net.cpp:425] inception_4e/3x3_reduce <- inception_4d/output_inception_4d/output_0_split_2
I0403 18:10:01.687245 16404 net.cpp:399] inception_4e/3x3_reduce -> inception_4e/3x3_reduce
I0403 18:10:01.689311 16404 net.cpp:141] Setting up inception_4e/3x3_reduce
I0403 18:10:01.689338 16404 net.cpp:148] Top shape: 24 160 14 14 (752640)
I0403 18:10:01.689354 16404 net.cpp:156] Memory required for data: 1221076512
I0403 18:10:01.689371 16404 layer_factory.hpp:77] Creating layer inception_4e/relu_3x3_reduce
I0403 18:10:01.689389 16404 net.cpp:91] Creating Layer inception_4e/relu_3x3_reduce
I0403 18:10:01.689405 16404 net.cpp:425] inception_4e/relu_3x3_reduce <- inception_4e/3x3_reduce
I0403 18:10:01.689424 16404 net.cpp:386] inception_4e/relu_3x3_reduce -> inception_4e/3x3_reduce (in-place)
I0403 18:10:01.689604 16404 net.cpp:141] Setting up inception_4e/relu_3x3_reduce
I0403 18:10:01.689627 16404 net.cpp:148] Top shape: 24 160 14 14 (752640)
I0403 18:10:01.689641 16404 net.cpp:156] Memory required for data: 1224087072
I0403 18:10:01.689656 16404 layer_factory.hpp:77] Creating layer inception_4e/3x3
I0403 18:10:01.689679 16404 net.cpp:91] Creating Layer inception_4e/3x3
I0403 18:10:01.689697 16404 net.cpp:425] inception_4e/3x3 <- inception_4e/3x3_reduce
I0403 18:10:01.689716 16404 net.cpp:399] inception_4e/3x3 -> inception_4e/3x3
I0403 18:10:01.694571 16404 net.cpp:141] Setting up inception_4e/3x3
I0403 18:10:01.694612 16404 net.cpp:148] Top shape: 24 320 14 14 (1505280)
I0403 18:10:01.694628 16404 net.cpp:156] Memory required for data: 1230108192
I0403 18:10:01.694645 16404 layer_factory.hpp:77] Creating layer inception_4e/relu_3x3
I0403 18:10:01.694665 16404 net.cpp:91] Creating Layer inception_4e/relu_3x3
I0403 18:10:01.694684 16404 net.cpp:425] inception_4e/relu_3x3 <- inception_4e/3x3
I0403 18:10:01.694700 16404 net.cpp:386] inception_4e/relu_3x3 -> inception_4e/3x3 (in-place)
I0403 18:10:01.694998 16404 net.cpp:141] Setting up inception_4e/relu_3x3
I0403 18:10:01.695024 16404 net.cpp:148] Top shape: 24 320 14 14 (1505280)
I0403 18:10:01.695039 16404 net.cpp:156] Memory required for data: 1236129312
I0403 18:10:01.695053 16404 layer_factory.hpp:77] Creating layer inception_4e/5x5_reduce
I0403 18:10:01.695075 16404 net.cpp:91] Creating Layer inception_4e/5x5_reduce
I0403 18:10:01.695093 16404 net.cpp:425] inception_4e/5x5_reduce <- inception_4d/output_inception_4d/output_0_split_3
I0403 18:10:01.695116 16404 net.cpp:399] inception_4e/5x5_reduce -> inception_4e/5x5_reduce
I0403 18:10:01.696156 16404 net.cpp:141] Setting up inception_4e/5x5_reduce
I0403 18:10:01.696185 16404 net.cpp:148] Top shape: 24 32 14 14 (150528)
I0403 18:10:01.696200 16404 net.cpp:156] Memory required for data: 1236731424
I0403 18:10:01.696218 16404 layer_factory.hpp:77] Creating layer inception_4e/relu_5x5_reduce
I0403 18:10:01.696236 16404 net.cpp:91] Creating Layer inception_4e/relu_5x5_reduce
I0403 18:10:01.696251 16404 net.cpp:425] inception_4e/relu_5x5_reduce <- inception_4e/5x5_reduce
I0403 18:10:01.696270 16404 net.cpp:386] inception_4e/relu_5x5_reduce -> inception_4e/5x5_reduce (in-place)
I0403 18:10:01.696563 16404 net.cpp:141] Setting up inception_4e/relu_5x5_reduce
I0403 18:10:01.696590 16404 net.cpp:148] Top shape: 24 32 14 14 (150528)
I0403 18:10:01.696605 16404 net.cpp:156] Memory required for data: 1237333536
I0403 18:10:01.696619 16404 layer_factory.hpp:77] Creating layer inception_4e/5x5
I0403 18:10:01.696657 16404 net.cpp:91] Creating Layer inception_4e/5x5
I0403 18:10:01.696676 16404 net.cpp:425] inception_4e/5x5 <- inception_4e/5x5_reduce
I0403 18:10:01.696696 16404 net.cpp:399] inception_4e/5x5 -> inception_4e/5x5
I0403 18:10:01.698551 16404 net.cpp:141] Setting up inception_4e/5x5
I0403 18:10:01.698580 16404 net.cpp:148] Top shape: 24 128 14 14 (602112)
I0403 18:10:01.698596 16404 net.cpp:156] Memory required for data: 1239741984
I0403 18:10:01.698614 16404 layer_factory.hpp:77] Creating layer inception_4e/relu_5x5
I0403 18:10:01.698632 16404 net.cpp:91] Creating Layer inception_4e/relu_5x5
I0403 18:10:01.698648 16404 net.cpp:425] inception_4e/relu_5x5 <- inception_4e/5x5
I0403 18:10:01.698667 16404 net.cpp:386] inception_4e/relu_5x5 -> inception_4e/5x5 (in-place)
I0403 18:10:01.698856 16404 net.cpp:141] Setting up inception_4e/relu_5x5
I0403 18:10:01.698880 16404 net.cpp:148] Top shape: 24 128 14 14 (602112)
I0403 18:10:01.698894 16404 net.cpp:156] Memory required for data: 1242150432
I0403 18:10:01.698922 16404 layer_factory.hpp:77] Creating layer inception_4e/pool
I0403 18:10:01.698940 16404 net.cpp:91] Creating Layer inception_4e/pool
I0403 18:10:01.698956 16404 net.cpp:425] inception_4e/pool <- inception_4d/output_inception_4d/output_0_split_4
I0403 18:10:01.698982 16404 net.cpp:399] inception_4e/pool -> inception_4e/pool
I0403 18:10:01.699054 16404 net.cpp:141] Setting up inception_4e/pool
I0403 18:10:01.699079 16404 net.cpp:148] Top shape: 24 528 14 14 (2483712)
I0403 18:10:01.699092 16404 net.cpp:156] Memory required for data: 1252085280
I0403 18:10:01.699106 16404 layer_factory.hpp:77] Creating layer inception_4e/pool_proj
I0403 18:10:01.699131 16404 net.cpp:91] Creating Layer inception_4e/pool_proj
I0403 18:10:01.699148 16404 net.cpp:425] inception_4e/pool_proj <- inception_4e/pool
I0403 18:10:01.699167 16404 net.cpp:399] inception_4e/pool_proj -> inception_4e/pool_proj
I0403 18:10:01.700640 16404 net.cpp:141] Setting up inception_4e/pool_proj
I0403 18:10:01.700678 16404 net.cpp:148] Top shape: 24 128 14 14 (602112)
I0403 18:10:01.700695 16404 net.cpp:156] Memory required for data: 1254493728
I0403 18:10:01.700712 16404 layer_factory.hpp:77] Creating layer inception_4e/relu_pool_proj
I0403 18:10:01.700732 16404 net.cpp:91] Creating Layer inception_4e/relu_pool_proj
I0403 18:10:01.700748 16404 net.cpp:425] inception_4e/relu_pool_proj <- inception_4e/pool_proj
I0403 18:10:01.700765 16404 net.cpp:386] inception_4e/relu_pool_proj -> inception_4e/pool_proj (in-place)
I0403 18:10:01.701052 16404 net.cpp:141] Setting up inception_4e/relu_pool_proj
I0403 18:10:01.701077 16404 net.cpp:148] Top shape: 24 128 14 14 (602112)
I0403 18:10:01.701093 16404 net.cpp:156] Memory required for data: 1256902176
I0403 18:10:01.701108 16404 layer_factory.hpp:77] Creating layer inception_4e/output
I0403 18:10:01.701128 16404 net.cpp:91] Creating Layer inception_4e/output
I0403 18:10:01.701143 16404 net.cpp:425] inception_4e/output <- inception_4e/1x1
I0403 18:10:01.701161 16404 net.cpp:425] inception_4e/output <- inception_4e/3x3
I0403 18:10:01.701177 16404 net.cpp:425] inception_4e/output <- inception_4e/5x5
I0403 18:10:01.701192 16404 net.cpp:425] inception_4e/output <- inception_4e/pool_proj
I0403 18:10:01.701210 16404 net.cpp:399] inception_4e/output -> inception_4e/output
I0403 18:10:01.701259 16404 net.cpp:141] Setting up inception_4e/output
I0403 18:10:01.701282 16404 net.cpp:148] Top shape: 24 832 14 14 (3913728)
I0403 18:10:01.701295 16404 net.cpp:156] Memory required for data: 1272557088
I0403 18:10:01.701310 16404 layer_factory.hpp:77] Creating layer pool4/3x3_s2
I0403 18:10:01.701326 16404 net.cpp:91] Creating Layer pool4/3x3_s2
I0403 18:10:01.701341 16404 net.cpp:425] pool4/3x3_s2 <- inception_4e/output
I0403 18:10:01.701361 16404 net.cpp:399] pool4/3x3_s2 -> pool4/3x3_s2
I0403 18:10:01.701427 16404 net.cpp:141] Setting up pool4/3x3_s2
I0403 18:10:01.701450 16404 net.cpp:148] Top shape: 24 832 7 7 (978432)
I0403 18:10:01.701464 16404 net.cpp:156] Memory required for data: 1276470816
I0403 18:10:01.701478 16404 layer_factory.hpp:77] Creating layer pool4/3x3_s2_pool4/3x3_s2_0_split
I0403 18:10:01.701498 16404 net.cpp:91] Creating Layer pool4/3x3_s2_pool4/3x3_s2_0_split
I0403 18:10:01.701514 16404 net.cpp:425] pool4/3x3_s2_pool4/3x3_s2_0_split <- pool4/3x3_s2
I0403 18:10:01.701532 16404 net.cpp:399] pool4/3x3_s2_pool4/3x3_s2_0_split -> pool4/3x3_s2_pool4/3x3_s2_0_split_0
I0403 18:10:01.701552 16404 net.cpp:399] pool4/3x3_s2_pool4/3x3_s2_0_split -> pool4/3x3_s2_pool4/3x3_s2_0_split_1
I0403 18:10:01.701572 16404 net.cpp:399] pool4/3x3_s2_pool4/3x3_s2_0_split -> pool4/3x3_s2_pool4/3x3_s2_0_split_2
I0403 18:10:01.701591 16404 net.cpp:399] pool4/3x3_s2_pool4/3x3_s2_0_split -> pool4/3x3_s2_pool4/3x3_s2_0_split_3
I0403 18:10:01.701678 16404 net.cpp:141] Setting up pool4/3x3_s2_pool4/3x3_s2_0_split
I0403 18:10:01.701702 16404 net.cpp:148] Top shape: 24 832 7 7 (978432)
I0403 18:10:01.701719 16404 net.cpp:148] Top shape: 24 832 7 7 (978432)
I0403 18:10:01.701733 16404 net.cpp:148] Top shape: 24 832 7 7 (978432)
I0403 18:10:01.701748 16404 net.cpp:148] Top shape: 24 832 7 7 (978432)
I0403 18:10:01.701761 16404 net.cpp:156] Memory required for data: 1292125728
I0403 18:10:01.701776 16404 layer_factory.hpp:77] Creating layer inception_5a/1x1
I0403 18:10:01.701797 16404 net.cpp:91] Creating Layer inception_5a/1x1
I0403 18:10:01.701814 16404 net.cpp:425] inception_5a/1x1 <- pool4/3x3_s2_pool4/3x3_s2_0_split_0
I0403 18:10:01.701833 16404 net.cpp:399] inception_5a/1x1 -> inception_5a/1x1
I0403 18:10:01.704731 16404 net.cpp:141] Setting up inception_5a/1x1
I0403 18:10:01.704762 16404 net.cpp:148] Top shape: 24 256 7 7 (301056)
I0403 18:10:01.704779 16404 net.cpp:156] Memory required for data: 1293329952
I0403 18:10:01.704797 16404 layer_factory.hpp:77] Creating layer inception_5a/relu_1x1
I0403 18:10:01.704815 16404 net.cpp:91] Creating Layer inception_5a/relu_1x1
I0403 18:10:01.704831 16404 net.cpp:425] inception_5a/relu_1x1 <- inception_5a/1x1
I0403 18:10:01.704851 16404 net.cpp:386] inception_5a/relu_1x1 -> inception_5a/1x1 (in-place)
I0403 18:10:01.705185 16404 net.cpp:141] Setting up inception_5a/relu_1x1
I0403 18:10:01.705214 16404 net.cpp:148] Top shape: 24 256 7 7 (301056)
I0403 18:10:01.705230 16404 net.cpp:156] Memory required for data: 1294534176
I0403 18:10:01.705257 16404 layer_factory.hpp:77] Creating layer inception_5a/3x3_reduce
I0403 18:10:01.705281 16404 net.cpp:91] Creating Layer inception_5a/3x3_reduce
I0403 18:10:01.705297 16404 net.cpp:425] inception_5a/3x3_reduce <- pool4/3x3_s2_pool4/3x3_s2_0_split_1
I0403 18:10:01.705317 16404 net.cpp:399] inception_5a/3x3_reduce -> inception_5a/3x3_reduce
I0403 18:10:01.707967 16404 net.cpp:141] Setting up inception_5a/3x3_reduce
I0403 18:10:01.708006 16404 net.cpp:148] Top shape: 24 160 7 7 (188160)
I0403 18:10:01.708037 16404 net.cpp:156] Memory required for data: 1295286816
I0403 18:10:01.708055 16404 layer_factory.hpp:77] Creating layer inception_5a/relu_3x3_reduce
I0403 18:10:01.708089 16404 net.cpp:91] Creating Layer inception_5a/relu_3x3_reduce
I0403 18:10:01.708108 16404 net.cpp:425] inception_5a/relu_3x3_reduce <- inception_5a/3x3_reduce
I0403 18:10:01.708127 16404 net.cpp:386] inception_5a/relu_3x3_reduce -> inception_5a/3x3_reduce (in-place)
I0403 18:10:01.708340 16404 net.cpp:141] Setting up inception_5a/relu_3x3_reduce
I0403 18:10:01.708369 16404 net.cpp:148] Top shape: 24 160 7 7 (188160)
I0403 18:10:01.708395 16404 net.cpp:156] Memory required for data: 1296039456
I0403 18:10:01.708410 16404 layer_factory.hpp:77] Creating layer inception_5a/3x3
I0403 18:10:01.708434 16404 net.cpp:91] Creating Layer inception_5a/3x3
I0403 18:10:01.708451 16404 net.cpp:425] inception_5a/3x3 <- inception_5a/3x3_reduce
I0403 18:10:01.708470 16404 net.cpp:399] inception_5a/3x3 -> inception_5a/3x3
I0403 18:10:01.713838 16404 net.cpp:141] Setting up inception_5a/3x3
I0403 18:10:01.713871 16404 net.cpp:148] Top shape: 24 320 7 7 (376320)
I0403 18:10:01.713887 16404 net.cpp:156] Memory required for data: 1297544736
I0403 18:10:01.713906 16404 layer_factory.hpp:77] Creating layer inception_5a/relu_3x3
I0403 18:10:01.713924 16404 net.cpp:91] Creating Layer inception_5a/relu_3x3
I0403 18:10:01.713940 16404 net.cpp:425] inception_5a/relu_3x3 <- inception_5a/3x3
I0403 18:10:01.713960 16404 net.cpp:386] inception_5a/relu_3x3 -> inception_5a/3x3 (in-place)
I0403 18:10:01.714279 16404 net.cpp:141] Setting up inception_5a/relu_3x3
I0403 18:10:01.714309 16404 net.cpp:148] Top shape: 24 320 7 7 (376320)
I0403 18:10:01.714325 16404 net.cpp:156] Memory required for data: 1299050016
I0403 18:10:01.714352 16404 layer_factory.hpp:77] Creating layer inception_5a/5x5_reduce
I0403 18:10:01.714375 16404 net.cpp:91] Creating Layer inception_5a/5x5_reduce
I0403 18:10:01.714393 16404 net.cpp:425] inception_5a/5x5_reduce <- pool4/3x3_s2_pool4/3x3_s2_0_split_2
I0403 18:10:01.714412 16404 net.cpp:399] inception_5a/5x5_reduce -> inception_5a/5x5_reduce
I0403 18:10:01.715618 16404 net.cpp:141] Setting up inception_5a/5x5_reduce
I0403 18:10:01.715648 16404 net.cpp:148] Top shape: 24 32 7 7 (37632)
I0403 18:10:01.715665 16404 net.cpp:156] Memory required for data: 1299200544
I0403 18:10:01.715683 16404 layer_factory.hpp:77] Creating layer inception_5a/relu_5x5_reduce
I0403 18:10:01.715701 16404 net.cpp:91] Creating Layer inception_5a/relu_5x5_reduce
I0403 18:10:01.715718 16404 net.cpp:425] inception_5a/relu_5x5_reduce <- inception_5a/5x5_reduce
I0403 18:10:01.715737 16404 net.cpp:386] inception_5a/relu_5x5_reduce -> inception_5a/5x5_reduce (in-place)
I0403 18:10:01.716042 16404 net.cpp:141] Setting up inception_5a/relu_5x5_reduce
I0403 18:10:01.716079 16404 net.cpp:148] Top shape: 24 32 7 7 (37632)
I0403 18:10:01.716095 16404 net.cpp:156] Memory required for data: 1299351072
I0403 18:10:01.716110 16404 layer_factory.hpp:77] Creating layer inception_5a/5x5
I0403 18:10:01.716133 16404 net.cpp:91] Creating Layer inception_5a/5x5
I0403 18:10:01.716151 16404 net.cpp:425] inception_5a/5x5 <- inception_5a/5x5_reduce
I0403 18:10:01.716173 16404 net.cpp:399] inception_5a/5x5 -> inception_5a/5x5
I0403 18:10:01.717936 16404 net.cpp:141] Setting up inception_5a/5x5
I0403 18:10:01.717986 16404 net.cpp:148] Top shape: 24 128 7 7 (150528)
I0403 18:10:01.718005 16404 net.cpp:156] Memory required for data: 1299953184
I0403 18:10:01.718024 16404 layer_factory.hpp:77] Creating layer inception_5a/relu_5x5
I0403 18:10:01.718042 16404 net.cpp:91] Creating Layer inception_5a/relu_5x5
I0403 18:10:01.718070 16404 net.cpp:425] inception_5a/relu_5x5 <- inception_5a/5x5
I0403 18:10:01.718091 16404 net.cpp:386] inception_5a/relu_5x5 -> inception_5a/5x5 (in-place)
I0403 18:10:01.718289 16404 net.cpp:141] Setting up inception_5a/relu_5x5
I0403 18:10:01.718314 16404 net.cpp:148] Top shape: 24 128 7 7 (150528)
I0403 18:10:01.718330 16404 net.cpp:156] Memory required for data: 1300555296
I0403 18:10:01.718358 16404 layer_factory.hpp:77] Creating layer inception_5a/pool
I0403 18:10:01.718375 16404 net.cpp:91] Creating Layer inception_5a/pool
I0403 18:10:01.718391 16404 net.cpp:425] inception_5a/pool <- pool4/3x3_s2_pool4/3x3_s2_0_split_3
I0403 18:10:01.718412 16404 net.cpp:399] inception_5a/pool -> inception_5a/pool
I0403 18:10:01.718484 16404 net.cpp:141] Setting up inception_5a/pool
I0403 18:10:01.718508 16404 net.cpp:148] Top shape: 24 832 7 7 (978432)
I0403 18:10:01.718523 16404 net.cpp:156] Memory required for data: 1304469024
I0403 18:10:01.718538 16404 layer_factory.hpp:77] Creating layer inception_5a/pool_proj
I0403 18:10:01.718560 16404 net.cpp:91] Creating Layer inception_5a/pool_proj
I0403 18:10:01.718578 16404 net.cpp:425] inception_5a/pool_proj <- inception_5a/pool
I0403 18:10:01.718596 16404 net.cpp:399] inception_5a/pool_proj -> inception_5a/pool_proj
I0403 18:10:01.720943 16404 net.cpp:141] Setting up inception_5a/pool_proj
I0403 18:10:01.720973 16404 net.cpp:148] Top shape: 24 128 7 7 (150528)
I0403 18:10:01.720994 16404 net.cpp:156] Memory required for data: 1305071136
I0403 18:10:01.721012 16404 layer_factory.hpp:77] Creating layer inception_5a/relu_pool_proj
I0403 18:10:01.721030 16404 net.cpp:91] Creating Layer inception_5a/relu_pool_proj
I0403 18:10:01.721045 16404 net.cpp:425] inception_5a/relu_pool_proj <- inception_5a/pool_proj
I0403 18:10:01.721074 16404 net.cpp:386] inception_5a/relu_pool_proj -> inception_5a/pool_proj (in-place)
I0403 18:10:01.721382 16404 net.cpp:141] Setting up inception_5a/relu_pool_proj
I0403 18:10:01.721410 16404 net.cpp:148] Top shape: 24 128 7 7 (150528)
I0403 18:10:01.721426 16404 net.cpp:156] Memory required for data: 1305673248
I0403 18:10:01.721439 16404 layer_factory.hpp:77] Creating layer inception_5a/output
I0403 18:10:01.721457 16404 net.cpp:91] Creating Layer inception_5a/output
I0403 18:10:01.721472 16404 net.cpp:425] inception_5a/output <- inception_5a/1x1
I0403 18:10:01.721487 16404 net.cpp:425] inception_5a/output <- inception_5a/3x3
I0403 18:10:01.721503 16404 net.cpp:425] inception_5a/output <- inception_5a/5x5
I0403 18:10:01.721519 16404 net.cpp:425] inception_5a/output <- inception_5a/pool_proj
I0403 18:10:01.721536 16404 net.cpp:399] inception_5a/output -> inception_5a/output
I0403 18:10:01.721586 16404 net.cpp:141] Setting up inception_5a/output
I0403 18:10:01.721608 16404 net.cpp:148] Top shape: 24 832 7 7 (978432)
I0403 18:10:01.721622 16404 net.cpp:156] Memory required for data: 1309586976
I0403 18:10:01.721637 16404 layer_factory.hpp:77] Creating layer inception_5a/output_inception_5a/output_0_split
I0403 18:10:01.721654 16404 net.cpp:91] Creating Layer inception_5a/output_inception_5a/output_0_split
I0403 18:10:01.721670 16404 net.cpp:425] inception_5a/output_inception_5a/output_0_split <- inception_5a/output
I0403 18:10:01.721690 16404 net.cpp:399] inception_5a/output_inception_5a/output_0_split -> inception_5a/output_inception_5a/output_0_split_0
I0403 18:10:01.721710 16404 net.cpp:399] inception_5a/output_inception_5a/output_0_split -> inception_5a/output_inception_5a/output_0_split_1
I0403 18:10:01.721730 16404 net.cpp:399] inception_5a/output_inception_5a/output_0_split -> inception_5a/output_inception_5a/output_0_split_2
I0403 18:10:01.721750 16404 net.cpp:399] inception_5a/output_inception_5a/output_0_split -> inception_5a/output_inception_5a/output_0_split_3
I0403 18:10:01.721860 16404 net.cpp:141] Setting up inception_5a/output_inception_5a/output_0_split
I0403 18:10:01.721884 16404 net.cpp:148] Top shape: 24 832 7 7 (978432)
I0403 18:10:01.721899 16404 net.cpp:148] Top shape: 24 832 7 7 (978432)
I0403 18:10:01.721915 16404 net.cpp:148] Top shape: 24 832 7 7 (978432)
I0403 18:10:01.721930 16404 net.cpp:148] Top shape: 24 832 7 7 (978432)
I0403 18:10:01.721942 16404 net.cpp:156] Memory required for data: 1325241888
I0403 18:10:01.721956 16404 layer_factory.hpp:77] Creating layer inception_5b/1x1
I0403 18:10:01.721982 16404 net.cpp:91] Creating Layer inception_5b/1x1
I0403 18:10:01.722000 16404 net.cpp:425] inception_5b/1x1 <- inception_5a/output_inception_5a/output_0_split_0
I0403 18:10:01.722020 16404 net.cpp:399] inception_5b/1x1 -> inception_5b/1x1
I0403 18:10:01.725675 16404 net.cpp:141] Setting up inception_5b/1x1
I0403 18:10:01.725703 16404 net.cpp:148] Top shape: 24 384 7 7 (451584)
I0403 18:10:01.725718 16404 net.cpp:156] Memory required for data: 1327048224
I0403 18:10:01.725736 16404 layer_factory.hpp:77] Creating layer inception_5b/relu_1x1
I0403 18:10:01.725756 16404 net.cpp:91] Creating Layer inception_5b/relu_1x1
I0403 18:10:01.725774 16404 net.cpp:425] inception_5b/relu_1x1 <- inception_5b/1x1
I0403 18:10:01.725790 16404 net.cpp:386] inception_5b/relu_1x1 -> inception_5b/1x1 (in-place)
I0403 18:10:01.726089 16404 net.cpp:141] Setting up inception_5b/relu_1x1
I0403 18:10:01.726114 16404 net.cpp:148] Top shape: 24 384 7 7 (451584)
I0403 18:10:01.726130 16404 net.cpp:156] Memory required for data: 1328854560
I0403 18:10:01.726145 16404 layer_factory.hpp:77] Creating layer inception_5b/3x3_reduce
I0403 18:10:01.726166 16404 net.cpp:91] Creating Layer inception_5b/3x3_reduce
I0403 18:10:01.726183 16404 net.cpp:425] inception_5b/3x3_reduce <- inception_5a/output_inception_5a/output_0_split_1
I0403 18:10:01.726204 16404 net.cpp:399] inception_5b/3x3_reduce -> inception_5b/3x3_reduce
I0403 18:10:01.728799 16404 net.cpp:141] Setting up inception_5b/3x3_reduce
I0403 18:10:01.728827 16404 net.cpp:148] Top shape: 24 192 7 7 (225792)
I0403 18:10:01.728843 16404 net.cpp:156] Memory required for data: 1329757728
I0403 18:10:01.728862 16404 layer_factory.hpp:77] Creating layer inception_5b/relu_3x3_reduce
I0403 18:10:01.728881 16404 net.cpp:91] Creating Layer inception_5b/relu_3x3_reduce
I0403 18:10:01.728899 16404 net.cpp:425] inception_5b/relu_3x3_reduce <- inception_5b/3x3_reduce
I0403 18:10:01.728915 16404 net.cpp:386] inception_5b/relu_3x3_reduce -> inception_5b/3x3_reduce (in-place)
I0403 18:10:01.729109 16404 net.cpp:141] Setting up inception_5b/relu_3x3_reduce
I0403 18:10:01.729133 16404 net.cpp:148] Top shape: 24 192 7 7 (225792)
I0403 18:10:01.729149 16404 net.cpp:156] Memory required for data: 1330660896
I0403 18:10:01.729164 16404 layer_factory.hpp:77] Creating layer inception_5b/3x3
I0403 18:10:01.729185 16404 net.cpp:91] Creating Layer inception_5b/3x3
I0403 18:10:01.729203 16404 net.cpp:425] inception_5b/3x3 <- inception_5b/3x3_reduce
I0403 18:10:01.729221 16404 net.cpp:399] inception_5b/3x3 -> inception_5b/3x3
I0403 18:10:01.735739 16404 net.cpp:141] Setting up inception_5b/3x3
I0403 18:10:01.735770 16404 net.cpp:148] Top shape: 24 384 7 7 (451584)
I0403 18:10:01.735786 16404 net.cpp:156] Memory required for data: 1332467232
I0403 18:10:01.735805 16404 layer_factory.hpp:77] Creating layer inception_5b/relu_3x3
I0403 18:10:01.735821 16404 net.cpp:91] Creating Layer inception_5b/relu_3x3
I0403 18:10:01.735837 16404 net.cpp:425] inception_5b/relu_3x3 <- inception_5b/3x3
I0403 18:10:01.735854 16404 net.cpp:386] inception_5b/relu_3x3 -> inception_5b/3x3 (in-place)
I0403 18:10:01.736146 16404 net.cpp:141] Setting up inception_5b/relu_3x3
I0403 18:10:01.736173 16404 net.cpp:148] Top shape: 24 384 7 7 (451584)
I0403 18:10:01.736189 16404 net.cpp:156] Memory required for data: 1334273568
I0403 18:10:01.736203 16404 layer_factory.hpp:77] Creating layer inception_5b/5x5_reduce
I0403 18:10:01.736238 16404 net.cpp:91] Creating Layer inception_5b/5x5_reduce
I0403 18:10:01.736255 16404 net.cpp:425] inception_5b/5x5_reduce <- inception_5a/output_inception_5a/output_0_split_2
I0403 18:10:01.736276 16404 net.cpp:399] inception_5b/5x5_reduce -> inception_5b/5x5_reduce
I0403 18:10:01.737506 16404 net.cpp:141] Setting up inception_5b/5x5_reduce
I0403 18:10:01.737534 16404 net.cpp:148] Top shape: 24 48 7 7 (56448)
I0403 18:10:01.737548 16404 net.cpp:156] Memory required for data: 1334499360
I0403 18:10:01.737566 16404 layer_factory.hpp:77] Creating layer inception_5b/relu_5x5_reduce
I0403 18:10:01.737586 16404 net.cpp:91] Creating Layer inception_5b/relu_5x5_reduce
I0403 18:10:01.737602 16404 net.cpp:425] inception_5b/relu_5x5_reduce <- inception_5b/5x5_reduce
I0403 18:10:01.737619 16404 net.cpp:386] inception_5b/relu_5x5_reduce -> inception_5b/5x5_reduce (in-place)
I0403 18:10:01.737994 16404 net.cpp:141] Setting up inception_5b/relu_5x5_reduce
I0403 18:10:01.738019 16404 net.cpp:148] Top shape: 24 48 7 7 (56448)
I0403 18:10:01.738034 16404 net.cpp:156] Memory required for data: 1334725152
I0403 18:10:01.738049 16404 layer_factory.hpp:77] Creating layer inception_5b/5x5
I0403 18:10:01.738067 16404 net.cpp:91] Creating Layer inception_5b/5x5
I0403 18:10:01.738085 16404 net.cpp:425] inception_5b/5x5 <- inception_5b/5x5_reduce
I0403 18:10:01.738103 16404 net.cpp:399] inception_5b/5x5 -> inception_5b/5x5
I0403 18:10:01.740126 16404 net.cpp:141] Setting up inception_5b/5x5
I0403 18:10:01.740157 16404 net.cpp:148] Top shape: 24 128 7 7 (150528)
I0403 18:10:01.740175 16404 net.cpp:156] Memory required for data: 1335327264
I0403 18:10:01.740193 16404 layer_factory.hpp:77] Creating layer inception_5b/relu_5x5
I0403 18:10:01.740211 16404 net.cpp:91] Creating Layer inception_5b/relu_5x5
I0403 18:10:01.740228 16404 net.cpp:425] inception_5b/relu_5x5 <- inception_5b/5x5
I0403 18:10:01.740248 16404 net.cpp:386] inception_5b/relu_5x5 -> inception_5b/5x5 (in-place)
I0403 18:10:01.740452 16404 net.cpp:141] Setting up inception_5b/relu_5x5
I0403 18:10:01.740474 16404 net.cpp:148] Top shape: 24 128 7 7 (150528)
I0403 18:10:01.740489 16404 net.cpp:156] Memory required for data: 1335929376
I0403 18:10:01.740504 16404 layer_factory.hpp:77] Creating layer inception_5b/pool
I0403 18:10:01.740520 16404 net.cpp:91] Creating Layer inception_5b/pool
I0403 18:10:01.740536 16404 net.cpp:425] inception_5b/pool <- inception_5a/output_inception_5a/output_0_split_3
I0403 18:10:01.740557 16404 net.cpp:399] inception_5b/pool -> inception_5b/pool
I0403 18:10:01.740629 16404 net.cpp:141] Setting up inception_5b/pool
I0403 18:10:01.740653 16404 net.cpp:148] Top shape: 24 832 7 7 (978432)
I0403 18:10:01.740666 16404 net.cpp:156] Memory required for data: 1339843104
I0403 18:10:01.740681 16404 layer_factory.hpp:77] Creating layer inception_5b/pool_proj
I0403 18:10:01.740701 16404 net.cpp:91] Creating Layer inception_5b/pool_proj
I0403 18:10:01.740718 16404 net.cpp:425] inception_5b/pool_proj <- inception_5b/pool
I0403 18:10:01.740738 16404 net.cpp:399] inception_5b/pool_proj -> inception_5b/pool_proj
I0403 18:10:01.742990 16404 net.cpp:141] Setting up inception_5b/pool_proj
I0403 18:10:01.743018 16404 net.cpp:148] Top shape: 24 128 7 7 (150528)
I0403 18:10:01.743034 16404 net.cpp:156] Memory required for data: 1340445216
I0403 18:10:01.743052 16404 layer_factory.hpp:77] Creating layer inception_5b/relu_pool_proj
I0403 18:10:01.743072 16404 net.cpp:91] Creating Layer inception_5b/relu_pool_proj
I0403 18:10:01.743089 16404 net.cpp:425] inception_5b/relu_pool_proj <- inception_5b/pool_proj
I0403 18:10:01.743106 16404 net.cpp:386] inception_5b/relu_pool_proj -> inception_5b/pool_proj (in-place)
I0403 18:10:01.743403 16404 net.cpp:141] Setting up inception_5b/relu_pool_proj
I0403 18:10:01.743428 16404 net.cpp:148] Top shape: 24 128 7 7 (150528)
I0403 18:10:01.743443 16404 net.cpp:156] Memory required for data: 1341047328
I0403 18:10:01.743458 16404 layer_factory.hpp:77] Creating layer inception_5b/output
I0403 18:10:01.743476 16404 net.cpp:91] Creating Layer inception_5b/output
I0403 18:10:01.743505 16404 net.cpp:425] inception_5b/output <- inception_5b/1x1
I0403 18:10:01.743523 16404 net.cpp:425] inception_5b/output <- inception_5b/3x3
I0403 18:10:01.743540 16404 net.cpp:425] inception_5b/output <- inception_5b/5x5
I0403 18:10:01.743556 16404 net.cpp:425] inception_5b/output <- inception_5b/pool_proj
I0403 18:10:01.743572 16404 net.cpp:399] inception_5b/output -> inception_5b/output
I0403 18:10:01.743623 16404 net.cpp:141] Setting up inception_5b/output
I0403 18:10:01.743646 16404 net.cpp:148] Top shape: 24 1024 7 7 (1204224)
I0403 18:10:01.743659 16404 net.cpp:156] Memory required for data: 1345864224
I0403 18:10:01.743674 16404 layer_factory.hpp:77] Creating layer pool5/7x7_s1
I0403 18:10:01.743693 16404 net.cpp:91] Creating Layer pool5/7x7_s1
I0403 18:10:01.743710 16404 net.cpp:425] pool5/7x7_s1 <- inception_5b/output
I0403 18:10:01.743727 16404 net.cpp:399] pool5/7x7_s1 -> pool5/7x7_s1
I0403 18:10:01.743939 16404 net.cpp:141] Setting up pool5/7x7_s1
I0403 18:10:01.743966 16404 net.cpp:148] Top shape: 24 1024 1 1 (24576)
I0403 18:10:01.743985 16404 net.cpp:156] Memory required for data: 1345962528
I0403 18:10:01.744001 16404 layer_factory.hpp:77] Creating layer pool5/drop_7x7_s1
I0403 18:10:01.744019 16404 net.cpp:91] Creating Layer pool5/drop_7x7_s1
I0403 18:10:01.744035 16404 net.cpp:425] pool5/drop_7x7_s1 <- pool5/7x7_s1
I0403 18:10:01.744053 16404 net.cpp:386] pool5/drop_7x7_s1 -> pool5/7x7_s1 (in-place)
I0403 18:10:01.744103 16404 net.cpp:141] Setting up pool5/drop_7x7_s1
I0403 18:10:01.744125 16404 net.cpp:148] Top shape: 24 1024 1 1 (24576)
I0403 18:10:01.744139 16404 net.cpp:156] Memory required for data: 1346060832
I0403 18:10:01.744154 16404 layer_factory.hpp:77] Creating layer loss3/classifier_plantvillage
I0403 18:10:01.744175 16404 net.cpp:91] Creating Layer loss3/classifier_plantvillage
I0403 18:10:01.744191 16404 net.cpp:425] loss3/classifier_plantvillage <- pool5/7x7_s1
I0403 18:10:01.744211 16404 net.cpp:399] loss3/classifier_plantvillage -> loss3/classifier_plantvillage
I0403 18:10:01.744621 16404 net.cpp:141] Setting up loss3/classifier_plantvillage
I0403 18:10:01.744644 16404 net.cpp:148] Top shape: 24 38 (912)
I0403 18:10:01.744658 16404 net.cpp:156] Memory required for data: 1346064480
I0403 18:10:01.744675 16404 layer_factory.hpp:77] Creating layer loss3/classifier_plantvillage_loss3/classifier_plantvillage_0_split
I0403 18:10:01.744693 16404 net.cpp:91] Creating Layer loss3/classifier_plantvillage_loss3/classifier_plantvillage_0_split
I0403 18:10:01.744712 16404 net.cpp:425] loss3/classifier_plantvillage_loss3/classifier_plantvillage_0_split <- loss3/classifier_plantvillage
I0403 18:10:01.744729 16404 net.cpp:399] loss3/classifier_plantvillage_loss3/classifier_plantvillage_0_split -> loss3/classifier_plantvillage_loss3/classifier_plantvillage_0_split_0
I0403 18:10:01.744748 16404 net.cpp:399] loss3/classifier_plantvillage_loss3/classifier_plantvillage_0_split -> loss3/classifier_plantvillage_loss3/classifier_plantvillage_0_split_1
I0403 18:10:01.744768 16404 net.cpp:399] loss3/classifier_plantvillage_loss3/classifier_plantvillage_0_split -> loss3/classifier_plantvillage_loss3/classifier_plantvillage_0_split_2
I0403 18:10:01.744787 16404 net.cpp:399] loss3/classifier_plantvillage_loss3/classifier_plantvillage_0_split -> loss3/classifier_plantvillage_loss3/classifier_plantvillage_0_split_3
I0403 18:10:01.744884 16404 net.cpp:141] Setting up loss3/classifier_plantvillage_loss3/classifier_plantvillage_0_split
I0403 18:10:01.744905 16404 net.cpp:148] Top shape: 24 38 (912)
I0403 18:10:01.744922 16404 net.cpp:148] Top shape: 24 38 (912)
I0403 18:10:01.744937 16404 net.cpp:148] Top shape: 24 38 (912)
I0403 18:10:01.744952 16404 net.cpp:148] Top shape: 24 38 (912)
I0403 18:10:01.744966 16404 net.cpp:156] Memory required for data: 1346079072
I0403 18:10:01.744982 16404 layer_factory.hpp:77] Creating layer loss1/loss
I0403 18:10:01.745004 16404 net.cpp:91] Creating Layer loss1/loss
I0403 18:10:01.745023 16404 net.cpp:425] loss1/loss <- loss1/classifier_plantvillage_loss1/classifier_plantvillage_0_split_0
I0403 18:10:01.745051 16404 net.cpp:425] loss1/loss <- label_data_1_split_0
…
