…
I0403 18:08:37.766126 16316 net.cpp:313] The NetState phase (1) differed from the phase (0) specified by a rule in layer data
I0403 18:08:37.767304 16316 net.cpp:49] Initializing net from parameters: 
state {
  phase: TEST
}
layer {
  name: "data"
  type: "Data"
  top: "data"
  top: "label"
  include {
    phase: TEST
  }
  transform_param {
    mirror: false
    crop_size: 224
    mean_file: "/home/mohanty/data/final_dataset/lmdb/grayscale-60-40/mean.binaryproto"
  }
  data_param {
    source: "/home/mohanty/data/final_dataset/lmdb/grayscale-60-40/test_db"
    batch_size: 24
    backend: LMDB
  }
}
layer {
  name: "conv1/7x7_s2"
  type: "Convolution"
  bottom: "data"
  top: "conv1/7x7_s2"
  param {
    lr_mult: 1
    decay_mult: 1
  }
  param {
    lr_mult: 2
    decay_mult: 0
  }
  convolution_param {
    num_output: 64
    pad: 3
    kernel_size: 7
    stride: 2
    weight_filler {
      type: "xavier"
      std: 0.1
    }
    bias_filler {
      type: "constant"
      value: 0.2
    }
  }
}
layer {
  name: "conv1/relu_7x7"
  type: "ReLU"
  bottom: "conv1/7x7_s2"
  top: "conv1/7x7_s2"
}
layer {
  name: "pool1/3x3_s2"
  type: "Pooling"
  bottom: "conv1/7x7_s2"
  top: "pool1/3x3_s2"
  pooling_param {
    pool: MAX
    kernel_size: 3
    stride: 2
  }
}
layer {
  name: "pool1/norm1"
  type: "LRN"
  bottom: "pool1/3x3_s2"
  top: "pool1/norm1"
  lrn_param {
    local_size: 5
    alpha: 0.0001
    beta: 0.75
  }
}
layer {
  name: "conv2/3x3_reduce"
  type: "Convolution"
  bottom: "pool1/norm1"
  top: "conv2/3x3_reduce"
  param {
    lr_mult: 1
    decay_mult: 1
  }
  param {
    lr_mult: 2
    decay_mult: 0
  }
  convolution_param {
    num_output: 64
    kernel_size: 1
    weight_filler {
      type: "xavier"
      std: 0.1
    }
    bias_filler {
      type: "constant"
      value: 0.2
    }
  }
}
layer {
  name: "conv2/relu_3x3_reduce"
  type: "ReLU"
  bottom: "conv2/3x3_reduce"
  top: "conv2/3x3_reduce"
}
layer {
  name: "conv2/3x3"
  type: "Convolution"
  bottom: "conv2/3x3_reduce"
  top: "conv2/3x3"
  param {
    lr_mult: 1
    decay_mult: 1
  }
  param {
    lr_mult: 2
    decay_mult: 0
  }
  convolution_param {
    num_output: 192
    pad: 1
    kernel_size: 3
    weight_filler {
      type: "xavier"
      std: 0.03
    }
    bias_filler {
      type: "constant"
      value: 0.2
    }
  }
}
layer {
  name: "conv2/relu_3x3"
  type: "ReLU"
  bottom: "conv2/3x3"
  top: "conv2/3x3"
}
layer {
  name: "conv2/norm2"
  type: "LRN"
  bottom: "conv2/3x3"
  top: "conv2/norm2"
  lrn_param {
    local_size: 5
    alpha: 0.0001
    beta: 0.75
  }
}
layer {
  name: "pool2/3x3_s2"
  type: "Pooling"
  bottom: "conv2/norm2"
  top: "pool2/3x3_s2"
  pooling_param {
    pool: MAX
    kernel_size: 3
    stride: 2
  }
}
layer {
  name: "inception_3a/1x1"
  type: "Convolution"
  bottom: "pool2/3x3_s2"
  top: "inception_3a/1x1"
  param {
    lr_mult: 1
    decay_mult: 1
  }
  param {
    lr_mult: 2
    decay_mult: 0
  }
  convolution_param {
    num_output: 64
    kernel_size: 1
    weight_filler {
      type: "xavier"
      std: 0.03
    }
    bias_filler {
      type: "constant"
      value: 0.2
    }
  }
}
layer {
  name: "inception_3a/relu_1x1"
  type: "ReLU"
  bottom: "inception_3a/1x1"
  top: "inception_3a/1x1"
}
layer {
  name: "inception_3a/3x3_reduce"
  type: "Convolution"
  bottom: "pool2/3x3_s2"
  top: "inception_3a/3x3_reduce"
  param {
    lr_mult: 1
    decay_mult: 1
  }
  param {
    lr_mult: 2
    decay_mult: 0
  }
  convolution_param {
    num_output: 96
    kernel_size: 1
    weight_filler {
      type: "xavier"
      std: 0.09
    }
    bias_filler {
      type: "constant"
      value: 0.2
    }
  }
}
layer {
  name: "inception_3a/relu_3x3_reduce"
  type: "ReLU"
  bottom: "inception_3a/3x3_reduce"
  top: "inception_3a/3x3_reduce"
}
layer {
  name: "inception_3a/3x3"
  type: "Convolution"
  bottom: "inception_3a/3x3_reduce"
  top: "inception_3a/3x3"
  param {
    lr_mult: 1
    decay_mult: 1
  }
  param {
    lr_mult: 2
    decay_mult: 0
  }
  convolution_param {
    num_output: 128
    pad: 1
    kernel_size: 3
    weight_filler {
      type: "xavier"
      std: 0.03
    }
    bias_filler {
      type: "constant"
      value: 0.2
    }
  }
}
layer {
  name: "inception_3a/relu_3x3"
  type: "ReLU"
  bottom: "inception_3a/3x3"
  top: "inception_3a/3x3"
}
layer {
  name: "inception_3a/5x5_reduce"
  type: "Convolution"
  bottom: "pool2/3x3_s2"
  top: "inception_3a/5x5_reduce"
  param {
    lr_mult: 1
    decay_mult: 1
  }
  param {
    lr_mult: 2
    decay_mult: 0
  }
  convolution_param {
    num_output: 16
    kernel_size: 1
    weight_filler {
      type: "xavier"
      std: 0.2
    }
    bias_filler {
      type: "constant"
      value: 0.2
    }
  }
}
layer {
  name: "inception_3a/relu_5x5_reduce"
  type: "ReLU"
  bottom: "inception_3a/5x5_reduce"
  top: "inception_3a/5x5_reduce"
}
layer {
  name: "inception_3a/5x5"
  type: "Convolution"
  bottom: "inception_3a/5x5_reduce"
  top: "inception_3a/5x5"
  param {
    lr_mult: 1
    decay_mult: 1
  }
  param {
    lr_mult: 2
    decay_mult: 0
  }
  convolution_param {
    num_output: 32
    pad: 2
    kernel_size: 5
    weight_filler {
      type: "xavier"
      std: 0.03
    }
    bias_filler {
      type: "constant"
      value: 0.2
    }
  }
}
layer {
  name: "inception_3a/relu_5x5"
  type: "ReLU"
  bottom: "inception_3a/5x5"
  top: "inception_3a/5x5"
}
layer {
  name: "inception_3a/pool"
  type: "Pooling"
  bottom: "pool2/3x3_s2"
  top: "inception_3a/pool"
  pooling_param {
    pool: MAX
    kernel_size: 3
    stride: 1
    pad: 1
  }
}
layer {
  name: "inception_3a/pool_proj"
  type: "Convolution"
  bottom: "inception_3a/pool"
  top: "inception_3a/pool_proj"
  param {
    lr_mult: 1
    decay_mult: 1
  }
  param {
    lr_mult: 2
    decay_mult: 0
  }
  convolution_param {
    num_output: 32
    kernel_size: 1
    weight_filler {
      type: "xavier"
      std: 0.1
    }
    bias_filler {
      type: "constant"
      value: 0.2
    }
  }
}
layer {
  name: "inception_3a/relu_pool_proj"
  type: "ReLU"
  bottom: "inception_3a/pool_proj"
  top: "inception_3a/pool_proj"
}
layer {
  name: "inception_3a/output"
  type: "Concat"
  bottom: "inception_3a/1x1"
  bottom: "inception_3a/3x3"
  bottom: "inception_3a/5x5"
  bottom: "inception_3a/pool_proj"
  top: "inception_3a/output"
}
layer {
  name: "inception_3b/1x1"
  type: "Convolution"
  bottom: "inception_3a/output"
  top: "inception_3b/1x1"
  param {
    lr_mult: 1
    decay_mult: 1
  }
  param {
    lr_mult: 2
    decay_mult: 0
  }
  convolution_param {
    num_output: 128
    kernel_size: 1
    weight_filler {
      type: "xavier"
      std: 0.03
    }
    bias_filler {
      type: "constant"
      value: 0.2
    }
  }
}
layer {
  name: "inception_3b/relu_1x1"
  type: "ReLU"
  bottom: "inception_3b/1x1"
  top: "inception_3b/1x1"
}
layer {
  name: "inception_3b/3x3_reduce"
  type: "Convolution"
  bottom: "inception_3a/output"
  top: "inception_3b/3x3_reduce"
  param {
    lr_mult: 1
    decay_mult: 1
  }
  param {
    lr_mult: 2
    decay_mult: 0
  }
  convolution_param {
    num_output: 128
    kernel_size: 1
    weight_filler {
      type: "xavier"
      std: 0.09
    }
    bias_filler {
      type: "constant"
      value: 0.2
    }
  }
}
layer {
  name: "inception_3b/relu_3x3_reduce"
  type: "ReLU"
  bottom: "inception_3b/3x3_reduce"
  top: "inception_3b/3x3_reduce"
}
layer {
  name: "inception_3b/3x3"
  type: "Convolution"
  bottom: "inception_3b/3x3_reduce"
  top: "inception_3b/3x3"
  param {
    lr_mult: 1
    decay_mult: 1
  }
  param {
    lr_mult: 2
    decay_mult: 0
  }
  convolution_param {
    num_output: 192
    pad: 1
    kernel_size: 3
    weight_filler {
      type: "xavier"
      std: 0.03
    }
    bias_filler {
      type: "constant"
      value: 0.2
    }
  }
}
layer {
  name: "inception_3b/relu_3x3"
  type: "ReLU"
  bottom: "inception_3b/3x3"
  top: "inception_3b/3x3"
}
layer {
  name: "inception_3b/5x5_reduce"
  type: "Convolution"
  bottom: "inception_3a/output"
  top: "inception_3b/5x5_reduce"
  param {
    lr_mult: 1
    decay_mult: 1
  }
  param {
    lr_mult: 2
    decay_mult: 0
  }
  convolution_param {
    num_output: 32
    kernel_size: 1
    weight_filler {
      type: "xavier"
      std: 0.2
    }
    bias_filler {
      type: "constant"
      value: 0.2
    }
  }
}
layer {
  name: "inception_3b/relu_5x5_reduce"
  type: "ReLU"
  bottom: "inception_3b/5x5_reduce"
  top: "inception_3b/5x5_reduce"
}
layer {
  name: "inception_3b/5x5"
  type: "Convolution"
  bottom: "inception_3b/5x5_reduce"
  top: "inception_3b/5x5"
  param {
    lr_mult: 1
    decay_mult: 1
  }
  param {
    lr_mult: 2
    decay_mult: 0
  }
  convolution_param {
    num_output: 96
    pad: 2
    kernel_size: 5
    weight_filler {
      type: "xavier"
      std: 0.03
    }
    bias_filler {
      type: "constant"
      value: 0.2
    }
  }
}
layer {
  name: "inception_3b/relu_5x5"
  type: "ReLU"
  bottom: "inception_3b/5x5"
  top: "inception_3b/5x5"
}
layer {
  name: "inception_3b/pool"
  type: "Pooling"
  bottom: "inception_3a/output"
  top: "inception_3b/pool"
  pooling_param {
    pool: MAX
    kernel_size: 3
    stride: 1
    pad: 1
  }
}
layer {
  name: "inception_3b/pool_proj"
  type: "Convolution"
  bottom: "inception_3b/pool"
  top: "inception_3b/pool_proj"
  param {
    lr_mult: 1
    decay_mult: 1
  }
  param {
    lr_mult: 2
    decay_mult: 0
  }
  convolution_param {
    num_output: 64
    kernel_size: 1
    weight_filler {
      type: "xavier"
      std: 0.1
    }
    bias_filler {
      type: "constant"
      value: 0.2
    }
  }
}
layer {
  name: "inception_3b/relu_pool_proj"
  type: "ReLU"
  bottom: "inception_3b/pool_proj"
  top: "inception_3b/pool_proj"
}
layer {
  name: "inception_3b/output"
  type: "Concat"
  bottom: "inception_3b/1x1"
  bottom: "inception_3b/3x3"
  bottom: "inception_3b/5x5"
  bottom: "inception_3b/pool_proj"
  top: "inception_3b/output"
}
layer {
  name: "pool3/3x3_s2"
  type: "Pooling"
  bottom: "inception_3b/output"
  top: "pool3/3x3_s2"
  pooling_param {
    pool: MAX
    kernel_size: 3
    stride: 2
  }
}
layer {
  name: "inception_4a/1x1"
  type: "Convolution"
  bottom: "pool3/3x3_s2"
  top: "inception_4a/1x1"
  param {
    lr_mult: 1
    decay_mult: 1
  }
  param {
    lr_mult: 2
    decay_mult: 0
  }
  convolution_param {
    num_output: 192
    kernel_size: 1
    weight_filler {
      type: "xavier"
      std: 0.03
    }
    bias_filler {
      type: "constant"
      value: 0.2
    }
  }
}
layer {
  name: "inception_4a/relu_1x1"
  type: "ReLU"
  bottom: "inception_4a/1x1"
  top: "inception_4a/1x1"
}
layer {
  name: "inception_4a/3x3_reduce"
  type: "Convolution"
  bottom: "pool3/3x3_s2"
  top: "inception_4a/3x3_reduce"
  param {
    lr_mult: 1
    decay_mult: 1
  }
  param {
    lr_mult: 2
    decay_mult: 0
  }
  convolution_param {
    num_output: 96
    kernel_size: 1
    weight_filler {
      type: "xavier"
      std: 0.09
    }
    bias_filler {
      type: "constant"
      value: 0.2
    }
  }
}
layer {
  name: "inception_4a/relu_3x3_reduce"
  type: "ReLU"
  bottom: "inception_4a/3x3_reduce"
  top: "inception_4a/3x3_reduce"
}
layer {
  name: "inception_4a/3x3"
  type: "Convolution"
  bottom: "inception_4a/3x3_reduce"
  top: "inception_4a/3x3"
  param {
    lr_mult: 1
    decay_mult: 1
  }
  param {
    lr_mult: 2
    decay_mult: 0
  }
  convolution_param {
    num_output: 208
    pad: 1
    kernel_size: 3
    weight_filler {
      type: "xavier"
      std: 0.03
    }
    bias_filler {
      type: "constant"
      value: 0.2
    }
  }
}
layer {
  name: "inception_4a/relu_3x3"
  type: "ReLU"
  bottom: "inception_4a/3x3"
  top: "inception_4a/3x3"
}
layer {
  name: "inception_4a/5x5_reduce"
  type: "Convolution"
  bottom: "pool3/3x3_s2"
  top: "inception_4a/5x5_reduce"
  param {
    lr_mult: 1
    decay_mult: 1
  }
  param {
    lr_mult: 2
    decay_mult: 0
  }
  convolution_param {
    num_output: 16
    kernel_size: 1
    weight_filler {
      type: "xavier"
      std: 0.2
    }
    bias_filler {
      type: "constant"
      value: 0.2
    }
  }
}
layer {
  name: "inception_4a/relu_5x5_reduce"
  type: "ReLU"
  bottom: "inception_4a/5x5_reduce"
  top: "inception_4a/5x5_reduce"
}
layer {
  name: "inception_4a/5x5"
  type: "Convolution"
  bottom: "inception_4a/5x5_reduce"
  top: "inception_4a/5x5"
  param {
    lr_mult: 1
    decay_mult: 1
  }
  param {
    lr_mult: 2
    decay_mult: 0
  }
  convolution_param {
    num_output: 48
    pad: 2
    kernel_size: 5
    weight_filler {
      type: "xavier"
      std: 0.03
    }
    bias_filler {
      type: "constant"
      value: 0.2
    }
  }
}
layer {
  name: "inception_4a/relu_5x5"
  type: "ReLU"
  bottom: "inception_4a/5x5"
  top: "inception_4a/5x5"
}
layer {
  name: "inception_4a/pool"
  type: "Pooling"
  bottom: "pool3/3x3_s2"
  top: "inception_4a/pool"
  pooling_param {
    pool: MAX
    kernel_size: 3
    stride: 1
    pad: 1
  }
}
layer {
  name: "inception_4a/pool_proj"
  type: "Convolution"
  bottom: "inception_4a/pool"
  top: "inception_4a/pool_proj"
  param {
    lr_mult: 1
    decay_mult: 1
  }
  param {
    lr_mult: 2
    decay_mult: 0
  }
  convolution_param {
    num_output: 64
    kernel_size: 1
    weight_filler {
      type: "xavier"
      std: 0.1
    }
    bias_filler {
      type: "constant"
      value: 0.2
    }
  }
}
layer {
  name: "inception_4a/relu_pool_proj"
  type: "ReLU"
  bottom: "inception_4a/pool_proj"
  top: "inception_4a/pool_proj"
}
layer {
  name: "inception_4a/output"
  type: "Concat"
  bottom: "inception_4a/1x1"
  bottom: "inception_4a/3x3"
  bottom: "inception_4a/5x5"
  bottom: "inception_4a/pool_proj"
  top: "inception_4a/output"
}
layer {
  name: "loss1/ave_pool"
  type: "Pooling"
  bottom: "inception_4a/output"
  top: "loss1/ave_pool"
  pooling_param {
    pool: AVE
    kernel_size: 5
    stride: 3
  }
}
layer {
  name: "loss1/conv"
  type: "Convolution"
  bottom: "loss1/ave_pool"
  top: "loss1/conv"
  param {
    lr_mult: 1
    decay_mult: 1
  }
  param {
    lr_mult: 2
    decay_mult: 0
  }
  convolution_param {
    num_output: 128
    kernel_size: 1
    weight_filler {
      type: "xavier"
      std: 0.08
    }
    bias_filler {
      type: "constant"
      value: 0.2
    }
  }
}
layer {
  name: "loss1/relu_conv"
  type: "ReLU"
  bottom: "loss1/conv"
  top: "loss1/conv"
}
layer {
  name: "loss1/fc"
  type: "InnerProduct"
  bottom: "loss1/conv"
  top: "loss1/fc"
  param {
    lr_mult: 1
    decay_mult: 1
  }
  param {
    lr_mult: 2
    decay_mult: 0
  }
  inner_product_param {
    num_output: 1024
    weight_filler {
      type: "xavier"
      std: 0.02
    }
    bias_filler {
      type: "constant"
      value: 0.2
    }
  }
}
layer {
  name: "loss1/relu_fc"
  type: "ReLU"
  bottom: "loss1/fc"
  top: "loss1/fc"
}
layer {
  name: "loss1/drop_fc"
  type: "Dropout"
  bottom: "loss1/fc"
  top: "loss1/fc"
  dropout_param {
    dropout_ratio: 0.7
  }
}
layer {
  name: "loss1/classifier_plantvillage"
  type: "InnerProduct"
  bottom: "loss1/fc"
  top: "loss1/classifier_plantvillage"
  param {
    lr_mult: 1
    decay_mult: 1
  }
  param {
    lr_mult: 2
    decay_mult: 0
  }
  inner_product_param {
    num_output: 38
    weight_filler {
      type: "xavier"
      std: 0.0009765625
    }
    bias_filler {
      type: "constant"
      value: 0
    }
  }
}
layer {
  name: "inception_4b/1x1"
  type: "Convolution"
  bottom: "inception_4a/output"
  top: "inception_4b/1x1"
  param {
    lr_mult: 1
    decay_mult: 1
  }
  param {
    lr_mult: 2
    decay_mult: 0
  }
  convolution_param {
    num_output: 160
    kernel_size: 1
    weight_filler {
      type: "xavier"
      std: 0.03
    }
    bias_filler {
      type: "constant"
      value: 0.2
    }
  }
}
layer {
  name: "inception_4b/relu_1x1"
  type: "ReLU"
  bottom: "inception_4b/1x1"
  top: "inception_4b/1x1"
}
layer {
  name: "inception_4b/3x3_reduce"
  type: "Convolution"
  bottom: "inception_4a/output"
  top: "inception_4b/3x3_reduce"
  param {
    lr_mult: 1
    decay_mult: 1
  }
  param {
    lr_mult: 2
    decay_mult: 0
  }
  convolution_param {
    num_output: 112
    kernel_size: 1
    weight_filler {
      type: "xavier"
      std: 0.09
    }
    bias_filler {
      type: "constant"
      value: 0.2
    }
  }
}
layer {
  name: "inception_4b/relu_3x3_reduce"
  type: "ReLU"
  bottom: "inception_4b/3x3_reduce"
  top: "inception_4b/3x3_reduce"
}
layer {
  name: "inception_4b/3x3"
  type: "Convolution"
  bottom: "inception_4b/3x3_reduce"
  top: "inception_4b/3x3"
  param {
    lr_mult: 1
    decay_mult: 1
  }
  param {
    lr_mult: 2
    decay_mult: 0
  }
  convolution_param {
    num_output: 224
    pad: 1
    kernel_size: 3
    weight_filler {
      type: "xavier"
      std: 0.03
    }
    bias_filler {
      type: "constant"
      value: 0.2
    }
  }
}
layer {
  name: "inception_4b/relu_3x3"
  type: "ReLU"
  bottom: "inception_4b/3x3"
  top: "inception_4b/3x3"
}
layer {
  name: "inception_4b/5x5_reduce"
  type: "Convolution"
  bottom: "inception_4a/output"
  top: "inception_4b/5x5_reduce"
  param {
    lr_mult: 1
    decay_mult: 1
  }
  param {
    lr_mult: 2
    decay_mult: 0
  }
  convolution_param {
    num_output: 24
    kernel_size: 1
    weight_filler {
      type: "xavier"
      std: 0.2
    }
    bias_filler {
      type: "constant"
      value: 0.2
    }
  }
}
layer {
  name: "inception_4b/relu_5x5_reduce"
  type: "ReLU"
  bottom: "inception_4b/5x5_reduce"
  top: "inception_4b/5x5_reduce"
}
layer {
  name: "inception_4b/5x5"
  type: "Convolution"
  bottom: "inception_4b/5x5_reduce"
  top: "inception_4b/5x5"
  param {
    lr_mult: 1
    decay_mult: 1
  }
  param {
    lr_mult: 2
    decay_mult: 0
  }
  convolution_param {
    num_output: 64
    pad: 2
    kernel_size: 5
    weight_filler {
      type: "xavier"
      std: 0.03
    }
    bias_filler {
      type: "constant"
      value: 0.2
    }
  }
}
layer {
  name: "inception_4b/relu_5x5"
  type: "ReLU"
  bottom: "inception_4b/5x5"
  top: "inception_4b/5x5"
}
layer {
  name: "inception_4b/pool"
  type: "Pooling"
  bottom: "inception_4a/output"
  top: "inception_4b/pool"
  pooling_param {
    pool: MAX
    kernel_size: 3
    stride: 1
    pad: 1
  }
}
layer {
  name: "inception_4b/pool_proj"
  type: "Convolution"
  bottom: "inception_4b/pool"
  top: "inception_4b/pool_proj"
  param {
    lr_mult: 1
    decay_mult: 1
  }
  param {
    lr_mult: 2
    decay_mult: 0
  }
  convolution_param {
    num_output: 64
    kernel_size: 1
    weight_filler {
      type: "xavier"
      std: 0.1
    }
    bias_filler {
      type: "constant"
      value: 0.2
    }
  }
}
layer {
  name: "inception_4b/relu_pool_proj"
  type: "ReLU"
  bottom: "inception_4b/pool_proj"
  top: "inception_4b/pool_proj"
}
layer {
  name: "inception_4b/output"
  type: "Concat"
  bottom: "inception_4b/1x1"
  bottom: "inception_4b/3x3"
  bottom: "inception_4b/5x5"
  bottom: "inception_4b/pool_proj"
  top: "inception_4b/output"
}
layer {
  name: "inception_4c/1x1"
  type: "Convolution"
  bottom: "inception_4b/output"
  top: "inception_4c/1x1"
  param {
    lr_mult: 1
    decay_mult: 1
  }
  param {
    lr_mult: 2
    decay_mult: 0
  }
  convolution_param {
    num_output: 128
    kernel_size: 1
    weight_filler {
      type: "xavier"
      std: 0.03
    }
    bias_filler {
      type: "constant"
      value: 0.2
    }
  }
}
layer {
  name: "inception_4c/relu_1x1"
  type: "ReLU"
  bottom: "inception_4c/1x1"
  top: "inception_4c/1x1"
}
layer {
  name: "inception_4c/3x3_reduce"
  type: "Convolution"
  bottom: "inception_4b/output"
  top: "inception_4c/3x3_reduce"
  param {
    lr_mult: 1
    decay_mult: 1
  }
  param {
    lr_mult: 2
    decay_mult: 0
  }
  convolution_param {
    num_output: 128
    kernel_size: 1
    weight_filler {
      type: "xavier"
      std: 0.09
    }
    bias_filler {
      type: "constant"
      value: 0.2
    }
  }
}
layer {
  name: "inception_4c/relu_3x3_reduce"
  type: "ReLU"
  bottom: "inception_4c/3x3_reduce"
  top: "inception_4c/3x3_reduce"
}
layer {
  name: "inception_4c/3x3"
  type: "Convolution"
  bottom: "inception_4c/3x3_reduce"
  top: "inception_4c/3x3"
  param {
    lr_mult: 1
    decay_mult: 1
  }
  param {
    lr_mult: 2
    decay_mult: 0
  }
  convolution_param {
    num_output: 256
    pad: 1
    kernel_size: 3
    weight_filler {
      type: "xavier"
      std: 0.03
    }
    bias_filler {
      type: "constant"
      value: 0.2
    }
  }
}
layer {
  name: "inception_4c/relu_3x3"
  type: "ReLU"
  bottom: "inception_4c/3x3"
  top: "inception_4c/3x3"
}
layer {
  name: "inception_4c/5x5_reduce"
  type: "Convolution"
  bottom: "inception_4b/output"
  top: "inception_4c/5x5_reduce"
  param {
    lr_mult: 1
    decay_mult: 1
  }
  param {
    lr_mult: 2
    decay_mult: 0
  }
  convolution_param {
    num_output: 24
    kernel_size: 1
    weight_filler {
      type: "xavier"
      std: 0.2
    }
    bias_filler {
      type: "constant"
      value: 0.2
    }
  }
}
layer {
  name: "inception_4c/relu_5x5_reduce"
  type: "ReLU"
  bottom: "inception_4c/5x5_reduce"
  top: "inception_4c/5x5_reduce"
}
layer {
  name: "inception_4c/5x5"
  type: "Convolution"
  bottom: "inception_4c/5x5_reduce"
  top: "inception_4c/5x5"
  param {
    lr_mult: 1
    decay_mult: 1
  }
  param {
    lr_mult: 2
    decay_mult: 0
  }
  convolution_param {
    num_output: 64
    pad: 2
    kernel_size: 5
    weight_filler {
      type: "xavier"
      std: 0.03
    }
    bias_filler {
      type: "constant"
      value: 0.2
    }
  }
}
layer {
  name: "inception_4c/relu_5x5"
  type: "ReLU"
  bottom: "inception_4c/5x5"
  top: "inception_4c/5x5"
}
layer {
  name: "inception_4c/pool"
  type: "Pooling"
  bottom: "inception_4b/output"
  top: "inception_4c/pool"
  pooling_param {
    pool: MAX
    kernel_size: 3
    stride: 1
    pad: 1
  }
}
layer {
  name: "inception_4c/pool_proj"
  type: "Convolution"
  bottom: "inception_4c/pool"
  top: "inception_4c/pool_proj"
  param {
    lr_mult: 1
    decay_mult: 1
  }
  param {
    lr_mult: 2
    decay_mult: 0
  }
  convolution_param {
    num_output: 64
    kernel_size: 1
    weight_filler {
      type: "xavier"
      std: 0.1
    }
    bias_filler {
      type: "constant"
      value: 0.2
    }
  }
}
layer {
  name: "inception_4c/relu_pool_proj"
  type: "ReLU"
  bottom: "inception_4c/pool_proj"
  top: "inception_4c/pool_proj"
}
layer {
  name: "inception_4c/output"
  type: "Concat"
  bottom: "inception_4c/1x1"
  bottom: "inception_4c/3x3"
  bottom: "inception_4c/5x5"
  bottom: "inception_4c/pool_proj"
  top: "inception_4c/output"
}
layer {
  name: "inception_4d/1x1"
  type: "Convolution"
  bottom: "inception_4c/output"
  top: "inception_4d/1x1"
  param {
    lr_mult: 1
    decay_mult: 1
  }
  param {
    lr_mult: 2
    decay_mult: 0
  }
  convolution_param {
    num_output: 112
    kernel_size: 1
    weight_filler {
      type: "xavier"
      std: 0.03
    }
    bias_filler {
      type: "constant"
      value: 0.2
    }
  }
}
layer {
  name: "inception_4d/relu_1x1"
  type: "ReLU"
  bottom: "inception_4d/1x1"
  top: "inception_4d/1x1"
}
layer {
  name: "inception_4d/3x3_reduce"
  type: "Convolution"
  bottom: "inception_4c/output"
  top: "inception_4d/3x3_reduce"
  param {
    lr_mult: 1
    decay_mult: 1
  }
  param {
    lr_mult: 2
    decay_mult: 0
  }
  convolution_param {
    num_output: 144
    kernel_size: 1
    weight_filler {
      type: "xavier"
      std: 0.09
    }
    bias_filler {
      type: "constant"
      value: 0.2
    }
  }
}
layer {
  name: "inception_4d/relu_3x3_reduce"
  type: "ReLU"
  bottom: "inception_4d/3x3_reduce"
  top: "inception_4d/3x3_reduce"
}
layer {
  name: "inception_4d/3x3"
  type: "Convolution"
  bottom: "inception_4d/3x3_reduce"
  top: "inception_4d/3x3"
  param {
    lr_mult: 1
    decay_mult: 1
  }
  param {
    lr_mult: 2
    decay_mult: 0
  }
  convolution_param {
    num_output: 288
    pad: 1
    kernel_size: 3
    weight_filler {
      type: "xavier"
      std: 0.03
    }
    bias_filler {
      type: "constant"
      value: 0.2
    }
  }
}
layer {
  name: "inception_4d/relu_3x3"
  type: "ReLU"
  bottom: "inception_4d/3x3"
  top: "inception_4d/3x3"
}
layer {
  name: "inception_4d/5x5_reduce"
  type: "Convolution"
  bottom: "inception_4c/output"
  top: "inception_4d/5x5_reduce"
  param {
    lr_mult: 1
    decay_mult: 1
  }
  param {
    lr_mult: 2
    decay_mult: 0
  }
  convolution_param {
    num_output: 32
    kernel_size: 1
    weight_filler {
      type: "xavier"
      std: 0.2
    }
    bias_filler {
      type: "constant"
      value: 0.2
    }
  }
}
layer {
  name: "inception_4d/relu_5x5_reduce"
  type: "ReLU"
  bottom: "inception_4d/5x5_reduce"
  top: "inception_4d/5x5_reduce"
}
layer {
  name: "inception_4d/5x5"
  type: "Convolution"
  bottom: "inception_4d/5x5_reduce"
  top: "inception_4d/5x5"
  param {
    lr_mult: 1
    decay_mult: 1
  }
  param {
    lr_mult: 2
    decay_mult: 0
  }
  convolution_param {
    num_output: 64
    pad: 2
    kernel_size: 5
    weight_filler {
      type: "xavier"
      std: 0.03
    }
    bias_filler {
      type: "constant"
      value: 0.2
    }
  }
}
layer {
  name: "inception_4d/relu_5x5"
  type: "ReLU"
  bottom: "inception_4d/5x5"
  top: "inception_4d/5x5"
}
layer {
  name: "inception_4d/pool"
  type: "Pooling"
  bottom: "inception_4c/output"
  top: "inception_4d/pool"
  pooling_param {
    pool: MAX
    kernel_size: 3
    stride: 1
    pad: 1
  }
}
layer {
  name: "inception_4d/pool_proj"
  type: "Convolution"
  bottom: "inception_4d/pool"
  top: "inception_4d/pool_proj"
  param {
    lr_mult: 1
    decay_mult: 1
  }
  param {
    lr_mult: 2
    decay_mult: 0
  }
  convolution_param {
    num_output: 64
    kernel_size: 1
    weight_filler {
      type: "xavier"
      std: 0.1
    }
    bias_filler {
      type: "constant"
      value: 0.2
    }
  }
}
layer {
  name: "inception_4d/relu_pool_proj"
  type: "ReLU"
  bottom: "inception_4d/pool_proj"
  top: "inception_4d/pool_proj"
}
layer {
  name: "inception_4d/output"
  type: "Concat"
  bottom: "inception_4d/1x1"
  bottom: "inception_4d/3x3"
  bottom: "inception_4d/5x5"
  bottom: "inception_4d/pool_proj"
  top: "inception_4d/output"
}
layer {
  name: "loss2/ave_pool"
  type: "Pooling"
  bottom: "inception_4d/output"
  top: "loss2/ave_pool"
  pooling_param {
    pool: AVE
    kernel_size: 5
    stride: 3
  }
}
layer {
  name: "loss2/conv"
  type: "Convolution"
  bottom: "loss2/ave_pool"
  top: "loss2/conv"
  param {
    lr_mult: 1
    decay_mult: 1
  }
  param {
    lr_mult: 2
    decay_mult: 0
  }
  convolution_param {
    num_output: 128
    kernel_size: 1
    weight_filler {
      type: "xavier"
      std: 0.08
    }
    bias_filler {
      type: "constant"
      value: 0.2
    }
  }
}
layer {
  name: "loss2/relu_conv"
  type: "ReLU"
  bottom: "loss2/conv"
  top: "loss2/conv"
}
layer {
  name: "loss2/fc"
  type: "InnerProduct"
  bottom: "loss2/conv"
  top: "loss2/fc"
  param {
    lr_mult: 1
    decay_mult: 1
  }
  param {
    lr_mult: 2
    decay_mult: 0
  }
  inner_product_param {
    num_output: 1024
    weight_filler {
      type: "xavier"
      std: 0.02
    }
    bias_filler {
      type: "constant"
      value: 0.2
    }
  }
}
layer {
  name: "loss2/relu_fc"
  type: "ReLU"
  bottom: "loss2/fc"
  top: "loss2/fc"
}
layer {
  name: "loss2/drop_fc"
  type: "Dropout"
  bottom: "loss2/fc"
  top: "loss2/fc"
  dropout_param {
    dropout_ratio: 0.7
  }
}
layer {
  name: "loss2/classifier_plantvillage"
  type: "InnerProduct"
  bottom: "loss2/fc"
  top: "loss2/classifier_plantvillage"
  param {
    lr_mult: 1
    decay_mult: 1
  }
  param {
    lr_mult: 2
    decay_mult: 0
  }
  inner_product_param {
    num_output: 38
    weight_filler {
      type: "xavier"
      std: 0.0009765625
    }
    bias_filler {
      type: "constant"
      value: 0
    }
  }
}
layer {
  name: "inception_4e/1x1"
  type: "Convolution"
  bottom: "inception_4d/output"
  top: "inception_4e/1x1"
  param {
    lr_mult: 1
    decay_mult: 1
  }
  param {
    lr_mult: 2
    decay_mult: 0
  }
  convolution_param {
    num_output: 256
    kernel_size: 1
    weight_filler {
      type: "xavier"
      std: 0.03
    }
    bias_filler {
      type: "constant"
      value: 0.2
    }
  }
}
layer {
  name: "inception_4e/relu_1x1"
  type: "ReLU"
  bottom: "inception_4e/1x1"
  top: "inception_4e/1x1"
}
layer {
  name: "inception_4e/3x3_reduce"
  type: "Convolution"
  bottom: "inception_4d/output"
  top: "inception_4e/3x3_reduce"
  param {
    lr_mult: 1
    decay_mult: 1
  }
  param {
    lr_mult: 2
    decay_mult: 0
  }
  convolution_param {
    num_output: 160
    kernel_size: 1
    weight_filler {
      type: "xavier"
      std: 0.09
    }
    bias_filler {
      type: "constant"
      value: 0.2
    }
  }
}
layer {
  name: "inception_4e/relu_3x3_reduce"
  type: "ReLU"
  bottom: "inception_4e/3x3_reduce"
  top: "inception_4e/3x3_reduce"
}
layer {
  name: "inception_4e/3x3"
  type: "Convolution"
  bottom: "inception_4e/3x3_reduce"
  top: "inception_4e/3x3"
  param {
    lr_mult: 1
    decay_mult: 1
  }
  param {
    lr_mult: 2
    decay_mult: 0
  }
  convolution_param {
    num_output: 320
    pad: 1
    kernel_size: 3
    weight_filler {
      type: "xavier"
      std: 0.03
    }
    bias_filler {
      type: "constant"
      value: 0.2
    }
  }
}
layer {
  name: "inception_4e/relu_3x3"
  type: "ReLU"
  bottom: "inception_4e/3x3"
  top: "inception_4e/3x3"
}
layer {
  name: "inception_4e/5x5_reduce"
  type: "Convolution"
  bottom: "inception_4d/output"
  top: "inception_4e/5x5_reduce"
  param {
    lr_mult: 1
    decay_mult: 1
  }
  param {
    lr_mult: 2
    decay_mult: 0
  }
  convolution_param {
    num_output: 32
    kernel_size: 1
    weight_filler {
      type: "xavier"
      std: 0.2
    }
    bias_filler {
      type: "constant"
      value: 0.2
    }
  }
}
layer {
  name: "inception_4e/relu_5x5_reduce"
  type: "ReLU"
  bottom: "inception_4e/5x5_reduce"
  top: "inception_4e/5x5_reduce"
}
layer {
  name: "inception_4e/5x5"
  type: "Convolution"
  bottom: "inception_4e/5x5_reduce"
  top: "inception_4e/
I0403 18:08:37.768532 16316 layer_factory.hpp:77] Creating layer data
I0403 18:08:37.769119 16316 net.cpp:91] Creating Layer data
I0403 18:08:37.769150 16316 net.cpp:399] data -> data
I0403 18:08:37.769201 16316 net.cpp:399] data -> label
I0403 18:08:37.769237 16316 data_transformer.cpp:25] Loading mean file from: /home/mohanty/data/final_dataset/lmdb/grayscale-60-40/mean.binaryproto
I0403 18:08:37.770411 16320 db_lmdb.cpp:38] Opened lmdb /home/mohanty/data/final_dataset/lmdb/grayscale-60-40/test_db
I0403 18:08:37.782248 16316 data_layer.cpp:41] output data size: 24,3,224,224
I0403 18:08:37.808614 16316 net.cpp:141] Setting up data
I0403 18:08:37.808698 16316 net.cpp:148] Top shape: 24 3 224 224 (3612672)
I0403 18:08:37.808720 16316 net.cpp:148] Top shape: 24 (24)
I0403 18:08:37.808735 16316 net.cpp:156] Memory required for data: 14450784
I0403 18:08:37.808760 16316 layer_factory.hpp:77] Creating layer label_data_1_split
I0403 18:08:37.808787 16316 net.cpp:91] Creating Layer label_data_1_split
I0403 18:08:37.808805 16316 net.cpp:425] label_data_1_split <- label
I0403 18:08:37.808835 16316 net.cpp:399] label_data_1_split -> label_data_1_split_0
I0403 18:08:37.808862 16316 net.cpp:399] label_data_1_split -> label_data_1_split_1
I0403 18:08:37.808882 16316 net.cpp:399] label_data_1_split -> label_data_1_split_2
I0403 18:08:37.808903 16316 net.cpp:399] label_data_1_split -> label_data_1_split_3
I0403 18:08:37.808924 16316 net.cpp:399] label_data_1_split -> label_data_1_split_4
I0403 18:08:37.808943 16316 net.cpp:399] label_data_1_split -> label_data_1_split_5
I0403 18:08:37.808961 16316 net.cpp:399] label_data_1_split -> label_data_1_split_6
I0403 18:08:37.808984 16316 net.cpp:399] label_data_1_split -> label_data_1_split_7
I0403 18:08:37.809005 16316 net.cpp:399] label_data_1_split -> label_data_1_split_8
I0403 18:08:37.809025 16316 net.cpp:399] label_data_1_split -> label_data_1_split_9
I0403 18:08:37.809139 16316 net.cpp:141] Setting up label_data_1_split
I0403 18:08:37.809161 16316 net.cpp:148] Top shape: 24 (24)
I0403 18:08:37.809178 16316 net.cpp:148] Top shape: 24 (24)
I0403 18:08:37.809195 16316 net.cpp:148] Top shape: 24 (24)
I0403 18:08:37.809208 16316 net.cpp:148] Top shape: 24 (24)
I0403 18:08:37.809223 16316 net.cpp:148] Top shape: 24 (24)
I0403 18:08:37.809238 16316 net.cpp:148] Top shape: 24 (24)
I0403 18:08:37.809253 16316 net.cpp:148] Top shape: 24 (24)
I0403 18:08:37.809268 16316 net.cpp:148] Top shape: 24 (24)
I0403 18:08:37.809283 16316 net.cpp:148] Top shape: 24 (24)
I0403 18:08:37.809298 16316 net.cpp:148] Top shape: 24 (24)
I0403 18:08:37.809340 16316 net.cpp:156] Memory required for data: 14451744
I0403 18:08:37.809356 16316 layer_factory.hpp:77] Creating layer conv1/7x7_s2
I0403 18:08:37.809387 16316 net.cpp:91] Creating Layer conv1/7x7_s2
I0403 18:08:37.809406 16316 net.cpp:425] conv1/7x7_s2 <- data
I0403 18:08:37.809423 16316 net.cpp:399] conv1/7x7_s2 -> conv1/7x7_s2
I0403 18:08:37.946300 16316 net.cpp:141] Setting up conv1/7x7_s2
I0403 18:08:37.946387 16316 net.cpp:148] Top shape: 24 64 112 112 (19267584)
I0403 18:08:37.946403 16316 net.cpp:156] Memory required for data: 91522080
I0403 18:08:37.946434 16316 layer_factory.hpp:77] Creating layer conv1/relu_7x7
I0403 18:08:37.946460 16316 net.cpp:91] Creating Layer conv1/relu_7x7
I0403 18:08:37.946480 16316 net.cpp:425] conv1/relu_7x7 <- conv1/7x7_s2
I0403 18:08:37.946498 16316 net.cpp:386] conv1/relu_7x7 -> conv1/7x7_s2 (in-place)
I0403 18:08:37.946748 16316 net.cpp:141] Setting up conv1/relu_7x7
I0403 18:08:37.946775 16316 net.cpp:148] Top shape: 24 64 112 112 (19267584)
I0403 18:08:37.946791 16316 net.cpp:156] Memory required for data: 168592416
I0403 18:08:37.946806 16316 layer_factory.hpp:77] Creating layer pool1/3x3_s2
I0403 18:08:37.946831 16316 net.cpp:91] Creating Layer pool1/3x3_s2
I0403 18:08:37.946849 16316 net.cpp:425] pool1/3x3_s2 <- conv1/7x7_s2
I0403 18:08:37.946868 16316 net.cpp:399] pool1/3x3_s2 -> pool1/3x3_s2
I0403 18:08:37.946940 16316 net.cpp:141] Setting up pool1/3x3_s2
I0403 18:08:37.946966 16316 net.cpp:148] Top shape: 24 64 56 56 (4816896)
I0403 18:08:37.947023 16316 net.cpp:156] Memory required for data: 187860000
I0403 18:08:37.947043 16316 layer_factory.hpp:77] Creating layer pool1/norm1
I0403 18:08:37.947068 16316 net.cpp:91] Creating Layer pool1/norm1
I0403 18:08:37.947087 16316 net.cpp:425] pool1/norm1 <- pool1/3x3_s2
I0403 18:08:37.947104 16316 net.cpp:399] pool1/norm1 -> pool1/norm1
I0403 18:08:37.947383 16316 net.cpp:141] Setting up pool1/norm1
I0403 18:08:37.947410 16316 net.cpp:148] Top shape: 24 64 56 56 (4816896)
I0403 18:08:37.947427 16316 net.cpp:156] Memory required for data: 207127584
I0403 18:08:37.947440 16316 layer_factory.hpp:77] Creating layer conv2/3x3_reduce
I0403 18:08:37.947464 16316 net.cpp:91] Creating Layer conv2/3x3_reduce
I0403 18:08:37.947481 16316 net.cpp:425] conv2/3x3_reduce <- pool1/norm1
I0403 18:08:37.947499 16316 net.cpp:399] conv2/3x3_reduce -> conv2/3x3_reduce
I0403 18:08:37.948843 16316 net.cpp:141] Setting up conv2/3x3_reduce
I0403 18:08:37.948873 16316 net.cpp:148] Top shape: 24 64 56 56 (4816896)
I0403 18:08:37.948889 16316 net.cpp:156] Memory required for data: 226395168
I0403 18:08:37.948910 16316 layer_factory.hpp:77] Creating layer conv2/relu_3x3_reduce
I0403 18:08:37.948930 16316 net.cpp:91] Creating Layer conv2/relu_3x3_reduce
I0403 18:08:37.948946 16316 net.cpp:425] conv2/relu_3x3_reduce <- conv2/3x3_reduce
I0403 18:08:37.948963 16316 net.cpp:386] conv2/relu_3x3_reduce -> conv2/3x3_reduce (in-place)
I0403 18:08:37.949226 16316 net.cpp:141] Setting up conv2/relu_3x3_reduce
I0403 18:08:37.949254 16316 net.cpp:148] Top shape: 24 64 56 56 (4816896)
I0403 18:08:37.949270 16316 net.cpp:156] Memory required for data: 245662752
I0403 18:08:37.949285 16316 layer_factory.hpp:77] Creating layer conv2/3x3
I0403 18:08:37.949307 16316 net.cpp:91] Creating Layer conv2/3x3
I0403 18:08:37.949324 16316 net.cpp:425] conv2/3x3 <- conv2/3x3_reduce
I0403 18:08:37.949343 16316 net.cpp:399] conv2/3x3 -> conv2/3x3
I0403 18:08:37.951587 16316 net.cpp:141] Setting up conv2/3x3
I0403 18:08:37.951617 16316 net.cpp:148] Top shape: 24 192 56 56 (14450688)
I0403 18:08:37.951634 16316 net.cpp:156] Memory required for data: 303465504
I0403 18:08:37.951655 16316 layer_factory.hpp:77] Creating layer conv2/relu_3x3
I0403 18:08:37.951674 16316 net.cpp:91] Creating Layer conv2/relu_3x3
I0403 18:08:37.951690 16316 net.cpp:425] conv2/relu_3x3 <- conv2/3x3
I0403 18:08:37.951707 16316 net.cpp:386] conv2/relu_3x3 -> conv2/3x3 (in-place)
I0403 18:08:37.951865 16316 net.cpp:141] Setting up conv2/relu_3x3
I0403 18:08:37.951890 16316 net.cpp:148] Top shape: 24 192 56 56 (14450688)
I0403 18:08:37.951935 16316 net.cpp:156] Memory required for data: 361268256
I0403 18:08:37.951951 16316 layer_factory.hpp:77] Creating layer conv2/norm2
I0403 18:08:37.951969 16316 net.cpp:91] Creating Layer conv2/norm2
I0403 18:08:37.951990 16316 net.cpp:425] conv2/norm2 <- conv2/3x3
I0403 18:08:37.952009 16316 net.cpp:399] conv2/norm2 -> conv2/norm2
I0403 18:08:37.952359 16316 net.cpp:141] Setting up conv2/norm2
I0403 18:08:37.952388 16316 net.cpp:148] Top shape: 24 192 56 56 (14450688)
I0403 18:08:37.952402 16316 net.cpp:156] Memory required for data: 419071008
I0403 18:08:37.952417 16316 layer_factory.hpp:77] Creating layer pool2/3x3_s2
I0403 18:08:37.952435 16316 net.cpp:91] Creating Layer pool2/3x3_s2
I0403 18:08:37.952451 16316 net.cpp:425] pool2/3x3_s2 <- conv2/norm2
I0403 18:08:37.952469 16316 net.cpp:399] pool2/3x3_s2 -> pool2/3x3_s2
I0403 18:08:37.952518 16316 net.cpp:141] Setting up pool2/3x3_s2
I0403 18:08:37.952541 16316 net.cpp:148] Top shape: 24 192 28 28 (3612672)
I0403 18:08:37.952556 16316 net.cpp:156] Memory required for data: 433521696
I0403 18:08:37.952570 16316 layer_factory.hpp:77] Creating layer pool2/3x3_s2_pool2/3x3_s2_0_split
I0403 18:08:37.952587 16316 net.cpp:91] Creating Layer pool2/3x3_s2_pool2/3x3_s2_0_split
I0403 18:08:37.952602 16316 net.cpp:425] pool2/3x3_s2_pool2/3x3_s2_0_split <- pool2/3x3_s2
I0403 18:08:37.952620 16316 net.cpp:399] pool2/3x3_s2_pool2/3x3_s2_0_split -> pool2/3x3_s2_pool2/3x3_s2_0_split_0
I0403 18:08:37.952641 16316 net.cpp:399] pool2/3x3_s2_pool2/3x3_s2_0_split -> pool2/3x3_s2_pool2/3x3_s2_0_split_1
I0403 18:08:37.952661 16316 net.cpp:399] pool2/3x3_s2_pool2/3x3_s2_0_split -> pool2/3x3_s2_pool2/3x3_s2_0_split_2
I0403 18:08:37.952679 16316 net.cpp:399] pool2/3x3_s2_pool2/3x3_s2_0_split -> pool2/3x3_s2_pool2/3x3_s2_0_split_3
I0403 18:08:37.952744 16316 net.cpp:141] Setting up pool2/3x3_s2_pool2/3x3_s2_0_split
I0403 18:08:37.952765 16316 net.cpp:148] Top shape: 24 192 28 28 (3612672)
I0403 18:08:37.952782 16316 net.cpp:148] Top shape: 24 192 28 28 (3612672)
I0403 18:08:37.952797 16316 net.cpp:148] Top shape: 24 192 28 28 (3612672)
I0403 18:08:37.952812 16316 net.cpp:148] Top shape: 24 192 28 28 (3612672)
I0403 18:08:37.952826 16316 net.cpp:156] Memory required for data: 491324448
I0403 18:08:37.952841 16316 layer_factory.hpp:77] Creating layer inception_3a/1x1
I0403 18:08:37.952860 16316 net.cpp:91] Creating Layer inception_3a/1x1
I0403 18:08:37.952877 16316 net.cpp:425] inception_3a/1x1 <- pool2/3x3_s2_pool2/3x3_s2_0_split_0
I0403 18:08:37.952893 16316 net.cpp:399] inception_3a/1x1 -> inception_3a/1x1
I0403 18:08:37.954530 16316 net.cpp:141] Setting up inception_3a/1x1
I0403 18:08:37.954560 16316 net.cpp:148] Top shape: 24 64 28 28 (1204224)
I0403 18:08:37.954576 16316 net.cpp:156] Memory required for data: 496141344
I0403 18:08:37.954596 16316 layer_factory.hpp:77] Creating layer inception_3a/relu_1x1
I0403 18:08:37.954629 16316 net.cpp:91] Creating Layer inception_3a/relu_1x1
I0403 18:08:37.954648 16316 net.cpp:425] inception_3a/relu_1x1 <- inception_3a/1x1
I0403 18:08:37.954665 16316 net.cpp:386] inception_3a/relu_1x1 -> inception_3a/1x1 (in-place)
I0403 18:08:37.954854 16316 net.cpp:141] Setting up inception_3a/relu_1x1
I0403 18:08:37.954880 16316 net.cpp:148] Top shape: 24 64 28 28 (1204224)
I0403 18:08:37.954896 16316 net.cpp:156] Memory required for data: 500958240
I0403 18:08:37.954926 16316 layer_factory.hpp:77] Creating layer inception_3a/3x3_reduce
I0403 18:08:37.954949 16316 net.cpp:91] Creating Layer inception_3a/3x3_reduce
I0403 18:08:37.954967 16316 net.cpp:425] inception_3a/3x3_reduce <- pool2/3x3_s2_pool2/3x3_s2_0_split_1
I0403 18:08:37.954990 16316 net.cpp:399] inception_3a/3x3_reduce -> inception_3a/3x3_reduce
I0403 18:08:37.956760 16316 net.cpp:141] Setting up inception_3a/3x3_reduce
I0403 18:08:37.956791 16316 net.cpp:148] Top shape: 24 96 28 28 (1806336)
I0403 18:08:37.956807 16316 net.cpp:156] Memory required for data: 508183584
I0403 18:08:37.956830 16316 layer_factory.hpp:77] Creating layer inception_3a/relu_3x3_reduce
I0403 18:08:37.956867 16316 net.cpp:91] Creating Layer inception_3a/relu_3x3_reduce
I0403 18:08:37.956887 16316 net.cpp:425] inception_3a/relu_3x3_reduce <- inception_3a/3x3_reduce
I0403 18:08:37.956907 16316 net.cpp:386] inception_3a/relu_3x3_reduce -> inception_3a/3x3_reduce (in-place)
I0403 18:08:37.957098 16316 net.cpp:141] Setting up inception_3a/relu_3x3_reduce
I0403 18:08:37.957124 16316 net.cpp:148] Top shape: 24 96 28 28 (1806336)
I0403 18:08:37.957140 16316 net.cpp:156] Memory required for data: 515408928
I0403 18:08:37.957154 16316 layer_factory.hpp:77] Creating layer inception_3a/3x3
I0403 18:08:37.957190 16316 net.cpp:91] Creating Layer inception_3a/3x3
I0403 18:08:37.957208 16316 net.cpp:425] inception_3a/3x3 <- inception_3a/3x3_reduce
I0403 18:08:37.957232 16316 net.cpp:399] inception_3a/3x3 -> inception_3a/3x3
I0403 18:08:37.958976 16316 net.cpp:141] Setting up inception_3a/3x3
I0403 18:08:37.959008 16316 net.cpp:148] Top shape: 24 128 28 28 (2408448)
I0403 18:08:37.959024 16316 net.cpp:156] Memory required for data: 525042720
I0403 18:08:37.959043 16316 layer_factory.hpp:77] Creating layer inception_3a/relu_3x3
I0403 18:08:37.959065 16316 net.cpp:91] Creating Layer inception_3a/relu_3x3
I0403 18:08:37.959084 16316 net.cpp:425] inception_3a/relu_3x3 <- inception_3a/3x3
I0403 18:08:37.959101 16316 net.cpp:386] inception_3a/relu_3x3 -> inception_3a/3x3 (in-place)
I0403 18:08:37.959381 16316 net.cpp:141] Setting up inception_3a/relu_3x3
I0403 18:08:37.959409 16316 net.cpp:148] Top shape: 24 128 28 28 (2408448)
I0403 18:08:37.959425 16316 net.cpp:156] Memory required for data: 534676512
I0403 18:08:37.959440 16316 layer_factory.hpp:77] Creating layer inception_3a/5x5_reduce
I0403 18:08:37.959465 16316 net.cpp:91] Creating Layer inception_3a/5x5_reduce
I0403 18:08:37.959482 16316 net.cpp:425] inception_3a/5x5_reduce <- pool2/3x3_s2_pool2/3x3_s2_0_split_2
I0403 18:08:37.959503 16316 net.cpp:399] inception_3a/5x5_reduce -> inception_3a/5x5_reduce
I0403 18:08:37.960480 16316 net.cpp:141] Setting up inception_3a/5x5_reduce
I0403 18:08:37.960511 16316 net.cpp:148] Top shape: 24 16 28 28 (301056)
I0403 18:08:37.960528 16316 net.cpp:156] Memory required for data: 535880736
I0403 18:08:37.960547 16316 layer_factory.hpp:77] Creating layer inception_3a/relu_5x5_reduce
I0403 18:08:37.960566 16316 net.cpp:91] Creating Layer inception_3a/relu_5x5_reduce
I0403 18:08:37.960582 16316 net.cpp:425] inception_3a/relu_5x5_reduce <- inception_3a/5x5_reduce
I0403 18:08:37.960598 16316 net.cpp:386] inception_3a/relu_5x5_reduce -> inception_3a/5x5_reduce (in-place)
I0403 18:08:37.960901 16316 net.cpp:141] Setting up inception_3a/relu_5x5_reduce
I0403 18:08:37.960930 16316 net.cpp:148] Top shape: 24 16 28 28 (301056)
I0403 18:08:37.960947 16316 net.cpp:156] Memory required for data: 537084960
I0403 18:08:37.960961 16316 layer_factory.hpp:77] Creating layer inception_3a/5x5
I0403 18:08:37.960988 16316 net.cpp:91] Creating Layer inception_3a/5x5
I0403 18:08:37.961007 16316 net.cpp:425] inception_3a/5x5 <- inception_3a/5x5_reduce
I0403 18:08:37.961030 16316 net.cpp:399] inception_3a/5x5 -> inception_3a/5x5
I0403 18:08:37.962088 16316 net.cpp:141] Setting up inception_3a/5x5
I0403 18:08:37.962117 16316 net.cpp:148] Top shape: 24 32 28 28 (602112)
I0403 18:08:37.962134 16316 net.cpp:156] Memory required for data: 539493408
I0403 18:08:37.962152 16316 layer_factory.hpp:77] Creating layer inception_3a/relu_5x5
I0403 18:08:37.962174 16316 net.cpp:91] Creating Layer inception_3a/relu_5x5
I0403 18:08:37.962191 16316 net.cpp:425] inception_3a/relu_5x5 <- inception_3a/5x5
I0403 18:08:37.962209 16316 net.cpp:386] inception_3a/relu_5x5 -> inception_3a/5x5 (in-place)
I0403 18:08:37.962388 16316 net.cpp:141] Setting up inception_3a/relu_5x5
I0403 18:08:37.962415 16316 net.cpp:148] Top shape: 24 32 28 28 (602112)
I0403 18:08:37.962431 16316 net.cpp:156] Memory required for data: 541901856
I0403 18:08:37.962447 16316 layer_factory.hpp:77] Creating layer inception_3a/pool
I0403 18:08:37.962466 16316 net.cpp:91] Creating Layer inception_3a/pool
I0403 18:08:37.962496 16316 net.cpp:425] inception_3a/pool <- pool2/3x3_s2_pool2/3x3_s2_0_split_3
I0403 18:08:37.962517 16316 net.cpp:399] inception_3a/pool -> inception_3a/pool
I0403 18:08:37.962575 16316 net.cpp:141] Setting up inception_3a/pool
I0403 18:08:37.962599 16316 net.cpp:148] Top shape: 24 192 28 28 (3612672)
I0403 18:08:37.962615 16316 net.cpp:156] Memory required for data: 556352544
I0403 18:08:37.962630 16316 layer_factory.hpp:77] Creating layer inception_3a/pool_proj
I0403 18:08:37.962653 16316 net.cpp:91] Creating Layer inception_3a/pool_proj
I0403 18:08:37.962671 16316 net.cpp:425] inception_3a/pool_proj <- inception_3a/pool
I0403 18:08:37.962692 16316 net.cpp:399] inception_3a/pool_proj -> inception_3a/pool_proj
I0403 18:08:37.963668 16316 net.cpp:141] Setting up inception_3a/pool_proj
I0403 18:08:37.963697 16316 net.cpp:148] Top shape: 24 32 28 28 (602112)
I0403 18:08:37.963714 16316 net.cpp:156] Memory required for data: 558760992
I0403 18:08:37.963738 16316 layer_factory.hpp:77] Creating layer inception_3a/relu_pool_proj
I0403 18:08:37.963758 16316 net.cpp:91] Creating Layer inception_3a/relu_pool_proj
I0403 18:08:37.963775 16316 net.cpp:425] inception_3a/relu_pool_proj <- inception_3a/pool_proj
I0403 18:08:37.963793 16316 net.cpp:386] inception_3a/relu_pool_proj -> inception_3a/pool_proj (in-place)
I0403 18:08:37.964079 16316 net.cpp:141] Setting up inception_3a/relu_pool_proj
I0403 18:08:37.964107 16316 net.cpp:148] Top shape: 24 32 28 28 (602112)
I0403 18:08:37.964123 16316 net.cpp:156] Memory required for data: 561169440
I0403 18:08:37.964138 16316 layer_factory.hpp:77] Creating layer inception_3a/output
I0403 18:08:37.964159 16316 net.cpp:91] Creating Layer inception_3a/output
I0403 18:08:37.964175 16316 net.cpp:425] inception_3a/output <- inception_3a/1x1
I0403 18:08:37.964192 16316 net.cpp:425] inception_3a/output <- inception_3a/3x3
I0403 18:08:37.964210 16316 net.cpp:425] inception_3a/output <- inception_3a/5x5
I0403 18:08:37.964226 16316 net.cpp:425] inception_3a/output <- inception_3a/pool_proj
I0403 18:08:37.964242 16316 net.cpp:399] inception_3a/output -> inception_3a/output
I0403 18:08:37.964292 16316 net.cpp:141] Setting up inception_3a/output
I0403 18:08:37.964315 16316 net.cpp:148] Top shape: 24 256 28 28 (4816896)
I0403 18:08:37.964330 16316 net.cpp:156] Memory required for data: 580437024
I0403 18:08:37.964344 16316 layer_factory.hpp:77] Creating layer inception_3a/output_inception_3a/output_0_split
I0403 18:08:37.964361 16316 net.cpp:91] Creating Layer inception_3a/output_inception_3a/output_0_split
I0403 18:08:37.964377 16316 net.cpp:425] inception_3a/output_inception_3a/output_0_split <- inception_3a/output
I0403 18:08:37.964396 16316 net.cpp:399] inception_3a/output_inception_3a/output_0_split -> inception_3a/output_inception_3a/output_0_split_0
I0403 18:08:37.964417 16316 net.cpp:399] inception_3a/output_inception_3a/output_0_split -> inception_3a/output_inception_3a/output_0_split_1
I0403 18:08:37.964439 16316 net.cpp:399] inception_3a/output_inception_3a/output_0_split -> inception_3a/output_inception_3a/output_0_split_2
I0403 18:08:37.964462 16316 net.cpp:399] inception_3a/output_inception_3a/output_0_split -> inception_3a/output_inception_3a/output_0_split_3
I0403 18:08:37.964542 16316 net.cpp:141] Setting up inception_3a/output_inception_3a/output_0_split
I0403 18:08:37.964566 16316 net.cpp:148] Top shape: 24 256 28 28 (4816896)
I0403 18:08:37.964583 16316 net.cpp:148] Top shape: 24 256 28 28 (4816896)
I0403 18:08:37.964599 16316 net.cpp:148] Top shape: 24 256 28 28 (4816896)
I0403 18:08:37.964614 16316 net.cpp:148] Top shape: 24 256 28 28 (4816896)
I0403 18:08:37.964629 16316 net.cpp:156] Memory required for data: 657507360
I0403 18:08:37.964643 16316 layer_factory.hpp:77] Creating layer inception_3b/1x1
I0403 18:08:37.964666 16316 net.cpp:91] Creating Layer inception_3b/1x1
I0403 18:08:37.964684 16316 net.cpp:425] inception_3b/1x1 <- inception_3a/output_inception_3a/output_0_split_0
I0403 18:08:37.964705 16316 net.cpp:399] inception_3b/1x1 -> inception_3b/1x1
I0403 18:08:37.965872 16316 net.cpp:141] Setting up inception_3b/1x1
I0403 18:08:37.965910 16316 net.cpp:148] Top shape: 24 128 28 28 (2408448)
I0403 18:08:37.965929 16316 net.cpp:156] Memory required for data: 667141152
I0403 18:08:37.965946 16316 layer_factory.hpp:77] Creating layer inception_3b/relu_1x1
I0403 18:08:37.965966 16316 net.cpp:91] Creating Layer inception_3b/relu_1x1
I0403 18:08:37.965987 16316 net.cpp:425] inception_3b/relu_1x1 <- inception_3b/1x1
I0403 18:08:37.966006 16316 net.cpp:386] inception_3b/relu_1x1 -> inception_3b/1x1 (in-place)
I0403 18:08:37.966177 16316 net.cpp:141] Setting up inception_3b/relu_1x1
I0403 18:08:37.966202 16316 net.cpp:148] Top shape: 24 128 28 28 (2408448)
I0403 18:08:37.966217 16316 net.cpp:156] Memory required for data: 676774944
I0403 18:08:37.966233 16316 layer_factory.hpp:77] Creating layer inception_3b/3x3_reduce
I0403 18:08:37.966253 16316 net.cpp:91] Creating Layer inception_3b/3x3_reduce
I0403 18:08:37.966271 16316 net.cpp:425] inception_3b/3x3_reduce <- inception_3a/output_inception_3a/output_0_split_1
I0403 18:08:37.966291 16316 net.cpp:399] inception_3b/3x3_reduce -> inception_3b/3x3_reduce
I0403 18:08:37.967428 16316 net.cpp:141] Setting up inception_3b/3x3_reduce
I0403 18:08:37.967456 16316 net.cpp:148] Top shape: 24 128 28 28 (2408448)
I0403 18:08:37.967473 16316 net.cpp:156] Memory required for data: 686408736
I0403 18:08:37.967489 16316 layer_factory.hpp:77] Creating layer inception_3b/relu_3x3_reduce
I0403 18:08:37.967509 16316 net.cpp:91] Creating Layer inception_3b/relu_3x3_reduce
I0403 18:08:37.967526 16316 net.cpp:425] inception_3b/relu_3x3_reduce <- inception_3b/3x3_reduce
I0403 18:08:37.967545 16316 net.cpp:386] inception_3b/relu_3x3_reduce -> inception_3b/3x3_reduce (in-place)
I0403 18:08:37.967711 16316 net.cpp:141] Setting up inception_3b/relu_3x3_reduce
I0403 18:08:37.967737 16316 net.cpp:148] Top shape: 24 128 28 28 (2408448)
I0403 18:08:37.967752 16316 net.cpp:156] Memory required for data: 696042528
I0403 18:08:37.967767 16316 layer_factory.hpp:77] Creating layer inception_3b/3x3
I0403 18:08:37.967792 16316 net.cpp:91] Creating Layer inception_3b/3x3
I0403 18:08:37.967809 16316 net.cpp:425] inception_3b/3x3 <- inception_3b/3x3_reduce
I0403 18:08:37.967828 16316 net.cpp:399] inception_3b/3x3 -> inception_3b/3x3
I0403 18:08:37.970753 16316 net.cpp:141] Setting up inception_3b/3x3
I0403 18:08:37.970782 16316 net.cpp:148] Top shape: 24 192 28 28 (3612672)
I0403 18:08:37.970798 16316 net.cpp:156] Memory required for data: 710493216
I0403 18:08:37.970816 16316 layer_factory.hpp:77] Creating layer inception_3b/relu_3x3
I0403 18:08:37.970837 16316 net.cpp:91] Creating Layer inception_3b/relu_3x3
I0403 18:08:37.970854 16316 net.cpp:425] inception_3b/relu_3x3 <- inception_3b/3x3
I0403 18:08:37.970871 16316 net.cpp:386] inception_3b/relu_3x3 -> inception_3b/3x3 (in-place)
I0403 18:08:37.971154 16316 net.cpp:141] Setting up inception_3b/relu_3x3
I0403 18:08:37.971181 16316 net.cpp:148] Top shape: 24 192 28 28 (3612672)
I0403 18:08:37.971196 16316 net.cpp:156] Memory required for data: 724943904
I0403 18:08:37.971211 16316 layer_factory.hpp:77] Creating layer inception_3b/5x5_reduce
I0403 18:08:37.971235 16316 net.cpp:91] Creating Layer inception_3b/5x5_reduce
I0403 18:08:37.971251 16316 net.cpp:425] inception_3b/5x5_reduce <- inception_3a/output_inception_3a/output_0_split_2
I0403 18:08:37.971273 16316 net.cpp:399] inception_3b/5x5_reduce -> inception_3b/5x5_reduce
I0403 18:08:37.972242 16316 net.cpp:141] Setting up inception_3b/5x5_reduce
I0403 18:08:37.972270 16316 net.cpp:148] Top shape: 24 32 28 28 (602112)
I0403 18:08:37.972285 16316 net.cpp:156] Memory required for data: 727352352
I0403 18:08:37.972302 16316 layer_factory.hpp:77] Creating layer inception_3b/relu_5x5_reduce
I0403 18:08:37.972321 16316 net.cpp:91] Creating Layer inception_3b/relu_5x5_reduce
I0403 18:08:37.972338 16316 net.cpp:425] inception_3b/relu_5x5_reduce <- inception_3b/5x5_reduce
I0403 18:08:37.972355 16316 net.cpp:386] inception_3b/relu_5x5_reduce -> inception_3b/5x5_reduce (in-place)
I0403 18:08:37.972540 16316 net.cpp:141] Setting up inception_3b/relu_5x5_reduce
I0403 18:08:37.972568 16316 net.cpp:148] Top shape: 24 32 28 28 (602112)
I0403 18:08:37.972581 16316 net.cpp:156] Memory required for data: 729760800
I0403 18:08:37.972596 16316 layer_factory.hpp:77] Creating layer inception_3b/5x5
I0403 18:08:37.972617 16316 net.cpp:91] Creating Layer inception_3b/5x5
I0403 18:08:37.972633 16316 net.cpp:425] inception_3b/5x5 <- inception_3b/5x5_reduce
I0403 18:08:37.972652 16316 net.cpp:399] inception_3b/5x5 -> inception_3b/5x5
I0403 18:08:37.974607 16316 net.cpp:141] Setting up inception_3b/5x5
I0403 18:08:37.974637 16316 net.cpp:148] Top shape: 24 96 28 28 (1806336)
I0403 18:08:37.974653 16316 net.cpp:156] Memory required for data: 736986144
I0403 18:08:37.974670 16316 layer_factory.hpp:77] Creating layer inception_3b/relu_5x5
I0403 18:08:37.974690 16316 net.cpp:91] Creating Layer inception_3b/relu_5x5
I0403 18:08:37.974706 16316 net.cpp:425] inception_3b/relu_5x5 <- inception_3b/5x5
I0403 18:08:37.974723 16316 net.cpp:386] inception_3b/relu_5x5 -> inception_3b/5x5 (in-place)
I0403 18:08:37.974905 16316 net.cpp:141] Setting up inception_3b/relu_5x5
I0403 18:08:37.974931 16316 net.cpp:148] Top shape: 24 96 28 28 (1806336)
I0403 18:08:37.974946 16316 net.cpp:156] Memory required for data: 744211488
I0403 18:08:37.974961 16316 layer_factory.hpp:77] Creating layer inception_3b/pool
I0403 18:08:37.974980 16316 net.cpp:91] Creating Layer inception_3b/pool
I0403 18:08:37.974997 16316 net.cpp:425] inception_3b/pool <- inception_3a/output_inception_3a/output_0_split_3
I0403 18:08:37.975014 16316 net.cpp:399] inception_3b/pool -> inception_3b/pool
I0403 18:08:37.975069 16316 net.cpp:141] Setting up inception_3b/pool
I0403 18:08:37.975091 16316 net.cpp:148] Top shape: 24 256 28 28 (4816896)
I0403 18:08:37.975106 16316 net.cpp:156] Memory required for data: 763479072
I0403 18:08:37.975119 16316 layer_factory.hpp:77] Creating layer inception_3b/pool_proj
I0403 18:08:37.975143 16316 net.cpp:91] Creating Layer inception_3b/pool_proj
I0403 18:08:37.975160 16316 net.cpp:425] inception_3b/pool_proj <- inception_3b/pool
I0403 18:08:37.975179 16316 net.cpp:399] inception_3b/pool_proj -> inception_3b/pool_proj
I0403 18:08:37.976191 16316 net.cpp:141] Setting up inception_3b/pool_proj
I0403 18:08:37.976219 16316 net.cpp:148] Top shape: 24 64 28 28 (1204224)
I0403 18:08:37.976236 16316 net.cpp:156] Memory required for data: 768295968
I0403 18:08:37.976253 16316 layer_factory.hpp:77] Creating layer inception_3b/relu_pool_proj
I0403 18:08:37.976271 16316 net.cpp:91] Creating Layer inception_3b/relu_pool_proj
I0403 18:08:37.976286 16316 net.cpp:425] inception_3b/relu_pool_proj <- inception_3b/pool_proj
I0403 18:08:37.976305 16316 net.cpp:386] inception_3b/relu_pool_proj -> inception_3b/pool_proj (in-place)
I0403 18:08:37.976688 16316 net.cpp:141] Setting up inception_3b/relu_pool_proj
I0403 18:08:37.976716 16316 net.cpp:148] Top shape: 24 64 28 28 (1204224)
I0403 18:08:37.976732 16316 net.cpp:156] Memory required for data: 773112864
I0403 18:08:37.976747 16316 layer_factory.hpp:77] Creating layer inception_3b/output
I0403 18:08:37.976764 16316 net.cpp:91] Creating Layer inception_3b/output
I0403 18:08:37.976779 16316 net.cpp:425] inception_3b/output <- inception_3b/1x1
I0403 18:08:37.976796 16316 net.cpp:425] inception_3b/output <- inception_3b/3x3
I0403 18:08:37.976811 16316 net.cpp:425] inception_3b/output <- inception_3b/5x5
I0403 18:08:37.976827 16316 net.cpp:425] inception_3b/output <- inception_3b/pool_proj
I0403 18:08:37.976843 16316 net.cpp:399] inception_3b/output -> inception_3b/output
I0403 18:08:37.976887 16316 net.cpp:141] Setting up inception_3b/output
I0403 18:08:37.976909 16316 net.cpp:148] Top shape: 24 480 28 28 (9031680)
I0403 18:08:37.976925 16316 net.cpp:156] Memory required for data: 809239584
I0403 18:08:37.976939 16316 layer_factory.hpp:77] Creating layer pool3/3x3_s2
I0403 18:08:37.976958 16316 net.cpp:91] Creating Layer pool3/3x3_s2
I0403 18:08:37.976974 16316 net.cpp:425] pool3/3x3_s2 <- inception_3b/output
I0403 18:08:37.977010 16316 net.cpp:399] pool3/3x3_s2 -> pool3/3x3_s2
I0403 18:08:37.977068 16316 net.cpp:141] Setting up pool3/3x3_s2
I0403 18:08:37.977092 16316 net.cpp:148] Top shape: 24 480 14 14 (2257920)
I0403 18:08:37.977107 16316 net.cpp:156] Memory required for data: 818271264
I0403 18:08:37.977120 16316 layer_factory.hpp:77] Creating layer pool3/3x3_s2_pool3/3x3_s2_0_split
I0403 18:08:37.977136 16316 net.cpp:91] Creating Layer pool3/3x3_s2_pool3/3x3_s2_0_split
I0403 18:08:37.977151 16316 net.cpp:425] pool3/3x3_s2_pool3/3x3_s2_0_split <- pool3/3x3_s2
I0403 18:08:37.977170 16316 net.cpp:399] pool3/3x3_s2_pool3/3x3_s2_0_split -> pool3/3x3_s2_pool3/3x3_s2_0_split_0
I0403 18:08:37.977202 16316 net.cpp:399] pool3/3x3_s2_pool3/3x3_s2_0_split -> pool3/3x3_s2_pool3/3x3_s2_0_split_1
I0403 18:08:37.977222 16316 net.cpp:399] pool3/3x3_s2_pool3/3x3_s2_0_split -> pool3/3x3_s2_pool3/3x3_s2_0_split_2
I0403 18:08:37.977241 16316 net.cpp:399] pool3/3x3_s2_pool3/3x3_s2_0_split -> pool3/3x3_s2_pool3/3x3_s2_0_split_3
I0403 18:08:37.977316 16316 net.cpp:141] Setting up pool3/3x3_s2_pool3/3x3_s2_0_split
I0403 18:08:37.977342 16316 net.cpp:148] Top shape: 24 480 14 14 (2257920)
I0403 18:08:37.977360 16316 net.cpp:148] Top shape: 24 480 14 14 (2257920)
I0403 18:08:37.977375 16316 net.cpp:148] Top shape: 24 480 14 14 (2257920)
I0403 18:08:37.977390 16316 net.cpp:148] Top shape: 24 480 14 14 (2257920)
I0403 18:08:37.977403 16316 net.cpp:156] Memory required for data: 854397984
I0403 18:08:37.977417 16316 layer_factory.hpp:77] Creating layer inception_4a/1x1
I0403 18:08:37.977440 16316 net.cpp:91] Creating Layer inception_4a/1x1
I0403 18:08:37.977458 16316 net.cpp:425] inception_4a/1x1 <- pool3/3x3_s2_pool3/3x3_s2_0_split_0
I0403 18:08:37.977488 16316 net.cpp:399] inception_4a/1x1 -> inception_4a/1x1
I0403 18:08:37.978999 16316 net.cpp:141] Setting up inception_4a/1x1
I0403 18:08:37.979029 16316 net.cpp:148] Top shape: 24 192 14 14 (903168)
I0403 18:08:37.979045 16316 net.cpp:156] Memory required for data: 858010656
I0403 18:08:37.979063 16316 layer_factory.hpp:77] Creating layer inception_4a/relu_1x1
I0403 18:08:37.979080 16316 net.cpp:91] Creating Layer inception_4a/relu_1x1
I0403 18:08:37.979096 16316 net.cpp:425] inception_4a/relu_1x1 <- inception_4a/1x1
I0403 18:08:37.979115 16316 net.cpp:386] inception_4a/relu_1x1 -> inception_4a/1x1 (in-place)
I0403 18:08:37.979286 16316 net.cpp:141] Setting up inception_4a/relu_1x1
I0403 18:08:37.979310 16316 net.cpp:148] Top shape: 24 192 14 14 (903168)
I0403 18:08:37.979326 16316 net.cpp:156] Memory required for data: 861623328
I0403 18:08:37.979339 16316 layer_factory.hpp:77] Creating layer inception_4a/3x3_reduce
I0403 18:08:37.979360 16316 net.cpp:91] Creating Layer inception_4a/3x3_reduce
I0403 18:08:37.979377 16316 net.cpp:425] inception_4a/3x3_reduce <- pool3/3x3_s2_pool3/3x3_s2_0_split_1
I0403 18:08:37.979398 16316 net.cpp:399] inception_4a/3x3_reduce -> inception_4a/3x3_reduce
I0403 18:08:37.980623 16316 net.cpp:141] Setting up inception_4a/3x3_reduce
I0403 18:08:37.980650 16316 net.cpp:148] Top shape: 24 96 14 14 (451584)
I0403 18:08:37.980665 16316 net.cpp:156] Memory required for data: 863429664
I0403 18:08:37.980687 16316 layer_factory.hpp:77] Creating layer inception_4a/relu_3x3_reduce
I0403 18:08:37.980707 16316 net.cpp:91] Creating Layer inception_4a/relu_3x3_reduce
I0403 18:08:37.980725 16316 net.cpp:425] inception_4a/relu_3x3_reduce <- inception_4a/3x3_reduce
I0403 18:08:37.980744 16316 net.cpp:386] inception_4a/relu_3x3_reduce -> inception_4a/3x3_reduce (in-place)
I0403 18:08:37.980911 16316 net.cpp:141] Setting up inception_4a/relu_3x3_reduce
I0403 18:08:37.980937 16316 net.cpp:148] Top shape: 24 96 14 14 (451584)
I0403 18:08:37.980950 16316 net.cpp:156] Memory required for data: 865236000
I0403 18:08:37.980965 16316 layer_factory.hpp:77] Creating layer inception_4a/3x3
I0403 18:08:37.980990 16316 net.cpp:91] Creating Layer inception_4a/3x3
I0403 18:08:37.981009 16316 net.cpp:425] inception_4a/3x3 <- inception_4a/3x3_reduce
I0403 18:08:37.981029 16316 net.cpp:399] inception_4a/3x3 -> inception_4a/3x3
I0403 18:08:37.983645 16316 net.cpp:141] Setting up inception_4a/3x3
I0403 18:08:37.983674 16316 net.cpp:148] Top shape: 24 208 14 14 (978432)
I0403 18:08:37.983690 16316 net.cpp:156] Memory required for data: 869149728
I0403 18:08:37.983707 16316 layer_factory.hpp:77] Creating layer inception_4a/relu_3x3
I0403 18:08:37.983727 16316 net.cpp:91] Creating Layer inception_4a/relu_3x3
I0403 18:08:37.983743 16316 net.cpp:425] inception_4a/relu_3x3 <- inception_4a/3x3
I0403 18:08:37.983760 16316 net.cpp:386] inception_4a/relu_3x3 -> inception_4a/3x3 (in-place)
I0403 18:08:37.984048 16316 net.cpp:141] Setting up inception_4a/relu_3x3
I0403 18:08:37.984076 16316 net.cpp:148] Top shape: 24 208 14 14 (978432)
I0403 18:08:37.984091 16316 net.cpp:156] Memory required for data: 873063456
I0403 18:08:37.984105 16316 layer_factory.hpp:77] Creating layer inception_4a/5x5_reduce
I0403 18:08:37.984127 16316 net.cpp:91] Creating Layer inception_4a/5x5_reduce
I0403 18:08:37.984145 16316 net.cpp:425] inception_4a/5x5_reduce <- pool3/3x3_s2_pool3/3x3_s2_0_split_2
I0403 18:08:37.984166 16316 net.cpp:399] inception_4a/5x5_reduce -> inception_4a/5x5_reduce
I0403 18:08:37.985172 16316 net.cpp:141] Setting up inception_4a/5x5_reduce
I0403 18:08:37.985213 16316 net.cpp:148] Top shape: 24 16 14 14 (75264)
I0403 18:08:37.985229 16316 net.cpp:156] Memory required for data: 873364512
I0403 18:08:37.985246 16316 layer_factory.hpp:77] Creating layer inception_4a/relu_5x5_reduce
I0403 18:08:37.985267 16316 net.cpp:91] Creating Layer inception_4a/relu_5x5_reduce
I0403 18:08:37.985285 16316 net.cpp:425] inception_4a/relu_5x5_reduce <- inception_4a/5x5_reduce
I0403 18:08:37.985302 16316 net.cpp:386] inception_4a/relu_5x5_reduce -> inception_4a/5x5_reduce (in-place)
I0403 18:08:37.985503 16316 net.cpp:141] Setting up inception_4a/relu_5x5_reduce
I0403 18:08:37.985530 16316 net.cpp:148] Top shape: 24 16 14 14 (75264)
I0403 18:08:37.985545 16316 net.cpp:156] Memory required for data: 873665568
I0403 18:08:37.985560 16316 layer_factory.hpp:77] Creating layer inception_4a/5x5
I0403 18:08:37.985582 16316 net.cpp:91] Creating Layer inception_4a/5x5
I0403 18:08:37.985599 16316 net.cpp:425] inception_4a/5x5 <- inception_4a/5x5_reduce
I0403 18:08:37.985617 16316 net.cpp:399] inception_4a/5x5 -> inception_4a/5x5
I0403 18:08:37.986691 16316 net.cpp:141] Setting up inception_4a/5x5
I0403 18:08:37.986721 16316 net.cpp:148] Top shape: 24 48 14 14 (225792)
I0403 18:08:37.986738 16316 net.cpp:156] Memory required for data: 874568736
I0403 18:08:37.986757 16316 layer_factory.hpp:77] Creating layer inception_4a/relu_5x5
I0403 18:08:37.986773 16316 net.cpp:91] Creating Layer inception_4a/relu_5x5
I0403 18:08:37.986789 16316 net.cpp:425] inception_4a/relu_5x5 <- inception_4a/5x5
I0403 18:08:37.986806 16316 net.cpp:386] inception_4a/relu_5x5 -> inception_4a/5x5 (in-place)
I0403 18:08:37.986989 16316 net.cpp:141] Setting up inception_4a/relu_5x5
I0403 18:08:37.987013 16316 net.cpp:148] Top shape: 24 48 14 14 (225792)
I0403 18:08:37.987028 16316 net.cpp:156] Memory required for data: 875471904
I0403 18:08:37.987043 16316 layer_factory.hpp:77] Creating layer inception_4a/pool
I0403 18:08:37.987061 16316 net.cpp:91] Creating Layer inception_4a/pool
I0403 18:08:37.987076 16316 net.cpp:425] inception_4a/pool <- pool3/3x3_s2_pool3/3x3_s2_0_split_3
I0403 18:08:37.987097 16316 net.cpp:399] inception_4a/pool -> inception_4a/pool
I0403 18:08:37.987156 16316 net.cpp:141] Setting up inception_4a/pool
I0403 18:08:37.987182 16316 net.cpp:148] Top shape: 24 480 14 14 (2257920)
I0403 18:08:37.987197 16316 net.cpp:156] Memory required for data: 884503584
I0403 18:08:37.987211 16316 layer_factory.hpp:77] Creating layer inception_4a/pool_proj
I0403 18:08:37.987233 16316 net.cpp:91] Creating Layer inception_4a/pool_proj
I0403 18:08:37.987251 16316 net.cpp:425] inception_4a/pool_proj <- inception_4a/pool
I0403 18:08:37.987268 16316 net.cpp:399] inception_4a/pool_proj -> inception_4a/pool_proj
I0403 18:08:37.988422 16316 net.cpp:141] Setting up inception_4a/pool_proj
I0403 18:08:37.988451 16316 net.cpp:148] Top shape: 24 64 14 14 (301056)
I0403 18:08:37.988482 16316 net.cpp:156] Memory required for data: 885707808
I0403 18:08:37.988502 16316 layer_factory.hpp:77] Creating layer inception_4a/relu_pool_proj
I0403 18:08:37.988520 16316 net.cpp:91] Creating Layer inception_4a/relu_pool_proj
I0403 18:08:37.988536 16316 net.cpp:425] inception_4a/relu_pool_proj <- inception_4a/pool_proj
I0403 18:08:37.988557 16316 net.cpp:386] inception_4a/relu_pool_proj -> inception_4a/pool_proj (in-place)
I0403 18:08:37.988836 16316 net.cpp:141] Setting up inception_4a/relu_pool_proj
I0403 18:08:37.988862 16316 net.cpp:148] Top shape: 24 64 14 14 (301056)
I0403 18:08:37.988878 16316 net.cpp:156] Memory required for data: 886912032
I0403 18:08:37.988893 16316 layer_factory.hpp:77] Creating layer inception_4a/output
I0403 18:08:37.988910 16316 net.cpp:91] Creating Layer inception_4a/output
I0403 18:08:37.988927 16316 net.cpp:425] inception_4a/output <- inception_4a/1x1
I0403 18:08:37.988945 16316 net.cpp:425] inception_4a/output <- inception_4a/3x3
I0403 18:08:37.988960 16316 net.cpp:425] inception_4a/output <- inception_4a/5x5
I0403 18:08:37.988976 16316 net.cpp:425] inception_4a/output <- inception_4a/pool_proj
I0403 18:08:37.989001 16316 net.cpp:399] inception_4a/output -> inception_4a/output
I0403 18:08:37.989045 16316 net.cpp:141] Setting up inception_4a/output
I0403 18:08:37.989069 16316 net.cpp:148] Top shape: 24 512 14 14 (2408448)
I0403 18:08:37.989087 16316 net.cpp:156] Memory required for data: 896545824
I0403 18:08:37.989102 16316 layer_factory.hpp:77] Creating layer inception_4a/output_inception_4a/output_0_split
I0403 18:08:37.989120 16316 net.cpp:91] Creating Layer inception_4a/output_inception_4a/output_0_split
I0403 18:08:37.989135 16316 net.cpp:425] inception_4a/output_inception_4a/output_0_split <- inception_4a/output
I0403 18:08:37.989151 16316 net.cpp:399] inception_4a/output_inception_4a/output_0_split -> inception_4a/output_inception_4a/output_0_split_0
I0403 18:08:37.989171 16316 net.cpp:399] inception_4a/output_inception_4a/output_0_split -> inception_4a/output_inception_4a/output_0_split_1
I0403 18:08:37.989207 16316 net.cpp:399] inception_4a/output_inception_4a/output_0_split -> inception_4a/output_inception_4a/output_0_split_2
I0403 18:08:37.989228 16316 net.cpp:399] inception_4a/output_inception_4a/output_0_split -> inception_4a/output_inception_4a/output_0_split_3
I0403 18:08:37.989249 16316 net.cpp:399] inception_4a/output_inception_4a/output_0_split -> inception_4a/output_inception_4a/output_0_split_4
I0403 18:08:37.989343 16316 net.cpp:141] Setting up inception_4a/output_inception_4a/output_0_split
I0403 18:08:37.989367 16316 net.cpp:148] Top shape: 24 512 14 14 (2408448)
I0403 18:08:37.989384 16316 net.cpp:148] Top shape: 24 512 14 14 (2408448)
I0403 18:08:37.989400 16316 net.cpp:148] Top shape: 24 512 14 14 (2408448)
I0403 18:08:37.989416 16316 net.cpp:148] Top shape: 24 512 14 14 (2408448)
I0403 18:08:37.989433 16316 net.cpp:148] Top shape: 24 512 14 14 (2408448)
I0403 18:08:37.989445 16316 net.cpp:156] Memory required for data: 944714784
I0403 18:08:37.989473 16316 layer_factory.hpp:77] Creating layer loss1/ave_pool
I0403 18:08:37.989492 16316 net.cpp:91] Creating Layer loss1/ave_pool
I0403 18:08:37.989511 16316 net.cpp:425] loss1/ave_pool <- inception_4a/output_inception_4a/output_0_split_0
I0403 18:08:37.989528 16316 net.cpp:399] loss1/ave_pool -> loss1/ave_pool
I0403 18:08:37.989733 16316 net.cpp:141] Setting up loss1/ave_pool
I0403 18:08:37.989759 16316 net.cpp:148] Top shape: 24 512 4 4 (196608)
I0403 18:08:37.989775 16316 net.cpp:156] Memory required for data: 945501216
I0403 18:08:37.989789 16316 layer_factory.hpp:77] Creating layer loss1/conv
I0403 18:08:37.989810 16316 net.cpp:91] Creating Layer loss1/conv
I0403 18:08:37.989828 16316 net.cpp:425] loss1/conv <- loss1/ave_pool
I0403 18:08:37.989848 16316 net.cpp:399] loss1/conv -> loss1/conv
I0403 18:08:37.991238 16316 net.cpp:141] Setting up loss1/conv
I0403 18:08:37.991266 16316 net.cpp:148] Top shape: 24 128 4 4 (49152)
I0403 18:08:37.991296 16316 net.cpp:156] Memory required for data: 945697824
I0403 18:08:37.991314 16316 layer_factory.hpp:77] Creating layer loss1/relu_conv
I0403 18:08:37.991335 16316 net.cpp:91] Creating Layer loss1/relu_conv
I0403 18:08:37.991353 16316 net.cpp:425] loss1/relu_conv <- loss1/conv
I0403 18:08:37.991369 16316 net.cpp:386] loss1/relu_conv -> loss1/conv (in-place)
I0403 18:08:37.991648 16316 net.cpp:141] Setting up loss1/relu_conv
I0403 18:08:37.991674 16316 net.cpp:148] Top shape: 24 128 4 4 (49152)
I0403 18:08:37.991690 16316 net.cpp:156] Memory required for data: 945894432
I0403 18:08:37.991704 16316 layer_factory.hpp:77] Creating layer loss1/fc
I0403 18:08:37.991730 16316 net.cpp:91] Creating Layer loss1/fc
I0403 18:08:37.991749 16316 net.cpp:425] loss1/fc <- loss1/conv
I0403 18:08:37.991766 16316 net.cpp:399] loss1/fc -> loss1/fc
I0403 18:08:38.009361 16316 net.cpp:141] Setting up loss1/fc
I0403 18:08:38.009398 16316 net.cpp:148] Top shape: 24 1024 (24576)
I0403 18:08:38.009413 16316 net.cpp:156] Memory required for data: 945992736
I0403 18:08:38.009433 16316 layer_factory.hpp:77] Creating layer loss1/relu_fc
I0403 18:08:38.009449 16316 net.cpp:91] Creating Layer loss1/relu_fc
I0403 18:08:38.009477 16316 net.cpp:425] loss1/relu_fc <- loss1/fc
I0403 18:08:38.009496 16316 net.cpp:386] loss1/relu_fc -> loss1/fc (in-place)
I0403 18:08:38.009676 16316 net.cpp:141] Setting up loss1/relu_fc
I0403 18:08:38.009701 16316 net.cpp:148] Top shape: 24 1024 (24576)
I0403 18:08:38.009714 16316 net.cpp:156] Memory required for data: 946091040
I0403 18:08:38.009728 16316 layer_factory.hpp:77] Creating layer loss1/drop_fc
I0403 18:08:38.009755 16316 net.cpp:91] Creating Layer loss1/drop_fc
I0403 18:08:38.009773 16316 net.cpp:425] loss1/drop_fc <- loss1/fc
I0403 18:08:38.009790 16316 net.cpp:386] loss1/drop_fc -> loss1/fc (in-place)
I0403 18:08:38.009838 16316 net.cpp:141] Setting up loss1/drop_fc
I0403 18:08:38.009865 16316 net.cpp:148] Top shape: 24 1024 (24576)
I0403 18:08:38.009879 16316 net.cpp:156] Memory required for data: 946189344
I0403 18:08:38.009894 16316 layer_factory.hpp:77] Creating layer loss1/classifier_plantvillage
I0403 18:08:38.009912 16316 net.cpp:91] Creating Layer loss1/classifier_plantvillage
I0403 18:08:38.009928 16316 net.cpp:425] loss1/classifier_plantvillage <- loss1/fc
I0403 18:08:38.009948 16316 net.cpp:399] loss1/classifier_plantvillage -> loss1/classifier_plantvillage
I0403 18:08:38.010823 16316 net.cpp:141] Setting up loss1/classifier_plantvillage
I0403 18:08:38.010850 16316 net.cpp:148] Top shape: 24 38 (912)
I0403 18:08:38.010865 16316 net.cpp:156] Memory required for data: 946192992
I0403 18:08:38.010882 16316 layer_factory.hpp:77] Creating layer loss1/classifier_plantvillage_loss1/classifier_plantvillage_0_split
I0403 18:08:38.010900 16316 net.cpp:91] Creating Layer loss1/classifier_plantvillage_loss1/classifier_plantvillage_0_split
I0403 18:08:38.010915 16316 net.cpp:425] loss1/classifier_plantvillage_loss1/classifier_plantvillage_0_split <- loss1/classifier_plantvillage
I0403 18:08:38.010936 16316 net.cpp:399] loss1/classifier_plantvillage_loss1/classifier_plantvillage_0_split -> loss1/classifier_plantvillage_loss1/classifier_plantvillage_0_split_0
I0403 18:08:38.010957 16316 net.cpp:399] loss1/classifier_plantvillage_loss1/classifier_plantvillage_0_split -> loss1/classifier_plantvillage_loss1/classifier_plantvillage_0_split_1
I0403 18:08:38.010975 16316 net.cpp:399] loss1/classifier_plantvillage_loss1/classifier_plantvillage_0_split -> loss1/classifier_plantvillage_loss1/classifier_plantvillage_0_split_2
I0403 18:08:38.011044 16316 net.cpp:141] Setting up loss1/classifier_plantvillage_loss1/classifier_plantvillage_0_split
I0403 18:08:38.011068 16316 net.cpp:148] Top shape: 24 38 (912)
I0403 18:08:38.011085 16316 net.cpp:148] Top shape: 24 38 (912)
I0403 18:08:38.011101 16316 net.cpp:148] Top shape: 24 38 (912)
I0403 18:08:38.011114 16316 net.cpp:156] Memory required for data: 946203936
I0403 18:08:38.011128 16316 layer_factory.hpp:77] Creating layer inception_4b/1x1
I0403 18:08:38.011148 16316 net.cpp:91] Creating Layer inception_4b/1x1
I0403 18:08:38.011183 16316 net.cpp:425] inception_4b/1x1 <- inception_4a/output_inception_4a/output_0_split_1
I0403 18:08:38.011201 16316 net.cpp:399] inception_4b/1x1 -> inception_4b/1x1
I0403 18:08:38.012789 16316 net.cpp:141] Setting up inception_4b/1x1
I0403 18:08:38.012817 16316 net.cpp:148] Top shape: 24 160 14 14 (752640)
I0403 18:08:38.012833 16316 net.cpp:156] Memory required for data: 949214496
I0403 18:08:38.012851 16316 layer_factory.hpp:77] Creating layer inception_4b/relu_1x1
I0403 18:08:38.012872 16316 net.cpp:91] Creating Layer inception_4b/relu_1x1
I0403 18:08:38.012888 16316 net.cpp:425] inception_4b/relu_1x1 <- inception_4b/1x1
I0403 18:08:38.012905 16316 net.cpp:386] inception_4b/relu_1x1 -> inception_4b/1x1 (in-place)
I0403 18:08:38.013083 16316 net.cpp:141] Setting up inception_4b/relu_1x1
I0403 18:08:38.013110 16316 net.cpp:148] Top shape: 24 160 14 14 (752640)
I0403 18:08:38.013125 16316 net.cpp:156] Memory required for data: 952225056
I0403 18:08:38.013140 16316 layer_factory.hpp:77] Creating layer inception_4b/3x3_reduce
I0403 18:08:38.013162 16316 net.cpp:91] Creating Layer inception_4b/3x3_reduce
I0403 18:08:38.013192 16316 net.cpp:425] inception_4b/3x3_reduce <- inception_4a/output_inception_4a/output_0_split_2
I0403 18:08:38.013211 16316 net.cpp:399] inception_4b/3x3_reduce -> inception_4b/3x3_reduce
I0403 18:08:38.014538 16316 net.cpp:141] Setting up inception_4b/3x3_reduce
I0403 18:08:38.014564 16316 net.cpp:148] Top shape: 24 112 14 14 (526848)
I0403 18:08:38.014580 16316 net.cpp:156] Memory required for data: 954332448
I0403 18:08:38.014596 16316 layer_factory.hpp:77] Creating layer inception_4b/relu_3x3_reduce
I0403 18:08:38.014617 16316 net.cpp:91] Creating Layer inception_4b/relu_3x3_reduce
I0403 18:08:38.014633 16316 net.cpp:425] inception_4b/relu_3x3_reduce <- inception_4b/3x3_reduce
I0403 18:08:38.014652 16316 net.cpp:386] inception_4b/relu_3x3_reduce -> inception_4b/3x3_reduce (in-place)
I0403 18:08:38.014924 16316 net.cpp:141] Setting up inception_4b/relu_3x3_reduce
I0403 18:08:38.014950 16316 net.cpp:148] Top shape: 24 112 14 14 (526848)
I0403 18:08:38.014964 16316 net.cpp:156] Memory required for data: 956439840
I0403 18:08:38.014982 16316 layer_factory.hpp:77] Creating layer inception_4b/3x3
I0403 18:08:38.015007 16316 net.cpp:91] Creating Layer inception_4b/3x3
I0403 18:08:38.015024 16316 net.cpp:425] inception_4b/3x3 <- inception_4b/3x3_reduce
I0403 18:08:38.015043 16316 net.cpp:399] inception_4b/3x3 -> inception_4b/3x3
I0403 18:08:38.017935 16316 net.cpp:141] Setting up inception_4b/3x3
I0403 18:08:38.017962 16316 net.cpp:148] Top shape: 24 224 14 14 (1053696)
I0403 18:08:38.017987 16316 net.cpp:156] Memory required for data: 960654624
I0403 18:08:38.018007 16316 layer_factory.hpp:77] Creating layer inception_4b/relu_3x3
I0403 18:08:38.018025 16316 net.cpp:91] Creating Layer inception_4b/relu_3x3
I0403 18:08:38.018041 16316 net.cpp:425] inception_4b/relu_3x3 <- inception_4b/3x3
I0403 18:08:38.018061 16316 net.cpp:386] inception_4b/relu_3x3 -> inception_4b/3x3 (in-place)
I0403 18:08:38.018235 16316 net.cpp:141] Setting up inception_4b/relu_3x3
I0403 18:08:38.018260 16316 net.cpp:148] Top shape: 24 224 14 14 (1053696)
I0403 18:08:38.018275 16316 net.cpp:156] Memory required for data: 964869408
I0403 18:08:38.018288 16316 layer_factory.hpp:77] Creating layer inception_4b/5x5_reduce
I0403 18:08:38.018309 16316 net.cpp:91] Creating Layer inception_4b/5x5_reduce
I0403 18:08:38.018326 16316 net.cpp:425] inception_4b/5x5_reduce <- inception_4a/output_inception_4a/output_0_split_3
I0403 18:08:38.018348 16316 net.cpp:399] inception_4b/5x5_reduce -> inception_4b/5x5_reduce
I0403 18:08:38.019392 16316 net.cpp:141] Setting up inception_4b/5x5_reduce
I0403 18:08:38.019419 16316 net.cpp:148] Top shape: 24 24 14 14 (112896)
I0403 18:08:38.019434 16316 net.cpp:156] Memory required for data: 965320992
I0403 18:08:38.019451 16316 layer_factory.hpp:77] Creating layer inception_4b/relu_5x5_reduce
I0403 18:08:38.019471 16316 net.cpp:91] Creating Layer inception_4b/relu_5x5_reduce
I0403 18:08:38.019500 16316 net.cpp:425] inception_4b/relu_5x5_reduce <- inception_4b/5x5_reduce
I0403 18:08:38.019518 16316 net.cpp:386] inception_4b/relu_5x5_reduce -> inception_4b/5x5_reduce (in-place)
I0403 18:08:38.019695 16316 net.cpp:141] Setting up inception_4b/relu_5x5_reduce
I0403 18:08:38.019721 16316 net.cpp:148] Top shape: 24 24 14 14 (112896)
I0403 18:08:38.019737 16316 net.cpp:156] Memory required for data: 965772576
I0403 18:08:38.019752 16316 layer_factory.hpp:77] Creating layer inception_4b/5x5
I0403 18:08:38.019773 16316 net.cpp:91] Creating Layer inception_4b/5x5
I0403 18:08:38.019790 16316 net.cpp:425] inception_4b/5x5 <- inception_4b/5x5_reduce
I0403 18:08:38.019809 16316 net.cpp:399] inception_4b/5x5 -> inception_4b/5x5
I0403 18:08:38.020998 16316 net.cpp:141] Setting up inception_4b/5x5
I0403 18:08:38.021025 16316 net.cpp:148] Top shape: 24 64 14 14 (301056)
I0403 18:08:38.021040 16316 net.cpp:156] Memory required for data: 966976800
I0403 18:08:38.021059 16316 layer_factory.hpp:77] Creating layer inception_4b/relu_5x5
I0403 18:08:38.021078 16316 net.cpp:91] Creating Layer inception_4b/relu_5x5
I0403 18:08:38.021095 16316 net.cpp:425] inception_4b/relu_5x5 <- inception_4b/5x5
I0403 18:08:38.021111 16316 net.cpp:386] inception_4b/relu_5x5 -> inception_4b/5x5 (in-place)
I0403 18:08:38.021405 16316 net.cpp:141] Setting up inception_4b/relu_5x5
I0403 18:08:38.021431 16316 net.cpp:148] Top shape: 24 64 14 14 (301056)
I0403 18:08:38.021447 16316 net.cpp:156] Memory required for data: 968181024
I0403 18:08:38.021461 16316 layer_factory.hpp:77] Creating layer inception_4b/pool
I0403 18:08:38.021492 16316 net.cpp:91] Creating Layer inception_4b/pool
I0403 18:08:38.021509 16316 net.cpp:425] inception_4b/pool <- inception_4a/output_inception_4a/output_0_split_4
I0403 18:08:38.021528 16316 net.cpp:399] inception_4b/pool -> inception_4b/pool
I0403 18:08:38.021590 16316 net.cpp:141] Setting up inception_4b/pool
I0403 18:08:38.021613 16316 net.cpp:148] Top shape: 24 512 14 14 (2408448)
I0403 18:08:38.021627 16316 net.cpp:156] Memory required for data: 977814816
I0403 18:08:38.021642 16316 layer_factory.hpp:77] Creating layer inception_4b/pool_proj
I0403 18:08:38.021663 16316 net.cpp:91] Creating Layer inception_4b/pool_proj
I0403 18:08:38.021679 16316 net.cpp:425] inception_4b/pool_proj <- inception_4b/pool
I0403 18:08:38.021699 16316 net.cpp:399] inception_4b/pool_proj -> inception_4b/pool_proj
I0403 18:08:38.022862 16316 net.cpp:141] Setting up inception_4b/pool_proj
I0403 18:08:38.022891 16316 net.cpp:148] Top shape: 24 64 14 14 (301056)
I0403 18:08:38.022905 16316 net.cpp:156] Memory required for data: 979019040
I0403 18:08:38.022924 16316 layer_factory.hpp:77] Creating layer inception_4b/relu_pool_proj
I0403 18:08:38.022945 16316 net.cpp:91] Creating Layer inception_4b/relu_pool_proj
I0403 18:08:38.022963 16316 net.cpp:425] inception_4b/relu_pool_proj <- inception_4b/pool_proj
I0403 18:08:38.022982 16316 net.cpp:386] inception_4b/relu_pool_proj -> inception_4b/pool_proj (in-place)
I0403 18:08:38.023159 16316 net.cpp:141] Setting up inception_4b/relu_pool_proj
I0403 18:08:38.023186 16316 net.cpp:148] Top shape: 24 64 14 14 (301056)
I0403 18:08:38.023201 16316 net.cpp:156] Memory required for data: 980223264
I0403 18:08:38.023216 16316 layer_factory.hpp:77] Creating layer inception_4b/output
I0403 18:08:38.023232 16316 net.cpp:91] Creating Layer inception_4b/output
I0403 18:08:38.023247 16316 net.cpp:425] inception_4b/output <- inception_4b/1x1
I0403 18:08:38.023263 16316 net.cpp:425] inception_4b/output <- inception_4b/3x3
I0403 18:08:38.023279 16316 net.cpp:425] inception_4b/output <- inception_4b/5x5
I0403 18:08:38.023294 16316 net.cpp:425] inception_4b/output <- inception_4b/pool_proj
I0403 18:08:38.023313 16316 net.cpp:399] inception_4b/output -> inception_4b/output
I0403 18:08:38.023356 16316 net.cpp:141] Setting up inception_4b/output
I0403 18:08:38.023380 16316 net.cpp:148] Top shape: 24 512 14 14 (2408448)
I0403 18:08:38.023393 16316 net.cpp:156] Memory required for data: 989857056
I0403 18:08:38.023422 16316 layer_factory.hpp:77] Creating layer inception_4b/output_inception_4b/output_0_split
I0403 18:08:38.023442 16316 net.cpp:91] Creating Layer inception_4b/output_inception_4b/output_0_split
I0403 18:08:38.023457 16316 net.cpp:425] inception_4b/output_inception_4b/output_0_split <- inception_4b/output
I0403 18:08:38.023473 16316 net.cpp:399] inception_4b/output_inception_4b/output_0_split -> inception_4b/output_inception_4b/output_0_split_0
I0403 18:08:38.023493 16316 net.cpp:399] inception_4b/output_inception_4b/output_0_split -> inception_4b/output_inception_4b/output_0_split_1
I0403 18:08:38.023512 16316 net.cpp:399] inception_4b/output_inception_4b/output_0_split -> inception_4b/output_inception_4b/output_0_split_2
I0403 18:08:38.023535 16316 net.cpp:399] inception_4b/output_inception_4b/output_0_split -> inception_4b/output_inception_4b/output_0_split_3
I0403 18:08:38.023615 16316 net.cpp:141] Setting up inception_4b/output_inception_4b/output_0_split
I0403 18:08:38.023638 16316 net.cpp:148] Top shape: 24 512 14 14 (2408448)
I0403 18:08:38.023653 16316 net.cpp:148] Top shape: 24 512 14 14 (2408448)
I0403 18:08:38.023669 16316 net.cpp:148] Top shape: 24 512 14 14 (2408448)
I0403 18:08:38.023682 16316 net.cpp:148] Top shape: 24 512 14 14 (2408448)
I0403 18:08:38.023696 16316 net.cpp:156] Memory required for data: 1028392224
I0403 18:08:38.023710 16316 layer_factory.hpp:77] Creating layer inception_4c/1x1
I0403 18:08:38.023731 16316 net.cpp:91] Creating Layer inception_4c/1x1
I0403 18:08:38.023747 16316 net.cpp:425] inception_4c/1x1 <- inception_4b/output_inception_4b/output_0_split_0
I0403 18:08:38.023769 16316 net.cpp:399] inception_4c/1x1 -> inception_4c/1x1
I0403 18:08:38.025153 16316 net.cpp:141] Setting up inception_4c/1x1
I0403 18:08:38.025197 16316 net.cpp:148] Top shape: 24 128 14 14 (602112)
I0403 18:08:38.025213 16316 net.cpp:156] Memory required for data: 1030800672
I0403 18:08:38.025233 16316 layer_factory.hpp:77] Creating layer inception_4c/relu_1x1
I0403 18:08:38.025249 16316 net.cpp:91] Creating Layer inception_4c/relu_1x1
I0403 18:08:38.025265 16316 net.cpp:425] inception_4c/relu_1x1 <- inception_4c/1x1
I0403 18:08:38.025285 16316 net.cpp:386] inception_4c/relu_1x1 -> inception_4c/1x1 (in-place)
I0403 18:08:38.025478 16316 net.cpp:141] Setting up inception_4c/relu_1x1
I0403 18:08:38.025502 16316 net.cpp:148] Top shape: 24 128 14 14 (602112)
I0403 18:08:38.025516 16316 net.cpp:156] Memory required for data: 1033209120
I0403 18:08:38.025530 16316 layer_factory.hpp:77] Creating layer inception_4c/3x3_reduce
I0403 18:08:38.025552 16316 net.cpp:91] Creating Layer inception_4c/3x3_reduce
I0403 18:08:38.025568 16316 net.cpp:425] inception_4c/3x3_reduce <- inception_4b/output_inception_4b/output_0_split_1
I0403 18:08:38.025589 16316 net.cpp:399] inception_4c/3x3_reduce -> inception_4c/3x3_reduce
I0403 18:08:38.027473 16316 net.cpp:141] Setting up inception_4c/3x3_reduce
I0403 18:08:38.027501 16316 net.cpp:148] Top shape: 24 128 14 14 (602112)
I0403 18:08:38.027518 16316 net.cpp:156] Memory required for data: 1035617568
I0403 18:08:38.027534 16316 layer_factory.hpp:77] Creating layer inception_4c/relu_3x3_reduce
I0403 18:08:38.027557 16316 net.cpp:91] Creating Layer inception_4c/relu_3x3_reduce
I0403 18:08:38.027573 16316 net.cpp:425] inception_4c/relu_3x3_reduce <- inception_4c/3x3_reduce
I0403 18:08:38.027591 16316 net.cpp:386] inception_4c/relu_3x3_reduce -> inception_4c/3x3_reduce (in-place)
I0403 18:08:38.027873 16316 net.cpp:141] Setting up inception_4c/relu_3x3_reduce
I0403 18:08:38.027899 16316 net.cpp:148] Top shape: 24 128 14 14 (602112)
I0403 18:08:38.027914 16316 net.cpp:156] Memory required for data: 1038026016
I0403 18:08:38.027927 16316 layer_factory.hpp:77] Creating layer inception_4c/3x3
I0403 18:08:38.027950 16316 net.cpp:91] Creating Layer inception_4c/3x3
I0403 18:08:38.027967 16316 net.cpp:425] inception_4c/3x3 <- inception_4c/3x3_reduce
I0403 18:08:38.027999 16316 net.cpp:399] inception_4c/3x3 -> inception_4c/3x3
I0403 18:08:38.031529 16316 net.cpp:141] Setting up inception_4c/3x3
I0403 18:08:38.031569 16316 net.cpp:148] Top shape: 24 256 14 14 (1204224)
I0403 18:08:38.031585 16316 net.cpp:156] Memory required for data: 1042842912
I0403 18:08:38.031616 16316 layer_factory.hpp:77] Creating layer inception_4c/relu_3x3
I0403 18:08:38.031638 16316 net.cpp:91] Creating Layer inception_4c/relu_3x3
I0403 18:08:38.031656 16316 net.cpp:425] inception_4c/relu_3x3 <- inception_4c/3x3
I0403 18:08:38.031672 16316 net.cpp:386] inception_4c/relu_3x3 -> inception_4c/3x3 (in-place)
I0403 18:08:38.031850 16316 net.cpp:141] Setting up inception_4c/relu_3x3
I0403 18:08:38.031875 16316 net.cpp:148] Top shape: 24 256 14 14 (1204224)
I0403 18:08:38.031889 16316 net.cpp:156] Memory required for data: 1047659808
I0403 18:08:38.031904 16316 layer_factory.hpp:77] Creating layer inception_4c/5x5_reduce
I0403 18:08:38.031929 16316 net.cpp:91] Creating Layer inception_4c/5x5_reduce
I0403 18:08:38.031947 16316 net.cpp:425] inception_4c/5x5_reduce <- inception_4b/output_inception_4b/output_0_split_2
I0403 18:08:38.031966 16316 net.cpp:399] inception_4c/5x5_reduce -> inception_4c/5x5_reduce
I0403 18:08:38.033025 16316 net.cpp:141] Setting up inception_4c/5x5_reduce
I0403 18:08:38.033052 16316 net.cpp:148] Top shape: 24 24 14 14 (112896)
I0403 18:08:38.033068 16316 net.cpp:156] Memory required for data: 1048111392
I0403 18:08:38.033087 16316 layer_factory.hpp:77] Creating layer inception_4c/relu_5x5_reduce
I0403 18:08:38.033105 16316 net.cpp:91] Creating Layer inception_4c/relu_5x5_reduce
I0403 18:08:38.033121 16316 net.cpp:425] inception_4c/relu_5x5_reduce <- inception_4c/5x5_reduce
I0403 18:08:38.033138 16316 net.cpp:386] inception_4c/relu_5x5_reduce -> inception_4c/5x5_reduce (in-place)
I0403 18:08:38.033332 16316 net.cpp:141] Setting up inception_4c/relu_5x5_reduce
I0403 18:08:38.033360 16316 net.cpp:148] Top shape: 24 24 14 14 (112896)
I0403 18:08:38.033375 16316 net.cpp:156] Memory required for data: 1048562976
I0403 18:08:38.033390 16316 layer_factory.hpp:77] Creating layer inception_4c/5x5
I0403 18:08:38.033412 16316 net.cpp:91] Creating Layer inception_4c/5x5
I0403 18:08:38.033429 16316 net.cpp:425] inception_4c/5x5 <- inception_4c/5x5_reduce
I0403 18:08:38.033448 16316 net.cpp:399] inception_4c/5x5 -> inception_4c/5x5
I0403 18:08:38.034696 16316 net.cpp:141] Setting up inception_4c/5x5
I0403 18:08:38.034725 16316 net.cpp:148] Top shape: 24 64 14 14 (301056)
I0403 18:08:38.034742 16316 net.cpp:156] Memory required for data: 1049767200
I0403 18:08:38.034760 16316 layer_factory.hpp:77] Creating layer inception_4c/relu_5x5
I0403 18:08:38.034777 16316 net.cpp:91] Creating Layer inception_4c/relu_5x5
I0403 18:08:38.034795 16316 net.cpp:425] inception_4c/relu_5x5 <- inception_4c/5x5
I0403 18:08:38.034812 16316 net.cpp:386] inception_4c/relu_5x5 -> inception_4c/5x5 (in-place)
I0403 18:08:38.035095 16316 net.cpp:141] Setting up inception_4c/relu_5x5
I0403 18:08:38.035125 16316 net.cpp:148] Top shape: 24 64 14 14 (301056)
I0403 18:08:38.035141 16316 net.cpp:156] Memory required for data: 1050971424
I0403 18:08:38.035156 16316 layer_factory.hpp:77] Creating layer inception_4c/pool
I0403 18:08:38.035172 16316 net.cpp:91] Creating Layer inception_4c/pool
I0403 18:08:38.035188 16316 net.cpp:425] inception_4c/pool <- inception_4b/output_inception_4b/output_0_split_3
I0403 18:08:38.035208 16316 net.cpp:399] inception_4c/pool -> inception_4c/pool
I0403 18:08:38.035272 16316 net.cpp:141] Setting up inception_4c/pool
I0403 18:08:38.035295 16316 net.cpp:148] Top shape: 24 512 14 14 (2408448)
I0403 18:08:38.035310 16316 net.cpp:156] Memory required for data: 1060605216
I0403 18:08:38.035323 16316 layer_factory.hpp:77] Creating layer inception_4c/pool_proj
I0403 18:08:38.035344 16316 net.cpp:91] Creating Layer inception_4c/pool_proj
I0403 18:08:38.035361 16316 net.cpp:425] inception_4c/pool_proj <- inception_4c/pool
I0403 18:08:38.035382 16316 net.cpp:399] inception_4c/pool_proj -> inception_4c/pool_proj
I0403 18:08:38.036594 16316 net.cpp:141] Setting up inception_4c/pool_proj
I0403 18:08:38.036623 16316 net.cpp:148] Top shape: 24 64 14 14 (301056)
I0403 18:08:38.036653 16316 net.cpp:156] Memory required for data: 1061809440
I0403 18:08:38.036671 16316 layer_factory.hpp:77] Creating layer inception_4c/relu_pool_proj
I0403 18:08:38.036694 16316 net.cpp:91] Creating Layer inception_4c/relu_pool_proj
I0403 18:08:38.036711 16316 net.cpp:425] inception_4c/relu_pool_proj <- inception_4c/pool_proj
I0403 18:08:38.036728 16316 net.cpp:386] inception_4c/relu_pool_proj -> inception_4c/pool_proj (in-place)
I0403 18:08:38.036909 16316 net.cpp:141] Setting up inception_4c/relu_pool_proj
I0403 18:08:38.036938 16316 net.cpp:148] Top shape: 24 64 14 14 (301056)
I0403 18:08:38.036954 16316 net.cpp:156] Memory required for data: 1063013664
I0403 18:08:38.036968 16316 layer_factory.hpp:77] Creating layer inception_4c/output
I0403 18:08:38.036991 16316 net.cpp:91] Creating Layer inception_4c/output
I0403 18:08:38.037009 16316 net.cpp:425] inception_4c/output <- inception_4c/1x1
I0403 18:08:38.037024 16316 net.cpp:425] inception_4c/output <- inception_4c/3x3
I0403 18:08:38.037040 16316 net.cpp:425] inception_4c/output <- inception_4c/5x5
I0403 18:08:38.037055 16316 net.cpp:425] inception_4c/output <- inception_4c/pool_proj
I0403 18:08:38.037072 16316 net.cpp:399] inception_4c/output -> inception_4c/output
I0403 18:08:38.037122 16316 net.cpp:141] Setting up inception_4c/output
I0403 18:08:38.037147 16316 net.cpp:148] Top shape: 24 512 14 14 (2408448)
I0403 18:08:38.037160 16316 net.cpp:156] Memory required for data: 1072647456
I0403 18:08:38.037186 16316 layer_factory.hpp:77] Creating layer inception_4c/output_inception_4c/output_0_split
I0403 18:08:38.037204 16316 net.cpp:91] Creating Layer inception_4c/output_inception_4c/output_0_split
I0403 18:08:38.037220 16316 net.cpp:425] inception_4c/output_inception_4c/output_0_split <- inception_4c/output
I0403 18:08:38.037241 16316 net.cpp:399] inception_4c/output_inception_4c/output_0_split -> inception_4c/output_inception_4c/output_0_split_0
I0403 18:08:38.037263 16316 net.cpp:399] inception_4c/output_inception_4c/output_0_split -> inception_4c/output_inception_4c/output_0_split_1
I0403 18:08:38.037284 16316 net.cpp:399] inception_4c/output_inception_4c/output_0_split -> inception_4c/output_inception_4c/output_0_split_2
I0403 18:08:38.037307 16316 net.cpp:399] inception_4c/output_inception_4c/output_0_split -> inception_4c/output_inception_4c/output_0_split_3
I0403 18:08:38.037396 16316 net.cpp:141] Setting up inception_4c/output_inception_4c/output_0_split
I0403 18:08:38.037420 16316 net.cpp:148] Top shape: 24 512 14 14 (2408448)
I0403 18:08:38.037437 16316 net.cpp:148] Top shape: 24 512 14 14 (2408448)
I0403 18:08:38.037454 16316 net.cpp:148] Top shape: 24 512 14 14 (2408448)
I0403 18:08:38.037482 16316 net.cpp:148] Top shape: 24 512 14 14 (2408448)
I0403 18:08:38.037494 16316 net.cpp:156] Memory required for data: 1111182624
I0403 18:08:38.037508 16316 layer_factory.hpp:77] Creating layer inception_4d/1x1
I0403 18:08:38.037530 16316 net.cpp:91] Creating Layer inception_4d/1x1
I0403 18:08:38.037549 16316 net.cpp:425] inception_4d/1x1 <- inception_4c/output_inception_4c/output_0_split_0
I0403 18:08:38.037569 16316 net.cpp:399] inception_4d/1x1 -> inception_4d/1x1
I0403 18:08:38.038949 16316 net.cpp:141] Setting up inception_4d/1x1
I0403 18:08:38.038981 16316 net.cpp:148] Top shape: 24 112 14 14 (526848)
I0403 18:08:38.039000 16316 net.cpp:156] Memory required for data: 1113290016
I0403 18:08:38.039017 16316 layer_factory.hpp:77] Creating layer inception_4d/relu_1x1
I0403 18:08:38.039036 16316 net.cpp:91] Creating Layer inception_4d/relu_1x1
I0403 18:08:38.039055 16316 net.cpp:425] inception_4d/relu_1x1 <- inception_4d/1x1
I0403 18:08:38.039073 16316 net.cpp:386] inception_4d/relu_1x1 -> inception_4d/1x1 (in-place)
I0403 18:08:38.039259 16316 net.cpp:141] Setting up inception_4d/relu_1x1
I0403 18:08:38.039284 16316 net.cpp:148] Top shape: 24 112 14 14 (526848)
I0403 18:08:38.039299 16316 net.cpp:156] Memory required for data: 1115397408
I0403 18:08:38.039314 16316 layer_factory.hpp:77] Creating layer inception_4d/3x3_reduce
I0403 18:08:38.039350 16316 net.cpp:91] Creating Layer inception_4d/3x3_reduce
I0403 18:08:38.039368 16316 net.cpp:425] inception_4d/3x3_reduce <- inception_4c/output_inception_4c/output_0_split_1
I0403 18:08:38.039389 16316 net.cpp:399] inception_4d/3x3_reduce -> inception_4d/3x3_reduce
I0403 18:08:38.040900 16316 net.cpp:141] Setting up inception_4d/3x3_reduce
I0403 18:08:38.040932 16316 net.cpp:148] Top shape: 24 144 14 14 (677376)
I0403 18:08:38.040949 16316 net.cpp:156] Memory required for data: 1118106912
I0403 18:08:38.040967 16316 layer_factory.hpp:77] Creating layer inception_4d/relu_3x3_reduce
I0403 18:08:38.040990 16316 net.cpp:91] Creating Layer inception_4d/relu_3x3_reduce
I0403 18:08:38.041007 16316 net.cpp:425] inception_4d/relu_3x3_reduce <- inception_4d/3x3_reduce
I0403 18:08:38.041028 16316 net.cpp:386] inception_4d/relu_3x3_reduce -> inception_4d/3x3_reduce (in-place)
I0403 18:08:38.041335 16316 net.cpp:141] Setting up inception_4d/relu_3x3_reduce
I0403 18:08:38.041364 16316 net.cpp:148] Top shape: 24 144 14 14 (677376)
I0403 18:08:38.041380 16316 net.cpp:156] Memory required for data: 1120816416
I0403 18:08:38.041395 16316 layer_factory.hpp:77] Creating layer inception_4d/3x3
I0403 18:08:38.041419 16316 net.cpp:91] Creating Layer inception_4d/3x3
I0403 18:08:38.041436 16316 net.cpp:425] inception_4d/3x3 <- inception_4d/3x3_reduce
I0403 18:08:38.041457 16316 net.cpp:399] inception_4d/3x3 -> inception_4d/3x3
I0403 18:08:38.045760 16316 net.cpp:141] Setting up inception_4d/3x3
I0403 18:08:38.045791 16316 net.cpp:148] Top shape: 24 288 14 14 (1354752)
I0403 18:08:38.045809 16316 net.cpp:156] Memory required for data: 1126235424
I0403 18:08:38.045827 16316 layer_factory.hpp:77] Creating layer inception_4d/relu_3x3
I0403 18:08:38.045846 16316 net.cpp:91] Creating Layer inception_4d/relu_3x3
I0403 18:08:38.045863 16316 net.cpp:425] inception_4d/relu_3x3 <- inception_4d/3x3
I0403 18:08:38.045882 16316 net.cpp:386] inception_4d/relu_3x3 -> inception_4d/3x3 (in-place)
I0403 18:08:38.046082 16316 net.cpp:141] Setting up inception_4d/relu_3x3
I0403 18:08:38.046108 16316 net.cpp:148] Top shape: 24 288 14 14 (1354752)
I0403 18:08:38.046123 16316 net.cpp:156] Memory required for data: 1131654432
I0403 18:08:38.046138 16316 layer_factory.hpp:77] Creating layer inception_4d/5x5_reduce
I0403 18:08:38.046159 16316 net.cpp:91] Creating Layer inception_4d/5x5_reduce
I0403 18:08:38.046176 16316 net.cpp:425] inception_4d/5x5_reduce <- inception_4c/output_inception_4c/output_0_split_2
I0403 18:08:38.046197 16316 net.cpp:399] inception_4d/5x5_reduce -> inception_4d/5x5_reduce
I0403 18:08:38.047346 16316 net.cpp:141] Setting up inception_4d/5x5_reduce
I0403 18:08:38.047374 16316 net.cpp:148] Top shape: 24 32 14 14 (150528)
I0403 18:08:38.047390 16316 net.cpp:156] Memory required for data: 1132256544
I0403 18:08:38.047410 16316 layer_factory.hpp:77] Creating layer inception_4d/relu_5x5_reduce
I0403 18:08:38.047430 16316 net.cpp:91] Creating Layer inception_4d/relu_5x5_reduce
I0403 18:08:38.047448 16316 net.cpp:425] inception_4d/relu_5x5_reduce <- inception_4d/5x5_reduce
I0403 18:08:38.047466 16316 net.cpp:386] inception_4d/relu_5x5_reduce -> inception_4d/5x5_reduce (in-place)
I0403 18:08:38.047652 16316 net.cpp:141] Setting up inception_4d/relu_5x5_reduce
I0403 18:08:38.047677 16316 net.cpp:148] Top shape: 24 32 14 14 (150528)
I0403 18:08:38.047693 16316 net.cpp:156] Memory required for data: 1132858656
I0403 18:08:38.047708 16316 layer_factory.hpp:77] Creating layer inception_4d/5x5
I0403 18:08:38.047729 16316 net.cpp:91] Creating Layer inception_4d/5x5
I0403 18:08:38.047749 16316 net.cpp:425] inception_4d/5x5 <- inception_4d/5x5_reduce
I0403 18:08:38.047767 16316 net.cpp:399] inception_4d/5x5 -> inception_4d/5x5
I0403 18:08:38.049257 16316 net.cpp:141] Setting up inception_4d/5x5
I0403 18:08:38.049285 16316 net.cpp:148] Top shape: 24 64 14 14 (301056)
I0403 18:08:38.049301 16316 net.cpp:156] Memory required for data: 1134062880
I0403 18:08:38.049320 16316 layer_factory.hpp:77] Creating layer inception_4d/relu_5x5
I0403 18:08:38.049356 16316 net.cpp:91] Creating Layer inception_4d/relu_5x5
I0403 18:08:38.049376 16316 net.cpp:425] inception_4d/relu_5x5 <- inception_4d/5x5
I0403 18:08:38.049393 16316 net.cpp:386] inception_4d/relu_5x5 -> inception_4d/5x5 (in-place)
I0403 18:08:38.049705 16316 net.cpp:141] Setting up inception_4d/relu_5x5
I0403 18:08:38.049732 16316 net.cpp:148] Top shape: 24 64 14 14 (301056)
I0403 18:08:38.049747 16316 net.cpp:156] Memory required for data: 1135267104
I0403 18:08:38.049762 16316 layer_factory.hpp:77] Creating layer inception_4d/pool
I0403 18:08:38.049782 16316 net.cpp:91] Creating Layer inception_4d/pool
I0403 18:08:38.049799 16316 net.cpp:425] inception_4d/pool <- inception_4c/output_inception_4c/output_0_split_3
I0403 18:08:38.049818 16316 net.cpp:399] inception_4d/pool -> inception_4d/pool
I0403 18:08:38.049885 16316 net.cpp:141] Setting up inception_4d/pool
I0403 18:08:38.049909 16316 net.cpp:148] Top shape: 24 512 14 14 (2408448)
I0403 18:08:38.049926 16316 net.cpp:156] Memory required for data: 1144900896
I0403 18:08:38.049940 16316 layer_factory.hpp:77] Creating layer inception_4d/pool_proj
I0403 18:08:38.049962 16316 net.cpp:91] Creating Layer inception_4d/pool_proj
I0403 18:08:38.049983 16316 net.cpp:425] inception_4d/pool_proj <- inception_4d/pool
I0403 18:08:38.050006 16316 net.cpp:399] inception_4d/pool_proj -> inception_4d/pool_proj
I0403 18:08:38.051759 16316 net.cpp:141] Setting up inception_4d/pool_proj
I0403 18:08:38.051787 16316 net.cpp:148] Top shape: 24 64 14 14 (301056)
I0403 18:08:38.051803 16316 net.cpp:156] Memory required for data: 1146105120
I0403 18:08:38.051821 16316 layer_factory.hpp:77] Creating layer inception_4d/relu_pool_proj
I0403 18:08:38.051841 16316 net.cpp:91] Creating Layer inception_4d/relu_pool_proj
I0403 18:08:38.051857 16316 net.cpp:425] inception_4d/relu_pool_proj <- inception_4d/pool_proj
I0403 18:08:38.051877 16316 net.cpp:386] inception_4d/relu_pool_proj -> inception_4d/pool_proj (in-place)
I0403 18:08:38.052067 16316 net.cpp:141] Setting up inception_4d/relu_pool_proj
I0403 18:08:38.052091 16316 net.cpp:148] Top shape: 24 64 14 14 (301056)
I0403 18:08:38.052106 16316 net.cpp:156] Memory required for data: 1147309344
I0403 18:08:38.052120 16316 layer_factory.hpp:77] Creating layer inception_4d/output
I0403 18:08:38.052140 16316 net.cpp:91] Creating Layer inception_4d/output
I0403 18:08:38.052156 16316 net.cpp:425] inception_4d/output <- inception_4d/1x1
I0403 18:08:38.052173 16316 net.cpp:425] inception_4d/output <- inception_4d/3x3
I0403 18:08:38.052189 16316 net.cpp:425] inception_4d/output <- inception_4d/5x5
I0403 18:08:38.052206 16316 net.cpp:425] inception_4d/output <- inception_4d/pool_proj
I0403 18:08:38.052222 16316 net.cpp:399] inception_4d/output -> inception_4d/output
I0403 18:08:38.052270 16316 net.cpp:141] Setting up inception_4d/output
I0403 18:08:38.052294 16316 net.cpp:148] Top shape: 24 528 14 14 (2483712)
I0403 18:08:38.052309 16316 net.cpp:156] Memory required for data: 1157244192
I0403 18:08:38.052323 16316 layer_factory.hpp:77] Creating layer inception_4d/output_inception_4d/output_0_split
I0403 18:08:38.052341 16316 net.cpp:91] Creating Layer inception_4d/output_inception_4d/output_0_split
I0403 18:08:38.052357 16316 net.cpp:425] inception_4d/output_inception_4d/output_0_split <- inception_4d/output
I0403 18:08:38.052377 16316 net.cpp:399] inception_4d/output_inception_4d/output_0_split -> inception_4d/output_inception_4d/output_0_split_0
I0403 18:08:38.052398 16316 net.cpp:399] inception_4d/output_inception_4d/output_0_split -> inception_4d/output_inception_4d/output_0_split_1
I0403 18:08:38.052418 16316 net.cpp:399] inception_4d/output_inception_4d/output_0_split -> inception_4d/output_inception_4d/output_0_split_2
I0403 18:08:38.052439 16316 net.cpp:399] inception_4d/output_inception_4d/output_0_split -> inception_4d/output_inception_4d/output_0_split_3
I0403 18:08:38.052459 16316 net.cpp:399] inception_4d/output_inception_4d/output_0_split -> inception_4d/output_inception_4d/output_0_split_4
I0403 18:08:38.052562 16316 net.cpp:141] Setting up inception_4d/output_inception_4d/output_0_split
I0403 18:08:38.052598 16316 net.cpp:148] Top shape: 24 528 14 14 (2483712)
I0403 18:08:38.052615 16316 net.cpp:148] Top shape: 24 528 14 14 (2483712)
I0403 18:08:38.052631 16316 net.cpp:148] Top shape: 24 528 14 14 (2483712)
I0403 18:08:38.052646 16316 net.cpp:148] Top shape: 24 528 14 14 (2483712)
I0403 18:08:38.052661 16316 net.cpp:148] Top shape: 24 528 14 14 (2483712)
I0403 18:08:38.052675 16316 net.cpp:156] Memory required for data: 1206918432
I0403 18:08:38.052690 16316 layer_factory.hpp:77] Creating layer loss2/ave_pool
I0403 18:08:38.052707 16316 net.cpp:91] Creating Layer loss2/ave_pool
I0403 18:08:38.052723 16316 net.cpp:425] loss2/ave_pool <- inception_4d/output_inception_4d/output_0_split_0
I0403 18:08:38.052743 16316 net.cpp:399] loss2/ave_pool -> loss2/ave_pool
I0403 18:08:38.053061 16316 net.cpp:141] Setting up loss2/ave_pool
I0403 18:08:38.053089 16316 net.cpp:148] Top shape: 24 528 4 4 (202752)
I0403 18:08:38.053104 16316 net.cpp:156] Memory required for data: 1207729440
I0403 18:08:38.053119 16316 layer_factory.hpp:77] Creating layer loss2/conv
I0403 18:08:38.053143 16316 net.cpp:91] Creating Layer loss2/conv
I0403 18:08:38.053160 16316 net.cpp:425] loss2/conv <- loss2/ave_pool
I0403 18:08:38.053195 16316 net.cpp:399] loss2/conv -> loss2/conv
I0403 18:08:38.055084 16316 net.cpp:141] Setting up loss2/conv
I0403 18:08:38.055114 16316 net.cpp:148] Top shape: 24 128 4 4 (49152)
I0403 18:08:38.055131 16316 net.cpp:156] Memory required for data: 1207926048
I0403 18:08:38.055150 16316 layer_factory.hpp:77] Creating layer loss2/relu_conv
I0403 18:08:38.055167 16316 net.cpp:91] Creating Layer loss2/relu_conv
I0403 18:08:38.055182 16316 net.cpp:425] loss2/relu_conv <- loss2/conv
I0403 18:08:38.055199 16316 net.cpp:386] loss2/relu_conv -> loss2/conv (in-place)
I0403 18:08:38.055475 16316 net.cpp:141] Setting up loss2/relu_conv
I0403 18:08:38.055503 16316 net.cpp:148] Top shape: 24 128 4 4 (49152)
I0403 18:08:38.055519 16316 net.cpp:156] Memory required for data: 1208122656
I0403 18:08:38.055534 16316 layer_factory.hpp:77] Creating layer loss2/fc
I0403 18:08:38.055552 16316 net.cpp:91] Creating Layer loss2/fc
I0403 18:08:38.055568 16316 net.cpp:425] loss2/fc <- loss2/conv
I0403 18:08:38.055588 16316 net.cpp:399] loss2/fc -> loss2/fc
I0403 18:08:38.072841 16316 net.cpp:141] Setting up loss2/fc
I0403 18:08:38.072875 16316 net.cpp:148] Top shape: 24 1024 (24576)
I0403 18:08:38.072890 16316 net.cpp:156] Memory required for data: 1208220960
I0403 18:08:38.072907 16316 layer_factory.hpp:77] Creating layer loss2/relu_fc
I0403 18:08:38.072929 16316 net.cpp:91] Creating Layer loss2/relu_fc
I0403 18:08:38.072945 16316 net.cpp:425] loss2/relu_fc <- loss2/fc
I0403 18:08:38.072962 16316 net.cpp:386] loss2/relu_fc -> loss2/fc (in-place)
I0403 18:08:38.073282 16316 net.cpp:141] Setting up loss2/relu_fc
I0403 18:08:38.073308 16316 net.cpp:148] Top shape: 24 1024 (24576)
I0403 18:08:38.073323 16316 net.cpp:156] Memory required for data: 1208319264
I0403 18:08:38.073338 16316 layer_factory.hpp:77] Creating layer loss2/drop_fc
I0403 18:08:38.073359 16316 net.cpp:91] Creating Layer loss2/drop_fc
I0403 18:08:38.073377 16316 net.cpp:425] loss2/drop_fc <- loss2/fc
I0403 18:08:38.073395 16316 net.cpp:386] loss2/drop_fc -> loss2/fc (in-place)
I0403 18:08:38.073443 16316 net.cpp:141] Setting up loss2/drop_fc
I0403 18:08:38.073482 16316 net.cpp:148] Top shape: 24 1024 (24576)
I0403 18:08:38.073496 16316 net.cpp:156] Memory required for data: 1208417568
I0403 18:08:38.073510 16316 layer_factory.hpp:77] Creating layer loss2/classifier_plantvillage
I0403 18:08:38.073529 16316 net.cpp:91] Creating Layer loss2/classifier_plantvillage
I0403 18:08:38.073544 16316 net.cpp:425] loss2/classifier_plantvillage <- loss2/fc
I0403 18:08:38.073565 16316 net.cpp:399] loss2/classifier_plantvillage -> loss2/classifier_plantvillage
I0403 18:08:38.073956 16316 net.cpp:141] Setting up loss2/classifier_plantvillage
I0403 18:08:38.073982 16316 net.cpp:148] Top shape: 24 38 (912)
I0403 18:08:38.074014 16316 net.cpp:156] Memory required for data: 1208421216
I0403 18:08:38.074033 16316 layer_factory.hpp:77] Creating layer loss2/classifier_plantvillage_loss2/classifier_plantvillage_0_split
I0403 18:08:38.074050 16316 net.cpp:91] Creating Layer loss2/classifier_plantvillage_loss2/classifier_plantvillage_0_split
I0403 18:08:38.074066 16316 net.cpp:425] loss2/classifier_plantvillage_loss2/classifier_plantvillage_0_split <- loss2/classifier_plantvillage
I0403 18:08:38.074084 16316 net.cpp:399] loss2/classifier_plantvillage_loss2/classifier_plantvillage_0_split -> loss2/classifier_plantvillage_loss2/classifier_plantvillage_0_split_0
I0403 18:08:38.074105 16316 net.cpp:399] loss2/classifier_plantvillage_loss2/classifier_plantvillage_0_split -> loss2/classifier_plantvillage_loss2/classifier_plantvillage_0_split_1
I0403 18:08:38.074126 16316 net.cpp:399] loss2/classifier_plantvillage_loss2/classifier_plantvillage_0_split -> loss2/classifier_plantvillage_loss2/classifier_plantvillage_0_split_2
I0403 18:08:38.074203 16316 net.cpp:141] Setting up loss2/classifier_plantvillage_loss2/classifier_plantvillage_0_split
I0403 18:08:38.074225 16316 net.cpp:148] Top shape: 24 38 (912)
I0403 18:08:38.074241 16316 net.cpp:148] Top shape: 24 38 (912)
I0403 18:08:38.074255 16316 net.cpp:148] Top shape: 24 38 (912)
I0403 18:08:38.074268 16316 net.cpp:156] Memory required for data: 1208432160
I0403 18:08:38.074282 16316 layer_factory.hpp:77] Creating layer inception_4e/1x1
I0403 18:08:38.074304 16316 net.cpp:91] Creating Layer inception_4e/1x1
I0403 18:08:38.074322 16316 net.cpp:425] inception_4e/1x1 <- inception_4d/output_inception_4d/output_0_split_1
I0403 18:08:38.074343 16316 net.cpp:399] inception_4e/1x1 -> inception_4e/1x1
I0403 18:08:38.076108 16316 net.cpp:141] Setting up inception_4e/1x1
I0403 18:08:38.076138 16316 net.cpp:148] Top shape: 24 256 14 14 (1204224)
I0403 18:08:38.076154 16316 net.cpp:156] Memory required for data: 1213249056
I0403 18:08:38.076172 16316 layer_factory.hpp:77] Creating layer inception_4e/relu_1x1
I0403 18:08:38.076189 16316 net.cpp:91] Creating Layer inception_4e/relu_1x1
I0403 18:08:38.076205 16316 net.cpp:425] inception_4e/relu_1x1 <- inception_4e/1x1
I0403 18:08:38.076225 16316 net.cpp:386] inception_4e/relu_1x1 -> inception_4e/1x1 (in-place)
I0403 18:08:38.076513 16316 net.cpp:141] Setting up inception_4e/relu_1x1
I0403 18:08:38.076539 16316 net.cpp:148] Top shape: 24 256 14 14 (1204224)
I0403 18:08:38.076555 16316 net.cpp:156] Memory required for data: 1218065952
I0403 18:08:38.076570 16316 layer_factory.hpp:77] Creating layer inception_4e/3x3_reduce
I0403 18:08:38.076591 16316 net.cpp:91] Creating Layer inception_4e/3x3_reduce
I0403 18:08:38.076608 16316 net.cpp:425] inception_4e/3x3_reduce <- inception_4d/output_inception_4d/output_0_split_2
I0403 18:08:38.076627 16316 net.cpp:399] inception_4e/3x3_reduce -> inception_4e/3x3_reduce
I0403 18:08:38.078724 16316 net.cpp:141] Setting up inception_4e/3x3_reduce
I0403 18:08:38.078752 16316 net.cpp:148] Top shape: 24 160 14 14 (752640)
I0403 18:08:38.078768 16316 net.cpp:156] Memory required for data: 1221076512
I0403 18:08:38.078785 16316 layer_factory.hpp:77] Creating layer inception_4e/relu_3x3_reduce
I0403 18:08:38.078806 16316 net.cpp:91] Creating Layer inception_4e/relu_3x3_reduce
I0403 18:08:38.078824 16316 net.cpp:425] inception_4e/relu_3x3_reduce <- inception_4e/3x3_reduce
I0403 18:08:38.078840 16316 net.cpp:386] inception_4e/relu_3x3_reduce -> inception_4e/3x3_reduce (in-place)
I0403 18:08:38.079026 16316 net.cpp:141] Setting up inception_4e/relu_3x3_reduce
I0403 18:08:38.079052 16316 net.cpp:148] Top shape: 24 160 14 14 (752640)
I0403 18:08:38.079068 16316 net.cpp:156] Memory required for data: 1224087072
I0403 18:08:38.079082 16316 layer_factory.hpp:77] Creating layer inception_4e/3x3
I0403 18:08:38.079104 16316 net.cpp:91] Creating Layer inception_4e/3x3
I0403 18:08:38.079121 16316 net.cpp:425] inception_4e/3x3 <- inception_4e/3x3_reduce
I0403 18:08:38.079139 16316 net.cpp:399] inception_4e/3x3 -> inception_4e/3x3
I0403 18:08:38.084031 16316 net.cpp:141] Setting up inception_4e/3x3
I0403 18:08:38.084074 16316 net.cpp:148] Top shape: 24 320 14 14 (1505280)
I0403 18:08:38.084090 16316 net.cpp:156] Memory required for data: 1230108192
I0403 18:08:38.084108 16316 layer_factory.hpp:77] Creating layer inception_4e/relu_3x3
I0403 18:08:38.084125 16316 net.cpp:91] Creating Layer inception_4e/relu_3x3
I0403 18:08:38.084141 16316 net.cpp:425] inception_4e/relu_3x3 <- inception_4e/3x3
I0403 18:08:38.084161 16316 net.cpp:386] inception_4e/relu_3x3 -> inception_4e/3x3 (in-place)
I0403 18:08:38.084453 16316 net.cpp:141] Setting up inception_4e/relu_3x3
I0403 18:08:38.084478 16316 net.cpp:148] Top shape: 24 320 14 14 (1505280)
I0403 18:08:38.084494 16316 net.cpp:156] Memory required for data: 1236129312
I0403 18:08:38.084508 16316 layer_factory.hpp:77] Creating layer inception_4e/5x5_reduce
I0403 18:08:38.084532 16316 net.cpp:91] Creating Layer inception_4e/5x5_reduce
I0403 18:08:38.084547 16316 net.cpp:425] inception_4e/5x5_reduce <- inception_4d/output_inception_4d/output_0_split_3
I0403 18:08:38.084568 16316 net.cpp:399] inception_4e/5x5_reduce -> inception_4e/5x5_reduce
I0403 18:08:38.085644 16316 net.cpp:141] Setting up inception_4e/5x5_reduce
I0403 18:08:38.085671 16316 net.cpp:148] Top shape: 24 32 14 14 (150528)
I0403 18:08:38.085686 16316 net.cpp:156] Memory required for data: 1236731424
I0403 18:08:38.085705 16316 layer_factory.hpp:77] Creating layer inception_4e/relu_5x5_reduce
I0403 18:08:38.085724 16316 net.cpp:91] Creating Layer inception_4e/relu_5x5_reduce
I0403 18:08:38.085742 16316 net.cpp:425] inception_4e/relu_5x5_reduce <- inception_4e/5x5_reduce
I0403 18:08:38.085758 16316 net.cpp:386] inception_4e/relu_5x5_reduce -> inception_4e/5x5_reduce (in-place)
I0403 18:08:38.086058 16316 net.cpp:141] Setting up inception_4e/relu_5x5_reduce
I0403 18:08:38.086084 16316 net.cpp:148] Top shape: 24 32 14 14 (150528)
I0403 18:08:38.086099 16316 net.cpp:156] Memory required for data: 1237333536
I0403 18:08:38.086113 16316 layer_factory.hpp:77] Creating layer inception_4e/5x5
I0403 18:08:38.086151 16316 net.cpp:91] Creating Layer inception_4e/5x5
I0403 18:08:38.086170 16316 net.cpp:425] inception_4e/5x5 <- inception_4e/5x5_reduce
I0403 18:08:38.086190 16316 net.cpp:399] inception_4e/5x5 -> inception_4e/5x5
I0403 18:08:38.088011 16316 net.cpp:141] Setting up inception_4e/5x5
I0403 18:08:38.088038 16316 net.cpp:148] Top shape: 24 128 14 14 (602112)
I0403 18:08:38.088053 16316 net.cpp:156] Memory required for data: 1239741984
I0403 18:08:38.088073 16316 layer_factory.hpp:77] Creating layer inception_4e/relu_5x5
I0403 18:08:38.088093 16316 net.cpp:91] Creating Layer inception_4e/relu_5x5
I0403 18:08:38.088109 16316 net.cpp:425] inception_4e/relu_5x5 <- inception_4e/5x5
I0403 18:08:38.088125 16316 net.cpp:386] inception_4e/relu_5x5 -> inception_4e/5x5 (in-place)
I0403 18:08:38.088318 16316 net.cpp:141] Setting up inception_4e/relu_5x5
I0403 18:08:38.088346 16316 net.cpp:148] Top shape: 24 128 14 14 (602112)
I0403 18:08:38.088361 16316 net.cpp:156] Memory required for data: 1242150432
I0403 18:08:38.088376 16316 layer_factory.hpp:77] Creating layer inception_4e/pool
I0403 18:08:38.088392 16316 net.cpp:91] Creating Layer inception_4e/pool
I0403 18:08:38.088409 16316 net.cpp:425] inception_4e/pool <- inception_4d/output_inception_4d/output_0_split_4
I0403 18:08:38.088426 16316 net.cpp:399] inception_4e/pool -> inception_4e/pool
I0403 18:08:38.088495 16316 net.cpp:141] Setting up inception_4e/pool
I0403 18:08:38.088518 16316 net.cpp:148] Top shape: 24 528 14 14 (2483712)
I0403 18:08:38.088533 16316 net.cpp:156] Memory required for data: 1252085280
I0403 18:08:38.088547 16316 layer_factory.hpp:77] Creating layer inception_4e/pool_proj
I0403 18:08:38.088569 16316 net.cpp:91] Creating Layer inception_4e/pool_proj
I0403 18:08:38.088587 16316 net.cpp:425] inception_4e/pool_proj <- inception_4e/pool
I0403 18:08:38.088606 16316 net.cpp:399] inception_4e/pool_proj -> inception_4e/pool_proj
I0403 18:08:38.090119 16316 net.cpp:141] Setting up inception_4e/pool_proj
I0403 18:08:38.090157 16316 net.cpp:148] Top shape: 24 128 14 14 (602112)
I0403 18:08:38.090173 16316 net.cpp:156] Memory required for data: 1254493728
I0403 18:08:38.090191 16316 layer_factory.hpp:77] Creating layer inception_4e/relu_pool_proj
I0403 18:08:38.090210 16316 net.cpp:91] Creating Layer inception_4e/relu_pool_proj
I0403 18:08:38.090227 16316 net.cpp:425] inception_4e/relu_pool_proj <- inception_4e/pool_proj
I0403 18:08:38.090257 16316 net.cpp:386] inception_4e/relu_pool_proj -> inception_4e/pool_proj (in-place)
I0403 18:08:38.090566 16316 net.cpp:141] Setting up inception_4e/relu_pool_proj
I0403 18:08:38.090593 16316 net.cpp:148] Top shape: 24 128 14 14 (602112)
I0403 18:08:38.090607 16316 net.cpp:156] Memory required for data: 1256902176
I0403 18:08:38.090622 16316 layer_factory.hpp:77] Creating layer inception_4e/output
I0403 18:08:38.090639 16316 net.cpp:91] Creating Layer inception_4e/output
I0403 18:08:38.090654 16316 net.cpp:425] inception_4e/output <- inception_4e/1x1
I0403 18:08:38.090670 16316 net.cpp:425] inception_4e/output <- inception_4e/3x3
I0403 18:08:38.090687 16316 net.cpp:425] inception_4e/output <- inception_4e/5x5
I0403 18:08:38.090701 16316 net.cpp:425] inception_4e/output <- inception_4e/pool_proj
I0403 18:08:38.090721 16316 net.cpp:399] inception_4e/output -> inception_4e/output
I0403 18:08:38.090772 16316 net.cpp:141] Setting up inception_4e/output
I0403 18:08:38.090795 16316 net.cpp:148] Top shape: 24 832 14 14 (3913728)
I0403 18:08:38.090811 16316 net.cpp:156] Memory required for data: 1272557088
I0403 18:08:38.090824 16316 layer_factory.hpp:77] Creating layer pool4/3x3_s2
I0403 18:08:38.090840 16316 net.cpp:91] Creating Layer pool4/3x3_s2
I0403 18:08:38.090857 16316 net.cpp:425] pool4/3x3_s2 <- inception_4e/output
I0403 18:08:38.090876 16316 net.cpp:399] pool4/3x3_s2 -> pool4/3x3_s2
I0403 18:08:38.090942 16316 net.cpp:141] Setting up pool4/3x3_s2
I0403 18:08:38.090965 16316 net.cpp:148] Top shape: 24 832 7 7 (978432)
I0403 18:08:38.090998 16316 net.cpp:156] Memory required for data: 1276470816
I0403 18:08:38.091014 16316 layer_factory.hpp:77] Creating layer pool4/3x3_s2_pool4/3x3_s2_0_split
I0403 18:08:38.091034 16316 net.cpp:91] Creating Layer pool4/3x3_s2_pool4/3x3_s2_0_split
I0403 18:08:38.091060 16316 net.cpp:425] pool4/3x3_s2_pool4/3x3_s2_0_split <- pool4/3x3_s2
I0403 18:08:38.091079 16316 net.cpp:399] pool4/3x3_s2_pool4/3x3_s2_0_split -> pool4/3x3_s2_pool4/3x3_s2_0_split_0
I0403 18:08:38.091099 16316 net.cpp:399] pool4/3x3_s2_pool4/3x3_s2_0_split -> pool4/3x3_s2_pool4/3x3_s2_0_split_1
I0403 18:08:38.091122 16316 net.cpp:399] pool4/3x3_s2_pool4/3x3_s2_0_split -> pool4/3x3_s2_pool4/3x3_s2_0_split_2
I0403 18:08:38.091142 16316 net.cpp:399] pool4/3x3_s2_pool4/3x3_s2_0_split -> pool4/3x3_s2_pool4/3x3_s2_0_split_3
I0403 18:08:38.091233 16316 net.cpp:141] Setting up pool4/3x3_s2_pool4/3x3_s2_0_split
I0403 18:08:38.091256 16316 net.cpp:148] Top shape: 24 832 7 7 (978432)
I0403 18:08:38.091272 16316 net.cpp:148] Top shape: 24 832 7 7 (978432)
I0403 18:08:38.091287 16316 net.cpp:148] Top shape: 24 832 7 7 (978432)
I0403 18:08:38.091301 16316 net.cpp:148] Top shape: 24 832 7 7 (978432)
I0403 18:08:38.091315 16316 net.cpp:156] Memory required for data: 1292125728
I0403 18:08:38.091339 16316 layer_factory.hpp:77] Creating layer inception_5a/1x1
I0403 18:08:38.091362 16316 net.cpp:91] Creating Layer inception_5a/1x1
I0403 18:08:38.091379 16316 net.cpp:425] inception_5a/1x1 <- pool4/3x3_s2_pool4/3x3_s2_0_split_0
I0403 18:08:38.091400 16316 net.cpp:399] inception_5a/1x1 -> inception_5a/1x1
I0403 18:08:38.094290 16316 net.cpp:141] Setting up inception_5a/1x1
I0403 18:08:38.094318 16316 net.cpp:148] Top shape: 24 256 7 7 (301056)
I0403 18:08:38.094334 16316 net.cpp:156] Memory required for data: 1293329952
I0403 18:08:38.094352 16316 layer_factory.hpp:77] Creating layer inception_5a/relu_1x1
I0403 18:08:38.094372 16316 net.cpp:91] Creating Layer inception_5a/relu_1x1
I0403 18:08:38.094389 16316 net.cpp:425] inception_5a/relu_1x1 <- inception_5a/1x1
I0403 18:08:38.094406 16316 net.cpp:386] inception_5a/relu_1x1 -> inception_5a/1x1 (in-place)
I0403 18:08:38.094718 16316 net.cpp:141] Setting up inception_5a/relu_1x1
I0403 18:08:38.094744 16316 net.cpp:148] Top shape: 24 256 7 7 (301056)
I0403 18:08:38.094759 16316 net.cpp:156] Memory required for data: 1294534176
I0403 18:08:38.094774 16316 layer_factory.hpp:77] Creating layer inception_5a/3x3_reduce
I0403 18:08:38.094796 16316 net.cpp:91] Creating Layer inception_5a/3x3_reduce
I0403 18:08:38.094815 16316 net.cpp:425] inception_5a/3x3_reduce <- pool4/3x3_s2_pool4/3x3_s2_0_split_1
I0403 18:08:38.094835 16316 net.cpp:399] inception_5a/3x3_reduce -> inception_5a/3x3_reduce
I0403 18:08:38.097398 16316 net.cpp:141] Setting up inception_5a/3x3_reduce
I0403 18:08:38.097429 16316 net.cpp:148] Top shape: 24 160 7 7 (188160)
I0403 18:08:38.097445 16316 net.cpp:156] Memory required for data: 1295286816
I0403 18:08:38.097476 16316 layer_factory.hpp:77] Creating layer inception_5a/relu_3x3_reduce
I0403 18:08:38.097493 16316 net.cpp:91] Creating Layer inception_5a/relu_3x3_reduce
I0403 18:08:38.097509 16316 net.cpp:425] inception_5a/relu_3x3_reduce <- inception_5a/3x3_reduce
I0403 18:08:38.097529 16316 net.cpp:386] inception_5a/relu_3x3_reduce -> inception_5a/3x3_reduce (in-place)
I0403 18:08:38.097718 16316 net.cpp:141] Setting up inception_5a/relu_3x3_reduce
I0403 18:08:38.097743 16316 net.cpp:148] Top shape: 24 160 7 7 (188160)
I0403 18:08:38.097757 16316 net.cpp:156] Memory required for data: 1296039456
I0403 18:08:38.097772 16316 layer_factory.hpp:77] Creating layer inception_5a/3x3
I0403 18:08:38.097795 16316 net.cpp:91] Creating Layer inception_5a/3x3
I0403 18:08:38.097811 16316 net.cpp:425] inception_5a/3x3 <- inception_5a/3x3_reduce
I0403 18:08:38.097833 16316 net.cpp:399] inception_5a/3x3 -> inception_5a/3x3
I0403 18:08:38.102913 16316 net.cpp:141] Setting up inception_5a/3x3
I0403 18:08:38.102944 16316 net.cpp:148] Top shape: 24 320 7 7 (376320)
I0403 18:08:38.102960 16316 net.cpp:156] Memory required for data: 1297544736
I0403 18:08:38.102983 16316 layer_factory.hpp:77] Creating layer inception_5a/relu_3x3
I0403 18:08:38.103004 16316 net.cpp:91] Creating Layer inception_5a/relu_3x3
I0403 18:08:38.103023 16316 net.cpp:425] inception_5a/relu_3x3 <- inception_5a/3x3
I0403 18:08:38.103039 16316 net.cpp:386] inception_5a/relu_3x3 -> inception_5a/3x3 (in-place)
I0403 18:08:38.103354 16316 net.cpp:141] Setting up inception_5a/relu_3x3
I0403 18:08:38.103382 16316 net.cpp:148] Top shape: 24 320 7 7 (376320)
I0403 18:08:38.103397 16316 net.cpp:156] Memory required for data: 1299050016
I0403 18:08:38.103412 16316 layer_factory.hpp:77] Creating layer inception_5a/5x5_reduce
I0403 18:08:38.103435 16316 net.cpp:91] Creating Layer inception_5a/5x5_reduce
I0403 18:08:38.103453 16316 net.cpp:425] inception_5a/5x5_reduce <- pool4/3x3_s2_pool4/3x3_s2_0_split_2
I0403 18:08:38.103477 16316 net.cpp:399] inception_5a/5x5_reduce -> inception_5a/5x5_reduce
I0403 18:08:38.104676 16316 net.cpp:141] Setting up inception_5a/5x5_reduce
I0403 18:08:38.104707 16316 net.cpp:148] Top shape: 24 32 7 7 (37632)
I0403 18:08:38.104724 16316 net.cpp:156] Memory required for data: 1299200544
I0403 18:08:38.104743 16316 layer_factory.hpp:77] Creating layer inception_5a/relu_5x5_reduce
I0403 18:08:38.104760 16316 net.cpp:91] Creating Layer inception_5a/relu_5x5_reduce
I0403 18:08:38.104776 16316 net.cpp:425] inception_5a/relu_5x5_reduce <- inception_5a/5x5_reduce
I0403 18:08:38.104794 16316 net.cpp:386] inception_5a/relu_5x5_reduce -> inception_5a/5x5_reduce (in-place)
I0403 18:08:38.105109 16316 net.cpp:141] Setting up inception_5a/relu_5x5_reduce
I0403 18:08:38.105139 16316 net.cpp:148] Top shape: 24 32 7 7 (37632)
I0403 18:08:38.105154 16316 net.cpp:156] Memory required for data: 1299351072
I0403 18:08:38.105170 16316 layer_factory.hpp:77] Creating layer inception_5a/5x5
I0403 18:08:38.105203 16316 net.cpp:91] Creating Layer inception_5a/5x5
I0403 18:08:38.105221 16316 net.cpp:425] inception_5a/5x5 <- inception_5a/5x5_reduce
I0403 18:08:38.105242 16316 net.cpp:399] inception_5a/5x5 -> inception_5a/5x5
I0403 18:08:38.106987 16316 net.cpp:141] Setting up inception_5a/5x5
I0403 18:08:38.107028 16316 net.cpp:148] Top shape: 24 128 7 7 (150528)
I0403 18:08:38.107044 16316 net.cpp:156] Memory required for data: 1299953184
I0403 18:08:38.107062 16316 layer_factory.hpp:77] Creating layer inception_5a/relu_5x5
I0403 18:08:38.107084 16316 net.cpp:91] Creating Layer inception_5a/relu_5x5
I0403 18:08:38.107101 16316 net.cpp:425] inception_5a/relu_5x5 <- inception_5a/5x5
I0403 18:08:38.107118 16316 net.cpp:386] inception_5a/relu_5x5 -> inception_5a/5x5 (in-place)
I0403 18:08:38.107307 16316 net.cpp:141] Setting up inception_5a/relu_5x5
I0403 18:08:38.107336 16316 net.cpp:148] Top shape: 24 128 7 7 (150528)
I0403 18:08:38.107352 16316 net.cpp:156] Memory required for data: 1300555296
I0403 18:08:38.107367 16316 layer_factory.hpp:77] Creating layer inception_5a/pool
I0403 18:08:38.107384 16316 net.cpp:91] Creating Layer inception_5a/pool
I0403 18:08:38.107400 16316 net.cpp:425] inception_5a/pool <- pool4/3x3_s2_pool4/3x3_s2_0_split_3
I0403 18:08:38.107419 16316 net.cpp:399] inception_5a/pool -> inception_5a/pool
I0403 18:08:38.107489 16316 net.cpp:141] Setting up inception_5a/pool
I0403 18:08:38.107513 16316 net.cpp:148] Top shape: 24 832 7 7 (978432)
I0403 18:08:38.107528 16316 net.cpp:156] Memory required for data: 1304469024
I0403 18:08:38.107543 16316 layer_factory.hpp:77] Creating layer inception_5a/pool_proj
I0403 18:08:38.107564 16316 net.cpp:91] Creating Layer inception_5a/pool_proj
I0403 18:08:38.107583 16316 net.cpp:425] inception_5a/pool_proj <- inception_5a/pool
I0403 18:08:38.107604 16316 net.cpp:399] inception_5a/pool_proj -> inception_5a/pool_proj
I0403 18:08:38.109927 16316 net.cpp:141] Setting up inception_5a/pool_proj
I0403 18:08:38.109956 16316 net.cpp:148] Top shape: 24 128 7 7 (150528)
I0403 18:08:38.109972 16316 net.cpp:156] Memory required for data: 1305071136
I0403 18:08:38.109993 16316 layer_factory.hpp:77] Creating layer inception_5a/relu_pool_proj
I0403 18:08:38.110014 16316 net.cpp:91] Creating Layer inception_5a/relu_pool_proj
I0403 18:08:38.110031 16316 net.cpp:425] inception_5a/relu_pool_proj <- inception_5a/pool_proj
I0403 18:08:38.110049 16316 net.cpp:386] inception_5a/relu_pool_proj -> inception_5a/pool_proj (in-place)
I0403 18:08:38.110337 16316 net.cpp:141] Setting up inception_5a/relu_pool_proj
I0403 18:08:38.110363 16316 net.cpp:148] Top shape: 24 128 7 7 (150528)
I0403 18:08:38.110378 16316 net.cpp:156] Memory required for data: 1305673248
I0403 18:08:38.110393 16316 layer_factory.hpp:77] Creating layer inception_5a/output
I0403 18:08:38.110409 16316 net.cpp:91] Creating Layer inception_5a/output
I0403 18:08:38.110425 16316 net.cpp:425] inception_5a/output <- inception_5a/1x1
I0403 18:08:38.110441 16316 net.cpp:425] inception_5a/output <- inception_5a/3x3
I0403 18:08:38.110460 16316 net.cpp:425] inception_5a/output <- inception_5a/5x5
I0403 18:08:38.110476 16316 net.cpp:425] inception_5a/output <- inception_5a/pool_proj
I0403 18:08:38.110493 16316 net.cpp:399] inception_5a/output -> inception_5a/output
I0403 18:08:38.110540 16316 net.cpp:141] Setting up inception_5a/output
I0403 18:08:38.110565 16316 net.cpp:148] Top shape: 24 832 7 7 (978432)
I0403 18:08:38.110580 16316 net.cpp:156] Memory required for data: 1309586976
I0403 18:08:38.110594 16316 layer_factory.hpp:77] Creating layer inception_5a/output_inception_5a/output_0_split
I0403 18:08:38.110611 16316 net.cpp:91] Creating Layer inception_5a/output_inception_5a/output_0_split
I0403 18:08:38.110626 16316 net.cpp:425] inception_5a/output_inception_5a/output_0_split <- inception_5a/output
I0403 18:08:38.110646 16316 net.cpp:399] inception_5a/output_inception_5a/output_0_split -> inception_5a/output_inception_5a/output_0_split_0
I0403 18:08:38.110667 16316 net.cpp:399] inception_5a/output_inception_5a/output_0_split -> inception_5a/output_inception_5a/output_0_split_1
I0403 18:08:38.110687 16316 net.cpp:399] inception_5a/output_inception_5a/output_0_split -> inception_5a/output_inception_5a/output_0_split_2
I0403 18:08:38.110705 16316 net.cpp:399] inception_5a/output_inception_5a/output_0_split -> inception_5a/output_inception_5a/output_0_split_3
I0403 18:08:38.110813 16316 net.cpp:141] Setting up inception_5a/output_inception_5a/output_0_split
I0403 18:08:38.110838 16316 net.cpp:148] Top shape: 24 832 7 7 (978432)
I0403 18:08:38.110854 16316 net.cpp:148] Top shape: 24 832 7 7 (978432)
I0403 18:08:38.110869 16316 net.cpp:148] Top shape: 24 832 7 7 (978432)
I0403 18:08:38.110885 16316 net.cpp:148] Top shape: 24 832 7 7 (978432)
I0403 18:08:38.110898 16316 net.cpp:156] Memory required for data: 1325241888
I0403 18:08:38.110913 16316 layer_factory.hpp:77] Creating layer inception_5b/1x1
I0403 18:08:38.110932 16316 net.cpp:91] Creating Layer inception_5b/1x1
I0403 18:08:38.110949 16316 net.cpp:425] inception_5b/1x1 <- inception_5a/output_inception_5a/output_0_split_0
I0403 18:08:38.110968 16316 net.cpp:399] inception_5b/1x1 -> inception_5b/1x1
I0403 18:08:38.114680 16316 net.cpp:141] Setting up inception_5b/1x1
I0403 18:08:38.114707 16316 net.cpp:148] Top shape: 24 384 7 7 (451584)
I0403 18:08:38.114723 16316 net.cpp:156] Memory required for data: 1327048224
I0403 18:08:38.114742 16316 layer_factory.hpp:77] Creating layer inception_5b/relu_1x1
I0403 18:08:38.114758 16316 net.cpp:91] Creating Layer inception_5b/relu_1x1
I0403 18:08:38.114774 16316 net.cpp:425] inception_5b/relu_1x1 <- inception_5b/1x1
I0403 18:08:38.114794 16316 net.cpp:386] inception_5b/relu_1x1 -> inception_5b/1x1 (in-place)
I0403 18:08:38.115103 16316 net.cpp:141] Setting up inception_5b/relu_1x1
I0403 18:08:38.115128 16316 net.cpp:148] Top shape: 24 384 7 7 (451584)
I0403 18:08:38.115144 16316 net.cpp:156] Memory required for data: 1328854560
I0403 18:08:38.115159 16316 layer_factory.hpp:77] Creating layer inception_5b/3x3_reduce
I0403 18:08:38.115180 16316 net.cpp:91] Creating Layer inception_5b/3x3_reduce
I0403 18:08:38.115197 16316 net.cpp:425] inception_5b/3x3_reduce <- inception_5a/output_inception_5a/output_0_split_1
I0403 18:08:38.115219 16316 net.cpp:399] inception_5b/3x3_reduce -> inception_5b/3x3_reduce
I0403 18:08:38.117861 16316 net.cpp:141] Setting up inception_5b/3x3_reduce
I0403 18:08:38.117890 16316 net.cpp:148] Top shape: 24 192 7 7 (225792)
I0403 18:08:38.117907 16316 net.cpp:156] Memory required for data: 1329757728
I0403 18:08:38.117925 16316 layer_factory.hpp:77] Creating layer inception_5b/relu_3x3_reduce
I0403 18:08:38.117944 16316 net.cpp:91] Creating Layer inception_5b/relu_3x3_reduce
I0403 18:08:38.117961 16316 net.cpp:425] inception_5b/relu_3x3_reduce <- inception_5b/3x3_reduce
I0403 18:08:38.117987 16316 net.cpp:386] inception_5b/relu_3x3_reduce -> inception_5b/3x3_reduce (in-place)
I0403 18:08:38.118176 16316 net.cpp:141] Setting up inception_5b/relu_3x3_reduce
I0403 18:08:38.118201 16316 net.cpp:148] Top shape: 24 192 7 7 (225792)
I0403 18:08:38.118216 16316 net.cpp:156] Memory required for data: 1330660896
I0403 18:08:38.118230 16316 layer_factory.hpp:77] Creating layer inception_5b/3x3
I0403 18:08:38.118252 16316 net.cpp:91] Creating Layer inception_5b/3x3
I0403 18:08:38.118271 16316 net.cpp:425] inception_5b/3x3 <- inception_5b/3x3_reduce
I0403 18:08:38.118290 16316 net.cpp:399] inception_5b/3x3 -> inception_5b/3x3
I0403 18:08:38.124866 16316 net.cpp:141] Setting up inception_5b/3x3
I0403 18:08:38.124894 16316 net.cpp:148] Top shape: 24 384 7 7 (451584)
I0403 18:08:38.124910 16316 net.cpp:156] Memory required for data: 1332467232
I0403 18:08:38.124929 16316 layer_factory.hpp:77] Creating layer inception_5b/relu_3x3
I0403 18:08:38.124950 16316 net.cpp:91] Creating Layer inception_5b/relu_3x3
I0403 18:08:38.124966 16316 net.cpp:425] inception_5b/relu_3x3 <- inception_5b/3x3
I0403 18:08:38.124989 16316 net.cpp:386] inception_5b/relu_3x3 -> inception_5b/3x3 (in-place)
I0403 18:08:38.125298 16316 net.cpp:141] Setting up inception_5b/relu_3x3
I0403 18:08:38.125324 16316 net.cpp:148] Top shape: 24 384 7 7 (451584)
I0403 18:08:38.125339 16316 net.cpp:156] Memory required for data: 1334273568
I0403 18:08:38.125355 16316 layer_factory.hpp:77] Creating layer inception_5b/5x5_reduce
I0403 18:08:38.125391 16316 net.cpp:91] Creating Layer inception_5b/5x5_reduce
I0403 18:08:38.125411 16316 net.cpp:425] inception_5b/5x5_reduce <- inception_5a/output_inception_5a/output_0_split_2
I0403 18:08:38.125432 16316 net.cpp:399] inception_5b/5x5_reduce -> inception_5b/5x5_reduce
I0403 18:08:38.126688 16316 net.cpp:141] Setting up inception_5b/5x5_reduce
I0403 18:08:38.126714 16316 net.cpp:148] Top shape: 24 48 7 7 (56448)
I0403 18:08:38.126730 16316 net.cpp:156] Memory required for data: 1334499360
I0403 18:08:38.126749 16316 layer_factory.hpp:77] Creating layer inception_5b/relu_5x5_reduce
I0403 18:08:38.126768 16316 net.cpp:91] Creating Layer inception_5b/relu_5x5_reduce
I0403 18:08:38.126785 16316 net.cpp:425] inception_5b/relu_5x5_reduce <- inception_5b/5x5_reduce
I0403 18:08:38.126801 16316 net.cpp:386] inception_5b/relu_5x5_reduce -> inception_5b/5x5_reduce (in-place)
I0403 18:08:38.127182 16316 net.cpp:141] Setting up inception_5b/relu_5x5_reduce
I0403 18:08:38.127209 16316 net.cpp:148] Top shape: 24 48 7 7 (56448)
I0403 18:08:38.127225 16316 net.cpp:156] Memory required for data: 1334725152
I0403 18:08:38.127240 16316 layer_factory.hpp:77] Creating layer inception_5b/5x5
I0403 18:08:38.127260 16316 net.cpp:91] Creating Layer inception_5b/5x5
I0403 18:08:38.127277 16316 net.cpp:425] inception_5b/5x5 <- inception_5b/5x5_reduce
I0403 18:08:38.127296 16316 net.cpp:399] inception_5b/5x5 -> inception_5b/5x5
I0403 18:08:38.129345 16316 net.cpp:141] Setting up inception_5b/5x5
I0403 18:08:38.129374 16316 net.cpp:148] Top shape: 24 128 7 7 (150528)
I0403 18:08:38.129390 16316 net.cpp:156] Memory required for data: 1335327264
I0403 18:08:38.129408 16316 layer_factory.hpp:77] Creating layer inception_5b/relu_5x5
I0403 18:08:38.129429 16316 net.cpp:91] Creating Layer inception_5b/relu_5x5
I0403 18:08:38.129446 16316 net.cpp:425] inception_5b/relu_5x5 <- inception_5b/5x5
I0403 18:08:38.129477 16316 net.cpp:386] inception_5b/relu_5x5 -> inception_5b/5x5 (in-place)
I0403 18:08:38.129667 16316 net.cpp:141] Setting up inception_5b/relu_5x5
I0403 18:08:38.129693 16316 net.cpp:148] Top shape: 24 128 7 7 (150528)
I0403 18:08:38.129709 16316 net.cpp:156] Memory required for data: 1335929376
I0403 18:08:38.129722 16316 layer_factory.hpp:77] Creating layer inception_5b/pool
I0403 18:08:38.129739 16316 net.cpp:91] Creating Layer inception_5b/pool
I0403 18:08:38.129755 16316 net.cpp:425] inception_5b/pool <- inception_5a/output_inception_5a/output_0_split_3
I0403 18:08:38.129776 16316 net.cpp:399] inception_5b/pool -> inception_5b/pool
I0403 18:08:38.129845 16316 net.cpp:141] Setting up inception_5b/pool
I0403 18:08:38.129868 16316 net.cpp:148] Top shape: 24 832 7 7 (978432)
I0403 18:08:38.129884 16316 net.cpp:156] Memory required for data: 1339843104
I0403 18:08:38.129897 16316 layer_factory.hpp:77] Creating layer inception_5b/pool_proj
I0403 18:08:38.129919 16316 net.cpp:91] Creating Layer inception_5b/pool_proj
I0403 18:08:38.129935 16316 net.cpp:425] inception_5b/pool_proj <- inception_5b/pool
I0403 18:08:38.129956 16316 net.cpp:399] inception_5b/pool_proj -> inception_5b/pool_proj
I0403 18:08:38.132217 16316 net.cpp:141] Setting up inception_5b/pool_proj
I0403 18:08:38.132246 16316 net.cpp:148] Top shape: 24 128 7 7 (150528)
I0403 18:08:38.132261 16316 net.cpp:156] Memory required for data: 1340445216
I0403 18:08:38.132279 16316 layer_factory.hpp:77] Creating layer inception_5b/relu_pool_proj
I0403 18:08:38.132299 16316 net.cpp:91] Creating Layer inception_5b/relu_pool_proj
I0403 18:08:38.132316 16316 net.cpp:425] inception_5b/relu_pool_proj <- inception_5b/pool_proj
I0403 18:08:38.132333 16316 net.cpp:386] inception_5b/relu_pool_proj -> inception_5b/pool_proj (in-place)
I0403 18:08:38.132632 16316 net.cpp:141] Setting up inception_5b/relu_pool_proj
I0403 18:08:38.132658 16316 net.cpp:148] Top shape: 24 128 7 7 (150528)
I0403 18:08:38.132673 16316 net.cpp:156] Memory required for data: 1341047328
I0403 18:08:38.132686 16316 layer_factory.hpp:77] Creating layer inception_5b/output
I0403 18:08:38.132704 16316 net.cpp:91] Creating Layer inception_5b/output
I0403 18:08:38.132733 16316 net.cpp:425] inception_5b/output <- inception_5b/1x1
I0403 18:08:38.132751 16316 net.cpp:425] inception_5b/output <- inception_5b/3x3
I0403 18:08:38.132767 16316 net.cpp:425] inception_5b/output <- inception_5b/5x5
I0403 18:08:38.132783 16316 net.cpp:425] inception_5b/output <- inception_5b/pool_proj
I0403 18:08:38.132802 16316 net.cpp:399] inception_5b/output -> inception_5b/output
I0403 18:08:38.132855 16316 net.cpp:141] Setting up inception_5b/output
I0403 18:08:38.132879 16316 net.cpp:148] Top shape: 24 1024 7 7 (1204224)
I0403 18:08:38.132892 16316 net.cpp:156] Memory required for data: 1345864224
I0403 18:08:38.132907 16316 layer_factory.hpp:77] Creating layer pool5/7x7_s1
I0403 18:08:38.132926 16316 net.cpp:91] Creating Layer pool5/7x7_s1
I0403 18:08:38.132942 16316 net.cpp:425] pool5/7x7_s1 <- inception_5b/output
I0403 18:08:38.132962 16316 net.cpp:399] pool5/7x7_s1 -> pool5/7x7_s1
I0403 18:08:38.133190 16316 net.cpp:141] Setting up pool5/7x7_s1
I0403 18:08:38.133215 16316 net.cpp:148] Top shape: 24 1024 1 1 (24576)
I0403 18:08:38.133231 16316 net.cpp:156] Memory required for data: 1345962528
I0403 18:08:38.133245 16316 layer_factory.hpp:77] Creating layer pool5/drop_7x7_s1
I0403 18:08:38.133265 16316 net.cpp:91] Creating Layer pool5/drop_7x7_s1
I0403 18:08:38.133282 16316 net.cpp:425] pool5/drop_7x7_s1 <- pool5/7x7_s1
I0403 18:08:38.133301 16316 net.cpp:386] pool5/drop_7x7_s1 -> pool5/7x7_s1 (in-place)
I0403 18:08:38.133353 16316 net.cpp:141] Setting up pool5/drop_7x7_s1
I0403 18:08:38.133376 16316 net.cpp:148] Top shape: 24 1024 1 1 (24576)
I0403 18:08:38.133391 16316 net.cpp:156] Memory required for data: 1346060832
I0403 18:08:38.133405 16316 layer_factory.hpp:77] Creating layer loss3/classifier_plantvillage
I0403 18:08:38.133424 16316 net.cpp:91] Creating Layer loss3/classifier_plantvillage
I0403 18:08:38.133440 16316 net.cpp:425] loss3/classifier_plantvillage <- pool5/7x7_s1
I0403 18:08:38.133473 16316 net.cpp:399] loss3/classifier_plantvillage -> loss3/classifier_plantvillage
I0403 18:08:38.133891 16316 net.cpp:141] Setting up loss3/classifier_plantvillage
I0403 18:08:38.133915 16316 net.cpp:148] Top shape: 24 38 (912)
I0403 18:08:38.133930 16316 net.cpp:156] Memory required for data: 1346064480
I0403 18:08:38.133947 16316 layer_factory.hpp:77] Creating layer loss3/classifier_plantvillage_loss3/classifier_plantvillage_0_split
I0403 18:08:38.133965 16316 net.cpp:91] Creating Layer loss3/classifier_plantvillage_loss3/classifier_plantvillage_0_split
I0403 18:08:38.133983 16316 net.cpp:425] loss3/classifier_plantvillage_loss3/classifier_plantvillage_0_split <- loss3/classifier_plantvillage
I0403 18:08:38.134007 16316 net.cpp:399] loss3/classifier_plantvillage_loss3/classifier_plantvillage_0_split -> loss3/classifier_plantvillage_loss3/classifier_plantvillage_0_split_0
I0403 18:08:38.134040 16316 net.cpp:399] loss3/classifier_plantvillage_loss3/classifier_plantvillage_0_split -> loss3/classifier_plantvillage_loss3/classifier_plantvillage_0_split_1
I0403 18:08:38.134060 16316 net.cpp:399] loss3/classifier_plantvillage_loss3/classifier_plantvillage_0_split -> loss3/classifier_plantvillage_loss3/classifier_plantvillage_0_split_2
I0403 18:08:38.134080 16316 net.cpp:399] loss3/classifier_plantvillage_loss3/classifier_plantvillage_0_split -> loss3/classifier_plantvillage_loss3/classifier_plantvillage_0_split_3
I0403 18:08:38.134181 16316 net.cpp:141] Setting up loss3/classifier_plantvillage_loss3/classifier_plantvillage_0_split
I0403 18:08:38.134205 16316 net.cpp:148] Top shape: 24 38 (912)
I0403 18:08:38.134222 16316 net.cpp:148] Top shape: 24 38 (912)
I0403 18:08:38.134238 16316 net.cpp:148] Top shape: 24 38 (912)
I0403 18:08:38.134253 16316 net.cpp:148] Top shape: 24 38 (912)
I0403 18:08:38.134265 16316 net.cpp:156] Memory required for data: 1346079072
I0403 18:08:38.134279 16316 layer_factory.hpp:77] Creating layer loss1/loss
I0403 18:08:38.134301 16316 net.cpp:91] Creating Layer loss1/loss
I0403 18:08:38.134318 16316 net.cpp:425] loss1/loss <- loss1/classifier_plantvillage_loss1/classifier_plantvillage_0_split_0
I0403 18:08:38.134361 16316 net.cpp:425] loss1/loss <- label_data_1_split_0
…
