…
I0403 15:32:32.259640  3205 net.cpp:313] The NetState phase (1) differed from the phase (0) specified by a rule in layer data
I0403 15:32:32.260854  3205 net.cpp:49] Initializing net from parameters: 
state {
  phase: TEST
}
layer {
  name: "data"
  type: "Data"
  top: "data"
  top: "label"
  include {
    phase: TEST
  }
  transform_param {
    mirror: false
    crop_size: 224
    mean_file: "/home/mohanty/data/final_dataset/lmdb/segmented-60-40/mean.binaryproto"
  }
  data_param {
    source: "/home/mohanty/data/final_dataset/lmdb/segmented-60-40/test_db"
    batch_size: 24
    backend: LMDB
  }
}
layer {
  name: "conv1/7x7_s2"
  type: "Convolution"
  bottom: "data"
  top: "conv1/7x7_s2"
  param {
    lr_mult: 1
    decay_mult: 1
  }
  param {
    lr_mult: 2
    decay_mult: 0
  }
  convolution_param {
    num_output: 64
    pad: 3
    kernel_size: 7
    stride: 2
    weight_filler {
      type: "xavier"
      std: 0.1
    }
    bias_filler {
      type: "constant"
      value: 0.2
    }
  }
}
layer {
  name: "conv1/relu_7x7"
  type: "ReLU"
  bottom: "conv1/7x7_s2"
  top: "conv1/7x7_s2"
}
layer {
  name: "pool1/3x3_s2"
  type: "Pooling"
  bottom: "conv1/7x7_s2"
  top: "pool1/3x3_s2"
  pooling_param {
    pool: MAX
    kernel_size: 3
    stride: 2
  }
}
layer {
  name: "pool1/norm1"
  type: "LRN"
  bottom: "pool1/3x3_s2"
  top: "pool1/norm1"
  lrn_param {
    local_size: 5
    alpha: 0.0001
    beta: 0.75
  }
}
layer {
  name: "conv2/3x3_reduce"
  type: "Convolution"
  bottom: "pool1/norm1"
  top: "conv2/3x3_reduce"
  param {
    lr_mult: 1
    decay_mult: 1
  }
  param {
    lr_mult: 2
    decay_mult: 0
  }
  convolution_param {
    num_output: 64
    kernel_size: 1
    weight_filler {
      type: "xavier"
      std: 0.1
    }
    bias_filler {
      type: "constant"
      value: 0.2
    }
  }
}
layer {
  name: "conv2/relu_3x3_reduce"
  type: "ReLU"
  bottom: "conv2/3x3_reduce"
  top: "conv2/3x3_reduce"
}
layer {
  name: "conv2/3x3"
  type: "Convolution"
  bottom: "conv2/3x3_reduce"
  top: "conv2/3x3"
  param {
    lr_mult: 1
    decay_mult: 1
  }
  param {
    lr_mult: 2
    decay_mult: 0
  }
  convolution_param {
    num_output: 192
    pad: 1
    kernel_size: 3
    weight_filler {
      type: "xavier"
      std: 0.03
    }
    bias_filler {
      type: "constant"
      value: 0.2
    }
  }
}
layer {
  name: "conv2/relu_3x3"
  type: "ReLU"
  bottom: "conv2/3x3"
  top: "conv2/3x3"
}
layer {
  name: "conv2/norm2"
  type: "LRN"
  bottom: "conv2/3x3"
  top: "conv2/norm2"
  lrn_param {
    local_size: 5
    alpha: 0.0001
    beta: 0.75
  }
}
layer {
  name: "pool2/3x3_s2"
  type: "Pooling"
  bottom: "conv2/norm2"
  top: "pool2/3x3_s2"
  pooling_param {
    pool: MAX
    kernel_size: 3
    stride: 2
  }
}
layer {
  name: "inception_3a/1x1"
  type: "Convolution"
  bottom: "pool2/3x3_s2"
  top: "inception_3a/1x1"
  param {
    lr_mult: 1
    decay_mult: 1
  }
  param {
    lr_mult: 2
    decay_mult: 0
  }
  convolution_param {
    num_output: 64
    kernel_size: 1
    weight_filler {
      type: "xavier"
      std: 0.03
    }
    bias_filler {
      type: "constant"
      value: 0.2
    }
  }
}
layer {
  name: "inception_3a/relu_1x1"
  type: "ReLU"
  bottom: "inception_3a/1x1"
  top: "inception_3a/1x1"
}
layer {
  name: "inception_3a/3x3_reduce"
  type: "Convolution"
  bottom: "pool2/3x3_s2"
  top: "inception_3a/3x3_reduce"
  param {
    lr_mult: 1
    decay_mult: 1
  }
  param {
    lr_mult: 2
    decay_mult: 0
  }
  convolution_param {
    num_output: 96
    kernel_size: 1
    weight_filler {
      type: "xavier"
      std: 0.09
    }
    bias_filler {
      type: "constant"
      value: 0.2
    }
  }
}
layer {
  name: "inception_3a/relu_3x3_reduce"
  type: "ReLU"
  bottom: "inception_3a/3x3_reduce"
  top: "inception_3a/3x3_reduce"
}
layer {
  name: "inception_3a/3x3"
  type: "Convolution"
  bottom: "inception_3a/3x3_reduce"
  top: "inception_3a/3x3"
  param {
    lr_mult: 1
    decay_mult: 1
  }
  param {
    lr_mult: 2
    decay_mult: 0
  }
  convolution_param {
    num_output: 128
    pad: 1
    kernel_size: 3
    weight_filler {
      type: "xavier"
      std: 0.03
    }
    bias_filler {
      type: "constant"
      value: 0.2
    }
  }
}
layer {
  name: "inception_3a/relu_3x3"
  type: "ReLU"
  bottom: "inception_3a/3x3"
  top: "inception_3a/3x3"
}
layer {
  name: "inception_3a/5x5_reduce"
  type: "Convolution"
  bottom: "pool2/3x3_s2"
  top: "inception_3a/5x5_reduce"
  param {
    lr_mult: 1
    decay_mult: 1
  }
  param {
    lr_mult: 2
    decay_mult: 0
  }
  convolution_param {
    num_output: 16
    kernel_size: 1
    weight_filler {
      type: "xavier"
      std: 0.2
    }
    bias_filler {
      type: "constant"
      value: 0.2
    }
  }
}
layer {
  name: "inception_3a/relu_5x5_reduce"
  type: "ReLU"
  bottom: "inception_3a/5x5_reduce"
  top: "inception_3a/5x5_reduce"
}
layer {
  name: "inception_3a/5x5"
  type: "Convolution"
  bottom: "inception_3a/5x5_reduce"
  top: "inception_3a/5x5"
  param {
    lr_mult: 1
    decay_mult: 1
  }
  param {
    lr_mult: 2
    decay_mult: 0
  }
  convolution_param {
    num_output: 32
    pad: 2
    kernel_size: 5
    weight_filler {
      type: "xavier"
      std: 0.03
    }
    bias_filler {
      type: "constant"
      value: 0.2
    }
  }
}
layer {
  name: "inception_3a/relu_5x5"
  type: "ReLU"
  bottom: "inception_3a/5x5"
  top: "inception_3a/5x5"
}
layer {
  name: "inception_3a/pool"
  type: "Pooling"
  bottom: "pool2/3x3_s2"
  top: "inception_3a/pool"
  pooling_param {
    pool: MAX
    kernel_size: 3
    stride: 1
    pad: 1
  }
}
layer {
  name: "inception_3a/pool_proj"
  type: "Convolution"
  bottom: "inception_3a/pool"
  top: "inception_3a/pool_proj"
  param {
    lr_mult: 1
    decay_mult: 1
  }
  param {
    lr_mult: 2
    decay_mult: 0
  }
  convolution_param {
    num_output: 32
    kernel_size: 1
    weight_filler {
      type: "xavier"
      std: 0.1
    }
    bias_filler {
      type: "constant"
      value: 0.2
    }
  }
}
layer {
  name: "inception_3a/relu_pool_proj"
  type: "ReLU"
  bottom: "inception_3a/pool_proj"
  top: "inception_3a/pool_proj"
}
layer {
  name: "inception_3a/output"
  type: "Concat"
  bottom: "inception_3a/1x1"
  bottom: "inception_3a/3x3"
  bottom: "inception_3a/5x5"
  bottom: "inception_3a/pool_proj"
  top: "inception_3a/output"
}
layer {
  name: "inception_3b/1x1"
  type: "Convolution"
  bottom: "inception_3a/output"
  top: "inception_3b/1x1"
  param {
    lr_mult: 1
    decay_mult: 1
  }
  param {
    lr_mult: 2
    decay_mult: 0
  }
  convolution_param {
    num_output: 128
    kernel_size: 1
    weight_filler {
      type: "xavier"
      std: 0.03
    }
    bias_filler {
      type: "constant"
      value: 0.2
    }
  }
}
layer {
  name: "inception_3b/relu_1x1"
  type: "ReLU"
  bottom: "inception_3b/1x1"
  top: "inception_3b/1x1"
}
layer {
  name: "inception_3b/3x3_reduce"
  type: "Convolution"
  bottom: "inception_3a/output"
  top: "inception_3b/3x3_reduce"
  param {
    lr_mult: 1
    decay_mult: 1
  }
  param {
    lr_mult: 2
    decay_mult: 0
  }
  convolution_param {
    num_output: 128
    kernel_size: 1
    weight_filler {
      type: "xavier"
      std: 0.09
    }
    bias_filler {
      type: "constant"
      value: 0.2
    }
  }
}
layer {
  name: "inception_3b/relu_3x3_reduce"
  type: "ReLU"
  bottom: "inception_3b/3x3_reduce"
  top: "inception_3b/3x3_reduce"
}
layer {
  name: "inception_3b/3x3"
  type: "Convolution"
  bottom: "inception_3b/3x3_reduce"
  top: "inception_3b/3x3"
  param {
    lr_mult: 1
    decay_mult: 1
  }
  param {
    lr_mult: 2
    decay_mult: 0
  }
  convolution_param {
    num_output: 192
    pad: 1
    kernel_size: 3
    weight_filler {
      type: "xavier"
      std: 0.03
    }
    bias_filler {
      type: "constant"
      value: 0.2
    }
  }
}
layer {
  name: "inception_3b/relu_3x3"
  type: "ReLU"
  bottom: "inception_3b/3x3"
  top: "inception_3b/3x3"
}
layer {
  name: "inception_3b/5x5_reduce"
  type: "Convolution"
  bottom: "inception_3a/output"
  top: "inception_3b/5x5_reduce"
  param {
    lr_mult: 1
    decay_mult: 1
  }
  param {
    lr_mult: 2
    decay_mult: 0
  }
  convolution_param {
    num_output: 32
    kernel_size: 1
    weight_filler {
      type: "xavier"
      std: 0.2
    }
    bias_filler {
      type: "constant"
      value: 0.2
    }
  }
}
layer {
  name: "inception_3b/relu_5x5_reduce"
  type: "ReLU"
  bottom: "inception_3b/5x5_reduce"
  top: "inception_3b/5x5_reduce"
}
layer {
  name: "inception_3b/5x5"
  type: "Convolution"
  bottom: "inception_3b/5x5_reduce"
  top: "inception_3b/5x5"
  param {
    lr_mult: 1
    decay_mult: 1
  }
  param {
    lr_mult: 2
    decay_mult: 0
  }
  convolution_param {
    num_output: 96
    pad: 2
    kernel_size: 5
    weight_filler {
      type: "xavier"
      std: 0.03
    }
    bias_filler {
      type: "constant"
      value: 0.2
    }
  }
}
layer {
  name: "inception_3b/relu_5x5"
  type: "ReLU"
  bottom: "inception_3b/5x5"
  top: "inception_3b/5x5"
}
layer {
  name: "inception_3b/pool"
  type: "Pooling"
  bottom: "inception_3a/output"
  top: "inception_3b/pool"
  pooling_param {
    pool: MAX
    kernel_size: 3
    stride: 1
    pad: 1
  }
}
layer {
  name: "inception_3b/pool_proj"
  type: "Convolution"
  bottom: "inception_3b/pool"
  top: "inception_3b/pool_proj"
  param {
    lr_mult: 1
    decay_mult: 1
  }
  param {
    lr_mult: 2
    decay_mult: 0
  }
  convolution_param {
    num_output: 64
    kernel_size: 1
    weight_filler {
      type: "xavier"
      std: 0.1
    }
    bias_filler {
      type: "constant"
      value: 0.2
    }
  }
}
layer {
  name: "inception_3b/relu_pool_proj"
  type: "ReLU"
  bottom: "inception_3b/pool_proj"
  top: "inception_3b/pool_proj"
}
layer {
  name: "inception_3b/output"
  type: "Concat"
  bottom: "inception_3b/1x1"
  bottom: "inception_3b/3x3"
  bottom: "inception_3b/5x5"
  bottom: "inception_3b/pool_proj"
  top: "inception_3b/output"
}
layer {
  name: "pool3/3x3_s2"
  type: "Pooling"
  bottom: "inception_3b/output"
  top: "pool3/3x3_s2"
  pooling_param {
    pool: MAX
    kernel_size: 3
    stride: 2
  }
}
layer {
  name: "inception_4a/1x1"
  type: "Convolution"
  bottom: "pool3/3x3_s2"
  top: "inception_4a/1x1"
  param {
    lr_mult: 1
    decay_mult: 1
  }
  param {
    lr_mult: 2
    decay_mult: 0
  }
  convolution_param {
    num_output: 192
    kernel_size: 1
    weight_filler {
      type: "xavier"
      std: 0.03
    }
    bias_filler {
      type: "constant"
      value: 0.2
    }
  }
}
layer {
  name: "inception_4a/relu_1x1"
  type: "ReLU"
  bottom: "inception_4a/1x1"
  top: "inception_4a/1x1"
}
layer {
  name: "inception_4a/3x3_reduce"
  type: "Convolution"
  bottom: "pool3/3x3_s2"
  top: "inception_4a/3x3_reduce"
  param {
    lr_mult: 1
    decay_mult: 1
  }
  param {
    lr_mult: 2
    decay_mult: 0
  }
  convolution_param {
    num_output: 96
    kernel_size: 1
    weight_filler {
      type: "xavier"
      std: 0.09
    }
    bias_filler {
      type: "constant"
      value: 0.2
    }
  }
}
layer {
  name: "inception_4a/relu_3x3_reduce"
  type: "ReLU"
  bottom: "inception_4a/3x3_reduce"
  top: "inception_4a/3x3_reduce"
}
layer {
  name: "inception_4a/3x3"
  type: "Convolution"
  bottom: "inception_4a/3x3_reduce"
  top: "inception_4a/3x3"
  param {
    lr_mult: 1
    decay_mult: 1
  }
  param {
    lr_mult: 2
    decay_mult: 0
  }
  convolution_param {
    num_output: 208
    pad: 1
    kernel_size: 3
    weight_filler {
      type: "xavier"
      std: 0.03
    }
    bias_filler {
      type: "constant"
      value: 0.2
    }
  }
}
layer {
  name: "inception_4a/relu_3x3"
  type: "ReLU"
  bottom: "inception_4a/3x3"
  top: "inception_4a/3x3"
}
layer {
  name: "inception_4a/5x5_reduce"
  type: "Convolution"
  bottom: "pool3/3x3_s2"
  top: "inception_4a/5x5_reduce"
  param {
    lr_mult: 1
    decay_mult: 1
  }
  param {
    lr_mult: 2
    decay_mult: 0
  }
  convolution_param {
    num_output: 16
    kernel_size: 1
    weight_filler {
      type: "xavier"
      std: 0.2
    }
    bias_filler {
      type: "constant"
      value: 0.2
    }
  }
}
layer {
  name: "inception_4a/relu_5x5_reduce"
  type: "ReLU"
  bottom: "inception_4a/5x5_reduce"
  top: "inception_4a/5x5_reduce"
}
layer {
  name: "inception_4a/5x5"
  type: "Convolution"
  bottom: "inception_4a/5x5_reduce"
  top: "inception_4a/5x5"
  param {
    lr_mult: 1
    decay_mult: 1
  }
  param {
    lr_mult: 2
    decay_mult: 0
  }
  convolution_param {
    num_output: 48
    pad: 2
    kernel_size: 5
    weight_filler {
      type: "xavier"
      std: 0.03
    }
    bias_filler {
      type: "constant"
      value: 0.2
    }
  }
}
layer {
  name: "inception_4a/relu_5x5"
  type: "ReLU"
  bottom: "inception_4a/5x5"
  top: "inception_4a/5x5"
}
layer {
  name: "inception_4a/pool"
  type: "Pooling"
  bottom: "pool3/3x3_s2"
  top: "inception_4a/pool"
  pooling_param {
    pool: MAX
    kernel_size: 3
    stride: 1
    pad: 1
  }
}
layer {
  name: "inception_4a/pool_proj"
  type: "Convolution"
  bottom: "inception_4a/pool"
  top: "inception_4a/pool_proj"
  param {
    lr_mult: 1
    decay_mult: 1
  }
  param {
    lr_mult: 2
    decay_mult: 0
  }
  convolution_param {
    num_output: 64
    kernel_size: 1
    weight_filler {
      type: "xavier"
      std: 0.1
    }
    bias_filler {
      type: "constant"
      value: 0.2
    }
  }
}
layer {
  name: "inception_4a/relu_pool_proj"
  type: "ReLU"
  bottom: "inception_4a/pool_proj"
  top: "inception_4a/pool_proj"
}
layer {
  name: "inception_4a/output"
  type: "Concat"
  bottom: "inception_4a/1x1"
  bottom: "inception_4a/3x3"
  bottom: "inception_4a/5x5"
  bottom: "inception_4a/pool_proj"
  top: "inception_4a/output"
}
layer {
  name: "loss1/ave_pool"
  type: "Pooling"
  bottom: "inception_4a/output"
  top: "loss1/ave_pool"
  pooling_param {
    pool: AVE
    kernel_size: 5
    stride: 3
  }
}
layer {
  name: "loss1/conv"
  type: "Convolution"
  bottom: "loss1/ave_pool"
  top: "loss1/conv"
  param {
    lr_mult: 1
    decay_mult: 1
  }
  param {
    lr_mult: 2
    decay_mult: 0
  }
  convolution_param {
    num_output: 128
    kernel_size: 1
    weight_filler {
      type: "xavier"
      std: 0.08
    }
    bias_filler {
      type: "constant"
      value: 0.2
    }
  }
}
layer {
  name: "loss1/relu_conv"
  type: "ReLU"
  bottom: "loss1/conv"
  top: "loss1/conv"
}
layer {
  name: "loss1/fc"
  type: "InnerProduct"
  bottom: "loss1/conv"
  top: "loss1/fc"
  param {
    lr_mult: 1
    decay_mult: 1
  }
  param {
    lr_mult: 2
    decay_mult: 0
  }
  inner_product_param {
    num_output: 1024
    weight_filler {
      type: "xavier"
      std: 0.02
    }
    bias_filler {
      type: "constant"
      value: 0.2
    }
  }
}
layer {
  name: "loss1/relu_fc"
  type: "ReLU"
  bottom: "loss1/fc"
  top: "loss1/fc"
}
layer {
  name: "loss1/drop_fc"
  type: "Dropout"
  bottom: "loss1/fc"
  top: "loss1/fc"
  dropout_param {
    dropout_ratio: 0.7
  }
}
layer {
  name: "loss1/classifier_plantvillage"
  type: "InnerProduct"
  bottom: "loss1/fc"
  top: "loss1/classifier_plantvillage"
  param {
    lr_mult: 1
    decay_mult: 1
  }
  param {
    lr_mult: 2
    decay_mult: 0
  }
  inner_product_param {
    num_output: 38
    weight_filler {
      type: "xavier"
      std: 0.0009765625
    }
    bias_filler {
      type: "constant"
      value: 0
    }
  }
}
layer {
  name: "inception_4b/1x1"
  type: "Convolution"
  bottom: "inception_4a/output"
  top: "inception_4b/1x1"
  param {
    lr_mult: 1
    decay_mult: 1
  }
  param {
    lr_mult: 2
    decay_mult: 0
  }
  convolution_param {
    num_output: 160
    kernel_size: 1
    weight_filler {
      type: "xavier"
      std: 0.03
    }
    bias_filler {
      type: "constant"
      value: 0.2
    }
  }
}
layer {
  name: "inception_4b/relu_1x1"
  type: "ReLU"
  bottom: "inception_4b/1x1"
  top: "inception_4b/1x1"
}
layer {
  name: "inception_4b/3x3_reduce"
  type: "Convolution"
  bottom: "inception_4a/output"
  top: "inception_4b/3x3_reduce"
  param {
    lr_mult: 1
    decay_mult: 1
  }
  param {
    lr_mult: 2
    decay_mult: 0
  }
  convolution_param {
    num_output: 112
    kernel_size: 1
    weight_filler {
      type: "xavier"
      std: 0.09
    }
    bias_filler {
      type: "constant"
      value: 0.2
    }
  }
}
layer {
  name: "inception_4b/relu_3x3_reduce"
  type: "ReLU"
  bottom: "inception_4b/3x3_reduce"
  top: "inception_4b/3x3_reduce"
}
layer {
  name: "inception_4b/3x3"
  type: "Convolution"
  bottom: "inception_4b/3x3_reduce"
  top: "inception_4b/3x3"
  param {
    lr_mult: 1
    decay_mult: 1
  }
  param {
    lr_mult: 2
    decay_mult: 0
  }
  convolution_param {
    num_output: 224
    pad: 1
    kernel_size: 3
    weight_filler {
      type: "xavier"
      std: 0.03
    }
    bias_filler {
      type: "constant"
      value: 0.2
    }
  }
}
layer {
  name: "inception_4b/relu_3x3"
  type: "ReLU"
  bottom: "inception_4b/3x3"
  top: "inception_4b/3x3"
}
layer {
  name: "inception_4b/5x5_reduce"
  type: "Convolution"
  bottom: "inception_4a/output"
  top: "inception_4b/5x5_reduce"
  param {
    lr_mult: 1
    decay_mult: 1
  }
  param {
    lr_mult: 2
    decay_mult: 0
  }
  convolution_param {
    num_output: 24
    kernel_size: 1
    weight_filler {
      type: "xavier"
      std: 0.2
    }
    bias_filler {
      type: "constant"
      value: 0.2
    }
  }
}
layer {
  name: "inception_4b/relu_5x5_reduce"
  type: "ReLU"
  bottom: "inception_4b/5x5_reduce"
  top: "inception_4b/5x5_reduce"
}
layer {
  name: "inception_4b/5x5"
  type: "Convolution"
  bottom: "inception_4b/5x5_reduce"
  top: "inception_4b/5x5"
  param {
    lr_mult: 1
    decay_mult: 1
  }
  param {
    lr_mult: 2
    decay_mult: 0
  }
  convolution_param {
    num_output: 64
    pad: 2
    kernel_size: 5
    weight_filler {
      type: "xavier"
      std: 0.03
    }
    bias_filler {
      type: "constant"
      value: 0.2
    }
  }
}
layer {
  name: "inception_4b/relu_5x5"
  type: "ReLU"
  bottom: "inception_4b/5x5"
  top: "inception_4b/5x5"
}
layer {
  name: "inception_4b/pool"
  type: "Pooling"
  bottom: "inception_4a/output"
  top: "inception_4b/pool"
  pooling_param {
    pool: MAX
    kernel_size: 3
    stride: 1
    pad: 1
  }
}
layer {
  name: "inception_4b/pool_proj"
  type: "Convolution"
  bottom: "inception_4b/pool"
  top: "inception_4b/pool_proj"
  param {
    lr_mult: 1
    decay_mult: 1
  }
  param {
    lr_mult: 2
    decay_mult: 0
  }
  convolution_param {
    num_output: 64
    kernel_size: 1
    weight_filler {
      type: "xavier"
      std: 0.1
    }
    bias_filler {
      type: "constant"
      value: 0.2
    }
  }
}
layer {
  name: "inception_4b/relu_pool_proj"
  type: "ReLU"
  bottom: "inception_4b/pool_proj"
  top: "inception_4b/pool_proj"
}
layer {
  name: "inception_4b/output"
  type: "Concat"
  bottom: "inception_4b/1x1"
  bottom: "inception_4b/3x3"
  bottom: "inception_4b/5x5"
  bottom: "inception_4b/pool_proj"
  top: "inception_4b/output"
}
layer {
  name: "inception_4c/1x1"
  type: "Convolution"
  bottom: "inception_4b/output"
  top: "inception_4c/1x1"
  param {
    lr_mult: 1
    decay_mult: 1
  }
  param {
    lr_mult: 2
    decay_mult: 0
  }
  convolution_param {
    num_output: 128
    kernel_size: 1
    weight_filler {
      type: "xavier"
      std: 0.03
    }
    bias_filler {
      type: "constant"
      value: 0.2
    }
  }
}
layer {
  name: "inception_4c/relu_1x1"
  type: "ReLU"
  bottom: "inception_4c/1x1"
  top: "inception_4c/1x1"
}
layer {
  name: "inception_4c/3x3_reduce"
  type: "Convolution"
  bottom: "inception_4b/output"
  top: "inception_4c/3x3_reduce"
  param {
    lr_mult: 1
    decay_mult: 1
  }
  param {
    lr_mult: 2
    decay_mult: 0
  }
  convolution_param {
    num_output: 128
    kernel_size: 1
    weight_filler {
      type: "xavier"
      std: 0.09
    }
    bias_filler {
      type: "constant"
      value: 0.2
    }
  }
}
layer {
  name: "inception_4c/relu_3x3_reduce"
  type: "ReLU"
  bottom: "inception_4c/3x3_reduce"
  top: "inception_4c/3x3_reduce"
}
layer {
  name: "inception_4c/3x3"
  type: "Convolution"
  bottom: "inception_4c/3x3_reduce"
  top: "inception_4c/3x3"
  param {
    lr_mult: 1
    decay_mult: 1
  }
  param {
    lr_mult: 2
    decay_mult: 0
  }
  convolution_param {
    num_output: 256
    pad: 1
    kernel_size: 3
    weight_filler {
      type: "xavier"
      std: 0.03
    }
    bias_filler {
      type: "constant"
      value: 0.2
    }
  }
}
layer {
  name: "inception_4c/relu_3x3"
  type: "ReLU"
  bottom: "inception_4c/3x3"
  top: "inception_4c/3x3"
}
layer {
  name: "inception_4c/5x5_reduce"
  type: "Convolution"
  bottom: "inception_4b/output"
  top: "inception_4c/5x5_reduce"
  param {
    lr_mult: 1
    decay_mult: 1
  }
  param {
    lr_mult: 2
    decay_mult: 0
  }
  convolution_param {
    num_output: 24
    kernel_size: 1
    weight_filler {
      type: "xavier"
      std: 0.2
    }
    bias_filler {
      type: "constant"
      value: 0.2
    }
  }
}
layer {
  name: "inception_4c/relu_5x5_reduce"
  type: "ReLU"
  bottom: "inception_4c/5x5_reduce"
  top: "inception_4c/5x5_reduce"
}
layer {
  name: "inception_4c/5x5"
  type: "Convolution"
  bottom: "inception_4c/5x5_reduce"
  top: "inception_4c/5x5"
  param {
    lr_mult: 1
    decay_mult: 1
  }
  param {
    lr_mult: 2
    decay_mult: 0
  }
  convolution_param {
    num_output: 64
    pad: 2
    kernel_size: 5
    weight_filler {
      type: "xavier"
      std: 0.03
    }
    bias_filler {
      type: "constant"
      value: 0.2
    }
  }
}
layer {
  name: "inception_4c/relu_5x5"
  type: "ReLU"
  bottom: "inception_4c/5x5"
  top: "inception_4c/5x5"
}
layer {
  name: "inception_4c/pool"
  type: "Pooling"
  bottom: "inception_4b/output"
  top: "inception_4c/pool"
  pooling_param {
    pool: MAX
    kernel_size: 3
    stride: 1
    pad: 1
  }
}
layer {
  name: "inception_4c/pool_proj"
  type: "Convolution"
  bottom: "inception_4c/pool"
  top: "inception_4c/pool_proj"
  param {
    lr_mult: 1
    decay_mult: 1
  }
  param {
    lr_mult: 2
    decay_mult: 0
  }
  convolution_param {
    num_output: 64
    kernel_size: 1
    weight_filler {
      type: "xavier"
      std: 0.1
    }
    bias_filler {
      type: "constant"
      value: 0.2
    }
  }
}
layer {
  name: "inception_4c/relu_pool_proj"
  type: "ReLU"
  bottom: "inception_4c/pool_proj"
  top: "inception_4c/pool_proj"
}
layer {
  name: "inception_4c/output"
  type: "Concat"
  bottom: "inception_4c/1x1"
  bottom: "inception_4c/3x3"
  bottom: "inception_4c/5x5"
  bottom: "inception_4c/pool_proj"
  top: "inception_4c/output"
}
layer {
  name: "inception_4d/1x1"
  type: "Convolution"
  bottom: "inception_4c/output"
  top: "inception_4d/1x1"
  param {
    lr_mult: 1
    decay_mult: 1
  }
  param {
    lr_mult: 2
    decay_mult: 0
  }
  convolution_param {
    num_output: 112
    kernel_size: 1
    weight_filler {
      type: "xavier"
      std: 0.03
    }
    bias_filler {
      type: "constant"
      value: 0.2
    }
  }
}
layer {
  name: "inception_4d/relu_1x1"
  type: "ReLU"
  bottom: "inception_4d/1x1"
  top: "inception_4d/1x1"
}
layer {
  name: "inception_4d/3x3_reduce"
  type: "Convolution"
  bottom: "inception_4c/output"
  top: "inception_4d/3x3_reduce"
  param {
    lr_mult: 1
    decay_mult: 1
  }
  param {
    lr_mult: 2
    decay_mult: 0
  }
  convolution_param {
    num_output: 144
    kernel_size: 1
    weight_filler {
      type: "xavier"
      std: 0.09
    }
    bias_filler {
      type: "constant"
      value: 0.2
    }
  }
}
layer {
  name: "inception_4d/relu_3x3_reduce"
  type: "ReLU"
  bottom: "inception_4d/3x3_reduce"
  top: "inception_4d/3x3_reduce"
}
layer {
  name: "inception_4d/3x3"
  type: "Convolution"
  bottom: "inception_4d/3x3_reduce"
  top: "inception_4d/3x3"
  param {
    lr_mult: 1
    decay_mult: 1
  }
  param {
    lr_mult: 2
    decay_mult: 0
  }
  convolution_param {
    num_output: 288
    pad: 1
    kernel_size: 3
    weight_filler {
      type: "xavier"
      std: 0.03
    }
    bias_filler {
      type: "constant"
      value: 0.2
    }
  }
}
layer {
  name: "inception_4d/relu_3x3"
  type: "ReLU"
  bottom: "inception_4d/3x3"
  top: "inception_4d/3x3"
}
layer {
  name: "inception_4d/5x5_reduce"
  type: "Convolution"
  bottom: "inception_4c/output"
  top: "inception_4d/5x5_reduce"
  param {
    lr_mult: 1
    decay_mult: 1
  }
  param {
    lr_mult: 2
    decay_mult: 0
  }
  convolution_param {
    num_output: 32
    kernel_size: 1
    weight_filler {
      type: "xavier"
      std: 0.2
    }
    bias_filler {
      type: "constant"
      value: 0.2
    }
  }
}
layer {
  name: "inception_4d/relu_5x5_reduce"
  type: "ReLU"
  bottom: "inception_4d/5x5_reduce"
  top: "inception_4d/5x5_reduce"
}
layer {
  name: "inception_4d/5x5"
  type: "Convolution"
  bottom: "inception_4d/5x5_reduce"
  top: "inception_4d/5x5"
  param {
    lr_mult: 1
    decay_mult: 1
  }
  param {
    lr_mult: 2
    decay_mult: 0
  }
  convolution_param {
    num_output: 64
    pad: 2
    kernel_size: 5
    weight_filler {
      type: "xavier"
      std: 0.03
    }
    bias_filler {
      type: "constant"
      value: 0.2
    }
  }
}
layer {
  name: "inception_4d/relu_5x5"
  type: "ReLU"
  bottom: "inception_4d/5x5"
  top: "inception_4d/5x5"
}
layer {
  name: "inception_4d/pool"
  type: "Pooling"
  bottom: "inception_4c/output"
  top: "inception_4d/pool"
  pooling_param {
    pool: MAX
    kernel_size: 3
    stride: 1
    pad: 1
  }
}
layer {
  name: "inception_4d/pool_proj"
  type: "Convolution"
  bottom: "inception_4d/pool"
  top: "inception_4d/pool_proj"
  param {
    lr_mult: 1
    decay_mult: 1
  }
  param {
    lr_mult: 2
    decay_mult: 0
  }
  convolution_param {
    num_output: 64
    kernel_size: 1
    weight_filler {
      type: "xavier"
      std: 0.1
    }
    bias_filler {
      type: "constant"
      value: 0.2
    }
  }
}
layer {
  name: "inception_4d/relu_pool_proj"
  type: "ReLU"
  bottom: "inception_4d/pool_proj"
  top: "inception_4d/pool_proj"
}
layer {
  name: "inception_4d/output"
  type: "Concat"
  bottom: "inception_4d/1x1"
  bottom: "inception_4d/3x3"
  bottom: "inception_4d/5x5"
  bottom: "inception_4d/pool_proj"
  top: "inception_4d/output"
}
layer {
  name: "loss2/ave_pool"
  type: "Pooling"
  bottom: "inception_4d/output"
  top: "loss2/ave_pool"
  pooling_param {
    pool: AVE
    kernel_size: 5
    stride: 3
  }
}
layer {
  name: "loss2/conv"
  type: "Convolution"
  bottom: "loss2/ave_pool"
  top: "loss2/conv"
  param {
    lr_mult: 1
    decay_mult: 1
  }
  param {
    lr_mult: 2
    decay_mult: 0
  }
  convolution_param {
    num_output: 128
    kernel_size: 1
    weight_filler {
      type: "xavier"
      std: 0.08
    }
    bias_filler {
      type: "constant"
      value: 0.2
    }
  }
}
layer {
  name: "loss2/relu_conv"
  type: "ReLU"
  bottom: "loss2/conv"
  top: "loss2/conv"
}
layer {
  name: "loss2/fc"
  type: "InnerProduct"
  bottom: "loss2/conv"
  top: "loss2/fc"
  param {
    lr_mult: 1
    decay_mult: 1
  }
  param {
    lr_mult: 2
    decay_mult: 0
  }
  inner_product_param {
    num_output: 1024
    weight_filler {
      type: "xavier"
      std: 0.02
    }
    bias_filler {
      type: "constant"
      value: 0.2
    }
  }
}
layer {
  name: "loss2/relu_fc"
  type: "ReLU"
  bottom: "loss2/fc"
  top: "loss2/fc"
}
layer {
  name: "loss2/drop_fc"
  type: "Dropout"
  bottom: "loss2/fc"
  top: "loss2/fc"
  dropout_param {
    dropout_ratio: 0.7
  }
}
layer {
  name: "loss2/classifier_plantvillage"
  type: "InnerProduct"
  bottom: "loss2/fc"
  top: "loss2/classifier_plantvillage"
  param {
    lr_mult: 1
    decay_mult: 1
  }
  param {
    lr_mult: 2
    decay_mult: 0
  }
  inner_product_param {
    num_output: 38
    weight_filler {
      type: "xavier"
      std: 0.0009765625
    }
    bias_filler {
      type: "constant"
      value: 0
    }
  }
}
layer {
  name: "inception_4e/1x1"
  type: "Convolution"
  bottom: "inception_4d/output"
  top: "inception_4e/1x1"
  param {
    lr_mult: 1
    decay_mult: 1
  }
  param {
    lr_mult: 2
    decay_mult: 0
  }
  convolution_param {
    num_output: 256
    kernel_size: 1
    weight_filler {
      type: "xavier"
      std: 0.03
    }
    bias_filler {
      type: "constant"
      value: 0.2
    }
  }
}
layer {
  name: "inception_4e/relu_1x1"
  type: "ReLU"
  bottom: "inception_4e/1x1"
  top: "inception_4e/1x1"
}
layer {
  name: "inception_4e/3x3_reduce"
  type: "Convolution"
  bottom: "inception_4d/output"
  top: "inception_4e/3x3_reduce"
  param {
    lr_mult: 1
    decay_mult: 1
  }
  param {
    lr_mult: 2
    decay_mult: 0
  }
  convolution_param {
    num_output: 160
    kernel_size: 1
    weight_filler {
      type: "xavier"
      std: 0.09
    }
    bias_filler {
      type: "constant"
      value: 0.2
    }
  }
}
layer {
  name: "inception_4e/relu_3x3_reduce"
  type: "ReLU"
  bottom: "inception_4e/3x3_reduce"
  top: "inception_4e/3x3_reduce"
}
layer {
  name: "inception_4e/3x3"
  type: "Convolution"
  bottom: "inception_4e/3x3_reduce"
  top: "inception_4e/3x3"
  param {
    lr_mult: 1
    decay_mult: 1
  }
  param {
    lr_mult: 2
    decay_mult: 0
  }
  convolution_param {
    num_output: 320
    pad: 1
    kernel_size: 3
    weight_filler {
      type: "xavier"
      std: 0.03
    }
    bias_filler {
      type: "constant"
      value: 0.2
    }
  }
}
layer {
  name: "inception_4e/relu_3x3"
  type: "ReLU"
  bottom: "inception_4e/3x3"
  top: "inception_4e/3x3"
}
layer {
  name: "inception_4e/5x5_reduce"
  type: "Convolution"
  bottom: "inception_4d/output"
  top: "inception_4e/5x5_reduce"
  param {
    lr_mult: 1
    decay_mult: 1
  }
  param {
    lr_mult: 2
    decay_mult: 0
  }
  convolution_param {
    num_output: 32
    kernel_size: 1
    weight_filler {
      type: "xavier"
      std: 0.2
    }
    bias_filler {
      type: "constant"
      value: 0.2
    }
  }
}
layer {
  name: "inception_4e/relu_5x5_reduce"
  type: "ReLU"
  bottom: "inception_4e/5x5_reduce"
  top: "inception_4e/5x5_reduce"
}
layer {
  name: "inception_4e/5x5"
  type: "Convolution"
  bottom: "inception_4e/5x5_reduce"
  top: "inception_4e/
I0403 15:32:32.262082  3205 layer_factory.hpp:77] Creating layer data
I0403 15:32:32.262697  3205 net.cpp:91] Creating Layer data
I0403 15:32:32.262727  3205 net.cpp:399] data -> data
I0403 15:32:32.262780  3205 net.cpp:399] data -> label
I0403 15:32:32.262817  3205 data_transformer.cpp:25] Loading mean file from: /home/mohanty/data/final_dataset/lmdb/segmented-60-40/mean.binaryproto
I0403 15:32:32.265677  3209 db_lmdb.cpp:38] Opened lmdb /home/mohanty/data/final_dataset/lmdb/segmented-60-40/test_db
I0403 15:32:32.275979  3205 data_layer.cpp:41] output data size: 24,3,224,224
I0403 15:32:32.304704  3205 net.cpp:141] Setting up data
I0403 15:32:32.304806  3205 net.cpp:148] Top shape: 24 3 224 224 (3612672)
I0403 15:32:32.304829  3205 net.cpp:148] Top shape: 24 (24)
I0403 15:32:32.304844  3205 net.cpp:156] Memory required for data: 14450784
I0403 15:32:32.304872  3205 layer_factory.hpp:77] Creating layer label_data_1_split
I0403 15:32:32.304899  3205 net.cpp:91] Creating Layer label_data_1_split
I0403 15:32:32.304919  3205 net.cpp:425] label_data_1_split <- label
I0403 15:32:32.304950  3205 net.cpp:399] label_data_1_split -> label_data_1_split_0
I0403 15:32:32.304980  3205 net.cpp:399] label_data_1_split -> label_data_1_split_1
I0403 15:32:32.305001  3205 net.cpp:399] label_data_1_split -> label_data_1_split_2
I0403 15:32:32.305022  3205 net.cpp:399] label_data_1_split -> label_data_1_split_3
I0403 15:32:32.305042  3205 net.cpp:399] label_data_1_split -> label_data_1_split_4
I0403 15:32:32.305063  3205 net.cpp:399] label_data_1_split -> label_data_1_split_5
I0403 15:32:32.305083  3205 net.cpp:399] label_data_1_split -> label_data_1_split_6
I0403 15:32:32.305104  3205 net.cpp:399] label_data_1_split -> label_data_1_split_7
I0403 15:32:32.305124  3205 net.cpp:399] label_data_1_split -> label_data_1_split_8
I0403 15:32:32.305145  3205 net.cpp:399] label_data_1_split -> label_data_1_split_9
I0403 15:32:32.305272  3205 net.cpp:141] Setting up label_data_1_split
I0403 15:32:32.305296  3205 net.cpp:148] Top shape: 24 (24)
I0403 15:32:32.305315  3205 net.cpp:148] Top shape: 24 (24)
I0403 15:32:32.305332  3205 net.cpp:148] Top shape: 24 (24)
I0403 15:32:32.305348  3205 net.cpp:148] Top shape: 24 (24)
I0403 15:32:32.305364  3205 net.cpp:148] Top shape: 24 (24)
I0403 15:32:32.305380  3205 net.cpp:148] Top shape: 24 (24)
I0403 15:32:32.305397  3205 net.cpp:148] Top shape: 24 (24)
I0403 15:32:32.305413  3205 net.cpp:148] Top shape: 24 (24)
I0403 15:32:32.305428  3205 net.cpp:148] Top shape: 24 (24)
I0403 15:32:32.305445  3205 net.cpp:148] Top shape: 24 (24)
I0403 15:32:32.305491  3205 net.cpp:156] Memory required for data: 14451744
I0403 15:32:32.305508  3205 layer_factory.hpp:77] Creating layer conv1/7x7_s2
I0403 15:32:32.305541  3205 net.cpp:91] Creating Layer conv1/7x7_s2
I0403 15:32:32.305559  3205 net.cpp:425] conv1/7x7_s2 <- data
I0403 15:32:32.305579  3205 net.cpp:399] conv1/7x7_s2 -> conv1/7x7_s2
I0403 15:32:32.450109  3205 net.cpp:141] Setting up conv1/7x7_s2
I0403 15:32:32.450155  3205 net.cpp:148] Top shape: 24 64 112 112 (19267584)
I0403 15:32:32.450172  3205 net.cpp:156] Memory required for data: 91522080
I0403 15:32:32.450206  3205 layer_factory.hpp:77] Creating layer conv1/relu_7x7
I0403 15:32:32.450238  3205 net.cpp:91] Creating Layer conv1/relu_7x7
I0403 15:32:32.450258  3205 net.cpp:425] conv1/relu_7x7 <- conv1/7x7_s2
I0403 15:32:32.450278  3205 net.cpp:386] conv1/relu_7x7 -> conv1/7x7_s2 (in-place)
I0403 15:32:32.450544  3205 net.cpp:141] Setting up conv1/relu_7x7
I0403 15:32:32.450572  3205 net.cpp:148] Top shape: 24 64 112 112 (19267584)
I0403 15:32:32.450588  3205 net.cpp:156] Memory required for data: 168592416
I0403 15:32:32.450603  3205 layer_factory.hpp:77] Creating layer pool1/3x3_s2
I0403 15:32:32.450629  3205 net.cpp:91] Creating Layer pool1/3x3_s2
I0403 15:32:32.450647  3205 net.cpp:425] pool1/3x3_s2 <- conv1/7x7_s2
I0403 15:32:32.450666  3205 net.cpp:399] pool1/3x3_s2 -> pool1/3x3_s2
I0403 15:32:32.450742  3205 net.cpp:141] Setting up pool1/3x3_s2
I0403 15:32:32.450765  3205 net.cpp:148] Top shape: 24 64 56 56 (4816896)
I0403 15:32:32.450781  3205 net.cpp:156] Memory required for data: 187860000
I0403 15:32:32.450796  3205 layer_factory.hpp:77] Creating layer pool1/norm1
I0403 15:32:32.450821  3205 net.cpp:91] Creating Layer pool1/norm1
I0403 15:32:32.450839  3205 net.cpp:425] pool1/norm1 <- pool1/3x3_s2
I0403 15:32:32.450857  3205 net.cpp:399] pool1/norm1 -> pool1/norm1
I0403 15:32:32.451181  3205 net.cpp:141] Setting up pool1/norm1
I0403 15:32:32.451213  3205 net.cpp:148] Top shape: 24 64 56 56 (4816896)
I0403 15:32:32.451231  3205 net.cpp:156] Memory required for data: 207127584
I0403 15:32:32.451246  3205 layer_factory.hpp:77] Creating layer conv2/3x3_reduce
I0403 15:32:32.451272  3205 net.cpp:91] Creating Layer conv2/3x3_reduce
I0403 15:32:32.451289  3205 net.cpp:425] conv2/3x3_reduce <- pool1/norm1
I0403 15:32:32.451309  3205 net.cpp:399] conv2/3x3_reduce -> conv2/3x3_reduce
I0403 15:32:32.452728  3205 net.cpp:141] Setting up conv2/3x3_reduce
I0403 15:32:32.452757  3205 net.cpp:148] Top shape: 24 64 56 56 (4816896)
I0403 15:32:32.452775  3205 net.cpp:156] Memory required for data: 226395168
I0403 15:32:32.452796  3205 layer_factory.hpp:77] Creating layer conv2/relu_3x3_reduce
I0403 15:32:32.452816  3205 net.cpp:91] Creating Layer conv2/relu_3x3_reduce
I0403 15:32:32.452832  3205 net.cpp:425] conv2/relu_3x3_reduce <- conv2/3x3_reduce
I0403 15:32:32.452852  3205 net.cpp:386] conv2/relu_3x3_reduce -> conv2/3x3_reduce (in-place)
I0403 15:32:32.453112  3205 net.cpp:141] Setting up conv2/relu_3x3_reduce
I0403 15:32:32.453140  3205 net.cpp:148] Top shape: 24 64 56 56 (4816896)
I0403 15:32:32.453155  3205 net.cpp:156] Memory required for data: 245662752
I0403 15:32:32.453171  3205 layer_factory.hpp:77] Creating layer conv2/3x3
I0403 15:32:32.453197  3205 net.cpp:91] Creating Layer conv2/3x3
I0403 15:32:32.453219  3205 net.cpp:425] conv2/3x3 <- conv2/3x3_reduce
I0403 15:32:32.453239  3205 net.cpp:399] conv2/3x3 -> conv2/3x3
I0403 15:32:32.455584  3205 net.cpp:141] Setting up conv2/3x3
I0403 15:32:32.455634  3205 net.cpp:148] Top shape: 24 192 56 56 (14450688)
I0403 15:32:32.455657  3205 net.cpp:156] Memory required for data: 303465504
I0403 15:32:32.455679  3205 layer_factory.hpp:77] Creating layer conv2/relu_3x3
I0403 15:32:32.455701  3205 net.cpp:91] Creating Layer conv2/relu_3x3
I0403 15:32:32.455719  3205 net.cpp:425] conv2/relu_3x3 <- conv2/3x3
I0403 15:32:32.455737  3205 net.cpp:386] conv2/relu_3x3 -> conv2/3x3 (in-place)
I0403 15:32:32.455926  3205 net.cpp:141] Setting up conv2/relu_3x3
I0403 15:32:32.455952  3205 net.cpp:148] Top shape: 24 192 56 56 (14450688)
I0403 15:32:32.455999  3205 net.cpp:156] Memory required for data: 361268256
I0403 15:32:32.456017  3205 layer_factory.hpp:77] Creating layer conv2/norm2
I0403 15:32:32.456042  3205 net.cpp:91] Creating Layer conv2/norm2
I0403 15:32:32.456059  3205 net.cpp:425] conv2/norm2 <- conv2/3x3
I0403 15:32:32.456078  3205 net.cpp:399] conv2/norm2 -> conv2/norm2
I0403 15:32:32.456399  3205 net.cpp:141] Setting up conv2/norm2
I0403 15:32:32.456429  3205 net.cpp:148] Top shape: 24 192 56 56 (14450688)
I0403 15:32:32.456446  3205 net.cpp:156] Memory required for data: 419071008
I0403 15:32:32.456462  3205 layer_factory.hpp:77] Creating layer pool2/3x3_s2
I0403 15:32:32.456480  3205 net.cpp:91] Creating Layer pool2/3x3_s2
I0403 15:32:32.456496  3205 net.cpp:425] pool2/3x3_s2 <- conv2/norm2
I0403 15:32:32.456513  3205 net.cpp:399] pool2/3x3_s2 -> pool2/3x3_s2
I0403 15:32:32.456568  3205 net.cpp:141] Setting up pool2/3x3_s2
I0403 15:32:32.456593  3205 net.cpp:148] Top shape: 24 192 28 28 (3612672)
I0403 15:32:32.456609  3205 net.cpp:156] Memory required for data: 433521696
I0403 15:32:32.456624  3205 layer_factory.hpp:77] Creating layer pool2/3x3_s2_pool2/3x3_s2_0_split
I0403 15:32:32.456641  3205 net.cpp:91] Creating Layer pool2/3x3_s2_pool2/3x3_s2_0_split
I0403 15:32:32.456657  3205 net.cpp:425] pool2/3x3_s2_pool2/3x3_s2_0_split <- pool2/3x3_s2
I0403 15:32:32.456677  3205 net.cpp:399] pool2/3x3_s2_pool2/3x3_s2_0_split -> pool2/3x3_s2_pool2/3x3_s2_0_split_0
I0403 15:32:32.456698  3205 net.cpp:399] pool2/3x3_s2_pool2/3x3_s2_0_split -> pool2/3x3_s2_pool2/3x3_s2_0_split_1
I0403 15:32:32.456720  3205 net.cpp:399] pool2/3x3_s2_pool2/3x3_s2_0_split -> pool2/3x3_s2_pool2/3x3_s2_0_split_2
I0403 15:32:32.456743  3205 net.cpp:399] pool2/3x3_s2_pool2/3x3_s2_0_split -> pool2/3x3_s2_pool2/3x3_s2_0_split_3
I0403 15:32:32.456816  3205 net.cpp:141] Setting up pool2/3x3_s2_pool2/3x3_s2_0_split
I0403 15:32:32.456840  3205 net.cpp:148] Top shape: 24 192 28 28 (3612672)
I0403 15:32:32.456856  3205 net.cpp:148] Top shape: 24 192 28 28 (3612672)
I0403 15:32:32.456873  3205 net.cpp:148] Top shape: 24 192 28 28 (3612672)
I0403 15:32:32.456889  3205 net.cpp:148] Top shape: 24 192 28 28 (3612672)
I0403 15:32:32.456903  3205 net.cpp:156] Memory required for data: 491324448
I0403 15:32:32.456919  3205 layer_factory.hpp:77] Creating layer inception_3a/1x1
I0403 15:32:32.456944  3205 net.cpp:91] Creating Layer inception_3a/1x1
I0403 15:32:32.456962  3205 net.cpp:425] inception_3a/1x1 <- pool2/3x3_s2_pool2/3x3_s2_0_split_0
I0403 15:32:32.456984  3205 net.cpp:399] inception_3a/1x1 -> inception_3a/1x1
I0403 15:32:32.458613  3205 net.cpp:141] Setting up inception_3a/1x1
I0403 15:32:32.458647  3205 net.cpp:148] Top shape: 24 64 28 28 (1204224)
I0403 15:32:32.458690  3205 net.cpp:156] Memory required for data: 496141344
I0403 15:32:32.458712  3205 layer_factory.hpp:77] Creating layer inception_3a/relu_1x1
I0403 15:32:32.458731  3205 net.cpp:91] Creating Layer inception_3a/relu_1x1
I0403 15:32:32.458748  3205 net.cpp:425] inception_3a/relu_1x1 <- inception_3a/1x1
I0403 15:32:32.458770  3205 net.cpp:386] inception_3a/relu_1x1 -> inception_3a/1x1 (in-place)
I0403 15:32:32.458961  3205 net.cpp:141] Setting up inception_3a/relu_1x1
I0403 15:32:32.458986  3205 net.cpp:148] Top shape: 24 64 28 28 (1204224)
I0403 15:32:32.459002  3205 net.cpp:156] Memory required for data: 500958240
I0403 15:32:32.459017  3205 layer_factory.hpp:77] Creating layer inception_3a/3x3_reduce
I0403 15:32:32.459040  3205 net.cpp:91] Creating Layer inception_3a/3x3_reduce
I0403 15:32:32.459059  3205 net.cpp:425] inception_3a/3x3_reduce <- pool2/3x3_s2_pool2/3x3_s2_0_split_1
I0403 15:32:32.459080  3205 net.cpp:399] inception_3a/3x3_reduce -> inception_3a/3x3_reduce
I0403 15:32:32.460849  3205 net.cpp:141] Setting up inception_3a/3x3_reduce
I0403 15:32:32.460880  3205 net.cpp:148] Top shape: 24 96 28 28 (1806336)
I0403 15:32:32.460896  3205 net.cpp:156] Memory required for data: 508183584
I0403 15:32:32.460917  3205 layer_factory.hpp:77] Creating layer inception_3a/relu_3x3_reduce
I0403 15:32:32.460953  3205 net.cpp:91] Creating Layer inception_3a/relu_3x3_reduce
I0403 15:32:32.460971  3205 net.cpp:425] inception_3a/relu_3x3_reduce <- inception_3a/3x3_reduce
I0403 15:32:32.460991  3205 net.cpp:386] inception_3a/relu_3x3_reduce -> inception_3a/3x3_reduce (in-place)
I0403 15:32:32.461190  3205 net.cpp:141] Setting up inception_3a/relu_3x3_reduce
I0403 15:32:32.461225  3205 net.cpp:148] Top shape: 24 96 28 28 (1806336)
I0403 15:32:32.461243  3205 net.cpp:156] Memory required for data: 515408928
I0403 15:32:32.461258  3205 layer_factory.hpp:77] Creating layer inception_3a/3x3
I0403 15:32:32.461284  3205 net.cpp:91] Creating Layer inception_3a/3x3
I0403 15:32:32.461302  3205 net.cpp:425] inception_3a/3x3 <- inception_3a/3x3_reduce
I0403 15:32:32.461323  3205 net.cpp:399] inception_3a/3x3 -> inception_3a/3x3
I0403 15:32:32.463068  3205 net.cpp:141] Setting up inception_3a/3x3
I0403 15:32:32.463098  3205 net.cpp:148] Top shape: 24 128 28 28 (2408448)
I0403 15:32:32.463114  3205 net.cpp:156] Memory required for data: 525042720
I0403 15:32:32.463134  3205 layer_factory.hpp:77] Creating layer inception_3a/relu_3x3
I0403 15:32:32.463151  3205 net.cpp:91] Creating Layer inception_3a/relu_3x3
I0403 15:32:32.463168  3205 net.cpp:425] inception_3a/relu_3x3 <- inception_3a/3x3
I0403 15:32:32.463188  3205 net.cpp:386] inception_3a/relu_3x3 -> inception_3a/3x3 (in-place)
I0403 15:32:32.463482  3205 net.cpp:141] Setting up inception_3a/relu_3x3
I0403 15:32:32.463510  3205 net.cpp:148] Top shape: 24 128 28 28 (2408448)
I0403 15:32:32.463526  3205 net.cpp:156] Memory required for data: 534676512
I0403 15:32:32.463541  3205 layer_factory.hpp:77] Creating layer inception_3a/5x5_reduce
I0403 15:32:32.463564  3205 net.cpp:91] Creating Layer inception_3a/5x5_reduce
I0403 15:32:32.463582  3205 net.cpp:425] inception_3a/5x5_reduce <- pool2/3x3_s2_pool2/3x3_s2_0_split_2
I0403 15:32:32.463603  3205 net.cpp:399] inception_3a/5x5_reduce -> inception_3a/5x5_reduce
I0403 15:32:32.464618  3205 net.cpp:141] Setting up inception_3a/5x5_reduce
I0403 15:32:32.464648  3205 net.cpp:148] Top shape: 24 16 28 28 (301056)
I0403 15:32:32.464664  3205 net.cpp:156] Memory required for data: 535880736
I0403 15:32:32.464684  3205 layer_factory.hpp:77] Creating layer inception_3a/relu_5x5_reduce
I0403 15:32:32.464704  3205 net.cpp:91] Creating Layer inception_3a/relu_5x5_reduce
I0403 15:32:32.464720  3205 net.cpp:425] inception_3a/relu_5x5_reduce <- inception_3a/5x5_reduce
I0403 15:32:32.464740  3205 net.cpp:386] inception_3a/relu_5x5_reduce -> inception_3a/5x5_reduce (in-place)
I0403 15:32:32.465054  3205 net.cpp:141] Setting up inception_3a/relu_5x5_reduce
I0403 15:32:32.465082  3205 net.cpp:148] Top shape: 24 16 28 28 (301056)
I0403 15:32:32.465097  3205 net.cpp:156] Memory required for data: 537084960
I0403 15:32:32.465113  3205 layer_factory.hpp:77] Creating layer inception_3a/5x5
I0403 15:32:32.465137  3205 net.cpp:91] Creating Layer inception_3a/5x5
I0403 15:32:32.465154  3205 net.cpp:425] inception_3a/5x5 <- inception_3a/5x5_reduce
I0403 15:32:32.465178  3205 net.cpp:399] inception_3a/5x5 -> inception_3a/5x5
I0403 15:32:32.466253  3205 net.cpp:141] Setting up inception_3a/5x5
I0403 15:32:32.466285  3205 net.cpp:148] Top shape: 24 32 28 28 (602112)
I0403 15:32:32.466302  3205 net.cpp:156] Memory required for data: 539493408
I0403 15:32:32.466321  3205 layer_factory.hpp:77] Creating layer inception_3a/relu_5x5
I0403 15:32:32.466341  3205 net.cpp:91] Creating Layer inception_3a/relu_5x5
I0403 15:32:32.466357  3205 net.cpp:425] inception_3a/relu_5x5 <- inception_3a/5x5
I0403 15:32:32.466377  3205 net.cpp:386] inception_3a/relu_5x5 -> inception_3a/5x5 (in-place)
I0403 15:32:32.466562  3205 net.cpp:141] Setting up inception_3a/relu_5x5
I0403 15:32:32.466588  3205 net.cpp:148] Top shape: 24 32 28 28 (602112)
I0403 15:32:32.466601  3205 net.cpp:156] Memory required for data: 541901856
I0403 15:32:32.466617  3205 layer_factory.hpp:77] Creating layer inception_3a/pool
I0403 15:32:32.466635  3205 net.cpp:91] Creating Layer inception_3a/pool
I0403 15:32:32.466667  3205 net.cpp:425] inception_3a/pool <- pool2/3x3_s2_pool2/3x3_s2_0_split_3
I0403 15:32:32.466689  3205 net.cpp:399] inception_3a/pool -> inception_3a/pool
I0403 15:32:32.466750  3205 net.cpp:141] Setting up inception_3a/pool
I0403 15:32:32.466775  3205 net.cpp:148] Top shape: 24 192 28 28 (3612672)
I0403 15:32:32.466790  3205 net.cpp:156] Memory required for data: 556352544
I0403 15:32:32.466804  3205 layer_factory.hpp:77] Creating layer inception_3a/pool_proj
I0403 15:32:32.466827  3205 net.cpp:91] Creating Layer inception_3a/pool_proj
I0403 15:32:32.466845  3205 net.cpp:425] inception_3a/pool_proj <- inception_3a/pool
I0403 15:32:32.466867  3205 net.cpp:399] inception_3a/pool_proj -> inception_3a/pool_proj
I0403 15:32:32.467880  3205 net.cpp:141] Setting up inception_3a/pool_proj
I0403 15:32:32.467910  3205 net.cpp:148] Top shape: 24 32 28 28 (602112)
I0403 15:32:32.467926  3205 net.cpp:156] Memory required for data: 558760992
I0403 15:32:32.467950  3205 layer_factory.hpp:77] Creating layer inception_3a/relu_pool_proj
I0403 15:32:32.467974  3205 net.cpp:91] Creating Layer inception_3a/relu_pool_proj
I0403 15:32:32.467991  3205 net.cpp:425] inception_3a/relu_pool_proj <- inception_3a/pool_proj
I0403 15:32:32.468009  3205 net.cpp:386] inception_3a/relu_pool_proj -> inception_3a/pool_proj (in-place)
I0403 15:32:32.468302  3205 net.cpp:141] Setting up inception_3a/relu_pool_proj
I0403 15:32:32.468329  3205 net.cpp:148] Top shape: 24 32 28 28 (602112)
I0403 15:32:32.468344  3205 net.cpp:156] Memory required for data: 561169440
I0403 15:32:32.468361  3205 layer_factory.hpp:77] Creating layer inception_3a/output
I0403 15:32:32.468380  3205 net.cpp:91] Creating Layer inception_3a/output
I0403 15:32:32.468397  3205 net.cpp:425] inception_3a/output <- inception_3a/1x1
I0403 15:32:32.468415  3205 net.cpp:425] inception_3a/output <- inception_3a/3x3
I0403 15:32:32.468430  3205 net.cpp:425] inception_3a/output <- inception_3a/5x5
I0403 15:32:32.468446  3205 net.cpp:425] inception_3a/output <- inception_3a/pool_proj
I0403 15:32:32.468469  3205 net.cpp:399] inception_3a/output -> inception_3a/output
I0403 15:32:32.468518  3205 net.cpp:141] Setting up inception_3a/output
I0403 15:32:32.468544  3205 net.cpp:148] Top shape: 24 256 28 28 (4816896)
I0403 15:32:32.468560  3205 net.cpp:156] Memory required for data: 580437024
I0403 15:32:32.468576  3205 layer_factory.hpp:77] Creating layer inception_3a/output_inception_3a/output_0_split
I0403 15:32:32.468595  3205 net.cpp:91] Creating Layer inception_3a/output_inception_3a/output_0_split
I0403 15:32:32.468611  3205 net.cpp:425] inception_3a/output_inception_3a/output_0_split <- inception_3a/output
I0403 15:32:32.468627  3205 net.cpp:399] inception_3a/output_inception_3a/output_0_split -> inception_3a/output_inception_3a/output_0_split_0
I0403 15:32:32.468652  3205 net.cpp:399] inception_3a/output_inception_3a/output_0_split -> inception_3a/output_inception_3a/output_0_split_1
I0403 15:32:32.468675  3205 net.cpp:399] inception_3a/output_inception_3a/output_0_split -> inception_3a/output_inception_3a/output_0_split_2
I0403 15:32:32.468696  3205 net.cpp:399] inception_3a/output_inception_3a/output_0_split -> inception_3a/output_inception_3a/output_0_split_3
I0403 15:32:32.468773  3205 net.cpp:141] Setting up inception_3a/output_inception_3a/output_0_split
I0403 15:32:32.468799  3205 net.cpp:148] Top shape: 24 256 28 28 (4816896)
I0403 15:32:32.468816  3205 net.cpp:148] Top shape: 24 256 28 28 (4816896)
I0403 15:32:32.468833  3205 net.cpp:148] Top shape: 24 256 28 28 (4816896)
I0403 15:32:32.468849  3205 net.cpp:148] Top shape: 24 256 28 28 (4816896)
I0403 15:32:32.468864  3205 net.cpp:156] Memory required for data: 657507360
I0403 15:32:32.468879  3205 layer_factory.hpp:77] Creating layer inception_3b/1x1
I0403 15:32:32.468902  3205 net.cpp:91] Creating Layer inception_3b/1x1
I0403 15:32:32.468920  3205 net.cpp:425] inception_3b/1x1 <- inception_3a/output_inception_3a/output_0_split_0
I0403 15:32:32.468942  3205 net.cpp:399] inception_3b/1x1 -> inception_3b/1x1
I0403 15:32:32.470121  3205 net.cpp:141] Setting up inception_3b/1x1
I0403 15:32:32.470165  3205 net.cpp:148] Top shape: 24 128 28 28 (2408448)
I0403 15:32:32.470181  3205 net.cpp:156] Memory required for data: 667141152
I0403 15:32:32.470201  3205 layer_factory.hpp:77] Creating layer inception_3b/relu_1x1
I0403 15:32:32.470226  3205 net.cpp:91] Creating Layer inception_3b/relu_1x1
I0403 15:32:32.470242  3205 net.cpp:425] inception_3b/relu_1x1 <- inception_3b/1x1
I0403 15:32:32.470259  3205 net.cpp:386] inception_3b/relu_1x1 -> inception_3b/1x1 (in-place)
I0403 15:32:32.470438  3205 net.cpp:141] Setting up inception_3b/relu_1x1
I0403 15:32:32.470463  3205 net.cpp:148] Top shape: 24 128 28 28 (2408448)
I0403 15:32:32.470479  3205 net.cpp:156] Memory required for data: 676774944
I0403 15:32:32.470494  3205 layer_factory.hpp:77] Creating layer inception_3b/3x3_reduce
I0403 15:32:32.470515  3205 net.cpp:91] Creating Layer inception_3b/3x3_reduce
I0403 15:32:32.470533  3205 net.cpp:425] inception_3b/3x3_reduce <- inception_3a/output_inception_3a/output_0_split_1
I0403 15:32:32.470554  3205 net.cpp:399] inception_3b/3x3_reduce -> inception_3b/3x3_reduce
I0403 15:32:32.471709  3205 net.cpp:141] Setting up inception_3b/3x3_reduce
I0403 15:32:32.471740  3205 net.cpp:148] Top shape: 24 128 28 28 (2408448)
I0403 15:32:32.471755  3205 net.cpp:156] Memory required for data: 686408736
I0403 15:32:32.471774  3205 layer_factory.hpp:77] Creating layer inception_3b/relu_3x3_reduce
I0403 15:32:32.471792  3205 net.cpp:91] Creating Layer inception_3b/relu_3x3_reduce
I0403 15:32:32.471808  3205 net.cpp:425] inception_3b/relu_3x3_reduce <- inception_3b/3x3_reduce
I0403 15:32:32.471828  3205 net.cpp:386] inception_3b/relu_3x3_reduce -> inception_3b/3x3_reduce (in-place)
I0403 15:32:32.472002  3205 net.cpp:141] Setting up inception_3b/relu_3x3_reduce
I0403 15:32:32.472030  3205 net.cpp:148] Top shape: 24 128 28 28 (2408448)
I0403 15:32:32.472045  3205 net.cpp:156] Memory required for data: 696042528
I0403 15:32:32.472060  3205 layer_factory.hpp:77] Creating layer inception_3b/3x3
I0403 15:32:32.472089  3205 net.cpp:91] Creating Layer inception_3b/3x3
I0403 15:32:32.472107  3205 net.cpp:425] inception_3b/3x3 <- inception_3b/3x3_reduce
I0403 15:32:32.472126  3205 net.cpp:399] inception_3b/3x3 -> inception_3b/3x3
I0403 15:32:32.475100  3205 net.cpp:141] Setting up inception_3b/3x3
I0403 15:32:32.475129  3205 net.cpp:148] Top shape: 24 192 28 28 (3612672)
I0403 15:32:32.475145  3205 net.cpp:156] Memory required for data: 710493216
I0403 15:32:32.475177  3205 layer_factory.hpp:77] Creating layer inception_3b/relu_3x3
I0403 15:32:32.475195  3205 net.cpp:91] Creating Layer inception_3b/relu_3x3
I0403 15:32:32.475216  3205 net.cpp:425] inception_3b/relu_3x3 <- inception_3b/3x3
I0403 15:32:32.475239  3205 net.cpp:386] inception_3b/relu_3x3 -> inception_3b/3x3 (in-place)
I0403 15:32:32.475534  3205 net.cpp:141] Setting up inception_3b/relu_3x3
I0403 15:32:32.475561  3205 net.cpp:148] Top shape: 24 192 28 28 (3612672)
I0403 15:32:32.475576  3205 net.cpp:156] Memory required for data: 724943904
I0403 15:32:32.475591  3205 layer_factory.hpp:77] Creating layer inception_3b/5x5_reduce
I0403 15:32:32.475615  3205 net.cpp:91] Creating Layer inception_3b/5x5_reduce
I0403 15:32:32.475633  3205 net.cpp:425] inception_3b/5x5_reduce <- inception_3a/output_inception_3a/output_0_split_2
I0403 15:32:32.475654  3205 net.cpp:399] inception_3b/5x5_reduce -> inception_3b/5x5_reduce
I0403 15:32:32.476657  3205 net.cpp:141] Setting up inception_3b/5x5_reduce
I0403 15:32:32.476689  3205 net.cpp:148] Top shape: 24 32 28 28 (602112)
I0403 15:32:32.476706  3205 net.cpp:156] Memory required for data: 727352352
I0403 15:32:32.476724  3205 layer_factory.hpp:77] Creating layer inception_3b/relu_5x5_reduce
I0403 15:32:32.476742  3205 net.cpp:91] Creating Layer inception_3b/relu_5x5_reduce
I0403 15:32:32.476758  3205 net.cpp:425] inception_3b/relu_5x5_reduce <- inception_3b/5x5_reduce
I0403 15:32:32.476778  3205 net.cpp:386] inception_3b/relu_5x5_reduce -> inception_3b/5x5_reduce (in-place)
I0403 15:32:32.476974  3205 net.cpp:141] Setting up inception_3b/relu_5x5_reduce
I0403 15:32:32.476999  3205 net.cpp:148] Top shape: 24 32 28 28 (602112)
I0403 15:32:32.477015  3205 net.cpp:156] Memory required for data: 729760800
I0403 15:32:32.477030  3205 layer_factory.hpp:77] Creating layer inception_3b/5x5
I0403 15:32:32.477052  3205 net.cpp:91] Creating Layer inception_3b/5x5
I0403 15:32:32.477069  3205 net.cpp:425] inception_3b/5x5 <- inception_3b/5x5_reduce
I0403 15:32:32.477092  3205 net.cpp:399] inception_3b/5x5 -> inception_3b/5x5
I0403 15:32:32.479095  3205 net.cpp:141] Setting up inception_3b/5x5
I0403 15:32:32.479125  3205 net.cpp:148] Top shape: 24 96 28 28 (1806336)
I0403 15:32:32.479140  3205 net.cpp:156] Memory required for data: 736986144
I0403 15:32:32.479161  3205 layer_factory.hpp:77] Creating layer inception_3b/relu_5x5
I0403 15:32:32.479181  3205 net.cpp:91] Creating Layer inception_3b/relu_5x5
I0403 15:32:32.479197  3205 net.cpp:425] inception_3b/relu_5x5 <- inception_3b/5x5
I0403 15:32:32.479220  3205 net.cpp:386] inception_3b/relu_5x5 -> inception_3b/5x5 (in-place)
I0403 15:32:32.479421  3205 net.cpp:141] Setting up inception_3b/relu_5x5
I0403 15:32:32.479446  3205 net.cpp:148] Top shape: 24 96 28 28 (1806336)
I0403 15:32:32.479461  3205 net.cpp:156] Memory required for data: 744211488
I0403 15:32:32.479476  3205 layer_factory.hpp:77] Creating layer inception_3b/pool
I0403 15:32:32.479495  3205 net.cpp:91] Creating Layer inception_3b/pool
I0403 15:32:32.479511  3205 net.cpp:425] inception_3b/pool <- inception_3a/output_inception_3a/output_0_split_3
I0403 15:32:32.479527  3205 net.cpp:399] inception_3b/pool -> inception_3b/pool
I0403 15:32:32.479583  3205 net.cpp:141] Setting up inception_3b/pool
I0403 15:32:32.479606  3205 net.cpp:148] Top shape: 24 256 28 28 (4816896)
I0403 15:32:32.479621  3205 net.cpp:156] Memory required for data: 763479072
I0403 15:32:32.479635  3205 layer_factory.hpp:77] Creating layer inception_3b/pool_proj
I0403 15:32:32.479660  3205 net.cpp:91] Creating Layer inception_3b/pool_proj
I0403 15:32:32.479677  3205 net.cpp:425] inception_3b/pool_proj <- inception_3b/pool
I0403 15:32:32.479696  3205 net.cpp:399] inception_3b/pool_proj -> inception_3b/pool_proj
I0403 15:32:32.480772  3205 net.cpp:141] Setting up inception_3b/pool_proj
I0403 15:32:32.480800  3205 net.cpp:148] Top shape: 24 64 28 28 (1204224)
I0403 15:32:32.480815  3205 net.cpp:156] Memory required for data: 768295968
I0403 15:32:32.480834  3205 layer_factory.hpp:77] Creating layer inception_3b/relu_pool_proj
I0403 15:32:32.480854  3205 net.cpp:91] Creating Layer inception_3b/relu_pool_proj
I0403 15:32:32.480871  3205 net.cpp:425] inception_3b/relu_pool_proj <- inception_3b/pool_proj
I0403 15:32:32.480890  3205 net.cpp:386] inception_3b/relu_pool_proj -> inception_3b/pool_proj (in-place)
I0403 15:32:32.481335  3205 net.cpp:141] Setting up inception_3b/relu_pool_proj
I0403 15:32:32.481362  3205 net.cpp:148] Top shape: 24 64 28 28 (1204224)
I0403 15:32:32.481377  3205 net.cpp:156] Memory required for data: 773112864
I0403 15:32:32.481392  3205 layer_factory.hpp:77] Creating layer inception_3b/output
I0403 15:32:32.481410  3205 net.cpp:91] Creating Layer inception_3b/output
I0403 15:32:32.481426  3205 net.cpp:425] inception_3b/output <- inception_3b/1x1
I0403 15:32:32.481444  3205 net.cpp:425] inception_3b/output <- inception_3b/3x3
I0403 15:32:32.481462  3205 net.cpp:425] inception_3b/output <- inception_3b/5x5
I0403 15:32:32.481477  3205 net.cpp:425] inception_3b/output <- inception_3b/pool_proj
I0403 15:32:32.481494  3205 net.cpp:399] inception_3b/output -> inception_3b/output
I0403 15:32:32.481549  3205 net.cpp:141] Setting up inception_3b/output
I0403 15:32:32.481573  3205 net.cpp:148] Top shape: 24 480 28 28 (9031680)
I0403 15:32:32.481590  3205 net.cpp:156] Memory required for data: 809239584
I0403 15:32:32.481612  3205 layer_factory.hpp:77] Creating layer pool3/3x3_s2
I0403 15:32:32.481628  3205 net.cpp:91] Creating Layer pool3/3x3_s2
I0403 15:32:32.481643  3205 net.cpp:425] pool3/3x3_s2 <- inception_3b/output
I0403 15:32:32.481679  3205 net.cpp:399] pool3/3x3_s2 -> pool3/3x3_s2
I0403 15:32:32.481736  3205 net.cpp:141] Setting up pool3/3x3_s2
I0403 15:32:32.481761  3205 net.cpp:148] Top shape: 24 480 14 14 (2257920)
I0403 15:32:32.481776  3205 net.cpp:156] Memory required for data: 818271264
I0403 15:32:32.481791  3205 layer_factory.hpp:77] Creating layer pool3/3x3_s2_pool3/3x3_s2_0_split
I0403 15:32:32.481807  3205 net.cpp:91] Creating Layer pool3/3x3_s2_pool3/3x3_s2_0_split
I0403 15:32:32.481822  3205 net.cpp:425] pool3/3x3_s2_pool3/3x3_s2_0_split <- pool3/3x3_s2
I0403 15:32:32.481838  3205 net.cpp:399] pool3/3x3_s2_pool3/3x3_s2_0_split -> pool3/3x3_s2_pool3/3x3_s2_0_split_0
I0403 15:32:32.481858  3205 net.cpp:399] pool3/3x3_s2_pool3/3x3_s2_0_split -> pool3/3x3_s2_pool3/3x3_s2_0_split_1
I0403 15:32:32.481878  3205 net.cpp:399] pool3/3x3_s2_pool3/3x3_s2_0_split -> pool3/3x3_s2_pool3/3x3_s2_0_split_2
I0403 15:32:32.481899  3205 net.cpp:399] pool3/3x3_s2_pool3/3x3_s2_0_split -> pool3/3x3_s2_pool3/3x3_s2_0_split_3
I0403 15:32:32.481973  3205 net.cpp:141] Setting up pool3/3x3_s2_pool3/3x3_s2_0_split
I0403 15:32:32.481997  3205 net.cpp:148] Top shape: 24 480 14 14 (2257920)
I0403 15:32:32.482012  3205 net.cpp:148] Top shape: 24 480 14 14 (2257920)
I0403 15:32:32.482028  3205 net.cpp:148] Top shape: 24 480 14 14 (2257920)
I0403 15:32:32.482043  3205 net.cpp:148] Top shape: 24 480 14 14 (2257920)
I0403 15:32:32.482056  3205 net.cpp:156] Memory required for data: 854397984
I0403 15:32:32.482070  3205 layer_factory.hpp:77] Creating layer inception_4a/1x1
I0403 15:32:32.482092  3205 net.cpp:91] Creating Layer inception_4a/1x1
I0403 15:32:32.482110  3205 net.cpp:425] inception_4a/1x1 <- pool3/3x3_s2_pool3/3x3_s2_0_split_0
I0403 15:32:32.482131  3205 net.cpp:399] inception_4a/1x1 -> inception_4a/1x1
I0403 15:32:32.483702  3205 net.cpp:141] Setting up inception_4a/1x1
I0403 15:32:32.483731  3205 net.cpp:148] Top shape: 24 192 14 14 (903168)
I0403 15:32:32.483746  3205 net.cpp:156] Memory required for data: 858010656
I0403 15:32:32.483763  3205 layer_factory.hpp:77] Creating layer inception_4a/relu_1x1
I0403 15:32:32.483783  3205 net.cpp:91] Creating Layer inception_4a/relu_1x1
I0403 15:32:32.483799  3205 net.cpp:425] inception_4a/relu_1x1 <- inception_4a/1x1
I0403 15:32:32.483817  3205 net.cpp:386] inception_4a/relu_1x1 -> inception_4a/1x1 (in-place)
I0403 15:32:32.483991  3205 net.cpp:141] Setting up inception_4a/relu_1x1
I0403 15:32:32.484019  3205 net.cpp:148] Top shape: 24 192 14 14 (903168)
I0403 15:32:32.484033  3205 net.cpp:156] Memory required for data: 861623328
I0403 15:32:32.484048  3205 layer_factory.hpp:77] Creating layer inception_4a/3x3_reduce
I0403 15:32:32.484072  3205 net.cpp:91] Creating Layer inception_4a/3x3_reduce
I0403 15:32:32.484089  3205 net.cpp:425] inception_4a/3x3_reduce <- pool3/3x3_s2_pool3/3x3_s2_0_split_1
I0403 15:32:32.484108  3205 net.cpp:399] inception_4a/3x3_reduce -> inception_4a/3x3_reduce
I0403 15:32:32.485378  3205 net.cpp:141] Setting up inception_4a/3x3_reduce
I0403 15:32:32.485407  3205 net.cpp:148] Top shape: 24 96 14 14 (451584)
I0403 15:32:32.485422  3205 net.cpp:156] Memory required for data: 863429664
I0403 15:32:32.485447  3205 layer_factory.hpp:77] Creating layer inception_4a/relu_3x3_reduce
I0403 15:32:32.485468  3205 net.cpp:91] Creating Layer inception_4a/relu_3x3_reduce
I0403 15:32:32.485486  3205 net.cpp:425] inception_4a/relu_3x3_reduce <- inception_4a/3x3_reduce
I0403 15:32:32.485502  3205 net.cpp:386] inception_4a/relu_3x3_reduce -> inception_4a/3x3_reduce (in-place)
I0403 15:32:32.485677  3205 net.cpp:141] Setting up inception_4a/relu_3x3_reduce
I0403 15:32:32.485703  3205 net.cpp:148] Top shape: 24 96 14 14 (451584)
I0403 15:32:32.485718  3205 net.cpp:156] Memory required for data: 865236000
I0403 15:32:32.485733  3205 layer_factory.hpp:77] Creating layer inception_4a/3x3
I0403 15:32:32.485754  3205 net.cpp:91] Creating Layer inception_4a/3x3
I0403 15:32:32.485771  3205 net.cpp:425] inception_4a/3x3 <- inception_4a/3x3_reduce
I0403 15:32:32.485790  3205 net.cpp:399] inception_4a/3x3 -> inception_4a/3x3
I0403 15:32:32.488487  3205 net.cpp:141] Setting up inception_4a/3x3
I0403 15:32:32.488517  3205 net.cpp:148] Top shape: 24 208 14 14 (978432)
I0403 15:32:32.488533  3205 net.cpp:156] Memory required for data: 869149728
I0403 15:32:32.488553  3205 layer_factory.hpp:77] Creating layer inception_4a/relu_3x3
I0403 15:32:32.488570  3205 net.cpp:91] Creating Layer inception_4a/relu_3x3
I0403 15:32:32.488585  3205 net.cpp:425] inception_4a/relu_3x3 <- inception_4a/3x3
I0403 15:32:32.488605  3205 net.cpp:386] inception_4a/relu_3x3 -> inception_4a/3x3 (in-place)
I0403 15:32:32.488876  3205 net.cpp:141] Setting up inception_4a/relu_3x3
I0403 15:32:32.488904  3205 net.cpp:148] Top shape: 24 208 14 14 (978432)
I0403 15:32:32.488920  3205 net.cpp:156] Memory required for data: 873063456
I0403 15:32:32.488935  3205 layer_factory.hpp:77] Creating layer inception_4a/5x5_reduce
I0403 15:32:32.488958  3205 net.cpp:91] Creating Layer inception_4a/5x5_reduce
I0403 15:32:32.488976  3205 net.cpp:425] inception_4a/5x5_reduce <- pool3/3x3_s2_pool3/3x3_s2_0_split_2
I0403 15:32:32.488993  3205 net.cpp:399] inception_4a/5x5_reduce -> inception_4a/5x5_reduce
I0403 15:32:32.490005  3205 net.cpp:141] Setting up inception_4a/5x5_reduce
I0403 15:32:32.490034  3205 net.cpp:148] Top shape: 24 16 14 14 (75264)
I0403 15:32:32.490051  3205 net.cpp:156] Memory required for data: 873364512
I0403 15:32:32.490068  3205 layer_factory.hpp:77] Creating layer inception_4a/relu_5x5_reduce
I0403 15:32:32.490085  3205 net.cpp:91] Creating Layer inception_4a/relu_5x5_reduce
I0403 15:32:32.490100  3205 net.cpp:425] inception_4a/relu_5x5_reduce <- inception_4a/5x5_reduce
I0403 15:32:32.490119  3205 net.cpp:386] inception_4a/relu_5x5_reduce -> inception_4a/5x5_reduce (in-place)
I0403 15:32:32.490303  3205 net.cpp:141] Setting up inception_4a/relu_5x5_reduce
I0403 15:32:32.490327  3205 net.cpp:148] Top shape: 24 16 14 14 (75264)
I0403 15:32:32.490341  3205 net.cpp:156] Memory required for data: 873665568
I0403 15:32:32.490356  3205 layer_factory.hpp:77] Creating layer inception_4a/5x5
I0403 15:32:32.490378  3205 net.cpp:91] Creating Layer inception_4a/5x5
I0403 15:32:32.490396  3205 net.cpp:425] inception_4a/5x5 <- inception_4a/5x5_reduce
I0403 15:32:32.490417  3205 net.cpp:399] inception_4a/5x5 -> inception_4a/5x5
I0403 15:32:32.491495  3205 net.cpp:141] Setting up inception_4a/5x5
I0403 15:32:32.491521  3205 net.cpp:148] Top shape: 24 48 14 14 (225792)
I0403 15:32:32.491536  3205 net.cpp:156] Memory required for data: 874568736
I0403 15:32:32.491554  3205 layer_factory.hpp:77] Creating layer inception_4a/relu_5x5
I0403 15:32:32.491574  3205 net.cpp:91] Creating Layer inception_4a/relu_5x5
I0403 15:32:32.491590  3205 net.cpp:425] inception_4a/relu_5x5 <- inception_4a/5x5
I0403 15:32:32.491606  3205 net.cpp:386] inception_4a/relu_5x5 -> inception_4a/5x5 (in-place)
I0403 15:32:32.491777  3205 net.cpp:141] Setting up inception_4a/relu_5x5
I0403 15:32:32.491801  3205 net.cpp:148] Top shape: 24 48 14 14 (225792)
I0403 15:32:32.491816  3205 net.cpp:156] Memory required for data: 875471904
I0403 15:32:32.491829  3205 layer_factory.hpp:77] Creating layer inception_4a/pool
I0403 15:32:32.491848  3205 net.cpp:91] Creating Layer inception_4a/pool
I0403 15:32:32.491864  3205 net.cpp:425] inception_4a/pool <- pool3/3x3_s2_pool3/3x3_s2_0_split_3
I0403 15:32:32.491881  3205 net.cpp:399] inception_4a/pool -> inception_4a/pool
I0403 15:32:32.491940  3205 net.cpp:141] Setting up inception_4a/pool
I0403 15:32:32.491962  3205 net.cpp:148] Top shape: 24 480 14 14 (2257920)
I0403 15:32:32.491976  3205 net.cpp:156] Memory required for data: 884503584
I0403 15:32:32.491989  3205 layer_factory.hpp:77] Creating layer inception_4a/pool_proj
I0403 15:32:32.492010  3205 net.cpp:91] Creating Layer inception_4a/pool_proj
I0403 15:32:32.492027  3205 net.cpp:425] inception_4a/pool_proj <- inception_4a/pool
I0403 15:32:32.492046  3205 net.cpp:399] inception_4a/pool_proj -> inception_4a/pool_proj
I0403 15:32:32.493185  3205 net.cpp:141] Setting up inception_4a/pool_proj
I0403 15:32:32.493218  3205 net.cpp:148] Top shape: 24 64 14 14 (301056)
I0403 15:32:32.493248  3205 net.cpp:156] Memory required for data: 885707808
I0403 15:32:32.493268  3205 layer_factory.hpp:77] Creating layer inception_4a/relu_pool_proj
I0403 15:32:32.493288  3205 net.cpp:91] Creating Layer inception_4a/relu_pool_proj
I0403 15:32:32.493304  3205 net.cpp:425] inception_4a/relu_pool_proj <- inception_4a/pool_proj
I0403 15:32:32.493320  3205 net.cpp:386] inception_4a/relu_pool_proj -> inception_4a/pool_proj (in-place)
I0403 15:32:32.493592  3205 net.cpp:141] Setting up inception_4a/relu_pool_proj
I0403 15:32:32.493616  3205 net.cpp:148] Top shape: 24 64 14 14 (301056)
I0403 15:32:32.493631  3205 net.cpp:156] Memory required for data: 886912032
I0403 15:32:32.493645  3205 layer_factory.hpp:77] Creating layer inception_4a/output
I0403 15:32:32.493664  3205 net.cpp:91] Creating Layer inception_4a/output
I0403 15:32:32.493680  3205 net.cpp:425] inception_4a/output <- inception_4a/1x1
I0403 15:32:32.493695  3205 net.cpp:425] inception_4a/output <- inception_4a/3x3
I0403 15:32:32.493711  3205 net.cpp:425] inception_4a/output <- inception_4a/5x5
I0403 15:32:32.493726  3205 net.cpp:425] inception_4a/output <- inception_4a/pool_proj
I0403 15:32:32.493742  3205 net.cpp:399] inception_4a/output -> inception_4a/output
I0403 15:32:32.493785  3205 net.cpp:141] Setting up inception_4a/output
I0403 15:32:32.493808  3205 net.cpp:148] Top shape: 24 512 14 14 (2408448)
I0403 15:32:32.493821  3205 net.cpp:156] Memory required for data: 896545824
I0403 15:32:32.493835  3205 layer_factory.hpp:77] Creating layer inception_4a/output_inception_4a/output_0_split
I0403 15:32:32.493851  3205 net.cpp:91] Creating Layer inception_4a/output_inception_4a/output_0_split
I0403 15:32:32.493866  3205 net.cpp:425] inception_4a/output_inception_4a/output_0_split <- inception_4a/output
I0403 15:32:32.493885  3205 net.cpp:399] inception_4a/output_inception_4a/output_0_split -> inception_4a/output_inception_4a/output_0_split_0
I0403 15:32:32.493903  3205 net.cpp:399] inception_4a/output_inception_4a/output_0_split -> inception_4a/output_inception_4a/output_0_split_1
I0403 15:32:32.493923  3205 net.cpp:399] inception_4a/output_inception_4a/output_0_split -> inception_4a/output_inception_4a/output_0_split_2
I0403 15:32:32.493943  3205 net.cpp:399] inception_4a/output_inception_4a/output_0_split -> inception_4a/output_inception_4a/output_0_split_3
I0403 15:32:32.493963  3205 net.cpp:399] inception_4a/output_inception_4a/output_0_split -> inception_4a/output_inception_4a/output_0_split_4
I0403 15:32:32.494055  3205 net.cpp:141] Setting up inception_4a/output_inception_4a/output_0_split
I0403 15:32:32.494076  3205 net.cpp:148] Top shape: 24 512 14 14 (2408448)
I0403 15:32:32.494094  3205 net.cpp:148] Top shape: 24 512 14 14 (2408448)
I0403 15:32:32.494110  3205 net.cpp:148] Top shape: 24 512 14 14 (2408448)
I0403 15:32:32.494125  3205 net.cpp:148] Top shape: 24 512 14 14 (2408448)
I0403 15:32:32.494140  3205 net.cpp:148] Top shape: 24 512 14 14 (2408448)
I0403 15:32:32.494153  3205 net.cpp:156] Memory required for data: 944714784
I0403 15:32:32.494168  3205 layer_factory.hpp:77] Creating layer loss1/ave_pool
I0403 15:32:32.494184  3205 net.cpp:91] Creating Layer loss1/ave_pool
I0403 15:32:32.494199  3205 net.cpp:425] loss1/ave_pool <- inception_4a/output_inception_4a/output_0_split_0
I0403 15:32:32.494238  3205 net.cpp:399] loss1/ave_pool -> loss1/ave_pool
I0403 15:32:32.494456  3205 net.cpp:141] Setting up loss1/ave_pool
I0403 15:32:32.494480  3205 net.cpp:148] Top shape: 24 512 4 4 (196608)
I0403 15:32:32.494494  3205 net.cpp:156] Memory required for data: 945501216
I0403 15:32:32.494508  3205 layer_factory.hpp:77] Creating layer loss1/conv
I0403 15:32:32.494530  3205 net.cpp:91] Creating Layer loss1/conv
I0403 15:32:32.494556  3205 net.cpp:425] loss1/conv <- loss1/ave_pool
I0403 15:32:32.494577  3205 net.cpp:399] loss1/conv -> loss1/conv
I0403 15:32:32.496000  3205 net.cpp:141] Setting up loss1/conv
I0403 15:32:32.496029  3205 net.cpp:148] Top shape: 24 128 4 4 (49152)
I0403 15:32:32.496059  3205 net.cpp:156] Memory required for data: 945697824
I0403 15:32:32.496078  3205 layer_factory.hpp:77] Creating layer loss1/relu_conv
I0403 15:32:32.496098  3205 net.cpp:91] Creating Layer loss1/relu_conv
I0403 15:32:32.496112  3205 net.cpp:425] loss1/relu_conv <- loss1/conv
I0403 15:32:32.496131  3205 net.cpp:386] loss1/relu_conv -> loss1/conv (in-place)
I0403 15:32:32.496417  3205 net.cpp:141] Setting up loss1/relu_conv
I0403 15:32:32.496445  3205 net.cpp:148] Top shape: 24 128 4 4 (49152)
I0403 15:32:32.496461  3205 net.cpp:156] Memory required for data: 945894432
I0403 15:32:32.496476  3205 layer_factory.hpp:77] Creating layer loss1/fc
I0403 15:32:32.496500  3205 net.cpp:91] Creating Layer loss1/fc
I0403 15:32:32.496516  3205 net.cpp:425] loss1/fc <- loss1/conv
I0403 15:32:32.496537  3205 net.cpp:399] loss1/fc -> loss1/fc
I0403 15:32:32.514276  3205 net.cpp:141] Setting up loss1/fc
I0403 15:32:32.514313  3205 net.cpp:148] Top shape: 24 1024 (24576)
I0403 15:32:32.514328  3205 net.cpp:156] Memory required for data: 945992736
I0403 15:32:32.514345  3205 layer_factory.hpp:77] Creating layer loss1/relu_fc
I0403 15:32:32.514365  3205 net.cpp:91] Creating Layer loss1/relu_fc
I0403 15:32:32.514382  3205 net.cpp:425] loss1/relu_fc <- loss1/fc
I0403 15:32:32.514400  3205 net.cpp:386] loss1/relu_fc -> loss1/fc (in-place)
I0403 15:32:32.514578  3205 net.cpp:141] Setting up loss1/relu_fc
I0403 15:32:32.514603  3205 net.cpp:148] Top shape: 24 1024 (24576)
I0403 15:32:32.514617  3205 net.cpp:156] Memory required for data: 946091040
I0403 15:32:32.514631  3205 layer_factory.hpp:77] Creating layer loss1/drop_fc
I0403 15:32:32.514657  3205 net.cpp:91] Creating Layer loss1/drop_fc
I0403 15:32:32.514673  3205 net.cpp:425] loss1/drop_fc <- loss1/fc
I0403 15:32:32.514689  3205 net.cpp:386] loss1/drop_fc -> loss1/fc (in-place)
I0403 15:32:32.514740  3205 net.cpp:141] Setting up loss1/drop_fc
I0403 15:32:32.514762  3205 net.cpp:148] Top shape: 24 1024 (24576)
I0403 15:32:32.514776  3205 net.cpp:156] Memory required for data: 946189344
I0403 15:32:32.514791  3205 layer_factory.hpp:77] Creating layer loss1/classifier_plantvillage
I0403 15:32:32.514812  3205 net.cpp:91] Creating Layer loss1/classifier_plantvillage
I0403 15:32:32.514828  3205 net.cpp:425] loss1/classifier_plantvillage <- loss1/fc
I0403 15:32:32.514845  3205 net.cpp:399] loss1/classifier_plantvillage -> loss1/classifier_plantvillage
I0403 15:32:32.515724  3205 net.cpp:141] Setting up loss1/classifier_plantvillage
I0403 15:32:32.515751  3205 net.cpp:148] Top shape: 24 38 (912)
I0403 15:32:32.515765  3205 net.cpp:156] Memory required for data: 946192992
I0403 15:32:32.515784  3205 layer_factory.hpp:77] Creating layer loss1/classifier_plantvillage_loss1/classifier_plantvillage_0_split
I0403 15:32:32.515802  3205 net.cpp:91] Creating Layer loss1/classifier_plantvillage_loss1/classifier_plantvillage_0_split
I0403 15:32:32.515818  3205 net.cpp:425] loss1/classifier_plantvillage_loss1/classifier_plantvillage_0_split <- loss1/classifier_plantvillage
I0403 15:32:32.515835  3205 net.cpp:399] loss1/classifier_plantvillage_loss1/classifier_plantvillage_0_split -> loss1/classifier_plantvillage_loss1/classifier_plantvillage_0_split_0
I0403 15:32:32.515856  3205 net.cpp:399] loss1/classifier_plantvillage_loss1/classifier_plantvillage_0_split -> loss1/classifier_plantvillage_loss1/classifier_plantvillage_0_split_1
I0403 15:32:32.515877  3205 net.cpp:399] loss1/classifier_plantvillage_loss1/classifier_plantvillage_0_split -> loss1/classifier_plantvillage_loss1/classifier_plantvillage_0_split_2
I0403 15:32:32.515939  3205 net.cpp:141] Setting up loss1/classifier_plantvillage_loss1/classifier_plantvillage_0_split
I0403 15:32:32.515961  3205 net.cpp:148] Top shape: 24 38 (912)
I0403 15:32:32.515976  3205 net.cpp:148] Top shape: 24 38 (912)
I0403 15:32:32.515991  3205 net.cpp:148] Top shape: 24 38 (912)
I0403 15:32:32.516003  3205 net.cpp:156] Memory required for data: 946203936
I0403 15:32:32.516017  3205 layer_factory.hpp:77] Creating layer inception_4b/1x1
I0403 15:32:32.516038  3205 net.cpp:91] Creating Layer inception_4b/1x1
I0403 15:32:32.516070  3205 net.cpp:425] inception_4b/1x1 <- inception_4a/output_inception_4a/output_0_split_1
I0403 15:32:32.516090  3205 net.cpp:399] inception_4b/1x1 -> inception_4b/1x1
I0403 15:32:32.517689  3205 net.cpp:141] Setting up inception_4b/1x1
I0403 15:32:32.517719  3205 net.cpp:148] Top shape: 24 160 14 14 (752640)
I0403 15:32:32.517735  3205 net.cpp:156] Memory required for data: 949214496
I0403 15:32:32.517752  3205 layer_factory.hpp:77] Creating layer inception_4b/relu_1x1
I0403 15:32:32.517770  3205 net.cpp:91] Creating Layer inception_4b/relu_1x1
I0403 15:32:32.517784  3205 net.cpp:425] inception_4b/relu_1x1 <- inception_4b/1x1
I0403 15:32:32.517805  3205 net.cpp:386] inception_4b/relu_1x1 -> inception_4b/1x1 (in-place)
I0403 15:32:32.517976  3205 net.cpp:141] Setting up inception_4b/relu_1x1
I0403 15:32:32.518000  3205 net.cpp:148] Top shape: 24 160 14 14 (752640)
I0403 15:32:32.518014  3205 net.cpp:156] Memory required for data: 952225056
I0403 15:32:32.518028  3205 layer_factory.hpp:77] Creating layer inception_4b/3x3_reduce
I0403 15:32:32.518051  3205 net.cpp:91] Creating Layer inception_4b/3x3_reduce
I0403 15:32:32.518069  3205 net.cpp:425] inception_4b/3x3_reduce <- inception_4a/output_inception_4a/output_0_split_2
I0403 15:32:32.518090  3205 net.cpp:399] inception_4b/3x3_reduce -> inception_4b/3x3_reduce
I0403 15:32:32.519403  3205 net.cpp:141] Setting up inception_4b/3x3_reduce
I0403 15:32:32.519430  3205 net.cpp:148] Top shape: 24 112 14 14 (526848)
I0403 15:32:32.519444  3205 net.cpp:156] Memory required for data: 954332448
I0403 15:32:32.519462  3205 layer_factory.hpp:77] Creating layer inception_4b/relu_3x3_reduce
I0403 15:32:32.519479  3205 net.cpp:91] Creating Layer inception_4b/relu_3x3_reduce
I0403 15:32:32.519495  3205 net.cpp:425] inception_4b/relu_3x3_reduce <- inception_4b/3x3_reduce
I0403 15:32:32.519512  3205 net.cpp:386] inception_4b/relu_3x3_reduce -> inception_4b/3x3_reduce (in-place)
I0403 15:32:32.519786  3205 net.cpp:141] Setting up inception_4b/relu_3x3_reduce
I0403 15:32:32.519811  3205 net.cpp:148] Top shape: 24 112 14 14 (526848)
I0403 15:32:32.519826  3205 net.cpp:156] Memory required for data: 956439840
I0403 15:32:32.519840  3205 layer_factory.hpp:77] Creating layer inception_4b/3x3
I0403 15:32:32.519861  3205 net.cpp:91] Creating Layer inception_4b/3x3
I0403 15:32:32.519879  3205 net.cpp:425] inception_4b/3x3 <- inception_4b/3x3_reduce
I0403 15:32:32.519899  3205 net.cpp:399] inception_4b/3x3 -> inception_4b/3x3
I0403 15:32:32.522791  3205 net.cpp:141] Setting up inception_4b/3x3
I0403 15:32:32.522819  3205 net.cpp:148] Top shape: 24 224 14 14 (1053696)
I0403 15:32:32.522835  3205 net.cpp:156] Memory required for data: 960654624
I0403 15:32:32.522851  3205 layer_factory.hpp:77] Creating layer inception_4b/relu_3x3
I0403 15:32:32.522871  3205 net.cpp:91] Creating Layer inception_4b/relu_3x3
I0403 15:32:32.522886  3205 net.cpp:425] inception_4b/relu_3x3 <- inception_4b/3x3
I0403 15:32:32.522903  3205 net.cpp:386] inception_4b/relu_3x3 -> inception_4b/3x3 (in-place)
I0403 15:32:32.523077  3205 net.cpp:141] Setting up inception_4b/relu_3x3
I0403 15:32:32.523102  3205 net.cpp:148] Top shape: 24 224 14 14 (1053696)
I0403 15:32:32.523115  3205 net.cpp:156] Memory required for data: 964869408
I0403 15:32:32.523129  3205 layer_factory.hpp:77] Creating layer inception_4b/5x5_reduce
I0403 15:32:32.523150  3205 net.cpp:91] Creating Layer inception_4b/5x5_reduce
I0403 15:32:32.523167  3205 net.cpp:425] inception_4b/5x5_reduce <- inception_4a/output_inception_4a/output_0_split_3
I0403 15:32:32.523188  3205 net.cpp:399] inception_4b/5x5_reduce -> inception_4b/5x5_reduce
I0403 15:32:32.524245  3205 net.cpp:141] Setting up inception_4b/5x5_reduce
I0403 15:32:32.524271  3205 net.cpp:148] Top shape: 24 24 14 14 (112896)
I0403 15:32:32.524286  3205 net.cpp:156] Memory required for data: 965320992
I0403 15:32:32.524303  3205 layer_factory.hpp:77] Creating layer inception_4b/relu_5x5_reduce
I0403 15:32:32.524322  3205 net.cpp:91] Creating Layer inception_4b/relu_5x5_reduce
I0403 15:32:32.524351  3205 net.cpp:425] inception_4b/relu_5x5_reduce <- inception_4b/5x5_reduce
I0403 15:32:32.524371  3205 net.cpp:386] inception_4b/relu_5x5_reduce -> inception_4b/5x5_reduce (in-place)
I0403 15:32:32.524547  3205 net.cpp:141] Setting up inception_4b/relu_5x5_reduce
I0403 15:32:32.524571  3205 net.cpp:148] Top shape: 24 24 14 14 (112896)
I0403 15:32:32.524585  3205 net.cpp:156] Memory required for data: 965772576
I0403 15:32:32.524600  3205 layer_factory.hpp:77] Creating layer inception_4b/5x5
I0403 15:32:32.524621  3205 net.cpp:91] Creating Layer inception_4b/5x5
I0403 15:32:32.524637  3205 net.cpp:425] inception_4b/5x5 <- inception_4b/5x5_reduce
I0403 15:32:32.524657  3205 net.cpp:399] inception_4b/5x5 -> inception_4b/5x5
I0403 15:32:32.525851  3205 net.cpp:141] Setting up inception_4b/5x5
I0403 15:32:32.525879  3205 net.cpp:148] Top shape: 24 64 14 14 (301056)
I0403 15:32:32.525895  3205 net.cpp:156] Memory required for data: 966976800
I0403 15:32:32.525913  3205 layer_factory.hpp:77] Creating layer inception_4b/relu_5x5
I0403 15:32:32.525930  3205 net.cpp:91] Creating Layer inception_4b/relu_5x5
I0403 15:32:32.525945  3205 net.cpp:425] inception_4b/relu_5x5 <- inception_4b/5x5
I0403 15:32:32.525964  3205 net.cpp:386] inception_4b/relu_5x5 -> inception_4b/5x5 (in-place)
I0403 15:32:32.526247  3205 net.cpp:141] Setting up inception_4b/relu_5x5
I0403 15:32:32.526274  3205 net.cpp:148] Top shape: 24 64 14 14 (301056)
I0403 15:32:32.526289  3205 net.cpp:156] Memory required for data: 968181024
I0403 15:32:32.526304  3205 layer_factory.hpp:77] Creating layer inception_4b/pool
I0403 15:32:32.526321  3205 net.cpp:91] Creating Layer inception_4b/pool
I0403 15:32:32.526336  3205 net.cpp:425] inception_4b/pool <- inception_4a/output_inception_4a/output_0_split_4
I0403 15:32:32.526355  3205 net.cpp:399] inception_4b/pool -> inception_4b/pool
I0403 15:32:32.526415  3205 net.cpp:141] Setting up inception_4b/pool
I0403 15:32:32.526440  3205 net.cpp:148] Top shape: 24 512 14 14 (2408448)
I0403 15:32:32.526454  3205 net.cpp:156] Memory required for data: 977814816
I0403 15:32:32.526468  3205 layer_factory.hpp:77] Creating layer inception_4b/pool_proj
I0403 15:32:32.526487  3205 net.cpp:91] Creating Layer inception_4b/pool_proj
I0403 15:32:32.526502  3205 net.cpp:425] inception_4b/pool_proj <- inception_4b/pool
I0403 15:32:32.526521  3205 net.cpp:399] inception_4b/pool_proj -> inception_4b/pool_proj
I0403 15:32:32.527701  3205 net.cpp:141] Setting up inception_4b/pool_proj
I0403 15:32:32.527729  3205 net.cpp:148] Top shape: 24 64 14 14 (301056)
I0403 15:32:32.527742  3205 net.cpp:156] Memory required for data: 979019040
I0403 15:32:32.527761  3205 layer_factory.hpp:77] Creating layer inception_4b/relu_pool_proj
I0403 15:32:32.527777  3205 net.cpp:91] Creating Layer inception_4b/relu_pool_proj
I0403 15:32:32.527793  3205 net.cpp:425] inception_4b/relu_pool_proj <- inception_4b/pool_proj
I0403 15:32:32.527812  3205 net.cpp:386] inception_4b/relu_pool_proj -> inception_4b/pool_proj (in-place)
I0403 15:32:32.527984  3205 net.cpp:141] Setting up inception_4b/relu_pool_proj
I0403 15:32:32.528007  3205 net.cpp:148] Top shape: 24 64 14 14 (301056)
I0403 15:32:32.528022  3205 net.cpp:156] Memory required for data: 980223264
I0403 15:32:32.528035  3205 layer_factory.hpp:77] Creating layer inception_4b/output
I0403 15:32:32.528051  3205 net.cpp:91] Creating Layer inception_4b/output
I0403 15:32:32.528066  3205 net.cpp:425] inception_4b/output <- inception_4b/1x1
I0403 15:32:32.528082  3205 net.cpp:425] inception_4b/output <- inception_4b/3x3
I0403 15:32:32.528097  3205 net.cpp:425] inception_4b/output <- inception_4b/5x5
I0403 15:32:32.528112  3205 net.cpp:425] inception_4b/output <- inception_4b/pool_proj
I0403 15:32:32.528131  3205 net.cpp:399] inception_4b/output -> inception_4b/output
I0403 15:32:32.528177  3205 net.cpp:141] Setting up inception_4b/output
I0403 15:32:32.528198  3205 net.cpp:148] Top shape: 24 512 14 14 (2408448)
I0403 15:32:32.528219  3205 net.cpp:156] Memory required for data: 989857056
I0403 15:32:32.528249  3205 layer_factory.hpp:77] Creating layer inception_4b/output_inception_4b/output_0_split
I0403 15:32:32.528266  3205 net.cpp:91] Creating Layer inception_4b/output_inception_4b/output_0_split
I0403 15:32:32.528281  3205 net.cpp:425] inception_4b/output_inception_4b/output_0_split <- inception_4b/output
I0403 15:32:32.528301  3205 net.cpp:399] inception_4b/output_inception_4b/output_0_split -> inception_4b/output_inception_4b/output_0_split_0
I0403 15:32:32.528321  3205 net.cpp:399] inception_4b/output_inception_4b/output_0_split -> inception_4b/output_inception_4b/output_0_split_1
I0403 15:32:32.528342  3205 net.cpp:399] inception_4b/output_inception_4b/output_0_split -> inception_4b/output_inception_4b/output_0_split_2
I0403 15:32:32.528360  3205 net.cpp:399] inception_4b/output_inception_4b/output_0_split -> inception_4b/output_inception_4b/output_0_split_3
I0403 15:32:32.528445  3205 net.cpp:141] Setting up inception_4b/output_inception_4b/output_0_split
I0403 15:32:32.528470  3205 net.cpp:148] Top shape: 24 512 14 14 (2408448)
I0403 15:32:32.528486  3205 net.cpp:148] Top shape: 24 512 14 14 (2408448)
I0403 15:32:32.528501  3205 net.cpp:148] Top shape: 24 512 14 14 (2408448)
I0403 15:32:32.528515  3205 net.cpp:148] Top shape: 24 512 14 14 (2408448)
I0403 15:32:32.528527  3205 net.cpp:156] Memory required for data: 1028392224
I0403 15:32:32.528542  3205 layer_factory.hpp:77] Creating layer inception_4c/1x1
I0403 15:32:32.528563  3205 net.cpp:91] Creating Layer inception_4c/1x1
I0403 15:32:32.528579  3205 net.cpp:425] inception_4c/1x1 <- inception_4b/output_inception_4b/output_0_split_0
I0403 15:32:32.528596  3205 net.cpp:399] inception_4c/1x1 -> inception_4c/1x1
I0403 15:32:32.529976  3205 net.cpp:141] Setting up inception_4c/1x1
I0403 15:32:32.530002  3205 net.cpp:148] Top shape: 24 128 14 14 (602112)
I0403 15:32:32.530017  3205 net.cpp:156] Memory required for data: 1030800672
I0403 15:32:32.530035  3205 layer_factory.hpp:77] Creating layer inception_4c/relu_1x1
I0403 15:32:32.530055  3205 net.cpp:91] Creating Layer inception_4c/relu_1x1
I0403 15:32:32.530071  3205 net.cpp:425] inception_4c/relu_1x1 <- inception_4c/1x1
I0403 15:32:32.530087  3205 net.cpp:386] inception_4c/relu_1x1 -> inception_4c/1x1 (in-place)
I0403 15:32:32.530267  3205 net.cpp:141] Setting up inception_4c/relu_1x1
I0403 15:32:32.530292  3205 net.cpp:148] Top shape: 24 128 14 14 (602112)
I0403 15:32:32.530308  3205 net.cpp:156] Memory required for data: 1033209120
I0403 15:32:32.530321  3205 layer_factory.hpp:77] Creating layer inception_4c/3x3_reduce
I0403 15:32:32.530342  3205 net.cpp:91] Creating Layer inception_4c/3x3_reduce
I0403 15:32:32.530359  3205 net.cpp:425] inception_4c/3x3_reduce <- inception_4b/output_inception_4b/output_0_split_1
I0403 15:32:32.530376  3205 net.cpp:399] inception_4c/3x3_reduce -> inception_4c/3x3_reduce
I0403 15:32:32.532263  3205 net.cpp:141] Setting up inception_4c/3x3_reduce
I0403 15:32:32.532302  3205 net.cpp:148] Top shape: 24 128 14 14 (602112)
I0403 15:32:32.532318  3205 net.cpp:156] Memory required for data: 1035617568
I0403 15:32:32.532336  3205 layer_factory.hpp:77] Creating layer inception_4c/relu_3x3_reduce
I0403 15:32:32.532353  3205 net.cpp:91] Creating Layer inception_4c/relu_3x3_reduce
I0403 15:32:32.532368  3205 net.cpp:425] inception_4c/relu_3x3_reduce <- inception_4c/3x3_reduce
I0403 15:32:32.532387  3205 net.cpp:386] inception_4c/relu_3x3_reduce -> inception_4c/3x3_reduce (in-place)
I0403 15:32:32.532670  3205 net.cpp:141] Setting up inception_4c/relu_3x3_reduce
I0403 15:32:32.532698  3205 net.cpp:148] Top shape: 24 128 14 14 (602112)
I0403 15:32:32.532713  3205 net.cpp:156] Memory required for data: 1038026016
I0403 15:32:32.532727  3205 layer_factory.hpp:77] Creating layer inception_4c/3x3
I0403 15:32:32.532750  3205 net.cpp:91] Creating Layer inception_4c/3x3
I0403 15:32:32.532768  3205 net.cpp:425] inception_4c/3x3 <- inception_4c/3x3_reduce
I0403 15:32:32.532785  3205 net.cpp:399] inception_4c/3x3 -> inception_4c/3x3
I0403 15:32:32.536350  3205 net.cpp:141] Setting up inception_4c/3x3
I0403 15:32:32.536396  3205 net.cpp:148] Top shape: 24 256 14 14 (1204224)
I0403 15:32:32.536413  3205 net.cpp:156] Memory required for data: 1042842912
I0403 15:32:32.536448  3205 layer_factory.hpp:77] Creating layer inception_4c/relu_3x3
I0403 15:32:32.536470  3205 net.cpp:91] Creating Layer inception_4c/relu_3x3
I0403 15:32:32.536487  3205 net.cpp:425] inception_4c/relu_3x3 <- inception_4c/3x3
I0403 15:32:32.536507  3205 net.cpp:386] inception_4c/relu_3x3 -> inception_4c/3x3 (in-place)
I0403 15:32:32.536694  3205 net.cpp:141] Setting up inception_4c/relu_3x3
I0403 15:32:32.536718  3205 net.cpp:148] Top shape: 24 256 14 14 (1204224)
I0403 15:32:32.536733  3205 net.cpp:156] Memory required for data: 1047659808
I0403 15:32:32.536748  3205 layer_factory.hpp:77] Creating layer inception_4c/5x5_reduce
I0403 15:32:32.536772  3205 net.cpp:91] Creating Layer inception_4c/5x5_reduce
I0403 15:32:32.536790  3205 net.cpp:425] inception_4c/5x5_reduce <- inception_4b/output_inception_4b/output_0_split_2
I0403 15:32:32.536813  3205 net.cpp:399] inception_4c/5x5_reduce -> inception_4c/5x5_reduce
I0403 15:32:32.537935  3205 net.cpp:141] Setting up inception_4c/5x5_reduce
I0403 15:32:32.537963  3205 net.cpp:148] Top shape: 24 24 14 14 (112896)
I0403 15:32:32.537978  3205 net.cpp:156] Memory required for data: 1048111392
I0403 15:32:32.537997  3205 layer_factory.hpp:77] Creating layer inception_4c/relu_5x5_reduce
I0403 15:32:32.538014  3205 net.cpp:91] Creating Layer inception_4c/relu_5x5_reduce
I0403 15:32:32.538030  3205 net.cpp:425] inception_4c/relu_5x5_reduce <- inception_4c/5x5_reduce
I0403 15:32:32.538049  3205 net.cpp:386] inception_4c/relu_5x5_reduce -> inception_4c/5x5_reduce (in-place)
I0403 15:32:32.538239  3205 net.cpp:141] Setting up inception_4c/relu_5x5_reduce
I0403 15:32:32.538265  3205 net.cpp:148] Top shape: 24 24 14 14 (112896)
I0403 15:32:32.538292  3205 net.cpp:156] Memory required for data: 1048562976
I0403 15:32:32.538307  3205 layer_factory.hpp:77] Creating layer inception_4c/5x5
I0403 15:32:32.538331  3205 net.cpp:91] Creating Layer inception_4c/5x5
I0403 15:32:32.538347  3205 net.cpp:425] inception_4c/5x5 <- inception_4c/5x5_reduce
I0403 15:32:32.538369  3205 net.cpp:399] inception_4c/5x5 -> inception_4c/5x5
I0403 15:32:32.539665  3205 net.cpp:141] Setting up inception_4c/5x5
I0403 15:32:32.539692  3205 net.cpp:148] Top shape: 24 64 14 14 (301056)
I0403 15:32:32.539708  3205 net.cpp:156] Memory required for data: 1049767200
I0403 15:32:32.539726  3205 layer_factory.hpp:77] Creating layer inception_4c/relu_5x5
I0403 15:32:32.539746  3205 net.cpp:91] Creating Layer inception_4c/relu_5x5
I0403 15:32:32.539762  3205 net.cpp:425] inception_4c/relu_5x5 <- inception_4c/5x5
I0403 15:32:32.539779  3205 net.cpp:386] inception_4c/relu_5x5 -> inception_4c/5x5 (in-place)
I0403 15:32:32.540071  3205 net.cpp:141] Setting up inception_4c/relu_5x5
I0403 15:32:32.540097  3205 net.cpp:148] Top shape: 24 64 14 14 (301056)
I0403 15:32:32.540112  3205 net.cpp:156] Memory required for data: 1050971424
I0403 15:32:32.540127  3205 layer_factory.hpp:77] Creating layer inception_4c/pool
I0403 15:32:32.540146  3205 net.cpp:91] Creating Layer inception_4c/pool
I0403 15:32:32.540163  3205 net.cpp:425] inception_4c/pool <- inception_4b/output_inception_4b/output_0_split_3
I0403 15:32:32.540181  3205 net.cpp:399] inception_4c/pool -> inception_4c/pool
I0403 15:32:32.540259  3205 net.cpp:141] Setting up inception_4c/pool
I0403 15:32:32.540295  3205 net.cpp:148] Top shape: 24 512 14 14 (2408448)
I0403 15:32:32.540310  3205 net.cpp:156] Memory required for data: 1060605216
I0403 15:32:32.540325  3205 layer_factory.hpp:77] Creating layer inception_4c/pool_proj
I0403 15:32:32.540348  3205 net.cpp:91] Creating Layer inception_4c/pool_proj
I0403 15:32:32.540364  3205 net.cpp:425] inception_4c/pool_proj <- inception_4c/pool
I0403 15:32:32.540385  3205 net.cpp:399] inception_4c/pool_proj -> inception_4c/pool_proj
I0403 15:32:32.541657  3205 net.cpp:141] Setting up inception_4c/pool_proj
I0403 15:32:32.541687  3205 net.cpp:148] Top shape: 24 64 14 14 (301056)
I0403 15:32:32.541717  3205 net.cpp:156] Memory required for data: 1061809440
I0403 15:32:32.541738  3205 layer_factory.hpp:77] Creating layer inception_4c/relu_pool_proj
I0403 15:32:32.541756  3205 net.cpp:91] Creating Layer inception_4c/relu_pool_proj
I0403 15:32:32.541772  3205 net.cpp:425] inception_4c/relu_pool_proj <- inception_4c/pool_proj
I0403 15:32:32.541791  3205 net.cpp:386] inception_4c/relu_pool_proj -> inception_4c/pool_proj (in-place)
I0403 15:32:32.541972  3205 net.cpp:141] Setting up inception_4c/relu_pool_proj
I0403 15:32:32.541996  3205 net.cpp:148] Top shape: 24 64 14 14 (301056)
I0403 15:32:32.542011  3205 net.cpp:156] Memory required for data: 1063013664
I0403 15:32:32.542026  3205 layer_factory.hpp:77] Creating layer inception_4c/output
I0403 15:32:32.542043  3205 net.cpp:91] Creating Layer inception_4c/output
I0403 15:32:32.542058  3205 net.cpp:425] inception_4c/output <- inception_4c/1x1
I0403 15:32:32.542074  3205 net.cpp:425] inception_4c/output <- inception_4c/3x3
I0403 15:32:32.542090  3205 net.cpp:425] inception_4c/output <- inception_4c/5x5
I0403 15:32:32.542105  3205 net.cpp:425] inception_4c/output <- inception_4c/pool_proj
I0403 15:32:32.542124  3205 net.cpp:399] inception_4c/output -> inception_4c/output
I0403 15:32:32.542172  3205 net.cpp:141] Setting up inception_4c/output
I0403 15:32:32.542196  3205 net.cpp:148] Top shape: 24 512 14 14 (2408448)
I0403 15:32:32.542223  3205 net.cpp:156] Memory required for data: 1072647456
I0403 15:32:32.542253  3205 layer_factory.hpp:77] Creating layer inception_4c/output_inception_4c/output_0_split
I0403 15:32:32.542271  3205 net.cpp:91] Creating Layer inception_4c/output_inception_4c/output_0_split
I0403 15:32:32.542299  3205 net.cpp:425] inception_4c/output_inception_4c/output_0_split <- inception_4c/output
I0403 15:32:32.542320  3205 net.cpp:399] inception_4c/output_inception_4c/output_0_split -> inception_4c/output_inception_4c/output_0_split_0
I0403 15:32:32.542342  3205 net.cpp:399] inception_4c/output_inception_4c/output_0_split -> inception_4c/output_inception_4c/output_0_split_1
I0403 15:32:32.542363  3205 net.cpp:399] inception_4c/output_inception_4c/output_0_split -> inception_4c/output_inception_4c/output_0_split_2
I0403 15:32:32.542384  3205 net.cpp:399] inception_4c/output_inception_4c/output_0_split -> inception_4c/output_inception_4c/output_0_split_3
I0403 15:32:32.542477  3205 net.cpp:141] Setting up inception_4c/output_inception_4c/output_0_split
I0403 15:32:32.542501  3205 net.cpp:148] Top shape: 24 512 14 14 (2408448)
I0403 15:32:32.542518  3205 net.cpp:148] Top shape: 24 512 14 14 (2408448)
I0403 15:32:32.542534  3205 net.cpp:148] Top shape: 24 512 14 14 (2408448)
I0403 15:32:32.542551  3205 net.cpp:148] Top shape: 24 512 14 14 (2408448)
I0403 15:32:32.542564  3205 net.cpp:156] Memory required for data: 1111182624
I0403 15:32:32.542579  3205 layer_factory.hpp:77] Creating layer inception_4d/1x1
I0403 15:32:32.542615  3205 net.cpp:91] Creating Layer inception_4d/1x1
I0403 15:32:32.542634  3205 net.cpp:425] inception_4d/1x1 <- inception_4c/output_inception_4c/output_0_split_0
I0403 15:32:32.542652  3205 net.cpp:399] inception_4d/1x1 -> inception_4d/1x1
I0403 15:32:32.544112  3205 net.cpp:141] Setting up inception_4d/1x1
I0403 15:32:32.544140  3205 net.cpp:148] Top shape: 24 112 14 14 (526848)
I0403 15:32:32.544157  3205 net.cpp:156] Memory required for data: 1113290016
I0403 15:32:32.544175  3205 layer_factory.hpp:77] Creating layer inception_4d/relu_1x1
I0403 15:32:32.544195  3205 net.cpp:91] Creating Layer inception_4d/relu_1x1
I0403 15:32:32.544219  3205 net.cpp:425] inception_4d/relu_1x1 <- inception_4d/1x1
I0403 15:32:32.544239  3205 net.cpp:386] inception_4d/relu_1x1 -> inception_4d/1x1 (in-place)
I0403 15:32:32.544450  3205 net.cpp:141] Setting up inception_4d/relu_1x1
I0403 15:32:32.544476  3205 net.cpp:148] Top shape: 24 112 14 14 (526848)
I0403 15:32:32.544491  3205 net.cpp:156] Memory required for data: 1115397408
I0403 15:32:32.544507  3205 layer_factory.hpp:77] Creating layer inception_4d/3x3_reduce
I0403 15:32:32.544544  3205 net.cpp:91] Creating Layer inception_4d/3x3_reduce
I0403 15:32:32.544564  3205 net.cpp:425] inception_4d/3x3_reduce <- inception_4c/output_inception_4c/output_0_split_1
I0403 15:32:32.544598  3205 net.cpp:399] inception_4d/3x3_reduce -> inception_4d/3x3_reduce
I0403 15:32:32.546159  3205 net.cpp:141] Setting up inception_4d/3x3_reduce
I0403 15:32:32.546186  3205 net.cpp:148] Top shape: 24 144 14 14 (677376)
I0403 15:32:32.546202  3205 net.cpp:156] Memory required for data: 1118106912
I0403 15:32:32.546228  3205 layer_factory.hpp:77] Creating layer inception_4d/relu_3x3_reduce
I0403 15:32:32.546249  3205 net.cpp:91] Creating Layer inception_4d/relu_3x3_reduce
I0403 15:32:32.546267  3205 net.cpp:425] inception_4d/relu_3x3_reduce <- inception_4d/3x3_reduce
I0403 15:32:32.546284  3205 net.cpp:386] inception_4d/relu_3x3_reduce -> inception_4d/3x3_reduce (in-place)
I0403 15:32:32.546581  3205 net.cpp:141] Setting up inception_4d/relu_3x3_reduce
I0403 15:32:32.546608  3205 net.cpp:148] Top shape: 24 144 14 14 (677376)
I0403 15:32:32.546623  3205 net.cpp:156] Memory required for data: 1120816416
I0403 15:32:32.546639  3205 layer_factory.hpp:77] Creating layer inception_4d/3x3
I0403 15:32:32.546661  3205 net.cpp:91] Creating Layer inception_4d/3x3
I0403 15:32:32.546679  3205 net.cpp:425] inception_4d/3x3 <- inception_4d/3x3_reduce
I0403 15:32:32.546701  3205 net.cpp:399] inception_4d/3x3 -> inception_4d/3x3
I0403 15:32:32.551131  3205 net.cpp:141] Setting up inception_4d/3x3
I0403 15:32:32.551163  3205 net.cpp:148] Top shape: 24 288 14 14 (1354752)
I0403 15:32:32.551180  3205 net.cpp:156] Memory required for data: 1126235424
I0403 15:32:32.551198  3205 layer_factory.hpp:77] Creating layer inception_4d/relu_3x3
I0403 15:32:32.551224  3205 net.cpp:91] Creating Layer inception_4d/relu_3x3
I0403 15:32:32.551241  3205 net.cpp:425] inception_4d/relu_3x3 <- inception_4d/3x3
I0403 15:32:32.551259  3205 net.cpp:386] inception_4d/relu_3x3 -> inception_4d/3x3 (in-place)
I0403 15:32:32.551467  3205 net.cpp:141] Setting up inception_4d/relu_3x3
I0403 15:32:32.551493  3205 net.cpp:148] Top shape: 24 288 14 14 (1354752)
I0403 15:32:32.551508  3205 net.cpp:156] Memory required for data: 1131654432
I0403 15:32:32.551523  3205 layer_factory.hpp:77] Creating layer inception_4d/5x5_reduce
I0403 15:32:32.551547  3205 net.cpp:91] Creating Layer inception_4d/5x5_reduce
I0403 15:32:32.551565  3205 net.cpp:425] inception_4d/5x5_reduce <- inception_4c/output_inception_4c/output_0_split_2
I0403 15:32:32.551591  3205 net.cpp:399] inception_4d/5x5_reduce -> inception_4d/5x5_reduce
I0403 15:32:32.552810  3205 net.cpp:141] Setting up inception_4d/5x5_reduce
I0403 15:32:32.552839  3205 net.cpp:148] Top shape: 24 32 14 14 (150528)
I0403 15:32:32.552855  3205 net.cpp:156] Memory required for data: 1132256544
I0403 15:32:32.552875  3205 layer_factory.hpp:77] Creating layer inception_4d/relu_5x5_reduce
I0403 15:32:32.552896  3205 net.cpp:91] Creating Layer inception_4d/relu_5x5_reduce
I0403 15:32:32.552911  3205 net.cpp:425] inception_4d/relu_5x5_reduce <- inception_4d/5x5_reduce
I0403 15:32:32.552929  3205 net.cpp:386] inception_4d/relu_5x5_reduce -> inception_4d/5x5_reduce (in-place)
I0403 15:32:32.553125  3205 net.cpp:141] Setting up inception_4d/relu_5x5_reduce
I0403 15:32:32.553150  3205 net.cpp:148] Top shape: 24 32 14 14 (150528)
I0403 15:32:32.553164  3205 net.cpp:156] Memory required for data: 1132858656
I0403 15:32:32.553180  3205 layer_factory.hpp:77] Creating layer inception_4d/5x5
I0403 15:32:32.553202  3205 net.cpp:91] Creating Layer inception_4d/5x5
I0403 15:32:32.553227  3205 net.cpp:425] inception_4d/5x5 <- inception_4d/5x5_reduce
I0403 15:32:32.553249  3205 net.cpp:399] inception_4d/5x5 -> inception_4d/5x5
I0403 15:32:32.554793  3205 net.cpp:141] Setting up inception_4d/5x5
I0403 15:32:32.554822  3205 net.cpp:148] Top shape: 24 64 14 14 (301056)
I0403 15:32:32.554837  3205 net.cpp:156] Memory required for data: 1134062880
I0403 15:32:32.554857  3205 layer_factory.hpp:77] Creating layer inception_4d/relu_5x5
I0403 15:32:32.554893  3205 net.cpp:91] Creating Layer inception_4d/relu_5x5
I0403 15:32:32.554909  3205 net.cpp:425] inception_4d/relu_5x5 <- inception_4d/5x5
I0403 15:32:32.554929  3205 net.cpp:386] inception_4d/relu_5x5 -> inception_4d/5x5 (in-place)
I0403 15:32:32.555251  3205 net.cpp:141] Setting up inception_4d/relu_5x5
I0403 15:32:32.555279  3205 net.cpp:148] Top shape: 24 64 14 14 (301056)
I0403 15:32:32.555294  3205 net.cpp:156] Memory required for data: 1135267104
I0403 15:32:32.555308  3205 layer_factory.hpp:77] Creating layer inception_4d/pool
I0403 15:32:32.555326  3205 net.cpp:91] Creating Layer inception_4d/pool
I0403 15:32:32.555341  3205 net.cpp:425] inception_4d/pool <- inception_4c/output_inception_4c/output_0_split_3
I0403 15:32:32.555362  3205 net.cpp:399] inception_4d/pool -> inception_4d/pool
I0403 15:32:32.555431  3205 net.cpp:141] Setting up inception_4d/pool
I0403 15:32:32.555455  3205 net.cpp:148] Top shape: 24 512 14 14 (2408448)
I0403 15:32:32.555469  3205 net.cpp:156] Memory required for data: 1144900896
I0403 15:32:32.555485  3205 layer_factory.hpp:77] Creating layer inception_4d/pool_proj
I0403 15:32:32.555511  3205 net.cpp:91] Creating Layer inception_4d/pool_proj
I0403 15:32:32.555529  3205 net.cpp:425] inception_4d/pool_proj <- inception_4d/pool
I0403 15:32:32.555548  3205 net.cpp:399] inception_4d/pool_proj -> inception_4d/pool_proj
I0403 15:32:32.557384  3205 net.cpp:141] Setting up inception_4d/pool_proj
I0403 15:32:32.557415  3205 net.cpp:148] Top shape: 24 64 14 14 (301056)
I0403 15:32:32.557432  3205 net.cpp:156] Memory required for data: 1146105120
I0403 15:32:32.557451  3205 layer_factory.hpp:77] Creating layer inception_4d/relu_pool_proj
I0403 15:32:32.557469  3205 net.cpp:91] Creating Layer inception_4d/relu_pool_proj
I0403 15:32:32.557485  3205 net.cpp:425] inception_4d/relu_pool_proj <- inception_4d/pool_proj
I0403 15:32:32.557502  3205 net.cpp:386] inception_4d/relu_pool_proj -> inception_4d/pool_proj (in-place)
I0403 15:32:32.557696  3205 net.cpp:141] Setting up inception_4d/relu_pool_proj
I0403 15:32:32.557721  3205 net.cpp:148] Top shape: 24 64 14 14 (301056)
I0403 15:32:32.557736  3205 net.cpp:156] Memory required for data: 1147309344
I0403 15:32:32.557751  3205 layer_factory.hpp:77] Creating layer inception_4d/output
I0403 15:32:32.557768  3205 net.cpp:91] Creating Layer inception_4d/output
I0403 15:32:32.557785  3205 net.cpp:425] inception_4d/output <- inception_4d/1x1
I0403 15:32:32.557803  3205 net.cpp:425] inception_4d/output <- inception_4d/3x3
I0403 15:32:32.557819  3205 net.cpp:425] inception_4d/output <- inception_4d/5x5
I0403 15:32:32.557834  3205 net.cpp:425] inception_4d/output <- inception_4d/pool_proj
I0403 15:32:32.557854  3205 net.cpp:399] inception_4d/output -> inception_4d/output
I0403 15:32:32.557904  3205 net.cpp:141] Setting up inception_4d/output
I0403 15:32:32.557931  3205 net.cpp:148] Top shape: 24 528 14 14 (2483712)
I0403 15:32:32.557947  3205 net.cpp:156] Memory required for data: 1157244192
I0403 15:32:32.557962  3205 layer_factory.hpp:77] Creating layer inception_4d/output_inception_4d/output_0_split
I0403 15:32:32.557979  3205 net.cpp:91] Creating Layer inception_4d/output_inception_4d/output_0_split
I0403 15:32:32.557996  3205 net.cpp:425] inception_4d/output_inception_4d/output_0_split <- inception_4d/output
I0403 15:32:32.558017  3205 net.cpp:399] inception_4d/output_inception_4d/output_0_split -> inception_4d/output_inception_4d/output_0_split_0
I0403 15:32:32.558038  3205 net.cpp:399] inception_4d/output_inception_4d/output_0_split -> inception_4d/output_inception_4d/output_0_split_1
I0403 15:32:32.558059  3205 net.cpp:399] inception_4d/output_inception_4d/output_0_split -> inception_4d/output_inception_4d/output_0_split_2
I0403 15:32:32.558080  3205 net.cpp:399] inception_4d/output_inception_4d/output_0_split -> inception_4d/output_inception_4d/output_0_split_3
I0403 15:32:32.558100  3205 net.cpp:399] inception_4d/output_inception_4d/output_0_split -> inception_4d/output_inception_4d/output_0_split_4
I0403 15:32:32.558204  3205 net.cpp:141] Setting up inception_4d/output_inception_4d/output_0_split
I0403 15:32:32.558248  3205 net.cpp:148] Top shape: 24 528 14 14 (2483712)
I0403 15:32:32.558265  3205 net.cpp:148] Top shape: 24 528 14 14 (2483712)
I0403 15:32:32.558281  3205 net.cpp:148] Top shape: 24 528 14 14 (2483712)
I0403 15:32:32.558297  3205 net.cpp:148] Top shape: 24 528 14 14 (2483712)
I0403 15:32:32.558312  3205 net.cpp:148] Top shape: 24 528 14 14 (2483712)
I0403 15:32:32.558326  3205 net.cpp:156] Memory required for data: 1206918432
I0403 15:32:32.558341  3205 layer_factory.hpp:77] Creating layer loss2/ave_pool
I0403 15:32:32.558362  3205 net.cpp:91] Creating Layer loss2/ave_pool
I0403 15:32:32.558379  3205 net.cpp:425] loss2/ave_pool <- inception_4d/output_inception_4d/output_0_split_0
I0403 15:32:32.558398  3205 net.cpp:399] loss2/ave_pool -> loss2/ave_pool
I0403 15:32:32.558722  3205 net.cpp:141] Setting up loss2/ave_pool
I0403 15:32:32.558750  3205 net.cpp:148] Top shape: 24 528 4 4 (202752)
I0403 15:32:32.558766  3205 net.cpp:156] Memory required for data: 1207729440
I0403 15:32:32.558781  3205 layer_factory.hpp:77] Creating layer loss2/conv
I0403 15:32:32.558804  3205 net.cpp:91] Creating Layer loss2/conv
I0403 15:32:32.558822  3205 net.cpp:425] loss2/conv <- loss2/ave_pool
I0403 15:32:32.558841  3205 net.cpp:399] loss2/conv -> loss2/conv
I0403 15:32:32.560828  3205 net.cpp:141] Setting up loss2/conv
I0403 15:32:32.560856  3205 net.cpp:148] Top shape: 24 128 4 4 (49152)
I0403 15:32:32.560873  3205 net.cpp:156] Memory required for data: 1207926048
I0403 15:32:32.560890  3205 layer_factory.hpp:77] Creating layer loss2/relu_conv
I0403 15:32:32.560911  3205 net.cpp:91] Creating Layer loss2/relu_conv
I0403 15:32:32.560927  3205 net.cpp:425] loss2/relu_conv <- loss2/conv
I0403 15:32:32.560945  3205 net.cpp:386] loss2/relu_conv -> loss2/conv (in-place)
I0403 15:32:32.561238  3205 net.cpp:141] Setting up loss2/relu_conv
I0403 15:32:32.561264  3205 net.cpp:148] Top shape: 24 128 4 4 (49152)
I0403 15:32:32.561277  3205 net.cpp:156] Memory required for data: 1208122656
I0403 15:32:32.561292  3205 layer_factory.hpp:77] Creating layer loss2/fc
I0403 15:32:32.561316  3205 net.cpp:91] Creating Layer loss2/fc
I0403 15:32:32.561332  3205 net.cpp:425] loss2/fc <- loss2/conv
I0403 15:32:32.561350  3205 net.cpp:399] loss2/fc -> loss2/fc
I0403 15:32:32.579128  3205 net.cpp:141] Setting up loss2/fc
I0403 15:32:32.579177  3205 net.cpp:148] Top shape: 24 1024 (24576)
I0403 15:32:32.579193  3205 net.cpp:156] Memory required for data: 1208220960
I0403 15:32:32.579231  3205 layer_factory.hpp:77] Creating layer loss2/relu_fc
I0403 15:32:32.579249  3205 net.cpp:91] Creating Layer loss2/relu_fc
I0403 15:32:32.579267  3205 net.cpp:425] loss2/relu_fc <- loss2/fc
I0403 15:32:32.579285  3205 net.cpp:386] loss2/relu_fc -> loss2/fc (in-place)
I0403 15:32:32.579613  3205 net.cpp:141] Setting up loss2/relu_fc
I0403 15:32:32.579640  3205 net.cpp:148] Top shape: 24 1024 (24576)
I0403 15:32:32.579655  3205 net.cpp:156] Memory required for data: 1208319264
I0403 15:32:32.579669  3205 layer_factory.hpp:77] Creating layer loss2/drop_fc
I0403 15:32:32.579686  3205 net.cpp:91] Creating Layer loss2/drop_fc
I0403 15:32:32.579701  3205 net.cpp:425] loss2/drop_fc <- loss2/fc
I0403 15:32:32.579720  3205 net.cpp:386] loss2/drop_fc -> loss2/fc (in-place)
I0403 15:32:32.579768  3205 net.cpp:141] Setting up loss2/drop_fc
I0403 15:32:32.579790  3205 net.cpp:148] Top shape: 24 1024 (24576)
I0403 15:32:32.579803  3205 net.cpp:156] Memory required for data: 1208417568
I0403 15:32:32.579818  3205 layer_factory.hpp:77] Creating layer loss2/classifier_plantvillage
I0403 15:32:32.579839  3205 net.cpp:91] Creating Layer loss2/classifier_plantvillage
I0403 15:32:32.579855  3205 net.cpp:425] loss2/classifier_plantvillage <- loss2/fc
I0403 15:32:32.579875  3205 net.cpp:399] loss2/classifier_plantvillage -> loss2/classifier_plantvillage
I0403 15:32:32.580281  3205 net.cpp:141] Setting up loss2/classifier_plantvillage
I0403 15:32:32.580304  3205 net.cpp:148] Top shape: 24 38 (912)
I0403 15:32:32.580341  3205 net.cpp:156] Memory required for data: 1208421216
I0403 15:32:32.580360  3205 layer_factory.hpp:77] Creating layer loss2/classifier_plantvillage_loss2/classifier_plantvillage_0_split
I0403 15:32:32.580380  3205 net.cpp:91] Creating Layer loss2/classifier_plantvillage_loss2/classifier_plantvillage_0_split
I0403 15:32:32.580396  3205 net.cpp:425] loss2/classifier_plantvillage_loss2/classifier_plantvillage_0_split <- loss2/classifier_plantvillage
I0403 15:32:32.580413  3205 net.cpp:399] loss2/classifier_plantvillage_loss2/classifier_plantvillage_0_split -> loss2/classifier_plantvillage_loss2/classifier_plantvillage_0_split_0
I0403 15:32:32.580432  3205 net.cpp:399] loss2/classifier_plantvillage_loss2/classifier_plantvillage_0_split -> loss2/classifier_plantvillage_loss2/classifier_plantvillage_0_split_1
I0403 15:32:32.580452  3205 net.cpp:399] loss2/classifier_plantvillage_loss2/classifier_plantvillage_0_split -> loss2/classifier_plantvillage_loss2/classifier_plantvillage_0_split_2
I0403 15:32:32.580528  3205 net.cpp:141] Setting up loss2/classifier_plantvillage_loss2/classifier_plantvillage_0_split
I0403 15:32:32.580551  3205 net.cpp:148] Top shape: 24 38 (912)
I0403 15:32:32.580566  3205 net.cpp:148] Top shape: 24 38 (912)
I0403 15:32:32.580581  3205 net.cpp:148] Top shape: 24 38 (912)
I0403 15:32:32.580595  3205 net.cpp:156] Memory required for data: 1208432160
I0403 15:32:32.580610  3205 layer_factory.hpp:77] Creating layer inception_4e/1x1
I0403 15:32:32.580628  3205 net.cpp:91] Creating Layer inception_4e/1x1
I0403 15:32:32.580644  3205 net.cpp:425] inception_4e/1x1 <- inception_4d/output_inception_4d/output_0_split_1
I0403 15:32:32.580664  3205 net.cpp:399] inception_4e/1x1 -> inception_4e/1x1
I0403 15:32:32.582486  3205 net.cpp:141] Setting up inception_4e/1x1
I0403 15:32:32.582514  3205 net.cpp:148] Top shape: 24 256 14 14 (1204224)
I0403 15:32:32.582528  3205 net.cpp:156] Memory required for data: 1213249056
I0403 15:32:32.582545  3205 layer_factory.hpp:77] Creating layer inception_4e/relu_1x1
I0403 15:32:32.582564  3205 net.cpp:91] Creating Layer inception_4e/relu_1x1
I0403 15:32:32.582579  3205 net.cpp:425] inception_4e/relu_1x1 <- inception_4e/1x1
I0403 15:32:32.582597  3205 net.cpp:386] inception_4e/relu_1x1 -> inception_4e/1x1 (in-place)
I0403 15:32:32.582886  3205 net.cpp:141] Setting up inception_4e/relu_1x1
I0403 15:32:32.582911  3205 net.cpp:148] Top shape: 24 256 14 14 (1204224)
I0403 15:32:32.582926  3205 net.cpp:156] Memory required for data: 1218065952
I0403 15:32:32.582939  3205 layer_factory.hpp:77] Creating layer inception_4e/3x3_reduce
I0403 15:32:32.582963  3205 net.cpp:91] Creating Layer inception_4e/3x3_reduce
I0403 15:32:32.582980  3205 net.cpp:425] inception_4e/3x3_reduce <- inception_4d/output_inception_4d/output_0_split_2
I0403 15:32:32.583000  3205 net.cpp:399] inception_4e/3x3_reduce -> inception_4e/3x3_reduce
I0403 15:32:32.585079  3205 net.cpp:141] Setting up inception_4e/3x3_reduce
I0403 15:32:32.585106  3205 net.cpp:148] Top shape: 24 160 14 14 (752640)
I0403 15:32:32.585121  3205 net.cpp:156] Memory required for data: 1221076512
I0403 15:32:32.585139  3205 layer_factory.hpp:77] Creating layer inception_4e/relu_3x3_reduce
I0403 15:32:32.585155  3205 net.cpp:91] Creating Layer inception_4e/relu_3x3_reduce
I0403 15:32:32.585175  3205 net.cpp:425] inception_4e/relu_3x3_reduce <- inception_4e/3x3_reduce
I0403 15:32:32.585191  3205 net.cpp:386] inception_4e/relu_3x3_reduce -> inception_4e/3x3_reduce (in-place)
I0403 15:32:32.585376  3205 net.cpp:141] Setting up inception_4e/relu_3x3_reduce
I0403 15:32:32.585400  3205 net.cpp:148] Top shape: 24 160 14 14 (752640)
I0403 15:32:32.585414  3205 net.cpp:156] Memory required for data: 1224087072
I0403 15:32:32.585428  3205 layer_factory.hpp:77] Creating layer inception_4e/3x3
I0403 15:32:32.585450  3205 net.cpp:91] Creating Layer inception_4e/3x3
I0403 15:32:32.585466  3205 net.cpp:425] inception_4e/3x3 <- inception_4e/3x3_reduce
I0403 15:32:32.585486  3205 net.cpp:399] inception_4e/3x3 -> inception_4e/3x3
I0403 15:32:32.590440  3205 net.cpp:141] Setting up inception_4e/3x3
I0403 15:32:32.590478  3205 net.cpp:148] Top shape: 24 320 14 14 (1505280)
I0403 15:32:32.590494  3205 net.cpp:156] Memory required for data: 1230108192
I0403 15:32:32.590512  3205 layer_factory.hpp:77] Creating layer inception_4e/relu_3x3
I0403 15:32:32.590533  3205 net.cpp:91] Creating Layer inception_4e/relu_3x3
I0403 15:32:32.590548  3205 net.cpp:425] inception_4e/relu_3x3 <- inception_4e/3x3
I0403 15:32:32.590565  3205 net.cpp:386] inception_4e/relu_3x3 -> inception_4e/3x3 (in-place)
I0403 15:32:32.590855  3205 net.cpp:141] Setting up inception_4e/relu_3x3
I0403 15:32:32.590880  3205 net.cpp:148] Top shape: 24 320 14 14 (1505280)
I0403 15:32:32.590894  3205 net.cpp:156] Memory required for data: 1236129312
I0403 15:32:32.590909  3205 layer_factory.hpp:77] Creating layer inception_4e/5x5_reduce
I0403 15:32:32.590934  3205 net.cpp:91] Creating Layer inception_4e/5x5_reduce
I0403 15:32:32.590950  3205 net.cpp:425] inception_4e/5x5_reduce <- inception_4d/output_inception_4d/output_0_split_3
I0403 15:32:32.590968  3205 net.cpp:399] inception_4e/5x5_reduce -> inception_4e/5x5_reduce
I0403 15:32:32.592013  3205 net.cpp:141] Setting up inception_4e/5x5_reduce
I0403 15:32:32.592041  3205 net.cpp:148] Top shape: 24 32 14 14 (150528)
I0403 15:32:32.592054  3205 net.cpp:156] Memory required for data: 1236731424
I0403 15:32:32.592072  3205 layer_factory.hpp:77] Creating layer inception_4e/relu_5x5_reduce
I0403 15:32:32.592089  3205 net.cpp:91] Creating Layer inception_4e/relu_5x5_reduce
I0403 15:32:32.592104  3205 net.cpp:425] inception_4e/relu_5x5_reduce <- inception_4e/5x5_reduce
I0403 15:32:32.592123  3205 net.cpp:386] inception_4e/relu_5x5_reduce -> inception_4e/5x5_reduce (in-place)
I0403 15:32:32.592427  3205 net.cpp:141] Setting up inception_4e/relu_5x5_reduce
I0403 15:32:32.592453  3205 net.cpp:148] Top shape: 24 32 14 14 (150528)
I0403 15:32:32.592468  3205 net.cpp:156] Memory required for data: 1237333536
I0403 15:32:32.592481  3205 layer_factory.hpp:77] Creating layer inception_4e/5x5
I0403 15:32:32.592519  3205 net.cpp:91] Creating Layer inception_4e/5x5
I0403 15:32:32.592537  3205 net.cpp:425] inception_4e/5x5 <- inception_4e/5x5_reduce
I0403 15:32:32.592555  3205 net.cpp:399] inception_4e/5x5 -> inception_4e/5x5
I0403 15:32:32.594400  3205 net.cpp:141] Setting up inception_4e/5x5
I0403 15:32:32.594429  3205 net.cpp:148] Top shape: 24 128 14 14 (602112)
I0403 15:32:32.594444  3205 net.cpp:156] Memory required for data: 1239741984
I0403 15:32:32.594462  3205 layer_factory.hpp:77] Creating layer inception_4e/relu_5x5
I0403 15:32:32.594480  3205 net.cpp:91] Creating Layer inception_4e/relu_5x5
I0403 15:32:32.594494  3205 net.cpp:425] inception_4e/relu_5x5 <- inception_4e/5x5
I0403 15:32:32.594513  3205 net.cpp:386] inception_4e/relu_5x5 -> inception_4e/5x5 (in-place)
I0403 15:32:32.594707  3205 net.cpp:141] Setting up inception_4e/relu_5x5
I0403 15:32:32.594730  3205 net.cpp:148] Top shape: 24 128 14 14 (602112)
I0403 15:32:32.594743  3205 net.cpp:156] Memory required for data: 1242150432
I0403 15:32:32.594758  3205 layer_factory.hpp:77] Creating layer inception_4e/pool
I0403 15:32:32.594775  3205 net.cpp:91] Creating Layer inception_4e/pool
I0403 15:32:32.594794  3205 net.cpp:425] inception_4e/pool <- inception_4d/output_inception_4d/output_0_split_4
I0403 15:32:32.594811  3205 net.cpp:399] inception_4e/pool -> inception_4e/pool
I0403 15:32:32.594879  3205 net.cpp:141] Setting up inception_4e/pool
I0403 15:32:32.594902  3205 net.cpp:148] Top shape: 24 528 14 14 (2483712)
I0403 15:32:32.594915  3205 net.cpp:156] Memory required for data: 1252085280
I0403 15:32:32.594929  3205 layer_factory.hpp:77] Creating layer inception_4e/pool_proj
I0403 15:32:32.594951  3205 net.cpp:91] Creating Layer inception_4e/pool_proj
I0403 15:32:32.594967  3205 net.cpp:425] inception_4e/pool_proj <- inception_4e/pool
I0403 15:32:32.594988  3205 net.cpp:399] inception_4e/pool_proj -> inception_4e/pool_proj
I0403 15:32:32.596542  3205 net.cpp:141] Setting up inception_4e/pool_proj
I0403 15:32:32.596585  3205 net.cpp:148] Top shape: 24 128 14 14 (602112)
I0403 15:32:32.596601  3205 net.cpp:156] Memory required for data: 1254493728
I0403 15:32:32.596621  3205 layer_factory.hpp:77] Creating layer inception_4e/relu_pool_proj
I0403 15:32:32.596638  3205 net.cpp:91] Creating Layer inception_4e/relu_pool_proj
I0403 15:32:32.596654  3205 net.cpp:425] inception_4e/relu_pool_proj <- inception_4e/pool_proj
I0403 15:32:32.596671  3205 net.cpp:386] inception_4e/relu_pool_proj -> inception_4e/pool_proj (in-place)
I0403 15:32:32.596971  3205 net.cpp:141] Setting up inception_4e/relu_pool_proj
I0403 15:32:32.596999  3205 net.cpp:148] Top shape: 24 128 14 14 (602112)
I0403 15:32:32.597014  3205 net.cpp:156] Memory required for data: 1256902176
I0403 15:32:32.597029  3205 layer_factory.hpp:77] Creating layer inception_4e/output
I0403 15:32:32.597046  3205 net.cpp:91] Creating Layer inception_4e/output
I0403 15:32:32.597061  3205 net.cpp:425] inception_4e/output <- inception_4e/1x1
I0403 15:32:32.597076  3205 net.cpp:425] inception_4e/output <- inception_4e/3x3
I0403 15:32:32.597091  3205 net.cpp:425] inception_4e/output <- inception_4e/5x5
I0403 15:32:32.597107  3205 net.cpp:425] inception_4e/output <- inception_4e/pool_proj
I0403 15:32:32.597123  3205 net.cpp:399] inception_4e/output -> inception_4e/output
I0403 15:32:32.597172  3205 net.cpp:141] Setting up inception_4e/output
I0403 15:32:32.597196  3205 net.cpp:148] Top shape: 24 832 14 14 (3913728)
I0403 15:32:32.597218  3205 net.cpp:156] Memory required for data: 1272557088
I0403 15:32:32.597245  3205 layer_factory.hpp:77] Creating layer pool4/3x3_s2
I0403 15:32:32.597275  3205 net.cpp:91] Creating Layer pool4/3x3_s2
I0403 15:32:32.597291  3205 net.cpp:425] pool4/3x3_s2 <- inception_4e/output
I0403 15:32:32.597309  3205 net.cpp:399] pool4/3x3_s2 -> pool4/3x3_s2
I0403 15:32:32.597378  3205 net.cpp:141] Setting up pool4/3x3_s2
I0403 15:32:32.597401  3205 net.cpp:148] Top shape: 24 832 7 7 (978432)
I0403 15:32:32.597415  3205 net.cpp:156] Memory required for data: 1276470816
I0403 15:32:32.597429  3205 layer_factory.hpp:77] Creating layer pool4/3x3_s2_pool4/3x3_s2_0_split
I0403 15:32:32.597445  3205 net.cpp:91] Creating Layer pool4/3x3_s2_pool4/3x3_s2_0_split
I0403 15:32:32.597461  3205 net.cpp:425] pool4/3x3_s2_pool4/3x3_s2_0_split <- pool4/3x3_s2
I0403 15:32:32.597481  3205 net.cpp:399] pool4/3x3_s2_pool4/3x3_s2_0_split -> pool4/3x3_s2_pool4/3x3_s2_0_split_0
I0403 15:32:32.597501  3205 net.cpp:399] pool4/3x3_s2_pool4/3x3_s2_0_split -> pool4/3x3_s2_pool4/3x3_s2_0_split_1
I0403 15:32:32.597522  3205 net.cpp:399] pool4/3x3_s2_pool4/3x3_s2_0_split -> pool4/3x3_s2_pool4/3x3_s2_0_split_2
I0403 15:32:32.597540  3205 net.cpp:399] pool4/3x3_s2_pool4/3x3_s2_0_split -> pool4/3x3_s2_pool4/3x3_s2_0_split_3
I0403 15:32:32.597640  3205 net.cpp:141] Setting up pool4/3x3_s2_pool4/3x3_s2_0_split
I0403 15:32:32.597666  3205 net.cpp:148] Top shape: 24 832 7 7 (978432)
I0403 15:32:32.597683  3205 net.cpp:148] Top shape: 24 832 7 7 (978432)
I0403 15:32:32.597699  3205 net.cpp:148] Top shape: 24 832 7 7 (978432)
I0403 15:32:32.597714  3205 net.cpp:148] Top shape: 24 832 7 7 (978432)
I0403 15:32:32.597728  3205 net.cpp:156] Memory required for data: 1292125728
I0403 15:32:32.597741  3205 layer_factory.hpp:77] Creating layer inception_5a/1x1
I0403 15:32:32.597764  3205 net.cpp:91] Creating Layer inception_5a/1x1
I0403 15:32:32.597781  3205 net.cpp:425] inception_5a/1x1 <- pool4/3x3_s2_pool4/3x3_s2_0_split_0
I0403 15:32:32.597800  3205 net.cpp:399] inception_5a/1x1 -> inception_5a/1x1
I0403 15:32:32.600672  3205 net.cpp:141] Setting up inception_5a/1x1
I0403 15:32:32.600703  3205 net.cpp:148] Top shape: 24 256 7 7 (301056)
I0403 15:32:32.600719  3205 net.cpp:156] Memory required for data: 1293329952
I0403 15:32:32.600738  3205 layer_factory.hpp:77] Creating layer inception_5a/relu_1x1
I0403 15:32:32.600755  3205 net.cpp:91] Creating Layer inception_5a/relu_1x1
I0403 15:32:32.600771  3205 net.cpp:425] inception_5a/relu_1x1 <- inception_5a/1x1
I0403 15:32:32.600791  3205 net.cpp:386] inception_5a/relu_1x1 -> inception_5a/1x1 (in-place)
I0403 15:32:32.601109  3205 net.cpp:141] Setting up inception_5a/relu_1x1
I0403 15:32:32.601136  3205 net.cpp:148] Top shape: 24 256 7 7 (301056)
I0403 15:32:32.601152  3205 net.cpp:156] Memory required for data: 1294534176
I0403 15:32:32.601167  3205 layer_factory.hpp:77] Creating layer inception_5a/3x3_reduce
I0403 15:32:32.601189  3205 net.cpp:91] Creating Layer inception_5a/3x3_reduce
I0403 15:32:32.601207  3205 net.cpp:425] inception_5a/3x3_reduce <- pool4/3x3_s2_pool4/3x3_s2_0_split_1
I0403 15:32:32.601236  3205 net.cpp:399] inception_5a/3x3_reduce -> inception_5a/3x3_reduce
I0403 15:32:32.603754  3205 net.cpp:141] Setting up inception_5a/3x3_reduce
I0403 15:32:32.603783  3205 net.cpp:148] Top shape: 24 160 7 7 (188160)
I0403 15:32:32.603801  3205 net.cpp:156] Memory required for data: 1295286816
I0403 15:32:32.603821  3205 layer_factory.hpp:77] Creating layer inception_5a/relu_3x3_reduce
I0403 15:32:32.603837  3205 net.cpp:91] Creating Layer inception_5a/relu_3x3_reduce
I0403 15:32:32.603853  3205 net.cpp:425] inception_5a/relu_3x3_reduce <- inception_5a/3x3_reduce
I0403 15:32:32.603870  3205 net.cpp:386] inception_5a/relu_3x3_reduce -> inception_5a/3x3_reduce (in-place)
I0403 15:32:32.604058  3205 net.cpp:141] Setting up inception_5a/relu_3x3_reduce
I0403 15:32:32.604084  3205 net.cpp:148] Top shape: 24 160 7 7 (188160)
I0403 15:32:32.604099  3205 net.cpp:156] Memory required for data: 1296039456
I0403 15:32:32.604115  3205 layer_factory.hpp:77] Creating layer inception_5a/3x3
I0403 15:32:32.604135  3205 net.cpp:91] Creating Layer inception_5a/3x3
I0403 15:32:32.604152  3205 net.cpp:425] inception_5a/3x3 <- inception_5a/3x3_reduce
I0403 15:32:32.604171  3205 net.cpp:399] inception_5a/3x3 -> inception_5a/3x3
I0403 15:32:32.609225  3205 net.cpp:141] Setting up inception_5a/3x3
I0403 15:32:32.609256  3205 net.cpp:148] Top shape: 24 320 7 7 (376320)
I0403 15:32:32.609271  3205 net.cpp:156] Memory required for data: 1297544736
I0403 15:32:32.609289  3205 layer_factory.hpp:77] Creating layer inception_5a/relu_3x3
I0403 15:32:32.609308  3205 net.cpp:91] Creating Layer inception_5a/relu_3x3
I0403 15:32:32.609323  3205 net.cpp:425] inception_5a/relu_3x3 <- inception_5a/3x3
I0403 15:32:32.609343  3205 net.cpp:386] inception_5a/relu_3x3 -> inception_5a/3x3 (in-place)
I0403 15:32:32.609639  3205 net.cpp:141] Setting up inception_5a/relu_3x3
I0403 15:32:32.609665  3205 net.cpp:148] Top shape: 24 320 7 7 (376320)
I0403 15:32:32.609680  3205 net.cpp:156] Memory required for data: 1299050016
I0403 15:32:32.609695  3205 layer_factory.hpp:77] Creating layer inception_5a/5x5_reduce
I0403 15:32:32.609717  3205 net.cpp:91] Creating Layer inception_5a/5x5_reduce
I0403 15:32:32.609735  3205 net.cpp:425] inception_5a/5x5_reduce <- pool4/3x3_s2_pool4/3x3_s2_0_split_2
I0403 15:32:32.609757  3205 net.cpp:399] inception_5a/5x5_reduce -> inception_5a/5x5_reduce
I0403 15:32:32.610935  3205 net.cpp:141] Setting up inception_5a/5x5_reduce
I0403 15:32:32.610968  3205 net.cpp:148] Top shape: 24 32 7 7 (37632)
I0403 15:32:32.610985  3205 net.cpp:156] Memory required for data: 1299200544
I0403 15:32:32.611003  3205 layer_factory.hpp:77] Creating layer inception_5a/relu_5x5_reduce
I0403 15:32:32.611023  3205 net.cpp:91] Creating Layer inception_5a/relu_5x5_reduce
I0403 15:32:32.611039  3205 net.cpp:425] inception_5a/relu_5x5_reduce <- inception_5a/5x5_reduce
I0403 15:32:32.611057  3205 net.cpp:386] inception_5a/relu_5x5_reduce -> inception_5a/5x5_reduce (in-place)
I0403 15:32:32.611364  3205 net.cpp:141] Setting up inception_5a/relu_5x5_reduce
I0403 15:32:32.611390  3205 net.cpp:148] Top shape: 24 32 7 7 (37632)
I0403 15:32:32.611405  3205 net.cpp:156] Memory required for data: 1299351072
I0403 15:32:32.611419  3205 layer_factory.hpp:77] Creating layer inception_5a/5x5
I0403 15:32:32.611441  3205 net.cpp:91] Creating Layer inception_5a/5x5
I0403 15:32:32.611459  3205 net.cpp:425] inception_5a/5x5 <- inception_5a/5x5_reduce
I0403 15:32:32.611479  3205 net.cpp:399] inception_5a/5x5 -> inception_5a/5x5
I0403 15:32:32.613225  3205 net.cpp:141] Setting up inception_5a/5x5
I0403 15:32:32.613265  3205 net.cpp:148] Top shape: 24 128 7 7 (150528)
I0403 15:32:32.613281  3205 net.cpp:156] Memory required for data: 1299953184
I0403 15:32:32.613299  3205 layer_factory.hpp:77] Creating layer inception_5a/relu_5x5
I0403 15:32:32.613317  3205 net.cpp:91] Creating Layer inception_5a/relu_5x5
I0403 15:32:32.613333  3205 net.cpp:425] inception_5a/relu_5x5 <- inception_5a/5x5
I0403 15:32:32.613353  3205 net.cpp:386] inception_5a/relu_5x5 -> inception_5a/5x5 (in-place)
I0403 15:32:32.613545  3205 net.cpp:141] Setting up inception_5a/relu_5x5
I0403 15:32:32.613570  3205 net.cpp:148] Top shape: 24 128 7 7 (150528)
I0403 15:32:32.613585  3205 net.cpp:156] Memory required for data: 1300555296
I0403 15:32:32.613600  3205 layer_factory.hpp:77] Creating layer inception_5a/pool
I0403 15:32:32.613620  3205 net.cpp:91] Creating Layer inception_5a/pool
I0403 15:32:32.613636  3205 net.cpp:425] inception_5a/pool <- pool4/3x3_s2_pool4/3x3_s2_0_split_3
I0403 15:32:32.613653  3205 net.cpp:399] inception_5a/pool -> inception_5a/pool
I0403 15:32:32.613724  3205 net.cpp:141] Setting up inception_5a/pool
I0403 15:32:32.613747  3205 net.cpp:148] Top shape: 24 832 7 7 (978432)
I0403 15:32:32.613761  3205 net.cpp:156] Memory required for data: 1304469024
I0403 15:32:32.613776  3205 layer_factory.hpp:77] Creating layer inception_5a/pool_proj
I0403 15:32:32.613797  3205 net.cpp:91] Creating Layer inception_5a/pool_proj
I0403 15:32:32.613814  3205 net.cpp:425] inception_5a/pool_proj <- inception_5a/pool
I0403 15:32:32.613836  3205 net.cpp:399] inception_5a/pool_proj -> inception_5a/pool_proj
I0403 15:32:32.616120  3205 net.cpp:141] Setting up inception_5a/pool_proj
I0403 15:32:32.616150  3205 net.cpp:148] Top shape: 24 128 7 7 (150528)
I0403 15:32:32.616166  3205 net.cpp:156] Memory required for data: 1305071136
I0403 15:32:32.616184  3205 layer_factory.hpp:77] Creating layer inception_5a/relu_pool_proj
I0403 15:32:32.616201  3205 net.cpp:91] Creating Layer inception_5a/relu_pool_proj
I0403 15:32:32.616225  3205 net.cpp:425] inception_5a/relu_pool_proj <- inception_5a/pool_proj
I0403 15:32:32.616245  3205 net.cpp:386] inception_5a/relu_pool_proj -> inception_5a/pool_proj (in-place)
I0403 15:32:32.616538  3205 net.cpp:141] Setting up inception_5a/relu_pool_proj
I0403 15:32:32.616564  3205 net.cpp:148] Top shape: 24 128 7 7 (150528)
I0403 15:32:32.616580  3205 net.cpp:156] Memory required for data: 1305673248
I0403 15:32:32.616595  3205 layer_factory.hpp:77] Creating layer inception_5a/output
I0403 15:32:32.616611  3205 net.cpp:91] Creating Layer inception_5a/output
I0403 15:32:32.616626  3205 net.cpp:425] inception_5a/output <- inception_5a/1x1
I0403 15:32:32.616642  3205 net.cpp:425] inception_5a/output <- inception_5a/3x3
I0403 15:32:32.616657  3205 net.cpp:425] inception_5a/output <- inception_5a/5x5
I0403 15:32:32.616673  3205 net.cpp:425] inception_5a/output <- inception_5a/pool_proj
I0403 15:32:32.616689  3205 net.cpp:399] inception_5a/output -> inception_5a/output
I0403 15:32:32.616740  3205 net.cpp:141] Setting up inception_5a/output
I0403 15:32:32.616762  3205 net.cpp:148] Top shape: 24 832 7 7 (978432)
I0403 15:32:32.616776  3205 net.cpp:156] Memory required for data: 1309586976
I0403 15:32:32.616791  3205 layer_factory.hpp:77] Creating layer inception_5a/output_inception_5a/output_0_split
I0403 15:32:32.616806  3205 net.cpp:91] Creating Layer inception_5a/output_inception_5a/output_0_split
I0403 15:32:32.616821  3205 net.cpp:425] inception_5a/output_inception_5a/output_0_split <- inception_5a/output
I0403 15:32:32.616842  3205 net.cpp:399] inception_5a/output_inception_5a/output_0_split -> inception_5a/output_inception_5a/output_0_split_0
I0403 15:32:32.616861  3205 net.cpp:399] inception_5a/output_inception_5a/output_0_split -> inception_5a/output_inception_5a/output_0_split_1
I0403 15:32:32.616881  3205 net.cpp:399] inception_5a/output_inception_5a/output_0_split -> inception_5a/output_inception_5a/output_0_split_2
I0403 15:32:32.616904  3205 net.cpp:399] inception_5a/output_inception_5a/output_0_split -> inception_5a/output_inception_5a/output_0_split_3
I0403 15:32:32.617012  3205 net.cpp:141] Setting up inception_5a/output_inception_5a/output_0_split
I0403 15:32:32.617035  3205 net.cpp:148] Top shape: 24 832 7 7 (978432)
I0403 15:32:32.617050  3205 net.cpp:148] Top shape: 24 832 7 7 (978432)
I0403 15:32:32.617066  3205 net.cpp:148] Top shape: 24 832 7 7 (978432)
I0403 15:32:32.617080  3205 net.cpp:148] Top shape: 24 832 7 7 (978432)
I0403 15:32:32.617094  3205 net.cpp:156] Memory required for data: 1325241888
I0403 15:32:32.617107  3205 layer_factory.hpp:77] Creating layer inception_5b/1x1
I0403 15:32:32.617128  3205 net.cpp:91] Creating Layer inception_5b/1x1
I0403 15:32:32.617146  3205 net.cpp:425] inception_5b/1x1 <- inception_5a/output_inception_5a/output_0_split_0
I0403 15:32:32.617166  3205 net.cpp:399] inception_5b/1x1 -> inception_5b/1x1
I0403 15:32:32.620848  3205 net.cpp:141] Setting up inception_5b/1x1
I0403 15:32:32.620878  3205 net.cpp:148] Top shape: 24 384 7 7 (451584)
I0403 15:32:32.620893  3205 net.cpp:156] Memory required for data: 1327048224
I0403 15:32:32.620911  3205 layer_factory.hpp:77] Creating layer inception_5b/relu_1x1
I0403 15:32:32.620929  3205 net.cpp:91] Creating Layer inception_5b/relu_1x1
I0403 15:32:32.620944  3205 net.cpp:425] inception_5b/relu_1x1 <- inception_5b/1x1
I0403 15:32:32.620960  3205 net.cpp:386] inception_5b/relu_1x1 -> inception_5b/1x1 (in-place)
I0403 15:32:32.621264  3205 net.cpp:141] Setting up inception_5b/relu_1x1
I0403 15:32:32.621291  3205 net.cpp:148] Top shape: 24 384 7 7 (451584)
I0403 15:32:32.621306  3205 net.cpp:156] Memory required for data: 1328854560
I0403 15:32:32.621320  3205 layer_factory.hpp:77] Creating layer inception_5b/3x3_reduce
I0403 15:32:32.621340  3205 net.cpp:91] Creating Layer inception_5b/3x3_reduce
I0403 15:32:32.621356  3205 net.cpp:425] inception_5b/3x3_reduce <- inception_5a/output_inception_5a/output_0_split_1
I0403 15:32:32.621377  3205 net.cpp:399] inception_5b/3x3_reduce -> inception_5b/3x3_reduce
I0403 15:32:32.623996  3205 net.cpp:141] Setting up inception_5b/3x3_reduce
I0403 15:32:32.624027  3205 net.cpp:148] Top shape: 24 192 7 7 (225792)
I0403 15:32:32.624042  3205 net.cpp:156] Memory required for data: 1329757728
I0403 15:32:32.624063  3205 layer_factory.hpp:77] Creating layer inception_5b/relu_3x3_reduce
I0403 15:32:32.624081  3205 net.cpp:91] Creating Layer inception_5b/relu_3x3_reduce
I0403 15:32:32.624097  3205 net.cpp:425] inception_5b/relu_3x3_reduce <- inception_5b/3x3_reduce
I0403 15:32:32.624114  3205 net.cpp:386] inception_5b/relu_3x3_reduce -> inception_5b/3x3_reduce (in-place)
I0403 15:32:32.624313  3205 net.cpp:141] Setting up inception_5b/relu_3x3_reduce
I0403 15:32:32.624338  3205 net.cpp:148] Top shape: 24 192 7 7 (225792)
I0403 15:32:32.624353  3205 net.cpp:156] Memory required for data: 1330660896
I0403 15:32:32.624367  3205 layer_factory.hpp:77] Creating layer inception_5b/3x3
I0403 15:32:32.624389  3205 net.cpp:91] Creating Layer inception_5b/3x3
I0403 15:32:32.624408  3205 net.cpp:425] inception_5b/3x3 <- inception_5b/3x3_reduce
I0403 15:32:32.624431  3205 net.cpp:399] inception_5b/3x3 -> inception_5b/3x3
I0403 15:32:32.631162  3205 net.cpp:141] Setting up inception_5b/3x3
I0403 15:32:32.631196  3205 net.cpp:148] Top shape: 24 384 7 7 (451584)
I0403 15:32:32.631217  3205 net.cpp:156] Memory required for data: 1332467232
I0403 15:32:32.631237  3205 layer_factory.hpp:77] Creating layer inception_5b/relu_3x3
I0403 15:32:32.631255  3205 net.cpp:91] Creating Layer inception_5b/relu_3x3
I0403 15:32:32.631271  3205 net.cpp:425] inception_5b/relu_3x3 <- inception_5b/3x3
I0403 15:32:32.631290  3205 net.cpp:386] inception_5b/relu_3x3 -> inception_5b/3x3 (in-place)
I0403 15:32:32.631592  3205 net.cpp:141] Setting up inception_5b/relu_3x3
I0403 15:32:32.631620  3205 net.cpp:148] Top shape: 24 384 7 7 (451584)
I0403 15:32:32.631635  3205 net.cpp:156] Memory required for data: 1334273568
I0403 15:32:32.631650  3205 layer_factory.hpp:77] Creating layer inception_5b/5x5_reduce
I0403 15:32:32.631690  3205 net.cpp:91] Creating Layer inception_5b/5x5_reduce
I0403 15:32:32.631710  3205 net.cpp:425] inception_5b/5x5_reduce <- inception_5a/output_inception_5a/output_0_split_2
I0403 15:32:32.631728  3205 net.cpp:399] inception_5b/5x5_reduce -> inception_5b/5x5_reduce
I0403 15:32:32.633026  3205 net.cpp:141] Setting up inception_5b/5x5_reduce
I0403 15:32:32.633056  3205 net.cpp:148] Top shape: 24 48 7 7 (56448)
I0403 15:32:32.633072  3205 net.cpp:156] Memory required for data: 1334499360
I0403 15:32:32.633090  3205 layer_factory.hpp:77] Creating layer inception_5b/relu_5x5_reduce
I0403 15:32:32.633108  3205 net.cpp:91] Creating Layer inception_5b/relu_5x5_reduce
I0403 15:32:32.633124  3205 net.cpp:425] inception_5b/relu_5x5_reduce <- inception_5b/5x5_reduce
I0403 15:32:32.633141  3205 net.cpp:386] inception_5b/relu_5x5_reduce -> inception_5b/5x5_reduce (in-place)
I0403 15:32:32.633524  3205 net.cpp:141] Setting up inception_5b/relu_5x5_reduce
I0403 15:32:32.633550  3205 net.cpp:148] Top shape: 24 48 7 7 (56448)
I0403 15:32:32.633565  3205 net.cpp:156] Memory required for data: 1334725152
I0403 15:32:32.633579  3205 layer_factory.hpp:77] Creating layer inception_5b/5x5
I0403 15:32:32.633599  3205 net.cpp:91] Creating Layer inception_5b/5x5
I0403 15:32:32.633615  3205 net.cpp:425] inception_5b/5x5 <- inception_5b/5x5_reduce
I0403 15:32:32.633635  3205 net.cpp:399] inception_5b/5x5 -> inception_5b/5x5
I0403 15:32:32.635777  3205 net.cpp:141] Setting up inception_5b/5x5
I0403 15:32:32.635807  3205 net.cpp:148] Top shape: 24 128 7 7 (150528)
I0403 15:32:32.635823  3205 net.cpp:156] Memory required for data: 1335327264
I0403 15:32:32.635841  3205 layer_factory.hpp:77] Creating layer inception_5b/relu_5x5
I0403 15:32:32.635859  3205 net.cpp:91] Creating Layer inception_5b/relu_5x5
I0403 15:32:32.635874  3205 net.cpp:425] inception_5b/relu_5x5 <- inception_5b/5x5
I0403 15:32:32.635895  3205 net.cpp:386] inception_5b/relu_5x5 -> inception_5b/5x5 (in-place)
I0403 15:32:32.636088  3205 net.cpp:141] Setting up inception_5b/relu_5x5
I0403 15:32:32.636113  3205 net.cpp:148] Top shape: 24 128 7 7 (150528)
I0403 15:32:32.636127  3205 net.cpp:156] Memory required for data: 1335929376
I0403 15:32:32.636142  3205 layer_factory.hpp:77] Creating layer inception_5b/pool
I0403 15:32:32.636162  3205 net.cpp:91] Creating Layer inception_5b/pool
I0403 15:32:32.636178  3205 net.cpp:425] inception_5b/pool <- inception_5a/output_inception_5a/output_0_split_3
I0403 15:32:32.636196  3205 net.cpp:399] inception_5b/pool -> inception_5b/pool
I0403 15:32:32.636278  3205 net.cpp:141] Setting up inception_5b/pool
I0403 15:32:32.636302  3205 net.cpp:148] Top shape: 24 832 7 7 (978432)
I0403 15:32:32.636317  3205 net.cpp:156] Memory required for data: 1339843104
I0403 15:32:32.636330  3205 layer_factory.hpp:77] Creating layer inception_5b/pool_proj
I0403 15:32:32.636353  3205 net.cpp:91] Creating Layer inception_5b/pool_proj
I0403 15:32:32.636369  3205 net.cpp:425] inception_5b/pool_proj <- inception_5b/pool
I0403 15:32:32.636406  3205 net.cpp:399] inception_5b/pool_proj -> inception_5b/pool_proj
I0403 15:32:32.638756  3205 net.cpp:141] Setting up inception_5b/pool_proj
I0403 15:32:32.638787  3205 net.cpp:148] Top shape: 24 128 7 7 (150528)
I0403 15:32:32.638803  3205 net.cpp:156] Memory required for data: 1340445216
I0403 15:32:32.638821  3205 layer_factory.hpp:77] Creating layer inception_5b/relu_pool_proj
I0403 15:32:32.638839  3205 net.cpp:91] Creating Layer inception_5b/relu_pool_proj
I0403 15:32:32.638854  3205 net.cpp:425] inception_5b/relu_pool_proj <- inception_5b/pool_proj
I0403 15:32:32.638875  3205 net.cpp:386] inception_5b/relu_pool_proj -> inception_5b/pool_proj (in-place)
I0403 15:32:32.639173  3205 net.cpp:141] Setting up inception_5b/relu_pool_proj
I0403 15:32:32.639201  3205 net.cpp:148] Top shape: 24 128 7 7 (150528)
I0403 15:32:32.639225  3205 net.cpp:156] Memory required for data: 1341047328
I0403 15:32:32.639240  3205 layer_factory.hpp:77] Creating layer inception_5b/output
I0403 15:32:32.639257  3205 net.cpp:91] Creating Layer inception_5b/output
I0403 15:32:32.639288  3205 net.cpp:425] inception_5b/output <- inception_5b/1x1
I0403 15:32:32.639307  3205 net.cpp:425] inception_5b/output <- inception_5b/3x3
I0403 15:32:32.639322  3205 net.cpp:425] inception_5b/output <- inception_5b/5x5
I0403 15:32:32.639338  3205 net.cpp:425] inception_5b/output <- inception_5b/pool_proj
I0403 15:32:32.639354  3205 net.cpp:399] inception_5b/output -> inception_5b/output
I0403 15:32:32.639407  3205 net.cpp:141] Setting up inception_5b/output
I0403 15:32:32.639431  3205 net.cpp:148] Top shape: 24 1024 7 7 (1204224)
I0403 15:32:32.639446  3205 net.cpp:156] Memory required for data: 1345864224
I0403 15:32:32.639461  3205 layer_factory.hpp:77] Creating layer pool5/7x7_s1
I0403 15:32:32.639479  3205 net.cpp:91] Creating Layer pool5/7x7_s1
I0403 15:32:32.639495  3205 net.cpp:425] pool5/7x7_s1 <- inception_5b/output
I0403 15:32:32.639513  3205 net.cpp:399] pool5/7x7_s1 -> pool5/7x7_s1
I0403 15:32:32.639734  3205 net.cpp:141] Setting up pool5/7x7_s1
I0403 15:32:32.639758  3205 net.cpp:148] Top shape: 24 1024 1 1 (24576)
I0403 15:32:32.639772  3205 net.cpp:156] Memory required for data: 1345962528
I0403 15:32:32.639787  3205 layer_factory.hpp:77] Creating layer pool5/drop_7x7_s1
I0403 15:32:32.639806  3205 net.cpp:91] Creating Layer pool5/drop_7x7_s1
I0403 15:32:32.639821  3205 net.cpp:425] pool5/drop_7x7_s1 <- pool5/7x7_s1
I0403 15:32:32.639839  3205 net.cpp:386] pool5/drop_7x7_s1 -> pool5/7x7_s1 (in-place)
I0403 15:32:32.639889  3205 net.cpp:141] Setting up pool5/drop_7x7_s1
I0403 15:32:32.639915  3205 net.cpp:148] Top shape: 24 1024 1 1 (24576)
I0403 15:32:32.639930  3205 net.cpp:156] Memory required for data: 1346060832
I0403 15:32:32.639945  3205 layer_factory.hpp:77] Creating layer loss3/classifier_plantvillage
I0403 15:32:32.639963  3205 net.cpp:91] Creating Layer loss3/classifier_plantvillage
I0403 15:32:32.639978  3205 net.cpp:425] loss3/classifier_plantvillage <- pool5/7x7_s1
I0403 15:32:32.639998  3205 net.cpp:399] loss3/classifier_plantvillage -> loss3/classifier_plantvillage
I0403 15:32:32.640435  3205 net.cpp:141] Setting up loss3/classifier_plantvillage
I0403 15:32:32.640460  3205 net.cpp:148] Top shape: 24 38 (912)
I0403 15:32:32.640473  3205 net.cpp:156] Memory required for data: 1346064480
I0403 15:32:32.640491  3205 layer_factory.hpp:77] Creating layer loss3/classifier_plantvillage_loss3/classifier_plantvillage_0_split
I0403 15:32:32.640512  3205 net.cpp:91] Creating Layer loss3/classifier_plantvillage_loss3/classifier_plantvillage_0_split
I0403 15:32:32.640528  3205 net.cpp:425] loss3/classifier_plantvillage_loss3/classifier_plantvillage_0_split <- loss3/classifier_plantvillage
I0403 15:32:32.640547  3205 net.cpp:399] loss3/classifier_plantvillage_loss3/classifier_plantvillage_0_split -> loss3/classifier_plantvillage_loss3/classifier_plantvillage_0_split_0
I0403 15:32:32.640565  3205 net.cpp:399] loss3/classifier_plantvillage_loss3/classifier_plantvillage_0_split -> loss3/classifier_plantvillage_loss3/classifier_plantvillage_0_split_1
I0403 15:32:32.640585  3205 net.cpp:399] loss3/classifier_plantvillage_loss3/classifier_plantvillage_0_split -> loss3/classifier_plantvillage_loss3/classifier_plantvillage_0_split_2
I0403 15:32:32.640609  3205 net.cpp:399] loss3/classifier_plantvillage_loss3/classifier_plantvillage_0_split -> loss3/classifier_plantvillage_loss3/classifier_plantvillage_0_split_3
I0403 15:32:32.640712  3205 net.cpp:141] Setting up loss3/classifier_plantvillage_loss3/classifier_plantvillage_0_split
I0403 15:32:32.640735  3205 net.cpp:148] Top shape: 24 38 (912)
I0403 15:32:32.640751  3205 net.cpp:148] Top shape: 24 38 (912)
I0403 15:32:32.640766  3205 net.cpp:148] Top shape: 24 38 (912)
I0403 15:32:32.640781  3205 net.cpp:148] Top shape: 24 38 (912)
I0403 15:32:32.640795  3205 net.cpp:156] Memory required for data: 1346079072
I0403 15:32:32.640810  3205 layer_factory.hpp:77] Creating layer loss1/loss
I0403 15:32:32.640831  3205 net.cpp:91] Creating Layer loss1/loss
I0403 15:32:32.640848  3205 net.cpp:425] loss1/loss <- loss1/classifier_plantvillage_loss1/classifier_plantvillage_0_split_0
I0403 15:32:32.640879  3205 net.cpp:425] loss1/loss <- label_data_1_split_0
…
