…
I0403 15:07:09.361328  2685 net.cpp:313] The NetState phase (1) differed from the phase (0) specified by a rule in layer data
I0403 15:07:09.363723  2685 net.cpp:49] Initializing net from parameters: 
state {
  phase: TEST
}
layer {
  name: "data"
  type: "Data"
  top: "data"
  top: "label"
  include {
    phase: TEST
  }
  transform_param {
    mirror: false
    crop_size: 224
    mean_file: "/home/mohanty/data/final_dataset/lmdb/segmented-60-40/mean.binaryproto"
  }
  data_param {
    source: "/home/mohanty/data/final_dataset/lmdb/segmented-60-40/test_db"
    batch_size: 24
    backend: LMDB
  }
}
layer {
  name: "conv1/7x7_s2"
  type: "Convolution"
  bottom: "data"
  top: "conv1/7x7_s2"
  param {
    lr_mult: 1
    decay_mult: 1
  }
  param {
    lr_mult: 2
    decay_mult: 0
  }
  convolution_param {
    num_output: 64
    pad: 3
    kernel_size: 7
    stride: 2
    weight_filler {
      type: "xavier"
      std: 0.1
    }
    bias_filler {
      type: "constant"
      value: 0.2
    }
  }
}
layer {
  name: "conv1/relu_7x7"
  type: "ReLU"
  bottom: "conv1/7x7_s2"
  top: "conv1/7x7_s2"
}
layer {
  name: "pool1/3x3_s2"
  type: "Pooling"
  bottom: "conv1/7x7_s2"
  top: "pool1/3x3_s2"
  pooling_param {
    pool: MAX
    kernel_size: 3
    stride: 2
  }
}
layer {
  name: "pool1/norm1"
  type: "LRN"
  bottom: "pool1/3x3_s2"
  top: "pool1/norm1"
  lrn_param {
    local_size: 5
    alpha: 0.0001
    beta: 0.75
  }
}
layer {
  name: "conv2/3x3_reduce"
  type: "Convolution"
  bottom: "pool1/norm1"
  top: "conv2/3x3_reduce"
  param {
    lr_mult: 1
    decay_mult: 1
  }
  param {
    lr_mult: 2
    decay_mult: 0
  }
  convolution_param {
    num_output: 64
    kernel_size: 1
    weight_filler {
      type: "xavier"
      std: 0.1
    }
    bias_filler {
      type: "constant"
      value: 0.2
    }
  }
}
layer {
  name: "conv2/relu_3x3_reduce"
  type: "ReLU"
  bottom: "conv2/3x3_reduce"
  top: "conv2/3x3_reduce"
}
layer {
  name: "conv2/3x3"
  type: "Convolution"
  bottom: "conv2/3x3_reduce"
  top: "conv2/3x3"
  param {
    lr_mult: 1
    decay_mult: 1
  }
  param {
    lr_mult: 2
    decay_mult: 0
  }
  convolution_param {
    num_output: 192
    pad: 1
    kernel_size: 3
    weight_filler {
      type: "xavier"
      std: 0.03
    }
    bias_filler {
      type: "constant"
      value: 0.2
    }
  }
}
layer {
  name: "conv2/relu_3x3"
  type: "ReLU"
  bottom: "conv2/3x3"
  top: "conv2/3x3"
}
layer {
  name: "conv2/norm2"
  type: "LRN"
  bottom: "conv2/3x3"
  top: "conv2/norm2"
  lrn_param {
    local_size: 5
    alpha: 0.0001
    beta: 0.75
  }
}
layer {
  name: "pool2/3x3_s2"
  type: "Pooling"
  bottom: "conv2/norm2"
  top: "pool2/3x3_s2"
  pooling_param {
    pool: MAX
    kernel_size: 3
    stride: 2
  }
}
layer {
  name: "inception_3a/1x1"
  type: "Convolution"
  bottom: "pool2/3x3_s2"
  top: "inception_3a/1x1"
  param {
    lr_mult: 1
    decay_mult: 1
  }
  param {
    lr_mult: 2
    decay_mult: 0
  }
  convolution_param {
    num_output: 64
    kernel_size: 1
    weight_filler {
      type: "xavier"
      std: 0.03
    }
    bias_filler {
      type: "constant"
      value: 0.2
    }
  }
}
layer {
  name: "inception_3a/relu_1x1"
  type: "ReLU"
  bottom: "inception_3a/1x1"
  top: "inception_3a/1x1"
}
layer {
  name: "inception_3a/3x3_reduce"
  type: "Convolution"
  bottom: "pool2/3x3_s2"
  top: "inception_3a/3x3_reduce"
  param {
    lr_mult: 1
    decay_mult: 1
  }
  param {
    lr_mult: 2
    decay_mult: 0
  }
  convolution_param {
    num_output: 96
    kernel_size: 1
    weight_filler {
      type: "xavier"
      std: 0.09
    }
    bias_filler {
      type: "constant"
      value: 0.2
    }
  }
}
layer {
  name: "inception_3a/relu_3x3_reduce"
  type: "ReLU"
  bottom: "inception_3a/3x3_reduce"
  top: "inception_3a/3x3_reduce"
}
layer {
  name: "inception_3a/3x3"
  type: "Convolution"
  bottom: "inception_3a/3x3_reduce"
  top: "inception_3a/3x3"
  param {
    lr_mult: 1
    decay_mult: 1
  }
  param {
    lr_mult: 2
    decay_mult: 0
  }
  convolution_param {
    num_output: 128
    pad: 1
    kernel_size: 3
    weight_filler {
      type: "xavier"
      std: 0.03
    }
    bias_filler {
      type: "constant"
      value: 0.2
    }
  }
}
layer {
  name: "inception_3a/relu_3x3"
  type: "ReLU"
  bottom: "inception_3a/3x3"
  top: "inception_3a/3x3"
}
layer {
  name: "inception_3a/5x5_reduce"
  type: "Convolution"
  bottom: "pool2/3x3_s2"
  top: "inception_3a/5x5_reduce"
  param {
    lr_mult: 1
    decay_mult: 1
  }
  param {
    lr_mult: 2
    decay_mult: 0
  }
  convolution_param {
    num_output: 16
    kernel_size: 1
    weight_filler {
      type: "xavier"
      std: 0.2
    }
    bias_filler {
      type: "constant"
      value: 0.2
    }
  }
}
layer {
  name: "inception_3a/relu_5x5_reduce"
  type: "ReLU"
  bottom: "inception_3a/5x5_reduce"
  top: "inception_3a/5x5_reduce"
}
layer {
  name: "inception_3a/5x5"
  type: "Convolution"
  bottom: "inception_3a/5x5_reduce"
  top: "inception_3a/5x5"
  param {
    lr_mult: 1
    decay_mult: 1
  }
  param {
    lr_mult: 2
    decay_mult: 0
  }
  convolution_param {
    num_output: 32
    pad: 2
    kernel_size: 5
    weight_filler {
      type: "xavier"
      std: 0.03
    }
    bias_filler {
      type: "constant"
      value: 0.2
    }
  }
}
layer {
  name: "inception_3a/relu_5x5"
  type: "ReLU"
  bottom: "inception_3a/5x5"
  top: "inception_3a/5x5"
}
layer {
  name: "inception_3a/pool"
  type: "Pooling"
  bottom: "pool2/3x3_s2"
  top: "inception_3a/pool"
  pooling_param {
    pool: MAX
    kernel_size: 3
    stride: 1
    pad: 1
  }
}
layer {
  name: "inception_3a/pool_proj"
  type: "Convolution"
  bottom: "inception_3a/pool"
  top: "inception_3a/pool_proj"
  param {
    lr_mult: 1
    decay_mult: 1
  }
  param {
    lr_mult: 2
    decay_mult: 0
  }
  convolution_param {
    num_output: 32
    kernel_size: 1
    weight_filler {
      type: "xavier"
      std: 0.1
    }
    bias_filler {
      type: "constant"
      value: 0.2
    }
  }
}
layer {
  name: "inception_3a/relu_pool_proj"
  type: "ReLU"
  bottom: "inception_3a/pool_proj"
  top: "inception_3a/pool_proj"
}
layer {
  name: "inception_3a/output"
  type: "Concat"
  bottom: "inception_3a/1x1"
  bottom: "inception_3a/3x3"
  bottom: "inception_3a/5x5"
  bottom: "inception_3a/pool_proj"
  top: "inception_3a/output"
}
layer {
  name: "inception_3b/1x1"
  type: "Convolution"
  bottom: "inception_3a/output"
  top: "inception_3b/1x1"
  param {
    lr_mult: 1
    decay_mult: 1
  }
  param {
    lr_mult: 2
    decay_mult: 0
  }
  convolution_param {
    num_output: 128
    kernel_size: 1
    weight_filler {
      type: "xavier"
      std: 0.03
    }
    bias_filler {
      type: "constant"
      value: 0.2
    }
  }
}
layer {
  name: "inception_3b/relu_1x1"
  type: "ReLU"
  bottom: "inception_3b/1x1"
  top: "inception_3b/1x1"
}
layer {
  name: "inception_3b/3x3_reduce"
  type: "Convolution"
  bottom: "inception_3a/output"
  top: "inception_3b/3x3_reduce"
  param {
    lr_mult: 1
    decay_mult: 1
  }
  param {
    lr_mult: 2
    decay_mult: 0
  }
  convolution_param {
    num_output: 128
    kernel_size: 1
    weight_filler {
      type: "xavier"
      std: 0.09
    }
    bias_filler {
      type: "constant"
      value: 0.2
    }
  }
}
layer {
  name: "inception_3b/relu_3x3_reduce"
  type: "ReLU"
  bottom: "inception_3b/3x3_reduce"
  top: "inception_3b/3x3_reduce"
}
layer {
  name: "inception_3b/3x3"
  type: "Convolution"
  bottom: "inception_3b/3x3_reduce"
  top: "inception_3b/3x3"
  param {
    lr_mult: 1
    decay_mult: 1
  }
  param {
    lr_mult: 2
    decay_mult: 0
  }
  convolution_param {
    num_output: 192
    pad: 1
    kernel_size: 3
    weight_filler {
      type: "xavier"
      std: 0.03
    }
    bias_filler {
      type: "constant"
      value: 0.2
    }
  }
}
layer {
  name: "inception_3b/relu_3x3"
  type: "ReLU"
  bottom: "inception_3b/3x3"
  top: "inception_3b/3x3"
}
layer {
  name: "inception_3b/5x5_reduce"
  type: "Convolution"
  bottom: "inception_3a/output"
  top: "inception_3b/5x5_reduce"
  param {
    lr_mult: 1
    decay_mult: 1
  }
  param {
    lr_mult: 2
    decay_mult: 0
  }
  convolution_param {
    num_output: 32
    kernel_size: 1
    weight_filler {
      type: "xavier"
      std: 0.2
    }
    bias_filler {
      type: "constant"
      value: 0.2
    }
  }
}
layer {
  name: "inception_3b/relu_5x5_reduce"
  type: "ReLU"
  bottom: "inception_3b/5x5_reduce"
  top: "inception_3b/5x5_reduce"
}
layer {
  name: "inception_3b/5x5"
  type: "Convolution"
  bottom: "inception_3b/5x5_reduce"
  top: "inception_3b/5x5"
  param {
    lr_mult: 1
    decay_mult: 1
  }
  param {
    lr_mult: 2
    decay_mult: 0
  }
  convolution_param {
    num_output: 96
    pad: 2
    kernel_size: 5
    weight_filler {
      type: "xavier"
      std: 0.03
    }
    bias_filler {
      type: "constant"
      value: 0.2
    }
  }
}
layer {
  name: "inception_3b/relu_5x5"
  type: "ReLU"
  bottom: "inception_3b/5x5"
  top: "inception_3b/5x5"
}
layer {
  name: "inception_3b/pool"
  type: "Pooling"
  bottom: "inception_3a/output"
  top: "inception_3b/pool"
  pooling_param {
    pool: MAX
    kernel_size: 3
    stride: 1
    pad: 1
  }
}
layer {
  name: "inception_3b/pool_proj"
  type: "Convolution"
  bottom: "inception_3b/pool"
  top: "inception_3b/pool_proj"
  param {
    lr_mult: 1
    decay_mult: 1
  }
  param {
    lr_mult: 2
    decay_mult: 0
  }
  convolution_param {
    num_output: 64
    kernel_size: 1
    weight_filler {
      type: "xavier"
      std: 0.1
    }
    bias_filler {
      type: "constant"
      value: 0.2
    }
  }
}
layer {
  name: "inception_3b/relu_pool_proj"
  type: "ReLU"
  bottom: "inception_3b/pool_proj"
  top: "inception_3b/pool_proj"
}
layer {
  name: "inception_3b/output"
  type: "Concat"
  bottom: "inception_3b/1x1"
  bottom: "inception_3b/3x3"
  bottom: "inception_3b/5x5"
  bottom: "inception_3b/pool_proj"
  top: "inception_3b/output"
}
layer {
  name: "pool3/3x3_s2"
  type: "Pooling"
  bottom: "inception_3b/output"
  top: "pool3/3x3_s2"
  pooling_param {
    pool: MAX
    kernel_size: 3
    stride: 2
  }
}
layer {
  name: "inception_4a/1x1"
  type: "Convolution"
  bottom: "pool3/3x3_s2"
  top: "inception_4a/1x1"
  param {
    lr_mult: 1
    decay_mult: 1
  }
  param {
    lr_mult: 2
    decay_mult: 0
  }
  convolution_param {
    num_output: 192
    kernel_size: 1
    weight_filler {
      type: "xavier"
      std: 0.03
    }
    bias_filler {
      type: "constant"
      value: 0.2
    }
  }
}
layer {
  name: "inception_4a/relu_1x1"
  type: "ReLU"
  bottom: "inception_4a/1x1"
  top: "inception_4a/1x1"
}
layer {
  name: "inception_4a/3x3_reduce"
  type: "Convolution"
  bottom: "pool3/3x3_s2"
  top: "inception_4a/3x3_reduce"
  param {
    lr_mult: 1
    decay_mult: 1
  }
  param {
    lr_mult: 2
    decay_mult: 0
  }
  convolution_param {
    num_output: 96
    kernel_size: 1
    weight_filler {
      type: "xavier"
      std: 0.09
    }
    bias_filler {
      type: "constant"
      value: 0.2
    }
  }
}
layer {
  name: "inception_4a/relu_3x3_reduce"
  type: "ReLU"
  bottom: "inception_4a/3x3_reduce"
  top: "inception_4a/3x3_reduce"
}
layer {
  name: "inception_4a/3x3"
  type: "Convolution"
  bottom: "inception_4a/3x3_reduce"
  top: "inception_4a/3x3"
  param {
    lr_mult: 1
    decay_mult: 1
  }
  param {
    lr_mult: 2
    decay_mult: 0
  }
  convolution_param {
    num_output: 208
    pad: 1
    kernel_size: 3
    weight_filler {
      type: "xavier"
      std: 0.03
    }
    bias_filler {
      type: "constant"
      value: 0.2
    }
  }
}
layer {
  name: "inception_4a/relu_3x3"
  type: "ReLU"
  bottom: "inception_4a/3x3"
  top: "inception_4a/3x3"
}
layer {
  name: "inception_4a/5x5_reduce"
  type: "Convolution"
  bottom: "pool3/3x3_s2"
  top: "inception_4a/5x5_reduce"
  param {
    lr_mult: 1
    decay_mult: 1
  }
  param {
    lr_mult: 2
    decay_mult: 0
  }
  convolution_param {
    num_output: 16
    kernel_size: 1
    weight_filler {
      type: "xavier"
      std: 0.2
    }
    bias_filler {
      type: "constant"
      value: 0.2
    }
  }
}
layer {
  name: "inception_4a/relu_5x5_reduce"
  type: "ReLU"
  bottom: "inception_4a/5x5_reduce"
  top: "inception_4a/5x5_reduce"
}
layer {
  name: "inception_4a/5x5"
  type: "Convolution"
  bottom: "inception_4a/5x5_reduce"
  top: "inception_4a/5x5"
  param {
    lr_mult: 1
    decay_mult: 1
  }
  param {
    lr_mult: 2
    decay_mult: 0
  }
  convolution_param {
    num_output: 48
    pad: 2
    kernel_size: 5
    weight_filler {
      type: "xavier"
      std: 0.03
    }
    bias_filler {
      type: "constant"
      value: 0.2
    }
  }
}
layer {
  name: "inception_4a/relu_5x5"
  type: "ReLU"
  bottom: "inception_4a/5x5"
  top: "inception_4a/5x5"
}
layer {
  name: "inception_4a/pool"
  type: "Pooling"
  bottom: "pool3/3x3_s2"
  top: "inception_4a/pool"
  pooling_param {
    pool: MAX
    kernel_size: 3
    stride: 1
    pad: 1
  }
}
layer {
  name: "inception_4a/pool_proj"
  type: "Convolution"
  bottom: "inception_4a/pool"
  top: "inception_4a/pool_proj"
  param {
    lr_mult: 1
    decay_mult: 1
  }
  param {
    lr_mult: 2
    decay_mult: 0
  }
  convolution_param {
    num_output: 64
    kernel_size: 1
    weight_filler {
      type: "xavier"
      std: 0.1
    }
    bias_filler {
      type: "constant"
      value: 0.2
    }
  }
}
layer {
  name: "inception_4a/relu_pool_proj"
  type: "ReLU"
  bottom: "inception_4a/pool_proj"
  top: "inception_4a/pool_proj"
}
layer {
  name: "inception_4a/output"
  type: "Concat"
  bottom: "inception_4a/1x1"
  bottom: "inception_4a/3x3"
  bottom: "inception_4a/5x5"
  bottom: "inception_4a/pool_proj"
  top: "inception_4a/output"
}
layer {
  name: "loss1/ave_pool"
  type: "Pooling"
  bottom: "inception_4a/output"
  top: "loss1/ave_pool"
  pooling_param {
    pool: AVE
    kernel_size: 5
    stride: 3
  }
}
layer {
  name: "loss1/conv"
  type: "Convolution"
  bottom: "loss1/ave_pool"
  top: "loss1/conv"
  param {
    lr_mult: 1
    decay_mult: 1
  }
  param {
    lr_mult: 2
    decay_mult: 0
  }
  convolution_param {
    num_output: 128
    kernel_size: 1
    weight_filler {
      type: "xavier"
      std: 0.08
    }
    bias_filler {
      type: "constant"
      value: 0.2
    }
  }
}
layer {
  name: "loss1/relu_conv"
  type: "ReLU"
  bottom: "loss1/conv"
  top: "loss1/conv"
}
layer {
  name: "loss1/fc"
  type: "InnerProduct"
  bottom: "loss1/conv"
  top: "loss1/fc"
  param {
    lr_mult: 1
    decay_mult: 1
  }
  param {
    lr_mult: 2
    decay_mult: 0
  }
  inner_product_param {
    num_output: 1024
    weight_filler {
      type: "xavier"
      std: 0.02
    }
    bias_filler {
      type: "constant"
      value: 0.2
    }
  }
}
layer {
  name: "loss1/relu_fc"
  type: "ReLU"
  bottom: "loss1/fc"
  top: "loss1/fc"
}
layer {
  name: "loss1/drop_fc"
  type: "Dropout"
  bottom: "loss1/fc"
  top: "loss1/fc"
  dropout_param {
    dropout_ratio: 0.7
  }
}
layer {
  name: "loss1/classifier_plantvillage"
  type: "InnerProduct"
  bottom: "loss1/fc"
  top: "loss1/classifier_plantvillage"
  param {
    lr_mult: 1
    decay_mult: 1
  }
  param {
    lr_mult: 2
    decay_mult: 0
  }
  inner_product_param {
    num_output: 38
    weight_filler {
      type: "xavier"
      std: 0.0009765625
    }
    bias_filler {
      type: "constant"
      value: 0
    }
  }
}
layer {
  name: "inception_4b/1x1"
  type: "Convolution"
  bottom: "inception_4a/output"
  top: "inception_4b/1x1"
  param {
    lr_mult: 1
    decay_mult: 1
  }
  param {
    lr_mult: 2
    decay_mult: 0
  }
  convolution_param {
    num_output: 160
    kernel_size: 1
    weight_filler {
      type: "xavier"
      std: 0.03
    }
    bias_filler {
      type: "constant"
      value: 0.2
    }
  }
}
layer {
  name: "inception_4b/relu_1x1"
  type: "ReLU"
  bottom: "inception_4b/1x1"
  top: "inception_4b/1x1"
}
layer {
  name: "inception_4b/3x3_reduce"
  type: "Convolution"
  bottom: "inception_4a/output"
  top: "inception_4b/3x3_reduce"
  param {
    lr_mult: 1
    decay_mult: 1
  }
  param {
    lr_mult: 2
    decay_mult: 0
  }
  convolution_param {
    num_output: 112
    kernel_size: 1
    weight_filler {
      type: "xavier"
      std: 0.09
    }
    bias_filler {
      type: "constant"
      value: 0.2
    }
  }
}
layer {
  name: "inception_4b/relu_3x3_reduce"
  type: "ReLU"
  bottom: "inception_4b/3x3_reduce"
  top: "inception_4b/3x3_reduce"
}
layer {
  name: "inception_4b/3x3"
  type: "Convolution"
  bottom: "inception_4b/3x3_reduce"
  top: "inception_4b/3x3"
  param {
    lr_mult: 1
    decay_mult: 1
  }
  param {
    lr_mult: 2
    decay_mult: 0
  }
  convolution_param {
    num_output: 224
    pad: 1
    kernel_size: 3
    weight_filler {
      type: "xavier"
      std: 0.03
    }
    bias_filler {
      type: "constant"
      value: 0.2
    }
  }
}
layer {
  name: "inception_4b/relu_3x3"
  type: "ReLU"
  bottom: "inception_4b/3x3"
  top: "inception_4b/3x3"
}
layer {
  name: "inception_4b/5x5_reduce"
  type: "Convolution"
  bottom: "inception_4a/output"
  top: "inception_4b/5x5_reduce"
  param {
    lr_mult: 1
    decay_mult: 1
  }
  param {
    lr_mult: 2
    decay_mult: 0
  }
  convolution_param {
    num_output: 24
    kernel_size: 1
    weight_filler {
      type: "xavier"
      std: 0.2
    }
    bias_filler {
      type: "constant"
      value: 0.2
    }
  }
}
layer {
  name: "inception_4b/relu_5x5_reduce"
  type: "ReLU"
  bottom: "inception_4b/5x5_reduce"
  top: "inception_4b/5x5_reduce"
}
layer {
  name: "inception_4b/5x5"
  type: "Convolution"
  bottom: "inception_4b/5x5_reduce"
  top: "inception_4b/5x5"
  param {
    lr_mult: 1
    decay_mult: 1
  }
  param {
    lr_mult: 2
    decay_mult: 0
  }
  convolution_param {
    num_output: 64
    pad: 2
    kernel_size: 5
    weight_filler {
      type: "xavier"
      std: 0.03
    }
    bias_filler {
      type: "constant"
      value: 0.2
    }
  }
}
layer {
  name: "inception_4b/relu_5x5"
  type: "ReLU"
  bottom: "inception_4b/5x5"
  top: "inception_4b/5x5"
}
layer {
  name: "inception_4b/pool"
  type: "Pooling"
  bottom: "inception_4a/output"
  top: "inception_4b/pool"
  pooling_param {
    pool: MAX
    kernel_size: 3
    stride: 1
    pad: 1
  }
}
layer {
  name: "inception_4b/pool_proj"
  type: "Convolution"
  bottom: "inception_4b/pool"
  top: "inception_4b/pool_proj"
  param {
    lr_mult: 1
    decay_mult: 1
  }
  param {
    lr_mult: 2
    decay_mult: 0
  }
  convolution_param {
    num_output: 64
    kernel_size: 1
    weight_filler {
      type: "xavier"
      std: 0.1
    }
    bias_filler {
      type: "constant"
      value: 0.2
    }
  }
}
layer {
  name: "inception_4b/relu_pool_proj"
  type: "ReLU"
  bottom: "inception_4b/pool_proj"
  top: "inception_4b/pool_proj"
}
layer {
  name: "inception_4b/output"
  type: "Concat"
  bottom: "inception_4b/1x1"
  bottom: "inception_4b/3x3"
  bottom: "inception_4b/5x5"
  bottom: "inception_4b/pool_proj"
  top: "inception_4b/output"
}
layer {
  name: "inception_4c/1x1"
  type: "Convolution"
  bottom: "inception_4b/output"
  top: "inception_4c/1x1"
  param {
    lr_mult: 1
    decay_mult: 1
  }
  param {
    lr_mult: 2
    decay_mult: 0
  }
  convolution_param {
    num_output: 128
    kernel_size: 1
    weight_filler {
      type: "xavier"
      std: 0.03
    }
    bias_filler {
      type: "constant"
      value: 0.2
    }
  }
}
layer {
  name: "inception_4c/relu_1x1"
  type: "ReLU"
  bottom: "inception_4c/1x1"
  top: "inception_4c/1x1"
}
layer {
  name: "inception_4c/3x3_reduce"
  type: "Convolution"
  bottom: "inception_4b/output"
  top: "inception_4c/3x3_reduce"
  param {
    lr_mult: 1
    decay_mult: 1
  }
  param {
    lr_mult: 2
    decay_mult: 0
  }
  convolution_param {
    num_output: 128
    kernel_size: 1
    weight_filler {
      type: "xavier"
      std: 0.09
    }
    bias_filler {
      type: "constant"
      value: 0.2
    }
  }
}
layer {
  name: "inception_4c/relu_3x3_reduce"
  type: "ReLU"
  bottom: "inception_4c/3x3_reduce"
  top: "inception_4c/3x3_reduce"
}
layer {
  name: "inception_4c/3x3"
  type: "Convolution"
  bottom: "inception_4c/3x3_reduce"
  top: "inception_4c/3x3"
  param {
    lr_mult: 1
    decay_mult: 1
  }
  param {
    lr_mult: 2
    decay_mult: 0
  }
  convolution_param {
    num_output: 256
    pad: 1
    kernel_size: 3
    weight_filler {
      type: "xavier"
      std: 0.03
    }
    bias_filler {
      type: "constant"
      value: 0.2
    }
  }
}
layer {
  name: "inception_4c/relu_3x3"
  type: "ReLU"
  bottom: "inception_4c/3x3"
  top: "inception_4c/3x3"
}
layer {
  name: "inception_4c/5x5_reduce"
  type: "Convolution"
  bottom: "inception_4b/output"
  top: "inception_4c/5x5_reduce"
  param {
    lr_mult: 1
    decay_mult: 1
  }
  param {
    lr_mult: 2
    decay_mult: 0
  }
  convolution_param {
    num_output: 24
    kernel_size: 1
    weight_filler {
      type: "xavier"
      std: 0.2
    }
    bias_filler {
      type: "constant"
      value: 0.2
    }
  }
}
layer {
  name: "inception_4c/relu_5x5_reduce"
  type: "ReLU"
  bottom: "inception_4c/5x5_reduce"
  top: "inception_4c/5x5_reduce"
}
layer {
  name: "inception_4c/5x5"
  type: "Convolution"
  bottom: "inception_4c/5x5_reduce"
  top: "inception_4c/5x5"
  param {
    lr_mult: 1
    decay_mult: 1
  }
  param {
    lr_mult: 2
    decay_mult: 0
  }
  convolution_param {
    num_output: 64
    pad: 2
    kernel_size: 5
    weight_filler {
      type: "xavier"
      std: 0.03
    }
    bias_filler {
      type: "constant"
      value: 0.2
    }
  }
}
layer {
  name: "inception_4c/relu_5x5"
  type: "ReLU"
  bottom: "inception_4c/5x5"
  top: "inception_4c/5x5"
}
layer {
  name: "inception_4c/pool"
  type: "Pooling"
  bottom: "inception_4b/output"
  top: "inception_4c/pool"
  pooling_param {
    pool: MAX
    kernel_size: 3
    stride: 1
    pad: 1
  }
}
layer {
  name: "inception_4c/pool_proj"
  type: "Convolution"
  bottom: "inception_4c/pool"
  top: "inception_4c/pool_proj"
  param {
    lr_mult: 1
    decay_mult: 1
  }
  param {
    lr_mult: 2
    decay_mult: 0
  }
  convolution_param {
    num_output: 64
    kernel_size: 1
    weight_filler {
      type: "xavier"
      std: 0.1
    }
    bias_filler {
      type: "constant"
      value: 0.2
    }
  }
}
layer {
  name: "inception_4c/relu_pool_proj"
  type: "ReLU"
  bottom: "inception_4c/pool_proj"
  top: "inception_4c/pool_proj"
}
layer {
  name: "inception_4c/output"
  type: "Concat"
  bottom: "inception_4c/1x1"
  bottom: "inception_4c/3x3"
  bottom: "inception_4c/5x5"
  bottom: "inception_4c/pool_proj"
  top: "inception_4c/output"
}
layer {
  name: "inception_4d/1x1"
  type: "Convolution"
  bottom: "inception_4c/output"
  top: "inception_4d/1x1"
  param {
    lr_mult: 1
    decay_mult: 1
  }
  param {
    lr_mult: 2
    decay_mult: 0
  }
  convolution_param {
    num_output: 112
    kernel_size: 1
    weight_filler {
      type: "xavier"
      std: 0.03
    }
    bias_filler {
      type: "constant"
      value: 0.2
    }
  }
}
layer {
  name: "inception_4d/relu_1x1"
  type: "ReLU"
  bottom: "inception_4d/1x1"
  top: "inception_4d/1x1"
}
layer {
  name: "inception_4d/3x3_reduce"
  type: "Convolution"
  bottom: "inception_4c/output"
  top: "inception_4d/3x3_reduce"
  param {
    lr_mult: 1
    decay_mult: 1
  }
  param {
    lr_mult: 2
    decay_mult: 0
  }
  convolution_param {
    num_output: 144
    kernel_size: 1
    weight_filler {
      type: "xavier"
      std: 0.09
    }
    bias_filler {
      type: "constant"
      value: 0.2
    }
  }
}
layer {
  name: "inception_4d/relu_3x3_reduce"
  type: "ReLU"
  bottom: "inception_4d/3x3_reduce"
  top: "inception_4d/3x3_reduce"
}
layer {
  name: "inception_4d/3x3"
  type: "Convolution"
  bottom: "inception_4d/3x3_reduce"
  top: "inception_4d/3x3"
  param {
    lr_mult: 1
    decay_mult: 1
  }
  param {
    lr_mult: 2
    decay_mult: 0
  }
  convolution_param {
    num_output: 288
    pad: 1
    kernel_size: 3
    weight_filler {
      type: "xavier"
      std: 0.03
    }
    bias_filler {
      type: "constant"
      value: 0.2
    }
  }
}
layer {
  name: "inception_4d/relu_3x3"
  type: "ReLU"
  bottom: "inception_4d/3x3"
  top: "inception_4d/3x3"
}
layer {
  name: "inception_4d/5x5_reduce"
  type: "Convolution"
  bottom: "inception_4c/output"
  top: "inception_4d/5x5_reduce"
  param {
    lr_mult: 1
    decay_mult: 1
  }
  param {
    lr_mult: 2
    decay_mult: 0
  }
  convolution_param {
    num_output: 32
    kernel_size: 1
    weight_filler {
      type: "xavier"
      std: 0.2
    }
    bias_filler {
      type: "constant"
      value: 0.2
    }
  }
}
layer {
  name: "inception_4d/relu_5x5_reduce"
  type: "ReLU"
  bottom: "inception_4d/5x5_reduce"
  top: "inception_4d/5x5_reduce"
}
layer {
  name: "inception_4d/5x5"
  type: "Convolution"
  bottom: "inception_4d/5x5_reduce"
  top: "inception_4d/5x5"
  param {
    lr_mult: 1
    decay_mult: 1
  }
  param {
    lr_mult: 2
    decay_mult: 0
  }
  convolution_param {
    num_output: 64
    pad: 2
    kernel_size: 5
    weight_filler {
      type: "xavier"
      std: 0.03
    }
    bias_filler {
      type: "constant"
      value: 0.2
    }
  }
}
layer {
  name: "inception_4d/relu_5x5"
  type: "ReLU"
  bottom: "inception_4d/5x5"
  top: "inception_4d/5x5"
}
layer {
  name: "inception_4d/pool"
  type: "Pooling"
  bottom: "inception_4c/output"
  top: "inception_4d/pool"
  pooling_param {
    pool: MAX
    kernel_size: 3
    stride: 1
    pad: 1
  }
}
layer {
  name: "inception_4d/pool_proj"
  type: "Convolution"
  bottom: "inception_4d/pool"
  top: "inception_4d/pool_proj"
  param {
    lr_mult: 1
    decay_mult: 1
  }
  param {
    lr_mult: 2
    decay_mult: 0
  }
  convolution_param {
    num_output: 64
    kernel_size: 1
    weight_filler {
      type: "xavier"
      std: 0.1
    }
    bias_filler {
      type: "constant"
      value: 0.2
    }
  }
}
layer {
  name: "inception_4d/relu_pool_proj"
  type: "ReLU"
  bottom: "inception_4d/pool_proj"
  top: "inception_4d/pool_proj"
}
layer {
  name: "inception_4d/output"
  type: "Concat"
  bottom: "inception_4d/1x1"
  bottom: "inception_4d/3x3"
  bottom: "inception_4d/5x5"
  bottom: "inception_4d/pool_proj"
  top: "inception_4d/output"
}
layer {
  name: "loss2/ave_pool"
  type: "Pooling"
  bottom: "inception_4d/output"
  top: "loss2/ave_pool"
  pooling_param {
    pool: AVE
    kernel_size: 5
    stride: 3
  }
}
layer {
  name: "loss2/conv"
  type: "Convolution"
  bottom: "loss2/ave_pool"
  top: "loss2/conv"
  param {
    lr_mult: 1
    decay_mult: 1
  }
  param {
    lr_mult: 2
    decay_mult: 0
  }
  convolution_param {
    num_output: 128
    kernel_size: 1
    weight_filler {
      type: "xavier"
      std: 0.08
    }
    bias_filler {
      type: "constant"
      value: 0.2
    }
  }
}
layer {
  name: "loss2/relu_conv"
  type: "ReLU"
  bottom: "loss2/conv"
  top: "loss2/conv"
}
layer {
  name: "loss2/fc"
  type: "InnerProduct"
  bottom: "loss2/conv"
  top: "loss2/fc"
  param {
    lr_mult: 1
    decay_mult: 1
  }
  param {
    lr_mult: 2
    decay_mult: 0
  }
  inner_product_param {
    num_output: 1024
    weight_filler {
      type: "xavier"
      std: 0.02
    }
    bias_filler {
      type: "constant"
      value: 0.2
    }
  }
}
layer {
  name: "loss2/relu_fc"
  type: "ReLU"
  bottom: "loss2/fc"
  top: "loss2/fc"
}
layer {
  name: "loss2/drop_fc"
  type: "Dropout"
  bottom: "loss2/fc"
  top: "loss2/fc"
  dropout_param {
    dropout_ratio: 0.7
  }
}
layer {
  name: "loss2/classifier_plantvillage"
  type: "InnerProduct"
  bottom: "loss2/fc"
  top: "loss2/classifier_plantvillage"
  param {
    lr_mult: 1
    decay_mult: 1
  }
  param {
    lr_mult: 2
    decay_mult: 0
  }
  inner_product_param {
    num_output: 38
    weight_filler {
      type: "xavier"
      std: 0.0009765625
    }
    bias_filler {
      type: "constant"
      value: 0
    }
  }
}
layer {
  name: "inception_4e/1x1"
  type: "Convolution"
  bottom: "inception_4d/output"
  top: "inception_4e/1x1"
  param {
    lr_mult: 1
    decay_mult: 1
  }
  param {
    lr_mult: 2
    decay_mult: 0
  }
  convolution_param {
    num_output: 256
    kernel_size: 1
    weight_filler {
      type: "xavier"
      std: 0.03
    }
    bias_filler {
      type: "constant"
      value: 0.2
    }
  }
}
layer {
  name: "inception_4e/relu_1x1"
  type: "ReLU"
  bottom: "inception_4e/1x1"
  top: "inception_4e/1x1"
}
layer {
  name: "inception_4e/3x3_reduce"
  type: "Convolution"
  bottom: "inception_4d/output"
  top: "inception_4e/3x3_reduce"
  param {
    lr_mult: 1
    decay_mult: 1
  }
  param {
    lr_mult: 2
    decay_mult: 0
  }
  convolution_param {
    num_output: 160
    kernel_size: 1
    weight_filler {
      type: "xavier"
      std: 0.09
    }
    bias_filler {
      type: "constant"
      value: 0.2
    }
  }
}
layer {
  name: "inception_4e/relu_3x3_reduce"
  type: "ReLU"
  bottom: "inception_4e/3x3_reduce"
  top: "inception_4e/3x3_reduce"
}
layer {
  name: "inception_4e/3x3"
  type: "Convolution"
  bottom: "inception_4e/3x3_reduce"
  top: "inception_4e/3x3"
  param {
    lr_mult: 1
    decay_mult: 1
  }
  param {
    lr_mult: 2
    decay_mult: 0
  }
  convolution_param {
    num_output: 320
    pad: 1
    kernel_size: 3
    weight_filler {
      type: "xavier"
      std: 0.03
    }
    bias_filler {
      type: "constant"
      value: 0.2
    }
  }
}
layer {
  name: "inception_4e/relu_3x3"
  type: "ReLU"
  bottom: "inception_4e/3x3"
  top: "inception_4e/3x3"
}
layer {
  name: "inception_4e/5x5_reduce"
  type: "Convolution"
  bottom: "inception_4d/output"
  top: "inception_4e/5x5_reduce"
  param {
    lr_mult: 1
    decay_mult: 1
  }
  param {
    lr_mult: 2
    decay_mult: 0
  }
  convolution_param {
    num_output: 32
    kernel_size: 1
    weight_filler {
      type: "xavier"
      std: 0.2
    }
    bias_filler {
      type: "constant"
      value: 0.2
    }
  }
}
layer {
  name: "inception_4e/relu_5x5_reduce"
  type: "ReLU"
  bottom: "inception_4e/5x5_reduce"
  top: "inception_4e/5x5_reduce"
}
layer {
  name: "inception_4e/5x5"
  type: "Convolution"
  bottom: "inception_4e/5x5_reduce"
  top: "inception_4e/
I0403 15:07:09.365140  2685 layer_factory.hpp:77] Creating layer data
I0403 15:07:09.365758  2685 net.cpp:91] Creating Layer data
I0403 15:07:09.365789  2685 net.cpp:399] data -> data
I0403 15:07:09.365840  2685 net.cpp:399] data -> label
I0403 15:07:09.365877  2685 data_transformer.cpp:25] Loading mean file from: /home/mohanty/data/final_dataset/lmdb/segmented-60-40/mean.binaryproto
I0403 15:07:09.368820  2693 db_lmdb.cpp:38] Opened lmdb /home/mohanty/data/final_dataset/lmdb/segmented-60-40/test_db
I0403 15:07:09.379021  2685 data_layer.cpp:41] output data size: 24,3,224,224
I0403 15:07:09.406141  2685 net.cpp:141] Setting up data
I0403 15:07:09.406235  2685 net.cpp:148] Top shape: 24 3 224 224 (3612672)
I0403 15:07:09.406258  2685 net.cpp:148] Top shape: 24 (24)
I0403 15:07:09.406273  2685 net.cpp:156] Memory required for data: 14450784
I0403 15:07:09.406301  2685 layer_factory.hpp:77] Creating layer label_data_1_split
I0403 15:07:09.406327  2685 net.cpp:91] Creating Layer label_data_1_split
I0403 15:07:09.406347  2685 net.cpp:425] label_data_1_split <- label
I0403 15:07:09.406378  2685 net.cpp:399] label_data_1_split -> label_data_1_split_0
I0403 15:07:09.406405  2685 net.cpp:399] label_data_1_split -> label_data_1_split_1
I0403 15:07:09.406426  2685 net.cpp:399] label_data_1_split -> label_data_1_split_2
I0403 15:07:09.406447  2685 net.cpp:399] label_data_1_split -> label_data_1_split_3
I0403 15:07:09.406467  2685 net.cpp:399] label_data_1_split -> label_data_1_split_4
I0403 15:07:09.406487  2685 net.cpp:399] label_data_1_split -> label_data_1_split_5
I0403 15:07:09.406507  2685 net.cpp:399] label_data_1_split -> label_data_1_split_6
I0403 15:07:09.406527  2685 net.cpp:399] label_data_1_split -> label_data_1_split_7
I0403 15:07:09.406548  2685 net.cpp:399] label_data_1_split -> label_data_1_split_8
I0403 15:07:09.406568  2685 net.cpp:399] label_data_1_split -> label_data_1_split_9
I0403 15:07:09.406682  2685 net.cpp:141] Setting up label_data_1_split
I0403 15:07:09.406707  2685 net.cpp:148] Top shape: 24 (24)
I0403 15:07:09.406723  2685 net.cpp:148] Top shape: 24 (24)
I0403 15:07:09.406740  2685 net.cpp:148] Top shape: 24 (24)
I0403 15:07:09.406756  2685 net.cpp:148] Top shape: 24 (24)
I0403 15:07:09.406771  2685 net.cpp:148] Top shape: 24 (24)
I0403 15:07:09.406787  2685 net.cpp:148] Top shape: 24 (24)
I0403 15:07:09.406803  2685 net.cpp:148] Top shape: 24 (24)
I0403 15:07:09.406818  2685 net.cpp:148] Top shape: 24 (24)
I0403 15:07:09.406834  2685 net.cpp:148] Top shape: 24 (24)
I0403 15:07:09.406852  2685 net.cpp:148] Top shape: 24 (24)
I0403 15:07:09.406895  2685 net.cpp:156] Memory required for data: 14451744
I0403 15:07:09.406911  2685 layer_factory.hpp:77] Creating layer conv1/7x7_s2
I0403 15:07:09.406942  2685 net.cpp:91] Creating Layer conv1/7x7_s2
I0403 15:07:09.406961  2685 net.cpp:425] conv1/7x7_s2 <- data
I0403 15:07:09.406981  2685 net.cpp:399] conv1/7x7_s2 -> conv1/7x7_s2
I0403 15:07:11.666764  2685 net.cpp:141] Setting up conv1/7x7_s2
I0403 15:07:11.666867  2685 net.cpp:148] Top shape: 24 64 112 112 (19267584)
I0403 15:07:11.666888  2685 net.cpp:156] Memory required for data: 91522080
I0403 15:07:11.666925  2685 layer_factory.hpp:77] Creating layer conv1/relu_7x7
I0403 15:07:11.666959  2685 net.cpp:91] Creating Layer conv1/relu_7x7
I0403 15:07:11.666981  2685 net.cpp:425] conv1/relu_7x7 <- conv1/7x7_s2
I0403 15:07:11.667008  2685 net.cpp:386] conv1/relu_7x7 -> conv1/7x7_s2 (in-place)
I0403 15:07:11.667348  2685 net.cpp:141] Setting up conv1/relu_7x7
I0403 15:07:11.667388  2685 net.cpp:148] Top shape: 24 64 112 112 (19267584)
I0403 15:07:11.667408  2685 net.cpp:156] Memory required for data: 168592416
I0403 15:07:11.667428  2685 layer_factory.hpp:77] Creating layer pool1/3x3_s2
I0403 15:07:11.667456  2685 net.cpp:91] Creating Layer pool1/3x3_s2
I0403 15:07:11.667479  2685 net.cpp:425] pool1/3x3_s2 <- conv1/7x7_s2
I0403 15:07:11.667505  2685 net.cpp:399] pool1/3x3_s2 -> pool1/3x3_s2
I0403 15:07:11.667598  2685 net.cpp:141] Setting up pool1/3x3_s2
I0403 15:07:11.667628  2685 net.cpp:148] Top shape: 24 64 56 56 (4816896)
I0403 15:07:11.667646  2685 net.cpp:156] Memory required for data: 187860000
I0403 15:07:11.667665  2685 layer_factory.hpp:77] Creating layer pool1/norm1
I0403 15:07:11.667696  2685 net.cpp:91] Creating Layer pool1/norm1
I0403 15:07:11.667718  2685 net.cpp:425] pool1/norm1 <- pool1/3x3_s2
I0403 15:07:11.667740  2685 net.cpp:399] pool1/norm1 -> pool1/norm1
I0403 15:07:11.668107  2685 net.cpp:141] Setting up pool1/norm1
I0403 15:07:11.668143  2685 net.cpp:148] Top shape: 24 64 56 56 (4816896)
I0403 15:07:11.668162  2685 net.cpp:156] Memory required for data: 207127584
I0403 15:07:11.668181  2685 layer_factory.hpp:77] Creating layer conv2/3x3_reduce
I0403 15:07:11.668220  2685 net.cpp:91] Creating Layer conv2/3x3_reduce
I0403 15:07:11.668242  2685 net.cpp:425] conv2/3x3_reduce <- pool1/norm1
I0403 15:07:11.668267  2685 net.cpp:399] conv2/3x3_reduce -> conv2/3x3_reduce
I0403 15:07:11.669920  2685 net.cpp:141] Setting up conv2/3x3_reduce
I0403 15:07:11.669956  2685 net.cpp:148] Top shape: 24 64 56 56 (4816896)
I0403 15:07:11.669976  2685 net.cpp:156] Memory required for data: 226395168
I0403 15:07:11.670002  2685 layer_factory.hpp:77] Creating layer conv2/relu_3x3_reduce
I0403 15:07:11.670030  2685 net.cpp:91] Creating Layer conv2/relu_3x3_reduce
I0403 15:07:11.670050  2685 net.cpp:425] conv2/relu_3x3_reduce <- conv2/3x3_reduce
I0403 15:07:11.670073  2685 net.cpp:386] conv2/relu_3x3_reduce -> conv2/3x3_reduce (in-place)
I0403 15:07:11.670399  2685 net.cpp:141] Setting up conv2/relu_3x3_reduce
I0403 15:07:11.670433  2685 net.cpp:148] Top shape: 24 64 56 56 (4816896)
I0403 15:07:11.670454  2685 net.cpp:156] Memory required for data: 245662752
I0403 15:07:11.670474  2685 layer_factory.hpp:77] Creating layer conv2/3x3
I0403 15:07:11.670502  2685 net.cpp:91] Creating Layer conv2/3x3
I0403 15:07:11.670526  2685 net.cpp:425] conv2/3x3 <- conv2/3x3_reduce
I0403 15:07:11.670553  2685 net.cpp:399] conv2/3x3 -> conv2/3x3
I0403 15:07:11.673310  2685 net.cpp:141] Setting up conv2/3x3
I0403 15:07:11.673347  2685 net.cpp:148] Top shape: 24 192 56 56 (14450688)
I0403 15:07:11.673367  2685 net.cpp:156] Memory required for data: 303465504
I0403 15:07:11.673394  2685 layer_factory.hpp:77] Creating layer conv2/relu_3x3
I0403 15:07:11.673421  2685 net.cpp:91] Creating Layer conv2/relu_3x3
I0403 15:07:11.673441  2685 net.cpp:425] conv2/relu_3x3 <- conv2/3x3
I0403 15:07:11.673463  2685 net.cpp:386] conv2/relu_3x3 -> conv2/3x3 (in-place)
I0403 15:07:11.673681  2685 net.cpp:141] Setting up conv2/relu_3x3
I0403 15:07:11.673715  2685 net.cpp:148] Top shape: 24 192 56 56 (14450688)
I0403 15:07:11.673769  2685 net.cpp:156] Memory required for data: 361268256
I0403 15:07:11.673789  2685 layer_factory.hpp:77] Creating layer conv2/norm2
I0403 15:07:11.673811  2685 net.cpp:91] Creating Layer conv2/norm2
I0403 15:07:11.673830  2685 net.cpp:425] conv2/norm2 <- conv2/3x3
I0403 15:07:11.673856  2685 net.cpp:399] conv2/norm2 -> conv2/norm2
I0403 15:07:11.674224  2685 net.cpp:141] Setting up conv2/norm2
I0403 15:07:11.674257  2685 net.cpp:148] Top shape: 24 192 56 56 (14450688)
I0403 15:07:11.674276  2685 net.cpp:156] Memory required for data: 419071008
I0403 15:07:11.674294  2685 layer_factory.hpp:77] Creating layer pool2/3x3_s2
I0403 15:07:11.674316  2685 net.cpp:91] Creating Layer pool2/3x3_s2
I0403 15:07:11.674335  2685 net.cpp:425] pool2/3x3_s2 <- conv2/norm2
I0403 15:07:11.674362  2685 net.cpp:399] pool2/3x3_s2 -> pool2/3x3_s2
I0403 15:07:11.674427  2685 net.cpp:141] Setting up pool2/3x3_s2
I0403 15:07:11.674456  2685 net.cpp:148] Top shape: 24 192 28 28 (3612672)
I0403 15:07:11.674474  2685 net.cpp:156] Memory required for data: 433521696
I0403 15:07:11.674491  2685 layer_factory.hpp:77] Creating layer pool2/3x3_s2_pool2/3x3_s2_0_split
I0403 15:07:11.674516  2685 net.cpp:91] Creating Layer pool2/3x3_s2_pool2/3x3_s2_0_split
I0403 15:07:11.674538  2685 net.cpp:425] pool2/3x3_s2_pool2/3x3_s2_0_split <- pool2/3x3_s2
I0403 15:07:11.674563  2685 net.cpp:399] pool2/3x3_s2_pool2/3x3_s2_0_split -> pool2/3x3_s2_pool2/3x3_s2_0_split_0
I0403 15:07:11.674588  2685 net.cpp:399] pool2/3x3_s2_pool2/3x3_s2_0_split -> pool2/3x3_s2_pool2/3x3_s2_0_split_1
I0403 15:07:11.674613  2685 net.cpp:399] pool2/3x3_s2_pool2/3x3_s2_0_split -> pool2/3x3_s2_pool2/3x3_s2_0_split_2
I0403 15:07:11.674638  2685 net.cpp:399] pool2/3x3_s2_pool2/3x3_s2_0_split -> pool2/3x3_s2_pool2/3x3_s2_0_split_3
I0403 15:07:11.674723  2685 net.cpp:141] Setting up pool2/3x3_s2_pool2/3x3_s2_0_split
I0403 15:07:11.674751  2685 net.cpp:148] Top shape: 24 192 28 28 (3612672)
I0403 15:07:11.674775  2685 net.cpp:148] Top shape: 24 192 28 28 (3612672)
I0403 15:07:11.674795  2685 net.cpp:148] Top shape: 24 192 28 28 (3612672)
I0403 15:07:11.674814  2685 net.cpp:148] Top shape: 24 192 28 28 (3612672)
I0403 15:07:11.674831  2685 net.cpp:156] Memory required for data: 491324448
I0403 15:07:11.674849  2685 layer_factory.hpp:77] Creating layer inception_3a/1x1
I0403 15:07:11.674875  2685 net.cpp:91] Creating Layer inception_3a/1x1
I0403 15:07:11.674896  2685 net.cpp:425] inception_3a/1x1 <- pool2/3x3_s2_pool2/3x3_s2_0_split_0
I0403 15:07:11.674921  2685 net.cpp:399] inception_3a/1x1 -> inception_3a/1x1
I0403 15:07:11.676725  2685 net.cpp:141] Setting up inception_3a/1x1
I0403 15:07:11.676761  2685 net.cpp:148] Top shape: 24 64 28 28 (1204224)
I0403 15:07:11.676781  2685 net.cpp:156] Memory required for data: 496141344
I0403 15:07:11.676805  2685 layer_factory.hpp:77] Creating layer inception_3a/relu_1x1
I0403 15:07:11.676831  2685 net.cpp:91] Creating Layer inception_3a/relu_1x1
I0403 15:07:11.676849  2685 net.cpp:425] inception_3a/relu_1x1 <- inception_3a/1x1
I0403 15:07:11.676872  2685 net.cpp:386] inception_3a/relu_1x1 -> inception_3a/1x1 (in-place)
I0403 15:07:11.677084  2685 net.cpp:141] Setting up inception_3a/relu_1x1
I0403 15:07:11.677115  2685 net.cpp:148] Top shape: 24 64 28 28 (1204224)
I0403 15:07:11.677134  2685 net.cpp:156] Memory required for data: 500958240
I0403 15:07:11.677151  2685 layer_factory.hpp:77] Creating layer inception_3a/3x3_reduce
I0403 15:07:11.677181  2685 net.cpp:91] Creating Layer inception_3a/3x3_reduce
I0403 15:07:11.677202  2685 net.cpp:425] inception_3a/3x3_reduce <- pool2/3x3_s2_pool2/3x3_s2_0_split_1
I0403 15:07:11.677232  2685 net.cpp:399] inception_3a/3x3_reduce -> inception_3a/3x3_reduce
I0403 15:07:11.679255  2685 net.cpp:141] Setting up inception_3a/3x3_reduce
I0403 15:07:11.679292  2685 net.cpp:148] Top shape: 24 96 28 28 (1806336)
I0403 15:07:11.679312  2685 net.cpp:156] Memory required for data: 508183584
I0403 15:07:11.679338  2685 layer_factory.hpp:77] Creating layer inception_3a/relu_3x3_reduce
I0403 15:07:11.679386  2685 net.cpp:91] Creating Layer inception_3a/relu_3x3_reduce
I0403 15:07:11.679409  2685 net.cpp:425] inception_3a/relu_3x3_reduce <- inception_3a/3x3_reduce
I0403 15:07:11.679431  2685 net.cpp:386] inception_3a/relu_3x3_reduce -> inception_3a/3x3_reduce (in-place)
I0403 15:07:11.679652  2685 net.cpp:141] Setting up inception_3a/relu_3x3_reduce
I0403 15:07:11.679683  2685 net.cpp:148] Top shape: 24 96 28 28 (1806336)
I0403 15:07:11.679702  2685 net.cpp:156] Memory required for data: 515408928
I0403 15:07:11.679720  2685 layer_factory.hpp:77] Creating layer inception_3a/3x3
I0403 15:07:11.679749  2685 net.cpp:91] Creating Layer inception_3a/3x3
I0403 15:07:11.679770  2685 net.cpp:425] inception_3a/3x3 <- inception_3a/3x3_reduce
I0403 15:07:11.679797  2685 net.cpp:399] inception_3a/3x3 -> inception_3a/3x3
I0403 15:07:11.681809  2685 net.cpp:141] Setting up inception_3a/3x3
I0403 15:07:11.681848  2685 net.cpp:148] Top shape: 24 128 28 28 (2408448)
I0403 15:07:11.681871  2685 net.cpp:156] Memory required for data: 525042720
I0403 15:07:11.681893  2685 layer_factory.hpp:77] Creating layer inception_3a/relu_3x3
I0403 15:07:11.681921  2685 net.cpp:91] Creating Layer inception_3a/relu_3x3
I0403 15:07:11.681944  2685 net.cpp:425] inception_3a/relu_3x3 <- inception_3a/3x3
I0403 15:07:11.681967  2685 net.cpp:386] inception_3a/relu_3x3 -> inception_3a/3x3 (in-place)
I0403 15:07:11.682301  2685 net.cpp:141] Setting up inception_3a/relu_3x3
I0403 15:07:11.682335  2685 net.cpp:148] Top shape: 24 128 28 28 (2408448)
I0403 15:07:11.682354  2685 net.cpp:156] Memory required for data: 534676512
I0403 15:07:11.682373  2685 layer_factory.hpp:77] Creating layer inception_3a/5x5_reduce
I0403 15:07:11.682400  2685 net.cpp:91] Creating Layer inception_3a/5x5_reduce
I0403 15:07:11.682425  2685 net.cpp:425] inception_3a/5x5_reduce <- pool2/3x3_s2_pool2/3x3_s2_0_split_2
I0403 15:07:11.682449  2685 net.cpp:399] inception_3a/5x5_reduce -> inception_3a/5x5_reduce
I0403 15:07:11.683611  2685 net.cpp:141] Setting up inception_3a/5x5_reduce
I0403 15:07:11.683648  2685 net.cpp:148] Top shape: 24 16 28 28 (301056)
I0403 15:07:11.683670  2685 net.cpp:156] Memory required for data: 535880736
I0403 15:07:11.683691  2685 layer_factory.hpp:77] Creating layer inception_3a/relu_5x5_reduce
I0403 15:07:11.683713  2685 net.cpp:91] Creating Layer inception_3a/relu_5x5_reduce
I0403 15:07:11.683733  2685 net.cpp:425] inception_3a/relu_5x5_reduce <- inception_3a/5x5_reduce
I0403 15:07:11.683754  2685 net.cpp:386] inception_3a/relu_5x5_reduce -> inception_3a/5x5_reduce (in-place)
I0403 15:07:11.684116  2685 net.cpp:141] Setting up inception_3a/relu_5x5_reduce
I0403 15:07:11.684151  2685 net.cpp:148] Top shape: 24 16 28 28 (301056)
I0403 15:07:11.684170  2685 net.cpp:156] Memory required for data: 537084960
I0403 15:07:11.684188  2685 layer_factory.hpp:77] Creating layer inception_3a/5x5
I0403 15:07:11.684221  2685 net.cpp:91] Creating Layer inception_3a/5x5
I0403 15:07:11.684245  2685 net.cpp:425] inception_3a/5x5 <- inception_3a/5x5_reduce
I0403 15:07:11.684272  2685 net.cpp:399] inception_3a/5x5 -> inception_3a/5x5
I0403 15:07:11.685493  2685 net.cpp:141] Setting up inception_3a/5x5
I0403 15:07:11.685528  2685 net.cpp:148] Top shape: 24 32 28 28 (602112)
I0403 15:07:11.685547  2685 net.cpp:156] Memory required for data: 539493408
I0403 15:07:11.685570  2685 layer_factory.hpp:77] Creating layer inception_3a/relu_5x5
I0403 15:07:11.685597  2685 net.cpp:91] Creating Layer inception_3a/relu_5x5
I0403 15:07:11.685617  2685 net.cpp:425] inception_3a/relu_5x5 <- inception_3a/5x5
I0403 15:07:11.685641  2685 net.cpp:386] inception_3a/relu_5x5 -> inception_3a/5x5 (in-place)
I0403 15:07:11.685854  2685 net.cpp:141] Setting up inception_3a/relu_5x5
I0403 15:07:11.685888  2685 net.cpp:148] Top shape: 24 32 28 28 (602112)
I0403 15:07:11.685906  2685 net.cpp:156] Memory required for data: 541901856
I0403 15:07:11.685925  2685 layer_factory.hpp:77] Creating layer inception_3a/pool
I0403 15:07:11.685947  2685 net.cpp:91] Creating Layer inception_3a/pool
I0403 15:07:11.685986  2685 net.cpp:425] inception_3a/pool <- pool2/3x3_s2_pool2/3x3_s2_0_split_3
I0403 15:07:11.686012  2685 net.cpp:399] inception_3a/pool -> inception_3a/pool
I0403 15:07:11.686081  2685 net.cpp:141] Setting up inception_3a/pool
I0403 15:07:11.686110  2685 net.cpp:148] Top shape: 24 192 28 28 (3612672)
I0403 15:07:11.686127  2685 net.cpp:156] Memory required for data: 556352544
I0403 15:07:11.686146  2685 layer_factory.hpp:77] Creating layer inception_3a/pool_proj
I0403 15:07:11.686173  2685 net.cpp:91] Creating Layer inception_3a/pool_proj
I0403 15:07:11.686197  2685 net.cpp:425] inception_3a/pool_proj <- inception_3a/pool
I0403 15:07:11.686229  2685 net.cpp:399] inception_3a/pool_proj -> inception_3a/pool_proj
I0403 15:07:11.687389  2685 net.cpp:141] Setting up inception_3a/pool_proj
I0403 15:07:11.687424  2685 net.cpp:148] Top shape: 24 32 28 28 (602112)
I0403 15:07:11.687443  2685 net.cpp:156] Memory required for data: 558760992
I0403 15:07:11.687474  2685 layer_factory.hpp:77] Creating layer inception_3a/relu_pool_proj
I0403 15:07:11.687497  2685 net.cpp:91] Creating Layer inception_3a/relu_pool_proj
I0403 15:07:11.687516  2685 net.cpp:425] inception_3a/relu_pool_proj <- inception_3a/pool_proj
I0403 15:07:11.687536  2685 net.cpp:386] inception_3a/relu_pool_proj -> inception_3a/pool_proj (in-place)
I0403 15:07:11.687860  2685 net.cpp:141] Setting up inception_3a/relu_pool_proj
I0403 15:07:11.687893  2685 net.cpp:148] Top shape: 24 32 28 28 (602112)
I0403 15:07:11.687911  2685 net.cpp:156] Memory required for data: 561169440
I0403 15:07:11.687930  2685 layer_factory.hpp:77] Creating layer inception_3a/output
I0403 15:07:11.687954  2685 net.cpp:91] Creating Layer inception_3a/output
I0403 15:07:11.687974  2685 net.cpp:425] inception_3a/output <- inception_3a/1x1
I0403 15:07:11.687995  2685 net.cpp:425] inception_3a/output <- inception_3a/3x3
I0403 15:07:11.688015  2685 net.cpp:425] inception_3a/output <- inception_3a/5x5
I0403 15:07:11.688035  2685 net.cpp:425] inception_3a/output <- inception_3a/pool_proj
I0403 15:07:11.688055  2685 net.cpp:399] inception_3a/output -> inception_3a/output
I0403 15:07:11.688112  2685 net.cpp:141] Setting up inception_3a/output
I0403 15:07:11.688141  2685 net.cpp:148] Top shape: 24 256 28 28 (4816896)
I0403 15:07:11.688159  2685 net.cpp:156] Memory required for data: 580437024
I0403 15:07:11.688177  2685 layer_factory.hpp:77] Creating layer inception_3a/output_inception_3a/output_0_split
I0403 15:07:11.688199  2685 net.cpp:91] Creating Layer inception_3a/output_inception_3a/output_0_split
I0403 15:07:11.688225  2685 net.cpp:425] inception_3a/output_inception_3a/output_0_split <- inception_3a/output
I0403 15:07:11.688251  2685 net.cpp:399] inception_3a/output_inception_3a/output_0_split -> inception_3a/output_inception_3a/output_0_split_0
I0403 15:07:11.688277  2685 net.cpp:399] inception_3a/output_inception_3a/output_0_split -> inception_3a/output_inception_3a/output_0_split_1
I0403 15:07:11.688303  2685 net.cpp:399] inception_3a/output_inception_3a/output_0_split -> inception_3a/output_inception_3a/output_0_split_2
I0403 15:07:11.688333  2685 net.cpp:399] inception_3a/output_inception_3a/output_0_split -> inception_3a/output_inception_3a/output_0_split_3
I0403 15:07:11.688426  2685 net.cpp:141] Setting up inception_3a/output_inception_3a/output_0_split
I0403 15:07:11.688454  2685 net.cpp:148] Top shape: 24 256 28 28 (4816896)
I0403 15:07:11.688475  2685 net.cpp:148] Top shape: 24 256 28 28 (4816896)
I0403 15:07:11.688495  2685 net.cpp:148] Top shape: 24 256 28 28 (4816896)
I0403 15:07:11.688514  2685 net.cpp:148] Top shape: 24 256 28 28 (4816896)
I0403 15:07:11.688532  2685 net.cpp:156] Memory required for data: 657507360
I0403 15:07:11.688550  2685 layer_factory.hpp:77] Creating layer inception_3b/1x1
I0403 15:07:11.688576  2685 net.cpp:91] Creating Layer inception_3b/1x1
I0403 15:07:11.688598  2685 net.cpp:425] inception_3b/1x1 <- inception_3a/output_inception_3a/output_0_split_0
I0403 15:07:11.688624  2685 net.cpp:399] inception_3b/1x1 -> inception_3b/1x1
I0403 15:07:11.689983  2685 net.cpp:141] Setting up inception_3b/1x1
I0403 15:07:11.690032  2685 net.cpp:148] Top shape: 24 128 28 28 (2408448)
I0403 15:07:11.690052  2685 net.cpp:156] Memory required for data: 667141152
I0403 15:07:11.690074  2685 layer_factory.hpp:77] Creating layer inception_3b/relu_1x1
I0403 15:07:11.690099  2685 net.cpp:91] Creating Layer inception_3b/relu_1x1
I0403 15:07:11.690117  2685 net.cpp:425] inception_3b/relu_1x1 <- inception_3b/1x1
I0403 15:07:11.690141  2685 net.cpp:386] inception_3b/relu_1x1 -> inception_3b/1x1 (in-place)
I0403 15:07:11.690357  2685 net.cpp:141] Setting up inception_3b/relu_1x1
I0403 15:07:11.690388  2685 net.cpp:148] Top shape: 24 128 28 28 (2408448)
I0403 15:07:11.690407  2685 net.cpp:156] Memory required for data: 676774944
I0403 15:07:11.690425  2685 layer_factory.hpp:77] Creating layer inception_3b/3x3_reduce
I0403 15:07:11.690453  2685 net.cpp:91] Creating Layer inception_3b/3x3_reduce
I0403 15:07:11.690475  2685 net.cpp:425] inception_3b/3x3_reduce <- inception_3a/output_inception_3a/output_0_split_1
I0403 15:07:11.690501  2685 net.cpp:399] inception_3b/3x3_reduce -> inception_3b/3x3_reduce
I0403 15:07:11.691865  2685 net.cpp:141] Setting up inception_3b/3x3_reduce
I0403 15:07:11.691901  2685 net.cpp:148] Top shape: 24 128 28 28 (2408448)
I0403 15:07:11.691920  2685 net.cpp:156] Memory required for data: 686408736
I0403 15:07:11.691943  2685 layer_factory.hpp:77] Creating layer inception_3b/relu_3x3_reduce
I0403 15:07:11.691969  2685 net.cpp:91] Creating Layer inception_3b/relu_3x3_reduce
I0403 15:07:11.691990  2685 net.cpp:425] inception_3b/relu_3x3_reduce <- inception_3b/3x3_reduce
I0403 15:07:11.692013  2685 net.cpp:386] inception_3b/relu_3x3_reduce -> inception_3b/3x3_reduce (in-place)
I0403 15:07:11.692225  2685 net.cpp:141] Setting up inception_3b/relu_3x3_reduce
I0403 15:07:11.692256  2685 net.cpp:148] Top shape: 24 128 28 28 (2408448)
I0403 15:07:11.692275  2685 net.cpp:156] Memory required for data: 696042528
I0403 15:07:11.692292  2685 layer_factory.hpp:77] Creating layer inception_3b/3x3
I0403 15:07:11.692324  2685 net.cpp:91] Creating Layer inception_3b/3x3
I0403 15:07:11.692347  2685 net.cpp:425] inception_3b/3x3 <- inception_3b/3x3_reduce
I0403 15:07:11.692370  2685 net.cpp:399] inception_3b/3x3 -> inception_3b/3x3
I0403 15:07:11.695904  2685 net.cpp:141] Setting up inception_3b/3x3
I0403 15:07:11.695940  2685 net.cpp:148] Top shape: 24 192 28 28 (3612672)
I0403 15:07:11.695960  2685 net.cpp:156] Memory required for data: 710493216
I0403 15:07:11.695981  2685 layer_factory.hpp:77] Creating layer inception_3b/relu_3x3
I0403 15:07:11.696010  2685 net.cpp:91] Creating Layer inception_3b/relu_3x3
I0403 15:07:11.696033  2685 net.cpp:425] inception_3b/relu_3x3 <- inception_3b/3x3
I0403 15:07:11.696054  2685 net.cpp:386] inception_3b/relu_3x3 -> inception_3b/3x3 (in-place)
I0403 15:07:11.696390  2685 net.cpp:141] Setting up inception_3b/relu_3x3
I0403 15:07:11.696424  2685 net.cpp:148] Top shape: 24 192 28 28 (3612672)
I0403 15:07:11.696441  2685 net.cpp:156] Memory required for data: 724943904
I0403 15:07:11.696460  2685 layer_factory.hpp:77] Creating layer inception_3b/5x5_reduce
I0403 15:07:11.696496  2685 net.cpp:91] Creating Layer inception_3b/5x5_reduce
I0403 15:07:11.696519  2685 net.cpp:425] inception_3b/5x5_reduce <- inception_3a/output_inception_3a/output_0_split_2
I0403 15:07:11.696547  2685 net.cpp:399] inception_3b/5x5_reduce -> inception_3b/5x5_reduce
I0403 15:07:11.697747  2685 net.cpp:141] Setting up inception_3b/5x5_reduce
I0403 15:07:11.697788  2685 net.cpp:148] Top shape: 24 32 28 28 (602112)
I0403 15:07:11.697808  2685 net.cpp:156] Memory required for data: 727352352
I0403 15:07:11.697830  2685 layer_factory.hpp:77] Creating layer inception_3b/relu_5x5_reduce
I0403 15:07:11.697859  2685 net.cpp:91] Creating Layer inception_3b/relu_5x5_reduce
I0403 15:07:11.697880  2685 net.cpp:425] inception_3b/relu_5x5_reduce <- inception_3b/5x5_reduce
I0403 15:07:11.697901  2685 net.cpp:386] inception_3b/relu_5x5_reduce -> inception_3b/5x5_reduce (in-place)
I0403 15:07:11.698134  2685 net.cpp:141] Setting up inception_3b/relu_5x5_reduce
I0403 15:07:11.698168  2685 net.cpp:148] Top shape: 24 32 28 28 (602112)
I0403 15:07:11.698187  2685 net.cpp:156] Memory required for data: 729760800
I0403 15:07:11.698207  2685 layer_factory.hpp:77] Creating layer inception_3b/5x5
I0403 15:07:11.698243  2685 net.cpp:91] Creating Layer inception_3b/5x5
I0403 15:07:11.698266  2685 net.cpp:425] inception_3b/5x5 <- inception_3b/5x5_reduce
I0403 15:07:11.698289  2685 net.cpp:399] inception_3b/5x5 -> inception_3b/5x5
I0403 15:07:11.700675  2685 net.cpp:141] Setting up inception_3b/5x5
I0403 15:07:11.700711  2685 net.cpp:148] Top shape: 24 96 28 28 (1806336)
I0403 15:07:11.700731  2685 net.cpp:156] Memory required for data: 736986144
I0403 15:07:11.700754  2685 layer_factory.hpp:77] Creating layer inception_3b/relu_5x5
I0403 15:07:11.700779  2685 net.cpp:91] Creating Layer inception_3b/relu_5x5
I0403 15:07:11.700801  2685 net.cpp:425] inception_3b/relu_5x5 <- inception_3b/5x5
I0403 15:07:11.700822  2685 net.cpp:386] inception_3b/relu_5x5 -> inception_3b/5x5 (in-place)
I0403 15:07:11.701055  2685 net.cpp:141] Setting up inception_3b/relu_5x5
I0403 15:07:11.701086  2685 net.cpp:148] Top shape: 24 96 28 28 (1806336)
I0403 15:07:11.701104  2685 net.cpp:156] Memory required for data: 744211488
I0403 15:07:11.701122  2685 layer_factory.hpp:77] Creating layer inception_3b/pool
I0403 15:07:11.701145  2685 net.cpp:91] Creating Layer inception_3b/pool
I0403 15:07:11.701165  2685 net.cpp:425] inception_3b/pool <- inception_3a/output_inception_3a/output_0_split_3
I0403 15:07:11.701187  2685 net.cpp:399] inception_3b/pool -> inception_3b/pool
I0403 15:07:11.701262  2685 net.cpp:141] Setting up inception_3b/pool
I0403 15:07:11.701294  2685 net.cpp:148] Top shape: 24 256 28 28 (4816896)
I0403 15:07:11.701313  2685 net.cpp:156] Memory required for data: 763479072
I0403 15:07:11.701330  2685 layer_factory.hpp:77] Creating layer inception_3b/pool_proj
I0403 15:07:11.701360  2685 net.cpp:91] Creating Layer inception_3b/pool_proj
I0403 15:07:11.701382  2685 net.cpp:425] inception_3b/pool_proj <- inception_3b/pool
I0403 15:07:11.701408  2685 net.cpp:399] inception_3b/pool_proj -> inception_3b/pool_proj
I0403 15:07:11.702682  2685 net.cpp:141] Setting up inception_3b/pool_proj
I0403 15:07:11.702719  2685 net.cpp:148] Top shape: 24 64 28 28 (1204224)
I0403 15:07:11.702741  2685 net.cpp:156] Memory required for data: 768295968
I0403 15:07:11.702764  2685 layer_factory.hpp:77] Creating layer inception_3b/relu_pool_proj
I0403 15:07:11.702787  2685 net.cpp:91] Creating Layer inception_3b/relu_pool_proj
I0403 15:07:11.702806  2685 net.cpp:425] inception_3b/relu_pool_proj <- inception_3b/pool_proj
I0403 15:07:11.702831  2685 net.cpp:386] inception_3b/relu_pool_proj -> inception_3b/pool_proj (in-place)
I0403 15:07:11.703310  2685 net.cpp:141] Setting up inception_3b/relu_pool_proj
I0403 15:07:11.703346  2685 net.cpp:148] Top shape: 24 64 28 28 (1204224)
I0403 15:07:11.703366  2685 net.cpp:156] Memory required for data: 773112864
I0403 15:07:11.703385  2685 layer_factory.hpp:77] Creating layer inception_3b/output
I0403 15:07:11.703408  2685 net.cpp:91] Creating Layer inception_3b/output
I0403 15:07:11.703428  2685 net.cpp:425] inception_3b/output <- inception_3b/1x1
I0403 15:07:11.703449  2685 net.cpp:425] inception_3b/output <- inception_3b/3x3
I0403 15:07:11.703469  2685 net.cpp:425] inception_3b/output <- inception_3b/5x5
I0403 15:07:11.703490  2685 net.cpp:425] inception_3b/output <- inception_3b/pool_proj
I0403 15:07:11.703510  2685 net.cpp:399] inception_3b/output -> inception_3b/output
I0403 15:07:11.703564  2685 net.cpp:141] Setting up inception_3b/output
I0403 15:07:11.703593  2685 net.cpp:148] Top shape: 24 480 28 28 (9031680)
I0403 15:07:11.703613  2685 net.cpp:156] Memory required for data: 809239584
I0403 15:07:11.703631  2685 layer_factory.hpp:77] Creating layer pool3/3x3_s2
I0403 15:07:11.703656  2685 net.cpp:91] Creating Layer pool3/3x3_s2
I0403 15:07:11.703677  2685 net.cpp:425] pool3/3x3_s2 <- inception_3b/output
I0403 15:07:11.703717  2685 net.cpp:399] pool3/3x3_s2 -> pool3/3x3_s2
I0403 15:07:11.703790  2685 net.cpp:141] Setting up pool3/3x3_s2
I0403 15:07:11.703819  2685 net.cpp:148] Top shape: 24 480 14 14 (2257920)
I0403 15:07:11.703837  2685 net.cpp:156] Memory required for data: 818271264
I0403 15:07:11.703855  2685 layer_factory.hpp:77] Creating layer pool3/3x3_s2_pool3/3x3_s2_0_split
I0403 15:07:11.703878  2685 net.cpp:91] Creating Layer pool3/3x3_s2_pool3/3x3_s2_0_split
I0403 15:07:11.703897  2685 net.cpp:425] pool3/3x3_s2_pool3/3x3_s2_0_split <- pool3/3x3_s2
I0403 15:07:11.703922  2685 net.cpp:399] pool3/3x3_s2_pool3/3x3_s2_0_split -> pool3/3x3_s2_pool3/3x3_s2_0_split_0
I0403 15:07:11.703948  2685 net.cpp:399] pool3/3x3_s2_pool3/3x3_s2_0_split -> pool3/3x3_s2_pool3/3x3_s2_0_split_1
I0403 15:07:11.703971  2685 net.cpp:399] pool3/3x3_s2_pool3/3x3_s2_0_split -> pool3/3x3_s2_pool3/3x3_s2_0_split_2
I0403 15:07:11.703994  2685 net.cpp:399] pool3/3x3_s2_pool3/3x3_s2_0_split -> pool3/3x3_s2_pool3/3x3_s2_0_split_3
I0403 15:07:11.704087  2685 net.cpp:141] Setting up pool3/3x3_s2_pool3/3x3_s2_0_split
I0403 15:07:11.704119  2685 net.cpp:148] Top shape: 24 480 14 14 (2257920)
I0403 15:07:11.704140  2685 net.cpp:148] Top shape: 24 480 14 14 (2257920)
I0403 15:07:11.704160  2685 net.cpp:148] Top shape: 24 480 14 14 (2257920)
I0403 15:07:11.704180  2685 net.cpp:148] Top shape: 24 480 14 14 (2257920)
I0403 15:07:11.704197  2685 net.cpp:156] Memory required for data: 854397984
I0403 15:07:11.704221  2685 layer_factory.hpp:77] Creating layer inception_4a/1x1
I0403 15:07:11.704249  2685 net.cpp:91] Creating Layer inception_4a/1x1
I0403 15:07:11.704272  2685 net.cpp:425] inception_4a/1x1 <- pool3/3x3_s2_pool3/3x3_s2_0_split_0
I0403 15:07:11.704295  2685 net.cpp:399] inception_4a/1x1 -> inception_4a/1x1
I0403 15:07:11.706192  2685 net.cpp:141] Setting up inception_4a/1x1
I0403 15:07:11.706233  2685 net.cpp:148] Top shape: 24 192 14 14 (903168)
I0403 15:07:11.706254  2685 net.cpp:156] Memory required for data: 858010656
I0403 15:07:11.706277  2685 layer_factory.hpp:77] Creating layer inception_4a/relu_1x1
I0403 15:07:11.706300  2685 net.cpp:91] Creating Layer inception_4a/relu_1x1
I0403 15:07:11.706318  2685 net.cpp:425] inception_4a/relu_1x1 <- inception_4a/1x1
I0403 15:07:11.706342  2685 net.cpp:386] inception_4a/relu_1x1 -> inception_4a/1x1 (in-place)
I0403 15:07:11.706557  2685 net.cpp:141] Setting up inception_4a/relu_1x1
I0403 15:07:11.706586  2685 net.cpp:148] Top shape: 24 192 14 14 (903168)
I0403 15:07:11.706605  2685 net.cpp:156] Memory required for data: 861623328
I0403 15:07:11.706624  2685 layer_factory.hpp:77] Creating layer inception_4a/3x3_reduce
I0403 15:07:11.706651  2685 net.cpp:91] Creating Layer inception_4a/3x3_reduce
I0403 15:07:11.706672  2685 net.cpp:425] inception_4a/3x3_reduce <- pool3/3x3_s2_pool3/3x3_s2_0_split_1
I0403 15:07:11.706698  2685 net.cpp:399] inception_4a/3x3_reduce -> inception_4a/3x3_reduce
I0403 15:07:11.708242  2685 net.cpp:141] Setting up inception_4a/3x3_reduce
I0403 15:07:11.708277  2685 net.cpp:148] Top shape: 24 96 14 14 (451584)
I0403 15:07:11.708298  2685 net.cpp:156] Memory required for data: 863429664
I0403 15:07:11.708328  2685 layer_factory.hpp:77] Creating layer inception_4a/relu_3x3_reduce
I0403 15:07:11.708354  2685 net.cpp:91] Creating Layer inception_4a/relu_3x3_reduce
I0403 15:07:11.708375  2685 net.cpp:425] inception_4a/relu_3x3_reduce <- inception_4a/3x3_reduce
I0403 15:07:11.708396  2685 net.cpp:386] inception_4a/relu_3x3_reduce -> inception_4a/3x3_reduce (in-place)
I0403 15:07:11.708612  2685 net.cpp:141] Setting up inception_4a/relu_3x3_reduce
I0403 15:07:11.708643  2685 net.cpp:148] Top shape: 24 96 14 14 (451584)
I0403 15:07:11.708660  2685 net.cpp:156] Memory required for data: 865236000
I0403 15:07:11.708679  2685 layer_factory.hpp:77] Creating layer inception_4a/3x3
I0403 15:07:11.708706  2685 net.cpp:91] Creating Layer inception_4a/3x3
I0403 15:07:11.708729  2685 net.cpp:425] inception_4a/3x3 <- inception_4a/3x3_reduce
I0403 15:07:11.708753  2685 net.cpp:399] inception_4a/3x3 -> inception_4a/3x3
I0403 15:07:11.711989  2685 net.cpp:141] Setting up inception_4a/3x3
I0403 15:07:11.712025  2685 net.cpp:148] Top shape: 24 208 14 14 (978432)
I0403 15:07:11.712045  2685 net.cpp:156] Memory required for data: 869149728
I0403 15:07:11.712067  2685 layer_factory.hpp:77] Creating layer inception_4a/relu_3x3
I0403 15:07:11.712092  2685 net.cpp:91] Creating Layer inception_4a/relu_3x3
I0403 15:07:11.712113  2685 net.cpp:425] inception_4a/relu_3x3 <- inception_4a/3x3
I0403 15:07:11.712134  2685 net.cpp:386] inception_4a/relu_3x3 -> inception_4a/3x3 (in-place)
I0403 15:07:11.712469  2685 net.cpp:141] Setting up inception_4a/relu_3x3
I0403 15:07:11.712502  2685 net.cpp:148] Top shape: 24 208 14 14 (978432)
I0403 15:07:11.712520  2685 net.cpp:156] Memory required for data: 873063456
I0403 15:07:11.712539  2685 layer_factory.hpp:77] Creating layer inception_4a/5x5_reduce
I0403 15:07:11.712566  2685 net.cpp:91] Creating Layer inception_4a/5x5_reduce
I0403 15:07:11.712587  2685 net.cpp:425] inception_4a/5x5_reduce <- pool3/3x3_s2_pool3/3x3_s2_0_split_2
I0403 15:07:11.712615  2685 net.cpp:399] inception_4a/5x5_reduce -> inception_4a/5x5_reduce
I0403 15:07:11.713873  2685 net.cpp:141] Setting up inception_4a/5x5_reduce
I0403 15:07:11.713908  2685 net.cpp:148] Top shape: 24 16 14 14 (75264)
I0403 15:07:11.713928  2685 net.cpp:156] Memory required for data: 873364512
I0403 15:07:11.713950  2685 layer_factory.hpp:77] Creating layer inception_4a/relu_5x5_reduce
I0403 15:07:11.713976  2685 net.cpp:91] Creating Layer inception_4a/relu_5x5_reduce
I0403 15:07:11.713997  2685 net.cpp:425] inception_4a/relu_5x5_reduce <- inception_4a/5x5_reduce
I0403 15:07:11.714018  2685 net.cpp:386] inception_4a/relu_5x5_reduce -> inception_4a/5x5_reduce (in-place)
I0403 15:07:11.714241  2685 net.cpp:141] Setting up inception_4a/relu_5x5_reduce
I0403 15:07:11.714273  2685 net.cpp:148] Top shape: 24 16 14 14 (75264)
I0403 15:07:11.714294  2685 net.cpp:156] Memory required for data: 873665568
I0403 15:07:11.714313  2685 layer_factory.hpp:77] Creating layer inception_4a/5x5
I0403 15:07:11.714339  2685 net.cpp:91] Creating Layer inception_4a/5x5
I0403 15:07:11.714362  2685 net.cpp:425] inception_4a/5x5 <- inception_4a/5x5_reduce
I0403 15:07:11.714385  2685 net.cpp:399] inception_4a/5x5 -> inception_4a/5x5
I0403 15:07:11.715790  2685 net.cpp:141] Setting up inception_4a/5x5
I0403 15:07:11.715827  2685 net.cpp:148] Top shape: 24 48 14 14 (225792)
I0403 15:07:11.715847  2685 net.cpp:156] Memory required for data: 874568736
I0403 15:07:11.715872  2685 layer_factory.hpp:77] Creating layer inception_4a/relu_5x5
I0403 15:07:11.715893  2685 net.cpp:91] Creating Layer inception_4a/relu_5x5
I0403 15:07:11.715914  2685 net.cpp:425] inception_4a/relu_5x5 <- inception_4a/5x5
I0403 15:07:11.715934  2685 net.cpp:386] inception_4a/relu_5x5 -> inception_4a/5x5 (in-place)
I0403 15:07:11.716156  2685 net.cpp:141] Setting up inception_4a/relu_5x5
I0403 15:07:11.716187  2685 net.cpp:148] Top shape: 24 48 14 14 (225792)
I0403 15:07:11.716205  2685 net.cpp:156] Memory required for data: 875471904
I0403 15:07:11.716230  2685 layer_factory.hpp:77] Creating layer inception_4a/pool
I0403 15:07:11.716253  2685 net.cpp:91] Creating Layer inception_4a/pool
I0403 15:07:11.716274  2685 net.cpp:425] inception_4a/pool <- pool3/3x3_s2_pool3/3x3_s2_0_split_3
I0403 15:07:11.716300  2685 net.cpp:399] inception_4a/pool -> inception_4a/pool
I0403 15:07:11.716384  2685 net.cpp:141] Setting up inception_4a/pool
I0403 15:07:11.716416  2685 net.cpp:148] Top shape: 24 480 14 14 (2257920)
I0403 15:07:11.716435  2685 net.cpp:156] Memory required for data: 884503584
I0403 15:07:11.716454  2685 layer_factory.hpp:77] Creating layer inception_4a/pool_proj
I0403 15:07:11.716481  2685 net.cpp:91] Creating Layer inception_4a/pool_proj
I0403 15:07:11.716502  2685 net.cpp:425] inception_4a/pool_proj <- inception_4a/pool
I0403 15:07:11.716526  2685 net.cpp:399] inception_4a/pool_proj -> inception_4a/pool_proj
I0403 15:07:11.717944  2685 net.cpp:141] Setting up inception_4a/pool_proj
I0403 15:07:11.717979  2685 net.cpp:148] Top shape: 24 64 14 14 (301056)
I0403 15:07:11.718017  2685 net.cpp:156] Memory required for data: 885707808
I0403 15:07:11.718041  2685 layer_factory.hpp:77] Creating layer inception_4a/relu_pool_proj
I0403 15:07:11.718065  2685 net.cpp:91] Creating Layer inception_4a/relu_pool_proj
I0403 15:07:11.718086  2685 net.cpp:425] inception_4a/relu_pool_proj <- inception_4a/pool_proj
I0403 15:07:11.718111  2685 net.cpp:386] inception_4a/relu_pool_proj -> inception_4a/pool_proj (in-place)
I0403 15:07:11.718454  2685 net.cpp:141] Setting up inception_4a/relu_pool_proj
I0403 15:07:11.718487  2685 net.cpp:148] Top shape: 24 64 14 14 (301056)
I0403 15:07:11.718507  2685 net.cpp:156] Memory required for data: 886912032
I0403 15:07:11.718525  2685 layer_factory.hpp:77] Creating layer inception_4a/output
I0403 15:07:11.718547  2685 net.cpp:91] Creating Layer inception_4a/output
I0403 15:07:11.718567  2685 net.cpp:425] inception_4a/output <- inception_4a/1x1
I0403 15:07:11.718588  2685 net.cpp:425] inception_4a/output <- inception_4a/3x3
I0403 15:07:11.718607  2685 net.cpp:425] inception_4a/output <- inception_4a/5x5
I0403 15:07:11.718628  2685 net.cpp:425] inception_4a/output <- inception_4a/pool_proj
I0403 15:07:11.718652  2685 net.cpp:399] inception_4a/output -> inception_4a/output
I0403 15:07:11.718708  2685 net.cpp:141] Setting up inception_4a/output
I0403 15:07:11.718737  2685 net.cpp:148] Top shape: 24 512 14 14 (2408448)
I0403 15:07:11.718760  2685 net.cpp:156] Memory required for data: 896545824
I0403 15:07:11.718778  2685 layer_factory.hpp:77] Creating layer inception_4a/output_inception_4a/output_0_split
I0403 15:07:11.718801  2685 net.cpp:91] Creating Layer inception_4a/output_inception_4a/output_0_split
I0403 15:07:11.718821  2685 net.cpp:425] inception_4a/output_inception_4a/output_0_split <- inception_4a/output
I0403 15:07:11.718842  2685 net.cpp:399] inception_4a/output_inception_4a/output_0_split -> inception_4a/output_inception_4a/output_0_split_0
I0403 15:07:11.718868  2685 net.cpp:399] inception_4a/output_inception_4a/output_0_split -> inception_4a/output_inception_4a/output_0_split_1
I0403 15:07:11.718896  2685 net.cpp:399] inception_4a/output_inception_4a/output_0_split -> inception_4a/output_inception_4a/output_0_split_2
I0403 15:07:11.718924  2685 net.cpp:399] inception_4a/output_inception_4a/output_0_split -> inception_4a/output_inception_4a/output_0_split_3
I0403 15:07:11.718948  2685 net.cpp:399] inception_4a/output_inception_4a/output_0_split -> inception_4a/output_inception_4a/output_0_split_4
I0403 15:07:11.719061  2685 net.cpp:141] Setting up inception_4a/output_inception_4a/output_0_split
I0403 15:07:11.719090  2685 net.cpp:148] Top shape: 24 512 14 14 (2408448)
I0403 15:07:11.719110  2685 net.cpp:148] Top shape: 24 512 14 14 (2408448)
I0403 15:07:11.719130  2685 net.cpp:148] Top shape: 24 512 14 14 (2408448)
I0403 15:07:11.719149  2685 net.cpp:148] Top shape: 24 512 14 14 (2408448)
I0403 15:07:11.719168  2685 net.cpp:148] Top shape: 24 512 14 14 (2408448)
I0403 15:07:11.719185  2685 net.cpp:156] Memory required for data: 944714784
I0403 15:07:11.719204  2685 layer_factory.hpp:77] Creating layer loss1/ave_pool
I0403 15:07:11.719236  2685 net.cpp:91] Creating Layer loss1/ave_pool
I0403 15:07:11.719257  2685 net.cpp:425] loss1/ave_pool <- inception_4a/output_inception_4a/output_0_split_0
I0403 15:07:11.719280  2685 net.cpp:399] loss1/ave_pool -> loss1/ave_pool
I0403 15:07:11.719537  2685 net.cpp:141] Setting up loss1/ave_pool
I0403 15:07:11.719568  2685 net.cpp:148] Top shape: 24 512 4 4 (196608)
I0403 15:07:11.719588  2685 net.cpp:156] Memory required for data: 945501216
I0403 15:07:11.719605  2685 layer_factory.hpp:77] Creating layer loss1/conv
I0403 15:07:11.719632  2685 net.cpp:91] Creating Layer loss1/conv
I0403 15:07:11.719655  2685 net.cpp:425] loss1/conv <- loss1/ave_pool
I0403 15:07:11.719681  2685 net.cpp:399] loss1/conv -> loss1/conv
I0403 15:07:11.721398  2685 net.cpp:141] Setting up loss1/conv
I0403 15:07:11.721433  2685 net.cpp:148] Top shape: 24 128 4 4 (49152)
I0403 15:07:11.721470  2685 net.cpp:156] Memory required for data: 945697824
I0403 15:07:11.721494  2685 layer_factory.hpp:77] Creating layer loss1/relu_conv
I0403 15:07:11.721521  2685 net.cpp:91] Creating Layer loss1/relu_conv
I0403 15:07:11.721542  2685 net.cpp:425] loss1/relu_conv <- loss1/conv
I0403 15:07:11.721562  2685 net.cpp:386] loss1/relu_conv -> loss1/conv (in-place)
I0403 15:07:11.721899  2685 net.cpp:141] Setting up loss1/relu_conv
I0403 15:07:11.721930  2685 net.cpp:148] Top shape: 24 128 4 4 (49152)
I0403 15:07:11.721949  2685 net.cpp:156] Memory required for data: 945894432
I0403 15:07:11.721968  2685 layer_factory.hpp:77] Creating layer loss1/fc
I0403 15:07:11.721999  2685 net.cpp:91] Creating Layer loss1/fc
I0403 15:07:11.722023  2685 net.cpp:425] loss1/fc <- loss1/conv
I0403 15:07:11.722045  2685 net.cpp:399] loss1/fc -> loss1/fc
I0403 15:07:11.744024  2685 net.cpp:141] Setting up loss1/fc
I0403 15:07:11.744112  2685 net.cpp:148] Top shape: 24 1024 (24576)
I0403 15:07:11.744132  2685 net.cpp:156] Memory required for data: 945992736
I0403 15:07:11.744158  2685 layer_factory.hpp:77] Creating layer loss1/relu_fc
I0403 15:07:11.744185  2685 net.cpp:91] Creating Layer loss1/relu_fc
I0403 15:07:11.744206  2685 net.cpp:425] loss1/relu_fc <- loss1/fc
I0403 15:07:11.744241  2685 net.cpp:386] loss1/relu_fc -> loss1/fc (in-place)
I0403 15:07:11.744513  2685 net.cpp:141] Setting up loss1/relu_fc
I0403 15:07:11.744544  2685 net.cpp:148] Top shape: 24 1024 (24576)
I0403 15:07:11.744562  2685 net.cpp:156] Memory required for data: 946091040
I0403 15:07:11.744580  2685 layer_factory.hpp:77] Creating layer loss1/drop_fc
I0403 15:07:11.744621  2685 net.cpp:91] Creating Layer loss1/drop_fc
I0403 15:07:11.744644  2685 net.cpp:425] loss1/drop_fc <- loss1/fc
I0403 15:07:11.744668  2685 net.cpp:386] loss1/drop_fc -> loss1/fc (in-place)
I0403 15:07:11.744732  2685 net.cpp:141] Setting up loss1/drop_fc
I0403 15:07:11.744761  2685 net.cpp:148] Top shape: 24 1024 (24576)
I0403 15:07:11.744779  2685 net.cpp:156] Memory required for data: 946189344
I0403 15:07:11.744797  2685 layer_factory.hpp:77] Creating layer loss1/classifier_plantvillage
I0403 15:07:11.744827  2685 net.cpp:91] Creating Layer loss1/classifier_plantvillage
I0403 15:07:11.744848  2685 net.cpp:425] loss1/classifier_plantvillage <- loss1/fc
I0403 15:07:11.744873  2685 net.cpp:399] loss1/classifier_plantvillage -> loss1/classifier_plantvillage
I0403 15:07:11.746012  2685 net.cpp:141] Setting up loss1/classifier_plantvillage
I0403 15:07:11.746047  2685 net.cpp:148] Top shape: 24 38 (912)
I0403 15:07:11.746064  2685 net.cpp:156] Memory required for data: 946192992
I0403 15:07:11.746088  2685 layer_factory.hpp:77] Creating layer loss1/classifier_plantvillage_loss1/classifier_plantvillage_0_split
I0403 15:07:11.746111  2685 net.cpp:91] Creating Layer loss1/classifier_plantvillage_loss1/classifier_plantvillage_0_split
I0403 15:07:11.746131  2685 net.cpp:425] loss1/classifier_plantvillage_loss1/classifier_plantvillage_0_split <- loss1/classifier_plantvillage
I0403 15:07:11.746157  2685 net.cpp:399] loss1/classifier_plantvillage_loss1/classifier_plantvillage_0_split -> loss1/classifier_plantvillage_loss1/classifier_plantvillage_0_split_0
I0403 15:07:11.746184  2685 net.cpp:399] loss1/classifier_plantvillage_loss1/classifier_plantvillage_0_split -> loss1/classifier_plantvillage_loss1/classifier_plantvillage_0_split_1
I0403 15:07:11.746214  2685 net.cpp:399] loss1/classifier_plantvillage_loss1/classifier_plantvillage_0_split -> loss1/classifier_plantvillage_loss1/classifier_plantvillage_0_split_2
I0403 15:07:11.746299  2685 net.cpp:141] Setting up loss1/classifier_plantvillage_loss1/classifier_plantvillage_0_split
I0403 15:07:11.746330  2685 net.cpp:148] Top shape: 24 38 (912)
I0403 15:07:11.746351  2685 net.cpp:148] Top shape: 24 38 (912)
I0403 15:07:11.746371  2685 net.cpp:148] Top shape: 24 38 (912)
I0403 15:07:11.746388  2685 net.cpp:156] Memory required for data: 946203936
I0403 15:07:11.746407  2685 layer_factory.hpp:77] Creating layer inception_4b/1x1
I0403 15:07:11.746434  2685 net.cpp:91] Creating Layer inception_4b/1x1
I0403 15:07:11.746490  2685 net.cpp:425] inception_4b/1x1 <- inception_4a/output_inception_4a/output_0_split_1
I0403 15:07:11.746516  2685 net.cpp:399] inception_4b/1x1 -> inception_4b/1x1
I0403 15:07:11.748565  2685 net.cpp:141] Setting up inception_4b/1x1
I0403 15:07:11.748600  2685 net.cpp:148] Top shape: 24 160 14 14 (752640)
I0403 15:07:11.748620  2685 net.cpp:156] Memory required for data: 949214496
I0403 15:07:11.748642  2685 layer_factory.hpp:77] Creating layer inception_4b/relu_1x1
I0403 15:07:11.748668  2685 net.cpp:91] Creating Layer inception_4b/relu_1x1
I0403 15:07:11.748690  2685 net.cpp:425] inception_4b/relu_1x1 <- inception_4b/1x1
I0403 15:07:11.748711  2685 net.cpp:386] inception_4b/relu_1x1 -> inception_4b/1x1 (in-place)
I0403 15:07:11.748931  2685 net.cpp:141] Setting up inception_4b/relu_1x1
I0403 15:07:11.748962  2685 net.cpp:148] Top shape: 24 160 14 14 (752640)
I0403 15:07:11.748980  2685 net.cpp:156] Memory required for data: 952225056
I0403 15:07:11.749001  2685 layer_factory.hpp:77] Creating layer inception_4b/3x3_reduce
I0403 15:07:11.749032  2685 net.cpp:91] Creating Layer inception_4b/3x3_reduce
I0403 15:07:11.749053  2685 net.cpp:425] inception_4b/3x3_reduce <- inception_4a/output_inception_4a/output_0_split_2
I0403 15:07:11.749078  2685 net.cpp:399] inception_4b/3x3_reduce -> inception_4b/3x3_reduce
I0403 15:07:11.750732  2685 net.cpp:141] Setting up inception_4b/3x3_reduce
I0403 15:07:11.750767  2685 net.cpp:148] Top shape: 24 112 14 14 (526848)
I0403 15:07:11.750787  2685 net.cpp:156] Memory required for data: 954332448
I0403 15:07:11.750809  2685 layer_factory.hpp:77] Creating layer inception_4b/relu_3x3_reduce
I0403 15:07:11.750835  2685 net.cpp:91] Creating Layer inception_4b/relu_3x3_reduce
I0403 15:07:11.750856  2685 net.cpp:425] inception_4b/relu_3x3_reduce <- inception_4b/3x3_reduce
I0403 15:07:11.750877  2685 net.cpp:386] inception_4b/relu_3x3_reduce -> inception_4b/3x3_reduce (in-place)
I0403 15:07:11.751219  2685 net.cpp:141] Setting up inception_4b/relu_3x3_reduce
I0403 15:07:11.751250  2685 net.cpp:148] Top shape: 24 112 14 14 (526848)
I0403 15:07:11.751269  2685 net.cpp:156] Memory required for data: 956439840
I0403 15:07:11.751288  2685 layer_factory.hpp:77] Creating layer inception_4b/3x3
I0403 15:07:11.751317  2685 net.cpp:91] Creating Layer inception_4b/3x3
I0403 15:07:11.751339  2685 net.cpp:425] inception_4b/3x3 <- inception_4b/3x3_reduce
I0403 15:07:11.751363  2685 net.cpp:399] inception_4b/3x3 -> inception_4b/3x3
I0403 15:07:11.754997  2685 net.cpp:141] Setting up inception_4b/3x3
I0403 15:07:11.755039  2685 net.cpp:148] Top shape: 24 224 14 14 (1053696)
I0403 15:07:11.755061  2685 net.cpp:156] Memory required for data: 960654624
I0403 15:07:11.755084  2685 layer_factory.hpp:77] Creating layer inception_4b/relu_3x3
I0403 15:07:11.755106  2685 net.cpp:91] Creating Layer inception_4b/relu_3x3
I0403 15:07:11.755126  2685 net.cpp:425] inception_4b/relu_3x3 <- inception_4b/3x3
I0403 15:07:11.755151  2685 net.cpp:386] inception_4b/relu_3x3 -> inception_4b/3x3 (in-place)
I0403 15:07:11.755373  2685 net.cpp:141] Setting up inception_4b/relu_3x3
I0403 15:07:11.755403  2685 net.cpp:148] Top shape: 24 224 14 14 (1053696)
I0403 15:07:11.755421  2685 net.cpp:156] Memory required for data: 964869408
I0403 15:07:11.755440  2685 layer_factory.hpp:77] Creating layer inception_4b/5x5_reduce
I0403 15:07:11.755468  2685 net.cpp:91] Creating Layer inception_4b/5x5_reduce
I0403 15:07:11.755491  2685 net.cpp:425] inception_4b/5x5_reduce <- inception_4a/output_inception_4a/output_0_split_3
I0403 15:07:11.755519  2685 net.cpp:399] inception_4b/5x5_reduce -> inception_4b/5x5_reduce
I0403 15:07:11.756824  2685 net.cpp:141] Setting up inception_4b/5x5_reduce
I0403 15:07:11.756860  2685 net.cpp:148] Top shape: 24 24 14 14 (112896)
I0403 15:07:11.756878  2685 net.cpp:156] Memory required for data: 965320992
I0403 15:07:11.756901  2685 layer_factory.hpp:77] Creating layer inception_4b/relu_5x5_reduce
I0403 15:07:11.756927  2685 net.cpp:91] Creating Layer inception_4b/relu_5x5_reduce
I0403 15:07:11.756966  2685 net.cpp:425] inception_4b/relu_5x5_reduce <- inception_4b/5x5_reduce
I0403 15:07:11.756989  2685 net.cpp:386] inception_4b/relu_5x5_reduce -> inception_4b/5x5_reduce (in-place)
I0403 15:07:11.757215  2685 net.cpp:141] Setting up inception_4b/relu_5x5_reduce
I0403 15:07:11.757249  2685 net.cpp:148] Top shape: 24 24 14 14 (112896)
I0403 15:07:11.757269  2685 net.cpp:156] Memory required for data: 965772576
I0403 15:07:11.757289  2685 layer_factory.hpp:77] Creating layer inception_4b/5x5
I0403 15:07:11.757316  2685 net.cpp:91] Creating Layer inception_4b/5x5
I0403 15:07:11.757339  2685 net.cpp:425] inception_4b/5x5 <- inception_4b/5x5_reduce
I0403 15:07:11.757361  2685 net.cpp:399] inception_4b/5x5 -> inception_4b/5x5
I0403 15:07:11.758865  2685 net.cpp:141] Setting up inception_4b/5x5
I0403 15:07:11.758900  2685 net.cpp:148] Top shape: 24 64 14 14 (301056)
I0403 15:07:11.758919  2685 net.cpp:156] Memory required for data: 966976800
I0403 15:07:11.758942  2685 layer_factory.hpp:77] Creating layer inception_4b/relu_5x5
I0403 15:07:11.758968  2685 net.cpp:91] Creating Layer inception_4b/relu_5x5
I0403 15:07:11.758990  2685 net.cpp:425] inception_4b/relu_5x5 <- inception_4b/5x5
I0403 15:07:11.759011  2685 net.cpp:386] inception_4b/relu_5x5 -> inception_4b/5x5 (in-place)
I0403 15:07:11.759407  2685 net.cpp:141] Setting up inception_4b/relu_5x5
I0403 15:07:11.759441  2685 net.cpp:148] Top shape: 24 64 14 14 (301056)
I0403 15:07:11.759469  2685 net.cpp:156] Memory required for data: 968181024
I0403 15:07:11.759488  2685 layer_factory.hpp:77] Creating layer inception_4b/pool
I0403 15:07:11.759522  2685 net.cpp:91] Creating Layer inception_4b/pool
I0403 15:07:11.759543  2685 net.cpp:425] inception_4b/pool <- inception_4a/output_inception_4a/output_0_split_4
I0403 15:07:11.759567  2685 net.cpp:399] inception_4b/pool -> inception_4b/pool
I0403 15:07:11.759666  2685 net.cpp:141] Setting up inception_4b/pool
I0403 15:07:11.759697  2685 net.cpp:148] Top shape: 24 512 14 14 (2408448)
I0403 15:07:11.759719  2685 net.cpp:156] Memory required for data: 977814816
I0403 15:07:11.759740  2685 layer_factory.hpp:77] Creating layer inception_4b/pool_proj
I0403 15:07:11.759771  2685 net.cpp:91] Creating Layer inception_4b/pool_proj
I0403 15:07:11.759794  2685 net.cpp:425] inception_4b/pool_proj <- inception_4b/pool
I0403 15:07:11.759825  2685 net.cpp:399] inception_4b/pool_proj -> inception_4b/pool_proj
I0403 15:07:11.761315  2685 net.cpp:141] Setting up inception_4b/pool_proj
I0403 15:07:11.761350  2685 net.cpp:148] Top shape: 24 64 14 14 (301056)
I0403 15:07:11.761370  2685 net.cpp:156] Memory required for data: 979019040
I0403 15:07:11.761394  2685 layer_factory.hpp:77] Creating layer inception_4b/relu_pool_proj
I0403 15:07:11.761420  2685 net.cpp:91] Creating Layer inception_4b/relu_pool_proj
I0403 15:07:11.761441  2685 net.cpp:425] inception_4b/relu_pool_proj <- inception_4b/pool_proj
I0403 15:07:11.761463  2685 net.cpp:386] inception_4b/relu_pool_proj -> inception_4b/pool_proj (in-place)
I0403 15:07:11.761683  2685 net.cpp:141] Setting up inception_4b/relu_pool_proj
I0403 15:07:11.761718  2685 net.cpp:148] Top shape: 24 64 14 14 (301056)
I0403 15:07:11.761737  2685 net.cpp:156] Memory required for data: 980223264
I0403 15:07:11.761756  2685 layer_factory.hpp:77] Creating layer inception_4b/output
I0403 15:07:11.761780  2685 net.cpp:91] Creating Layer inception_4b/output
I0403 15:07:11.761801  2685 net.cpp:425] inception_4b/output <- inception_4b/1x1
I0403 15:07:11.761821  2685 net.cpp:425] inception_4b/output <- inception_4b/3x3
I0403 15:07:11.761842  2685 net.cpp:425] inception_4b/output <- inception_4b/5x5
I0403 15:07:11.761862  2685 net.cpp:425] inception_4b/output <- inception_4b/pool_proj
I0403 15:07:11.761886  2685 net.cpp:399] inception_4b/output -> inception_4b/output
I0403 15:07:11.761945  2685 net.cpp:141] Setting up inception_4b/output
I0403 15:07:11.761972  2685 net.cpp:148] Top shape: 24 512 14 14 (2408448)
I0403 15:07:11.761991  2685 net.cpp:156] Memory required for data: 989857056
I0403 15:07:11.762025  2685 layer_factory.hpp:77] Creating layer inception_4b/output_inception_4b/output_0_split
I0403 15:07:11.762051  2685 net.cpp:91] Creating Layer inception_4b/output_inception_4b/output_0_split
I0403 15:07:11.762073  2685 net.cpp:425] inception_4b/output_inception_4b/output_0_split <- inception_4b/output
I0403 15:07:11.762094  2685 net.cpp:399] inception_4b/output_inception_4b/output_0_split -> inception_4b/output_inception_4b/output_0_split_0
I0403 15:07:11.762120  2685 net.cpp:399] inception_4b/output_inception_4b/output_0_split -> inception_4b/output_inception_4b/output_0_split_1
I0403 15:07:11.762145  2685 net.cpp:399] inception_4b/output_inception_4b/output_0_split -> inception_4b/output_inception_4b/output_0_split_2
I0403 15:07:11.762173  2685 net.cpp:399] inception_4b/output_inception_4b/output_0_split -> inception_4b/output_inception_4b/output_0_split_3
I0403 15:07:11.762282  2685 net.cpp:141] Setting up inception_4b/output_inception_4b/output_0_split
I0403 15:07:11.762312  2685 net.cpp:148] Top shape: 24 512 14 14 (2408448)
I0403 15:07:11.762333  2685 net.cpp:148] Top shape: 24 512 14 14 (2408448)
I0403 15:07:11.762353  2685 net.cpp:148] Top shape: 24 512 14 14 (2408448)
I0403 15:07:11.762372  2685 net.cpp:148] Top shape: 24 512 14 14 (2408448)
I0403 15:07:11.762389  2685 net.cpp:156] Memory required for data: 1028392224
I0403 15:07:11.762408  2685 layer_factory.hpp:77] Creating layer inception_4c/1x1
I0403 15:07:11.762435  2685 net.cpp:91] Creating Layer inception_4c/1x1
I0403 15:07:11.762459  2685 net.cpp:425] inception_4c/1x1 <- inception_4b/output_inception_4b/output_0_split_0
I0403 15:07:11.762486  2685 net.cpp:399] inception_4c/1x1 -> inception_4c/1x1
I0403 15:07:11.764251  2685 net.cpp:141] Setting up inception_4c/1x1
I0403 15:07:11.764292  2685 net.cpp:148] Top shape: 24 128 14 14 (602112)
I0403 15:07:11.764314  2685 net.cpp:156] Memory required for data: 1030800672
I0403 15:07:11.764338  2685 layer_factory.hpp:77] Creating layer inception_4c/relu_1x1
I0403 15:07:11.764363  2685 net.cpp:91] Creating Layer inception_4c/relu_1x1
I0403 15:07:11.764382  2685 net.cpp:425] inception_4c/relu_1x1 <- inception_4c/1x1
I0403 15:07:11.764407  2685 net.cpp:386] inception_4c/relu_1x1 -> inception_4c/1x1 (in-place)
I0403 15:07:11.764628  2685 net.cpp:141] Setting up inception_4c/relu_1x1
I0403 15:07:11.764659  2685 net.cpp:148] Top shape: 24 128 14 14 (602112)
I0403 15:07:11.764678  2685 net.cpp:156] Memory required for data: 1033209120
I0403 15:07:11.764696  2685 layer_factory.hpp:77] Creating layer inception_4c/3x3_reduce
I0403 15:07:11.764724  2685 net.cpp:91] Creating Layer inception_4c/3x3_reduce
I0403 15:07:11.764747  2685 net.cpp:425] inception_4c/3x3_reduce <- inception_4b/output_inception_4b/output_0_split_1
I0403 15:07:11.764773  2685 net.cpp:399] inception_4c/3x3_reduce -> inception_4c/3x3_reduce
I0403 15:07:11.767124  2685 net.cpp:141] Setting up inception_4c/3x3_reduce
I0403 15:07:11.767160  2685 net.cpp:148] Top shape: 24 128 14 14 (602112)
I0403 15:07:11.767180  2685 net.cpp:156] Memory required for data: 1035617568
I0403 15:07:11.767204  2685 layer_factory.hpp:77] Creating layer inception_4c/relu_3x3_reduce
I0403 15:07:11.767238  2685 net.cpp:91] Creating Layer inception_4c/relu_3x3_reduce
I0403 15:07:11.767261  2685 net.cpp:425] inception_4c/relu_3x3_reduce <- inception_4c/3x3_reduce
I0403 15:07:11.767283  2685 net.cpp:386] inception_4c/relu_3x3_reduce -> inception_4c/3x3_reduce (in-place)
I0403 15:07:11.767630  2685 net.cpp:141] Setting up inception_4c/relu_3x3_reduce
I0403 15:07:11.767663  2685 net.cpp:148] Top shape: 24 128 14 14 (602112)
I0403 15:07:11.767683  2685 net.cpp:156] Memory required for data: 1038026016
I0403 15:07:11.767701  2685 layer_factory.hpp:77] Creating layer inception_4c/3x3
I0403 15:07:11.767729  2685 net.cpp:91] Creating Layer inception_4c/3x3
I0403 15:07:11.767750  2685 net.cpp:425] inception_4c/3x3 <- inception_4c/3x3_reduce
I0403 15:07:11.767778  2685 net.cpp:399] inception_4c/3x3 -> inception_4c/3x3
I0403 15:07:11.772171  2685 net.cpp:141] Setting up inception_4c/3x3
I0403 15:07:11.772228  2685 net.cpp:148] Top shape: 24 256 14 14 (1204224)
I0403 15:07:11.772250  2685 net.cpp:156] Memory required for data: 1042842912
I0403 15:07:11.772290  2685 layer_factory.hpp:77] Creating layer inception_4c/relu_3x3
I0403 15:07:11.772318  2685 net.cpp:91] Creating Layer inception_4c/relu_3x3
I0403 15:07:11.772339  2685 net.cpp:425] inception_4c/relu_3x3 <- inception_4c/3x3
I0403 15:07:11.772361  2685 net.cpp:386] inception_4c/relu_3x3 -> inception_4c/3x3 (in-place)
I0403 15:07:11.772590  2685 net.cpp:141] Setting up inception_4c/relu_3x3
I0403 15:07:11.772620  2685 net.cpp:148] Top shape: 24 256 14 14 (1204224)
I0403 15:07:11.772639  2685 net.cpp:156] Memory required for data: 1047659808
I0403 15:07:11.772656  2685 layer_factory.hpp:77] Creating layer inception_4c/5x5_reduce
I0403 15:07:11.772683  2685 net.cpp:91] Creating Layer inception_4c/5x5_reduce
I0403 15:07:11.772708  2685 net.cpp:425] inception_4c/5x5_reduce <- inception_4b/output_inception_4b/output_0_split_2
I0403 15:07:11.772732  2685 net.cpp:399] inception_4c/5x5_reduce -> inception_4c/5x5_reduce
I0403 15:07:11.774083  2685 net.cpp:141] Setting up inception_4c/5x5_reduce
I0403 15:07:11.774119  2685 net.cpp:148] Top shape: 24 24 14 14 (112896)
I0403 15:07:11.774139  2685 net.cpp:156] Memory required for data: 1048111392
I0403 15:07:11.774163  2685 layer_factory.hpp:77] Creating layer inception_4c/relu_5x5_reduce
I0403 15:07:11.774186  2685 net.cpp:91] Creating Layer inception_4c/relu_5x5_reduce
I0403 15:07:11.774206  2685 net.cpp:425] inception_4c/relu_5x5_reduce <- inception_4c/5x5_reduce
I0403 15:07:11.774235  2685 net.cpp:386] inception_4c/relu_5x5_reduce -> inception_4c/5x5_reduce (in-place)
I0403 15:07:11.774461  2685 net.cpp:141] Setting up inception_4c/relu_5x5_reduce
I0403 15:07:11.774494  2685 net.cpp:148] Top shape: 24 24 14 14 (112896)
I0403 15:07:11.774513  2685 net.cpp:156] Memory required for data: 1048562976
I0403 15:07:11.774533  2685 layer_factory.hpp:77] Creating layer inception_4c/5x5
I0403 15:07:11.774559  2685 net.cpp:91] Creating Layer inception_4c/5x5
I0403 15:07:11.774581  2685 net.cpp:425] inception_4c/5x5 <- inception_4c/5x5_reduce
I0403 15:07:11.774605  2685 net.cpp:399] inception_4c/5x5 -> inception_4c/5x5
I0403 15:07:11.776130  2685 net.cpp:141] Setting up inception_4c/5x5
I0403 15:07:11.776168  2685 net.cpp:148] Top shape: 24 64 14 14 (301056)
I0403 15:07:11.776188  2685 net.cpp:156] Memory required for data: 1049767200
I0403 15:07:11.776217  2685 layer_factory.hpp:77] Creating layer inception_4c/relu_5x5
I0403 15:07:11.776244  2685 net.cpp:91] Creating Layer inception_4c/relu_5x5
I0403 15:07:11.776265  2685 net.cpp:425] inception_4c/relu_5x5 <- inception_4c/5x5
I0403 15:07:11.776289  2685 net.cpp:386] inception_4c/relu_5x5 -> inception_4c/5x5 (in-place)
I0403 15:07:11.776643  2685 net.cpp:141] Setting up inception_4c/relu_5x5
I0403 15:07:11.776682  2685 net.cpp:148] Top shape: 24 64 14 14 (301056)
I0403 15:07:11.776702  2685 net.cpp:156] Memory required for data: 1050971424
I0403 15:07:11.776721  2685 layer_factory.hpp:77] Creating layer inception_4c/pool
I0403 15:07:11.776744  2685 net.cpp:91] Creating Layer inception_4c/pool
I0403 15:07:11.776764  2685 net.cpp:425] inception_4c/pool <- inception_4b/output_inception_4b/output_0_split_3
I0403 15:07:11.776790  2685 net.cpp:399] inception_4c/pool -> inception_4c/pool
I0403 15:07:11.776870  2685 net.cpp:141] Setting up inception_4c/pool
I0403 15:07:11.776900  2685 net.cpp:148] Top shape: 24 512 14 14 (2408448)
I0403 15:07:11.776917  2685 net.cpp:156] Memory required for data: 1060605216
I0403 15:07:11.776937  2685 layer_factory.hpp:77] Creating layer inception_4c/pool_proj
I0403 15:07:11.776964  2685 net.cpp:91] Creating Layer inception_4c/pool_proj
I0403 15:07:11.776985  2685 net.cpp:425] inception_4c/pool_proj <- inception_4c/pool
I0403 15:07:11.777011  2685 net.cpp:399] inception_4c/pool_proj -> inception_4c/pool_proj
I0403 15:07:11.778548  2685 net.cpp:141] Setting up inception_4c/pool_proj
I0403 15:07:11.778585  2685 net.cpp:148] Top shape: 24 64 14 14 (301056)
I0403 15:07:11.778625  2685 net.cpp:156] Memory required for data: 1061809440
I0403 15:07:11.778656  2685 layer_factory.hpp:77] Creating layer inception_4c/relu_pool_proj
I0403 15:07:11.778683  2685 net.cpp:91] Creating Layer inception_4c/relu_pool_proj
I0403 15:07:11.778707  2685 net.cpp:425] inception_4c/relu_pool_proj <- inception_4c/pool_proj
I0403 15:07:11.778728  2685 net.cpp:386] inception_4c/relu_pool_proj -> inception_4c/pool_proj (in-place)
I0403 15:07:11.778985  2685 net.cpp:141] Setting up inception_4c/relu_pool_proj
I0403 15:07:11.779021  2685 net.cpp:148] Top shape: 24 64 14 14 (301056)
I0403 15:07:11.779042  2685 net.cpp:156] Memory required for data: 1063013664
I0403 15:07:11.779062  2685 layer_factory.hpp:77] Creating layer inception_4c/output
I0403 15:07:11.779083  2685 net.cpp:91] Creating Layer inception_4c/output
I0403 15:07:11.779101  2685 net.cpp:425] inception_4c/output <- inception_4c/1x1
I0403 15:07:11.779121  2685 net.cpp:425] inception_4c/output <- inception_4c/3x3
I0403 15:07:11.779141  2685 net.cpp:425] inception_4c/output <- inception_4c/5x5
I0403 15:07:11.779161  2685 net.cpp:425] inception_4c/output <- inception_4c/pool_proj
I0403 15:07:11.779182  2685 net.cpp:399] inception_4c/output -> inception_4c/output
I0403 15:07:11.779247  2685 net.cpp:141] Setting up inception_4c/output
I0403 15:07:11.779278  2685 net.cpp:148] Top shape: 24 512 14 14 (2408448)
I0403 15:07:11.779295  2685 net.cpp:156] Memory required for data: 1072647456
I0403 15:07:11.779314  2685 layer_factory.hpp:77] Creating layer inception_4c/output_inception_4c/output_0_split
I0403 15:07:11.779335  2685 net.cpp:91] Creating Layer inception_4c/output_inception_4c/output_0_split
I0403 15:07:11.779355  2685 net.cpp:425] inception_4c/output_inception_4c/output_0_split <- inception_4c/output
I0403 15:07:11.779379  2685 net.cpp:399] inception_4c/output_inception_4c/output_0_split -> inception_4c/output_inception_4c/output_0_split_0
I0403 15:07:11.779405  2685 net.cpp:399] inception_4c/output_inception_4c/output_0_split -> inception_4c/output_inception_4c/output_0_split_1
I0403 15:07:11.779430  2685 net.cpp:399] inception_4c/output_inception_4c/output_0_split -> inception_4c/output_inception_4c/output_0_split_2
I0403 15:07:11.779458  2685 net.cpp:399] inception_4c/output_inception_4c/output_0_split -> inception_4c/output_inception_4c/output_0_split_3
I0403 15:07:11.779564  2685 net.cpp:141] Setting up inception_4c/output_inception_4c/output_0_split
I0403 15:07:11.779593  2685 net.cpp:148] Top shape: 24 512 14 14 (2408448)
I0403 15:07:11.779613  2685 net.cpp:148] Top shape: 24 512 14 14 (2408448)
I0403 15:07:11.779633  2685 net.cpp:148] Top shape: 24 512 14 14 (2408448)
I0403 15:07:11.779652  2685 net.cpp:148] Top shape: 24 512 14 14 (2408448)
I0403 15:07:11.779670  2685 net.cpp:156] Memory required for data: 1111182624
I0403 15:07:11.779686  2685 layer_factory.hpp:77] Creating layer inception_4d/1x1
I0403 15:07:11.779714  2685 net.cpp:91] Creating Layer inception_4d/1x1
I0403 15:07:11.779736  2685 net.cpp:425] inception_4d/1x1 <- inception_4c/output_inception_4c/output_0_split_0
I0403 15:07:11.779762  2685 net.cpp:399] inception_4d/1x1 -> inception_4d/1x1
I0403 15:07:11.781452  2685 net.cpp:141] Setting up inception_4d/1x1
I0403 15:07:11.781487  2685 net.cpp:148] Top shape: 24 112 14 14 (526848)
I0403 15:07:11.781507  2685 net.cpp:156] Memory required for data: 1113290016
I0403 15:07:11.781530  2685 layer_factory.hpp:77] Creating layer inception_4d/relu_1x1
I0403 15:07:11.781553  2685 net.cpp:91] Creating Layer inception_4d/relu_1x1
I0403 15:07:11.781577  2685 net.cpp:425] inception_4d/relu_1x1 <- inception_4d/1x1
I0403 15:07:11.781599  2685 net.cpp:386] inception_4d/relu_1x1 -> inception_4d/1x1 (in-place)
I0403 15:07:11.781828  2685 net.cpp:141] Setting up inception_4d/relu_1x1
I0403 15:07:11.781858  2685 net.cpp:148] Top shape: 24 112 14 14 (526848)
I0403 15:07:11.781877  2685 net.cpp:156] Memory required for data: 1115397408
I0403 15:07:11.781895  2685 layer_factory.hpp:77] Creating layer inception_4d/3x3_reduce
I0403 15:07:11.781940  2685 net.cpp:91] Creating Layer inception_4d/3x3_reduce
I0403 15:07:11.781965  2685 net.cpp:425] inception_4d/3x3_reduce <- inception_4c/output_inception_4c/output_0_split_1
I0403 15:07:11.781991  2685 net.cpp:399] inception_4d/3x3_reduce -> inception_4d/3x3_reduce
I0403 15:07:11.783846  2685 net.cpp:141] Setting up inception_4d/3x3_reduce
I0403 15:07:11.783885  2685 net.cpp:148] Top shape: 24 144 14 14 (677376)
I0403 15:07:11.783905  2685 net.cpp:156] Memory required for data: 1118106912
I0403 15:07:11.783928  2685 layer_factory.hpp:77] Creating layer inception_4d/relu_3x3_reduce
I0403 15:07:11.783951  2685 net.cpp:91] Creating Layer inception_4d/relu_3x3_reduce
I0403 15:07:11.783970  2685 net.cpp:425] inception_4d/relu_3x3_reduce <- inception_4d/3x3_reduce
I0403 15:07:11.783995  2685 net.cpp:386] inception_4d/relu_3x3_reduce -> inception_4d/3x3_reduce (in-place)
I0403 15:07:11.784349  2685 net.cpp:141] Setting up inception_4d/relu_3x3_reduce
I0403 15:07:11.784385  2685 net.cpp:148] Top shape: 24 144 14 14 (677376)
I0403 15:07:11.784406  2685 net.cpp:156] Memory required for data: 1120816416
I0403 15:07:11.784425  2685 layer_factory.hpp:77] Creating layer inception_4d/3x3
I0403 15:07:11.784453  2685 net.cpp:91] Creating Layer inception_4d/3x3
I0403 15:07:11.784476  2685 net.cpp:425] inception_4d/3x3 <- inception_4d/3x3_reduce
I0403 15:07:11.784499  2685 net.cpp:399] inception_4d/3x3 -> inception_4d/3x3
I0403 15:07:11.789793  2685 net.cpp:141] Setting up inception_4d/3x3
I0403 15:07:11.789830  2685 net.cpp:148] Top shape: 24 288 14 14 (1354752)
I0403 15:07:11.789850  2685 net.cpp:156] Memory required for data: 1126235424
I0403 15:07:11.789873  2685 layer_factory.hpp:77] Creating layer inception_4d/relu_3x3
I0403 15:07:11.789897  2685 net.cpp:91] Creating Layer inception_4d/relu_3x3
I0403 15:07:11.789917  2685 net.cpp:425] inception_4d/relu_3x3 <- inception_4d/3x3
I0403 15:07:11.789942  2685 net.cpp:386] inception_4d/relu_3x3 -> inception_4d/3x3 (in-place)
I0403 15:07:11.790168  2685 net.cpp:141] Setting up inception_4d/relu_3x3
I0403 15:07:11.790199  2685 net.cpp:148] Top shape: 24 288 14 14 (1354752)
I0403 15:07:11.790225  2685 net.cpp:156] Memory required for data: 1131654432
I0403 15:07:11.790244  2685 layer_factory.hpp:77] Creating layer inception_4d/5x5_reduce
I0403 15:07:11.790273  2685 net.cpp:91] Creating Layer inception_4d/5x5_reduce
I0403 15:07:11.790297  2685 net.cpp:425] inception_4d/5x5_reduce <- inception_4c/output_inception_4c/output_0_split_2
I0403 15:07:11.790323  2685 net.cpp:399] inception_4d/5x5_reduce -> inception_4d/5x5_reduce
I0403 15:07:11.791776  2685 net.cpp:141] Setting up inception_4d/5x5_reduce
I0403 15:07:11.791811  2685 net.cpp:148] Top shape: 24 32 14 14 (150528)
I0403 15:07:11.791831  2685 net.cpp:156] Memory required for data: 1132256544
I0403 15:07:11.791854  2685 layer_factory.hpp:77] Creating layer inception_4d/relu_5x5_reduce
I0403 15:07:11.791883  2685 net.cpp:91] Creating Layer inception_4d/relu_5x5_reduce
I0403 15:07:11.791905  2685 net.cpp:425] inception_4d/relu_5x5_reduce <- inception_4d/5x5_reduce
I0403 15:07:11.791928  2685 net.cpp:386] inception_4d/relu_5x5_reduce -> inception_4d/5x5_reduce (in-place)
I0403 15:07:11.792158  2685 net.cpp:141] Setting up inception_4d/relu_5x5_reduce
I0403 15:07:11.792189  2685 net.cpp:148] Top shape: 24 32 14 14 (150528)
I0403 15:07:11.792234  2685 net.cpp:156] Memory required for data: 1132858656
I0403 15:07:11.792258  2685 layer_factory.hpp:77] Creating layer inception_4d/5x5
I0403 15:07:11.792287  2685 net.cpp:91] Creating Layer inception_4d/5x5
I0403 15:07:11.792309  2685 net.cpp:425] inception_4d/5x5 <- inception_4d/5x5_reduce
I0403 15:07:11.792336  2685 net.cpp:399] inception_4d/5x5 -> inception_4d/5x5
I0403 15:07:11.794124  2685 net.cpp:141] Setting up inception_4d/5x5
I0403 15:07:11.794159  2685 net.cpp:148] Top shape: 24 64 14 14 (301056)
I0403 15:07:11.794179  2685 net.cpp:156] Memory required for data: 1134062880
I0403 15:07:11.794203  2685 layer_factory.hpp:77] Creating layer inception_4d/relu_5x5
I0403 15:07:11.794253  2685 net.cpp:91] Creating Layer inception_4d/relu_5x5
I0403 15:07:11.794276  2685 net.cpp:425] inception_4d/relu_5x5 <- inception_4d/5x5
I0403 15:07:11.794297  2685 net.cpp:386] inception_4d/relu_5x5 -> inception_4d/5x5 (in-place)
I0403 15:07:11.794711  2685 net.cpp:141] Setting up inception_4d/relu_5x5
I0403 15:07:11.794760  2685 net.cpp:148] Top shape: 24 64 14 14 (301056)
I0403 15:07:11.794780  2685 net.cpp:156] Memory required for data: 1135267104
I0403 15:07:11.794814  2685 layer_factory.hpp:77] Creating layer inception_4d/pool
I0403 15:07:11.794843  2685 net.cpp:91] Creating Layer inception_4d/pool
I0403 15:07:11.794888  2685 net.cpp:425] inception_4d/pool <- inception_4c/output_inception_4c/output_0_split_3
I0403 15:07:11.794917  2685 net.cpp:399] inception_4d/pool -> inception_4d/pool
I0403 15:07:11.795018  2685 net.cpp:141] Setting up inception_4d/pool
I0403 15:07:11.795070  2685 net.cpp:148] Top shape: 24 512 14 14 (2408448)
I0403 15:07:11.795092  2685 net.cpp:156] Memory required for data: 1144900896
I0403 15:07:11.795120  2685 layer_factory.hpp:77] Creating layer inception_4d/pool_proj
I0403 15:07:11.795151  2685 net.cpp:91] Creating Layer inception_4d/pool_proj
I0403 15:07:11.795176  2685 net.cpp:425] inception_4d/pool_proj <- inception_4d/pool
I0403 15:07:11.795229  2685 net.cpp:399] inception_4d/pool_proj -> inception_4d/pool_proj
I0403 15:07:11.797385  2685 net.cpp:141] Setting up inception_4d/pool_proj
I0403 15:07:11.797422  2685 net.cpp:148] Top shape: 24 64 14 14 (301056)
I0403 15:07:11.797442  2685 net.cpp:156] Memory required for data: 1146105120
I0403 15:07:11.797466  2685 layer_factory.hpp:77] Creating layer inception_4d/relu_pool_proj
I0403 15:07:11.797488  2685 net.cpp:91] Creating Layer inception_4d/relu_pool_proj
I0403 15:07:11.797508  2685 net.cpp:425] inception_4d/relu_pool_proj <- inception_4d/pool_proj
I0403 15:07:11.797533  2685 net.cpp:386] inception_4d/relu_pool_proj -> inception_4d/pool_proj (in-place)
I0403 15:07:11.797760  2685 net.cpp:141] Setting up inception_4d/relu_pool_proj
I0403 15:07:11.797792  2685 net.cpp:148] Top shape: 24 64 14 14 (301056)
I0403 15:07:11.797811  2685 net.cpp:156] Memory required for data: 1147309344
I0403 15:07:11.797829  2685 layer_factory.hpp:77] Creating layer inception_4d/output
I0403 15:07:11.797853  2685 net.cpp:91] Creating Layer inception_4d/output
I0403 15:07:11.797874  2685 net.cpp:425] inception_4d/output <- inception_4d/1x1
I0403 15:07:11.797895  2685 net.cpp:425] inception_4d/output <- inception_4d/3x3
I0403 15:07:11.797915  2685 net.cpp:425] inception_4d/output <- inception_4d/5x5
I0403 15:07:11.797935  2685 net.cpp:425] inception_4d/output <- inception_4d/pool_proj
I0403 15:07:11.797955  2685 net.cpp:399] inception_4d/output -> inception_4d/output
I0403 15:07:11.798017  2685 net.cpp:141] Setting up inception_4d/output
I0403 15:07:11.798045  2685 net.cpp:148] Top shape: 24 528 14 14 (2483712)
I0403 15:07:11.798065  2685 net.cpp:156] Memory required for data: 1157244192
I0403 15:07:11.798084  2685 layer_factory.hpp:77] Creating layer inception_4d/output_inception_4d/output_0_split
I0403 15:07:11.798106  2685 net.cpp:91] Creating Layer inception_4d/output_inception_4d/output_0_split
I0403 15:07:11.798126  2685 net.cpp:425] inception_4d/output_inception_4d/output_0_split <- inception_4d/output
I0403 15:07:11.798151  2685 net.cpp:399] inception_4d/output_inception_4d/output_0_split -> inception_4d/output_inception_4d/output_0_split_0
I0403 15:07:11.798178  2685 net.cpp:399] inception_4d/output_inception_4d/output_0_split -> inception_4d/output_inception_4d/output_0_split_1
I0403 15:07:11.798203  2685 net.cpp:399] inception_4d/output_inception_4d/output_0_split -> inception_4d/output_inception_4d/output_0_split_2
I0403 15:07:11.798238  2685 net.cpp:399] inception_4d/output_inception_4d/output_0_split -> inception_4d/output_inception_4d/output_0_split_3
I0403 15:07:11.798262  2685 net.cpp:399] inception_4d/output_inception_4d/output_0_split -> inception_4d/output_inception_4d/output_0_split_4
I0403 15:07:11.798389  2685 net.cpp:141] Setting up inception_4d/output_inception_4d/output_0_split
I0403 15:07:11.798434  2685 net.cpp:148] Top shape: 24 528 14 14 (2483712)
I0403 15:07:11.798457  2685 net.cpp:148] Top shape: 24 528 14 14 (2483712)
I0403 15:07:11.798486  2685 net.cpp:148] Top shape: 24 528 14 14 (2483712)
I0403 15:07:11.798506  2685 net.cpp:148] Top shape: 24 528 14 14 (2483712)
I0403 15:07:11.798526  2685 net.cpp:148] Top shape: 24 528 14 14 (2483712)
I0403 15:07:11.798543  2685 net.cpp:156] Memory required for data: 1206918432
I0403 15:07:11.798562  2685 layer_factory.hpp:77] Creating layer loss2/ave_pool
I0403 15:07:11.798583  2685 net.cpp:91] Creating Layer loss2/ave_pool
I0403 15:07:11.798604  2685 net.cpp:425] loss2/ave_pool <- inception_4d/output_inception_4d/output_0_split_0
I0403 15:07:11.798630  2685 net.cpp:399] loss2/ave_pool -> loss2/ave_pool
I0403 15:07:11.799010  2685 net.cpp:141] Setting up loss2/ave_pool
I0403 15:07:11.799042  2685 net.cpp:148] Top shape: 24 528 4 4 (202752)
I0403 15:07:11.799062  2685 net.cpp:156] Memory required for data: 1207729440
I0403 15:07:11.799082  2685 layer_factory.hpp:77] Creating layer loss2/conv
I0403 15:07:11.799110  2685 net.cpp:91] Creating Layer loss2/conv
I0403 15:07:11.799132  2685 net.cpp:425] loss2/conv <- loss2/ave_pool
I0403 15:07:11.799162  2685 net.cpp:399] loss2/conv -> loss2/conv
I0403 15:07:11.801478  2685 net.cpp:141] Setting up loss2/conv
I0403 15:07:11.801517  2685 net.cpp:148] Top shape: 24 128 4 4 (49152)
I0403 15:07:11.801537  2685 net.cpp:156] Memory required for data: 1207926048
I0403 15:07:11.801559  2685 layer_factory.hpp:77] Creating layer loss2/relu_conv
I0403 15:07:11.801581  2685 net.cpp:91] Creating Layer loss2/relu_conv
I0403 15:07:11.801601  2685 net.cpp:425] loss2/relu_conv <- loss2/conv
I0403 15:07:11.801623  2685 net.cpp:386] loss2/relu_conv -> loss2/conv (in-place)
I0403 15:07:11.801967  2685 net.cpp:141] Setting up loss2/relu_conv
I0403 15:07:11.802002  2685 net.cpp:148] Top shape: 24 128 4 4 (49152)
I0403 15:07:11.802022  2685 net.cpp:156] Memory required for data: 1208122656
I0403 15:07:11.802042  2685 layer_factory.hpp:77] Creating layer loss2/fc
I0403 15:07:11.802064  2685 net.cpp:91] Creating Layer loss2/fc
I0403 15:07:11.802085  2685 net.cpp:425] loss2/fc <- loss2/conv
I0403 15:07:11.802111  2685 net.cpp:399] loss2/fc -> loss2/fc
I0403 15:07:11.824239  2685 net.cpp:141] Setting up loss2/fc
I0403 15:07:11.824302  2685 net.cpp:148] Top shape: 24 1024 (24576)
I0403 15:07:11.824321  2685 net.cpp:156] Memory required for data: 1208220960
I0403 15:07:11.824347  2685 layer_factory.hpp:77] Creating layer loss2/relu_fc
I0403 15:07:11.824378  2685 net.cpp:91] Creating Layer loss2/relu_fc
I0403 15:07:11.824401  2685 net.cpp:425] loss2/relu_fc <- loss2/fc
I0403 15:07:11.824426  2685 net.cpp:386] loss2/relu_fc -> loss2/fc (in-place)
I0403 15:07:11.825342  2685 net.cpp:141] Setting up loss2/relu_fc
I0403 15:07:11.825384  2685 net.cpp:148] Top shape: 24 1024 (24576)
I0403 15:07:11.825404  2685 net.cpp:156] Memory required for data: 1208319264
I0403 15:07:11.825423  2685 layer_factory.hpp:77] Creating layer loss2/drop_fc
I0403 15:07:11.825450  2685 net.cpp:91] Creating Layer loss2/drop_fc
I0403 15:07:11.825472  2685 net.cpp:425] loss2/drop_fc <- loss2/fc
I0403 15:07:11.825495  2685 net.cpp:386] loss2/drop_fc -> loss2/fc (in-place)
I0403 15:07:11.825559  2685 net.cpp:141] Setting up loss2/drop_fc
I0403 15:07:11.825589  2685 net.cpp:148] Top shape: 24 1024 (24576)
I0403 15:07:11.825608  2685 net.cpp:156] Memory required for data: 1208417568
I0403 15:07:11.825628  2685 layer_factory.hpp:77] Creating layer loss2/classifier_plantvillage
I0403 15:07:11.825651  2685 net.cpp:91] Creating Layer loss2/classifier_plantvillage
I0403 15:07:11.825671  2685 net.cpp:425] loss2/classifier_plantvillage <- loss2/fc
I0403 15:07:11.825697  2685 net.cpp:399] loss2/classifier_plantvillage -> loss2/classifier_plantvillage
I0403 15:07:11.826218  2685 net.cpp:141] Setting up loss2/classifier_plantvillage
I0403 15:07:11.826251  2685 net.cpp:148] Top shape: 24 38 (912)
I0403 15:07:11.826303  2685 net.cpp:156] Memory required for data: 1208421216
I0403 15:07:11.826328  2685 layer_factory.hpp:77] Creating layer loss2/classifier_plantvillage_loss2/classifier_plantvillage_0_split
I0403 15:07:11.826351  2685 net.cpp:91] Creating Layer loss2/classifier_plantvillage_loss2/classifier_plantvillage_0_split
I0403 15:07:11.826370  2685 net.cpp:425] loss2/classifier_plantvillage_loss2/classifier_plantvillage_0_split <- loss2/classifier_plantvillage
I0403 15:07:11.826392  2685 net.cpp:399] loss2/classifier_plantvillage_loss2/classifier_plantvillage_0_split -> loss2/classifier_plantvillage_loss2/classifier_plantvillage_0_split_0
I0403 15:07:11.826421  2685 net.cpp:399] loss2/classifier_plantvillage_loss2/classifier_plantvillage_0_split -> loss2/classifier_plantvillage_loss2/classifier_plantvillage_0_split_1
I0403 15:07:11.826447  2685 net.cpp:399] loss2/classifier_plantvillage_loss2/classifier_plantvillage_0_split -> loss2/classifier_plantvillage_loss2/classifier_plantvillage_0_split_2
I0403 15:07:11.826547  2685 net.cpp:141] Setting up loss2/classifier_plantvillage_loss2/classifier_plantvillage_0_split
I0403 15:07:11.826577  2685 net.cpp:148] Top shape: 24 38 (912)
I0403 15:07:11.826596  2685 net.cpp:148] Top shape: 24 38 (912)
I0403 15:07:11.826616  2685 net.cpp:148] Top shape: 24 38 (912)
I0403 15:07:11.826632  2685 net.cpp:156] Memory required for data: 1208432160
I0403 15:07:11.826650  2685 layer_factory.hpp:77] Creating layer inception_4e/1x1
I0403 15:07:11.826680  2685 net.cpp:91] Creating Layer inception_4e/1x1
I0403 15:07:11.826704  2685 net.cpp:425] inception_4e/1x1 <- inception_4d/output_inception_4d/output_0_split_1
I0403 15:07:11.826730  2685 net.cpp:399] inception_4e/1x1 -> inception_4e/1x1
I0403 15:07:11.829046  2685 net.cpp:141] Setting up inception_4e/1x1
I0403 15:07:11.829083  2685 net.cpp:148] Top shape: 24 256 14 14 (1204224)
I0403 15:07:11.829105  2685 net.cpp:156] Memory required for data: 1213249056
I0403 15:07:11.829128  2685 layer_factory.hpp:77] Creating layer inception_4e/relu_1x1
I0403 15:07:11.829151  2685 net.cpp:91] Creating Layer inception_4e/relu_1x1
I0403 15:07:11.829171  2685 net.cpp:425] inception_4e/relu_1x1 <- inception_4e/1x1
I0403 15:07:11.829195  2685 net.cpp:386] inception_4e/relu_1x1 -> inception_4e/1x1 (in-place)
I0403 15:07:11.829576  2685 net.cpp:141] Setting up inception_4e/relu_1x1
I0403 15:07:11.829612  2685 net.cpp:148] Top shape: 24 256 14 14 (1204224)
I0403 15:07:11.829632  2685 net.cpp:156] Memory required for data: 1218065952
I0403 15:07:11.829651  2685 layer_factory.hpp:77] Creating layer inception_4e/3x3_reduce
I0403 15:07:11.829679  2685 net.cpp:91] Creating Layer inception_4e/3x3_reduce
I0403 15:07:11.829702  2685 net.cpp:425] inception_4e/3x3_reduce <- inception_4d/output_inception_4d/output_0_split_2
I0403 15:07:11.829726  2685 net.cpp:399] inception_4e/3x3_reduce -> inception_4e/3x3_reduce
I0403 15:07:11.832376  2685 net.cpp:141] Setting up inception_4e/3x3_reduce
I0403 15:07:11.832413  2685 net.cpp:148] Top shape: 24 160 14 14 (752640)
I0403 15:07:11.832433  2685 net.cpp:156] Memory required for data: 1221076512
I0403 15:07:11.832456  2685 layer_factory.hpp:77] Creating layer inception_4e/relu_3x3_reduce
I0403 15:07:11.832481  2685 net.cpp:91] Creating Layer inception_4e/relu_3x3_reduce
I0403 15:07:11.832501  2685 net.cpp:425] inception_4e/relu_3x3_reduce <- inception_4e/3x3_reduce
I0403 15:07:11.832523  2685 net.cpp:386] inception_4e/relu_3x3_reduce -> inception_4e/3x3_reduce (in-place)
I0403 15:07:11.832753  2685 net.cpp:141] Setting up inception_4e/relu_3x3_reduce
I0403 15:07:11.832787  2685 net.cpp:148] Top shape: 24 160 14 14 (752640)
I0403 15:07:11.832806  2685 net.cpp:156] Memory required for data: 1224087072
I0403 15:07:11.832825  2685 layer_factory.hpp:77] Creating layer inception_4e/3x3
I0403 15:07:11.832854  2685 net.cpp:91] Creating Layer inception_4e/3x3
I0403 15:07:11.832875  2685 net.cpp:425] inception_4e/3x3 <- inception_4e/3x3_reduce
I0403 15:07:11.832897  2685 net.cpp:399] inception_4e/3x3 -> inception_4e/3x3
I0403 15:07:11.839146  2685 net.cpp:141] Setting up inception_4e/3x3
I0403 15:07:11.839215  2685 net.cpp:148] Top shape: 24 320 14 14 (1505280)
I0403 15:07:11.839238  2685 net.cpp:156] Memory required for data: 1230108192
I0403 15:07:11.839262  2685 layer_factory.hpp:77] Creating layer inception_4e/relu_3x3
I0403 15:07:11.839287  2685 net.cpp:91] Creating Layer inception_4e/relu_3x3
I0403 15:07:11.839306  2685 net.cpp:425] inception_4e/relu_3x3 <- inception_4e/3x3
I0403 15:07:11.839330  2685 net.cpp:386] inception_4e/relu_3x3 -> inception_4e/3x3 (in-place)
I0403 15:07:11.839697  2685 net.cpp:141] Setting up inception_4e/relu_3x3
I0403 15:07:11.839730  2685 net.cpp:148] Top shape: 24 320 14 14 (1505280)
I0403 15:07:11.839748  2685 net.cpp:156] Memory required for data: 1236129312
I0403 15:07:11.839767  2685 layer_factory.hpp:77] Creating layer inception_4e/5x5_reduce
I0403 15:07:11.839797  2685 net.cpp:91] Creating Layer inception_4e/5x5_reduce
I0403 15:07:11.839818  2685 net.cpp:425] inception_4e/5x5_reduce <- inception_4d/output_inception_4d/output_0_split_3
I0403 15:07:11.839844  2685 net.cpp:399] inception_4e/5x5_reduce -> inception_4e/5x5_reduce
I0403 15:07:11.841162  2685 net.cpp:141] Setting up inception_4e/5x5_reduce
I0403 15:07:11.841199  2685 net.cpp:148] Top shape: 24 32 14 14 (150528)
I0403 15:07:11.841228  2685 net.cpp:156] Memory required for data: 1236731424
I0403 15:07:11.841251  2685 layer_factory.hpp:77] Creating layer inception_4e/relu_5x5_reduce
I0403 15:07:11.841276  2685 net.cpp:91] Creating Layer inception_4e/relu_5x5_reduce
I0403 15:07:11.841297  2685 net.cpp:425] inception_4e/relu_5x5_reduce <- inception_4e/5x5_reduce
I0403 15:07:11.841320  2685 net.cpp:386] inception_4e/relu_5x5_reduce -> inception_4e/5x5_reduce (in-place)
I0403 15:07:11.841683  2685 net.cpp:141] Setting up inception_4e/relu_5x5_reduce
I0403 15:07:11.841716  2685 net.cpp:148] Top shape: 24 32 14 14 (150528)
I0403 15:07:11.841733  2685 net.cpp:156] Memory required for data: 1237333536
I0403 15:07:11.841752  2685 layer_factory.hpp:77] Creating layer inception_4e/5x5
I0403 15:07:11.841799  2685 net.cpp:91] Creating Layer inception_4e/5x5
I0403 15:07:11.841823  2685 net.cpp:425] inception_4e/5x5 <- inception_4e/5x5_reduce
I0403 15:07:11.841847  2685 net.cpp:399] inception_4e/5x5 -> inception_4e/5x5
I0403 15:07:11.844141  2685 net.cpp:141] Setting up inception_4e/5x5
I0403 15:07:11.844177  2685 net.cpp:148] Top shape: 24 128 14 14 (602112)
I0403 15:07:11.844197  2685 net.cpp:156] Memory required for data: 1239741984
I0403 15:07:11.844228  2685 layer_factory.hpp:77] Creating layer inception_4e/relu_5x5
I0403 15:07:11.844255  2685 net.cpp:91] Creating Layer inception_4e/relu_5x5
I0403 15:07:11.844277  2685 net.cpp:425] inception_4e/relu_5x5 <- inception_4e/5x5
I0403 15:07:11.844300  2685 net.cpp:386] inception_4e/relu_5x5 -> inception_4e/5x5 (in-place)
I0403 15:07:11.844539  2685 net.cpp:141] Setting up inception_4e/relu_5x5
I0403 15:07:11.844573  2685 net.cpp:148] Top shape: 24 128 14 14 (602112)
I0403 15:07:11.844593  2685 net.cpp:156] Memory required for data: 1242150432
I0403 15:07:11.844611  2685 layer_factory.hpp:77] Creating layer inception_4e/pool
I0403 15:07:11.844635  2685 net.cpp:91] Creating Layer inception_4e/pool
I0403 15:07:11.844655  2685 net.cpp:425] inception_4e/pool <- inception_4d/output_inception_4d/output_0_split_4
I0403 15:07:11.844677  2685 net.cpp:399] inception_4e/pool -> inception_4e/pool
I0403 15:07:11.844766  2685 net.cpp:141] Setting up inception_4e/pool
I0403 15:07:11.844795  2685 net.cpp:148] Top shape: 24 528 14 14 (2483712)
I0403 15:07:11.844813  2685 net.cpp:156] Memory required for data: 1252085280
I0403 15:07:11.844832  2685 layer_factory.hpp:77] Creating layer inception_4e/pool_proj
I0403 15:07:11.844859  2685 net.cpp:91] Creating Layer inception_4e/pool_proj
I0403 15:07:11.844880  2685 net.cpp:425] inception_4e/pool_proj <- inception_4e/pool
I0403 15:07:11.844907  2685 net.cpp:399] inception_4e/pool_proj -> inception_4e/pool_proj
I0403 15:07:11.846803  2685 net.cpp:141] Setting up inception_4e/pool_proj
I0403 15:07:11.846855  2685 net.cpp:148] Top shape: 24 128 14 14 (602112)
I0403 15:07:11.846878  2685 net.cpp:156] Memory required for data: 1254493728
I0403 15:07:11.846902  2685 layer_factory.hpp:77] Creating layer inception_4e/relu_pool_proj
I0403 15:07:11.846930  2685 net.cpp:91] Creating Layer inception_4e/relu_pool_proj
I0403 15:07:11.846952  2685 net.cpp:425] inception_4e/relu_pool_proj <- inception_4e/pool_proj
I0403 15:07:11.846974  2685 net.cpp:386] inception_4e/relu_pool_proj -> inception_4e/pool_proj (in-place)
I0403 15:07:11.847343  2685 net.cpp:141] Setting up inception_4e/relu_pool_proj
I0403 15:07:11.847378  2685 net.cpp:148] Top shape: 24 128 14 14 (602112)
I0403 15:07:11.847398  2685 net.cpp:156] Memory required for data: 1256902176
I0403 15:07:11.847416  2685 layer_factory.hpp:77] Creating layer inception_4e/output
I0403 15:07:11.847440  2685 net.cpp:91] Creating Layer inception_4e/output
I0403 15:07:11.847461  2685 net.cpp:425] inception_4e/output <- inception_4e/1x1
I0403 15:07:11.847481  2685 net.cpp:425] inception_4e/output <- inception_4e/3x3
I0403 15:07:11.847501  2685 net.cpp:425] inception_4e/output <- inception_4e/5x5
I0403 15:07:11.847522  2685 net.cpp:425] inception_4e/output <- inception_4e/pool_proj
I0403 15:07:11.847548  2685 net.cpp:399] inception_4e/output -> inception_4e/output
I0403 15:07:11.847609  2685 net.cpp:141] Setting up inception_4e/output
I0403 15:07:11.847643  2685 net.cpp:148] Top shape: 24 832 14 14 (3913728)
I0403 15:07:11.847663  2685 net.cpp:156] Memory required for data: 1272557088
I0403 15:07:11.847682  2685 layer_factory.hpp:77] Creating layer pool4/3x3_s2
I0403 15:07:11.847704  2685 net.cpp:91] Creating Layer pool4/3x3_s2
I0403 15:07:11.847725  2685 net.cpp:425] pool4/3x3_s2 <- inception_4e/output
I0403 15:07:11.847751  2685 net.cpp:399] pool4/3x3_s2 -> pool4/3x3_s2
I0403 15:07:11.847836  2685 net.cpp:141] Setting up pool4/3x3_s2
I0403 15:07:11.847867  2685 net.cpp:148] Top shape: 24 832 7 7 (978432)
I0403 15:07:11.847885  2685 net.cpp:156] Memory required for data: 1276470816
I0403 15:07:11.847904  2685 layer_factory.hpp:77] Creating layer pool4/3x3_s2_pool4/3x3_s2_0_split
I0403 15:07:11.847930  2685 net.cpp:91] Creating Layer pool4/3x3_s2_pool4/3x3_s2_0_split
I0403 15:07:11.847952  2685 net.cpp:425] pool4/3x3_s2_pool4/3x3_s2_0_split <- pool4/3x3_s2
I0403 15:07:11.847973  2685 net.cpp:399] pool4/3x3_s2_pool4/3x3_s2_0_split -> pool4/3x3_s2_pool4/3x3_s2_0_split_0
I0403 15:07:11.848000  2685 net.cpp:399] pool4/3x3_s2_pool4/3x3_s2_0_split -> pool4/3x3_s2_pool4/3x3_s2_0_split_1
I0403 15:07:11.848027  2685 net.cpp:399] pool4/3x3_s2_pool4/3x3_s2_0_split -> pool4/3x3_s2_pool4/3x3_s2_0_split_2
I0403 15:07:11.848055  2685 net.cpp:399] pool4/3x3_s2_pool4/3x3_s2_0_split -> pool4/3x3_s2_pool4/3x3_s2_0_split_3
I0403 15:07:11.848165  2685 net.cpp:141] Setting up pool4/3x3_s2_pool4/3x3_s2_0_split
I0403 15:07:11.848196  2685 net.cpp:148] Top shape: 24 832 7 7 (978432)
I0403 15:07:11.848225  2685 net.cpp:148] Top shape: 24 832 7 7 (978432)
I0403 15:07:11.848247  2685 net.cpp:148] Top shape: 24 832 7 7 (978432)
I0403 15:07:11.848266  2685 net.cpp:148] Top shape: 24 832 7 7 (978432)
I0403 15:07:11.848284  2685 net.cpp:156] Memory required for data: 1292125728
I0403 15:07:11.848304  2685 layer_factory.hpp:77] Creating layer inception_5a/1x1
I0403 15:07:11.848333  2685 net.cpp:91] Creating Layer inception_5a/1x1
I0403 15:07:11.848358  2685 net.cpp:425] inception_5a/1x1 <- pool4/3x3_s2_pool4/3x3_s2_0_split_0
I0403 15:07:11.848386  2685 net.cpp:399] inception_5a/1x1 -> inception_5a/1x1
I0403 15:07:11.851892  2685 net.cpp:141] Setting up inception_5a/1x1
I0403 15:07:11.851928  2685 net.cpp:148] Top shape: 24 256 7 7 (301056)
I0403 15:07:11.851948  2685 net.cpp:156] Memory required for data: 1293329952
I0403 15:07:11.851971  2685 layer_factory.hpp:77] Creating layer inception_5a/relu_1x1
I0403 15:07:11.851996  2685 net.cpp:91] Creating Layer inception_5a/relu_1x1
I0403 15:07:11.852018  2685 net.cpp:425] inception_5a/relu_1x1 <- inception_5a/1x1
I0403 15:07:11.852040  2685 net.cpp:386] inception_5a/relu_1x1 -> inception_5a/1x1 (in-place)
I0403 15:07:11.852483  2685 net.cpp:141] Setting up inception_5a/relu_1x1
I0403 15:07:11.852516  2685 net.cpp:148] Top shape: 24 256 7 7 (301056)
I0403 15:07:11.852535  2685 net.cpp:156] Memory required for data: 1294534176
I0403 15:07:11.852553  2685 layer_factory.hpp:77] Creating layer inception_5a/3x3_reduce
I0403 15:07:11.852582  2685 net.cpp:91] Creating Layer inception_5a/3x3_reduce
I0403 15:07:11.852607  2685 net.cpp:425] inception_5a/3x3_reduce <- pool4/3x3_s2_pool4/3x3_s2_0_split_1
I0403 15:07:11.852634  2685 net.cpp:399] inception_5a/3x3_reduce -> inception_5a/3x3_reduce
I0403 15:07:11.855670  2685 net.cpp:141] Setting up inception_5a/3x3_reduce
I0403 15:07:11.855707  2685 net.cpp:148] Top shape: 24 160 7 7 (188160)
I0403 15:07:11.855726  2685 net.cpp:156] Memory required for data: 1295286816
I0403 15:07:11.855748  2685 layer_factory.hpp:77] Creating layer inception_5a/relu_3x3_reduce
I0403 15:07:11.855772  2685 net.cpp:91] Creating Layer inception_5a/relu_3x3_reduce
I0403 15:07:11.855790  2685 net.cpp:425] inception_5a/relu_3x3_reduce <- inception_5a/3x3_reduce
I0403 15:07:11.855814  2685 net.cpp:386] inception_5a/relu_3x3_reduce -> inception_5a/3x3_reduce (in-place)
I0403 15:07:11.856050  2685 net.cpp:141] Setting up inception_5a/relu_3x3_reduce
I0403 15:07:11.856081  2685 net.cpp:148] Top shape: 24 160 7 7 (188160)
I0403 15:07:11.856098  2685 net.cpp:156] Memory required for data: 1296039456
I0403 15:07:11.856117  2685 layer_factory.hpp:77] Creating layer inception_5a/3x3
I0403 15:07:11.856145  2685 net.cpp:91] Creating Layer inception_5a/3x3
I0403 15:07:11.856168  2685 net.cpp:425] inception_5a/3x3 <- inception_5a/3x3_reduce
I0403 15:07:11.856195  2685 net.cpp:399] inception_5a/3x3 -> inception_5a/3x3
I0403 15:07:11.862511  2685 net.cpp:141] Setting up inception_5a/3x3
I0403 15:07:11.862562  2685 net.cpp:148] Top shape: 24 320 7 7 (376320)
I0403 15:07:11.862582  2685 net.cpp:156] Memory required for data: 1297544736
I0403 15:07:11.862606  2685 layer_factory.hpp:77] Creating layer inception_5a/relu_3x3
I0403 15:07:11.862632  2685 net.cpp:91] Creating Layer inception_5a/relu_3x3
I0403 15:07:11.862654  2685 net.cpp:425] inception_5a/relu_3x3 <- inception_5a/3x3
I0403 15:07:11.862676  2685 net.cpp:386] inception_5a/relu_3x3 -> inception_5a/3x3 (in-place)
I0403 15:07:11.863039  2685 net.cpp:141] Setting up inception_5a/relu_3x3
I0403 15:07:11.863071  2685 net.cpp:148] Top shape: 24 320 7 7 (376320)
I0403 15:07:11.863091  2685 net.cpp:156] Memory required for data: 1299050016
I0403 15:07:11.863111  2685 layer_factory.hpp:77] Creating layer inception_5a/5x5_reduce
I0403 15:07:11.863137  2685 net.cpp:91] Creating Layer inception_5a/5x5_reduce
I0403 15:07:11.863160  2685 net.cpp:425] inception_5a/5x5_reduce <- pool4/3x3_s2_pool4/3x3_s2_0_split_2
I0403 15:07:11.863188  2685 net.cpp:399] inception_5a/5x5_reduce -> inception_5a/5x5_reduce
I0403 15:07:11.864651  2685 net.cpp:141] Setting up inception_5a/5x5_reduce
I0403 15:07:11.864691  2685 net.cpp:148] Top shape: 24 32 7 7 (37632)
I0403 15:07:11.864711  2685 net.cpp:156] Memory required for data: 1299200544
I0403 15:07:11.864734  2685 layer_factory.hpp:77] Creating layer inception_5a/relu_5x5_reduce
I0403 15:07:11.864756  2685 net.cpp:91] Creating Layer inception_5a/relu_5x5_reduce
I0403 15:07:11.864776  2685 net.cpp:425] inception_5a/relu_5x5_reduce <- inception_5a/5x5_reduce
I0403 15:07:11.864796  2685 net.cpp:386] inception_5a/relu_5x5_reduce -> inception_5a/5x5_reduce (in-place)
I0403 15:07:11.865170  2685 net.cpp:141] Setting up inception_5a/relu_5x5_reduce
I0403 15:07:11.865206  2685 net.cpp:148] Top shape: 24 32 7 7 (37632)
I0403 15:07:11.865234  2685 net.cpp:156] Memory required for data: 1299351072
I0403 15:07:11.865254  2685 layer_factory.hpp:77] Creating layer inception_5a/5x5
I0403 15:07:11.865278  2685 net.cpp:91] Creating Layer inception_5a/5x5
I0403 15:07:11.865300  2685 net.cpp:425] inception_5a/5x5 <- inception_5a/5x5_reduce
I0403 15:07:11.865327  2685 net.cpp:399] inception_5a/5x5 -> inception_5a/5x5
I0403 15:07:11.867491  2685 net.cpp:141] Setting up inception_5a/5x5
I0403 15:07:11.867544  2685 net.cpp:148] Top shape: 24 128 7 7 (150528)
I0403 15:07:11.867564  2685 net.cpp:156] Memory required for data: 1299953184
I0403 15:07:11.867586  2685 layer_factory.hpp:77] Creating layer inception_5a/relu_5x5
I0403 15:07:11.867612  2685 net.cpp:91] Creating Layer inception_5a/relu_5x5
I0403 15:07:11.867633  2685 net.cpp:425] inception_5a/relu_5x5 <- inception_5a/5x5
I0403 15:07:11.867655  2685 net.cpp:386] inception_5a/relu_5x5 -> inception_5a/5x5 (in-place)
I0403 15:07:11.867890  2685 net.cpp:141] Setting up inception_5a/relu_5x5
I0403 15:07:11.867924  2685 net.cpp:148] Top shape: 24 128 7 7 (150528)
I0403 15:07:11.867944  2685 net.cpp:156] Memory required for data: 1300555296
I0403 15:07:11.867962  2685 layer_factory.hpp:77] Creating layer inception_5a/pool
I0403 15:07:11.867985  2685 net.cpp:91] Creating Layer inception_5a/pool
I0403 15:07:11.868005  2685 net.cpp:425] inception_5a/pool <- pool4/3x3_s2_pool4/3x3_s2_0_split_3
I0403 15:07:11.868026  2685 net.cpp:399] inception_5a/pool -> inception_5a/pool
I0403 15:07:11.868119  2685 net.cpp:141] Setting up inception_5a/pool
I0403 15:07:11.868149  2685 net.cpp:148] Top shape: 24 832 7 7 (978432)
I0403 15:07:11.868166  2685 net.cpp:156] Memory required for data: 1304469024
I0403 15:07:11.868185  2685 layer_factory.hpp:77] Creating layer inception_5a/pool_proj
I0403 15:07:11.868217  2685 net.cpp:91] Creating Layer inception_5a/pool_proj
I0403 15:07:11.868240  2685 net.cpp:425] inception_5a/pool_proj <- inception_5a/pool
I0403 15:07:11.868268  2685 net.cpp:399] inception_5a/pool_proj -> inception_5a/pool_proj
I0403 15:07:11.871083  2685 net.cpp:141] Setting up inception_5a/pool_proj
I0403 15:07:11.871119  2685 net.cpp:148] Top shape: 24 128 7 7 (150528)
I0403 15:07:11.871140  2685 net.cpp:156] Memory required for data: 1305071136
I0403 15:07:11.871162  2685 layer_factory.hpp:77] Creating layer inception_5a/relu_pool_proj
I0403 15:07:11.871187  2685 net.cpp:91] Creating Layer inception_5a/relu_pool_proj
I0403 15:07:11.871217  2685 net.cpp:425] inception_5a/relu_pool_proj <- inception_5a/pool_proj
I0403 15:07:11.871242  2685 net.cpp:386] inception_5a/relu_pool_proj -> inception_5a/pool_proj (in-place)
I0403 15:07:11.871599  2685 net.cpp:141] Setting up inception_5a/relu_pool_proj
I0403 15:07:11.871633  2685 net.cpp:148] Top shape: 24 128 7 7 (150528)
I0403 15:07:11.871651  2685 net.cpp:156] Memory required for data: 1305673248
I0403 15:07:11.871670  2685 layer_factory.hpp:77] Creating layer inception_5a/output
I0403 15:07:11.871691  2685 net.cpp:91] Creating Layer inception_5a/output
I0403 15:07:11.871711  2685 net.cpp:425] inception_5a/output <- inception_5a/1x1
I0403 15:07:11.871731  2685 net.cpp:425] inception_5a/output <- inception_5a/3x3
I0403 15:07:11.871755  2685 net.cpp:425] inception_5a/output <- inception_5a/5x5
I0403 15:07:11.871774  2685 net.cpp:425] inception_5a/output <- inception_5a/pool_proj
I0403 15:07:11.871795  2685 net.cpp:399] inception_5a/output -> inception_5a/output
I0403 15:07:11.871857  2685 net.cpp:141] Setting up inception_5a/output
I0403 15:07:11.871888  2685 net.cpp:148] Top shape: 24 832 7 7 (978432)
I0403 15:07:11.871908  2685 net.cpp:156] Memory required for data: 1309586976
I0403 15:07:11.871927  2685 layer_factory.hpp:77] Creating layer inception_5a/output_inception_5a/output_0_split
I0403 15:07:11.871949  2685 net.cpp:91] Creating Layer inception_5a/output_inception_5a/output_0_split
I0403 15:07:11.871970  2685 net.cpp:425] inception_5a/output_inception_5a/output_0_split <- inception_5a/output
I0403 15:07:11.871996  2685 net.cpp:399] inception_5a/output_inception_5a/output_0_split -> inception_5a/output_inception_5a/output_0_split_0
I0403 15:07:11.872022  2685 net.cpp:399] inception_5a/output_inception_5a/output_0_split -> inception_5a/output_inception_5a/output_0_split_1
I0403 15:07:11.872046  2685 net.cpp:399] inception_5a/output_inception_5a/output_0_split -> inception_5a/output_inception_5a/output_0_split_2
I0403 15:07:11.872073  2685 net.cpp:399] inception_5a/output_inception_5a/output_0_split -> inception_5a/output_inception_5a/output_0_split_3
I0403 15:07:11.872225  2685 net.cpp:141] Setting up inception_5a/output_inception_5a/output_0_split
I0403 15:07:11.872257  2685 net.cpp:148] Top shape: 24 832 7 7 (978432)
I0403 15:07:11.872279  2685 net.cpp:148] Top shape: 24 832 7 7 (978432)
I0403 15:07:11.872299  2685 net.cpp:148] Top shape: 24 832 7 7 (978432)
I0403 15:07:11.872319  2685 net.cpp:148] Top shape: 24 832 7 7 (978432)
I0403 15:07:11.872337  2685 net.cpp:156] Memory required for data: 1325241888
I0403 15:07:11.872356  2685 layer_factory.hpp:77] Creating layer inception_5b/1x1
I0403 15:07:11.872380  2685 net.cpp:91] Creating Layer inception_5b/1x1
I0403 15:07:11.872401  2685 net.cpp:425] inception_5b/1x1 <- inception_5a/output_inception_5a/output_0_split_0
I0403 15:07:11.872429  2685 net.cpp:399] inception_5b/1x1 -> inception_5b/1x1
I0403 15:07:11.877071  2685 net.cpp:141] Setting up inception_5b/1x1
I0403 15:07:11.877111  2685 net.cpp:148] Top shape: 24 384 7 7 (451584)
I0403 15:07:11.877132  2685 net.cpp:156] Memory required for data: 1327048224
I0403 15:07:11.877156  2685 layer_factory.hpp:77] Creating layer inception_5b/relu_1x1
I0403 15:07:11.877177  2685 net.cpp:91] Creating Layer inception_5b/relu_1x1
I0403 15:07:11.877198  2685 net.cpp:425] inception_5b/relu_1x1 <- inception_5b/1x1
I0403 15:07:11.877230  2685 net.cpp:386] inception_5b/relu_1x1 -> inception_5b/1x1 (in-place)
I0403 15:07:11.877609  2685 net.cpp:141] Setting up inception_5b/relu_1x1
I0403 15:07:11.877641  2685 net.cpp:148] Top shape: 24 384 7 7 (451584)
I0403 15:07:11.877660  2685 net.cpp:156] Memory required for data: 1328854560
I0403 15:07:11.877678  2685 layer_factory.hpp:77] Creating layer inception_5b/3x3_reduce
I0403 15:07:11.877707  2685 net.cpp:91] Creating Layer inception_5b/3x3_reduce
I0403 15:07:11.877728  2685 net.cpp:425] inception_5b/3x3_reduce <- inception_5a/output_inception_5a/output_0_split_1
I0403 15:07:11.877756  2685 net.cpp:399] inception_5b/3x3_reduce -> inception_5b/3x3_reduce
I0403 15:07:11.881043  2685 net.cpp:141] Setting up inception_5b/3x3_reduce
I0403 15:07:11.881081  2685 net.cpp:148] Top shape: 24 192 7 7 (225792)
I0403 15:07:11.881101  2685 net.cpp:156] Memory required for data: 1329757728
I0403 15:07:11.881124  2685 layer_factory.hpp:77] Creating layer inception_5b/relu_3x3_reduce
I0403 15:07:11.881150  2685 net.cpp:91] Creating Layer inception_5b/relu_3x3_reduce
I0403 15:07:11.881172  2685 net.cpp:425] inception_5b/relu_3x3_reduce <- inception_5b/3x3_reduce
I0403 15:07:11.881194  2685 net.cpp:386] inception_5b/relu_3x3_reduce -> inception_5b/3x3_reduce (in-place)
I0403 15:07:11.881436  2685 net.cpp:141] Setting up inception_5b/relu_3x3_reduce
I0403 15:07:11.881467  2685 net.cpp:148] Top shape: 24 192 7 7 (225792)
I0403 15:07:11.881485  2685 net.cpp:156] Memory required for data: 1330660896
I0403 15:07:11.881503  2685 layer_factory.hpp:77] Creating layer inception_5b/3x3
I0403 15:07:11.881531  2685 net.cpp:91] Creating Layer inception_5b/3x3
I0403 15:07:11.881553  2685 net.cpp:425] inception_5b/3x3 <- inception_5b/3x3_reduce
I0403 15:07:11.881582  2685 net.cpp:399] inception_5b/3x3 -> inception_5b/3x3
I0403 15:07:11.890014  2685 net.cpp:141] Setting up inception_5b/3x3
I0403 15:07:11.890069  2685 net.cpp:148] Top shape: 24 384 7 7 (451584)
I0403 15:07:11.890089  2685 net.cpp:156] Memory required for data: 1332467232
I0403 15:07:11.890113  2685 layer_factory.hpp:77] Creating layer inception_5b/relu_3x3
I0403 15:07:11.890141  2685 net.cpp:91] Creating Layer inception_5b/relu_3x3
I0403 15:07:11.890164  2685 net.cpp:425] inception_5b/relu_3x3 <- inception_5b/3x3
I0403 15:07:11.890187  2685 net.cpp:386] inception_5b/relu_3x3 -> inception_5b/3x3 (in-place)
I0403 15:07:11.890568  2685 net.cpp:141] Setting up inception_5b/relu_3x3
I0403 15:07:11.890601  2685 net.cpp:148] Top shape: 24 384 7 7 (451584)
I0403 15:07:11.890619  2685 net.cpp:156] Memory required for data: 1334273568
I0403 15:07:11.890638  2685 layer_factory.hpp:77] Creating layer inception_5b/5x5_reduce
I0403 15:07:11.890703  2685 net.cpp:91] Creating Layer inception_5b/5x5_reduce
I0403 15:07:11.890727  2685 net.cpp:425] inception_5b/5x5_reduce <- inception_5a/output_inception_5a/output_0_split_2
I0403 15:07:11.890764  2685 net.cpp:399] inception_5b/5x5_reduce -> inception_5b/5x5_reduce
I0403 15:07:11.892370  2685 net.cpp:141] Setting up inception_5b/5x5_reduce
I0403 15:07:11.892405  2685 net.cpp:148] Top shape: 24 48 7 7 (56448)
I0403 15:07:11.892426  2685 net.cpp:156] Memory required for data: 1334499360
I0403 15:07:11.892449  2685 layer_factory.hpp:77] Creating layer inception_5b/relu_5x5_reduce
I0403 15:07:11.892472  2685 net.cpp:91] Creating Layer inception_5b/relu_5x5_reduce
I0403 15:07:11.892491  2685 net.cpp:425] inception_5b/relu_5x5_reduce <- inception_5b/5x5_reduce
I0403 15:07:11.892515  2685 net.cpp:386] inception_5b/relu_5x5_reduce -> inception_5b/5x5_reduce (in-place)
I0403 15:07:11.893020  2685 net.cpp:141] Setting up inception_5b/relu_5x5_reduce
I0403 15:07:11.893054  2685 net.cpp:148] Top shape: 24 48 7 7 (56448)
I0403 15:07:11.893072  2685 net.cpp:156] Memory required for data: 1334725152
I0403 15:07:11.893091  2685 layer_factory.hpp:77] Creating layer inception_5b/5x5
I0403 15:07:11.893117  2685 net.cpp:91] Creating Layer inception_5b/5x5
I0403 15:07:11.893138  2685 net.cpp:425] inception_5b/5x5 <- inception_5b/5x5_reduce
I0403 15:07:11.893160  2685 net.cpp:399] inception_5b/5x5 -> inception_5b/5x5
I0403 15:07:11.895753  2685 net.cpp:141] Setting up inception_5b/5x5
I0403 15:07:11.895788  2685 net.cpp:148] Top shape: 24 128 7 7 (150528)
I0403 15:07:11.895808  2685 net.cpp:156] Memory required for data: 1335327264
I0403 15:07:11.895833  2685 layer_factory.hpp:77] Creating layer inception_5b/relu_5x5
I0403 15:07:11.895858  2685 net.cpp:91] Creating Layer inception_5b/relu_5x5
I0403 15:07:11.895879  2685 net.cpp:425] inception_5b/relu_5x5 <- inception_5b/5x5
I0403 15:07:11.895900  2685 net.cpp:386] inception_5b/relu_5x5 -> inception_5b/5x5 (in-place)
I0403 15:07:11.896142  2685 net.cpp:141] Setting up inception_5b/relu_5x5
I0403 15:07:11.896175  2685 net.cpp:148] Top shape: 24 128 7 7 (150528)
I0403 15:07:11.896194  2685 net.cpp:156] Memory required for data: 1335929376
I0403 15:07:11.896230  2685 layer_factory.hpp:77] Creating layer inception_5b/pool
I0403 15:07:11.896257  2685 net.cpp:91] Creating Layer inception_5b/pool
I0403 15:07:11.896277  2685 net.cpp:425] inception_5b/pool <- inception_5a/output_inception_5a/output_0_split_3
I0403 15:07:11.896303  2685 net.cpp:399] inception_5b/pool -> inception_5b/pool
I0403 15:07:11.896395  2685 net.cpp:141] Setting up inception_5b/pool
I0403 15:07:11.896426  2685 net.cpp:148] Top shape: 24 832 7 7 (978432)
I0403 15:07:11.896443  2685 net.cpp:156] Memory required for data: 1339843104
I0403 15:07:11.896462  2685 layer_factory.hpp:77] Creating layer inception_5b/pool_proj
I0403 15:07:11.896489  2685 net.cpp:91] Creating Layer inception_5b/pool_proj
I0403 15:07:11.896512  2685 net.cpp:425] inception_5b/pool_proj <- inception_5b/pool
I0403 15:07:11.896538  2685 net.cpp:399] inception_5b/pool_proj -> inception_5b/pool_proj
I0403 15:07:11.899418  2685 net.cpp:141] Setting up inception_5b/pool_proj
I0403 15:07:11.899456  2685 net.cpp:148] Top shape: 24 128 7 7 (150528)
I0403 15:07:11.899474  2685 net.cpp:156] Memory required for data: 1340445216
I0403 15:07:11.899497  2685 layer_factory.hpp:77] Creating layer inception_5b/relu_pool_proj
I0403 15:07:11.899523  2685 net.cpp:91] Creating Layer inception_5b/relu_pool_proj
I0403 15:07:11.899544  2685 net.cpp:425] inception_5b/relu_pool_proj <- inception_5b/pool_proj
I0403 15:07:11.899569  2685 net.cpp:386] inception_5b/relu_pool_proj -> inception_5b/pool_proj (in-place)
I0403 15:07:11.899935  2685 net.cpp:141] Setting up inception_5b/relu_pool_proj
I0403 15:07:11.899966  2685 net.cpp:148] Top shape: 24 128 7 7 (150528)
I0403 15:07:11.899984  2685 net.cpp:156] Memory required for data: 1341047328
I0403 15:07:11.900003  2685 layer_factory.hpp:77] Creating layer inception_5b/output
I0403 15:07:11.900025  2685 net.cpp:91] Creating Layer inception_5b/output
I0403 15:07:11.900071  2685 net.cpp:425] inception_5b/output <- inception_5b/1x1
I0403 15:07:11.900094  2685 net.cpp:425] inception_5b/output <- inception_5b/3x3
I0403 15:07:11.900113  2685 net.cpp:425] inception_5b/output <- inception_5b/5x5
I0403 15:07:11.900133  2685 net.cpp:425] inception_5b/output <- inception_5b/pool_proj
I0403 15:07:11.900156  2685 net.cpp:399] inception_5b/output -> inception_5b/output
I0403 15:07:11.900233  2685 net.cpp:141] Setting up inception_5b/output
I0403 15:07:11.900261  2685 net.cpp:148] Top shape: 24 1024 7 7 (1204224)
I0403 15:07:11.900279  2685 net.cpp:156] Memory required for data: 1345864224
I0403 15:07:11.900298  2685 layer_factory.hpp:77] Creating layer pool5/7x7_s1
I0403 15:07:11.900320  2685 net.cpp:91] Creating Layer pool5/7x7_s1
I0403 15:07:11.900339  2685 net.cpp:425] pool5/7x7_s1 <- inception_5b/output
I0403 15:07:11.900365  2685 net.cpp:399] pool5/7x7_s1 -> pool5/7x7_s1
I0403 15:07:11.900635  2685 net.cpp:141] Setting up pool5/7x7_s1
I0403 15:07:11.900665  2685 net.cpp:148] Top shape: 24 1024 1 1 (24576)
I0403 15:07:11.900686  2685 net.cpp:156] Memory required for data: 1345962528
I0403 15:07:11.900703  2685 layer_factory.hpp:77] Creating layer pool5/drop_7x7_s1
I0403 15:07:11.900729  2685 net.cpp:91] Creating Layer pool5/drop_7x7_s1
I0403 15:07:11.900750  2685 net.cpp:425] pool5/drop_7x7_s1 <- pool5/7x7_s1
I0403 15:07:11.900773  2685 net.cpp:386] pool5/drop_7x7_s1 -> pool5/7x7_s1 (in-place)
I0403 15:07:11.900836  2685 net.cpp:141] Setting up pool5/drop_7x7_s1
I0403 15:07:11.900864  2685 net.cpp:148] Top shape: 24 1024 1 1 (24576)
I0403 15:07:11.900882  2685 net.cpp:156] Memory required for data: 1346060832
I0403 15:07:11.900900  2685 layer_factory.hpp:77] Creating layer loss3/classifier_plantvillage
I0403 15:07:11.900924  2685 net.cpp:91] Creating Layer loss3/classifier_plantvillage
I0403 15:07:11.900944  2685 net.cpp:425] loss3/classifier_plantvillage <- pool5/7x7_s1
I0403 15:07:11.900970  2685 net.cpp:399] loss3/classifier_plantvillage -> loss3/classifier_plantvillage
I0403 15:07:11.901515  2685 net.cpp:141] Setting up loss3/classifier_plantvillage
I0403 15:07:11.901548  2685 net.cpp:148] Top shape: 24 38 (912)
I0403 15:07:11.901571  2685 net.cpp:156] Memory required for data: 1346064480
I0403 15:07:11.901594  2685 layer_factory.hpp:77] Creating layer loss3/classifier_plantvillage_loss3/classifier_plantvillage_0_split
I0403 15:07:11.901618  2685 net.cpp:91] Creating Layer loss3/classifier_plantvillage_loss3/classifier_plantvillage_0_split
I0403 15:07:11.901639  2685 net.cpp:425] loss3/classifier_plantvillage_loss3/classifier_plantvillage_0_split <- loss3/classifier_plantvillage
I0403 15:07:11.901667  2685 net.cpp:399] loss3/classifier_plantvillage_loss3/classifier_plantvillage_0_split -> loss3/classifier_plantvillage_loss3/classifier_plantvillage_0_split_0
I0403 15:07:11.901693  2685 net.cpp:399] loss3/classifier_plantvillage_loss3/classifier_plantvillage_0_split -> loss3/classifier_plantvillage_loss3/classifier_plantvillage_0_split_1
I0403 15:07:11.901718  2685 net.cpp:399] loss3/classifier_plantvillage_loss3/classifier_plantvillage_0_split -> loss3/classifier_plantvillage_loss3/classifier_plantvillage_0_split_2
I0403 15:07:11.901744  2685 net.cpp:399] loss3/classifier_plantvillage_loss3/classifier_plantvillage_0_split -> loss3/classifier_plantvillage_loss3/classifier_plantvillage_0_split_3
I0403 15:07:11.901880  2685 net.cpp:141] Setting up loss3/classifier_plantvillage_loss3/classifier_plantvillage_0_split
I0403 15:07:11.901908  2685 net.cpp:148] Top shape: 24 38 (912)
I0403 15:07:11.901929  2685 net.cpp:148] Top shape: 24 38 (912)
I0403 15:07:11.901948  2685 net.cpp:148] Top shape: 24 38 (912)
I0403 15:07:11.901968  2685 net.cpp:148] Top shape: 24 38 (912)
I0403 15:07:11.901986  2685 net.cpp:156] Memory required for data: 1346079072
I0403 15:07:11.902005  2685 layer_factory.hpp:77] Creating layer loss1/loss
I0403 15:07:11.902032  2685 net.cpp:91] Creating Layer loss1/loss
I0403 15:07:11.902055  2685 net.cpp:425] loss1/loss <- loss1/classifier_plantvillage_loss1/classifier_plantvillage_0_split_0
I0403 15:07:11.902092  2685 net.cpp:425] loss1/loss <- label_data_1_split_0
…
