…
I0403 15:29:43.641548  3152 net.cpp:313] The NetState phase (1) differed from the phase (0) specified by a rule in layer data
I0403 15:29:43.642724  3152 net.cpp:49] Initializing net from parameters: 
state {
  phase: TEST
}
layer {
  name: "data"
  type: "Data"
  top: "data"
  top: "label"
  include {
    phase: TEST
  }
  transform_param {
    mirror: false
    crop_size: 224
    mean_file: "/home/mohanty/data/final_dataset/lmdb/segmented-60-40/mean.binaryproto"
  }
  data_param {
    source: "/home/mohanty/data/final_dataset/lmdb/segmented-60-40/test_db"
    batch_size: 24
    backend: LMDB
  }
}
layer {
  name: "conv1/7x7_s2"
  type: "Convolution"
  bottom: "data"
  top: "conv1/7x7_s2"
  param {
    lr_mult: 1
    decay_mult: 1
  }
  param {
    lr_mult: 2
    decay_mult: 0
  }
  convolution_param {
    num_output: 64
    pad: 3
    kernel_size: 7
    stride: 2
    weight_filler {
      type: "xavier"
      std: 0.1
    }
    bias_filler {
      type: "constant"
      value: 0.2
    }
  }
}
layer {
  name: "conv1/relu_7x7"
  type: "ReLU"
  bottom: "conv1/7x7_s2"
  top: "conv1/7x7_s2"
}
layer {
  name: "pool1/3x3_s2"
  type: "Pooling"
  bottom: "conv1/7x7_s2"
  top: "pool1/3x3_s2"
  pooling_param {
    pool: MAX
    kernel_size: 3
    stride: 2
  }
}
layer {
  name: "pool1/norm1"
  type: "LRN"
  bottom: "pool1/3x3_s2"
  top: "pool1/norm1"
  lrn_param {
    local_size: 5
    alpha: 0.0001
    beta: 0.75
  }
}
layer {
  name: "conv2/3x3_reduce"
  type: "Convolution"
  bottom: "pool1/norm1"
  top: "conv2/3x3_reduce"
  param {
    lr_mult: 1
    decay_mult: 1
  }
  param {
    lr_mult: 2
    decay_mult: 0
  }
  convolution_param {
    num_output: 64
    kernel_size: 1
    weight_filler {
      type: "xavier"
      std: 0.1
    }
    bias_filler {
      type: "constant"
      value: 0.2
    }
  }
}
layer {
  name: "conv2/relu_3x3_reduce"
  type: "ReLU"
  bottom: "conv2/3x3_reduce"
  top: "conv2/3x3_reduce"
}
layer {
  name: "conv2/3x3"
  type: "Convolution"
  bottom: "conv2/3x3_reduce"
  top: "conv2/3x3"
  param {
    lr_mult: 1
    decay_mult: 1
  }
  param {
    lr_mult: 2
    decay_mult: 0
  }
  convolution_param {
    num_output: 192
    pad: 1
    kernel_size: 3
    weight_filler {
      type: "xavier"
      std: 0.03
    }
    bias_filler {
      type: "constant"
      value: 0.2
    }
  }
}
layer {
  name: "conv2/relu_3x3"
  type: "ReLU"
  bottom: "conv2/3x3"
  top: "conv2/3x3"
}
layer {
  name: "conv2/norm2"
  type: "LRN"
  bottom: "conv2/3x3"
  top: "conv2/norm2"
  lrn_param {
    local_size: 5
    alpha: 0.0001
    beta: 0.75
  }
}
layer {
  name: "pool2/3x3_s2"
  type: "Pooling"
  bottom: "conv2/norm2"
  top: "pool2/3x3_s2"
  pooling_param {
    pool: MAX
    kernel_size: 3
    stride: 2
  }
}
layer {
  name: "inception_3a/1x1"
  type: "Convolution"
  bottom: "pool2/3x3_s2"
  top: "inception_3a/1x1"
  param {
    lr_mult: 1
    decay_mult: 1
  }
  param {
    lr_mult: 2
    decay_mult: 0
  }
  convolution_param {
    num_output: 64
    kernel_size: 1
    weight_filler {
      type: "xavier"
      std: 0.03
    }
    bias_filler {
      type: "constant"
      value: 0.2
    }
  }
}
layer {
  name: "inception_3a/relu_1x1"
  type: "ReLU"
  bottom: "inception_3a/1x1"
  top: "inception_3a/1x1"
}
layer {
  name: "inception_3a/3x3_reduce"
  type: "Convolution"
  bottom: "pool2/3x3_s2"
  top: "inception_3a/3x3_reduce"
  param {
    lr_mult: 1
    decay_mult: 1
  }
  param {
    lr_mult: 2
    decay_mult: 0
  }
  convolution_param {
    num_output: 96
    kernel_size: 1
    weight_filler {
      type: "xavier"
      std: 0.09
    }
    bias_filler {
      type: "constant"
      value: 0.2
    }
  }
}
layer {
  name: "inception_3a/relu_3x3_reduce"
  type: "ReLU"
  bottom: "inception_3a/3x3_reduce"
  top: "inception_3a/3x3_reduce"
}
layer {
  name: "inception_3a/3x3"
  type: "Convolution"
  bottom: "inception_3a/3x3_reduce"
  top: "inception_3a/3x3"
  param {
    lr_mult: 1
    decay_mult: 1
  }
  param {
    lr_mult: 2
    decay_mult: 0
  }
  convolution_param {
    num_output: 128
    pad: 1
    kernel_size: 3
    weight_filler {
      type: "xavier"
      std: 0.03
    }
    bias_filler {
      type: "constant"
      value: 0.2
    }
  }
}
layer {
  name: "inception_3a/relu_3x3"
  type: "ReLU"
  bottom: "inception_3a/3x3"
  top: "inception_3a/3x3"
}
layer {
  name: "inception_3a/5x5_reduce"
  type: "Convolution"
  bottom: "pool2/3x3_s2"
  top: "inception_3a/5x5_reduce"
  param {
    lr_mult: 1
    decay_mult: 1
  }
  param {
    lr_mult: 2
    decay_mult: 0
  }
  convolution_param {
    num_output: 16
    kernel_size: 1
    weight_filler {
      type: "xavier"
      std: 0.2
    }
    bias_filler {
      type: "constant"
      value: 0.2
    }
  }
}
layer {
  name: "inception_3a/relu_5x5_reduce"
  type: "ReLU"
  bottom: "inception_3a/5x5_reduce"
  top: "inception_3a/5x5_reduce"
}
layer {
  name: "inception_3a/5x5"
  type: "Convolution"
  bottom: "inception_3a/5x5_reduce"
  top: "inception_3a/5x5"
  param {
    lr_mult: 1
    decay_mult: 1
  }
  param {
    lr_mult: 2
    decay_mult: 0
  }
  convolution_param {
    num_output: 32
    pad: 2
    kernel_size: 5
    weight_filler {
      type: "xavier"
      std: 0.03
    }
    bias_filler {
      type: "constant"
      value: 0.2
    }
  }
}
layer {
  name: "inception_3a/relu_5x5"
  type: "ReLU"
  bottom: "inception_3a/5x5"
  top: "inception_3a/5x5"
}
layer {
  name: "inception_3a/pool"
  type: "Pooling"
  bottom: "pool2/3x3_s2"
  top: "inception_3a/pool"
  pooling_param {
    pool: MAX
    kernel_size: 3
    stride: 1
    pad: 1
  }
}
layer {
  name: "inception_3a/pool_proj"
  type: "Convolution"
  bottom: "inception_3a/pool"
  top: "inception_3a/pool_proj"
  param {
    lr_mult: 1
    decay_mult: 1
  }
  param {
    lr_mult: 2
    decay_mult: 0
  }
  convolution_param {
    num_output: 32
    kernel_size: 1
    weight_filler {
      type: "xavier"
      std: 0.1
    }
    bias_filler {
      type: "constant"
      value: 0.2
    }
  }
}
layer {
  name: "inception_3a/relu_pool_proj"
  type: "ReLU"
  bottom: "inception_3a/pool_proj"
  top: "inception_3a/pool_proj"
}
layer {
  name: "inception_3a/output"
  type: "Concat"
  bottom: "inception_3a/1x1"
  bottom: "inception_3a/3x3"
  bottom: "inception_3a/5x5"
  bottom: "inception_3a/pool_proj"
  top: "inception_3a/output"
}
layer {
  name: "inception_3b/1x1"
  type: "Convolution"
  bottom: "inception_3a/output"
  top: "inception_3b/1x1"
  param {
    lr_mult: 1
    decay_mult: 1
  }
  param {
    lr_mult: 2
    decay_mult: 0
  }
  convolution_param {
    num_output: 128
    kernel_size: 1
    weight_filler {
      type: "xavier"
      std: 0.03
    }
    bias_filler {
      type: "constant"
      value: 0.2
    }
  }
}
layer {
  name: "inception_3b/relu_1x1"
  type: "ReLU"
  bottom: "inception_3b/1x1"
  top: "inception_3b/1x1"
}
layer {
  name: "inception_3b/3x3_reduce"
  type: "Convolution"
  bottom: "inception_3a/output"
  top: "inception_3b/3x3_reduce"
  param {
    lr_mult: 1
    decay_mult: 1
  }
  param {
    lr_mult: 2
    decay_mult: 0
  }
  convolution_param {
    num_output: 128
    kernel_size: 1
    weight_filler {
      type: "xavier"
      std: 0.09
    }
    bias_filler {
      type: "constant"
      value: 0.2
    }
  }
}
layer {
  name: "inception_3b/relu_3x3_reduce"
  type: "ReLU"
  bottom: "inception_3b/3x3_reduce"
  top: "inception_3b/3x3_reduce"
}
layer {
  name: "inception_3b/3x3"
  type: "Convolution"
  bottom: "inception_3b/3x3_reduce"
  top: "inception_3b/3x3"
  param {
    lr_mult: 1
    decay_mult: 1
  }
  param {
    lr_mult: 2
    decay_mult: 0
  }
  convolution_param {
    num_output: 192
    pad: 1
    kernel_size: 3
    weight_filler {
      type: "xavier"
      std: 0.03
    }
    bias_filler {
      type: "constant"
      value: 0.2
    }
  }
}
layer {
  name: "inception_3b/relu_3x3"
  type: "ReLU"
  bottom: "inception_3b/3x3"
  top: "inception_3b/3x3"
}
layer {
  name: "inception_3b/5x5_reduce"
  type: "Convolution"
  bottom: "inception_3a/output"
  top: "inception_3b/5x5_reduce"
  param {
    lr_mult: 1
    decay_mult: 1
  }
  param {
    lr_mult: 2
    decay_mult: 0
  }
  convolution_param {
    num_output: 32
    kernel_size: 1
    weight_filler {
      type: "xavier"
      std: 0.2
    }
    bias_filler {
      type: "constant"
      value: 0.2
    }
  }
}
layer {
  name: "inception_3b/relu_5x5_reduce"
  type: "ReLU"
  bottom: "inception_3b/5x5_reduce"
  top: "inception_3b/5x5_reduce"
}
layer {
  name: "inception_3b/5x5"
  type: "Convolution"
  bottom: "inception_3b/5x5_reduce"
  top: "inception_3b/5x5"
  param {
    lr_mult: 1
    decay_mult: 1
  }
  param {
    lr_mult: 2
    decay_mult: 0
  }
  convolution_param {
    num_output: 96
    pad: 2
    kernel_size: 5
    weight_filler {
      type: "xavier"
      std: 0.03
    }
    bias_filler {
      type: "constant"
      value: 0.2
    }
  }
}
layer {
  name: "inception_3b/relu_5x5"
  type: "ReLU"
  bottom: "inception_3b/5x5"
  top: "inception_3b/5x5"
}
layer {
  name: "inception_3b/pool"
  type: "Pooling"
  bottom: "inception_3a/output"
  top: "inception_3b/pool"
  pooling_param {
    pool: MAX
    kernel_size: 3
    stride: 1
    pad: 1
  }
}
layer {
  name: "inception_3b/pool_proj"
  type: "Convolution"
  bottom: "inception_3b/pool"
  top: "inception_3b/pool_proj"
  param {
    lr_mult: 1
    decay_mult: 1
  }
  param {
    lr_mult: 2
    decay_mult: 0
  }
  convolution_param {
    num_output: 64
    kernel_size: 1
    weight_filler {
      type: "xavier"
      std: 0.1
    }
    bias_filler {
      type: "constant"
      value: 0.2
    }
  }
}
layer {
  name: "inception_3b/relu_pool_proj"
  type: "ReLU"
  bottom: "inception_3b/pool_proj"
  top: "inception_3b/pool_proj"
}
layer {
  name: "inception_3b/output"
  type: "Concat"
  bottom: "inception_3b/1x1"
  bottom: "inception_3b/3x3"
  bottom: "inception_3b/5x5"
  bottom: "inception_3b/pool_proj"
  top: "inception_3b/output"
}
layer {
  name: "pool3/3x3_s2"
  type: "Pooling"
  bottom: "inception_3b/output"
  top: "pool3/3x3_s2"
  pooling_param {
    pool: MAX
    kernel_size: 3
    stride: 2
  }
}
layer {
  name: "inception_4a/1x1"
  type: "Convolution"
  bottom: "pool3/3x3_s2"
  top: "inception_4a/1x1"
  param {
    lr_mult: 1
    decay_mult: 1
  }
  param {
    lr_mult: 2
    decay_mult: 0
  }
  convolution_param {
    num_output: 192
    kernel_size: 1
    weight_filler {
      type: "xavier"
      std: 0.03
    }
    bias_filler {
      type: "constant"
      value: 0.2
    }
  }
}
layer {
  name: "inception_4a/relu_1x1"
  type: "ReLU"
  bottom: "inception_4a/1x1"
  top: "inception_4a/1x1"
}
layer {
  name: "inception_4a/3x3_reduce"
  type: "Convolution"
  bottom: "pool3/3x3_s2"
  top: "inception_4a/3x3_reduce"
  param {
    lr_mult: 1
    decay_mult: 1
  }
  param {
    lr_mult: 2
    decay_mult: 0
  }
  convolution_param {
    num_output: 96
    kernel_size: 1
    weight_filler {
      type: "xavier"
      std: 0.09
    }
    bias_filler {
      type: "constant"
      value: 0.2
    }
  }
}
layer {
  name: "inception_4a/relu_3x3_reduce"
  type: "ReLU"
  bottom: "inception_4a/3x3_reduce"
  top: "inception_4a/3x3_reduce"
}
layer {
  name: "inception_4a/3x3"
  type: "Convolution"
  bottom: "inception_4a/3x3_reduce"
  top: "inception_4a/3x3"
  param {
    lr_mult: 1
    decay_mult: 1
  }
  param {
    lr_mult: 2
    decay_mult: 0
  }
  convolution_param {
    num_output: 208
    pad: 1
    kernel_size: 3
    weight_filler {
      type: "xavier"
      std: 0.03
    }
    bias_filler {
      type: "constant"
      value: 0.2
    }
  }
}
layer {
  name: "inception_4a/relu_3x3"
  type: "ReLU"
  bottom: "inception_4a/3x3"
  top: "inception_4a/3x3"
}
layer {
  name: "inception_4a/5x5_reduce"
  type: "Convolution"
  bottom: "pool3/3x3_s2"
  top: "inception_4a/5x5_reduce"
  param {
    lr_mult: 1
    decay_mult: 1
  }
  param {
    lr_mult: 2
    decay_mult: 0
  }
  convolution_param {
    num_output: 16
    kernel_size: 1
    weight_filler {
      type: "xavier"
      std: 0.2
    }
    bias_filler {
      type: "constant"
      value: 0.2
    }
  }
}
layer {
  name: "inception_4a/relu_5x5_reduce"
  type: "ReLU"
  bottom: "inception_4a/5x5_reduce"
  top: "inception_4a/5x5_reduce"
}
layer {
  name: "inception_4a/5x5"
  type: "Convolution"
  bottom: "inception_4a/5x5_reduce"
  top: "inception_4a/5x5"
  param {
    lr_mult: 1
    decay_mult: 1
  }
  param {
    lr_mult: 2
    decay_mult: 0
  }
  convolution_param {
    num_output: 48
    pad: 2
    kernel_size: 5
    weight_filler {
      type: "xavier"
      std: 0.03
    }
    bias_filler {
      type: "constant"
      value: 0.2
    }
  }
}
layer {
  name: "inception_4a/relu_5x5"
  type: "ReLU"
  bottom: "inception_4a/5x5"
  top: "inception_4a/5x5"
}
layer {
  name: "inception_4a/pool"
  type: "Pooling"
  bottom: "pool3/3x3_s2"
  top: "inception_4a/pool"
  pooling_param {
    pool: MAX
    kernel_size: 3
    stride: 1
    pad: 1
  }
}
layer {
  name: "inception_4a/pool_proj"
  type: "Convolution"
  bottom: "inception_4a/pool"
  top: "inception_4a/pool_proj"
  param {
    lr_mult: 1
    decay_mult: 1
  }
  param {
    lr_mult: 2
    decay_mult: 0
  }
  convolution_param {
    num_output: 64
    kernel_size: 1
    weight_filler {
      type: "xavier"
      std: 0.1
    }
    bias_filler {
      type: "constant"
      value: 0.2
    }
  }
}
layer {
  name: "inception_4a/relu_pool_proj"
  type: "ReLU"
  bottom: "inception_4a/pool_proj"
  top: "inception_4a/pool_proj"
}
layer {
  name: "inception_4a/output"
  type: "Concat"
  bottom: "inception_4a/1x1"
  bottom: "inception_4a/3x3"
  bottom: "inception_4a/5x5"
  bottom: "inception_4a/pool_proj"
  top: "inception_4a/output"
}
layer {
  name: "loss1/ave_pool"
  type: "Pooling"
  bottom: "inception_4a/output"
  top: "loss1/ave_pool"
  pooling_param {
    pool: AVE
    kernel_size: 5
    stride: 3
  }
}
layer {
  name: "loss1/conv"
  type: "Convolution"
  bottom: "loss1/ave_pool"
  top: "loss1/conv"
  param {
    lr_mult: 1
    decay_mult: 1
  }
  param {
    lr_mult: 2
    decay_mult: 0
  }
  convolution_param {
    num_output: 128
    kernel_size: 1
    weight_filler {
      type: "xavier"
      std: 0.08
    }
    bias_filler {
      type: "constant"
      value: 0.2
    }
  }
}
layer {
  name: "loss1/relu_conv"
  type: "ReLU"
  bottom: "loss1/conv"
  top: "loss1/conv"
}
layer {
  name: "loss1/fc"
  type: "InnerProduct"
  bottom: "loss1/conv"
  top: "loss1/fc"
  param {
    lr_mult: 1
    decay_mult: 1
  }
  param {
    lr_mult: 2
    decay_mult: 0
  }
  inner_product_param {
    num_output: 1024
    weight_filler {
      type: "xavier"
      std: 0.02
    }
    bias_filler {
      type: "constant"
      value: 0.2
    }
  }
}
layer {
  name: "loss1/relu_fc"
  type: "ReLU"
  bottom: "loss1/fc"
  top: "loss1/fc"
}
layer {
  name: "loss1/drop_fc"
  type: "Dropout"
  bottom: "loss1/fc"
  top: "loss1/fc"
  dropout_param {
    dropout_ratio: 0.7
  }
}
layer {
  name: "loss1/classifier_plantvillage"
  type: "InnerProduct"
  bottom: "loss1/fc"
  top: "loss1/classifier_plantvillage"
  param {
    lr_mult: 1
    decay_mult: 1
  }
  param {
    lr_mult: 2
    decay_mult: 0
  }
  inner_product_param {
    num_output: 38
    weight_filler {
      type: "xavier"
      std: 0.0009765625
    }
    bias_filler {
      type: "constant"
      value: 0
    }
  }
}
layer {
  name: "inception_4b/1x1"
  type: "Convolution"
  bottom: "inception_4a/output"
  top: "inception_4b/1x1"
  param {
    lr_mult: 1
    decay_mult: 1
  }
  param {
    lr_mult: 2
    decay_mult: 0
  }
  convolution_param {
    num_output: 160
    kernel_size: 1
    weight_filler {
      type: "xavier"
      std: 0.03
    }
    bias_filler {
      type: "constant"
      value: 0.2
    }
  }
}
layer {
  name: "inception_4b/relu_1x1"
  type: "ReLU"
  bottom: "inception_4b/1x1"
  top: "inception_4b/1x1"
}
layer {
  name: "inception_4b/3x3_reduce"
  type: "Convolution"
  bottom: "inception_4a/output"
  top: "inception_4b/3x3_reduce"
  param {
    lr_mult: 1
    decay_mult: 1
  }
  param {
    lr_mult: 2
    decay_mult: 0
  }
  convolution_param {
    num_output: 112
    kernel_size: 1
    weight_filler {
      type: "xavier"
      std: 0.09
    }
    bias_filler {
      type: "constant"
      value: 0.2
    }
  }
}
layer {
  name: "inception_4b/relu_3x3_reduce"
  type: "ReLU"
  bottom: "inception_4b/3x3_reduce"
  top: "inception_4b/3x3_reduce"
}
layer {
  name: "inception_4b/3x3"
  type: "Convolution"
  bottom: "inception_4b/3x3_reduce"
  top: "inception_4b/3x3"
  param {
    lr_mult: 1
    decay_mult: 1
  }
  param {
    lr_mult: 2
    decay_mult: 0
  }
  convolution_param {
    num_output: 224
    pad: 1
    kernel_size: 3
    weight_filler {
      type: "xavier"
      std: 0.03
    }
    bias_filler {
      type: "constant"
      value: 0.2
    }
  }
}
layer {
  name: "inception_4b/relu_3x3"
  type: "ReLU"
  bottom: "inception_4b/3x3"
  top: "inception_4b/3x3"
}
layer {
  name: "inception_4b/5x5_reduce"
  type: "Convolution"
  bottom: "inception_4a/output"
  top: "inception_4b/5x5_reduce"
  param {
    lr_mult: 1
    decay_mult: 1
  }
  param {
    lr_mult: 2
    decay_mult: 0
  }
  convolution_param {
    num_output: 24
    kernel_size: 1
    weight_filler {
      type: "xavier"
      std: 0.2
    }
    bias_filler {
      type: "constant"
      value: 0.2
    }
  }
}
layer {
  name: "inception_4b/relu_5x5_reduce"
  type: "ReLU"
  bottom: "inception_4b/5x5_reduce"
  top: "inception_4b/5x5_reduce"
}
layer {
  name: "inception_4b/5x5"
  type: "Convolution"
  bottom: "inception_4b/5x5_reduce"
  top: "inception_4b/5x5"
  param {
    lr_mult: 1
    decay_mult: 1
  }
  param {
    lr_mult: 2
    decay_mult: 0
  }
  convolution_param {
    num_output: 64
    pad: 2
    kernel_size: 5
    weight_filler {
      type: "xavier"
      std: 0.03
    }
    bias_filler {
      type: "constant"
      value: 0.2
    }
  }
}
layer {
  name: "inception_4b/relu_5x5"
  type: "ReLU"
  bottom: "inception_4b/5x5"
  top: "inception_4b/5x5"
}
layer {
  name: "inception_4b/pool"
  type: "Pooling"
  bottom: "inception_4a/output"
  top: "inception_4b/pool"
  pooling_param {
    pool: MAX
    kernel_size: 3
    stride: 1
    pad: 1
  }
}
layer {
  name: "inception_4b/pool_proj"
  type: "Convolution"
  bottom: "inception_4b/pool"
  top: "inception_4b/pool_proj"
  param {
    lr_mult: 1
    decay_mult: 1
  }
  param {
    lr_mult: 2
    decay_mult: 0
  }
  convolution_param {
    num_output: 64
    kernel_size: 1
    weight_filler {
      type: "xavier"
      std: 0.1
    }
    bias_filler {
      type: "constant"
      value: 0.2
    }
  }
}
layer {
  name: "inception_4b/relu_pool_proj"
  type: "ReLU"
  bottom: "inception_4b/pool_proj"
  top: "inception_4b/pool_proj"
}
layer {
  name: "inception_4b/output"
  type: "Concat"
  bottom: "inception_4b/1x1"
  bottom: "inception_4b/3x3"
  bottom: "inception_4b/5x5"
  bottom: "inception_4b/pool_proj"
  top: "inception_4b/output"
}
layer {
  name: "inception_4c/1x1"
  type: "Convolution"
  bottom: "inception_4b/output"
  top: "inception_4c/1x1"
  param {
    lr_mult: 1
    decay_mult: 1
  }
  param {
    lr_mult: 2
    decay_mult: 0
  }
  convolution_param {
    num_output: 128
    kernel_size: 1
    weight_filler {
      type: "xavier"
      std: 0.03
    }
    bias_filler {
      type: "constant"
      value: 0.2
    }
  }
}
layer {
  name: "inception_4c/relu_1x1"
  type: "ReLU"
  bottom: "inception_4c/1x1"
  top: "inception_4c/1x1"
}
layer {
  name: "inception_4c/3x3_reduce"
  type: "Convolution"
  bottom: "inception_4b/output"
  top: "inception_4c/3x3_reduce"
  param {
    lr_mult: 1
    decay_mult: 1
  }
  param {
    lr_mult: 2
    decay_mult: 0
  }
  convolution_param {
    num_output: 128
    kernel_size: 1
    weight_filler {
      type: "xavier"
      std: 0.09
    }
    bias_filler {
      type: "constant"
      value: 0.2
    }
  }
}
layer {
  name: "inception_4c/relu_3x3_reduce"
  type: "ReLU"
  bottom: "inception_4c/3x3_reduce"
  top: "inception_4c/3x3_reduce"
}
layer {
  name: "inception_4c/3x3"
  type: "Convolution"
  bottom: "inception_4c/3x3_reduce"
  top: "inception_4c/3x3"
  param {
    lr_mult: 1
    decay_mult: 1
  }
  param {
    lr_mult: 2
    decay_mult: 0
  }
  convolution_param {
    num_output: 256
    pad: 1
    kernel_size: 3
    weight_filler {
      type: "xavier"
      std: 0.03
    }
    bias_filler {
      type: "constant"
      value: 0.2
    }
  }
}
layer {
  name: "inception_4c/relu_3x3"
  type: "ReLU"
  bottom: "inception_4c/3x3"
  top: "inception_4c/3x3"
}
layer {
  name: "inception_4c/5x5_reduce"
  type: "Convolution"
  bottom: "inception_4b/output"
  top: "inception_4c/5x5_reduce"
  param {
    lr_mult: 1
    decay_mult: 1
  }
  param {
    lr_mult: 2
    decay_mult: 0
  }
  convolution_param {
    num_output: 24
    kernel_size: 1
    weight_filler {
      type: "xavier"
      std: 0.2
    }
    bias_filler {
      type: "constant"
      value: 0.2
    }
  }
}
layer {
  name: "inception_4c/relu_5x5_reduce"
  type: "ReLU"
  bottom: "inception_4c/5x5_reduce"
  top: "inception_4c/5x5_reduce"
}
layer {
  name: "inception_4c/5x5"
  type: "Convolution"
  bottom: "inception_4c/5x5_reduce"
  top: "inception_4c/5x5"
  param {
    lr_mult: 1
    decay_mult: 1
  }
  param {
    lr_mult: 2
    decay_mult: 0
  }
  convolution_param {
    num_output: 64
    pad: 2
    kernel_size: 5
    weight_filler {
      type: "xavier"
      std: 0.03
    }
    bias_filler {
      type: "constant"
      value: 0.2
    }
  }
}
layer {
  name: "inception_4c/relu_5x5"
  type: "ReLU"
  bottom: "inception_4c/5x5"
  top: "inception_4c/5x5"
}
layer {
  name: "inception_4c/pool"
  type: "Pooling"
  bottom: "inception_4b/output"
  top: "inception_4c/pool"
  pooling_param {
    pool: MAX
    kernel_size: 3
    stride: 1
    pad: 1
  }
}
layer {
  name: "inception_4c/pool_proj"
  type: "Convolution"
  bottom: "inception_4c/pool"
  top: "inception_4c/pool_proj"
  param {
    lr_mult: 1
    decay_mult: 1
  }
  param {
    lr_mult: 2
    decay_mult: 0
  }
  convolution_param {
    num_output: 64
    kernel_size: 1
    weight_filler {
      type: "xavier"
      std: 0.1
    }
    bias_filler {
      type: "constant"
      value: 0.2
    }
  }
}
layer {
  name: "inception_4c/relu_pool_proj"
  type: "ReLU"
  bottom: "inception_4c/pool_proj"
  top: "inception_4c/pool_proj"
}
layer {
  name: "inception_4c/output"
  type: "Concat"
  bottom: "inception_4c/1x1"
  bottom: "inception_4c/3x3"
  bottom: "inception_4c/5x5"
  bottom: "inception_4c/pool_proj"
  top: "inception_4c/output"
}
layer {
  name: "inception_4d/1x1"
  type: "Convolution"
  bottom: "inception_4c/output"
  top: "inception_4d/1x1"
  param {
    lr_mult: 1
    decay_mult: 1
  }
  param {
    lr_mult: 2
    decay_mult: 0
  }
  convolution_param {
    num_output: 112
    kernel_size: 1
    weight_filler {
      type: "xavier"
      std: 0.03
    }
    bias_filler {
      type: "constant"
      value: 0.2
    }
  }
}
layer {
  name: "inception_4d/relu_1x1"
  type: "ReLU"
  bottom: "inception_4d/1x1"
  top: "inception_4d/1x1"
}
layer {
  name: "inception_4d/3x3_reduce"
  type: "Convolution"
  bottom: "inception_4c/output"
  top: "inception_4d/3x3_reduce"
  param {
    lr_mult: 1
    decay_mult: 1
  }
  param {
    lr_mult: 2
    decay_mult: 0
  }
  convolution_param {
    num_output: 144
    kernel_size: 1
    weight_filler {
      type: "xavier"
      std: 0.09
    }
    bias_filler {
      type: "constant"
      value: 0.2
    }
  }
}
layer {
  name: "inception_4d/relu_3x3_reduce"
  type: "ReLU"
  bottom: "inception_4d/3x3_reduce"
  top: "inception_4d/3x3_reduce"
}
layer {
  name: "inception_4d/3x3"
  type: "Convolution"
  bottom: "inception_4d/3x3_reduce"
  top: "inception_4d/3x3"
  param {
    lr_mult: 1
    decay_mult: 1
  }
  param {
    lr_mult: 2
    decay_mult: 0
  }
  convolution_param {
    num_output: 288
    pad: 1
    kernel_size: 3
    weight_filler {
      type: "xavier"
      std: 0.03
    }
    bias_filler {
      type: "constant"
      value: 0.2
    }
  }
}
layer {
  name: "inception_4d/relu_3x3"
  type: "ReLU"
  bottom: "inception_4d/3x3"
  top: "inception_4d/3x3"
}
layer {
  name: "inception_4d/5x5_reduce"
  type: "Convolution"
  bottom: "inception_4c/output"
  top: "inception_4d/5x5_reduce"
  param {
    lr_mult: 1
    decay_mult: 1
  }
  param {
    lr_mult: 2
    decay_mult: 0
  }
  convolution_param {
    num_output: 32
    kernel_size: 1
    weight_filler {
      type: "xavier"
      std: 0.2
    }
    bias_filler {
      type: "constant"
      value: 0.2
    }
  }
}
layer {
  name: "inception_4d/relu_5x5_reduce"
  type: "ReLU"
  bottom: "inception_4d/5x5_reduce"
  top: "inception_4d/5x5_reduce"
}
layer {
  name: "inception_4d/5x5"
  type: "Convolution"
  bottom: "inception_4d/5x5_reduce"
  top: "inception_4d/5x5"
  param {
    lr_mult: 1
    decay_mult: 1
  }
  param {
    lr_mult: 2
    decay_mult: 0
  }
  convolution_param {
    num_output: 64
    pad: 2
    kernel_size: 5
    weight_filler {
      type: "xavier"
      std: 0.03
    }
    bias_filler {
      type: "constant"
      value: 0.2
    }
  }
}
layer {
  name: "inception_4d/relu_5x5"
  type: "ReLU"
  bottom: "inception_4d/5x5"
  top: "inception_4d/5x5"
}
layer {
  name: "inception_4d/pool"
  type: "Pooling"
  bottom: "inception_4c/output"
  top: "inception_4d/pool"
  pooling_param {
    pool: MAX
    kernel_size: 3
    stride: 1
    pad: 1
  }
}
layer {
  name: "inception_4d/pool_proj"
  type: "Convolution"
  bottom: "inception_4d/pool"
  top: "inception_4d/pool_proj"
  param {
    lr_mult: 1
    decay_mult: 1
  }
  param {
    lr_mult: 2
    decay_mult: 0
  }
  convolution_param {
    num_output: 64
    kernel_size: 1
    weight_filler {
      type: "xavier"
      std: 0.1
    }
    bias_filler {
      type: "constant"
      value: 0.2
    }
  }
}
layer {
  name: "inception_4d/relu_pool_proj"
  type: "ReLU"
  bottom: "inception_4d/pool_proj"
  top: "inception_4d/pool_proj"
}
layer {
  name: "inception_4d/output"
  type: "Concat"
  bottom: "inception_4d/1x1"
  bottom: "inception_4d/3x3"
  bottom: "inception_4d/5x5"
  bottom: "inception_4d/pool_proj"
  top: "inception_4d/output"
}
layer {
  name: "loss2/ave_pool"
  type: "Pooling"
  bottom: "inception_4d/output"
  top: "loss2/ave_pool"
  pooling_param {
    pool: AVE
    kernel_size: 5
    stride: 3
  }
}
layer {
  name: "loss2/conv"
  type: "Convolution"
  bottom: "loss2/ave_pool"
  top: "loss2/conv"
  param {
    lr_mult: 1
    decay_mult: 1
  }
  param {
    lr_mult: 2
    decay_mult: 0
  }
  convolution_param {
    num_output: 128
    kernel_size: 1
    weight_filler {
      type: "xavier"
      std: 0.08
    }
    bias_filler {
      type: "constant"
      value: 0.2
    }
  }
}
layer {
  name: "loss2/relu_conv"
  type: "ReLU"
  bottom: "loss2/conv"
  top: "loss2/conv"
}
layer {
  name: "loss2/fc"
  type: "InnerProduct"
  bottom: "loss2/conv"
  top: "loss2/fc"
  param {
    lr_mult: 1
    decay_mult: 1
  }
  param {
    lr_mult: 2
    decay_mult: 0
  }
  inner_product_param {
    num_output: 1024
    weight_filler {
      type: "xavier"
      std: 0.02
    }
    bias_filler {
      type: "constant"
      value: 0.2
    }
  }
}
layer {
  name: "loss2/relu_fc"
  type: "ReLU"
  bottom: "loss2/fc"
  top: "loss2/fc"
}
layer {
  name: "loss2/drop_fc"
  type: "Dropout"
  bottom: "loss2/fc"
  top: "loss2/fc"
  dropout_param {
    dropout_ratio: 0.7
  }
}
layer {
  name: "loss2/classifier_plantvillage"
  type: "InnerProduct"
  bottom: "loss2/fc"
  top: "loss2/classifier_plantvillage"
  param {
    lr_mult: 1
    decay_mult: 1
  }
  param {
    lr_mult: 2
    decay_mult: 0
  }
  inner_product_param {
    num_output: 38
    weight_filler {
      type: "xavier"
      std: 0.0009765625
    }
    bias_filler {
      type: "constant"
      value: 0
    }
  }
}
layer {
  name: "inception_4e/1x1"
  type: "Convolution"
  bottom: "inception_4d/output"
  top: "inception_4e/1x1"
  param {
    lr_mult: 1
    decay_mult: 1
  }
  param {
    lr_mult: 2
    decay_mult: 0
  }
  convolution_param {
    num_output: 256
    kernel_size: 1
    weight_filler {
      type: "xavier"
      std: 0.03
    }
    bias_filler {
      type: "constant"
      value: 0.2
    }
  }
}
layer {
  name: "inception_4e/relu_1x1"
  type: "ReLU"
  bottom: "inception_4e/1x1"
  top: "inception_4e/1x1"
}
layer {
  name: "inception_4e/3x3_reduce"
  type: "Convolution"
  bottom: "inception_4d/output"
  top: "inception_4e/3x3_reduce"
  param {
    lr_mult: 1
    decay_mult: 1
  }
  param {
    lr_mult: 2
    decay_mult: 0
  }
  convolution_param {
    num_output: 160
    kernel_size: 1
    weight_filler {
      type: "xavier"
      std: 0.09
    }
    bias_filler {
      type: "constant"
      value: 0.2
    }
  }
}
layer {
  name: "inception_4e/relu_3x3_reduce"
  type: "ReLU"
  bottom: "inception_4e/3x3_reduce"
  top: "inception_4e/3x3_reduce"
}
layer {
  name: "inception_4e/3x3"
  type: "Convolution"
  bottom: "inception_4e/3x3_reduce"
  top: "inception_4e/3x3"
  param {
    lr_mult: 1
    decay_mult: 1
  }
  param {
    lr_mult: 2
    decay_mult: 0
  }
  convolution_param {
    num_output: 320
    pad: 1
    kernel_size: 3
    weight_filler {
      type: "xavier"
      std: 0.03
    }
    bias_filler {
      type: "constant"
      value: 0.2
    }
  }
}
layer {
  name: "inception_4e/relu_3x3"
  type: "ReLU"
  bottom: "inception_4e/3x3"
  top: "inception_4e/3x3"
}
layer {
  name: "inception_4e/5x5_reduce"
  type: "Convolution"
  bottom: "inception_4d/output"
  top: "inception_4e/5x5_reduce"
  param {
    lr_mult: 1
    decay_mult: 1
  }
  param {
    lr_mult: 2
    decay_mult: 0
  }
  convolution_param {
    num_output: 32
    kernel_size: 1
    weight_filler {
      type: "xavier"
      std: 0.2
    }
    bias_filler {
      type: "constant"
      value: 0.2
    }
  }
}
layer {
  name: "inception_4e/relu_5x5_reduce"
  type: "ReLU"
  bottom: "inception_4e/5x5_reduce"
  top: "inception_4e/5x5_reduce"
}
layer {
  name: "inception_4e/5x5"
  type: "Convolution"
  bottom: "inception_4e/5x5_reduce"
  top: "inception_4e/
I0403 15:29:43.644135  3152 layer_factory.hpp:77] Creating layer data
I0403 15:29:43.644755  3152 net.cpp:91] Creating Layer data
I0403 15:29:43.644788  3152 net.cpp:399] data -> data
I0403 15:29:43.644841  3152 net.cpp:399] data -> label
I0403 15:29:43.644877  3152 data_transformer.cpp:25] Loading mean file from: /home/mohanty/data/final_dataset/lmdb/segmented-60-40/mean.binaryproto
I0403 15:29:43.647274  3155 db_lmdb.cpp:38] Opened lmdb /home/mohanty/data/final_dataset/lmdb/segmented-60-40/test_db
I0403 15:29:43.658205  3152 data_layer.cpp:41] output data size: 24,3,224,224
I0403 15:29:43.686152  3152 net.cpp:141] Setting up data
I0403 15:29:43.686259  3152 net.cpp:148] Top shape: 24 3 224 224 (3612672)
I0403 15:29:43.686280  3152 net.cpp:148] Top shape: 24 (24)
I0403 15:29:43.686295  3152 net.cpp:156] Memory required for data: 14450784
I0403 15:29:43.686322  3152 layer_factory.hpp:77] Creating layer label_data_1_split
I0403 15:29:43.686347  3152 net.cpp:91] Creating Layer label_data_1_split
I0403 15:29:43.686365  3152 net.cpp:425] label_data_1_split <- label
I0403 15:29:43.686396  3152 net.cpp:399] label_data_1_split -> label_data_1_split_0
I0403 15:29:43.686424  3152 net.cpp:399] label_data_1_split -> label_data_1_split_1
I0403 15:29:43.686444  3152 net.cpp:399] label_data_1_split -> label_data_1_split_2
I0403 15:29:43.686465  3152 net.cpp:399] label_data_1_split -> label_data_1_split_3
I0403 15:29:43.686485  3152 net.cpp:399] label_data_1_split -> label_data_1_split_4
I0403 15:29:43.686503  3152 net.cpp:399] label_data_1_split -> label_data_1_split_5
I0403 15:29:43.686522  3152 net.cpp:399] label_data_1_split -> label_data_1_split_6
I0403 15:29:43.686543  3152 net.cpp:399] label_data_1_split -> label_data_1_split_7
I0403 15:29:43.686563  3152 net.cpp:399] label_data_1_split -> label_data_1_split_8
I0403 15:29:43.686583  3152 net.cpp:399] label_data_1_split -> label_data_1_split_9
I0403 15:29:43.686699  3152 net.cpp:141] Setting up label_data_1_split
I0403 15:29:43.686722  3152 net.cpp:148] Top shape: 24 (24)
I0403 15:29:43.686739  3152 net.cpp:148] Top shape: 24 (24)
I0403 15:29:43.686755  3152 net.cpp:148] Top shape: 24 (24)
I0403 15:29:43.686770  3152 net.cpp:148] Top shape: 24 (24)
I0403 15:29:43.686785  3152 net.cpp:148] Top shape: 24 (24)
I0403 15:29:43.686800  3152 net.cpp:148] Top shape: 24 (24)
I0403 15:29:43.686816  3152 net.cpp:148] Top shape: 24 (24)
I0403 15:29:43.686831  3152 net.cpp:148] Top shape: 24 (24)
I0403 15:29:43.686846  3152 net.cpp:148] Top shape: 24 (24)
I0403 15:29:43.686862  3152 net.cpp:148] Top shape: 24 (24)
I0403 15:29:43.686908  3152 net.cpp:156] Memory required for data: 14451744
I0403 15:29:43.686924  3152 layer_factory.hpp:77] Creating layer conv1/7x7_s2
I0403 15:29:43.686955  3152 net.cpp:91] Creating Layer conv1/7x7_s2
I0403 15:29:43.686975  3152 net.cpp:425] conv1/7x7_s2 <- data
I0403 15:29:43.686993  3152 net.cpp:399] conv1/7x7_s2 -> conv1/7x7_s2
I0403 15:29:43.830519  3152 net.cpp:141] Setting up conv1/7x7_s2
I0403 15:29:43.830610  3152 net.cpp:148] Top shape: 24 64 112 112 (19267584)
I0403 15:29:43.830626  3152 net.cpp:156] Memory required for data: 91522080
I0403 15:29:43.830657  3152 layer_factory.hpp:77] Creating layer conv1/relu_7x7
I0403 15:29:43.830684  3152 net.cpp:91] Creating Layer conv1/relu_7x7
I0403 15:29:43.830701  3152 net.cpp:425] conv1/relu_7x7 <- conv1/7x7_s2
I0403 15:29:43.830719  3152 net.cpp:386] conv1/relu_7x7 -> conv1/7x7_s2 (in-place)
I0403 15:29:43.830981  3152 net.cpp:141] Setting up conv1/relu_7x7
I0403 15:29:43.831007  3152 net.cpp:148] Top shape: 24 64 112 112 (19267584)
I0403 15:29:43.831022  3152 net.cpp:156] Memory required for data: 168592416
I0403 15:29:43.831037  3152 layer_factory.hpp:77] Creating layer pool1/3x3_s2
I0403 15:29:43.831061  3152 net.cpp:91] Creating Layer pool1/3x3_s2
I0403 15:29:43.831079  3152 net.cpp:425] pool1/3x3_s2 <- conv1/7x7_s2
I0403 15:29:43.831096  3152 net.cpp:399] pool1/3x3_s2 -> pool1/3x3_s2
I0403 15:29:43.831168  3152 net.cpp:141] Setting up pool1/3x3_s2
I0403 15:29:43.831192  3152 net.cpp:148] Top shape: 24 64 56 56 (4816896)
I0403 15:29:43.831207  3152 net.cpp:156] Memory required for data: 187860000
I0403 15:29:43.831225  3152 layer_factory.hpp:77] Creating layer pool1/norm1
I0403 15:29:43.831249  3152 net.cpp:91] Creating Layer pool1/norm1
I0403 15:29:43.831267  3152 net.cpp:425] pool1/norm1 <- pool1/3x3_s2
I0403 15:29:43.831284  3152 net.cpp:399] pool1/norm1 -> pool1/norm1
I0403 15:29:43.831575  3152 net.cpp:141] Setting up pool1/norm1
I0403 15:29:43.831601  3152 net.cpp:148] Top shape: 24 64 56 56 (4816896)
I0403 15:29:43.831616  3152 net.cpp:156] Memory required for data: 207127584
I0403 15:29:43.831632  3152 layer_factory.hpp:77] Creating layer conv2/3x3_reduce
I0403 15:29:43.831656  3152 net.cpp:91] Creating Layer conv2/3x3_reduce
I0403 15:29:43.831672  3152 net.cpp:425] conv2/3x3_reduce <- pool1/norm1
I0403 15:29:43.831691  3152 net.cpp:399] conv2/3x3_reduce -> conv2/3x3_reduce
I0403 15:29:43.833052  3152 net.cpp:141] Setting up conv2/3x3_reduce
I0403 15:29:43.833083  3152 net.cpp:148] Top shape: 24 64 56 56 (4816896)
I0403 15:29:43.833101  3152 net.cpp:156] Memory required for data: 226395168
I0403 15:29:43.833122  3152 layer_factory.hpp:77] Creating layer conv2/relu_3x3_reduce
I0403 15:29:43.833139  3152 net.cpp:91] Creating Layer conv2/relu_3x3_reduce
I0403 15:29:43.833154  3152 net.cpp:425] conv2/relu_3x3_reduce <- conv2/3x3_reduce
I0403 15:29:43.833173  3152 net.cpp:386] conv2/relu_3x3_reduce -> conv2/3x3_reduce (in-place)
I0403 15:29:43.833459  3152 net.cpp:141] Setting up conv2/relu_3x3_reduce
I0403 15:29:43.833485  3152 net.cpp:148] Top shape: 24 64 56 56 (4816896)
I0403 15:29:43.833501  3152 net.cpp:156] Memory required for data: 245662752
I0403 15:29:43.833516  3152 layer_factory.hpp:77] Creating layer conv2/3x3
I0403 15:29:43.833540  3152 net.cpp:91] Creating Layer conv2/3x3
I0403 15:29:43.833557  3152 net.cpp:425] conv2/3x3 <- conv2/3x3_reduce
I0403 15:29:43.833578  3152 net.cpp:399] conv2/3x3 -> conv2/3x3
I0403 15:29:43.835842  3152 net.cpp:141] Setting up conv2/3x3
I0403 15:29:43.835872  3152 net.cpp:148] Top shape: 24 192 56 56 (14450688)
I0403 15:29:43.835887  3152 net.cpp:156] Memory required for data: 303465504
I0403 15:29:43.835908  3152 layer_factory.hpp:77] Creating layer conv2/relu_3x3
I0403 15:29:43.835927  3152 net.cpp:91] Creating Layer conv2/relu_3x3
I0403 15:29:43.835945  3152 net.cpp:425] conv2/relu_3x3 <- conv2/3x3
I0403 15:29:43.835963  3152 net.cpp:386] conv2/relu_3x3 -> conv2/3x3 (in-place)
I0403 15:29:43.836134  3152 net.cpp:141] Setting up conv2/relu_3x3
I0403 15:29:43.836158  3152 net.cpp:148] Top shape: 24 192 56 56 (14450688)
I0403 15:29:43.836204  3152 net.cpp:156] Memory required for data: 361268256
I0403 15:29:43.836223  3152 layer_factory.hpp:77] Creating layer conv2/norm2
I0403 15:29:43.836244  3152 net.cpp:91] Creating Layer conv2/norm2
I0403 15:29:43.836261  3152 net.cpp:425] conv2/norm2 <- conv2/3x3
I0403 15:29:43.836280  3152 net.cpp:399] conv2/norm2 -> conv2/norm2
I0403 15:29:43.836580  3152 net.cpp:141] Setting up conv2/norm2
I0403 15:29:43.836607  3152 net.cpp:148] Top shape: 24 192 56 56 (14450688)
I0403 15:29:43.836623  3152 net.cpp:156] Memory required for data: 419071008
I0403 15:29:43.836638  3152 layer_factory.hpp:77] Creating layer pool2/3x3_s2
I0403 15:29:43.836655  3152 net.cpp:91] Creating Layer pool2/3x3_s2
I0403 15:29:43.836670  3152 net.cpp:425] pool2/3x3_s2 <- conv2/norm2
I0403 15:29:43.836689  3152 net.cpp:399] pool2/3x3_s2 -> pool2/3x3_s2
I0403 15:29:43.836743  3152 net.cpp:141] Setting up pool2/3x3_s2
I0403 15:29:43.836766  3152 net.cpp:148] Top shape: 24 192 28 28 (3612672)
I0403 15:29:43.836779  3152 net.cpp:156] Memory required for data: 433521696
I0403 15:29:43.836793  3152 layer_factory.hpp:77] Creating layer pool2/3x3_s2_pool2/3x3_s2_0_split
I0403 15:29:43.836812  3152 net.cpp:91] Creating Layer pool2/3x3_s2_pool2/3x3_s2_0_split
I0403 15:29:43.836828  3152 net.cpp:425] pool2/3x3_s2_pool2/3x3_s2_0_split <- pool2/3x3_s2
I0403 15:29:43.836845  3152 net.cpp:399] pool2/3x3_s2_pool2/3x3_s2_0_split -> pool2/3x3_s2_pool2/3x3_s2_0_split_0
I0403 15:29:43.836863  3152 net.cpp:399] pool2/3x3_s2_pool2/3x3_s2_0_split -> pool2/3x3_s2_pool2/3x3_s2_0_split_1
I0403 15:29:43.836882  3152 net.cpp:399] pool2/3x3_s2_pool2/3x3_s2_0_split -> pool2/3x3_s2_pool2/3x3_s2_0_split_2
I0403 15:29:43.836904  3152 net.cpp:399] pool2/3x3_s2_pool2/3x3_s2_0_split -> pool2/3x3_s2_pool2/3x3_s2_0_split_3
I0403 15:29:43.836974  3152 net.cpp:141] Setting up pool2/3x3_s2_pool2/3x3_s2_0_split
I0403 15:29:43.836997  3152 net.cpp:148] Top shape: 24 192 28 28 (3612672)
I0403 15:29:43.837013  3152 net.cpp:148] Top shape: 24 192 28 28 (3612672)
I0403 15:29:43.837028  3152 net.cpp:148] Top shape: 24 192 28 28 (3612672)
I0403 15:29:43.837043  3152 net.cpp:148] Top shape: 24 192 28 28 (3612672)
I0403 15:29:43.837056  3152 net.cpp:156] Memory required for data: 491324448
I0403 15:29:43.837070  3152 layer_factory.hpp:77] Creating layer inception_3a/1x1
I0403 15:29:43.837092  3152 net.cpp:91] Creating Layer inception_3a/1x1
I0403 15:29:43.837110  3152 net.cpp:425] inception_3a/1x1 <- pool2/3x3_s2_pool2/3x3_s2_0_split_0
I0403 15:29:43.837131  3152 net.cpp:399] inception_3a/1x1 -> inception_3a/1x1
I0403 15:29:43.838631  3152 net.cpp:141] Setting up inception_3a/1x1
I0403 15:29:43.838660  3152 net.cpp:148] Top shape: 24 64 28 28 (1204224)
I0403 15:29:43.838676  3152 net.cpp:156] Memory required for data: 496141344
I0403 15:29:43.838695  3152 layer_factory.hpp:77] Creating layer inception_3a/relu_1x1
I0403 15:29:43.838712  3152 net.cpp:91] Creating Layer inception_3a/relu_1x1
I0403 15:29:43.838728  3152 net.cpp:425] inception_3a/relu_1x1 <- inception_3a/1x1
I0403 15:29:43.838748  3152 net.cpp:386] inception_3a/relu_1x1 -> inception_3a/1x1 (in-place)
I0403 15:29:43.838915  3152 net.cpp:141] Setting up inception_3a/relu_1x1
I0403 15:29:43.838940  3152 net.cpp:148] Top shape: 24 64 28 28 (1204224)
I0403 15:29:43.838955  3152 net.cpp:156] Memory required for data: 500958240
I0403 15:29:43.838969  3152 layer_factory.hpp:77] Creating layer inception_3a/3x3_reduce
I0403 15:29:43.838991  3152 net.cpp:91] Creating Layer inception_3a/3x3_reduce
I0403 15:29:43.839009  3152 net.cpp:425] inception_3a/3x3_reduce <- pool2/3x3_s2_pool2/3x3_s2_0_split_1
I0403 15:29:43.839031  3152 net.cpp:399] inception_3a/3x3_reduce -> inception_3a/3x3_reduce
I0403 15:29:43.840704  3152 net.cpp:141] Setting up inception_3a/3x3_reduce
I0403 15:29:43.840734  3152 net.cpp:148] Top shape: 24 96 28 28 (1806336)
I0403 15:29:43.840749  3152 net.cpp:156] Memory required for data: 508183584
I0403 15:29:43.840770  3152 layer_factory.hpp:77] Creating layer inception_3a/relu_3x3_reduce
I0403 15:29:43.840806  3152 net.cpp:91] Creating Layer inception_3a/relu_3x3_reduce
I0403 15:29:43.840824  3152 net.cpp:425] inception_3a/relu_3x3_reduce <- inception_3a/3x3_reduce
I0403 15:29:43.840842  3152 net.cpp:386] inception_3a/relu_3x3_reduce -> inception_3a/3x3_reduce (in-place)
I0403 15:29:43.841015  3152 net.cpp:141] Setting up inception_3a/relu_3x3_reduce
I0403 15:29:43.841042  3152 net.cpp:148] Top shape: 24 96 28 28 (1806336)
I0403 15:29:43.841058  3152 net.cpp:156] Memory required for data: 515408928
I0403 15:29:43.841073  3152 layer_factory.hpp:77] Creating layer inception_3a/3x3
I0403 15:29:43.841096  3152 net.cpp:91] Creating Layer inception_3a/3x3
I0403 15:29:43.841114  3152 net.cpp:425] inception_3a/3x3 <- inception_3a/3x3_reduce
I0403 15:29:43.841132  3152 net.cpp:399] inception_3a/3x3 -> inception_3a/3x3
I0403 15:29:43.842793  3152 net.cpp:141] Setting up inception_3a/3x3
I0403 15:29:43.842821  3152 net.cpp:148] Top shape: 24 128 28 28 (2408448)
I0403 15:29:43.842838  3152 net.cpp:156] Memory required for data: 525042720
I0403 15:29:43.842855  3152 layer_factory.hpp:77] Creating layer inception_3a/relu_3x3
I0403 15:29:43.842874  3152 net.cpp:91] Creating Layer inception_3a/relu_3x3
I0403 15:29:43.842888  3152 net.cpp:425] inception_3a/relu_3x3 <- inception_3a/3x3
I0403 15:29:43.842910  3152 net.cpp:386] inception_3a/relu_3x3 -> inception_3a/3x3 (in-place)
I0403 15:29:43.843180  3152 net.cpp:141] Setting up inception_3a/relu_3x3
I0403 15:29:43.843206  3152 net.cpp:148] Top shape: 24 128 28 28 (2408448)
I0403 15:29:43.843226  3152 net.cpp:156] Memory required for data: 534676512
I0403 15:29:43.843242  3152 layer_factory.hpp:77] Creating layer inception_3a/5x5_reduce
I0403 15:29:43.843266  3152 net.cpp:91] Creating Layer inception_3a/5x5_reduce
I0403 15:29:43.843281  3152 net.cpp:425] inception_3a/5x5_reduce <- pool2/3x3_s2_pool2/3x3_s2_0_split_2
I0403 15:29:43.843302  3152 net.cpp:399] inception_3a/5x5_reduce -> inception_3a/5x5_reduce
I0403 15:29:43.844247  3152 net.cpp:141] Setting up inception_3a/5x5_reduce
I0403 15:29:43.844275  3152 net.cpp:148] Top shape: 24 16 28 28 (301056)
I0403 15:29:43.844290  3152 net.cpp:156] Memory required for data: 535880736
I0403 15:29:43.844310  3152 layer_factory.hpp:77] Creating layer inception_3a/relu_5x5_reduce
I0403 15:29:43.844329  3152 net.cpp:91] Creating Layer inception_3a/relu_5x5_reduce
I0403 15:29:43.844346  3152 net.cpp:425] inception_3a/relu_5x5_reduce <- inception_3a/5x5_reduce
I0403 15:29:43.844362  3152 net.cpp:386] inception_3a/relu_5x5_reduce -> inception_3a/5x5_reduce (in-place)
I0403 15:29:43.844656  3152 net.cpp:141] Setting up inception_3a/relu_5x5_reduce
I0403 15:29:43.844681  3152 net.cpp:148] Top shape: 24 16 28 28 (301056)
I0403 15:29:43.844696  3152 net.cpp:156] Memory required for data: 537084960
I0403 15:29:43.844712  3152 layer_factory.hpp:77] Creating layer inception_3a/5x5
I0403 15:29:43.844734  3152 net.cpp:91] Creating Layer inception_3a/5x5
I0403 15:29:43.844750  3152 net.cpp:425] inception_3a/5x5 <- inception_3a/5x5_reduce
I0403 15:29:43.844769  3152 net.cpp:399] inception_3a/5x5 -> inception_3a/5x5
I0403 15:29:43.845768  3152 net.cpp:141] Setting up inception_3a/5x5
I0403 15:29:43.845796  3152 net.cpp:148] Top shape: 24 32 28 28 (602112)
I0403 15:29:43.845811  3152 net.cpp:156] Memory required for data: 539493408
I0403 15:29:43.845829  3152 layer_factory.hpp:77] Creating layer inception_3a/relu_5x5
I0403 15:29:43.845847  3152 net.cpp:91] Creating Layer inception_3a/relu_5x5
I0403 15:29:43.845862  3152 net.cpp:425] inception_3a/relu_5x5 <- inception_3a/5x5
I0403 15:29:43.845881  3152 net.cpp:386] inception_3a/relu_5x5 -> inception_3a/5x5 (in-place)
I0403 15:29:43.846055  3152 net.cpp:141] Setting up inception_3a/relu_5x5
I0403 15:29:43.846079  3152 net.cpp:148] Top shape: 24 32 28 28 (602112)
I0403 15:29:43.846094  3152 net.cpp:156] Memory required for data: 541901856
I0403 15:29:43.846109  3152 layer_factory.hpp:77] Creating layer inception_3a/pool
I0403 15:29:43.846130  3152 net.cpp:91] Creating Layer inception_3a/pool
I0403 15:29:43.846159  3152 net.cpp:425] inception_3a/pool <- pool2/3x3_s2_pool2/3x3_s2_0_split_3
I0403 15:29:43.846179  3152 net.cpp:399] inception_3a/pool -> inception_3a/pool
I0403 15:29:43.846240  3152 net.cpp:141] Setting up inception_3a/pool
I0403 15:29:43.846264  3152 net.cpp:148] Top shape: 24 192 28 28 (3612672)
I0403 15:29:43.846278  3152 net.cpp:156] Memory required for data: 556352544
I0403 15:29:43.846293  3152 layer_factory.hpp:77] Creating layer inception_3a/pool_proj
I0403 15:29:43.846314  3152 net.cpp:91] Creating Layer inception_3a/pool_proj
I0403 15:29:43.846331  3152 net.cpp:425] inception_3a/pool_proj <- inception_3a/pool
I0403 15:29:43.846354  3152 net.cpp:399] inception_3a/pool_proj -> inception_3a/pool_proj
I0403 15:29:43.847317  3152 net.cpp:141] Setting up inception_3a/pool_proj
I0403 15:29:43.847347  3152 net.cpp:148] Top shape: 24 32 28 28 (602112)
I0403 15:29:43.847363  3152 net.cpp:156] Memory required for data: 558760992
I0403 15:29:43.847384  3152 layer_factory.hpp:77] Creating layer inception_3a/relu_pool_proj
I0403 15:29:43.847405  3152 net.cpp:91] Creating Layer inception_3a/relu_pool_proj
I0403 15:29:43.847421  3152 net.cpp:425] inception_3a/relu_pool_proj <- inception_3a/pool_proj
I0403 15:29:43.847440  3152 net.cpp:386] inception_3a/relu_pool_proj -> inception_3a/pool_proj (in-place)
I0403 15:29:43.847718  3152 net.cpp:141] Setting up inception_3a/relu_pool_proj
I0403 15:29:43.847744  3152 net.cpp:148] Top shape: 24 32 28 28 (602112)
I0403 15:29:43.847759  3152 net.cpp:156] Memory required for data: 561169440
I0403 15:29:43.847774  3152 layer_factory.hpp:77] Creating layer inception_3a/output
I0403 15:29:43.847792  3152 net.cpp:91] Creating Layer inception_3a/output
I0403 15:29:43.847807  3152 net.cpp:425] inception_3a/output <- inception_3a/1x1
I0403 15:29:43.847823  3152 net.cpp:425] inception_3a/output <- inception_3a/3x3
I0403 15:29:43.847839  3152 net.cpp:425] inception_3a/output <- inception_3a/5x5
I0403 15:29:43.847856  3152 net.cpp:425] inception_3a/output <- inception_3a/pool_proj
I0403 15:29:43.847873  3152 net.cpp:399] inception_3a/output -> inception_3a/output
I0403 15:29:43.847919  3152 net.cpp:141] Setting up inception_3a/output
I0403 15:29:43.847944  3152 net.cpp:148] Top shape: 24 256 28 28 (4816896)
I0403 15:29:43.847959  3152 net.cpp:156] Memory required for data: 580437024
I0403 15:29:43.847975  3152 layer_factory.hpp:77] Creating layer inception_3a/output_inception_3a/output_0_split
I0403 15:29:43.847990  3152 net.cpp:91] Creating Layer inception_3a/output_inception_3a/output_0_split
I0403 15:29:43.848017  3152 net.cpp:425] inception_3a/output_inception_3a/output_0_split <- inception_3a/output
I0403 15:29:43.848033  3152 net.cpp:399] inception_3a/output_inception_3a/output_0_split -> inception_3a/output_inception_3a/output_0_split_0
I0403 15:29:43.848054  3152 net.cpp:399] inception_3a/output_inception_3a/output_0_split -> inception_3a/output_inception_3a/output_0_split_1
I0403 15:29:43.848076  3152 net.cpp:399] inception_3a/output_inception_3a/output_0_split -> inception_3a/output_inception_3a/output_0_split_2
I0403 15:29:43.848095  3152 net.cpp:399] inception_3a/output_inception_3a/output_0_split -> inception_3a/output_inception_3a/output_0_split_3
I0403 15:29:43.848167  3152 net.cpp:141] Setting up inception_3a/output_inception_3a/output_0_split
I0403 15:29:43.848191  3152 net.cpp:148] Top shape: 24 256 28 28 (4816896)
I0403 15:29:43.848211  3152 net.cpp:148] Top shape: 24 256 28 28 (4816896)
I0403 15:29:43.848227  3152 net.cpp:148] Top shape: 24 256 28 28 (4816896)
I0403 15:29:43.848242  3152 net.cpp:148] Top shape: 24 256 28 28 (4816896)
I0403 15:29:43.848255  3152 net.cpp:156] Memory required for data: 657507360
I0403 15:29:43.848269  3152 layer_factory.hpp:77] Creating layer inception_3b/1x1
I0403 15:29:43.848290  3152 net.cpp:91] Creating Layer inception_3b/1x1
I0403 15:29:43.848306  3152 net.cpp:425] inception_3b/1x1 <- inception_3a/output_inception_3a/output_0_split_0
I0403 15:29:43.848328  3152 net.cpp:399] inception_3b/1x1 -> inception_3b/1x1
I0403 15:29:43.849411  3152 net.cpp:141] Setting up inception_3b/1x1
I0403 15:29:43.849453  3152 net.cpp:148] Top shape: 24 128 28 28 (2408448)
I0403 15:29:43.849469  3152 net.cpp:156] Memory required for data: 667141152
I0403 15:29:43.849486  3152 layer_factory.hpp:77] Creating layer inception_3b/relu_1x1
I0403 15:29:43.849504  3152 net.cpp:91] Creating Layer inception_3b/relu_1x1
I0403 15:29:43.849519  3152 net.cpp:425] inception_3b/relu_1x1 <- inception_3b/1x1
I0403 15:29:43.849539  3152 net.cpp:386] inception_3b/relu_1x1 -> inception_3b/1x1 (in-place)
I0403 15:29:43.849704  3152 net.cpp:141] Setting up inception_3b/relu_1x1
I0403 15:29:43.849727  3152 net.cpp:148] Top shape: 24 128 28 28 (2408448)
I0403 15:29:43.849743  3152 net.cpp:156] Memory required for data: 676774944
I0403 15:29:43.849757  3152 layer_factory.hpp:77] Creating layer inception_3b/3x3_reduce
I0403 15:29:43.849779  3152 net.cpp:91] Creating Layer inception_3b/3x3_reduce
I0403 15:29:43.849797  3152 net.cpp:425] inception_3b/3x3_reduce <- inception_3a/output_inception_3a/output_0_split_1
I0403 15:29:43.849817  3152 net.cpp:399] inception_3b/3x3_reduce -> inception_3b/3x3_reduce
I0403 15:29:43.850898  3152 net.cpp:141] Setting up inception_3b/3x3_reduce
I0403 15:29:43.850927  3152 net.cpp:148] Top shape: 24 128 28 28 (2408448)
I0403 15:29:43.850942  3152 net.cpp:156] Memory required for data: 686408736
I0403 15:29:43.850960  3152 layer_factory.hpp:77] Creating layer inception_3b/relu_3x3_reduce
I0403 15:29:43.850976  3152 net.cpp:91] Creating Layer inception_3b/relu_3x3_reduce
I0403 15:29:43.850991  3152 net.cpp:425] inception_3b/relu_3x3_reduce <- inception_3b/3x3_reduce
I0403 15:29:43.851009  3152 net.cpp:386] inception_3b/relu_3x3_reduce -> inception_3b/3x3_reduce (in-place)
I0403 15:29:43.851189  3152 net.cpp:141] Setting up inception_3b/relu_3x3_reduce
I0403 15:29:43.851233  3152 net.cpp:148] Top shape: 24 128 28 28 (2408448)
I0403 15:29:43.851249  3152 net.cpp:156] Memory required for data: 696042528
I0403 15:29:43.851264  3152 layer_factory.hpp:77] Creating layer inception_3b/3x3
I0403 15:29:43.851299  3152 net.cpp:91] Creating Layer inception_3b/3x3
I0403 15:29:43.851316  3152 net.cpp:425] inception_3b/3x3 <- inception_3b/3x3_reduce
I0403 15:29:43.851336  3152 net.cpp:399] inception_3b/3x3 -> inception_3b/3x3
I0403 15:29:43.854250  3152 net.cpp:141] Setting up inception_3b/3x3
I0403 15:29:43.854279  3152 net.cpp:148] Top shape: 24 192 28 28 (3612672)
I0403 15:29:43.854293  3152 net.cpp:156] Memory required for data: 710493216
I0403 15:29:43.854311  3152 layer_factory.hpp:77] Creating layer inception_3b/relu_3x3
I0403 15:29:43.854329  3152 net.cpp:91] Creating Layer inception_3b/relu_3x3
I0403 15:29:43.854344  3152 net.cpp:425] inception_3b/relu_3x3 <- inception_3b/3x3
I0403 15:29:43.854364  3152 net.cpp:386] inception_3b/relu_3x3 -> inception_3b/3x3 (in-place)
I0403 15:29:43.854636  3152 net.cpp:141] Setting up inception_3b/relu_3x3
I0403 15:29:43.854662  3152 net.cpp:148] Top shape: 24 192 28 28 (3612672)
I0403 15:29:43.854677  3152 net.cpp:156] Memory required for data: 724943904
I0403 15:29:43.854691  3152 layer_factory.hpp:77] Creating layer inception_3b/5x5_reduce
I0403 15:29:43.854714  3152 net.cpp:91] Creating Layer inception_3b/5x5_reduce
I0403 15:29:43.854732  3152 net.cpp:425] inception_3b/5x5_reduce <- inception_3a/output_inception_3a/output_0_split_2
I0403 15:29:43.854753  3152 net.cpp:399] inception_3b/5x5_reduce -> inception_3b/5x5_reduce
I0403 15:29:43.855770  3152 net.cpp:141] Setting up inception_3b/5x5_reduce
I0403 15:29:43.855798  3152 net.cpp:148] Top shape: 24 32 28 28 (602112)
I0403 15:29:43.855813  3152 net.cpp:156] Memory required for data: 727352352
I0403 15:29:43.855831  3152 layer_factory.hpp:77] Creating layer inception_3b/relu_5x5_reduce
I0403 15:29:43.855849  3152 net.cpp:91] Creating Layer inception_3b/relu_5x5_reduce
I0403 15:29:43.855865  3152 net.cpp:425] inception_3b/relu_5x5_reduce <- inception_3b/5x5_reduce
I0403 15:29:43.855885  3152 net.cpp:386] inception_3b/relu_5x5_reduce -> inception_3b/5x5_reduce (in-place)
I0403 15:29:43.856070  3152 net.cpp:141] Setting up inception_3b/relu_5x5_reduce
I0403 15:29:43.856094  3152 net.cpp:148] Top shape: 24 32 28 28 (602112)
I0403 15:29:43.856108  3152 net.cpp:156] Memory required for data: 729760800
I0403 15:29:43.856123  3152 layer_factory.hpp:77] Creating layer inception_3b/5x5
I0403 15:29:43.856145  3152 net.cpp:91] Creating Layer inception_3b/5x5
I0403 15:29:43.856163  3152 net.cpp:425] inception_3b/5x5 <- inception_3b/5x5_reduce
I0403 15:29:43.856185  3152 net.cpp:399] inception_3b/5x5 -> inception_3b/5x5
I0403 15:29:43.858194  3152 net.cpp:141] Setting up inception_3b/5x5
I0403 15:29:43.858230  3152 net.cpp:148] Top shape: 24 96 28 28 (1806336)
I0403 15:29:43.858247  3152 net.cpp:156] Memory required for data: 736986144
I0403 15:29:43.858264  3152 layer_factory.hpp:77] Creating layer inception_3b/relu_5x5
I0403 15:29:43.858283  3152 net.cpp:91] Creating Layer inception_3b/relu_5x5
I0403 15:29:43.858299  3152 net.cpp:425] inception_3b/relu_5x5 <- inception_3b/5x5
I0403 15:29:43.858317  3152 net.cpp:386] inception_3b/relu_5x5 -> inception_3b/5x5 (in-place)
I0403 15:29:43.858515  3152 net.cpp:141] Setting up inception_3b/relu_5x5
I0403 15:29:43.858539  3152 net.cpp:148] Top shape: 24 96 28 28 (1806336)
I0403 15:29:43.858553  3152 net.cpp:156] Memory required for data: 744211488
I0403 15:29:43.858568  3152 layer_factory.hpp:77] Creating layer inception_3b/pool
I0403 15:29:43.858587  3152 net.cpp:91] Creating Layer inception_3b/pool
I0403 15:29:43.858602  3152 net.cpp:425] inception_3b/pool <- inception_3a/output_inception_3a/output_0_split_3
I0403 15:29:43.858618  3152 net.cpp:399] inception_3b/pool -> inception_3b/pool
I0403 15:29:43.858676  3152 net.cpp:141] Setting up inception_3b/pool
I0403 15:29:43.858698  3152 net.cpp:148] Top shape: 24 256 28 28 (4816896)
I0403 15:29:43.858712  3152 net.cpp:156] Memory required for data: 763479072
I0403 15:29:43.858727  3152 layer_factory.hpp:77] Creating layer inception_3b/pool_proj
I0403 15:29:43.858748  3152 net.cpp:91] Creating Layer inception_3b/pool_proj
I0403 15:29:43.858765  3152 net.cpp:425] inception_3b/pool_proj <- inception_3b/pool
I0403 15:29:43.858786  3152 net.cpp:399] inception_3b/pool_proj -> inception_3b/pool_proj
I0403 15:29:43.859841  3152 net.cpp:141] Setting up inception_3b/pool_proj
I0403 15:29:43.859869  3152 net.cpp:148] Top shape: 24 64 28 28 (1204224)
I0403 15:29:43.859884  3152 net.cpp:156] Memory required for data: 768295968
I0403 15:29:43.859902  3152 layer_factory.hpp:77] Creating layer inception_3b/relu_pool_proj
I0403 15:29:43.859922  3152 net.cpp:91] Creating Layer inception_3b/relu_pool_proj
I0403 15:29:43.859938  3152 net.cpp:425] inception_3b/relu_pool_proj <- inception_3b/pool_proj
I0403 15:29:43.859956  3152 net.cpp:386] inception_3b/relu_pool_proj -> inception_3b/pool_proj (in-place)
I0403 15:29:43.860363  3152 net.cpp:141] Setting up inception_3b/relu_pool_proj
I0403 15:29:43.860389  3152 net.cpp:148] Top shape: 24 64 28 28 (1204224)
I0403 15:29:43.860404  3152 net.cpp:156] Memory required for data: 773112864
I0403 15:29:43.860419  3152 layer_factory.hpp:77] Creating layer inception_3b/output
I0403 15:29:43.860438  3152 net.cpp:91] Creating Layer inception_3b/output
I0403 15:29:43.860453  3152 net.cpp:425] inception_3b/output <- inception_3b/1x1
I0403 15:29:43.860472  3152 net.cpp:425] inception_3b/output <- inception_3b/3x3
I0403 15:29:43.860488  3152 net.cpp:425] inception_3b/output <- inception_3b/5x5
I0403 15:29:43.860504  3152 net.cpp:425] inception_3b/output <- inception_3b/pool_proj
I0403 15:29:43.860520  3152 net.cpp:399] inception_3b/output -> inception_3b/output
I0403 15:29:43.860565  3152 net.cpp:141] Setting up inception_3b/output
I0403 15:29:43.860587  3152 net.cpp:148] Top shape: 24 480 28 28 (9031680)
I0403 15:29:43.860601  3152 net.cpp:156] Memory required for data: 809239584
I0403 15:29:43.860615  3152 layer_factory.hpp:77] Creating layer pool3/3x3_s2
I0403 15:29:43.860632  3152 net.cpp:91] Creating Layer pool3/3x3_s2
I0403 15:29:43.860647  3152 net.cpp:425] pool3/3x3_s2 <- inception_3b/output
I0403 15:29:43.860682  3152 net.cpp:399] pool3/3x3_s2 -> pool3/3x3_s2
I0403 15:29:43.860739  3152 net.cpp:141] Setting up pool3/3x3_s2
I0403 15:29:43.860762  3152 net.cpp:148] Top shape: 24 480 14 14 (2257920)
I0403 15:29:43.860776  3152 net.cpp:156] Memory required for data: 818271264
I0403 15:29:43.860790  3152 layer_factory.hpp:77] Creating layer pool3/3x3_s2_pool3/3x3_s2_0_split
I0403 15:29:43.860810  3152 net.cpp:91] Creating Layer pool3/3x3_s2_pool3/3x3_s2_0_split
I0403 15:29:43.860826  3152 net.cpp:425] pool3/3x3_s2_pool3/3x3_s2_0_split <- pool3/3x3_s2
I0403 15:29:43.860841  3152 net.cpp:399] pool3/3x3_s2_pool3/3x3_s2_0_split -> pool3/3x3_s2_pool3/3x3_s2_0_split_0
I0403 15:29:43.860862  3152 net.cpp:399] pool3/3x3_s2_pool3/3x3_s2_0_split -> pool3/3x3_s2_pool3/3x3_s2_0_split_1
I0403 15:29:43.860882  3152 net.cpp:399] pool3/3x3_s2_pool3/3x3_s2_0_split -> pool3/3x3_s2_pool3/3x3_s2_0_split_2
I0403 15:29:43.860901  3152 net.cpp:399] pool3/3x3_s2_pool3/3x3_s2_0_split -> pool3/3x3_s2_pool3/3x3_s2_0_split_3
I0403 15:29:43.860975  3152 net.cpp:141] Setting up pool3/3x3_s2_pool3/3x3_s2_0_split
I0403 15:29:43.860997  3152 net.cpp:148] Top shape: 24 480 14 14 (2257920)
I0403 15:29:43.861013  3152 net.cpp:148] Top shape: 24 480 14 14 (2257920)
I0403 15:29:43.861028  3152 net.cpp:148] Top shape: 24 480 14 14 (2257920)
I0403 15:29:43.861043  3152 net.cpp:148] Top shape: 24 480 14 14 (2257920)
I0403 15:29:43.861057  3152 net.cpp:156] Memory required for data: 854397984
I0403 15:29:43.861070  3152 layer_factory.hpp:77] Creating layer inception_4a/1x1
I0403 15:29:43.861093  3152 net.cpp:91] Creating Layer inception_4a/1x1
I0403 15:29:43.861109  3152 net.cpp:425] inception_4a/1x1 <- pool3/3x3_s2_pool3/3x3_s2_0_split_0
I0403 15:29:43.861129  3152 net.cpp:399] inception_4a/1x1 -> inception_4a/1x1
I0403 15:29:43.862695  3152 net.cpp:141] Setting up inception_4a/1x1
I0403 15:29:43.862725  3152 net.cpp:148] Top shape: 24 192 14 14 (903168)
I0403 15:29:43.862740  3152 net.cpp:156] Memory required for data: 858010656
I0403 15:29:43.862758  3152 layer_factory.hpp:77] Creating layer inception_4a/relu_1x1
I0403 15:29:43.862776  3152 net.cpp:91] Creating Layer inception_4a/relu_1x1
I0403 15:29:43.862792  3152 net.cpp:425] inception_4a/relu_1x1 <- inception_4a/1x1
I0403 15:29:43.862807  3152 net.cpp:386] inception_4a/relu_1x1 -> inception_4a/1x1 (in-place)
I0403 15:29:43.862982  3152 net.cpp:141] Setting up inception_4a/relu_1x1
I0403 15:29:43.863008  3152 net.cpp:148] Top shape: 24 192 14 14 (903168)
I0403 15:29:43.863023  3152 net.cpp:156] Memory required for data: 861623328
I0403 15:29:43.863039  3152 layer_factory.hpp:77] Creating layer inception_4a/3x3_reduce
I0403 15:29:43.863064  3152 net.cpp:91] Creating Layer inception_4a/3x3_reduce
I0403 15:29:43.863081  3152 net.cpp:425] inception_4a/3x3_reduce <- pool3/3x3_s2_pool3/3x3_s2_0_split_1
I0403 15:29:43.863101  3152 net.cpp:399] inception_4a/3x3_reduce -> inception_4a/3x3_reduce
I0403 15:29:43.864378  3152 net.cpp:141] Setting up inception_4a/3x3_reduce
I0403 15:29:43.864405  3152 net.cpp:148] Top shape: 24 96 14 14 (451584)
I0403 15:29:43.864421  3152 net.cpp:156] Memory required for data: 863429664
I0403 15:29:43.864451  3152 layer_factory.hpp:77] Creating layer inception_4a/relu_3x3_reduce
I0403 15:29:43.864471  3152 net.cpp:91] Creating Layer inception_4a/relu_3x3_reduce
I0403 15:29:43.864486  3152 net.cpp:425] inception_4a/relu_3x3_reduce <- inception_4a/3x3_reduce
I0403 15:29:43.864503  3152 net.cpp:386] inception_4a/relu_3x3_reduce -> inception_4a/3x3_reduce (in-place)
I0403 15:29:43.864675  3152 net.cpp:141] Setting up inception_4a/relu_3x3_reduce
I0403 15:29:43.864701  3152 net.cpp:148] Top shape: 24 96 14 14 (451584)
I0403 15:29:43.864716  3152 net.cpp:156] Memory required for data: 865236000
I0403 15:29:43.864729  3152 layer_factory.hpp:77] Creating layer inception_4a/3x3
I0403 15:29:43.864750  3152 net.cpp:91] Creating Layer inception_4a/3x3
I0403 15:29:43.864768  3152 net.cpp:425] inception_4a/3x3 <- inception_4a/3x3_reduce
I0403 15:29:43.864786  3152 net.cpp:399] inception_4a/3x3 -> inception_4a/3x3
I0403 15:29:43.867436  3152 net.cpp:141] Setting up inception_4a/3x3
I0403 15:29:43.867465  3152 net.cpp:148] Top shape: 24 208 14 14 (978432)
I0403 15:29:43.867480  3152 net.cpp:156] Memory required for data: 869149728
I0403 15:29:43.867499  3152 layer_factory.hpp:77] Creating layer inception_4a/relu_3x3
I0403 15:29:43.867516  3152 net.cpp:91] Creating Layer inception_4a/relu_3x3
I0403 15:29:43.867532  3152 net.cpp:425] inception_4a/relu_3x3 <- inception_4a/3x3
I0403 15:29:43.867552  3152 net.cpp:386] inception_4a/relu_3x3 -> inception_4a/3x3 (in-place)
I0403 15:29:43.867835  3152 net.cpp:141] Setting up inception_4a/relu_3x3
I0403 15:29:43.867861  3152 net.cpp:148] Top shape: 24 208 14 14 (978432)
I0403 15:29:43.867876  3152 net.cpp:156] Memory required for data: 873063456
I0403 15:29:43.867890  3152 layer_factory.hpp:77] Creating layer inception_4a/5x5_reduce
I0403 15:29:43.867913  3152 net.cpp:91] Creating Layer inception_4a/5x5_reduce
I0403 15:29:43.867929  3152 net.cpp:425] inception_4a/5x5_reduce <- pool3/3x3_s2_pool3/3x3_s2_0_split_2
I0403 15:29:43.867952  3152 net.cpp:399] inception_4a/5x5_reduce -> inception_4a/5x5_reduce
I0403 15:29:43.868974  3152 net.cpp:141] Setting up inception_4a/5x5_reduce
I0403 15:29:43.869001  3152 net.cpp:148] Top shape: 24 16 14 14 (75264)
I0403 15:29:43.869017  3152 net.cpp:156] Memory required for data: 873364512
I0403 15:29:43.869035  3152 layer_factory.hpp:77] Creating layer inception_4a/relu_5x5_reduce
I0403 15:29:43.869052  3152 net.cpp:91] Creating Layer inception_4a/relu_5x5_reduce
I0403 15:29:43.869068  3152 net.cpp:425] inception_4a/relu_5x5_reduce <- inception_4a/5x5_reduce
I0403 15:29:43.869087  3152 net.cpp:386] inception_4a/relu_5x5_reduce -> inception_4a/5x5_reduce (in-place)
I0403 15:29:43.869268  3152 net.cpp:141] Setting up inception_4a/relu_5x5_reduce
I0403 15:29:43.869293  3152 net.cpp:148] Top shape: 24 16 14 14 (75264)
I0403 15:29:43.869307  3152 net.cpp:156] Memory required for data: 873665568
I0403 15:29:43.869323  3152 layer_factory.hpp:77] Creating layer inception_4a/5x5
I0403 15:29:43.869344  3152 net.cpp:91] Creating Layer inception_4a/5x5
I0403 15:29:43.869361  3152 net.cpp:425] inception_4a/5x5 <- inception_4a/5x5_reduce
I0403 15:29:43.869381  3152 net.cpp:399] inception_4a/5x5 -> inception_4a/5x5
I0403 15:29:43.870486  3152 net.cpp:141] Setting up inception_4a/5x5
I0403 15:29:43.870512  3152 net.cpp:148] Top shape: 24 48 14 14 (225792)
I0403 15:29:43.870527  3152 net.cpp:156] Memory required for data: 874568736
I0403 15:29:43.870544  3152 layer_factory.hpp:77] Creating layer inception_4a/relu_5x5
I0403 15:29:43.870564  3152 net.cpp:91] Creating Layer inception_4a/relu_5x5
I0403 15:29:43.870580  3152 net.cpp:425] inception_4a/relu_5x5 <- inception_4a/5x5
I0403 15:29:43.870596  3152 net.cpp:386] inception_4a/relu_5x5 -> inception_4a/5x5 (in-place)
I0403 15:29:43.870771  3152 net.cpp:141] Setting up inception_4a/relu_5x5
I0403 15:29:43.870796  3152 net.cpp:148] Top shape: 24 48 14 14 (225792)
I0403 15:29:43.870810  3152 net.cpp:156] Memory required for data: 875471904
I0403 15:29:43.870826  3152 layer_factory.hpp:77] Creating layer inception_4a/pool
I0403 15:29:43.870842  3152 net.cpp:91] Creating Layer inception_4a/pool
I0403 15:29:43.870857  3152 net.cpp:425] inception_4a/pool <- pool3/3x3_s2_pool3/3x3_s2_0_split_3
I0403 15:29:43.870873  3152 net.cpp:399] inception_4a/pool -> inception_4a/pool
I0403 15:29:43.870932  3152 net.cpp:141] Setting up inception_4a/pool
I0403 15:29:43.870954  3152 net.cpp:148] Top shape: 24 480 14 14 (2257920)
I0403 15:29:43.870968  3152 net.cpp:156] Memory required for data: 884503584
I0403 15:29:43.870982  3152 layer_factory.hpp:77] Creating layer inception_4a/pool_proj
I0403 15:29:43.871003  3152 net.cpp:91] Creating Layer inception_4a/pool_proj
I0403 15:29:43.871021  3152 net.cpp:425] inception_4a/pool_proj <- inception_4a/pool
I0403 15:29:43.871040  3152 net.cpp:399] inception_4a/pool_proj -> inception_4a/pool_proj
I0403 15:29:43.872174  3152 net.cpp:141] Setting up inception_4a/pool_proj
I0403 15:29:43.872200  3152 net.cpp:148] Top shape: 24 64 14 14 (301056)
I0403 15:29:43.872234  3152 net.cpp:156] Memory required for data: 885707808
I0403 15:29:43.872252  3152 layer_factory.hpp:77] Creating layer inception_4a/relu_pool_proj
I0403 15:29:43.872273  3152 net.cpp:91] Creating Layer inception_4a/relu_pool_proj
I0403 15:29:43.872289  3152 net.cpp:425] inception_4a/relu_pool_proj <- inception_4a/pool_proj
I0403 15:29:43.872305  3152 net.cpp:386] inception_4a/relu_pool_proj -> inception_4a/pool_proj (in-place)
I0403 15:29:43.872576  3152 net.cpp:141] Setting up inception_4a/relu_pool_proj
I0403 15:29:43.872601  3152 net.cpp:148] Top shape: 24 64 14 14 (301056)
I0403 15:29:43.872616  3152 net.cpp:156] Memory required for data: 886912032
I0403 15:29:43.872629  3152 layer_factory.hpp:77] Creating layer inception_4a/output
I0403 15:29:43.872648  3152 net.cpp:91] Creating Layer inception_4a/output
I0403 15:29:43.872664  3152 net.cpp:425] inception_4a/output <- inception_4a/1x1
I0403 15:29:43.872680  3152 net.cpp:425] inception_4a/output <- inception_4a/3x3
I0403 15:29:43.872696  3152 net.cpp:425] inception_4a/output <- inception_4a/5x5
I0403 15:29:43.872711  3152 net.cpp:425] inception_4a/output <- inception_4a/pool_proj
I0403 15:29:43.872727  3152 net.cpp:399] inception_4a/output -> inception_4a/output
I0403 15:29:43.872771  3152 net.cpp:141] Setting up inception_4a/output
I0403 15:29:43.872792  3152 net.cpp:148] Top shape: 24 512 14 14 (2408448)
I0403 15:29:43.872807  3152 net.cpp:156] Memory required for data: 896545824
I0403 15:29:43.872820  3152 layer_factory.hpp:77] Creating layer inception_4a/output_inception_4a/output_0_split
I0403 15:29:43.872838  3152 net.cpp:91] Creating Layer inception_4a/output_inception_4a/output_0_split
I0403 15:29:43.872851  3152 net.cpp:425] inception_4a/output_inception_4a/output_0_split <- inception_4a/output
I0403 15:29:43.872870  3152 net.cpp:399] inception_4a/output_inception_4a/output_0_split -> inception_4a/output_inception_4a/output_0_split_0
I0403 15:29:43.872890  3152 net.cpp:399] inception_4a/output_inception_4a/output_0_split -> inception_4a/output_inception_4a/output_0_split_1
I0403 15:29:43.872910  3152 net.cpp:399] inception_4a/output_inception_4a/output_0_split -> inception_4a/output_inception_4a/output_0_split_2
I0403 15:29:43.872928  3152 net.cpp:399] inception_4a/output_inception_4a/output_0_split -> inception_4a/output_inception_4a/output_0_split_3
I0403 15:29:43.872951  3152 net.cpp:399] inception_4a/output_inception_4a/output_0_split -> inception_4a/output_inception_4a/output_0_split_4
I0403 15:29:43.873039  3152 net.cpp:141] Setting up inception_4a/output_inception_4a/output_0_split
I0403 15:29:43.873060  3152 net.cpp:148] Top shape: 24 512 14 14 (2408448)
I0403 15:29:43.873076  3152 net.cpp:148] Top shape: 24 512 14 14 (2408448)
I0403 15:29:43.873091  3152 net.cpp:148] Top shape: 24 512 14 14 (2408448)
I0403 15:29:43.873106  3152 net.cpp:148] Top shape: 24 512 14 14 (2408448)
I0403 15:29:43.873121  3152 net.cpp:148] Top shape: 24 512 14 14 (2408448)
I0403 15:29:43.873133  3152 net.cpp:156] Memory required for data: 944714784
I0403 15:29:43.873147  3152 layer_factory.hpp:77] Creating layer loss1/ave_pool
I0403 15:29:43.873163  3152 net.cpp:91] Creating Layer loss1/ave_pool
I0403 15:29:43.873178  3152 net.cpp:425] loss1/ave_pool <- inception_4a/output_inception_4a/output_0_split_0
I0403 15:29:43.873220  3152 net.cpp:399] loss1/ave_pool -> loss1/ave_pool
I0403 15:29:43.873436  3152 net.cpp:141] Setting up loss1/ave_pool
I0403 15:29:43.873461  3152 net.cpp:148] Top shape: 24 512 4 4 (196608)
I0403 15:29:43.873476  3152 net.cpp:156] Memory required for data: 945501216
I0403 15:29:43.873491  3152 layer_factory.hpp:77] Creating layer loss1/conv
I0403 15:29:43.873512  3152 net.cpp:91] Creating Layer loss1/conv
I0403 15:29:43.873529  3152 net.cpp:425] loss1/conv <- loss1/ave_pool
I0403 15:29:43.873548  3152 net.cpp:399] loss1/conv -> loss1/conv
I0403 15:29:43.874943  3152 net.cpp:141] Setting up loss1/conv
I0403 15:29:43.874970  3152 net.cpp:148] Top shape: 24 128 4 4 (49152)
I0403 15:29:43.875000  3152 net.cpp:156] Memory required for data: 945697824
I0403 15:29:43.875018  3152 layer_factory.hpp:77] Creating layer loss1/relu_conv
I0403 15:29:43.875036  3152 net.cpp:91] Creating Layer loss1/relu_conv
I0403 15:29:43.875051  3152 net.cpp:425] loss1/relu_conv <- loss1/conv
I0403 15:29:43.875072  3152 net.cpp:386] loss1/relu_conv -> loss1/conv (in-place)
I0403 15:29:43.875368  3152 net.cpp:141] Setting up loss1/relu_conv
I0403 15:29:43.875393  3152 net.cpp:148] Top shape: 24 128 4 4 (49152)
I0403 15:29:43.875407  3152 net.cpp:156] Memory required for data: 945894432
I0403 15:29:43.875422  3152 layer_factory.hpp:77] Creating layer loss1/fc
I0403 15:29:43.875447  3152 net.cpp:91] Creating Layer loss1/fc
I0403 15:29:43.875463  3152 net.cpp:425] loss1/fc <- loss1/conv
I0403 15:29:43.875483  3152 net.cpp:399] loss1/fc -> loss1/fc
I0403 15:29:43.892717  3152 net.cpp:141] Setting up loss1/fc
I0403 15:29:43.892750  3152 net.cpp:148] Top shape: 24 1024 (24576)
I0403 15:29:43.892765  3152 net.cpp:156] Memory required for data: 945992736
I0403 15:29:43.892784  3152 layer_factory.hpp:77] Creating layer loss1/relu_fc
I0403 15:29:43.892802  3152 net.cpp:91] Creating Layer loss1/relu_fc
I0403 15:29:43.892817  3152 net.cpp:425] loss1/relu_fc <- loss1/fc
I0403 15:29:43.892834  3152 net.cpp:386] loss1/relu_fc -> loss1/fc (in-place)
I0403 15:29:43.893023  3152 net.cpp:141] Setting up loss1/relu_fc
I0403 15:29:43.893048  3152 net.cpp:148] Top shape: 24 1024 (24576)
I0403 15:29:43.893061  3152 net.cpp:156] Memory required for data: 946091040
I0403 15:29:43.893076  3152 layer_factory.hpp:77] Creating layer loss1/drop_fc
I0403 15:29:43.893101  3152 net.cpp:91] Creating Layer loss1/drop_fc
I0403 15:29:43.893118  3152 net.cpp:425] loss1/drop_fc <- loss1/fc
I0403 15:29:43.893138  3152 net.cpp:386] loss1/drop_fc -> loss1/fc (in-place)
I0403 15:29:43.893189  3152 net.cpp:141] Setting up loss1/drop_fc
I0403 15:29:43.893219  3152 net.cpp:148] Top shape: 24 1024 (24576)
I0403 15:29:43.893236  3152 net.cpp:156] Memory required for data: 946189344
I0403 15:29:43.893251  3152 layer_factory.hpp:77] Creating layer loss1/classifier_plantvillage
I0403 15:29:43.893275  3152 net.cpp:91] Creating Layer loss1/classifier_plantvillage
I0403 15:29:43.893291  3152 net.cpp:425] loss1/classifier_plantvillage <- loss1/fc
I0403 15:29:43.893308  3152 net.cpp:399] loss1/classifier_plantvillage -> loss1/classifier_plantvillage
I0403 15:29:43.894249  3152 net.cpp:141] Setting up loss1/classifier_plantvillage
I0403 15:29:43.894279  3152 net.cpp:148] Top shape: 24 38 (912)
I0403 15:29:43.894295  3152 net.cpp:156] Memory required for data: 946192992
I0403 15:29:43.894314  3152 layer_factory.hpp:77] Creating layer loss1/classifier_plantvillage_loss1/classifier_plantvillage_0_split
I0403 15:29:43.894331  3152 net.cpp:91] Creating Layer loss1/classifier_plantvillage_loss1/classifier_plantvillage_0_split
I0403 15:29:43.894346  3152 net.cpp:425] loss1/classifier_plantvillage_loss1/classifier_plantvillage_0_split <- loss1/classifier_plantvillage
I0403 15:29:43.894364  3152 net.cpp:399] loss1/classifier_plantvillage_loss1/classifier_plantvillage_0_split -> loss1/classifier_plantvillage_loss1/classifier_plantvillage_0_split_0
I0403 15:29:43.894386  3152 net.cpp:399] loss1/classifier_plantvillage_loss1/classifier_plantvillage_0_split -> loss1/classifier_plantvillage_loss1/classifier_plantvillage_0_split_1
I0403 15:29:43.894407  3152 net.cpp:399] loss1/classifier_plantvillage_loss1/classifier_plantvillage_0_split -> loss1/classifier_plantvillage_loss1/classifier_plantvillage_0_split_2
I0403 15:29:43.894472  3152 net.cpp:141] Setting up loss1/classifier_plantvillage_loss1/classifier_plantvillage_0_split
I0403 15:29:43.894500  3152 net.cpp:148] Top shape: 24 38 (912)
I0403 15:29:43.894515  3152 net.cpp:148] Top shape: 24 38 (912)
I0403 15:29:43.894531  3152 net.cpp:148] Top shape: 24 38 (912)
I0403 15:29:43.894544  3152 net.cpp:156] Memory required for data: 946203936
I0403 15:29:43.894558  3152 layer_factory.hpp:77] Creating layer inception_4b/1x1
I0403 15:29:43.894578  3152 net.cpp:91] Creating Layer inception_4b/1x1
I0403 15:29:43.894610  3152 net.cpp:425] inception_4b/1x1 <- inception_4a/output_inception_4a/output_0_split_1
I0403 15:29:43.894632  3152 net.cpp:399] inception_4b/1x1 -> inception_4b/1x1
I0403 15:29:43.896282  3152 net.cpp:141] Setting up inception_4b/1x1
I0403 15:29:43.896309  3152 net.cpp:148] Top shape: 24 160 14 14 (752640)
I0403 15:29:43.896327  3152 net.cpp:156] Memory required for data: 949214496
I0403 15:29:43.896344  3152 layer_factory.hpp:77] Creating layer inception_4b/relu_1x1
I0403 15:29:43.896363  3152 net.cpp:91] Creating Layer inception_4b/relu_1x1
I0403 15:29:43.896378  3152 net.cpp:425] inception_4b/relu_1x1 <- inception_4b/1x1
I0403 15:29:43.896397  3152 net.cpp:386] inception_4b/relu_1x1 -> inception_4b/1x1 (in-place)
I0403 15:29:43.896574  3152 net.cpp:141] Setting up inception_4b/relu_1x1
I0403 15:29:43.896598  3152 net.cpp:148] Top shape: 24 160 14 14 (752640)
I0403 15:29:43.896612  3152 net.cpp:156] Memory required for data: 952225056
I0403 15:29:43.896627  3152 layer_factory.hpp:77] Creating layer inception_4b/3x3_reduce
I0403 15:29:43.896652  3152 net.cpp:91] Creating Layer inception_4b/3x3_reduce
I0403 15:29:43.896669  3152 net.cpp:425] inception_4b/3x3_reduce <- inception_4a/output_inception_4a/output_0_split_2
I0403 15:29:43.896692  3152 net.cpp:399] inception_4b/3x3_reduce -> inception_4b/3x3_reduce
I0403 15:29:43.898108  3152 net.cpp:141] Setting up inception_4b/3x3_reduce
I0403 15:29:43.898136  3152 net.cpp:148] Top shape: 24 112 14 14 (526848)
I0403 15:29:43.898151  3152 net.cpp:156] Memory required for data: 954332448
I0403 15:29:43.898170  3152 layer_factory.hpp:77] Creating layer inception_4b/relu_3x3_reduce
I0403 15:29:43.898192  3152 net.cpp:91] Creating Layer inception_4b/relu_3x3_reduce
I0403 15:29:43.898213  3152 net.cpp:425] inception_4b/relu_3x3_reduce <- inception_4b/3x3_reduce
I0403 15:29:43.898232  3152 net.cpp:386] inception_4b/relu_3x3_reduce -> inception_4b/3x3_reduce (in-place)
I0403 15:29:43.898524  3152 net.cpp:141] Setting up inception_4b/relu_3x3_reduce
I0403 15:29:43.898550  3152 net.cpp:148] Top shape: 24 112 14 14 (526848)
I0403 15:29:43.898566  3152 net.cpp:156] Memory required for data: 956439840
I0403 15:29:43.898581  3152 layer_factory.hpp:77] Creating layer inception_4b/3x3
I0403 15:29:43.898603  3152 net.cpp:91] Creating Layer inception_4b/3x3
I0403 15:29:43.898622  3152 net.cpp:425] inception_4b/3x3 <- inception_4b/3x3_reduce
I0403 15:29:43.898643  3152 net.cpp:399] inception_4b/3x3 -> inception_4b/3x3
I0403 15:29:43.901706  3152 net.cpp:141] Setting up inception_4b/3x3
I0403 15:29:43.901738  3152 net.cpp:148] Top shape: 24 224 14 14 (1053696)
I0403 15:29:43.901756  3152 net.cpp:156] Memory required for data: 960654624
I0403 15:29:43.901774  3152 layer_factory.hpp:77] Creating layer inception_4b/relu_3x3
I0403 15:29:43.901793  3152 net.cpp:91] Creating Layer inception_4b/relu_3x3
I0403 15:29:43.901808  3152 net.cpp:425] inception_4b/relu_3x3 <- inception_4b/3x3
I0403 15:29:43.901826  3152 net.cpp:386] inception_4b/relu_3x3 -> inception_4b/3x3 (in-place)
I0403 15:29:43.902012  3152 net.cpp:141] Setting up inception_4b/relu_3x3
I0403 15:29:43.902039  3152 net.cpp:148] Top shape: 24 224 14 14 (1053696)
I0403 15:29:43.902053  3152 net.cpp:156] Memory required for data: 964869408
I0403 15:29:43.902067  3152 layer_factory.hpp:77] Creating layer inception_4b/5x5_reduce
I0403 15:29:43.902091  3152 net.cpp:91] Creating Layer inception_4b/5x5_reduce
I0403 15:29:43.902109  3152 net.cpp:425] inception_4b/5x5_reduce <- inception_4a/output_inception_4a/output_0_split_3
I0403 15:29:43.902130  3152 net.cpp:399] inception_4b/5x5_reduce -> inception_4b/5x5_reduce
I0403 15:29:43.903252  3152 net.cpp:141] Setting up inception_4b/5x5_reduce
I0403 15:29:43.903281  3152 net.cpp:148] Top shape: 24 24 14 14 (112896)
I0403 15:29:43.903297  3152 net.cpp:156] Memory required for data: 965320992
I0403 15:29:43.903316  3152 layer_factory.hpp:77] Creating layer inception_4b/relu_5x5_reduce
I0403 15:29:43.903337  3152 net.cpp:91] Creating Layer inception_4b/relu_5x5_reduce
I0403 15:29:43.903368  3152 net.cpp:425] inception_4b/relu_5x5_reduce <- inception_4b/5x5_reduce
I0403 15:29:43.903386  3152 net.cpp:386] inception_4b/relu_5x5_reduce -> inception_4b/5x5_reduce (in-place)
I0403 15:29:43.903573  3152 net.cpp:141] Setting up inception_4b/relu_5x5_reduce
I0403 15:29:43.903599  3152 net.cpp:148] Top shape: 24 24 14 14 (112896)
I0403 15:29:43.903614  3152 net.cpp:156] Memory required for data: 965772576
I0403 15:29:43.903630  3152 layer_factory.hpp:77] Creating layer inception_4b/5x5
I0403 15:29:43.903652  3152 net.cpp:91] Creating Layer inception_4b/5x5
I0403 15:29:43.903672  3152 net.cpp:425] inception_4b/5x5 <- inception_4b/5x5_reduce
I0403 15:29:43.903692  3152 net.cpp:399] inception_4b/5x5 -> inception_4b/5x5
I0403 15:29:43.904954  3152 net.cpp:141] Setting up inception_4b/5x5
I0403 15:29:43.904983  3152 net.cpp:148] Top shape: 24 64 14 14 (301056)
I0403 15:29:43.904999  3152 net.cpp:156] Memory required for data: 966976800
I0403 15:29:43.905017  3152 layer_factory.hpp:77] Creating layer inception_4b/relu_5x5
I0403 15:29:43.905035  3152 net.cpp:91] Creating Layer inception_4b/relu_5x5
I0403 15:29:43.905051  3152 net.cpp:425] inception_4b/relu_5x5 <- inception_4b/5x5
I0403 15:29:43.905071  3152 net.cpp:386] inception_4b/relu_5x5 -> inception_4b/5x5 (in-place)
I0403 15:29:43.905369  3152 net.cpp:141] Setting up inception_4b/relu_5x5
I0403 15:29:43.905396  3152 net.cpp:148] Top shape: 24 64 14 14 (301056)
I0403 15:29:43.905411  3152 net.cpp:156] Memory required for data: 968181024
I0403 15:29:43.905426  3152 layer_factory.hpp:77] Creating layer inception_4b/pool
I0403 15:29:43.905447  3152 net.cpp:91] Creating Layer inception_4b/pool
I0403 15:29:43.905462  3152 net.cpp:425] inception_4b/pool <- inception_4a/output_inception_4a/output_0_split_4
I0403 15:29:43.905483  3152 net.cpp:399] inception_4b/pool -> inception_4b/pool
I0403 15:29:43.905550  3152 net.cpp:141] Setting up inception_4b/pool
I0403 15:29:43.905573  3152 net.cpp:148] Top shape: 24 512 14 14 (2408448)
I0403 15:29:43.905587  3152 net.cpp:156] Memory required for data: 977814816
I0403 15:29:43.905602  3152 layer_factory.hpp:77] Creating layer inception_4b/pool_proj
I0403 15:29:43.905627  3152 net.cpp:91] Creating Layer inception_4b/pool_proj
I0403 15:29:43.905644  3152 net.cpp:425] inception_4b/pool_proj <- inception_4b/pool
I0403 15:29:43.905663  3152 net.cpp:399] inception_4b/pool_proj -> inception_4b/pool_proj
I0403 15:29:43.906905  3152 net.cpp:141] Setting up inception_4b/pool_proj
I0403 15:29:43.906934  3152 net.cpp:148] Top shape: 24 64 14 14 (301056)
I0403 15:29:43.906950  3152 net.cpp:156] Memory required for data: 979019040
I0403 15:29:43.906970  3152 layer_factory.hpp:77] Creating layer inception_4b/relu_pool_proj
I0403 15:29:43.906987  3152 net.cpp:91] Creating Layer inception_4b/relu_pool_proj
I0403 15:29:43.907003  3152 net.cpp:425] inception_4b/relu_pool_proj <- inception_4b/pool_proj
I0403 15:29:43.907023  3152 net.cpp:386] inception_4b/relu_pool_proj -> inception_4b/pool_proj (in-place)
I0403 15:29:43.907212  3152 net.cpp:141] Setting up inception_4b/relu_pool_proj
I0403 15:29:43.907237  3152 net.cpp:148] Top shape: 24 64 14 14 (301056)
I0403 15:29:43.907251  3152 net.cpp:156] Memory required for data: 980223264
I0403 15:29:43.907266  3152 layer_factory.hpp:77] Creating layer inception_4b/output
I0403 15:29:43.907286  3152 net.cpp:91] Creating Layer inception_4b/output
I0403 15:29:43.907304  3152 net.cpp:425] inception_4b/output <- inception_4b/1x1
I0403 15:29:43.907320  3152 net.cpp:425] inception_4b/output <- inception_4b/3x3
I0403 15:29:43.907336  3152 net.cpp:425] inception_4b/output <- inception_4b/5x5
I0403 15:29:43.907352  3152 net.cpp:425] inception_4b/output <- inception_4b/pool_proj
I0403 15:29:43.907369  3152 net.cpp:399] inception_4b/output -> inception_4b/output
I0403 15:29:43.907418  3152 net.cpp:141] Setting up inception_4b/output
I0403 15:29:43.907444  3152 net.cpp:148] Top shape: 24 512 14 14 (2408448)
I0403 15:29:43.907459  3152 net.cpp:156] Memory required for data: 989857056
I0403 15:29:43.907493  3152 layer_factory.hpp:77] Creating layer inception_4b/output_inception_4b/output_0_split
I0403 15:29:43.907511  3152 net.cpp:91] Creating Layer inception_4b/output_inception_4b/output_0_split
I0403 15:29:43.907527  3152 net.cpp:425] inception_4b/output_inception_4b/output_0_split <- inception_4b/output
I0403 15:29:43.907547  3152 net.cpp:399] inception_4b/output_inception_4b/output_0_split -> inception_4b/output_inception_4b/output_0_split_0
I0403 15:29:43.907568  3152 net.cpp:399] inception_4b/output_inception_4b/output_0_split -> inception_4b/output_inception_4b/output_0_split_1
I0403 15:29:43.907589  3152 net.cpp:399] inception_4b/output_inception_4b/output_0_split -> inception_4b/output_inception_4b/output_0_split_2
I0403 15:29:43.907609  3152 net.cpp:399] inception_4b/output_inception_4b/output_0_split -> inception_4b/output_inception_4b/output_0_split_3
I0403 15:29:43.907693  3152 net.cpp:141] Setting up inception_4b/output_inception_4b/output_0_split
I0403 15:29:43.907719  3152 net.cpp:148] Top shape: 24 512 14 14 (2408448)
I0403 15:29:43.907737  3152 net.cpp:148] Top shape: 24 512 14 14 (2408448)
I0403 15:29:43.907752  3152 net.cpp:148] Top shape: 24 512 14 14 (2408448)
I0403 15:29:43.907768  3152 net.cpp:148] Top shape: 24 512 14 14 (2408448)
I0403 15:29:43.907781  3152 net.cpp:156] Memory required for data: 1028392224
I0403 15:29:43.907796  3152 layer_factory.hpp:77] Creating layer inception_4c/1x1
I0403 15:29:43.907819  3152 net.cpp:91] Creating Layer inception_4c/1x1
I0403 15:29:43.907836  3152 net.cpp:425] inception_4c/1x1 <- inception_4b/output_inception_4b/output_0_split_0
I0403 15:29:43.907857  3152 net.cpp:399] inception_4c/1x1 -> inception_4c/1x1
I0403 15:29:43.909380  3152 net.cpp:141] Setting up inception_4c/1x1
I0403 15:29:43.909409  3152 net.cpp:148] Top shape: 24 128 14 14 (602112)
I0403 15:29:43.909425  3152 net.cpp:156] Memory required for data: 1030800672
I0403 15:29:43.909445  3152 layer_factory.hpp:77] Creating layer inception_4c/relu_1x1
I0403 15:29:43.909466  3152 net.cpp:91] Creating Layer inception_4c/relu_1x1
I0403 15:29:43.909482  3152 net.cpp:425] inception_4c/relu_1x1 <- inception_4c/1x1
I0403 15:29:43.909499  3152 net.cpp:386] inception_4c/relu_1x1 -> inception_4c/1x1 (in-place)
I0403 15:29:43.909685  3152 net.cpp:141] Setting up inception_4c/relu_1x1
I0403 15:29:43.909713  3152 net.cpp:148] Top shape: 24 128 14 14 (602112)
I0403 15:29:43.909728  3152 net.cpp:156] Memory required for data: 1033209120
I0403 15:29:43.909744  3152 layer_factory.hpp:77] Creating layer inception_4c/3x3_reduce
I0403 15:29:43.909765  3152 net.cpp:91] Creating Layer inception_4c/3x3_reduce
I0403 15:29:43.909783  3152 net.cpp:425] inception_4c/3x3_reduce <- inception_4b/output_inception_4b/output_0_split_1
I0403 15:29:43.909803  3152 net.cpp:399] inception_4c/3x3_reduce -> inception_4c/3x3_reduce
I0403 15:29:43.911803  3152 net.cpp:141] Setting up inception_4c/3x3_reduce
I0403 15:29:43.911834  3152 net.cpp:148] Top shape: 24 128 14 14 (602112)
I0403 15:29:43.911850  3152 net.cpp:156] Memory required for data: 1035617568
I0403 15:29:43.911870  3152 layer_factory.hpp:77] Creating layer inception_4c/relu_3x3_reduce
I0403 15:29:43.911887  3152 net.cpp:91] Creating Layer inception_4c/relu_3x3_reduce
I0403 15:29:43.911903  3152 net.cpp:425] inception_4c/relu_3x3_reduce <- inception_4c/3x3_reduce
I0403 15:29:43.911922  3152 net.cpp:386] inception_4c/relu_3x3_reduce -> inception_4c/3x3_reduce (in-place)
I0403 15:29:43.912221  3152 net.cpp:141] Setting up inception_4c/relu_3x3_reduce
I0403 15:29:43.912250  3152 net.cpp:148] Top shape: 24 128 14 14 (602112)
I0403 15:29:43.912267  3152 net.cpp:156] Memory required for data: 1038026016
I0403 15:29:43.912282  3152 layer_factory.hpp:77] Creating layer inception_4c/3x3
I0403 15:29:43.912307  3152 net.cpp:91] Creating Layer inception_4c/3x3
I0403 15:29:43.912324  3152 net.cpp:425] inception_4c/3x3 <- inception_4c/3x3_reduce
I0403 15:29:43.912345  3152 net.cpp:399] inception_4c/3x3 -> inception_4c/3x3
I0403 15:29:43.916093  3152 net.cpp:141] Setting up inception_4c/3x3
I0403 15:29:43.916137  3152 net.cpp:148] Top shape: 24 256 14 14 (1204224)
I0403 15:29:43.916153  3152 net.cpp:156] Memory required for data: 1042842912
I0403 15:29:43.916187  3152 layer_factory.hpp:77] Creating layer inception_4c/relu_3x3
I0403 15:29:43.916224  3152 net.cpp:91] Creating Layer inception_4c/relu_3x3
I0403 15:29:43.916240  3152 net.cpp:425] inception_4c/relu_3x3 <- inception_4c/3x3
I0403 15:29:43.916260  3152 net.cpp:386] inception_4c/relu_3x3 -> inception_4c/3x3 (in-place)
I0403 15:29:43.916445  3152 net.cpp:141] Setting up inception_4c/relu_3x3
I0403 15:29:43.916470  3152 net.cpp:148] Top shape: 24 256 14 14 (1204224)
I0403 15:29:43.916484  3152 net.cpp:156] Memory required for data: 1047659808
I0403 15:29:43.916499  3152 layer_factory.hpp:77] Creating layer inception_4c/5x5_reduce
I0403 15:29:43.916520  3152 net.cpp:91] Creating Layer inception_4c/5x5_reduce
I0403 15:29:43.916538  3152 net.cpp:425] inception_4c/5x5_reduce <- inception_4b/output_inception_4b/output_0_split_2
I0403 15:29:43.916558  3152 net.cpp:399] inception_4c/5x5_reduce -> inception_4c/5x5_reduce
I0403 15:29:43.917637  3152 net.cpp:141] Setting up inception_4c/5x5_reduce
I0403 15:29:43.917665  3152 net.cpp:148] Top shape: 24 24 14 14 (112896)
I0403 15:29:43.917680  3152 net.cpp:156] Memory required for data: 1048111392
I0403 15:29:43.917698  3152 layer_factory.hpp:77] Creating layer inception_4c/relu_5x5_reduce
I0403 15:29:43.917718  3152 net.cpp:91] Creating Layer inception_4c/relu_5x5_reduce
I0403 15:29:43.917735  3152 net.cpp:425] inception_4c/relu_5x5_reduce <- inception_4c/5x5_reduce
I0403 15:29:43.917752  3152 net.cpp:386] inception_4c/relu_5x5_reduce -> inception_4c/5x5_reduce (in-place)
I0403 15:29:43.917934  3152 net.cpp:141] Setting up inception_4c/relu_5x5_reduce
I0403 15:29:43.917958  3152 net.cpp:148] Top shape: 24 24 14 14 (112896)
I0403 15:29:43.917973  3152 net.cpp:156] Memory required for data: 1048562976
I0403 15:29:43.917987  3152 layer_factory.hpp:77] Creating layer inception_4c/5x5
I0403 15:29:43.918009  3152 net.cpp:91] Creating Layer inception_4c/5x5
I0403 15:29:43.918025  3152 net.cpp:425] inception_4c/5x5 <- inception_4c/5x5_reduce
I0403 15:29:43.918046  3152 net.cpp:399] inception_4c/5x5 -> inception_4c/5x5
I0403 15:29:43.919286  3152 net.cpp:141] Setting up inception_4c/5x5
I0403 15:29:43.919314  3152 net.cpp:148] Top shape: 24 64 14 14 (301056)
I0403 15:29:43.919329  3152 net.cpp:156] Memory required for data: 1049767200
I0403 15:29:43.919348  3152 layer_factory.hpp:77] Creating layer inception_4c/relu_5x5
I0403 15:29:43.919368  3152 net.cpp:91] Creating Layer inception_4c/relu_5x5
I0403 15:29:43.919384  3152 net.cpp:425] inception_4c/relu_5x5 <- inception_4c/5x5
I0403 15:29:43.919400  3152 net.cpp:386] inception_4c/relu_5x5 -> inception_4c/5x5 (in-place)
I0403 15:29:43.919687  3152 net.cpp:141] Setting up inception_4c/relu_5x5
I0403 15:29:43.919713  3152 net.cpp:148] Top shape: 24 64 14 14 (301056)
I0403 15:29:43.919728  3152 net.cpp:156] Memory required for data: 1050971424
I0403 15:29:43.919742  3152 layer_factory.hpp:77] Creating layer inception_4c/pool
I0403 15:29:43.919770  3152 net.cpp:91] Creating Layer inception_4c/pool
I0403 15:29:43.919785  3152 net.cpp:425] inception_4c/pool <- inception_4b/output_inception_4b/output_0_split_3
I0403 15:29:43.919803  3152 net.cpp:399] inception_4c/pool -> inception_4c/pool
I0403 15:29:43.919869  3152 net.cpp:141] Setting up inception_4c/pool
I0403 15:29:43.919893  3152 net.cpp:148] Top shape: 24 512 14 14 (2408448)
I0403 15:29:43.919906  3152 net.cpp:156] Memory required for data: 1060605216
I0403 15:29:43.919920  3152 layer_factory.hpp:77] Creating layer inception_4c/pool_proj
I0403 15:29:43.919945  3152 net.cpp:91] Creating Layer inception_4c/pool_proj
I0403 15:29:43.919961  3152 net.cpp:425] inception_4c/pool_proj <- inception_4c/pool
I0403 15:29:43.919981  3152 net.cpp:399] inception_4c/pool_proj -> inception_4c/pool_proj
I0403 15:29:43.921217  3152 net.cpp:141] Setting up inception_4c/pool_proj
I0403 15:29:43.921246  3152 net.cpp:148] Top shape: 24 64 14 14 (301056)
I0403 15:29:43.921274  3152 net.cpp:156] Memory required for data: 1061809440
I0403 15:29:43.921293  3152 layer_factory.hpp:77] Creating layer inception_4c/relu_pool_proj
I0403 15:29:43.921311  3152 net.cpp:91] Creating Layer inception_4c/relu_pool_proj
I0403 15:29:43.921327  3152 net.cpp:425] inception_4c/relu_pool_proj <- inception_4c/pool_proj
I0403 15:29:43.921347  3152 net.cpp:386] inception_4c/relu_pool_proj -> inception_4c/pool_proj (in-place)
I0403 15:29:43.921530  3152 net.cpp:141] Setting up inception_4c/relu_pool_proj
I0403 15:29:43.921555  3152 net.cpp:148] Top shape: 24 64 14 14 (301056)
I0403 15:29:43.921569  3152 net.cpp:156] Memory required for data: 1063013664
I0403 15:29:43.921584  3152 layer_factory.hpp:77] Creating layer inception_4c/output
I0403 15:29:43.921603  3152 net.cpp:91] Creating Layer inception_4c/output
I0403 15:29:43.921619  3152 net.cpp:425] inception_4c/output <- inception_4c/1x1
I0403 15:29:43.921635  3152 net.cpp:425] inception_4c/output <- inception_4c/3x3
I0403 15:29:43.921650  3152 net.cpp:425] inception_4c/output <- inception_4c/5x5
I0403 15:29:43.921665  3152 net.cpp:425] inception_4c/output <- inception_4c/pool_proj
I0403 15:29:43.921682  3152 net.cpp:399] inception_4c/output -> inception_4c/output
I0403 15:29:43.921730  3152 net.cpp:141] Setting up inception_4c/output
I0403 15:29:43.921752  3152 net.cpp:148] Top shape: 24 512 14 14 (2408448)
I0403 15:29:43.921766  3152 net.cpp:156] Memory required for data: 1072647456
I0403 15:29:43.921780  3152 layer_factory.hpp:77] Creating layer inception_4c/output_inception_4c/output_0_split
I0403 15:29:43.921797  3152 net.cpp:91] Creating Layer inception_4c/output_inception_4c/output_0_split
I0403 15:29:43.921811  3152 net.cpp:425] inception_4c/output_inception_4c/output_0_split <- inception_4c/output
I0403 15:29:43.921831  3152 net.cpp:399] inception_4c/output_inception_4c/output_0_split -> inception_4c/output_inception_4c/output_0_split_0
I0403 15:29:43.921851  3152 net.cpp:399] inception_4c/output_inception_4c/output_0_split -> inception_4c/output_inception_4c/output_0_split_1
I0403 15:29:43.921871  3152 net.cpp:399] inception_4c/output_inception_4c/output_0_split -> inception_4c/output_inception_4c/output_0_split_2
I0403 15:29:43.921890  3152 net.cpp:399] inception_4c/output_inception_4c/output_0_split -> inception_4c/output_inception_4c/output_0_split_3
I0403 15:29:43.921974  3152 net.cpp:141] Setting up inception_4c/output_inception_4c/output_0_split
I0403 15:29:43.922000  3152 net.cpp:148] Top shape: 24 512 14 14 (2408448)
I0403 15:29:43.922016  3152 net.cpp:148] Top shape: 24 512 14 14 (2408448)
I0403 15:29:43.922032  3152 net.cpp:148] Top shape: 24 512 14 14 (2408448)
I0403 15:29:43.922047  3152 net.cpp:148] Top shape: 24 512 14 14 (2408448)
I0403 15:29:43.922060  3152 net.cpp:156] Memory required for data: 1111182624
I0403 15:29:43.922075  3152 layer_factory.hpp:77] Creating layer inception_4d/1x1
I0403 15:29:43.922097  3152 net.cpp:91] Creating Layer inception_4d/1x1
I0403 15:29:43.922114  3152 net.cpp:425] inception_4d/1x1 <- inception_4c/output_inception_4c/output_0_split_0
I0403 15:29:43.922133  3152 net.cpp:399] inception_4d/1x1 -> inception_4d/1x1
I0403 15:29:43.923530  3152 net.cpp:141] Setting up inception_4d/1x1
I0403 15:29:43.923560  3152 net.cpp:148] Top shape: 24 112 14 14 (526848)
I0403 15:29:43.923576  3152 net.cpp:156] Memory required for data: 1113290016
I0403 15:29:43.923594  3152 layer_factory.hpp:77] Creating layer inception_4d/relu_1x1
I0403 15:29:43.923612  3152 net.cpp:91] Creating Layer inception_4d/relu_1x1
I0403 15:29:43.923629  3152 net.cpp:425] inception_4d/relu_1x1 <- inception_4d/1x1
I0403 15:29:43.923645  3152 net.cpp:386] inception_4d/relu_1x1 -> inception_4d/1x1 (in-place)
I0403 15:29:43.923828  3152 net.cpp:141] Setting up inception_4d/relu_1x1
I0403 15:29:43.923852  3152 net.cpp:148] Top shape: 24 112 14 14 (526848)
I0403 15:29:43.923867  3152 net.cpp:156] Memory required for data: 1115397408
I0403 15:29:43.923882  3152 layer_factory.hpp:77] Creating layer inception_4d/3x3_reduce
I0403 15:29:43.923920  3152 net.cpp:91] Creating Layer inception_4d/3x3_reduce
I0403 15:29:43.923938  3152 net.cpp:425] inception_4d/3x3_reduce <- inception_4c/output_inception_4c/output_0_split_1
I0403 15:29:43.923959  3152 net.cpp:399] inception_4d/3x3_reduce -> inception_4d/3x3_reduce
I0403 15:29:43.925468  3152 net.cpp:141] Setting up inception_4d/3x3_reduce
I0403 15:29:43.925496  3152 net.cpp:148] Top shape: 24 144 14 14 (677376)
I0403 15:29:43.925511  3152 net.cpp:156] Memory required for data: 1118106912
I0403 15:29:43.925529  3152 layer_factory.hpp:77] Creating layer inception_4d/relu_3x3_reduce
I0403 15:29:43.925549  3152 net.cpp:91] Creating Layer inception_4d/relu_3x3_reduce
I0403 15:29:43.925565  3152 net.cpp:425] inception_4d/relu_3x3_reduce <- inception_4d/3x3_reduce
I0403 15:29:43.925583  3152 net.cpp:386] inception_4d/relu_3x3_reduce -> inception_4d/3x3_reduce (in-place)
I0403 15:29:43.925870  3152 net.cpp:141] Setting up inception_4d/relu_3x3_reduce
I0403 15:29:43.925896  3152 net.cpp:148] Top shape: 24 144 14 14 (677376)
I0403 15:29:43.925911  3152 net.cpp:156] Memory required for data: 1120816416
I0403 15:29:43.925925  3152 layer_factory.hpp:77] Creating layer inception_4d/3x3
I0403 15:29:43.925948  3152 net.cpp:91] Creating Layer inception_4d/3x3
I0403 15:29:43.925966  3152 net.cpp:425] inception_4d/3x3 <- inception_4d/3x3_reduce
I0403 15:29:43.925984  3152 net.cpp:399] inception_4d/3x3 -> inception_4d/3x3
I0403 15:29:43.930234  3152 net.cpp:141] Setting up inception_4d/3x3
I0403 15:29:43.930266  3152 net.cpp:148] Top shape: 24 288 14 14 (1354752)
I0403 15:29:43.930282  3152 net.cpp:156] Memory required for data: 1126235424
I0403 15:29:43.930300  3152 layer_factory.hpp:77] Creating layer inception_4d/relu_3x3
I0403 15:29:43.930318  3152 net.cpp:91] Creating Layer inception_4d/relu_3x3
I0403 15:29:43.930333  3152 net.cpp:425] inception_4d/relu_3x3 <- inception_4d/3x3
I0403 15:29:43.930352  3152 net.cpp:386] inception_4d/relu_3x3 -> inception_4d/3x3 (in-place)
I0403 15:29:43.930533  3152 net.cpp:141] Setting up inception_4d/relu_3x3
I0403 15:29:43.930557  3152 net.cpp:148] Top shape: 24 288 14 14 (1354752)
I0403 15:29:43.930572  3152 net.cpp:156] Memory required for data: 1131654432
I0403 15:29:43.930586  3152 layer_factory.hpp:77] Creating layer inception_4d/5x5_reduce
I0403 15:29:43.930608  3152 net.cpp:91] Creating Layer inception_4d/5x5_reduce
I0403 15:29:43.930626  3152 net.cpp:425] inception_4d/5x5_reduce <- inception_4c/output_inception_4c/output_0_split_2
I0403 15:29:43.930647  3152 net.cpp:399] inception_4d/5x5_reduce -> inception_4d/5x5_reduce
I0403 15:29:43.931901  3152 net.cpp:141] Setting up inception_4d/5x5_reduce
I0403 15:29:43.931932  3152 net.cpp:148] Top shape: 24 32 14 14 (150528)
I0403 15:29:43.931949  3152 net.cpp:156] Memory required for data: 1132256544
I0403 15:29:43.931967  3152 layer_factory.hpp:77] Creating layer inception_4d/relu_5x5_reduce
I0403 15:29:43.931985  3152 net.cpp:91] Creating Layer inception_4d/relu_5x5_reduce
I0403 15:29:43.932000  3152 net.cpp:425] inception_4d/relu_5x5_reduce <- inception_4d/5x5_reduce
I0403 15:29:43.932020  3152 net.cpp:386] inception_4d/relu_5x5_reduce -> inception_4d/5x5_reduce (in-place)
I0403 15:29:43.932211  3152 net.cpp:141] Setting up inception_4d/relu_5x5_reduce
I0403 15:29:43.932236  3152 net.cpp:148] Top shape: 24 32 14 14 (150528)
I0403 15:29:43.932251  3152 net.cpp:156] Memory required for data: 1132858656
I0403 15:29:43.932265  3152 layer_factory.hpp:77] Creating layer inception_4d/5x5
I0403 15:29:43.932287  3152 net.cpp:91] Creating Layer inception_4d/5x5
I0403 15:29:43.932304  3152 net.cpp:425] inception_4d/5x5 <- inception_4d/5x5_reduce
I0403 15:29:43.932325  3152 net.cpp:399] inception_4d/5x5 -> inception_4d/5x5
I0403 15:29:43.933807  3152 net.cpp:141] Setting up inception_4d/5x5
I0403 15:29:43.933835  3152 net.cpp:148] Top shape: 24 64 14 14 (301056)
I0403 15:29:43.933851  3152 net.cpp:156] Memory required for data: 1134062880
I0403 15:29:43.933871  3152 layer_factory.hpp:77] Creating layer inception_4d/relu_5x5
I0403 15:29:43.933904  3152 net.cpp:91] Creating Layer inception_4d/relu_5x5
I0403 15:29:43.933923  3152 net.cpp:425] inception_4d/relu_5x5 <- inception_4d/5x5
I0403 15:29:43.933939  3152 net.cpp:386] inception_4d/relu_5x5 -> inception_4d/5x5 (in-place)
I0403 15:29:43.934242  3152 net.cpp:141] Setting up inception_4d/relu_5x5
I0403 15:29:43.934268  3152 net.cpp:148] Top shape: 24 64 14 14 (301056)
I0403 15:29:43.934283  3152 net.cpp:156] Memory required for data: 1135267104
I0403 15:29:43.934298  3152 layer_factory.hpp:77] Creating layer inception_4d/pool
I0403 15:29:43.934319  3152 net.cpp:91] Creating Layer inception_4d/pool
I0403 15:29:43.934334  3152 net.cpp:425] inception_4d/pool <- inception_4c/output_inception_4c/output_0_split_3
I0403 15:29:43.934352  3152 net.cpp:399] inception_4d/pool -> inception_4d/pool
I0403 15:29:43.934419  3152 net.cpp:141] Setting up inception_4d/pool
I0403 15:29:43.934455  3152 net.cpp:148] Top shape: 24 512 14 14 (2408448)
I0403 15:29:43.934469  3152 net.cpp:156] Memory required for data: 1144900896
I0403 15:29:43.934484  3152 layer_factory.hpp:77] Creating layer inception_4d/pool_proj
I0403 15:29:43.934505  3152 net.cpp:91] Creating Layer inception_4d/pool_proj
I0403 15:29:43.934522  3152 net.cpp:425] inception_4d/pool_proj <- inception_4d/pool
I0403 15:29:43.934542  3152 net.cpp:399] inception_4d/pool_proj -> inception_4d/pool_proj
I0403 15:29:43.936305  3152 net.cpp:141] Setting up inception_4d/pool_proj
I0403 15:29:43.936337  3152 net.cpp:148] Top shape: 24 64 14 14 (301056)
I0403 15:29:43.936354  3152 net.cpp:156] Memory required for data: 1146105120
I0403 15:29:43.936372  3152 layer_factory.hpp:77] Creating layer inception_4d/relu_pool_proj
I0403 15:29:43.936391  3152 net.cpp:91] Creating Layer inception_4d/relu_pool_proj
I0403 15:29:43.936408  3152 net.cpp:425] inception_4d/relu_pool_proj <- inception_4d/pool_proj
I0403 15:29:43.936427  3152 net.cpp:386] inception_4d/relu_pool_proj -> inception_4d/pool_proj (in-place)
I0403 15:29:43.936626  3152 net.cpp:141] Setting up inception_4d/relu_pool_proj
I0403 15:29:43.936651  3152 net.cpp:148] Top shape: 24 64 14 14 (301056)
I0403 15:29:43.936666  3152 net.cpp:156] Memory required for data: 1147309344
I0403 15:29:43.936681  3152 layer_factory.hpp:77] Creating layer inception_4d/output
I0403 15:29:43.936697  3152 net.cpp:91] Creating Layer inception_4d/output
I0403 15:29:43.936712  3152 net.cpp:425] inception_4d/output <- inception_4d/1x1
I0403 15:29:43.936728  3152 net.cpp:425] inception_4d/output <- inception_4d/3x3
I0403 15:29:43.936744  3152 net.cpp:425] inception_4d/output <- inception_4d/5x5
I0403 15:29:43.936760  3152 net.cpp:425] inception_4d/output <- inception_4d/pool_proj
I0403 15:29:43.936779  3152 net.cpp:399] inception_4d/output -> inception_4d/output
I0403 15:29:43.936826  3152 net.cpp:141] Setting up inception_4d/output
I0403 15:29:43.936851  3152 net.cpp:148] Top shape: 24 528 14 14 (2483712)
I0403 15:29:43.936867  3152 net.cpp:156] Memory required for data: 1157244192
I0403 15:29:43.936882  3152 layer_factory.hpp:77] Creating layer inception_4d/output_inception_4d/output_0_split
I0403 15:29:43.936900  3152 net.cpp:91] Creating Layer inception_4d/output_inception_4d/output_0_split
I0403 15:29:43.936915  3152 net.cpp:425] inception_4d/output_inception_4d/output_0_split <- inception_4d/output
I0403 15:29:43.936935  3152 net.cpp:399] inception_4d/output_inception_4d/output_0_split -> inception_4d/output_inception_4d/output_0_split_0
I0403 15:29:43.936956  3152 net.cpp:399] inception_4d/output_inception_4d/output_0_split -> inception_4d/output_inception_4d/output_0_split_1
I0403 15:29:43.936976  3152 net.cpp:399] inception_4d/output_inception_4d/output_0_split -> inception_4d/output_inception_4d/output_0_split_2
I0403 15:29:43.936996  3152 net.cpp:399] inception_4d/output_inception_4d/output_0_split -> inception_4d/output_inception_4d/output_0_split_3
I0403 15:29:43.937016  3152 net.cpp:399] inception_4d/output_inception_4d/output_0_split -> inception_4d/output_inception_4d/output_0_split_4
I0403 15:29:43.937117  3152 net.cpp:141] Setting up inception_4d/output_inception_4d/output_0_split
I0403 15:29:43.937155  3152 net.cpp:148] Top shape: 24 528 14 14 (2483712)
I0403 15:29:43.937172  3152 net.cpp:148] Top shape: 24 528 14 14 (2483712)
I0403 15:29:43.937188  3152 net.cpp:148] Top shape: 24 528 14 14 (2483712)
I0403 15:29:43.937203  3152 net.cpp:148] Top shape: 24 528 14 14 (2483712)
I0403 15:29:43.937224  3152 net.cpp:148] Top shape: 24 528 14 14 (2483712)
I0403 15:29:43.937238  3152 net.cpp:156] Memory required for data: 1206918432
I0403 15:29:43.937252  3152 layer_factory.hpp:77] Creating layer loss2/ave_pool
I0403 15:29:43.937270  3152 net.cpp:91] Creating Layer loss2/ave_pool
I0403 15:29:43.937286  3152 net.cpp:425] loss2/ave_pool <- inception_4d/output_inception_4d/output_0_split_0
I0403 15:29:43.937304  3152 net.cpp:399] loss2/ave_pool -> loss2/ave_pool
I0403 15:29:43.937620  3152 net.cpp:141] Setting up loss2/ave_pool
I0403 15:29:43.937649  3152 net.cpp:148] Top shape: 24 528 4 4 (202752)
I0403 15:29:43.937664  3152 net.cpp:156] Memory required for data: 1207729440
I0403 15:29:43.937680  3152 layer_factory.hpp:77] Creating layer loss2/conv
I0403 15:29:43.937701  3152 net.cpp:91] Creating Layer loss2/conv
I0403 15:29:43.937718  3152 net.cpp:425] loss2/conv <- loss2/ave_pool
I0403 15:29:43.937737  3152 net.cpp:399] loss2/conv -> loss2/conv
I0403 15:29:43.939649  3152 net.cpp:141] Setting up loss2/conv
I0403 15:29:43.939678  3152 net.cpp:148] Top shape: 24 128 4 4 (49152)
I0403 15:29:43.939693  3152 net.cpp:156] Memory required for data: 1207926048
I0403 15:29:43.939712  3152 layer_factory.hpp:77] Creating layer loss2/relu_conv
I0403 15:29:43.939731  3152 net.cpp:91] Creating Layer loss2/relu_conv
I0403 15:29:43.939749  3152 net.cpp:425] loss2/relu_conv <- loss2/conv
I0403 15:29:43.939779  3152 net.cpp:386] loss2/relu_conv -> loss2/conv (in-place)
I0403 15:29:43.940105  3152 net.cpp:141] Setting up loss2/relu_conv
I0403 15:29:43.940131  3152 net.cpp:148] Top shape: 24 128 4 4 (49152)
I0403 15:29:43.940147  3152 net.cpp:156] Memory required for data: 1208122656
I0403 15:29:43.940161  3152 layer_factory.hpp:77] Creating layer loss2/fc
I0403 15:29:43.940183  3152 net.cpp:91] Creating Layer loss2/fc
I0403 15:29:43.940201  3152 net.cpp:425] loss2/fc <- loss2/conv
I0403 15:29:43.940225  3152 net.cpp:399] loss2/fc -> loss2/fc
I0403 15:29:43.957892  3152 net.cpp:141] Setting up loss2/fc
I0403 15:29:43.957928  3152 net.cpp:148] Top shape: 24 1024 (24576)
I0403 15:29:43.957942  3152 net.cpp:156] Memory required for data: 1208220960
I0403 15:29:43.957960  3152 layer_factory.hpp:77] Creating layer loss2/relu_fc
I0403 15:29:43.957978  3152 net.cpp:91] Creating Layer loss2/relu_fc
I0403 15:29:43.957993  3152 net.cpp:425] loss2/relu_fc <- loss2/fc
I0403 15:29:43.958011  3152 net.cpp:386] loss2/relu_fc -> loss2/fc (in-place)
I0403 15:29:43.958305  3152 net.cpp:141] Setting up loss2/relu_fc
I0403 15:29:43.958330  3152 net.cpp:148] Top shape: 24 1024 (24576)
I0403 15:29:43.958345  3152 net.cpp:156] Memory required for data: 1208319264
I0403 15:29:43.958359  3152 layer_factory.hpp:77] Creating layer loss2/drop_fc
I0403 15:29:43.958377  3152 net.cpp:91] Creating Layer loss2/drop_fc
I0403 15:29:43.958392  3152 net.cpp:425] loss2/drop_fc <- loss2/fc
I0403 15:29:43.958410  3152 net.cpp:386] loss2/drop_fc -> loss2/fc (in-place)
I0403 15:29:43.958458  3152 net.cpp:141] Setting up loss2/drop_fc
I0403 15:29:43.958482  3152 net.cpp:148] Top shape: 24 1024 (24576)
I0403 15:29:43.958497  3152 net.cpp:156] Memory required for data: 1208417568
I0403 15:29:43.958511  3152 layer_factory.hpp:77] Creating layer loss2/classifier_plantvillage
I0403 15:29:43.958528  3152 net.cpp:91] Creating Layer loss2/classifier_plantvillage
I0403 15:29:43.958544  3152 net.cpp:425] loss2/classifier_plantvillage <- loss2/fc
I0403 15:29:43.958564  3152 net.cpp:399] loss2/classifier_plantvillage -> loss2/classifier_plantvillage
I0403 15:29:43.958957  3152 net.cpp:141] Setting up loss2/classifier_plantvillage
I0403 15:29:43.958981  3152 net.cpp:148] Top shape: 24 38 (912)
I0403 15:29:43.959010  3152 net.cpp:156] Memory required for data: 1208421216
I0403 15:29:43.959028  3152 layer_factory.hpp:77] Creating layer loss2/classifier_plantvillage_loss2/classifier_plantvillage_0_split
I0403 15:29:43.959048  3152 net.cpp:91] Creating Layer loss2/classifier_plantvillage_loss2/classifier_plantvillage_0_split
I0403 15:29:43.959064  3152 net.cpp:425] loss2/classifier_plantvillage_loss2/classifier_plantvillage_0_split <- loss2/classifier_plantvillage
I0403 15:29:43.959081  3152 net.cpp:399] loss2/classifier_plantvillage_loss2/classifier_plantvillage_0_split -> loss2/classifier_plantvillage_loss2/classifier_plantvillage_0_split_0
I0403 15:29:43.959100  3152 net.cpp:399] loss2/classifier_plantvillage_loss2/classifier_plantvillage_0_split -> loss2/classifier_plantvillage_loss2/classifier_plantvillage_0_split_1
I0403 15:29:43.959120  3152 net.cpp:399] loss2/classifier_plantvillage_loss2/classifier_plantvillage_0_split -> loss2/classifier_plantvillage_loss2/classifier_plantvillage_0_split_2
I0403 15:29:43.959197  3152 net.cpp:141] Setting up loss2/classifier_plantvillage_loss2/classifier_plantvillage_0_split
I0403 15:29:43.959223  3152 net.cpp:148] Top shape: 24 38 (912)
I0403 15:29:43.959239  3152 net.cpp:148] Top shape: 24 38 (912)
I0403 15:29:43.959254  3152 net.cpp:148] Top shape: 24 38 (912)
I0403 15:29:43.959267  3152 net.cpp:156] Memory required for data: 1208432160
I0403 15:29:43.959281  3152 layer_factory.hpp:77] Creating layer inception_4e/1x1
I0403 15:29:43.959302  3152 net.cpp:91] Creating Layer inception_4e/1x1
I0403 15:29:43.959319  3152 net.cpp:425] inception_4e/1x1 <- inception_4d/output_inception_4d/output_0_split_1
I0403 15:29:43.959336  3152 net.cpp:399] inception_4e/1x1 -> inception_4e/1x1
I0403 15:29:43.961102  3152 net.cpp:141] Setting up inception_4e/1x1
I0403 15:29:43.961129  3152 net.cpp:148] Top shape: 24 256 14 14 (1204224)
I0403 15:29:43.961144  3152 net.cpp:156] Memory required for data: 1213249056
I0403 15:29:43.961163  3152 layer_factory.hpp:77] Creating layer inception_4e/relu_1x1
I0403 15:29:43.961181  3152 net.cpp:91] Creating Layer inception_4e/relu_1x1
I0403 15:29:43.961197  3152 net.cpp:425] inception_4e/relu_1x1 <- inception_4e/1x1
I0403 15:29:43.961218  3152 net.cpp:386] inception_4e/relu_1x1 -> inception_4e/1x1 (in-place)
I0403 15:29:43.961508  3152 net.cpp:141] Setting up inception_4e/relu_1x1
I0403 15:29:43.961532  3152 net.cpp:148] Top shape: 24 256 14 14 (1204224)
I0403 15:29:43.961547  3152 net.cpp:156] Memory required for data: 1218065952
I0403 15:29:43.961561  3152 layer_factory.hpp:77] Creating layer inception_4e/3x3_reduce
I0403 15:29:43.961582  3152 net.cpp:91] Creating Layer inception_4e/3x3_reduce
I0403 15:29:43.961599  3152 net.cpp:425] inception_4e/3x3_reduce <- inception_4d/output_inception_4d/output_0_split_2
I0403 15:29:43.961619  3152 net.cpp:399] inception_4e/3x3_reduce -> inception_4e/3x3_reduce
I0403 15:29:43.963699  3152 net.cpp:141] Setting up inception_4e/3x3_reduce
I0403 15:29:43.963727  3152 net.cpp:148] Top shape: 24 160 14 14 (752640)
I0403 15:29:43.963743  3152 net.cpp:156] Memory required for data: 1221076512
I0403 15:29:43.963762  3152 layer_factory.hpp:77] Creating layer inception_4e/relu_3x3_reduce
I0403 15:29:43.963778  3152 net.cpp:91] Creating Layer inception_4e/relu_3x3_reduce
I0403 15:29:43.963793  3152 net.cpp:425] inception_4e/relu_3x3_reduce <- inception_4e/3x3_reduce
I0403 15:29:43.963812  3152 net.cpp:386] inception_4e/relu_3x3_reduce -> inception_4e/3x3_reduce (in-place)
I0403 15:29:43.963991  3152 net.cpp:141] Setting up inception_4e/relu_3x3_reduce
I0403 15:29:43.964015  3152 net.cpp:148] Top shape: 24 160 14 14 (752640)
I0403 15:29:43.964030  3152 net.cpp:156] Memory required for data: 1224087072
I0403 15:29:43.964043  3152 layer_factory.hpp:77] Creating layer inception_4e/3x3
I0403 15:29:43.964064  3152 net.cpp:91] Creating Layer inception_4e/3x3
I0403 15:29:43.964082  3152 net.cpp:425] inception_4e/3x3 <- inception_4e/3x3_reduce
I0403 15:29:43.964102  3152 net.cpp:399] inception_4e/3x3 -> inception_4e/3x3
I0403 15:29:43.968991  3152 net.cpp:141] Setting up inception_4e/3x3
I0403 15:29:43.969030  3152 net.cpp:148] Top shape: 24 320 14 14 (1505280)
I0403 15:29:43.969049  3152 net.cpp:156] Memory required for data: 1230108192
I0403 15:29:43.969068  3152 layer_factory.hpp:77] Creating layer inception_4e/relu_3x3
I0403 15:29:43.969084  3152 net.cpp:91] Creating Layer inception_4e/relu_3x3
I0403 15:29:43.969099  3152 net.cpp:425] inception_4e/relu_3x3 <- inception_4e/3x3
I0403 15:29:43.969116  3152 net.cpp:386] inception_4e/relu_3x3 -> inception_4e/3x3 (in-place)
I0403 15:29:43.969415  3152 net.cpp:141] Setting up inception_4e/relu_3x3
I0403 15:29:43.969444  3152 net.cpp:148] Top shape: 24 320 14 14 (1505280)
I0403 15:29:43.969460  3152 net.cpp:156] Memory required for data: 1236129312
I0403 15:29:43.969475  3152 layer_factory.hpp:77] Creating layer inception_4e/5x5_reduce
I0403 15:29:43.969497  3152 net.cpp:91] Creating Layer inception_4e/5x5_reduce
I0403 15:29:43.969516  3152 net.cpp:425] inception_4e/5x5_reduce <- inception_4d/output_inception_4d/output_0_split_3
I0403 15:29:43.969533  3152 net.cpp:399] inception_4e/5x5_reduce -> inception_4e/5x5_reduce
I0403 15:29:43.970571  3152 net.cpp:141] Setting up inception_4e/5x5_reduce
I0403 15:29:43.970597  3152 net.cpp:148] Top shape: 24 32 14 14 (150528)
I0403 15:29:43.970613  3152 net.cpp:156] Memory required for data: 1236731424
I0403 15:29:43.970629  3152 layer_factory.hpp:77] Creating layer inception_4e/relu_5x5_reduce
I0403 15:29:43.970649  3152 net.cpp:91] Creating Layer inception_4e/relu_5x5_reduce
I0403 15:29:43.970664  3152 net.cpp:425] inception_4e/relu_5x5_reduce <- inception_4e/5x5_reduce
I0403 15:29:43.970682  3152 net.cpp:386] inception_4e/relu_5x5_reduce -> inception_4e/5x5_reduce (in-place)
I0403 15:29:43.970970  3152 net.cpp:141] Setting up inception_4e/relu_5x5_reduce
I0403 15:29:43.970995  3152 net.cpp:148] Top shape: 24 32 14 14 (150528)
I0403 15:29:43.971009  3152 net.cpp:156] Memory required for data: 1237333536
I0403 15:29:43.971024  3152 layer_factory.hpp:77] Creating layer inception_4e/5x5
I0403 15:29:43.971065  3152 net.cpp:91] Creating Layer inception_4e/5x5
I0403 15:29:43.971083  3152 net.cpp:425] inception_4e/5x5 <- inception_4e/5x5_reduce
I0403 15:29:43.971101  3152 net.cpp:399] inception_4e/5x5 -> inception_4e/5x5
I0403 15:29:43.972897  3152 net.cpp:141] Setting up inception_4e/5x5
I0403 15:29:43.972925  3152 net.cpp:148] Top shape: 24 128 14 14 (602112)
I0403 15:29:43.972941  3152 net.cpp:156] Memory required for data: 1239741984
I0403 15:29:43.972960  3152 layer_factory.hpp:77] Creating layer inception_4e/relu_5x5
I0403 15:29:43.972976  3152 net.cpp:91] Creating Layer inception_4e/relu_5x5
I0403 15:29:43.972992  3152 net.cpp:425] inception_4e/relu_5x5 <- inception_4e/5x5
I0403 15:29:43.973011  3152 net.cpp:386] inception_4e/relu_5x5 -> inception_4e/5x5 (in-place)
I0403 15:29:43.973222  3152 net.cpp:141] Setting up inception_4e/relu_5x5
I0403 15:29:43.973248  3152 net.cpp:148] Top shape: 24 128 14 14 (602112)
I0403 15:29:43.973263  3152 net.cpp:156] Memory required for data: 1242150432
I0403 15:29:43.973276  3152 layer_factory.hpp:77] Creating layer inception_4e/pool
I0403 15:29:43.973296  3152 net.cpp:91] Creating Layer inception_4e/pool
I0403 15:29:43.973312  3152 net.cpp:425] inception_4e/pool <- inception_4d/output_inception_4d/output_0_split_4
I0403 15:29:43.973330  3152 net.cpp:399] inception_4e/pool -> inception_4e/pool
I0403 15:29:43.973402  3152 net.cpp:141] Setting up inception_4e/pool
I0403 15:29:43.973425  3152 net.cpp:148] Top shape: 24 528 14 14 (2483712)
I0403 15:29:43.973439  3152 net.cpp:156] Memory required for data: 1252085280
I0403 15:29:43.973454  3152 layer_factory.hpp:77] Creating layer inception_4e/pool_proj
I0403 15:29:43.973476  3152 net.cpp:91] Creating Layer inception_4e/pool_proj
I0403 15:29:43.973492  3152 net.cpp:425] inception_4e/pool_proj <- inception_4e/pool
I0403 15:29:43.973513  3152 net.cpp:399] inception_4e/pool_proj -> inception_4e/pool_proj
I0403 15:29:43.975054  3152 net.cpp:141] Setting up inception_4e/pool_proj
I0403 15:29:43.975095  3152 net.cpp:148] Top shape: 24 128 14 14 (602112)
I0403 15:29:43.975111  3152 net.cpp:156] Memory required for data: 1254493728
I0403 15:29:43.975127  3152 layer_factory.hpp:77] Creating layer inception_4e/relu_pool_proj
I0403 15:29:43.975144  3152 net.cpp:91] Creating Layer inception_4e/relu_pool_proj
I0403 15:29:43.975160  3152 net.cpp:425] inception_4e/relu_pool_proj <- inception_4e/pool_proj
I0403 15:29:43.975178  3152 net.cpp:386] inception_4e/relu_pool_proj -> inception_4e/pool_proj (in-place)
I0403 15:29:43.975463  3152 net.cpp:141] Setting up inception_4e/relu_pool_proj
I0403 15:29:43.975492  3152 net.cpp:148] Top shape: 24 128 14 14 (602112)
I0403 15:29:43.975507  3152 net.cpp:156] Memory required for data: 1256902176
I0403 15:29:43.975522  3152 layer_factory.hpp:77] Creating layer inception_4e/output
I0403 15:29:43.975538  3152 net.cpp:91] Creating Layer inception_4e/output
I0403 15:29:43.975553  3152 net.cpp:425] inception_4e/output <- inception_4e/1x1
I0403 15:29:43.975569  3152 net.cpp:425] inception_4e/output <- inception_4e/3x3
I0403 15:29:43.975584  3152 net.cpp:425] inception_4e/output <- inception_4e/5x5
I0403 15:29:43.975597  3152 net.cpp:425] inception_4e/output <- inception_4e/pool_proj
I0403 15:29:43.975618  3152 net.cpp:399] inception_4e/output -> inception_4e/output
I0403 15:29:43.975666  3152 net.cpp:141] Setting up inception_4e/output
I0403 15:29:43.975688  3152 net.cpp:148] Top shape: 24 832 14 14 (3913728)
I0403 15:29:43.975703  3152 net.cpp:156] Memory required for data: 1272557088
I0403 15:29:43.975716  3152 layer_factory.hpp:77] Creating layer pool4/3x3_s2
I0403 15:29:43.975735  3152 net.cpp:91] Creating Layer pool4/3x3_s2
I0403 15:29:43.975751  3152 net.cpp:425] pool4/3x3_s2 <- inception_4e/output
I0403 15:29:43.975776  3152 net.cpp:399] pool4/3x3_s2 -> pool4/3x3_s2
I0403 15:29:43.975842  3152 net.cpp:141] Setting up pool4/3x3_s2
I0403 15:29:43.975865  3152 net.cpp:148] Top shape: 24 832 7 7 (978432)
I0403 15:29:43.975878  3152 net.cpp:156] Memory required for data: 1276470816
I0403 15:29:43.975893  3152 layer_factory.hpp:77] Creating layer pool4/3x3_s2_pool4/3x3_s2_0_split
I0403 15:29:43.975908  3152 net.cpp:91] Creating Layer pool4/3x3_s2_pool4/3x3_s2_0_split
I0403 15:29:43.975924  3152 net.cpp:425] pool4/3x3_s2_pool4/3x3_s2_0_split <- pool4/3x3_s2
I0403 15:29:43.975942  3152 net.cpp:399] pool4/3x3_s2_pool4/3x3_s2_0_split -> pool4/3x3_s2_pool4/3x3_s2_0_split_0
I0403 15:29:43.975962  3152 net.cpp:399] pool4/3x3_s2_pool4/3x3_s2_0_split -> pool4/3x3_s2_pool4/3x3_s2_0_split_1
I0403 15:29:43.975981  3152 net.cpp:399] pool4/3x3_s2_pool4/3x3_s2_0_split -> pool4/3x3_s2_pool4/3x3_s2_0_split_2
I0403 15:29:43.975999  3152 net.cpp:399] pool4/3x3_s2_pool4/3x3_s2_0_split -> pool4/3x3_s2_pool4/3x3_s2_0_split_3
I0403 15:29:43.976088  3152 net.cpp:141] Setting up pool4/3x3_s2_pool4/3x3_s2_0_split
I0403 15:29:43.976109  3152 net.cpp:148] Top shape: 24 832 7 7 (978432)
I0403 15:29:43.976125  3152 net.cpp:148] Top shape: 24 832 7 7 (978432)
I0403 15:29:43.976140  3152 net.cpp:148] Top shape: 24 832 7 7 (978432)
I0403 15:29:43.976153  3152 net.cpp:148] Top shape: 24 832 7 7 (978432)
I0403 15:29:43.976167  3152 net.cpp:156] Memory required for data: 1292125728
I0403 15:29:43.976181  3152 layer_factory.hpp:77] Creating layer inception_5a/1x1
I0403 15:29:43.976202  3152 net.cpp:91] Creating Layer inception_5a/1x1
I0403 15:29:43.976223  3152 net.cpp:425] inception_5a/1x1 <- pool4/3x3_s2_pool4/3x3_s2_0_split_0
I0403 15:29:43.976245  3152 net.cpp:399] inception_5a/1x1 -> inception_5a/1x1
I0403 15:29:43.979008  3152 net.cpp:141] Setting up inception_5a/1x1
I0403 15:29:43.979038  3152 net.cpp:148] Top shape: 24 256 7 7 (301056)
I0403 15:29:43.979053  3152 net.cpp:156] Memory required for data: 1293329952
I0403 15:29:43.979070  3152 layer_factory.hpp:77] Creating layer inception_5a/relu_1x1
I0403 15:29:43.979095  3152 net.cpp:91] Creating Layer inception_5a/relu_1x1
I0403 15:29:43.979117  3152 net.cpp:425] inception_5a/relu_1x1 <- inception_5a/1x1
I0403 15:29:43.979142  3152 net.cpp:386] inception_5a/relu_1x1 -> inception_5a/1x1 (in-place)
I0403 15:29:43.979454  3152 net.cpp:141] Setting up inception_5a/relu_1x1
I0403 15:29:43.979496  3152 net.cpp:148] Top shape: 24 256 7 7 (301056)
I0403 15:29:43.979511  3152 net.cpp:156] Memory required for data: 1294534176
I0403 15:29:43.979526  3152 layer_factory.hpp:77] Creating layer inception_5a/3x3_reduce
I0403 15:29:43.979548  3152 net.cpp:91] Creating Layer inception_5a/3x3_reduce
I0403 15:29:43.979567  3152 net.cpp:425] inception_5a/3x3_reduce <- pool4/3x3_s2_pool4/3x3_s2_0_split_1
I0403 15:29:43.979588  3152 net.cpp:399] inception_5a/3x3_reduce -> inception_5a/3x3_reduce
I0403 15:29:43.982074  3152 net.cpp:141] Setting up inception_5a/3x3_reduce
I0403 15:29:43.982105  3152 net.cpp:148] Top shape: 24 160 7 7 (188160)
I0403 15:29:43.982121  3152 net.cpp:156] Memory required for data: 1295286816
I0403 15:29:43.982139  3152 layer_factory.hpp:77] Creating layer inception_5a/relu_3x3_reduce
I0403 15:29:43.982156  3152 net.cpp:91] Creating Layer inception_5a/relu_3x3_reduce
I0403 15:29:43.982173  3152 net.cpp:425] inception_5a/relu_3x3_reduce <- inception_5a/3x3_reduce
I0403 15:29:43.982193  3152 net.cpp:386] inception_5a/relu_3x3_reduce -> inception_5a/3x3_reduce (in-place)
I0403 15:29:43.982384  3152 net.cpp:141] Setting up inception_5a/relu_3x3_reduce
I0403 15:29:43.982409  3152 net.cpp:148] Top shape: 24 160 7 7 (188160)
I0403 15:29:43.982424  3152 net.cpp:156] Memory required for data: 1296039456
I0403 15:29:43.982439  3152 layer_factory.hpp:77] Creating layer inception_5a/3x3
I0403 15:29:43.982461  3152 net.cpp:91] Creating Layer inception_5a/3x3
I0403 15:29:43.982478  3152 net.cpp:425] inception_5a/3x3 <- inception_5a/3x3_reduce
I0403 15:29:43.982501  3152 net.cpp:399] inception_5a/3x3 -> inception_5a/3x3
I0403 15:29:43.987589  3152 net.cpp:141] Setting up inception_5a/3x3
I0403 15:29:43.987619  3152 net.cpp:148] Top shape: 24 320 7 7 (376320)
I0403 15:29:43.987634  3152 net.cpp:156] Memory required for data: 1297544736
I0403 15:29:43.987653  3152 layer_factory.hpp:77] Creating layer inception_5a/relu_3x3
I0403 15:29:43.987670  3152 net.cpp:91] Creating Layer inception_5a/relu_3x3
I0403 15:29:43.987690  3152 net.cpp:425] inception_5a/relu_3x3 <- inception_5a/3x3
I0403 15:29:43.987707  3152 net.cpp:386] inception_5a/relu_3x3 -> inception_5a/3x3 (in-place)
I0403 15:29:43.988003  3152 net.cpp:141] Setting up inception_5a/relu_3x3
I0403 15:29:43.988030  3152 net.cpp:148] Top shape: 24 320 7 7 (376320)
I0403 15:29:43.988044  3152 net.cpp:156] Memory required for data: 1299050016
I0403 15:29:43.988060  3152 layer_factory.hpp:77] Creating layer inception_5a/5x5_reduce
I0403 15:29:43.988083  3152 net.cpp:91] Creating Layer inception_5a/5x5_reduce
I0403 15:29:43.988101  3152 net.cpp:425] inception_5a/5x5_reduce <- pool4/3x3_s2_pool4/3x3_s2_0_split_2
I0403 15:29:43.988122  3152 net.cpp:399] inception_5a/5x5_reduce -> inception_5a/5x5_reduce
I0403 15:29:43.989295  3152 net.cpp:141] Setting up inception_5a/5x5_reduce
I0403 15:29:43.989323  3152 net.cpp:148] Top shape: 24 32 7 7 (37632)
I0403 15:29:43.989338  3152 net.cpp:156] Memory required for data: 1299200544
I0403 15:29:43.989357  3152 layer_factory.hpp:77] Creating layer inception_5a/relu_5x5_reduce
I0403 15:29:43.989377  3152 net.cpp:91] Creating Layer inception_5a/relu_5x5_reduce
I0403 15:29:43.989394  3152 net.cpp:425] inception_5a/relu_5x5_reduce <- inception_5a/5x5_reduce
I0403 15:29:43.989411  3152 net.cpp:386] inception_5a/relu_5x5_reduce -> inception_5a/5x5_reduce (in-place)
I0403 15:29:43.989714  3152 net.cpp:141] Setting up inception_5a/relu_5x5_reduce
I0403 15:29:43.989739  3152 net.cpp:148] Top shape: 24 32 7 7 (37632)
I0403 15:29:43.989754  3152 net.cpp:156] Memory required for data: 1299351072
I0403 15:29:43.989769  3152 layer_factory.hpp:77] Creating layer inception_5a/5x5
I0403 15:29:43.989791  3152 net.cpp:91] Creating Layer inception_5a/5x5
I0403 15:29:43.989809  3152 net.cpp:425] inception_5a/5x5 <- inception_5a/5x5_reduce
I0403 15:29:43.989830  3152 net.cpp:399] inception_5a/5x5 -> inception_5a/5x5
I0403 15:29:43.993863  3152 net.cpp:141] Setting up inception_5a/5x5
I0403 15:29:43.993911  3152 net.cpp:148] Top shape: 24 128 7 7 (150528)
I0403 15:29:43.993927  3152 net.cpp:156] Memory required for data: 1299953184
I0403 15:29:43.993947  3152 layer_factory.hpp:77] Creating layer inception_5a/relu_5x5
I0403 15:29:43.993964  3152 net.cpp:91] Creating Layer inception_5a/relu_5x5
I0403 15:29:43.993980  3152 net.cpp:425] inception_5a/relu_5x5 <- inception_5a/5x5
I0403 15:29:43.994000  3152 net.cpp:386] inception_5a/relu_5x5 -> inception_5a/5x5 (in-place)
I0403 15:29:43.994194  3152 net.cpp:141] Setting up inception_5a/relu_5x5
I0403 15:29:43.994232  3152 net.cpp:148] Top shape: 24 128 7 7 (150528)
I0403 15:29:43.994248  3152 net.cpp:156] Memory required for data: 1300555296
I0403 15:29:43.994264  3152 layer_factory.hpp:77] Creating layer inception_5a/pool
I0403 15:29:43.994284  3152 net.cpp:91] Creating Layer inception_5a/pool
I0403 15:29:43.994302  3152 net.cpp:425] inception_5a/pool <- pool4/3x3_s2_pool4/3x3_s2_0_split_3
I0403 15:29:43.994319  3152 net.cpp:399] inception_5a/pool -> inception_5a/pool
I0403 15:29:43.994391  3152 net.cpp:141] Setting up inception_5a/pool
I0403 15:29:43.994415  3152 net.cpp:148] Top shape: 24 832 7 7 (978432)
I0403 15:29:43.994428  3152 net.cpp:156] Memory required for data: 1304469024
I0403 15:29:43.994443  3152 layer_factory.hpp:77] Creating layer inception_5a/pool_proj
I0403 15:29:43.994465  3152 net.cpp:91] Creating Layer inception_5a/pool_proj
I0403 15:29:43.994482  3152 net.cpp:425] inception_5a/pool_proj <- inception_5a/pool
I0403 15:29:43.994503  3152 net.cpp:399] inception_5a/pool_proj -> inception_5a/pool_proj
I0403 15:29:43.996876  3152 net.cpp:141] Setting up inception_5a/pool_proj
I0403 15:29:43.996907  3152 net.cpp:148] Top shape: 24 128 7 7 (150528)
I0403 15:29:43.996924  3152 net.cpp:156] Memory required for data: 1305071136
I0403 15:29:43.996942  3152 layer_factory.hpp:77] Creating layer inception_5a/relu_pool_proj
I0403 15:29:43.996961  3152 net.cpp:91] Creating Layer inception_5a/relu_pool_proj
I0403 15:29:43.996978  3152 net.cpp:425] inception_5a/relu_pool_proj <- inception_5a/pool_proj
I0403 15:29:43.996999  3152 net.cpp:386] inception_5a/relu_pool_proj -> inception_5a/pool_proj (in-place)
I0403 15:29:43.997315  3152 net.cpp:141] Setting up inception_5a/relu_pool_proj
I0403 15:29:43.997342  3152 net.cpp:148] Top shape: 24 128 7 7 (150528)
I0403 15:29:43.997359  3152 net.cpp:156] Memory required for data: 1305673248
I0403 15:29:43.997373  3152 layer_factory.hpp:77] Creating layer inception_5a/output
I0403 15:29:43.997390  3152 net.cpp:91] Creating Layer inception_5a/output
I0403 15:29:43.997406  3152 net.cpp:425] inception_5a/output <- inception_5a/1x1
I0403 15:29:43.997423  3152 net.cpp:425] inception_5a/output <- inception_5a/3x3
I0403 15:29:43.997440  3152 net.cpp:425] inception_5a/output <- inception_5a/5x5
I0403 15:29:43.997457  3152 net.cpp:425] inception_5a/output <- inception_5a/pool_proj
I0403 15:29:43.997475  3152 net.cpp:399] inception_5a/output -> inception_5a/output
I0403 15:29:43.997527  3152 net.cpp:141] Setting up inception_5a/output
I0403 15:29:43.997550  3152 net.cpp:148] Top shape: 24 832 7 7 (978432)
I0403 15:29:43.997568  3152 net.cpp:156] Memory required for data: 1309586976
I0403 15:29:43.997582  3152 layer_factory.hpp:77] Creating layer inception_5a/output_inception_5a/output_0_split
I0403 15:29:43.997599  3152 net.cpp:91] Creating Layer inception_5a/output_inception_5a/output_0_split
I0403 15:29:43.997616  3152 net.cpp:425] inception_5a/output_inception_5a/output_0_split <- inception_5a/output
I0403 15:29:43.997633  3152 net.cpp:399] inception_5a/output_inception_5a/output_0_split -> inception_5a/output_inception_5a/output_0_split_0
I0403 15:29:43.997654  3152 net.cpp:399] inception_5a/output_inception_5a/output_0_split -> inception_5a/output_inception_5a/output_0_split_1
I0403 15:29:43.997673  3152 net.cpp:399] inception_5a/output_inception_5a/output_0_split -> inception_5a/output_inception_5a/output_0_split_2
I0403 15:29:43.997696  3152 net.cpp:399] inception_5a/output_inception_5a/output_0_split -> inception_5a/output_inception_5a/output_0_split_3
I0403 15:29:43.997812  3152 net.cpp:141] Setting up inception_5a/output_inception_5a/output_0_split
I0403 15:29:43.997836  3152 net.cpp:148] Top shape: 24 832 7 7 (978432)
I0403 15:29:43.997853  3152 net.cpp:148] Top shape: 24 832 7 7 (978432)
I0403 15:29:43.997869  3152 net.cpp:148] Top shape: 24 832 7 7 (978432)
I0403 15:29:43.997884  3152 net.cpp:148] Top shape: 24 832 7 7 (978432)
I0403 15:29:43.997898  3152 net.cpp:156] Memory required for data: 1325241888
I0403 15:29:43.997913  3152 layer_factory.hpp:77] Creating layer inception_5b/1x1
I0403 15:29:43.997936  3152 net.cpp:91] Creating Layer inception_5b/1x1
I0403 15:29:43.997954  3152 net.cpp:425] inception_5b/1x1 <- inception_5a/output_inception_5a/output_0_split_0
I0403 15:29:43.997977  3152 net.cpp:399] inception_5b/1x1 -> inception_5b/1x1
I0403 15:29:44.001884  3152 net.cpp:141] Setting up inception_5b/1x1
I0403 15:29:44.001919  3152 net.cpp:148] Top shape: 24 384 7 7 (451584)
I0403 15:29:44.001936  3152 net.cpp:156] Memory required for data: 1327048224
I0403 15:29:44.001955  3152 layer_factory.hpp:77] Creating layer inception_5b/relu_1x1
I0403 15:29:44.001974  3152 net.cpp:91] Creating Layer inception_5b/relu_1x1
I0403 15:29:44.001991  3152 net.cpp:425] inception_5b/relu_1x1 <- inception_5b/1x1
I0403 15:29:44.002010  3152 net.cpp:386] inception_5b/relu_1x1 -> inception_5b/1x1 (in-place)
I0403 15:29:44.002329  3152 net.cpp:141] Setting up inception_5b/relu_1x1
I0403 15:29:44.002362  3152 net.cpp:148] Top shape: 24 384 7 7 (451584)
I0403 15:29:44.002378  3152 net.cpp:156] Memory required for data: 1328854560
I0403 15:29:44.002393  3152 layer_factory.hpp:77] Creating layer inception_5b/3x3_reduce
I0403 15:29:44.002416  3152 net.cpp:91] Creating Layer inception_5b/3x3_reduce
I0403 15:29:44.002435  3152 net.cpp:425] inception_5b/3x3_reduce <- inception_5a/output_inception_5a/output_0_split_1
I0403 15:29:44.002454  3152 net.cpp:399] inception_5b/3x3_reduce -> inception_5b/3x3_reduce
I0403 15:29:44.005236  3152 net.cpp:141] Setting up inception_5b/3x3_reduce
I0403 15:29:44.005270  3152 net.cpp:148] Top shape: 24 192 7 7 (225792)
I0403 15:29:44.005287  3152 net.cpp:156] Memory required for data: 1329757728
I0403 15:29:44.005306  3152 layer_factory.hpp:77] Creating layer inception_5b/relu_3x3_reduce
I0403 15:29:44.005324  3152 net.cpp:91] Creating Layer inception_5b/relu_3x3_reduce
I0403 15:29:44.005341  3152 net.cpp:425] inception_5b/relu_3x3_reduce <- inception_5b/3x3_reduce
I0403 15:29:44.005360  3152 net.cpp:386] inception_5b/relu_3x3_reduce -> inception_5b/3x3_reduce (in-place)
I0403 15:29:44.005566  3152 net.cpp:141] Setting up inception_5b/relu_3x3_reduce
I0403 15:29:44.005592  3152 net.cpp:148] Top shape: 24 192 7 7 (225792)
I0403 15:29:44.005607  3152 net.cpp:156] Memory required for data: 1330660896
I0403 15:29:44.005622  3152 layer_factory.hpp:77] Creating layer inception_5b/3x3
I0403 15:29:44.005645  3152 net.cpp:91] Creating Layer inception_5b/3x3
I0403 15:29:44.005662  3152 net.cpp:425] inception_5b/3x3 <- inception_5b/3x3_reduce
I0403 15:29:44.005686  3152 net.cpp:399] inception_5b/3x3 -> inception_5b/3x3
I0403 15:29:44.012686  3152 net.cpp:141] Setting up inception_5b/3x3
I0403 15:29:44.012715  3152 net.cpp:148] Top shape: 24 384 7 7 (451584)
I0403 15:29:44.012732  3152 net.cpp:156] Memory required for data: 1332467232
I0403 15:29:44.012751  3152 layer_factory.hpp:77] Creating layer inception_5b/relu_3x3
I0403 15:29:44.012769  3152 net.cpp:91] Creating Layer inception_5b/relu_3x3
I0403 15:29:44.012785  3152 net.cpp:425] inception_5b/relu_3x3 <- inception_5b/3x3
I0403 15:29:44.012805  3152 net.cpp:386] inception_5b/relu_3x3 -> inception_5b/3x3 (in-place)
I0403 15:29:44.013123  3152 net.cpp:141] Setting up inception_5b/relu_3x3
I0403 15:29:44.013149  3152 net.cpp:148] Top shape: 24 384 7 7 (451584)
I0403 15:29:44.013165  3152 net.cpp:156] Memory required for data: 1334273568
I0403 15:29:44.013180  3152 layer_factory.hpp:77] Creating layer inception_5b/5x5_reduce
I0403 15:29:44.013232  3152 net.cpp:91] Creating Layer inception_5b/5x5_reduce
I0403 15:29:44.013253  3152 net.cpp:425] inception_5b/5x5_reduce <- inception_5a/output_inception_5a/output_0_split_2
I0403 15:29:44.013275  3152 net.cpp:399] inception_5b/5x5_reduce -> inception_5b/5x5_reduce
I0403 15:29:44.014616  3152 net.cpp:141] Setting up inception_5b/5x5_reduce
I0403 15:29:44.014663  3152 net.cpp:148] Top shape: 24 48 7 7 (56448)
I0403 15:29:44.014679  3152 net.cpp:156] Memory required for data: 1334499360
I0403 15:29:44.014698  3152 layer_factory.hpp:77] Creating layer inception_5b/relu_5x5_reduce
I0403 15:29:44.014716  3152 net.cpp:91] Creating Layer inception_5b/relu_5x5_reduce
I0403 15:29:44.014734  3152 net.cpp:425] inception_5b/relu_5x5_reduce <- inception_5b/5x5_reduce
I0403 15:29:44.014753  3152 net.cpp:386] inception_5b/relu_5x5_reduce -> inception_5b/5x5_reduce (in-place)
I0403 15:29:44.015147  3152 net.cpp:141] Setting up inception_5b/relu_5x5_reduce
I0403 15:29:44.015173  3152 net.cpp:148] Top shape: 24 48 7 7 (56448)
I0403 15:29:44.015188  3152 net.cpp:156] Memory required for data: 1334725152
I0403 15:29:44.015204  3152 layer_factory.hpp:77] Creating layer inception_5b/5x5
I0403 15:29:44.015229  3152 net.cpp:91] Creating Layer inception_5b/5x5
I0403 15:29:44.015246  3152 net.cpp:425] inception_5b/5x5 <- inception_5b/5x5_reduce
I0403 15:29:44.015266  3152 net.cpp:399] inception_5b/5x5 -> inception_5b/5x5
I0403 15:29:44.017362  3152 net.cpp:141] Setting up inception_5b/5x5
I0403 15:29:44.017390  3152 net.cpp:148] Top shape: 24 128 7 7 (150528)
I0403 15:29:44.017405  3152 net.cpp:156] Memory required for data: 1335327264
I0403 15:29:44.017423  3152 layer_factory.hpp:77] Creating layer inception_5b/relu_5x5
I0403 15:29:44.017442  3152 net.cpp:91] Creating Layer inception_5b/relu_5x5
I0403 15:29:44.017458  3152 net.cpp:425] inception_5b/relu_5x5 <- inception_5b/5x5
I0403 15:29:44.017478  3152 net.cpp:386] inception_5b/relu_5x5 -> inception_5b/5x5 (in-place)
I0403 15:29:44.017671  3152 net.cpp:141] Setting up inception_5b/relu_5x5
I0403 15:29:44.017695  3152 net.cpp:148] Top shape: 24 128 7 7 (150528)
I0403 15:29:44.017709  3152 net.cpp:156] Memory required for data: 1335929376
I0403 15:29:44.017724  3152 layer_factory.hpp:77] Creating layer inception_5b/pool
I0403 15:29:44.017745  3152 net.cpp:91] Creating Layer inception_5b/pool
I0403 15:29:44.017761  3152 net.cpp:425] inception_5b/pool <- inception_5a/output_inception_5a/output_0_split_3
I0403 15:29:44.017779  3152 net.cpp:399] inception_5b/pool -> inception_5b/pool
I0403 15:29:44.017853  3152 net.cpp:141] Setting up inception_5b/pool
I0403 15:29:44.017877  3152 net.cpp:148] Top shape: 24 832 7 7 (978432)
I0403 15:29:44.017891  3152 net.cpp:156] Memory required for data: 1339843104
I0403 15:29:44.017906  3152 layer_factory.hpp:77] Creating layer inception_5b/pool_proj
I0403 15:29:44.017928  3152 net.cpp:91] Creating Layer inception_5b/pool_proj
I0403 15:29:44.017946  3152 net.cpp:425] inception_5b/pool_proj <- inception_5b/pool
I0403 15:29:44.017967  3152 net.cpp:399] inception_5b/pool_proj -> inception_5b/pool_proj
I0403 15:29:44.020298  3152 net.cpp:141] Setting up inception_5b/pool_proj
I0403 15:29:44.020331  3152 net.cpp:148] Top shape: 24 128 7 7 (150528)
I0403 15:29:44.020349  3152 net.cpp:156] Memory required for data: 1340445216
I0403 15:29:44.020367  3152 layer_factory.hpp:77] Creating layer inception_5b/relu_pool_proj
I0403 15:29:44.020385  3152 net.cpp:91] Creating Layer inception_5b/relu_pool_proj
I0403 15:29:44.020401  3152 net.cpp:425] inception_5b/relu_pool_proj <- inception_5b/pool_proj
I0403 15:29:44.020421  3152 net.cpp:386] inception_5b/relu_pool_proj -> inception_5b/pool_proj (in-place)
I0403 15:29:44.020721  3152 net.cpp:141] Setting up inception_5b/relu_pool_proj
I0403 15:29:44.020750  3152 net.cpp:148] Top shape: 24 128 7 7 (150528)
I0403 15:29:44.020766  3152 net.cpp:156] Memory required for data: 1341047328
I0403 15:29:44.020781  3152 layer_factory.hpp:77] Creating layer inception_5b/output
I0403 15:29:44.020798  3152 net.cpp:91] Creating Layer inception_5b/output
I0403 15:29:44.020828  3152 net.cpp:425] inception_5b/output <- inception_5b/1x1
I0403 15:29:44.020845  3152 net.cpp:425] inception_5b/output <- inception_5b/3x3
I0403 15:29:44.020861  3152 net.cpp:425] inception_5b/output <- inception_5b/5x5
I0403 15:29:44.020876  3152 net.cpp:425] inception_5b/output <- inception_5b/pool_proj
I0403 15:29:44.020896  3152 net.cpp:399] inception_5b/output -> inception_5b/output
I0403 15:29:44.020947  3152 net.cpp:141] Setting up inception_5b/output
I0403 15:29:44.020970  3152 net.cpp:148] Top shape: 24 1024 7 7 (1204224)
I0403 15:29:44.020984  3152 net.cpp:156] Memory required for data: 1345864224
I0403 15:29:44.020998  3152 layer_factory.hpp:77] Creating layer pool5/7x7_s1
I0403 15:29:44.021018  3152 net.cpp:91] Creating Layer pool5/7x7_s1
I0403 15:29:44.021034  3152 net.cpp:425] pool5/7x7_s1 <- inception_5b/output
I0403 15:29:44.021054  3152 net.cpp:399] pool5/7x7_s1 -> pool5/7x7_s1
I0403 15:29:44.021276  3152 net.cpp:141] Setting up pool5/7x7_s1
I0403 15:29:44.021302  3152 net.cpp:148] Top shape: 24 1024 1 1 (24576)
I0403 15:29:44.021317  3152 net.cpp:156] Memory required for data: 1345962528
I0403 15:29:44.021332  3152 layer_factory.hpp:77] Creating layer pool5/drop_7x7_s1
I0403 15:29:44.021349  3152 net.cpp:91] Creating Layer pool5/drop_7x7_s1
I0403 15:29:44.021364  3152 net.cpp:425] pool5/drop_7x7_s1 <- pool5/7x7_s1
I0403 15:29:44.021384  3152 net.cpp:386] pool5/drop_7x7_s1 -> pool5/7x7_s1 (in-place)
I0403 15:29:44.021435  3152 net.cpp:141] Setting up pool5/drop_7x7_s1
I0403 15:29:44.021459  3152 net.cpp:148] Top shape: 24 1024 1 1 (24576)
I0403 15:29:44.021473  3152 net.cpp:156] Memory required for data: 1346060832
I0403 15:29:44.021487  3152 layer_factory.hpp:77] Creating layer loss3/classifier_plantvillage
I0403 15:29:44.021507  3152 net.cpp:91] Creating Layer loss3/classifier_plantvillage
I0403 15:29:44.021522  3152 net.cpp:425] loss3/classifier_plantvillage <- pool5/7x7_s1
I0403 15:29:44.021543  3152 net.cpp:399] loss3/classifier_plantvillage -> loss3/classifier_plantvillage
I0403 15:29:44.021970  3152 net.cpp:141] Setting up loss3/classifier_plantvillage
I0403 15:29:44.021997  3152 net.cpp:148] Top shape: 24 38 (912)
I0403 15:29:44.022012  3152 net.cpp:156] Memory required for data: 1346064480
I0403 15:29:44.022030  3152 layer_factory.hpp:77] Creating layer loss3/classifier_plantvillage_loss3/classifier_plantvillage_0_split
I0403 15:29:44.022049  3152 net.cpp:91] Creating Layer loss3/classifier_plantvillage_loss3/classifier_plantvillage_0_split
I0403 15:29:44.022064  3152 net.cpp:425] loss3/classifier_plantvillage_loss3/classifier_plantvillage_0_split <- loss3/classifier_plantvillage
I0403 15:29:44.022081  3152 net.cpp:399] loss3/classifier_plantvillage_loss3/classifier_plantvillage_0_split -> loss3/classifier_plantvillage_loss3/classifier_plantvillage_0_split_0
I0403 15:29:44.022101  3152 net.cpp:399] loss3/classifier_plantvillage_loss3/classifier_plantvillage_0_split -> loss3/classifier_plantvillage_loss3/classifier_plantvillage_0_split_1
I0403 15:29:44.022120  3152 net.cpp:399] loss3/classifier_plantvillage_loss3/classifier_plantvillage_0_split -> loss3/classifier_plantvillage_loss3/classifier_plantvillage_0_split_2
I0403 15:29:44.022141  3152 net.cpp:399] loss3/classifier_plantvillage_loss3/classifier_plantvillage_0_split -> loss3/classifier_plantvillage_loss3/classifier_plantvillage_0_split_3
I0403 15:29:44.022250  3152 net.cpp:141] Setting up loss3/classifier_plantvillage_loss3/classifier_plantvillage_0_split
I0403 15:29:44.022274  3152 net.cpp:148] Top shape: 24 38 (912)
I0403 15:29:44.022289  3152 net.cpp:148] Top shape: 24 38 (912)
I0403 15:29:44.022305  3152 net.cpp:148] Top shape: 24 38 (912)
I0403 15:29:44.022320  3152 net.cpp:148] Top shape: 24 38 (912)
I0403 15:29:44.022335  3152 net.cpp:156] Memory required for data: 1346079072
I0403 15:29:44.022348  3152 layer_factory.hpp:77] Creating layer loss1/loss
I0403 15:29:44.022369  3152 net.cpp:91] Creating Layer loss1/loss
I0403 15:29:44.022387  3152 net.cpp:425] loss1/loss <- loss1/classifier_plantvillage_loss1/classifier_plantvillage_0_split_0
I0403 15:29:44.022423  3152 net.cpp:425] loss1/loss <- label_data_1_split_0
…
