…
I0403 15:14:11.837160  2836 net.cpp:313] The NetState phase (1) differed from the phase (0) specified by a rule in layer data
I0403 15:14:11.838330  2836 net.cpp:49] Initializing net from parameters: 
state {
  phase: TEST
}
layer {
  name: "data"
  type: "Data"
  top: "data"
  top: "label"
  include {
    phase: TEST
  }
  transform_param {
    mirror: false
    crop_size: 224
    mean_file: "/home/mohanty/data/final_dataset/lmdb/segmented-60-40/mean.binaryproto"
  }
  data_param {
    source: "/home/mohanty/data/final_dataset/lmdb/segmented-60-40/test_db"
    batch_size: 24
    backend: LMDB
  }
}
layer {
  name: "conv1/7x7_s2"
  type: "Convolution"
  bottom: "data"
  top: "conv1/7x7_s2"
  param {
    lr_mult: 1
    decay_mult: 1
  }
  param {
    lr_mult: 2
    decay_mult: 0
  }
  convolution_param {
    num_output: 64
    pad: 3
    kernel_size: 7
    stride: 2
    weight_filler {
      type: "xavier"
      std: 0.1
    }
    bias_filler {
      type: "constant"
      value: 0.2
    }
  }
}
layer {
  name: "conv1/relu_7x7"
  type: "ReLU"
  bottom: "conv1/7x7_s2"
  top: "conv1/7x7_s2"
}
layer {
  name: "pool1/3x3_s2"
  type: "Pooling"
  bottom: "conv1/7x7_s2"
  top: "pool1/3x3_s2"
  pooling_param {
    pool: MAX
    kernel_size: 3
    stride: 2
  }
}
layer {
  name: "pool1/norm1"
  type: "LRN"
  bottom: "pool1/3x3_s2"
  top: "pool1/norm1"
  lrn_param {
    local_size: 5
    alpha: 0.0001
    beta: 0.75
  }
}
layer {
  name: "conv2/3x3_reduce"
  type: "Convolution"
  bottom: "pool1/norm1"
  top: "conv2/3x3_reduce"
  param {
    lr_mult: 1
    decay_mult: 1
  }
  param {
    lr_mult: 2
    decay_mult: 0
  }
  convolution_param {
    num_output: 64
    kernel_size: 1
    weight_filler {
      type: "xavier"
      std: 0.1
    }
    bias_filler {
      type: "constant"
      value: 0.2
    }
  }
}
layer {
  name: "conv2/relu_3x3_reduce"
  type: "ReLU"
  bottom: "conv2/3x3_reduce"
  top: "conv2/3x3_reduce"
}
layer {
  name: "conv2/3x3"
  type: "Convolution"
  bottom: "conv2/3x3_reduce"
  top: "conv2/3x3"
  param {
    lr_mult: 1
    decay_mult: 1
  }
  param {
    lr_mult: 2
    decay_mult: 0
  }
  convolution_param {
    num_output: 192
    pad: 1
    kernel_size: 3
    weight_filler {
      type: "xavier"
      std: 0.03
    }
    bias_filler {
      type: "constant"
      value: 0.2
    }
  }
}
layer {
  name: "conv2/relu_3x3"
  type: "ReLU"
  bottom: "conv2/3x3"
  top: "conv2/3x3"
}
layer {
  name: "conv2/norm2"
  type: "LRN"
  bottom: "conv2/3x3"
  top: "conv2/norm2"
  lrn_param {
    local_size: 5
    alpha: 0.0001
    beta: 0.75
  }
}
layer {
  name: "pool2/3x3_s2"
  type: "Pooling"
  bottom: "conv2/norm2"
  top: "pool2/3x3_s2"
  pooling_param {
    pool: MAX
    kernel_size: 3
    stride: 2
  }
}
layer {
  name: "inception_3a/1x1"
  type: "Convolution"
  bottom: "pool2/3x3_s2"
  top: "inception_3a/1x1"
  param {
    lr_mult: 1
    decay_mult: 1
  }
  param {
    lr_mult: 2
    decay_mult: 0
  }
  convolution_param {
    num_output: 64
    kernel_size: 1
    weight_filler {
      type: "xavier"
      std: 0.03
    }
    bias_filler {
      type: "constant"
      value: 0.2
    }
  }
}
layer {
  name: "inception_3a/relu_1x1"
  type: "ReLU"
  bottom: "inception_3a/1x1"
  top: "inception_3a/1x1"
}
layer {
  name: "inception_3a/3x3_reduce"
  type: "Convolution"
  bottom: "pool2/3x3_s2"
  top: "inception_3a/3x3_reduce"
  param {
    lr_mult: 1
    decay_mult: 1
  }
  param {
    lr_mult: 2
    decay_mult: 0
  }
  convolution_param {
    num_output: 96
    kernel_size: 1
    weight_filler {
      type: "xavier"
      std: 0.09
    }
    bias_filler {
      type: "constant"
      value: 0.2
    }
  }
}
layer {
  name: "inception_3a/relu_3x3_reduce"
  type: "ReLU"
  bottom: "inception_3a/3x3_reduce"
  top: "inception_3a/3x3_reduce"
}
layer {
  name: "inception_3a/3x3"
  type: "Convolution"
  bottom: "inception_3a/3x3_reduce"
  top: "inception_3a/3x3"
  param {
    lr_mult: 1
    decay_mult: 1
  }
  param {
    lr_mult: 2
    decay_mult: 0
  }
  convolution_param {
    num_output: 128
    pad: 1
    kernel_size: 3
    weight_filler {
      type: "xavier"
      std: 0.03
    }
    bias_filler {
      type: "constant"
      value: 0.2
    }
  }
}
layer {
  name: "inception_3a/relu_3x3"
  type: "ReLU"
  bottom: "inception_3a/3x3"
  top: "inception_3a/3x3"
}
layer {
  name: "inception_3a/5x5_reduce"
  type: "Convolution"
  bottom: "pool2/3x3_s2"
  top: "inception_3a/5x5_reduce"
  param {
    lr_mult: 1
    decay_mult: 1
  }
  param {
    lr_mult: 2
    decay_mult: 0
  }
  convolution_param {
    num_output: 16
    kernel_size: 1
    weight_filler {
      type: "xavier"
      std: 0.2
    }
    bias_filler {
      type: "constant"
      value: 0.2
    }
  }
}
layer {
  name: "inception_3a/relu_5x5_reduce"
  type: "ReLU"
  bottom: "inception_3a/5x5_reduce"
  top: "inception_3a/5x5_reduce"
}
layer {
  name: "inception_3a/5x5"
  type: "Convolution"
  bottom: "inception_3a/5x5_reduce"
  top: "inception_3a/5x5"
  param {
    lr_mult: 1
    decay_mult: 1
  }
  param {
    lr_mult: 2
    decay_mult: 0
  }
  convolution_param {
    num_output: 32
    pad: 2
    kernel_size: 5
    weight_filler {
      type: "xavier"
      std: 0.03
    }
    bias_filler {
      type: "constant"
      value: 0.2
    }
  }
}
layer {
  name: "inception_3a/relu_5x5"
  type: "ReLU"
  bottom: "inception_3a/5x5"
  top: "inception_3a/5x5"
}
layer {
  name: "inception_3a/pool"
  type: "Pooling"
  bottom: "pool2/3x3_s2"
  top: "inception_3a/pool"
  pooling_param {
    pool: MAX
    kernel_size: 3
    stride: 1
    pad: 1
  }
}
layer {
  name: "inception_3a/pool_proj"
  type: "Convolution"
  bottom: "inception_3a/pool"
  top: "inception_3a/pool_proj"
  param {
    lr_mult: 1
    decay_mult: 1
  }
  param {
    lr_mult: 2
    decay_mult: 0
  }
  convolution_param {
    num_output: 32
    kernel_size: 1
    weight_filler {
      type: "xavier"
      std: 0.1
    }
    bias_filler {
      type: "constant"
      value: 0.2
    }
  }
}
layer {
  name: "inception_3a/relu_pool_proj"
  type: "ReLU"
  bottom: "inception_3a/pool_proj"
  top: "inception_3a/pool_proj"
}
layer {
  name: "inception_3a/output"
  type: "Concat"
  bottom: "inception_3a/1x1"
  bottom: "inception_3a/3x3"
  bottom: "inception_3a/5x5"
  bottom: "inception_3a/pool_proj"
  top: "inception_3a/output"
}
layer {
  name: "inception_3b/1x1"
  type: "Convolution"
  bottom: "inception_3a/output"
  top: "inception_3b/1x1"
  param {
    lr_mult: 1
    decay_mult: 1
  }
  param {
    lr_mult: 2
    decay_mult: 0
  }
  convolution_param {
    num_output: 128
    kernel_size: 1
    weight_filler {
      type: "xavier"
      std: 0.03
    }
    bias_filler {
      type: "constant"
      value: 0.2
    }
  }
}
layer {
  name: "inception_3b/relu_1x1"
  type: "ReLU"
  bottom: "inception_3b/1x1"
  top: "inception_3b/1x1"
}
layer {
  name: "inception_3b/3x3_reduce"
  type: "Convolution"
  bottom: "inception_3a/output"
  top: "inception_3b/3x3_reduce"
  param {
    lr_mult: 1
    decay_mult: 1
  }
  param {
    lr_mult: 2
    decay_mult: 0
  }
  convolution_param {
    num_output: 128
    kernel_size: 1
    weight_filler {
      type: "xavier"
      std: 0.09
    }
    bias_filler {
      type: "constant"
      value: 0.2
    }
  }
}
layer {
  name: "inception_3b/relu_3x3_reduce"
  type: "ReLU"
  bottom: "inception_3b/3x3_reduce"
  top: "inception_3b/3x3_reduce"
}
layer {
  name: "inception_3b/3x3"
  type: "Convolution"
  bottom: "inception_3b/3x3_reduce"
  top: "inception_3b/3x3"
  param {
    lr_mult: 1
    decay_mult: 1
  }
  param {
    lr_mult: 2
    decay_mult: 0
  }
  convolution_param {
    num_output: 192
    pad: 1
    kernel_size: 3
    weight_filler {
      type: "xavier"
      std: 0.03
    }
    bias_filler {
      type: "constant"
      value: 0.2
    }
  }
}
layer {
  name: "inception_3b/relu_3x3"
  type: "ReLU"
  bottom: "inception_3b/3x3"
  top: "inception_3b/3x3"
}
layer {
  name: "inception_3b/5x5_reduce"
  type: "Convolution"
  bottom: "inception_3a/output"
  top: "inception_3b/5x5_reduce"
  param {
    lr_mult: 1
    decay_mult: 1
  }
  param {
    lr_mult: 2
    decay_mult: 0
  }
  convolution_param {
    num_output: 32
    kernel_size: 1
    weight_filler {
      type: "xavier"
      std: 0.2
    }
    bias_filler {
      type: "constant"
      value: 0.2
    }
  }
}
layer {
  name: "inception_3b/relu_5x5_reduce"
  type: "ReLU"
  bottom: "inception_3b/5x5_reduce"
  top: "inception_3b/5x5_reduce"
}
layer {
  name: "inception_3b/5x5"
  type: "Convolution"
  bottom: "inception_3b/5x5_reduce"
  top: "inception_3b/5x5"
  param {
    lr_mult: 1
    decay_mult: 1
  }
  param {
    lr_mult: 2
    decay_mult: 0
  }
  convolution_param {
    num_output: 96
    pad: 2
    kernel_size: 5
    weight_filler {
      type: "xavier"
      std: 0.03
    }
    bias_filler {
      type: "constant"
      value: 0.2
    }
  }
}
layer {
  name: "inception_3b/relu_5x5"
  type: "ReLU"
  bottom: "inception_3b/5x5"
  top: "inception_3b/5x5"
}
layer {
  name: "inception_3b/pool"
  type: "Pooling"
  bottom: "inception_3a/output"
  top: "inception_3b/pool"
  pooling_param {
    pool: MAX
    kernel_size: 3
    stride: 1
    pad: 1
  }
}
layer {
  name: "inception_3b/pool_proj"
  type: "Convolution"
  bottom: "inception_3b/pool"
  top: "inception_3b/pool_proj"
  param {
    lr_mult: 1
    decay_mult: 1
  }
  param {
    lr_mult: 2
    decay_mult: 0
  }
  convolution_param {
    num_output: 64
    kernel_size: 1
    weight_filler {
      type: "xavier"
      std: 0.1
    }
    bias_filler {
      type: "constant"
      value: 0.2
    }
  }
}
layer {
  name: "inception_3b/relu_pool_proj"
  type: "ReLU"
  bottom: "inception_3b/pool_proj"
  top: "inception_3b/pool_proj"
}
layer {
  name: "inception_3b/output"
  type: "Concat"
  bottom: "inception_3b/1x1"
  bottom: "inception_3b/3x3"
  bottom: "inception_3b/5x5"
  bottom: "inception_3b/pool_proj"
  top: "inception_3b/output"
}
layer {
  name: "pool3/3x3_s2"
  type: "Pooling"
  bottom: "inception_3b/output"
  top: "pool3/3x3_s2"
  pooling_param {
    pool: MAX
    kernel_size: 3
    stride: 2
  }
}
layer {
  name: "inception_4a/1x1"
  type: "Convolution"
  bottom: "pool3/3x3_s2"
  top: "inception_4a/1x1"
  param {
    lr_mult: 1
    decay_mult: 1
  }
  param {
    lr_mult: 2
    decay_mult: 0
  }
  convolution_param {
    num_output: 192
    kernel_size: 1
    weight_filler {
      type: "xavier"
      std: 0.03
    }
    bias_filler {
      type: "constant"
      value: 0.2
    }
  }
}
layer {
  name: "inception_4a/relu_1x1"
  type: "ReLU"
  bottom: "inception_4a/1x1"
  top: "inception_4a/1x1"
}
layer {
  name: "inception_4a/3x3_reduce"
  type: "Convolution"
  bottom: "pool3/3x3_s2"
  top: "inception_4a/3x3_reduce"
  param {
    lr_mult: 1
    decay_mult: 1
  }
  param {
    lr_mult: 2
    decay_mult: 0
  }
  convolution_param {
    num_output: 96
    kernel_size: 1
    weight_filler {
      type: "xavier"
      std: 0.09
    }
    bias_filler {
      type: "constant"
      value: 0.2
    }
  }
}
layer {
  name: "inception_4a/relu_3x3_reduce"
  type: "ReLU"
  bottom: "inception_4a/3x3_reduce"
  top: "inception_4a/3x3_reduce"
}
layer {
  name: "inception_4a/3x3"
  type: "Convolution"
  bottom: "inception_4a/3x3_reduce"
  top: "inception_4a/3x3"
  param {
    lr_mult: 1
    decay_mult: 1
  }
  param {
    lr_mult: 2
    decay_mult: 0
  }
  convolution_param {
    num_output: 208
    pad: 1
    kernel_size: 3
    weight_filler {
      type: "xavier"
      std: 0.03
    }
    bias_filler {
      type: "constant"
      value: 0.2
    }
  }
}
layer {
  name: "inception_4a/relu_3x3"
  type: "ReLU"
  bottom: "inception_4a/3x3"
  top: "inception_4a/3x3"
}
layer {
  name: "inception_4a/5x5_reduce"
  type: "Convolution"
  bottom: "pool3/3x3_s2"
  top: "inception_4a/5x5_reduce"
  param {
    lr_mult: 1
    decay_mult: 1
  }
  param {
    lr_mult: 2
    decay_mult: 0
  }
  convolution_param {
    num_output: 16
    kernel_size: 1
    weight_filler {
      type: "xavier"
      std: 0.2
    }
    bias_filler {
      type: "constant"
      value: 0.2
    }
  }
}
layer {
  name: "inception_4a/relu_5x5_reduce"
  type: "ReLU"
  bottom: "inception_4a/5x5_reduce"
  top: "inception_4a/5x5_reduce"
}
layer {
  name: "inception_4a/5x5"
  type: "Convolution"
  bottom: "inception_4a/5x5_reduce"
  top: "inception_4a/5x5"
  param {
    lr_mult: 1
    decay_mult: 1
  }
  param {
    lr_mult: 2
    decay_mult: 0
  }
  convolution_param {
    num_output: 48
    pad: 2
    kernel_size: 5
    weight_filler {
      type: "xavier"
      std: 0.03
    }
    bias_filler {
      type: "constant"
      value: 0.2
    }
  }
}
layer {
  name: "inception_4a/relu_5x5"
  type: "ReLU"
  bottom: "inception_4a/5x5"
  top: "inception_4a/5x5"
}
layer {
  name: "inception_4a/pool"
  type: "Pooling"
  bottom: "pool3/3x3_s2"
  top: "inception_4a/pool"
  pooling_param {
    pool: MAX
    kernel_size: 3
    stride: 1
    pad: 1
  }
}
layer {
  name: "inception_4a/pool_proj"
  type: "Convolution"
  bottom: "inception_4a/pool"
  top: "inception_4a/pool_proj"
  param {
    lr_mult: 1
    decay_mult: 1
  }
  param {
    lr_mult: 2
    decay_mult: 0
  }
  convolution_param {
    num_output: 64
    kernel_size: 1
    weight_filler {
      type: "xavier"
      std: 0.1
    }
    bias_filler {
      type: "constant"
      value: 0.2
    }
  }
}
layer {
  name: "inception_4a/relu_pool_proj"
  type: "ReLU"
  bottom: "inception_4a/pool_proj"
  top: "inception_4a/pool_proj"
}
layer {
  name: "inception_4a/output"
  type: "Concat"
  bottom: "inception_4a/1x1"
  bottom: "inception_4a/3x3"
  bottom: "inception_4a/5x5"
  bottom: "inception_4a/pool_proj"
  top: "inception_4a/output"
}
layer {
  name: "loss1/ave_pool"
  type: "Pooling"
  bottom: "inception_4a/output"
  top: "loss1/ave_pool"
  pooling_param {
    pool: AVE
    kernel_size: 5
    stride: 3
  }
}
layer {
  name: "loss1/conv"
  type: "Convolution"
  bottom: "loss1/ave_pool"
  top: "loss1/conv"
  param {
    lr_mult: 1
    decay_mult: 1
  }
  param {
    lr_mult: 2
    decay_mult: 0
  }
  convolution_param {
    num_output: 128
    kernel_size: 1
    weight_filler {
      type: "xavier"
      std: 0.08
    }
    bias_filler {
      type: "constant"
      value: 0.2
    }
  }
}
layer {
  name: "loss1/relu_conv"
  type: "ReLU"
  bottom: "loss1/conv"
  top: "loss1/conv"
}
layer {
  name: "loss1/fc"
  type: "InnerProduct"
  bottom: "loss1/conv"
  top: "loss1/fc"
  param {
    lr_mult: 1
    decay_mult: 1
  }
  param {
    lr_mult: 2
    decay_mult: 0
  }
  inner_product_param {
    num_output: 1024
    weight_filler {
      type: "xavier"
      std: 0.02
    }
    bias_filler {
      type: "constant"
      value: 0.2
    }
  }
}
layer {
  name: "loss1/relu_fc"
  type: "ReLU"
  bottom: "loss1/fc"
  top: "loss1/fc"
}
layer {
  name: "loss1/drop_fc"
  type: "Dropout"
  bottom: "loss1/fc"
  top: "loss1/fc"
  dropout_param {
    dropout_ratio: 0.7
  }
}
layer {
  name: "loss1/classifier_plantvillage"
  type: "InnerProduct"
  bottom: "loss1/fc"
  top: "loss1/classifier_plantvillage"
  param {
    lr_mult: 1
    decay_mult: 1
  }
  param {
    lr_mult: 2
    decay_mult: 0
  }
  inner_product_param {
    num_output: 38
    weight_filler {
      type: "xavier"
      std: 0.0009765625
    }
    bias_filler {
      type: "constant"
      value: 0
    }
  }
}
layer {
  name: "inception_4b/1x1"
  type: "Convolution"
  bottom: "inception_4a/output"
  top: "inception_4b/1x1"
  param {
    lr_mult: 1
    decay_mult: 1
  }
  param {
    lr_mult: 2
    decay_mult: 0
  }
  convolution_param {
    num_output: 160
    kernel_size: 1
    weight_filler {
      type: "xavier"
      std: 0.03
    }
    bias_filler {
      type: "constant"
      value: 0.2
    }
  }
}
layer {
  name: "inception_4b/relu_1x1"
  type: "ReLU"
  bottom: "inception_4b/1x1"
  top: "inception_4b/1x1"
}
layer {
  name: "inception_4b/3x3_reduce"
  type: "Convolution"
  bottom: "inception_4a/output"
  top: "inception_4b/3x3_reduce"
  param {
    lr_mult: 1
    decay_mult: 1
  }
  param {
    lr_mult: 2
    decay_mult: 0
  }
  convolution_param {
    num_output: 112
    kernel_size: 1
    weight_filler {
      type: "xavier"
      std: 0.09
    }
    bias_filler {
      type: "constant"
      value: 0.2
    }
  }
}
layer {
  name: "inception_4b/relu_3x3_reduce"
  type: "ReLU"
  bottom: "inception_4b/3x3_reduce"
  top: "inception_4b/3x3_reduce"
}
layer {
  name: "inception_4b/3x3"
  type: "Convolution"
  bottom: "inception_4b/3x3_reduce"
  top: "inception_4b/3x3"
  param {
    lr_mult: 1
    decay_mult: 1
  }
  param {
    lr_mult: 2
    decay_mult: 0
  }
  convolution_param {
    num_output: 224
    pad: 1
    kernel_size: 3
    weight_filler {
      type: "xavier"
      std: 0.03
    }
    bias_filler {
      type: "constant"
      value: 0.2
    }
  }
}
layer {
  name: "inception_4b/relu_3x3"
  type: "ReLU"
  bottom: "inception_4b/3x3"
  top: "inception_4b/3x3"
}
layer {
  name: "inception_4b/5x5_reduce"
  type: "Convolution"
  bottom: "inception_4a/output"
  top: "inception_4b/5x5_reduce"
  param {
    lr_mult: 1
    decay_mult: 1
  }
  param {
    lr_mult: 2
    decay_mult: 0
  }
  convolution_param {
    num_output: 24
    kernel_size: 1
    weight_filler {
      type: "xavier"
      std: 0.2
    }
    bias_filler {
      type: "constant"
      value: 0.2
    }
  }
}
layer {
  name: "inception_4b/relu_5x5_reduce"
  type: "ReLU"
  bottom: "inception_4b/5x5_reduce"
  top: "inception_4b/5x5_reduce"
}
layer {
  name: "inception_4b/5x5"
  type: "Convolution"
  bottom: "inception_4b/5x5_reduce"
  top: "inception_4b/5x5"
  param {
    lr_mult: 1
    decay_mult: 1
  }
  param {
    lr_mult: 2
    decay_mult: 0
  }
  convolution_param {
    num_output: 64
    pad: 2
    kernel_size: 5
    weight_filler {
      type: "xavier"
      std: 0.03
    }
    bias_filler {
      type: "constant"
      value: 0.2
    }
  }
}
layer {
  name: "inception_4b/relu_5x5"
  type: "ReLU"
  bottom: "inception_4b/5x5"
  top: "inception_4b/5x5"
}
layer {
  name: "inception_4b/pool"
  type: "Pooling"
  bottom: "inception_4a/output"
  top: "inception_4b/pool"
  pooling_param {
    pool: MAX
    kernel_size: 3
    stride: 1
    pad: 1
  }
}
layer {
  name: "inception_4b/pool_proj"
  type: "Convolution"
  bottom: "inception_4b/pool"
  top: "inception_4b/pool_proj"
  param {
    lr_mult: 1
    decay_mult: 1
  }
  param {
    lr_mult: 2
    decay_mult: 0
  }
  convolution_param {
    num_output: 64
    kernel_size: 1
    weight_filler {
      type: "xavier"
      std: 0.1
    }
    bias_filler {
      type: "constant"
      value: 0.2
    }
  }
}
layer {
  name: "inception_4b/relu_pool_proj"
  type: "ReLU"
  bottom: "inception_4b/pool_proj"
  top: "inception_4b/pool_proj"
}
layer {
  name: "inception_4b/output"
  type: "Concat"
  bottom: "inception_4b/1x1"
  bottom: "inception_4b/3x3"
  bottom: "inception_4b/5x5"
  bottom: "inception_4b/pool_proj"
  top: "inception_4b/output"
}
layer {
  name: "inception_4c/1x1"
  type: "Convolution"
  bottom: "inception_4b/output"
  top: "inception_4c/1x1"
  param {
    lr_mult: 1
    decay_mult: 1
  }
  param {
    lr_mult: 2
    decay_mult: 0
  }
  convolution_param {
    num_output: 128
    kernel_size: 1
    weight_filler {
      type: "xavier"
      std: 0.03
    }
    bias_filler {
      type: "constant"
      value: 0.2
    }
  }
}
layer {
  name: "inception_4c/relu_1x1"
  type: "ReLU"
  bottom: "inception_4c/1x1"
  top: "inception_4c/1x1"
}
layer {
  name: "inception_4c/3x3_reduce"
  type: "Convolution"
  bottom: "inception_4b/output"
  top: "inception_4c/3x3_reduce"
  param {
    lr_mult: 1
    decay_mult: 1
  }
  param {
    lr_mult: 2
    decay_mult: 0
  }
  convolution_param {
    num_output: 128
    kernel_size: 1
    weight_filler {
      type: "xavier"
      std: 0.09
    }
    bias_filler {
      type: "constant"
      value: 0.2
    }
  }
}
layer {
  name: "inception_4c/relu_3x3_reduce"
  type: "ReLU"
  bottom: "inception_4c/3x3_reduce"
  top: "inception_4c/3x3_reduce"
}
layer {
  name: "inception_4c/3x3"
  type: "Convolution"
  bottom: "inception_4c/3x3_reduce"
  top: "inception_4c/3x3"
  param {
    lr_mult: 1
    decay_mult: 1
  }
  param {
    lr_mult: 2
    decay_mult: 0
  }
  convolution_param {
    num_output: 256
    pad: 1
    kernel_size: 3
    weight_filler {
      type: "xavier"
      std: 0.03
    }
    bias_filler {
      type: "constant"
      value: 0.2
    }
  }
}
layer {
  name: "inception_4c/relu_3x3"
  type: "ReLU"
  bottom: "inception_4c/3x3"
  top: "inception_4c/3x3"
}
layer {
  name: "inception_4c/5x5_reduce"
  type: "Convolution"
  bottom: "inception_4b/output"
  top: "inception_4c/5x5_reduce"
  param {
    lr_mult: 1
    decay_mult: 1
  }
  param {
    lr_mult: 2
    decay_mult: 0
  }
  convolution_param {
    num_output: 24
    kernel_size: 1
    weight_filler {
      type: "xavier"
      std: 0.2
    }
    bias_filler {
      type: "constant"
      value: 0.2
    }
  }
}
layer {
  name: "inception_4c/relu_5x5_reduce"
  type: "ReLU"
  bottom: "inception_4c/5x5_reduce"
  top: "inception_4c/5x5_reduce"
}
layer {
  name: "inception_4c/5x5"
  type: "Convolution"
  bottom: "inception_4c/5x5_reduce"
  top: "inception_4c/5x5"
  param {
    lr_mult: 1
    decay_mult: 1
  }
  param {
    lr_mult: 2
    decay_mult: 0
  }
  convolution_param {
    num_output: 64
    pad: 2
    kernel_size: 5
    weight_filler {
      type: "xavier"
      std: 0.03
    }
    bias_filler {
      type: "constant"
      value: 0.2
    }
  }
}
layer {
  name: "inception_4c/relu_5x5"
  type: "ReLU"
  bottom: "inception_4c/5x5"
  top: "inception_4c/5x5"
}
layer {
  name: "inception_4c/pool"
  type: "Pooling"
  bottom: "inception_4b/output"
  top: "inception_4c/pool"
  pooling_param {
    pool: MAX
    kernel_size: 3
    stride: 1
    pad: 1
  }
}
layer {
  name: "inception_4c/pool_proj"
  type: "Convolution"
  bottom: "inception_4c/pool"
  top: "inception_4c/pool_proj"
  param {
    lr_mult: 1
    decay_mult: 1
  }
  param {
    lr_mult: 2
    decay_mult: 0
  }
  convolution_param {
    num_output: 64
    kernel_size: 1
    weight_filler {
      type: "xavier"
      std: 0.1
    }
    bias_filler {
      type: "constant"
      value: 0.2
    }
  }
}
layer {
  name: "inception_4c/relu_pool_proj"
  type: "ReLU"
  bottom: "inception_4c/pool_proj"
  top: "inception_4c/pool_proj"
}
layer {
  name: "inception_4c/output"
  type: "Concat"
  bottom: "inception_4c/1x1"
  bottom: "inception_4c/3x3"
  bottom: "inception_4c/5x5"
  bottom: "inception_4c/pool_proj"
  top: "inception_4c/output"
}
layer {
  name: "inception_4d/1x1"
  type: "Convolution"
  bottom: "inception_4c/output"
  top: "inception_4d/1x1"
  param {
    lr_mult: 1
    decay_mult: 1
  }
  param {
    lr_mult: 2
    decay_mult: 0
  }
  convolution_param {
    num_output: 112
    kernel_size: 1
    weight_filler {
      type: "xavier"
      std: 0.03
    }
    bias_filler {
      type: "constant"
      value: 0.2
    }
  }
}
layer {
  name: "inception_4d/relu_1x1"
  type: "ReLU"
  bottom: "inception_4d/1x1"
  top: "inception_4d/1x1"
}
layer {
  name: "inception_4d/3x3_reduce"
  type: "Convolution"
  bottom: "inception_4c/output"
  top: "inception_4d/3x3_reduce"
  param {
    lr_mult: 1
    decay_mult: 1
  }
  param {
    lr_mult: 2
    decay_mult: 0
  }
  convolution_param {
    num_output: 144
    kernel_size: 1
    weight_filler {
      type: "xavier"
      std: 0.09
    }
    bias_filler {
      type: "constant"
      value: 0.2
    }
  }
}
layer {
  name: "inception_4d/relu_3x3_reduce"
  type: "ReLU"
  bottom: "inception_4d/3x3_reduce"
  top: "inception_4d/3x3_reduce"
}
layer {
  name: "inception_4d/3x3"
  type: "Convolution"
  bottom: "inception_4d/3x3_reduce"
  top: "inception_4d/3x3"
  param {
    lr_mult: 1
    decay_mult: 1
  }
  param {
    lr_mult: 2
    decay_mult: 0
  }
  convolution_param {
    num_output: 288
    pad: 1
    kernel_size: 3
    weight_filler {
      type: "xavier"
      std: 0.03
    }
    bias_filler {
      type: "constant"
      value: 0.2
    }
  }
}
layer {
  name: "inception_4d/relu_3x3"
  type: "ReLU"
  bottom: "inception_4d/3x3"
  top: "inception_4d/3x3"
}
layer {
  name: "inception_4d/5x5_reduce"
  type: "Convolution"
  bottom: "inception_4c/output"
  top: "inception_4d/5x5_reduce"
  param {
    lr_mult: 1
    decay_mult: 1
  }
  param {
    lr_mult: 2
    decay_mult: 0
  }
  convolution_param {
    num_output: 32
    kernel_size: 1
    weight_filler {
      type: "xavier"
      std: 0.2
    }
    bias_filler {
      type: "constant"
      value: 0.2
    }
  }
}
layer {
  name: "inception_4d/relu_5x5_reduce"
  type: "ReLU"
  bottom: "inception_4d/5x5_reduce"
  top: "inception_4d/5x5_reduce"
}
layer {
  name: "inception_4d/5x5"
  type: "Convolution"
  bottom: "inception_4d/5x5_reduce"
  top: "inception_4d/5x5"
  param {
    lr_mult: 1
    decay_mult: 1
  }
  param {
    lr_mult: 2
    decay_mult: 0
  }
  convolution_param {
    num_output: 64
    pad: 2
    kernel_size: 5
    weight_filler {
      type: "xavier"
      std: 0.03
    }
    bias_filler {
      type: "constant"
      value: 0.2
    }
  }
}
layer {
  name: "inception_4d/relu_5x5"
  type: "ReLU"
  bottom: "inception_4d/5x5"
  top: "inception_4d/5x5"
}
layer {
  name: "inception_4d/pool"
  type: "Pooling"
  bottom: "inception_4c/output"
  top: "inception_4d/pool"
  pooling_param {
    pool: MAX
    kernel_size: 3
    stride: 1
    pad: 1
  }
}
layer {
  name: "inception_4d/pool_proj"
  type: "Convolution"
  bottom: "inception_4d/pool"
  top: "inception_4d/pool_proj"
  param {
    lr_mult: 1
    decay_mult: 1
  }
  param {
    lr_mult: 2
    decay_mult: 0
  }
  convolution_param {
    num_output: 64
    kernel_size: 1
    weight_filler {
      type: "xavier"
      std: 0.1
    }
    bias_filler {
      type: "constant"
      value: 0.2
    }
  }
}
layer {
  name: "inception_4d/relu_pool_proj"
  type: "ReLU"
  bottom: "inception_4d/pool_proj"
  top: "inception_4d/pool_proj"
}
layer {
  name: "inception_4d/output"
  type: "Concat"
  bottom: "inception_4d/1x1"
  bottom: "inception_4d/3x3"
  bottom: "inception_4d/5x5"
  bottom: "inception_4d/pool_proj"
  top: "inception_4d/output"
}
layer {
  name: "loss2/ave_pool"
  type: "Pooling"
  bottom: "inception_4d/output"
  top: "loss2/ave_pool"
  pooling_param {
    pool: AVE
    kernel_size: 5
    stride: 3
  }
}
layer {
  name: "loss2/conv"
  type: "Convolution"
  bottom: "loss2/ave_pool"
  top: "loss2/conv"
  param {
    lr_mult: 1
    decay_mult: 1
  }
  param {
    lr_mult: 2
    decay_mult: 0
  }
  convolution_param {
    num_output: 128
    kernel_size: 1
    weight_filler {
      type: "xavier"
      std: 0.08
    }
    bias_filler {
      type: "constant"
      value: 0.2
    }
  }
}
layer {
  name: "loss2/relu_conv"
  type: "ReLU"
  bottom: "loss2/conv"
  top: "loss2/conv"
}
layer {
  name: "loss2/fc"
  type: "InnerProduct"
  bottom: "loss2/conv"
  top: "loss2/fc"
  param {
    lr_mult: 1
    decay_mult: 1
  }
  param {
    lr_mult: 2
    decay_mult: 0
  }
  inner_product_param {
    num_output: 1024
    weight_filler {
      type: "xavier"
      std: 0.02
    }
    bias_filler {
      type: "constant"
      value: 0.2
    }
  }
}
layer {
  name: "loss2/relu_fc"
  type: "ReLU"
  bottom: "loss2/fc"
  top: "loss2/fc"
}
layer {
  name: "loss2/drop_fc"
  type: "Dropout"
  bottom: "loss2/fc"
  top: "loss2/fc"
  dropout_param {
    dropout_ratio: 0.7
  }
}
layer {
  name: "loss2/classifier_plantvillage"
  type: "InnerProduct"
  bottom: "loss2/fc"
  top: "loss2/classifier_plantvillage"
  param {
    lr_mult: 1
    decay_mult: 1
  }
  param {
    lr_mult: 2
    decay_mult: 0
  }
  inner_product_param {
    num_output: 38
    weight_filler {
      type: "xavier"
      std: 0.0009765625
    }
    bias_filler {
      type: "constant"
      value: 0
    }
  }
}
layer {
  name: "inception_4e/1x1"
  type: "Convolution"
  bottom: "inception_4d/output"
  top: "inception_4e/1x1"
  param {
    lr_mult: 1
    decay_mult: 1
  }
  param {
    lr_mult: 2
    decay_mult: 0
  }
  convolution_param {
    num_output: 256
    kernel_size: 1
    weight_filler {
      type: "xavier"
      std: 0.03
    }
    bias_filler {
      type: "constant"
      value: 0.2
    }
  }
}
layer {
  name: "inception_4e/relu_1x1"
  type: "ReLU"
  bottom: "inception_4e/1x1"
  top: "inception_4e/1x1"
}
layer {
  name: "inception_4e/3x3_reduce"
  type: "Convolution"
  bottom: "inception_4d/output"
  top: "inception_4e/3x3_reduce"
  param {
    lr_mult: 1
    decay_mult: 1
  }
  param {
    lr_mult: 2
    decay_mult: 0
  }
  convolution_param {
    num_output: 160
    kernel_size: 1
    weight_filler {
      type: "xavier"
      std: 0.09
    }
    bias_filler {
      type: "constant"
      value: 0.2
    }
  }
}
layer {
  name: "inception_4e/relu_3x3_reduce"
  type: "ReLU"
  bottom: "inception_4e/3x3_reduce"
  top: "inception_4e/3x3_reduce"
}
layer {
  name: "inception_4e/3x3"
  type: "Convolution"
  bottom: "inception_4e/3x3_reduce"
  top: "inception_4e/3x3"
  param {
    lr_mult: 1
    decay_mult: 1
  }
  param {
    lr_mult: 2
    decay_mult: 0
  }
  convolution_param {
    num_output: 320
    pad: 1
    kernel_size: 3
    weight_filler {
      type: "xavier"
      std: 0.03
    }
    bias_filler {
      type: "constant"
      value: 0.2
    }
  }
}
layer {
  name: "inception_4e/relu_3x3"
  type: "ReLU"
  bottom: "inception_4e/3x3"
  top: "inception_4e/3x3"
}
layer {
  name: "inception_4e/5x5_reduce"
  type: "Convolution"
  bottom: "inception_4d/output"
  top: "inception_4e/5x5_reduce"
  param {
    lr_mult: 1
    decay_mult: 1
  }
  param {
    lr_mult: 2
    decay_mult: 0
  }
  convolution_param {
    num_output: 32
    kernel_size: 1
    weight_filler {
      type: "xavier"
      std: 0.2
    }
    bias_filler {
      type: "constant"
      value: 0.2
    }
  }
}
layer {
  name: "inception_4e/relu_5x5_reduce"
  type: "ReLU"
  bottom: "inception_4e/5x5_reduce"
  top: "inception_4e/5x5_reduce"
}
layer {
  name: "inception_4e/5x5"
  type: "Convolution"
  bottom: "inception_4e/5x5_reduce"
  top: "inception_4e/
I0403 15:14:11.839618  2836 layer_factory.hpp:77] Creating layer data
I0403 15:14:11.840227  2836 net.cpp:91] Creating Layer data
I0403 15:14:11.840260  2836 net.cpp:399] data -> data
I0403 15:14:11.840307  2836 net.cpp:399] data -> label
I0403 15:14:11.840348  2836 data_transformer.cpp:25] Loading mean file from: /home/mohanty/data/final_dataset/lmdb/segmented-60-40/mean.binaryproto
I0403 15:14:11.843108  2845 db_lmdb.cpp:38] Opened lmdb /home/mohanty/data/final_dataset/lmdb/segmented-60-40/test_db
I0403 15:14:11.853339  2836 data_layer.cpp:41] output data size: 24,3,224,224
I0403 15:14:11.880695  2836 net.cpp:141] Setting up data
I0403 15:14:11.880782  2836 net.cpp:148] Top shape: 24 3 224 224 (3612672)
I0403 15:14:11.880805  2836 net.cpp:148] Top shape: 24 (24)
I0403 15:14:11.880821  2836 net.cpp:156] Memory required for data: 14450784
I0403 15:14:11.880849  2836 layer_factory.hpp:77] Creating layer label_data_1_split
I0403 15:14:11.880877  2836 net.cpp:91] Creating Layer label_data_1_split
I0403 15:14:11.880895  2836 net.cpp:425] label_data_1_split <- label
I0403 15:14:11.880928  2836 net.cpp:399] label_data_1_split -> label_data_1_split_0
I0403 15:14:11.880956  2836 net.cpp:399] label_data_1_split -> label_data_1_split_1
I0403 15:14:11.880980  2836 net.cpp:399] label_data_1_split -> label_data_1_split_2
I0403 15:14:11.881001  2836 net.cpp:399] label_data_1_split -> label_data_1_split_3
I0403 15:14:11.881023  2836 net.cpp:399] label_data_1_split -> label_data_1_split_4
I0403 15:14:11.881047  2836 net.cpp:399] label_data_1_split -> label_data_1_split_5
I0403 15:14:11.881067  2836 net.cpp:399] label_data_1_split -> label_data_1_split_6
I0403 15:14:11.881090  2836 net.cpp:399] label_data_1_split -> label_data_1_split_7
I0403 15:14:11.881113  2836 net.cpp:399] label_data_1_split -> label_data_1_split_8
I0403 15:14:11.881134  2836 net.cpp:399] label_data_1_split -> label_data_1_split_9
I0403 15:14:11.881258  2836 net.cpp:141] Setting up label_data_1_split
I0403 15:14:11.881284  2836 net.cpp:148] Top shape: 24 (24)
I0403 15:14:11.881302  2836 net.cpp:148] Top shape: 24 (24)
I0403 15:14:11.881319  2836 net.cpp:148] Top shape: 24 (24)
I0403 15:14:11.881336  2836 net.cpp:148] Top shape: 24 (24)
I0403 15:14:11.881353  2836 net.cpp:148] Top shape: 24 (24)
I0403 15:14:11.881371  2836 net.cpp:148] Top shape: 24 (24)
I0403 15:14:11.881387  2836 net.cpp:148] Top shape: 24 (24)
I0403 15:14:11.881404  2836 net.cpp:148] Top shape: 24 (24)
I0403 15:14:11.881422  2836 net.cpp:148] Top shape: 24 (24)
I0403 15:14:11.881438  2836 net.cpp:148] Top shape: 24 (24)
I0403 15:14:11.881484  2836 net.cpp:156] Memory required for data: 14451744
I0403 15:14:11.881501  2836 layer_factory.hpp:77] Creating layer conv1/7x7_s2
I0403 15:14:11.881534  2836 net.cpp:91] Creating Layer conv1/7x7_s2
I0403 15:14:11.881553  2836 net.cpp:425] conv1/7x7_s2 <- data
I0403 15:14:11.881575  2836 net.cpp:399] conv1/7x7_s2 -> conv1/7x7_s2
I0403 15:14:14.118999  2836 net.cpp:141] Setting up conv1/7x7_s2
I0403 15:14:14.119099  2836 net.cpp:148] Top shape: 24 64 112 112 (19267584)
I0403 15:14:14.119122  2836 net.cpp:156] Memory required for data: 91522080
I0403 15:14:14.119160  2836 layer_factory.hpp:77] Creating layer conv1/relu_7x7
I0403 15:14:14.119194  2836 net.cpp:91] Creating Layer conv1/relu_7x7
I0403 15:14:14.119221  2836 net.cpp:425] conv1/relu_7x7 <- conv1/7x7_s2
I0403 15:14:14.119246  2836 net.cpp:386] conv1/relu_7x7 -> conv1/7x7_s2 (in-place)
I0403 15:14:14.119544  2836 net.cpp:141] Setting up conv1/relu_7x7
I0403 15:14:14.119578  2836 net.cpp:148] Top shape: 24 64 112 112 (19267584)
I0403 15:14:14.119597  2836 net.cpp:156] Memory required for data: 168592416
I0403 15:14:14.119616  2836 layer_factory.hpp:77] Creating layer pool1/3x3_s2
I0403 15:14:14.119647  2836 net.cpp:91] Creating Layer pool1/3x3_s2
I0403 15:14:14.119668  2836 net.cpp:425] pool1/3x3_s2 <- conv1/7x7_s2
I0403 15:14:14.119693  2836 net.cpp:399] pool1/3x3_s2 -> pool1/3x3_s2
I0403 15:14:14.119779  2836 net.cpp:141] Setting up pool1/3x3_s2
I0403 15:14:14.119809  2836 net.cpp:148] Top shape: 24 64 56 56 (4816896)
I0403 15:14:14.119828  2836 net.cpp:156] Memory required for data: 187860000
I0403 15:14:14.119848  2836 layer_factory.hpp:77] Creating layer pool1/norm1
I0403 15:14:14.119879  2836 net.cpp:91] Creating Layer pool1/norm1
I0403 15:14:14.119900  2836 net.cpp:425] pool1/norm1 <- pool1/3x3_s2
I0403 15:14:14.119922  2836 net.cpp:399] pool1/norm1 -> pool1/norm1
I0403 15:14:14.120259  2836 net.cpp:141] Setting up pool1/norm1
I0403 15:14:14.120295  2836 net.cpp:148] Top shape: 24 64 56 56 (4816896)
I0403 15:14:14.120316  2836 net.cpp:156] Memory required for data: 207127584
I0403 15:14:14.120334  2836 layer_factory.hpp:77] Creating layer conv2/3x3_reduce
I0403 15:14:14.120367  2836 net.cpp:91] Creating Layer conv2/3x3_reduce
I0403 15:14:14.120388  2836 net.cpp:425] conv2/3x3_reduce <- pool1/norm1
I0403 15:14:14.120409  2836 net.cpp:399] conv2/3x3_reduce -> conv2/3x3_reduce
I0403 15:14:14.121992  2836 net.cpp:141] Setting up conv2/3x3_reduce
I0403 15:14:14.122030  2836 net.cpp:148] Top shape: 24 64 56 56 (4816896)
I0403 15:14:14.122051  2836 net.cpp:156] Memory required for data: 226395168
I0403 15:14:14.122079  2836 layer_factory.hpp:77] Creating layer conv2/relu_3x3_reduce
I0403 15:14:14.122102  2836 net.cpp:91] Creating Layer conv2/relu_3x3_reduce
I0403 15:14:14.122124  2836 net.cpp:425] conv2/relu_3x3_reduce <- conv2/3x3_reduce
I0403 15:14:14.122148  2836 net.cpp:386] conv2/relu_3x3_reduce -> conv2/3x3_reduce (in-place)
I0403 15:14:14.122442  2836 net.cpp:141] Setting up conv2/relu_3x3_reduce
I0403 15:14:14.122476  2836 net.cpp:148] Top shape: 24 64 56 56 (4816896)
I0403 15:14:14.122495  2836 net.cpp:156] Memory required for data: 245662752
I0403 15:14:14.122514  2836 layer_factory.hpp:77] Creating layer conv2/3x3
I0403 15:14:14.122541  2836 net.cpp:91] Creating Layer conv2/3x3
I0403 15:14:14.122562  2836 net.cpp:425] conv2/3x3 <- conv2/3x3_reduce
I0403 15:14:14.122586  2836 net.cpp:399] conv2/3x3 -> conv2/3x3
I0403 15:14:14.125247  2836 net.cpp:141] Setting up conv2/3x3
I0403 15:14:14.125288  2836 net.cpp:148] Top shape: 24 192 56 56 (14450688)
I0403 15:14:14.125308  2836 net.cpp:156] Memory required for data: 303465504
I0403 15:14:14.125334  2836 layer_factory.hpp:77] Creating layer conv2/relu_3x3
I0403 15:14:14.125357  2836 net.cpp:91] Creating Layer conv2/relu_3x3
I0403 15:14:14.125376  2836 net.cpp:425] conv2/relu_3x3 <- conv2/3x3
I0403 15:14:14.125398  2836 net.cpp:386] conv2/relu_3x3 -> conv2/3x3 (in-place)
I0403 15:14:14.125597  2836 net.cpp:141] Setting up conv2/relu_3x3
I0403 15:14:14.125627  2836 net.cpp:148] Top shape: 24 192 56 56 (14450688)
I0403 15:14:14.125682  2836 net.cpp:156] Memory required for data: 361268256
I0403 15:14:14.125704  2836 layer_factory.hpp:77] Creating layer conv2/norm2
I0403 15:14:14.125727  2836 net.cpp:91] Creating Layer conv2/norm2
I0403 15:14:14.125749  2836 net.cpp:425] conv2/norm2 <- conv2/3x3
I0403 15:14:14.125771  2836 net.cpp:399] conv2/norm2 -> conv2/norm2
I0403 15:14:14.126126  2836 net.cpp:141] Setting up conv2/norm2
I0403 15:14:14.126159  2836 net.cpp:148] Top shape: 24 192 56 56 (14450688)
I0403 15:14:14.126178  2836 net.cpp:156] Memory required for data: 419071008
I0403 15:14:14.126197  2836 layer_factory.hpp:77] Creating layer pool2/3x3_s2
I0403 15:14:14.126237  2836 net.cpp:91] Creating Layer pool2/3x3_s2
I0403 15:14:14.126260  2836 net.cpp:425] pool2/3x3_s2 <- conv2/norm2
I0403 15:14:14.126286  2836 net.cpp:399] pool2/3x3_s2 -> pool2/3x3_s2
I0403 15:14:14.126351  2836 net.cpp:141] Setting up pool2/3x3_s2
I0403 15:14:14.126379  2836 net.cpp:148] Top shape: 24 192 28 28 (3612672)
I0403 15:14:14.126397  2836 net.cpp:156] Memory required for data: 433521696
I0403 15:14:14.126416  2836 layer_factory.hpp:77] Creating layer pool2/3x3_s2_pool2/3x3_s2_0_split
I0403 15:14:14.126441  2836 net.cpp:91] Creating Layer pool2/3x3_s2_pool2/3x3_s2_0_split
I0403 15:14:14.126461  2836 net.cpp:425] pool2/3x3_s2_pool2/3x3_s2_0_split <- pool2/3x3_s2
I0403 15:14:14.126485  2836 net.cpp:399] pool2/3x3_s2_pool2/3x3_s2_0_split -> pool2/3x3_s2_pool2/3x3_s2_0_split_0
I0403 15:14:14.126513  2836 net.cpp:399] pool2/3x3_s2_pool2/3x3_s2_0_split -> pool2/3x3_s2_pool2/3x3_s2_0_split_1
I0403 15:14:14.126536  2836 net.cpp:399] pool2/3x3_s2_pool2/3x3_s2_0_split -> pool2/3x3_s2_pool2/3x3_s2_0_split_2
I0403 15:14:14.126561  2836 net.cpp:399] pool2/3x3_s2_pool2/3x3_s2_0_split -> pool2/3x3_s2_pool2/3x3_s2_0_split_3
I0403 15:14:14.126646  2836 net.cpp:141] Setting up pool2/3x3_s2_pool2/3x3_s2_0_split
I0403 15:14:14.126673  2836 net.cpp:148] Top shape: 24 192 28 28 (3612672)
I0403 15:14:14.126698  2836 net.cpp:148] Top shape: 24 192 28 28 (3612672)
I0403 15:14:14.126719  2836 net.cpp:148] Top shape: 24 192 28 28 (3612672)
I0403 15:14:14.126739  2836 net.cpp:148] Top shape: 24 192 28 28 (3612672)
I0403 15:14:14.126757  2836 net.cpp:156] Memory required for data: 491324448
I0403 15:14:14.126775  2836 layer_factory.hpp:77] Creating layer inception_3a/1x1
I0403 15:14:14.126801  2836 net.cpp:91] Creating Layer inception_3a/1x1
I0403 15:14:14.126821  2836 net.cpp:425] inception_3a/1x1 <- pool2/3x3_s2_pool2/3x3_s2_0_split_0
I0403 15:14:14.126850  2836 net.cpp:399] inception_3a/1x1 -> inception_3a/1x1
I0403 15:14:14.128674  2836 net.cpp:141] Setting up inception_3a/1x1
I0403 15:14:14.128710  2836 net.cpp:148] Top shape: 24 64 28 28 (1204224)
I0403 15:14:14.128731  2836 net.cpp:156] Memory required for data: 496141344
I0403 15:14:14.128756  2836 layer_factory.hpp:77] Creating layer inception_3a/relu_1x1
I0403 15:14:14.128782  2836 net.cpp:91] Creating Layer inception_3a/relu_1x1
I0403 15:14:14.128803  2836 net.cpp:425] inception_3a/relu_1x1 <- inception_3a/1x1
I0403 15:14:14.128824  2836 net.cpp:386] inception_3a/relu_1x1 -> inception_3a/1x1 (in-place)
I0403 15:14:14.129032  2836 net.cpp:141] Setting up inception_3a/relu_1x1
I0403 15:14:14.129063  2836 net.cpp:148] Top shape: 24 64 28 28 (1204224)
I0403 15:14:14.129082  2836 net.cpp:156] Memory required for data: 500958240
I0403 15:14:14.129102  2836 layer_factory.hpp:77] Creating layer inception_3a/3x3_reduce
I0403 15:14:14.129132  2836 net.cpp:91] Creating Layer inception_3a/3x3_reduce
I0403 15:14:14.129154  2836 net.cpp:425] inception_3a/3x3_reduce <- pool2/3x3_s2_pool2/3x3_s2_0_split_1
I0403 15:14:14.129178  2836 net.cpp:399] inception_3a/3x3_reduce -> inception_3a/3x3_reduce
I0403 15:14:14.131204  2836 net.cpp:141] Setting up inception_3a/3x3_reduce
I0403 15:14:14.131254  2836 net.cpp:148] Top shape: 24 96 28 28 (1806336)
I0403 15:14:14.131275  2836 net.cpp:156] Memory required for data: 508183584
I0403 15:14:14.131304  2836 layer_factory.hpp:77] Creating layer inception_3a/relu_3x3_reduce
I0403 15:14:14.131353  2836 net.cpp:91] Creating Layer inception_3a/relu_3x3_reduce
I0403 15:14:14.131376  2836 net.cpp:425] inception_3a/relu_3x3_reduce <- inception_3a/3x3_reduce
I0403 15:14:14.131399  2836 net.cpp:386] inception_3a/relu_3x3_reduce -> inception_3a/3x3_reduce (in-place)
I0403 15:14:14.131618  2836 net.cpp:141] Setting up inception_3a/relu_3x3_reduce
I0403 15:14:14.131649  2836 net.cpp:148] Top shape: 24 96 28 28 (1806336)
I0403 15:14:14.131669  2836 net.cpp:156] Memory required for data: 515408928
I0403 15:14:14.131687  2836 layer_factory.hpp:77] Creating layer inception_3a/3x3
I0403 15:14:14.131716  2836 net.cpp:91] Creating Layer inception_3a/3x3
I0403 15:14:14.131737  2836 net.cpp:425] inception_3a/3x3 <- inception_3a/3x3_reduce
I0403 15:14:14.131765  2836 net.cpp:399] inception_3a/3x3 -> inception_3a/3x3
I0403 15:14:14.133754  2836 net.cpp:141] Setting up inception_3a/3x3
I0403 15:14:14.133788  2836 net.cpp:148] Top shape: 24 128 28 28 (2408448)
I0403 15:14:14.133807  2836 net.cpp:156] Memory required for data: 525042720
I0403 15:14:14.133831  2836 layer_factory.hpp:77] Creating layer inception_3a/relu_3x3
I0403 15:14:14.133855  2836 net.cpp:91] Creating Layer inception_3a/relu_3x3
I0403 15:14:14.133877  2836 net.cpp:425] inception_3a/relu_3x3 <- inception_3a/3x3
I0403 15:14:14.133899  2836 net.cpp:386] inception_3a/relu_3x3 -> inception_3a/3x3 (in-place)
I0403 15:14:14.134225  2836 net.cpp:141] Setting up inception_3a/relu_3x3
I0403 15:14:14.134258  2836 net.cpp:148] Top shape: 24 128 28 28 (2408448)
I0403 15:14:14.134277  2836 net.cpp:156] Memory required for data: 534676512
I0403 15:14:14.134295  2836 layer_factory.hpp:77] Creating layer inception_3a/5x5_reduce
I0403 15:14:14.134325  2836 net.cpp:91] Creating Layer inception_3a/5x5_reduce
I0403 15:14:14.134346  2836 net.cpp:425] inception_3a/5x5_reduce <- pool2/3x3_s2_pool2/3x3_s2_0_split_2
I0403 15:14:14.134372  2836 net.cpp:399] inception_3a/5x5_reduce -> inception_3a/5x5_reduce
I0403 15:14:14.135516  2836 net.cpp:141] Setting up inception_3a/5x5_reduce
I0403 15:14:14.135553  2836 net.cpp:148] Top shape: 24 16 28 28 (301056)
I0403 15:14:14.135574  2836 net.cpp:156] Memory required for data: 535880736
I0403 15:14:14.135596  2836 layer_factory.hpp:77] Creating layer inception_3a/relu_5x5_reduce
I0403 15:14:14.135619  2836 net.cpp:91] Creating Layer inception_3a/relu_5x5_reduce
I0403 15:14:14.135639  2836 net.cpp:425] inception_3a/relu_5x5_reduce <- inception_3a/5x5_reduce
I0403 15:14:14.135661  2836 net.cpp:386] inception_3a/relu_5x5_reduce -> inception_3a/5x5_reduce (in-place)
I0403 15:14:14.136011  2836 net.cpp:141] Setting up inception_3a/relu_5x5_reduce
I0403 15:14:14.136046  2836 net.cpp:148] Top shape: 24 16 28 28 (301056)
I0403 15:14:14.136065  2836 net.cpp:156] Memory required for data: 537084960
I0403 15:14:14.136085  2836 layer_factory.hpp:77] Creating layer inception_3a/5x5
I0403 15:14:14.136112  2836 net.cpp:91] Creating Layer inception_3a/5x5
I0403 15:14:14.136135  2836 net.cpp:425] inception_3a/5x5 <- inception_3a/5x5_reduce
I0403 15:14:14.136162  2836 net.cpp:399] inception_3a/5x5 -> inception_3a/5x5
I0403 15:14:14.137374  2836 net.cpp:141] Setting up inception_3a/5x5
I0403 15:14:14.137409  2836 net.cpp:148] Top shape: 24 32 28 28 (602112)
I0403 15:14:14.137431  2836 net.cpp:156] Memory required for data: 539493408
I0403 15:14:14.137455  2836 layer_factory.hpp:77] Creating layer inception_3a/relu_5x5
I0403 15:14:14.137481  2836 net.cpp:91] Creating Layer inception_3a/relu_5x5
I0403 15:14:14.137502  2836 net.cpp:425] inception_3a/relu_5x5 <- inception_3a/5x5
I0403 15:14:14.137524  2836 net.cpp:386] inception_3a/relu_5x5 -> inception_3a/5x5 (in-place)
I0403 15:14:14.137729  2836 net.cpp:141] Setting up inception_3a/relu_5x5
I0403 15:14:14.137763  2836 net.cpp:148] Top shape: 24 32 28 28 (602112)
I0403 15:14:14.137781  2836 net.cpp:156] Memory required for data: 541901856
I0403 15:14:14.137800  2836 layer_factory.hpp:77] Creating layer inception_3a/pool
I0403 15:14:14.137823  2836 net.cpp:91] Creating Layer inception_3a/pool
I0403 15:14:14.137859  2836 net.cpp:425] inception_3a/pool <- pool2/3x3_s2_pool2/3x3_s2_0_split_3
I0403 15:14:14.137887  2836 net.cpp:399] inception_3a/pool -> inception_3a/pool
I0403 15:14:14.137959  2836 net.cpp:141] Setting up inception_3a/pool
I0403 15:14:14.137986  2836 net.cpp:148] Top shape: 24 192 28 28 (3612672)
I0403 15:14:14.138005  2836 net.cpp:156] Memory required for data: 556352544
I0403 15:14:14.138023  2836 layer_factory.hpp:77] Creating layer inception_3a/pool_proj
I0403 15:14:14.138051  2836 net.cpp:91] Creating Layer inception_3a/pool_proj
I0403 15:14:14.138072  2836 net.cpp:425] inception_3a/pool_proj <- inception_3a/pool
I0403 15:14:14.138099  2836 net.cpp:399] inception_3a/pool_proj -> inception_3a/pool_proj
I0403 15:14:14.139246  2836 net.cpp:141] Setting up inception_3a/pool_proj
I0403 15:14:14.139281  2836 net.cpp:148] Top shape: 24 32 28 28 (602112)
I0403 15:14:14.139299  2836 net.cpp:156] Memory required for data: 558760992
I0403 15:14:14.139333  2836 layer_factory.hpp:77] Creating layer inception_3a/relu_pool_proj
I0403 15:14:14.139358  2836 net.cpp:91] Creating Layer inception_3a/relu_pool_proj
I0403 15:14:14.139379  2836 net.cpp:425] inception_3a/relu_pool_proj <- inception_3a/pool_proj
I0403 15:14:14.139400  2836 net.cpp:386] inception_3a/relu_pool_proj -> inception_3a/pool_proj (in-place)
I0403 15:14:14.139721  2836 net.cpp:141] Setting up inception_3a/relu_pool_proj
I0403 15:14:14.139755  2836 net.cpp:148] Top shape: 24 32 28 28 (602112)
I0403 15:14:14.139775  2836 net.cpp:156] Memory required for data: 561169440
I0403 15:14:14.139793  2836 layer_factory.hpp:77] Creating layer inception_3a/output
I0403 15:14:14.139819  2836 net.cpp:91] Creating Layer inception_3a/output
I0403 15:14:14.139842  2836 net.cpp:425] inception_3a/output <- inception_3a/1x1
I0403 15:14:14.139865  2836 net.cpp:425] inception_3a/output <- inception_3a/3x3
I0403 15:14:14.139885  2836 net.cpp:425] inception_3a/output <- inception_3a/5x5
I0403 15:14:14.139904  2836 net.cpp:425] inception_3a/output <- inception_3a/pool_proj
I0403 15:14:14.139925  2836 net.cpp:399] inception_3a/output -> inception_3a/output
I0403 15:14:14.139984  2836 net.cpp:141] Setting up inception_3a/output
I0403 15:14:14.140013  2836 net.cpp:148] Top shape: 24 256 28 28 (4816896)
I0403 15:14:14.140032  2836 net.cpp:156] Memory required for data: 580437024
I0403 15:14:14.140050  2836 layer_factory.hpp:77] Creating layer inception_3a/output_inception_3a/output_0_split
I0403 15:14:14.140072  2836 net.cpp:91] Creating Layer inception_3a/output_inception_3a/output_0_split
I0403 15:14:14.140091  2836 net.cpp:425] inception_3a/output_inception_3a/output_0_split <- inception_3a/output
I0403 15:14:14.140115  2836 net.cpp:399] inception_3a/output_inception_3a/output_0_split -> inception_3a/output_inception_3a/output_0_split_0
I0403 15:14:14.140141  2836 net.cpp:399] inception_3a/output_inception_3a/output_0_split -> inception_3a/output_inception_3a/output_0_split_1
I0403 15:14:14.140171  2836 net.cpp:399] inception_3a/output_inception_3a/output_0_split -> inception_3a/output_inception_3a/output_0_split_2
I0403 15:14:14.140199  2836 net.cpp:399] inception_3a/output_inception_3a/output_0_split -> inception_3a/output_inception_3a/output_0_split_3
I0403 15:14:14.140296  2836 net.cpp:141] Setting up inception_3a/output_inception_3a/output_0_split
I0403 15:14:14.140326  2836 net.cpp:148] Top shape: 24 256 28 28 (4816896)
I0403 15:14:14.140347  2836 net.cpp:148] Top shape: 24 256 28 28 (4816896)
I0403 15:14:14.140367  2836 net.cpp:148] Top shape: 24 256 28 28 (4816896)
I0403 15:14:14.140388  2836 net.cpp:148] Top shape: 24 256 28 28 (4816896)
I0403 15:14:14.140405  2836 net.cpp:156] Memory required for data: 657507360
I0403 15:14:14.140424  2836 layer_factory.hpp:77] Creating layer inception_3b/1x1
I0403 15:14:14.140451  2836 net.cpp:91] Creating Layer inception_3b/1x1
I0403 15:14:14.140475  2836 net.cpp:425] inception_3b/1x1 <- inception_3a/output_inception_3a/output_0_split_0
I0403 15:14:14.140501  2836 net.cpp:399] inception_3b/1x1 -> inception_3b/1x1
I0403 15:14:14.141870  2836 net.cpp:141] Setting up inception_3b/1x1
I0403 15:14:14.141919  2836 net.cpp:148] Top shape: 24 128 28 28 (2408448)
I0403 15:14:14.141939  2836 net.cpp:156] Memory required for data: 667141152
I0403 15:14:14.141963  2836 layer_factory.hpp:77] Creating layer inception_3b/relu_1x1
I0403 15:14:14.141984  2836 net.cpp:91] Creating Layer inception_3b/relu_1x1
I0403 15:14:14.142004  2836 net.cpp:425] inception_3b/relu_1x1 <- inception_3b/1x1
I0403 15:14:14.142029  2836 net.cpp:386] inception_3b/relu_1x1 -> inception_3b/1x1 (in-place)
I0403 15:14:14.142243  2836 net.cpp:141] Setting up inception_3b/relu_1x1
I0403 15:14:14.142276  2836 net.cpp:148] Top shape: 24 128 28 28 (2408448)
I0403 15:14:14.142294  2836 net.cpp:156] Memory required for data: 676774944
I0403 15:14:14.142313  2836 layer_factory.hpp:77] Creating layer inception_3b/3x3_reduce
I0403 15:14:14.142340  2836 net.cpp:91] Creating Layer inception_3b/3x3_reduce
I0403 15:14:14.142362  2836 net.cpp:425] inception_3b/3x3_reduce <- inception_3a/output_inception_3a/output_0_split_1
I0403 15:14:14.142388  2836 net.cpp:399] inception_3b/3x3_reduce -> inception_3b/3x3_reduce
I0403 15:14:14.143760  2836 net.cpp:141] Setting up inception_3b/3x3_reduce
I0403 15:14:14.143795  2836 net.cpp:148] Top shape: 24 128 28 28 (2408448)
I0403 15:14:14.143815  2836 net.cpp:156] Memory required for data: 686408736
I0403 15:14:14.143839  2836 layer_factory.hpp:77] Creating layer inception_3b/relu_3x3_reduce
I0403 15:14:14.143864  2836 net.cpp:91] Creating Layer inception_3b/relu_3x3_reduce
I0403 15:14:14.143885  2836 net.cpp:425] inception_3b/relu_3x3_reduce <- inception_3b/3x3_reduce
I0403 15:14:14.143908  2836 net.cpp:386] inception_3b/relu_3x3_reduce -> inception_3b/3x3_reduce (in-place)
I0403 15:14:14.144112  2836 net.cpp:141] Setting up inception_3b/relu_3x3_reduce
I0403 15:14:14.144143  2836 net.cpp:148] Top shape: 24 128 28 28 (2408448)
I0403 15:14:14.144162  2836 net.cpp:156] Memory required for data: 696042528
I0403 15:14:14.144181  2836 layer_factory.hpp:77] Creating layer inception_3b/3x3
I0403 15:14:14.144217  2836 net.cpp:91] Creating Layer inception_3b/3x3
I0403 15:14:14.144243  2836 net.cpp:425] inception_3b/3x3 <- inception_3b/3x3_reduce
I0403 15:14:14.144266  2836 net.cpp:399] inception_3b/3x3 -> inception_3b/3x3
I0403 15:14:14.147779  2836 net.cpp:141] Setting up inception_3b/3x3
I0403 15:14:14.147815  2836 net.cpp:148] Top shape: 24 192 28 28 (3612672)
I0403 15:14:14.147835  2836 net.cpp:156] Memory required for data: 710493216
I0403 15:14:14.147858  2836 layer_factory.hpp:77] Creating layer inception_3b/relu_3x3
I0403 15:14:14.147884  2836 net.cpp:91] Creating Layer inception_3b/relu_3x3
I0403 15:14:14.147905  2836 net.cpp:425] inception_3b/relu_3x3 <- inception_3b/3x3
I0403 15:14:14.147927  2836 net.cpp:386] inception_3b/relu_3x3 -> inception_3b/3x3 (in-place)
I0403 15:14:14.148265  2836 net.cpp:141] Setting up inception_3b/relu_3x3
I0403 15:14:14.148298  2836 net.cpp:148] Top shape: 24 192 28 28 (3612672)
I0403 15:14:14.148318  2836 net.cpp:156] Memory required for data: 724943904
I0403 15:14:14.148336  2836 layer_factory.hpp:77] Creating layer inception_3b/5x5_reduce
I0403 15:14:14.148365  2836 net.cpp:91] Creating Layer inception_3b/5x5_reduce
I0403 15:14:14.148386  2836 net.cpp:425] inception_3b/5x5_reduce <- inception_3a/output_inception_3a/output_0_split_2
I0403 15:14:14.148416  2836 net.cpp:399] inception_3b/5x5_reduce -> inception_3b/5x5_reduce
I0403 15:14:14.149608  2836 net.cpp:141] Setting up inception_3b/5x5_reduce
I0403 15:14:14.149643  2836 net.cpp:148] Top shape: 24 32 28 28 (602112)
I0403 15:14:14.149662  2836 net.cpp:156] Memory required for data: 727352352
I0403 15:14:14.149685  2836 layer_factory.hpp:77] Creating layer inception_3b/relu_5x5_reduce
I0403 15:14:14.149710  2836 net.cpp:91] Creating Layer inception_3b/relu_5x5_reduce
I0403 15:14:14.149731  2836 net.cpp:425] inception_3b/relu_5x5_reduce <- inception_3b/5x5_reduce
I0403 15:14:14.149752  2836 net.cpp:386] inception_3b/relu_5x5_reduce -> inception_3b/5x5_reduce (in-place)
I0403 15:14:14.149978  2836 net.cpp:141] Setting up inception_3b/relu_5x5_reduce
I0403 15:14:14.150012  2836 net.cpp:148] Top shape: 24 32 28 28 (602112)
I0403 15:14:14.150032  2836 net.cpp:156] Memory required for data: 729760800
I0403 15:14:14.150051  2836 layer_factory.hpp:77] Creating layer inception_3b/5x5
I0403 15:14:14.150079  2836 net.cpp:91] Creating Layer inception_3b/5x5
I0403 15:14:14.150101  2836 net.cpp:425] inception_3b/5x5 <- inception_3b/5x5_reduce
I0403 15:14:14.150125  2836 net.cpp:399] inception_3b/5x5 -> inception_3b/5x5
I0403 15:14:14.152497  2836 net.cpp:141] Setting up inception_3b/5x5
I0403 15:14:14.152534  2836 net.cpp:148] Top shape: 24 96 28 28 (1806336)
I0403 15:14:14.152554  2836 net.cpp:156] Memory required for data: 736986144
I0403 15:14:14.152578  2836 layer_factory.hpp:77] Creating layer inception_3b/relu_5x5
I0403 15:14:14.152608  2836 net.cpp:91] Creating Layer inception_3b/relu_5x5
I0403 15:14:14.152631  2836 net.cpp:425] inception_3b/relu_5x5 <- inception_3b/5x5
I0403 15:14:14.152652  2836 net.cpp:386] inception_3b/relu_5x5 -> inception_3b/5x5 (in-place)
I0403 15:14:14.152881  2836 net.cpp:141] Setting up inception_3b/relu_5x5
I0403 15:14:14.152912  2836 net.cpp:148] Top shape: 24 96 28 28 (1806336)
I0403 15:14:14.152930  2836 net.cpp:156] Memory required for data: 744211488
I0403 15:14:14.152950  2836 layer_factory.hpp:77] Creating layer inception_3b/pool
I0403 15:14:14.152971  2836 net.cpp:91] Creating Layer inception_3b/pool
I0403 15:14:14.152992  2836 net.cpp:425] inception_3b/pool <- inception_3a/output_inception_3a/output_0_split_3
I0403 15:14:14.153014  2836 net.cpp:399] inception_3b/pool -> inception_3b/pool
I0403 15:14:14.153085  2836 net.cpp:141] Setting up inception_3b/pool
I0403 15:14:14.153115  2836 net.cpp:148] Top shape: 24 256 28 28 (4816896)
I0403 15:14:14.153132  2836 net.cpp:156] Memory required for data: 763479072
I0403 15:14:14.153151  2836 layer_factory.hpp:77] Creating layer inception_3b/pool_proj
I0403 15:14:14.153178  2836 net.cpp:91] Creating Layer inception_3b/pool_proj
I0403 15:14:14.153200  2836 net.cpp:425] inception_3b/pool_proj <- inception_3b/pool
I0403 15:14:14.153244  2836 net.cpp:399] inception_3b/pool_proj -> inception_3b/pool_proj
I0403 15:14:14.154497  2836 net.cpp:141] Setting up inception_3b/pool_proj
I0403 15:14:14.154536  2836 net.cpp:148] Top shape: 24 64 28 28 (1204224)
I0403 15:14:14.154558  2836 net.cpp:156] Memory required for data: 768295968
I0403 15:14:14.154582  2836 layer_factory.hpp:77] Creating layer inception_3b/relu_pool_proj
I0403 15:14:14.154605  2836 net.cpp:91] Creating Layer inception_3b/relu_pool_proj
I0403 15:14:14.154625  2836 net.cpp:425] inception_3b/relu_pool_proj <- inception_3b/pool_proj
I0403 15:14:14.154649  2836 net.cpp:386] inception_3b/relu_pool_proj -> inception_3b/pool_proj (in-place)
I0403 15:14:14.155148  2836 net.cpp:141] Setting up inception_3b/relu_pool_proj
I0403 15:14:14.155184  2836 net.cpp:148] Top shape: 24 64 28 28 (1204224)
I0403 15:14:14.155205  2836 net.cpp:156] Memory required for data: 773112864
I0403 15:14:14.155230  2836 layer_factory.hpp:77] Creating layer inception_3b/output
I0403 15:14:14.155253  2836 net.cpp:91] Creating Layer inception_3b/output
I0403 15:14:14.155274  2836 net.cpp:425] inception_3b/output <- inception_3b/1x1
I0403 15:14:14.155295  2836 net.cpp:425] inception_3b/output <- inception_3b/3x3
I0403 15:14:14.155315  2836 net.cpp:425] inception_3b/output <- inception_3b/5x5
I0403 15:14:14.155335  2836 net.cpp:425] inception_3b/output <- inception_3b/pool_proj
I0403 15:14:14.155357  2836 net.cpp:399] inception_3b/output -> inception_3b/output
I0403 15:14:14.155414  2836 net.cpp:141] Setting up inception_3b/output
I0403 15:14:14.155443  2836 net.cpp:148] Top shape: 24 480 28 28 (9031680)
I0403 15:14:14.155464  2836 net.cpp:156] Memory required for data: 809239584
I0403 15:14:14.155483  2836 layer_factory.hpp:77] Creating layer pool3/3x3_s2
I0403 15:14:14.155508  2836 net.cpp:91] Creating Layer pool3/3x3_s2
I0403 15:14:14.155529  2836 net.cpp:425] pool3/3x3_s2 <- inception_3b/output
I0403 15:14:14.155570  2836 net.cpp:399] pool3/3x3_s2 -> pool3/3x3_s2
I0403 15:14:14.155645  2836 net.cpp:141] Setting up pool3/3x3_s2
I0403 15:14:14.155673  2836 net.cpp:148] Top shape: 24 480 14 14 (2257920)
I0403 15:14:14.155692  2836 net.cpp:156] Memory required for data: 818271264
I0403 15:14:14.155710  2836 layer_factory.hpp:77] Creating layer pool3/3x3_s2_pool3/3x3_s2_0_split
I0403 15:14:14.155732  2836 net.cpp:91] Creating Layer pool3/3x3_s2_pool3/3x3_s2_0_split
I0403 15:14:14.155752  2836 net.cpp:425] pool3/3x3_s2_pool3/3x3_s2_0_split <- pool3/3x3_s2
I0403 15:14:14.155776  2836 net.cpp:399] pool3/3x3_s2_pool3/3x3_s2_0_split -> pool3/3x3_s2_pool3/3x3_s2_0_split_0
I0403 15:14:14.155802  2836 net.cpp:399] pool3/3x3_s2_pool3/3x3_s2_0_split -> pool3/3x3_s2_pool3/3x3_s2_0_split_1
I0403 15:14:14.155827  2836 net.cpp:399] pool3/3x3_s2_pool3/3x3_s2_0_split -> pool3/3x3_s2_pool3/3x3_s2_0_split_2
I0403 15:14:14.155853  2836 net.cpp:399] pool3/3x3_s2_pool3/3x3_s2_0_split -> pool3/3x3_s2_pool3/3x3_s2_0_split_3
I0403 15:14:14.155946  2836 net.cpp:141] Setting up pool3/3x3_s2_pool3/3x3_s2_0_split
I0403 15:14:14.155977  2836 net.cpp:148] Top shape: 24 480 14 14 (2257920)
I0403 15:14:14.155999  2836 net.cpp:148] Top shape: 24 480 14 14 (2257920)
I0403 15:14:14.156018  2836 net.cpp:148] Top shape: 24 480 14 14 (2257920)
I0403 15:14:14.156038  2836 net.cpp:148] Top shape: 24 480 14 14 (2257920)
I0403 15:14:14.156055  2836 net.cpp:156] Memory required for data: 854397984
I0403 15:14:14.156074  2836 layer_factory.hpp:77] Creating layer inception_4a/1x1
I0403 15:14:14.156100  2836 net.cpp:91] Creating Layer inception_4a/1x1
I0403 15:14:14.156122  2836 net.cpp:425] inception_4a/1x1 <- pool3/3x3_s2_pool3/3x3_s2_0_split_0
I0403 15:14:14.156147  2836 net.cpp:399] inception_4a/1x1 -> inception_4a/1x1
I0403 15:14:14.158035  2836 net.cpp:141] Setting up inception_4a/1x1
I0403 15:14:14.158071  2836 net.cpp:148] Top shape: 24 192 14 14 (903168)
I0403 15:14:14.158092  2836 net.cpp:156] Memory required for data: 858010656
I0403 15:14:14.158115  2836 layer_factory.hpp:77] Creating layer inception_4a/relu_1x1
I0403 15:14:14.158138  2836 net.cpp:91] Creating Layer inception_4a/relu_1x1
I0403 15:14:14.158159  2836 net.cpp:425] inception_4a/relu_1x1 <- inception_4a/1x1
I0403 15:14:14.158182  2836 net.cpp:386] inception_4a/relu_1x1 -> inception_4a/1x1 (in-place)
I0403 15:14:14.158396  2836 net.cpp:141] Setting up inception_4a/relu_1x1
I0403 15:14:14.158427  2836 net.cpp:148] Top shape: 24 192 14 14 (903168)
I0403 15:14:14.158444  2836 net.cpp:156] Memory required for data: 861623328
I0403 15:14:14.158465  2836 layer_factory.hpp:77] Creating layer inception_4a/3x3_reduce
I0403 15:14:14.158493  2836 net.cpp:91] Creating Layer inception_4a/3x3_reduce
I0403 15:14:14.158514  2836 net.cpp:425] inception_4a/3x3_reduce <- pool3/3x3_s2_pool3/3x3_s2_0_split_1
I0403 15:14:14.158540  2836 net.cpp:399] inception_4a/3x3_reduce -> inception_4a/3x3_reduce
I0403 15:14:14.160074  2836 net.cpp:141] Setting up inception_4a/3x3_reduce
I0403 15:14:14.160109  2836 net.cpp:148] Top shape: 24 96 14 14 (451584)
I0403 15:14:14.160130  2836 net.cpp:156] Memory required for data: 863429664
I0403 15:14:14.160158  2836 layer_factory.hpp:77] Creating layer inception_4a/relu_3x3_reduce
I0403 15:14:14.160186  2836 net.cpp:91] Creating Layer inception_4a/relu_3x3_reduce
I0403 15:14:14.160207  2836 net.cpp:425] inception_4a/relu_3x3_reduce <- inception_4a/3x3_reduce
I0403 15:14:14.160234  2836 net.cpp:386] inception_4a/relu_3x3_reduce -> inception_4a/3x3_reduce (in-place)
I0403 15:14:14.160449  2836 net.cpp:141] Setting up inception_4a/relu_3x3_reduce
I0403 15:14:14.160480  2836 net.cpp:148] Top shape: 24 96 14 14 (451584)
I0403 15:14:14.160500  2836 net.cpp:156] Memory required for data: 865236000
I0403 15:14:14.160517  2836 layer_factory.hpp:77] Creating layer inception_4a/3x3
I0403 15:14:14.160549  2836 net.cpp:91] Creating Layer inception_4a/3x3
I0403 15:14:14.160572  2836 net.cpp:425] inception_4a/3x3 <- inception_4a/3x3_reduce
I0403 15:14:14.160598  2836 net.cpp:399] inception_4a/3x3 -> inception_4a/3x3
I0403 15:14:14.163864  2836 net.cpp:141] Setting up inception_4a/3x3
I0403 15:14:14.163902  2836 net.cpp:148] Top shape: 24 208 14 14 (978432)
I0403 15:14:14.163921  2836 net.cpp:156] Memory required for data: 869149728
I0403 15:14:14.163944  2836 layer_factory.hpp:77] Creating layer inception_4a/relu_3x3
I0403 15:14:14.163970  2836 net.cpp:91] Creating Layer inception_4a/relu_3x3
I0403 15:14:14.163990  2836 net.cpp:425] inception_4a/relu_3x3 <- inception_4a/3x3
I0403 15:14:14.164013  2836 net.cpp:386] inception_4a/relu_3x3 -> inception_4a/3x3 (in-place)
I0403 15:14:14.164343  2836 net.cpp:141] Setting up inception_4a/relu_3x3
I0403 15:14:14.164377  2836 net.cpp:148] Top shape: 24 208 14 14 (978432)
I0403 15:14:14.164397  2836 net.cpp:156] Memory required for data: 873063456
I0403 15:14:14.164415  2836 layer_factory.hpp:77] Creating layer inception_4a/5x5_reduce
I0403 15:14:14.164443  2836 net.cpp:91] Creating Layer inception_4a/5x5_reduce
I0403 15:14:14.164466  2836 net.cpp:425] inception_4a/5x5_reduce <- pool3/3x3_s2_pool3/3x3_s2_0_split_2
I0403 15:14:14.164505  2836 net.cpp:399] inception_4a/5x5_reduce -> inception_4a/5x5_reduce
I0403 15:14:14.165724  2836 net.cpp:141] Setting up inception_4a/5x5_reduce
I0403 15:14:14.165760  2836 net.cpp:148] Top shape: 24 16 14 14 (75264)
I0403 15:14:14.165778  2836 net.cpp:156] Memory required for data: 873364512
I0403 15:14:14.165802  2836 layer_factory.hpp:77] Creating layer inception_4a/relu_5x5_reduce
I0403 15:14:14.165828  2836 net.cpp:91] Creating Layer inception_4a/relu_5x5_reduce
I0403 15:14:14.165850  2836 net.cpp:425] inception_4a/relu_5x5_reduce <- inception_4a/5x5_reduce
I0403 15:14:14.165873  2836 net.cpp:386] inception_4a/relu_5x5_reduce -> inception_4a/5x5_reduce (in-place)
I0403 15:14:14.166087  2836 net.cpp:141] Setting up inception_4a/relu_5x5_reduce
I0403 15:14:14.166126  2836 net.cpp:148] Top shape: 24 16 14 14 (75264)
I0403 15:14:14.166146  2836 net.cpp:156] Memory required for data: 873665568
I0403 15:14:14.166165  2836 layer_factory.hpp:77] Creating layer inception_4a/5x5
I0403 15:14:14.166193  2836 net.cpp:91] Creating Layer inception_4a/5x5
I0403 15:14:14.166220  2836 net.cpp:425] inception_4a/5x5 <- inception_4a/5x5_reduce
I0403 15:14:14.166249  2836 net.cpp:399] inception_4a/5x5 -> inception_4a/5x5
I0403 15:14:14.167538  2836 net.cpp:141] Setting up inception_4a/5x5
I0403 15:14:14.167577  2836 net.cpp:148] Top shape: 24 48 14 14 (225792)
I0403 15:14:14.167598  2836 net.cpp:156] Memory required for data: 874568736
I0403 15:14:14.167621  2836 layer_factory.hpp:77] Creating layer inception_4a/relu_5x5
I0403 15:14:14.167644  2836 net.cpp:91] Creating Layer inception_4a/relu_5x5
I0403 15:14:14.167665  2836 net.cpp:425] inception_4a/relu_5x5 <- inception_4a/5x5
I0403 15:14:14.167685  2836 net.cpp:386] inception_4a/relu_5x5 -> inception_4a/5x5 (in-place)
I0403 15:14:14.167901  2836 net.cpp:141] Setting up inception_4a/relu_5x5
I0403 15:14:14.167932  2836 net.cpp:148] Top shape: 24 48 14 14 (225792)
I0403 15:14:14.167950  2836 net.cpp:156] Memory required for data: 875471904
I0403 15:14:14.167970  2836 layer_factory.hpp:77] Creating layer inception_4a/pool
I0403 15:14:14.167994  2836 net.cpp:91] Creating Layer inception_4a/pool
I0403 15:14:14.168014  2836 net.cpp:425] inception_4a/pool <- pool3/3x3_s2_pool3/3x3_s2_0_split_3
I0403 15:14:14.168038  2836 net.cpp:399] inception_4a/pool -> inception_4a/pool
I0403 15:14:14.168112  2836 net.cpp:141] Setting up inception_4a/pool
I0403 15:14:14.168143  2836 net.cpp:148] Top shape: 24 480 14 14 (2257920)
I0403 15:14:14.168161  2836 net.cpp:156] Memory required for data: 884503584
I0403 15:14:14.168181  2836 layer_factory.hpp:77] Creating layer inception_4a/pool_proj
I0403 15:14:14.168213  2836 net.cpp:91] Creating Layer inception_4a/pool_proj
I0403 15:14:14.168236  2836 net.cpp:425] inception_4a/pool_proj <- inception_4a/pool
I0403 15:14:14.168259  2836 net.cpp:399] inception_4a/pool_proj -> inception_4a/pool_proj
I0403 15:14:14.169646  2836 net.cpp:141] Setting up inception_4a/pool_proj
I0403 15:14:14.169682  2836 net.cpp:148] Top shape: 24 64 14 14 (301056)
I0403 15:14:14.169723  2836 net.cpp:156] Memory required for data: 885707808
I0403 15:14:14.169746  2836 layer_factory.hpp:77] Creating layer inception_4a/relu_pool_proj
I0403 15:14:14.169770  2836 net.cpp:91] Creating Layer inception_4a/relu_pool_proj
I0403 15:14:14.169788  2836 net.cpp:425] inception_4a/relu_pool_proj <- inception_4a/pool_proj
I0403 15:14:14.169814  2836 net.cpp:386] inception_4a/relu_pool_proj -> inception_4a/pool_proj (in-place)
I0403 15:14:14.170148  2836 net.cpp:141] Setting up inception_4a/relu_pool_proj
I0403 15:14:14.170181  2836 net.cpp:148] Top shape: 24 64 14 14 (301056)
I0403 15:14:14.170202  2836 net.cpp:156] Memory required for data: 886912032
I0403 15:14:14.170227  2836 layer_factory.hpp:77] Creating layer inception_4a/output
I0403 15:14:14.170249  2836 net.cpp:91] Creating Layer inception_4a/output
I0403 15:14:14.170269  2836 net.cpp:425] inception_4a/output <- inception_4a/1x1
I0403 15:14:14.170289  2836 net.cpp:425] inception_4a/output <- inception_4a/3x3
I0403 15:14:14.170310  2836 net.cpp:425] inception_4a/output <- inception_4a/5x5
I0403 15:14:14.170331  2836 net.cpp:425] inception_4a/output <- inception_4a/pool_proj
I0403 15:14:14.170354  2836 net.cpp:399] inception_4a/output -> inception_4a/output
I0403 15:14:14.170409  2836 net.cpp:141] Setting up inception_4a/output
I0403 15:14:14.170438  2836 net.cpp:148] Top shape: 24 512 14 14 (2408448)
I0403 15:14:14.170459  2836 net.cpp:156] Memory required for data: 896545824
I0403 15:14:14.170480  2836 layer_factory.hpp:77] Creating layer inception_4a/output_inception_4a/output_0_split
I0403 15:14:14.170503  2836 net.cpp:91] Creating Layer inception_4a/output_inception_4a/output_0_split
I0403 15:14:14.170521  2836 net.cpp:425] inception_4a/output_inception_4a/output_0_split <- inception_4a/output
I0403 15:14:14.170543  2836 net.cpp:399] inception_4a/output_inception_4a/output_0_split -> inception_4a/output_inception_4a/output_0_split_0
I0403 15:14:14.170568  2836 net.cpp:399] inception_4a/output_inception_4a/output_0_split -> inception_4a/output_inception_4a/output_0_split_1
I0403 15:14:14.170598  2836 net.cpp:399] inception_4a/output_inception_4a/output_0_split -> inception_4a/output_inception_4a/output_0_split_2
I0403 15:14:14.170624  2836 net.cpp:399] inception_4a/output_inception_4a/output_0_split -> inception_4a/output_inception_4a/output_0_split_3
I0403 15:14:14.170650  2836 net.cpp:399] inception_4a/output_inception_4a/output_0_split -> inception_4a/output_inception_4a/output_0_split_4
I0403 15:14:14.170761  2836 net.cpp:141] Setting up inception_4a/output_inception_4a/output_0_split
I0403 15:14:14.170789  2836 net.cpp:148] Top shape: 24 512 14 14 (2408448)
I0403 15:14:14.170810  2836 net.cpp:148] Top shape: 24 512 14 14 (2408448)
I0403 15:14:14.170830  2836 net.cpp:148] Top shape: 24 512 14 14 (2408448)
I0403 15:14:14.170850  2836 net.cpp:148] Top shape: 24 512 14 14 (2408448)
I0403 15:14:14.170869  2836 net.cpp:148] Top shape: 24 512 14 14 (2408448)
I0403 15:14:14.170887  2836 net.cpp:156] Memory required for data: 944714784
I0403 15:14:14.170905  2836 layer_factory.hpp:77] Creating layer loss1/ave_pool
I0403 15:14:14.170930  2836 net.cpp:91] Creating Layer loss1/ave_pool
I0403 15:14:14.170950  2836 net.cpp:425] loss1/ave_pool <- inception_4a/output_inception_4a/output_0_split_0
I0403 15:14:14.170972  2836 net.cpp:399] loss1/ave_pool -> loss1/ave_pool
I0403 15:14:14.171237  2836 net.cpp:141] Setting up loss1/ave_pool
I0403 15:14:14.171269  2836 net.cpp:148] Top shape: 24 512 4 4 (196608)
I0403 15:14:14.171288  2836 net.cpp:156] Memory required for data: 945501216
I0403 15:14:14.171308  2836 layer_factory.hpp:77] Creating layer loss1/conv
I0403 15:14:14.171334  2836 net.cpp:91] Creating Layer loss1/conv
I0403 15:14:14.171356  2836 net.cpp:425] loss1/conv <- loss1/ave_pool
I0403 15:14:14.171381  2836 net.cpp:399] loss1/conv -> loss1/conv
I0403 15:14:14.173075  2836 net.cpp:141] Setting up loss1/conv
I0403 15:14:14.173110  2836 net.cpp:148] Top shape: 24 128 4 4 (49152)
I0403 15:14:14.173147  2836 net.cpp:156] Memory required for data: 945697824
I0403 15:14:14.173171  2836 layer_factory.hpp:77] Creating layer loss1/relu_conv
I0403 15:14:14.173197  2836 net.cpp:91] Creating Layer loss1/relu_conv
I0403 15:14:14.173233  2836 net.cpp:425] loss1/relu_conv <- loss1/conv
I0403 15:14:14.173259  2836 net.cpp:386] loss1/relu_conv -> loss1/conv (in-place)
I0403 15:14:14.173594  2836 net.cpp:141] Setting up loss1/relu_conv
I0403 15:14:14.173627  2836 net.cpp:148] Top shape: 24 128 4 4 (49152)
I0403 15:14:14.173647  2836 net.cpp:156] Memory required for data: 945894432
I0403 15:14:14.173666  2836 layer_factory.hpp:77] Creating layer loss1/fc
I0403 15:14:14.173699  2836 net.cpp:91] Creating Layer loss1/fc
I0403 15:14:14.173722  2836 net.cpp:425] loss1/fc <- loss1/conv
I0403 15:14:14.173744  2836 net.cpp:399] loss1/fc -> loss1/fc
I0403 15:14:14.195698  2836 net.cpp:141] Setting up loss1/fc
I0403 15:14:14.195788  2836 net.cpp:148] Top shape: 24 1024 (24576)
I0403 15:14:14.195808  2836 net.cpp:156] Memory required for data: 945992736
I0403 15:14:14.195834  2836 layer_factory.hpp:77] Creating layer loss1/relu_fc
I0403 15:14:14.195860  2836 net.cpp:91] Creating Layer loss1/relu_fc
I0403 15:14:14.195881  2836 net.cpp:425] loss1/relu_fc <- loss1/fc
I0403 15:14:14.195909  2836 net.cpp:386] loss1/relu_fc -> loss1/fc (in-place)
I0403 15:14:14.196177  2836 net.cpp:141] Setting up loss1/relu_fc
I0403 15:14:14.196215  2836 net.cpp:148] Top shape: 24 1024 (24576)
I0403 15:14:14.196236  2836 net.cpp:156] Memory required for data: 946091040
I0403 15:14:14.196256  2836 layer_factory.hpp:77] Creating layer loss1/drop_fc
I0403 15:14:14.196296  2836 net.cpp:91] Creating Layer loss1/drop_fc
I0403 15:14:14.196318  2836 net.cpp:425] loss1/drop_fc <- loss1/fc
I0403 15:14:14.196341  2836 net.cpp:386] loss1/drop_fc -> loss1/fc (in-place)
I0403 15:14:14.196405  2836 net.cpp:141] Setting up loss1/drop_fc
I0403 15:14:14.196434  2836 net.cpp:148] Top shape: 24 1024 (24576)
I0403 15:14:14.196451  2836 net.cpp:156] Memory required for data: 946189344
I0403 15:14:14.196471  2836 layer_factory.hpp:77] Creating layer loss1/classifier_plantvillage
I0403 15:14:14.196499  2836 net.cpp:91] Creating Layer loss1/classifier_plantvillage
I0403 15:14:14.196521  2836 net.cpp:425] loss1/classifier_plantvillage <- loss1/fc
I0403 15:14:14.196547  2836 net.cpp:399] loss1/classifier_plantvillage -> loss1/classifier_plantvillage
I0403 15:14:14.198431  2836 net.cpp:141] Setting up loss1/classifier_plantvillage
I0403 15:14:14.198467  2836 net.cpp:148] Top shape: 24 38 (912)
I0403 15:14:14.198485  2836 net.cpp:156] Memory required for data: 946192992
I0403 15:14:14.198508  2836 layer_factory.hpp:77] Creating layer loss1/classifier_plantvillage_loss1/classifier_plantvillage_0_split
I0403 15:14:14.198531  2836 net.cpp:91] Creating Layer loss1/classifier_plantvillage_loss1/classifier_plantvillage_0_split
I0403 15:14:14.198557  2836 net.cpp:425] loss1/classifier_plantvillage_loss1/classifier_plantvillage_0_split <- loss1/classifier_plantvillage
I0403 15:14:14.198582  2836 net.cpp:399] loss1/classifier_plantvillage_loss1/classifier_plantvillage_0_split -> loss1/classifier_plantvillage_loss1/classifier_plantvillage_0_split_0
I0403 15:14:14.198609  2836 net.cpp:399] loss1/classifier_plantvillage_loss1/classifier_plantvillage_0_split -> loss1/classifier_plantvillage_loss1/classifier_plantvillage_0_split_1
I0403 15:14:14.198635  2836 net.cpp:399] loss1/classifier_plantvillage_loss1/classifier_plantvillage_0_split -> loss1/classifier_plantvillage_loss1/classifier_plantvillage_0_split_2
I0403 15:14:14.198716  2836 net.cpp:141] Setting up loss1/classifier_plantvillage_loss1/classifier_plantvillage_0_split
I0403 15:14:14.198746  2836 net.cpp:148] Top shape: 24 38 (912)
I0403 15:14:14.198768  2836 net.cpp:148] Top shape: 24 38 (912)
I0403 15:14:14.198787  2836 net.cpp:148] Top shape: 24 38 (912)
I0403 15:14:14.198806  2836 net.cpp:156] Memory required for data: 946203936
I0403 15:14:14.198823  2836 layer_factory.hpp:77] Creating layer inception_4b/1x1
I0403 15:14:14.198850  2836 net.cpp:91] Creating Layer inception_4b/1x1
I0403 15:14:14.198904  2836 net.cpp:425] inception_4b/1x1 <- inception_4a/output_inception_4a/output_0_split_1
I0403 15:14:14.198928  2836 net.cpp:399] inception_4b/1x1 -> inception_4b/1x1
I0403 15:14:14.200966  2836 net.cpp:141] Setting up inception_4b/1x1
I0403 15:14:14.201000  2836 net.cpp:148] Top shape: 24 160 14 14 (752640)
I0403 15:14:14.201020  2836 net.cpp:156] Memory required for data: 949214496
I0403 15:14:14.201043  2836 layer_factory.hpp:77] Creating layer inception_4b/relu_1x1
I0403 15:14:14.201069  2836 net.cpp:91] Creating Layer inception_4b/relu_1x1
I0403 15:14:14.201091  2836 net.cpp:425] inception_4b/relu_1x1 <- inception_4b/1x1
I0403 15:14:14.201112  2836 net.cpp:386] inception_4b/relu_1x1 -> inception_4b/1x1 (in-place)
I0403 15:14:14.201336  2836 net.cpp:141] Setting up inception_4b/relu_1x1
I0403 15:14:14.201369  2836 net.cpp:148] Top shape: 24 160 14 14 (752640)
I0403 15:14:14.201386  2836 net.cpp:156] Memory required for data: 952225056
I0403 15:14:14.201406  2836 layer_factory.hpp:77] Creating layer inception_4b/3x3_reduce
I0403 15:14:14.201436  2836 net.cpp:91] Creating Layer inception_4b/3x3_reduce
I0403 15:14:14.201457  2836 net.cpp:425] inception_4b/3x3_reduce <- inception_4a/output_inception_4a/output_0_split_2
I0403 15:14:14.201481  2836 net.cpp:399] inception_4b/3x3_reduce -> inception_4b/3x3_reduce
I0403 15:14:14.203131  2836 net.cpp:141] Setting up inception_4b/3x3_reduce
I0403 15:14:14.203166  2836 net.cpp:148] Top shape: 24 112 14 14 (526848)
I0403 15:14:14.203186  2836 net.cpp:156] Memory required for data: 954332448
I0403 15:14:14.203217  2836 layer_factory.hpp:77] Creating layer inception_4b/relu_3x3_reduce
I0403 15:14:14.203248  2836 net.cpp:91] Creating Layer inception_4b/relu_3x3_reduce
I0403 15:14:14.203269  2836 net.cpp:425] inception_4b/relu_3x3_reduce <- inception_4b/3x3_reduce
I0403 15:14:14.203291  2836 net.cpp:386] inception_4b/relu_3x3_reduce -> inception_4b/3x3_reduce (in-place)
I0403 15:14:14.203626  2836 net.cpp:141] Setting up inception_4b/relu_3x3_reduce
I0403 15:14:14.203660  2836 net.cpp:148] Top shape: 24 112 14 14 (526848)
I0403 15:14:14.203680  2836 net.cpp:156] Memory required for data: 956439840
I0403 15:14:14.203697  2836 layer_factory.hpp:77] Creating layer inception_4b/3x3
I0403 15:14:14.203728  2836 net.cpp:91] Creating Layer inception_4b/3x3
I0403 15:14:14.203752  2836 net.cpp:425] inception_4b/3x3 <- inception_4b/3x3_reduce
I0403 15:14:14.203775  2836 net.cpp:399] inception_4b/3x3 -> inception_4b/3x3
I0403 15:14:14.207407  2836 net.cpp:141] Setting up inception_4b/3x3
I0403 15:14:14.207447  2836 net.cpp:148] Top shape: 24 224 14 14 (1053696)
I0403 15:14:14.207468  2836 net.cpp:156] Memory required for data: 960654624
I0403 15:14:14.207491  2836 layer_factory.hpp:77] Creating layer inception_4b/relu_3x3
I0403 15:14:14.207515  2836 net.cpp:91] Creating Layer inception_4b/relu_3x3
I0403 15:14:14.207535  2836 net.cpp:425] inception_4b/relu_3x3 <- inception_4b/3x3
I0403 15:14:14.207561  2836 net.cpp:386] inception_4b/relu_3x3 -> inception_4b/3x3 (in-place)
I0403 15:14:14.207777  2836 net.cpp:141] Setting up inception_4b/relu_3x3
I0403 15:14:14.207808  2836 net.cpp:148] Top shape: 24 224 14 14 (1053696)
I0403 15:14:14.207828  2836 net.cpp:156] Memory required for data: 964869408
I0403 15:14:14.207845  2836 layer_factory.hpp:77] Creating layer inception_4b/5x5_reduce
I0403 15:14:14.207875  2836 net.cpp:91] Creating Layer inception_4b/5x5_reduce
I0403 15:14:14.207897  2836 net.cpp:425] inception_4b/5x5_reduce <- inception_4a/output_inception_4a/output_0_split_3
I0403 15:14:14.207924  2836 net.cpp:399] inception_4b/5x5_reduce -> inception_4b/5x5_reduce
I0403 15:14:14.209241  2836 net.cpp:141] Setting up inception_4b/5x5_reduce
I0403 15:14:14.209276  2836 net.cpp:148] Top shape: 24 24 14 14 (112896)
I0403 15:14:14.209296  2836 net.cpp:156] Memory required for data: 965320992
I0403 15:14:14.209319  2836 layer_factory.hpp:77] Creating layer inception_4b/relu_5x5_reduce
I0403 15:14:14.209347  2836 net.cpp:91] Creating Layer inception_4b/relu_5x5_reduce
I0403 15:14:14.209386  2836 net.cpp:425] inception_4b/relu_5x5_reduce <- inception_4b/5x5_reduce
I0403 15:14:14.209409  2836 net.cpp:386] inception_4b/relu_5x5_reduce -> inception_4b/5x5_reduce (in-place)
I0403 15:14:14.209631  2836 net.cpp:141] Setting up inception_4b/relu_5x5_reduce
I0403 15:14:14.209666  2836 net.cpp:148] Top shape: 24 24 14 14 (112896)
I0403 15:14:14.209686  2836 net.cpp:156] Memory required for data: 965772576
I0403 15:14:14.209705  2836 layer_factory.hpp:77] Creating layer inception_4b/5x5
I0403 15:14:14.209733  2836 net.cpp:91] Creating Layer inception_4b/5x5
I0403 15:14:14.209753  2836 net.cpp:425] inception_4b/5x5 <- inception_4b/5x5_reduce
I0403 15:14:14.209779  2836 net.cpp:399] inception_4b/5x5 -> inception_4b/5x5
I0403 15:14:14.211268  2836 net.cpp:141] Setting up inception_4b/5x5
I0403 15:14:14.211304  2836 net.cpp:148] Top shape: 24 64 14 14 (301056)
I0403 15:14:14.211325  2836 net.cpp:156] Memory required for data: 966976800
I0403 15:14:14.211350  2836 layer_factory.hpp:77] Creating layer inception_4b/relu_5x5
I0403 15:14:14.211376  2836 net.cpp:91] Creating Layer inception_4b/relu_5x5
I0403 15:14:14.211397  2836 net.cpp:425] inception_4b/relu_5x5 <- inception_4b/5x5
I0403 15:14:14.211421  2836 net.cpp:386] inception_4b/relu_5x5 -> inception_4b/5x5 (in-place)
I0403 15:14:14.211758  2836 net.cpp:141] Setting up inception_4b/relu_5x5
I0403 15:14:14.211792  2836 net.cpp:148] Top shape: 24 64 14 14 (301056)
I0403 15:14:14.211812  2836 net.cpp:156] Memory required for data: 968181024
I0403 15:14:14.211830  2836 layer_factory.hpp:77] Creating layer inception_4b/pool
I0403 15:14:14.211858  2836 net.cpp:91] Creating Layer inception_4b/pool
I0403 15:14:14.211879  2836 net.cpp:425] inception_4b/pool <- inception_4a/output_inception_4a/output_0_split_4
I0403 15:14:14.211904  2836 net.cpp:399] inception_4b/pool -> inception_4b/pool
I0403 15:14:14.211984  2836 net.cpp:141] Setting up inception_4b/pool
I0403 15:14:14.212013  2836 net.cpp:148] Top shape: 24 512 14 14 (2408448)
I0403 15:14:14.212031  2836 net.cpp:156] Memory required for data: 977814816
I0403 15:14:14.212050  2836 layer_factory.hpp:77] Creating layer inception_4b/pool_proj
I0403 15:14:14.212079  2836 net.cpp:91] Creating Layer inception_4b/pool_proj
I0403 15:14:14.212102  2836 net.cpp:425] inception_4b/pool_proj <- inception_4b/pool
I0403 15:14:14.212128  2836 net.cpp:399] inception_4b/pool_proj -> inception_4b/pool_proj
I0403 15:14:14.213599  2836 net.cpp:141] Setting up inception_4b/pool_proj
I0403 15:14:14.213634  2836 net.cpp:148] Top shape: 24 64 14 14 (301056)
I0403 15:14:14.213654  2836 net.cpp:156] Memory required for data: 979019040
I0403 15:14:14.213677  2836 layer_factory.hpp:77] Creating layer inception_4b/relu_pool_proj
I0403 15:14:14.213704  2836 net.cpp:91] Creating Layer inception_4b/relu_pool_proj
I0403 15:14:14.213726  2836 net.cpp:425] inception_4b/relu_pool_proj <- inception_4b/pool_proj
I0403 15:14:14.213748  2836 net.cpp:386] inception_4b/relu_pool_proj -> inception_4b/pool_proj (in-place)
I0403 15:14:14.213970  2836 net.cpp:141] Setting up inception_4b/relu_pool_proj
I0403 15:14:14.214004  2836 net.cpp:148] Top shape: 24 64 14 14 (301056)
I0403 15:14:14.214023  2836 net.cpp:156] Memory required for data: 980223264
I0403 15:14:14.214043  2836 layer_factory.hpp:77] Creating layer inception_4b/output
I0403 15:14:14.214066  2836 net.cpp:91] Creating Layer inception_4b/output
I0403 15:14:14.214084  2836 net.cpp:425] inception_4b/output <- inception_4b/1x1
I0403 15:14:14.214104  2836 net.cpp:425] inception_4b/output <- inception_4b/3x3
I0403 15:14:14.214125  2836 net.cpp:425] inception_4b/output <- inception_4b/5x5
I0403 15:14:14.214146  2836 net.cpp:425] inception_4b/output <- inception_4b/pool_proj
I0403 15:14:14.214170  2836 net.cpp:399] inception_4b/output -> inception_4b/output
I0403 15:14:14.214232  2836 net.cpp:141] Setting up inception_4b/output
I0403 15:14:14.214262  2836 net.cpp:148] Top shape: 24 512 14 14 (2408448)
I0403 15:14:14.214282  2836 net.cpp:156] Memory required for data: 989857056
I0403 15:14:14.214316  2836 layer_factory.hpp:77] Creating layer inception_4b/output_inception_4b/output_0_split
I0403 15:14:14.214342  2836 net.cpp:91] Creating Layer inception_4b/output_inception_4b/output_0_split
I0403 15:14:14.214365  2836 net.cpp:425] inception_4b/output_inception_4b/output_0_split <- inception_4b/output
I0403 15:14:14.214386  2836 net.cpp:399] inception_4b/output_inception_4b/output_0_split -> inception_4b/output_inception_4b/output_0_split_0
I0403 15:14:14.214413  2836 net.cpp:399] inception_4b/output_inception_4b/output_0_split -> inception_4b/output_inception_4b/output_0_split_1
I0403 15:14:14.214438  2836 net.cpp:399] inception_4b/output_inception_4b/output_0_split -> inception_4b/output_inception_4b/output_0_split_2
I0403 15:14:14.214469  2836 net.cpp:399] inception_4b/output_inception_4b/output_0_split -> inception_4b/output_inception_4b/output_0_split_3
I0403 15:14:14.214573  2836 net.cpp:141] Setting up inception_4b/output_inception_4b/output_0_split
I0403 15:14:14.214603  2836 net.cpp:148] Top shape: 24 512 14 14 (2408448)
I0403 15:14:14.214625  2836 net.cpp:148] Top shape: 24 512 14 14 (2408448)
I0403 15:14:14.214645  2836 net.cpp:148] Top shape: 24 512 14 14 (2408448)
I0403 15:14:14.214665  2836 net.cpp:148] Top shape: 24 512 14 14 (2408448)
I0403 15:14:14.214682  2836 net.cpp:156] Memory required for data: 1028392224
I0403 15:14:14.214701  2836 layer_factory.hpp:77] Creating layer inception_4c/1x1
I0403 15:14:14.214728  2836 net.cpp:91] Creating Layer inception_4c/1x1
I0403 15:14:14.214751  2836 net.cpp:425] inception_4c/1x1 <- inception_4b/output_inception_4b/output_0_split_0
I0403 15:14:14.214776  2836 net.cpp:399] inception_4c/1x1 -> inception_4c/1x1
I0403 15:14:14.216519  2836 net.cpp:141] Setting up inception_4c/1x1
I0403 15:14:14.216567  2836 net.cpp:148] Top shape: 24 128 14 14 (602112)
I0403 15:14:14.216588  2836 net.cpp:156] Memory required for data: 1030800672
I0403 15:14:14.216612  2836 layer_factory.hpp:77] Creating layer inception_4c/relu_1x1
I0403 15:14:14.216634  2836 net.cpp:91] Creating Layer inception_4c/relu_1x1
I0403 15:14:14.216655  2836 net.cpp:425] inception_4c/relu_1x1 <- inception_4c/1x1
I0403 15:14:14.216678  2836 net.cpp:386] inception_4c/relu_1x1 -> inception_4c/1x1 (in-place)
I0403 15:14:14.216897  2836 net.cpp:141] Setting up inception_4c/relu_1x1
I0403 15:14:14.216927  2836 net.cpp:148] Top shape: 24 128 14 14 (602112)
I0403 15:14:14.216946  2836 net.cpp:156] Memory required for data: 1033209120
I0403 15:14:14.216964  2836 layer_factory.hpp:77] Creating layer inception_4c/3x3_reduce
I0403 15:14:14.216995  2836 net.cpp:91] Creating Layer inception_4c/3x3_reduce
I0403 15:14:14.217018  2836 net.cpp:425] inception_4c/3x3_reduce <- inception_4b/output_inception_4b/output_0_split_1
I0403 15:14:14.217044  2836 net.cpp:399] inception_4c/3x3_reduce -> inception_4c/3x3_reduce
I0403 15:14:14.219404  2836 net.cpp:141] Setting up inception_4c/3x3_reduce
I0403 15:14:14.219440  2836 net.cpp:148] Top shape: 24 128 14 14 (602112)
I0403 15:14:14.219460  2836 net.cpp:156] Memory required for data: 1035617568
I0403 15:14:14.219483  2836 layer_factory.hpp:77] Creating layer inception_4c/relu_3x3_reduce
I0403 15:14:14.219509  2836 net.cpp:91] Creating Layer inception_4c/relu_3x3_reduce
I0403 15:14:14.219532  2836 net.cpp:425] inception_4c/relu_3x3_reduce <- inception_4c/3x3_reduce
I0403 15:14:14.219554  2836 net.cpp:386] inception_4c/relu_3x3_reduce -> inception_4c/3x3_reduce (in-place)
I0403 15:14:14.219898  2836 net.cpp:141] Setting up inception_4c/relu_3x3_reduce
I0403 15:14:14.219931  2836 net.cpp:148] Top shape: 24 128 14 14 (602112)
I0403 15:14:14.219951  2836 net.cpp:156] Memory required for data: 1038026016
I0403 15:14:14.219969  2836 layer_factory.hpp:77] Creating layer inception_4c/3x3
I0403 15:14:14.219998  2836 net.cpp:91] Creating Layer inception_4c/3x3
I0403 15:14:14.220021  2836 net.cpp:425] inception_4c/3x3 <- inception_4c/3x3_reduce
I0403 15:14:14.220047  2836 net.cpp:399] inception_4c/3x3 -> inception_4c/3x3
I0403 15:14:14.224511  2836 net.cpp:141] Setting up inception_4c/3x3
I0403 15:14:14.224565  2836 net.cpp:148] Top shape: 24 256 14 14 (1204224)
I0403 15:14:14.224587  2836 net.cpp:156] Memory required for data: 1042842912
I0403 15:14:14.224629  2836 layer_factory.hpp:77] Creating layer inception_4c/relu_3x3
I0403 15:14:14.224658  2836 net.cpp:91] Creating Layer inception_4c/relu_3x3
I0403 15:14:14.224680  2836 net.cpp:425] inception_4c/relu_3x3 <- inception_4c/3x3
I0403 15:14:14.224702  2836 net.cpp:386] inception_4c/relu_3x3 -> inception_4c/3x3 (in-place)
I0403 15:14:14.224922  2836 net.cpp:141] Setting up inception_4c/relu_3x3
I0403 15:14:14.224953  2836 net.cpp:148] Top shape: 24 256 14 14 (1204224)
I0403 15:14:14.224972  2836 net.cpp:156] Memory required for data: 1047659808
I0403 15:14:14.224990  2836 layer_factory.hpp:77] Creating layer inception_4c/5x5_reduce
I0403 15:14:14.225019  2836 net.cpp:91] Creating Layer inception_4c/5x5_reduce
I0403 15:14:14.225046  2836 net.cpp:425] inception_4c/5x5_reduce <- inception_4b/output_inception_4b/output_0_split_2
I0403 15:14:14.225070  2836 net.cpp:399] inception_4c/5x5_reduce -> inception_4c/5x5_reduce
I0403 15:14:14.226400  2836 net.cpp:141] Setting up inception_4c/5x5_reduce
I0403 15:14:14.226436  2836 net.cpp:148] Top shape: 24 24 14 14 (112896)
I0403 15:14:14.226456  2836 net.cpp:156] Memory required for data: 1048111392
I0403 15:14:14.226480  2836 layer_factory.hpp:77] Creating layer inception_4c/relu_5x5_reduce
I0403 15:14:14.226505  2836 net.cpp:91] Creating Layer inception_4c/relu_5x5_reduce
I0403 15:14:14.226526  2836 net.cpp:425] inception_4c/relu_5x5_reduce <- inception_4c/5x5_reduce
I0403 15:14:14.226549  2836 net.cpp:386] inception_4c/relu_5x5_reduce -> inception_4c/5x5_reduce (in-place)
I0403 15:14:14.226773  2836 net.cpp:141] Setting up inception_4c/relu_5x5_reduce
I0403 15:14:14.226805  2836 net.cpp:148] Top shape: 24 24 14 14 (112896)
I0403 15:14:14.226825  2836 net.cpp:156] Memory required for data: 1048562976
I0403 15:14:14.226843  2836 layer_factory.hpp:77] Creating layer inception_4c/5x5
I0403 15:14:14.226874  2836 net.cpp:91] Creating Layer inception_4c/5x5
I0403 15:14:14.226897  2836 net.cpp:425] inception_4c/5x5 <- inception_4c/5x5_reduce
I0403 15:14:14.226920  2836 net.cpp:399] inception_4c/5x5 -> inception_4c/5x5
I0403 15:14:14.228438  2836 net.cpp:141] Setting up inception_4c/5x5
I0403 15:14:14.228476  2836 net.cpp:148] Top shape: 24 64 14 14 (301056)
I0403 15:14:14.228497  2836 net.cpp:156] Memory required for data: 1049767200
I0403 15:14:14.228520  2836 layer_factory.hpp:77] Creating layer inception_4c/relu_5x5
I0403 15:14:14.228543  2836 net.cpp:91] Creating Layer inception_4c/relu_5x5
I0403 15:14:14.228562  2836 net.cpp:425] inception_4c/relu_5x5 <- inception_4c/5x5
I0403 15:14:14.228587  2836 net.cpp:386] inception_4c/relu_5x5 -> inception_4c/5x5 (in-place)
I0403 15:14:14.228931  2836 net.cpp:141] Setting up inception_4c/relu_5x5
I0403 15:14:14.228967  2836 net.cpp:148] Top shape: 24 64 14 14 (301056)
I0403 15:14:14.228987  2836 net.cpp:156] Memory required for data: 1050971424
I0403 15:14:14.229007  2836 layer_factory.hpp:77] Creating layer inception_4c/pool
I0403 15:14:14.229029  2836 net.cpp:91] Creating Layer inception_4c/pool
I0403 15:14:14.229050  2836 net.cpp:425] inception_4c/pool <- inception_4b/output_inception_4b/output_0_split_3
I0403 15:14:14.229076  2836 net.cpp:399] inception_4c/pool -> inception_4c/pool
I0403 15:14:14.229158  2836 net.cpp:141] Setting up inception_4c/pool
I0403 15:14:14.229187  2836 net.cpp:148] Top shape: 24 512 14 14 (2408448)
I0403 15:14:14.229207  2836 net.cpp:156] Memory required for data: 1060605216
I0403 15:14:14.229236  2836 layer_factory.hpp:77] Creating layer inception_4c/pool_proj
I0403 15:14:14.229265  2836 net.cpp:91] Creating Layer inception_4c/pool_proj
I0403 15:14:14.229286  2836 net.cpp:425] inception_4c/pool_proj <- inception_4c/pool
I0403 15:14:14.229312  2836 net.cpp:399] inception_4c/pool_proj -> inception_4c/pool_proj
I0403 15:14:14.230792  2836 net.cpp:141] Setting up inception_4c/pool_proj
I0403 15:14:14.230828  2836 net.cpp:148] Top shape: 24 64 14 14 (301056)
I0403 15:14:14.230864  2836 net.cpp:156] Memory required for data: 1061809440
I0403 15:14:14.230888  2836 layer_factory.hpp:77] Creating layer inception_4c/relu_pool_proj
I0403 15:14:14.230916  2836 net.cpp:91] Creating Layer inception_4c/relu_pool_proj
I0403 15:14:14.230937  2836 net.cpp:425] inception_4c/relu_pool_proj <- inception_4c/pool_proj
I0403 15:14:14.230958  2836 net.cpp:386] inception_4c/relu_pool_proj -> inception_4c/pool_proj (in-place)
I0403 15:14:14.231178  2836 net.cpp:141] Setting up inception_4c/relu_pool_proj
I0403 15:14:14.231222  2836 net.cpp:148] Top shape: 24 64 14 14 (301056)
I0403 15:14:14.231243  2836 net.cpp:156] Memory required for data: 1063013664
I0403 15:14:14.231262  2836 layer_factory.hpp:77] Creating layer inception_4c/output
I0403 15:14:14.231286  2836 net.cpp:91] Creating Layer inception_4c/output
I0403 15:14:14.231305  2836 net.cpp:425] inception_4c/output <- inception_4c/1x1
I0403 15:14:14.231326  2836 net.cpp:425] inception_4c/output <- inception_4c/3x3
I0403 15:14:14.231346  2836 net.cpp:425] inception_4c/output <- inception_4c/5x5
I0403 15:14:14.231367  2836 net.cpp:425] inception_4c/output <- inception_4c/pool_proj
I0403 15:14:14.231389  2836 net.cpp:399] inception_4c/output -> inception_4c/output
I0403 15:14:14.231449  2836 net.cpp:141] Setting up inception_4c/output
I0403 15:14:14.231479  2836 net.cpp:148] Top shape: 24 512 14 14 (2408448)
I0403 15:14:14.231498  2836 net.cpp:156] Memory required for data: 1072647456
I0403 15:14:14.231515  2836 layer_factory.hpp:77] Creating layer inception_4c/output_inception_4c/output_0_split
I0403 15:14:14.231537  2836 net.cpp:91] Creating Layer inception_4c/output_inception_4c/output_0_split
I0403 15:14:14.231559  2836 net.cpp:425] inception_4c/output_inception_4c/output_0_split <- inception_4c/output
I0403 15:14:14.231585  2836 net.cpp:399] inception_4c/output_inception_4c/output_0_split -> inception_4c/output_inception_4c/output_0_split_0
I0403 15:14:14.231611  2836 net.cpp:399] inception_4c/output_inception_4c/output_0_split -> inception_4c/output_inception_4c/output_0_split_1
I0403 15:14:14.231638  2836 net.cpp:399] inception_4c/output_inception_4c/output_0_split -> inception_4c/output_inception_4c/output_0_split_2
I0403 15:14:14.231667  2836 net.cpp:399] inception_4c/output_inception_4c/output_0_split -> inception_4c/output_inception_4c/output_0_split_3
I0403 15:14:14.231771  2836 net.cpp:141] Setting up inception_4c/output_inception_4c/output_0_split
I0403 15:14:14.231799  2836 net.cpp:148] Top shape: 24 512 14 14 (2408448)
I0403 15:14:14.231820  2836 net.cpp:148] Top shape: 24 512 14 14 (2408448)
I0403 15:14:14.231842  2836 net.cpp:148] Top shape: 24 512 14 14 (2408448)
I0403 15:14:14.231863  2836 net.cpp:148] Top shape: 24 512 14 14 (2408448)
I0403 15:14:14.231879  2836 net.cpp:156] Memory required for data: 1111182624
I0403 15:14:14.231899  2836 layer_factory.hpp:77] Creating layer inception_4d/1x1
I0403 15:14:14.231926  2836 net.cpp:91] Creating Layer inception_4d/1x1
I0403 15:14:14.231948  2836 net.cpp:425] inception_4d/1x1 <- inception_4c/output_inception_4c/output_0_split_0
I0403 15:14:14.231974  2836 net.cpp:399] inception_4d/1x1 -> inception_4d/1x1
I0403 15:14:14.233717  2836 net.cpp:141] Setting up inception_4d/1x1
I0403 15:14:14.233753  2836 net.cpp:148] Top shape: 24 112 14 14 (526848)
I0403 15:14:14.233773  2836 net.cpp:156] Memory required for data: 1113290016
I0403 15:14:14.233796  2836 layer_factory.hpp:77] Creating layer inception_4d/relu_1x1
I0403 15:14:14.233819  2836 net.cpp:91] Creating Layer inception_4d/relu_1x1
I0403 15:14:14.233844  2836 net.cpp:425] inception_4d/relu_1x1 <- inception_4d/1x1
I0403 15:14:14.233865  2836 net.cpp:386] inception_4d/relu_1x1 -> inception_4d/1x1 (in-place)
I0403 15:14:14.234081  2836 net.cpp:141] Setting up inception_4d/relu_1x1
I0403 15:14:14.234112  2836 net.cpp:148] Top shape: 24 112 14 14 (526848)
I0403 15:14:14.234132  2836 net.cpp:156] Memory required for data: 1115397408
I0403 15:14:14.234150  2836 layer_factory.hpp:77] Creating layer inception_4d/3x3_reduce
I0403 15:14:14.234195  2836 net.cpp:91] Creating Layer inception_4d/3x3_reduce
I0403 15:14:14.234225  2836 net.cpp:425] inception_4d/3x3_reduce <- inception_4c/output_inception_4c/output_0_split_1
I0403 15:14:14.234253  2836 net.cpp:399] inception_4d/3x3_reduce -> inception_4d/3x3_reduce
I0403 15:14:14.236073  2836 net.cpp:141] Setting up inception_4d/3x3_reduce
I0403 15:14:14.236110  2836 net.cpp:148] Top shape: 24 144 14 14 (677376)
I0403 15:14:14.236130  2836 net.cpp:156] Memory required for data: 1118106912
I0403 15:14:14.236153  2836 layer_factory.hpp:77] Creating layer inception_4d/relu_3x3_reduce
I0403 15:14:14.236176  2836 net.cpp:91] Creating Layer inception_4d/relu_3x3_reduce
I0403 15:14:14.236197  2836 net.cpp:425] inception_4d/relu_3x3_reduce <- inception_4d/3x3_reduce
I0403 15:14:14.236228  2836 net.cpp:386] inception_4d/relu_3x3_reduce -> inception_4d/3x3_reduce (in-place)
I0403 15:14:14.236575  2836 net.cpp:141] Setting up inception_4d/relu_3x3_reduce
I0403 15:14:14.236615  2836 net.cpp:148] Top shape: 24 144 14 14 (677376)
I0403 15:14:14.236636  2836 net.cpp:156] Memory required for data: 1120816416
I0403 15:14:14.236657  2836 layer_factory.hpp:77] Creating layer inception_4d/3x3
I0403 15:14:14.236686  2836 net.cpp:91] Creating Layer inception_4d/3x3
I0403 15:14:14.236711  2836 net.cpp:425] inception_4d/3x3 <- inception_4d/3x3_reduce
I0403 15:14:14.236735  2836 net.cpp:399] inception_4d/3x3 -> inception_4d/3x3
I0403 15:14:14.241973  2836 net.cpp:141] Setting up inception_4d/3x3
I0403 15:14:14.242012  2836 net.cpp:148] Top shape: 24 288 14 14 (1354752)
I0403 15:14:14.242030  2836 net.cpp:156] Memory required for data: 1126235424
I0403 15:14:14.242054  2836 layer_factory.hpp:77] Creating layer inception_4d/relu_3x3
I0403 15:14:14.242077  2836 net.cpp:91] Creating Layer inception_4d/relu_3x3
I0403 15:14:14.242099  2836 net.cpp:425] inception_4d/relu_3x3 <- inception_4d/3x3
I0403 15:14:14.242123  2836 net.cpp:386] inception_4d/relu_3x3 -> inception_4d/3x3 (in-place)
I0403 15:14:14.242353  2836 net.cpp:141] Setting up inception_4d/relu_3x3
I0403 15:14:14.242384  2836 net.cpp:148] Top shape: 24 288 14 14 (1354752)
I0403 15:14:14.242403  2836 net.cpp:156] Memory required for data: 1131654432
I0403 15:14:14.242421  2836 layer_factory.hpp:77] Creating layer inception_4d/5x5_reduce
I0403 15:14:14.242451  2836 net.cpp:91] Creating Layer inception_4d/5x5_reduce
I0403 15:14:14.242473  2836 net.cpp:425] inception_4d/5x5_reduce <- inception_4c/output_inception_4c/output_0_split_2
I0403 15:14:14.242499  2836 net.cpp:399] inception_4d/5x5_reduce -> inception_4d/5x5_reduce
I0403 15:14:14.243901  2836 net.cpp:141] Setting up inception_4d/5x5_reduce
I0403 15:14:14.243938  2836 net.cpp:148] Top shape: 24 32 14 14 (150528)
I0403 15:14:14.243962  2836 net.cpp:156] Memory required for data: 1132256544
I0403 15:14:14.243993  2836 layer_factory.hpp:77] Creating layer inception_4d/relu_5x5_reduce
I0403 15:14:14.244019  2836 net.cpp:91] Creating Layer inception_4d/relu_5x5_reduce
I0403 15:14:14.244042  2836 net.cpp:425] inception_4d/relu_5x5_reduce <- inception_4d/5x5_reduce
I0403 15:14:14.244065  2836 net.cpp:386] inception_4d/relu_5x5_reduce -> inception_4d/5x5_reduce (in-place)
I0403 15:14:14.244302  2836 net.cpp:141] Setting up inception_4d/relu_5x5_reduce
I0403 15:14:14.244333  2836 net.cpp:148] Top shape: 24 32 14 14 (150528)
I0403 15:14:14.244351  2836 net.cpp:156] Memory required for data: 1132858656
I0403 15:14:14.244369  2836 layer_factory.hpp:77] Creating layer inception_4d/5x5
I0403 15:14:14.244406  2836 net.cpp:91] Creating Layer inception_4d/5x5
I0403 15:14:14.244428  2836 net.cpp:425] inception_4d/5x5 <- inception_4d/5x5_reduce
I0403 15:14:14.244456  2836 net.cpp:399] inception_4d/5x5 -> inception_4d/5x5
I0403 15:14:14.246248  2836 net.cpp:141] Setting up inception_4d/5x5
I0403 15:14:14.246285  2836 net.cpp:148] Top shape: 24 64 14 14 (301056)
I0403 15:14:14.246305  2836 net.cpp:156] Memory required for data: 1134062880
I0403 15:14:14.246330  2836 layer_factory.hpp:77] Creating layer inception_4d/relu_5x5
I0403 15:14:14.246373  2836 net.cpp:91] Creating Layer inception_4d/relu_5x5
I0403 15:14:14.246397  2836 net.cpp:425] inception_4d/relu_5x5 <- inception_4d/5x5
I0403 15:14:14.246420  2836 net.cpp:386] inception_4d/relu_5x5 -> inception_4d/5x5 (in-place)
I0403 15:14:14.246785  2836 net.cpp:141] Setting up inception_4d/relu_5x5
I0403 15:14:14.246819  2836 net.cpp:148] Top shape: 24 64 14 14 (301056)
I0403 15:14:14.246839  2836 net.cpp:156] Memory required for data: 1135267104
I0403 15:14:14.246857  2836 layer_factory.hpp:77] Creating layer inception_4d/pool
I0403 15:14:14.246883  2836 net.cpp:91] Creating Layer inception_4d/pool
I0403 15:14:14.246906  2836 net.cpp:425] inception_4d/pool <- inception_4c/output_inception_4c/output_0_split_3
I0403 15:14:14.246928  2836 net.cpp:399] inception_4d/pool -> inception_4d/pool
I0403 15:14:14.247020  2836 net.cpp:141] Setting up inception_4d/pool
I0403 15:14:14.247050  2836 net.cpp:148] Top shape: 24 512 14 14 (2408448)
I0403 15:14:14.247067  2836 net.cpp:156] Memory required for data: 1144900896
I0403 15:14:14.247087  2836 layer_factory.hpp:77] Creating layer inception_4d/pool_proj
I0403 15:14:14.247113  2836 net.cpp:91] Creating Layer inception_4d/pool_proj
I0403 15:14:14.247135  2836 net.cpp:425] inception_4d/pool_proj <- inception_4d/pool
I0403 15:14:14.247161  2836 net.cpp:399] inception_4d/pool_proj -> inception_4d/pool_proj
I0403 15:14:14.249312  2836 net.cpp:141] Setting up inception_4d/pool_proj
I0403 15:14:14.249348  2836 net.cpp:148] Top shape: 24 64 14 14 (301056)
I0403 15:14:14.249368  2836 net.cpp:156] Memory required for data: 1146105120
I0403 15:14:14.249392  2836 layer_factory.hpp:77] Creating layer inception_4d/relu_pool_proj
I0403 15:14:14.249415  2836 net.cpp:91] Creating Layer inception_4d/relu_pool_proj
I0403 15:14:14.249436  2836 net.cpp:425] inception_4d/relu_pool_proj <- inception_4d/pool_proj
I0403 15:14:14.249462  2836 net.cpp:386] inception_4d/relu_pool_proj -> inception_4d/pool_proj (in-place)
I0403 15:14:14.249696  2836 net.cpp:141] Setting up inception_4d/relu_pool_proj
I0403 15:14:14.249729  2836 net.cpp:148] Top shape: 24 64 14 14 (301056)
I0403 15:14:14.249747  2836 net.cpp:156] Memory required for data: 1147309344
I0403 15:14:14.249766  2836 layer_factory.hpp:77] Creating layer inception_4d/output
I0403 15:14:14.249791  2836 net.cpp:91] Creating Layer inception_4d/output
I0403 15:14:14.249814  2836 net.cpp:425] inception_4d/output <- inception_4d/1x1
I0403 15:14:14.249835  2836 net.cpp:425] inception_4d/output <- inception_4d/3x3
I0403 15:14:14.249855  2836 net.cpp:425] inception_4d/output <- inception_4d/5x5
I0403 15:14:14.249876  2836 net.cpp:425] inception_4d/output <- inception_4d/pool_proj
I0403 15:14:14.249907  2836 net.cpp:399] inception_4d/output -> inception_4d/output
I0403 15:14:14.249968  2836 net.cpp:141] Setting up inception_4d/output
I0403 15:14:14.249996  2836 net.cpp:148] Top shape: 24 528 14 14 (2483712)
I0403 15:14:14.250015  2836 net.cpp:156] Memory required for data: 1157244192
I0403 15:14:14.250033  2836 layer_factory.hpp:77] Creating layer inception_4d/output_inception_4d/output_0_split
I0403 15:14:14.250056  2836 net.cpp:91] Creating Layer inception_4d/output_inception_4d/output_0_split
I0403 15:14:14.250075  2836 net.cpp:425] inception_4d/output_inception_4d/output_0_split <- inception_4d/output
I0403 15:14:14.250103  2836 net.cpp:399] inception_4d/output_inception_4d/output_0_split -> inception_4d/output_inception_4d/output_0_split_0
I0403 15:14:14.250131  2836 net.cpp:399] inception_4d/output_inception_4d/output_0_split -> inception_4d/output_inception_4d/output_0_split_1
I0403 15:14:14.250159  2836 net.cpp:399] inception_4d/output_inception_4d/output_0_split -> inception_4d/output_inception_4d/output_0_split_2
I0403 15:14:14.250185  2836 net.cpp:399] inception_4d/output_inception_4d/output_0_split -> inception_4d/output_inception_4d/output_0_split_3
I0403 15:14:14.250216  2836 net.cpp:399] inception_4d/output_inception_4d/output_0_split -> inception_4d/output_inception_4d/output_0_split_4
I0403 15:14:14.250346  2836 net.cpp:141] Setting up inception_4d/output_inception_4d/output_0_split
I0403 15:14:14.250391  2836 net.cpp:148] Top shape: 24 528 14 14 (2483712)
I0403 15:14:14.250411  2836 net.cpp:148] Top shape: 24 528 14 14 (2483712)
I0403 15:14:14.250432  2836 net.cpp:148] Top shape: 24 528 14 14 (2483712)
I0403 15:14:14.250450  2836 net.cpp:148] Top shape: 24 528 14 14 (2483712)
I0403 15:14:14.250470  2836 net.cpp:148] Top shape: 24 528 14 14 (2483712)
I0403 15:14:14.250489  2836 net.cpp:156] Memory required for data: 1206918432
I0403 15:14:14.250507  2836 layer_factory.hpp:77] Creating layer loss2/ave_pool
I0403 15:14:14.250531  2836 net.cpp:91] Creating Layer loss2/ave_pool
I0403 15:14:14.250551  2836 net.cpp:425] loss2/ave_pool <- inception_4d/output_inception_4d/output_0_split_0
I0403 15:14:14.250578  2836 net.cpp:399] loss2/ave_pool -> loss2/ave_pool
I0403 15:14:14.250959  2836 net.cpp:141] Setting up loss2/ave_pool
I0403 15:14:14.250993  2836 net.cpp:148] Top shape: 24 528 4 4 (202752)
I0403 15:14:14.251013  2836 net.cpp:156] Memory required for data: 1207729440
I0403 15:14:14.251032  2836 layer_factory.hpp:77] Creating layer loss2/conv
I0403 15:14:14.251060  2836 net.cpp:91] Creating Layer loss2/conv
I0403 15:14:14.251082  2836 net.cpp:425] loss2/conv <- loss2/ave_pool
I0403 15:14:14.251108  2836 net.cpp:399] loss2/conv -> loss2/conv
I0403 15:14:14.253450  2836 net.cpp:141] Setting up loss2/conv
I0403 15:14:14.253499  2836 net.cpp:148] Top shape: 24 128 4 4 (49152)
I0403 15:14:14.253521  2836 net.cpp:156] Memory required for data: 1207926048
I0403 15:14:14.253545  2836 layer_factory.hpp:77] Creating layer loss2/relu_conv
I0403 15:14:14.253567  2836 net.cpp:91] Creating Layer loss2/relu_conv
I0403 15:14:14.253587  2836 net.cpp:425] loss2/relu_conv <- loss2/conv
I0403 15:14:14.253610  2836 net.cpp:386] loss2/relu_conv -> loss2/conv (in-place)
I0403 15:14:14.253958  2836 net.cpp:141] Setting up loss2/relu_conv
I0403 15:14:14.253994  2836 net.cpp:148] Top shape: 24 128 4 4 (49152)
I0403 15:14:14.254014  2836 net.cpp:156] Memory required for data: 1208122656
I0403 15:14:14.254034  2836 layer_factory.hpp:77] Creating layer loss2/fc
I0403 15:14:14.254058  2836 net.cpp:91] Creating Layer loss2/fc
I0403 15:14:14.254079  2836 net.cpp:425] loss2/fc <- loss2/conv
I0403 15:14:14.254104  2836 net.cpp:399] loss2/fc -> loss2/fc
I0403 15:14:14.275967  2836 net.cpp:141] Setting up loss2/fc
I0403 15:14:14.276010  2836 net.cpp:148] Top shape: 24 1024 (24576)
I0403 15:14:14.276032  2836 net.cpp:156] Memory required for data: 1208220960
I0403 15:14:14.276058  2836 layer_factory.hpp:77] Creating layer loss2/relu_fc
I0403 15:14:14.276088  2836 net.cpp:91] Creating Layer loss2/relu_fc
I0403 15:14:14.276111  2836 net.cpp:425] loss2/relu_fc <- loss2/fc
I0403 15:14:14.276136  2836 net.cpp:386] loss2/relu_fc -> loss2/fc (in-place)
I0403 15:14:14.276576  2836 net.cpp:141] Setting up loss2/relu_fc
I0403 15:14:14.276612  2836 net.cpp:148] Top shape: 24 1024 (24576)
I0403 15:14:14.276631  2836 net.cpp:156] Memory required for data: 1208319264
I0403 15:14:14.276649  2836 layer_factory.hpp:77] Creating layer loss2/drop_fc
I0403 15:14:14.276675  2836 net.cpp:91] Creating Layer loss2/drop_fc
I0403 15:14:14.276696  2836 net.cpp:425] loss2/drop_fc <- loss2/fc
I0403 15:14:14.276720  2836 net.cpp:386] loss2/drop_fc -> loss2/fc (in-place)
I0403 15:14:14.276779  2836 net.cpp:141] Setting up loss2/drop_fc
I0403 15:14:14.276809  2836 net.cpp:148] Top shape: 24 1024 (24576)
I0403 15:14:14.276829  2836 net.cpp:156] Memory required for data: 1208417568
I0403 15:14:14.276849  2836 layer_factory.hpp:77] Creating layer loss2/classifier_plantvillage
I0403 15:14:14.276872  2836 net.cpp:91] Creating Layer loss2/classifier_plantvillage
I0403 15:14:14.276892  2836 net.cpp:425] loss2/classifier_plantvillage <- loss2/fc
I0403 15:14:14.276918  2836 net.cpp:399] loss2/classifier_plantvillage -> loss2/classifier_plantvillage
I0403 15:14:14.277434  2836 net.cpp:141] Setting up loss2/classifier_plantvillage
I0403 15:14:14.277465  2836 net.cpp:148] Top shape: 24 38 (912)
I0403 15:14:14.277513  2836 net.cpp:156] Memory required for data: 1208421216
I0403 15:14:14.277537  2836 layer_factory.hpp:77] Creating layer loss2/classifier_plantvillage_loss2/classifier_plantvillage_0_split
I0403 15:14:14.277564  2836 net.cpp:91] Creating Layer loss2/classifier_plantvillage_loss2/classifier_plantvillage_0_split
I0403 15:14:14.277583  2836 net.cpp:425] loss2/classifier_plantvillage_loss2/classifier_plantvillage_0_split <- loss2/classifier_plantvillage
I0403 15:14:14.277606  2836 net.cpp:399] loss2/classifier_plantvillage_loss2/classifier_plantvillage_0_split -> loss2/classifier_plantvillage_loss2/classifier_plantvillage_0_split_0
I0403 15:14:14.277633  2836 net.cpp:399] loss2/classifier_plantvillage_loss2/classifier_plantvillage_0_split -> loss2/classifier_plantvillage_loss2/classifier_plantvillage_0_split_1
I0403 15:14:14.277662  2836 net.cpp:399] loss2/classifier_plantvillage_loss2/classifier_plantvillage_0_split -> loss2/classifier_plantvillage_loss2/classifier_plantvillage_0_split_2
I0403 15:14:14.277765  2836 net.cpp:141] Setting up loss2/classifier_plantvillage_loss2/classifier_plantvillage_0_split
I0403 15:14:14.277796  2836 net.cpp:148] Top shape: 24 38 (912)
I0403 15:14:14.277819  2836 net.cpp:148] Top shape: 24 38 (912)
I0403 15:14:14.277839  2836 net.cpp:148] Top shape: 24 38 (912)
I0403 15:14:14.277858  2836 net.cpp:156] Memory required for data: 1208432160
I0403 15:14:14.277878  2836 layer_factory.hpp:77] Creating layer inception_4e/1x1
I0403 15:14:14.277906  2836 net.cpp:91] Creating Layer inception_4e/1x1
I0403 15:14:14.277931  2836 net.cpp:425] inception_4e/1x1 <- inception_4d/output_inception_4d/output_0_split_1
I0403 15:14:14.277963  2836 net.cpp:399] inception_4e/1x1 -> inception_4e/1x1
I0403 15:14:14.280230  2836 net.cpp:141] Setting up inception_4e/1x1
I0403 15:14:14.280272  2836 net.cpp:148] Top shape: 24 256 14 14 (1204224)
I0403 15:14:14.280292  2836 net.cpp:156] Memory required for data: 1213249056
I0403 15:14:14.280318  2836 layer_factory.hpp:77] Creating layer inception_4e/relu_1x1
I0403 15:14:14.280341  2836 net.cpp:91] Creating Layer inception_4e/relu_1x1
I0403 15:14:14.280361  2836 net.cpp:425] inception_4e/relu_1x1 <- inception_4e/1x1
I0403 15:14:14.280387  2836 net.cpp:386] inception_4e/relu_1x1 -> inception_4e/1x1 (in-place)
I0403 15:14:14.280748  2836 net.cpp:141] Setting up inception_4e/relu_1x1
I0403 15:14:14.280791  2836 net.cpp:148] Top shape: 24 256 14 14 (1204224)
I0403 15:14:14.280810  2836 net.cpp:156] Memory required for data: 1218065952
I0403 15:14:14.280829  2836 layer_factory.hpp:77] Creating layer inception_4e/3x3_reduce
I0403 15:14:14.280858  2836 net.cpp:91] Creating Layer inception_4e/3x3_reduce
I0403 15:14:14.280880  2836 net.cpp:425] inception_4e/3x3_reduce <- inception_4d/output_inception_4d/output_0_split_2
I0403 15:14:14.280903  2836 net.cpp:399] inception_4e/3x3_reduce -> inception_4e/3x3_reduce
I0403 15:14:14.283501  2836 net.cpp:141] Setting up inception_4e/3x3_reduce
I0403 15:14:14.283538  2836 net.cpp:148] Top shape: 24 160 14 14 (752640)
I0403 15:14:14.283558  2836 net.cpp:156] Memory required for data: 1221076512
I0403 15:14:14.283582  2836 layer_factory.hpp:77] Creating layer inception_4e/relu_3x3_reduce
I0403 15:14:14.283607  2836 net.cpp:91] Creating Layer inception_4e/relu_3x3_reduce
I0403 15:14:14.283630  2836 net.cpp:425] inception_4e/relu_3x3_reduce <- inception_4e/3x3_reduce
I0403 15:14:14.283653  2836 net.cpp:386] inception_4e/relu_3x3_reduce -> inception_4e/3x3_reduce (in-place)
I0403 15:14:14.283879  2836 net.cpp:141] Setting up inception_4e/relu_3x3_reduce
I0403 15:14:14.283913  2836 net.cpp:148] Top shape: 24 160 14 14 (752640)
I0403 15:14:14.283933  2836 net.cpp:156] Memory required for data: 1224087072
I0403 15:14:14.283952  2836 layer_factory.hpp:77] Creating layer inception_4e/3x3
I0403 15:14:14.283980  2836 net.cpp:91] Creating Layer inception_4e/3x3
I0403 15:14:14.284003  2836 net.cpp:425] inception_4e/3x3 <- inception_4e/3x3_reduce
I0403 15:14:14.284027  2836 net.cpp:399] inception_4e/3x3 -> inception_4e/3x3
I0403 15:14:14.290197  2836 net.cpp:141] Setting up inception_4e/3x3
I0403 15:14:14.290279  2836 net.cpp:148] Top shape: 24 320 14 14 (1505280)
I0403 15:14:14.290302  2836 net.cpp:156] Memory required for data: 1230108192
I0403 15:14:14.290326  2836 layer_factory.hpp:77] Creating layer inception_4e/relu_3x3
I0403 15:14:14.290351  2836 net.cpp:91] Creating Layer inception_4e/relu_3x3
I0403 15:14:14.290372  2836 net.cpp:425] inception_4e/relu_3x3 <- inception_4e/3x3
I0403 15:14:14.290397  2836 net.cpp:386] inception_4e/relu_3x3 -> inception_4e/3x3 (in-place)
I0403 15:14:14.290758  2836 net.cpp:141] Setting up inception_4e/relu_3x3
I0403 15:14:14.290792  2836 net.cpp:148] Top shape: 24 320 14 14 (1505280)
I0403 15:14:14.290812  2836 net.cpp:156] Memory required for data: 1236129312
I0403 15:14:14.290830  2836 layer_factory.hpp:77] Creating layer inception_4e/5x5_reduce
I0403 15:14:14.290861  2836 net.cpp:91] Creating Layer inception_4e/5x5_reduce
I0403 15:14:14.290884  2836 net.cpp:425] inception_4e/5x5_reduce <- inception_4d/output_inception_4d/output_0_split_3
I0403 15:14:14.290910  2836 net.cpp:399] inception_4e/5x5_reduce -> inception_4e/5x5_reduce
I0403 15:14:14.292218  2836 net.cpp:141] Setting up inception_4e/5x5_reduce
I0403 15:14:14.292253  2836 net.cpp:148] Top shape: 24 32 14 14 (150528)
I0403 15:14:14.292273  2836 net.cpp:156] Memory required for data: 1236731424
I0403 15:14:14.292296  2836 layer_factory.hpp:77] Creating layer inception_4e/relu_5x5_reduce
I0403 15:14:14.292321  2836 net.cpp:91] Creating Layer inception_4e/relu_5x5_reduce
I0403 15:14:14.292342  2836 net.cpp:425] inception_4e/relu_5x5_reduce <- inception_4e/5x5_reduce
I0403 15:14:14.292364  2836 net.cpp:386] inception_4e/relu_5x5_reduce -> inception_4e/5x5_reduce (in-place)
I0403 15:14:14.292721  2836 net.cpp:141] Setting up inception_4e/relu_5x5_reduce
I0403 15:14:14.292752  2836 net.cpp:148] Top shape: 24 32 14 14 (150528)
I0403 15:14:14.292771  2836 net.cpp:156] Memory required for data: 1237333536
I0403 15:14:14.292790  2836 layer_factory.hpp:77] Creating layer inception_4e/5x5
I0403 15:14:14.292840  2836 net.cpp:91] Creating Layer inception_4e/5x5
I0403 15:14:14.292865  2836 net.cpp:425] inception_4e/5x5 <- inception_4e/5x5_reduce
I0403 15:14:14.292888  2836 net.cpp:399] inception_4e/5x5 -> inception_4e/5x5
I0403 15:14:14.295161  2836 net.cpp:141] Setting up inception_4e/5x5
I0403 15:14:14.295197  2836 net.cpp:148] Top shape: 24 128 14 14 (602112)
I0403 15:14:14.295223  2836 net.cpp:156] Memory required for data: 1239741984
I0403 15:14:14.295248  2836 layer_factory.hpp:77] Creating layer inception_4e/relu_5x5
I0403 15:14:14.295274  2836 net.cpp:91] Creating Layer inception_4e/relu_5x5
I0403 15:14:14.295297  2836 net.cpp:425] inception_4e/relu_5x5 <- inception_4e/5x5
I0403 15:14:14.295320  2836 net.cpp:386] inception_4e/relu_5x5 -> inception_4e/5x5 (in-place)
I0403 15:14:14.295559  2836 net.cpp:141] Setting up inception_4e/relu_5x5
I0403 15:14:14.295593  2836 net.cpp:148] Top shape: 24 128 14 14 (602112)
I0403 15:14:14.295614  2836 net.cpp:156] Memory required for data: 1242150432
I0403 15:14:14.295632  2836 layer_factory.hpp:77] Creating layer inception_4e/pool
I0403 15:14:14.295655  2836 net.cpp:91] Creating Layer inception_4e/pool
I0403 15:14:14.295675  2836 net.cpp:425] inception_4e/pool <- inception_4d/output_inception_4d/output_0_split_4
I0403 15:14:14.295697  2836 net.cpp:399] inception_4e/pool -> inception_4e/pool
I0403 15:14:14.295789  2836 net.cpp:141] Setting up inception_4e/pool
I0403 15:14:14.295819  2836 net.cpp:148] Top shape: 24 528 14 14 (2483712)
I0403 15:14:14.295837  2836 net.cpp:156] Memory required for data: 1252085280
I0403 15:14:14.295855  2836 layer_factory.hpp:77] Creating layer inception_4e/pool_proj
I0403 15:14:14.295882  2836 net.cpp:91] Creating Layer inception_4e/pool_proj
I0403 15:14:14.295905  2836 net.cpp:425] inception_4e/pool_proj <- inception_4e/pool
I0403 15:14:14.295931  2836 net.cpp:399] inception_4e/pool_proj -> inception_4e/pool_proj
I0403 15:14:14.297785  2836 net.cpp:141] Setting up inception_4e/pool_proj
I0403 15:14:14.297835  2836 net.cpp:148] Top shape: 24 128 14 14 (602112)
I0403 15:14:14.297855  2836 net.cpp:156] Memory required for data: 1254493728
I0403 15:14:14.297879  2836 layer_factory.hpp:77] Creating layer inception_4e/relu_pool_proj
I0403 15:14:14.297905  2836 net.cpp:91] Creating Layer inception_4e/relu_pool_proj
I0403 15:14:14.297927  2836 net.cpp:425] inception_4e/relu_pool_proj <- inception_4e/pool_proj
I0403 15:14:14.297950  2836 net.cpp:386] inception_4e/relu_pool_proj -> inception_4e/pool_proj (in-place)
I0403 15:14:14.298307  2836 net.cpp:141] Setting up inception_4e/relu_pool_proj
I0403 15:14:14.298341  2836 net.cpp:148] Top shape: 24 128 14 14 (602112)
I0403 15:14:14.298360  2836 net.cpp:156] Memory required for data: 1256902176
I0403 15:14:14.298379  2836 layer_factory.hpp:77] Creating layer inception_4e/output
I0403 15:14:14.298401  2836 net.cpp:91] Creating Layer inception_4e/output
I0403 15:14:14.298421  2836 net.cpp:425] inception_4e/output <- inception_4e/1x1
I0403 15:14:14.298442  2836 net.cpp:425] inception_4e/output <- inception_4e/3x3
I0403 15:14:14.298462  2836 net.cpp:425] inception_4e/output <- inception_4e/5x5
I0403 15:14:14.298482  2836 net.cpp:425] inception_4e/output <- inception_4e/pool_proj
I0403 15:14:14.298506  2836 net.cpp:399] inception_4e/output -> inception_4e/output
I0403 15:14:14.298568  2836 net.cpp:141] Setting up inception_4e/output
I0403 15:14:14.298600  2836 net.cpp:148] Top shape: 24 832 14 14 (3913728)
I0403 15:14:14.298619  2836 net.cpp:156] Memory required for data: 1272557088
I0403 15:14:14.298636  2836 layer_factory.hpp:77] Creating layer pool4/3x3_s2
I0403 15:14:14.298658  2836 net.cpp:91] Creating Layer pool4/3x3_s2
I0403 15:14:14.298677  2836 net.cpp:425] pool4/3x3_s2 <- inception_4e/output
I0403 15:14:14.298703  2836 net.cpp:399] pool4/3x3_s2 -> pool4/3x3_s2
I0403 15:14:14.298787  2836 net.cpp:141] Setting up pool4/3x3_s2
I0403 15:14:14.298817  2836 net.cpp:148] Top shape: 24 832 7 7 (978432)
I0403 15:14:14.298835  2836 net.cpp:156] Memory required for data: 1276470816
I0403 15:14:14.298853  2836 layer_factory.hpp:77] Creating layer pool4/3x3_s2_pool4/3x3_s2_0_split
I0403 15:14:14.298878  2836 net.cpp:91] Creating Layer pool4/3x3_s2_pool4/3x3_s2_0_split
I0403 15:14:14.298898  2836 net.cpp:425] pool4/3x3_s2_pool4/3x3_s2_0_split <- pool4/3x3_s2
I0403 15:14:14.298921  2836 net.cpp:399] pool4/3x3_s2_pool4/3x3_s2_0_split -> pool4/3x3_s2_pool4/3x3_s2_0_split_0
I0403 15:14:14.298946  2836 net.cpp:399] pool4/3x3_s2_pool4/3x3_s2_0_split -> pool4/3x3_s2_pool4/3x3_s2_0_split_1
I0403 15:14:14.298975  2836 net.cpp:399] pool4/3x3_s2_pool4/3x3_s2_0_split -> pool4/3x3_s2_pool4/3x3_s2_0_split_2
I0403 15:14:14.299001  2836 net.cpp:399] pool4/3x3_s2_pool4/3x3_s2_0_split -> pool4/3x3_s2_pool4/3x3_s2_0_split_3
I0403 15:14:14.299113  2836 net.cpp:141] Setting up pool4/3x3_s2_pool4/3x3_s2_0_split
I0403 15:14:14.299141  2836 net.cpp:148] Top shape: 24 832 7 7 (978432)
I0403 15:14:14.299161  2836 net.cpp:148] Top shape: 24 832 7 7 (978432)
I0403 15:14:14.299182  2836 net.cpp:148] Top shape: 24 832 7 7 (978432)
I0403 15:14:14.299201  2836 net.cpp:148] Top shape: 24 832 7 7 (978432)
I0403 15:14:14.299224  2836 net.cpp:156] Memory required for data: 1292125728
I0403 15:14:14.299244  2836 layer_factory.hpp:77] Creating layer inception_5a/1x1
I0403 15:14:14.299273  2836 net.cpp:91] Creating Layer inception_5a/1x1
I0403 15:14:14.299294  2836 net.cpp:425] inception_5a/1x1 <- pool4/3x3_s2_pool4/3x3_s2_0_split_0
I0403 15:14:14.299321  2836 net.cpp:399] inception_5a/1x1 -> inception_5a/1x1
I0403 15:14:14.302952  2836 net.cpp:141] Setting up inception_5a/1x1
I0403 15:14:14.302988  2836 net.cpp:148] Top shape: 24 256 7 7 (301056)
I0403 15:14:14.303007  2836 net.cpp:156] Memory required for data: 1293329952
I0403 15:14:14.303030  2836 layer_factory.hpp:77] Creating layer inception_5a/relu_1x1
I0403 15:14:14.303056  2836 net.cpp:91] Creating Layer inception_5a/relu_1x1
I0403 15:14:14.303077  2836 net.cpp:425] inception_5a/relu_1x1 <- inception_5a/1x1
I0403 15:14:14.303099  2836 net.cpp:386] inception_5a/relu_1x1 -> inception_5a/1x1 (in-place)
I0403 15:14:14.303490  2836 net.cpp:141] Setting up inception_5a/relu_1x1
I0403 15:14:14.303524  2836 net.cpp:148] Top shape: 24 256 7 7 (301056)
I0403 15:14:14.303541  2836 net.cpp:156] Memory required for data: 1294534176
I0403 15:14:14.303560  2836 layer_factory.hpp:77] Creating layer inception_5a/3x3_reduce
I0403 15:14:14.303589  2836 net.cpp:91] Creating Layer inception_5a/3x3_reduce
I0403 15:14:14.303611  2836 net.cpp:425] inception_5a/3x3_reduce <- pool4/3x3_s2_pool4/3x3_s2_0_split_1
I0403 15:14:14.303638  2836 net.cpp:399] inception_5a/3x3_reduce -> inception_5a/3x3_reduce
I0403 15:14:14.306641  2836 net.cpp:141] Setting up inception_5a/3x3_reduce
I0403 15:14:14.306679  2836 net.cpp:148] Top shape: 24 160 7 7 (188160)
I0403 15:14:14.306705  2836 net.cpp:156] Memory required for data: 1295286816
I0403 15:14:14.306730  2836 layer_factory.hpp:77] Creating layer inception_5a/relu_3x3_reduce
I0403 15:14:14.306753  2836 net.cpp:91] Creating Layer inception_5a/relu_3x3_reduce
I0403 15:14:14.306773  2836 net.cpp:425] inception_5a/relu_3x3_reduce <- inception_5a/3x3_reduce
I0403 15:14:14.306798  2836 net.cpp:386] inception_5a/relu_3x3_reduce -> inception_5a/3x3_reduce (in-place)
I0403 15:14:14.307031  2836 net.cpp:141] Setting up inception_5a/relu_3x3_reduce
I0403 15:14:14.307062  2836 net.cpp:148] Top shape: 24 160 7 7 (188160)
I0403 15:14:14.307081  2836 net.cpp:156] Memory required for data: 1296039456
I0403 15:14:14.307101  2836 layer_factory.hpp:77] Creating layer inception_5a/3x3
I0403 15:14:14.307128  2836 net.cpp:91] Creating Layer inception_5a/3x3
I0403 15:14:14.307150  2836 net.cpp:425] inception_5a/3x3 <- inception_5a/3x3_reduce
I0403 15:14:14.307178  2836 net.cpp:399] inception_5a/3x3 -> inception_5a/3x3
I0403 15:14:14.313488  2836 net.cpp:141] Setting up inception_5a/3x3
I0403 15:14:14.313525  2836 net.cpp:148] Top shape: 24 320 7 7 (376320)
I0403 15:14:14.313544  2836 net.cpp:156] Memory required for data: 1297544736
I0403 15:14:14.313568  2836 layer_factory.hpp:77] Creating layer inception_5a/relu_3x3
I0403 15:14:14.313593  2836 net.cpp:91] Creating Layer inception_5a/relu_3x3
I0403 15:14:14.313614  2836 net.cpp:425] inception_5a/relu_3x3 <- inception_5a/3x3
I0403 15:14:14.313635  2836 net.cpp:386] inception_5a/relu_3x3 -> inception_5a/3x3 (in-place)
I0403 15:14:14.313997  2836 net.cpp:141] Setting up inception_5a/relu_3x3
I0403 15:14:14.314030  2836 net.cpp:148] Top shape: 24 320 7 7 (376320)
I0403 15:14:14.314049  2836 net.cpp:156] Memory required for data: 1299050016
I0403 15:14:14.314069  2836 layer_factory.hpp:77] Creating layer inception_5a/5x5_reduce
I0403 15:14:14.314095  2836 net.cpp:91] Creating Layer inception_5a/5x5_reduce
I0403 15:14:14.314118  2836 net.cpp:425] inception_5a/5x5_reduce <- pool4/3x3_s2_pool4/3x3_s2_0_split_2
I0403 15:14:14.314146  2836 net.cpp:399] inception_5a/5x5_reduce -> inception_5a/5x5_reduce
I0403 15:14:14.315587  2836 net.cpp:141] Setting up inception_5a/5x5_reduce
I0403 15:14:14.315624  2836 net.cpp:148] Top shape: 24 32 7 7 (37632)
I0403 15:14:14.315645  2836 net.cpp:156] Memory required for data: 1299200544
I0403 15:14:14.315668  2836 layer_factory.hpp:77] Creating layer inception_5a/relu_5x5_reduce
I0403 15:14:14.315690  2836 net.cpp:91] Creating Layer inception_5a/relu_5x5_reduce
I0403 15:14:14.315709  2836 net.cpp:425] inception_5a/relu_5x5_reduce <- inception_5a/5x5_reduce
I0403 15:14:14.315732  2836 net.cpp:386] inception_5a/relu_5x5_reduce -> inception_5a/5x5_reduce (in-place)
I0403 15:14:14.316093  2836 net.cpp:141] Setting up inception_5a/relu_5x5_reduce
I0403 15:14:14.316129  2836 net.cpp:148] Top shape: 24 32 7 7 (37632)
I0403 15:14:14.316149  2836 net.cpp:156] Memory required for data: 1299351072
I0403 15:14:14.316169  2836 layer_factory.hpp:77] Creating layer inception_5a/5x5
I0403 15:14:14.316195  2836 net.cpp:91] Creating Layer inception_5a/5x5
I0403 15:14:14.316226  2836 net.cpp:425] inception_5a/5x5 <- inception_5a/5x5_reduce
I0403 15:14:14.316253  2836 net.cpp:399] inception_5a/5x5 -> inception_5a/5x5
I0403 15:14:14.318373  2836 net.cpp:141] Setting up inception_5a/5x5
I0403 15:14:14.318423  2836 net.cpp:148] Top shape: 24 128 7 7 (150528)
I0403 15:14:14.318444  2836 net.cpp:156] Memory required for data: 1299953184
I0403 15:14:14.318467  2836 layer_factory.hpp:77] Creating layer inception_5a/relu_5x5
I0403 15:14:14.318493  2836 net.cpp:91] Creating Layer inception_5a/relu_5x5
I0403 15:14:14.318516  2836 net.cpp:425] inception_5a/relu_5x5 <- inception_5a/5x5
I0403 15:14:14.318536  2836 net.cpp:386] inception_5a/relu_5x5 -> inception_5a/5x5 (in-place)
I0403 15:14:14.318768  2836 net.cpp:141] Setting up inception_5a/relu_5x5
I0403 15:14:14.318804  2836 net.cpp:148] Top shape: 24 128 7 7 (150528)
I0403 15:14:14.318822  2836 net.cpp:156] Memory required for data: 1300555296
I0403 15:14:14.318841  2836 layer_factory.hpp:77] Creating layer inception_5a/pool
I0403 15:14:14.318866  2836 net.cpp:91] Creating Layer inception_5a/pool
I0403 15:14:14.318886  2836 net.cpp:425] inception_5a/pool <- pool4/3x3_s2_pool4/3x3_s2_0_split_3
I0403 15:14:14.318909  2836 net.cpp:399] inception_5a/pool -> inception_5a/pool
I0403 15:14:14.318997  2836 net.cpp:141] Setting up inception_5a/pool
I0403 15:14:14.319028  2836 net.cpp:148] Top shape: 24 832 7 7 (978432)
I0403 15:14:14.319046  2836 net.cpp:156] Memory required for data: 1304469024
I0403 15:14:14.319066  2836 layer_factory.hpp:77] Creating layer inception_5a/pool_proj
I0403 15:14:14.319092  2836 net.cpp:91] Creating Layer inception_5a/pool_proj
I0403 15:14:14.319115  2836 net.cpp:425] inception_5a/pool_proj <- inception_5a/pool
I0403 15:14:14.319141  2836 net.cpp:399] inception_5a/pool_proj -> inception_5a/pool_proj
I0403 15:14:14.321964  2836 net.cpp:141] Setting up inception_5a/pool_proj
I0403 15:14:14.322007  2836 net.cpp:148] Top shape: 24 128 7 7 (150528)
I0403 15:14:14.322027  2836 net.cpp:156] Memory required for data: 1305071136
I0403 15:14:14.322051  2836 layer_factory.hpp:77] Creating layer inception_5a/relu_pool_proj
I0403 15:14:14.322077  2836 net.cpp:91] Creating Layer inception_5a/relu_pool_proj
I0403 15:14:14.322099  2836 net.cpp:425] inception_5a/relu_pool_proj <- inception_5a/pool_proj
I0403 15:14:14.322123  2836 net.cpp:386] inception_5a/relu_pool_proj -> inception_5a/pool_proj (in-place)
I0403 15:14:14.322499  2836 net.cpp:141] Setting up inception_5a/relu_pool_proj
I0403 15:14:14.322532  2836 net.cpp:148] Top shape: 24 128 7 7 (150528)
I0403 15:14:14.322551  2836 net.cpp:156] Memory required for data: 1305673248
I0403 15:14:14.322571  2836 layer_factory.hpp:77] Creating layer inception_5a/output
I0403 15:14:14.322592  2836 net.cpp:91] Creating Layer inception_5a/output
I0403 15:14:14.322613  2836 net.cpp:425] inception_5a/output <- inception_5a/1x1
I0403 15:14:14.322634  2836 net.cpp:425] inception_5a/output <- inception_5a/3x3
I0403 15:14:14.322659  2836 net.cpp:425] inception_5a/output <- inception_5a/5x5
I0403 15:14:14.322679  2836 net.cpp:425] inception_5a/output <- inception_5a/pool_proj
I0403 15:14:14.322700  2836 net.cpp:399] inception_5a/output -> inception_5a/output
I0403 15:14:14.322762  2836 net.cpp:141] Setting up inception_5a/output
I0403 15:14:14.322794  2836 net.cpp:148] Top shape: 24 832 7 7 (978432)
I0403 15:14:14.322814  2836 net.cpp:156] Memory required for data: 1309586976
I0403 15:14:14.322832  2836 layer_factory.hpp:77] Creating layer inception_5a/output_inception_5a/output_0_split
I0403 15:14:14.322854  2836 net.cpp:91] Creating Layer inception_5a/output_inception_5a/output_0_split
I0403 15:14:14.322873  2836 net.cpp:425] inception_5a/output_inception_5a/output_0_split <- inception_5a/output
I0403 15:14:14.322901  2836 net.cpp:399] inception_5a/output_inception_5a/output_0_split -> inception_5a/output_inception_5a/output_0_split_0
I0403 15:14:14.322926  2836 net.cpp:399] inception_5a/output_inception_5a/output_0_split -> inception_5a/output_inception_5a/output_0_split_1
I0403 15:14:14.322952  2836 net.cpp:399] inception_5a/output_inception_5a/output_0_split -> inception_5a/output_inception_5a/output_0_split_2
I0403 15:14:14.322978  2836 net.cpp:399] inception_5a/output_inception_5a/output_0_split -> inception_5a/output_inception_5a/output_0_split_3
I0403 15:14:14.323119  2836 net.cpp:141] Setting up inception_5a/output_inception_5a/output_0_split
I0403 15:14:14.323154  2836 net.cpp:148] Top shape: 24 832 7 7 (978432)
I0403 15:14:14.323178  2836 net.cpp:148] Top shape: 24 832 7 7 (978432)
I0403 15:14:14.323197  2836 net.cpp:148] Top shape: 24 832 7 7 (978432)
I0403 15:14:14.323225  2836 net.cpp:148] Top shape: 24 832 7 7 (978432)
I0403 15:14:14.323243  2836 net.cpp:156] Memory required for data: 1325241888
I0403 15:14:14.323261  2836 layer_factory.hpp:77] Creating layer inception_5b/1x1
I0403 15:14:14.323287  2836 net.cpp:91] Creating Layer inception_5b/1x1
I0403 15:14:14.323309  2836 net.cpp:425] inception_5b/1x1 <- inception_5a/output_inception_5a/output_0_split_0
I0403 15:14:14.323336  2836 net.cpp:399] inception_5b/1x1 -> inception_5b/1x1
I0403 15:14:14.327989  2836 net.cpp:141] Setting up inception_5b/1x1
I0403 15:14:14.328033  2836 net.cpp:148] Top shape: 24 384 7 7 (451584)
I0403 15:14:14.328054  2836 net.cpp:156] Memory required for data: 1327048224
I0403 15:14:14.328078  2836 layer_factory.hpp:77] Creating layer inception_5b/relu_1x1
I0403 15:14:14.328101  2836 net.cpp:91] Creating Layer inception_5b/relu_1x1
I0403 15:14:14.328122  2836 net.cpp:425] inception_5b/relu_1x1 <- inception_5b/1x1
I0403 15:14:14.328147  2836 net.cpp:386] inception_5b/relu_1x1 -> inception_5b/1x1 (in-place)
I0403 15:14:14.328531  2836 net.cpp:141] Setting up inception_5b/relu_1x1
I0403 15:14:14.328564  2836 net.cpp:148] Top shape: 24 384 7 7 (451584)
I0403 15:14:14.328583  2836 net.cpp:156] Memory required for data: 1328854560
I0403 15:14:14.328603  2836 layer_factory.hpp:77] Creating layer inception_5b/3x3_reduce
I0403 15:14:14.328630  2836 net.cpp:91] Creating Layer inception_5b/3x3_reduce
I0403 15:14:14.328654  2836 net.cpp:425] inception_5b/3x3_reduce <- inception_5a/output_inception_5a/output_0_split_1
I0403 15:14:14.328681  2836 net.cpp:399] inception_5b/3x3_reduce -> inception_5b/3x3_reduce
I0403 15:14:14.331944  2836 net.cpp:141] Setting up inception_5b/3x3_reduce
I0403 15:14:14.331981  2836 net.cpp:148] Top shape: 24 192 7 7 (225792)
I0403 15:14:14.332001  2836 net.cpp:156] Memory required for data: 1329757728
I0403 15:14:14.332025  2836 layer_factory.hpp:77] Creating layer inception_5b/relu_3x3_reduce
I0403 15:14:14.332053  2836 net.cpp:91] Creating Layer inception_5b/relu_3x3_reduce
I0403 15:14:14.332074  2836 net.cpp:425] inception_5b/relu_3x3_reduce <- inception_5b/3x3_reduce
I0403 15:14:14.332098  2836 net.cpp:386] inception_5b/relu_3x3_reduce -> inception_5b/3x3_reduce (in-place)
I0403 15:14:14.332350  2836 net.cpp:141] Setting up inception_5b/relu_3x3_reduce
I0403 15:14:14.332381  2836 net.cpp:148] Top shape: 24 192 7 7 (225792)
I0403 15:14:14.332399  2836 net.cpp:156] Memory required for data: 1330660896
I0403 15:14:14.332417  2836 layer_factory.hpp:77] Creating layer inception_5b/3x3
I0403 15:14:14.332445  2836 net.cpp:91] Creating Layer inception_5b/3x3
I0403 15:14:14.332468  2836 net.cpp:425] inception_5b/3x3 <- inception_5b/3x3_reduce
I0403 15:14:14.332496  2836 net.cpp:399] inception_5b/3x3 -> inception_5b/3x3
I0403 15:14:14.341428  2836 net.cpp:141] Setting up inception_5b/3x3
I0403 15:14:14.341490  2836 net.cpp:148] Top shape: 24 384 7 7 (451584)
I0403 15:14:14.341511  2836 net.cpp:156] Memory required for data: 1332467232
I0403 15:14:14.341536  2836 layer_factory.hpp:77] Creating layer inception_5b/relu_3x3
I0403 15:14:14.341563  2836 net.cpp:91] Creating Layer inception_5b/relu_3x3
I0403 15:14:14.341586  2836 net.cpp:425] inception_5b/relu_3x3 <- inception_5b/3x3
I0403 15:14:14.341610  2836 net.cpp:386] inception_5b/relu_3x3 -> inception_5b/3x3 (in-place)
I0403 15:14:14.341977  2836 net.cpp:141] Setting up inception_5b/relu_3x3
I0403 15:14:14.342011  2836 net.cpp:148] Top shape: 24 384 7 7 (451584)
I0403 15:14:14.342031  2836 net.cpp:156] Memory required for data: 1334273568
I0403 15:14:14.342049  2836 layer_factory.hpp:77] Creating layer inception_5b/5x5_reduce
I0403 15:14:14.342115  2836 net.cpp:91] Creating Layer inception_5b/5x5_reduce
I0403 15:14:14.342140  2836 net.cpp:425] inception_5b/5x5_reduce <- inception_5a/output_inception_5a/output_0_split_2
I0403 15:14:14.342170  2836 net.cpp:399] inception_5b/5x5_reduce -> inception_5b/5x5_reduce
I0403 15:14:14.343755  2836 net.cpp:141] Setting up inception_5b/5x5_reduce
I0403 15:14:14.343791  2836 net.cpp:148] Top shape: 24 48 7 7 (56448)
I0403 15:14:14.343811  2836 net.cpp:156] Memory required for data: 1334499360
I0403 15:14:14.343834  2836 layer_factory.hpp:77] Creating layer inception_5b/relu_5x5_reduce
I0403 15:14:14.343858  2836 net.cpp:91] Creating Layer inception_5b/relu_5x5_reduce
I0403 15:14:14.343878  2836 net.cpp:425] inception_5b/relu_5x5_reduce <- inception_5b/5x5_reduce
I0403 15:14:14.343902  2836 net.cpp:386] inception_5b/relu_5x5_reduce -> inception_5b/5x5_reduce (in-place)
I0403 15:14:14.344364  2836 net.cpp:141] Setting up inception_5b/relu_5x5_reduce
I0403 15:14:14.344399  2836 net.cpp:148] Top shape: 24 48 7 7 (56448)
I0403 15:14:14.344419  2836 net.cpp:156] Memory required for data: 1334725152
I0403 15:14:14.344439  2836 layer_factory.hpp:77] Creating layer inception_5b/5x5
I0403 15:14:14.344465  2836 net.cpp:91] Creating Layer inception_5b/5x5
I0403 15:14:14.344491  2836 net.cpp:425] inception_5b/5x5 <- inception_5b/5x5_reduce
I0403 15:14:14.344516  2836 net.cpp:399] inception_5b/5x5 -> inception_5b/5x5
I0403 15:14:14.347105  2836 net.cpp:141] Setting up inception_5b/5x5
I0403 15:14:14.347141  2836 net.cpp:148] Top shape: 24 128 7 7 (150528)
I0403 15:14:14.347160  2836 net.cpp:156] Memory required for data: 1335327264
I0403 15:14:14.347185  2836 layer_factory.hpp:77] Creating layer inception_5b/relu_5x5
I0403 15:14:14.347215  2836 net.cpp:91] Creating Layer inception_5b/relu_5x5
I0403 15:14:14.347239  2836 net.cpp:425] inception_5b/relu_5x5 <- inception_5b/5x5
I0403 15:14:14.347262  2836 net.cpp:386] inception_5b/relu_5x5 -> inception_5b/5x5 (in-place)
I0403 15:14:14.347502  2836 net.cpp:141] Setting up inception_5b/relu_5x5
I0403 15:14:14.347537  2836 net.cpp:148] Top shape: 24 128 7 7 (150528)
I0403 15:14:14.347556  2836 net.cpp:156] Memory required for data: 1335929376
I0403 15:14:14.347576  2836 layer_factory.hpp:77] Creating layer inception_5b/pool
I0403 15:14:14.347600  2836 net.cpp:91] Creating Layer inception_5b/pool
I0403 15:14:14.347620  2836 net.cpp:425] inception_5b/pool <- inception_5a/output_inception_5a/output_0_split_3
I0403 15:14:14.347645  2836 net.cpp:399] inception_5b/pool -> inception_5b/pool
I0403 15:14:14.347736  2836 net.cpp:141] Setting up inception_5b/pool
I0403 15:14:14.347767  2836 net.cpp:148] Top shape: 24 832 7 7 (978432)
I0403 15:14:14.347785  2836 net.cpp:156] Memory required for data: 1339843104
I0403 15:14:14.347806  2836 layer_factory.hpp:77] Creating layer inception_5b/pool_proj
I0403 15:14:14.347834  2836 net.cpp:91] Creating Layer inception_5b/pool_proj
I0403 15:14:14.347857  2836 net.cpp:425] inception_5b/pool_proj <- inception_5b/pool
I0403 15:14:14.347883  2836 net.cpp:399] inception_5b/pool_proj -> inception_5b/pool_proj
I0403 15:14:14.350726  2836 net.cpp:141] Setting up inception_5b/pool_proj
I0403 15:14:14.350764  2836 net.cpp:148] Top shape: 24 128 7 7 (150528)
I0403 15:14:14.350783  2836 net.cpp:156] Memory required for data: 1340445216
I0403 15:14:14.350806  2836 layer_factory.hpp:77] Creating layer inception_5b/relu_pool_proj
I0403 15:14:14.350833  2836 net.cpp:91] Creating Layer inception_5b/relu_pool_proj
I0403 15:14:14.350855  2836 net.cpp:425] inception_5b/relu_pool_proj <- inception_5b/pool_proj
I0403 15:14:14.350878  2836 net.cpp:386] inception_5b/relu_pool_proj -> inception_5b/pool_proj (in-place)
I0403 15:14:14.351243  2836 net.cpp:141] Setting up inception_5b/relu_pool_proj
I0403 15:14:14.351276  2836 net.cpp:148] Top shape: 24 128 7 7 (150528)
I0403 15:14:14.351296  2836 net.cpp:156] Memory required for data: 1341047328
I0403 15:14:14.351315  2836 layer_factory.hpp:77] Creating layer inception_5b/output
I0403 15:14:14.351338  2836 net.cpp:91] Creating Layer inception_5b/output
I0403 15:14:14.351379  2836 net.cpp:425] inception_5b/output <- inception_5b/1x1
I0403 15:14:14.351402  2836 net.cpp:425] inception_5b/output <- inception_5b/3x3
I0403 15:14:14.351423  2836 net.cpp:425] inception_5b/output <- inception_5b/5x5
I0403 15:14:14.351446  2836 net.cpp:425] inception_5b/output <- inception_5b/pool_proj
I0403 15:14:14.351471  2836 net.cpp:399] inception_5b/output -> inception_5b/output
I0403 15:14:14.351539  2836 net.cpp:141] Setting up inception_5b/output
I0403 15:14:14.351570  2836 net.cpp:148] Top shape: 24 1024 7 7 (1204224)
I0403 15:14:14.351588  2836 net.cpp:156] Memory required for data: 1345864224
I0403 15:14:14.351608  2836 layer_factory.hpp:77] Creating layer pool5/7x7_s1
I0403 15:14:14.351629  2836 net.cpp:91] Creating Layer pool5/7x7_s1
I0403 15:14:14.351649  2836 net.cpp:425] pool5/7x7_s1 <- inception_5b/output
I0403 15:14:14.351676  2836 net.cpp:399] pool5/7x7_s1 -> pool5/7x7_s1
I0403 15:14:14.351946  2836 net.cpp:141] Setting up pool5/7x7_s1
I0403 15:14:14.351979  2836 net.cpp:148] Top shape: 24 1024 1 1 (24576)
I0403 15:14:14.351997  2836 net.cpp:156] Memory required for data: 1345962528
I0403 15:14:14.352015  2836 layer_factory.hpp:77] Creating layer pool5/drop_7x7_s1
I0403 15:14:14.352041  2836 net.cpp:91] Creating Layer pool5/drop_7x7_s1
I0403 15:14:14.352061  2836 net.cpp:425] pool5/drop_7x7_s1 <- pool5/7x7_s1
I0403 15:14:14.352084  2836 net.cpp:386] pool5/drop_7x7_s1 -> pool5/7x7_s1 (in-place)
I0403 15:14:14.352149  2836 net.cpp:141] Setting up pool5/drop_7x7_s1
I0403 15:14:14.352177  2836 net.cpp:148] Top shape: 24 1024 1 1 (24576)
I0403 15:14:14.352195  2836 net.cpp:156] Memory required for data: 1346060832
I0403 15:14:14.352219  2836 layer_factory.hpp:77] Creating layer loss3/classifier_plantvillage
I0403 15:14:14.352244  2836 net.cpp:91] Creating Layer loss3/classifier_plantvillage
I0403 15:14:14.352265  2836 net.cpp:425] loss3/classifier_plantvillage <- pool5/7x7_s1
I0403 15:14:14.352291  2836 net.cpp:399] loss3/classifier_plantvillage -> loss3/classifier_plantvillage
I0403 15:14:14.352825  2836 net.cpp:141] Setting up loss3/classifier_plantvillage
I0403 15:14:14.352856  2836 net.cpp:148] Top shape: 24 38 (912)
I0403 15:14:14.352875  2836 net.cpp:156] Memory required for data: 1346064480
I0403 15:14:14.352898  2836 layer_factory.hpp:77] Creating layer loss3/classifier_plantvillage_loss3/classifier_plantvillage_0_split
I0403 15:14:14.352921  2836 net.cpp:91] Creating Layer loss3/classifier_plantvillage_loss3/classifier_plantvillage_0_split
I0403 15:14:14.352942  2836 net.cpp:425] loss3/classifier_plantvillage_loss3/classifier_plantvillage_0_split <- loss3/classifier_plantvillage
I0403 15:14:14.352967  2836 net.cpp:399] loss3/classifier_plantvillage_loss3/classifier_plantvillage_0_split -> loss3/classifier_plantvillage_loss3/classifier_plantvillage_0_split_0
I0403 15:14:14.352993  2836 net.cpp:399] loss3/classifier_plantvillage_loss3/classifier_plantvillage_0_split -> loss3/classifier_plantvillage_loss3/classifier_plantvillage_0_split_1
I0403 15:14:14.353019  2836 net.cpp:399] loss3/classifier_plantvillage_loss3/classifier_plantvillage_0_split -> loss3/classifier_plantvillage_loss3/classifier_plantvillage_0_split_2
I0403 15:14:14.353045  2836 net.cpp:399] loss3/classifier_plantvillage_loss3/classifier_plantvillage_0_split -> loss3/classifier_plantvillage_loss3/classifier_plantvillage_0_split_3
I0403 15:14:14.353173  2836 net.cpp:141] Setting up loss3/classifier_plantvillage_loss3/classifier_plantvillage_0_split
I0403 15:14:14.353200  2836 net.cpp:148] Top shape: 24 38 (912)
I0403 15:14:14.353237  2836 net.cpp:148] Top shape: 24 38 (912)
I0403 15:14:14.353260  2836 net.cpp:148] Top shape: 24 38 (912)
I0403 15:14:14.353279  2836 net.cpp:148] Top shape: 24 38 (912)
I0403 15:14:14.353296  2836 net.cpp:156] Memory required for data: 1346079072
I0403 15:14:14.353315  2836 layer_factory.hpp:77] Creating layer loss1/loss
I0403 15:14:14.353343  2836 net.cpp:91] Creating Layer loss1/loss
I0403 15:14:14.353364  2836 net.cpp:425] loss1/loss <- loss1/classifier_plantvillage_loss1/classifier_plantvillage_0_split_0
I0403 15:14:14.353402  2836 net.cpp:425] loss1/loss <- label_data_1_split_0
…
