…
I0403 15:38:11.618763  3307 net.cpp:313] The NetState phase (1) differed from the phase (0) specified by a rule in layer data
I0403 15:38:11.619974  3307 net.cpp:49] Initializing net from parameters: 
state {
  phase: TEST
}
layer {
  name: "data"
  type: "Data"
  top: "data"
  top: "label"
  include {
    phase: TEST
  }
  transform_param {
    mirror: false
    crop_size: 224
    mean_file: "/home/mohanty/data/final_dataset/lmdb/segmented-60-40/mean.binaryproto"
  }
  data_param {
    source: "/home/mohanty/data/final_dataset/lmdb/segmented-60-40/test_db"
    batch_size: 24
    backend: LMDB
  }
}
layer {
  name: "conv1/7x7_s2"
  type: "Convolution"
  bottom: "data"
  top: "conv1/7x7_s2"
  param {
    lr_mult: 1
    decay_mult: 1
  }
  param {
    lr_mult: 2
    decay_mult: 0
  }
  convolution_param {
    num_output: 64
    pad: 3
    kernel_size: 7
    stride: 2
    weight_filler {
      type: "xavier"
      std: 0.1
    }
    bias_filler {
      type: "constant"
      value: 0.2
    }
  }
}
layer {
  name: "conv1/relu_7x7"
  type: "ReLU"
  bottom: "conv1/7x7_s2"
  top: "conv1/7x7_s2"
}
layer {
  name: "pool1/3x3_s2"
  type: "Pooling"
  bottom: "conv1/7x7_s2"
  top: "pool1/3x3_s2"
  pooling_param {
    pool: MAX
    kernel_size: 3
    stride: 2
  }
}
layer {
  name: "pool1/norm1"
  type: "LRN"
  bottom: "pool1/3x3_s2"
  top: "pool1/norm1"
  lrn_param {
    local_size: 5
    alpha: 0.0001
    beta: 0.75
  }
}
layer {
  name: "conv2/3x3_reduce"
  type: "Convolution"
  bottom: "pool1/norm1"
  top: "conv2/3x3_reduce"
  param {
    lr_mult: 1
    decay_mult: 1
  }
  param {
    lr_mult: 2
    decay_mult: 0
  }
  convolution_param {
    num_output: 64
    kernel_size: 1
    weight_filler {
      type: "xavier"
      std: 0.1
    }
    bias_filler {
      type: "constant"
      value: 0.2
    }
  }
}
layer {
  name: "conv2/relu_3x3_reduce"
  type: "ReLU"
  bottom: "conv2/3x3_reduce"
  top: "conv2/3x3_reduce"
}
layer {
  name: "conv2/3x3"
  type: "Convolution"
  bottom: "conv2/3x3_reduce"
  top: "conv2/3x3"
  param {
    lr_mult: 1
    decay_mult: 1
  }
  param {
    lr_mult: 2
    decay_mult: 0
  }
  convolution_param {
    num_output: 192
    pad: 1
    kernel_size: 3
    weight_filler {
      type: "xavier"
      std: 0.03
    }
    bias_filler {
      type: "constant"
      value: 0.2
    }
  }
}
layer {
  name: "conv2/relu_3x3"
  type: "ReLU"
  bottom: "conv2/3x3"
  top: "conv2/3x3"
}
layer {
  name: "conv2/norm2"
  type: "LRN"
  bottom: "conv2/3x3"
  top: "conv2/norm2"
  lrn_param {
    local_size: 5
    alpha: 0.0001
    beta: 0.75
  }
}
layer {
  name: "pool2/3x3_s2"
  type: "Pooling"
  bottom: "conv2/norm2"
  top: "pool2/3x3_s2"
  pooling_param {
    pool: MAX
    kernel_size: 3
    stride: 2
  }
}
layer {
  name: "inception_3a/1x1"
  type: "Convolution"
  bottom: "pool2/3x3_s2"
  top: "inception_3a/1x1"
  param {
    lr_mult: 1
    decay_mult: 1
  }
  param {
    lr_mult: 2
    decay_mult: 0
  }
  convolution_param {
    num_output: 64
    kernel_size: 1
    weight_filler {
      type: "xavier"
      std: 0.03
    }
    bias_filler {
      type: "constant"
      value: 0.2
    }
  }
}
layer {
  name: "inception_3a/relu_1x1"
  type: "ReLU"
  bottom: "inception_3a/1x1"
  top: "inception_3a/1x1"
}
layer {
  name: "inception_3a/3x3_reduce"
  type: "Convolution"
  bottom: "pool2/3x3_s2"
  top: "inception_3a/3x3_reduce"
  param {
    lr_mult: 1
    decay_mult: 1
  }
  param {
    lr_mult: 2
    decay_mult: 0
  }
  convolution_param {
    num_output: 96
    kernel_size: 1
    weight_filler {
      type: "xavier"
      std: 0.09
    }
    bias_filler {
      type: "constant"
      value: 0.2
    }
  }
}
layer {
  name: "inception_3a/relu_3x3_reduce"
  type: "ReLU"
  bottom: "inception_3a/3x3_reduce"
  top: "inception_3a/3x3_reduce"
}
layer {
  name: "inception_3a/3x3"
  type: "Convolution"
  bottom: "inception_3a/3x3_reduce"
  top: "inception_3a/3x3"
  param {
    lr_mult: 1
    decay_mult: 1
  }
  param {
    lr_mult: 2
    decay_mult: 0
  }
  convolution_param {
    num_output: 128
    pad: 1
    kernel_size: 3
    weight_filler {
      type: "xavier"
      std: 0.03
    }
    bias_filler {
      type: "constant"
      value: 0.2
    }
  }
}
layer {
  name: "inception_3a/relu_3x3"
  type: "ReLU"
  bottom: "inception_3a/3x3"
  top: "inception_3a/3x3"
}
layer {
  name: "inception_3a/5x5_reduce"
  type: "Convolution"
  bottom: "pool2/3x3_s2"
  top: "inception_3a/5x5_reduce"
  param {
    lr_mult: 1
    decay_mult: 1
  }
  param {
    lr_mult: 2
    decay_mult: 0
  }
  convolution_param {
    num_output: 16
    kernel_size: 1
    weight_filler {
      type: "xavier"
      std: 0.2
    }
    bias_filler {
      type: "constant"
      value: 0.2
    }
  }
}
layer {
  name: "inception_3a/relu_5x5_reduce"
  type: "ReLU"
  bottom: "inception_3a/5x5_reduce"
  top: "inception_3a/5x5_reduce"
}
layer {
  name: "inception_3a/5x5"
  type: "Convolution"
  bottom: "inception_3a/5x5_reduce"
  top: "inception_3a/5x5"
  param {
    lr_mult: 1
    decay_mult: 1
  }
  param {
    lr_mult: 2
    decay_mult: 0
  }
  convolution_param {
    num_output: 32
    pad: 2
    kernel_size: 5
    weight_filler {
      type: "xavier"
      std: 0.03
    }
    bias_filler {
      type: "constant"
      value: 0.2
    }
  }
}
layer {
  name: "inception_3a/relu_5x5"
  type: "ReLU"
  bottom: "inception_3a/5x5"
  top: "inception_3a/5x5"
}
layer {
  name: "inception_3a/pool"
  type: "Pooling"
  bottom: "pool2/3x3_s2"
  top: "inception_3a/pool"
  pooling_param {
    pool: MAX
    kernel_size: 3
    stride: 1
    pad: 1
  }
}
layer {
  name: "inception_3a/pool_proj"
  type: "Convolution"
  bottom: "inception_3a/pool"
  top: "inception_3a/pool_proj"
  param {
    lr_mult: 1
    decay_mult: 1
  }
  param {
    lr_mult: 2
    decay_mult: 0
  }
  convolution_param {
    num_output: 32
    kernel_size: 1
    weight_filler {
      type: "xavier"
      std: 0.1
    }
    bias_filler {
      type: "constant"
      value: 0.2
    }
  }
}
layer {
  name: "inception_3a/relu_pool_proj"
  type: "ReLU"
  bottom: "inception_3a/pool_proj"
  top: "inception_3a/pool_proj"
}
layer {
  name: "inception_3a/output"
  type: "Concat"
  bottom: "inception_3a/1x1"
  bottom: "inception_3a/3x3"
  bottom: "inception_3a/5x5"
  bottom: "inception_3a/pool_proj"
  top: "inception_3a/output"
}
layer {
  name: "inception_3b/1x1"
  type: "Convolution"
  bottom: "inception_3a/output"
  top: "inception_3b/1x1"
  param {
    lr_mult: 1
    decay_mult: 1
  }
  param {
    lr_mult: 2
    decay_mult: 0
  }
  convolution_param {
    num_output: 128
    kernel_size: 1
    weight_filler {
      type: "xavier"
      std: 0.03
    }
    bias_filler {
      type: "constant"
      value: 0.2
    }
  }
}
layer {
  name: "inception_3b/relu_1x1"
  type: "ReLU"
  bottom: "inception_3b/1x1"
  top: "inception_3b/1x1"
}
layer {
  name: "inception_3b/3x3_reduce"
  type: "Convolution"
  bottom: "inception_3a/output"
  top: "inception_3b/3x3_reduce"
  param {
    lr_mult: 1
    decay_mult: 1
  }
  param {
    lr_mult: 2
    decay_mult: 0
  }
  convolution_param {
    num_output: 128
    kernel_size: 1
    weight_filler {
      type: "xavier"
      std: 0.09
    }
    bias_filler {
      type: "constant"
      value: 0.2
    }
  }
}
layer {
  name: "inception_3b/relu_3x3_reduce"
  type: "ReLU"
  bottom: "inception_3b/3x3_reduce"
  top: "inception_3b/3x3_reduce"
}
layer {
  name: "inception_3b/3x3"
  type: "Convolution"
  bottom: "inception_3b/3x3_reduce"
  top: "inception_3b/3x3"
  param {
    lr_mult: 1
    decay_mult: 1
  }
  param {
    lr_mult: 2
    decay_mult: 0
  }
  convolution_param {
    num_output: 192
    pad: 1
    kernel_size: 3
    weight_filler {
      type: "xavier"
      std: 0.03
    }
    bias_filler {
      type: "constant"
      value: 0.2
    }
  }
}
layer {
  name: "inception_3b/relu_3x3"
  type: "ReLU"
  bottom: "inception_3b/3x3"
  top: "inception_3b/3x3"
}
layer {
  name: "inception_3b/5x5_reduce"
  type: "Convolution"
  bottom: "inception_3a/output"
  top: "inception_3b/5x5_reduce"
  param {
    lr_mult: 1
    decay_mult: 1
  }
  param {
    lr_mult: 2
    decay_mult: 0
  }
  convolution_param {
    num_output: 32
    kernel_size: 1
    weight_filler {
      type: "xavier"
      std: 0.2
    }
    bias_filler {
      type: "constant"
      value: 0.2
    }
  }
}
layer {
  name: "inception_3b/relu_5x5_reduce"
  type: "ReLU"
  bottom: "inception_3b/5x5_reduce"
  top: "inception_3b/5x5_reduce"
}
layer {
  name: "inception_3b/5x5"
  type: "Convolution"
  bottom: "inception_3b/5x5_reduce"
  top: "inception_3b/5x5"
  param {
    lr_mult: 1
    decay_mult: 1
  }
  param {
    lr_mult: 2
    decay_mult: 0
  }
  convolution_param {
    num_output: 96
    pad: 2
    kernel_size: 5
    weight_filler {
      type: "xavier"
      std: 0.03
    }
    bias_filler {
      type: "constant"
      value: 0.2
    }
  }
}
layer {
  name: "inception_3b/relu_5x5"
  type: "ReLU"
  bottom: "inception_3b/5x5"
  top: "inception_3b/5x5"
}
layer {
  name: "inception_3b/pool"
  type: "Pooling"
  bottom: "inception_3a/output"
  top: "inception_3b/pool"
  pooling_param {
    pool: MAX
    kernel_size: 3
    stride: 1
    pad: 1
  }
}
layer {
  name: "inception_3b/pool_proj"
  type: "Convolution"
  bottom: "inception_3b/pool"
  top: "inception_3b/pool_proj"
  param {
    lr_mult: 1
    decay_mult: 1
  }
  param {
    lr_mult: 2
    decay_mult: 0
  }
  convolution_param {
    num_output: 64
    kernel_size: 1
    weight_filler {
      type: "xavier"
      std: 0.1
    }
    bias_filler {
      type: "constant"
      value: 0.2
    }
  }
}
layer {
  name: "inception_3b/relu_pool_proj"
  type: "ReLU"
  bottom: "inception_3b/pool_proj"
  top: "inception_3b/pool_proj"
}
layer {
  name: "inception_3b/output"
  type: "Concat"
  bottom: "inception_3b/1x1"
  bottom: "inception_3b/3x3"
  bottom: "inception_3b/5x5"
  bottom: "inception_3b/pool_proj"
  top: "inception_3b/output"
}
layer {
  name: "pool3/3x3_s2"
  type: "Pooling"
  bottom: "inception_3b/output"
  top: "pool3/3x3_s2"
  pooling_param {
    pool: MAX
    kernel_size: 3
    stride: 2
  }
}
layer {
  name: "inception_4a/1x1"
  type: "Convolution"
  bottom: "pool3/3x3_s2"
  top: "inception_4a/1x1"
  param {
    lr_mult: 1
    decay_mult: 1
  }
  param {
    lr_mult: 2
    decay_mult: 0
  }
  convolution_param {
    num_output: 192
    kernel_size: 1
    weight_filler {
      type: "xavier"
      std: 0.03
    }
    bias_filler {
      type: "constant"
      value: 0.2
    }
  }
}
layer {
  name: "inception_4a/relu_1x1"
  type: "ReLU"
  bottom: "inception_4a/1x1"
  top: "inception_4a/1x1"
}
layer {
  name: "inception_4a/3x3_reduce"
  type: "Convolution"
  bottom: "pool3/3x3_s2"
  top: "inception_4a/3x3_reduce"
  param {
    lr_mult: 1
    decay_mult: 1
  }
  param {
    lr_mult: 2
    decay_mult: 0
  }
  convolution_param {
    num_output: 96
    kernel_size: 1
    weight_filler {
      type: "xavier"
      std: 0.09
    }
    bias_filler {
      type: "constant"
      value: 0.2
    }
  }
}
layer {
  name: "inception_4a/relu_3x3_reduce"
  type: "ReLU"
  bottom: "inception_4a/3x3_reduce"
  top: "inception_4a/3x3_reduce"
}
layer {
  name: "inception_4a/3x3"
  type: "Convolution"
  bottom: "inception_4a/3x3_reduce"
  top: "inception_4a/3x3"
  param {
    lr_mult: 1
    decay_mult: 1
  }
  param {
    lr_mult: 2
    decay_mult: 0
  }
  convolution_param {
    num_output: 208
    pad: 1
    kernel_size: 3
    weight_filler {
      type: "xavier"
      std: 0.03
    }
    bias_filler {
      type: "constant"
      value: 0.2
    }
  }
}
layer {
  name: "inception_4a/relu_3x3"
  type: "ReLU"
  bottom: "inception_4a/3x3"
  top: "inception_4a/3x3"
}
layer {
  name: "inception_4a/5x5_reduce"
  type: "Convolution"
  bottom: "pool3/3x3_s2"
  top: "inception_4a/5x5_reduce"
  param {
    lr_mult: 1
    decay_mult: 1
  }
  param {
    lr_mult: 2
    decay_mult: 0
  }
  convolution_param {
    num_output: 16
    kernel_size: 1
    weight_filler {
      type: "xavier"
      std: 0.2
    }
    bias_filler {
      type: "constant"
      value: 0.2
    }
  }
}
layer {
  name: "inception_4a/relu_5x5_reduce"
  type: "ReLU"
  bottom: "inception_4a/5x5_reduce"
  top: "inception_4a/5x5_reduce"
}
layer {
  name: "inception_4a/5x5"
  type: "Convolution"
  bottom: "inception_4a/5x5_reduce"
  top: "inception_4a/5x5"
  param {
    lr_mult: 1
    decay_mult: 1
  }
  param {
    lr_mult: 2
    decay_mult: 0
  }
  convolution_param {
    num_output: 48
    pad: 2
    kernel_size: 5
    weight_filler {
      type: "xavier"
      std: 0.03
    }
    bias_filler {
      type: "constant"
      value: 0.2
    }
  }
}
layer {
  name: "inception_4a/relu_5x5"
  type: "ReLU"
  bottom: "inception_4a/5x5"
  top: "inception_4a/5x5"
}
layer {
  name: "inception_4a/pool"
  type: "Pooling"
  bottom: "pool3/3x3_s2"
  top: "inception_4a/pool"
  pooling_param {
    pool: MAX
    kernel_size: 3
    stride: 1
    pad: 1
  }
}
layer {
  name: "inception_4a/pool_proj"
  type: "Convolution"
  bottom: "inception_4a/pool"
  top: "inception_4a/pool_proj"
  param {
    lr_mult: 1
    decay_mult: 1
  }
  param {
    lr_mult: 2
    decay_mult: 0
  }
  convolution_param {
    num_output: 64
    kernel_size: 1
    weight_filler {
      type: "xavier"
      std: 0.1
    }
    bias_filler {
      type: "constant"
      value: 0.2
    }
  }
}
layer {
  name: "inception_4a/relu_pool_proj"
  type: "ReLU"
  bottom: "inception_4a/pool_proj"
  top: "inception_4a/pool_proj"
}
layer {
  name: "inception_4a/output"
  type: "Concat"
  bottom: "inception_4a/1x1"
  bottom: "inception_4a/3x3"
  bottom: "inception_4a/5x5"
  bottom: "inception_4a/pool_proj"
  top: "inception_4a/output"
}
layer {
  name: "loss1/ave_pool"
  type: "Pooling"
  bottom: "inception_4a/output"
  top: "loss1/ave_pool"
  pooling_param {
    pool: AVE
    kernel_size: 5
    stride: 3
  }
}
layer {
  name: "loss1/conv"
  type: "Convolution"
  bottom: "loss1/ave_pool"
  top: "loss1/conv"
  param {
    lr_mult: 1
    decay_mult: 1
  }
  param {
    lr_mult: 2
    decay_mult: 0
  }
  convolution_param {
    num_output: 128
    kernel_size: 1
    weight_filler {
      type: "xavier"
      std: 0.08
    }
    bias_filler {
      type: "constant"
      value: 0.2
    }
  }
}
layer {
  name: "loss1/relu_conv"
  type: "ReLU"
  bottom: "loss1/conv"
  top: "loss1/conv"
}
layer {
  name: "loss1/fc"
  type: "InnerProduct"
  bottom: "loss1/conv"
  top: "loss1/fc"
  param {
    lr_mult: 1
    decay_mult: 1
  }
  param {
    lr_mult: 2
    decay_mult: 0
  }
  inner_product_param {
    num_output: 1024
    weight_filler {
      type: "xavier"
      std: 0.02
    }
    bias_filler {
      type: "constant"
      value: 0.2
    }
  }
}
layer {
  name: "loss1/relu_fc"
  type: "ReLU"
  bottom: "loss1/fc"
  top: "loss1/fc"
}
layer {
  name: "loss1/drop_fc"
  type: "Dropout"
  bottom: "loss1/fc"
  top: "loss1/fc"
  dropout_param {
    dropout_ratio: 0.7
  }
}
layer {
  name: "loss1/classifier_plantvillage"
  type: "InnerProduct"
  bottom: "loss1/fc"
  top: "loss1/classifier_plantvillage"
  param {
    lr_mult: 1
    decay_mult: 1
  }
  param {
    lr_mult: 2
    decay_mult: 0
  }
  inner_product_param {
    num_output: 38
    weight_filler {
      type: "xavier"
      std: 0.0009765625
    }
    bias_filler {
      type: "constant"
      value: 0
    }
  }
}
layer {
  name: "inception_4b/1x1"
  type: "Convolution"
  bottom: "inception_4a/output"
  top: "inception_4b/1x1"
  param {
    lr_mult: 1
    decay_mult: 1
  }
  param {
    lr_mult: 2
    decay_mult: 0
  }
  convolution_param {
    num_output: 160
    kernel_size: 1
    weight_filler {
      type: "xavier"
      std: 0.03
    }
    bias_filler {
      type: "constant"
      value: 0.2
    }
  }
}
layer {
  name: "inception_4b/relu_1x1"
  type: "ReLU"
  bottom: "inception_4b/1x1"
  top: "inception_4b/1x1"
}
layer {
  name: "inception_4b/3x3_reduce"
  type: "Convolution"
  bottom: "inception_4a/output"
  top: "inception_4b/3x3_reduce"
  param {
    lr_mult: 1
    decay_mult: 1
  }
  param {
    lr_mult: 2
    decay_mult: 0
  }
  convolution_param {
    num_output: 112
    kernel_size: 1
    weight_filler {
      type: "xavier"
      std: 0.09
    }
    bias_filler {
      type: "constant"
      value: 0.2
    }
  }
}
layer {
  name: "inception_4b/relu_3x3_reduce"
  type: "ReLU"
  bottom: "inception_4b/3x3_reduce"
  top: "inception_4b/3x3_reduce"
}
layer {
  name: "inception_4b/3x3"
  type: "Convolution"
  bottom: "inception_4b/3x3_reduce"
  top: "inception_4b/3x3"
  param {
    lr_mult: 1
    decay_mult: 1
  }
  param {
    lr_mult: 2
    decay_mult: 0
  }
  convolution_param {
    num_output: 224
    pad: 1
    kernel_size: 3
    weight_filler {
      type: "xavier"
      std: 0.03
    }
    bias_filler {
      type: "constant"
      value: 0.2
    }
  }
}
layer {
  name: "inception_4b/relu_3x3"
  type: "ReLU"
  bottom: "inception_4b/3x3"
  top: "inception_4b/3x3"
}
layer {
  name: "inception_4b/5x5_reduce"
  type: "Convolution"
  bottom: "inception_4a/output"
  top: "inception_4b/5x5_reduce"
  param {
    lr_mult: 1
    decay_mult: 1
  }
  param {
    lr_mult: 2
    decay_mult: 0
  }
  convolution_param {
    num_output: 24
    kernel_size: 1
    weight_filler {
      type: "xavier"
      std: 0.2
    }
    bias_filler {
      type: "constant"
      value: 0.2
    }
  }
}
layer {
  name: "inception_4b/relu_5x5_reduce"
  type: "ReLU"
  bottom: "inception_4b/5x5_reduce"
  top: "inception_4b/5x5_reduce"
}
layer {
  name: "inception_4b/5x5"
  type: "Convolution"
  bottom: "inception_4b/5x5_reduce"
  top: "inception_4b/5x5"
  param {
    lr_mult: 1
    decay_mult: 1
  }
  param {
    lr_mult: 2
    decay_mult: 0
  }
  convolution_param {
    num_output: 64
    pad: 2
    kernel_size: 5
    weight_filler {
      type: "xavier"
      std: 0.03
    }
    bias_filler {
      type: "constant"
      value: 0.2
    }
  }
}
layer {
  name: "inception_4b/relu_5x5"
  type: "ReLU"
  bottom: "inception_4b/5x5"
  top: "inception_4b/5x5"
}
layer {
  name: "inception_4b/pool"
  type: "Pooling"
  bottom: "inception_4a/output"
  top: "inception_4b/pool"
  pooling_param {
    pool: MAX
    kernel_size: 3
    stride: 1
    pad: 1
  }
}
layer {
  name: "inception_4b/pool_proj"
  type: "Convolution"
  bottom: "inception_4b/pool"
  top: "inception_4b/pool_proj"
  param {
    lr_mult: 1
    decay_mult: 1
  }
  param {
    lr_mult: 2
    decay_mult: 0
  }
  convolution_param {
    num_output: 64
    kernel_size: 1
    weight_filler {
      type: "xavier"
      std: 0.1
    }
    bias_filler {
      type: "constant"
      value: 0.2
    }
  }
}
layer {
  name: "inception_4b/relu_pool_proj"
  type: "ReLU"
  bottom: "inception_4b/pool_proj"
  top: "inception_4b/pool_proj"
}
layer {
  name: "inception_4b/output"
  type: "Concat"
  bottom: "inception_4b/1x1"
  bottom: "inception_4b/3x3"
  bottom: "inception_4b/5x5"
  bottom: "inception_4b/pool_proj"
  top: "inception_4b/output"
}
layer {
  name: "inception_4c/1x1"
  type: "Convolution"
  bottom: "inception_4b/output"
  top: "inception_4c/1x1"
  param {
    lr_mult: 1
    decay_mult: 1
  }
  param {
    lr_mult: 2
    decay_mult: 0
  }
  convolution_param {
    num_output: 128
    kernel_size: 1
    weight_filler {
      type: "xavier"
      std: 0.03
    }
    bias_filler {
      type: "constant"
      value: 0.2
    }
  }
}
layer {
  name: "inception_4c/relu_1x1"
  type: "ReLU"
  bottom: "inception_4c/1x1"
  top: "inception_4c/1x1"
}
layer {
  name: "inception_4c/3x3_reduce"
  type: "Convolution"
  bottom: "inception_4b/output"
  top: "inception_4c/3x3_reduce"
  param {
    lr_mult: 1
    decay_mult: 1
  }
  param {
    lr_mult: 2
    decay_mult: 0
  }
  convolution_param {
    num_output: 128
    kernel_size: 1
    weight_filler {
      type: "xavier"
      std: 0.09
    }
    bias_filler {
      type: "constant"
      value: 0.2
    }
  }
}
layer {
  name: "inception_4c/relu_3x3_reduce"
  type: "ReLU"
  bottom: "inception_4c/3x3_reduce"
  top: "inception_4c/3x3_reduce"
}
layer {
  name: "inception_4c/3x3"
  type: "Convolution"
  bottom: "inception_4c/3x3_reduce"
  top: "inception_4c/3x3"
  param {
    lr_mult: 1
    decay_mult: 1
  }
  param {
    lr_mult: 2
    decay_mult: 0
  }
  convolution_param {
    num_output: 256
    pad: 1
    kernel_size: 3
    weight_filler {
      type: "xavier"
      std: 0.03
    }
    bias_filler {
      type: "constant"
      value: 0.2
    }
  }
}
layer {
  name: "inception_4c/relu_3x3"
  type: "ReLU"
  bottom: "inception_4c/3x3"
  top: "inception_4c/3x3"
}
layer {
  name: "inception_4c/5x5_reduce"
  type: "Convolution"
  bottom: "inception_4b/output"
  top: "inception_4c/5x5_reduce"
  param {
    lr_mult: 1
    decay_mult: 1
  }
  param {
    lr_mult: 2
    decay_mult: 0
  }
  convolution_param {
    num_output: 24
    kernel_size: 1
    weight_filler {
      type: "xavier"
      std: 0.2
    }
    bias_filler {
      type: "constant"
      value: 0.2
    }
  }
}
layer {
  name: "inception_4c/relu_5x5_reduce"
  type: "ReLU"
  bottom: "inception_4c/5x5_reduce"
  top: "inception_4c/5x5_reduce"
}
layer {
  name: "inception_4c/5x5"
  type: "Convolution"
  bottom: "inception_4c/5x5_reduce"
  top: "inception_4c/5x5"
  param {
    lr_mult: 1
    decay_mult: 1
  }
  param {
    lr_mult: 2
    decay_mult: 0
  }
  convolution_param {
    num_output: 64
    pad: 2
    kernel_size: 5
    weight_filler {
      type: "xavier"
      std: 0.03
    }
    bias_filler {
      type: "constant"
      value: 0.2
    }
  }
}
layer {
  name: "inception_4c/relu_5x5"
  type: "ReLU"
  bottom: "inception_4c/5x5"
  top: "inception_4c/5x5"
}
layer {
  name: "inception_4c/pool"
  type: "Pooling"
  bottom: "inception_4b/output"
  top: "inception_4c/pool"
  pooling_param {
    pool: MAX
    kernel_size: 3
    stride: 1
    pad: 1
  }
}
layer {
  name: "inception_4c/pool_proj"
  type: "Convolution"
  bottom: "inception_4c/pool"
  top: "inception_4c/pool_proj"
  param {
    lr_mult: 1
    decay_mult: 1
  }
  param {
    lr_mult: 2
    decay_mult: 0
  }
  convolution_param {
    num_output: 64
    kernel_size: 1
    weight_filler {
      type: "xavier"
      std: 0.1
    }
    bias_filler {
      type: "constant"
      value: 0.2
    }
  }
}
layer {
  name: "inception_4c/relu_pool_proj"
  type: "ReLU"
  bottom: "inception_4c/pool_proj"
  top: "inception_4c/pool_proj"
}
layer {
  name: "inception_4c/output"
  type: "Concat"
  bottom: "inception_4c/1x1"
  bottom: "inception_4c/3x3"
  bottom: "inception_4c/5x5"
  bottom: "inception_4c/pool_proj"
  top: "inception_4c/output"
}
layer {
  name: "inception_4d/1x1"
  type: "Convolution"
  bottom: "inception_4c/output"
  top: "inception_4d/1x1"
  param {
    lr_mult: 1
    decay_mult: 1
  }
  param {
    lr_mult: 2
    decay_mult: 0
  }
  convolution_param {
    num_output: 112
    kernel_size: 1
    weight_filler {
      type: "xavier"
      std: 0.03
    }
    bias_filler {
      type: "constant"
      value: 0.2
    }
  }
}
layer {
  name: "inception_4d/relu_1x1"
  type: "ReLU"
  bottom: "inception_4d/1x1"
  top: "inception_4d/1x1"
}
layer {
  name: "inception_4d/3x3_reduce"
  type: "Convolution"
  bottom: "inception_4c/output"
  top: "inception_4d/3x3_reduce"
  param {
    lr_mult: 1
    decay_mult: 1
  }
  param {
    lr_mult: 2
    decay_mult: 0
  }
  convolution_param {
    num_output: 144
    kernel_size: 1
    weight_filler {
      type: "xavier"
      std: 0.09
    }
    bias_filler {
      type: "constant"
      value: 0.2
    }
  }
}
layer {
  name: "inception_4d/relu_3x3_reduce"
  type: "ReLU"
  bottom: "inception_4d/3x3_reduce"
  top: "inception_4d/3x3_reduce"
}
layer {
  name: "inception_4d/3x3"
  type: "Convolution"
  bottom: "inception_4d/3x3_reduce"
  top: "inception_4d/3x3"
  param {
    lr_mult: 1
    decay_mult: 1
  }
  param {
    lr_mult: 2
    decay_mult: 0
  }
  convolution_param {
    num_output: 288
    pad: 1
    kernel_size: 3
    weight_filler {
      type: "xavier"
      std: 0.03
    }
    bias_filler {
      type: "constant"
      value: 0.2
    }
  }
}
layer {
  name: "inception_4d/relu_3x3"
  type: "ReLU"
  bottom: "inception_4d/3x3"
  top: "inception_4d/3x3"
}
layer {
  name: "inception_4d/5x5_reduce"
  type: "Convolution"
  bottom: "inception_4c/output"
  top: "inception_4d/5x5_reduce"
  param {
    lr_mult: 1
    decay_mult: 1
  }
  param {
    lr_mult: 2
    decay_mult: 0
  }
  convolution_param {
    num_output: 32
    kernel_size: 1
    weight_filler {
      type: "xavier"
      std: 0.2
    }
    bias_filler {
      type: "constant"
      value: 0.2
    }
  }
}
layer {
  name: "inception_4d/relu_5x5_reduce"
  type: "ReLU"
  bottom: "inception_4d/5x5_reduce"
  top: "inception_4d/5x5_reduce"
}
layer {
  name: "inception_4d/5x5"
  type: "Convolution"
  bottom: "inception_4d/5x5_reduce"
  top: "inception_4d/5x5"
  param {
    lr_mult: 1
    decay_mult: 1
  }
  param {
    lr_mult: 2
    decay_mult: 0
  }
  convolution_param {
    num_output: 64
    pad: 2
    kernel_size: 5
    weight_filler {
      type: "xavier"
      std: 0.03
    }
    bias_filler {
      type: "constant"
      value: 0.2
    }
  }
}
layer {
  name: "inception_4d/relu_5x5"
  type: "ReLU"
  bottom: "inception_4d/5x5"
  top: "inception_4d/5x5"
}
layer {
  name: "inception_4d/pool"
  type: "Pooling"
  bottom: "inception_4c/output"
  top: "inception_4d/pool"
  pooling_param {
    pool: MAX
    kernel_size: 3
    stride: 1
    pad: 1
  }
}
layer {
  name: "inception_4d/pool_proj"
  type: "Convolution"
  bottom: "inception_4d/pool"
  top: "inception_4d/pool_proj"
  param {
    lr_mult: 1
    decay_mult: 1
  }
  param {
    lr_mult: 2
    decay_mult: 0
  }
  convolution_param {
    num_output: 64
    kernel_size: 1
    weight_filler {
      type: "xavier"
      std: 0.1
    }
    bias_filler {
      type: "constant"
      value: 0.2
    }
  }
}
layer {
  name: "inception_4d/relu_pool_proj"
  type: "ReLU"
  bottom: "inception_4d/pool_proj"
  top: "inception_4d/pool_proj"
}
layer {
  name: "inception_4d/output"
  type: "Concat"
  bottom: "inception_4d/1x1"
  bottom: "inception_4d/3x3"
  bottom: "inception_4d/5x5"
  bottom: "inception_4d/pool_proj"
  top: "inception_4d/output"
}
layer {
  name: "loss2/ave_pool"
  type: "Pooling"
  bottom: "inception_4d/output"
  top: "loss2/ave_pool"
  pooling_param {
    pool: AVE
    kernel_size: 5
    stride: 3
  }
}
layer {
  name: "loss2/conv"
  type: "Convolution"
  bottom: "loss2/ave_pool"
  top: "loss2/conv"
  param {
    lr_mult: 1
    decay_mult: 1
  }
  param {
    lr_mult: 2
    decay_mult: 0
  }
  convolution_param {
    num_output: 128
    kernel_size: 1
    weight_filler {
      type: "xavier"
      std: 0.08
    }
    bias_filler {
      type: "constant"
      value: 0.2
    }
  }
}
layer {
  name: "loss2/relu_conv"
  type: "ReLU"
  bottom: "loss2/conv"
  top: "loss2/conv"
}
layer {
  name: "loss2/fc"
  type: "InnerProduct"
  bottom: "loss2/conv"
  top: "loss2/fc"
  param {
    lr_mult: 1
    decay_mult: 1
  }
  param {
    lr_mult: 2
    decay_mult: 0
  }
  inner_product_param {
    num_output: 1024
    weight_filler {
      type: "xavier"
      std: 0.02
    }
    bias_filler {
      type: "constant"
      value: 0.2
    }
  }
}
layer {
  name: "loss2/relu_fc"
  type: "ReLU"
  bottom: "loss2/fc"
  top: "loss2/fc"
}
layer {
  name: "loss2/drop_fc"
  type: "Dropout"
  bottom: "loss2/fc"
  top: "loss2/fc"
  dropout_param {
    dropout_ratio: 0.7
  }
}
layer {
  name: "loss2/classifier_plantvillage"
  type: "InnerProduct"
  bottom: "loss2/fc"
  top: "loss2/classifier_plantvillage"
  param {
    lr_mult: 1
    decay_mult: 1
  }
  param {
    lr_mult: 2
    decay_mult: 0
  }
  inner_product_param {
    num_output: 38
    weight_filler {
      type: "xavier"
      std: 0.0009765625
    }
    bias_filler {
      type: "constant"
      value: 0
    }
  }
}
layer {
  name: "inception_4e/1x1"
  type: "Convolution"
  bottom: "inception_4d/output"
  top: "inception_4e/1x1"
  param {
    lr_mult: 1
    decay_mult: 1
  }
  param {
    lr_mult: 2
    decay_mult: 0
  }
  convolution_param {
    num_output: 256
    kernel_size: 1
    weight_filler {
      type: "xavier"
      std: 0.03
    }
    bias_filler {
      type: "constant"
      value: 0.2
    }
  }
}
layer {
  name: "inception_4e/relu_1x1"
  type: "ReLU"
  bottom: "inception_4e/1x1"
  top: "inception_4e/1x1"
}
layer {
  name: "inception_4e/3x3_reduce"
  type: "Convolution"
  bottom: "inception_4d/output"
  top: "inception_4e/3x3_reduce"
  param {
    lr_mult: 1
    decay_mult: 1
  }
  param {
    lr_mult: 2
    decay_mult: 0
  }
  convolution_param {
    num_output: 160
    kernel_size: 1
    weight_filler {
      type: "xavier"
      std: 0.09
    }
    bias_filler {
      type: "constant"
      value: 0.2
    }
  }
}
layer {
  name: "inception_4e/relu_3x3_reduce"
  type: "ReLU"
  bottom: "inception_4e/3x3_reduce"
  top: "inception_4e/3x3_reduce"
}
layer {
  name: "inception_4e/3x3"
  type: "Convolution"
  bottom: "inception_4e/3x3_reduce"
  top: "inception_4e/3x3"
  param {
    lr_mult: 1
    decay_mult: 1
  }
  param {
    lr_mult: 2
    decay_mult: 0
  }
  convolution_param {
    num_output: 320
    pad: 1
    kernel_size: 3
    weight_filler {
      type: "xavier"
      std: 0.03
    }
    bias_filler {
      type: "constant"
      value: 0.2
    }
  }
}
layer {
  name: "inception_4e/relu_3x3"
  type: "ReLU"
  bottom: "inception_4e/3x3"
  top: "inception_4e/3x3"
}
layer {
  name: "inception_4e/5x5_reduce"
  type: "Convolution"
  bottom: "inception_4d/output"
  top: "inception_4e/5x5_reduce"
  param {
    lr_mult: 1
    decay_mult: 1
  }
  param {
    lr_mult: 2
    decay_mult: 0
  }
  convolution_param {
    num_output: 32
    kernel_size: 1
    weight_filler {
      type: "xavier"
      std: 0.2
    }
    bias_filler {
      type: "constant"
      value: 0.2
    }
  }
}
layer {
  name: "inception_4e/relu_5x5_reduce"
  type: "ReLU"
  bottom: "inception_4e/5x5_reduce"
  top: "inception_4e/5x5_reduce"
}
layer {
  name: "inception_4e/5x5"
  type: "Convolution"
  bottom: "inception_4e/5x5_reduce"
  top: "inception_4e/
I0403 15:38:11.621278  3307 layer_factory.hpp:77] Creating layer data
I0403 15:38:11.621902  3307 net.cpp:91] Creating Layer data
I0403 15:38:11.621943  3307 net.cpp:399] data -> data
I0403 15:38:11.621995  3307 net.cpp:399] data -> label
I0403 15:38:11.622033  3307 data_transformer.cpp:25] Loading mean file from: /home/mohanty/data/final_dataset/lmdb/segmented-60-40/mean.binaryproto
I0403 15:38:11.624498  3310 db_lmdb.cpp:38] Opened lmdb /home/mohanty/data/final_dataset/lmdb/segmented-60-40/test_db
I0403 15:38:11.635423  3307 data_layer.cpp:41] output data size: 24,3,224,224
I0403 15:38:11.663897  3307 net.cpp:141] Setting up data
I0403 15:38:11.663980  3307 net.cpp:148] Top shape: 24 3 224 224 (3612672)
I0403 15:38:11.664002  3307 net.cpp:148] Top shape: 24 (24)
I0403 15:38:11.664018  3307 net.cpp:156] Memory required for data: 14450784
I0403 15:38:11.664046  3307 layer_factory.hpp:77] Creating layer label_data_1_split
I0403 15:38:11.664072  3307 net.cpp:91] Creating Layer label_data_1_split
I0403 15:38:11.664090  3307 net.cpp:425] label_data_1_split <- label
I0403 15:38:11.664121  3307 net.cpp:399] label_data_1_split -> label_data_1_split_0
I0403 15:38:11.664149  3307 net.cpp:399] label_data_1_split -> label_data_1_split_1
I0403 15:38:11.664171  3307 net.cpp:399] label_data_1_split -> label_data_1_split_2
I0403 15:38:11.664193  3307 net.cpp:399] label_data_1_split -> label_data_1_split_3
I0403 15:38:11.664218  3307 net.cpp:399] label_data_1_split -> label_data_1_split_4
I0403 15:38:11.664242  3307 net.cpp:399] label_data_1_split -> label_data_1_split_5
I0403 15:38:11.664263  3307 net.cpp:399] label_data_1_split -> label_data_1_split_6
I0403 15:38:11.664283  3307 net.cpp:399] label_data_1_split -> label_data_1_split_7
I0403 15:38:11.664304  3307 net.cpp:399] label_data_1_split -> label_data_1_split_8
I0403 15:38:11.664325  3307 net.cpp:399] label_data_1_split -> label_data_1_split_9
I0403 15:38:11.664444  3307 net.cpp:141] Setting up label_data_1_split
I0403 15:38:11.664469  3307 net.cpp:148] Top shape: 24 (24)
I0403 15:38:11.664485  3307 net.cpp:148] Top shape: 24 (24)
I0403 15:38:11.664504  3307 net.cpp:148] Top shape: 24 (24)
I0403 15:38:11.664520  3307 net.cpp:148] Top shape: 24 (24)
I0403 15:38:11.664536  3307 net.cpp:148] Top shape: 24 (24)
I0403 15:38:11.664551  3307 net.cpp:148] Top shape: 24 (24)
I0403 15:38:11.664568  3307 net.cpp:148] Top shape: 24 (24)
I0403 15:38:11.664584  3307 net.cpp:148] Top shape: 24 (24)
I0403 15:38:11.664600  3307 net.cpp:148] Top shape: 24 (24)
I0403 15:38:11.664616  3307 net.cpp:148] Top shape: 24 (24)
I0403 15:38:11.664662  3307 net.cpp:156] Memory required for data: 14451744
I0403 15:38:11.664680  3307 layer_factory.hpp:77] Creating layer conv1/7x7_s2
I0403 15:38:11.664711  3307 net.cpp:91] Creating Layer conv1/7x7_s2
I0403 15:38:11.664731  3307 net.cpp:425] conv1/7x7_s2 <- data
I0403 15:38:11.664751  3307 net.cpp:399] conv1/7x7_s2 -> conv1/7x7_s2
I0403 15:38:11.807364  3307 net.cpp:141] Setting up conv1/7x7_s2
I0403 15:38:11.807454  3307 net.cpp:148] Top shape: 24 64 112 112 (19267584)
I0403 15:38:11.807471  3307 net.cpp:156] Memory required for data: 91522080
I0403 15:38:11.807502  3307 layer_factory.hpp:77] Creating layer conv1/relu_7x7
I0403 15:38:11.807530  3307 net.cpp:91] Creating Layer conv1/relu_7x7
I0403 15:38:11.807549  3307 net.cpp:425] conv1/relu_7x7 <- conv1/7x7_s2
I0403 15:38:11.807569  3307 net.cpp:386] conv1/relu_7x7 -> conv1/7x7_s2 (in-place)
I0403 15:38:11.807834  3307 net.cpp:141] Setting up conv1/relu_7x7
I0403 15:38:11.807862  3307 net.cpp:148] Top shape: 24 64 112 112 (19267584)
I0403 15:38:11.807878  3307 net.cpp:156] Memory required for data: 168592416
I0403 15:38:11.807893  3307 layer_factory.hpp:77] Creating layer pool1/3x3_s2
I0403 15:38:11.807920  3307 net.cpp:91] Creating Layer pool1/3x3_s2
I0403 15:38:11.807940  3307 net.cpp:425] pool1/3x3_s2 <- conv1/7x7_s2
I0403 15:38:11.807958  3307 net.cpp:399] pool1/3x3_s2 -> pool1/3x3_s2
I0403 15:38:11.808038  3307 net.cpp:141] Setting up pool1/3x3_s2
I0403 15:38:11.808063  3307 net.cpp:148] Top shape: 24 64 56 56 (4816896)
I0403 15:38:11.808078  3307 net.cpp:156] Memory required for data: 187860000
I0403 15:38:11.808092  3307 layer_factory.hpp:77] Creating layer pool1/norm1
I0403 15:38:11.808120  3307 net.cpp:91] Creating Layer pool1/norm1
I0403 15:38:11.808137  3307 net.cpp:425] pool1/norm1 <- pool1/3x3_s2
I0403 15:38:11.808156  3307 net.cpp:399] pool1/norm1 -> pool1/norm1
I0403 15:38:11.808465  3307 net.cpp:141] Setting up pool1/norm1
I0403 15:38:11.808492  3307 net.cpp:148] Top shape: 24 64 56 56 (4816896)
I0403 15:38:11.808507  3307 net.cpp:156] Memory required for data: 207127584
I0403 15:38:11.808523  3307 layer_factory.hpp:77] Creating layer conv2/3x3_reduce
I0403 15:38:11.808550  3307 net.cpp:91] Creating Layer conv2/3x3_reduce
I0403 15:38:11.808568  3307 net.cpp:425] conv2/3x3_reduce <- pool1/norm1
I0403 15:38:11.808589  3307 net.cpp:399] conv2/3x3_reduce -> conv2/3x3_reduce
I0403 15:38:11.810004  3307 net.cpp:141] Setting up conv2/3x3_reduce
I0403 15:38:11.810034  3307 net.cpp:148] Top shape: 24 64 56 56 (4816896)
I0403 15:38:11.810051  3307 net.cpp:156] Memory required for data: 226395168
I0403 15:38:11.810072  3307 layer_factory.hpp:77] Creating layer conv2/relu_3x3_reduce
I0403 15:38:11.810091  3307 net.cpp:91] Creating Layer conv2/relu_3x3_reduce
I0403 15:38:11.810107  3307 net.cpp:425] conv2/relu_3x3_reduce <- conv2/3x3_reduce
I0403 15:38:11.810127  3307 net.cpp:386] conv2/relu_3x3_reduce -> conv2/3x3_reduce (in-place)
I0403 15:38:11.810405  3307 net.cpp:141] Setting up conv2/relu_3x3_reduce
I0403 15:38:11.810432  3307 net.cpp:148] Top shape: 24 64 56 56 (4816896)
I0403 15:38:11.810448  3307 net.cpp:156] Memory required for data: 245662752
I0403 15:38:11.810463  3307 layer_factory.hpp:77] Creating layer conv2/3x3
I0403 15:38:11.810487  3307 net.cpp:91] Creating Layer conv2/3x3
I0403 15:38:11.810506  3307 net.cpp:425] conv2/3x3 <- conv2/3x3_reduce
I0403 15:38:11.810529  3307 net.cpp:399] conv2/3x3 -> conv2/3x3
I0403 15:38:11.812858  3307 net.cpp:141] Setting up conv2/3x3
I0403 15:38:11.812888  3307 net.cpp:148] Top shape: 24 192 56 56 (14450688)
I0403 15:38:11.812904  3307 net.cpp:156] Memory required for data: 303465504
I0403 15:38:11.812927  3307 layer_factory.hpp:77] Creating layer conv2/relu_3x3
I0403 15:38:11.812944  3307 net.cpp:91] Creating Layer conv2/relu_3x3
I0403 15:38:11.812959  3307 net.cpp:425] conv2/relu_3x3 <- conv2/3x3
I0403 15:38:11.812979  3307 net.cpp:386] conv2/relu_3x3 -> conv2/3x3 (in-place)
I0403 15:38:11.813158  3307 net.cpp:141] Setting up conv2/relu_3x3
I0403 15:38:11.813181  3307 net.cpp:148] Top shape: 24 192 56 56 (14450688)
I0403 15:38:11.813240  3307 net.cpp:156] Memory required for data: 361268256
I0403 15:38:11.813256  3307 layer_factory.hpp:77] Creating layer conv2/norm2
I0403 15:38:11.813276  3307 net.cpp:91] Creating Layer conv2/norm2
I0403 15:38:11.813293  3307 net.cpp:425] conv2/norm2 <- conv2/3x3
I0403 15:38:11.813311  3307 net.cpp:399] conv2/norm2 -> conv2/norm2
I0403 15:38:11.813611  3307 net.cpp:141] Setting up conv2/norm2
I0403 15:38:11.813642  3307 net.cpp:148] Top shape: 24 192 56 56 (14450688)
I0403 15:38:11.813657  3307 net.cpp:156] Memory required for data: 419071008
I0403 15:38:11.813673  3307 layer_factory.hpp:77] Creating layer pool2/3x3_s2
I0403 15:38:11.813690  3307 net.cpp:91] Creating Layer pool2/3x3_s2
I0403 15:38:11.813705  3307 net.cpp:425] pool2/3x3_s2 <- conv2/norm2
I0403 15:38:11.813722  3307 net.cpp:399] pool2/3x3_s2 -> pool2/3x3_s2
I0403 15:38:11.813776  3307 net.cpp:141] Setting up pool2/3x3_s2
I0403 15:38:11.813797  3307 net.cpp:148] Top shape: 24 192 28 28 (3612672)
I0403 15:38:11.813812  3307 net.cpp:156] Memory required for data: 433521696
I0403 15:38:11.813827  3307 layer_factory.hpp:77] Creating layer pool2/3x3_s2_pool2/3x3_s2_0_split
I0403 15:38:11.813845  3307 net.cpp:91] Creating Layer pool2/3x3_s2_pool2/3x3_s2_0_split
I0403 15:38:11.813863  3307 net.cpp:425] pool2/3x3_s2_pool2/3x3_s2_0_split <- pool2/3x3_s2
I0403 15:38:11.813879  3307 net.cpp:399] pool2/3x3_s2_pool2/3x3_s2_0_split -> pool2/3x3_s2_pool2/3x3_s2_0_split_0
I0403 15:38:11.813899  3307 net.cpp:399] pool2/3x3_s2_pool2/3x3_s2_0_split -> pool2/3x3_s2_pool2/3x3_s2_0_split_1
I0403 15:38:11.813918  3307 net.cpp:399] pool2/3x3_s2_pool2/3x3_s2_0_split -> pool2/3x3_s2_pool2/3x3_s2_0_split_2
I0403 15:38:11.813941  3307 net.cpp:399] pool2/3x3_s2_pool2/3x3_s2_0_split -> pool2/3x3_s2_pool2/3x3_s2_0_split_3
I0403 15:38:11.814012  3307 net.cpp:141] Setting up pool2/3x3_s2_pool2/3x3_s2_0_split
I0403 15:38:11.814033  3307 net.cpp:148] Top shape: 24 192 28 28 (3612672)
I0403 15:38:11.814049  3307 net.cpp:148] Top shape: 24 192 28 28 (3612672)
I0403 15:38:11.814065  3307 net.cpp:148] Top shape: 24 192 28 28 (3612672)
I0403 15:38:11.814080  3307 net.cpp:148] Top shape: 24 192 28 28 (3612672)
I0403 15:38:11.814095  3307 net.cpp:156] Memory required for data: 491324448
I0403 15:38:11.814108  3307 layer_factory.hpp:77] Creating layer inception_3a/1x1
I0403 15:38:11.814131  3307 net.cpp:91] Creating Layer inception_3a/1x1
I0403 15:38:11.814148  3307 net.cpp:425] inception_3a/1x1 <- pool2/3x3_s2_pool2/3x3_s2_0_split_0
I0403 15:38:11.814169  3307 net.cpp:399] inception_3a/1x1 -> inception_3a/1x1
I0403 15:38:11.815685  3307 net.cpp:141] Setting up inception_3a/1x1
I0403 15:38:11.815716  3307 net.cpp:148] Top shape: 24 64 28 28 (1204224)
I0403 15:38:11.815734  3307 net.cpp:156] Memory required for data: 496141344
I0403 15:38:11.815753  3307 layer_factory.hpp:77] Creating layer inception_3a/relu_1x1
I0403 15:38:11.815771  3307 net.cpp:91] Creating Layer inception_3a/relu_1x1
I0403 15:38:11.815786  3307 net.cpp:425] inception_3a/relu_1x1 <- inception_3a/1x1
I0403 15:38:11.815806  3307 net.cpp:386] inception_3a/relu_1x1 -> inception_3a/1x1 (in-place)
I0403 15:38:11.815978  3307 net.cpp:141] Setting up inception_3a/relu_1x1
I0403 15:38:11.816001  3307 net.cpp:148] Top shape: 24 64 28 28 (1204224)
I0403 15:38:11.816016  3307 net.cpp:156] Memory required for data: 500958240
I0403 15:38:11.816031  3307 layer_factory.hpp:77] Creating layer inception_3a/3x3_reduce
I0403 15:38:11.816053  3307 net.cpp:91] Creating Layer inception_3a/3x3_reduce
I0403 15:38:11.816071  3307 net.cpp:425] inception_3a/3x3_reduce <- pool2/3x3_s2_pool2/3x3_s2_0_split_1
I0403 15:38:11.816092  3307 net.cpp:399] inception_3a/3x3_reduce -> inception_3a/3x3_reduce
I0403 15:38:11.817812  3307 net.cpp:141] Setting up inception_3a/3x3_reduce
I0403 15:38:11.817842  3307 net.cpp:148] Top shape: 24 96 28 28 (1806336)
I0403 15:38:11.817857  3307 net.cpp:156] Memory required for data: 508183584
I0403 15:38:11.817878  3307 layer_factory.hpp:77] Creating layer inception_3a/relu_3x3_reduce
I0403 15:38:11.817916  3307 net.cpp:91] Creating Layer inception_3a/relu_3x3_reduce
I0403 15:38:11.817934  3307 net.cpp:425] inception_3a/relu_3x3_reduce <- inception_3a/3x3_reduce
I0403 15:38:11.817952  3307 net.cpp:386] inception_3a/relu_3x3_reduce -> inception_3a/3x3_reduce (in-place)
I0403 15:38:11.818135  3307 net.cpp:141] Setting up inception_3a/relu_3x3_reduce
I0403 15:38:11.818161  3307 net.cpp:148] Top shape: 24 96 28 28 (1806336)
I0403 15:38:11.818177  3307 net.cpp:156] Memory required for data: 515408928
I0403 15:38:11.818192  3307 layer_factory.hpp:77] Creating layer inception_3a/3x3
I0403 15:38:11.818219  3307 net.cpp:91] Creating Layer inception_3a/3x3
I0403 15:38:11.818238  3307 net.cpp:425] inception_3a/3x3 <- inception_3a/3x3_reduce
I0403 15:38:11.818256  3307 net.cpp:399] inception_3a/3x3 -> inception_3a/3x3
I0403 15:38:11.819888  3307 net.cpp:141] Setting up inception_3a/3x3
I0403 15:38:11.819916  3307 net.cpp:148] Top shape: 24 128 28 28 (2408448)
I0403 15:38:11.819932  3307 net.cpp:156] Memory required for data: 525042720
I0403 15:38:11.819952  3307 layer_factory.hpp:77] Creating layer inception_3a/relu_3x3
I0403 15:38:11.819972  3307 net.cpp:91] Creating Layer inception_3a/relu_3x3
I0403 15:38:11.819988  3307 net.cpp:425] inception_3a/relu_3x3 <- inception_3a/3x3
I0403 15:38:11.820005  3307 net.cpp:386] inception_3a/relu_3x3 -> inception_3a/3x3 (in-place)
I0403 15:38:11.820298  3307 net.cpp:141] Setting up inception_3a/relu_3x3
I0403 15:38:11.820327  3307 net.cpp:148] Top shape: 24 128 28 28 (2408448)
I0403 15:38:11.820341  3307 net.cpp:156] Memory required for data: 534676512
I0403 15:38:11.820358  3307 layer_factory.hpp:77] Creating layer inception_3a/5x5_reduce
I0403 15:38:11.820380  3307 net.cpp:91] Creating Layer inception_3a/5x5_reduce
I0403 15:38:11.820399  3307 net.cpp:425] inception_3a/5x5_reduce <- pool2/3x3_s2_pool2/3x3_s2_0_split_2
I0403 15:38:11.820420  3307 net.cpp:399] inception_3a/5x5_reduce -> inception_3a/5x5_reduce
I0403 15:38:11.821396  3307 net.cpp:141] Setting up inception_3a/5x5_reduce
I0403 15:38:11.821424  3307 net.cpp:148] Top shape: 24 16 28 28 (301056)
I0403 15:38:11.821441  3307 net.cpp:156] Memory required for data: 535880736
I0403 15:38:11.821460  3307 layer_factory.hpp:77] Creating layer inception_3a/relu_5x5_reduce
I0403 15:38:11.821480  3307 net.cpp:91] Creating Layer inception_3a/relu_5x5_reduce
I0403 15:38:11.821496  3307 net.cpp:425] inception_3a/relu_5x5_reduce <- inception_3a/5x5_reduce
I0403 15:38:11.821513  3307 net.cpp:386] inception_3a/relu_5x5_reduce -> inception_3a/5x5_reduce (in-place)
I0403 15:38:11.821808  3307 net.cpp:141] Setting up inception_3a/relu_5x5_reduce
I0403 15:38:11.821833  3307 net.cpp:148] Top shape: 24 16 28 28 (301056)
I0403 15:38:11.821848  3307 net.cpp:156] Memory required for data: 537084960
I0403 15:38:11.821863  3307 layer_factory.hpp:77] Creating layer inception_3a/5x5
I0403 15:38:11.821887  3307 net.cpp:91] Creating Layer inception_3a/5x5
I0403 15:38:11.821903  3307 net.cpp:425] inception_3a/5x5 <- inception_3a/5x5_reduce
I0403 15:38:11.821923  3307 net.cpp:399] inception_3a/5x5 -> inception_3a/5x5
I0403 15:38:11.822944  3307 net.cpp:141] Setting up inception_3a/5x5
I0403 15:38:11.822974  3307 net.cpp:148] Top shape: 24 32 28 28 (602112)
I0403 15:38:11.822990  3307 net.cpp:156] Memory required for data: 539493408
I0403 15:38:11.823009  3307 layer_factory.hpp:77] Creating layer inception_3a/relu_5x5
I0403 15:38:11.823027  3307 net.cpp:91] Creating Layer inception_3a/relu_5x5
I0403 15:38:11.823042  3307 net.cpp:425] inception_3a/relu_5x5 <- inception_3a/5x5
I0403 15:38:11.823062  3307 net.cpp:386] inception_3a/relu_5x5 -> inception_3a/5x5 (in-place)
I0403 15:38:11.823261  3307 net.cpp:141] Setting up inception_3a/relu_5x5
I0403 15:38:11.823287  3307 net.cpp:148] Top shape: 24 32 28 28 (602112)
I0403 15:38:11.823302  3307 net.cpp:156] Memory required for data: 541901856
I0403 15:38:11.823318  3307 layer_factory.hpp:77] Creating layer inception_3a/pool
I0403 15:38:11.823338  3307 net.cpp:91] Creating Layer inception_3a/pool
I0403 15:38:11.823369  3307 net.cpp:425] inception_3a/pool <- pool2/3x3_s2_pool2/3x3_s2_0_split_3
I0403 15:38:11.823388  3307 net.cpp:399] inception_3a/pool -> inception_3a/pool
I0403 15:38:11.823448  3307 net.cpp:141] Setting up inception_3a/pool
I0403 15:38:11.823482  3307 net.cpp:148] Top shape: 24 192 28 28 (3612672)
I0403 15:38:11.823508  3307 net.cpp:156] Memory required for data: 556352544
I0403 15:38:11.823523  3307 layer_factory.hpp:77] Creating layer inception_3a/pool_proj
I0403 15:38:11.823544  3307 net.cpp:91] Creating Layer inception_3a/pool_proj
I0403 15:38:11.823561  3307 net.cpp:425] inception_3a/pool_proj <- inception_3a/pool
I0403 15:38:11.823583  3307 net.cpp:399] inception_3a/pool_proj -> inception_3a/pool_proj
I0403 15:38:11.824532  3307 net.cpp:141] Setting up inception_3a/pool_proj
I0403 15:38:11.824558  3307 net.cpp:148] Top shape: 24 32 28 28 (602112)
I0403 15:38:11.824574  3307 net.cpp:156] Memory required for data: 558760992
I0403 15:38:11.824597  3307 layer_factory.hpp:77] Creating layer inception_3a/relu_pool_proj
I0403 15:38:11.824620  3307 net.cpp:91] Creating Layer inception_3a/relu_pool_proj
I0403 15:38:11.824635  3307 net.cpp:425] inception_3a/relu_pool_proj <- inception_3a/pool_proj
I0403 15:38:11.824653  3307 net.cpp:386] inception_3a/relu_pool_proj -> inception_3a/pool_proj (in-place)
I0403 15:38:11.824928  3307 net.cpp:141] Setting up inception_3a/relu_pool_proj
I0403 15:38:11.824954  3307 net.cpp:148] Top shape: 24 32 28 28 (602112)
I0403 15:38:11.824968  3307 net.cpp:156] Memory required for data: 561169440
I0403 15:38:11.824983  3307 layer_factory.hpp:77] Creating layer inception_3a/output
I0403 15:38:11.825001  3307 net.cpp:91] Creating Layer inception_3a/output
I0403 15:38:11.825016  3307 net.cpp:425] inception_3a/output <- inception_3a/1x1
I0403 15:38:11.825033  3307 net.cpp:425] inception_3a/output <- inception_3a/3x3
I0403 15:38:11.825049  3307 net.cpp:425] inception_3a/output <- inception_3a/5x5
I0403 15:38:11.825064  3307 net.cpp:425] inception_3a/output <- inception_3a/pool_proj
I0403 15:38:11.825083  3307 net.cpp:399] inception_3a/output -> inception_3a/output
I0403 15:38:11.825129  3307 net.cpp:141] Setting up inception_3a/output
I0403 15:38:11.825153  3307 net.cpp:148] Top shape: 24 256 28 28 (4816896)
I0403 15:38:11.825170  3307 net.cpp:156] Memory required for data: 580437024
I0403 15:38:11.825184  3307 layer_factory.hpp:77] Creating layer inception_3a/output_inception_3a/output_0_split
I0403 15:38:11.825201  3307 net.cpp:91] Creating Layer inception_3a/output_inception_3a/output_0_split
I0403 15:38:11.825220  3307 net.cpp:425] inception_3a/output_inception_3a/output_0_split <- inception_3a/output
I0403 15:38:11.825242  3307 net.cpp:399] inception_3a/output_inception_3a/output_0_split -> inception_3a/output_inception_3a/output_0_split_0
I0403 15:38:11.825263  3307 net.cpp:399] inception_3a/output_inception_3a/output_0_split -> inception_3a/output_inception_3a/output_0_split_1
I0403 15:38:11.825285  3307 net.cpp:399] inception_3a/output_inception_3a/output_0_split -> inception_3a/output_inception_3a/output_0_split_2
I0403 15:38:11.825307  3307 net.cpp:399] inception_3a/output_inception_3a/output_0_split -> inception_3a/output_inception_3a/output_0_split_3
I0403 15:38:11.825378  3307 net.cpp:141] Setting up inception_3a/output_inception_3a/output_0_split
I0403 15:38:11.825403  3307 net.cpp:148] Top shape: 24 256 28 28 (4816896)
I0403 15:38:11.825419  3307 net.cpp:148] Top shape: 24 256 28 28 (4816896)
I0403 15:38:11.825436  3307 net.cpp:148] Top shape: 24 256 28 28 (4816896)
I0403 15:38:11.825453  3307 net.cpp:148] Top shape: 24 256 28 28 (4816896)
I0403 15:38:11.825466  3307 net.cpp:156] Memory required for data: 657507360
I0403 15:38:11.825480  3307 layer_factory.hpp:77] Creating layer inception_3b/1x1
I0403 15:38:11.825501  3307 net.cpp:91] Creating Layer inception_3b/1x1
I0403 15:38:11.825518  3307 net.cpp:425] inception_3b/1x1 <- inception_3a/output_inception_3a/output_0_split_0
I0403 15:38:11.825539  3307 net.cpp:399] inception_3b/1x1 -> inception_3b/1x1
I0403 15:38:11.826689  3307 net.cpp:141] Setting up inception_3b/1x1
I0403 15:38:11.826731  3307 net.cpp:148] Top shape: 24 128 28 28 (2408448)
I0403 15:38:11.826748  3307 net.cpp:156] Memory required for data: 667141152
I0403 15:38:11.826767  3307 layer_factory.hpp:77] Creating layer inception_3b/relu_1x1
I0403 15:38:11.826786  3307 net.cpp:91] Creating Layer inception_3b/relu_1x1
I0403 15:38:11.826803  3307 net.cpp:425] inception_3b/relu_1x1 <- inception_3b/1x1
I0403 15:38:11.826823  3307 net.cpp:386] inception_3b/relu_1x1 -> inception_3b/1x1 (in-place)
I0403 15:38:11.827003  3307 net.cpp:141] Setting up inception_3b/relu_1x1
I0403 15:38:11.827028  3307 net.cpp:148] Top shape: 24 128 28 28 (2408448)
I0403 15:38:11.827044  3307 net.cpp:156] Memory required for data: 676774944
I0403 15:38:11.827059  3307 layer_factory.hpp:77] Creating layer inception_3b/3x3_reduce
I0403 15:38:11.827081  3307 net.cpp:91] Creating Layer inception_3b/3x3_reduce
I0403 15:38:11.827100  3307 net.cpp:425] inception_3b/3x3_reduce <- inception_3a/output_inception_3a/output_0_split_1
I0403 15:38:11.827121  3307 net.cpp:399] inception_3b/3x3_reduce -> inception_3b/3x3_reduce
I0403 15:38:11.828277  3307 net.cpp:141] Setting up inception_3b/3x3_reduce
I0403 15:38:11.828308  3307 net.cpp:148] Top shape: 24 128 28 28 (2408448)
I0403 15:38:11.828325  3307 net.cpp:156] Memory required for data: 686408736
I0403 15:38:11.828343  3307 layer_factory.hpp:77] Creating layer inception_3b/relu_3x3_reduce
I0403 15:38:11.828362  3307 net.cpp:91] Creating Layer inception_3b/relu_3x3_reduce
I0403 15:38:11.828378  3307 net.cpp:425] inception_3b/relu_3x3_reduce <- inception_3b/3x3_reduce
I0403 15:38:11.828399  3307 net.cpp:386] inception_3b/relu_3x3_reduce -> inception_3b/3x3_reduce (in-place)
I0403 15:38:11.828578  3307 net.cpp:141] Setting up inception_3b/relu_3x3_reduce
I0403 15:38:11.828603  3307 net.cpp:148] Top shape: 24 128 28 28 (2408448)
I0403 15:38:11.828619  3307 net.cpp:156] Memory required for data: 696042528
I0403 15:38:11.828634  3307 layer_factory.hpp:77] Creating layer inception_3b/3x3
I0403 15:38:11.828660  3307 net.cpp:91] Creating Layer inception_3b/3x3
I0403 15:38:11.828678  3307 net.cpp:425] inception_3b/3x3 <- inception_3b/3x3_reduce
I0403 15:38:11.828698  3307 net.cpp:399] inception_3b/3x3 -> inception_3b/3x3
I0403 15:38:11.831678  3307 net.cpp:141] Setting up inception_3b/3x3
I0403 15:38:11.831707  3307 net.cpp:148] Top shape: 24 192 28 28 (3612672)
I0403 15:38:11.831723  3307 net.cpp:156] Memory required for data: 710493216
I0403 15:38:11.831743  3307 layer_factory.hpp:77] Creating layer inception_3b/relu_3x3
I0403 15:38:11.831764  3307 net.cpp:91] Creating Layer inception_3b/relu_3x3
I0403 15:38:11.831781  3307 net.cpp:425] inception_3b/relu_3x3 <- inception_3b/3x3
I0403 15:38:11.831799  3307 net.cpp:386] inception_3b/relu_3x3 -> inception_3b/3x3 (in-place)
I0403 15:38:11.832077  3307 net.cpp:141] Setting up inception_3b/relu_3x3
I0403 15:38:11.832104  3307 net.cpp:148] Top shape: 24 192 28 28 (3612672)
I0403 15:38:11.832120  3307 net.cpp:156] Memory required for data: 724943904
I0403 15:38:11.832135  3307 layer_factory.hpp:77] Creating layer inception_3b/5x5_reduce
I0403 15:38:11.832159  3307 net.cpp:91] Creating Layer inception_3b/5x5_reduce
I0403 15:38:11.832178  3307 net.cpp:425] inception_3b/5x5_reduce <- inception_3a/output_inception_3a/output_0_split_2
I0403 15:38:11.832200  3307 net.cpp:399] inception_3b/5x5_reduce -> inception_3b/5x5_reduce
I0403 15:38:11.833221  3307 net.cpp:141] Setting up inception_3b/5x5_reduce
I0403 15:38:11.833250  3307 net.cpp:148] Top shape: 24 32 28 28 (602112)
I0403 15:38:11.833266  3307 net.cpp:156] Memory required for data: 727352352
I0403 15:38:11.833287  3307 layer_factory.hpp:77] Creating layer inception_3b/relu_5x5_reduce
I0403 15:38:11.833304  3307 net.cpp:91] Creating Layer inception_3b/relu_5x5_reduce
I0403 15:38:11.833320  3307 net.cpp:425] inception_3b/relu_5x5_reduce <- inception_3b/5x5_reduce
I0403 15:38:11.833341  3307 net.cpp:386] inception_3b/relu_5x5_reduce -> inception_3b/5x5_reduce (in-place)
I0403 15:38:11.833535  3307 net.cpp:141] Setting up inception_3b/relu_5x5_reduce
I0403 15:38:11.833561  3307 net.cpp:148] Top shape: 24 32 28 28 (602112)
I0403 15:38:11.833577  3307 net.cpp:156] Memory required for data: 729760800
I0403 15:38:11.833591  3307 layer_factory.hpp:77] Creating layer inception_3b/5x5
I0403 15:38:11.833614  3307 net.cpp:91] Creating Layer inception_3b/5x5
I0403 15:38:11.833632  3307 net.cpp:425] inception_3b/5x5 <- inception_3b/5x5_reduce
I0403 15:38:11.833653  3307 net.cpp:399] inception_3b/5x5 -> inception_3b/5x5
I0403 15:38:11.835718  3307 net.cpp:141] Setting up inception_3b/5x5
I0403 15:38:11.835752  3307 net.cpp:148] Top shape: 24 96 28 28 (1806336)
I0403 15:38:11.835769  3307 net.cpp:156] Memory required for data: 736986144
I0403 15:38:11.835789  3307 layer_factory.hpp:77] Creating layer inception_3b/relu_5x5
I0403 15:38:11.835808  3307 net.cpp:91] Creating Layer inception_3b/relu_5x5
I0403 15:38:11.835825  3307 net.cpp:425] inception_3b/relu_5x5 <- inception_3b/5x5
I0403 15:38:11.835846  3307 net.cpp:386] inception_3b/relu_5x5 -> inception_3b/5x5 (in-place)
I0403 15:38:11.836052  3307 net.cpp:141] Setting up inception_3b/relu_5x5
I0403 15:38:11.836078  3307 net.cpp:148] Top shape: 24 96 28 28 (1806336)
I0403 15:38:11.836094  3307 net.cpp:156] Memory required for data: 744211488
I0403 15:38:11.836109  3307 layer_factory.hpp:77] Creating layer inception_3b/pool
I0403 15:38:11.836128  3307 net.cpp:91] Creating Layer inception_3b/pool
I0403 15:38:11.836145  3307 net.cpp:425] inception_3b/pool <- inception_3a/output_inception_3a/output_0_split_3
I0403 15:38:11.836165  3307 net.cpp:399] inception_3b/pool -> inception_3b/pool
I0403 15:38:11.836228  3307 net.cpp:141] Setting up inception_3b/pool
I0403 15:38:11.836253  3307 net.cpp:148] Top shape: 24 256 28 28 (4816896)
I0403 15:38:11.836268  3307 net.cpp:156] Memory required for data: 763479072
I0403 15:38:11.836284  3307 layer_factory.hpp:77] Creating layer inception_3b/pool_proj
I0403 15:38:11.836309  3307 net.cpp:91] Creating Layer inception_3b/pool_proj
I0403 15:38:11.836328  3307 net.cpp:425] inception_3b/pool_proj <- inception_3b/pool
I0403 15:38:11.836349  3307 net.cpp:399] inception_3b/pool_proj -> inception_3b/pool_proj
I0403 15:38:11.837460  3307 net.cpp:141] Setting up inception_3b/pool_proj
I0403 15:38:11.837487  3307 net.cpp:148] Top shape: 24 64 28 28 (1204224)
I0403 15:38:11.837504  3307 net.cpp:156] Memory required for data: 768295968
I0403 15:38:11.837523  3307 layer_factory.hpp:77] Creating layer inception_3b/relu_pool_proj
I0403 15:38:11.837545  3307 net.cpp:91] Creating Layer inception_3b/relu_pool_proj
I0403 15:38:11.837564  3307 net.cpp:425] inception_3b/relu_pool_proj <- inception_3b/pool_proj
I0403 15:38:11.837582  3307 net.cpp:386] inception_3b/relu_pool_proj -> inception_3b/pool_proj (in-place)
I0403 15:38:11.837993  3307 net.cpp:141] Setting up inception_3b/relu_pool_proj
I0403 15:38:11.838021  3307 net.cpp:148] Top shape: 24 64 28 28 (1204224)
I0403 15:38:11.838037  3307 net.cpp:156] Memory required for data: 773112864
I0403 15:38:11.838053  3307 layer_factory.hpp:77] Creating layer inception_3b/output
I0403 15:38:11.838074  3307 net.cpp:91] Creating Layer inception_3b/output
I0403 15:38:11.838091  3307 net.cpp:425] inception_3b/output <- inception_3b/1x1
I0403 15:38:11.838110  3307 net.cpp:425] inception_3b/output <- inception_3b/3x3
I0403 15:38:11.838127  3307 net.cpp:425] inception_3b/output <- inception_3b/5x5
I0403 15:38:11.838143  3307 net.cpp:425] inception_3b/output <- inception_3b/pool_proj
I0403 15:38:11.838161  3307 net.cpp:399] inception_3b/output -> inception_3b/output
I0403 15:38:11.838207  3307 net.cpp:141] Setting up inception_3b/output
I0403 15:38:11.838239  3307 net.cpp:148] Top shape: 24 480 28 28 (9031680)
I0403 15:38:11.838255  3307 net.cpp:156] Memory required for data: 809239584
I0403 15:38:11.838271  3307 layer_factory.hpp:77] Creating layer pool3/3x3_s2
I0403 15:38:11.838295  3307 net.cpp:91] Creating Layer pool3/3x3_s2
I0403 15:38:11.838312  3307 net.cpp:425] pool3/3x3_s2 <- inception_3b/output
I0403 15:38:11.838348  3307 net.cpp:399] pool3/3x3_s2 -> pool3/3x3_s2
I0403 15:38:11.838409  3307 net.cpp:141] Setting up pool3/3x3_s2
I0403 15:38:11.838436  3307 net.cpp:148] Top shape: 24 480 14 14 (2257920)
I0403 15:38:11.838452  3307 net.cpp:156] Memory required for data: 818271264
I0403 15:38:11.838467  3307 layer_factory.hpp:77] Creating layer pool3/3x3_s2_pool3/3x3_s2_0_split
I0403 15:38:11.838486  3307 net.cpp:91] Creating Layer pool3/3x3_s2_pool3/3x3_s2_0_split
I0403 15:38:11.838502  3307 net.cpp:425] pool3/3x3_s2_pool3/3x3_s2_0_split <- pool3/3x3_s2
I0403 15:38:11.838521  3307 net.cpp:399] pool3/3x3_s2_pool3/3x3_s2_0_split -> pool3/3x3_s2_pool3/3x3_s2_0_split_0
I0403 15:38:11.838541  3307 net.cpp:399] pool3/3x3_s2_pool3/3x3_s2_0_split -> pool3/3x3_s2_pool3/3x3_s2_0_split_1
I0403 15:38:11.838563  3307 net.cpp:399] pool3/3x3_s2_pool3/3x3_s2_0_split -> pool3/3x3_s2_pool3/3x3_s2_0_split_2
I0403 15:38:11.838584  3307 net.cpp:399] pool3/3x3_s2_pool3/3x3_s2_0_split -> pool3/3x3_s2_pool3/3x3_s2_0_split_3
I0403 15:38:11.838665  3307 net.cpp:141] Setting up pool3/3x3_s2_pool3/3x3_s2_0_split
I0403 15:38:11.838690  3307 net.cpp:148] Top shape: 24 480 14 14 (2257920)
I0403 15:38:11.838706  3307 net.cpp:148] Top shape: 24 480 14 14 (2257920)
I0403 15:38:11.838723  3307 net.cpp:148] Top shape: 24 480 14 14 (2257920)
I0403 15:38:11.838740  3307 net.cpp:148] Top shape: 24 480 14 14 (2257920)
I0403 15:38:11.838755  3307 net.cpp:156] Memory required for data: 854397984
I0403 15:38:11.838770  3307 layer_factory.hpp:77] Creating layer inception_4a/1x1
I0403 15:38:11.838796  3307 net.cpp:91] Creating Layer inception_4a/1x1
I0403 15:38:11.838815  3307 net.cpp:425] inception_4a/1x1 <- pool3/3x3_s2_pool3/3x3_s2_0_split_0
I0403 15:38:11.838838  3307 net.cpp:399] inception_4a/1x1 -> inception_4a/1x1
I0403 15:38:11.840492  3307 net.cpp:141] Setting up inception_4a/1x1
I0403 15:38:11.840523  3307 net.cpp:148] Top shape: 24 192 14 14 (903168)
I0403 15:38:11.840539  3307 net.cpp:156] Memory required for data: 858010656
I0403 15:38:11.840559  3307 layer_factory.hpp:77] Creating layer inception_4a/relu_1x1
I0403 15:38:11.840580  3307 net.cpp:91] Creating Layer inception_4a/relu_1x1
I0403 15:38:11.840597  3307 net.cpp:425] inception_4a/relu_1x1 <- inception_4a/1x1
I0403 15:38:11.840616  3307 net.cpp:386] inception_4a/relu_1x1 -> inception_4a/1x1 (in-place)
I0403 15:38:11.840804  3307 net.cpp:141] Setting up inception_4a/relu_1x1
I0403 15:38:11.840831  3307 net.cpp:148] Top shape: 24 192 14 14 (903168)
I0403 15:38:11.840847  3307 net.cpp:156] Memory required for data: 861623328
I0403 15:38:11.840862  3307 layer_factory.hpp:77] Creating layer inception_4a/3x3_reduce
I0403 15:38:11.840885  3307 net.cpp:91] Creating Layer inception_4a/3x3_reduce
I0403 15:38:11.840903  3307 net.cpp:425] inception_4a/3x3_reduce <- pool3/3x3_s2_pool3/3x3_s2_0_split_1
I0403 15:38:11.840925  3307 net.cpp:399] inception_4a/3x3_reduce -> inception_4a/3x3_reduce
I0403 15:38:11.842264  3307 net.cpp:141] Setting up inception_4a/3x3_reduce
I0403 15:38:11.842294  3307 net.cpp:148] Top shape: 24 96 14 14 (451584)
I0403 15:38:11.842311  3307 net.cpp:156] Memory required for data: 863429664
I0403 15:38:11.842337  3307 layer_factory.hpp:77] Creating layer inception_4a/relu_3x3_reduce
I0403 15:38:11.842360  3307 net.cpp:91] Creating Layer inception_4a/relu_3x3_reduce
I0403 15:38:11.842378  3307 net.cpp:425] inception_4a/relu_3x3_reduce <- inception_4a/3x3_reduce
I0403 15:38:11.842397  3307 net.cpp:386] inception_4a/relu_3x3_reduce -> inception_4a/3x3_reduce (in-place)
I0403 15:38:11.842584  3307 net.cpp:141] Setting up inception_4a/relu_3x3_reduce
I0403 15:38:11.842612  3307 net.cpp:148] Top shape: 24 96 14 14 (451584)
I0403 15:38:11.842629  3307 net.cpp:156] Memory required for data: 865236000
I0403 15:38:11.842645  3307 layer_factory.hpp:77] Creating layer inception_4a/3x3
I0403 15:38:11.842669  3307 net.cpp:91] Creating Layer inception_4a/3x3
I0403 15:38:11.842686  3307 net.cpp:425] inception_4a/3x3 <- inception_4a/3x3_reduce
I0403 15:38:11.842706  3307 net.cpp:399] inception_4a/3x3 -> inception_4a/3x3
I0403 15:38:11.845525  3307 net.cpp:141] Setting up inception_4a/3x3
I0403 15:38:11.845557  3307 net.cpp:148] Top shape: 24 208 14 14 (978432)
I0403 15:38:11.845584  3307 net.cpp:156] Memory required for data: 869149728
I0403 15:38:11.845604  3307 layer_factory.hpp:77] Creating layer inception_4a/relu_3x3
I0403 15:38:11.845623  3307 net.cpp:91] Creating Layer inception_4a/relu_3x3
I0403 15:38:11.845639  3307 net.cpp:425] inception_4a/relu_3x3 <- inception_4a/3x3
I0403 15:38:11.845660  3307 net.cpp:386] inception_4a/relu_3x3 -> inception_4a/3x3 (in-place)
I0403 15:38:11.845962  3307 net.cpp:141] Setting up inception_4a/relu_3x3
I0403 15:38:11.845990  3307 net.cpp:148] Top shape: 24 208 14 14 (978432)
I0403 15:38:11.846006  3307 net.cpp:156] Memory required for data: 873063456
I0403 15:38:11.846022  3307 layer_factory.hpp:77] Creating layer inception_4a/5x5_reduce
I0403 15:38:11.846046  3307 net.cpp:91] Creating Layer inception_4a/5x5_reduce
I0403 15:38:11.846065  3307 net.cpp:425] inception_4a/5x5_reduce <- pool3/3x3_s2_pool3/3x3_s2_0_split_2
I0403 15:38:11.846084  3307 net.cpp:399] inception_4a/5x5_reduce -> inception_4a/5x5_reduce
I0403 15:38:11.847117  3307 net.cpp:141] Setting up inception_4a/5x5_reduce
I0403 15:38:11.847148  3307 net.cpp:148] Top shape: 24 16 14 14 (75264)
I0403 15:38:11.847165  3307 net.cpp:156] Memory required for data: 873364512
I0403 15:38:11.847185  3307 layer_factory.hpp:77] Creating layer inception_4a/relu_5x5_reduce
I0403 15:38:11.847203  3307 net.cpp:91] Creating Layer inception_4a/relu_5x5_reduce
I0403 15:38:11.847224  3307 net.cpp:425] inception_4a/relu_5x5_reduce <- inception_4a/5x5_reduce
I0403 15:38:11.847245  3307 net.cpp:386] inception_4a/relu_5x5_reduce -> inception_4a/5x5_reduce (in-place)
I0403 15:38:11.847432  3307 net.cpp:141] Setting up inception_4a/relu_5x5_reduce
I0403 15:38:11.847457  3307 net.cpp:148] Top shape: 24 16 14 14 (75264)
I0403 15:38:11.847472  3307 net.cpp:156] Memory required for data: 873665568
I0403 15:38:11.847488  3307 layer_factory.hpp:77] Creating layer inception_4a/5x5
I0403 15:38:11.847512  3307 net.cpp:91] Creating Layer inception_4a/5x5
I0403 15:38:11.847530  3307 net.cpp:425] inception_4a/5x5 <- inception_4a/5x5_reduce
I0403 15:38:11.847551  3307 net.cpp:399] inception_4a/5x5 -> inception_4a/5x5
I0403 15:38:11.848675  3307 net.cpp:141] Setting up inception_4a/5x5
I0403 15:38:11.848704  3307 net.cpp:148] Top shape: 24 48 14 14 (225792)
I0403 15:38:11.848721  3307 net.cpp:156] Memory required for data: 874568736
I0403 15:38:11.848739  3307 layer_factory.hpp:77] Creating layer inception_4a/relu_5x5
I0403 15:38:11.848760  3307 net.cpp:91] Creating Layer inception_4a/relu_5x5
I0403 15:38:11.848778  3307 net.cpp:425] inception_4a/relu_5x5 <- inception_4a/5x5
I0403 15:38:11.848794  3307 net.cpp:386] inception_4a/relu_5x5 -> inception_4a/5x5 (in-place)
I0403 15:38:11.848981  3307 net.cpp:141] Setting up inception_4a/relu_5x5
I0403 15:38:11.849006  3307 net.cpp:148] Top shape: 24 48 14 14 (225792)
I0403 15:38:11.849021  3307 net.cpp:156] Memory required for data: 875471904
I0403 15:38:11.849037  3307 layer_factory.hpp:77] Creating layer inception_4a/pool
I0403 15:38:11.849057  3307 net.cpp:91] Creating Layer inception_4a/pool
I0403 15:38:11.849074  3307 net.cpp:425] inception_4a/pool <- pool3/3x3_s2_pool3/3x3_s2_0_split_3
I0403 15:38:11.849095  3307 net.cpp:399] inception_4a/pool -> inception_4a/pool
I0403 15:38:11.849158  3307 net.cpp:141] Setting up inception_4a/pool
I0403 15:38:11.849181  3307 net.cpp:148] Top shape: 24 480 14 14 (2257920)
I0403 15:38:11.849196  3307 net.cpp:156] Memory required for data: 884503584
I0403 15:38:11.849215  3307 layer_factory.hpp:77] Creating layer inception_4a/pool_proj
I0403 15:38:11.849239  3307 net.cpp:91] Creating Layer inception_4a/pool_proj
I0403 15:38:11.849259  3307 net.cpp:425] inception_4a/pool_proj <- inception_4a/pool
I0403 15:38:11.849288  3307 net.cpp:399] inception_4a/pool_proj -> inception_4a/pool_proj
I0403 15:38:11.850491  3307 net.cpp:141] Setting up inception_4a/pool_proj
I0403 15:38:11.850519  3307 net.cpp:148] Top shape: 24 64 14 14 (301056)
I0403 15:38:11.850550  3307 net.cpp:156] Memory required for data: 885707808
I0403 15:38:11.850570  3307 layer_factory.hpp:77] Creating layer inception_4a/relu_pool_proj
I0403 15:38:11.850592  3307 net.cpp:91] Creating Layer inception_4a/relu_pool_proj
I0403 15:38:11.850610  3307 net.cpp:425] inception_4a/relu_pool_proj <- inception_4a/pool_proj
I0403 15:38:11.850628  3307 net.cpp:386] inception_4a/relu_pool_proj -> inception_4a/pool_proj (in-place)
I0403 15:38:11.850921  3307 net.cpp:141] Setting up inception_4a/relu_pool_proj
I0403 15:38:11.850949  3307 net.cpp:148] Top shape: 24 64 14 14 (301056)
I0403 15:38:11.850965  3307 net.cpp:156] Memory required for data: 886912032
I0403 15:38:11.850980  3307 layer_factory.hpp:77] Creating layer inception_4a/output
I0403 15:38:11.851001  3307 net.cpp:91] Creating Layer inception_4a/output
I0403 15:38:11.851016  3307 net.cpp:425] inception_4a/output <- inception_4a/1x1
I0403 15:38:11.851034  3307 net.cpp:425] inception_4a/output <- inception_4a/3x3
I0403 15:38:11.851050  3307 net.cpp:425] inception_4a/output <- inception_4a/5x5
I0403 15:38:11.851068  3307 net.cpp:425] inception_4a/output <- inception_4a/pool_proj
I0403 15:38:11.851086  3307 net.cpp:399] inception_4a/output -> inception_4a/output
I0403 15:38:11.851135  3307 net.cpp:141] Setting up inception_4a/output
I0403 15:38:11.851160  3307 net.cpp:148] Top shape: 24 512 14 14 (2408448)
I0403 15:38:11.851176  3307 net.cpp:156] Memory required for data: 896545824
I0403 15:38:11.851191  3307 layer_factory.hpp:77] Creating layer inception_4a/output_inception_4a/output_0_split
I0403 15:38:11.851212  3307 net.cpp:91] Creating Layer inception_4a/output_inception_4a/output_0_split
I0403 15:38:11.851229  3307 net.cpp:425] inception_4a/output_inception_4a/output_0_split <- inception_4a/output
I0403 15:38:11.851253  3307 net.cpp:399] inception_4a/output_inception_4a/output_0_split -> inception_4a/output_inception_4a/output_0_split_0
I0403 15:38:11.851274  3307 net.cpp:399] inception_4a/output_inception_4a/output_0_split -> inception_4a/output_inception_4a/output_0_split_1
I0403 15:38:11.851296  3307 net.cpp:399] inception_4a/output_inception_4a/output_0_split -> inception_4a/output_inception_4a/output_0_split_2
I0403 15:38:11.851317  3307 net.cpp:399] inception_4a/output_inception_4a/output_0_split -> inception_4a/output_inception_4a/output_0_split_3
I0403 15:38:11.851339  3307 net.cpp:399] inception_4a/output_inception_4a/output_0_split -> inception_4a/output_inception_4a/output_0_split_4
I0403 15:38:11.851434  3307 net.cpp:141] Setting up inception_4a/output_inception_4a/output_0_split
I0403 15:38:11.851459  3307 net.cpp:148] Top shape: 24 512 14 14 (2408448)
I0403 15:38:11.851475  3307 net.cpp:148] Top shape: 24 512 14 14 (2408448)
I0403 15:38:11.851491  3307 net.cpp:148] Top shape: 24 512 14 14 (2408448)
I0403 15:38:11.851507  3307 net.cpp:148] Top shape: 24 512 14 14 (2408448)
I0403 15:38:11.851523  3307 net.cpp:148] Top shape: 24 512 14 14 (2408448)
I0403 15:38:11.851537  3307 net.cpp:156] Memory required for data: 944714784
I0403 15:38:11.851552  3307 layer_factory.hpp:77] Creating layer loss1/ave_pool
I0403 15:38:11.851570  3307 net.cpp:91] Creating Layer loss1/ave_pool
I0403 15:38:11.851588  3307 net.cpp:425] loss1/ave_pool <- inception_4a/output_inception_4a/output_0_split_0
I0403 15:38:11.851608  3307 net.cpp:399] loss1/ave_pool -> loss1/ave_pool
I0403 15:38:11.851820  3307 net.cpp:141] Setting up loss1/ave_pool
I0403 15:38:11.851846  3307 net.cpp:148] Top shape: 24 512 4 4 (196608)
I0403 15:38:11.851862  3307 net.cpp:156] Memory required for data: 945501216
I0403 15:38:11.851877  3307 layer_factory.hpp:77] Creating layer loss1/conv
I0403 15:38:11.851899  3307 net.cpp:91] Creating Layer loss1/conv
I0403 15:38:11.851918  3307 net.cpp:425] loss1/conv <- loss1/ave_pool
I0403 15:38:11.851940  3307 net.cpp:399] loss1/conv -> loss1/conv
I0403 15:38:11.853404  3307 net.cpp:141] Setting up loss1/conv
I0403 15:38:11.853435  3307 net.cpp:148] Top shape: 24 128 4 4 (49152)
I0403 15:38:11.853466  3307 net.cpp:156] Memory required for data: 945697824
I0403 15:38:11.853485  3307 layer_factory.hpp:77] Creating layer loss1/relu_conv
I0403 15:38:11.853505  3307 net.cpp:91] Creating Layer loss1/relu_conv
I0403 15:38:11.853523  3307 net.cpp:425] loss1/relu_conv <- loss1/conv
I0403 15:38:11.853543  3307 net.cpp:386] loss1/relu_conv -> loss1/conv (in-place)
I0403 15:38:11.853832  3307 net.cpp:141] Setting up loss1/relu_conv
I0403 15:38:11.853860  3307 net.cpp:148] Top shape: 24 128 4 4 (49152)
I0403 15:38:11.853876  3307 net.cpp:156] Memory required for data: 945894432
I0403 15:38:11.853893  3307 layer_factory.hpp:77] Creating layer loss1/fc
I0403 15:38:11.853916  3307 net.cpp:91] Creating Layer loss1/fc
I0403 15:38:11.853934  3307 net.cpp:425] loss1/fc <- loss1/conv
I0403 15:38:11.853956  3307 net.cpp:399] loss1/fc -> loss1/fc
I0403 15:38:11.872298  3307 net.cpp:141] Setting up loss1/fc
I0403 15:38:11.872334  3307 net.cpp:148] Top shape: 24 1024 (24576)
I0403 15:38:11.872349  3307 net.cpp:156] Memory required for data: 945992736
I0403 15:38:11.872370  3307 layer_factory.hpp:77] Creating layer loss1/relu_fc
I0403 15:38:11.872395  3307 net.cpp:91] Creating Layer loss1/relu_fc
I0403 15:38:11.872414  3307 net.cpp:425] loss1/relu_fc <- loss1/fc
I0403 15:38:11.872436  3307 net.cpp:386] loss1/relu_fc -> loss1/fc (in-place)
I0403 15:38:11.872655  3307 net.cpp:141] Setting up loss1/relu_fc
I0403 15:38:11.872681  3307 net.cpp:148] Top shape: 24 1024 (24576)
I0403 15:38:11.872697  3307 net.cpp:156] Memory required for data: 946091040
I0403 15:38:11.872714  3307 layer_factory.hpp:77] Creating layer loss1/drop_fc
I0403 15:38:11.872743  3307 net.cpp:91] Creating Layer loss1/drop_fc
I0403 15:38:11.872761  3307 net.cpp:425] loss1/drop_fc <- loss1/fc
I0403 15:38:11.872782  3307 net.cpp:386] loss1/drop_fc -> loss1/fc (in-place)
I0403 15:38:11.872838  3307 net.cpp:141] Setting up loss1/drop_fc
I0403 15:38:11.872864  3307 net.cpp:148] Top shape: 24 1024 (24576)
I0403 15:38:11.872880  3307 net.cpp:156] Memory required for data: 946189344
I0403 15:38:11.872897  3307 layer_factory.hpp:77] Creating layer loss1/classifier_plantvillage
I0403 15:38:11.872922  3307 net.cpp:91] Creating Layer loss1/classifier_plantvillage
I0403 15:38:11.872941  3307 net.cpp:425] loss1/classifier_plantvillage <- loss1/fc
I0403 15:38:11.872961  3307 net.cpp:399] loss1/classifier_plantvillage -> loss1/classifier_plantvillage
I0403 15:38:11.873975  3307 net.cpp:141] Setting up loss1/classifier_plantvillage
I0403 15:38:11.874004  3307 net.cpp:148] Top shape: 24 38 (912)
I0403 15:38:11.874022  3307 net.cpp:156] Memory required for data: 946192992
I0403 15:38:11.874040  3307 layer_factory.hpp:77] Creating layer loss1/classifier_plantvillage_loss1/classifier_plantvillage_0_split
I0403 15:38:11.874063  3307 net.cpp:91] Creating Layer loss1/classifier_plantvillage_loss1/classifier_plantvillage_0_split
I0403 15:38:11.874080  3307 net.cpp:425] loss1/classifier_plantvillage_loss1/classifier_plantvillage_0_split <- loss1/classifier_plantvillage
I0403 15:38:11.874099  3307 net.cpp:399] loss1/classifier_plantvillage_loss1/classifier_plantvillage_0_split -> loss1/classifier_plantvillage_loss1/classifier_plantvillage_0_split_0
I0403 15:38:11.874125  3307 net.cpp:399] loss1/classifier_plantvillage_loss1/classifier_plantvillage_0_split -> loss1/classifier_plantvillage_loss1/classifier_plantvillage_0_split_1
I0403 15:38:11.874146  3307 net.cpp:399] loss1/classifier_plantvillage_loss1/classifier_plantvillage_0_split -> loss1/classifier_plantvillage_loss1/classifier_plantvillage_0_split_2
I0403 15:38:11.874222  3307 net.cpp:141] Setting up loss1/classifier_plantvillage_loss1/classifier_plantvillage_0_split
I0403 15:38:11.874248  3307 net.cpp:148] Top shape: 24 38 (912)
I0403 15:38:11.874265  3307 net.cpp:148] Top shape: 24 38 (912)
I0403 15:38:11.874282  3307 net.cpp:148] Top shape: 24 38 (912)
I0403 15:38:11.874297  3307 net.cpp:156] Memory required for data: 946203936
I0403 15:38:11.874312  3307 layer_factory.hpp:77] Creating layer inception_4b/1x1
I0403 15:38:11.874341  3307 net.cpp:91] Creating Layer inception_4b/1x1
I0403 15:38:11.874377  3307 net.cpp:425] inception_4b/1x1 <- inception_4a/output_inception_4a/output_0_split_1
I0403 15:38:11.874399  3307 net.cpp:399] inception_4b/1x1 -> inception_4b/1x1
I0403 15:38:11.876178  3307 net.cpp:141] Setting up inception_4b/1x1
I0403 15:38:11.876215  3307 net.cpp:148] Top shape: 24 160 14 14 (752640)
I0403 15:38:11.876235  3307 net.cpp:156] Memory required for data: 949214496
I0403 15:38:11.876255  3307 layer_factory.hpp:77] Creating layer inception_4b/relu_1x1
I0403 15:38:11.876276  3307 net.cpp:91] Creating Layer inception_4b/relu_1x1
I0403 15:38:11.876292  3307 net.cpp:425] inception_4b/relu_1x1 <- inception_4b/1x1
I0403 15:38:11.876314  3307 net.cpp:386] inception_4b/relu_1x1 -> inception_4b/1x1 (in-place)
I0403 15:38:11.876508  3307 net.cpp:141] Setting up inception_4b/relu_1x1
I0403 15:38:11.876535  3307 net.cpp:148] Top shape: 24 160 14 14 (752640)
I0403 15:38:11.876551  3307 net.cpp:156] Memory required for data: 952225056
I0403 15:38:11.876566  3307 layer_factory.hpp:77] Creating layer inception_4b/3x3_reduce
I0403 15:38:11.876592  3307 net.cpp:91] Creating Layer inception_4b/3x3_reduce
I0403 15:38:11.876611  3307 net.cpp:425] inception_4b/3x3_reduce <- inception_4a/output_inception_4a/output_0_split_2
I0403 15:38:11.876634  3307 net.cpp:399] inception_4b/3x3_reduce -> inception_4b/3x3_reduce
I0403 15:38:11.878069  3307 net.cpp:141] Setting up inception_4b/3x3_reduce
I0403 15:38:11.878099  3307 net.cpp:148] Top shape: 24 112 14 14 (526848)
I0403 15:38:11.878116  3307 net.cpp:156] Memory required for data: 954332448
I0403 15:38:11.878136  3307 layer_factory.hpp:77] Creating layer inception_4b/relu_3x3_reduce
I0403 15:38:11.878159  3307 net.cpp:91] Creating Layer inception_4b/relu_3x3_reduce
I0403 15:38:11.878176  3307 net.cpp:425] inception_4b/relu_3x3_reduce <- inception_4b/3x3_reduce
I0403 15:38:11.878195  3307 net.cpp:386] inception_4b/relu_3x3_reduce -> inception_4b/3x3_reduce (in-place)
I0403 15:38:11.878502  3307 net.cpp:141] Setting up inception_4b/relu_3x3_reduce
I0403 15:38:11.878530  3307 net.cpp:148] Top shape: 24 112 14 14 (526848)
I0403 15:38:11.878546  3307 net.cpp:156] Memory required for data: 956439840
I0403 15:38:11.878563  3307 layer_factory.hpp:77] Creating layer inception_4b/3x3
I0403 15:38:11.878592  3307 net.cpp:91] Creating Layer inception_4b/3x3
I0403 15:38:11.878610  3307 net.cpp:425] inception_4b/3x3 <- inception_4b/3x3_reduce
I0403 15:38:11.878633  3307 net.cpp:399] inception_4b/3x3 -> inception_4b/3x3
I0403 15:38:11.881803  3307 net.cpp:141] Setting up inception_4b/3x3
I0403 15:38:11.881832  3307 net.cpp:148] Top shape: 24 224 14 14 (1053696)
I0403 15:38:11.881850  3307 net.cpp:156] Memory required for data: 960654624
I0403 15:38:11.881870  3307 layer_factory.hpp:77] Creating layer inception_4b/relu_3x3
I0403 15:38:11.881891  3307 net.cpp:91] Creating Layer inception_4b/relu_3x3
I0403 15:38:11.881909  3307 net.cpp:425] inception_4b/relu_3x3 <- inception_4b/3x3
I0403 15:38:11.881928  3307 net.cpp:386] inception_4b/relu_3x3 -> inception_4b/3x3 (in-place)
I0403 15:38:11.882117  3307 net.cpp:141] Setting up inception_4b/relu_3x3
I0403 15:38:11.882143  3307 net.cpp:148] Top shape: 24 224 14 14 (1053696)
I0403 15:38:11.882156  3307 net.cpp:156] Memory required for data: 964869408
I0403 15:38:11.882172  3307 layer_factory.hpp:77] Creating layer inception_4b/5x5_reduce
I0403 15:38:11.882195  3307 net.cpp:91] Creating Layer inception_4b/5x5_reduce
I0403 15:38:11.882217  3307 net.cpp:425] inception_4b/5x5_reduce <- inception_4a/output_inception_4a/output_0_split_3
I0403 15:38:11.882242  3307 net.cpp:399] inception_4b/5x5_reduce -> inception_4b/5x5_reduce
I0403 15:38:11.883368  3307 net.cpp:141] Setting up inception_4b/5x5_reduce
I0403 15:38:11.883399  3307 net.cpp:148] Top shape: 24 24 14 14 (112896)
I0403 15:38:11.883415  3307 net.cpp:156] Memory required for data: 965320992
I0403 15:38:11.883435  3307 layer_factory.hpp:77] Creating layer inception_4b/relu_5x5_reduce
I0403 15:38:11.883453  3307 net.cpp:91] Creating Layer inception_4b/relu_5x5_reduce
I0403 15:38:11.883486  3307 net.cpp:425] inception_4b/relu_5x5_reduce <- inception_4b/5x5_reduce
I0403 15:38:11.883507  3307 net.cpp:386] inception_4b/relu_5x5_reduce -> inception_4b/5x5_reduce (in-place)
I0403 15:38:11.883697  3307 net.cpp:141] Setting up inception_4b/relu_5x5_reduce
I0403 15:38:11.883723  3307 net.cpp:148] Top shape: 24 24 14 14 (112896)
I0403 15:38:11.883738  3307 net.cpp:156] Memory required for data: 965772576
I0403 15:38:11.883754  3307 layer_factory.hpp:77] Creating layer inception_4b/5x5
I0403 15:38:11.883780  3307 net.cpp:91] Creating Layer inception_4b/5x5
I0403 15:38:11.883800  3307 net.cpp:425] inception_4b/5x5 <- inception_4b/5x5_reduce
I0403 15:38:11.883821  3307 net.cpp:399] inception_4b/5x5 -> inception_4b/5x5
I0403 15:38:11.885082  3307 net.cpp:141] Setting up inception_4b/5x5
I0403 15:38:11.885113  3307 net.cpp:148] Top shape: 24 64 14 14 (301056)
I0403 15:38:11.885129  3307 net.cpp:156] Memory required for data: 966976800
I0403 15:38:11.885149  3307 layer_factory.hpp:77] Creating layer inception_4b/relu_5x5
I0403 15:38:11.885167  3307 net.cpp:91] Creating Layer inception_4b/relu_5x5
I0403 15:38:11.885184  3307 net.cpp:425] inception_4b/relu_5x5 <- inception_4b/5x5
I0403 15:38:11.885205  3307 net.cpp:386] inception_4b/relu_5x5 -> inception_4b/5x5 (in-place)
I0403 15:38:11.885502  3307 net.cpp:141] Setting up inception_4b/relu_5x5
I0403 15:38:11.885530  3307 net.cpp:148] Top shape: 24 64 14 14 (301056)
I0403 15:38:11.885546  3307 net.cpp:156] Memory required for data: 968181024
I0403 15:38:11.885563  3307 layer_factory.hpp:77] Creating layer inception_4b/pool
I0403 15:38:11.885582  3307 net.cpp:91] Creating Layer inception_4b/pool
I0403 15:38:11.885598  3307 net.cpp:425] inception_4b/pool <- inception_4a/output_inception_4a/output_0_split_4
I0403 15:38:11.885618  3307 net.cpp:399] inception_4b/pool -> inception_4b/pool
I0403 15:38:11.885684  3307 net.cpp:141] Setting up inception_4b/pool
I0403 15:38:11.885711  3307 net.cpp:148] Top shape: 24 512 14 14 (2408448)
I0403 15:38:11.885727  3307 net.cpp:156] Memory required for data: 977814816
I0403 15:38:11.885742  3307 layer_factory.hpp:77] Creating layer inception_4b/pool_proj
I0403 15:38:11.885762  3307 net.cpp:91] Creating Layer inception_4b/pool_proj
I0403 15:38:11.885779  3307 net.cpp:425] inception_4b/pool_proj <- inception_4b/pool
I0403 15:38:11.885800  3307 net.cpp:399] inception_4b/pool_proj -> inception_4b/pool_proj
I0403 15:38:11.887042  3307 net.cpp:141] Setting up inception_4b/pool_proj
I0403 15:38:11.887069  3307 net.cpp:148] Top shape: 24 64 14 14 (301056)
I0403 15:38:11.887085  3307 net.cpp:156] Memory required for data: 979019040
I0403 15:38:11.887105  3307 layer_factory.hpp:77] Creating layer inception_4b/relu_pool_proj
I0403 15:38:11.887125  3307 net.cpp:91] Creating Layer inception_4b/relu_pool_proj
I0403 15:38:11.887143  3307 net.cpp:425] inception_4b/relu_pool_proj <- inception_4b/pool_proj
I0403 15:38:11.887161  3307 net.cpp:386] inception_4b/relu_pool_proj -> inception_4b/pool_proj (in-place)
I0403 15:38:11.887354  3307 net.cpp:141] Setting up inception_4b/relu_pool_proj
I0403 15:38:11.887380  3307 net.cpp:148] Top shape: 24 64 14 14 (301056)
I0403 15:38:11.887395  3307 net.cpp:156] Memory required for data: 980223264
I0403 15:38:11.887410  3307 layer_factory.hpp:77] Creating layer inception_4b/output
I0403 15:38:11.887430  3307 net.cpp:91] Creating Layer inception_4b/output
I0403 15:38:11.887447  3307 net.cpp:425] inception_4b/output <- inception_4b/1x1
I0403 15:38:11.887465  3307 net.cpp:425] inception_4b/output <- inception_4b/3x3
I0403 15:38:11.887481  3307 net.cpp:425] inception_4b/output <- inception_4b/5x5
I0403 15:38:11.887497  3307 net.cpp:425] inception_4b/output <- inception_4b/pool_proj
I0403 15:38:11.887516  3307 net.cpp:399] inception_4b/output -> inception_4b/output
I0403 15:38:11.887567  3307 net.cpp:141] Setting up inception_4b/output
I0403 15:38:11.887589  3307 net.cpp:148] Top shape: 24 512 14 14 (2408448)
I0403 15:38:11.887611  3307 net.cpp:156] Memory required for data: 989857056
I0403 15:38:11.887640  3307 layer_factory.hpp:77] Creating layer inception_4b/output_inception_4b/output_0_split
I0403 15:38:11.887658  3307 net.cpp:91] Creating Layer inception_4b/output_inception_4b/output_0_split
I0403 15:38:11.887675  3307 net.cpp:425] inception_4b/output_inception_4b/output_0_split <- inception_4b/output
I0403 15:38:11.887694  3307 net.cpp:399] inception_4b/output_inception_4b/output_0_split -> inception_4b/output_inception_4b/output_0_split_0
I0403 15:38:11.887717  3307 net.cpp:399] inception_4b/output_inception_4b/output_0_split -> inception_4b/output_inception_4b/output_0_split_1
I0403 15:38:11.887738  3307 net.cpp:399] inception_4b/output_inception_4b/output_0_split -> inception_4b/output_inception_4b/output_0_split_2
I0403 15:38:11.887759  3307 net.cpp:399] inception_4b/output_inception_4b/output_0_split -> inception_4b/output_inception_4b/output_0_split_3
I0403 15:38:11.887846  3307 net.cpp:141] Setting up inception_4b/output_inception_4b/output_0_split
I0403 15:38:11.887872  3307 net.cpp:148] Top shape: 24 512 14 14 (2408448)
I0403 15:38:11.887890  3307 net.cpp:148] Top shape: 24 512 14 14 (2408448)
I0403 15:38:11.887907  3307 net.cpp:148] Top shape: 24 512 14 14 (2408448)
I0403 15:38:11.887923  3307 net.cpp:148] Top shape: 24 512 14 14 (2408448)
I0403 15:38:11.887936  3307 net.cpp:156] Memory required for data: 1028392224
I0403 15:38:11.887951  3307 layer_factory.hpp:77] Creating layer inception_4c/1x1
I0403 15:38:11.887974  3307 net.cpp:91] Creating Layer inception_4c/1x1
I0403 15:38:11.887992  3307 net.cpp:425] inception_4c/1x1 <- inception_4b/output_inception_4b/output_0_split_0
I0403 15:38:11.888011  3307 net.cpp:399] inception_4c/1x1 -> inception_4c/1x1
I0403 15:38:11.889487  3307 net.cpp:141] Setting up inception_4c/1x1
I0403 15:38:11.889515  3307 net.cpp:148] Top shape: 24 128 14 14 (602112)
I0403 15:38:11.889531  3307 net.cpp:156] Memory required for data: 1030800672
I0403 15:38:11.889550  3307 layer_factory.hpp:77] Creating layer inception_4c/relu_1x1
I0403 15:38:11.889572  3307 net.cpp:91] Creating Layer inception_4c/relu_1x1
I0403 15:38:11.889590  3307 net.cpp:425] inception_4c/relu_1x1 <- inception_4c/1x1
I0403 15:38:11.889611  3307 net.cpp:386] inception_4c/relu_1x1 -> inception_4c/1x1 (in-place)
I0403 15:38:11.889797  3307 net.cpp:141] Setting up inception_4c/relu_1x1
I0403 15:38:11.889825  3307 net.cpp:148] Top shape: 24 128 14 14 (602112)
I0403 15:38:11.889842  3307 net.cpp:156] Memory required for data: 1033209120
I0403 15:38:11.889856  3307 layer_factory.hpp:77] Creating layer inception_4c/3x3_reduce
I0403 15:38:11.889878  3307 net.cpp:91] Creating Layer inception_4c/3x3_reduce
I0403 15:38:11.889897  3307 net.cpp:425] inception_4c/3x3_reduce <- inception_4b/output_inception_4b/output_0_split_1
I0403 15:38:11.889916  3307 net.cpp:399] inception_4c/3x3_reduce -> inception_4c/3x3_reduce
I0403 15:38:11.891924  3307 net.cpp:141] Setting up inception_4c/3x3_reduce
I0403 15:38:11.891954  3307 net.cpp:148] Top shape: 24 128 14 14 (602112)
I0403 15:38:11.891970  3307 net.cpp:156] Memory required for data: 1035617568
I0403 15:38:11.891989  3307 layer_factory.hpp:77] Creating layer inception_4c/relu_3x3_reduce
I0403 15:38:11.892007  3307 net.cpp:91] Creating Layer inception_4c/relu_3x3_reduce
I0403 15:38:11.892024  3307 net.cpp:425] inception_4c/relu_3x3_reduce <- inception_4c/3x3_reduce
I0403 15:38:11.892043  3307 net.cpp:386] inception_4c/relu_3x3_reduce -> inception_4c/3x3_reduce (in-place)
I0403 15:38:11.892333  3307 net.cpp:141] Setting up inception_4c/relu_3x3_reduce
I0403 15:38:11.892359  3307 net.cpp:148] Top shape: 24 128 14 14 (602112)
I0403 15:38:11.892374  3307 net.cpp:156] Memory required for data: 1038026016
I0403 15:38:11.892390  3307 layer_factory.hpp:77] Creating layer inception_4c/3x3
I0403 15:38:11.892413  3307 net.cpp:91] Creating Layer inception_4c/3x3
I0403 15:38:11.892431  3307 net.cpp:425] inception_4c/3x3 <- inception_4c/3x3_reduce
I0403 15:38:11.892452  3307 net.cpp:399] inception_4c/3x3 -> inception_4c/3x3
I0403 15:38:11.896090  3307 net.cpp:141] Setting up inception_4c/3x3
I0403 15:38:11.896129  3307 net.cpp:148] Top shape: 24 256 14 14 (1204224)
I0403 15:38:11.896145  3307 net.cpp:156] Memory required for data: 1042842912
I0403 15:38:11.896178  3307 layer_factory.hpp:77] Creating layer inception_4c/relu_3x3
I0403 15:38:11.896200  3307 net.cpp:91] Creating Layer inception_4c/relu_3x3
I0403 15:38:11.896222  3307 net.cpp:425] inception_4c/relu_3x3 <- inception_4c/3x3
I0403 15:38:11.896244  3307 net.cpp:386] inception_4c/relu_3x3 -> inception_4c/3x3 (in-place)
I0403 15:38:11.896425  3307 net.cpp:141] Setting up inception_4c/relu_3x3
I0403 15:38:11.896450  3307 net.cpp:148] Top shape: 24 256 14 14 (1204224)
I0403 15:38:11.896466  3307 net.cpp:156] Memory required for data: 1047659808
I0403 15:38:11.896488  3307 layer_factory.hpp:77] Creating layer inception_4c/5x5_reduce
I0403 15:38:11.896512  3307 net.cpp:91] Creating Layer inception_4c/5x5_reduce
I0403 15:38:11.896529  3307 net.cpp:425] inception_4c/5x5_reduce <- inception_4b/output_inception_4b/output_0_split_2
I0403 15:38:11.896551  3307 net.cpp:399] inception_4c/5x5_reduce -> inception_4c/5x5_reduce
I0403 15:38:11.897644  3307 net.cpp:141] Setting up inception_4c/5x5_reduce
I0403 15:38:11.897671  3307 net.cpp:148] Top shape: 24 24 14 14 (112896)
I0403 15:38:11.897687  3307 net.cpp:156] Memory required for data: 1048111392
I0403 15:38:11.897706  3307 layer_factory.hpp:77] Creating layer inception_4c/relu_5x5_reduce
I0403 15:38:11.897724  3307 net.cpp:91] Creating Layer inception_4c/relu_5x5_reduce
I0403 15:38:11.897740  3307 net.cpp:425] inception_4c/relu_5x5_reduce <- inception_4c/5x5_reduce
I0403 15:38:11.897761  3307 net.cpp:386] inception_4c/relu_5x5_reduce -> inception_4c/5x5_reduce (in-place)
I0403 15:38:11.897945  3307 net.cpp:141] Setting up inception_4c/relu_5x5_reduce
I0403 15:38:11.897969  3307 net.cpp:148] Top shape: 24 24 14 14 (112896)
I0403 15:38:11.897984  3307 net.cpp:156] Memory required for data: 1048562976
I0403 15:38:11.898000  3307 layer_factory.hpp:77] Creating layer inception_4c/5x5
I0403 15:38:11.898021  3307 net.cpp:91] Creating Layer inception_4c/5x5
I0403 15:38:11.898039  3307 net.cpp:425] inception_4c/5x5 <- inception_4c/5x5_reduce
I0403 15:38:11.898061  3307 net.cpp:399] inception_4c/5x5 -> inception_4c/5x5
I0403 15:38:11.899302  3307 net.cpp:141] Setting up inception_4c/5x5
I0403 15:38:11.899328  3307 net.cpp:148] Top shape: 24 64 14 14 (301056)
I0403 15:38:11.899344  3307 net.cpp:156] Memory required for data: 1049767200
I0403 15:38:11.899363  3307 layer_factory.hpp:77] Creating layer inception_4c/relu_5x5
I0403 15:38:11.899382  3307 net.cpp:91] Creating Layer inception_4c/relu_5x5
I0403 15:38:11.899399  3307 net.cpp:425] inception_4c/relu_5x5 <- inception_4c/5x5
I0403 15:38:11.899416  3307 net.cpp:386] inception_4c/relu_5x5 -> inception_4c/5x5 (in-place)
I0403 15:38:11.899706  3307 net.cpp:141] Setting up inception_4c/relu_5x5
I0403 15:38:11.899732  3307 net.cpp:148] Top shape: 24 64 14 14 (301056)
I0403 15:38:11.899747  3307 net.cpp:156] Memory required for data: 1050971424
I0403 15:38:11.899762  3307 layer_factory.hpp:77] Creating layer inception_4c/pool
I0403 15:38:11.899782  3307 net.cpp:91] Creating Layer inception_4c/pool
I0403 15:38:11.899798  3307 net.cpp:425] inception_4c/pool <- inception_4b/output_inception_4b/output_0_split_3
I0403 15:38:11.899816  3307 net.cpp:399] inception_4c/pool -> inception_4c/pool
I0403 15:38:11.899883  3307 net.cpp:141] Setting up inception_4c/pool
I0403 15:38:11.899909  3307 net.cpp:148] Top shape: 24 512 14 14 (2408448)
I0403 15:38:11.899925  3307 net.cpp:156] Memory required for data: 1060605216
I0403 15:38:11.899940  3307 layer_factory.hpp:77] Creating layer inception_4c/pool_proj
I0403 15:38:11.899961  3307 net.cpp:91] Creating Layer inception_4c/pool_proj
I0403 15:38:11.899979  3307 net.cpp:425] inception_4c/pool_proj <- inception_4c/pool
I0403 15:38:11.900001  3307 net.cpp:399] inception_4c/pool_proj -> inception_4c/pool_proj
I0403 15:38:11.901219  3307 net.cpp:141] Setting up inception_4c/pool_proj
I0403 15:38:11.901249  3307 net.cpp:148] Top shape: 24 64 14 14 (301056)
I0403 15:38:11.901278  3307 net.cpp:156] Memory required for data: 1061809440
I0403 15:38:11.901298  3307 layer_factory.hpp:77] Creating layer inception_4c/relu_pool_proj
I0403 15:38:11.901315  3307 net.cpp:91] Creating Layer inception_4c/relu_pool_proj
I0403 15:38:11.901331  3307 net.cpp:425] inception_4c/relu_pool_proj <- inception_4c/pool_proj
I0403 15:38:11.901363  3307 net.cpp:386] inception_4c/relu_pool_proj -> inception_4c/pool_proj (in-place)
I0403 15:38:11.901552  3307 net.cpp:141] Setting up inception_4c/relu_pool_proj
I0403 15:38:11.901578  3307 net.cpp:148] Top shape: 24 64 14 14 (301056)
I0403 15:38:11.901593  3307 net.cpp:156] Memory required for data: 1063013664
I0403 15:38:11.901608  3307 layer_factory.hpp:77] Creating layer inception_4c/output
I0403 15:38:11.901625  3307 net.cpp:91] Creating Layer inception_4c/output
I0403 15:38:11.901641  3307 net.cpp:425] inception_4c/output <- inception_4c/1x1
I0403 15:38:11.901659  3307 net.cpp:425] inception_4c/output <- inception_4c/3x3
I0403 15:38:11.901674  3307 net.cpp:425] inception_4c/output <- inception_4c/5x5
I0403 15:38:11.901691  3307 net.cpp:425] inception_4c/output <- inception_4c/pool_proj
I0403 15:38:11.901710  3307 net.cpp:399] inception_4c/output -> inception_4c/output
I0403 15:38:11.901772  3307 net.cpp:141] Setting up inception_4c/output
I0403 15:38:11.901795  3307 net.cpp:148] Top shape: 24 512 14 14 (2408448)
I0403 15:38:11.901810  3307 net.cpp:156] Memory required for data: 1072647456
I0403 15:38:11.901825  3307 layer_factory.hpp:77] Creating layer inception_4c/output_inception_4c/output_0_split
I0403 15:38:11.901842  3307 net.cpp:91] Creating Layer inception_4c/output_inception_4c/output_0_split
I0403 15:38:11.901857  3307 net.cpp:425] inception_4c/output_inception_4c/output_0_split <- inception_4c/output
I0403 15:38:11.901877  3307 net.cpp:399] inception_4c/output_inception_4c/output_0_split -> inception_4c/output_inception_4c/output_0_split_0
I0403 15:38:11.901897  3307 net.cpp:399] inception_4c/output_inception_4c/output_0_split -> inception_4c/output_inception_4c/output_0_split_1
I0403 15:38:11.901918  3307 net.cpp:399] inception_4c/output_inception_4c/output_0_split -> inception_4c/output_inception_4c/output_0_split_2
I0403 15:38:11.901939  3307 net.cpp:399] inception_4c/output_inception_4c/output_0_split -> inception_4c/output_inception_4c/output_0_split_3
I0403 15:38:11.902026  3307 net.cpp:141] Setting up inception_4c/output_inception_4c/output_0_split
I0403 15:38:11.902051  3307 net.cpp:148] Top shape: 24 512 14 14 (2408448)
I0403 15:38:11.902068  3307 net.cpp:148] Top shape: 24 512 14 14 (2408448)
I0403 15:38:11.902084  3307 net.cpp:148] Top shape: 24 512 14 14 (2408448)
I0403 15:38:11.902101  3307 net.cpp:148] Top shape: 24 512 14 14 (2408448)
I0403 15:38:11.902114  3307 net.cpp:156] Memory required for data: 1111182624
I0403 15:38:11.902128  3307 layer_factory.hpp:77] Creating layer inception_4d/1x1
I0403 15:38:11.902153  3307 net.cpp:91] Creating Layer inception_4d/1x1
I0403 15:38:11.902169  3307 net.cpp:425] inception_4d/1x1 <- inception_4c/output_inception_4c/output_0_split_0
I0403 15:38:11.902189  3307 net.cpp:399] inception_4d/1x1 -> inception_4d/1x1
I0403 15:38:11.903578  3307 net.cpp:141] Setting up inception_4d/1x1
I0403 15:38:11.903605  3307 net.cpp:148] Top shape: 24 112 14 14 (526848)
I0403 15:38:11.903621  3307 net.cpp:156] Memory required for data: 1113290016
I0403 15:38:11.903640  3307 layer_factory.hpp:77] Creating layer inception_4d/relu_1x1
I0403 15:38:11.903659  3307 net.cpp:91] Creating Layer inception_4d/relu_1x1
I0403 15:38:11.903676  3307 net.cpp:425] inception_4d/relu_1x1 <- inception_4d/1x1
I0403 15:38:11.903694  3307 net.cpp:386] inception_4d/relu_1x1 -> inception_4d/1x1 (in-place)
I0403 15:38:11.903882  3307 net.cpp:141] Setting up inception_4d/relu_1x1
I0403 15:38:11.903905  3307 net.cpp:148] Top shape: 24 112 14 14 (526848)
I0403 15:38:11.903920  3307 net.cpp:156] Memory required for data: 1115397408
I0403 15:38:11.903934  3307 layer_factory.hpp:77] Creating layer inception_4d/3x3_reduce
I0403 15:38:11.903970  3307 net.cpp:91] Creating Layer inception_4d/3x3_reduce
I0403 15:38:11.903988  3307 net.cpp:425] inception_4d/3x3_reduce <- inception_4c/output_inception_4c/output_0_split_1
I0403 15:38:11.904011  3307 net.cpp:399] inception_4d/3x3_reduce -> inception_4d/3x3_reduce
I0403 15:38:11.905522  3307 net.cpp:141] Setting up inception_4d/3x3_reduce
I0403 15:38:11.905550  3307 net.cpp:148] Top shape: 24 144 14 14 (677376)
I0403 15:38:11.905565  3307 net.cpp:156] Memory required for data: 1118106912
I0403 15:38:11.905583  3307 layer_factory.hpp:77] Creating layer inception_4d/relu_3x3_reduce
I0403 15:38:11.905604  3307 net.cpp:91] Creating Layer inception_4d/relu_3x3_reduce
I0403 15:38:11.905621  3307 net.cpp:425] inception_4d/relu_3x3_reduce <- inception_4d/3x3_reduce
I0403 15:38:11.905637  3307 net.cpp:386] inception_4d/relu_3x3_reduce -> inception_4d/3x3_reduce (in-place)
I0403 15:38:11.905925  3307 net.cpp:141] Setting up inception_4d/relu_3x3_reduce
I0403 15:38:11.905951  3307 net.cpp:148] Top shape: 24 144 14 14 (677376)
I0403 15:38:11.905966  3307 net.cpp:156] Memory required for data: 1120816416
I0403 15:38:11.905982  3307 layer_factory.hpp:77] Creating layer inception_4d/3x3
I0403 15:38:11.906004  3307 net.cpp:91] Creating Layer inception_4d/3x3
I0403 15:38:11.906021  3307 net.cpp:425] inception_4d/3x3 <- inception_4d/3x3_reduce
I0403 15:38:11.906043  3307 net.cpp:399] inception_4d/3x3 -> inception_4d/3x3
I0403 15:38:11.910310  3307 net.cpp:141] Setting up inception_4d/3x3
I0403 15:38:11.910341  3307 net.cpp:148] Top shape: 24 288 14 14 (1354752)
I0403 15:38:11.910357  3307 net.cpp:156] Memory required for data: 1126235424
I0403 15:38:11.910377  3307 layer_factory.hpp:77] Creating layer inception_4d/relu_3x3
I0403 15:38:11.910394  3307 net.cpp:91] Creating Layer inception_4d/relu_3x3
I0403 15:38:11.910411  3307 net.cpp:425] inception_4d/relu_3x3 <- inception_4d/3x3
I0403 15:38:11.910430  3307 net.cpp:386] inception_4d/relu_3x3 -> inception_4d/3x3 (in-place)
I0403 15:38:11.910624  3307 net.cpp:141] Setting up inception_4d/relu_3x3
I0403 15:38:11.910651  3307 net.cpp:148] Top shape: 24 288 14 14 (1354752)
I0403 15:38:11.910666  3307 net.cpp:156] Memory required for data: 1131654432
I0403 15:38:11.910681  3307 layer_factory.hpp:77] Creating layer inception_4d/5x5_reduce
I0403 15:38:11.910703  3307 net.cpp:91] Creating Layer inception_4d/5x5_reduce
I0403 15:38:11.910722  3307 net.cpp:425] inception_4d/5x5_reduce <- inception_4c/output_inception_4c/output_0_split_2
I0403 15:38:11.910743  3307 net.cpp:399] inception_4d/5x5_reduce -> inception_4d/5x5_reduce
I0403 15:38:11.911888  3307 net.cpp:141] Setting up inception_4d/5x5_reduce
I0403 15:38:11.911918  3307 net.cpp:148] Top shape: 24 32 14 14 (150528)
I0403 15:38:11.911934  3307 net.cpp:156] Memory required for data: 1132256544
I0403 15:38:11.911953  3307 layer_factory.hpp:77] Creating layer inception_4d/relu_5x5_reduce
I0403 15:38:11.911972  3307 net.cpp:91] Creating Layer inception_4d/relu_5x5_reduce
I0403 15:38:11.911988  3307 net.cpp:425] inception_4d/relu_5x5_reduce <- inception_4d/5x5_reduce
I0403 15:38:11.912008  3307 net.cpp:386] inception_4d/relu_5x5_reduce -> inception_4d/5x5_reduce (in-place)
I0403 15:38:11.912194  3307 net.cpp:141] Setting up inception_4d/relu_5x5_reduce
I0403 15:38:11.912237  3307 net.cpp:148] Top shape: 24 32 14 14 (150528)
I0403 15:38:11.912255  3307 net.cpp:156] Memory required for data: 1132858656
I0403 15:38:11.912269  3307 layer_factory.hpp:77] Creating layer inception_4d/5x5
I0403 15:38:11.912305  3307 net.cpp:91] Creating Layer inception_4d/5x5
I0403 15:38:11.912324  3307 net.cpp:425] inception_4d/5x5 <- inception_4d/5x5_reduce
I0403 15:38:11.912348  3307 net.cpp:399] inception_4d/5x5 -> inception_4d/5x5
I0403 15:38:11.913887  3307 net.cpp:141] Setting up inception_4d/5x5
I0403 15:38:11.913915  3307 net.cpp:148] Top shape: 24 64 14 14 (301056)
I0403 15:38:11.913931  3307 net.cpp:156] Memory required for data: 1134062880
I0403 15:38:11.913951  3307 layer_factory.hpp:77] Creating layer inception_4d/relu_5x5
I0403 15:38:11.913985  3307 net.cpp:91] Creating Layer inception_4d/relu_5x5
I0403 15:38:11.914003  3307 net.cpp:425] inception_4d/relu_5x5 <- inception_4d/5x5
I0403 15:38:11.914023  3307 net.cpp:386] inception_4d/relu_5x5 -> inception_4d/5x5 (in-place)
I0403 15:38:11.914337  3307 net.cpp:141] Setting up inception_4d/relu_5x5
I0403 15:38:11.914364  3307 net.cpp:148] Top shape: 24 64 14 14 (301056)
I0403 15:38:11.914379  3307 net.cpp:156] Memory required for data: 1135267104
I0403 15:38:11.914394  3307 layer_factory.hpp:77] Creating layer inception_4d/pool
I0403 15:38:11.914412  3307 net.cpp:91] Creating Layer inception_4d/pool
I0403 15:38:11.914429  3307 net.cpp:425] inception_4d/pool <- inception_4c/output_inception_4c/output_0_split_3
I0403 15:38:11.914453  3307 net.cpp:399] inception_4d/pool -> inception_4d/pool
I0403 15:38:11.914522  3307 net.cpp:141] Setting up inception_4d/pool
I0403 15:38:11.914547  3307 net.cpp:148] Top shape: 24 512 14 14 (2408448)
I0403 15:38:11.914561  3307 net.cpp:156] Memory required for data: 1144900896
I0403 15:38:11.914575  3307 layer_factory.hpp:77] Creating layer inception_4d/pool_proj
I0403 15:38:11.914600  3307 net.cpp:91] Creating Layer inception_4d/pool_proj
I0403 15:38:11.914618  3307 net.cpp:425] inception_4d/pool_proj <- inception_4d/pool
I0403 15:38:11.914638  3307 net.cpp:399] inception_4d/pool_proj -> inception_4d/pool_proj
I0403 15:38:11.916445  3307 net.cpp:141] Setting up inception_4d/pool_proj
I0403 15:38:11.916476  3307 net.cpp:148] Top shape: 24 64 14 14 (301056)
I0403 15:38:11.916493  3307 net.cpp:156] Memory required for data: 1146105120
I0403 15:38:11.916513  3307 layer_factory.hpp:77] Creating layer inception_4d/relu_pool_proj
I0403 15:38:11.916532  3307 net.cpp:91] Creating Layer inception_4d/relu_pool_proj
I0403 15:38:11.916548  3307 net.cpp:425] inception_4d/relu_pool_proj <- inception_4d/pool_proj
I0403 15:38:11.916566  3307 net.cpp:386] inception_4d/relu_pool_proj -> inception_4d/pool_proj (in-place)
I0403 15:38:11.916762  3307 net.cpp:141] Setting up inception_4d/relu_pool_proj
I0403 15:38:11.916788  3307 net.cpp:148] Top shape: 24 64 14 14 (301056)
I0403 15:38:11.916803  3307 net.cpp:156] Memory required for data: 1147309344
I0403 15:38:11.916820  3307 layer_factory.hpp:77] Creating layer inception_4d/output
I0403 15:38:11.916836  3307 net.cpp:91] Creating Layer inception_4d/output
I0403 15:38:11.916852  3307 net.cpp:425] inception_4d/output <- inception_4d/1x1
I0403 15:38:11.916869  3307 net.cpp:425] inception_4d/output <- inception_4d/3x3
I0403 15:38:11.916887  3307 net.cpp:425] inception_4d/output <- inception_4d/5x5
I0403 15:38:11.916903  3307 net.cpp:425] inception_4d/output <- inception_4d/pool_proj
I0403 15:38:11.916923  3307 net.cpp:399] inception_4d/output -> inception_4d/output
I0403 15:38:11.916972  3307 net.cpp:141] Setting up inception_4d/output
I0403 15:38:11.916998  3307 net.cpp:148] Top shape: 24 528 14 14 (2483712)
I0403 15:38:11.917014  3307 net.cpp:156] Memory required for data: 1157244192
I0403 15:38:11.917029  3307 layer_factory.hpp:77] Creating layer inception_4d/output_inception_4d/output_0_split
I0403 15:38:11.917047  3307 net.cpp:91] Creating Layer inception_4d/output_inception_4d/output_0_split
I0403 15:38:11.917063  3307 net.cpp:425] inception_4d/output_inception_4d/output_0_split <- inception_4d/output
I0403 15:38:11.917085  3307 net.cpp:399] inception_4d/output_inception_4d/output_0_split -> inception_4d/output_inception_4d/output_0_split_0
I0403 15:38:11.917107  3307 net.cpp:399] inception_4d/output_inception_4d/output_0_split -> inception_4d/output_inception_4d/output_0_split_1
I0403 15:38:11.917129  3307 net.cpp:399] inception_4d/output_inception_4d/output_0_split -> inception_4d/output_inception_4d/output_0_split_2
I0403 15:38:11.917151  3307 net.cpp:399] inception_4d/output_inception_4d/output_0_split -> inception_4d/output_inception_4d/output_0_split_3
I0403 15:38:11.917172  3307 net.cpp:399] inception_4d/output_inception_4d/output_0_split -> inception_4d/output_inception_4d/output_0_split_4
I0403 15:38:11.917281  3307 net.cpp:141] Setting up inception_4d/output_inception_4d/output_0_split
I0403 15:38:11.917318  3307 net.cpp:148] Top shape: 24 528 14 14 (2483712)
I0403 15:38:11.917335  3307 net.cpp:148] Top shape: 24 528 14 14 (2483712)
I0403 15:38:11.917351  3307 net.cpp:148] Top shape: 24 528 14 14 (2483712)
I0403 15:38:11.917367  3307 net.cpp:148] Top shape: 24 528 14 14 (2483712)
I0403 15:38:11.917383  3307 net.cpp:148] Top shape: 24 528 14 14 (2483712)
I0403 15:38:11.917397  3307 net.cpp:156] Memory required for data: 1206918432
I0403 15:38:11.917412  3307 layer_factory.hpp:77] Creating layer loss2/ave_pool
I0403 15:38:11.917435  3307 net.cpp:91] Creating Layer loss2/ave_pool
I0403 15:38:11.917454  3307 net.cpp:425] loss2/ave_pool <- inception_4d/output_inception_4d/output_0_split_0
I0403 15:38:11.917474  3307 net.cpp:399] loss2/ave_pool -> loss2/ave_pool
I0403 15:38:11.917794  3307 net.cpp:141] Setting up loss2/ave_pool
I0403 15:38:11.917824  3307 net.cpp:148] Top shape: 24 528 4 4 (202752)
I0403 15:38:11.917840  3307 net.cpp:156] Memory required for data: 1207729440
I0403 15:38:11.917856  3307 layer_factory.hpp:77] Creating layer loss2/conv
I0403 15:38:11.917878  3307 net.cpp:91] Creating Layer loss2/conv
I0403 15:38:11.917896  3307 net.cpp:425] loss2/conv <- loss2/ave_pool
I0403 15:38:11.917917  3307 net.cpp:399] loss2/conv -> loss2/conv
I0403 15:38:11.919865  3307 net.cpp:141] Setting up loss2/conv
I0403 15:38:11.919894  3307 net.cpp:148] Top shape: 24 128 4 4 (49152)
I0403 15:38:11.919910  3307 net.cpp:156] Memory required for data: 1207926048
I0403 15:38:11.919929  3307 layer_factory.hpp:77] Creating layer loss2/relu_conv
I0403 15:38:11.919950  3307 net.cpp:91] Creating Layer loss2/relu_conv
I0403 15:38:11.919968  3307 net.cpp:425] loss2/relu_conv <- loss2/conv
I0403 15:38:11.919986  3307 net.cpp:386] loss2/relu_conv -> loss2/conv (in-place)
I0403 15:38:11.920282  3307 net.cpp:141] Setting up loss2/relu_conv
I0403 15:38:11.920310  3307 net.cpp:148] Top shape: 24 128 4 4 (49152)
I0403 15:38:11.920325  3307 net.cpp:156] Memory required for data: 1208122656
I0403 15:38:11.920341  3307 layer_factory.hpp:77] Creating layer loss2/fc
I0403 15:38:11.920364  3307 net.cpp:91] Creating Layer loss2/fc
I0403 15:38:11.920382  3307 net.cpp:425] loss2/fc <- loss2/conv
I0403 15:38:11.920402  3307 net.cpp:399] loss2/fc -> loss2/fc
I0403 15:38:11.938874  3307 net.cpp:141] Setting up loss2/fc
I0403 15:38:11.938936  3307 net.cpp:148] Top shape: 24 1024 (24576)
I0403 15:38:11.938952  3307 net.cpp:156] Memory required for data: 1208220960
I0403 15:38:11.938973  3307 layer_factory.hpp:77] Creating layer loss2/relu_fc
I0403 15:38:11.938994  3307 net.cpp:91] Creating Layer loss2/relu_fc
I0403 15:38:11.939013  3307 net.cpp:425] loss2/relu_fc <- loss2/fc
I0403 15:38:11.939034  3307 net.cpp:386] loss2/relu_fc -> loss2/fc (in-place)
I0403 15:38:11.939381  3307 net.cpp:141] Setting up loss2/relu_fc
I0403 15:38:11.939411  3307 net.cpp:148] Top shape: 24 1024 (24576)
I0403 15:38:11.939427  3307 net.cpp:156] Memory required for data: 1208319264
I0403 15:38:11.939445  3307 layer_factory.hpp:77] Creating layer loss2/drop_fc
I0403 15:38:11.939463  3307 net.cpp:91] Creating Layer loss2/drop_fc
I0403 15:38:11.939479  3307 net.cpp:425] loss2/drop_fc <- loss2/fc
I0403 15:38:11.939499  3307 net.cpp:386] loss2/drop_fc -> loss2/fc (in-place)
I0403 15:38:11.939549  3307 net.cpp:141] Setting up loss2/drop_fc
I0403 15:38:11.939574  3307 net.cpp:148] Top shape: 24 1024 (24576)
I0403 15:38:11.939589  3307 net.cpp:156] Memory required for data: 1208417568
I0403 15:38:11.939604  3307 layer_factory.hpp:77] Creating layer loss2/classifier_plantvillage
I0403 15:38:11.939626  3307 net.cpp:91] Creating Layer loss2/classifier_plantvillage
I0403 15:38:11.939643  3307 net.cpp:425] loss2/classifier_plantvillage <- loss2/fc
I0403 15:38:11.939666  3307 net.cpp:399] loss2/classifier_plantvillage -> loss2/classifier_plantvillage
I0403 15:38:11.940088  3307 net.cpp:141] Setting up loss2/classifier_plantvillage
I0403 15:38:11.940114  3307 net.cpp:148] Top shape: 24 38 (912)
I0403 15:38:11.940147  3307 net.cpp:156] Memory required for data: 1208421216
I0403 15:38:11.940167  3307 layer_factory.hpp:77] Creating layer loss2/classifier_plantvillage_loss2/classifier_plantvillage_0_split
I0403 15:38:11.940189  3307 net.cpp:91] Creating Layer loss2/classifier_plantvillage_loss2/classifier_plantvillage_0_split
I0403 15:38:11.940207  3307 net.cpp:425] loss2/classifier_plantvillage_loss2/classifier_plantvillage_0_split <- loss2/classifier_plantvillage
I0403 15:38:11.940230  3307 net.cpp:399] loss2/classifier_plantvillage_loss2/classifier_plantvillage_0_split -> loss2/classifier_plantvillage_loss2/classifier_plantvillage_0_split_0
I0403 15:38:11.940255  3307 net.cpp:399] loss2/classifier_plantvillage_loss2/classifier_plantvillage_0_split -> loss2/classifier_plantvillage_loss2/classifier_plantvillage_0_split_1
I0403 15:38:11.940277  3307 net.cpp:399] loss2/classifier_plantvillage_loss2/classifier_plantvillage_0_split -> loss2/classifier_plantvillage_loss2/classifier_plantvillage_0_split_2
I0403 15:38:11.940359  3307 net.cpp:141] Setting up loss2/classifier_plantvillage_loss2/classifier_plantvillage_0_split
I0403 15:38:11.940382  3307 net.cpp:148] Top shape: 24 38 (912)
I0403 15:38:11.940399  3307 net.cpp:148] Top shape: 24 38 (912)
I0403 15:38:11.940415  3307 net.cpp:148] Top shape: 24 38 (912)
I0403 15:38:11.940429  3307 net.cpp:156] Memory required for data: 1208432160
I0403 15:38:11.940444  3307 layer_factory.hpp:77] Creating layer inception_4e/1x1
I0403 15:38:11.940465  3307 net.cpp:91] Creating Layer inception_4e/1x1
I0403 15:38:11.940482  3307 net.cpp:425] inception_4e/1x1 <- inception_4d/output_inception_4d/output_0_split_1
I0403 15:38:11.940505  3307 net.cpp:399] inception_4e/1x1 -> inception_4e/1x1
I0403 15:38:11.942416  3307 net.cpp:141] Setting up inception_4e/1x1
I0403 15:38:11.942445  3307 net.cpp:148] Top shape: 24 256 14 14 (1204224)
I0403 15:38:11.942461  3307 net.cpp:156] Memory required for data: 1213249056
I0403 15:38:11.942481  3307 layer_factory.hpp:77] Creating layer inception_4e/relu_1x1
I0403 15:38:11.942502  3307 net.cpp:91] Creating Layer inception_4e/relu_1x1
I0403 15:38:11.942518  3307 net.cpp:425] inception_4e/relu_1x1 <- inception_4e/1x1
I0403 15:38:11.942536  3307 net.cpp:386] inception_4e/relu_1x1 -> inception_4e/1x1 (in-place)
I0403 15:38:11.942847  3307 net.cpp:141] Setting up inception_4e/relu_1x1
I0403 15:38:11.942875  3307 net.cpp:148] Top shape: 24 256 14 14 (1204224)
I0403 15:38:11.942890  3307 net.cpp:156] Memory required for data: 1218065952
I0403 15:38:11.942906  3307 layer_factory.hpp:77] Creating layer inception_4e/3x3_reduce
I0403 15:38:11.942929  3307 net.cpp:91] Creating Layer inception_4e/3x3_reduce
I0403 15:38:11.942948  3307 net.cpp:425] inception_4e/3x3_reduce <- inception_4d/output_inception_4d/output_0_split_2
I0403 15:38:11.942970  3307 net.cpp:399] inception_4e/3x3_reduce -> inception_4e/3x3_reduce
I0403 15:38:11.945165  3307 net.cpp:141] Setting up inception_4e/3x3_reduce
I0403 15:38:11.945196  3307 net.cpp:148] Top shape: 24 160 14 14 (752640)
I0403 15:38:11.945217  3307 net.cpp:156] Memory required for data: 1221076512
I0403 15:38:11.945238  3307 layer_factory.hpp:77] Creating layer inception_4e/relu_3x3_reduce
I0403 15:38:11.945260  3307 net.cpp:91] Creating Layer inception_4e/relu_3x3_reduce
I0403 15:38:11.945276  3307 net.cpp:425] inception_4e/relu_3x3_reduce <- inception_4e/3x3_reduce
I0403 15:38:11.945294  3307 net.cpp:386] inception_4e/relu_3x3_reduce -> inception_4e/3x3_reduce (in-place)
I0403 15:38:11.945487  3307 net.cpp:141] Setting up inception_4e/relu_3x3_reduce
I0403 15:38:11.945513  3307 net.cpp:148] Top shape: 24 160 14 14 (752640)
I0403 15:38:11.945528  3307 net.cpp:156] Memory required for data: 1224087072
I0403 15:38:11.945544  3307 layer_factory.hpp:77] Creating layer inception_4e/3x3
I0403 15:38:11.945565  3307 net.cpp:91] Creating Layer inception_4e/3x3
I0403 15:38:11.945583  3307 net.cpp:425] inception_4e/3x3 <- inception_4e/3x3_reduce
I0403 15:38:11.945605  3307 net.cpp:399] inception_4e/3x3 -> inception_4e/3x3
I0403 15:38:11.950757  3307 net.cpp:141] Setting up inception_4e/3x3
I0403 15:38:11.950799  3307 net.cpp:148] Top shape: 24 320 14 14 (1505280)
I0403 15:38:11.950817  3307 net.cpp:156] Memory required for data: 1230108192
I0403 15:38:11.950837  3307 layer_factory.hpp:77] Creating layer inception_4e/relu_3x3
I0403 15:38:11.950858  3307 net.cpp:91] Creating Layer inception_4e/relu_3x3
I0403 15:38:11.950876  3307 net.cpp:425] inception_4e/relu_3x3 <- inception_4e/3x3
I0403 15:38:11.950894  3307 net.cpp:386] inception_4e/relu_3x3 -> inception_4e/3x3 (in-place)
I0403 15:38:11.951205  3307 net.cpp:141] Setting up inception_4e/relu_3x3
I0403 15:38:11.951238  3307 net.cpp:148] Top shape: 24 320 14 14 (1505280)
I0403 15:38:11.951257  3307 net.cpp:156] Memory required for data: 1236129312
I0403 15:38:11.951273  3307 layer_factory.hpp:77] Creating layer inception_4e/5x5_reduce
I0403 15:38:11.951297  3307 net.cpp:91] Creating Layer inception_4e/5x5_reduce
I0403 15:38:11.951315  3307 net.cpp:425] inception_4e/5x5_reduce <- inception_4d/output_inception_4d/output_0_split_3
I0403 15:38:11.951335  3307 net.cpp:399] inception_4e/5x5_reduce -> inception_4e/5x5_reduce
I0403 15:38:11.952448  3307 net.cpp:141] Setting up inception_4e/5x5_reduce
I0403 15:38:11.952476  3307 net.cpp:148] Top shape: 24 32 14 14 (150528)
I0403 15:38:11.952492  3307 net.cpp:156] Memory required for data: 1236731424
I0403 15:38:11.952512  3307 layer_factory.hpp:77] Creating layer inception_4e/relu_5x5_reduce
I0403 15:38:11.952530  3307 net.cpp:91] Creating Layer inception_4e/relu_5x5_reduce
I0403 15:38:11.952548  3307 net.cpp:425] inception_4e/relu_5x5_reduce <- inception_4e/5x5_reduce
I0403 15:38:11.952569  3307 net.cpp:386] inception_4e/relu_5x5_reduce -> inception_4e/5x5_reduce (in-place)
I0403 15:38:11.952882  3307 net.cpp:141] Setting up inception_4e/relu_5x5_reduce
I0403 15:38:11.952908  3307 net.cpp:148] Top shape: 24 32 14 14 (150528)
I0403 15:38:11.952924  3307 net.cpp:156] Memory required for data: 1237333536
I0403 15:38:11.952939  3307 layer_factory.hpp:77] Creating layer inception_4e/5x5
I0403 15:38:11.952976  3307 net.cpp:91] Creating Layer inception_4e/5x5
I0403 15:38:11.952996  3307 net.cpp:425] inception_4e/5x5 <- inception_4e/5x5_reduce
I0403 15:38:11.953016  3307 net.cpp:399] inception_4e/5x5 -> inception_4e/5x5
I0403 15:38:11.954973  3307 net.cpp:141] Setting up inception_4e/5x5
I0403 15:38:11.955003  3307 net.cpp:148] Top shape: 24 128 14 14 (602112)
I0403 15:38:11.955018  3307 net.cpp:156] Memory required for data: 1239741984
I0403 15:38:11.955039  3307 layer_factory.hpp:77] Creating layer inception_4e/relu_5x5
I0403 15:38:11.955056  3307 net.cpp:91] Creating Layer inception_4e/relu_5x5
I0403 15:38:11.955073  3307 net.cpp:425] inception_4e/relu_5x5 <- inception_4e/5x5
I0403 15:38:11.955095  3307 net.cpp:386] inception_4e/relu_5x5 -> inception_4e/5x5 (in-place)
I0403 15:38:11.955304  3307 net.cpp:141] Setting up inception_4e/relu_5x5
I0403 15:38:11.955330  3307 net.cpp:148] Top shape: 24 128 14 14 (602112)
I0403 15:38:11.955346  3307 net.cpp:156] Memory required for data: 1242150432
I0403 15:38:11.955363  3307 layer_factory.hpp:77] Creating layer inception_4e/pool
I0403 15:38:11.955384  3307 net.cpp:91] Creating Layer inception_4e/pool
I0403 15:38:11.955401  3307 net.cpp:425] inception_4e/pool <- inception_4d/output_inception_4d/output_0_split_4
I0403 15:38:11.955420  3307 net.cpp:399] inception_4e/pool -> inception_4e/pool
I0403 15:38:11.955492  3307 net.cpp:141] Setting up inception_4e/pool
I0403 15:38:11.955518  3307 net.cpp:148] Top shape: 24 528 14 14 (2483712)
I0403 15:38:11.955533  3307 net.cpp:156] Memory required for data: 1252085280
I0403 15:38:11.955548  3307 layer_factory.hpp:77] Creating layer inception_4e/pool_proj
I0403 15:38:11.955570  3307 net.cpp:91] Creating Layer inception_4e/pool_proj
I0403 15:38:11.955588  3307 net.cpp:425] inception_4e/pool_proj <- inception_4e/pool
I0403 15:38:11.955610  3307 net.cpp:399] inception_4e/pool_proj -> inception_4e/pool_proj
I0403 15:38:11.957164  3307 net.cpp:141] Setting up inception_4e/pool_proj
I0403 15:38:11.957211  3307 net.cpp:148] Top shape: 24 128 14 14 (602112)
I0403 15:38:11.957231  3307 net.cpp:156] Memory required for data: 1254493728
I0403 15:38:11.957252  3307 layer_factory.hpp:77] Creating layer inception_4e/relu_pool_proj
I0403 15:38:11.957270  3307 net.cpp:91] Creating Layer inception_4e/relu_pool_proj
I0403 15:38:11.957286  3307 net.cpp:425] inception_4e/relu_pool_proj <- inception_4e/pool_proj
I0403 15:38:11.957306  3307 net.cpp:386] inception_4e/relu_pool_proj -> inception_4e/pool_proj (in-place)
I0403 15:38:11.957608  3307 net.cpp:141] Setting up inception_4e/relu_pool_proj
I0403 15:38:11.957638  3307 net.cpp:148] Top shape: 24 128 14 14 (602112)
I0403 15:38:11.957654  3307 net.cpp:156] Memory required for data: 1256902176
I0403 15:38:11.957669  3307 layer_factory.hpp:77] Creating layer inception_4e/output
I0403 15:38:11.957689  3307 net.cpp:91] Creating Layer inception_4e/output
I0403 15:38:11.957705  3307 net.cpp:425] inception_4e/output <- inception_4e/1x1
I0403 15:38:11.957720  3307 net.cpp:425] inception_4e/output <- inception_4e/3x3
I0403 15:38:11.957737  3307 net.cpp:425] inception_4e/output <- inception_4e/5x5
I0403 15:38:11.957753  3307 net.cpp:425] inception_4e/output <- inception_4e/pool_proj
I0403 15:38:11.957770  3307 net.cpp:399] inception_4e/output -> inception_4e/output
I0403 15:38:11.957823  3307 net.cpp:141] Setting up inception_4e/output
I0403 15:38:11.957847  3307 net.cpp:148] Top shape: 24 832 14 14 (3913728)
I0403 15:38:11.957862  3307 net.cpp:156] Memory required for data: 1272557088
I0403 15:38:11.957877  3307 layer_factory.hpp:77] Creating layer pool4/3x3_s2
I0403 15:38:11.957897  3307 net.cpp:91] Creating Layer pool4/3x3_s2
I0403 15:38:11.957916  3307 net.cpp:425] pool4/3x3_s2 <- inception_4e/output
I0403 15:38:11.957934  3307 net.cpp:399] pool4/3x3_s2 -> pool4/3x3_s2
I0403 15:38:11.958005  3307 net.cpp:141] Setting up pool4/3x3_s2
I0403 15:38:11.958029  3307 net.cpp:148] Top shape: 24 832 7 7 (978432)
I0403 15:38:11.958045  3307 net.cpp:156] Memory required for data: 1276470816
I0403 15:38:11.958060  3307 layer_factory.hpp:77] Creating layer pool4/3x3_s2_pool4/3x3_s2_0_split
I0403 15:38:11.958077  3307 net.cpp:91] Creating Layer pool4/3x3_s2_pool4/3x3_s2_0_split
I0403 15:38:11.958093  3307 net.cpp:425] pool4/3x3_s2_pool4/3x3_s2_0_split <- pool4/3x3_s2
I0403 15:38:11.958113  3307 net.cpp:399] pool4/3x3_s2_pool4/3x3_s2_0_split -> pool4/3x3_s2_pool4/3x3_s2_0_split_0
I0403 15:38:11.958134  3307 net.cpp:399] pool4/3x3_s2_pool4/3x3_s2_0_split -> pool4/3x3_s2_pool4/3x3_s2_0_split_1
I0403 15:38:11.958156  3307 net.cpp:399] pool4/3x3_s2_pool4/3x3_s2_0_split -> pool4/3x3_s2_pool4/3x3_s2_0_split_2
I0403 15:38:11.958176  3307 net.cpp:399] pool4/3x3_s2_pool4/3x3_s2_0_split -> pool4/3x3_s2_pool4/3x3_s2_0_split_3
I0403 15:38:11.958277  3307 net.cpp:141] Setting up pool4/3x3_s2_pool4/3x3_s2_0_split
I0403 15:38:11.958304  3307 net.cpp:148] Top shape: 24 832 7 7 (978432)
I0403 15:38:11.958323  3307 net.cpp:148] Top shape: 24 832 7 7 (978432)
I0403 15:38:11.958339  3307 net.cpp:148] Top shape: 24 832 7 7 (978432)
I0403 15:38:11.958355  3307 net.cpp:148] Top shape: 24 832 7 7 (978432)
I0403 15:38:11.958369  3307 net.cpp:156] Memory required for data: 1292125728
I0403 15:38:11.958384  3307 layer_factory.hpp:77] Creating layer inception_5a/1x1
I0403 15:38:11.958407  3307 net.cpp:91] Creating Layer inception_5a/1x1
I0403 15:38:11.958425  3307 net.cpp:425] inception_5a/1x1 <- pool4/3x3_s2_pool4/3x3_s2_0_split_0
I0403 15:38:11.958446  3307 net.cpp:399] inception_5a/1x1 -> inception_5a/1x1
I0403 15:38:11.961429  3307 net.cpp:141] Setting up inception_5a/1x1
I0403 15:38:11.961459  3307 net.cpp:148] Top shape: 24 256 7 7 (301056)
I0403 15:38:11.961475  3307 net.cpp:156] Memory required for data: 1293329952
I0403 15:38:11.961495  3307 layer_factory.hpp:77] Creating layer inception_5a/relu_1x1
I0403 15:38:11.961513  3307 net.cpp:91] Creating Layer inception_5a/relu_1x1
I0403 15:38:11.961529  3307 net.cpp:425] inception_5a/relu_1x1 <- inception_5a/1x1
I0403 15:38:11.961550  3307 net.cpp:386] inception_5a/relu_1x1 -> inception_5a/1x1 (in-place)
I0403 15:38:11.961875  3307 net.cpp:141] Setting up inception_5a/relu_1x1
I0403 15:38:11.961902  3307 net.cpp:148] Top shape: 24 256 7 7 (301056)
I0403 15:38:11.961917  3307 net.cpp:156] Memory required for data: 1294534176
I0403 15:38:11.961932  3307 layer_factory.hpp:77] Creating layer inception_5a/3x3_reduce
I0403 15:38:11.961956  3307 net.cpp:91] Creating Layer inception_5a/3x3_reduce
I0403 15:38:11.961973  3307 net.cpp:425] inception_5a/3x3_reduce <- pool4/3x3_s2_pool4/3x3_s2_0_split_1
I0403 15:38:11.961997  3307 net.cpp:399] inception_5a/3x3_reduce -> inception_5a/3x3_reduce
I0403 15:38:11.964571  3307 net.cpp:141] Setting up inception_5a/3x3_reduce
I0403 15:38:11.964603  3307 net.cpp:148] Top shape: 24 160 7 7 (188160)
I0403 15:38:11.964620  3307 net.cpp:156] Memory required for data: 1295286816
I0403 15:38:11.964640  3307 layer_factory.hpp:77] Creating layer inception_5a/relu_3x3_reduce
I0403 15:38:11.964659  3307 net.cpp:91] Creating Layer inception_5a/relu_3x3_reduce
I0403 15:38:11.964675  3307 net.cpp:425] inception_5a/relu_3x3_reduce <- inception_5a/3x3_reduce
I0403 15:38:11.964694  3307 net.cpp:386] inception_5a/relu_3x3_reduce -> inception_5a/3x3_reduce (in-place)
I0403 15:38:11.964890  3307 net.cpp:141] Setting up inception_5a/relu_3x3_reduce
I0403 15:38:11.964918  3307 net.cpp:148] Top shape: 24 160 7 7 (188160)
I0403 15:38:11.964936  3307 net.cpp:156] Memory required for data: 1296039456
I0403 15:38:11.964951  3307 layer_factory.hpp:77] Creating layer inception_5a/3x3
I0403 15:38:11.964973  3307 net.cpp:91] Creating Layer inception_5a/3x3
I0403 15:38:11.964992  3307 net.cpp:425] inception_5a/3x3 <- inception_5a/3x3_reduce
I0403 15:38:11.965015  3307 net.cpp:399] inception_5a/3x3 -> inception_5a/3x3
I0403 15:38:11.971403  3307 net.cpp:141] Setting up inception_5a/3x3
I0403 15:38:11.971434  3307 net.cpp:148] Top shape: 24 320 7 7 (376320)
I0403 15:38:11.971451  3307 net.cpp:156] Memory required for data: 1297544736
I0403 15:38:11.971469  3307 layer_factory.hpp:77] Creating layer inception_5a/relu_3x3
I0403 15:38:11.971488  3307 net.cpp:91] Creating Layer inception_5a/relu_3x3
I0403 15:38:11.971504  3307 net.cpp:425] inception_5a/relu_3x3 <- inception_5a/3x3
I0403 15:38:11.971524  3307 net.cpp:386] inception_5a/relu_3x3 -> inception_5a/3x3 (in-place)
I0403 15:38:11.971832  3307 net.cpp:141] Setting up inception_5a/relu_3x3
I0403 15:38:11.971858  3307 net.cpp:148] Top shape: 24 320 7 7 (376320)
I0403 15:38:11.971874  3307 net.cpp:156] Memory required for data: 1299050016
I0403 15:38:11.971889  3307 layer_factory.hpp:77] Creating layer inception_5a/5x5_reduce
I0403 15:38:11.971912  3307 net.cpp:91] Creating Layer inception_5a/5x5_reduce
I0403 15:38:11.971930  3307 net.cpp:425] inception_5a/5x5_reduce <- pool4/3x3_s2_pool4/3x3_s2_0_split_2
I0403 15:38:11.971953  3307 net.cpp:399] inception_5a/5x5_reduce -> inception_5a/5x5_reduce
I0403 15:38:11.973168  3307 net.cpp:141] Setting up inception_5a/5x5_reduce
I0403 15:38:11.973201  3307 net.cpp:148] Top shape: 24 32 7 7 (37632)
I0403 15:38:11.973230  3307 net.cpp:156] Memory required for data: 1299200544
I0403 15:38:11.973254  3307 layer_factory.hpp:77] Creating layer inception_5a/relu_5x5_reduce
I0403 15:38:11.973275  3307 net.cpp:91] Creating Layer inception_5a/relu_5x5_reduce
I0403 15:38:11.973294  3307 net.cpp:425] inception_5a/relu_5x5_reduce <- inception_5a/5x5_reduce
I0403 15:38:11.973311  3307 net.cpp:386] inception_5a/relu_5x5_reduce -> inception_5a/5x5_reduce (in-place)
I0403 15:38:11.973619  3307 net.cpp:141] Setting up inception_5a/relu_5x5_reduce
I0403 15:38:11.973646  3307 net.cpp:148] Top shape: 24 32 7 7 (37632)
I0403 15:38:11.973661  3307 net.cpp:156] Memory required for data: 1299351072
I0403 15:38:11.973677  3307 layer_factory.hpp:77] Creating layer inception_5a/5x5
I0403 15:38:11.973701  3307 net.cpp:91] Creating Layer inception_5a/5x5
I0403 15:38:11.973718  3307 net.cpp:425] inception_5a/5x5 <- inception_5a/5x5_reduce
I0403 15:38:11.973740  3307 net.cpp:399] inception_5a/5x5 -> inception_5a/5x5
I0403 15:38:11.975525  3307 net.cpp:141] Setting up inception_5a/5x5
I0403 15:38:11.975567  3307 net.cpp:148] Top shape: 24 128 7 7 (150528)
I0403 15:38:11.975584  3307 net.cpp:156] Memory required for data: 1299953184
I0403 15:38:11.975602  3307 layer_factory.hpp:77] Creating layer inception_5a/relu_5x5
I0403 15:38:11.975621  3307 net.cpp:91] Creating Layer inception_5a/relu_5x5
I0403 15:38:11.975637  3307 net.cpp:425] inception_5a/relu_5x5 <- inception_5a/5x5
I0403 15:38:11.975657  3307 net.cpp:386] inception_5a/relu_5x5 -> inception_5a/5x5 (in-place)
I0403 15:38:11.975854  3307 net.cpp:141] Setting up inception_5a/relu_5x5
I0403 15:38:11.975880  3307 net.cpp:148] Top shape: 24 128 7 7 (150528)
I0403 15:38:11.975895  3307 net.cpp:156] Memory required for data: 1300555296
I0403 15:38:11.975910  3307 layer_factory.hpp:77] Creating layer inception_5a/pool
I0403 15:38:11.975930  3307 net.cpp:91] Creating Layer inception_5a/pool
I0403 15:38:11.975947  3307 net.cpp:425] inception_5a/pool <- pool4/3x3_s2_pool4/3x3_s2_0_split_3
I0403 15:38:11.975966  3307 net.cpp:399] inception_5a/pool -> inception_5a/pool
I0403 15:38:11.976039  3307 net.cpp:141] Setting up inception_5a/pool
I0403 15:38:11.976063  3307 net.cpp:148] Top shape: 24 832 7 7 (978432)
I0403 15:38:11.976078  3307 net.cpp:156] Memory required for data: 1304469024
I0403 15:38:11.976094  3307 layer_factory.hpp:77] Creating layer inception_5a/pool_proj
I0403 15:38:11.976117  3307 net.cpp:91] Creating Layer inception_5a/pool_proj
I0403 15:38:11.976135  3307 net.cpp:425] inception_5a/pool_proj <- inception_5a/pool
I0403 15:38:11.976158  3307 net.cpp:399] inception_5a/pool_proj -> inception_5a/pool_proj
I0403 15:38:11.978513  3307 net.cpp:141] Setting up inception_5a/pool_proj
I0403 15:38:11.978546  3307 net.cpp:148] Top shape: 24 128 7 7 (150528)
I0403 15:38:11.978564  3307 net.cpp:156] Memory required for data: 1305071136
I0403 15:38:11.978582  3307 layer_factory.hpp:77] Creating layer inception_5a/relu_pool_proj
I0403 15:38:11.978601  3307 net.cpp:91] Creating Layer inception_5a/relu_pool_proj
I0403 15:38:11.978618  3307 net.cpp:425] inception_5a/relu_pool_proj <- inception_5a/pool_proj
I0403 15:38:11.978638  3307 net.cpp:386] inception_5a/relu_pool_proj -> inception_5a/pool_proj (in-place)
I0403 15:38:11.978943  3307 net.cpp:141] Setting up inception_5a/relu_pool_proj
I0403 15:38:11.978972  3307 net.cpp:148] Top shape: 24 128 7 7 (150528)
I0403 15:38:11.978989  3307 net.cpp:156] Memory required for data: 1305673248
I0403 15:38:11.979004  3307 layer_factory.hpp:77] Creating layer inception_5a/output
I0403 15:38:11.979022  3307 net.cpp:91] Creating Layer inception_5a/output
I0403 15:38:11.979038  3307 net.cpp:425] inception_5a/output <- inception_5a/1x1
I0403 15:38:11.979055  3307 net.cpp:425] inception_5a/output <- inception_5a/3x3
I0403 15:38:11.979071  3307 net.cpp:425] inception_5a/output <- inception_5a/5x5
I0403 15:38:11.979089  3307 net.cpp:425] inception_5a/output <- inception_5a/pool_proj
I0403 15:38:11.979109  3307 net.cpp:399] inception_5a/output -> inception_5a/output
I0403 15:38:11.979161  3307 net.cpp:141] Setting up inception_5a/output
I0403 15:38:11.979184  3307 net.cpp:148] Top shape: 24 832 7 7 (978432)
I0403 15:38:11.979198  3307 net.cpp:156] Memory required for data: 1309586976
I0403 15:38:11.979218  3307 layer_factory.hpp:77] Creating layer inception_5a/output_inception_5a/output_0_split
I0403 15:38:11.979240  3307 net.cpp:91] Creating Layer inception_5a/output_inception_5a/output_0_split
I0403 15:38:11.979257  3307 net.cpp:425] inception_5a/output_inception_5a/output_0_split <- inception_5a/output
I0403 15:38:11.979276  3307 net.cpp:399] inception_5a/output_inception_5a/output_0_split -> inception_5a/output_inception_5a/output_0_split_0
I0403 15:38:11.979296  3307 net.cpp:399] inception_5a/output_inception_5a/output_0_split -> inception_5a/output_inception_5a/output_0_split_1
I0403 15:38:11.979317  3307 net.cpp:399] inception_5a/output_inception_5a/output_0_split -> inception_5a/output_inception_5a/output_0_split_2
I0403 15:38:11.979342  3307 net.cpp:399] inception_5a/output_inception_5a/output_0_split -> inception_5a/output_inception_5a/output_0_split_3
I0403 15:38:11.979457  3307 net.cpp:141] Setting up inception_5a/output_inception_5a/output_0_split
I0403 15:38:11.979482  3307 net.cpp:148] Top shape: 24 832 7 7 (978432)
I0403 15:38:11.979499  3307 net.cpp:148] Top shape: 24 832 7 7 (978432)
I0403 15:38:11.979516  3307 net.cpp:148] Top shape: 24 832 7 7 (978432)
I0403 15:38:11.979532  3307 net.cpp:148] Top shape: 24 832 7 7 (978432)
I0403 15:38:11.979547  3307 net.cpp:156] Memory required for data: 1325241888
I0403 15:38:11.979560  3307 layer_factory.hpp:77] Creating layer inception_5b/1x1
I0403 15:38:11.979583  3307 net.cpp:91] Creating Layer inception_5b/1x1
I0403 15:38:11.979601  3307 net.cpp:425] inception_5b/1x1 <- inception_5a/output_inception_5a/output_0_split_0
I0403 15:38:11.979624  3307 net.cpp:399] inception_5b/1x1 -> inception_5b/1x1
I0403 15:38:11.983523  3307 net.cpp:141] Setting up inception_5b/1x1
I0403 15:38:11.983556  3307 net.cpp:148] Top shape: 24 384 7 7 (451584)
I0403 15:38:11.983573  3307 net.cpp:156] Memory required for data: 1327048224
I0403 15:38:11.983593  3307 layer_factory.hpp:77] Creating layer inception_5b/relu_1x1
I0403 15:38:11.983611  3307 net.cpp:91] Creating Layer inception_5b/relu_1x1
I0403 15:38:11.983628  3307 net.cpp:425] inception_5b/relu_1x1 <- inception_5b/1x1
I0403 15:38:11.983645  3307 net.cpp:386] inception_5b/relu_1x1 -> inception_5b/1x1 (in-place)
I0403 15:38:11.983965  3307 net.cpp:141] Setting up inception_5b/relu_1x1
I0403 15:38:11.983994  3307 net.cpp:148] Top shape: 24 384 7 7 (451584)
I0403 15:38:11.984010  3307 net.cpp:156] Memory required for data: 1328854560
I0403 15:38:11.984026  3307 layer_factory.hpp:77] Creating layer inception_5b/3x3_reduce
I0403 15:38:11.984048  3307 net.cpp:91] Creating Layer inception_5b/3x3_reduce
I0403 15:38:11.984066  3307 net.cpp:425] inception_5b/3x3_reduce <- inception_5a/output_inception_5a/output_0_split_1
I0403 15:38:11.984086  3307 net.cpp:399] inception_5b/3x3_reduce -> inception_5b/3x3_reduce
I0403 15:38:11.986873  3307 net.cpp:141] Setting up inception_5b/3x3_reduce
I0403 15:38:11.986904  3307 net.cpp:148] Top shape: 24 192 7 7 (225792)
I0403 15:38:11.986922  3307 net.cpp:156] Memory required for data: 1329757728
I0403 15:38:11.986940  3307 layer_factory.hpp:77] Creating layer inception_5b/relu_3x3_reduce
I0403 15:38:11.986958  3307 net.cpp:91] Creating Layer inception_5b/relu_3x3_reduce
I0403 15:38:11.986975  3307 net.cpp:425] inception_5b/relu_3x3_reduce <- inception_5b/3x3_reduce
I0403 15:38:11.986994  3307 net.cpp:386] inception_5b/relu_3x3_reduce -> inception_5b/3x3_reduce (in-place)
I0403 15:38:11.987188  3307 net.cpp:141] Setting up inception_5b/relu_3x3_reduce
I0403 15:38:11.987217  3307 net.cpp:148] Top shape: 24 192 7 7 (225792)
I0403 15:38:11.987233  3307 net.cpp:156] Memory required for data: 1330660896
I0403 15:38:11.987251  3307 layer_factory.hpp:77] Creating layer inception_5b/3x3
I0403 15:38:11.987273  3307 net.cpp:91] Creating Layer inception_5b/3x3
I0403 15:38:11.987290  3307 net.cpp:425] inception_5b/3x3 <- inception_5b/3x3_reduce
I0403 15:38:11.987313  3307 net.cpp:399] inception_5b/3x3 -> inception_5b/3x3
I0403 15:38:11.994113  3307 net.cpp:141] Setting up inception_5b/3x3
I0403 15:38:11.994143  3307 net.cpp:148] Top shape: 24 384 7 7 (451584)
I0403 15:38:11.994160  3307 net.cpp:156] Memory required for data: 1332467232
I0403 15:38:11.994179  3307 layer_factory.hpp:77] Creating layer inception_5b/relu_3x3
I0403 15:38:11.994196  3307 net.cpp:91] Creating Layer inception_5b/relu_3x3
I0403 15:38:11.994216  3307 net.cpp:425] inception_5b/relu_3x3 <- inception_5b/3x3
I0403 15:38:11.994236  3307 net.cpp:386] inception_5b/relu_3x3 -> inception_5b/3x3 (in-place)
I0403 15:38:11.994529  3307 net.cpp:141] Setting up inception_5b/relu_3x3
I0403 15:38:11.994556  3307 net.cpp:148] Top shape: 24 384 7 7 (451584)
I0403 15:38:11.994572  3307 net.cpp:156] Memory required for data: 1334273568
I0403 15:38:11.994587  3307 layer_factory.hpp:77] Creating layer inception_5b/5x5_reduce
I0403 15:38:11.994624  3307 net.cpp:91] Creating Layer inception_5b/5x5_reduce
I0403 15:38:11.994643  3307 net.cpp:425] inception_5b/5x5_reduce <- inception_5a/output_inception_5a/output_0_split_2
I0403 15:38:11.994663  3307 net.cpp:399] inception_5b/5x5_reduce -> inception_5b/5x5_reduce
I0403 15:38:11.995905  3307 net.cpp:141] Setting up inception_5b/5x5_reduce
I0403 15:38:11.995934  3307 net.cpp:148] Top shape: 24 48 7 7 (56448)
I0403 15:38:11.995950  3307 net.cpp:156] Memory required for data: 1334499360
I0403 15:38:11.995968  3307 layer_factory.hpp:77] Creating layer inception_5b/relu_5x5_reduce
I0403 15:38:11.995985  3307 net.cpp:91] Creating Layer inception_5b/relu_5x5_reduce
I0403 15:38:11.996001  3307 net.cpp:425] inception_5b/relu_5x5_reduce <- inception_5b/5x5_reduce
I0403 15:38:11.996021  3307 net.cpp:386] inception_5b/relu_5x5_reduce -> inception_5b/5x5_reduce (in-place)
I0403 15:38:11.996394  3307 net.cpp:141] Setting up inception_5b/relu_5x5_reduce
I0403 15:38:11.996420  3307 net.cpp:148] Top shape: 24 48 7 7 (56448)
I0403 15:38:11.996435  3307 net.cpp:156] Memory required for data: 1334725152
I0403 15:38:11.996449  3307 layer_factory.hpp:77] Creating layer inception_5b/5x5
I0403 15:38:11.996469  3307 net.cpp:91] Creating Layer inception_5b/5x5
I0403 15:38:11.996486  3307 net.cpp:425] inception_5b/5x5 <- inception_5b/5x5_reduce
I0403 15:38:11.996505  3307 net.cpp:399] inception_5b/5x5 -> inception_5b/5x5
I0403 15:38:11.998509  3307 net.cpp:141] Setting up inception_5b/5x5
I0403 15:38:11.998536  3307 net.cpp:148] Top shape: 24 128 7 7 (150528)
I0403 15:38:11.998551  3307 net.cpp:156] Memory required for data: 1335327264
I0403 15:38:11.998569  3307 layer_factory.hpp:77] Creating layer inception_5b/relu_5x5
I0403 15:38:11.998586  3307 net.cpp:91] Creating Layer inception_5b/relu_5x5
I0403 15:38:11.998602  3307 net.cpp:425] inception_5b/relu_5x5 <- inception_5b/5x5
I0403 15:38:11.998621  3307 net.cpp:386] inception_5b/relu_5x5 -> inception_5b/5x5 (in-place)
I0403 15:38:11.998811  3307 net.cpp:141] Setting up inception_5b/relu_5x5
I0403 15:38:11.998836  3307 net.cpp:148] Top shape: 24 128 7 7 (150528)
I0403 15:38:11.998850  3307 net.cpp:156] Memory required for data: 1335929376
I0403 15:38:11.998864  3307 layer_factory.hpp:77] Creating layer inception_5b/pool
I0403 15:38:11.998883  3307 net.cpp:91] Creating Layer inception_5b/pool
I0403 15:38:11.998900  3307 net.cpp:425] inception_5b/pool <- inception_5a/output_inception_5a/output_0_split_3
I0403 15:38:11.998917  3307 net.cpp:399] inception_5b/pool -> inception_5b/pool
I0403 15:38:11.998991  3307 net.cpp:141] Setting up inception_5b/pool
I0403 15:38:11.999014  3307 net.cpp:148] Top shape: 24 832 7 7 (978432)
I0403 15:38:11.999028  3307 net.cpp:156] Memory required for data: 1339843104
I0403 15:38:11.999042  3307 layer_factory.hpp:77] Creating layer inception_5b/pool_proj
I0403 15:38:11.999064  3307 net.cpp:91] Creating Layer inception_5b/pool_proj
I0403 15:38:11.999080  3307 net.cpp:425] inception_5b/pool_proj <- inception_5b/pool
I0403 15:38:11.999102  3307 net.cpp:399] inception_5b/pool_proj -> inception_5b/pool_proj
I0403 15:38:12.001361  3307 net.cpp:141] Setting up inception_5b/pool_proj
I0403 15:38:12.001394  3307 net.cpp:148] Top shape: 24 128 7 7 (150528)
I0403 15:38:12.001410  3307 net.cpp:156] Memory required for data: 1340445216
I0403 15:38:12.001428  3307 layer_factory.hpp:77] Creating layer inception_5b/relu_pool_proj
I0403 15:38:12.001452  3307 net.cpp:91] Creating Layer inception_5b/relu_pool_proj
I0403 15:38:12.001468  3307 net.cpp:425] inception_5b/relu_pool_proj <- inception_5b/pool_proj
I0403 15:38:12.001487  3307 net.cpp:386] inception_5b/relu_pool_proj -> inception_5b/pool_proj (in-place)
I0403 15:38:12.001781  3307 net.cpp:141] Setting up inception_5b/relu_pool_proj
I0403 15:38:12.001808  3307 net.cpp:148] Top shape: 24 128 7 7 (150528)
I0403 15:38:12.001822  3307 net.cpp:156] Memory required for data: 1341047328
I0403 15:38:12.001837  3307 layer_factory.hpp:77] Creating layer inception_5b/output
I0403 15:38:12.001854  3307 net.cpp:91] Creating Layer inception_5b/output
I0403 15:38:12.001883  3307 net.cpp:425] inception_5b/output <- inception_5b/1x1
I0403 15:38:12.001899  3307 net.cpp:425] inception_5b/output <- inception_5b/3x3
I0403 15:38:12.001915  3307 net.cpp:425] inception_5b/output <- inception_5b/5x5
I0403 15:38:12.001931  3307 net.cpp:425] inception_5b/output <- inception_5b/pool_proj
I0403 15:38:12.001948  3307 net.cpp:399] inception_5b/output -> inception_5b/output
I0403 15:38:12.002001  3307 net.cpp:141] Setting up inception_5b/output
I0403 15:38:12.002023  3307 net.cpp:148] Top shape: 24 1024 7 7 (1204224)
I0403 15:38:12.002038  3307 net.cpp:156] Memory required for data: 1345864224
I0403 15:38:12.002051  3307 layer_factory.hpp:77] Creating layer pool5/7x7_s1
I0403 15:38:12.002071  3307 net.cpp:91] Creating Layer pool5/7x7_s1
I0403 15:38:12.002087  3307 net.cpp:425] pool5/7x7_s1 <- inception_5b/output
I0403 15:38:12.002105  3307 net.cpp:399] pool5/7x7_s1 -> pool5/7x7_s1
I0403 15:38:12.002322  3307 net.cpp:141] Setting up pool5/7x7_s1
I0403 15:38:12.002347  3307 net.cpp:148] Top shape: 24 1024 1 1 (24576)
I0403 15:38:12.002362  3307 net.cpp:156] Memory required for data: 1345962528
I0403 15:38:12.002377  3307 layer_factory.hpp:77] Creating layer pool5/drop_7x7_s1
I0403 15:38:12.002394  3307 net.cpp:91] Creating Layer pool5/drop_7x7_s1
I0403 15:38:12.002409  3307 net.cpp:425] pool5/drop_7x7_s1 <- pool5/7x7_s1
I0403 15:38:12.002430  3307 net.cpp:386] pool5/drop_7x7_s1 -> pool5/7x7_s1 (in-place)
I0403 15:38:12.002480  3307 net.cpp:141] Setting up pool5/drop_7x7_s1
I0403 15:38:12.002504  3307 net.cpp:148] Top shape: 24 1024 1 1 (24576)
I0403 15:38:12.002519  3307 net.cpp:156] Memory required for data: 1346060832
I0403 15:38:12.002534  3307 layer_factory.hpp:77] Creating layer loss3/classifier_plantvillage
I0403 15:38:12.002553  3307 net.cpp:91] Creating Layer loss3/classifier_plantvillage
I0403 15:38:12.002569  3307 net.cpp:425] loss3/classifier_plantvillage <- pool5/7x7_s1
I0403 15:38:12.002589  3307 net.cpp:399] loss3/classifier_plantvillage -> loss3/classifier_plantvillage
I0403 15:38:12.003005  3307 net.cpp:141] Setting up loss3/classifier_plantvillage
I0403 15:38:12.003029  3307 net.cpp:148] Top shape: 24 38 (912)
I0403 15:38:12.003044  3307 net.cpp:156] Memory required for data: 1346064480
I0403 15:38:12.003062  3307 layer_factory.hpp:77] Creating layer loss3/classifier_plantvillage_loss3/classifier_plantvillage_0_split
I0403 15:38:12.003082  3307 net.cpp:91] Creating Layer loss3/classifier_plantvillage_loss3/classifier_plantvillage_0_split
I0403 15:38:12.003098  3307 net.cpp:425] loss3/classifier_plantvillage_loss3/classifier_plantvillage_0_split <- loss3/classifier_plantvillage
I0403 15:38:12.003115  3307 net.cpp:399] loss3/classifier_plantvillage_loss3/classifier_plantvillage_0_split -> loss3/classifier_plantvillage_loss3/classifier_plantvillage_0_split_0
I0403 15:38:12.003134  3307 net.cpp:399] loss3/classifier_plantvillage_loss3/classifier_plantvillage_0_split -> loss3/classifier_plantvillage_loss3/classifier_plantvillage_0_split_1
I0403 15:38:12.003157  3307 net.cpp:399] loss3/classifier_plantvillage_loss3/classifier_plantvillage_0_split -> loss3/classifier_plantvillage_loss3/classifier_plantvillage_0_split_2
I0403 15:38:12.003180  3307 net.cpp:399] loss3/classifier_plantvillage_loss3/classifier_plantvillage_0_split -> loss3/classifier_plantvillage_loss3/classifier_plantvillage_0_split_3
I0403 15:38:12.003290  3307 net.cpp:141] Setting up loss3/classifier_plantvillage_loss3/classifier_plantvillage_0_split
I0403 15:38:12.003314  3307 net.cpp:148] Top shape: 24 38 (912)
I0403 15:38:12.003330  3307 net.cpp:148] Top shape: 24 38 (912)
I0403 15:38:12.003345  3307 net.cpp:148] Top shape: 24 38 (912)
I0403 15:38:12.003360  3307 net.cpp:148] Top shape: 24 38 (912)
I0403 15:38:12.003374  3307 net.cpp:156] Memory required for data: 1346079072
I0403 15:38:12.003389  3307 layer_factory.hpp:77] Creating layer loss1/loss
I0403 15:38:12.003412  3307 net.cpp:91] Creating Layer loss1/loss
I0403 15:38:12.003427  3307 net.cpp:425] loss1/loss <- loss1/classifier_plantvillage_loss1/classifier_plantvillage_0_split_0
I0403 15:38:12.003458  3307 net.cpp:425] loss1/loss <- label_data_1_split_0
…
