…
I0403 15:05:44.309645  2650 net.cpp:313] The NetState phase (1) differed from the phase (0) specified by a rule in layer data
I0403 15:05:44.310861  2650 net.cpp:49] Initializing net from parameters: 
state {
  phase: TEST
}
layer {
  name: "data"
  type: "Data"
  top: "data"
  top: "label"
  include {
    phase: TEST
  }
  transform_param {
    mirror: false
    crop_size: 224
    mean_file: "/home/mohanty/data/final_dataset/lmdb/segmented-60-40/mean.binaryproto"
  }
  data_param {
    source: "/home/mohanty/data/final_dataset/lmdb/segmented-60-40/test_db"
    batch_size: 24
    backend: LMDB
  }
}
layer {
  name: "conv1/7x7_s2"
  type: "Convolution"
  bottom: "data"
  top: "conv1/7x7_s2"
  param {
    lr_mult: 1
    decay_mult: 1
  }
  param {
    lr_mult: 2
    decay_mult: 0
  }
  convolution_param {
    num_output: 64
    pad: 3
    kernel_size: 7
    stride: 2
    weight_filler {
      type: "xavier"
      std: 0.1
    }
    bias_filler {
      type: "constant"
      value: 0.2
    }
  }
}
layer {
  name: "conv1/relu_7x7"
  type: "ReLU"
  bottom: "conv1/7x7_s2"
  top: "conv1/7x7_s2"
}
layer {
  name: "pool1/3x3_s2"
  type: "Pooling"
  bottom: "conv1/7x7_s2"
  top: "pool1/3x3_s2"
  pooling_param {
    pool: MAX
    kernel_size: 3
    stride: 2
  }
}
layer {
  name: "pool1/norm1"
  type: "LRN"
  bottom: "pool1/3x3_s2"
  top: "pool1/norm1"
  lrn_param {
    local_size: 5
    alpha: 0.0001
    beta: 0.75
  }
}
layer {
  name: "conv2/3x3_reduce"
  type: "Convolution"
  bottom: "pool1/norm1"
  top: "conv2/3x3_reduce"
  param {
    lr_mult: 1
    decay_mult: 1
  }
  param {
    lr_mult: 2
    decay_mult: 0
  }
  convolution_param {
    num_output: 64
    kernel_size: 1
    weight_filler {
      type: "xavier"
      std: 0.1
    }
    bias_filler {
      type: "constant"
      value: 0.2
    }
  }
}
layer {
  name: "conv2/relu_3x3_reduce"
  type: "ReLU"
  bottom: "conv2/3x3_reduce"
  top: "conv2/3x3_reduce"
}
layer {
  name: "conv2/3x3"
  type: "Convolution"
  bottom: "conv2/3x3_reduce"
  top: "conv2/3x3"
  param {
    lr_mult: 1
    decay_mult: 1
  }
  param {
    lr_mult: 2
    decay_mult: 0
  }
  convolution_param {
    num_output: 192
    pad: 1
    kernel_size: 3
    weight_filler {
      type: "xavier"
      std: 0.03
    }
    bias_filler {
      type: "constant"
      value: 0.2
    }
  }
}
layer {
  name: "conv2/relu_3x3"
  type: "ReLU"
  bottom: "conv2/3x3"
  top: "conv2/3x3"
}
layer {
  name: "conv2/norm2"
  type: "LRN"
  bottom: "conv2/3x3"
  top: "conv2/norm2"
  lrn_param {
    local_size: 5
    alpha: 0.0001
    beta: 0.75
  }
}
layer {
  name: "pool2/3x3_s2"
  type: "Pooling"
  bottom: "conv2/norm2"
  top: "pool2/3x3_s2"
  pooling_param {
    pool: MAX
    kernel_size: 3
    stride: 2
  }
}
layer {
  name: "inception_3a/1x1"
  type: "Convolution"
  bottom: "pool2/3x3_s2"
  top: "inception_3a/1x1"
  param {
    lr_mult: 1
    decay_mult: 1
  }
  param {
    lr_mult: 2
    decay_mult: 0
  }
  convolution_param {
    num_output: 64
    kernel_size: 1
    weight_filler {
      type: "xavier"
      std: 0.03
    }
    bias_filler {
      type: "constant"
      value: 0.2
    }
  }
}
layer {
  name: "inception_3a/relu_1x1"
  type: "ReLU"
  bottom: "inception_3a/1x1"
  top: "inception_3a/1x1"
}
layer {
  name: "inception_3a/3x3_reduce"
  type: "Convolution"
  bottom: "pool2/3x3_s2"
  top: "inception_3a/3x3_reduce"
  param {
    lr_mult: 1
    decay_mult: 1
  }
  param {
    lr_mult: 2
    decay_mult: 0
  }
  convolution_param {
    num_output: 96
    kernel_size: 1
    weight_filler {
      type: "xavier"
      std: 0.09
    }
    bias_filler {
      type: "constant"
      value: 0.2
    }
  }
}
layer {
  name: "inception_3a/relu_3x3_reduce"
  type: "ReLU"
  bottom: "inception_3a/3x3_reduce"
  top: "inception_3a/3x3_reduce"
}
layer {
  name: "inception_3a/3x3"
  type: "Convolution"
  bottom: "inception_3a/3x3_reduce"
  top: "inception_3a/3x3"
  param {
    lr_mult: 1
    decay_mult: 1
  }
  param {
    lr_mult: 2
    decay_mult: 0
  }
  convolution_param {
    num_output: 128
    pad: 1
    kernel_size: 3
    weight_filler {
      type: "xavier"
      std: 0.03
    }
    bias_filler {
      type: "constant"
      value: 0.2
    }
  }
}
layer {
  name: "inception_3a/relu_3x3"
  type: "ReLU"
  bottom: "inception_3a/3x3"
  top: "inception_3a/3x3"
}
layer {
  name: "inception_3a/5x5_reduce"
  type: "Convolution"
  bottom: "pool2/3x3_s2"
  top: "inception_3a/5x5_reduce"
  param {
    lr_mult: 1
    decay_mult: 1
  }
  param {
    lr_mult: 2
    decay_mult: 0
  }
  convolution_param {
    num_output: 16
    kernel_size: 1
    weight_filler {
      type: "xavier"
      std: 0.2
    }
    bias_filler {
      type: "constant"
      value: 0.2
    }
  }
}
layer {
  name: "inception_3a/relu_5x5_reduce"
  type: "ReLU"
  bottom: "inception_3a/5x5_reduce"
  top: "inception_3a/5x5_reduce"
}
layer {
  name: "inception_3a/5x5"
  type: "Convolution"
  bottom: "inception_3a/5x5_reduce"
  top: "inception_3a/5x5"
  param {
    lr_mult: 1
    decay_mult: 1
  }
  param {
    lr_mult: 2
    decay_mult: 0
  }
  convolution_param {
    num_output: 32
    pad: 2
    kernel_size: 5
    weight_filler {
      type: "xavier"
      std: 0.03
    }
    bias_filler {
      type: "constant"
      value: 0.2
    }
  }
}
layer {
  name: "inception_3a/relu_5x5"
  type: "ReLU"
  bottom: "inception_3a/5x5"
  top: "inception_3a/5x5"
}
layer {
  name: "inception_3a/pool"
  type: "Pooling"
  bottom: "pool2/3x3_s2"
  top: "inception_3a/pool"
  pooling_param {
    pool: MAX
    kernel_size: 3
    stride: 1
    pad: 1
  }
}
layer {
  name: "inception_3a/pool_proj"
  type: "Convolution"
  bottom: "inception_3a/pool"
  top: "inception_3a/pool_proj"
  param {
    lr_mult: 1
    decay_mult: 1
  }
  param {
    lr_mult: 2
    decay_mult: 0
  }
  convolution_param {
    num_output: 32
    kernel_size: 1
    weight_filler {
      type: "xavier"
      std: 0.1
    }
    bias_filler {
      type: "constant"
      value: 0.2
    }
  }
}
layer {
  name: "inception_3a/relu_pool_proj"
  type: "ReLU"
  bottom: "inception_3a/pool_proj"
  top: "inception_3a/pool_proj"
}
layer {
  name: "inception_3a/output"
  type: "Concat"
  bottom: "inception_3a/1x1"
  bottom: "inception_3a/3x3"
  bottom: "inception_3a/5x5"
  bottom: "inception_3a/pool_proj"
  top: "inception_3a/output"
}
layer {
  name: "inception_3b/1x1"
  type: "Convolution"
  bottom: "inception_3a/output"
  top: "inception_3b/1x1"
  param {
    lr_mult: 1
    decay_mult: 1
  }
  param {
    lr_mult: 2
    decay_mult: 0
  }
  convolution_param {
    num_output: 128
    kernel_size: 1
    weight_filler {
      type: "xavier"
      std: 0.03
    }
    bias_filler {
      type: "constant"
      value: 0.2
    }
  }
}
layer {
  name: "inception_3b/relu_1x1"
  type: "ReLU"
  bottom: "inception_3b/1x1"
  top: "inception_3b/1x1"
}
layer {
  name: "inception_3b/3x3_reduce"
  type: "Convolution"
  bottom: "inception_3a/output"
  top: "inception_3b/3x3_reduce"
  param {
    lr_mult: 1
    decay_mult: 1
  }
  param {
    lr_mult: 2
    decay_mult: 0
  }
  convolution_param {
    num_output: 128
    kernel_size: 1
    weight_filler {
      type: "xavier"
      std: 0.09
    }
    bias_filler {
      type: "constant"
      value: 0.2
    }
  }
}
layer {
  name: "inception_3b/relu_3x3_reduce"
  type: "ReLU"
  bottom: "inception_3b/3x3_reduce"
  top: "inception_3b/3x3_reduce"
}
layer {
  name: "inception_3b/3x3"
  type: "Convolution"
  bottom: "inception_3b/3x3_reduce"
  top: "inception_3b/3x3"
  param {
    lr_mult: 1
    decay_mult: 1
  }
  param {
    lr_mult: 2
    decay_mult: 0
  }
  convolution_param {
    num_output: 192
    pad: 1
    kernel_size: 3
    weight_filler {
      type: "xavier"
      std: 0.03
    }
    bias_filler {
      type: "constant"
      value: 0.2
    }
  }
}
layer {
  name: "inception_3b/relu_3x3"
  type: "ReLU"
  bottom: "inception_3b/3x3"
  top: "inception_3b/3x3"
}
layer {
  name: "inception_3b/5x5_reduce"
  type: "Convolution"
  bottom: "inception_3a/output"
  top: "inception_3b/5x5_reduce"
  param {
    lr_mult: 1
    decay_mult: 1
  }
  param {
    lr_mult: 2
    decay_mult: 0
  }
  convolution_param {
    num_output: 32
    kernel_size: 1
    weight_filler {
      type: "xavier"
      std: 0.2
    }
    bias_filler {
      type: "constant"
      value: 0.2
    }
  }
}
layer {
  name: "inception_3b/relu_5x5_reduce"
  type: "ReLU"
  bottom: "inception_3b/5x5_reduce"
  top: "inception_3b/5x5_reduce"
}
layer {
  name: "inception_3b/5x5"
  type: "Convolution"
  bottom: "inception_3b/5x5_reduce"
  top: "inception_3b/5x5"
  param {
    lr_mult: 1
    decay_mult: 1
  }
  param {
    lr_mult: 2
    decay_mult: 0
  }
  convolution_param {
    num_output: 96
    pad: 2
    kernel_size: 5
    weight_filler {
      type: "xavier"
      std: 0.03
    }
    bias_filler {
      type: "constant"
      value: 0.2
    }
  }
}
layer {
  name: "inception_3b/relu_5x5"
  type: "ReLU"
  bottom: "inception_3b/5x5"
  top: "inception_3b/5x5"
}
layer {
  name: "inception_3b/pool"
  type: "Pooling"
  bottom: "inception_3a/output"
  top: "inception_3b/pool"
  pooling_param {
    pool: MAX
    kernel_size: 3
    stride: 1
    pad: 1
  }
}
layer {
  name: "inception_3b/pool_proj"
  type: "Convolution"
  bottom: "inception_3b/pool"
  top: "inception_3b/pool_proj"
  param {
    lr_mult: 1
    decay_mult: 1
  }
  param {
    lr_mult: 2
    decay_mult: 0
  }
  convolution_param {
    num_output: 64
    kernel_size: 1
    weight_filler {
      type: "xavier"
      std: 0.1
    }
    bias_filler {
      type: "constant"
      value: 0.2
    }
  }
}
layer {
  name: "inception_3b/relu_pool_proj"
  type: "ReLU"
  bottom: "inception_3b/pool_proj"
  top: "inception_3b/pool_proj"
}
layer {
  name: "inception_3b/output"
  type: "Concat"
  bottom: "inception_3b/1x1"
  bottom: "inception_3b/3x3"
  bottom: "inception_3b/5x5"
  bottom: "inception_3b/pool_proj"
  top: "inception_3b/output"
}
layer {
  name: "pool3/3x3_s2"
  type: "Pooling"
  bottom: "inception_3b/output"
  top: "pool3/3x3_s2"
  pooling_param {
    pool: MAX
    kernel_size: 3
    stride: 2
  }
}
layer {
  name: "inception_4a/1x1"
  type: "Convolution"
  bottom: "pool3/3x3_s2"
  top: "inception_4a/1x1"
  param {
    lr_mult: 1
    decay_mult: 1
  }
  param {
    lr_mult: 2
    decay_mult: 0
  }
  convolution_param {
    num_output: 192
    kernel_size: 1
    weight_filler {
      type: "xavier"
      std: 0.03
    }
    bias_filler {
      type: "constant"
      value: 0.2
    }
  }
}
layer {
  name: "inception_4a/relu_1x1"
  type: "ReLU"
  bottom: "inception_4a/1x1"
  top: "inception_4a/1x1"
}
layer {
  name: "inception_4a/3x3_reduce"
  type: "Convolution"
  bottom: "pool3/3x3_s2"
  top: "inception_4a/3x3_reduce"
  param {
    lr_mult: 1
    decay_mult: 1
  }
  param {
    lr_mult: 2
    decay_mult: 0
  }
  convolution_param {
    num_output: 96
    kernel_size: 1
    weight_filler {
      type: "xavier"
      std: 0.09
    }
    bias_filler {
      type: "constant"
      value: 0.2
    }
  }
}
layer {
  name: "inception_4a/relu_3x3_reduce"
  type: "ReLU"
  bottom: "inception_4a/3x3_reduce"
  top: "inception_4a/3x3_reduce"
}
layer {
  name: "inception_4a/3x3"
  type: "Convolution"
  bottom: "inception_4a/3x3_reduce"
  top: "inception_4a/3x3"
  param {
    lr_mult: 1
    decay_mult: 1
  }
  param {
    lr_mult: 2
    decay_mult: 0
  }
  convolution_param {
    num_output: 208
    pad: 1
    kernel_size: 3
    weight_filler {
      type: "xavier"
      std: 0.03
    }
    bias_filler {
      type: "constant"
      value: 0.2
    }
  }
}
layer {
  name: "inception_4a/relu_3x3"
  type: "ReLU"
  bottom: "inception_4a/3x3"
  top: "inception_4a/3x3"
}
layer {
  name: "inception_4a/5x5_reduce"
  type: "Convolution"
  bottom: "pool3/3x3_s2"
  top: "inception_4a/5x5_reduce"
  param {
    lr_mult: 1
    decay_mult: 1
  }
  param {
    lr_mult: 2
    decay_mult: 0
  }
  convolution_param {
    num_output: 16
    kernel_size: 1
    weight_filler {
      type: "xavier"
      std: 0.2
    }
    bias_filler {
      type: "constant"
      value: 0.2
    }
  }
}
layer {
  name: "inception_4a/relu_5x5_reduce"
  type: "ReLU"
  bottom: "inception_4a/5x5_reduce"
  top: "inception_4a/5x5_reduce"
}
layer {
  name: "inception_4a/5x5"
  type: "Convolution"
  bottom: "inception_4a/5x5_reduce"
  top: "inception_4a/5x5"
  param {
    lr_mult: 1
    decay_mult: 1
  }
  param {
    lr_mult: 2
    decay_mult: 0
  }
  convolution_param {
    num_output: 48
    pad: 2
    kernel_size: 5
    weight_filler {
      type: "xavier"
      std: 0.03
    }
    bias_filler {
      type: "constant"
      value: 0.2
    }
  }
}
layer {
  name: "inception_4a/relu_5x5"
  type: "ReLU"
  bottom: "inception_4a/5x5"
  top: "inception_4a/5x5"
}
layer {
  name: "inception_4a/pool"
  type: "Pooling"
  bottom: "pool3/3x3_s2"
  top: "inception_4a/pool"
  pooling_param {
    pool: MAX
    kernel_size: 3
    stride: 1
    pad: 1
  }
}
layer {
  name: "inception_4a/pool_proj"
  type: "Convolution"
  bottom: "inception_4a/pool"
  top: "inception_4a/pool_proj"
  param {
    lr_mult: 1
    decay_mult: 1
  }
  param {
    lr_mult: 2
    decay_mult: 0
  }
  convolution_param {
    num_output: 64
    kernel_size: 1
    weight_filler {
      type: "xavier"
      std: 0.1
    }
    bias_filler {
      type: "constant"
      value: 0.2
    }
  }
}
layer {
  name: "inception_4a/relu_pool_proj"
  type: "ReLU"
  bottom: "inception_4a/pool_proj"
  top: "inception_4a/pool_proj"
}
layer {
  name: "inception_4a/output"
  type: "Concat"
  bottom: "inception_4a/1x1"
  bottom: "inception_4a/3x3"
  bottom: "inception_4a/5x5"
  bottom: "inception_4a/pool_proj"
  top: "inception_4a/output"
}
layer {
  name: "loss1/ave_pool"
  type: "Pooling"
  bottom: "inception_4a/output"
  top: "loss1/ave_pool"
  pooling_param {
    pool: AVE
    kernel_size: 5
    stride: 3
  }
}
layer {
  name: "loss1/conv"
  type: "Convolution"
  bottom: "loss1/ave_pool"
  top: "loss1/conv"
  param {
    lr_mult: 1
    decay_mult: 1
  }
  param {
    lr_mult: 2
    decay_mult: 0
  }
  convolution_param {
    num_output: 128
    kernel_size: 1
    weight_filler {
      type: "xavier"
      std: 0.08
    }
    bias_filler {
      type: "constant"
      value: 0.2
    }
  }
}
layer {
  name: "loss1/relu_conv"
  type: "ReLU"
  bottom: "loss1/conv"
  top: "loss1/conv"
}
layer {
  name: "loss1/fc"
  type: "InnerProduct"
  bottom: "loss1/conv"
  top: "loss1/fc"
  param {
    lr_mult: 1
    decay_mult: 1
  }
  param {
    lr_mult: 2
    decay_mult: 0
  }
  inner_product_param {
    num_output: 1024
    weight_filler {
      type: "xavier"
      std: 0.02
    }
    bias_filler {
      type: "constant"
      value: 0.2
    }
  }
}
layer {
  name: "loss1/relu_fc"
  type: "ReLU"
  bottom: "loss1/fc"
  top: "loss1/fc"
}
layer {
  name: "loss1/drop_fc"
  type: "Dropout"
  bottom: "loss1/fc"
  top: "loss1/fc"
  dropout_param {
    dropout_ratio: 0.7
  }
}
layer {
  name: "loss1/classifier_plantvillage"
  type: "InnerProduct"
  bottom: "loss1/fc"
  top: "loss1/classifier_plantvillage"
  param {
    lr_mult: 1
    decay_mult: 1
  }
  param {
    lr_mult: 2
    decay_mult: 0
  }
  inner_product_param {
    num_output: 38
    weight_filler {
      type: "xavier"
      std: 0.0009765625
    }
    bias_filler {
      type: "constant"
      value: 0
    }
  }
}
layer {
  name: "inception_4b/1x1"
  type: "Convolution"
  bottom: "inception_4a/output"
  top: "inception_4b/1x1"
  param {
    lr_mult: 1
    decay_mult: 1
  }
  param {
    lr_mult: 2
    decay_mult: 0
  }
  convolution_param {
    num_output: 160
    kernel_size: 1
    weight_filler {
      type: "xavier"
      std: 0.03
    }
    bias_filler {
      type: "constant"
      value: 0.2
    }
  }
}
layer {
  name: "inception_4b/relu_1x1"
  type: "ReLU"
  bottom: "inception_4b/1x1"
  top: "inception_4b/1x1"
}
layer {
  name: "inception_4b/3x3_reduce"
  type: "Convolution"
  bottom: "inception_4a/output"
  top: "inception_4b/3x3_reduce"
  param {
    lr_mult: 1
    decay_mult: 1
  }
  param {
    lr_mult: 2
    decay_mult: 0
  }
  convolution_param {
    num_output: 112
    kernel_size: 1
    weight_filler {
      type: "xavier"
      std: 0.09
    }
    bias_filler {
      type: "constant"
      value: 0.2
    }
  }
}
layer {
  name: "inception_4b/relu_3x3_reduce"
  type: "ReLU"
  bottom: "inception_4b/3x3_reduce"
  top: "inception_4b/3x3_reduce"
}
layer {
  name: "inception_4b/3x3"
  type: "Convolution"
  bottom: "inception_4b/3x3_reduce"
  top: "inception_4b/3x3"
  param {
    lr_mult: 1
    decay_mult: 1
  }
  param {
    lr_mult: 2
    decay_mult: 0
  }
  convolution_param {
    num_output: 224
    pad: 1
    kernel_size: 3
    weight_filler {
      type: "xavier"
      std: 0.03
    }
    bias_filler {
      type: "constant"
      value: 0.2
    }
  }
}
layer {
  name: "inception_4b/relu_3x3"
  type: "ReLU"
  bottom: "inception_4b/3x3"
  top: "inception_4b/3x3"
}
layer {
  name: "inception_4b/5x5_reduce"
  type: "Convolution"
  bottom: "inception_4a/output"
  top: "inception_4b/5x5_reduce"
  param {
    lr_mult: 1
    decay_mult: 1
  }
  param {
    lr_mult: 2
    decay_mult: 0
  }
  convolution_param {
    num_output: 24
    kernel_size: 1
    weight_filler {
      type: "xavier"
      std: 0.2
    }
    bias_filler {
      type: "constant"
      value: 0.2
    }
  }
}
layer {
  name: "inception_4b/relu_5x5_reduce"
  type: "ReLU"
  bottom: "inception_4b/5x5_reduce"
  top: "inception_4b/5x5_reduce"
}
layer {
  name: "inception_4b/5x5"
  type: "Convolution"
  bottom: "inception_4b/5x5_reduce"
  top: "inception_4b/5x5"
  param {
    lr_mult: 1
    decay_mult: 1
  }
  param {
    lr_mult: 2
    decay_mult: 0
  }
  convolution_param {
    num_output: 64
    pad: 2
    kernel_size: 5
    weight_filler {
      type: "xavier"
      std: 0.03
    }
    bias_filler {
      type: "constant"
      value: 0.2
    }
  }
}
layer {
  name: "inception_4b/relu_5x5"
  type: "ReLU"
  bottom: "inception_4b/5x5"
  top: "inception_4b/5x5"
}
layer {
  name: "inception_4b/pool"
  type: "Pooling"
  bottom: "inception_4a/output"
  top: "inception_4b/pool"
  pooling_param {
    pool: MAX
    kernel_size: 3
    stride: 1
    pad: 1
  }
}
layer {
  name: "inception_4b/pool_proj"
  type: "Convolution"
  bottom: "inception_4b/pool"
  top: "inception_4b/pool_proj"
  param {
    lr_mult: 1
    decay_mult: 1
  }
  param {
    lr_mult: 2
    decay_mult: 0
  }
  convolution_param {
    num_output: 64
    kernel_size: 1
    weight_filler {
      type: "xavier"
      std: 0.1
    }
    bias_filler {
      type: "constant"
      value: 0.2
    }
  }
}
layer {
  name: "inception_4b/relu_pool_proj"
  type: "ReLU"
  bottom: "inception_4b/pool_proj"
  top: "inception_4b/pool_proj"
}
layer {
  name: "inception_4b/output"
  type: "Concat"
  bottom: "inception_4b/1x1"
  bottom: "inception_4b/3x3"
  bottom: "inception_4b/5x5"
  bottom: "inception_4b/pool_proj"
  top: "inception_4b/output"
}
layer {
  name: "inception_4c/1x1"
  type: "Convolution"
  bottom: "inception_4b/output"
  top: "inception_4c/1x1"
  param {
    lr_mult: 1
    decay_mult: 1
  }
  param {
    lr_mult: 2
    decay_mult: 0
  }
  convolution_param {
    num_output: 128
    kernel_size: 1
    weight_filler {
      type: "xavier"
      std: 0.03
    }
    bias_filler {
      type: "constant"
      value: 0.2
    }
  }
}
layer {
  name: "inception_4c/relu_1x1"
  type: "ReLU"
  bottom: "inception_4c/1x1"
  top: "inception_4c/1x1"
}
layer {
  name: "inception_4c/3x3_reduce"
  type: "Convolution"
  bottom: "inception_4b/output"
  top: "inception_4c/3x3_reduce"
  param {
    lr_mult: 1
    decay_mult: 1
  }
  param {
    lr_mult: 2
    decay_mult: 0
  }
  convolution_param {
    num_output: 128
    kernel_size: 1
    weight_filler {
      type: "xavier"
      std: 0.09
    }
    bias_filler {
      type: "constant"
      value: 0.2
    }
  }
}
layer {
  name: "inception_4c/relu_3x3_reduce"
  type: "ReLU"
  bottom: "inception_4c/3x3_reduce"
  top: "inception_4c/3x3_reduce"
}
layer {
  name: "inception_4c/3x3"
  type: "Convolution"
  bottom: "inception_4c/3x3_reduce"
  top: "inception_4c/3x3"
  param {
    lr_mult: 1
    decay_mult: 1
  }
  param {
    lr_mult: 2
    decay_mult: 0
  }
  convolution_param {
    num_output: 256
    pad: 1
    kernel_size: 3
    weight_filler {
      type: "xavier"
      std: 0.03
    }
    bias_filler {
      type: "constant"
      value: 0.2
    }
  }
}
layer {
  name: "inception_4c/relu_3x3"
  type: "ReLU"
  bottom: "inception_4c/3x3"
  top: "inception_4c/3x3"
}
layer {
  name: "inception_4c/5x5_reduce"
  type: "Convolution"
  bottom: "inception_4b/output"
  top: "inception_4c/5x5_reduce"
  param {
    lr_mult: 1
    decay_mult: 1
  }
  param {
    lr_mult: 2
    decay_mult: 0
  }
  convolution_param {
    num_output: 24
    kernel_size: 1
    weight_filler {
      type: "xavier"
      std: 0.2
    }
    bias_filler {
      type: "constant"
      value: 0.2
    }
  }
}
layer {
  name: "inception_4c/relu_5x5_reduce"
  type: "ReLU"
  bottom: "inception_4c/5x5_reduce"
  top: "inception_4c/5x5_reduce"
}
layer {
  name: "inception_4c/5x5"
  type: "Convolution"
  bottom: "inception_4c/5x5_reduce"
  top: "inception_4c/5x5"
  param {
    lr_mult: 1
    decay_mult: 1
  }
  param {
    lr_mult: 2
    decay_mult: 0
  }
  convolution_param {
    num_output: 64
    pad: 2
    kernel_size: 5
    weight_filler {
      type: "xavier"
      std: 0.03
    }
    bias_filler {
      type: "constant"
      value: 0.2
    }
  }
}
layer {
  name: "inception_4c/relu_5x5"
  type: "ReLU"
  bottom: "inception_4c/5x5"
  top: "inception_4c/5x5"
}
layer {
  name: "inception_4c/pool"
  type: "Pooling"
  bottom: "inception_4b/output"
  top: "inception_4c/pool"
  pooling_param {
    pool: MAX
    kernel_size: 3
    stride: 1
    pad: 1
  }
}
layer {
  name: "inception_4c/pool_proj"
  type: "Convolution"
  bottom: "inception_4c/pool"
  top: "inception_4c/pool_proj"
  param {
    lr_mult: 1
    decay_mult: 1
  }
  param {
    lr_mult: 2
    decay_mult: 0
  }
  convolution_param {
    num_output: 64
    kernel_size: 1
    weight_filler {
      type: "xavier"
      std: 0.1
    }
    bias_filler {
      type: "constant"
      value: 0.2
    }
  }
}
layer {
  name: "inception_4c/relu_pool_proj"
  type: "ReLU"
  bottom: "inception_4c/pool_proj"
  top: "inception_4c/pool_proj"
}
layer {
  name: "inception_4c/output"
  type: "Concat"
  bottom: "inception_4c/1x1"
  bottom: "inception_4c/3x3"
  bottom: "inception_4c/5x5"
  bottom: "inception_4c/pool_proj"
  top: "inception_4c/output"
}
layer {
  name: "inception_4d/1x1"
  type: "Convolution"
  bottom: "inception_4c/output"
  top: "inception_4d/1x1"
  param {
    lr_mult: 1
    decay_mult: 1
  }
  param {
    lr_mult: 2
    decay_mult: 0
  }
  convolution_param {
    num_output: 112
    kernel_size: 1
    weight_filler {
      type: "xavier"
      std: 0.03
    }
    bias_filler {
      type: "constant"
      value: 0.2
    }
  }
}
layer {
  name: "inception_4d/relu_1x1"
  type: "ReLU"
  bottom: "inception_4d/1x1"
  top: "inception_4d/1x1"
}
layer {
  name: "inception_4d/3x3_reduce"
  type: "Convolution"
  bottom: "inception_4c/output"
  top: "inception_4d/3x3_reduce"
  param {
    lr_mult: 1
    decay_mult: 1
  }
  param {
    lr_mult: 2
    decay_mult: 0
  }
  convolution_param {
    num_output: 144
    kernel_size: 1
    weight_filler {
      type: "xavier"
      std: 0.09
    }
    bias_filler {
      type: "constant"
      value: 0.2
    }
  }
}
layer {
  name: "inception_4d/relu_3x3_reduce"
  type: "ReLU"
  bottom: "inception_4d/3x3_reduce"
  top: "inception_4d/3x3_reduce"
}
layer {
  name: "inception_4d/3x3"
  type: "Convolution"
  bottom: "inception_4d/3x3_reduce"
  top: "inception_4d/3x3"
  param {
    lr_mult: 1
    decay_mult: 1
  }
  param {
    lr_mult: 2
    decay_mult: 0
  }
  convolution_param {
    num_output: 288
    pad: 1
    kernel_size: 3
    weight_filler {
      type: "xavier"
      std: 0.03
    }
    bias_filler {
      type: "constant"
      value: 0.2
    }
  }
}
layer {
  name: "inception_4d/relu_3x3"
  type: "ReLU"
  bottom: "inception_4d/3x3"
  top: "inception_4d/3x3"
}
layer {
  name: "inception_4d/5x5_reduce"
  type: "Convolution"
  bottom: "inception_4c/output"
  top: "inception_4d/5x5_reduce"
  param {
    lr_mult: 1
    decay_mult: 1
  }
  param {
    lr_mult: 2
    decay_mult: 0
  }
  convolution_param {
    num_output: 32
    kernel_size: 1
    weight_filler {
      type: "xavier"
      std: 0.2
    }
    bias_filler {
      type: "constant"
      value: 0.2
    }
  }
}
layer {
  name: "inception_4d/relu_5x5_reduce"
  type: "ReLU"
  bottom: "inception_4d/5x5_reduce"
  top: "inception_4d/5x5_reduce"
}
layer {
  name: "inception_4d/5x5"
  type: "Convolution"
  bottom: "inception_4d/5x5_reduce"
  top: "inception_4d/5x5"
  param {
    lr_mult: 1
    decay_mult: 1
  }
  param {
    lr_mult: 2
    decay_mult: 0
  }
  convolution_param {
    num_output: 64
    pad: 2
    kernel_size: 5
    weight_filler {
      type: "xavier"
      std: 0.03
    }
    bias_filler {
      type: "constant"
      value: 0.2
    }
  }
}
layer {
  name: "inception_4d/relu_5x5"
  type: "ReLU"
  bottom: "inception_4d/5x5"
  top: "inception_4d/5x5"
}
layer {
  name: "inception_4d/pool"
  type: "Pooling"
  bottom: "inception_4c/output"
  top: "inception_4d/pool"
  pooling_param {
    pool: MAX
    kernel_size: 3
    stride: 1
    pad: 1
  }
}
layer {
  name: "inception_4d/pool_proj"
  type: "Convolution"
  bottom: "inception_4d/pool"
  top: "inception_4d/pool_proj"
  param {
    lr_mult: 1
    decay_mult: 1
  }
  param {
    lr_mult: 2
    decay_mult: 0
  }
  convolution_param {
    num_output: 64
    kernel_size: 1
    weight_filler {
      type: "xavier"
      std: 0.1
    }
    bias_filler {
      type: "constant"
      value: 0.2
    }
  }
}
layer {
  name: "inception_4d/relu_pool_proj"
  type: "ReLU"
  bottom: "inception_4d/pool_proj"
  top: "inception_4d/pool_proj"
}
layer {
  name: "inception_4d/output"
  type: "Concat"
  bottom: "inception_4d/1x1"
  bottom: "inception_4d/3x3"
  bottom: "inception_4d/5x5"
  bottom: "inception_4d/pool_proj"
  top: "inception_4d/output"
}
layer {
  name: "loss2/ave_pool"
  type: "Pooling"
  bottom: "inception_4d/output"
  top: "loss2/ave_pool"
  pooling_param {
    pool: AVE
    kernel_size: 5
    stride: 3
  }
}
layer {
  name: "loss2/conv"
  type: "Convolution"
  bottom: "loss2/ave_pool"
  top: "loss2/conv"
  param {
    lr_mult: 1
    decay_mult: 1
  }
  param {
    lr_mult: 2
    decay_mult: 0
  }
  convolution_param {
    num_output: 128
    kernel_size: 1
    weight_filler {
      type: "xavier"
      std: 0.08
    }
    bias_filler {
      type: "constant"
      value: 0.2
    }
  }
}
layer {
  name: "loss2/relu_conv"
  type: "ReLU"
  bottom: "loss2/conv"
  top: "loss2/conv"
}
layer {
  name: "loss2/fc"
  type: "InnerProduct"
  bottom: "loss2/conv"
  top: "loss2/fc"
  param {
    lr_mult: 1
    decay_mult: 1
  }
  param {
    lr_mult: 2
    decay_mult: 0
  }
  inner_product_param {
    num_output: 1024
    weight_filler {
      type: "xavier"
      std: 0.02
    }
    bias_filler {
      type: "constant"
      value: 0.2
    }
  }
}
layer {
  name: "loss2/relu_fc"
  type: "ReLU"
  bottom: "loss2/fc"
  top: "loss2/fc"
}
layer {
  name: "loss2/drop_fc"
  type: "Dropout"
  bottom: "loss2/fc"
  top: "loss2/fc"
  dropout_param {
    dropout_ratio: 0.7
  }
}
layer {
  name: "loss2/classifier_plantvillage"
  type: "InnerProduct"
  bottom: "loss2/fc"
  top: "loss2/classifier_plantvillage"
  param {
    lr_mult: 1
    decay_mult: 1
  }
  param {
    lr_mult: 2
    decay_mult: 0
  }
  inner_product_param {
    num_output: 38
    weight_filler {
      type: "xavier"
      std: 0.0009765625
    }
    bias_filler {
      type: "constant"
      value: 0
    }
  }
}
layer {
  name: "inception_4e/1x1"
  type: "Convolution"
  bottom: "inception_4d/output"
  top: "inception_4e/1x1"
  param {
    lr_mult: 1
    decay_mult: 1
  }
  param {
    lr_mult: 2
    decay_mult: 0
  }
  convolution_param {
    num_output: 256
    kernel_size: 1
    weight_filler {
      type: "xavier"
      std: 0.03
    }
    bias_filler {
      type: "constant"
      value: 0.2
    }
  }
}
layer {
  name: "inception_4e/relu_1x1"
  type: "ReLU"
  bottom: "inception_4e/1x1"
  top: "inception_4e/1x1"
}
layer {
  name: "inception_4e/3x3_reduce"
  type: "Convolution"
  bottom: "inception_4d/output"
  top: "inception_4e/3x3_reduce"
  param {
    lr_mult: 1
    decay_mult: 1
  }
  param {
    lr_mult: 2
    decay_mult: 0
  }
  convolution_param {
    num_output: 160
    kernel_size: 1
    weight_filler {
      type: "xavier"
      std: 0.09
    }
    bias_filler {
      type: "constant"
      value: 0.2
    }
  }
}
layer {
  name: "inception_4e/relu_3x3_reduce"
  type: "ReLU"
  bottom: "inception_4e/3x3_reduce"
  top: "inception_4e/3x3_reduce"
}
layer {
  name: "inception_4e/3x3"
  type: "Convolution"
  bottom: "inception_4e/3x3_reduce"
  top: "inception_4e/3x3"
  param {
    lr_mult: 1
    decay_mult: 1
  }
  param {
    lr_mult: 2
    decay_mult: 0
  }
  convolution_param {
    num_output: 320
    pad: 1
    kernel_size: 3
    weight_filler {
      type: "xavier"
      std: 0.03
    }
    bias_filler {
      type: "constant"
      value: 0.2
    }
  }
}
layer {
  name: "inception_4e/relu_3x3"
  type: "ReLU"
  bottom: "inception_4e/3x3"
  top: "inception_4e/3x3"
}
layer {
  name: "inception_4e/5x5_reduce"
  type: "Convolution"
  bottom: "inception_4d/output"
  top: "inception_4e/5x5_reduce"
  param {
    lr_mult: 1
    decay_mult: 1
  }
  param {
    lr_mult: 2
    decay_mult: 0
  }
  convolution_param {
    num_output: 32
    kernel_size: 1
    weight_filler {
      type: "xavier"
      std: 0.2
    }
    bias_filler {
      type: "constant"
      value: 0.2
    }
  }
}
layer {
  name: "inception_4e/relu_5x5_reduce"
  type: "ReLU"
  bottom: "inception_4e/5x5_reduce"
  top: "inception_4e/5x5_reduce"
}
layer {
  name: "inception_4e/5x5"
  type: "Convolution"
  bottom: "inception_4e/5x5_reduce"
  top: "inception_4e/
I0403 15:05:44.312119  2650 layer_factory.hpp:77] Creating layer data
I0403 15:05:44.312723  2650 net.cpp:91] Creating Layer data
I0403 15:05:44.312754  2650 net.cpp:399] data -> data
I0403 15:05:44.312804  2650 net.cpp:399] data -> label
I0403 15:05:44.312842  2650 data_transformer.cpp:25] Loading mean file from: /home/mohanty/data/final_dataset/lmdb/segmented-60-40/mean.binaryproto
I0403 15:05:44.315184  2655 db_lmdb.cpp:38] Opened lmdb /home/mohanty/data/final_dataset/lmdb/segmented-60-40/test_db
I0403 15:05:44.326159  2650 data_layer.cpp:41] output data size: 24,3,224,224
I0403 15:05:44.354084  2650 net.cpp:141] Setting up data
I0403 15:05:44.354185  2650 net.cpp:148] Top shape: 24 3 224 224 (3612672)
I0403 15:05:44.354207  2650 net.cpp:148] Top shape: 24 (24)
I0403 15:05:44.354230  2650 net.cpp:156] Memory required for data: 14450784
I0403 15:05:44.354260  2650 layer_factory.hpp:77] Creating layer label_data_1_split
I0403 15:05:44.354288  2650 net.cpp:91] Creating Layer label_data_1_split
I0403 15:05:44.354308  2650 net.cpp:425] label_data_1_split <- label
I0403 15:05:44.354341  2650 net.cpp:399] label_data_1_split -> label_data_1_split_0
I0403 15:05:44.354369  2650 net.cpp:399] label_data_1_split -> label_data_1_split_1
I0403 15:05:44.354390  2650 net.cpp:399] label_data_1_split -> label_data_1_split_2
I0403 15:05:44.354413  2650 net.cpp:399] label_data_1_split -> label_data_1_split_3
I0403 15:05:44.354434  2650 net.cpp:399] label_data_1_split -> label_data_1_split_4
I0403 15:05:44.354454  2650 net.cpp:399] label_data_1_split -> label_data_1_split_5
I0403 15:05:44.354475  2650 net.cpp:399] label_data_1_split -> label_data_1_split_6
I0403 15:05:44.354496  2650 net.cpp:399] label_data_1_split -> label_data_1_split_7
I0403 15:05:44.354516  2650 net.cpp:399] label_data_1_split -> label_data_1_split_8
I0403 15:05:44.354537  2650 net.cpp:399] label_data_1_split -> label_data_1_split_9
I0403 15:05:44.354660  2650 net.cpp:141] Setting up label_data_1_split
I0403 15:05:44.354683  2650 net.cpp:148] Top shape: 24 (24)
I0403 15:05:44.354701  2650 net.cpp:148] Top shape: 24 (24)
I0403 15:05:44.354717  2650 net.cpp:148] Top shape: 24 (24)
I0403 15:05:44.354733  2650 net.cpp:148] Top shape: 24 (24)
I0403 15:05:44.354749  2650 net.cpp:148] Top shape: 24 (24)
I0403 15:05:44.354765  2650 net.cpp:148] Top shape: 24 (24)
I0403 15:05:44.354782  2650 net.cpp:148] Top shape: 24 (24)
I0403 15:05:44.354797  2650 net.cpp:148] Top shape: 24 (24)
I0403 15:05:44.354815  2650 net.cpp:148] Top shape: 24 (24)
I0403 15:05:44.354830  2650 net.cpp:148] Top shape: 24 (24)
I0403 15:05:44.354876  2650 net.cpp:156] Memory required for data: 14451744
I0403 15:05:44.354892  2650 layer_factory.hpp:77] Creating layer conv1/7x7_s2
I0403 15:05:44.354926  2650 net.cpp:91] Creating Layer conv1/7x7_s2
I0403 15:05:44.354944  2650 net.cpp:425] conv1/7x7_s2 <- data
I0403 15:05:44.354964  2650 net.cpp:399] conv1/7x7_s2 -> conv1/7x7_s2
I0403 15:05:44.497481  2650 net.cpp:141] Setting up conv1/7x7_s2
I0403 15:05:44.497526  2650 net.cpp:148] Top shape: 24 64 112 112 (19267584)
I0403 15:05:44.497545  2650 net.cpp:156] Memory required for data: 91522080
I0403 15:05:44.497575  2650 layer_factory.hpp:77] Creating layer conv1/relu_7x7
I0403 15:05:44.497602  2650 net.cpp:91] Creating Layer conv1/relu_7x7
I0403 15:05:44.497622  2650 net.cpp:425] conv1/relu_7x7 <- conv1/7x7_s2
I0403 15:05:44.497640  2650 net.cpp:386] conv1/relu_7x7 -> conv1/7x7_s2 (in-place)
I0403 15:05:44.497907  2650 net.cpp:141] Setting up conv1/relu_7x7
I0403 15:05:44.497934  2650 net.cpp:148] Top shape: 24 64 112 112 (19267584)
I0403 15:05:44.497951  2650 net.cpp:156] Memory required for data: 168592416
I0403 15:05:44.497967  2650 layer_factory.hpp:77] Creating layer pool1/3x3_s2
I0403 15:05:44.497990  2650 net.cpp:91] Creating Layer pool1/3x3_s2
I0403 15:05:44.498008  2650 net.cpp:425] pool1/3x3_s2 <- conv1/7x7_s2
I0403 15:05:44.498028  2650 net.cpp:399] pool1/3x3_s2 -> pool1/3x3_s2
I0403 15:05:44.498100  2650 net.cpp:141] Setting up pool1/3x3_s2
I0403 15:05:44.498124  2650 net.cpp:148] Top shape: 24 64 56 56 (4816896)
I0403 15:05:44.498139  2650 net.cpp:156] Memory required for data: 187860000
I0403 15:05:44.498154  2650 layer_factory.hpp:77] Creating layer pool1/norm1
I0403 15:05:44.498178  2650 net.cpp:91] Creating Layer pool1/norm1
I0403 15:05:44.498195  2650 net.cpp:425] pool1/norm1 <- pool1/3x3_s2
I0403 15:05:44.498217  2650 net.cpp:399] pool1/norm1 -> pool1/norm1
I0403 15:05:44.498514  2650 net.cpp:141] Setting up pool1/norm1
I0403 15:05:44.498541  2650 net.cpp:148] Top shape: 24 64 56 56 (4816896)
I0403 15:05:44.498558  2650 net.cpp:156] Memory required for data: 207127584
I0403 15:05:44.498572  2650 layer_factory.hpp:77] Creating layer conv2/3x3_reduce
I0403 15:05:44.498596  2650 net.cpp:91] Creating Layer conv2/3x3_reduce
I0403 15:05:44.498613  2650 net.cpp:425] conv2/3x3_reduce <- pool1/norm1
I0403 15:05:44.498631  2650 net.cpp:399] conv2/3x3_reduce -> conv2/3x3_reduce
I0403 15:05:44.499994  2650 net.cpp:141] Setting up conv2/3x3_reduce
I0403 15:05:44.500022  2650 net.cpp:148] Top shape: 24 64 56 56 (4816896)
I0403 15:05:44.500039  2650 net.cpp:156] Memory required for data: 226395168
I0403 15:05:44.500061  2650 layer_factory.hpp:77] Creating layer conv2/relu_3x3_reduce
I0403 15:05:44.500080  2650 net.cpp:91] Creating Layer conv2/relu_3x3_reduce
I0403 15:05:44.500097  2650 net.cpp:425] conv2/relu_3x3_reduce <- conv2/3x3_reduce
I0403 15:05:44.500113  2650 net.cpp:386] conv2/relu_3x3_reduce -> conv2/3x3_reduce (in-place)
I0403 15:05:44.500375  2650 net.cpp:141] Setting up conv2/relu_3x3_reduce
I0403 15:05:44.500401  2650 net.cpp:148] Top shape: 24 64 56 56 (4816896)
I0403 15:05:44.500416  2650 net.cpp:156] Memory required for data: 245662752
I0403 15:05:44.500432  2650 layer_factory.hpp:77] Creating layer conv2/3x3
I0403 15:05:44.500453  2650 net.cpp:91] Creating Layer conv2/3x3
I0403 15:05:44.500471  2650 net.cpp:425] conv2/3x3 <- conv2/3x3_reduce
I0403 15:05:44.500490  2650 net.cpp:399] conv2/3x3 -> conv2/3x3
I0403 15:05:44.502784  2650 net.cpp:141] Setting up conv2/3x3
I0403 15:05:44.502815  2650 net.cpp:148] Top shape: 24 192 56 56 (14450688)
I0403 15:05:44.502830  2650 net.cpp:156] Memory required for data: 303465504
I0403 15:05:44.502852  2650 layer_factory.hpp:77] Creating layer conv2/relu_3x3
I0403 15:05:44.502871  2650 net.cpp:91] Creating Layer conv2/relu_3x3
I0403 15:05:44.502887  2650 net.cpp:425] conv2/relu_3x3 <- conv2/3x3
I0403 15:05:44.502904  2650 net.cpp:386] conv2/relu_3x3 -> conv2/3x3 (in-place)
I0403 15:05:44.503072  2650 net.cpp:141] Setting up conv2/relu_3x3
I0403 15:05:44.503098  2650 net.cpp:148] Top shape: 24 192 56 56 (14450688)
I0403 15:05:44.503142  2650 net.cpp:156] Memory required for data: 361268256
I0403 15:05:44.503159  2650 layer_factory.hpp:77] Creating layer conv2/norm2
I0403 15:05:44.503178  2650 net.cpp:91] Creating Layer conv2/norm2
I0403 15:05:44.503195  2650 net.cpp:425] conv2/norm2 <- conv2/3x3
I0403 15:05:44.503223  2650 net.cpp:399] conv2/norm2 -> conv2/norm2
I0403 15:05:44.503525  2650 net.cpp:141] Setting up conv2/norm2
I0403 15:05:44.503552  2650 net.cpp:148] Top shape: 24 192 56 56 (14450688)
I0403 15:05:44.503568  2650 net.cpp:156] Memory required for data: 419071008
I0403 15:05:44.503584  2650 layer_factory.hpp:77] Creating layer pool2/3x3_s2
I0403 15:05:44.503602  2650 net.cpp:91] Creating Layer pool2/3x3_s2
I0403 15:05:44.503618  2650 net.cpp:425] pool2/3x3_s2 <- conv2/norm2
I0403 15:05:44.503638  2650 net.cpp:399] pool2/3x3_s2 -> pool2/3x3_s2
I0403 15:05:44.503689  2650 net.cpp:141] Setting up pool2/3x3_s2
I0403 15:05:44.503711  2650 net.cpp:148] Top shape: 24 192 28 28 (3612672)
I0403 15:05:44.503726  2650 net.cpp:156] Memory required for data: 433521696
I0403 15:05:44.503741  2650 layer_factory.hpp:77] Creating layer pool2/3x3_s2_pool2/3x3_s2_0_split
I0403 15:05:44.503758  2650 net.cpp:91] Creating Layer pool2/3x3_s2_pool2/3x3_s2_0_split
I0403 15:05:44.503774  2650 net.cpp:425] pool2/3x3_s2_pool2/3x3_s2_0_split <- pool2/3x3_s2
I0403 15:05:44.503792  2650 net.cpp:399] pool2/3x3_s2_pool2/3x3_s2_0_split -> pool2/3x3_s2_pool2/3x3_s2_0_split_0
I0403 15:05:44.503811  2650 net.cpp:399] pool2/3x3_s2_pool2/3x3_s2_0_split -> pool2/3x3_s2_pool2/3x3_s2_0_split_1
I0403 15:05:44.503830  2650 net.cpp:399] pool2/3x3_s2_pool2/3x3_s2_0_split -> pool2/3x3_s2_pool2/3x3_s2_0_split_2
I0403 15:05:44.503850  2650 net.cpp:399] pool2/3x3_s2_pool2/3x3_s2_0_split -> pool2/3x3_s2_pool2/3x3_s2_0_split_3
I0403 15:05:44.503916  2650 net.cpp:141] Setting up pool2/3x3_s2_pool2/3x3_s2_0_split
I0403 15:05:44.503937  2650 net.cpp:148] Top shape: 24 192 28 28 (3612672)
I0403 15:05:44.503954  2650 net.cpp:148] Top shape: 24 192 28 28 (3612672)
I0403 15:05:44.503970  2650 net.cpp:148] Top shape: 24 192 28 28 (3612672)
I0403 15:05:44.503986  2650 net.cpp:148] Top shape: 24 192 28 28 (3612672)
I0403 15:05:44.504000  2650 net.cpp:156] Memory required for data: 491324448
I0403 15:05:44.504015  2650 layer_factory.hpp:77] Creating layer inception_3a/1x1
I0403 15:05:44.504035  2650 net.cpp:91] Creating Layer inception_3a/1x1
I0403 15:05:44.504052  2650 net.cpp:425] inception_3a/1x1 <- pool2/3x3_s2_pool2/3x3_s2_0_split_0
I0403 15:05:44.504070  2650 net.cpp:399] inception_3a/1x1 -> inception_3a/1x1
I0403 15:05:44.505600  2650 net.cpp:141] Setting up inception_3a/1x1
I0403 15:05:44.505630  2650 net.cpp:148] Top shape: 24 64 28 28 (1204224)
I0403 15:05:44.505647  2650 net.cpp:156] Memory required for data: 496141344
I0403 15:05:44.505666  2650 layer_factory.hpp:77] Creating layer inception_3a/relu_1x1
I0403 15:05:44.505684  2650 net.cpp:91] Creating Layer inception_3a/relu_1x1
I0403 15:05:44.505700  2650 net.cpp:425] inception_3a/relu_1x1 <- inception_3a/1x1
I0403 15:05:44.505717  2650 net.cpp:386] inception_3a/relu_1x1 -> inception_3a/1x1 (in-place)
I0403 15:05:44.505902  2650 net.cpp:141] Setting up inception_3a/relu_1x1
I0403 15:05:44.505926  2650 net.cpp:148] Top shape: 24 64 28 28 (1204224)
I0403 15:05:44.505941  2650 net.cpp:156] Memory required for data: 500958240
I0403 15:05:44.505956  2650 layer_factory.hpp:77] Creating layer inception_3a/3x3_reduce
I0403 15:05:44.505980  2650 net.cpp:91] Creating Layer inception_3a/3x3_reduce
I0403 15:05:44.505997  2650 net.cpp:425] inception_3a/3x3_reduce <- pool2/3x3_s2_pool2/3x3_s2_0_split_1
I0403 15:05:44.506021  2650 net.cpp:399] inception_3a/3x3_reduce -> inception_3a/3x3_reduce
I0403 15:05:44.507807  2650 net.cpp:141] Setting up inception_3a/3x3_reduce
I0403 15:05:44.507840  2650 net.cpp:148] Top shape: 24 96 28 28 (1806336)
I0403 15:05:44.507859  2650 net.cpp:156] Memory required for data: 508183584
I0403 15:05:44.507881  2650 layer_factory.hpp:77] Creating layer inception_3a/relu_3x3_reduce
I0403 15:05:44.507925  2650 net.cpp:91] Creating Layer inception_3a/relu_3x3_reduce
I0403 15:05:44.507943  2650 net.cpp:425] inception_3a/relu_3x3_reduce <- inception_3a/3x3_reduce
I0403 15:05:44.507962  2650 net.cpp:386] inception_3a/relu_3x3_reduce -> inception_3a/3x3_reduce (in-place)
I0403 15:05:44.508157  2650 net.cpp:141] Setting up inception_3a/relu_3x3_reduce
I0403 15:05:44.508183  2650 net.cpp:148] Top shape: 24 96 28 28 (1806336)
I0403 15:05:44.508198  2650 net.cpp:156] Memory required for data: 515408928
I0403 15:05:44.508219  2650 layer_factory.hpp:77] Creating layer inception_3a/3x3
I0403 15:05:44.508246  2650 net.cpp:91] Creating Layer inception_3a/3x3
I0403 15:05:44.508266  2650 net.cpp:425] inception_3a/3x3 <- inception_3a/3x3_reduce
I0403 15:05:44.508285  2650 net.cpp:399] inception_3a/3x3 -> inception_3a/3x3
I0403 15:05:44.510031  2650 net.cpp:141] Setting up inception_3a/3x3
I0403 15:05:44.510062  2650 net.cpp:148] Top shape: 24 128 28 28 (2408448)
I0403 15:05:44.510078  2650 net.cpp:156] Memory required for data: 525042720
I0403 15:05:44.510098  2650 layer_factory.hpp:77] Creating layer inception_3a/relu_3x3
I0403 15:05:44.510118  2650 net.cpp:91] Creating Layer inception_3a/relu_3x3
I0403 15:05:44.510134  2650 net.cpp:425] inception_3a/relu_3x3 <- inception_3a/3x3
I0403 15:05:44.510155  2650 net.cpp:386] inception_3a/relu_3x3 -> inception_3a/3x3 (in-place)
I0403 15:05:44.510453  2650 net.cpp:141] Setting up inception_3a/relu_3x3
I0403 15:05:44.510481  2650 net.cpp:148] Top shape: 24 128 28 28 (2408448)
I0403 15:05:44.510498  2650 net.cpp:156] Memory required for data: 534676512
I0403 15:05:44.510514  2650 layer_factory.hpp:77] Creating layer inception_3a/5x5_reduce
I0403 15:05:44.510538  2650 net.cpp:91] Creating Layer inception_3a/5x5_reduce
I0403 15:05:44.510557  2650 net.cpp:425] inception_3a/5x5_reduce <- pool2/3x3_s2_pool2/3x3_s2_0_split_2
I0403 15:05:44.510579  2650 net.cpp:399] inception_3a/5x5_reduce -> inception_3a/5x5_reduce
I0403 15:05:44.511615  2650 net.cpp:141] Setting up inception_3a/5x5_reduce
I0403 15:05:44.511644  2650 net.cpp:148] Top shape: 24 16 28 28 (301056)
I0403 15:05:44.511662  2650 net.cpp:156] Memory required for data: 535880736
I0403 15:05:44.511680  2650 layer_factory.hpp:77] Creating layer inception_3a/relu_5x5_reduce
I0403 15:05:44.511698  2650 net.cpp:91] Creating Layer inception_3a/relu_5x5_reduce
I0403 15:05:44.511716  2650 net.cpp:425] inception_3a/relu_5x5_reduce <- inception_3a/5x5_reduce
I0403 15:05:44.511736  2650 net.cpp:386] inception_3a/relu_5x5_reduce -> inception_3a/5x5_reduce (in-place)
I0403 15:05:44.512058  2650 net.cpp:141] Setting up inception_3a/relu_5x5_reduce
I0403 15:05:44.512085  2650 net.cpp:148] Top shape: 24 16 28 28 (301056)
I0403 15:05:44.512101  2650 net.cpp:156] Memory required for data: 537084960
I0403 15:05:44.512117  2650 layer_factory.hpp:77] Creating layer inception_3a/5x5
I0403 15:05:44.512140  2650 net.cpp:91] Creating Layer inception_3a/5x5
I0403 15:05:44.512158  2650 net.cpp:425] inception_3a/5x5 <- inception_3a/5x5_reduce
I0403 15:05:44.512181  2650 net.cpp:399] inception_3a/5x5 -> inception_3a/5x5
I0403 15:05:44.513276  2650 net.cpp:141] Setting up inception_3a/5x5
I0403 15:05:44.513305  2650 net.cpp:148] Top shape: 24 32 28 28 (602112)
I0403 15:05:44.513321  2650 net.cpp:156] Memory required for data: 539493408
I0403 15:05:44.513341  2650 layer_factory.hpp:77] Creating layer inception_3a/relu_5x5
I0403 15:05:44.513360  2650 net.cpp:91] Creating Layer inception_3a/relu_5x5
I0403 15:05:44.513377  2650 net.cpp:425] inception_3a/relu_5x5 <- inception_3a/5x5
I0403 15:05:44.513398  2650 net.cpp:386] inception_3a/relu_5x5 -> inception_3a/5x5 (in-place)
I0403 15:05:44.513586  2650 net.cpp:141] Setting up inception_3a/relu_5x5
I0403 15:05:44.513612  2650 net.cpp:148] Top shape: 24 32 28 28 (602112)
I0403 15:05:44.513628  2650 net.cpp:156] Memory required for data: 541901856
I0403 15:05:44.513643  2650 layer_factory.hpp:77] Creating layer inception_3a/pool
I0403 15:05:44.513664  2650 net.cpp:91] Creating Layer inception_3a/pool
I0403 15:05:44.513695  2650 net.cpp:425] inception_3a/pool <- pool2/3x3_s2_pool2/3x3_s2_0_split_3
I0403 15:05:44.513715  2650 net.cpp:399] inception_3a/pool -> inception_3a/pool
I0403 15:05:44.513777  2650 net.cpp:141] Setting up inception_3a/pool
I0403 15:05:44.513800  2650 net.cpp:148] Top shape: 24 192 28 28 (3612672)
I0403 15:05:44.513816  2650 net.cpp:156] Memory required for data: 556352544
I0403 15:05:44.513831  2650 layer_factory.hpp:77] Creating layer inception_3a/pool_proj
I0403 15:05:44.513855  2650 net.cpp:91] Creating Layer inception_3a/pool_proj
I0403 15:05:44.513873  2650 net.cpp:425] inception_3a/pool_proj <- inception_3a/pool
I0403 15:05:44.513895  2650 net.cpp:399] inception_3a/pool_proj -> inception_3a/pool_proj
I0403 15:05:44.514924  2650 net.cpp:141] Setting up inception_3a/pool_proj
I0403 15:05:44.514956  2650 net.cpp:148] Top shape: 24 32 28 28 (602112)
I0403 15:05:44.514973  2650 net.cpp:156] Memory required for data: 558760992
I0403 15:05:44.514997  2650 layer_factory.hpp:77] Creating layer inception_3a/relu_pool_proj
I0403 15:05:44.515018  2650 net.cpp:91] Creating Layer inception_3a/relu_pool_proj
I0403 15:05:44.515038  2650 net.cpp:425] inception_3a/relu_pool_proj <- inception_3a/pool_proj
I0403 15:05:44.515056  2650 net.cpp:386] inception_3a/relu_pool_proj -> inception_3a/pool_proj (in-place)
I0403 15:05:44.515357  2650 net.cpp:141] Setting up inception_3a/relu_pool_proj
I0403 15:05:44.515384  2650 net.cpp:148] Top shape: 24 32 28 28 (602112)
I0403 15:05:44.515401  2650 net.cpp:156] Memory required for data: 561169440
I0403 15:05:44.515418  2650 layer_factory.hpp:77] Creating layer inception_3a/output
I0403 15:05:44.515436  2650 net.cpp:91] Creating Layer inception_3a/output
I0403 15:05:44.515453  2650 net.cpp:425] inception_3a/output <- inception_3a/1x1
I0403 15:05:44.515472  2650 net.cpp:425] inception_3a/output <- inception_3a/3x3
I0403 15:05:44.515489  2650 net.cpp:425] inception_3a/output <- inception_3a/5x5
I0403 15:05:44.515506  2650 net.cpp:425] inception_3a/output <- inception_3a/pool_proj
I0403 15:05:44.515525  2650 net.cpp:399] inception_3a/output -> inception_3a/output
I0403 15:05:44.515573  2650 net.cpp:141] Setting up inception_3a/output
I0403 15:05:44.515600  2650 net.cpp:148] Top shape: 24 256 28 28 (4816896)
I0403 15:05:44.515617  2650 net.cpp:156] Memory required for data: 580437024
I0403 15:05:44.515632  2650 layer_factory.hpp:77] Creating layer inception_3a/output_inception_3a/output_0_split
I0403 15:05:44.515651  2650 net.cpp:91] Creating Layer inception_3a/output_inception_3a/output_0_split
I0403 15:05:44.515667  2650 net.cpp:425] inception_3a/output_inception_3a/output_0_split <- inception_3a/output
I0403 15:05:44.515686  2650 net.cpp:399] inception_3a/output_inception_3a/output_0_split -> inception_3a/output_inception_3a/output_0_split_0
I0403 15:05:44.515707  2650 net.cpp:399] inception_3a/output_inception_3a/output_0_split -> inception_3a/output_inception_3a/output_0_split_1
I0403 15:05:44.515733  2650 net.cpp:399] inception_3a/output_inception_3a/output_0_split -> inception_3a/output_inception_3a/output_0_split_2
I0403 15:05:44.515754  2650 net.cpp:399] inception_3a/output_inception_3a/output_0_split -> inception_3a/output_inception_3a/output_0_split_3
I0403 15:05:44.515835  2650 net.cpp:141] Setting up inception_3a/output_inception_3a/output_0_split
I0403 15:05:44.515861  2650 net.cpp:148] Top shape: 24 256 28 28 (4816896)
I0403 15:05:44.515880  2650 net.cpp:148] Top shape: 24 256 28 28 (4816896)
I0403 15:05:44.515897  2650 net.cpp:148] Top shape: 24 256 28 28 (4816896)
I0403 15:05:44.515913  2650 net.cpp:148] Top shape: 24 256 28 28 (4816896)
I0403 15:05:44.515928  2650 net.cpp:156] Memory required for data: 657507360
I0403 15:05:44.515944  2650 layer_factory.hpp:77] Creating layer inception_3b/1x1
I0403 15:05:44.515966  2650 net.cpp:91] Creating Layer inception_3b/1x1
I0403 15:05:44.515985  2650 net.cpp:425] inception_3b/1x1 <- inception_3a/output_inception_3a/output_0_split_0
I0403 15:05:44.516005  2650 net.cpp:399] inception_3b/1x1 -> inception_3b/1x1
I0403 15:05:44.517230  2650 net.cpp:141] Setting up inception_3b/1x1
I0403 15:05:44.517273  2650 net.cpp:148] Top shape: 24 128 28 28 (2408448)
I0403 15:05:44.517292  2650 net.cpp:156] Memory required for data: 667141152
I0403 15:05:44.517310  2650 layer_factory.hpp:77] Creating layer inception_3b/relu_1x1
I0403 15:05:44.517330  2650 net.cpp:91] Creating Layer inception_3b/relu_1x1
I0403 15:05:44.517346  2650 net.cpp:425] inception_3b/relu_1x1 <- inception_3b/1x1
I0403 15:05:44.517367  2650 net.cpp:386] inception_3b/relu_1x1 -> inception_3b/1x1 (in-place)
I0403 15:05:44.517560  2650 net.cpp:141] Setting up inception_3b/relu_1x1
I0403 15:05:44.517586  2650 net.cpp:148] Top shape: 24 128 28 28 (2408448)
I0403 15:05:44.517602  2650 net.cpp:156] Memory required for data: 676774944
I0403 15:05:44.517617  2650 layer_factory.hpp:77] Creating layer inception_3b/3x3_reduce
I0403 15:05:44.517642  2650 net.cpp:91] Creating Layer inception_3b/3x3_reduce
I0403 15:05:44.517659  2650 net.cpp:425] inception_3b/3x3_reduce <- inception_3a/output_inception_3a/output_0_split_1
I0403 15:05:44.517683  2650 net.cpp:399] inception_3b/3x3_reduce -> inception_3b/3x3_reduce
I0403 15:05:44.518894  2650 net.cpp:141] Setting up inception_3b/3x3_reduce
I0403 15:05:44.518928  2650 net.cpp:148] Top shape: 24 128 28 28 (2408448)
I0403 15:05:44.518945  2650 net.cpp:156] Memory required for data: 686408736
I0403 15:05:44.518965  2650 layer_factory.hpp:77] Creating layer inception_3b/relu_3x3_reduce
I0403 15:05:44.518985  2650 net.cpp:91] Creating Layer inception_3b/relu_3x3_reduce
I0403 15:05:44.519001  2650 net.cpp:425] inception_3b/relu_3x3_reduce <- inception_3b/3x3_reduce
I0403 15:05:44.519019  2650 net.cpp:386] inception_3b/relu_3x3_reduce -> inception_3b/3x3_reduce (in-place)
I0403 15:05:44.519217  2650 net.cpp:141] Setting up inception_3b/relu_3x3_reduce
I0403 15:05:44.519243  2650 net.cpp:148] Top shape: 24 128 28 28 (2408448)
I0403 15:05:44.519258  2650 net.cpp:156] Memory required for data: 696042528
I0403 15:05:44.519273  2650 layer_factory.hpp:77] Creating layer inception_3b/3x3
I0403 15:05:44.519299  2650 net.cpp:91] Creating Layer inception_3b/3x3
I0403 15:05:44.519318  2650 net.cpp:425] inception_3b/3x3 <- inception_3b/3x3_reduce
I0403 15:05:44.519341  2650 net.cpp:399] inception_3b/3x3 -> inception_3b/3x3
I0403 15:05:44.522439  2650 net.cpp:141] Setting up inception_3b/3x3
I0403 15:05:44.522470  2650 net.cpp:148] Top shape: 24 192 28 28 (3612672)
I0403 15:05:44.522487  2650 net.cpp:156] Memory required for data: 710493216
I0403 15:05:44.522506  2650 layer_factory.hpp:77] Creating layer inception_3b/relu_3x3
I0403 15:05:44.522526  2650 net.cpp:91] Creating Layer inception_3b/relu_3x3
I0403 15:05:44.522541  2650 net.cpp:425] inception_3b/relu_3x3 <- inception_3b/3x3
I0403 15:05:44.522562  2650 net.cpp:386] inception_3b/relu_3x3 -> inception_3b/3x3 (in-place)
I0403 15:05:44.522861  2650 net.cpp:141] Setting up inception_3b/relu_3x3
I0403 15:05:44.522888  2650 net.cpp:148] Top shape: 24 192 28 28 (3612672)
I0403 15:05:44.522904  2650 net.cpp:156] Memory required for data: 724943904
I0403 15:05:44.522920  2650 layer_factory.hpp:77] Creating layer inception_3b/5x5_reduce
I0403 15:05:44.522944  2650 net.cpp:91] Creating Layer inception_3b/5x5_reduce
I0403 15:05:44.522963  2650 net.cpp:425] inception_3b/5x5_reduce <- inception_3a/output_inception_3a/output_0_split_2
I0403 15:05:44.522986  2650 net.cpp:399] inception_3b/5x5_reduce -> inception_3b/5x5_reduce
I0403 15:05:44.524055  2650 net.cpp:141] Setting up inception_3b/5x5_reduce
I0403 15:05:44.524085  2650 net.cpp:148] Top shape: 24 32 28 28 (602112)
I0403 15:05:44.524101  2650 net.cpp:156] Memory required for data: 727352352
I0403 15:05:44.524121  2650 layer_factory.hpp:77] Creating layer inception_3b/relu_5x5_reduce
I0403 15:05:44.524139  2650 net.cpp:91] Creating Layer inception_3b/relu_5x5_reduce
I0403 15:05:44.524157  2650 net.cpp:425] inception_3b/relu_5x5_reduce <- inception_3b/5x5_reduce
I0403 15:05:44.524178  2650 net.cpp:386] inception_3b/relu_5x5_reduce -> inception_3b/5x5_reduce (in-place)
I0403 15:05:44.524389  2650 net.cpp:141] Setting up inception_3b/relu_5x5_reduce
I0403 15:05:44.524416  2650 net.cpp:148] Top shape: 24 32 28 28 (602112)
I0403 15:05:44.524432  2650 net.cpp:156] Memory required for data: 729760800
I0403 15:05:44.524447  2650 layer_factory.hpp:77] Creating layer inception_3b/5x5
I0403 15:05:44.524472  2650 net.cpp:91] Creating Layer inception_3b/5x5
I0403 15:05:44.524490  2650 net.cpp:425] inception_3b/5x5 <- inception_3b/5x5_reduce
I0403 15:05:44.524513  2650 net.cpp:399] inception_3b/5x5 -> inception_3b/5x5
I0403 15:05:44.526653  2650 net.cpp:141] Setting up inception_3b/5x5
I0403 15:05:44.526685  2650 net.cpp:148] Top shape: 24 96 28 28 (1806336)
I0403 15:05:44.526703  2650 net.cpp:156] Memory required for data: 736986144
I0403 15:05:44.526723  2650 layer_factory.hpp:77] Creating layer inception_3b/relu_5x5
I0403 15:05:44.526742  2650 net.cpp:91] Creating Layer inception_3b/relu_5x5
I0403 15:05:44.526772  2650 net.cpp:425] inception_3b/relu_5x5 <- inception_3b/5x5
I0403 15:05:44.526788  2650 net.cpp:386] inception_3b/relu_5x5 -> inception_3b/5x5 (in-place)
I0403 15:05:44.527000  2650 net.cpp:141] Setting up inception_3b/relu_5x5
I0403 15:05:44.527026  2650 net.cpp:148] Top shape: 24 96 28 28 (1806336)
I0403 15:05:44.527042  2650 net.cpp:156] Memory required for data: 744211488
I0403 15:05:44.527057  2650 layer_factory.hpp:77] Creating layer inception_3b/pool
I0403 15:05:44.527076  2650 net.cpp:91] Creating Layer inception_3b/pool
I0403 15:05:44.527092  2650 net.cpp:425] inception_3b/pool <- inception_3a/output_inception_3a/output_0_split_3
I0403 15:05:44.527112  2650 net.cpp:399] inception_3b/pool -> inception_3b/pool
I0403 15:05:44.527169  2650 net.cpp:141] Setting up inception_3b/pool
I0403 15:05:44.527195  2650 net.cpp:148] Top shape: 24 256 28 28 (4816896)
I0403 15:05:44.527215  2650 net.cpp:156] Memory required for data: 763479072
I0403 15:05:44.527231  2650 layer_factory.hpp:77] Creating layer inception_3b/pool_proj
I0403 15:05:44.527254  2650 net.cpp:91] Creating Layer inception_3b/pool_proj
I0403 15:05:44.527272  2650 net.cpp:425] inception_3b/pool_proj <- inception_3b/pool
I0403 15:05:44.527292  2650 net.cpp:399] inception_3b/pool_proj -> inception_3b/pool_proj
I0403 15:05:44.528391  2650 net.cpp:141] Setting up inception_3b/pool_proj
I0403 15:05:44.528420  2650 net.cpp:148] Top shape: 24 64 28 28 (1204224)
I0403 15:05:44.528436  2650 net.cpp:156] Memory required for data: 768295968
I0403 15:05:44.528456  2650 layer_factory.hpp:77] Creating layer inception_3b/relu_pool_proj
I0403 15:05:44.528477  2650 net.cpp:91] Creating Layer inception_3b/relu_pool_proj
I0403 15:05:44.528496  2650 net.cpp:425] inception_3b/relu_pool_proj <- inception_3b/pool_proj
I0403 15:05:44.528512  2650 net.cpp:386] inception_3b/relu_pool_proj -> inception_3b/pool_proj (in-place)
I0403 15:05:44.528921  2650 net.cpp:141] Setting up inception_3b/relu_pool_proj
I0403 15:05:44.528950  2650 net.cpp:148] Top shape: 24 64 28 28 (1204224)
I0403 15:05:44.528966  2650 net.cpp:156] Memory required for data: 773112864
I0403 15:05:44.528981  2650 layer_factory.hpp:77] Creating layer inception_3b/output
I0403 15:05:44.529000  2650 net.cpp:91] Creating Layer inception_3b/output
I0403 15:05:44.529014  2650 net.cpp:425] inception_3b/output <- inception_3b/1x1
I0403 15:05:44.529031  2650 net.cpp:425] inception_3b/output <- inception_3b/3x3
I0403 15:05:44.529047  2650 net.cpp:425] inception_3b/output <- inception_3b/5x5
I0403 15:05:44.529063  2650 net.cpp:425] inception_3b/output <- inception_3b/pool_proj
I0403 15:05:44.529083  2650 net.cpp:399] inception_3b/output -> inception_3b/output
I0403 15:05:44.529130  2650 net.cpp:141] Setting up inception_3b/output
I0403 15:05:44.529155  2650 net.cpp:148] Top shape: 24 480 28 28 (9031680)
I0403 15:05:44.529168  2650 net.cpp:156] Memory required for data: 809239584
I0403 15:05:44.529183  2650 layer_factory.hpp:77] Creating layer pool3/3x3_s2
I0403 15:05:44.529201  2650 net.cpp:91] Creating Layer pool3/3x3_s2
I0403 15:05:44.529222  2650 net.cpp:425] pool3/3x3_s2 <- inception_3b/output
I0403 15:05:44.529259  2650 net.cpp:399] pool3/3x3_s2 -> pool3/3x3_s2
I0403 15:05:44.529323  2650 net.cpp:141] Setting up pool3/3x3_s2
I0403 15:05:44.529347  2650 net.cpp:148] Top shape: 24 480 14 14 (2257920)
I0403 15:05:44.529362  2650 net.cpp:156] Memory required for data: 818271264
I0403 15:05:44.529377  2650 layer_factory.hpp:77] Creating layer pool3/3x3_s2_pool3/3x3_s2_0_split
I0403 15:05:44.529397  2650 net.cpp:91] Creating Layer pool3/3x3_s2_pool3/3x3_s2_0_split
I0403 15:05:44.529414  2650 net.cpp:425] pool3/3x3_s2_pool3/3x3_s2_0_split <- pool3/3x3_s2
I0403 15:05:44.529431  2650 net.cpp:399] pool3/3x3_s2_pool3/3x3_s2_0_split -> pool3/3x3_s2_pool3/3x3_s2_0_split_0
I0403 15:05:44.529451  2650 net.cpp:399] pool3/3x3_s2_pool3/3x3_s2_0_split -> pool3/3x3_s2_pool3/3x3_s2_0_split_1
I0403 15:05:44.529475  2650 net.cpp:399] pool3/3x3_s2_pool3/3x3_s2_0_split -> pool3/3x3_s2_pool3/3x3_s2_0_split_2
I0403 15:05:44.529495  2650 net.cpp:399] pool3/3x3_s2_pool3/3x3_s2_0_split -> pool3/3x3_s2_pool3/3x3_s2_0_split_3
I0403 15:05:44.529573  2650 net.cpp:141] Setting up pool3/3x3_s2_pool3/3x3_s2_0_split
I0403 15:05:44.529597  2650 net.cpp:148] Top shape: 24 480 14 14 (2257920)
I0403 15:05:44.529613  2650 net.cpp:148] Top shape: 24 480 14 14 (2257920)
I0403 15:05:44.529629  2650 net.cpp:148] Top shape: 24 480 14 14 (2257920)
I0403 15:05:44.529645  2650 net.cpp:148] Top shape: 24 480 14 14 (2257920)
I0403 15:05:44.529659  2650 net.cpp:156] Memory required for data: 854397984
I0403 15:05:44.529673  2650 layer_factory.hpp:77] Creating layer inception_4a/1x1
I0403 15:05:44.529696  2650 net.cpp:91] Creating Layer inception_4a/1x1
I0403 15:05:44.529713  2650 net.cpp:425] inception_4a/1x1 <- pool3/3x3_s2_pool3/3x3_s2_0_split_0
I0403 15:05:44.529736  2650 net.cpp:399] inception_4a/1x1 -> inception_4a/1x1
I0403 15:05:44.531363  2650 net.cpp:141] Setting up inception_4a/1x1
I0403 15:05:44.531390  2650 net.cpp:148] Top shape: 24 192 14 14 (903168)
I0403 15:05:44.531406  2650 net.cpp:156] Memory required for data: 858010656
I0403 15:05:44.531425  2650 layer_factory.hpp:77] Creating layer inception_4a/relu_1x1
I0403 15:05:44.531446  2650 net.cpp:91] Creating Layer inception_4a/relu_1x1
I0403 15:05:44.531466  2650 net.cpp:425] inception_4a/relu_1x1 <- inception_4a/1x1
I0403 15:05:44.531482  2650 net.cpp:386] inception_4a/relu_1x1 -> inception_4a/1x1 (in-place)
I0403 15:05:44.531667  2650 net.cpp:141] Setting up inception_4a/relu_1x1
I0403 15:05:44.531695  2650 net.cpp:148] Top shape: 24 192 14 14 (903168)
I0403 15:05:44.531711  2650 net.cpp:156] Memory required for data: 861623328
I0403 15:05:44.531726  2650 layer_factory.hpp:77] Creating layer inception_4a/3x3_reduce
I0403 15:05:44.531749  2650 net.cpp:91] Creating Layer inception_4a/3x3_reduce
I0403 15:05:44.531766  2650 net.cpp:425] inception_4a/3x3_reduce <- pool3/3x3_s2_pool3/3x3_s2_0_split_1
I0403 15:05:44.531786  2650 net.cpp:399] inception_4a/3x3_reduce -> inception_4a/3x3_reduce
I0403 15:05:44.533121  2650 net.cpp:141] Setting up inception_4a/3x3_reduce
I0403 15:05:44.533149  2650 net.cpp:148] Top shape: 24 96 14 14 (451584)
I0403 15:05:44.533165  2650 net.cpp:156] Memory required for data: 863429664
I0403 15:05:44.533191  2650 layer_factory.hpp:77] Creating layer inception_4a/relu_3x3_reduce
I0403 15:05:44.533224  2650 net.cpp:91] Creating Layer inception_4a/relu_3x3_reduce
I0403 15:05:44.533244  2650 net.cpp:425] inception_4a/relu_3x3_reduce <- inception_4a/3x3_reduce
I0403 15:05:44.533262  2650 net.cpp:386] inception_4a/relu_3x3_reduce -> inception_4a/3x3_reduce (in-place)
I0403 15:05:44.533448  2650 net.cpp:141] Setting up inception_4a/relu_3x3_reduce
I0403 15:05:44.533475  2650 net.cpp:148] Top shape: 24 96 14 14 (451584)
I0403 15:05:44.533490  2650 net.cpp:156] Memory required for data: 865236000
I0403 15:05:44.533505  2650 layer_factory.hpp:77] Creating layer inception_4a/3x3
I0403 15:05:44.533534  2650 net.cpp:91] Creating Layer inception_4a/3x3
I0403 15:05:44.533551  2650 net.cpp:425] inception_4a/3x3 <- inception_4a/3x3_reduce
I0403 15:05:44.533571  2650 net.cpp:399] inception_4a/3x3 -> inception_4a/3x3
I0403 15:05:44.536360  2650 net.cpp:141] Setting up inception_4a/3x3
I0403 15:05:44.536391  2650 net.cpp:148] Top shape: 24 208 14 14 (978432)
I0403 15:05:44.536408  2650 net.cpp:156] Memory required for data: 869149728
I0403 15:05:44.536427  2650 layer_factory.hpp:77] Creating layer inception_4a/relu_3x3
I0403 15:05:44.536447  2650 net.cpp:91] Creating Layer inception_4a/relu_3x3
I0403 15:05:44.536475  2650 net.cpp:425] inception_4a/relu_3x3 <- inception_4a/3x3
I0403 15:05:44.536494  2650 net.cpp:386] inception_4a/relu_3x3 -> inception_4a/3x3 (in-place)
I0403 15:05:44.536792  2650 net.cpp:141] Setting up inception_4a/relu_3x3
I0403 15:05:44.536820  2650 net.cpp:148] Top shape: 24 208 14 14 (978432)
I0403 15:05:44.536839  2650 net.cpp:156] Memory required for data: 873063456
I0403 15:05:44.536854  2650 layer_factory.hpp:77] Creating layer inception_4a/5x5_reduce
I0403 15:05:44.536877  2650 net.cpp:91] Creating Layer inception_4a/5x5_reduce
I0403 15:05:44.536895  2650 net.cpp:425] inception_4a/5x5_reduce <- pool3/3x3_s2_pool3/3x3_s2_0_split_2
I0403 15:05:44.536916  2650 net.cpp:399] inception_4a/5x5_reduce -> inception_4a/5x5_reduce
I0403 15:05:44.537983  2650 net.cpp:141] Setting up inception_4a/5x5_reduce
I0403 15:05:44.538012  2650 net.cpp:148] Top shape: 24 16 14 14 (75264)
I0403 15:05:44.538028  2650 net.cpp:156] Memory required for data: 873364512
I0403 15:05:44.538046  2650 layer_factory.hpp:77] Creating layer inception_4a/relu_5x5_reduce
I0403 15:05:44.538065  2650 net.cpp:91] Creating Layer inception_4a/relu_5x5_reduce
I0403 15:05:44.538081  2650 net.cpp:425] inception_4a/relu_5x5_reduce <- inception_4a/5x5_reduce
I0403 15:05:44.538102  2650 net.cpp:386] inception_4a/relu_5x5_reduce -> inception_4a/5x5_reduce (in-place)
I0403 15:05:44.538303  2650 net.cpp:141] Setting up inception_4a/relu_5x5_reduce
I0403 15:05:44.538329  2650 net.cpp:148] Top shape: 24 16 14 14 (75264)
I0403 15:05:44.538344  2650 net.cpp:156] Memory required for data: 873665568
I0403 15:05:44.538359  2650 layer_factory.hpp:77] Creating layer inception_4a/5x5
I0403 15:05:44.538383  2650 net.cpp:91] Creating Layer inception_4a/5x5
I0403 15:05:44.538399  2650 net.cpp:425] inception_4a/5x5 <- inception_4a/5x5_reduce
I0403 15:05:44.538421  2650 net.cpp:399] inception_4a/5x5 -> inception_4a/5x5
I0403 15:05:44.539551  2650 net.cpp:141] Setting up inception_4a/5x5
I0403 15:05:44.539580  2650 net.cpp:148] Top shape: 24 48 14 14 (225792)
I0403 15:05:44.539597  2650 net.cpp:156] Memory required for data: 874568736
I0403 15:05:44.539615  2650 layer_factory.hpp:77] Creating layer inception_4a/relu_5x5
I0403 15:05:44.539636  2650 net.cpp:91] Creating Layer inception_4a/relu_5x5
I0403 15:05:44.539654  2650 net.cpp:425] inception_4a/relu_5x5 <- inception_4a/5x5
I0403 15:05:44.539672  2650 net.cpp:386] inception_4a/relu_5x5 -> inception_4a/5x5 (in-place)
I0403 15:05:44.539857  2650 net.cpp:141] Setting up inception_4a/relu_5x5
I0403 15:05:44.539885  2650 net.cpp:148] Top shape: 24 48 14 14 (225792)
I0403 15:05:44.539901  2650 net.cpp:156] Memory required for data: 875471904
I0403 15:05:44.539916  2650 layer_factory.hpp:77] Creating layer inception_4a/pool
I0403 15:05:44.539933  2650 net.cpp:91] Creating Layer inception_4a/pool
I0403 15:05:44.539949  2650 net.cpp:425] inception_4a/pool <- pool3/3x3_s2_pool3/3x3_s2_0_split_3
I0403 15:05:44.539968  2650 net.cpp:399] inception_4a/pool -> inception_4a/pool
I0403 15:05:44.540031  2650 net.cpp:141] Setting up inception_4a/pool
I0403 15:05:44.540055  2650 net.cpp:148] Top shape: 24 480 14 14 (2257920)
I0403 15:05:44.540069  2650 net.cpp:156] Memory required for data: 884503584
I0403 15:05:44.540084  2650 layer_factory.hpp:77] Creating layer inception_4a/pool_proj
I0403 15:05:44.540107  2650 net.cpp:91] Creating Layer inception_4a/pool_proj
I0403 15:05:44.540124  2650 net.cpp:425] inception_4a/pool_proj <- inception_4a/pool
I0403 15:05:44.540146  2650 net.cpp:399] inception_4a/pool_proj -> inception_4a/pool_proj
I0403 15:05:44.541378  2650 net.cpp:141] Setting up inception_4a/pool_proj
I0403 15:05:44.541407  2650 net.cpp:148] Top shape: 24 64 14 14 (301056)
I0403 15:05:44.541438  2650 net.cpp:156] Memory required for data: 885707808
I0403 15:05:44.541471  2650 layer_factory.hpp:77] Creating layer inception_4a/relu_pool_proj
I0403 15:05:44.541492  2650 net.cpp:91] Creating Layer inception_4a/relu_pool_proj
I0403 15:05:44.541509  2650 net.cpp:425] inception_4a/relu_pool_proj <- inception_4a/pool_proj
I0403 15:05:44.541527  2650 net.cpp:386] inception_4a/relu_pool_proj -> inception_4a/pool_proj (in-place)
I0403 15:05:44.541813  2650 net.cpp:141] Setting up inception_4a/relu_pool_proj
I0403 15:05:44.541839  2650 net.cpp:148] Top shape: 24 64 14 14 (301056)
I0403 15:05:44.541856  2650 net.cpp:156] Memory required for data: 886912032
I0403 15:05:44.541870  2650 layer_factory.hpp:77] Creating layer inception_4a/output
I0403 15:05:44.541890  2650 net.cpp:91] Creating Layer inception_4a/output
I0403 15:05:44.541906  2650 net.cpp:425] inception_4a/output <- inception_4a/1x1
I0403 15:05:44.541923  2650 net.cpp:425] inception_4a/output <- inception_4a/3x3
I0403 15:05:44.541939  2650 net.cpp:425] inception_4a/output <- inception_4a/5x5
I0403 15:05:44.541954  2650 net.cpp:425] inception_4a/output <- inception_4a/pool_proj
I0403 15:05:44.541970  2650 net.cpp:399] inception_4a/output -> inception_4a/output
I0403 15:05:44.542016  2650 net.cpp:141] Setting up inception_4a/output
I0403 15:05:44.542039  2650 net.cpp:148] Top shape: 24 512 14 14 (2408448)
I0403 15:05:44.542053  2650 net.cpp:156] Memory required for data: 896545824
I0403 15:05:44.542068  2650 layer_factory.hpp:77] Creating layer inception_4a/output_inception_4a/output_0_split
I0403 15:05:44.542085  2650 net.cpp:91] Creating Layer inception_4a/output_inception_4a/output_0_split
I0403 15:05:44.542101  2650 net.cpp:425] inception_4a/output_inception_4a/output_0_split <- inception_4a/output
I0403 15:05:44.542121  2650 net.cpp:399] inception_4a/output_inception_4a/output_0_split -> inception_4a/output_inception_4a/output_0_split_0
I0403 15:05:44.542142  2650 net.cpp:399] inception_4a/output_inception_4a/output_0_split -> inception_4a/output_inception_4a/output_0_split_1
I0403 15:05:44.542162  2650 net.cpp:399] inception_4a/output_inception_4a/output_0_split -> inception_4a/output_inception_4a/output_0_split_2
I0403 15:05:44.542182  2650 net.cpp:399] inception_4a/output_inception_4a/output_0_split -> inception_4a/output_inception_4a/output_0_split_3
I0403 15:05:44.542202  2650 net.cpp:399] inception_4a/output_inception_4a/output_0_split -> inception_4a/output_inception_4a/output_0_split_4
I0403 15:05:44.542330  2650 net.cpp:141] Setting up inception_4a/output_inception_4a/output_0_split
I0403 15:05:44.542356  2650 net.cpp:148] Top shape: 24 512 14 14 (2408448)
I0403 15:05:44.542371  2650 net.cpp:148] Top shape: 24 512 14 14 (2408448)
I0403 15:05:44.542387  2650 net.cpp:148] Top shape: 24 512 14 14 (2408448)
I0403 15:05:44.542403  2650 net.cpp:148] Top shape: 24 512 14 14 (2408448)
I0403 15:05:44.542420  2650 net.cpp:148] Top shape: 24 512 14 14 (2408448)
I0403 15:05:44.542434  2650 net.cpp:156] Memory required for data: 944714784
I0403 15:05:44.542449  2650 layer_factory.hpp:77] Creating layer loss1/ave_pool
I0403 15:05:44.542467  2650 net.cpp:91] Creating Layer loss1/ave_pool
I0403 15:05:44.542484  2650 net.cpp:425] loss1/ave_pool <- inception_4a/output_inception_4a/output_0_split_0
I0403 15:05:44.542505  2650 net.cpp:399] loss1/ave_pool -> loss1/ave_pool
I0403 15:05:44.542727  2650 net.cpp:141] Setting up loss1/ave_pool
I0403 15:05:44.542753  2650 net.cpp:148] Top shape: 24 512 4 4 (196608)
I0403 15:05:44.542768  2650 net.cpp:156] Memory required for data: 945501216
I0403 15:05:44.542784  2650 layer_factory.hpp:77] Creating layer loss1/conv
I0403 15:05:44.542807  2650 net.cpp:91] Creating Layer loss1/conv
I0403 15:05:44.542825  2650 net.cpp:425] loss1/conv <- loss1/ave_pool
I0403 15:05:44.542846  2650 net.cpp:399] loss1/conv -> loss1/conv
I0403 15:05:44.544327  2650 net.cpp:141] Setting up loss1/conv
I0403 15:05:44.544358  2650 net.cpp:148] Top shape: 24 128 4 4 (49152)
I0403 15:05:44.544390  2650 net.cpp:156] Memory required for data: 945697824
I0403 15:05:44.544410  2650 layer_factory.hpp:77] Creating layer loss1/relu_conv
I0403 15:05:44.544430  2650 net.cpp:91] Creating Layer loss1/relu_conv
I0403 15:05:44.544446  2650 net.cpp:425] loss1/relu_conv <- loss1/conv
I0403 15:05:44.544466  2650 net.cpp:386] loss1/relu_conv -> loss1/conv (in-place)
I0403 15:05:44.544761  2650 net.cpp:141] Setting up loss1/relu_conv
I0403 15:05:44.544791  2650 net.cpp:148] Top shape: 24 128 4 4 (49152)
I0403 15:05:44.544807  2650 net.cpp:156] Memory required for data: 945894432
I0403 15:05:44.544822  2650 layer_factory.hpp:77] Creating layer loss1/fc
I0403 15:05:44.544847  2650 net.cpp:91] Creating Layer loss1/fc
I0403 15:05:44.544864  2650 net.cpp:425] loss1/fc <- loss1/conv
I0403 15:05:44.544886  2650 net.cpp:399] loss1/fc -> loss1/fc
I0403 15:05:44.563318  2650 net.cpp:141] Setting up loss1/fc
I0403 15:05:44.563356  2650 net.cpp:148] Top shape: 24 1024 (24576)
I0403 15:05:44.563374  2650 net.cpp:156] Memory required for data: 945992736
I0403 15:05:44.563391  2650 layer_factory.hpp:77] Creating layer loss1/relu_fc
I0403 15:05:44.563410  2650 net.cpp:91] Creating Layer loss1/relu_fc
I0403 15:05:44.563426  2650 net.cpp:425] loss1/relu_fc <- loss1/fc
I0403 15:05:44.563443  2650 net.cpp:386] loss1/relu_fc -> loss1/fc (in-place)
I0403 15:05:44.563638  2650 net.cpp:141] Setting up loss1/relu_fc
I0403 15:05:44.563665  2650 net.cpp:148] Top shape: 24 1024 (24576)
I0403 15:05:44.563681  2650 net.cpp:156] Memory required for data: 946091040
I0403 15:05:44.563695  2650 layer_factory.hpp:77] Creating layer loss1/drop_fc
I0403 15:05:44.563724  2650 net.cpp:91] Creating Layer loss1/drop_fc
I0403 15:05:44.563740  2650 net.cpp:425] loss1/drop_fc <- loss1/fc
I0403 15:05:44.563757  2650 net.cpp:386] loss1/drop_fc -> loss1/fc (in-place)
I0403 15:05:44.563809  2650 net.cpp:141] Setting up loss1/drop_fc
I0403 15:05:44.563832  2650 net.cpp:148] Top shape: 24 1024 (24576)
I0403 15:05:44.563846  2650 net.cpp:156] Memory required for data: 946189344
I0403 15:05:44.563861  2650 layer_factory.hpp:77] Creating layer loss1/classifier_plantvillage
I0403 15:05:44.563884  2650 net.cpp:91] Creating Layer loss1/classifier_plantvillage
I0403 15:05:44.563900  2650 net.cpp:425] loss1/classifier_plantvillage <- loss1/fc
I0403 15:05:44.563918  2650 net.cpp:399] loss1/classifier_plantvillage -> loss1/classifier_plantvillage
I0403 15:05:44.564841  2650 net.cpp:141] Setting up loss1/classifier_plantvillage
I0403 15:05:44.564870  2650 net.cpp:148] Top shape: 24 38 (912)
I0403 15:05:44.564887  2650 net.cpp:156] Memory required for data: 946192992
I0403 15:05:44.564904  2650 layer_factory.hpp:77] Creating layer loss1/classifier_plantvillage_loss1/classifier_plantvillage_0_split
I0403 15:05:44.564923  2650 net.cpp:91] Creating Layer loss1/classifier_plantvillage_loss1/classifier_plantvillage_0_split
I0403 15:05:44.564939  2650 net.cpp:425] loss1/classifier_plantvillage_loss1/classifier_plantvillage_0_split <- loss1/classifier_plantvillage
I0403 15:05:44.564955  2650 net.cpp:399] loss1/classifier_plantvillage_loss1/classifier_plantvillage_0_split -> loss1/classifier_plantvillage_loss1/classifier_plantvillage_0_split_0
I0403 15:05:44.564975  2650 net.cpp:399] loss1/classifier_plantvillage_loss1/classifier_plantvillage_0_split -> loss1/classifier_plantvillage_loss1/classifier_plantvillage_0_split_1
I0403 15:05:44.564997  2650 net.cpp:399] loss1/classifier_plantvillage_loss1/classifier_plantvillage_0_split -> loss1/classifier_plantvillage_loss1/classifier_plantvillage_0_split_2
I0403 15:05:44.565065  2650 net.cpp:141] Setting up loss1/classifier_plantvillage_loss1/classifier_plantvillage_0_split
I0403 15:05:44.565088  2650 net.cpp:148] Top shape: 24 38 (912)
I0403 15:05:44.565104  2650 net.cpp:148] Top shape: 24 38 (912)
I0403 15:05:44.565119  2650 net.cpp:148] Top shape: 24 38 (912)
I0403 15:05:44.565134  2650 net.cpp:156] Memory required for data: 946203936
I0403 15:05:44.565147  2650 layer_factory.hpp:77] Creating layer inception_4b/1x1
I0403 15:05:44.565167  2650 net.cpp:91] Creating Layer inception_4b/1x1
I0403 15:05:44.565201  2650 net.cpp:425] inception_4b/1x1 <- inception_4a/output_inception_4a/output_0_split_1
I0403 15:05:44.565230  2650 net.cpp:399] inception_4b/1x1 -> inception_4b/1x1
I0403 15:05:44.566920  2650 net.cpp:141] Setting up inception_4b/1x1
I0403 15:05:44.566948  2650 net.cpp:148] Top shape: 24 160 14 14 (752640)
I0403 15:05:44.566964  2650 net.cpp:156] Memory required for data: 949214496
I0403 15:05:44.566982  2650 layer_factory.hpp:77] Creating layer inception_4b/relu_1x1
I0403 15:05:44.567000  2650 net.cpp:91] Creating Layer inception_4b/relu_1x1
I0403 15:05:44.567016  2650 net.cpp:425] inception_4b/relu_1x1 <- inception_4b/1x1
I0403 15:05:44.567035  2650 net.cpp:386] inception_4b/relu_1x1 -> inception_4b/1x1 (in-place)
I0403 15:05:44.567224  2650 net.cpp:141] Setting up inception_4b/relu_1x1
I0403 15:05:44.567250  2650 net.cpp:148] Top shape: 24 160 14 14 (752640)
I0403 15:05:44.567265  2650 net.cpp:156] Memory required for data: 952225056
I0403 15:05:44.567279  2650 layer_factory.hpp:77] Creating layer inception_4b/3x3_reduce
I0403 15:05:44.567301  2650 net.cpp:91] Creating Layer inception_4b/3x3_reduce
I0403 15:05:44.567319  2650 net.cpp:425] inception_4b/3x3_reduce <- inception_4a/output_inception_4a/output_0_split_2
I0403 15:05:44.567340  2650 net.cpp:399] inception_4b/3x3_reduce -> inception_4b/3x3_reduce
I0403 15:05:44.568691  2650 net.cpp:141] Setting up inception_4b/3x3_reduce
I0403 15:05:44.568718  2650 net.cpp:148] Top shape: 24 112 14 14 (526848)
I0403 15:05:44.568732  2650 net.cpp:156] Memory required for data: 954332448
I0403 15:05:44.568750  2650 layer_factory.hpp:77] Creating layer inception_4b/relu_3x3_reduce
I0403 15:05:44.568770  2650 net.cpp:91] Creating Layer inception_4b/relu_3x3_reduce
I0403 15:05:44.568788  2650 net.cpp:425] inception_4b/relu_3x3_reduce <- inception_4b/3x3_reduce
I0403 15:05:44.568804  2650 net.cpp:386] inception_4b/relu_3x3_reduce -> inception_4b/3x3_reduce (in-place)
I0403 15:05:44.569080  2650 net.cpp:141] Setting up inception_4b/relu_3x3_reduce
I0403 15:05:44.569105  2650 net.cpp:148] Top shape: 24 112 14 14 (526848)
I0403 15:05:44.569120  2650 net.cpp:156] Memory required for data: 956439840
I0403 15:05:44.569134  2650 layer_factory.hpp:77] Creating layer inception_4b/3x3
I0403 15:05:44.569159  2650 net.cpp:91] Creating Layer inception_4b/3x3
I0403 15:05:44.569175  2650 net.cpp:425] inception_4b/3x3 <- inception_4b/3x3_reduce
I0403 15:05:44.569198  2650 net.cpp:399] inception_4b/3x3 -> inception_4b/3x3
I0403 15:05:44.572106  2650 net.cpp:141] Setting up inception_4b/3x3
I0403 15:05:44.572134  2650 net.cpp:148] Top shape: 24 224 14 14 (1053696)
I0403 15:05:44.572149  2650 net.cpp:156] Memory required for data: 960654624
I0403 15:05:44.572167  2650 layer_factory.hpp:77] Creating layer inception_4b/relu_3x3
I0403 15:05:44.572187  2650 net.cpp:91] Creating Layer inception_4b/relu_3x3
I0403 15:05:44.572202  2650 net.cpp:425] inception_4b/relu_3x3 <- inception_4b/3x3
I0403 15:05:44.572233  2650 net.cpp:386] inception_4b/relu_3x3 -> inception_4b/3x3 (in-place)
I0403 15:05:44.572417  2650 net.cpp:141] Setting up inception_4b/relu_3x3
I0403 15:05:44.572443  2650 net.cpp:148] Top shape: 24 224 14 14 (1053696)
I0403 15:05:44.572458  2650 net.cpp:156] Memory required for data: 964869408
I0403 15:05:44.572473  2650 layer_factory.hpp:77] Creating layer inception_4b/5x5_reduce
I0403 15:05:44.572494  2650 net.cpp:91] Creating Layer inception_4b/5x5_reduce
I0403 15:05:44.572511  2650 net.cpp:425] inception_4b/5x5_reduce <- inception_4a/output_inception_4a/output_0_split_3
I0403 15:05:44.572530  2650 net.cpp:399] inception_4b/5x5_reduce -> inception_4b/5x5_reduce
I0403 15:05:44.573632  2650 net.cpp:141] Setting up inception_4b/5x5_reduce
I0403 15:05:44.573660  2650 net.cpp:148] Top shape: 24 24 14 14 (112896)
I0403 15:05:44.573674  2650 net.cpp:156] Memory required for data: 965320992
I0403 15:05:44.573693  2650 layer_factory.hpp:77] Creating layer inception_4b/relu_5x5_reduce
I0403 15:05:44.573709  2650 net.cpp:91] Creating Layer inception_4b/relu_5x5_reduce
I0403 15:05:44.573739  2650 net.cpp:425] inception_4b/relu_5x5_reduce <- inception_4b/5x5_reduce
I0403 15:05:44.573758  2650 net.cpp:386] inception_4b/relu_5x5_reduce -> inception_4b/5x5_reduce (in-place)
I0403 15:05:44.573941  2650 net.cpp:141] Setting up inception_4b/relu_5x5_reduce
I0403 15:05:44.573966  2650 net.cpp:148] Top shape: 24 24 14 14 (112896)
I0403 15:05:44.573981  2650 net.cpp:156] Memory required for data: 965772576
I0403 15:05:44.573994  2650 layer_factory.hpp:77] Creating layer inception_4b/5x5
I0403 15:05:44.574015  2650 net.cpp:91] Creating Layer inception_4b/5x5
I0403 15:05:44.574033  2650 net.cpp:425] inception_4b/5x5 <- inception_4b/5x5_reduce
I0403 15:05:44.574054  2650 net.cpp:399] inception_4b/5x5 -> inception_4b/5x5
I0403 15:05:44.575266  2650 net.cpp:141] Setting up inception_4b/5x5
I0403 15:05:44.575294  2650 net.cpp:148] Top shape: 24 64 14 14 (301056)
I0403 15:05:44.575309  2650 net.cpp:156] Memory required for data: 966976800
I0403 15:05:44.575326  2650 layer_factory.hpp:77] Creating layer inception_4b/relu_5x5
I0403 15:05:44.575343  2650 net.cpp:91] Creating Layer inception_4b/relu_5x5
I0403 15:05:44.575358  2650 net.cpp:425] inception_4b/relu_5x5 <- inception_4b/5x5
I0403 15:05:44.575377  2650 net.cpp:386] inception_4b/relu_5x5 -> inception_4b/5x5 (in-place)
I0403 15:05:44.575657  2650 net.cpp:141] Setting up inception_4b/relu_5x5
I0403 15:05:44.575682  2650 net.cpp:148] Top shape: 24 64 14 14 (301056)
I0403 15:05:44.575697  2650 net.cpp:156] Memory required for data: 968181024
I0403 15:05:44.575711  2650 layer_factory.hpp:77] Creating layer inception_4b/pool
I0403 15:05:44.575728  2650 net.cpp:91] Creating Layer inception_4b/pool
I0403 15:05:44.575744  2650 net.cpp:425] inception_4b/pool <- inception_4a/output_inception_4a/output_0_split_4
I0403 15:05:44.575767  2650 net.cpp:399] inception_4b/pool -> inception_4b/pool
I0403 15:05:44.575829  2650 net.cpp:141] Setting up inception_4b/pool
I0403 15:05:44.575852  2650 net.cpp:148] Top shape: 24 512 14 14 (2408448)
I0403 15:05:44.575866  2650 net.cpp:156] Memory required for data: 977814816
I0403 15:05:44.575881  2650 layer_factory.hpp:77] Creating layer inception_4b/pool_proj
I0403 15:05:44.575903  2650 net.cpp:91] Creating Layer inception_4b/pool_proj
I0403 15:05:44.575920  2650 net.cpp:425] inception_4b/pool_proj <- inception_4b/pool
I0403 15:05:44.575938  2650 net.cpp:399] inception_4b/pool_proj -> inception_4b/pool_proj
I0403 15:05:44.577150  2650 net.cpp:141] Setting up inception_4b/pool_proj
I0403 15:05:44.577178  2650 net.cpp:148] Top shape: 24 64 14 14 (301056)
I0403 15:05:44.577191  2650 net.cpp:156] Memory required for data: 979019040
I0403 15:05:44.577216  2650 layer_factory.hpp:77] Creating layer inception_4b/relu_pool_proj
I0403 15:05:44.577236  2650 net.cpp:91] Creating Layer inception_4b/relu_pool_proj
I0403 15:05:44.577252  2650 net.cpp:425] inception_4b/relu_pool_proj <- inception_4b/pool_proj
I0403 15:05:44.577272  2650 net.cpp:386] inception_4b/relu_pool_proj -> inception_4b/pool_proj (in-place)
I0403 15:05:44.577453  2650 net.cpp:141] Setting up inception_4b/relu_pool_proj
I0403 15:05:44.577477  2650 net.cpp:148] Top shape: 24 64 14 14 (301056)
I0403 15:05:44.577492  2650 net.cpp:156] Memory required for data: 980223264
I0403 15:05:44.577507  2650 layer_factory.hpp:77] Creating layer inception_4b/output
I0403 15:05:44.577525  2650 net.cpp:91] Creating Layer inception_4b/output
I0403 15:05:44.577543  2650 net.cpp:425] inception_4b/output <- inception_4b/1x1
I0403 15:05:44.577558  2650 net.cpp:425] inception_4b/output <- inception_4b/3x3
I0403 15:05:44.577574  2650 net.cpp:425] inception_4b/output <- inception_4b/5x5
I0403 15:05:44.577589  2650 net.cpp:425] inception_4b/output <- inception_4b/pool_proj
I0403 15:05:44.577605  2650 net.cpp:399] inception_4b/output -> inception_4b/output
I0403 15:05:44.577651  2650 net.cpp:141] Setting up inception_4b/output
I0403 15:05:44.577673  2650 net.cpp:148] Top shape: 24 512 14 14 (2408448)
I0403 15:05:44.577687  2650 net.cpp:156] Memory required for data: 989857056
I0403 15:05:44.577714  2650 layer_factory.hpp:77] Creating layer inception_4b/output_inception_4b/output_0_split
I0403 15:05:44.577731  2650 net.cpp:91] Creating Layer inception_4b/output_inception_4b/output_0_split
I0403 15:05:44.577746  2650 net.cpp:425] inception_4b/output_inception_4b/output_0_split <- inception_4b/output
I0403 15:05:44.577766  2650 net.cpp:399] inception_4b/output_inception_4b/output_0_split -> inception_4b/output_inception_4b/output_0_split_0
I0403 15:05:44.577786  2650 net.cpp:399] inception_4b/output_inception_4b/output_0_split -> inception_4b/output_inception_4b/output_0_split_1
I0403 15:05:44.577805  2650 net.cpp:399] inception_4b/output_inception_4b/output_0_split -> inception_4b/output_inception_4b/output_0_split_2
I0403 15:05:44.577824  2650 net.cpp:399] inception_4b/output_inception_4b/output_0_split -> inception_4b/output_inception_4b/output_0_split_3
I0403 15:05:44.577903  2650 net.cpp:141] Setting up inception_4b/output_inception_4b/output_0_split
I0403 15:05:44.577927  2650 net.cpp:148] Top shape: 24 512 14 14 (2408448)
I0403 15:05:44.577944  2650 net.cpp:148] Top shape: 24 512 14 14 (2408448)
I0403 15:05:44.577960  2650 net.cpp:148] Top shape: 24 512 14 14 (2408448)
I0403 15:05:44.577975  2650 net.cpp:148] Top shape: 24 512 14 14 (2408448)
I0403 15:05:44.577987  2650 net.cpp:156] Memory required for data: 1028392224
I0403 15:05:44.578001  2650 layer_factory.hpp:77] Creating layer inception_4c/1x1
I0403 15:05:44.578023  2650 net.cpp:91] Creating Layer inception_4c/1x1
I0403 15:05:44.578040  2650 net.cpp:425] inception_4c/1x1 <- inception_4b/output_inception_4b/output_0_split_0
I0403 15:05:44.578058  2650 net.cpp:399] inception_4c/1x1 -> inception_4c/1x1
I0403 15:05:44.579474  2650 net.cpp:141] Setting up inception_4c/1x1
I0403 15:05:44.579501  2650 net.cpp:148] Top shape: 24 128 14 14 (602112)
I0403 15:05:44.579516  2650 net.cpp:156] Memory required for data: 1030800672
I0403 15:05:44.579535  2650 layer_factory.hpp:77] Creating layer inception_4c/relu_1x1
I0403 15:05:44.579553  2650 net.cpp:91] Creating Layer inception_4c/relu_1x1
I0403 15:05:44.579569  2650 net.cpp:425] inception_4c/relu_1x1 <- inception_4c/1x1
I0403 15:05:44.579586  2650 net.cpp:386] inception_4c/relu_1x1 -> inception_4c/1x1 (in-place)
I0403 15:05:44.579764  2650 net.cpp:141] Setting up inception_4c/relu_1x1
I0403 15:05:44.579790  2650 net.cpp:148] Top shape: 24 128 14 14 (602112)
I0403 15:05:44.579805  2650 net.cpp:156] Memory required for data: 1033209120
I0403 15:05:44.579819  2650 layer_factory.hpp:77] Creating layer inception_4c/3x3_reduce
I0403 15:05:44.579843  2650 net.cpp:91] Creating Layer inception_4c/3x3_reduce
I0403 15:05:44.579860  2650 net.cpp:425] inception_4c/3x3_reduce <- inception_4b/output_inception_4b/output_0_split_1
I0403 15:05:44.579879  2650 net.cpp:399] inception_4c/3x3_reduce -> inception_4c/3x3_reduce
I0403 15:05:44.581809  2650 net.cpp:141] Setting up inception_4c/3x3_reduce
I0403 15:05:44.581838  2650 net.cpp:148] Top shape: 24 128 14 14 (602112)
I0403 15:05:44.581854  2650 net.cpp:156] Memory required for data: 1035617568
I0403 15:05:44.581873  2650 layer_factory.hpp:77] Creating layer inception_4c/relu_3x3_reduce
I0403 15:05:44.581890  2650 net.cpp:91] Creating Layer inception_4c/relu_3x3_reduce
I0403 15:05:44.581907  2650 net.cpp:425] inception_4c/relu_3x3_reduce <- inception_4c/3x3_reduce
I0403 15:05:44.581925  2650 net.cpp:386] inception_4c/relu_3x3_reduce -> inception_4c/3x3_reduce (in-place)
I0403 15:05:44.582242  2650 net.cpp:141] Setting up inception_4c/relu_3x3_reduce
I0403 15:05:44.582270  2650 net.cpp:148] Top shape: 24 128 14 14 (602112)
I0403 15:05:44.582286  2650 net.cpp:156] Memory required for data: 1038026016
I0403 15:05:44.582301  2650 layer_factory.hpp:77] Creating layer inception_4c/3x3
I0403 15:05:44.582324  2650 net.cpp:91] Creating Layer inception_4c/3x3
I0403 15:05:44.582341  2650 net.cpp:425] inception_4c/3x3 <- inception_4c/3x3_reduce
I0403 15:05:44.582360  2650 net.cpp:399] inception_4c/3x3 -> inception_4c/3x3
I0403 15:05:44.585947  2650 net.cpp:141] Setting up inception_4c/3x3
I0403 15:05:44.585988  2650 net.cpp:148] Top shape: 24 256 14 14 (1204224)
I0403 15:05:44.586004  2650 net.cpp:156] Memory required for data: 1042842912
I0403 15:05:44.586036  2650 layer_factory.hpp:77] Creating layer inception_4c/relu_3x3
I0403 15:05:44.586057  2650 net.cpp:91] Creating Layer inception_4c/relu_3x3
I0403 15:05:44.586074  2650 net.cpp:425] inception_4c/relu_3x3 <- inception_4c/3x3
I0403 15:05:44.586093  2650 net.cpp:386] inception_4c/relu_3x3 -> inception_4c/3x3 (in-place)
I0403 15:05:44.586288  2650 net.cpp:141] Setting up inception_4c/relu_3x3
I0403 15:05:44.586314  2650 net.cpp:148] Top shape: 24 256 14 14 (1204224)
I0403 15:05:44.586329  2650 net.cpp:156] Memory required for data: 1047659808
I0403 15:05:44.586344  2650 layer_factory.hpp:77] Creating layer inception_4c/5x5_reduce
I0403 15:05:44.586366  2650 net.cpp:91] Creating Layer inception_4c/5x5_reduce
I0403 15:05:44.586385  2650 net.cpp:425] inception_4c/5x5_reduce <- inception_4b/output_inception_4b/output_0_split_2
I0403 15:05:44.586406  2650 net.cpp:399] inception_4c/5x5_reduce -> inception_4c/5x5_reduce
I0403 15:05:44.587520  2650 net.cpp:141] Setting up inception_4c/5x5_reduce
I0403 15:05:44.587549  2650 net.cpp:148] Top shape: 24 24 14 14 (112896)
I0403 15:05:44.587564  2650 net.cpp:156] Memory required for data: 1048111392
I0403 15:05:44.587582  2650 layer_factory.hpp:77] Creating layer inception_4c/relu_5x5_reduce
I0403 15:05:44.587599  2650 net.cpp:91] Creating Layer inception_4c/relu_5x5_reduce
I0403 15:05:44.587615  2650 net.cpp:425] inception_4c/relu_5x5_reduce <- inception_4c/5x5_reduce
I0403 15:05:44.587635  2650 net.cpp:386] inception_4c/relu_5x5_reduce -> inception_4c/5x5_reduce (in-place)
I0403 15:05:44.587826  2650 net.cpp:141] Setting up inception_4c/relu_5x5_reduce
I0403 15:05:44.587852  2650 net.cpp:148] Top shape: 24 24 14 14 (112896)
I0403 15:05:44.587867  2650 net.cpp:156] Memory required for data: 1048562976
I0403 15:05:44.587880  2650 layer_factory.hpp:77] Creating layer inception_4c/5x5
I0403 15:05:44.587903  2650 net.cpp:91] Creating Layer inception_4c/5x5
I0403 15:05:44.587920  2650 net.cpp:425] inception_4c/5x5 <- inception_4c/5x5_reduce
I0403 15:05:44.587944  2650 net.cpp:399] inception_4c/5x5 -> inception_4c/5x5
I0403 15:05:44.589220  2650 net.cpp:141] Setting up inception_4c/5x5
I0403 15:05:44.589247  2650 net.cpp:148] Top shape: 24 64 14 14 (301056)
I0403 15:05:44.589262  2650 net.cpp:156] Memory required for data: 1049767200
I0403 15:05:44.589280  2650 layer_factory.hpp:77] Creating layer inception_4c/relu_5x5
I0403 15:05:44.589300  2650 net.cpp:91] Creating Layer inception_4c/relu_5x5
I0403 15:05:44.589318  2650 net.cpp:425] inception_4c/relu_5x5 <- inception_4c/5x5
I0403 15:05:44.589334  2650 net.cpp:386] inception_4c/relu_5x5 -> inception_4c/5x5 (in-place)
I0403 15:05:44.589627  2650 net.cpp:141] Setting up inception_4c/relu_5x5
I0403 15:05:44.589653  2650 net.cpp:148] Top shape: 24 64 14 14 (301056)
I0403 15:05:44.589668  2650 net.cpp:156] Memory required for data: 1050971424
I0403 15:05:44.589682  2650 layer_factory.hpp:77] Creating layer inception_4c/pool
I0403 15:05:44.589702  2650 net.cpp:91] Creating Layer inception_4c/pool
I0403 15:05:44.589720  2650 net.cpp:425] inception_4c/pool <- inception_4b/output_inception_4b/output_0_split_3
I0403 15:05:44.589737  2650 net.cpp:399] inception_4c/pool -> inception_4c/pool
I0403 15:05:44.589803  2650 net.cpp:141] Setting up inception_4c/pool
I0403 15:05:44.589828  2650 net.cpp:148] Top shape: 24 512 14 14 (2408448)
I0403 15:05:44.589841  2650 net.cpp:156] Memory required for data: 1060605216
I0403 15:05:44.589855  2650 layer_factory.hpp:77] Creating layer inception_4c/pool_proj
I0403 15:05:44.589877  2650 net.cpp:91] Creating Layer inception_4c/pool_proj
I0403 15:05:44.589895  2650 net.cpp:425] inception_4c/pool_proj <- inception_4c/pool
I0403 15:05:44.589915  2650 net.cpp:399] inception_4c/pool_proj -> inception_4c/pool_proj
I0403 15:05:44.591164  2650 net.cpp:141] Setting up inception_4c/pool_proj
I0403 15:05:44.591193  2650 net.cpp:148] Top shape: 24 64 14 14 (301056)
I0403 15:05:44.591244  2650 net.cpp:156] Memory required for data: 1061809440
I0403 15:05:44.591265  2650 layer_factory.hpp:77] Creating layer inception_4c/relu_pool_proj
I0403 15:05:44.591284  2650 net.cpp:91] Creating Layer inception_4c/relu_pool_proj
I0403 15:05:44.591301  2650 net.cpp:425] inception_4c/relu_pool_proj <- inception_4c/pool_proj
I0403 15:05:44.591321  2650 net.cpp:386] inception_4c/relu_pool_proj -> inception_4c/pool_proj (in-place)
I0403 15:05:44.591517  2650 net.cpp:141] Setting up inception_4c/relu_pool_proj
I0403 15:05:44.591542  2650 net.cpp:148] Top shape: 24 64 14 14 (301056)
I0403 15:05:44.591557  2650 net.cpp:156] Memory required for data: 1063013664
I0403 15:05:44.591572  2650 layer_factory.hpp:77] Creating layer inception_4c/output
I0403 15:05:44.591593  2650 net.cpp:91] Creating Layer inception_4c/output
I0403 15:05:44.591609  2650 net.cpp:425] inception_4c/output <- inception_4c/1x1
I0403 15:05:44.591626  2650 net.cpp:425] inception_4c/output <- inception_4c/3x3
I0403 15:05:44.591642  2650 net.cpp:425] inception_4c/output <- inception_4c/5x5
I0403 15:05:44.591657  2650 net.cpp:425] inception_4c/output <- inception_4c/pool_proj
I0403 15:05:44.591675  2650 net.cpp:399] inception_4c/output -> inception_4c/output
I0403 15:05:44.591722  2650 net.cpp:141] Setting up inception_4c/output
I0403 15:05:44.591747  2650 net.cpp:148] Top shape: 24 512 14 14 (2408448)
I0403 15:05:44.591763  2650 net.cpp:156] Memory required for data: 1072647456
I0403 15:05:44.591779  2650 layer_factory.hpp:77] Creating layer inception_4c/output_inception_4c/output_0_split
I0403 15:05:44.591796  2650 net.cpp:91] Creating Layer inception_4c/output_inception_4c/output_0_split
I0403 15:05:44.591812  2650 net.cpp:425] inception_4c/output_inception_4c/output_0_split <- inception_4c/output
I0403 15:05:44.591835  2650 net.cpp:399] inception_4c/output_inception_4c/output_0_split -> inception_4c/output_inception_4c/output_0_split_0
I0403 15:05:44.591856  2650 net.cpp:399] inception_4c/output_inception_4c/output_0_split -> inception_4c/output_inception_4c/output_0_split_1
I0403 15:05:44.591876  2650 net.cpp:399] inception_4c/output_inception_4c/output_0_split -> inception_4c/output_inception_4c/output_0_split_2
I0403 15:05:44.591897  2650 net.cpp:399] inception_4c/output_inception_4c/output_0_split -> inception_4c/output_inception_4c/output_0_split_3
I0403 15:05:44.591985  2650 net.cpp:141] Setting up inception_4c/output_inception_4c/output_0_split
I0403 15:05:44.592012  2650 net.cpp:148] Top shape: 24 512 14 14 (2408448)
I0403 15:05:44.592030  2650 net.cpp:148] Top shape: 24 512 14 14 (2408448)
I0403 15:05:44.592046  2650 net.cpp:148] Top shape: 24 512 14 14 (2408448)
I0403 15:05:44.592061  2650 net.cpp:148] Top shape: 24 512 14 14 (2408448)
I0403 15:05:44.592075  2650 net.cpp:156] Memory required for data: 1111182624
I0403 15:05:44.592090  2650 layer_factory.hpp:77] Creating layer inception_4d/1x1
I0403 15:05:44.592113  2650 net.cpp:91] Creating Layer inception_4d/1x1
I0403 15:05:44.592130  2650 net.cpp:425] inception_4d/1x1 <- inception_4c/output_inception_4c/output_0_split_0
I0403 15:05:44.592149  2650 net.cpp:399] inception_4d/1x1 -> inception_4d/1x1
I0403 15:05:44.593614  2650 net.cpp:141] Setting up inception_4d/1x1
I0403 15:05:44.593646  2650 net.cpp:148] Top shape: 24 112 14 14 (526848)
I0403 15:05:44.593662  2650 net.cpp:156] Memory required for data: 1113290016
I0403 15:05:44.593682  2650 layer_factory.hpp:77] Creating layer inception_4d/relu_1x1
I0403 15:05:44.593699  2650 net.cpp:91] Creating Layer inception_4d/relu_1x1
I0403 15:05:44.593716  2650 net.cpp:425] inception_4d/relu_1x1 <- inception_4d/1x1
I0403 15:05:44.593734  2650 net.cpp:386] inception_4d/relu_1x1 -> inception_4d/1x1 (in-place)
I0403 15:05:44.593929  2650 net.cpp:141] Setting up inception_4d/relu_1x1
I0403 15:05:44.593955  2650 net.cpp:148] Top shape: 24 112 14 14 (526848)
I0403 15:05:44.593971  2650 net.cpp:156] Memory required for data: 1115397408
I0403 15:05:44.593987  2650 layer_factory.hpp:77] Creating layer inception_4d/3x3_reduce
I0403 15:05:44.594023  2650 net.cpp:91] Creating Layer inception_4d/3x3_reduce
I0403 15:05:44.594041  2650 net.cpp:425] inception_4d/3x3_reduce <- inception_4c/output_inception_4c/output_0_split_1
I0403 15:05:44.594063  2650 net.cpp:399] inception_4d/3x3_reduce -> inception_4d/3x3_reduce
I0403 15:05:44.595654  2650 net.cpp:141] Setting up inception_4d/3x3_reduce
I0403 15:05:44.595682  2650 net.cpp:148] Top shape: 24 144 14 14 (677376)
I0403 15:05:44.595698  2650 net.cpp:156] Memory required for data: 1118106912
I0403 15:05:44.595717  2650 layer_factory.hpp:77] Creating layer inception_4d/relu_3x3_reduce
I0403 15:05:44.595738  2650 net.cpp:91] Creating Layer inception_4d/relu_3x3_reduce
I0403 15:05:44.595755  2650 net.cpp:425] inception_4d/relu_3x3_reduce <- inception_4d/3x3_reduce
I0403 15:05:44.595773  2650 net.cpp:386] inception_4d/relu_3x3_reduce -> inception_4d/3x3_reduce (in-place)
I0403 15:05:44.596076  2650 net.cpp:141] Setting up inception_4d/relu_3x3_reduce
I0403 15:05:44.596103  2650 net.cpp:148] Top shape: 24 144 14 14 (677376)
I0403 15:05:44.596118  2650 net.cpp:156] Memory required for data: 1120816416
I0403 15:05:44.596134  2650 layer_factory.hpp:77] Creating layer inception_4d/3x3
I0403 15:05:44.596159  2650 net.cpp:91] Creating Layer inception_4d/3x3
I0403 15:05:44.596179  2650 net.cpp:425] inception_4d/3x3 <- inception_4d/3x3_reduce
I0403 15:05:44.596199  2650 net.cpp:399] inception_4d/3x3 -> inception_4d/3x3
I0403 15:05:44.600632  2650 net.cpp:141] Setting up inception_4d/3x3
I0403 15:05:44.600666  2650 net.cpp:148] Top shape: 24 288 14 14 (1354752)
I0403 15:05:44.600682  2650 net.cpp:156] Memory required for data: 1126235424
I0403 15:05:44.600702  2650 layer_factory.hpp:77] Creating layer inception_4d/relu_3x3
I0403 15:05:44.600719  2650 net.cpp:91] Creating Layer inception_4d/relu_3x3
I0403 15:05:44.600736  2650 net.cpp:425] inception_4d/relu_3x3 <- inception_4d/3x3
I0403 15:05:44.600756  2650 net.cpp:386] inception_4d/relu_3x3 -> inception_4d/3x3 (in-place)
I0403 15:05:44.600955  2650 net.cpp:141] Setting up inception_4d/relu_3x3
I0403 15:05:44.600980  2650 net.cpp:148] Top shape: 24 288 14 14 (1354752)
I0403 15:05:44.600996  2650 net.cpp:156] Memory required for data: 1131654432
I0403 15:05:44.601011  2650 layer_factory.hpp:77] Creating layer inception_4d/5x5_reduce
I0403 15:05:44.601035  2650 net.cpp:91] Creating Layer inception_4d/5x5_reduce
I0403 15:05:44.601053  2650 net.cpp:425] inception_4d/5x5_reduce <- inception_4c/output_inception_4c/output_0_split_2
I0403 15:05:44.601076  2650 net.cpp:399] inception_4d/5x5_reduce -> inception_4d/5x5_reduce
I0403 15:05:44.602314  2650 net.cpp:141] Setting up inception_4d/5x5_reduce
I0403 15:05:44.602345  2650 net.cpp:148] Top shape: 24 32 14 14 (150528)
I0403 15:05:44.602362  2650 net.cpp:156] Memory required for data: 1132256544
I0403 15:05:44.602381  2650 layer_factory.hpp:77] Creating layer inception_4d/relu_5x5_reduce
I0403 15:05:44.602399  2650 net.cpp:91] Creating Layer inception_4d/relu_5x5_reduce
I0403 15:05:44.602416  2650 net.cpp:425] inception_4d/relu_5x5_reduce <- inception_4d/5x5_reduce
I0403 15:05:44.602434  2650 net.cpp:386] inception_4d/relu_5x5_reduce -> inception_4d/5x5_reduce (in-place)
I0403 15:05:44.602635  2650 net.cpp:141] Setting up inception_4d/relu_5x5_reduce
I0403 15:05:44.602661  2650 net.cpp:148] Top shape: 24 32 14 14 (150528)
I0403 15:05:44.602676  2650 net.cpp:156] Memory required for data: 1132858656
I0403 15:05:44.602691  2650 layer_factory.hpp:77] Creating layer inception_4d/5x5
I0403 15:05:44.602715  2650 net.cpp:91] Creating Layer inception_4d/5x5
I0403 15:05:44.602732  2650 net.cpp:425] inception_4d/5x5 <- inception_4d/5x5_reduce
I0403 15:05:44.602753  2650 net.cpp:399] inception_4d/5x5 -> inception_4d/5x5
I0403 15:05:44.604308  2650 net.cpp:141] Setting up inception_4d/5x5
I0403 15:05:44.604337  2650 net.cpp:148] Top shape: 24 64 14 14 (301056)
I0403 15:05:44.604353  2650 net.cpp:156] Memory required for data: 1134062880
I0403 15:05:44.604372  2650 layer_factory.hpp:77] Creating layer inception_4d/relu_5x5
I0403 15:05:44.604409  2650 net.cpp:91] Creating Layer inception_4d/relu_5x5
I0403 15:05:44.604428  2650 net.cpp:425] inception_4d/relu_5x5 <- inception_4d/5x5
I0403 15:05:44.604445  2650 net.cpp:386] inception_4d/relu_5x5 -> inception_4d/5x5 (in-place)
I0403 15:05:44.604758  2650 net.cpp:141] Setting up inception_4d/relu_5x5
I0403 15:05:44.604786  2650 net.cpp:148] Top shape: 24 64 14 14 (301056)
I0403 15:05:44.604801  2650 net.cpp:156] Memory required for data: 1135267104
I0403 15:05:44.604816  2650 layer_factory.hpp:77] Creating layer inception_4d/pool
I0403 15:05:44.604835  2650 net.cpp:91] Creating Layer inception_4d/pool
I0403 15:05:44.604851  2650 net.cpp:425] inception_4d/pool <- inception_4c/output_inception_4c/output_0_split_3
I0403 15:05:44.604873  2650 net.cpp:399] inception_4d/pool -> inception_4d/pool
I0403 15:05:44.604943  2650 net.cpp:141] Setting up inception_4d/pool
I0403 15:05:44.604967  2650 net.cpp:148] Top shape: 24 512 14 14 (2408448)
I0403 15:05:44.604982  2650 net.cpp:156] Memory required for data: 1144900896
I0403 15:05:44.604997  2650 layer_factory.hpp:77] Creating layer inception_4d/pool_proj
I0403 15:05:44.605020  2650 net.cpp:91] Creating Layer inception_4d/pool_proj
I0403 15:05:44.605038  2650 net.cpp:425] inception_4d/pool_proj <- inception_4d/pool
I0403 15:05:44.605059  2650 net.cpp:399] inception_4d/pool_proj -> inception_4d/pool_proj
I0403 15:05:44.606904  2650 net.cpp:141] Setting up inception_4d/pool_proj
I0403 15:05:44.606936  2650 net.cpp:148] Top shape: 24 64 14 14 (301056)
I0403 15:05:44.606955  2650 net.cpp:156] Memory required for data: 1146105120
I0403 15:05:44.606973  2650 layer_factory.hpp:77] Creating layer inception_4d/relu_pool_proj
I0403 15:05:44.606992  2650 net.cpp:91] Creating Layer inception_4d/relu_pool_proj
I0403 15:05:44.607008  2650 net.cpp:425] inception_4d/relu_pool_proj <- inception_4d/pool_proj
I0403 15:05:44.607028  2650 net.cpp:386] inception_4d/relu_pool_proj -> inception_4d/pool_proj (in-place)
I0403 15:05:44.607233  2650 net.cpp:141] Setting up inception_4d/relu_pool_proj
I0403 15:05:44.607259  2650 net.cpp:148] Top shape: 24 64 14 14 (301056)
I0403 15:05:44.607273  2650 net.cpp:156] Memory required for data: 1147309344
I0403 15:05:44.607288  2650 layer_factory.hpp:77] Creating layer inception_4d/output
I0403 15:05:44.607306  2650 net.cpp:91] Creating Layer inception_4d/output
I0403 15:05:44.607322  2650 net.cpp:425] inception_4d/output <- inception_4d/1x1
I0403 15:05:44.607339  2650 net.cpp:425] inception_4d/output <- inception_4d/3x3
I0403 15:05:44.607355  2650 net.cpp:425] inception_4d/output <- inception_4d/5x5
I0403 15:05:44.607372  2650 net.cpp:425] inception_4d/output <- inception_4d/pool_proj
I0403 15:05:44.607390  2650 net.cpp:399] inception_4d/output -> inception_4d/output
I0403 15:05:44.607440  2650 net.cpp:141] Setting up inception_4d/output
I0403 15:05:44.607467  2650 net.cpp:148] Top shape: 24 528 14 14 (2483712)
I0403 15:05:44.607482  2650 net.cpp:156] Memory required for data: 1157244192
I0403 15:05:44.607498  2650 layer_factory.hpp:77] Creating layer inception_4d/output_inception_4d/output_0_split
I0403 15:05:44.607517  2650 net.cpp:91] Creating Layer inception_4d/output_inception_4d/output_0_split
I0403 15:05:44.607532  2650 net.cpp:425] inception_4d/output_inception_4d/output_0_split <- inception_4d/output
I0403 15:05:44.607550  2650 net.cpp:399] inception_4d/output_inception_4d/output_0_split -> inception_4d/output_inception_4d/output_0_split_0
I0403 15:05:44.607576  2650 net.cpp:399] inception_4d/output_inception_4d/output_0_split -> inception_4d/output_inception_4d/output_0_split_1
I0403 15:05:44.607599  2650 net.cpp:399] inception_4d/output_inception_4d/output_0_split -> inception_4d/output_inception_4d/output_0_split_2
I0403 15:05:44.607620  2650 net.cpp:399] inception_4d/output_inception_4d/output_0_split -> inception_4d/output_inception_4d/output_0_split_3
I0403 15:05:44.607641  2650 net.cpp:399] inception_4d/output_inception_4d/output_0_split -> inception_4d/output_inception_4d/output_0_split_4
I0403 15:05:44.607763  2650 net.cpp:141] Setting up inception_4d/output_inception_4d/output_0_split
I0403 15:05:44.607800  2650 net.cpp:148] Top shape: 24 528 14 14 (2483712)
I0403 15:05:44.607821  2650 net.cpp:148] Top shape: 24 528 14 14 (2483712)
I0403 15:05:44.607839  2650 net.cpp:148] Top shape: 24 528 14 14 (2483712)
I0403 15:05:44.607856  2650 net.cpp:148] Top shape: 24 528 14 14 (2483712)
I0403 15:05:44.607872  2650 net.cpp:148] Top shape: 24 528 14 14 (2483712)
I0403 15:05:44.607887  2650 net.cpp:156] Memory required for data: 1206918432
I0403 15:05:44.607903  2650 layer_factory.hpp:77] Creating layer loss2/ave_pool
I0403 15:05:44.607921  2650 net.cpp:91] Creating Layer loss2/ave_pool
I0403 15:05:44.607939  2650 net.cpp:425] loss2/ave_pool <- inception_4d/output_inception_4d/output_0_split_0
I0403 15:05:44.607959  2650 net.cpp:399] loss2/ave_pool -> loss2/ave_pool
I0403 15:05:44.608314  2650 net.cpp:141] Setting up loss2/ave_pool
I0403 15:05:44.608342  2650 net.cpp:148] Top shape: 24 528 4 4 (202752)
I0403 15:05:44.608360  2650 net.cpp:156] Memory required for data: 1207729440
I0403 15:05:44.608376  2650 layer_factory.hpp:77] Creating layer loss2/conv
I0403 15:05:44.608398  2650 net.cpp:91] Creating Layer loss2/conv
I0403 15:05:44.608417  2650 net.cpp:425] loss2/conv <- loss2/ave_pool
I0403 15:05:44.608435  2650 net.cpp:399] loss2/conv -> loss2/conv
I0403 15:05:44.610445  2650 net.cpp:141] Setting up loss2/conv
I0403 15:05:44.610472  2650 net.cpp:148] Top shape: 24 128 4 4 (49152)
I0403 15:05:44.610488  2650 net.cpp:156] Memory required for data: 1207926048
I0403 15:05:44.610507  2650 layer_factory.hpp:77] Creating layer loss2/relu_conv
I0403 15:05:44.610523  2650 net.cpp:91] Creating Layer loss2/relu_conv
I0403 15:05:44.610540  2650 net.cpp:425] loss2/relu_conv <- loss2/conv
I0403 15:05:44.610560  2650 net.cpp:386] loss2/relu_conv -> loss2/conv (in-place)
I0403 15:05:44.610860  2650 net.cpp:141] Setting up loss2/relu_conv
I0403 15:05:44.610887  2650 net.cpp:148] Top shape: 24 128 4 4 (49152)
I0403 15:05:44.610901  2650 net.cpp:156] Memory required for data: 1208122656
I0403 15:05:44.610916  2650 layer_factory.hpp:77] Creating layer loss2/fc
I0403 15:05:44.610935  2650 net.cpp:91] Creating Layer loss2/fc
I0403 15:05:44.610952  2650 net.cpp:425] loss2/fc <- loss2/conv
I0403 15:05:44.610973  2650 net.cpp:399] loss2/fc -> loss2/fc
I0403 15:05:44.628816  2650 net.cpp:141] Setting up loss2/fc
I0403 15:05:44.628868  2650 net.cpp:148] Top shape: 24 1024 (24576)
I0403 15:05:44.628885  2650 net.cpp:156] Memory required for data: 1208220960
I0403 15:05:44.628906  2650 layer_factory.hpp:77] Creating layer loss2/relu_fc
I0403 15:05:44.628924  2650 net.cpp:91] Creating Layer loss2/relu_fc
I0403 15:05:44.628942  2650 net.cpp:425] loss2/relu_fc <- loss2/fc
I0403 15:05:44.628960  2650 net.cpp:386] loss2/relu_fc -> loss2/fc (in-place)
I0403 15:05:44.629323  2650 net.cpp:141] Setting up loss2/relu_fc
I0403 15:05:44.629349  2650 net.cpp:148] Top shape: 24 1024 (24576)
I0403 15:05:44.629364  2650 net.cpp:156] Memory required for data: 1208319264
I0403 15:05:44.629379  2650 layer_factory.hpp:77] Creating layer loss2/drop_fc
I0403 15:05:44.629395  2650 net.cpp:91] Creating Layer loss2/drop_fc
I0403 15:05:44.629410  2650 net.cpp:425] loss2/drop_fc <- loss2/fc
I0403 15:05:44.629429  2650 net.cpp:386] loss2/drop_fc -> loss2/fc (in-place)
I0403 15:05:44.629478  2650 net.cpp:141] Setting up loss2/drop_fc
I0403 15:05:44.629500  2650 net.cpp:148] Top shape: 24 1024 (24576)
I0403 15:05:44.629514  2650 net.cpp:156] Memory required for data: 1208417568
I0403 15:05:44.629528  2650 layer_factory.hpp:77] Creating layer loss2/classifier_plantvillage
I0403 15:05:44.629549  2650 net.cpp:91] Creating Layer loss2/classifier_plantvillage
I0403 15:05:44.629566  2650 net.cpp:425] loss2/classifier_plantvillage <- loss2/fc
I0403 15:05:44.629587  2650 net.cpp:399] loss2/classifier_plantvillage -> loss2/classifier_plantvillage
I0403 15:05:44.629992  2650 net.cpp:141] Setting up loss2/classifier_plantvillage
I0403 15:05:44.630017  2650 net.cpp:148] Top shape: 24 38 (912)
I0403 15:05:44.630054  2650 net.cpp:156] Memory required for data: 1208421216
I0403 15:05:44.630074  2650 layer_factory.hpp:77] Creating layer loss2/classifier_plantvillage_loss2/classifier_plantvillage_0_split
I0403 15:05:44.630091  2650 net.cpp:91] Creating Layer loss2/classifier_plantvillage_loss2/classifier_plantvillage_0_split
I0403 15:05:44.630106  2650 net.cpp:425] loss2/classifier_plantvillage_loss2/classifier_plantvillage_0_split <- loss2/classifier_plantvillage
I0403 15:05:44.630126  2650 net.cpp:399] loss2/classifier_plantvillage_loss2/classifier_plantvillage_0_split -> loss2/classifier_plantvillage_loss2/classifier_plantvillage_0_split_0
I0403 15:05:44.630147  2650 net.cpp:399] loss2/classifier_plantvillage_loss2/classifier_plantvillage_0_split -> loss2/classifier_plantvillage_loss2/classifier_plantvillage_0_split_1
I0403 15:05:44.630167  2650 net.cpp:399] loss2/classifier_plantvillage_loss2/classifier_plantvillage_0_split -> loss2/classifier_plantvillage_loss2/classifier_plantvillage_0_split_2
I0403 15:05:44.630252  2650 net.cpp:141] Setting up loss2/classifier_plantvillage_loss2/classifier_plantvillage_0_split
I0403 15:05:44.630276  2650 net.cpp:148] Top shape: 24 38 (912)
I0403 15:05:44.630292  2650 net.cpp:148] Top shape: 24 38 (912)
I0403 15:05:44.630307  2650 net.cpp:148] Top shape: 24 38 (912)
I0403 15:05:44.630321  2650 net.cpp:156] Memory required for data: 1208432160
I0403 15:05:44.630336  2650 layer_factory.hpp:77] Creating layer inception_4e/1x1
I0403 15:05:44.630359  2650 net.cpp:91] Creating Layer inception_4e/1x1
I0403 15:05:44.630378  2650 net.cpp:425] inception_4e/1x1 <- inception_4d/output_inception_4d/output_0_split_1
I0403 15:05:44.630398  2650 net.cpp:399] inception_4e/1x1 -> inception_4e/1x1
I0403 15:05:44.632225  2650 net.cpp:141] Setting up inception_4e/1x1
I0403 15:05:44.632253  2650 net.cpp:148] Top shape: 24 256 14 14 (1204224)
I0403 15:05:44.632268  2650 net.cpp:156] Memory required for data: 1213249056
I0403 15:05:44.632287  2650 layer_factory.hpp:77] Creating layer inception_4e/relu_1x1
I0403 15:05:44.632307  2650 net.cpp:91] Creating Layer inception_4e/relu_1x1
I0403 15:05:44.632323  2650 net.cpp:425] inception_4e/relu_1x1 <- inception_4e/1x1
I0403 15:05:44.632339  2650 net.cpp:386] inception_4e/relu_1x1 -> inception_4e/1x1 (in-place)
I0403 15:05:44.632637  2650 net.cpp:141] Setting up inception_4e/relu_1x1
I0403 15:05:44.632661  2650 net.cpp:148] Top shape: 24 256 14 14 (1204224)
I0403 15:05:44.632676  2650 net.cpp:156] Memory required for data: 1218065952
I0403 15:05:44.632690  2650 layer_factory.hpp:77] Creating layer inception_4e/3x3_reduce
I0403 15:05:44.632714  2650 net.cpp:91] Creating Layer inception_4e/3x3_reduce
I0403 15:05:44.632730  2650 net.cpp:425] inception_4e/3x3_reduce <- inception_4d/output_inception_4d/output_0_split_2
I0403 15:05:44.632750  2650 net.cpp:399] inception_4e/3x3_reduce -> inception_4e/3x3_reduce
I0403 15:05:44.634857  2650 net.cpp:141] Setting up inception_4e/3x3_reduce
I0403 15:05:44.634886  2650 net.cpp:148] Top shape: 24 160 14 14 (752640)
I0403 15:05:44.634899  2650 net.cpp:156] Memory required for data: 1221076512
I0403 15:05:44.634917  2650 layer_factory.hpp:77] Creating layer inception_4e/relu_3x3_reduce
I0403 15:05:44.634934  2650 net.cpp:91] Creating Layer inception_4e/relu_3x3_reduce
I0403 15:05:44.634949  2650 net.cpp:425] inception_4e/relu_3x3_reduce <- inception_4e/3x3_reduce
I0403 15:05:44.634968  2650 net.cpp:386] inception_4e/relu_3x3_reduce -> inception_4e/3x3_reduce (in-place)
I0403 15:05:44.635154  2650 net.cpp:141] Setting up inception_4e/relu_3x3_reduce
I0403 15:05:44.635179  2650 net.cpp:148] Top shape: 24 160 14 14 (752640)
I0403 15:05:44.635192  2650 net.cpp:156] Memory required for data: 1224087072
I0403 15:05:44.635207  2650 layer_factory.hpp:77] Creating layer inception_4e/3x3
I0403 15:05:44.635238  2650 net.cpp:91] Creating Layer inception_4e/3x3
I0403 15:05:44.635256  2650 net.cpp:425] inception_4e/3x3 <- inception_4e/3x3_reduce
I0403 15:05:44.635278  2650 net.cpp:399] inception_4e/3x3 -> inception_4e/3x3
I0403 15:05:44.640277  2650 net.cpp:141] Setting up inception_4e/3x3
I0403 15:05:44.640316  2650 net.cpp:148] Top shape: 24 320 14 14 (1505280)
I0403 15:05:44.640332  2650 net.cpp:156] Memory required for data: 1230108192
I0403 15:05:44.640350  2650 layer_factory.hpp:77] Creating layer inception_4e/relu_3x3
I0403 15:05:44.640370  2650 net.cpp:91] Creating Layer inception_4e/relu_3x3
I0403 15:05:44.640386  2650 net.cpp:425] inception_4e/relu_3x3 <- inception_4e/3x3
I0403 15:05:44.640403  2650 net.cpp:386] inception_4e/relu_3x3 -> inception_4e/3x3 (in-place)
I0403 15:05:44.640707  2650 net.cpp:141] Setting up inception_4e/relu_3x3
I0403 15:05:44.640736  2650 net.cpp:148] Top shape: 24 320 14 14 (1505280)
I0403 15:05:44.640753  2650 net.cpp:156] Memory required for data: 1236129312
I0403 15:05:44.640768  2650 layer_factory.hpp:77] Creating layer inception_4e/5x5_reduce
I0403 15:05:44.640789  2650 net.cpp:91] Creating Layer inception_4e/5x5_reduce
I0403 15:05:44.640807  2650 net.cpp:425] inception_4e/5x5_reduce <- inception_4d/output_inception_4d/output_0_split_3
I0403 15:05:44.640825  2650 net.cpp:399] inception_4e/5x5_reduce -> inception_4e/5x5_reduce
I0403 15:05:44.641911  2650 net.cpp:141] Setting up inception_4e/5x5_reduce
I0403 15:05:44.641938  2650 net.cpp:148] Top shape: 24 32 14 14 (150528)
I0403 15:05:44.641953  2650 net.cpp:156] Memory required for data: 1236731424
I0403 15:05:44.641970  2650 layer_factory.hpp:77] Creating layer inception_4e/relu_5x5_reduce
I0403 15:05:44.641990  2650 net.cpp:91] Creating Layer inception_4e/relu_5x5_reduce
I0403 15:05:44.642007  2650 net.cpp:425] inception_4e/relu_5x5_reduce <- inception_4e/5x5_reduce
I0403 15:05:44.642024  2650 net.cpp:386] inception_4e/relu_5x5_reduce -> inception_4e/5x5_reduce (in-place)
I0403 15:05:44.642335  2650 net.cpp:141] Setting up inception_4e/relu_5x5_reduce
I0403 15:05:44.642360  2650 net.cpp:148] Top shape: 24 32 14 14 (150528)
I0403 15:05:44.642375  2650 net.cpp:156] Memory required for data: 1237333536
I0403 15:05:44.642390  2650 layer_factory.hpp:77] Creating layer inception_4e/5x5
I0403 15:05:44.642429  2650 net.cpp:91] Creating Layer inception_4e/5x5
I0403 15:05:44.642447  2650 net.cpp:425] inception_4e/5x5 <- inception_4e/5x5_reduce
I0403 15:05:44.642467  2650 net.cpp:399] inception_4e/5x5 -> inception_4e/5x5
I0403 15:05:44.644296  2650 net.cpp:141] Setting up inception_4e/5x5
I0403 15:05:44.644325  2650 net.cpp:148] Top shape: 24 128 14 14 (602112)
I0403 15:05:44.644341  2650 net.cpp:156] Memory required for data: 1239741984
I0403 15:05:44.644361  2650 layer_factory.hpp:77] Creating layer inception_4e/relu_5x5
I0403 15:05:44.644377  2650 net.cpp:91] Creating Layer inception_4e/relu_5x5
I0403 15:05:44.644393  2650 net.cpp:425] inception_4e/relu_5x5 <- inception_4e/5x5
I0403 15:05:44.644413  2650 net.cpp:386] inception_4e/relu_5x5 -> inception_4e/5x5 (in-place)
I0403 15:05:44.644608  2650 net.cpp:141] Setting up inception_4e/relu_5x5
I0403 15:05:44.644634  2650 net.cpp:148] Top shape: 24 128 14 14 (602112)
I0403 15:05:44.644647  2650 net.cpp:156] Memory required for data: 1242150432
I0403 15:05:44.644662  2650 layer_factory.hpp:77] Creating layer inception_4e/pool
I0403 15:05:44.644680  2650 net.cpp:91] Creating Layer inception_4e/pool
I0403 15:05:44.644696  2650 net.cpp:425] inception_4e/pool <- inception_4d/output_inception_4d/output_0_split_4
I0403 15:05:44.644716  2650 net.cpp:399] inception_4e/pool -> inception_4e/pool
I0403 15:05:44.644788  2650 net.cpp:141] Setting up inception_4e/pool
I0403 15:05:44.644810  2650 net.cpp:148] Top shape: 24 528 14 14 (2483712)
I0403 15:05:44.644824  2650 net.cpp:156] Memory required for data: 1252085280
I0403 15:05:44.644839  2650 layer_factory.hpp:77] Creating layer inception_4e/pool_proj
I0403 15:05:44.644861  2650 net.cpp:91] Creating Layer inception_4e/pool_proj
I0403 15:05:44.644878  2650 net.cpp:425] inception_4e/pool_proj <- inception_4e/pool
I0403 15:05:44.644897  2650 net.cpp:399] inception_4e/pool_proj -> inception_4e/pool_proj
I0403 15:05:44.646401  2650 net.cpp:141] Setting up inception_4e/pool_proj
I0403 15:05:44.646441  2650 net.cpp:148] Top shape: 24 128 14 14 (602112)
I0403 15:05:44.646458  2650 net.cpp:156] Memory required for data: 1254493728
I0403 15:05:44.646476  2650 layer_factory.hpp:77] Creating layer inception_4e/relu_pool_proj
I0403 15:05:44.646493  2650 net.cpp:91] Creating Layer inception_4e/relu_pool_proj
I0403 15:05:44.646508  2650 net.cpp:425] inception_4e/relu_pool_proj <- inception_4e/pool_proj
I0403 15:05:44.646528  2650 net.cpp:386] inception_4e/relu_pool_proj -> inception_4e/pool_proj (in-place)
I0403 15:05:44.646817  2650 net.cpp:141] Setting up inception_4e/relu_pool_proj
I0403 15:05:44.646845  2650 net.cpp:148] Top shape: 24 128 14 14 (602112)
I0403 15:05:44.646862  2650 net.cpp:156] Memory required for data: 1256902176
I0403 15:05:44.646877  2650 layer_factory.hpp:77] Creating layer inception_4e/output
I0403 15:05:44.646894  2650 net.cpp:91] Creating Layer inception_4e/output
I0403 15:05:44.646909  2650 net.cpp:425] inception_4e/output <- inception_4e/1x1
I0403 15:05:44.646925  2650 net.cpp:425] inception_4e/output <- inception_4e/3x3
I0403 15:05:44.646941  2650 net.cpp:425] inception_4e/output <- inception_4e/5x5
I0403 15:05:44.646956  2650 net.cpp:425] inception_4e/output <- inception_4e/pool_proj
I0403 15:05:44.646973  2650 net.cpp:399] inception_4e/output -> inception_4e/output
I0403 15:05:44.647023  2650 net.cpp:141] Setting up inception_4e/output
I0403 15:05:44.647045  2650 net.cpp:148] Top shape: 24 832 14 14 (3913728)
I0403 15:05:44.647059  2650 net.cpp:156] Memory required for data: 1272557088
I0403 15:05:44.647073  2650 layer_factory.hpp:77] Creating layer pool4/3x3_s2
I0403 15:05:44.647094  2650 net.cpp:91] Creating Layer pool4/3x3_s2
I0403 15:05:44.647110  2650 net.cpp:425] pool4/3x3_s2 <- inception_4e/output
I0403 15:05:44.647128  2650 net.cpp:399] pool4/3x3_s2 -> pool4/3x3_s2
I0403 15:05:44.647197  2650 net.cpp:141] Setting up pool4/3x3_s2
I0403 15:05:44.647243  2650 net.cpp:148] Top shape: 24 832 7 7 (978432)
I0403 15:05:44.647258  2650 net.cpp:156] Memory required for data: 1276470816
I0403 15:05:44.647282  2650 layer_factory.hpp:77] Creating layer pool4/3x3_s2_pool4/3x3_s2_0_split
I0403 15:05:44.647300  2650 net.cpp:91] Creating Layer pool4/3x3_s2_pool4/3x3_s2_0_split
I0403 15:05:44.647315  2650 net.cpp:425] pool4/3x3_s2_pool4/3x3_s2_0_split <- pool4/3x3_s2
I0403 15:05:44.647335  2650 net.cpp:399] pool4/3x3_s2_pool4/3x3_s2_0_split -> pool4/3x3_s2_pool4/3x3_s2_0_split_0
I0403 15:05:44.647354  2650 net.cpp:399] pool4/3x3_s2_pool4/3x3_s2_0_split -> pool4/3x3_s2_pool4/3x3_s2_0_split_1
I0403 15:05:44.647374  2650 net.cpp:399] pool4/3x3_s2_pool4/3x3_s2_0_split -> pool4/3x3_s2_pool4/3x3_s2_0_split_2
I0403 15:05:44.647394  2650 net.cpp:399] pool4/3x3_s2_pool4/3x3_s2_0_split -> pool4/3x3_s2_pool4/3x3_s2_0_split_3
I0403 15:05:44.647486  2650 net.cpp:141] Setting up pool4/3x3_s2_pool4/3x3_s2_0_split
I0403 15:05:44.647512  2650 net.cpp:148] Top shape: 24 832 7 7 (978432)
I0403 15:05:44.647528  2650 net.cpp:148] Top shape: 24 832 7 7 (978432)
I0403 15:05:44.647543  2650 net.cpp:148] Top shape: 24 832 7 7 (978432)
I0403 15:05:44.647567  2650 net.cpp:148] Top shape: 24 832 7 7 (978432)
I0403 15:05:44.647581  2650 net.cpp:156] Memory required for data: 1292125728
I0403 15:05:44.647596  2650 layer_factory.hpp:77] Creating layer inception_5a/1x1
I0403 15:05:44.647619  2650 net.cpp:91] Creating Layer inception_5a/1x1
I0403 15:05:44.647635  2650 net.cpp:425] inception_5a/1x1 <- pool4/3x3_s2_pool4/3x3_s2_0_split_0
I0403 15:05:44.647656  2650 net.cpp:399] inception_5a/1x1 -> inception_5a/1x1
I0403 15:05:44.650555  2650 net.cpp:141] Setting up inception_5a/1x1
I0403 15:05:44.650584  2650 net.cpp:148] Top shape: 24 256 7 7 (301056)
I0403 15:05:44.650599  2650 net.cpp:156] Memory required for data: 1293329952
I0403 15:05:44.650617  2650 layer_factory.hpp:77] Creating layer inception_5a/relu_1x1
I0403 15:05:44.650635  2650 net.cpp:91] Creating Layer inception_5a/relu_1x1
I0403 15:05:44.650651  2650 net.cpp:425] inception_5a/relu_1x1 <- inception_5a/1x1
I0403 15:05:44.650671  2650 net.cpp:386] inception_5a/relu_1x1 -> inception_5a/1x1 (in-place)
I0403 15:05:44.650990  2650 net.cpp:141] Setting up inception_5a/relu_1x1
I0403 15:05:44.651016  2650 net.cpp:148] Top shape: 24 256 7 7 (301056)
I0403 15:05:44.651031  2650 net.cpp:156] Memory required for data: 1294534176
I0403 15:05:44.651046  2650 layer_factory.hpp:77] Creating layer inception_5a/3x3_reduce
I0403 15:05:44.651067  2650 net.cpp:91] Creating Layer inception_5a/3x3_reduce
I0403 15:05:44.651085  2650 net.cpp:425] inception_5a/3x3_reduce <- pool4/3x3_s2_pool4/3x3_s2_0_split_1
I0403 15:05:44.651106  2650 net.cpp:399] inception_5a/3x3_reduce -> inception_5a/3x3_reduce
I0403 15:05:44.653607  2650 net.cpp:141] Setting up inception_5a/3x3_reduce
I0403 15:05:44.653636  2650 net.cpp:148] Top shape: 24 160 7 7 (188160)
I0403 15:05:44.653652  2650 net.cpp:156] Memory required for data: 1295286816
I0403 15:05:44.653671  2650 layer_factory.hpp:77] Creating layer inception_5a/relu_3x3_reduce
I0403 15:05:44.653692  2650 net.cpp:91] Creating Layer inception_5a/relu_3x3_reduce
I0403 15:05:44.653707  2650 net.cpp:425] inception_5a/relu_3x3_reduce <- inception_5a/3x3_reduce
I0403 15:05:44.653725  2650 net.cpp:386] inception_5a/relu_3x3_reduce -> inception_5a/3x3_reduce (in-place)
I0403 15:05:44.653923  2650 net.cpp:141] Setting up inception_5a/relu_3x3_reduce
I0403 15:05:44.653947  2650 net.cpp:148] Top shape: 24 160 7 7 (188160)
I0403 15:05:44.653962  2650 net.cpp:156] Memory required for data: 1296039456
I0403 15:05:44.653976  2650 layer_factory.hpp:77] Creating layer inception_5a/3x3
I0403 15:05:44.654000  2650 net.cpp:91] Creating Layer inception_5a/3x3
I0403 15:05:44.654018  2650 net.cpp:425] inception_5a/3x3 <- inception_5a/3x3_reduce
I0403 15:05:44.654039  2650 net.cpp:399] inception_5a/3x3 -> inception_5a/3x3
I0403 15:05:44.659186  2650 net.cpp:141] Setting up inception_5a/3x3
I0403 15:05:44.659226  2650 net.cpp:148] Top shape: 24 320 7 7 (376320)
I0403 15:05:44.659245  2650 net.cpp:156] Memory required for data: 1297544736
I0403 15:05:44.659262  2650 layer_factory.hpp:77] Creating layer inception_5a/relu_3x3
I0403 15:05:44.659281  2650 net.cpp:91] Creating Layer inception_5a/relu_3x3
I0403 15:05:44.659297  2650 net.cpp:425] inception_5a/relu_3x3 <- inception_5a/3x3
I0403 15:05:44.659317  2650 net.cpp:386] inception_5a/relu_3x3 -> inception_5a/3x3 (in-place)
I0403 15:05:44.659621  2650 net.cpp:141] Setting up inception_5a/relu_3x3
I0403 15:05:44.659649  2650 net.cpp:148] Top shape: 24 320 7 7 (376320)
I0403 15:05:44.659664  2650 net.cpp:156] Memory required for data: 1299050016
I0403 15:05:44.659679  2650 layer_factory.hpp:77] Creating layer inception_5a/5x5_reduce
I0403 15:05:44.659703  2650 net.cpp:91] Creating Layer inception_5a/5x5_reduce
I0403 15:05:44.659721  2650 net.cpp:425] inception_5a/5x5_reduce <- pool4/3x3_s2_pool4/3x3_s2_0_split_2
I0403 15:05:44.659744  2650 net.cpp:399] inception_5a/5x5_reduce -> inception_5a/5x5_reduce
I0403 15:05:44.660938  2650 net.cpp:141] Setting up inception_5a/5x5_reduce
I0403 15:05:44.660967  2650 net.cpp:148] Top shape: 24 32 7 7 (37632)
I0403 15:05:44.660984  2650 net.cpp:156] Memory required for data: 1299200544
I0403 15:05:44.661001  2650 layer_factory.hpp:77] Creating layer inception_5a/relu_5x5_reduce
I0403 15:05:44.661020  2650 net.cpp:91] Creating Layer inception_5a/relu_5x5_reduce
I0403 15:05:44.661036  2650 net.cpp:425] inception_5a/relu_5x5_reduce <- inception_5a/5x5_reduce
I0403 15:05:44.661056  2650 net.cpp:386] inception_5a/relu_5x5_reduce -> inception_5a/5x5_reduce (in-place)
I0403 15:05:44.661370  2650 net.cpp:141] Setting up inception_5a/relu_5x5_reduce
I0403 15:05:44.661396  2650 net.cpp:148] Top shape: 24 32 7 7 (37632)
I0403 15:05:44.661412  2650 net.cpp:156] Memory required for data: 1299351072
I0403 15:05:44.661427  2650 layer_factory.hpp:77] Creating layer inception_5a/5x5
I0403 15:05:44.661449  2650 net.cpp:91] Creating Layer inception_5a/5x5
I0403 15:05:44.661468  2650 net.cpp:425] inception_5a/5x5 <- inception_5a/5x5_reduce
I0403 15:05:44.661489  2650 net.cpp:399] inception_5a/5x5 -> inception_5a/5x5
I0403 15:05:44.663285  2650 net.cpp:141] Setting up inception_5a/5x5
I0403 15:05:44.663326  2650 net.cpp:148] Top shape: 24 128 7 7 (150528)
I0403 15:05:44.663342  2650 net.cpp:156] Memory required for data: 1299953184
I0403 15:05:44.663362  2650 layer_factory.hpp:77] Creating layer inception_5a/relu_5x5
I0403 15:05:44.663379  2650 net.cpp:91] Creating Layer inception_5a/relu_5x5
I0403 15:05:44.663395  2650 net.cpp:425] inception_5a/relu_5x5 <- inception_5a/5x5
I0403 15:05:44.663414  2650 net.cpp:386] inception_5a/relu_5x5 -> inception_5a/5x5 (in-place)
I0403 15:05:44.663612  2650 net.cpp:141] Setting up inception_5a/relu_5x5
I0403 15:05:44.663637  2650 net.cpp:148] Top shape: 24 128 7 7 (150528)
I0403 15:05:44.663652  2650 net.cpp:156] Memory required for data: 1300555296
I0403 15:05:44.663667  2650 layer_factory.hpp:77] Creating layer inception_5a/pool
I0403 15:05:44.663686  2650 net.cpp:91] Creating Layer inception_5a/pool
I0403 15:05:44.663702  2650 net.cpp:425] inception_5a/pool <- pool4/3x3_s2_pool4/3x3_s2_0_split_3
I0403 15:05:44.663722  2650 net.cpp:399] inception_5a/pool -> inception_5a/pool
I0403 15:05:44.663796  2650 net.cpp:141] Setting up inception_5a/pool
I0403 15:05:44.663820  2650 net.cpp:148] Top shape: 24 832 7 7 (978432)
I0403 15:05:44.663835  2650 net.cpp:156] Memory required for data: 1304469024
I0403 15:05:44.663849  2650 layer_factory.hpp:77] Creating layer inception_5a/pool_proj
I0403 15:05:44.663872  2650 net.cpp:91] Creating Layer inception_5a/pool_proj
I0403 15:05:44.663888  2650 net.cpp:425] inception_5a/pool_proj <- inception_5a/pool
I0403 15:05:44.663909  2650 net.cpp:399] inception_5a/pool_proj -> inception_5a/pool_proj
I0403 15:05:44.666213  2650 net.cpp:141] Setting up inception_5a/pool_proj
I0403 15:05:44.666244  2650 net.cpp:148] Top shape: 24 128 7 7 (150528)
I0403 15:05:44.666261  2650 net.cpp:156] Memory required for data: 1305071136
I0403 15:05:44.666280  2650 layer_factory.hpp:77] Creating layer inception_5a/relu_pool_proj
I0403 15:05:44.666297  2650 net.cpp:91] Creating Layer inception_5a/relu_pool_proj
I0403 15:05:44.666313  2650 net.cpp:425] inception_5a/relu_pool_proj <- inception_5a/pool_proj
I0403 15:05:44.666329  2650 net.cpp:386] inception_5a/relu_pool_proj -> inception_5a/pool_proj (in-place)
I0403 15:05:44.666625  2650 net.cpp:141] Setting up inception_5a/relu_pool_proj
I0403 15:05:44.666653  2650 net.cpp:148] Top shape: 24 128 7 7 (150528)
I0403 15:05:44.666668  2650 net.cpp:156] Memory required for data: 1305673248
I0403 15:05:44.666683  2650 layer_factory.hpp:77] Creating layer inception_5a/output
I0403 15:05:44.666700  2650 net.cpp:91] Creating Layer inception_5a/output
I0403 15:05:44.666717  2650 net.cpp:425] inception_5a/output <- inception_5a/1x1
I0403 15:05:44.666731  2650 net.cpp:425] inception_5a/output <- inception_5a/3x3
I0403 15:05:44.666748  2650 net.cpp:425] inception_5a/output <- inception_5a/5x5
I0403 15:05:44.666762  2650 net.cpp:425] inception_5a/output <- inception_5a/pool_proj
I0403 15:05:44.666779  2650 net.cpp:399] inception_5a/output -> inception_5a/output
I0403 15:05:44.666828  2650 net.cpp:141] Setting up inception_5a/output
I0403 15:05:44.666851  2650 net.cpp:148] Top shape: 24 832 7 7 (978432)
I0403 15:05:44.666865  2650 net.cpp:156] Memory required for data: 1309586976
I0403 15:05:44.666879  2650 layer_factory.hpp:77] Creating layer inception_5a/output_inception_5a/output_0_split
I0403 15:05:44.666898  2650 net.cpp:91] Creating Layer inception_5a/output_inception_5a/output_0_split
I0403 15:05:44.666913  2650 net.cpp:425] inception_5a/output_inception_5a/output_0_split <- inception_5a/output
I0403 15:05:44.666930  2650 net.cpp:399] inception_5a/output_inception_5a/output_0_split -> inception_5a/output_inception_5a/output_0_split_0
I0403 15:05:44.666949  2650 net.cpp:399] inception_5a/output_inception_5a/output_0_split -> inception_5a/output_inception_5a/output_0_split_1
I0403 15:05:44.666970  2650 net.cpp:399] inception_5a/output_inception_5a/output_0_split -> inception_5a/output_inception_5a/output_0_split_2
I0403 15:05:44.666988  2650 net.cpp:399] inception_5a/output_inception_5a/output_0_split -> inception_5a/output_inception_5a/output_0_split_3
I0403 15:05:44.667100  2650 net.cpp:141] Setting up inception_5a/output_inception_5a/output_0_split
I0403 15:05:44.667124  2650 net.cpp:148] Top shape: 24 832 7 7 (978432)
I0403 15:05:44.667140  2650 net.cpp:148] Top shape: 24 832 7 7 (978432)
I0403 15:05:44.667155  2650 net.cpp:148] Top shape: 24 832 7 7 (978432)
I0403 15:05:44.667170  2650 net.cpp:148] Top shape: 24 832 7 7 (978432)
I0403 15:05:44.667182  2650 net.cpp:156] Memory required for data: 1325241888
I0403 15:05:44.667197  2650 layer_factory.hpp:77] Creating layer inception_5b/1x1
I0403 15:05:44.667225  2650 net.cpp:91] Creating Layer inception_5b/1x1
I0403 15:05:44.667244  2650 net.cpp:425] inception_5b/1x1 <- inception_5a/output_inception_5a/output_0_split_0
I0403 15:05:44.667265  2650 net.cpp:399] inception_5b/1x1 -> inception_5b/1x1
I0403 15:05:44.670972  2650 net.cpp:141] Setting up inception_5b/1x1
I0403 15:05:44.671001  2650 net.cpp:148] Top shape: 24 384 7 7 (451584)
I0403 15:05:44.671016  2650 net.cpp:156] Memory required for data: 1327048224
I0403 15:05:44.671035  2650 layer_factory.hpp:77] Creating layer inception_5b/relu_1x1
I0403 15:05:44.671053  2650 net.cpp:91] Creating Layer inception_5b/relu_1x1
I0403 15:05:44.671071  2650 net.cpp:425] inception_5b/relu_1x1 <- inception_5b/1x1
I0403 15:05:44.671087  2650 net.cpp:386] inception_5b/relu_1x1 -> inception_5b/1x1 (in-place)
I0403 15:05:44.671399  2650 net.cpp:141] Setting up inception_5b/relu_1x1
I0403 15:05:44.671425  2650 net.cpp:148] Top shape: 24 384 7 7 (451584)
I0403 15:05:44.671439  2650 net.cpp:156] Memory required for data: 1328854560
I0403 15:05:44.671454  2650 layer_factory.hpp:77] Creating layer inception_5b/3x3_reduce
I0403 15:05:44.671478  2650 net.cpp:91] Creating Layer inception_5b/3x3_reduce
I0403 15:05:44.671496  2650 net.cpp:425] inception_5b/3x3_reduce <- inception_5a/output_inception_5a/output_0_split_1
I0403 15:05:44.671515  2650 net.cpp:399] inception_5b/3x3_reduce -> inception_5b/3x3_reduce
I0403 15:05:44.674203  2650 net.cpp:141] Setting up inception_5b/3x3_reduce
I0403 15:05:44.674242  2650 net.cpp:148] Top shape: 24 192 7 7 (225792)
I0403 15:05:44.674258  2650 net.cpp:156] Memory required for data: 1329757728
I0403 15:05:44.674278  2650 layer_factory.hpp:77] Creating layer inception_5b/relu_3x3_reduce
I0403 15:05:44.674295  2650 net.cpp:91] Creating Layer inception_5b/relu_3x3_reduce
I0403 15:05:44.674311  2650 net.cpp:425] inception_5b/relu_3x3_reduce <- inception_5b/3x3_reduce
I0403 15:05:44.674329  2650 net.cpp:386] inception_5b/relu_3x3_reduce -> inception_5b/3x3_reduce (in-place)
I0403 15:05:44.674531  2650 net.cpp:141] Setting up inception_5b/relu_3x3_reduce
I0403 15:05:44.674556  2650 net.cpp:148] Top shape: 24 192 7 7 (225792)
I0403 15:05:44.674571  2650 net.cpp:156] Memory required for data: 1330660896
I0403 15:05:44.674585  2650 layer_factory.hpp:77] Creating layer inception_5b/3x3
I0403 15:05:44.674608  2650 net.cpp:91] Creating Layer inception_5b/3x3
I0403 15:05:44.674625  2650 net.cpp:425] inception_5b/3x3 <- inception_5b/3x3_reduce
I0403 15:05:44.674649  2650 net.cpp:399] inception_5b/3x3 -> inception_5b/3x3
I0403 15:05:44.681427  2650 net.cpp:141] Setting up inception_5b/3x3
I0403 15:05:44.681459  2650 net.cpp:148] Top shape: 24 384 7 7 (451584)
I0403 15:05:44.681475  2650 net.cpp:156] Memory required for data: 1332467232
I0403 15:05:44.681494  2650 layer_factory.hpp:77] Creating layer inception_5b/relu_3x3
I0403 15:05:44.681512  2650 net.cpp:91] Creating Layer inception_5b/relu_3x3
I0403 15:05:44.681529  2650 net.cpp:425] inception_5b/relu_3x3 <- inception_5b/3x3
I0403 15:05:44.681545  2650 net.cpp:386] inception_5b/relu_3x3 -> inception_5b/3x3 (in-place)
I0403 15:05:44.681851  2650 net.cpp:141] Setting up inception_5b/relu_3x3
I0403 15:05:44.681879  2650 net.cpp:148] Top shape: 24 384 7 7 (451584)
I0403 15:05:44.681895  2650 net.cpp:156] Memory required for data: 1334273568
I0403 15:05:44.681910  2650 layer_factory.hpp:77] Creating layer inception_5b/5x5_reduce
I0403 15:05:44.681947  2650 net.cpp:91] Creating Layer inception_5b/5x5_reduce
I0403 15:05:44.681967  2650 net.cpp:425] inception_5b/5x5_reduce <- inception_5a/output_inception_5a/output_0_split_2
I0403 15:05:44.681987  2650 net.cpp:399] inception_5b/5x5_reduce -> inception_5b/5x5_reduce
I0403 15:05:44.683306  2650 net.cpp:141] Setting up inception_5b/5x5_reduce
I0403 15:05:44.683337  2650 net.cpp:148] Top shape: 24 48 7 7 (56448)
I0403 15:05:44.683353  2650 net.cpp:156] Memory required for data: 1334499360
I0403 15:05:44.683372  2650 layer_factory.hpp:77] Creating layer inception_5b/relu_5x5_reduce
I0403 15:05:44.683389  2650 net.cpp:91] Creating Layer inception_5b/relu_5x5_reduce
I0403 15:05:44.683406  2650 net.cpp:425] inception_5b/relu_5x5_reduce <- inception_5b/5x5_reduce
I0403 15:05:44.683425  2650 net.cpp:386] inception_5b/relu_5x5_reduce -> inception_5b/5x5_reduce (in-place)
I0403 15:05:44.683809  2650 net.cpp:141] Setting up inception_5b/relu_5x5_reduce
I0403 15:05:44.683835  2650 net.cpp:148] Top shape: 24 48 7 7 (56448)
I0403 15:05:44.683850  2650 net.cpp:156] Memory required for data: 1334725152
I0403 15:05:44.683864  2650 layer_factory.hpp:77] Creating layer inception_5b/5x5
I0403 15:05:44.683884  2650 net.cpp:91] Creating Layer inception_5b/5x5
I0403 15:05:44.683902  2650 net.cpp:425] inception_5b/5x5 <- inception_5b/5x5_reduce
I0403 15:05:44.683920  2650 net.cpp:399] inception_5b/5x5 -> inception_5b/5x5
I0403 15:05:44.686066  2650 net.cpp:141] Setting up inception_5b/5x5
I0403 15:05:44.686094  2650 net.cpp:148] Top shape: 24 128 7 7 (150528)
I0403 15:05:44.686110  2650 net.cpp:156] Memory required for data: 1335327264
I0403 15:05:44.686128  2650 layer_factory.hpp:77] Creating layer inception_5b/relu_5x5
I0403 15:05:44.686146  2650 net.cpp:91] Creating Layer inception_5b/relu_5x5
I0403 15:05:44.686163  2650 net.cpp:425] inception_5b/relu_5x5 <- inception_5b/5x5
I0403 15:05:44.686183  2650 net.cpp:386] inception_5b/relu_5x5 -> inception_5b/5x5 (in-place)
I0403 15:05:44.686393  2650 net.cpp:141] Setting up inception_5b/relu_5x5
I0403 15:05:44.686417  2650 net.cpp:148] Top shape: 24 128 7 7 (150528)
I0403 15:05:44.686431  2650 net.cpp:156] Memory required for data: 1335929376
I0403 15:05:44.686446  2650 layer_factory.hpp:77] Creating layer inception_5b/pool
I0403 15:05:44.686466  2650 net.cpp:91] Creating Layer inception_5b/pool
I0403 15:05:44.686485  2650 net.cpp:425] inception_5b/pool <- inception_5a/output_inception_5a/output_0_split_3
I0403 15:05:44.686502  2650 net.cpp:399] inception_5b/pool -> inception_5b/pool
I0403 15:05:44.686575  2650 net.cpp:141] Setting up inception_5b/pool
I0403 15:05:44.686599  2650 net.cpp:148] Top shape: 24 832 7 7 (978432)
I0403 15:05:44.686614  2650 net.cpp:156] Memory required for data: 1339843104
I0403 15:05:44.686628  2650 layer_factory.hpp:77] Creating layer inception_5b/pool_proj
I0403 15:05:44.686650  2650 net.cpp:91] Creating Layer inception_5b/pool_proj
I0403 15:05:44.686668  2650 net.cpp:425] inception_5b/pool_proj <- inception_5b/pool
I0403 15:05:44.686688  2650 net.cpp:399] inception_5b/pool_proj -> inception_5b/pool_proj
I0403 15:05:44.689033  2650 net.cpp:141] Setting up inception_5b/pool_proj
I0403 15:05:44.689064  2650 net.cpp:148] Top shape: 24 128 7 7 (150528)
I0403 15:05:44.689080  2650 net.cpp:156] Memory required for data: 1340445216
I0403 15:05:44.689100  2650 layer_factory.hpp:77] Creating layer inception_5b/relu_pool_proj
I0403 15:05:44.689117  2650 net.cpp:91] Creating Layer inception_5b/relu_pool_proj
I0403 15:05:44.689133  2650 net.cpp:425] inception_5b/relu_pool_proj <- inception_5b/pool_proj
I0403 15:05:44.689153  2650 net.cpp:386] inception_5b/relu_pool_proj -> inception_5b/pool_proj (in-place)
I0403 15:05:44.689465  2650 net.cpp:141] Setting up inception_5b/relu_pool_proj
I0403 15:05:44.689496  2650 net.cpp:148] Top shape: 24 128 7 7 (150528)
I0403 15:05:44.689512  2650 net.cpp:156] Memory required for data: 1341047328
I0403 15:05:44.689527  2650 layer_factory.hpp:77] Creating layer inception_5b/output
I0403 15:05:44.689544  2650 net.cpp:91] Creating Layer inception_5b/output
I0403 15:05:44.689575  2650 net.cpp:425] inception_5b/output <- inception_5b/1x1
I0403 15:05:44.689592  2650 net.cpp:425] inception_5b/output <- inception_5b/3x3
I0403 15:05:44.689610  2650 net.cpp:425] inception_5b/output <- inception_5b/5x5
I0403 15:05:44.689625  2650 net.cpp:425] inception_5b/output <- inception_5b/pool_proj
I0403 15:05:44.689646  2650 net.cpp:399] inception_5b/output -> inception_5b/output
I0403 15:05:44.689697  2650 net.cpp:141] Setting up inception_5b/output
I0403 15:05:44.689720  2650 net.cpp:148] Top shape: 24 1024 7 7 (1204224)
I0403 15:05:44.689735  2650 net.cpp:156] Memory required for data: 1345864224
I0403 15:05:44.689750  2650 layer_factory.hpp:77] Creating layer pool5/7x7_s1
I0403 15:05:44.689771  2650 net.cpp:91] Creating Layer pool5/7x7_s1
I0403 15:05:44.689788  2650 net.cpp:425] pool5/7x7_s1 <- inception_5b/output
I0403 15:05:44.689805  2650 net.cpp:399] pool5/7x7_s1 -> pool5/7x7_s1
I0403 15:05:44.690032  2650 net.cpp:141] Setting up pool5/7x7_s1
I0403 15:05:44.690057  2650 net.cpp:148] Top shape: 24 1024 1 1 (24576)
I0403 15:05:44.690071  2650 net.cpp:156] Memory required for data: 1345962528
I0403 15:05:44.690086  2650 layer_factory.hpp:77] Creating layer pool5/drop_7x7_s1
I0403 15:05:44.690104  2650 net.cpp:91] Creating Layer pool5/drop_7x7_s1
I0403 15:05:44.690119  2650 net.cpp:425] pool5/drop_7x7_s1 <- pool5/7x7_s1
I0403 15:05:44.690140  2650 net.cpp:386] pool5/drop_7x7_s1 -> pool5/7x7_s1 (in-place)
I0403 15:05:44.690189  2650 net.cpp:141] Setting up pool5/drop_7x7_s1
I0403 15:05:44.690218  2650 net.cpp:148] Top shape: 24 1024 1 1 (24576)
I0403 15:05:44.690234  2650 net.cpp:156] Memory required for data: 1346060832
I0403 15:05:44.690248  2650 layer_factory.hpp:77] Creating layer loss3/classifier_plantvillage
I0403 15:05:44.690270  2650 net.cpp:91] Creating Layer loss3/classifier_plantvillage
I0403 15:05:44.690287  2650 net.cpp:425] loss3/classifier_plantvillage <- pool5/7x7_s1
I0403 15:05:44.690309  2650 net.cpp:399] loss3/classifier_plantvillage -> loss3/classifier_plantvillage
I0403 15:05:44.690737  2650 net.cpp:141] Setting up loss3/classifier_plantvillage
I0403 15:05:44.690762  2650 net.cpp:148] Top shape: 24 38 (912)
I0403 15:05:44.690776  2650 net.cpp:156] Memory required for data: 1346064480
I0403 15:05:44.690794  2650 layer_factory.hpp:77] Creating layer loss3/classifier_plantvillage_loss3/classifier_plantvillage_0_split
I0403 15:05:44.690815  2650 net.cpp:91] Creating Layer loss3/classifier_plantvillage_loss3/classifier_plantvillage_0_split
I0403 15:05:44.690832  2650 net.cpp:425] loss3/classifier_plantvillage_loss3/classifier_plantvillage_0_split <- loss3/classifier_plantvillage
I0403 15:05:44.690850  2650 net.cpp:399] loss3/classifier_plantvillage_loss3/classifier_plantvillage_0_split -> loss3/classifier_plantvillage_loss3/classifier_plantvillage_0_split_0
I0403 15:05:44.690870  2650 net.cpp:399] loss3/classifier_plantvillage_loss3/classifier_plantvillage_0_split -> loss3/classifier_plantvillage_loss3/classifier_plantvillage_0_split_1
I0403 15:05:44.690889  2650 net.cpp:399] loss3/classifier_plantvillage_loss3/classifier_plantvillage_0_split -> loss3/classifier_plantvillage_loss3/classifier_plantvillage_0_split_2
I0403 15:05:44.690912  2650 net.cpp:399] loss3/classifier_plantvillage_loss3/classifier_plantvillage_0_split -> loss3/classifier_plantvillage_loss3/classifier_plantvillage_0_split_3
I0403 15:05:44.691015  2650 net.cpp:141] Setting up loss3/classifier_plantvillage_loss3/classifier_plantvillage_0_split
I0403 15:05:44.691038  2650 net.cpp:148] Top shape: 24 38 (912)
I0403 15:05:44.691054  2650 net.cpp:148] Top shape: 24 38 (912)
I0403 15:05:44.691069  2650 net.cpp:148] Top shape: 24 38 (912)
I0403 15:05:44.691085  2650 net.cpp:148] Top shape: 24 38 (912)
I0403 15:05:44.691099  2650 net.cpp:156] Memory required for data: 1346079072
I0403 15:05:44.691113  2650 layer_factory.hpp:77] Creating layer loss1/loss
I0403 15:05:44.691135  2650 net.cpp:91] Creating Layer loss1/loss
I0403 15:05:44.691153  2650 net.cpp:425] loss1/loss <- loss1/classifier_plantvillage_loss1/classifier_plantvillage_0_split_0
I0403 15:05:44.691184  2650 net.cpp:425] loss1/loss <- label_data_1_split_0
…
