…
I0403 15:39:35.847105  3332 net.cpp:313] The NetState phase (1) differed from the phase (0) specified by a rule in layer data
I0403 15:39:35.848268  3332 net.cpp:49] Initializing net from parameters: 
state {
  phase: TEST
}
layer {
  name: "data"
  type: "Data"
  top: "data"
  top: "label"
  include {
    phase: TEST
  }
  transform_param {
    mirror: false
    crop_size: 224
    mean_file: "/home/mohanty/data/final_dataset/lmdb/segmented-60-40/mean.binaryproto"
  }
  data_param {
    source: "/home/mohanty/data/final_dataset/lmdb/segmented-60-40/test_db"
    batch_size: 24
    backend: LMDB
  }
}
layer {
  name: "conv1/7x7_s2"
  type: "Convolution"
  bottom: "data"
  top: "conv1/7x7_s2"
  param {
    lr_mult: 1
    decay_mult: 1
  }
  param {
    lr_mult: 2
    decay_mult: 0
  }
  convolution_param {
    num_output: 64
    pad: 3
    kernel_size: 7
    stride: 2
    weight_filler {
      type: "xavier"
      std: 0.1
    }
    bias_filler {
      type: "constant"
      value: 0.2
    }
  }
}
layer {
  name: "conv1/relu_7x7"
  type: "ReLU"
  bottom: "conv1/7x7_s2"
  top: "conv1/7x7_s2"
}
layer {
  name: "pool1/3x3_s2"
  type: "Pooling"
  bottom: "conv1/7x7_s2"
  top: "pool1/3x3_s2"
  pooling_param {
    pool: MAX
    kernel_size: 3
    stride: 2
  }
}
layer {
  name: "pool1/norm1"
  type: "LRN"
  bottom: "pool1/3x3_s2"
  top: "pool1/norm1"
  lrn_param {
    local_size: 5
    alpha: 0.0001
    beta: 0.75
  }
}
layer {
  name: "conv2/3x3_reduce"
  type: "Convolution"
  bottom: "pool1/norm1"
  top: "conv2/3x3_reduce"
  param {
    lr_mult: 1
    decay_mult: 1
  }
  param {
    lr_mult: 2
    decay_mult: 0
  }
  convolution_param {
    num_output: 64
    kernel_size: 1
    weight_filler {
      type: "xavier"
      std: 0.1
    }
    bias_filler {
      type: "constant"
      value: 0.2
    }
  }
}
layer {
  name: "conv2/relu_3x3_reduce"
  type: "ReLU"
  bottom: "conv2/3x3_reduce"
  top: "conv2/3x3_reduce"
}
layer {
  name: "conv2/3x3"
  type: "Convolution"
  bottom: "conv2/3x3_reduce"
  top: "conv2/3x3"
  param {
    lr_mult: 1
    decay_mult: 1
  }
  param {
    lr_mult: 2
    decay_mult: 0
  }
  convolution_param {
    num_output: 192
    pad: 1
    kernel_size: 3
    weight_filler {
      type: "xavier"
      std: 0.03
    }
    bias_filler {
      type: "constant"
      value: 0.2
    }
  }
}
layer {
  name: "conv2/relu_3x3"
  type: "ReLU"
  bottom: "conv2/3x3"
  top: "conv2/3x3"
}
layer {
  name: "conv2/norm2"
  type: "LRN"
  bottom: "conv2/3x3"
  top: "conv2/norm2"
  lrn_param {
    local_size: 5
    alpha: 0.0001
    beta: 0.75
  }
}
layer {
  name: "pool2/3x3_s2"
  type: "Pooling"
  bottom: "conv2/norm2"
  top: "pool2/3x3_s2"
  pooling_param {
    pool: MAX
    kernel_size: 3
    stride: 2
  }
}
layer {
  name: "inception_3a/1x1"
  type: "Convolution"
  bottom: "pool2/3x3_s2"
  top: "inception_3a/1x1"
  param {
    lr_mult: 1
    decay_mult: 1
  }
  param {
    lr_mult: 2
    decay_mult: 0
  }
  convolution_param {
    num_output: 64
    kernel_size: 1
    weight_filler {
      type: "xavier"
      std: 0.03
    }
    bias_filler {
      type: "constant"
      value: 0.2
    }
  }
}
layer {
  name: "inception_3a/relu_1x1"
  type: "ReLU"
  bottom: "inception_3a/1x1"
  top: "inception_3a/1x1"
}
layer {
  name: "inception_3a/3x3_reduce"
  type: "Convolution"
  bottom: "pool2/3x3_s2"
  top: "inception_3a/3x3_reduce"
  param {
    lr_mult: 1
    decay_mult: 1
  }
  param {
    lr_mult: 2
    decay_mult: 0
  }
  convolution_param {
    num_output: 96
    kernel_size: 1
    weight_filler {
      type: "xavier"
      std: 0.09
    }
    bias_filler {
      type: "constant"
      value: 0.2
    }
  }
}
layer {
  name: "inception_3a/relu_3x3_reduce"
  type: "ReLU"
  bottom: "inception_3a/3x3_reduce"
  top: "inception_3a/3x3_reduce"
}
layer {
  name: "inception_3a/3x3"
  type: "Convolution"
  bottom: "inception_3a/3x3_reduce"
  top: "inception_3a/3x3"
  param {
    lr_mult: 1
    decay_mult: 1
  }
  param {
    lr_mult: 2
    decay_mult: 0
  }
  convolution_param {
    num_output: 128
    pad: 1
    kernel_size: 3
    weight_filler {
      type: "xavier"
      std: 0.03
    }
    bias_filler {
      type: "constant"
      value: 0.2
    }
  }
}
layer {
  name: "inception_3a/relu_3x3"
  type: "ReLU"
  bottom: "inception_3a/3x3"
  top: "inception_3a/3x3"
}
layer {
  name: "inception_3a/5x5_reduce"
  type: "Convolution"
  bottom: "pool2/3x3_s2"
  top: "inception_3a/5x5_reduce"
  param {
    lr_mult: 1
    decay_mult: 1
  }
  param {
    lr_mult: 2
    decay_mult: 0
  }
  convolution_param {
    num_output: 16
    kernel_size: 1
    weight_filler {
      type: "xavier"
      std: 0.2
    }
    bias_filler {
      type: "constant"
      value: 0.2
    }
  }
}
layer {
  name: "inception_3a/relu_5x5_reduce"
  type: "ReLU"
  bottom: "inception_3a/5x5_reduce"
  top: "inception_3a/5x5_reduce"
}
layer {
  name: "inception_3a/5x5"
  type: "Convolution"
  bottom: "inception_3a/5x5_reduce"
  top: "inception_3a/5x5"
  param {
    lr_mult: 1
    decay_mult: 1
  }
  param {
    lr_mult: 2
    decay_mult: 0
  }
  convolution_param {
    num_output: 32
    pad: 2
    kernel_size: 5
    weight_filler {
      type: "xavier"
      std: 0.03
    }
    bias_filler {
      type: "constant"
      value: 0.2
    }
  }
}
layer {
  name: "inception_3a/relu_5x5"
  type: "ReLU"
  bottom: "inception_3a/5x5"
  top: "inception_3a/5x5"
}
layer {
  name: "inception_3a/pool"
  type: "Pooling"
  bottom: "pool2/3x3_s2"
  top: "inception_3a/pool"
  pooling_param {
    pool: MAX
    kernel_size: 3
    stride: 1
    pad: 1
  }
}
layer {
  name: "inception_3a/pool_proj"
  type: "Convolution"
  bottom: "inception_3a/pool"
  top: "inception_3a/pool_proj"
  param {
    lr_mult: 1
    decay_mult: 1
  }
  param {
    lr_mult: 2
    decay_mult: 0
  }
  convolution_param {
    num_output: 32
    kernel_size: 1
    weight_filler {
      type: "xavier"
      std: 0.1
    }
    bias_filler {
      type: "constant"
      value: 0.2
    }
  }
}
layer {
  name: "inception_3a/relu_pool_proj"
  type: "ReLU"
  bottom: "inception_3a/pool_proj"
  top: "inception_3a/pool_proj"
}
layer {
  name: "inception_3a/output"
  type: "Concat"
  bottom: "inception_3a/1x1"
  bottom: "inception_3a/3x3"
  bottom: "inception_3a/5x5"
  bottom: "inception_3a/pool_proj"
  top: "inception_3a/output"
}
layer {
  name: "inception_3b/1x1"
  type: "Convolution"
  bottom: "inception_3a/output"
  top: "inception_3b/1x1"
  param {
    lr_mult: 1
    decay_mult: 1
  }
  param {
    lr_mult: 2
    decay_mult: 0
  }
  convolution_param {
    num_output: 128
    kernel_size: 1
    weight_filler {
      type: "xavier"
      std: 0.03
    }
    bias_filler {
      type: "constant"
      value: 0.2
    }
  }
}
layer {
  name: "inception_3b/relu_1x1"
  type: "ReLU"
  bottom: "inception_3b/1x1"
  top: "inception_3b/1x1"
}
layer {
  name: "inception_3b/3x3_reduce"
  type: "Convolution"
  bottom: "inception_3a/output"
  top: "inception_3b/3x3_reduce"
  param {
    lr_mult: 1
    decay_mult: 1
  }
  param {
    lr_mult: 2
    decay_mult: 0
  }
  convolution_param {
    num_output: 128
    kernel_size: 1
    weight_filler {
      type: "xavier"
      std: 0.09
    }
    bias_filler {
      type: "constant"
      value: 0.2
    }
  }
}
layer {
  name: "inception_3b/relu_3x3_reduce"
  type: "ReLU"
  bottom: "inception_3b/3x3_reduce"
  top: "inception_3b/3x3_reduce"
}
layer {
  name: "inception_3b/3x3"
  type: "Convolution"
  bottom: "inception_3b/3x3_reduce"
  top: "inception_3b/3x3"
  param {
    lr_mult: 1
    decay_mult: 1
  }
  param {
    lr_mult: 2
    decay_mult: 0
  }
  convolution_param {
    num_output: 192
    pad: 1
    kernel_size: 3
    weight_filler {
      type: "xavier"
      std: 0.03
    }
    bias_filler {
      type: "constant"
      value: 0.2
    }
  }
}
layer {
  name: "inception_3b/relu_3x3"
  type: "ReLU"
  bottom: "inception_3b/3x3"
  top: "inception_3b/3x3"
}
layer {
  name: "inception_3b/5x5_reduce"
  type: "Convolution"
  bottom: "inception_3a/output"
  top: "inception_3b/5x5_reduce"
  param {
    lr_mult: 1
    decay_mult: 1
  }
  param {
    lr_mult: 2
    decay_mult: 0
  }
  convolution_param {
    num_output: 32
    kernel_size: 1
    weight_filler {
      type: "xavier"
      std: 0.2
    }
    bias_filler {
      type: "constant"
      value: 0.2
    }
  }
}
layer {
  name: "inception_3b/relu_5x5_reduce"
  type: "ReLU"
  bottom: "inception_3b/5x5_reduce"
  top: "inception_3b/5x5_reduce"
}
layer {
  name: "inception_3b/5x5"
  type: "Convolution"
  bottom: "inception_3b/5x5_reduce"
  top: "inception_3b/5x5"
  param {
    lr_mult: 1
    decay_mult: 1
  }
  param {
    lr_mult: 2
    decay_mult: 0
  }
  convolution_param {
    num_output: 96
    pad: 2
    kernel_size: 5
    weight_filler {
      type: "xavier"
      std: 0.03
    }
    bias_filler {
      type: "constant"
      value: 0.2
    }
  }
}
layer {
  name: "inception_3b/relu_5x5"
  type: "ReLU"
  bottom: "inception_3b/5x5"
  top: "inception_3b/5x5"
}
layer {
  name: "inception_3b/pool"
  type: "Pooling"
  bottom: "inception_3a/output"
  top: "inception_3b/pool"
  pooling_param {
    pool: MAX
    kernel_size: 3
    stride: 1
    pad: 1
  }
}
layer {
  name: "inception_3b/pool_proj"
  type: "Convolution"
  bottom: "inception_3b/pool"
  top: "inception_3b/pool_proj"
  param {
    lr_mult: 1
    decay_mult: 1
  }
  param {
    lr_mult: 2
    decay_mult: 0
  }
  convolution_param {
    num_output: 64
    kernel_size: 1
    weight_filler {
      type: "xavier"
      std: 0.1
    }
    bias_filler {
      type: "constant"
      value: 0.2
    }
  }
}
layer {
  name: "inception_3b/relu_pool_proj"
  type: "ReLU"
  bottom: "inception_3b/pool_proj"
  top: "inception_3b/pool_proj"
}
layer {
  name: "inception_3b/output"
  type: "Concat"
  bottom: "inception_3b/1x1"
  bottom: "inception_3b/3x3"
  bottom: "inception_3b/5x5"
  bottom: "inception_3b/pool_proj"
  top: "inception_3b/output"
}
layer {
  name: "pool3/3x3_s2"
  type: "Pooling"
  bottom: "inception_3b/output"
  top: "pool3/3x3_s2"
  pooling_param {
    pool: MAX
    kernel_size: 3
    stride: 2
  }
}
layer {
  name: "inception_4a/1x1"
  type: "Convolution"
  bottom: "pool3/3x3_s2"
  top: "inception_4a/1x1"
  param {
    lr_mult: 1
    decay_mult: 1
  }
  param {
    lr_mult: 2
    decay_mult: 0
  }
  convolution_param {
    num_output: 192
    kernel_size: 1
    weight_filler {
      type: "xavier"
      std: 0.03
    }
    bias_filler {
      type: "constant"
      value: 0.2
    }
  }
}
layer {
  name: "inception_4a/relu_1x1"
  type: "ReLU"
  bottom: "inception_4a/1x1"
  top: "inception_4a/1x1"
}
layer {
  name: "inception_4a/3x3_reduce"
  type: "Convolution"
  bottom: "pool3/3x3_s2"
  top: "inception_4a/3x3_reduce"
  param {
    lr_mult: 1
    decay_mult: 1
  }
  param {
    lr_mult: 2
    decay_mult: 0
  }
  convolution_param {
    num_output: 96
    kernel_size: 1
    weight_filler {
      type: "xavier"
      std: 0.09
    }
    bias_filler {
      type: "constant"
      value: 0.2
    }
  }
}
layer {
  name: "inception_4a/relu_3x3_reduce"
  type: "ReLU"
  bottom: "inception_4a/3x3_reduce"
  top: "inception_4a/3x3_reduce"
}
layer {
  name: "inception_4a/3x3"
  type: "Convolution"
  bottom: "inception_4a/3x3_reduce"
  top: "inception_4a/3x3"
  param {
    lr_mult: 1
    decay_mult: 1
  }
  param {
    lr_mult: 2
    decay_mult: 0
  }
  convolution_param {
    num_output: 208
    pad: 1
    kernel_size: 3
    weight_filler {
      type: "xavier"
      std: 0.03
    }
    bias_filler {
      type: "constant"
      value: 0.2
    }
  }
}
layer {
  name: "inception_4a/relu_3x3"
  type: "ReLU"
  bottom: "inception_4a/3x3"
  top: "inception_4a/3x3"
}
layer {
  name: "inception_4a/5x5_reduce"
  type: "Convolution"
  bottom: "pool3/3x3_s2"
  top: "inception_4a/5x5_reduce"
  param {
    lr_mult: 1
    decay_mult: 1
  }
  param {
    lr_mult: 2
    decay_mult: 0
  }
  convolution_param {
    num_output: 16
    kernel_size: 1
    weight_filler {
      type: "xavier"
      std: 0.2
    }
    bias_filler {
      type: "constant"
      value: 0.2
    }
  }
}
layer {
  name: "inception_4a/relu_5x5_reduce"
  type: "ReLU"
  bottom: "inception_4a/5x5_reduce"
  top: "inception_4a/5x5_reduce"
}
layer {
  name: "inception_4a/5x5"
  type: "Convolution"
  bottom: "inception_4a/5x5_reduce"
  top: "inception_4a/5x5"
  param {
    lr_mult: 1
    decay_mult: 1
  }
  param {
    lr_mult: 2
    decay_mult: 0
  }
  convolution_param {
    num_output: 48
    pad: 2
    kernel_size: 5
    weight_filler {
      type: "xavier"
      std: 0.03
    }
    bias_filler {
      type: "constant"
      value: 0.2
    }
  }
}
layer {
  name: "inception_4a/relu_5x5"
  type: "ReLU"
  bottom: "inception_4a/5x5"
  top: "inception_4a/5x5"
}
layer {
  name: "inception_4a/pool"
  type: "Pooling"
  bottom: "pool3/3x3_s2"
  top: "inception_4a/pool"
  pooling_param {
    pool: MAX
    kernel_size: 3
    stride: 1
    pad: 1
  }
}
layer {
  name: "inception_4a/pool_proj"
  type: "Convolution"
  bottom: "inception_4a/pool"
  top: "inception_4a/pool_proj"
  param {
    lr_mult: 1
    decay_mult: 1
  }
  param {
    lr_mult: 2
    decay_mult: 0
  }
  convolution_param {
    num_output: 64
    kernel_size: 1
    weight_filler {
      type: "xavier"
      std: 0.1
    }
    bias_filler {
      type: "constant"
      value: 0.2
    }
  }
}
layer {
  name: "inception_4a/relu_pool_proj"
  type: "ReLU"
  bottom: "inception_4a/pool_proj"
  top: "inception_4a/pool_proj"
}
layer {
  name: "inception_4a/output"
  type: "Concat"
  bottom: "inception_4a/1x1"
  bottom: "inception_4a/3x3"
  bottom: "inception_4a/5x5"
  bottom: "inception_4a/pool_proj"
  top: "inception_4a/output"
}
layer {
  name: "loss1/ave_pool"
  type: "Pooling"
  bottom: "inception_4a/output"
  top: "loss1/ave_pool"
  pooling_param {
    pool: AVE
    kernel_size: 5
    stride: 3
  }
}
layer {
  name: "loss1/conv"
  type: "Convolution"
  bottom: "loss1/ave_pool"
  top: "loss1/conv"
  param {
    lr_mult: 1
    decay_mult: 1
  }
  param {
    lr_mult: 2
    decay_mult: 0
  }
  convolution_param {
    num_output: 128
    kernel_size: 1
    weight_filler {
      type: "xavier"
      std: 0.08
    }
    bias_filler {
      type: "constant"
      value: 0.2
    }
  }
}
layer {
  name: "loss1/relu_conv"
  type: "ReLU"
  bottom: "loss1/conv"
  top: "loss1/conv"
}
layer {
  name: "loss1/fc"
  type: "InnerProduct"
  bottom: "loss1/conv"
  top: "loss1/fc"
  param {
    lr_mult: 1
    decay_mult: 1
  }
  param {
    lr_mult: 2
    decay_mult: 0
  }
  inner_product_param {
    num_output: 1024
    weight_filler {
      type: "xavier"
      std: 0.02
    }
    bias_filler {
      type: "constant"
      value: 0.2
    }
  }
}
layer {
  name: "loss1/relu_fc"
  type: "ReLU"
  bottom: "loss1/fc"
  top: "loss1/fc"
}
layer {
  name: "loss1/drop_fc"
  type: "Dropout"
  bottom: "loss1/fc"
  top: "loss1/fc"
  dropout_param {
    dropout_ratio: 0.7
  }
}
layer {
  name: "loss1/classifier_plantvillage"
  type: "InnerProduct"
  bottom: "loss1/fc"
  top: "loss1/classifier_plantvillage"
  param {
    lr_mult: 1
    decay_mult: 1
  }
  param {
    lr_mult: 2
    decay_mult: 0
  }
  inner_product_param {
    num_output: 38
    weight_filler {
      type: "xavier"
      std: 0.0009765625
    }
    bias_filler {
      type: "constant"
      value: 0
    }
  }
}
layer {
  name: "inception_4b/1x1"
  type: "Convolution"
  bottom: "inception_4a/output"
  top: "inception_4b/1x1"
  param {
    lr_mult: 1
    decay_mult: 1
  }
  param {
    lr_mult: 2
    decay_mult: 0
  }
  convolution_param {
    num_output: 160
    kernel_size: 1
    weight_filler {
      type: "xavier"
      std: 0.03
    }
    bias_filler {
      type: "constant"
      value: 0.2
    }
  }
}
layer {
  name: "inception_4b/relu_1x1"
  type: "ReLU"
  bottom: "inception_4b/1x1"
  top: "inception_4b/1x1"
}
layer {
  name: "inception_4b/3x3_reduce"
  type: "Convolution"
  bottom: "inception_4a/output"
  top: "inception_4b/3x3_reduce"
  param {
    lr_mult: 1
    decay_mult: 1
  }
  param {
    lr_mult: 2
    decay_mult: 0
  }
  convolution_param {
    num_output: 112
    kernel_size: 1
    weight_filler {
      type: "xavier"
      std: 0.09
    }
    bias_filler {
      type: "constant"
      value: 0.2
    }
  }
}
layer {
  name: "inception_4b/relu_3x3_reduce"
  type: "ReLU"
  bottom: "inception_4b/3x3_reduce"
  top: "inception_4b/3x3_reduce"
}
layer {
  name: "inception_4b/3x3"
  type: "Convolution"
  bottom: "inception_4b/3x3_reduce"
  top: "inception_4b/3x3"
  param {
    lr_mult: 1
    decay_mult: 1
  }
  param {
    lr_mult: 2
    decay_mult: 0
  }
  convolution_param {
    num_output: 224
    pad: 1
    kernel_size: 3
    weight_filler {
      type: "xavier"
      std: 0.03
    }
    bias_filler {
      type: "constant"
      value: 0.2
    }
  }
}
layer {
  name: "inception_4b/relu_3x3"
  type: "ReLU"
  bottom: "inception_4b/3x3"
  top: "inception_4b/3x3"
}
layer {
  name: "inception_4b/5x5_reduce"
  type: "Convolution"
  bottom: "inception_4a/output"
  top: "inception_4b/5x5_reduce"
  param {
    lr_mult: 1
    decay_mult: 1
  }
  param {
    lr_mult: 2
    decay_mult: 0
  }
  convolution_param {
    num_output: 24
    kernel_size: 1
    weight_filler {
      type: "xavier"
      std: 0.2
    }
    bias_filler {
      type: "constant"
      value: 0.2
    }
  }
}
layer {
  name: "inception_4b/relu_5x5_reduce"
  type: "ReLU"
  bottom: "inception_4b/5x5_reduce"
  top: "inception_4b/5x5_reduce"
}
layer {
  name: "inception_4b/5x5"
  type: "Convolution"
  bottom: "inception_4b/5x5_reduce"
  top: "inception_4b/5x5"
  param {
    lr_mult: 1
    decay_mult: 1
  }
  param {
    lr_mult: 2
    decay_mult: 0
  }
  convolution_param {
    num_output: 64
    pad: 2
    kernel_size: 5
    weight_filler {
      type: "xavier"
      std: 0.03
    }
    bias_filler {
      type: "constant"
      value: 0.2
    }
  }
}
layer {
  name: "inception_4b/relu_5x5"
  type: "ReLU"
  bottom: "inception_4b/5x5"
  top: "inception_4b/5x5"
}
layer {
  name: "inception_4b/pool"
  type: "Pooling"
  bottom: "inception_4a/output"
  top: "inception_4b/pool"
  pooling_param {
    pool: MAX
    kernel_size: 3
    stride: 1
    pad: 1
  }
}
layer {
  name: "inception_4b/pool_proj"
  type: "Convolution"
  bottom: "inception_4b/pool"
  top: "inception_4b/pool_proj"
  param {
    lr_mult: 1
    decay_mult: 1
  }
  param {
    lr_mult: 2
    decay_mult: 0
  }
  convolution_param {
    num_output: 64
    kernel_size: 1
    weight_filler {
      type: "xavier"
      std: 0.1
    }
    bias_filler {
      type: "constant"
      value: 0.2
    }
  }
}
layer {
  name: "inception_4b/relu_pool_proj"
  type: "ReLU"
  bottom: "inception_4b/pool_proj"
  top: "inception_4b/pool_proj"
}
layer {
  name: "inception_4b/output"
  type: "Concat"
  bottom: "inception_4b/1x1"
  bottom: "inception_4b/3x3"
  bottom: "inception_4b/5x5"
  bottom: "inception_4b/pool_proj"
  top: "inception_4b/output"
}
layer {
  name: "inception_4c/1x1"
  type: "Convolution"
  bottom: "inception_4b/output"
  top: "inception_4c/1x1"
  param {
    lr_mult: 1
    decay_mult: 1
  }
  param {
    lr_mult: 2
    decay_mult: 0
  }
  convolution_param {
    num_output: 128
    kernel_size: 1
    weight_filler {
      type: "xavier"
      std: 0.03
    }
    bias_filler {
      type: "constant"
      value: 0.2
    }
  }
}
layer {
  name: "inception_4c/relu_1x1"
  type: "ReLU"
  bottom: "inception_4c/1x1"
  top: "inception_4c/1x1"
}
layer {
  name: "inception_4c/3x3_reduce"
  type: "Convolution"
  bottom: "inception_4b/output"
  top: "inception_4c/3x3_reduce"
  param {
    lr_mult: 1
    decay_mult: 1
  }
  param {
    lr_mult: 2
    decay_mult: 0
  }
  convolution_param {
    num_output: 128
    kernel_size: 1
    weight_filler {
      type: "xavier"
      std: 0.09
    }
    bias_filler {
      type: "constant"
      value: 0.2
    }
  }
}
layer {
  name: "inception_4c/relu_3x3_reduce"
  type: "ReLU"
  bottom: "inception_4c/3x3_reduce"
  top: "inception_4c/3x3_reduce"
}
layer {
  name: "inception_4c/3x3"
  type: "Convolution"
  bottom: "inception_4c/3x3_reduce"
  top: "inception_4c/3x3"
  param {
    lr_mult: 1
    decay_mult: 1
  }
  param {
    lr_mult: 2
    decay_mult: 0
  }
  convolution_param {
    num_output: 256
    pad: 1
    kernel_size: 3
    weight_filler {
      type: "xavier"
      std: 0.03
    }
    bias_filler {
      type: "constant"
      value: 0.2
    }
  }
}
layer {
  name: "inception_4c/relu_3x3"
  type: "ReLU"
  bottom: "inception_4c/3x3"
  top: "inception_4c/3x3"
}
layer {
  name: "inception_4c/5x5_reduce"
  type: "Convolution"
  bottom: "inception_4b/output"
  top: "inception_4c/5x5_reduce"
  param {
    lr_mult: 1
    decay_mult: 1
  }
  param {
    lr_mult: 2
    decay_mult: 0
  }
  convolution_param {
    num_output: 24
    kernel_size: 1
    weight_filler {
      type: "xavier"
      std: 0.2
    }
    bias_filler {
      type: "constant"
      value: 0.2
    }
  }
}
layer {
  name: "inception_4c/relu_5x5_reduce"
  type: "ReLU"
  bottom: "inception_4c/5x5_reduce"
  top: "inception_4c/5x5_reduce"
}
layer {
  name: "inception_4c/5x5"
  type: "Convolution"
  bottom: "inception_4c/5x5_reduce"
  top: "inception_4c/5x5"
  param {
    lr_mult: 1
    decay_mult: 1
  }
  param {
    lr_mult: 2
    decay_mult: 0
  }
  convolution_param {
    num_output: 64
    pad: 2
    kernel_size: 5
    weight_filler {
      type: "xavier"
      std: 0.03
    }
    bias_filler {
      type: "constant"
      value: 0.2
    }
  }
}
layer {
  name: "inception_4c/relu_5x5"
  type: "ReLU"
  bottom: "inception_4c/5x5"
  top: "inception_4c/5x5"
}
layer {
  name: "inception_4c/pool"
  type: "Pooling"
  bottom: "inception_4b/output"
  top: "inception_4c/pool"
  pooling_param {
    pool: MAX
    kernel_size: 3
    stride: 1
    pad: 1
  }
}
layer {
  name: "inception_4c/pool_proj"
  type: "Convolution"
  bottom: "inception_4c/pool"
  top: "inception_4c/pool_proj"
  param {
    lr_mult: 1
    decay_mult: 1
  }
  param {
    lr_mult: 2
    decay_mult: 0
  }
  convolution_param {
    num_output: 64
    kernel_size: 1
    weight_filler {
      type: "xavier"
      std: 0.1
    }
    bias_filler {
      type: "constant"
      value: 0.2
    }
  }
}
layer {
  name: "inception_4c/relu_pool_proj"
  type: "ReLU"
  bottom: "inception_4c/pool_proj"
  top: "inception_4c/pool_proj"
}
layer {
  name: "inception_4c/output"
  type: "Concat"
  bottom: "inception_4c/1x1"
  bottom: "inception_4c/3x3"
  bottom: "inception_4c/5x5"
  bottom: "inception_4c/pool_proj"
  top: "inception_4c/output"
}
layer {
  name: "inception_4d/1x1"
  type: "Convolution"
  bottom: "inception_4c/output"
  top: "inception_4d/1x1"
  param {
    lr_mult: 1
    decay_mult: 1
  }
  param {
    lr_mult: 2
    decay_mult: 0
  }
  convolution_param {
    num_output: 112
    kernel_size: 1
    weight_filler {
      type: "xavier"
      std: 0.03
    }
    bias_filler {
      type: "constant"
      value: 0.2
    }
  }
}
layer {
  name: "inception_4d/relu_1x1"
  type: "ReLU"
  bottom: "inception_4d/1x1"
  top: "inception_4d/1x1"
}
layer {
  name: "inception_4d/3x3_reduce"
  type: "Convolution"
  bottom: "inception_4c/output"
  top: "inception_4d/3x3_reduce"
  param {
    lr_mult: 1
    decay_mult: 1
  }
  param {
    lr_mult: 2
    decay_mult: 0
  }
  convolution_param {
    num_output: 144
    kernel_size: 1
    weight_filler {
      type: "xavier"
      std: 0.09
    }
    bias_filler {
      type: "constant"
      value: 0.2
    }
  }
}
layer {
  name: "inception_4d/relu_3x3_reduce"
  type: "ReLU"
  bottom: "inception_4d/3x3_reduce"
  top: "inception_4d/3x3_reduce"
}
layer {
  name: "inception_4d/3x3"
  type: "Convolution"
  bottom: "inception_4d/3x3_reduce"
  top: "inception_4d/3x3"
  param {
    lr_mult: 1
    decay_mult: 1
  }
  param {
    lr_mult: 2
    decay_mult: 0
  }
  convolution_param {
    num_output: 288
    pad: 1
    kernel_size: 3
    weight_filler {
      type: "xavier"
      std: 0.03
    }
    bias_filler {
      type: "constant"
      value: 0.2
    }
  }
}
layer {
  name: "inception_4d/relu_3x3"
  type: "ReLU"
  bottom: "inception_4d/3x3"
  top: "inception_4d/3x3"
}
layer {
  name: "inception_4d/5x5_reduce"
  type: "Convolution"
  bottom: "inception_4c/output"
  top: "inception_4d/5x5_reduce"
  param {
    lr_mult: 1
    decay_mult: 1
  }
  param {
    lr_mult: 2
    decay_mult: 0
  }
  convolution_param {
    num_output: 32
    kernel_size: 1
    weight_filler {
      type: "xavier"
      std: 0.2
    }
    bias_filler {
      type: "constant"
      value: 0.2
    }
  }
}
layer {
  name: "inception_4d/relu_5x5_reduce"
  type: "ReLU"
  bottom: "inception_4d/5x5_reduce"
  top: "inception_4d/5x5_reduce"
}
layer {
  name: "inception_4d/5x5"
  type: "Convolution"
  bottom: "inception_4d/5x5_reduce"
  top: "inception_4d/5x5"
  param {
    lr_mult: 1
    decay_mult: 1
  }
  param {
    lr_mult: 2
    decay_mult: 0
  }
  convolution_param {
    num_output: 64
    pad: 2
    kernel_size: 5
    weight_filler {
      type: "xavier"
      std: 0.03
    }
    bias_filler {
      type: "constant"
      value: 0.2
    }
  }
}
layer {
  name: "inception_4d/relu_5x5"
  type: "ReLU"
  bottom: "inception_4d/5x5"
  top: "inception_4d/5x5"
}
layer {
  name: "inception_4d/pool"
  type: "Pooling"
  bottom: "inception_4c/output"
  top: "inception_4d/pool"
  pooling_param {
    pool: MAX
    kernel_size: 3
    stride: 1
    pad: 1
  }
}
layer {
  name: "inception_4d/pool_proj"
  type: "Convolution"
  bottom: "inception_4d/pool"
  top: "inception_4d/pool_proj"
  param {
    lr_mult: 1
    decay_mult: 1
  }
  param {
    lr_mult: 2
    decay_mult: 0
  }
  convolution_param {
    num_output: 64
    kernel_size: 1
    weight_filler {
      type: "xavier"
      std: 0.1
    }
    bias_filler {
      type: "constant"
      value: 0.2
    }
  }
}
layer {
  name: "inception_4d/relu_pool_proj"
  type: "ReLU"
  bottom: "inception_4d/pool_proj"
  top: "inception_4d/pool_proj"
}
layer {
  name: "inception_4d/output"
  type: "Concat"
  bottom: "inception_4d/1x1"
  bottom: "inception_4d/3x3"
  bottom: "inception_4d/5x5"
  bottom: "inception_4d/pool_proj"
  top: "inception_4d/output"
}
layer {
  name: "loss2/ave_pool"
  type: "Pooling"
  bottom: "inception_4d/output"
  top: "loss2/ave_pool"
  pooling_param {
    pool: AVE
    kernel_size: 5
    stride: 3
  }
}
layer {
  name: "loss2/conv"
  type: "Convolution"
  bottom: "loss2/ave_pool"
  top: "loss2/conv"
  param {
    lr_mult: 1
    decay_mult: 1
  }
  param {
    lr_mult: 2
    decay_mult: 0
  }
  convolution_param {
    num_output: 128
    kernel_size: 1
    weight_filler {
      type: "xavier"
      std: 0.08
    }
    bias_filler {
      type: "constant"
      value: 0.2
    }
  }
}
layer {
  name: "loss2/relu_conv"
  type: "ReLU"
  bottom: "loss2/conv"
  top: "loss2/conv"
}
layer {
  name: "loss2/fc"
  type: "InnerProduct"
  bottom: "loss2/conv"
  top: "loss2/fc"
  param {
    lr_mult: 1
    decay_mult: 1
  }
  param {
    lr_mult: 2
    decay_mult: 0
  }
  inner_product_param {
    num_output: 1024
    weight_filler {
      type: "xavier"
      std: 0.02
    }
    bias_filler {
      type: "constant"
      value: 0.2
    }
  }
}
layer {
  name: "loss2/relu_fc"
  type: "ReLU"
  bottom: "loss2/fc"
  top: "loss2/fc"
}
layer {
  name: "loss2/drop_fc"
  type: "Dropout"
  bottom: "loss2/fc"
  top: "loss2/fc"
  dropout_param {
    dropout_ratio: 0.7
  }
}
layer {
  name: "loss2/classifier_plantvillage"
  type: "InnerProduct"
  bottom: "loss2/fc"
  top: "loss2/classifier_plantvillage"
  param {
    lr_mult: 1
    decay_mult: 1
  }
  param {
    lr_mult: 2
    decay_mult: 0
  }
  inner_product_param {
    num_output: 38
    weight_filler {
      type: "xavier"
      std: 0.0009765625
    }
    bias_filler {
      type: "constant"
      value: 0
    }
  }
}
layer {
  name: "inception_4e/1x1"
  type: "Convolution"
  bottom: "inception_4d/output"
  top: "inception_4e/1x1"
  param {
    lr_mult: 1
    decay_mult: 1
  }
  param {
    lr_mult: 2
    decay_mult: 0
  }
  convolution_param {
    num_output: 256
    kernel_size: 1
    weight_filler {
      type: "xavier"
      std: 0.03
    }
    bias_filler {
      type: "constant"
      value: 0.2
    }
  }
}
layer {
  name: "inception_4e/relu_1x1"
  type: "ReLU"
  bottom: "inception_4e/1x1"
  top: "inception_4e/1x1"
}
layer {
  name: "inception_4e/3x3_reduce"
  type: "Convolution"
  bottom: "inception_4d/output"
  top: "inception_4e/3x3_reduce"
  param {
    lr_mult: 1
    decay_mult: 1
  }
  param {
    lr_mult: 2
    decay_mult: 0
  }
  convolution_param {
    num_output: 160
    kernel_size: 1
    weight_filler {
      type: "xavier"
      std: 0.09
    }
    bias_filler {
      type: "constant"
      value: 0.2
    }
  }
}
layer {
  name: "inception_4e/relu_3x3_reduce"
  type: "ReLU"
  bottom: "inception_4e/3x3_reduce"
  top: "inception_4e/3x3_reduce"
}
layer {
  name: "inception_4e/3x3"
  type: "Convolution"
  bottom: "inception_4e/3x3_reduce"
  top: "inception_4e/3x3"
  param {
    lr_mult: 1
    decay_mult: 1
  }
  param {
    lr_mult: 2
    decay_mult: 0
  }
  convolution_param {
    num_output: 320
    pad: 1
    kernel_size: 3
    weight_filler {
      type: "xavier"
      std: 0.03
    }
    bias_filler {
      type: "constant"
      value: 0.2
    }
  }
}
layer {
  name: "inception_4e/relu_3x3"
  type: "ReLU"
  bottom: "inception_4e/3x3"
  top: "inception_4e/3x3"
}
layer {
  name: "inception_4e/5x5_reduce"
  type: "Convolution"
  bottom: "inception_4d/output"
  top: "inception_4e/5x5_reduce"
  param {
    lr_mult: 1
    decay_mult: 1
  }
  param {
    lr_mult: 2
    decay_mult: 0
  }
  convolution_param {
    num_output: 32
    kernel_size: 1
    weight_filler {
      type: "xavier"
      std: 0.2
    }
    bias_filler {
      type: "constant"
      value: 0.2
    }
  }
}
layer {
  name: "inception_4e/relu_5x5_reduce"
  type: "ReLU"
  bottom: "inception_4e/5x5_reduce"
  top: "inception_4e/5x5_reduce"
}
layer {
  name: "inception_4e/5x5"
  type: "Convolution"
  bottom: "inception_4e/5x5_reduce"
  top: "inception_4e/
I0403 15:39:35.849467  3332 layer_factory.hpp:77] Creating layer data
I0403 15:39:35.850047  3332 net.cpp:91] Creating Layer data
I0403 15:39:35.850080  3332 net.cpp:399] data -> data
I0403 15:39:35.850129  3332 net.cpp:399] data -> label
I0403 15:39:35.850164  3332 data_transformer.cpp:25] Loading mean file from: /home/mohanty/data/final_dataset/lmdb/segmented-60-40/mean.binaryproto
I0403 15:39:35.852604  3344 db_lmdb.cpp:38] Opened lmdb /home/mohanty/data/final_dataset/lmdb/segmented-60-40/test_db
I0403 15:39:35.862779  3332 data_layer.cpp:41] output data size: 24,3,224,224
I0403 15:39:35.890363  3332 net.cpp:141] Setting up data
I0403 15:39:35.890466  3332 net.cpp:148] Top shape: 24 3 224 224 (3612672)
I0403 15:39:35.890489  3332 net.cpp:148] Top shape: 24 (24)
I0403 15:39:35.890504  3332 net.cpp:156] Memory required for data: 14450784
I0403 15:39:35.890532  3332 layer_factory.hpp:77] Creating layer label_data_1_split
I0403 15:39:35.890558  3332 net.cpp:91] Creating Layer label_data_1_split
I0403 15:39:35.890576  3332 net.cpp:425] label_data_1_split <- label
I0403 15:39:35.890609  3332 net.cpp:399] label_data_1_split -> label_data_1_split_0
I0403 15:39:35.890635  3332 net.cpp:399] label_data_1_split -> label_data_1_split_1
I0403 15:39:35.890655  3332 net.cpp:399] label_data_1_split -> label_data_1_split_2
I0403 15:39:35.890676  3332 net.cpp:399] label_data_1_split -> label_data_1_split_3
I0403 15:39:35.890694  3332 net.cpp:399] label_data_1_split -> label_data_1_split_4
I0403 15:39:35.890714  3332 net.cpp:399] label_data_1_split -> label_data_1_split_5
I0403 15:39:35.890733  3332 net.cpp:399] label_data_1_split -> label_data_1_split_6
I0403 15:39:35.890753  3332 net.cpp:399] label_data_1_split -> label_data_1_split_7
I0403 15:39:35.890772  3332 net.cpp:399] label_data_1_split -> label_data_1_split_8
I0403 15:39:35.890792  3332 net.cpp:399] label_data_1_split -> label_data_1_split_9
I0403 15:39:35.890911  3332 net.cpp:141] Setting up label_data_1_split
I0403 15:39:35.890934  3332 net.cpp:148] Top shape: 24 (24)
I0403 15:39:35.890952  3332 net.cpp:148] Top shape: 24 (24)
I0403 15:39:35.890969  3332 net.cpp:148] Top shape: 24 (24)
I0403 15:39:35.890985  3332 net.cpp:148] Top shape: 24 (24)
I0403 15:39:35.891000  3332 net.cpp:148] Top shape: 24 (24)
I0403 15:39:35.891016  3332 net.cpp:148] Top shape: 24 (24)
I0403 15:39:35.891031  3332 net.cpp:148] Top shape: 24 (24)
I0403 15:39:35.891047  3332 net.cpp:148] Top shape: 24 (24)
I0403 15:39:35.891062  3332 net.cpp:148] Top shape: 24 (24)
I0403 15:39:35.891078  3332 net.cpp:148] Top shape: 24 (24)
I0403 15:39:35.891124  3332 net.cpp:156] Memory required for data: 14451744
I0403 15:39:35.891140  3332 layer_factory.hpp:77] Creating layer conv1/7x7_s2
I0403 15:39:35.891173  3332 net.cpp:91] Creating Layer conv1/7x7_s2
I0403 15:39:35.891196  3332 net.cpp:425] conv1/7x7_s2 <- data
I0403 15:39:35.891216  3332 net.cpp:399] conv1/7x7_s2 -> conv1/7x7_s2
I0403 15:39:36.029263  3332 net.cpp:141] Setting up conv1/7x7_s2
I0403 15:39:36.029351  3332 net.cpp:148] Top shape: 24 64 112 112 (19267584)
I0403 15:39:36.029368  3332 net.cpp:156] Memory required for data: 91522080
I0403 15:39:36.029398  3332 layer_factory.hpp:77] Creating layer conv1/relu_7x7
I0403 15:39:36.029424  3332 net.cpp:91] Creating Layer conv1/relu_7x7
I0403 15:39:36.029443  3332 net.cpp:425] conv1/relu_7x7 <- conv1/7x7_s2
I0403 15:39:36.029464  3332 net.cpp:386] conv1/relu_7x7 -> conv1/7x7_s2 (in-place)
I0403 15:39:36.029731  3332 net.cpp:141] Setting up conv1/relu_7x7
I0403 15:39:36.029759  3332 net.cpp:148] Top shape: 24 64 112 112 (19267584)
I0403 15:39:36.029775  3332 net.cpp:156] Memory required for data: 168592416
I0403 15:39:36.029790  3332 layer_factory.hpp:77] Creating layer pool1/3x3_s2
I0403 15:39:36.029814  3332 net.cpp:91] Creating Layer pool1/3x3_s2
I0403 15:39:36.029830  3332 net.cpp:425] pool1/3x3_s2 <- conv1/7x7_s2
I0403 15:39:36.029850  3332 net.cpp:399] pool1/3x3_s2 -> pool1/3x3_s2
I0403 15:39:36.029923  3332 net.cpp:141] Setting up pool1/3x3_s2
I0403 15:39:36.029947  3332 net.cpp:148] Top shape: 24 64 56 56 (4816896)
I0403 15:39:36.029961  3332 net.cpp:156] Memory required for data: 187860000
I0403 15:39:36.029976  3332 layer_factory.hpp:77] Creating layer pool1/norm1
I0403 15:39:36.030002  3332 net.cpp:91] Creating Layer pool1/norm1
I0403 15:39:36.030019  3332 net.cpp:425] pool1/norm1 <- pool1/3x3_s2
I0403 15:39:36.030040  3332 net.cpp:399] pool1/norm1 -> pool1/norm1
I0403 15:39:36.030333  3332 net.cpp:141] Setting up pool1/norm1
I0403 15:39:36.030360  3332 net.cpp:148] Top shape: 24 64 56 56 (4816896)
I0403 15:39:36.030376  3332 net.cpp:156] Memory required for data: 207127584
I0403 15:39:36.030391  3332 layer_factory.hpp:77] Creating layer conv2/3x3_reduce
I0403 15:39:36.030417  3332 net.cpp:91] Creating Layer conv2/3x3_reduce
I0403 15:39:36.030436  3332 net.cpp:425] conv2/3x3_reduce <- pool1/norm1
I0403 15:39:36.030453  3332 net.cpp:399] conv2/3x3_reduce -> conv2/3x3_reduce
I0403 15:39:36.031790  3332 net.cpp:141] Setting up conv2/3x3_reduce
I0403 15:39:36.031818  3332 net.cpp:148] Top shape: 24 64 56 56 (4816896)
I0403 15:39:36.031833  3332 net.cpp:156] Memory required for data: 226395168
I0403 15:39:36.031857  3332 layer_factory.hpp:77] Creating layer conv2/relu_3x3_reduce
I0403 15:39:36.031875  3332 net.cpp:91] Creating Layer conv2/relu_3x3_reduce
I0403 15:39:36.031891  3332 net.cpp:425] conv2/relu_3x3_reduce <- conv2/3x3_reduce
I0403 15:39:36.031908  3332 net.cpp:386] conv2/relu_3x3_reduce -> conv2/3x3_reduce (in-place)
I0403 15:39:36.032166  3332 net.cpp:141] Setting up conv2/relu_3x3_reduce
I0403 15:39:36.032196  3332 net.cpp:148] Top shape: 24 64 56 56 (4816896)
I0403 15:39:36.032212  3332 net.cpp:156] Memory required for data: 245662752
I0403 15:39:36.032225  3332 layer_factory.hpp:77] Creating layer conv2/3x3
I0403 15:39:36.032249  3332 net.cpp:91] Creating Layer conv2/3x3
I0403 15:39:36.032266  3332 net.cpp:425] conv2/3x3 <- conv2/3x3_reduce
I0403 15:39:36.032286  3332 net.cpp:399] conv2/3x3 -> conv2/3x3
I0403 15:39:36.034505  3332 net.cpp:141] Setting up conv2/3x3
I0403 15:39:36.034534  3332 net.cpp:148] Top shape: 24 192 56 56 (14450688)
I0403 15:39:36.034564  3332 net.cpp:156] Memory required for data: 303465504
I0403 15:39:36.034586  3332 layer_factory.hpp:77] Creating layer conv2/relu_3x3
I0403 15:39:36.034607  3332 net.cpp:91] Creating Layer conv2/relu_3x3
I0403 15:39:36.034622  3332 net.cpp:425] conv2/relu_3x3 <- conv2/3x3
I0403 15:39:36.034639  3332 net.cpp:386] conv2/relu_3x3 -> conv2/3x3 (in-place)
I0403 15:39:36.034814  3332 net.cpp:141] Setting up conv2/relu_3x3
I0403 15:39:36.034842  3332 net.cpp:148] Top shape: 24 192 56 56 (14450688)
I0403 15:39:36.034885  3332 net.cpp:156] Memory required for data: 361268256
I0403 15:39:36.034901  3332 layer_factory.hpp:77] Creating layer conv2/norm2
I0403 15:39:36.034920  3332 net.cpp:91] Creating Layer conv2/norm2
I0403 15:39:36.034936  3332 net.cpp:425] conv2/norm2 <- conv2/3x3
I0403 15:39:36.034957  3332 net.cpp:399] conv2/norm2 -> conv2/norm2
I0403 15:39:36.035267  3332 net.cpp:141] Setting up conv2/norm2
I0403 15:39:36.035295  3332 net.cpp:148] Top shape: 24 192 56 56 (14450688)
I0403 15:39:36.035310  3332 net.cpp:156] Memory required for data: 419071008
I0403 15:39:36.035326  3332 layer_factory.hpp:77] Creating layer pool2/3x3_s2
I0403 15:39:36.035343  3332 net.cpp:91] Creating Layer pool2/3x3_s2
I0403 15:39:36.035362  3332 net.cpp:425] pool2/3x3_s2 <- conv2/norm2
I0403 15:39:36.035379  3332 net.cpp:399] pool2/3x3_s2 -> pool2/3x3_s2
I0403 15:39:36.035432  3332 net.cpp:141] Setting up pool2/3x3_s2
I0403 15:39:36.035454  3332 net.cpp:148] Top shape: 24 192 28 28 (3612672)
I0403 15:39:36.035470  3332 net.cpp:156] Memory required for data: 433521696
I0403 15:39:36.035483  3332 layer_factory.hpp:77] Creating layer pool2/3x3_s2_pool2/3x3_s2_0_split
I0403 15:39:36.035501  3332 net.cpp:91] Creating Layer pool2/3x3_s2_pool2/3x3_s2_0_split
I0403 15:39:36.035516  3332 net.cpp:425] pool2/3x3_s2_pool2/3x3_s2_0_split <- pool2/3x3_s2
I0403 15:39:36.035536  3332 net.cpp:399] pool2/3x3_s2_pool2/3x3_s2_0_split -> pool2/3x3_s2_pool2/3x3_s2_0_split_0
I0403 15:39:36.035557  3332 net.cpp:399] pool2/3x3_s2_pool2/3x3_s2_0_split -> pool2/3x3_s2_pool2/3x3_s2_0_split_1
I0403 15:39:36.035575  3332 net.cpp:399] pool2/3x3_s2_pool2/3x3_s2_0_split -> pool2/3x3_s2_pool2/3x3_s2_0_split_2
I0403 15:39:36.035595  3332 net.cpp:399] pool2/3x3_s2_pool2/3x3_s2_0_split -> pool2/3x3_s2_pool2/3x3_s2_0_split_3
I0403 15:39:36.035665  3332 net.cpp:141] Setting up pool2/3x3_s2_pool2/3x3_s2_0_split
I0403 15:39:36.035688  3332 net.cpp:148] Top shape: 24 192 28 28 (3612672)
I0403 15:39:36.035704  3332 net.cpp:148] Top shape: 24 192 28 28 (3612672)
I0403 15:39:36.035719  3332 net.cpp:148] Top shape: 24 192 28 28 (3612672)
I0403 15:39:36.035734  3332 net.cpp:148] Top shape: 24 192 28 28 (3612672)
I0403 15:39:36.035748  3332 net.cpp:156] Memory required for data: 491324448
I0403 15:39:36.035763  3332 layer_factory.hpp:77] Creating layer inception_3a/1x1
I0403 15:39:36.035785  3332 net.cpp:91] Creating Layer inception_3a/1x1
I0403 15:39:36.035802  3332 net.cpp:425] inception_3a/1x1 <- pool2/3x3_s2_pool2/3x3_s2_0_split_0
I0403 15:39:36.035820  3332 net.cpp:399] inception_3a/1x1 -> inception_3a/1x1
I0403 15:39:36.037349  3332 net.cpp:141] Setting up inception_3a/1x1
I0403 15:39:36.037379  3332 net.cpp:148] Top shape: 24 64 28 28 (1204224)
I0403 15:39:36.037395  3332 net.cpp:156] Memory required for data: 496141344
I0403 15:39:36.037413  3332 layer_factory.hpp:77] Creating layer inception_3a/relu_1x1
I0403 15:39:36.037434  3332 net.cpp:91] Creating Layer inception_3a/relu_1x1
I0403 15:39:36.037451  3332 net.cpp:425] inception_3a/relu_1x1 <- inception_3a/1x1
I0403 15:39:36.037480  3332 net.cpp:386] inception_3a/relu_1x1 -> inception_3a/1x1 (in-place)
I0403 15:39:36.037659  3332 net.cpp:141] Setting up inception_3a/relu_1x1
I0403 15:39:36.037688  3332 net.cpp:148] Top shape: 24 64 28 28 (1204224)
I0403 15:39:36.037703  3332 net.cpp:156] Memory required for data: 500958240
I0403 15:39:36.037717  3332 layer_factory.hpp:77] Creating layer inception_3a/3x3_reduce
I0403 15:39:36.037741  3332 net.cpp:91] Creating Layer inception_3a/3x3_reduce
I0403 15:39:36.037771  3332 net.cpp:425] inception_3a/3x3_reduce <- pool2/3x3_s2_pool2/3x3_s2_0_split_1
I0403 15:39:36.037789  3332 net.cpp:399] inception_3a/3x3_reduce -> inception_3a/3x3_reduce
I0403 15:39:36.039459  3332 net.cpp:141] Setting up inception_3a/3x3_reduce
I0403 15:39:36.039487  3332 net.cpp:148] Top shape: 24 96 28 28 (1806336)
I0403 15:39:36.039504  3332 net.cpp:156] Memory required for data: 508183584
I0403 15:39:36.039528  3332 layer_factory.hpp:77] Creating layer inception_3a/relu_3x3_reduce
I0403 15:39:36.039563  3332 net.cpp:91] Creating Layer inception_3a/relu_3x3_reduce
I0403 15:39:36.039580  3332 net.cpp:425] inception_3a/relu_3x3_reduce <- inception_3a/3x3_reduce
I0403 15:39:36.039597  3332 net.cpp:386] inception_3a/relu_3x3_reduce -> inception_3a/3x3_reduce (in-place)
I0403 15:39:36.039780  3332 net.cpp:141] Setting up inception_3a/relu_3x3_reduce
I0403 15:39:36.039804  3332 net.cpp:148] Top shape: 24 96 28 28 (1806336)
I0403 15:39:36.039819  3332 net.cpp:156] Memory required for data: 515408928
I0403 15:39:36.039834  3332 layer_factory.hpp:77] Creating layer inception_3a/3x3
I0403 15:39:36.039856  3332 net.cpp:91] Creating Layer inception_3a/3x3
I0403 15:39:36.039873  3332 net.cpp:425] inception_3a/3x3 <- inception_3a/3x3_reduce
I0403 15:39:36.039894  3332 net.cpp:399] inception_3a/3x3 -> inception_3a/3x3
I0403 15:39:36.041529  3332 net.cpp:141] Setting up inception_3a/3x3
I0403 15:39:36.041558  3332 net.cpp:148] Top shape: 24 128 28 28 (2408448)
I0403 15:39:36.041573  3332 net.cpp:156] Memory required for data: 525042720
I0403 15:39:36.041591  3332 layer_factory.hpp:77] Creating layer inception_3a/relu_3x3
I0403 15:39:36.041612  3332 net.cpp:91] Creating Layer inception_3a/relu_3x3
I0403 15:39:36.041630  3332 net.cpp:425] inception_3a/relu_3x3 <- inception_3a/3x3
I0403 15:39:36.041646  3332 net.cpp:386] inception_3a/relu_3x3 -> inception_3a/3x3 (in-place)
I0403 15:39:36.041918  3332 net.cpp:141] Setting up inception_3a/relu_3x3
I0403 15:39:36.041944  3332 net.cpp:148] Top shape: 24 128 28 28 (2408448)
I0403 15:39:36.041959  3332 net.cpp:156] Memory required for data: 534676512
I0403 15:39:36.041972  3332 layer_factory.hpp:77] Creating layer inception_3a/5x5_reduce
I0403 15:39:36.041996  3332 net.cpp:91] Creating Layer inception_3a/5x5_reduce
I0403 15:39:36.042013  3332 net.cpp:425] inception_3a/5x5_reduce <- pool2/3x3_s2_pool2/3x3_s2_0_split_2
I0403 15:39:36.042032  3332 net.cpp:399] inception_3a/5x5_reduce -> inception_3a/5x5_reduce
I0403 15:39:36.042978  3332 net.cpp:141] Setting up inception_3a/5x5_reduce
I0403 15:39:36.043007  3332 net.cpp:148] Top shape: 24 16 28 28 (301056)
I0403 15:39:36.043022  3332 net.cpp:156] Memory required for data: 535880736
I0403 15:39:36.043042  3332 layer_factory.hpp:77] Creating layer inception_3a/relu_5x5_reduce
I0403 15:39:36.043061  3332 net.cpp:91] Creating Layer inception_3a/relu_5x5_reduce
I0403 15:39:36.043077  3332 net.cpp:425] inception_3a/relu_5x5_reduce <- inception_3a/5x5_reduce
I0403 15:39:36.043095  3332 net.cpp:386] inception_3a/relu_5x5_reduce -> inception_3a/5x5_reduce (in-place)
I0403 15:39:36.043408  3332 net.cpp:141] Setting up inception_3a/relu_5x5_reduce
I0403 15:39:36.043437  3332 net.cpp:148] Top shape: 24 16 28 28 (301056)
I0403 15:39:36.043453  3332 net.cpp:156] Memory required for data: 537084960
I0403 15:39:36.043468  3332 layer_factory.hpp:77] Creating layer inception_3a/5x5
I0403 15:39:36.043490  3332 net.cpp:91] Creating Layer inception_3a/5x5
I0403 15:39:36.043508  3332 net.cpp:425] inception_3a/5x5 <- inception_3a/5x5_reduce
I0403 15:39:36.043526  3332 net.cpp:399] inception_3a/5x5 -> inception_3a/5x5
I0403 15:39:36.044529  3332 net.cpp:141] Setting up inception_3a/5x5
I0403 15:39:36.044556  3332 net.cpp:148] Top shape: 24 32 28 28 (602112)
I0403 15:39:36.044572  3332 net.cpp:156] Memory required for data: 539493408
I0403 15:39:36.044590  3332 layer_factory.hpp:77] Creating layer inception_3a/relu_5x5
I0403 15:39:36.044612  3332 net.cpp:91] Creating Layer inception_3a/relu_5x5
I0403 15:39:36.044630  3332 net.cpp:425] inception_3a/relu_5x5 <- inception_3a/5x5
I0403 15:39:36.044646  3332 net.cpp:386] inception_3a/relu_5x5 -> inception_3a/5x5 (in-place)
I0403 15:39:36.044814  3332 net.cpp:141] Setting up inception_3a/relu_5x5
I0403 15:39:36.044841  3332 net.cpp:148] Top shape: 24 32 28 28 (602112)
I0403 15:39:36.044857  3332 net.cpp:156] Memory required for data: 541901856
I0403 15:39:36.044872  3332 layer_factory.hpp:77] Creating layer inception_3a/pool
I0403 15:39:36.044889  3332 net.cpp:91] Creating Layer inception_3a/pool
I0403 15:39:36.044919  3332 net.cpp:425] inception_3a/pool <- pool2/3x3_s2_pool2/3x3_s2_0_split_3
I0403 15:39:36.044937  3332 net.cpp:399] inception_3a/pool -> inception_3a/pool
I0403 15:39:36.044996  3332 net.cpp:141] Setting up inception_3a/pool
I0403 15:39:36.045018  3332 net.cpp:148] Top shape: 24 192 28 28 (3612672)
I0403 15:39:36.045032  3332 net.cpp:156] Memory required for data: 556352544
I0403 15:39:36.045047  3332 layer_factory.hpp:77] Creating layer inception_3a/pool_proj
I0403 15:39:36.045068  3332 net.cpp:91] Creating Layer inception_3a/pool_proj
I0403 15:39:36.045085  3332 net.cpp:425] inception_3a/pool_proj <- inception_3a/pool
I0403 15:39:36.045107  3332 net.cpp:399] inception_3a/pool_proj -> inception_3a/pool_proj
I0403 15:39:36.046058  3332 net.cpp:141] Setting up inception_3a/pool_proj
I0403 15:39:36.046087  3332 net.cpp:148] Top shape: 24 32 28 28 (602112)
I0403 15:39:36.046102  3332 net.cpp:156] Memory required for data: 558760992
I0403 15:39:36.046125  3332 layer_factory.hpp:77] Creating layer inception_3a/relu_pool_proj
I0403 15:39:36.046145  3332 net.cpp:91] Creating Layer inception_3a/relu_pool_proj
I0403 15:39:36.046161  3332 net.cpp:425] inception_3a/relu_pool_proj <- inception_3a/pool_proj
I0403 15:39:36.046185  3332 net.cpp:386] inception_3a/relu_pool_proj -> inception_3a/pool_proj (in-place)
I0403 15:39:36.046459  3332 net.cpp:141] Setting up inception_3a/relu_pool_proj
I0403 15:39:36.046485  3332 net.cpp:148] Top shape: 24 32 28 28 (602112)
I0403 15:39:36.046500  3332 net.cpp:156] Memory required for data: 561169440
I0403 15:39:36.046517  3332 layer_factory.hpp:77] Creating layer inception_3a/output
I0403 15:39:36.046537  3332 net.cpp:91] Creating Layer inception_3a/output
I0403 15:39:36.046555  3332 net.cpp:425] inception_3a/output <- inception_3a/1x1
I0403 15:39:36.046571  3332 net.cpp:425] inception_3a/output <- inception_3a/3x3
I0403 15:39:36.046586  3332 net.cpp:425] inception_3a/output <- inception_3a/5x5
I0403 15:39:36.046602  3332 net.cpp:425] inception_3a/output <- inception_3a/pool_proj
I0403 15:39:36.046617  3332 net.cpp:399] inception_3a/output -> inception_3a/output
I0403 15:39:36.046663  3332 net.cpp:141] Setting up inception_3a/output
I0403 15:39:36.046686  3332 net.cpp:148] Top shape: 24 256 28 28 (4816896)
I0403 15:39:36.046701  3332 net.cpp:156] Memory required for data: 580437024
I0403 15:39:36.046716  3332 layer_factory.hpp:77] Creating layer inception_3a/output_inception_3a/output_0_split
I0403 15:39:36.046733  3332 net.cpp:91] Creating Layer inception_3a/output_inception_3a/output_0_split
I0403 15:39:36.046748  3332 net.cpp:425] inception_3a/output_inception_3a/output_0_split <- inception_3a/output
I0403 15:39:36.046767  3332 net.cpp:399] inception_3a/output_inception_3a/output_0_split -> inception_3a/output_inception_3a/output_0_split_0
I0403 15:39:36.046787  3332 net.cpp:399] inception_3a/output_inception_3a/output_0_split -> inception_3a/output_inception_3a/output_0_split_1
I0403 15:39:36.046811  3332 net.cpp:399] inception_3a/output_inception_3a/output_0_split -> inception_3a/output_inception_3a/output_0_split_2
I0403 15:39:36.046833  3332 net.cpp:399] inception_3a/output_inception_3a/output_0_split -> inception_3a/output_inception_3a/output_0_split_3
I0403 15:39:36.046905  3332 net.cpp:141] Setting up inception_3a/output_inception_3a/output_0_split
I0403 15:39:36.046927  3332 net.cpp:148] Top shape: 24 256 28 28 (4816896)
I0403 15:39:36.046943  3332 net.cpp:148] Top shape: 24 256 28 28 (4816896)
I0403 15:39:36.046960  3332 net.cpp:148] Top shape: 24 256 28 28 (4816896)
I0403 15:39:36.046975  3332 net.cpp:148] Top shape: 24 256 28 28 (4816896)
I0403 15:39:36.046989  3332 net.cpp:156] Memory required for data: 657507360
I0403 15:39:36.047003  3332 layer_factory.hpp:77] Creating layer inception_3b/1x1
I0403 15:39:36.047025  3332 net.cpp:91] Creating Layer inception_3b/1x1
I0403 15:39:36.047044  3332 net.cpp:425] inception_3b/1x1 <- inception_3a/output_inception_3a/output_0_split_0
I0403 15:39:36.047063  3332 net.cpp:399] inception_3b/1x1 -> inception_3b/1x1
I0403 15:39:36.048202  3332 net.cpp:141] Setting up inception_3b/1x1
I0403 15:39:36.048243  3332 net.cpp:148] Top shape: 24 128 28 28 (2408448)
I0403 15:39:36.048261  3332 net.cpp:156] Memory required for data: 667141152
I0403 15:39:36.048280  3332 layer_factory.hpp:77] Creating layer inception_3b/relu_1x1
I0403 15:39:36.048302  3332 net.cpp:91] Creating Layer inception_3b/relu_1x1
I0403 15:39:36.048321  3332 net.cpp:425] inception_3b/relu_1x1 <- inception_3b/1x1
I0403 15:39:36.048338  3332 net.cpp:386] inception_3b/relu_1x1 -> inception_3b/1x1 (in-place)
I0403 15:39:36.048526  3332 net.cpp:141] Setting up inception_3b/relu_1x1
I0403 15:39:36.048552  3332 net.cpp:148] Top shape: 24 128 28 28 (2408448)
I0403 15:39:36.048568  3332 net.cpp:156] Memory required for data: 676774944
I0403 15:39:36.048584  3332 layer_factory.hpp:77] Creating layer inception_3b/3x3_reduce
I0403 15:39:36.048609  3332 net.cpp:91] Creating Layer inception_3b/3x3_reduce
I0403 15:39:36.048627  3332 net.cpp:425] inception_3b/3x3_reduce <- inception_3a/output_inception_3a/output_0_split_1
I0403 15:39:36.048647  3332 net.cpp:399] inception_3b/3x3_reduce -> inception_3b/3x3_reduce
I0403 15:39:36.049816  3332 net.cpp:141] Setting up inception_3b/3x3_reduce
I0403 15:39:36.049845  3332 net.cpp:148] Top shape: 24 128 28 28 (2408448)
I0403 15:39:36.049862  3332 net.cpp:156] Memory required for data: 686408736
I0403 15:39:36.049881  3332 layer_factory.hpp:77] Creating layer inception_3b/relu_3x3_reduce
I0403 15:39:36.049902  3332 net.cpp:91] Creating Layer inception_3b/relu_3x3_reduce
I0403 15:39:36.049918  3332 net.cpp:425] inception_3b/relu_3x3_reduce <- inception_3b/3x3_reduce
I0403 15:39:36.049937  3332 net.cpp:386] inception_3b/relu_3x3_reduce -> inception_3b/3x3_reduce (in-place)
I0403 15:39:36.050113  3332 net.cpp:141] Setting up inception_3b/relu_3x3_reduce
I0403 15:39:36.050138  3332 net.cpp:148] Top shape: 24 128 28 28 (2408448)
I0403 15:39:36.050156  3332 net.cpp:156] Memory required for data: 696042528
I0403 15:39:36.050171  3332 layer_factory.hpp:77] Creating layer inception_3b/3x3
I0403 15:39:36.050202  3332 net.cpp:91] Creating Layer inception_3b/3x3
I0403 15:39:36.050220  3332 net.cpp:425] inception_3b/3x3 <- inception_3b/3x3_reduce
I0403 15:39:36.050242  3332 net.cpp:399] inception_3b/3x3 -> inception_3b/3x3
I0403 15:39:36.053134  3332 net.cpp:141] Setting up inception_3b/3x3
I0403 15:39:36.053165  3332 net.cpp:148] Top shape: 24 192 28 28 (3612672)
I0403 15:39:36.053189  3332 net.cpp:156] Memory required for data: 710493216
I0403 15:39:36.053210  3332 layer_factory.hpp:77] Creating layer inception_3b/relu_3x3
I0403 15:39:36.053231  3332 net.cpp:91] Creating Layer inception_3b/relu_3x3
I0403 15:39:36.053249  3332 net.cpp:425] inception_3b/relu_3x3 <- inception_3b/3x3
I0403 15:39:36.053267  3332 net.cpp:386] inception_3b/relu_3x3 -> inception_3b/3x3 (in-place)
I0403 15:39:36.053539  3332 net.cpp:141] Setting up inception_3b/relu_3x3
I0403 15:39:36.053565  3332 net.cpp:148] Top shape: 24 192 28 28 (3612672)
I0403 15:39:36.053581  3332 net.cpp:156] Memory required for data: 724943904
I0403 15:39:36.053597  3332 layer_factory.hpp:77] Creating layer inception_3b/5x5_reduce
I0403 15:39:36.053622  3332 net.cpp:91] Creating Layer inception_3b/5x5_reduce
I0403 15:39:36.053642  3332 net.cpp:425] inception_3b/5x5_reduce <- inception_3a/output_inception_3a/output_0_split_2
I0403 15:39:36.053661  3332 net.cpp:399] inception_3b/5x5_reduce -> inception_3b/5x5_reduce
I0403 15:39:36.054664  3332 net.cpp:141] Setting up inception_3b/5x5_reduce
I0403 15:39:36.054695  3332 net.cpp:148] Top shape: 24 32 28 28 (602112)
I0403 15:39:36.054713  3332 net.cpp:156] Memory required for data: 727352352
I0403 15:39:36.054731  3332 layer_factory.hpp:77] Creating layer inception_3b/relu_5x5_reduce
I0403 15:39:36.054754  3332 net.cpp:91] Creating Layer inception_3b/relu_5x5_reduce
I0403 15:39:36.054781  3332 net.cpp:425] inception_3b/relu_5x5_reduce <- inception_3b/5x5_reduce
I0403 15:39:36.054800  3332 net.cpp:386] inception_3b/relu_5x5_reduce -> inception_3b/5x5_reduce (in-place)
I0403 15:39:36.054991  3332 net.cpp:141] Setting up inception_3b/relu_5x5_reduce
I0403 15:39:36.055018  3332 net.cpp:148] Top shape: 24 32 28 28 (602112)
I0403 15:39:36.055034  3332 net.cpp:156] Memory required for data: 729760800
I0403 15:39:36.055050  3332 layer_factory.hpp:77] Creating layer inception_3b/5x5
I0403 15:39:36.055073  3332 net.cpp:91] Creating Layer inception_3b/5x5
I0403 15:39:36.055093  3332 net.cpp:425] inception_3b/5x5 <- inception_3b/5x5_reduce
I0403 15:39:36.055112  3332 net.cpp:399] inception_3b/5x5 -> inception_3b/5x5
I0403 15:39:36.057070  3332 net.cpp:141] Setting up inception_3b/5x5
I0403 15:39:36.057098  3332 net.cpp:148] Top shape: 24 96 28 28 (1806336)
I0403 15:39:36.057116  3332 net.cpp:156] Memory required for data: 736986144
I0403 15:39:36.057135  3332 layer_factory.hpp:77] Creating layer inception_3b/relu_5x5
I0403 15:39:36.057153  3332 net.cpp:91] Creating Layer inception_3b/relu_5x5
I0403 15:39:36.057168  3332 net.cpp:425] inception_3b/relu_5x5 <- inception_3b/5x5
I0403 15:39:36.057195  3332 net.cpp:386] inception_3b/relu_5x5 -> inception_3b/5x5 (in-place)
I0403 15:39:36.057387  3332 net.cpp:141] Setting up inception_3b/relu_5x5
I0403 15:39:36.057412  3332 net.cpp:148] Top shape: 24 96 28 28 (1806336)
I0403 15:39:36.057428  3332 net.cpp:156] Memory required for data: 744211488
I0403 15:39:36.057443  3332 layer_factory.hpp:77] Creating layer inception_3b/pool
I0403 15:39:36.057461  3332 net.cpp:91] Creating Layer inception_3b/pool
I0403 15:39:36.057476  3332 net.cpp:425] inception_3b/pool <- inception_3a/output_inception_3a/output_0_split_3
I0403 15:39:36.057494  3332 net.cpp:399] inception_3b/pool -> inception_3b/pool
I0403 15:39:36.057550  3332 net.cpp:141] Setting up inception_3b/pool
I0403 15:39:36.057574  3332 net.cpp:148] Top shape: 24 256 28 28 (4816896)
I0403 15:39:36.057587  3332 net.cpp:156] Memory required for data: 763479072
I0403 15:39:36.057602  3332 layer_factory.hpp:77] Creating layer inception_3b/pool_proj
I0403 15:39:36.057624  3332 net.cpp:91] Creating Layer inception_3b/pool_proj
I0403 15:39:36.057642  3332 net.cpp:425] inception_3b/pool_proj <- inception_3b/pool
I0403 15:39:36.057663  3332 net.cpp:399] inception_3b/pool_proj -> inception_3b/pool_proj
I0403 15:39:36.058738  3332 net.cpp:141] Setting up inception_3b/pool_proj
I0403 15:39:36.058782  3332 net.cpp:148] Top shape: 24 64 28 28 (1204224)
I0403 15:39:36.058799  3332 net.cpp:156] Memory required for data: 768295968
I0403 15:39:36.058820  3332 layer_factory.hpp:77] Creating layer inception_3b/relu_pool_proj
I0403 15:39:36.058837  3332 net.cpp:91] Creating Layer inception_3b/relu_pool_proj
I0403 15:39:36.058852  3332 net.cpp:425] inception_3b/relu_pool_proj <- inception_3b/pool_proj
I0403 15:39:36.058873  3332 net.cpp:386] inception_3b/relu_pool_proj -> inception_3b/pool_proj (in-place)
I0403 15:39:36.059275  3332 net.cpp:141] Setting up inception_3b/relu_pool_proj
I0403 15:39:36.059305  3332 net.cpp:148] Top shape: 24 64 28 28 (1204224)
I0403 15:39:36.059322  3332 net.cpp:156] Memory required for data: 773112864
I0403 15:39:36.059339  3332 layer_factory.hpp:77] Creating layer inception_3b/output
I0403 15:39:36.059356  3332 net.cpp:91] Creating Layer inception_3b/output
I0403 15:39:36.059371  3332 net.cpp:425] inception_3b/output <- inception_3b/1x1
I0403 15:39:36.059387  3332 net.cpp:425] inception_3b/output <- inception_3b/3x3
I0403 15:39:36.059403  3332 net.cpp:425] inception_3b/output <- inception_3b/5x5
I0403 15:39:36.059419  3332 net.cpp:425] inception_3b/output <- inception_3b/pool_proj
I0403 15:39:36.059437  3332 net.cpp:399] inception_3b/output -> inception_3b/output
I0403 15:39:36.059481  3332 net.cpp:141] Setting up inception_3b/output
I0403 15:39:36.059504  3332 net.cpp:148] Top shape: 24 480 28 28 (9031680)
I0403 15:39:36.059519  3332 net.cpp:156] Memory required for data: 809239584
I0403 15:39:36.059533  3332 layer_factory.hpp:77] Creating layer pool3/3x3_s2
I0403 15:39:36.059552  3332 net.cpp:91] Creating Layer pool3/3x3_s2
I0403 15:39:36.059571  3332 net.cpp:425] pool3/3x3_s2 <- inception_3b/output
I0403 15:39:36.059602  3332 net.cpp:399] pool3/3x3_s2 -> pool3/3x3_s2
I0403 15:39:36.059662  3332 net.cpp:141] Setting up pool3/3x3_s2
I0403 15:39:36.059684  3332 net.cpp:148] Top shape: 24 480 14 14 (2257920)
I0403 15:39:36.059700  3332 net.cpp:156] Memory required for data: 818271264
I0403 15:39:36.059715  3332 layer_factory.hpp:77] Creating layer pool3/3x3_s2_pool3/3x3_s2_0_split
I0403 15:39:36.059731  3332 net.cpp:91] Creating Layer pool3/3x3_s2_pool3/3x3_s2_0_split
I0403 15:39:36.059746  3332 net.cpp:425] pool3/3x3_s2_pool3/3x3_s2_0_split <- pool3/3x3_s2
I0403 15:39:36.059765  3332 net.cpp:399] pool3/3x3_s2_pool3/3x3_s2_0_split -> pool3/3x3_s2_pool3/3x3_s2_0_split_0
I0403 15:39:36.059785  3332 net.cpp:399] pool3/3x3_s2_pool3/3x3_s2_0_split -> pool3/3x3_s2_pool3/3x3_s2_0_split_1
I0403 15:39:36.059805  3332 net.cpp:399] pool3/3x3_s2_pool3/3x3_s2_0_split -> pool3/3x3_s2_pool3/3x3_s2_0_split_2
I0403 15:39:36.059825  3332 net.cpp:399] pool3/3x3_s2_pool3/3x3_s2_0_split -> pool3/3x3_s2_pool3/3x3_s2_0_split_3
I0403 15:39:36.059902  3332 net.cpp:141] Setting up pool3/3x3_s2_pool3/3x3_s2_0_split
I0403 15:39:36.059929  3332 net.cpp:148] Top shape: 24 480 14 14 (2257920)
I0403 15:39:36.059947  3332 net.cpp:148] Top shape: 24 480 14 14 (2257920)
I0403 15:39:36.059962  3332 net.cpp:148] Top shape: 24 480 14 14 (2257920)
I0403 15:39:36.059978  3332 net.cpp:148] Top shape: 24 480 14 14 (2257920)
I0403 15:39:36.059991  3332 net.cpp:156] Memory required for data: 854397984
I0403 15:39:36.060006  3332 layer_factory.hpp:77] Creating layer inception_4a/1x1
I0403 15:39:36.060029  3332 net.cpp:91] Creating Layer inception_4a/1x1
I0403 15:39:36.060045  3332 net.cpp:425] inception_4a/1x1 <- pool3/3x3_s2_pool3/3x3_s2_0_split_0
I0403 15:39:36.060065  3332 net.cpp:399] inception_4a/1x1 -> inception_4a/1x1
I0403 15:39:36.061636  3332 net.cpp:141] Setting up inception_4a/1x1
I0403 15:39:36.061666  3332 net.cpp:148] Top shape: 24 192 14 14 (903168)
I0403 15:39:36.061682  3332 net.cpp:156] Memory required for data: 858010656
I0403 15:39:36.061700  3332 layer_factory.hpp:77] Creating layer inception_4a/relu_1x1
I0403 15:39:36.061720  3332 net.cpp:91] Creating Layer inception_4a/relu_1x1
I0403 15:39:36.061738  3332 net.cpp:425] inception_4a/relu_1x1 <- inception_4a/1x1
I0403 15:39:36.061758  3332 net.cpp:386] inception_4a/relu_1x1 -> inception_4a/1x1 (in-place)
I0403 15:39:36.061931  3332 net.cpp:141] Setting up inception_4a/relu_1x1
I0403 15:39:36.061955  3332 net.cpp:148] Top shape: 24 192 14 14 (903168)
I0403 15:39:36.061970  3332 net.cpp:156] Memory required for data: 861623328
I0403 15:39:36.061985  3332 layer_factory.hpp:77] Creating layer inception_4a/3x3_reduce
I0403 15:39:36.062008  3332 net.cpp:91] Creating Layer inception_4a/3x3_reduce
I0403 15:39:36.062026  3332 net.cpp:425] inception_4a/3x3_reduce <- pool3/3x3_s2_pool3/3x3_s2_0_split_1
I0403 15:39:36.062047  3332 net.cpp:399] inception_4a/3x3_reduce -> inception_4a/3x3_reduce
I0403 15:39:36.063364  3332 net.cpp:141] Setting up inception_4a/3x3_reduce
I0403 15:39:36.063395  3332 net.cpp:148] Top shape: 24 96 14 14 (451584)
I0403 15:39:36.063412  3332 net.cpp:156] Memory required for data: 863429664
I0403 15:39:36.063437  3332 layer_factory.hpp:77] Creating layer inception_4a/relu_3x3_reduce
I0403 15:39:36.063460  3332 net.cpp:91] Creating Layer inception_4a/relu_3x3_reduce
I0403 15:39:36.063477  3332 net.cpp:425] inception_4a/relu_3x3_reduce <- inception_4a/3x3_reduce
I0403 15:39:36.063495  3332 net.cpp:386] inception_4a/relu_3x3_reduce -> inception_4a/3x3_reduce (in-place)
I0403 15:39:36.063670  3332 net.cpp:141] Setting up inception_4a/relu_3x3_reduce
I0403 15:39:36.063695  3332 net.cpp:148] Top shape: 24 96 14 14 (451584)
I0403 15:39:36.063711  3332 net.cpp:156] Memory required for data: 865236000
I0403 15:39:36.063726  3332 layer_factory.hpp:77] Creating layer inception_4a/3x3
I0403 15:39:36.063748  3332 net.cpp:91] Creating Layer inception_4a/3x3
I0403 15:39:36.063766  3332 net.cpp:425] inception_4a/3x3 <- inception_4a/3x3_reduce
I0403 15:39:36.063786  3332 net.cpp:399] inception_4a/3x3 -> inception_4a/3x3
I0403 15:39:36.066515  3332 net.cpp:141] Setting up inception_4a/3x3
I0403 15:39:36.066545  3332 net.cpp:148] Top shape: 24 208 14 14 (978432)
I0403 15:39:36.066561  3332 net.cpp:156] Memory required for data: 869149728
I0403 15:39:36.066581  3332 layer_factory.hpp:77] Creating layer inception_4a/relu_3x3
I0403 15:39:36.066601  3332 net.cpp:91] Creating Layer inception_4a/relu_3x3
I0403 15:39:36.066619  3332 net.cpp:425] inception_4a/relu_3x3 <- inception_4a/3x3
I0403 15:39:36.066637  3332 net.cpp:386] inception_4a/relu_3x3 -> inception_4a/3x3 (in-place)
I0403 15:39:36.066934  3332 net.cpp:141] Setting up inception_4a/relu_3x3
I0403 15:39:36.066961  3332 net.cpp:148] Top shape: 24 208 14 14 (978432)
I0403 15:39:36.066975  3332 net.cpp:156] Memory required for data: 873063456
I0403 15:39:36.066990  3332 layer_factory.hpp:77] Creating layer inception_4a/5x5_reduce
I0403 15:39:36.067013  3332 net.cpp:91] Creating Layer inception_4a/5x5_reduce
I0403 15:39:36.067030  3332 net.cpp:425] inception_4a/5x5_reduce <- pool3/3x3_s2_pool3/3x3_s2_0_split_2
I0403 15:39:36.067052  3332 net.cpp:399] inception_4a/5x5_reduce -> inception_4a/5x5_reduce
I0403 15:39:36.068076  3332 net.cpp:141] Setting up inception_4a/5x5_reduce
I0403 15:39:36.068105  3332 net.cpp:148] Top shape: 24 16 14 14 (75264)
I0403 15:39:36.068122  3332 net.cpp:156] Memory required for data: 873364512
I0403 15:39:36.068140  3332 layer_factory.hpp:77] Creating layer inception_4a/relu_5x5_reduce
I0403 15:39:36.068162  3332 net.cpp:91] Creating Layer inception_4a/relu_5x5_reduce
I0403 15:39:36.068186  3332 net.cpp:425] inception_4a/relu_5x5_reduce <- inception_4a/5x5_reduce
I0403 15:39:36.068204  3332 net.cpp:386] inception_4a/relu_5x5_reduce -> inception_4a/5x5_reduce (in-place)
I0403 15:39:36.068382  3332 net.cpp:141] Setting up inception_4a/relu_5x5_reduce
I0403 15:39:36.068410  3332 net.cpp:148] Top shape: 24 16 14 14 (75264)
I0403 15:39:36.068426  3332 net.cpp:156] Memory required for data: 873665568
I0403 15:39:36.068440  3332 layer_factory.hpp:77] Creating layer inception_4a/5x5
I0403 15:39:36.068464  3332 net.cpp:91] Creating Layer inception_4a/5x5
I0403 15:39:36.068480  3332 net.cpp:425] inception_4a/5x5 <- inception_4a/5x5_reduce
I0403 15:39:36.068500  3332 net.cpp:399] inception_4a/5x5 -> inception_4a/5x5
I0403 15:39:36.069594  3332 net.cpp:141] Setting up inception_4a/5x5
I0403 15:39:36.069627  3332 net.cpp:148] Top shape: 24 48 14 14 (225792)
I0403 15:39:36.069644  3332 net.cpp:156] Memory required for data: 874568736
I0403 15:39:36.069664  3332 layer_factory.hpp:77] Creating layer inception_4a/relu_5x5
I0403 15:39:36.069685  3332 net.cpp:91] Creating Layer inception_4a/relu_5x5
I0403 15:39:36.069702  3332 net.cpp:425] inception_4a/relu_5x5 <- inception_4a/5x5
I0403 15:39:36.069723  3332 net.cpp:386] inception_4a/relu_5x5 -> inception_4a/5x5 (in-place)
I0403 15:39:36.069914  3332 net.cpp:141] Setting up inception_4a/relu_5x5
I0403 15:39:36.069938  3332 net.cpp:148] Top shape: 24 48 14 14 (225792)
I0403 15:39:36.069953  3332 net.cpp:156] Memory required for data: 875471904
I0403 15:39:36.069968  3332 layer_factory.hpp:77] Creating layer inception_4a/pool
I0403 15:39:36.069986  3332 net.cpp:91] Creating Layer inception_4a/pool
I0403 15:39:36.070003  3332 net.cpp:425] inception_4a/pool <- pool3/3x3_s2_pool3/3x3_s2_0_split_3
I0403 15:39:36.070022  3332 net.cpp:399] inception_4a/pool -> inception_4a/pool
I0403 15:39:36.070085  3332 net.cpp:141] Setting up inception_4a/pool
I0403 15:39:36.070107  3332 net.cpp:148] Top shape: 24 480 14 14 (2257920)
I0403 15:39:36.070122  3332 net.cpp:156] Memory required for data: 884503584
I0403 15:39:36.070137  3332 layer_factory.hpp:77] Creating layer inception_4a/pool_proj
I0403 15:39:36.070159  3332 net.cpp:91] Creating Layer inception_4a/pool_proj
I0403 15:39:36.070183  3332 net.cpp:425] inception_4a/pool_proj <- inception_4a/pool
I0403 15:39:36.070204  3332 net.cpp:399] inception_4a/pool_proj -> inception_4a/pool_proj
I0403 15:39:36.071399  3332 net.cpp:141] Setting up inception_4a/pool_proj
I0403 15:39:36.071430  3332 net.cpp:148] Top shape: 24 64 14 14 (301056)
I0403 15:39:36.071463  3332 net.cpp:156] Memory required for data: 885707808
I0403 15:39:36.071483  3332 layer_factory.hpp:77] Creating layer inception_4a/relu_pool_proj
I0403 15:39:36.071502  3332 net.cpp:91] Creating Layer inception_4a/relu_pool_proj
I0403 15:39:36.071519  3332 net.cpp:425] inception_4a/relu_pool_proj <- inception_4a/pool_proj
I0403 15:39:36.071542  3332 net.cpp:386] inception_4a/relu_pool_proj -> inception_4a/pool_proj (in-place)
I0403 15:39:36.071823  3332 net.cpp:141] Setting up inception_4a/relu_pool_proj
I0403 15:39:36.071853  3332 net.cpp:148] Top shape: 24 64 14 14 (301056)
I0403 15:39:36.071871  3332 net.cpp:156] Memory required for data: 886912032
I0403 15:39:36.071885  3332 layer_factory.hpp:77] Creating layer inception_4a/output
I0403 15:39:36.071904  3332 net.cpp:91] Creating Layer inception_4a/output
I0403 15:39:36.071920  3332 net.cpp:425] inception_4a/output <- inception_4a/1x1
I0403 15:39:36.071938  3332 net.cpp:425] inception_4a/output <- inception_4a/3x3
I0403 15:39:36.071955  3332 net.cpp:425] inception_4a/output <- inception_4a/5x5
I0403 15:39:36.071971  3332 net.cpp:425] inception_4a/output <- inception_4a/pool_proj
I0403 15:39:36.071991  3332 net.cpp:399] inception_4a/output -> inception_4a/output
I0403 15:39:36.072037  3332 net.cpp:141] Setting up inception_4a/output
I0403 15:39:36.072062  3332 net.cpp:148] Top shape: 24 512 14 14 (2408448)
I0403 15:39:36.072077  3332 net.cpp:156] Memory required for data: 896545824
I0403 15:39:36.072091  3332 layer_factory.hpp:77] Creating layer inception_4a/output_inception_4a/output_0_split
I0403 15:39:36.072113  3332 net.cpp:91] Creating Layer inception_4a/output_inception_4a/output_0_split
I0403 15:39:36.072130  3332 net.cpp:425] inception_4a/output_inception_4a/output_0_split <- inception_4a/output
I0403 15:39:36.072147  3332 net.cpp:399] inception_4a/output_inception_4a/output_0_split -> inception_4a/output_inception_4a/output_0_split_0
I0403 15:39:36.072192  3332 net.cpp:399] inception_4a/output_inception_4a/output_0_split -> inception_4a/output_inception_4a/output_0_split_1
I0403 15:39:36.072217  3332 net.cpp:399] inception_4a/output_inception_4a/output_0_split -> inception_4a/output_inception_4a/output_0_split_2
I0403 15:39:36.072238  3332 net.cpp:399] inception_4a/output_inception_4a/output_0_split -> inception_4a/output_inception_4a/output_0_split_3
I0403 15:39:36.072259  3332 net.cpp:399] inception_4a/output_inception_4a/output_0_split -> inception_4a/output_inception_4a/output_0_split_4
I0403 15:39:36.072353  3332 net.cpp:141] Setting up inception_4a/output_inception_4a/output_0_split
I0403 15:39:36.072377  3332 net.cpp:148] Top shape: 24 512 14 14 (2408448)
I0403 15:39:36.072393  3332 net.cpp:148] Top shape: 24 512 14 14 (2408448)
I0403 15:39:36.072408  3332 net.cpp:148] Top shape: 24 512 14 14 (2408448)
I0403 15:39:36.072424  3332 net.cpp:148] Top shape: 24 512 14 14 (2408448)
I0403 15:39:36.072439  3332 net.cpp:148] Top shape: 24 512 14 14 (2408448)
I0403 15:39:36.072453  3332 net.cpp:156] Memory required for data: 944714784
I0403 15:39:36.072476  3332 layer_factory.hpp:77] Creating layer loss1/ave_pool
I0403 15:39:36.072496  3332 net.cpp:91] Creating Layer loss1/ave_pool
I0403 15:39:36.072515  3332 net.cpp:425] loss1/ave_pool <- inception_4a/output_inception_4a/output_0_split_0
I0403 15:39:36.072532  3332 net.cpp:399] loss1/ave_pool -> loss1/ave_pool
I0403 15:39:36.072737  3332 net.cpp:141] Setting up loss1/ave_pool
I0403 15:39:36.072765  3332 net.cpp:148] Top shape: 24 512 4 4 (196608)
I0403 15:39:36.072782  3332 net.cpp:156] Memory required for data: 945501216
I0403 15:39:36.072795  3332 layer_factory.hpp:77] Creating layer loss1/conv
I0403 15:39:36.072818  3332 net.cpp:91] Creating Layer loss1/conv
I0403 15:39:36.072835  3332 net.cpp:425] loss1/conv <- loss1/ave_pool
I0403 15:39:36.072854  3332 net.cpp:399] loss1/conv -> loss1/conv
I0403 15:39:36.074270  3332 net.cpp:141] Setting up loss1/conv
I0403 15:39:36.074298  3332 net.cpp:148] Top shape: 24 128 4 4 (49152)
I0403 15:39:36.074331  3332 net.cpp:156] Memory required for data: 945697824
I0403 15:39:36.074350  3332 layer_factory.hpp:77] Creating layer loss1/relu_conv
I0403 15:39:36.074373  3332 net.cpp:91] Creating Layer loss1/relu_conv
I0403 15:39:36.074389  3332 net.cpp:425] loss1/relu_conv <- loss1/conv
I0403 15:39:36.074409  3332 net.cpp:386] loss1/relu_conv -> loss1/conv (in-place)
I0403 15:39:36.074705  3332 net.cpp:141] Setting up loss1/relu_conv
I0403 15:39:36.074734  3332 net.cpp:148] Top shape: 24 128 4 4 (49152)
I0403 15:39:36.074750  3332 net.cpp:156] Memory required for data: 945894432
I0403 15:39:36.074776  3332 layer_factory.hpp:77] Creating layer loss1/fc
I0403 15:39:36.074803  3332 net.cpp:91] Creating Layer loss1/fc
I0403 15:39:36.074823  3332 net.cpp:425] loss1/fc <- loss1/conv
I0403 15:39:36.074842  3332 net.cpp:399] loss1/fc -> loss1/fc
I0403 15:39:36.092375  3332 net.cpp:141] Setting up loss1/fc
I0403 15:39:36.092409  3332 net.cpp:148] Top shape: 24 1024 (24576)
I0403 15:39:36.092424  3332 net.cpp:156] Memory required for data: 945992736
I0403 15:39:36.092444  3332 layer_factory.hpp:77] Creating layer loss1/relu_fc
I0403 15:39:36.092463  3332 net.cpp:91] Creating Layer loss1/relu_fc
I0403 15:39:36.092479  3332 net.cpp:425] loss1/relu_fc <- loss1/fc
I0403 15:39:36.092499  3332 net.cpp:386] loss1/relu_fc -> loss1/fc (in-place)
I0403 15:39:36.092681  3332 net.cpp:141] Setting up loss1/relu_fc
I0403 15:39:36.092706  3332 net.cpp:148] Top shape: 24 1024 (24576)
I0403 15:39:36.092722  3332 net.cpp:156] Memory required for data: 946091040
I0403 15:39:36.092737  3332 layer_factory.hpp:77] Creating layer loss1/drop_fc
I0403 15:39:36.092764  3332 net.cpp:91] Creating Layer loss1/drop_fc
I0403 15:39:36.092782  3332 net.cpp:425] loss1/drop_fc <- loss1/fc
I0403 15:39:36.092803  3332 net.cpp:386] loss1/drop_fc -> loss1/fc (in-place)
I0403 15:39:36.092852  3332 net.cpp:141] Setting up loss1/drop_fc
I0403 15:39:36.092876  3332 net.cpp:148] Top shape: 24 1024 (24576)
I0403 15:39:36.092892  3332 net.cpp:156] Memory required for data: 946189344
I0403 15:39:36.092906  3332 layer_factory.hpp:77] Creating layer loss1/classifier_plantvillage
I0403 15:39:36.092924  3332 net.cpp:91] Creating Layer loss1/classifier_plantvillage
I0403 15:39:36.092939  3332 net.cpp:425] loss1/classifier_plantvillage <- loss1/fc
I0403 15:39:36.092960  3332 net.cpp:399] loss1/classifier_plantvillage -> loss1/classifier_plantvillage
I0403 15:39:36.093864  3332 net.cpp:141] Setting up loss1/classifier_plantvillage
I0403 15:39:36.093893  3332 net.cpp:148] Top shape: 24 38 (912)
I0403 15:39:36.093907  3332 net.cpp:156] Memory required for data: 946192992
I0403 15:39:36.093926  3332 layer_factory.hpp:77] Creating layer loss1/classifier_plantvillage_loss1/classifier_plantvillage_0_split
I0403 15:39:36.093945  3332 net.cpp:91] Creating Layer loss1/classifier_plantvillage_loss1/classifier_plantvillage_0_split
I0403 15:39:36.093960  3332 net.cpp:425] loss1/classifier_plantvillage_loss1/classifier_plantvillage_0_split <- loss1/classifier_plantvillage
I0403 15:39:36.093979  3332 net.cpp:399] loss1/classifier_plantvillage_loss1/classifier_plantvillage_0_split -> loss1/classifier_plantvillage_loss1/classifier_plantvillage_0_split_0
I0403 15:39:36.094013  3332 net.cpp:399] loss1/classifier_plantvillage_loss1/classifier_plantvillage_0_split -> loss1/classifier_plantvillage_loss1/classifier_plantvillage_0_split_1
I0403 15:39:36.094033  3332 net.cpp:399] loss1/classifier_plantvillage_loss1/classifier_plantvillage_0_split -> loss1/classifier_plantvillage_loss1/classifier_plantvillage_0_split_2
I0403 15:39:36.094101  3332 net.cpp:141] Setting up loss1/classifier_plantvillage_loss1/classifier_plantvillage_0_split
I0403 15:39:36.094123  3332 net.cpp:148] Top shape: 24 38 (912)
I0403 15:39:36.094140  3332 net.cpp:148] Top shape: 24 38 (912)
I0403 15:39:36.094154  3332 net.cpp:148] Top shape: 24 38 (912)
I0403 15:39:36.094167  3332 net.cpp:156] Memory required for data: 946203936
I0403 15:39:36.094188  3332 layer_factory.hpp:77] Creating layer inception_4b/1x1
I0403 15:39:36.094211  3332 net.cpp:91] Creating Layer inception_4b/1x1
I0403 15:39:36.094244  3332 net.cpp:425] inception_4b/1x1 <- inception_4a/output_inception_4a/output_0_split_1
I0403 15:39:36.094264  3332 net.cpp:399] inception_4b/1x1 -> inception_4b/1x1
I0403 15:39:36.095906  3332 net.cpp:141] Setting up inception_4b/1x1
I0403 15:39:36.095935  3332 net.cpp:148] Top shape: 24 160 14 14 (752640)
I0403 15:39:36.095952  3332 net.cpp:156] Memory required for data: 949214496
I0403 15:39:36.095970  3332 layer_factory.hpp:77] Creating layer inception_4b/relu_1x1
I0403 15:39:36.095990  3332 net.cpp:91] Creating Layer inception_4b/relu_1x1
I0403 15:39:36.096006  3332 net.cpp:425] inception_4b/relu_1x1 <- inception_4b/1x1
I0403 15:39:36.096024  3332 net.cpp:386] inception_4b/relu_1x1 -> inception_4b/1x1 (in-place)
I0403 15:39:36.096211  3332 net.cpp:141] Setting up inception_4b/relu_1x1
I0403 15:39:36.096251  3332 net.cpp:148] Top shape: 24 160 14 14 (752640)
I0403 15:39:36.096266  3332 net.cpp:156] Memory required for data: 952225056
I0403 15:39:36.096282  3332 layer_factory.hpp:77] Creating layer inception_4b/3x3_reduce
I0403 15:39:36.096304  3332 net.cpp:91] Creating Layer inception_4b/3x3_reduce
I0403 15:39:36.096323  3332 net.cpp:425] inception_4b/3x3_reduce <- inception_4a/output_inception_4a/output_0_split_2
I0403 15:39:36.096343  3332 net.cpp:399] inception_4b/3x3_reduce -> inception_4b/3x3_reduce
I0403 15:39:36.097684  3332 net.cpp:141] Setting up inception_4b/3x3_reduce
I0403 15:39:36.097718  3332 net.cpp:148] Top shape: 24 112 14 14 (526848)
I0403 15:39:36.097733  3332 net.cpp:156] Memory required for data: 954332448
I0403 15:39:36.097753  3332 layer_factory.hpp:77] Creating layer inception_4b/relu_3x3_reduce
I0403 15:39:36.097770  3332 net.cpp:91] Creating Layer inception_4b/relu_3x3_reduce
I0403 15:39:36.097787  3332 net.cpp:425] inception_4b/relu_3x3_reduce <- inception_4b/3x3_reduce
I0403 15:39:36.097805  3332 net.cpp:386] inception_4b/relu_3x3_reduce -> inception_4b/3x3_reduce (in-place)
I0403 15:39:36.098083  3332 net.cpp:141] Setting up inception_4b/relu_3x3_reduce
I0403 15:39:36.098110  3332 net.cpp:148] Top shape: 24 112 14 14 (526848)
I0403 15:39:36.098126  3332 net.cpp:156] Memory required for data: 956439840
I0403 15:39:36.098140  3332 layer_factory.hpp:77] Creating layer inception_4b/3x3
I0403 15:39:36.098163  3332 net.cpp:91] Creating Layer inception_4b/3x3
I0403 15:39:36.098188  3332 net.cpp:425] inception_4b/3x3 <- inception_4b/3x3_reduce
I0403 15:39:36.098209  3332 net.cpp:399] inception_4b/3x3 -> inception_4b/3x3
I0403 15:39:36.101116  3332 net.cpp:141] Setting up inception_4b/3x3
I0403 15:39:36.101148  3332 net.cpp:148] Top shape: 24 224 14 14 (1053696)
I0403 15:39:36.101164  3332 net.cpp:156] Memory required for data: 960654624
I0403 15:39:36.101188  3332 layer_factory.hpp:77] Creating layer inception_4b/relu_3x3
I0403 15:39:36.101207  3332 net.cpp:91] Creating Layer inception_4b/relu_3x3
I0403 15:39:36.101223  3332 net.cpp:425] inception_4b/relu_3x3 <- inception_4b/3x3
I0403 15:39:36.101243  3332 net.cpp:386] inception_4b/relu_3x3 -> inception_4b/3x3 (in-place)
I0403 15:39:36.101418  3332 net.cpp:141] Setting up inception_4b/relu_3x3
I0403 15:39:36.101444  3332 net.cpp:148] Top shape: 24 224 14 14 (1053696)
I0403 15:39:36.101457  3332 net.cpp:156] Memory required for data: 964869408
I0403 15:39:36.101485  3332 layer_factory.hpp:77] Creating layer inception_4b/5x5_reduce
I0403 15:39:36.101507  3332 net.cpp:91] Creating Layer inception_4b/5x5_reduce
I0403 15:39:36.101526  3332 net.cpp:425] inception_4b/5x5_reduce <- inception_4a/output_inception_4a/output_0_split_3
I0403 15:39:36.101547  3332 net.cpp:399] inception_4b/5x5_reduce -> inception_4b/5x5_reduce
I0403 15:39:36.102783  3332 net.cpp:141] Setting up inception_4b/5x5_reduce
I0403 15:39:36.102813  3332 net.cpp:148] Top shape: 24 24 14 14 (112896)
I0403 15:39:36.102829  3332 net.cpp:156] Memory required for data: 965320992
I0403 15:39:36.102848  3332 layer_factory.hpp:77] Creating layer inception_4b/relu_5x5_reduce
I0403 15:39:36.102869  3332 net.cpp:91] Creating Layer inception_4b/relu_5x5_reduce
I0403 15:39:36.102898  3332 net.cpp:425] inception_4b/relu_5x5_reduce <- inception_4b/5x5_reduce
I0403 15:39:36.102916  3332 net.cpp:386] inception_4b/relu_5x5_reduce -> inception_4b/5x5_reduce (in-place)
I0403 15:39:36.103096  3332 net.cpp:141] Setting up inception_4b/relu_5x5_reduce
I0403 15:39:36.103121  3332 net.cpp:148] Top shape: 24 24 14 14 (112896)
I0403 15:39:36.103137  3332 net.cpp:156] Memory required for data: 965772576
I0403 15:39:36.103152  3332 layer_factory.hpp:77] Creating layer inception_4b/5x5
I0403 15:39:36.103173  3332 net.cpp:91] Creating Layer inception_4b/5x5
I0403 15:39:36.103196  3332 net.cpp:425] inception_4b/5x5 <- inception_4b/5x5_reduce
I0403 15:39:36.103215  3332 net.cpp:399] inception_4b/5x5 -> inception_4b/5x5
I0403 15:39:36.104404  3332 net.cpp:141] Setting up inception_4b/5x5
I0403 15:39:36.104434  3332 net.cpp:148] Top shape: 24 64 14 14 (301056)
I0403 15:39:36.104449  3332 net.cpp:156] Memory required for data: 966976800
I0403 15:39:36.104468  3332 layer_factory.hpp:77] Creating layer inception_4b/relu_5x5
I0403 15:39:36.104488  3332 net.cpp:91] Creating Layer inception_4b/relu_5x5
I0403 15:39:36.104506  3332 net.cpp:425] inception_4b/relu_5x5 <- inception_4b/5x5
I0403 15:39:36.104523  3332 net.cpp:386] inception_4b/relu_5x5 -> inception_4b/5x5 (in-place)
I0403 15:39:36.104801  3332 net.cpp:141] Setting up inception_4b/relu_5x5
I0403 15:39:36.104826  3332 net.cpp:148] Top shape: 24 64 14 14 (301056)
I0403 15:39:36.104841  3332 net.cpp:156] Memory required for data: 968181024
I0403 15:39:36.104856  3332 layer_factory.hpp:77] Creating layer inception_4b/pool
I0403 15:39:36.104878  3332 net.cpp:91] Creating Layer inception_4b/pool
I0403 15:39:36.104895  3332 net.cpp:425] inception_4b/pool <- inception_4a/output_inception_4a/output_0_split_4
I0403 15:39:36.104913  3332 net.cpp:399] inception_4b/pool -> inception_4b/pool
I0403 15:39:36.104977  3332 net.cpp:141] Setting up inception_4b/pool
I0403 15:39:36.105000  3332 net.cpp:148] Top shape: 24 512 14 14 (2408448)
I0403 15:39:36.105015  3332 net.cpp:156] Memory required for data: 977814816
I0403 15:39:36.105029  3332 layer_factory.hpp:77] Creating layer inception_4b/pool_proj
I0403 15:39:36.105051  3332 net.cpp:91] Creating Layer inception_4b/pool_proj
I0403 15:39:36.105068  3332 net.cpp:425] inception_4b/pool_proj <- inception_4b/pool
I0403 15:39:36.105088  3332 net.cpp:399] inception_4b/pool_proj -> inception_4b/pool_proj
I0403 15:39:36.106266  3332 net.cpp:141] Setting up inception_4b/pool_proj
I0403 15:39:36.106294  3332 net.cpp:148] Top shape: 24 64 14 14 (301056)
I0403 15:39:36.106310  3332 net.cpp:156] Memory required for data: 979019040
I0403 15:39:36.106328  3332 layer_factory.hpp:77] Creating layer inception_4b/relu_pool_proj
I0403 15:39:36.106348  3332 net.cpp:91] Creating Layer inception_4b/relu_pool_proj
I0403 15:39:36.106364  3332 net.cpp:425] inception_4b/relu_pool_proj <- inception_4b/pool_proj
I0403 15:39:36.106380  3332 net.cpp:386] inception_4b/relu_pool_proj -> inception_4b/pool_proj (in-place)
I0403 15:39:36.106570  3332 net.cpp:141] Setting up inception_4b/relu_pool_proj
I0403 15:39:36.106600  3332 net.cpp:148] Top shape: 24 64 14 14 (301056)
I0403 15:39:36.106616  3332 net.cpp:156] Memory required for data: 980223264
I0403 15:39:36.106631  3332 layer_factory.hpp:77] Creating layer inception_4b/output
I0403 15:39:36.106649  3332 net.cpp:91] Creating Layer inception_4b/output
I0403 15:39:36.106665  3332 net.cpp:425] inception_4b/output <- inception_4b/1x1
I0403 15:39:36.106681  3332 net.cpp:425] inception_4b/output <- inception_4b/3x3
I0403 15:39:36.106698  3332 net.cpp:425] inception_4b/output <- inception_4b/5x5
I0403 15:39:36.106714  3332 net.cpp:425] inception_4b/output <- inception_4b/pool_proj
I0403 15:39:36.106730  3332 net.cpp:399] inception_4b/output -> inception_4b/output
I0403 15:39:36.106788  3332 net.cpp:141] Setting up inception_4b/output
I0403 15:39:36.106811  3332 net.cpp:148] Top shape: 24 512 14 14 (2408448)
I0403 15:39:36.106825  3332 net.cpp:156] Memory required for data: 989857056
I0403 15:39:36.106853  3332 layer_factory.hpp:77] Creating layer inception_4b/output_inception_4b/output_0_split
I0403 15:39:36.106873  3332 net.cpp:91] Creating Layer inception_4b/output_inception_4b/output_0_split
I0403 15:39:36.106889  3332 net.cpp:425] inception_4b/output_inception_4b/output_0_split <- inception_4b/output
I0403 15:39:36.106905  3332 net.cpp:399] inception_4b/output_inception_4b/output_0_split -> inception_4b/output_inception_4b/output_0_split_0
I0403 15:39:36.106925  3332 net.cpp:399] inception_4b/output_inception_4b/output_0_split -> inception_4b/output_inception_4b/output_0_split_1
I0403 15:39:36.106945  3332 net.cpp:399] inception_4b/output_inception_4b/output_0_split -> inception_4b/output_inception_4b/output_0_split_2
I0403 15:39:36.106967  3332 net.cpp:399] inception_4b/output_inception_4b/output_0_split -> inception_4b/output_inception_4b/output_0_split_3
I0403 15:39:36.107049  3332 net.cpp:141] Setting up inception_4b/output_inception_4b/output_0_split
I0403 15:39:36.107074  3332 net.cpp:148] Top shape: 24 512 14 14 (2408448)
I0403 15:39:36.107089  3332 net.cpp:148] Top shape: 24 512 14 14 (2408448)
I0403 15:39:36.107105  3332 net.cpp:148] Top shape: 24 512 14 14 (2408448)
I0403 15:39:36.107120  3332 net.cpp:148] Top shape: 24 512 14 14 (2408448)
I0403 15:39:36.107133  3332 net.cpp:156] Memory required for data: 1028392224
I0403 15:39:36.107148  3332 layer_factory.hpp:77] Creating layer inception_4c/1x1
I0403 15:39:36.107169  3332 net.cpp:91] Creating Layer inception_4c/1x1
I0403 15:39:36.107193  3332 net.cpp:425] inception_4c/1x1 <- inception_4b/output_inception_4b/output_0_split_0
I0403 15:39:36.107214  3332 net.cpp:399] inception_4c/1x1 -> inception_4c/1x1
I0403 15:39:36.108609  3332 net.cpp:141] Setting up inception_4c/1x1
I0403 15:39:36.108638  3332 net.cpp:148] Top shape: 24 128 14 14 (602112)
I0403 15:39:36.108654  3332 net.cpp:156] Memory required for data: 1030800672
I0403 15:39:36.108672  3332 layer_factory.hpp:77] Creating layer inception_4c/relu_1x1
I0403 15:39:36.108690  3332 net.cpp:91] Creating Layer inception_4c/relu_1x1
I0403 15:39:36.108706  3332 net.cpp:425] inception_4c/relu_1x1 <- inception_4c/1x1
I0403 15:39:36.108724  3332 net.cpp:386] inception_4c/relu_1x1 -> inception_4c/1x1 (in-place)
I0403 15:39:36.108901  3332 net.cpp:141] Setting up inception_4c/relu_1x1
I0403 15:39:36.108927  3332 net.cpp:148] Top shape: 24 128 14 14 (602112)
I0403 15:39:36.108939  3332 net.cpp:156] Memory required for data: 1033209120
I0403 15:39:36.108954  3332 layer_factory.hpp:77] Creating layer inception_4c/3x3_reduce
I0403 15:39:36.108975  3332 net.cpp:91] Creating Layer inception_4c/3x3_reduce
I0403 15:39:36.108994  3332 net.cpp:425] inception_4c/3x3_reduce <- inception_4b/output_inception_4b/output_0_split_1
I0403 15:39:36.109015  3332 net.cpp:399] inception_4c/3x3_reduce -> inception_4c/3x3_reduce
I0403 15:39:36.110956  3332 net.cpp:141] Setting up inception_4c/3x3_reduce
I0403 15:39:36.110985  3332 net.cpp:148] Top shape: 24 128 14 14 (602112)
I0403 15:39:36.111001  3332 net.cpp:156] Memory required for data: 1035617568
I0403 15:39:36.111018  3332 layer_factory.hpp:77] Creating layer inception_4c/relu_3x3_reduce
I0403 15:39:36.111039  3332 net.cpp:91] Creating Layer inception_4c/relu_3x3_reduce
I0403 15:39:36.111057  3332 net.cpp:425] inception_4c/relu_3x3_reduce <- inception_4c/3x3_reduce
I0403 15:39:36.111075  3332 net.cpp:386] inception_4c/relu_3x3_reduce -> inception_4c/3x3_reduce (in-place)
I0403 15:39:36.111358  3332 net.cpp:141] Setting up inception_4c/relu_3x3_reduce
I0403 15:39:36.111384  3332 net.cpp:148] Top shape: 24 128 14 14 (602112)
I0403 15:39:36.111399  3332 net.cpp:156] Memory required for data: 1038026016
I0403 15:39:36.111413  3332 layer_factory.hpp:77] Creating layer inception_4c/3x3
I0403 15:39:36.111435  3332 net.cpp:91] Creating Layer inception_4c/3x3
I0403 15:39:36.111454  3332 net.cpp:425] inception_4c/3x3 <- inception_4c/3x3_reduce
I0403 15:39:36.111474  3332 net.cpp:399] inception_4c/3x3 -> inception_4c/3x3
I0403 15:39:36.115124  3332 net.cpp:141] Setting up inception_4c/3x3
I0403 15:39:36.115166  3332 net.cpp:148] Top shape: 24 256 14 14 (1204224)
I0403 15:39:36.115190  3332 net.cpp:156] Memory required for data: 1042842912
I0403 15:39:36.115223  3332 layer_factory.hpp:77] Creating layer inception_4c/relu_3x3
I0403 15:39:36.115247  3332 net.cpp:91] Creating Layer inception_4c/relu_3x3
I0403 15:39:36.115263  3332 net.cpp:425] inception_4c/relu_3x3 <- inception_4c/3x3
I0403 15:39:36.115280  3332 net.cpp:386] inception_4c/relu_3x3 -> inception_4c/3x3 (in-place)
I0403 15:39:36.115455  3332 net.cpp:141] Setting up inception_4c/relu_3x3
I0403 15:39:36.115479  3332 net.cpp:148] Top shape: 24 256 14 14 (1204224)
I0403 15:39:36.115494  3332 net.cpp:156] Memory required for data: 1047659808
I0403 15:39:36.115507  3332 layer_factory.hpp:77] Creating layer inception_4c/5x5_reduce
I0403 15:39:36.115528  3332 net.cpp:91] Creating Layer inception_4c/5x5_reduce
I0403 15:39:36.115545  3332 net.cpp:425] inception_4c/5x5_reduce <- inception_4b/output_inception_4b/output_0_split_2
I0403 15:39:36.115567  3332 net.cpp:399] inception_4c/5x5_reduce -> inception_4c/5x5_reduce
I0403 15:39:36.116631  3332 net.cpp:141] Setting up inception_4c/5x5_reduce
I0403 15:39:36.116659  3332 net.cpp:148] Top shape: 24 24 14 14 (112896)
I0403 15:39:36.116675  3332 net.cpp:156] Memory required for data: 1048111392
I0403 15:39:36.116693  3332 layer_factory.hpp:77] Creating layer inception_4c/relu_5x5_reduce
I0403 15:39:36.116714  3332 net.cpp:91] Creating Layer inception_4c/relu_5x5_reduce
I0403 15:39:36.116731  3332 net.cpp:425] inception_4c/relu_5x5_reduce <- inception_4c/5x5_reduce
I0403 15:39:36.116749  3332 net.cpp:386] inception_4c/relu_5x5_reduce -> inception_4c/5x5_reduce (in-place)
I0403 15:39:36.116927  3332 net.cpp:141] Setting up inception_4c/relu_5x5_reduce
I0403 15:39:36.116953  3332 net.cpp:148] Top shape: 24 24 14 14 (112896)
I0403 15:39:36.116968  3332 net.cpp:156] Memory required for data: 1048562976
I0403 15:39:36.116982  3332 layer_factory.hpp:77] Creating layer inception_4c/5x5
I0403 15:39:36.117004  3332 net.cpp:91] Creating Layer inception_4c/5x5
I0403 15:39:36.117022  3332 net.cpp:425] inception_4c/5x5 <- inception_4c/5x5_reduce
I0403 15:39:36.117039  3332 net.cpp:399] inception_4c/5x5 -> inception_4c/5x5
I0403 15:39:36.118253  3332 net.cpp:141] Setting up inception_4c/5x5
I0403 15:39:36.118285  3332 net.cpp:148] Top shape: 24 64 14 14 (301056)
I0403 15:39:36.118302  3332 net.cpp:156] Memory required for data: 1049767200
I0403 15:39:36.118321  3332 layer_factory.hpp:77] Creating layer inception_4c/relu_5x5
I0403 15:39:36.118340  3332 net.cpp:91] Creating Layer inception_4c/relu_5x5
I0403 15:39:36.118356  3332 net.cpp:425] inception_4c/relu_5x5 <- inception_4c/5x5
I0403 15:39:36.118376  3332 net.cpp:386] inception_4c/relu_5x5 -> inception_4c/5x5 (in-place)
I0403 15:39:36.118670  3332 net.cpp:141] Setting up inception_4c/relu_5x5
I0403 15:39:36.118700  3332 net.cpp:148] Top shape: 24 64 14 14 (301056)
I0403 15:39:36.118715  3332 net.cpp:156] Memory required for data: 1050971424
I0403 15:39:36.118729  3332 layer_factory.hpp:77] Creating layer inception_4c/pool
I0403 15:39:36.118747  3332 net.cpp:91] Creating Layer inception_4c/pool
I0403 15:39:36.118775  3332 net.cpp:425] inception_4c/pool <- inception_4b/output_inception_4b/output_0_split_3
I0403 15:39:36.118794  3332 net.cpp:399] inception_4c/pool -> inception_4c/pool
I0403 15:39:36.118859  3332 net.cpp:141] Setting up inception_4c/pool
I0403 15:39:36.118881  3332 net.cpp:148] Top shape: 24 512 14 14 (2408448)
I0403 15:39:36.118896  3332 net.cpp:156] Memory required for data: 1060605216
I0403 15:39:36.118909  3332 layer_factory.hpp:77] Creating layer inception_4c/pool_proj
I0403 15:39:36.118932  3332 net.cpp:91] Creating Layer inception_4c/pool_proj
I0403 15:39:36.118949  3332 net.cpp:425] inception_4c/pool_proj <- inception_4c/pool
I0403 15:39:36.118968  3332 net.cpp:399] inception_4c/pool_proj -> inception_4c/pool_proj
I0403 15:39:36.120167  3332 net.cpp:141] Setting up inception_4c/pool_proj
I0403 15:39:36.120203  3332 net.cpp:148] Top shape: 24 64 14 14 (301056)
I0403 15:39:36.120232  3332 net.cpp:156] Memory required for data: 1061809440
I0403 15:39:36.120251  3332 layer_factory.hpp:77] Creating layer inception_4c/relu_pool_proj
I0403 15:39:36.120280  3332 net.cpp:91] Creating Layer inception_4c/relu_pool_proj
I0403 15:39:36.120296  3332 net.cpp:425] inception_4c/relu_pool_proj <- inception_4c/pool_proj
I0403 15:39:36.120313  3332 net.cpp:386] inception_4c/relu_pool_proj -> inception_4c/pool_proj (in-place)
I0403 15:39:36.120491  3332 net.cpp:141] Setting up inception_4c/relu_pool_proj
I0403 15:39:36.120517  3332 net.cpp:148] Top shape: 24 64 14 14 (301056)
I0403 15:39:36.120530  3332 net.cpp:156] Memory required for data: 1063013664
I0403 15:39:36.120545  3332 layer_factory.hpp:77] Creating layer inception_4c/output
I0403 15:39:36.120561  3332 net.cpp:91] Creating Layer inception_4c/output
I0403 15:39:36.120576  3332 net.cpp:425] inception_4c/output <- inception_4c/1x1
I0403 15:39:36.120592  3332 net.cpp:425] inception_4c/output <- inception_4c/3x3
I0403 15:39:36.120607  3332 net.cpp:425] inception_4c/output <- inception_4c/5x5
I0403 15:39:36.120622  3332 net.cpp:425] inception_4c/output <- inception_4c/pool_proj
I0403 15:39:36.120638  3332 net.cpp:399] inception_4c/output -> inception_4c/output
I0403 15:39:36.120684  3332 net.cpp:141] Setting up inception_4c/output
I0403 15:39:36.120707  3332 net.cpp:148] Top shape: 24 512 14 14 (2408448)
I0403 15:39:36.120721  3332 net.cpp:156] Memory required for data: 1072647456
I0403 15:39:36.120736  3332 layer_factory.hpp:77] Creating layer inception_4c/output_inception_4c/output_0_split
I0403 15:39:36.120754  3332 net.cpp:91] Creating Layer inception_4c/output_inception_4c/output_0_split
I0403 15:39:36.120770  3332 net.cpp:425] inception_4c/output_inception_4c/output_0_split <- inception_4c/output
I0403 15:39:36.120786  3332 net.cpp:399] inception_4c/output_inception_4c/output_0_split -> inception_4c/output_inception_4c/output_0_split_0
I0403 15:39:36.120806  3332 net.cpp:399] inception_4c/output_inception_4c/output_0_split -> inception_4c/output_inception_4c/output_0_split_1
I0403 15:39:36.120826  3332 net.cpp:399] inception_4c/output_inception_4c/output_0_split -> inception_4c/output_inception_4c/output_0_split_2
I0403 15:39:36.120843  3332 net.cpp:399] inception_4c/output_inception_4c/output_0_split -> inception_4c/output_inception_4c/output_0_split_3
I0403 15:39:36.120928  3332 net.cpp:141] Setting up inception_4c/output_inception_4c/output_0_split
I0403 15:39:36.120949  3332 net.cpp:148] Top shape: 24 512 14 14 (2408448)
I0403 15:39:36.120965  3332 net.cpp:148] Top shape: 24 512 14 14 (2408448)
I0403 15:39:36.120980  3332 net.cpp:148] Top shape: 24 512 14 14 (2408448)
I0403 15:39:36.120995  3332 net.cpp:148] Top shape: 24 512 14 14 (2408448)
I0403 15:39:36.121008  3332 net.cpp:156] Memory required for data: 1111182624
I0403 15:39:36.121022  3332 layer_factory.hpp:77] Creating layer inception_4d/1x1
I0403 15:39:36.121045  3332 net.cpp:91] Creating Layer inception_4d/1x1
I0403 15:39:36.121062  3332 net.cpp:425] inception_4d/1x1 <- inception_4c/output_inception_4c/output_0_split_0
I0403 15:39:36.121083  3332 net.cpp:399] inception_4d/1x1 -> inception_4d/1x1
I0403 15:39:36.122440  3332 net.cpp:141] Setting up inception_4d/1x1
I0403 15:39:36.122479  3332 net.cpp:148] Top shape: 24 112 14 14 (526848)
I0403 15:39:36.122495  3332 net.cpp:156] Memory required for data: 1113290016
I0403 15:39:36.122514  3332 layer_factory.hpp:77] Creating layer inception_4d/relu_1x1
I0403 15:39:36.122532  3332 net.cpp:91] Creating Layer inception_4d/relu_1x1
I0403 15:39:36.122555  3332 net.cpp:425] inception_4d/relu_1x1 <- inception_4d/1x1
I0403 15:39:36.122573  3332 net.cpp:386] inception_4d/relu_1x1 -> inception_4d/1x1 (in-place)
I0403 15:39:36.122769  3332 net.cpp:141] Setting up inception_4d/relu_1x1
I0403 15:39:36.122792  3332 net.cpp:148] Top shape: 24 112 14 14 (526848)
I0403 15:39:36.122807  3332 net.cpp:156] Memory required for data: 1115397408
I0403 15:39:36.122822  3332 layer_factory.hpp:77] Creating layer inception_4d/3x3_reduce
I0403 15:39:36.122856  3332 net.cpp:91] Creating Layer inception_4d/3x3_reduce
I0403 15:39:36.122884  3332 net.cpp:425] inception_4d/3x3_reduce <- inception_4c/output_inception_4c/output_0_split_1
I0403 15:39:36.122910  3332 net.cpp:399] inception_4d/3x3_reduce -> inception_4d/3x3_reduce
I0403 15:39:36.124441  3332 net.cpp:141] Setting up inception_4d/3x3_reduce
I0403 15:39:36.124471  3332 net.cpp:148] Top shape: 24 144 14 14 (677376)
I0403 15:39:36.124487  3332 net.cpp:156] Memory required for data: 1118106912
I0403 15:39:36.124505  3332 layer_factory.hpp:77] Creating layer inception_4d/relu_3x3_reduce
I0403 15:39:36.124524  3332 net.cpp:91] Creating Layer inception_4d/relu_3x3_reduce
I0403 15:39:36.124541  3332 net.cpp:425] inception_4d/relu_3x3_reduce <- inception_4d/3x3_reduce
I0403 15:39:36.124562  3332 net.cpp:386] inception_4d/relu_3x3_reduce -> inception_4d/3x3_reduce (in-place)
I0403 15:39:36.124855  3332 net.cpp:141] Setting up inception_4d/relu_3x3_reduce
I0403 15:39:36.124882  3332 net.cpp:148] Top shape: 24 144 14 14 (677376)
I0403 15:39:36.124898  3332 net.cpp:156] Memory required for data: 1120816416
I0403 15:39:36.124913  3332 layer_factory.hpp:77] Creating layer inception_4d/3x3
I0403 15:39:36.124935  3332 net.cpp:91] Creating Layer inception_4d/3x3
I0403 15:39:36.124953  3332 net.cpp:425] inception_4d/3x3 <- inception_4d/3x3_reduce
I0403 15:39:36.124971  3332 net.cpp:399] inception_4d/3x3 -> inception_4d/3x3
I0403 15:39:36.129281  3332 net.cpp:141] Setting up inception_4d/3x3
I0403 15:39:36.129312  3332 net.cpp:148] Top shape: 24 288 14 14 (1354752)
I0403 15:39:36.129328  3332 net.cpp:156] Memory required for data: 1126235424
I0403 15:39:36.129346  3332 layer_factory.hpp:77] Creating layer inception_4d/relu_3x3
I0403 15:39:36.129367  3332 net.cpp:91] Creating Layer inception_4d/relu_3x3
I0403 15:39:36.129386  3332 net.cpp:425] inception_4d/relu_3x3 <- inception_4d/3x3
I0403 15:39:36.129403  3332 net.cpp:386] inception_4d/relu_3x3 -> inception_4d/3x3 (in-place)
I0403 15:39:36.129590  3332 net.cpp:141] Setting up inception_4d/relu_3x3
I0403 15:39:36.129614  3332 net.cpp:148] Top shape: 24 288 14 14 (1354752)
I0403 15:39:36.129628  3332 net.cpp:156] Memory required for data: 1131654432
I0403 15:39:36.129643  3332 layer_factory.hpp:77] Creating layer inception_4d/5x5_reduce
I0403 15:39:36.129667  3332 net.cpp:91] Creating Layer inception_4d/5x5_reduce
I0403 15:39:36.129684  3332 net.cpp:425] inception_4d/5x5_reduce <- inception_4c/output_inception_4c/output_0_split_2
I0403 15:39:36.129703  3332 net.cpp:399] inception_4d/5x5_reduce -> inception_4d/5x5_reduce
I0403 15:39:36.130882  3332 net.cpp:141] Setting up inception_4d/5x5_reduce
I0403 15:39:36.130910  3332 net.cpp:148] Top shape: 24 32 14 14 (150528)
I0403 15:39:36.130926  3332 net.cpp:156] Memory required for data: 1132256544
I0403 15:39:36.130945  3332 layer_factory.hpp:77] Creating layer inception_4d/relu_5x5_reduce
I0403 15:39:36.130964  3332 net.cpp:91] Creating Layer inception_4d/relu_5x5_reduce
I0403 15:39:36.130980  3332 net.cpp:425] inception_4d/relu_5x5_reduce <- inception_4d/5x5_reduce
I0403 15:39:36.131000  3332 net.cpp:386] inception_4d/relu_5x5_reduce -> inception_4d/5x5_reduce (in-place)
I0403 15:39:36.131192  3332 net.cpp:141] Setting up inception_4d/relu_5x5_reduce
I0403 15:39:36.131217  3332 net.cpp:148] Top shape: 24 32 14 14 (150528)
I0403 15:39:36.131232  3332 net.cpp:156] Memory required for data: 1132858656
I0403 15:39:36.131245  3332 layer_factory.hpp:77] Creating layer inception_4d/5x5
I0403 15:39:36.131268  3332 net.cpp:91] Creating Layer inception_4d/5x5
I0403 15:39:36.131285  3332 net.cpp:425] inception_4d/5x5 <- inception_4d/5x5_reduce
I0403 15:39:36.131306  3332 net.cpp:399] inception_4d/5x5 -> inception_4d/5x5
I0403 15:39:36.132791  3332 net.cpp:141] Setting up inception_4d/5x5
I0403 15:39:36.132822  3332 net.cpp:148] Top shape: 24 64 14 14 (301056)
I0403 15:39:36.132843  3332 net.cpp:156] Memory required for data: 1134062880
I0403 15:39:36.132861  3332 layer_factory.hpp:77] Creating layer inception_4d/relu_5x5
I0403 15:39:36.132895  3332 net.cpp:91] Creating Layer inception_4d/relu_5x5
I0403 15:39:36.132913  3332 net.cpp:425] inception_4d/relu_5x5 <- inception_4d/5x5
I0403 15:39:36.132931  3332 net.cpp:386] inception_4d/relu_5x5 -> inception_4d/5x5 (in-place)
I0403 15:39:36.133244  3332 net.cpp:141] Setting up inception_4d/relu_5x5
I0403 15:39:36.133272  3332 net.cpp:148] Top shape: 24 64 14 14 (301056)
I0403 15:39:36.133290  3332 net.cpp:156] Memory required for data: 1135267104
I0403 15:39:36.133304  3332 layer_factory.hpp:77] Creating layer inception_4d/pool
I0403 15:39:36.133322  3332 net.cpp:91] Creating Layer inception_4d/pool
I0403 15:39:36.133338  3332 net.cpp:425] inception_4d/pool <- inception_4c/output_inception_4c/output_0_split_3
I0403 15:39:36.133358  3332 net.cpp:399] inception_4d/pool -> inception_4d/pool
I0403 15:39:36.133424  3332 net.cpp:141] Setting up inception_4d/pool
I0403 15:39:36.133448  3332 net.cpp:148] Top shape: 24 512 14 14 (2408448)
I0403 15:39:36.133474  3332 net.cpp:156] Memory required for data: 1144900896
I0403 15:39:36.133488  3332 layer_factory.hpp:77] Creating layer inception_4d/pool_proj
I0403 15:39:36.133512  3332 net.cpp:91] Creating Layer inception_4d/pool_proj
I0403 15:39:36.133529  3332 net.cpp:425] inception_4d/pool_proj <- inception_4d/pool
I0403 15:39:36.133550  3332 net.cpp:399] inception_4d/pool_proj -> inception_4d/pool_proj
I0403 15:39:36.135390  3332 net.cpp:141] Setting up inception_4d/pool_proj
I0403 15:39:36.135419  3332 net.cpp:148] Top shape: 24 64 14 14 (301056)
I0403 15:39:36.135437  3332 net.cpp:156] Memory required for data: 1146105120
I0403 15:39:36.135457  3332 layer_factory.hpp:77] Creating layer inception_4d/relu_pool_proj
I0403 15:39:36.135478  3332 net.cpp:91] Creating Layer inception_4d/relu_pool_proj
I0403 15:39:36.135496  3332 net.cpp:425] inception_4d/relu_pool_proj <- inception_4d/pool_proj
I0403 15:39:36.135514  3332 net.cpp:386] inception_4d/relu_pool_proj -> inception_4d/pool_proj (in-place)
I0403 15:39:36.135699  3332 net.cpp:141] Setting up inception_4d/relu_pool_proj
I0403 15:39:36.135726  3332 net.cpp:148] Top shape: 24 64 14 14 (301056)
I0403 15:39:36.135742  3332 net.cpp:156] Memory required for data: 1147309344
I0403 15:39:36.135757  3332 layer_factory.hpp:77] Creating layer inception_4d/output
I0403 15:39:36.135778  3332 net.cpp:91] Creating Layer inception_4d/output
I0403 15:39:36.135797  3332 net.cpp:425] inception_4d/output <- inception_4d/1x1
I0403 15:39:36.135814  3332 net.cpp:425] inception_4d/output <- inception_4d/3x3
I0403 15:39:36.135831  3332 net.cpp:425] inception_4d/output <- inception_4d/5x5
I0403 15:39:36.135848  3332 net.cpp:425] inception_4d/output <- inception_4d/pool_proj
I0403 15:39:36.135864  3332 net.cpp:399] inception_4d/output -> inception_4d/output
I0403 15:39:36.135915  3332 net.cpp:141] Setting up inception_4d/output
I0403 15:39:36.135938  3332 net.cpp:148] Top shape: 24 528 14 14 (2483712)
I0403 15:39:36.135952  3332 net.cpp:156] Memory required for data: 1157244192
I0403 15:39:36.135967  3332 layer_factory.hpp:77] Creating layer inception_4d/output_inception_4d/output_0_split
I0403 15:39:36.135985  3332 net.cpp:91] Creating Layer inception_4d/output_inception_4d/output_0_split
I0403 15:39:36.136000  3332 net.cpp:425] inception_4d/output_inception_4d/output_0_split <- inception_4d/output
I0403 15:39:36.136020  3332 net.cpp:399] inception_4d/output_inception_4d/output_0_split -> inception_4d/output_inception_4d/output_0_split_0
I0403 15:39:36.136042  3332 net.cpp:399] inception_4d/output_inception_4d/output_0_split -> inception_4d/output_inception_4d/output_0_split_1
I0403 15:39:36.136062  3332 net.cpp:399] inception_4d/output_inception_4d/output_0_split -> inception_4d/output_inception_4d/output_0_split_2
I0403 15:39:36.136083  3332 net.cpp:399] inception_4d/output_inception_4d/output_0_split -> inception_4d/output_inception_4d/output_0_split_3
I0403 15:39:36.136109  3332 net.cpp:399] inception_4d/output_inception_4d/output_0_split -> inception_4d/output_inception_4d/output_0_split_4
I0403 15:39:36.136221  3332 net.cpp:141] Setting up inception_4d/output_inception_4d/output_0_split
I0403 15:39:36.136257  3332 net.cpp:148] Top shape: 24 528 14 14 (2483712)
I0403 15:39:36.136275  3332 net.cpp:148] Top shape: 24 528 14 14 (2483712)
I0403 15:39:36.136291  3332 net.cpp:148] Top shape: 24 528 14 14 (2483712)
I0403 15:39:36.136307  3332 net.cpp:148] Top shape: 24 528 14 14 (2483712)
I0403 15:39:36.136322  3332 net.cpp:148] Top shape: 24 528 14 14 (2483712)
I0403 15:39:36.136337  3332 net.cpp:156] Memory required for data: 1206918432
I0403 15:39:36.136351  3332 layer_factory.hpp:77] Creating layer loss2/ave_pool
I0403 15:39:36.136368  3332 net.cpp:91] Creating Layer loss2/ave_pool
I0403 15:39:36.136385  3332 net.cpp:425] loss2/ave_pool <- inception_4d/output_inception_4d/output_0_split_0
I0403 15:39:36.136406  3332 net.cpp:399] loss2/ave_pool -> loss2/ave_pool
I0403 15:39:36.136718  3332 net.cpp:141] Setting up loss2/ave_pool
I0403 15:39:36.136745  3332 net.cpp:148] Top shape: 24 528 4 4 (202752)
I0403 15:39:36.136760  3332 net.cpp:156] Memory required for data: 1207729440
I0403 15:39:36.136775  3332 layer_factory.hpp:77] Creating layer loss2/conv
I0403 15:39:36.136797  3332 net.cpp:91] Creating Layer loss2/conv
I0403 15:39:36.136816  3332 net.cpp:425] loss2/conv <- loss2/ave_pool
I0403 15:39:36.136837  3332 net.cpp:399] loss2/conv -> loss2/conv
I0403 15:39:36.138782  3332 net.cpp:141] Setting up loss2/conv
I0403 15:39:36.138813  3332 net.cpp:148] Top shape: 24 128 4 4 (49152)
I0403 15:39:36.138842  3332 net.cpp:156] Memory required for data: 1207926048
I0403 15:39:36.138862  3332 layer_factory.hpp:77] Creating layer loss2/relu_conv
I0403 15:39:36.138883  3332 net.cpp:91] Creating Layer loss2/relu_conv
I0403 15:39:36.138902  3332 net.cpp:425] loss2/relu_conv <- loss2/conv
I0403 15:39:36.138921  3332 net.cpp:386] loss2/relu_conv -> loss2/conv (in-place)
I0403 15:39:36.139211  3332 net.cpp:141] Setting up loss2/relu_conv
I0403 15:39:36.139240  3332 net.cpp:148] Top shape: 24 128 4 4 (49152)
I0403 15:39:36.139256  3332 net.cpp:156] Memory required for data: 1208122656
I0403 15:39:36.139271  3332 layer_factory.hpp:77] Creating layer loss2/fc
I0403 15:39:36.139297  3332 net.cpp:91] Creating Layer loss2/fc
I0403 15:39:36.139314  3332 net.cpp:425] loss2/fc <- loss2/conv
I0403 15:39:36.139338  3332 net.cpp:399] loss2/fc -> loss2/fc
I0403 15:39:36.157259  3332 net.cpp:141] Setting up loss2/fc
I0403 15:39:36.157320  3332 net.cpp:148] Top shape: 24 1024 (24576)
I0403 15:39:36.157337  3332 net.cpp:156] Memory required for data: 1208220960
I0403 15:39:36.157358  3332 layer_factory.hpp:77] Creating layer loss2/relu_fc
I0403 15:39:36.157380  3332 net.cpp:91] Creating Layer loss2/relu_fc
I0403 15:39:36.157398  3332 net.cpp:425] loss2/relu_fc <- loss2/fc
I0403 15:39:36.157418  3332 net.cpp:386] loss2/relu_fc -> loss2/fc (in-place)
I0403 15:39:36.157762  3332 net.cpp:141] Setting up loss2/relu_fc
I0403 15:39:36.157789  3332 net.cpp:148] Top shape: 24 1024 (24576)
I0403 15:39:36.157804  3332 net.cpp:156] Memory required for data: 1208319264
I0403 15:39:36.157819  3332 layer_factory.hpp:77] Creating layer loss2/drop_fc
I0403 15:39:36.157838  3332 net.cpp:91] Creating Layer loss2/drop_fc
I0403 15:39:36.157855  3332 net.cpp:425] loss2/drop_fc <- loss2/fc
I0403 15:39:36.157874  3332 net.cpp:386] loss2/drop_fc -> loss2/fc (in-place)
I0403 15:39:36.157928  3332 net.cpp:141] Setting up loss2/drop_fc
I0403 15:39:36.157951  3332 net.cpp:148] Top shape: 24 1024 (24576)
I0403 15:39:36.157965  3332 net.cpp:156] Memory required for data: 1208417568
I0403 15:39:36.157980  3332 layer_factory.hpp:77] Creating layer loss2/classifier_plantvillage
I0403 15:39:36.157999  3332 net.cpp:91] Creating Layer loss2/classifier_plantvillage
I0403 15:39:36.158015  3332 net.cpp:425] loss2/classifier_plantvillage <- loss2/fc
I0403 15:39:36.158037  3332 net.cpp:399] loss2/classifier_plantvillage -> loss2/classifier_plantvillage
I0403 15:39:36.158457  3332 net.cpp:141] Setting up loss2/classifier_plantvillage
I0403 15:39:36.158483  3332 net.cpp:148] Top shape: 24 38 (912)
I0403 15:39:36.158517  3332 net.cpp:156] Memory required for data: 1208421216
I0403 15:39:36.158536  3332 layer_factory.hpp:77] Creating layer loss2/classifier_plantvillage_loss2/classifier_plantvillage_0_split
I0403 15:39:36.158557  3332 net.cpp:91] Creating Layer loss2/classifier_plantvillage_loss2/classifier_plantvillage_0_split
I0403 15:39:36.158574  3332 net.cpp:425] loss2/classifier_plantvillage_loss2/classifier_plantvillage_0_split <- loss2/classifier_plantvillage
I0403 15:39:36.158594  3332 net.cpp:399] loss2/classifier_plantvillage_loss2/classifier_plantvillage_0_split -> loss2/classifier_plantvillage_loss2/classifier_plantvillage_0_split_0
I0403 15:39:36.158615  3332 net.cpp:399] loss2/classifier_plantvillage_loss2/classifier_plantvillage_0_split -> loss2/classifier_plantvillage_loss2/classifier_plantvillage_0_split_1
I0403 15:39:36.158635  3332 net.cpp:399] loss2/classifier_plantvillage_loss2/classifier_plantvillage_0_split -> loss2/classifier_plantvillage_loss2/classifier_plantvillage_0_split_2
I0403 15:39:36.158712  3332 net.cpp:141] Setting up loss2/classifier_plantvillage_loss2/classifier_plantvillage_0_split
I0403 15:39:36.158735  3332 net.cpp:148] Top shape: 24 38 (912)
I0403 15:39:36.158756  3332 net.cpp:148] Top shape: 24 38 (912)
I0403 15:39:36.158771  3332 net.cpp:148] Top shape: 24 38 (912)
I0403 15:39:36.158784  3332 net.cpp:156] Memory required for data: 1208432160
I0403 15:39:36.158799  3332 layer_factory.hpp:77] Creating layer inception_4e/1x1
I0403 15:39:36.158823  3332 net.cpp:91] Creating Layer inception_4e/1x1
I0403 15:39:36.158840  3332 net.cpp:425] inception_4e/1x1 <- inception_4d/output_inception_4d/output_0_split_1
I0403 15:39:36.158859  3332 net.cpp:399] inception_4e/1x1 -> inception_4e/1x1
I0403 15:39:36.160714  3332 net.cpp:141] Setting up inception_4e/1x1
I0403 15:39:36.160745  3332 net.cpp:148] Top shape: 24 256 14 14 (1204224)
I0403 15:39:36.160763  3332 net.cpp:156] Memory required for data: 1213249056
I0403 15:39:36.160783  3332 layer_factory.hpp:77] Creating layer inception_4e/relu_1x1
I0403 15:39:36.160800  3332 net.cpp:91] Creating Layer inception_4e/relu_1x1
I0403 15:39:36.160817  3332 net.cpp:425] inception_4e/relu_1x1 <- inception_4e/1x1
I0403 15:39:36.160835  3332 net.cpp:386] inception_4e/relu_1x1 -> inception_4e/1x1 (in-place)
I0403 15:39:36.161134  3332 net.cpp:141] Setting up inception_4e/relu_1x1
I0403 15:39:36.161161  3332 net.cpp:148] Top shape: 24 256 14 14 (1204224)
I0403 15:39:36.161181  3332 net.cpp:156] Memory required for data: 1218065952
I0403 15:39:36.161198  3332 layer_factory.hpp:77] Creating layer inception_4e/3x3_reduce
I0403 15:39:36.161221  3332 net.cpp:91] Creating Layer inception_4e/3x3_reduce
I0403 15:39:36.161238  3332 net.cpp:425] inception_4e/3x3_reduce <- inception_4d/output_inception_4d/output_0_split_2
I0403 15:39:36.161257  3332 net.cpp:399] inception_4e/3x3_reduce -> inception_4e/3x3_reduce
I0403 15:39:36.163400  3332 net.cpp:141] Setting up inception_4e/3x3_reduce
I0403 15:39:36.163431  3332 net.cpp:148] Top shape: 24 160 14 14 (752640)
I0403 15:39:36.163447  3332 net.cpp:156] Memory required for data: 1221076512
I0403 15:39:36.163468  3332 layer_factory.hpp:77] Creating layer inception_4e/relu_3x3_reduce
I0403 15:39:36.163489  3332 net.cpp:91] Creating Layer inception_4e/relu_3x3_reduce
I0403 15:39:36.163507  3332 net.cpp:425] inception_4e/relu_3x3_reduce <- inception_4e/3x3_reduce
I0403 15:39:36.163524  3332 net.cpp:386] inception_4e/relu_3x3_reduce -> inception_4e/3x3_reduce (in-place)
I0403 15:39:36.163710  3332 net.cpp:141] Setting up inception_4e/relu_3x3_reduce
I0403 15:39:36.163735  3332 net.cpp:148] Top shape: 24 160 14 14 (752640)
I0403 15:39:36.163749  3332 net.cpp:156] Memory required for data: 1224087072
I0403 15:39:36.163765  3332 layer_factory.hpp:77] Creating layer inception_4e/3x3
I0403 15:39:36.163787  3332 net.cpp:91] Creating Layer inception_4e/3x3
I0403 15:39:36.163805  3332 net.cpp:425] inception_4e/3x3 <- inception_4e/3x3_reduce
I0403 15:39:36.163828  3332 net.cpp:399] inception_4e/3x3 -> inception_4e/3x3
I0403 15:39:36.168764  3332 net.cpp:141] Setting up inception_4e/3x3
I0403 15:39:36.168807  3332 net.cpp:148] Top shape: 24 320 14 14 (1505280)
I0403 15:39:36.168823  3332 net.cpp:156] Memory required for data: 1230108192
I0403 15:39:36.168840  3332 layer_factory.hpp:77] Creating layer inception_4e/relu_3x3
I0403 15:39:36.168858  3332 net.cpp:91] Creating Layer inception_4e/relu_3x3
I0403 15:39:36.168874  3332 net.cpp:425] inception_4e/relu_3x3 <- inception_4e/3x3
I0403 15:39:36.168894  3332 net.cpp:386] inception_4e/relu_3x3 -> inception_4e/3x3 (in-place)
I0403 15:39:36.169190  3332 net.cpp:141] Setting up inception_4e/relu_3x3
I0403 15:39:36.169215  3332 net.cpp:148] Top shape: 24 320 14 14 (1505280)
I0403 15:39:36.169230  3332 net.cpp:156] Memory required for data: 1236129312
I0403 15:39:36.169245  3332 layer_factory.hpp:77] Creating layer inception_4e/5x5_reduce
I0403 15:39:36.169267  3332 net.cpp:91] Creating Layer inception_4e/5x5_reduce
I0403 15:39:36.169286  3332 net.cpp:425] inception_4e/5x5_reduce <- inception_4d/output_inception_4d/output_0_split_3
I0403 15:39:36.169306  3332 net.cpp:399] inception_4e/5x5_reduce -> inception_4e/5x5_reduce
I0403 15:39:36.170349  3332 net.cpp:141] Setting up inception_4e/5x5_reduce
I0403 15:39:36.170380  3332 net.cpp:148] Top shape: 24 32 14 14 (150528)
I0403 15:39:36.170398  3332 net.cpp:156] Memory required for data: 1236731424
I0403 15:39:36.170418  3332 layer_factory.hpp:77] Creating layer inception_4e/relu_5x5_reduce
I0403 15:39:36.170436  3332 net.cpp:91] Creating Layer inception_4e/relu_5x5_reduce
I0403 15:39:36.170454  3332 net.cpp:425] inception_4e/relu_5x5_reduce <- inception_4e/5x5_reduce
I0403 15:39:36.170471  3332 net.cpp:386] inception_4e/relu_5x5_reduce -> inception_4e/5x5_reduce (in-place)
I0403 15:39:36.170763  3332 net.cpp:141] Setting up inception_4e/relu_5x5_reduce
I0403 15:39:36.170791  3332 net.cpp:148] Top shape: 24 32 14 14 (150528)
I0403 15:39:36.170806  3332 net.cpp:156] Memory required for data: 1237333536
I0403 15:39:36.170821  3332 layer_factory.hpp:77] Creating layer inception_4e/5x5
I0403 15:39:36.170860  3332 net.cpp:91] Creating Layer inception_4e/5x5
I0403 15:39:36.170877  3332 net.cpp:425] inception_4e/5x5 <- inception_4e/5x5_reduce
I0403 15:39:36.170897  3332 net.cpp:399] inception_4e/5x5 -> inception_4e/5x5
I0403 15:39:36.172706  3332 net.cpp:141] Setting up inception_4e/5x5
I0403 15:39:36.172735  3332 net.cpp:148] Top shape: 24 128 14 14 (602112)
I0403 15:39:36.172751  3332 net.cpp:156] Memory required for data: 1239741984
I0403 15:39:36.172770  3332 layer_factory.hpp:77] Creating layer inception_4e/relu_5x5
I0403 15:39:36.172791  3332 net.cpp:91] Creating Layer inception_4e/relu_5x5
I0403 15:39:36.172816  3332 net.cpp:425] inception_4e/relu_5x5 <- inception_4e/5x5
I0403 15:39:36.172832  3332 net.cpp:386] inception_4e/relu_5x5 -> inception_4e/5x5 (in-place)
I0403 15:39:36.173024  3332 net.cpp:141] Setting up inception_4e/relu_5x5
I0403 15:39:36.173050  3332 net.cpp:148] Top shape: 24 128 14 14 (602112)
I0403 15:39:36.173066  3332 net.cpp:156] Memory required for data: 1242150432
I0403 15:39:36.173081  3332 layer_factory.hpp:77] Creating layer inception_4e/pool
I0403 15:39:36.173099  3332 net.cpp:91] Creating Layer inception_4e/pool
I0403 15:39:36.173115  3332 net.cpp:425] inception_4e/pool <- inception_4d/output_inception_4d/output_0_split_4
I0403 15:39:36.173135  3332 net.cpp:399] inception_4e/pool -> inception_4e/pool
I0403 15:39:36.173219  3332 net.cpp:141] Setting up inception_4e/pool
I0403 15:39:36.173243  3332 net.cpp:148] Top shape: 24 528 14 14 (2483712)
I0403 15:39:36.173259  3332 net.cpp:156] Memory required for data: 1252085280
I0403 15:39:36.173274  3332 layer_factory.hpp:77] Creating layer inception_4e/pool_proj
I0403 15:39:36.173295  3332 net.cpp:91] Creating Layer inception_4e/pool_proj
I0403 15:39:36.173313  3332 net.cpp:425] inception_4e/pool_proj <- inception_4e/pool
I0403 15:39:36.173334  3332 net.cpp:399] inception_4e/pool_proj -> inception_4e/pool_proj
I0403 15:39:36.174860  3332 net.cpp:141] Setting up inception_4e/pool_proj
I0403 15:39:36.174899  3332 net.cpp:148] Top shape: 24 128 14 14 (602112)
I0403 15:39:36.174916  3332 net.cpp:156] Memory required for data: 1254493728
I0403 15:39:36.174933  3332 layer_factory.hpp:77] Creating layer inception_4e/relu_pool_proj
I0403 15:39:36.174954  3332 net.cpp:91] Creating Layer inception_4e/relu_pool_proj
I0403 15:39:36.174973  3332 net.cpp:425] inception_4e/relu_pool_proj <- inception_4e/pool_proj
I0403 15:39:36.174989  3332 net.cpp:386] inception_4e/relu_pool_proj -> inception_4e/pool_proj (in-place)
I0403 15:39:36.175288  3332 net.cpp:141] Setting up inception_4e/relu_pool_proj
I0403 15:39:36.175317  3332 net.cpp:148] Top shape: 24 128 14 14 (602112)
I0403 15:39:36.175333  3332 net.cpp:156] Memory required for data: 1256902176
I0403 15:39:36.175348  3332 layer_factory.hpp:77] Creating layer inception_4e/output
I0403 15:39:36.175367  3332 net.cpp:91] Creating Layer inception_4e/output
I0403 15:39:36.175389  3332 net.cpp:425] inception_4e/output <- inception_4e/1x1
I0403 15:39:36.175407  3332 net.cpp:425] inception_4e/output <- inception_4e/3x3
I0403 15:39:36.175426  3332 net.cpp:425] inception_4e/output <- inception_4e/5x5
I0403 15:39:36.175442  3332 net.cpp:425] inception_4e/output <- inception_4e/pool_proj
I0403 15:39:36.175460  3332 net.cpp:399] inception_4e/output -> inception_4e/output
I0403 15:39:36.175510  3332 net.cpp:141] Setting up inception_4e/output
I0403 15:39:36.175539  3332 net.cpp:148] Top shape: 24 832 14 14 (3913728)
I0403 15:39:36.175555  3332 net.cpp:156] Memory required for data: 1272557088
I0403 15:39:36.175572  3332 layer_factory.hpp:77] Creating layer pool4/3x3_s2
I0403 15:39:36.175590  3332 net.cpp:91] Creating Layer pool4/3x3_s2
I0403 15:39:36.175606  3332 net.cpp:425] pool4/3x3_s2 <- inception_4e/output
I0403 15:39:36.175627  3332 net.cpp:399] pool4/3x3_s2 -> pool4/3x3_s2
I0403 15:39:36.175694  3332 net.cpp:141] Setting up pool4/3x3_s2
I0403 15:39:36.175724  3332 net.cpp:148] Top shape: 24 832 7 7 (978432)
I0403 15:39:36.175740  3332 net.cpp:156] Memory required for data: 1276470816
I0403 15:39:36.175755  3332 layer_factory.hpp:77] Creating layer pool4/3x3_s2_pool4/3x3_s2_0_split
I0403 15:39:36.175773  3332 net.cpp:91] Creating Layer pool4/3x3_s2_pool4/3x3_s2_0_split
I0403 15:39:36.175789  3332 net.cpp:425] pool4/3x3_s2_pool4/3x3_s2_0_split <- pool4/3x3_s2
I0403 15:39:36.175807  3332 net.cpp:399] pool4/3x3_s2_pool4/3x3_s2_0_split -> pool4/3x3_s2_pool4/3x3_s2_0_split_0
I0403 15:39:36.175829  3332 net.cpp:399] pool4/3x3_s2_pool4/3x3_s2_0_split -> pool4/3x3_s2_pool4/3x3_s2_0_split_1
I0403 15:39:36.175854  3332 net.cpp:399] pool4/3x3_s2_pool4/3x3_s2_0_split -> pool4/3x3_s2_pool4/3x3_s2_0_split_2
I0403 15:39:36.175878  3332 net.cpp:399] pool4/3x3_s2_pool4/3x3_s2_0_split -> pool4/3x3_s2_pool4/3x3_s2_0_split_3
I0403 15:39:36.175971  3332 net.cpp:141] Setting up pool4/3x3_s2_pool4/3x3_s2_0_split
I0403 15:39:36.175995  3332 net.cpp:148] Top shape: 24 832 7 7 (978432)
I0403 15:39:36.176012  3332 net.cpp:148] Top shape: 24 832 7 7 (978432)
I0403 15:39:36.176030  3332 net.cpp:148] Top shape: 24 832 7 7 (978432)
I0403 15:39:36.176048  3332 net.cpp:148] Top shape: 24 832 7 7 (978432)
I0403 15:39:36.176061  3332 net.cpp:156] Memory required for data: 1292125728
I0403 15:39:36.176076  3332 layer_factory.hpp:77] Creating layer inception_5a/1x1
I0403 15:39:36.176098  3332 net.cpp:91] Creating Layer inception_5a/1x1
I0403 15:39:36.176118  3332 net.cpp:425] inception_5a/1x1 <- pool4/3x3_s2_pool4/3x3_s2_0_split_0
I0403 15:39:36.176141  3332 net.cpp:399] inception_5a/1x1 -> inception_5a/1x1
I0403 15:39:36.178992  3332 net.cpp:141] Setting up inception_5a/1x1
I0403 15:39:36.179021  3332 net.cpp:148] Top shape: 24 256 7 7 (301056)
I0403 15:39:36.179039  3332 net.cpp:156] Memory required for data: 1293329952
I0403 15:39:36.179056  3332 layer_factory.hpp:77] Creating layer inception_5a/relu_1x1
I0403 15:39:36.179076  3332 net.cpp:91] Creating Layer inception_5a/relu_1x1
I0403 15:39:36.179095  3332 net.cpp:425] inception_5a/relu_1x1 <- inception_5a/1x1
I0403 15:39:36.179112  3332 net.cpp:386] inception_5a/relu_1x1 -> inception_5a/1x1 (in-place)
I0403 15:39:36.179446  3332 net.cpp:141] Setting up inception_5a/relu_1x1
I0403 15:39:36.179484  3332 net.cpp:148] Top shape: 24 256 7 7 (301056)
I0403 15:39:36.179499  3332 net.cpp:156] Memory required for data: 1294534176
I0403 15:39:36.179514  3332 layer_factory.hpp:77] Creating layer inception_5a/3x3_reduce
I0403 15:39:36.179536  3332 net.cpp:91] Creating Layer inception_5a/3x3_reduce
I0403 15:39:36.179555  3332 net.cpp:425] inception_5a/3x3_reduce <- pool4/3x3_s2_pool4/3x3_s2_0_split_1
I0403 15:39:36.179575  3332 net.cpp:399] inception_5a/3x3_reduce -> inception_5a/3x3_reduce
I0403 15:39:36.182828  3332 net.cpp:141] Setting up inception_5a/3x3_reduce
I0403 15:39:36.182858  3332 net.cpp:148] Top shape: 24 160 7 7 (188160)
I0403 15:39:36.182874  3332 net.cpp:156] Memory required for data: 1295286816
I0403 15:39:36.182893  3332 layer_factory.hpp:77] Creating layer inception_5a/relu_3x3_reduce
I0403 15:39:36.182911  3332 net.cpp:91] Creating Layer inception_5a/relu_3x3_reduce
I0403 15:39:36.182930  3332 net.cpp:425] inception_5a/relu_3x3_reduce <- inception_5a/3x3_reduce
I0403 15:39:36.182947  3332 net.cpp:386] inception_5a/relu_3x3_reduce -> inception_5a/3x3_reduce (in-place)
I0403 15:39:36.183128  3332 net.cpp:141] Setting up inception_5a/relu_3x3_reduce
I0403 15:39:36.183152  3332 net.cpp:148] Top shape: 24 160 7 7 (188160)
I0403 15:39:36.183167  3332 net.cpp:156] Memory required for data: 1296039456
I0403 15:39:36.183187  3332 layer_factory.hpp:77] Creating layer inception_5a/3x3
I0403 15:39:36.183212  3332 net.cpp:91] Creating Layer inception_5a/3x3
I0403 15:39:36.183230  3332 net.cpp:425] inception_5a/3x3 <- inception_5a/3x3_reduce
I0403 15:39:36.183253  3332 net.cpp:399] inception_5a/3x3 -> inception_5a/3x3
I0403 15:39:36.189841  3332 net.cpp:141] Setting up inception_5a/3x3
I0403 15:39:36.189877  3332 net.cpp:148] Top shape: 24 320 7 7 (376320)
I0403 15:39:36.189894  3332 net.cpp:156] Memory required for data: 1297544736
I0403 15:39:36.189913  3332 layer_factory.hpp:77] Creating layer inception_5a/relu_3x3
I0403 15:39:36.189932  3332 net.cpp:91] Creating Layer inception_5a/relu_3x3
I0403 15:39:36.189949  3332 net.cpp:425] inception_5a/relu_3x3 <- inception_5a/3x3
I0403 15:39:36.189966  3332 net.cpp:386] inception_5a/relu_3x3 -> inception_5a/3x3 (in-place)
I0403 15:39:36.190264  3332 net.cpp:141] Setting up inception_5a/relu_3x3
I0403 15:39:36.190289  3332 net.cpp:148] Top shape: 24 320 7 7 (376320)
I0403 15:39:36.190304  3332 net.cpp:156] Memory required for data: 1299050016
I0403 15:39:36.190318  3332 layer_factory.hpp:77] Creating layer inception_5a/5x5_reduce
I0403 15:39:36.190340  3332 net.cpp:91] Creating Layer inception_5a/5x5_reduce
I0403 15:39:36.190357  3332 net.cpp:425] inception_5a/5x5_reduce <- pool4/3x3_s2_pool4/3x3_s2_0_split_2
I0403 15:39:36.190382  3332 net.cpp:399] inception_5a/5x5_reduce -> inception_5a/5x5_reduce
I0403 15:39:36.191531  3332 net.cpp:141] Setting up inception_5a/5x5_reduce
I0403 15:39:36.191560  3332 net.cpp:148] Top shape: 24 32 7 7 (37632)
I0403 15:39:36.191575  3332 net.cpp:156] Memory required for data: 1299200544
I0403 15:39:36.191592  3332 layer_factory.hpp:77] Creating layer inception_5a/relu_5x5_reduce
I0403 15:39:36.191612  3332 net.cpp:91] Creating Layer inception_5a/relu_5x5_reduce
I0403 15:39:36.191629  3332 net.cpp:425] inception_5a/relu_5x5_reduce <- inception_5a/5x5_reduce
I0403 15:39:36.191647  3332 net.cpp:386] inception_5a/relu_5x5_reduce -> inception_5a/5x5_reduce (in-place)
I0403 15:39:36.191939  3332 net.cpp:141] Setting up inception_5a/relu_5x5_reduce
I0403 15:39:36.191964  3332 net.cpp:148] Top shape: 24 32 7 7 (37632)
I0403 15:39:36.191978  3332 net.cpp:156] Memory required for data: 1299351072
I0403 15:39:36.191993  3332 layer_factory.hpp:77] Creating layer inception_5a/5x5
I0403 15:39:36.192018  3332 net.cpp:91] Creating Layer inception_5a/5x5
I0403 15:39:36.192034  3332 net.cpp:425] inception_5a/5x5 <- inception_5a/5x5_reduce
I0403 15:39:36.192054  3332 net.cpp:399] inception_5a/5x5 -> inception_5a/5x5
I0403 15:39:36.193743  3332 net.cpp:141] Setting up inception_5a/5x5
I0403 15:39:36.193785  3332 net.cpp:148] Top shape: 24 128 7 7 (150528)
I0403 15:39:36.193801  3332 net.cpp:156] Memory required for data: 1299953184
I0403 15:39:36.193833  3332 layer_factory.hpp:77] Creating layer inception_5a/relu_5x5
I0403 15:39:36.193855  3332 net.cpp:91] Creating Layer inception_5a/relu_5x5
I0403 15:39:36.193871  3332 net.cpp:425] inception_5a/relu_5x5 <- inception_5a/5x5
I0403 15:39:36.193888  3332 net.cpp:386] inception_5a/relu_5x5 -> inception_5a/5x5 (in-place)
I0403 15:39:36.194080  3332 net.cpp:141] Setting up inception_5a/relu_5x5
I0403 15:39:36.194108  3332 net.cpp:148] Top shape: 24 128 7 7 (150528)
I0403 15:39:36.194135  3332 net.cpp:156] Memory required for data: 1300555296
I0403 15:39:36.194150  3332 layer_factory.hpp:77] Creating layer inception_5a/pool
I0403 15:39:36.194169  3332 net.cpp:91] Creating Layer inception_5a/pool
I0403 15:39:36.194188  3332 net.cpp:425] inception_5a/pool <- pool4/3x3_s2_pool4/3x3_s2_0_split_3
I0403 15:39:36.194210  3332 net.cpp:399] inception_5a/pool -> inception_5a/pool
I0403 15:39:36.194281  3332 net.cpp:141] Setting up inception_5a/pool
I0403 15:39:36.194305  3332 net.cpp:148] Top shape: 24 832 7 7 (978432)
I0403 15:39:36.194319  3332 net.cpp:156] Memory required for data: 1304469024
I0403 15:39:36.194334  3332 layer_factory.hpp:77] Creating layer inception_5a/pool_proj
I0403 15:39:36.194356  3332 net.cpp:91] Creating Layer inception_5a/pool_proj
I0403 15:39:36.194373  3332 net.cpp:425] inception_5a/pool_proj <- inception_5a/pool
I0403 15:39:36.194393  3332 net.cpp:399] inception_5a/pool_proj -> inception_5a/pool_proj
I0403 15:39:36.196671  3332 net.cpp:141] Setting up inception_5a/pool_proj
I0403 15:39:36.196702  3332 net.cpp:148] Top shape: 24 128 7 7 (150528)
I0403 15:39:36.196717  3332 net.cpp:156] Memory required for data: 1305071136
I0403 15:39:36.196737  3332 layer_factory.hpp:77] Creating layer inception_5a/relu_pool_proj
I0403 15:39:36.196758  3332 net.cpp:91] Creating Layer inception_5a/relu_pool_proj
I0403 15:39:36.196774  3332 net.cpp:425] inception_5a/relu_pool_proj <- inception_5a/pool_proj
I0403 15:39:36.196792  3332 net.cpp:386] inception_5a/relu_pool_proj -> inception_5a/pool_proj (in-place)
I0403 15:39:36.197083  3332 net.cpp:141] Setting up inception_5a/relu_pool_proj
I0403 15:39:36.197109  3332 net.cpp:148] Top shape: 24 128 7 7 (150528)
I0403 15:39:36.197124  3332 net.cpp:156] Memory required for data: 1305673248
I0403 15:39:36.197139  3332 layer_factory.hpp:77] Creating layer inception_5a/output
I0403 15:39:36.197155  3332 net.cpp:91] Creating Layer inception_5a/output
I0403 15:39:36.197170  3332 net.cpp:425] inception_5a/output <- inception_5a/1x1
I0403 15:39:36.197192  3332 net.cpp:425] inception_5a/output <- inception_5a/3x3
I0403 15:39:36.197209  3332 net.cpp:425] inception_5a/output <- inception_5a/5x5
I0403 15:39:36.197224  3332 net.cpp:425] inception_5a/output <- inception_5a/pool_proj
I0403 15:39:36.197243  3332 net.cpp:399] inception_5a/output -> inception_5a/output
I0403 15:39:36.197294  3332 net.cpp:141] Setting up inception_5a/output
I0403 15:39:36.197316  3332 net.cpp:148] Top shape: 24 832 7 7 (978432)
I0403 15:39:36.197330  3332 net.cpp:156] Memory required for data: 1309586976
I0403 15:39:36.197345  3332 layer_factory.hpp:77] Creating layer inception_5a/output_inception_5a/output_0_split
I0403 15:39:36.197361  3332 net.cpp:91] Creating Layer inception_5a/output_inception_5a/output_0_split
I0403 15:39:36.197376  3332 net.cpp:425] inception_5a/output_inception_5a/output_0_split <- inception_5a/output
I0403 15:39:36.197396  3332 net.cpp:399] inception_5a/output_inception_5a/output_0_split -> inception_5a/output_inception_5a/output_0_split_0
I0403 15:39:36.197415  3332 net.cpp:399] inception_5a/output_inception_5a/output_0_split -> inception_5a/output_inception_5a/output_0_split_1
I0403 15:39:36.197435  3332 net.cpp:399] inception_5a/output_inception_5a/output_0_split -> inception_5a/output_inception_5a/output_0_split_2
I0403 15:39:36.197455  3332 net.cpp:399] inception_5a/output_inception_5a/output_0_split -> inception_5a/output_inception_5a/output_0_split_3
I0403 15:39:36.197566  3332 net.cpp:141] Setting up inception_5a/output_inception_5a/output_0_split
I0403 15:39:36.197589  3332 net.cpp:148] Top shape: 24 832 7 7 (978432)
I0403 15:39:36.197605  3332 net.cpp:148] Top shape: 24 832 7 7 (978432)
I0403 15:39:36.197620  3332 net.cpp:148] Top shape: 24 832 7 7 (978432)
I0403 15:39:36.197634  3332 net.cpp:148] Top shape: 24 832 7 7 (978432)
I0403 15:39:36.197649  3332 net.cpp:156] Memory required for data: 1325241888
I0403 15:39:36.197662  3332 layer_factory.hpp:77] Creating layer inception_5b/1x1
I0403 15:39:36.197685  3332 net.cpp:91] Creating Layer inception_5b/1x1
I0403 15:39:36.197702  3332 net.cpp:425] inception_5b/1x1 <- inception_5a/output_inception_5a/output_0_split_0
I0403 15:39:36.197721  3332 net.cpp:399] inception_5b/1x1 -> inception_5b/1x1
I0403 15:39:36.201414  3332 net.cpp:141] Setting up inception_5b/1x1
I0403 15:39:36.201444  3332 net.cpp:148] Top shape: 24 384 7 7 (451584)
I0403 15:39:36.201462  3332 net.cpp:156] Memory required for data: 1327048224
I0403 15:39:36.201480  3332 layer_factory.hpp:77] Creating layer inception_5b/relu_1x1
I0403 15:39:36.201501  3332 net.cpp:91] Creating Layer inception_5b/relu_1x1
I0403 15:39:36.201519  3332 net.cpp:425] inception_5b/relu_1x1 <- inception_5b/1x1
I0403 15:39:36.201536  3332 net.cpp:386] inception_5b/relu_1x1 -> inception_5b/1x1 (in-place)
I0403 15:39:36.201834  3332 net.cpp:141] Setting up inception_5b/relu_1x1
I0403 15:39:36.201861  3332 net.cpp:148] Top shape: 24 384 7 7 (451584)
I0403 15:39:36.201877  3332 net.cpp:156] Memory required for data: 1328854560
I0403 15:39:36.201892  3332 layer_factory.hpp:77] Creating layer inception_5b/3x3_reduce
I0403 15:39:36.201915  3332 net.cpp:91] Creating Layer inception_5b/3x3_reduce
I0403 15:39:36.201932  3332 net.cpp:425] inception_5b/3x3_reduce <- inception_5a/output_inception_5a/output_0_split_1
I0403 15:39:36.201953  3332 net.cpp:399] inception_5b/3x3_reduce -> inception_5b/3x3_reduce
I0403 15:39:36.204594  3332 net.cpp:141] Setting up inception_5b/3x3_reduce
I0403 15:39:36.204624  3332 net.cpp:148] Top shape: 24 192 7 7 (225792)
I0403 15:39:36.204641  3332 net.cpp:156] Memory required for data: 1329757728
I0403 15:39:36.204659  3332 layer_factory.hpp:77] Creating layer inception_5b/relu_3x3_reduce
I0403 15:39:36.204677  3332 net.cpp:91] Creating Layer inception_5b/relu_3x3_reduce
I0403 15:39:36.204694  3332 net.cpp:425] inception_5b/relu_3x3_reduce <- inception_5b/3x3_reduce
I0403 15:39:36.204712  3332 net.cpp:386] inception_5b/relu_3x3_reduce -> inception_5b/3x3_reduce (in-place)
I0403 15:39:36.204901  3332 net.cpp:141] Setting up inception_5b/relu_3x3_reduce
I0403 15:39:36.204926  3332 net.cpp:148] Top shape: 24 192 7 7 (225792)
I0403 15:39:36.204939  3332 net.cpp:156] Memory required for data: 1330660896
I0403 15:39:36.204953  3332 layer_factory.hpp:77] Creating layer inception_5b/3x3
I0403 15:39:36.204974  3332 net.cpp:91] Creating Layer inception_5b/3x3
I0403 15:39:36.204991  3332 net.cpp:425] inception_5b/3x3 <- inception_5b/3x3_reduce
I0403 15:39:36.205011  3332 net.cpp:399] inception_5b/3x3 -> inception_5b/3x3
I0403 15:39:36.211576  3332 net.cpp:141] Setting up inception_5b/3x3
I0403 15:39:36.211604  3332 net.cpp:148] Top shape: 24 384 7 7 (451584)
I0403 15:39:36.211621  3332 net.cpp:156] Memory required for data: 1332467232
I0403 15:39:36.211639  3332 layer_factory.hpp:77] Creating layer inception_5b/relu_3x3
I0403 15:39:36.211661  3332 net.cpp:91] Creating Layer inception_5b/relu_3x3
I0403 15:39:36.211679  3332 net.cpp:425] inception_5b/relu_3x3 <- inception_5b/3x3
I0403 15:39:36.211697  3332 net.cpp:386] inception_5b/relu_3x3 -> inception_5b/3x3 (in-place)
I0403 15:39:36.211997  3332 net.cpp:141] Setting up inception_5b/relu_3x3
I0403 15:39:36.212023  3332 net.cpp:148] Top shape: 24 384 7 7 (451584)
I0403 15:39:36.212038  3332 net.cpp:156] Memory required for data: 1334273568
I0403 15:39:36.212054  3332 layer_factory.hpp:77] Creating layer inception_5b/5x5_reduce
I0403 15:39:36.212091  3332 net.cpp:91] Creating Layer inception_5b/5x5_reduce
I0403 15:39:36.212111  3332 net.cpp:425] inception_5b/5x5_reduce <- inception_5a/output_inception_5a/output_0_split_2
I0403 15:39:36.212133  3332 net.cpp:399] inception_5b/5x5_reduce -> inception_5b/5x5_reduce
I0403 15:39:36.213500  3332 net.cpp:141] Setting up inception_5b/5x5_reduce
I0403 15:39:36.213529  3332 net.cpp:148] Top shape: 24 48 7 7 (56448)
I0403 15:39:36.213546  3332 net.cpp:156] Memory required for data: 1334499360
I0403 15:39:36.213577  3332 layer_factory.hpp:77] Creating layer inception_5b/relu_5x5_reduce
I0403 15:39:36.213598  3332 net.cpp:91] Creating Layer inception_5b/relu_5x5_reduce
I0403 15:39:36.213614  3332 net.cpp:425] inception_5b/relu_5x5_reduce <- inception_5b/5x5_reduce
I0403 15:39:36.213632  3332 net.cpp:386] inception_5b/relu_5x5_reduce -> inception_5b/5x5_reduce (in-place)
I0403 15:39:36.214007  3332 net.cpp:141] Setting up inception_5b/relu_5x5_reduce
I0403 15:39:36.214035  3332 net.cpp:148] Top shape: 24 48 7 7 (56448)
I0403 15:39:36.214049  3332 net.cpp:156] Memory required for data: 1334725152
I0403 15:39:36.214064  3332 layer_factory.hpp:77] Creating layer inception_5b/5x5
I0403 15:39:36.214085  3332 net.cpp:91] Creating Layer inception_5b/5x5
I0403 15:39:36.214102  3332 net.cpp:425] inception_5b/5x5 <- inception_5b/5x5_reduce
I0403 15:39:36.214120  3332 net.cpp:399] inception_5b/5x5 -> inception_5b/5x5
I0403 15:39:36.216207  3332 net.cpp:141] Setting up inception_5b/5x5
I0403 15:39:36.216235  3332 net.cpp:148] Top shape: 24 128 7 7 (150528)
I0403 15:39:36.216251  3332 net.cpp:156] Memory required for data: 1335327264
I0403 15:39:36.216271  3332 layer_factory.hpp:77] Creating layer inception_5b/relu_5x5
I0403 15:39:36.216294  3332 net.cpp:91] Creating Layer inception_5b/relu_5x5
I0403 15:39:36.216311  3332 net.cpp:425] inception_5b/relu_5x5 <- inception_5b/5x5
I0403 15:39:36.216330  3332 net.cpp:386] inception_5b/relu_5x5 -> inception_5b/5x5 (in-place)
I0403 15:39:36.216526  3332 net.cpp:141] Setting up inception_5b/relu_5x5
I0403 15:39:36.216552  3332 net.cpp:148] Top shape: 24 128 7 7 (150528)
I0403 15:39:36.216568  3332 net.cpp:156] Memory required for data: 1335929376
I0403 15:39:36.216583  3332 layer_factory.hpp:77] Creating layer inception_5b/pool
I0403 15:39:36.216601  3332 net.cpp:91] Creating Layer inception_5b/pool
I0403 15:39:36.216619  3332 net.cpp:425] inception_5b/pool <- inception_5a/output_inception_5a/output_0_split_3
I0403 15:39:36.216639  3332 net.cpp:399] inception_5b/pool -> inception_5b/pool
I0403 15:39:36.216711  3332 net.cpp:141] Setting up inception_5b/pool
I0403 15:39:36.216734  3332 net.cpp:148] Top shape: 24 832 7 7 (978432)
I0403 15:39:36.216749  3332 net.cpp:156] Memory required for data: 1339843104
I0403 15:39:36.216764  3332 layer_factory.hpp:77] Creating layer inception_5b/pool_proj
I0403 15:39:36.216789  3332 net.cpp:91] Creating Layer inception_5b/pool_proj
I0403 15:39:36.216809  3332 net.cpp:425] inception_5b/pool_proj <- inception_5b/pool
I0403 15:39:36.216828  3332 net.cpp:399] inception_5b/pool_proj -> inception_5b/pool_proj
I0403 15:39:36.219168  3332 net.cpp:141] Setting up inception_5b/pool_proj
I0403 15:39:36.219205  3332 net.cpp:148] Top shape: 24 128 7 7 (150528)
I0403 15:39:36.219221  3332 net.cpp:156] Memory required for data: 1340445216
I0403 15:39:36.219239  3332 layer_factory.hpp:77] Creating layer inception_5b/relu_pool_proj
I0403 15:39:36.219259  3332 net.cpp:91] Creating Layer inception_5b/relu_pool_proj
I0403 15:39:36.219279  3332 net.cpp:425] inception_5b/relu_pool_proj <- inception_5b/pool_proj
I0403 15:39:36.219296  3332 net.cpp:386] inception_5b/relu_pool_proj -> inception_5b/pool_proj (in-place)
I0403 15:39:36.219601  3332 net.cpp:141] Setting up inception_5b/relu_pool_proj
I0403 15:39:36.219629  3332 net.cpp:148] Top shape: 24 128 7 7 (150528)
I0403 15:39:36.219643  3332 net.cpp:156] Memory required for data: 1341047328
I0403 15:39:36.219658  3332 layer_factory.hpp:77] Creating layer inception_5b/output
I0403 15:39:36.219679  3332 net.cpp:91] Creating Layer inception_5b/output
I0403 15:39:36.219709  3332 net.cpp:425] inception_5b/output <- inception_5b/1x1
I0403 15:39:36.219727  3332 net.cpp:425] inception_5b/output <- inception_5b/3x3
I0403 15:39:36.219743  3332 net.cpp:425] inception_5b/output <- inception_5b/5x5
I0403 15:39:36.219759  3332 net.cpp:425] inception_5b/output <- inception_5b/pool_proj
I0403 15:39:36.219779  3332 net.cpp:399] inception_5b/output -> inception_5b/output
I0403 15:39:36.219830  3332 net.cpp:141] Setting up inception_5b/output
I0403 15:39:36.219856  3332 net.cpp:148] Top shape: 24 1024 7 7 (1204224)
I0403 15:39:36.219871  3332 net.cpp:156] Memory required for data: 1345864224
I0403 15:39:36.219885  3332 layer_factory.hpp:77] Creating layer pool5/7x7_s1
I0403 15:39:36.219903  3332 net.cpp:91] Creating Layer pool5/7x7_s1
I0403 15:39:36.219918  3332 net.cpp:425] pool5/7x7_s1 <- inception_5b/output
I0403 15:39:36.219939  3332 net.cpp:399] pool5/7x7_s1 -> pool5/7x7_s1
I0403 15:39:36.220158  3332 net.cpp:141] Setting up pool5/7x7_s1
I0403 15:39:36.220188  3332 net.cpp:148] Top shape: 24 1024 1 1 (24576)
I0403 15:39:36.220206  3332 net.cpp:156] Memory required for data: 1345962528
I0403 15:39:36.220219  3332 layer_factory.hpp:77] Creating layer pool5/drop_7x7_s1
I0403 15:39:36.220240  3332 net.cpp:91] Creating Layer pool5/drop_7x7_s1
I0403 15:39:36.220257  3332 net.cpp:425] pool5/drop_7x7_s1 <- pool5/7x7_s1
I0403 15:39:36.220275  3332 net.cpp:386] pool5/drop_7x7_s1 -> pool5/7x7_s1 (in-place)
I0403 15:39:36.220327  3332 net.cpp:141] Setting up pool5/drop_7x7_s1
I0403 15:39:36.220350  3332 net.cpp:148] Top shape: 24 1024 1 1 (24576)
I0403 15:39:36.220366  3332 net.cpp:156] Memory required for data: 1346060832
I0403 15:39:36.220379  3332 layer_factory.hpp:77] Creating layer loss3/classifier_plantvillage
I0403 15:39:36.220401  3332 net.cpp:91] Creating Layer loss3/classifier_plantvillage
I0403 15:39:36.220418  3332 net.cpp:425] loss3/classifier_plantvillage <- pool5/7x7_s1
I0403 15:39:36.220437  3332 net.cpp:399] loss3/classifier_plantvillage -> loss3/classifier_plantvillage
I0403 15:39:36.220867  3332 net.cpp:141] Setting up loss3/classifier_plantvillage
I0403 15:39:36.220891  3332 net.cpp:148] Top shape: 24 38 (912)
I0403 15:39:36.220906  3332 net.cpp:156] Memory required for data: 1346064480
I0403 15:39:36.220923  3332 layer_factory.hpp:77] Creating layer loss3/classifier_plantvillage_loss3/classifier_plantvillage_0_split
I0403 15:39:36.220942  3332 net.cpp:91] Creating Layer loss3/classifier_plantvillage_loss3/classifier_plantvillage_0_split
I0403 15:39:36.220958  3332 net.cpp:425] loss3/classifier_plantvillage_loss3/classifier_plantvillage_0_split <- loss3/classifier_plantvillage
I0403 15:39:36.220978  3332 net.cpp:399] loss3/classifier_plantvillage_loss3/classifier_plantvillage_0_split -> loss3/classifier_plantvillage_loss3/classifier_plantvillage_0_split_0
I0403 15:39:36.221000  3332 net.cpp:399] loss3/classifier_plantvillage_loss3/classifier_plantvillage_0_split -> loss3/classifier_plantvillage_loss3/classifier_plantvillage_0_split_1
I0403 15:39:36.221020  3332 net.cpp:399] loss3/classifier_plantvillage_loss3/classifier_plantvillage_0_split -> loss3/classifier_plantvillage_loss3/classifier_plantvillage_0_split_2
I0403 15:39:36.221040  3332 net.cpp:399] loss3/classifier_plantvillage_loss3/classifier_plantvillage_0_split -> loss3/classifier_plantvillage_loss3/classifier_plantvillage_0_split_3
I0403 15:39:36.221145  3332 net.cpp:141] Setting up loss3/classifier_plantvillage_loss3/classifier_plantvillage_0_split
I0403 15:39:36.221170  3332 net.cpp:148] Top shape: 24 38 (912)
I0403 15:39:36.221194  3332 net.cpp:148] Top shape: 24 38 (912)
I0403 15:39:36.221210  3332 net.cpp:148] Top shape: 24 38 (912)
I0403 15:39:36.221225  3332 net.cpp:148] Top shape: 24 38 (912)
I0403 15:39:36.221240  3332 net.cpp:156] Memory required for data: 1346079072
I0403 15:39:36.221253  3332 layer_factory.hpp:77] Creating layer loss1/loss
I0403 15:39:36.221276  3332 net.cpp:91] Creating Layer loss1/loss
I0403 15:39:36.221293  3332 net.cpp:425] loss1/loss <- loss1/classifier_plantvillage_loss1/classifier_plantvillage_0_split_0
I0403 15:39:36.221324  3332 net.cpp:425] loss1/loss <- label_data_1_split_0
…
