…
I0403 15:18:27.548241  2933 net.cpp:313] The NetState phase (1) differed from the phase (0) specified by a rule in layer data
I0403 15:18:27.549455  2933 net.cpp:49] Initializing net from parameters: 
state {
  phase: TEST
}
layer {
  name: "data"
  type: "Data"
  top: "data"
  top: "label"
  include {
    phase: TEST
  }
  transform_param {
    mirror: false
    crop_size: 224
    mean_file: "/home/mohanty/data/final_dataset/lmdb/segmented-60-40/mean.binaryproto"
  }
  data_param {
    source: "/home/mohanty/data/final_dataset/lmdb/segmented-60-40/test_db"
    batch_size: 24
    backend: LMDB
  }
}
layer {
  name: "conv1/7x7_s2"
  type: "Convolution"
  bottom: "data"
  top: "conv1/7x7_s2"
  param {
    lr_mult: 1
    decay_mult: 1
  }
  param {
    lr_mult: 2
    decay_mult: 0
  }
  convolution_param {
    num_output: 64
    pad: 3
    kernel_size: 7
    stride: 2
    weight_filler {
      type: "xavier"
      std: 0.1
    }
    bias_filler {
      type: "constant"
      value: 0.2
    }
  }
}
layer {
  name: "conv1/relu_7x7"
  type: "ReLU"
  bottom: "conv1/7x7_s2"
  top: "conv1/7x7_s2"
}
layer {
  name: "pool1/3x3_s2"
  type: "Pooling"
  bottom: "conv1/7x7_s2"
  top: "pool1/3x3_s2"
  pooling_param {
    pool: MAX
    kernel_size: 3
    stride: 2
  }
}
layer {
  name: "pool1/norm1"
  type: "LRN"
  bottom: "pool1/3x3_s2"
  top: "pool1/norm1"
  lrn_param {
    local_size: 5
    alpha: 0.0001
    beta: 0.75
  }
}
layer {
  name: "conv2/3x3_reduce"
  type: "Convolution"
  bottom: "pool1/norm1"
  top: "conv2/3x3_reduce"
  param {
    lr_mult: 1
    decay_mult: 1
  }
  param {
    lr_mult: 2
    decay_mult: 0
  }
  convolution_param {
    num_output: 64
    kernel_size: 1
    weight_filler {
      type: "xavier"
      std: 0.1
    }
    bias_filler {
      type: "constant"
      value: 0.2
    }
  }
}
layer {
  name: "conv2/relu_3x3_reduce"
  type: "ReLU"
  bottom: "conv2/3x3_reduce"
  top: "conv2/3x3_reduce"
}
layer {
  name: "conv2/3x3"
  type: "Convolution"
  bottom: "conv2/3x3_reduce"
  top: "conv2/3x3"
  param {
    lr_mult: 1
    decay_mult: 1
  }
  param {
    lr_mult: 2
    decay_mult: 0
  }
  convolution_param {
    num_output: 192
    pad: 1
    kernel_size: 3
    weight_filler {
      type: "xavier"
      std: 0.03
    }
    bias_filler {
      type: "constant"
      value: 0.2
    }
  }
}
layer {
  name: "conv2/relu_3x3"
  type: "ReLU"
  bottom: "conv2/3x3"
  top: "conv2/3x3"
}
layer {
  name: "conv2/norm2"
  type: "LRN"
  bottom: "conv2/3x3"
  top: "conv2/norm2"
  lrn_param {
    local_size: 5
    alpha: 0.0001
    beta: 0.75
  }
}
layer {
  name: "pool2/3x3_s2"
  type: "Pooling"
  bottom: "conv2/norm2"
  top: "pool2/3x3_s2"
  pooling_param {
    pool: MAX
    kernel_size: 3
    stride: 2
  }
}
layer {
  name: "inception_3a/1x1"
  type: "Convolution"
  bottom: "pool2/3x3_s2"
  top: "inception_3a/1x1"
  param {
    lr_mult: 1
    decay_mult: 1
  }
  param {
    lr_mult: 2
    decay_mult: 0
  }
  convolution_param {
    num_output: 64
    kernel_size: 1
    weight_filler {
      type: "xavier"
      std: 0.03
    }
    bias_filler {
      type: "constant"
      value: 0.2
    }
  }
}
layer {
  name: "inception_3a/relu_1x1"
  type: "ReLU"
  bottom: "inception_3a/1x1"
  top: "inception_3a/1x1"
}
layer {
  name: "inception_3a/3x3_reduce"
  type: "Convolution"
  bottom: "pool2/3x3_s2"
  top: "inception_3a/3x3_reduce"
  param {
    lr_mult: 1
    decay_mult: 1
  }
  param {
    lr_mult: 2
    decay_mult: 0
  }
  convolution_param {
    num_output: 96
    kernel_size: 1
    weight_filler {
      type: "xavier"
      std: 0.09
    }
    bias_filler {
      type: "constant"
      value: 0.2
    }
  }
}
layer {
  name: "inception_3a/relu_3x3_reduce"
  type: "ReLU"
  bottom: "inception_3a/3x3_reduce"
  top: "inception_3a/3x3_reduce"
}
layer {
  name: "inception_3a/3x3"
  type: "Convolution"
  bottom: "inception_3a/3x3_reduce"
  top: "inception_3a/3x3"
  param {
    lr_mult: 1
    decay_mult: 1
  }
  param {
    lr_mult: 2
    decay_mult: 0
  }
  convolution_param {
    num_output: 128
    pad: 1
    kernel_size: 3
    weight_filler {
      type: "xavier"
      std: 0.03
    }
    bias_filler {
      type: "constant"
      value: 0.2
    }
  }
}
layer {
  name: "inception_3a/relu_3x3"
  type: "ReLU"
  bottom: "inception_3a/3x3"
  top: "inception_3a/3x3"
}
layer {
  name: "inception_3a/5x5_reduce"
  type: "Convolution"
  bottom: "pool2/3x3_s2"
  top: "inception_3a/5x5_reduce"
  param {
    lr_mult: 1
    decay_mult: 1
  }
  param {
    lr_mult: 2
    decay_mult: 0
  }
  convolution_param {
    num_output: 16
    kernel_size: 1
    weight_filler {
      type: "xavier"
      std: 0.2
    }
    bias_filler {
      type: "constant"
      value: 0.2
    }
  }
}
layer {
  name: "inception_3a/relu_5x5_reduce"
  type: "ReLU"
  bottom: "inception_3a/5x5_reduce"
  top: "inception_3a/5x5_reduce"
}
layer {
  name: "inception_3a/5x5"
  type: "Convolution"
  bottom: "inception_3a/5x5_reduce"
  top: "inception_3a/5x5"
  param {
    lr_mult: 1
    decay_mult: 1
  }
  param {
    lr_mult: 2
    decay_mult: 0
  }
  convolution_param {
    num_output: 32
    pad: 2
    kernel_size: 5
    weight_filler {
      type: "xavier"
      std: 0.03
    }
    bias_filler {
      type: "constant"
      value: 0.2
    }
  }
}
layer {
  name: "inception_3a/relu_5x5"
  type: "ReLU"
  bottom: "inception_3a/5x5"
  top: "inception_3a/5x5"
}
layer {
  name: "inception_3a/pool"
  type: "Pooling"
  bottom: "pool2/3x3_s2"
  top: "inception_3a/pool"
  pooling_param {
    pool: MAX
    kernel_size: 3
    stride: 1
    pad: 1
  }
}
layer {
  name: "inception_3a/pool_proj"
  type: "Convolution"
  bottom: "inception_3a/pool"
  top: "inception_3a/pool_proj"
  param {
    lr_mult: 1
    decay_mult: 1
  }
  param {
    lr_mult: 2
    decay_mult: 0
  }
  convolution_param {
    num_output: 32
    kernel_size: 1
    weight_filler {
      type: "xavier"
      std: 0.1
    }
    bias_filler {
      type: "constant"
      value: 0.2
    }
  }
}
layer {
  name: "inception_3a/relu_pool_proj"
  type: "ReLU"
  bottom: "inception_3a/pool_proj"
  top: "inception_3a/pool_proj"
}
layer {
  name: "inception_3a/output"
  type: "Concat"
  bottom: "inception_3a/1x1"
  bottom: "inception_3a/3x3"
  bottom: "inception_3a/5x5"
  bottom: "inception_3a/pool_proj"
  top: "inception_3a/output"
}
layer {
  name: "inception_3b/1x1"
  type: "Convolution"
  bottom: "inception_3a/output"
  top: "inception_3b/1x1"
  param {
    lr_mult: 1
    decay_mult: 1
  }
  param {
    lr_mult: 2
    decay_mult: 0
  }
  convolution_param {
    num_output: 128
    kernel_size: 1
    weight_filler {
      type: "xavier"
      std: 0.03
    }
    bias_filler {
      type: "constant"
      value: 0.2
    }
  }
}
layer {
  name: "inception_3b/relu_1x1"
  type: "ReLU"
  bottom: "inception_3b/1x1"
  top: "inception_3b/1x1"
}
layer {
  name: "inception_3b/3x3_reduce"
  type: "Convolution"
  bottom: "inception_3a/output"
  top: "inception_3b/3x3_reduce"
  param {
    lr_mult: 1
    decay_mult: 1
  }
  param {
    lr_mult: 2
    decay_mult: 0
  }
  convolution_param {
    num_output: 128
    kernel_size: 1
    weight_filler {
      type: "xavier"
      std: 0.09
    }
    bias_filler {
      type: "constant"
      value: 0.2
    }
  }
}
layer {
  name: "inception_3b/relu_3x3_reduce"
  type: "ReLU"
  bottom: "inception_3b/3x3_reduce"
  top: "inception_3b/3x3_reduce"
}
layer {
  name: "inception_3b/3x3"
  type: "Convolution"
  bottom: "inception_3b/3x3_reduce"
  top: "inception_3b/3x3"
  param {
    lr_mult: 1
    decay_mult: 1
  }
  param {
    lr_mult: 2
    decay_mult: 0
  }
  convolution_param {
    num_output: 192
    pad: 1
    kernel_size: 3
    weight_filler {
      type: "xavier"
      std: 0.03
    }
    bias_filler {
      type: "constant"
      value: 0.2
    }
  }
}
layer {
  name: "inception_3b/relu_3x3"
  type: "ReLU"
  bottom: "inception_3b/3x3"
  top: "inception_3b/3x3"
}
layer {
  name: "inception_3b/5x5_reduce"
  type: "Convolution"
  bottom: "inception_3a/output"
  top: "inception_3b/5x5_reduce"
  param {
    lr_mult: 1
    decay_mult: 1
  }
  param {
    lr_mult: 2
    decay_mult: 0
  }
  convolution_param {
    num_output: 32
    kernel_size: 1
    weight_filler {
      type: "xavier"
      std: 0.2
    }
    bias_filler {
      type: "constant"
      value: 0.2
    }
  }
}
layer {
  name: "inception_3b/relu_5x5_reduce"
  type: "ReLU"
  bottom: "inception_3b/5x5_reduce"
  top: "inception_3b/5x5_reduce"
}
layer {
  name: "inception_3b/5x5"
  type: "Convolution"
  bottom: "inception_3b/5x5_reduce"
  top: "inception_3b/5x5"
  param {
    lr_mult: 1
    decay_mult: 1
  }
  param {
    lr_mult: 2
    decay_mult: 0
  }
  convolution_param {
    num_output: 96
    pad: 2
    kernel_size: 5
    weight_filler {
      type: "xavier"
      std: 0.03
    }
    bias_filler {
      type: "constant"
      value: 0.2
    }
  }
}
layer {
  name: "inception_3b/relu_5x5"
  type: "ReLU"
  bottom: "inception_3b/5x5"
  top: "inception_3b/5x5"
}
layer {
  name: "inception_3b/pool"
  type: "Pooling"
  bottom: "inception_3a/output"
  top: "inception_3b/pool"
  pooling_param {
    pool: MAX
    kernel_size: 3
    stride: 1
    pad: 1
  }
}
layer {
  name: "inception_3b/pool_proj"
  type: "Convolution"
  bottom: "inception_3b/pool"
  top: "inception_3b/pool_proj"
  param {
    lr_mult: 1
    decay_mult: 1
  }
  param {
    lr_mult: 2
    decay_mult: 0
  }
  convolution_param {
    num_output: 64
    kernel_size: 1
    weight_filler {
      type: "xavier"
      std: 0.1
    }
    bias_filler {
      type: "constant"
      value: 0.2
    }
  }
}
layer {
  name: "inception_3b/relu_pool_proj"
  type: "ReLU"
  bottom: "inception_3b/pool_proj"
  top: "inception_3b/pool_proj"
}
layer {
  name: "inception_3b/output"
  type: "Concat"
  bottom: "inception_3b/1x1"
  bottom: "inception_3b/3x3"
  bottom: "inception_3b/5x5"
  bottom: "inception_3b/pool_proj"
  top: "inception_3b/output"
}
layer {
  name: "pool3/3x3_s2"
  type: "Pooling"
  bottom: "inception_3b/output"
  top: "pool3/3x3_s2"
  pooling_param {
    pool: MAX
    kernel_size: 3
    stride: 2
  }
}
layer {
  name: "inception_4a/1x1"
  type: "Convolution"
  bottom: "pool3/3x3_s2"
  top: "inception_4a/1x1"
  param {
    lr_mult: 1
    decay_mult: 1
  }
  param {
    lr_mult: 2
    decay_mult: 0
  }
  convolution_param {
    num_output: 192
    kernel_size: 1
    weight_filler {
      type: "xavier"
      std: 0.03
    }
    bias_filler {
      type: "constant"
      value: 0.2
    }
  }
}
layer {
  name: "inception_4a/relu_1x1"
  type: "ReLU"
  bottom: "inception_4a/1x1"
  top: "inception_4a/1x1"
}
layer {
  name: "inception_4a/3x3_reduce"
  type: "Convolution"
  bottom: "pool3/3x3_s2"
  top: "inception_4a/3x3_reduce"
  param {
    lr_mult: 1
    decay_mult: 1
  }
  param {
    lr_mult: 2
    decay_mult: 0
  }
  convolution_param {
    num_output: 96
    kernel_size: 1
    weight_filler {
      type: "xavier"
      std: 0.09
    }
    bias_filler {
      type: "constant"
      value: 0.2
    }
  }
}
layer {
  name: "inception_4a/relu_3x3_reduce"
  type: "ReLU"
  bottom: "inception_4a/3x3_reduce"
  top: "inception_4a/3x3_reduce"
}
layer {
  name: "inception_4a/3x3"
  type: "Convolution"
  bottom: "inception_4a/3x3_reduce"
  top: "inception_4a/3x3"
  param {
    lr_mult: 1
    decay_mult: 1
  }
  param {
    lr_mult: 2
    decay_mult: 0
  }
  convolution_param {
    num_output: 208
    pad: 1
    kernel_size: 3
    weight_filler {
      type: "xavier"
      std: 0.03
    }
    bias_filler {
      type: "constant"
      value: 0.2
    }
  }
}
layer {
  name: "inception_4a/relu_3x3"
  type: "ReLU"
  bottom: "inception_4a/3x3"
  top: "inception_4a/3x3"
}
layer {
  name: "inception_4a/5x5_reduce"
  type: "Convolution"
  bottom: "pool3/3x3_s2"
  top: "inception_4a/5x5_reduce"
  param {
    lr_mult: 1
    decay_mult: 1
  }
  param {
    lr_mult: 2
    decay_mult: 0
  }
  convolution_param {
    num_output: 16
    kernel_size: 1
    weight_filler {
      type: "xavier"
      std: 0.2
    }
    bias_filler {
      type: "constant"
      value: 0.2
    }
  }
}
layer {
  name: "inception_4a/relu_5x5_reduce"
  type: "ReLU"
  bottom: "inception_4a/5x5_reduce"
  top: "inception_4a/5x5_reduce"
}
layer {
  name: "inception_4a/5x5"
  type: "Convolution"
  bottom: "inception_4a/5x5_reduce"
  top: "inception_4a/5x5"
  param {
    lr_mult: 1
    decay_mult: 1
  }
  param {
    lr_mult: 2
    decay_mult: 0
  }
  convolution_param {
    num_output: 48
    pad: 2
    kernel_size: 5
    weight_filler {
      type: "xavier"
      std: 0.03
    }
    bias_filler {
      type: "constant"
      value: 0.2
    }
  }
}
layer {
  name: "inception_4a/relu_5x5"
  type: "ReLU"
  bottom: "inception_4a/5x5"
  top: "inception_4a/5x5"
}
layer {
  name: "inception_4a/pool"
  type: "Pooling"
  bottom: "pool3/3x3_s2"
  top: "inception_4a/pool"
  pooling_param {
    pool: MAX
    kernel_size: 3
    stride: 1
    pad: 1
  }
}
layer {
  name: "inception_4a/pool_proj"
  type: "Convolution"
  bottom: "inception_4a/pool"
  top: "inception_4a/pool_proj"
  param {
    lr_mult: 1
    decay_mult: 1
  }
  param {
    lr_mult: 2
    decay_mult: 0
  }
  convolution_param {
    num_output: 64
    kernel_size: 1
    weight_filler {
      type: "xavier"
      std: 0.1
    }
    bias_filler {
      type: "constant"
      value: 0.2
    }
  }
}
layer {
  name: "inception_4a/relu_pool_proj"
  type: "ReLU"
  bottom: "inception_4a/pool_proj"
  top: "inception_4a/pool_proj"
}
layer {
  name: "inception_4a/output"
  type: "Concat"
  bottom: "inception_4a/1x1"
  bottom: "inception_4a/3x3"
  bottom: "inception_4a/5x5"
  bottom: "inception_4a/pool_proj"
  top: "inception_4a/output"
}
layer {
  name: "loss1/ave_pool"
  type: "Pooling"
  bottom: "inception_4a/output"
  top: "loss1/ave_pool"
  pooling_param {
    pool: AVE
    kernel_size: 5
    stride: 3
  }
}
layer {
  name: "loss1/conv"
  type: "Convolution"
  bottom: "loss1/ave_pool"
  top: "loss1/conv"
  param {
    lr_mult: 1
    decay_mult: 1
  }
  param {
    lr_mult: 2
    decay_mult: 0
  }
  convolution_param {
    num_output: 128
    kernel_size: 1
    weight_filler {
      type: "xavier"
      std: 0.08
    }
    bias_filler {
      type: "constant"
      value: 0.2
    }
  }
}
layer {
  name: "loss1/relu_conv"
  type: "ReLU"
  bottom: "loss1/conv"
  top: "loss1/conv"
}
layer {
  name: "loss1/fc"
  type: "InnerProduct"
  bottom: "loss1/conv"
  top: "loss1/fc"
  param {
    lr_mult: 1
    decay_mult: 1
  }
  param {
    lr_mult: 2
    decay_mult: 0
  }
  inner_product_param {
    num_output: 1024
    weight_filler {
      type: "xavier"
      std: 0.02
    }
    bias_filler {
      type: "constant"
      value: 0.2
    }
  }
}
layer {
  name: "loss1/relu_fc"
  type: "ReLU"
  bottom: "loss1/fc"
  top: "loss1/fc"
}
layer {
  name: "loss1/drop_fc"
  type: "Dropout"
  bottom: "loss1/fc"
  top: "loss1/fc"
  dropout_param {
    dropout_ratio: 0.7
  }
}
layer {
  name: "loss1/classifier_plantvillage"
  type: "InnerProduct"
  bottom: "loss1/fc"
  top: "loss1/classifier_plantvillage"
  param {
    lr_mult: 1
    decay_mult: 1
  }
  param {
    lr_mult: 2
    decay_mult: 0
  }
  inner_product_param {
    num_output: 38
    weight_filler {
      type: "xavier"
      std: 0.0009765625
    }
    bias_filler {
      type: "constant"
      value: 0
    }
  }
}
layer {
  name: "inception_4b/1x1"
  type: "Convolution"
  bottom: "inception_4a/output"
  top: "inception_4b/1x1"
  param {
    lr_mult: 1
    decay_mult: 1
  }
  param {
    lr_mult: 2
    decay_mult: 0
  }
  convolution_param {
    num_output: 160
    kernel_size: 1
    weight_filler {
      type: "xavier"
      std: 0.03
    }
    bias_filler {
      type: "constant"
      value: 0.2
    }
  }
}
layer {
  name: "inception_4b/relu_1x1"
  type: "ReLU"
  bottom: "inception_4b/1x1"
  top: "inception_4b/1x1"
}
layer {
  name: "inception_4b/3x3_reduce"
  type: "Convolution"
  bottom: "inception_4a/output"
  top: "inception_4b/3x3_reduce"
  param {
    lr_mult: 1
    decay_mult: 1
  }
  param {
    lr_mult: 2
    decay_mult: 0
  }
  convolution_param {
    num_output: 112
    kernel_size: 1
    weight_filler {
      type: "xavier"
      std: 0.09
    }
    bias_filler {
      type: "constant"
      value: 0.2
    }
  }
}
layer {
  name: "inception_4b/relu_3x3_reduce"
  type: "ReLU"
  bottom: "inception_4b/3x3_reduce"
  top: "inception_4b/3x3_reduce"
}
layer {
  name: "inception_4b/3x3"
  type: "Convolution"
  bottom: "inception_4b/3x3_reduce"
  top: "inception_4b/3x3"
  param {
    lr_mult: 1
    decay_mult: 1
  }
  param {
    lr_mult: 2
    decay_mult: 0
  }
  convolution_param {
    num_output: 224
    pad: 1
    kernel_size: 3
    weight_filler {
      type: "xavier"
      std: 0.03
    }
    bias_filler {
      type: "constant"
      value: 0.2
    }
  }
}
layer {
  name: "inception_4b/relu_3x3"
  type: "ReLU"
  bottom: "inception_4b/3x3"
  top: "inception_4b/3x3"
}
layer {
  name: "inception_4b/5x5_reduce"
  type: "Convolution"
  bottom: "inception_4a/output"
  top: "inception_4b/5x5_reduce"
  param {
    lr_mult: 1
    decay_mult: 1
  }
  param {
    lr_mult: 2
    decay_mult: 0
  }
  convolution_param {
    num_output: 24
    kernel_size: 1
    weight_filler {
      type: "xavier"
      std: 0.2
    }
    bias_filler {
      type: "constant"
      value: 0.2
    }
  }
}
layer {
  name: "inception_4b/relu_5x5_reduce"
  type: "ReLU"
  bottom: "inception_4b/5x5_reduce"
  top: "inception_4b/5x5_reduce"
}
layer {
  name: "inception_4b/5x5"
  type: "Convolution"
  bottom: "inception_4b/5x5_reduce"
  top: "inception_4b/5x5"
  param {
    lr_mult: 1
    decay_mult: 1
  }
  param {
    lr_mult: 2
    decay_mult: 0
  }
  convolution_param {
    num_output: 64
    pad: 2
    kernel_size: 5
    weight_filler {
      type: "xavier"
      std: 0.03
    }
    bias_filler {
      type: "constant"
      value: 0.2
    }
  }
}
layer {
  name: "inception_4b/relu_5x5"
  type: "ReLU"
  bottom: "inception_4b/5x5"
  top: "inception_4b/5x5"
}
layer {
  name: "inception_4b/pool"
  type: "Pooling"
  bottom: "inception_4a/output"
  top: "inception_4b/pool"
  pooling_param {
    pool: MAX
    kernel_size: 3
    stride: 1
    pad: 1
  }
}
layer {
  name: "inception_4b/pool_proj"
  type: "Convolution"
  bottom: "inception_4b/pool"
  top: "inception_4b/pool_proj"
  param {
    lr_mult: 1
    decay_mult: 1
  }
  param {
    lr_mult: 2
    decay_mult: 0
  }
  convolution_param {
    num_output: 64
    kernel_size: 1
    weight_filler {
      type: "xavier"
      std: 0.1
    }
    bias_filler {
      type: "constant"
      value: 0.2
    }
  }
}
layer {
  name: "inception_4b/relu_pool_proj"
  type: "ReLU"
  bottom: "inception_4b/pool_proj"
  top: "inception_4b/pool_proj"
}
layer {
  name: "inception_4b/output"
  type: "Concat"
  bottom: "inception_4b/1x1"
  bottom: "inception_4b/3x3"
  bottom: "inception_4b/5x5"
  bottom: "inception_4b/pool_proj"
  top: "inception_4b/output"
}
layer {
  name: "inception_4c/1x1"
  type: "Convolution"
  bottom: "inception_4b/output"
  top: "inception_4c/1x1"
  param {
    lr_mult: 1
    decay_mult: 1
  }
  param {
    lr_mult: 2
    decay_mult: 0
  }
  convolution_param {
    num_output: 128
    kernel_size: 1
    weight_filler {
      type: "xavier"
      std: 0.03
    }
    bias_filler {
      type: "constant"
      value: 0.2
    }
  }
}
layer {
  name: "inception_4c/relu_1x1"
  type: "ReLU"
  bottom: "inception_4c/1x1"
  top: "inception_4c/1x1"
}
layer {
  name: "inception_4c/3x3_reduce"
  type: "Convolution"
  bottom: "inception_4b/output"
  top: "inception_4c/3x3_reduce"
  param {
    lr_mult: 1
    decay_mult: 1
  }
  param {
    lr_mult: 2
    decay_mult: 0
  }
  convolution_param {
    num_output: 128
    kernel_size: 1
    weight_filler {
      type: "xavier"
      std: 0.09
    }
    bias_filler {
      type: "constant"
      value: 0.2
    }
  }
}
layer {
  name: "inception_4c/relu_3x3_reduce"
  type: "ReLU"
  bottom: "inception_4c/3x3_reduce"
  top: "inception_4c/3x3_reduce"
}
layer {
  name: "inception_4c/3x3"
  type: "Convolution"
  bottom: "inception_4c/3x3_reduce"
  top: "inception_4c/3x3"
  param {
    lr_mult: 1
    decay_mult: 1
  }
  param {
    lr_mult: 2
    decay_mult: 0
  }
  convolution_param {
    num_output: 256
    pad: 1
    kernel_size: 3
    weight_filler {
      type: "xavier"
      std: 0.03
    }
    bias_filler {
      type: "constant"
      value: 0.2
    }
  }
}
layer {
  name: "inception_4c/relu_3x3"
  type: "ReLU"
  bottom: "inception_4c/3x3"
  top: "inception_4c/3x3"
}
layer {
  name: "inception_4c/5x5_reduce"
  type: "Convolution"
  bottom: "inception_4b/output"
  top: "inception_4c/5x5_reduce"
  param {
    lr_mult: 1
    decay_mult: 1
  }
  param {
    lr_mult: 2
    decay_mult: 0
  }
  convolution_param {
    num_output: 24
    kernel_size: 1
    weight_filler {
      type: "xavier"
      std: 0.2
    }
    bias_filler {
      type: "constant"
      value: 0.2
    }
  }
}
layer {
  name: "inception_4c/relu_5x5_reduce"
  type: "ReLU"
  bottom: "inception_4c/5x5_reduce"
  top: "inception_4c/5x5_reduce"
}
layer {
  name: "inception_4c/5x5"
  type: "Convolution"
  bottom: "inception_4c/5x5_reduce"
  top: "inception_4c/5x5"
  param {
    lr_mult: 1
    decay_mult: 1
  }
  param {
    lr_mult: 2
    decay_mult: 0
  }
  convolution_param {
    num_output: 64
    pad: 2
    kernel_size: 5
    weight_filler {
      type: "xavier"
      std: 0.03
    }
    bias_filler {
      type: "constant"
      value: 0.2
    }
  }
}
layer {
  name: "inception_4c/relu_5x5"
  type: "ReLU"
  bottom: "inception_4c/5x5"
  top: "inception_4c/5x5"
}
layer {
  name: "inception_4c/pool"
  type: "Pooling"
  bottom: "inception_4b/output"
  top: "inception_4c/pool"
  pooling_param {
    pool: MAX
    kernel_size: 3
    stride: 1
    pad: 1
  }
}
layer {
  name: "inception_4c/pool_proj"
  type: "Convolution"
  bottom: "inception_4c/pool"
  top: "inception_4c/pool_proj"
  param {
    lr_mult: 1
    decay_mult: 1
  }
  param {
    lr_mult: 2
    decay_mult: 0
  }
  convolution_param {
    num_output: 64
    kernel_size: 1
    weight_filler {
      type: "xavier"
      std: 0.1
    }
    bias_filler {
      type: "constant"
      value: 0.2
    }
  }
}
layer {
  name: "inception_4c/relu_pool_proj"
  type: "ReLU"
  bottom: "inception_4c/pool_proj"
  top: "inception_4c/pool_proj"
}
layer {
  name: "inception_4c/output"
  type: "Concat"
  bottom: "inception_4c/1x1"
  bottom: "inception_4c/3x3"
  bottom: "inception_4c/5x5"
  bottom: "inception_4c/pool_proj"
  top: "inception_4c/output"
}
layer {
  name: "inception_4d/1x1"
  type: "Convolution"
  bottom: "inception_4c/output"
  top: "inception_4d/1x1"
  param {
    lr_mult: 1
    decay_mult: 1
  }
  param {
    lr_mult: 2
    decay_mult: 0
  }
  convolution_param {
    num_output: 112
    kernel_size: 1
    weight_filler {
      type: "xavier"
      std: 0.03
    }
    bias_filler {
      type: "constant"
      value: 0.2
    }
  }
}
layer {
  name: "inception_4d/relu_1x1"
  type: "ReLU"
  bottom: "inception_4d/1x1"
  top: "inception_4d/1x1"
}
layer {
  name: "inception_4d/3x3_reduce"
  type: "Convolution"
  bottom: "inception_4c/output"
  top: "inception_4d/3x3_reduce"
  param {
    lr_mult: 1
    decay_mult: 1
  }
  param {
    lr_mult: 2
    decay_mult: 0
  }
  convolution_param {
    num_output: 144
    kernel_size: 1
    weight_filler {
      type: "xavier"
      std: 0.09
    }
    bias_filler {
      type: "constant"
      value: 0.2
    }
  }
}
layer {
  name: "inception_4d/relu_3x3_reduce"
  type: "ReLU"
  bottom: "inception_4d/3x3_reduce"
  top: "inception_4d/3x3_reduce"
}
layer {
  name: "inception_4d/3x3"
  type: "Convolution"
  bottom: "inception_4d/3x3_reduce"
  top: "inception_4d/3x3"
  param {
    lr_mult: 1
    decay_mult: 1
  }
  param {
    lr_mult: 2
    decay_mult: 0
  }
  convolution_param {
    num_output: 288
    pad: 1
    kernel_size: 3
    weight_filler {
      type: "xavier"
      std: 0.03
    }
    bias_filler {
      type: "constant"
      value: 0.2
    }
  }
}
layer {
  name: "inception_4d/relu_3x3"
  type: "ReLU"
  bottom: "inception_4d/3x3"
  top: "inception_4d/3x3"
}
layer {
  name: "inception_4d/5x5_reduce"
  type: "Convolution"
  bottom: "inception_4c/output"
  top: "inception_4d/5x5_reduce"
  param {
    lr_mult: 1
    decay_mult: 1
  }
  param {
    lr_mult: 2
    decay_mult: 0
  }
  convolution_param {
    num_output: 32
    kernel_size: 1
    weight_filler {
      type: "xavier"
      std: 0.2
    }
    bias_filler {
      type: "constant"
      value: 0.2
    }
  }
}
layer {
  name: "inception_4d/relu_5x5_reduce"
  type: "ReLU"
  bottom: "inception_4d/5x5_reduce"
  top: "inception_4d/5x5_reduce"
}
layer {
  name: "inception_4d/5x5"
  type: "Convolution"
  bottom: "inception_4d/5x5_reduce"
  top: "inception_4d/5x5"
  param {
    lr_mult: 1
    decay_mult: 1
  }
  param {
    lr_mult: 2
    decay_mult: 0
  }
  convolution_param {
    num_output: 64
    pad: 2
    kernel_size: 5
    weight_filler {
      type: "xavier"
      std: 0.03
    }
    bias_filler {
      type: "constant"
      value: 0.2
    }
  }
}
layer {
  name: "inception_4d/relu_5x5"
  type: "ReLU"
  bottom: "inception_4d/5x5"
  top: "inception_4d/5x5"
}
layer {
  name: "inception_4d/pool"
  type: "Pooling"
  bottom: "inception_4c/output"
  top: "inception_4d/pool"
  pooling_param {
    pool: MAX
    kernel_size: 3
    stride: 1
    pad: 1
  }
}
layer {
  name: "inception_4d/pool_proj"
  type: "Convolution"
  bottom: "inception_4d/pool"
  top: "inception_4d/pool_proj"
  param {
    lr_mult: 1
    decay_mult: 1
  }
  param {
    lr_mult: 2
    decay_mult: 0
  }
  convolution_param {
    num_output: 64
    kernel_size: 1
    weight_filler {
      type: "xavier"
      std: 0.1
    }
    bias_filler {
      type: "constant"
      value: 0.2
    }
  }
}
layer {
  name: "inception_4d/relu_pool_proj"
  type: "ReLU"
  bottom: "inception_4d/pool_proj"
  top: "inception_4d/pool_proj"
}
layer {
  name: "inception_4d/output"
  type: "Concat"
  bottom: "inception_4d/1x1"
  bottom: "inception_4d/3x3"
  bottom: "inception_4d/5x5"
  bottom: "inception_4d/pool_proj"
  top: "inception_4d/output"
}
layer {
  name: "loss2/ave_pool"
  type: "Pooling"
  bottom: "inception_4d/output"
  top: "loss2/ave_pool"
  pooling_param {
    pool: AVE
    kernel_size: 5
    stride: 3
  }
}
layer {
  name: "loss2/conv"
  type: "Convolution"
  bottom: "loss2/ave_pool"
  top: "loss2/conv"
  param {
    lr_mult: 1
    decay_mult: 1
  }
  param {
    lr_mult: 2
    decay_mult: 0
  }
  convolution_param {
    num_output: 128
    kernel_size: 1
    weight_filler {
      type: "xavier"
      std: 0.08
    }
    bias_filler {
      type: "constant"
      value: 0.2
    }
  }
}
layer {
  name: "loss2/relu_conv"
  type: "ReLU"
  bottom: "loss2/conv"
  top: "loss2/conv"
}
layer {
  name: "loss2/fc"
  type: "InnerProduct"
  bottom: "loss2/conv"
  top: "loss2/fc"
  param {
    lr_mult: 1
    decay_mult: 1
  }
  param {
    lr_mult: 2
    decay_mult: 0
  }
  inner_product_param {
    num_output: 1024
    weight_filler {
      type: "xavier"
      std: 0.02
    }
    bias_filler {
      type: "constant"
      value: 0.2
    }
  }
}
layer {
  name: "loss2/relu_fc"
  type: "ReLU"
  bottom: "loss2/fc"
  top: "loss2/fc"
}
layer {
  name: "loss2/drop_fc"
  type: "Dropout"
  bottom: "loss2/fc"
  top: "loss2/fc"
  dropout_param {
    dropout_ratio: 0.7
  }
}
layer {
  name: "loss2/classifier_plantvillage"
  type: "InnerProduct"
  bottom: "loss2/fc"
  top: "loss2/classifier_plantvillage"
  param {
    lr_mult: 1
    decay_mult: 1
  }
  param {
    lr_mult: 2
    decay_mult: 0
  }
  inner_product_param {
    num_output: 38
    weight_filler {
      type: "xavier"
      std: 0.0009765625
    }
    bias_filler {
      type: "constant"
      value: 0
    }
  }
}
layer {
  name: "inception_4e/1x1"
  type: "Convolution"
  bottom: "inception_4d/output"
  top: "inception_4e/1x1"
  param {
    lr_mult: 1
    decay_mult: 1
  }
  param {
    lr_mult: 2
    decay_mult: 0
  }
  convolution_param {
    num_output: 256
    kernel_size: 1
    weight_filler {
      type: "xavier"
      std: 0.03
    }
    bias_filler {
      type: "constant"
      value: 0.2
    }
  }
}
layer {
  name: "inception_4e/relu_1x1"
  type: "ReLU"
  bottom: "inception_4e/1x1"
  top: "inception_4e/1x1"
}
layer {
  name: "inception_4e/3x3_reduce"
  type: "Convolution"
  bottom: "inception_4d/output"
  top: "inception_4e/3x3_reduce"
  param {
    lr_mult: 1
    decay_mult: 1
  }
  param {
    lr_mult: 2
    decay_mult: 0
  }
  convolution_param {
    num_output: 160
    kernel_size: 1
    weight_filler {
      type: "xavier"
      std: 0.09
    }
    bias_filler {
      type: "constant"
      value: 0.2
    }
  }
}
layer {
  name: "inception_4e/relu_3x3_reduce"
  type: "ReLU"
  bottom: "inception_4e/3x3_reduce"
  top: "inception_4e/3x3_reduce"
}
layer {
  name: "inception_4e/3x3"
  type: "Convolution"
  bottom: "inception_4e/3x3_reduce"
  top: "inception_4e/3x3"
  param {
    lr_mult: 1
    decay_mult: 1
  }
  param {
    lr_mult: 2
    decay_mult: 0
  }
  convolution_param {
    num_output: 320
    pad: 1
    kernel_size: 3
    weight_filler {
      type: "xavier"
      std: 0.03
    }
    bias_filler {
      type: "constant"
      value: 0.2
    }
  }
}
layer {
  name: "inception_4e/relu_3x3"
  type: "ReLU"
  bottom: "inception_4e/3x3"
  top: "inception_4e/3x3"
}
layer {
  name: "inception_4e/5x5_reduce"
  type: "Convolution"
  bottom: "inception_4d/output"
  top: "inception_4e/5x5_reduce"
  param {
    lr_mult: 1
    decay_mult: 1
  }
  param {
    lr_mult: 2
    decay_mult: 0
  }
  convolution_param {
    num_output: 32
    kernel_size: 1
    weight_filler {
      type: "xavier"
      std: 0.2
    }
    bias_filler {
      type: "constant"
      value: 0.2
    }
  }
}
layer {
  name: "inception_4e/relu_5x5_reduce"
  type: "ReLU"
  bottom: "inception_4e/5x5_reduce"
  top: "inception_4e/5x5_reduce"
}
layer {
  name: "inception_4e/5x5"
  type: "Convolution"
  bottom: "inception_4e/5x5_reduce"
  top: "inception_4e/
I0403 15:18:27.550779  2933 layer_factory.hpp:77] Creating layer data
I0403 15:18:27.551393  2933 net.cpp:91] Creating Layer data
I0403 15:18:27.551427  2933 net.cpp:399] data -> data
I0403 15:18:27.551479  2933 net.cpp:399] data -> label
I0403 15:18:27.551517  2933 data_transformer.cpp:25] Loading mean file from: /home/mohanty/data/final_dataset/lmdb/segmented-60-40/mean.binaryproto
I0403 15:18:27.554019  2937 db_lmdb.cpp:38] Opened lmdb /home/mohanty/data/final_dataset/lmdb/segmented-60-40/test_db
I0403 15:18:27.564929  2933 data_layer.cpp:41] output data size: 24,3,224,224
I0403 15:18:27.592911  2933 net.cpp:141] Setting up data
I0403 15:18:27.592998  2933 net.cpp:148] Top shape: 24 3 224 224 (3612672)
I0403 15:18:27.593020  2933 net.cpp:148] Top shape: 24 (24)
I0403 15:18:27.593036  2933 net.cpp:156] Memory required for data: 14450784
I0403 15:18:27.593062  2933 layer_factory.hpp:77] Creating layer label_data_1_split
I0403 15:18:27.593089  2933 net.cpp:91] Creating Layer label_data_1_split
I0403 15:18:27.593107  2933 net.cpp:425] label_data_1_split <- label
I0403 15:18:27.593139  2933 net.cpp:399] label_data_1_split -> label_data_1_split_0
I0403 15:18:27.593168  2933 net.cpp:399] label_data_1_split -> label_data_1_split_1
I0403 15:18:27.593201  2933 net.cpp:399] label_data_1_split -> label_data_1_split_2
I0403 15:18:27.593225  2933 net.cpp:399] label_data_1_split -> label_data_1_split_3
I0403 15:18:27.593247  2933 net.cpp:399] label_data_1_split -> label_data_1_split_4
I0403 15:18:27.593268  2933 net.cpp:399] label_data_1_split -> label_data_1_split_5
I0403 15:18:27.593289  2933 net.cpp:399] label_data_1_split -> label_data_1_split_6
I0403 15:18:27.593310  2933 net.cpp:399] label_data_1_split -> label_data_1_split_7
I0403 15:18:27.593330  2933 net.cpp:399] label_data_1_split -> label_data_1_split_8
I0403 15:18:27.593351  2933 net.cpp:399] label_data_1_split -> label_data_1_split_9
I0403 15:18:27.593473  2933 net.cpp:141] Setting up label_data_1_split
I0403 15:18:27.593497  2933 net.cpp:148] Top shape: 24 (24)
I0403 15:18:27.593515  2933 net.cpp:148] Top shape: 24 (24)
I0403 15:18:27.593533  2933 net.cpp:148] Top shape: 24 (24)
I0403 15:18:27.593547  2933 net.cpp:148] Top shape: 24 (24)
I0403 15:18:27.593564  2933 net.cpp:148] Top shape: 24 (24)
I0403 15:18:27.593580  2933 net.cpp:148] Top shape: 24 (24)
I0403 15:18:27.593596  2933 net.cpp:148] Top shape: 24 (24)
I0403 15:18:27.593612  2933 net.cpp:148] Top shape: 24 (24)
I0403 15:18:27.593628  2933 net.cpp:148] Top shape: 24 (24)
I0403 15:18:27.593646  2933 net.cpp:148] Top shape: 24 (24)
I0403 15:18:27.593690  2933 net.cpp:156] Memory required for data: 14451744
I0403 15:18:27.593706  2933 layer_factory.hpp:77] Creating layer conv1/7x7_s2
I0403 15:18:27.593739  2933 net.cpp:91] Creating Layer conv1/7x7_s2
I0403 15:18:27.593758  2933 net.cpp:425] conv1/7x7_s2 <- data
I0403 15:18:27.593777  2933 net.cpp:399] conv1/7x7_s2 -> conv1/7x7_s2
I0403 15:18:27.740739  2933 net.cpp:141] Setting up conv1/7x7_s2
I0403 15:18:27.740828  2933 net.cpp:148] Top shape: 24 64 112 112 (19267584)
I0403 15:18:27.740844  2933 net.cpp:156] Memory required for data: 91522080
I0403 15:18:27.740875  2933 layer_factory.hpp:77] Creating layer conv1/relu_7x7
I0403 15:18:27.740900  2933 net.cpp:91] Creating Layer conv1/relu_7x7
I0403 15:18:27.740918  2933 net.cpp:425] conv1/relu_7x7 <- conv1/7x7_s2
I0403 15:18:27.740936  2933 net.cpp:386] conv1/relu_7x7 -> conv1/7x7_s2 (in-place)
I0403 15:18:27.741190  2933 net.cpp:141] Setting up conv1/relu_7x7
I0403 15:18:27.741217  2933 net.cpp:148] Top shape: 24 64 112 112 (19267584)
I0403 15:18:27.741232  2933 net.cpp:156] Memory required for data: 168592416
I0403 15:18:27.741247  2933 layer_factory.hpp:77] Creating layer pool1/3x3_s2
I0403 15:18:27.741272  2933 net.cpp:91] Creating Layer pool1/3x3_s2
I0403 15:18:27.741289  2933 net.cpp:425] pool1/3x3_s2 <- conv1/7x7_s2
I0403 15:18:27.741307  2933 net.cpp:399] pool1/3x3_s2 -> pool1/3x3_s2
I0403 15:18:27.741379  2933 net.cpp:141] Setting up pool1/3x3_s2
I0403 15:18:27.741402  2933 net.cpp:148] Top shape: 24 64 56 56 (4816896)
I0403 15:18:27.741417  2933 net.cpp:156] Memory required for data: 187860000
I0403 15:18:27.741431  2933 layer_factory.hpp:77] Creating layer pool1/norm1
I0403 15:18:27.741456  2933 net.cpp:91] Creating Layer pool1/norm1
I0403 15:18:27.741473  2933 net.cpp:425] pool1/norm1 <- pool1/3x3_s2
I0403 15:18:27.741492  2933 net.cpp:399] pool1/norm1 -> pool1/norm1
I0403 15:18:27.741770  2933 net.cpp:141] Setting up pool1/norm1
I0403 15:18:27.741796  2933 net.cpp:148] Top shape: 24 64 56 56 (4816896)
I0403 15:18:27.741811  2933 net.cpp:156] Memory required for data: 207127584
I0403 15:18:27.741827  2933 layer_factory.hpp:77] Creating layer conv2/3x3_reduce
I0403 15:18:27.741852  2933 net.cpp:91] Creating Layer conv2/3x3_reduce
I0403 15:18:27.741868  2933 net.cpp:425] conv2/3x3_reduce <- pool1/norm1
I0403 15:18:27.741885  2933 net.cpp:399] conv2/3x3_reduce -> conv2/3x3_reduce
I0403 15:18:27.743216  2933 net.cpp:141] Setting up conv2/3x3_reduce
I0403 15:18:27.743244  2933 net.cpp:148] Top shape: 24 64 56 56 (4816896)
I0403 15:18:27.743262  2933 net.cpp:156] Memory required for data: 226395168
I0403 15:18:27.743283  2933 layer_factory.hpp:77] Creating layer conv2/relu_3x3_reduce
I0403 15:18:27.743304  2933 net.cpp:91] Creating Layer conv2/relu_3x3_reduce
I0403 15:18:27.743320  2933 net.cpp:425] conv2/relu_3x3_reduce <- conv2/3x3_reduce
I0403 15:18:27.743337  2933 net.cpp:386] conv2/relu_3x3_reduce -> conv2/3x3_reduce (in-place)
I0403 15:18:27.743604  2933 net.cpp:141] Setting up conv2/relu_3x3_reduce
I0403 15:18:27.743631  2933 net.cpp:148] Top shape: 24 64 56 56 (4816896)
I0403 15:18:27.743645  2933 net.cpp:156] Memory required for data: 245662752
I0403 15:18:27.743660  2933 layer_factory.hpp:77] Creating layer conv2/3x3
I0403 15:18:27.743686  2933 net.cpp:91] Creating Layer conv2/3x3
I0403 15:18:27.743703  2933 net.cpp:425] conv2/3x3 <- conv2/3x3_reduce
I0403 15:18:27.743722  2933 net.cpp:399] conv2/3x3 -> conv2/3x3
I0403 15:18:27.746006  2933 net.cpp:141] Setting up conv2/3x3
I0403 15:18:27.746037  2933 net.cpp:148] Top shape: 24 192 56 56 (14450688)
I0403 15:18:27.746053  2933 net.cpp:156] Memory required for data: 303465504
I0403 15:18:27.746074  2933 layer_factory.hpp:77] Creating layer conv2/relu_3x3
I0403 15:18:27.746095  2933 net.cpp:91] Creating Layer conv2/relu_3x3
I0403 15:18:27.746112  2933 net.cpp:425] conv2/relu_3x3 <- conv2/3x3
I0403 15:18:27.746130  2933 net.cpp:386] conv2/relu_3x3 -> conv2/3x3 (in-place)
I0403 15:18:27.746315  2933 net.cpp:141] Setting up conv2/relu_3x3
I0403 15:18:27.746340  2933 net.cpp:148] Top shape: 24 192 56 56 (14450688)
I0403 15:18:27.746387  2933 net.cpp:156] Memory required for data: 361268256
I0403 15:18:27.746402  2933 layer_factory.hpp:77] Creating layer conv2/norm2
I0403 15:18:27.746420  2933 net.cpp:91] Creating Layer conv2/norm2
I0403 15:18:27.746438  2933 net.cpp:425] conv2/norm2 <- conv2/3x3
I0403 15:18:27.746457  2933 net.cpp:399] conv2/norm2 -> conv2/norm2
I0403 15:18:27.746769  2933 net.cpp:141] Setting up conv2/norm2
I0403 15:18:27.746798  2933 net.cpp:148] Top shape: 24 192 56 56 (14450688)
I0403 15:18:27.746812  2933 net.cpp:156] Memory required for data: 419071008
I0403 15:18:27.746827  2933 layer_factory.hpp:77] Creating layer pool2/3x3_s2
I0403 15:18:27.746845  2933 net.cpp:91] Creating Layer pool2/3x3_s2
I0403 15:18:27.746862  2933 net.cpp:425] pool2/3x3_s2 <- conv2/norm2
I0403 15:18:27.746884  2933 net.cpp:399] pool2/3x3_s2 -> pool2/3x3_s2
I0403 15:18:27.746942  2933 net.cpp:141] Setting up pool2/3x3_s2
I0403 15:18:27.746965  2933 net.cpp:148] Top shape: 24 192 28 28 (3612672)
I0403 15:18:27.746980  2933 net.cpp:156] Memory required for data: 433521696
I0403 15:18:27.746994  2933 layer_factory.hpp:77] Creating layer pool2/3x3_s2_pool2/3x3_s2_0_split
I0403 15:18:27.747012  2933 net.cpp:91] Creating Layer pool2/3x3_s2_pool2/3x3_s2_0_split
I0403 15:18:27.747027  2933 net.cpp:425] pool2/3x3_s2_pool2/3x3_s2_0_split <- pool2/3x3_s2
I0403 15:18:27.747047  2933 net.cpp:399] pool2/3x3_s2_pool2/3x3_s2_0_split -> pool2/3x3_s2_pool2/3x3_s2_0_split_0
I0403 15:18:27.747067  2933 net.cpp:399] pool2/3x3_s2_pool2/3x3_s2_0_split -> pool2/3x3_s2_pool2/3x3_s2_0_split_1
I0403 15:18:27.747087  2933 net.cpp:399] pool2/3x3_s2_pool2/3x3_s2_0_split -> pool2/3x3_s2_pool2/3x3_s2_0_split_2
I0403 15:18:27.747107  2933 net.cpp:399] pool2/3x3_s2_pool2/3x3_s2_0_split -> pool2/3x3_s2_pool2/3x3_s2_0_split_3
I0403 15:18:27.747181  2933 net.cpp:141] Setting up pool2/3x3_s2_pool2/3x3_s2_0_split
I0403 15:18:27.747208  2933 net.cpp:148] Top shape: 24 192 28 28 (3612672)
I0403 15:18:27.747225  2933 net.cpp:148] Top shape: 24 192 28 28 (3612672)
I0403 15:18:27.747242  2933 net.cpp:148] Top shape: 24 192 28 28 (3612672)
I0403 15:18:27.747258  2933 net.cpp:148] Top shape: 24 192 28 28 (3612672)
I0403 15:18:27.747272  2933 net.cpp:156] Memory required for data: 491324448
I0403 15:18:27.747287  2933 layer_factory.hpp:77] Creating layer inception_3a/1x1
I0403 15:18:27.747308  2933 net.cpp:91] Creating Layer inception_3a/1x1
I0403 15:18:27.747326  2933 net.cpp:425] inception_3a/1x1 <- pool2/3x3_s2_pool2/3x3_s2_0_split_0
I0403 15:18:27.747345  2933 net.cpp:399] inception_3a/1x1 -> inception_3a/1x1
I0403 15:18:27.748931  2933 net.cpp:141] Setting up inception_3a/1x1
I0403 15:18:27.748960  2933 net.cpp:148] Top shape: 24 64 28 28 (1204224)
I0403 15:18:27.748976  2933 net.cpp:156] Memory required for data: 496141344
I0403 15:18:27.748996  2933 layer_factory.hpp:77] Creating layer inception_3a/relu_1x1
I0403 15:18:27.749016  2933 net.cpp:91] Creating Layer inception_3a/relu_1x1
I0403 15:18:27.749032  2933 net.cpp:425] inception_3a/relu_1x1 <- inception_3a/1x1
I0403 15:18:27.749049  2933 net.cpp:386] inception_3a/relu_1x1 -> inception_3a/1x1 (in-place)
I0403 15:18:27.749224  2933 net.cpp:141] Setting up inception_3a/relu_1x1
I0403 15:18:27.749253  2933 net.cpp:148] Top shape: 24 64 28 28 (1204224)
I0403 15:18:27.749266  2933 net.cpp:156] Memory required for data: 500958240
I0403 15:18:27.749280  2933 layer_factory.hpp:77] Creating layer inception_3a/3x3_reduce
I0403 15:18:27.749302  2933 net.cpp:91] Creating Layer inception_3a/3x3_reduce
I0403 15:18:27.749320  2933 net.cpp:425] inception_3a/3x3_reduce <- pool2/3x3_s2_pool2/3x3_s2_0_split_1
I0403 15:18:27.749338  2933 net.cpp:399] inception_3a/3x3_reduce -> inception_3a/3x3_reduce
I0403 15:18:27.751018  2933 net.cpp:141] Setting up inception_3a/3x3_reduce
I0403 15:18:27.751046  2933 net.cpp:148] Top shape: 24 96 28 28 (1806336)
I0403 15:18:27.751062  2933 net.cpp:156] Memory required for data: 508183584
I0403 15:18:27.751082  2933 layer_factory.hpp:77] Creating layer inception_3a/relu_3x3_reduce
I0403 15:18:27.751119  2933 net.cpp:91] Creating Layer inception_3a/relu_3x3_reduce
I0403 15:18:27.751138  2933 net.cpp:425] inception_3a/relu_3x3_reduce <- inception_3a/3x3_reduce
I0403 15:18:27.751157  2933 net.cpp:386] inception_3a/relu_3x3_reduce -> inception_3a/3x3_reduce (in-place)
I0403 15:18:27.751340  2933 net.cpp:141] Setting up inception_3a/relu_3x3_reduce
I0403 15:18:27.751365  2933 net.cpp:148] Top shape: 24 96 28 28 (1806336)
I0403 15:18:27.751379  2933 net.cpp:156] Memory required for data: 515408928
I0403 15:18:27.751394  2933 layer_factory.hpp:77] Creating layer inception_3a/3x3
I0403 15:18:27.751416  2933 net.cpp:91] Creating Layer inception_3a/3x3
I0403 15:18:27.751435  2933 net.cpp:425] inception_3a/3x3 <- inception_3a/3x3_reduce
I0403 15:18:27.751456  2933 net.cpp:399] inception_3a/3x3 -> inception_3a/3x3
I0403 15:18:27.753099  2933 net.cpp:141] Setting up inception_3a/3x3
I0403 15:18:27.753129  2933 net.cpp:148] Top shape: 24 128 28 28 (2408448)
I0403 15:18:27.753145  2933 net.cpp:156] Memory required for data: 525042720
I0403 15:18:27.753164  2933 layer_factory.hpp:77] Creating layer inception_3a/relu_3x3
I0403 15:18:27.753191  2933 net.cpp:91] Creating Layer inception_3a/relu_3x3
I0403 15:18:27.753209  2933 net.cpp:425] inception_3a/relu_3x3 <- inception_3a/3x3
I0403 15:18:27.753227  2933 net.cpp:386] inception_3a/relu_3x3 -> inception_3a/3x3 (in-place)
I0403 15:18:27.753497  2933 net.cpp:141] Setting up inception_3a/relu_3x3
I0403 15:18:27.753525  2933 net.cpp:148] Top shape: 24 128 28 28 (2408448)
I0403 15:18:27.753541  2933 net.cpp:156] Memory required for data: 534676512
I0403 15:18:27.753556  2933 layer_factory.hpp:77] Creating layer inception_3a/5x5_reduce
I0403 15:18:27.753577  2933 net.cpp:91] Creating Layer inception_3a/5x5_reduce
I0403 15:18:27.753594  2933 net.cpp:425] inception_3a/5x5_reduce <- pool2/3x3_s2_pool2/3x3_s2_0_split_2
I0403 15:18:27.753613  2933 net.cpp:399] inception_3a/5x5_reduce -> inception_3a/5x5_reduce
I0403 15:18:27.754575  2933 net.cpp:141] Setting up inception_3a/5x5_reduce
I0403 15:18:27.754606  2933 net.cpp:148] Top shape: 24 16 28 28 (301056)
I0403 15:18:27.754621  2933 net.cpp:156] Memory required for data: 535880736
I0403 15:18:27.754639  2933 layer_factory.hpp:77] Creating layer inception_3a/relu_5x5_reduce
I0403 15:18:27.754657  2933 net.cpp:91] Creating Layer inception_3a/relu_5x5_reduce
I0403 15:18:27.754673  2933 net.cpp:425] inception_3a/relu_5x5_reduce <- inception_3a/5x5_reduce
I0403 15:18:27.754689  2933 net.cpp:386] inception_3a/relu_5x5_reduce -> inception_3a/5x5_reduce (in-place)
I0403 15:18:27.754990  2933 net.cpp:141] Setting up inception_3a/relu_5x5_reduce
I0403 15:18:27.755017  2933 net.cpp:148] Top shape: 24 16 28 28 (301056)
I0403 15:18:27.755030  2933 net.cpp:156] Memory required for data: 537084960
I0403 15:18:27.755045  2933 layer_factory.hpp:77] Creating layer inception_3a/5x5
I0403 15:18:27.755067  2933 net.cpp:91] Creating Layer inception_3a/5x5
I0403 15:18:27.755085  2933 net.cpp:425] inception_3a/5x5 <- inception_3a/5x5_reduce
I0403 15:18:27.755106  2933 net.cpp:399] inception_3a/5x5 -> inception_3a/5x5
I0403 15:18:27.756119  2933 net.cpp:141] Setting up inception_3a/5x5
I0403 15:18:27.756146  2933 net.cpp:148] Top shape: 24 32 28 28 (602112)
I0403 15:18:27.756161  2933 net.cpp:156] Memory required for data: 539493408
I0403 15:18:27.756186  2933 layer_factory.hpp:77] Creating layer inception_3a/relu_5x5
I0403 15:18:27.756224  2933 net.cpp:91] Creating Layer inception_3a/relu_5x5
I0403 15:18:27.756252  2933 net.cpp:425] inception_3a/relu_5x5 <- inception_3a/5x5
I0403 15:18:27.756268  2933 net.cpp:386] inception_3a/relu_5x5 -> inception_3a/5x5 (in-place)
I0403 15:18:27.756445  2933 net.cpp:141] Setting up inception_3a/relu_5x5
I0403 15:18:27.756474  2933 net.cpp:148] Top shape: 24 32 28 28 (602112)
I0403 15:18:27.756489  2933 net.cpp:156] Memory required for data: 541901856
I0403 15:18:27.756505  2933 layer_factory.hpp:77] Creating layer inception_3a/pool
I0403 15:18:27.756530  2933 net.cpp:91] Creating Layer inception_3a/pool
I0403 15:18:27.756561  2933 net.cpp:425] inception_3a/pool <- pool2/3x3_s2_pool2/3x3_s2_0_split_3
I0403 15:18:27.756582  2933 net.cpp:399] inception_3a/pool -> inception_3a/pool
I0403 15:18:27.756645  2933 net.cpp:141] Setting up inception_3a/pool
I0403 15:18:27.756669  2933 net.cpp:148] Top shape: 24 192 28 28 (3612672)
I0403 15:18:27.756685  2933 net.cpp:156] Memory required for data: 556352544
I0403 15:18:27.756700  2933 layer_factory.hpp:77] Creating layer inception_3a/pool_proj
I0403 15:18:27.756721  2933 net.cpp:91] Creating Layer inception_3a/pool_proj
I0403 15:18:27.756738  2933 net.cpp:425] inception_3a/pool_proj <- inception_3a/pool
I0403 15:18:27.756762  2933 net.cpp:399] inception_3a/pool_proj -> inception_3a/pool_proj
I0403 15:18:27.757746  2933 net.cpp:141] Setting up inception_3a/pool_proj
I0403 15:18:27.757774  2933 net.cpp:148] Top shape: 24 32 28 28 (602112)
I0403 15:18:27.757791  2933 net.cpp:156] Memory required for data: 558760992
I0403 15:18:27.757815  2933 layer_factory.hpp:77] Creating layer inception_3a/relu_pool_proj
I0403 15:18:27.757834  2933 net.cpp:91] Creating Layer inception_3a/relu_pool_proj
I0403 15:18:27.757851  2933 net.cpp:425] inception_3a/relu_pool_proj <- inception_3a/pool_proj
I0403 15:18:27.757869  2933 net.cpp:386] inception_3a/relu_pool_proj -> inception_3a/pool_proj (in-place)
I0403 15:18:27.758146  2933 net.cpp:141] Setting up inception_3a/relu_pool_proj
I0403 15:18:27.758174  2933 net.cpp:148] Top shape: 24 32 28 28 (602112)
I0403 15:18:27.758196  2933 net.cpp:156] Memory required for data: 561169440
I0403 15:18:27.758211  2933 layer_factory.hpp:77] Creating layer inception_3a/output
I0403 15:18:27.758229  2933 net.cpp:91] Creating Layer inception_3a/output
I0403 15:18:27.758245  2933 net.cpp:425] inception_3a/output <- inception_3a/1x1
I0403 15:18:27.758262  2933 net.cpp:425] inception_3a/output <- inception_3a/3x3
I0403 15:18:27.758278  2933 net.cpp:425] inception_3a/output <- inception_3a/5x5
I0403 15:18:27.758294  2933 net.cpp:425] inception_3a/output <- inception_3a/pool_proj
I0403 15:18:27.758311  2933 net.cpp:399] inception_3a/output -> inception_3a/output
I0403 15:18:27.758359  2933 net.cpp:141] Setting up inception_3a/output
I0403 15:18:27.758383  2933 net.cpp:148] Top shape: 24 256 28 28 (4816896)
I0403 15:18:27.758399  2933 net.cpp:156] Memory required for data: 580437024
I0403 15:18:27.758414  2933 layer_factory.hpp:77] Creating layer inception_3a/output_inception_3a/output_0_split
I0403 15:18:27.758430  2933 net.cpp:91] Creating Layer inception_3a/output_inception_3a/output_0_split
I0403 15:18:27.758448  2933 net.cpp:425] inception_3a/output_inception_3a/output_0_split <- inception_3a/output
I0403 15:18:27.758468  2933 net.cpp:399] inception_3a/output_inception_3a/output_0_split -> inception_3a/output_inception_3a/output_0_split_0
I0403 15:18:27.758487  2933 net.cpp:399] inception_3a/output_inception_3a/output_0_split -> inception_3a/output_inception_3a/output_0_split_1
I0403 15:18:27.758512  2933 net.cpp:399] inception_3a/output_inception_3a/output_0_split -> inception_3a/output_inception_3a/output_0_split_2
I0403 15:18:27.758534  2933 net.cpp:399] inception_3a/output_inception_3a/output_0_split -> inception_3a/output_inception_3a/output_0_split_3
I0403 15:18:27.758611  2933 net.cpp:141] Setting up inception_3a/output_inception_3a/output_0_split
I0403 15:18:27.758635  2933 net.cpp:148] Top shape: 24 256 28 28 (4816896)
I0403 15:18:27.758651  2933 net.cpp:148] Top shape: 24 256 28 28 (4816896)
I0403 15:18:27.758667  2933 net.cpp:148] Top shape: 24 256 28 28 (4816896)
I0403 15:18:27.758683  2933 net.cpp:148] Top shape: 24 256 28 28 (4816896)
I0403 15:18:27.758697  2933 net.cpp:156] Memory required for data: 657507360
I0403 15:18:27.758711  2933 layer_factory.hpp:77] Creating layer inception_3b/1x1
I0403 15:18:27.758734  2933 net.cpp:91] Creating Layer inception_3b/1x1
I0403 15:18:27.758752  2933 net.cpp:425] inception_3b/1x1 <- inception_3a/output_inception_3a/output_0_split_0
I0403 15:18:27.758774  2933 net.cpp:399] inception_3b/1x1 -> inception_3b/1x1
I0403 15:18:27.759966  2933 net.cpp:141] Setting up inception_3b/1x1
I0403 15:18:27.760006  2933 net.cpp:148] Top shape: 24 128 28 28 (2408448)
I0403 15:18:27.760023  2933 net.cpp:156] Memory required for data: 667141152
I0403 15:18:27.760042  2933 layer_factory.hpp:77] Creating layer inception_3b/relu_1x1
I0403 15:18:27.760063  2933 net.cpp:91] Creating Layer inception_3b/relu_1x1
I0403 15:18:27.760081  2933 net.cpp:425] inception_3b/relu_1x1 <- inception_3b/1x1
I0403 15:18:27.760097  2933 net.cpp:386] inception_3b/relu_1x1 -> inception_3b/1x1 (in-place)
I0403 15:18:27.760280  2933 net.cpp:141] Setting up inception_3b/relu_1x1
I0403 15:18:27.760308  2933 net.cpp:148] Top shape: 24 128 28 28 (2408448)
I0403 15:18:27.760324  2933 net.cpp:156] Memory required for data: 676774944
I0403 15:18:27.760339  2933 layer_factory.hpp:77] Creating layer inception_3b/3x3_reduce
I0403 15:18:27.760362  2933 net.cpp:91] Creating Layer inception_3b/3x3_reduce
I0403 15:18:27.760380  2933 net.cpp:425] inception_3b/3x3_reduce <- inception_3a/output_inception_3a/output_0_split_1
I0403 15:18:27.760399  2933 net.cpp:399] inception_3b/3x3_reduce -> inception_3b/3x3_reduce
I0403 15:18:27.761591  2933 net.cpp:141] Setting up inception_3b/3x3_reduce
I0403 15:18:27.761620  2933 net.cpp:148] Top shape: 24 128 28 28 (2408448)
I0403 15:18:27.761636  2933 net.cpp:156] Memory required for data: 686408736
I0403 15:18:27.761653  2933 layer_factory.hpp:77] Creating layer inception_3b/relu_3x3_reduce
I0403 15:18:27.761674  2933 net.cpp:91] Creating Layer inception_3b/relu_3x3_reduce
I0403 15:18:27.761692  2933 net.cpp:425] inception_3b/relu_3x3_reduce <- inception_3b/3x3_reduce
I0403 15:18:27.761709  2933 net.cpp:386] inception_3b/relu_3x3_reduce -> inception_3b/3x3_reduce (in-place)
I0403 15:18:27.761888  2933 net.cpp:141] Setting up inception_3b/relu_3x3_reduce
I0403 15:18:27.761912  2933 net.cpp:148] Top shape: 24 128 28 28 (2408448)
I0403 15:18:27.761927  2933 net.cpp:156] Memory required for data: 696042528
I0403 15:18:27.761941  2933 layer_factory.hpp:77] Creating layer inception_3b/3x3
I0403 15:18:27.761967  2933 net.cpp:91] Creating Layer inception_3b/3x3
I0403 15:18:27.761986  2933 net.cpp:425] inception_3b/3x3 <- inception_3b/3x3_reduce
I0403 15:18:27.762006  2933 net.cpp:399] inception_3b/3x3 -> inception_3b/3x3
I0403 15:18:27.764979  2933 net.cpp:141] Setting up inception_3b/3x3
I0403 15:18:27.765012  2933 net.cpp:148] Top shape: 24 192 28 28 (3612672)
I0403 15:18:27.765028  2933 net.cpp:156] Memory required for data: 710493216
I0403 15:18:27.765046  2933 layer_factory.hpp:77] Creating layer inception_3b/relu_3x3
I0403 15:18:27.765064  2933 net.cpp:91] Creating Layer inception_3b/relu_3x3
I0403 15:18:27.765081  2933 net.cpp:425] inception_3b/relu_3x3 <- inception_3b/3x3
I0403 15:18:27.765099  2933 net.cpp:386] inception_3b/relu_3x3 -> inception_3b/3x3 (in-place)
I0403 15:18:27.765403  2933 net.cpp:141] Setting up inception_3b/relu_3x3
I0403 15:18:27.765434  2933 net.cpp:148] Top shape: 24 192 28 28 (3612672)
I0403 15:18:27.765450  2933 net.cpp:156] Memory required for data: 724943904
I0403 15:18:27.765465  2933 layer_factory.hpp:77] Creating layer inception_3b/5x5_reduce
I0403 15:18:27.765486  2933 net.cpp:91] Creating Layer inception_3b/5x5_reduce
I0403 15:18:27.765504  2933 net.cpp:425] inception_3b/5x5_reduce <- inception_3a/output_inception_3a/output_0_split_2
I0403 15:18:27.765527  2933 net.cpp:399] inception_3b/5x5_reduce -> inception_3b/5x5_reduce
I0403 15:18:27.766567  2933 net.cpp:141] Setting up inception_3b/5x5_reduce
I0403 15:18:27.766597  2933 net.cpp:148] Top shape: 24 32 28 28 (602112)
I0403 15:18:27.766614  2933 net.cpp:156] Memory required for data: 727352352
I0403 15:18:27.766633  2933 layer_factory.hpp:77] Creating layer inception_3b/relu_5x5_reduce
I0403 15:18:27.766652  2933 net.cpp:91] Creating Layer inception_3b/relu_5x5_reduce
I0403 15:18:27.766669  2933 net.cpp:425] inception_3b/relu_5x5_reduce <- inception_3b/5x5_reduce
I0403 15:18:27.766687  2933 net.cpp:386] inception_3b/relu_5x5_reduce -> inception_3b/5x5_reduce (in-place)
I0403 15:18:27.766883  2933 net.cpp:141] Setting up inception_3b/relu_5x5_reduce
I0403 15:18:27.766911  2933 net.cpp:148] Top shape: 24 32 28 28 (602112)
I0403 15:18:27.766927  2933 net.cpp:156] Memory required for data: 729760800
I0403 15:18:27.766942  2933 layer_factory.hpp:77] Creating layer inception_3b/5x5
I0403 15:18:27.766964  2933 net.cpp:91] Creating Layer inception_3b/5x5
I0403 15:18:27.766983  2933 net.cpp:425] inception_3b/5x5 <- inception_3b/5x5_reduce
I0403 15:18:27.767001  2933 net.cpp:399] inception_3b/5x5 -> inception_3b/5x5
I0403 15:18:27.769018  2933 net.cpp:141] Setting up inception_3b/5x5
I0403 15:18:27.769047  2933 net.cpp:148] Top shape: 24 96 28 28 (1806336)
I0403 15:18:27.769063  2933 net.cpp:156] Memory required for data: 736986144
I0403 15:18:27.769081  2933 layer_factory.hpp:77] Creating layer inception_3b/relu_5x5
I0403 15:18:27.769103  2933 net.cpp:91] Creating Layer inception_3b/relu_5x5
I0403 15:18:27.769119  2933 net.cpp:425] inception_3b/relu_5x5 <- inception_3b/5x5
I0403 15:18:27.769136  2933 net.cpp:386] inception_3b/relu_5x5 -> inception_3b/5x5 (in-place)
I0403 15:18:27.769340  2933 net.cpp:141] Setting up inception_3b/relu_5x5
I0403 15:18:27.769366  2933 net.cpp:148] Top shape: 24 96 28 28 (1806336)
I0403 15:18:27.769381  2933 net.cpp:156] Memory required for data: 744211488
I0403 15:18:27.769395  2933 layer_factory.hpp:77] Creating layer inception_3b/pool
I0403 15:18:27.769413  2933 net.cpp:91] Creating Layer inception_3b/pool
I0403 15:18:27.769429  2933 net.cpp:425] inception_3b/pool <- inception_3a/output_inception_3a/output_0_split_3
I0403 15:18:27.769448  2933 net.cpp:399] inception_3b/pool -> inception_3b/pool
I0403 15:18:27.769507  2933 net.cpp:141] Setting up inception_3b/pool
I0403 15:18:27.769531  2933 net.cpp:148] Top shape: 24 256 28 28 (4816896)
I0403 15:18:27.769546  2933 net.cpp:156] Memory required for data: 763479072
I0403 15:18:27.769562  2933 layer_factory.hpp:77] Creating layer inception_3b/pool_proj
I0403 15:18:27.769583  2933 net.cpp:91] Creating Layer inception_3b/pool_proj
I0403 15:18:27.769601  2933 net.cpp:425] inception_3b/pool_proj <- inception_3b/pool
I0403 15:18:27.769623  2933 net.cpp:399] inception_3b/pool_proj -> inception_3b/pool_proj
I0403 15:18:27.770702  2933 net.cpp:141] Setting up inception_3b/pool_proj
I0403 15:18:27.770732  2933 net.cpp:148] Top shape: 24 64 28 28 (1204224)
I0403 15:18:27.770750  2933 net.cpp:156] Memory required for data: 768295968
I0403 15:18:27.770767  2933 layer_factory.hpp:77] Creating layer inception_3b/relu_pool_proj
I0403 15:18:27.770787  2933 net.cpp:91] Creating Layer inception_3b/relu_pool_proj
I0403 15:18:27.770802  2933 net.cpp:425] inception_3b/relu_pool_proj <- inception_3b/pool_proj
I0403 15:18:27.770823  2933 net.cpp:386] inception_3b/relu_pool_proj -> inception_3b/pool_proj (in-place)
I0403 15:18:27.771235  2933 net.cpp:141] Setting up inception_3b/relu_pool_proj
I0403 15:18:27.771265  2933 net.cpp:148] Top shape: 24 64 28 28 (1204224)
I0403 15:18:27.771281  2933 net.cpp:156] Memory required for data: 773112864
I0403 15:18:27.771296  2933 layer_factory.hpp:77] Creating layer inception_3b/output
I0403 15:18:27.771313  2933 net.cpp:91] Creating Layer inception_3b/output
I0403 15:18:27.771329  2933 net.cpp:425] inception_3b/output <- inception_3b/1x1
I0403 15:18:27.771347  2933 net.cpp:425] inception_3b/output <- inception_3b/3x3
I0403 15:18:27.771363  2933 net.cpp:425] inception_3b/output <- inception_3b/5x5
I0403 15:18:27.771378  2933 net.cpp:425] inception_3b/output <- inception_3b/pool_proj
I0403 15:18:27.771395  2933 net.cpp:399] inception_3b/output -> inception_3b/output
I0403 15:18:27.771443  2933 net.cpp:141] Setting up inception_3b/output
I0403 15:18:27.771467  2933 net.cpp:148] Top shape: 24 480 28 28 (9031680)
I0403 15:18:27.771481  2933 net.cpp:156] Memory required for data: 809239584
I0403 15:18:27.771497  2933 layer_factory.hpp:77] Creating layer pool3/3x3_s2
I0403 15:18:27.771517  2933 net.cpp:91] Creating Layer pool3/3x3_s2
I0403 15:18:27.771533  2933 net.cpp:425] pool3/3x3_s2 <- inception_3b/output
I0403 15:18:27.771569  2933 net.cpp:399] pool3/3x3_s2 -> pool3/3x3_s2
I0403 15:18:27.771630  2933 net.cpp:141] Setting up pool3/3x3_s2
I0403 15:18:27.771653  2933 net.cpp:148] Top shape: 24 480 14 14 (2257920)
I0403 15:18:27.771668  2933 net.cpp:156] Memory required for data: 818271264
I0403 15:18:27.771683  2933 layer_factory.hpp:77] Creating layer pool3/3x3_s2_pool3/3x3_s2_0_split
I0403 15:18:27.771700  2933 net.cpp:91] Creating Layer pool3/3x3_s2_pool3/3x3_s2_0_split
I0403 15:18:27.771715  2933 net.cpp:425] pool3/3x3_s2_pool3/3x3_s2_0_split <- pool3/3x3_s2
I0403 15:18:27.771735  2933 net.cpp:399] pool3/3x3_s2_pool3/3x3_s2_0_split -> pool3/3x3_s2_pool3/3x3_s2_0_split_0
I0403 15:18:27.771755  2933 net.cpp:399] pool3/3x3_s2_pool3/3x3_s2_0_split -> pool3/3x3_s2_pool3/3x3_s2_0_split_1
I0403 15:18:27.771775  2933 net.cpp:399] pool3/3x3_s2_pool3/3x3_s2_0_split -> pool3/3x3_s2_pool3/3x3_s2_0_split_2
I0403 15:18:27.771795  2933 net.cpp:399] pool3/3x3_s2_pool3/3x3_s2_0_split -> pool3/3x3_s2_pool3/3x3_s2_0_split_3
I0403 15:18:27.771873  2933 net.cpp:141] Setting up pool3/3x3_s2_pool3/3x3_s2_0_split
I0403 15:18:27.771899  2933 net.cpp:148] Top shape: 24 480 14 14 (2257920)
I0403 15:18:27.771916  2933 net.cpp:148] Top shape: 24 480 14 14 (2257920)
I0403 15:18:27.771934  2933 net.cpp:148] Top shape: 24 480 14 14 (2257920)
I0403 15:18:27.771950  2933 net.cpp:148] Top shape: 24 480 14 14 (2257920)
I0403 15:18:27.771962  2933 net.cpp:156] Memory required for data: 854397984
I0403 15:18:27.771977  2933 layer_factory.hpp:77] Creating layer inception_4a/1x1
I0403 15:18:27.771999  2933 net.cpp:91] Creating Layer inception_4a/1x1
I0403 15:18:27.772017  2933 net.cpp:425] inception_4a/1x1 <- pool3/3x3_s2_pool3/3x3_s2_0_split_0
I0403 15:18:27.772037  2933 net.cpp:399] inception_4a/1x1 -> inception_4a/1x1
I0403 15:18:27.773650  2933 net.cpp:141] Setting up inception_4a/1x1
I0403 15:18:27.773679  2933 net.cpp:148] Top shape: 24 192 14 14 (903168)
I0403 15:18:27.773694  2933 net.cpp:156] Memory required for data: 858010656
I0403 15:18:27.773713  2933 layer_factory.hpp:77] Creating layer inception_4a/relu_1x1
I0403 15:18:27.773730  2933 net.cpp:91] Creating Layer inception_4a/relu_1x1
I0403 15:18:27.773751  2933 net.cpp:425] inception_4a/relu_1x1 <- inception_4a/1x1
I0403 15:18:27.773767  2933 net.cpp:386] inception_4a/relu_1x1 -> inception_4a/1x1 (in-place)
I0403 15:18:27.773949  2933 net.cpp:141] Setting up inception_4a/relu_1x1
I0403 15:18:27.773974  2933 net.cpp:148] Top shape: 24 192 14 14 (903168)
I0403 15:18:27.773989  2933 net.cpp:156] Memory required for data: 861623328
I0403 15:18:27.774005  2933 layer_factory.hpp:77] Creating layer inception_4a/3x3_reduce
I0403 15:18:27.774027  2933 net.cpp:91] Creating Layer inception_4a/3x3_reduce
I0403 15:18:27.774044  2933 net.cpp:425] inception_4a/3x3_reduce <- pool3/3x3_s2_pool3/3x3_s2_0_split_1
I0403 15:18:27.774066  2933 net.cpp:399] inception_4a/3x3_reduce -> inception_4a/3x3_reduce
I0403 15:18:27.775378  2933 net.cpp:141] Setting up inception_4a/3x3_reduce
I0403 15:18:27.775405  2933 net.cpp:148] Top shape: 24 96 14 14 (451584)
I0403 15:18:27.775420  2933 net.cpp:156] Memory required for data: 863429664
I0403 15:18:27.775444  2933 layer_factory.hpp:77] Creating layer inception_4a/relu_3x3_reduce
I0403 15:18:27.775466  2933 net.cpp:91] Creating Layer inception_4a/relu_3x3_reduce
I0403 15:18:27.775482  2933 net.cpp:425] inception_4a/relu_3x3_reduce <- inception_4a/3x3_reduce
I0403 15:18:27.775501  2933 net.cpp:386] inception_4a/relu_3x3_reduce -> inception_4a/3x3_reduce (in-place)
I0403 15:18:27.775678  2933 net.cpp:141] Setting up inception_4a/relu_3x3_reduce
I0403 15:18:27.775703  2933 net.cpp:148] Top shape: 24 96 14 14 (451584)
I0403 15:18:27.775717  2933 net.cpp:156] Memory required for data: 865236000
I0403 15:18:27.775732  2933 layer_factory.hpp:77] Creating layer inception_4a/3x3
I0403 15:18:27.775753  2933 net.cpp:91] Creating Layer inception_4a/3x3
I0403 15:18:27.775770  2933 net.cpp:425] inception_4a/3x3 <- inception_4a/3x3_reduce
I0403 15:18:27.775791  2933 net.cpp:399] inception_4a/3x3 -> inception_4a/3x3
I0403 15:18:27.778465  2933 net.cpp:141] Setting up inception_4a/3x3
I0403 15:18:27.778493  2933 net.cpp:148] Top shape: 24 208 14 14 (978432)
I0403 15:18:27.778508  2933 net.cpp:156] Memory required for data: 869149728
I0403 15:18:27.778527  2933 layer_factory.hpp:77] Creating layer inception_4a/relu_3x3
I0403 15:18:27.778547  2933 net.cpp:91] Creating Layer inception_4a/relu_3x3
I0403 15:18:27.778563  2933 net.cpp:425] inception_4a/relu_3x3 <- inception_4a/3x3
I0403 15:18:27.778580  2933 net.cpp:386] inception_4a/relu_3x3 -> inception_4a/3x3 (in-place)
I0403 15:18:27.778856  2933 net.cpp:141] Setting up inception_4a/relu_3x3
I0403 15:18:27.778882  2933 net.cpp:148] Top shape: 24 208 14 14 (978432)
I0403 15:18:27.778895  2933 net.cpp:156] Memory required for data: 873063456
I0403 15:18:27.778910  2933 layer_factory.hpp:77] Creating layer inception_4a/5x5_reduce
I0403 15:18:27.778934  2933 net.cpp:91] Creating Layer inception_4a/5x5_reduce
I0403 15:18:27.778950  2933 net.cpp:425] inception_4a/5x5_reduce <- pool3/3x3_s2_pool3/3x3_s2_0_split_2
I0403 15:18:27.778971  2933 net.cpp:399] inception_4a/5x5_reduce -> inception_4a/5x5_reduce
I0403 15:18:27.779985  2933 net.cpp:141] Setting up inception_4a/5x5_reduce
I0403 15:18:27.780012  2933 net.cpp:148] Top shape: 24 16 14 14 (75264)
I0403 15:18:27.780027  2933 net.cpp:156] Memory required for data: 873364512
I0403 15:18:27.780045  2933 layer_factory.hpp:77] Creating layer inception_4a/relu_5x5_reduce
I0403 15:18:27.780067  2933 net.cpp:91] Creating Layer inception_4a/relu_5x5_reduce
I0403 15:18:27.780084  2933 net.cpp:425] inception_4a/relu_5x5_reduce <- inception_4a/5x5_reduce
I0403 15:18:27.780102  2933 net.cpp:386] inception_4a/relu_5x5_reduce -> inception_4a/5x5_reduce (in-place)
I0403 15:18:27.780283  2933 net.cpp:141] Setting up inception_4a/relu_5x5_reduce
I0403 15:18:27.780311  2933 net.cpp:148] Top shape: 24 16 14 14 (75264)
I0403 15:18:27.780325  2933 net.cpp:156] Memory required for data: 873665568
I0403 15:18:27.780340  2933 layer_factory.hpp:77] Creating layer inception_4a/5x5
I0403 15:18:27.780362  2933 net.cpp:91] Creating Layer inception_4a/5x5
I0403 15:18:27.780380  2933 net.cpp:425] inception_4a/5x5 <- inception_4a/5x5_reduce
I0403 15:18:27.780397  2933 net.cpp:399] inception_4a/5x5 -> inception_4a/5x5
I0403 15:18:27.781474  2933 net.cpp:141] Setting up inception_4a/5x5
I0403 15:18:27.781502  2933 net.cpp:148] Top shape: 24 48 14 14 (225792)
I0403 15:18:27.781518  2933 net.cpp:156] Memory required for data: 874568736
I0403 15:18:27.781536  2933 layer_factory.hpp:77] Creating layer inception_4a/relu_5x5
I0403 15:18:27.781558  2933 net.cpp:91] Creating Layer inception_4a/relu_5x5
I0403 15:18:27.781574  2933 net.cpp:425] inception_4a/relu_5x5 <- inception_4a/5x5
I0403 15:18:27.781592  2933 net.cpp:386] inception_4a/relu_5x5 -> inception_4a/5x5 (in-place)
I0403 15:18:27.781774  2933 net.cpp:141] Setting up inception_4a/relu_5x5
I0403 15:18:27.781798  2933 net.cpp:148] Top shape: 24 48 14 14 (225792)
I0403 15:18:27.781813  2933 net.cpp:156] Memory required for data: 875471904
I0403 15:18:27.781828  2933 layer_factory.hpp:77] Creating layer inception_4a/pool
I0403 15:18:27.781846  2933 net.cpp:91] Creating Layer inception_4a/pool
I0403 15:18:27.781864  2933 net.cpp:425] inception_4a/pool <- pool3/3x3_s2_pool3/3x3_s2_0_split_3
I0403 15:18:27.781886  2933 net.cpp:399] inception_4a/pool -> inception_4a/pool
I0403 15:18:27.781949  2933 net.cpp:141] Setting up inception_4a/pool
I0403 15:18:27.781972  2933 net.cpp:148] Top shape: 24 480 14 14 (2257920)
I0403 15:18:27.781986  2933 net.cpp:156] Memory required for data: 884503584
I0403 15:18:27.782004  2933 layer_factory.hpp:77] Creating layer inception_4a/pool_proj
I0403 15:18:27.782032  2933 net.cpp:91] Creating Layer inception_4a/pool_proj
I0403 15:18:27.782048  2933 net.cpp:425] inception_4a/pool_proj <- inception_4a/pool
I0403 15:18:27.782075  2933 net.cpp:399] inception_4a/pool_proj -> inception_4a/pool_proj
I0403 15:18:27.783299  2933 net.cpp:141] Setting up inception_4a/pool_proj
I0403 15:18:27.783329  2933 net.cpp:148] Top shape: 24 64 14 14 (301056)
I0403 15:18:27.783360  2933 net.cpp:156] Memory required for data: 885707808
I0403 15:18:27.783380  2933 layer_factory.hpp:77] Creating layer inception_4a/relu_pool_proj
I0403 15:18:27.783398  2933 net.cpp:91] Creating Layer inception_4a/relu_pool_proj
I0403 15:18:27.783414  2933 net.cpp:425] inception_4a/relu_pool_proj <- inception_4a/pool_proj
I0403 15:18:27.783438  2933 net.cpp:386] inception_4a/relu_pool_proj -> inception_4a/pool_proj (in-place)
I0403 15:18:27.783735  2933 net.cpp:141] Setting up inception_4a/relu_pool_proj
I0403 15:18:27.783762  2933 net.cpp:148] Top shape: 24 64 14 14 (301056)
I0403 15:18:27.783777  2933 net.cpp:156] Memory required for data: 886912032
I0403 15:18:27.783792  2933 layer_factory.hpp:77] Creating layer inception_4a/output
I0403 15:18:27.783810  2933 net.cpp:91] Creating Layer inception_4a/output
I0403 15:18:27.783826  2933 net.cpp:425] inception_4a/output <- inception_4a/1x1
I0403 15:18:27.783843  2933 net.cpp:425] inception_4a/output <- inception_4a/3x3
I0403 15:18:27.783859  2933 net.cpp:425] inception_4a/output <- inception_4a/5x5
I0403 15:18:27.783875  2933 net.cpp:425] inception_4a/output <- inception_4a/pool_proj
I0403 15:18:27.783895  2933 net.cpp:399] inception_4a/output -> inception_4a/output
I0403 15:18:27.783941  2933 net.cpp:141] Setting up inception_4a/output
I0403 15:18:27.783967  2933 net.cpp:148] Top shape: 24 512 14 14 (2408448)
I0403 15:18:27.783983  2933 net.cpp:156] Memory required for data: 896545824
I0403 15:18:27.783998  2933 layer_factory.hpp:77] Creating layer inception_4a/output_inception_4a/output_0_split
I0403 15:18:27.784015  2933 net.cpp:91] Creating Layer inception_4a/output_inception_4a/output_0_split
I0403 15:18:27.784031  2933 net.cpp:425] inception_4a/output_inception_4a/output_0_split <- inception_4a/output
I0403 15:18:27.784049  2933 net.cpp:399] inception_4a/output_inception_4a/output_0_split -> inception_4a/output_inception_4a/output_0_split_0
I0403 15:18:27.784081  2933 net.cpp:399] inception_4a/output_inception_4a/output_0_split -> inception_4a/output_inception_4a/output_0_split_1
I0403 15:18:27.784104  2933 net.cpp:399] inception_4a/output_inception_4a/output_0_split -> inception_4a/output_inception_4a/output_0_split_2
I0403 15:18:27.784126  2933 net.cpp:399] inception_4a/output_inception_4a/output_0_split -> inception_4a/output_inception_4a/output_0_split_3
I0403 15:18:27.784147  2933 net.cpp:399] inception_4a/output_inception_4a/output_0_split -> inception_4a/output_inception_4a/output_0_split_4
I0403 15:18:27.784245  2933 net.cpp:141] Setting up inception_4a/output_inception_4a/output_0_split
I0403 15:18:27.784270  2933 net.cpp:148] Top shape: 24 512 14 14 (2408448)
I0403 15:18:27.784286  2933 net.cpp:148] Top shape: 24 512 14 14 (2408448)
I0403 15:18:27.784307  2933 net.cpp:148] Top shape: 24 512 14 14 (2408448)
I0403 15:18:27.784322  2933 net.cpp:148] Top shape: 24 512 14 14 (2408448)
I0403 15:18:27.784339  2933 net.cpp:148] Top shape: 24 512 14 14 (2408448)
I0403 15:18:27.784353  2933 net.cpp:156] Memory required for data: 944714784
I0403 15:18:27.784369  2933 layer_factory.hpp:77] Creating layer loss1/ave_pool
I0403 15:18:27.784386  2933 net.cpp:91] Creating Layer loss1/ave_pool
I0403 15:18:27.784402  2933 net.cpp:425] loss1/ave_pool <- inception_4a/output_inception_4a/output_0_split_0
I0403 15:18:27.784420  2933 net.cpp:399] loss1/ave_pool -> loss1/ave_pool
I0403 15:18:27.784631  2933 net.cpp:141] Setting up loss1/ave_pool
I0403 15:18:27.784658  2933 net.cpp:148] Top shape: 24 512 4 4 (196608)
I0403 15:18:27.784673  2933 net.cpp:156] Memory required for data: 945501216
I0403 15:18:27.784688  2933 layer_factory.hpp:77] Creating layer loss1/conv
I0403 15:18:27.784710  2933 net.cpp:91] Creating Layer loss1/conv
I0403 15:18:27.784729  2933 net.cpp:425] loss1/conv <- loss1/ave_pool
I0403 15:18:27.784749  2933 net.cpp:399] loss1/conv -> loss1/conv
I0403 15:18:27.786250  2933 net.cpp:141] Setting up loss1/conv
I0403 15:18:27.786280  2933 net.cpp:148] Top shape: 24 128 4 4 (49152)
I0403 15:18:27.786310  2933 net.cpp:156] Memory required for data: 945697824
I0403 15:18:27.786331  2933 layer_factory.hpp:77] Creating layer loss1/relu_conv
I0403 15:18:27.786353  2933 net.cpp:91] Creating Layer loss1/relu_conv
I0403 15:18:27.786371  2933 net.cpp:425] loss1/relu_conv <- loss1/conv
I0403 15:18:27.786389  2933 net.cpp:386] loss1/relu_conv -> loss1/conv (in-place)
I0403 15:18:27.786695  2933 net.cpp:141] Setting up loss1/relu_conv
I0403 15:18:27.786721  2933 net.cpp:148] Top shape: 24 128 4 4 (49152)
I0403 15:18:27.786737  2933 net.cpp:156] Memory required for data: 945894432
I0403 15:18:27.786753  2933 layer_factory.hpp:77] Creating layer loss1/fc
I0403 15:18:27.786779  2933 net.cpp:91] Creating Layer loss1/fc
I0403 15:18:27.786798  2933 net.cpp:425] loss1/fc <- loss1/conv
I0403 15:18:27.786818  2933 net.cpp:399] loss1/fc -> loss1/fc
I0403 15:18:27.805629  2933 net.cpp:141] Setting up loss1/fc
I0403 15:18:27.805704  2933 net.cpp:148] Top shape: 24 1024 (24576)
I0403 15:18:27.805721  2933 net.cpp:156] Memory required for data: 945992736
I0403 15:18:27.805742  2933 layer_factory.hpp:77] Creating layer loss1/relu_fc
I0403 15:18:27.805763  2933 net.cpp:91] Creating Layer loss1/relu_fc
I0403 15:18:27.805781  2933 net.cpp:425] loss1/relu_fc <- loss1/fc
I0403 15:18:27.805806  2933 net.cpp:386] loss1/relu_fc -> loss1/fc (in-place)
I0403 15:18:27.806049  2933 net.cpp:141] Setting up loss1/relu_fc
I0403 15:18:27.806076  2933 net.cpp:148] Top shape: 24 1024 (24576)
I0403 15:18:27.806090  2933 net.cpp:156] Memory required for data: 946091040
I0403 15:18:27.806105  2933 layer_factory.hpp:77] Creating layer loss1/drop_fc
I0403 15:18:27.806134  2933 net.cpp:91] Creating Layer loss1/drop_fc
I0403 15:18:27.806152  2933 net.cpp:425] loss1/drop_fc <- loss1/fc
I0403 15:18:27.806170  2933 net.cpp:386] loss1/drop_fc -> loss1/fc (in-place)
I0403 15:18:27.806229  2933 net.cpp:141] Setting up loss1/drop_fc
I0403 15:18:27.806258  2933 net.cpp:148] Top shape: 24 1024 (24576)
I0403 15:18:27.806274  2933 net.cpp:156] Memory required for data: 946189344
I0403 15:18:27.806290  2933 layer_factory.hpp:77] Creating layer loss1/classifier_plantvillage
I0403 15:18:27.806309  2933 net.cpp:91] Creating Layer loss1/classifier_plantvillage
I0403 15:18:27.806324  2933 net.cpp:425] loss1/classifier_plantvillage <- loss1/fc
I0403 15:18:27.806345  2933 net.cpp:399] loss1/classifier_plantvillage -> loss1/classifier_plantvillage
I0403 15:18:27.807303  2933 net.cpp:141] Setting up loss1/classifier_plantvillage
I0403 15:18:27.807332  2933 net.cpp:148] Top shape: 24 38 (912)
I0403 15:18:27.807348  2933 net.cpp:156] Memory required for data: 946192992
I0403 15:18:27.807366  2933 layer_factory.hpp:77] Creating layer loss1/classifier_plantvillage_loss1/classifier_plantvillage_0_split
I0403 15:18:27.807387  2933 net.cpp:91] Creating Layer loss1/classifier_plantvillage_loss1/classifier_plantvillage_0_split
I0403 15:18:27.807404  2933 net.cpp:425] loss1/classifier_plantvillage_loss1/classifier_plantvillage_0_split <- loss1/classifier_plantvillage
I0403 15:18:27.807423  2933 net.cpp:399] loss1/classifier_plantvillage_loss1/classifier_plantvillage_0_split -> loss1/classifier_plantvillage_loss1/classifier_plantvillage_0_split_0
I0403 15:18:27.807443  2933 net.cpp:399] loss1/classifier_plantvillage_loss1/classifier_plantvillage_0_split -> loss1/classifier_plantvillage_loss1/classifier_plantvillage_0_split_1
I0403 15:18:27.807464  2933 net.cpp:399] loss1/classifier_plantvillage_loss1/classifier_plantvillage_0_split -> loss1/classifier_plantvillage_loss1/classifier_plantvillage_0_split_2
I0403 15:18:27.807533  2933 net.cpp:141] Setting up loss1/classifier_plantvillage_loss1/classifier_plantvillage_0_split
I0403 15:18:27.807557  2933 net.cpp:148] Top shape: 24 38 (912)
I0403 15:18:27.807574  2933 net.cpp:148] Top shape: 24 38 (912)
I0403 15:18:27.807591  2933 net.cpp:148] Top shape: 24 38 (912)
I0403 15:18:27.807605  2933 net.cpp:156] Memory required for data: 946203936
I0403 15:18:27.807620  2933 layer_factory.hpp:77] Creating layer inception_4b/1x1
I0403 15:18:27.807641  2933 net.cpp:91] Creating Layer inception_4b/1x1
I0403 15:18:27.807687  2933 net.cpp:425] inception_4b/1x1 <- inception_4a/output_inception_4a/output_0_split_1
I0403 15:18:27.807708  2933 net.cpp:399] inception_4b/1x1 -> inception_4b/1x1
I0403 15:18:27.809480  2933 net.cpp:141] Setting up inception_4b/1x1
I0403 15:18:27.809509  2933 net.cpp:148] Top shape: 24 160 14 14 (752640)
I0403 15:18:27.809525  2933 net.cpp:156] Memory required for data: 949214496
I0403 15:18:27.809543  2933 layer_factory.hpp:77] Creating layer inception_4b/relu_1x1
I0403 15:18:27.809566  2933 net.cpp:91] Creating Layer inception_4b/relu_1x1
I0403 15:18:27.809582  2933 net.cpp:425] inception_4b/relu_1x1 <- inception_4b/1x1
I0403 15:18:27.809600  2933 net.cpp:386] inception_4b/relu_1x1 -> inception_4b/1x1 (in-place)
I0403 15:18:27.809785  2933 net.cpp:141] Setting up inception_4b/relu_1x1
I0403 15:18:27.809813  2933 net.cpp:148] Top shape: 24 160 14 14 (752640)
I0403 15:18:27.809829  2933 net.cpp:156] Memory required for data: 952225056
I0403 15:18:27.809844  2933 layer_factory.hpp:77] Creating layer inception_4b/3x3_reduce
I0403 15:18:27.809866  2933 net.cpp:91] Creating Layer inception_4b/3x3_reduce
I0403 15:18:27.809885  2933 net.cpp:425] inception_4b/3x3_reduce <- inception_4a/output_inception_4a/output_0_split_2
I0403 15:18:27.809902  2933 net.cpp:399] inception_4b/3x3_reduce -> inception_4b/3x3_reduce
I0403 15:18:27.811316  2933 net.cpp:141] Setting up inception_4b/3x3_reduce
I0403 15:18:27.811348  2933 net.cpp:148] Top shape: 24 112 14 14 (526848)
I0403 15:18:27.811367  2933 net.cpp:156] Memory required for data: 954332448
I0403 15:18:27.811386  2933 layer_factory.hpp:77] Creating layer inception_4b/relu_3x3_reduce
I0403 15:18:27.811405  2933 net.cpp:91] Creating Layer inception_4b/relu_3x3_reduce
I0403 15:18:27.811422  2933 net.cpp:425] inception_4b/relu_3x3_reduce <- inception_4b/3x3_reduce
I0403 15:18:27.811442  2933 net.cpp:386] inception_4b/relu_3x3_reduce -> inception_4b/3x3_reduce (in-place)
I0403 15:18:27.811746  2933 net.cpp:141] Setting up inception_4b/relu_3x3_reduce
I0403 15:18:27.811775  2933 net.cpp:148] Top shape: 24 112 14 14 (526848)
I0403 15:18:27.811791  2933 net.cpp:156] Memory required for data: 956439840
I0403 15:18:27.811806  2933 layer_factory.hpp:77] Creating layer inception_4b/3x3
I0403 15:18:27.811830  2933 net.cpp:91] Creating Layer inception_4b/3x3
I0403 15:18:27.811847  2933 net.cpp:425] inception_4b/3x3 <- inception_4b/3x3_reduce
I0403 15:18:27.811866  2933 net.cpp:399] inception_4b/3x3 -> inception_4b/3x3
I0403 15:18:27.814961  2933 net.cpp:141] Setting up inception_4b/3x3
I0403 15:18:27.814990  2933 net.cpp:148] Top shape: 24 224 14 14 (1053696)
I0403 15:18:27.815006  2933 net.cpp:156] Memory required for data: 960654624
I0403 15:18:27.815024  2933 layer_factory.hpp:77] Creating layer inception_4b/relu_3x3
I0403 15:18:27.815045  2933 net.cpp:91] Creating Layer inception_4b/relu_3x3
I0403 15:18:27.815062  2933 net.cpp:425] inception_4b/relu_3x3 <- inception_4b/3x3
I0403 15:18:27.815079  2933 net.cpp:386] inception_4b/relu_3x3 -> inception_4b/3x3 (in-place)
I0403 15:18:27.815269  2933 net.cpp:141] Setting up inception_4b/relu_3x3
I0403 15:18:27.815295  2933 net.cpp:148] Top shape: 24 224 14 14 (1053696)
I0403 15:18:27.815310  2933 net.cpp:156] Memory required for data: 964869408
I0403 15:18:27.815325  2933 layer_factory.hpp:77] Creating layer inception_4b/5x5_reduce
I0403 15:18:27.815347  2933 net.cpp:91] Creating Layer inception_4b/5x5_reduce
I0403 15:18:27.815364  2933 net.cpp:425] inception_4b/5x5_reduce <- inception_4a/output_inception_4a/output_0_split_3
I0403 15:18:27.815388  2933 net.cpp:399] inception_4b/5x5_reduce -> inception_4b/5x5_reduce
I0403 15:18:27.816679  2933 net.cpp:141] Setting up inception_4b/5x5_reduce
I0403 15:18:27.816707  2933 net.cpp:148] Top shape: 24 24 14 14 (112896)
I0403 15:18:27.816723  2933 net.cpp:156] Memory required for data: 965320992
I0403 15:18:27.816742  2933 layer_factory.hpp:77] Creating layer inception_4b/relu_5x5_reduce
I0403 15:18:27.816764  2933 net.cpp:91] Creating Layer inception_4b/relu_5x5_reduce
I0403 15:18:27.816797  2933 net.cpp:425] inception_4b/relu_5x5_reduce <- inception_4b/5x5_reduce
I0403 15:18:27.816815  2933 net.cpp:386] inception_4b/relu_5x5_reduce -> inception_4b/5x5_reduce (in-place)
I0403 15:18:27.817003  2933 net.cpp:141] Setting up inception_4b/relu_5x5_reduce
I0403 15:18:27.817028  2933 net.cpp:148] Top shape: 24 24 14 14 (112896)
I0403 15:18:27.817044  2933 net.cpp:156] Memory required for data: 965772576
I0403 15:18:27.817059  2933 layer_factory.hpp:77] Creating layer inception_4b/5x5
I0403 15:18:27.817080  2933 net.cpp:91] Creating Layer inception_4b/5x5
I0403 15:18:27.817098  2933 net.cpp:425] inception_4b/5x5 <- inception_4b/5x5_reduce
I0403 15:18:27.817119  2933 net.cpp:399] inception_4b/5x5 -> inception_4b/5x5
I0403 15:18:27.818387  2933 net.cpp:141] Setting up inception_4b/5x5
I0403 15:18:27.818416  2933 net.cpp:148] Top shape: 24 64 14 14 (301056)
I0403 15:18:27.818431  2933 net.cpp:156] Memory required for data: 966976800
I0403 15:18:27.818449  2933 layer_factory.hpp:77] Creating layer inception_4b/relu_5x5
I0403 15:18:27.818472  2933 net.cpp:91] Creating Layer inception_4b/relu_5x5
I0403 15:18:27.818490  2933 net.cpp:425] inception_4b/relu_5x5 <- inception_4b/5x5
I0403 15:18:27.818507  2933 net.cpp:386] inception_4b/relu_5x5 -> inception_4b/5x5 (in-place)
I0403 15:18:27.818797  2933 net.cpp:141] Setting up inception_4b/relu_5x5
I0403 15:18:27.818825  2933 net.cpp:148] Top shape: 24 64 14 14 (301056)
I0403 15:18:27.818840  2933 net.cpp:156] Memory required for data: 968181024
I0403 15:18:27.818855  2933 layer_factory.hpp:77] Creating layer inception_4b/pool
I0403 15:18:27.818876  2933 net.cpp:91] Creating Layer inception_4b/pool
I0403 15:18:27.818893  2933 net.cpp:425] inception_4b/pool <- inception_4a/output_inception_4a/output_0_split_4
I0403 15:18:27.818912  2933 net.cpp:399] inception_4b/pool -> inception_4b/pool
I0403 15:18:27.818979  2933 net.cpp:141] Setting up inception_4b/pool
I0403 15:18:27.819002  2933 net.cpp:148] Top shape: 24 512 14 14 (2408448)
I0403 15:18:27.819017  2933 net.cpp:156] Memory required for data: 977814816
I0403 15:18:27.819032  2933 layer_factory.hpp:77] Creating layer inception_4b/pool_proj
I0403 15:18:27.819054  2933 net.cpp:91] Creating Layer inception_4b/pool_proj
I0403 15:18:27.819072  2933 net.cpp:425] inception_4b/pool_proj <- inception_4b/pool
I0403 15:18:27.819093  2933 net.cpp:399] inception_4b/pool_proj -> inception_4b/pool_proj
I0403 15:18:27.820350  2933 net.cpp:141] Setting up inception_4b/pool_proj
I0403 15:18:27.820384  2933 net.cpp:148] Top shape: 24 64 14 14 (301056)
I0403 15:18:27.820401  2933 net.cpp:156] Memory required for data: 979019040
I0403 15:18:27.820420  2933 layer_factory.hpp:77] Creating layer inception_4b/relu_pool_proj
I0403 15:18:27.820438  2933 net.cpp:91] Creating Layer inception_4b/relu_pool_proj
I0403 15:18:27.820456  2933 net.cpp:425] inception_4b/relu_pool_proj <- inception_4b/pool_proj
I0403 15:18:27.820473  2933 net.cpp:386] inception_4b/relu_pool_proj -> inception_4b/pool_proj (in-place)
I0403 15:18:27.820673  2933 net.cpp:141] Setting up inception_4b/relu_pool_proj
I0403 15:18:27.820700  2933 net.cpp:148] Top shape: 24 64 14 14 (301056)
I0403 15:18:27.820716  2933 net.cpp:156] Memory required for data: 980223264
I0403 15:18:27.820730  2933 layer_factory.hpp:77] Creating layer inception_4b/output
I0403 15:18:27.820749  2933 net.cpp:91] Creating Layer inception_4b/output
I0403 15:18:27.820765  2933 net.cpp:425] inception_4b/output <- inception_4b/1x1
I0403 15:18:27.820781  2933 net.cpp:425] inception_4b/output <- inception_4b/3x3
I0403 15:18:27.820797  2933 net.cpp:425] inception_4b/output <- inception_4b/5x5
I0403 15:18:27.820812  2933 net.cpp:425] inception_4b/output <- inception_4b/pool_proj
I0403 15:18:27.820832  2933 net.cpp:399] inception_4b/output -> inception_4b/output
I0403 15:18:27.820879  2933 net.cpp:141] Setting up inception_4b/output
I0403 15:18:27.820902  2933 net.cpp:148] Top shape: 24 512 14 14 (2408448)
I0403 15:18:27.820917  2933 net.cpp:156] Memory required for data: 989857056
I0403 15:18:27.820947  2933 layer_factory.hpp:77] Creating layer inception_4b/output_inception_4b/output_0_split
I0403 15:18:27.820968  2933 net.cpp:91] Creating Layer inception_4b/output_inception_4b/output_0_split
I0403 15:18:27.820986  2933 net.cpp:425] inception_4b/output_inception_4b/output_0_split <- inception_4b/output
I0403 15:18:27.821003  2933 net.cpp:399] inception_4b/output_inception_4b/output_0_split -> inception_4b/output_inception_4b/output_0_split_0
I0403 15:18:27.821023  2933 net.cpp:399] inception_4b/output_inception_4b/output_0_split -> inception_4b/output_inception_4b/output_0_split_1
I0403 15:18:27.821048  2933 net.cpp:399] inception_4b/output_inception_4b/output_0_split -> inception_4b/output_inception_4b/output_0_split_2
I0403 15:18:27.821069  2933 net.cpp:399] inception_4b/output_inception_4b/output_0_split -> inception_4b/output_inception_4b/output_0_split_3
I0403 15:18:27.821166  2933 net.cpp:141] Setting up inception_4b/output_inception_4b/output_0_split
I0403 15:18:27.821193  2933 net.cpp:148] Top shape: 24 512 14 14 (2408448)
I0403 15:18:27.821210  2933 net.cpp:148] Top shape: 24 512 14 14 (2408448)
I0403 15:18:27.821226  2933 net.cpp:148] Top shape: 24 512 14 14 (2408448)
I0403 15:18:27.821243  2933 net.cpp:148] Top shape: 24 512 14 14 (2408448)
I0403 15:18:27.821256  2933 net.cpp:156] Memory required for data: 1028392224
I0403 15:18:27.821270  2933 layer_factory.hpp:77] Creating layer inception_4c/1x1
I0403 15:18:27.821293  2933 net.cpp:91] Creating Layer inception_4c/1x1
I0403 15:18:27.821310  2933 net.cpp:425] inception_4c/1x1 <- inception_4b/output_inception_4b/output_0_split_0
I0403 15:18:27.821331  2933 net.cpp:399] inception_4c/1x1 -> inception_4c/1x1
I0403 15:18:27.822805  2933 net.cpp:141] Setting up inception_4c/1x1
I0403 15:18:27.822836  2933 net.cpp:148] Top shape: 24 128 14 14 (602112)
I0403 15:18:27.822854  2933 net.cpp:156] Memory required for data: 1030800672
I0403 15:18:27.822872  2933 layer_factory.hpp:77] Creating layer inception_4c/relu_1x1
I0403 15:18:27.822890  2933 net.cpp:91] Creating Layer inception_4c/relu_1x1
I0403 15:18:27.822906  2933 net.cpp:425] inception_4c/relu_1x1 <- inception_4c/1x1
I0403 15:18:27.822926  2933 net.cpp:386] inception_4c/relu_1x1 -> inception_4c/1x1 (in-place)
I0403 15:18:27.823114  2933 net.cpp:141] Setting up inception_4c/relu_1x1
I0403 15:18:27.823140  2933 net.cpp:148] Top shape: 24 128 14 14 (602112)
I0403 15:18:27.823155  2933 net.cpp:156] Memory required for data: 1033209120
I0403 15:18:27.823170  2933 layer_factory.hpp:77] Creating layer inception_4c/3x3_reduce
I0403 15:18:27.823204  2933 net.cpp:91] Creating Layer inception_4c/3x3_reduce
I0403 15:18:27.823225  2933 net.cpp:425] inception_4c/3x3_reduce <- inception_4b/output_inception_4b/output_0_split_1
I0403 15:18:27.823246  2933 net.cpp:399] inception_4c/3x3_reduce -> inception_4c/3x3_reduce
I0403 15:18:27.825245  2933 net.cpp:141] Setting up inception_4c/3x3_reduce
I0403 15:18:27.825275  2933 net.cpp:148] Top shape: 24 128 14 14 (602112)
I0403 15:18:27.825291  2933 net.cpp:156] Memory required for data: 1035617568
I0403 15:18:27.825310  2933 layer_factory.hpp:77] Creating layer inception_4c/relu_3x3_reduce
I0403 15:18:27.825330  2933 net.cpp:91] Creating Layer inception_4c/relu_3x3_reduce
I0403 15:18:27.825347  2933 net.cpp:425] inception_4c/relu_3x3_reduce <- inception_4c/3x3_reduce
I0403 15:18:27.825366  2933 net.cpp:386] inception_4c/relu_3x3_reduce -> inception_4c/3x3_reduce (in-place)
I0403 15:18:27.825656  2933 net.cpp:141] Setting up inception_4c/relu_3x3_reduce
I0403 15:18:27.825683  2933 net.cpp:148] Top shape: 24 128 14 14 (602112)
I0403 15:18:27.825698  2933 net.cpp:156] Memory required for data: 1038026016
I0403 15:18:27.825713  2933 layer_factory.hpp:77] Creating layer inception_4c/3x3
I0403 15:18:27.825736  2933 net.cpp:91] Creating Layer inception_4c/3x3
I0403 15:18:27.825754  2933 net.cpp:425] inception_4c/3x3 <- inception_4c/3x3_reduce
I0403 15:18:27.825776  2933 net.cpp:399] inception_4c/3x3 -> inception_4c/3x3
I0403 15:18:27.829602  2933 net.cpp:141] Setting up inception_4c/3x3
I0403 15:18:27.829641  2933 net.cpp:148] Top shape: 24 256 14 14 (1204224)
I0403 15:18:27.829658  2933 net.cpp:156] Memory required for data: 1042842912
I0403 15:18:27.829690  2933 layer_factory.hpp:77] Creating layer inception_4c/relu_3x3
I0403 15:18:27.829712  2933 net.cpp:91] Creating Layer inception_4c/relu_3x3
I0403 15:18:27.829728  2933 net.cpp:425] inception_4c/relu_3x3 <- inception_4c/3x3
I0403 15:18:27.829746  2933 net.cpp:386] inception_4c/relu_3x3 -> inception_4c/3x3 (in-place)
I0403 15:18:27.829929  2933 net.cpp:141] Setting up inception_4c/relu_3x3
I0403 15:18:27.829954  2933 net.cpp:148] Top shape: 24 256 14 14 (1204224)
I0403 15:18:27.829968  2933 net.cpp:156] Memory required for data: 1047659808
I0403 15:18:27.829982  2933 layer_factory.hpp:77] Creating layer inception_4c/5x5_reduce
I0403 15:18:27.830006  2933 net.cpp:91] Creating Layer inception_4c/5x5_reduce
I0403 15:18:27.830024  2933 net.cpp:425] inception_4c/5x5_reduce <- inception_4b/output_inception_4b/output_0_split_2
I0403 15:18:27.830042  2933 net.cpp:399] inception_4c/5x5_reduce -> inception_4c/5x5_reduce
I0403 15:18:27.831313  2933 net.cpp:141] Setting up inception_4c/5x5_reduce
I0403 15:18:27.831342  2933 net.cpp:148] Top shape: 24 24 14 14 (112896)
I0403 15:18:27.831357  2933 net.cpp:156] Memory required for data: 1048111392
I0403 15:18:27.831375  2933 layer_factory.hpp:77] Creating layer inception_4c/relu_5x5_reduce
I0403 15:18:27.831395  2933 net.cpp:91] Creating Layer inception_4c/relu_5x5_reduce
I0403 15:18:27.831413  2933 net.cpp:425] inception_4c/relu_5x5_reduce <- inception_4c/5x5_reduce
I0403 15:18:27.831429  2933 net.cpp:386] inception_4c/relu_5x5_reduce -> inception_4c/5x5_reduce (in-place)
I0403 15:18:27.831614  2933 net.cpp:141] Setting up inception_4c/relu_5x5_reduce
I0403 15:18:27.831640  2933 net.cpp:148] Top shape: 24 24 14 14 (112896)
I0403 15:18:27.831653  2933 net.cpp:156] Memory required for data: 1048562976
I0403 15:18:27.831668  2933 layer_factory.hpp:77] Creating layer inception_4c/5x5
I0403 15:18:27.831691  2933 net.cpp:91] Creating Layer inception_4c/5x5
I0403 15:18:27.831707  2933 net.cpp:425] inception_4c/5x5 <- inception_4c/5x5_reduce
I0403 15:18:27.831728  2933 net.cpp:399] inception_4c/5x5 -> inception_4c/5x5
I0403 15:18:27.833015  2933 net.cpp:141] Setting up inception_4c/5x5
I0403 15:18:27.833045  2933 net.cpp:148] Top shape: 24 64 14 14 (301056)
I0403 15:18:27.833062  2933 net.cpp:156] Memory required for data: 1049767200
I0403 15:18:27.833081  2933 layer_factory.hpp:77] Creating layer inception_4c/relu_5x5
I0403 15:18:27.833099  2933 net.cpp:91] Creating Layer inception_4c/relu_5x5
I0403 15:18:27.833115  2933 net.cpp:425] inception_4c/relu_5x5 <- inception_4c/5x5
I0403 15:18:27.833135  2933 net.cpp:386] inception_4c/relu_5x5 -> inception_4c/5x5 (in-place)
I0403 15:18:27.833443  2933 net.cpp:141] Setting up inception_4c/relu_5x5
I0403 15:18:27.833472  2933 net.cpp:148] Top shape: 24 64 14 14 (301056)
I0403 15:18:27.833488  2933 net.cpp:156] Memory required for data: 1050971424
I0403 15:18:27.833503  2933 layer_factory.hpp:77] Creating layer inception_4c/pool
I0403 15:18:27.833519  2933 net.cpp:91] Creating Layer inception_4c/pool
I0403 15:18:27.833535  2933 net.cpp:425] inception_4c/pool <- inception_4b/output_inception_4b/output_0_split_3
I0403 15:18:27.833555  2933 net.cpp:399] inception_4c/pool -> inception_4c/pool
I0403 15:18:27.833621  2933 net.cpp:141] Setting up inception_4c/pool
I0403 15:18:27.833647  2933 net.cpp:148] Top shape: 24 512 14 14 (2408448)
I0403 15:18:27.833663  2933 net.cpp:156] Memory required for data: 1060605216
I0403 15:18:27.833678  2933 layer_factory.hpp:77] Creating layer inception_4c/pool_proj
I0403 15:18:27.833696  2933 net.cpp:91] Creating Layer inception_4c/pool_proj
I0403 15:18:27.833712  2933 net.cpp:425] inception_4c/pool_proj <- inception_4c/pool
I0403 15:18:27.833734  2933 net.cpp:399] inception_4c/pool_proj -> inception_4c/pool_proj
I0403 15:18:27.834981  2933 net.cpp:141] Setting up inception_4c/pool_proj
I0403 15:18:27.835010  2933 net.cpp:148] Top shape: 24 64 14 14 (301056)
I0403 15:18:27.835039  2933 net.cpp:156] Memory required for data: 1061809440
I0403 15:18:27.835059  2933 layer_factory.hpp:77] Creating layer inception_4c/relu_pool_proj
I0403 15:18:27.835083  2933 net.cpp:91] Creating Layer inception_4c/relu_pool_proj
I0403 15:18:27.835099  2933 net.cpp:425] inception_4c/relu_pool_proj <- inception_4c/pool_proj
I0403 15:18:27.835116  2933 net.cpp:386] inception_4c/relu_pool_proj -> inception_4c/pool_proj (in-place)
I0403 15:18:27.835314  2933 net.cpp:141] Setting up inception_4c/relu_pool_proj
I0403 15:18:27.835342  2933 net.cpp:148] Top shape: 24 64 14 14 (301056)
I0403 15:18:27.835358  2933 net.cpp:156] Memory required for data: 1063013664
I0403 15:18:27.835373  2933 layer_factory.hpp:77] Creating layer inception_4c/output
I0403 15:18:27.835391  2933 net.cpp:91] Creating Layer inception_4c/output
I0403 15:18:27.835407  2933 net.cpp:425] inception_4c/output <- inception_4c/1x1
I0403 15:18:27.835423  2933 net.cpp:425] inception_4c/output <- inception_4c/3x3
I0403 15:18:27.835439  2933 net.cpp:425] inception_4c/output <- inception_4c/5x5
I0403 15:18:27.835454  2933 net.cpp:425] inception_4c/output <- inception_4c/pool_proj
I0403 15:18:27.835474  2933 net.cpp:399] inception_4c/output -> inception_4c/output
I0403 15:18:27.835521  2933 net.cpp:141] Setting up inception_4c/output
I0403 15:18:27.835544  2933 net.cpp:148] Top shape: 24 512 14 14 (2408448)
I0403 15:18:27.835561  2933 net.cpp:156] Memory required for data: 1072647456
I0403 15:18:27.835575  2933 layer_factory.hpp:77] Creating layer inception_4c/output_inception_4c/output_0_split
I0403 15:18:27.835595  2933 net.cpp:91] Creating Layer inception_4c/output_inception_4c/output_0_split
I0403 15:18:27.835611  2933 net.cpp:425] inception_4c/output_inception_4c/output_0_split <- inception_4c/output
I0403 15:18:27.835629  2933 net.cpp:399] inception_4c/output_inception_4c/output_0_split -> inception_4c/output_inception_4c/output_0_split_0
I0403 15:18:27.835649  2933 net.cpp:399] inception_4c/output_inception_4c/output_0_split -> inception_4c/output_inception_4c/output_0_split_1
I0403 15:18:27.835674  2933 net.cpp:399] inception_4c/output_inception_4c/output_0_split -> inception_4c/output_inception_4c/output_0_split_2
I0403 15:18:27.835695  2933 net.cpp:399] inception_4c/output_inception_4c/output_0_split -> inception_4c/output_inception_4c/output_0_split_3
I0403 15:18:27.835783  2933 net.cpp:141] Setting up inception_4c/output_inception_4c/output_0_split
I0403 15:18:27.835806  2933 net.cpp:148] Top shape: 24 512 14 14 (2408448)
I0403 15:18:27.835824  2933 net.cpp:148] Top shape: 24 512 14 14 (2408448)
I0403 15:18:27.835839  2933 net.cpp:148] Top shape: 24 512 14 14 (2408448)
I0403 15:18:27.835855  2933 net.cpp:148] Top shape: 24 512 14 14 (2408448)
I0403 15:18:27.835870  2933 net.cpp:156] Memory required for data: 1111182624
I0403 15:18:27.835883  2933 layer_factory.hpp:77] Creating layer inception_4d/1x1
I0403 15:18:27.835906  2933 net.cpp:91] Creating Layer inception_4d/1x1
I0403 15:18:27.835924  2933 net.cpp:425] inception_4d/1x1 <- inception_4c/output_inception_4c/output_0_split_0
I0403 15:18:27.835945  2933 net.cpp:399] inception_4d/1x1 -> inception_4d/1x1
I0403 15:18:27.837373  2933 net.cpp:141] Setting up inception_4d/1x1
I0403 15:18:27.837401  2933 net.cpp:148] Top shape: 24 112 14 14 (526848)
I0403 15:18:27.837417  2933 net.cpp:156] Memory required for data: 1113290016
I0403 15:18:27.837436  2933 layer_factory.hpp:77] Creating layer inception_4d/relu_1x1
I0403 15:18:27.837457  2933 net.cpp:91] Creating Layer inception_4d/relu_1x1
I0403 15:18:27.837486  2933 net.cpp:425] inception_4d/relu_1x1 <- inception_4d/1x1
I0403 15:18:27.837503  2933 net.cpp:386] inception_4d/relu_1x1 -> inception_4d/1x1 (in-place)
I0403 15:18:27.837685  2933 net.cpp:141] Setting up inception_4d/relu_1x1
I0403 15:18:27.837710  2933 net.cpp:148] Top shape: 24 112 14 14 (526848)
I0403 15:18:27.837724  2933 net.cpp:156] Memory required for data: 1115397408
I0403 15:18:27.837738  2933 layer_factory.hpp:77] Creating layer inception_4d/3x3_reduce
I0403 15:18:27.837776  2933 net.cpp:91] Creating Layer inception_4d/3x3_reduce
I0403 15:18:27.837795  2933 net.cpp:425] inception_4d/3x3_reduce <- inception_4c/output_inception_4c/output_0_split_1
I0403 15:18:27.837813  2933 net.cpp:399] inception_4d/3x3_reduce -> inception_4d/3x3_reduce
I0403 15:18:27.839391  2933 net.cpp:141] Setting up inception_4d/3x3_reduce
I0403 15:18:27.839419  2933 net.cpp:148] Top shape: 24 144 14 14 (677376)
I0403 15:18:27.839435  2933 net.cpp:156] Memory required for data: 1118106912
I0403 15:18:27.839453  2933 layer_factory.hpp:77] Creating layer inception_4d/relu_3x3_reduce
I0403 15:18:27.839471  2933 net.cpp:91] Creating Layer inception_4d/relu_3x3_reduce
I0403 15:18:27.839488  2933 net.cpp:425] inception_4d/relu_3x3_reduce <- inception_4d/3x3_reduce
I0403 15:18:27.839509  2933 net.cpp:386] inception_4d/relu_3x3_reduce -> inception_4d/3x3_reduce (in-place)
I0403 15:18:27.839807  2933 net.cpp:141] Setting up inception_4d/relu_3x3_reduce
I0403 15:18:27.839834  2933 net.cpp:148] Top shape: 24 144 14 14 (677376)
I0403 15:18:27.839849  2933 net.cpp:156] Memory required for data: 1120816416
I0403 15:18:27.839864  2933 layer_factory.hpp:77] Creating layer inception_4d/3x3
I0403 15:18:27.839887  2933 net.cpp:91] Creating Layer inception_4d/3x3
I0403 15:18:27.839905  2933 net.cpp:425] inception_4d/3x3 <- inception_4d/3x3_reduce
I0403 15:18:27.839926  2933 net.cpp:399] inception_4d/3x3 -> inception_4d/3x3
I0403 15:18:27.844336  2933 net.cpp:141] Setting up inception_4d/3x3
I0403 15:18:27.844364  2933 net.cpp:148] Top shape: 24 288 14 14 (1354752)
I0403 15:18:27.844380  2933 net.cpp:156] Memory required for data: 1126235424
I0403 15:18:27.844399  2933 layer_factory.hpp:77] Creating layer inception_4d/relu_3x3
I0403 15:18:27.844420  2933 net.cpp:91] Creating Layer inception_4d/relu_3x3
I0403 15:18:27.844439  2933 net.cpp:425] inception_4d/relu_3x3 <- inception_4d/3x3
I0403 15:18:27.844457  2933 net.cpp:386] inception_4d/relu_3x3 -> inception_4d/3x3 (in-place)
I0403 15:18:27.844645  2933 net.cpp:141] Setting up inception_4d/relu_3x3
I0403 15:18:27.844672  2933 net.cpp:148] Top shape: 24 288 14 14 (1354752)
I0403 15:18:27.844688  2933 net.cpp:156] Memory required for data: 1131654432
I0403 15:18:27.844703  2933 layer_factory.hpp:77] Creating layer inception_4d/5x5_reduce
I0403 15:18:27.844725  2933 net.cpp:91] Creating Layer inception_4d/5x5_reduce
I0403 15:18:27.844743  2933 net.cpp:425] inception_4d/5x5_reduce <- inception_4c/output_inception_4c/output_0_split_2
I0403 15:18:27.844763  2933 net.cpp:399] inception_4d/5x5_reduce -> inception_4d/5x5_reduce
I0403 15:18:27.845957  2933 net.cpp:141] Setting up inception_4d/5x5_reduce
I0403 15:18:27.845986  2933 net.cpp:148] Top shape: 24 32 14 14 (150528)
I0403 15:18:27.846002  2933 net.cpp:156] Memory required for data: 1132256544
I0403 15:18:27.846020  2933 layer_factory.hpp:77] Creating layer inception_4d/relu_5x5_reduce
I0403 15:18:27.846041  2933 net.cpp:91] Creating Layer inception_4d/relu_5x5_reduce
I0403 15:18:27.846058  2933 net.cpp:425] inception_4d/relu_5x5_reduce <- inception_4d/5x5_reduce
I0403 15:18:27.846076  2933 net.cpp:386] inception_4d/relu_5x5_reduce -> inception_4d/5x5_reduce (in-place)
I0403 15:18:27.846285  2933 net.cpp:141] Setting up inception_4d/relu_5x5_reduce
I0403 15:18:27.846312  2933 net.cpp:148] Top shape: 24 32 14 14 (150528)
I0403 15:18:27.846326  2933 net.cpp:156] Memory required for data: 1132858656
I0403 15:18:27.846341  2933 layer_factory.hpp:77] Creating layer inception_4d/5x5
I0403 15:18:27.846364  2933 net.cpp:91] Creating Layer inception_4d/5x5
I0403 15:18:27.846382  2933 net.cpp:425] inception_4d/5x5 <- inception_4d/5x5_reduce
I0403 15:18:27.846401  2933 net.cpp:399] inception_4d/5x5 -> inception_4d/5x5
I0403 15:18:27.847924  2933 net.cpp:141] Setting up inception_4d/5x5
I0403 15:18:27.847954  2933 net.cpp:148] Top shape: 24 64 14 14 (301056)
I0403 15:18:27.847971  2933 net.cpp:156] Memory required for data: 1134062880
I0403 15:18:27.847991  2933 layer_factory.hpp:77] Creating layer inception_4d/relu_5x5
I0403 15:18:27.848026  2933 net.cpp:91] Creating Layer inception_4d/relu_5x5
I0403 15:18:27.848043  2933 net.cpp:425] inception_4d/relu_5x5 <- inception_4d/5x5
I0403 15:18:27.848063  2933 net.cpp:386] inception_4d/relu_5x5 -> inception_4d/5x5 (in-place)
I0403 15:18:27.848381  2933 net.cpp:141] Setting up inception_4d/relu_5x5
I0403 15:18:27.848410  2933 net.cpp:148] Top shape: 24 64 14 14 (301056)
I0403 15:18:27.848426  2933 net.cpp:156] Memory required for data: 1135267104
I0403 15:18:27.848441  2933 layer_factory.hpp:77] Creating layer inception_4d/pool
I0403 15:18:27.848459  2933 net.cpp:91] Creating Layer inception_4d/pool
I0403 15:18:27.848476  2933 net.cpp:425] inception_4d/pool <- inception_4c/output_inception_4c/output_0_split_3
I0403 15:18:27.848497  2933 net.cpp:399] inception_4d/pool -> inception_4d/pool
I0403 15:18:27.848565  2933 net.cpp:141] Setting up inception_4d/pool
I0403 15:18:27.848589  2933 net.cpp:148] Top shape: 24 512 14 14 (2408448)
I0403 15:18:27.848604  2933 net.cpp:156] Memory required for data: 1144900896
I0403 15:18:27.848618  2933 layer_factory.hpp:77] Creating layer inception_4d/pool_proj
I0403 15:18:27.848641  2933 net.cpp:91] Creating Layer inception_4d/pool_proj
I0403 15:18:27.848659  2933 net.cpp:425] inception_4d/pool_proj <- inception_4d/pool
I0403 15:18:27.848680  2933 net.cpp:399] inception_4d/pool_proj -> inception_4d/pool_proj
I0403 15:18:27.850489  2933 net.cpp:141] Setting up inception_4d/pool_proj
I0403 15:18:27.850518  2933 net.cpp:148] Top shape: 24 64 14 14 (301056)
I0403 15:18:27.850534  2933 net.cpp:156] Memory required for data: 1146105120
I0403 15:18:27.850553  2933 layer_factory.hpp:77] Creating layer inception_4d/relu_pool_proj
I0403 15:18:27.850574  2933 net.cpp:91] Creating Layer inception_4d/relu_pool_proj
I0403 15:18:27.850591  2933 net.cpp:425] inception_4d/relu_pool_proj <- inception_4d/pool_proj
I0403 15:18:27.850608  2933 net.cpp:386] inception_4d/relu_pool_proj -> inception_4d/pool_proj (in-place)
I0403 15:18:27.850798  2933 net.cpp:141] Setting up inception_4d/relu_pool_proj
I0403 15:18:27.850826  2933 net.cpp:148] Top shape: 24 64 14 14 (301056)
I0403 15:18:27.850842  2933 net.cpp:156] Memory required for data: 1147309344
I0403 15:18:27.850857  2933 layer_factory.hpp:77] Creating layer inception_4d/output
I0403 15:18:27.850875  2933 net.cpp:91] Creating Layer inception_4d/output
I0403 15:18:27.850890  2933 net.cpp:425] inception_4d/output <- inception_4d/1x1
I0403 15:18:27.850908  2933 net.cpp:425] inception_4d/output <- inception_4d/3x3
I0403 15:18:27.850924  2933 net.cpp:425] inception_4d/output <- inception_4d/5x5
I0403 15:18:27.850939  2933 net.cpp:425] inception_4d/output <- inception_4d/pool_proj
I0403 15:18:27.850956  2933 net.cpp:399] inception_4d/output -> inception_4d/output
I0403 15:18:27.851007  2933 net.cpp:141] Setting up inception_4d/output
I0403 15:18:27.851032  2933 net.cpp:148] Top shape: 24 528 14 14 (2483712)
I0403 15:18:27.851045  2933 net.cpp:156] Memory required for data: 1157244192
I0403 15:18:27.851060  2933 layer_factory.hpp:77] Creating layer inception_4d/output_inception_4d/output_0_split
I0403 15:18:27.851080  2933 net.cpp:91] Creating Layer inception_4d/output_inception_4d/output_0_split
I0403 15:18:27.851097  2933 net.cpp:425] inception_4d/output_inception_4d/output_0_split <- inception_4d/output
I0403 15:18:27.851115  2933 net.cpp:399] inception_4d/output_inception_4d/output_0_split -> inception_4d/output_inception_4d/output_0_split_0
I0403 15:18:27.851135  2933 net.cpp:399] inception_4d/output_inception_4d/output_0_split -> inception_4d/output_inception_4d/output_0_split_1
I0403 15:18:27.851156  2933 net.cpp:399] inception_4d/output_inception_4d/output_0_split -> inception_4d/output_inception_4d/output_0_split_2
I0403 15:18:27.851183  2933 net.cpp:399] inception_4d/output_inception_4d/output_0_split -> inception_4d/output_inception_4d/output_0_split_3
I0403 15:18:27.851208  2933 net.cpp:399] inception_4d/output_inception_4d/output_0_split -> inception_4d/output_inception_4d/output_0_split_4
I0403 15:18:27.851317  2933 net.cpp:141] Setting up inception_4d/output_inception_4d/output_0_split
I0403 15:18:27.851354  2933 net.cpp:148] Top shape: 24 528 14 14 (2483712)
I0403 15:18:27.851372  2933 net.cpp:148] Top shape: 24 528 14 14 (2483712)
I0403 15:18:27.851388  2933 net.cpp:148] Top shape: 24 528 14 14 (2483712)
I0403 15:18:27.851404  2933 net.cpp:148] Top shape: 24 528 14 14 (2483712)
I0403 15:18:27.851420  2933 net.cpp:148] Top shape: 24 528 14 14 (2483712)
I0403 15:18:27.851435  2933 net.cpp:156] Memory required for data: 1206918432
I0403 15:18:27.851449  2933 layer_factory.hpp:77] Creating layer loss2/ave_pool
I0403 15:18:27.851467  2933 net.cpp:91] Creating Layer loss2/ave_pool
I0403 15:18:27.851483  2933 net.cpp:425] loss2/ave_pool <- inception_4d/output_inception_4d/output_0_split_0
I0403 15:18:27.851534  2933 net.cpp:399] loss2/ave_pool -> loss2/ave_pool
I0403 15:18:27.851872  2933 net.cpp:141] Setting up loss2/ave_pool
I0403 15:18:27.851899  2933 net.cpp:148] Top shape: 24 528 4 4 (202752)
I0403 15:18:27.851914  2933 net.cpp:156] Memory required for data: 1207729440
I0403 15:18:27.851930  2933 layer_factory.hpp:77] Creating layer loss2/conv
I0403 15:18:27.851953  2933 net.cpp:91] Creating Layer loss2/conv
I0403 15:18:27.851971  2933 net.cpp:425] loss2/conv <- loss2/ave_pool
I0403 15:18:27.851992  2933 net.cpp:399] loss2/conv -> loss2/conv
I0403 15:18:27.853947  2933 net.cpp:141] Setting up loss2/conv
I0403 15:18:27.853979  2933 net.cpp:148] Top shape: 24 128 4 4 (49152)
I0403 15:18:27.853996  2933 net.cpp:156] Memory required for data: 1207926048
I0403 15:18:27.854015  2933 layer_factory.hpp:77] Creating layer loss2/relu_conv
I0403 15:18:27.854033  2933 net.cpp:91] Creating Layer loss2/relu_conv
I0403 15:18:27.854050  2933 net.cpp:425] loss2/relu_conv <- loss2/conv
I0403 15:18:27.854068  2933 net.cpp:386] loss2/relu_conv -> loss2/conv (in-place)
I0403 15:18:27.854382  2933 net.cpp:141] Setting up loss2/relu_conv
I0403 15:18:27.854413  2933 net.cpp:148] Top shape: 24 128 4 4 (49152)
I0403 15:18:27.854429  2933 net.cpp:156] Memory required for data: 1208122656
I0403 15:18:27.854445  2933 layer_factory.hpp:77] Creating layer loss2/fc
I0403 15:18:27.854465  2933 net.cpp:91] Creating Layer loss2/fc
I0403 15:18:27.854491  2933 net.cpp:425] loss2/fc <- loss2/conv
I0403 15:18:27.854512  2933 net.cpp:399] loss2/fc -> loss2/fc
I0403 15:18:27.872298  2933 net.cpp:141] Setting up loss2/fc
I0403 15:18:27.872326  2933 net.cpp:148] Top shape: 24 1024 (24576)
I0403 15:18:27.872342  2933 net.cpp:156] Memory required for data: 1208220960
I0403 15:18:27.872361  2933 layer_factory.hpp:77] Creating layer loss2/relu_fc
I0403 15:18:27.872382  2933 net.cpp:91] Creating Layer loss2/relu_fc
I0403 15:18:27.872401  2933 net.cpp:425] loss2/relu_fc <- loss2/fc
I0403 15:18:27.872419  2933 net.cpp:386] loss2/relu_fc -> loss2/fc (in-place)
I0403 15:18:27.872725  2933 net.cpp:141] Setting up loss2/relu_fc
I0403 15:18:27.872751  2933 net.cpp:148] Top shape: 24 1024 (24576)
I0403 15:18:27.872766  2933 net.cpp:156] Memory required for data: 1208319264
I0403 15:18:27.872782  2933 layer_factory.hpp:77] Creating layer loss2/drop_fc
I0403 15:18:27.872802  2933 net.cpp:91] Creating Layer loss2/drop_fc
I0403 15:18:27.872819  2933 net.cpp:425] loss2/drop_fc <- loss2/fc
I0403 15:18:27.872838  2933 net.cpp:386] loss2/drop_fc -> loss2/fc (in-place)
I0403 15:18:27.872889  2933 net.cpp:141] Setting up loss2/drop_fc
I0403 15:18:27.872912  2933 net.cpp:148] Top shape: 24 1024 (24576)
I0403 15:18:27.872927  2933 net.cpp:156] Memory required for data: 1208417568
I0403 15:18:27.872941  2933 layer_factory.hpp:77] Creating layer loss2/classifier_plantvillage
I0403 15:18:27.872961  2933 net.cpp:91] Creating Layer loss2/classifier_plantvillage
I0403 15:18:27.872980  2933 net.cpp:425] loss2/classifier_plantvillage <- loss2/fc
I0403 15:18:27.872999  2933 net.cpp:399] loss2/classifier_plantvillage -> loss2/classifier_plantvillage
I0403 15:18:27.873430  2933 net.cpp:141] Setting up loss2/classifier_plantvillage
I0403 15:18:27.873455  2933 net.cpp:148] Top shape: 24 38 (912)
I0403 15:18:27.873487  2933 net.cpp:156] Memory required for data: 1208421216
I0403 15:18:27.873507  2933 layer_factory.hpp:77] Creating layer loss2/classifier_plantvillage_loss2/classifier_plantvillage_0_split
I0403 15:18:27.873525  2933 net.cpp:91] Creating Layer loss2/classifier_plantvillage_loss2/classifier_plantvillage_0_split
I0403 15:18:27.873543  2933 net.cpp:425] loss2/classifier_plantvillage_loss2/classifier_plantvillage_0_split <- loss2/classifier_plantvillage
I0403 15:18:27.873563  2933 net.cpp:399] loss2/classifier_plantvillage_loss2/classifier_plantvillage_0_split -> loss2/classifier_plantvillage_loss2/classifier_plantvillage_0_split_0
I0403 15:18:27.873584  2933 net.cpp:399] loss2/classifier_plantvillage_loss2/classifier_plantvillage_0_split -> loss2/classifier_plantvillage_loss2/classifier_plantvillage_0_split_1
I0403 15:18:27.873605  2933 net.cpp:399] loss2/classifier_plantvillage_loss2/classifier_plantvillage_0_split -> loss2/classifier_plantvillage_loss2/classifier_plantvillage_0_split_2
I0403 15:18:27.873687  2933 net.cpp:141] Setting up loss2/classifier_plantvillage_loss2/classifier_plantvillage_0_split
I0403 15:18:27.873714  2933 net.cpp:148] Top shape: 24 38 (912)
I0403 15:18:27.873733  2933 net.cpp:148] Top shape: 24 38 (912)
I0403 15:18:27.873749  2933 net.cpp:148] Top shape: 24 38 (912)
I0403 15:18:27.873764  2933 net.cpp:156] Memory required for data: 1208432160
I0403 15:18:27.873778  2933 layer_factory.hpp:77] Creating layer inception_4e/1x1
I0403 15:18:27.873801  2933 net.cpp:91] Creating Layer inception_4e/1x1
I0403 15:18:27.873819  2933 net.cpp:425] inception_4e/1x1 <- inception_4d/output_inception_4d/output_0_split_1
I0403 15:18:27.873838  2933 net.cpp:399] inception_4e/1x1 -> inception_4e/1x1
I0403 15:18:27.875732  2933 net.cpp:141] Setting up inception_4e/1x1
I0403 15:18:27.875764  2933 net.cpp:148] Top shape: 24 256 14 14 (1204224)
I0403 15:18:27.875782  2933 net.cpp:156] Memory required for data: 1213249056
I0403 15:18:27.875800  2933 layer_factory.hpp:77] Creating layer inception_4e/relu_1x1
I0403 15:18:27.875818  2933 net.cpp:91] Creating Layer inception_4e/relu_1x1
I0403 15:18:27.875835  2933 net.cpp:425] inception_4e/relu_1x1 <- inception_4e/1x1
I0403 15:18:27.875854  2933 net.cpp:386] inception_4e/relu_1x1 -> inception_4e/1x1 (in-place)
I0403 15:18:27.876162  2933 net.cpp:141] Setting up inception_4e/relu_1x1
I0403 15:18:27.876196  2933 net.cpp:148] Top shape: 24 256 14 14 (1204224)
I0403 15:18:27.876214  2933 net.cpp:156] Memory required for data: 1218065952
I0403 15:18:27.876230  2933 layer_factory.hpp:77] Creating layer inception_4e/3x3_reduce
I0403 15:18:27.876252  2933 net.cpp:91] Creating Layer inception_4e/3x3_reduce
I0403 15:18:27.876271  2933 net.cpp:425] inception_4e/3x3_reduce <- inception_4d/output_inception_4d/output_0_split_2
I0403 15:18:27.876289  2933 net.cpp:399] inception_4e/3x3_reduce -> inception_4e/3x3_reduce
I0403 15:18:27.878481  2933 net.cpp:141] Setting up inception_4e/3x3_reduce
I0403 15:18:27.878514  2933 net.cpp:148] Top shape: 24 160 14 14 (752640)
I0403 15:18:27.878530  2933 net.cpp:156] Memory required for data: 1221076512
I0403 15:18:27.878552  2933 layer_factory.hpp:77] Creating layer inception_4e/relu_3x3_reduce
I0403 15:18:27.878571  2933 net.cpp:91] Creating Layer inception_4e/relu_3x3_reduce
I0403 15:18:27.878587  2933 net.cpp:425] inception_4e/relu_3x3_reduce <- inception_4e/3x3_reduce
I0403 15:18:27.878604  2933 net.cpp:386] inception_4e/relu_3x3_reduce -> inception_4e/3x3_reduce (in-place)
I0403 15:18:27.878798  2933 net.cpp:141] Setting up inception_4e/relu_3x3_reduce
I0403 15:18:27.878826  2933 net.cpp:148] Top shape: 24 160 14 14 (752640)
I0403 15:18:27.878842  2933 net.cpp:156] Memory required for data: 1224087072
I0403 15:18:27.878857  2933 layer_factory.hpp:77] Creating layer inception_4e/3x3
I0403 15:18:27.878880  2933 net.cpp:91] Creating Layer inception_4e/3x3
I0403 15:18:27.878897  2933 net.cpp:425] inception_4e/3x3 <- inception_4e/3x3_reduce
I0403 15:18:27.878919  2933 net.cpp:399] inception_4e/3x3 -> inception_4e/3x3
I0403 15:18:27.884114  2933 net.cpp:141] Setting up inception_4e/3x3
I0403 15:18:27.884158  2933 net.cpp:148] Top shape: 24 320 14 14 (1505280)
I0403 15:18:27.884176  2933 net.cpp:156] Memory required for data: 1230108192
I0403 15:18:27.884202  2933 layer_factory.hpp:77] Creating layer inception_4e/relu_3x3
I0403 15:18:27.884222  2933 net.cpp:91] Creating Layer inception_4e/relu_3x3
I0403 15:18:27.884239  2933 net.cpp:425] inception_4e/relu_3x3 <- inception_4e/3x3
I0403 15:18:27.884260  2933 net.cpp:386] inception_4e/relu_3x3 -> inception_4e/3x3 (in-place)
I0403 15:18:27.884569  2933 net.cpp:141] Setting up inception_4e/relu_3x3
I0403 15:18:27.884596  2933 net.cpp:148] Top shape: 24 320 14 14 (1505280)
I0403 15:18:27.884611  2933 net.cpp:156] Memory required for data: 1236129312
I0403 15:18:27.884627  2933 layer_factory.hpp:77] Creating layer inception_4e/5x5_reduce
I0403 15:18:27.884649  2933 net.cpp:91] Creating Layer inception_4e/5x5_reduce
I0403 15:18:27.884668  2933 net.cpp:425] inception_4e/5x5_reduce <- inception_4d/output_inception_4d/output_0_split_3
I0403 15:18:27.884690  2933 net.cpp:399] inception_4e/5x5_reduce -> inception_4e/5x5_reduce
I0403 15:18:27.885804  2933 net.cpp:141] Setting up inception_4e/5x5_reduce
I0403 15:18:27.885835  2933 net.cpp:148] Top shape: 24 32 14 14 (150528)
I0403 15:18:27.885851  2933 net.cpp:156] Memory required for data: 1236731424
I0403 15:18:27.885870  2933 layer_factory.hpp:77] Creating layer inception_4e/relu_5x5_reduce
I0403 15:18:27.885888  2933 net.cpp:91] Creating Layer inception_4e/relu_5x5_reduce
I0403 15:18:27.885905  2933 net.cpp:425] inception_4e/relu_5x5_reduce <- inception_4e/5x5_reduce
I0403 15:18:27.885926  2933 net.cpp:386] inception_4e/relu_5x5_reduce -> inception_4e/5x5_reduce (in-place)
I0403 15:18:27.886240  2933 net.cpp:141] Setting up inception_4e/relu_5x5_reduce
I0403 15:18:27.886268  2933 net.cpp:148] Top shape: 24 32 14 14 (150528)
I0403 15:18:27.886284  2933 net.cpp:156] Memory required for data: 1237333536
I0403 15:18:27.886301  2933 layer_factory.hpp:77] Creating layer inception_4e/5x5
I0403 15:18:27.886339  2933 net.cpp:91] Creating Layer inception_4e/5x5
I0403 15:18:27.886359  2933 net.cpp:425] inception_4e/5x5 <- inception_4e/5x5_reduce
I0403 15:18:27.886379  2933 net.cpp:399] inception_4e/5x5 -> inception_4e/5x5
I0403 15:18:27.888305  2933 net.cpp:141] Setting up inception_4e/5x5
I0403 15:18:27.888334  2933 net.cpp:148] Top shape: 24 128 14 14 (602112)
I0403 15:18:27.888350  2933 net.cpp:156] Memory required for data: 1239741984
I0403 15:18:27.888368  2933 layer_factory.hpp:77] Creating layer inception_4e/relu_5x5
I0403 15:18:27.888389  2933 net.cpp:91] Creating Layer inception_4e/relu_5x5
I0403 15:18:27.888406  2933 net.cpp:425] inception_4e/relu_5x5 <- inception_4e/5x5
I0403 15:18:27.888424  2933 net.cpp:386] inception_4e/relu_5x5 -> inception_4e/5x5 (in-place)
I0403 15:18:27.888629  2933 net.cpp:141] Setting up inception_4e/relu_5x5
I0403 15:18:27.888658  2933 net.cpp:148] Top shape: 24 128 14 14 (602112)
I0403 15:18:27.888674  2933 net.cpp:156] Memory required for data: 1242150432
I0403 15:18:27.888687  2933 layer_factory.hpp:77] Creating layer inception_4e/pool
I0403 15:18:27.888706  2933 net.cpp:91] Creating Layer inception_4e/pool
I0403 15:18:27.888722  2933 net.cpp:425] inception_4e/pool <- inception_4d/output_inception_4d/output_0_split_4
I0403 15:18:27.888743  2933 net.cpp:399] inception_4e/pool -> inception_4e/pool
I0403 15:18:27.888816  2933 net.cpp:141] Setting up inception_4e/pool
I0403 15:18:27.888841  2933 net.cpp:148] Top shape: 24 528 14 14 (2483712)
I0403 15:18:27.888856  2933 net.cpp:156] Memory required for data: 1252085280
I0403 15:18:27.888870  2933 layer_factory.hpp:77] Creating layer inception_4e/pool_proj
I0403 15:18:27.888893  2933 net.cpp:91] Creating Layer inception_4e/pool_proj
I0403 15:18:27.888911  2933 net.cpp:425] inception_4e/pool_proj <- inception_4e/pool
I0403 15:18:27.888933  2933 net.cpp:399] inception_4e/pool_proj -> inception_4e/pool_proj
I0403 15:18:27.890506  2933 net.cpp:141] Setting up inception_4e/pool_proj
I0403 15:18:27.890552  2933 net.cpp:148] Top shape: 24 128 14 14 (602112)
I0403 15:18:27.890568  2933 net.cpp:156] Memory required for data: 1254493728
I0403 15:18:27.890588  2933 layer_factory.hpp:77] Creating layer inception_4e/relu_pool_proj
I0403 15:18:27.890609  2933 net.cpp:91] Creating Layer inception_4e/relu_pool_proj
I0403 15:18:27.890626  2933 net.cpp:425] inception_4e/relu_pool_proj <- inception_4e/pool_proj
I0403 15:18:27.890645  2933 net.cpp:386] inception_4e/relu_pool_proj -> inception_4e/pool_proj (in-place)
I0403 15:18:27.890947  2933 net.cpp:141] Setting up inception_4e/relu_pool_proj
I0403 15:18:27.890974  2933 net.cpp:148] Top shape: 24 128 14 14 (602112)
I0403 15:18:27.890990  2933 net.cpp:156] Memory required for data: 1256902176
I0403 15:18:27.891005  2933 layer_factory.hpp:77] Creating layer inception_4e/output
I0403 15:18:27.891022  2933 net.cpp:91] Creating Layer inception_4e/output
I0403 15:18:27.891038  2933 net.cpp:425] inception_4e/output <- inception_4e/1x1
I0403 15:18:27.891055  2933 net.cpp:425] inception_4e/output <- inception_4e/3x3
I0403 15:18:27.891072  2933 net.cpp:425] inception_4e/output <- inception_4e/5x5
I0403 15:18:27.891088  2933 net.cpp:425] inception_4e/output <- inception_4e/pool_proj
I0403 15:18:27.891106  2933 net.cpp:399] inception_4e/output -> inception_4e/output
I0403 15:18:27.891160  2933 net.cpp:141] Setting up inception_4e/output
I0403 15:18:27.891191  2933 net.cpp:148] Top shape: 24 832 14 14 (3913728)
I0403 15:18:27.891208  2933 net.cpp:156] Memory required for data: 1272557088
I0403 15:18:27.891223  2933 layer_factory.hpp:77] Creating layer pool4/3x3_s2
I0403 15:18:27.891242  2933 net.cpp:91] Creating Layer pool4/3x3_s2
I0403 15:18:27.891258  2933 net.cpp:425] pool4/3x3_s2 <- inception_4e/output
I0403 15:18:27.891278  2933 net.cpp:399] pool4/3x3_s2 -> pool4/3x3_s2
I0403 15:18:27.891347  2933 net.cpp:141] Setting up pool4/3x3_s2
I0403 15:18:27.891372  2933 net.cpp:148] Top shape: 24 832 7 7 (978432)
I0403 15:18:27.891386  2933 net.cpp:156] Memory required for data: 1276470816
I0403 15:18:27.891401  2933 layer_factory.hpp:77] Creating layer pool4/3x3_s2_pool4/3x3_s2_0_split
I0403 15:18:27.891422  2933 net.cpp:91] Creating Layer pool4/3x3_s2_pool4/3x3_s2_0_split
I0403 15:18:27.891438  2933 net.cpp:425] pool4/3x3_s2_pool4/3x3_s2_0_split <- pool4/3x3_s2
I0403 15:18:27.891456  2933 net.cpp:399] pool4/3x3_s2_pool4/3x3_s2_0_split -> pool4/3x3_s2_pool4/3x3_s2_0_split_0
I0403 15:18:27.891479  2933 net.cpp:399] pool4/3x3_s2_pool4/3x3_s2_0_split -> pool4/3x3_s2_pool4/3x3_s2_0_split_1
I0403 15:18:27.891501  2933 net.cpp:399] pool4/3x3_s2_pool4/3x3_s2_0_split -> pool4/3x3_s2_pool4/3x3_s2_0_split_2
I0403 15:18:27.891522  2933 net.cpp:399] pool4/3x3_s2_pool4/3x3_s2_0_split -> pool4/3x3_s2_pool4/3x3_s2_0_split_3
I0403 15:18:27.891615  2933 net.cpp:141] Setting up pool4/3x3_s2_pool4/3x3_s2_0_split
I0403 15:18:27.891639  2933 net.cpp:148] Top shape: 24 832 7 7 (978432)
I0403 15:18:27.891659  2933 net.cpp:148] Top shape: 24 832 7 7 (978432)
I0403 15:18:27.891675  2933 net.cpp:148] Top shape: 24 832 7 7 (978432)
I0403 15:18:27.891691  2933 net.cpp:148] Top shape: 24 832 7 7 (978432)
I0403 15:18:27.891707  2933 net.cpp:156] Memory required for data: 1292125728
I0403 15:18:27.891722  2933 layer_factory.hpp:77] Creating layer inception_5a/1x1
I0403 15:18:27.891744  2933 net.cpp:91] Creating Layer inception_5a/1x1
I0403 15:18:27.891762  2933 net.cpp:425] inception_5a/1x1 <- pool4/3x3_s2_pool4/3x3_s2_0_split_0
I0403 15:18:27.891783  2933 net.cpp:399] inception_5a/1x1 -> inception_5a/1x1
I0403 15:18:27.894856  2933 net.cpp:141] Setting up inception_5a/1x1
I0403 15:18:27.894887  2933 net.cpp:148] Top shape: 24 256 7 7 (301056)
I0403 15:18:27.894907  2933 net.cpp:156] Memory required for data: 1293329952
I0403 15:18:27.894927  2933 layer_factory.hpp:77] Creating layer inception_5a/relu_1x1
I0403 15:18:27.894947  2933 net.cpp:91] Creating Layer inception_5a/relu_1x1
I0403 15:18:27.894963  2933 net.cpp:425] inception_5a/relu_1x1 <- inception_5a/1x1
I0403 15:18:27.894980  2933 net.cpp:386] inception_5a/relu_1x1 -> inception_5a/1x1 (in-place)
I0403 15:18:27.895318  2933 net.cpp:141] Setting up inception_5a/relu_1x1
I0403 15:18:27.895346  2933 net.cpp:148] Top shape: 24 256 7 7 (301056)
I0403 15:18:27.895365  2933 net.cpp:156] Memory required for data: 1294534176
I0403 15:18:27.895381  2933 layer_factory.hpp:77] Creating layer inception_5a/3x3_reduce
I0403 15:18:27.895402  2933 net.cpp:91] Creating Layer inception_5a/3x3_reduce
I0403 15:18:27.895421  2933 net.cpp:425] inception_5a/3x3_reduce <- pool4/3x3_s2_pool4/3x3_s2_0_split_1
I0403 15:18:27.895445  2933 net.cpp:399] inception_5a/3x3_reduce -> inception_5a/3x3_reduce
I0403 15:18:27.898077  2933 net.cpp:141] Setting up inception_5a/3x3_reduce
I0403 15:18:27.898108  2933 net.cpp:148] Top shape: 24 160 7 7 (188160)
I0403 15:18:27.898123  2933 net.cpp:156] Memory required for data: 1295286816
I0403 15:18:27.898143  2933 layer_factory.hpp:77] Creating layer inception_5a/relu_3x3_reduce
I0403 15:18:27.898161  2933 net.cpp:91] Creating Layer inception_5a/relu_3x3_reduce
I0403 15:18:27.898185  2933 net.cpp:425] inception_5a/relu_3x3_reduce <- inception_5a/3x3_reduce
I0403 15:18:27.898208  2933 net.cpp:386] inception_5a/relu_3x3_reduce -> inception_5a/3x3_reduce (in-place)
I0403 15:18:27.898417  2933 net.cpp:141] Setting up inception_5a/relu_3x3_reduce
I0403 15:18:27.898443  2933 net.cpp:148] Top shape: 24 160 7 7 (188160)
I0403 15:18:27.898459  2933 net.cpp:156] Memory required for data: 1296039456
I0403 15:18:27.898474  2933 layer_factory.hpp:77] Creating layer inception_5a/3x3
I0403 15:18:27.898497  2933 net.cpp:91] Creating Layer inception_5a/3x3
I0403 15:18:27.898516  2933 net.cpp:425] inception_5a/3x3 <- inception_5a/3x3_reduce
I0403 15:18:27.898545  2933 net.cpp:399] inception_5a/3x3 -> inception_5a/3x3
I0403 15:18:27.903916  2933 net.cpp:141] Setting up inception_5a/3x3
I0403 15:18:27.903947  2933 net.cpp:148] Top shape: 24 320 7 7 (376320)
I0403 15:18:27.903964  2933 net.cpp:156] Memory required for data: 1297544736
I0403 15:18:27.903985  2933 layer_factory.hpp:77] Creating layer inception_5a/relu_3x3
I0403 15:18:27.904006  2933 net.cpp:91] Creating Layer inception_5a/relu_3x3
I0403 15:18:27.904024  2933 net.cpp:425] inception_5a/relu_3x3 <- inception_5a/3x3
I0403 15:18:27.904042  2933 net.cpp:386] inception_5a/relu_3x3 -> inception_5a/3x3 (in-place)
I0403 15:18:27.904364  2933 net.cpp:141] Setting up inception_5a/relu_3x3
I0403 15:18:27.904392  2933 net.cpp:148] Top shape: 24 320 7 7 (376320)
I0403 15:18:27.904408  2933 net.cpp:156] Memory required for data: 1299050016
I0403 15:18:27.904424  2933 layer_factory.hpp:77] Creating layer inception_5a/5x5_reduce
I0403 15:18:27.904450  2933 net.cpp:91] Creating Layer inception_5a/5x5_reduce
I0403 15:18:27.904469  2933 net.cpp:425] inception_5a/5x5_reduce <- pool4/3x3_s2_pool4/3x3_s2_0_split_2
I0403 15:18:27.904489  2933 net.cpp:399] inception_5a/5x5_reduce -> inception_5a/5x5_reduce
I0403 15:18:27.905750  2933 net.cpp:141] Setting up inception_5a/5x5_reduce
I0403 15:18:27.905782  2933 net.cpp:148] Top shape: 24 32 7 7 (37632)
I0403 15:18:27.905800  2933 net.cpp:156] Memory required for data: 1299200544
I0403 15:18:27.905819  2933 layer_factory.hpp:77] Creating layer inception_5a/relu_5x5_reduce
I0403 15:18:27.905838  2933 net.cpp:91] Creating Layer inception_5a/relu_5x5_reduce
I0403 15:18:27.905855  2933 net.cpp:425] inception_5a/relu_5x5_reduce <- inception_5a/5x5_reduce
I0403 15:18:27.905874  2933 net.cpp:386] inception_5a/relu_5x5_reduce -> inception_5a/5x5_reduce (in-place)
I0403 15:18:27.906201  2933 net.cpp:141] Setting up inception_5a/relu_5x5_reduce
I0403 15:18:27.906231  2933 net.cpp:148] Top shape: 24 32 7 7 (37632)
I0403 15:18:27.906249  2933 net.cpp:156] Memory required for data: 1299351072
I0403 15:18:27.906265  2933 layer_factory.hpp:77] Creating layer inception_5a/5x5
I0403 15:18:27.906287  2933 net.cpp:91] Creating Layer inception_5a/5x5
I0403 15:18:27.906306  2933 net.cpp:425] inception_5a/5x5 <- inception_5a/5x5_reduce
I0403 15:18:27.906327  2933 net.cpp:399] inception_5a/5x5 -> inception_5a/5x5
I0403 15:18:27.908169  2933 net.cpp:141] Setting up inception_5a/5x5
I0403 15:18:27.908216  2933 net.cpp:148] Top shape: 24 128 7 7 (150528)
I0403 15:18:27.908233  2933 net.cpp:156] Memory required for data: 1299953184
I0403 15:18:27.908253  2933 layer_factory.hpp:77] Creating layer inception_5a/relu_5x5
I0403 15:18:27.908275  2933 net.cpp:91] Creating Layer inception_5a/relu_5x5
I0403 15:18:27.908293  2933 net.cpp:425] inception_5a/relu_5x5 <- inception_5a/5x5
I0403 15:18:27.908311  2933 net.cpp:386] inception_5a/relu_5x5 -> inception_5a/5x5 (in-place)
I0403 15:18:27.908516  2933 net.cpp:141] Setting up inception_5a/relu_5x5
I0403 15:18:27.908545  2933 net.cpp:148] Top shape: 24 128 7 7 (150528)
I0403 15:18:27.908561  2933 net.cpp:156] Memory required for data: 1300555296
I0403 15:18:27.908577  2933 layer_factory.hpp:77] Creating layer inception_5a/pool
I0403 15:18:27.908596  2933 net.cpp:91] Creating Layer inception_5a/pool
I0403 15:18:27.908612  2933 net.cpp:425] inception_5a/pool <- pool4/3x3_s2_pool4/3x3_s2_0_split_3
I0403 15:18:27.908634  2933 net.cpp:399] inception_5a/pool -> inception_5a/pool
I0403 15:18:27.908710  2933 net.cpp:141] Setting up inception_5a/pool
I0403 15:18:27.908736  2933 net.cpp:148] Top shape: 24 832 7 7 (978432)
I0403 15:18:27.908751  2933 net.cpp:156] Memory required for data: 1304469024
I0403 15:18:27.908766  2933 layer_factory.hpp:77] Creating layer inception_5a/pool_proj
I0403 15:18:27.908792  2933 net.cpp:91] Creating Layer inception_5a/pool_proj
I0403 15:18:27.908810  2933 net.cpp:425] inception_5a/pool_proj <- inception_5a/pool
I0403 15:18:27.908829  2933 net.cpp:399] inception_5a/pool_proj -> inception_5a/pool_proj
I0403 15:18:27.911298  2933 net.cpp:141] Setting up inception_5a/pool_proj
I0403 15:18:27.911339  2933 net.cpp:148] Top shape: 24 128 7 7 (150528)
I0403 15:18:27.911355  2933 net.cpp:156] Memory required for data: 1305071136
I0403 15:18:27.911375  2933 layer_factory.hpp:77] Creating layer inception_5a/relu_pool_proj
I0403 15:18:27.911394  2933 net.cpp:91] Creating Layer inception_5a/relu_pool_proj
I0403 15:18:27.911412  2933 net.cpp:425] inception_5a/relu_pool_proj <- inception_5a/pool_proj
I0403 15:18:27.911430  2933 net.cpp:386] inception_5a/relu_pool_proj -> inception_5a/pool_proj (in-place)
I0403 15:18:27.911736  2933 net.cpp:141] Setting up inception_5a/relu_pool_proj
I0403 15:18:27.911763  2933 net.cpp:148] Top shape: 24 128 7 7 (150528)
I0403 15:18:27.911778  2933 net.cpp:156] Memory required for data: 1305673248
I0403 15:18:27.911794  2933 layer_factory.hpp:77] Creating layer inception_5a/output
I0403 15:18:27.911814  2933 net.cpp:91] Creating Layer inception_5a/output
I0403 15:18:27.911831  2933 net.cpp:425] inception_5a/output <- inception_5a/1x1
I0403 15:18:27.911849  2933 net.cpp:425] inception_5a/output <- inception_5a/3x3
I0403 15:18:27.911864  2933 net.cpp:425] inception_5a/output <- inception_5a/5x5
I0403 15:18:27.911881  2933 net.cpp:425] inception_5a/output <- inception_5a/pool_proj
I0403 15:18:27.911898  2933 net.cpp:399] inception_5a/output -> inception_5a/output
I0403 15:18:27.911952  2933 net.cpp:141] Setting up inception_5a/output
I0403 15:18:27.911977  2933 net.cpp:148] Top shape: 24 832 7 7 (978432)
I0403 15:18:27.911991  2933 net.cpp:156] Memory required for data: 1309586976
I0403 15:18:27.912006  2933 layer_factory.hpp:77] Creating layer inception_5a/output_inception_5a/output_0_split
I0403 15:18:27.912024  2933 net.cpp:91] Creating Layer inception_5a/output_inception_5a/output_0_split
I0403 15:18:27.912039  2933 net.cpp:425] inception_5a/output_inception_5a/output_0_split <- inception_5a/output
I0403 15:18:27.912062  2933 net.cpp:399] inception_5a/output_inception_5a/output_0_split -> inception_5a/output_inception_5a/output_0_split_0
I0403 15:18:27.912083  2933 net.cpp:399] inception_5a/output_inception_5a/output_0_split -> inception_5a/output_inception_5a/output_0_split_1
I0403 15:18:27.912106  2933 net.cpp:399] inception_5a/output_inception_5a/output_0_split -> inception_5a/output_inception_5a/output_0_split_2
I0403 15:18:27.912127  2933 net.cpp:399] inception_5a/output_inception_5a/output_0_split -> inception_5a/output_inception_5a/output_0_split_3
I0403 15:18:27.912257  2933 net.cpp:141] Setting up inception_5a/output_inception_5a/output_0_split
I0403 15:18:27.912286  2933 net.cpp:148] Top shape: 24 832 7 7 (978432)
I0403 15:18:27.912303  2933 net.cpp:148] Top shape: 24 832 7 7 (978432)
I0403 15:18:27.912320  2933 net.cpp:148] Top shape: 24 832 7 7 (978432)
I0403 15:18:27.912336  2933 net.cpp:148] Top shape: 24 832 7 7 (978432)
I0403 15:18:27.912350  2933 net.cpp:156] Memory required for data: 1325241888
I0403 15:18:27.912365  2933 layer_factory.hpp:77] Creating layer inception_5b/1x1
I0403 15:18:27.912387  2933 net.cpp:91] Creating Layer inception_5b/1x1
I0403 15:18:27.912406  2933 net.cpp:425] inception_5b/1x1 <- inception_5a/output_inception_5a/output_0_split_0
I0403 15:18:27.912425  2933 net.cpp:399] inception_5b/1x1 -> inception_5b/1x1
I0403 15:18:27.916373  2933 net.cpp:141] Setting up inception_5b/1x1
I0403 15:18:27.916404  2933 net.cpp:148] Top shape: 24 384 7 7 (451584)
I0403 15:18:27.916420  2933 net.cpp:156] Memory required for data: 1327048224
I0403 15:18:27.916440  2933 layer_factory.hpp:77] Creating layer inception_5b/relu_1x1
I0403 15:18:27.916458  2933 net.cpp:91] Creating Layer inception_5b/relu_1x1
I0403 15:18:27.916476  2933 net.cpp:425] inception_5b/relu_1x1 <- inception_5b/1x1
I0403 15:18:27.916507  2933 net.cpp:386] inception_5b/relu_1x1 -> inception_5b/1x1 (in-place)
I0403 15:18:27.916812  2933 net.cpp:141] Setting up inception_5b/relu_1x1
I0403 15:18:27.916838  2933 net.cpp:148] Top shape: 24 384 7 7 (451584)
I0403 15:18:27.916853  2933 net.cpp:156] Memory required for data: 1328854560
I0403 15:18:27.916868  2933 layer_factory.hpp:77] Creating layer inception_5b/3x3_reduce
I0403 15:18:27.916890  2933 net.cpp:91] Creating Layer inception_5b/3x3_reduce
I0403 15:18:27.916908  2933 net.cpp:425] inception_5b/3x3_reduce <- inception_5a/output_inception_5a/output_0_split_1
I0403 15:18:27.916929  2933 net.cpp:399] inception_5b/3x3_reduce -> inception_5b/3x3_reduce
I0403 15:18:27.919627  2933 net.cpp:141] Setting up inception_5b/3x3_reduce
I0403 15:18:27.919656  2933 net.cpp:148] Top shape: 24 192 7 7 (225792)
I0403 15:18:27.919672  2933 net.cpp:156] Memory required for data: 1329757728
I0403 15:18:27.919690  2933 layer_factory.hpp:77] Creating layer inception_5b/relu_3x3_reduce
I0403 15:18:27.919710  2933 net.cpp:91] Creating Layer inception_5b/relu_3x3_reduce
I0403 15:18:27.919726  2933 net.cpp:425] inception_5b/relu_3x3_reduce <- inception_5b/3x3_reduce
I0403 15:18:27.919744  2933 net.cpp:386] inception_5b/relu_3x3_reduce -> inception_5b/3x3_reduce (in-place)
I0403 15:18:27.919934  2933 net.cpp:141] Setting up inception_5b/relu_3x3_reduce
I0403 15:18:27.919960  2933 net.cpp:148] Top shape: 24 192 7 7 (225792)
I0403 15:18:27.919975  2933 net.cpp:156] Memory required for data: 1330660896
I0403 15:18:27.919988  2933 layer_factory.hpp:77] Creating layer inception_5b/3x3
I0403 15:18:27.920011  2933 net.cpp:91] Creating Layer inception_5b/3x3
I0403 15:18:27.920028  2933 net.cpp:425] inception_5b/3x3 <- inception_5b/3x3_reduce
I0403 15:18:27.920047  2933 net.cpp:399] inception_5b/3x3 -> inception_5b/3x3
I0403 15:18:27.926861  2933 net.cpp:141] Setting up inception_5b/3x3
I0403 15:18:27.926888  2933 net.cpp:148] Top shape: 24 384 7 7 (451584)
I0403 15:18:27.926904  2933 net.cpp:156] Memory required for data: 1332467232
I0403 15:18:27.926923  2933 layer_factory.hpp:77] Creating layer inception_5b/relu_3x3
I0403 15:18:27.926942  2933 net.cpp:91] Creating Layer inception_5b/relu_3x3
I0403 15:18:27.926959  2933 net.cpp:425] inception_5b/relu_3x3 <- inception_5b/3x3
I0403 15:18:27.926976  2933 net.cpp:386] inception_5b/relu_3x3 -> inception_5b/3x3 (in-place)
I0403 15:18:27.927278  2933 net.cpp:141] Setting up inception_5b/relu_3x3
I0403 15:18:27.927304  2933 net.cpp:148] Top shape: 24 384 7 7 (451584)
I0403 15:18:27.927320  2933 net.cpp:156] Memory required for data: 1334273568
I0403 15:18:27.927335  2933 layer_factory.hpp:77] Creating layer inception_5b/5x5_reduce
I0403 15:18:27.927372  2933 net.cpp:91] Creating Layer inception_5b/5x5_reduce
I0403 15:18:27.927391  2933 net.cpp:425] inception_5b/5x5_reduce <- inception_5a/output_inception_5a/output_0_split_2
I0403 15:18:27.927412  2933 net.cpp:399] inception_5b/5x5_reduce -> inception_5b/5x5_reduce
I0403 15:18:27.928702  2933 net.cpp:141] Setting up inception_5b/5x5_reduce
I0403 15:18:27.928730  2933 net.cpp:148] Top shape: 24 48 7 7 (56448)
I0403 15:18:27.928745  2933 net.cpp:156] Memory required for data: 1334499360
I0403 15:18:27.928764  2933 layer_factory.hpp:77] Creating layer inception_5b/relu_5x5_reduce
I0403 15:18:27.928784  2933 net.cpp:91] Creating Layer inception_5b/relu_5x5_reduce
I0403 15:18:27.928802  2933 net.cpp:425] inception_5b/relu_5x5_reduce <- inception_5b/5x5_reduce
I0403 15:18:27.928819  2933 net.cpp:386] inception_5b/relu_5x5_reduce -> inception_5b/5x5_reduce (in-place)
I0403 15:18:27.929196  2933 net.cpp:141] Setting up inception_5b/relu_5x5_reduce
I0403 15:18:27.929224  2933 net.cpp:148] Top shape: 24 48 7 7 (56448)
I0403 15:18:27.929239  2933 net.cpp:156] Memory required for data: 1334725152
I0403 15:18:27.929261  2933 layer_factory.hpp:77] Creating layer inception_5b/5x5
I0403 15:18:27.929281  2933 net.cpp:91] Creating Layer inception_5b/5x5
I0403 15:18:27.929298  2933 net.cpp:425] inception_5b/5x5 <- inception_5b/5x5_reduce
I0403 15:18:27.929316  2933 net.cpp:399] inception_5b/5x5 -> inception_5b/5x5
I0403 15:18:27.931398  2933 net.cpp:141] Setting up inception_5b/5x5
I0403 15:18:27.931426  2933 net.cpp:148] Top shape: 24 128 7 7 (150528)
I0403 15:18:27.931443  2933 net.cpp:156] Memory required for data: 1335327264
I0403 15:18:27.931463  2933 layer_factory.hpp:77] Creating layer inception_5b/relu_5x5
I0403 15:18:27.931480  2933 net.cpp:91] Creating Layer inception_5b/relu_5x5
I0403 15:18:27.931496  2933 net.cpp:425] inception_5b/relu_5x5 <- inception_5b/5x5
I0403 15:18:27.931514  2933 net.cpp:386] inception_5b/relu_5x5 -> inception_5b/5x5 (in-place)
I0403 15:18:27.931709  2933 net.cpp:141] Setting up inception_5b/relu_5x5
I0403 15:18:27.931735  2933 net.cpp:148] Top shape: 24 128 7 7 (150528)
I0403 15:18:27.931751  2933 net.cpp:156] Memory required for data: 1335929376
I0403 15:18:27.931766  2933 layer_factory.hpp:77] Creating layer inception_5b/pool
I0403 15:18:27.931783  2933 net.cpp:91] Creating Layer inception_5b/pool
I0403 15:18:27.931799  2933 net.cpp:425] inception_5b/pool <- inception_5a/output_inception_5a/output_0_split_3
I0403 15:18:27.931819  2933 net.cpp:399] inception_5b/pool -> inception_5b/pool
I0403 15:18:27.931893  2933 net.cpp:141] Setting up inception_5b/pool
I0403 15:18:27.931920  2933 net.cpp:148] Top shape: 24 832 7 7 (978432)
I0403 15:18:27.931934  2933 net.cpp:156] Memory required for data: 1339843104
I0403 15:18:27.931949  2933 layer_factory.hpp:77] Creating layer inception_5b/pool_proj
I0403 15:18:27.931968  2933 net.cpp:91] Creating Layer inception_5b/pool_proj
I0403 15:18:27.931984  2933 net.cpp:425] inception_5b/pool_proj <- inception_5b/pool
I0403 15:18:27.932005  2933 net.cpp:399] inception_5b/pool_proj -> inception_5b/pool_proj
I0403 15:18:27.934384  2933 net.cpp:141] Setting up inception_5b/pool_proj
I0403 15:18:27.934414  2933 net.cpp:148] Top shape: 24 128 7 7 (150528)
I0403 15:18:27.934429  2933 net.cpp:156] Memory required for data: 1340445216
I0403 15:18:27.934448  2933 layer_factory.hpp:77] Creating layer inception_5b/relu_pool_proj
I0403 15:18:27.934468  2933 net.cpp:91] Creating Layer inception_5b/relu_pool_proj
I0403 15:18:27.934485  2933 net.cpp:425] inception_5b/relu_pool_proj <- inception_5b/pool_proj
I0403 15:18:27.934504  2933 net.cpp:386] inception_5b/relu_pool_proj -> inception_5b/pool_proj (in-place)
I0403 15:18:27.934803  2933 net.cpp:141] Setting up inception_5b/relu_pool_proj
I0403 15:18:27.934829  2933 net.cpp:148] Top shape: 24 128 7 7 (150528)
I0403 15:18:27.934844  2933 net.cpp:156] Memory required for data: 1341047328
I0403 15:18:27.934859  2933 layer_factory.hpp:77] Creating layer inception_5b/output
I0403 15:18:27.934878  2933 net.cpp:91] Creating Layer inception_5b/output
I0403 15:18:27.934908  2933 net.cpp:425] inception_5b/output <- inception_5b/1x1
I0403 15:18:27.934926  2933 net.cpp:425] inception_5b/output <- inception_5b/3x3
I0403 15:18:27.934943  2933 net.cpp:425] inception_5b/output <- inception_5b/5x5
I0403 15:18:27.934959  2933 net.cpp:425] inception_5b/output <- inception_5b/pool_proj
I0403 15:18:27.934976  2933 net.cpp:399] inception_5b/output -> inception_5b/output
I0403 15:18:27.935032  2933 net.cpp:141] Setting up inception_5b/output
I0403 15:18:27.935055  2933 net.cpp:148] Top shape: 24 1024 7 7 (1204224)
I0403 15:18:27.935070  2933 net.cpp:156] Memory required for data: 1345864224
I0403 15:18:27.935084  2933 layer_factory.hpp:77] Creating layer pool5/7x7_s1
I0403 15:18:27.935101  2933 net.cpp:91] Creating Layer pool5/7x7_s1
I0403 15:18:27.935117  2933 net.cpp:425] pool5/7x7_s1 <- inception_5b/output
I0403 15:18:27.935137  2933 net.cpp:399] pool5/7x7_s1 -> pool5/7x7_s1
I0403 15:18:27.935361  2933 net.cpp:141] Setting up pool5/7x7_s1
I0403 15:18:27.935387  2933 net.cpp:148] Top shape: 24 1024 1 1 (24576)
I0403 15:18:27.935402  2933 net.cpp:156] Memory required for data: 1345962528
I0403 15:18:27.935416  2933 layer_factory.hpp:77] Creating layer pool5/drop_7x7_s1
I0403 15:18:27.935437  2933 net.cpp:91] Creating Layer pool5/drop_7x7_s1
I0403 15:18:27.935454  2933 net.cpp:425] pool5/drop_7x7_s1 <- pool5/7x7_s1
I0403 15:18:27.935472  2933 net.cpp:386] pool5/drop_7x7_s1 -> pool5/7x7_s1 (in-place)
I0403 15:18:27.935523  2933 net.cpp:141] Setting up pool5/drop_7x7_s1
I0403 15:18:27.935547  2933 net.cpp:148] Top shape: 24 1024 1 1 (24576)
I0403 15:18:27.935561  2933 net.cpp:156] Memory required for data: 1346060832
I0403 15:18:27.935575  2933 layer_factory.hpp:77] Creating layer loss3/classifier_plantvillage
I0403 15:18:27.935595  2933 net.cpp:91] Creating Layer loss3/classifier_plantvillage
I0403 15:18:27.935611  2933 net.cpp:425] loss3/classifier_plantvillage <- pool5/7x7_s1
I0403 15:18:27.935631  2933 net.cpp:399] loss3/classifier_plantvillage -> loss3/classifier_plantvillage
I0403 15:18:27.936067  2933 net.cpp:141] Setting up loss3/classifier_plantvillage
I0403 15:18:27.936091  2933 net.cpp:148] Top shape: 24 38 (912)
I0403 15:18:27.936106  2933 net.cpp:156] Memory required for data: 1346064480
I0403 15:18:27.936123  2933 layer_factory.hpp:77] Creating layer loss3/classifier_plantvillage_loss3/classifier_plantvillage_0_split
I0403 15:18:27.936142  2933 net.cpp:91] Creating Layer loss3/classifier_plantvillage_loss3/classifier_plantvillage_0_split
I0403 15:18:27.936157  2933 net.cpp:425] loss3/classifier_plantvillage_loss3/classifier_plantvillage_0_split <- loss3/classifier_plantvillage
I0403 15:18:27.936182  2933 net.cpp:399] loss3/classifier_plantvillage_loss3/classifier_plantvillage_0_split -> loss3/classifier_plantvillage_loss3/classifier_plantvillage_0_split_0
I0403 15:18:27.936205  2933 net.cpp:399] loss3/classifier_plantvillage_loss3/classifier_plantvillage_0_split -> loss3/classifier_plantvillage_loss3/classifier_plantvillage_0_split_1
I0403 15:18:27.936225  2933 net.cpp:399] loss3/classifier_plantvillage_loss3/classifier_plantvillage_0_split -> loss3/classifier_plantvillage_loss3/classifier_plantvillage_0_split_2
I0403 15:18:27.936245  2933 net.cpp:399] loss3/classifier_plantvillage_loss3/classifier_plantvillage_0_split -> loss3/classifier_plantvillage_loss3/classifier_plantvillage_0_split_3
I0403 15:18:27.936348  2933 net.cpp:141] Setting up loss3/classifier_plantvillage_loss3/classifier_plantvillage_0_split
I0403 15:18:27.936372  2933 net.cpp:148] Top shape: 24 38 (912)
I0403 15:18:27.936388  2933 net.cpp:148] Top shape: 24 38 (912)
I0403 15:18:27.936403  2933 net.cpp:148] Top shape: 24 38 (912)
I0403 15:18:27.936419  2933 net.cpp:148] Top shape: 24 38 (912)
I0403 15:18:27.936431  2933 net.cpp:156] Memory required for data: 1346079072
I0403 15:18:27.936445  2933 layer_factory.hpp:77] Creating layer loss1/loss
I0403 15:18:27.936466  2933 net.cpp:91] Creating Layer loss1/loss
I0403 15:18:27.936483  2933 net.cpp:425] loss1/loss <- loss1/classifier_plantvillage_loss1/classifier_plantvillage_0_split_0
I0403 15:18:27.936514  2933 net.cpp:425] loss1/loss <- label_data_1_split_0
…
