…
I0403 15:09:59.382009  2750 net.cpp:313] The NetState phase (1) differed from the phase (0) specified by a rule in layer data
I0403 15:09:59.383216  2750 net.cpp:49] Initializing net from parameters: 
state {
  phase: TEST
}
layer {
  name: "data"
  type: "Data"
  top: "data"
  top: "label"
  include {
    phase: TEST
  }
  transform_param {
    mirror: false
    crop_size: 224
    mean_file: "/home/mohanty/data/final_dataset/lmdb/segmented-60-40/mean.binaryproto"
  }
  data_param {
    source: "/home/mohanty/data/final_dataset/lmdb/segmented-60-40/test_db"
    batch_size: 24
    backend: LMDB
  }
}
layer {
  name: "conv1/7x7_s2"
  type: "Convolution"
  bottom: "data"
  top: "conv1/7x7_s2"
  param {
    lr_mult: 1
    decay_mult: 1
  }
  param {
    lr_mult: 2
    decay_mult: 0
  }
  convolution_param {
    num_output: 64
    pad: 3
    kernel_size: 7
    stride: 2
    weight_filler {
      type: "xavier"
      std: 0.1
    }
    bias_filler {
      type: "constant"
      value: 0.2
    }
  }
}
layer {
  name: "conv1/relu_7x7"
  type: "ReLU"
  bottom: "conv1/7x7_s2"
  top: "conv1/7x7_s2"
}
layer {
  name: "pool1/3x3_s2"
  type: "Pooling"
  bottom: "conv1/7x7_s2"
  top: "pool1/3x3_s2"
  pooling_param {
    pool: MAX
    kernel_size: 3
    stride: 2
  }
}
layer {
  name: "pool1/norm1"
  type: "LRN"
  bottom: "pool1/3x3_s2"
  top: "pool1/norm1"
  lrn_param {
    local_size: 5
    alpha: 0.0001
    beta: 0.75
  }
}
layer {
  name: "conv2/3x3_reduce"
  type: "Convolution"
  bottom: "pool1/norm1"
  top: "conv2/3x3_reduce"
  param {
    lr_mult: 1
    decay_mult: 1
  }
  param {
    lr_mult: 2
    decay_mult: 0
  }
  convolution_param {
    num_output: 64
    kernel_size: 1
    weight_filler {
      type: "xavier"
      std: 0.1
    }
    bias_filler {
      type: "constant"
      value: 0.2
    }
  }
}
layer {
  name: "conv2/relu_3x3_reduce"
  type: "ReLU"
  bottom: "conv2/3x3_reduce"
  top: "conv2/3x3_reduce"
}
layer {
  name: "conv2/3x3"
  type: "Convolution"
  bottom: "conv2/3x3_reduce"
  top: "conv2/3x3"
  param {
    lr_mult: 1
    decay_mult: 1
  }
  param {
    lr_mult: 2
    decay_mult: 0
  }
  convolution_param {
    num_output: 192
    pad: 1
    kernel_size: 3
    weight_filler {
      type: "xavier"
      std: 0.03
    }
    bias_filler {
      type: "constant"
      value: 0.2
    }
  }
}
layer {
  name: "conv2/relu_3x3"
  type: "ReLU"
  bottom: "conv2/3x3"
  top: "conv2/3x3"
}
layer {
  name: "conv2/norm2"
  type: "LRN"
  bottom: "conv2/3x3"
  top: "conv2/norm2"
  lrn_param {
    local_size: 5
    alpha: 0.0001
    beta: 0.75
  }
}
layer {
  name: "pool2/3x3_s2"
  type: "Pooling"
  bottom: "conv2/norm2"
  top: "pool2/3x3_s2"
  pooling_param {
    pool: MAX
    kernel_size: 3
    stride: 2
  }
}
layer {
  name: "inception_3a/1x1"
  type: "Convolution"
  bottom: "pool2/3x3_s2"
  top: "inception_3a/1x1"
  param {
    lr_mult: 1
    decay_mult: 1
  }
  param {
    lr_mult: 2
    decay_mult: 0
  }
  convolution_param {
    num_output: 64
    kernel_size: 1
    weight_filler {
      type: "xavier"
      std: 0.03
    }
    bias_filler {
      type: "constant"
      value: 0.2
    }
  }
}
layer {
  name: "inception_3a/relu_1x1"
  type: "ReLU"
  bottom: "inception_3a/1x1"
  top: "inception_3a/1x1"
}
layer {
  name: "inception_3a/3x3_reduce"
  type: "Convolution"
  bottom: "pool2/3x3_s2"
  top: "inception_3a/3x3_reduce"
  param {
    lr_mult: 1
    decay_mult: 1
  }
  param {
    lr_mult: 2
    decay_mult: 0
  }
  convolution_param {
    num_output: 96
    kernel_size: 1
    weight_filler {
      type: "xavier"
      std: 0.09
    }
    bias_filler {
      type: "constant"
      value: 0.2
    }
  }
}
layer {
  name: "inception_3a/relu_3x3_reduce"
  type: "ReLU"
  bottom: "inception_3a/3x3_reduce"
  top: "inception_3a/3x3_reduce"
}
layer {
  name: "inception_3a/3x3"
  type: "Convolution"
  bottom: "inception_3a/3x3_reduce"
  top: "inception_3a/3x3"
  param {
    lr_mult: 1
    decay_mult: 1
  }
  param {
    lr_mult: 2
    decay_mult: 0
  }
  convolution_param {
    num_output: 128
    pad: 1
    kernel_size: 3
    weight_filler {
      type: "xavier"
      std: 0.03
    }
    bias_filler {
      type: "constant"
      value: 0.2
    }
  }
}
layer {
  name: "inception_3a/relu_3x3"
  type: "ReLU"
  bottom: "inception_3a/3x3"
  top: "inception_3a/3x3"
}
layer {
  name: "inception_3a/5x5_reduce"
  type: "Convolution"
  bottom: "pool2/3x3_s2"
  top: "inception_3a/5x5_reduce"
  param {
    lr_mult: 1
    decay_mult: 1
  }
  param {
    lr_mult: 2
    decay_mult: 0
  }
  convolution_param {
    num_output: 16
    kernel_size: 1
    weight_filler {
      type: "xavier"
      std: 0.2
    }
    bias_filler {
      type: "constant"
      value: 0.2
    }
  }
}
layer {
  name: "inception_3a/relu_5x5_reduce"
  type: "ReLU"
  bottom: "inception_3a/5x5_reduce"
  top: "inception_3a/5x5_reduce"
}
layer {
  name: "inception_3a/5x5"
  type: "Convolution"
  bottom: "inception_3a/5x5_reduce"
  top: "inception_3a/5x5"
  param {
    lr_mult: 1
    decay_mult: 1
  }
  param {
    lr_mult: 2
    decay_mult: 0
  }
  convolution_param {
    num_output: 32
    pad: 2
    kernel_size: 5
    weight_filler {
      type: "xavier"
      std: 0.03
    }
    bias_filler {
      type: "constant"
      value: 0.2
    }
  }
}
layer {
  name: "inception_3a/relu_5x5"
  type: "ReLU"
  bottom: "inception_3a/5x5"
  top: "inception_3a/5x5"
}
layer {
  name: "inception_3a/pool"
  type: "Pooling"
  bottom: "pool2/3x3_s2"
  top: "inception_3a/pool"
  pooling_param {
    pool: MAX
    kernel_size: 3
    stride: 1
    pad: 1
  }
}
layer {
  name: "inception_3a/pool_proj"
  type: "Convolution"
  bottom: "inception_3a/pool"
  top: "inception_3a/pool_proj"
  param {
    lr_mult: 1
    decay_mult: 1
  }
  param {
    lr_mult: 2
    decay_mult: 0
  }
  convolution_param {
    num_output: 32
    kernel_size: 1
    weight_filler {
      type: "xavier"
      std: 0.1
    }
    bias_filler {
      type: "constant"
      value: 0.2
    }
  }
}
layer {
  name: "inception_3a/relu_pool_proj"
  type: "ReLU"
  bottom: "inception_3a/pool_proj"
  top: "inception_3a/pool_proj"
}
layer {
  name: "inception_3a/output"
  type: "Concat"
  bottom: "inception_3a/1x1"
  bottom: "inception_3a/3x3"
  bottom: "inception_3a/5x5"
  bottom: "inception_3a/pool_proj"
  top: "inception_3a/output"
}
layer {
  name: "inception_3b/1x1"
  type: "Convolution"
  bottom: "inception_3a/output"
  top: "inception_3b/1x1"
  param {
    lr_mult: 1
    decay_mult: 1
  }
  param {
    lr_mult: 2
    decay_mult: 0
  }
  convolution_param {
    num_output: 128
    kernel_size: 1
    weight_filler {
      type: "xavier"
      std: 0.03
    }
    bias_filler {
      type: "constant"
      value: 0.2
    }
  }
}
layer {
  name: "inception_3b/relu_1x1"
  type: "ReLU"
  bottom: "inception_3b/1x1"
  top: "inception_3b/1x1"
}
layer {
  name: "inception_3b/3x3_reduce"
  type: "Convolution"
  bottom: "inception_3a/output"
  top: "inception_3b/3x3_reduce"
  param {
    lr_mult: 1
    decay_mult: 1
  }
  param {
    lr_mult: 2
    decay_mult: 0
  }
  convolution_param {
    num_output: 128
    kernel_size: 1
    weight_filler {
      type: "xavier"
      std: 0.09
    }
    bias_filler {
      type: "constant"
      value: 0.2
    }
  }
}
layer {
  name: "inception_3b/relu_3x3_reduce"
  type: "ReLU"
  bottom: "inception_3b/3x3_reduce"
  top: "inception_3b/3x3_reduce"
}
layer {
  name: "inception_3b/3x3"
  type: "Convolution"
  bottom: "inception_3b/3x3_reduce"
  top: "inception_3b/3x3"
  param {
    lr_mult: 1
    decay_mult: 1
  }
  param {
    lr_mult: 2
    decay_mult: 0
  }
  convolution_param {
    num_output: 192
    pad: 1
    kernel_size: 3
    weight_filler {
      type: "xavier"
      std: 0.03
    }
    bias_filler {
      type: "constant"
      value: 0.2
    }
  }
}
layer {
  name: "inception_3b/relu_3x3"
  type: "ReLU"
  bottom: "inception_3b/3x3"
  top: "inception_3b/3x3"
}
layer {
  name: "inception_3b/5x5_reduce"
  type: "Convolution"
  bottom: "inception_3a/output"
  top: "inception_3b/5x5_reduce"
  param {
    lr_mult: 1
    decay_mult: 1
  }
  param {
    lr_mult: 2
    decay_mult: 0
  }
  convolution_param {
    num_output: 32
    kernel_size: 1
    weight_filler {
      type: "xavier"
      std: 0.2
    }
    bias_filler {
      type: "constant"
      value: 0.2
    }
  }
}
layer {
  name: "inception_3b/relu_5x5_reduce"
  type: "ReLU"
  bottom: "inception_3b/5x5_reduce"
  top: "inception_3b/5x5_reduce"
}
layer {
  name: "inception_3b/5x5"
  type: "Convolution"
  bottom: "inception_3b/5x5_reduce"
  top: "inception_3b/5x5"
  param {
    lr_mult: 1
    decay_mult: 1
  }
  param {
    lr_mult: 2
    decay_mult: 0
  }
  convolution_param {
    num_output: 96
    pad: 2
    kernel_size: 5
    weight_filler {
      type: "xavier"
      std: 0.03
    }
    bias_filler {
      type: "constant"
      value: 0.2
    }
  }
}
layer {
  name: "inception_3b/relu_5x5"
  type: "ReLU"
  bottom: "inception_3b/5x5"
  top: "inception_3b/5x5"
}
layer {
  name: "inception_3b/pool"
  type: "Pooling"
  bottom: "inception_3a/output"
  top: "inception_3b/pool"
  pooling_param {
    pool: MAX
    kernel_size: 3
    stride: 1
    pad: 1
  }
}
layer {
  name: "inception_3b/pool_proj"
  type: "Convolution"
  bottom: "inception_3b/pool"
  top: "inception_3b/pool_proj"
  param {
    lr_mult: 1
    decay_mult: 1
  }
  param {
    lr_mult: 2
    decay_mult: 0
  }
  convolution_param {
    num_output: 64
    kernel_size: 1
    weight_filler {
      type: "xavier"
      std: 0.1
    }
    bias_filler {
      type: "constant"
      value: 0.2
    }
  }
}
layer {
  name: "inception_3b/relu_pool_proj"
  type: "ReLU"
  bottom: "inception_3b/pool_proj"
  top: "inception_3b/pool_proj"
}
layer {
  name: "inception_3b/output"
  type: "Concat"
  bottom: "inception_3b/1x1"
  bottom: "inception_3b/3x3"
  bottom: "inception_3b/5x5"
  bottom: "inception_3b/pool_proj"
  top: "inception_3b/output"
}
layer {
  name: "pool3/3x3_s2"
  type: "Pooling"
  bottom: "inception_3b/output"
  top: "pool3/3x3_s2"
  pooling_param {
    pool: MAX
    kernel_size: 3
    stride: 2
  }
}
layer {
  name: "inception_4a/1x1"
  type: "Convolution"
  bottom: "pool3/3x3_s2"
  top: "inception_4a/1x1"
  param {
    lr_mult: 1
    decay_mult: 1
  }
  param {
    lr_mult: 2
    decay_mult: 0
  }
  convolution_param {
    num_output: 192
    kernel_size: 1
    weight_filler {
      type: "xavier"
      std: 0.03
    }
    bias_filler {
      type: "constant"
      value: 0.2
    }
  }
}
layer {
  name: "inception_4a/relu_1x1"
  type: "ReLU"
  bottom: "inception_4a/1x1"
  top: "inception_4a/1x1"
}
layer {
  name: "inception_4a/3x3_reduce"
  type: "Convolution"
  bottom: "pool3/3x3_s2"
  top: "inception_4a/3x3_reduce"
  param {
    lr_mult: 1
    decay_mult: 1
  }
  param {
    lr_mult: 2
    decay_mult: 0
  }
  convolution_param {
    num_output: 96
    kernel_size: 1
    weight_filler {
      type: "xavier"
      std: 0.09
    }
    bias_filler {
      type: "constant"
      value: 0.2
    }
  }
}
layer {
  name: "inception_4a/relu_3x3_reduce"
  type: "ReLU"
  bottom: "inception_4a/3x3_reduce"
  top: "inception_4a/3x3_reduce"
}
layer {
  name: "inception_4a/3x3"
  type: "Convolution"
  bottom: "inception_4a/3x3_reduce"
  top: "inception_4a/3x3"
  param {
    lr_mult: 1
    decay_mult: 1
  }
  param {
    lr_mult: 2
    decay_mult: 0
  }
  convolution_param {
    num_output: 208
    pad: 1
    kernel_size: 3
    weight_filler {
      type: "xavier"
      std: 0.03
    }
    bias_filler {
      type: "constant"
      value: 0.2
    }
  }
}
layer {
  name: "inception_4a/relu_3x3"
  type: "ReLU"
  bottom: "inception_4a/3x3"
  top: "inception_4a/3x3"
}
layer {
  name: "inception_4a/5x5_reduce"
  type: "Convolution"
  bottom: "pool3/3x3_s2"
  top: "inception_4a/5x5_reduce"
  param {
    lr_mult: 1
    decay_mult: 1
  }
  param {
    lr_mult: 2
    decay_mult: 0
  }
  convolution_param {
    num_output: 16
    kernel_size: 1
    weight_filler {
      type: "xavier"
      std: 0.2
    }
    bias_filler {
      type: "constant"
      value: 0.2
    }
  }
}
layer {
  name: "inception_4a/relu_5x5_reduce"
  type: "ReLU"
  bottom: "inception_4a/5x5_reduce"
  top: "inception_4a/5x5_reduce"
}
layer {
  name: "inception_4a/5x5"
  type: "Convolution"
  bottom: "inception_4a/5x5_reduce"
  top: "inception_4a/5x5"
  param {
    lr_mult: 1
    decay_mult: 1
  }
  param {
    lr_mult: 2
    decay_mult: 0
  }
  convolution_param {
    num_output: 48
    pad: 2
    kernel_size: 5
    weight_filler {
      type: "xavier"
      std: 0.03
    }
    bias_filler {
      type: "constant"
      value: 0.2
    }
  }
}
layer {
  name: "inception_4a/relu_5x5"
  type: "ReLU"
  bottom: "inception_4a/5x5"
  top: "inception_4a/5x5"
}
layer {
  name: "inception_4a/pool"
  type: "Pooling"
  bottom: "pool3/3x3_s2"
  top: "inception_4a/pool"
  pooling_param {
    pool: MAX
    kernel_size: 3
    stride: 1
    pad: 1
  }
}
layer {
  name: "inception_4a/pool_proj"
  type: "Convolution"
  bottom: "inception_4a/pool"
  top: "inception_4a/pool_proj"
  param {
    lr_mult: 1
    decay_mult: 1
  }
  param {
    lr_mult: 2
    decay_mult: 0
  }
  convolution_param {
    num_output: 64
    kernel_size: 1
    weight_filler {
      type: "xavier"
      std: 0.1
    }
    bias_filler {
      type: "constant"
      value: 0.2
    }
  }
}
layer {
  name: "inception_4a/relu_pool_proj"
  type: "ReLU"
  bottom: "inception_4a/pool_proj"
  top: "inception_4a/pool_proj"
}
layer {
  name: "inception_4a/output"
  type: "Concat"
  bottom: "inception_4a/1x1"
  bottom: "inception_4a/3x3"
  bottom: "inception_4a/5x5"
  bottom: "inception_4a/pool_proj"
  top: "inception_4a/output"
}
layer {
  name: "loss1/ave_pool"
  type: "Pooling"
  bottom: "inception_4a/output"
  top: "loss1/ave_pool"
  pooling_param {
    pool: AVE
    kernel_size: 5
    stride: 3
  }
}
layer {
  name: "loss1/conv"
  type: "Convolution"
  bottom: "loss1/ave_pool"
  top: "loss1/conv"
  param {
    lr_mult: 1
    decay_mult: 1
  }
  param {
    lr_mult: 2
    decay_mult: 0
  }
  convolution_param {
    num_output: 128
    kernel_size: 1
    weight_filler {
      type: "xavier"
      std: 0.08
    }
    bias_filler {
      type: "constant"
      value: 0.2
    }
  }
}
layer {
  name: "loss1/relu_conv"
  type: "ReLU"
  bottom: "loss1/conv"
  top: "loss1/conv"
}
layer {
  name: "loss1/fc"
  type: "InnerProduct"
  bottom: "loss1/conv"
  top: "loss1/fc"
  param {
    lr_mult: 1
    decay_mult: 1
  }
  param {
    lr_mult: 2
    decay_mult: 0
  }
  inner_product_param {
    num_output: 1024
    weight_filler {
      type: "xavier"
      std: 0.02
    }
    bias_filler {
      type: "constant"
      value: 0.2
    }
  }
}
layer {
  name: "loss1/relu_fc"
  type: "ReLU"
  bottom: "loss1/fc"
  top: "loss1/fc"
}
layer {
  name: "loss1/drop_fc"
  type: "Dropout"
  bottom: "loss1/fc"
  top: "loss1/fc"
  dropout_param {
    dropout_ratio: 0.7
  }
}
layer {
  name: "loss1/classifier_plantvillage"
  type: "InnerProduct"
  bottom: "loss1/fc"
  top: "loss1/classifier_plantvillage"
  param {
    lr_mult: 1
    decay_mult: 1
  }
  param {
    lr_mult: 2
    decay_mult: 0
  }
  inner_product_param {
    num_output: 38
    weight_filler {
      type: "xavier"
      std: 0.0009765625
    }
    bias_filler {
      type: "constant"
      value: 0
    }
  }
}
layer {
  name: "inception_4b/1x1"
  type: "Convolution"
  bottom: "inception_4a/output"
  top: "inception_4b/1x1"
  param {
    lr_mult: 1
    decay_mult: 1
  }
  param {
    lr_mult: 2
    decay_mult: 0
  }
  convolution_param {
    num_output: 160
    kernel_size: 1
    weight_filler {
      type: "xavier"
      std: 0.03
    }
    bias_filler {
      type: "constant"
      value: 0.2
    }
  }
}
layer {
  name: "inception_4b/relu_1x1"
  type: "ReLU"
  bottom: "inception_4b/1x1"
  top: "inception_4b/1x1"
}
layer {
  name: "inception_4b/3x3_reduce"
  type: "Convolution"
  bottom: "inception_4a/output"
  top: "inception_4b/3x3_reduce"
  param {
    lr_mult: 1
    decay_mult: 1
  }
  param {
    lr_mult: 2
    decay_mult: 0
  }
  convolution_param {
    num_output: 112
    kernel_size: 1
    weight_filler {
      type: "xavier"
      std: 0.09
    }
    bias_filler {
      type: "constant"
      value: 0.2
    }
  }
}
layer {
  name: "inception_4b/relu_3x3_reduce"
  type: "ReLU"
  bottom: "inception_4b/3x3_reduce"
  top: "inception_4b/3x3_reduce"
}
layer {
  name: "inception_4b/3x3"
  type: "Convolution"
  bottom: "inception_4b/3x3_reduce"
  top: "inception_4b/3x3"
  param {
    lr_mult: 1
    decay_mult: 1
  }
  param {
    lr_mult: 2
    decay_mult: 0
  }
  convolution_param {
    num_output: 224
    pad: 1
    kernel_size: 3
    weight_filler {
      type: "xavier"
      std: 0.03
    }
    bias_filler {
      type: "constant"
      value: 0.2
    }
  }
}
layer {
  name: "inception_4b/relu_3x3"
  type: "ReLU"
  bottom: "inception_4b/3x3"
  top: "inception_4b/3x3"
}
layer {
  name: "inception_4b/5x5_reduce"
  type: "Convolution"
  bottom: "inception_4a/output"
  top: "inception_4b/5x5_reduce"
  param {
    lr_mult: 1
    decay_mult: 1
  }
  param {
    lr_mult: 2
    decay_mult: 0
  }
  convolution_param {
    num_output: 24
    kernel_size: 1
    weight_filler {
      type: "xavier"
      std: 0.2
    }
    bias_filler {
      type: "constant"
      value: 0.2
    }
  }
}
layer {
  name: "inception_4b/relu_5x5_reduce"
  type: "ReLU"
  bottom: "inception_4b/5x5_reduce"
  top: "inception_4b/5x5_reduce"
}
layer {
  name: "inception_4b/5x5"
  type: "Convolution"
  bottom: "inception_4b/5x5_reduce"
  top: "inception_4b/5x5"
  param {
    lr_mult: 1
    decay_mult: 1
  }
  param {
    lr_mult: 2
    decay_mult: 0
  }
  convolution_param {
    num_output: 64
    pad: 2
    kernel_size: 5
    weight_filler {
      type: "xavier"
      std: 0.03
    }
    bias_filler {
      type: "constant"
      value: 0.2
    }
  }
}
layer {
  name: "inception_4b/relu_5x5"
  type: "ReLU"
  bottom: "inception_4b/5x5"
  top: "inception_4b/5x5"
}
layer {
  name: "inception_4b/pool"
  type: "Pooling"
  bottom: "inception_4a/output"
  top: "inception_4b/pool"
  pooling_param {
    pool: MAX
    kernel_size: 3
    stride: 1
    pad: 1
  }
}
layer {
  name: "inception_4b/pool_proj"
  type: "Convolution"
  bottom: "inception_4b/pool"
  top: "inception_4b/pool_proj"
  param {
    lr_mult: 1
    decay_mult: 1
  }
  param {
    lr_mult: 2
    decay_mult: 0
  }
  convolution_param {
    num_output: 64
    kernel_size: 1
    weight_filler {
      type: "xavier"
      std: 0.1
    }
    bias_filler {
      type: "constant"
      value: 0.2
    }
  }
}
layer {
  name: "inception_4b/relu_pool_proj"
  type: "ReLU"
  bottom: "inception_4b/pool_proj"
  top: "inception_4b/pool_proj"
}
layer {
  name: "inception_4b/output"
  type: "Concat"
  bottom: "inception_4b/1x1"
  bottom: "inception_4b/3x3"
  bottom: "inception_4b/5x5"
  bottom: "inception_4b/pool_proj"
  top: "inception_4b/output"
}
layer {
  name: "inception_4c/1x1"
  type: "Convolution"
  bottom: "inception_4b/output"
  top: "inception_4c/1x1"
  param {
    lr_mult: 1
    decay_mult: 1
  }
  param {
    lr_mult: 2
    decay_mult: 0
  }
  convolution_param {
    num_output: 128
    kernel_size: 1
    weight_filler {
      type: "xavier"
      std: 0.03
    }
    bias_filler {
      type: "constant"
      value: 0.2
    }
  }
}
layer {
  name: "inception_4c/relu_1x1"
  type: "ReLU"
  bottom: "inception_4c/1x1"
  top: "inception_4c/1x1"
}
layer {
  name: "inception_4c/3x3_reduce"
  type: "Convolution"
  bottom: "inception_4b/output"
  top: "inception_4c/3x3_reduce"
  param {
    lr_mult: 1
    decay_mult: 1
  }
  param {
    lr_mult: 2
    decay_mult: 0
  }
  convolution_param {
    num_output: 128
    kernel_size: 1
    weight_filler {
      type: "xavier"
      std: 0.09
    }
    bias_filler {
      type: "constant"
      value: 0.2
    }
  }
}
layer {
  name: "inception_4c/relu_3x3_reduce"
  type: "ReLU"
  bottom: "inception_4c/3x3_reduce"
  top: "inception_4c/3x3_reduce"
}
layer {
  name: "inception_4c/3x3"
  type: "Convolution"
  bottom: "inception_4c/3x3_reduce"
  top: "inception_4c/3x3"
  param {
    lr_mult: 1
    decay_mult: 1
  }
  param {
    lr_mult: 2
    decay_mult: 0
  }
  convolution_param {
    num_output: 256
    pad: 1
    kernel_size: 3
    weight_filler {
      type: "xavier"
      std: 0.03
    }
    bias_filler {
      type: "constant"
      value: 0.2
    }
  }
}
layer {
  name: "inception_4c/relu_3x3"
  type: "ReLU"
  bottom: "inception_4c/3x3"
  top: "inception_4c/3x3"
}
layer {
  name: "inception_4c/5x5_reduce"
  type: "Convolution"
  bottom: "inception_4b/output"
  top: "inception_4c/5x5_reduce"
  param {
    lr_mult: 1
    decay_mult: 1
  }
  param {
    lr_mult: 2
    decay_mult: 0
  }
  convolution_param {
    num_output: 24
    kernel_size: 1
    weight_filler {
      type: "xavier"
      std: 0.2
    }
    bias_filler {
      type: "constant"
      value: 0.2
    }
  }
}
layer {
  name: "inception_4c/relu_5x5_reduce"
  type: "ReLU"
  bottom: "inception_4c/5x5_reduce"
  top: "inception_4c/5x5_reduce"
}
layer {
  name: "inception_4c/5x5"
  type: "Convolution"
  bottom: "inception_4c/5x5_reduce"
  top: "inception_4c/5x5"
  param {
    lr_mult: 1
    decay_mult: 1
  }
  param {
    lr_mult: 2
    decay_mult: 0
  }
  convolution_param {
    num_output: 64
    pad: 2
    kernel_size: 5
    weight_filler {
      type: "xavier"
      std: 0.03
    }
    bias_filler {
      type: "constant"
      value: 0.2
    }
  }
}
layer {
  name: "inception_4c/relu_5x5"
  type: "ReLU"
  bottom: "inception_4c/5x5"
  top: "inception_4c/5x5"
}
layer {
  name: "inception_4c/pool"
  type: "Pooling"
  bottom: "inception_4b/output"
  top: "inception_4c/pool"
  pooling_param {
    pool: MAX
    kernel_size: 3
    stride: 1
    pad: 1
  }
}
layer {
  name: "inception_4c/pool_proj"
  type: "Convolution"
  bottom: "inception_4c/pool"
  top: "inception_4c/pool_proj"
  param {
    lr_mult: 1
    decay_mult: 1
  }
  param {
    lr_mult: 2
    decay_mult: 0
  }
  convolution_param {
    num_output: 64
    kernel_size: 1
    weight_filler {
      type: "xavier"
      std: 0.1
    }
    bias_filler {
      type: "constant"
      value: 0.2
    }
  }
}
layer {
  name: "inception_4c/relu_pool_proj"
  type: "ReLU"
  bottom: "inception_4c/pool_proj"
  top: "inception_4c/pool_proj"
}
layer {
  name: "inception_4c/output"
  type: "Concat"
  bottom: "inception_4c/1x1"
  bottom: "inception_4c/3x3"
  bottom: "inception_4c/5x5"
  bottom: "inception_4c/pool_proj"
  top: "inception_4c/output"
}
layer {
  name: "inception_4d/1x1"
  type: "Convolution"
  bottom: "inception_4c/output"
  top: "inception_4d/1x1"
  param {
    lr_mult: 1
    decay_mult: 1
  }
  param {
    lr_mult: 2
    decay_mult: 0
  }
  convolution_param {
    num_output: 112
    kernel_size: 1
    weight_filler {
      type: "xavier"
      std: 0.03
    }
    bias_filler {
      type: "constant"
      value: 0.2
    }
  }
}
layer {
  name: "inception_4d/relu_1x1"
  type: "ReLU"
  bottom: "inception_4d/1x1"
  top: "inception_4d/1x1"
}
layer {
  name: "inception_4d/3x3_reduce"
  type: "Convolution"
  bottom: "inception_4c/output"
  top: "inception_4d/3x3_reduce"
  param {
    lr_mult: 1
    decay_mult: 1
  }
  param {
    lr_mult: 2
    decay_mult: 0
  }
  convolution_param {
    num_output: 144
    kernel_size: 1
    weight_filler {
      type: "xavier"
      std: 0.09
    }
    bias_filler {
      type: "constant"
      value: 0.2
    }
  }
}
layer {
  name: "inception_4d/relu_3x3_reduce"
  type: "ReLU"
  bottom: "inception_4d/3x3_reduce"
  top: "inception_4d/3x3_reduce"
}
layer {
  name: "inception_4d/3x3"
  type: "Convolution"
  bottom: "inception_4d/3x3_reduce"
  top: "inception_4d/3x3"
  param {
    lr_mult: 1
    decay_mult: 1
  }
  param {
    lr_mult: 2
    decay_mult: 0
  }
  convolution_param {
    num_output: 288
    pad: 1
    kernel_size: 3
    weight_filler {
      type: "xavier"
      std: 0.03
    }
    bias_filler {
      type: "constant"
      value: 0.2
    }
  }
}
layer {
  name: "inception_4d/relu_3x3"
  type: "ReLU"
  bottom: "inception_4d/3x3"
  top: "inception_4d/3x3"
}
layer {
  name: "inception_4d/5x5_reduce"
  type: "Convolution"
  bottom: "inception_4c/output"
  top: "inception_4d/5x5_reduce"
  param {
    lr_mult: 1
    decay_mult: 1
  }
  param {
    lr_mult: 2
    decay_mult: 0
  }
  convolution_param {
    num_output: 32
    kernel_size: 1
    weight_filler {
      type: "xavier"
      std: 0.2
    }
    bias_filler {
      type: "constant"
      value: 0.2
    }
  }
}
layer {
  name: "inception_4d/relu_5x5_reduce"
  type: "ReLU"
  bottom: "inception_4d/5x5_reduce"
  top: "inception_4d/5x5_reduce"
}
layer {
  name: "inception_4d/5x5"
  type: "Convolution"
  bottom: "inception_4d/5x5_reduce"
  top: "inception_4d/5x5"
  param {
    lr_mult: 1
    decay_mult: 1
  }
  param {
    lr_mult: 2
    decay_mult: 0
  }
  convolution_param {
    num_output: 64
    pad: 2
    kernel_size: 5
    weight_filler {
      type: "xavier"
      std: 0.03
    }
    bias_filler {
      type: "constant"
      value: 0.2
    }
  }
}
layer {
  name: "inception_4d/relu_5x5"
  type: "ReLU"
  bottom: "inception_4d/5x5"
  top: "inception_4d/5x5"
}
layer {
  name: "inception_4d/pool"
  type: "Pooling"
  bottom: "inception_4c/output"
  top: "inception_4d/pool"
  pooling_param {
    pool: MAX
    kernel_size: 3
    stride: 1
    pad: 1
  }
}
layer {
  name: "inception_4d/pool_proj"
  type: "Convolution"
  bottom: "inception_4d/pool"
  top: "inception_4d/pool_proj"
  param {
    lr_mult: 1
    decay_mult: 1
  }
  param {
    lr_mult: 2
    decay_mult: 0
  }
  convolution_param {
    num_output: 64
    kernel_size: 1
    weight_filler {
      type: "xavier"
      std: 0.1
    }
    bias_filler {
      type: "constant"
      value: 0.2
    }
  }
}
layer {
  name: "inception_4d/relu_pool_proj"
  type: "ReLU"
  bottom: "inception_4d/pool_proj"
  top: "inception_4d/pool_proj"
}
layer {
  name: "inception_4d/output"
  type: "Concat"
  bottom: "inception_4d/1x1"
  bottom: "inception_4d/3x3"
  bottom: "inception_4d/5x5"
  bottom: "inception_4d/pool_proj"
  top: "inception_4d/output"
}
layer {
  name: "loss2/ave_pool"
  type: "Pooling"
  bottom: "inception_4d/output"
  top: "loss2/ave_pool"
  pooling_param {
    pool: AVE
    kernel_size: 5
    stride: 3
  }
}
layer {
  name: "loss2/conv"
  type: "Convolution"
  bottom: "loss2/ave_pool"
  top: "loss2/conv"
  param {
    lr_mult: 1
    decay_mult: 1
  }
  param {
    lr_mult: 2
    decay_mult: 0
  }
  convolution_param {
    num_output: 128
    kernel_size: 1
    weight_filler {
      type: "xavier"
      std: 0.08
    }
    bias_filler {
      type: "constant"
      value: 0.2
    }
  }
}
layer {
  name: "loss2/relu_conv"
  type: "ReLU"
  bottom: "loss2/conv"
  top: "loss2/conv"
}
layer {
  name: "loss2/fc"
  type: "InnerProduct"
  bottom: "loss2/conv"
  top: "loss2/fc"
  param {
    lr_mult: 1
    decay_mult: 1
  }
  param {
    lr_mult: 2
    decay_mult: 0
  }
  inner_product_param {
    num_output: 1024
    weight_filler {
      type: "xavier"
      std: 0.02
    }
    bias_filler {
      type: "constant"
      value: 0.2
    }
  }
}
layer {
  name: "loss2/relu_fc"
  type: "ReLU"
  bottom: "loss2/fc"
  top: "loss2/fc"
}
layer {
  name: "loss2/drop_fc"
  type: "Dropout"
  bottom: "loss2/fc"
  top: "loss2/fc"
  dropout_param {
    dropout_ratio: 0.7
  }
}
layer {
  name: "loss2/classifier_plantvillage"
  type: "InnerProduct"
  bottom: "loss2/fc"
  top: "loss2/classifier_plantvillage"
  param {
    lr_mult: 1
    decay_mult: 1
  }
  param {
    lr_mult: 2
    decay_mult: 0
  }
  inner_product_param {
    num_output: 38
    weight_filler {
      type: "xavier"
      std: 0.0009765625
    }
    bias_filler {
      type: "constant"
      value: 0
    }
  }
}
layer {
  name: "inception_4e/1x1"
  type: "Convolution"
  bottom: "inception_4d/output"
  top: "inception_4e/1x1"
  param {
    lr_mult: 1
    decay_mult: 1
  }
  param {
    lr_mult: 2
    decay_mult: 0
  }
  convolution_param {
    num_output: 256
    kernel_size: 1
    weight_filler {
      type: "xavier"
      std: 0.03
    }
    bias_filler {
      type: "constant"
      value: 0.2
    }
  }
}
layer {
  name: "inception_4e/relu_1x1"
  type: "ReLU"
  bottom: "inception_4e/1x1"
  top: "inception_4e/1x1"
}
layer {
  name: "inception_4e/3x3_reduce"
  type: "Convolution"
  bottom: "inception_4d/output"
  top: "inception_4e/3x3_reduce"
  param {
    lr_mult: 1
    decay_mult: 1
  }
  param {
    lr_mult: 2
    decay_mult: 0
  }
  convolution_param {
    num_output: 160
    kernel_size: 1
    weight_filler {
      type: "xavier"
      std: 0.09
    }
    bias_filler {
      type: "constant"
      value: 0.2
    }
  }
}
layer {
  name: "inception_4e/relu_3x3_reduce"
  type: "ReLU"
  bottom: "inception_4e/3x3_reduce"
  top: "inception_4e/3x3_reduce"
}
layer {
  name: "inception_4e/3x3"
  type: "Convolution"
  bottom: "inception_4e/3x3_reduce"
  top: "inception_4e/3x3"
  param {
    lr_mult: 1
    decay_mult: 1
  }
  param {
    lr_mult: 2
    decay_mult: 0
  }
  convolution_param {
    num_output: 320
    pad: 1
    kernel_size: 3
    weight_filler {
      type: "xavier"
      std: 0.03
    }
    bias_filler {
      type: "constant"
      value: 0.2
    }
  }
}
layer {
  name: "inception_4e/relu_3x3"
  type: "ReLU"
  bottom: "inception_4e/3x3"
  top: "inception_4e/3x3"
}
layer {
  name: "inception_4e/5x5_reduce"
  type: "Convolution"
  bottom: "inception_4d/output"
  top: "inception_4e/5x5_reduce"
  param {
    lr_mult: 1
    decay_mult: 1
  }
  param {
    lr_mult: 2
    decay_mult: 0
  }
  convolution_param {
    num_output: 32
    kernel_size: 1
    weight_filler {
      type: "xavier"
      std: 0.2
    }
    bias_filler {
      type: "constant"
      value: 0.2
    }
  }
}
layer {
  name: "inception_4e/relu_5x5_reduce"
  type: "ReLU"
  bottom: "inception_4e/5x5_reduce"
  top: "inception_4e/5x5_reduce"
}
layer {
  name: "inception_4e/5x5"
  type: "Convolution"
  bottom: "inception_4e/5x5_reduce"
  top: "inception_4e/
I0403 15:09:59.384521  2750 layer_factory.hpp:77] Creating layer data
I0403 15:09:59.385149  2750 net.cpp:91] Creating Layer data
I0403 15:09:59.385187  2750 net.cpp:399] data -> data
I0403 15:09:59.385243  2750 net.cpp:399] data -> label
I0403 15:09:59.385282  2750 data_transformer.cpp:25] Loading mean file from: /home/mohanty/data/final_dataset/lmdb/segmented-60-40/mean.binaryproto
I0403 15:09:59.388092  2757 db_lmdb.cpp:38] Opened lmdb /home/mohanty/data/final_dataset/lmdb/segmented-60-40/test_db
I0403 15:09:59.398546  2750 data_layer.cpp:41] output data size: 24,3,224,224
I0403 15:09:59.426007  2750 net.cpp:141] Setting up data
I0403 15:09:59.426064  2750 net.cpp:148] Top shape: 24 3 224 224 (3612672)
I0403 15:09:59.426087  2750 net.cpp:148] Top shape: 24 (24)
I0403 15:09:59.426103  2750 net.cpp:156] Memory required for data: 14450784
I0403 15:09:59.426131  2750 layer_factory.hpp:77] Creating layer label_data_1_split
I0403 15:09:59.426159  2750 net.cpp:91] Creating Layer label_data_1_split
I0403 15:09:59.426182  2750 net.cpp:425] label_data_1_split <- label
I0403 15:09:59.426216  2750 net.cpp:399] label_data_1_split -> label_data_1_split_0
I0403 15:09:59.426245  2750 net.cpp:399] label_data_1_split -> label_data_1_split_1
I0403 15:09:59.426268  2750 net.cpp:399] label_data_1_split -> label_data_1_split_2
I0403 15:09:59.426291  2750 net.cpp:399] label_data_1_split -> label_data_1_split_3
I0403 15:09:59.426314  2750 net.cpp:399] label_data_1_split -> label_data_1_split_4
I0403 15:09:59.426337  2750 net.cpp:399] label_data_1_split -> label_data_1_split_5
I0403 15:09:59.426357  2750 net.cpp:399] label_data_1_split -> label_data_1_split_6
I0403 15:09:59.426379  2750 net.cpp:399] label_data_1_split -> label_data_1_split_7
I0403 15:09:59.426400  2750 net.cpp:399] label_data_1_split -> label_data_1_split_8
I0403 15:09:59.426422  2750 net.cpp:399] label_data_1_split -> label_data_1_split_9
I0403 15:09:59.426545  2750 net.cpp:141] Setting up label_data_1_split
I0403 15:09:59.426570  2750 net.cpp:148] Top shape: 24 (24)
I0403 15:09:59.426587  2750 net.cpp:148] Top shape: 24 (24)
I0403 15:09:59.426604  2750 net.cpp:148] Top shape: 24 (24)
I0403 15:09:59.426620  2750 net.cpp:148] Top shape: 24 (24)
I0403 15:09:59.426636  2750 net.cpp:148] Top shape: 24 (24)
I0403 15:09:59.426652  2750 net.cpp:148] Top shape: 24 (24)
I0403 15:09:59.426668  2750 net.cpp:148] Top shape: 24 (24)
I0403 15:09:59.426684  2750 net.cpp:148] Top shape: 24 (24)
I0403 15:09:59.426700  2750 net.cpp:148] Top shape: 24 (24)
I0403 15:09:59.426717  2750 net.cpp:148] Top shape: 24 (24)
I0403 15:09:59.426761  2750 net.cpp:156] Memory required for data: 14451744
I0403 15:09:59.426779  2750 layer_factory.hpp:77] Creating layer conv1/7x7_s2
I0403 15:09:59.426811  2750 net.cpp:91] Creating Layer conv1/7x7_s2
I0403 15:09:59.426831  2750 net.cpp:425] conv1/7x7_s2 <- data
I0403 15:09:59.426851  2750 net.cpp:399] conv1/7x7_s2 -> conv1/7x7_s2
I0403 15:09:59.571324  2750 net.cpp:141] Setting up conv1/7x7_s2
I0403 15:09:59.571419  2750 net.cpp:148] Top shape: 24 64 112 112 (19267584)
I0403 15:09:59.571437  2750 net.cpp:156] Memory required for data: 91522080
I0403 15:09:59.571468  2750 layer_factory.hpp:77] Creating layer conv1/relu_7x7
I0403 15:09:59.571496  2750 net.cpp:91] Creating Layer conv1/relu_7x7
I0403 15:09:59.571516  2750 net.cpp:425] conv1/relu_7x7 <- conv1/7x7_s2
I0403 15:09:59.571534  2750 net.cpp:386] conv1/relu_7x7 -> conv1/7x7_s2 (in-place)
I0403 15:09:59.571807  2750 net.cpp:141] Setting up conv1/relu_7x7
I0403 15:09:59.571836  2750 net.cpp:148] Top shape: 24 64 112 112 (19267584)
I0403 15:09:59.571852  2750 net.cpp:156] Memory required for data: 168592416
I0403 15:09:59.571867  2750 layer_factory.hpp:77] Creating layer pool1/3x3_s2
I0403 15:09:59.571892  2750 net.cpp:91] Creating Layer pool1/3x3_s2
I0403 15:09:59.571909  2750 net.cpp:425] pool1/3x3_s2 <- conv1/7x7_s2
I0403 15:09:59.571930  2750 net.cpp:399] pool1/3x3_s2 -> pool1/3x3_s2
I0403 15:09:59.572005  2750 net.cpp:141] Setting up pool1/3x3_s2
I0403 15:09:59.572028  2750 net.cpp:148] Top shape: 24 64 56 56 (4816896)
I0403 15:09:59.572043  2750 net.cpp:156] Memory required for data: 187860000
I0403 15:09:59.572057  2750 layer_factory.hpp:77] Creating layer pool1/norm1
I0403 15:09:59.572082  2750 net.cpp:91] Creating Layer pool1/norm1
I0403 15:09:59.572100  2750 net.cpp:425] pool1/norm1 <- pool1/3x3_s2
I0403 15:09:59.572120  2750 net.cpp:399] pool1/norm1 -> pool1/norm1
I0403 15:09:59.572424  2750 net.cpp:141] Setting up pool1/norm1
I0403 15:09:59.572453  2750 net.cpp:148] Top shape: 24 64 56 56 (4816896)
I0403 15:09:59.572468  2750 net.cpp:156] Memory required for data: 207127584
I0403 15:09:59.572484  2750 layer_factory.hpp:77] Creating layer conv2/3x3_reduce
I0403 15:09:59.572510  2750 net.cpp:91] Creating Layer conv2/3x3_reduce
I0403 15:09:59.572526  2750 net.cpp:425] conv2/3x3_reduce <- pool1/norm1
I0403 15:09:59.572547  2750 net.cpp:399] conv2/3x3_reduce -> conv2/3x3_reduce
I0403 15:09:59.573941  2750 net.cpp:141] Setting up conv2/3x3_reduce
I0403 15:09:59.573971  2750 net.cpp:148] Top shape: 24 64 56 56 (4816896)
I0403 15:09:59.573987  2750 net.cpp:156] Memory required for data: 226395168
I0403 15:09:59.574007  2750 layer_factory.hpp:77] Creating layer conv2/relu_3x3_reduce
I0403 15:09:59.574028  2750 net.cpp:91] Creating Layer conv2/relu_3x3_reduce
I0403 15:09:59.574044  2750 net.cpp:425] conv2/relu_3x3_reduce <- conv2/3x3_reduce
I0403 15:09:59.574061  2750 net.cpp:386] conv2/relu_3x3_reduce -> conv2/3x3_reduce (in-place)
I0403 15:09:59.574327  2750 net.cpp:141] Setting up conv2/relu_3x3_reduce
I0403 15:09:59.574353  2750 net.cpp:148] Top shape: 24 64 56 56 (4816896)
I0403 15:09:59.574368  2750 net.cpp:156] Memory required for data: 245662752
I0403 15:09:59.574383  2750 layer_factory.hpp:77] Creating layer conv2/3x3
I0403 15:09:59.574409  2750 net.cpp:91] Creating Layer conv2/3x3
I0403 15:09:59.574427  2750 net.cpp:425] conv2/3x3 <- conv2/3x3_reduce
I0403 15:09:59.574446  2750 net.cpp:399] conv2/3x3 -> conv2/3x3
I0403 15:09:59.576722  2750 net.cpp:141] Setting up conv2/3x3
I0403 15:09:59.576753  2750 net.cpp:148] Top shape: 24 192 56 56 (14450688)
I0403 15:09:59.576771  2750 net.cpp:156] Memory required for data: 303465504
I0403 15:09:59.576792  2750 layer_factory.hpp:77] Creating layer conv2/relu_3x3
I0403 15:09:59.576813  2750 net.cpp:91] Creating Layer conv2/relu_3x3
I0403 15:09:59.576829  2750 net.cpp:425] conv2/relu_3x3 <- conv2/3x3
I0403 15:09:59.576848  2750 net.cpp:386] conv2/relu_3x3 -> conv2/3x3 (in-place)
I0403 15:09:59.577015  2750 net.cpp:141] Setting up conv2/relu_3x3
I0403 15:09:59.577039  2750 net.cpp:148] Top shape: 24 192 56 56 (14450688)
I0403 15:09:59.577083  2750 net.cpp:156] Memory required for data: 361268256
I0403 15:09:59.577100  2750 layer_factory.hpp:77] Creating layer conv2/norm2
I0403 15:09:59.577117  2750 net.cpp:91] Creating Layer conv2/norm2
I0403 15:09:59.577133  2750 net.cpp:425] conv2/norm2 <- conv2/3x3
I0403 15:09:59.577152  2750 net.cpp:399] conv2/norm2 -> conv2/norm2
I0403 15:09:59.577455  2750 net.cpp:141] Setting up conv2/norm2
I0403 15:09:59.577482  2750 net.cpp:148] Top shape: 24 192 56 56 (14450688)
I0403 15:09:59.577497  2750 net.cpp:156] Memory required for data: 419071008
I0403 15:09:59.577512  2750 layer_factory.hpp:77] Creating layer pool2/3x3_s2
I0403 15:09:59.577529  2750 net.cpp:91] Creating Layer pool2/3x3_s2
I0403 15:09:59.577544  2750 net.cpp:425] pool2/3x3_s2 <- conv2/norm2
I0403 15:09:59.577565  2750 net.cpp:399] pool2/3x3_s2 -> pool2/3x3_s2
I0403 15:09:59.577618  2750 net.cpp:141] Setting up pool2/3x3_s2
I0403 15:09:59.577641  2750 net.cpp:148] Top shape: 24 192 28 28 (3612672)
I0403 15:09:59.577656  2750 net.cpp:156] Memory required for data: 433521696
I0403 15:09:59.577669  2750 layer_factory.hpp:77] Creating layer pool2/3x3_s2_pool2/3x3_s2_0_split
I0403 15:09:59.577692  2750 net.cpp:91] Creating Layer pool2/3x3_s2_pool2/3x3_s2_0_split
I0403 15:09:59.577708  2750 net.cpp:425] pool2/3x3_s2_pool2/3x3_s2_0_split <- pool2/3x3_s2
I0403 15:09:59.577728  2750 net.cpp:399] pool2/3x3_s2_pool2/3x3_s2_0_split -> pool2/3x3_s2_pool2/3x3_s2_0_split_0
I0403 15:09:59.577747  2750 net.cpp:399] pool2/3x3_s2_pool2/3x3_s2_0_split -> pool2/3x3_s2_pool2/3x3_s2_0_split_1
I0403 15:09:59.577767  2750 net.cpp:399] pool2/3x3_s2_pool2/3x3_s2_0_split -> pool2/3x3_s2_pool2/3x3_s2_0_split_2
I0403 15:09:59.577787  2750 net.cpp:399] pool2/3x3_s2_pool2/3x3_s2_0_split -> pool2/3x3_s2_pool2/3x3_s2_0_split_3
I0403 15:09:59.577855  2750 net.cpp:141] Setting up pool2/3x3_s2_pool2/3x3_s2_0_split
I0403 15:09:59.577879  2750 net.cpp:148] Top shape: 24 192 28 28 (3612672)
I0403 15:09:59.577896  2750 net.cpp:148] Top shape: 24 192 28 28 (3612672)
I0403 15:09:59.577913  2750 net.cpp:148] Top shape: 24 192 28 28 (3612672)
I0403 15:09:59.577927  2750 net.cpp:148] Top shape: 24 192 28 28 (3612672)
I0403 15:09:59.577941  2750 net.cpp:156] Memory required for data: 491324448
I0403 15:09:59.577955  2750 layer_factory.hpp:77] Creating layer inception_3a/1x1
I0403 15:09:59.577978  2750 net.cpp:91] Creating Layer inception_3a/1x1
I0403 15:09:59.577994  2750 net.cpp:425] inception_3a/1x1 <- pool2/3x3_s2_pool2/3x3_s2_0_split_0
I0403 15:09:59.578013  2750 net.cpp:399] inception_3a/1x1 -> inception_3a/1x1
I0403 15:09:59.579515  2750 net.cpp:141] Setting up inception_3a/1x1
I0403 15:09:59.579545  2750 net.cpp:148] Top shape: 24 64 28 28 (1204224)
I0403 15:09:59.579562  2750 net.cpp:156] Memory required for data: 496141344
I0403 15:09:59.579581  2750 layer_factory.hpp:77] Creating layer inception_3a/relu_1x1
I0403 15:09:59.579602  2750 net.cpp:91] Creating Layer inception_3a/relu_1x1
I0403 15:09:59.579617  2750 net.cpp:425] inception_3a/relu_1x1 <- inception_3a/1x1
I0403 15:09:59.579634  2750 net.cpp:386] inception_3a/relu_1x1 -> inception_3a/1x1 (in-place)
I0403 15:09:59.579803  2750 net.cpp:141] Setting up inception_3a/relu_1x1
I0403 15:09:59.579828  2750 net.cpp:148] Top shape: 24 64 28 28 (1204224)
I0403 15:09:59.579843  2750 net.cpp:156] Memory required for data: 500958240
I0403 15:09:59.579856  2750 layer_factory.hpp:77] Creating layer inception_3a/3x3_reduce
I0403 15:09:59.579880  2750 net.cpp:91] Creating Layer inception_3a/3x3_reduce
I0403 15:09:59.579898  2750 net.cpp:425] inception_3a/3x3_reduce <- pool2/3x3_s2_pool2/3x3_s2_0_split_1
I0403 15:09:59.579917  2750 net.cpp:399] inception_3a/3x3_reduce -> inception_3a/3x3_reduce
I0403 15:09:59.581580  2750 net.cpp:141] Setting up inception_3a/3x3_reduce
I0403 15:09:59.581611  2750 net.cpp:148] Top shape: 24 96 28 28 (1806336)
I0403 15:09:59.581627  2750 net.cpp:156] Memory required for data: 508183584
I0403 15:09:59.581648  2750 layer_factory.hpp:77] Creating layer inception_3a/relu_3x3_reduce
I0403 15:09:59.581684  2750 net.cpp:91] Creating Layer inception_3a/relu_3x3_reduce
I0403 15:09:59.581702  2750 net.cpp:425] inception_3a/relu_3x3_reduce <- inception_3a/3x3_reduce
I0403 15:09:59.581722  2750 net.cpp:386] inception_3a/relu_3x3_reduce -> inception_3a/3x3_reduce (in-place)
I0403 15:09:59.581897  2750 net.cpp:141] Setting up inception_3a/relu_3x3_reduce
I0403 15:09:59.581923  2750 net.cpp:148] Top shape: 24 96 28 28 (1806336)
I0403 15:09:59.581936  2750 net.cpp:156] Memory required for data: 515408928
I0403 15:09:59.581950  2750 layer_factory.hpp:77] Creating layer inception_3a/3x3
I0403 15:09:59.581972  2750 net.cpp:91] Creating Layer inception_3a/3x3
I0403 15:09:59.581990  2750 net.cpp:425] inception_3a/3x3 <- inception_3a/3x3_reduce
I0403 15:09:59.582011  2750 net.cpp:399] inception_3a/3x3 -> inception_3a/3x3
I0403 15:09:59.583641  2750 net.cpp:141] Setting up inception_3a/3x3
I0403 15:09:59.583670  2750 net.cpp:148] Top shape: 24 128 28 28 (2408448)
I0403 15:09:59.583689  2750 net.cpp:156] Memory required for data: 525042720
I0403 15:09:59.583709  2750 layer_factory.hpp:77] Creating layer inception_3a/relu_3x3
I0403 15:09:59.583727  2750 net.cpp:91] Creating Layer inception_3a/relu_3x3
I0403 15:09:59.583745  2750 net.cpp:425] inception_3a/relu_3x3 <- inception_3a/3x3
I0403 15:09:59.583762  2750 net.cpp:386] inception_3a/relu_3x3 -> inception_3a/3x3 (in-place)
I0403 15:09:59.584038  2750 net.cpp:141] Setting up inception_3a/relu_3x3
I0403 15:09:59.584065  2750 net.cpp:148] Top shape: 24 128 28 28 (2408448)
I0403 15:09:59.584084  2750 net.cpp:156] Memory required for data: 534676512
I0403 15:09:59.584100  2750 layer_factory.hpp:77] Creating layer inception_3a/5x5_reduce
I0403 15:09:59.584120  2750 net.cpp:91] Creating Layer inception_3a/5x5_reduce
I0403 15:09:59.584136  2750 net.cpp:425] inception_3a/5x5_reduce <- pool2/3x3_s2_pool2/3x3_s2_0_split_2
I0403 15:09:59.584157  2750 net.cpp:399] inception_3a/5x5_reduce -> inception_3a/5x5_reduce
I0403 15:09:59.585109  2750 net.cpp:141] Setting up inception_3a/5x5_reduce
I0403 15:09:59.585140  2750 net.cpp:148] Top shape: 24 16 28 28 (301056)
I0403 15:09:59.585157  2750 net.cpp:156] Memory required for data: 535880736
I0403 15:09:59.585175  2750 layer_factory.hpp:77] Creating layer inception_3a/relu_5x5_reduce
I0403 15:09:59.585201  2750 net.cpp:91] Creating Layer inception_3a/relu_5x5_reduce
I0403 15:09:59.585217  2750 net.cpp:425] inception_3a/relu_5x5_reduce <- inception_3a/5x5_reduce
I0403 15:09:59.585234  2750 net.cpp:386] inception_3a/relu_5x5_reduce -> inception_3a/5x5_reduce (in-place)
I0403 15:09:59.585533  2750 net.cpp:141] Setting up inception_3a/relu_5x5_reduce
I0403 15:09:59.585558  2750 net.cpp:148] Top shape: 24 16 28 28 (301056)
I0403 15:09:59.585573  2750 net.cpp:156] Memory required for data: 537084960
I0403 15:09:59.585588  2750 layer_factory.hpp:77] Creating layer inception_3a/5x5
I0403 15:09:59.585610  2750 net.cpp:91] Creating Layer inception_3a/5x5
I0403 15:09:59.585628  2750 net.cpp:425] inception_3a/5x5 <- inception_3a/5x5_reduce
I0403 15:09:59.585649  2750 net.cpp:399] inception_3a/5x5 -> inception_3a/5x5
I0403 15:09:59.586654  2750 net.cpp:141] Setting up inception_3a/5x5
I0403 15:09:59.586681  2750 net.cpp:148] Top shape: 24 32 28 28 (602112)
I0403 15:09:59.586697  2750 net.cpp:156] Memory required for data: 539493408
I0403 15:09:59.586715  2750 layer_factory.hpp:77] Creating layer inception_3a/relu_5x5
I0403 15:09:59.586736  2750 net.cpp:91] Creating Layer inception_3a/relu_5x5
I0403 15:09:59.586753  2750 net.cpp:425] inception_3a/relu_5x5 <- inception_3a/5x5
I0403 15:09:59.586771  2750 net.cpp:386] inception_3a/relu_5x5 -> inception_3a/5x5 (in-place)
I0403 15:09:59.586941  2750 net.cpp:141] Setting up inception_3a/relu_5x5
I0403 15:09:59.586969  2750 net.cpp:148] Top shape: 24 32 28 28 (602112)
I0403 15:09:59.586985  2750 net.cpp:156] Memory required for data: 541901856
I0403 15:09:59.587000  2750 layer_factory.hpp:77] Creating layer inception_3a/pool
I0403 15:09:59.587018  2750 net.cpp:91] Creating Layer inception_3a/pool
I0403 15:09:59.587047  2750 net.cpp:425] inception_3a/pool <- pool2/3x3_s2_pool2/3x3_s2_0_split_3
I0403 15:09:59.587069  2750 net.cpp:399] inception_3a/pool -> inception_3a/pool
I0403 15:09:59.587123  2750 net.cpp:141] Setting up inception_3a/pool
I0403 15:09:59.587146  2750 net.cpp:148] Top shape: 24 192 28 28 (3612672)
I0403 15:09:59.587162  2750 net.cpp:156] Memory required for data: 556352544
I0403 15:09:59.587175  2750 layer_factory.hpp:77] Creating layer inception_3a/pool_proj
I0403 15:09:59.587203  2750 net.cpp:91] Creating Layer inception_3a/pool_proj
I0403 15:09:59.587221  2750 net.cpp:425] inception_3a/pool_proj <- inception_3a/pool
I0403 15:09:59.587242  2750 net.cpp:399] inception_3a/pool_proj -> inception_3a/pool_proj
I0403 15:09:59.588198  2750 net.cpp:141] Setting up inception_3a/pool_proj
I0403 15:09:59.588227  2750 net.cpp:148] Top shape: 24 32 28 28 (602112)
I0403 15:09:59.588243  2750 net.cpp:156] Memory required for data: 558760992
I0403 15:09:59.588266  2750 layer_factory.hpp:77] Creating layer inception_3a/relu_pool_proj
I0403 15:09:59.588287  2750 net.cpp:91] Creating Layer inception_3a/relu_pool_proj
I0403 15:09:59.588304  2750 net.cpp:425] inception_3a/relu_pool_proj <- inception_3a/pool_proj
I0403 15:09:59.588320  2750 net.cpp:386] inception_3a/relu_pool_proj -> inception_3a/pool_proj (in-place)
I0403 15:09:59.588592  2750 net.cpp:141] Setting up inception_3a/relu_pool_proj
I0403 15:09:59.588618  2750 net.cpp:148] Top shape: 24 32 28 28 (602112)
I0403 15:09:59.588634  2750 net.cpp:156] Memory required for data: 561169440
I0403 15:09:59.588649  2750 layer_factory.hpp:77] Creating layer inception_3a/output
I0403 15:09:59.588667  2750 net.cpp:91] Creating Layer inception_3a/output
I0403 15:09:59.588682  2750 net.cpp:425] inception_3a/output <- inception_3a/1x1
I0403 15:09:59.588699  2750 net.cpp:425] inception_3a/output <- inception_3a/3x3
I0403 15:09:59.588714  2750 net.cpp:425] inception_3a/output <- inception_3a/5x5
I0403 15:09:59.588729  2750 net.cpp:425] inception_3a/output <- inception_3a/pool_proj
I0403 15:09:59.588745  2750 net.cpp:399] inception_3a/output -> inception_3a/output
I0403 15:09:59.588791  2750 net.cpp:141] Setting up inception_3a/output
I0403 15:09:59.588814  2750 net.cpp:148] Top shape: 24 256 28 28 (4816896)
I0403 15:09:59.588829  2750 net.cpp:156] Memory required for data: 580437024
I0403 15:09:59.588843  2750 layer_factory.hpp:77] Creating layer inception_3a/output_inception_3a/output_0_split
I0403 15:09:59.588860  2750 net.cpp:91] Creating Layer inception_3a/output_inception_3a/output_0_split
I0403 15:09:59.588874  2750 net.cpp:425] inception_3a/output_inception_3a/output_0_split <- inception_3a/output
I0403 15:09:59.588894  2750 net.cpp:399] inception_3a/output_inception_3a/output_0_split -> inception_3a/output_inception_3a/output_0_split_0
I0403 15:09:59.588915  2750 net.cpp:399] inception_3a/output_inception_3a/output_0_split -> inception_3a/output_inception_3a/output_0_split_1
I0403 15:09:59.588939  2750 net.cpp:399] inception_3a/output_inception_3a/output_0_split -> inception_3a/output_inception_3a/output_0_split_2
I0403 15:09:59.588961  2750 net.cpp:399] inception_3a/output_inception_3a/output_0_split -> inception_3a/output_inception_3a/output_0_split_3
I0403 15:09:59.589035  2750 net.cpp:141] Setting up inception_3a/output_inception_3a/output_0_split
I0403 15:09:59.589057  2750 net.cpp:148] Top shape: 24 256 28 28 (4816896)
I0403 15:09:59.589073  2750 net.cpp:148] Top shape: 24 256 28 28 (4816896)
I0403 15:09:59.589088  2750 net.cpp:148] Top shape: 24 256 28 28 (4816896)
I0403 15:09:59.589104  2750 net.cpp:148] Top shape: 24 256 28 28 (4816896)
I0403 15:09:59.589118  2750 net.cpp:156] Memory required for data: 657507360
I0403 15:09:59.589133  2750 layer_factory.hpp:77] Creating layer inception_3b/1x1
I0403 15:09:59.589154  2750 net.cpp:91] Creating Layer inception_3b/1x1
I0403 15:09:59.589171  2750 net.cpp:425] inception_3b/1x1 <- inception_3a/output_inception_3a/output_0_split_0
I0403 15:09:59.589198  2750 net.cpp:399] inception_3b/1x1 -> inception_3b/1x1
I0403 15:09:59.590317  2750 net.cpp:141] Setting up inception_3b/1x1
I0403 15:09:59.590356  2750 net.cpp:148] Top shape: 24 128 28 28 (2408448)
I0403 15:09:59.590371  2750 net.cpp:156] Memory required for data: 667141152
I0403 15:09:59.590389  2750 layer_factory.hpp:77] Creating layer inception_3b/relu_1x1
I0403 15:09:59.590410  2750 net.cpp:91] Creating Layer inception_3b/relu_1x1
I0403 15:09:59.590427  2750 net.cpp:425] inception_3b/relu_1x1 <- inception_3b/1x1
I0403 15:09:59.590445  2750 net.cpp:386] inception_3b/relu_1x1 -> inception_3b/1x1 (in-place)
I0403 15:09:59.590616  2750 net.cpp:141] Setting up inception_3b/relu_1x1
I0403 15:09:59.590642  2750 net.cpp:148] Top shape: 24 128 28 28 (2408448)
I0403 15:09:59.590657  2750 net.cpp:156] Memory required for data: 676774944
I0403 15:09:59.590672  2750 layer_factory.hpp:77] Creating layer inception_3b/3x3_reduce
I0403 15:09:59.590692  2750 net.cpp:91] Creating Layer inception_3b/3x3_reduce
I0403 15:09:59.590708  2750 net.cpp:425] inception_3b/3x3_reduce <- inception_3a/output_inception_3a/output_0_split_1
I0403 15:09:59.590729  2750 net.cpp:399] inception_3b/3x3_reduce -> inception_3b/3x3_reduce
I0403 15:09:59.591846  2750 net.cpp:141] Setting up inception_3b/3x3_reduce
I0403 15:09:59.591874  2750 net.cpp:148] Top shape: 24 128 28 28 (2408448)
I0403 15:09:59.591889  2750 net.cpp:156] Memory required for data: 686408736
I0403 15:09:59.591907  2750 layer_factory.hpp:77] Creating layer inception_3b/relu_3x3_reduce
I0403 15:09:59.591928  2750 net.cpp:91] Creating Layer inception_3b/relu_3x3_reduce
I0403 15:09:59.591943  2750 net.cpp:425] inception_3b/relu_3x3_reduce <- inception_3b/3x3_reduce
I0403 15:09:59.591961  2750 net.cpp:386] inception_3b/relu_3x3_reduce -> inception_3b/3x3_reduce (in-place)
I0403 15:09:59.592133  2750 net.cpp:141] Setting up inception_3b/relu_3x3_reduce
I0403 15:09:59.592156  2750 net.cpp:148] Top shape: 24 128 28 28 (2408448)
I0403 15:09:59.592190  2750 net.cpp:156] Memory required for data: 696042528
I0403 15:09:59.592206  2750 layer_factory.hpp:77] Creating layer inception_3b/3x3
I0403 15:09:59.592232  2750 net.cpp:91] Creating Layer inception_3b/3x3
I0403 15:09:59.592252  2750 net.cpp:425] inception_3b/3x3 <- inception_3b/3x3_reduce
I0403 15:09:59.592273  2750 net.cpp:399] inception_3b/3x3 -> inception_3b/3x3
I0403 15:09:59.595234  2750 net.cpp:141] Setting up inception_3b/3x3
I0403 15:09:59.595263  2750 net.cpp:148] Top shape: 24 192 28 28 (3612672)
I0403 15:09:59.595284  2750 net.cpp:156] Memory required for data: 710493216
I0403 15:09:59.595304  2750 layer_factory.hpp:77] Creating layer inception_3b/relu_3x3
I0403 15:09:59.595324  2750 net.cpp:91] Creating Layer inception_3b/relu_3x3
I0403 15:09:59.595340  2750 net.cpp:425] inception_3b/relu_3x3 <- inception_3b/3x3
I0403 15:09:59.595357  2750 net.cpp:386] inception_3b/relu_3x3 -> inception_3b/3x3 (in-place)
I0403 15:09:59.595628  2750 net.cpp:141] Setting up inception_3b/relu_3x3
I0403 15:09:59.595654  2750 net.cpp:148] Top shape: 24 192 28 28 (3612672)
I0403 15:09:59.595672  2750 net.cpp:156] Memory required for data: 724943904
I0403 15:09:59.595687  2750 layer_factory.hpp:77] Creating layer inception_3b/5x5_reduce
I0403 15:09:59.595706  2750 net.cpp:91] Creating Layer inception_3b/5x5_reduce
I0403 15:09:59.595722  2750 net.cpp:425] inception_3b/5x5_reduce <- inception_3a/output_inception_3a/output_0_split_2
I0403 15:09:59.595743  2750 net.cpp:399] inception_3b/5x5_reduce -> inception_3b/5x5_reduce
I0403 15:09:59.596722  2750 net.cpp:141] Setting up inception_3b/5x5_reduce
I0403 15:09:59.596750  2750 net.cpp:148] Top shape: 24 32 28 28 (602112)
I0403 15:09:59.596765  2750 net.cpp:156] Memory required for data: 727352352
I0403 15:09:59.596784  2750 layer_factory.hpp:77] Creating layer inception_3b/relu_5x5_reduce
I0403 15:09:59.596804  2750 net.cpp:91] Creating Layer inception_3b/relu_5x5_reduce
I0403 15:09:59.596822  2750 net.cpp:425] inception_3b/relu_5x5_reduce <- inception_3b/5x5_reduce
I0403 15:09:59.596838  2750 net.cpp:386] inception_3b/relu_5x5_reduce -> inception_3b/5x5_reduce (in-place)
I0403 15:09:59.597025  2750 net.cpp:141] Setting up inception_3b/relu_5x5_reduce
I0403 15:09:59.597051  2750 net.cpp:148] Top shape: 24 32 28 28 (602112)
I0403 15:09:59.597066  2750 net.cpp:156] Memory required for data: 729760800
I0403 15:09:59.597082  2750 layer_factory.hpp:77] Creating layer inception_3b/5x5
I0403 15:09:59.597105  2750 net.cpp:91] Creating Layer inception_3b/5x5
I0403 15:09:59.597122  2750 net.cpp:425] inception_3b/5x5 <- inception_3b/5x5_reduce
I0403 15:09:59.597141  2750 net.cpp:399] inception_3b/5x5 -> inception_3b/5x5
I0403 15:09:59.599153  2750 net.cpp:141] Setting up inception_3b/5x5
I0403 15:09:59.599187  2750 net.cpp:148] Top shape: 24 96 28 28 (1806336)
I0403 15:09:59.599205  2750 net.cpp:156] Memory required for data: 736986144
I0403 15:09:59.599225  2750 layer_factory.hpp:77] Creating layer inception_3b/relu_5x5
I0403 15:09:59.599244  2750 net.cpp:91] Creating Layer inception_3b/relu_5x5
I0403 15:09:59.599261  2750 net.cpp:425] inception_3b/relu_5x5 <- inception_3b/5x5
I0403 15:09:59.599278  2750 net.cpp:386] inception_3b/relu_5x5 -> inception_3b/5x5 (in-place)
I0403 15:09:59.599472  2750 net.cpp:141] Setting up inception_3b/relu_5x5
I0403 15:09:59.599498  2750 net.cpp:148] Top shape: 24 96 28 28 (1806336)
I0403 15:09:59.599514  2750 net.cpp:156] Memory required for data: 744211488
I0403 15:09:59.599529  2750 layer_factory.hpp:77] Creating layer inception_3b/pool
I0403 15:09:59.599546  2750 net.cpp:91] Creating Layer inception_3b/pool
I0403 15:09:59.599562  2750 net.cpp:425] inception_3b/pool <- inception_3a/output_inception_3a/output_0_split_3
I0403 15:09:59.599581  2750 net.cpp:399] inception_3b/pool -> inception_3b/pool
I0403 15:09:59.599638  2750 net.cpp:141] Setting up inception_3b/pool
I0403 15:09:59.599661  2750 net.cpp:148] Top shape: 24 256 28 28 (4816896)
I0403 15:09:59.599676  2750 net.cpp:156] Memory required for data: 763479072
I0403 15:09:59.599690  2750 layer_factory.hpp:77] Creating layer inception_3b/pool_proj
I0403 15:09:59.599714  2750 net.cpp:91] Creating Layer inception_3b/pool_proj
I0403 15:09:59.599731  2750 net.cpp:425] inception_3b/pool_proj <- inception_3b/pool
I0403 15:09:59.599752  2750 net.cpp:399] inception_3b/pool_proj -> inception_3b/pool_proj
I0403 15:09:59.600834  2750 net.cpp:141] Setting up inception_3b/pool_proj
I0403 15:09:59.600864  2750 net.cpp:148] Top shape: 24 64 28 28 (1204224)
I0403 15:09:59.600881  2750 net.cpp:156] Memory required for data: 768295968
I0403 15:09:59.600901  2750 layer_factory.hpp:77] Creating layer inception_3b/relu_pool_proj
I0403 15:09:59.600919  2750 net.cpp:91] Creating Layer inception_3b/relu_pool_proj
I0403 15:09:59.600936  2750 net.cpp:425] inception_3b/relu_pool_proj <- inception_3b/pool_proj
I0403 15:09:59.600956  2750 net.cpp:386] inception_3b/relu_pool_proj -> inception_3b/pool_proj (in-place)
I0403 15:09:59.601372  2750 net.cpp:141] Setting up inception_3b/relu_pool_proj
I0403 15:09:59.601403  2750 net.cpp:148] Top shape: 24 64 28 28 (1204224)
I0403 15:09:59.601421  2750 net.cpp:156] Memory required for data: 773112864
I0403 15:09:59.601440  2750 layer_factory.hpp:77] Creating layer inception_3b/output
I0403 15:09:59.601459  2750 net.cpp:91] Creating Layer inception_3b/output
I0403 15:09:59.601475  2750 net.cpp:425] inception_3b/output <- inception_3b/1x1
I0403 15:09:59.601495  2750 net.cpp:425] inception_3b/output <- inception_3b/3x3
I0403 15:09:59.601511  2750 net.cpp:425] inception_3b/output <- inception_3b/5x5
I0403 15:09:59.601527  2750 net.cpp:425] inception_3b/output <- inception_3b/pool_proj
I0403 15:09:59.601544  2750 net.cpp:399] inception_3b/output -> inception_3b/output
I0403 15:09:59.601593  2750 net.cpp:141] Setting up inception_3b/output
I0403 15:09:59.601615  2750 net.cpp:148] Top shape: 24 480 28 28 (9031680)
I0403 15:09:59.601630  2750 net.cpp:156] Memory required for data: 809239584
I0403 15:09:59.601645  2750 layer_factory.hpp:77] Creating layer pool3/3x3_s2
I0403 15:09:59.601665  2750 net.cpp:91] Creating Layer pool3/3x3_s2
I0403 15:09:59.601682  2750 net.cpp:425] pool3/3x3_s2 <- inception_3b/output
I0403 15:09:59.601716  2750 net.cpp:399] pool3/3x3_s2 -> pool3/3x3_s2
I0403 15:09:59.601775  2750 net.cpp:141] Setting up pool3/3x3_s2
I0403 15:09:59.601799  2750 net.cpp:148] Top shape: 24 480 14 14 (2257920)
I0403 15:09:59.601814  2750 net.cpp:156] Memory required for data: 818271264
I0403 15:09:59.601829  2750 layer_factory.hpp:77] Creating layer pool3/3x3_s2_pool3/3x3_s2_0_split
I0403 15:09:59.601845  2750 net.cpp:91] Creating Layer pool3/3x3_s2_pool3/3x3_s2_0_split
I0403 15:09:59.601861  2750 net.cpp:425] pool3/3x3_s2_pool3/3x3_s2_0_split <- pool3/3x3_s2
I0403 15:09:59.601879  2750 net.cpp:399] pool3/3x3_s2_pool3/3x3_s2_0_split -> pool3/3x3_s2_pool3/3x3_s2_0_split_0
I0403 15:09:59.601900  2750 net.cpp:399] pool3/3x3_s2_pool3/3x3_s2_0_split -> pool3/3x3_s2_pool3/3x3_s2_0_split_1
I0403 15:09:59.601920  2750 net.cpp:399] pool3/3x3_s2_pool3/3x3_s2_0_split -> pool3/3x3_s2_pool3/3x3_s2_0_split_2
I0403 15:09:59.601940  2750 net.cpp:399] pool3/3x3_s2_pool3/3x3_s2_0_split -> pool3/3x3_s2_pool3/3x3_s2_0_split_3
I0403 15:09:59.602020  2750 net.cpp:141] Setting up pool3/3x3_s2_pool3/3x3_s2_0_split
I0403 15:09:59.602046  2750 net.cpp:148] Top shape: 24 480 14 14 (2257920)
I0403 15:09:59.602063  2750 net.cpp:148] Top shape: 24 480 14 14 (2257920)
I0403 15:09:59.602079  2750 net.cpp:148] Top shape: 24 480 14 14 (2257920)
I0403 15:09:59.602095  2750 net.cpp:148] Top shape: 24 480 14 14 (2257920)
I0403 15:09:59.602109  2750 net.cpp:156] Memory required for data: 854397984
I0403 15:09:59.602124  2750 layer_factory.hpp:77] Creating layer inception_4a/1x1
I0403 15:09:59.602147  2750 net.cpp:91] Creating Layer inception_4a/1x1
I0403 15:09:59.602164  2750 net.cpp:425] inception_4a/1x1 <- pool3/3x3_s2_pool3/3x3_s2_0_split_0
I0403 15:09:59.602188  2750 net.cpp:399] inception_4a/1x1 -> inception_4a/1x1
I0403 15:09:59.603792  2750 net.cpp:141] Setting up inception_4a/1x1
I0403 15:09:59.603823  2750 net.cpp:148] Top shape: 24 192 14 14 (903168)
I0403 15:09:59.603840  2750 net.cpp:156] Memory required for data: 858010656
I0403 15:09:59.603859  2750 layer_factory.hpp:77] Creating layer inception_4a/relu_1x1
I0403 15:09:59.603878  2750 net.cpp:91] Creating Layer inception_4a/relu_1x1
I0403 15:09:59.603895  2750 net.cpp:425] inception_4a/relu_1x1 <- inception_4a/1x1
I0403 15:09:59.603915  2750 net.cpp:386] inception_4a/relu_1x1 -> inception_4a/1x1 (in-place)
I0403 15:09:59.604094  2750 net.cpp:141] Setting up inception_4a/relu_1x1
I0403 15:09:59.604120  2750 net.cpp:148] Top shape: 24 192 14 14 (903168)
I0403 15:09:59.604135  2750 net.cpp:156] Memory required for data: 861623328
I0403 15:09:59.604149  2750 layer_factory.hpp:77] Creating layer inception_4a/3x3_reduce
I0403 15:09:59.604172  2750 net.cpp:91] Creating Layer inception_4a/3x3_reduce
I0403 15:09:59.604194  2750 net.cpp:425] inception_4a/3x3_reduce <- pool3/3x3_s2_pool3/3x3_s2_0_split_1
I0403 15:09:59.604217  2750 net.cpp:399] inception_4a/3x3_reduce -> inception_4a/3x3_reduce
I0403 15:09:59.605520  2750 net.cpp:141] Setting up inception_4a/3x3_reduce
I0403 15:09:59.605548  2750 net.cpp:148] Top shape: 24 96 14 14 (451584)
I0403 15:09:59.605566  2750 net.cpp:156] Memory required for data: 863429664
I0403 15:09:59.605592  2750 layer_factory.hpp:77] Creating layer inception_4a/relu_3x3_reduce
I0403 15:09:59.605612  2750 net.cpp:91] Creating Layer inception_4a/relu_3x3_reduce
I0403 15:09:59.605629  2750 net.cpp:425] inception_4a/relu_3x3_reduce <- inception_4a/3x3_reduce
I0403 15:09:59.605649  2750 net.cpp:386] inception_4a/relu_3x3_reduce -> inception_4a/3x3_reduce (in-place)
I0403 15:09:59.605829  2750 net.cpp:141] Setting up inception_4a/relu_3x3_reduce
I0403 15:09:59.605854  2750 net.cpp:148] Top shape: 24 96 14 14 (451584)
I0403 15:09:59.605870  2750 net.cpp:156] Memory required for data: 865236000
I0403 15:09:59.605885  2750 layer_factory.hpp:77] Creating layer inception_4a/3x3
I0403 15:09:59.605906  2750 net.cpp:91] Creating Layer inception_4a/3x3
I0403 15:09:59.605924  2750 net.cpp:425] inception_4a/3x3 <- inception_4a/3x3_reduce
I0403 15:09:59.605945  2750 net.cpp:399] inception_4a/3x3 -> inception_4a/3x3
I0403 15:09:59.608695  2750 net.cpp:141] Setting up inception_4a/3x3
I0403 15:09:59.608727  2750 net.cpp:148] Top shape: 24 208 14 14 (978432)
I0403 15:09:59.608746  2750 net.cpp:156] Memory required for data: 869149728
I0403 15:09:59.608765  2750 layer_factory.hpp:77] Creating layer inception_4a/relu_3x3
I0403 15:09:59.608786  2750 net.cpp:91] Creating Layer inception_4a/relu_3x3
I0403 15:09:59.608805  2750 net.cpp:425] inception_4a/relu_3x3 <- inception_4a/3x3
I0403 15:09:59.608824  2750 net.cpp:386] inception_4a/relu_3x3 -> inception_4a/3x3 (in-place)
I0403 15:09:59.609112  2750 net.cpp:141] Setting up inception_4a/relu_3x3
I0403 15:09:59.609139  2750 net.cpp:148] Top shape: 24 208 14 14 (978432)
I0403 15:09:59.609155  2750 net.cpp:156] Memory required for data: 873063456
I0403 15:09:59.609171  2750 layer_factory.hpp:77] Creating layer inception_4a/5x5_reduce
I0403 15:09:59.609201  2750 net.cpp:91] Creating Layer inception_4a/5x5_reduce
I0403 15:09:59.609222  2750 net.cpp:425] inception_4a/5x5_reduce <- pool3/3x3_s2_pool3/3x3_s2_0_split_2
I0403 15:09:59.609246  2750 net.cpp:399] inception_4a/5x5_reduce -> inception_4a/5x5_reduce
I0403 15:09:59.610291  2750 net.cpp:141] Setting up inception_4a/5x5_reduce
I0403 15:09:59.610321  2750 net.cpp:148] Top shape: 24 16 14 14 (75264)
I0403 15:09:59.610338  2750 net.cpp:156] Memory required for data: 873364512
I0403 15:09:59.610357  2750 layer_factory.hpp:77] Creating layer inception_4a/relu_5x5_reduce
I0403 15:09:59.610378  2750 net.cpp:91] Creating Layer inception_4a/relu_5x5_reduce
I0403 15:09:59.610394  2750 net.cpp:425] inception_4a/relu_5x5_reduce <- inception_4a/5x5_reduce
I0403 15:09:59.610414  2750 net.cpp:386] inception_4a/relu_5x5_reduce -> inception_4a/5x5_reduce (in-place)
I0403 15:09:59.610676  2750 net.cpp:141] Setting up inception_4a/relu_5x5_reduce
I0403 15:09:59.610707  2750 net.cpp:148] Top shape: 24 16 14 14 (75264)
I0403 15:09:59.610723  2750 net.cpp:156] Memory required for data: 873665568
I0403 15:09:59.610755  2750 layer_factory.hpp:77] Creating layer inception_4a/5x5
I0403 15:09:59.610796  2750 net.cpp:91] Creating Layer inception_4a/5x5
I0403 15:09:59.610828  2750 net.cpp:425] inception_4a/5x5 <- inception_4a/5x5_reduce
I0403 15:09:59.610870  2750 net.cpp:399] inception_4a/5x5 -> inception_4a/5x5
I0403 15:09:59.612368  2750 net.cpp:141] Setting up inception_4a/5x5
I0403 15:09:59.612411  2750 net.cpp:148] Top shape: 24 48 14 14 (225792)
I0403 15:09:59.612431  2750 net.cpp:156] Memory required for data: 874568736
I0403 15:09:59.612468  2750 layer_factory.hpp:77] Creating layer inception_4a/relu_5x5
I0403 15:09:59.612504  2750 net.cpp:91] Creating Layer inception_4a/relu_5x5
I0403 15:09:59.612522  2750 net.cpp:425] inception_4a/relu_5x5 <- inception_4a/5x5
I0403 15:09:59.612546  2750 net.cpp:386] inception_4a/relu_5x5 -> inception_4a/5x5 (in-place)
I0403 15:09:59.612792  2750 net.cpp:141] Setting up inception_4a/relu_5x5
I0403 15:09:59.612823  2750 net.cpp:148] Top shape: 24 48 14 14 (225792)
I0403 15:09:59.612843  2750 net.cpp:156] Memory required for data: 875471904
I0403 15:09:59.612857  2750 layer_factory.hpp:77] Creating layer inception_4a/pool
I0403 15:09:59.612884  2750 net.cpp:91] Creating Layer inception_4a/pool
I0403 15:09:59.612905  2750 net.cpp:425] inception_4a/pool <- pool3/3x3_s2_pool3/3x3_s2_0_split_3
I0403 15:09:59.612926  2750 net.cpp:399] inception_4a/pool -> inception_4a/pool
I0403 15:09:59.612994  2750 net.cpp:141] Setting up inception_4a/pool
I0403 15:09:59.613020  2750 net.cpp:148] Top shape: 24 480 14 14 (2257920)
I0403 15:09:59.613036  2750 net.cpp:156] Memory required for data: 884503584
I0403 15:09:59.613051  2750 layer_factory.hpp:77] Creating layer inception_4a/pool_proj
I0403 15:09:59.613075  2750 net.cpp:91] Creating Layer inception_4a/pool_proj
I0403 15:09:59.613093  2750 net.cpp:425] inception_4a/pool_proj <- inception_4a/pool
I0403 15:09:59.613112  2750 net.cpp:399] inception_4a/pool_proj -> inception_4a/pool_proj
I0403 15:09:59.614349  2750 net.cpp:141] Setting up inception_4a/pool_proj
I0403 15:09:59.614382  2750 net.cpp:148] Top shape: 24 64 14 14 (301056)
I0403 15:09:59.614415  2750 net.cpp:156] Memory required for data: 885707808
I0403 15:09:59.614436  2750 layer_factory.hpp:77] Creating layer inception_4a/relu_pool_proj
I0403 15:09:59.614456  2750 net.cpp:91] Creating Layer inception_4a/relu_pool_proj
I0403 15:09:59.614475  2750 net.cpp:425] inception_4a/relu_pool_proj <- inception_4a/pool_proj
I0403 15:09:59.614498  2750 net.cpp:386] inception_4a/relu_pool_proj -> inception_4a/pool_proj (in-place)
I0403 15:09:59.614807  2750 net.cpp:141] Setting up inception_4a/relu_pool_proj
I0403 15:09:59.614836  2750 net.cpp:148] Top shape: 24 64 14 14 (301056)
I0403 15:09:59.614852  2750 net.cpp:156] Memory required for data: 886912032
I0403 15:09:59.614868  2750 layer_factory.hpp:77] Creating layer inception_4a/output
I0403 15:09:59.614887  2750 net.cpp:91] Creating Layer inception_4a/output
I0403 15:09:59.614904  2750 net.cpp:425] inception_4a/output <- inception_4a/1x1
I0403 15:09:59.614922  2750 net.cpp:425] inception_4a/output <- inception_4a/3x3
I0403 15:09:59.614938  2750 net.cpp:425] inception_4a/output <- inception_4a/5x5
I0403 15:09:59.614953  2750 net.cpp:425] inception_4a/output <- inception_4a/pool_proj
I0403 15:09:59.614972  2750 net.cpp:399] inception_4a/output -> inception_4a/output
I0403 15:09:59.615017  2750 net.cpp:141] Setting up inception_4a/output
I0403 15:09:59.615043  2750 net.cpp:148] Top shape: 24 512 14 14 (2408448)
I0403 15:09:59.615059  2750 net.cpp:156] Memory required for data: 896545824
I0403 15:09:59.615075  2750 layer_factory.hpp:77] Creating layer inception_4a/output_inception_4a/output_0_split
I0403 15:09:59.615093  2750 net.cpp:91] Creating Layer inception_4a/output_inception_4a/output_0_split
I0403 15:09:59.615108  2750 net.cpp:425] inception_4a/output_inception_4a/output_0_split <- inception_4a/output
I0403 15:09:59.615126  2750 net.cpp:399] inception_4a/output_inception_4a/output_0_split -> inception_4a/output_inception_4a/output_0_split_0
I0403 15:09:59.615150  2750 net.cpp:399] inception_4a/output_inception_4a/output_0_split -> inception_4a/output_inception_4a/output_0_split_1
I0403 15:09:59.615173  2750 net.cpp:399] inception_4a/output_inception_4a/output_0_split -> inception_4a/output_inception_4a/output_0_split_2
I0403 15:09:59.615202  2750 net.cpp:399] inception_4a/output_inception_4a/output_0_split -> inception_4a/output_inception_4a/output_0_split_3
I0403 15:09:59.615223  2750 net.cpp:399] inception_4a/output_inception_4a/output_0_split -> inception_4a/output_inception_4a/output_0_split_4
I0403 15:09:59.615332  2750 net.cpp:141] Setting up inception_4a/output_inception_4a/output_0_split
I0403 15:09:59.615356  2750 net.cpp:148] Top shape: 24 512 14 14 (2408448)
I0403 15:09:59.615373  2750 net.cpp:148] Top shape: 24 512 14 14 (2408448)
I0403 15:09:59.615391  2750 net.cpp:148] Top shape: 24 512 14 14 (2408448)
I0403 15:09:59.615406  2750 net.cpp:148] Top shape: 24 512 14 14 (2408448)
I0403 15:09:59.615422  2750 net.cpp:148] Top shape: 24 512 14 14 (2408448)
I0403 15:09:59.615437  2750 net.cpp:156] Memory required for data: 944714784
I0403 15:09:59.615453  2750 layer_factory.hpp:77] Creating layer loss1/ave_pool
I0403 15:09:59.615474  2750 net.cpp:91] Creating Layer loss1/ave_pool
I0403 15:09:59.615491  2750 net.cpp:425] loss1/ave_pool <- inception_4a/output_inception_4a/output_0_split_0
I0403 15:09:59.615510  2750 net.cpp:399] loss1/ave_pool -> loss1/ave_pool
I0403 15:09:59.615736  2750 net.cpp:141] Setting up loss1/ave_pool
I0403 15:09:59.615761  2750 net.cpp:148] Top shape: 24 512 4 4 (196608)
I0403 15:09:59.615777  2750 net.cpp:156] Memory required for data: 945501216
I0403 15:09:59.615792  2750 layer_factory.hpp:77] Creating layer loss1/conv
I0403 15:09:59.615814  2750 net.cpp:91] Creating Layer loss1/conv
I0403 15:09:59.615833  2750 net.cpp:425] loss1/conv <- loss1/ave_pool
I0403 15:09:59.615854  2750 net.cpp:399] loss1/conv -> loss1/conv
I0403 15:09:59.617360  2750 net.cpp:141] Setting up loss1/conv
I0403 15:09:59.617390  2750 net.cpp:148] Top shape: 24 128 4 4 (49152)
I0403 15:09:59.617422  2750 net.cpp:156] Memory required for data: 945697824
I0403 15:09:59.617444  2750 layer_factory.hpp:77] Creating layer loss1/relu_conv
I0403 15:09:59.617465  2750 net.cpp:91] Creating Layer loss1/relu_conv
I0403 15:09:59.617483  2750 net.cpp:425] loss1/relu_conv <- loss1/conv
I0403 15:09:59.617502  2750 net.cpp:386] loss1/relu_conv -> loss1/conv (in-place)
I0403 15:09:59.617797  2750 net.cpp:141] Setting up loss1/relu_conv
I0403 15:09:59.617825  2750 net.cpp:148] Top shape: 24 128 4 4 (49152)
I0403 15:09:59.617841  2750 net.cpp:156] Memory required for data: 945894432
I0403 15:09:59.617856  2750 layer_factory.hpp:77] Creating layer loss1/fc
I0403 15:09:59.617884  2750 net.cpp:91] Creating Layer loss1/fc
I0403 15:09:59.617902  2750 net.cpp:425] loss1/fc <- loss1/conv
I0403 15:09:59.617924  2750 net.cpp:399] loss1/fc -> loss1/fc
I0403 15:09:59.636277  2750 net.cpp:141] Setting up loss1/fc
I0403 15:09:59.636340  2750 net.cpp:148] Top shape: 24 1024 (24576)
I0403 15:09:59.636358  2750 net.cpp:156] Memory required for data: 945992736
I0403 15:09:59.636379  2750 layer_factory.hpp:77] Creating layer loss1/relu_fc
I0403 15:09:59.636399  2750 net.cpp:91] Creating Layer loss1/relu_fc
I0403 15:09:59.636415  2750 net.cpp:425] loss1/relu_fc <- loss1/fc
I0403 15:09:59.636436  2750 net.cpp:386] loss1/relu_fc -> loss1/fc (in-place)
I0403 15:09:59.636651  2750 net.cpp:141] Setting up loss1/relu_fc
I0403 15:09:59.636677  2750 net.cpp:148] Top shape: 24 1024 (24576)
I0403 15:09:59.636693  2750 net.cpp:156] Memory required for data: 946091040
I0403 15:09:59.636708  2750 layer_factory.hpp:77] Creating layer loss1/drop_fc
I0403 15:09:59.636739  2750 net.cpp:91] Creating Layer loss1/drop_fc
I0403 15:09:59.636756  2750 net.cpp:425] loss1/drop_fc <- loss1/fc
I0403 15:09:59.636775  2750 net.cpp:386] loss1/drop_fc -> loss1/fc (in-place)
I0403 15:09:59.636827  2750 net.cpp:141] Setting up loss1/drop_fc
I0403 15:09:59.636854  2750 net.cpp:148] Top shape: 24 1024 (24576)
I0403 15:09:59.636870  2750 net.cpp:156] Memory required for data: 946189344
I0403 15:09:59.636885  2750 layer_factory.hpp:77] Creating layer loss1/classifier_plantvillage
I0403 15:09:59.636904  2750 net.cpp:91] Creating Layer loss1/classifier_plantvillage
I0403 15:09:59.636920  2750 net.cpp:425] loss1/classifier_plantvillage <- loss1/fc
I0403 15:09:59.636941  2750 net.cpp:399] loss1/classifier_plantvillage -> loss1/classifier_plantvillage
I0403 15:09:59.637904  2750 net.cpp:141] Setting up loss1/classifier_plantvillage
I0403 15:09:59.637934  2750 net.cpp:148] Top shape: 24 38 (912)
I0403 15:09:59.637950  2750 net.cpp:156] Memory required for data: 946192992
I0403 15:09:59.637969  2750 layer_factory.hpp:77] Creating layer loss1/classifier_plantvillage_loss1/classifier_plantvillage_0_split
I0403 15:09:59.637987  2750 net.cpp:91] Creating Layer loss1/classifier_plantvillage_loss1/classifier_plantvillage_0_split
I0403 15:09:59.638006  2750 net.cpp:425] loss1/classifier_plantvillage_loss1/classifier_plantvillage_0_split <- loss1/classifier_plantvillage
I0403 15:09:59.638025  2750 net.cpp:399] loss1/classifier_plantvillage_loss1/classifier_plantvillage_0_split -> loss1/classifier_plantvillage_loss1/classifier_plantvillage_0_split_0
I0403 15:09:59.638046  2750 net.cpp:399] loss1/classifier_plantvillage_loss1/classifier_plantvillage_0_split -> loss1/classifier_plantvillage_loss1/classifier_plantvillage_0_split_1
I0403 15:09:59.638065  2750 net.cpp:399] loss1/classifier_plantvillage_loss1/classifier_plantvillage_0_split -> loss1/classifier_plantvillage_loss1/classifier_plantvillage_0_split_2
I0403 15:09:59.638134  2750 net.cpp:141] Setting up loss1/classifier_plantvillage_loss1/classifier_plantvillage_0_split
I0403 15:09:59.638159  2750 net.cpp:148] Top shape: 24 38 (912)
I0403 15:09:59.638175  2750 net.cpp:148] Top shape: 24 38 (912)
I0403 15:09:59.638198  2750 net.cpp:148] Top shape: 24 38 (912)
I0403 15:09:59.638213  2750 net.cpp:156] Memory required for data: 946203936
I0403 15:09:59.638228  2750 layer_factory.hpp:77] Creating layer inception_4b/1x1
I0403 15:09:59.638252  2750 net.cpp:91] Creating Layer inception_4b/1x1
I0403 15:09:59.638293  2750 net.cpp:425] inception_4b/1x1 <- inception_4a/output_inception_4a/output_0_split_1
I0403 15:09:59.638314  2750 net.cpp:399] inception_4b/1x1 -> inception_4b/1x1
I0403 15:09:59.640045  2750 net.cpp:141] Setting up inception_4b/1x1
I0403 15:09:59.640076  2750 net.cpp:148] Top shape: 24 160 14 14 (752640)
I0403 15:09:59.640094  2750 net.cpp:156] Memory required for data: 949214496
I0403 15:09:59.640113  2750 layer_factory.hpp:77] Creating layer inception_4b/relu_1x1
I0403 15:09:59.640135  2750 net.cpp:91] Creating Layer inception_4b/relu_1x1
I0403 15:09:59.640152  2750 net.cpp:425] inception_4b/relu_1x1 <- inception_4b/1x1
I0403 15:09:59.640171  2750 net.cpp:386] inception_4b/relu_1x1 -> inception_4b/1x1 (in-place)
I0403 15:09:59.640364  2750 net.cpp:141] Setting up inception_4b/relu_1x1
I0403 15:09:59.640393  2750 net.cpp:148] Top shape: 24 160 14 14 (752640)
I0403 15:09:59.640410  2750 net.cpp:156] Memory required for data: 952225056
I0403 15:09:59.640426  2750 layer_factory.hpp:77] Creating layer inception_4b/3x3_reduce
I0403 15:09:59.640450  2750 net.cpp:91] Creating Layer inception_4b/3x3_reduce
I0403 15:09:59.640466  2750 net.cpp:425] inception_4b/3x3_reduce <- inception_4a/output_inception_4a/output_0_split_2
I0403 15:09:59.640486  2750 net.cpp:399] inception_4b/3x3_reduce -> inception_4b/3x3_reduce
I0403 15:09:59.641911  2750 net.cpp:141] Setting up inception_4b/3x3_reduce
I0403 15:09:59.641942  2750 net.cpp:148] Top shape: 24 112 14 14 (526848)
I0403 15:09:59.641958  2750 net.cpp:156] Memory required for data: 954332448
I0403 15:09:59.641983  2750 layer_factory.hpp:77] Creating layer inception_4b/relu_3x3_reduce
I0403 15:09:59.642004  2750 net.cpp:91] Creating Layer inception_4b/relu_3x3_reduce
I0403 15:09:59.642021  2750 net.cpp:425] inception_4b/relu_3x3_reduce <- inception_4b/3x3_reduce
I0403 15:09:59.642038  2750 net.cpp:386] inception_4b/relu_3x3_reduce -> inception_4b/3x3_reduce (in-place)
I0403 15:09:59.642343  2750 net.cpp:141] Setting up inception_4b/relu_3x3_reduce
I0403 15:09:59.642370  2750 net.cpp:148] Top shape: 24 112 14 14 (526848)
I0403 15:09:59.642385  2750 net.cpp:156] Memory required for data: 956439840
I0403 15:09:59.642400  2750 layer_factory.hpp:77] Creating layer inception_4b/3x3
I0403 15:09:59.642426  2750 net.cpp:91] Creating Layer inception_4b/3x3
I0403 15:09:59.642443  2750 net.cpp:425] inception_4b/3x3 <- inception_4b/3x3_reduce
I0403 15:09:59.642462  2750 net.cpp:399] inception_4b/3x3 -> inception_4b/3x3
I0403 15:09:59.645488  2750 net.cpp:141] Setting up inception_4b/3x3
I0403 15:09:59.645519  2750 net.cpp:148] Top shape: 24 224 14 14 (1053696)
I0403 15:09:59.645535  2750 net.cpp:156] Memory required for data: 960654624
I0403 15:09:59.645555  2750 layer_factory.hpp:77] Creating layer inception_4b/relu_3x3
I0403 15:09:59.645573  2750 net.cpp:91] Creating Layer inception_4b/relu_3x3
I0403 15:09:59.645594  2750 net.cpp:425] inception_4b/relu_3x3 <- inception_4b/3x3
I0403 15:09:59.645612  2750 net.cpp:386] inception_4b/relu_3x3 -> inception_4b/3x3 (in-place)
I0403 15:09:59.645795  2750 net.cpp:141] Setting up inception_4b/relu_3x3
I0403 15:09:59.645822  2750 net.cpp:148] Top shape: 24 224 14 14 (1053696)
I0403 15:09:59.645836  2750 net.cpp:156] Memory required for data: 964869408
I0403 15:09:59.645853  2750 layer_factory.hpp:77] Creating layer inception_4b/5x5_reduce
I0403 15:09:59.645875  2750 net.cpp:91] Creating Layer inception_4b/5x5_reduce
I0403 15:09:59.645895  2750 net.cpp:425] inception_4b/5x5_reduce <- inception_4a/output_inception_4a/output_0_split_3
I0403 15:09:59.645917  2750 net.cpp:399] inception_4b/5x5_reduce -> inception_4b/5x5_reduce
I0403 15:09:59.647016  2750 net.cpp:141] Setting up inception_4b/5x5_reduce
I0403 15:09:59.647043  2750 net.cpp:148] Top shape: 24 24 14 14 (112896)
I0403 15:09:59.647058  2750 net.cpp:156] Memory required for data: 965320992
I0403 15:09:59.647078  2750 layer_factory.hpp:77] Creating layer inception_4b/relu_5x5_reduce
I0403 15:09:59.647099  2750 net.cpp:91] Creating Layer inception_4b/relu_5x5_reduce
I0403 15:09:59.647130  2750 net.cpp:425] inception_4b/relu_5x5_reduce <- inception_4b/5x5_reduce
I0403 15:09:59.647148  2750 net.cpp:386] inception_4b/relu_5x5_reduce -> inception_4b/5x5_reduce (in-place)
I0403 15:09:59.647336  2750 net.cpp:141] Setting up inception_4b/relu_5x5_reduce
I0403 15:09:59.647362  2750 net.cpp:148] Top shape: 24 24 14 14 (112896)
I0403 15:09:59.647377  2750 net.cpp:156] Memory required for data: 965772576
I0403 15:09:59.647392  2750 layer_factory.hpp:77] Creating layer inception_4b/5x5
I0403 15:09:59.647415  2750 net.cpp:91] Creating Layer inception_4b/5x5
I0403 15:09:59.647433  2750 net.cpp:425] inception_4b/5x5 <- inception_4b/5x5_reduce
I0403 15:09:59.647454  2750 net.cpp:399] inception_4b/5x5 -> inception_4b/5x5
I0403 15:09:59.648692  2750 net.cpp:141] Setting up inception_4b/5x5
I0403 15:09:59.648721  2750 net.cpp:148] Top shape: 24 64 14 14 (301056)
I0403 15:09:59.648738  2750 net.cpp:156] Memory required for data: 966976800
I0403 15:09:59.648757  2750 layer_factory.hpp:77] Creating layer inception_4b/relu_5x5
I0403 15:09:59.648777  2750 net.cpp:91] Creating Layer inception_4b/relu_5x5
I0403 15:09:59.648794  2750 net.cpp:425] inception_4b/relu_5x5 <- inception_4b/5x5
I0403 15:09:59.648811  2750 net.cpp:386] inception_4b/relu_5x5 -> inception_4b/5x5 (in-place)
I0403 15:09:59.649096  2750 net.cpp:141] Setting up inception_4b/relu_5x5
I0403 15:09:59.649122  2750 net.cpp:148] Top shape: 24 64 14 14 (301056)
I0403 15:09:59.649137  2750 net.cpp:156] Memory required for data: 968181024
I0403 15:09:59.649152  2750 layer_factory.hpp:77] Creating layer inception_4b/pool
I0403 15:09:59.649173  2750 net.cpp:91] Creating Layer inception_4b/pool
I0403 15:09:59.649199  2750 net.cpp:425] inception_4b/pool <- inception_4a/output_inception_4a/output_0_split_4
I0403 15:09:59.649217  2750 net.cpp:399] inception_4b/pool -> inception_4b/pool
I0403 15:09:59.649286  2750 net.cpp:141] Setting up inception_4b/pool
I0403 15:09:59.649310  2750 net.cpp:148] Top shape: 24 512 14 14 (2408448)
I0403 15:09:59.649324  2750 net.cpp:156] Memory required for data: 977814816
I0403 15:09:59.649338  2750 layer_factory.hpp:77] Creating layer inception_4b/pool_proj
I0403 15:09:59.649360  2750 net.cpp:91] Creating Layer inception_4b/pool_proj
I0403 15:09:59.649377  2750 net.cpp:425] inception_4b/pool_proj <- inception_4b/pool
I0403 15:09:59.649399  2750 net.cpp:399] inception_4b/pool_proj -> inception_4b/pool_proj
I0403 15:09:59.650634  2750 net.cpp:141] Setting up inception_4b/pool_proj
I0403 15:09:59.650665  2750 net.cpp:148] Top shape: 24 64 14 14 (301056)
I0403 15:09:59.650681  2750 net.cpp:156] Memory required for data: 979019040
I0403 15:09:59.650701  2750 layer_factory.hpp:77] Creating layer inception_4b/relu_pool_proj
I0403 15:09:59.650723  2750 net.cpp:91] Creating Layer inception_4b/relu_pool_proj
I0403 15:09:59.650741  2750 net.cpp:425] inception_4b/relu_pool_proj <- inception_4b/pool_proj
I0403 15:09:59.650760  2750 net.cpp:386] inception_4b/relu_pool_proj -> inception_4b/pool_proj (in-place)
I0403 15:09:59.650948  2750 net.cpp:141] Setting up inception_4b/relu_pool_proj
I0403 15:09:59.650976  2750 net.cpp:148] Top shape: 24 64 14 14 (301056)
I0403 15:09:59.650993  2750 net.cpp:156] Memory required for data: 980223264
I0403 15:09:59.651010  2750 layer_factory.hpp:77] Creating layer inception_4b/output
I0403 15:09:59.651027  2750 net.cpp:91] Creating Layer inception_4b/output
I0403 15:09:59.651044  2750 net.cpp:425] inception_4b/output <- inception_4b/1x1
I0403 15:09:59.651062  2750 net.cpp:425] inception_4b/output <- inception_4b/3x3
I0403 15:09:59.651080  2750 net.cpp:425] inception_4b/output <- inception_4b/5x5
I0403 15:09:59.651098  2750 net.cpp:425] inception_4b/output <- inception_4b/pool_proj
I0403 15:09:59.651118  2750 net.cpp:399] inception_4b/output -> inception_4b/output
I0403 15:09:59.651166  2750 net.cpp:141] Setting up inception_4b/output
I0403 15:09:59.651199  2750 net.cpp:148] Top shape: 24 512 14 14 (2408448)
I0403 15:09:59.651216  2750 net.cpp:156] Memory required for data: 989857056
I0403 15:09:59.651248  2750 layer_factory.hpp:77] Creating layer inception_4b/output_inception_4b/output_0_split
I0403 15:09:59.651270  2750 net.cpp:91] Creating Layer inception_4b/output_inception_4b/output_0_split
I0403 15:09:59.651288  2750 net.cpp:425] inception_4b/output_inception_4b/output_0_split <- inception_4b/output
I0403 15:09:59.651306  2750 net.cpp:399] inception_4b/output_inception_4b/output_0_split -> inception_4b/output_inception_4b/output_0_split_0
I0403 15:09:59.651327  2750 net.cpp:399] inception_4b/output_inception_4b/output_0_split -> inception_4b/output_inception_4b/output_0_split_1
I0403 15:09:59.651351  2750 net.cpp:399] inception_4b/output_inception_4b/output_0_split -> inception_4b/output_inception_4b/output_0_split_2
I0403 15:09:59.651374  2750 net.cpp:399] inception_4b/output_inception_4b/output_0_split -> inception_4b/output_inception_4b/output_0_split_3
I0403 15:09:59.651460  2750 net.cpp:141] Setting up inception_4b/output_inception_4b/output_0_split
I0403 15:09:59.651485  2750 net.cpp:148] Top shape: 24 512 14 14 (2408448)
I0403 15:09:59.651501  2750 net.cpp:148] Top shape: 24 512 14 14 (2408448)
I0403 15:09:59.651518  2750 net.cpp:148] Top shape: 24 512 14 14 (2408448)
I0403 15:09:59.651535  2750 net.cpp:148] Top shape: 24 512 14 14 (2408448)
I0403 15:09:59.651548  2750 net.cpp:156] Memory required for data: 1028392224
I0403 15:09:59.651562  2750 layer_factory.hpp:77] Creating layer inception_4c/1x1
I0403 15:09:59.651585  2750 net.cpp:91] Creating Layer inception_4c/1x1
I0403 15:09:59.651603  2750 net.cpp:425] inception_4c/1x1 <- inception_4b/output_inception_4b/output_0_split_0
I0403 15:09:59.651636  2750 net.cpp:399] inception_4c/1x1 -> inception_4c/1x1
I0403 15:09:59.653077  2750 net.cpp:141] Setting up inception_4c/1x1
I0403 15:09:59.653113  2750 net.cpp:148] Top shape: 24 128 14 14 (602112)
I0403 15:09:59.653131  2750 net.cpp:156] Memory required for data: 1030800672
I0403 15:09:59.653149  2750 layer_factory.hpp:77] Creating layer inception_4c/relu_1x1
I0403 15:09:59.653168  2750 net.cpp:91] Creating Layer inception_4c/relu_1x1
I0403 15:09:59.653192  2750 net.cpp:425] inception_4c/relu_1x1 <- inception_4c/1x1
I0403 15:09:59.653213  2750 net.cpp:386] inception_4c/relu_1x1 -> inception_4c/1x1 (in-place)
I0403 15:09:59.653394  2750 net.cpp:141] Setting up inception_4c/relu_1x1
I0403 15:09:59.653419  2750 net.cpp:148] Top shape: 24 128 14 14 (602112)
I0403 15:09:59.653434  2750 net.cpp:156] Memory required for data: 1033209120
I0403 15:09:59.653450  2750 layer_factory.hpp:77] Creating layer inception_4c/3x3_reduce
I0403 15:09:59.653471  2750 net.cpp:91] Creating Layer inception_4c/3x3_reduce
I0403 15:09:59.653489  2750 net.cpp:425] inception_4c/3x3_reduce <- inception_4b/output_inception_4b/output_0_split_1
I0403 15:09:59.653511  2750 net.cpp:399] inception_4c/3x3_reduce -> inception_4c/3x3_reduce
I0403 15:09:59.655468  2750 net.cpp:141] Setting up inception_4c/3x3_reduce
I0403 15:09:59.655498  2750 net.cpp:148] Top shape: 24 128 14 14 (602112)
I0403 15:09:59.655515  2750 net.cpp:156] Memory required for data: 1035617568
I0403 15:09:59.655534  2750 layer_factory.hpp:77] Creating layer inception_4c/relu_3x3_reduce
I0403 15:09:59.655555  2750 net.cpp:91] Creating Layer inception_4c/relu_3x3_reduce
I0403 15:09:59.655573  2750 net.cpp:425] inception_4c/relu_3x3_reduce <- inception_4c/3x3_reduce
I0403 15:09:59.655591  2750 net.cpp:386] inception_4c/relu_3x3_reduce -> inception_4c/3x3_reduce (in-place)
I0403 15:09:59.655877  2750 net.cpp:141] Setting up inception_4c/relu_3x3_reduce
I0403 15:09:59.655905  2750 net.cpp:148] Top shape: 24 128 14 14 (602112)
I0403 15:09:59.655920  2750 net.cpp:156] Memory required for data: 1038026016
I0403 15:09:59.655935  2750 layer_factory.hpp:77] Creating layer inception_4c/3x3
I0403 15:09:59.655958  2750 net.cpp:91] Creating Layer inception_4c/3x3
I0403 15:09:59.655977  2750 net.cpp:425] inception_4c/3x3 <- inception_4c/3x3_reduce
I0403 15:09:59.655997  2750 net.cpp:399] inception_4c/3x3 -> inception_4c/3x3
I0403 15:09:59.659621  2750 net.cpp:141] Setting up inception_4c/3x3
I0403 15:09:59.659662  2750 net.cpp:148] Top shape: 24 256 14 14 (1204224)
I0403 15:09:59.659680  2750 net.cpp:156] Memory required for data: 1042842912
I0403 15:09:59.659714  2750 layer_factory.hpp:77] Creating layer inception_4c/relu_3x3
I0403 15:09:59.659737  2750 net.cpp:91] Creating Layer inception_4c/relu_3x3
I0403 15:09:59.659754  2750 net.cpp:425] inception_4c/relu_3x3 <- inception_4c/3x3
I0403 15:09:59.659772  2750 net.cpp:386] inception_4c/relu_3x3 -> inception_4c/3x3 (in-place)
I0403 15:09:59.659953  2750 net.cpp:141] Setting up inception_4c/relu_3x3
I0403 15:09:59.659978  2750 net.cpp:148] Top shape: 24 256 14 14 (1204224)
I0403 15:09:59.659993  2750 net.cpp:156] Memory required for data: 1047659808
I0403 15:09:59.660008  2750 layer_factory.hpp:77] Creating layer inception_4c/5x5_reduce
I0403 15:09:59.660033  2750 net.cpp:91] Creating Layer inception_4c/5x5_reduce
I0403 15:09:59.660051  2750 net.cpp:425] inception_4c/5x5_reduce <- inception_4b/output_inception_4b/output_0_split_2
I0403 15:09:59.660070  2750 net.cpp:399] inception_4c/5x5_reduce -> inception_4c/5x5_reduce
I0403 15:09:59.661161  2750 net.cpp:141] Setting up inception_4c/5x5_reduce
I0403 15:09:59.661198  2750 net.cpp:148] Top shape: 24 24 14 14 (112896)
I0403 15:09:59.661214  2750 net.cpp:156] Memory required for data: 1048111392
I0403 15:09:59.661234  2750 layer_factory.hpp:77] Creating layer inception_4c/relu_5x5_reduce
I0403 15:09:59.661260  2750 net.cpp:91] Creating Layer inception_4c/relu_5x5_reduce
I0403 15:09:59.661279  2750 net.cpp:425] inception_4c/relu_5x5_reduce <- inception_4c/5x5_reduce
I0403 15:09:59.661298  2750 net.cpp:386] inception_4c/relu_5x5_reduce -> inception_4c/5x5_reduce (in-place)
I0403 15:09:59.661478  2750 net.cpp:141] Setting up inception_4c/relu_5x5_reduce
I0403 15:09:59.661507  2750 net.cpp:148] Top shape: 24 24 14 14 (112896)
I0403 15:09:59.661523  2750 net.cpp:156] Memory required for data: 1048562976
I0403 15:09:59.661538  2750 layer_factory.hpp:77] Creating layer inception_4c/5x5
I0403 15:09:59.661561  2750 net.cpp:91] Creating Layer inception_4c/5x5
I0403 15:09:59.661579  2750 net.cpp:425] inception_4c/5x5 <- inception_4c/5x5_reduce
I0403 15:09:59.661599  2750 net.cpp:399] inception_4c/5x5 -> inception_4c/5x5
I0403 15:09:59.662922  2750 net.cpp:141] Setting up inception_4c/5x5
I0403 15:09:59.662952  2750 net.cpp:148] Top shape: 24 64 14 14 (301056)
I0403 15:09:59.662968  2750 net.cpp:156] Memory required for data: 1049767200
I0403 15:09:59.662986  2750 layer_factory.hpp:77] Creating layer inception_4c/relu_5x5
I0403 15:09:59.663004  2750 net.cpp:91] Creating Layer inception_4c/relu_5x5
I0403 15:09:59.663020  2750 net.cpp:425] inception_4c/relu_5x5 <- inception_4c/5x5
I0403 15:09:59.663039  2750 net.cpp:386] inception_4c/relu_5x5 -> inception_4c/5x5 (in-place)
I0403 15:09:59.663337  2750 net.cpp:141] Setting up inception_4c/relu_5x5
I0403 15:09:59.663365  2750 net.cpp:148] Top shape: 24 64 14 14 (301056)
I0403 15:09:59.663381  2750 net.cpp:156] Memory required for data: 1050971424
I0403 15:09:59.663396  2750 layer_factory.hpp:77] Creating layer inception_4c/pool
I0403 15:09:59.663414  2750 net.cpp:91] Creating Layer inception_4c/pool
I0403 15:09:59.663430  2750 net.cpp:425] inception_4c/pool <- inception_4b/output_inception_4b/output_0_split_3
I0403 15:09:59.663451  2750 net.cpp:399] inception_4c/pool -> inception_4c/pool
I0403 15:09:59.663516  2750 net.cpp:141] Setting up inception_4c/pool
I0403 15:09:59.663539  2750 net.cpp:148] Top shape: 24 512 14 14 (2408448)
I0403 15:09:59.663554  2750 net.cpp:156] Memory required for data: 1060605216
I0403 15:09:59.663569  2750 layer_factory.hpp:77] Creating layer inception_4c/pool_proj
I0403 15:09:59.663590  2750 net.cpp:91] Creating Layer inception_4c/pool_proj
I0403 15:09:59.663609  2750 net.cpp:425] inception_4c/pool_proj <- inception_4c/pool
I0403 15:09:59.663630  2750 net.cpp:399] inception_4c/pool_proj -> inception_4c/pool_proj
I0403 15:09:59.664844  2750 net.cpp:141] Setting up inception_4c/pool_proj
I0403 15:09:59.664875  2750 net.cpp:148] Top shape: 24 64 14 14 (301056)
I0403 15:09:59.664906  2750 net.cpp:156] Memory required for data: 1061809440
I0403 15:09:59.664927  2750 layer_factory.hpp:77] Creating layer inception_4c/relu_pool_proj
I0403 15:09:59.664948  2750 net.cpp:91] Creating Layer inception_4c/relu_pool_proj
I0403 15:09:59.664968  2750 net.cpp:425] inception_4c/relu_pool_proj <- inception_4c/pool_proj
I0403 15:09:59.664985  2750 net.cpp:386] inception_4c/relu_pool_proj -> inception_4c/pool_proj (in-place)
I0403 15:09:59.665169  2750 net.cpp:141] Setting up inception_4c/relu_pool_proj
I0403 15:09:59.665204  2750 net.cpp:148] Top shape: 24 64 14 14 (301056)
I0403 15:09:59.665220  2750 net.cpp:156] Memory required for data: 1063013664
I0403 15:09:59.665235  2750 layer_factory.hpp:77] Creating layer inception_4c/output
I0403 15:09:59.665252  2750 net.cpp:91] Creating Layer inception_4c/output
I0403 15:09:59.665267  2750 net.cpp:425] inception_4c/output <- inception_4c/1x1
I0403 15:09:59.665283  2750 net.cpp:425] inception_4c/output <- inception_4c/3x3
I0403 15:09:59.665299  2750 net.cpp:425] inception_4c/output <- inception_4c/5x5
I0403 15:09:59.665314  2750 net.cpp:425] inception_4c/output <- inception_4c/pool_proj
I0403 15:09:59.665333  2750 net.cpp:399] inception_4c/output -> inception_4c/output
I0403 15:09:59.665380  2750 net.cpp:141] Setting up inception_4c/output
I0403 15:09:59.665403  2750 net.cpp:148] Top shape: 24 512 14 14 (2408448)
I0403 15:09:59.665418  2750 net.cpp:156] Memory required for data: 1072647456
I0403 15:09:59.665432  2750 layer_factory.hpp:77] Creating layer inception_4c/output_inception_4c/output_0_split
I0403 15:09:59.665452  2750 net.cpp:91] Creating Layer inception_4c/output_inception_4c/output_0_split
I0403 15:09:59.665468  2750 net.cpp:425] inception_4c/output_inception_4c/output_0_split <- inception_4c/output
I0403 15:09:59.665487  2750 net.cpp:399] inception_4c/output_inception_4c/output_0_split -> inception_4c/output_inception_4c/output_0_split_0
I0403 15:09:59.665505  2750 net.cpp:399] inception_4c/output_inception_4c/output_0_split -> inception_4c/output_inception_4c/output_0_split_1
I0403 15:09:59.665525  2750 net.cpp:399] inception_4c/output_inception_4c/output_0_split -> inception_4c/output_inception_4c/output_0_split_2
I0403 15:09:59.665549  2750 net.cpp:399] inception_4c/output_inception_4c/output_0_split -> inception_4c/output_inception_4c/output_0_split_3
I0403 15:09:59.665635  2750 net.cpp:141] Setting up inception_4c/output_inception_4c/output_0_split
I0403 15:09:59.665658  2750 net.cpp:148] Top shape: 24 512 14 14 (2408448)
I0403 15:09:59.665675  2750 net.cpp:148] Top shape: 24 512 14 14 (2408448)
I0403 15:09:59.665691  2750 net.cpp:148] Top shape: 24 512 14 14 (2408448)
I0403 15:09:59.665706  2750 net.cpp:148] Top shape: 24 512 14 14 (2408448)
I0403 15:09:59.665719  2750 net.cpp:156] Memory required for data: 1111182624
I0403 15:09:59.665735  2750 layer_factory.hpp:77] Creating layer inception_4d/1x1
I0403 15:09:59.665756  2750 net.cpp:91] Creating Layer inception_4d/1x1
I0403 15:09:59.665773  2750 net.cpp:425] inception_4d/1x1 <- inception_4c/output_inception_4c/output_0_split_0
I0403 15:09:59.665794  2750 net.cpp:399] inception_4d/1x1 -> inception_4d/1x1
I0403 15:09:59.667182  2750 net.cpp:141] Setting up inception_4d/1x1
I0403 15:09:59.667212  2750 net.cpp:148] Top shape: 24 112 14 14 (526848)
I0403 15:09:59.667229  2750 net.cpp:156] Memory required for data: 1113290016
I0403 15:09:59.667248  2750 layer_factory.hpp:77] Creating layer inception_4d/relu_1x1
I0403 15:09:59.667268  2750 net.cpp:91] Creating Layer inception_4d/relu_1x1
I0403 15:09:59.667286  2750 net.cpp:425] inception_4d/relu_1x1 <- inception_4d/1x1
I0403 15:09:59.667304  2750 net.cpp:386] inception_4d/relu_1x1 -> inception_4d/1x1 (in-place)
I0403 15:09:59.667486  2750 net.cpp:141] Setting up inception_4d/relu_1x1
I0403 15:09:59.667511  2750 net.cpp:148] Top shape: 24 112 14 14 (526848)
I0403 15:09:59.667526  2750 net.cpp:156] Memory required for data: 1115397408
I0403 15:09:59.667541  2750 layer_factory.hpp:77] Creating layer inception_4d/3x3_reduce
I0403 15:09:59.667575  2750 net.cpp:91] Creating Layer inception_4d/3x3_reduce
I0403 15:09:59.667593  2750 net.cpp:425] inception_4d/3x3_reduce <- inception_4c/output_inception_4c/output_0_split_1
I0403 15:09:59.667615  2750 net.cpp:399] inception_4d/3x3_reduce -> inception_4d/3x3_reduce
I0403 15:09:59.669134  2750 net.cpp:141] Setting up inception_4d/3x3_reduce
I0403 15:09:59.669162  2750 net.cpp:148] Top shape: 24 144 14 14 (677376)
I0403 15:09:59.669184  2750 net.cpp:156] Memory required for data: 1118106912
I0403 15:09:59.669204  2750 layer_factory.hpp:77] Creating layer inception_4d/relu_3x3_reduce
I0403 15:09:59.669222  2750 net.cpp:91] Creating Layer inception_4d/relu_3x3_reduce
I0403 15:09:59.669237  2750 net.cpp:425] inception_4d/relu_3x3_reduce <- inception_4d/3x3_reduce
I0403 15:09:59.669256  2750 net.cpp:386] inception_4d/relu_3x3_reduce -> inception_4d/3x3_reduce (in-place)
I0403 15:09:59.669543  2750 net.cpp:141] Setting up inception_4d/relu_3x3_reduce
I0403 15:09:59.669569  2750 net.cpp:148] Top shape: 24 144 14 14 (677376)
I0403 15:09:59.669584  2750 net.cpp:156] Memory required for data: 1120816416
I0403 15:09:59.669600  2750 layer_factory.hpp:77] Creating layer inception_4d/3x3
I0403 15:09:59.669621  2750 net.cpp:91] Creating Layer inception_4d/3x3
I0403 15:09:59.669638  2750 net.cpp:425] inception_4d/3x3 <- inception_4d/3x3_reduce
I0403 15:09:59.669659  2750 net.cpp:399] inception_4d/3x3 -> inception_4d/3x3
I0403 15:09:59.673940  2750 net.cpp:141] Setting up inception_4d/3x3
I0403 15:09:59.673971  2750 net.cpp:148] Top shape: 24 288 14 14 (1354752)
I0403 15:09:59.673988  2750 net.cpp:156] Memory required for data: 1126235424
I0403 15:09:59.674007  2750 layer_factory.hpp:77] Creating layer inception_4d/relu_3x3
I0403 15:09:59.674027  2750 net.cpp:91] Creating Layer inception_4d/relu_3x3
I0403 15:09:59.674046  2750 net.cpp:425] inception_4d/relu_3x3 <- inception_4d/3x3
I0403 15:09:59.674063  2750 net.cpp:386] inception_4d/relu_3x3 -> inception_4d/3x3 (in-place)
I0403 15:09:59.674250  2750 net.cpp:141] Setting up inception_4d/relu_3x3
I0403 15:09:59.674275  2750 net.cpp:148] Top shape: 24 288 14 14 (1354752)
I0403 15:09:59.674293  2750 net.cpp:156] Memory required for data: 1131654432
I0403 15:09:59.674307  2750 layer_factory.hpp:77] Creating layer inception_4d/5x5_reduce
I0403 15:09:59.674326  2750 net.cpp:91] Creating Layer inception_4d/5x5_reduce
I0403 15:09:59.674343  2750 net.cpp:425] inception_4d/5x5_reduce <- inception_4c/output_inception_4c/output_0_split_2
I0403 15:09:59.674365  2750 net.cpp:399] inception_4d/5x5_reduce -> inception_4d/5x5_reduce
I0403 15:09:59.675519  2750 net.cpp:141] Setting up inception_4d/5x5_reduce
I0403 15:09:59.675549  2750 net.cpp:148] Top shape: 24 32 14 14 (150528)
I0403 15:09:59.675565  2750 net.cpp:156] Memory required for data: 1132256544
I0403 15:09:59.675583  2750 layer_factory.hpp:77] Creating layer inception_4d/relu_5x5_reduce
I0403 15:09:59.675604  2750 net.cpp:91] Creating Layer inception_4d/relu_5x5_reduce
I0403 15:09:59.675621  2750 net.cpp:425] inception_4d/relu_5x5_reduce <- inception_4d/5x5_reduce
I0403 15:09:59.675640  2750 net.cpp:386] inception_4d/relu_5x5_reduce -> inception_4d/5x5_reduce (in-place)
I0403 15:09:59.675827  2750 net.cpp:141] Setting up inception_4d/relu_5x5_reduce
I0403 15:09:59.675853  2750 net.cpp:148] Top shape: 24 32 14 14 (150528)
I0403 15:09:59.675868  2750 net.cpp:156] Memory required for data: 1132858656
I0403 15:09:59.675882  2750 layer_factory.hpp:77] Creating layer inception_4d/5x5
I0403 15:09:59.675909  2750 net.cpp:91] Creating Layer inception_4d/5x5
I0403 15:09:59.675926  2750 net.cpp:425] inception_4d/5x5 <- inception_4d/5x5_reduce
I0403 15:09:59.675945  2750 net.cpp:399] inception_4d/5x5 -> inception_4d/5x5
I0403 15:09:59.677438  2750 net.cpp:141] Setting up inception_4d/5x5
I0403 15:09:59.677465  2750 net.cpp:148] Top shape: 24 64 14 14 (301056)
I0403 15:09:59.677481  2750 net.cpp:156] Memory required for data: 1134062880
I0403 15:09:59.677500  2750 layer_factory.hpp:77] Creating layer inception_4d/relu_5x5
I0403 15:09:59.677537  2750 net.cpp:91] Creating Layer inception_4d/relu_5x5
I0403 15:09:59.677556  2750 net.cpp:425] inception_4d/relu_5x5 <- inception_4d/5x5
I0403 15:09:59.677575  2750 net.cpp:386] inception_4d/relu_5x5 -> inception_4d/5x5 (in-place)
I0403 15:09:59.677880  2750 net.cpp:141] Setting up inception_4d/relu_5x5
I0403 15:09:59.677906  2750 net.cpp:148] Top shape: 24 64 14 14 (301056)
I0403 15:09:59.677920  2750 net.cpp:156] Memory required for data: 1135267104
I0403 15:09:59.677935  2750 layer_factory.hpp:77] Creating layer inception_4d/pool
I0403 15:09:59.677954  2750 net.cpp:91] Creating Layer inception_4d/pool
I0403 15:09:59.677971  2750 net.cpp:425] inception_4d/pool <- inception_4c/output_inception_4c/output_0_split_3
I0403 15:09:59.677991  2750 net.cpp:399] inception_4d/pool -> inception_4d/pool
I0403 15:09:59.678057  2750 net.cpp:141] Setting up inception_4d/pool
I0403 15:09:59.678081  2750 net.cpp:148] Top shape: 24 512 14 14 (2408448)
I0403 15:09:59.678095  2750 net.cpp:156] Memory required for data: 1144900896
I0403 15:09:59.678110  2750 layer_factory.hpp:77] Creating layer inception_4d/pool_proj
I0403 15:09:59.678133  2750 net.cpp:91] Creating Layer inception_4d/pool_proj
I0403 15:09:59.678149  2750 net.cpp:425] inception_4d/pool_proj <- inception_4d/pool
I0403 15:09:59.678170  2750 net.cpp:399] inception_4d/pool_proj -> inception_4d/pool_proj
I0403 15:09:59.679955  2750 net.cpp:141] Setting up inception_4d/pool_proj
I0403 15:09:59.679986  2750 net.cpp:148] Top shape: 24 64 14 14 (301056)
I0403 15:09:59.680003  2750 net.cpp:156] Memory required for data: 1146105120
I0403 15:09:59.680023  2750 layer_factory.hpp:77] Creating layer inception_4d/relu_pool_proj
I0403 15:09:59.680044  2750 net.cpp:91] Creating Layer inception_4d/relu_pool_proj
I0403 15:09:59.680061  2750 net.cpp:425] inception_4d/relu_pool_proj <- inception_4d/pool_proj
I0403 15:09:59.680079  2750 net.cpp:386] inception_4d/relu_pool_proj -> inception_4d/pool_proj (in-place)
I0403 15:09:59.680274  2750 net.cpp:141] Setting up inception_4d/relu_pool_proj
I0403 15:09:59.680299  2750 net.cpp:148] Top shape: 24 64 14 14 (301056)
I0403 15:09:59.680317  2750 net.cpp:156] Memory required for data: 1147309344
I0403 15:09:59.680332  2750 layer_factory.hpp:77] Creating layer inception_4d/output
I0403 15:09:59.680349  2750 net.cpp:91] Creating Layer inception_4d/output
I0403 15:09:59.680366  2750 net.cpp:425] inception_4d/output <- inception_4d/1x1
I0403 15:09:59.680382  2750 net.cpp:425] inception_4d/output <- inception_4d/3x3
I0403 15:09:59.680397  2750 net.cpp:425] inception_4d/output <- inception_4d/5x5
I0403 15:09:59.680413  2750 net.cpp:425] inception_4d/output <- inception_4d/pool_proj
I0403 15:09:59.680430  2750 net.cpp:399] inception_4d/output -> inception_4d/output
I0403 15:09:59.680477  2750 net.cpp:141] Setting up inception_4d/output
I0403 15:09:59.680500  2750 net.cpp:148] Top shape: 24 528 14 14 (2483712)
I0403 15:09:59.680516  2750 net.cpp:156] Memory required for data: 1157244192
I0403 15:09:59.680531  2750 layer_factory.hpp:77] Creating layer inception_4d/output_inception_4d/output_0_split
I0403 15:09:59.680547  2750 net.cpp:91] Creating Layer inception_4d/output_inception_4d/output_0_split
I0403 15:09:59.680567  2750 net.cpp:425] inception_4d/output_inception_4d/output_0_split <- inception_4d/output
I0403 15:09:59.680583  2750 net.cpp:399] inception_4d/output_inception_4d/output_0_split -> inception_4d/output_inception_4d/output_0_split_0
I0403 15:09:59.680604  2750 net.cpp:399] inception_4d/output_inception_4d/output_0_split -> inception_4d/output_inception_4d/output_0_split_1
I0403 15:09:59.680624  2750 net.cpp:399] inception_4d/output_inception_4d/output_0_split -> inception_4d/output_inception_4d/output_0_split_2
I0403 15:09:59.680644  2750 net.cpp:399] inception_4d/output_inception_4d/output_0_split -> inception_4d/output_inception_4d/output_0_split_3
I0403 15:09:59.680665  2750 net.cpp:399] inception_4d/output_inception_4d/output_0_split -> inception_4d/output_inception_4d/output_0_split_4
I0403 15:09:59.680769  2750 net.cpp:141] Setting up inception_4d/output_inception_4d/output_0_split
I0403 15:09:59.680804  2750 net.cpp:148] Top shape: 24 528 14 14 (2483712)
I0403 15:09:59.680820  2750 net.cpp:148] Top shape: 24 528 14 14 (2483712)
I0403 15:09:59.680836  2750 net.cpp:148] Top shape: 24 528 14 14 (2483712)
I0403 15:09:59.680851  2750 net.cpp:148] Top shape: 24 528 14 14 (2483712)
I0403 15:09:59.680992  2750 net.cpp:148] Top shape: 24 528 14 14 (2483712)
I0403 15:09:59.681010  2750 net.cpp:156] Memory required for data: 1206918432
I0403 15:09:59.681025  2750 layer_factory.hpp:77] Creating layer loss2/ave_pool
I0403 15:09:59.681042  2750 net.cpp:91] Creating Layer loss2/ave_pool
I0403 15:09:59.681058  2750 net.cpp:425] loss2/ave_pool <- inception_4d/output_inception_4d/output_0_split_0
I0403 15:09:59.681079  2750 net.cpp:399] loss2/ave_pool -> loss2/ave_pool
I0403 15:09:59.681401  2750 net.cpp:141] Setting up loss2/ave_pool
I0403 15:09:59.681427  2750 net.cpp:148] Top shape: 24 528 4 4 (202752)
I0403 15:09:59.681442  2750 net.cpp:156] Memory required for data: 1207729440
I0403 15:09:59.681457  2750 layer_factory.hpp:77] Creating layer loss2/conv
I0403 15:09:59.681479  2750 net.cpp:91] Creating Layer loss2/conv
I0403 15:09:59.681498  2750 net.cpp:425] loss2/conv <- loss2/ave_pool
I0403 15:09:59.681519  2750 net.cpp:399] loss2/conv -> loss2/conv
I0403 15:09:59.683444  2750 net.cpp:141] Setting up loss2/conv
I0403 15:09:59.683476  2750 net.cpp:148] Top shape: 24 128 4 4 (49152)
I0403 15:09:59.683493  2750 net.cpp:156] Memory required for data: 1207926048
I0403 15:09:59.683513  2750 layer_factory.hpp:77] Creating layer loss2/relu_conv
I0403 15:09:59.683532  2750 net.cpp:91] Creating Layer loss2/relu_conv
I0403 15:09:59.683548  2750 net.cpp:425] loss2/relu_conv <- loss2/conv
I0403 15:09:59.683568  2750 net.cpp:386] loss2/relu_conv -> loss2/conv (in-place)
I0403 15:09:59.683856  2750 net.cpp:141] Setting up loss2/relu_conv
I0403 15:09:59.683886  2750 net.cpp:148] Top shape: 24 128 4 4 (49152)
I0403 15:09:59.683902  2750 net.cpp:156] Memory required for data: 1208122656
I0403 15:09:59.683917  2750 layer_factory.hpp:77] Creating layer loss2/fc
I0403 15:09:59.683938  2750 net.cpp:91] Creating Layer loss2/fc
I0403 15:09:59.683954  2750 net.cpp:425] loss2/fc <- loss2/conv
I0403 15:09:59.683976  2750 net.cpp:399] loss2/fc -> loss2/fc
I0403 15:09:59.702280  2750 net.cpp:141] Setting up loss2/fc
I0403 15:09:59.702321  2750 net.cpp:148] Top shape: 24 1024 (24576)
I0403 15:09:59.702337  2750 net.cpp:156] Memory required for data: 1208220960
I0403 15:09:59.702359  2750 layer_factory.hpp:77] Creating layer loss2/relu_fc
I0403 15:09:59.702381  2750 net.cpp:91] Creating Layer loss2/relu_fc
I0403 15:09:59.702400  2750 net.cpp:425] loss2/relu_fc <- loss2/fc
I0403 15:09:59.702420  2750 net.cpp:386] loss2/relu_fc -> loss2/fc (in-place)
I0403 15:09:59.702765  2750 net.cpp:141] Setting up loss2/relu_fc
I0403 15:09:59.702793  2750 net.cpp:148] Top shape: 24 1024 (24576)
I0403 15:09:59.702811  2750 net.cpp:156] Memory required for data: 1208319264
I0403 15:09:59.702826  2750 layer_factory.hpp:77] Creating layer loss2/drop_fc
I0403 15:09:59.702848  2750 net.cpp:91] Creating Layer loss2/drop_fc
I0403 15:09:59.702867  2750 net.cpp:425] loss2/drop_fc <- loss2/fc
I0403 15:09:59.702886  2750 net.cpp:386] loss2/drop_fc -> loss2/fc (in-place)
I0403 15:09:59.702939  2750 net.cpp:141] Setting up loss2/drop_fc
I0403 15:09:59.702965  2750 net.cpp:148] Top shape: 24 1024 (24576)
I0403 15:09:59.702980  2750 net.cpp:156] Memory required for data: 1208417568
I0403 15:09:59.702996  2750 layer_factory.hpp:77] Creating layer loss2/classifier_plantvillage
I0403 15:09:59.703016  2750 net.cpp:91] Creating Layer loss2/classifier_plantvillage
I0403 15:09:59.703032  2750 net.cpp:425] loss2/classifier_plantvillage <- loss2/fc
I0403 15:09:59.703052  2750 net.cpp:399] loss2/classifier_plantvillage -> loss2/classifier_plantvillage
I0403 15:09:59.703496  2750 net.cpp:141] Setting up loss2/classifier_plantvillage
I0403 15:09:59.703522  2750 net.cpp:148] Top shape: 24 38 (912)
I0403 15:09:59.703562  2750 net.cpp:156] Memory required for data: 1208421216
I0403 15:09:59.703582  2750 layer_factory.hpp:77] Creating layer loss2/classifier_plantvillage_loss2/classifier_plantvillage_0_split
I0403 15:09:59.703601  2750 net.cpp:91] Creating Layer loss2/classifier_plantvillage_loss2/classifier_plantvillage_0_split
I0403 15:09:59.703618  2750 net.cpp:425] loss2/classifier_plantvillage_loss2/classifier_plantvillage_0_split <- loss2/classifier_plantvillage
I0403 15:09:59.703635  2750 net.cpp:399] loss2/classifier_plantvillage_loss2/classifier_plantvillage_0_split -> loss2/classifier_plantvillage_loss2/classifier_plantvillage_0_split_0
I0403 15:09:59.703660  2750 net.cpp:399] loss2/classifier_plantvillage_loss2/classifier_plantvillage_0_split -> loss2/classifier_plantvillage_loss2/classifier_plantvillage_0_split_1
I0403 15:09:59.703682  2750 net.cpp:399] loss2/classifier_plantvillage_loss2/classifier_plantvillage_0_split -> loss2/classifier_plantvillage_loss2/classifier_plantvillage_0_split_2
I0403 15:09:59.703763  2750 net.cpp:141] Setting up loss2/classifier_plantvillage_loss2/classifier_plantvillage_0_split
I0403 15:09:59.703788  2750 net.cpp:148] Top shape: 24 38 (912)
I0403 15:09:59.703806  2750 net.cpp:148] Top shape: 24 38 (912)
I0403 15:09:59.703822  2750 net.cpp:148] Top shape: 24 38 (912)
I0403 15:09:59.703836  2750 net.cpp:156] Memory required for data: 1208432160
I0403 15:09:59.703851  2750 layer_factory.hpp:77] Creating layer inception_4e/1x1
I0403 15:09:59.703872  2750 net.cpp:91] Creating Layer inception_4e/1x1
I0403 15:09:59.703891  2750 net.cpp:425] inception_4e/1x1 <- inception_4d/output_inception_4d/output_0_split_1
I0403 15:09:59.703912  2750 net.cpp:399] inception_4e/1x1 -> inception_4e/1x1
I0403 15:09:59.705835  2750 net.cpp:141] Setting up inception_4e/1x1
I0403 15:09:59.705868  2750 net.cpp:148] Top shape: 24 256 14 14 (1204224)
I0403 15:09:59.705888  2750 net.cpp:156] Memory required for data: 1213249056
I0403 15:09:59.705909  2750 layer_factory.hpp:77] Creating layer inception_4e/relu_1x1
I0403 15:09:59.705929  2750 net.cpp:91] Creating Layer inception_4e/relu_1x1
I0403 15:09:59.705945  2750 net.cpp:425] inception_4e/relu_1x1 <- inception_4e/1x1
I0403 15:09:59.705967  2750 net.cpp:386] inception_4e/relu_1x1 -> inception_4e/1x1 (in-place)
I0403 15:09:59.706289  2750 net.cpp:141] Setting up inception_4e/relu_1x1
I0403 15:09:59.706320  2750 net.cpp:148] Top shape: 24 256 14 14 (1204224)
I0403 15:09:59.706336  2750 net.cpp:156] Memory required for data: 1218065952
I0403 15:09:59.706352  2750 layer_factory.hpp:77] Creating layer inception_4e/3x3_reduce
I0403 15:09:59.706377  2750 net.cpp:91] Creating Layer inception_4e/3x3_reduce
I0403 15:09:59.706395  2750 net.cpp:425] inception_4e/3x3_reduce <- inception_4d/output_inception_4d/output_0_split_2
I0403 15:09:59.706595  2750 net.cpp:399] inception_4e/3x3_reduce -> inception_4e/3x3_reduce
I0403 15:09:59.708855  2750 net.cpp:141] Setting up inception_4e/3x3_reduce
I0403 15:09:59.708889  2750 net.cpp:148] Top shape: 24 160 14 14 (752640)
I0403 15:09:59.708906  2750 net.cpp:156] Memory required for data: 1221076512
I0403 15:09:59.708925  2750 layer_factory.hpp:77] Creating layer inception_4e/relu_3x3_reduce
I0403 15:09:59.708945  2750 net.cpp:91] Creating Layer inception_4e/relu_3x3_reduce
I0403 15:09:59.708961  2750 net.cpp:425] inception_4e/relu_3x3_reduce <- inception_4e/3x3_reduce
I0403 15:09:59.708979  2750 net.cpp:386] inception_4e/relu_3x3_reduce -> inception_4e/3x3_reduce (in-place)
I0403 15:09:59.709172  2750 net.cpp:141] Setting up inception_4e/relu_3x3_reduce
I0403 15:09:59.709206  2750 net.cpp:148] Top shape: 24 160 14 14 (752640)
I0403 15:09:59.709223  2750 net.cpp:156] Memory required for data: 1224087072
I0403 15:09:59.709238  2750 layer_factory.hpp:77] Creating layer inception_4e/3x3
I0403 15:09:59.709260  2750 net.cpp:91] Creating Layer inception_4e/3x3
I0403 15:09:59.709277  2750 net.cpp:425] inception_4e/3x3 <- inception_4e/3x3_reduce
I0403 15:09:59.709297  2750 net.cpp:399] inception_4e/3x3 -> inception_4e/3x3
I0403 15:09:59.714527  2750 net.cpp:141] Setting up inception_4e/3x3
I0403 15:09:59.714576  2750 net.cpp:148] Top shape: 24 320 14 14 (1505280)
I0403 15:09:59.714596  2750 net.cpp:156] Memory required for data: 1230108192
I0403 15:09:59.714615  2750 layer_factory.hpp:77] Creating layer inception_4e/relu_3x3
I0403 15:09:59.714634  2750 net.cpp:91] Creating Layer inception_4e/relu_3x3
I0403 15:09:59.714651  2750 net.cpp:425] inception_4e/relu_3x3 <- inception_4e/3x3
I0403 15:09:59.714671  2750 net.cpp:386] inception_4e/relu_3x3 -> inception_4e/3x3 (in-place)
I0403 15:09:59.714982  2750 net.cpp:141] Setting up inception_4e/relu_3x3
I0403 15:09:59.715009  2750 net.cpp:148] Top shape: 24 320 14 14 (1505280)
I0403 15:09:59.715025  2750 net.cpp:156] Memory required for data: 1236129312
I0403 15:09:59.715042  2750 layer_factory.hpp:77] Creating layer inception_4e/5x5_reduce
I0403 15:09:59.715066  2750 net.cpp:91] Creating Layer inception_4e/5x5_reduce
I0403 15:09:59.715086  2750 net.cpp:425] inception_4e/5x5_reduce <- inception_4d/output_inception_4d/output_0_split_3
I0403 15:09:59.715109  2750 net.cpp:399] inception_4e/5x5_reduce -> inception_4e/5x5_reduce
I0403 15:09:59.716234  2750 net.cpp:141] Setting up inception_4e/5x5_reduce
I0403 15:09:59.716264  2750 net.cpp:148] Top shape: 24 32 14 14 (150528)
I0403 15:09:59.716281  2750 net.cpp:156] Memory required for data: 1236731424
I0403 15:09:59.716301  2750 layer_factory.hpp:77] Creating layer inception_4e/relu_5x5_reduce
I0403 15:09:59.716322  2750 net.cpp:91] Creating Layer inception_4e/relu_5x5_reduce
I0403 15:09:59.716339  2750 net.cpp:425] inception_4e/relu_5x5_reduce <- inception_4e/5x5_reduce
I0403 15:09:59.716357  2750 net.cpp:386] inception_4e/relu_5x5_reduce -> inception_4e/5x5_reduce (in-place)
I0403 15:09:59.716667  2750 net.cpp:141] Setting up inception_4e/relu_5x5_reduce
I0403 15:09:59.716696  2750 net.cpp:148] Top shape: 24 32 14 14 (150528)
I0403 15:09:59.716711  2750 net.cpp:156] Memory required for data: 1237333536
I0403 15:09:59.716727  2750 layer_factory.hpp:77] Creating layer inception_4e/5x5
I0403 15:09:59.716766  2750 net.cpp:91] Creating Layer inception_4e/5x5
I0403 15:09:59.716787  2750 net.cpp:425] inception_4e/5x5 <- inception_4e/5x5_reduce
I0403 15:09:59.716807  2750 net.cpp:399] inception_4e/5x5 -> inception_4e/5x5
I0403 15:09:59.718724  2750 net.cpp:141] Setting up inception_4e/5x5
I0403 15:09:59.718754  2750 net.cpp:148] Top shape: 24 128 14 14 (602112)
I0403 15:09:59.718770  2750 net.cpp:156] Memory required for data: 1239741984
I0403 15:09:59.718789  2750 layer_factory.hpp:77] Creating layer inception_4e/relu_5x5
I0403 15:09:59.718813  2750 net.cpp:91] Creating Layer inception_4e/relu_5x5
I0403 15:09:59.718832  2750 net.cpp:425] inception_4e/relu_5x5 <- inception_4e/5x5
I0403 15:09:59.718850  2750 net.cpp:386] inception_4e/relu_5x5 -> inception_4e/5x5 (in-place)
I0403 15:09:59.719053  2750 net.cpp:141] Setting up inception_4e/relu_5x5
I0403 15:09:59.719081  2750 net.cpp:148] Top shape: 24 128 14 14 (602112)
I0403 15:09:59.719097  2750 net.cpp:156] Memory required for data: 1242150432
I0403 15:09:59.719115  2750 layer_factory.hpp:77] Creating layer inception_4e/pool
I0403 15:09:59.719133  2750 net.cpp:91] Creating Layer inception_4e/pool
I0403 15:09:59.719151  2750 net.cpp:425] inception_4e/pool <- inception_4d/output_inception_4d/output_0_split_4
I0403 15:09:59.719169  2750 net.cpp:399] inception_4e/pool -> inception_4e/pool
I0403 15:09:59.719254  2750 net.cpp:141] Setting up inception_4e/pool
I0403 15:09:59.719277  2750 net.cpp:148] Top shape: 24 528 14 14 (2483712)
I0403 15:09:59.719292  2750 net.cpp:156] Memory required for data: 1252085280
I0403 15:09:59.719307  2750 layer_factory.hpp:77] Creating layer inception_4e/pool_proj
I0403 15:09:59.719331  2750 net.cpp:91] Creating Layer inception_4e/pool_proj
I0403 15:09:59.719460  2750 net.cpp:425] inception_4e/pool_proj <- inception_4e/pool
I0403 15:09:59.719486  2750 net.cpp:399] inception_4e/pool_proj -> inception_4e/pool_proj
I0403 15:09:59.721079  2750 net.cpp:141] Setting up inception_4e/pool_proj
I0403 15:09:59.721120  2750 net.cpp:148] Top shape: 24 128 14 14 (602112)
I0403 15:09:59.721138  2750 net.cpp:156] Memory required for data: 1254493728
I0403 15:09:59.721158  2750 layer_factory.hpp:77] Creating layer inception_4e/relu_pool_proj
I0403 15:09:59.721185  2750 net.cpp:91] Creating Layer inception_4e/relu_pool_proj
I0403 15:09:59.721205  2750 net.cpp:425] inception_4e/relu_pool_proj <- inception_4e/pool_proj
I0403 15:09:59.721223  2750 net.cpp:386] inception_4e/relu_pool_proj -> inception_4e/pool_proj (in-place)
I0403 15:09:59.721529  2750 net.cpp:141] Setting up inception_4e/relu_pool_proj
I0403 15:09:59.721556  2750 net.cpp:148] Top shape: 24 128 14 14 (602112)
I0403 15:09:59.721572  2750 net.cpp:156] Memory required for data: 1256902176
I0403 15:09:59.721590  2750 layer_factory.hpp:77] Creating layer inception_4e/output
I0403 15:09:59.721607  2750 net.cpp:91] Creating Layer inception_4e/output
I0403 15:09:59.721623  2750 net.cpp:425] inception_4e/output <- inception_4e/1x1
I0403 15:09:59.721640  2750 net.cpp:425] inception_4e/output <- inception_4e/3x3
I0403 15:09:59.721657  2750 net.cpp:425] inception_4e/output <- inception_4e/5x5
I0403 15:09:59.721673  2750 net.cpp:425] inception_4e/output <- inception_4e/pool_proj
I0403 15:09:59.721693  2750 net.cpp:399] inception_4e/output -> inception_4e/output
I0403 15:09:59.721747  2750 net.cpp:141] Setting up inception_4e/output
I0403 15:09:59.721771  2750 net.cpp:148] Top shape: 24 832 14 14 (3913728)
I0403 15:09:59.721786  2750 net.cpp:156] Memory required for data: 1272557088
I0403 15:09:59.721801  2750 layer_factory.hpp:77] Creating layer pool4/3x3_s2
I0403 15:09:59.721818  2750 net.cpp:91] Creating Layer pool4/3x3_s2
I0403 15:09:59.721834  2750 net.cpp:425] pool4/3x3_s2 <- inception_4e/output
I0403 15:09:59.721856  2750 net.cpp:399] pool4/3x3_s2 -> pool4/3x3_s2
I0403 15:09:59.721926  2750 net.cpp:141] Setting up pool4/3x3_s2
I0403 15:09:59.721949  2750 net.cpp:148] Top shape: 24 832 7 7 (978432)
I0403 15:09:59.721964  2750 net.cpp:156] Memory required for data: 1276470816
I0403 15:09:59.721982  2750 layer_factory.hpp:77] Creating layer pool4/3x3_s2_pool4/3x3_s2_0_split
I0403 15:09:59.722002  2750 net.cpp:91] Creating Layer pool4/3x3_s2_pool4/3x3_s2_0_split
I0403 15:09:59.722019  2750 net.cpp:425] pool4/3x3_s2_pool4/3x3_s2_0_split <- pool4/3x3_s2
I0403 15:09:59.722036  2750 net.cpp:399] pool4/3x3_s2_pool4/3x3_s2_0_split -> pool4/3x3_s2_pool4/3x3_s2_0_split_0
I0403 15:09:59.722059  2750 net.cpp:399] pool4/3x3_s2_pool4/3x3_s2_0_split -> pool4/3x3_s2_pool4/3x3_s2_0_split_1
I0403 15:09:59.722080  2750 net.cpp:399] pool4/3x3_s2_pool4/3x3_s2_0_split -> pool4/3x3_s2_pool4/3x3_s2_0_split_2
I0403 15:09:59.722100  2750 net.cpp:399] pool4/3x3_s2_pool4/3x3_s2_0_split -> pool4/3x3_s2_pool4/3x3_s2_0_split_3
I0403 15:09:59.722213  2750 net.cpp:141] Setting up pool4/3x3_s2_pool4/3x3_s2_0_split
I0403 15:09:59.722237  2750 net.cpp:148] Top shape: 24 832 7 7 (978432)
I0403 15:09:59.722254  2750 net.cpp:148] Top shape: 24 832 7 7 (978432)
I0403 15:09:59.722270  2750 net.cpp:148] Top shape: 24 832 7 7 (978432)
I0403 15:09:59.722285  2750 net.cpp:148] Top shape: 24 832 7 7 (978432)
I0403 15:09:59.722300  2750 net.cpp:156] Memory required for data: 1292125728
I0403 15:09:59.722314  2750 layer_factory.hpp:77] Creating layer inception_5a/1x1
I0403 15:09:59.722337  2750 net.cpp:91] Creating Layer inception_5a/1x1
I0403 15:09:59.722354  2750 net.cpp:425] inception_5a/1x1 <- pool4/3x3_s2_pool4/3x3_s2_0_split_0
I0403 15:09:59.722376  2750 net.cpp:399] inception_5a/1x1 -> inception_5a/1x1
I0403 15:09:59.725347  2750 net.cpp:141] Setting up inception_5a/1x1
I0403 15:09:59.725379  2750 net.cpp:148] Top shape: 24 256 7 7 (301056)
I0403 15:09:59.725396  2750 net.cpp:156] Memory required for data: 1293329952
I0403 15:09:59.725415  2750 layer_factory.hpp:77] Creating layer inception_5a/relu_1x1
I0403 15:09:59.725437  2750 net.cpp:91] Creating Layer inception_5a/relu_1x1
I0403 15:09:59.725456  2750 net.cpp:425] inception_5a/relu_1x1 <- inception_5a/1x1
I0403 15:09:59.725476  2750 net.cpp:386] inception_5a/relu_1x1 -> inception_5a/1x1 (in-place)
I0403 15:09:59.725797  2750 net.cpp:141] Setting up inception_5a/relu_1x1
I0403 15:09:59.725826  2750 net.cpp:148] Top shape: 24 256 7 7 (301056)
I0403 15:09:59.725841  2750 net.cpp:156] Memory required for data: 1294534176
I0403 15:09:59.725857  2750 layer_factory.hpp:77] Creating layer inception_5a/3x3_reduce
I0403 15:09:59.725880  2750 net.cpp:91] Creating Layer inception_5a/3x3_reduce
I0403 15:09:59.725901  2750 net.cpp:425] inception_5a/3x3_reduce <- pool4/3x3_s2_pool4/3x3_s2_0_split_1
I0403 15:09:59.725925  2750 net.cpp:399] inception_5a/3x3_reduce -> inception_5a/3x3_reduce
I0403 15:09:59.728488  2750 net.cpp:141] Setting up inception_5a/3x3_reduce
I0403 15:09:59.728519  2750 net.cpp:148] Top shape: 24 160 7 7 (188160)
I0403 15:09:59.728538  2750 net.cpp:156] Memory required for data: 1295286816
I0403 15:09:59.728557  2750 layer_factory.hpp:77] Creating layer inception_5a/relu_3x3_reduce
I0403 15:09:59.728576  2750 net.cpp:91] Creating Layer inception_5a/relu_3x3_reduce
I0403 15:09:59.728593  2750 net.cpp:425] inception_5a/relu_3x3_reduce <- inception_5a/3x3_reduce
I0403 15:09:59.728615  2750 net.cpp:386] inception_5a/relu_3x3_reduce -> inception_5a/3x3_reduce (in-place)
I0403 15:09:59.728809  2750 net.cpp:141] Setting up inception_5a/relu_3x3_reduce
I0403 15:09:59.728834  2750 net.cpp:148] Top shape: 24 160 7 7 (188160)
I0403 15:09:59.728849  2750 net.cpp:156] Memory required for data: 1296039456
I0403 15:09:59.728864  2750 layer_factory.hpp:77] Creating layer inception_5a/3x3
I0403 15:09:59.728888  2750 net.cpp:91] Creating Layer inception_5a/3x3
I0403 15:09:59.728905  2750 net.cpp:425] inception_5a/3x3 <- inception_5a/3x3_reduce
I0403 15:09:59.728929  2750 net.cpp:399] inception_5a/3x3 -> inception_5a/3x3
I0403 15:09:59.734091  2750 net.cpp:141] Setting up inception_5a/3x3
I0403 15:09:59.734122  2750 net.cpp:148] Top shape: 24 320 7 7 (376320)
I0403 15:09:59.734139  2750 net.cpp:156] Memory required for data: 1297544736
I0403 15:09:59.734158  2750 layer_factory.hpp:77] Creating layer inception_5a/relu_3x3
I0403 15:09:59.734185  2750 net.cpp:91] Creating Layer inception_5a/relu_3x3
I0403 15:09:59.734203  2750 net.cpp:425] inception_5a/relu_3x3 <- inception_5a/3x3
I0403 15:09:59.734221  2750 net.cpp:386] inception_5a/relu_3x3 -> inception_5a/3x3 (in-place)
I0403 15:09:59.734516  2750 net.cpp:141] Setting up inception_5a/relu_3x3
I0403 15:09:59.734542  2750 net.cpp:148] Top shape: 24 320 7 7 (376320)
I0403 15:09:59.734557  2750 net.cpp:156] Memory required for data: 1299050016
I0403 15:09:59.734572  2750 layer_factory.hpp:77] Creating layer inception_5a/5x5_reduce
I0403 15:09:59.734594  2750 net.cpp:91] Creating Layer inception_5a/5x5_reduce
I0403 15:09:59.734611  2750 net.cpp:425] inception_5a/5x5_reduce <- pool4/3x3_s2_pool4/3x3_s2_0_split_2
I0403 15:09:59.734633  2750 net.cpp:399] inception_5a/5x5_reduce -> inception_5a/5x5_reduce
I0403 15:09:59.735815  2750 net.cpp:141] Setting up inception_5a/5x5_reduce
I0403 15:09:59.735846  2750 net.cpp:148] Top shape: 24 32 7 7 (37632)
I0403 15:09:59.735864  2750 net.cpp:156] Memory required for data: 1299200544
I0403 15:09:59.735883  2750 layer_factory.hpp:77] Creating layer inception_5a/relu_5x5_reduce
I0403 15:09:59.735903  2750 net.cpp:91] Creating Layer inception_5a/relu_5x5_reduce
I0403 15:09:59.735918  2750 net.cpp:425] inception_5a/relu_5x5_reduce <- inception_5a/5x5_reduce
I0403 15:09:59.735935  2750 net.cpp:386] inception_5a/relu_5x5_reduce -> inception_5a/5x5_reduce (in-place)
I0403 15:09:59.736246  2750 net.cpp:141] Setting up inception_5a/relu_5x5_reduce
I0403 15:09:59.736275  2750 net.cpp:148] Top shape: 24 32 7 7 (37632)
I0403 15:09:59.736291  2750 net.cpp:156] Memory required for data: 1299351072
I0403 15:09:59.736305  2750 layer_factory.hpp:77] Creating layer inception_5a/5x5
I0403 15:09:59.736328  2750 net.cpp:91] Creating Layer inception_5a/5x5
I0403 15:09:59.736346  2750 net.cpp:425] inception_5a/5x5 <- inception_5a/5x5_reduce
I0403 15:09:59.736366  2750 net.cpp:399] inception_5a/5x5 -> inception_5a/5x5
I0403 15:09:59.738163  2750 net.cpp:141] Setting up inception_5a/5x5
I0403 15:09:59.738209  2750 net.cpp:148] Top shape: 24 128 7 7 (150528)
I0403 15:09:59.738226  2750 net.cpp:156] Memory required for data: 1299953184
I0403 15:09:59.738245  2750 layer_factory.hpp:77] Creating layer inception_5a/relu_5x5
I0403 15:09:59.738265  2750 net.cpp:91] Creating Layer inception_5a/relu_5x5
I0403 15:09:59.738281  2750 net.cpp:425] inception_5a/relu_5x5 <- inception_5a/5x5
I0403 15:09:59.738298  2750 net.cpp:386] inception_5a/relu_5x5 -> inception_5a/5x5 (in-place)
I0403 15:09:59.738482  2750 net.cpp:141] Setting up inception_5a/relu_5x5
I0403 15:09:59.738507  2750 net.cpp:148] Top shape: 24 128 7 7 (150528)
I0403 15:09:59.738535  2750 net.cpp:156] Memory required for data: 1300555296
I0403 15:09:59.738549  2750 layer_factory.hpp:77] Creating layer inception_5a/pool
I0403 15:09:59.738567  2750 net.cpp:91] Creating Layer inception_5a/pool
I0403 15:09:59.738584  2750 net.cpp:425] inception_5a/pool <- pool4/3x3_s2_pool4/3x3_s2_0_split_3
I0403 15:09:59.738603  2750 net.cpp:399] inception_5a/pool -> inception_5a/pool
I0403 15:09:59.738674  2750 net.cpp:141] Setting up inception_5a/pool
I0403 15:09:59.738698  2750 net.cpp:148] Top shape: 24 832 7 7 (978432)
I0403 15:09:59.738713  2750 net.cpp:156] Memory required for data: 1304469024
I0403 15:09:59.738726  2750 layer_factory.hpp:77] Creating layer inception_5a/pool_proj
I0403 15:09:59.738749  2750 net.cpp:91] Creating Layer inception_5a/pool_proj
I0403 15:09:59.738766  2750 net.cpp:425] inception_5a/pool_proj <- inception_5a/pool
I0403 15:09:59.738787  2750 net.cpp:399] inception_5a/pool_proj -> inception_5a/pool_proj
I0403 15:09:59.741102  2750 net.cpp:141] Setting up inception_5a/pool_proj
I0403 15:09:59.741132  2750 net.cpp:148] Top shape: 24 128 7 7 (150528)
I0403 15:09:59.741149  2750 net.cpp:156] Memory required for data: 1305071136
I0403 15:09:59.741168  2750 layer_factory.hpp:77] Creating layer inception_5a/relu_pool_proj
I0403 15:09:59.741196  2750 net.cpp:91] Creating Layer inception_5a/relu_pool_proj
I0403 15:09:59.741214  2750 net.cpp:425] inception_5a/relu_pool_proj <- inception_5a/pool_proj
I0403 15:09:59.741232  2750 net.cpp:386] inception_5a/relu_pool_proj -> inception_5a/pool_proj (in-place)
I0403 15:09:59.741539  2750 net.cpp:141] Setting up inception_5a/relu_pool_proj
I0403 15:09:59.741564  2750 net.cpp:148] Top shape: 24 128 7 7 (150528)
I0403 15:09:59.741578  2750 net.cpp:156] Memory required for data: 1305673248
I0403 15:09:59.741593  2750 layer_factory.hpp:77] Creating layer inception_5a/output
I0403 15:09:59.741611  2750 net.cpp:91] Creating Layer inception_5a/output
I0403 15:09:59.741641  2750 net.cpp:425] inception_5a/output <- inception_5a/1x1
I0403 15:09:59.741657  2750 net.cpp:425] inception_5a/output <- inception_5a/3x3
I0403 15:09:59.741686  2750 net.cpp:425] inception_5a/output <- inception_5a/5x5
I0403 15:09:59.741703  2750 net.cpp:425] inception_5a/output <- inception_5a/pool_proj
I0403 15:09:59.741720  2750 net.cpp:399] inception_5a/output -> inception_5a/output
I0403 15:09:59.741770  2750 net.cpp:141] Setting up inception_5a/output
I0403 15:09:59.741797  2750 net.cpp:148] Top shape: 24 832 7 7 (978432)
I0403 15:09:59.741812  2750 net.cpp:156] Memory required for data: 1309586976
I0403 15:09:59.741828  2750 layer_factory.hpp:77] Creating layer inception_5a/output_inception_5a/output_0_split
I0403 15:09:59.741845  2750 net.cpp:91] Creating Layer inception_5a/output_inception_5a/output_0_split
I0403 15:09:59.741861  2750 net.cpp:425] inception_5a/output_inception_5a/output_0_split <- inception_5a/output
I0403 15:09:59.741881  2750 net.cpp:399] inception_5a/output_inception_5a/output_0_split -> inception_5a/output_inception_5a/output_0_split_0
I0403 15:09:59.741902  2750 net.cpp:399] inception_5a/output_inception_5a/output_0_split -> inception_5a/output_inception_5a/output_0_split_1
I0403 15:09:59.741925  2750 net.cpp:399] inception_5a/output_inception_5a/output_0_split -> inception_5a/output_inception_5a/output_0_split_2
I0403 15:09:59.741945  2750 net.cpp:399] inception_5a/output_inception_5a/output_0_split -> inception_5a/output_inception_5a/output_0_split_3
I0403 15:09:59.742081  2750 net.cpp:141] Setting up inception_5a/output_inception_5a/output_0_split
I0403 15:09:59.742106  2750 net.cpp:148] Top shape: 24 832 7 7 (978432)
I0403 15:09:59.742122  2750 net.cpp:148] Top shape: 24 832 7 7 (978432)
I0403 15:09:59.742137  2750 net.cpp:148] Top shape: 24 832 7 7 (978432)
I0403 15:09:59.742152  2750 net.cpp:148] Top shape: 24 832 7 7 (978432)
I0403 15:09:59.742166  2750 net.cpp:156] Memory required for data: 1325241888
I0403 15:09:59.742193  2750 layer_factory.hpp:77] Creating layer inception_5b/1x1
I0403 15:09:59.742219  2750 net.cpp:91] Creating Layer inception_5b/1x1
I0403 15:09:59.742238  2750 net.cpp:425] inception_5b/1x1 <- inception_5a/output_inception_5a/output_0_split_0
I0403 15:09:59.742256  2750 net.cpp:399] inception_5b/1x1 -> inception_5b/1x1
I0403 15:09:59.747292  2750 net.cpp:141] Setting up inception_5b/1x1
I0403 15:09:59.747323  2750 net.cpp:148] Top shape: 24 384 7 7 (451584)
I0403 15:09:59.747340  2750 net.cpp:156] Memory required for data: 1327048224
I0403 15:09:59.747359  2750 layer_factory.hpp:77] Creating layer inception_5b/relu_1x1
I0403 15:09:59.747377  2750 net.cpp:91] Creating Layer inception_5b/relu_1x1
I0403 15:09:59.747395  2750 net.cpp:425] inception_5b/relu_1x1 <- inception_5b/1x1
I0403 15:09:59.747414  2750 net.cpp:386] inception_5b/relu_1x1 -> inception_5b/1x1 (in-place)
I0403 15:09:59.747720  2750 net.cpp:141] Setting up inception_5b/relu_1x1
I0403 15:09:59.747746  2750 net.cpp:148] Top shape: 24 384 7 7 (451584)
I0403 15:09:59.747761  2750 net.cpp:156] Memory required for data: 1328854560
I0403 15:09:59.747776  2750 layer_factory.hpp:77] Creating layer inception_5b/3x3_reduce
I0403 15:09:59.747797  2750 net.cpp:91] Creating Layer inception_5b/3x3_reduce
I0403 15:09:59.747815  2750 net.cpp:425] inception_5b/3x3_reduce <- inception_5a/output_inception_5a/output_0_split_1
I0403 15:09:59.747839  2750 net.cpp:399] inception_5b/3x3_reduce -> inception_5b/3x3_reduce
I0403 15:09:59.750491  2750 net.cpp:141] Setting up inception_5b/3x3_reduce
I0403 15:09:59.750524  2750 net.cpp:148] Top shape: 24 192 7 7 (225792)
I0403 15:09:59.750540  2750 net.cpp:156] Memory required for data: 1329757728
I0403 15:09:59.750557  2750 layer_factory.hpp:77] Creating layer inception_5b/relu_3x3_reduce
I0403 15:09:59.750579  2750 net.cpp:91] Creating Layer inception_5b/relu_3x3_reduce
I0403 15:09:59.750600  2750 net.cpp:425] inception_5b/relu_3x3_reduce <- inception_5b/3x3_reduce
I0403 15:09:59.750620  2750 net.cpp:386] inception_5b/relu_3x3_reduce -> inception_5b/3x3_reduce (in-place)
I0403 15:09:59.750807  2750 net.cpp:141] Setting up inception_5b/relu_3x3_reduce
I0403 15:09:59.750833  2750 net.cpp:148] Top shape: 24 192 7 7 (225792)
I0403 15:09:59.750849  2750 net.cpp:156] Memory required for data: 1330660896
I0403 15:09:59.750864  2750 layer_factory.hpp:77] Creating layer inception_5b/3x3
I0403 15:09:59.750886  2750 net.cpp:91] Creating Layer inception_5b/3x3
I0403 15:09:59.750905  2750 net.cpp:425] inception_5b/3x3 <- inception_5b/3x3_reduce
I0403 15:09:59.750926  2750 net.cpp:399] inception_5b/3x3 -> inception_5b/3x3
I0403 15:09:59.758594  2750 net.cpp:141] Setting up inception_5b/3x3
I0403 15:09:59.758625  2750 net.cpp:148] Top shape: 24 384 7 7 (451584)
I0403 15:09:59.758641  2750 net.cpp:156] Memory required for data: 1332467232
I0403 15:09:59.758661  2750 layer_factory.hpp:77] Creating layer inception_5b/relu_3x3
I0403 15:09:59.758682  2750 net.cpp:91] Creating Layer inception_5b/relu_3x3
I0403 15:09:59.758698  2750 net.cpp:425] inception_5b/relu_3x3 <- inception_5b/3x3
I0403 15:09:59.758715  2750 net.cpp:386] inception_5b/relu_3x3 -> inception_5b/3x3 (in-place)
I0403 15:09:59.759006  2750 net.cpp:141] Setting up inception_5b/relu_3x3
I0403 15:09:59.759032  2750 net.cpp:148] Top shape: 24 384 7 7 (451584)
I0403 15:09:59.759047  2750 net.cpp:156] Memory required for data: 1334273568
I0403 15:09:59.759063  2750 layer_factory.hpp:77] Creating layer inception_5b/5x5_reduce
I0403 15:09:59.759099  2750 net.cpp:91] Creating Layer inception_5b/5x5_reduce
I0403 15:09:59.759119  2750 net.cpp:425] inception_5b/5x5_reduce <- inception_5a/output_inception_5a/output_0_split_2
I0403 15:09:59.759140  2750 net.cpp:399] inception_5b/5x5_reduce -> inception_5b/5x5_reduce
I0403 15:09:59.760396  2750 net.cpp:141] Setting up inception_5b/5x5_reduce
I0403 15:09:59.760423  2750 net.cpp:148] Top shape: 24 48 7 7 (56448)
I0403 15:09:59.760440  2750 net.cpp:156] Memory required for data: 1334499360
I0403 15:09:59.760460  2750 layer_factory.hpp:77] Creating layer inception_5b/relu_5x5_reduce
I0403 15:09:59.760483  2750 net.cpp:91] Creating Layer inception_5b/relu_5x5_reduce
I0403 15:09:59.760500  2750 net.cpp:425] inception_5b/relu_5x5_reduce <- inception_5b/5x5_reduce
I0403 15:09:59.760519  2750 net.cpp:386] inception_5b/relu_5x5_reduce -> inception_5b/5x5_reduce (in-place)
I0403 15:09:59.760884  2750 net.cpp:141] Setting up inception_5b/relu_5x5_reduce
I0403 15:09:59.760911  2750 net.cpp:148] Top shape: 24 48 7 7 (56448)
I0403 15:09:59.760927  2750 net.cpp:156] Memory required for data: 1334725152
I0403 15:09:59.760942  2750 layer_factory.hpp:77] Creating layer inception_5b/5x5
I0403 15:09:59.760962  2750 net.cpp:91] Creating Layer inception_5b/5x5
I0403 15:09:59.760979  2750 net.cpp:425] inception_5b/5x5 <- inception_5b/5x5_reduce
I0403 15:09:59.760999  2750 net.cpp:399] inception_5b/5x5 -> inception_5b/5x5
I0403 15:09:59.763017  2750 net.cpp:141] Setting up inception_5b/5x5
I0403 15:09:59.763046  2750 net.cpp:148] Top shape: 24 128 7 7 (150528)
I0403 15:09:59.763064  2750 net.cpp:156] Memory required for data: 1335327264
I0403 15:09:59.763082  2750 layer_factory.hpp:77] Creating layer inception_5b/relu_5x5
I0403 15:09:59.763103  2750 net.cpp:91] Creating Layer inception_5b/relu_5x5
I0403 15:09:59.763120  2750 net.cpp:425] inception_5b/relu_5x5 <- inception_5b/5x5
I0403 15:09:59.763139  2750 net.cpp:386] inception_5b/relu_5x5 -> inception_5b/5x5 (in-place)
I0403 15:09:59.763334  2750 net.cpp:141] Setting up inception_5b/relu_5x5
I0403 15:09:59.763362  2750 net.cpp:148] Top shape: 24 128 7 7 (150528)
I0403 15:09:59.763380  2750 net.cpp:156] Memory required for data: 1335929376
I0403 15:09:59.763394  2750 layer_factory.hpp:77] Creating layer inception_5b/pool
I0403 15:09:59.763412  2750 net.cpp:91] Creating Layer inception_5b/pool
I0403 15:09:59.763430  2750 net.cpp:425] inception_5b/pool <- inception_5a/output_inception_5a/output_0_split_3
I0403 15:09:59.763453  2750 net.cpp:399] inception_5b/pool -> inception_5b/pool
I0403 15:09:59.763525  2750 net.cpp:141] Setting up inception_5b/pool
I0403 15:09:59.763551  2750 net.cpp:148] Top shape: 24 832 7 7 (978432)
I0403 15:09:59.763566  2750 net.cpp:156] Memory required for data: 1339843104
I0403 15:09:59.763581  2750 layer_factory.hpp:77] Creating layer inception_5b/pool_proj
I0403 15:09:59.763602  2750 net.cpp:91] Creating Layer inception_5b/pool_proj
I0403 15:09:59.763620  2750 net.cpp:425] inception_5b/pool_proj <- inception_5b/pool
I0403 15:09:59.763640  2750 net.cpp:399] inception_5b/pool_proj -> inception_5b/pool_proj
I0403 15:09:59.765903  2750 net.cpp:141] Setting up inception_5b/pool_proj
I0403 15:09:59.765933  2750 net.cpp:148] Top shape: 24 128 7 7 (150528)
I0403 15:09:59.765949  2750 net.cpp:156] Memory required for data: 1340445216
I0403 15:09:59.765969  2750 layer_factory.hpp:77] Creating layer inception_5b/relu_pool_proj
I0403 15:09:59.765992  2750 net.cpp:91] Creating Layer inception_5b/relu_pool_proj
I0403 15:09:59.766010  2750 net.cpp:425] inception_5b/relu_pool_proj <- inception_5b/pool_proj
I0403 15:09:59.766027  2750 net.cpp:386] inception_5b/relu_pool_proj -> inception_5b/pool_proj (in-place)
I0403 15:09:59.766335  2750 net.cpp:141] Setting up inception_5b/relu_pool_proj
I0403 15:09:59.766360  2750 net.cpp:148] Top shape: 24 128 7 7 (150528)
I0403 15:09:59.766376  2750 net.cpp:156] Memory required for data: 1341047328
I0403 15:09:59.766391  2750 layer_factory.hpp:77] Creating layer inception_5b/output
I0403 15:09:59.766407  2750 net.cpp:91] Creating Layer inception_5b/output
I0403 15:09:59.766436  2750 net.cpp:425] inception_5b/output <- inception_5b/1x1
I0403 15:09:59.766454  2750 net.cpp:425] inception_5b/output <- inception_5b/3x3
I0403 15:09:59.766470  2750 net.cpp:425] inception_5b/output <- inception_5b/5x5
I0403 15:09:59.766486  2750 net.cpp:425] inception_5b/output <- inception_5b/pool_proj
I0403 15:09:59.766506  2750 net.cpp:399] inception_5b/output -> inception_5b/output
I0403 15:09:59.766561  2750 net.cpp:141] Setting up inception_5b/output
I0403 15:09:59.766583  2750 net.cpp:148] Top shape: 24 1024 7 7 (1204224)
I0403 15:09:59.766597  2750 net.cpp:156] Memory required for data: 1345864224
I0403 15:09:59.766612  2750 layer_factory.hpp:77] Creating layer pool5/7x7_s1
I0403 15:09:59.766629  2750 net.cpp:91] Creating Layer pool5/7x7_s1
I0403 15:09:59.766644  2750 net.cpp:425] pool5/7x7_s1 <- inception_5b/output
I0403 15:09:59.766664  2750 net.cpp:399] pool5/7x7_s1 -> pool5/7x7_s1
I0403 15:09:59.766875  2750 net.cpp:141] Setting up pool5/7x7_s1
I0403 15:09:59.766899  2750 net.cpp:148] Top shape: 24 1024 1 1 (24576)
I0403 15:09:59.766913  2750 net.cpp:156] Memory required for data: 1345962528
I0403 15:09:59.766927  2750 layer_factory.hpp:77] Creating layer pool5/drop_7x7_s1
I0403 15:09:59.766947  2750 net.cpp:91] Creating Layer pool5/drop_7x7_s1
I0403 15:09:59.766964  2750 net.cpp:425] pool5/drop_7x7_s1 <- pool5/7x7_s1
I0403 15:09:59.766983  2750 net.cpp:386] pool5/drop_7x7_s1 -> pool5/7x7_s1 (in-place)
I0403 15:09:59.767032  2750 net.cpp:141] Setting up pool5/drop_7x7_s1
I0403 15:09:59.767055  2750 net.cpp:148] Top shape: 24 1024 1 1 (24576)
I0403 15:09:59.767069  2750 net.cpp:156] Memory required for data: 1346060832
I0403 15:09:59.767083  2750 layer_factory.hpp:77] Creating layer loss3/classifier_plantvillage
I0403 15:09:59.767102  2750 net.cpp:91] Creating Layer loss3/classifier_plantvillage
I0403 15:09:59.767118  2750 net.cpp:425] loss3/classifier_plantvillage <- pool5/7x7_s1
I0403 15:09:59.767138  2750 net.cpp:399] loss3/classifier_plantvillage -> loss3/classifier_plantvillage
I0403 15:09:59.767565  2750 net.cpp:141] Setting up loss3/classifier_plantvillage
I0403 15:09:59.767590  2750 net.cpp:148] Top shape: 24 38 (912)
I0403 15:09:59.767603  2750 net.cpp:156] Memory required for data: 1346064480
I0403 15:09:59.767621  2750 layer_factory.hpp:77] Creating layer loss3/classifier_plantvillage_loss3/classifier_plantvillage_0_split
I0403 15:09:59.767640  2750 net.cpp:91] Creating Layer loss3/classifier_plantvillage_loss3/classifier_plantvillage_0_split
I0403 15:09:59.767657  2750 net.cpp:425] loss3/classifier_plantvillage_loss3/classifier_plantvillage_0_split <- loss3/classifier_plantvillage
I0403 15:09:59.767676  2750 net.cpp:399] loss3/classifier_plantvillage_loss3/classifier_plantvillage_0_split -> loss3/classifier_plantvillage_loss3/classifier_plantvillage_0_split_0
I0403 15:09:59.767696  2750 net.cpp:399] loss3/classifier_plantvillage_loss3/classifier_plantvillage_0_split -> loss3/classifier_plantvillage_loss3/classifier_plantvillage_0_split_1
I0403 15:09:59.767716  2750 net.cpp:399] loss3/classifier_plantvillage_loss3/classifier_plantvillage_0_split -> loss3/classifier_plantvillage_loss3/classifier_plantvillage_0_split_2
I0403 15:09:59.767737  2750 net.cpp:399] loss3/classifier_plantvillage_loss3/classifier_plantvillage_0_split -> loss3/classifier_plantvillage_loss3/classifier_plantvillage_0_split_3
I0403 15:09:59.767837  2750 net.cpp:141] Setting up loss3/classifier_plantvillage_loss3/classifier_plantvillage_0_split
I0403 15:09:59.767859  2750 net.cpp:148] Top shape: 24 38 (912)
I0403 15:09:59.767874  2750 net.cpp:148] Top shape: 24 38 (912)
I0403 15:09:59.767889  2750 net.cpp:148] Top shape: 24 38 (912)
I0403 15:09:59.767913  2750 net.cpp:148] Top shape: 24 38 (912)
I0403 15:09:59.767927  2750 net.cpp:156] Memory required for data: 1346079072
I0403 15:09:59.767942  2750 layer_factory.hpp:77] Creating layer loss1/loss
I0403 15:09:59.767963  2750 net.cpp:91] Creating Layer loss1/loss
I0403 15:09:59.767979  2750 net.cpp:425] loss1/loss <- loss1/classifier_plantvillage_loss1/classifier_plantvillage_0_split_0
I0403 15:09:59.768009  2750 net.cpp:425] loss1/loss <- label_data_1_split_0
…
