…
I0403 15:11:23.426580  2781 net.cpp:313] The NetState phase (1) differed from the phase (0) specified by a rule in layer data
I0403 15:11:23.427805  2781 net.cpp:49] Initializing net from parameters: 
state {
  phase: TEST
}
layer {
  name: "data"
  type: "Data"
  top: "data"
  top: "label"
  include {
    phase: TEST
  }
  transform_param {
    mirror: false
    crop_size: 224
    mean_file: "/home/mohanty/data/final_dataset/lmdb/segmented-60-40/mean.binaryproto"
  }
  data_param {
    source: "/home/mohanty/data/final_dataset/lmdb/segmented-60-40/test_db"
    batch_size: 24
    backend: LMDB
  }
}
layer {
  name: "conv1/7x7_s2"
  type: "Convolution"
  bottom: "data"
  top: "conv1/7x7_s2"
  param {
    lr_mult: 1
    decay_mult: 1
  }
  param {
    lr_mult: 2
    decay_mult: 0
  }
  convolution_param {
    num_output: 64
    pad: 3
    kernel_size: 7
    stride: 2
    weight_filler {
      type: "xavier"
      std: 0.1
    }
    bias_filler {
      type: "constant"
      value: 0.2
    }
  }
}
layer {
  name: "conv1/relu_7x7"
  type: "ReLU"
  bottom: "conv1/7x7_s2"
  top: "conv1/7x7_s2"
}
layer {
  name: "pool1/3x3_s2"
  type: "Pooling"
  bottom: "conv1/7x7_s2"
  top: "pool1/3x3_s2"
  pooling_param {
    pool: MAX
    kernel_size: 3
    stride: 2
  }
}
layer {
  name: "pool1/norm1"
  type: "LRN"
  bottom: "pool1/3x3_s2"
  top: "pool1/norm1"
  lrn_param {
    local_size: 5
    alpha: 0.0001
    beta: 0.75
  }
}
layer {
  name: "conv2/3x3_reduce"
  type: "Convolution"
  bottom: "pool1/norm1"
  top: "conv2/3x3_reduce"
  param {
    lr_mult: 1
    decay_mult: 1
  }
  param {
    lr_mult: 2
    decay_mult: 0
  }
  convolution_param {
    num_output: 64
    kernel_size: 1
    weight_filler {
      type: "xavier"
      std: 0.1
    }
    bias_filler {
      type: "constant"
      value: 0.2
    }
  }
}
layer {
  name: "conv2/relu_3x3_reduce"
  type: "ReLU"
  bottom: "conv2/3x3_reduce"
  top: "conv2/3x3_reduce"
}
layer {
  name: "conv2/3x3"
  type: "Convolution"
  bottom: "conv2/3x3_reduce"
  top: "conv2/3x3"
  param {
    lr_mult: 1
    decay_mult: 1
  }
  param {
    lr_mult: 2
    decay_mult: 0
  }
  convolution_param {
    num_output: 192
    pad: 1
    kernel_size: 3
    weight_filler {
      type: "xavier"
      std: 0.03
    }
    bias_filler {
      type: "constant"
      value: 0.2
    }
  }
}
layer {
  name: "conv2/relu_3x3"
  type: "ReLU"
  bottom: "conv2/3x3"
  top: "conv2/3x3"
}
layer {
  name: "conv2/norm2"
  type: "LRN"
  bottom: "conv2/3x3"
  top: "conv2/norm2"
  lrn_param {
    local_size: 5
    alpha: 0.0001
    beta: 0.75
  }
}
layer {
  name: "pool2/3x3_s2"
  type: "Pooling"
  bottom: "conv2/norm2"
  top: "pool2/3x3_s2"
  pooling_param {
    pool: MAX
    kernel_size: 3
    stride: 2
  }
}
layer {
  name: "inception_3a/1x1"
  type: "Convolution"
  bottom: "pool2/3x3_s2"
  top: "inception_3a/1x1"
  param {
    lr_mult: 1
    decay_mult: 1
  }
  param {
    lr_mult: 2
    decay_mult: 0
  }
  convolution_param {
    num_output: 64
    kernel_size: 1
    weight_filler {
      type: "xavier"
      std: 0.03
    }
    bias_filler {
      type: "constant"
      value: 0.2
    }
  }
}
layer {
  name: "inception_3a/relu_1x1"
  type: "ReLU"
  bottom: "inception_3a/1x1"
  top: "inception_3a/1x1"
}
layer {
  name: "inception_3a/3x3_reduce"
  type: "Convolution"
  bottom: "pool2/3x3_s2"
  top: "inception_3a/3x3_reduce"
  param {
    lr_mult: 1
    decay_mult: 1
  }
  param {
    lr_mult: 2
    decay_mult: 0
  }
  convolution_param {
    num_output: 96
    kernel_size: 1
    weight_filler {
      type: "xavier"
      std: 0.09
    }
    bias_filler {
      type: "constant"
      value: 0.2
    }
  }
}
layer {
  name: "inception_3a/relu_3x3_reduce"
  type: "ReLU"
  bottom: "inception_3a/3x3_reduce"
  top: "inception_3a/3x3_reduce"
}
layer {
  name: "inception_3a/3x3"
  type: "Convolution"
  bottom: "inception_3a/3x3_reduce"
  top: "inception_3a/3x3"
  param {
    lr_mult: 1
    decay_mult: 1
  }
  param {
    lr_mult: 2
    decay_mult: 0
  }
  convolution_param {
    num_output: 128
    pad: 1
    kernel_size: 3
    weight_filler {
      type: "xavier"
      std: 0.03
    }
    bias_filler {
      type: "constant"
      value: 0.2
    }
  }
}
layer {
  name: "inception_3a/relu_3x3"
  type: "ReLU"
  bottom: "inception_3a/3x3"
  top: "inception_3a/3x3"
}
layer {
  name: "inception_3a/5x5_reduce"
  type: "Convolution"
  bottom: "pool2/3x3_s2"
  top: "inception_3a/5x5_reduce"
  param {
    lr_mult: 1
    decay_mult: 1
  }
  param {
    lr_mult: 2
    decay_mult: 0
  }
  convolution_param {
    num_output: 16
    kernel_size: 1
    weight_filler {
      type: "xavier"
      std: 0.2
    }
    bias_filler {
      type: "constant"
      value: 0.2
    }
  }
}
layer {
  name: "inception_3a/relu_5x5_reduce"
  type: "ReLU"
  bottom: "inception_3a/5x5_reduce"
  top: "inception_3a/5x5_reduce"
}
layer {
  name: "inception_3a/5x5"
  type: "Convolution"
  bottom: "inception_3a/5x5_reduce"
  top: "inception_3a/5x5"
  param {
    lr_mult: 1
    decay_mult: 1
  }
  param {
    lr_mult: 2
    decay_mult: 0
  }
  convolution_param {
    num_output: 32
    pad: 2
    kernel_size: 5
    weight_filler {
      type: "xavier"
      std: 0.03
    }
    bias_filler {
      type: "constant"
      value: 0.2
    }
  }
}
layer {
  name: "inception_3a/relu_5x5"
  type: "ReLU"
  bottom: "inception_3a/5x5"
  top: "inception_3a/5x5"
}
layer {
  name: "inception_3a/pool"
  type: "Pooling"
  bottom: "pool2/3x3_s2"
  top: "inception_3a/pool"
  pooling_param {
    pool: MAX
    kernel_size: 3
    stride: 1
    pad: 1
  }
}
layer {
  name: "inception_3a/pool_proj"
  type: "Convolution"
  bottom: "inception_3a/pool"
  top: "inception_3a/pool_proj"
  param {
    lr_mult: 1
    decay_mult: 1
  }
  param {
    lr_mult: 2
    decay_mult: 0
  }
  convolution_param {
    num_output: 32
    kernel_size: 1
    weight_filler {
      type: "xavier"
      std: 0.1
    }
    bias_filler {
      type: "constant"
      value: 0.2
    }
  }
}
layer {
  name: "inception_3a/relu_pool_proj"
  type: "ReLU"
  bottom: "inception_3a/pool_proj"
  top: "inception_3a/pool_proj"
}
layer {
  name: "inception_3a/output"
  type: "Concat"
  bottom: "inception_3a/1x1"
  bottom: "inception_3a/3x3"
  bottom: "inception_3a/5x5"
  bottom: "inception_3a/pool_proj"
  top: "inception_3a/output"
}
layer {
  name: "inception_3b/1x1"
  type: "Convolution"
  bottom: "inception_3a/output"
  top: "inception_3b/1x1"
  param {
    lr_mult: 1
    decay_mult: 1
  }
  param {
    lr_mult: 2
    decay_mult: 0
  }
  convolution_param {
    num_output: 128
    kernel_size: 1
    weight_filler {
      type: "xavier"
      std: 0.03
    }
    bias_filler {
      type: "constant"
      value: 0.2
    }
  }
}
layer {
  name: "inception_3b/relu_1x1"
  type: "ReLU"
  bottom: "inception_3b/1x1"
  top: "inception_3b/1x1"
}
layer {
  name: "inception_3b/3x3_reduce"
  type: "Convolution"
  bottom: "inception_3a/output"
  top: "inception_3b/3x3_reduce"
  param {
    lr_mult: 1
    decay_mult: 1
  }
  param {
    lr_mult: 2
    decay_mult: 0
  }
  convolution_param {
    num_output: 128
    kernel_size: 1
    weight_filler {
      type: "xavier"
      std: 0.09
    }
    bias_filler {
      type: "constant"
      value: 0.2
    }
  }
}
layer {
  name: "inception_3b/relu_3x3_reduce"
  type: "ReLU"
  bottom: "inception_3b/3x3_reduce"
  top: "inception_3b/3x3_reduce"
}
layer {
  name: "inception_3b/3x3"
  type: "Convolution"
  bottom: "inception_3b/3x3_reduce"
  top: "inception_3b/3x3"
  param {
    lr_mult: 1
    decay_mult: 1
  }
  param {
    lr_mult: 2
    decay_mult: 0
  }
  convolution_param {
    num_output: 192
    pad: 1
    kernel_size: 3
    weight_filler {
      type: "xavier"
      std: 0.03
    }
    bias_filler {
      type: "constant"
      value: 0.2
    }
  }
}
layer {
  name: "inception_3b/relu_3x3"
  type: "ReLU"
  bottom: "inception_3b/3x3"
  top: "inception_3b/3x3"
}
layer {
  name: "inception_3b/5x5_reduce"
  type: "Convolution"
  bottom: "inception_3a/output"
  top: "inception_3b/5x5_reduce"
  param {
    lr_mult: 1
    decay_mult: 1
  }
  param {
    lr_mult: 2
    decay_mult: 0
  }
  convolution_param {
    num_output: 32
    kernel_size: 1
    weight_filler {
      type: "xavier"
      std: 0.2
    }
    bias_filler {
      type: "constant"
      value: 0.2
    }
  }
}
layer {
  name: "inception_3b/relu_5x5_reduce"
  type: "ReLU"
  bottom: "inception_3b/5x5_reduce"
  top: "inception_3b/5x5_reduce"
}
layer {
  name: "inception_3b/5x5"
  type: "Convolution"
  bottom: "inception_3b/5x5_reduce"
  top: "inception_3b/5x5"
  param {
    lr_mult: 1
    decay_mult: 1
  }
  param {
    lr_mult: 2
    decay_mult: 0
  }
  convolution_param {
    num_output: 96
    pad: 2
    kernel_size: 5
    weight_filler {
      type: "xavier"
      std: 0.03
    }
    bias_filler {
      type: "constant"
      value: 0.2
    }
  }
}
layer {
  name: "inception_3b/relu_5x5"
  type: "ReLU"
  bottom: "inception_3b/5x5"
  top: "inception_3b/5x5"
}
layer {
  name: "inception_3b/pool"
  type: "Pooling"
  bottom: "inception_3a/output"
  top: "inception_3b/pool"
  pooling_param {
    pool: MAX
    kernel_size: 3
    stride: 1
    pad: 1
  }
}
layer {
  name: "inception_3b/pool_proj"
  type: "Convolution"
  bottom: "inception_3b/pool"
  top: "inception_3b/pool_proj"
  param {
    lr_mult: 1
    decay_mult: 1
  }
  param {
    lr_mult: 2
    decay_mult: 0
  }
  convolution_param {
    num_output: 64
    kernel_size: 1
    weight_filler {
      type: "xavier"
      std: 0.1
    }
    bias_filler {
      type: "constant"
      value: 0.2
    }
  }
}
layer {
  name: "inception_3b/relu_pool_proj"
  type: "ReLU"
  bottom: "inception_3b/pool_proj"
  top: "inception_3b/pool_proj"
}
layer {
  name: "inception_3b/output"
  type: "Concat"
  bottom: "inception_3b/1x1"
  bottom: "inception_3b/3x3"
  bottom: "inception_3b/5x5"
  bottom: "inception_3b/pool_proj"
  top: "inception_3b/output"
}
layer {
  name: "pool3/3x3_s2"
  type: "Pooling"
  bottom: "inception_3b/output"
  top: "pool3/3x3_s2"
  pooling_param {
    pool: MAX
    kernel_size: 3
    stride: 2
  }
}
layer {
  name: "inception_4a/1x1"
  type: "Convolution"
  bottom: "pool3/3x3_s2"
  top: "inception_4a/1x1"
  param {
    lr_mult: 1
    decay_mult: 1
  }
  param {
    lr_mult: 2
    decay_mult: 0
  }
  convolution_param {
    num_output: 192
    kernel_size: 1
    weight_filler {
      type: "xavier"
      std: 0.03
    }
    bias_filler {
      type: "constant"
      value: 0.2
    }
  }
}
layer {
  name: "inception_4a/relu_1x1"
  type: "ReLU"
  bottom: "inception_4a/1x1"
  top: "inception_4a/1x1"
}
layer {
  name: "inception_4a/3x3_reduce"
  type: "Convolution"
  bottom: "pool3/3x3_s2"
  top: "inception_4a/3x3_reduce"
  param {
    lr_mult: 1
    decay_mult: 1
  }
  param {
    lr_mult: 2
    decay_mult: 0
  }
  convolution_param {
    num_output: 96
    kernel_size: 1
    weight_filler {
      type: "xavier"
      std: 0.09
    }
    bias_filler {
      type: "constant"
      value: 0.2
    }
  }
}
layer {
  name: "inception_4a/relu_3x3_reduce"
  type: "ReLU"
  bottom: "inception_4a/3x3_reduce"
  top: "inception_4a/3x3_reduce"
}
layer {
  name: "inception_4a/3x3"
  type: "Convolution"
  bottom: "inception_4a/3x3_reduce"
  top: "inception_4a/3x3"
  param {
    lr_mult: 1
    decay_mult: 1
  }
  param {
    lr_mult: 2
    decay_mult: 0
  }
  convolution_param {
    num_output: 208
    pad: 1
    kernel_size: 3
    weight_filler {
      type: "xavier"
      std: 0.03
    }
    bias_filler {
      type: "constant"
      value: 0.2
    }
  }
}
layer {
  name: "inception_4a/relu_3x3"
  type: "ReLU"
  bottom: "inception_4a/3x3"
  top: "inception_4a/3x3"
}
layer {
  name: "inception_4a/5x5_reduce"
  type: "Convolution"
  bottom: "pool3/3x3_s2"
  top: "inception_4a/5x5_reduce"
  param {
    lr_mult: 1
    decay_mult: 1
  }
  param {
    lr_mult: 2
    decay_mult: 0
  }
  convolution_param {
    num_output: 16
    kernel_size: 1
    weight_filler {
      type: "xavier"
      std: 0.2
    }
    bias_filler {
      type: "constant"
      value: 0.2
    }
  }
}
layer {
  name: "inception_4a/relu_5x5_reduce"
  type: "ReLU"
  bottom: "inception_4a/5x5_reduce"
  top: "inception_4a/5x5_reduce"
}
layer {
  name: "inception_4a/5x5"
  type: "Convolution"
  bottom: "inception_4a/5x5_reduce"
  top: "inception_4a/5x5"
  param {
    lr_mult: 1
    decay_mult: 1
  }
  param {
    lr_mult: 2
    decay_mult: 0
  }
  convolution_param {
    num_output: 48
    pad: 2
    kernel_size: 5
    weight_filler {
      type: "xavier"
      std: 0.03
    }
    bias_filler {
      type: "constant"
      value: 0.2
    }
  }
}
layer {
  name: "inception_4a/relu_5x5"
  type: "ReLU"
  bottom: "inception_4a/5x5"
  top: "inception_4a/5x5"
}
layer {
  name: "inception_4a/pool"
  type: "Pooling"
  bottom: "pool3/3x3_s2"
  top: "inception_4a/pool"
  pooling_param {
    pool: MAX
    kernel_size: 3
    stride: 1
    pad: 1
  }
}
layer {
  name: "inception_4a/pool_proj"
  type: "Convolution"
  bottom: "inception_4a/pool"
  top: "inception_4a/pool_proj"
  param {
    lr_mult: 1
    decay_mult: 1
  }
  param {
    lr_mult: 2
    decay_mult: 0
  }
  convolution_param {
    num_output: 64
    kernel_size: 1
    weight_filler {
      type: "xavier"
      std: 0.1
    }
    bias_filler {
      type: "constant"
      value: 0.2
    }
  }
}
layer {
  name: "inception_4a/relu_pool_proj"
  type: "ReLU"
  bottom: "inception_4a/pool_proj"
  top: "inception_4a/pool_proj"
}
layer {
  name: "inception_4a/output"
  type: "Concat"
  bottom: "inception_4a/1x1"
  bottom: "inception_4a/3x3"
  bottom: "inception_4a/5x5"
  bottom: "inception_4a/pool_proj"
  top: "inception_4a/output"
}
layer {
  name: "loss1/ave_pool"
  type: "Pooling"
  bottom: "inception_4a/output"
  top: "loss1/ave_pool"
  pooling_param {
    pool: AVE
    kernel_size: 5
    stride: 3
  }
}
layer {
  name: "loss1/conv"
  type: "Convolution"
  bottom: "loss1/ave_pool"
  top: "loss1/conv"
  param {
    lr_mult: 1
    decay_mult: 1
  }
  param {
    lr_mult: 2
    decay_mult: 0
  }
  convolution_param {
    num_output: 128
    kernel_size: 1
    weight_filler {
      type: "xavier"
      std: 0.08
    }
    bias_filler {
      type: "constant"
      value: 0.2
    }
  }
}
layer {
  name: "loss1/relu_conv"
  type: "ReLU"
  bottom: "loss1/conv"
  top: "loss1/conv"
}
layer {
  name: "loss1/fc"
  type: "InnerProduct"
  bottom: "loss1/conv"
  top: "loss1/fc"
  param {
    lr_mult: 1
    decay_mult: 1
  }
  param {
    lr_mult: 2
    decay_mult: 0
  }
  inner_product_param {
    num_output: 1024
    weight_filler {
      type: "xavier"
      std: 0.02
    }
    bias_filler {
      type: "constant"
      value: 0.2
    }
  }
}
layer {
  name: "loss1/relu_fc"
  type: "ReLU"
  bottom: "loss1/fc"
  top: "loss1/fc"
}
layer {
  name: "loss1/drop_fc"
  type: "Dropout"
  bottom: "loss1/fc"
  top: "loss1/fc"
  dropout_param {
    dropout_ratio: 0.7
  }
}
layer {
  name: "loss1/classifier_plantvillage"
  type: "InnerProduct"
  bottom: "loss1/fc"
  top: "loss1/classifier_plantvillage"
  param {
    lr_mult: 1
    decay_mult: 1
  }
  param {
    lr_mult: 2
    decay_mult: 0
  }
  inner_product_param {
    num_output: 38
    weight_filler {
      type: "xavier"
      std: 0.0009765625
    }
    bias_filler {
      type: "constant"
      value: 0
    }
  }
}
layer {
  name: "inception_4b/1x1"
  type: "Convolution"
  bottom: "inception_4a/output"
  top: "inception_4b/1x1"
  param {
    lr_mult: 1
    decay_mult: 1
  }
  param {
    lr_mult: 2
    decay_mult: 0
  }
  convolution_param {
    num_output: 160
    kernel_size: 1
    weight_filler {
      type: "xavier"
      std: 0.03
    }
    bias_filler {
      type: "constant"
      value: 0.2
    }
  }
}
layer {
  name: "inception_4b/relu_1x1"
  type: "ReLU"
  bottom: "inception_4b/1x1"
  top: "inception_4b/1x1"
}
layer {
  name: "inception_4b/3x3_reduce"
  type: "Convolution"
  bottom: "inception_4a/output"
  top: "inception_4b/3x3_reduce"
  param {
    lr_mult: 1
    decay_mult: 1
  }
  param {
    lr_mult: 2
    decay_mult: 0
  }
  convolution_param {
    num_output: 112
    kernel_size: 1
    weight_filler {
      type: "xavier"
      std: 0.09
    }
    bias_filler {
      type: "constant"
      value: 0.2
    }
  }
}
layer {
  name: "inception_4b/relu_3x3_reduce"
  type: "ReLU"
  bottom: "inception_4b/3x3_reduce"
  top: "inception_4b/3x3_reduce"
}
layer {
  name: "inception_4b/3x3"
  type: "Convolution"
  bottom: "inception_4b/3x3_reduce"
  top: "inception_4b/3x3"
  param {
    lr_mult: 1
    decay_mult: 1
  }
  param {
    lr_mult: 2
    decay_mult: 0
  }
  convolution_param {
    num_output: 224
    pad: 1
    kernel_size: 3
    weight_filler {
      type: "xavier"
      std: 0.03
    }
    bias_filler {
      type: "constant"
      value: 0.2
    }
  }
}
layer {
  name: "inception_4b/relu_3x3"
  type: "ReLU"
  bottom: "inception_4b/3x3"
  top: "inception_4b/3x3"
}
layer {
  name: "inception_4b/5x5_reduce"
  type: "Convolution"
  bottom: "inception_4a/output"
  top: "inception_4b/5x5_reduce"
  param {
    lr_mult: 1
    decay_mult: 1
  }
  param {
    lr_mult: 2
    decay_mult: 0
  }
  convolution_param {
    num_output: 24
    kernel_size: 1
    weight_filler {
      type: "xavier"
      std: 0.2
    }
    bias_filler {
      type: "constant"
      value: 0.2
    }
  }
}
layer {
  name: "inception_4b/relu_5x5_reduce"
  type: "ReLU"
  bottom: "inception_4b/5x5_reduce"
  top: "inception_4b/5x5_reduce"
}
layer {
  name: "inception_4b/5x5"
  type: "Convolution"
  bottom: "inception_4b/5x5_reduce"
  top: "inception_4b/5x5"
  param {
    lr_mult: 1
    decay_mult: 1
  }
  param {
    lr_mult: 2
    decay_mult: 0
  }
  convolution_param {
    num_output: 64
    pad: 2
    kernel_size: 5
    weight_filler {
      type: "xavier"
      std: 0.03
    }
    bias_filler {
      type: "constant"
      value: 0.2
    }
  }
}
layer {
  name: "inception_4b/relu_5x5"
  type: "ReLU"
  bottom: "inception_4b/5x5"
  top: "inception_4b/5x5"
}
layer {
  name: "inception_4b/pool"
  type: "Pooling"
  bottom: "inception_4a/output"
  top: "inception_4b/pool"
  pooling_param {
    pool: MAX
    kernel_size: 3
    stride: 1
    pad: 1
  }
}
layer {
  name: "inception_4b/pool_proj"
  type: "Convolution"
  bottom: "inception_4b/pool"
  top: "inception_4b/pool_proj"
  param {
    lr_mult: 1
    decay_mult: 1
  }
  param {
    lr_mult: 2
    decay_mult: 0
  }
  convolution_param {
    num_output: 64
    kernel_size: 1
    weight_filler {
      type: "xavier"
      std: 0.1
    }
    bias_filler {
      type: "constant"
      value: 0.2
    }
  }
}
layer {
  name: "inception_4b/relu_pool_proj"
  type: "ReLU"
  bottom: "inception_4b/pool_proj"
  top: "inception_4b/pool_proj"
}
layer {
  name: "inception_4b/output"
  type: "Concat"
  bottom: "inception_4b/1x1"
  bottom: "inception_4b/3x3"
  bottom: "inception_4b/5x5"
  bottom: "inception_4b/pool_proj"
  top: "inception_4b/output"
}
layer {
  name: "inception_4c/1x1"
  type: "Convolution"
  bottom: "inception_4b/output"
  top: "inception_4c/1x1"
  param {
    lr_mult: 1
    decay_mult: 1
  }
  param {
    lr_mult: 2
    decay_mult: 0
  }
  convolution_param {
    num_output: 128
    kernel_size: 1
    weight_filler {
      type: "xavier"
      std: 0.03
    }
    bias_filler {
      type: "constant"
      value: 0.2
    }
  }
}
layer {
  name: "inception_4c/relu_1x1"
  type: "ReLU"
  bottom: "inception_4c/1x1"
  top: "inception_4c/1x1"
}
layer {
  name: "inception_4c/3x3_reduce"
  type: "Convolution"
  bottom: "inception_4b/output"
  top: "inception_4c/3x3_reduce"
  param {
    lr_mult: 1
    decay_mult: 1
  }
  param {
    lr_mult: 2
    decay_mult: 0
  }
  convolution_param {
    num_output: 128
    kernel_size: 1
    weight_filler {
      type: "xavier"
      std: 0.09
    }
    bias_filler {
      type: "constant"
      value: 0.2
    }
  }
}
layer {
  name: "inception_4c/relu_3x3_reduce"
  type: "ReLU"
  bottom: "inception_4c/3x3_reduce"
  top: "inception_4c/3x3_reduce"
}
layer {
  name: "inception_4c/3x3"
  type: "Convolution"
  bottom: "inception_4c/3x3_reduce"
  top: "inception_4c/3x3"
  param {
    lr_mult: 1
    decay_mult: 1
  }
  param {
    lr_mult: 2
    decay_mult: 0
  }
  convolution_param {
    num_output: 256
    pad: 1
    kernel_size: 3
    weight_filler {
      type: "xavier"
      std: 0.03
    }
    bias_filler {
      type: "constant"
      value: 0.2
    }
  }
}
layer {
  name: "inception_4c/relu_3x3"
  type: "ReLU"
  bottom: "inception_4c/3x3"
  top: "inception_4c/3x3"
}
layer {
  name: "inception_4c/5x5_reduce"
  type: "Convolution"
  bottom: "inception_4b/output"
  top: "inception_4c/5x5_reduce"
  param {
    lr_mult: 1
    decay_mult: 1
  }
  param {
    lr_mult: 2
    decay_mult: 0
  }
  convolution_param {
    num_output: 24
    kernel_size: 1
    weight_filler {
      type: "xavier"
      std: 0.2
    }
    bias_filler {
      type: "constant"
      value: 0.2
    }
  }
}
layer {
  name: "inception_4c/relu_5x5_reduce"
  type: "ReLU"
  bottom: "inception_4c/5x5_reduce"
  top: "inception_4c/5x5_reduce"
}
layer {
  name: "inception_4c/5x5"
  type: "Convolution"
  bottom: "inception_4c/5x5_reduce"
  top: "inception_4c/5x5"
  param {
    lr_mult: 1
    decay_mult: 1
  }
  param {
    lr_mult: 2
    decay_mult: 0
  }
  convolution_param {
    num_output: 64
    pad: 2
    kernel_size: 5
    weight_filler {
      type: "xavier"
      std: 0.03
    }
    bias_filler {
      type: "constant"
      value: 0.2
    }
  }
}
layer {
  name: "inception_4c/relu_5x5"
  type: "ReLU"
  bottom: "inception_4c/5x5"
  top: "inception_4c/5x5"
}
layer {
  name: "inception_4c/pool"
  type: "Pooling"
  bottom: "inception_4b/output"
  top: "inception_4c/pool"
  pooling_param {
    pool: MAX
    kernel_size: 3
    stride: 1
    pad: 1
  }
}
layer {
  name: "inception_4c/pool_proj"
  type: "Convolution"
  bottom: "inception_4c/pool"
  top: "inception_4c/pool_proj"
  param {
    lr_mult: 1
    decay_mult: 1
  }
  param {
    lr_mult: 2
    decay_mult: 0
  }
  convolution_param {
    num_output: 64
    kernel_size: 1
    weight_filler {
      type: "xavier"
      std: 0.1
    }
    bias_filler {
      type: "constant"
      value: 0.2
    }
  }
}
layer {
  name: "inception_4c/relu_pool_proj"
  type: "ReLU"
  bottom: "inception_4c/pool_proj"
  top: "inception_4c/pool_proj"
}
layer {
  name: "inception_4c/output"
  type: "Concat"
  bottom: "inception_4c/1x1"
  bottom: "inception_4c/3x3"
  bottom: "inception_4c/5x5"
  bottom: "inception_4c/pool_proj"
  top: "inception_4c/output"
}
layer {
  name: "inception_4d/1x1"
  type: "Convolution"
  bottom: "inception_4c/output"
  top: "inception_4d/1x1"
  param {
    lr_mult: 1
    decay_mult: 1
  }
  param {
    lr_mult: 2
    decay_mult: 0
  }
  convolution_param {
    num_output: 112
    kernel_size: 1
    weight_filler {
      type: "xavier"
      std: 0.03
    }
    bias_filler {
      type: "constant"
      value: 0.2
    }
  }
}
layer {
  name: "inception_4d/relu_1x1"
  type: "ReLU"
  bottom: "inception_4d/1x1"
  top: "inception_4d/1x1"
}
layer {
  name: "inception_4d/3x3_reduce"
  type: "Convolution"
  bottom: "inception_4c/output"
  top: "inception_4d/3x3_reduce"
  param {
    lr_mult: 1
    decay_mult: 1
  }
  param {
    lr_mult: 2
    decay_mult: 0
  }
  convolution_param {
    num_output: 144
    kernel_size: 1
    weight_filler {
      type: "xavier"
      std: 0.09
    }
    bias_filler {
      type: "constant"
      value: 0.2
    }
  }
}
layer {
  name: "inception_4d/relu_3x3_reduce"
  type: "ReLU"
  bottom: "inception_4d/3x3_reduce"
  top: "inception_4d/3x3_reduce"
}
layer {
  name: "inception_4d/3x3"
  type: "Convolution"
  bottom: "inception_4d/3x3_reduce"
  top: "inception_4d/3x3"
  param {
    lr_mult: 1
    decay_mult: 1
  }
  param {
    lr_mult: 2
    decay_mult: 0
  }
  convolution_param {
    num_output: 288
    pad: 1
    kernel_size: 3
    weight_filler {
      type: "xavier"
      std: 0.03
    }
    bias_filler {
      type: "constant"
      value: 0.2
    }
  }
}
layer {
  name: "inception_4d/relu_3x3"
  type: "ReLU"
  bottom: "inception_4d/3x3"
  top: "inception_4d/3x3"
}
layer {
  name: "inception_4d/5x5_reduce"
  type: "Convolution"
  bottom: "inception_4c/output"
  top: "inception_4d/5x5_reduce"
  param {
    lr_mult: 1
    decay_mult: 1
  }
  param {
    lr_mult: 2
    decay_mult: 0
  }
  convolution_param {
    num_output: 32
    kernel_size: 1
    weight_filler {
      type: "xavier"
      std: 0.2
    }
    bias_filler {
      type: "constant"
      value: 0.2
    }
  }
}
layer {
  name: "inception_4d/relu_5x5_reduce"
  type: "ReLU"
  bottom: "inception_4d/5x5_reduce"
  top: "inception_4d/5x5_reduce"
}
layer {
  name: "inception_4d/5x5"
  type: "Convolution"
  bottom: "inception_4d/5x5_reduce"
  top: "inception_4d/5x5"
  param {
    lr_mult: 1
    decay_mult: 1
  }
  param {
    lr_mult: 2
    decay_mult: 0
  }
  convolution_param {
    num_output: 64
    pad: 2
    kernel_size: 5
    weight_filler {
      type: "xavier"
      std: 0.03
    }
    bias_filler {
      type: "constant"
      value: 0.2
    }
  }
}
layer {
  name: "inception_4d/relu_5x5"
  type: "ReLU"
  bottom: "inception_4d/5x5"
  top: "inception_4d/5x5"
}
layer {
  name: "inception_4d/pool"
  type: "Pooling"
  bottom: "inception_4c/output"
  top: "inception_4d/pool"
  pooling_param {
    pool: MAX
    kernel_size: 3
    stride: 1
    pad: 1
  }
}
layer {
  name: "inception_4d/pool_proj"
  type: "Convolution"
  bottom: "inception_4d/pool"
  top: "inception_4d/pool_proj"
  param {
    lr_mult: 1
    decay_mult: 1
  }
  param {
    lr_mult: 2
    decay_mult: 0
  }
  convolution_param {
    num_output: 64
    kernel_size: 1
    weight_filler {
      type: "xavier"
      std: 0.1
    }
    bias_filler {
      type: "constant"
      value: 0.2
    }
  }
}
layer {
  name: "inception_4d/relu_pool_proj"
  type: "ReLU"
  bottom: "inception_4d/pool_proj"
  top: "inception_4d/pool_proj"
}
layer {
  name: "inception_4d/output"
  type: "Concat"
  bottom: "inception_4d/1x1"
  bottom: "inception_4d/3x3"
  bottom: "inception_4d/5x5"
  bottom: "inception_4d/pool_proj"
  top: "inception_4d/output"
}
layer {
  name: "loss2/ave_pool"
  type: "Pooling"
  bottom: "inception_4d/output"
  top: "loss2/ave_pool"
  pooling_param {
    pool: AVE
    kernel_size: 5
    stride: 3
  }
}
layer {
  name: "loss2/conv"
  type: "Convolution"
  bottom: "loss2/ave_pool"
  top: "loss2/conv"
  param {
    lr_mult: 1
    decay_mult: 1
  }
  param {
    lr_mult: 2
    decay_mult: 0
  }
  convolution_param {
    num_output: 128
    kernel_size: 1
    weight_filler {
      type: "xavier"
      std: 0.08
    }
    bias_filler {
      type: "constant"
      value: 0.2
    }
  }
}
layer {
  name: "loss2/relu_conv"
  type: "ReLU"
  bottom: "loss2/conv"
  top: "loss2/conv"
}
layer {
  name: "loss2/fc"
  type: "InnerProduct"
  bottom: "loss2/conv"
  top: "loss2/fc"
  param {
    lr_mult: 1
    decay_mult: 1
  }
  param {
    lr_mult: 2
    decay_mult: 0
  }
  inner_product_param {
    num_output: 1024
    weight_filler {
      type: "xavier"
      std: 0.02
    }
    bias_filler {
      type: "constant"
      value: 0.2
    }
  }
}
layer {
  name: "loss2/relu_fc"
  type: "ReLU"
  bottom: "loss2/fc"
  top: "loss2/fc"
}
layer {
  name: "loss2/drop_fc"
  type: "Dropout"
  bottom: "loss2/fc"
  top: "loss2/fc"
  dropout_param {
    dropout_ratio: 0.7
  }
}
layer {
  name: "loss2/classifier_plantvillage"
  type: "InnerProduct"
  bottom: "loss2/fc"
  top: "loss2/classifier_plantvillage"
  param {
    lr_mult: 1
    decay_mult: 1
  }
  param {
    lr_mult: 2
    decay_mult: 0
  }
  inner_product_param {
    num_output: 38
    weight_filler {
      type: "xavier"
      std: 0.0009765625
    }
    bias_filler {
      type: "constant"
      value: 0
    }
  }
}
layer {
  name: "inception_4e/1x1"
  type: "Convolution"
  bottom: "inception_4d/output"
  top: "inception_4e/1x1"
  param {
    lr_mult: 1
    decay_mult: 1
  }
  param {
    lr_mult: 2
    decay_mult: 0
  }
  convolution_param {
    num_output: 256
    kernel_size: 1
    weight_filler {
      type: "xavier"
      std: 0.03
    }
    bias_filler {
      type: "constant"
      value: 0.2
    }
  }
}
layer {
  name: "inception_4e/relu_1x1"
  type: "ReLU"
  bottom: "inception_4e/1x1"
  top: "inception_4e/1x1"
}
layer {
  name: "inception_4e/3x3_reduce"
  type: "Convolution"
  bottom: "inception_4d/output"
  top: "inception_4e/3x3_reduce"
  param {
    lr_mult: 1
    decay_mult: 1
  }
  param {
    lr_mult: 2
    decay_mult: 0
  }
  convolution_param {
    num_output: 160
    kernel_size: 1
    weight_filler {
      type: "xavier"
      std: 0.09
    }
    bias_filler {
      type: "constant"
      value: 0.2
    }
  }
}
layer {
  name: "inception_4e/relu_3x3_reduce"
  type: "ReLU"
  bottom: "inception_4e/3x3_reduce"
  top: "inception_4e/3x3_reduce"
}
layer {
  name: "inception_4e/3x3"
  type: "Convolution"
  bottom: "inception_4e/3x3_reduce"
  top: "inception_4e/3x3"
  param {
    lr_mult: 1
    decay_mult: 1
  }
  param {
    lr_mult: 2
    decay_mult: 0
  }
  convolution_param {
    num_output: 320
    pad: 1
    kernel_size: 3
    weight_filler {
      type: "xavier"
      std: 0.03
    }
    bias_filler {
      type: "constant"
      value: 0.2
    }
  }
}
layer {
  name: "inception_4e/relu_3x3"
  type: "ReLU"
  bottom: "inception_4e/3x3"
  top: "inception_4e/3x3"
}
layer {
  name: "inception_4e/5x5_reduce"
  type: "Convolution"
  bottom: "inception_4d/output"
  top: "inception_4e/5x5_reduce"
  param {
    lr_mult: 1
    decay_mult: 1
  }
  param {
    lr_mult: 2
    decay_mult: 0
  }
  convolution_param {
    num_output: 32
    kernel_size: 1
    weight_filler {
      type: "xavier"
      std: 0.2
    }
    bias_filler {
      type: "constant"
      value: 0.2
    }
  }
}
layer {
  name: "inception_4e/relu_5x5_reduce"
  type: "ReLU"
  bottom: "inception_4e/5x5_reduce"
  top: "inception_4e/5x5_reduce"
}
layer {
  name: "inception_4e/5x5"
  type: "Convolution"
  bottom: "inception_4e/5x5_reduce"
  top: "inception_4e/
I0403 15:11:23.429091  2781 layer_factory.hpp:77] Creating layer data
I0403 15:11:23.429720  2781 net.cpp:91] Creating Layer data
I0403 15:11:23.429752  2781 net.cpp:399] data -> data
I0403 15:11:23.429805  2781 net.cpp:399] data -> label
I0403 15:11:23.429843  2781 data_transformer.cpp:25] Loading mean file from: /home/mohanty/data/final_dataset/lmdb/segmented-60-40/mean.binaryproto
I0403 15:11:23.432574  2788 db_lmdb.cpp:38] Opened lmdb /home/mohanty/data/final_dataset/lmdb/segmented-60-40/test_db
I0403 15:11:23.443229  2781 data_layer.cpp:41] output data size: 24,3,224,224
I0403 15:11:23.473181  2781 net.cpp:141] Setting up data
I0403 15:11:23.473276  2781 net.cpp:148] Top shape: 24 3 224 224 (3612672)
I0403 15:11:23.473299  2781 net.cpp:148] Top shape: 24 (24)
I0403 15:11:23.473315  2781 net.cpp:156] Memory required for data: 14450784
I0403 15:11:23.473343  2781 layer_factory.hpp:77] Creating layer label_data_1_split
I0403 15:11:23.473371  2781 net.cpp:91] Creating Layer label_data_1_split
I0403 15:11:23.473388  2781 net.cpp:425] label_data_1_split <- label
I0403 15:11:23.473420  2781 net.cpp:399] label_data_1_split -> label_data_1_split_0
I0403 15:11:23.473448  2781 net.cpp:399] label_data_1_split -> label_data_1_split_1
I0403 15:11:23.473470  2781 net.cpp:399] label_data_1_split -> label_data_1_split_2
I0403 15:11:23.473494  2781 net.cpp:399] label_data_1_split -> label_data_1_split_3
I0403 15:11:23.473513  2781 net.cpp:399] label_data_1_split -> label_data_1_split_4
I0403 15:11:23.473534  2781 net.cpp:399] label_data_1_split -> label_data_1_split_5
I0403 15:11:23.473554  2781 net.cpp:399] label_data_1_split -> label_data_1_split_6
I0403 15:11:23.473575  2781 net.cpp:399] label_data_1_split -> label_data_1_split_7
I0403 15:11:23.473595  2781 net.cpp:399] label_data_1_split -> label_data_1_split_8
I0403 15:11:23.473616  2781 net.cpp:399] label_data_1_split -> label_data_1_split_9
I0403 15:11:23.473739  2781 net.cpp:141] Setting up label_data_1_split
I0403 15:11:23.473762  2781 net.cpp:148] Top shape: 24 (24)
I0403 15:11:23.473780  2781 net.cpp:148] Top shape: 24 (24)
I0403 15:11:23.473798  2781 net.cpp:148] Top shape: 24 (24)
I0403 15:11:23.473814  2781 net.cpp:148] Top shape: 24 (24)
I0403 15:11:23.473830  2781 net.cpp:148] Top shape: 24 (24)
I0403 15:11:23.473846  2781 net.cpp:148] Top shape: 24 (24)
I0403 15:11:23.473862  2781 net.cpp:148] Top shape: 24 (24)
I0403 15:11:23.473878  2781 net.cpp:148] Top shape: 24 (24)
I0403 15:11:23.473894  2781 net.cpp:148] Top shape: 24 (24)
I0403 15:11:23.473912  2781 net.cpp:148] Top shape: 24 (24)
I0403 15:11:23.473956  2781 net.cpp:156] Memory required for data: 14451744
I0403 15:11:23.473973  2781 layer_factory.hpp:77] Creating layer conv1/7x7_s2
I0403 15:11:23.474006  2781 net.cpp:91] Creating Layer conv1/7x7_s2
I0403 15:11:23.474025  2781 net.cpp:425] conv1/7x7_s2 <- data
I0403 15:11:23.474045  2781 net.cpp:399] conv1/7x7_s2 -> conv1/7x7_s2
I0403 15:11:23.622685  2781 net.cpp:141] Setting up conv1/7x7_s2
I0403 15:11:23.622773  2781 net.cpp:148] Top shape: 24 64 112 112 (19267584)
I0403 15:11:23.622791  2781 net.cpp:156] Memory required for data: 91522080
I0403 15:11:23.622820  2781 layer_factory.hpp:77] Creating layer conv1/relu_7x7
I0403 15:11:23.622846  2781 net.cpp:91] Creating Layer conv1/relu_7x7
I0403 15:11:23.622864  2781 net.cpp:425] conv1/relu_7x7 <- conv1/7x7_s2
I0403 15:11:23.622884  2781 net.cpp:386] conv1/relu_7x7 -> conv1/7x7_s2 (in-place)
I0403 15:11:23.623136  2781 net.cpp:141] Setting up conv1/relu_7x7
I0403 15:11:23.623162  2781 net.cpp:148] Top shape: 24 64 112 112 (19267584)
I0403 15:11:23.623188  2781 net.cpp:156] Memory required for data: 168592416
I0403 15:11:23.623206  2781 layer_factory.hpp:77] Creating layer pool1/3x3_s2
I0403 15:11:23.623232  2781 net.cpp:91] Creating Layer pool1/3x3_s2
I0403 15:11:23.623261  2781 net.cpp:425] pool1/3x3_s2 <- conv1/7x7_s2
I0403 15:11:23.623281  2781 net.cpp:399] pool1/3x3_s2 -> pool1/3x3_s2
I0403 15:11:23.623353  2781 net.cpp:141] Setting up pool1/3x3_s2
I0403 15:11:23.623378  2781 net.cpp:148] Top shape: 24 64 56 56 (4816896)
I0403 15:11:23.623394  2781 net.cpp:156] Memory required for data: 187860000
I0403 15:11:23.623409  2781 layer_factory.hpp:77] Creating layer pool1/norm1
I0403 15:11:23.623433  2781 net.cpp:91] Creating Layer pool1/norm1
I0403 15:11:23.623451  2781 net.cpp:425] pool1/norm1 <- pool1/3x3_s2
I0403 15:11:23.623469  2781 net.cpp:399] pool1/norm1 -> pool1/norm1
I0403 15:11:23.623760  2781 net.cpp:141] Setting up pool1/norm1
I0403 15:11:23.623787  2781 net.cpp:148] Top shape: 24 64 56 56 (4816896)
I0403 15:11:23.623802  2781 net.cpp:156] Memory required for data: 207127584
I0403 15:11:23.623817  2781 layer_factory.hpp:77] Creating layer conv2/3x3_reduce
I0403 15:11:23.623842  2781 net.cpp:91] Creating Layer conv2/3x3_reduce
I0403 15:11:23.623857  2781 net.cpp:425] conv2/3x3_reduce <- pool1/norm1
I0403 15:11:23.623875  2781 net.cpp:399] conv2/3x3_reduce -> conv2/3x3_reduce
I0403 15:11:23.625231  2781 net.cpp:141] Setting up conv2/3x3_reduce
I0403 15:11:23.625273  2781 net.cpp:148] Top shape: 24 64 56 56 (4816896)
I0403 15:11:23.625289  2781 net.cpp:156] Memory required for data: 226395168
I0403 15:11:23.625314  2781 layer_factory.hpp:77] Creating layer conv2/relu_3x3_reduce
I0403 15:11:23.625334  2781 net.cpp:91] Creating Layer conv2/relu_3x3_reduce
I0403 15:11:23.625350  2781 net.cpp:425] conv2/relu_3x3_reduce <- conv2/3x3_reduce
I0403 15:11:23.625367  2781 net.cpp:386] conv2/relu_3x3_reduce -> conv2/3x3_reduce (in-place)
I0403 15:11:23.625651  2781 net.cpp:141] Setting up conv2/relu_3x3_reduce
I0403 15:11:23.625677  2781 net.cpp:148] Top shape: 24 64 56 56 (4816896)
I0403 15:11:23.625692  2781 net.cpp:156] Memory required for data: 245662752
I0403 15:11:23.625707  2781 layer_factory.hpp:77] Creating layer conv2/3x3
I0403 15:11:23.625732  2781 net.cpp:91] Creating Layer conv2/3x3
I0403 15:11:23.625751  2781 net.cpp:425] conv2/3x3 <- conv2/3x3_reduce
I0403 15:11:23.625768  2781 net.cpp:399] conv2/3x3 -> conv2/3x3
I0403 15:11:23.628191  2781 net.cpp:141] Setting up conv2/3x3
I0403 15:11:23.628221  2781 net.cpp:148] Top shape: 24 192 56 56 (14450688)
I0403 15:11:23.628238  2781 net.cpp:156] Memory required for data: 303465504
I0403 15:11:23.628273  2781 layer_factory.hpp:77] Creating layer conv2/relu_3x3
I0403 15:11:23.628290  2781 net.cpp:91] Creating Layer conv2/relu_3x3
I0403 15:11:23.628306  2781 net.cpp:425] conv2/relu_3x3 <- conv2/3x3
I0403 15:11:23.628324  2781 net.cpp:386] conv2/relu_3x3 -> conv2/3x3 (in-place)
I0403 15:11:23.628500  2781 net.cpp:141] Setting up conv2/relu_3x3
I0403 15:11:23.628525  2781 net.cpp:148] Top shape: 24 192 56 56 (14450688)
I0403 15:11:23.628579  2781 net.cpp:156] Memory required for data: 361268256
I0403 15:11:23.628595  2781 layer_factory.hpp:77] Creating layer conv2/norm2
I0403 15:11:23.628615  2781 net.cpp:91] Creating Layer conv2/norm2
I0403 15:11:23.628633  2781 net.cpp:425] conv2/norm2 <- conv2/3x3
I0403 15:11:23.628650  2781 net.cpp:399] conv2/norm2 -> conv2/norm2
I0403 15:11:23.628940  2781 net.cpp:141] Setting up conv2/norm2
I0403 15:11:23.628967  2781 net.cpp:148] Top shape: 24 192 56 56 (14450688)
I0403 15:11:23.628980  2781 net.cpp:156] Memory required for data: 419071008
I0403 15:11:23.628995  2781 layer_factory.hpp:77] Creating layer pool2/3x3_s2
I0403 15:11:23.629015  2781 net.cpp:91] Creating Layer pool2/3x3_s2
I0403 15:11:23.629032  2781 net.cpp:425] pool2/3x3_s2 <- conv2/norm2
I0403 15:11:23.629050  2781 net.cpp:399] pool2/3x3_s2 -> pool2/3x3_s2
I0403 15:11:23.629101  2781 net.cpp:141] Setting up pool2/3x3_s2
I0403 15:11:23.629122  2781 net.cpp:148] Top shape: 24 192 28 28 (3612672)
I0403 15:11:23.629137  2781 net.cpp:156] Memory required for data: 433521696
I0403 15:11:23.629151  2781 layer_factory.hpp:77] Creating layer pool2/3x3_s2_pool2/3x3_s2_0_split
I0403 15:11:23.629168  2781 net.cpp:91] Creating Layer pool2/3x3_s2_pool2/3x3_s2_0_split
I0403 15:11:23.629187  2781 net.cpp:425] pool2/3x3_s2_pool2/3x3_s2_0_split <- pool2/3x3_s2
I0403 15:11:23.629207  2781 net.cpp:399] pool2/3x3_s2_pool2/3x3_s2_0_split -> pool2/3x3_s2_pool2/3x3_s2_0_split_0
I0403 15:11:23.629227  2781 net.cpp:399] pool2/3x3_s2_pool2/3x3_s2_0_split -> pool2/3x3_s2_pool2/3x3_s2_0_split_1
I0403 15:11:23.629246  2781 net.cpp:399] pool2/3x3_s2_pool2/3x3_s2_0_split -> pool2/3x3_s2_pool2/3x3_s2_0_split_2
I0403 15:11:23.629278  2781 net.cpp:399] pool2/3x3_s2_pool2/3x3_s2_0_split -> pool2/3x3_s2_pool2/3x3_s2_0_split_3
I0403 15:11:23.629351  2781 net.cpp:141] Setting up pool2/3x3_s2_pool2/3x3_s2_0_split
I0403 15:11:23.629376  2781 net.cpp:148] Top shape: 24 192 28 28 (3612672)
I0403 15:11:23.629393  2781 net.cpp:148] Top shape: 24 192 28 28 (3612672)
I0403 15:11:23.629408  2781 net.cpp:148] Top shape: 24 192 28 28 (3612672)
I0403 15:11:23.629423  2781 net.cpp:148] Top shape: 24 192 28 28 (3612672)
I0403 15:11:23.629438  2781 net.cpp:156] Memory required for data: 491324448
I0403 15:11:23.629453  2781 layer_factory.hpp:77] Creating layer inception_3a/1x1
I0403 15:11:23.629474  2781 net.cpp:91] Creating Layer inception_3a/1x1
I0403 15:11:23.629492  2781 net.cpp:425] inception_3a/1x1 <- pool2/3x3_s2_pool2/3x3_s2_0_split_0
I0403 15:11:23.629510  2781 net.cpp:399] inception_3a/1x1 -> inception_3a/1x1
I0403 15:11:23.631026  2781 net.cpp:141] Setting up inception_3a/1x1
I0403 15:11:23.631053  2781 net.cpp:148] Top shape: 24 64 28 28 (1204224)
I0403 15:11:23.631068  2781 net.cpp:156] Memory required for data: 496141344
I0403 15:11:23.631086  2781 layer_factory.hpp:77] Creating layer inception_3a/relu_1x1
I0403 15:11:23.631106  2781 net.cpp:91] Creating Layer inception_3a/relu_1x1
I0403 15:11:23.631124  2781 net.cpp:425] inception_3a/relu_1x1 <- inception_3a/1x1
I0403 15:11:23.631139  2781 net.cpp:386] inception_3a/relu_1x1 -> inception_3a/1x1 (in-place)
I0403 15:11:23.631328  2781 net.cpp:141] Setting up inception_3a/relu_1x1
I0403 15:11:23.631356  2781 net.cpp:148] Top shape: 24 64 28 28 (1204224)
I0403 15:11:23.631371  2781 net.cpp:156] Memory required for data: 500958240
I0403 15:11:23.631386  2781 layer_factory.hpp:77] Creating layer inception_3a/3x3_reduce
I0403 15:11:23.631408  2781 net.cpp:91] Creating Layer inception_3a/3x3_reduce
I0403 15:11:23.631425  2781 net.cpp:425] inception_3a/3x3_reduce <- pool2/3x3_s2_pool2/3x3_s2_0_split_1
I0403 15:11:23.631445  2781 net.cpp:399] inception_3a/3x3_reduce -> inception_3a/3x3_reduce
I0403 15:11:23.633095  2781 net.cpp:141] Setting up inception_3a/3x3_reduce
I0403 15:11:23.633123  2781 net.cpp:148] Top shape: 24 96 28 28 (1806336)
I0403 15:11:23.633138  2781 net.cpp:156] Memory required for data: 508183584
I0403 15:11:23.633162  2781 layer_factory.hpp:77] Creating layer inception_3a/relu_3x3_reduce
I0403 15:11:23.633205  2781 net.cpp:91] Creating Layer inception_3a/relu_3x3_reduce
I0403 15:11:23.633224  2781 net.cpp:425] inception_3a/relu_3x3_reduce <- inception_3a/3x3_reduce
I0403 15:11:23.633242  2781 net.cpp:386] inception_3a/relu_3x3_reduce -> inception_3a/3x3_reduce (in-place)
I0403 15:11:23.633417  2781 net.cpp:141] Setting up inception_3a/relu_3x3_reduce
I0403 15:11:23.633443  2781 net.cpp:148] Top shape: 24 96 28 28 (1806336)
I0403 15:11:23.633457  2781 net.cpp:156] Memory required for data: 515408928
I0403 15:11:23.633472  2781 layer_factory.hpp:77] Creating layer inception_3a/3x3
I0403 15:11:23.633494  2781 net.cpp:91] Creating Layer inception_3a/3x3
I0403 15:11:23.633510  2781 net.cpp:425] inception_3a/3x3 <- inception_3a/3x3_reduce
I0403 15:11:23.633532  2781 net.cpp:399] inception_3a/3x3 -> inception_3a/3x3
I0403 15:11:23.635123  2781 net.cpp:141] Setting up inception_3a/3x3
I0403 15:11:23.635150  2781 net.cpp:148] Top shape: 24 128 28 28 (2408448)
I0403 15:11:23.635165  2781 net.cpp:156] Memory required for data: 525042720
I0403 15:11:23.635187  2781 layer_factory.hpp:77] Creating layer inception_3a/relu_3x3
I0403 15:11:23.635210  2781 net.cpp:91] Creating Layer inception_3a/relu_3x3
I0403 15:11:23.635226  2781 net.cpp:425] inception_3a/relu_3x3 <- inception_3a/3x3
I0403 15:11:23.635242  2781 net.cpp:386] inception_3a/relu_3x3 -> inception_3a/3x3 (in-place)
I0403 15:11:23.635509  2781 net.cpp:141] Setting up inception_3a/relu_3x3
I0403 15:11:23.635535  2781 net.cpp:148] Top shape: 24 128 28 28 (2408448)
I0403 15:11:23.635548  2781 net.cpp:156] Memory required for data: 534676512
I0403 15:11:23.635563  2781 layer_factory.hpp:77] Creating layer inception_3a/5x5_reduce
I0403 15:11:23.635587  2781 net.cpp:91] Creating Layer inception_3a/5x5_reduce
I0403 15:11:23.635603  2781 net.cpp:425] inception_3a/5x5_reduce <- pool2/3x3_s2_pool2/3x3_s2_0_split_2
I0403 15:11:23.635622  2781 net.cpp:399] inception_3a/5x5_reduce -> inception_3a/5x5_reduce
I0403 15:11:23.636548  2781 net.cpp:141] Setting up inception_3a/5x5_reduce
I0403 15:11:23.636577  2781 net.cpp:148] Top shape: 24 16 28 28 (301056)
I0403 15:11:23.636592  2781 net.cpp:156] Memory required for data: 535880736
I0403 15:11:23.636610  2781 layer_factory.hpp:77] Creating layer inception_3a/relu_5x5_reduce
I0403 15:11:23.636627  2781 net.cpp:91] Creating Layer inception_3a/relu_5x5_reduce
I0403 15:11:23.636643  2781 net.cpp:425] inception_3a/relu_5x5_reduce <- inception_3a/5x5_reduce
I0403 15:11:23.636663  2781 net.cpp:386] inception_3a/relu_5x5_reduce -> inception_3a/5x5_reduce (in-place)
I0403 15:11:23.636952  2781 net.cpp:141] Setting up inception_3a/relu_5x5_reduce
I0403 15:11:23.636977  2781 net.cpp:148] Top shape: 24 16 28 28 (301056)
I0403 15:11:23.636992  2781 net.cpp:156] Memory required for data: 537084960
I0403 15:11:23.637006  2781 layer_factory.hpp:77] Creating layer inception_3a/5x5
I0403 15:11:23.637028  2781 net.cpp:91] Creating Layer inception_3a/5x5
I0403 15:11:23.637045  2781 net.cpp:425] inception_3a/5x5 <- inception_3a/5x5_reduce
I0403 15:11:23.637065  2781 net.cpp:399] inception_3a/5x5 -> inception_3a/5x5
I0403 15:11:23.638036  2781 net.cpp:141] Setting up inception_3a/5x5
I0403 15:11:23.638062  2781 net.cpp:148] Top shape: 24 32 28 28 (602112)
I0403 15:11:23.638077  2781 net.cpp:156] Memory required for data: 539493408
I0403 15:11:23.638094  2781 layer_factory.hpp:77] Creating layer inception_3a/relu_5x5
I0403 15:11:23.638114  2781 net.cpp:91] Creating Layer inception_3a/relu_5x5
I0403 15:11:23.638130  2781 net.cpp:425] inception_3a/relu_5x5 <- inception_3a/5x5
I0403 15:11:23.638147  2781 net.cpp:386] inception_3a/relu_5x5 -> inception_3a/5x5 (in-place)
I0403 15:11:23.638335  2781 net.cpp:141] Setting up inception_3a/relu_5x5
I0403 15:11:23.638361  2781 net.cpp:148] Top shape: 24 32 28 28 (602112)
I0403 15:11:23.638376  2781 net.cpp:156] Memory required for data: 541901856
I0403 15:11:23.638391  2781 layer_factory.hpp:77] Creating layer inception_3a/pool
I0403 15:11:23.638409  2781 net.cpp:91] Creating Layer inception_3a/pool
I0403 15:11:23.638439  2781 net.cpp:425] inception_3a/pool <- pool2/3x3_s2_pool2/3x3_s2_0_split_3
I0403 15:11:23.638473  2781 net.cpp:399] inception_3a/pool -> inception_3a/pool
I0403 15:11:23.638528  2781 net.cpp:141] Setting up inception_3a/pool
I0403 15:11:23.638550  2781 net.cpp:148] Top shape: 24 192 28 28 (3612672)
I0403 15:11:23.638564  2781 net.cpp:156] Memory required for data: 556352544
I0403 15:11:23.638579  2781 layer_factory.hpp:77] Creating layer inception_3a/pool_proj
I0403 15:11:23.638602  2781 net.cpp:91] Creating Layer inception_3a/pool_proj
I0403 15:11:23.638619  2781 net.cpp:425] inception_3a/pool_proj <- inception_3a/pool
I0403 15:11:23.638638  2781 net.cpp:399] inception_3a/pool_proj -> inception_3a/pool_proj
I0403 15:11:23.639593  2781 net.cpp:141] Setting up inception_3a/pool_proj
I0403 15:11:23.639621  2781 net.cpp:148] Top shape: 24 32 28 28 (602112)
I0403 15:11:23.639634  2781 net.cpp:156] Memory required for data: 558760992
I0403 15:11:23.639657  2781 layer_factory.hpp:77] Creating layer inception_3a/relu_pool_proj
I0403 15:11:23.639677  2781 net.cpp:91] Creating Layer inception_3a/relu_pool_proj
I0403 15:11:23.639693  2781 net.cpp:425] inception_3a/relu_pool_proj <- inception_3a/pool_proj
I0403 15:11:23.639711  2781 net.cpp:386] inception_3a/relu_pool_proj -> inception_3a/pool_proj (in-place)
I0403 15:11:23.639976  2781 net.cpp:141] Setting up inception_3a/relu_pool_proj
I0403 15:11:23.640002  2781 net.cpp:148] Top shape: 24 32 28 28 (602112)
I0403 15:11:23.640015  2781 net.cpp:156] Memory required for data: 561169440
I0403 15:11:23.640030  2781 layer_factory.hpp:77] Creating layer inception_3a/output
I0403 15:11:23.640049  2781 net.cpp:91] Creating Layer inception_3a/output
I0403 15:11:23.640065  2781 net.cpp:425] inception_3a/output <- inception_3a/1x1
I0403 15:11:23.640081  2781 net.cpp:425] inception_3a/output <- inception_3a/3x3
I0403 15:11:23.640097  2781 net.cpp:425] inception_3a/output <- inception_3a/5x5
I0403 15:11:23.640112  2781 net.cpp:425] inception_3a/output <- inception_3a/pool_proj
I0403 15:11:23.640128  2781 net.cpp:399] inception_3a/output -> inception_3a/output
I0403 15:11:23.640173  2781 net.cpp:141] Setting up inception_3a/output
I0403 15:11:23.640202  2781 net.cpp:148] Top shape: 24 256 28 28 (4816896)
I0403 15:11:23.640215  2781 net.cpp:156] Memory required for data: 580437024
I0403 15:11:23.640229  2781 layer_factory.hpp:77] Creating layer inception_3a/output_inception_3a/output_0_split
I0403 15:11:23.640246  2781 net.cpp:91] Creating Layer inception_3a/output_inception_3a/output_0_split
I0403 15:11:23.640261  2781 net.cpp:425] inception_3a/output_inception_3a/output_0_split <- inception_3a/output
I0403 15:11:23.640280  2781 net.cpp:399] inception_3a/output_inception_3a/output_0_split -> inception_3a/output_inception_3a/output_0_split_0
I0403 15:11:23.640300  2781 net.cpp:399] inception_3a/output_inception_3a/output_0_split -> inception_3a/output_inception_3a/output_0_split_1
I0403 15:11:23.640324  2781 net.cpp:399] inception_3a/output_inception_3a/output_0_split -> inception_3a/output_inception_3a/output_0_split_2
I0403 15:11:23.640346  2781 net.cpp:399] inception_3a/output_inception_3a/output_0_split -> inception_3a/output_inception_3a/output_0_split_3
I0403 15:11:23.640416  2781 net.cpp:141] Setting up inception_3a/output_inception_3a/output_0_split
I0403 15:11:23.640439  2781 net.cpp:148] Top shape: 24 256 28 28 (4816896)
I0403 15:11:23.640457  2781 net.cpp:148] Top shape: 24 256 28 28 (4816896)
I0403 15:11:23.640480  2781 net.cpp:148] Top shape: 24 256 28 28 (4816896)
I0403 15:11:23.640494  2781 net.cpp:148] Top shape: 24 256 28 28 (4816896)
I0403 15:11:23.640507  2781 net.cpp:156] Memory required for data: 657507360
I0403 15:11:23.640522  2781 layer_factory.hpp:77] Creating layer inception_3b/1x1
I0403 15:11:23.640540  2781 net.cpp:91] Creating Layer inception_3b/1x1
I0403 15:11:23.640557  2781 net.cpp:425] inception_3b/1x1 <- inception_3a/output_inception_3a/output_0_split_0
I0403 15:11:23.640576  2781 net.cpp:399] inception_3b/1x1 -> inception_3b/1x1
I0403 15:11:23.641666  2781 net.cpp:141] Setting up inception_3b/1x1
I0403 15:11:23.641705  2781 net.cpp:148] Top shape: 24 128 28 28 (2408448)
I0403 15:11:23.641719  2781 net.cpp:156] Memory required for data: 667141152
I0403 15:11:23.641737  2781 layer_factory.hpp:77] Creating layer inception_3b/relu_1x1
I0403 15:11:23.641757  2781 net.cpp:91] Creating Layer inception_3b/relu_1x1
I0403 15:11:23.641773  2781 net.cpp:425] inception_3b/relu_1x1 <- inception_3b/1x1
I0403 15:11:23.641790  2781 net.cpp:386] inception_3b/relu_1x1 -> inception_3b/1x1 (in-place)
I0403 15:11:23.641960  2781 net.cpp:141] Setting up inception_3b/relu_1x1
I0403 15:11:23.641986  2781 net.cpp:148] Top shape: 24 128 28 28 (2408448)
I0403 15:11:23.642001  2781 net.cpp:156] Memory required for data: 676774944
I0403 15:11:23.642015  2781 layer_factory.hpp:77] Creating layer inception_3b/3x3_reduce
I0403 15:11:23.642037  2781 net.cpp:91] Creating Layer inception_3b/3x3_reduce
I0403 15:11:23.642055  2781 net.cpp:425] inception_3b/3x3_reduce <- inception_3a/output_inception_3a/output_0_split_1
I0403 15:11:23.642072  2781 net.cpp:399] inception_3b/3x3_reduce -> inception_3b/3x3_reduce
I0403 15:11:23.643162  2781 net.cpp:141] Setting up inception_3b/3x3_reduce
I0403 15:11:23.643199  2781 net.cpp:148] Top shape: 24 128 28 28 (2408448)
I0403 15:11:23.643215  2781 net.cpp:156] Memory required for data: 686408736
I0403 15:11:23.643234  2781 layer_factory.hpp:77] Creating layer inception_3b/relu_3x3_reduce
I0403 15:11:23.643254  2781 net.cpp:91] Creating Layer inception_3b/relu_3x3_reduce
I0403 15:11:23.643270  2781 net.cpp:425] inception_3b/relu_3x3_reduce <- inception_3b/3x3_reduce
I0403 15:11:23.643286  2781 net.cpp:386] inception_3b/relu_3x3_reduce -> inception_3b/3x3_reduce (in-place)
I0403 15:11:23.643455  2781 net.cpp:141] Setting up inception_3b/relu_3x3_reduce
I0403 15:11:23.643481  2781 net.cpp:148] Top shape: 24 128 28 28 (2408448)
I0403 15:11:23.643496  2781 net.cpp:156] Memory required for data: 696042528
I0403 15:11:23.643510  2781 layer_factory.hpp:77] Creating layer inception_3b/3x3
I0403 15:11:23.643533  2781 net.cpp:91] Creating Layer inception_3b/3x3
I0403 15:11:23.643550  2781 net.cpp:425] inception_3b/3x3 <- inception_3b/3x3_reduce
I0403 15:11:23.643571  2781 net.cpp:399] inception_3b/3x3 -> inception_3b/3x3
I0403 15:11:23.646397  2781 net.cpp:141] Setting up inception_3b/3x3
I0403 15:11:23.646425  2781 net.cpp:148] Top shape: 24 192 28 28 (3612672)
I0403 15:11:23.646440  2781 net.cpp:156] Memory required for data: 710493216
I0403 15:11:23.646458  2781 layer_factory.hpp:77] Creating layer inception_3b/relu_3x3
I0403 15:11:23.646477  2781 net.cpp:91] Creating Layer inception_3b/relu_3x3
I0403 15:11:23.646494  2781 net.cpp:425] inception_3b/relu_3x3 <- inception_3b/3x3
I0403 15:11:23.646510  2781 net.cpp:386] inception_3b/relu_3x3 -> inception_3b/3x3 (in-place)
I0403 15:11:23.646780  2781 net.cpp:141] Setting up inception_3b/relu_3x3
I0403 15:11:23.646805  2781 net.cpp:148] Top shape: 24 192 28 28 (3612672)
I0403 15:11:23.646819  2781 net.cpp:156] Memory required for data: 724943904
I0403 15:11:23.646833  2781 layer_factory.hpp:77] Creating layer inception_3b/5x5_reduce
I0403 15:11:23.646857  2781 net.cpp:91] Creating Layer inception_3b/5x5_reduce
I0403 15:11:23.646874  2781 net.cpp:425] inception_3b/5x5_reduce <- inception_3a/output_inception_3a/output_0_split_2
I0403 15:11:23.646893  2781 net.cpp:399] inception_3b/5x5_reduce -> inception_3b/5x5_reduce
I0403 15:11:23.647861  2781 net.cpp:141] Setting up inception_3b/5x5_reduce
I0403 15:11:23.647888  2781 net.cpp:148] Top shape: 24 32 28 28 (602112)
I0403 15:11:23.647902  2781 net.cpp:156] Memory required for data: 727352352
I0403 15:11:23.647920  2781 layer_factory.hpp:77] Creating layer inception_3b/relu_5x5_reduce
I0403 15:11:23.647939  2781 net.cpp:91] Creating Layer inception_3b/relu_5x5_reduce
I0403 15:11:23.647955  2781 net.cpp:425] inception_3b/relu_5x5_reduce <- inception_3b/5x5_reduce
I0403 15:11:23.647972  2781 net.cpp:386] inception_3b/relu_5x5_reduce -> inception_3b/5x5_reduce (in-place)
I0403 15:11:23.648156  2781 net.cpp:141] Setting up inception_3b/relu_5x5_reduce
I0403 15:11:23.648183  2781 net.cpp:148] Top shape: 24 32 28 28 (602112)
I0403 15:11:23.648200  2781 net.cpp:156] Memory required for data: 729760800
I0403 15:11:23.648213  2781 layer_factory.hpp:77] Creating layer inception_3b/5x5
I0403 15:11:23.648236  2781 net.cpp:91] Creating Layer inception_3b/5x5
I0403 15:11:23.648252  2781 net.cpp:425] inception_3b/5x5 <- inception_3b/5x5_reduce
I0403 15:11:23.648272  2781 net.cpp:399] inception_3b/5x5 -> inception_3b/5x5
I0403 15:11:23.650171  2781 net.cpp:141] Setting up inception_3b/5x5
I0403 15:11:23.650202  2781 net.cpp:148] Top shape: 24 96 28 28 (1806336)
I0403 15:11:23.650218  2781 net.cpp:156] Memory required for data: 736986144
I0403 15:11:23.650235  2781 layer_factory.hpp:77] Creating layer inception_3b/relu_5x5
I0403 15:11:23.650256  2781 net.cpp:91] Creating Layer inception_3b/relu_5x5
I0403 15:11:23.650272  2781 net.cpp:425] inception_3b/relu_5x5 <- inception_3b/5x5
I0403 15:11:23.650290  2781 net.cpp:386] inception_3b/relu_5x5 -> inception_3b/5x5 (in-place)
I0403 15:11:23.650475  2781 net.cpp:141] Setting up inception_3b/relu_5x5
I0403 15:11:23.650501  2781 net.cpp:148] Top shape: 24 96 28 28 (1806336)
I0403 15:11:23.650514  2781 net.cpp:156] Memory required for data: 744211488
I0403 15:11:23.650528  2781 layer_factory.hpp:77] Creating layer inception_3b/pool
I0403 15:11:23.650545  2781 net.cpp:91] Creating Layer inception_3b/pool
I0403 15:11:23.650560  2781 net.cpp:425] inception_3b/pool <- inception_3a/output_inception_3a/output_0_split_3
I0403 15:11:23.650578  2781 net.cpp:399] inception_3b/pool -> inception_3b/pool
I0403 15:11:23.650631  2781 net.cpp:141] Setting up inception_3b/pool
I0403 15:11:23.650653  2781 net.cpp:148] Top shape: 24 256 28 28 (4816896)
I0403 15:11:23.650667  2781 net.cpp:156] Memory required for data: 763479072
I0403 15:11:23.650683  2781 layer_factory.hpp:77] Creating layer inception_3b/pool_proj
I0403 15:11:23.650704  2781 net.cpp:91] Creating Layer inception_3b/pool_proj
I0403 15:11:23.650722  2781 net.cpp:425] inception_3b/pool_proj <- inception_3b/pool
I0403 15:11:23.650740  2781 net.cpp:399] inception_3b/pool_proj -> inception_3b/pool_proj
I0403 15:11:23.651754  2781 net.cpp:141] Setting up inception_3b/pool_proj
I0403 15:11:23.651782  2781 net.cpp:148] Top shape: 24 64 28 28 (1204224)
I0403 15:11:23.651796  2781 net.cpp:156] Memory required for data: 768295968
I0403 15:11:23.651814  2781 layer_factory.hpp:77] Creating layer inception_3b/relu_pool_proj
I0403 15:11:23.651832  2781 net.cpp:91] Creating Layer inception_3b/relu_pool_proj
I0403 15:11:23.651847  2781 net.cpp:425] inception_3b/relu_pool_proj <- inception_3b/pool_proj
I0403 15:11:23.651866  2781 net.cpp:386] inception_3b/relu_pool_proj -> inception_3b/pool_proj (in-place)
I0403 15:11:23.652278  2781 net.cpp:141] Setting up inception_3b/relu_pool_proj
I0403 15:11:23.652307  2781 net.cpp:148] Top shape: 24 64 28 28 (1204224)
I0403 15:11:23.652323  2781 net.cpp:156] Memory required for data: 773112864
I0403 15:11:23.652338  2781 layer_factory.hpp:77] Creating layer inception_3b/output
I0403 15:11:23.652356  2781 net.cpp:91] Creating Layer inception_3b/output
I0403 15:11:23.652372  2781 net.cpp:425] inception_3b/output <- inception_3b/1x1
I0403 15:11:23.652387  2781 net.cpp:425] inception_3b/output <- inception_3b/3x3
I0403 15:11:23.652403  2781 net.cpp:425] inception_3b/output <- inception_3b/5x5
I0403 15:11:23.652420  2781 net.cpp:425] inception_3b/output <- inception_3b/pool_proj
I0403 15:11:23.652439  2781 net.cpp:399] inception_3b/output -> inception_3b/output
I0403 15:11:23.652482  2781 net.cpp:141] Setting up inception_3b/output
I0403 15:11:23.652505  2781 net.cpp:148] Top shape: 24 480 28 28 (9031680)
I0403 15:11:23.652529  2781 net.cpp:156] Memory required for data: 809239584
I0403 15:11:23.652544  2781 layer_factory.hpp:77] Creating layer pool3/3x3_s2
I0403 15:11:23.652564  2781 net.cpp:91] Creating Layer pool3/3x3_s2
I0403 15:11:23.652580  2781 net.cpp:425] pool3/3x3_s2 <- inception_3b/output
I0403 15:11:23.652611  2781 net.cpp:399] pool3/3x3_s2 -> pool3/3x3_s2
I0403 15:11:23.652672  2781 net.cpp:141] Setting up pool3/3x3_s2
I0403 15:11:23.652694  2781 net.cpp:148] Top shape: 24 480 14 14 (2257920)
I0403 15:11:23.652709  2781 net.cpp:156] Memory required for data: 818271264
I0403 15:11:23.652724  2781 layer_factory.hpp:77] Creating layer pool3/3x3_s2_pool3/3x3_s2_0_split
I0403 15:11:23.652742  2781 net.cpp:91] Creating Layer pool3/3x3_s2_pool3/3x3_s2_0_split
I0403 15:11:23.652756  2781 net.cpp:425] pool3/3x3_s2_pool3/3x3_s2_0_split <- pool3/3x3_s2
I0403 15:11:23.652776  2781 net.cpp:399] pool3/3x3_s2_pool3/3x3_s2_0_split -> pool3/3x3_s2_pool3/3x3_s2_0_split_0
I0403 15:11:23.652796  2781 net.cpp:399] pool3/3x3_s2_pool3/3x3_s2_0_split -> pool3/3x3_s2_pool3/3x3_s2_0_split_1
I0403 15:11:23.652815  2781 net.cpp:399] pool3/3x3_s2_pool3/3x3_s2_0_split -> pool3/3x3_s2_pool3/3x3_s2_0_split_2
I0403 15:11:23.652834  2781 net.cpp:399] pool3/3x3_s2_pool3/3x3_s2_0_split -> pool3/3x3_s2_pool3/3x3_s2_0_split_3
I0403 15:11:23.652915  2781 net.cpp:141] Setting up pool3/3x3_s2_pool3/3x3_s2_0_split
I0403 15:11:23.652938  2781 net.cpp:148] Top shape: 24 480 14 14 (2257920)
I0403 15:11:23.652954  2781 net.cpp:148] Top shape: 24 480 14 14 (2257920)
I0403 15:11:23.652969  2781 net.cpp:148] Top shape: 24 480 14 14 (2257920)
I0403 15:11:23.652984  2781 net.cpp:148] Top shape: 24 480 14 14 (2257920)
I0403 15:11:23.652998  2781 net.cpp:156] Memory required for data: 854397984
I0403 15:11:23.653013  2781 layer_factory.hpp:77] Creating layer inception_4a/1x1
I0403 15:11:23.653034  2781 net.cpp:91] Creating Layer inception_4a/1x1
I0403 15:11:23.653051  2781 net.cpp:425] inception_4a/1x1 <- pool3/3x3_s2_pool3/3x3_s2_0_split_0
I0403 15:11:23.653072  2781 net.cpp:399] inception_4a/1x1 -> inception_4a/1x1
I0403 15:11:23.654667  2781 net.cpp:141] Setting up inception_4a/1x1
I0403 15:11:23.654696  2781 net.cpp:148] Top shape: 24 192 14 14 (903168)
I0403 15:11:23.654712  2781 net.cpp:156] Memory required for data: 858010656
I0403 15:11:23.654731  2781 layer_factory.hpp:77] Creating layer inception_4a/relu_1x1
I0403 15:11:23.654749  2781 net.cpp:91] Creating Layer inception_4a/relu_1x1
I0403 15:11:23.654767  2781 net.cpp:425] inception_4a/relu_1x1 <- inception_4a/1x1
I0403 15:11:23.654786  2781 net.cpp:386] inception_4a/relu_1x1 -> inception_4a/1x1 (in-place)
I0403 15:11:23.654966  2781 net.cpp:141] Setting up inception_4a/relu_1x1
I0403 15:11:23.654992  2781 net.cpp:148] Top shape: 24 192 14 14 (903168)
I0403 15:11:23.655007  2781 net.cpp:156] Memory required for data: 861623328
I0403 15:11:23.655024  2781 layer_factory.hpp:77] Creating layer inception_4a/3x3_reduce
I0403 15:11:23.655046  2781 net.cpp:91] Creating Layer inception_4a/3x3_reduce
I0403 15:11:23.655064  2781 net.cpp:425] inception_4a/3x3_reduce <- pool3/3x3_s2_pool3/3x3_s2_0_split_1
I0403 15:11:23.655086  2781 net.cpp:399] inception_4a/3x3_reduce -> inception_4a/3x3_reduce
I0403 15:11:23.656390  2781 net.cpp:141] Setting up inception_4a/3x3_reduce
I0403 15:11:23.656419  2781 net.cpp:148] Top shape: 24 96 14 14 (451584)
I0403 15:11:23.656436  2781 net.cpp:156] Memory required for data: 863429664
I0403 15:11:23.656462  2781 layer_factory.hpp:77] Creating layer inception_4a/relu_3x3_reduce
I0403 15:11:23.656482  2781 net.cpp:91] Creating Layer inception_4a/relu_3x3_reduce
I0403 15:11:23.656498  2781 net.cpp:425] inception_4a/relu_3x3_reduce <- inception_4a/3x3_reduce
I0403 15:11:23.656518  2781 net.cpp:386] inception_4a/relu_3x3_reduce -> inception_4a/3x3_reduce (in-place)
I0403 15:11:23.656695  2781 net.cpp:141] Setting up inception_4a/relu_3x3_reduce
I0403 15:11:23.656721  2781 net.cpp:148] Top shape: 24 96 14 14 (451584)
I0403 15:11:23.656738  2781 net.cpp:156] Memory required for data: 865236000
I0403 15:11:23.656752  2781 layer_factory.hpp:77] Creating layer inception_4a/3x3
I0403 15:11:23.656775  2781 net.cpp:91] Creating Layer inception_4a/3x3
I0403 15:11:23.656793  2781 net.cpp:425] inception_4a/3x3 <- inception_4a/3x3_reduce
I0403 15:11:23.656816  2781 net.cpp:399] inception_4a/3x3 -> inception_4a/3x3
I0403 15:11:23.659564  2781 net.cpp:141] Setting up inception_4a/3x3
I0403 15:11:23.659596  2781 net.cpp:148] Top shape: 24 208 14 14 (978432)
I0403 15:11:23.659612  2781 net.cpp:156] Memory required for data: 869149728
I0403 15:11:23.659631  2781 layer_factory.hpp:77] Creating layer inception_4a/relu_3x3
I0403 15:11:23.659652  2781 net.cpp:91] Creating Layer inception_4a/relu_3x3
I0403 15:11:23.659670  2781 net.cpp:425] inception_4a/relu_3x3 <- inception_4a/3x3
I0403 15:11:23.659688  2781 net.cpp:386] inception_4a/relu_3x3 -> inception_4a/3x3 (in-place)
I0403 15:11:23.659976  2781 net.cpp:141] Setting up inception_4a/relu_3x3
I0403 15:11:23.660001  2781 net.cpp:148] Top shape: 24 208 14 14 (978432)
I0403 15:11:23.660017  2781 net.cpp:156] Memory required for data: 873063456
I0403 15:11:23.660032  2781 layer_factory.hpp:77] Creating layer inception_4a/5x5_reduce
I0403 15:11:23.660055  2781 net.cpp:91] Creating Layer inception_4a/5x5_reduce
I0403 15:11:23.660073  2781 net.cpp:425] inception_4a/5x5_reduce <- pool3/3x3_s2_pool3/3x3_s2_0_split_2
I0403 15:11:23.660096  2781 net.cpp:399] inception_4a/5x5_reduce -> inception_4a/5x5_reduce
I0403 15:11:23.661144  2781 net.cpp:141] Setting up inception_4a/5x5_reduce
I0403 15:11:23.661171  2781 net.cpp:148] Top shape: 24 16 14 14 (75264)
I0403 15:11:23.661192  2781 net.cpp:156] Memory required for data: 873364512
I0403 15:11:23.661212  2781 layer_factory.hpp:77] Creating layer inception_4a/relu_5x5_reduce
I0403 15:11:23.661233  2781 net.cpp:91] Creating Layer inception_4a/relu_5x5_reduce
I0403 15:11:23.661252  2781 net.cpp:425] inception_4a/relu_5x5_reduce <- inception_4a/5x5_reduce
I0403 15:11:23.661269  2781 net.cpp:386] inception_4a/relu_5x5_reduce -> inception_4a/5x5_reduce (in-place)
I0403 15:11:23.661454  2781 net.cpp:141] Setting up inception_4a/relu_5x5_reduce
I0403 15:11:23.661483  2781 net.cpp:148] Top shape: 24 16 14 14 (75264)
I0403 15:11:23.661497  2781 net.cpp:156] Memory required for data: 873665568
I0403 15:11:23.661512  2781 layer_factory.hpp:77] Creating layer inception_4a/5x5
I0403 15:11:23.661535  2781 net.cpp:91] Creating Layer inception_4a/5x5
I0403 15:11:23.661553  2781 net.cpp:425] inception_4a/5x5 <- inception_4a/5x5_reduce
I0403 15:11:23.661576  2781 net.cpp:399] inception_4a/5x5 -> inception_4a/5x5
I0403 15:11:23.662698  2781 net.cpp:141] Setting up inception_4a/5x5
I0403 15:11:23.662727  2781 net.cpp:148] Top shape: 24 48 14 14 (225792)
I0403 15:11:23.662744  2781 net.cpp:156] Memory required for data: 874568736
I0403 15:11:23.662763  2781 layer_factory.hpp:77] Creating layer inception_4a/relu_5x5
I0403 15:11:23.662782  2781 net.cpp:91] Creating Layer inception_4a/relu_5x5
I0403 15:11:23.662799  2781 net.cpp:425] inception_4a/relu_5x5 <- inception_4a/5x5
I0403 15:11:23.662819  2781 net.cpp:386] inception_4a/relu_5x5 -> inception_4a/5x5 (in-place)
I0403 15:11:23.663004  2781 net.cpp:141] Setting up inception_4a/relu_5x5
I0403 15:11:23.663029  2781 net.cpp:148] Top shape: 24 48 14 14 (225792)
I0403 15:11:23.663044  2781 net.cpp:156] Memory required for data: 875471904
I0403 15:11:23.663059  2781 layer_factory.hpp:77] Creating layer inception_4a/pool
I0403 15:11:23.663079  2781 net.cpp:91] Creating Layer inception_4a/pool
I0403 15:11:23.663094  2781 net.cpp:425] inception_4a/pool <- pool3/3x3_s2_pool3/3x3_s2_0_split_3
I0403 15:11:23.663115  2781 net.cpp:399] inception_4a/pool -> inception_4a/pool
I0403 15:11:23.663188  2781 net.cpp:141] Setting up inception_4a/pool
I0403 15:11:23.663213  2781 net.cpp:148] Top shape: 24 480 14 14 (2257920)
I0403 15:11:23.663229  2781 net.cpp:156] Memory required for data: 884503584
I0403 15:11:23.663244  2781 layer_factory.hpp:77] Creating layer inception_4a/pool_proj
I0403 15:11:23.663269  2781 net.cpp:91] Creating Layer inception_4a/pool_proj
I0403 15:11:23.663286  2781 net.cpp:425] inception_4a/pool_proj <- inception_4a/pool
I0403 15:11:23.663307  2781 net.cpp:399] inception_4a/pool_proj -> inception_4a/pool_proj
I0403 15:11:23.664525  2781 net.cpp:141] Setting up inception_4a/pool_proj
I0403 15:11:23.664554  2781 net.cpp:148] Top shape: 24 64 14 14 (301056)
I0403 15:11:23.664584  2781 net.cpp:156] Memory required for data: 885707808
I0403 15:11:23.664604  2781 layer_factory.hpp:77] Creating layer inception_4a/relu_pool_proj
I0403 15:11:23.664623  2781 net.cpp:91] Creating Layer inception_4a/relu_pool_proj
I0403 15:11:23.664643  2781 net.cpp:425] inception_4a/relu_pool_proj <- inception_4a/pool_proj
I0403 15:11:23.664660  2781 net.cpp:386] inception_4a/relu_pool_proj -> inception_4a/pool_proj (in-place)
I0403 15:11:23.664954  2781 net.cpp:141] Setting up inception_4a/relu_pool_proj
I0403 15:11:23.664981  2781 net.cpp:148] Top shape: 24 64 14 14 (301056)
I0403 15:11:23.664996  2781 net.cpp:156] Memory required for data: 886912032
I0403 15:11:23.665011  2781 layer_factory.hpp:77] Creating layer inception_4a/output
I0403 15:11:23.665029  2781 net.cpp:91] Creating Layer inception_4a/output
I0403 15:11:23.665045  2781 net.cpp:425] inception_4a/output <- inception_4a/1x1
I0403 15:11:23.665061  2781 net.cpp:425] inception_4a/output <- inception_4a/3x3
I0403 15:11:23.665077  2781 net.cpp:425] inception_4a/output <- inception_4a/5x5
I0403 15:11:23.665094  2781 net.cpp:425] inception_4a/output <- inception_4a/pool_proj
I0403 15:11:23.665114  2781 net.cpp:399] inception_4a/output -> inception_4a/output
I0403 15:11:23.665159  2781 net.cpp:141] Setting up inception_4a/output
I0403 15:11:23.665190  2781 net.cpp:148] Top shape: 24 512 14 14 (2408448)
I0403 15:11:23.665208  2781 net.cpp:156] Memory required for data: 896545824
I0403 15:11:23.665223  2781 layer_factory.hpp:77] Creating layer inception_4a/output_inception_4a/output_0_split
I0403 15:11:23.665242  2781 net.cpp:91] Creating Layer inception_4a/output_inception_4a/output_0_split
I0403 15:11:23.665258  2781 net.cpp:425] inception_4a/output_inception_4a/output_0_split <- inception_4a/output
I0403 15:11:23.665278  2781 net.cpp:399] inception_4a/output_inception_4a/output_0_split -> inception_4a/output_inception_4a/output_0_split_0
I0403 15:11:23.665300  2781 net.cpp:399] inception_4a/output_inception_4a/output_0_split -> inception_4a/output_inception_4a/output_0_split_1
I0403 15:11:23.665323  2781 net.cpp:399] inception_4a/output_inception_4a/output_0_split -> inception_4a/output_inception_4a/output_0_split_2
I0403 15:11:23.665343  2781 net.cpp:399] inception_4a/output_inception_4a/output_0_split -> inception_4a/output_inception_4a/output_0_split_3
I0403 15:11:23.665364  2781 net.cpp:399] inception_4a/output_inception_4a/output_0_split -> inception_4a/output_inception_4a/output_0_split_4
I0403 15:11:23.665459  2781 net.cpp:141] Setting up inception_4a/output_inception_4a/output_0_split
I0403 15:11:23.665483  2781 net.cpp:148] Top shape: 24 512 14 14 (2408448)
I0403 15:11:23.665500  2781 net.cpp:148] Top shape: 24 512 14 14 (2408448)
I0403 15:11:23.665516  2781 net.cpp:148] Top shape: 24 512 14 14 (2408448)
I0403 15:11:23.665532  2781 net.cpp:148] Top shape: 24 512 14 14 (2408448)
I0403 15:11:23.665549  2781 net.cpp:148] Top shape: 24 512 14 14 (2408448)
I0403 15:11:23.665562  2781 net.cpp:156] Memory required for data: 944714784
I0403 15:11:23.665576  2781 layer_factory.hpp:77] Creating layer loss1/ave_pool
I0403 15:11:23.665597  2781 net.cpp:91] Creating Layer loss1/ave_pool
I0403 15:11:23.665614  2781 net.cpp:425] loss1/ave_pool <- inception_4a/output_inception_4a/output_0_split_0
I0403 15:11:23.665632  2781 net.cpp:399] loss1/ave_pool -> loss1/ave_pool
I0403 15:11:23.665845  2781 net.cpp:141] Setting up loss1/ave_pool
I0403 15:11:23.665871  2781 net.cpp:148] Top shape: 24 512 4 4 (196608)
I0403 15:11:23.665887  2781 net.cpp:156] Memory required for data: 945501216
I0403 15:11:23.665902  2781 layer_factory.hpp:77] Creating layer loss1/conv
I0403 15:11:23.665925  2781 net.cpp:91] Creating Layer loss1/conv
I0403 15:11:23.665943  2781 net.cpp:425] loss1/conv <- loss1/ave_pool
I0403 15:11:23.665964  2781 net.cpp:399] loss1/conv -> loss1/conv
I0403 15:11:23.667424  2781 net.cpp:141] Setting up loss1/conv
I0403 15:11:23.667454  2781 net.cpp:148] Top shape: 24 128 4 4 (49152)
I0403 15:11:23.667484  2781 net.cpp:156] Memory required for data: 945697824
I0403 15:11:23.667503  2781 layer_factory.hpp:77] Creating layer loss1/relu_conv
I0403 15:11:23.667525  2781 net.cpp:91] Creating Layer loss1/relu_conv
I0403 15:11:23.667541  2781 net.cpp:425] loss1/relu_conv <- loss1/conv
I0403 15:11:23.667559  2781 net.cpp:386] loss1/relu_conv -> loss1/conv (in-place)
I0403 15:11:23.667848  2781 net.cpp:141] Setting up loss1/relu_conv
I0403 15:11:23.667876  2781 net.cpp:148] Top shape: 24 128 4 4 (49152)
I0403 15:11:23.667891  2781 net.cpp:156] Memory required for data: 945894432
I0403 15:11:23.667906  2781 layer_factory.hpp:77] Creating layer loss1/fc
I0403 15:11:23.667933  2781 net.cpp:91] Creating Layer loss1/fc
I0403 15:11:23.667951  2781 net.cpp:425] loss1/fc <- loss1/conv
I0403 15:11:23.667975  2781 net.cpp:399] loss1/fc -> loss1/fc
I0403 15:11:23.685930  2781 net.cpp:141] Setting up loss1/fc
I0403 15:11:23.685986  2781 net.cpp:148] Top shape: 24 1024 (24576)
I0403 15:11:23.686002  2781 net.cpp:156] Memory required for data: 945992736
I0403 15:11:23.686022  2781 layer_factory.hpp:77] Creating layer loss1/relu_fc
I0403 15:11:23.686041  2781 net.cpp:91] Creating Layer loss1/relu_fc
I0403 15:11:23.686058  2781 net.cpp:425] loss1/relu_fc <- loss1/fc
I0403 15:11:23.686079  2781 net.cpp:386] loss1/relu_fc -> loss1/fc (in-place)
I0403 15:11:23.686295  2781 net.cpp:141] Setting up loss1/relu_fc
I0403 15:11:23.686319  2781 net.cpp:148] Top shape: 24 1024 (24576)
I0403 15:11:23.686334  2781 net.cpp:156] Memory required for data: 946091040
I0403 15:11:23.686349  2781 layer_factory.hpp:77] Creating layer loss1/drop_fc
I0403 15:11:23.686379  2781 net.cpp:91] Creating Layer loss1/drop_fc
I0403 15:11:23.686396  2781 net.cpp:425] loss1/drop_fc <- loss1/fc
I0403 15:11:23.686414  2781 net.cpp:386] loss1/drop_fc -> loss1/fc (in-place)
I0403 15:11:23.686465  2781 net.cpp:141] Setting up loss1/drop_fc
I0403 15:11:23.686491  2781 net.cpp:148] Top shape: 24 1024 (24576)
I0403 15:11:23.686506  2781 net.cpp:156] Memory required for data: 946189344
I0403 15:11:23.686522  2781 layer_factory.hpp:77] Creating layer loss1/classifier_plantvillage
I0403 15:11:23.686540  2781 net.cpp:91] Creating Layer loss1/classifier_plantvillage
I0403 15:11:23.686556  2781 net.cpp:425] loss1/classifier_plantvillage <- loss1/fc
I0403 15:11:23.686578  2781 net.cpp:399] loss1/classifier_plantvillage -> loss1/classifier_plantvillage
I0403 15:11:23.687511  2781 net.cpp:141] Setting up loss1/classifier_plantvillage
I0403 15:11:23.687541  2781 net.cpp:148] Top shape: 24 38 (912)
I0403 15:11:23.687556  2781 net.cpp:156] Memory required for data: 946192992
I0403 15:11:23.687573  2781 layer_factory.hpp:77] Creating layer loss1/classifier_plantvillage_loss1/classifier_plantvillage_0_split
I0403 15:11:23.687592  2781 net.cpp:91] Creating Layer loss1/classifier_plantvillage_loss1/classifier_plantvillage_0_split
I0403 15:11:23.687608  2781 net.cpp:425] loss1/classifier_plantvillage_loss1/classifier_plantvillage_0_split <- loss1/classifier_plantvillage
I0403 15:11:23.687628  2781 net.cpp:399] loss1/classifier_plantvillage_loss1/classifier_plantvillage_0_split -> loss1/classifier_plantvillage_loss1/classifier_plantvillage_0_split_0
I0403 15:11:23.687649  2781 net.cpp:399] loss1/classifier_plantvillage_loss1/classifier_plantvillage_0_split -> loss1/classifier_plantvillage_loss1/classifier_plantvillage_0_split_1
I0403 15:11:23.687670  2781 net.cpp:399] loss1/classifier_plantvillage_loss1/classifier_plantvillage_0_split -> loss1/classifier_plantvillage_loss1/classifier_plantvillage_0_split_2
I0403 15:11:23.687741  2781 net.cpp:141] Setting up loss1/classifier_plantvillage_loss1/classifier_plantvillage_0_split
I0403 15:11:23.687764  2781 net.cpp:148] Top shape: 24 38 (912)
I0403 15:11:23.687782  2781 net.cpp:148] Top shape: 24 38 (912)
I0403 15:11:23.687796  2781 net.cpp:148] Top shape: 24 38 (912)
I0403 15:11:23.687810  2781 net.cpp:156] Memory required for data: 946203936
I0403 15:11:23.687824  2781 layer_factory.hpp:77] Creating layer inception_4b/1x1
I0403 15:11:23.687849  2781 net.cpp:91] Creating Layer inception_4b/1x1
I0403 15:11:23.687888  2781 net.cpp:425] inception_4b/1x1 <- inception_4a/output_inception_4a/output_0_split_1
I0403 15:11:23.687909  2781 net.cpp:399] inception_4b/1x1 -> inception_4b/1x1
I0403 15:11:23.689600  2781 net.cpp:141] Setting up inception_4b/1x1
I0403 15:11:23.689628  2781 net.cpp:148] Top shape: 24 160 14 14 (752640)
I0403 15:11:23.689643  2781 net.cpp:156] Memory required for data: 949214496
I0403 15:11:23.689662  2781 layer_factory.hpp:77] Creating layer inception_4b/relu_1x1
I0403 15:11:23.689683  2781 net.cpp:91] Creating Layer inception_4b/relu_1x1
I0403 15:11:23.689699  2781 net.cpp:425] inception_4b/relu_1x1 <- inception_4b/1x1
I0403 15:11:23.689718  2781 net.cpp:386] inception_4b/relu_1x1 -> inception_4b/1x1 (in-place)
I0403 15:11:23.689898  2781 net.cpp:141] Setting up inception_4b/relu_1x1
I0403 15:11:23.689924  2781 net.cpp:148] Top shape: 24 160 14 14 (752640)
I0403 15:11:23.689939  2781 net.cpp:156] Memory required for data: 952225056
I0403 15:11:23.689954  2781 layer_factory.hpp:77] Creating layer inception_4b/3x3_reduce
I0403 15:11:23.689975  2781 net.cpp:91] Creating Layer inception_4b/3x3_reduce
I0403 15:11:23.689993  2781 net.cpp:425] inception_4b/3x3_reduce <- inception_4a/output_inception_4a/output_0_split_2
I0403 15:11:23.690014  2781 net.cpp:399] inception_4b/3x3_reduce -> inception_4b/3x3_reduce
I0403 15:11:23.691381  2781 net.cpp:141] Setting up inception_4b/3x3_reduce
I0403 15:11:23.691412  2781 net.cpp:148] Top shape: 24 112 14 14 (526848)
I0403 15:11:23.691428  2781 net.cpp:156] Memory required for data: 954332448
I0403 15:11:23.691447  2781 layer_factory.hpp:77] Creating layer inception_4b/relu_3x3_reduce
I0403 15:11:23.691464  2781 net.cpp:91] Creating Layer inception_4b/relu_3x3_reduce
I0403 15:11:23.691480  2781 net.cpp:425] inception_4b/relu_3x3_reduce <- inception_4b/3x3_reduce
I0403 15:11:23.691498  2781 net.cpp:386] inception_4b/relu_3x3_reduce -> inception_4b/3x3_reduce (in-place)
I0403 15:11:23.691777  2781 net.cpp:141] Setting up inception_4b/relu_3x3_reduce
I0403 15:11:23.691807  2781 net.cpp:148] Top shape: 24 112 14 14 (526848)
I0403 15:11:23.691822  2781 net.cpp:156] Memory required for data: 956439840
I0403 15:11:23.691836  2781 layer_factory.hpp:77] Creating layer inception_4b/3x3
I0403 15:11:23.691859  2781 net.cpp:91] Creating Layer inception_4b/3x3
I0403 15:11:23.691876  2781 net.cpp:425] inception_4b/3x3 <- inception_4b/3x3_reduce
I0403 15:11:23.691895  2781 net.cpp:399] inception_4b/3x3 -> inception_4b/3x3
I0403 15:11:23.694939  2781 net.cpp:141] Setting up inception_4b/3x3
I0403 15:11:23.694968  2781 net.cpp:148] Top shape: 24 224 14 14 (1053696)
I0403 15:11:23.694984  2781 net.cpp:156] Memory required for data: 960654624
I0403 15:11:23.695003  2781 layer_factory.hpp:77] Creating layer inception_4b/relu_3x3
I0403 15:11:23.695021  2781 net.cpp:91] Creating Layer inception_4b/relu_3x3
I0403 15:11:23.695037  2781 net.cpp:425] inception_4b/relu_3x3 <- inception_4b/3x3
I0403 15:11:23.695056  2781 net.cpp:386] inception_4b/relu_3x3 -> inception_4b/3x3 (in-place)
I0403 15:11:23.695243  2781 net.cpp:141] Setting up inception_4b/relu_3x3
I0403 15:11:23.695268  2781 net.cpp:148] Top shape: 24 224 14 14 (1053696)
I0403 15:11:23.695282  2781 net.cpp:156] Memory required for data: 964869408
I0403 15:11:23.695297  2781 layer_factory.hpp:77] Creating layer inception_4b/5x5_reduce
I0403 15:11:23.695319  2781 net.cpp:91] Creating Layer inception_4b/5x5_reduce
I0403 15:11:23.695336  2781 net.cpp:425] inception_4b/5x5_reduce <- inception_4a/output_inception_4a/output_0_split_3
I0403 15:11:23.695358  2781 net.cpp:399] inception_4b/5x5_reduce -> inception_4b/5x5_reduce
I0403 15:11:23.696460  2781 net.cpp:141] Setting up inception_4b/5x5_reduce
I0403 15:11:23.696490  2781 net.cpp:148] Top shape: 24 24 14 14 (112896)
I0403 15:11:23.696506  2781 net.cpp:156] Memory required for data: 965320992
I0403 15:11:23.696524  2781 layer_factory.hpp:77] Creating layer inception_4b/relu_5x5_reduce
I0403 15:11:23.696543  2781 net.cpp:91] Creating Layer inception_4b/relu_5x5_reduce
I0403 15:11:23.696573  2781 net.cpp:425] inception_4b/relu_5x5_reduce <- inception_4b/5x5_reduce
I0403 15:11:23.696591  2781 net.cpp:386] inception_4b/relu_5x5_reduce -> inception_4b/5x5_reduce (in-place)
I0403 15:11:23.696777  2781 net.cpp:141] Setting up inception_4b/relu_5x5_reduce
I0403 15:11:23.696805  2781 net.cpp:148] Top shape: 24 24 14 14 (112896)
I0403 15:11:23.696820  2781 net.cpp:156] Memory required for data: 965772576
I0403 15:11:23.696835  2781 layer_factory.hpp:77] Creating layer inception_4b/5x5
I0403 15:11:23.696856  2781 net.cpp:91] Creating Layer inception_4b/5x5
I0403 15:11:23.696874  2781 net.cpp:425] inception_4b/5x5 <- inception_4b/5x5_reduce
I0403 15:11:23.696894  2781 net.cpp:399] inception_4b/5x5 -> inception_4b/5x5
I0403 15:11:23.698135  2781 net.cpp:141] Setting up inception_4b/5x5
I0403 15:11:23.698163  2781 net.cpp:148] Top shape: 24 64 14 14 (301056)
I0403 15:11:23.698180  2781 net.cpp:156] Memory required for data: 966976800
I0403 15:11:23.698200  2781 layer_factory.hpp:77] Creating layer inception_4b/relu_5x5
I0403 15:11:23.698222  2781 net.cpp:91] Creating Layer inception_4b/relu_5x5
I0403 15:11:23.698238  2781 net.cpp:425] inception_4b/relu_5x5 <- inception_4b/5x5
I0403 15:11:23.698256  2781 net.cpp:386] inception_4b/relu_5x5 -> inception_4b/5x5 (in-place)
I0403 15:11:23.698534  2781 net.cpp:141] Setting up inception_4b/relu_5x5
I0403 15:11:23.698560  2781 net.cpp:148] Top shape: 24 64 14 14 (301056)
I0403 15:11:23.698575  2781 net.cpp:156] Memory required for data: 968181024
I0403 15:11:23.698590  2781 layer_factory.hpp:77] Creating layer inception_4b/pool
I0403 15:11:23.698612  2781 net.cpp:91] Creating Layer inception_4b/pool
I0403 15:11:23.698631  2781 net.cpp:425] inception_4b/pool <- inception_4a/output_inception_4a/output_0_split_4
I0403 15:11:23.698648  2781 net.cpp:399] inception_4b/pool -> inception_4b/pool
I0403 15:11:23.698714  2781 net.cpp:141] Setting up inception_4b/pool
I0403 15:11:23.698737  2781 net.cpp:148] Top shape: 24 512 14 14 (2408448)
I0403 15:11:23.698751  2781 net.cpp:156] Memory required for data: 977814816
I0403 15:11:23.698766  2781 layer_factory.hpp:77] Creating layer inception_4b/pool_proj
I0403 15:11:23.698788  2781 net.cpp:91] Creating Layer inception_4b/pool_proj
I0403 15:11:23.698804  2781 net.cpp:425] inception_4b/pool_proj <- inception_4b/pool
I0403 15:11:23.698824  2781 net.cpp:399] inception_4b/pool_proj -> inception_4b/pool_proj
I0403 15:11:23.700067  2781 net.cpp:141] Setting up inception_4b/pool_proj
I0403 15:11:23.700095  2781 net.cpp:148] Top shape: 24 64 14 14 (301056)
I0403 15:11:23.700110  2781 net.cpp:156] Memory required for data: 979019040
I0403 15:11:23.700129  2781 layer_factory.hpp:77] Creating layer inception_4b/relu_pool_proj
I0403 15:11:23.700150  2781 net.cpp:91] Creating Layer inception_4b/relu_pool_proj
I0403 15:11:23.700166  2781 net.cpp:425] inception_4b/relu_pool_proj <- inception_4b/pool_proj
I0403 15:11:23.700187  2781 net.cpp:386] inception_4b/relu_pool_proj -> inception_4b/pool_proj (in-place)
I0403 15:11:23.700372  2781 net.cpp:141] Setting up inception_4b/relu_pool_proj
I0403 15:11:23.700397  2781 net.cpp:148] Top shape: 24 64 14 14 (301056)
I0403 15:11:23.700412  2781 net.cpp:156] Memory required for data: 980223264
I0403 15:11:23.700426  2781 layer_factory.hpp:77] Creating layer inception_4b/output
I0403 15:11:23.700445  2781 net.cpp:91] Creating Layer inception_4b/output
I0403 15:11:23.700461  2781 net.cpp:425] inception_4b/output <- inception_4b/1x1
I0403 15:11:23.700477  2781 net.cpp:425] inception_4b/output <- inception_4b/3x3
I0403 15:11:23.700494  2781 net.cpp:425] inception_4b/output <- inception_4b/5x5
I0403 15:11:23.700510  2781 net.cpp:425] inception_4b/output <- inception_4b/pool_proj
I0403 15:11:23.700528  2781 net.cpp:399] inception_4b/output -> inception_4b/output
I0403 15:11:23.700575  2781 net.cpp:141] Setting up inception_4b/output
I0403 15:11:23.700600  2781 net.cpp:148] Top shape: 24 512 14 14 (2408448)
I0403 15:11:23.700615  2781 net.cpp:156] Memory required for data: 989857056
I0403 15:11:23.700644  2781 layer_factory.hpp:77] Creating layer inception_4b/output_inception_4b/output_0_split
I0403 15:11:23.700664  2781 net.cpp:91] Creating Layer inception_4b/output_inception_4b/output_0_split
I0403 15:11:23.700678  2781 net.cpp:425] inception_4b/output_inception_4b/output_0_split <- inception_4b/output
I0403 15:11:23.700695  2781 net.cpp:399] inception_4b/output_inception_4b/output_0_split -> inception_4b/output_inception_4b/output_0_split_0
I0403 15:11:23.700716  2781 net.cpp:399] inception_4b/output_inception_4b/output_0_split -> inception_4b/output_inception_4b/output_0_split_1
I0403 15:11:23.700738  2781 net.cpp:399] inception_4b/output_inception_4b/output_0_split -> inception_4b/output_inception_4b/output_0_split_2
I0403 15:11:23.700760  2781 net.cpp:399] inception_4b/output_inception_4b/output_0_split -> inception_4b/output_inception_4b/output_0_split_3
I0403 15:11:23.700847  2781 net.cpp:141] Setting up inception_4b/output_inception_4b/output_0_split
I0403 15:11:23.700871  2781 net.cpp:148] Top shape: 24 512 14 14 (2408448)
I0403 15:11:23.700887  2781 net.cpp:148] Top shape: 24 512 14 14 (2408448)
I0403 15:11:23.700903  2781 net.cpp:148] Top shape: 24 512 14 14 (2408448)
I0403 15:11:23.700919  2781 net.cpp:148] Top shape: 24 512 14 14 (2408448)
I0403 15:11:23.700933  2781 net.cpp:156] Memory required for data: 1028392224
I0403 15:11:23.700947  2781 layer_factory.hpp:77] Creating layer inception_4c/1x1
I0403 15:11:23.700969  2781 net.cpp:91] Creating Layer inception_4c/1x1
I0403 15:11:23.700986  2781 net.cpp:425] inception_4c/1x1 <- inception_4b/output_inception_4b/output_0_split_0
I0403 15:11:23.701007  2781 net.cpp:399] inception_4c/1x1 -> inception_4c/1x1
I0403 15:11:23.702452  2781 net.cpp:141] Setting up inception_4c/1x1
I0403 15:11:23.702479  2781 net.cpp:148] Top shape: 24 128 14 14 (602112)
I0403 15:11:23.702497  2781 net.cpp:156] Memory required for data: 1030800672
I0403 15:11:23.702517  2781 layer_factory.hpp:77] Creating layer inception_4c/relu_1x1
I0403 15:11:23.702533  2781 net.cpp:91] Creating Layer inception_4c/relu_1x1
I0403 15:11:23.702549  2781 net.cpp:425] inception_4c/relu_1x1 <- inception_4c/1x1
I0403 15:11:23.702569  2781 net.cpp:386] inception_4c/relu_1x1 -> inception_4c/1x1 (in-place)
I0403 15:11:23.702749  2781 net.cpp:141] Setting up inception_4c/relu_1x1
I0403 15:11:23.702775  2781 net.cpp:148] Top shape: 24 128 14 14 (602112)
I0403 15:11:23.702790  2781 net.cpp:156] Memory required for data: 1033209120
I0403 15:11:23.702803  2781 layer_factory.hpp:77] Creating layer inception_4c/3x3_reduce
I0403 15:11:23.702826  2781 net.cpp:91] Creating Layer inception_4c/3x3_reduce
I0403 15:11:23.702842  2781 net.cpp:425] inception_4c/3x3_reduce <- inception_4b/output_inception_4b/output_0_split_1
I0403 15:11:23.702865  2781 net.cpp:399] inception_4c/3x3_reduce -> inception_4c/3x3_reduce
I0403 15:11:23.704874  2781 net.cpp:141] Setting up inception_4c/3x3_reduce
I0403 15:11:23.704902  2781 net.cpp:148] Top shape: 24 128 14 14 (602112)
I0403 15:11:23.704918  2781 net.cpp:156] Memory required for data: 1035617568
I0403 15:11:23.704936  2781 layer_factory.hpp:77] Creating layer inception_4c/relu_3x3_reduce
I0403 15:11:23.704957  2781 net.cpp:91] Creating Layer inception_4c/relu_3x3_reduce
I0403 15:11:23.704973  2781 net.cpp:425] inception_4c/relu_3x3_reduce <- inception_4c/3x3_reduce
I0403 15:11:23.704991  2781 net.cpp:386] inception_4c/relu_3x3_reduce -> inception_4c/3x3_reduce (in-place)
I0403 15:11:23.705284  2781 net.cpp:141] Setting up inception_4c/relu_3x3_reduce
I0403 15:11:23.705312  2781 net.cpp:148] Top shape: 24 128 14 14 (602112)
I0403 15:11:23.705327  2781 net.cpp:156] Memory required for data: 1038026016
I0403 15:11:23.705341  2781 layer_factory.hpp:77] Creating layer inception_4c/3x3
I0403 15:11:23.705363  2781 net.cpp:91] Creating Layer inception_4c/3x3
I0403 15:11:23.705381  2781 net.cpp:425] inception_4c/3x3 <- inception_4c/3x3_reduce
I0403 15:11:23.705404  2781 net.cpp:399] inception_4c/3x3 -> inception_4c/3x3
I0403 15:11:23.709122  2781 net.cpp:141] Setting up inception_4c/3x3
I0403 15:11:23.709164  2781 net.cpp:148] Top shape: 24 256 14 14 (1204224)
I0403 15:11:23.709184  2781 net.cpp:156] Memory required for data: 1042842912
I0403 15:11:23.709219  2781 layer_factory.hpp:77] Creating layer inception_4c/relu_3x3
I0403 15:11:23.709242  2781 net.cpp:91] Creating Layer inception_4c/relu_3x3
I0403 15:11:23.709260  2781 net.cpp:425] inception_4c/relu_3x3 <- inception_4c/3x3
I0403 15:11:23.709280  2781 net.cpp:386] inception_4c/relu_3x3 -> inception_4c/3x3 (in-place)
I0403 15:11:23.709462  2781 net.cpp:141] Setting up inception_4c/relu_3x3
I0403 15:11:23.709489  2781 net.cpp:148] Top shape: 24 256 14 14 (1204224)
I0403 15:11:23.709504  2781 net.cpp:156] Memory required for data: 1047659808
I0403 15:11:23.709520  2781 layer_factory.hpp:77] Creating layer inception_4c/5x5_reduce
I0403 15:11:23.709543  2781 net.cpp:91] Creating Layer inception_4c/5x5_reduce
I0403 15:11:23.709563  2781 net.cpp:425] inception_4c/5x5_reduce <- inception_4b/output_inception_4b/output_0_split_2
I0403 15:11:23.709581  2781 net.cpp:399] inception_4c/5x5_reduce -> inception_4c/5x5_reduce
I0403 15:11:23.710695  2781 net.cpp:141] Setting up inception_4c/5x5_reduce
I0403 15:11:23.710726  2781 net.cpp:148] Top shape: 24 24 14 14 (112896)
I0403 15:11:23.710744  2781 net.cpp:156] Memory required for data: 1048111392
I0403 15:11:23.710763  2781 layer_factory.hpp:77] Creating layer inception_4c/relu_5x5_reduce
I0403 15:11:23.710782  2781 net.cpp:91] Creating Layer inception_4c/relu_5x5_reduce
I0403 15:11:23.710798  2781 net.cpp:425] inception_4c/relu_5x5_reduce <- inception_4c/5x5_reduce
I0403 15:11:23.710815  2781 net.cpp:386] inception_4c/relu_5x5_reduce -> inception_4c/5x5_reduce (in-place)
I0403 15:11:23.711002  2781 net.cpp:141] Setting up inception_4c/relu_5x5_reduce
I0403 15:11:23.711030  2781 net.cpp:148] Top shape: 24 24 14 14 (112896)
I0403 15:11:23.711046  2781 net.cpp:156] Memory required for data: 1048562976
I0403 15:11:23.711061  2781 layer_factory.hpp:77] Creating layer inception_4c/5x5
I0403 15:11:23.711083  2781 net.cpp:91] Creating Layer inception_4c/5x5
I0403 15:11:23.711102  2781 net.cpp:425] inception_4c/5x5 <- inception_4c/5x5_reduce
I0403 15:11:23.711120  2781 net.cpp:399] inception_4c/5x5 -> inception_4c/5x5
I0403 15:11:23.712381  2781 net.cpp:141] Setting up inception_4c/5x5
I0403 15:11:23.712409  2781 net.cpp:148] Top shape: 24 64 14 14 (301056)
I0403 15:11:23.712425  2781 net.cpp:156] Memory required for data: 1049767200
I0403 15:11:23.712445  2781 layer_factory.hpp:77] Creating layer inception_4c/relu_5x5
I0403 15:11:23.712462  2781 net.cpp:91] Creating Layer inception_4c/relu_5x5
I0403 15:11:23.712477  2781 net.cpp:425] inception_4c/relu_5x5 <- inception_4c/5x5
I0403 15:11:23.712497  2781 net.cpp:386] inception_4c/relu_5x5 -> inception_4c/5x5 (in-place)
I0403 15:11:23.712790  2781 net.cpp:141] Setting up inception_4c/relu_5x5
I0403 15:11:23.712816  2781 net.cpp:148] Top shape: 24 64 14 14 (301056)
I0403 15:11:23.712831  2781 net.cpp:156] Memory required for data: 1050971424
I0403 15:11:23.712847  2781 layer_factory.hpp:77] Creating layer inception_4c/pool
I0403 15:11:23.712865  2781 net.cpp:91] Creating Layer inception_4c/pool
I0403 15:11:23.712882  2781 net.cpp:425] inception_4c/pool <- inception_4b/output_inception_4b/output_0_split_3
I0403 15:11:23.712901  2781 net.cpp:399] inception_4c/pool -> inception_4c/pool
I0403 15:11:23.712967  2781 net.cpp:141] Setting up inception_4c/pool
I0403 15:11:23.712991  2781 net.cpp:148] Top shape: 24 512 14 14 (2408448)
I0403 15:11:23.713006  2781 net.cpp:156] Memory required for data: 1060605216
I0403 15:11:23.713021  2781 layer_factory.hpp:77] Creating layer inception_4c/pool_proj
I0403 15:11:23.713044  2781 net.cpp:91] Creating Layer inception_4c/pool_proj
I0403 15:11:23.713063  2781 net.cpp:425] inception_4c/pool_proj <- inception_4c/pool
I0403 15:11:23.713081  2781 net.cpp:399] inception_4c/pool_proj -> inception_4c/pool_proj
I0403 15:11:23.714326  2781 net.cpp:141] Setting up inception_4c/pool_proj
I0403 15:11:23.714354  2781 net.cpp:148] Top shape: 24 64 14 14 (301056)
I0403 15:11:23.714385  2781 net.cpp:156] Memory required for data: 1061809440
I0403 15:11:23.714404  2781 layer_factory.hpp:77] Creating layer inception_4c/relu_pool_proj
I0403 15:11:23.714426  2781 net.cpp:91] Creating Layer inception_4c/relu_pool_proj
I0403 15:11:23.714444  2781 net.cpp:425] inception_4c/relu_pool_proj <- inception_4c/pool_proj
I0403 15:11:23.714462  2781 net.cpp:386] inception_4c/relu_pool_proj -> inception_4c/pool_proj (in-place)
I0403 15:11:23.714646  2781 net.cpp:141] Setting up inception_4c/relu_pool_proj
I0403 15:11:23.714670  2781 net.cpp:148] Top shape: 24 64 14 14 (301056)
I0403 15:11:23.714685  2781 net.cpp:156] Memory required for data: 1063013664
I0403 15:11:23.714699  2781 layer_factory.hpp:77] Creating layer inception_4c/output
I0403 15:11:23.714717  2781 net.cpp:91] Creating Layer inception_4c/output
I0403 15:11:23.714733  2781 net.cpp:425] inception_4c/output <- inception_4c/1x1
I0403 15:11:23.714751  2781 net.cpp:425] inception_4c/output <- inception_4c/3x3
I0403 15:11:23.714766  2781 net.cpp:425] inception_4c/output <- inception_4c/5x5
I0403 15:11:23.714781  2781 net.cpp:425] inception_4c/output <- inception_4c/pool_proj
I0403 15:11:23.714800  2781 net.cpp:399] inception_4c/output -> inception_4c/output
I0403 15:11:23.714846  2781 net.cpp:141] Setting up inception_4c/output
I0403 15:11:23.714872  2781 net.cpp:148] Top shape: 24 512 14 14 (2408448)
I0403 15:11:23.714887  2781 net.cpp:156] Memory required for data: 1072647456
I0403 15:11:23.714902  2781 layer_factory.hpp:77] Creating layer inception_4c/output_inception_4c/output_0_split
I0403 15:11:23.714920  2781 net.cpp:91] Creating Layer inception_4c/output_inception_4c/output_0_split
I0403 15:11:23.714934  2781 net.cpp:425] inception_4c/output_inception_4c/output_0_split <- inception_4c/output
I0403 15:11:23.714951  2781 net.cpp:399] inception_4c/output_inception_4c/output_0_split -> inception_4c/output_inception_4c/output_0_split_0
I0403 15:11:23.714972  2781 net.cpp:399] inception_4c/output_inception_4c/output_0_split -> inception_4c/output_inception_4c/output_0_split_1
I0403 15:11:23.714992  2781 net.cpp:399] inception_4c/output_inception_4c/output_0_split -> inception_4c/output_inception_4c/output_0_split_2
I0403 15:11:23.715013  2781 net.cpp:399] inception_4c/output_inception_4c/output_0_split -> inception_4c/output_inception_4c/output_0_split_3
I0403 15:11:23.715106  2781 net.cpp:141] Setting up inception_4c/output_inception_4c/output_0_split
I0403 15:11:23.715129  2781 net.cpp:148] Top shape: 24 512 14 14 (2408448)
I0403 15:11:23.715145  2781 net.cpp:148] Top shape: 24 512 14 14 (2408448)
I0403 15:11:23.715162  2781 net.cpp:148] Top shape: 24 512 14 14 (2408448)
I0403 15:11:23.715180  2781 net.cpp:148] Top shape: 24 512 14 14 (2408448)
I0403 15:11:23.715195  2781 net.cpp:156] Memory required for data: 1111182624
I0403 15:11:23.715210  2781 layer_factory.hpp:77] Creating layer inception_4d/1x1
I0403 15:11:23.715232  2781 net.cpp:91] Creating Layer inception_4d/1x1
I0403 15:11:23.715250  2781 net.cpp:425] inception_4d/1x1 <- inception_4c/output_inception_4c/output_0_split_0
I0403 15:11:23.715271  2781 net.cpp:399] inception_4d/1x1 -> inception_4d/1x1
I0403 15:11:23.716655  2781 net.cpp:141] Setting up inception_4d/1x1
I0403 15:11:23.716683  2781 net.cpp:148] Top shape: 24 112 14 14 (526848)
I0403 15:11:23.716698  2781 net.cpp:156] Memory required for data: 1113290016
I0403 15:11:23.716717  2781 layer_factory.hpp:77] Creating layer inception_4d/relu_1x1
I0403 15:11:23.716737  2781 net.cpp:91] Creating Layer inception_4d/relu_1x1
I0403 15:11:23.716754  2781 net.cpp:425] inception_4d/relu_1x1 <- inception_4d/1x1
I0403 15:11:23.716771  2781 net.cpp:386] inception_4d/relu_1x1 -> inception_4d/1x1 (in-place)
I0403 15:11:23.716956  2781 net.cpp:141] Setting up inception_4d/relu_1x1
I0403 15:11:23.716982  2781 net.cpp:148] Top shape: 24 112 14 14 (526848)
I0403 15:11:23.716997  2781 net.cpp:156] Memory required for data: 1115397408
I0403 15:11:23.717012  2781 layer_factory.hpp:77] Creating layer inception_4d/3x3_reduce
I0403 15:11:23.717046  2781 net.cpp:91] Creating Layer inception_4d/3x3_reduce
I0403 15:11:23.717063  2781 net.cpp:425] inception_4d/3x3_reduce <- inception_4c/output_inception_4c/output_0_split_1
I0403 15:11:23.717090  2781 net.cpp:399] inception_4d/3x3_reduce -> inception_4d/3x3_reduce
I0403 15:11:23.718598  2781 net.cpp:141] Setting up inception_4d/3x3_reduce
I0403 15:11:23.718624  2781 net.cpp:148] Top shape: 24 144 14 14 (677376)
I0403 15:11:23.718639  2781 net.cpp:156] Memory required for data: 1118106912
I0403 15:11:23.718657  2781 layer_factory.hpp:77] Creating layer inception_4d/relu_3x3_reduce
I0403 15:11:23.718675  2781 net.cpp:91] Creating Layer inception_4d/relu_3x3_reduce
I0403 15:11:23.718691  2781 net.cpp:425] inception_4d/relu_3x3_reduce <- inception_4d/3x3_reduce
I0403 15:11:23.718710  2781 net.cpp:386] inception_4d/relu_3x3_reduce -> inception_4d/3x3_reduce (in-place)
I0403 15:11:23.718991  2781 net.cpp:141] Setting up inception_4d/relu_3x3_reduce
I0403 15:11:23.719017  2781 net.cpp:148] Top shape: 24 144 14 14 (677376)
I0403 15:11:23.719032  2781 net.cpp:156] Memory required for data: 1120816416
I0403 15:11:23.719045  2781 layer_factory.hpp:77] Creating layer inception_4d/3x3
I0403 15:11:23.719068  2781 net.cpp:91] Creating Layer inception_4d/3x3
I0403 15:11:23.719084  2781 net.cpp:425] inception_4d/3x3 <- inception_4d/3x3_reduce
I0403 15:11:23.719105  2781 net.cpp:399] inception_4d/3x3 -> inception_4d/3x3
I0403 15:11:23.723430  2781 net.cpp:141] Setting up inception_4d/3x3
I0403 15:11:23.723459  2781 net.cpp:148] Top shape: 24 288 14 14 (1354752)
I0403 15:11:23.723475  2781 net.cpp:156] Memory required for data: 1126235424
I0403 15:11:23.723494  2781 layer_factory.hpp:77] Creating layer inception_4d/relu_3x3
I0403 15:11:23.723513  2781 net.cpp:91] Creating Layer inception_4d/relu_3x3
I0403 15:11:23.723529  2781 net.cpp:425] inception_4d/relu_3x3 <- inception_4d/3x3
I0403 15:11:23.723546  2781 net.cpp:386] inception_4d/relu_3x3 -> inception_4d/3x3 (in-place)
I0403 15:11:23.723752  2781 net.cpp:141] Setting up inception_4d/relu_3x3
I0403 15:11:23.723776  2781 net.cpp:148] Top shape: 24 288 14 14 (1354752)
I0403 15:11:23.723790  2781 net.cpp:156] Memory required for data: 1131654432
I0403 15:11:23.723805  2781 layer_factory.hpp:77] Creating layer inception_4d/5x5_reduce
I0403 15:11:23.723827  2781 net.cpp:91] Creating Layer inception_4d/5x5_reduce
I0403 15:11:23.723845  2781 net.cpp:425] inception_4d/5x5_reduce <- inception_4c/output_inception_4c/output_0_split_2
I0403 15:11:23.723862  2781 net.cpp:399] inception_4d/5x5_reduce -> inception_4d/5x5_reduce
I0403 15:11:23.724992  2781 net.cpp:141] Setting up inception_4d/5x5_reduce
I0403 15:11:23.725019  2781 net.cpp:148] Top shape: 24 32 14 14 (150528)
I0403 15:11:23.725034  2781 net.cpp:156] Memory required for data: 1132256544
I0403 15:11:23.725052  2781 layer_factory.hpp:77] Creating layer inception_4d/relu_5x5_reduce
I0403 15:11:23.725072  2781 net.cpp:91] Creating Layer inception_4d/relu_5x5_reduce
I0403 15:11:23.725088  2781 net.cpp:425] inception_4d/relu_5x5_reduce <- inception_4d/5x5_reduce
I0403 15:11:23.725106  2781 net.cpp:386] inception_4d/relu_5x5_reduce -> inception_4d/5x5_reduce (in-place)
I0403 15:11:23.725296  2781 net.cpp:141] Setting up inception_4d/relu_5x5_reduce
I0403 15:11:23.725323  2781 net.cpp:148] Top shape: 24 32 14 14 (150528)
I0403 15:11:23.725338  2781 net.cpp:156] Memory required for data: 1132858656
I0403 15:11:23.725353  2781 layer_factory.hpp:77] Creating layer inception_4d/5x5
I0403 15:11:23.725374  2781 net.cpp:91] Creating Layer inception_4d/5x5
I0403 15:11:23.725391  2781 net.cpp:425] inception_4d/5x5 <- inception_4d/5x5_reduce
I0403 15:11:23.725409  2781 net.cpp:399] inception_4d/5x5 -> inception_4d/5x5
I0403 15:11:23.726866  2781 net.cpp:141] Setting up inception_4d/5x5
I0403 15:11:23.726896  2781 net.cpp:148] Top shape: 24 64 14 14 (301056)
I0403 15:11:23.726910  2781 net.cpp:156] Memory required for data: 1134062880
I0403 15:11:23.726930  2781 layer_factory.hpp:77] Creating layer inception_4d/relu_5x5
I0403 15:11:23.726961  2781 net.cpp:91] Creating Layer inception_4d/relu_5x5
I0403 15:11:23.726979  2781 net.cpp:425] inception_4d/relu_5x5 <- inception_4d/5x5
I0403 15:11:23.726996  2781 net.cpp:386] inception_4d/relu_5x5 -> inception_4d/5x5 (in-place)
I0403 15:11:23.727327  2781 net.cpp:141] Setting up inception_4d/relu_5x5
I0403 15:11:23.727355  2781 net.cpp:148] Top shape: 24 64 14 14 (301056)
I0403 15:11:23.727370  2781 net.cpp:156] Memory required for data: 1135267104
I0403 15:11:23.727385  2781 layer_factory.hpp:77] Creating layer inception_4d/pool
I0403 15:11:23.727402  2781 net.cpp:91] Creating Layer inception_4d/pool
I0403 15:11:23.727418  2781 net.cpp:425] inception_4d/pool <- inception_4c/output_inception_4c/output_0_split_3
I0403 15:11:23.727440  2781 net.cpp:399] inception_4d/pool -> inception_4d/pool
I0403 15:11:23.727506  2781 net.cpp:141] Setting up inception_4d/pool
I0403 15:11:23.727530  2781 net.cpp:148] Top shape: 24 512 14 14 (2408448)
I0403 15:11:23.727543  2781 net.cpp:156] Memory required for data: 1144900896
I0403 15:11:23.727557  2781 layer_factory.hpp:77] Creating layer inception_4d/pool_proj
I0403 15:11:23.727579  2781 net.cpp:91] Creating Layer inception_4d/pool_proj
I0403 15:11:23.727596  2781 net.cpp:425] inception_4d/pool_proj <- inception_4d/pool
I0403 15:11:23.727617  2781 net.cpp:399] inception_4d/pool_proj -> inception_4d/pool_proj
I0403 15:11:23.729343  2781 net.cpp:141] Setting up inception_4d/pool_proj
I0403 15:11:23.729372  2781 net.cpp:148] Top shape: 24 64 14 14 (301056)
I0403 15:11:23.729387  2781 net.cpp:156] Memory required for data: 1146105120
I0403 15:11:23.729404  2781 layer_factory.hpp:77] Creating layer inception_4d/relu_pool_proj
I0403 15:11:23.729424  2781 net.cpp:91] Creating Layer inception_4d/relu_pool_proj
I0403 15:11:23.729442  2781 net.cpp:425] inception_4d/relu_pool_proj <- inception_4d/pool_proj
I0403 15:11:23.729460  2781 net.cpp:386] inception_4d/relu_pool_proj -> inception_4d/pool_proj (in-place)
I0403 15:11:23.729643  2781 net.cpp:141] Setting up inception_4d/relu_pool_proj
I0403 15:11:23.729670  2781 net.cpp:148] Top shape: 24 64 14 14 (301056)
I0403 15:11:23.729684  2781 net.cpp:156] Memory required for data: 1147309344
I0403 15:11:23.729699  2781 layer_factory.hpp:77] Creating layer inception_4d/output
I0403 15:11:23.729717  2781 net.cpp:91] Creating Layer inception_4d/output
I0403 15:11:23.729732  2781 net.cpp:425] inception_4d/output <- inception_4d/1x1
I0403 15:11:23.729748  2781 net.cpp:425] inception_4d/output <- inception_4d/3x3
I0403 15:11:23.729763  2781 net.cpp:425] inception_4d/output <- inception_4d/5x5
I0403 15:11:23.729778  2781 net.cpp:425] inception_4d/output <- inception_4d/pool_proj
I0403 15:11:23.729794  2781 net.cpp:399] inception_4d/output -> inception_4d/output
I0403 15:11:23.729841  2781 net.cpp:141] Setting up inception_4d/output
I0403 15:11:23.729864  2781 net.cpp:148] Top shape: 24 528 14 14 (2483712)
I0403 15:11:23.729878  2781 net.cpp:156] Memory required for data: 1157244192
I0403 15:11:23.729892  2781 layer_factory.hpp:77] Creating layer inception_4d/output_inception_4d/output_0_split
I0403 15:11:23.729909  2781 net.cpp:91] Creating Layer inception_4d/output_inception_4d/output_0_split
I0403 15:11:23.729924  2781 net.cpp:425] inception_4d/output_inception_4d/output_0_split <- inception_4d/output
I0403 15:11:23.729944  2781 net.cpp:399] inception_4d/output_inception_4d/output_0_split -> inception_4d/output_inception_4d/output_0_split_0
I0403 15:11:23.729965  2781 net.cpp:399] inception_4d/output_inception_4d/output_0_split -> inception_4d/output_inception_4d/output_0_split_1
I0403 15:11:23.729985  2781 net.cpp:399] inception_4d/output_inception_4d/output_0_split -> inception_4d/output_inception_4d/output_0_split_2
I0403 15:11:23.730010  2781 net.cpp:399] inception_4d/output_inception_4d/output_0_split -> inception_4d/output_inception_4d/output_0_split_3
I0403 15:11:23.730031  2781 net.cpp:399] inception_4d/output_inception_4d/output_0_split -> inception_4d/output_inception_4d/output_0_split_4
I0403 15:11:23.730131  2781 net.cpp:141] Setting up inception_4d/output_inception_4d/output_0_split
I0403 15:11:23.730166  2781 net.cpp:148] Top shape: 24 528 14 14 (2483712)
I0403 15:11:23.730187  2781 net.cpp:148] Top shape: 24 528 14 14 (2483712)
I0403 15:11:23.730203  2781 net.cpp:148] Top shape: 24 528 14 14 (2483712)
I0403 15:11:23.730218  2781 net.cpp:148] Top shape: 24 528 14 14 (2483712)
I0403 15:11:23.730233  2781 net.cpp:148] Top shape: 24 528 14 14 (2483712)
I0403 15:11:23.730247  2781 net.cpp:156] Memory required for data: 1206918432
I0403 15:11:23.730260  2781 layer_factory.hpp:77] Creating layer loss2/ave_pool
I0403 15:11:23.730278  2781 net.cpp:91] Creating Layer loss2/ave_pool
I0403 15:11:23.730294  2781 net.cpp:425] loss2/ave_pool <- inception_4d/output_inception_4d/output_0_split_0
I0403 15:11:23.730314  2781 net.cpp:399] loss2/ave_pool -> loss2/ave_pool
I0403 15:11:23.730619  2781 net.cpp:141] Setting up loss2/ave_pool
I0403 15:11:23.730644  2781 net.cpp:148] Top shape: 24 528 4 4 (202752)
I0403 15:11:23.730659  2781 net.cpp:156] Memory required for data: 1207729440
I0403 15:11:23.730674  2781 layer_factory.hpp:77] Creating layer loss2/conv
I0403 15:11:23.730695  2781 net.cpp:91] Creating Layer loss2/conv
I0403 15:11:23.730712  2781 net.cpp:425] loss2/conv <- loss2/ave_pool
I0403 15:11:23.730732  2781 net.cpp:399] loss2/conv -> loss2/conv
I0403 15:11:23.732615  2781 net.cpp:141] Setting up loss2/conv
I0403 15:11:23.732648  2781 net.cpp:148] Top shape: 24 128 4 4 (49152)
I0403 15:11:23.732664  2781 net.cpp:156] Memory required for data: 1207926048
I0403 15:11:23.732682  2781 layer_factory.hpp:77] Creating layer loss2/relu_conv
I0403 15:11:23.732700  2781 net.cpp:91] Creating Layer loss2/relu_conv
I0403 15:11:23.732715  2781 net.cpp:425] loss2/relu_conv <- loss2/conv
I0403 15:11:23.732734  2781 net.cpp:386] loss2/relu_conv -> loss2/conv (in-place)
I0403 15:11:23.733013  2781 net.cpp:141] Setting up loss2/relu_conv
I0403 15:11:23.733043  2781 net.cpp:148] Top shape: 24 128 4 4 (49152)
I0403 15:11:23.733058  2781 net.cpp:156] Memory required for data: 1208122656
I0403 15:11:23.733074  2781 layer_factory.hpp:77] Creating layer loss2/fc
I0403 15:11:23.733093  2781 net.cpp:91] Creating Layer loss2/fc
I0403 15:11:23.733108  2781 net.cpp:425] loss2/fc <- loss2/conv
I0403 15:11:23.733129  2781 net.cpp:399] loss2/fc -> loss2/fc
I0403 15:11:23.751122  2781 net.cpp:141] Setting up loss2/fc
I0403 15:11:23.751155  2781 net.cpp:148] Top shape: 24 1024 (24576)
I0403 15:11:23.751171  2781 net.cpp:156] Memory required for data: 1208220960
I0403 15:11:23.751197  2781 layer_factory.hpp:77] Creating layer loss2/relu_fc
I0403 15:11:23.751219  2781 net.cpp:91] Creating Layer loss2/relu_fc
I0403 15:11:23.751237  2781 net.cpp:425] loss2/relu_fc <- loss2/fc
I0403 15:11:23.751255  2781 net.cpp:386] loss2/relu_fc -> loss2/fc (in-place)
I0403 15:11:23.751600  2781 net.cpp:141] Setting up loss2/relu_fc
I0403 15:11:23.751627  2781 net.cpp:148] Top shape: 24 1024 (24576)
I0403 15:11:23.751643  2781 net.cpp:156] Memory required for data: 1208319264
I0403 15:11:23.751658  2781 layer_factory.hpp:77] Creating layer loss2/drop_fc
I0403 15:11:23.751679  2781 net.cpp:91] Creating Layer loss2/drop_fc
I0403 15:11:23.751698  2781 net.cpp:425] loss2/drop_fc <- loss2/fc
I0403 15:11:23.751715  2781 net.cpp:386] loss2/drop_fc -> loss2/fc (in-place)
I0403 15:11:23.751790  2781 net.cpp:141] Setting up loss2/drop_fc
I0403 15:11:23.751812  2781 net.cpp:148] Top shape: 24 1024 (24576)
I0403 15:11:23.751827  2781 net.cpp:156] Memory required for data: 1208417568
I0403 15:11:23.751842  2781 layer_factory.hpp:77] Creating layer loss2/classifier_plantvillage
I0403 15:11:23.751859  2781 net.cpp:91] Creating Layer loss2/classifier_plantvillage
I0403 15:11:23.751876  2781 net.cpp:425] loss2/classifier_plantvillage <- loss2/fc
I0403 15:11:23.751898  2781 net.cpp:399] loss2/classifier_plantvillage -> loss2/classifier_plantvillage
I0403 15:11:23.752332  2781 net.cpp:141] Setting up loss2/classifier_plantvillage
I0403 15:11:23.752358  2781 net.cpp:148] Top shape: 24 38 (912)
I0403 15:11:23.752396  2781 net.cpp:156] Memory required for data: 1208421216
I0403 15:11:23.752418  2781 layer_factory.hpp:77] Creating layer loss2/classifier_plantvillage_loss2/classifier_plantvillage_0_split
I0403 15:11:23.752437  2781 net.cpp:91] Creating Layer loss2/classifier_plantvillage_loss2/classifier_plantvillage_0_split
I0403 15:11:23.752454  2781 net.cpp:425] loss2/classifier_plantvillage_loss2/classifier_plantvillage_0_split <- loss2/classifier_plantvillage
I0403 15:11:23.752475  2781 net.cpp:399] loss2/classifier_plantvillage_loss2/classifier_plantvillage_0_split -> loss2/classifier_plantvillage_loss2/classifier_plantvillage_0_split_0
I0403 15:11:23.752497  2781 net.cpp:399] loss2/classifier_plantvillage_loss2/classifier_plantvillage_0_split -> loss2/classifier_plantvillage_loss2/classifier_plantvillage_0_split_1
I0403 15:11:23.752519  2781 net.cpp:399] loss2/classifier_plantvillage_loss2/classifier_plantvillage_0_split -> loss2/classifier_plantvillage_loss2/classifier_plantvillage_0_split_2
I0403 15:11:23.752610  2781 net.cpp:141] Setting up loss2/classifier_plantvillage_loss2/classifier_plantvillage_0_split
I0403 15:11:23.752636  2781 net.cpp:148] Top shape: 24 38 (912)
I0403 15:11:23.752655  2781 net.cpp:148] Top shape: 24 38 (912)
I0403 15:11:23.752671  2781 net.cpp:148] Top shape: 24 38 (912)
I0403 15:11:23.752684  2781 net.cpp:156] Memory required for data: 1208432160
I0403 15:11:23.752699  2781 layer_factory.hpp:77] Creating layer inception_4e/1x1
I0403 15:11:23.752720  2781 net.cpp:91] Creating Layer inception_4e/1x1
I0403 15:11:23.752738  2781 net.cpp:425] inception_4e/1x1 <- inception_4d/output_inception_4d/output_0_split_1
I0403 15:11:23.752758  2781 net.cpp:399] inception_4e/1x1 -> inception_4e/1x1
I0403 15:11:23.754709  2781 net.cpp:141] Setting up inception_4e/1x1
I0403 15:11:23.754746  2781 net.cpp:148] Top shape: 24 256 14 14 (1204224)
I0403 15:11:23.754762  2781 net.cpp:156] Memory required for data: 1213249056
I0403 15:11:23.754781  2781 layer_factory.hpp:77] Creating layer inception_4e/relu_1x1
I0403 15:11:23.754812  2781 net.cpp:91] Creating Layer inception_4e/relu_1x1
I0403 15:11:23.754827  2781 net.cpp:425] inception_4e/relu_1x1 <- inception_4e/1x1
I0403 15:11:23.754848  2781 net.cpp:386] inception_4e/relu_1x1 -> inception_4e/1x1 (in-place)
I0403 15:11:23.755165  2781 net.cpp:141] Setting up inception_4e/relu_1x1
I0403 15:11:23.755208  2781 net.cpp:148] Top shape: 24 256 14 14 (1204224)
I0403 15:11:23.755223  2781 net.cpp:156] Memory required for data: 1218065952
I0403 15:11:23.755237  2781 layer_factory.hpp:77] Creating layer inception_4e/3x3_reduce
I0403 15:11:23.755260  2781 net.cpp:91] Creating Layer inception_4e/3x3_reduce
I0403 15:11:23.755278  2781 net.cpp:425] inception_4e/3x3_reduce <- inception_4d/output_inception_4d/output_0_split_2
I0403 15:11:23.755300  2781 net.cpp:399] inception_4e/3x3_reduce -> inception_4e/3x3_reduce
I0403 15:11:23.757437  2781 net.cpp:141] Setting up inception_4e/3x3_reduce
I0403 15:11:23.757477  2781 net.cpp:148] Top shape: 24 160 14 14 (752640)
I0403 15:11:23.757493  2781 net.cpp:156] Memory required for data: 1221076512
I0403 15:11:23.757513  2781 layer_factory.hpp:77] Creating layer inception_4e/relu_3x3_reduce
I0403 15:11:23.757534  2781 net.cpp:91] Creating Layer inception_4e/relu_3x3_reduce
I0403 15:11:23.757550  2781 net.cpp:425] inception_4e/relu_3x3_reduce <- inception_4e/3x3_reduce
I0403 15:11:23.757571  2781 net.cpp:386] inception_4e/relu_3x3_reduce -> inception_4e/3x3_reduce (in-place)
I0403 15:11:23.757773  2781 net.cpp:141] Setting up inception_4e/relu_3x3_reduce
I0403 15:11:23.757798  2781 net.cpp:148] Top shape: 24 160 14 14 (752640)
I0403 15:11:23.757813  2781 net.cpp:156] Memory required for data: 1224087072
I0403 15:11:23.757828  2781 layer_factory.hpp:77] Creating layer inception_4e/3x3
I0403 15:11:23.757851  2781 net.cpp:91] Creating Layer inception_4e/3x3
I0403 15:11:23.757869  2781 net.cpp:425] inception_4e/3x3 <- inception_4e/3x3_reduce
I0403 15:11:23.757891  2781 net.cpp:399] inception_4e/3x3 -> inception_4e/3x3
I0403 15:11:23.763000  2781 net.cpp:141] Setting up inception_4e/3x3
I0403 15:11:23.763056  2781 net.cpp:148] Top shape: 24 320 14 14 (1505280)
I0403 15:11:23.763072  2781 net.cpp:156] Memory required for data: 1230108192
I0403 15:11:23.763090  2781 layer_factory.hpp:77] Creating layer inception_4e/relu_3x3
I0403 15:11:23.763109  2781 net.cpp:91] Creating Layer inception_4e/relu_3x3
I0403 15:11:23.763126  2781 net.cpp:425] inception_4e/relu_3x3 <- inception_4e/3x3
I0403 15:11:23.763145  2781 net.cpp:386] inception_4e/relu_3x3 -> inception_4e/3x3 (in-place)
I0403 15:11:23.763465  2781 net.cpp:141] Setting up inception_4e/relu_3x3
I0403 15:11:23.763492  2781 net.cpp:148] Top shape: 24 320 14 14 (1505280)
I0403 15:11:23.763509  2781 net.cpp:156] Memory required for data: 1236129312
I0403 15:11:23.763523  2781 layer_factory.hpp:77] Creating layer inception_4e/5x5_reduce
I0403 15:11:23.763550  2781 net.cpp:91] Creating Layer inception_4e/5x5_reduce
I0403 15:11:23.763567  2781 net.cpp:425] inception_4e/5x5_reduce <- inception_4d/output_inception_4d/output_0_split_3
I0403 15:11:23.763589  2781 net.cpp:399] inception_4e/5x5_reduce -> inception_4e/5x5_reduce
I0403 15:11:23.764683  2781 net.cpp:141] Setting up inception_4e/5x5_reduce
I0403 15:11:23.764711  2781 net.cpp:148] Top shape: 24 32 14 14 (150528)
I0403 15:11:23.764729  2781 net.cpp:156] Memory required for data: 1236731424
I0403 15:11:23.764746  2781 layer_factory.hpp:77] Creating layer inception_4e/relu_5x5_reduce
I0403 15:11:23.764765  2781 net.cpp:91] Creating Layer inception_4e/relu_5x5_reduce
I0403 15:11:23.764780  2781 net.cpp:425] inception_4e/relu_5x5_reduce <- inception_4e/5x5_reduce
I0403 15:11:23.764797  2781 net.cpp:386] inception_4e/relu_5x5_reduce -> inception_4e/5x5_reduce (in-place)
I0403 15:11:23.765097  2781 net.cpp:141] Setting up inception_4e/relu_5x5_reduce
I0403 15:11:23.765126  2781 net.cpp:148] Top shape: 24 32 14 14 (150528)
I0403 15:11:23.765142  2781 net.cpp:156] Memory required for data: 1237333536
I0403 15:11:23.765157  2781 layer_factory.hpp:77] Creating layer inception_4e/5x5
I0403 15:11:23.765202  2781 net.cpp:91] Creating Layer inception_4e/5x5
I0403 15:11:23.765221  2781 net.cpp:425] inception_4e/5x5 <- inception_4e/5x5_reduce
I0403 15:11:23.765241  2781 net.cpp:399] inception_4e/5x5 -> inception_4e/5x5
I0403 15:11:23.767122  2781 net.cpp:141] Setting up inception_4e/5x5
I0403 15:11:23.767149  2781 net.cpp:148] Top shape: 24 128 14 14 (602112)
I0403 15:11:23.767165  2781 net.cpp:156] Memory required for data: 1239741984
I0403 15:11:23.767189  2781 layer_factory.hpp:77] Creating layer inception_4e/relu_5x5
I0403 15:11:23.767210  2781 net.cpp:91] Creating Layer inception_4e/relu_5x5
I0403 15:11:23.767226  2781 net.cpp:425] inception_4e/relu_5x5 <- inception_4e/5x5
I0403 15:11:23.767244  2781 net.cpp:386] inception_4e/relu_5x5 -> inception_4e/5x5 (in-place)
I0403 15:11:23.767444  2781 net.cpp:141] Setting up inception_4e/relu_5x5
I0403 15:11:23.767472  2781 net.cpp:148] Top shape: 24 128 14 14 (602112)
I0403 15:11:23.767488  2781 net.cpp:156] Memory required for data: 1242150432
I0403 15:11:23.767503  2781 layer_factory.hpp:77] Creating layer inception_4e/pool
I0403 15:11:23.767520  2781 net.cpp:91] Creating Layer inception_4e/pool
I0403 15:11:23.767536  2781 net.cpp:425] inception_4e/pool <- inception_4d/output_inception_4d/output_0_split_4
I0403 15:11:23.767557  2781 net.cpp:399] inception_4e/pool -> inception_4e/pool
I0403 15:11:23.767628  2781 net.cpp:141] Setting up inception_4e/pool
I0403 15:11:23.767652  2781 net.cpp:148] Top shape: 24 528 14 14 (2483712)
I0403 15:11:23.767666  2781 net.cpp:156] Memory required for data: 1252085280
I0403 15:11:23.767681  2781 layer_factory.hpp:77] Creating layer inception_4e/pool_proj
I0403 15:11:23.767704  2781 net.cpp:91] Creating Layer inception_4e/pool_proj
I0403 15:11:23.767720  2781 net.cpp:425] inception_4e/pool_proj <- inception_4e/pool
I0403 15:11:23.767741  2781 net.cpp:399] inception_4e/pool_proj -> inception_4e/pool_proj
I0403 15:11:23.769297  2781 net.cpp:141] Setting up inception_4e/pool_proj
I0403 15:11:23.769336  2781 net.cpp:148] Top shape: 24 128 14 14 (602112)
I0403 15:11:23.769351  2781 net.cpp:156] Memory required for data: 1254493728
I0403 15:11:23.769371  2781 layer_factory.hpp:77] Creating layer inception_4e/relu_pool_proj
I0403 15:11:23.769392  2781 net.cpp:91] Creating Layer inception_4e/relu_pool_proj
I0403 15:11:23.769408  2781 net.cpp:425] inception_4e/relu_pool_proj <- inception_4e/pool_proj
I0403 15:11:23.769425  2781 net.cpp:386] inception_4e/relu_pool_proj -> inception_4e/pool_proj (in-place)
I0403 15:11:23.769731  2781 net.cpp:141] Setting up inception_4e/relu_pool_proj
I0403 15:11:23.769757  2781 net.cpp:148] Top shape: 24 128 14 14 (602112)
I0403 15:11:23.769773  2781 net.cpp:156] Memory required for data: 1256902176
I0403 15:11:23.769788  2781 layer_factory.hpp:77] Creating layer inception_4e/output
I0403 15:11:23.769807  2781 net.cpp:91] Creating Layer inception_4e/output
I0403 15:11:23.769824  2781 net.cpp:425] inception_4e/output <- inception_4e/1x1
I0403 15:11:23.769840  2781 net.cpp:425] inception_4e/output <- inception_4e/3x3
I0403 15:11:23.769856  2781 net.cpp:425] inception_4e/output <- inception_4e/5x5
I0403 15:11:23.769872  2781 net.cpp:425] inception_4e/output <- inception_4e/pool_proj
I0403 15:11:23.769889  2781 net.cpp:399] inception_4e/output -> inception_4e/output
I0403 15:11:23.769942  2781 net.cpp:141] Setting up inception_4e/output
I0403 15:11:23.769964  2781 net.cpp:148] Top shape: 24 832 14 14 (3913728)
I0403 15:11:23.769979  2781 net.cpp:156] Memory required for data: 1272557088
I0403 15:11:23.769994  2781 layer_factory.hpp:77] Creating layer pool4/3x3_s2
I0403 15:11:23.770010  2781 net.cpp:91] Creating Layer pool4/3x3_s2
I0403 15:11:23.770026  2781 net.cpp:425] pool4/3x3_s2 <- inception_4e/output
I0403 15:11:23.770046  2781 net.cpp:399] pool4/3x3_s2 -> pool4/3x3_s2
I0403 15:11:23.770115  2781 net.cpp:141] Setting up pool4/3x3_s2
I0403 15:11:23.770141  2781 net.cpp:148] Top shape: 24 832 7 7 (978432)
I0403 15:11:23.770156  2781 net.cpp:156] Memory required for data: 1276470816
I0403 15:11:23.770171  2781 layer_factory.hpp:77] Creating layer pool4/3x3_s2_pool4/3x3_s2_0_split
I0403 15:11:23.770193  2781 net.cpp:91] Creating Layer pool4/3x3_s2_pool4/3x3_s2_0_split
I0403 15:11:23.770210  2781 net.cpp:425] pool4/3x3_s2_pool4/3x3_s2_0_split <- pool4/3x3_s2
I0403 15:11:23.770228  2781 net.cpp:399] pool4/3x3_s2_pool4/3x3_s2_0_split -> pool4/3x3_s2_pool4/3x3_s2_0_split_0
I0403 15:11:23.770251  2781 net.cpp:399] pool4/3x3_s2_pool4/3x3_s2_0_split -> pool4/3x3_s2_pool4/3x3_s2_0_split_1
I0403 15:11:23.770272  2781 net.cpp:399] pool4/3x3_s2_pool4/3x3_s2_0_split -> pool4/3x3_s2_pool4/3x3_s2_0_split_2
I0403 15:11:23.770293  2781 net.cpp:399] pool4/3x3_s2_pool4/3x3_s2_0_split -> pool4/3x3_s2_pool4/3x3_s2_0_split_3
I0403 15:11:23.770387  2781 net.cpp:141] Setting up pool4/3x3_s2_pool4/3x3_s2_0_split
I0403 15:11:23.770411  2781 net.cpp:148] Top shape: 24 832 7 7 (978432)
I0403 15:11:23.770428  2781 net.cpp:148] Top shape: 24 832 7 7 (978432)
I0403 15:11:23.770443  2781 net.cpp:148] Top shape: 24 832 7 7 (978432)
I0403 15:11:23.770459  2781 net.cpp:148] Top shape: 24 832 7 7 (978432)
I0403 15:11:23.770473  2781 net.cpp:156] Memory required for data: 1292125728
I0403 15:11:23.770486  2781 layer_factory.hpp:77] Creating layer inception_5a/1x1
I0403 15:11:23.770509  2781 net.cpp:91] Creating Layer inception_5a/1x1
I0403 15:11:23.770527  2781 net.cpp:425] inception_5a/1x1 <- pool4/3x3_s2_pool4/3x3_s2_0_split_0
I0403 15:11:23.770546  2781 net.cpp:399] inception_5a/1x1 -> inception_5a/1x1
I0403 15:11:23.773459  2781 net.cpp:141] Setting up inception_5a/1x1
I0403 15:11:23.773489  2781 net.cpp:148] Top shape: 24 256 7 7 (301056)
I0403 15:11:23.773505  2781 net.cpp:156] Memory required for data: 1293329952
I0403 15:11:23.773524  2781 layer_factory.hpp:77] Creating layer inception_5a/relu_1x1
I0403 15:11:23.773545  2781 net.cpp:91] Creating Layer inception_5a/relu_1x1
I0403 15:11:23.773561  2781 net.cpp:425] inception_5a/relu_1x1 <- inception_5a/1x1
I0403 15:11:23.773578  2781 net.cpp:386] inception_5a/relu_1x1 -> inception_5a/1x1 (in-place)
I0403 15:11:23.773896  2781 net.cpp:141] Setting up inception_5a/relu_1x1
I0403 15:11:23.773922  2781 net.cpp:148] Top shape: 24 256 7 7 (301056)
I0403 15:11:23.773937  2781 net.cpp:156] Memory required for data: 1294534176
I0403 15:11:23.773952  2781 layer_factory.hpp:77] Creating layer inception_5a/3x3_reduce
I0403 15:11:23.773977  2781 net.cpp:91] Creating Layer inception_5a/3x3_reduce
I0403 15:11:23.773994  2781 net.cpp:425] inception_5a/3x3_reduce <- pool4/3x3_s2_pool4/3x3_s2_0_split_1
I0403 15:11:23.774013  2781 net.cpp:399] inception_5a/3x3_reduce -> inception_5a/3x3_reduce
I0403 15:11:23.776525  2781 net.cpp:141] Setting up inception_5a/3x3_reduce
I0403 15:11:23.776553  2781 net.cpp:148] Top shape: 24 160 7 7 (188160)
I0403 15:11:23.776569  2781 net.cpp:156] Memory required for data: 1295286816
I0403 15:11:23.776588  2781 layer_factory.hpp:77] Creating layer inception_5a/relu_3x3_reduce
I0403 15:11:23.776608  2781 net.cpp:91] Creating Layer inception_5a/relu_3x3_reduce
I0403 15:11:23.776625  2781 net.cpp:425] inception_5a/relu_3x3_reduce <- inception_5a/3x3_reduce
I0403 15:11:23.776643  2781 net.cpp:386] inception_5a/relu_3x3_reduce -> inception_5a/3x3_reduce (in-place)
I0403 15:11:23.776832  2781 net.cpp:141] Setting up inception_5a/relu_3x3_reduce
I0403 15:11:23.776857  2781 net.cpp:148] Top shape: 24 160 7 7 (188160)
I0403 15:11:23.776871  2781 net.cpp:156] Memory required for data: 1296039456
I0403 15:11:23.776887  2781 layer_factory.hpp:77] Creating layer inception_5a/3x3
I0403 15:11:23.776914  2781 net.cpp:91] Creating Layer inception_5a/3x3
I0403 15:11:23.776932  2781 net.cpp:425] inception_5a/3x3 <- inception_5a/3x3_reduce
I0403 15:11:23.776952  2781 net.cpp:399] inception_5a/3x3 -> inception_5a/3x3
I0403 15:11:23.781931  2781 net.cpp:141] Setting up inception_5a/3x3
I0403 15:11:23.781962  2781 net.cpp:148] Top shape: 24 320 7 7 (376320)
I0403 15:11:23.781980  2781 net.cpp:156] Memory required for data: 1297544736
I0403 15:11:23.781997  2781 layer_factory.hpp:77] Creating layer inception_5a/relu_3x3
I0403 15:11:23.782016  2781 net.cpp:91] Creating Layer inception_5a/relu_3x3
I0403 15:11:23.782033  2781 net.cpp:425] inception_5a/relu_3x3 <- inception_5a/3x3
I0403 15:11:23.782050  2781 net.cpp:386] inception_5a/relu_3x3 -> inception_5a/3x3 (in-place)
I0403 15:11:23.782351  2781 net.cpp:141] Setting up inception_5a/relu_3x3
I0403 15:11:23.782380  2781 net.cpp:148] Top shape: 24 320 7 7 (376320)
I0403 15:11:23.782395  2781 net.cpp:156] Memory required for data: 1299050016
I0403 15:11:23.782412  2781 layer_factory.hpp:77] Creating layer inception_5a/5x5_reduce
I0403 15:11:23.782430  2781 net.cpp:91] Creating Layer inception_5a/5x5_reduce
I0403 15:11:23.782449  2781 net.cpp:425] inception_5a/5x5_reduce <- pool4/3x3_s2_pool4/3x3_s2_0_split_2
I0403 15:11:23.782472  2781 net.cpp:399] inception_5a/5x5_reduce -> inception_5a/5x5_reduce
I0403 15:11:23.783677  2781 net.cpp:141] Setting up inception_5a/5x5_reduce
I0403 15:11:23.783707  2781 net.cpp:148] Top shape: 24 32 7 7 (37632)
I0403 15:11:23.783725  2781 net.cpp:156] Memory required for data: 1299200544
I0403 15:11:23.783743  2781 layer_factory.hpp:77] Creating layer inception_5a/relu_5x5_reduce
I0403 15:11:23.783761  2781 net.cpp:91] Creating Layer inception_5a/relu_5x5_reduce
I0403 15:11:23.783778  2781 net.cpp:425] inception_5a/relu_5x5_reduce <- inception_5a/5x5_reduce
I0403 15:11:23.783797  2781 net.cpp:386] inception_5a/relu_5x5_reduce -> inception_5a/5x5_reduce (in-place)
I0403 15:11:23.784104  2781 net.cpp:141] Setting up inception_5a/relu_5x5_reduce
I0403 15:11:23.784133  2781 net.cpp:148] Top shape: 24 32 7 7 (37632)
I0403 15:11:23.784149  2781 net.cpp:156] Memory required for data: 1299351072
I0403 15:11:23.784164  2781 layer_factory.hpp:77] Creating layer inception_5a/5x5
I0403 15:11:23.784190  2781 net.cpp:91] Creating Layer inception_5a/5x5
I0403 15:11:23.784209  2781 net.cpp:425] inception_5a/5x5 <- inception_5a/5x5_reduce
I0403 15:11:23.784229  2781 net.cpp:399] inception_5a/5x5 -> inception_5a/5x5
I0403 15:11:23.785972  2781 net.cpp:141] Setting up inception_5a/5x5
I0403 15:11:23.786012  2781 net.cpp:148] Top shape: 24 128 7 7 (150528)
I0403 15:11:23.786031  2781 net.cpp:156] Memory required for data: 1299953184
I0403 15:11:23.786051  2781 layer_factory.hpp:77] Creating layer inception_5a/relu_5x5
I0403 15:11:23.786069  2781 net.cpp:91] Creating Layer inception_5a/relu_5x5
I0403 15:11:23.786085  2781 net.cpp:425] inception_5a/relu_5x5 <- inception_5a/5x5
I0403 15:11:23.786103  2781 net.cpp:386] inception_5a/relu_5x5 -> inception_5a/5x5 (in-place)
I0403 15:11:23.786304  2781 net.cpp:141] Setting up inception_5a/relu_5x5
I0403 15:11:23.786332  2781 net.cpp:148] Top shape: 24 128 7 7 (150528)
I0403 15:11:23.786347  2781 net.cpp:156] Memory required for data: 1300555296
I0403 15:11:23.786362  2781 layer_factory.hpp:77] Creating layer inception_5a/pool
I0403 15:11:23.786381  2781 net.cpp:91] Creating Layer inception_5a/pool
I0403 15:11:23.786396  2781 net.cpp:425] inception_5a/pool <- pool4/3x3_s2_pool4/3x3_s2_0_split_3
I0403 15:11:23.786417  2781 net.cpp:399] inception_5a/pool -> inception_5a/pool
I0403 15:11:23.786494  2781 net.cpp:141] Setting up inception_5a/pool
I0403 15:11:23.786520  2781 net.cpp:148] Top shape: 24 832 7 7 (978432)
I0403 15:11:23.786535  2781 net.cpp:156] Memory required for data: 1304469024
I0403 15:11:23.786550  2781 layer_factory.hpp:77] Creating layer inception_5a/pool_proj
I0403 15:11:23.786571  2781 net.cpp:91] Creating Layer inception_5a/pool_proj
I0403 15:11:23.786587  2781 net.cpp:425] inception_5a/pool_proj <- inception_5a/pool
I0403 15:11:23.786608  2781 net.cpp:399] inception_5a/pool_proj -> inception_5a/pool_proj
I0403 15:11:23.788926  2781 net.cpp:141] Setting up inception_5a/pool_proj
I0403 15:11:23.788956  2781 net.cpp:148] Top shape: 24 128 7 7 (150528)
I0403 15:11:23.788972  2781 net.cpp:156] Memory required for data: 1305071136
I0403 15:11:23.788990  2781 layer_factory.hpp:77] Creating layer inception_5a/relu_pool_proj
I0403 15:11:23.789011  2781 net.cpp:91] Creating Layer inception_5a/relu_pool_proj
I0403 15:11:23.789029  2781 net.cpp:425] inception_5a/relu_pool_proj <- inception_5a/pool_proj
I0403 15:11:23.789047  2781 net.cpp:386] inception_5a/relu_pool_proj -> inception_5a/pool_proj (in-place)
I0403 15:11:23.789347  2781 net.cpp:141] Setting up inception_5a/relu_pool_proj
I0403 15:11:23.789373  2781 net.cpp:148] Top shape: 24 128 7 7 (150528)
I0403 15:11:23.789389  2781 net.cpp:156] Memory required for data: 1305673248
I0403 15:11:23.789403  2781 layer_factory.hpp:77] Creating layer inception_5a/output
I0403 15:11:23.789423  2781 net.cpp:91] Creating Layer inception_5a/output
I0403 15:11:23.789441  2781 net.cpp:425] inception_5a/output <- inception_5a/1x1
I0403 15:11:23.789458  2781 net.cpp:425] inception_5a/output <- inception_5a/3x3
I0403 15:11:23.789474  2781 net.cpp:425] inception_5a/output <- inception_5a/5x5
I0403 15:11:23.789490  2781 net.cpp:425] inception_5a/output <- inception_5a/pool_proj
I0403 15:11:23.789506  2781 net.cpp:399] inception_5a/output -> inception_5a/output
I0403 15:11:23.789558  2781 net.cpp:141] Setting up inception_5a/output
I0403 15:11:23.789582  2781 net.cpp:148] Top shape: 24 832 7 7 (978432)
I0403 15:11:23.789597  2781 net.cpp:156] Memory required for data: 1309586976
I0403 15:11:23.789613  2781 layer_factory.hpp:77] Creating layer inception_5a/output_inception_5a/output_0_split
I0403 15:11:23.789629  2781 net.cpp:91] Creating Layer inception_5a/output_inception_5a/output_0_split
I0403 15:11:23.789644  2781 net.cpp:425] inception_5a/output_inception_5a/output_0_split <- inception_5a/output
I0403 15:11:23.789664  2781 net.cpp:399] inception_5a/output_inception_5a/output_0_split -> inception_5a/output_inception_5a/output_0_split_0
I0403 15:11:23.789685  2781 net.cpp:399] inception_5a/output_inception_5a/output_0_split -> inception_5a/output_inception_5a/output_0_split_1
I0403 15:11:23.789705  2781 net.cpp:399] inception_5a/output_inception_5a/output_0_split -> inception_5a/output_inception_5a/output_0_split_2
I0403 15:11:23.789726  2781 net.cpp:399] inception_5a/output_inception_5a/output_0_split -> inception_5a/output_inception_5a/output_0_split_3
I0403 15:11:23.789841  2781 net.cpp:141] Setting up inception_5a/output_inception_5a/output_0_split
I0403 15:11:23.789867  2781 net.cpp:148] Top shape: 24 832 7 7 (978432)
I0403 15:11:23.789885  2781 net.cpp:148] Top shape: 24 832 7 7 (978432)
I0403 15:11:23.789901  2781 net.cpp:148] Top shape: 24 832 7 7 (978432)
I0403 15:11:23.789916  2781 net.cpp:148] Top shape: 24 832 7 7 (978432)
I0403 15:11:23.789930  2781 net.cpp:156] Memory required for data: 1325241888
I0403 15:11:23.789945  2781 layer_factory.hpp:77] Creating layer inception_5b/1x1
I0403 15:11:23.789968  2781 net.cpp:91] Creating Layer inception_5b/1x1
I0403 15:11:23.789984  2781 net.cpp:425] inception_5b/1x1 <- inception_5a/output_inception_5a/output_0_split_0
I0403 15:11:23.790004  2781 net.cpp:399] inception_5b/1x1 -> inception_5b/1x1
I0403 15:11:23.793839  2781 net.cpp:141] Setting up inception_5b/1x1
I0403 15:11:23.793869  2781 net.cpp:148] Top shape: 24 384 7 7 (451584)
I0403 15:11:23.793884  2781 net.cpp:156] Memory required for data: 1327048224
I0403 15:11:23.793902  2781 layer_factory.hpp:77] Creating layer inception_5b/relu_1x1
I0403 15:11:23.793923  2781 net.cpp:91] Creating Layer inception_5b/relu_1x1
I0403 15:11:23.793941  2781 net.cpp:425] inception_5b/relu_1x1 <- inception_5b/1x1
I0403 15:11:23.793957  2781 net.cpp:386] inception_5b/relu_1x1 -> inception_5b/1x1 (in-place)
I0403 15:11:23.794260  2781 net.cpp:141] Setting up inception_5b/relu_1x1
I0403 15:11:23.794284  2781 net.cpp:148] Top shape: 24 384 7 7 (451584)
I0403 15:11:23.794299  2781 net.cpp:156] Memory required for data: 1328854560
I0403 15:11:23.794315  2781 layer_factory.hpp:77] Creating layer inception_5b/3x3_reduce
I0403 15:11:23.794338  2781 net.cpp:91] Creating Layer inception_5b/3x3_reduce
I0403 15:11:23.794356  2781 net.cpp:425] inception_5b/3x3_reduce <- inception_5a/output_inception_5a/output_0_split_1
I0403 15:11:23.794378  2781 net.cpp:399] inception_5b/3x3_reduce -> inception_5b/3x3_reduce
I0403 15:11:23.797144  2781 net.cpp:141] Setting up inception_5b/3x3_reduce
I0403 15:11:23.797174  2781 net.cpp:148] Top shape: 24 192 7 7 (225792)
I0403 15:11:23.797195  2781 net.cpp:156] Memory required for data: 1329757728
I0403 15:11:23.797214  2781 layer_factory.hpp:77] Creating layer inception_5b/relu_3x3_reduce
I0403 15:11:23.797235  2781 net.cpp:91] Creating Layer inception_5b/relu_3x3_reduce
I0403 15:11:23.797252  2781 net.cpp:425] inception_5b/relu_3x3_reduce <- inception_5b/3x3_reduce
I0403 15:11:23.797269  2781 net.cpp:386] inception_5b/relu_3x3_reduce -> inception_5b/3x3_reduce (in-place)
I0403 15:11:23.797466  2781 net.cpp:141] Setting up inception_5b/relu_3x3_reduce
I0403 15:11:23.797493  2781 net.cpp:148] Top shape: 24 192 7 7 (225792)
I0403 15:11:23.797509  2781 net.cpp:156] Memory required for data: 1330660896
I0403 15:11:23.797524  2781 layer_factory.hpp:77] Creating layer inception_5b/3x3
I0403 15:11:23.797546  2781 net.cpp:91] Creating Layer inception_5b/3x3
I0403 15:11:23.797564  2781 net.cpp:425] inception_5b/3x3 <- inception_5b/3x3_reduce
I0403 15:11:23.797582  2781 net.cpp:399] inception_5b/3x3 -> inception_5b/3x3
I0403 15:11:23.804363  2781 net.cpp:141] Setting up inception_5b/3x3
I0403 15:11:23.804393  2781 net.cpp:148] Top shape: 24 384 7 7 (451584)
I0403 15:11:23.804407  2781 net.cpp:156] Memory required for data: 1332467232
I0403 15:11:23.804426  2781 layer_factory.hpp:77] Creating layer inception_5b/relu_3x3
I0403 15:11:23.804448  2781 net.cpp:91] Creating Layer inception_5b/relu_3x3
I0403 15:11:23.804466  2781 net.cpp:425] inception_5b/relu_3x3 <- inception_5b/3x3
I0403 15:11:23.804482  2781 net.cpp:386] inception_5b/relu_3x3 -> inception_5b/3x3 (in-place)
I0403 15:11:23.804785  2781 net.cpp:141] Setting up inception_5b/relu_3x3
I0403 15:11:23.804811  2781 net.cpp:148] Top shape: 24 384 7 7 (451584)
I0403 15:11:23.804826  2781 net.cpp:156] Memory required for data: 1334273568
I0403 15:11:23.804841  2781 layer_factory.hpp:77] Creating layer inception_5b/5x5_reduce
I0403 15:11:23.804878  2781 net.cpp:91] Creating Layer inception_5b/5x5_reduce
I0403 15:11:23.804898  2781 net.cpp:425] inception_5b/5x5_reduce <- inception_5a/output_inception_5a/output_0_split_2
I0403 15:11:23.804920  2781 net.cpp:399] inception_5b/5x5_reduce -> inception_5b/5x5_reduce
I0403 15:11:23.806222  2781 net.cpp:141] Setting up inception_5b/5x5_reduce
I0403 15:11:23.806249  2781 net.cpp:148] Top shape: 24 48 7 7 (56448)
I0403 15:11:23.806265  2781 net.cpp:156] Memory required for data: 1334499360
I0403 15:11:23.806283  2781 layer_factory.hpp:77] Creating layer inception_5b/relu_5x5_reduce
I0403 15:11:23.806304  2781 net.cpp:91] Creating Layer inception_5b/relu_5x5_reduce
I0403 15:11:23.806323  2781 net.cpp:425] inception_5b/relu_5x5_reduce <- inception_5b/5x5_reduce
I0403 15:11:23.806340  2781 net.cpp:386] inception_5b/relu_5x5_reduce -> inception_5b/5x5_reduce (in-place)
I0403 15:11:23.806721  2781 net.cpp:141] Setting up inception_5b/relu_5x5_reduce
I0403 15:11:23.806747  2781 net.cpp:148] Top shape: 24 48 7 7 (56448)
I0403 15:11:23.806762  2781 net.cpp:156] Memory required for data: 1334725152
I0403 15:11:23.806777  2781 layer_factory.hpp:77] Creating layer inception_5b/5x5
I0403 15:11:23.806797  2781 net.cpp:91] Creating Layer inception_5b/5x5
I0403 15:11:23.806814  2781 net.cpp:425] inception_5b/5x5 <- inception_5b/5x5_reduce
I0403 15:11:23.806833  2781 net.cpp:399] inception_5b/5x5 -> inception_5b/5x5
I0403 15:11:23.808912  2781 net.cpp:141] Setting up inception_5b/5x5
I0403 15:11:23.808939  2781 net.cpp:148] Top shape: 24 128 7 7 (150528)
I0403 15:11:23.808955  2781 net.cpp:156] Memory required for data: 1335327264
I0403 15:11:23.808974  2781 layer_factory.hpp:77] Creating layer inception_5b/relu_5x5
I0403 15:11:23.808995  2781 net.cpp:91] Creating Layer inception_5b/relu_5x5
I0403 15:11:23.809012  2781 net.cpp:425] inception_5b/relu_5x5 <- inception_5b/5x5
I0403 15:11:23.809029  2781 net.cpp:386] inception_5b/relu_5x5 -> inception_5b/5x5 (in-place)
I0403 15:11:23.809233  2781 net.cpp:141] Setting up inception_5b/relu_5x5
I0403 15:11:23.809257  2781 net.cpp:148] Top shape: 24 128 7 7 (150528)
I0403 15:11:23.809273  2781 net.cpp:156] Memory required for data: 1335929376
I0403 15:11:23.809288  2781 layer_factory.hpp:77] Creating layer inception_5b/pool
I0403 15:11:23.809306  2781 net.cpp:91] Creating Layer inception_5b/pool
I0403 15:11:23.809322  2781 net.cpp:425] inception_5b/pool <- inception_5a/output_inception_5a/output_0_split_3
I0403 15:11:23.809342  2781 net.cpp:399] inception_5b/pool -> inception_5b/pool
I0403 15:11:23.809417  2781 net.cpp:141] Setting up inception_5b/pool
I0403 15:11:23.809442  2781 net.cpp:148] Top shape: 24 832 7 7 (978432)
I0403 15:11:23.809458  2781 net.cpp:156] Memory required for data: 1339843104
I0403 15:11:23.809473  2781 layer_factory.hpp:77] Creating layer inception_5b/pool_proj
I0403 15:11:23.809499  2781 net.cpp:91] Creating Layer inception_5b/pool_proj
I0403 15:11:23.809517  2781 net.cpp:425] inception_5b/pool_proj <- inception_5b/pool
I0403 15:11:23.809535  2781 net.cpp:399] inception_5b/pool_proj -> inception_5b/pool_proj
I0403 15:11:23.811898  2781 net.cpp:141] Setting up inception_5b/pool_proj
I0403 15:11:23.811928  2781 net.cpp:148] Top shape: 24 128 7 7 (150528)
I0403 15:11:23.811944  2781 net.cpp:156] Memory required for data: 1340445216
I0403 15:11:23.811964  2781 layer_factory.hpp:77] Creating layer inception_5b/relu_pool_proj
I0403 15:11:23.811983  2781 net.cpp:91] Creating Layer inception_5b/relu_pool_proj
I0403 15:11:23.812000  2781 net.cpp:425] inception_5b/relu_pool_proj <- inception_5b/pool_proj
I0403 15:11:23.812018  2781 net.cpp:386] inception_5b/relu_pool_proj -> inception_5b/pool_proj (in-place)
I0403 15:11:23.812325  2781 net.cpp:141] Setting up inception_5b/relu_pool_proj
I0403 15:11:23.812351  2781 net.cpp:148] Top shape: 24 128 7 7 (150528)
I0403 15:11:23.812367  2781 net.cpp:156] Memory required for data: 1341047328
I0403 15:11:23.812382  2781 layer_factory.hpp:77] Creating layer inception_5b/output
I0403 15:11:23.812402  2781 net.cpp:91] Creating Layer inception_5b/output
I0403 15:11:23.812434  2781 net.cpp:425] inception_5b/output <- inception_5b/1x1
I0403 15:11:23.812451  2781 net.cpp:425] inception_5b/output <- inception_5b/3x3
I0403 15:11:23.812469  2781 net.cpp:425] inception_5b/output <- inception_5b/5x5
I0403 15:11:23.812484  2781 net.cpp:425] inception_5b/output <- inception_5b/pool_proj
I0403 15:11:23.812501  2781 net.cpp:399] inception_5b/output -> inception_5b/output
I0403 15:11:23.812556  2781 net.cpp:141] Setting up inception_5b/output
I0403 15:11:23.812579  2781 net.cpp:148] Top shape: 24 1024 7 7 (1204224)
I0403 15:11:23.812594  2781 net.cpp:156] Memory required for data: 1345864224
I0403 15:11:23.812610  2781 layer_factory.hpp:77] Creating layer pool5/7x7_s1
I0403 15:11:23.812628  2781 net.cpp:91] Creating Layer pool5/7x7_s1
I0403 15:11:23.812644  2781 net.cpp:425] pool5/7x7_s1 <- inception_5b/output
I0403 15:11:23.812665  2781 net.cpp:399] pool5/7x7_s1 -> pool5/7x7_s1
I0403 15:11:23.812890  2781 net.cpp:141] Setting up pool5/7x7_s1
I0403 15:11:23.812938  2781 net.cpp:148] Top shape: 24 1024 1 1 (24576)
I0403 15:11:23.812954  2781 net.cpp:156] Memory required for data: 1345962528
I0403 15:11:23.812968  2781 layer_factory.hpp:77] Creating layer pool5/drop_7x7_s1
I0403 15:11:23.812986  2781 net.cpp:91] Creating Layer pool5/drop_7x7_s1
I0403 15:11:23.813001  2781 net.cpp:425] pool5/drop_7x7_s1 <- pool5/7x7_s1
I0403 15:11:23.813017  2781 net.cpp:386] pool5/drop_7x7_s1 -> pool5/7x7_s1 (in-place)
I0403 15:11:23.813068  2781 net.cpp:141] Setting up pool5/drop_7x7_s1
I0403 15:11:23.813091  2781 net.cpp:148] Top shape: 24 1024 1 1 (24576)
I0403 15:11:23.813105  2781 net.cpp:156] Memory required for data: 1346060832
I0403 15:11:23.813120  2781 layer_factory.hpp:77] Creating layer loss3/classifier_plantvillage
I0403 15:11:23.813141  2781 net.cpp:91] Creating Layer loss3/classifier_plantvillage
I0403 15:11:23.813158  2781 net.cpp:425] loss3/classifier_plantvillage <- pool5/7x7_s1
I0403 15:11:23.813175  2781 net.cpp:399] loss3/classifier_plantvillage -> loss3/classifier_plantvillage
I0403 15:11:23.813616  2781 net.cpp:141] Setting up loss3/classifier_plantvillage
I0403 15:11:23.813640  2781 net.cpp:148] Top shape: 24 38 (912)
I0403 15:11:23.813654  2781 net.cpp:156] Memory required for data: 1346064480
I0403 15:11:23.813673  2781 layer_factory.hpp:77] Creating layer loss3/classifier_plantvillage_loss3/classifier_plantvillage_0_split
I0403 15:11:23.813691  2781 net.cpp:91] Creating Layer loss3/classifier_plantvillage_loss3/classifier_plantvillage_0_split
I0403 15:11:23.813706  2781 net.cpp:425] loss3/classifier_plantvillage_loss3/classifier_plantvillage_0_split <- loss3/classifier_plantvillage
I0403 15:11:23.813726  2781 net.cpp:399] loss3/classifier_plantvillage_loss3/classifier_plantvillage_0_split -> loss3/classifier_plantvillage_loss3/classifier_plantvillage_0_split_0
I0403 15:11:23.813747  2781 net.cpp:399] loss3/classifier_plantvillage_loss3/classifier_plantvillage_0_split -> loss3/classifier_plantvillage_loss3/classifier_plantvillage_0_split_1
I0403 15:11:23.813767  2781 net.cpp:399] loss3/classifier_plantvillage_loss3/classifier_plantvillage_0_split -> loss3/classifier_plantvillage_loss3/classifier_plantvillage_0_split_2
I0403 15:11:23.813787  2781 net.cpp:399] loss3/classifier_plantvillage_loss3/classifier_plantvillage_0_split -> loss3/classifier_plantvillage_loss3/classifier_plantvillage_0_split_3
I0403 15:11:23.813890  2781 net.cpp:141] Setting up loss3/classifier_plantvillage_loss3/classifier_plantvillage_0_split
I0403 15:11:23.813915  2781 net.cpp:148] Top shape: 24 38 (912)
I0403 15:11:23.813931  2781 net.cpp:148] Top shape: 24 38 (912)
I0403 15:11:23.813946  2781 net.cpp:148] Top shape: 24 38 (912)
I0403 15:11:23.813961  2781 net.cpp:148] Top shape: 24 38 (912)
I0403 15:11:23.813974  2781 net.cpp:156] Memory required for data: 1346079072
I0403 15:11:23.813988  2781 layer_factory.hpp:77] Creating layer loss1/loss
I0403 15:11:23.814010  2781 net.cpp:91] Creating Layer loss1/loss
I0403 15:11:23.814028  2781 net.cpp:425] loss1/loss <- loss1/classifier_plantvillage_loss1/classifier_plantvillage_0_split_0
I0403 15:11:23.814059  2781 net.cpp:425] loss1/loss <- label_data_1_split_0
…
