…
I0403 15:35:22.694581  3262 net.cpp:313] The NetState phase (1) differed from the phase (0) specified by a rule in layer data
I0403 15:35:22.695732  3262 net.cpp:49] Initializing net from parameters: 
state {
  phase: TEST
}
layer {
  name: "data"
  type: "Data"
  top: "data"
  top: "label"
  include {
    phase: TEST
  }
  transform_param {
    mirror: false
    crop_size: 224
    mean_file: "/home/mohanty/data/final_dataset/lmdb/segmented-60-40/mean.binaryproto"
  }
  data_param {
    source: "/home/mohanty/data/final_dataset/lmdb/segmented-60-40/test_db"
    batch_size: 24
    backend: LMDB
  }
}
layer {
  name: "conv1/7x7_s2"
  type: "Convolution"
  bottom: "data"
  top: "conv1/7x7_s2"
  param {
    lr_mult: 1
    decay_mult: 1
  }
  param {
    lr_mult: 2
    decay_mult: 0
  }
  convolution_param {
    num_output: 64
    pad: 3
    kernel_size: 7
    stride: 2
    weight_filler {
      type: "xavier"
      std: 0.1
    }
    bias_filler {
      type: "constant"
      value: 0.2
    }
  }
}
layer {
  name: "conv1/relu_7x7"
  type: "ReLU"
  bottom: "conv1/7x7_s2"
  top: "conv1/7x7_s2"
}
layer {
  name: "pool1/3x3_s2"
  type: "Pooling"
  bottom: "conv1/7x7_s2"
  top: "pool1/3x3_s2"
  pooling_param {
    pool: MAX
    kernel_size: 3
    stride: 2
  }
}
layer {
  name: "pool1/norm1"
  type: "LRN"
  bottom: "pool1/3x3_s2"
  top: "pool1/norm1"
  lrn_param {
    local_size: 5
    alpha: 0.0001
    beta: 0.75
  }
}
layer {
  name: "conv2/3x3_reduce"
  type: "Convolution"
  bottom: "pool1/norm1"
  top: "conv2/3x3_reduce"
  param {
    lr_mult: 1
    decay_mult: 1
  }
  param {
    lr_mult: 2
    decay_mult: 0
  }
  convolution_param {
    num_output: 64
    kernel_size: 1
    weight_filler {
      type: "xavier"
      std: 0.1
    }
    bias_filler {
      type: "constant"
      value: 0.2
    }
  }
}
layer {
  name: "conv2/relu_3x3_reduce"
  type: "ReLU"
  bottom: "conv2/3x3_reduce"
  top: "conv2/3x3_reduce"
}
layer {
  name: "conv2/3x3"
  type: "Convolution"
  bottom: "conv2/3x3_reduce"
  top: "conv2/3x3"
  param {
    lr_mult: 1
    decay_mult: 1
  }
  param {
    lr_mult: 2
    decay_mult: 0
  }
  convolution_param {
    num_output: 192
    pad: 1
    kernel_size: 3
    weight_filler {
      type: "xavier"
      std: 0.03
    }
    bias_filler {
      type: "constant"
      value: 0.2
    }
  }
}
layer {
  name: "conv2/relu_3x3"
  type: "ReLU"
  bottom: "conv2/3x3"
  top: "conv2/3x3"
}
layer {
  name: "conv2/norm2"
  type: "LRN"
  bottom: "conv2/3x3"
  top: "conv2/norm2"
  lrn_param {
    local_size: 5
    alpha: 0.0001
    beta: 0.75
  }
}
layer {
  name: "pool2/3x3_s2"
  type: "Pooling"
  bottom: "conv2/norm2"
  top: "pool2/3x3_s2"
  pooling_param {
    pool: MAX
    kernel_size: 3
    stride: 2
  }
}
layer {
  name: "inception_3a/1x1"
  type: "Convolution"
  bottom: "pool2/3x3_s2"
  top: "inception_3a/1x1"
  param {
    lr_mult: 1
    decay_mult: 1
  }
  param {
    lr_mult: 2
    decay_mult: 0
  }
  convolution_param {
    num_output: 64
    kernel_size: 1
    weight_filler {
      type: "xavier"
      std: 0.03
    }
    bias_filler {
      type: "constant"
      value: 0.2
    }
  }
}
layer {
  name: "inception_3a/relu_1x1"
  type: "ReLU"
  bottom: "inception_3a/1x1"
  top: "inception_3a/1x1"
}
layer {
  name: "inception_3a/3x3_reduce"
  type: "Convolution"
  bottom: "pool2/3x3_s2"
  top: "inception_3a/3x3_reduce"
  param {
    lr_mult: 1
    decay_mult: 1
  }
  param {
    lr_mult: 2
    decay_mult: 0
  }
  convolution_param {
    num_output: 96
    kernel_size: 1
    weight_filler {
      type: "xavier"
      std: 0.09
    }
    bias_filler {
      type: "constant"
      value: 0.2
    }
  }
}
layer {
  name: "inception_3a/relu_3x3_reduce"
  type: "ReLU"
  bottom: "inception_3a/3x3_reduce"
  top: "inception_3a/3x3_reduce"
}
layer {
  name: "inception_3a/3x3"
  type: "Convolution"
  bottom: "inception_3a/3x3_reduce"
  top: "inception_3a/3x3"
  param {
    lr_mult: 1
    decay_mult: 1
  }
  param {
    lr_mult: 2
    decay_mult: 0
  }
  convolution_param {
    num_output: 128
    pad: 1
    kernel_size: 3
    weight_filler {
      type: "xavier"
      std: 0.03
    }
    bias_filler {
      type: "constant"
      value: 0.2
    }
  }
}
layer {
  name: "inception_3a/relu_3x3"
  type: "ReLU"
  bottom: "inception_3a/3x3"
  top: "inception_3a/3x3"
}
layer {
  name: "inception_3a/5x5_reduce"
  type: "Convolution"
  bottom: "pool2/3x3_s2"
  top: "inception_3a/5x5_reduce"
  param {
    lr_mult: 1
    decay_mult: 1
  }
  param {
    lr_mult: 2
    decay_mult: 0
  }
  convolution_param {
    num_output: 16
    kernel_size: 1
    weight_filler {
      type: "xavier"
      std: 0.2
    }
    bias_filler {
      type: "constant"
      value: 0.2
    }
  }
}
layer {
  name: "inception_3a/relu_5x5_reduce"
  type: "ReLU"
  bottom: "inception_3a/5x5_reduce"
  top: "inception_3a/5x5_reduce"
}
layer {
  name: "inception_3a/5x5"
  type: "Convolution"
  bottom: "inception_3a/5x5_reduce"
  top: "inception_3a/5x5"
  param {
    lr_mult: 1
    decay_mult: 1
  }
  param {
    lr_mult: 2
    decay_mult: 0
  }
  convolution_param {
    num_output: 32
    pad: 2
    kernel_size: 5
    weight_filler {
      type: "xavier"
      std: 0.03
    }
    bias_filler {
      type: "constant"
      value: 0.2
    }
  }
}
layer {
  name: "inception_3a/relu_5x5"
  type: "ReLU"
  bottom: "inception_3a/5x5"
  top: "inception_3a/5x5"
}
layer {
  name: "inception_3a/pool"
  type: "Pooling"
  bottom: "pool2/3x3_s2"
  top: "inception_3a/pool"
  pooling_param {
    pool: MAX
    kernel_size: 3
    stride: 1
    pad: 1
  }
}
layer {
  name: "inception_3a/pool_proj"
  type: "Convolution"
  bottom: "inception_3a/pool"
  top: "inception_3a/pool_proj"
  param {
    lr_mult: 1
    decay_mult: 1
  }
  param {
    lr_mult: 2
    decay_mult: 0
  }
  convolution_param {
    num_output: 32
    kernel_size: 1
    weight_filler {
      type: "xavier"
      std: 0.1
    }
    bias_filler {
      type: "constant"
      value: 0.2
    }
  }
}
layer {
  name: "inception_3a/relu_pool_proj"
  type: "ReLU"
  bottom: "inception_3a/pool_proj"
  top: "inception_3a/pool_proj"
}
layer {
  name: "inception_3a/output"
  type: "Concat"
  bottom: "inception_3a/1x1"
  bottom: "inception_3a/3x3"
  bottom: "inception_3a/5x5"
  bottom: "inception_3a/pool_proj"
  top: "inception_3a/output"
}
layer {
  name: "inception_3b/1x1"
  type: "Convolution"
  bottom: "inception_3a/output"
  top: "inception_3b/1x1"
  param {
    lr_mult: 1
    decay_mult: 1
  }
  param {
    lr_mult: 2
    decay_mult: 0
  }
  convolution_param {
    num_output: 128
    kernel_size: 1
    weight_filler {
      type: "xavier"
      std: 0.03
    }
    bias_filler {
      type: "constant"
      value: 0.2
    }
  }
}
layer {
  name: "inception_3b/relu_1x1"
  type: "ReLU"
  bottom: "inception_3b/1x1"
  top: "inception_3b/1x1"
}
layer {
  name: "inception_3b/3x3_reduce"
  type: "Convolution"
  bottom: "inception_3a/output"
  top: "inception_3b/3x3_reduce"
  param {
    lr_mult: 1
    decay_mult: 1
  }
  param {
    lr_mult: 2
    decay_mult: 0
  }
  convolution_param {
    num_output: 128
    kernel_size: 1
    weight_filler {
      type: "xavier"
      std: 0.09
    }
    bias_filler {
      type: "constant"
      value: 0.2
    }
  }
}
layer {
  name: "inception_3b/relu_3x3_reduce"
  type: "ReLU"
  bottom: "inception_3b/3x3_reduce"
  top: "inception_3b/3x3_reduce"
}
layer {
  name: "inception_3b/3x3"
  type: "Convolution"
  bottom: "inception_3b/3x3_reduce"
  top: "inception_3b/3x3"
  param {
    lr_mult: 1
    decay_mult: 1
  }
  param {
    lr_mult: 2
    decay_mult: 0
  }
  convolution_param {
    num_output: 192
    pad: 1
    kernel_size: 3
    weight_filler {
      type: "xavier"
      std: 0.03
    }
    bias_filler {
      type: "constant"
      value: 0.2
    }
  }
}
layer {
  name: "inception_3b/relu_3x3"
  type: "ReLU"
  bottom: "inception_3b/3x3"
  top: "inception_3b/3x3"
}
layer {
  name: "inception_3b/5x5_reduce"
  type: "Convolution"
  bottom: "inception_3a/output"
  top: "inception_3b/5x5_reduce"
  param {
    lr_mult: 1
    decay_mult: 1
  }
  param {
    lr_mult: 2
    decay_mult: 0
  }
  convolution_param {
    num_output: 32
    kernel_size: 1
    weight_filler {
      type: "xavier"
      std: 0.2
    }
    bias_filler {
      type: "constant"
      value: 0.2
    }
  }
}
layer {
  name: "inception_3b/relu_5x5_reduce"
  type: "ReLU"
  bottom: "inception_3b/5x5_reduce"
  top: "inception_3b/5x5_reduce"
}
layer {
  name: "inception_3b/5x5"
  type: "Convolution"
  bottom: "inception_3b/5x5_reduce"
  top: "inception_3b/5x5"
  param {
    lr_mult: 1
    decay_mult: 1
  }
  param {
    lr_mult: 2
    decay_mult: 0
  }
  convolution_param {
    num_output: 96
    pad: 2
    kernel_size: 5
    weight_filler {
      type: "xavier"
      std: 0.03
    }
    bias_filler {
      type: "constant"
      value: 0.2
    }
  }
}
layer {
  name: "inception_3b/relu_5x5"
  type: "ReLU"
  bottom: "inception_3b/5x5"
  top: "inception_3b/5x5"
}
layer {
  name: "inception_3b/pool"
  type: "Pooling"
  bottom: "inception_3a/output"
  top: "inception_3b/pool"
  pooling_param {
    pool: MAX
    kernel_size: 3
    stride: 1
    pad: 1
  }
}
layer {
  name: "inception_3b/pool_proj"
  type: "Convolution"
  bottom: "inception_3b/pool"
  top: "inception_3b/pool_proj"
  param {
    lr_mult: 1
    decay_mult: 1
  }
  param {
    lr_mult: 2
    decay_mult: 0
  }
  convolution_param {
    num_output: 64
    kernel_size: 1
    weight_filler {
      type: "xavier"
      std: 0.1
    }
    bias_filler {
      type: "constant"
      value: 0.2
    }
  }
}
layer {
  name: "inception_3b/relu_pool_proj"
  type: "ReLU"
  bottom: "inception_3b/pool_proj"
  top: "inception_3b/pool_proj"
}
layer {
  name: "inception_3b/output"
  type: "Concat"
  bottom: "inception_3b/1x1"
  bottom: "inception_3b/3x3"
  bottom: "inception_3b/5x5"
  bottom: "inception_3b/pool_proj"
  top: "inception_3b/output"
}
layer {
  name: "pool3/3x3_s2"
  type: "Pooling"
  bottom: "inception_3b/output"
  top: "pool3/3x3_s2"
  pooling_param {
    pool: MAX
    kernel_size: 3
    stride: 2
  }
}
layer {
  name: "inception_4a/1x1"
  type: "Convolution"
  bottom: "pool3/3x3_s2"
  top: "inception_4a/1x1"
  param {
    lr_mult: 1
    decay_mult: 1
  }
  param {
    lr_mult: 2
    decay_mult: 0
  }
  convolution_param {
    num_output: 192
    kernel_size: 1
    weight_filler {
      type: "xavier"
      std: 0.03
    }
    bias_filler {
      type: "constant"
      value: 0.2
    }
  }
}
layer {
  name: "inception_4a/relu_1x1"
  type: "ReLU"
  bottom: "inception_4a/1x1"
  top: "inception_4a/1x1"
}
layer {
  name: "inception_4a/3x3_reduce"
  type: "Convolution"
  bottom: "pool3/3x3_s2"
  top: "inception_4a/3x3_reduce"
  param {
    lr_mult: 1
    decay_mult: 1
  }
  param {
    lr_mult: 2
    decay_mult: 0
  }
  convolution_param {
    num_output: 96
    kernel_size: 1
    weight_filler {
      type: "xavier"
      std: 0.09
    }
    bias_filler {
      type: "constant"
      value: 0.2
    }
  }
}
layer {
  name: "inception_4a/relu_3x3_reduce"
  type: "ReLU"
  bottom: "inception_4a/3x3_reduce"
  top: "inception_4a/3x3_reduce"
}
layer {
  name: "inception_4a/3x3"
  type: "Convolution"
  bottom: "inception_4a/3x3_reduce"
  top: "inception_4a/3x3"
  param {
    lr_mult: 1
    decay_mult: 1
  }
  param {
    lr_mult: 2
    decay_mult: 0
  }
  convolution_param {
    num_output: 208
    pad: 1
    kernel_size: 3
    weight_filler {
      type: "xavier"
      std: 0.03
    }
    bias_filler {
      type: "constant"
      value: 0.2
    }
  }
}
layer {
  name: "inception_4a/relu_3x3"
  type: "ReLU"
  bottom: "inception_4a/3x3"
  top: "inception_4a/3x3"
}
layer {
  name: "inception_4a/5x5_reduce"
  type: "Convolution"
  bottom: "pool3/3x3_s2"
  top: "inception_4a/5x5_reduce"
  param {
    lr_mult: 1
    decay_mult: 1
  }
  param {
    lr_mult: 2
    decay_mult: 0
  }
  convolution_param {
    num_output: 16
    kernel_size: 1
    weight_filler {
      type: "xavier"
      std: 0.2
    }
    bias_filler {
      type: "constant"
      value: 0.2
    }
  }
}
layer {
  name: "inception_4a/relu_5x5_reduce"
  type: "ReLU"
  bottom: "inception_4a/5x5_reduce"
  top: "inception_4a/5x5_reduce"
}
layer {
  name: "inception_4a/5x5"
  type: "Convolution"
  bottom: "inception_4a/5x5_reduce"
  top: "inception_4a/5x5"
  param {
    lr_mult: 1
    decay_mult: 1
  }
  param {
    lr_mult: 2
    decay_mult: 0
  }
  convolution_param {
    num_output: 48
    pad: 2
    kernel_size: 5
    weight_filler {
      type: "xavier"
      std: 0.03
    }
    bias_filler {
      type: "constant"
      value: 0.2
    }
  }
}
layer {
  name: "inception_4a/relu_5x5"
  type: "ReLU"
  bottom: "inception_4a/5x5"
  top: "inception_4a/5x5"
}
layer {
  name: "inception_4a/pool"
  type: "Pooling"
  bottom: "pool3/3x3_s2"
  top: "inception_4a/pool"
  pooling_param {
    pool: MAX
    kernel_size: 3
    stride: 1
    pad: 1
  }
}
layer {
  name: "inception_4a/pool_proj"
  type: "Convolution"
  bottom: "inception_4a/pool"
  top: "inception_4a/pool_proj"
  param {
    lr_mult: 1
    decay_mult: 1
  }
  param {
    lr_mult: 2
    decay_mult: 0
  }
  convolution_param {
    num_output: 64
    kernel_size: 1
    weight_filler {
      type: "xavier"
      std: 0.1
    }
    bias_filler {
      type: "constant"
      value: 0.2
    }
  }
}
layer {
  name: "inception_4a/relu_pool_proj"
  type: "ReLU"
  bottom: "inception_4a/pool_proj"
  top: "inception_4a/pool_proj"
}
layer {
  name: "inception_4a/output"
  type: "Concat"
  bottom: "inception_4a/1x1"
  bottom: "inception_4a/3x3"
  bottom: "inception_4a/5x5"
  bottom: "inception_4a/pool_proj"
  top: "inception_4a/output"
}
layer {
  name: "loss1/ave_pool"
  type: "Pooling"
  bottom: "inception_4a/output"
  top: "loss1/ave_pool"
  pooling_param {
    pool: AVE
    kernel_size: 5
    stride: 3
  }
}
layer {
  name: "loss1/conv"
  type: "Convolution"
  bottom: "loss1/ave_pool"
  top: "loss1/conv"
  param {
    lr_mult: 1
    decay_mult: 1
  }
  param {
    lr_mult: 2
    decay_mult: 0
  }
  convolution_param {
    num_output: 128
    kernel_size: 1
    weight_filler {
      type: "xavier"
      std: 0.08
    }
    bias_filler {
      type: "constant"
      value: 0.2
    }
  }
}
layer {
  name: "loss1/relu_conv"
  type: "ReLU"
  bottom: "loss1/conv"
  top: "loss1/conv"
}
layer {
  name: "loss1/fc"
  type: "InnerProduct"
  bottom: "loss1/conv"
  top: "loss1/fc"
  param {
    lr_mult: 1
    decay_mult: 1
  }
  param {
    lr_mult: 2
    decay_mult: 0
  }
  inner_product_param {
    num_output: 1024
    weight_filler {
      type: "xavier"
      std: 0.02
    }
    bias_filler {
      type: "constant"
      value: 0.2
    }
  }
}
layer {
  name: "loss1/relu_fc"
  type: "ReLU"
  bottom: "loss1/fc"
  top: "loss1/fc"
}
layer {
  name: "loss1/drop_fc"
  type: "Dropout"
  bottom: "loss1/fc"
  top: "loss1/fc"
  dropout_param {
    dropout_ratio: 0.7
  }
}
layer {
  name: "loss1/classifier_plantvillage"
  type: "InnerProduct"
  bottom: "loss1/fc"
  top: "loss1/classifier_plantvillage"
  param {
    lr_mult: 1
    decay_mult: 1
  }
  param {
    lr_mult: 2
    decay_mult: 0
  }
  inner_product_param {
    num_output: 38
    weight_filler {
      type: "xavier"
      std: 0.0009765625
    }
    bias_filler {
      type: "constant"
      value: 0
    }
  }
}
layer {
  name: "inception_4b/1x1"
  type: "Convolution"
  bottom: "inception_4a/output"
  top: "inception_4b/1x1"
  param {
    lr_mult: 1
    decay_mult: 1
  }
  param {
    lr_mult: 2
    decay_mult: 0
  }
  convolution_param {
    num_output: 160
    kernel_size: 1
    weight_filler {
      type: "xavier"
      std: 0.03
    }
    bias_filler {
      type: "constant"
      value: 0.2
    }
  }
}
layer {
  name: "inception_4b/relu_1x1"
  type: "ReLU"
  bottom: "inception_4b/1x1"
  top: "inception_4b/1x1"
}
layer {
  name: "inception_4b/3x3_reduce"
  type: "Convolution"
  bottom: "inception_4a/output"
  top: "inception_4b/3x3_reduce"
  param {
    lr_mult: 1
    decay_mult: 1
  }
  param {
    lr_mult: 2
    decay_mult: 0
  }
  convolution_param {
    num_output: 112
    kernel_size: 1
    weight_filler {
      type: "xavier"
      std: 0.09
    }
    bias_filler {
      type: "constant"
      value: 0.2
    }
  }
}
layer {
  name: "inception_4b/relu_3x3_reduce"
  type: "ReLU"
  bottom: "inception_4b/3x3_reduce"
  top: "inception_4b/3x3_reduce"
}
layer {
  name: "inception_4b/3x3"
  type: "Convolution"
  bottom: "inception_4b/3x3_reduce"
  top: "inception_4b/3x3"
  param {
    lr_mult: 1
    decay_mult: 1
  }
  param {
    lr_mult: 2
    decay_mult: 0
  }
  convolution_param {
    num_output: 224
    pad: 1
    kernel_size: 3
    weight_filler {
      type: "xavier"
      std: 0.03
    }
    bias_filler {
      type: "constant"
      value: 0.2
    }
  }
}
layer {
  name: "inception_4b/relu_3x3"
  type: "ReLU"
  bottom: "inception_4b/3x3"
  top: "inception_4b/3x3"
}
layer {
  name: "inception_4b/5x5_reduce"
  type: "Convolution"
  bottom: "inception_4a/output"
  top: "inception_4b/5x5_reduce"
  param {
    lr_mult: 1
    decay_mult: 1
  }
  param {
    lr_mult: 2
    decay_mult: 0
  }
  convolution_param {
    num_output: 24
    kernel_size: 1
    weight_filler {
      type: "xavier"
      std: 0.2
    }
    bias_filler {
      type: "constant"
      value: 0.2
    }
  }
}
layer {
  name: "inception_4b/relu_5x5_reduce"
  type: "ReLU"
  bottom: "inception_4b/5x5_reduce"
  top: "inception_4b/5x5_reduce"
}
layer {
  name: "inception_4b/5x5"
  type: "Convolution"
  bottom: "inception_4b/5x5_reduce"
  top: "inception_4b/5x5"
  param {
    lr_mult: 1
    decay_mult: 1
  }
  param {
    lr_mult: 2
    decay_mult: 0
  }
  convolution_param {
    num_output: 64
    pad: 2
    kernel_size: 5
    weight_filler {
      type: "xavier"
      std: 0.03
    }
    bias_filler {
      type: "constant"
      value: 0.2
    }
  }
}
layer {
  name: "inception_4b/relu_5x5"
  type: "ReLU"
  bottom: "inception_4b/5x5"
  top: "inception_4b/5x5"
}
layer {
  name: "inception_4b/pool"
  type: "Pooling"
  bottom: "inception_4a/output"
  top: "inception_4b/pool"
  pooling_param {
    pool: MAX
    kernel_size: 3
    stride: 1
    pad: 1
  }
}
layer {
  name: "inception_4b/pool_proj"
  type: "Convolution"
  bottom: "inception_4b/pool"
  top: "inception_4b/pool_proj"
  param {
    lr_mult: 1
    decay_mult: 1
  }
  param {
    lr_mult: 2
    decay_mult: 0
  }
  convolution_param {
    num_output: 64
    kernel_size: 1
    weight_filler {
      type: "xavier"
      std: 0.1
    }
    bias_filler {
      type: "constant"
      value: 0.2
    }
  }
}
layer {
  name: "inception_4b/relu_pool_proj"
  type: "ReLU"
  bottom: "inception_4b/pool_proj"
  top: "inception_4b/pool_proj"
}
layer {
  name: "inception_4b/output"
  type: "Concat"
  bottom: "inception_4b/1x1"
  bottom: "inception_4b/3x3"
  bottom: "inception_4b/5x5"
  bottom: "inception_4b/pool_proj"
  top: "inception_4b/output"
}
layer {
  name: "inception_4c/1x1"
  type: "Convolution"
  bottom: "inception_4b/output"
  top: "inception_4c/1x1"
  param {
    lr_mult: 1
    decay_mult: 1
  }
  param {
    lr_mult: 2
    decay_mult: 0
  }
  convolution_param {
    num_output: 128
    kernel_size: 1
    weight_filler {
      type: "xavier"
      std: 0.03
    }
    bias_filler {
      type: "constant"
      value: 0.2
    }
  }
}
layer {
  name: "inception_4c/relu_1x1"
  type: "ReLU"
  bottom: "inception_4c/1x1"
  top: "inception_4c/1x1"
}
layer {
  name: "inception_4c/3x3_reduce"
  type: "Convolution"
  bottom: "inception_4b/output"
  top: "inception_4c/3x3_reduce"
  param {
    lr_mult: 1
    decay_mult: 1
  }
  param {
    lr_mult: 2
    decay_mult: 0
  }
  convolution_param {
    num_output: 128
    kernel_size: 1
    weight_filler {
      type: "xavier"
      std: 0.09
    }
    bias_filler {
      type: "constant"
      value: 0.2
    }
  }
}
layer {
  name: "inception_4c/relu_3x3_reduce"
  type: "ReLU"
  bottom: "inception_4c/3x3_reduce"
  top: "inception_4c/3x3_reduce"
}
layer {
  name: "inception_4c/3x3"
  type: "Convolution"
  bottom: "inception_4c/3x3_reduce"
  top: "inception_4c/3x3"
  param {
    lr_mult: 1
    decay_mult: 1
  }
  param {
    lr_mult: 2
    decay_mult: 0
  }
  convolution_param {
    num_output: 256
    pad: 1
    kernel_size: 3
    weight_filler {
      type: "xavier"
      std: 0.03
    }
    bias_filler {
      type: "constant"
      value: 0.2
    }
  }
}
layer {
  name: "inception_4c/relu_3x3"
  type: "ReLU"
  bottom: "inception_4c/3x3"
  top: "inception_4c/3x3"
}
layer {
  name: "inception_4c/5x5_reduce"
  type: "Convolution"
  bottom: "inception_4b/output"
  top: "inception_4c/5x5_reduce"
  param {
    lr_mult: 1
    decay_mult: 1
  }
  param {
    lr_mult: 2
    decay_mult: 0
  }
  convolution_param {
    num_output: 24
    kernel_size: 1
    weight_filler {
      type: "xavier"
      std: 0.2
    }
    bias_filler {
      type: "constant"
      value: 0.2
    }
  }
}
layer {
  name: "inception_4c/relu_5x5_reduce"
  type: "ReLU"
  bottom: "inception_4c/5x5_reduce"
  top: "inception_4c/5x5_reduce"
}
layer {
  name: "inception_4c/5x5"
  type: "Convolution"
  bottom: "inception_4c/5x5_reduce"
  top: "inception_4c/5x5"
  param {
    lr_mult: 1
    decay_mult: 1
  }
  param {
    lr_mult: 2
    decay_mult: 0
  }
  convolution_param {
    num_output: 64
    pad: 2
    kernel_size: 5
    weight_filler {
      type: "xavier"
      std: 0.03
    }
    bias_filler {
      type: "constant"
      value: 0.2
    }
  }
}
layer {
  name: "inception_4c/relu_5x5"
  type: "ReLU"
  bottom: "inception_4c/5x5"
  top: "inception_4c/5x5"
}
layer {
  name: "inception_4c/pool"
  type: "Pooling"
  bottom: "inception_4b/output"
  top: "inception_4c/pool"
  pooling_param {
    pool: MAX
    kernel_size: 3
    stride: 1
    pad: 1
  }
}
layer {
  name: "inception_4c/pool_proj"
  type: "Convolution"
  bottom: "inception_4c/pool"
  top: "inception_4c/pool_proj"
  param {
    lr_mult: 1
    decay_mult: 1
  }
  param {
    lr_mult: 2
    decay_mult: 0
  }
  convolution_param {
    num_output: 64
    kernel_size: 1
    weight_filler {
      type: "xavier"
      std: 0.1
    }
    bias_filler {
      type: "constant"
      value: 0.2
    }
  }
}
layer {
  name: "inception_4c/relu_pool_proj"
  type: "ReLU"
  bottom: "inception_4c/pool_proj"
  top: "inception_4c/pool_proj"
}
layer {
  name: "inception_4c/output"
  type: "Concat"
  bottom: "inception_4c/1x1"
  bottom: "inception_4c/3x3"
  bottom: "inception_4c/5x5"
  bottom: "inception_4c/pool_proj"
  top: "inception_4c/output"
}
layer {
  name: "inception_4d/1x1"
  type: "Convolution"
  bottom: "inception_4c/output"
  top: "inception_4d/1x1"
  param {
    lr_mult: 1
    decay_mult: 1
  }
  param {
    lr_mult: 2
    decay_mult: 0
  }
  convolution_param {
    num_output: 112
    kernel_size: 1
    weight_filler {
      type: "xavier"
      std: 0.03
    }
    bias_filler {
      type: "constant"
      value: 0.2
    }
  }
}
layer {
  name: "inception_4d/relu_1x1"
  type: "ReLU"
  bottom: "inception_4d/1x1"
  top: "inception_4d/1x1"
}
layer {
  name: "inception_4d/3x3_reduce"
  type: "Convolution"
  bottom: "inception_4c/output"
  top: "inception_4d/3x3_reduce"
  param {
    lr_mult: 1
    decay_mult: 1
  }
  param {
    lr_mult: 2
    decay_mult: 0
  }
  convolution_param {
    num_output: 144
    kernel_size: 1
    weight_filler {
      type: "xavier"
      std: 0.09
    }
    bias_filler {
      type: "constant"
      value: 0.2
    }
  }
}
layer {
  name: "inception_4d/relu_3x3_reduce"
  type: "ReLU"
  bottom: "inception_4d/3x3_reduce"
  top: "inception_4d/3x3_reduce"
}
layer {
  name: "inception_4d/3x3"
  type: "Convolution"
  bottom: "inception_4d/3x3_reduce"
  top: "inception_4d/3x3"
  param {
    lr_mult: 1
    decay_mult: 1
  }
  param {
    lr_mult: 2
    decay_mult: 0
  }
  convolution_param {
    num_output: 288
    pad: 1
    kernel_size: 3
    weight_filler {
      type: "xavier"
      std: 0.03
    }
    bias_filler {
      type: "constant"
      value: 0.2
    }
  }
}
layer {
  name: "inception_4d/relu_3x3"
  type: "ReLU"
  bottom: "inception_4d/3x3"
  top: "inception_4d/3x3"
}
layer {
  name: "inception_4d/5x5_reduce"
  type: "Convolution"
  bottom: "inception_4c/output"
  top: "inception_4d/5x5_reduce"
  param {
    lr_mult: 1
    decay_mult: 1
  }
  param {
    lr_mult: 2
    decay_mult: 0
  }
  convolution_param {
    num_output: 32
    kernel_size: 1
    weight_filler {
      type: "xavier"
      std: 0.2
    }
    bias_filler {
      type: "constant"
      value: 0.2
    }
  }
}
layer {
  name: "inception_4d/relu_5x5_reduce"
  type: "ReLU"
  bottom: "inception_4d/5x5_reduce"
  top: "inception_4d/5x5_reduce"
}
layer {
  name: "inception_4d/5x5"
  type: "Convolution"
  bottom: "inception_4d/5x5_reduce"
  top: "inception_4d/5x5"
  param {
    lr_mult: 1
    decay_mult: 1
  }
  param {
    lr_mult: 2
    decay_mult: 0
  }
  convolution_param {
    num_output: 64
    pad: 2
    kernel_size: 5
    weight_filler {
      type: "xavier"
      std: 0.03
    }
    bias_filler {
      type: "constant"
      value: 0.2
    }
  }
}
layer {
  name: "inception_4d/relu_5x5"
  type: "ReLU"
  bottom: "inception_4d/5x5"
  top: "inception_4d/5x5"
}
layer {
  name: "inception_4d/pool"
  type: "Pooling"
  bottom: "inception_4c/output"
  top: "inception_4d/pool"
  pooling_param {
    pool: MAX
    kernel_size: 3
    stride: 1
    pad: 1
  }
}
layer {
  name: "inception_4d/pool_proj"
  type: "Convolution"
  bottom: "inception_4d/pool"
  top: "inception_4d/pool_proj"
  param {
    lr_mult: 1
    decay_mult: 1
  }
  param {
    lr_mult: 2
    decay_mult: 0
  }
  convolution_param {
    num_output: 64
    kernel_size: 1
    weight_filler {
      type: "xavier"
      std: 0.1
    }
    bias_filler {
      type: "constant"
      value: 0.2
    }
  }
}
layer {
  name: "inception_4d/relu_pool_proj"
  type: "ReLU"
  bottom: "inception_4d/pool_proj"
  top: "inception_4d/pool_proj"
}
layer {
  name: "inception_4d/output"
  type: "Concat"
  bottom: "inception_4d/1x1"
  bottom: "inception_4d/3x3"
  bottom: "inception_4d/5x5"
  bottom: "inception_4d/pool_proj"
  top: "inception_4d/output"
}
layer {
  name: "loss2/ave_pool"
  type: "Pooling"
  bottom: "inception_4d/output"
  top: "loss2/ave_pool"
  pooling_param {
    pool: AVE
    kernel_size: 5
    stride: 3
  }
}
layer {
  name: "loss2/conv"
  type: "Convolution"
  bottom: "loss2/ave_pool"
  top: "loss2/conv"
  param {
    lr_mult: 1
    decay_mult: 1
  }
  param {
    lr_mult: 2
    decay_mult: 0
  }
  convolution_param {
    num_output: 128
    kernel_size: 1
    weight_filler {
      type: "xavier"
      std: 0.08
    }
    bias_filler {
      type: "constant"
      value: 0.2
    }
  }
}
layer {
  name: "loss2/relu_conv"
  type: "ReLU"
  bottom: "loss2/conv"
  top: "loss2/conv"
}
layer {
  name: "loss2/fc"
  type: "InnerProduct"
  bottom: "loss2/conv"
  top: "loss2/fc"
  param {
    lr_mult: 1
    decay_mult: 1
  }
  param {
    lr_mult: 2
    decay_mult: 0
  }
  inner_product_param {
    num_output: 1024
    weight_filler {
      type: "xavier"
      std: 0.02
    }
    bias_filler {
      type: "constant"
      value: 0.2
    }
  }
}
layer {
  name: "loss2/relu_fc"
  type: "ReLU"
  bottom: "loss2/fc"
  top: "loss2/fc"
}
layer {
  name: "loss2/drop_fc"
  type: "Dropout"
  bottom: "loss2/fc"
  top: "loss2/fc"
  dropout_param {
    dropout_ratio: 0.7
  }
}
layer {
  name: "loss2/classifier_plantvillage"
  type: "InnerProduct"
  bottom: "loss2/fc"
  top: "loss2/classifier_plantvillage"
  param {
    lr_mult: 1
    decay_mult: 1
  }
  param {
    lr_mult: 2
    decay_mult: 0
  }
  inner_product_param {
    num_output: 38
    weight_filler {
      type: "xavier"
      std: 0.0009765625
    }
    bias_filler {
      type: "constant"
      value: 0
    }
  }
}
layer {
  name: "inception_4e/1x1"
  type: "Convolution"
  bottom: "inception_4d/output"
  top: "inception_4e/1x1"
  param {
    lr_mult: 1
    decay_mult: 1
  }
  param {
    lr_mult: 2
    decay_mult: 0
  }
  convolution_param {
    num_output: 256
    kernel_size: 1
    weight_filler {
      type: "xavier"
      std: 0.03
    }
    bias_filler {
      type: "constant"
      value: 0.2
    }
  }
}
layer {
  name: "inception_4e/relu_1x1"
  type: "ReLU"
  bottom: "inception_4e/1x1"
  top: "inception_4e/1x1"
}
layer {
  name: "inception_4e/3x3_reduce"
  type: "Convolution"
  bottom: "inception_4d/output"
  top: "inception_4e/3x3_reduce"
  param {
    lr_mult: 1
    decay_mult: 1
  }
  param {
    lr_mult: 2
    decay_mult: 0
  }
  convolution_param {
    num_output: 160
    kernel_size: 1
    weight_filler {
      type: "xavier"
      std: 0.09
    }
    bias_filler {
      type: "constant"
      value: 0.2
    }
  }
}
layer {
  name: "inception_4e/relu_3x3_reduce"
  type: "ReLU"
  bottom: "inception_4e/3x3_reduce"
  top: "inception_4e/3x3_reduce"
}
layer {
  name: "inception_4e/3x3"
  type: "Convolution"
  bottom: "inception_4e/3x3_reduce"
  top: "inception_4e/3x3"
  param {
    lr_mult: 1
    decay_mult: 1
  }
  param {
    lr_mult: 2
    decay_mult: 0
  }
  convolution_param {
    num_output: 320
    pad: 1
    kernel_size: 3
    weight_filler {
      type: "xavier"
      std: 0.03
    }
    bias_filler {
      type: "constant"
      value: 0.2
    }
  }
}
layer {
  name: "inception_4e/relu_3x3"
  type: "ReLU"
  bottom: "inception_4e/3x3"
  top: "inception_4e/3x3"
}
layer {
  name: "inception_4e/5x5_reduce"
  type: "Convolution"
  bottom: "inception_4d/output"
  top: "inception_4e/5x5_reduce"
  param {
    lr_mult: 1
    decay_mult: 1
  }
  param {
    lr_mult: 2
    decay_mult: 0
  }
  convolution_param {
    num_output: 32
    kernel_size: 1
    weight_filler {
      type: "xavier"
      std: 0.2
    }
    bias_filler {
      type: "constant"
      value: 0.2
    }
  }
}
layer {
  name: "inception_4e/relu_5x5_reduce"
  type: "ReLU"
  bottom: "inception_4e/5x5_reduce"
  top: "inception_4e/5x5_reduce"
}
layer {
  name: "inception_4e/5x5"
  type: "Convolution"
  bottom: "inception_4e/5x5_reduce"
  top: "inception_4e/
I0403 15:35:22.697000  3262 layer_factory.hpp:77] Creating layer data
I0403 15:35:22.697621  3262 net.cpp:91] Creating Layer data
I0403 15:35:22.697651  3262 net.cpp:399] data -> data
I0403 15:35:22.697697  3262 net.cpp:399] data -> label
I0403 15:35:22.697736  3262 data_transformer.cpp:25] Loading mean file from: /home/mohanty/data/final_dataset/lmdb/segmented-60-40/mean.binaryproto
I0403 15:35:22.700958  3267 db_lmdb.cpp:38] Opened lmdb /home/mohanty/data/final_dataset/lmdb/segmented-60-40/test_db
I0403 15:35:22.710752  3262 data_layer.cpp:41] output data size: 24,3,224,224
I0403 15:35:22.738276  3262 net.cpp:141] Setting up data
I0403 15:35:22.738335  3262 net.cpp:148] Top shape: 24 3 224 224 (3612672)
I0403 15:35:22.738358  3262 net.cpp:148] Top shape: 24 (24)
I0403 15:35:22.738373  3262 net.cpp:156] Memory required for data: 14450784
I0403 15:35:22.738399  3262 layer_factory.hpp:77] Creating layer label_data_1_split
I0403 15:35:22.738422  3262 net.cpp:91] Creating Layer label_data_1_split
I0403 15:35:22.738451  3262 net.cpp:425] label_data_1_split <- label
I0403 15:35:22.738483  3262 net.cpp:399] label_data_1_split -> label_data_1_split_0
I0403 15:35:22.738509  3262 net.cpp:399] label_data_1_split -> label_data_1_split_1
I0403 15:35:22.738531  3262 net.cpp:399] label_data_1_split -> label_data_1_split_2
I0403 15:35:22.738554  3262 net.cpp:399] label_data_1_split -> label_data_1_split_3
I0403 15:35:22.738574  3262 net.cpp:399] label_data_1_split -> label_data_1_split_4
I0403 15:35:22.738595  3262 net.cpp:399] label_data_1_split -> label_data_1_split_5
I0403 15:35:22.738615  3262 net.cpp:399] label_data_1_split -> label_data_1_split_6
I0403 15:35:22.738636  3262 net.cpp:399] label_data_1_split -> label_data_1_split_7
I0403 15:35:22.738656  3262 net.cpp:399] label_data_1_split -> label_data_1_split_8
I0403 15:35:22.738677  3262 net.cpp:399] label_data_1_split -> label_data_1_split_9
I0403 15:35:22.738811  3262 net.cpp:141] Setting up label_data_1_split
I0403 15:35:22.738834  3262 net.cpp:148] Top shape: 24 (24)
I0403 15:35:22.738852  3262 net.cpp:148] Top shape: 24 (24)
I0403 15:35:22.738867  3262 net.cpp:148] Top shape: 24 (24)
I0403 15:35:22.738884  3262 net.cpp:148] Top shape: 24 (24)
I0403 15:35:22.738899  3262 net.cpp:148] Top shape: 24 (24)
I0403 15:35:22.738915  3262 net.cpp:148] Top shape: 24 (24)
I0403 15:35:22.738930  3262 net.cpp:148] Top shape: 24 (24)
I0403 15:35:22.738946  3262 net.cpp:148] Top shape: 24 (24)
I0403 15:35:22.738961  3262 net.cpp:148] Top shape: 24 (24)
I0403 15:35:22.738978  3262 net.cpp:148] Top shape: 24 (24)
I0403 15:35:22.739011  3262 net.cpp:156] Memory required for data: 14451744
I0403 15:35:22.739027  3262 layer_factory.hpp:77] Creating layer conv1/7x7_s2
I0403 15:35:22.739056  3262 net.cpp:91] Creating Layer conv1/7x7_s2
I0403 15:35:22.739074  3262 net.cpp:425] conv1/7x7_s2 <- data
I0403 15:35:22.739094  3262 net.cpp:399] conv1/7x7_s2 -> conv1/7x7_s2
I0403 15:35:22.880475  3262 net.cpp:141] Setting up conv1/7x7_s2
I0403 15:35:22.880547  3262 net.cpp:148] Top shape: 24 64 112 112 (19267584)
I0403 15:35:22.880566  3262 net.cpp:156] Memory required for data: 91522080
I0403 15:35:22.880601  3262 layer_factory.hpp:77] Creating layer conv1/relu_7x7
I0403 15:35:22.880630  3262 net.cpp:91] Creating Layer conv1/relu_7x7
I0403 15:35:22.880652  3262 net.cpp:425] conv1/relu_7x7 <- conv1/7x7_s2
I0403 15:35:22.880674  3262 net.cpp:386] conv1/relu_7x7 -> conv1/7x7_s2 (in-place)
I0403 15:35:22.880946  3262 net.cpp:141] Setting up conv1/relu_7x7
I0403 15:35:22.880975  3262 net.cpp:148] Top shape: 24 64 112 112 (19267584)
I0403 15:35:22.880992  3262 net.cpp:156] Memory required for data: 168592416
I0403 15:35:22.881007  3262 layer_factory.hpp:77] Creating layer pool1/3x3_s2
I0403 15:35:22.881034  3262 net.cpp:91] Creating Layer pool1/3x3_s2
I0403 15:35:22.881054  3262 net.cpp:425] pool1/3x3_s2 <- conv1/7x7_s2
I0403 15:35:22.881075  3262 net.cpp:399] pool1/3x3_s2 -> pool1/3x3_s2
I0403 15:35:22.881155  3262 net.cpp:141] Setting up pool1/3x3_s2
I0403 15:35:22.881183  3262 net.cpp:148] Top shape: 24 64 56 56 (4816896)
I0403 15:35:22.881201  3262 net.cpp:156] Memory required for data: 187860000
I0403 15:35:22.881217  3262 layer_factory.hpp:77] Creating layer pool1/norm1
I0403 15:35:22.881244  3262 net.cpp:91] Creating Layer pool1/norm1
I0403 15:35:22.881264  3262 net.cpp:425] pool1/norm1 <- pool1/3x3_s2
I0403 15:35:22.881284  3262 net.cpp:399] pool1/norm1 -> pool1/norm1
I0403 15:35:22.881587  3262 net.cpp:141] Setting up pool1/norm1
I0403 15:35:22.881615  3262 net.cpp:148] Top shape: 24 64 56 56 (4816896)
I0403 15:35:22.881633  3262 net.cpp:156] Memory required for data: 207127584
I0403 15:35:22.881651  3262 layer_factory.hpp:77] Creating layer conv2/3x3_reduce
I0403 15:35:22.881677  3262 net.cpp:91] Creating Layer conv2/3x3_reduce
I0403 15:35:22.881695  3262 net.cpp:425] conv2/3x3_reduce <- pool1/norm1
I0403 15:35:22.881712  3262 net.cpp:399] conv2/3x3_reduce -> conv2/3x3_reduce
I0403 15:35:22.883102  3262 net.cpp:141] Setting up conv2/3x3_reduce
I0403 15:35:22.883132  3262 net.cpp:148] Top shape: 24 64 56 56 (4816896)
I0403 15:35:22.883152  3262 net.cpp:156] Memory required for data: 226395168
I0403 15:35:22.883188  3262 layer_factory.hpp:77] Creating layer conv2/relu_3x3_reduce
I0403 15:35:22.883213  3262 net.cpp:91] Creating Layer conv2/relu_3x3_reduce
I0403 15:35:22.883231  3262 net.cpp:425] conv2/relu_3x3_reduce <- conv2/3x3_reduce
I0403 15:35:22.883251  3262 net.cpp:386] conv2/relu_3x3_reduce -> conv2/3x3_reduce (in-place)
I0403 15:35:22.883527  3262 net.cpp:141] Setting up conv2/relu_3x3_reduce
I0403 15:35:22.883555  3262 net.cpp:148] Top shape: 24 64 56 56 (4816896)
I0403 15:35:22.883572  3262 net.cpp:156] Memory required for data: 245662752
I0403 15:35:22.883590  3262 layer_factory.hpp:77] Creating layer conv2/3x3
I0403 15:35:22.883615  3262 net.cpp:91] Creating Layer conv2/3x3
I0403 15:35:22.883633  3262 net.cpp:425] conv2/3x3 <- conv2/3x3_reduce
I0403 15:35:22.883652  3262 net.cpp:399] conv2/3x3 -> conv2/3x3
I0403 15:35:22.886013  3262 net.cpp:141] Setting up conv2/3x3
I0403 15:35:22.886045  3262 net.cpp:148] Top shape: 24 192 56 56 (14450688)
I0403 15:35:22.886065  3262 net.cpp:156] Memory required for data: 303465504
I0403 15:35:22.886086  3262 layer_factory.hpp:77] Creating layer conv2/relu_3x3
I0403 15:35:22.886111  3262 net.cpp:91] Creating Layer conv2/relu_3x3
I0403 15:35:22.886127  3262 net.cpp:425] conv2/relu_3x3 <- conv2/3x3
I0403 15:35:22.886147  3262 net.cpp:386] conv2/relu_3x3 -> conv2/3x3 (in-place)
I0403 15:35:22.886323  3262 net.cpp:141] Setting up conv2/relu_3x3
I0403 15:35:22.886353  3262 net.cpp:148] Top shape: 24 192 56 56 (14450688)
I0403 15:35:22.886399  3262 net.cpp:156] Memory required for data: 361268256
I0403 15:35:22.886417  3262 layer_factory.hpp:77] Creating layer conv2/norm2
I0403 15:35:22.886440  3262 net.cpp:91] Creating Layer conv2/norm2
I0403 15:35:22.886457  3262 net.cpp:425] conv2/norm2 <- conv2/3x3
I0403 15:35:22.886477  3262 net.cpp:399] conv2/norm2 -> conv2/norm2
I0403 15:35:22.886778  3262 net.cpp:141] Setting up conv2/norm2
I0403 15:35:22.886807  3262 net.cpp:148] Top shape: 24 192 56 56 (14450688)
I0403 15:35:22.886824  3262 net.cpp:156] Memory required for data: 419071008
I0403 15:35:22.886842  3262 layer_factory.hpp:77] Creating layer pool2/3x3_s2
I0403 15:35:22.886860  3262 net.cpp:91] Creating Layer pool2/3x3_s2
I0403 15:35:22.886878  3262 net.cpp:425] pool2/3x3_s2 <- conv2/norm2
I0403 15:35:22.886898  3262 net.cpp:399] pool2/3x3_s2 -> pool2/3x3_s2
I0403 15:35:22.886951  3262 net.cpp:141] Setting up pool2/3x3_s2
I0403 15:35:22.886977  3262 net.cpp:148] Top shape: 24 192 28 28 (3612672)
I0403 15:35:22.886992  3262 net.cpp:156] Memory required for data: 433521696
I0403 15:35:22.887008  3262 layer_factory.hpp:77] Creating layer pool2/3x3_s2_pool2/3x3_s2_0_split
I0403 15:35:22.887027  3262 net.cpp:91] Creating Layer pool2/3x3_s2_pool2/3x3_s2_0_split
I0403 15:35:22.887043  3262 net.cpp:425] pool2/3x3_s2_pool2/3x3_s2_0_split <- pool2/3x3_s2
I0403 15:35:22.887063  3262 net.cpp:399] pool2/3x3_s2_pool2/3x3_s2_0_split -> pool2/3x3_s2_pool2/3x3_s2_0_split_0
I0403 15:35:22.887085  3262 net.cpp:399] pool2/3x3_s2_pool2/3x3_s2_0_split -> pool2/3x3_s2_pool2/3x3_s2_0_split_1
I0403 15:35:22.887106  3262 net.cpp:399] pool2/3x3_s2_pool2/3x3_s2_0_split -> pool2/3x3_s2_pool2/3x3_s2_0_split_2
I0403 15:35:22.887126  3262 net.cpp:399] pool2/3x3_s2_pool2/3x3_s2_0_split -> pool2/3x3_s2_pool2/3x3_s2_0_split_3
I0403 15:35:22.887202  3262 net.cpp:141] Setting up pool2/3x3_s2_pool2/3x3_s2_0_split
I0403 15:35:22.887225  3262 net.cpp:148] Top shape: 24 192 28 28 (3612672)
I0403 15:35:22.887243  3262 net.cpp:148] Top shape: 24 192 28 28 (3612672)
I0403 15:35:22.887259  3262 net.cpp:148] Top shape: 24 192 28 28 (3612672)
I0403 15:35:22.887274  3262 net.cpp:148] Top shape: 24 192 28 28 (3612672)
I0403 15:35:22.887290  3262 net.cpp:156] Memory required for data: 491324448
I0403 15:35:22.887305  3262 layer_factory.hpp:77] Creating layer inception_3a/1x1
I0403 15:35:22.887326  3262 net.cpp:91] Creating Layer inception_3a/1x1
I0403 15:35:22.887343  3262 net.cpp:425] inception_3a/1x1 <- pool2/3x3_s2_pool2/3x3_s2_0_split_0
I0403 15:35:22.887365  3262 net.cpp:399] inception_3a/1x1 -> inception_3a/1x1
I0403 15:35:22.888914  3262 net.cpp:141] Setting up inception_3a/1x1
I0403 15:35:22.888947  3262 net.cpp:148] Top shape: 24 64 28 28 (1204224)
I0403 15:35:22.888965  3262 net.cpp:156] Memory required for data: 496141344
I0403 15:35:22.888986  3262 layer_factory.hpp:77] Creating layer inception_3a/relu_1x1
I0403 15:35:22.889008  3262 net.cpp:91] Creating Layer inception_3a/relu_1x1
I0403 15:35:22.889026  3262 net.cpp:425] inception_3a/relu_1x1 <- inception_3a/1x1
I0403 15:35:22.889045  3262 net.cpp:386] inception_3a/relu_1x1 -> inception_3a/1x1 (in-place)
I0403 15:35:22.889225  3262 net.cpp:141] Setting up inception_3a/relu_1x1
I0403 15:35:22.889252  3262 net.cpp:148] Top shape: 24 64 28 28 (1204224)
I0403 15:35:22.889269  3262 net.cpp:156] Memory required for data: 500958240
I0403 15:35:22.889286  3262 layer_factory.hpp:77] Creating layer inception_3a/3x3_reduce
I0403 15:35:22.889314  3262 net.cpp:91] Creating Layer inception_3a/3x3_reduce
I0403 15:35:22.889335  3262 net.cpp:425] inception_3a/3x3_reduce <- pool2/3x3_s2_pool2/3x3_s2_0_split_1
I0403 15:35:22.889356  3262 net.cpp:399] inception_3a/3x3_reduce -> inception_3a/3x3_reduce
I0403 15:35:22.891124  3262 net.cpp:141] Setting up inception_3a/3x3_reduce
I0403 15:35:22.891157  3262 net.cpp:148] Top shape: 24 96 28 28 (1806336)
I0403 15:35:22.891175  3262 net.cpp:156] Memory required for data: 508183584
I0403 15:35:22.891206  3262 layer_factory.hpp:77] Creating layer inception_3a/relu_3x3_reduce
I0403 15:35:22.891248  3262 net.cpp:91] Creating Layer inception_3a/relu_3x3_reduce
I0403 15:35:22.891268  3262 net.cpp:425] inception_3a/relu_3x3_reduce <- inception_3a/3x3_reduce
I0403 15:35:22.891290  3262 net.cpp:386] inception_3a/relu_3x3_reduce -> inception_3a/3x3_reduce (in-place)
I0403 15:35:22.891480  3262 net.cpp:141] Setting up inception_3a/relu_3x3_reduce
I0403 15:35:22.891507  3262 net.cpp:148] Top shape: 24 96 28 28 (1806336)
I0403 15:35:22.891535  3262 net.cpp:156] Memory required for data: 515408928
I0403 15:35:22.891551  3262 layer_factory.hpp:77] Creating layer inception_3a/3x3
I0403 15:35:22.891576  3262 net.cpp:91] Creating Layer inception_3a/3x3
I0403 15:35:22.891594  3262 net.cpp:425] inception_3a/3x3 <- inception_3a/3x3_reduce
I0403 15:35:22.891616  3262 net.cpp:399] inception_3a/3x3 -> inception_3a/3x3
I0403 15:35:22.893394  3262 net.cpp:141] Setting up inception_3a/3x3
I0403 15:35:22.893429  3262 net.cpp:148] Top shape: 24 128 28 28 (2408448)
I0403 15:35:22.893450  3262 net.cpp:156] Memory required for data: 525042720
I0403 15:35:22.893471  3262 layer_factory.hpp:77] Creating layer inception_3a/relu_3x3
I0403 15:35:22.893489  3262 net.cpp:91] Creating Layer inception_3a/relu_3x3
I0403 15:35:22.893508  3262 net.cpp:425] inception_3a/relu_3x3 <- inception_3a/3x3
I0403 15:35:22.893528  3262 net.cpp:386] inception_3a/relu_3x3 -> inception_3a/3x3 (in-place)
I0403 15:35:22.893821  3262 net.cpp:141] Setting up inception_3a/relu_3x3
I0403 15:35:22.893852  3262 net.cpp:148] Top shape: 24 128 28 28 (2408448)
I0403 15:35:22.893872  3262 net.cpp:156] Memory required for data: 534676512
I0403 15:35:22.893889  3262 layer_factory.hpp:77] Creating layer inception_3a/5x5_reduce
I0403 15:35:22.893913  3262 net.cpp:91] Creating Layer inception_3a/5x5_reduce
I0403 15:35:22.893944  3262 net.cpp:425] inception_3a/5x5_reduce <- pool2/3x3_s2_pool2/3x3_s2_0_split_2
I0403 15:35:22.893965  3262 net.cpp:399] inception_3a/5x5_reduce -> inception_3a/5x5_reduce
I0403 15:35:22.894980  3262 net.cpp:141] Setting up inception_3a/5x5_reduce
I0403 15:35:22.895010  3262 net.cpp:148] Top shape: 24 16 28 28 (301056)
I0403 15:35:22.895028  3262 net.cpp:156] Memory required for data: 535880736
I0403 15:35:22.895048  3262 layer_factory.hpp:77] Creating layer inception_3a/relu_5x5_reduce
I0403 15:35:22.895071  3262 net.cpp:91] Creating Layer inception_3a/relu_5x5_reduce
I0403 15:35:22.895087  3262 net.cpp:425] inception_3a/relu_5x5_reduce <- inception_3a/5x5_reduce
I0403 15:35:22.895107  3262 net.cpp:386] inception_3a/relu_5x5_reduce -> inception_3a/5x5_reduce (in-place)
I0403 15:35:22.895426  3262 net.cpp:141] Setting up inception_3a/relu_5x5_reduce
I0403 15:35:22.895457  3262 net.cpp:148] Top shape: 24 16 28 28 (301056)
I0403 15:35:22.895480  3262 net.cpp:156] Memory required for data: 537084960
I0403 15:35:22.895506  3262 layer_factory.hpp:77] Creating layer inception_3a/5x5
I0403 15:35:22.895532  3262 net.cpp:91] Creating Layer inception_3a/5x5
I0403 15:35:22.895551  3262 net.cpp:425] inception_3a/5x5 <- inception_3a/5x5_reduce
I0403 15:35:22.895575  3262 net.cpp:399] inception_3a/5x5 -> inception_3a/5x5
I0403 15:35:22.896641  3262 net.cpp:141] Setting up inception_3a/5x5
I0403 15:35:22.896673  3262 net.cpp:148] Top shape: 24 32 28 28 (602112)
I0403 15:35:22.896689  3262 net.cpp:156] Memory required for data: 539493408
I0403 15:35:22.896708  3262 layer_factory.hpp:77] Creating layer inception_3a/relu_5x5
I0403 15:35:22.896728  3262 net.cpp:91] Creating Layer inception_3a/relu_5x5
I0403 15:35:22.896745  3262 net.cpp:425] inception_3a/relu_5x5 <- inception_3a/5x5
I0403 15:35:22.896764  3262 net.cpp:386] inception_3a/relu_5x5 -> inception_3a/5x5 (in-place)
I0403 15:35:22.896950  3262 net.cpp:141] Setting up inception_3a/relu_5x5
I0403 15:35:22.896978  3262 net.cpp:148] Top shape: 24 32 28 28 (602112)
I0403 15:35:22.896994  3262 net.cpp:156] Memory required for data: 541901856
I0403 15:35:22.897011  3262 layer_factory.hpp:77] Creating layer inception_3a/pool
I0403 15:35:22.897029  3262 net.cpp:91] Creating Layer inception_3a/pool
I0403 15:35:22.897064  3262 net.cpp:425] inception_3a/pool <- pool2/3x3_s2_pool2/3x3_s2_0_split_3
I0403 15:35:22.897088  3262 net.cpp:399] inception_3a/pool -> inception_3a/pool
I0403 15:35:22.897156  3262 net.cpp:141] Setting up inception_3a/pool
I0403 15:35:22.897194  3262 net.cpp:148] Top shape: 24 192 28 28 (3612672)
I0403 15:35:22.897220  3262 net.cpp:156] Memory required for data: 556352544
I0403 15:35:22.897238  3262 layer_factory.hpp:77] Creating layer inception_3a/pool_proj
I0403 15:35:22.897265  3262 net.cpp:91] Creating Layer inception_3a/pool_proj
I0403 15:35:22.897289  3262 net.cpp:425] inception_3a/pool_proj <- inception_3a/pool
I0403 15:35:22.897311  3262 net.cpp:399] inception_3a/pool_proj -> inception_3a/pool_proj
I0403 15:35:22.898386  3262 net.cpp:141] Setting up inception_3a/pool_proj
I0403 15:35:22.898421  3262 net.cpp:148] Top shape: 24 32 28 28 (602112)
I0403 15:35:22.898442  3262 net.cpp:156] Memory required for data: 558760992
I0403 15:35:22.898468  3262 layer_factory.hpp:77] Creating layer inception_3a/relu_pool_proj
I0403 15:35:22.898490  3262 net.cpp:91] Creating Layer inception_3a/relu_pool_proj
I0403 15:35:22.898507  3262 net.cpp:425] inception_3a/relu_pool_proj <- inception_3a/pool_proj
I0403 15:35:22.898529  3262 net.cpp:386] inception_3a/relu_pool_proj -> inception_3a/pool_proj (in-place)
I0403 15:35:22.898820  3262 net.cpp:141] Setting up inception_3a/relu_pool_proj
I0403 15:35:22.898850  3262 net.cpp:148] Top shape: 24 32 28 28 (602112)
I0403 15:35:22.898867  3262 net.cpp:156] Memory required for data: 561169440
I0403 15:35:22.898883  3262 layer_factory.hpp:77] Creating layer inception_3a/output
I0403 15:35:22.898906  3262 net.cpp:91] Creating Layer inception_3a/output
I0403 15:35:22.898928  3262 net.cpp:425] inception_3a/output <- inception_3a/1x1
I0403 15:35:22.898947  3262 net.cpp:425] inception_3a/output <- inception_3a/3x3
I0403 15:35:22.898967  3262 net.cpp:425] inception_3a/output <- inception_3a/5x5
I0403 15:35:22.898988  3262 net.cpp:425] inception_3a/output <- inception_3a/pool_proj
I0403 15:35:22.899014  3262 net.cpp:399] inception_3a/output -> inception_3a/output
I0403 15:35:22.899075  3262 net.cpp:141] Setting up inception_3a/output
I0403 15:35:22.899107  3262 net.cpp:148] Top shape: 24 256 28 28 (4816896)
I0403 15:35:22.899126  3262 net.cpp:156] Memory required for data: 580437024
I0403 15:35:22.899148  3262 layer_factory.hpp:77] Creating layer inception_3a/output_inception_3a/output_0_split
I0403 15:35:22.899173  3262 net.cpp:91] Creating Layer inception_3a/output_inception_3a/output_0_split
I0403 15:35:22.899202  3262 net.cpp:425] inception_3a/output_inception_3a/output_0_split <- inception_3a/output
I0403 15:35:22.899224  3262 net.cpp:399] inception_3a/output_inception_3a/output_0_split -> inception_3a/output_inception_3a/output_0_split_0
I0403 15:35:22.899250  3262 net.cpp:399] inception_3a/output_inception_3a/output_0_split -> inception_3a/output_inception_3a/output_0_split_1
I0403 15:35:22.899281  3262 net.cpp:399] inception_3a/output_inception_3a/output_0_split -> inception_3a/output_inception_3a/output_0_split_2
I0403 15:35:22.899305  3262 net.cpp:399] inception_3a/output_inception_3a/output_0_split -> inception_3a/output_inception_3a/output_0_split_3
I0403 15:35:22.899390  3262 net.cpp:141] Setting up inception_3a/output_inception_3a/output_0_split
I0403 15:35:22.899420  3262 net.cpp:148] Top shape: 24 256 28 28 (4816896)
I0403 15:35:22.899437  3262 net.cpp:148] Top shape: 24 256 28 28 (4816896)
I0403 15:35:22.899454  3262 net.cpp:148] Top shape: 24 256 28 28 (4816896)
I0403 15:35:22.899471  3262 net.cpp:148] Top shape: 24 256 28 28 (4816896)
I0403 15:35:22.899485  3262 net.cpp:156] Memory required for data: 657507360
I0403 15:35:22.899502  3262 layer_factory.hpp:77] Creating layer inception_3b/1x1
I0403 15:35:22.899528  3262 net.cpp:91] Creating Layer inception_3b/1x1
I0403 15:35:22.899551  3262 net.cpp:425] inception_3b/1x1 <- inception_3a/output_inception_3a/output_0_split_0
I0403 15:35:22.899572  3262 net.cpp:399] inception_3b/1x1 -> inception_3b/1x1
I0403 15:35:22.900794  3262 net.cpp:141] Setting up inception_3b/1x1
I0403 15:35:22.900846  3262 net.cpp:148] Top shape: 24 128 28 28 (2408448)
I0403 15:35:22.900864  3262 net.cpp:156] Memory required for data: 667141152
I0403 15:35:22.900887  3262 layer_factory.hpp:77] Creating layer inception_3b/relu_1x1
I0403 15:35:22.900913  3262 net.cpp:91] Creating Layer inception_3b/relu_1x1
I0403 15:35:22.900933  3262 net.cpp:425] inception_3b/relu_1x1 <- inception_3b/1x1
I0403 15:35:22.900952  3262 net.cpp:386] inception_3b/relu_1x1 -> inception_3b/1x1 (in-place)
I0403 15:35:22.901144  3262 net.cpp:141] Setting up inception_3b/relu_1x1
I0403 15:35:22.901175  3262 net.cpp:148] Top shape: 24 128 28 28 (2408448)
I0403 15:35:22.901199  3262 net.cpp:156] Memory required for data: 676774944
I0403 15:35:22.901221  3262 layer_factory.hpp:77] Creating layer inception_3b/3x3_reduce
I0403 15:35:22.901247  3262 net.cpp:91] Creating Layer inception_3b/3x3_reduce
I0403 15:35:22.901268  3262 net.cpp:425] inception_3b/3x3_reduce <- inception_3a/output_inception_3a/output_0_split_1
I0403 15:35:22.901289  3262 net.cpp:399] inception_3b/3x3_reduce -> inception_3b/3x3_reduce
I0403 15:35:22.902501  3262 net.cpp:141] Setting up inception_3b/3x3_reduce
I0403 15:35:22.902532  3262 net.cpp:148] Top shape: 24 128 28 28 (2408448)
I0403 15:35:22.902550  3262 net.cpp:156] Memory required for data: 686408736
I0403 15:35:22.902571  3262 layer_factory.hpp:77] Creating layer inception_3b/relu_3x3_reduce
I0403 15:35:22.902593  3262 net.cpp:91] Creating Layer inception_3b/relu_3x3_reduce
I0403 15:35:22.902613  3262 net.cpp:425] inception_3b/relu_3x3_reduce <- inception_3b/3x3_reduce
I0403 15:35:22.902634  3262 net.cpp:386] inception_3b/relu_3x3_reduce -> inception_3b/3x3_reduce (in-place)
I0403 15:35:22.902827  3262 net.cpp:141] Setting up inception_3b/relu_3x3_reduce
I0403 15:35:22.902858  3262 net.cpp:148] Top shape: 24 128 28 28 (2408448)
I0403 15:35:22.902874  3262 net.cpp:156] Memory required for data: 696042528
I0403 15:35:22.902891  3262 layer_factory.hpp:77] Creating layer inception_3b/3x3
I0403 15:35:22.902921  3262 net.cpp:91] Creating Layer inception_3b/3x3
I0403 15:35:22.902942  3262 net.cpp:425] inception_3b/3x3 <- inception_3b/3x3_reduce
I0403 15:35:22.902969  3262 net.cpp:399] inception_3b/3x3 -> inception_3b/3x3
I0403 15:35:22.906147  3262 net.cpp:141] Setting up inception_3b/3x3
I0403 15:35:22.906230  3262 net.cpp:148] Top shape: 24 192 28 28 (3612672)
I0403 15:35:22.906250  3262 net.cpp:156] Memory required for data: 710493216
I0403 15:35:22.906272  3262 layer_factory.hpp:77] Creating layer inception_3b/relu_3x3
I0403 15:35:22.906293  3262 net.cpp:91] Creating Layer inception_3b/relu_3x3
I0403 15:35:22.906316  3262 net.cpp:425] inception_3b/relu_3x3 <- inception_3b/3x3
I0403 15:35:22.906343  3262 net.cpp:386] inception_3b/relu_3x3 -> inception_3b/3x3 (in-place)
I0403 15:35:22.906649  3262 net.cpp:141] Setting up inception_3b/relu_3x3
I0403 15:35:22.906680  3262 net.cpp:148] Top shape: 24 192 28 28 (3612672)
I0403 15:35:22.906697  3262 net.cpp:156] Memory required for data: 724943904
I0403 15:35:22.906713  3262 layer_factory.hpp:77] Creating layer inception_3b/5x5_reduce
I0403 15:35:22.906738  3262 net.cpp:91] Creating Layer inception_3b/5x5_reduce
I0403 15:35:22.906757  3262 net.cpp:425] inception_3b/5x5_reduce <- inception_3a/output_inception_3a/output_0_split_2
I0403 15:35:22.906777  3262 net.cpp:399] inception_3b/5x5_reduce -> inception_3b/5x5_reduce
I0403 15:35:22.907827  3262 net.cpp:141] Setting up inception_3b/5x5_reduce
I0403 15:35:22.907860  3262 net.cpp:148] Top shape: 24 32 28 28 (602112)
I0403 15:35:22.907878  3262 net.cpp:156] Memory required for data: 727352352
I0403 15:35:22.907901  3262 layer_factory.hpp:77] Creating layer inception_3b/relu_5x5_reduce
I0403 15:35:22.907922  3262 net.cpp:91] Creating Layer inception_3b/relu_5x5_reduce
I0403 15:35:22.907939  3262 net.cpp:425] inception_3b/relu_5x5_reduce <- inception_3b/5x5_reduce
I0403 15:35:22.907958  3262 net.cpp:386] inception_3b/relu_5x5_reduce -> inception_3b/5x5_reduce (in-place)
I0403 15:35:22.908185  3262 net.cpp:141] Setting up inception_3b/relu_5x5_reduce
I0403 15:35:22.908213  3262 net.cpp:148] Top shape: 24 32 28 28 (602112)
I0403 15:35:22.908231  3262 net.cpp:156] Memory required for data: 729760800
I0403 15:35:22.908248  3262 layer_factory.hpp:77] Creating layer inception_3b/5x5
I0403 15:35:22.908273  3262 net.cpp:91] Creating Layer inception_3b/5x5
I0403 15:35:22.908294  3262 net.cpp:425] inception_3b/5x5 <- inception_3b/5x5_reduce
I0403 15:35:22.908319  3262 net.cpp:399] inception_3b/5x5 -> inception_3b/5x5
I0403 15:35:22.910428  3262 net.cpp:141] Setting up inception_3b/5x5
I0403 15:35:22.910465  3262 net.cpp:148] Top shape: 24 96 28 28 (1806336)
I0403 15:35:22.910492  3262 net.cpp:156] Memory required for data: 736986144
I0403 15:35:22.910513  3262 layer_factory.hpp:77] Creating layer inception_3b/relu_5x5
I0403 15:35:22.910538  3262 net.cpp:91] Creating Layer inception_3b/relu_5x5
I0403 15:35:22.910557  3262 net.cpp:425] inception_3b/relu_5x5 <- inception_3b/5x5
I0403 15:35:22.910575  3262 net.cpp:386] inception_3b/relu_5x5 -> inception_3b/5x5 (in-place)
I0403 15:35:22.910778  3262 net.cpp:141] Setting up inception_3b/relu_5x5
I0403 15:35:22.910804  3262 net.cpp:148] Top shape: 24 96 28 28 (1806336)
I0403 15:35:22.910822  3262 net.cpp:156] Memory required for data: 744211488
I0403 15:35:22.910841  3262 layer_factory.hpp:77] Creating layer inception_3b/pool
I0403 15:35:22.910862  3262 net.cpp:91] Creating Layer inception_3b/pool
I0403 15:35:22.910881  3262 net.cpp:425] inception_3b/pool <- inception_3a/output_inception_3a/output_0_split_3
I0403 15:35:22.910899  3262 net.cpp:399] inception_3b/pool -> inception_3b/pool
I0403 15:35:22.911077  3262 net.cpp:141] Setting up inception_3b/pool
I0403 15:35:22.911104  3262 net.cpp:148] Top shape: 24 256 28 28 (4816896)
I0403 15:35:22.911120  3262 net.cpp:156] Memory required for data: 763479072
I0403 15:35:22.911136  3262 layer_factory.hpp:77] Creating layer inception_3b/pool_proj
I0403 15:35:22.911162  3262 net.cpp:91] Creating Layer inception_3b/pool_proj
I0403 15:35:22.911186  3262 net.cpp:425] inception_3b/pool_proj <- inception_3b/pool
I0403 15:35:22.911211  3262 net.cpp:399] inception_3b/pool_proj -> inception_3b/pool_proj
I0403 15:35:22.912330  3262 net.cpp:141] Setting up inception_3b/pool_proj
I0403 15:35:22.912359  3262 net.cpp:148] Top shape: 24 64 28 28 (1204224)
I0403 15:35:22.912375  3262 net.cpp:156] Memory required for data: 768295968
I0403 15:35:22.912395  3262 layer_factory.hpp:77] Creating layer inception_3b/relu_pool_proj
I0403 15:35:22.912413  3262 net.cpp:91] Creating Layer inception_3b/relu_pool_proj
I0403 15:35:22.912434  3262 net.cpp:425] inception_3b/relu_pool_proj <- inception_3b/pool_proj
I0403 15:35:22.912453  3262 net.cpp:386] inception_3b/relu_pool_proj -> inception_3b/pool_proj (in-place)
I0403 15:35:22.912879  3262 net.cpp:141] Setting up inception_3b/relu_pool_proj
I0403 15:35:22.912907  3262 net.cpp:148] Top shape: 24 64 28 28 (1204224)
I0403 15:35:22.912924  3262 net.cpp:156] Memory required for data: 773112864
I0403 15:35:22.912940  3262 layer_factory.hpp:77] Creating layer inception_3b/output
I0403 15:35:22.912958  3262 net.cpp:91] Creating Layer inception_3b/output
I0403 15:35:22.912976  3262 net.cpp:425] inception_3b/output <- inception_3b/1x1
I0403 15:35:22.912993  3262 net.cpp:425] inception_3b/output <- inception_3b/3x3
I0403 15:35:22.913010  3262 net.cpp:425] inception_3b/output <- inception_3b/5x5
I0403 15:35:22.913027  3262 net.cpp:425] inception_3b/output <- inception_3b/pool_proj
I0403 15:35:22.913046  3262 net.cpp:399] inception_3b/output -> inception_3b/output
I0403 15:35:22.913094  3262 net.cpp:141] Setting up inception_3b/output
I0403 15:35:22.913120  3262 net.cpp:148] Top shape: 24 480 28 28 (9031680)
I0403 15:35:22.913136  3262 net.cpp:156] Memory required for data: 809239584
I0403 15:35:22.913151  3262 layer_factory.hpp:77] Creating layer pool3/3x3_s2
I0403 15:35:22.913171  3262 net.cpp:91] Creating Layer pool3/3x3_s2
I0403 15:35:22.913209  3262 net.cpp:425] pool3/3x3_s2 <- inception_3b/output
I0403 15:35:22.913249  3262 net.cpp:399] pool3/3x3_s2 -> pool3/3x3_s2
I0403 15:35:22.913312  3262 net.cpp:141] Setting up pool3/3x3_s2
I0403 15:35:22.913337  3262 net.cpp:148] Top shape: 24 480 14 14 (2257920)
I0403 15:35:22.913352  3262 net.cpp:156] Memory required for data: 818271264
I0403 15:35:22.913367  3262 layer_factory.hpp:77] Creating layer pool3/3x3_s2_pool3/3x3_s2_0_split
I0403 15:35:22.913385  3262 net.cpp:91] Creating Layer pool3/3x3_s2_pool3/3x3_s2_0_split
I0403 15:35:22.913400  3262 net.cpp:425] pool3/3x3_s2_pool3/3x3_s2_0_split <- pool3/3x3_s2
I0403 15:35:22.913420  3262 net.cpp:399] pool3/3x3_s2_pool3/3x3_s2_0_split -> pool3/3x3_s2_pool3/3x3_s2_0_split_0
I0403 15:35:22.913442  3262 net.cpp:399] pool3/3x3_s2_pool3/3x3_s2_0_split -> pool3/3x3_s2_pool3/3x3_s2_0_split_1
I0403 15:35:22.913463  3262 net.cpp:399] pool3/3x3_s2_pool3/3x3_s2_0_split -> pool3/3x3_s2_pool3/3x3_s2_0_split_2
I0403 15:35:22.913485  3262 net.cpp:399] pool3/3x3_s2_pool3/3x3_s2_0_split -> pool3/3x3_s2_pool3/3x3_s2_0_split_3
I0403 15:35:22.913568  3262 net.cpp:141] Setting up pool3/3x3_s2_pool3/3x3_s2_0_split
I0403 15:35:22.913592  3262 net.cpp:148] Top shape: 24 480 14 14 (2257920)
I0403 15:35:22.913609  3262 net.cpp:148] Top shape: 24 480 14 14 (2257920)
I0403 15:35:22.913626  3262 net.cpp:148] Top shape: 24 480 14 14 (2257920)
I0403 15:35:22.913642  3262 net.cpp:148] Top shape: 24 480 14 14 (2257920)
I0403 15:35:22.913657  3262 net.cpp:156] Memory required for data: 854397984
I0403 15:35:22.913672  3262 layer_factory.hpp:77] Creating layer inception_4a/1x1
I0403 15:35:22.913694  3262 net.cpp:91] Creating Layer inception_4a/1x1
I0403 15:35:22.913712  3262 net.cpp:425] inception_4a/1x1 <- pool3/3x3_s2_pool3/3x3_s2_0_split_0
I0403 15:35:22.913734  3262 net.cpp:399] inception_4a/1x1 -> inception_4a/1x1
I0403 15:35:22.915417  3262 net.cpp:141] Setting up inception_4a/1x1
I0403 15:35:22.915463  3262 net.cpp:148] Top shape: 24 192 14 14 (903168)
I0403 15:35:22.915485  3262 net.cpp:156] Memory required for data: 858010656
I0403 15:35:22.915506  3262 layer_factory.hpp:77] Creating layer inception_4a/relu_1x1
I0403 15:35:22.915539  3262 net.cpp:91] Creating Layer inception_4a/relu_1x1
I0403 15:35:22.915571  3262 net.cpp:425] inception_4a/relu_1x1 <- inception_4a/1x1
I0403 15:35:22.915590  3262 net.cpp:386] inception_4a/relu_1x1 -> inception_4a/1x1 (in-place)
I0403 15:35:22.915776  3262 net.cpp:141] Setting up inception_4a/relu_1x1
I0403 15:35:22.915803  3262 net.cpp:148] Top shape: 24 192 14 14 (903168)
I0403 15:35:22.915818  3262 net.cpp:156] Memory required for data: 861623328
I0403 15:35:22.915834  3262 layer_factory.hpp:77] Creating layer inception_4a/3x3_reduce
I0403 15:35:22.915870  3262 net.cpp:91] Creating Layer inception_4a/3x3_reduce
I0403 15:35:22.915891  3262 net.cpp:425] inception_4a/3x3_reduce <- pool3/3x3_s2_pool3/3x3_s2_0_split_1
I0403 15:35:22.915913  3262 net.cpp:399] inception_4a/3x3_reduce -> inception_4a/3x3_reduce
I0403 15:35:22.917279  3262 net.cpp:141] Setting up inception_4a/3x3_reduce
I0403 15:35:22.917309  3262 net.cpp:148] Top shape: 24 96 14 14 (451584)
I0403 15:35:22.917325  3262 net.cpp:156] Memory required for data: 863429664
I0403 15:35:22.917361  3262 layer_factory.hpp:77] Creating layer inception_4a/relu_3x3_reduce
I0403 15:35:22.917383  3262 net.cpp:91] Creating Layer inception_4a/relu_3x3_reduce
I0403 15:35:22.917399  3262 net.cpp:425] inception_4a/relu_3x3_reduce <- inception_4a/3x3_reduce
I0403 15:35:22.917420  3262 net.cpp:386] inception_4a/relu_3x3_reduce -> inception_4a/3x3_reduce (in-place)
I0403 15:35:22.917608  3262 net.cpp:141] Setting up inception_4a/relu_3x3_reduce
I0403 15:35:22.917635  3262 net.cpp:148] Top shape: 24 96 14 14 (451584)
I0403 15:35:22.917650  3262 net.cpp:156] Memory required for data: 865236000
I0403 15:35:22.917666  3262 layer_factory.hpp:77] Creating layer inception_4a/3x3
I0403 15:35:22.917690  3262 net.cpp:91] Creating Layer inception_4a/3x3
I0403 15:35:22.917707  3262 net.cpp:425] inception_4a/3x3 <- inception_4a/3x3_reduce
I0403 15:35:22.917729  3262 net.cpp:399] inception_4a/3x3 -> inception_4a/3x3
I0403 15:35:22.920562  3262 net.cpp:141] Setting up inception_4a/3x3
I0403 15:35:22.920593  3262 net.cpp:148] Top shape: 24 208 14 14 (978432)
I0403 15:35:22.920610  3262 net.cpp:156] Memory required for data: 869149728
I0403 15:35:22.920629  3262 layer_factory.hpp:77] Creating layer inception_4a/relu_3x3
I0403 15:35:22.920650  3262 net.cpp:91] Creating Layer inception_4a/relu_3x3
I0403 15:35:22.920667  3262 net.cpp:425] inception_4a/relu_3x3 <- inception_4a/3x3
I0403 15:35:22.920686  3262 net.cpp:386] inception_4a/relu_3x3 -> inception_4a/3x3 (in-place)
I0403 15:35:22.920984  3262 net.cpp:141] Setting up inception_4a/relu_3x3
I0403 15:35:22.921011  3262 net.cpp:148] Top shape: 24 208 14 14 (978432)
I0403 15:35:22.921026  3262 net.cpp:156] Memory required for data: 873063456
I0403 15:35:22.921042  3262 layer_factory.hpp:77] Creating layer inception_4a/5x5_reduce
I0403 15:35:22.921066  3262 net.cpp:91] Creating Layer inception_4a/5x5_reduce
I0403 15:35:22.921084  3262 net.cpp:425] inception_4a/5x5_reduce <- pool3/3x3_s2_pool3/3x3_s2_0_split_2
I0403 15:35:22.921106  3262 net.cpp:399] inception_4a/5x5_reduce -> inception_4a/5x5_reduce
I0403 15:35:22.922191  3262 net.cpp:141] Setting up inception_4a/5x5_reduce
I0403 15:35:22.922224  3262 net.cpp:148] Top shape: 24 16 14 14 (75264)
I0403 15:35:22.922241  3262 net.cpp:156] Memory required for data: 873364512
I0403 15:35:22.922261  3262 layer_factory.hpp:77] Creating layer inception_4a/relu_5x5_reduce
I0403 15:35:22.922281  3262 net.cpp:91] Creating Layer inception_4a/relu_5x5_reduce
I0403 15:35:22.922297  3262 net.cpp:425] inception_4a/relu_5x5_reduce <- inception_4a/5x5_reduce
I0403 15:35:22.922314  3262 net.cpp:386] inception_4a/relu_5x5_reduce -> inception_4a/5x5_reduce (in-place)
I0403 15:35:22.922505  3262 net.cpp:141] Setting up inception_4a/relu_5x5_reduce
I0403 15:35:22.922533  3262 net.cpp:148] Top shape: 24 16 14 14 (75264)
I0403 15:35:22.922550  3262 net.cpp:156] Memory required for data: 873665568
I0403 15:35:22.922565  3262 layer_factory.hpp:77] Creating layer inception_4a/5x5
I0403 15:35:22.922588  3262 net.cpp:91] Creating Layer inception_4a/5x5
I0403 15:35:22.922607  3262 net.cpp:425] inception_4a/5x5 <- inception_4a/5x5_reduce
I0403 15:35:22.922628  3262 net.cpp:399] inception_4a/5x5 -> inception_4a/5x5
I0403 15:35:22.923784  3262 net.cpp:141] Setting up inception_4a/5x5
I0403 15:35:22.923813  3262 net.cpp:148] Top shape: 24 48 14 14 (225792)
I0403 15:35:22.923830  3262 net.cpp:156] Memory required for data: 874568736
I0403 15:35:22.923848  3262 layer_factory.hpp:77] Creating layer inception_4a/relu_5x5
I0403 15:35:22.923866  3262 net.cpp:91] Creating Layer inception_4a/relu_5x5
I0403 15:35:22.923883  3262 net.cpp:425] inception_4a/relu_5x5 <- inception_4a/5x5
I0403 15:35:22.923904  3262 net.cpp:386] inception_4a/relu_5x5 -> inception_4a/5x5 (in-place)
I0403 15:35:22.924093  3262 net.cpp:141] Setting up inception_4a/relu_5x5
I0403 15:35:22.924118  3262 net.cpp:148] Top shape: 24 48 14 14 (225792)
I0403 15:35:22.924134  3262 net.cpp:156] Memory required for data: 875471904
I0403 15:35:22.924150  3262 layer_factory.hpp:77] Creating layer inception_4a/pool
I0403 15:35:22.924173  3262 net.cpp:91] Creating Layer inception_4a/pool
I0403 15:35:22.924196  3262 net.cpp:425] inception_4a/pool <- pool3/3x3_s2_pool3/3x3_s2_0_split_3
I0403 15:35:22.924216  3262 net.cpp:399] inception_4a/pool -> inception_4a/pool
I0403 15:35:22.924281  3262 net.cpp:141] Setting up inception_4a/pool
I0403 15:35:22.924306  3262 net.cpp:148] Top shape: 24 480 14 14 (2257920)
I0403 15:35:22.924322  3262 net.cpp:156] Memory required for data: 884503584
I0403 15:35:22.924337  3262 layer_factory.hpp:77] Creating layer inception_4a/pool_proj
I0403 15:35:22.924360  3262 net.cpp:91] Creating Layer inception_4a/pool_proj
I0403 15:35:22.924378  3262 net.cpp:425] inception_4a/pool_proj <- inception_4a/pool
I0403 15:35:22.924401  3262 net.cpp:399] inception_4a/pool_proj -> inception_4a/pool_proj
I0403 15:35:22.925636  3262 net.cpp:141] Setting up inception_4a/pool_proj
I0403 15:35:22.925665  3262 net.cpp:148] Top shape: 24 64 14 14 (301056)
I0403 15:35:22.925698  3262 net.cpp:156] Memory required for data: 885707808
I0403 15:35:22.925717  3262 layer_factory.hpp:77] Creating layer inception_4a/relu_pool_proj
I0403 15:35:22.925735  3262 net.cpp:91] Creating Layer inception_4a/relu_pool_proj
I0403 15:35:22.925752  3262 net.cpp:425] inception_4a/relu_pool_proj <- inception_4a/pool_proj
I0403 15:35:22.925775  3262 net.cpp:386] inception_4a/relu_pool_proj -> inception_4a/pool_proj (in-place)
I0403 15:35:22.926074  3262 net.cpp:141] Setting up inception_4a/relu_pool_proj
I0403 15:35:22.926102  3262 net.cpp:148] Top shape: 24 64 14 14 (301056)
I0403 15:35:22.926121  3262 net.cpp:156] Memory required for data: 886912032
I0403 15:35:22.926138  3262 layer_factory.hpp:77] Creating layer inception_4a/output
I0403 15:35:22.926159  3262 net.cpp:91] Creating Layer inception_4a/output
I0403 15:35:22.926175  3262 net.cpp:425] inception_4a/output <- inception_4a/1x1
I0403 15:35:22.926200  3262 net.cpp:425] inception_4a/output <- inception_4a/3x3
I0403 15:35:22.926218  3262 net.cpp:425] inception_4a/output <- inception_4a/5x5
I0403 15:35:22.926235  3262 net.cpp:425] inception_4a/output <- inception_4a/pool_proj
I0403 15:35:22.926257  3262 net.cpp:399] inception_4a/output -> inception_4a/output
I0403 15:35:22.926306  3262 net.cpp:141] Setting up inception_4a/output
I0403 15:35:22.926332  3262 net.cpp:148] Top shape: 24 512 14 14 (2408448)
I0403 15:35:22.926349  3262 net.cpp:156] Memory required for data: 896545824
I0403 15:35:22.926365  3262 layer_factory.hpp:77] Creating layer inception_4a/output_inception_4a/output_0_split
I0403 15:35:22.926383  3262 net.cpp:91] Creating Layer inception_4a/output_inception_4a/output_0_split
I0403 15:35:22.926401  3262 net.cpp:425] inception_4a/output_inception_4a/output_0_split <- inception_4a/output
I0403 15:35:22.926424  3262 net.cpp:399] inception_4a/output_inception_4a/output_0_split -> inception_4a/output_inception_4a/output_0_split_0
I0403 15:35:22.926448  3262 net.cpp:399] inception_4a/output_inception_4a/output_0_split -> inception_4a/output_inception_4a/output_0_split_1
I0403 15:35:22.926471  3262 net.cpp:399] inception_4a/output_inception_4a/output_0_split -> inception_4a/output_inception_4a/output_0_split_2
I0403 15:35:22.926496  3262 net.cpp:399] inception_4a/output_inception_4a/output_0_split -> inception_4a/output_inception_4a/output_0_split_3
I0403 15:35:22.926518  3262 net.cpp:399] inception_4a/output_inception_4a/output_0_split -> inception_4a/output_inception_4a/output_0_split_4
I0403 15:35:22.926616  3262 net.cpp:141] Setting up inception_4a/output_inception_4a/output_0_split
I0403 15:35:22.926645  3262 net.cpp:148] Top shape: 24 512 14 14 (2408448)
I0403 15:35:22.926664  3262 net.cpp:148] Top shape: 24 512 14 14 (2408448)
I0403 15:35:22.926682  3262 net.cpp:148] Top shape: 24 512 14 14 (2408448)
I0403 15:35:22.926699  3262 net.cpp:148] Top shape: 24 512 14 14 (2408448)
I0403 15:35:22.926715  3262 net.cpp:148] Top shape: 24 512 14 14 (2408448)
I0403 15:35:22.926731  3262 net.cpp:156] Memory required for data: 944714784
I0403 15:35:22.926748  3262 layer_factory.hpp:77] Creating layer loss1/ave_pool
I0403 15:35:22.926769  3262 net.cpp:91] Creating Layer loss1/ave_pool
I0403 15:35:22.926786  3262 net.cpp:425] loss1/ave_pool <- inception_4a/output_inception_4a/output_0_split_0
I0403 15:35:22.926805  3262 net.cpp:399] loss1/ave_pool -> loss1/ave_pool
I0403 15:35:22.927026  3262 net.cpp:141] Setting up loss1/ave_pool
I0403 15:35:22.927054  3262 net.cpp:148] Top shape: 24 512 4 4 (196608)
I0403 15:35:22.927070  3262 net.cpp:156] Memory required for data: 945501216
I0403 15:35:22.927086  3262 layer_factory.hpp:77] Creating layer loss1/conv
I0403 15:35:22.927110  3262 net.cpp:91] Creating Layer loss1/conv
I0403 15:35:22.927129  3262 net.cpp:425] loss1/conv <- loss1/ave_pool
I0403 15:35:22.927153  3262 net.cpp:399] loss1/conv -> loss1/conv
I0403 15:35:22.928652  3262 net.cpp:141] Setting up loss1/conv
I0403 15:35:22.928683  3262 net.cpp:148] Top shape: 24 128 4 4 (49152)
I0403 15:35:22.928714  3262 net.cpp:156] Memory required for data: 945697824
I0403 15:35:22.928736  3262 layer_factory.hpp:77] Creating layer loss1/relu_conv
I0403 15:35:22.928761  3262 net.cpp:91] Creating Layer loss1/relu_conv
I0403 15:35:22.928777  3262 net.cpp:425] loss1/relu_conv <- loss1/conv
I0403 15:35:22.928797  3262 net.cpp:386] loss1/relu_conv -> loss1/conv (in-place)
I0403 15:35:22.929098  3262 net.cpp:141] Setting up loss1/relu_conv
I0403 15:35:22.929128  3262 net.cpp:148] Top shape: 24 128 4 4 (49152)
I0403 15:35:22.929144  3262 net.cpp:156] Memory required for data: 945894432
I0403 15:35:22.929162  3262 layer_factory.hpp:77] Creating layer loss1/fc
I0403 15:35:22.929194  3262 net.cpp:91] Creating Layer loss1/fc
I0403 15:35:22.929216  3262 net.cpp:425] loss1/fc <- loss1/conv
I0403 15:35:22.929239  3262 net.cpp:399] loss1/fc -> loss1/fc
I0403 15:35:22.948257  3262 net.cpp:141] Setting up loss1/fc
I0403 15:35:22.954704  3262 net.cpp:148] Top shape: 24 1024 (24576)
I0403 15:35:22.954728  3262 net.cpp:156] Memory required for data: 945992736
I0403 15:35:22.954752  3262 layer_factory.hpp:77] Creating layer loss1/relu_fc
I0403 15:35:22.954777  3262 net.cpp:91] Creating Layer loss1/relu_fc
I0403 15:35:22.954802  3262 net.cpp:425] loss1/relu_fc <- loss1/fc
I0403 15:35:22.954828  3262 net.cpp:386] loss1/relu_fc -> loss1/fc (in-place)
I0403 15:35:22.955128  3262 net.cpp:141] Setting up loss1/relu_fc
I0403 15:35:22.955157  3262 net.cpp:148] Top shape: 24 1024 (24576)
I0403 15:35:22.955173  3262 net.cpp:156] Memory required for data: 946091040
I0403 15:35:22.955194  3262 layer_factory.hpp:77] Creating layer loss1/drop_fc
I0403 15:35:22.955227  3262 net.cpp:91] Creating Layer loss1/drop_fc
I0403 15:35:22.955245  3262 net.cpp:425] loss1/drop_fc <- loss1/fc
I0403 15:35:22.955265  3262 net.cpp:386] loss1/drop_fc -> loss1/fc (in-place)
I0403 15:35:22.955333  3262 net.cpp:141] Setting up loss1/drop_fc
I0403 15:35:22.955363  3262 net.cpp:148] Top shape: 24 1024 (24576)
I0403 15:35:22.955380  3262 net.cpp:156] Memory required for data: 946189344
I0403 15:35:22.955396  3262 layer_factory.hpp:77] Creating layer loss1/classifier_plantvillage
I0403 15:35:22.955416  3262 net.cpp:91] Creating Layer loss1/classifier_plantvillage
I0403 15:35:22.955433  3262 net.cpp:425] loss1/classifier_plantvillage <- loss1/fc
I0403 15:35:22.955458  3262 net.cpp:399] loss1/classifier_plantvillage -> loss1/classifier_plantvillage
I0403 15:35:22.956538  3262 net.cpp:141] Setting up loss1/classifier_plantvillage
I0403 15:35:22.956569  3262 net.cpp:148] Top shape: 24 38 (912)
I0403 15:35:22.956588  3262 net.cpp:156] Memory required for data: 946192992
I0403 15:35:22.956609  3262 layer_factory.hpp:77] Creating layer loss1/classifier_plantvillage_loss1/classifier_plantvillage_0_split
I0403 15:35:22.956632  3262 net.cpp:91] Creating Layer loss1/classifier_plantvillage_loss1/classifier_plantvillage_0_split
I0403 15:35:22.956652  3262 net.cpp:425] loss1/classifier_plantvillage_loss1/classifier_plantvillage_0_split <- loss1/classifier_plantvillage
I0403 15:35:22.956672  3262 net.cpp:399] loss1/classifier_plantvillage_loss1/classifier_plantvillage_0_split -> loss1/classifier_plantvillage_loss1/classifier_plantvillage_0_split_0
I0403 15:35:22.956694  3262 net.cpp:399] loss1/classifier_plantvillage_loss1/classifier_plantvillage_0_split -> loss1/classifier_plantvillage_loss1/classifier_plantvillage_0_split_1
I0403 15:35:22.956717  3262 net.cpp:399] loss1/classifier_plantvillage_loss1/classifier_plantvillage_0_split -> loss1/classifier_plantvillage_loss1/classifier_plantvillage_0_split_2
I0403 15:35:22.956791  3262 net.cpp:141] Setting up loss1/classifier_plantvillage_loss1/classifier_plantvillage_0_split
I0403 15:35:22.956816  3262 net.cpp:148] Top shape: 24 38 (912)
I0403 15:35:22.956833  3262 net.cpp:148] Top shape: 24 38 (912)
I0403 15:35:22.956854  3262 net.cpp:148] Top shape: 24 38 (912)
I0403 15:35:22.956872  3262 net.cpp:156] Memory required for data: 946203936
I0403 15:35:22.956889  3262 layer_factory.hpp:77] Creating layer inception_4b/1x1
I0403 15:35:22.956915  3262 net.cpp:91] Creating Layer inception_4b/1x1
I0403 15:35:22.956959  3262 net.cpp:425] inception_4b/1x1 <- inception_4a/output_inception_4a/output_0_split_1
I0403 15:35:22.956982  3262 net.cpp:399] inception_4b/1x1 -> inception_4b/1x1
I0403 15:35:22.958829  3262 net.cpp:141] Setting up inception_4b/1x1
I0403 15:35:22.958863  3262 net.cpp:148] Top shape: 24 160 14 14 (752640)
I0403 15:35:22.958883  3262 net.cpp:156] Memory required for data: 949214496
I0403 15:35:22.958904  3262 layer_factory.hpp:77] Creating layer inception_4b/relu_1x1
I0403 15:35:22.958926  3262 net.cpp:91] Creating Layer inception_4b/relu_1x1
I0403 15:35:22.958946  3262 net.cpp:425] inception_4b/relu_1x1 <- inception_4b/1x1
I0403 15:35:22.958969  3262 net.cpp:386] inception_4b/relu_1x1 -> inception_4b/1x1 (in-place)
I0403 15:35:22.959174  3262 net.cpp:141] Setting up inception_4b/relu_1x1
I0403 15:35:22.959209  3262 net.cpp:148] Top shape: 24 160 14 14 (752640)
I0403 15:35:22.959228  3262 net.cpp:156] Memory required for data: 952225056
I0403 15:35:22.959244  3262 layer_factory.hpp:77] Creating layer inception_4b/3x3_reduce
I0403 15:35:22.959269  3262 net.cpp:91] Creating Layer inception_4b/3x3_reduce
I0403 15:35:22.959290  3262 net.cpp:425] inception_4b/3x3_reduce <- inception_4a/output_inception_4a/output_0_split_2
I0403 15:35:22.959313  3262 net.cpp:399] inception_4b/3x3_reduce -> inception_4b/3x3_reduce
I0403 15:35:22.960775  3262 net.cpp:141] Setting up inception_4b/3x3_reduce
I0403 15:35:22.961027  3262 net.cpp:148] Top shape: 24 112 14 14 (526848)
I0403 15:35:22.961083  3262 net.cpp:156] Memory required for data: 954332448
I0403 15:35:22.961109  3262 layer_factory.hpp:77] Creating layer inception_4b/relu_3x3_reduce
I0403 15:35:22.961130  3262 net.cpp:91] Creating Layer inception_4b/relu_3x3_reduce
I0403 15:35:22.961148  3262 net.cpp:425] inception_4b/relu_3x3_reduce <- inception_4b/3x3_reduce
I0403 15:35:22.961174  3262 net.cpp:386] inception_4b/relu_3x3_reduce -> inception_4b/3x3_reduce (in-place)
I0403 15:35:22.961493  3262 net.cpp:141] Setting up inception_4b/relu_3x3_reduce
I0403 15:35:22.961524  3262 net.cpp:148] Top shape: 24 112 14 14 (526848)
I0403 15:35:22.961545  3262 net.cpp:156] Memory required for data: 956439840
I0403 15:35:22.961561  3262 layer_factory.hpp:77] Creating layer inception_4b/3x3
I0403 15:35:22.961587  3262 net.cpp:91] Creating Layer inception_4b/3x3
I0403 15:35:22.961608  3262 net.cpp:425] inception_4b/3x3 <- inception_4b/3x3_reduce
I0403 15:35:22.961632  3262 net.cpp:399] inception_4b/3x3 -> inception_4b/3x3
I0403 15:35:22.965073  3262 net.cpp:141] Setting up inception_4b/3x3
I0403 15:35:22.965162  3262 net.cpp:148] Top shape: 24 224 14 14 (1053696)
I0403 15:35:22.965183  3262 net.cpp:156] Memory required for data: 960654624
I0403 15:35:22.965209  3262 layer_factory.hpp:77] Creating layer inception_4b/relu_3x3
I0403 15:35:22.965237  3262 net.cpp:91] Creating Layer inception_4b/relu_3x3
I0403 15:35:22.965260  3262 net.cpp:425] inception_4b/relu_3x3 <- inception_4b/3x3
I0403 15:35:22.965281  3262 net.cpp:386] inception_4b/relu_3x3 -> inception_4b/3x3 (in-place)
I0403 15:35:22.965483  3262 net.cpp:141] Setting up inception_4b/relu_3x3
I0403 15:35:22.965510  3262 net.cpp:148] Top shape: 24 224 14 14 (1053696)
I0403 15:35:22.965526  3262 net.cpp:156] Memory required for data: 964869408
I0403 15:35:22.965543  3262 layer_factory.hpp:77] Creating layer inception_4b/5x5_reduce
I0403 15:35:22.965572  3262 net.cpp:91] Creating Layer inception_4b/5x5_reduce
I0403 15:35:22.965592  3262 net.cpp:425] inception_4b/5x5_reduce <- inception_4a/output_inception_4a/output_0_split_3
I0403 15:35:22.965612  3262 net.cpp:399] inception_4b/5x5_reduce -> inception_4b/5x5_reduce
I0403 15:35:22.966845  3262 net.cpp:141] Setting up inception_4b/5x5_reduce
I0403 15:35:22.966889  3262 net.cpp:148] Top shape: 24 24 14 14 (112896)
I0403 15:35:22.966907  3262 net.cpp:156] Memory required for data: 965320992
I0403 15:35:22.966928  3262 layer_factory.hpp:77] Creating layer inception_4b/relu_5x5_reduce
I0403 15:35:22.966948  3262 net.cpp:91] Creating Layer inception_4b/relu_5x5_reduce
I0403 15:35:22.967001  3262 net.cpp:425] inception_4b/relu_5x5_reduce <- inception_4b/5x5_reduce
I0403 15:35:22.967025  3262 net.cpp:386] inception_4b/relu_5x5_reduce -> inception_4b/5x5_reduce (in-place)
I0403 15:35:22.967233  3262 net.cpp:141] Setting up inception_4b/relu_5x5_reduce
I0403 15:35:22.967262  3262 net.cpp:148] Top shape: 24 24 14 14 (112896)
I0403 15:35:22.967278  3262 net.cpp:156] Memory required for data: 965772576
I0403 15:35:22.967293  3262 layer_factory.hpp:77] Creating layer inception_4b/5x5
I0403 15:35:22.967319  3262 net.cpp:91] Creating Layer inception_4b/5x5
I0403 15:35:22.967337  3262 net.cpp:425] inception_4b/5x5 <- inception_4b/5x5_reduce
I0403 15:35:22.967360  3262 net.cpp:399] inception_4b/5x5 -> inception_4b/5x5
I0403 15:35:22.968760  3262 net.cpp:141] Setting up inception_4b/5x5
I0403 15:35:22.968817  3262 net.cpp:148] Top shape: 24 64 14 14 (301056)
I0403 15:35:22.968834  3262 net.cpp:156] Memory required for data: 966976800
I0403 15:35:22.968855  3262 layer_factory.hpp:77] Creating layer inception_4b/relu_5x5
I0403 15:35:22.968876  3262 net.cpp:91] Creating Layer inception_4b/relu_5x5
I0403 15:35:22.968894  3262 net.cpp:425] inception_4b/relu_5x5 <- inception_4b/5x5
I0403 15:35:22.968911  3262 net.cpp:386] inception_4b/relu_5x5 -> inception_4b/5x5 (in-place)
I0403 15:35:22.969223  3262 net.cpp:141] Setting up inception_4b/relu_5x5
I0403 15:35:22.969259  3262 net.cpp:148] Top shape: 24 64 14 14 (301056)
I0403 15:35:22.969380  3262 net.cpp:156] Memory required for data: 968181024
I0403 15:35:22.969630  3262 layer_factory.hpp:77] Creating layer inception_4b/pool
I0403 15:35:22.969732  3262 net.cpp:91] Creating Layer inception_4b/pool
I0403 15:35:22.969758  3262 net.cpp:425] inception_4b/pool <- inception_4a/output_inception_4a/output_0_split_4
I0403 15:35:22.969780  3262 net.cpp:399] inception_4b/pool -> inception_4b/pool
I0403 15:35:22.969859  3262 net.cpp:141] Setting up inception_4b/pool
I0403 15:35:22.969890  3262 net.cpp:148] Top shape: 24 512 14 14 (2408448)
I0403 15:35:22.969908  3262 net.cpp:156] Memory required for data: 977814816
I0403 15:35:22.969923  3262 layer_factory.hpp:77] Creating layer inception_4b/pool_proj
I0403 15:35:22.969947  3262 net.cpp:91] Creating Layer inception_4b/pool_proj
I0403 15:35:22.969966  3262 net.cpp:425] inception_4b/pool_proj <- inception_4b/pool
I0403 15:35:22.969988  3262 net.cpp:399] inception_4b/pool_proj -> inception_4b/pool_proj
I0403 15:35:22.971302  3262 net.cpp:141] Setting up inception_4b/pool_proj
I0403 15:35:22.971334  3262 net.cpp:148] Top shape: 24 64 14 14 (301056)
I0403 15:35:22.971357  3262 net.cpp:156] Memory required for data: 979019040
I0403 15:35:22.971379  3262 layer_factory.hpp:77] Creating layer inception_4b/relu_pool_proj
I0403 15:35:22.971398  3262 net.cpp:91] Creating Layer inception_4b/relu_pool_proj
I0403 15:35:22.971416  3262 net.cpp:425] inception_4b/relu_pool_proj <- inception_4b/pool_proj
I0403 15:35:22.971436  3262 net.cpp:386] inception_4b/relu_pool_proj -> inception_4b/pool_proj (in-place)
I0403 15:35:22.971633  3262 net.cpp:141] Setting up inception_4b/relu_pool_proj
I0403 15:35:22.971660  3262 net.cpp:148] Top shape: 24 64 14 14 (301056)
I0403 15:35:22.971678  3262 net.cpp:156] Memory required for data: 980223264
I0403 15:35:22.971701  3262 layer_factory.hpp:77] Creating layer inception_4b/output
I0403 15:35:22.971722  3262 net.cpp:91] Creating Layer inception_4b/output
I0403 15:35:22.971740  3262 net.cpp:425] inception_4b/output <- inception_4b/1x1
I0403 15:35:22.971756  3262 net.cpp:425] inception_4b/output <- inception_4b/3x3
I0403 15:35:22.971773  3262 net.cpp:425] inception_4b/output <- inception_4b/5x5
I0403 15:35:22.971789  3262 net.cpp:425] inception_4b/output <- inception_4b/pool_proj
I0403 15:35:22.971812  3262 net.cpp:399] inception_4b/output -> inception_4b/output
I0403 15:35:22.971863  3262 net.cpp:141] Setting up inception_4b/output
I0403 15:35:22.971889  3262 net.cpp:148] Top shape: 24 512 14 14 (2408448)
I0403 15:35:22.971905  3262 net.cpp:156] Memory required for data: 989857056
I0403 15:35:22.971951  3262 layer_factory.hpp:77] Creating layer inception_4b/output_inception_4b/output_0_split
I0403 15:35:22.971971  3262 net.cpp:91] Creating Layer inception_4b/output_inception_4b/output_0_split
I0403 15:35:22.971987  3262 net.cpp:425] inception_4b/output_inception_4b/output_0_split <- inception_4b/output
I0403 15:35:22.972005  3262 net.cpp:399] inception_4b/output_inception_4b/output_0_split -> inception_4b/output_inception_4b/output_0_split_0
I0403 15:35:22.972030  3262 net.cpp:399] inception_4b/output_inception_4b/output_0_split -> inception_4b/output_inception_4b/output_0_split_1
I0403 15:35:22.972054  3262 net.cpp:399] inception_4b/output_inception_4b/output_0_split -> inception_4b/output_inception_4b/output_0_split_2
I0403 15:35:22.972075  3262 net.cpp:399] inception_4b/output_inception_4b/output_0_split -> inception_4b/output_inception_4b/output_0_split_3
I0403 15:35:22.972168  3262 net.cpp:141] Setting up inception_4b/output_inception_4b/output_0_split
I0403 15:35:22.972198  3262 net.cpp:148] Top shape: 24 512 14 14 (2408448)
I0403 15:35:22.972218  3262 net.cpp:148] Top shape: 24 512 14 14 (2408448)
I0403 15:35:22.972244  3262 net.cpp:148] Top shape: 24 512 14 14 (2408448)
I0403 15:35:22.972260  3262 net.cpp:148] Top shape: 24 512 14 14 (2408448)
I0403 15:35:22.972280  3262 net.cpp:156] Memory required for data: 1028392224
I0403 15:35:22.972301  3262 layer_factory.hpp:77] Creating layer inception_4c/1x1
I0403 15:35:22.972329  3262 net.cpp:91] Creating Layer inception_4c/1x1
I0403 15:35:22.972348  3262 net.cpp:425] inception_4c/1x1 <- inception_4b/output_inception_4b/output_0_split_0
I0403 15:35:22.972369  3262 net.cpp:399] inception_4c/1x1 -> inception_4c/1x1
I0403 15:35:22.973937  3262 net.cpp:141] Setting up inception_4c/1x1
I0403 15:35:22.973966  3262 net.cpp:148] Top shape: 24 128 14 14 (602112)
I0403 15:35:22.973984  3262 net.cpp:156] Memory required for data: 1030800672
I0403 15:35:22.974004  3262 layer_factory.hpp:77] Creating layer inception_4c/relu_1x1
I0403 15:35:22.974025  3262 net.cpp:91] Creating Layer inception_4c/relu_1x1
I0403 15:35:22.974043  3262 net.cpp:425] inception_4c/relu_1x1 <- inception_4c/1x1
I0403 15:35:22.974061  3262 net.cpp:386] inception_4c/relu_1x1 -> inception_4c/1x1 (in-place)
I0403 15:35:22.974256  3262 net.cpp:141] Setting up inception_4c/relu_1x1
I0403 15:35:22.974282  3262 net.cpp:148] Top shape: 24 128 14 14 (602112)
I0403 15:35:22.974298  3262 net.cpp:156] Memory required for data: 1033209120
I0403 15:35:22.974316  3262 layer_factory.hpp:77] Creating layer inception_4c/3x3_reduce
I0403 15:35:22.974339  3262 net.cpp:91] Creating Layer inception_4c/3x3_reduce
I0403 15:35:22.974359  3262 net.cpp:425] inception_4c/3x3_reduce <- inception_4b/output_inception_4b/output_0_split_1
I0403 15:35:22.974380  3262 net.cpp:399] inception_4c/3x3_reduce -> inception_4c/3x3_reduce
I0403 15:35:22.976495  3262 net.cpp:141] Setting up inception_4c/3x3_reduce
I0403 15:35:22.976526  3262 net.cpp:148] Top shape: 24 128 14 14 (602112)
I0403 15:35:22.976543  3262 net.cpp:156] Memory required for data: 1035617568
I0403 15:35:22.976562  3262 layer_factory.hpp:77] Creating layer inception_4c/relu_3x3_reduce
I0403 15:35:22.976584  3262 net.cpp:91] Creating Layer inception_4c/relu_3x3_reduce
I0403 15:35:22.976603  3262 net.cpp:425] inception_4c/relu_3x3_reduce <- inception_4c/3x3_reduce
I0403 15:35:22.976620  3262 net.cpp:386] inception_4c/relu_3x3_reduce -> inception_4c/3x3_reduce (in-place)
I0403 15:35:22.976928  3262 net.cpp:141] Setting up inception_4c/relu_3x3_reduce
I0403 15:35:22.976955  3262 net.cpp:148] Top shape: 24 128 14 14 (602112)
I0403 15:35:22.976971  3262 net.cpp:156] Memory required for data: 1038026016
I0403 15:35:22.976986  3262 layer_factory.hpp:77] Creating layer inception_4c/3x3
I0403 15:35:22.977012  3262 net.cpp:91] Creating Layer inception_4c/3x3
I0403 15:35:22.977031  3262 net.cpp:425] inception_4c/3x3 <- inception_4c/3x3_reduce
I0403 15:35:22.977051  3262 net.cpp:399] inception_4c/3x3 -> inception_4c/3x3
I0403 15:35:22.980875  3262 net.cpp:141] Setting up inception_4c/3x3
I0403 15:35:22.980921  3262 net.cpp:148] Top shape: 24 256 14 14 (1204224)
I0403 15:35:22.980940  3262 net.cpp:156] Memory required for data: 1042842912
I0403 15:35:22.980975  3262 layer_factory.hpp:77] Creating layer inception_4c/relu_3x3
I0403 15:35:22.980998  3262 net.cpp:91] Creating Layer inception_4c/relu_3x3
I0403 15:35:22.981014  3262 net.cpp:425] inception_4c/relu_3x3 <- inception_4c/3x3
I0403 15:35:22.981031  3262 net.cpp:386] inception_4c/relu_3x3 -> inception_4c/3x3 (in-place)
I0403 15:35:22.981231  3262 net.cpp:141] Setting up inception_4c/relu_3x3
I0403 15:35:22.981261  3262 net.cpp:148] Top shape: 24 256 14 14 (1204224)
I0403 15:35:22.981277  3262 net.cpp:156] Memory required for data: 1047659808
I0403 15:35:22.981292  3262 layer_factory.hpp:77] Creating layer inception_4c/5x5_reduce
I0403 15:35:22.981319  3262 net.cpp:91] Creating Layer inception_4c/5x5_reduce
I0403 15:35:22.981338  3262 net.cpp:425] inception_4c/5x5_reduce <- inception_4b/output_inception_4b/output_0_split_2
I0403 15:35:22.981359  3262 net.cpp:399] inception_4c/5x5_reduce -> inception_4c/5x5_reduce
I0403 15:35:22.982609  3262 net.cpp:141] Setting up inception_4c/5x5_reduce
I0403 15:35:22.982642  3262 net.cpp:148] Top shape: 24 24 14 14 (112896)
I0403 15:35:22.982659  3262 net.cpp:156] Memory required for data: 1048111392
I0403 15:35:22.982679  3262 layer_factory.hpp:77] Creating layer inception_4c/relu_5x5_reduce
I0403 15:35:22.982698  3262 net.cpp:91] Creating Layer inception_4c/relu_5x5_reduce
I0403 15:35:22.982714  3262 net.cpp:425] inception_4c/relu_5x5_reduce <- inception_4c/5x5_reduce
I0403 15:35:22.982735  3262 net.cpp:386] inception_4c/relu_5x5_reduce -> inception_4c/5x5_reduce (in-place)
I0403 15:35:22.982931  3262 net.cpp:141] Setting up inception_4c/relu_5x5_reduce
I0403 15:35:22.982959  3262 net.cpp:148] Top shape: 24 24 14 14 (112896)
I0403 15:35:22.982974  3262 net.cpp:156] Memory required for data: 1048562976
I0403 15:35:22.982990  3262 layer_factory.hpp:77] Creating layer inception_4c/5x5
I0403 15:35:22.983012  3262 net.cpp:91] Creating Layer inception_4c/5x5
I0403 15:35:22.983031  3262 net.cpp:425] inception_4c/5x5 <- inception_4c/5x5_reduce
I0403 15:35:22.983053  3262 net.cpp:399] inception_4c/5x5 -> inception_4c/5x5
I0403 15:35:22.984398  3262 net.cpp:141] Setting up inception_4c/5x5
I0403 15:35:22.984427  3262 net.cpp:148] Top shape: 24 64 14 14 (301056)
I0403 15:35:22.984444  3262 net.cpp:156] Memory required for data: 1049767200
I0403 15:35:22.984463  3262 layer_factory.hpp:77] Creating layer inception_4c/relu_5x5
I0403 15:35:22.984483  3262 net.cpp:91] Creating Layer inception_4c/relu_5x5
I0403 15:35:22.984504  3262 net.cpp:425] inception_4c/relu_5x5 <- inception_4c/5x5
I0403 15:35:22.984522  3262 net.cpp:386] inception_4c/relu_5x5 -> inception_4c/5x5 (in-place)
I0403 15:35:22.984828  3262 net.cpp:141] Setting up inception_4c/relu_5x5
I0403 15:35:22.984855  3262 net.cpp:148] Top shape: 24 64 14 14 (301056)
I0403 15:35:22.984871  3262 net.cpp:156] Memory required for data: 1050971424
I0403 15:35:22.984886  3262 layer_factory.hpp:77] Creating layer inception_4c/pool
I0403 15:35:22.984905  3262 net.cpp:91] Creating Layer inception_4c/pool
I0403 15:35:22.984922  3262 net.cpp:425] inception_4c/pool <- inception_4b/output_inception_4b/output_0_split_3
I0403 15:35:22.984944  3262 net.cpp:399] inception_4c/pool -> inception_4c/pool
I0403 15:35:22.985014  3262 net.cpp:141] Setting up inception_4c/pool
I0403 15:35:22.985041  3262 net.cpp:148] Top shape: 24 512 14 14 (2408448)
I0403 15:35:22.985057  3262 net.cpp:156] Memory required for data: 1060605216
I0403 15:35:22.985074  3262 layer_factory.hpp:77] Creating layer inception_4c/pool_proj
I0403 15:35:22.985096  3262 net.cpp:91] Creating Layer inception_4c/pool_proj
I0403 15:35:22.985115  3262 net.cpp:425] inception_4c/pool_proj <- inception_4c/pool
I0403 15:35:22.985134  3262 net.cpp:399] inception_4c/pool_proj -> inception_4c/pool_proj
I0403 15:35:22.986434  3262 net.cpp:141] Setting up inception_4c/pool_proj
I0403 15:35:22.986469  3262 net.cpp:148] Top shape: 24 64 14 14 (301056)
I0403 15:35:22.986500  3262 net.cpp:156] Memory required for data: 1061809440
I0403 15:35:22.986521  3262 layer_factory.hpp:77] Creating layer inception_4c/relu_pool_proj
I0403 15:35:22.986539  3262 net.cpp:91] Creating Layer inception_4c/relu_pool_proj
I0403 15:35:22.986557  3262 net.cpp:425] inception_4c/relu_pool_proj <- inception_4c/pool_proj
I0403 15:35:22.986575  3262 net.cpp:386] inception_4c/relu_pool_proj -> inception_4c/pool_proj (in-place)
I0403 15:35:22.986848  3262 net.cpp:141] Setting up inception_4c/relu_pool_proj
I0403 15:35:22.986876  3262 net.cpp:148] Top shape: 24 64 14 14 (301056)
I0403 15:35:22.986891  3262 net.cpp:156] Memory required for data: 1063013664
I0403 15:35:22.986906  3262 layer_factory.hpp:77] Creating layer inception_4c/output
I0403 15:35:22.986923  3262 net.cpp:91] Creating Layer inception_4c/output
I0403 15:35:22.986939  3262 net.cpp:425] inception_4c/output <- inception_4c/1x1
I0403 15:35:22.986956  3262 net.cpp:425] inception_4c/output <- inception_4c/3x3
I0403 15:35:22.986974  3262 net.cpp:425] inception_4c/output <- inception_4c/5x5
I0403 15:35:22.986989  3262 net.cpp:425] inception_4c/output <- inception_4c/pool_proj
I0403 15:35:22.987010  3262 net.cpp:399] inception_4c/output -> inception_4c/output
I0403 15:35:22.987058  3262 net.cpp:141] Setting up inception_4c/output
I0403 15:35:22.987083  3262 net.cpp:148] Top shape: 24 512 14 14 (2408448)
I0403 15:35:22.987098  3262 net.cpp:156] Memory required for data: 1072647456
I0403 15:35:22.987113  3262 layer_factory.hpp:77] Creating layer inception_4c/output_inception_4c/output_0_split
I0403 15:35:22.987133  3262 net.cpp:91] Creating Layer inception_4c/output_inception_4c/output_0_split
I0403 15:35:22.987150  3262 net.cpp:425] inception_4c/output_inception_4c/output_0_split <- inception_4c/output
I0403 15:35:22.987169  3262 net.cpp:399] inception_4c/output_inception_4c/output_0_split -> inception_4c/output_inception_4c/output_0_split_0
I0403 15:35:22.987198  3262 net.cpp:399] inception_4c/output_inception_4c/output_0_split -> inception_4c/output_inception_4c/output_0_split_1
I0403 15:35:22.987221  3262 net.cpp:399] inception_4c/output_inception_4c/output_0_split -> inception_4c/output_inception_4c/output_0_split_2
I0403 15:35:22.987243  3262 net.cpp:399] inception_4c/output_inception_4c/output_0_split -> inception_4c/output_inception_4c/output_0_split_3
I0403 15:35:22.987334  3262 net.cpp:141] Setting up inception_4c/output_inception_4c/output_0_split
I0403 15:35:22.987359  3262 net.cpp:148] Top shape: 24 512 14 14 (2408448)
I0403 15:35:22.987375  3262 net.cpp:148] Top shape: 24 512 14 14 (2408448)
I0403 15:35:22.987391  3262 net.cpp:148] Top shape: 24 512 14 14 (2408448)
I0403 15:35:22.987407  3262 net.cpp:148] Top shape: 24 512 14 14 (2408448)
I0403 15:35:22.987422  3262 net.cpp:156] Memory required for data: 1111182624
I0403 15:35:22.987437  3262 layer_factory.hpp:77] Creating layer inception_4d/1x1
I0403 15:35:22.987460  3262 net.cpp:91] Creating Layer inception_4d/1x1
I0403 15:35:22.987478  3262 net.cpp:425] inception_4d/1x1 <- inception_4c/output_inception_4c/output_0_split_0
I0403 15:35:22.987499  3262 net.cpp:399] inception_4d/1x1 -> inception_4d/1x1
I0403 15:35:22.988971  3262 net.cpp:141] Setting up inception_4d/1x1
I0403 15:35:22.989001  3262 net.cpp:148] Top shape: 24 112 14 14 (526848)
I0403 15:35:22.989017  3262 net.cpp:156] Memory required for data: 1113290016
I0403 15:35:22.989037  3262 layer_factory.hpp:77] Creating layer inception_4d/relu_1x1
I0403 15:35:22.989058  3262 net.cpp:91] Creating Layer inception_4d/relu_1x1
I0403 15:35:22.989075  3262 net.cpp:425] inception_4d/relu_1x1 <- inception_4d/1x1
I0403 15:35:22.989094  3262 net.cpp:386] inception_4d/relu_1x1 -> inception_4d/1x1 (in-place)
I0403 15:35:22.989296  3262 net.cpp:141] Setting up inception_4d/relu_1x1
I0403 15:35:22.989323  3262 net.cpp:148] Top shape: 24 112 14 14 (526848)
I0403 15:35:22.989339  3262 net.cpp:156] Memory required for data: 1115397408
I0403 15:35:22.989356  3262 layer_factory.hpp:77] Creating layer inception_4d/3x3_reduce
I0403 15:35:22.989394  3262 net.cpp:91] Creating Layer inception_4d/3x3_reduce
I0403 15:35:22.989413  3262 net.cpp:425] inception_4d/3x3_reduce <- inception_4c/output_inception_4c/output_0_split_1
I0403 15:35:22.989434  3262 net.cpp:399] inception_4d/3x3_reduce -> inception_4d/3x3_reduce
I0403 15:35:22.991070  3262 net.cpp:141] Setting up inception_4d/3x3_reduce
I0403 15:35:22.991098  3262 net.cpp:148] Top shape: 24 144 14 14 (677376)
I0403 15:35:22.991117  3262 net.cpp:156] Memory required for data: 1118106912
I0403 15:35:22.991135  3262 layer_factory.hpp:77] Creating layer inception_4d/relu_3x3_reduce
I0403 15:35:22.991154  3262 net.cpp:91] Creating Layer inception_4d/relu_3x3_reduce
I0403 15:35:22.991171  3262 net.cpp:425] inception_4d/relu_3x3_reduce <- inception_4d/3x3_reduce
I0403 15:35:22.991197  3262 net.cpp:386] inception_4d/relu_3x3_reduce -> inception_4d/3x3_reduce (in-place)
I0403 15:35:22.991508  3262 net.cpp:141] Setting up inception_4d/relu_3x3_reduce
I0403 15:35:22.991535  3262 net.cpp:148] Top shape: 24 144 14 14 (677376)
I0403 15:35:22.991551  3262 net.cpp:156] Memory required for data: 1120816416
I0403 15:35:22.991567  3262 layer_factory.hpp:77] Creating layer inception_4d/3x3
I0403 15:35:22.991590  3262 net.cpp:91] Creating Layer inception_4d/3x3
I0403 15:35:22.991610  3262 net.cpp:425] inception_4d/3x3 <- inception_4d/3x3_reduce
I0403 15:35:22.991631  3262 net.cpp:399] inception_4d/3x3 -> inception_4d/3x3
I0403 15:35:22.996170  3262 net.cpp:141] Setting up inception_4d/3x3
I0403 15:35:22.996206  3262 net.cpp:148] Top shape: 24 288 14 14 (1354752)
I0403 15:35:22.996223  3262 net.cpp:156] Memory required for data: 1126235424
I0403 15:35:22.996243  3262 layer_factory.hpp:77] Creating layer inception_4d/relu_3x3
I0403 15:35:22.996264  3262 net.cpp:91] Creating Layer inception_4d/relu_3x3
I0403 15:35:22.996282  3262 net.cpp:425] inception_4d/relu_3x3 <- inception_4d/3x3
I0403 15:35:22.996301  3262 net.cpp:386] inception_4d/relu_3x3 -> inception_4d/3x3 (in-place)
I0403 15:35:22.996498  3262 net.cpp:141] Setting up inception_4d/relu_3x3
I0403 15:35:22.996527  3262 net.cpp:148] Top shape: 24 288 14 14 (1354752)
I0403 15:35:22.996543  3262 net.cpp:156] Memory required for data: 1131654432
I0403 15:35:22.996558  3262 layer_factory.hpp:77] Creating layer inception_4d/5x5_reduce
I0403 15:35:22.996580  3262 net.cpp:91] Creating Layer inception_4d/5x5_reduce
I0403 15:35:22.996599  3262 net.cpp:425] inception_4d/5x5_reduce <- inception_4c/output_inception_4c/output_0_split_2
I0403 15:35:22.996620  3262 net.cpp:399] inception_4d/5x5_reduce -> inception_4d/5x5_reduce
I0403 15:35:22.997839  3262 net.cpp:141] Setting up inception_4d/5x5_reduce
I0403 15:35:22.997869  3262 net.cpp:148] Top shape: 24 32 14 14 (150528)
I0403 15:35:22.997885  3262 net.cpp:156] Memory required for data: 1132256544
I0403 15:35:22.997905  3262 layer_factory.hpp:77] Creating layer inception_4d/relu_5x5_reduce
I0403 15:35:22.997926  3262 net.cpp:91] Creating Layer inception_4d/relu_5x5_reduce
I0403 15:35:22.997944  3262 net.cpp:425] inception_4d/relu_5x5_reduce <- inception_4d/5x5_reduce
I0403 15:35:22.997962  3262 net.cpp:386] inception_4d/relu_5x5_reduce -> inception_4d/5x5_reduce (in-place)
I0403 15:35:22.998167  3262 net.cpp:141] Setting up inception_4d/relu_5x5_reduce
I0403 15:35:22.998199  3262 net.cpp:148] Top shape: 24 32 14 14 (150528)
I0403 15:35:22.998217  3262 net.cpp:156] Memory required for data: 1132858656
I0403 15:35:22.998234  3262 layer_factory.hpp:77] Creating layer inception_4d/5x5
I0403 15:35:22.998256  3262 net.cpp:91] Creating Layer inception_4d/5x5
I0403 15:35:22.998275  3262 net.cpp:425] inception_4d/5x5 <- inception_4d/5x5_reduce
I0403 15:35:22.998294  3262 net.cpp:399] inception_4d/5x5 -> inception_4d/5x5
I0403 15:35:22.999920  3262 net.cpp:141] Setting up inception_4d/5x5
I0403 15:35:22.999953  3262 net.cpp:148] Top shape: 24 64 14 14 (301056)
I0403 15:35:22.999970  3262 net.cpp:156] Memory required for data: 1134062880
I0403 15:35:22.999990  3262 layer_factory.hpp:77] Creating layer inception_4d/relu_5x5
I0403 15:35:23.000025  3262 net.cpp:91] Creating Layer inception_4d/relu_5x5
I0403 15:35:23.000043  3262 net.cpp:425] inception_4d/relu_5x5 <- inception_4d/5x5
I0403 15:35:23.000064  3262 net.cpp:386] inception_4d/relu_5x5 -> inception_4d/5x5 (in-place)
I0403 15:35:23.000388  3262 net.cpp:141] Setting up inception_4d/relu_5x5
I0403 15:35:23.000419  3262 net.cpp:148] Top shape: 24 64 14 14 (301056)
I0403 15:35:23.000437  3262 net.cpp:156] Memory required for data: 1135267104
I0403 15:35:23.000452  3262 layer_factory.hpp:77] Creating layer inception_4d/pool
I0403 15:35:23.000471  3262 net.cpp:91] Creating Layer inception_4d/pool
I0403 15:35:23.000488  3262 net.cpp:425] inception_4d/pool <- inception_4c/output_inception_4c/output_0_split_3
I0403 15:35:23.000510  3262 net.cpp:399] inception_4d/pool -> inception_4d/pool
I0403 15:35:23.000581  3262 net.cpp:141] Setting up inception_4d/pool
I0403 15:35:23.000607  3262 net.cpp:148] Top shape: 24 512 14 14 (2408448)
I0403 15:35:23.000623  3262 net.cpp:156] Memory required for data: 1144900896
I0403 15:35:23.000638  3262 layer_factory.hpp:77] Creating layer inception_4d/pool_proj
I0403 15:35:23.000663  3262 net.cpp:91] Creating Layer inception_4d/pool_proj
I0403 15:35:23.000681  3262 net.cpp:425] inception_4d/pool_proj <- inception_4d/pool
I0403 15:35:23.000702  3262 net.cpp:399] inception_4d/pool_proj -> inception_4d/pool_proj
I0403 15:35:23.002580  3262 net.cpp:141] Setting up inception_4d/pool_proj
I0403 15:35:23.002615  3262 net.cpp:148] Top shape: 24 64 14 14 (301056)
I0403 15:35:23.002631  3262 net.cpp:156] Memory required for data: 1146105120
I0403 15:35:23.002651  3262 layer_factory.hpp:77] Creating layer inception_4d/relu_pool_proj
I0403 15:35:23.002672  3262 net.cpp:91] Creating Layer inception_4d/relu_pool_proj
I0403 15:35:23.002691  3262 net.cpp:425] inception_4d/relu_pool_proj <- inception_4d/pool_proj
I0403 15:35:23.002709  3262 net.cpp:386] inception_4d/relu_pool_proj -> inception_4d/pool_proj (in-place)
I0403 15:35:23.002907  3262 net.cpp:141] Setting up inception_4d/relu_pool_proj
I0403 15:35:23.002936  3262 net.cpp:148] Top shape: 24 64 14 14 (301056)
I0403 15:35:23.002953  3262 net.cpp:156] Memory required for data: 1147309344
I0403 15:35:23.002969  3262 layer_factory.hpp:77] Creating layer inception_4d/output
I0403 15:35:23.002986  3262 net.cpp:91] Creating Layer inception_4d/output
I0403 15:35:23.003002  3262 net.cpp:425] inception_4d/output <- inception_4d/1x1
I0403 15:35:23.003022  3262 net.cpp:425] inception_4d/output <- inception_4d/3x3
I0403 15:35:23.003043  3262 net.cpp:425] inception_4d/output <- inception_4d/5x5
I0403 15:35:23.003060  3262 net.cpp:425] inception_4d/output <- inception_4d/pool_proj
I0403 15:35:23.003082  3262 net.cpp:399] inception_4d/output -> inception_4d/output
I0403 15:35:23.003134  3262 net.cpp:141] Setting up inception_4d/output
I0403 15:35:23.003159  3262 net.cpp:148] Top shape: 24 528 14 14 (2483712)
I0403 15:35:23.003175  3262 net.cpp:156] Memory required for data: 1157244192
I0403 15:35:23.003202  3262 layer_factory.hpp:77] Creating layer inception_4d/output_inception_4d/output_0_split
I0403 15:35:23.003226  3262 net.cpp:91] Creating Layer inception_4d/output_inception_4d/output_0_split
I0403 15:35:23.003247  3262 net.cpp:425] inception_4d/output_inception_4d/output_0_split <- inception_4d/output
I0403 15:35:23.003265  3262 net.cpp:399] inception_4d/output_inception_4d/output_0_split -> inception_4d/output_inception_4d/output_0_split_0
I0403 15:35:23.003288  3262 net.cpp:399] inception_4d/output_inception_4d/output_0_split -> inception_4d/output_inception_4d/output_0_split_1
I0403 15:35:23.003310  3262 net.cpp:399] inception_4d/output_inception_4d/output_0_split -> inception_4d/output_inception_4d/output_0_split_2
I0403 15:35:23.003335  3262 net.cpp:399] inception_4d/output_inception_4d/output_0_split -> inception_4d/output_inception_4d/output_0_split_3
I0403 15:35:23.003357  3262 net.cpp:399] inception_4d/output_inception_4d/output_0_split -> inception_4d/output_inception_4d/output_0_split_4
I0403 15:35:23.003471  3262 net.cpp:141] Setting up inception_4d/output_inception_4d/output_0_split
I0403 15:35:23.003509  3262 net.cpp:148] Top shape: 24 528 14 14 (2483712)
I0403 15:35:23.003528  3262 net.cpp:148] Top shape: 24 528 14 14 (2483712)
I0403 15:35:23.003545  3262 net.cpp:148] Top shape: 24 528 14 14 (2483712)
I0403 15:35:23.003561  3262 net.cpp:148] Top shape: 24 528 14 14 (2483712)
I0403 15:35:23.003577  3262 net.cpp:148] Top shape: 24 528 14 14 (2483712)
I0403 15:35:23.003592  3262 net.cpp:156] Memory required for data: 1206918432
I0403 15:35:23.003607  3262 layer_factory.hpp:77] Creating layer loss2/ave_pool
I0403 15:35:23.003628  3262 net.cpp:91] Creating Layer loss2/ave_pool
I0403 15:35:23.003646  3262 net.cpp:425] loss2/ave_pool <- inception_4d/output_inception_4d/output_0_split_0
I0403 15:35:23.003665  3262 net.cpp:399] loss2/ave_pool -> loss2/ave_pool
I0403 15:35:23.004055  3262 net.cpp:141] Setting up loss2/ave_pool
I0403 15:35:23.004086  3262 net.cpp:148] Top shape: 24 528 4 4 (202752)
I0403 15:35:23.004102  3262 net.cpp:156] Memory required for data: 1207729440
I0403 15:35:23.004118  3262 layer_factory.hpp:77] Creating layer loss2/conv
I0403 15:35:23.004142  3262 net.cpp:91] Creating Layer loss2/conv
I0403 15:35:23.004161  3262 net.cpp:425] loss2/conv <- loss2/ave_pool
I0403 15:35:23.004189  3262 net.cpp:399] loss2/conv -> loss2/conv
I0403 15:35:23.006225  3262 net.cpp:141] Setting up loss2/conv
I0403 15:35:23.006256  3262 net.cpp:148] Top shape: 24 128 4 4 (49152)
I0403 15:35:23.006273  3262 net.cpp:156] Memory required for data: 1207926048
I0403 15:35:23.006294  3262 layer_factory.hpp:77] Creating layer loss2/relu_conv
I0403 15:35:23.006314  3262 net.cpp:91] Creating Layer loss2/relu_conv
I0403 15:35:23.006330  3262 net.cpp:425] loss2/relu_conv <- loss2/conv
I0403 15:35:23.006351  3262 net.cpp:386] loss2/relu_conv -> loss2/conv (in-place)
I0403 15:35:23.006664  3262 net.cpp:141] Setting up loss2/relu_conv
I0403 15:35:23.006692  3262 net.cpp:148] Top shape: 24 128 4 4 (49152)
I0403 15:35:23.006710  3262 net.cpp:156] Memory required for data: 1208122656
I0403 15:35:23.006726  3262 layer_factory.hpp:77] Creating layer loss2/fc
I0403 15:35:23.006745  3262 net.cpp:91] Creating Layer loss2/fc
I0403 15:35:23.006763  3262 net.cpp:425] loss2/fc <- loss2/conv
I0403 15:35:23.006784  3262 net.cpp:399] loss2/fc -> loss2/fc
I0403 15:35:23.025672  3262 net.cpp:141] Setting up loss2/fc
I0403 15:35:23.025725  3262 net.cpp:148] Top shape: 24 1024 (24576)
I0403 15:35:23.025743  3262 net.cpp:156] Memory required for data: 1208220960
I0403 15:35:23.025763  3262 layer_factory.hpp:77] Creating layer loss2/relu_fc
I0403 15:35:23.025784  3262 net.cpp:91] Creating Layer loss2/relu_fc
I0403 15:35:23.025802  3262 net.cpp:425] loss2/relu_fc <- loss2/fc
I0403 15:35:23.025820  3262 net.cpp:386] loss2/relu_fc -> loss2/fc (in-place)
I0403 15:35:23.026161  3262 net.cpp:141] Setting up loss2/relu_fc
I0403 15:35:23.026196  3262 net.cpp:148] Top shape: 24 1024 (24576)
I0403 15:35:23.026216  3262 net.cpp:156] Memory required for data: 1208319264
I0403 15:35:23.026232  3262 layer_factory.hpp:77] Creating layer loss2/drop_fc
I0403 15:35:23.026250  3262 net.cpp:91] Creating Layer loss2/drop_fc
I0403 15:35:23.026268  3262 net.cpp:425] loss2/drop_fc <- loss2/fc
I0403 15:35:23.026285  3262 net.cpp:386] loss2/drop_fc -> loss2/fc (in-place)
I0403 15:35:23.026345  3262 net.cpp:141] Setting up loss2/drop_fc
I0403 15:35:23.026370  3262 net.cpp:148] Top shape: 24 1024 (24576)
I0403 15:35:23.026384  3262 net.cpp:156] Memory required for data: 1208417568
I0403 15:35:23.026399  3262 layer_factory.hpp:77] Creating layer loss2/classifier_plantvillage
I0403 15:35:23.026422  3262 net.cpp:91] Creating Layer loss2/classifier_plantvillage
I0403 15:35:23.026438  3262 net.cpp:425] loss2/classifier_plantvillage <- loss2/fc
I0403 15:35:23.026458  3262 net.cpp:399] loss2/classifier_plantvillage -> loss2/classifier_plantvillage
I0403 15:35:23.026897  3262 net.cpp:141] Setting up loss2/classifier_plantvillage
I0403 15:35:23.026924  3262 net.cpp:148] Top shape: 24 38 (912)
I0403 15:35:23.026962  3262 net.cpp:156] Memory required for data: 1208421216
I0403 15:35:23.026981  3262 layer_factory.hpp:77] Creating layer loss2/classifier_plantvillage_loss2/classifier_plantvillage_0_split
I0403 15:35:23.027000  3262 net.cpp:91] Creating Layer loss2/classifier_plantvillage_loss2/classifier_plantvillage_0_split
I0403 15:35:23.027017  3262 net.cpp:425] loss2/classifier_plantvillage_loss2/classifier_plantvillage_0_split <- loss2/classifier_plantvillage
I0403 15:35:23.027040  3262 net.cpp:399] loss2/classifier_plantvillage_loss2/classifier_plantvillage_0_split -> loss2/classifier_plantvillage_loss2/classifier_plantvillage_0_split_0
I0403 15:35:23.027061  3262 net.cpp:399] loss2/classifier_plantvillage_loss2/classifier_plantvillage_0_split -> loss2/classifier_plantvillage_loss2/classifier_plantvillage_0_split_1
I0403 15:35:23.027082  3262 net.cpp:399] loss2/classifier_plantvillage_loss2/classifier_plantvillage_0_split -> loss2/classifier_plantvillage_loss2/classifier_plantvillage_0_split_2
I0403 15:35:23.027165  3262 net.cpp:141] Setting up loss2/classifier_plantvillage_loss2/classifier_plantvillage_0_split
I0403 15:35:23.027196  3262 net.cpp:148] Top shape: 24 38 (912)
I0403 15:35:23.027215  3262 net.cpp:148] Top shape: 24 38 (912)
I0403 15:35:23.027230  3262 net.cpp:148] Top shape: 24 38 (912)
I0403 15:35:23.027245  3262 net.cpp:156] Memory required for data: 1208432160
I0403 15:35:23.027261  3262 layer_factory.hpp:77] Creating layer inception_4e/1x1
I0403 15:35:23.027284  3262 net.cpp:91] Creating Layer inception_4e/1x1
I0403 15:35:23.027303  3262 net.cpp:425] inception_4e/1x1 <- inception_4d/output_inception_4d/output_0_split_1
I0403 15:35:23.027323  3262 net.cpp:399] inception_4e/1x1 -> inception_4e/1x1
I0403 15:35:23.029299  3262 net.cpp:141] Setting up inception_4e/1x1
I0403 15:35:23.029335  3262 net.cpp:148] Top shape: 24 256 14 14 (1204224)
I0403 15:35:23.029352  3262 net.cpp:156] Memory required for data: 1213249056
I0403 15:35:23.029372  3262 layer_factory.hpp:77] Creating layer inception_4e/relu_1x1
I0403 15:35:23.029392  3262 net.cpp:91] Creating Layer inception_4e/relu_1x1
I0403 15:35:23.029408  3262 net.cpp:425] inception_4e/relu_1x1 <- inception_4e/1x1
I0403 15:35:23.029429  3262 net.cpp:386] inception_4e/relu_1x1 -> inception_4e/1x1 (in-place)
I0403 15:35:23.029742  3262 net.cpp:141] Setting up inception_4e/relu_1x1
I0403 15:35:23.029772  3262 net.cpp:148] Top shape: 24 256 14 14 (1204224)
I0403 15:35:23.029789  3262 net.cpp:156] Memory required for data: 1218065952
I0403 15:35:23.029805  3262 layer_factory.hpp:77] Creating layer inception_4e/3x3_reduce
I0403 15:35:23.029829  3262 net.cpp:91] Creating Layer inception_4e/3x3_reduce
I0403 15:35:23.029847  3262 net.cpp:425] inception_4e/3x3_reduce <- inception_4d/output_inception_4d/output_0_split_2
I0403 15:35:23.029870  3262 net.cpp:399] inception_4e/3x3_reduce -> inception_4e/3x3_reduce
I0403 15:35:23.032244  3262 net.cpp:141] Setting up inception_4e/3x3_reduce
I0403 15:35:23.032279  3262 net.cpp:148] Top shape: 24 160 14 14 (752640)
I0403 15:35:23.032296  3262 net.cpp:156] Memory required for data: 1221076512
I0403 15:35:23.032317  3262 layer_factory.hpp:77] Creating layer inception_4e/relu_3x3_reduce
I0403 15:35:23.032337  3262 net.cpp:91] Creating Layer inception_4e/relu_3x3_reduce
I0403 15:35:23.032354  3262 net.cpp:425] inception_4e/relu_3x3_reduce <- inception_4e/3x3_reduce
I0403 15:35:23.032373  3262 net.cpp:386] inception_4e/relu_3x3_reduce -> inception_4e/3x3_reduce (in-place)
I0403 15:35:23.032572  3262 net.cpp:141] Setting up inception_4e/relu_3x3_reduce
I0403 15:35:23.032599  3262 net.cpp:148] Top shape: 24 160 14 14 (752640)
I0403 15:35:23.032614  3262 net.cpp:156] Memory required for data: 1224087072
I0403 15:35:23.032630  3262 layer_factory.hpp:77] Creating layer inception_4e/3x3
I0403 15:35:23.032654  3262 net.cpp:91] Creating Layer inception_4e/3x3
I0403 15:35:23.032672  3262 net.cpp:425] inception_4e/3x3 <- inception_4e/3x3_reduce
I0403 15:35:23.032694  3262 net.cpp:399] inception_4e/3x3 -> inception_4e/3x3
I0403 15:35:23.038106  3262 net.cpp:141] Setting up inception_4e/3x3
I0403 15:35:23.038151  3262 net.cpp:148] Top shape: 24 320 14 14 (1505280)
I0403 15:35:23.038168  3262 net.cpp:156] Memory required for data: 1230108192
I0403 15:35:23.038197  3262 layer_factory.hpp:77] Creating layer inception_4e/relu_3x3
I0403 15:35:23.038220  3262 net.cpp:91] Creating Layer inception_4e/relu_3x3
I0403 15:35:23.038238  3262 net.cpp:425] inception_4e/relu_3x3 <- inception_4e/3x3
I0403 15:35:23.038255  3262 net.cpp:386] inception_4e/relu_3x3 -> inception_4e/3x3 (in-place)
I0403 15:35:23.038570  3262 net.cpp:141] Setting up inception_4e/relu_3x3
I0403 15:35:23.038599  3262 net.cpp:148] Top shape: 24 320 14 14 (1505280)
I0403 15:35:23.038614  3262 net.cpp:156] Memory required for data: 1236129312
I0403 15:35:23.038630  3262 layer_factory.hpp:77] Creating layer inception_4e/5x5_reduce
I0403 15:35:23.038653  3262 net.cpp:91] Creating Layer inception_4e/5x5_reduce
I0403 15:35:23.038671  3262 net.cpp:425] inception_4e/5x5_reduce <- inception_4d/output_inception_4d/output_0_split_3
I0403 15:35:23.038694  3262 net.cpp:399] inception_4e/5x5_reduce -> inception_4e/5x5_reduce
I0403 15:35:23.039834  3262 net.cpp:141] Setting up inception_4e/5x5_reduce
I0403 15:35:23.039866  3262 net.cpp:148] Top shape: 24 32 14 14 (150528)
I0403 15:35:23.039883  3262 net.cpp:156] Memory required for data: 1236731424
I0403 15:35:23.039903  3262 layer_factory.hpp:77] Creating layer inception_4e/relu_5x5_reduce
I0403 15:35:23.039921  3262 net.cpp:91] Creating Layer inception_4e/relu_5x5_reduce
I0403 15:35:23.039938  3262 net.cpp:425] inception_4e/relu_5x5_reduce <- inception_4e/5x5_reduce
I0403 15:35:23.039959  3262 net.cpp:386] inception_4e/relu_5x5_reduce -> inception_4e/5x5_reduce (in-place)
I0403 15:35:23.040283  3262 net.cpp:141] Setting up inception_4e/relu_5x5_reduce
I0403 15:35:23.040313  3262 net.cpp:148] Top shape: 24 32 14 14 (150528)
I0403 15:35:23.040330  3262 net.cpp:156] Memory required for data: 1237333536
I0403 15:35:23.040345  3262 layer_factory.hpp:77] Creating layer inception_4e/5x5
I0403 15:35:23.040386  3262 net.cpp:91] Creating Layer inception_4e/5x5
I0403 15:35:23.040407  3262 net.cpp:425] inception_4e/5x5 <- inception_4e/5x5_reduce
I0403 15:35:23.040427  3262 net.cpp:399] inception_4e/5x5 -> inception_4e/5x5
I0403 15:35:23.042580  3262 net.cpp:141] Setting up inception_4e/5x5
I0403 15:35:23.042611  3262 net.cpp:148] Top shape: 24 128 14 14 (602112)
I0403 15:35:23.042628  3262 net.cpp:156] Memory required for data: 1239741984
I0403 15:35:23.042649  3262 layer_factory.hpp:77] Creating layer inception_4e/relu_5x5
I0403 15:35:23.042670  3262 net.cpp:91] Creating Layer inception_4e/relu_5x5
I0403 15:35:23.042687  3262 net.cpp:425] inception_4e/relu_5x5 <- inception_4e/5x5
I0403 15:35:23.042706  3262 net.cpp:386] inception_4e/relu_5x5 -> inception_4e/5x5 (in-place)
I0403 15:35:23.042915  3262 net.cpp:141] Setting up inception_4e/relu_5x5
I0403 15:35:23.042943  3262 net.cpp:148] Top shape: 24 128 14 14 (602112)
I0403 15:35:23.042958  3262 net.cpp:156] Memory required for data: 1242150432
I0403 15:35:23.042973  3262 layer_factory.hpp:77] Creating layer inception_4e/pool
I0403 15:35:23.042991  3262 net.cpp:91] Creating Layer inception_4e/pool
I0403 15:35:23.043009  3262 net.cpp:425] inception_4e/pool <- inception_4d/output_inception_4d/output_0_split_4
I0403 15:35:23.043030  3262 net.cpp:399] inception_4e/pool -> inception_4e/pool
I0403 15:35:23.043105  3262 net.cpp:141] Setting up inception_4e/pool
I0403 15:35:23.043130  3262 net.cpp:148] Top shape: 24 528 14 14 (2483712)
I0403 15:35:23.043145  3262 net.cpp:156] Memory required for data: 1252085280
I0403 15:35:23.043160  3262 layer_factory.hpp:77] Creating layer inception_4e/pool_proj
I0403 15:35:23.043197  3262 net.cpp:91] Creating Layer inception_4e/pool_proj
I0403 15:35:23.043218  3262 net.cpp:425] inception_4e/pool_proj <- inception_4e/pool
I0403 15:35:23.043237  3262 net.cpp:399] inception_4e/pool_proj -> inception_4e/pool_proj
I0403 15:35:23.044844  3262 net.cpp:141] Setting up inception_4e/pool_proj
I0403 15:35:23.044886  3262 net.cpp:148] Top shape: 24 128 14 14 (602112)
I0403 15:35:23.044903  3262 net.cpp:156] Memory required for data: 1254493728
I0403 15:35:23.044924  3262 layer_factory.hpp:77] Creating layer inception_4e/relu_pool_proj
I0403 15:35:23.044945  3262 net.cpp:91] Creating Layer inception_4e/relu_pool_proj
I0403 15:35:23.044963  3262 net.cpp:425] inception_4e/relu_pool_proj <- inception_4e/pool_proj
I0403 15:35:23.044982  3262 net.cpp:386] inception_4e/relu_pool_proj -> inception_4e/pool_proj (in-place)
I0403 15:35:23.045338  3262 net.cpp:141] Setting up inception_4e/relu_pool_proj
I0403 15:35:23.045367  3262 net.cpp:148] Top shape: 24 128 14 14 (602112)
I0403 15:35:23.045382  3262 net.cpp:156] Memory required for data: 1256902176
I0403 15:35:23.045398  3262 layer_factory.hpp:77] Creating layer inception_4e/output
I0403 15:35:23.045420  3262 net.cpp:91] Creating Layer inception_4e/output
I0403 15:35:23.045439  3262 net.cpp:425] inception_4e/output <- inception_4e/1x1
I0403 15:35:23.045456  3262 net.cpp:425] inception_4e/output <- inception_4e/3x3
I0403 15:35:23.045474  3262 net.cpp:425] inception_4e/output <- inception_4e/5x5
I0403 15:35:23.045490  3262 net.cpp:425] inception_4e/output <- inception_4e/pool_proj
I0403 15:35:23.045508  3262 net.cpp:399] inception_4e/output -> inception_4e/output
I0403 15:35:23.045562  3262 net.cpp:141] Setting up inception_4e/output
I0403 15:35:23.045588  3262 net.cpp:148] Top shape: 24 832 14 14 (3913728)
I0403 15:35:23.045603  3262 net.cpp:156] Memory required for data: 1272557088
I0403 15:35:23.045619  3262 layer_factory.hpp:77] Creating layer pool4/3x3_s2
I0403 15:35:23.045637  3262 net.cpp:91] Creating Layer pool4/3x3_s2
I0403 15:35:23.045655  3262 net.cpp:425] pool4/3x3_s2 <- inception_4e/output
I0403 15:35:23.045676  3262 net.cpp:399] pool4/3x3_s2 -> pool4/3x3_s2
I0403 15:35:23.045747  3262 net.cpp:141] Setting up pool4/3x3_s2
I0403 15:35:23.045773  3262 net.cpp:148] Top shape: 24 832 7 7 (978432)
I0403 15:35:23.045788  3262 net.cpp:156] Memory required for data: 1276470816
I0403 15:35:23.045802  3262 layer_factory.hpp:77] Creating layer pool4/3x3_s2_pool4/3x3_s2_0_split
I0403 15:35:23.045825  3262 net.cpp:91] Creating Layer pool4/3x3_s2_pool4/3x3_s2_0_split
I0403 15:35:23.045843  3262 net.cpp:425] pool4/3x3_s2_pool4/3x3_s2_0_split <- pool4/3x3_s2
I0403 15:35:23.045864  3262 net.cpp:399] pool4/3x3_s2_pool4/3x3_s2_0_split -> pool4/3x3_s2_pool4/3x3_s2_0_split_0
I0403 15:35:23.045887  3262 net.cpp:399] pool4/3x3_s2_pool4/3x3_s2_0_split -> pool4/3x3_s2_pool4/3x3_s2_0_split_1
I0403 15:35:23.045908  3262 net.cpp:399] pool4/3x3_s2_pool4/3x3_s2_0_split -> pool4/3x3_s2_pool4/3x3_s2_0_split_2
I0403 15:35:23.045929  3262 net.cpp:399] pool4/3x3_s2_pool4/3x3_s2_0_split -> pool4/3x3_s2_pool4/3x3_s2_0_split_3
I0403 15:35:23.046025  3262 net.cpp:141] Setting up pool4/3x3_s2_pool4/3x3_s2_0_split
I0403 15:35:23.046052  3262 net.cpp:148] Top shape: 24 832 7 7 (978432)
I0403 15:35:23.046071  3262 net.cpp:148] Top shape: 24 832 7 7 (978432)
I0403 15:35:23.046087  3262 net.cpp:148] Top shape: 24 832 7 7 (978432)
I0403 15:35:23.046103  3262 net.cpp:148] Top shape: 24 832 7 7 (978432)
I0403 15:35:23.046116  3262 net.cpp:156] Memory required for data: 1292125728
I0403 15:35:23.046133  3262 layer_factory.hpp:77] Creating layer inception_5a/1x1
I0403 15:35:23.046152  3262 net.cpp:91] Creating Layer inception_5a/1x1
I0403 15:35:23.046169  3262 net.cpp:425] inception_5a/1x1 <- pool4/3x3_s2_pool4/3x3_s2_0_split_0
I0403 15:35:23.046197  3262 net.cpp:399] inception_5a/1x1 -> inception_5a/1x1
I0403 15:35:23.049383  3262 net.cpp:141] Setting up inception_5a/1x1
I0403 15:35:23.049417  3262 net.cpp:148] Top shape: 24 256 7 7 (301056)
I0403 15:35:23.049434  3262 net.cpp:156] Memory required for data: 1293329952
I0403 15:35:23.049454  3262 layer_factory.hpp:77] Creating layer inception_5a/relu_1x1
I0403 15:35:23.049474  3262 net.cpp:91] Creating Layer inception_5a/relu_1x1
I0403 15:35:23.049490  3262 net.cpp:425] inception_5a/relu_1x1 <- inception_5a/1x1
I0403 15:35:23.049509  3262 net.cpp:386] inception_5a/relu_1x1 -> inception_5a/1x1 (in-place)
I0403 15:35:23.049839  3262 net.cpp:141] Setting up inception_5a/relu_1x1
I0403 15:35:23.049870  3262 net.cpp:148] Top shape: 24 256 7 7 (301056)
I0403 15:35:23.049886  3262 net.cpp:156] Memory required for data: 1294534176
I0403 15:35:23.049902  3262 layer_factory.hpp:77] Creating layer inception_5a/3x3_reduce
I0403 15:35:23.049926  3262 net.cpp:91] Creating Layer inception_5a/3x3_reduce
I0403 15:35:23.049944  3262 net.cpp:425] inception_5a/3x3_reduce <- pool4/3x3_s2_pool4/3x3_s2_0_split_1
I0403 15:35:23.049964  3262 net.cpp:399] inception_5a/3x3_reduce -> inception_5a/3x3_reduce
I0403 15:35:23.052599  3262 net.cpp:141] Setting up inception_5a/3x3_reduce
I0403 15:35:23.052631  3262 net.cpp:148] Top shape: 24 160 7 7 (188160)
I0403 15:35:23.052649  3262 net.cpp:156] Memory required for data: 1295286816
I0403 15:35:23.052667  3262 layer_factory.hpp:77] Creating layer inception_5a/relu_3x3_reduce
I0403 15:35:23.052688  3262 net.cpp:91] Creating Layer inception_5a/relu_3x3_reduce
I0403 15:35:23.052706  3262 net.cpp:425] inception_5a/relu_3x3_reduce <- inception_5a/3x3_reduce
I0403 15:35:23.052724  3262 net.cpp:386] inception_5a/relu_3x3_reduce -> inception_5a/3x3_reduce (in-place)
I0403 15:35:23.052924  3262 net.cpp:141] Setting up inception_5a/relu_3x3_reduce
I0403 15:35:23.052953  3262 net.cpp:148] Top shape: 24 160 7 7 (188160)
I0403 15:35:23.052969  3262 net.cpp:156] Memory required for data: 1296039456
I0403 15:35:23.052985  3262 layer_factory.hpp:77] Creating layer inception_5a/3x3
I0403 15:35:23.053009  3262 net.cpp:91] Creating Layer inception_5a/3x3
I0403 15:35:23.053028  3262 net.cpp:425] inception_5a/3x3 <- inception_5a/3x3_reduce
I0403 15:35:23.053048  3262 net.cpp:399] inception_5a/3x3 -> inception_5a/3x3
I0403 15:35:23.058404  3262 net.cpp:141] Setting up inception_5a/3x3
I0403 15:35:23.058439  3262 net.cpp:148] Top shape: 24 320 7 7 (376320)
I0403 15:35:23.058456  3262 net.cpp:156] Memory required for data: 1297544736
I0403 15:35:23.058475  3262 layer_factory.hpp:77] Creating layer inception_5a/relu_3x3
I0403 15:35:23.058496  3262 net.cpp:91] Creating Layer inception_5a/relu_3x3
I0403 15:35:23.058514  3262 net.cpp:425] inception_5a/relu_3x3 <- inception_5a/3x3
I0403 15:35:23.058532  3262 net.cpp:386] inception_5a/relu_3x3 -> inception_5a/3x3 (in-place)
I0403 15:35:23.058847  3262 net.cpp:141] Setting up inception_5a/relu_3x3
I0403 15:35:23.058876  3262 net.cpp:148] Top shape: 24 320 7 7 (376320)
I0403 15:35:23.058892  3262 net.cpp:156] Memory required for data: 1299050016
I0403 15:35:23.058907  3262 layer_factory.hpp:77] Creating layer inception_5a/5x5_reduce
I0403 15:35:23.058933  3262 net.cpp:91] Creating Layer inception_5a/5x5_reduce
I0403 15:35:23.058953  3262 net.cpp:425] inception_5a/5x5_reduce <- pool4/3x3_s2_pool4/3x3_s2_0_split_2
I0403 15:35:23.058972  3262 net.cpp:399] inception_5a/5x5_reduce -> inception_5a/5x5_reduce
I0403 15:35:23.060230  3262 net.cpp:141] Setting up inception_5a/5x5_reduce
I0403 15:35:23.060262  3262 net.cpp:148] Top shape: 24 32 7 7 (37632)
I0403 15:35:23.060281  3262 net.cpp:156] Memory required for data: 1299200544
I0403 15:35:23.060299  3262 layer_factory.hpp:77] Creating layer inception_5a/relu_5x5_reduce
I0403 15:35:23.060318  3262 net.cpp:91] Creating Layer inception_5a/relu_5x5_reduce
I0403 15:35:23.060336  3262 net.cpp:425] inception_5a/relu_5x5_reduce <- inception_5a/5x5_reduce
I0403 15:35:23.060356  3262 net.cpp:386] inception_5a/relu_5x5_reduce -> inception_5a/5x5_reduce (in-place)
I0403 15:35:23.060747  3262 net.cpp:141] Setting up inception_5a/relu_5x5_reduce
I0403 15:35:23.060776  3262 net.cpp:148] Top shape: 24 32 7 7 (37632)
I0403 15:35:23.060792  3262 net.cpp:156] Memory required for data: 1299351072
I0403 15:35:23.060808  3262 layer_factory.hpp:77] Creating layer inception_5a/5x5
I0403 15:35:23.060832  3262 net.cpp:91] Creating Layer inception_5a/5x5
I0403 15:35:23.060852  3262 net.cpp:425] inception_5a/5x5 <- inception_5a/5x5_reduce
I0403 15:35:23.060875  3262 net.cpp:399] inception_5a/5x5 -> inception_5a/5x5
I0403 15:35:23.062707  3262 net.cpp:141] Setting up inception_5a/5x5
I0403 15:35:23.062749  3262 net.cpp:148] Top shape: 24 128 7 7 (150528)
I0403 15:35:23.062767  3262 net.cpp:156] Memory required for data: 1299953184
I0403 15:35:23.062785  3262 layer_factory.hpp:77] Creating layer inception_5a/relu_5x5
I0403 15:35:23.062808  3262 net.cpp:91] Creating Layer inception_5a/relu_5x5
I0403 15:35:23.062826  3262 net.cpp:425] inception_5a/relu_5x5 <- inception_5a/5x5
I0403 15:35:23.062845  3262 net.cpp:386] inception_5a/relu_5x5 -> inception_5a/5x5 (in-place)
I0403 15:35:23.063050  3262 net.cpp:141] Setting up inception_5a/relu_5x5
I0403 15:35:23.063077  3262 net.cpp:148] Top shape: 24 128 7 7 (150528)
I0403 15:35:23.063092  3262 net.cpp:156] Memory required for data: 1300555296
I0403 15:35:23.063108  3262 layer_factory.hpp:77] Creating layer inception_5a/pool
I0403 15:35:23.063127  3262 net.cpp:91] Creating Layer inception_5a/pool
I0403 15:35:23.063143  3262 net.cpp:425] inception_5a/pool <- pool4/3x3_s2_pool4/3x3_s2_0_split_3
I0403 15:35:23.063164  3262 net.cpp:399] inception_5a/pool -> inception_5a/pool
I0403 15:35:23.063251  3262 net.cpp:141] Setting up inception_5a/pool
I0403 15:35:23.063277  3262 net.cpp:148] Top shape: 24 832 7 7 (978432)
I0403 15:35:23.063292  3262 net.cpp:156] Memory required for data: 1304469024
I0403 15:35:23.063308  3262 layer_factory.hpp:77] Creating layer inception_5a/pool_proj
I0403 15:35:23.063333  3262 net.cpp:91] Creating Layer inception_5a/pool_proj
I0403 15:35:23.063352  3262 net.cpp:425] inception_5a/pool_proj <- inception_5a/pool
I0403 15:35:23.063371  3262 net.cpp:399] inception_5a/pool_proj -> inception_5a/pool_proj
I0403 15:35:23.065855  3262 net.cpp:141] Setting up inception_5a/pool_proj
I0403 15:35:23.065886  3262 net.cpp:148] Top shape: 24 128 7 7 (150528)
I0403 15:35:23.065901  3262 net.cpp:156] Memory required for data: 1305071136
I0403 15:35:23.065922  3262 layer_factory.hpp:77] Creating layer inception_5a/relu_pool_proj
I0403 15:35:23.065943  3262 net.cpp:91] Creating Layer inception_5a/relu_pool_proj
I0403 15:35:23.065960  3262 net.cpp:425] inception_5a/relu_pool_proj <- inception_5a/pool_proj
I0403 15:35:23.065979  3262 net.cpp:386] inception_5a/relu_pool_proj -> inception_5a/pool_proj (in-place)
I0403 15:35:23.066342  3262 net.cpp:141] Setting up inception_5a/relu_pool_proj
I0403 15:35:23.066370  3262 net.cpp:148] Top shape: 24 128 7 7 (150528)
I0403 15:35:23.066386  3262 net.cpp:156] Memory required for data: 1305673248
I0403 15:35:23.066402  3262 layer_factory.hpp:77] Creating layer inception_5a/output
I0403 15:35:23.066423  3262 net.cpp:91] Creating Layer inception_5a/output
I0403 15:35:23.066442  3262 net.cpp:425] inception_5a/output <- inception_5a/1x1
I0403 15:35:23.066458  3262 net.cpp:425] inception_5a/output <- inception_5a/3x3
I0403 15:35:23.066475  3262 net.cpp:425] inception_5a/output <- inception_5a/5x5
I0403 15:35:23.066493  3262 net.cpp:425] inception_5a/output <- inception_5a/pool_proj
I0403 15:35:23.066511  3262 net.cpp:399] inception_5a/output -> inception_5a/output
I0403 15:35:23.066566  3262 net.cpp:141] Setting up inception_5a/output
I0403 15:35:23.066591  3262 net.cpp:148] Top shape: 24 832 7 7 (978432)
I0403 15:35:23.066606  3262 net.cpp:156] Memory required for data: 1309586976
I0403 15:35:23.066622  3262 layer_factory.hpp:77] Creating layer inception_5a/output_inception_5a/output_0_split
I0403 15:35:23.066639  3262 net.cpp:91] Creating Layer inception_5a/output_inception_5a/output_0_split
I0403 15:35:23.066655  3262 net.cpp:425] inception_5a/output_inception_5a/output_0_split <- inception_5a/output
I0403 15:35:23.066676  3262 net.cpp:399] inception_5a/output_inception_5a/output_0_split -> inception_5a/output_inception_5a/output_0_split_0
I0403 15:35:23.066697  3262 net.cpp:399] inception_5a/output_inception_5a/output_0_split -> inception_5a/output_inception_5a/output_0_split_1
I0403 15:35:23.066721  3262 net.cpp:399] inception_5a/output_inception_5a/output_0_split -> inception_5a/output_inception_5a/output_0_split_2
I0403 15:35:23.066743  3262 net.cpp:399] inception_5a/output_inception_5a/output_0_split -> inception_5a/output_inception_5a/output_0_split_3
I0403 15:35:23.066864  3262 net.cpp:141] Setting up inception_5a/output_inception_5a/output_0_split
I0403 15:35:23.066890  3262 net.cpp:148] Top shape: 24 832 7 7 (978432)
I0403 15:35:23.066906  3262 net.cpp:148] Top shape: 24 832 7 7 (978432)
I0403 15:35:23.066922  3262 net.cpp:148] Top shape: 24 832 7 7 (978432)
I0403 15:35:23.066938  3262 net.cpp:148] Top shape: 24 832 7 7 (978432)
I0403 15:35:23.066953  3262 net.cpp:156] Memory required for data: 1325241888
I0403 15:35:23.066969  3262 layer_factory.hpp:77] Creating layer inception_5b/1x1
I0403 15:35:23.066992  3262 net.cpp:91] Creating Layer inception_5b/1x1
I0403 15:35:23.067010  3262 net.cpp:425] inception_5b/1x1 <- inception_5a/output_inception_5a/output_0_split_0
I0403 15:35:23.067033  3262 net.cpp:399] inception_5b/1x1 -> inception_5b/1x1
I0403 15:35:23.071096  3262 net.cpp:141] Setting up inception_5b/1x1
I0403 15:35:23.071128  3262 net.cpp:148] Top shape: 24 384 7 7 (451584)
I0403 15:35:23.071144  3262 net.cpp:156] Memory required for data: 1327048224
I0403 15:35:23.071164  3262 layer_factory.hpp:77] Creating layer inception_5b/relu_1x1
I0403 15:35:23.071189  3262 net.cpp:91] Creating Layer inception_5b/relu_1x1
I0403 15:35:23.071208  3262 net.cpp:425] inception_5b/relu_1x1 <- inception_5b/1x1
I0403 15:35:23.071228  3262 net.cpp:386] inception_5b/relu_1x1 -> inception_5b/1x1 (in-place)
I0403 15:35:23.071553  3262 net.cpp:141] Setting up inception_5b/relu_1x1
I0403 15:35:23.071580  3262 net.cpp:148] Top shape: 24 384 7 7 (451584)
I0403 15:35:23.071596  3262 net.cpp:156] Memory required for data: 1328854560
I0403 15:35:23.071612  3262 layer_factory.hpp:77] Creating layer inception_5b/3x3_reduce
I0403 15:35:23.071636  3262 net.cpp:91] Creating Layer inception_5b/3x3_reduce
I0403 15:35:23.071655  3262 net.cpp:425] inception_5b/3x3_reduce <- inception_5a/output_inception_5a/output_0_split_1
I0403 15:35:23.071678  3262 net.cpp:399] inception_5b/3x3_reduce -> inception_5b/3x3_reduce
I0403 15:35:23.074575  3262 net.cpp:141] Setting up inception_5b/3x3_reduce
I0403 15:35:23.074607  3262 net.cpp:148] Top shape: 24 192 7 7 (225792)
I0403 15:35:23.074625  3262 net.cpp:156] Memory required for data: 1329757728
I0403 15:35:23.074643  3262 layer_factory.hpp:77] Creating layer inception_5b/relu_3x3_reduce
I0403 15:35:23.074666  3262 net.cpp:91] Creating Layer inception_5b/relu_3x3_reduce
I0403 15:35:23.074683  3262 net.cpp:425] inception_5b/relu_3x3_reduce <- inception_5b/3x3_reduce
I0403 15:35:23.074702  3262 net.cpp:386] inception_5b/relu_3x3_reduce -> inception_5b/3x3_reduce (in-place)
I0403 15:35:23.074905  3262 net.cpp:141] Setting up inception_5b/relu_3x3_reduce
I0403 15:35:23.074935  3262 net.cpp:148] Top shape: 24 192 7 7 (225792)
I0403 15:35:23.074951  3262 net.cpp:156] Memory required for data: 1330660896
I0403 15:35:23.074967  3262 layer_factory.hpp:77] Creating layer inception_5b/3x3
I0403 15:35:23.074990  3262 net.cpp:91] Creating Layer inception_5b/3x3
I0403 15:35:23.075009  3262 net.cpp:425] inception_5b/3x3 <- inception_5b/3x3_reduce
I0403 15:35:23.075028  3262 net.cpp:399] inception_5b/3x3 -> inception_5b/3x3
I0403 15:35:23.082146  3262 net.cpp:141] Setting up inception_5b/3x3
I0403 15:35:23.082181  3262 net.cpp:148] Top shape: 24 384 7 7 (451584)
I0403 15:35:23.082201  3262 net.cpp:156] Memory required for data: 1332467232
I0403 15:35:23.082219  3262 layer_factory.hpp:77] Creating layer inception_5b/relu_3x3
I0403 15:35:23.082242  3262 net.cpp:91] Creating Layer inception_5b/relu_3x3
I0403 15:35:23.082260  3262 net.cpp:425] inception_5b/relu_3x3 <- inception_5b/3x3
I0403 15:35:23.082278  3262 net.cpp:386] inception_5b/relu_3x3 -> inception_5b/3x3 (in-place)
I0403 15:35:23.082599  3262 net.cpp:141] Setting up inception_5b/relu_3x3
I0403 15:35:23.082629  3262 net.cpp:148] Top shape: 24 384 7 7 (451584)
I0403 15:35:23.082646  3262 net.cpp:156] Memory required for data: 1334273568
I0403 15:35:23.082662  3262 layer_factory.hpp:77] Creating layer inception_5b/5x5_reduce
I0403 15:35:23.082705  3262 net.cpp:91] Creating Layer inception_5b/5x5_reduce
I0403 15:35:23.082727  3262 net.cpp:425] inception_5b/5x5_reduce <- inception_5a/output_inception_5a/output_0_split_2
I0403 15:35:23.082751  3262 net.cpp:399] inception_5b/5x5_reduce -> inception_5b/5x5_reduce
I0403 15:35:23.084123  3262 net.cpp:141] Setting up inception_5b/5x5_reduce
I0403 15:35:23.084152  3262 net.cpp:148] Top shape: 24 48 7 7 (56448)
I0403 15:35:23.084168  3262 net.cpp:156] Memory required for data: 1334499360
I0403 15:35:23.084193  3262 layer_factory.hpp:77] Creating layer inception_5b/relu_5x5_reduce
I0403 15:35:23.084218  3262 net.cpp:91] Creating Layer inception_5b/relu_5x5_reduce
I0403 15:35:23.084235  3262 net.cpp:425] inception_5b/relu_5x5_reduce <- inception_5b/5x5_reduce
I0403 15:35:23.084254  3262 net.cpp:386] inception_5b/relu_5x5_reduce -> inception_5b/5x5_reduce (in-place)
I0403 15:35:23.084650  3262 net.cpp:141] Setting up inception_5b/relu_5x5_reduce
I0403 15:35:23.084677  3262 net.cpp:148] Top shape: 24 48 7 7 (56448)
I0403 15:35:23.084694  3262 net.cpp:156] Memory required for data: 1334725152
I0403 15:35:23.084710  3262 layer_factory.hpp:77] Creating layer inception_5b/5x5
I0403 15:35:23.084731  3262 net.cpp:91] Creating Layer inception_5b/5x5
I0403 15:35:23.084749  3262 net.cpp:425] inception_5b/5x5 <- inception_5b/5x5_reduce
I0403 15:35:23.084769  3262 net.cpp:399] inception_5b/5x5 -> inception_5b/5x5
I0403 15:35:23.086973  3262 net.cpp:141] Setting up inception_5b/5x5
I0403 15:35:23.087005  3262 net.cpp:148] Top shape: 24 128 7 7 (150528)
I0403 15:35:23.087023  3262 net.cpp:156] Memory required for data: 1335327264
I0403 15:35:23.087044  3262 layer_factory.hpp:77] Creating layer inception_5b/relu_5x5
I0403 15:35:23.087062  3262 net.cpp:91] Creating Layer inception_5b/relu_5x5
I0403 15:35:23.087080  3262 net.cpp:425] inception_5b/relu_5x5 <- inception_5b/5x5
I0403 15:35:23.087097  3262 net.cpp:386] inception_5b/relu_5x5 -> inception_5b/5x5 (in-place)
I0403 15:35:23.087311  3262 net.cpp:141] Setting up inception_5b/relu_5x5
I0403 15:35:23.087363  3262 net.cpp:148] Top shape: 24 128 7 7 (150528)
I0403 15:35:23.087381  3262 net.cpp:156] Memory required for data: 1335929376
I0403 15:35:23.087398  3262 layer_factory.hpp:77] Creating layer inception_5b/pool
I0403 15:35:23.087416  3262 net.cpp:91] Creating Layer inception_5b/pool
I0403 15:35:23.087433  3262 net.cpp:425] inception_5b/pool <- inception_5a/output_inception_5a/output_0_split_3
I0403 15:35:23.087455  3262 net.cpp:399] inception_5b/pool -> inception_5b/pool
I0403 15:35:23.087533  3262 net.cpp:141] Setting up inception_5b/pool
I0403 15:35:23.087560  3262 net.cpp:148] Top shape: 24 832 7 7 (978432)
I0403 15:35:23.087577  3262 net.cpp:156] Memory required for data: 1339843104
I0403 15:35:23.087594  3262 layer_factory.hpp:77] Creating layer inception_5b/pool_proj
I0403 15:35:23.087616  3262 net.cpp:91] Creating Layer inception_5b/pool_proj
I0403 15:35:23.087635  3262 net.cpp:425] inception_5b/pool_proj <- inception_5b/pool
I0403 15:35:23.087656  3262 net.cpp:399] inception_5b/pool_proj -> inception_5b/pool_proj
I0403 15:35:23.090112  3262 net.cpp:141] Setting up inception_5b/pool_proj
I0403 15:35:23.090143  3262 net.cpp:148] Top shape: 24 128 7 7 (150528)
I0403 15:35:23.090159  3262 net.cpp:156] Memory required for data: 1340445216
I0403 15:35:23.090183  3262 layer_factory.hpp:77] Creating layer inception_5b/relu_pool_proj
I0403 15:35:23.090206  3262 net.cpp:91] Creating Layer inception_5b/relu_pool_proj
I0403 15:35:23.090224  3262 net.cpp:425] inception_5b/relu_pool_proj <- inception_5b/pool_proj
I0403 15:35:23.090242  3262 net.cpp:386] inception_5b/relu_pool_proj -> inception_5b/pool_proj (in-place)
I0403 15:35:23.090562  3262 net.cpp:141] Setting up inception_5b/relu_pool_proj
I0403 15:35:23.090590  3262 net.cpp:148] Top shape: 24 128 7 7 (150528)
I0403 15:35:23.090606  3262 net.cpp:156] Memory required for data: 1341047328
I0403 15:35:23.090622  3262 layer_factory.hpp:77] Creating layer inception_5b/output
I0403 15:35:23.090643  3262 net.cpp:91] Creating Layer inception_5b/output
I0403 15:35:23.090675  3262 net.cpp:425] inception_5b/output <- inception_5b/1x1
I0403 15:35:23.090694  3262 net.cpp:425] inception_5b/output <- inception_5b/3x3
I0403 15:35:23.090713  3262 net.cpp:425] inception_5b/output <- inception_5b/5x5
I0403 15:35:23.090729  3262 net.cpp:425] inception_5b/output <- inception_5b/pool_proj
I0403 15:35:23.090747  3262 net.cpp:399] inception_5b/output -> inception_5b/output
I0403 15:35:23.090804  3262 net.cpp:141] Setting up inception_5b/output
I0403 15:35:23.090828  3262 net.cpp:148] Top shape: 24 1024 7 7 (1204224)
I0403 15:35:23.090844  3262 net.cpp:156] Memory required for data: 1345864224
I0403 15:35:23.090860  3262 layer_factory.hpp:77] Creating layer pool5/7x7_s1
I0403 15:35:23.090878  3262 net.cpp:91] Creating Layer pool5/7x7_s1
I0403 15:35:23.090896  3262 net.cpp:425] pool5/7x7_s1 <- inception_5b/output
I0403 15:35:23.090917  3262 net.cpp:399] pool5/7x7_s1 -> pool5/7x7_s1
I0403 15:35:23.091146  3262 net.cpp:141] Setting up pool5/7x7_s1
I0403 15:35:23.091176  3262 net.cpp:148] Top shape: 24 1024 1 1 (24576)
I0403 15:35:23.091198  3262 net.cpp:156] Memory required for data: 1345962528
I0403 15:35:23.091214  3262 layer_factory.hpp:77] Creating layer pool5/drop_7x7_s1
I0403 15:35:23.091233  3262 net.cpp:91] Creating Layer pool5/drop_7x7_s1
I0403 15:35:23.091249  3262 net.cpp:425] pool5/drop_7x7_s1 <- pool5/7x7_s1
I0403 15:35:23.091269  3262 net.cpp:386] pool5/drop_7x7_s1 -> pool5/7x7_s1 (in-place)
I0403 15:35:23.091323  3262 net.cpp:141] Setting up pool5/drop_7x7_s1
I0403 15:35:23.091348  3262 net.cpp:148] Top shape: 24 1024 1 1 (24576)
I0403 15:35:23.091362  3262 net.cpp:156] Memory required for data: 1346060832
I0403 15:35:23.091378  3262 layer_factory.hpp:77] Creating layer loss3/classifier_plantvillage
I0403 15:35:23.091400  3262 net.cpp:91] Creating Layer loss3/classifier_plantvillage
I0403 15:35:23.091418  3262 net.cpp:425] loss3/classifier_plantvillage <- pool5/7x7_s1
I0403 15:35:23.091439  3262 net.cpp:399] loss3/classifier_plantvillage -> loss3/classifier_plantvillage
I0403 15:35:23.091892  3262 net.cpp:141] Setting up loss3/classifier_plantvillage
I0403 15:35:23.091918  3262 net.cpp:148] Top shape: 24 38 (912)
I0403 15:35:23.091934  3262 net.cpp:156] Memory required for data: 1346064480
I0403 15:35:23.091953  3262 layer_factory.hpp:77] Creating layer loss3/classifier_plantvillage_loss3/classifier_plantvillage_0_split
I0403 15:35:23.091972  3262 net.cpp:91] Creating Layer loss3/classifier_plantvillage_loss3/classifier_plantvillage_0_split
I0403 15:35:23.091989  3262 net.cpp:425] loss3/classifier_plantvillage_loss3/classifier_plantvillage_0_split <- loss3/classifier_plantvillage
I0403 15:35:23.092011  3262 net.cpp:399] loss3/classifier_plantvillage_loss3/classifier_plantvillage_0_split -> loss3/classifier_plantvillage_loss3/classifier_plantvillage_0_split_0
I0403 15:35:23.092033  3262 net.cpp:399] loss3/classifier_plantvillage_loss3/classifier_plantvillage_0_split -> loss3/classifier_plantvillage_loss3/classifier_plantvillage_0_split_1
I0403 15:35:23.092054  3262 net.cpp:399] loss3/classifier_plantvillage_loss3/classifier_plantvillage_0_split -> loss3/classifier_plantvillage_loss3/classifier_plantvillage_0_split_2
I0403 15:35:23.092075  3262 net.cpp:399] loss3/classifier_plantvillage_loss3/classifier_plantvillage_0_split -> loss3/classifier_plantvillage_loss3/classifier_plantvillage_0_split_3
I0403 15:35:23.092187  3262 net.cpp:141] Setting up loss3/classifier_plantvillage_loss3/classifier_plantvillage_0_split
I0403 15:35:23.092211  3262 net.cpp:148] Top shape: 24 38 (912)
I0403 15:35:23.092228  3262 net.cpp:148] Top shape: 24 38 (912)
I0403 15:35:23.092245  3262 net.cpp:148] Top shape: 24 38 (912)
I0403 15:35:23.092262  3262 net.cpp:148] Top shape: 24 38 (912)
I0403 15:35:23.092277  3262 net.cpp:156] Memory required for data: 1346079072
I0403 15:35:23.092293  3262 layer_factory.hpp:77] Creating layer loss1/loss
I0403 15:35:23.092314  3262 net.cpp:91] Creating Layer loss1/loss
I0403 15:35:23.092332  3262 net.cpp:425] loss1/loss <- loss1/classifier_plantvillage_loss1/classifier_plantvillage_0_split_0
I0403 15:35:23.092365  3262 net.cpp:425] loss1/loss <- label_data_1_split_0
…
