…
I0403 15:17:03.336638  2908 net.cpp:313] The NetState phase (1) differed from the phase (0) specified by a rule in layer data
I0403 15:17:03.337779  2908 net.cpp:49] Initializing net from parameters: 
state {
  phase: TEST
}
layer {
  name: "data"
  type: "Data"
  top: "data"
  top: "label"
  include {
    phase: TEST
  }
  transform_param {
    mirror: false
    crop_size: 224
    mean_file: "/home/mohanty/data/final_dataset/lmdb/segmented-60-40/mean.binaryproto"
  }
  data_param {
    source: "/home/mohanty/data/final_dataset/lmdb/segmented-60-40/test_db"
    batch_size: 24
    backend: LMDB
  }
}
layer {
  name: "conv1/7x7_s2"
  type: "Convolution"
  bottom: "data"
  top: "conv1/7x7_s2"
  param {
    lr_mult: 1
    decay_mult: 1
  }
  param {
    lr_mult: 2
    decay_mult: 0
  }
  convolution_param {
    num_output: 64
    pad: 3
    kernel_size: 7
    stride: 2
    weight_filler {
      type: "xavier"
      std: 0.1
    }
    bias_filler {
      type: "constant"
      value: 0.2
    }
  }
}
layer {
  name: "conv1/relu_7x7"
  type: "ReLU"
  bottom: "conv1/7x7_s2"
  top: "conv1/7x7_s2"
}
layer {
  name: "pool1/3x3_s2"
  type: "Pooling"
  bottom: "conv1/7x7_s2"
  top: "pool1/3x3_s2"
  pooling_param {
    pool: MAX
    kernel_size: 3
    stride: 2
  }
}
layer {
  name: "pool1/norm1"
  type: "LRN"
  bottom: "pool1/3x3_s2"
  top: "pool1/norm1"
  lrn_param {
    local_size: 5
    alpha: 0.0001
    beta: 0.75
  }
}
layer {
  name: "conv2/3x3_reduce"
  type: "Convolution"
  bottom: "pool1/norm1"
  top: "conv2/3x3_reduce"
  param {
    lr_mult: 1
    decay_mult: 1
  }
  param {
    lr_mult: 2
    decay_mult: 0
  }
  convolution_param {
    num_output: 64
    kernel_size: 1
    weight_filler {
      type: "xavier"
      std: 0.1
    }
    bias_filler {
      type: "constant"
      value: 0.2
    }
  }
}
layer {
  name: "conv2/relu_3x3_reduce"
  type: "ReLU"
  bottom: "conv2/3x3_reduce"
  top: "conv2/3x3_reduce"
}
layer {
  name: "conv2/3x3"
  type: "Convolution"
  bottom: "conv2/3x3_reduce"
  top: "conv2/3x3"
  param {
    lr_mult: 1
    decay_mult: 1
  }
  param {
    lr_mult: 2
    decay_mult: 0
  }
  convolution_param {
    num_output: 192
    pad: 1
    kernel_size: 3
    weight_filler {
      type: "xavier"
      std: 0.03
    }
    bias_filler {
      type: "constant"
      value: 0.2
    }
  }
}
layer {
  name: "conv2/relu_3x3"
  type: "ReLU"
  bottom: "conv2/3x3"
  top: "conv2/3x3"
}
layer {
  name: "conv2/norm2"
  type: "LRN"
  bottom: "conv2/3x3"
  top: "conv2/norm2"
  lrn_param {
    local_size: 5
    alpha: 0.0001
    beta: 0.75
  }
}
layer {
  name: "pool2/3x3_s2"
  type: "Pooling"
  bottom: "conv2/norm2"
  top: "pool2/3x3_s2"
  pooling_param {
    pool: MAX
    kernel_size: 3
    stride: 2
  }
}
layer {
  name: "inception_3a/1x1"
  type: "Convolution"
  bottom: "pool2/3x3_s2"
  top: "inception_3a/1x1"
  param {
    lr_mult: 1
    decay_mult: 1
  }
  param {
    lr_mult: 2
    decay_mult: 0
  }
  convolution_param {
    num_output: 64
    kernel_size: 1
    weight_filler {
      type: "xavier"
      std: 0.03
    }
    bias_filler {
      type: "constant"
      value: 0.2
    }
  }
}
layer {
  name: "inception_3a/relu_1x1"
  type: "ReLU"
  bottom: "inception_3a/1x1"
  top: "inception_3a/1x1"
}
layer {
  name: "inception_3a/3x3_reduce"
  type: "Convolution"
  bottom: "pool2/3x3_s2"
  top: "inception_3a/3x3_reduce"
  param {
    lr_mult: 1
    decay_mult: 1
  }
  param {
    lr_mult: 2
    decay_mult: 0
  }
  convolution_param {
    num_output: 96
    kernel_size: 1
    weight_filler {
      type: "xavier"
      std: 0.09
    }
    bias_filler {
      type: "constant"
      value: 0.2
    }
  }
}
layer {
  name: "inception_3a/relu_3x3_reduce"
  type: "ReLU"
  bottom: "inception_3a/3x3_reduce"
  top: "inception_3a/3x3_reduce"
}
layer {
  name: "inception_3a/3x3"
  type: "Convolution"
  bottom: "inception_3a/3x3_reduce"
  top: "inception_3a/3x3"
  param {
    lr_mult: 1
    decay_mult: 1
  }
  param {
    lr_mult: 2
    decay_mult: 0
  }
  convolution_param {
    num_output: 128
    pad: 1
    kernel_size: 3
    weight_filler {
      type: "xavier"
      std: 0.03
    }
    bias_filler {
      type: "constant"
      value: 0.2
    }
  }
}
layer {
  name: "inception_3a/relu_3x3"
  type: "ReLU"
  bottom: "inception_3a/3x3"
  top: "inception_3a/3x3"
}
layer {
  name: "inception_3a/5x5_reduce"
  type: "Convolution"
  bottom: "pool2/3x3_s2"
  top: "inception_3a/5x5_reduce"
  param {
    lr_mult: 1
    decay_mult: 1
  }
  param {
    lr_mult: 2
    decay_mult: 0
  }
  convolution_param {
    num_output: 16
    kernel_size: 1
    weight_filler {
      type: "xavier"
      std: 0.2
    }
    bias_filler {
      type: "constant"
      value: 0.2
    }
  }
}
layer {
  name: "inception_3a/relu_5x5_reduce"
  type: "ReLU"
  bottom: "inception_3a/5x5_reduce"
  top: "inception_3a/5x5_reduce"
}
layer {
  name: "inception_3a/5x5"
  type: "Convolution"
  bottom: "inception_3a/5x5_reduce"
  top: "inception_3a/5x5"
  param {
    lr_mult: 1
    decay_mult: 1
  }
  param {
    lr_mult: 2
    decay_mult: 0
  }
  convolution_param {
    num_output: 32
    pad: 2
    kernel_size: 5
    weight_filler {
      type: "xavier"
      std: 0.03
    }
    bias_filler {
      type: "constant"
      value: 0.2
    }
  }
}
layer {
  name: "inception_3a/relu_5x5"
  type: "ReLU"
  bottom: "inception_3a/5x5"
  top: "inception_3a/5x5"
}
layer {
  name: "inception_3a/pool"
  type: "Pooling"
  bottom: "pool2/3x3_s2"
  top: "inception_3a/pool"
  pooling_param {
    pool: MAX
    kernel_size: 3
    stride: 1
    pad: 1
  }
}
layer {
  name: "inception_3a/pool_proj"
  type: "Convolution"
  bottom: "inception_3a/pool"
  top: "inception_3a/pool_proj"
  param {
    lr_mult: 1
    decay_mult: 1
  }
  param {
    lr_mult: 2
    decay_mult: 0
  }
  convolution_param {
    num_output: 32
    kernel_size: 1
    weight_filler {
      type: "xavier"
      std: 0.1
    }
    bias_filler {
      type: "constant"
      value: 0.2
    }
  }
}
layer {
  name: "inception_3a/relu_pool_proj"
  type: "ReLU"
  bottom: "inception_3a/pool_proj"
  top: "inception_3a/pool_proj"
}
layer {
  name: "inception_3a/output"
  type: "Concat"
  bottom: "inception_3a/1x1"
  bottom: "inception_3a/3x3"
  bottom: "inception_3a/5x5"
  bottom: "inception_3a/pool_proj"
  top: "inception_3a/output"
}
layer {
  name: "inception_3b/1x1"
  type: "Convolution"
  bottom: "inception_3a/output"
  top: "inception_3b/1x1"
  param {
    lr_mult: 1
    decay_mult: 1
  }
  param {
    lr_mult: 2
    decay_mult: 0
  }
  convolution_param {
    num_output: 128
    kernel_size: 1
    weight_filler {
      type: "xavier"
      std: 0.03
    }
    bias_filler {
      type: "constant"
      value: 0.2
    }
  }
}
layer {
  name: "inception_3b/relu_1x1"
  type: "ReLU"
  bottom: "inception_3b/1x1"
  top: "inception_3b/1x1"
}
layer {
  name: "inception_3b/3x3_reduce"
  type: "Convolution"
  bottom: "inception_3a/output"
  top: "inception_3b/3x3_reduce"
  param {
    lr_mult: 1
    decay_mult: 1
  }
  param {
    lr_mult: 2
    decay_mult: 0
  }
  convolution_param {
    num_output: 128
    kernel_size: 1
    weight_filler {
      type: "xavier"
      std: 0.09
    }
    bias_filler {
      type: "constant"
      value: 0.2
    }
  }
}
layer {
  name: "inception_3b/relu_3x3_reduce"
  type: "ReLU"
  bottom: "inception_3b/3x3_reduce"
  top: "inception_3b/3x3_reduce"
}
layer {
  name: "inception_3b/3x3"
  type: "Convolution"
  bottom: "inception_3b/3x3_reduce"
  top: "inception_3b/3x3"
  param {
    lr_mult: 1
    decay_mult: 1
  }
  param {
    lr_mult: 2
    decay_mult: 0
  }
  convolution_param {
    num_output: 192
    pad: 1
    kernel_size: 3
    weight_filler {
      type: "xavier"
      std: 0.03
    }
    bias_filler {
      type: "constant"
      value: 0.2
    }
  }
}
layer {
  name: "inception_3b/relu_3x3"
  type: "ReLU"
  bottom: "inception_3b/3x3"
  top: "inception_3b/3x3"
}
layer {
  name: "inception_3b/5x5_reduce"
  type: "Convolution"
  bottom: "inception_3a/output"
  top: "inception_3b/5x5_reduce"
  param {
    lr_mult: 1
    decay_mult: 1
  }
  param {
    lr_mult: 2
    decay_mult: 0
  }
  convolution_param {
    num_output: 32
    kernel_size: 1
    weight_filler {
      type: "xavier"
      std: 0.2
    }
    bias_filler {
      type: "constant"
      value: 0.2
    }
  }
}
layer {
  name: "inception_3b/relu_5x5_reduce"
  type: "ReLU"
  bottom: "inception_3b/5x5_reduce"
  top: "inception_3b/5x5_reduce"
}
layer {
  name: "inception_3b/5x5"
  type: "Convolution"
  bottom: "inception_3b/5x5_reduce"
  top: "inception_3b/5x5"
  param {
    lr_mult: 1
    decay_mult: 1
  }
  param {
    lr_mult: 2
    decay_mult: 0
  }
  convolution_param {
    num_output: 96
    pad: 2
    kernel_size: 5
    weight_filler {
      type: "xavier"
      std: 0.03
    }
    bias_filler {
      type: "constant"
      value: 0.2
    }
  }
}
layer {
  name: "inception_3b/relu_5x5"
  type: "ReLU"
  bottom: "inception_3b/5x5"
  top: "inception_3b/5x5"
}
layer {
  name: "inception_3b/pool"
  type: "Pooling"
  bottom: "inception_3a/output"
  top: "inception_3b/pool"
  pooling_param {
    pool: MAX
    kernel_size: 3
    stride: 1
    pad: 1
  }
}
layer {
  name: "inception_3b/pool_proj"
  type: "Convolution"
  bottom: "inception_3b/pool"
  top: "inception_3b/pool_proj"
  param {
    lr_mult: 1
    decay_mult: 1
  }
  param {
    lr_mult: 2
    decay_mult: 0
  }
  convolution_param {
    num_output: 64
    kernel_size: 1
    weight_filler {
      type: "xavier"
      std: 0.1
    }
    bias_filler {
      type: "constant"
      value: 0.2
    }
  }
}
layer {
  name: "inception_3b/relu_pool_proj"
  type: "ReLU"
  bottom: "inception_3b/pool_proj"
  top: "inception_3b/pool_proj"
}
layer {
  name: "inception_3b/output"
  type: "Concat"
  bottom: "inception_3b/1x1"
  bottom: "inception_3b/3x3"
  bottom: "inception_3b/5x5"
  bottom: "inception_3b/pool_proj"
  top: "inception_3b/output"
}
layer {
  name: "pool3/3x3_s2"
  type: "Pooling"
  bottom: "inception_3b/output"
  top: "pool3/3x3_s2"
  pooling_param {
    pool: MAX
    kernel_size: 3
    stride: 2
  }
}
layer {
  name: "inception_4a/1x1"
  type: "Convolution"
  bottom: "pool3/3x3_s2"
  top: "inception_4a/1x1"
  param {
    lr_mult: 1
    decay_mult: 1
  }
  param {
    lr_mult: 2
    decay_mult: 0
  }
  convolution_param {
    num_output: 192
    kernel_size: 1
    weight_filler {
      type: "xavier"
      std: 0.03
    }
    bias_filler {
      type: "constant"
      value: 0.2
    }
  }
}
layer {
  name: "inception_4a/relu_1x1"
  type: "ReLU"
  bottom: "inception_4a/1x1"
  top: "inception_4a/1x1"
}
layer {
  name: "inception_4a/3x3_reduce"
  type: "Convolution"
  bottom: "pool3/3x3_s2"
  top: "inception_4a/3x3_reduce"
  param {
    lr_mult: 1
    decay_mult: 1
  }
  param {
    lr_mult: 2
    decay_mult: 0
  }
  convolution_param {
    num_output: 96
    kernel_size: 1
    weight_filler {
      type: "xavier"
      std: 0.09
    }
    bias_filler {
      type: "constant"
      value: 0.2
    }
  }
}
layer {
  name: "inception_4a/relu_3x3_reduce"
  type: "ReLU"
  bottom: "inception_4a/3x3_reduce"
  top: "inception_4a/3x3_reduce"
}
layer {
  name: "inception_4a/3x3"
  type: "Convolution"
  bottom: "inception_4a/3x3_reduce"
  top: "inception_4a/3x3"
  param {
    lr_mult: 1
    decay_mult: 1
  }
  param {
    lr_mult: 2
    decay_mult: 0
  }
  convolution_param {
    num_output: 208
    pad: 1
    kernel_size: 3
    weight_filler {
      type: "xavier"
      std: 0.03
    }
    bias_filler {
      type: "constant"
      value: 0.2
    }
  }
}
layer {
  name: "inception_4a/relu_3x3"
  type: "ReLU"
  bottom: "inception_4a/3x3"
  top: "inception_4a/3x3"
}
layer {
  name: "inception_4a/5x5_reduce"
  type: "Convolution"
  bottom: "pool3/3x3_s2"
  top: "inception_4a/5x5_reduce"
  param {
    lr_mult: 1
    decay_mult: 1
  }
  param {
    lr_mult: 2
    decay_mult: 0
  }
  convolution_param {
    num_output: 16
    kernel_size: 1
    weight_filler {
      type: "xavier"
      std: 0.2
    }
    bias_filler {
      type: "constant"
      value: 0.2
    }
  }
}
layer {
  name: "inception_4a/relu_5x5_reduce"
  type: "ReLU"
  bottom: "inception_4a/5x5_reduce"
  top: "inception_4a/5x5_reduce"
}
layer {
  name: "inception_4a/5x5"
  type: "Convolution"
  bottom: "inception_4a/5x5_reduce"
  top: "inception_4a/5x5"
  param {
    lr_mult: 1
    decay_mult: 1
  }
  param {
    lr_mult: 2
    decay_mult: 0
  }
  convolution_param {
    num_output: 48
    pad: 2
    kernel_size: 5
    weight_filler {
      type: "xavier"
      std: 0.03
    }
    bias_filler {
      type: "constant"
      value: 0.2
    }
  }
}
layer {
  name: "inception_4a/relu_5x5"
  type: "ReLU"
  bottom: "inception_4a/5x5"
  top: "inception_4a/5x5"
}
layer {
  name: "inception_4a/pool"
  type: "Pooling"
  bottom: "pool3/3x3_s2"
  top: "inception_4a/pool"
  pooling_param {
    pool: MAX
    kernel_size: 3
    stride: 1
    pad: 1
  }
}
layer {
  name: "inception_4a/pool_proj"
  type: "Convolution"
  bottom: "inception_4a/pool"
  top: "inception_4a/pool_proj"
  param {
    lr_mult: 1
    decay_mult: 1
  }
  param {
    lr_mult: 2
    decay_mult: 0
  }
  convolution_param {
    num_output: 64
    kernel_size: 1
    weight_filler {
      type: "xavier"
      std: 0.1
    }
    bias_filler {
      type: "constant"
      value: 0.2
    }
  }
}
layer {
  name: "inception_4a/relu_pool_proj"
  type: "ReLU"
  bottom: "inception_4a/pool_proj"
  top: "inception_4a/pool_proj"
}
layer {
  name: "inception_4a/output"
  type: "Concat"
  bottom: "inception_4a/1x1"
  bottom: "inception_4a/3x3"
  bottom: "inception_4a/5x5"
  bottom: "inception_4a/pool_proj"
  top: "inception_4a/output"
}
layer {
  name: "loss1/ave_pool"
  type: "Pooling"
  bottom: "inception_4a/output"
  top: "loss1/ave_pool"
  pooling_param {
    pool: AVE
    kernel_size: 5
    stride: 3
  }
}
layer {
  name: "loss1/conv"
  type: "Convolution"
  bottom: "loss1/ave_pool"
  top: "loss1/conv"
  param {
    lr_mult: 1
    decay_mult: 1
  }
  param {
    lr_mult: 2
    decay_mult: 0
  }
  convolution_param {
    num_output: 128
    kernel_size: 1
    weight_filler {
      type: "xavier"
      std: 0.08
    }
    bias_filler {
      type: "constant"
      value: 0.2
    }
  }
}
layer {
  name: "loss1/relu_conv"
  type: "ReLU"
  bottom: "loss1/conv"
  top: "loss1/conv"
}
layer {
  name: "loss1/fc"
  type: "InnerProduct"
  bottom: "loss1/conv"
  top: "loss1/fc"
  param {
    lr_mult: 1
    decay_mult: 1
  }
  param {
    lr_mult: 2
    decay_mult: 0
  }
  inner_product_param {
    num_output: 1024
    weight_filler {
      type: "xavier"
      std: 0.02
    }
    bias_filler {
      type: "constant"
      value: 0.2
    }
  }
}
layer {
  name: "loss1/relu_fc"
  type: "ReLU"
  bottom: "loss1/fc"
  top: "loss1/fc"
}
layer {
  name: "loss1/drop_fc"
  type: "Dropout"
  bottom: "loss1/fc"
  top: "loss1/fc"
  dropout_param {
    dropout_ratio: 0.7
  }
}
layer {
  name: "loss1/classifier_plantvillage"
  type: "InnerProduct"
  bottom: "loss1/fc"
  top: "loss1/classifier_plantvillage"
  param {
    lr_mult: 1
    decay_mult: 1
  }
  param {
    lr_mult: 2
    decay_mult: 0
  }
  inner_product_param {
    num_output: 38
    weight_filler {
      type: "xavier"
      std: 0.0009765625
    }
    bias_filler {
      type: "constant"
      value: 0
    }
  }
}
layer {
  name: "inception_4b/1x1"
  type: "Convolution"
  bottom: "inception_4a/output"
  top: "inception_4b/1x1"
  param {
    lr_mult: 1
    decay_mult: 1
  }
  param {
    lr_mult: 2
    decay_mult: 0
  }
  convolution_param {
    num_output: 160
    kernel_size: 1
    weight_filler {
      type: "xavier"
      std: 0.03
    }
    bias_filler {
      type: "constant"
      value: 0.2
    }
  }
}
layer {
  name: "inception_4b/relu_1x1"
  type: "ReLU"
  bottom: "inception_4b/1x1"
  top: "inception_4b/1x1"
}
layer {
  name: "inception_4b/3x3_reduce"
  type: "Convolution"
  bottom: "inception_4a/output"
  top: "inception_4b/3x3_reduce"
  param {
    lr_mult: 1
    decay_mult: 1
  }
  param {
    lr_mult: 2
    decay_mult: 0
  }
  convolution_param {
    num_output: 112
    kernel_size: 1
    weight_filler {
      type: "xavier"
      std: 0.09
    }
    bias_filler {
      type: "constant"
      value: 0.2
    }
  }
}
layer {
  name: "inception_4b/relu_3x3_reduce"
  type: "ReLU"
  bottom: "inception_4b/3x3_reduce"
  top: "inception_4b/3x3_reduce"
}
layer {
  name: "inception_4b/3x3"
  type: "Convolution"
  bottom: "inception_4b/3x3_reduce"
  top: "inception_4b/3x3"
  param {
    lr_mult: 1
    decay_mult: 1
  }
  param {
    lr_mult: 2
    decay_mult: 0
  }
  convolution_param {
    num_output: 224
    pad: 1
    kernel_size: 3
    weight_filler {
      type: "xavier"
      std: 0.03
    }
    bias_filler {
      type: "constant"
      value: 0.2
    }
  }
}
layer {
  name: "inception_4b/relu_3x3"
  type: "ReLU"
  bottom: "inception_4b/3x3"
  top: "inception_4b/3x3"
}
layer {
  name: "inception_4b/5x5_reduce"
  type: "Convolution"
  bottom: "inception_4a/output"
  top: "inception_4b/5x5_reduce"
  param {
    lr_mult: 1
    decay_mult: 1
  }
  param {
    lr_mult: 2
    decay_mult: 0
  }
  convolution_param {
    num_output: 24
    kernel_size: 1
    weight_filler {
      type: "xavier"
      std: 0.2
    }
    bias_filler {
      type: "constant"
      value: 0.2
    }
  }
}
layer {
  name: "inception_4b/relu_5x5_reduce"
  type: "ReLU"
  bottom: "inception_4b/5x5_reduce"
  top: "inception_4b/5x5_reduce"
}
layer {
  name: "inception_4b/5x5"
  type: "Convolution"
  bottom: "inception_4b/5x5_reduce"
  top: "inception_4b/5x5"
  param {
    lr_mult: 1
    decay_mult: 1
  }
  param {
    lr_mult: 2
    decay_mult: 0
  }
  convolution_param {
    num_output: 64
    pad: 2
    kernel_size: 5
    weight_filler {
      type: "xavier"
      std: 0.03
    }
    bias_filler {
      type: "constant"
      value: 0.2
    }
  }
}
layer {
  name: "inception_4b/relu_5x5"
  type: "ReLU"
  bottom: "inception_4b/5x5"
  top: "inception_4b/5x5"
}
layer {
  name: "inception_4b/pool"
  type: "Pooling"
  bottom: "inception_4a/output"
  top: "inception_4b/pool"
  pooling_param {
    pool: MAX
    kernel_size: 3
    stride: 1
    pad: 1
  }
}
layer {
  name: "inception_4b/pool_proj"
  type: "Convolution"
  bottom: "inception_4b/pool"
  top: "inception_4b/pool_proj"
  param {
    lr_mult: 1
    decay_mult: 1
  }
  param {
    lr_mult: 2
    decay_mult: 0
  }
  convolution_param {
    num_output: 64
    kernel_size: 1
    weight_filler {
      type: "xavier"
      std: 0.1
    }
    bias_filler {
      type: "constant"
      value: 0.2
    }
  }
}
layer {
  name: "inception_4b/relu_pool_proj"
  type: "ReLU"
  bottom: "inception_4b/pool_proj"
  top: "inception_4b/pool_proj"
}
layer {
  name: "inception_4b/output"
  type: "Concat"
  bottom: "inception_4b/1x1"
  bottom: "inception_4b/3x3"
  bottom: "inception_4b/5x5"
  bottom: "inception_4b/pool_proj"
  top: "inception_4b/output"
}
layer {
  name: "inception_4c/1x1"
  type: "Convolution"
  bottom: "inception_4b/output"
  top: "inception_4c/1x1"
  param {
    lr_mult: 1
    decay_mult: 1
  }
  param {
    lr_mult: 2
    decay_mult: 0
  }
  convolution_param {
    num_output: 128
    kernel_size: 1
    weight_filler {
      type: "xavier"
      std: 0.03
    }
    bias_filler {
      type: "constant"
      value: 0.2
    }
  }
}
layer {
  name: "inception_4c/relu_1x1"
  type: "ReLU"
  bottom: "inception_4c/1x1"
  top: "inception_4c/1x1"
}
layer {
  name: "inception_4c/3x3_reduce"
  type: "Convolution"
  bottom: "inception_4b/output"
  top: "inception_4c/3x3_reduce"
  param {
    lr_mult: 1
    decay_mult: 1
  }
  param {
    lr_mult: 2
    decay_mult: 0
  }
  convolution_param {
    num_output: 128
    kernel_size: 1
    weight_filler {
      type: "xavier"
      std: 0.09
    }
    bias_filler {
      type: "constant"
      value: 0.2
    }
  }
}
layer {
  name: "inception_4c/relu_3x3_reduce"
  type: "ReLU"
  bottom: "inception_4c/3x3_reduce"
  top: "inception_4c/3x3_reduce"
}
layer {
  name: "inception_4c/3x3"
  type: "Convolution"
  bottom: "inception_4c/3x3_reduce"
  top: "inception_4c/3x3"
  param {
    lr_mult: 1
    decay_mult: 1
  }
  param {
    lr_mult: 2
    decay_mult: 0
  }
  convolution_param {
    num_output: 256
    pad: 1
    kernel_size: 3
    weight_filler {
      type: "xavier"
      std: 0.03
    }
    bias_filler {
      type: "constant"
      value: 0.2
    }
  }
}
layer {
  name: "inception_4c/relu_3x3"
  type: "ReLU"
  bottom: "inception_4c/3x3"
  top: "inception_4c/3x3"
}
layer {
  name: "inception_4c/5x5_reduce"
  type: "Convolution"
  bottom: "inception_4b/output"
  top: "inception_4c/5x5_reduce"
  param {
    lr_mult: 1
    decay_mult: 1
  }
  param {
    lr_mult: 2
    decay_mult: 0
  }
  convolution_param {
    num_output: 24
    kernel_size: 1
    weight_filler {
      type: "xavier"
      std: 0.2
    }
    bias_filler {
      type: "constant"
      value: 0.2
    }
  }
}
layer {
  name: "inception_4c/relu_5x5_reduce"
  type: "ReLU"
  bottom: "inception_4c/5x5_reduce"
  top: "inception_4c/5x5_reduce"
}
layer {
  name: "inception_4c/5x5"
  type: "Convolution"
  bottom: "inception_4c/5x5_reduce"
  top: "inception_4c/5x5"
  param {
    lr_mult: 1
    decay_mult: 1
  }
  param {
    lr_mult: 2
    decay_mult: 0
  }
  convolution_param {
    num_output: 64
    pad: 2
    kernel_size: 5
    weight_filler {
      type: "xavier"
      std: 0.03
    }
    bias_filler {
      type: "constant"
      value: 0.2
    }
  }
}
layer {
  name: "inception_4c/relu_5x5"
  type: "ReLU"
  bottom: "inception_4c/5x5"
  top: "inception_4c/5x5"
}
layer {
  name: "inception_4c/pool"
  type: "Pooling"
  bottom: "inception_4b/output"
  top: "inception_4c/pool"
  pooling_param {
    pool: MAX
    kernel_size: 3
    stride: 1
    pad: 1
  }
}
layer {
  name: "inception_4c/pool_proj"
  type: "Convolution"
  bottom: "inception_4c/pool"
  top: "inception_4c/pool_proj"
  param {
    lr_mult: 1
    decay_mult: 1
  }
  param {
    lr_mult: 2
    decay_mult: 0
  }
  convolution_param {
    num_output: 64
    kernel_size: 1
    weight_filler {
      type: "xavier"
      std: 0.1
    }
    bias_filler {
      type: "constant"
      value: 0.2
    }
  }
}
layer {
  name: "inception_4c/relu_pool_proj"
  type: "ReLU"
  bottom: "inception_4c/pool_proj"
  top: "inception_4c/pool_proj"
}
layer {
  name: "inception_4c/output"
  type: "Concat"
  bottom: "inception_4c/1x1"
  bottom: "inception_4c/3x3"
  bottom: "inception_4c/5x5"
  bottom: "inception_4c/pool_proj"
  top: "inception_4c/output"
}
layer {
  name: "inception_4d/1x1"
  type: "Convolution"
  bottom: "inception_4c/output"
  top: "inception_4d/1x1"
  param {
    lr_mult: 1
    decay_mult: 1
  }
  param {
    lr_mult: 2
    decay_mult: 0
  }
  convolution_param {
    num_output: 112
    kernel_size: 1
    weight_filler {
      type: "xavier"
      std: 0.03
    }
    bias_filler {
      type: "constant"
      value: 0.2
    }
  }
}
layer {
  name: "inception_4d/relu_1x1"
  type: "ReLU"
  bottom: "inception_4d/1x1"
  top: "inception_4d/1x1"
}
layer {
  name: "inception_4d/3x3_reduce"
  type: "Convolution"
  bottom: "inception_4c/output"
  top: "inception_4d/3x3_reduce"
  param {
    lr_mult: 1
    decay_mult: 1
  }
  param {
    lr_mult: 2
    decay_mult: 0
  }
  convolution_param {
    num_output: 144
    kernel_size: 1
    weight_filler {
      type: "xavier"
      std: 0.09
    }
    bias_filler {
      type: "constant"
      value: 0.2
    }
  }
}
layer {
  name: "inception_4d/relu_3x3_reduce"
  type: "ReLU"
  bottom: "inception_4d/3x3_reduce"
  top: "inception_4d/3x3_reduce"
}
layer {
  name: "inception_4d/3x3"
  type: "Convolution"
  bottom: "inception_4d/3x3_reduce"
  top: "inception_4d/3x3"
  param {
    lr_mult: 1
    decay_mult: 1
  }
  param {
    lr_mult: 2
    decay_mult: 0
  }
  convolution_param {
    num_output: 288
    pad: 1
    kernel_size: 3
    weight_filler {
      type: "xavier"
      std: 0.03
    }
    bias_filler {
      type: "constant"
      value: 0.2
    }
  }
}
layer {
  name: "inception_4d/relu_3x3"
  type: "ReLU"
  bottom: "inception_4d/3x3"
  top: "inception_4d/3x3"
}
layer {
  name: "inception_4d/5x5_reduce"
  type: "Convolution"
  bottom: "inception_4c/output"
  top: "inception_4d/5x5_reduce"
  param {
    lr_mult: 1
    decay_mult: 1
  }
  param {
    lr_mult: 2
    decay_mult: 0
  }
  convolution_param {
    num_output: 32
    kernel_size: 1
    weight_filler {
      type: "xavier"
      std: 0.2
    }
    bias_filler {
      type: "constant"
      value: 0.2
    }
  }
}
layer {
  name: "inception_4d/relu_5x5_reduce"
  type: "ReLU"
  bottom: "inception_4d/5x5_reduce"
  top: "inception_4d/5x5_reduce"
}
layer {
  name: "inception_4d/5x5"
  type: "Convolution"
  bottom: "inception_4d/5x5_reduce"
  top: "inception_4d/5x5"
  param {
    lr_mult: 1
    decay_mult: 1
  }
  param {
    lr_mult: 2
    decay_mult: 0
  }
  convolution_param {
    num_output: 64
    pad: 2
    kernel_size: 5
    weight_filler {
      type: "xavier"
      std: 0.03
    }
    bias_filler {
      type: "constant"
      value: 0.2
    }
  }
}
layer {
  name: "inception_4d/relu_5x5"
  type: "ReLU"
  bottom: "inception_4d/5x5"
  top: "inception_4d/5x5"
}
layer {
  name: "inception_4d/pool"
  type: "Pooling"
  bottom: "inception_4c/output"
  top: "inception_4d/pool"
  pooling_param {
    pool: MAX
    kernel_size: 3
    stride: 1
    pad: 1
  }
}
layer {
  name: "inception_4d/pool_proj"
  type: "Convolution"
  bottom: "inception_4d/pool"
  top: "inception_4d/pool_proj"
  param {
    lr_mult: 1
    decay_mult: 1
  }
  param {
    lr_mult: 2
    decay_mult: 0
  }
  convolution_param {
    num_output: 64
    kernel_size: 1
    weight_filler {
      type: "xavier"
      std: 0.1
    }
    bias_filler {
      type: "constant"
      value: 0.2
    }
  }
}
layer {
  name: "inception_4d/relu_pool_proj"
  type: "ReLU"
  bottom: "inception_4d/pool_proj"
  top: "inception_4d/pool_proj"
}
layer {
  name: "inception_4d/output"
  type: "Concat"
  bottom: "inception_4d/1x1"
  bottom: "inception_4d/3x3"
  bottom: "inception_4d/5x5"
  bottom: "inception_4d/pool_proj"
  top: "inception_4d/output"
}
layer {
  name: "loss2/ave_pool"
  type: "Pooling"
  bottom: "inception_4d/output"
  top: "loss2/ave_pool"
  pooling_param {
    pool: AVE
    kernel_size: 5
    stride: 3
  }
}
layer {
  name: "loss2/conv"
  type: "Convolution"
  bottom: "loss2/ave_pool"
  top: "loss2/conv"
  param {
    lr_mult: 1
    decay_mult: 1
  }
  param {
    lr_mult: 2
    decay_mult: 0
  }
  convolution_param {
    num_output: 128
    kernel_size: 1
    weight_filler {
      type: "xavier"
      std: 0.08
    }
    bias_filler {
      type: "constant"
      value: 0.2
    }
  }
}
layer {
  name: "loss2/relu_conv"
  type: "ReLU"
  bottom: "loss2/conv"
  top: "loss2/conv"
}
layer {
  name: "loss2/fc"
  type: "InnerProduct"
  bottom: "loss2/conv"
  top: "loss2/fc"
  param {
    lr_mult: 1
    decay_mult: 1
  }
  param {
    lr_mult: 2
    decay_mult: 0
  }
  inner_product_param {
    num_output: 1024
    weight_filler {
      type: "xavier"
      std: 0.02
    }
    bias_filler {
      type: "constant"
      value: 0.2
    }
  }
}
layer {
  name: "loss2/relu_fc"
  type: "ReLU"
  bottom: "loss2/fc"
  top: "loss2/fc"
}
layer {
  name: "loss2/drop_fc"
  type: "Dropout"
  bottom: "loss2/fc"
  top: "loss2/fc"
  dropout_param {
    dropout_ratio: 0.7
  }
}
layer {
  name: "loss2/classifier_plantvillage"
  type: "InnerProduct"
  bottom: "loss2/fc"
  top: "loss2/classifier_plantvillage"
  param {
    lr_mult: 1
    decay_mult: 1
  }
  param {
    lr_mult: 2
    decay_mult: 0
  }
  inner_product_param {
    num_output: 38
    weight_filler {
      type: "xavier"
      std: 0.0009765625
    }
    bias_filler {
      type: "constant"
      value: 0
    }
  }
}
layer {
  name: "inception_4e/1x1"
  type: "Convolution"
  bottom: "inception_4d/output"
  top: "inception_4e/1x1"
  param {
    lr_mult: 1
    decay_mult: 1
  }
  param {
    lr_mult: 2
    decay_mult: 0
  }
  convolution_param {
    num_output: 256
    kernel_size: 1
    weight_filler {
      type: "xavier"
      std: 0.03
    }
    bias_filler {
      type: "constant"
      value: 0.2
    }
  }
}
layer {
  name: "inception_4e/relu_1x1"
  type: "ReLU"
  bottom: "inception_4e/1x1"
  top: "inception_4e/1x1"
}
layer {
  name: "inception_4e/3x3_reduce"
  type: "Convolution"
  bottom: "inception_4d/output"
  top: "inception_4e/3x3_reduce"
  param {
    lr_mult: 1
    decay_mult: 1
  }
  param {
    lr_mult: 2
    decay_mult: 0
  }
  convolution_param {
    num_output: 160
    kernel_size: 1
    weight_filler {
      type: "xavier"
      std: 0.09
    }
    bias_filler {
      type: "constant"
      value: 0.2
    }
  }
}
layer {
  name: "inception_4e/relu_3x3_reduce"
  type: "ReLU"
  bottom: "inception_4e/3x3_reduce"
  top: "inception_4e/3x3_reduce"
}
layer {
  name: "inception_4e/3x3"
  type: "Convolution"
  bottom: "inception_4e/3x3_reduce"
  top: "inception_4e/3x3"
  param {
    lr_mult: 1
    decay_mult: 1
  }
  param {
    lr_mult: 2
    decay_mult: 0
  }
  convolution_param {
    num_output: 320
    pad: 1
    kernel_size: 3
    weight_filler {
      type: "xavier"
      std: 0.03
    }
    bias_filler {
      type: "constant"
      value: 0.2
    }
  }
}
layer {
  name: "inception_4e/relu_3x3"
  type: "ReLU"
  bottom: "inception_4e/3x3"
  top: "inception_4e/3x3"
}
layer {
  name: "inception_4e/5x5_reduce"
  type: "Convolution"
  bottom: "inception_4d/output"
  top: "inception_4e/5x5_reduce"
  param {
    lr_mult: 1
    decay_mult: 1
  }
  param {
    lr_mult: 2
    decay_mult: 0
  }
  convolution_param {
    num_output: 32
    kernel_size: 1
    weight_filler {
      type: "xavier"
      std: 0.2
    }
    bias_filler {
      type: "constant"
      value: 0.2
    }
  }
}
layer {
  name: "inception_4e/relu_5x5_reduce"
  type: "ReLU"
  bottom: "inception_4e/5x5_reduce"
  top: "inception_4e/5x5_reduce"
}
layer {
  name: "inception_4e/5x5"
  type: "Convolution"
  bottom: "inception_4e/5x5_reduce"
  top: "inception_4e/
I0403 15:17:03.338965  2908 layer_factory.hpp:77] Creating layer data
I0403 15:17:03.339568  2908 net.cpp:91] Creating Layer data
I0403 15:17:03.339601  2908 net.cpp:399] data -> data
I0403 15:17:03.339653  2908 net.cpp:399] data -> label
I0403 15:17:03.339690  2908 data_transformer.cpp:25] Loading mean file from: /home/mohanty/data/final_dataset/lmdb/segmented-60-40/mean.binaryproto
I0403 15:17:03.343152  2911 db_lmdb.cpp:38] Opened lmdb /home/mohanty/data/final_dataset/lmdb/segmented-60-40/test_db
I0403 15:17:03.352916  2908 data_layer.cpp:41] output data size: 24,3,224,224
I0403 15:17:03.380086  2908 net.cpp:141] Setting up data
I0403 15:17:03.380177  2908 net.cpp:148] Top shape: 24 3 224 224 (3612672)
I0403 15:17:03.380200  2908 net.cpp:148] Top shape: 24 (24)
I0403 15:17:03.380220  2908 net.cpp:156] Memory required for data: 14450784
I0403 15:17:03.380249  2908 layer_factory.hpp:77] Creating layer label_data_1_split
I0403 15:17:03.380275  2908 net.cpp:91] Creating Layer label_data_1_split
I0403 15:17:03.380295  2908 net.cpp:425] label_data_1_split <- label
I0403 15:17:03.380328  2908 net.cpp:399] label_data_1_split -> label_data_1_split_0
I0403 15:17:03.380357  2908 net.cpp:399] label_data_1_split -> label_data_1_split_1
I0403 15:17:03.380378  2908 net.cpp:399] label_data_1_split -> label_data_1_split_2
I0403 15:17:03.380399  2908 net.cpp:399] label_data_1_split -> label_data_1_split_3
I0403 15:17:03.380420  2908 net.cpp:399] label_data_1_split -> label_data_1_split_4
I0403 15:17:03.380442  2908 net.cpp:399] label_data_1_split -> label_data_1_split_5
I0403 15:17:03.380463  2908 net.cpp:399] label_data_1_split -> label_data_1_split_6
I0403 15:17:03.380486  2908 net.cpp:399] label_data_1_split -> label_data_1_split_7
I0403 15:17:03.380507  2908 net.cpp:399] label_data_1_split -> label_data_1_split_8
I0403 15:17:03.380528  2908 net.cpp:399] label_data_1_split -> label_data_1_split_9
I0403 15:17:03.380645  2908 net.cpp:141] Setting up label_data_1_split
I0403 15:17:03.380667  2908 net.cpp:148] Top shape: 24 (24)
I0403 15:17:03.380684  2908 net.cpp:148] Top shape: 24 (24)
I0403 15:17:03.380700  2908 net.cpp:148] Top shape: 24 (24)
I0403 15:17:03.380715  2908 net.cpp:148] Top shape: 24 (24)
I0403 15:17:03.380731  2908 net.cpp:148] Top shape: 24 (24)
I0403 15:17:03.380746  2908 net.cpp:148] Top shape: 24 (24)
I0403 15:17:03.380761  2908 net.cpp:148] Top shape: 24 (24)
I0403 15:17:03.380777  2908 net.cpp:148] Top shape: 24 (24)
I0403 15:17:03.380794  2908 net.cpp:148] Top shape: 24 (24)
I0403 15:17:03.380810  2908 net.cpp:148] Top shape: 24 (24)
I0403 15:17:03.380853  2908 net.cpp:156] Memory required for data: 14451744
I0403 15:17:03.380868  2908 layer_factory.hpp:77] Creating layer conv1/7x7_s2
I0403 15:17:03.380899  2908 net.cpp:91] Creating Layer conv1/7x7_s2
I0403 15:17:03.380918  2908 net.cpp:425] conv1/7x7_s2 <- data
I0403 15:17:03.380936  2908 net.cpp:399] conv1/7x7_s2 -> conv1/7x7_s2
I0403 15:17:03.525374  2908 net.cpp:141] Setting up conv1/7x7_s2
I0403 15:17:03.525465  2908 net.cpp:148] Top shape: 24 64 112 112 (19267584)
I0403 15:17:03.525485  2908 net.cpp:156] Memory required for data: 91522080
I0403 15:17:03.525517  2908 layer_factory.hpp:77] Creating layer conv1/relu_7x7
I0403 15:17:03.525544  2908 net.cpp:91] Creating Layer conv1/relu_7x7
I0403 15:17:03.525564  2908 net.cpp:425] conv1/relu_7x7 <- conv1/7x7_s2
I0403 15:17:03.525584  2908 net.cpp:386] conv1/relu_7x7 -> conv1/7x7_s2 (in-place)
I0403 15:17:03.525846  2908 net.cpp:141] Setting up conv1/relu_7x7
I0403 15:17:03.525873  2908 net.cpp:148] Top shape: 24 64 112 112 (19267584)
I0403 15:17:03.525889  2908 net.cpp:156] Memory required for data: 168592416
I0403 15:17:03.525904  2908 layer_factory.hpp:77] Creating layer pool1/3x3_s2
I0403 15:17:03.525930  2908 net.cpp:91] Creating Layer pool1/3x3_s2
I0403 15:17:03.525949  2908 net.cpp:425] pool1/3x3_s2 <- conv1/7x7_s2
I0403 15:17:03.525969  2908 net.cpp:399] pool1/3x3_s2 -> pool1/3x3_s2
I0403 15:17:03.526043  2908 net.cpp:141] Setting up pool1/3x3_s2
I0403 15:17:03.526067  2908 net.cpp:148] Top shape: 24 64 56 56 (4816896)
I0403 15:17:03.526082  2908 net.cpp:156] Memory required for data: 187860000
I0403 15:17:03.526100  2908 layer_factory.hpp:77] Creating layer pool1/norm1
I0403 15:17:03.526124  2908 net.cpp:91] Creating Layer pool1/norm1
I0403 15:17:03.526142  2908 net.cpp:425] pool1/norm1 <- pool1/3x3_s2
I0403 15:17:03.526160  2908 net.cpp:399] pool1/norm1 -> pool1/norm1
I0403 15:17:03.526453  2908 net.cpp:141] Setting up pool1/norm1
I0403 15:17:03.526480  2908 net.cpp:148] Top shape: 24 64 56 56 (4816896)
I0403 15:17:03.526496  2908 net.cpp:156] Memory required for data: 207127584
I0403 15:17:03.526511  2908 layer_factory.hpp:77] Creating layer conv2/3x3_reduce
I0403 15:17:03.526536  2908 net.cpp:91] Creating Layer conv2/3x3_reduce
I0403 15:17:03.526553  2908 net.cpp:425] conv2/3x3_reduce <- pool1/norm1
I0403 15:17:03.526572  2908 net.cpp:399] conv2/3x3_reduce -> conv2/3x3_reduce
I0403 15:17:03.527904  2908 net.cpp:141] Setting up conv2/3x3_reduce
I0403 15:17:03.527933  2908 net.cpp:148] Top shape: 24 64 56 56 (4816896)
I0403 15:17:03.527951  2908 net.cpp:156] Memory required for data: 226395168
I0403 15:17:03.527972  2908 layer_factory.hpp:77] Creating layer conv2/relu_3x3_reduce
I0403 15:17:03.527992  2908 net.cpp:91] Creating Layer conv2/relu_3x3_reduce
I0403 15:17:03.528007  2908 net.cpp:425] conv2/relu_3x3_reduce <- conv2/3x3_reduce
I0403 15:17:03.528024  2908 net.cpp:386] conv2/relu_3x3_reduce -> conv2/3x3_reduce (in-place)
I0403 15:17:03.528281  2908 net.cpp:141] Setting up conv2/relu_3x3_reduce
I0403 15:17:03.528308  2908 net.cpp:148] Top shape: 24 64 56 56 (4816896)
I0403 15:17:03.528324  2908 net.cpp:156] Memory required for data: 245662752
I0403 15:17:03.528340  2908 layer_factory.hpp:77] Creating layer conv2/3x3
I0403 15:17:03.528362  2908 net.cpp:91] Creating Layer conv2/3x3
I0403 15:17:03.528379  2908 net.cpp:425] conv2/3x3 <- conv2/3x3_reduce
I0403 15:17:03.528398  2908 net.cpp:399] conv2/3x3 -> conv2/3x3
I0403 15:17:03.530732  2908 net.cpp:141] Setting up conv2/3x3
I0403 15:17:03.530764  2908 net.cpp:148] Top shape: 24 192 56 56 (14450688)
I0403 15:17:03.530782  2908 net.cpp:156] Memory required for data: 303465504
I0403 15:17:03.530803  2908 layer_factory.hpp:77] Creating layer conv2/relu_3x3
I0403 15:17:03.530827  2908 net.cpp:91] Creating Layer conv2/relu_3x3
I0403 15:17:03.530846  2908 net.cpp:425] conv2/relu_3x3 <- conv2/3x3
I0403 15:17:03.530865  2908 net.cpp:386] conv2/relu_3x3 -> conv2/3x3 (in-place)
I0403 15:17:03.531044  2908 net.cpp:141] Setting up conv2/relu_3x3
I0403 15:17:03.531071  2908 net.cpp:148] Top shape: 24 192 56 56 (14450688)
I0403 15:17:03.531117  2908 net.cpp:156] Memory required for data: 361268256
I0403 15:17:03.531134  2908 layer_factory.hpp:77] Creating layer conv2/norm2
I0403 15:17:03.531152  2908 net.cpp:91] Creating Layer conv2/norm2
I0403 15:17:03.531169  2908 net.cpp:425] conv2/norm2 <- conv2/3x3
I0403 15:17:03.531190  2908 net.cpp:399] conv2/norm2 -> conv2/norm2
I0403 15:17:03.531512  2908 net.cpp:141] Setting up conv2/norm2
I0403 15:17:03.531539  2908 net.cpp:148] Top shape: 24 192 56 56 (14450688)
I0403 15:17:03.531554  2908 net.cpp:156] Memory required for data: 419071008
I0403 15:17:03.531569  2908 layer_factory.hpp:77] Creating layer pool2/3x3_s2
I0403 15:17:03.531587  2908 net.cpp:91] Creating Layer pool2/3x3_s2
I0403 15:17:03.531604  2908 net.cpp:425] pool2/3x3_s2 <- conv2/norm2
I0403 15:17:03.531625  2908 net.cpp:399] pool2/3x3_s2 -> pool2/3x3_s2
I0403 15:17:03.531678  2908 net.cpp:141] Setting up pool2/3x3_s2
I0403 15:17:03.531702  2908 net.cpp:148] Top shape: 24 192 28 28 (3612672)
I0403 15:17:03.531718  2908 net.cpp:156] Memory required for data: 433521696
I0403 15:17:03.531733  2908 layer_factory.hpp:77] Creating layer pool2/3x3_s2_pool2/3x3_s2_0_split
I0403 15:17:03.531755  2908 net.cpp:91] Creating Layer pool2/3x3_s2_pool2/3x3_s2_0_split
I0403 15:17:03.531774  2908 net.cpp:425] pool2/3x3_s2_pool2/3x3_s2_0_split <- pool2/3x3_s2
I0403 15:17:03.531792  2908 net.cpp:399] pool2/3x3_s2_pool2/3x3_s2_0_split -> pool2/3x3_s2_pool2/3x3_s2_0_split_0
I0403 15:17:03.531816  2908 net.cpp:399] pool2/3x3_s2_pool2/3x3_s2_0_split -> pool2/3x3_s2_pool2/3x3_s2_0_split_1
I0403 15:17:03.531836  2908 net.cpp:399] pool2/3x3_s2_pool2/3x3_s2_0_split -> pool2/3x3_s2_pool2/3x3_s2_0_split_2
I0403 15:17:03.531855  2908 net.cpp:399] pool2/3x3_s2_pool2/3x3_s2_0_split -> pool2/3x3_s2_pool2/3x3_s2_0_split_3
I0403 15:17:03.531925  2908 net.cpp:141] Setting up pool2/3x3_s2_pool2/3x3_s2_0_split
I0403 15:17:03.531949  2908 net.cpp:148] Top shape: 24 192 28 28 (3612672)
I0403 15:17:03.531965  2908 net.cpp:148] Top shape: 24 192 28 28 (3612672)
I0403 15:17:03.531981  2908 net.cpp:148] Top shape: 24 192 28 28 (3612672)
I0403 15:17:03.531997  2908 net.cpp:148] Top shape: 24 192 28 28 (3612672)
I0403 15:17:03.532012  2908 net.cpp:156] Memory required for data: 491324448
I0403 15:17:03.532027  2908 layer_factory.hpp:77] Creating layer inception_3a/1x1
I0403 15:17:03.532050  2908 net.cpp:91] Creating Layer inception_3a/1x1
I0403 15:17:03.532068  2908 net.cpp:425] inception_3a/1x1 <- pool2/3x3_s2_pool2/3x3_s2_0_split_0
I0403 15:17:03.532090  2908 net.cpp:399] inception_3a/1x1 -> inception_3a/1x1
I0403 15:17:03.533658  2908 net.cpp:141] Setting up inception_3a/1x1
I0403 15:17:03.533689  2908 net.cpp:148] Top shape: 24 64 28 28 (1204224)
I0403 15:17:03.533704  2908 net.cpp:156] Memory required for data: 496141344
I0403 15:17:03.533725  2908 layer_factory.hpp:77] Creating layer inception_3a/relu_1x1
I0403 15:17:03.533746  2908 net.cpp:91] Creating Layer inception_3a/relu_1x1
I0403 15:17:03.533762  2908 net.cpp:425] inception_3a/relu_1x1 <- inception_3a/1x1
I0403 15:17:03.533781  2908 net.cpp:386] inception_3a/relu_1x1 -> inception_3a/1x1 (in-place)
I0403 15:17:03.533958  2908 net.cpp:141] Setting up inception_3a/relu_1x1
I0403 15:17:03.533984  2908 net.cpp:148] Top shape: 24 64 28 28 (1204224)
I0403 15:17:03.533999  2908 net.cpp:156] Memory required for data: 500958240
I0403 15:17:03.534014  2908 layer_factory.hpp:77] Creating layer inception_3a/3x3_reduce
I0403 15:17:03.534039  2908 net.cpp:91] Creating Layer inception_3a/3x3_reduce
I0403 15:17:03.534056  2908 net.cpp:425] inception_3a/3x3_reduce <- pool2/3x3_s2_pool2/3x3_s2_0_split_1
I0403 15:17:03.534076  2908 net.cpp:399] inception_3a/3x3_reduce -> inception_3a/3x3_reduce
I0403 15:17:03.535790  2908 net.cpp:141] Setting up inception_3a/3x3_reduce
I0403 15:17:03.535821  2908 net.cpp:148] Top shape: 24 96 28 28 (1806336)
I0403 15:17:03.535840  2908 net.cpp:156] Memory required for data: 508183584
I0403 15:17:03.535862  2908 layer_factory.hpp:77] Creating layer inception_3a/relu_3x3_reduce
I0403 15:17:03.535902  2908 net.cpp:91] Creating Layer inception_3a/relu_3x3_reduce
I0403 15:17:03.535922  2908 net.cpp:425] inception_3a/relu_3x3_reduce <- inception_3a/3x3_reduce
I0403 15:17:03.535940  2908 net.cpp:386] inception_3a/relu_3x3_reduce -> inception_3a/3x3_reduce (in-place)
I0403 15:17:03.536126  2908 net.cpp:141] Setting up inception_3a/relu_3x3_reduce
I0403 15:17:03.536154  2908 net.cpp:148] Top shape: 24 96 28 28 (1806336)
I0403 15:17:03.536170  2908 net.cpp:156] Memory required for data: 515408928
I0403 15:17:03.536185  2908 layer_factory.hpp:77] Creating layer inception_3a/3x3
I0403 15:17:03.536213  2908 net.cpp:91] Creating Layer inception_3a/3x3
I0403 15:17:03.536233  2908 net.cpp:425] inception_3a/3x3 <- inception_3a/3x3_reduce
I0403 15:17:03.536257  2908 net.cpp:399] inception_3a/3x3 -> inception_3a/3x3
I0403 15:17:03.537935  2908 net.cpp:141] Setting up inception_3a/3x3
I0403 15:17:03.537963  2908 net.cpp:148] Top shape: 24 128 28 28 (2408448)
I0403 15:17:03.537981  2908 net.cpp:156] Memory required for data: 525042720
I0403 15:17:03.537999  2908 layer_factory.hpp:77] Creating layer inception_3a/relu_3x3
I0403 15:17:03.538019  2908 net.cpp:91] Creating Layer inception_3a/relu_3x3
I0403 15:17:03.538036  2908 net.cpp:425] inception_3a/relu_3x3 <- inception_3a/3x3
I0403 15:17:03.538054  2908 net.cpp:386] inception_3a/relu_3x3 -> inception_3a/3x3 (in-place)
I0403 15:17:03.538327  2908 net.cpp:141] Setting up inception_3a/relu_3x3
I0403 15:17:03.538354  2908 net.cpp:148] Top shape: 24 128 28 28 (2408448)
I0403 15:17:03.538369  2908 net.cpp:156] Memory required for data: 534676512
I0403 15:17:03.538384  2908 layer_factory.hpp:77] Creating layer inception_3a/5x5_reduce
I0403 15:17:03.538406  2908 net.cpp:91] Creating Layer inception_3a/5x5_reduce
I0403 15:17:03.538424  2908 net.cpp:425] inception_3a/5x5_reduce <- pool2/3x3_s2_pool2/3x3_s2_0_split_2
I0403 15:17:03.538446  2908 net.cpp:399] inception_3a/5x5_reduce -> inception_3a/5x5_reduce
I0403 15:17:03.539393  2908 net.cpp:141] Setting up inception_3a/5x5_reduce
I0403 15:17:03.539422  2908 net.cpp:148] Top shape: 24 16 28 28 (301056)
I0403 15:17:03.539439  2908 net.cpp:156] Memory required for data: 535880736
I0403 15:17:03.539458  2908 layer_factory.hpp:77] Creating layer inception_3a/relu_5x5_reduce
I0403 15:17:03.539479  2908 net.cpp:91] Creating Layer inception_3a/relu_5x5_reduce
I0403 15:17:03.539495  2908 net.cpp:425] inception_3a/relu_5x5_reduce <- inception_3a/5x5_reduce
I0403 15:17:03.539512  2908 net.cpp:386] inception_3a/relu_5x5_reduce -> inception_3a/5x5_reduce (in-place)
I0403 15:17:03.539801  2908 net.cpp:141] Setting up inception_3a/relu_5x5_reduce
I0403 15:17:03.539830  2908 net.cpp:148] Top shape: 24 16 28 28 (301056)
I0403 15:17:03.539846  2908 net.cpp:156] Memory required for data: 537084960
I0403 15:17:03.539860  2908 layer_factory.hpp:77] Creating layer inception_3a/5x5
I0403 15:17:03.539882  2908 net.cpp:91] Creating Layer inception_3a/5x5
I0403 15:17:03.539901  2908 net.cpp:425] inception_3a/5x5 <- inception_3a/5x5_reduce
I0403 15:17:03.539919  2908 net.cpp:399] inception_3a/5x5 -> inception_3a/5x5
I0403 15:17:03.540921  2908 net.cpp:141] Setting up inception_3a/5x5
I0403 15:17:03.540949  2908 net.cpp:148] Top shape: 24 32 28 28 (602112)
I0403 15:17:03.540966  2908 net.cpp:156] Memory required for data: 539493408
I0403 15:17:03.540984  2908 layer_factory.hpp:77] Creating layer inception_3a/relu_5x5
I0403 15:17:03.541005  2908 net.cpp:91] Creating Layer inception_3a/relu_5x5
I0403 15:17:03.541023  2908 net.cpp:425] inception_3a/relu_5x5 <- inception_3a/5x5
I0403 15:17:03.541040  2908 net.cpp:386] inception_3a/relu_5x5 -> inception_3a/5x5 (in-place)
I0403 15:17:03.541215  2908 net.cpp:141] Setting up inception_3a/relu_5x5
I0403 15:17:03.541240  2908 net.cpp:148] Top shape: 24 32 28 28 (602112)
I0403 15:17:03.541255  2908 net.cpp:156] Memory required for data: 541901856
I0403 15:17:03.541270  2908 layer_factory.hpp:77] Creating layer inception_3a/pool
I0403 15:17:03.541290  2908 net.cpp:91] Creating Layer inception_3a/pool
I0403 15:17:03.541319  2908 net.cpp:425] inception_3a/pool <- pool2/3x3_s2_pool2/3x3_s2_0_split_3
I0403 15:17:03.541338  2908 net.cpp:399] inception_3a/pool -> inception_3a/pool
I0403 15:17:03.541398  2908 net.cpp:141] Setting up inception_3a/pool
I0403 15:17:03.541421  2908 net.cpp:148] Top shape: 24 192 28 28 (3612672)
I0403 15:17:03.541437  2908 net.cpp:156] Memory required for data: 556352544
I0403 15:17:03.541451  2908 layer_factory.hpp:77] Creating layer inception_3a/pool_proj
I0403 15:17:03.541473  2908 net.cpp:91] Creating Layer inception_3a/pool_proj
I0403 15:17:03.541491  2908 net.cpp:425] inception_3a/pool_proj <- inception_3a/pool
I0403 15:17:03.541512  2908 net.cpp:399] inception_3a/pool_proj -> inception_3a/pool_proj
I0403 15:17:03.542462  2908 net.cpp:141] Setting up inception_3a/pool_proj
I0403 15:17:03.542491  2908 net.cpp:148] Top shape: 24 32 28 28 (602112)
I0403 15:17:03.542508  2908 net.cpp:156] Memory required for data: 558760992
I0403 15:17:03.542531  2908 layer_factory.hpp:77] Creating layer inception_3a/relu_pool_proj
I0403 15:17:03.542552  2908 net.cpp:91] Creating Layer inception_3a/relu_pool_proj
I0403 15:17:03.542568  2908 net.cpp:425] inception_3a/relu_pool_proj <- inception_3a/pool_proj
I0403 15:17:03.542585  2908 net.cpp:386] inception_3a/relu_pool_proj -> inception_3a/pool_proj (in-place)
I0403 15:17:03.542917  2908 net.cpp:141] Setting up inception_3a/relu_pool_proj
I0403 15:17:03.542944  2908 net.cpp:148] Top shape: 24 32 28 28 (602112)
I0403 15:17:03.542959  2908 net.cpp:156] Memory required for data: 561169440
I0403 15:17:03.542974  2908 layer_factory.hpp:77] Creating layer inception_3a/output
I0403 15:17:03.542994  2908 net.cpp:91] Creating Layer inception_3a/output
I0403 15:17:03.543010  2908 net.cpp:425] inception_3a/output <- inception_3a/1x1
I0403 15:17:03.543027  2908 net.cpp:425] inception_3a/output <- inception_3a/3x3
I0403 15:17:03.543043  2908 net.cpp:425] inception_3a/output <- inception_3a/5x5
I0403 15:17:03.543059  2908 net.cpp:425] inception_3a/output <- inception_3a/pool_proj
I0403 15:17:03.543076  2908 net.cpp:399] inception_3a/output -> inception_3a/output
I0403 15:17:03.543123  2908 net.cpp:141] Setting up inception_3a/output
I0403 15:17:03.543145  2908 net.cpp:148] Top shape: 24 256 28 28 (4816896)
I0403 15:17:03.543160  2908 net.cpp:156] Memory required for data: 580437024
I0403 15:17:03.543174  2908 layer_factory.hpp:77] Creating layer inception_3a/output_inception_3a/output_0_split
I0403 15:17:03.543191  2908 net.cpp:91] Creating Layer inception_3a/output_inception_3a/output_0_split
I0403 15:17:03.543206  2908 net.cpp:425] inception_3a/output_inception_3a/output_0_split <- inception_3a/output
I0403 15:17:03.543241  2908 net.cpp:399] inception_3a/output_inception_3a/output_0_split -> inception_3a/output_inception_3a/output_0_split_0
I0403 15:17:03.543262  2908 net.cpp:399] inception_3a/output_inception_3a/output_0_split -> inception_3a/output_inception_3a/output_0_split_1
I0403 15:17:03.543284  2908 net.cpp:399] inception_3a/output_inception_3a/output_0_split -> inception_3a/output_inception_3a/output_0_split_2
I0403 15:17:03.543305  2908 net.cpp:399] inception_3a/output_inception_3a/output_0_split -> inception_3a/output_inception_3a/output_0_split_3
I0403 15:17:03.543383  2908 net.cpp:141] Setting up inception_3a/output_inception_3a/output_0_split
I0403 15:17:03.543406  2908 net.cpp:148] Top shape: 24 256 28 28 (4816896)
I0403 15:17:03.543423  2908 net.cpp:148] Top shape: 24 256 28 28 (4816896)
I0403 15:17:03.543440  2908 net.cpp:148] Top shape: 24 256 28 28 (4816896)
I0403 15:17:03.543457  2908 net.cpp:148] Top shape: 24 256 28 28 (4816896)
I0403 15:17:03.543469  2908 net.cpp:156] Memory required for data: 657507360
I0403 15:17:03.543484  2908 layer_factory.hpp:77] Creating layer inception_3b/1x1
I0403 15:17:03.543506  2908 net.cpp:91] Creating Layer inception_3b/1x1
I0403 15:17:03.543524  2908 net.cpp:425] inception_3b/1x1 <- inception_3a/output_inception_3a/output_0_split_0
I0403 15:17:03.543557  2908 net.cpp:399] inception_3b/1x1 -> inception_3b/1x1
I0403 15:17:03.544729  2908 net.cpp:141] Setting up inception_3b/1x1
I0403 15:17:03.544770  2908 net.cpp:148] Top shape: 24 128 28 28 (2408448)
I0403 15:17:03.544788  2908 net.cpp:156] Memory required for data: 667141152
I0403 15:17:03.544808  2908 layer_factory.hpp:77] Creating layer inception_3b/relu_1x1
I0403 15:17:03.544828  2908 net.cpp:91] Creating Layer inception_3b/relu_1x1
I0403 15:17:03.544847  2908 net.cpp:425] inception_3b/relu_1x1 <- inception_3b/1x1
I0403 15:17:03.544867  2908 net.cpp:386] inception_3b/relu_1x1 -> inception_3b/1x1 (in-place)
I0403 15:17:03.545048  2908 net.cpp:141] Setting up inception_3b/relu_1x1
I0403 15:17:03.545075  2908 net.cpp:148] Top shape: 24 128 28 28 (2408448)
I0403 15:17:03.545091  2908 net.cpp:156] Memory required for data: 676774944
I0403 15:17:03.545109  2908 layer_factory.hpp:77] Creating layer inception_3b/3x3_reduce
I0403 15:17:03.545131  2908 net.cpp:91] Creating Layer inception_3b/3x3_reduce
I0403 15:17:03.545150  2908 net.cpp:425] inception_3b/3x3_reduce <- inception_3a/output_inception_3a/output_0_split_1
I0403 15:17:03.545171  2908 net.cpp:399] inception_3b/3x3_reduce -> inception_3b/3x3_reduce
I0403 15:17:03.546326  2908 net.cpp:141] Setting up inception_3b/3x3_reduce
I0403 15:17:03.546356  2908 net.cpp:148] Top shape: 24 128 28 28 (2408448)
I0403 15:17:03.546373  2908 net.cpp:156] Memory required for data: 686408736
I0403 15:17:03.546392  2908 layer_factory.hpp:77] Creating layer inception_3b/relu_3x3_reduce
I0403 15:17:03.546411  2908 net.cpp:91] Creating Layer inception_3b/relu_3x3_reduce
I0403 15:17:03.546430  2908 net.cpp:425] inception_3b/relu_3x3_reduce <- inception_3b/3x3_reduce
I0403 15:17:03.546447  2908 net.cpp:386] inception_3b/relu_3x3_reduce -> inception_3b/3x3_reduce (in-place)
I0403 15:17:03.546617  2908 net.cpp:141] Setting up inception_3b/relu_3x3_reduce
I0403 15:17:03.546641  2908 net.cpp:148] Top shape: 24 128 28 28 (2408448)
I0403 15:17:03.546656  2908 net.cpp:156] Memory required for data: 696042528
I0403 15:17:03.546670  2908 layer_factory.hpp:77] Creating layer inception_3b/3x3
I0403 15:17:03.546696  2908 net.cpp:91] Creating Layer inception_3b/3x3
I0403 15:17:03.546715  2908 net.cpp:425] inception_3b/3x3 <- inception_3b/3x3_reduce
I0403 15:17:03.546733  2908 net.cpp:399] inception_3b/3x3 -> inception_3b/3x3
I0403 15:17:03.549691  2908 net.cpp:141] Setting up inception_3b/3x3
I0403 15:17:03.549721  2908 net.cpp:148] Top shape: 24 192 28 28 (3612672)
I0403 15:17:03.549739  2908 net.cpp:156] Memory required for data: 710493216
I0403 15:17:03.549758  2908 layer_factory.hpp:77] Creating layer inception_3b/relu_3x3
I0403 15:17:03.549778  2908 net.cpp:91] Creating Layer inception_3b/relu_3x3
I0403 15:17:03.549796  2908 net.cpp:425] inception_3b/relu_3x3 <- inception_3b/3x3
I0403 15:17:03.549813  2908 net.cpp:386] inception_3b/relu_3x3 -> inception_3b/3x3 (in-place)
I0403 15:17:03.550091  2908 net.cpp:141] Setting up inception_3b/relu_3x3
I0403 15:17:03.550118  2908 net.cpp:148] Top shape: 24 192 28 28 (3612672)
I0403 15:17:03.550133  2908 net.cpp:156] Memory required for data: 724943904
I0403 15:17:03.550148  2908 layer_factory.hpp:77] Creating layer inception_3b/5x5_reduce
I0403 15:17:03.550182  2908 net.cpp:91] Creating Layer inception_3b/5x5_reduce
I0403 15:17:03.550201  2908 net.cpp:425] inception_3b/5x5_reduce <- inception_3a/output_inception_3a/output_0_split_2
I0403 15:17:03.550230  2908 net.cpp:399] inception_3b/5x5_reduce -> inception_3b/5x5_reduce
I0403 15:17:03.551237  2908 net.cpp:141] Setting up inception_3b/5x5_reduce
I0403 15:17:03.551265  2908 net.cpp:148] Top shape: 24 32 28 28 (602112)
I0403 15:17:03.551282  2908 net.cpp:156] Memory required for data: 727352352
I0403 15:17:03.551301  2908 layer_factory.hpp:77] Creating layer inception_3b/relu_5x5_reduce
I0403 15:17:03.551322  2908 net.cpp:91] Creating Layer inception_3b/relu_5x5_reduce
I0403 15:17:03.551342  2908 net.cpp:425] inception_3b/relu_5x5_reduce <- inception_3b/5x5_reduce
I0403 15:17:03.551359  2908 net.cpp:386] inception_3b/relu_5x5_reduce -> inception_3b/5x5_reduce (in-place)
I0403 15:17:03.551559  2908 net.cpp:141] Setting up inception_3b/relu_5x5_reduce
I0403 15:17:03.551584  2908 net.cpp:148] Top shape: 24 32 28 28 (602112)
I0403 15:17:03.551599  2908 net.cpp:156] Memory required for data: 729760800
I0403 15:17:03.551614  2908 layer_factory.hpp:77] Creating layer inception_3b/5x5
I0403 15:17:03.551637  2908 net.cpp:91] Creating Layer inception_3b/5x5
I0403 15:17:03.551656  2908 net.cpp:425] inception_3b/5x5 <- inception_3b/5x5_reduce
I0403 15:17:03.551674  2908 net.cpp:399] inception_3b/5x5 -> inception_3b/5x5
I0403 15:17:03.553637  2908 net.cpp:141] Setting up inception_3b/5x5
I0403 15:17:03.553665  2908 net.cpp:148] Top shape: 24 96 28 28 (1806336)
I0403 15:17:03.553683  2908 net.cpp:156] Memory required for data: 736986144
I0403 15:17:03.553700  2908 layer_factory.hpp:77] Creating layer inception_3b/relu_5x5
I0403 15:17:03.553719  2908 net.cpp:91] Creating Layer inception_3b/relu_5x5
I0403 15:17:03.553735  2908 net.cpp:425] inception_3b/relu_5x5 <- inception_3b/5x5
I0403 15:17:03.553755  2908 net.cpp:386] inception_3b/relu_5x5 -> inception_3b/5x5 (in-place)
I0403 15:17:03.553944  2908 net.cpp:141] Setting up inception_3b/relu_5x5
I0403 15:17:03.553969  2908 net.cpp:148] Top shape: 24 96 28 28 (1806336)
I0403 15:17:03.553984  2908 net.cpp:156] Memory required for data: 744211488
I0403 15:17:03.553999  2908 layer_factory.hpp:77] Creating layer inception_3b/pool
I0403 15:17:03.554016  2908 net.cpp:91] Creating Layer inception_3b/pool
I0403 15:17:03.554033  2908 net.cpp:425] inception_3b/pool <- inception_3a/output_inception_3a/output_0_split_3
I0403 15:17:03.554050  2908 net.cpp:399] inception_3b/pool -> inception_3b/pool
I0403 15:17:03.554108  2908 net.cpp:141] Setting up inception_3b/pool
I0403 15:17:03.554132  2908 net.cpp:148] Top shape: 24 256 28 28 (4816896)
I0403 15:17:03.554147  2908 net.cpp:156] Memory required for data: 763479072
I0403 15:17:03.554162  2908 layer_factory.hpp:77] Creating layer inception_3b/pool_proj
I0403 15:17:03.554183  2908 net.cpp:91] Creating Layer inception_3b/pool_proj
I0403 15:17:03.554201  2908 net.cpp:425] inception_3b/pool_proj <- inception_3b/pool
I0403 15:17:03.554227  2908 net.cpp:399] inception_3b/pool_proj -> inception_3b/pool_proj
I0403 15:17:03.555269  2908 net.cpp:141] Setting up inception_3b/pool_proj
I0403 15:17:03.555300  2908 net.cpp:148] Top shape: 24 64 28 28 (1204224)
I0403 15:17:03.555317  2908 net.cpp:156] Memory required for data: 768295968
I0403 15:17:03.555336  2908 layer_factory.hpp:77] Creating layer inception_3b/relu_pool_proj
I0403 15:17:03.555354  2908 net.cpp:91] Creating Layer inception_3b/relu_pool_proj
I0403 15:17:03.555371  2908 net.cpp:425] inception_3b/relu_pool_proj <- inception_3b/pool_proj
I0403 15:17:03.555390  2908 net.cpp:386] inception_3b/relu_pool_proj -> inception_3b/pool_proj (in-place)
I0403 15:17:03.555781  2908 net.cpp:141] Setting up inception_3b/relu_pool_proj
I0403 15:17:03.555810  2908 net.cpp:148] Top shape: 24 64 28 28 (1204224)
I0403 15:17:03.555829  2908 net.cpp:156] Memory required for data: 773112864
I0403 15:17:03.555845  2908 layer_factory.hpp:77] Creating layer inception_3b/output
I0403 15:17:03.555862  2908 net.cpp:91] Creating Layer inception_3b/output
I0403 15:17:03.555878  2908 net.cpp:425] inception_3b/output <- inception_3b/1x1
I0403 15:17:03.555894  2908 net.cpp:425] inception_3b/output <- inception_3b/3x3
I0403 15:17:03.555912  2908 net.cpp:425] inception_3b/output <- inception_3b/5x5
I0403 15:17:03.555928  2908 net.cpp:425] inception_3b/output <- inception_3b/pool_proj
I0403 15:17:03.555946  2908 net.cpp:399] inception_3b/output -> inception_3b/output
I0403 15:17:03.555991  2908 net.cpp:141] Setting up inception_3b/output
I0403 15:17:03.556015  2908 net.cpp:148] Top shape: 24 480 28 28 (9031680)
I0403 15:17:03.556030  2908 net.cpp:156] Memory required for data: 809239584
I0403 15:17:03.556046  2908 layer_factory.hpp:77] Creating layer pool3/3x3_s2
I0403 15:17:03.556066  2908 net.cpp:91] Creating Layer pool3/3x3_s2
I0403 15:17:03.556084  2908 net.cpp:425] pool3/3x3_s2 <- inception_3b/output
I0403 15:17:03.556118  2908 net.cpp:399] pool3/3x3_s2 -> pool3/3x3_s2
I0403 15:17:03.556180  2908 net.cpp:141] Setting up pool3/3x3_s2
I0403 15:17:03.556202  2908 net.cpp:148] Top shape: 24 480 14 14 (2257920)
I0403 15:17:03.556221  2908 net.cpp:156] Memory required for data: 818271264
I0403 15:17:03.556237  2908 layer_factory.hpp:77] Creating layer pool3/3x3_s2_pool3/3x3_s2_0_split
I0403 15:17:03.556254  2908 net.cpp:91] Creating Layer pool3/3x3_s2_pool3/3x3_s2_0_split
I0403 15:17:03.556269  2908 net.cpp:425] pool3/3x3_s2_pool3/3x3_s2_0_split <- pool3/3x3_s2
I0403 15:17:03.556289  2908 net.cpp:399] pool3/3x3_s2_pool3/3x3_s2_0_split -> pool3/3x3_s2_pool3/3x3_s2_0_split_0
I0403 15:17:03.556310  2908 net.cpp:399] pool3/3x3_s2_pool3/3x3_s2_0_split -> pool3/3x3_s2_pool3/3x3_s2_0_split_1
I0403 15:17:03.556329  2908 net.cpp:399] pool3/3x3_s2_pool3/3x3_s2_0_split -> pool3/3x3_s2_pool3/3x3_s2_0_split_2
I0403 15:17:03.556349  2908 net.cpp:399] pool3/3x3_s2_pool3/3x3_s2_0_split -> pool3/3x3_s2_pool3/3x3_s2_0_split_3
I0403 15:17:03.556427  2908 net.cpp:141] Setting up pool3/3x3_s2_pool3/3x3_s2_0_split
I0403 15:17:03.556452  2908 net.cpp:148] Top shape: 24 480 14 14 (2257920)
I0403 15:17:03.556469  2908 net.cpp:148] Top shape: 24 480 14 14 (2257920)
I0403 15:17:03.556485  2908 net.cpp:148] Top shape: 24 480 14 14 (2257920)
I0403 15:17:03.556500  2908 net.cpp:148] Top shape: 24 480 14 14 (2257920)
I0403 15:17:03.556514  2908 net.cpp:156] Memory required for data: 854397984
I0403 15:17:03.556529  2908 layer_factory.hpp:77] Creating layer inception_4a/1x1
I0403 15:17:03.556551  2908 net.cpp:91] Creating Layer inception_4a/1x1
I0403 15:17:03.556568  2908 net.cpp:425] inception_4a/1x1 <- pool3/3x3_s2_pool3/3x3_s2_0_split_0
I0403 15:17:03.556587  2908 net.cpp:399] inception_4a/1x1 -> inception_4a/1x1
I0403 15:17:03.558136  2908 net.cpp:141] Setting up inception_4a/1x1
I0403 15:17:03.558167  2908 net.cpp:148] Top shape: 24 192 14 14 (903168)
I0403 15:17:03.558184  2908 net.cpp:156] Memory required for data: 858010656
I0403 15:17:03.558204  2908 layer_factory.hpp:77] Creating layer inception_4a/relu_1x1
I0403 15:17:03.558228  2908 net.cpp:91] Creating Layer inception_4a/relu_1x1
I0403 15:17:03.558245  2908 net.cpp:425] inception_4a/relu_1x1 <- inception_4a/1x1
I0403 15:17:03.558265  2908 net.cpp:386] inception_4a/relu_1x1 -> inception_4a/1x1 (in-place)
I0403 15:17:03.558442  2908 net.cpp:141] Setting up inception_4a/relu_1x1
I0403 15:17:03.558468  2908 net.cpp:148] Top shape: 24 192 14 14 (903168)
I0403 15:17:03.558483  2908 net.cpp:156] Memory required for data: 861623328
I0403 15:17:03.558500  2908 layer_factory.hpp:77] Creating layer inception_4a/3x3_reduce
I0403 15:17:03.558523  2908 net.cpp:91] Creating Layer inception_4a/3x3_reduce
I0403 15:17:03.558542  2908 net.cpp:425] inception_4a/3x3_reduce <- pool3/3x3_s2_pool3/3x3_s2_0_split_1
I0403 15:17:03.558563  2908 net.cpp:399] inception_4a/3x3_reduce -> inception_4a/3x3_reduce
I0403 15:17:03.559828  2908 net.cpp:141] Setting up inception_4a/3x3_reduce
I0403 15:17:03.559859  2908 net.cpp:148] Top shape: 24 96 14 14 (451584)
I0403 15:17:03.559877  2908 net.cpp:156] Memory required for data: 863429664
I0403 15:17:03.559901  2908 layer_factory.hpp:77] Creating layer inception_4a/relu_3x3_reduce
I0403 15:17:03.559922  2908 net.cpp:91] Creating Layer inception_4a/relu_3x3_reduce
I0403 15:17:03.559940  2908 net.cpp:425] inception_4a/relu_3x3_reduce <- inception_4a/3x3_reduce
I0403 15:17:03.559958  2908 net.cpp:386] inception_4a/relu_3x3_reduce -> inception_4a/3x3_reduce (in-place)
I0403 15:17:03.560134  2908 net.cpp:141] Setting up inception_4a/relu_3x3_reduce
I0403 15:17:03.560159  2908 net.cpp:148] Top shape: 24 96 14 14 (451584)
I0403 15:17:03.560174  2908 net.cpp:156] Memory required for data: 865236000
I0403 15:17:03.560189  2908 layer_factory.hpp:77] Creating layer inception_4a/3x3
I0403 15:17:03.560215  2908 net.cpp:91] Creating Layer inception_4a/3x3
I0403 15:17:03.560235  2908 net.cpp:425] inception_4a/3x3 <- inception_4a/3x3_reduce
I0403 15:17:03.560256  2908 net.cpp:399] inception_4a/3x3 -> inception_4a/3x3
I0403 15:17:03.562944  2908 net.cpp:141] Setting up inception_4a/3x3
I0403 15:17:03.562974  2908 net.cpp:148] Top shape: 24 208 14 14 (978432)
I0403 15:17:03.562990  2908 net.cpp:156] Memory required for data: 869149728
I0403 15:17:03.563009  2908 layer_factory.hpp:77] Creating layer inception_4a/relu_3x3
I0403 15:17:03.563029  2908 net.cpp:91] Creating Layer inception_4a/relu_3x3
I0403 15:17:03.563045  2908 net.cpp:425] inception_4a/relu_3x3 <- inception_4a/3x3
I0403 15:17:03.563062  2908 net.cpp:386] inception_4a/relu_3x3 -> inception_4a/3x3 (in-place)
I0403 15:17:03.563349  2908 net.cpp:141] Setting up inception_4a/relu_3x3
I0403 15:17:03.563376  2908 net.cpp:148] Top shape: 24 208 14 14 (978432)
I0403 15:17:03.563391  2908 net.cpp:156] Memory required for data: 873063456
I0403 15:17:03.563405  2908 layer_factory.hpp:77] Creating layer inception_4a/5x5_reduce
I0403 15:17:03.563429  2908 net.cpp:91] Creating Layer inception_4a/5x5_reduce
I0403 15:17:03.563447  2908 net.cpp:425] inception_4a/5x5_reduce <- pool3/3x3_s2_pool3/3x3_s2_0_split_2
I0403 15:17:03.563468  2908 net.cpp:399] inception_4a/5x5_reduce -> inception_4a/5x5_reduce
I0403 15:17:03.564478  2908 net.cpp:141] Setting up inception_4a/5x5_reduce
I0403 15:17:03.564507  2908 net.cpp:148] Top shape: 24 16 14 14 (75264)
I0403 15:17:03.564523  2908 net.cpp:156] Memory required for data: 873364512
I0403 15:17:03.564543  2908 layer_factory.hpp:77] Creating layer inception_4a/relu_5x5_reduce
I0403 15:17:03.564564  2908 net.cpp:91] Creating Layer inception_4a/relu_5x5_reduce
I0403 15:17:03.564582  2908 net.cpp:425] inception_4a/relu_5x5_reduce <- inception_4a/5x5_reduce
I0403 15:17:03.564599  2908 net.cpp:386] inception_4a/relu_5x5_reduce -> inception_4a/5x5_reduce (in-place)
I0403 15:17:03.564777  2908 net.cpp:141] Setting up inception_4a/relu_5x5_reduce
I0403 15:17:03.564802  2908 net.cpp:148] Top shape: 24 16 14 14 (75264)
I0403 15:17:03.564816  2908 net.cpp:156] Memory required for data: 873665568
I0403 15:17:03.564831  2908 layer_factory.hpp:77] Creating layer inception_4a/5x5
I0403 15:17:03.564856  2908 net.cpp:91] Creating Layer inception_4a/5x5
I0403 15:17:03.564873  2908 net.cpp:425] inception_4a/5x5 <- inception_4a/5x5_reduce
I0403 15:17:03.564893  2908 net.cpp:399] inception_4a/5x5 -> inception_4a/5x5
I0403 15:17:03.565968  2908 net.cpp:141] Setting up inception_4a/5x5
I0403 15:17:03.566000  2908 net.cpp:148] Top shape: 24 48 14 14 (225792)
I0403 15:17:03.566018  2908 net.cpp:156] Memory required for data: 874568736
I0403 15:17:03.566036  2908 layer_factory.hpp:77] Creating layer inception_4a/relu_5x5
I0403 15:17:03.566056  2908 net.cpp:91] Creating Layer inception_4a/relu_5x5
I0403 15:17:03.566073  2908 net.cpp:425] inception_4a/relu_5x5 <- inception_4a/5x5
I0403 15:17:03.566090  2908 net.cpp:386] inception_4a/relu_5x5 -> inception_4a/5x5 (in-place)
I0403 15:17:03.566270  2908 net.cpp:141] Setting up inception_4a/relu_5x5
I0403 15:17:03.566300  2908 net.cpp:148] Top shape: 24 48 14 14 (225792)
I0403 15:17:03.566318  2908 net.cpp:156] Memory required for data: 875471904
I0403 15:17:03.566334  2908 layer_factory.hpp:77] Creating layer inception_4a/pool
I0403 15:17:03.566351  2908 net.cpp:91] Creating Layer inception_4a/pool
I0403 15:17:03.566367  2908 net.cpp:425] inception_4a/pool <- pool3/3x3_s2_pool3/3x3_s2_0_split_3
I0403 15:17:03.566388  2908 net.cpp:399] inception_4a/pool -> inception_4a/pool
I0403 15:17:03.566449  2908 net.cpp:141] Setting up inception_4a/pool
I0403 15:17:03.566476  2908 net.cpp:148] Top shape: 24 480 14 14 (2257920)
I0403 15:17:03.566493  2908 net.cpp:156] Memory required for data: 884503584
I0403 15:17:03.566509  2908 layer_factory.hpp:77] Creating layer inception_4a/pool_proj
I0403 15:17:03.566530  2908 net.cpp:91] Creating Layer inception_4a/pool_proj
I0403 15:17:03.566550  2908 net.cpp:425] inception_4a/pool_proj <- inception_4a/pool
I0403 15:17:03.566568  2908 net.cpp:399] inception_4a/pool_proj -> inception_4a/pool_proj
I0403 15:17:03.567723  2908 net.cpp:141] Setting up inception_4a/pool_proj
I0403 15:17:03.567755  2908 net.cpp:148] Top shape: 24 64 14 14 (301056)
I0403 15:17:03.567785  2908 net.cpp:156] Memory required for data: 885707808
I0403 15:17:03.567805  2908 layer_factory.hpp:77] Creating layer inception_4a/relu_pool_proj
I0403 15:17:03.567822  2908 net.cpp:91] Creating Layer inception_4a/relu_pool_proj
I0403 15:17:03.567837  2908 net.cpp:425] inception_4a/relu_pool_proj <- inception_4a/pool_proj
I0403 15:17:03.567857  2908 net.cpp:386] inception_4a/relu_pool_proj -> inception_4a/pool_proj (in-place)
I0403 15:17:03.568137  2908 net.cpp:141] Setting up inception_4a/relu_pool_proj
I0403 15:17:03.568166  2908 net.cpp:148] Top shape: 24 64 14 14 (301056)
I0403 15:17:03.568181  2908 net.cpp:156] Memory required for data: 886912032
I0403 15:17:03.568197  2908 layer_factory.hpp:77] Creating layer inception_4a/output
I0403 15:17:03.568217  2908 net.cpp:91] Creating Layer inception_4a/output
I0403 15:17:03.568234  2908 net.cpp:425] inception_4a/output <- inception_4a/1x1
I0403 15:17:03.568251  2908 net.cpp:425] inception_4a/output <- inception_4a/3x3
I0403 15:17:03.568269  2908 net.cpp:425] inception_4a/output <- inception_4a/5x5
I0403 15:17:03.568284  2908 net.cpp:425] inception_4a/output <- inception_4a/pool_proj
I0403 15:17:03.568301  2908 net.cpp:399] inception_4a/output -> inception_4a/output
I0403 15:17:03.568346  2908 net.cpp:141] Setting up inception_4a/output
I0403 15:17:03.568369  2908 net.cpp:148] Top shape: 24 512 14 14 (2408448)
I0403 15:17:03.568384  2908 net.cpp:156] Memory required for data: 896545824
I0403 15:17:03.568399  2908 layer_factory.hpp:77] Creating layer inception_4a/output_inception_4a/output_0_split
I0403 15:17:03.568419  2908 net.cpp:91] Creating Layer inception_4a/output_inception_4a/output_0_split
I0403 15:17:03.568436  2908 net.cpp:425] inception_4a/output_inception_4a/output_0_split <- inception_4a/output
I0403 15:17:03.568454  2908 net.cpp:399] inception_4a/output_inception_4a/output_0_split -> inception_4a/output_inception_4a/output_0_split_0
I0403 15:17:03.568475  2908 net.cpp:399] inception_4a/output_inception_4a/output_0_split -> inception_4a/output_inception_4a/output_0_split_1
I0403 15:17:03.568495  2908 net.cpp:399] inception_4a/output_inception_4a/output_0_split -> inception_4a/output_inception_4a/output_0_split_2
I0403 15:17:03.568517  2908 net.cpp:399] inception_4a/output_inception_4a/output_0_split -> inception_4a/output_inception_4a/output_0_split_3
I0403 15:17:03.568539  2908 net.cpp:399] inception_4a/output_inception_4a/output_0_split -> inception_4a/output_inception_4a/output_0_split_4
I0403 15:17:03.568634  2908 net.cpp:141] Setting up inception_4a/output_inception_4a/output_0_split
I0403 15:17:03.568656  2908 net.cpp:148] Top shape: 24 512 14 14 (2408448)
I0403 15:17:03.568673  2908 net.cpp:148] Top shape: 24 512 14 14 (2408448)
I0403 15:17:03.568689  2908 net.cpp:148] Top shape: 24 512 14 14 (2408448)
I0403 15:17:03.568704  2908 net.cpp:148] Top shape: 24 512 14 14 (2408448)
I0403 15:17:03.568720  2908 net.cpp:148] Top shape: 24 512 14 14 (2408448)
I0403 15:17:03.568733  2908 net.cpp:156] Memory required for data: 944714784
I0403 15:17:03.568748  2908 layer_factory.hpp:77] Creating layer loss1/ave_pool
I0403 15:17:03.568768  2908 net.cpp:91] Creating Layer loss1/ave_pool
I0403 15:17:03.568784  2908 net.cpp:425] loss1/ave_pool <- inception_4a/output_inception_4a/output_0_split_0
I0403 15:17:03.568802  2908 net.cpp:399] loss1/ave_pool -> loss1/ave_pool
I0403 15:17:03.569005  2908 net.cpp:141] Setting up loss1/ave_pool
I0403 15:17:03.569033  2908 net.cpp:148] Top shape: 24 512 4 4 (196608)
I0403 15:17:03.569048  2908 net.cpp:156] Memory required for data: 945501216
I0403 15:17:03.569064  2908 layer_factory.hpp:77] Creating layer loss1/conv
I0403 15:17:03.569085  2908 net.cpp:91] Creating Layer loss1/conv
I0403 15:17:03.569103  2908 net.cpp:425] loss1/conv <- loss1/ave_pool
I0403 15:17:03.569123  2908 net.cpp:399] loss1/conv -> loss1/conv
I0403 15:17:03.570521  2908 net.cpp:141] Setting up loss1/conv
I0403 15:17:03.570551  2908 net.cpp:148] Top shape: 24 128 4 4 (49152)
I0403 15:17:03.570581  2908 net.cpp:156] Memory required for data: 945697824
I0403 15:17:03.570601  2908 layer_factory.hpp:77] Creating layer loss1/relu_conv
I0403 15:17:03.570622  2908 net.cpp:91] Creating Layer loss1/relu_conv
I0403 15:17:03.570639  2908 net.cpp:425] loss1/relu_conv <- loss1/conv
I0403 15:17:03.570657  2908 net.cpp:386] loss1/relu_conv -> loss1/conv (in-place)
I0403 15:17:03.570938  2908 net.cpp:141] Setting up loss1/relu_conv
I0403 15:17:03.570965  2908 net.cpp:148] Top shape: 24 128 4 4 (49152)
I0403 15:17:03.570979  2908 net.cpp:156] Memory required for data: 945894432
I0403 15:17:03.570994  2908 layer_factory.hpp:77] Creating layer loss1/fc
I0403 15:17:03.571019  2908 net.cpp:91] Creating Layer loss1/fc
I0403 15:17:03.571038  2908 net.cpp:425] loss1/fc <- loss1/conv
I0403 15:17:03.571056  2908 net.cpp:399] loss1/fc -> loss1/fc
I0403 15:17:03.589126  2908 net.cpp:141] Setting up loss1/fc
I0403 15:17:03.589162  2908 net.cpp:148] Top shape: 24 1024 (24576)
I0403 15:17:03.589179  2908 net.cpp:156] Memory required for data: 945992736
I0403 15:17:03.589200  2908 layer_factory.hpp:77] Creating layer loss1/relu_fc
I0403 15:17:03.589224  2908 net.cpp:91] Creating Layer loss1/relu_fc
I0403 15:17:03.589244  2908 net.cpp:425] loss1/relu_fc <- loss1/fc
I0403 15:17:03.589265  2908 net.cpp:386] loss1/relu_fc -> loss1/fc (in-place)
I0403 15:17:03.589459  2908 net.cpp:141] Setting up loss1/relu_fc
I0403 15:17:03.589485  2908 net.cpp:148] Top shape: 24 1024 (24576)
I0403 15:17:03.589500  2908 net.cpp:156] Memory required for data: 946091040
I0403 15:17:03.589516  2908 layer_factory.hpp:77] Creating layer loss1/drop_fc
I0403 15:17:03.589545  2908 net.cpp:91] Creating Layer loss1/drop_fc
I0403 15:17:03.589562  2908 net.cpp:425] loss1/drop_fc <- loss1/fc
I0403 15:17:03.589582  2908 net.cpp:386] loss1/drop_fc -> loss1/fc (in-place)
I0403 15:17:03.589633  2908 net.cpp:141] Setting up loss1/drop_fc
I0403 15:17:03.589658  2908 net.cpp:148] Top shape: 24 1024 (24576)
I0403 15:17:03.589673  2908 net.cpp:156] Memory required for data: 946189344
I0403 15:17:03.589689  2908 layer_factory.hpp:77] Creating layer loss1/classifier_plantvillage
I0403 15:17:03.589711  2908 net.cpp:91] Creating Layer loss1/classifier_plantvillage
I0403 15:17:03.589730  2908 net.cpp:425] loss1/classifier_plantvillage <- loss1/fc
I0403 15:17:03.589751  2908 net.cpp:399] loss1/classifier_plantvillage -> loss1/classifier_plantvillage
I0403 15:17:03.590698  2908 net.cpp:141] Setting up loss1/classifier_plantvillage
I0403 15:17:03.590729  2908 net.cpp:148] Top shape: 24 38 (912)
I0403 15:17:03.590747  2908 net.cpp:156] Memory required for data: 946192992
I0403 15:17:03.590767  2908 layer_factory.hpp:77] Creating layer loss1/classifier_plantvillage_loss1/classifier_plantvillage_0_split
I0403 15:17:03.590787  2908 net.cpp:91] Creating Layer loss1/classifier_plantvillage_loss1/classifier_plantvillage_0_split
I0403 15:17:03.590806  2908 net.cpp:425] loss1/classifier_plantvillage_loss1/classifier_plantvillage_0_split <- loss1/classifier_plantvillage
I0403 15:17:03.590826  2908 net.cpp:399] loss1/classifier_plantvillage_loss1/classifier_plantvillage_0_split -> loss1/classifier_plantvillage_loss1/classifier_plantvillage_0_split_0
I0403 15:17:03.590848  2908 net.cpp:399] loss1/classifier_plantvillage_loss1/classifier_plantvillage_0_split -> loss1/classifier_plantvillage_loss1/classifier_plantvillage_0_split_1
I0403 15:17:03.590869  2908 net.cpp:399] loss1/classifier_plantvillage_loss1/classifier_plantvillage_0_split -> loss1/classifier_plantvillage_loss1/classifier_plantvillage_0_split_2
I0403 15:17:03.590939  2908 net.cpp:141] Setting up loss1/classifier_plantvillage_loss1/classifier_plantvillage_0_split
I0403 15:17:03.590963  2908 net.cpp:148] Top shape: 24 38 (912)
I0403 15:17:03.590981  2908 net.cpp:148] Top shape: 24 38 (912)
I0403 15:17:03.590997  2908 net.cpp:148] Top shape: 24 38 (912)
I0403 15:17:03.591012  2908 net.cpp:156] Memory required for data: 946203936
I0403 15:17:03.591027  2908 layer_factory.hpp:77] Creating layer inception_4b/1x1
I0403 15:17:03.591048  2908 net.cpp:91] Creating Layer inception_4b/1x1
I0403 15:17:03.591087  2908 net.cpp:425] inception_4b/1x1 <- inception_4a/output_inception_4a/output_0_split_1
I0403 15:17:03.591109  2908 net.cpp:399] inception_4b/1x1 -> inception_4b/1x1
I0403 15:17:03.592826  2908 net.cpp:141] Setting up inception_4b/1x1
I0403 15:17:03.592857  2908 net.cpp:148] Top shape: 24 160 14 14 (752640)
I0403 15:17:03.592874  2908 net.cpp:156] Memory required for data: 949214496
I0403 15:17:03.592892  2908 layer_factory.hpp:77] Creating layer inception_4b/relu_1x1
I0403 15:17:03.592914  2908 net.cpp:91] Creating Layer inception_4b/relu_1x1
I0403 15:17:03.592932  2908 net.cpp:425] inception_4b/relu_1x1 <- inception_4b/1x1
I0403 15:17:03.592952  2908 net.cpp:386] inception_4b/relu_1x1 -> inception_4b/1x1 (in-place)
I0403 15:17:03.593137  2908 net.cpp:141] Setting up inception_4b/relu_1x1
I0403 15:17:03.593165  2908 net.cpp:148] Top shape: 24 160 14 14 (752640)
I0403 15:17:03.593181  2908 net.cpp:156] Memory required for data: 952225056
I0403 15:17:03.593196  2908 layer_factory.hpp:77] Creating layer inception_4b/3x3_reduce
I0403 15:17:03.593230  2908 net.cpp:91] Creating Layer inception_4b/3x3_reduce
I0403 15:17:03.593252  2908 net.cpp:425] inception_4b/3x3_reduce <- inception_4a/output_inception_4a/output_0_split_2
I0403 15:17:03.593273  2908 net.cpp:399] inception_4b/3x3_reduce -> inception_4b/3x3_reduce
I0403 15:17:03.594666  2908 net.cpp:141] Setting up inception_4b/3x3_reduce
I0403 15:17:03.594694  2908 net.cpp:148] Top shape: 24 112 14 14 (526848)
I0403 15:17:03.594712  2908 net.cpp:156] Memory required for data: 954332448
I0403 15:17:03.594732  2908 layer_factory.hpp:77] Creating layer inception_4b/relu_3x3_reduce
I0403 15:17:03.594753  2908 net.cpp:91] Creating Layer inception_4b/relu_3x3_reduce
I0403 15:17:03.594771  2908 net.cpp:425] inception_4b/relu_3x3_reduce <- inception_4b/3x3_reduce
I0403 15:17:03.594789  2908 net.cpp:386] inception_4b/relu_3x3_reduce -> inception_4b/3x3_reduce (in-place)
I0403 15:17:03.595079  2908 net.cpp:141] Setting up inception_4b/relu_3x3_reduce
I0403 15:17:03.595108  2908 net.cpp:148] Top shape: 24 112 14 14 (526848)
I0403 15:17:03.595124  2908 net.cpp:156] Memory required for data: 956439840
I0403 15:17:03.595139  2908 layer_factory.hpp:77] Creating layer inception_4b/3x3
I0403 15:17:03.595163  2908 net.cpp:91] Creating Layer inception_4b/3x3
I0403 15:17:03.595183  2908 net.cpp:425] inception_4b/3x3 <- inception_4b/3x3_reduce
I0403 15:17:03.595203  2908 net.cpp:399] inception_4b/3x3 -> inception_4b/3x3
I0403 15:17:03.598278  2908 net.cpp:141] Setting up inception_4b/3x3
I0403 15:17:03.598310  2908 net.cpp:148] Top shape: 24 224 14 14 (1053696)
I0403 15:17:03.598330  2908 net.cpp:156] Memory required for data: 960654624
I0403 15:17:03.598350  2908 layer_factory.hpp:77] Creating layer inception_4b/relu_3x3
I0403 15:17:03.598368  2908 net.cpp:91] Creating Layer inception_4b/relu_3x3
I0403 15:17:03.598387  2908 net.cpp:425] inception_4b/relu_3x3 <- inception_4b/3x3
I0403 15:17:03.598405  2908 net.cpp:386] inception_4b/relu_3x3 -> inception_4b/3x3 (in-place)
I0403 15:17:03.598592  2908 net.cpp:141] Setting up inception_4b/relu_3x3
I0403 15:17:03.598618  2908 net.cpp:148] Top shape: 24 224 14 14 (1053696)
I0403 15:17:03.598634  2908 net.cpp:156] Memory required for data: 964869408
I0403 15:17:03.598650  2908 layer_factory.hpp:77] Creating layer inception_4b/5x5_reduce
I0403 15:17:03.598675  2908 net.cpp:91] Creating Layer inception_4b/5x5_reduce
I0403 15:17:03.598695  2908 net.cpp:425] inception_4b/5x5_reduce <- inception_4a/output_inception_4a/output_0_split_3
I0403 15:17:03.598719  2908 net.cpp:399] inception_4b/5x5_reduce -> inception_4b/5x5_reduce
I0403 15:17:03.599836  2908 net.cpp:141] Setting up inception_4b/5x5_reduce
I0403 15:17:03.599865  2908 net.cpp:148] Top shape: 24 24 14 14 (112896)
I0403 15:17:03.599882  2908 net.cpp:156] Memory required for data: 965320992
I0403 15:17:03.599902  2908 layer_factory.hpp:77] Creating layer inception_4b/relu_5x5_reduce
I0403 15:17:03.599925  2908 net.cpp:91] Creating Layer inception_4b/relu_5x5_reduce
I0403 15:17:03.599958  2908 net.cpp:425] inception_4b/relu_5x5_reduce <- inception_4b/5x5_reduce
I0403 15:17:03.599978  2908 net.cpp:386] inception_4b/relu_5x5_reduce -> inception_4b/5x5_reduce (in-place)
I0403 15:17:03.600167  2908 net.cpp:141] Setting up inception_4b/relu_5x5_reduce
I0403 15:17:03.600194  2908 net.cpp:148] Top shape: 24 24 14 14 (112896)
I0403 15:17:03.600214  2908 net.cpp:156] Memory required for data: 965772576
I0403 15:17:03.600231  2908 layer_factory.hpp:77] Creating layer inception_4b/5x5
I0403 15:17:03.600255  2908 net.cpp:91] Creating Layer inception_4b/5x5
I0403 15:17:03.600273  2908 net.cpp:425] inception_4b/5x5 <- inception_4b/5x5_reduce
I0403 15:17:03.600292  2908 net.cpp:399] inception_4b/5x5 -> inception_4b/5x5
I0403 15:17:03.601559  2908 net.cpp:141] Setting up inception_4b/5x5
I0403 15:17:03.601589  2908 net.cpp:148] Top shape: 24 64 14 14 (301056)
I0403 15:17:03.601606  2908 net.cpp:156] Memory required for data: 966976800
I0403 15:17:03.601626  2908 layer_factory.hpp:77] Creating layer inception_4b/relu_5x5
I0403 15:17:03.601649  2908 net.cpp:91] Creating Layer inception_4b/relu_5x5
I0403 15:17:03.601668  2908 net.cpp:425] inception_4b/relu_5x5 <- inception_4b/5x5
I0403 15:17:03.601687  2908 net.cpp:386] inception_4b/relu_5x5 -> inception_4b/5x5 (in-place)
I0403 15:17:03.601981  2908 net.cpp:141] Setting up inception_4b/relu_5x5
I0403 15:17:03.602008  2908 net.cpp:148] Top shape: 24 64 14 14 (301056)
I0403 15:17:03.602023  2908 net.cpp:156] Memory required for data: 968181024
I0403 15:17:03.602038  2908 layer_factory.hpp:77] Creating layer inception_4b/pool
I0403 15:17:03.602061  2908 net.cpp:91] Creating Layer inception_4b/pool
I0403 15:17:03.602077  2908 net.cpp:425] inception_4b/pool <- inception_4a/output_inception_4a/output_0_split_4
I0403 15:17:03.602097  2908 net.cpp:399] inception_4b/pool -> inception_4b/pool
I0403 15:17:03.602164  2908 net.cpp:141] Setting up inception_4b/pool
I0403 15:17:03.602187  2908 net.cpp:148] Top shape: 24 512 14 14 (2408448)
I0403 15:17:03.602203  2908 net.cpp:156] Memory required for data: 977814816
I0403 15:17:03.602223  2908 layer_factory.hpp:77] Creating layer inception_4b/pool_proj
I0403 15:17:03.602246  2908 net.cpp:91] Creating Layer inception_4b/pool_proj
I0403 15:17:03.602265  2908 net.cpp:425] inception_4b/pool_proj <- inception_4b/pool
I0403 15:17:03.602288  2908 net.cpp:399] inception_4b/pool_proj -> inception_4b/pool_proj
I0403 15:17:03.603530  2908 net.cpp:141] Setting up inception_4b/pool_proj
I0403 15:17:03.603560  2908 net.cpp:148] Top shape: 24 64 14 14 (301056)
I0403 15:17:03.603576  2908 net.cpp:156] Memory required for data: 979019040
I0403 15:17:03.603597  2908 layer_factory.hpp:77] Creating layer inception_4b/relu_pool_proj
I0403 15:17:03.603621  2908 net.cpp:91] Creating Layer inception_4b/relu_pool_proj
I0403 15:17:03.603641  2908 net.cpp:425] inception_4b/relu_pool_proj <- inception_4b/pool_proj
I0403 15:17:03.603658  2908 net.cpp:386] inception_4b/relu_pool_proj -> inception_4b/pool_proj (in-place)
I0403 15:17:03.603847  2908 net.cpp:141] Setting up inception_4b/relu_pool_proj
I0403 15:17:03.603875  2908 net.cpp:148] Top shape: 24 64 14 14 (301056)
I0403 15:17:03.603893  2908 net.cpp:156] Memory required for data: 980223264
I0403 15:17:03.603909  2908 layer_factory.hpp:77] Creating layer inception_4b/output
I0403 15:17:03.603926  2908 net.cpp:91] Creating Layer inception_4b/output
I0403 15:17:03.603942  2908 net.cpp:425] inception_4b/output <- inception_4b/1x1
I0403 15:17:03.603960  2908 net.cpp:425] inception_4b/output <- inception_4b/3x3
I0403 15:17:03.603976  2908 net.cpp:425] inception_4b/output <- inception_4b/5x5
I0403 15:17:03.603993  2908 net.cpp:425] inception_4b/output <- inception_4b/pool_proj
I0403 15:17:03.604012  2908 net.cpp:399] inception_4b/output -> inception_4b/output
I0403 15:17:03.604060  2908 net.cpp:141] Setting up inception_4b/output
I0403 15:17:03.604085  2908 net.cpp:148] Top shape: 24 512 14 14 (2408448)
I0403 15:17:03.604101  2908 net.cpp:156] Memory required for data: 989857056
I0403 15:17:03.604132  2908 layer_factory.hpp:77] Creating layer inception_4b/output_inception_4b/output_0_split
I0403 15:17:03.604151  2908 net.cpp:91] Creating Layer inception_4b/output_inception_4b/output_0_split
I0403 15:17:03.604168  2908 net.cpp:425] inception_4b/output_inception_4b/output_0_split <- inception_4b/output
I0403 15:17:03.604189  2908 net.cpp:399] inception_4b/output_inception_4b/output_0_split -> inception_4b/output_inception_4b/output_0_split_0
I0403 15:17:03.604215  2908 net.cpp:399] inception_4b/output_inception_4b/output_0_split -> inception_4b/output_inception_4b/output_0_split_1
I0403 15:17:03.604238  2908 net.cpp:399] inception_4b/output_inception_4b/output_0_split -> inception_4b/output_inception_4b/output_0_split_2
I0403 15:17:03.604259  2908 net.cpp:399] inception_4b/output_inception_4b/output_0_split -> inception_4b/output_inception_4b/output_0_split_3
I0403 15:17:03.604351  2908 net.cpp:141] Setting up inception_4b/output_inception_4b/output_0_split
I0403 15:17:03.604375  2908 net.cpp:148] Top shape: 24 512 14 14 (2408448)
I0403 15:17:03.604393  2908 net.cpp:148] Top shape: 24 512 14 14 (2408448)
I0403 15:17:03.604408  2908 net.cpp:148] Top shape: 24 512 14 14 (2408448)
I0403 15:17:03.604424  2908 net.cpp:148] Top shape: 24 512 14 14 (2408448)
I0403 15:17:03.604439  2908 net.cpp:156] Memory required for data: 1028392224
I0403 15:17:03.604454  2908 layer_factory.hpp:77] Creating layer inception_4c/1x1
I0403 15:17:03.604478  2908 net.cpp:91] Creating Layer inception_4c/1x1
I0403 15:17:03.604496  2908 net.cpp:425] inception_4c/1x1 <- inception_4b/output_inception_4b/output_0_split_0
I0403 15:17:03.604518  2908 net.cpp:399] inception_4c/1x1 -> inception_4c/1x1
I0403 15:17:03.606008  2908 net.cpp:141] Setting up inception_4c/1x1
I0403 15:17:03.606041  2908 net.cpp:148] Top shape: 24 128 14 14 (602112)
I0403 15:17:03.606060  2908 net.cpp:156] Memory required for data: 1030800672
I0403 15:17:03.606081  2908 layer_factory.hpp:77] Creating layer inception_4c/relu_1x1
I0403 15:17:03.606101  2908 net.cpp:91] Creating Layer inception_4c/relu_1x1
I0403 15:17:03.606119  2908 net.cpp:425] inception_4c/relu_1x1 <- inception_4c/1x1
I0403 15:17:03.606142  2908 net.cpp:386] inception_4c/relu_1x1 -> inception_4c/1x1 (in-place)
I0403 15:17:03.606339  2908 net.cpp:141] Setting up inception_4c/relu_1x1
I0403 15:17:03.606379  2908 net.cpp:148] Top shape: 24 128 14 14 (602112)
I0403 15:17:03.606395  2908 net.cpp:156] Memory required for data: 1033209120
I0403 15:17:03.606411  2908 layer_factory.hpp:77] Creating layer inception_4c/3x3_reduce
I0403 15:17:03.606434  2908 net.cpp:91] Creating Layer inception_4c/3x3_reduce
I0403 15:17:03.606454  2908 net.cpp:425] inception_4c/3x3_reduce <- inception_4b/output_inception_4b/output_0_split_1
I0403 15:17:03.606477  2908 net.cpp:399] inception_4c/3x3_reduce -> inception_4c/3x3_reduce
I0403 15:17:03.608472  2908 net.cpp:141] Setting up inception_4c/3x3_reduce
I0403 15:17:03.608503  2908 net.cpp:148] Top shape: 24 128 14 14 (602112)
I0403 15:17:03.608521  2908 net.cpp:156] Memory required for data: 1035617568
I0403 15:17:03.608542  2908 layer_factory.hpp:77] Creating layer inception_4c/relu_3x3_reduce
I0403 15:17:03.608561  2908 net.cpp:91] Creating Layer inception_4c/relu_3x3_reduce
I0403 15:17:03.608578  2908 net.cpp:425] inception_4c/relu_3x3_reduce <- inception_4c/3x3_reduce
I0403 15:17:03.608599  2908 net.cpp:386] inception_4c/relu_3x3_reduce -> inception_4c/3x3_reduce (in-place)
I0403 15:17:03.608896  2908 net.cpp:141] Setting up inception_4c/relu_3x3_reduce
I0403 15:17:03.608924  2908 net.cpp:148] Top shape: 24 128 14 14 (602112)
I0403 15:17:03.608942  2908 net.cpp:156] Memory required for data: 1038026016
I0403 15:17:03.608957  2908 layer_factory.hpp:77] Creating layer inception_4c/3x3
I0403 15:17:03.608981  2908 net.cpp:91] Creating Layer inception_4c/3x3
I0403 15:17:03.609001  2908 net.cpp:425] inception_4c/3x3 <- inception_4c/3x3_reduce
I0403 15:17:03.609025  2908 net.cpp:399] inception_4c/3x3 -> inception_4c/3x3
I0403 15:17:03.612737  2908 net.cpp:141] Setting up inception_4c/3x3
I0403 15:17:03.612782  2908 net.cpp:148] Top shape: 24 256 14 14 (1204224)
I0403 15:17:03.612799  2908 net.cpp:156] Memory required for data: 1042842912
I0403 15:17:03.612834  2908 layer_factory.hpp:77] Creating layer inception_4c/relu_3x3
I0403 15:17:03.612859  2908 net.cpp:91] Creating Layer inception_4c/relu_3x3
I0403 15:17:03.612877  2908 net.cpp:425] inception_4c/relu_3x3 <- inception_4c/3x3
I0403 15:17:03.612895  2908 net.cpp:386] inception_4c/relu_3x3 -> inception_4c/3x3 (in-place)
I0403 15:17:03.613086  2908 net.cpp:141] Setting up inception_4c/relu_3x3
I0403 15:17:03.613113  2908 net.cpp:148] Top shape: 24 256 14 14 (1204224)
I0403 15:17:03.613131  2908 net.cpp:156] Memory required for data: 1047659808
I0403 15:17:03.613147  2908 layer_factory.hpp:77] Creating layer inception_4c/5x5_reduce
I0403 15:17:03.613170  2908 net.cpp:91] Creating Layer inception_4c/5x5_reduce
I0403 15:17:03.613189  2908 net.cpp:425] inception_4c/5x5_reduce <- inception_4b/output_inception_4b/output_0_split_2
I0403 15:17:03.613221  2908 net.cpp:399] inception_4c/5x5_reduce -> inception_4c/5x5_reduce
I0403 15:17:03.614349  2908 net.cpp:141] Setting up inception_4c/5x5_reduce
I0403 15:17:03.614379  2908 net.cpp:148] Top shape: 24 24 14 14 (112896)
I0403 15:17:03.614397  2908 net.cpp:156] Memory required for data: 1048111392
I0403 15:17:03.614416  2908 layer_factory.hpp:77] Creating layer inception_4c/relu_5x5_reduce
I0403 15:17:03.614441  2908 net.cpp:91] Creating Layer inception_4c/relu_5x5_reduce
I0403 15:17:03.614460  2908 net.cpp:425] inception_4c/relu_5x5_reduce <- inception_4c/5x5_reduce
I0403 15:17:03.614480  2908 net.cpp:386] inception_4c/relu_5x5_reduce -> inception_4c/5x5_reduce (in-place)
I0403 15:17:03.614670  2908 net.cpp:141] Setting up inception_4c/relu_5x5_reduce
I0403 15:17:03.614699  2908 net.cpp:148] Top shape: 24 24 14 14 (112896)
I0403 15:17:03.614717  2908 net.cpp:156] Memory required for data: 1048562976
I0403 15:17:03.614732  2908 layer_factory.hpp:77] Creating layer inception_4c/5x5
I0403 15:17:03.614755  2908 net.cpp:91] Creating Layer inception_4c/5x5
I0403 15:17:03.614775  2908 net.cpp:425] inception_4c/5x5 <- inception_4c/5x5_reduce
I0403 15:17:03.614795  2908 net.cpp:399] inception_4c/5x5 -> inception_4c/5x5
I0403 15:17:03.616092  2908 net.cpp:141] Setting up inception_4c/5x5
I0403 15:17:03.616122  2908 net.cpp:148] Top shape: 24 64 14 14 (301056)
I0403 15:17:03.616138  2908 net.cpp:156] Memory required for data: 1049767200
I0403 15:17:03.616158  2908 layer_factory.hpp:77] Creating layer inception_4c/relu_5x5
I0403 15:17:03.616179  2908 net.cpp:91] Creating Layer inception_4c/relu_5x5
I0403 15:17:03.616200  2908 net.cpp:425] inception_4c/relu_5x5 <- inception_4c/5x5
I0403 15:17:03.616225  2908 net.cpp:386] inception_4c/relu_5x5 -> inception_4c/5x5 (in-place)
I0403 15:17:03.616530  2908 net.cpp:141] Setting up inception_4c/relu_5x5
I0403 15:17:03.616557  2908 net.cpp:148] Top shape: 24 64 14 14 (301056)
I0403 15:17:03.616572  2908 net.cpp:156] Memory required for data: 1050971424
I0403 15:17:03.616588  2908 layer_factory.hpp:77] Creating layer inception_4c/pool
I0403 15:17:03.616610  2908 net.cpp:91] Creating Layer inception_4c/pool
I0403 15:17:03.616627  2908 net.cpp:425] inception_4c/pool <- inception_4b/output_inception_4b/output_0_split_3
I0403 15:17:03.616647  2908 net.cpp:399] inception_4c/pool -> inception_4c/pool
I0403 15:17:03.616715  2908 net.cpp:141] Setting up inception_4c/pool
I0403 15:17:03.616740  2908 net.cpp:148] Top shape: 24 512 14 14 (2408448)
I0403 15:17:03.616755  2908 net.cpp:156] Memory required for data: 1060605216
I0403 15:17:03.616771  2908 layer_factory.hpp:77] Creating layer inception_4c/pool_proj
I0403 15:17:03.616793  2908 net.cpp:91] Creating Layer inception_4c/pool_proj
I0403 15:17:03.616811  2908 net.cpp:425] inception_4c/pool_proj <- inception_4c/pool
I0403 15:17:03.616832  2908 net.cpp:399] inception_4c/pool_proj -> inception_4c/pool_proj
I0403 15:17:03.618093  2908 net.cpp:141] Setting up inception_4c/pool_proj
I0403 15:17:03.618124  2908 net.cpp:148] Top shape: 24 64 14 14 (301056)
I0403 15:17:03.618155  2908 net.cpp:156] Memory required for data: 1061809440
I0403 15:17:03.618176  2908 layer_factory.hpp:77] Creating layer inception_4c/relu_pool_proj
I0403 15:17:03.618201  2908 net.cpp:91] Creating Layer inception_4c/relu_pool_proj
I0403 15:17:03.618227  2908 net.cpp:425] inception_4c/relu_pool_proj <- inception_4c/pool_proj
I0403 15:17:03.618244  2908 net.cpp:386] inception_4c/relu_pool_proj -> inception_4c/pool_proj (in-place)
I0403 15:17:03.618437  2908 net.cpp:141] Setting up inception_4c/relu_pool_proj
I0403 15:17:03.618464  2908 net.cpp:148] Top shape: 24 64 14 14 (301056)
I0403 15:17:03.618481  2908 net.cpp:156] Memory required for data: 1063013664
I0403 15:17:03.618496  2908 layer_factory.hpp:77] Creating layer inception_4c/output
I0403 15:17:03.618515  2908 net.cpp:91] Creating Layer inception_4c/output
I0403 15:17:03.618532  2908 net.cpp:425] inception_4c/output <- inception_4c/1x1
I0403 15:17:03.618549  2908 net.cpp:425] inception_4c/output <- inception_4c/3x3
I0403 15:17:03.618566  2908 net.cpp:425] inception_4c/output <- inception_4c/5x5
I0403 15:17:03.618583  2908 net.cpp:425] inception_4c/output <- inception_4c/pool_proj
I0403 15:17:03.618602  2908 net.cpp:399] inception_4c/output -> inception_4c/output
I0403 15:17:03.618651  2908 net.cpp:141] Setting up inception_4c/output
I0403 15:17:03.618674  2908 net.cpp:148] Top shape: 24 512 14 14 (2408448)
I0403 15:17:03.618690  2908 net.cpp:156] Memory required for data: 1072647456
I0403 15:17:03.618705  2908 layer_factory.hpp:77] Creating layer inception_4c/output_inception_4c/output_0_split
I0403 15:17:03.618722  2908 net.cpp:91] Creating Layer inception_4c/output_inception_4c/output_0_split
I0403 15:17:03.618738  2908 net.cpp:425] inception_4c/output_inception_4c/output_0_split <- inception_4c/output
I0403 15:17:03.618758  2908 net.cpp:399] inception_4c/output_inception_4c/output_0_split -> inception_4c/output_inception_4c/output_0_split_0
I0403 15:17:03.618780  2908 net.cpp:399] inception_4c/output_inception_4c/output_0_split -> inception_4c/output_inception_4c/output_0_split_1
I0403 15:17:03.618800  2908 net.cpp:399] inception_4c/output_inception_4c/output_0_split -> inception_4c/output_inception_4c/output_0_split_2
I0403 15:17:03.618821  2908 net.cpp:399] inception_4c/output_inception_4c/output_0_split -> inception_4c/output_inception_4c/output_0_split_3
I0403 15:17:03.618916  2908 net.cpp:141] Setting up inception_4c/output_inception_4c/output_0_split
I0403 15:17:03.618938  2908 net.cpp:148] Top shape: 24 512 14 14 (2408448)
I0403 15:17:03.618955  2908 net.cpp:148] Top shape: 24 512 14 14 (2408448)
I0403 15:17:03.618971  2908 net.cpp:148] Top shape: 24 512 14 14 (2408448)
I0403 15:17:03.618988  2908 net.cpp:148] Top shape: 24 512 14 14 (2408448)
I0403 15:17:03.619001  2908 net.cpp:156] Memory required for data: 1111182624
I0403 15:17:03.619016  2908 layer_factory.hpp:77] Creating layer inception_4d/1x1
I0403 15:17:03.619040  2908 net.cpp:91] Creating Layer inception_4d/1x1
I0403 15:17:03.619058  2908 net.cpp:425] inception_4d/1x1 <- inception_4c/output_inception_4c/output_0_split_0
I0403 15:17:03.619079  2908 net.cpp:399] inception_4d/1x1 -> inception_4d/1x1
I0403 15:17:03.620527  2908 net.cpp:141] Setting up inception_4d/1x1
I0403 15:17:03.620558  2908 net.cpp:148] Top shape: 24 112 14 14 (526848)
I0403 15:17:03.620578  2908 net.cpp:156] Memory required for data: 1113290016
I0403 15:17:03.620596  2908 layer_factory.hpp:77] Creating layer inception_4d/relu_1x1
I0403 15:17:03.620615  2908 net.cpp:91] Creating Layer inception_4d/relu_1x1
I0403 15:17:03.620633  2908 net.cpp:425] inception_4d/relu_1x1 <- inception_4d/1x1
I0403 15:17:03.620654  2908 net.cpp:386] inception_4d/relu_1x1 -> inception_4d/1x1 (in-place)
I0403 15:17:03.620849  2908 net.cpp:141] Setting up inception_4d/relu_1x1
I0403 15:17:03.620877  2908 net.cpp:148] Top shape: 24 112 14 14 (526848)
I0403 15:17:03.620893  2908 net.cpp:156] Memory required for data: 1115397408
I0403 15:17:03.620908  2908 layer_factory.hpp:77] Creating layer inception_4d/3x3_reduce
I0403 15:17:03.620946  2908 net.cpp:91] Creating Layer inception_4d/3x3_reduce
I0403 15:17:03.620967  2908 net.cpp:425] inception_4d/3x3_reduce <- inception_4c/output_inception_4c/output_0_split_1
I0403 15:17:03.620990  2908 net.cpp:399] inception_4d/3x3_reduce -> inception_4d/3x3_reduce
I0403 15:17:03.622568  2908 net.cpp:141] Setting up inception_4d/3x3_reduce
I0403 15:17:03.622601  2908 net.cpp:148] Top shape: 24 144 14 14 (677376)
I0403 15:17:03.622620  2908 net.cpp:156] Memory required for data: 1118106912
I0403 15:17:03.622639  2908 layer_factory.hpp:77] Creating layer inception_4d/relu_3x3_reduce
I0403 15:17:03.622659  2908 net.cpp:91] Creating Layer inception_4d/relu_3x3_reduce
I0403 15:17:03.622678  2908 net.cpp:425] inception_4d/relu_3x3_reduce <- inception_4d/3x3_reduce
I0403 15:17:03.622697  2908 net.cpp:386] inception_4d/relu_3x3_reduce -> inception_4d/3x3_reduce (in-place)
I0403 15:17:03.623002  2908 net.cpp:141] Setting up inception_4d/relu_3x3_reduce
I0403 15:17:03.623033  2908 net.cpp:148] Top shape: 24 144 14 14 (677376)
I0403 15:17:03.623050  2908 net.cpp:156] Memory required for data: 1120816416
I0403 15:17:03.623066  2908 layer_factory.hpp:77] Creating layer inception_4d/3x3
I0403 15:17:03.623090  2908 net.cpp:91] Creating Layer inception_4d/3x3
I0403 15:17:03.623109  2908 net.cpp:425] inception_4d/3x3 <- inception_4d/3x3_reduce
I0403 15:17:03.623129  2908 net.cpp:399] inception_4d/3x3 -> inception_4d/3x3
I0403 15:17:03.627480  2908 net.cpp:141] Setting up inception_4d/3x3
I0403 15:17:03.627511  2908 net.cpp:148] Top shape: 24 288 14 14 (1354752)
I0403 15:17:03.627528  2908 net.cpp:156] Memory required for data: 1126235424
I0403 15:17:03.627547  2908 layer_factory.hpp:77] Creating layer inception_4d/relu_3x3
I0403 15:17:03.627564  2908 net.cpp:91] Creating Layer inception_4d/relu_3x3
I0403 15:17:03.627583  2908 net.cpp:425] inception_4d/relu_3x3 <- inception_4d/3x3
I0403 15:17:03.627604  2908 net.cpp:386] inception_4d/relu_3x3 -> inception_4d/3x3 (in-place)
I0403 15:17:03.627787  2908 net.cpp:141] Setting up inception_4d/relu_3x3
I0403 15:17:03.627813  2908 net.cpp:148] Top shape: 24 288 14 14 (1354752)
I0403 15:17:03.627827  2908 net.cpp:156] Memory required for data: 1131654432
I0403 15:17:03.627842  2908 layer_factory.hpp:77] Creating layer inception_4d/5x5_reduce
I0403 15:17:03.627864  2908 net.cpp:91] Creating Layer inception_4d/5x5_reduce
I0403 15:17:03.627882  2908 net.cpp:425] inception_4d/5x5_reduce <- inception_4c/output_inception_4c/output_0_split_2
I0403 15:17:03.627904  2908 net.cpp:399] inception_4d/5x5_reduce -> inception_4d/5x5_reduce
I0403 15:17:03.629112  2908 net.cpp:141] Setting up inception_4d/5x5_reduce
I0403 15:17:03.629139  2908 net.cpp:148] Top shape: 24 32 14 14 (150528)
I0403 15:17:03.629154  2908 net.cpp:156] Memory required for data: 1132256544
I0403 15:17:03.629173  2908 layer_factory.hpp:77] Creating layer inception_4d/relu_5x5_reduce
I0403 15:17:03.629190  2908 net.cpp:91] Creating Layer inception_4d/relu_5x5_reduce
I0403 15:17:03.629206  2908 net.cpp:425] inception_4d/relu_5x5_reduce <- inception_4d/5x5_reduce
I0403 15:17:03.629231  2908 net.cpp:386] inception_4d/relu_5x5_reduce -> inception_4d/5x5_reduce (in-place)
I0403 15:17:03.629418  2908 net.cpp:141] Setting up inception_4d/relu_5x5_reduce
I0403 15:17:03.629443  2908 net.cpp:148] Top shape: 24 32 14 14 (150528)
I0403 15:17:03.629458  2908 net.cpp:156] Memory required for data: 1132858656
I0403 15:17:03.629473  2908 layer_factory.hpp:77] Creating layer inception_4d/5x5
I0403 15:17:03.629495  2908 net.cpp:91] Creating Layer inception_4d/5x5
I0403 15:17:03.629513  2908 net.cpp:425] inception_4d/5x5 <- inception_4d/5x5_reduce
I0403 15:17:03.629534  2908 net.cpp:399] inception_4d/5x5 -> inception_4d/5x5
I0403 15:17:03.631018  2908 net.cpp:141] Setting up inception_4d/5x5
I0403 15:17:03.631047  2908 net.cpp:148] Top shape: 24 64 14 14 (301056)
I0403 15:17:03.631063  2908 net.cpp:156] Memory required for data: 1134062880
I0403 15:17:03.631084  2908 layer_factory.hpp:77] Creating layer inception_4d/relu_5x5
I0403 15:17:03.631120  2908 net.cpp:91] Creating Layer inception_4d/relu_5x5
I0403 15:17:03.631139  2908 net.cpp:425] inception_4d/relu_5x5 <- inception_4d/5x5
I0403 15:17:03.631156  2908 net.cpp:386] inception_4d/relu_5x5 -> inception_4d/5x5 (in-place)
I0403 15:17:03.631460  2908 net.cpp:141] Setting up inception_4d/relu_5x5
I0403 15:17:03.631486  2908 net.cpp:148] Top shape: 24 64 14 14 (301056)
I0403 15:17:03.631501  2908 net.cpp:156] Memory required for data: 1135267104
I0403 15:17:03.631516  2908 layer_factory.hpp:77] Creating layer inception_4d/pool
I0403 15:17:03.631536  2908 net.cpp:91] Creating Layer inception_4d/pool
I0403 15:17:03.631554  2908 net.cpp:425] inception_4d/pool <- inception_4c/output_inception_4c/output_0_split_3
I0403 15:17:03.631572  2908 net.cpp:399] inception_4d/pool -> inception_4d/pool
I0403 15:17:03.631642  2908 net.cpp:141] Setting up inception_4d/pool
I0403 15:17:03.631666  2908 net.cpp:148] Top shape: 24 512 14 14 (2408448)
I0403 15:17:03.631681  2908 net.cpp:156] Memory required for data: 1144900896
I0403 15:17:03.631696  2908 layer_factory.hpp:77] Creating layer inception_4d/pool_proj
I0403 15:17:03.631718  2908 net.cpp:91] Creating Layer inception_4d/pool_proj
I0403 15:17:03.631736  2908 net.cpp:425] inception_4d/pool_proj <- inception_4d/pool
I0403 15:17:03.631757  2908 net.cpp:399] inception_4d/pool_proj -> inception_4d/pool_proj
I0403 15:17:03.633631  2908 net.cpp:141] Setting up inception_4d/pool_proj
I0403 15:17:03.633663  2908 net.cpp:148] Top shape: 24 64 14 14 (301056)
I0403 15:17:03.633680  2908 net.cpp:156] Memory required for data: 1146105120
I0403 15:17:03.633700  2908 layer_factory.hpp:77] Creating layer inception_4d/relu_pool_proj
I0403 15:17:03.633719  2908 net.cpp:91] Creating Layer inception_4d/relu_pool_proj
I0403 15:17:03.633736  2908 net.cpp:425] inception_4d/relu_pool_proj <- inception_4d/pool_proj
I0403 15:17:03.633757  2908 net.cpp:386] inception_4d/relu_pool_proj -> inception_4d/pool_proj (in-place)
I0403 15:17:03.633961  2908 net.cpp:141] Setting up inception_4d/relu_pool_proj
I0403 15:17:03.633986  2908 net.cpp:148] Top shape: 24 64 14 14 (301056)
I0403 15:17:03.634001  2908 net.cpp:156] Memory required for data: 1147309344
I0403 15:17:03.634016  2908 layer_factory.hpp:77] Creating layer inception_4d/output
I0403 15:17:03.634035  2908 net.cpp:91] Creating Layer inception_4d/output
I0403 15:17:03.634052  2908 net.cpp:425] inception_4d/output <- inception_4d/1x1
I0403 15:17:03.634069  2908 net.cpp:425] inception_4d/output <- inception_4d/3x3
I0403 15:17:03.634085  2908 net.cpp:425] inception_4d/output <- inception_4d/5x5
I0403 15:17:03.634101  2908 net.cpp:425] inception_4d/output <- inception_4d/pool_proj
I0403 15:17:03.634119  2908 net.cpp:399] inception_4d/output -> inception_4d/output
I0403 15:17:03.634167  2908 net.cpp:141] Setting up inception_4d/output
I0403 15:17:03.634189  2908 net.cpp:148] Top shape: 24 528 14 14 (2483712)
I0403 15:17:03.634204  2908 net.cpp:156] Memory required for data: 1157244192
I0403 15:17:03.634223  2908 layer_factory.hpp:77] Creating layer inception_4d/output_inception_4d/output_0_split
I0403 15:17:03.634243  2908 net.cpp:91] Creating Layer inception_4d/output_inception_4d/output_0_split
I0403 15:17:03.634258  2908 net.cpp:425] inception_4d/output_inception_4d/output_0_split <- inception_4d/output
I0403 15:17:03.634277  2908 net.cpp:399] inception_4d/output_inception_4d/output_0_split -> inception_4d/output_inception_4d/output_0_split_0
I0403 15:17:03.634299  2908 net.cpp:399] inception_4d/output_inception_4d/output_0_split -> inception_4d/output_inception_4d/output_0_split_1
I0403 15:17:03.634320  2908 net.cpp:399] inception_4d/output_inception_4d/output_0_split -> inception_4d/output_inception_4d/output_0_split_2
I0403 15:17:03.634341  2908 net.cpp:399] inception_4d/output_inception_4d/output_0_split -> inception_4d/output_inception_4d/output_0_split_3
I0403 15:17:03.634361  2908 net.cpp:399] inception_4d/output_inception_4d/output_0_split -> inception_4d/output_inception_4d/output_0_split_4
I0403 15:17:03.634466  2908 net.cpp:141] Setting up inception_4d/output_inception_4d/output_0_split
I0403 15:17:03.634501  2908 net.cpp:148] Top shape: 24 528 14 14 (2483712)
I0403 15:17:03.634521  2908 net.cpp:148] Top shape: 24 528 14 14 (2483712)
I0403 15:17:03.634537  2908 net.cpp:148] Top shape: 24 528 14 14 (2483712)
I0403 15:17:03.634553  2908 net.cpp:148] Top shape: 24 528 14 14 (2483712)
I0403 15:17:03.634569  2908 net.cpp:148] Top shape: 24 528 14 14 (2483712)
I0403 15:17:03.634582  2908 net.cpp:156] Memory required for data: 1206918432
I0403 15:17:03.634598  2908 layer_factory.hpp:77] Creating layer loss2/ave_pool
I0403 15:17:03.634615  2908 net.cpp:91] Creating Layer loss2/ave_pool
I0403 15:17:03.634631  2908 net.cpp:425] loss2/ave_pool <- inception_4d/output_inception_4d/output_0_split_0
I0403 15:17:03.634652  2908 net.cpp:399] loss2/ave_pool -> loss2/ave_pool
I0403 15:17:03.634977  2908 net.cpp:141] Setting up loss2/ave_pool
I0403 15:17:03.635004  2908 net.cpp:148] Top shape: 24 528 4 4 (202752)
I0403 15:17:03.635020  2908 net.cpp:156] Memory required for data: 1207729440
I0403 15:17:03.635033  2908 layer_factory.hpp:77] Creating layer loss2/conv
I0403 15:17:03.635056  2908 net.cpp:91] Creating Layer loss2/conv
I0403 15:17:03.635074  2908 net.cpp:425] loss2/conv <- loss2/ave_pool
I0403 15:17:03.635097  2908 net.cpp:399] loss2/conv -> loss2/conv
I0403 15:17:03.637013  2908 net.cpp:141] Setting up loss2/conv
I0403 15:17:03.637043  2908 net.cpp:148] Top shape: 24 128 4 4 (49152)
I0403 15:17:03.637060  2908 net.cpp:156] Memory required for data: 1207926048
I0403 15:17:03.637080  2908 layer_factory.hpp:77] Creating layer loss2/relu_conv
I0403 15:17:03.637102  2908 net.cpp:91] Creating Layer loss2/relu_conv
I0403 15:17:03.637120  2908 net.cpp:425] loss2/relu_conv <- loss2/conv
I0403 15:17:03.637140  2908 net.cpp:386] loss2/relu_conv -> loss2/conv (in-place)
I0403 15:17:03.637449  2908 net.cpp:141] Setting up loss2/relu_conv
I0403 15:17:03.637478  2908 net.cpp:148] Top shape: 24 128 4 4 (49152)
I0403 15:17:03.637495  2908 net.cpp:156] Memory required for data: 1208122656
I0403 15:17:03.637511  2908 layer_factory.hpp:77] Creating layer loss2/fc
I0403 15:17:03.637533  2908 net.cpp:91] Creating Layer loss2/fc
I0403 15:17:03.637553  2908 net.cpp:425] loss2/fc <- loss2/conv
I0403 15:17:03.637578  2908 net.cpp:399] loss2/fc -> loss2/fc
I0403 15:17:03.655186  2908 net.cpp:141] Setting up loss2/fc
I0403 15:17:03.655225  2908 net.cpp:148] Top shape: 24 1024 (24576)
I0403 15:17:03.655243  2908 net.cpp:156] Memory required for data: 1208220960
I0403 15:17:03.655263  2908 layer_factory.hpp:77] Creating layer loss2/relu_fc
I0403 15:17:03.655282  2908 net.cpp:91] Creating Layer loss2/relu_fc
I0403 15:17:03.655302  2908 net.cpp:425] loss2/relu_fc <- loss2/fc
I0403 15:17:03.655323  2908 net.cpp:386] loss2/relu_fc -> loss2/fc (in-place)
I0403 15:17:03.655625  2908 net.cpp:141] Setting up loss2/relu_fc
I0403 15:17:03.655652  2908 net.cpp:148] Top shape: 24 1024 (24576)
I0403 15:17:03.655668  2908 net.cpp:156] Memory required for data: 1208319264
I0403 15:17:03.655684  2908 layer_factory.hpp:77] Creating layer loss2/drop_fc
I0403 15:17:03.655704  2908 net.cpp:91] Creating Layer loss2/drop_fc
I0403 15:17:03.655720  2908 net.cpp:425] loss2/drop_fc <- loss2/fc
I0403 15:17:03.655740  2908 net.cpp:386] loss2/drop_fc -> loss2/fc (in-place)
I0403 15:17:03.655789  2908 net.cpp:141] Setting up loss2/drop_fc
I0403 15:17:03.655815  2908 net.cpp:148] Top shape: 24 1024 (24576)
I0403 15:17:03.655830  2908 net.cpp:156] Memory required for data: 1208417568
I0403 15:17:03.655845  2908 layer_factory.hpp:77] Creating layer loss2/classifier_plantvillage
I0403 15:17:03.655864  2908 net.cpp:91] Creating Layer loss2/classifier_plantvillage
I0403 15:17:03.655879  2908 net.cpp:425] loss2/classifier_plantvillage <- loss2/fc
I0403 15:17:03.655900  2908 net.cpp:399] loss2/classifier_plantvillage -> loss2/classifier_plantvillage
I0403 15:17:03.656311  2908 net.cpp:141] Setting up loss2/classifier_plantvillage
I0403 15:17:03.656338  2908 net.cpp:148] Top shape: 24 38 (912)
I0403 15:17:03.656370  2908 net.cpp:156] Memory required for data: 1208421216
I0403 15:17:03.656390  2908 layer_factory.hpp:77] Creating layer loss2/classifier_plantvillage_loss2/classifier_plantvillage_0_split
I0403 15:17:03.656409  2908 net.cpp:91] Creating Layer loss2/classifier_plantvillage_loss2/classifier_plantvillage_0_split
I0403 15:17:03.656424  2908 net.cpp:425] loss2/classifier_plantvillage_loss2/classifier_plantvillage_0_split <- loss2/classifier_plantvillage
I0403 15:17:03.656443  2908 net.cpp:399] loss2/classifier_plantvillage_loss2/classifier_plantvillage_0_split -> loss2/classifier_plantvillage_loss2/classifier_plantvillage_0_split_0
I0403 15:17:03.656463  2908 net.cpp:399] loss2/classifier_plantvillage_loss2/classifier_plantvillage_0_split -> loss2/classifier_plantvillage_loss2/classifier_plantvillage_0_split_1
I0403 15:17:03.656486  2908 net.cpp:399] loss2/classifier_plantvillage_loss2/classifier_plantvillage_0_split -> loss2/classifier_plantvillage_loss2/classifier_plantvillage_0_split_2
I0403 15:17:03.656566  2908 net.cpp:141] Setting up loss2/classifier_plantvillage_loss2/classifier_plantvillage_0_split
I0403 15:17:03.656589  2908 net.cpp:148] Top shape: 24 38 (912)
I0403 15:17:03.656605  2908 net.cpp:148] Top shape: 24 38 (912)
I0403 15:17:03.656620  2908 net.cpp:148] Top shape: 24 38 (912)
I0403 15:17:03.656635  2908 net.cpp:156] Memory required for data: 1208432160
I0403 15:17:03.656649  2908 layer_factory.hpp:77] Creating layer inception_4e/1x1
I0403 15:17:03.656669  2908 net.cpp:91] Creating Layer inception_4e/1x1
I0403 15:17:03.656687  2908 net.cpp:425] inception_4e/1x1 <- inception_4d/output_inception_4d/output_0_split_1
I0403 15:17:03.656707  2908 net.cpp:399] inception_4e/1x1 -> inception_4e/1x1
I0403 15:17:03.658531  2908 net.cpp:141] Setting up inception_4e/1x1
I0403 15:17:03.658560  2908 net.cpp:148] Top shape: 24 256 14 14 (1204224)
I0403 15:17:03.658577  2908 net.cpp:156] Memory required for data: 1213249056
I0403 15:17:03.658596  2908 layer_factory.hpp:77] Creating layer inception_4e/relu_1x1
I0403 15:17:03.658618  2908 net.cpp:91] Creating Layer inception_4e/relu_1x1
I0403 15:17:03.658638  2908 net.cpp:425] inception_4e/relu_1x1 <- inception_4e/1x1
I0403 15:17:03.658655  2908 net.cpp:386] inception_4e/relu_1x1 -> inception_4e/1x1 (in-place)
I0403 15:17:03.658952  2908 net.cpp:141] Setting up inception_4e/relu_1x1
I0403 15:17:03.658978  2908 net.cpp:148] Top shape: 24 256 14 14 (1204224)
I0403 15:17:03.658993  2908 net.cpp:156] Memory required for data: 1218065952
I0403 15:17:03.659008  2908 layer_factory.hpp:77] Creating layer inception_4e/3x3_reduce
I0403 15:17:03.659032  2908 net.cpp:91] Creating Layer inception_4e/3x3_reduce
I0403 15:17:03.659049  2908 net.cpp:425] inception_4e/3x3_reduce <- inception_4d/output_inception_4d/output_0_split_2
I0403 15:17:03.659070  2908 net.cpp:399] inception_4e/3x3_reduce -> inception_4e/3x3_reduce
I0403 15:17:03.661196  2908 net.cpp:141] Setting up inception_4e/3x3_reduce
I0403 15:17:03.661229  2908 net.cpp:148] Top shape: 24 160 14 14 (752640)
I0403 15:17:03.661247  2908 net.cpp:156] Memory required for data: 1221076512
I0403 15:17:03.661267  2908 layer_factory.hpp:77] Creating layer inception_4e/relu_3x3_reduce
I0403 15:17:03.661288  2908 net.cpp:91] Creating Layer inception_4e/relu_3x3_reduce
I0403 15:17:03.661305  2908 net.cpp:425] inception_4e/relu_3x3_reduce <- inception_4e/3x3_reduce
I0403 15:17:03.661324  2908 net.cpp:386] inception_4e/relu_3x3_reduce -> inception_4e/3x3_reduce (in-place)
I0403 15:17:03.661512  2908 net.cpp:141] Setting up inception_4e/relu_3x3_reduce
I0403 15:17:03.661540  2908 net.cpp:148] Top shape: 24 160 14 14 (752640)
I0403 15:17:03.661555  2908 net.cpp:156] Memory required for data: 1224087072
I0403 15:17:03.661569  2908 layer_factory.hpp:77] Creating layer inception_4e/3x3
I0403 15:17:03.661592  2908 net.cpp:91] Creating Layer inception_4e/3x3
I0403 15:17:03.661608  2908 net.cpp:425] inception_4e/3x3 <- inception_4e/3x3_reduce
I0403 15:17:03.661628  2908 net.cpp:399] inception_4e/3x3 -> inception_4e/3x3
I0403 15:17:03.666656  2908 net.cpp:141] Setting up inception_4e/3x3
I0403 15:17:03.666699  2908 net.cpp:148] Top shape: 24 320 14 14 (1505280)
I0403 15:17:03.666718  2908 net.cpp:156] Memory required for data: 1230108192
I0403 15:17:03.666736  2908 layer_factory.hpp:77] Creating layer inception_4e/relu_3x3
I0403 15:17:03.666754  2908 net.cpp:91] Creating Layer inception_4e/relu_3x3
I0403 15:17:03.666770  2908 net.cpp:425] inception_4e/relu_3x3 <- inception_4e/3x3
I0403 15:17:03.666791  2908 net.cpp:386] inception_4e/relu_3x3 -> inception_4e/3x3 (in-place)
I0403 15:17:03.667093  2908 net.cpp:141] Setting up inception_4e/relu_3x3
I0403 15:17:03.667121  2908 net.cpp:148] Top shape: 24 320 14 14 (1505280)
I0403 15:17:03.667137  2908 net.cpp:156] Memory required for data: 1236129312
I0403 15:17:03.667152  2908 layer_factory.hpp:77] Creating layer inception_4e/5x5_reduce
I0403 15:17:03.667176  2908 net.cpp:91] Creating Layer inception_4e/5x5_reduce
I0403 15:17:03.667193  2908 net.cpp:425] inception_4e/5x5_reduce <- inception_4d/output_inception_4d/output_0_split_3
I0403 15:17:03.667218  2908 net.cpp:399] inception_4e/5x5_reduce -> inception_4e/5x5_reduce
I0403 15:17:03.668321  2908 net.cpp:141] Setting up inception_4e/5x5_reduce
I0403 15:17:03.668354  2908 net.cpp:148] Top shape: 24 32 14 14 (150528)
I0403 15:17:03.668370  2908 net.cpp:156] Memory required for data: 1236731424
I0403 15:17:03.668391  2908 layer_factory.hpp:77] Creating layer inception_4e/relu_5x5_reduce
I0403 15:17:03.668411  2908 net.cpp:91] Creating Layer inception_4e/relu_5x5_reduce
I0403 15:17:03.668429  2908 net.cpp:425] inception_4e/relu_5x5_reduce <- inception_4e/5x5_reduce
I0403 15:17:03.668447  2908 net.cpp:386] inception_4e/relu_5x5_reduce -> inception_4e/5x5_reduce (in-place)
I0403 15:17:03.668758  2908 net.cpp:141] Setting up inception_4e/relu_5x5_reduce
I0403 15:17:03.668784  2908 net.cpp:148] Top shape: 24 32 14 14 (150528)
I0403 15:17:03.668799  2908 net.cpp:156] Memory required for data: 1237333536
I0403 15:17:03.668814  2908 layer_factory.hpp:77] Creating layer inception_4e/5x5
I0403 15:17:03.668853  2908 net.cpp:91] Creating Layer inception_4e/5x5
I0403 15:17:03.668871  2908 net.cpp:425] inception_4e/5x5 <- inception_4e/5x5_reduce
I0403 15:17:03.668894  2908 net.cpp:399] inception_4e/5x5 -> inception_4e/5x5
I0403 15:17:03.670825  2908 net.cpp:141] Setting up inception_4e/5x5
I0403 15:17:03.670855  2908 net.cpp:148] Top shape: 24 128 14 14 (602112)
I0403 15:17:03.670871  2908 net.cpp:156] Memory required for data: 1239741984
I0403 15:17:03.670891  2908 layer_factory.hpp:77] Creating layer inception_4e/relu_5x5
I0403 15:17:03.670912  2908 net.cpp:91] Creating Layer inception_4e/relu_5x5
I0403 15:17:03.670931  2908 net.cpp:425] inception_4e/relu_5x5 <- inception_4e/5x5
I0403 15:17:03.670949  2908 net.cpp:386] inception_4e/relu_5x5 -> inception_4e/5x5 (in-place)
I0403 15:17:03.671154  2908 net.cpp:141] Setting up inception_4e/relu_5x5
I0403 15:17:03.671180  2908 net.cpp:148] Top shape: 24 128 14 14 (602112)
I0403 15:17:03.671195  2908 net.cpp:156] Memory required for data: 1242150432
I0403 15:17:03.671214  2908 layer_factory.hpp:77] Creating layer inception_4e/pool
I0403 15:17:03.671237  2908 net.cpp:91] Creating Layer inception_4e/pool
I0403 15:17:03.671254  2908 net.cpp:425] inception_4e/pool <- inception_4d/output_inception_4d/output_0_split_4
I0403 15:17:03.671273  2908 net.cpp:399] inception_4e/pool -> inception_4e/pool
I0403 15:17:03.671350  2908 net.cpp:141] Setting up inception_4e/pool
I0403 15:17:03.671375  2908 net.cpp:148] Top shape: 24 528 14 14 (2483712)
I0403 15:17:03.671391  2908 net.cpp:156] Memory required for data: 1252085280
I0403 15:17:03.671406  2908 layer_factory.hpp:77] Creating layer inception_4e/pool_proj
I0403 15:17:03.671428  2908 net.cpp:91] Creating Layer inception_4e/pool_proj
I0403 15:17:03.671447  2908 net.cpp:425] inception_4e/pool_proj <- inception_4e/pool
I0403 15:17:03.671468  2908 net.cpp:399] inception_4e/pool_proj -> inception_4e/pool_proj
I0403 15:17:03.673027  2908 net.cpp:141] Setting up inception_4e/pool_proj
I0403 15:17:03.673070  2908 net.cpp:148] Top shape: 24 128 14 14 (602112)
I0403 15:17:03.673089  2908 net.cpp:156] Memory required for data: 1254493728
I0403 15:17:03.673110  2908 layer_factory.hpp:77] Creating layer inception_4e/relu_pool_proj
I0403 15:17:03.673128  2908 net.cpp:91] Creating Layer inception_4e/relu_pool_proj
I0403 15:17:03.673146  2908 net.cpp:425] inception_4e/relu_pool_proj <- inception_4e/pool_proj
I0403 15:17:03.673167  2908 net.cpp:386] inception_4e/relu_pool_proj -> inception_4e/pool_proj (in-place)
I0403 15:17:03.673485  2908 net.cpp:141] Setting up inception_4e/relu_pool_proj
I0403 15:17:03.673512  2908 net.cpp:148] Top shape: 24 128 14 14 (602112)
I0403 15:17:03.673529  2908 net.cpp:156] Memory required for data: 1256902176
I0403 15:17:03.673544  2908 layer_factory.hpp:77] Creating layer inception_4e/output
I0403 15:17:03.673563  2908 net.cpp:91] Creating Layer inception_4e/output
I0403 15:17:03.673579  2908 net.cpp:425] inception_4e/output <- inception_4e/1x1
I0403 15:17:03.673598  2908 net.cpp:425] inception_4e/output <- inception_4e/3x3
I0403 15:17:03.673614  2908 net.cpp:425] inception_4e/output <- inception_4e/5x5
I0403 15:17:03.673630  2908 net.cpp:425] inception_4e/output <- inception_4e/pool_proj
I0403 15:17:03.673650  2908 net.cpp:399] inception_4e/output -> inception_4e/output
I0403 15:17:03.673702  2908 net.cpp:141] Setting up inception_4e/output
I0403 15:17:03.673728  2908 net.cpp:148] Top shape: 24 832 14 14 (3913728)
I0403 15:17:03.673744  2908 net.cpp:156] Memory required for data: 1272557088
I0403 15:17:03.673760  2908 layer_factory.hpp:77] Creating layer pool4/3x3_s2
I0403 15:17:03.673779  2908 net.cpp:91] Creating Layer pool4/3x3_s2
I0403 15:17:03.673794  2908 net.cpp:425] pool4/3x3_s2 <- inception_4e/output
I0403 15:17:03.673813  2908 net.cpp:399] pool4/3x3_s2 -> pool4/3x3_s2
I0403 15:17:03.673909  2908 net.cpp:141] Setting up pool4/3x3_s2
I0403 15:17:03.673934  2908 net.cpp:148] Top shape: 24 832 7 7 (978432)
I0403 15:17:03.673950  2908 net.cpp:156] Memory required for data: 1276470816
I0403 15:17:03.673965  2908 layer_factory.hpp:77] Creating layer pool4/3x3_s2_pool4/3x3_s2_0_split
I0403 15:17:03.673986  2908 net.cpp:91] Creating Layer pool4/3x3_s2_pool4/3x3_s2_0_split
I0403 15:17:03.674003  2908 net.cpp:425] pool4/3x3_s2_pool4/3x3_s2_0_split <- pool4/3x3_s2
I0403 15:17:03.674021  2908 net.cpp:399] pool4/3x3_s2_pool4/3x3_s2_0_split -> pool4/3x3_s2_pool4/3x3_s2_0_split_0
I0403 15:17:03.674042  2908 net.cpp:399] pool4/3x3_s2_pool4/3x3_s2_0_split -> pool4/3x3_s2_pool4/3x3_s2_0_split_1
I0403 15:17:03.674062  2908 net.cpp:399] pool4/3x3_s2_pool4/3x3_s2_0_split -> pool4/3x3_s2_pool4/3x3_s2_0_split_2
I0403 15:17:03.674088  2908 net.cpp:399] pool4/3x3_s2_pool4/3x3_s2_0_split -> pool4/3x3_s2_pool4/3x3_s2_0_split_3
I0403 15:17:03.674183  2908 net.cpp:141] Setting up pool4/3x3_s2_pool4/3x3_s2_0_split
I0403 15:17:03.674211  2908 net.cpp:148] Top shape: 24 832 7 7 (978432)
I0403 15:17:03.674231  2908 net.cpp:148] Top shape: 24 832 7 7 (978432)
I0403 15:17:03.674247  2908 net.cpp:148] Top shape: 24 832 7 7 (978432)
I0403 15:17:03.674263  2908 net.cpp:148] Top shape: 24 832 7 7 (978432)
I0403 15:17:03.674278  2908 net.cpp:156] Memory required for data: 1292125728
I0403 15:17:03.674293  2908 layer_factory.hpp:77] Creating layer inception_5a/1x1
I0403 15:17:03.674316  2908 net.cpp:91] Creating Layer inception_5a/1x1
I0403 15:17:03.674335  2908 net.cpp:425] inception_5a/1x1 <- pool4/3x3_s2_pool4/3x3_s2_0_split_0
I0403 15:17:03.674356  2908 net.cpp:399] inception_5a/1x1 -> inception_5a/1x1
I0403 15:17:03.677314  2908 net.cpp:141] Setting up inception_5a/1x1
I0403 15:17:03.677345  2908 net.cpp:148] Top shape: 24 256 7 7 (301056)
I0403 15:17:03.677362  2908 net.cpp:156] Memory required for data: 1293329952
I0403 15:17:03.677384  2908 layer_factory.hpp:77] Creating layer inception_5a/relu_1x1
I0403 15:17:03.677407  2908 net.cpp:91] Creating Layer inception_5a/relu_1x1
I0403 15:17:03.677426  2908 net.cpp:425] inception_5a/relu_1x1 <- inception_5a/1x1
I0403 15:17:03.677448  2908 net.cpp:386] inception_5a/relu_1x1 -> inception_5a/1x1 (in-place)
I0403 15:17:03.677774  2908 net.cpp:141] Setting up inception_5a/relu_1x1
I0403 15:17:03.677803  2908 net.cpp:148] Top shape: 24 256 7 7 (301056)
I0403 15:17:03.677819  2908 net.cpp:156] Memory required for data: 1294534176
I0403 15:17:03.677834  2908 layer_factory.hpp:77] Creating layer inception_5a/3x3_reduce
I0403 15:17:03.677858  2908 net.cpp:91] Creating Layer inception_5a/3x3_reduce
I0403 15:17:03.677876  2908 net.cpp:425] inception_5a/3x3_reduce <- pool4/3x3_s2_pool4/3x3_s2_0_split_1
I0403 15:17:03.677899  2908 net.cpp:399] inception_5a/3x3_reduce -> inception_5a/3x3_reduce
I0403 15:17:03.680449  2908 net.cpp:141] Setting up inception_5a/3x3_reduce
I0403 15:17:03.680480  2908 net.cpp:148] Top shape: 24 160 7 7 (188160)
I0403 15:17:03.680497  2908 net.cpp:156] Memory required for data: 1295286816
I0403 15:17:03.680517  2908 layer_factory.hpp:77] Creating layer inception_5a/relu_3x3_reduce
I0403 15:17:03.680538  2908 net.cpp:91] Creating Layer inception_5a/relu_3x3_reduce
I0403 15:17:03.680557  2908 net.cpp:425] inception_5a/relu_3x3_reduce <- inception_5a/3x3_reduce
I0403 15:17:03.680578  2908 net.cpp:386] inception_5a/relu_3x3_reduce -> inception_5a/3x3_reduce (in-place)
I0403 15:17:03.680774  2908 net.cpp:141] Setting up inception_5a/relu_3x3_reduce
I0403 15:17:03.680802  2908 net.cpp:148] Top shape: 24 160 7 7 (188160)
I0403 15:17:03.680819  2908 net.cpp:156] Memory required for data: 1296039456
I0403 15:17:03.680835  2908 layer_factory.hpp:77] Creating layer inception_5a/3x3
I0403 15:17:03.680857  2908 net.cpp:91] Creating Layer inception_5a/3x3
I0403 15:17:03.680877  2908 net.cpp:425] inception_5a/3x3 <- inception_5a/3x3_reduce
I0403 15:17:03.680902  2908 net.cpp:399] inception_5a/3x3 -> inception_5a/3x3
I0403 15:17:03.686125  2908 net.cpp:141] Setting up inception_5a/3x3
I0403 15:17:03.686169  2908 net.cpp:148] Top shape: 24 320 7 7 (376320)
I0403 15:17:03.686192  2908 net.cpp:156] Memory required for data: 1297544736
I0403 15:17:03.686216  2908 layer_factory.hpp:77] Creating layer inception_5a/relu_3x3
I0403 15:17:03.686239  2908 net.cpp:91] Creating Layer inception_5a/relu_3x3
I0403 15:17:03.686256  2908 net.cpp:425] inception_5a/relu_3x3 <- inception_5a/3x3
I0403 15:17:03.686275  2908 net.cpp:386] inception_5a/relu_3x3 -> inception_5a/3x3 (in-place)
I0403 15:17:03.686579  2908 net.cpp:141] Setting up inception_5a/relu_3x3
I0403 15:17:03.686606  2908 net.cpp:148] Top shape: 24 320 7 7 (376320)
I0403 15:17:03.686622  2908 net.cpp:156] Memory required for data: 1299050016
I0403 15:17:03.686638  2908 layer_factory.hpp:77] Creating layer inception_5a/5x5_reduce
I0403 15:17:03.686661  2908 net.cpp:91] Creating Layer inception_5a/5x5_reduce
I0403 15:17:03.686681  2908 net.cpp:425] inception_5a/5x5_reduce <- pool4/3x3_s2_pool4/3x3_s2_0_split_2
I0403 15:17:03.686703  2908 net.cpp:399] inception_5a/5x5_reduce -> inception_5a/5x5_reduce
I0403 15:17:03.687958  2908 net.cpp:141] Setting up inception_5a/5x5_reduce
I0403 15:17:03.687990  2908 net.cpp:148] Top shape: 24 32 7 7 (37632)
I0403 15:17:03.688009  2908 net.cpp:156] Memory required for data: 1299200544
I0403 15:17:03.688029  2908 layer_factory.hpp:77] Creating layer inception_5a/relu_5x5_reduce
I0403 15:17:03.688046  2908 net.cpp:91] Creating Layer inception_5a/relu_5x5_reduce
I0403 15:17:03.688066  2908 net.cpp:425] inception_5a/relu_5x5_reduce <- inception_5a/5x5_reduce
I0403 15:17:03.688082  2908 net.cpp:386] inception_5a/relu_5x5_reduce -> inception_5a/5x5_reduce (in-place)
I0403 15:17:03.688397  2908 net.cpp:141] Setting up inception_5a/relu_5x5_reduce
I0403 15:17:03.688426  2908 net.cpp:148] Top shape: 24 32 7 7 (37632)
I0403 15:17:03.688444  2908 net.cpp:156] Memory required for data: 1299351072
I0403 15:17:03.688459  2908 layer_factory.hpp:77] Creating layer inception_5a/5x5
I0403 15:17:03.688484  2908 net.cpp:91] Creating Layer inception_5a/5x5
I0403 15:17:03.688503  2908 net.cpp:425] inception_5a/5x5 <- inception_5a/5x5_reduce
I0403 15:17:03.688525  2908 net.cpp:399] inception_5a/5x5 -> inception_5a/5x5
I0403 15:17:03.690312  2908 net.cpp:141] Setting up inception_5a/5x5
I0403 15:17:03.690356  2908 net.cpp:148] Top shape: 24 128 7 7 (150528)
I0403 15:17:03.690374  2908 net.cpp:156] Memory required for data: 1299953184
I0403 15:17:03.690394  2908 layer_factory.hpp:77] Creating layer inception_5a/relu_5x5
I0403 15:17:03.690417  2908 net.cpp:91] Creating Layer inception_5a/relu_5x5
I0403 15:17:03.690438  2908 net.cpp:425] inception_5a/relu_5x5 <- inception_5a/5x5
I0403 15:17:03.690456  2908 net.cpp:386] inception_5a/relu_5x5 -> inception_5a/5x5 (in-place)
I0403 15:17:03.690654  2908 net.cpp:141] Setting up inception_5a/relu_5x5
I0403 15:17:03.690682  2908 net.cpp:148] Top shape: 24 128 7 7 (150528)
I0403 15:17:03.690698  2908 net.cpp:156] Memory required for data: 1300555296
I0403 15:17:03.690714  2908 layer_factory.hpp:77] Creating layer inception_5a/pool
I0403 15:17:03.690732  2908 net.cpp:91] Creating Layer inception_5a/pool
I0403 15:17:03.690750  2908 net.cpp:425] inception_5a/pool <- pool4/3x3_s2_pool4/3x3_s2_0_split_3
I0403 15:17:03.690769  2908 net.cpp:399] inception_5a/pool -> inception_5a/pool
I0403 15:17:03.690845  2908 net.cpp:141] Setting up inception_5a/pool
I0403 15:17:03.690870  2908 net.cpp:148] Top shape: 24 832 7 7 (978432)
I0403 15:17:03.690884  2908 net.cpp:156] Memory required for data: 1304469024
I0403 15:17:03.690899  2908 layer_factory.hpp:77] Creating layer inception_5a/pool_proj
I0403 15:17:03.690922  2908 net.cpp:91] Creating Layer inception_5a/pool_proj
I0403 15:17:03.690940  2908 net.cpp:425] inception_5a/pool_proj <- inception_5a/pool
I0403 15:17:03.690963  2908 net.cpp:399] inception_5a/pool_proj -> inception_5a/pool_proj
I0403 15:17:03.693352  2908 net.cpp:141] Setting up inception_5a/pool_proj
I0403 15:17:03.693387  2908 net.cpp:148] Top shape: 24 128 7 7 (150528)
I0403 15:17:03.693404  2908 net.cpp:156] Memory required for data: 1305071136
I0403 15:17:03.693425  2908 layer_factory.hpp:77] Creating layer inception_5a/relu_pool_proj
I0403 15:17:03.693449  2908 net.cpp:91] Creating Layer inception_5a/relu_pool_proj
I0403 15:17:03.693467  2908 net.cpp:425] inception_5a/relu_pool_proj <- inception_5a/pool_proj
I0403 15:17:03.693485  2908 net.cpp:386] inception_5a/relu_pool_proj -> inception_5a/pool_proj (in-place)
I0403 15:17:03.693791  2908 net.cpp:141] Setting up inception_5a/relu_pool_proj
I0403 15:17:03.693819  2908 net.cpp:148] Top shape: 24 128 7 7 (150528)
I0403 15:17:03.693836  2908 net.cpp:156] Memory required for data: 1305673248
I0403 15:17:03.693852  2908 layer_factory.hpp:77] Creating layer inception_5a/output
I0403 15:17:03.693871  2908 net.cpp:91] Creating Layer inception_5a/output
I0403 15:17:03.693887  2908 net.cpp:425] inception_5a/output <- inception_5a/1x1
I0403 15:17:03.693904  2908 net.cpp:425] inception_5a/output <- inception_5a/3x3
I0403 15:17:03.693920  2908 net.cpp:425] inception_5a/output <- inception_5a/5x5
I0403 15:17:03.693936  2908 net.cpp:425] inception_5a/output <- inception_5a/pool_proj
I0403 15:17:03.693956  2908 net.cpp:399] inception_5a/output -> inception_5a/output
I0403 15:17:03.694010  2908 net.cpp:141] Setting up inception_5a/output
I0403 15:17:03.694036  2908 net.cpp:148] Top shape: 24 832 7 7 (978432)
I0403 15:17:03.694053  2908 net.cpp:156] Memory required for data: 1309586976
I0403 15:17:03.694067  2908 layer_factory.hpp:77] Creating layer inception_5a/output_inception_5a/output_0_split
I0403 15:17:03.694085  2908 net.cpp:91] Creating Layer inception_5a/output_inception_5a/output_0_split
I0403 15:17:03.694102  2908 net.cpp:425] inception_5a/output_inception_5a/output_0_split <- inception_5a/output
I0403 15:17:03.694123  2908 net.cpp:399] inception_5a/output_inception_5a/output_0_split -> inception_5a/output_inception_5a/output_0_split_0
I0403 15:17:03.694146  2908 net.cpp:399] inception_5a/output_inception_5a/output_0_split -> inception_5a/output_inception_5a/output_0_split_1
I0403 15:17:03.694167  2908 net.cpp:399] inception_5a/output_inception_5a/output_0_split -> inception_5a/output_inception_5a/output_0_split_2
I0403 15:17:03.694190  2908 net.cpp:399] inception_5a/output_inception_5a/output_0_split -> inception_5a/output_inception_5a/output_0_split_3
I0403 15:17:03.694310  2908 net.cpp:141] Setting up inception_5a/output_inception_5a/output_0_split
I0403 15:17:03.694334  2908 net.cpp:148] Top shape: 24 832 7 7 (978432)
I0403 15:17:03.694351  2908 net.cpp:148] Top shape: 24 832 7 7 (978432)
I0403 15:17:03.694368  2908 net.cpp:148] Top shape: 24 832 7 7 (978432)
I0403 15:17:03.694385  2908 net.cpp:148] Top shape: 24 832 7 7 (978432)
I0403 15:17:03.694398  2908 net.cpp:156] Memory required for data: 1325241888
I0403 15:17:03.694413  2908 layer_factory.hpp:77] Creating layer inception_5b/1x1
I0403 15:17:03.694435  2908 net.cpp:91] Creating Layer inception_5b/1x1
I0403 15:17:03.694453  2908 net.cpp:425] inception_5b/1x1 <- inception_5a/output_inception_5a/output_0_split_0
I0403 15:17:03.694475  2908 net.cpp:399] inception_5b/1x1 -> inception_5b/1x1
I0403 15:17:03.698390  2908 net.cpp:141] Setting up inception_5b/1x1
I0403 15:17:03.698422  2908 net.cpp:148] Top shape: 24 384 7 7 (451584)
I0403 15:17:03.698441  2908 net.cpp:156] Memory required for data: 1327048224
I0403 15:17:03.698462  2908 layer_factory.hpp:77] Creating layer inception_5b/relu_1x1
I0403 15:17:03.698480  2908 net.cpp:91] Creating Layer inception_5b/relu_1x1
I0403 15:17:03.698498  2908 net.cpp:425] inception_5b/relu_1x1 <- inception_5b/1x1
I0403 15:17:03.698519  2908 net.cpp:386] inception_5b/relu_1x1 -> inception_5b/1x1 (in-place)
I0403 15:17:03.698843  2908 net.cpp:141] Setting up inception_5b/relu_1x1
I0403 15:17:03.698871  2908 net.cpp:148] Top shape: 24 384 7 7 (451584)
I0403 15:17:03.698889  2908 net.cpp:156] Memory required for data: 1328854560
I0403 15:17:03.698904  2908 layer_factory.hpp:77] Creating layer inception_5b/3x3_reduce
I0403 15:17:03.698928  2908 net.cpp:91] Creating Layer inception_5b/3x3_reduce
I0403 15:17:03.698946  2908 net.cpp:425] inception_5b/3x3_reduce <- inception_5a/output_inception_5a/output_0_split_1
I0403 15:17:03.698971  2908 net.cpp:399] inception_5b/3x3_reduce -> inception_5b/3x3_reduce
I0403 15:17:03.701732  2908 net.cpp:141] Setting up inception_5b/3x3_reduce
I0403 15:17:03.701764  2908 net.cpp:148] Top shape: 24 192 7 7 (225792)
I0403 15:17:03.701782  2908 net.cpp:156] Memory required for data: 1329757728
I0403 15:17:03.701802  2908 layer_factory.hpp:77] Creating layer inception_5b/relu_3x3_reduce
I0403 15:17:03.701819  2908 net.cpp:91] Creating Layer inception_5b/relu_3x3_reduce
I0403 15:17:03.701838  2908 net.cpp:425] inception_5b/relu_3x3_reduce <- inception_5b/3x3_reduce
I0403 15:17:03.701859  2908 net.cpp:386] inception_5b/relu_3x3_reduce -> inception_5b/3x3_reduce (in-place)
I0403 15:17:03.702057  2908 net.cpp:141] Setting up inception_5b/relu_3x3_reduce
I0403 15:17:03.702082  2908 net.cpp:148] Top shape: 24 192 7 7 (225792)
I0403 15:17:03.702098  2908 net.cpp:156] Memory required for data: 1330660896
I0403 15:17:03.702113  2908 layer_factory.hpp:77] Creating layer inception_5b/3x3
I0403 15:17:03.702136  2908 net.cpp:91] Creating Layer inception_5b/3x3
I0403 15:17:03.702155  2908 net.cpp:425] inception_5b/3x3 <- inception_5b/3x3_reduce
I0403 15:17:03.702178  2908 net.cpp:399] inception_5b/3x3 -> inception_5b/3x3
I0403 15:17:03.709130  2908 net.cpp:141] Setting up inception_5b/3x3
I0403 15:17:03.709161  2908 net.cpp:148] Top shape: 24 384 7 7 (451584)
I0403 15:17:03.709177  2908 net.cpp:156] Memory required for data: 1332467232
I0403 15:17:03.709198  2908 layer_factory.hpp:77] Creating layer inception_5b/relu_3x3
I0403 15:17:03.709228  2908 net.cpp:91] Creating Layer inception_5b/relu_3x3
I0403 15:17:03.709249  2908 net.cpp:425] inception_5b/relu_3x3 <- inception_5b/3x3
I0403 15:17:03.709269  2908 net.cpp:386] inception_5b/relu_3x3 -> inception_5b/3x3 (in-place)
I0403 15:17:03.709576  2908 net.cpp:141] Setting up inception_5b/relu_3x3
I0403 15:17:03.709605  2908 net.cpp:148] Top shape: 24 384 7 7 (451584)
I0403 15:17:03.709621  2908 net.cpp:156] Memory required for data: 1334273568
I0403 15:17:03.709638  2908 layer_factory.hpp:77] Creating layer inception_5b/5x5_reduce
I0403 15:17:03.709681  2908 net.cpp:91] Creating Layer inception_5b/5x5_reduce
I0403 15:17:03.709702  2908 net.cpp:425] inception_5b/5x5_reduce <- inception_5a/output_inception_5a/output_0_split_2
I0403 15:17:03.709725  2908 net.cpp:399] inception_5b/5x5_reduce -> inception_5b/5x5_reduce
I0403 15:17:03.711071  2908 net.cpp:141] Setting up inception_5b/5x5_reduce
I0403 15:17:03.711102  2908 net.cpp:148] Top shape: 24 48 7 7 (56448)
I0403 15:17:03.711118  2908 net.cpp:156] Memory required for data: 1334499360
I0403 15:17:03.711138  2908 layer_factory.hpp:77] Creating layer inception_5b/relu_5x5_reduce
I0403 15:17:03.711158  2908 net.cpp:91] Creating Layer inception_5b/relu_5x5_reduce
I0403 15:17:03.711174  2908 net.cpp:425] inception_5b/relu_5x5_reduce <- inception_5b/5x5_reduce
I0403 15:17:03.711195  2908 net.cpp:386] inception_5b/relu_5x5_reduce -> inception_5b/5x5_reduce (in-place)
I0403 15:17:03.711594  2908 net.cpp:141] Setting up inception_5b/relu_5x5_reduce
I0403 15:17:03.711622  2908 net.cpp:148] Top shape: 24 48 7 7 (56448)
I0403 15:17:03.711640  2908 net.cpp:156] Memory required for data: 1334725152
I0403 15:17:03.711657  2908 layer_factory.hpp:77] Creating layer inception_5b/5x5
I0403 15:17:03.711678  2908 net.cpp:91] Creating Layer inception_5b/5x5
I0403 15:17:03.711695  2908 net.cpp:425] inception_5b/5x5 <- inception_5b/5x5_reduce
I0403 15:17:03.711714  2908 net.cpp:399] inception_5b/5x5 -> inception_5b/5x5
I0403 15:17:03.713876  2908 net.cpp:141] Setting up inception_5b/5x5
I0403 15:17:03.713906  2908 net.cpp:148] Top shape: 24 128 7 7 (150528)
I0403 15:17:03.713922  2908 net.cpp:156] Memory required for data: 1335327264
I0403 15:17:03.713940  2908 layer_factory.hpp:77] Creating layer inception_5b/relu_5x5
I0403 15:17:03.713961  2908 net.cpp:91] Creating Layer inception_5b/relu_5x5
I0403 15:17:03.713979  2908 net.cpp:425] inception_5b/relu_5x5 <- inception_5b/5x5
I0403 15:17:03.713995  2908 net.cpp:386] inception_5b/relu_5x5 -> inception_5b/5x5 (in-place)
I0403 15:17:03.714193  2908 net.cpp:141] Setting up inception_5b/relu_5x5
I0403 15:17:03.714223  2908 net.cpp:148] Top shape: 24 128 7 7 (150528)
I0403 15:17:03.714239  2908 net.cpp:156] Memory required for data: 1335929376
I0403 15:17:03.714254  2908 layer_factory.hpp:77] Creating layer inception_5b/pool
I0403 15:17:03.714274  2908 net.cpp:91] Creating Layer inception_5b/pool
I0403 15:17:03.714292  2908 net.cpp:425] inception_5b/pool <- inception_5a/output_inception_5a/output_0_split_3
I0403 15:17:03.714313  2908 net.cpp:399] inception_5b/pool -> inception_5b/pool
I0403 15:17:03.714387  2908 net.cpp:141] Setting up inception_5b/pool
I0403 15:17:03.714411  2908 net.cpp:148] Top shape: 24 832 7 7 (978432)
I0403 15:17:03.714426  2908 net.cpp:156] Memory required for data: 1339843104
I0403 15:17:03.714440  2908 layer_factory.hpp:77] Creating layer inception_5b/pool_proj
I0403 15:17:03.714462  2908 net.cpp:91] Creating Layer inception_5b/pool_proj
I0403 15:17:03.714480  2908 net.cpp:425] inception_5b/pool_proj <- inception_5b/pool
I0403 15:17:03.714501  2908 net.cpp:399] inception_5b/pool_proj -> inception_5b/pool_proj
I0403 15:17:03.716831  2908 net.cpp:141] Setting up inception_5b/pool_proj
I0403 15:17:03.716863  2908 net.cpp:148] Top shape: 24 128 7 7 (150528)
I0403 15:17:03.716881  2908 net.cpp:156] Memory required for data: 1340445216
I0403 15:17:03.716899  2908 layer_factory.hpp:77] Creating layer inception_5b/relu_pool_proj
I0403 15:17:03.716918  2908 net.cpp:91] Creating Layer inception_5b/relu_pool_proj
I0403 15:17:03.716934  2908 net.cpp:425] inception_5b/relu_pool_proj <- inception_5b/pool_proj
I0403 15:17:03.716954  2908 net.cpp:386] inception_5b/relu_pool_proj -> inception_5b/pool_proj (in-place)
I0403 15:17:03.717293  2908 net.cpp:141] Setting up inception_5b/relu_pool_proj
I0403 15:17:03.717321  2908 net.cpp:148] Top shape: 24 128 7 7 (150528)
I0403 15:17:03.717336  2908 net.cpp:156] Memory required for data: 1341047328
I0403 15:17:03.717352  2908 layer_factory.hpp:77] Creating layer inception_5b/output
I0403 15:17:03.717370  2908 net.cpp:91] Creating Layer inception_5b/output
I0403 15:17:03.717401  2908 net.cpp:425] inception_5b/output <- inception_5b/1x1
I0403 15:17:03.717420  2908 net.cpp:425] inception_5b/output <- inception_5b/3x3
I0403 15:17:03.717443  2908 net.cpp:425] inception_5b/output <- inception_5b/5x5
I0403 15:17:03.717463  2908 net.cpp:425] inception_5b/output <- inception_5b/pool_proj
I0403 15:17:03.717483  2908 net.cpp:399] inception_5b/output -> inception_5b/output
I0403 15:17:03.717537  2908 net.cpp:141] Setting up inception_5b/output
I0403 15:17:03.717574  2908 net.cpp:148] Top shape: 24 1024 7 7 (1204224)
I0403 15:17:03.717591  2908 net.cpp:156] Memory required for data: 1345864224
I0403 15:17:03.717605  2908 layer_factory.hpp:77] Creating layer pool5/7x7_s1
I0403 15:17:03.717623  2908 net.cpp:91] Creating Layer pool5/7x7_s1
I0403 15:17:03.717640  2908 net.cpp:425] pool5/7x7_s1 <- inception_5b/output
I0403 15:17:03.717661  2908 net.cpp:399] pool5/7x7_s1 -> pool5/7x7_s1
I0403 15:17:03.717912  2908 net.cpp:141] Setting up pool5/7x7_s1
I0403 15:17:03.717938  2908 net.cpp:148] Top shape: 24 1024 1 1 (24576)
I0403 15:17:03.717957  2908 net.cpp:156] Memory required for data: 1345962528
I0403 15:17:03.717974  2908 layer_factory.hpp:77] Creating layer pool5/drop_7x7_s1
I0403 15:17:03.717993  2908 net.cpp:91] Creating Layer pool5/drop_7x7_s1
I0403 15:17:03.718009  2908 net.cpp:425] pool5/drop_7x7_s1 <- pool5/7x7_s1
I0403 15:17:03.718029  2908 net.cpp:386] pool5/drop_7x7_s1 -> pool5/7x7_s1 (in-place)
I0403 15:17:03.718087  2908 net.cpp:141] Setting up pool5/drop_7x7_s1
I0403 15:17:03.718111  2908 net.cpp:148] Top shape: 24 1024 1 1 (24576)
I0403 15:17:03.718127  2908 net.cpp:156] Memory required for data: 1346060832
I0403 15:17:03.718143  2908 layer_factory.hpp:77] Creating layer loss3/classifier_plantvillage
I0403 15:17:03.718163  2908 net.cpp:91] Creating Layer loss3/classifier_plantvillage
I0403 15:17:03.718179  2908 net.cpp:425] loss3/classifier_plantvillage <- pool5/7x7_s1
I0403 15:17:03.718201  2908 net.cpp:399] loss3/classifier_plantvillage -> loss3/classifier_plantvillage
I0403 15:17:03.718659  2908 net.cpp:141] Setting up loss3/classifier_plantvillage
I0403 15:17:03.718684  2908 net.cpp:148] Top shape: 24 38 (912)
I0403 15:17:03.718699  2908 net.cpp:156] Memory required for data: 1346064480
I0403 15:17:03.718719  2908 layer_factory.hpp:77] Creating layer loss3/classifier_plantvillage_loss3/classifier_plantvillage_0_split
I0403 15:17:03.718739  2908 net.cpp:91] Creating Layer loss3/classifier_plantvillage_loss3/classifier_plantvillage_0_split
I0403 15:17:03.718757  2908 net.cpp:425] loss3/classifier_plantvillage_loss3/classifier_plantvillage_0_split <- loss3/classifier_plantvillage
I0403 15:17:03.718777  2908 net.cpp:399] loss3/classifier_plantvillage_loss3/classifier_plantvillage_0_split -> loss3/classifier_plantvillage_loss3/classifier_plantvillage_0_split_0
I0403 15:17:03.718799  2908 net.cpp:399] loss3/classifier_plantvillage_loss3/classifier_plantvillage_0_split -> loss3/classifier_plantvillage_loss3/classifier_plantvillage_0_split_1
I0403 15:17:03.718821  2908 net.cpp:399] loss3/classifier_plantvillage_loss3/classifier_plantvillage_0_split -> loss3/classifier_plantvillage_loss3/classifier_plantvillage_0_split_2
I0403 15:17:03.718840  2908 net.cpp:399] loss3/classifier_plantvillage_loss3/classifier_plantvillage_0_split -> loss3/classifier_plantvillage_loss3/classifier_plantvillage_0_split_3
I0403 15:17:03.718945  2908 net.cpp:141] Setting up loss3/classifier_plantvillage_loss3/classifier_plantvillage_0_split
I0403 15:17:03.718969  2908 net.cpp:148] Top shape: 24 38 (912)
I0403 15:17:03.718986  2908 net.cpp:148] Top shape: 24 38 (912)
I0403 15:17:03.719002  2908 net.cpp:148] Top shape: 24 38 (912)
I0403 15:17:03.719017  2908 net.cpp:148] Top shape: 24 38 (912)
I0403 15:17:03.719030  2908 net.cpp:156] Memory required for data: 1346079072
I0403 15:17:03.719044  2908 layer_factory.hpp:77] Creating layer loss1/loss
I0403 15:17:03.719066  2908 net.cpp:91] Creating Layer loss1/loss
I0403 15:17:03.719084  2908 net.cpp:425] loss1/loss <- loss1/classifier_plantvillage_loss1/classifier_plantvillage_0_split_0
I0403 15:17:03.719115  2908 net.cpp:425] loss1/loss <- label_data_1_split_0
…
