…
I0403 15:25:29.593094  3074 net.cpp:313] The NetState phase (1) differed from the phase (0) specified by a rule in layer data
I0403 15:25:29.594391  3074 net.cpp:49] Initializing net from parameters: 
state {
  phase: TEST
}
layer {
  name: "data"
  type: "Data"
  top: "data"
  top: "label"
  include {
    phase: TEST
  }
  transform_param {
    mirror: false
    crop_size: 224
    mean_file: "/home/mohanty/data/final_dataset/lmdb/segmented-60-40/mean.binaryproto"
  }
  data_param {
    source: "/home/mohanty/data/final_dataset/lmdb/segmented-60-40/test_db"
    batch_size: 24
    backend: LMDB
  }
}
layer {
  name: "conv1/7x7_s2"
  type: "Convolution"
  bottom: "data"
  top: "conv1/7x7_s2"
  param {
    lr_mult: 1
    decay_mult: 1
  }
  param {
    lr_mult: 2
    decay_mult: 0
  }
  convolution_param {
    num_output: 64
    pad: 3
    kernel_size: 7
    stride: 2
    weight_filler {
      type: "xavier"
      std: 0.1
    }
    bias_filler {
      type: "constant"
      value: 0.2
    }
  }
}
layer {
  name: "conv1/relu_7x7"
  type: "ReLU"
  bottom: "conv1/7x7_s2"
  top: "conv1/7x7_s2"
}
layer {
  name: "pool1/3x3_s2"
  type: "Pooling"
  bottom: "conv1/7x7_s2"
  top: "pool1/3x3_s2"
  pooling_param {
    pool: MAX
    kernel_size: 3
    stride: 2
  }
}
layer {
  name: "pool1/norm1"
  type: "LRN"
  bottom: "pool1/3x3_s2"
  top: "pool1/norm1"
  lrn_param {
    local_size: 5
    alpha: 0.0001
    beta: 0.75
  }
}
layer {
  name: "conv2/3x3_reduce"
  type: "Convolution"
  bottom: "pool1/norm1"
  top: "conv2/3x3_reduce"
  param {
    lr_mult: 1
    decay_mult: 1
  }
  param {
    lr_mult: 2
    decay_mult: 0
  }
  convolution_param {
    num_output: 64
    kernel_size: 1
    weight_filler {
      type: "xavier"
      std: 0.1
    }
    bias_filler {
      type: "constant"
      value: 0.2
    }
  }
}
layer {
  name: "conv2/relu_3x3_reduce"
  type: "ReLU"
  bottom: "conv2/3x3_reduce"
  top: "conv2/3x3_reduce"
}
layer {
  name: "conv2/3x3"
  type: "Convolution"
  bottom: "conv2/3x3_reduce"
  top: "conv2/3x3"
  param {
    lr_mult: 1
    decay_mult: 1
  }
  param {
    lr_mult: 2
    decay_mult: 0
  }
  convolution_param {
    num_output: 192
    pad: 1
    kernel_size: 3
    weight_filler {
      type: "xavier"
      std: 0.03
    }
    bias_filler {
      type: "constant"
      value: 0.2
    }
  }
}
layer {
  name: "conv2/relu_3x3"
  type: "ReLU"
  bottom: "conv2/3x3"
  top: "conv2/3x3"
}
layer {
  name: "conv2/norm2"
  type: "LRN"
  bottom: "conv2/3x3"
  top: "conv2/norm2"
  lrn_param {
    local_size: 5
    alpha: 0.0001
    beta: 0.75
  }
}
layer {
  name: "pool2/3x3_s2"
  type: "Pooling"
  bottom: "conv2/norm2"
  top: "pool2/3x3_s2"
  pooling_param {
    pool: MAX
    kernel_size: 3
    stride: 2
  }
}
layer {
  name: "inception_3a/1x1"
  type: "Convolution"
  bottom: "pool2/3x3_s2"
  top: "inception_3a/1x1"
  param {
    lr_mult: 1
    decay_mult: 1
  }
  param {
    lr_mult: 2
    decay_mult: 0
  }
  convolution_param {
    num_output: 64
    kernel_size: 1
    weight_filler {
      type: "xavier"
      std: 0.03
    }
    bias_filler {
      type: "constant"
      value: 0.2
    }
  }
}
layer {
  name: "inception_3a/relu_1x1"
  type: "ReLU"
  bottom: "inception_3a/1x1"
  top: "inception_3a/1x1"
}
layer {
  name: "inception_3a/3x3_reduce"
  type: "Convolution"
  bottom: "pool2/3x3_s2"
  top: "inception_3a/3x3_reduce"
  param {
    lr_mult: 1
    decay_mult: 1
  }
  param {
    lr_mult: 2
    decay_mult: 0
  }
  convolution_param {
    num_output: 96
    kernel_size: 1
    weight_filler {
      type: "xavier"
      std: 0.09
    }
    bias_filler {
      type: "constant"
      value: 0.2
    }
  }
}
layer {
  name: "inception_3a/relu_3x3_reduce"
  type: "ReLU"
  bottom: "inception_3a/3x3_reduce"
  top: "inception_3a/3x3_reduce"
}
layer {
  name: "inception_3a/3x3"
  type: "Convolution"
  bottom: "inception_3a/3x3_reduce"
  top: "inception_3a/3x3"
  param {
    lr_mult: 1
    decay_mult: 1
  }
  param {
    lr_mult: 2
    decay_mult: 0
  }
  convolution_param {
    num_output: 128
    pad: 1
    kernel_size: 3
    weight_filler {
      type: "xavier"
      std: 0.03
    }
    bias_filler {
      type: "constant"
      value: 0.2
    }
  }
}
layer {
  name: "inception_3a/relu_3x3"
  type: "ReLU"
  bottom: "inception_3a/3x3"
  top: "inception_3a/3x3"
}
layer {
  name: "inception_3a/5x5_reduce"
  type: "Convolution"
  bottom: "pool2/3x3_s2"
  top: "inception_3a/5x5_reduce"
  param {
    lr_mult: 1
    decay_mult: 1
  }
  param {
    lr_mult: 2
    decay_mult: 0
  }
  convolution_param {
    num_output: 16
    kernel_size: 1
    weight_filler {
      type: "xavier"
      std: 0.2
    }
    bias_filler {
      type: "constant"
      value: 0.2
    }
  }
}
layer {
  name: "inception_3a/relu_5x5_reduce"
  type: "ReLU"
  bottom: "inception_3a/5x5_reduce"
  top: "inception_3a/5x5_reduce"
}
layer {
  name: "inception_3a/5x5"
  type: "Convolution"
  bottom: "inception_3a/5x5_reduce"
  top: "inception_3a/5x5"
  param {
    lr_mult: 1
    decay_mult: 1
  }
  param {
    lr_mult: 2
    decay_mult: 0
  }
  convolution_param {
    num_output: 32
    pad: 2
    kernel_size: 5
    weight_filler {
      type: "xavier"
      std: 0.03
    }
    bias_filler {
      type: "constant"
      value: 0.2
    }
  }
}
layer {
  name: "inception_3a/relu_5x5"
  type: "ReLU"
  bottom: "inception_3a/5x5"
  top: "inception_3a/5x5"
}
layer {
  name: "inception_3a/pool"
  type: "Pooling"
  bottom: "pool2/3x3_s2"
  top: "inception_3a/pool"
  pooling_param {
    pool: MAX
    kernel_size: 3
    stride: 1
    pad: 1
  }
}
layer {
  name: "inception_3a/pool_proj"
  type: "Convolution"
  bottom: "inception_3a/pool"
  top: "inception_3a/pool_proj"
  param {
    lr_mult: 1
    decay_mult: 1
  }
  param {
    lr_mult: 2
    decay_mult: 0
  }
  convolution_param {
    num_output: 32
    kernel_size: 1
    weight_filler {
      type: "xavier"
      std: 0.1
    }
    bias_filler {
      type: "constant"
      value: 0.2
    }
  }
}
layer {
  name: "inception_3a/relu_pool_proj"
  type: "ReLU"
  bottom: "inception_3a/pool_proj"
  top: "inception_3a/pool_proj"
}
layer {
  name: "inception_3a/output"
  type: "Concat"
  bottom: "inception_3a/1x1"
  bottom: "inception_3a/3x3"
  bottom: "inception_3a/5x5"
  bottom: "inception_3a/pool_proj"
  top: "inception_3a/output"
}
layer {
  name: "inception_3b/1x1"
  type: "Convolution"
  bottom: "inception_3a/output"
  top: "inception_3b/1x1"
  param {
    lr_mult: 1
    decay_mult: 1
  }
  param {
    lr_mult: 2
    decay_mult: 0
  }
  convolution_param {
    num_output: 128
    kernel_size: 1
    weight_filler {
      type: "xavier"
      std: 0.03
    }
    bias_filler {
      type: "constant"
      value: 0.2
    }
  }
}
layer {
  name: "inception_3b/relu_1x1"
  type: "ReLU"
  bottom: "inception_3b/1x1"
  top: "inception_3b/1x1"
}
layer {
  name: "inception_3b/3x3_reduce"
  type: "Convolution"
  bottom: "inception_3a/output"
  top: "inception_3b/3x3_reduce"
  param {
    lr_mult: 1
    decay_mult: 1
  }
  param {
    lr_mult: 2
    decay_mult: 0
  }
  convolution_param {
    num_output: 128
    kernel_size: 1
    weight_filler {
      type: "xavier"
      std: 0.09
    }
    bias_filler {
      type: "constant"
      value: 0.2
    }
  }
}
layer {
  name: "inception_3b/relu_3x3_reduce"
  type: "ReLU"
  bottom: "inception_3b/3x3_reduce"
  top: "inception_3b/3x3_reduce"
}
layer {
  name: "inception_3b/3x3"
  type: "Convolution"
  bottom: "inception_3b/3x3_reduce"
  top: "inception_3b/3x3"
  param {
    lr_mult: 1
    decay_mult: 1
  }
  param {
    lr_mult: 2
    decay_mult: 0
  }
  convolution_param {
    num_output: 192
    pad: 1
    kernel_size: 3
    weight_filler {
      type: "xavier"
      std: 0.03
    }
    bias_filler {
      type: "constant"
      value: 0.2
    }
  }
}
layer {
  name: "inception_3b/relu_3x3"
  type: "ReLU"
  bottom: "inception_3b/3x3"
  top: "inception_3b/3x3"
}
layer {
  name: "inception_3b/5x5_reduce"
  type: "Convolution"
  bottom: "inception_3a/output"
  top: "inception_3b/5x5_reduce"
  param {
    lr_mult: 1
    decay_mult: 1
  }
  param {
    lr_mult: 2
    decay_mult: 0
  }
  convolution_param {
    num_output: 32
    kernel_size: 1
    weight_filler {
      type: "xavier"
      std: 0.2
    }
    bias_filler {
      type: "constant"
      value: 0.2
    }
  }
}
layer {
  name: "inception_3b/relu_5x5_reduce"
  type: "ReLU"
  bottom: "inception_3b/5x5_reduce"
  top: "inception_3b/5x5_reduce"
}
layer {
  name: "inception_3b/5x5"
  type: "Convolution"
  bottom: "inception_3b/5x5_reduce"
  top: "inception_3b/5x5"
  param {
    lr_mult: 1
    decay_mult: 1
  }
  param {
    lr_mult: 2
    decay_mult: 0
  }
  convolution_param {
    num_output: 96
    pad: 2
    kernel_size: 5
    weight_filler {
      type: "xavier"
      std: 0.03
    }
    bias_filler {
      type: "constant"
      value: 0.2
    }
  }
}
layer {
  name: "inception_3b/relu_5x5"
  type: "ReLU"
  bottom: "inception_3b/5x5"
  top: "inception_3b/5x5"
}
layer {
  name: "inception_3b/pool"
  type: "Pooling"
  bottom: "inception_3a/output"
  top: "inception_3b/pool"
  pooling_param {
    pool: MAX
    kernel_size: 3
    stride: 1
    pad: 1
  }
}
layer {
  name: "inception_3b/pool_proj"
  type: "Convolution"
  bottom: "inception_3b/pool"
  top: "inception_3b/pool_proj"
  param {
    lr_mult: 1
    decay_mult: 1
  }
  param {
    lr_mult: 2
    decay_mult: 0
  }
  convolution_param {
    num_output: 64
    kernel_size: 1
    weight_filler {
      type: "xavier"
      std: 0.1
    }
    bias_filler {
      type: "constant"
      value: 0.2
    }
  }
}
layer {
  name: "inception_3b/relu_pool_proj"
  type: "ReLU"
  bottom: "inception_3b/pool_proj"
  top: "inception_3b/pool_proj"
}
layer {
  name: "inception_3b/output"
  type: "Concat"
  bottom: "inception_3b/1x1"
  bottom: "inception_3b/3x3"
  bottom: "inception_3b/5x5"
  bottom: "inception_3b/pool_proj"
  top: "inception_3b/output"
}
layer {
  name: "pool3/3x3_s2"
  type: "Pooling"
  bottom: "inception_3b/output"
  top: "pool3/3x3_s2"
  pooling_param {
    pool: MAX
    kernel_size: 3
    stride: 2
  }
}
layer {
  name: "inception_4a/1x1"
  type: "Convolution"
  bottom: "pool3/3x3_s2"
  top: "inception_4a/1x1"
  param {
    lr_mult: 1
    decay_mult: 1
  }
  param {
    lr_mult: 2
    decay_mult: 0
  }
  convolution_param {
    num_output: 192
    kernel_size: 1
    weight_filler {
      type: "xavier"
      std: 0.03
    }
    bias_filler {
      type: "constant"
      value: 0.2
    }
  }
}
layer {
  name: "inception_4a/relu_1x1"
  type: "ReLU"
  bottom: "inception_4a/1x1"
  top: "inception_4a/1x1"
}
layer {
  name: "inception_4a/3x3_reduce"
  type: "Convolution"
  bottom: "pool3/3x3_s2"
  top: "inception_4a/3x3_reduce"
  param {
    lr_mult: 1
    decay_mult: 1
  }
  param {
    lr_mult: 2
    decay_mult: 0
  }
  convolution_param {
    num_output: 96
    kernel_size: 1
    weight_filler {
      type: "xavier"
      std: 0.09
    }
    bias_filler {
      type: "constant"
      value: 0.2
    }
  }
}
layer {
  name: "inception_4a/relu_3x3_reduce"
  type: "ReLU"
  bottom: "inception_4a/3x3_reduce"
  top: "inception_4a/3x3_reduce"
}
layer {
  name: "inception_4a/3x3"
  type: "Convolution"
  bottom: "inception_4a/3x3_reduce"
  top: "inception_4a/3x3"
  param {
    lr_mult: 1
    decay_mult: 1
  }
  param {
    lr_mult: 2
    decay_mult: 0
  }
  convolution_param {
    num_output: 208
    pad: 1
    kernel_size: 3
    weight_filler {
      type: "xavier"
      std: 0.03
    }
    bias_filler {
      type: "constant"
      value: 0.2
    }
  }
}
layer {
  name: "inception_4a/relu_3x3"
  type: "ReLU"
  bottom: "inception_4a/3x3"
  top: "inception_4a/3x3"
}
layer {
  name: "inception_4a/5x5_reduce"
  type: "Convolution"
  bottom: "pool3/3x3_s2"
  top: "inception_4a/5x5_reduce"
  param {
    lr_mult: 1
    decay_mult: 1
  }
  param {
    lr_mult: 2
    decay_mult: 0
  }
  convolution_param {
    num_output: 16
    kernel_size: 1
    weight_filler {
      type: "xavier"
      std: 0.2
    }
    bias_filler {
      type: "constant"
      value: 0.2
    }
  }
}
layer {
  name: "inception_4a/relu_5x5_reduce"
  type: "ReLU"
  bottom: "inception_4a/5x5_reduce"
  top: "inception_4a/5x5_reduce"
}
layer {
  name: "inception_4a/5x5"
  type: "Convolution"
  bottom: "inception_4a/5x5_reduce"
  top: "inception_4a/5x5"
  param {
    lr_mult: 1
    decay_mult: 1
  }
  param {
    lr_mult: 2
    decay_mult: 0
  }
  convolution_param {
    num_output: 48
    pad: 2
    kernel_size: 5
    weight_filler {
      type: "xavier"
      std: 0.03
    }
    bias_filler {
      type: "constant"
      value: 0.2
    }
  }
}
layer {
  name: "inception_4a/relu_5x5"
  type: "ReLU"
  bottom: "inception_4a/5x5"
  top: "inception_4a/5x5"
}
layer {
  name: "inception_4a/pool"
  type: "Pooling"
  bottom: "pool3/3x3_s2"
  top: "inception_4a/pool"
  pooling_param {
    pool: MAX
    kernel_size: 3
    stride: 1
    pad: 1
  }
}
layer {
  name: "inception_4a/pool_proj"
  type: "Convolution"
  bottom: "inception_4a/pool"
  top: "inception_4a/pool_proj"
  param {
    lr_mult: 1
    decay_mult: 1
  }
  param {
    lr_mult: 2
    decay_mult: 0
  }
  convolution_param {
    num_output: 64
    kernel_size: 1
    weight_filler {
      type: "xavier"
      std: 0.1
    }
    bias_filler {
      type: "constant"
      value: 0.2
    }
  }
}
layer {
  name: "inception_4a/relu_pool_proj"
  type: "ReLU"
  bottom: "inception_4a/pool_proj"
  top: "inception_4a/pool_proj"
}
layer {
  name: "inception_4a/output"
  type: "Concat"
  bottom: "inception_4a/1x1"
  bottom: "inception_4a/3x3"
  bottom: "inception_4a/5x5"
  bottom: "inception_4a/pool_proj"
  top: "inception_4a/output"
}
layer {
  name: "loss1/ave_pool"
  type: "Pooling"
  bottom: "inception_4a/output"
  top: "loss1/ave_pool"
  pooling_param {
    pool: AVE
    kernel_size: 5
    stride: 3
  }
}
layer {
  name: "loss1/conv"
  type: "Convolution"
  bottom: "loss1/ave_pool"
  top: "loss1/conv"
  param {
    lr_mult: 1
    decay_mult: 1
  }
  param {
    lr_mult: 2
    decay_mult: 0
  }
  convolution_param {
    num_output: 128
    kernel_size: 1
    weight_filler {
      type: "xavier"
      std: 0.08
    }
    bias_filler {
      type: "constant"
      value: 0.2
    }
  }
}
layer {
  name: "loss1/relu_conv"
  type: "ReLU"
  bottom: "loss1/conv"
  top: "loss1/conv"
}
layer {
  name: "loss1/fc"
  type: "InnerProduct"
  bottom: "loss1/conv"
  top: "loss1/fc"
  param {
    lr_mult: 1
    decay_mult: 1
  }
  param {
    lr_mult: 2
    decay_mult: 0
  }
  inner_product_param {
    num_output: 1024
    weight_filler {
      type: "xavier"
      std: 0.02
    }
    bias_filler {
      type: "constant"
      value: 0.2
    }
  }
}
layer {
  name: "loss1/relu_fc"
  type: "ReLU"
  bottom: "loss1/fc"
  top: "loss1/fc"
}
layer {
  name: "loss1/drop_fc"
  type: "Dropout"
  bottom: "loss1/fc"
  top: "loss1/fc"
  dropout_param {
    dropout_ratio: 0.7
  }
}
layer {
  name: "loss1/classifier_plantvillage"
  type: "InnerProduct"
  bottom: "loss1/fc"
  top: "loss1/classifier_plantvillage"
  param {
    lr_mult: 1
    decay_mult: 1
  }
  param {
    lr_mult: 2
    decay_mult: 0
  }
  inner_product_param {
    num_output: 38
    weight_filler {
      type: "xavier"
      std: 0.0009765625
    }
    bias_filler {
      type: "constant"
      value: 0
    }
  }
}
layer {
  name: "inception_4b/1x1"
  type: "Convolution"
  bottom: "inception_4a/output"
  top: "inception_4b/1x1"
  param {
    lr_mult: 1
    decay_mult: 1
  }
  param {
    lr_mult: 2
    decay_mult: 0
  }
  convolution_param {
    num_output: 160
    kernel_size: 1
    weight_filler {
      type: "xavier"
      std: 0.03
    }
    bias_filler {
      type: "constant"
      value: 0.2
    }
  }
}
layer {
  name: "inception_4b/relu_1x1"
  type: "ReLU"
  bottom: "inception_4b/1x1"
  top: "inception_4b/1x1"
}
layer {
  name: "inception_4b/3x3_reduce"
  type: "Convolution"
  bottom: "inception_4a/output"
  top: "inception_4b/3x3_reduce"
  param {
    lr_mult: 1
    decay_mult: 1
  }
  param {
    lr_mult: 2
    decay_mult: 0
  }
  convolution_param {
    num_output: 112
    kernel_size: 1
    weight_filler {
      type: "xavier"
      std: 0.09
    }
    bias_filler {
      type: "constant"
      value: 0.2
    }
  }
}
layer {
  name: "inception_4b/relu_3x3_reduce"
  type: "ReLU"
  bottom: "inception_4b/3x3_reduce"
  top: "inception_4b/3x3_reduce"
}
layer {
  name: "inception_4b/3x3"
  type: "Convolution"
  bottom: "inception_4b/3x3_reduce"
  top: "inception_4b/3x3"
  param {
    lr_mult: 1
    decay_mult: 1
  }
  param {
    lr_mult: 2
    decay_mult: 0
  }
  convolution_param {
    num_output: 224
    pad: 1
    kernel_size: 3
    weight_filler {
      type: "xavier"
      std: 0.03
    }
    bias_filler {
      type: "constant"
      value: 0.2
    }
  }
}
layer {
  name: "inception_4b/relu_3x3"
  type: "ReLU"
  bottom: "inception_4b/3x3"
  top: "inception_4b/3x3"
}
layer {
  name: "inception_4b/5x5_reduce"
  type: "Convolution"
  bottom: "inception_4a/output"
  top: "inception_4b/5x5_reduce"
  param {
    lr_mult: 1
    decay_mult: 1
  }
  param {
    lr_mult: 2
    decay_mult: 0
  }
  convolution_param {
    num_output: 24
    kernel_size: 1
    weight_filler {
      type: "xavier"
      std: 0.2
    }
    bias_filler {
      type: "constant"
      value: 0.2
    }
  }
}
layer {
  name: "inception_4b/relu_5x5_reduce"
  type: "ReLU"
  bottom: "inception_4b/5x5_reduce"
  top: "inception_4b/5x5_reduce"
}
layer {
  name: "inception_4b/5x5"
  type: "Convolution"
  bottom: "inception_4b/5x5_reduce"
  top: "inception_4b/5x5"
  param {
    lr_mult: 1
    decay_mult: 1
  }
  param {
    lr_mult: 2
    decay_mult: 0
  }
  convolution_param {
    num_output: 64
    pad: 2
    kernel_size: 5
    weight_filler {
      type: "xavier"
      std: 0.03
    }
    bias_filler {
      type: "constant"
      value: 0.2
    }
  }
}
layer {
  name: "inception_4b/relu_5x5"
  type: "ReLU"
  bottom: "inception_4b/5x5"
  top: "inception_4b/5x5"
}
layer {
  name: "inception_4b/pool"
  type: "Pooling"
  bottom: "inception_4a/output"
  top: "inception_4b/pool"
  pooling_param {
    pool: MAX
    kernel_size: 3
    stride: 1
    pad: 1
  }
}
layer {
  name: "inception_4b/pool_proj"
  type: "Convolution"
  bottom: "inception_4b/pool"
  top: "inception_4b/pool_proj"
  param {
    lr_mult: 1
    decay_mult: 1
  }
  param {
    lr_mult: 2
    decay_mult: 0
  }
  convolution_param {
    num_output: 64
    kernel_size: 1
    weight_filler {
      type: "xavier"
      std: 0.1
    }
    bias_filler {
      type: "constant"
      value: 0.2
    }
  }
}
layer {
  name: "inception_4b/relu_pool_proj"
  type: "ReLU"
  bottom: "inception_4b/pool_proj"
  top: "inception_4b/pool_proj"
}
layer {
  name: "inception_4b/output"
  type: "Concat"
  bottom: "inception_4b/1x1"
  bottom: "inception_4b/3x3"
  bottom: "inception_4b/5x5"
  bottom: "inception_4b/pool_proj"
  top: "inception_4b/output"
}
layer {
  name: "inception_4c/1x1"
  type: "Convolution"
  bottom: "inception_4b/output"
  top: "inception_4c/1x1"
  param {
    lr_mult: 1
    decay_mult: 1
  }
  param {
    lr_mult: 2
    decay_mult: 0
  }
  convolution_param {
    num_output: 128
    kernel_size: 1
    weight_filler {
      type: "xavier"
      std: 0.03
    }
    bias_filler {
      type: "constant"
      value: 0.2
    }
  }
}
layer {
  name: "inception_4c/relu_1x1"
  type: "ReLU"
  bottom: "inception_4c/1x1"
  top: "inception_4c/1x1"
}
layer {
  name: "inception_4c/3x3_reduce"
  type: "Convolution"
  bottom: "inception_4b/output"
  top: "inception_4c/3x3_reduce"
  param {
    lr_mult: 1
    decay_mult: 1
  }
  param {
    lr_mult: 2
    decay_mult: 0
  }
  convolution_param {
    num_output: 128
    kernel_size: 1
    weight_filler {
      type: "xavier"
      std: 0.09
    }
    bias_filler {
      type: "constant"
      value: 0.2
    }
  }
}
layer {
  name: "inception_4c/relu_3x3_reduce"
  type: "ReLU"
  bottom: "inception_4c/3x3_reduce"
  top: "inception_4c/3x3_reduce"
}
layer {
  name: "inception_4c/3x3"
  type: "Convolution"
  bottom: "inception_4c/3x3_reduce"
  top: "inception_4c/3x3"
  param {
    lr_mult: 1
    decay_mult: 1
  }
  param {
    lr_mult: 2
    decay_mult: 0
  }
  convolution_param {
    num_output: 256
    pad: 1
    kernel_size: 3
    weight_filler {
      type: "xavier"
      std: 0.03
    }
    bias_filler {
      type: "constant"
      value: 0.2
    }
  }
}
layer {
  name: "inception_4c/relu_3x3"
  type: "ReLU"
  bottom: "inception_4c/3x3"
  top: "inception_4c/3x3"
}
layer {
  name: "inception_4c/5x5_reduce"
  type: "Convolution"
  bottom: "inception_4b/output"
  top: "inception_4c/5x5_reduce"
  param {
    lr_mult: 1
    decay_mult: 1
  }
  param {
    lr_mult: 2
    decay_mult: 0
  }
  convolution_param {
    num_output: 24
    kernel_size: 1
    weight_filler {
      type: "xavier"
      std: 0.2
    }
    bias_filler {
      type: "constant"
      value: 0.2
    }
  }
}
layer {
  name: "inception_4c/relu_5x5_reduce"
  type: "ReLU"
  bottom: "inception_4c/5x5_reduce"
  top: "inception_4c/5x5_reduce"
}
layer {
  name: "inception_4c/5x5"
  type: "Convolution"
  bottom: "inception_4c/5x5_reduce"
  top: "inception_4c/5x5"
  param {
    lr_mult: 1
    decay_mult: 1
  }
  param {
    lr_mult: 2
    decay_mult: 0
  }
  convolution_param {
    num_output: 64
    pad: 2
    kernel_size: 5
    weight_filler {
      type: "xavier"
      std: 0.03
    }
    bias_filler {
      type: "constant"
      value: 0.2
    }
  }
}
layer {
  name: "inception_4c/relu_5x5"
  type: "ReLU"
  bottom: "inception_4c/5x5"
  top: "inception_4c/5x5"
}
layer {
  name: "inception_4c/pool"
  type: "Pooling"
  bottom: "inception_4b/output"
  top: "inception_4c/pool"
  pooling_param {
    pool: MAX
    kernel_size: 3
    stride: 1
    pad: 1
  }
}
layer {
  name: "inception_4c/pool_proj"
  type: "Convolution"
  bottom: "inception_4c/pool"
  top: "inception_4c/pool_proj"
  param {
    lr_mult: 1
    decay_mult: 1
  }
  param {
    lr_mult: 2
    decay_mult: 0
  }
  convolution_param {
    num_output: 64
    kernel_size: 1
    weight_filler {
      type: "xavier"
      std: 0.1
    }
    bias_filler {
      type: "constant"
      value: 0.2
    }
  }
}
layer {
  name: "inception_4c/relu_pool_proj"
  type: "ReLU"
  bottom: "inception_4c/pool_proj"
  top: "inception_4c/pool_proj"
}
layer {
  name: "inception_4c/output"
  type: "Concat"
  bottom: "inception_4c/1x1"
  bottom: "inception_4c/3x3"
  bottom: "inception_4c/5x5"
  bottom: "inception_4c/pool_proj"
  top: "inception_4c/output"
}
layer {
  name: "inception_4d/1x1"
  type: "Convolution"
  bottom: "inception_4c/output"
  top: "inception_4d/1x1"
  param {
    lr_mult: 1
    decay_mult: 1
  }
  param {
    lr_mult: 2
    decay_mult: 0
  }
  convolution_param {
    num_output: 112
    kernel_size: 1
    weight_filler {
      type: "xavier"
      std: 0.03
    }
    bias_filler {
      type: "constant"
      value: 0.2
    }
  }
}
layer {
  name: "inception_4d/relu_1x1"
  type: "ReLU"
  bottom: "inception_4d/1x1"
  top: "inception_4d/1x1"
}
layer {
  name: "inception_4d/3x3_reduce"
  type: "Convolution"
  bottom: "inception_4c/output"
  top: "inception_4d/3x3_reduce"
  param {
    lr_mult: 1
    decay_mult: 1
  }
  param {
    lr_mult: 2
    decay_mult: 0
  }
  convolution_param {
    num_output: 144
    kernel_size: 1
    weight_filler {
      type: "xavier"
      std: 0.09
    }
    bias_filler {
      type: "constant"
      value: 0.2
    }
  }
}
layer {
  name: "inception_4d/relu_3x3_reduce"
  type: "ReLU"
  bottom: "inception_4d/3x3_reduce"
  top: "inception_4d/3x3_reduce"
}
layer {
  name: "inception_4d/3x3"
  type: "Convolution"
  bottom: "inception_4d/3x3_reduce"
  top: "inception_4d/3x3"
  param {
    lr_mult: 1
    decay_mult: 1
  }
  param {
    lr_mult: 2
    decay_mult: 0
  }
  convolution_param {
    num_output: 288
    pad: 1
    kernel_size: 3
    weight_filler {
      type: "xavier"
      std: 0.03
    }
    bias_filler {
      type: "constant"
      value: 0.2
    }
  }
}
layer {
  name: "inception_4d/relu_3x3"
  type: "ReLU"
  bottom: "inception_4d/3x3"
  top: "inception_4d/3x3"
}
layer {
  name: "inception_4d/5x5_reduce"
  type: "Convolution"
  bottom: "inception_4c/output"
  top: "inception_4d/5x5_reduce"
  param {
    lr_mult: 1
    decay_mult: 1
  }
  param {
    lr_mult: 2
    decay_mult: 0
  }
  convolution_param {
    num_output: 32
    kernel_size: 1
    weight_filler {
      type: "xavier"
      std: 0.2
    }
    bias_filler {
      type: "constant"
      value: 0.2
    }
  }
}
layer {
  name: "inception_4d/relu_5x5_reduce"
  type: "ReLU"
  bottom: "inception_4d/5x5_reduce"
  top: "inception_4d/5x5_reduce"
}
layer {
  name: "inception_4d/5x5"
  type: "Convolution"
  bottom: "inception_4d/5x5_reduce"
  top: "inception_4d/5x5"
  param {
    lr_mult: 1
    decay_mult: 1
  }
  param {
    lr_mult: 2
    decay_mult: 0
  }
  convolution_param {
    num_output: 64
    pad: 2
    kernel_size: 5
    weight_filler {
      type: "xavier"
      std: 0.03
    }
    bias_filler {
      type: "constant"
      value: 0.2
    }
  }
}
layer {
  name: "inception_4d/relu_5x5"
  type: "ReLU"
  bottom: "inception_4d/5x5"
  top: "inception_4d/5x5"
}
layer {
  name: "inception_4d/pool"
  type: "Pooling"
  bottom: "inception_4c/output"
  top: "inception_4d/pool"
  pooling_param {
    pool: MAX
    kernel_size: 3
    stride: 1
    pad: 1
  }
}
layer {
  name: "inception_4d/pool_proj"
  type: "Convolution"
  bottom: "inception_4d/pool"
  top: "inception_4d/pool_proj"
  param {
    lr_mult: 1
    decay_mult: 1
  }
  param {
    lr_mult: 2
    decay_mult: 0
  }
  convolution_param {
    num_output: 64
    kernel_size: 1
    weight_filler {
      type: "xavier"
      std: 0.1
    }
    bias_filler {
      type: "constant"
      value: 0.2
    }
  }
}
layer {
  name: "inception_4d/relu_pool_proj"
  type: "ReLU"
  bottom: "inception_4d/pool_proj"
  top: "inception_4d/pool_proj"
}
layer {
  name: "inception_4d/output"
  type: "Concat"
  bottom: "inception_4d/1x1"
  bottom: "inception_4d/3x3"
  bottom: "inception_4d/5x5"
  bottom: "inception_4d/pool_proj"
  top: "inception_4d/output"
}
layer {
  name: "loss2/ave_pool"
  type: "Pooling"
  bottom: "inception_4d/output"
  top: "loss2/ave_pool"
  pooling_param {
    pool: AVE
    kernel_size: 5
    stride: 3
  }
}
layer {
  name: "loss2/conv"
  type: "Convolution"
  bottom: "loss2/ave_pool"
  top: "loss2/conv"
  param {
    lr_mult: 1
    decay_mult: 1
  }
  param {
    lr_mult: 2
    decay_mult: 0
  }
  convolution_param {
    num_output: 128
    kernel_size: 1
    weight_filler {
      type: "xavier"
      std: 0.08
    }
    bias_filler {
      type: "constant"
      value: 0.2
    }
  }
}
layer {
  name: "loss2/relu_conv"
  type: "ReLU"
  bottom: "loss2/conv"
  top: "loss2/conv"
}
layer {
  name: "loss2/fc"
  type: "InnerProduct"
  bottom: "loss2/conv"
  top: "loss2/fc"
  param {
    lr_mult: 1
    decay_mult: 1
  }
  param {
    lr_mult: 2
    decay_mult: 0
  }
  inner_product_param {
    num_output: 1024
    weight_filler {
      type: "xavier"
      std: 0.02
    }
    bias_filler {
      type: "constant"
      value: 0.2
    }
  }
}
layer {
  name: "loss2/relu_fc"
  type: "ReLU"
  bottom: "loss2/fc"
  top: "loss2/fc"
}
layer {
  name: "loss2/drop_fc"
  type: "Dropout"
  bottom: "loss2/fc"
  top: "loss2/fc"
  dropout_param {
    dropout_ratio: 0.7
  }
}
layer {
  name: "loss2/classifier_plantvillage"
  type: "InnerProduct"
  bottom: "loss2/fc"
  top: "loss2/classifier_plantvillage"
  param {
    lr_mult: 1
    decay_mult: 1
  }
  param {
    lr_mult: 2
    decay_mult: 0
  }
  inner_product_param {
    num_output: 38
    weight_filler {
      type: "xavier"
      std: 0.0009765625
    }
    bias_filler {
      type: "constant"
      value: 0
    }
  }
}
layer {
  name: "inception_4e/1x1"
  type: "Convolution"
  bottom: "inception_4d/output"
  top: "inception_4e/1x1"
  param {
    lr_mult: 1
    decay_mult: 1
  }
  param {
    lr_mult: 2
    decay_mult: 0
  }
  convolution_param {
    num_output: 256
    kernel_size: 1
    weight_filler {
      type: "xavier"
      std: 0.03
    }
    bias_filler {
      type: "constant"
      value: 0.2
    }
  }
}
layer {
  name: "inception_4e/relu_1x1"
  type: "ReLU"
  bottom: "inception_4e/1x1"
  top: "inception_4e/1x1"
}
layer {
  name: "inception_4e/3x3_reduce"
  type: "Convolution"
  bottom: "inception_4d/output"
  top: "inception_4e/3x3_reduce"
  param {
    lr_mult: 1
    decay_mult: 1
  }
  param {
    lr_mult: 2
    decay_mult: 0
  }
  convolution_param {
    num_output: 160
    kernel_size: 1
    weight_filler {
      type: "xavier"
      std: 0.09
    }
    bias_filler {
      type: "constant"
      value: 0.2
    }
  }
}
layer {
  name: "inception_4e/relu_3x3_reduce"
  type: "ReLU"
  bottom: "inception_4e/3x3_reduce"
  top: "inception_4e/3x3_reduce"
}
layer {
  name: "inception_4e/3x3"
  type: "Convolution"
  bottom: "inception_4e/3x3_reduce"
  top: "inception_4e/3x3"
  param {
    lr_mult: 1
    decay_mult: 1
  }
  param {
    lr_mult: 2
    decay_mult: 0
  }
  convolution_param {
    num_output: 320
    pad: 1
    kernel_size: 3
    weight_filler {
      type: "xavier"
      std: 0.03
    }
    bias_filler {
      type: "constant"
      value: 0.2
    }
  }
}
layer {
  name: "inception_4e/relu_3x3"
  type: "ReLU"
  bottom: "inception_4e/3x3"
  top: "inception_4e/3x3"
}
layer {
  name: "inception_4e/5x5_reduce"
  type: "Convolution"
  bottom: "inception_4d/output"
  top: "inception_4e/5x5_reduce"
  param {
    lr_mult: 1
    decay_mult: 1
  }
  param {
    lr_mult: 2
    decay_mult: 0
  }
  convolution_param {
    num_output: 32
    kernel_size: 1
    weight_filler {
      type: "xavier"
      std: 0.2
    }
    bias_filler {
      type: "constant"
      value: 0.2
    }
  }
}
layer {
  name: "inception_4e/relu_5x5_reduce"
  type: "ReLU"
  bottom: "inception_4e/5x5_reduce"
  top: "inception_4e/5x5_reduce"
}
layer {
  name: "inception_4e/5x5"
  type: "Convolution"
  bottom: "inception_4e/5x5_reduce"
  top: "inception_4e/
I0403 15:25:29.595666  3074 layer_factory.hpp:77] Creating layer data
I0403 15:25:29.596282  3074 net.cpp:91] Creating Layer data
I0403 15:25:29.596312  3074 net.cpp:399] data -> data
I0403 15:25:29.596364  3074 net.cpp:399] data -> label
I0403 15:25:29.596401  3074 data_transformer.cpp:25] Loading mean file from: /home/mohanty/data/final_dataset/lmdb/segmented-60-40/mean.binaryproto
I0403 15:25:29.599608  3080 db_lmdb.cpp:38] Opened lmdb /home/mohanty/data/final_dataset/lmdb/segmented-60-40/test_db
I0403 15:25:29.609498  3074 data_layer.cpp:41] output data size: 24,3,224,224
I0403 15:25:29.639519  3074 net.cpp:141] Setting up data
I0403 15:25:29.639639  3074 net.cpp:148] Top shape: 24 3 224 224 (3612672)
I0403 15:25:29.639665  3074 net.cpp:148] Top shape: 24 (24)
I0403 15:25:29.639683  3074 net.cpp:156] Memory required for data: 14450784
I0403 15:25:29.639710  3074 layer_factory.hpp:77] Creating layer label_data_1_split
I0403 15:25:29.639740  3074 net.cpp:91] Creating Layer label_data_1_split
I0403 15:25:29.639761  3074 net.cpp:425] label_data_1_split <- label
I0403 15:25:29.639796  3074 net.cpp:399] label_data_1_split -> label_data_1_split_0
I0403 15:25:29.639825  3074 net.cpp:399] label_data_1_split -> label_data_1_split_1
I0403 15:25:29.639848  3074 net.cpp:399] label_data_1_split -> label_data_1_split_2
I0403 15:25:29.639871  3074 net.cpp:399] label_data_1_split -> label_data_1_split_3
I0403 15:25:29.639894  3074 net.cpp:399] label_data_1_split -> label_data_1_split_4
I0403 15:25:29.639915  3074 net.cpp:399] label_data_1_split -> label_data_1_split_5
I0403 15:25:29.639938  3074 net.cpp:399] label_data_1_split -> label_data_1_split_6
I0403 15:25:29.639961  3074 net.cpp:399] label_data_1_split -> label_data_1_split_7
I0403 15:25:29.639982  3074 net.cpp:399] label_data_1_split -> label_data_1_split_8
I0403 15:25:29.640003  3074 net.cpp:399] label_data_1_split -> label_data_1_split_9
I0403 15:25:29.640126  3074 net.cpp:141] Setting up label_data_1_split
I0403 15:25:29.640151  3074 net.cpp:148] Top shape: 24 (24)
I0403 15:25:29.640171  3074 net.cpp:148] Top shape: 24 (24)
I0403 15:25:29.640188  3074 net.cpp:148] Top shape: 24 (24)
I0403 15:25:29.640207  3074 net.cpp:148] Top shape: 24 (24)
I0403 15:25:29.640233  3074 net.cpp:148] Top shape: 24 (24)
I0403 15:25:29.640249  3074 net.cpp:148] Top shape: 24 (24)
I0403 15:25:29.640267  3074 net.cpp:148] Top shape: 24 (24)
I0403 15:25:29.640283  3074 net.cpp:148] Top shape: 24 (24)
I0403 15:25:29.640300  3074 net.cpp:148] Top shape: 24 (24)
I0403 15:25:29.640317  3074 net.cpp:148] Top shape: 24 (24)
I0403 15:25:29.640365  3074 net.cpp:156] Memory required for data: 14451744
I0403 15:25:29.640383  3074 layer_factory.hpp:77] Creating layer conv1/7x7_s2
I0403 15:25:29.640415  3074 net.cpp:91] Creating Layer conv1/7x7_s2
I0403 15:25:29.640435  3074 net.cpp:425] conv1/7x7_s2 <- data
I0403 15:25:29.640456  3074 net.cpp:399] conv1/7x7_s2 -> conv1/7x7_s2
I0403 15:25:29.787227  3074 net.cpp:141] Setting up conv1/7x7_s2
I0403 15:25:29.787293  3074 net.cpp:148] Top shape: 24 64 112 112 (19267584)
I0403 15:25:29.787312  3074 net.cpp:156] Memory required for data: 91522080
I0403 15:25:29.787343  3074 layer_factory.hpp:77] Creating layer conv1/relu_7x7
I0403 15:25:29.787369  3074 net.cpp:91] Creating Layer conv1/relu_7x7
I0403 15:25:29.787389  3074 net.cpp:425] conv1/relu_7x7 <- conv1/7x7_s2
I0403 15:25:29.787407  3074 net.cpp:386] conv1/relu_7x7 -> conv1/7x7_s2 (in-place)
I0403 15:25:29.787667  3074 net.cpp:141] Setting up conv1/relu_7x7
I0403 15:25:29.787695  3074 net.cpp:148] Top shape: 24 64 112 112 (19267584)
I0403 15:25:29.787713  3074 net.cpp:156] Memory required for data: 168592416
I0403 15:25:29.787729  3074 layer_factory.hpp:77] Creating layer pool1/3x3_s2
I0403 15:25:29.787753  3074 net.cpp:91] Creating Layer pool1/3x3_s2
I0403 15:25:29.787775  3074 net.cpp:425] pool1/3x3_s2 <- conv1/7x7_s2
I0403 15:25:29.787796  3074 net.cpp:399] pool1/3x3_s2 -> pool1/3x3_s2
I0403 15:25:29.787868  3074 net.cpp:141] Setting up pool1/3x3_s2
I0403 15:25:29.787894  3074 net.cpp:148] Top shape: 24 64 56 56 (4816896)
I0403 15:25:29.787907  3074 net.cpp:156] Memory required for data: 187860000
I0403 15:25:29.787922  3074 layer_factory.hpp:77] Creating layer pool1/norm1
I0403 15:25:29.787947  3074 net.cpp:91] Creating Layer pool1/norm1
I0403 15:25:29.787964  3074 net.cpp:425] pool1/norm1 <- pool1/3x3_s2
I0403 15:25:29.787982  3074 net.cpp:399] pool1/norm1 -> pool1/norm1
I0403 15:25:29.788275  3074 net.cpp:141] Setting up pool1/norm1
I0403 15:25:29.788303  3074 net.cpp:148] Top shape: 24 64 56 56 (4816896)
I0403 15:25:29.788319  3074 net.cpp:156] Memory required for data: 207127584
I0403 15:25:29.788336  3074 layer_factory.hpp:77] Creating layer conv2/3x3_reduce
I0403 15:25:29.788359  3074 net.cpp:91] Creating Layer conv2/3x3_reduce
I0403 15:25:29.788377  3074 net.cpp:425] conv2/3x3_reduce <- pool1/norm1
I0403 15:25:29.788395  3074 net.cpp:399] conv2/3x3_reduce -> conv2/3x3_reduce
I0403 15:25:29.789778  3074 net.cpp:141] Setting up conv2/3x3_reduce
I0403 15:25:29.789810  3074 net.cpp:148] Top shape: 24 64 56 56 (4816896)
I0403 15:25:29.789827  3074 net.cpp:156] Memory required for data: 226395168
I0403 15:25:29.789849  3074 layer_factory.hpp:77] Creating layer conv2/relu_3x3_reduce
I0403 15:25:29.789870  3074 net.cpp:91] Creating Layer conv2/relu_3x3_reduce
I0403 15:25:29.789886  3074 net.cpp:425] conv2/relu_3x3_reduce <- conv2/3x3_reduce
I0403 15:25:29.789904  3074 net.cpp:386] conv2/relu_3x3_reduce -> conv2/3x3_reduce (in-place)
I0403 15:25:29.790166  3074 net.cpp:141] Setting up conv2/relu_3x3_reduce
I0403 15:25:29.790194  3074 net.cpp:148] Top shape: 24 64 56 56 (4816896)
I0403 15:25:29.790215  3074 net.cpp:156] Memory required for data: 245662752
I0403 15:25:29.790232  3074 layer_factory.hpp:77] Creating layer conv2/3x3
I0403 15:25:29.790256  3074 net.cpp:91] Creating Layer conv2/3x3
I0403 15:25:29.790273  3074 net.cpp:425] conv2/3x3 <- conv2/3x3_reduce
I0403 15:25:29.790293  3074 net.cpp:399] conv2/3x3 -> conv2/3x3
I0403 15:25:29.792641  3074 net.cpp:141] Setting up conv2/3x3
I0403 15:25:29.792675  3074 net.cpp:148] Top shape: 24 192 56 56 (14450688)
I0403 15:25:29.792692  3074 net.cpp:156] Memory required for data: 303465504
I0403 15:25:29.792716  3074 layer_factory.hpp:77] Creating layer conv2/relu_3x3
I0403 15:25:29.792737  3074 net.cpp:91] Creating Layer conv2/relu_3x3
I0403 15:25:29.792752  3074 net.cpp:425] conv2/relu_3x3 <- conv2/3x3
I0403 15:25:29.792774  3074 net.cpp:386] conv2/relu_3x3 -> conv2/3x3 (in-place)
I0403 15:25:29.792960  3074 net.cpp:141] Setting up conv2/relu_3x3
I0403 15:25:29.792986  3074 net.cpp:148] Top shape: 24 192 56 56 (14450688)
I0403 15:25:29.793032  3074 net.cpp:156] Memory required for data: 361268256
I0403 15:25:29.793048  3074 layer_factory.hpp:77] Creating layer conv2/norm2
I0403 15:25:29.793069  3074 net.cpp:91] Creating Layer conv2/norm2
I0403 15:25:29.793087  3074 net.cpp:425] conv2/norm2 <- conv2/3x3
I0403 15:25:29.793107  3074 net.cpp:399] conv2/norm2 -> conv2/norm2
I0403 15:25:29.793442  3074 net.cpp:141] Setting up conv2/norm2
I0403 15:25:29.793470  3074 net.cpp:148] Top shape: 24 192 56 56 (14450688)
I0403 15:25:29.793486  3074 net.cpp:156] Memory required for data: 419071008
I0403 15:25:29.793503  3074 layer_factory.hpp:77] Creating layer pool2/3x3_s2
I0403 15:25:29.793524  3074 net.cpp:91] Creating Layer pool2/3x3_s2
I0403 15:25:29.793541  3074 net.cpp:425] pool2/3x3_s2 <- conv2/norm2
I0403 15:25:29.793560  3074 net.cpp:399] pool2/3x3_s2 -> pool2/3x3_s2
I0403 15:25:29.793615  3074 net.cpp:141] Setting up pool2/3x3_s2
I0403 15:25:29.793639  3074 net.cpp:148] Top shape: 24 192 28 28 (3612672)
I0403 15:25:29.793654  3074 net.cpp:156] Memory required for data: 433521696
I0403 15:25:29.793669  3074 layer_factory.hpp:77] Creating layer pool2/3x3_s2_pool2/3x3_s2_0_split
I0403 15:25:29.793687  3074 net.cpp:91] Creating Layer pool2/3x3_s2_pool2/3x3_s2_0_split
I0403 15:25:29.793704  3074 net.cpp:425] pool2/3x3_s2_pool2/3x3_s2_0_split <- pool2/3x3_s2
I0403 15:25:29.793725  3074 net.cpp:399] pool2/3x3_s2_pool2/3x3_s2_0_split -> pool2/3x3_s2_pool2/3x3_s2_0_split_0
I0403 15:25:29.793745  3074 net.cpp:399] pool2/3x3_s2_pool2/3x3_s2_0_split -> pool2/3x3_s2_pool2/3x3_s2_0_split_1
I0403 15:25:29.793766  3074 net.cpp:399] pool2/3x3_s2_pool2/3x3_s2_0_split -> pool2/3x3_s2_pool2/3x3_s2_0_split_2
I0403 15:25:29.793787  3074 net.cpp:399] pool2/3x3_s2_pool2/3x3_s2_0_split -> pool2/3x3_s2_pool2/3x3_s2_0_split_3
I0403 15:25:29.793860  3074 net.cpp:141] Setting up pool2/3x3_s2_pool2/3x3_s2_0_split
I0403 15:25:29.793884  3074 net.cpp:148] Top shape: 24 192 28 28 (3612672)
I0403 15:25:29.793902  3074 net.cpp:148] Top shape: 24 192 28 28 (3612672)
I0403 15:25:29.793920  3074 net.cpp:148] Top shape: 24 192 28 28 (3612672)
I0403 15:25:29.793936  3074 net.cpp:148] Top shape: 24 192 28 28 (3612672)
I0403 15:25:29.793951  3074 net.cpp:156] Memory required for data: 491324448
I0403 15:25:29.793965  3074 layer_factory.hpp:77] Creating layer inception_3a/1x1
I0403 15:25:29.793988  3074 net.cpp:91] Creating Layer inception_3a/1x1
I0403 15:25:29.794006  3074 net.cpp:425] inception_3a/1x1 <- pool2/3x3_s2_pool2/3x3_s2_0_split_0
I0403 15:25:29.794028  3074 net.cpp:399] inception_3a/1x1 -> inception_3a/1x1
I0403 15:25:29.795624  3074 net.cpp:141] Setting up inception_3a/1x1
I0403 15:25:29.795658  3074 net.cpp:148] Top shape: 24 64 28 28 (1204224)
I0403 15:25:29.795676  3074 net.cpp:156] Memory required for data: 496141344
I0403 15:25:29.795696  3074 layer_factory.hpp:77] Creating layer inception_3a/relu_1x1
I0403 15:25:29.795716  3074 net.cpp:91] Creating Layer inception_3a/relu_1x1
I0403 15:25:29.795732  3074 net.cpp:425] inception_3a/relu_1x1 <- inception_3a/1x1
I0403 15:25:29.795750  3074 net.cpp:386] inception_3a/relu_1x1 -> inception_3a/1x1 (in-place)
I0403 15:25:29.795934  3074 net.cpp:141] Setting up inception_3a/relu_1x1
I0403 15:25:29.795961  3074 net.cpp:148] Top shape: 24 64 28 28 (1204224)
I0403 15:25:29.795976  3074 net.cpp:156] Memory required for data: 500958240
I0403 15:25:29.795992  3074 layer_factory.hpp:77] Creating layer inception_3a/3x3_reduce
I0403 15:25:29.796015  3074 net.cpp:91] Creating Layer inception_3a/3x3_reduce
I0403 15:25:29.796035  3074 net.cpp:425] inception_3a/3x3_reduce <- pool2/3x3_s2_pool2/3x3_s2_0_split_1
I0403 15:25:29.796056  3074 net.cpp:399] inception_3a/3x3_reduce -> inception_3a/3x3_reduce
I0403 15:25:29.797853  3074 net.cpp:141] Setting up inception_3a/3x3_reduce
I0403 15:25:29.797888  3074 net.cpp:148] Top shape: 24 96 28 28 (1806336)
I0403 15:25:29.797907  3074 net.cpp:156] Memory required for data: 508183584
I0403 15:25:29.797932  3074 layer_factory.hpp:77] Creating layer inception_3a/relu_3x3_reduce
I0403 15:25:29.797969  3074 net.cpp:91] Creating Layer inception_3a/relu_3x3_reduce
I0403 15:25:29.797988  3074 net.cpp:425] inception_3a/relu_3x3_reduce <- inception_3a/3x3_reduce
I0403 15:25:29.798010  3074 net.cpp:386] inception_3a/relu_3x3_reduce -> inception_3a/3x3_reduce (in-place)
I0403 15:25:29.798199  3074 net.cpp:141] Setting up inception_3a/relu_3x3_reduce
I0403 15:25:29.798229  3074 net.cpp:148] Top shape: 24 96 28 28 (1806336)
I0403 15:25:29.798245  3074 net.cpp:156] Memory required for data: 515408928
I0403 15:25:29.798261  3074 layer_factory.hpp:77] Creating layer inception_3a/3x3
I0403 15:25:29.798286  3074 net.cpp:91] Creating Layer inception_3a/3x3
I0403 15:25:29.798305  3074 net.cpp:425] inception_3a/3x3 <- inception_3a/3x3_reduce
I0403 15:25:29.798324  3074 net.cpp:399] inception_3a/3x3 -> inception_3a/3x3
I0403 15:25:29.800070  3074 net.cpp:141] Setting up inception_3a/3x3
I0403 15:25:29.800101  3074 net.cpp:148] Top shape: 24 128 28 28 (2408448)
I0403 15:25:29.800119  3074 net.cpp:156] Memory required for data: 525042720
I0403 15:25:29.800140  3074 layer_factory.hpp:77] Creating layer inception_3a/relu_3x3
I0403 15:25:29.800159  3074 net.cpp:91] Creating Layer inception_3a/relu_3x3
I0403 15:25:29.800176  3074 net.cpp:425] inception_3a/relu_3x3 <- inception_3a/3x3
I0403 15:25:29.800197  3074 net.cpp:386] inception_3a/relu_3x3 -> inception_3a/3x3 (in-place)
I0403 15:25:29.800493  3074 net.cpp:141] Setting up inception_3a/relu_3x3
I0403 15:25:29.800521  3074 net.cpp:148] Top shape: 24 128 28 28 (2408448)
I0403 15:25:29.800539  3074 net.cpp:156] Memory required for data: 534676512
I0403 15:25:29.800556  3074 layer_factory.hpp:77] Creating layer inception_3a/5x5_reduce
I0403 15:25:29.800582  3074 net.cpp:91] Creating Layer inception_3a/5x5_reduce
I0403 15:25:29.800602  3074 net.cpp:425] inception_3a/5x5_reduce <- pool2/3x3_s2_pool2/3x3_s2_0_split_2
I0403 15:25:29.800626  3074 net.cpp:399] inception_3a/5x5_reduce -> inception_3a/5x5_reduce
I0403 15:25:29.801641  3074 net.cpp:141] Setting up inception_3a/5x5_reduce
I0403 15:25:29.801672  3074 net.cpp:148] Top shape: 24 16 28 28 (301056)
I0403 15:25:29.801690  3074 net.cpp:156] Memory required for data: 535880736
I0403 15:25:29.801710  3074 layer_factory.hpp:77] Creating layer inception_3a/relu_5x5_reduce
I0403 15:25:29.801729  3074 net.cpp:91] Creating Layer inception_3a/relu_5x5_reduce
I0403 15:25:29.801745  3074 net.cpp:425] inception_3a/relu_5x5_reduce <- inception_3a/5x5_reduce
I0403 15:25:29.801766  3074 net.cpp:386] inception_3a/relu_5x5_reduce -> inception_3a/5x5_reduce (in-place)
I0403 15:25:29.802078  3074 net.cpp:141] Setting up inception_3a/relu_5x5_reduce
I0403 15:25:29.802106  3074 net.cpp:148] Top shape: 24 16 28 28 (301056)
I0403 15:25:29.802122  3074 net.cpp:156] Memory required for data: 537084960
I0403 15:25:29.802139  3074 layer_factory.hpp:77] Creating layer inception_3a/5x5
I0403 15:25:29.802171  3074 net.cpp:91] Creating Layer inception_3a/5x5
I0403 15:25:29.802192  3074 net.cpp:425] inception_3a/5x5 <- inception_3a/5x5_reduce
I0403 15:25:29.802225  3074 net.cpp:399] inception_3a/5x5 -> inception_3a/5x5
I0403 15:25:29.803302  3074 net.cpp:141] Setting up inception_3a/5x5
I0403 15:25:29.803335  3074 net.cpp:148] Top shape: 24 32 28 28 (602112)
I0403 15:25:29.803355  3074 net.cpp:156] Memory required for data: 539493408
I0403 15:25:29.803376  3074 layer_factory.hpp:77] Creating layer inception_3a/relu_5x5
I0403 15:25:29.803396  3074 net.cpp:91] Creating Layer inception_3a/relu_5x5
I0403 15:25:29.803412  3074 net.cpp:425] inception_3a/relu_5x5 <- inception_3a/5x5
I0403 15:25:29.803431  3074 net.cpp:386] inception_3a/relu_5x5 -> inception_3a/5x5 (in-place)
I0403 15:25:29.803617  3074 net.cpp:141] Setting up inception_3a/relu_5x5
I0403 15:25:29.803643  3074 net.cpp:148] Top shape: 24 32 28 28 (602112)
I0403 15:25:29.803659  3074 net.cpp:156] Memory required for data: 541901856
I0403 15:25:29.803675  3074 layer_factory.hpp:77] Creating layer inception_3a/pool
I0403 15:25:29.803694  3074 net.cpp:91] Creating Layer inception_3a/pool
I0403 15:25:29.803725  3074 net.cpp:425] inception_3a/pool <- pool2/3x3_s2_pool2/3x3_s2_0_split_3
I0403 15:25:29.803750  3074 net.cpp:399] inception_3a/pool -> inception_3a/pool
I0403 15:25:29.803810  3074 net.cpp:141] Setting up inception_3a/pool
I0403 15:25:29.803838  3074 net.cpp:148] Top shape: 24 192 28 28 (3612672)
I0403 15:25:29.803853  3074 net.cpp:156] Memory required for data: 556352544
I0403 15:25:29.803869  3074 layer_factory.hpp:77] Creating layer inception_3a/pool_proj
I0403 15:25:29.803891  3074 net.cpp:91] Creating Layer inception_3a/pool_proj
I0403 15:25:29.803910  3074 net.cpp:425] inception_3a/pool_proj <- inception_3a/pool
I0403 15:25:29.803930  3074 net.cpp:399] inception_3a/pool_proj -> inception_3a/pool_proj
I0403 15:25:29.804944  3074 net.cpp:141] Setting up inception_3a/pool_proj
I0403 15:25:29.804972  3074 net.cpp:148] Top shape: 24 32 28 28 (602112)
I0403 15:25:29.804988  3074 net.cpp:156] Memory required for data: 558760992
I0403 15:25:29.805014  3074 layer_factory.hpp:77] Creating layer inception_3a/relu_pool_proj
I0403 15:25:29.805035  3074 net.cpp:91] Creating Layer inception_3a/relu_pool_proj
I0403 15:25:29.805052  3074 net.cpp:425] inception_3a/relu_pool_proj <- inception_3a/pool_proj
I0403 15:25:29.805073  3074 net.cpp:386] inception_3a/relu_pool_proj -> inception_3a/pool_proj (in-place)
I0403 15:25:29.805367  3074 net.cpp:141] Setting up inception_3a/relu_pool_proj
I0403 15:25:29.805395  3074 net.cpp:148] Top shape: 24 32 28 28 (602112)
I0403 15:25:29.805411  3074 net.cpp:156] Memory required for data: 561169440
I0403 15:25:29.805428  3074 layer_factory.hpp:77] Creating layer inception_3a/output
I0403 15:25:29.805446  3074 net.cpp:91] Creating Layer inception_3a/output
I0403 15:25:29.805462  3074 net.cpp:425] inception_3a/output <- inception_3a/1x1
I0403 15:25:29.805480  3074 net.cpp:425] inception_3a/output <- inception_3a/3x3
I0403 15:25:29.805497  3074 net.cpp:425] inception_3a/output <- inception_3a/5x5
I0403 15:25:29.805515  3074 net.cpp:425] inception_3a/output <- inception_3a/pool_proj
I0403 15:25:29.805534  3074 net.cpp:399] inception_3a/output -> inception_3a/output
I0403 15:25:29.805583  3074 net.cpp:141] Setting up inception_3a/output
I0403 15:25:29.805606  3074 net.cpp:148] Top shape: 24 256 28 28 (4816896)
I0403 15:25:29.805626  3074 net.cpp:156] Memory required for data: 580437024
I0403 15:25:29.805642  3074 layer_factory.hpp:77] Creating layer inception_3a/output_inception_3a/output_0_split
I0403 15:25:29.805660  3074 net.cpp:91] Creating Layer inception_3a/output_inception_3a/output_0_split
I0403 15:25:29.805676  3074 net.cpp:425] inception_3a/output_inception_3a/output_0_split <- inception_3a/output
I0403 15:25:29.805694  3074 net.cpp:399] inception_3a/output_inception_3a/output_0_split -> inception_3a/output_inception_3a/output_0_split_0
I0403 15:25:29.805716  3074 net.cpp:399] inception_3a/output_inception_3a/output_0_split -> inception_3a/output_inception_3a/output_0_split_1
I0403 15:25:29.805742  3074 net.cpp:399] inception_3a/output_inception_3a/output_0_split -> inception_3a/output_inception_3a/output_0_split_2
I0403 15:25:29.805764  3074 net.cpp:399] inception_3a/output_inception_3a/output_0_split -> inception_3a/output_inception_3a/output_0_split_3
I0403 15:25:29.805845  3074 net.cpp:141] Setting up inception_3a/output_inception_3a/output_0_split
I0403 15:25:29.805868  3074 net.cpp:148] Top shape: 24 256 28 28 (4816896)
I0403 15:25:29.805886  3074 net.cpp:148] Top shape: 24 256 28 28 (4816896)
I0403 15:25:29.805902  3074 net.cpp:148] Top shape: 24 256 28 28 (4816896)
I0403 15:25:29.805919  3074 net.cpp:148] Top shape: 24 256 28 28 (4816896)
I0403 15:25:29.805933  3074 net.cpp:156] Memory required for data: 657507360
I0403 15:25:29.805949  3074 layer_factory.hpp:77] Creating layer inception_3b/1x1
I0403 15:25:29.805974  3074 net.cpp:91] Creating Layer inception_3b/1x1
I0403 15:25:29.805992  3074 net.cpp:425] inception_3b/1x1 <- inception_3a/output_inception_3a/output_0_split_0
I0403 15:25:29.806012  3074 net.cpp:399] inception_3b/1x1 -> inception_3b/1x1
I0403 15:25:29.807204  3074 net.cpp:141] Setting up inception_3b/1x1
I0403 15:25:29.807252  3074 net.cpp:148] Top shape: 24 128 28 28 (2408448)
I0403 15:25:29.807271  3074 net.cpp:156] Memory required for data: 667141152
I0403 15:25:29.807291  3074 layer_factory.hpp:77] Creating layer inception_3b/relu_1x1
I0403 15:25:29.807313  3074 net.cpp:91] Creating Layer inception_3b/relu_1x1
I0403 15:25:29.807332  3074 net.cpp:425] inception_3b/relu_1x1 <- inception_3b/1x1
I0403 15:25:29.807351  3074 net.cpp:386] inception_3b/relu_1x1 -> inception_3b/1x1 (in-place)
I0403 15:25:29.807539  3074 net.cpp:141] Setting up inception_3b/relu_1x1
I0403 15:25:29.807567  3074 net.cpp:148] Top shape: 24 128 28 28 (2408448)
I0403 15:25:29.807585  3074 net.cpp:156] Memory required for data: 676774944
I0403 15:25:29.807600  3074 layer_factory.hpp:77] Creating layer inception_3b/3x3_reduce
I0403 15:25:29.807626  3074 net.cpp:91] Creating Layer inception_3b/3x3_reduce
I0403 15:25:29.807644  3074 net.cpp:425] inception_3b/3x3_reduce <- inception_3a/output_inception_3a/output_0_split_1
I0403 15:25:29.807667  3074 net.cpp:399] inception_3b/3x3_reduce -> inception_3b/3x3_reduce
I0403 15:25:29.808859  3074 net.cpp:141] Setting up inception_3b/3x3_reduce
I0403 15:25:29.808893  3074 net.cpp:148] Top shape: 24 128 28 28 (2408448)
I0403 15:25:29.808912  3074 net.cpp:156] Memory required for data: 686408736
I0403 15:25:29.808933  3074 layer_factory.hpp:77] Creating layer inception_3b/relu_3x3_reduce
I0403 15:25:29.808951  3074 net.cpp:91] Creating Layer inception_3b/relu_3x3_reduce
I0403 15:25:29.808969  3074 net.cpp:425] inception_3b/relu_3x3_reduce <- inception_3b/3x3_reduce
I0403 15:25:29.808987  3074 net.cpp:386] inception_3b/relu_3x3_reduce -> inception_3b/3x3_reduce (in-place)
I0403 15:25:29.809172  3074 net.cpp:141] Setting up inception_3b/relu_3x3_reduce
I0403 15:25:29.809202  3074 net.cpp:148] Top shape: 24 128 28 28 (2408448)
I0403 15:25:29.809224  3074 net.cpp:156] Memory required for data: 696042528
I0403 15:25:29.809242  3074 layer_factory.hpp:77] Creating layer inception_3b/3x3
I0403 15:25:29.809267  3074 net.cpp:91] Creating Layer inception_3b/3x3
I0403 15:25:29.809286  3074 net.cpp:425] inception_3b/3x3 <- inception_3b/3x3_reduce
I0403 15:25:29.809309  3074 net.cpp:399] inception_3b/3x3 -> inception_3b/3x3
I0403 15:25:29.812362  3074 net.cpp:141] Setting up inception_3b/3x3
I0403 15:25:29.812393  3074 net.cpp:148] Top shape: 24 192 28 28 (3612672)
I0403 15:25:29.812410  3074 net.cpp:156] Memory required for data: 710493216
I0403 15:25:29.812429  3074 layer_factory.hpp:77] Creating layer inception_3b/relu_3x3
I0403 15:25:29.812449  3074 net.cpp:91] Creating Layer inception_3b/relu_3x3
I0403 15:25:29.812466  3074 net.cpp:425] inception_3b/relu_3x3 <- inception_3b/3x3
I0403 15:25:29.812489  3074 net.cpp:386] inception_3b/relu_3x3 -> inception_3b/3x3 (in-place)
I0403 15:25:29.812772  3074 net.cpp:141] Setting up inception_3b/relu_3x3
I0403 15:25:29.812800  3074 net.cpp:148] Top shape: 24 192 28 28 (3612672)
I0403 15:25:29.812818  3074 net.cpp:156] Memory required for data: 724943904
I0403 15:25:29.812832  3074 layer_factory.hpp:77] Creating layer inception_3b/5x5_reduce
I0403 15:25:29.812855  3074 net.cpp:91] Creating Layer inception_3b/5x5_reduce
I0403 15:25:29.812875  3074 net.cpp:425] inception_3b/5x5_reduce <- inception_3a/output_inception_3a/output_0_split_2
I0403 15:25:29.812897  3074 net.cpp:399] inception_3b/5x5_reduce -> inception_3b/5x5_reduce
I0403 15:25:29.813921  3074 net.cpp:141] Setting up inception_3b/5x5_reduce
I0403 15:25:29.813954  3074 net.cpp:148] Top shape: 24 32 28 28 (602112)
I0403 15:25:29.813971  3074 net.cpp:156] Memory required for data: 727352352
I0403 15:25:29.813992  3074 layer_factory.hpp:77] Creating layer inception_3b/relu_5x5_reduce
I0403 15:25:29.814010  3074 net.cpp:91] Creating Layer inception_3b/relu_5x5_reduce
I0403 15:25:29.814028  3074 net.cpp:425] inception_3b/relu_5x5_reduce <- inception_3b/5x5_reduce
I0403 15:25:29.814049  3074 net.cpp:386] inception_3b/relu_5x5_reduce -> inception_3b/5x5_reduce (in-place)
I0403 15:25:29.814251  3074 net.cpp:141] Setting up inception_3b/relu_5x5_reduce
I0403 15:25:29.814278  3074 net.cpp:148] Top shape: 24 32 28 28 (602112)
I0403 15:25:29.814294  3074 net.cpp:156] Memory required for data: 729760800
I0403 15:25:29.814311  3074 layer_factory.hpp:77] Creating layer inception_3b/5x5
I0403 15:25:29.814334  3074 net.cpp:91] Creating Layer inception_3b/5x5
I0403 15:25:29.814352  3074 net.cpp:425] inception_3b/5x5 <- inception_3b/5x5_reduce
I0403 15:25:29.814375  3074 net.cpp:399] inception_3b/5x5 -> inception_3b/5x5
I0403 15:25:29.816396  3074 net.cpp:141] Setting up inception_3b/5x5
I0403 15:25:29.816427  3074 net.cpp:148] Top shape: 24 96 28 28 (1806336)
I0403 15:25:29.816444  3074 net.cpp:156] Memory required for data: 736986144
I0403 15:25:29.816463  3074 layer_factory.hpp:77] Creating layer inception_3b/relu_5x5
I0403 15:25:29.816484  3074 net.cpp:91] Creating Layer inception_3b/relu_5x5
I0403 15:25:29.816504  3074 net.cpp:425] inception_3b/relu_5x5 <- inception_3b/5x5
I0403 15:25:29.816521  3074 net.cpp:386] inception_3b/relu_5x5 -> inception_3b/5x5 (in-place)
I0403 15:25:29.816718  3074 net.cpp:141] Setting up inception_3b/relu_5x5
I0403 15:25:29.816745  3074 net.cpp:148] Top shape: 24 96 28 28 (1806336)
I0403 15:25:29.816761  3074 net.cpp:156] Memory required for data: 744211488
I0403 15:25:29.816777  3074 layer_factory.hpp:77] Creating layer inception_3b/pool
I0403 15:25:29.816797  3074 net.cpp:91] Creating Layer inception_3b/pool
I0403 15:25:29.816814  3074 net.cpp:425] inception_3b/pool <- inception_3a/output_inception_3a/output_0_split_3
I0403 15:25:29.816833  3074 net.cpp:399] inception_3b/pool -> inception_3b/pool
I0403 15:25:29.816891  3074 net.cpp:141] Setting up inception_3b/pool
I0403 15:25:29.816918  3074 net.cpp:148] Top shape: 24 256 28 28 (4816896)
I0403 15:25:29.816934  3074 net.cpp:156] Memory required for data: 763479072
I0403 15:25:29.816951  3074 layer_factory.hpp:77] Creating layer inception_3b/pool_proj
I0403 15:25:29.816972  3074 net.cpp:91] Creating Layer inception_3b/pool_proj
I0403 15:25:29.816988  3074 net.cpp:425] inception_3b/pool_proj <- inception_3b/pool
I0403 15:25:29.817009  3074 net.cpp:399] inception_3b/pool_proj -> inception_3b/pool_proj
I0403 15:25:29.818091  3074 net.cpp:141] Setting up inception_3b/pool_proj
I0403 15:25:29.818120  3074 net.cpp:148] Top shape: 24 64 28 28 (1204224)
I0403 15:25:29.818137  3074 net.cpp:156] Memory required for data: 768295968
I0403 15:25:29.818156  3074 layer_factory.hpp:77] Creating layer inception_3b/relu_pool_proj
I0403 15:25:29.818177  3074 net.cpp:91] Creating Layer inception_3b/relu_pool_proj
I0403 15:25:29.818195  3074 net.cpp:425] inception_3b/relu_pool_proj <- inception_3b/pool_proj
I0403 15:25:29.818222  3074 net.cpp:386] inception_3b/relu_pool_proj -> inception_3b/pool_proj (in-place)
I0403 15:25:29.818686  3074 net.cpp:141] Setting up inception_3b/relu_pool_proj
I0403 15:25:29.818714  3074 net.cpp:148] Top shape: 24 64 28 28 (1204224)
I0403 15:25:29.818730  3074 net.cpp:156] Memory required for data: 773112864
I0403 15:25:29.818747  3074 layer_factory.hpp:77] Creating layer inception_3b/output
I0403 15:25:29.818763  3074 net.cpp:91] Creating Layer inception_3b/output
I0403 15:25:29.818780  3074 net.cpp:425] inception_3b/output <- inception_3b/1x1
I0403 15:25:29.818796  3074 net.cpp:425] inception_3b/output <- inception_3b/3x3
I0403 15:25:29.818814  3074 net.cpp:425] inception_3b/output <- inception_3b/5x5
I0403 15:25:29.818830  3074 net.cpp:425] inception_3b/output <- inception_3b/pool_proj
I0403 15:25:29.818850  3074 net.cpp:399] inception_3b/output -> inception_3b/output
I0403 15:25:29.818894  3074 net.cpp:141] Setting up inception_3b/output
I0403 15:25:29.818920  3074 net.cpp:148] Top shape: 24 480 28 28 (9031680)
I0403 15:25:29.818936  3074 net.cpp:156] Memory required for data: 809239584
I0403 15:25:29.818950  3074 layer_factory.hpp:77] Creating layer pool3/3x3_s2
I0403 15:25:29.818969  3074 net.cpp:91] Creating Layer pool3/3x3_s2
I0403 15:25:29.818984  3074 net.cpp:425] pool3/3x3_s2 <- inception_3b/output
I0403 15:25:29.819018  3074 net.cpp:399] pool3/3x3_s2 -> pool3/3x3_s2
I0403 15:25:29.819079  3074 net.cpp:141] Setting up pool3/3x3_s2
I0403 15:25:29.819103  3074 net.cpp:148] Top shape: 24 480 14 14 (2257920)
I0403 15:25:29.819118  3074 net.cpp:156] Memory required for data: 818271264
I0403 15:25:29.819133  3074 layer_factory.hpp:77] Creating layer pool3/3x3_s2_pool3/3x3_s2_0_split
I0403 15:25:29.819152  3074 net.cpp:91] Creating Layer pool3/3x3_s2_pool3/3x3_s2_0_split
I0403 15:25:29.819169  3074 net.cpp:425] pool3/3x3_s2_pool3/3x3_s2_0_split <- pool3/3x3_s2
I0403 15:25:29.819186  3074 net.cpp:399] pool3/3x3_s2_pool3/3x3_s2_0_split -> pool3/3x3_s2_pool3/3x3_s2_0_split_0
I0403 15:25:29.819206  3074 net.cpp:399] pool3/3x3_s2_pool3/3x3_s2_0_split -> pool3/3x3_s2_pool3/3x3_s2_0_split_1
I0403 15:25:29.819232  3074 net.cpp:399] pool3/3x3_s2_pool3/3x3_s2_0_split -> pool3/3x3_s2_pool3/3x3_s2_0_split_2
I0403 15:25:29.819255  3074 net.cpp:399] pool3/3x3_s2_pool3/3x3_s2_0_split -> pool3/3x3_s2_pool3/3x3_s2_0_split_3
I0403 15:25:29.819334  3074 net.cpp:141] Setting up pool3/3x3_s2_pool3/3x3_s2_0_split
I0403 15:25:29.819357  3074 net.cpp:148] Top shape: 24 480 14 14 (2257920)
I0403 15:25:29.819375  3074 net.cpp:148] Top shape: 24 480 14 14 (2257920)
I0403 15:25:29.819391  3074 net.cpp:148] Top shape: 24 480 14 14 (2257920)
I0403 15:25:29.819408  3074 net.cpp:148] Top shape: 24 480 14 14 (2257920)
I0403 15:25:29.819422  3074 net.cpp:156] Memory required for data: 854397984
I0403 15:25:29.819438  3074 layer_factory.hpp:77] Creating layer inception_4a/1x1
I0403 15:25:29.819460  3074 net.cpp:91] Creating Layer inception_4a/1x1
I0403 15:25:29.819478  3074 net.cpp:425] inception_4a/1x1 <- pool3/3x3_s2_pool3/3x3_s2_0_split_0
I0403 15:25:29.819499  3074 net.cpp:399] inception_4a/1x1 -> inception_4a/1x1
I0403 15:25:29.821097  3074 net.cpp:141] Setting up inception_4a/1x1
I0403 15:25:29.821127  3074 net.cpp:148] Top shape: 24 192 14 14 (903168)
I0403 15:25:29.821143  3074 net.cpp:156] Memory required for data: 858010656
I0403 15:25:29.821163  3074 layer_factory.hpp:77] Creating layer inception_4a/relu_1x1
I0403 15:25:29.821184  3074 net.cpp:91] Creating Layer inception_4a/relu_1x1
I0403 15:25:29.821200  3074 net.cpp:425] inception_4a/relu_1x1 <- inception_4a/1x1
I0403 15:25:29.821224  3074 net.cpp:386] inception_4a/relu_1x1 -> inception_4a/1x1 (in-place)
I0403 15:25:29.821400  3074 net.cpp:141] Setting up inception_4a/relu_1x1
I0403 15:25:29.821426  3074 net.cpp:148] Top shape: 24 192 14 14 (903168)
I0403 15:25:29.821442  3074 net.cpp:156] Memory required for data: 861623328
I0403 15:25:29.821457  3074 layer_factory.hpp:77] Creating layer inception_4a/3x3_reduce
I0403 15:25:29.821481  3074 net.cpp:91] Creating Layer inception_4a/3x3_reduce
I0403 15:25:29.821499  3074 net.cpp:425] inception_4a/3x3_reduce <- pool3/3x3_s2_pool3/3x3_s2_0_split_1
I0403 15:25:29.821518  3074 net.cpp:399] inception_4a/3x3_reduce -> inception_4a/3x3_reduce
I0403 15:25:29.822785  3074 net.cpp:141] Setting up inception_4a/3x3_reduce
I0403 15:25:29.822813  3074 net.cpp:148] Top shape: 24 96 14 14 (451584)
I0403 15:25:29.822829  3074 net.cpp:156] Memory required for data: 863429664
I0403 15:25:29.822854  3074 layer_factory.hpp:77] Creating layer inception_4a/relu_3x3_reduce
I0403 15:25:29.822875  3074 net.cpp:91] Creating Layer inception_4a/relu_3x3_reduce
I0403 15:25:29.822892  3074 net.cpp:425] inception_4a/relu_3x3_reduce <- inception_4a/3x3_reduce
I0403 15:25:29.822911  3074 net.cpp:386] inception_4a/relu_3x3_reduce -> inception_4a/3x3_reduce (in-place)
I0403 15:25:29.823087  3074 net.cpp:141] Setting up inception_4a/relu_3x3_reduce
I0403 15:25:29.823112  3074 net.cpp:148] Top shape: 24 96 14 14 (451584)
I0403 15:25:29.823127  3074 net.cpp:156] Memory required for data: 865236000
I0403 15:25:29.823142  3074 layer_factory.hpp:77] Creating layer inception_4a/3x3
I0403 15:25:29.823164  3074 net.cpp:91] Creating Layer inception_4a/3x3
I0403 15:25:29.823181  3074 net.cpp:425] inception_4a/3x3 <- inception_4a/3x3_reduce
I0403 15:25:29.823201  3074 net.cpp:399] inception_4a/3x3 -> inception_4a/3x3
I0403 15:25:29.825867  3074 net.cpp:141] Setting up inception_4a/3x3
I0403 15:25:29.825899  3074 net.cpp:148] Top shape: 24 208 14 14 (978432)
I0403 15:25:29.825917  3074 net.cpp:156] Memory required for data: 869149728
I0403 15:25:29.825937  3074 layer_factory.hpp:77] Creating layer inception_4a/relu_3x3
I0403 15:25:29.825956  3074 net.cpp:91] Creating Layer inception_4a/relu_3x3
I0403 15:25:29.825971  3074 net.cpp:425] inception_4a/relu_3x3 <- inception_4a/3x3
I0403 15:25:29.825989  3074 net.cpp:386] inception_4a/relu_3x3 -> inception_4a/3x3 (in-place)
I0403 15:25:29.826266  3074 net.cpp:141] Setting up inception_4a/relu_3x3
I0403 15:25:29.826295  3074 net.cpp:148] Top shape: 24 208 14 14 (978432)
I0403 15:25:29.826313  3074 net.cpp:156] Memory required for data: 873063456
I0403 15:25:29.826328  3074 layer_factory.hpp:77] Creating layer inception_4a/5x5_reduce
I0403 15:25:29.826354  3074 net.cpp:91] Creating Layer inception_4a/5x5_reduce
I0403 15:25:29.826373  3074 net.cpp:425] inception_4a/5x5_reduce <- pool3/3x3_s2_pool3/3x3_s2_0_split_2
I0403 15:25:29.826392  3074 net.cpp:399] inception_4a/5x5_reduce -> inception_4a/5x5_reduce
I0403 15:25:29.827412  3074 net.cpp:141] Setting up inception_4a/5x5_reduce
I0403 15:25:29.827446  3074 net.cpp:148] Top shape: 24 16 14 14 (75264)
I0403 15:25:29.827463  3074 net.cpp:156] Memory required for data: 873364512
I0403 15:25:29.827483  3074 layer_factory.hpp:77] Creating layer inception_4a/relu_5x5_reduce
I0403 15:25:29.827502  3074 net.cpp:91] Creating Layer inception_4a/relu_5x5_reduce
I0403 15:25:29.827519  3074 net.cpp:425] inception_4a/relu_5x5_reduce <- inception_4a/5x5_reduce
I0403 15:25:29.827536  3074 net.cpp:386] inception_4a/relu_5x5_reduce -> inception_4a/5x5_reduce (in-place)
I0403 15:25:29.827713  3074 net.cpp:141] Setting up inception_4a/relu_5x5_reduce
I0403 15:25:29.827739  3074 net.cpp:148] Top shape: 24 16 14 14 (75264)
I0403 15:25:29.827754  3074 net.cpp:156] Memory required for data: 873665568
I0403 15:25:29.827770  3074 layer_factory.hpp:77] Creating layer inception_4a/5x5
I0403 15:25:29.827792  3074 net.cpp:91] Creating Layer inception_4a/5x5
I0403 15:25:29.827811  3074 net.cpp:425] inception_4a/5x5 <- inception_4a/5x5_reduce
I0403 15:25:29.827831  3074 net.cpp:399] inception_4a/5x5 -> inception_4a/5x5
I0403 15:25:29.828907  3074 net.cpp:141] Setting up inception_4a/5x5
I0403 15:25:29.828934  3074 net.cpp:148] Top shape: 24 48 14 14 (225792)
I0403 15:25:29.828951  3074 net.cpp:156] Memory required for data: 874568736
I0403 15:25:29.828970  3074 layer_factory.hpp:77] Creating layer inception_4a/relu_5x5
I0403 15:25:29.828987  3074 net.cpp:91] Creating Layer inception_4a/relu_5x5
I0403 15:25:29.829002  3074 net.cpp:425] inception_4a/relu_5x5 <- inception_4a/5x5
I0403 15:25:29.829021  3074 net.cpp:386] inception_4a/relu_5x5 -> inception_4a/5x5 (in-place)
I0403 15:25:29.829198  3074 net.cpp:141] Setting up inception_4a/relu_5x5
I0403 15:25:29.829227  3074 net.cpp:148] Top shape: 24 48 14 14 (225792)
I0403 15:25:29.829242  3074 net.cpp:156] Memory required for data: 875471904
I0403 15:25:29.829257  3074 layer_factory.hpp:77] Creating layer inception_4a/pool
I0403 15:25:29.829277  3074 net.cpp:91] Creating Layer inception_4a/pool
I0403 15:25:29.829293  3074 net.cpp:425] inception_4a/pool <- pool3/3x3_s2_pool3/3x3_s2_0_split_3
I0403 15:25:29.829311  3074 net.cpp:399] inception_4a/pool -> inception_4a/pool
I0403 15:25:29.829373  3074 net.cpp:141] Setting up inception_4a/pool
I0403 15:25:29.829396  3074 net.cpp:148] Top shape: 24 480 14 14 (2257920)
I0403 15:25:29.829411  3074 net.cpp:156] Memory required for data: 884503584
I0403 15:25:29.829426  3074 layer_factory.hpp:77] Creating layer inception_4a/pool_proj
I0403 15:25:29.829447  3074 net.cpp:91] Creating Layer inception_4a/pool_proj
I0403 15:25:29.829465  3074 net.cpp:425] inception_4a/pool_proj <- inception_4a/pool
I0403 15:25:29.829488  3074 net.cpp:399] inception_4a/pool_proj -> inception_4a/pool_proj
I0403 15:25:29.830672  3074 net.cpp:141] Setting up inception_4a/pool_proj
I0403 15:25:29.830703  3074 net.cpp:148] Top shape: 24 64 14 14 (301056)
I0403 15:25:29.830734  3074 net.cpp:156] Memory required for data: 885707808
I0403 15:25:29.830754  3074 layer_factory.hpp:77] Creating layer inception_4a/relu_pool_proj
I0403 15:25:29.830776  3074 net.cpp:91] Creating Layer inception_4a/relu_pool_proj
I0403 15:25:29.830792  3074 net.cpp:425] inception_4a/relu_pool_proj <- inception_4a/pool_proj
I0403 15:25:29.830811  3074 net.cpp:386] inception_4a/relu_pool_proj -> inception_4a/pool_proj (in-place)
I0403 15:25:29.831089  3074 net.cpp:141] Setting up inception_4a/relu_pool_proj
I0403 15:25:29.831116  3074 net.cpp:148] Top shape: 24 64 14 14 (301056)
I0403 15:25:29.831132  3074 net.cpp:156] Memory required for data: 886912032
I0403 15:25:29.831148  3074 layer_factory.hpp:77] Creating layer inception_4a/output
I0403 15:25:29.831166  3074 net.cpp:91] Creating Layer inception_4a/output
I0403 15:25:29.831182  3074 net.cpp:425] inception_4a/output <- inception_4a/1x1
I0403 15:25:29.831198  3074 net.cpp:425] inception_4a/output <- inception_4a/3x3
I0403 15:25:29.831219  3074 net.cpp:425] inception_4a/output <- inception_4a/5x5
I0403 15:25:29.831236  3074 net.cpp:425] inception_4a/output <- inception_4a/pool_proj
I0403 15:25:29.831256  3074 net.cpp:399] inception_4a/output -> inception_4a/output
I0403 15:25:29.831302  3074 net.cpp:141] Setting up inception_4a/output
I0403 15:25:29.831326  3074 net.cpp:148] Top shape: 24 512 14 14 (2408448)
I0403 15:25:29.831341  3074 net.cpp:156] Memory required for data: 896545824
I0403 15:25:29.831354  3074 layer_factory.hpp:77] Creating layer inception_4a/output_inception_4a/output_0_split
I0403 15:25:29.831372  3074 net.cpp:91] Creating Layer inception_4a/output_inception_4a/output_0_split
I0403 15:25:29.831387  3074 net.cpp:425] inception_4a/output_inception_4a/output_0_split <- inception_4a/output
I0403 15:25:29.831408  3074 net.cpp:399] inception_4a/output_inception_4a/output_0_split -> inception_4a/output_inception_4a/output_0_split_0
I0403 15:25:29.831429  3074 net.cpp:399] inception_4a/output_inception_4a/output_0_split -> inception_4a/output_inception_4a/output_0_split_1
I0403 15:25:29.831449  3074 net.cpp:399] inception_4a/output_inception_4a/output_0_split -> inception_4a/output_inception_4a/output_0_split_2
I0403 15:25:29.831470  3074 net.cpp:399] inception_4a/output_inception_4a/output_0_split -> inception_4a/output_inception_4a/output_0_split_3
I0403 15:25:29.831490  3074 net.cpp:399] inception_4a/output_inception_4a/output_0_split -> inception_4a/output_inception_4a/output_0_split_4
I0403 15:25:29.831583  3074 net.cpp:141] Setting up inception_4a/output_inception_4a/output_0_split
I0403 15:25:29.831609  3074 net.cpp:148] Top shape: 24 512 14 14 (2408448)
I0403 15:25:29.831625  3074 net.cpp:148] Top shape: 24 512 14 14 (2408448)
I0403 15:25:29.831640  3074 net.cpp:148] Top shape: 24 512 14 14 (2408448)
I0403 15:25:29.831655  3074 net.cpp:148] Top shape: 24 512 14 14 (2408448)
I0403 15:25:29.831671  3074 net.cpp:148] Top shape: 24 512 14 14 (2408448)
I0403 15:25:29.831686  3074 net.cpp:156] Memory required for data: 944714784
I0403 15:25:29.831699  3074 layer_factory.hpp:77] Creating layer loss1/ave_pool
I0403 15:25:29.831717  3074 net.cpp:91] Creating Layer loss1/ave_pool
I0403 15:25:29.831732  3074 net.cpp:425] loss1/ave_pool <- inception_4a/output_inception_4a/output_0_split_0
I0403 15:25:29.831753  3074 net.cpp:399] loss1/ave_pool -> loss1/ave_pool
I0403 15:25:29.831956  3074 net.cpp:141] Setting up loss1/ave_pool
I0403 15:25:29.831982  3074 net.cpp:148] Top shape: 24 512 4 4 (196608)
I0403 15:25:29.831997  3074 net.cpp:156] Memory required for data: 945501216
I0403 15:25:29.832011  3074 layer_factory.hpp:77] Creating layer loss1/conv
I0403 15:25:29.832034  3074 net.cpp:91] Creating Layer loss1/conv
I0403 15:25:29.832051  3074 net.cpp:425] loss1/conv <- loss1/ave_pool
I0403 15:25:29.832072  3074 net.cpp:399] loss1/conv -> loss1/conv
I0403 15:25:29.833472  3074 net.cpp:141] Setting up loss1/conv
I0403 15:25:29.833505  3074 net.cpp:148] Top shape: 24 128 4 4 (49152)
I0403 15:25:29.833536  3074 net.cpp:156] Memory required for data: 945697824
I0403 15:25:29.833556  3074 layer_factory.hpp:77] Creating layer loss1/relu_conv
I0403 15:25:29.833573  3074 net.cpp:91] Creating Layer loss1/relu_conv
I0403 15:25:29.833590  3074 net.cpp:425] loss1/relu_conv <- loss1/conv
I0403 15:25:29.833606  3074 net.cpp:386] loss1/relu_conv -> loss1/conv (in-place)
I0403 15:25:29.833878  3074 net.cpp:141] Setting up loss1/relu_conv
I0403 15:25:29.833905  3074 net.cpp:148] Top shape: 24 128 4 4 (49152)
I0403 15:25:29.833920  3074 net.cpp:156] Memory required for data: 945894432
I0403 15:25:29.833935  3074 layer_factory.hpp:77] Creating layer loss1/fc
I0403 15:25:29.833958  3074 net.cpp:91] Creating Layer loss1/fc
I0403 15:25:29.833976  3074 net.cpp:425] loss1/fc <- loss1/conv
I0403 15:25:29.833995  3074 net.cpp:399] loss1/fc -> loss1/fc
I0403 15:25:29.851300  3074 net.cpp:141] Setting up loss1/fc
I0403 15:25:29.851335  3074 net.cpp:148] Top shape: 24 1024 (24576)
I0403 15:25:29.851351  3074 net.cpp:156] Memory required for data: 945992736
I0403 15:25:29.851371  3074 layer_factory.hpp:77] Creating layer loss1/relu_fc
I0403 15:25:29.851392  3074 net.cpp:91] Creating Layer loss1/relu_fc
I0403 15:25:29.851408  3074 net.cpp:425] loss1/relu_fc <- loss1/fc
I0403 15:25:29.851424  3074 net.cpp:386] loss1/relu_fc -> loss1/fc (in-place)
I0403 15:25:29.851605  3074 net.cpp:141] Setting up loss1/relu_fc
I0403 15:25:29.851631  3074 net.cpp:148] Top shape: 24 1024 (24576)
I0403 15:25:29.851646  3074 net.cpp:156] Memory required for data: 946091040
I0403 15:25:29.851660  3074 layer_factory.hpp:77] Creating layer loss1/drop_fc
I0403 15:25:29.851686  3074 net.cpp:91] Creating Layer loss1/drop_fc
I0403 15:25:29.851702  3074 net.cpp:425] loss1/drop_fc <- loss1/fc
I0403 15:25:29.851719  3074 net.cpp:386] loss1/drop_fc -> loss1/fc (in-place)
I0403 15:25:29.851770  3074 net.cpp:141] Setting up loss1/drop_fc
I0403 15:25:29.851793  3074 net.cpp:148] Top shape: 24 1024 (24576)
I0403 15:25:29.851805  3074 net.cpp:156] Memory required for data: 946189344
I0403 15:25:29.851819  3074 layer_factory.hpp:77] Creating layer loss1/classifier_plantvillage
I0403 15:25:29.851837  3074 net.cpp:91] Creating Layer loss1/classifier_plantvillage
I0403 15:25:29.851857  3074 net.cpp:425] loss1/classifier_plantvillage <- loss1/fc
I0403 15:25:29.851876  3074 net.cpp:399] loss1/classifier_plantvillage -> loss1/classifier_plantvillage
I0403 15:25:29.852754  3074 net.cpp:141] Setting up loss1/classifier_plantvillage
I0403 15:25:29.852784  3074 net.cpp:148] Top shape: 24 38 (912)
I0403 15:25:29.852800  3074 net.cpp:156] Memory required for data: 946192992
I0403 15:25:29.852819  3074 layer_factory.hpp:77] Creating layer loss1/classifier_plantvillage_loss1/classifier_plantvillage_0_split
I0403 15:25:29.852836  3074 net.cpp:91] Creating Layer loss1/classifier_plantvillage_loss1/classifier_plantvillage_0_split
I0403 15:25:29.852851  3074 net.cpp:425] loss1/classifier_plantvillage_loss1/classifier_plantvillage_0_split <- loss1/classifier_plantvillage
I0403 15:25:29.852869  3074 net.cpp:399] loss1/classifier_plantvillage_loss1/classifier_plantvillage_0_split -> loss1/classifier_plantvillage_loss1/classifier_plantvillage_0_split_0
I0403 15:25:29.852888  3074 net.cpp:399] loss1/classifier_plantvillage_loss1/classifier_plantvillage_0_split -> loss1/classifier_plantvillage_loss1/classifier_plantvillage_0_split_1
I0403 15:25:29.852907  3074 net.cpp:399] loss1/classifier_plantvillage_loss1/classifier_plantvillage_0_split -> loss1/classifier_plantvillage_loss1/classifier_plantvillage_0_split_2
I0403 15:25:29.852972  3074 net.cpp:141] Setting up loss1/classifier_plantvillage_loss1/classifier_plantvillage_0_split
I0403 15:25:29.852993  3074 net.cpp:148] Top shape: 24 38 (912)
I0403 15:25:29.853009  3074 net.cpp:148] Top shape: 24 38 (912)
I0403 15:25:29.853024  3074 net.cpp:148] Top shape: 24 38 (912)
I0403 15:25:29.853039  3074 net.cpp:156] Memory required for data: 946203936
I0403 15:25:29.853052  3074 layer_factory.hpp:77] Creating layer inception_4b/1x1
I0403 15:25:29.853072  3074 net.cpp:91] Creating Layer inception_4b/1x1
I0403 15:25:29.853106  3074 net.cpp:425] inception_4b/1x1 <- inception_4a/output_inception_4a/output_0_split_1
I0403 15:25:29.853127  3074 net.cpp:399] inception_4b/1x1 -> inception_4b/1x1
I0403 15:25:29.854797  3074 net.cpp:141] Setting up inception_4b/1x1
I0403 15:25:29.854827  3074 net.cpp:148] Top shape: 24 160 14 14 (752640)
I0403 15:25:29.854843  3074 net.cpp:156] Memory required for data: 949214496
I0403 15:25:29.854861  3074 layer_factory.hpp:77] Creating layer inception_4b/relu_1x1
I0403 15:25:29.854879  3074 net.cpp:91] Creating Layer inception_4b/relu_1x1
I0403 15:25:29.854894  3074 net.cpp:425] inception_4b/relu_1x1 <- inception_4b/1x1
I0403 15:25:29.854912  3074 net.cpp:386] inception_4b/relu_1x1 -> inception_4b/1x1 (in-place)
I0403 15:25:29.855084  3074 net.cpp:141] Setting up inception_4b/relu_1x1
I0403 15:25:29.855108  3074 net.cpp:148] Top shape: 24 160 14 14 (752640)
I0403 15:25:29.855123  3074 net.cpp:156] Memory required for data: 952225056
I0403 15:25:29.855137  3074 layer_factory.hpp:77] Creating layer inception_4b/3x3_reduce
I0403 15:25:29.855166  3074 net.cpp:91] Creating Layer inception_4b/3x3_reduce
I0403 15:25:29.855183  3074 net.cpp:425] inception_4b/3x3_reduce <- inception_4a/output_inception_4a/output_0_split_2
I0403 15:25:29.855206  3074 net.cpp:399] inception_4b/3x3_reduce -> inception_4b/3x3_reduce
I0403 15:25:29.856516  3074 net.cpp:141] Setting up inception_4b/3x3_reduce
I0403 15:25:29.856544  3074 net.cpp:148] Top shape: 24 112 14 14 (526848)
I0403 15:25:29.856559  3074 net.cpp:156] Memory required for data: 954332448
I0403 15:25:29.856577  3074 layer_factory.hpp:77] Creating layer inception_4b/relu_3x3_reduce
I0403 15:25:29.856595  3074 net.cpp:91] Creating Layer inception_4b/relu_3x3_reduce
I0403 15:25:29.856611  3074 net.cpp:425] inception_4b/relu_3x3_reduce <- inception_4b/3x3_reduce
I0403 15:25:29.856629  3074 net.cpp:386] inception_4b/relu_3x3_reduce -> inception_4b/3x3_reduce (in-place)
I0403 15:25:29.856904  3074 net.cpp:141] Setting up inception_4b/relu_3x3_reduce
I0403 15:25:29.856930  3074 net.cpp:148] Top shape: 24 112 14 14 (526848)
I0403 15:25:29.856943  3074 net.cpp:156] Memory required for data: 956439840
I0403 15:25:29.856959  3074 layer_factory.hpp:77] Creating layer inception_4b/3x3
I0403 15:25:29.856981  3074 net.cpp:91] Creating Layer inception_4b/3x3
I0403 15:25:29.856997  3074 net.cpp:425] inception_4b/3x3 <- inception_4b/3x3_reduce
I0403 15:25:29.857018  3074 net.cpp:399] inception_4b/3x3 -> inception_4b/3x3
I0403 15:25:29.859954  3074 net.cpp:141] Setting up inception_4b/3x3
I0403 15:25:29.859989  3074 net.cpp:148] Top shape: 24 224 14 14 (1053696)
I0403 15:25:29.860005  3074 net.cpp:156] Memory required for data: 960654624
I0403 15:25:29.860025  3074 layer_factory.hpp:77] Creating layer inception_4b/relu_3x3
I0403 15:25:29.860044  3074 net.cpp:91] Creating Layer inception_4b/relu_3x3
I0403 15:25:29.860061  3074 net.cpp:425] inception_4b/relu_3x3 <- inception_4b/3x3
I0403 15:25:29.860080  3074 net.cpp:386] inception_4b/relu_3x3 -> inception_4b/3x3 (in-place)
I0403 15:25:29.860260  3074 net.cpp:141] Setting up inception_4b/relu_3x3
I0403 15:25:29.860285  3074 net.cpp:148] Top shape: 24 224 14 14 (1053696)
I0403 15:25:29.860301  3074 net.cpp:156] Memory required for data: 964869408
I0403 15:25:29.860316  3074 layer_factory.hpp:77] Creating layer inception_4b/5x5_reduce
I0403 15:25:29.860339  3074 net.cpp:91] Creating Layer inception_4b/5x5_reduce
I0403 15:25:29.860357  3074 net.cpp:425] inception_4b/5x5_reduce <- inception_4a/output_inception_4a/output_0_split_3
I0403 15:25:29.860375  3074 net.cpp:399] inception_4b/5x5_reduce -> inception_4b/5x5_reduce
I0403 15:25:29.861423  3074 net.cpp:141] Setting up inception_4b/5x5_reduce
I0403 15:25:29.861454  3074 net.cpp:148] Top shape: 24 24 14 14 (112896)
I0403 15:25:29.861470  3074 net.cpp:156] Memory required for data: 965320992
I0403 15:25:29.861488  3074 layer_factory.hpp:77] Creating layer inception_4b/relu_5x5_reduce
I0403 15:25:29.861505  3074 net.cpp:91] Creating Layer inception_4b/relu_5x5_reduce
I0403 15:25:29.861534  3074 net.cpp:425] inception_4b/relu_5x5_reduce <- inception_4b/5x5_reduce
I0403 15:25:29.861555  3074 net.cpp:386] inception_4b/relu_5x5_reduce -> inception_4b/5x5_reduce (in-place)
I0403 15:25:29.861733  3074 net.cpp:141] Setting up inception_4b/relu_5x5_reduce
I0403 15:25:29.861757  3074 net.cpp:148] Top shape: 24 24 14 14 (112896)
I0403 15:25:29.861773  3074 net.cpp:156] Memory required for data: 965772576
I0403 15:25:29.861786  3074 layer_factory.hpp:77] Creating layer inception_4b/5x5
I0403 15:25:29.861809  3074 net.cpp:91] Creating Layer inception_4b/5x5
I0403 15:25:29.861824  3074 net.cpp:425] inception_4b/5x5 <- inception_4b/5x5_reduce
I0403 15:25:29.861845  3074 net.cpp:399] inception_4b/5x5 -> inception_4b/5x5
I0403 15:25:29.863050  3074 net.cpp:141] Setting up inception_4b/5x5
I0403 15:25:29.863081  3074 net.cpp:148] Top shape: 24 64 14 14 (301056)
I0403 15:25:29.863100  3074 net.cpp:156] Memory required for data: 966976800
I0403 15:25:29.863118  3074 layer_factory.hpp:77] Creating layer inception_4b/relu_5x5
I0403 15:25:29.863137  3074 net.cpp:91] Creating Layer inception_4b/relu_5x5
I0403 15:25:29.863152  3074 net.cpp:425] inception_4b/relu_5x5 <- inception_4b/5x5
I0403 15:25:29.863169  3074 net.cpp:386] inception_4b/relu_5x5 -> inception_4b/5x5 (in-place)
I0403 15:25:29.863454  3074 net.cpp:141] Setting up inception_4b/relu_5x5
I0403 15:25:29.863482  3074 net.cpp:148] Top shape: 24 64 14 14 (301056)
I0403 15:25:29.863497  3074 net.cpp:156] Memory required for data: 968181024
I0403 15:25:29.863512  3074 layer_factory.hpp:77] Creating layer inception_4b/pool
I0403 15:25:29.863529  3074 net.cpp:91] Creating Layer inception_4b/pool
I0403 15:25:29.863544  3074 net.cpp:425] inception_4b/pool <- inception_4a/output_inception_4a/output_0_split_4
I0403 15:25:29.863564  3074 net.cpp:399] inception_4b/pool -> inception_4b/pool
I0403 15:25:29.863626  3074 net.cpp:141] Setting up inception_4b/pool
I0403 15:25:29.863648  3074 net.cpp:148] Top shape: 24 512 14 14 (2408448)
I0403 15:25:29.863663  3074 net.cpp:156] Memory required for data: 977814816
I0403 15:25:29.863677  3074 layer_factory.hpp:77] Creating layer inception_4b/pool_proj
I0403 15:25:29.863698  3074 net.cpp:91] Creating Layer inception_4b/pool_proj
I0403 15:25:29.863715  3074 net.cpp:425] inception_4b/pool_proj <- inception_4b/pool
I0403 15:25:29.863737  3074 net.cpp:399] inception_4b/pool_proj -> inception_4b/pool_proj
I0403 15:25:29.864893  3074 net.cpp:141] Setting up inception_4b/pool_proj
I0403 15:25:29.864923  3074 net.cpp:148] Top shape: 24 64 14 14 (301056)
I0403 15:25:29.864939  3074 net.cpp:156] Memory required for data: 979019040
I0403 15:25:29.864959  3074 layer_factory.hpp:77] Creating layer inception_4b/relu_pool_proj
I0403 15:25:29.864976  3074 net.cpp:91] Creating Layer inception_4b/relu_pool_proj
I0403 15:25:29.864995  3074 net.cpp:425] inception_4b/relu_pool_proj <- inception_4b/pool_proj
I0403 15:25:29.865015  3074 net.cpp:386] inception_4b/relu_pool_proj -> inception_4b/pool_proj (in-place)
I0403 15:25:29.865195  3074 net.cpp:141] Setting up inception_4b/relu_pool_proj
I0403 15:25:29.865234  3074 net.cpp:148] Top shape: 24 64 14 14 (301056)
I0403 15:25:29.865252  3074 net.cpp:156] Memory required for data: 980223264
I0403 15:25:29.865267  3074 layer_factory.hpp:77] Creating layer inception_4b/output
I0403 15:25:29.865283  3074 net.cpp:91] Creating Layer inception_4b/output
I0403 15:25:29.865305  3074 net.cpp:425] inception_4b/output <- inception_4b/1x1
I0403 15:25:29.865321  3074 net.cpp:425] inception_4b/output <- inception_4b/3x3
I0403 15:25:29.865340  3074 net.cpp:425] inception_4b/output <- inception_4b/5x5
I0403 15:25:29.865355  3074 net.cpp:425] inception_4b/output <- inception_4b/pool_proj
I0403 15:25:29.865372  3074 net.cpp:399] inception_4b/output -> inception_4b/output
I0403 15:25:29.865416  3074 net.cpp:141] Setting up inception_4b/output
I0403 15:25:29.865440  3074 net.cpp:148] Top shape: 24 512 14 14 (2408448)
I0403 15:25:29.865455  3074 net.cpp:156] Memory required for data: 989857056
I0403 15:25:29.865484  3074 layer_factory.hpp:77] Creating layer inception_4b/output_inception_4b/output_0_split
I0403 15:25:29.865501  3074 net.cpp:91] Creating Layer inception_4b/output_inception_4b/output_0_split
I0403 15:25:29.865516  3074 net.cpp:425] inception_4b/output_inception_4b/output_0_split <- inception_4b/output
I0403 15:25:29.865536  3074 net.cpp:399] inception_4b/output_inception_4b/output_0_split -> inception_4b/output_inception_4b/output_0_split_0
I0403 15:25:29.865556  3074 net.cpp:399] inception_4b/output_inception_4b/output_0_split -> inception_4b/output_inception_4b/output_0_split_1
I0403 15:25:29.865584  3074 net.cpp:399] inception_4b/output_inception_4b/output_0_split -> inception_4b/output_inception_4b/output_0_split_2
I0403 15:25:29.865604  3074 net.cpp:399] inception_4b/output_inception_4b/output_0_split -> inception_4b/output_inception_4b/output_0_split_3
I0403 15:25:29.865682  3074 net.cpp:141] Setting up inception_4b/output_inception_4b/output_0_split
I0403 15:25:29.865720  3074 net.cpp:148] Top shape: 24 512 14 14 (2408448)
I0403 15:25:29.865736  3074 net.cpp:148] Top shape: 24 512 14 14 (2408448)
I0403 15:25:29.865753  3074 net.cpp:148] Top shape: 24 512 14 14 (2408448)
I0403 15:25:29.865768  3074 net.cpp:148] Top shape: 24 512 14 14 (2408448)
I0403 15:25:29.865782  3074 net.cpp:156] Memory required for data: 1028392224
I0403 15:25:29.865797  3074 layer_factory.hpp:77] Creating layer inception_4c/1x1
I0403 15:25:29.865816  3074 net.cpp:91] Creating Layer inception_4c/1x1
I0403 15:25:29.865833  3074 net.cpp:425] inception_4c/1x1 <- inception_4b/output_inception_4b/output_0_split_0
I0403 15:25:29.865854  3074 net.cpp:399] inception_4c/1x1 -> inception_4c/1x1
I0403 15:25:29.867254  3074 net.cpp:141] Setting up inception_4c/1x1
I0403 15:25:29.867283  3074 net.cpp:148] Top shape: 24 128 14 14 (602112)
I0403 15:25:29.867298  3074 net.cpp:156] Memory required for data: 1030800672
I0403 15:25:29.867317  3074 layer_factory.hpp:77] Creating layer inception_4c/relu_1x1
I0403 15:25:29.867337  3074 net.cpp:91] Creating Layer inception_4c/relu_1x1
I0403 15:25:29.867354  3074 net.cpp:425] inception_4c/relu_1x1 <- inception_4c/1x1
I0403 15:25:29.867372  3074 net.cpp:386] inception_4c/relu_1x1 -> inception_4c/1x1 (in-place)
I0403 15:25:29.867554  3074 net.cpp:141] Setting up inception_4c/relu_1x1
I0403 15:25:29.867578  3074 net.cpp:148] Top shape: 24 128 14 14 (602112)
I0403 15:25:29.867594  3074 net.cpp:156] Memory required for data: 1033209120
I0403 15:25:29.867609  3074 layer_factory.hpp:77] Creating layer inception_4c/3x3_reduce
I0403 15:25:29.867631  3074 net.cpp:91] Creating Layer inception_4c/3x3_reduce
I0403 15:25:29.867650  3074 net.cpp:425] inception_4c/3x3_reduce <- inception_4b/output_inception_4b/output_0_split_1
I0403 15:25:29.867668  3074 net.cpp:399] inception_4c/3x3_reduce -> inception_4c/3x3_reduce
I0403 15:25:29.869544  3074 net.cpp:141] Setting up inception_4c/3x3_reduce
I0403 15:25:29.869573  3074 net.cpp:148] Top shape: 24 128 14 14 (602112)
I0403 15:25:29.869588  3074 net.cpp:156] Memory required for data: 1035617568
I0403 15:25:29.869611  3074 layer_factory.hpp:77] Creating layer inception_4c/relu_3x3_reduce
I0403 15:25:29.869628  3074 net.cpp:91] Creating Layer inception_4c/relu_3x3_reduce
I0403 15:25:29.869645  3074 net.cpp:425] inception_4c/relu_3x3_reduce <- inception_4c/3x3_reduce
I0403 15:25:29.869663  3074 net.cpp:386] inception_4c/relu_3x3_reduce -> inception_4c/3x3_reduce (in-place)
I0403 15:25:29.869943  3074 net.cpp:141] Setting up inception_4c/relu_3x3_reduce
I0403 15:25:29.869971  3074 net.cpp:148] Top shape: 24 128 14 14 (602112)
I0403 15:25:29.869987  3074 net.cpp:156] Memory required for data: 1038026016
I0403 15:25:29.870003  3074 layer_factory.hpp:77] Creating layer inception_4c/3x3
I0403 15:25:29.870028  3074 net.cpp:91] Creating Layer inception_4c/3x3
I0403 15:25:29.870048  3074 net.cpp:425] inception_4c/3x3 <- inception_4c/3x3_reduce
I0403 15:25:29.870066  3074 net.cpp:399] inception_4c/3x3 -> inception_4c/3x3
I0403 15:25:29.873662  3074 net.cpp:141] Setting up inception_4c/3x3
I0403 15:25:29.873705  3074 net.cpp:148] Top shape: 24 256 14 14 (1204224)
I0403 15:25:29.873723  3074 net.cpp:156] Memory required for data: 1042842912
I0403 15:25:29.873755  3074 layer_factory.hpp:77] Creating layer inception_4c/relu_3x3
I0403 15:25:29.873775  3074 net.cpp:91] Creating Layer inception_4c/relu_3x3
I0403 15:25:29.873792  3074 net.cpp:425] inception_4c/relu_3x3 <- inception_4c/3x3
I0403 15:25:29.873812  3074 net.cpp:386] inception_4c/relu_3x3 -> inception_4c/3x3 (in-place)
I0403 15:25:29.873988  3074 net.cpp:141] Setting up inception_4c/relu_3x3
I0403 15:25:29.874016  3074 net.cpp:148] Top shape: 24 256 14 14 (1204224)
I0403 15:25:29.874030  3074 net.cpp:156] Memory required for data: 1047659808
I0403 15:25:29.874044  3074 layer_factory.hpp:77] Creating layer inception_4c/5x5_reduce
I0403 15:25:29.874068  3074 net.cpp:91] Creating Layer inception_4c/5x5_reduce
I0403 15:25:29.874083  3074 net.cpp:425] inception_4c/5x5_reduce <- inception_4b/output_inception_4b/output_0_split_2
I0403 15:25:29.874102  3074 net.cpp:399] inception_4c/5x5_reduce -> inception_4c/5x5_reduce
I0403 15:25:29.875169  3074 net.cpp:141] Setting up inception_4c/5x5_reduce
I0403 15:25:29.875197  3074 net.cpp:148] Top shape: 24 24 14 14 (112896)
I0403 15:25:29.875217  3074 net.cpp:156] Memory required for data: 1048111392
I0403 15:25:29.875236  3074 layer_factory.hpp:77] Creating layer inception_4c/relu_5x5_reduce
I0403 15:25:29.875253  3074 net.cpp:91] Creating Layer inception_4c/relu_5x5_reduce
I0403 15:25:29.875269  3074 net.cpp:425] inception_4c/relu_5x5_reduce <- inception_4c/5x5_reduce
I0403 15:25:29.875288  3074 net.cpp:386] inception_4c/relu_5x5_reduce -> inception_4c/5x5_reduce (in-place)
I0403 15:25:29.875468  3074 net.cpp:141] Setting up inception_4c/relu_5x5_reduce
I0403 15:25:29.875504  3074 net.cpp:148] Top shape: 24 24 14 14 (112896)
I0403 15:25:29.875519  3074 net.cpp:156] Memory required for data: 1048562976
I0403 15:25:29.875533  3074 layer_factory.hpp:77] Creating layer inception_4c/5x5
I0403 15:25:29.875555  3074 net.cpp:91] Creating Layer inception_4c/5x5
I0403 15:25:29.875573  3074 net.cpp:425] inception_4c/5x5 <- inception_4c/5x5_reduce
I0403 15:25:29.875594  3074 net.cpp:399] inception_4c/5x5 -> inception_4c/5x5
I0403 15:25:29.876832  3074 net.cpp:141] Setting up inception_4c/5x5
I0403 15:25:29.876859  3074 net.cpp:148] Top shape: 24 64 14 14 (301056)
I0403 15:25:29.876875  3074 net.cpp:156] Memory required for data: 1049767200
I0403 15:25:29.876893  3074 layer_factory.hpp:77] Creating layer inception_4c/relu_5x5
I0403 15:25:29.876914  3074 net.cpp:91] Creating Layer inception_4c/relu_5x5
I0403 15:25:29.876930  3074 net.cpp:425] inception_4c/relu_5x5 <- inception_4c/5x5
I0403 15:25:29.876948  3074 net.cpp:386] inception_4c/relu_5x5 -> inception_4c/5x5 (in-place)
I0403 15:25:29.877243  3074 net.cpp:141] Setting up inception_4c/relu_5x5
I0403 15:25:29.877269  3074 net.cpp:148] Top shape: 24 64 14 14 (301056)
I0403 15:25:29.877284  3074 net.cpp:156] Memory required for data: 1050971424
I0403 15:25:29.877298  3074 layer_factory.hpp:77] Creating layer inception_4c/pool
I0403 15:25:29.877316  3074 net.cpp:91] Creating Layer inception_4c/pool
I0403 15:25:29.877336  3074 net.cpp:425] inception_4c/pool <- inception_4b/output_inception_4b/output_0_split_3
I0403 15:25:29.877353  3074 net.cpp:399] inception_4c/pool -> inception_4c/pool
I0403 15:25:29.877419  3074 net.cpp:141] Setting up inception_4c/pool
I0403 15:25:29.877444  3074 net.cpp:148] Top shape: 24 512 14 14 (2408448)
I0403 15:25:29.877457  3074 net.cpp:156] Memory required for data: 1060605216
I0403 15:25:29.877472  3074 layer_factory.hpp:77] Creating layer inception_4c/pool_proj
I0403 15:25:29.877495  3074 net.cpp:91] Creating Layer inception_4c/pool_proj
I0403 15:25:29.877511  3074 net.cpp:425] inception_4c/pool_proj <- inception_4c/pool
I0403 15:25:29.877532  3074 net.cpp:399] inception_4c/pool_proj -> inception_4c/pool_proj
I0403 15:25:29.878744  3074 net.cpp:141] Setting up inception_4c/pool_proj
I0403 15:25:29.878777  3074 net.cpp:148] Top shape: 24 64 14 14 (301056)
I0403 15:25:29.878808  3074 net.cpp:156] Memory required for data: 1061809440
I0403 15:25:29.878828  3074 layer_factory.hpp:77] Creating layer inception_4c/relu_pool_proj
I0403 15:25:29.878846  3074 net.cpp:91] Creating Layer inception_4c/relu_pool_proj
I0403 15:25:29.878862  3074 net.cpp:425] inception_4c/relu_pool_proj <- inception_4c/pool_proj
I0403 15:25:29.878881  3074 net.cpp:386] inception_4c/relu_pool_proj -> inception_4c/pool_proj (in-place)
I0403 15:25:29.879067  3074 net.cpp:141] Setting up inception_4c/relu_pool_proj
I0403 15:25:29.879092  3074 net.cpp:148] Top shape: 24 64 14 14 (301056)
I0403 15:25:29.879107  3074 net.cpp:156] Memory required for data: 1063013664
I0403 15:25:29.879122  3074 layer_factory.hpp:77] Creating layer inception_4c/output
I0403 15:25:29.879140  3074 net.cpp:91] Creating Layer inception_4c/output
I0403 15:25:29.879156  3074 net.cpp:425] inception_4c/output <- inception_4c/1x1
I0403 15:25:29.879173  3074 net.cpp:425] inception_4c/output <- inception_4c/3x3
I0403 15:25:29.879189  3074 net.cpp:425] inception_4c/output <- inception_4c/5x5
I0403 15:25:29.879205  3074 net.cpp:425] inception_4c/output <- inception_4c/pool_proj
I0403 15:25:29.879230  3074 net.cpp:399] inception_4c/output -> inception_4c/output
I0403 15:25:29.879276  3074 net.cpp:141] Setting up inception_4c/output
I0403 15:25:29.879302  3074 net.cpp:148] Top shape: 24 512 14 14 (2408448)
I0403 15:25:29.879317  3074 net.cpp:156] Memory required for data: 1072647456
I0403 15:25:29.879331  3074 layer_factory.hpp:77] Creating layer inception_4c/output_inception_4c/output_0_split
I0403 15:25:29.879348  3074 net.cpp:91] Creating Layer inception_4c/output_inception_4c/output_0_split
I0403 15:25:29.879364  3074 net.cpp:425] inception_4c/output_inception_4c/output_0_split <- inception_4c/output
I0403 15:25:29.879384  3074 net.cpp:399] inception_4c/output_inception_4c/output_0_split -> inception_4c/output_inception_4c/output_0_split_0
I0403 15:25:29.879408  3074 net.cpp:399] inception_4c/output_inception_4c/output_0_split -> inception_4c/output_inception_4c/output_0_split_1
I0403 15:25:29.879428  3074 net.cpp:399] inception_4c/output_inception_4c/output_0_split -> inception_4c/output_inception_4c/output_0_split_2
I0403 15:25:29.879449  3074 net.cpp:399] inception_4c/output_inception_4c/output_0_split -> inception_4c/output_inception_4c/output_0_split_3
I0403 15:25:29.879533  3074 net.cpp:141] Setting up inception_4c/output_inception_4c/output_0_split
I0403 15:25:29.879556  3074 net.cpp:148] Top shape: 24 512 14 14 (2408448)
I0403 15:25:29.879572  3074 net.cpp:148] Top shape: 24 512 14 14 (2408448)
I0403 15:25:29.879588  3074 net.cpp:148] Top shape: 24 512 14 14 (2408448)
I0403 15:25:29.879604  3074 net.cpp:148] Top shape: 24 512 14 14 (2408448)
I0403 15:25:29.879617  3074 net.cpp:156] Memory required for data: 1111182624
I0403 15:25:29.879631  3074 layer_factory.hpp:77] Creating layer inception_4d/1x1
I0403 15:25:29.879653  3074 net.cpp:91] Creating Layer inception_4d/1x1
I0403 15:25:29.879672  3074 net.cpp:425] inception_4d/1x1 <- inception_4c/output_inception_4c/output_0_split_0
I0403 15:25:29.879693  3074 net.cpp:399] inception_4d/1x1 -> inception_4d/1x1
I0403 15:25:29.881069  3074 net.cpp:141] Setting up inception_4d/1x1
I0403 15:25:29.881099  3074 net.cpp:148] Top shape: 24 112 14 14 (526848)
I0403 15:25:29.881115  3074 net.cpp:156] Memory required for data: 1113290016
I0403 15:25:29.881134  3074 layer_factory.hpp:77] Creating layer inception_4d/relu_1x1
I0403 15:25:29.881155  3074 net.cpp:91] Creating Layer inception_4d/relu_1x1
I0403 15:25:29.881172  3074 net.cpp:425] inception_4d/relu_1x1 <- inception_4d/1x1
I0403 15:25:29.881191  3074 net.cpp:386] inception_4d/relu_1x1 -> inception_4d/1x1 (in-place)
I0403 15:25:29.881378  3074 net.cpp:141] Setting up inception_4d/relu_1x1
I0403 15:25:29.881407  3074 net.cpp:148] Top shape: 24 112 14 14 (526848)
I0403 15:25:29.881422  3074 net.cpp:156] Memory required for data: 1115397408
I0403 15:25:29.881438  3074 layer_factory.hpp:77] Creating layer inception_4d/3x3_reduce
I0403 15:25:29.881474  3074 net.cpp:91] Creating Layer inception_4d/3x3_reduce
I0403 15:25:29.881492  3074 net.cpp:425] inception_4d/3x3_reduce <- inception_4c/output_inception_4c/output_0_split_1
I0403 15:25:29.881511  3074 net.cpp:399] inception_4d/3x3_reduce -> inception_4d/3x3_reduce
I0403 15:25:29.883021  3074 net.cpp:141] Setting up inception_4d/3x3_reduce
I0403 15:25:29.883049  3074 net.cpp:148] Top shape: 24 144 14 14 (677376)
I0403 15:25:29.883066  3074 net.cpp:156] Memory required for data: 1118106912
I0403 15:25:29.883085  3074 layer_factory.hpp:77] Creating layer inception_4d/relu_3x3_reduce
I0403 15:25:29.883105  3074 net.cpp:91] Creating Layer inception_4d/relu_3x3_reduce
I0403 15:25:29.883122  3074 net.cpp:425] inception_4d/relu_3x3_reduce <- inception_4d/3x3_reduce
I0403 15:25:29.883141  3074 net.cpp:386] inception_4d/relu_3x3_reduce -> inception_4d/3x3_reduce (in-place)
I0403 15:25:29.883483  3074 net.cpp:141] Setting up inception_4d/relu_3x3_reduce
I0403 15:25:29.883510  3074 net.cpp:148] Top shape: 24 144 14 14 (677376)
I0403 15:25:29.883525  3074 net.cpp:156] Memory required for data: 1120816416
I0403 15:25:29.883540  3074 layer_factory.hpp:77] Creating layer inception_4d/3x3
I0403 15:25:29.883563  3074 net.cpp:91] Creating Layer inception_4d/3x3
I0403 15:25:29.883579  3074 net.cpp:425] inception_4d/3x3 <- inception_4d/3x3_reduce
I0403 15:25:29.883601  3074 net.cpp:399] inception_4d/3x3 -> inception_4d/3x3
I0403 15:25:29.887858  3074 net.cpp:141] Setting up inception_4d/3x3
I0403 15:25:29.887888  3074 net.cpp:148] Top shape: 24 288 14 14 (1354752)
I0403 15:25:29.887907  3074 net.cpp:156] Memory required for data: 1126235424
I0403 15:25:29.887926  3074 layer_factory.hpp:77] Creating layer inception_4d/relu_3x3
I0403 15:25:29.887946  3074 net.cpp:91] Creating Layer inception_4d/relu_3x3
I0403 15:25:29.887962  3074 net.cpp:425] inception_4d/relu_3x3 <- inception_4d/3x3
I0403 15:25:29.887980  3074 net.cpp:386] inception_4d/relu_3x3 -> inception_4d/3x3 (in-place)
I0403 15:25:29.888166  3074 net.cpp:141] Setting up inception_4d/relu_3x3
I0403 15:25:29.888191  3074 net.cpp:148] Top shape: 24 288 14 14 (1354752)
I0403 15:25:29.888211  3074 net.cpp:156] Memory required for data: 1131654432
I0403 15:25:29.888228  3074 layer_factory.hpp:77] Creating layer inception_4d/5x5_reduce
I0403 15:25:29.888252  3074 net.cpp:91] Creating Layer inception_4d/5x5_reduce
I0403 15:25:29.888269  3074 net.cpp:425] inception_4d/5x5_reduce <- inception_4c/output_inception_4c/output_0_split_2
I0403 15:25:29.888291  3074 net.cpp:399] inception_4d/5x5_reduce -> inception_4d/5x5_reduce
I0403 15:25:29.889439  3074 net.cpp:141] Setting up inception_4d/5x5_reduce
I0403 15:25:29.889467  3074 net.cpp:148] Top shape: 24 32 14 14 (150528)
I0403 15:25:29.889483  3074 net.cpp:156] Memory required for data: 1132256544
I0403 15:25:29.889502  3074 layer_factory.hpp:77] Creating layer inception_4d/relu_5x5_reduce
I0403 15:25:29.889523  3074 net.cpp:91] Creating Layer inception_4d/relu_5x5_reduce
I0403 15:25:29.889539  3074 net.cpp:425] inception_4d/relu_5x5_reduce <- inception_4d/5x5_reduce
I0403 15:25:29.889556  3074 net.cpp:386] inception_4d/relu_5x5_reduce -> inception_4d/5x5_reduce (in-place)
I0403 15:25:29.889741  3074 net.cpp:141] Setting up inception_4d/relu_5x5_reduce
I0403 15:25:29.889768  3074 net.cpp:148] Top shape: 24 32 14 14 (150528)
I0403 15:25:29.889786  3074 net.cpp:156] Memory required for data: 1132858656
I0403 15:25:29.889801  3074 layer_factory.hpp:77] Creating layer inception_4d/5x5
I0403 15:25:29.889822  3074 net.cpp:91] Creating Layer inception_4d/5x5
I0403 15:25:29.889840  3074 net.cpp:425] inception_4d/5x5 <- inception_4d/5x5_reduce
I0403 15:25:29.889858  3074 net.cpp:399] inception_4d/5x5 -> inception_4d/5x5
I0403 15:25:29.891360  3074 net.cpp:141] Setting up inception_4d/5x5
I0403 15:25:29.891391  3074 net.cpp:148] Top shape: 24 64 14 14 (301056)
I0403 15:25:29.891408  3074 net.cpp:156] Memory required for data: 1134062880
I0403 15:25:29.891429  3074 layer_factory.hpp:77] Creating layer inception_4d/relu_5x5
I0403 15:25:29.891463  3074 net.cpp:91] Creating Layer inception_4d/relu_5x5
I0403 15:25:29.891480  3074 net.cpp:425] inception_4d/relu_5x5 <- inception_4d/5x5
I0403 15:25:29.891500  3074 net.cpp:386] inception_4d/relu_5x5 -> inception_4d/5x5 (in-place)
I0403 15:25:29.891800  3074 net.cpp:141] Setting up inception_4d/relu_5x5
I0403 15:25:29.891829  3074 net.cpp:148] Top shape: 24 64 14 14 (301056)
I0403 15:25:29.891844  3074 net.cpp:156] Memory required for data: 1135267104
I0403 15:25:29.891860  3074 layer_factory.hpp:77] Creating layer inception_4d/pool
I0403 15:25:29.891878  3074 net.cpp:91] Creating Layer inception_4d/pool
I0403 15:25:29.891894  3074 net.cpp:425] inception_4d/pool <- inception_4c/output_inception_4c/output_0_split_3
I0403 15:25:29.891916  3074 net.cpp:399] inception_4d/pool -> inception_4d/pool
I0403 15:25:29.891983  3074 net.cpp:141] Setting up inception_4d/pool
I0403 15:25:29.892009  3074 net.cpp:148] Top shape: 24 512 14 14 (2408448)
I0403 15:25:29.892026  3074 net.cpp:156] Memory required for data: 1144900896
I0403 15:25:29.892041  3074 layer_factory.hpp:77] Creating layer inception_4d/pool_proj
I0403 15:25:29.892065  3074 net.cpp:91] Creating Layer inception_4d/pool_proj
I0403 15:25:29.892083  3074 net.cpp:425] inception_4d/pool_proj <- inception_4d/pool
I0403 15:25:29.892103  3074 net.cpp:399] inception_4d/pool_proj -> inception_4d/pool_proj
I0403 15:25:29.893873  3074 net.cpp:141] Setting up inception_4d/pool_proj
I0403 15:25:29.893903  3074 net.cpp:148] Top shape: 24 64 14 14 (301056)
I0403 15:25:29.893920  3074 net.cpp:156] Memory required for data: 1146105120
I0403 15:25:29.893940  3074 layer_factory.hpp:77] Creating layer inception_4d/relu_pool_proj
I0403 15:25:29.893960  3074 net.cpp:91] Creating Layer inception_4d/relu_pool_proj
I0403 15:25:29.893977  3074 net.cpp:425] inception_4d/relu_pool_proj <- inception_4d/pool_proj
I0403 15:25:29.893996  3074 net.cpp:386] inception_4d/relu_pool_proj -> inception_4d/pool_proj (in-place)
I0403 15:25:29.894183  3074 net.cpp:141] Setting up inception_4d/relu_pool_proj
I0403 15:25:29.894214  3074 net.cpp:148] Top shape: 24 64 14 14 (301056)
I0403 15:25:29.894232  3074 net.cpp:156] Memory required for data: 1147309344
I0403 15:25:29.894246  3074 layer_factory.hpp:77] Creating layer inception_4d/output
I0403 15:25:29.894263  3074 net.cpp:91] Creating Layer inception_4d/output
I0403 15:25:29.894279  3074 net.cpp:425] inception_4d/output <- inception_4d/1x1
I0403 15:25:29.894295  3074 net.cpp:425] inception_4d/output <- inception_4d/3x3
I0403 15:25:29.894311  3074 net.cpp:425] inception_4d/output <- inception_4d/5x5
I0403 15:25:29.894327  3074 net.cpp:425] inception_4d/output <- inception_4d/pool_proj
I0403 15:25:29.894346  3074 net.cpp:399] inception_4d/output -> inception_4d/output
I0403 15:25:29.894394  3074 net.cpp:141] Setting up inception_4d/output
I0403 15:25:29.894418  3074 net.cpp:148] Top shape: 24 528 14 14 (2483712)
I0403 15:25:29.894438  3074 net.cpp:156] Memory required for data: 1157244192
I0403 15:25:29.894454  3074 layer_factory.hpp:77] Creating layer inception_4d/output_inception_4d/output_0_split
I0403 15:25:29.894471  3074 net.cpp:91] Creating Layer inception_4d/output_inception_4d/output_0_split
I0403 15:25:29.894486  3074 net.cpp:425] inception_4d/output_inception_4d/output_0_split <- inception_4d/output
I0403 15:25:29.894505  3074 net.cpp:399] inception_4d/output_inception_4d/output_0_split -> inception_4d/output_inception_4d/output_0_split_0
I0403 15:25:29.894525  3074 net.cpp:399] inception_4d/output_inception_4d/output_0_split -> inception_4d/output_inception_4d/output_0_split_1
I0403 15:25:29.894547  3074 net.cpp:399] inception_4d/output_inception_4d/output_0_split -> inception_4d/output_inception_4d/output_0_split_2
I0403 15:25:29.894569  3074 net.cpp:399] inception_4d/output_inception_4d/output_0_split -> inception_4d/output_inception_4d/output_0_split_3
I0403 15:25:29.894589  3074 net.cpp:399] inception_4d/output_inception_4d/output_0_split -> inception_4d/output_inception_4d/output_0_split_4
I0403 15:25:29.894691  3074 net.cpp:141] Setting up inception_4d/output_inception_4d/output_0_split
I0403 15:25:29.894727  3074 net.cpp:148] Top shape: 24 528 14 14 (2483712)
I0403 15:25:29.894744  3074 net.cpp:148] Top shape: 24 528 14 14 (2483712)
I0403 15:25:29.894760  3074 net.cpp:148] Top shape: 24 528 14 14 (2483712)
I0403 15:25:29.894776  3074 net.cpp:148] Top shape: 24 528 14 14 (2483712)
I0403 15:25:29.894791  3074 net.cpp:148] Top shape: 24 528 14 14 (2483712)
I0403 15:25:29.894805  3074 net.cpp:156] Memory required for data: 1206918432
I0403 15:25:29.894820  3074 layer_factory.hpp:77] Creating layer loss2/ave_pool
I0403 15:25:29.894840  3074 net.cpp:91] Creating Layer loss2/ave_pool
I0403 15:25:29.894857  3074 net.cpp:425] loss2/ave_pool <- inception_4d/output_inception_4d/output_0_split_0
I0403 15:25:29.894876  3074 net.cpp:399] loss2/ave_pool -> loss2/ave_pool
I0403 15:25:29.895189  3074 net.cpp:141] Setting up loss2/ave_pool
I0403 15:25:29.895220  3074 net.cpp:148] Top shape: 24 528 4 4 (202752)
I0403 15:25:29.895236  3074 net.cpp:156] Memory required for data: 1207729440
I0403 15:25:29.895251  3074 layer_factory.hpp:77] Creating layer loss2/conv
I0403 15:25:29.895274  3074 net.cpp:91] Creating Layer loss2/conv
I0403 15:25:29.895292  3074 net.cpp:425] loss2/conv <- loss2/ave_pool
I0403 15:25:29.895311  3074 net.cpp:399] loss2/conv -> loss2/conv
I0403 15:25:29.897202  3074 net.cpp:141] Setting up loss2/conv
I0403 15:25:29.897235  3074 net.cpp:148] Top shape: 24 128 4 4 (49152)
I0403 15:25:29.897253  3074 net.cpp:156] Memory required for data: 1207926048
I0403 15:25:29.897272  3074 layer_factory.hpp:77] Creating layer loss2/relu_conv
I0403 15:25:29.897290  3074 net.cpp:91] Creating Layer loss2/relu_conv
I0403 15:25:29.897305  3074 net.cpp:425] loss2/relu_conv <- loss2/conv
I0403 15:25:29.897325  3074 net.cpp:386] loss2/relu_conv -> loss2/conv (in-place)
I0403 15:25:29.897614  3074 net.cpp:141] Setting up loss2/relu_conv
I0403 15:25:29.897641  3074 net.cpp:148] Top shape: 24 128 4 4 (49152)
I0403 15:25:29.897658  3074 net.cpp:156] Memory required for data: 1208122656
I0403 15:25:29.897675  3074 layer_factory.hpp:77] Creating layer loss2/fc
I0403 15:25:29.897693  3074 net.cpp:91] Creating Layer loss2/fc
I0403 15:25:29.897709  3074 net.cpp:425] loss2/fc <- loss2/conv
I0403 15:25:29.897730  3074 net.cpp:399] loss2/fc -> loss2/fc
I0403 15:25:29.915472  3074 net.cpp:141] Setting up loss2/fc
I0403 15:25:29.915527  3074 net.cpp:148] Top shape: 24 1024 (24576)
I0403 15:25:29.915544  3074 net.cpp:156] Memory required for data: 1208220960
I0403 15:25:29.915566  3074 layer_factory.hpp:77] Creating layer loss2/relu_fc
I0403 15:25:29.915585  3074 net.cpp:91] Creating Layer loss2/relu_fc
I0403 15:25:29.915602  3074 net.cpp:425] loss2/relu_fc <- loss2/fc
I0403 15:25:29.915621  3074 net.cpp:386] loss2/relu_fc -> loss2/fc (in-place)
I0403 15:25:29.915964  3074 net.cpp:141] Setting up loss2/relu_fc
I0403 15:25:29.915994  3074 net.cpp:148] Top shape: 24 1024 (24576)
I0403 15:25:29.916010  3074 net.cpp:156] Memory required for data: 1208319264
I0403 15:25:29.916045  3074 layer_factory.hpp:77] Creating layer loss2/drop_fc
I0403 15:25:29.916064  3074 net.cpp:91] Creating Layer loss2/drop_fc
I0403 15:25:29.916079  3074 net.cpp:425] loss2/drop_fc <- loss2/fc
I0403 15:25:29.916095  3074 net.cpp:386] loss2/drop_fc -> loss2/fc (in-place)
I0403 15:25:29.916148  3074 net.cpp:141] Setting up loss2/drop_fc
I0403 15:25:29.916170  3074 net.cpp:148] Top shape: 24 1024 (24576)
I0403 15:25:29.916185  3074 net.cpp:156] Memory required for data: 1208417568
I0403 15:25:29.916199  3074 layer_factory.hpp:77] Creating layer loss2/classifier_plantvillage
I0403 15:25:29.916224  3074 net.cpp:91] Creating Layer loss2/classifier_plantvillage
I0403 15:25:29.916242  3074 net.cpp:425] loss2/classifier_plantvillage <- loss2/fc
I0403 15:25:29.916260  3074 net.cpp:399] loss2/classifier_plantvillage -> loss2/classifier_plantvillage
I0403 15:25:29.916676  3074 net.cpp:141] Setting up loss2/classifier_plantvillage
I0403 15:25:29.916699  3074 net.cpp:148] Top shape: 24 38 (912)
I0403 15:25:29.916738  3074 net.cpp:156] Memory required for data: 1208421216
I0403 15:25:29.916759  3074 layer_factory.hpp:77] Creating layer loss2/classifier_plantvillage_loss2/classifier_plantvillage_0_split
I0403 15:25:29.916776  3074 net.cpp:91] Creating Layer loss2/classifier_plantvillage_loss2/classifier_plantvillage_0_split
I0403 15:25:29.916792  3074 net.cpp:425] loss2/classifier_plantvillage_loss2/classifier_plantvillage_0_split <- loss2/classifier_plantvillage
I0403 15:25:29.916812  3074 net.cpp:399] loss2/classifier_plantvillage_loss2/classifier_plantvillage_0_split -> loss2/classifier_plantvillage_loss2/classifier_plantvillage_0_split_0
I0403 15:25:29.916834  3074 net.cpp:399] loss2/classifier_plantvillage_loss2/classifier_plantvillage_0_split -> loss2/classifier_plantvillage_loss2/classifier_plantvillage_0_split_1
I0403 15:25:29.916856  3074 net.cpp:399] loss2/classifier_plantvillage_loss2/classifier_plantvillage_0_split -> loss2/classifier_plantvillage_loss2/classifier_plantvillage_0_split_2
I0403 15:25:29.916932  3074 net.cpp:141] Setting up loss2/classifier_plantvillage_loss2/classifier_plantvillage_0_split
I0403 15:25:29.916956  3074 net.cpp:148] Top shape: 24 38 (912)
I0403 15:25:29.916971  3074 net.cpp:148] Top shape: 24 38 (912)
I0403 15:25:29.916987  3074 net.cpp:148] Top shape: 24 38 (912)
I0403 15:25:29.917001  3074 net.cpp:156] Memory required for data: 1208432160
I0403 15:25:29.917016  3074 layer_factory.hpp:77] Creating layer inception_4e/1x1
I0403 15:25:29.917038  3074 net.cpp:91] Creating Layer inception_4e/1x1
I0403 15:25:29.917057  3074 net.cpp:425] inception_4e/1x1 <- inception_4d/output_inception_4d/output_0_split_1
I0403 15:25:29.917075  3074 net.cpp:399] inception_4e/1x1 -> inception_4e/1x1
I0403 15:25:29.918946  3074 net.cpp:141] Setting up inception_4e/1x1
I0403 15:25:29.918973  3074 net.cpp:148] Top shape: 24 256 14 14 (1204224)
I0403 15:25:29.918989  3074 net.cpp:156] Memory required for data: 1213249056
I0403 15:25:29.919008  3074 layer_factory.hpp:77] Creating layer inception_4e/relu_1x1
I0403 15:25:29.919026  3074 net.cpp:91] Creating Layer inception_4e/relu_1x1
I0403 15:25:29.919042  3074 net.cpp:425] inception_4e/relu_1x1 <- inception_4e/1x1
I0403 15:25:29.919059  3074 net.cpp:386] inception_4e/relu_1x1 -> inception_4e/1x1 (in-place)
I0403 15:25:29.919355  3074 net.cpp:141] Setting up inception_4e/relu_1x1
I0403 15:25:29.919381  3074 net.cpp:148] Top shape: 24 256 14 14 (1204224)
I0403 15:25:29.919395  3074 net.cpp:156] Memory required for data: 1218065952
I0403 15:25:29.919410  3074 layer_factory.hpp:77] Creating layer inception_4e/3x3_reduce
I0403 15:25:29.919431  3074 net.cpp:91] Creating Layer inception_4e/3x3_reduce
I0403 15:25:29.919448  3074 net.cpp:425] inception_4e/3x3_reduce <- inception_4d/output_inception_4d/output_0_split_2
I0403 15:25:29.919469  3074 net.cpp:399] inception_4e/3x3_reduce -> inception_4e/3x3_reduce
I0403 15:25:29.921553  3074 net.cpp:141] Setting up inception_4e/3x3_reduce
I0403 15:25:29.921582  3074 net.cpp:148] Top shape: 24 160 14 14 (752640)
I0403 15:25:29.921598  3074 net.cpp:156] Memory required for data: 1221076512
I0403 15:25:29.921617  3074 layer_factory.hpp:77] Creating layer inception_4e/relu_3x3_reduce
I0403 15:25:29.921634  3074 net.cpp:91] Creating Layer inception_4e/relu_3x3_reduce
I0403 15:25:29.921650  3074 net.cpp:425] inception_4e/relu_3x3_reduce <- inception_4e/3x3_reduce
I0403 15:25:29.921669  3074 net.cpp:386] inception_4e/relu_3x3_reduce -> inception_4e/3x3_reduce (in-place)
I0403 15:25:29.921851  3074 net.cpp:141] Setting up inception_4e/relu_3x3_reduce
I0403 15:25:29.921875  3074 net.cpp:148] Top shape: 24 160 14 14 (752640)
I0403 15:25:29.921890  3074 net.cpp:156] Memory required for data: 1224087072
I0403 15:25:29.921905  3074 layer_factory.hpp:77] Creating layer inception_4e/3x3
I0403 15:25:29.921926  3074 net.cpp:91] Creating Layer inception_4e/3x3
I0403 15:25:29.921941  3074 net.cpp:425] inception_4e/3x3 <- inception_4e/3x3_reduce
I0403 15:25:29.921962  3074 net.cpp:399] inception_4e/3x3 -> inception_4e/3x3
I0403 15:25:29.926829  3074 net.cpp:141] Setting up inception_4e/3x3
I0403 15:25:29.926870  3074 net.cpp:148] Top shape: 24 320 14 14 (1505280)
I0403 15:25:29.926887  3074 net.cpp:156] Memory required for data: 1230108192
I0403 15:25:29.926906  3074 layer_factory.hpp:77] Creating layer inception_4e/relu_3x3
I0403 15:25:29.926926  3074 net.cpp:91] Creating Layer inception_4e/relu_3x3
I0403 15:25:29.926944  3074 net.cpp:425] inception_4e/relu_3x3 <- inception_4e/3x3
I0403 15:25:29.926961  3074 net.cpp:386] inception_4e/relu_3x3 -> inception_4e/3x3 (in-place)
I0403 15:25:29.927259  3074 net.cpp:141] Setting up inception_4e/relu_3x3
I0403 15:25:29.927286  3074 net.cpp:148] Top shape: 24 320 14 14 (1505280)
I0403 15:25:29.927301  3074 net.cpp:156] Memory required for data: 1236129312
I0403 15:25:29.927316  3074 layer_factory.hpp:77] Creating layer inception_4e/5x5_reduce
I0403 15:25:29.927337  3074 net.cpp:91] Creating Layer inception_4e/5x5_reduce
I0403 15:25:29.927355  3074 net.cpp:425] inception_4e/5x5_reduce <- inception_4d/output_inception_4d/output_0_split_3
I0403 15:25:29.927376  3074 net.cpp:399] inception_4e/5x5_reduce -> inception_4e/5x5_reduce
I0403 15:25:29.928423  3074 net.cpp:141] Setting up inception_4e/5x5_reduce
I0403 15:25:29.928453  3074 net.cpp:148] Top shape: 24 32 14 14 (150528)
I0403 15:25:29.928469  3074 net.cpp:156] Memory required for data: 1236731424
I0403 15:25:29.928488  3074 layer_factory.hpp:77] Creating layer inception_4e/relu_5x5_reduce
I0403 15:25:29.928505  3074 net.cpp:91] Creating Layer inception_4e/relu_5x5_reduce
I0403 15:25:29.928521  3074 net.cpp:425] inception_4e/relu_5x5_reduce <- inception_4e/5x5_reduce
I0403 15:25:29.928540  3074 net.cpp:386] inception_4e/relu_5x5_reduce -> inception_4e/5x5_reduce (in-place)
I0403 15:25:29.928848  3074 net.cpp:141] Setting up inception_4e/relu_5x5_reduce
I0403 15:25:29.928875  3074 net.cpp:148] Top shape: 24 32 14 14 (150528)
I0403 15:25:29.928891  3074 net.cpp:156] Memory required for data: 1237333536
I0403 15:25:29.928907  3074 layer_factory.hpp:77] Creating layer inception_4e/5x5
I0403 15:25:29.928947  3074 net.cpp:91] Creating Layer inception_4e/5x5
I0403 15:25:29.928966  3074 net.cpp:425] inception_4e/5x5 <- inception_4e/5x5_reduce
I0403 15:25:29.928988  3074 net.cpp:399] inception_4e/5x5 -> inception_4e/5x5
I0403 15:25:29.930835  3074 net.cpp:141] Setting up inception_4e/5x5
I0403 15:25:29.930863  3074 net.cpp:148] Top shape: 24 128 14 14 (602112)
I0403 15:25:29.930879  3074 net.cpp:156] Memory required for data: 1239741984
I0403 15:25:29.930897  3074 layer_factory.hpp:77] Creating layer inception_4e/relu_5x5
I0403 15:25:29.930915  3074 net.cpp:91] Creating Layer inception_4e/relu_5x5
I0403 15:25:29.930932  3074 net.cpp:425] inception_4e/relu_5x5 <- inception_4e/5x5
I0403 15:25:29.930950  3074 net.cpp:386] inception_4e/relu_5x5 -> inception_4e/5x5 (in-place)
I0403 15:25:29.931143  3074 net.cpp:141] Setting up inception_4e/relu_5x5
I0403 15:25:29.931167  3074 net.cpp:148] Top shape: 24 128 14 14 (602112)
I0403 15:25:29.931181  3074 net.cpp:156] Memory required for data: 1242150432
I0403 15:25:29.931195  3074 layer_factory.hpp:77] Creating layer inception_4e/pool
I0403 15:25:29.931216  3074 net.cpp:91] Creating Layer inception_4e/pool
I0403 15:25:29.931234  3074 net.cpp:425] inception_4e/pool <- inception_4d/output_inception_4d/output_0_split_4
I0403 15:25:29.931253  3074 net.cpp:399] inception_4e/pool -> inception_4e/pool
I0403 15:25:29.931321  3074 net.cpp:141] Setting up inception_4e/pool
I0403 15:25:29.931344  3074 net.cpp:148] Top shape: 24 528 14 14 (2483712)
I0403 15:25:29.931359  3074 net.cpp:156] Memory required for data: 1252085280
I0403 15:25:29.931372  3074 layer_factory.hpp:77] Creating layer inception_4e/pool_proj
I0403 15:25:29.931394  3074 net.cpp:91] Creating Layer inception_4e/pool_proj
I0403 15:25:29.931411  3074 net.cpp:425] inception_4e/pool_proj <- inception_4e/pool
I0403 15:25:29.931429  3074 net.cpp:399] inception_4e/pool_proj -> inception_4e/pool_proj
I0403 15:25:29.932891  3074 net.cpp:141] Setting up inception_4e/pool_proj
I0403 15:25:29.932930  3074 net.cpp:148] Top shape: 24 128 14 14 (602112)
I0403 15:25:29.932947  3074 net.cpp:156] Memory required for data: 1254493728
I0403 15:25:29.932966  3074 layer_factory.hpp:77] Creating layer inception_4e/relu_pool_proj
I0403 15:25:29.932986  3074 net.cpp:91] Creating Layer inception_4e/relu_pool_proj
I0403 15:25:29.933001  3074 net.cpp:425] inception_4e/relu_pool_proj <- inception_4e/pool_proj
I0403 15:25:29.933018  3074 net.cpp:386] inception_4e/relu_pool_proj -> inception_4e/pool_proj (in-place)
I0403 15:25:29.933315  3074 net.cpp:141] Setting up inception_4e/relu_pool_proj
I0403 15:25:29.933341  3074 net.cpp:148] Top shape: 24 128 14 14 (602112)
I0403 15:25:29.933357  3074 net.cpp:156] Memory required for data: 1256902176
I0403 15:25:29.933372  3074 layer_factory.hpp:77] Creating layer inception_4e/output
I0403 15:25:29.933390  3074 net.cpp:91] Creating Layer inception_4e/output
I0403 15:25:29.933406  3074 net.cpp:425] inception_4e/output <- inception_4e/1x1
I0403 15:25:29.933423  3074 net.cpp:425] inception_4e/output <- inception_4e/3x3
I0403 15:25:29.933439  3074 net.cpp:425] inception_4e/output <- inception_4e/5x5
I0403 15:25:29.933454  3074 net.cpp:425] inception_4e/output <- inception_4e/pool_proj
I0403 15:25:29.933470  3074 net.cpp:399] inception_4e/output -> inception_4e/output
I0403 15:25:29.933521  3074 net.cpp:141] Setting up inception_4e/output
I0403 15:25:29.933542  3074 net.cpp:148] Top shape: 24 832 14 14 (3913728)
I0403 15:25:29.933557  3074 net.cpp:156] Memory required for data: 1272557088
I0403 15:25:29.933570  3074 layer_factory.hpp:77] Creating layer pool4/3x3_s2
I0403 15:25:29.933588  3074 net.cpp:91] Creating Layer pool4/3x3_s2
I0403 15:25:29.933603  3074 net.cpp:425] pool4/3x3_s2 <- inception_4e/output
I0403 15:25:29.933622  3074 net.cpp:399] pool4/3x3_s2 -> pool4/3x3_s2
I0403 15:25:29.933689  3074 net.cpp:141] Setting up pool4/3x3_s2
I0403 15:25:29.933712  3074 net.cpp:148] Top shape: 24 832 7 7 (978432)
I0403 15:25:29.933725  3074 net.cpp:156] Memory required for data: 1276470816
I0403 15:25:29.933739  3074 layer_factory.hpp:77] Creating layer pool4/3x3_s2_pool4/3x3_s2_0_split
I0403 15:25:29.933756  3074 net.cpp:91] Creating Layer pool4/3x3_s2_pool4/3x3_s2_0_split
I0403 15:25:29.933770  3074 net.cpp:425] pool4/3x3_s2_pool4/3x3_s2_0_split <- pool4/3x3_s2
I0403 15:25:29.933789  3074 net.cpp:399] pool4/3x3_s2_pool4/3x3_s2_0_split -> pool4/3x3_s2_pool4/3x3_s2_0_split_0
I0403 15:25:29.933809  3074 net.cpp:399] pool4/3x3_s2_pool4/3x3_s2_0_split -> pool4/3x3_s2_pool4/3x3_s2_0_split_1
I0403 15:25:29.933830  3074 net.cpp:399] pool4/3x3_s2_pool4/3x3_s2_0_split -> pool4/3x3_s2_pool4/3x3_s2_0_split_2
I0403 15:25:29.933848  3074 net.cpp:399] pool4/3x3_s2_pool4/3x3_s2_0_split -> pool4/3x3_s2_pool4/3x3_s2_0_split_3
I0403 15:25:29.933934  3074 net.cpp:141] Setting up pool4/3x3_s2_pool4/3x3_s2_0_split
I0403 15:25:29.933974  3074 net.cpp:148] Top shape: 24 832 7 7 (978432)
I0403 15:25:29.933991  3074 net.cpp:148] Top shape: 24 832 7 7 (978432)
I0403 15:25:29.934007  3074 net.cpp:148] Top shape: 24 832 7 7 (978432)
I0403 15:25:29.934022  3074 net.cpp:148] Top shape: 24 832 7 7 (978432)
I0403 15:25:29.934036  3074 net.cpp:156] Memory required for data: 1292125728
I0403 15:25:29.934051  3074 layer_factory.hpp:77] Creating layer inception_5a/1x1
I0403 15:25:29.934072  3074 net.cpp:91] Creating Layer inception_5a/1x1
I0403 15:25:29.934090  3074 net.cpp:425] inception_5a/1x1 <- pool4/3x3_s2_pool4/3x3_s2_0_split_0
I0403 15:25:29.934109  3074 net.cpp:399] inception_5a/1x1 -> inception_5a/1x1
I0403 15:25:29.936898  3074 net.cpp:141] Setting up inception_5a/1x1
I0403 15:25:29.936929  3074 net.cpp:148] Top shape: 24 256 7 7 (301056)
I0403 15:25:29.936946  3074 net.cpp:156] Memory required for data: 1293329952
I0403 15:25:29.936966  3074 layer_factory.hpp:77] Creating layer inception_5a/relu_1x1
I0403 15:25:29.936985  3074 net.cpp:91] Creating Layer inception_5a/relu_1x1
I0403 15:25:29.937000  3074 net.cpp:425] inception_5a/relu_1x1 <- inception_5a/1x1
I0403 15:25:29.937018  3074 net.cpp:386] inception_5a/relu_1x1 -> inception_5a/1x1 (in-place)
I0403 15:25:29.937325  3074 net.cpp:141] Setting up inception_5a/relu_1x1
I0403 15:25:29.937352  3074 net.cpp:148] Top shape: 24 256 7 7 (301056)
I0403 15:25:29.937368  3074 net.cpp:156] Memory required for data: 1294534176
I0403 15:25:29.937382  3074 layer_factory.hpp:77] Creating layer inception_5a/3x3_reduce
I0403 15:25:29.937404  3074 net.cpp:91] Creating Layer inception_5a/3x3_reduce
I0403 15:25:29.937422  3074 net.cpp:425] inception_5a/3x3_reduce <- pool4/3x3_s2_pool4/3x3_s2_0_split_1
I0403 15:25:29.937444  3074 net.cpp:399] inception_5a/3x3_reduce -> inception_5a/3x3_reduce
I0403 15:25:29.939831  3074 net.cpp:141] Setting up inception_5a/3x3_reduce
I0403 15:25:29.939860  3074 net.cpp:148] Top shape: 24 160 7 7 (188160)
I0403 15:25:29.939877  3074 net.cpp:156] Memory required for data: 1295286816
I0403 15:25:29.939895  3074 layer_factory.hpp:77] Creating layer inception_5a/relu_3x3_reduce
I0403 15:25:29.939915  3074 net.cpp:91] Creating Layer inception_5a/relu_3x3_reduce
I0403 15:25:29.939932  3074 net.cpp:425] inception_5a/relu_3x3_reduce <- inception_5a/3x3_reduce
I0403 15:25:29.939950  3074 net.cpp:386] inception_5a/relu_3x3_reduce -> inception_5a/3x3_reduce (in-place)
I0403 15:25:29.940131  3074 net.cpp:141] Setting up inception_5a/relu_3x3_reduce
I0403 15:25:29.940160  3074 net.cpp:148] Top shape: 24 160 7 7 (188160)
I0403 15:25:29.940174  3074 net.cpp:156] Memory required for data: 1296039456
I0403 15:25:29.940189  3074 layer_factory.hpp:77] Creating layer inception_5a/3x3
I0403 15:25:29.940217  3074 net.cpp:91] Creating Layer inception_5a/3x3
I0403 15:25:29.940237  3074 net.cpp:425] inception_5a/3x3 <- inception_5a/3x3_reduce
I0403 15:25:29.940255  3074 net.cpp:399] inception_5a/3x3 -> inception_5a/3x3
I0403 15:25:29.945137  3074 net.cpp:141] Setting up inception_5a/3x3
I0403 15:25:29.945171  3074 net.cpp:148] Top shape: 24 320 7 7 (376320)
I0403 15:25:29.945190  3074 net.cpp:156] Memory required for data: 1297544736
I0403 15:25:29.945214  3074 layer_factory.hpp:77] Creating layer inception_5a/relu_3x3
I0403 15:25:29.945235  3074 net.cpp:91] Creating Layer inception_5a/relu_3x3
I0403 15:25:29.945251  3074 net.cpp:425] inception_5a/relu_3x3 <- inception_5a/3x3
I0403 15:25:29.945271  3074 net.cpp:386] inception_5a/relu_3x3 -> inception_5a/3x3 (in-place)
I0403 15:25:29.945557  3074 net.cpp:141] Setting up inception_5a/relu_3x3
I0403 15:25:29.945585  3074 net.cpp:148] Top shape: 24 320 7 7 (376320)
I0403 15:25:29.945600  3074 net.cpp:156] Memory required for data: 1299050016
I0403 15:25:29.945616  3074 layer_factory.hpp:77] Creating layer inception_5a/5x5_reduce
I0403 15:25:29.945637  3074 net.cpp:91] Creating Layer inception_5a/5x5_reduce
I0403 15:25:29.945655  3074 net.cpp:425] inception_5a/5x5_reduce <- pool4/3x3_s2_pool4/3x3_s2_0_split_2
I0403 15:25:29.945673  3074 net.cpp:399] inception_5a/5x5_reduce -> inception_5a/5x5_reduce
I0403 15:25:29.946812  3074 net.cpp:141] Setting up inception_5a/5x5_reduce
I0403 15:25:29.946843  3074 net.cpp:148] Top shape: 24 32 7 7 (37632)
I0403 15:25:29.946861  3074 net.cpp:156] Memory required for data: 1299200544
I0403 15:25:29.946878  3074 layer_factory.hpp:77] Creating layer inception_5a/relu_5x5_reduce
I0403 15:25:29.946895  3074 net.cpp:91] Creating Layer inception_5a/relu_5x5_reduce
I0403 15:25:29.946912  3074 net.cpp:425] inception_5a/relu_5x5_reduce <- inception_5a/5x5_reduce
I0403 15:25:29.946930  3074 net.cpp:386] inception_5a/relu_5x5_reduce -> inception_5a/5x5_reduce (in-place)
I0403 15:25:29.947228  3074 net.cpp:141] Setting up inception_5a/relu_5x5_reduce
I0403 15:25:29.947253  3074 net.cpp:148] Top shape: 24 32 7 7 (37632)
I0403 15:25:29.947268  3074 net.cpp:156] Memory required for data: 1299351072
I0403 15:25:29.947281  3074 layer_factory.hpp:77] Creating layer inception_5a/5x5
I0403 15:25:29.947304  3074 net.cpp:91] Creating Layer inception_5a/5x5
I0403 15:25:29.947320  3074 net.cpp:425] inception_5a/5x5 <- inception_5a/5x5_reduce
I0403 15:25:29.947340  3074 net.cpp:399] inception_5a/5x5 -> inception_5a/5x5
I0403 15:25:29.949018  3074 net.cpp:141] Setting up inception_5a/5x5
I0403 15:25:29.949061  3074 net.cpp:148] Top shape: 24 128 7 7 (150528)
I0403 15:25:29.949079  3074 net.cpp:156] Memory required for data: 1299953184
I0403 15:25:29.949098  3074 layer_factory.hpp:77] Creating layer inception_5a/relu_5x5
I0403 15:25:29.949115  3074 net.cpp:91] Creating Layer inception_5a/relu_5x5
I0403 15:25:29.949131  3074 net.cpp:425] inception_5a/relu_5x5 <- inception_5a/5x5
I0403 15:25:29.949151  3074 net.cpp:386] inception_5a/relu_5x5 -> inception_5a/5x5 (in-place)
I0403 15:25:29.949342  3074 net.cpp:141] Setting up inception_5a/relu_5x5
I0403 15:25:29.949367  3074 net.cpp:148] Top shape: 24 128 7 7 (150528)
I0403 15:25:29.949380  3074 net.cpp:156] Memory required for data: 1300555296
I0403 15:25:29.949395  3074 layer_factory.hpp:77] Creating layer inception_5a/pool
I0403 15:25:29.949412  3074 net.cpp:91] Creating Layer inception_5a/pool
I0403 15:25:29.949429  3074 net.cpp:425] inception_5a/pool <- pool4/3x3_s2_pool4/3x3_s2_0_split_3
I0403 15:25:29.949448  3074 net.cpp:399] inception_5a/pool -> inception_5a/pool
I0403 15:25:29.949515  3074 net.cpp:141] Setting up inception_5a/pool
I0403 15:25:29.949538  3074 net.cpp:148] Top shape: 24 832 7 7 (978432)
I0403 15:25:29.949553  3074 net.cpp:156] Memory required for data: 1304469024
I0403 15:25:29.949566  3074 layer_factory.hpp:77] Creating layer inception_5a/pool_proj
I0403 15:25:29.949589  3074 net.cpp:91] Creating Layer inception_5a/pool_proj
I0403 15:25:29.949606  3074 net.cpp:425] inception_5a/pool_proj <- inception_5a/pool
I0403 15:25:29.949625  3074 net.cpp:399] inception_5a/pool_proj -> inception_5a/pool_proj
I0403 15:25:29.951876  3074 net.cpp:141] Setting up inception_5a/pool_proj
I0403 15:25:29.951906  3074 net.cpp:148] Top shape: 24 128 7 7 (150528)
I0403 15:25:29.951923  3074 net.cpp:156] Memory required for data: 1305071136
I0403 15:25:29.951941  3074 layer_factory.hpp:77] Creating layer inception_5a/relu_pool_proj
I0403 15:25:29.951959  3074 net.cpp:91] Creating Layer inception_5a/relu_pool_proj
I0403 15:25:29.951975  3074 net.cpp:425] inception_5a/relu_pool_proj <- inception_5a/pool_proj
I0403 15:25:29.951992  3074 net.cpp:386] inception_5a/relu_pool_proj -> inception_5a/pool_proj (in-place)
I0403 15:25:29.952286  3074 net.cpp:141] Setting up inception_5a/relu_pool_proj
I0403 15:25:29.952314  3074 net.cpp:148] Top shape: 24 128 7 7 (150528)
I0403 15:25:29.952330  3074 net.cpp:156] Memory required for data: 1305673248
I0403 15:25:29.952345  3074 layer_factory.hpp:77] Creating layer inception_5a/output
I0403 15:25:29.952361  3074 net.cpp:91] Creating Layer inception_5a/output
I0403 15:25:29.952376  3074 net.cpp:425] inception_5a/output <- inception_5a/1x1
I0403 15:25:29.952392  3074 net.cpp:425] inception_5a/output <- inception_5a/3x3
I0403 15:25:29.952409  3074 net.cpp:425] inception_5a/output <- inception_5a/5x5
I0403 15:25:29.952424  3074 net.cpp:425] inception_5a/output <- inception_5a/pool_proj
I0403 15:25:29.952440  3074 net.cpp:399] inception_5a/output -> inception_5a/output
I0403 15:25:29.952491  3074 net.cpp:141] Setting up inception_5a/output
I0403 15:25:29.952513  3074 net.cpp:148] Top shape: 24 832 7 7 (978432)
I0403 15:25:29.952527  3074 net.cpp:156] Memory required for data: 1309586976
I0403 15:25:29.952541  3074 layer_factory.hpp:77] Creating layer inception_5a/output_inception_5a/output_0_split
I0403 15:25:29.952558  3074 net.cpp:91] Creating Layer inception_5a/output_inception_5a/output_0_split
I0403 15:25:29.952576  3074 net.cpp:425] inception_5a/output_inception_5a/output_0_split <- inception_5a/output
I0403 15:25:29.952594  3074 net.cpp:399] inception_5a/output_inception_5a/output_0_split -> inception_5a/output_inception_5a/output_0_split_0
I0403 15:25:29.952612  3074 net.cpp:399] inception_5a/output_inception_5a/output_0_split -> inception_5a/output_inception_5a/output_0_split_1
I0403 15:25:29.952632  3074 net.cpp:399] inception_5a/output_inception_5a/output_0_split -> inception_5a/output_inception_5a/output_0_split_2
I0403 15:25:29.952652  3074 net.cpp:399] inception_5a/output_inception_5a/output_0_split -> inception_5a/output_inception_5a/output_0_split_3
I0403 15:25:29.952759  3074 net.cpp:141] Setting up inception_5a/output_inception_5a/output_0_split
I0403 15:25:29.952782  3074 net.cpp:148] Top shape: 24 832 7 7 (978432)
I0403 15:25:29.952798  3074 net.cpp:148] Top shape: 24 832 7 7 (978432)
I0403 15:25:29.952813  3074 net.cpp:148] Top shape: 24 832 7 7 (978432)
I0403 15:25:29.952829  3074 net.cpp:148] Top shape: 24 832 7 7 (978432)
I0403 15:25:29.952842  3074 net.cpp:156] Memory required for data: 1325241888
I0403 15:25:29.952857  3074 layer_factory.hpp:77] Creating layer inception_5b/1x1
I0403 15:25:29.952878  3074 net.cpp:91] Creating Layer inception_5b/1x1
I0403 15:25:29.952895  3074 net.cpp:425] inception_5b/1x1 <- inception_5a/output_inception_5a/output_0_split_0
I0403 15:25:29.952916  3074 net.cpp:399] inception_5b/1x1 -> inception_5b/1x1
I0403 15:25:29.956586  3074 net.cpp:141] Setting up inception_5b/1x1
I0403 15:25:29.956616  3074 net.cpp:148] Top shape: 24 384 7 7 (451584)
I0403 15:25:29.956632  3074 net.cpp:156] Memory required for data: 1327048224
I0403 15:25:29.956651  3074 layer_factory.hpp:77] Creating layer inception_5b/relu_1x1
I0403 15:25:29.956671  3074 net.cpp:91] Creating Layer inception_5b/relu_1x1
I0403 15:25:29.956688  3074 net.cpp:425] inception_5b/relu_1x1 <- inception_5b/1x1
I0403 15:25:29.956707  3074 net.cpp:386] inception_5b/relu_1x1 -> inception_5b/1x1 (in-place)
I0403 15:25:29.957003  3074 net.cpp:141] Setting up inception_5b/relu_1x1
I0403 15:25:29.957028  3074 net.cpp:148] Top shape: 24 384 7 7 (451584)
I0403 15:25:29.957042  3074 net.cpp:156] Memory required for data: 1328854560
I0403 15:25:29.957057  3074 layer_factory.hpp:77] Creating layer inception_5b/3x3_reduce
I0403 15:25:29.957078  3074 net.cpp:91] Creating Layer inception_5b/3x3_reduce
I0403 15:25:29.957096  3074 net.cpp:425] inception_5b/3x3_reduce <- inception_5a/output_inception_5a/output_0_split_1
I0403 15:25:29.957118  3074 net.cpp:399] inception_5b/3x3_reduce -> inception_5b/3x3_reduce
I0403 15:25:29.959774  3074 net.cpp:141] Setting up inception_5b/3x3_reduce
I0403 15:25:29.959802  3074 net.cpp:148] Top shape: 24 192 7 7 (225792)
I0403 15:25:29.959818  3074 net.cpp:156] Memory required for data: 1329757728
I0403 15:25:29.959836  3074 layer_factory.hpp:77] Creating layer inception_5b/relu_3x3_reduce
I0403 15:25:29.959856  3074 net.cpp:91] Creating Layer inception_5b/relu_3x3_reduce
I0403 15:25:29.959873  3074 net.cpp:425] inception_5b/relu_3x3_reduce <- inception_5b/3x3_reduce
I0403 15:25:29.959889  3074 net.cpp:386] inception_5b/relu_3x3_reduce -> inception_5b/3x3_reduce (in-place)
I0403 15:25:29.960075  3074 net.cpp:141] Setting up inception_5b/relu_3x3_reduce
I0403 15:25:29.960100  3074 net.cpp:148] Top shape: 24 192 7 7 (225792)
I0403 15:25:29.960115  3074 net.cpp:156] Memory required for data: 1330660896
I0403 15:25:29.960130  3074 layer_factory.hpp:77] Creating layer inception_5b/3x3
I0403 15:25:29.960151  3074 net.cpp:91] Creating Layer inception_5b/3x3
I0403 15:25:29.960168  3074 net.cpp:425] inception_5b/3x3 <- inception_5b/3x3_reduce
I0403 15:25:29.960186  3074 net.cpp:399] inception_5b/3x3 -> inception_5b/3x3
I0403 15:25:29.966835  3074 net.cpp:141] Setting up inception_5b/3x3
I0403 15:25:29.966868  3074 net.cpp:148] Top shape: 24 384 7 7 (451584)
I0403 15:25:29.966886  3074 net.cpp:156] Memory required for data: 1332467232
I0403 15:25:29.966907  3074 layer_factory.hpp:77] Creating layer inception_5b/relu_3x3
I0403 15:25:29.966924  3074 net.cpp:91] Creating Layer inception_5b/relu_3x3
I0403 15:25:29.966943  3074 net.cpp:425] inception_5b/relu_3x3 <- inception_5b/3x3
I0403 15:25:29.966961  3074 net.cpp:386] inception_5b/relu_3x3 -> inception_5b/3x3 (in-place)
I0403 15:25:29.967262  3074 net.cpp:141] Setting up inception_5b/relu_3x3
I0403 15:25:29.967291  3074 net.cpp:148] Top shape: 24 384 7 7 (451584)
I0403 15:25:29.967308  3074 net.cpp:156] Memory required for data: 1334273568
I0403 15:25:29.967322  3074 layer_factory.hpp:77] Creating layer inception_5b/5x5_reduce
I0403 15:25:29.967360  3074 net.cpp:91] Creating Layer inception_5b/5x5_reduce
I0403 15:25:29.967378  3074 net.cpp:425] inception_5b/5x5_reduce <- inception_5a/output_inception_5a/output_0_split_2
I0403 15:25:29.967398  3074 net.cpp:399] inception_5b/5x5_reduce -> inception_5b/5x5_reduce
I0403 15:25:29.968677  3074 net.cpp:141] Setting up inception_5b/5x5_reduce
I0403 15:25:29.968706  3074 net.cpp:148] Top shape: 24 48 7 7 (56448)
I0403 15:25:29.968722  3074 net.cpp:156] Memory required for data: 1334499360
I0403 15:25:29.968746  3074 layer_factory.hpp:77] Creating layer inception_5b/relu_5x5_reduce
I0403 15:25:29.968766  3074 net.cpp:91] Creating Layer inception_5b/relu_5x5_reduce
I0403 15:25:29.968785  3074 net.cpp:425] inception_5b/relu_5x5_reduce <- inception_5b/5x5_reduce
I0403 15:25:29.968804  3074 net.cpp:386] inception_5b/relu_5x5_reduce -> inception_5b/5x5_reduce (in-place)
I0403 15:25:29.969180  3074 net.cpp:141] Setting up inception_5b/relu_5x5_reduce
I0403 15:25:29.969208  3074 net.cpp:148] Top shape: 24 48 7 7 (56448)
I0403 15:25:29.969228  3074 net.cpp:156] Memory required for data: 1334725152
I0403 15:25:29.969244  3074 layer_factory.hpp:77] Creating layer inception_5b/5x5
I0403 15:25:29.969264  3074 net.cpp:91] Creating Layer inception_5b/5x5
I0403 15:25:29.969281  3074 net.cpp:425] inception_5b/5x5 <- inception_5b/5x5_reduce
I0403 15:25:29.969300  3074 net.cpp:399] inception_5b/5x5 -> inception_5b/5x5
I0403 15:25:29.971359  3074 net.cpp:141] Setting up inception_5b/5x5
I0403 15:25:29.971391  3074 net.cpp:148] Top shape: 24 128 7 7 (150528)
I0403 15:25:29.971408  3074 net.cpp:156] Memory required for data: 1335327264
I0403 15:25:29.971428  3074 layer_factory.hpp:77] Creating layer inception_5b/relu_5x5
I0403 15:25:29.971446  3074 net.cpp:91] Creating Layer inception_5b/relu_5x5
I0403 15:25:29.971463  3074 net.cpp:425] inception_5b/relu_5x5 <- inception_5b/5x5
I0403 15:25:29.971482  3074 net.cpp:386] inception_5b/relu_5x5 -> inception_5b/5x5 (in-place)
I0403 15:25:29.971676  3074 net.cpp:141] Setting up inception_5b/relu_5x5
I0403 15:25:29.971701  3074 net.cpp:148] Top shape: 24 128 7 7 (150528)
I0403 15:25:29.971716  3074 net.cpp:156] Memory required for data: 1335929376
I0403 15:25:29.971731  3074 layer_factory.hpp:77] Creating layer inception_5b/pool
I0403 15:25:29.971750  3074 net.cpp:91] Creating Layer inception_5b/pool
I0403 15:25:29.971768  3074 net.cpp:425] inception_5b/pool <- inception_5a/output_inception_5a/output_0_split_3
I0403 15:25:29.971787  3074 net.cpp:399] inception_5b/pool -> inception_5b/pool
I0403 15:25:29.971860  3074 net.cpp:141] Setting up inception_5b/pool
I0403 15:25:29.971884  3074 net.cpp:148] Top shape: 24 832 7 7 (978432)
I0403 15:25:29.971899  3074 net.cpp:156] Memory required for data: 1339843104
I0403 15:25:29.971915  3074 layer_factory.hpp:77] Creating layer inception_5b/pool_proj
I0403 15:25:29.971936  3074 net.cpp:91] Creating Layer inception_5b/pool_proj
I0403 15:25:29.971954  3074 net.cpp:425] inception_5b/pool_proj <- inception_5b/pool
I0403 15:25:29.971976  3074 net.cpp:399] inception_5b/pool_proj -> inception_5b/pool_proj
I0403 15:25:29.974300  3074 net.cpp:141] Setting up inception_5b/pool_proj
I0403 15:25:29.974333  3074 net.cpp:148] Top shape: 24 128 7 7 (150528)
I0403 15:25:29.974349  3074 net.cpp:156] Memory required for data: 1340445216
I0403 15:25:29.974370  3074 layer_factory.hpp:77] Creating layer inception_5b/relu_pool_proj
I0403 15:25:29.974390  3074 net.cpp:91] Creating Layer inception_5b/relu_pool_proj
I0403 15:25:29.974408  3074 net.cpp:425] inception_5b/relu_pool_proj <- inception_5b/pool_proj
I0403 15:25:29.974428  3074 net.cpp:386] inception_5b/relu_pool_proj -> inception_5b/pool_proj (in-place)
I0403 15:25:29.974732  3074 net.cpp:141] Setting up inception_5b/relu_pool_proj
I0403 15:25:29.974761  3074 net.cpp:148] Top shape: 24 128 7 7 (150528)
I0403 15:25:29.974776  3074 net.cpp:156] Memory required for data: 1341047328
I0403 15:25:29.974791  3074 layer_factory.hpp:77] Creating layer inception_5b/output
I0403 15:25:29.974810  3074 net.cpp:91] Creating Layer inception_5b/output
I0403 15:25:29.974841  3074 net.cpp:425] inception_5b/output <- inception_5b/1x1
I0403 15:25:29.974860  3074 net.cpp:425] inception_5b/output <- inception_5b/3x3
I0403 15:25:29.974877  3074 net.cpp:425] inception_5b/output <- inception_5b/5x5
I0403 15:25:29.974894  3074 net.cpp:425] inception_5b/output <- inception_5b/pool_proj
I0403 15:25:29.974910  3074 net.cpp:399] inception_5b/output -> inception_5b/output
I0403 15:25:29.974964  3074 net.cpp:141] Setting up inception_5b/output
I0403 15:25:29.974990  3074 net.cpp:148] Top shape: 24 1024 7 7 (1204224)
I0403 15:25:29.975005  3074 net.cpp:156] Memory required for data: 1345864224
I0403 15:25:29.975019  3074 layer_factory.hpp:77] Creating layer pool5/7x7_s1
I0403 15:25:29.975039  3074 net.cpp:91] Creating Layer pool5/7x7_s1
I0403 15:25:29.975056  3074 net.cpp:425] pool5/7x7_s1 <- inception_5b/output
I0403 15:25:29.975075  3074 net.cpp:399] pool5/7x7_s1 -> pool5/7x7_s1
I0403 15:25:29.975297  3074 net.cpp:141] Setting up pool5/7x7_s1
I0403 15:25:29.975325  3074 net.cpp:148] Top shape: 24 1024 1 1 (24576)
I0403 15:25:29.975342  3074 net.cpp:156] Memory required for data: 1345962528
I0403 15:25:29.975356  3074 layer_factory.hpp:77] Creating layer pool5/drop_7x7_s1
I0403 15:25:29.975374  3074 net.cpp:91] Creating Layer pool5/drop_7x7_s1
I0403 15:25:29.975390  3074 net.cpp:425] pool5/drop_7x7_s1 <- pool5/7x7_s1
I0403 15:25:29.975410  3074 net.cpp:386] pool5/drop_7x7_s1 -> pool5/7x7_s1 (in-place)
I0403 15:25:29.975461  3074 net.cpp:141] Setting up pool5/drop_7x7_s1
I0403 15:25:29.975484  3074 net.cpp:148] Top shape: 24 1024 1 1 (24576)
I0403 15:25:29.975498  3074 net.cpp:156] Memory required for data: 1346060832
I0403 15:25:29.975512  3074 layer_factory.hpp:77] Creating layer loss3/classifier_plantvillage
I0403 15:25:29.975536  3074 net.cpp:91] Creating Layer loss3/classifier_plantvillage
I0403 15:25:29.975553  3074 net.cpp:425] loss3/classifier_plantvillage <- pool5/7x7_s1
I0403 15:25:29.975574  3074 net.cpp:399] loss3/classifier_plantvillage -> loss3/classifier_plantvillage
I0403 15:25:29.976001  3074 net.cpp:141] Setting up loss3/classifier_plantvillage
I0403 15:25:29.976025  3074 net.cpp:148] Top shape: 24 38 (912)
I0403 15:25:29.976039  3074 net.cpp:156] Memory required for data: 1346064480
I0403 15:25:29.976058  3074 layer_factory.hpp:77] Creating layer loss3/classifier_plantvillage_loss3/classifier_plantvillage_0_split
I0403 15:25:29.976079  3074 net.cpp:91] Creating Layer loss3/classifier_plantvillage_loss3/classifier_plantvillage_0_split
I0403 15:25:29.976096  3074 net.cpp:425] loss3/classifier_plantvillage_loss3/classifier_plantvillage_0_split <- loss3/classifier_plantvillage
I0403 15:25:29.976114  3074 net.cpp:399] loss3/classifier_plantvillage_loss3/classifier_plantvillage_0_split -> loss3/classifier_plantvillage_loss3/classifier_plantvillage_0_split_0
I0403 15:25:29.976135  3074 net.cpp:399] loss3/classifier_plantvillage_loss3/classifier_plantvillage_0_split -> loss3/classifier_plantvillage_loss3/classifier_plantvillage_0_split_1
I0403 15:25:29.976155  3074 net.cpp:399] loss3/classifier_plantvillage_loss3/classifier_plantvillage_0_split -> loss3/classifier_plantvillage_loss3/classifier_plantvillage_0_split_2
I0403 15:25:29.976174  3074 net.cpp:399] loss3/classifier_plantvillage_loss3/classifier_plantvillage_0_split -> loss3/classifier_plantvillage_loss3/classifier_plantvillage_0_split_3
I0403 15:25:29.976279  3074 net.cpp:141] Setting up loss3/classifier_plantvillage_loss3/classifier_plantvillage_0_split
I0403 15:25:29.976303  3074 net.cpp:148] Top shape: 24 38 (912)
I0403 15:25:29.976320  3074 net.cpp:148] Top shape: 24 38 (912)
I0403 15:25:29.976336  3074 net.cpp:148] Top shape: 24 38 (912)
I0403 15:25:29.976351  3074 net.cpp:148] Top shape: 24 38 (912)
I0403 15:25:29.976364  3074 net.cpp:156] Memory required for data: 1346079072
I0403 15:25:29.976378  3074 layer_factory.hpp:77] Creating layer loss1/loss
I0403 15:25:29.976400  3074 net.cpp:91] Creating Layer loss1/loss
I0403 15:25:29.976418  3074 net.cpp:425] loss1/loss <- loss1/classifier_plantvillage_loss1/classifier_plantvillage_0_split_0
I0403 15:25:29.976449  3074 net.cpp:425] loss1/loss <- label_data_1_split_0
…
