…
I0403 15:12:47.926514  2819 net.cpp:313] The NetState phase (1) differed from the phase (0) specified by a rule in layer data
I0403 15:12:47.927745  2819 net.cpp:49] Initializing net from parameters: 
state {
  phase: TEST
}
layer {
  name: "data"
  type: "Data"
  top: "data"
  top: "label"
  include {
    phase: TEST
  }
  transform_param {
    mirror: false
    crop_size: 224
    mean_file: "/home/mohanty/data/final_dataset/lmdb/segmented-60-40/mean.binaryproto"
  }
  data_param {
    source: "/home/mohanty/data/final_dataset/lmdb/segmented-60-40/test_db"
    batch_size: 24
    backend: LMDB
  }
}
layer {
  name: "conv1/7x7_s2"
  type: "Convolution"
  bottom: "data"
  top: "conv1/7x7_s2"
  param {
    lr_mult: 1
    decay_mult: 1
  }
  param {
    lr_mult: 2
    decay_mult: 0
  }
  convolution_param {
    num_output: 64
    pad: 3
    kernel_size: 7
    stride: 2
    weight_filler {
      type: "xavier"
      std: 0.1
    }
    bias_filler {
      type: "constant"
      value: 0.2
    }
  }
}
layer {
  name: "conv1/relu_7x7"
  type: "ReLU"
  bottom: "conv1/7x7_s2"
  top: "conv1/7x7_s2"
}
layer {
  name: "pool1/3x3_s2"
  type: "Pooling"
  bottom: "conv1/7x7_s2"
  top: "pool1/3x3_s2"
  pooling_param {
    pool: MAX
    kernel_size: 3
    stride: 2
  }
}
layer {
  name: "pool1/norm1"
  type: "LRN"
  bottom: "pool1/3x3_s2"
  top: "pool1/norm1"
  lrn_param {
    local_size: 5
    alpha: 0.0001
    beta: 0.75
  }
}
layer {
  name: "conv2/3x3_reduce"
  type: "Convolution"
  bottom: "pool1/norm1"
  top: "conv2/3x3_reduce"
  param {
    lr_mult: 1
    decay_mult: 1
  }
  param {
    lr_mult: 2
    decay_mult: 0
  }
  convolution_param {
    num_output: 64
    kernel_size: 1
    weight_filler {
      type: "xavier"
      std: 0.1
    }
    bias_filler {
      type: "constant"
      value: 0.2
    }
  }
}
layer {
  name: "conv2/relu_3x3_reduce"
  type: "ReLU"
  bottom: "conv2/3x3_reduce"
  top: "conv2/3x3_reduce"
}
layer {
  name: "conv2/3x3"
  type: "Convolution"
  bottom: "conv2/3x3_reduce"
  top: "conv2/3x3"
  param {
    lr_mult: 1
    decay_mult: 1
  }
  param {
    lr_mult: 2
    decay_mult: 0
  }
  convolution_param {
    num_output: 192
    pad: 1
    kernel_size: 3
    weight_filler {
      type: "xavier"
      std: 0.03
    }
    bias_filler {
      type: "constant"
      value: 0.2
    }
  }
}
layer {
  name: "conv2/relu_3x3"
  type: "ReLU"
  bottom: "conv2/3x3"
  top: "conv2/3x3"
}
layer {
  name: "conv2/norm2"
  type: "LRN"
  bottom: "conv2/3x3"
  top: "conv2/norm2"
  lrn_param {
    local_size: 5
    alpha: 0.0001
    beta: 0.75
  }
}
layer {
  name: "pool2/3x3_s2"
  type: "Pooling"
  bottom: "conv2/norm2"
  top: "pool2/3x3_s2"
  pooling_param {
    pool: MAX
    kernel_size: 3
    stride: 2
  }
}
layer {
  name: "inception_3a/1x1"
  type: "Convolution"
  bottom: "pool2/3x3_s2"
  top: "inception_3a/1x1"
  param {
    lr_mult: 1
    decay_mult: 1
  }
  param {
    lr_mult: 2
    decay_mult: 0
  }
  convolution_param {
    num_output: 64
    kernel_size: 1
    weight_filler {
      type: "xavier"
      std: 0.03
    }
    bias_filler {
      type: "constant"
      value: 0.2
    }
  }
}
layer {
  name: "inception_3a/relu_1x1"
  type: "ReLU"
  bottom: "inception_3a/1x1"
  top: "inception_3a/1x1"
}
layer {
  name: "inception_3a/3x3_reduce"
  type: "Convolution"
  bottom: "pool2/3x3_s2"
  top: "inception_3a/3x3_reduce"
  param {
    lr_mult: 1
    decay_mult: 1
  }
  param {
    lr_mult: 2
    decay_mult: 0
  }
  convolution_param {
    num_output: 96
    kernel_size: 1
    weight_filler {
      type: "xavier"
      std: 0.09
    }
    bias_filler {
      type: "constant"
      value: 0.2
    }
  }
}
layer {
  name: "inception_3a/relu_3x3_reduce"
  type: "ReLU"
  bottom: "inception_3a/3x3_reduce"
  top: "inception_3a/3x3_reduce"
}
layer {
  name: "inception_3a/3x3"
  type: "Convolution"
  bottom: "inception_3a/3x3_reduce"
  top: "inception_3a/3x3"
  param {
    lr_mult: 1
    decay_mult: 1
  }
  param {
    lr_mult: 2
    decay_mult: 0
  }
  convolution_param {
    num_output: 128
    pad: 1
    kernel_size: 3
    weight_filler {
      type: "xavier"
      std: 0.03
    }
    bias_filler {
      type: "constant"
      value: 0.2
    }
  }
}
layer {
  name: "inception_3a/relu_3x3"
  type: "ReLU"
  bottom: "inception_3a/3x3"
  top: "inception_3a/3x3"
}
layer {
  name: "inception_3a/5x5_reduce"
  type: "Convolution"
  bottom: "pool2/3x3_s2"
  top: "inception_3a/5x5_reduce"
  param {
    lr_mult: 1
    decay_mult: 1
  }
  param {
    lr_mult: 2
    decay_mult: 0
  }
  convolution_param {
    num_output: 16
    kernel_size: 1
    weight_filler {
      type: "xavier"
      std: 0.2
    }
    bias_filler {
      type: "constant"
      value: 0.2
    }
  }
}
layer {
  name: "inception_3a/relu_5x5_reduce"
  type: "ReLU"
  bottom: "inception_3a/5x5_reduce"
  top: "inception_3a/5x5_reduce"
}
layer {
  name: "inception_3a/5x5"
  type: "Convolution"
  bottom: "inception_3a/5x5_reduce"
  top: "inception_3a/5x5"
  param {
    lr_mult: 1
    decay_mult: 1
  }
  param {
    lr_mult: 2
    decay_mult: 0
  }
  convolution_param {
    num_output: 32
    pad: 2
    kernel_size: 5
    weight_filler {
      type: "xavier"
      std: 0.03
    }
    bias_filler {
      type: "constant"
      value: 0.2
    }
  }
}
layer {
  name: "inception_3a/relu_5x5"
  type: "ReLU"
  bottom: "inception_3a/5x5"
  top: "inception_3a/5x5"
}
layer {
  name: "inception_3a/pool"
  type: "Pooling"
  bottom: "pool2/3x3_s2"
  top: "inception_3a/pool"
  pooling_param {
    pool: MAX
    kernel_size: 3
    stride: 1
    pad: 1
  }
}
layer {
  name: "inception_3a/pool_proj"
  type: "Convolution"
  bottom: "inception_3a/pool"
  top: "inception_3a/pool_proj"
  param {
    lr_mult: 1
    decay_mult: 1
  }
  param {
    lr_mult: 2
    decay_mult: 0
  }
  convolution_param {
    num_output: 32
    kernel_size: 1
    weight_filler {
      type: "xavier"
      std: 0.1
    }
    bias_filler {
      type: "constant"
      value: 0.2
    }
  }
}
layer {
  name: "inception_3a/relu_pool_proj"
  type: "ReLU"
  bottom: "inception_3a/pool_proj"
  top: "inception_3a/pool_proj"
}
layer {
  name: "inception_3a/output"
  type: "Concat"
  bottom: "inception_3a/1x1"
  bottom: "inception_3a/3x3"
  bottom: "inception_3a/5x5"
  bottom: "inception_3a/pool_proj"
  top: "inception_3a/output"
}
layer {
  name: "inception_3b/1x1"
  type: "Convolution"
  bottom: "inception_3a/output"
  top: "inception_3b/1x1"
  param {
    lr_mult: 1
    decay_mult: 1
  }
  param {
    lr_mult: 2
    decay_mult: 0
  }
  convolution_param {
    num_output: 128
    kernel_size: 1
    weight_filler {
      type: "xavier"
      std: 0.03
    }
    bias_filler {
      type: "constant"
      value: 0.2
    }
  }
}
layer {
  name: "inception_3b/relu_1x1"
  type: "ReLU"
  bottom: "inception_3b/1x1"
  top: "inception_3b/1x1"
}
layer {
  name: "inception_3b/3x3_reduce"
  type: "Convolution"
  bottom: "inception_3a/output"
  top: "inception_3b/3x3_reduce"
  param {
    lr_mult: 1
    decay_mult: 1
  }
  param {
    lr_mult: 2
    decay_mult: 0
  }
  convolution_param {
    num_output: 128
    kernel_size: 1
    weight_filler {
      type: "xavier"
      std: 0.09
    }
    bias_filler {
      type: "constant"
      value: 0.2
    }
  }
}
layer {
  name: "inception_3b/relu_3x3_reduce"
  type: "ReLU"
  bottom: "inception_3b/3x3_reduce"
  top: "inception_3b/3x3_reduce"
}
layer {
  name: "inception_3b/3x3"
  type: "Convolution"
  bottom: "inception_3b/3x3_reduce"
  top: "inception_3b/3x3"
  param {
    lr_mult: 1
    decay_mult: 1
  }
  param {
    lr_mult: 2
    decay_mult: 0
  }
  convolution_param {
    num_output: 192
    pad: 1
    kernel_size: 3
    weight_filler {
      type: "xavier"
      std: 0.03
    }
    bias_filler {
      type: "constant"
      value: 0.2
    }
  }
}
layer {
  name: "inception_3b/relu_3x3"
  type: "ReLU"
  bottom: "inception_3b/3x3"
  top: "inception_3b/3x3"
}
layer {
  name: "inception_3b/5x5_reduce"
  type: "Convolution"
  bottom: "inception_3a/output"
  top: "inception_3b/5x5_reduce"
  param {
    lr_mult: 1
    decay_mult: 1
  }
  param {
    lr_mult: 2
    decay_mult: 0
  }
  convolution_param {
    num_output: 32
    kernel_size: 1
    weight_filler {
      type: "xavier"
      std: 0.2
    }
    bias_filler {
      type: "constant"
      value: 0.2
    }
  }
}
layer {
  name: "inception_3b/relu_5x5_reduce"
  type: "ReLU"
  bottom: "inception_3b/5x5_reduce"
  top: "inception_3b/5x5_reduce"
}
layer {
  name: "inception_3b/5x5"
  type: "Convolution"
  bottom: "inception_3b/5x5_reduce"
  top: "inception_3b/5x5"
  param {
    lr_mult: 1
    decay_mult: 1
  }
  param {
    lr_mult: 2
    decay_mult: 0
  }
  convolution_param {
    num_output: 96
    pad: 2
    kernel_size: 5
    weight_filler {
      type: "xavier"
      std: 0.03
    }
    bias_filler {
      type: "constant"
      value: 0.2
    }
  }
}
layer {
  name: "inception_3b/relu_5x5"
  type: "ReLU"
  bottom: "inception_3b/5x5"
  top: "inception_3b/5x5"
}
layer {
  name: "inception_3b/pool"
  type: "Pooling"
  bottom: "inception_3a/output"
  top: "inception_3b/pool"
  pooling_param {
    pool: MAX
    kernel_size: 3
    stride: 1
    pad: 1
  }
}
layer {
  name: "inception_3b/pool_proj"
  type: "Convolution"
  bottom: "inception_3b/pool"
  top: "inception_3b/pool_proj"
  param {
    lr_mult: 1
    decay_mult: 1
  }
  param {
    lr_mult: 2
    decay_mult: 0
  }
  convolution_param {
    num_output: 64
    kernel_size: 1
    weight_filler {
      type: "xavier"
      std: 0.1
    }
    bias_filler {
      type: "constant"
      value: 0.2
    }
  }
}
layer {
  name: "inception_3b/relu_pool_proj"
  type: "ReLU"
  bottom: "inception_3b/pool_proj"
  top: "inception_3b/pool_proj"
}
layer {
  name: "inception_3b/output"
  type: "Concat"
  bottom: "inception_3b/1x1"
  bottom: "inception_3b/3x3"
  bottom: "inception_3b/5x5"
  bottom: "inception_3b/pool_proj"
  top: "inception_3b/output"
}
layer {
  name: "pool3/3x3_s2"
  type: "Pooling"
  bottom: "inception_3b/output"
  top: "pool3/3x3_s2"
  pooling_param {
    pool: MAX
    kernel_size: 3
    stride: 2
  }
}
layer {
  name: "inception_4a/1x1"
  type: "Convolution"
  bottom: "pool3/3x3_s2"
  top: "inception_4a/1x1"
  param {
    lr_mult: 1
    decay_mult: 1
  }
  param {
    lr_mult: 2
    decay_mult: 0
  }
  convolution_param {
    num_output: 192
    kernel_size: 1
    weight_filler {
      type: "xavier"
      std: 0.03
    }
    bias_filler {
      type: "constant"
      value: 0.2
    }
  }
}
layer {
  name: "inception_4a/relu_1x1"
  type: "ReLU"
  bottom: "inception_4a/1x1"
  top: "inception_4a/1x1"
}
layer {
  name: "inception_4a/3x3_reduce"
  type: "Convolution"
  bottom: "pool3/3x3_s2"
  top: "inception_4a/3x3_reduce"
  param {
    lr_mult: 1
    decay_mult: 1
  }
  param {
    lr_mult: 2
    decay_mult: 0
  }
  convolution_param {
    num_output: 96
    kernel_size: 1
    weight_filler {
      type: "xavier"
      std: 0.09
    }
    bias_filler {
      type: "constant"
      value: 0.2
    }
  }
}
layer {
  name: "inception_4a/relu_3x3_reduce"
  type: "ReLU"
  bottom: "inception_4a/3x3_reduce"
  top: "inception_4a/3x3_reduce"
}
layer {
  name: "inception_4a/3x3"
  type: "Convolution"
  bottom: "inception_4a/3x3_reduce"
  top: "inception_4a/3x3"
  param {
    lr_mult: 1
    decay_mult: 1
  }
  param {
    lr_mult: 2
    decay_mult: 0
  }
  convolution_param {
    num_output: 208
    pad: 1
    kernel_size: 3
    weight_filler {
      type: "xavier"
      std: 0.03
    }
    bias_filler {
      type: "constant"
      value: 0.2
    }
  }
}
layer {
  name: "inception_4a/relu_3x3"
  type: "ReLU"
  bottom: "inception_4a/3x3"
  top: "inception_4a/3x3"
}
layer {
  name: "inception_4a/5x5_reduce"
  type: "Convolution"
  bottom: "pool3/3x3_s2"
  top: "inception_4a/5x5_reduce"
  param {
    lr_mult: 1
    decay_mult: 1
  }
  param {
    lr_mult: 2
    decay_mult: 0
  }
  convolution_param {
    num_output: 16
    kernel_size: 1
    weight_filler {
      type: "xavier"
      std: 0.2
    }
    bias_filler {
      type: "constant"
      value: 0.2
    }
  }
}
layer {
  name: "inception_4a/relu_5x5_reduce"
  type: "ReLU"
  bottom: "inception_4a/5x5_reduce"
  top: "inception_4a/5x5_reduce"
}
layer {
  name: "inception_4a/5x5"
  type: "Convolution"
  bottom: "inception_4a/5x5_reduce"
  top: "inception_4a/5x5"
  param {
    lr_mult: 1
    decay_mult: 1
  }
  param {
    lr_mult: 2
    decay_mult: 0
  }
  convolution_param {
    num_output: 48
    pad: 2
    kernel_size: 5
    weight_filler {
      type: "xavier"
      std: 0.03
    }
    bias_filler {
      type: "constant"
      value: 0.2
    }
  }
}
layer {
  name: "inception_4a/relu_5x5"
  type: "ReLU"
  bottom: "inception_4a/5x5"
  top: "inception_4a/5x5"
}
layer {
  name: "inception_4a/pool"
  type: "Pooling"
  bottom: "pool3/3x3_s2"
  top: "inception_4a/pool"
  pooling_param {
    pool: MAX
    kernel_size: 3
    stride: 1
    pad: 1
  }
}
layer {
  name: "inception_4a/pool_proj"
  type: "Convolution"
  bottom: "inception_4a/pool"
  top: "inception_4a/pool_proj"
  param {
    lr_mult: 1
    decay_mult: 1
  }
  param {
    lr_mult: 2
    decay_mult: 0
  }
  convolution_param {
    num_output: 64
    kernel_size: 1
    weight_filler {
      type: "xavier"
      std: 0.1
    }
    bias_filler {
      type: "constant"
      value: 0.2
    }
  }
}
layer {
  name: "inception_4a/relu_pool_proj"
  type: "ReLU"
  bottom: "inception_4a/pool_proj"
  top: "inception_4a/pool_proj"
}
layer {
  name: "inception_4a/output"
  type: "Concat"
  bottom: "inception_4a/1x1"
  bottom: "inception_4a/3x3"
  bottom: "inception_4a/5x5"
  bottom: "inception_4a/pool_proj"
  top: "inception_4a/output"
}
layer {
  name: "loss1/ave_pool"
  type: "Pooling"
  bottom: "inception_4a/output"
  top: "loss1/ave_pool"
  pooling_param {
    pool: AVE
    kernel_size: 5
    stride: 3
  }
}
layer {
  name: "loss1/conv"
  type: "Convolution"
  bottom: "loss1/ave_pool"
  top: "loss1/conv"
  param {
    lr_mult: 1
    decay_mult: 1
  }
  param {
    lr_mult: 2
    decay_mult: 0
  }
  convolution_param {
    num_output: 128
    kernel_size: 1
    weight_filler {
      type: "xavier"
      std: 0.08
    }
    bias_filler {
      type: "constant"
      value: 0.2
    }
  }
}
layer {
  name: "loss1/relu_conv"
  type: "ReLU"
  bottom: "loss1/conv"
  top: "loss1/conv"
}
layer {
  name: "loss1/fc"
  type: "InnerProduct"
  bottom: "loss1/conv"
  top: "loss1/fc"
  param {
    lr_mult: 1
    decay_mult: 1
  }
  param {
    lr_mult: 2
    decay_mult: 0
  }
  inner_product_param {
    num_output: 1024
    weight_filler {
      type: "xavier"
      std: 0.02
    }
    bias_filler {
      type: "constant"
      value: 0.2
    }
  }
}
layer {
  name: "loss1/relu_fc"
  type: "ReLU"
  bottom: "loss1/fc"
  top: "loss1/fc"
}
layer {
  name: "loss1/drop_fc"
  type: "Dropout"
  bottom: "loss1/fc"
  top: "loss1/fc"
  dropout_param {
    dropout_ratio: 0.7
  }
}
layer {
  name: "loss1/classifier_plantvillage"
  type: "InnerProduct"
  bottom: "loss1/fc"
  top: "loss1/classifier_plantvillage"
  param {
    lr_mult: 1
    decay_mult: 1
  }
  param {
    lr_mult: 2
    decay_mult: 0
  }
  inner_product_param {
    num_output: 38
    weight_filler {
      type: "xavier"
      std: 0.0009765625
    }
    bias_filler {
      type: "constant"
      value: 0
    }
  }
}
layer {
  name: "inception_4b/1x1"
  type: "Convolution"
  bottom: "inception_4a/output"
  top: "inception_4b/1x1"
  param {
    lr_mult: 1
    decay_mult: 1
  }
  param {
    lr_mult: 2
    decay_mult: 0
  }
  convolution_param {
    num_output: 160
    kernel_size: 1
    weight_filler {
      type: "xavier"
      std: 0.03
    }
    bias_filler {
      type: "constant"
      value: 0.2
    }
  }
}
layer {
  name: "inception_4b/relu_1x1"
  type: "ReLU"
  bottom: "inception_4b/1x1"
  top: "inception_4b/1x1"
}
layer {
  name: "inception_4b/3x3_reduce"
  type: "Convolution"
  bottom: "inception_4a/output"
  top: "inception_4b/3x3_reduce"
  param {
    lr_mult: 1
    decay_mult: 1
  }
  param {
    lr_mult: 2
    decay_mult: 0
  }
  convolution_param {
    num_output: 112
    kernel_size: 1
    weight_filler {
      type: "xavier"
      std: 0.09
    }
    bias_filler {
      type: "constant"
      value: 0.2
    }
  }
}
layer {
  name: "inception_4b/relu_3x3_reduce"
  type: "ReLU"
  bottom: "inception_4b/3x3_reduce"
  top: "inception_4b/3x3_reduce"
}
layer {
  name: "inception_4b/3x3"
  type: "Convolution"
  bottom: "inception_4b/3x3_reduce"
  top: "inception_4b/3x3"
  param {
    lr_mult: 1
    decay_mult: 1
  }
  param {
    lr_mult: 2
    decay_mult: 0
  }
  convolution_param {
    num_output: 224
    pad: 1
    kernel_size: 3
    weight_filler {
      type: "xavier"
      std: 0.03
    }
    bias_filler {
      type: "constant"
      value: 0.2
    }
  }
}
layer {
  name: "inception_4b/relu_3x3"
  type: "ReLU"
  bottom: "inception_4b/3x3"
  top: "inception_4b/3x3"
}
layer {
  name: "inception_4b/5x5_reduce"
  type: "Convolution"
  bottom: "inception_4a/output"
  top: "inception_4b/5x5_reduce"
  param {
    lr_mult: 1
    decay_mult: 1
  }
  param {
    lr_mult: 2
    decay_mult: 0
  }
  convolution_param {
    num_output: 24
    kernel_size: 1
    weight_filler {
      type: "xavier"
      std: 0.2
    }
    bias_filler {
      type: "constant"
      value: 0.2
    }
  }
}
layer {
  name: "inception_4b/relu_5x5_reduce"
  type: "ReLU"
  bottom: "inception_4b/5x5_reduce"
  top: "inception_4b/5x5_reduce"
}
layer {
  name: "inception_4b/5x5"
  type: "Convolution"
  bottom: "inception_4b/5x5_reduce"
  top: "inception_4b/5x5"
  param {
    lr_mult: 1
    decay_mult: 1
  }
  param {
    lr_mult: 2
    decay_mult: 0
  }
  convolution_param {
    num_output: 64
    pad: 2
    kernel_size: 5
    weight_filler {
      type: "xavier"
      std: 0.03
    }
    bias_filler {
      type: "constant"
      value: 0.2
    }
  }
}
layer {
  name: "inception_4b/relu_5x5"
  type: "ReLU"
  bottom: "inception_4b/5x5"
  top: "inception_4b/5x5"
}
layer {
  name: "inception_4b/pool"
  type: "Pooling"
  bottom: "inception_4a/output"
  top: "inception_4b/pool"
  pooling_param {
    pool: MAX
    kernel_size: 3
    stride: 1
    pad: 1
  }
}
layer {
  name: "inception_4b/pool_proj"
  type: "Convolution"
  bottom: "inception_4b/pool"
  top: "inception_4b/pool_proj"
  param {
    lr_mult: 1
    decay_mult: 1
  }
  param {
    lr_mult: 2
    decay_mult: 0
  }
  convolution_param {
    num_output: 64
    kernel_size: 1
    weight_filler {
      type: "xavier"
      std: 0.1
    }
    bias_filler {
      type: "constant"
      value: 0.2
    }
  }
}
layer {
  name: "inception_4b/relu_pool_proj"
  type: "ReLU"
  bottom: "inception_4b/pool_proj"
  top: "inception_4b/pool_proj"
}
layer {
  name: "inception_4b/output"
  type: "Concat"
  bottom: "inception_4b/1x1"
  bottom: "inception_4b/3x3"
  bottom: "inception_4b/5x5"
  bottom: "inception_4b/pool_proj"
  top: "inception_4b/output"
}
layer {
  name: "inception_4c/1x1"
  type: "Convolution"
  bottom: "inception_4b/output"
  top: "inception_4c/1x1"
  param {
    lr_mult: 1
    decay_mult: 1
  }
  param {
    lr_mult: 2
    decay_mult: 0
  }
  convolution_param {
    num_output: 128
    kernel_size: 1
    weight_filler {
      type: "xavier"
      std: 0.03
    }
    bias_filler {
      type: "constant"
      value: 0.2
    }
  }
}
layer {
  name: "inception_4c/relu_1x1"
  type: "ReLU"
  bottom: "inception_4c/1x1"
  top: "inception_4c/1x1"
}
layer {
  name: "inception_4c/3x3_reduce"
  type: "Convolution"
  bottom: "inception_4b/output"
  top: "inception_4c/3x3_reduce"
  param {
    lr_mult: 1
    decay_mult: 1
  }
  param {
    lr_mult: 2
    decay_mult: 0
  }
  convolution_param {
    num_output: 128
    kernel_size: 1
    weight_filler {
      type: "xavier"
      std: 0.09
    }
    bias_filler {
      type: "constant"
      value: 0.2
    }
  }
}
layer {
  name: "inception_4c/relu_3x3_reduce"
  type: "ReLU"
  bottom: "inception_4c/3x3_reduce"
  top: "inception_4c/3x3_reduce"
}
layer {
  name: "inception_4c/3x3"
  type: "Convolution"
  bottom: "inception_4c/3x3_reduce"
  top: "inception_4c/3x3"
  param {
    lr_mult: 1
    decay_mult: 1
  }
  param {
    lr_mult: 2
    decay_mult: 0
  }
  convolution_param {
    num_output: 256
    pad: 1
    kernel_size: 3
    weight_filler {
      type: "xavier"
      std: 0.03
    }
    bias_filler {
      type: "constant"
      value: 0.2
    }
  }
}
layer {
  name: "inception_4c/relu_3x3"
  type: "ReLU"
  bottom: "inception_4c/3x3"
  top: "inception_4c/3x3"
}
layer {
  name: "inception_4c/5x5_reduce"
  type: "Convolution"
  bottom: "inception_4b/output"
  top: "inception_4c/5x5_reduce"
  param {
    lr_mult: 1
    decay_mult: 1
  }
  param {
    lr_mult: 2
    decay_mult: 0
  }
  convolution_param {
    num_output: 24
    kernel_size: 1
    weight_filler {
      type: "xavier"
      std: 0.2
    }
    bias_filler {
      type: "constant"
      value: 0.2
    }
  }
}
layer {
  name: "inception_4c/relu_5x5_reduce"
  type: "ReLU"
  bottom: "inception_4c/5x5_reduce"
  top: "inception_4c/5x5_reduce"
}
layer {
  name: "inception_4c/5x5"
  type: "Convolution"
  bottom: "inception_4c/5x5_reduce"
  top: "inception_4c/5x5"
  param {
    lr_mult: 1
    decay_mult: 1
  }
  param {
    lr_mult: 2
    decay_mult: 0
  }
  convolution_param {
    num_output: 64
    pad: 2
    kernel_size: 5
    weight_filler {
      type: "xavier"
      std: 0.03
    }
    bias_filler {
      type: "constant"
      value: 0.2
    }
  }
}
layer {
  name: "inception_4c/relu_5x5"
  type: "ReLU"
  bottom: "inception_4c/5x5"
  top: "inception_4c/5x5"
}
layer {
  name: "inception_4c/pool"
  type: "Pooling"
  bottom: "inception_4b/output"
  top: "inception_4c/pool"
  pooling_param {
    pool: MAX
    kernel_size: 3
    stride: 1
    pad: 1
  }
}
layer {
  name: "inception_4c/pool_proj"
  type: "Convolution"
  bottom: "inception_4c/pool"
  top: "inception_4c/pool_proj"
  param {
    lr_mult: 1
    decay_mult: 1
  }
  param {
    lr_mult: 2
    decay_mult: 0
  }
  convolution_param {
    num_output: 64
    kernel_size: 1
    weight_filler {
      type: "xavier"
      std: 0.1
    }
    bias_filler {
      type: "constant"
      value: 0.2
    }
  }
}
layer {
  name: "inception_4c/relu_pool_proj"
  type: "ReLU"
  bottom: "inception_4c/pool_proj"
  top: "inception_4c/pool_proj"
}
layer {
  name: "inception_4c/output"
  type: "Concat"
  bottom: "inception_4c/1x1"
  bottom: "inception_4c/3x3"
  bottom: "inception_4c/5x5"
  bottom: "inception_4c/pool_proj"
  top: "inception_4c/output"
}
layer {
  name: "inception_4d/1x1"
  type: "Convolution"
  bottom: "inception_4c/output"
  top: "inception_4d/1x1"
  param {
    lr_mult: 1
    decay_mult: 1
  }
  param {
    lr_mult: 2
    decay_mult: 0
  }
  convolution_param {
    num_output: 112
    kernel_size: 1
    weight_filler {
      type: "xavier"
      std: 0.03
    }
    bias_filler {
      type: "constant"
      value: 0.2
    }
  }
}
layer {
  name: "inception_4d/relu_1x1"
  type: "ReLU"
  bottom: "inception_4d/1x1"
  top: "inception_4d/1x1"
}
layer {
  name: "inception_4d/3x3_reduce"
  type: "Convolution"
  bottom: "inception_4c/output"
  top: "inception_4d/3x3_reduce"
  param {
    lr_mult: 1
    decay_mult: 1
  }
  param {
    lr_mult: 2
    decay_mult: 0
  }
  convolution_param {
    num_output: 144
    kernel_size: 1
    weight_filler {
      type: "xavier"
      std: 0.09
    }
    bias_filler {
      type: "constant"
      value: 0.2
    }
  }
}
layer {
  name: "inception_4d/relu_3x3_reduce"
  type: "ReLU"
  bottom: "inception_4d/3x3_reduce"
  top: "inception_4d/3x3_reduce"
}
layer {
  name: "inception_4d/3x3"
  type: "Convolution"
  bottom: "inception_4d/3x3_reduce"
  top: "inception_4d/3x3"
  param {
    lr_mult: 1
    decay_mult: 1
  }
  param {
    lr_mult: 2
    decay_mult: 0
  }
  convolution_param {
    num_output: 288
    pad: 1
    kernel_size: 3
    weight_filler {
      type: "xavier"
      std: 0.03
    }
    bias_filler {
      type: "constant"
      value: 0.2
    }
  }
}
layer {
  name: "inception_4d/relu_3x3"
  type: "ReLU"
  bottom: "inception_4d/3x3"
  top: "inception_4d/3x3"
}
layer {
  name: "inception_4d/5x5_reduce"
  type: "Convolution"
  bottom: "inception_4c/output"
  top: "inception_4d/5x5_reduce"
  param {
    lr_mult: 1
    decay_mult: 1
  }
  param {
    lr_mult: 2
    decay_mult: 0
  }
  convolution_param {
    num_output: 32
    kernel_size: 1
    weight_filler {
      type: "xavier"
      std: 0.2
    }
    bias_filler {
      type: "constant"
      value: 0.2
    }
  }
}
layer {
  name: "inception_4d/relu_5x5_reduce"
  type: "ReLU"
  bottom: "inception_4d/5x5_reduce"
  top: "inception_4d/5x5_reduce"
}
layer {
  name: "inception_4d/5x5"
  type: "Convolution"
  bottom: "inception_4d/5x5_reduce"
  top: "inception_4d/5x5"
  param {
    lr_mult: 1
    decay_mult: 1
  }
  param {
    lr_mult: 2
    decay_mult: 0
  }
  convolution_param {
    num_output: 64
    pad: 2
    kernel_size: 5
    weight_filler {
      type: "xavier"
      std: 0.03
    }
    bias_filler {
      type: "constant"
      value: 0.2
    }
  }
}
layer {
  name: "inception_4d/relu_5x5"
  type: "ReLU"
  bottom: "inception_4d/5x5"
  top: "inception_4d/5x5"
}
layer {
  name: "inception_4d/pool"
  type: "Pooling"
  bottom: "inception_4c/output"
  top: "inception_4d/pool"
  pooling_param {
    pool: MAX
    kernel_size: 3
    stride: 1
    pad: 1
  }
}
layer {
  name: "inception_4d/pool_proj"
  type: "Convolution"
  bottom: "inception_4d/pool"
  top: "inception_4d/pool_proj"
  param {
    lr_mult: 1
    decay_mult: 1
  }
  param {
    lr_mult: 2
    decay_mult: 0
  }
  convolution_param {
    num_output: 64
    kernel_size: 1
    weight_filler {
      type: "xavier"
      std: 0.1
    }
    bias_filler {
      type: "constant"
      value: 0.2
    }
  }
}
layer {
  name: "inception_4d/relu_pool_proj"
  type: "ReLU"
  bottom: "inception_4d/pool_proj"
  top: "inception_4d/pool_proj"
}
layer {
  name: "inception_4d/output"
  type: "Concat"
  bottom: "inception_4d/1x1"
  bottom: "inception_4d/3x3"
  bottom: "inception_4d/5x5"
  bottom: "inception_4d/pool_proj"
  top: "inception_4d/output"
}
layer {
  name: "loss2/ave_pool"
  type: "Pooling"
  bottom: "inception_4d/output"
  top: "loss2/ave_pool"
  pooling_param {
    pool: AVE
    kernel_size: 5
    stride: 3
  }
}
layer {
  name: "loss2/conv"
  type: "Convolution"
  bottom: "loss2/ave_pool"
  top: "loss2/conv"
  param {
    lr_mult: 1
    decay_mult: 1
  }
  param {
    lr_mult: 2
    decay_mult: 0
  }
  convolution_param {
    num_output: 128
    kernel_size: 1
    weight_filler {
      type: "xavier"
      std: 0.08
    }
    bias_filler {
      type: "constant"
      value: 0.2
    }
  }
}
layer {
  name: "loss2/relu_conv"
  type: "ReLU"
  bottom: "loss2/conv"
  top: "loss2/conv"
}
layer {
  name: "loss2/fc"
  type: "InnerProduct"
  bottom: "loss2/conv"
  top: "loss2/fc"
  param {
    lr_mult: 1
    decay_mult: 1
  }
  param {
    lr_mult: 2
    decay_mult: 0
  }
  inner_product_param {
    num_output: 1024
    weight_filler {
      type: "xavier"
      std: 0.02
    }
    bias_filler {
      type: "constant"
      value: 0.2
    }
  }
}
layer {
  name: "loss2/relu_fc"
  type: "ReLU"
  bottom: "loss2/fc"
  top: "loss2/fc"
}
layer {
  name: "loss2/drop_fc"
  type: "Dropout"
  bottom: "loss2/fc"
  top: "loss2/fc"
  dropout_param {
    dropout_ratio: 0.7
  }
}
layer {
  name: "loss2/classifier_plantvillage"
  type: "InnerProduct"
  bottom: "loss2/fc"
  top: "loss2/classifier_plantvillage"
  param {
    lr_mult: 1
    decay_mult: 1
  }
  param {
    lr_mult: 2
    decay_mult: 0
  }
  inner_product_param {
    num_output: 38
    weight_filler {
      type: "xavier"
      std: 0.0009765625
    }
    bias_filler {
      type: "constant"
      value: 0
    }
  }
}
layer {
  name: "inception_4e/1x1"
  type: "Convolution"
  bottom: "inception_4d/output"
  top: "inception_4e/1x1"
  param {
    lr_mult: 1
    decay_mult: 1
  }
  param {
    lr_mult: 2
    decay_mult: 0
  }
  convolution_param {
    num_output: 256
    kernel_size: 1
    weight_filler {
      type: "xavier"
      std: 0.03
    }
    bias_filler {
      type: "constant"
      value: 0.2
    }
  }
}
layer {
  name: "inception_4e/relu_1x1"
  type: "ReLU"
  bottom: "inception_4e/1x1"
  top: "inception_4e/1x1"
}
layer {
  name: "inception_4e/3x3_reduce"
  type: "Convolution"
  bottom: "inception_4d/output"
  top: "inception_4e/3x3_reduce"
  param {
    lr_mult: 1
    decay_mult: 1
  }
  param {
    lr_mult: 2
    decay_mult: 0
  }
  convolution_param {
    num_output: 160
    kernel_size: 1
    weight_filler {
      type: "xavier"
      std: 0.09
    }
    bias_filler {
      type: "constant"
      value: 0.2
    }
  }
}
layer {
  name: "inception_4e/relu_3x3_reduce"
  type: "ReLU"
  bottom: "inception_4e/3x3_reduce"
  top: "inception_4e/3x3_reduce"
}
layer {
  name: "inception_4e/3x3"
  type: "Convolution"
  bottom: "inception_4e/3x3_reduce"
  top: "inception_4e/3x3"
  param {
    lr_mult: 1
    decay_mult: 1
  }
  param {
    lr_mult: 2
    decay_mult: 0
  }
  convolution_param {
    num_output: 320
    pad: 1
    kernel_size: 3
    weight_filler {
      type: "xavier"
      std: 0.03
    }
    bias_filler {
      type: "constant"
      value: 0.2
    }
  }
}
layer {
  name: "inception_4e/relu_3x3"
  type: "ReLU"
  bottom: "inception_4e/3x3"
  top: "inception_4e/3x3"
}
layer {
  name: "inception_4e/5x5_reduce"
  type: "Convolution"
  bottom: "inception_4d/output"
  top: "inception_4e/5x5_reduce"
  param {
    lr_mult: 1
    decay_mult: 1
  }
  param {
    lr_mult: 2
    decay_mult: 0
  }
  convolution_param {
    num_output: 32
    kernel_size: 1
    weight_filler {
      type: "xavier"
      std: 0.2
    }
    bias_filler {
      type: "constant"
      value: 0.2
    }
  }
}
layer {
  name: "inception_4e/relu_5x5_reduce"
  type: "ReLU"
  bottom: "inception_4e/5x5_reduce"
  top: "inception_4e/5x5_reduce"
}
layer {
  name: "inception_4e/5x5"
  type: "Convolution"
  bottom: "inception_4e/5x5_reduce"
  top: "inception_4e/
I0403 15:12:47.929107  2819 layer_factory.hpp:77] Creating layer data
I0403 15:12:47.929739  2819 net.cpp:91] Creating Layer data
I0403 15:12:47.929774  2819 net.cpp:399] data -> data
I0403 15:12:47.929826  2819 net.cpp:399] data -> label
I0403 15:12:47.929862  2819 data_transformer.cpp:25] Loading mean file from: /home/mohanty/data/final_dataset/lmdb/segmented-60-40/mean.binaryproto
I0403 15:12:47.932073  2822 db_lmdb.cpp:38] Opened lmdb /home/mohanty/data/final_dataset/lmdb/segmented-60-40/test_db
I0403 15:12:47.943141  2819 data_layer.cpp:41] output data size: 24,3,224,224
I0403 15:12:47.971861  2819 net.cpp:141] Setting up data
I0403 15:12:47.971968  2819 net.cpp:148] Top shape: 24 3 224 224 (3612672)
I0403 15:12:47.971992  2819 net.cpp:148] Top shape: 24 (24)
I0403 15:12:47.972007  2819 net.cpp:156] Memory required for data: 14450784
I0403 15:12:47.972036  2819 layer_factory.hpp:77] Creating layer label_data_1_split
I0403 15:12:47.972064  2819 net.cpp:91] Creating Layer label_data_1_split
I0403 15:12:47.972082  2819 net.cpp:425] label_data_1_split <- label
I0403 15:12:47.972115  2819 net.cpp:399] label_data_1_split -> label_data_1_split_0
I0403 15:12:47.972144  2819 net.cpp:399] label_data_1_split -> label_data_1_split_1
I0403 15:12:47.972167  2819 net.cpp:399] label_data_1_split -> label_data_1_split_2
I0403 15:12:47.972203  2819 net.cpp:399] label_data_1_split -> label_data_1_split_3
I0403 15:12:47.972225  2819 net.cpp:399] label_data_1_split -> label_data_1_split_4
I0403 15:12:47.972247  2819 net.cpp:399] label_data_1_split -> label_data_1_split_5
I0403 15:12:47.972268  2819 net.cpp:399] label_data_1_split -> label_data_1_split_6
I0403 15:12:47.972290  2819 net.cpp:399] label_data_1_split -> label_data_1_split_7
I0403 15:12:47.972311  2819 net.cpp:399] label_data_1_split -> label_data_1_split_8
I0403 15:12:47.972332  2819 net.cpp:399] label_data_1_split -> label_data_1_split_9
I0403 15:12:47.972455  2819 net.cpp:141] Setting up label_data_1_split
I0403 15:12:47.972479  2819 net.cpp:148] Top shape: 24 (24)
I0403 15:12:47.972497  2819 net.cpp:148] Top shape: 24 (24)
I0403 15:12:47.972514  2819 net.cpp:148] Top shape: 24 (24)
I0403 15:12:47.972530  2819 net.cpp:148] Top shape: 24 (24)
I0403 15:12:47.972546  2819 net.cpp:148] Top shape: 24 (24)
I0403 15:12:47.972563  2819 net.cpp:148] Top shape: 24 (24)
I0403 15:12:47.972579  2819 net.cpp:148] Top shape: 24 (24)
I0403 15:12:47.972595  2819 net.cpp:148] Top shape: 24 (24)
I0403 15:12:47.972611  2819 net.cpp:148] Top shape: 24 (24)
I0403 15:12:47.972630  2819 net.cpp:148] Top shape: 24 (24)
I0403 15:12:47.972673  2819 net.cpp:156] Memory required for data: 14451744
I0403 15:12:47.972690  2819 layer_factory.hpp:77] Creating layer conv1/7x7_s2
I0403 15:12:47.972724  2819 net.cpp:91] Creating Layer conv1/7x7_s2
I0403 15:12:47.972743  2819 net.cpp:425] conv1/7x7_s2 <- data
I0403 15:12:47.972764  2819 net.cpp:399] conv1/7x7_s2 -> conv1/7x7_s2
I0403 15:12:48.115627  2819 net.cpp:141] Setting up conv1/7x7_s2
I0403 15:12:48.115669  2819 net.cpp:148] Top shape: 24 64 112 112 (19267584)
I0403 15:12:48.115687  2819 net.cpp:156] Memory required for data: 91522080
I0403 15:12:48.115718  2819 layer_factory.hpp:77] Creating layer conv1/relu_7x7
I0403 15:12:48.115744  2819 net.cpp:91] Creating Layer conv1/relu_7x7
I0403 15:12:48.115763  2819 net.cpp:425] conv1/relu_7x7 <- conv1/7x7_s2
I0403 15:12:48.115782  2819 net.cpp:386] conv1/relu_7x7 -> conv1/7x7_s2 (in-place)
I0403 15:12:48.116030  2819 net.cpp:141] Setting up conv1/relu_7x7
I0403 15:12:48.116056  2819 net.cpp:148] Top shape: 24 64 112 112 (19267584)
I0403 15:12:48.116072  2819 net.cpp:156] Memory required for data: 168592416
I0403 15:12:48.116088  2819 layer_factory.hpp:77] Creating layer pool1/3x3_s2
I0403 15:12:48.116113  2819 net.cpp:91] Creating Layer pool1/3x3_s2
I0403 15:12:48.116132  2819 net.cpp:425] pool1/3x3_s2 <- conv1/7x7_s2
I0403 15:12:48.116150  2819 net.cpp:399] pool1/3x3_s2 -> pool1/3x3_s2
I0403 15:12:48.116225  2819 net.cpp:141] Setting up pool1/3x3_s2
I0403 15:12:48.116250  2819 net.cpp:148] Top shape: 24 64 56 56 (4816896)
I0403 15:12:48.116266  2819 net.cpp:156] Memory required for data: 187860000
I0403 15:12:48.116281  2819 layer_factory.hpp:77] Creating layer pool1/norm1
I0403 15:12:48.116304  2819 net.cpp:91] Creating Layer pool1/norm1
I0403 15:12:48.116322  2819 net.cpp:425] pool1/norm1 <- pool1/3x3_s2
I0403 15:12:48.116339  2819 net.cpp:399] pool1/norm1 -> pool1/norm1
I0403 15:12:48.116629  2819 net.cpp:141] Setting up pool1/norm1
I0403 15:12:48.116657  2819 net.cpp:148] Top shape: 24 64 56 56 (4816896)
I0403 15:12:48.116672  2819 net.cpp:156] Memory required for data: 207127584
I0403 15:12:48.116688  2819 layer_factory.hpp:77] Creating layer conv2/3x3_reduce
I0403 15:12:48.116711  2819 net.cpp:91] Creating Layer conv2/3x3_reduce
I0403 15:12:48.116727  2819 net.cpp:425] conv2/3x3_reduce <- pool1/norm1
I0403 15:12:48.116746  2819 net.cpp:399] conv2/3x3_reduce -> conv2/3x3_reduce
I0403 15:12:48.118072  2819 net.cpp:141] Setting up conv2/3x3_reduce
I0403 15:12:48.118103  2819 net.cpp:148] Top shape: 24 64 56 56 (4816896)
I0403 15:12:48.118120  2819 net.cpp:156] Memory required for data: 226395168
I0403 15:12:48.118140  2819 layer_factory.hpp:77] Creating layer conv2/relu_3x3_reduce
I0403 15:12:48.118160  2819 net.cpp:91] Creating Layer conv2/relu_3x3_reduce
I0403 15:12:48.118175  2819 net.cpp:425] conv2/relu_3x3_reduce <- conv2/3x3_reduce
I0403 15:12:48.118201  2819 net.cpp:386] conv2/relu_3x3_reduce -> conv2/3x3_reduce (in-place)
I0403 15:12:48.118474  2819 net.cpp:141] Setting up conv2/relu_3x3_reduce
I0403 15:12:48.118501  2819 net.cpp:148] Top shape: 24 64 56 56 (4816896)
I0403 15:12:48.118517  2819 net.cpp:156] Memory required for data: 245662752
I0403 15:12:48.118532  2819 layer_factory.hpp:77] Creating layer conv2/3x3
I0403 15:12:48.118558  2819 net.cpp:91] Creating Layer conv2/3x3
I0403 15:12:48.118576  2819 net.cpp:425] conv2/3x3 <- conv2/3x3_reduce
I0403 15:12:48.118597  2819 net.cpp:399] conv2/3x3 -> conv2/3x3
I0403 15:12:48.120885  2819 net.cpp:141] Setting up conv2/3x3
I0403 15:12:48.120918  2819 net.cpp:148] Top shape: 24 192 56 56 (14450688)
I0403 15:12:48.120939  2819 net.cpp:156] Memory required for data: 303465504
I0403 15:12:48.120959  2819 layer_factory.hpp:77] Creating layer conv2/relu_3x3
I0403 15:12:48.120978  2819 net.cpp:91] Creating Layer conv2/relu_3x3
I0403 15:12:48.120995  2819 net.cpp:425] conv2/relu_3x3 <- conv2/3x3
I0403 15:12:48.121014  2819 net.cpp:386] conv2/relu_3x3 -> conv2/3x3 (in-place)
I0403 15:12:48.121191  2819 net.cpp:141] Setting up conv2/relu_3x3
I0403 15:12:48.121215  2819 net.cpp:148] Top shape: 24 192 56 56 (14450688)
I0403 15:12:48.121261  2819 net.cpp:156] Memory required for data: 361268256
I0403 15:12:48.121278  2819 layer_factory.hpp:77] Creating layer conv2/norm2
I0403 15:12:48.121299  2819 net.cpp:91] Creating Layer conv2/norm2
I0403 15:12:48.121315  2819 net.cpp:425] conv2/norm2 <- conv2/3x3
I0403 15:12:48.121332  2819 net.cpp:399] conv2/norm2 -> conv2/norm2
I0403 15:12:48.121639  2819 net.cpp:141] Setting up conv2/norm2
I0403 15:12:48.121665  2819 net.cpp:148] Top shape: 24 192 56 56 (14450688)
I0403 15:12:48.121681  2819 net.cpp:156] Memory required for data: 419071008
I0403 15:12:48.121696  2819 layer_factory.hpp:77] Creating layer pool2/3x3_s2
I0403 15:12:48.121716  2819 net.cpp:91] Creating Layer pool2/3x3_s2
I0403 15:12:48.121733  2819 net.cpp:425] pool2/3x3_s2 <- conv2/norm2
I0403 15:12:48.121752  2819 net.cpp:399] pool2/3x3_s2 -> pool2/3x3_s2
I0403 15:12:48.121804  2819 net.cpp:141] Setting up pool2/3x3_s2
I0403 15:12:48.121827  2819 net.cpp:148] Top shape: 24 192 28 28 (3612672)
I0403 15:12:48.121842  2819 net.cpp:156] Memory required for data: 433521696
I0403 15:12:48.121857  2819 layer_factory.hpp:77] Creating layer pool2/3x3_s2_pool2/3x3_s2_0_split
I0403 15:12:48.121876  2819 net.cpp:91] Creating Layer pool2/3x3_s2_pool2/3x3_s2_0_split
I0403 15:12:48.121892  2819 net.cpp:425] pool2/3x3_s2_pool2/3x3_s2_0_split <- pool2/3x3_s2
I0403 15:12:48.121911  2819 net.cpp:399] pool2/3x3_s2_pool2/3x3_s2_0_split -> pool2/3x3_s2_pool2/3x3_s2_0_split_0
I0403 15:12:48.121930  2819 net.cpp:399] pool2/3x3_s2_pool2/3x3_s2_0_split -> pool2/3x3_s2_pool2/3x3_s2_0_split_1
I0403 15:12:48.121949  2819 net.cpp:399] pool2/3x3_s2_pool2/3x3_s2_0_split -> pool2/3x3_s2_pool2/3x3_s2_0_split_2
I0403 15:12:48.121969  2819 net.cpp:399] pool2/3x3_s2_pool2/3x3_s2_0_split -> pool2/3x3_s2_pool2/3x3_s2_0_split_3
I0403 15:12:48.122042  2819 net.cpp:141] Setting up pool2/3x3_s2_pool2/3x3_s2_0_split
I0403 15:12:48.122064  2819 net.cpp:148] Top shape: 24 192 28 28 (3612672)
I0403 15:12:48.122081  2819 net.cpp:148] Top shape: 24 192 28 28 (3612672)
I0403 15:12:48.122097  2819 net.cpp:148] Top shape: 24 192 28 28 (3612672)
I0403 15:12:48.122112  2819 net.cpp:148] Top shape: 24 192 28 28 (3612672)
I0403 15:12:48.122126  2819 net.cpp:156] Memory required for data: 491324448
I0403 15:12:48.122140  2819 layer_factory.hpp:77] Creating layer inception_3a/1x1
I0403 15:12:48.122164  2819 net.cpp:91] Creating Layer inception_3a/1x1
I0403 15:12:48.122186  2819 net.cpp:425] inception_3a/1x1 <- pool2/3x3_s2_pool2/3x3_s2_0_split_0
I0403 15:12:48.122226  2819 net.cpp:399] inception_3a/1x1 -> inception_3a/1x1
I0403 15:12:48.123798  2819 net.cpp:141] Setting up inception_3a/1x1
I0403 15:12:48.123831  2819 net.cpp:148] Top shape: 24 64 28 28 (1204224)
I0403 15:12:48.123847  2819 net.cpp:156] Memory required for data: 496141344
I0403 15:12:48.123867  2819 layer_factory.hpp:77] Creating layer inception_3a/relu_1x1
I0403 15:12:48.123888  2819 net.cpp:91] Creating Layer inception_3a/relu_1x1
I0403 15:12:48.123903  2819 net.cpp:425] inception_3a/relu_1x1 <- inception_3a/1x1
I0403 15:12:48.123924  2819 net.cpp:386] inception_3a/relu_1x1 -> inception_3a/1x1 (in-place)
I0403 15:12:48.124101  2819 net.cpp:141] Setting up inception_3a/relu_1x1
I0403 15:12:48.124127  2819 net.cpp:148] Top shape: 24 64 28 28 (1204224)
I0403 15:12:48.124142  2819 net.cpp:156] Memory required for data: 500958240
I0403 15:12:48.124158  2819 layer_factory.hpp:77] Creating layer inception_3a/3x3_reduce
I0403 15:12:48.124186  2819 net.cpp:91] Creating Layer inception_3a/3x3_reduce
I0403 15:12:48.124204  2819 net.cpp:425] inception_3a/3x3_reduce <- pool2/3x3_s2_pool2/3x3_s2_0_split_1
I0403 15:12:48.124227  2819 net.cpp:399] inception_3a/3x3_reduce -> inception_3a/3x3_reduce
I0403 15:12:48.125936  2819 net.cpp:141] Setting up inception_3a/3x3_reduce
I0403 15:12:48.125968  2819 net.cpp:148] Top shape: 24 96 28 28 (1806336)
I0403 15:12:48.125985  2819 net.cpp:156] Memory required for data: 508183584
I0403 15:12:48.126008  2819 layer_factory.hpp:77] Creating layer inception_3a/relu_3x3_reduce
I0403 15:12:48.126045  2819 net.cpp:91] Creating Layer inception_3a/relu_3x3_reduce
I0403 15:12:48.126063  2819 net.cpp:425] inception_3a/relu_3x3_reduce <- inception_3a/3x3_reduce
I0403 15:12:48.126081  2819 net.cpp:386] inception_3a/relu_3x3_reduce -> inception_3a/3x3_reduce (in-place)
I0403 15:12:48.126267  2819 net.cpp:141] Setting up inception_3a/relu_3x3_reduce
I0403 15:12:48.126292  2819 net.cpp:148] Top shape: 24 96 28 28 (1806336)
I0403 15:12:48.126308  2819 net.cpp:156] Memory required for data: 515408928
I0403 15:12:48.126323  2819 layer_factory.hpp:77] Creating layer inception_3a/3x3
I0403 15:12:48.126348  2819 net.cpp:91] Creating Layer inception_3a/3x3
I0403 15:12:48.126366  2819 net.cpp:425] inception_3a/3x3 <- inception_3a/3x3_reduce
I0403 15:12:48.126385  2819 net.cpp:399] inception_3a/3x3 -> inception_3a/3x3
I0403 15:12:48.128058  2819 net.cpp:141] Setting up inception_3a/3x3
I0403 15:12:48.128088  2819 net.cpp:148] Top shape: 24 128 28 28 (2408448)
I0403 15:12:48.128104  2819 net.cpp:156] Memory required for data: 525042720
I0403 15:12:48.128123  2819 layer_factory.hpp:77] Creating layer inception_3a/relu_3x3
I0403 15:12:48.128141  2819 net.cpp:91] Creating Layer inception_3a/relu_3x3
I0403 15:12:48.128157  2819 net.cpp:425] inception_3a/relu_3x3 <- inception_3a/3x3
I0403 15:12:48.128181  2819 net.cpp:386] inception_3a/relu_3x3 -> inception_3a/3x3 (in-place)
I0403 15:12:48.128461  2819 net.cpp:141] Setting up inception_3a/relu_3x3
I0403 15:12:48.128489  2819 net.cpp:148] Top shape: 24 128 28 28 (2408448)
I0403 15:12:48.128504  2819 net.cpp:156] Memory required for data: 534676512
I0403 15:12:48.128518  2819 layer_factory.hpp:77] Creating layer inception_3a/5x5_reduce
I0403 15:12:48.128542  2819 net.cpp:91] Creating Layer inception_3a/5x5_reduce
I0403 15:12:48.128561  2819 net.cpp:425] inception_3a/5x5_reduce <- pool2/3x3_s2_pool2/3x3_s2_0_split_2
I0403 15:12:48.128582  2819 net.cpp:399] inception_3a/5x5_reduce -> inception_3a/5x5_reduce
I0403 15:12:48.129561  2819 net.cpp:141] Setting up inception_3a/5x5_reduce
I0403 15:12:48.129590  2819 net.cpp:148] Top shape: 24 16 28 28 (301056)
I0403 15:12:48.129606  2819 net.cpp:156] Memory required for data: 535880736
I0403 15:12:48.129624  2819 layer_factory.hpp:77] Creating layer inception_3a/relu_5x5_reduce
I0403 15:12:48.129643  2819 net.cpp:91] Creating Layer inception_3a/relu_5x5_reduce
I0403 15:12:48.129660  2819 net.cpp:425] inception_3a/relu_5x5_reduce <- inception_3a/5x5_reduce
I0403 15:12:48.129681  2819 net.cpp:386] inception_3a/relu_5x5_reduce -> inception_3a/5x5_reduce (in-place)
I0403 15:12:48.129983  2819 net.cpp:141] Setting up inception_3a/relu_5x5_reduce
I0403 15:12:48.130009  2819 net.cpp:148] Top shape: 24 16 28 28 (301056)
I0403 15:12:48.130025  2819 net.cpp:156] Memory required for data: 537084960
I0403 15:12:48.130040  2819 layer_factory.hpp:77] Creating layer inception_3a/5x5
I0403 15:12:48.130064  2819 net.cpp:91] Creating Layer inception_3a/5x5
I0403 15:12:48.130084  2819 net.cpp:425] inception_3a/5x5 <- inception_3a/5x5_reduce
I0403 15:12:48.130105  2819 net.cpp:399] inception_3a/5x5 -> inception_3a/5x5
I0403 15:12:48.131139  2819 net.cpp:141] Setting up inception_3a/5x5
I0403 15:12:48.131166  2819 net.cpp:148] Top shape: 24 32 28 28 (602112)
I0403 15:12:48.131187  2819 net.cpp:156] Memory required for data: 539493408
I0403 15:12:48.131207  2819 layer_factory.hpp:77] Creating layer inception_3a/relu_5x5
I0403 15:12:48.131225  2819 net.cpp:91] Creating Layer inception_3a/relu_5x5
I0403 15:12:48.131242  2819 net.cpp:425] inception_3a/relu_5x5 <- inception_3a/5x5
I0403 15:12:48.131263  2819 net.cpp:386] inception_3a/relu_5x5 -> inception_3a/5x5 (in-place)
I0403 15:12:48.131438  2819 net.cpp:141] Setting up inception_3a/relu_5x5
I0403 15:12:48.131463  2819 net.cpp:148] Top shape: 24 32 28 28 (602112)
I0403 15:12:48.131477  2819 net.cpp:156] Memory required for data: 541901856
I0403 15:12:48.131494  2819 layer_factory.hpp:77] Creating layer inception_3a/pool
I0403 15:12:48.131513  2819 net.cpp:91] Creating Layer inception_3a/pool
I0403 15:12:48.131544  2819 net.cpp:425] inception_3a/pool <- pool2/3x3_s2_pool2/3x3_s2_0_split_3
I0403 15:12:48.131564  2819 net.cpp:399] inception_3a/pool -> inception_3a/pool
I0403 15:12:48.131623  2819 net.cpp:141] Setting up inception_3a/pool
I0403 15:12:48.131647  2819 net.cpp:148] Top shape: 24 192 28 28 (3612672)
I0403 15:12:48.131662  2819 net.cpp:156] Memory required for data: 556352544
I0403 15:12:48.131677  2819 layer_factory.hpp:77] Creating layer inception_3a/pool_proj
I0403 15:12:48.131700  2819 net.cpp:91] Creating Layer inception_3a/pool_proj
I0403 15:12:48.131718  2819 net.cpp:425] inception_3a/pool_proj <- inception_3a/pool
I0403 15:12:48.131741  2819 net.cpp:399] inception_3a/pool_proj -> inception_3a/pool_proj
I0403 15:12:48.132736  2819 net.cpp:141] Setting up inception_3a/pool_proj
I0403 15:12:48.132764  2819 net.cpp:148] Top shape: 24 32 28 28 (602112)
I0403 15:12:48.132783  2819 net.cpp:156] Memory required for data: 558760992
I0403 15:12:48.132805  2819 layer_factory.hpp:77] Creating layer inception_3a/relu_pool_proj
I0403 15:12:48.132825  2819 net.cpp:91] Creating Layer inception_3a/relu_pool_proj
I0403 15:12:48.132843  2819 net.cpp:425] inception_3a/relu_pool_proj <- inception_3a/pool_proj
I0403 15:12:48.132863  2819 net.cpp:386] inception_3a/relu_pool_proj -> inception_3a/pool_proj (in-place)
I0403 15:12:48.133152  2819 net.cpp:141] Setting up inception_3a/relu_pool_proj
I0403 15:12:48.133189  2819 net.cpp:148] Top shape: 24 32 28 28 (602112)
I0403 15:12:48.133208  2819 net.cpp:156] Memory required for data: 561169440
I0403 15:12:48.133224  2819 layer_factory.hpp:77] Creating layer inception_3a/output
I0403 15:12:48.133242  2819 net.cpp:91] Creating Layer inception_3a/output
I0403 15:12:48.133258  2819 net.cpp:425] inception_3a/output <- inception_3a/1x1
I0403 15:12:48.133275  2819 net.cpp:425] inception_3a/output <- inception_3a/3x3
I0403 15:12:48.133291  2819 net.cpp:425] inception_3a/output <- inception_3a/5x5
I0403 15:12:48.133307  2819 net.cpp:425] inception_3a/output <- inception_3a/pool_proj
I0403 15:12:48.133327  2819 net.cpp:399] inception_3a/output -> inception_3a/output
I0403 15:12:48.133374  2819 net.cpp:141] Setting up inception_3a/output
I0403 15:12:48.133401  2819 net.cpp:148] Top shape: 24 256 28 28 (4816896)
I0403 15:12:48.133417  2819 net.cpp:156] Memory required for data: 580437024
I0403 15:12:48.133433  2819 layer_factory.hpp:77] Creating layer inception_3a/output_inception_3a/output_0_split
I0403 15:12:48.133451  2819 net.cpp:91] Creating Layer inception_3a/output_inception_3a/output_0_split
I0403 15:12:48.133467  2819 net.cpp:425] inception_3a/output_inception_3a/output_0_split <- inception_3a/output
I0403 15:12:48.133486  2819 net.cpp:399] inception_3a/output_inception_3a/output_0_split -> inception_3a/output_inception_3a/output_0_split_0
I0403 15:12:48.133507  2819 net.cpp:399] inception_3a/output_inception_3a/output_0_split -> inception_3a/output_inception_3a/output_0_split_1
I0403 15:12:48.133533  2819 net.cpp:399] inception_3a/output_inception_3a/output_0_split -> inception_3a/output_inception_3a/output_0_split_2
I0403 15:12:48.133555  2819 net.cpp:399] inception_3a/output_inception_3a/output_0_split -> inception_3a/output_inception_3a/output_0_split_3
I0403 15:12:48.133635  2819 net.cpp:141] Setting up inception_3a/output_inception_3a/output_0_split
I0403 15:12:48.133661  2819 net.cpp:148] Top shape: 24 256 28 28 (4816896)
I0403 15:12:48.133680  2819 net.cpp:148] Top shape: 24 256 28 28 (4816896)
I0403 15:12:48.133697  2819 net.cpp:148] Top shape: 24 256 28 28 (4816896)
I0403 15:12:48.133713  2819 net.cpp:148] Top shape: 24 256 28 28 (4816896)
I0403 15:12:48.133726  2819 net.cpp:156] Memory required for data: 657507360
I0403 15:12:48.133743  2819 layer_factory.hpp:77] Creating layer inception_3b/1x1
I0403 15:12:48.133764  2819 net.cpp:91] Creating Layer inception_3b/1x1
I0403 15:12:48.133782  2819 net.cpp:425] inception_3b/1x1 <- inception_3a/output_inception_3a/output_0_split_0
I0403 15:12:48.133801  2819 net.cpp:399] inception_3b/1x1 -> inception_3b/1x1
I0403 15:12:48.134977  2819 net.cpp:141] Setting up inception_3b/1x1
I0403 15:12:48.135020  2819 net.cpp:148] Top shape: 24 128 28 28 (2408448)
I0403 15:12:48.135036  2819 net.cpp:156] Memory required for data: 667141152
I0403 15:12:48.135056  2819 layer_factory.hpp:77] Creating layer inception_3b/relu_1x1
I0403 15:12:48.135076  2819 net.cpp:91] Creating Layer inception_3b/relu_1x1
I0403 15:12:48.135092  2819 net.cpp:425] inception_3b/relu_1x1 <- inception_3b/1x1
I0403 15:12:48.135113  2819 net.cpp:386] inception_3b/relu_1x1 -> inception_3b/1x1 (in-place)
I0403 15:12:48.135295  2819 net.cpp:141] Setting up inception_3b/relu_1x1
I0403 15:12:48.135321  2819 net.cpp:148] Top shape: 24 128 28 28 (2408448)
I0403 15:12:48.135337  2819 net.cpp:156] Memory required for data: 676774944
I0403 15:12:48.135352  2819 layer_factory.hpp:77] Creating layer inception_3b/3x3_reduce
I0403 15:12:48.135375  2819 net.cpp:91] Creating Layer inception_3b/3x3_reduce
I0403 15:12:48.135393  2819 net.cpp:425] inception_3b/3x3_reduce <- inception_3a/output_inception_3a/output_0_split_1
I0403 15:12:48.135416  2819 net.cpp:399] inception_3b/3x3_reduce -> inception_3b/3x3_reduce
I0403 15:12:48.136581  2819 net.cpp:141] Setting up inception_3b/3x3_reduce
I0403 15:12:48.136613  2819 net.cpp:148] Top shape: 24 128 28 28 (2408448)
I0403 15:12:48.136631  2819 net.cpp:156] Memory required for data: 686408736
I0403 15:12:48.136651  2819 layer_factory.hpp:77] Creating layer inception_3b/relu_3x3_reduce
I0403 15:12:48.136669  2819 net.cpp:91] Creating Layer inception_3b/relu_3x3_reduce
I0403 15:12:48.136685  2819 net.cpp:425] inception_3b/relu_3x3_reduce <- inception_3b/3x3_reduce
I0403 15:12:48.136703  2819 net.cpp:386] inception_3b/relu_3x3_reduce -> inception_3b/3x3_reduce (in-place)
I0403 15:12:48.136880  2819 net.cpp:141] Setting up inception_3b/relu_3x3_reduce
I0403 15:12:48.136905  2819 net.cpp:148] Top shape: 24 128 28 28 (2408448)
I0403 15:12:48.136921  2819 net.cpp:156] Memory required for data: 696042528
I0403 15:12:48.136937  2819 layer_factory.hpp:77] Creating layer inception_3b/3x3
I0403 15:12:48.136962  2819 net.cpp:91] Creating Layer inception_3b/3x3
I0403 15:12:48.136981  2819 net.cpp:425] inception_3b/3x3 <- inception_3b/3x3_reduce
I0403 15:12:48.137002  2819 net.cpp:399] inception_3b/3x3 -> inception_3b/3x3
I0403 15:12:48.139989  2819 net.cpp:141] Setting up inception_3b/3x3
I0403 15:12:48.140019  2819 net.cpp:148] Top shape: 24 192 28 28 (3612672)
I0403 15:12:48.140036  2819 net.cpp:156] Memory required for data: 710493216
I0403 15:12:48.140055  2819 layer_factory.hpp:77] Creating layer inception_3b/relu_3x3
I0403 15:12:48.140074  2819 net.cpp:91] Creating Layer inception_3b/relu_3x3
I0403 15:12:48.140091  2819 net.cpp:425] inception_3b/relu_3x3 <- inception_3b/3x3
I0403 15:12:48.140112  2819 net.cpp:386] inception_3b/relu_3x3 -> inception_3b/3x3 (in-place)
I0403 15:12:48.140401  2819 net.cpp:141] Setting up inception_3b/relu_3x3
I0403 15:12:48.140429  2819 net.cpp:148] Top shape: 24 192 28 28 (3612672)
I0403 15:12:48.140444  2819 net.cpp:156] Memory required for data: 724943904
I0403 15:12:48.140460  2819 layer_factory.hpp:77] Creating layer inception_3b/5x5_reduce
I0403 15:12:48.140483  2819 net.cpp:91] Creating Layer inception_3b/5x5_reduce
I0403 15:12:48.140501  2819 net.cpp:425] inception_3b/5x5_reduce <- inception_3a/output_inception_3a/output_0_split_2
I0403 15:12:48.140527  2819 net.cpp:399] inception_3b/5x5_reduce -> inception_3b/5x5_reduce
I0403 15:12:48.141587  2819 net.cpp:141] Setting up inception_3b/5x5_reduce
I0403 15:12:48.141626  2819 net.cpp:148] Top shape: 24 32 28 28 (602112)
I0403 15:12:48.141643  2819 net.cpp:156] Memory required for data: 727352352
I0403 15:12:48.141661  2819 layer_factory.hpp:77] Creating layer inception_3b/relu_5x5_reduce
I0403 15:12:48.141680  2819 net.cpp:91] Creating Layer inception_3b/relu_5x5_reduce
I0403 15:12:48.141695  2819 net.cpp:425] inception_3b/relu_5x5_reduce <- inception_3b/5x5_reduce
I0403 15:12:48.141715  2819 net.cpp:386] inception_3b/relu_5x5_reduce -> inception_3b/5x5_reduce (in-place)
I0403 15:12:48.141906  2819 net.cpp:141] Setting up inception_3b/relu_5x5_reduce
I0403 15:12:48.141932  2819 net.cpp:148] Top shape: 24 32 28 28 (602112)
I0403 15:12:48.141947  2819 net.cpp:156] Memory required for data: 729760800
I0403 15:12:48.141962  2819 layer_factory.hpp:77] Creating layer inception_3b/5x5
I0403 15:12:48.141984  2819 net.cpp:91] Creating Layer inception_3b/5x5
I0403 15:12:48.142001  2819 net.cpp:425] inception_3b/5x5 <- inception_3b/5x5_reduce
I0403 15:12:48.142022  2819 net.cpp:399] inception_3b/5x5 -> inception_3b/5x5
I0403 15:12:48.144024  2819 net.cpp:141] Setting up inception_3b/5x5
I0403 15:12:48.144055  2819 net.cpp:148] Top shape: 24 96 28 28 (1806336)
I0403 15:12:48.144073  2819 net.cpp:156] Memory required for data: 736986144
I0403 15:12:48.144091  2819 layer_factory.hpp:77] Creating layer inception_3b/relu_5x5
I0403 15:12:48.144110  2819 net.cpp:91] Creating Layer inception_3b/relu_5x5
I0403 15:12:48.144126  2819 net.cpp:425] inception_3b/relu_5x5 <- inception_3b/5x5
I0403 15:12:48.144143  2819 net.cpp:386] inception_3b/relu_5x5 -> inception_3b/5x5 (in-place)
I0403 15:12:48.144337  2819 net.cpp:141] Setting up inception_3b/relu_5x5
I0403 15:12:48.144362  2819 net.cpp:148] Top shape: 24 96 28 28 (1806336)
I0403 15:12:48.144377  2819 net.cpp:156] Memory required for data: 744211488
I0403 15:12:48.144393  2819 layer_factory.hpp:77] Creating layer inception_3b/pool
I0403 15:12:48.144412  2819 net.cpp:91] Creating Layer inception_3b/pool
I0403 15:12:48.144428  2819 net.cpp:425] inception_3b/pool <- inception_3a/output_inception_3a/output_0_split_3
I0403 15:12:48.144444  2819 net.cpp:399] inception_3b/pool -> inception_3b/pool
I0403 15:12:48.144500  2819 net.cpp:141] Setting up inception_3b/pool
I0403 15:12:48.144531  2819 net.cpp:148] Top shape: 24 256 28 28 (4816896)
I0403 15:12:48.144546  2819 net.cpp:156] Memory required for data: 763479072
I0403 15:12:48.144562  2819 layer_factory.hpp:77] Creating layer inception_3b/pool_proj
I0403 15:12:48.144583  2819 net.cpp:91] Creating Layer inception_3b/pool_proj
I0403 15:12:48.144600  2819 net.cpp:425] inception_3b/pool_proj <- inception_3b/pool
I0403 15:12:48.144619  2819 net.cpp:399] inception_3b/pool_proj -> inception_3b/pool_proj
I0403 15:12:48.145665  2819 net.cpp:141] Setting up inception_3b/pool_proj
I0403 15:12:48.145694  2819 net.cpp:148] Top shape: 24 64 28 28 (1204224)
I0403 15:12:48.145709  2819 net.cpp:156] Memory required for data: 768295968
I0403 15:12:48.145728  2819 layer_factory.hpp:77] Creating layer inception_3b/relu_pool_proj
I0403 15:12:48.145748  2819 net.cpp:91] Creating Layer inception_3b/relu_pool_proj
I0403 15:12:48.145766  2819 net.cpp:425] inception_3b/relu_pool_proj <- inception_3b/pool_proj
I0403 15:12:48.145782  2819 net.cpp:386] inception_3b/relu_pool_proj -> inception_3b/pool_proj (in-place)
I0403 15:12:48.146174  2819 net.cpp:141] Setting up inception_3b/relu_pool_proj
I0403 15:12:48.146204  2819 net.cpp:148] Top shape: 24 64 28 28 (1204224)
I0403 15:12:48.146219  2819 net.cpp:156] Memory required for data: 773112864
I0403 15:12:48.146234  2819 layer_factory.hpp:77] Creating layer inception_3b/output
I0403 15:12:48.146252  2819 net.cpp:91] Creating Layer inception_3b/output
I0403 15:12:48.146267  2819 net.cpp:425] inception_3b/output <- inception_3b/1x1
I0403 15:12:48.146284  2819 net.cpp:425] inception_3b/output <- inception_3b/3x3
I0403 15:12:48.146301  2819 net.cpp:425] inception_3b/output <- inception_3b/5x5
I0403 15:12:48.146316  2819 net.cpp:425] inception_3b/output <- inception_3b/pool_proj
I0403 15:12:48.146335  2819 net.cpp:399] inception_3b/output -> inception_3b/output
I0403 15:12:48.146381  2819 net.cpp:141] Setting up inception_3b/output
I0403 15:12:48.146404  2819 net.cpp:148] Top shape: 24 480 28 28 (9031680)
I0403 15:12:48.146419  2819 net.cpp:156] Memory required for data: 809239584
I0403 15:12:48.146435  2819 layer_factory.hpp:77] Creating layer pool3/3x3_s2
I0403 15:12:48.146452  2819 net.cpp:91] Creating Layer pool3/3x3_s2
I0403 15:12:48.146468  2819 net.cpp:425] pool3/3x3_s2 <- inception_3b/output
I0403 15:12:48.146502  2819 net.cpp:399] pool3/3x3_s2 -> pool3/3x3_s2
I0403 15:12:48.146561  2819 net.cpp:141] Setting up pool3/3x3_s2
I0403 15:12:48.146584  2819 net.cpp:148] Top shape: 24 480 14 14 (2257920)
I0403 15:12:48.146598  2819 net.cpp:156] Memory required for data: 818271264
I0403 15:12:48.146613  2819 layer_factory.hpp:77] Creating layer pool3/3x3_s2_pool3/3x3_s2_0_split
I0403 15:12:48.146634  2819 net.cpp:91] Creating Layer pool3/3x3_s2_pool3/3x3_s2_0_split
I0403 15:12:48.146649  2819 net.cpp:425] pool3/3x3_s2_pool3/3x3_s2_0_split <- pool3/3x3_s2
I0403 15:12:48.146667  2819 net.cpp:399] pool3/3x3_s2_pool3/3x3_s2_0_split -> pool3/3x3_s2_pool3/3x3_s2_0_split_0
I0403 15:12:48.146687  2819 net.cpp:399] pool3/3x3_s2_pool3/3x3_s2_0_split -> pool3/3x3_s2_pool3/3x3_s2_0_split_1
I0403 15:12:48.146709  2819 net.cpp:399] pool3/3x3_s2_pool3/3x3_s2_0_split -> pool3/3x3_s2_pool3/3x3_s2_0_split_2
I0403 15:12:48.146729  2819 net.cpp:399] pool3/3x3_s2_pool3/3x3_s2_0_split -> pool3/3x3_s2_pool3/3x3_s2_0_split_3
I0403 15:12:48.146806  2819 net.cpp:141] Setting up pool3/3x3_s2_pool3/3x3_s2_0_split
I0403 15:12:48.146829  2819 net.cpp:148] Top shape: 24 480 14 14 (2257920)
I0403 15:12:48.146845  2819 net.cpp:148] Top shape: 24 480 14 14 (2257920)
I0403 15:12:48.146862  2819 net.cpp:148] Top shape: 24 480 14 14 (2257920)
I0403 15:12:48.146877  2819 net.cpp:148] Top shape: 24 480 14 14 (2257920)
I0403 15:12:48.146890  2819 net.cpp:156] Memory required for data: 854397984
I0403 15:12:48.146905  2819 layer_factory.hpp:77] Creating layer inception_4a/1x1
I0403 15:12:48.146927  2819 net.cpp:91] Creating Layer inception_4a/1x1
I0403 15:12:48.146944  2819 net.cpp:425] inception_4a/1x1 <- pool3/3x3_s2_pool3/3x3_s2_0_split_0
I0403 15:12:48.146965  2819 net.cpp:399] inception_4a/1x1 -> inception_4a/1x1
I0403 15:12:48.148552  2819 net.cpp:141] Setting up inception_4a/1x1
I0403 15:12:48.148581  2819 net.cpp:148] Top shape: 24 192 14 14 (903168)
I0403 15:12:48.148596  2819 net.cpp:156] Memory required for data: 858010656
I0403 15:12:48.148614  2819 layer_factory.hpp:77] Creating layer inception_4a/relu_1x1
I0403 15:12:48.148634  2819 net.cpp:91] Creating Layer inception_4a/relu_1x1
I0403 15:12:48.148651  2819 net.cpp:425] inception_4a/relu_1x1 <- inception_4a/1x1
I0403 15:12:48.148669  2819 net.cpp:386] inception_4a/relu_1x1 -> inception_4a/1x1 (in-place)
I0403 15:12:48.148849  2819 net.cpp:141] Setting up inception_4a/relu_1x1
I0403 15:12:48.148875  2819 net.cpp:148] Top shape: 24 192 14 14 (903168)
I0403 15:12:48.148890  2819 net.cpp:156] Memory required for data: 861623328
I0403 15:12:48.148905  2819 layer_factory.hpp:77] Creating layer inception_4a/3x3_reduce
I0403 15:12:48.148927  2819 net.cpp:91] Creating Layer inception_4a/3x3_reduce
I0403 15:12:48.148944  2819 net.cpp:425] inception_4a/3x3_reduce <- pool3/3x3_s2_pool3/3x3_s2_0_split_1
I0403 15:12:48.148963  2819 net.cpp:399] inception_4a/3x3_reduce -> inception_4a/3x3_reduce
I0403 15:12:48.150241  2819 net.cpp:141] Setting up inception_4a/3x3_reduce
I0403 15:12:48.150269  2819 net.cpp:148] Top shape: 24 96 14 14 (451584)
I0403 15:12:48.150285  2819 net.cpp:156] Memory required for data: 863429664
I0403 15:12:48.150310  2819 layer_factory.hpp:77] Creating layer inception_4a/relu_3x3_reduce
I0403 15:12:48.150332  2819 net.cpp:91] Creating Layer inception_4a/relu_3x3_reduce
I0403 15:12:48.150349  2819 net.cpp:425] inception_4a/relu_3x3_reduce <- inception_4a/3x3_reduce
I0403 15:12:48.150367  2819 net.cpp:386] inception_4a/relu_3x3_reduce -> inception_4a/3x3_reduce (in-place)
I0403 15:12:48.150538  2819 net.cpp:141] Setting up inception_4a/relu_3x3_reduce
I0403 15:12:48.150563  2819 net.cpp:148] Top shape: 24 96 14 14 (451584)
I0403 15:12:48.150578  2819 net.cpp:156] Memory required for data: 865236000
I0403 15:12:48.150593  2819 layer_factory.hpp:77] Creating layer inception_4a/3x3
I0403 15:12:48.150619  2819 net.cpp:91] Creating Layer inception_4a/3x3
I0403 15:12:48.150635  2819 net.cpp:425] inception_4a/3x3 <- inception_4a/3x3_reduce
I0403 15:12:48.150655  2819 net.cpp:399] inception_4a/3x3 -> inception_4a/3x3
I0403 15:12:48.153390  2819 net.cpp:141] Setting up inception_4a/3x3
I0403 15:12:48.153422  2819 net.cpp:148] Top shape: 24 208 14 14 (978432)
I0403 15:12:48.153439  2819 net.cpp:156] Memory required for data: 869149728
I0403 15:12:48.153458  2819 layer_factory.hpp:77] Creating layer inception_4a/relu_3x3
I0403 15:12:48.153477  2819 net.cpp:91] Creating Layer inception_4a/relu_3x3
I0403 15:12:48.153494  2819 net.cpp:425] inception_4a/relu_3x3 <- inception_4a/3x3
I0403 15:12:48.153512  2819 net.cpp:386] inception_4a/relu_3x3 -> inception_4a/3x3 (in-place)
I0403 15:12:48.153796  2819 net.cpp:141] Setting up inception_4a/relu_3x3
I0403 15:12:48.153825  2819 net.cpp:148] Top shape: 24 208 14 14 (978432)
I0403 15:12:48.153842  2819 net.cpp:156] Memory required for data: 873063456
I0403 15:12:48.153858  2819 layer_factory.hpp:77] Creating layer inception_4a/5x5_reduce
I0403 15:12:48.153882  2819 net.cpp:91] Creating Layer inception_4a/5x5_reduce
I0403 15:12:48.153898  2819 net.cpp:425] inception_4a/5x5_reduce <- pool3/3x3_s2_pool3/3x3_s2_0_split_2
I0403 15:12:48.153919  2819 net.cpp:399] inception_4a/5x5_reduce -> inception_4a/5x5_reduce
I0403 15:12:48.154958  2819 net.cpp:141] Setting up inception_4a/5x5_reduce
I0403 15:12:48.154985  2819 net.cpp:148] Top shape: 24 16 14 14 (75264)
I0403 15:12:48.155001  2819 net.cpp:156] Memory required for data: 873364512
I0403 15:12:48.155020  2819 layer_factory.hpp:77] Creating layer inception_4a/relu_5x5_reduce
I0403 15:12:48.155038  2819 net.cpp:91] Creating Layer inception_4a/relu_5x5_reduce
I0403 15:12:48.155055  2819 net.cpp:425] inception_4a/relu_5x5_reduce <- inception_4a/5x5_reduce
I0403 15:12:48.155074  2819 net.cpp:386] inception_4a/relu_5x5_reduce -> inception_4a/5x5_reduce (in-place)
I0403 15:12:48.155256  2819 net.cpp:141] Setting up inception_4a/relu_5x5_reduce
I0403 15:12:48.155282  2819 net.cpp:148] Top shape: 24 16 14 14 (75264)
I0403 15:12:48.155297  2819 net.cpp:156] Memory required for data: 873665568
I0403 15:12:48.155311  2819 layer_factory.hpp:77] Creating layer inception_4a/5x5
I0403 15:12:48.155333  2819 net.cpp:91] Creating Layer inception_4a/5x5
I0403 15:12:48.155351  2819 net.cpp:425] inception_4a/5x5 <- inception_4a/5x5_reduce
I0403 15:12:48.155372  2819 net.cpp:399] inception_4a/5x5 -> inception_4a/5x5
I0403 15:12:48.156460  2819 net.cpp:141] Setting up inception_4a/5x5
I0403 15:12:48.156486  2819 net.cpp:148] Top shape: 24 48 14 14 (225792)
I0403 15:12:48.156502  2819 net.cpp:156] Memory required for data: 874568736
I0403 15:12:48.156522  2819 layer_factory.hpp:77] Creating layer inception_4a/relu_5x5
I0403 15:12:48.156543  2819 net.cpp:91] Creating Layer inception_4a/relu_5x5
I0403 15:12:48.156559  2819 net.cpp:425] inception_4a/relu_5x5 <- inception_4a/5x5
I0403 15:12:48.156577  2819 net.cpp:386] inception_4a/relu_5x5 -> inception_4a/5x5 (in-place)
I0403 15:12:48.156756  2819 net.cpp:141] Setting up inception_4a/relu_5x5
I0403 15:12:48.156783  2819 net.cpp:148] Top shape: 24 48 14 14 (225792)
I0403 15:12:48.156798  2819 net.cpp:156] Memory required for data: 875471904
I0403 15:12:48.156813  2819 layer_factory.hpp:77] Creating layer inception_4a/pool
I0403 15:12:48.156831  2819 net.cpp:91] Creating Layer inception_4a/pool
I0403 15:12:48.156847  2819 net.cpp:425] inception_4a/pool <- pool3/3x3_s2_pool3/3x3_s2_0_split_3
I0403 15:12:48.156865  2819 net.cpp:399] inception_4a/pool -> inception_4a/pool
I0403 15:12:48.156927  2819 net.cpp:141] Setting up inception_4a/pool
I0403 15:12:48.156950  2819 net.cpp:148] Top shape: 24 480 14 14 (2257920)
I0403 15:12:48.156965  2819 net.cpp:156] Memory required for data: 884503584
I0403 15:12:48.156980  2819 layer_factory.hpp:77] Creating layer inception_4a/pool_proj
I0403 15:12:48.157001  2819 net.cpp:91] Creating Layer inception_4a/pool_proj
I0403 15:12:48.157019  2819 net.cpp:425] inception_4a/pool_proj <- inception_4a/pool
I0403 15:12:48.157040  2819 net.cpp:399] inception_4a/pool_proj -> inception_4a/pool_proj
I0403 15:12:48.158205  2819 net.cpp:141] Setting up inception_4a/pool_proj
I0403 15:12:48.158233  2819 net.cpp:148] Top shape: 24 64 14 14 (301056)
I0403 15:12:48.158262  2819 net.cpp:156] Memory required for data: 885707808
I0403 15:12:48.158282  2819 layer_factory.hpp:77] Creating layer inception_4a/relu_pool_proj
I0403 15:12:48.158303  2819 net.cpp:91] Creating Layer inception_4a/relu_pool_proj
I0403 15:12:48.158321  2819 net.cpp:425] inception_4a/relu_pool_proj <- inception_4a/pool_proj
I0403 15:12:48.158339  2819 net.cpp:386] inception_4a/relu_pool_proj -> inception_4a/pool_proj (in-place)
I0403 15:12:48.158617  2819 net.cpp:141] Setting up inception_4a/relu_pool_proj
I0403 15:12:48.158643  2819 net.cpp:148] Top shape: 24 64 14 14 (301056)
I0403 15:12:48.158658  2819 net.cpp:156] Memory required for data: 886912032
I0403 15:12:48.158674  2819 layer_factory.hpp:77] Creating layer inception_4a/output
I0403 15:12:48.158695  2819 net.cpp:91] Creating Layer inception_4a/output
I0403 15:12:48.158712  2819 net.cpp:425] inception_4a/output <- inception_4a/1x1
I0403 15:12:48.158730  2819 net.cpp:425] inception_4a/output <- inception_4a/3x3
I0403 15:12:48.158746  2819 net.cpp:425] inception_4a/output <- inception_4a/5x5
I0403 15:12:48.158761  2819 net.cpp:425] inception_4a/output <- inception_4a/pool_proj
I0403 15:12:48.158778  2819 net.cpp:399] inception_4a/output -> inception_4a/output
I0403 15:12:48.158824  2819 net.cpp:141] Setting up inception_4a/output
I0403 15:12:48.158848  2819 net.cpp:148] Top shape: 24 512 14 14 (2408448)
I0403 15:12:48.158862  2819 net.cpp:156] Memory required for data: 896545824
I0403 15:12:48.158877  2819 layer_factory.hpp:77] Creating layer inception_4a/output_inception_4a/output_0_split
I0403 15:12:48.158895  2819 net.cpp:91] Creating Layer inception_4a/output_inception_4a/output_0_split
I0403 15:12:48.158911  2819 net.cpp:425] inception_4a/output_inception_4a/output_0_split <- inception_4a/output
I0403 15:12:48.158931  2819 net.cpp:399] inception_4a/output_inception_4a/output_0_split -> inception_4a/output_inception_4a/output_0_split_0
I0403 15:12:48.158952  2819 net.cpp:399] inception_4a/output_inception_4a/output_0_split -> inception_4a/output_inception_4a/output_0_split_1
I0403 15:12:48.158973  2819 net.cpp:399] inception_4a/output_inception_4a/output_0_split -> inception_4a/output_inception_4a/output_0_split_2
I0403 15:12:48.158993  2819 net.cpp:399] inception_4a/output_inception_4a/output_0_split -> inception_4a/output_inception_4a/output_0_split_3
I0403 15:12:48.159014  2819 net.cpp:399] inception_4a/output_inception_4a/output_0_split -> inception_4a/output_inception_4a/output_0_split_4
I0403 15:12:48.159111  2819 net.cpp:141] Setting up inception_4a/output_inception_4a/output_0_split
I0403 15:12:48.159134  2819 net.cpp:148] Top shape: 24 512 14 14 (2408448)
I0403 15:12:48.159150  2819 net.cpp:148] Top shape: 24 512 14 14 (2408448)
I0403 15:12:48.159165  2819 net.cpp:148] Top shape: 24 512 14 14 (2408448)
I0403 15:12:48.159186  2819 net.cpp:148] Top shape: 24 512 14 14 (2408448)
I0403 15:12:48.159203  2819 net.cpp:148] Top shape: 24 512 14 14 (2408448)
I0403 15:12:48.159217  2819 net.cpp:156] Memory required for data: 944714784
I0403 15:12:48.159231  2819 layer_factory.hpp:77] Creating layer loss1/ave_pool
I0403 15:12:48.159250  2819 net.cpp:91] Creating Layer loss1/ave_pool
I0403 15:12:48.159265  2819 net.cpp:425] loss1/ave_pool <- inception_4a/output_inception_4a/output_0_split_0
I0403 15:12:48.159287  2819 net.cpp:399] loss1/ave_pool -> loss1/ave_pool
I0403 15:12:48.159494  2819 net.cpp:141] Setting up loss1/ave_pool
I0403 15:12:48.159520  2819 net.cpp:148] Top shape: 24 512 4 4 (196608)
I0403 15:12:48.159535  2819 net.cpp:156] Memory required for data: 945501216
I0403 15:12:48.159551  2819 layer_factory.hpp:77] Creating layer loss1/conv
I0403 15:12:48.159574  2819 net.cpp:91] Creating Layer loss1/conv
I0403 15:12:48.159590  2819 net.cpp:425] loss1/conv <- loss1/ave_pool
I0403 15:12:48.159611  2819 net.cpp:399] loss1/conv -> loss1/conv
I0403 15:12:48.161012  2819 net.cpp:141] Setting up loss1/conv
I0403 15:12:48.161042  2819 net.cpp:148] Top shape: 24 128 4 4 (49152)
I0403 15:12:48.161072  2819 net.cpp:156] Memory required for data: 945697824
I0403 15:12:48.161092  2819 layer_factory.hpp:77] Creating layer loss1/relu_conv
I0403 15:12:48.161111  2819 net.cpp:91] Creating Layer loss1/relu_conv
I0403 15:12:48.161128  2819 net.cpp:425] loss1/relu_conv <- loss1/conv
I0403 15:12:48.161147  2819 net.cpp:386] loss1/relu_conv -> loss1/conv (in-place)
I0403 15:12:48.161428  2819 net.cpp:141] Setting up loss1/relu_conv
I0403 15:12:48.161456  2819 net.cpp:148] Top shape: 24 128 4 4 (49152)
I0403 15:12:48.161473  2819 net.cpp:156] Memory required for data: 945894432
I0403 15:12:48.161489  2819 layer_factory.hpp:77] Creating layer loss1/fc
I0403 15:12:48.161512  2819 net.cpp:91] Creating Layer loss1/fc
I0403 15:12:48.161530  2819 net.cpp:425] loss1/fc <- loss1/conv
I0403 15:12:48.161551  2819 net.cpp:399] loss1/fc -> loss1/fc
I0403 15:12:48.179358  2819 net.cpp:141] Setting up loss1/fc
I0403 15:12:48.179397  2819 net.cpp:148] Top shape: 24 1024 (24576)
I0403 15:12:48.179414  2819 net.cpp:156] Memory required for data: 945992736
I0403 15:12:48.179431  2819 layer_factory.hpp:77] Creating layer loss1/relu_fc
I0403 15:12:48.179450  2819 net.cpp:91] Creating Layer loss1/relu_fc
I0403 15:12:48.179466  2819 net.cpp:425] loss1/relu_fc <- loss1/fc
I0403 15:12:48.179483  2819 net.cpp:386] loss1/relu_fc -> loss1/fc (in-place)
I0403 15:12:48.179666  2819 net.cpp:141] Setting up loss1/relu_fc
I0403 15:12:48.179692  2819 net.cpp:148] Top shape: 24 1024 (24576)
I0403 15:12:48.179708  2819 net.cpp:156] Memory required for data: 946091040
I0403 15:12:48.179721  2819 layer_factory.hpp:77] Creating layer loss1/drop_fc
I0403 15:12:48.179747  2819 net.cpp:91] Creating Layer loss1/drop_fc
I0403 15:12:48.179764  2819 net.cpp:425] loss1/drop_fc <- loss1/fc
I0403 15:12:48.179781  2819 net.cpp:386] loss1/drop_fc -> loss1/fc (in-place)
I0403 15:12:48.179832  2819 net.cpp:141] Setting up loss1/drop_fc
I0403 15:12:48.179854  2819 net.cpp:148] Top shape: 24 1024 (24576)
I0403 15:12:48.179869  2819 net.cpp:156] Memory required for data: 946189344
I0403 15:12:48.179883  2819 layer_factory.hpp:77] Creating layer loss1/classifier_plantvillage
I0403 15:12:48.179905  2819 net.cpp:91] Creating Layer loss1/classifier_plantvillage
I0403 15:12:48.179921  2819 net.cpp:425] loss1/classifier_plantvillage <- loss1/fc
I0403 15:12:48.179939  2819 net.cpp:399] loss1/classifier_plantvillage -> loss1/classifier_plantvillage
I0403 15:12:48.180826  2819 net.cpp:141] Setting up loss1/classifier_plantvillage
I0403 15:12:48.180856  2819 net.cpp:148] Top shape: 24 38 (912)
I0403 15:12:48.180873  2819 net.cpp:156] Memory required for data: 946192992
I0403 15:12:48.180891  2819 layer_factory.hpp:77] Creating layer loss1/classifier_plantvillage_loss1/classifier_plantvillage_0_split
I0403 15:12:48.180908  2819 net.cpp:91] Creating Layer loss1/classifier_plantvillage_loss1/classifier_plantvillage_0_split
I0403 15:12:48.180923  2819 net.cpp:425] loss1/classifier_plantvillage_loss1/classifier_plantvillage_0_split <- loss1/classifier_plantvillage
I0403 15:12:48.180940  2819 net.cpp:399] loss1/classifier_plantvillage_loss1/classifier_plantvillage_0_split -> loss1/classifier_plantvillage_loss1/classifier_plantvillage_0_split_0
I0403 15:12:48.180960  2819 net.cpp:399] loss1/classifier_plantvillage_loss1/classifier_plantvillage_0_split -> loss1/classifier_plantvillage_loss1/classifier_plantvillage_0_split_1
I0403 15:12:48.180982  2819 net.cpp:399] loss1/classifier_plantvillage_loss1/classifier_plantvillage_0_split -> loss1/classifier_plantvillage_loss1/classifier_plantvillage_0_split_2
I0403 15:12:48.181047  2819 net.cpp:141] Setting up loss1/classifier_plantvillage_loss1/classifier_plantvillage_0_split
I0403 15:12:48.181069  2819 net.cpp:148] Top shape: 24 38 (912)
I0403 15:12:48.181085  2819 net.cpp:148] Top shape: 24 38 (912)
I0403 15:12:48.181100  2819 net.cpp:148] Top shape: 24 38 (912)
I0403 15:12:48.181113  2819 net.cpp:156] Memory required for data: 946203936
I0403 15:12:48.181128  2819 layer_factory.hpp:77] Creating layer inception_4b/1x1
I0403 15:12:48.181148  2819 net.cpp:91] Creating Layer inception_4b/1x1
I0403 15:12:48.181185  2819 net.cpp:425] inception_4b/1x1 <- inception_4a/output_inception_4a/output_0_split_1
I0403 15:12:48.181208  2819 net.cpp:399] inception_4b/1x1 -> inception_4b/1x1
I0403 15:12:48.182816  2819 net.cpp:141] Setting up inception_4b/1x1
I0403 15:12:48.182847  2819 net.cpp:148] Top shape: 24 160 14 14 (752640)
I0403 15:12:48.182862  2819 net.cpp:156] Memory required for data: 949214496
I0403 15:12:48.182880  2819 layer_factory.hpp:77] Creating layer inception_4b/relu_1x1
I0403 15:12:48.182898  2819 net.cpp:91] Creating Layer inception_4b/relu_1x1
I0403 15:12:48.182914  2819 net.cpp:425] inception_4b/relu_1x1 <- inception_4b/1x1
I0403 15:12:48.182934  2819 net.cpp:386] inception_4b/relu_1x1 -> inception_4b/1x1 (in-place)
I0403 15:12:48.183111  2819 net.cpp:141] Setting up inception_4b/relu_1x1
I0403 15:12:48.183135  2819 net.cpp:148] Top shape: 24 160 14 14 (752640)
I0403 15:12:48.183151  2819 net.cpp:156] Memory required for data: 952225056
I0403 15:12:48.183166  2819 layer_factory.hpp:77] Creating layer inception_4b/3x3_reduce
I0403 15:12:48.183194  2819 net.cpp:91] Creating Layer inception_4b/3x3_reduce
I0403 15:12:48.183213  2819 net.cpp:425] inception_4b/3x3_reduce <- inception_4a/output_inception_4a/output_0_split_2
I0403 15:12:48.183236  2819 net.cpp:399] inception_4b/3x3_reduce -> inception_4b/3x3_reduce
I0403 15:12:48.184545  2819 net.cpp:141] Setting up inception_4b/3x3_reduce
I0403 15:12:48.184571  2819 net.cpp:148] Top shape: 24 112 14 14 (526848)
I0403 15:12:48.184586  2819 net.cpp:156] Memory required for data: 954332448
I0403 15:12:48.184604  2819 layer_factory.hpp:77] Creating layer inception_4b/relu_3x3_reduce
I0403 15:12:48.184624  2819 net.cpp:91] Creating Layer inception_4b/relu_3x3_reduce
I0403 15:12:48.184640  2819 net.cpp:425] inception_4b/relu_3x3_reduce <- inception_4b/3x3_reduce
I0403 15:12:48.184658  2819 net.cpp:386] inception_4b/relu_3x3_reduce -> inception_4b/3x3_reduce (in-place)
I0403 15:12:48.184931  2819 net.cpp:141] Setting up inception_4b/relu_3x3_reduce
I0403 15:12:48.184957  2819 net.cpp:148] Top shape: 24 112 14 14 (526848)
I0403 15:12:48.184972  2819 net.cpp:156] Memory required for data: 956439840
I0403 15:12:48.184985  2819 layer_factory.hpp:77] Creating layer inception_4b/3x3
I0403 15:12:48.185008  2819 net.cpp:91] Creating Layer inception_4b/3x3
I0403 15:12:48.185024  2819 net.cpp:425] inception_4b/3x3 <- inception_4b/3x3_reduce
I0403 15:12:48.185045  2819 net.cpp:399] inception_4b/3x3 -> inception_4b/3x3
I0403 15:12:48.187935  2819 net.cpp:141] Setting up inception_4b/3x3
I0403 15:12:48.187963  2819 net.cpp:148] Top shape: 24 224 14 14 (1053696)
I0403 15:12:48.187979  2819 net.cpp:156] Memory required for data: 960654624
I0403 15:12:48.187997  2819 layer_factory.hpp:77] Creating layer inception_4b/relu_3x3
I0403 15:12:48.188017  2819 net.cpp:91] Creating Layer inception_4b/relu_3x3
I0403 15:12:48.188033  2819 net.cpp:425] inception_4b/relu_3x3 <- inception_4b/3x3
I0403 15:12:48.188050  2819 net.cpp:386] inception_4b/relu_3x3 -> inception_4b/3x3 (in-place)
I0403 15:12:48.188233  2819 net.cpp:141] Setting up inception_4b/relu_3x3
I0403 15:12:48.188259  2819 net.cpp:148] Top shape: 24 224 14 14 (1053696)
I0403 15:12:48.188276  2819 net.cpp:156] Memory required for data: 964869408
I0403 15:12:48.188290  2819 layer_factory.hpp:77] Creating layer inception_4b/5x5_reduce
I0403 15:12:48.188311  2819 net.cpp:91] Creating Layer inception_4b/5x5_reduce
I0403 15:12:48.188329  2819 net.cpp:425] inception_4b/5x5_reduce <- inception_4a/output_inception_4a/output_0_split_3
I0403 15:12:48.188347  2819 net.cpp:399] inception_4b/5x5_reduce -> inception_4b/5x5_reduce
I0403 15:12:48.189407  2819 net.cpp:141] Setting up inception_4b/5x5_reduce
I0403 15:12:48.189435  2819 net.cpp:148] Top shape: 24 24 14 14 (112896)
I0403 15:12:48.189450  2819 net.cpp:156] Memory required for data: 965320992
I0403 15:12:48.189466  2819 layer_factory.hpp:77] Creating layer inception_4b/relu_5x5_reduce
I0403 15:12:48.189484  2819 net.cpp:91] Creating Layer inception_4b/relu_5x5_reduce
I0403 15:12:48.189514  2819 net.cpp:425] inception_4b/relu_5x5_reduce <- inception_4b/5x5_reduce
I0403 15:12:48.189534  2819 net.cpp:386] inception_4b/relu_5x5_reduce -> inception_4b/5x5_reduce (in-place)
I0403 15:12:48.189713  2819 net.cpp:141] Setting up inception_4b/relu_5x5_reduce
I0403 15:12:48.189736  2819 net.cpp:148] Top shape: 24 24 14 14 (112896)
I0403 15:12:48.189751  2819 net.cpp:156] Memory required for data: 965772576
I0403 15:12:48.189765  2819 layer_factory.hpp:77] Creating layer inception_4b/5x5
I0403 15:12:48.189786  2819 net.cpp:91] Creating Layer inception_4b/5x5
I0403 15:12:48.189805  2819 net.cpp:425] inception_4b/5x5 <- inception_4b/5x5_reduce
I0403 15:12:48.189826  2819 net.cpp:399] inception_4b/5x5 -> inception_4b/5x5
I0403 15:12:48.191016  2819 net.cpp:141] Setting up inception_4b/5x5
I0403 15:12:48.191045  2819 net.cpp:148] Top shape: 24 64 14 14 (301056)
I0403 15:12:48.191059  2819 net.cpp:156] Memory required for data: 966976800
I0403 15:12:48.191077  2819 layer_factory.hpp:77] Creating layer inception_4b/relu_5x5
I0403 15:12:48.191095  2819 net.cpp:91] Creating Layer inception_4b/relu_5x5
I0403 15:12:48.191112  2819 net.cpp:425] inception_4b/relu_5x5 <- inception_4b/5x5
I0403 15:12:48.191131  2819 net.cpp:386] inception_4b/relu_5x5 -> inception_4b/5x5 (in-place)
I0403 15:12:48.191414  2819 net.cpp:141] Setting up inception_4b/relu_5x5
I0403 15:12:48.191442  2819 net.cpp:148] Top shape: 24 64 14 14 (301056)
I0403 15:12:48.191457  2819 net.cpp:156] Memory required for data: 968181024
I0403 15:12:48.191471  2819 layer_factory.hpp:77] Creating layer inception_4b/pool
I0403 15:12:48.191490  2819 net.cpp:91] Creating Layer inception_4b/pool
I0403 15:12:48.191506  2819 net.cpp:425] inception_4b/pool <- inception_4a/output_inception_4a/output_0_split_4
I0403 15:12:48.191526  2819 net.cpp:399] inception_4b/pool -> inception_4b/pool
I0403 15:12:48.191588  2819 net.cpp:141] Setting up inception_4b/pool
I0403 15:12:48.191612  2819 net.cpp:148] Top shape: 24 512 14 14 (2408448)
I0403 15:12:48.191627  2819 net.cpp:156] Memory required for data: 977814816
I0403 15:12:48.191640  2819 layer_factory.hpp:77] Creating layer inception_4b/pool_proj
I0403 15:12:48.191663  2819 net.cpp:91] Creating Layer inception_4b/pool_proj
I0403 15:12:48.191680  2819 net.cpp:425] inception_4b/pool_proj <- inception_4b/pool
I0403 15:12:48.191699  2819 net.cpp:399] inception_4b/pool_proj -> inception_4b/pool_proj
I0403 15:12:48.192886  2819 net.cpp:141] Setting up inception_4b/pool_proj
I0403 15:12:48.192914  2819 net.cpp:148] Top shape: 24 64 14 14 (301056)
I0403 15:12:48.192929  2819 net.cpp:156] Memory required for data: 979019040
I0403 15:12:48.192947  2819 layer_factory.hpp:77] Creating layer inception_4b/relu_pool_proj
I0403 15:12:48.192965  2819 net.cpp:91] Creating Layer inception_4b/relu_pool_proj
I0403 15:12:48.192981  2819 net.cpp:425] inception_4b/relu_pool_proj <- inception_4b/pool_proj
I0403 15:12:48.193001  2819 net.cpp:386] inception_4b/relu_pool_proj -> inception_4b/pool_proj (in-place)
I0403 15:12:48.193183  2819 net.cpp:141] Setting up inception_4b/relu_pool_proj
I0403 15:12:48.193208  2819 net.cpp:148] Top shape: 24 64 14 14 (301056)
I0403 15:12:48.193222  2819 net.cpp:156] Memory required for data: 980223264
I0403 15:12:48.193238  2819 layer_factory.hpp:77] Creating layer inception_4b/output
I0403 15:12:48.193256  2819 net.cpp:91] Creating Layer inception_4b/output
I0403 15:12:48.193272  2819 net.cpp:425] inception_4b/output <- inception_4b/1x1
I0403 15:12:48.193289  2819 net.cpp:425] inception_4b/output <- inception_4b/3x3
I0403 15:12:48.193305  2819 net.cpp:425] inception_4b/output <- inception_4b/5x5
I0403 15:12:48.193318  2819 net.cpp:425] inception_4b/output <- inception_4b/pool_proj
I0403 15:12:48.193336  2819 net.cpp:399] inception_4b/output -> inception_4b/output
I0403 15:12:48.193379  2819 net.cpp:141] Setting up inception_4b/output
I0403 15:12:48.193403  2819 net.cpp:148] Top shape: 24 512 14 14 (2408448)
I0403 15:12:48.193418  2819 net.cpp:156] Memory required for data: 989857056
I0403 15:12:48.193446  2819 layer_factory.hpp:77] Creating layer inception_4b/output_inception_4b/output_0_split
I0403 15:12:48.193464  2819 net.cpp:91] Creating Layer inception_4b/output_inception_4b/output_0_split
I0403 15:12:48.193478  2819 net.cpp:425] inception_4b/output_inception_4b/output_0_split <- inception_4b/output
I0403 15:12:48.193498  2819 net.cpp:399] inception_4b/output_inception_4b/output_0_split -> inception_4b/output_inception_4b/output_0_split_0
I0403 15:12:48.193518  2819 net.cpp:399] inception_4b/output_inception_4b/output_0_split -> inception_4b/output_inception_4b/output_0_split_1
I0403 15:12:48.193538  2819 net.cpp:399] inception_4b/output_inception_4b/output_0_split -> inception_4b/output_inception_4b/output_0_split_2
I0403 15:12:48.193558  2819 net.cpp:399] inception_4b/output_inception_4b/output_0_split -> inception_4b/output_inception_4b/output_0_split_3
I0403 15:12:48.193637  2819 net.cpp:141] Setting up inception_4b/output_inception_4b/output_0_split
I0403 15:12:48.193662  2819 net.cpp:148] Top shape: 24 512 14 14 (2408448)
I0403 15:12:48.193680  2819 net.cpp:148] Top shape: 24 512 14 14 (2408448)
I0403 15:12:48.193694  2819 net.cpp:148] Top shape: 24 512 14 14 (2408448)
I0403 15:12:48.193711  2819 net.cpp:148] Top shape: 24 512 14 14 (2408448)
I0403 15:12:48.193723  2819 net.cpp:156] Memory required for data: 1028392224
I0403 15:12:48.193737  2819 layer_factory.hpp:77] Creating layer inception_4c/1x1
I0403 15:12:48.193759  2819 net.cpp:91] Creating Layer inception_4c/1x1
I0403 15:12:48.193776  2819 net.cpp:425] inception_4c/1x1 <- inception_4b/output_inception_4b/output_0_split_0
I0403 15:12:48.193795  2819 net.cpp:399] inception_4c/1x1 -> inception_4c/1x1
I0403 15:12:48.195204  2819 net.cpp:141] Setting up inception_4c/1x1
I0403 15:12:48.195230  2819 net.cpp:148] Top shape: 24 128 14 14 (602112)
I0403 15:12:48.195245  2819 net.cpp:156] Memory required for data: 1030800672
I0403 15:12:48.195263  2819 layer_factory.hpp:77] Creating layer inception_4c/relu_1x1
I0403 15:12:48.195283  2819 net.cpp:91] Creating Layer inception_4c/relu_1x1
I0403 15:12:48.195299  2819 net.cpp:425] inception_4c/relu_1x1 <- inception_4c/1x1
I0403 15:12:48.195317  2819 net.cpp:386] inception_4c/relu_1x1 -> inception_4c/1x1 (in-place)
I0403 15:12:48.195495  2819 net.cpp:141] Setting up inception_4c/relu_1x1
I0403 15:12:48.195521  2819 net.cpp:148] Top shape: 24 128 14 14 (602112)
I0403 15:12:48.195536  2819 net.cpp:156] Memory required for data: 1033209120
I0403 15:12:48.195551  2819 layer_factory.hpp:77] Creating layer inception_4c/3x3_reduce
I0403 15:12:48.195572  2819 net.cpp:91] Creating Layer inception_4c/3x3_reduce
I0403 15:12:48.195590  2819 net.cpp:425] inception_4c/3x3_reduce <- inception_4b/output_inception_4b/output_0_split_1
I0403 15:12:48.195608  2819 net.cpp:399] inception_4c/3x3_reduce -> inception_4c/3x3_reduce
I0403 15:12:48.197505  2819 net.cpp:141] Setting up inception_4c/3x3_reduce
I0403 15:12:48.197537  2819 net.cpp:148] Top shape: 24 128 14 14 (602112)
I0403 15:12:48.197553  2819 net.cpp:156] Memory required for data: 1035617568
I0403 15:12:48.197572  2819 layer_factory.hpp:77] Creating layer inception_4c/relu_3x3_reduce
I0403 15:12:48.197589  2819 net.cpp:91] Creating Layer inception_4c/relu_3x3_reduce
I0403 15:12:48.197605  2819 net.cpp:425] inception_4c/relu_3x3_reduce <- inception_4c/3x3_reduce
I0403 15:12:48.197624  2819 net.cpp:386] inception_4c/relu_3x3_reduce -> inception_4c/3x3_reduce (in-place)
I0403 15:12:48.197906  2819 net.cpp:141] Setting up inception_4c/relu_3x3_reduce
I0403 15:12:48.197932  2819 net.cpp:148] Top shape: 24 128 14 14 (602112)
I0403 15:12:48.197948  2819 net.cpp:156] Memory required for data: 1038026016
I0403 15:12:48.197962  2819 layer_factory.hpp:77] Creating layer inception_4c/3x3
I0403 15:12:48.197985  2819 net.cpp:91] Creating Layer inception_4c/3x3
I0403 15:12:48.198002  2819 net.cpp:425] inception_4c/3x3 <- inception_4c/3x3_reduce
I0403 15:12:48.198020  2819 net.cpp:399] inception_4c/3x3 -> inception_4c/3x3
I0403 15:12:48.201663  2819 net.cpp:141] Setting up inception_4c/3x3
I0403 15:12:48.201706  2819 net.cpp:148] Top shape: 24 256 14 14 (1204224)
I0403 15:12:48.201724  2819 net.cpp:156] Memory required for data: 1042842912
I0403 15:12:48.201757  2819 layer_factory.hpp:77] Creating layer inception_4c/relu_3x3
I0403 15:12:48.201778  2819 net.cpp:91] Creating Layer inception_4c/relu_3x3
I0403 15:12:48.201797  2819 net.cpp:425] inception_4c/relu_3x3 <- inception_4c/3x3
I0403 15:12:48.201817  2819 net.cpp:386] inception_4c/relu_3x3 -> inception_4c/3x3 (in-place)
I0403 15:12:48.202010  2819 net.cpp:141] Setting up inception_4c/relu_3x3
I0403 15:12:48.202036  2819 net.cpp:148] Top shape: 24 256 14 14 (1204224)
I0403 15:12:48.202051  2819 net.cpp:156] Memory required for data: 1047659808
I0403 15:12:48.202067  2819 layer_factory.hpp:77] Creating layer inception_4c/5x5_reduce
I0403 15:12:48.202090  2819 net.cpp:91] Creating Layer inception_4c/5x5_reduce
I0403 15:12:48.202110  2819 net.cpp:425] inception_4c/5x5_reduce <- inception_4b/output_inception_4b/output_0_split_2
I0403 15:12:48.202131  2819 net.cpp:399] inception_4c/5x5_reduce -> inception_4c/5x5_reduce
I0403 15:12:48.203275  2819 net.cpp:141] Setting up inception_4c/5x5_reduce
I0403 15:12:48.203306  2819 net.cpp:148] Top shape: 24 24 14 14 (112896)
I0403 15:12:48.203323  2819 net.cpp:156] Memory required for data: 1048111392
I0403 15:12:48.203343  2819 layer_factory.hpp:77] Creating layer inception_4c/relu_5x5_reduce
I0403 15:12:48.203362  2819 net.cpp:91] Creating Layer inception_4c/relu_5x5_reduce
I0403 15:12:48.203378  2819 net.cpp:425] inception_4c/relu_5x5_reduce <- inception_4c/5x5_reduce
I0403 15:12:48.203399  2819 net.cpp:386] inception_4c/relu_5x5_reduce -> inception_4c/5x5_reduce (in-place)
I0403 15:12:48.203589  2819 net.cpp:141] Setting up inception_4c/relu_5x5_reduce
I0403 15:12:48.203614  2819 net.cpp:148] Top shape: 24 24 14 14 (112896)
I0403 15:12:48.203629  2819 net.cpp:156] Memory required for data: 1048562976
I0403 15:12:48.203644  2819 layer_factory.hpp:77] Creating layer inception_4c/5x5
I0403 15:12:48.203668  2819 net.cpp:91] Creating Layer inception_4c/5x5
I0403 15:12:48.203686  2819 net.cpp:425] inception_4c/5x5 <- inception_4c/5x5_reduce
I0403 15:12:48.203707  2819 net.cpp:399] inception_4c/5x5 -> inception_4c/5x5
I0403 15:12:48.204991  2819 net.cpp:141] Setting up inception_4c/5x5
I0403 15:12:48.205020  2819 net.cpp:148] Top shape: 24 64 14 14 (301056)
I0403 15:12:48.205036  2819 net.cpp:156] Memory required for data: 1049767200
I0403 15:12:48.205054  2819 layer_factory.hpp:77] Creating layer inception_4c/relu_5x5
I0403 15:12:48.205076  2819 net.cpp:91] Creating Layer inception_4c/relu_5x5
I0403 15:12:48.205093  2819 net.cpp:425] inception_4c/relu_5x5 <- inception_4c/5x5
I0403 15:12:48.205111  2819 net.cpp:386] inception_4c/relu_5x5 -> inception_4c/5x5 (in-place)
I0403 15:12:48.205415  2819 net.cpp:141] Setting up inception_4c/relu_5x5
I0403 15:12:48.205442  2819 net.cpp:148] Top shape: 24 64 14 14 (301056)
I0403 15:12:48.205458  2819 net.cpp:156] Memory required for data: 1050971424
I0403 15:12:48.205473  2819 layer_factory.hpp:77] Creating layer inception_4c/pool
I0403 15:12:48.205494  2819 net.cpp:91] Creating Layer inception_4c/pool
I0403 15:12:48.205513  2819 net.cpp:425] inception_4c/pool <- inception_4b/output_inception_4b/output_0_split_3
I0403 15:12:48.205531  2819 net.cpp:399] inception_4c/pool -> inception_4c/pool
I0403 15:12:48.205600  2819 net.cpp:141] Setting up inception_4c/pool
I0403 15:12:48.205626  2819 net.cpp:148] Top shape: 24 512 14 14 (2408448)
I0403 15:12:48.205641  2819 net.cpp:156] Memory required for data: 1060605216
I0403 15:12:48.205656  2819 layer_factory.hpp:77] Creating layer inception_4c/pool_proj
I0403 15:12:48.205677  2819 net.cpp:91] Creating Layer inception_4c/pool_proj
I0403 15:12:48.205695  2819 net.cpp:425] inception_4c/pool_proj <- inception_4c/pool
I0403 15:12:48.205718  2819 net.cpp:399] inception_4c/pool_proj -> inception_4c/pool_proj
I0403 15:12:48.207043  2819 net.cpp:141] Setting up inception_4c/pool_proj
I0403 15:12:48.207072  2819 net.cpp:148] Top shape: 24 64 14 14 (301056)
I0403 15:12:48.207103  2819 net.cpp:156] Memory required for data: 1061809440
I0403 15:12:48.207123  2819 layer_factory.hpp:77] Creating layer inception_4c/relu_pool_proj
I0403 15:12:48.207142  2819 net.cpp:91] Creating Layer inception_4c/relu_pool_proj
I0403 15:12:48.207159  2819 net.cpp:425] inception_4c/relu_pool_proj <- inception_4c/pool_proj
I0403 15:12:48.207186  2819 net.cpp:386] inception_4c/relu_pool_proj -> inception_4c/pool_proj (in-place)
I0403 15:12:48.207381  2819 net.cpp:141] Setting up inception_4c/relu_pool_proj
I0403 15:12:48.207407  2819 net.cpp:148] Top shape: 24 64 14 14 (301056)
I0403 15:12:48.207423  2819 net.cpp:156] Memory required for data: 1063013664
I0403 15:12:48.207438  2819 layer_factory.hpp:77] Creating layer inception_4c/output
I0403 15:12:48.207456  2819 net.cpp:91] Creating Layer inception_4c/output
I0403 15:12:48.207475  2819 net.cpp:425] inception_4c/output <- inception_4c/1x1
I0403 15:12:48.207494  2819 net.cpp:425] inception_4c/output <- inception_4c/3x3
I0403 15:12:48.207509  2819 net.cpp:425] inception_4c/output <- inception_4c/5x5
I0403 15:12:48.207525  2819 net.cpp:425] inception_4c/output <- inception_4c/pool_proj
I0403 15:12:48.207543  2819 net.cpp:399] inception_4c/output -> inception_4c/output
I0403 15:12:48.207590  2819 net.cpp:141] Setting up inception_4c/output
I0403 15:12:48.207617  2819 net.cpp:148] Top shape: 24 512 14 14 (2408448)
I0403 15:12:48.207634  2819 net.cpp:156] Memory required for data: 1072647456
I0403 15:12:48.207649  2819 layer_factory.hpp:77] Creating layer inception_4c/output_inception_4c/output_0_split
I0403 15:12:48.207667  2819 net.cpp:91] Creating Layer inception_4c/output_inception_4c/output_0_split
I0403 15:12:48.207682  2819 net.cpp:425] inception_4c/output_inception_4c/output_0_split <- inception_4c/output
I0403 15:12:48.207702  2819 net.cpp:399] inception_4c/output_inception_4c/output_0_split -> inception_4c/output_inception_4c/output_0_split_0
I0403 15:12:48.207725  2819 net.cpp:399] inception_4c/output_inception_4c/output_0_split -> inception_4c/output_inception_4c/output_0_split_1
I0403 15:12:48.207746  2819 net.cpp:399] inception_4c/output_inception_4c/output_0_split -> inception_4c/output_inception_4c/output_0_split_2
I0403 15:12:48.207767  2819 net.cpp:399] inception_4c/output_inception_4c/output_0_split -> inception_4c/output_inception_4c/output_0_split_3
I0403 15:12:48.207855  2819 net.cpp:141] Setting up inception_4c/output_inception_4c/output_0_split
I0403 15:12:48.207881  2819 net.cpp:148] Top shape: 24 512 14 14 (2408448)
I0403 15:12:48.207900  2819 net.cpp:148] Top shape: 24 512 14 14 (2408448)
I0403 15:12:48.207916  2819 net.cpp:148] Top shape: 24 512 14 14 (2408448)
I0403 15:12:48.207931  2819 net.cpp:148] Top shape: 24 512 14 14 (2408448)
I0403 15:12:48.207945  2819 net.cpp:156] Memory required for data: 1111182624
I0403 15:12:48.207960  2819 layer_factory.hpp:77] Creating layer inception_4d/1x1
I0403 15:12:48.207984  2819 net.cpp:91] Creating Layer inception_4d/1x1
I0403 15:12:48.208003  2819 net.cpp:425] inception_4d/1x1 <- inception_4c/output_inception_4c/output_0_split_0
I0403 15:12:48.208022  2819 net.cpp:399] inception_4d/1x1 -> inception_4d/1x1
I0403 15:12:48.209470  2819 net.cpp:141] Setting up inception_4d/1x1
I0403 15:12:48.209501  2819 net.cpp:148] Top shape: 24 112 14 14 (526848)
I0403 15:12:48.209519  2819 net.cpp:156] Memory required for data: 1113290016
I0403 15:12:48.209538  2819 layer_factory.hpp:77] Creating layer inception_4d/relu_1x1
I0403 15:12:48.209558  2819 net.cpp:91] Creating Layer inception_4d/relu_1x1
I0403 15:12:48.209574  2819 net.cpp:425] inception_4d/relu_1x1 <- inception_4d/1x1
I0403 15:12:48.209591  2819 net.cpp:386] inception_4d/relu_1x1 -> inception_4d/1x1 (in-place)
I0403 15:12:48.209781  2819 net.cpp:141] Setting up inception_4d/relu_1x1
I0403 15:12:48.209810  2819 net.cpp:148] Top shape: 24 112 14 14 (526848)
I0403 15:12:48.209826  2819 net.cpp:156] Memory required for data: 1115397408
I0403 15:12:48.209841  2819 layer_factory.hpp:77] Creating layer inception_4d/3x3_reduce
I0403 15:12:48.209877  2819 net.cpp:91] Creating Layer inception_4d/3x3_reduce
I0403 15:12:48.209897  2819 net.cpp:425] inception_4d/3x3_reduce <- inception_4c/output_inception_4c/output_0_split_1
I0403 15:12:48.209918  2819 net.cpp:399] inception_4d/3x3_reduce -> inception_4d/3x3_reduce
I0403 15:12:48.211483  2819 net.cpp:141] Setting up inception_4d/3x3_reduce
I0403 15:12:48.211511  2819 net.cpp:148] Top shape: 24 144 14 14 (677376)
I0403 15:12:48.211527  2819 net.cpp:156] Memory required for data: 1118106912
I0403 15:12:48.211546  2819 layer_factory.hpp:77] Creating layer inception_4d/relu_3x3_reduce
I0403 15:12:48.211568  2819 net.cpp:91] Creating Layer inception_4d/relu_3x3_reduce
I0403 15:12:48.211585  2819 net.cpp:425] inception_4d/relu_3x3_reduce <- inception_4d/3x3_reduce
I0403 15:12:48.211603  2819 net.cpp:386] inception_4d/relu_3x3_reduce -> inception_4d/3x3_reduce (in-place)
I0403 15:12:48.211899  2819 net.cpp:141] Setting up inception_4d/relu_3x3_reduce
I0403 15:12:48.211925  2819 net.cpp:148] Top shape: 24 144 14 14 (677376)
I0403 15:12:48.211941  2819 net.cpp:156] Memory required for data: 1120816416
I0403 15:12:48.211956  2819 layer_factory.hpp:77] Creating layer inception_4d/3x3
I0403 15:12:48.211979  2819 net.cpp:91] Creating Layer inception_4d/3x3
I0403 15:12:48.211997  2819 net.cpp:425] inception_4d/3x3 <- inception_4d/3x3_reduce
I0403 15:12:48.212018  2819 net.cpp:399] inception_4d/3x3 -> inception_4d/3x3
I0403 15:12:48.216421  2819 net.cpp:141] Setting up inception_4d/3x3
I0403 15:12:48.216451  2819 net.cpp:148] Top shape: 24 288 14 14 (1354752)
I0403 15:12:48.216467  2819 net.cpp:156] Memory required for data: 1126235424
I0403 15:12:48.216490  2819 layer_factory.hpp:77] Creating layer inception_4d/relu_3x3
I0403 15:12:48.216509  2819 net.cpp:91] Creating Layer inception_4d/relu_3x3
I0403 15:12:48.216526  2819 net.cpp:425] inception_4d/relu_3x3 <- inception_4d/3x3
I0403 15:12:48.216544  2819 net.cpp:386] inception_4d/relu_3x3 -> inception_4d/3x3 (in-place)
I0403 15:12:48.216733  2819 net.cpp:141] Setting up inception_4d/relu_3x3
I0403 15:12:48.216759  2819 net.cpp:148] Top shape: 24 288 14 14 (1354752)
I0403 15:12:48.216775  2819 net.cpp:156] Memory required for data: 1131654432
I0403 15:12:48.216791  2819 layer_factory.hpp:77] Creating layer inception_4d/5x5_reduce
I0403 15:12:48.216814  2819 net.cpp:91] Creating Layer inception_4d/5x5_reduce
I0403 15:12:48.216833  2819 net.cpp:425] inception_4d/5x5_reduce <- inception_4c/output_inception_4c/output_0_split_2
I0403 15:12:48.216856  2819 net.cpp:399] inception_4d/5x5_reduce -> inception_4d/5x5_reduce
I0403 15:12:48.218075  2819 net.cpp:141] Setting up inception_4d/5x5_reduce
I0403 15:12:48.218108  2819 net.cpp:148] Top shape: 24 32 14 14 (150528)
I0403 15:12:48.218125  2819 net.cpp:156] Memory required for data: 1132256544
I0403 15:12:48.218145  2819 layer_factory.hpp:77] Creating layer inception_4d/relu_5x5_reduce
I0403 15:12:48.218164  2819 net.cpp:91] Creating Layer inception_4d/relu_5x5_reduce
I0403 15:12:48.218189  2819 net.cpp:425] inception_4d/relu_5x5_reduce <- inception_4d/5x5_reduce
I0403 15:12:48.218209  2819 net.cpp:386] inception_4d/relu_5x5_reduce -> inception_4d/5x5_reduce (in-place)
I0403 15:12:48.218406  2819 net.cpp:141] Setting up inception_4d/relu_5x5_reduce
I0403 15:12:48.218432  2819 net.cpp:148] Top shape: 24 32 14 14 (150528)
I0403 15:12:48.218447  2819 net.cpp:156] Memory required for data: 1132858656
I0403 15:12:48.218462  2819 layer_factory.hpp:77] Creating layer inception_4d/5x5
I0403 15:12:48.218498  2819 net.cpp:91] Creating Layer inception_4d/5x5
I0403 15:12:48.218518  2819 net.cpp:425] inception_4d/5x5 <- inception_4d/5x5_reduce
I0403 15:12:48.218540  2819 net.cpp:399] inception_4d/5x5 -> inception_4d/5x5
I0403 15:12:48.220132  2819 net.cpp:141] Setting up inception_4d/5x5
I0403 15:12:48.220160  2819 net.cpp:148] Top shape: 24 64 14 14 (301056)
I0403 15:12:48.220181  2819 net.cpp:156] Memory required for data: 1134062880
I0403 15:12:48.220202  2819 layer_factory.hpp:77] Creating layer inception_4d/relu_5x5
I0403 15:12:48.220240  2819 net.cpp:91] Creating Layer inception_4d/relu_5x5
I0403 15:12:48.220257  2819 net.cpp:425] inception_4d/relu_5x5 <- inception_4d/5x5
I0403 15:12:48.220275  2819 net.cpp:386] inception_4d/relu_5x5 -> inception_4d/5x5 (in-place)
I0403 15:12:48.220577  2819 net.cpp:141] Setting up inception_4d/relu_5x5
I0403 15:12:48.220602  2819 net.cpp:148] Top shape: 24 64 14 14 (301056)
I0403 15:12:48.220618  2819 net.cpp:156] Memory required for data: 1135267104
I0403 15:12:48.220633  2819 layer_factory.hpp:77] Creating layer inception_4d/pool
I0403 15:12:48.220651  2819 net.cpp:91] Creating Layer inception_4d/pool
I0403 15:12:48.220667  2819 net.cpp:425] inception_4d/pool <- inception_4c/output_inception_4c/output_0_split_3
I0403 15:12:48.220688  2819 net.cpp:399] inception_4d/pool -> inception_4d/pool
I0403 15:12:48.220755  2819 net.cpp:141] Setting up inception_4d/pool
I0403 15:12:48.220782  2819 net.cpp:148] Top shape: 24 512 14 14 (2408448)
I0403 15:12:48.220796  2819 net.cpp:156] Memory required for data: 1144900896
I0403 15:12:48.220811  2819 layer_factory.hpp:77] Creating layer inception_4d/pool_proj
I0403 15:12:48.220834  2819 net.cpp:91] Creating Layer inception_4d/pool_proj
I0403 15:12:48.220850  2819 net.cpp:425] inception_4d/pool_proj <- inception_4d/pool
I0403 15:12:48.220870  2819 net.cpp:399] inception_4d/pool_proj -> inception_4d/pool_proj
I0403 15:12:48.222662  2819 net.cpp:141] Setting up inception_4d/pool_proj
I0403 15:12:48.222693  2819 net.cpp:148] Top shape: 24 64 14 14 (301056)
I0403 15:12:48.222709  2819 net.cpp:156] Memory required for data: 1146105120
I0403 15:12:48.222728  2819 layer_factory.hpp:77] Creating layer inception_4d/relu_pool_proj
I0403 15:12:48.222746  2819 net.cpp:91] Creating Layer inception_4d/relu_pool_proj
I0403 15:12:48.222762  2819 net.cpp:425] inception_4d/relu_pool_proj <- inception_4d/pool_proj
I0403 15:12:48.222782  2819 net.cpp:386] inception_4d/relu_pool_proj -> inception_4d/pool_proj (in-place)
I0403 15:12:48.222968  2819 net.cpp:141] Setting up inception_4d/relu_pool_proj
I0403 15:12:48.222993  2819 net.cpp:148] Top shape: 24 64 14 14 (301056)
I0403 15:12:48.223008  2819 net.cpp:156] Memory required for data: 1147309344
I0403 15:12:48.223023  2819 layer_factory.hpp:77] Creating layer inception_4d/output
I0403 15:12:48.223040  2819 net.cpp:91] Creating Layer inception_4d/output
I0403 15:12:48.223057  2819 net.cpp:425] inception_4d/output <- inception_4d/1x1
I0403 15:12:48.223073  2819 net.cpp:425] inception_4d/output <- inception_4d/3x3
I0403 15:12:48.223088  2819 net.cpp:425] inception_4d/output <- inception_4d/5x5
I0403 15:12:48.223104  2819 net.cpp:425] inception_4d/output <- inception_4d/pool_proj
I0403 15:12:48.223124  2819 net.cpp:399] inception_4d/output -> inception_4d/output
I0403 15:12:48.223171  2819 net.cpp:141] Setting up inception_4d/output
I0403 15:12:48.223203  2819 net.cpp:148] Top shape: 24 528 14 14 (2483712)
I0403 15:12:48.223220  2819 net.cpp:156] Memory required for data: 1157244192
I0403 15:12:48.223235  2819 layer_factory.hpp:77] Creating layer inception_4d/output_inception_4d/output_0_split
I0403 15:12:48.223253  2819 net.cpp:91] Creating Layer inception_4d/output_inception_4d/output_0_split
I0403 15:12:48.223268  2819 net.cpp:425] inception_4d/output_inception_4d/output_0_split <- inception_4d/output
I0403 15:12:48.223286  2819 net.cpp:399] inception_4d/output_inception_4d/output_0_split -> inception_4d/output_inception_4d/output_0_split_0
I0403 15:12:48.223309  2819 net.cpp:399] inception_4d/output_inception_4d/output_0_split -> inception_4d/output_inception_4d/output_0_split_1
I0403 15:12:48.223332  2819 net.cpp:399] inception_4d/output_inception_4d/output_0_split -> inception_4d/output_inception_4d/output_0_split_2
I0403 15:12:48.223354  2819 net.cpp:399] inception_4d/output_inception_4d/output_0_split -> inception_4d/output_inception_4d/output_0_split_3
I0403 15:12:48.223374  2819 net.cpp:399] inception_4d/output_inception_4d/output_0_split -> inception_4d/output_inception_4d/output_0_split_4
I0403 15:12:48.223477  2819 net.cpp:141] Setting up inception_4d/output_inception_4d/output_0_split
I0403 15:12:48.223513  2819 net.cpp:148] Top shape: 24 528 14 14 (2483712)
I0403 15:12:48.223531  2819 net.cpp:148] Top shape: 24 528 14 14 (2483712)
I0403 15:12:48.223549  2819 net.cpp:148] Top shape: 24 528 14 14 (2483712)
I0403 15:12:48.223567  2819 net.cpp:148] Top shape: 24 528 14 14 (2483712)
I0403 15:12:48.223582  2819 net.cpp:148] Top shape: 24 528 14 14 (2483712)
I0403 15:12:48.223597  2819 net.cpp:156] Memory required for data: 1206918432
I0403 15:12:48.223611  2819 layer_factory.hpp:77] Creating layer loss2/ave_pool
I0403 15:12:48.223629  2819 net.cpp:91] Creating Layer loss2/ave_pool
I0403 15:12:48.223645  2819 net.cpp:425] loss2/ave_pool <- inception_4d/output_inception_4d/output_0_split_0
I0403 15:12:48.223667  2819 net.cpp:399] loss2/ave_pool -> loss2/ave_pool
I0403 15:12:48.223981  2819 net.cpp:141] Setting up loss2/ave_pool
I0403 15:12:48.224014  2819 net.cpp:148] Top shape: 24 528 4 4 (202752)
I0403 15:12:48.224030  2819 net.cpp:156] Memory required for data: 1207729440
I0403 15:12:48.224045  2819 layer_factory.hpp:77] Creating layer loss2/conv
I0403 15:12:48.224067  2819 net.cpp:91] Creating Layer loss2/conv
I0403 15:12:48.224086  2819 net.cpp:425] loss2/conv <- loss2/ave_pool
I0403 15:12:48.224104  2819 net.cpp:399] loss2/conv -> loss2/conv
I0403 15:12:48.226086  2819 net.cpp:141] Setting up loss2/conv
I0403 15:12:48.226115  2819 net.cpp:148] Top shape: 24 128 4 4 (49152)
I0403 15:12:48.226132  2819 net.cpp:156] Memory required for data: 1207926048
I0403 15:12:48.226151  2819 layer_factory.hpp:77] Creating layer loss2/relu_conv
I0403 15:12:48.226171  2819 net.cpp:91] Creating Layer loss2/relu_conv
I0403 15:12:48.226196  2819 net.cpp:425] loss2/relu_conv <- loss2/conv
I0403 15:12:48.226217  2819 net.cpp:386] loss2/relu_conv -> loss2/conv (in-place)
I0403 15:12:48.226522  2819 net.cpp:141] Setting up loss2/relu_conv
I0403 15:12:48.226548  2819 net.cpp:148] Top shape: 24 128 4 4 (49152)
I0403 15:12:48.226563  2819 net.cpp:156] Memory required for data: 1208122656
I0403 15:12:48.226578  2819 layer_factory.hpp:77] Creating layer loss2/fc
I0403 15:12:48.226598  2819 net.cpp:91] Creating Layer loss2/fc
I0403 15:12:48.226615  2819 net.cpp:425] loss2/fc <- loss2/conv
I0403 15:12:48.226636  2819 net.cpp:399] loss2/fc -> loss2/fc
I0403 15:12:48.244498  2819 net.cpp:141] Setting up loss2/fc
I0403 15:12:48.244546  2819 net.cpp:148] Top shape: 24 1024 (24576)
I0403 15:12:48.244562  2819 net.cpp:156] Memory required for data: 1208220960
I0403 15:12:48.244581  2819 layer_factory.hpp:77] Creating layer loss2/relu_fc
I0403 15:12:48.244601  2819 net.cpp:91] Creating Layer loss2/relu_fc
I0403 15:12:48.244619  2819 net.cpp:425] loss2/relu_fc <- loss2/fc
I0403 15:12:48.244637  2819 net.cpp:386] loss2/relu_fc -> loss2/fc (in-place)
I0403 15:12:48.244972  2819 net.cpp:141] Setting up loss2/relu_fc
I0403 15:12:48.245000  2819 net.cpp:148] Top shape: 24 1024 (24576)
I0403 15:12:48.245017  2819 net.cpp:156] Memory required for data: 1208319264
I0403 15:12:48.245031  2819 layer_factory.hpp:77] Creating layer loss2/drop_fc
I0403 15:12:48.245050  2819 net.cpp:91] Creating Layer loss2/drop_fc
I0403 15:12:48.245066  2819 net.cpp:425] loss2/drop_fc <- loss2/fc
I0403 15:12:48.245085  2819 net.cpp:386] loss2/drop_fc -> loss2/fc (in-place)
I0403 15:12:48.245136  2819 net.cpp:141] Setting up loss2/drop_fc
I0403 15:12:48.245158  2819 net.cpp:148] Top shape: 24 1024 (24576)
I0403 15:12:48.245174  2819 net.cpp:156] Memory required for data: 1208417568
I0403 15:12:48.245196  2819 layer_factory.hpp:77] Creating layer loss2/classifier_plantvillage
I0403 15:12:48.245218  2819 net.cpp:91] Creating Layer loss2/classifier_plantvillage
I0403 15:12:48.245235  2819 net.cpp:425] loss2/classifier_plantvillage <- loss2/fc
I0403 15:12:48.245254  2819 net.cpp:399] loss2/classifier_plantvillage -> loss2/classifier_plantvillage
I0403 15:12:48.245674  2819 net.cpp:141] Setting up loss2/classifier_plantvillage
I0403 15:12:48.245698  2819 net.cpp:148] Top shape: 24 38 (912)
I0403 15:12:48.245735  2819 net.cpp:156] Memory required for data: 1208421216
I0403 15:12:48.245754  2819 layer_factory.hpp:77] Creating layer loss2/classifier_plantvillage_loss2/classifier_plantvillage_0_split
I0403 15:12:48.245771  2819 net.cpp:91] Creating Layer loss2/classifier_plantvillage_loss2/classifier_plantvillage_0_split
I0403 15:12:48.245787  2819 net.cpp:425] loss2/classifier_plantvillage_loss2/classifier_plantvillage_0_split <- loss2/classifier_plantvillage
I0403 15:12:48.245807  2819 net.cpp:399] loss2/classifier_plantvillage_loss2/classifier_plantvillage_0_split -> loss2/classifier_plantvillage_loss2/classifier_plantvillage_0_split_0
I0403 15:12:48.245828  2819 net.cpp:399] loss2/classifier_plantvillage_loss2/classifier_plantvillage_0_split -> loss2/classifier_plantvillage_loss2/classifier_plantvillage_0_split_1
I0403 15:12:48.245849  2819 net.cpp:399] loss2/classifier_plantvillage_loss2/classifier_plantvillage_0_split -> loss2/classifier_plantvillage_loss2/classifier_plantvillage_0_split_2
I0403 15:12:48.245925  2819 net.cpp:141] Setting up loss2/classifier_plantvillage_loss2/classifier_plantvillage_0_split
I0403 15:12:48.245949  2819 net.cpp:148] Top shape: 24 38 (912)
I0403 15:12:48.245964  2819 net.cpp:148] Top shape: 24 38 (912)
I0403 15:12:48.245980  2819 net.cpp:148] Top shape: 24 38 (912)
I0403 15:12:48.245992  2819 net.cpp:156] Memory required for data: 1208432160
I0403 15:12:48.246007  2819 layer_factory.hpp:77] Creating layer inception_4e/1x1
I0403 15:12:48.246029  2819 net.cpp:91] Creating Layer inception_4e/1x1
I0403 15:12:48.246047  2819 net.cpp:425] inception_4e/1x1 <- inception_4d/output_inception_4d/output_0_split_1
I0403 15:12:48.246068  2819 net.cpp:399] inception_4e/1x1 -> inception_4e/1x1
I0403 15:12:48.247867  2819 net.cpp:141] Setting up inception_4e/1x1
I0403 15:12:48.247895  2819 net.cpp:148] Top shape: 24 256 14 14 (1204224)
I0403 15:12:48.247910  2819 net.cpp:156] Memory required for data: 1213249056
I0403 15:12:48.247927  2819 layer_factory.hpp:77] Creating layer inception_4e/relu_1x1
I0403 15:12:48.247947  2819 net.cpp:91] Creating Layer inception_4e/relu_1x1
I0403 15:12:48.247964  2819 net.cpp:425] inception_4e/relu_1x1 <- inception_4e/1x1
I0403 15:12:48.247982  2819 net.cpp:386] inception_4e/relu_1x1 -> inception_4e/1x1 (in-place)
I0403 15:12:48.248275  2819 net.cpp:141] Setting up inception_4e/relu_1x1
I0403 15:12:48.248301  2819 net.cpp:148] Top shape: 24 256 14 14 (1204224)
I0403 15:12:48.248316  2819 net.cpp:156] Memory required for data: 1218065952
I0403 15:12:48.248330  2819 layer_factory.hpp:77] Creating layer inception_4e/3x3_reduce
I0403 15:12:48.248353  2819 net.cpp:91] Creating Layer inception_4e/3x3_reduce
I0403 15:12:48.248369  2819 net.cpp:425] inception_4e/3x3_reduce <- inception_4d/output_inception_4d/output_0_split_2
I0403 15:12:48.248390  2819 net.cpp:399] inception_4e/3x3_reduce -> inception_4e/3x3_reduce
I0403 15:12:48.250478  2819 net.cpp:141] Setting up inception_4e/3x3_reduce
I0403 15:12:48.250504  2819 net.cpp:148] Top shape: 24 160 14 14 (752640)
I0403 15:12:48.250520  2819 net.cpp:156] Memory required for data: 1221076512
I0403 15:12:48.250538  2819 layer_factory.hpp:77] Creating layer inception_4e/relu_3x3_reduce
I0403 15:12:48.250556  2819 net.cpp:91] Creating Layer inception_4e/relu_3x3_reduce
I0403 15:12:48.250572  2819 net.cpp:425] inception_4e/relu_3x3_reduce <- inception_4e/3x3_reduce
I0403 15:12:48.250591  2819 net.cpp:386] inception_4e/relu_3x3_reduce -> inception_4e/3x3_reduce (in-place)
I0403 15:12:48.250772  2819 net.cpp:141] Setting up inception_4e/relu_3x3_reduce
I0403 15:12:48.250797  2819 net.cpp:148] Top shape: 24 160 14 14 (752640)
I0403 15:12:48.250810  2819 net.cpp:156] Memory required for data: 1224087072
I0403 15:12:48.250825  2819 layer_factory.hpp:77] Creating layer inception_4e/3x3
I0403 15:12:48.250847  2819 net.cpp:91] Creating Layer inception_4e/3x3
I0403 15:12:48.250864  2819 net.cpp:425] inception_4e/3x3 <- inception_4e/3x3_reduce
I0403 15:12:48.250883  2819 net.cpp:399] inception_4e/3x3 -> inception_4e/3x3
I0403 15:12:48.255851  2819 net.cpp:141] Setting up inception_4e/3x3
I0403 15:12:48.255890  2819 net.cpp:148] Top shape: 24 320 14 14 (1505280)
I0403 15:12:48.255906  2819 net.cpp:156] Memory required for data: 1230108192
I0403 15:12:48.255924  2819 layer_factory.hpp:77] Creating layer inception_4e/relu_3x3
I0403 15:12:48.255945  2819 net.cpp:91] Creating Layer inception_4e/relu_3x3
I0403 15:12:48.255964  2819 net.cpp:425] inception_4e/relu_3x3 <- inception_4e/3x3
I0403 15:12:48.255980  2819 net.cpp:386] inception_4e/relu_3x3 -> inception_4e/3x3 (in-place)
I0403 15:12:48.256315  2819 net.cpp:141] Setting up inception_4e/relu_3x3
I0403 15:12:48.256345  2819 net.cpp:148] Top shape: 24 320 14 14 (1505280)
I0403 15:12:48.256361  2819 net.cpp:156] Memory required for data: 1236129312
I0403 15:12:48.256377  2819 layer_factory.hpp:77] Creating layer inception_4e/5x5_reduce
I0403 15:12:48.256402  2819 net.cpp:91] Creating Layer inception_4e/5x5_reduce
I0403 15:12:48.256422  2819 net.cpp:425] inception_4e/5x5_reduce <- inception_4d/output_inception_4d/output_0_split_3
I0403 15:12:48.256441  2819 net.cpp:399] inception_4e/5x5_reduce -> inception_4e/5x5_reduce
I0403 15:12:48.257540  2819 net.cpp:141] Setting up inception_4e/5x5_reduce
I0403 15:12:48.257568  2819 net.cpp:148] Top shape: 24 32 14 14 (150528)
I0403 15:12:48.257583  2819 net.cpp:156] Memory required for data: 1236731424
I0403 15:12:48.257602  2819 layer_factory.hpp:77] Creating layer inception_4e/relu_5x5_reduce
I0403 15:12:48.257623  2819 net.cpp:91] Creating Layer inception_4e/relu_5x5_reduce
I0403 15:12:48.257642  2819 net.cpp:425] inception_4e/relu_5x5_reduce <- inception_4e/5x5_reduce
I0403 15:12:48.257658  2819 net.cpp:386] inception_4e/relu_5x5_reduce -> inception_4e/5x5_reduce (in-place)
I0403 15:12:48.257961  2819 net.cpp:141] Setting up inception_4e/relu_5x5_reduce
I0403 15:12:48.257987  2819 net.cpp:148] Top shape: 24 32 14 14 (150528)
I0403 15:12:48.258002  2819 net.cpp:156] Memory required for data: 1237333536
I0403 15:12:48.258018  2819 layer_factory.hpp:77] Creating layer inception_4e/5x5
I0403 15:12:48.258059  2819 net.cpp:91] Creating Layer inception_4e/5x5
I0403 15:12:48.258077  2819 net.cpp:425] inception_4e/5x5 <- inception_4e/5x5_reduce
I0403 15:12:48.258096  2819 net.cpp:399] inception_4e/5x5 -> inception_4e/5x5
I0403 15:12:48.259963  2819 net.cpp:141] Setting up inception_4e/5x5
I0403 15:12:48.259994  2819 net.cpp:148] Top shape: 24 128 14 14 (602112)
I0403 15:12:48.260010  2819 net.cpp:156] Memory required for data: 1239741984
I0403 15:12:48.260030  2819 layer_factory.hpp:77] Creating layer inception_4e/relu_5x5
I0403 15:12:48.260048  2819 net.cpp:91] Creating Layer inception_4e/relu_5x5
I0403 15:12:48.260064  2819 net.cpp:425] inception_4e/relu_5x5 <- inception_4e/5x5
I0403 15:12:48.260084  2819 net.cpp:386] inception_4e/relu_5x5 -> inception_4e/5x5 (in-place)
I0403 15:12:48.260289  2819 net.cpp:141] Setting up inception_4e/relu_5x5
I0403 15:12:48.260314  2819 net.cpp:148] Top shape: 24 128 14 14 (602112)
I0403 15:12:48.260329  2819 net.cpp:156] Memory required for data: 1242150432
I0403 15:12:48.260344  2819 layer_factory.hpp:77] Creating layer inception_4e/pool
I0403 15:12:48.260362  2819 net.cpp:91] Creating Layer inception_4e/pool
I0403 15:12:48.260380  2819 net.cpp:425] inception_4e/pool <- inception_4d/output_inception_4d/output_0_split_4
I0403 15:12:48.260399  2819 net.cpp:399] inception_4e/pool -> inception_4e/pool
I0403 15:12:48.260469  2819 net.cpp:141] Setting up inception_4e/pool
I0403 15:12:48.260493  2819 net.cpp:148] Top shape: 24 528 14 14 (2483712)
I0403 15:12:48.260509  2819 net.cpp:156] Memory required for data: 1252085280
I0403 15:12:48.260522  2819 layer_factory.hpp:77] Creating layer inception_4e/pool_proj
I0403 15:12:48.260546  2819 net.cpp:91] Creating Layer inception_4e/pool_proj
I0403 15:12:48.260565  2819 net.cpp:425] inception_4e/pool_proj <- inception_4e/pool
I0403 15:12:48.260582  2819 net.cpp:399] inception_4e/pool_proj -> inception_4e/pool_proj
I0403 15:12:48.262121  2819 net.cpp:141] Setting up inception_4e/pool_proj
I0403 15:12:48.262163  2819 net.cpp:148] Top shape: 24 128 14 14 (602112)
I0403 15:12:48.262192  2819 net.cpp:156] Memory required for data: 1254493728
I0403 15:12:48.262214  2819 layer_factory.hpp:77] Creating layer inception_4e/relu_pool_proj
I0403 15:12:48.262233  2819 net.cpp:91] Creating Layer inception_4e/relu_pool_proj
I0403 15:12:48.262250  2819 net.cpp:425] inception_4e/relu_pool_proj <- inception_4e/pool_proj
I0403 15:12:48.262270  2819 net.cpp:386] inception_4e/relu_pool_proj -> inception_4e/pool_proj (in-place)
I0403 15:12:48.262584  2819 net.cpp:141] Setting up inception_4e/relu_pool_proj
I0403 15:12:48.262625  2819 net.cpp:148] Top shape: 24 128 14 14 (602112)
I0403 15:12:48.262641  2819 net.cpp:156] Memory required for data: 1256902176
I0403 15:12:48.262656  2819 layer_factory.hpp:77] Creating layer inception_4e/output
I0403 15:12:48.262675  2819 net.cpp:91] Creating Layer inception_4e/output
I0403 15:12:48.262691  2819 net.cpp:425] inception_4e/output <- inception_4e/1x1
I0403 15:12:48.262707  2819 net.cpp:425] inception_4e/output <- inception_4e/3x3
I0403 15:12:48.262723  2819 net.cpp:425] inception_4e/output <- inception_4e/5x5
I0403 15:12:48.262739  2819 net.cpp:425] inception_4e/output <- inception_4e/pool_proj
I0403 15:12:48.262756  2819 net.cpp:399] inception_4e/output -> inception_4e/output
I0403 15:12:48.262809  2819 net.cpp:141] Setting up inception_4e/output
I0403 15:12:48.262831  2819 net.cpp:148] Top shape: 24 832 14 14 (3913728)
I0403 15:12:48.262846  2819 net.cpp:156] Memory required for data: 1272557088
I0403 15:12:48.262862  2819 layer_factory.hpp:77] Creating layer pool4/3x3_s2
I0403 15:12:48.262882  2819 net.cpp:91] Creating Layer pool4/3x3_s2
I0403 15:12:48.262898  2819 net.cpp:425] pool4/3x3_s2 <- inception_4e/output
I0403 15:12:48.262917  2819 net.cpp:399] pool4/3x3_s2 -> pool4/3x3_s2
I0403 15:12:48.262987  2819 net.cpp:141] Setting up pool4/3x3_s2
I0403 15:12:48.263012  2819 net.cpp:148] Top shape: 24 832 7 7 (978432)
I0403 15:12:48.263027  2819 net.cpp:156] Memory required for data: 1276470816
I0403 15:12:48.263042  2819 layer_factory.hpp:77] Creating layer pool4/3x3_s2_pool4/3x3_s2_0_split
I0403 15:12:48.263061  2819 net.cpp:91] Creating Layer pool4/3x3_s2_pool4/3x3_s2_0_split
I0403 15:12:48.263075  2819 net.cpp:425] pool4/3x3_s2_pool4/3x3_s2_0_split <- pool4/3x3_s2
I0403 15:12:48.263095  2819 net.cpp:399] pool4/3x3_s2_pool4/3x3_s2_0_split -> pool4/3x3_s2_pool4/3x3_s2_0_split_0
I0403 15:12:48.263116  2819 net.cpp:399] pool4/3x3_s2_pool4/3x3_s2_0_split -> pool4/3x3_s2_pool4/3x3_s2_0_split_1
I0403 15:12:48.263136  2819 net.cpp:399] pool4/3x3_s2_pool4/3x3_s2_0_split -> pool4/3x3_s2_pool4/3x3_s2_0_split_2
I0403 15:12:48.263157  2819 net.cpp:399] pool4/3x3_s2_pool4/3x3_s2_0_split -> pool4/3x3_s2_pool4/3x3_s2_0_split_3
I0403 15:12:48.263254  2819 net.cpp:141] Setting up pool4/3x3_s2_pool4/3x3_s2_0_split
I0403 15:12:48.263281  2819 net.cpp:148] Top shape: 24 832 7 7 (978432)
I0403 15:12:48.263298  2819 net.cpp:148] Top shape: 24 832 7 7 (978432)
I0403 15:12:48.263315  2819 net.cpp:148] Top shape: 24 832 7 7 (978432)
I0403 15:12:48.263331  2819 net.cpp:148] Top shape: 24 832 7 7 (978432)
I0403 15:12:48.263345  2819 net.cpp:156] Memory required for data: 1292125728
I0403 15:12:48.263360  2819 layer_factory.hpp:77] Creating layer inception_5a/1x1
I0403 15:12:48.263382  2819 net.cpp:91] Creating Layer inception_5a/1x1
I0403 15:12:48.263401  2819 net.cpp:425] inception_5a/1x1 <- pool4/3x3_s2_pool4/3x3_s2_0_split_0
I0403 15:12:48.263419  2819 net.cpp:399] inception_5a/1x1 -> inception_5a/1x1
I0403 15:12:48.266294  2819 net.cpp:141] Setting up inception_5a/1x1
I0403 15:12:48.266322  2819 net.cpp:148] Top shape: 24 256 7 7 (301056)
I0403 15:12:48.266338  2819 net.cpp:156] Memory required for data: 1293329952
I0403 15:12:48.266356  2819 layer_factory.hpp:77] Creating layer inception_5a/relu_1x1
I0403 15:12:48.266374  2819 net.cpp:91] Creating Layer inception_5a/relu_1x1
I0403 15:12:48.266391  2819 net.cpp:425] inception_5a/relu_1x1 <- inception_5a/1x1
I0403 15:12:48.266410  2819 net.cpp:386] inception_5a/relu_1x1 -> inception_5a/1x1 (in-place)
I0403 15:12:48.266722  2819 net.cpp:141] Setting up inception_5a/relu_1x1
I0403 15:12:48.266748  2819 net.cpp:148] Top shape: 24 256 7 7 (301056)
I0403 15:12:48.266763  2819 net.cpp:156] Memory required for data: 1294534176
I0403 15:12:48.266778  2819 layer_factory.hpp:77] Creating layer inception_5a/3x3_reduce
I0403 15:12:48.266803  2819 net.cpp:91] Creating Layer inception_5a/3x3_reduce
I0403 15:12:48.266821  2819 net.cpp:425] inception_5a/3x3_reduce <- pool4/3x3_s2_pool4/3x3_s2_0_split_1
I0403 15:12:48.266844  2819 net.cpp:399] inception_5a/3x3_reduce -> inception_5a/3x3_reduce
I0403 15:12:48.269335  2819 net.cpp:141] Setting up inception_5a/3x3_reduce
I0403 15:12:48.269364  2819 net.cpp:148] Top shape: 24 160 7 7 (188160)
I0403 15:12:48.269381  2819 net.cpp:156] Memory required for data: 1295286816
I0403 15:12:48.269398  2819 layer_factory.hpp:77] Creating layer inception_5a/relu_3x3_reduce
I0403 15:12:48.269419  2819 net.cpp:91] Creating Layer inception_5a/relu_3x3_reduce
I0403 15:12:48.269436  2819 net.cpp:425] inception_5a/relu_3x3_reduce <- inception_5a/3x3_reduce
I0403 15:12:48.269454  2819 net.cpp:386] inception_5a/relu_3x3_reduce -> inception_5a/3x3_reduce (in-place)
I0403 15:12:48.269642  2819 net.cpp:141] Setting up inception_5a/relu_3x3_reduce
I0403 15:12:48.269666  2819 net.cpp:148] Top shape: 24 160 7 7 (188160)
I0403 15:12:48.269681  2819 net.cpp:156] Memory required for data: 1296039456
I0403 15:12:48.269696  2819 layer_factory.hpp:77] Creating layer inception_5a/3x3
I0403 15:12:48.269719  2819 net.cpp:91] Creating Layer inception_5a/3x3
I0403 15:12:48.269737  2819 net.cpp:425] inception_5a/3x3 <- inception_5a/3x3_reduce
I0403 15:12:48.269758  2819 net.cpp:399] inception_5a/3x3 -> inception_5a/3x3
I0403 15:12:48.274893  2819 net.cpp:141] Setting up inception_5a/3x3
I0403 15:12:48.274925  2819 net.cpp:148] Top shape: 24 320 7 7 (376320)
I0403 15:12:48.274942  2819 net.cpp:156] Memory required for data: 1297544736
I0403 15:12:48.274962  2819 layer_factory.hpp:77] Creating layer inception_5a/relu_3x3
I0403 15:12:48.274981  2819 net.cpp:91] Creating Layer inception_5a/relu_3x3
I0403 15:12:48.274997  2819 net.cpp:425] inception_5a/relu_3x3 <- inception_5a/3x3
I0403 15:12:48.275017  2819 net.cpp:386] inception_5a/relu_3x3 -> inception_5a/3x3 (in-place)
I0403 15:12:48.275320  2819 net.cpp:141] Setting up inception_5a/relu_3x3
I0403 15:12:48.275348  2819 net.cpp:148] Top shape: 24 320 7 7 (376320)
I0403 15:12:48.275364  2819 net.cpp:156] Memory required for data: 1299050016
I0403 15:12:48.275379  2819 layer_factory.hpp:77] Creating layer inception_5a/5x5_reduce
I0403 15:12:48.275403  2819 net.cpp:91] Creating Layer inception_5a/5x5_reduce
I0403 15:12:48.275420  2819 net.cpp:425] inception_5a/5x5_reduce <- pool4/3x3_s2_pool4/3x3_s2_0_split_2
I0403 15:12:48.275440  2819 net.cpp:399] inception_5a/5x5_reduce -> inception_5a/5x5_reduce
I0403 15:12:48.276669  2819 net.cpp:141] Setting up inception_5a/5x5_reduce
I0403 15:12:48.276697  2819 net.cpp:148] Top shape: 24 32 7 7 (37632)
I0403 15:12:48.276713  2819 net.cpp:156] Memory required for data: 1299200544
I0403 15:12:48.276733  2819 layer_factory.hpp:77] Creating layer inception_5a/relu_5x5_reduce
I0403 15:12:48.276752  2819 net.cpp:91] Creating Layer inception_5a/relu_5x5_reduce
I0403 15:12:48.276769  2819 net.cpp:425] inception_5a/relu_5x5_reduce <- inception_5a/5x5_reduce
I0403 15:12:48.276789  2819 net.cpp:386] inception_5a/relu_5x5_reduce -> inception_5a/5x5_reduce (in-place)
I0403 15:12:48.277108  2819 net.cpp:141] Setting up inception_5a/relu_5x5_reduce
I0403 15:12:48.277134  2819 net.cpp:148] Top shape: 24 32 7 7 (37632)
I0403 15:12:48.277150  2819 net.cpp:156] Memory required for data: 1299351072
I0403 15:12:48.277164  2819 layer_factory.hpp:77] Creating layer inception_5a/5x5
I0403 15:12:48.277194  2819 net.cpp:91] Creating Layer inception_5a/5x5
I0403 15:12:48.277214  2819 net.cpp:425] inception_5a/5x5 <- inception_5a/5x5_reduce
I0403 15:12:48.277235  2819 net.cpp:399] inception_5a/5x5 -> inception_5a/5x5
I0403 15:12:48.278965  2819 net.cpp:141] Setting up inception_5a/5x5
I0403 15:12:48.279006  2819 net.cpp:148] Top shape: 24 128 7 7 (150528)
I0403 15:12:48.279024  2819 net.cpp:156] Memory required for data: 1299953184
I0403 15:12:48.279043  2819 layer_factory.hpp:77] Creating layer inception_5a/relu_5x5
I0403 15:12:48.279062  2819 net.cpp:91] Creating Layer inception_5a/relu_5x5
I0403 15:12:48.279078  2819 net.cpp:425] inception_5a/relu_5x5 <- inception_5a/5x5
I0403 15:12:48.279098  2819 net.cpp:386] inception_5a/relu_5x5 -> inception_5a/5x5 (in-place)
I0403 15:12:48.279299  2819 net.cpp:141] Setting up inception_5a/relu_5x5
I0403 15:12:48.279325  2819 net.cpp:148] Top shape: 24 128 7 7 (150528)
I0403 15:12:48.279338  2819 net.cpp:156] Memory required for data: 1300555296
I0403 15:12:48.279353  2819 layer_factory.hpp:77] Creating layer inception_5a/pool
I0403 15:12:48.279371  2819 net.cpp:91] Creating Layer inception_5a/pool
I0403 15:12:48.279387  2819 net.cpp:425] inception_5a/pool <- pool4/3x3_s2_pool4/3x3_s2_0_split_3
I0403 15:12:48.279408  2819 net.cpp:399] inception_5a/pool -> inception_5a/pool
I0403 15:12:48.279479  2819 net.cpp:141] Setting up inception_5a/pool
I0403 15:12:48.279503  2819 net.cpp:148] Top shape: 24 832 7 7 (978432)
I0403 15:12:48.279518  2819 net.cpp:156] Memory required for data: 1304469024
I0403 15:12:48.279533  2819 layer_factory.hpp:77] Creating layer inception_5a/pool_proj
I0403 15:12:48.279557  2819 net.cpp:91] Creating Layer inception_5a/pool_proj
I0403 15:12:48.279575  2819 net.cpp:425] inception_5a/pool_proj <- inception_5a/pool
I0403 15:12:48.279594  2819 net.cpp:399] inception_5a/pool_proj -> inception_5a/pool_proj
I0403 15:12:48.281889  2819 net.cpp:141] Setting up inception_5a/pool_proj
I0403 15:12:48.281921  2819 net.cpp:148] Top shape: 24 128 7 7 (150528)
I0403 15:12:48.281937  2819 net.cpp:156] Memory required for data: 1305071136
I0403 15:12:48.281956  2819 layer_factory.hpp:77] Creating layer inception_5a/relu_pool_proj
I0403 15:12:48.281975  2819 net.cpp:91] Creating Layer inception_5a/relu_pool_proj
I0403 15:12:48.281991  2819 net.cpp:425] inception_5a/relu_pool_proj <- inception_5a/pool_proj
I0403 15:12:48.282009  2819 net.cpp:386] inception_5a/relu_pool_proj -> inception_5a/pool_proj (in-place)
I0403 15:12:48.282338  2819 net.cpp:141] Setting up inception_5a/relu_pool_proj
I0403 15:12:48.282380  2819 net.cpp:148] Top shape: 24 128 7 7 (150528)
I0403 15:12:48.282397  2819 net.cpp:156] Memory required for data: 1305673248
I0403 15:12:48.282413  2819 layer_factory.hpp:77] Creating layer inception_5a/output
I0403 15:12:48.282429  2819 net.cpp:91] Creating Layer inception_5a/output
I0403 15:12:48.282446  2819 net.cpp:425] inception_5a/output <- inception_5a/1x1
I0403 15:12:48.282462  2819 net.cpp:425] inception_5a/output <- inception_5a/3x3
I0403 15:12:48.282479  2819 net.cpp:425] inception_5a/output <- inception_5a/5x5
I0403 15:12:48.282495  2819 net.cpp:425] inception_5a/output <- inception_5a/pool_proj
I0403 15:12:48.282512  2819 net.cpp:399] inception_5a/output -> inception_5a/output
I0403 15:12:48.282575  2819 net.cpp:141] Setting up inception_5a/output
I0403 15:12:48.282599  2819 net.cpp:148] Top shape: 24 832 7 7 (978432)
I0403 15:12:48.282614  2819 net.cpp:156] Memory required for data: 1309586976
I0403 15:12:48.282629  2819 layer_factory.hpp:77] Creating layer inception_5a/output_inception_5a/output_0_split
I0403 15:12:48.282649  2819 net.cpp:91] Creating Layer inception_5a/output_inception_5a/output_0_split
I0403 15:12:48.282665  2819 net.cpp:425] inception_5a/output_inception_5a/output_0_split <- inception_5a/output
I0403 15:12:48.282683  2819 net.cpp:399] inception_5a/output_inception_5a/output_0_split -> inception_5a/output_inception_5a/output_0_split_0
I0403 15:12:48.282703  2819 net.cpp:399] inception_5a/output_inception_5a/output_0_split -> inception_5a/output_inception_5a/output_0_split_1
I0403 15:12:48.282723  2819 net.cpp:399] inception_5a/output_inception_5a/output_0_split -> inception_5a/output_inception_5a/output_0_split_2
I0403 15:12:48.282743  2819 net.cpp:399] inception_5a/output_inception_5a/output_0_split -> inception_5a/output_inception_5a/output_0_split_3
I0403 15:12:48.282857  2819 net.cpp:141] Setting up inception_5a/output_inception_5a/output_0_split
I0403 15:12:48.282881  2819 net.cpp:148] Top shape: 24 832 7 7 (978432)
I0403 15:12:48.282898  2819 net.cpp:148] Top shape: 24 832 7 7 (978432)
I0403 15:12:48.282913  2819 net.cpp:148] Top shape: 24 832 7 7 (978432)
I0403 15:12:48.282928  2819 net.cpp:148] Top shape: 24 832 7 7 (978432)
I0403 15:12:48.282943  2819 net.cpp:156] Memory required for data: 1325241888
I0403 15:12:48.282958  2819 layer_factory.hpp:77] Creating layer inception_5b/1x1
I0403 15:12:48.282979  2819 net.cpp:91] Creating Layer inception_5b/1x1
I0403 15:12:48.282997  2819 net.cpp:425] inception_5b/1x1 <- inception_5a/output_inception_5a/output_0_split_0
I0403 15:12:48.283018  2819 net.cpp:399] inception_5b/1x1 -> inception_5b/1x1
I0403 15:12:48.286842  2819 net.cpp:141] Setting up inception_5b/1x1
I0403 15:12:48.286872  2819 net.cpp:148] Top shape: 24 384 7 7 (451584)
I0403 15:12:48.286888  2819 net.cpp:156] Memory required for data: 1327048224
I0403 15:12:48.286907  2819 layer_factory.hpp:77] Creating layer inception_5b/relu_1x1
I0403 15:12:48.286928  2819 net.cpp:91] Creating Layer inception_5b/relu_1x1
I0403 15:12:48.286947  2819 net.cpp:425] inception_5b/relu_1x1 <- inception_5b/1x1
I0403 15:12:48.286964  2819 net.cpp:386] inception_5b/relu_1x1 -> inception_5b/1x1 (in-place)
I0403 15:12:48.287284  2819 net.cpp:141] Setting up inception_5b/relu_1x1
I0403 15:12:48.287310  2819 net.cpp:148] Top shape: 24 384 7 7 (451584)
I0403 15:12:48.287327  2819 net.cpp:156] Memory required for data: 1328854560
I0403 15:12:48.287341  2819 layer_factory.hpp:77] Creating layer inception_5b/3x3_reduce
I0403 15:12:48.287366  2819 net.cpp:91] Creating Layer inception_5b/3x3_reduce
I0403 15:12:48.287384  2819 net.cpp:425] inception_5b/3x3_reduce <- inception_5a/output_inception_5a/output_0_split_1
I0403 15:12:48.287405  2819 net.cpp:399] inception_5b/3x3_reduce -> inception_5b/3x3_reduce
I0403 15:12:48.290171  2819 net.cpp:141] Setting up inception_5b/3x3_reduce
I0403 15:12:48.290210  2819 net.cpp:148] Top shape: 24 192 7 7 (225792)
I0403 15:12:48.290228  2819 net.cpp:156] Memory required for data: 1329757728
I0403 15:12:48.290248  2819 layer_factory.hpp:77] Creating layer inception_5b/relu_3x3_reduce
I0403 15:12:48.290267  2819 net.cpp:91] Creating Layer inception_5b/relu_3x3_reduce
I0403 15:12:48.290284  2819 net.cpp:425] inception_5b/relu_3x3_reduce <- inception_5b/3x3_reduce
I0403 15:12:48.290302  2819 net.cpp:386] inception_5b/relu_3x3_reduce -> inception_5b/3x3_reduce (in-place)
I0403 15:12:48.290503  2819 net.cpp:141] Setting up inception_5b/relu_3x3_reduce
I0403 15:12:48.290529  2819 net.cpp:148] Top shape: 24 192 7 7 (225792)
I0403 15:12:48.290544  2819 net.cpp:156] Memory required for data: 1330660896
I0403 15:12:48.290560  2819 layer_factory.hpp:77] Creating layer inception_5b/3x3
I0403 15:12:48.290582  2819 net.cpp:91] Creating Layer inception_5b/3x3
I0403 15:12:48.290601  2819 net.cpp:425] inception_5b/3x3 <- inception_5b/3x3_reduce
I0403 15:12:48.290624  2819 net.cpp:399] inception_5b/3x3 -> inception_5b/3x3
I0403 15:12:48.297629  2819 net.cpp:141] Setting up inception_5b/3x3
I0403 15:12:48.297664  2819 net.cpp:148] Top shape: 24 384 7 7 (451584)
I0403 15:12:48.297683  2819 net.cpp:156] Memory required for data: 1332467232
I0403 15:12:48.297703  2819 layer_factory.hpp:77] Creating layer inception_5b/relu_3x3
I0403 15:12:48.297722  2819 net.cpp:91] Creating Layer inception_5b/relu_3x3
I0403 15:12:48.297739  2819 net.cpp:425] inception_5b/relu_3x3 <- inception_5b/3x3
I0403 15:12:48.297757  2819 net.cpp:386] inception_5b/relu_3x3 -> inception_5b/3x3 (in-place)
I0403 15:12:48.298070  2819 net.cpp:141] Setting up inception_5b/relu_3x3
I0403 15:12:48.298099  2819 net.cpp:148] Top shape: 24 384 7 7 (451584)
I0403 15:12:48.298116  2819 net.cpp:156] Memory required for data: 1334273568
I0403 15:12:48.298132  2819 layer_factory.hpp:77] Creating layer inception_5b/5x5_reduce
I0403 15:12:48.298173  2819 net.cpp:91] Creating Layer inception_5b/5x5_reduce
I0403 15:12:48.298199  2819 net.cpp:425] inception_5b/5x5_reduce <- inception_5a/output_inception_5a/output_0_split_2
I0403 15:12:48.298221  2819 net.cpp:399] inception_5b/5x5_reduce -> inception_5b/5x5_reduce
I0403 15:12:48.299556  2819 net.cpp:141] Setting up inception_5b/5x5_reduce
I0403 15:12:48.299587  2819 net.cpp:148] Top shape: 24 48 7 7 (56448)
I0403 15:12:48.299604  2819 net.cpp:156] Memory required for data: 1334499360
I0403 15:12:48.299623  2819 layer_factory.hpp:77] Creating layer inception_5b/relu_5x5_reduce
I0403 15:12:48.299643  2819 net.cpp:91] Creating Layer inception_5b/relu_5x5_reduce
I0403 15:12:48.299660  2819 net.cpp:425] inception_5b/relu_5x5_reduce <- inception_5b/5x5_reduce
I0403 15:12:48.299680  2819 net.cpp:386] inception_5b/relu_5x5_reduce -> inception_5b/5x5_reduce (in-place)
I0403 15:12:48.300073  2819 net.cpp:141] Setting up inception_5b/relu_5x5_reduce
I0403 15:12:48.300101  2819 net.cpp:148] Top shape: 24 48 7 7 (56448)
I0403 15:12:48.300117  2819 net.cpp:156] Memory required for data: 1334725152
I0403 15:12:48.300132  2819 layer_factory.hpp:77] Creating layer inception_5b/5x5
I0403 15:12:48.300153  2819 net.cpp:91] Creating Layer inception_5b/5x5
I0403 15:12:48.300170  2819 net.cpp:425] inception_5b/5x5 <- inception_5b/5x5_reduce
I0403 15:12:48.300199  2819 net.cpp:399] inception_5b/5x5 -> inception_5b/5x5
I0403 15:12:48.302363  2819 net.cpp:141] Setting up inception_5b/5x5
I0403 15:12:48.302392  2819 net.cpp:148] Top shape: 24 128 7 7 (150528)
I0403 15:12:48.302408  2819 net.cpp:156] Memory required for data: 1335327264
I0403 15:12:48.302428  2819 layer_factory.hpp:77] Creating layer inception_5b/relu_5x5
I0403 15:12:48.302448  2819 net.cpp:91] Creating Layer inception_5b/relu_5x5
I0403 15:12:48.302465  2819 net.cpp:425] inception_5b/relu_5x5 <- inception_5b/5x5
I0403 15:12:48.302486  2819 net.cpp:386] inception_5b/relu_5x5 -> inception_5b/5x5 (in-place)
I0403 15:12:48.302688  2819 net.cpp:141] Setting up inception_5b/relu_5x5
I0403 15:12:48.302714  2819 net.cpp:148] Top shape: 24 128 7 7 (150528)
I0403 15:12:48.302729  2819 net.cpp:156] Memory required for data: 1335929376
I0403 15:12:48.302745  2819 layer_factory.hpp:77] Creating layer inception_5b/pool
I0403 15:12:48.302767  2819 net.cpp:91] Creating Layer inception_5b/pool
I0403 15:12:48.302785  2819 net.cpp:425] inception_5b/pool <- inception_5a/output_inception_5a/output_0_split_3
I0403 15:12:48.302804  2819 net.cpp:399] inception_5b/pool -> inception_5b/pool
I0403 15:12:48.302882  2819 net.cpp:141] Setting up inception_5b/pool
I0403 15:12:48.302907  2819 net.cpp:148] Top shape: 24 832 7 7 (978432)
I0403 15:12:48.302923  2819 net.cpp:156] Memory required for data: 1339843104
I0403 15:12:48.302937  2819 layer_factory.hpp:77] Creating layer inception_5b/pool_proj
I0403 15:12:48.302960  2819 net.cpp:91] Creating Layer inception_5b/pool_proj
I0403 15:12:48.302978  2819 net.cpp:425] inception_5b/pool_proj <- inception_5b/pool
I0403 15:12:48.303000  2819 net.cpp:399] inception_5b/pool_proj -> inception_5b/pool_proj
I0403 15:12:48.305420  2819 net.cpp:141] Setting up inception_5b/pool_proj
I0403 15:12:48.305454  2819 net.cpp:148] Top shape: 24 128 7 7 (150528)
I0403 15:12:48.305470  2819 net.cpp:156] Memory required for data: 1340445216
I0403 15:12:48.305490  2819 layer_factory.hpp:77] Creating layer inception_5b/relu_pool_proj
I0403 15:12:48.305510  2819 net.cpp:91] Creating Layer inception_5b/relu_pool_proj
I0403 15:12:48.305526  2819 net.cpp:425] inception_5b/relu_pool_proj <- inception_5b/pool_proj
I0403 15:12:48.305546  2819 net.cpp:386] inception_5b/relu_pool_proj -> inception_5b/pool_proj (in-place)
I0403 15:12:48.305853  2819 net.cpp:141] Setting up inception_5b/relu_pool_proj
I0403 15:12:48.305883  2819 net.cpp:148] Top shape: 24 128 7 7 (150528)
I0403 15:12:48.305901  2819 net.cpp:156] Memory required for data: 1341047328
I0403 15:12:48.305917  2819 layer_factory.hpp:77] Creating layer inception_5b/output
I0403 15:12:48.305935  2819 net.cpp:91] Creating Layer inception_5b/output
I0403 15:12:48.305968  2819 net.cpp:425] inception_5b/output <- inception_5b/1x1
I0403 15:12:48.305986  2819 net.cpp:425] inception_5b/output <- inception_5b/3x3
I0403 15:12:48.306005  2819 net.cpp:425] inception_5b/output <- inception_5b/5x5
I0403 15:12:48.306020  2819 net.cpp:425] inception_5b/output <- inception_5b/pool_proj
I0403 15:12:48.306041  2819 net.cpp:399] inception_5b/output -> inception_5b/output
I0403 15:12:48.306094  2819 net.cpp:141] Setting up inception_5b/output
I0403 15:12:48.306119  2819 net.cpp:148] Top shape: 24 1024 7 7 (1204224)
I0403 15:12:48.306134  2819 net.cpp:156] Memory required for data: 1345864224
I0403 15:12:48.306149  2819 layer_factory.hpp:77] Creating layer pool5/7x7_s1
I0403 15:12:48.306172  2819 net.cpp:91] Creating Layer pool5/7x7_s1
I0403 15:12:48.306213  2819 net.cpp:425] pool5/7x7_s1 <- inception_5b/output
I0403 15:12:48.306234  2819 net.cpp:399] pool5/7x7_s1 -> pool5/7x7_s1
I0403 15:12:48.306466  2819 net.cpp:141] Setting up pool5/7x7_s1
I0403 15:12:48.306496  2819 net.cpp:148] Top shape: 24 1024 1 1 (24576)
I0403 15:12:48.306514  2819 net.cpp:156] Memory required for data: 1345962528
I0403 15:12:48.306529  2819 layer_factory.hpp:77] Creating layer pool5/drop_7x7_s1
I0403 15:12:48.306548  2819 net.cpp:91] Creating Layer pool5/drop_7x7_s1
I0403 15:12:48.306565  2819 net.cpp:425] pool5/drop_7x7_s1 <- pool5/7x7_s1
I0403 15:12:48.306586  2819 net.cpp:386] pool5/drop_7x7_s1 -> pool5/7x7_s1 (in-place)
I0403 15:12:48.306639  2819 net.cpp:141] Setting up pool5/drop_7x7_s1
I0403 15:12:48.306666  2819 net.cpp:148] Top shape: 24 1024 1 1 (24576)
I0403 15:12:48.306681  2819 net.cpp:156] Memory required for data: 1346060832
I0403 15:12:48.306697  2819 layer_factory.hpp:77] Creating layer loss3/classifier_plantvillage
I0403 15:12:48.306720  2819 net.cpp:91] Creating Layer loss3/classifier_plantvillage
I0403 15:12:48.306738  2819 net.cpp:425] loss3/classifier_plantvillage <- pool5/7x7_s1
I0403 15:12:48.306761  2819 net.cpp:399] loss3/classifier_plantvillage -> loss3/classifier_plantvillage
I0403 15:12:48.307225  2819 net.cpp:141] Setting up loss3/classifier_plantvillage
I0403 15:12:48.307251  2819 net.cpp:148] Top shape: 24 38 (912)
I0403 15:12:48.307267  2819 net.cpp:156] Memory required for data: 1346064480
I0403 15:12:48.307287  2819 layer_factory.hpp:77] Creating layer loss3/classifier_plantvillage_loss3/classifier_plantvillage_0_split
I0403 15:12:48.307312  2819 net.cpp:91] Creating Layer loss3/classifier_plantvillage_loss3/classifier_plantvillage_0_split
I0403 15:12:48.307330  2819 net.cpp:425] loss3/classifier_plantvillage_loss3/classifier_plantvillage_0_split <- loss3/classifier_plantvillage
I0403 15:12:48.307349  2819 net.cpp:399] loss3/classifier_plantvillage_loss3/classifier_plantvillage_0_split -> loss3/classifier_plantvillage_loss3/classifier_plantvillage_0_split_0
I0403 15:12:48.307371  2819 net.cpp:399] loss3/classifier_plantvillage_loss3/classifier_plantvillage_0_split -> loss3/classifier_plantvillage_loss3/classifier_plantvillage_0_split_1
I0403 15:12:48.307394  2819 net.cpp:399] loss3/classifier_plantvillage_loss3/classifier_plantvillage_0_split -> loss3/classifier_plantvillage_loss3/classifier_plantvillage_0_split_2
I0403 15:12:48.307415  2819 net.cpp:399] loss3/classifier_plantvillage_loss3/classifier_plantvillage_0_split -> loss3/classifier_plantvillage_loss3/classifier_plantvillage_0_split_3
I0403 15:12:48.307523  2819 net.cpp:141] Setting up loss3/classifier_plantvillage_loss3/classifier_plantvillage_0_split
I0403 15:12:48.307548  2819 net.cpp:148] Top shape: 24 38 (912)
I0403 15:12:48.307565  2819 net.cpp:148] Top shape: 24 38 (912)
I0403 15:12:48.307582  2819 net.cpp:148] Top shape: 24 38 (912)
I0403 15:12:48.307600  2819 net.cpp:148] Top shape: 24 38 (912)
I0403 15:12:48.307615  2819 net.cpp:156] Memory required for data: 1346079072
I0403 15:12:48.307631  2819 layer_factory.hpp:77] Creating layer loss1/loss
I0403 15:12:48.307652  2819 net.cpp:91] Creating Layer loss1/loss
I0403 15:12:48.307670  2819 net.cpp:425] loss1/loss <- loss1/classifier_plantvillage_loss1/classifier_plantvillage_0_split_0
I0403 15:12:48.307703  2819 net.cpp:425] loss1/loss <- label_data_1_split_0
…
