…
I0403 15:43:49.310566  3414 net.cpp:313] The NetState phase (1) differed from the phase (0) specified by a rule in layer data
I0403 15:43:49.311687  3414 net.cpp:49] Initializing net from parameters: 
state {
  phase: TEST
}
layer {
  name: "data"
  type: "Data"
  top: "data"
  top: "label"
  include {
    phase: TEST
  }
  transform_param {
    mirror: false
    crop_size: 224
    mean_file: "/home/mohanty/data/final_dataset/lmdb/segmented-60-40/mean.binaryproto"
  }
  data_param {
    source: "/home/mohanty/data/final_dataset/lmdb/segmented-60-40/test_db"
    batch_size: 24
    backend: LMDB
  }
}
layer {
  name: "conv1/7x7_s2"
  type: "Convolution"
  bottom: "data"
  top: "conv1/7x7_s2"
  param {
    lr_mult: 1
    decay_mult: 1
  }
  param {
    lr_mult: 2
    decay_mult: 0
  }
  convolution_param {
    num_output: 64
    pad: 3
    kernel_size: 7
    stride: 2
    weight_filler {
      type: "xavier"
      std: 0.1
    }
    bias_filler {
      type: "constant"
      value: 0.2
    }
  }
}
layer {
  name: "conv1/relu_7x7"
  type: "ReLU"
  bottom: "conv1/7x7_s2"
  top: "conv1/7x7_s2"
}
layer {
  name: "pool1/3x3_s2"
  type: "Pooling"
  bottom: "conv1/7x7_s2"
  top: "pool1/3x3_s2"
  pooling_param {
    pool: MAX
    kernel_size: 3
    stride: 2
  }
}
layer {
  name: "pool1/norm1"
  type: "LRN"
  bottom: "pool1/3x3_s2"
  top: "pool1/norm1"
  lrn_param {
    local_size: 5
    alpha: 0.0001
    beta: 0.75
  }
}
layer {
  name: "conv2/3x3_reduce"
  type: "Convolution"
  bottom: "pool1/norm1"
  top: "conv2/3x3_reduce"
  param {
    lr_mult: 1
    decay_mult: 1
  }
  param {
    lr_mult: 2
    decay_mult: 0
  }
  convolution_param {
    num_output: 64
    kernel_size: 1
    weight_filler {
      type: "xavier"
      std: 0.1
    }
    bias_filler {
      type: "constant"
      value: 0.2
    }
  }
}
layer {
  name: "conv2/relu_3x3_reduce"
  type: "ReLU"
  bottom: "conv2/3x3_reduce"
  top: "conv2/3x3_reduce"
}
layer {
  name: "conv2/3x3"
  type: "Convolution"
  bottom: "conv2/3x3_reduce"
  top: "conv2/3x3"
  param {
    lr_mult: 1
    decay_mult: 1
  }
  param {
    lr_mult: 2
    decay_mult: 0
  }
  convolution_param {
    num_output: 192
    pad: 1
    kernel_size: 3
    weight_filler {
      type: "xavier"
      std: 0.03
    }
    bias_filler {
      type: "constant"
      value: 0.2
    }
  }
}
layer {
  name: "conv2/relu_3x3"
  type: "ReLU"
  bottom: "conv2/3x3"
  top: "conv2/3x3"
}
layer {
  name: "conv2/norm2"
  type: "LRN"
  bottom: "conv2/3x3"
  top: "conv2/norm2"
  lrn_param {
    local_size: 5
    alpha: 0.0001
    beta: 0.75
  }
}
layer {
  name: "pool2/3x3_s2"
  type: "Pooling"
  bottom: "conv2/norm2"
  top: "pool2/3x3_s2"
  pooling_param {
    pool: MAX
    kernel_size: 3
    stride: 2
  }
}
layer {
  name: "inception_3a/1x1"
  type: "Convolution"
  bottom: "pool2/3x3_s2"
  top: "inception_3a/1x1"
  param {
    lr_mult: 1
    decay_mult: 1
  }
  param {
    lr_mult: 2
    decay_mult: 0
  }
  convolution_param {
    num_output: 64
    kernel_size: 1
    weight_filler {
      type: "xavier"
      std: 0.03
    }
    bias_filler {
      type: "constant"
      value: 0.2
    }
  }
}
layer {
  name: "inception_3a/relu_1x1"
  type: "ReLU"
  bottom: "inception_3a/1x1"
  top: "inception_3a/1x1"
}
layer {
  name: "inception_3a/3x3_reduce"
  type: "Convolution"
  bottom: "pool2/3x3_s2"
  top: "inception_3a/3x3_reduce"
  param {
    lr_mult: 1
    decay_mult: 1
  }
  param {
    lr_mult: 2
    decay_mult: 0
  }
  convolution_param {
    num_output: 96
    kernel_size: 1
    weight_filler {
      type: "xavier"
      std: 0.09
    }
    bias_filler {
      type: "constant"
      value: 0.2
    }
  }
}
layer {
  name: "inception_3a/relu_3x3_reduce"
  type: "ReLU"
  bottom: "inception_3a/3x3_reduce"
  top: "inception_3a/3x3_reduce"
}
layer {
  name: "inception_3a/3x3"
  type: "Convolution"
  bottom: "inception_3a/3x3_reduce"
  top: "inception_3a/3x3"
  param {
    lr_mult: 1
    decay_mult: 1
  }
  param {
    lr_mult: 2
    decay_mult: 0
  }
  convolution_param {
    num_output: 128
    pad: 1
    kernel_size: 3
    weight_filler {
      type: "xavier"
      std: 0.03
    }
    bias_filler {
      type: "constant"
      value: 0.2
    }
  }
}
layer {
  name: "inception_3a/relu_3x3"
  type: "ReLU"
  bottom: "inception_3a/3x3"
  top: "inception_3a/3x3"
}
layer {
  name: "inception_3a/5x5_reduce"
  type: "Convolution"
  bottom: "pool2/3x3_s2"
  top: "inception_3a/5x5_reduce"
  param {
    lr_mult: 1
    decay_mult: 1
  }
  param {
    lr_mult: 2
    decay_mult: 0
  }
  convolution_param {
    num_output: 16
    kernel_size: 1
    weight_filler {
      type: "xavier"
      std: 0.2
    }
    bias_filler {
      type: "constant"
      value: 0.2
    }
  }
}
layer {
  name: "inception_3a/relu_5x5_reduce"
  type: "ReLU"
  bottom: "inception_3a/5x5_reduce"
  top: "inception_3a/5x5_reduce"
}
layer {
  name: "inception_3a/5x5"
  type: "Convolution"
  bottom: "inception_3a/5x5_reduce"
  top: "inception_3a/5x5"
  param {
    lr_mult: 1
    decay_mult: 1
  }
  param {
    lr_mult: 2
    decay_mult: 0
  }
  convolution_param {
    num_output: 32
    pad: 2
    kernel_size: 5
    weight_filler {
      type: "xavier"
      std: 0.03
    }
    bias_filler {
      type: "constant"
      value: 0.2
    }
  }
}
layer {
  name: "inception_3a/relu_5x5"
  type: "ReLU"
  bottom: "inception_3a/5x5"
  top: "inception_3a/5x5"
}
layer {
  name: "inception_3a/pool"
  type: "Pooling"
  bottom: "pool2/3x3_s2"
  top: "inception_3a/pool"
  pooling_param {
    pool: MAX
    kernel_size: 3
    stride: 1
    pad: 1
  }
}
layer {
  name: "inception_3a/pool_proj"
  type: "Convolution"
  bottom: "inception_3a/pool"
  top: "inception_3a/pool_proj"
  param {
    lr_mult: 1
    decay_mult: 1
  }
  param {
    lr_mult: 2
    decay_mult: 0
  }
  convolution_param {
    num_output: 32
    kernel_size: 1
    weight_filler {
      type: "xavier"
      std: 0.1
    }
    bias_filler {
      type: "constant"
      value: 0.2
    }
  }
}
layer {
  name: "inception_3a/relu_pool_proj"
  type: "ReLU"
  bottom: "inception_3a/pool_proj"
  top: "inception_3a/pool_proj"
}
layer {
  name: "inception_3a/output"
  type: "Concat"
  bottom: "inception_3a/1x1"
  bottom: "inception_3a/3x3"
  bottom: "inception_3a/5x5"
  bottom: "inception_3a/pool_proj"
  top: "inception_3a/output"
}
layer {
  name: "inception_3b/1x1"
  type: "Convolution"
  bottom: "inception_3a/output"
  top: "inception_3b/1x1"
  param {
    lr_mult: 1
    decay_mult: 1
  }
  param {
    lr_mult: 2
    decay_mult: 0
  }
  convolution_param {
    num_output: 128
    kernel_size: 1
    weight_filler {
      type: "xavier"
      std: 0.03
    }
    bias_filler {
      type: "constant"
      value: 0.2
    }
  }
}
layer {
  name: "inception_3b/relu_1x1"
  type: "ReLU"
  bottom: "inception_3b/1x1"
  top: "inception_3b/1x1"
}
layer {
  name: "inception_3b/3x3_reduce"
  type: "Convolution"
  bottom: "inception_3a/output"
  top: "inception_3b/3x3_reduce"
  param {
    lr_mult: 1
    decay_mult: 1
  }
  param {
    lr_mult: 2
    decay_mult: 0
  }
  convolution_param {
    num_output: 128
    kernel_size: 1
    weight_filler {
      type: "xavier"
      std: 0.09
    }
    bias_filler {
      type: "constant"
      value: 0.2
    }
  }
}
layer {
  name: "inception_3b/relu_3x3_reduce"
  type: "ReLU"
  bottom: "inception_3b/3x3_reduce"
  top: "inception_3b/3x3_reduce"
}
layer {
  name: "inception_3b/3x3"
  type: "Convolution"
  bottom: "inception_3b/3x3_reduce"
  top: "inception_3b/3x3"
  param {
    lr_mult: 1
    decay_mult: 1
  }
  param {
    lr_mult: 2
    decay_mult: 0
  }
  convolution_param {
    num_output: 192
    pad: 1
    kernel_size: 3
    weight_filler {
      type: "xavier"
      std: 0.03
    }
    bias_filler {
      type: "constant"
      value: 0.2
    }
  }
}
layer {
  name: "inception_3b/relu_3x3"
  type: "ReLU"
  bottom: "inception_3b/3x3"
  top: "inception_3b/3x3"
}
layer {
  name: "inception_3b/5x5_reduce"
  type: "Convolution"
  bottom: "inception_3a/output"
  top: "inception_3b/5x5_reduce"
  param {
    lr_mult: 1
    decay_mult: 1
  }
  param {
    lr_mult: 2
    decay_mult: 0
  }
  convolution_param {
    num_output: 32
    kernel_size: 1
    weight_filler {
      type: "xavier"
      std: 0.2
    }
    bias_filler {
      type: "constant"
      value: 0.2
    }
  }
}
layer {
  name: "inception_3b/relu_5x5_reduce"
  type: "ReLU"
  bottom: "inception_3b/5x5_reduce"
  top: "inception_3b/5x5_reduce"
}
layer {
  name: "inception_3b/5x5"
  type: "Convolution"
  bottom: "inception_3b/5x5_reduce"
  top: "inception_3b/5x5"
  param {
    lr_mult: 1
    decay_mult: 1
  }
  param {
    lr_mult: 2
    decay_mult: 0
  }
  convolution_param {
    num_output: 96
    pad: 2
    kernel_size: 5
    weight_filler {
      type: "xavier"
      std: 0.03
    }
    bias_filler {
      type: "constant"
      value: 0.2
    }
  }
}
layer {
  name: "inception_3b/relu_5x5"
  type: "ReLU"
  bottom: "inception_3b/5x5"
  top: "inception_3b/5x5"
}
layer {
  name: "inception_3b/pool"
  type: "Pooling"
  bottom: "inception_3a/output"
  top: "inception_3b/pool"
  pooling_param {
    pool: MAX
    kernel_size: 3
    stride: 1
    pad: 1
  }
}
layer {
  name: "inception_3b/pool_proj"
  type: "Convolution"
  bottom: "inception_3b/pool"
  top: "inception_3b/pool_proj"
  param {
    lr_mult: 1
    decay_mult: 1
  }
  param {
    lr_mult: 2
    decay_mult: 0
  }
  convolution_param {
    num_output: 64
    kernel_size: 1
    weight_filler {
      type: "xavier"
      std: 0.1
    }
    bias_filler {
      type: "constant"
      value: 0.2
    }
  }
}
layer {
  name: "inception_3b/relu_pool_proj"
  type: "ReLU"
  bottom: "inception_3b/pool_proj"
  top: "inception_3b/pool_proj"
}
layer {
  name: "inception_3b/output"
  type: "Concat"
  bottom: "inception_3b/1x1"
  bottom: "inception_3b/3x3"
  bottom: "inception_3b/5x5"
  bottom: "inception_3b/pool_proj"
  top: "inception_3b/output"
}
layer {
  name: "pool3/3x3_s2"
  type: "Pooling"
  bottom: "inception_3b/output"
  top: "pool3/3x3_s2"
  pooling_param {
    pool: MAX
    kernel_size: 3
    stride: 2
  }
}
layer {
  name: "inception_4a/1x1"
  type: "Convolution"
  bottom: "pool3/3x3_s2"
  top: "inception_4a/1x1"
  param {
    lr_mult: 1
    decay_mult: 1
  }
  param {
    lr_mult: 2
    decay_mult: 0
  }
  convolution_param {
    num_output: 192
    kernel_size: 1
    weight_filler {
      type: "xavier"
      std: 0.03
    }
    bias_filler {
      type: "constant"
      value: 0.2
    }
  }
}
layer {
  name: "inception_4a/relu_1x1"
  type: "ReLU"
  bottom: "inception_4a/1x1"
  top: "inception_4a/1x1"
}
layer {
  name: "inception_4a/3x3_reduce"
  type: "Convolution"
  bottom: "pool3/3x3_s2"
  top: "inception_4a/3x3_reduce"
  param {
    lr_mult: 1
    decay_mult: 1
  }
  param {
    lr_mult: 2
    decay_mult: 0
  }
  convolution_param {
    num_output: 96
    kernel_size: 1
    weight_filler {
      type: "xavier"
      std: 0.09
    }
    bias_filler {
      type: "constant"
      value: 0.2
    }
  }
}
layer {
  name: "inception_4a/relu_3x3_reduce"
  type: "ReLU"
  bottom: "inception_4a/3x3_reduce"
  top: "inception_4a/3x3_reduce"
}
layer {
  name: "inception_4a/3x3"
  type: "Convolution"
  bottom: "inception_4a/3x3_reduce"
  top: "inception_4a/3x3"
  param {
    lr_mult: 1
    decay_mult: 1
  }
  param {
    lr_mult: 2
    decay_mult: 0
  }
  convolution_param {
    num_output: 208
    pad: 1
    kernel_size: 3
    weight_filler {
      type: "xavier"
      std: 0.03
    }
    bias_filler {
      type: "constant"
      value: 0.2
    }
  }
}
layer {
  name: "inception_4a/relu_3x3"
  type: "ReLU"
  bottom: "inception_4a/3x3"
  top: "inception_4a/3x3"
}
layer {
  name: "inception_4a/5x5_reduce"
  type: "Convolution"
  bottom: "pool3/3x3_s2"
  top: "inception_4a/5x5_reduce"
  param {
    lr_mult: 1
    decay_mult: 1
  }
  param {
    lr_mult: 2
    decay_mult: 0
  }
  convolution_param {
    num_output: 16
    kernel_size: 1
    weight_filler {
      type: "xavier"
      std: 0.2
    }
    bias_filler {
      type: "constant"
      value: 0.2
    }
  }
}
layer {
  name: "inception_4a/relu_5x5_reduce"
  type: "ReLU"
  bottom: "inception_4a/5x5_reduce"
  top: "inception_4a/5x5_reduce"
}
layer {
  name: "inception_4a/5x5"
  type: "Convolution"
  bottom: "inception_4a/5x5_reduce"
  top: "inception_4a/5x5"
  param {
    lr_mult: 1
    decay_mult: 1
  }
  param {
    lr_mult: 2
    decay_mult: 0
  }
  convolution_param {
    num_output: 48
    pad: 2
    kernel_size: 5
    weight_filler {
      type: "xavier"
      std: 0.03
    }
    bias_filler {
      type: "constant"
      value: 0.2
    }
  }
}
layer {
  name: "inception_4a/relu_5x5"
  type: "ReLU"
  bottom: "inception_4a/5x5"
  top: "inception_4a/5x5"
}
layer {
  name: "inception_4a/pool"
  type: "Pooling"
  bottom: "pool3/3x3_s2"
  top: "inception_4a/pool"
  pooling_param {
    pool: MAX
    kernel_size: 3
    stride: 1
    pad: 1
  }
}
layer {
  name: "inception_4a/pool_proj"
  type: "Convolution"
  bottom: "inception_4a/pool"
  top: "inception_4a/pool_proj"
  param {
    lr_mult: 1
    decay_mult: 1
  }
  param {
    lr_mult: 2
    decay_mult: 0
  }
  convolution_param {
    num_output: 64
    kernel_size: 1
    weight_filler {
      type: "xavier"
      std: 0.1
    }
    bias_filler {
      type: "constant"
      value: 0.2
    }
  }
}
layer {
  name: "inception_4a/relu_pool_proj"
  type: "ReLU"
  bottom: "inception_4a/pool_proj"
  top: "inception_4a/pool_proj"
}
layer {
  name: "inception_4a/output"
  type: "Concat"
  bottom: "inception_4a/1x1"
  bottom: "inception_4a/3x3"
  bottom: "inception_4a/5x5"
  bottom: "inception_4a/pool_proj"
  top: "inception_4a/output"
}
layer {
  name: "loss1/ave_pool"
  type: "Pooling"
  bottom: "inception_4a/output"
  top: "loss1/ave_pool"
  pooling_param {
    pool: AVE
    kernel_size: 5
    stride: 3
  }
}
layer {
  name: "loss1/conv"
  type: "Convolution"
  bottom: "loss1/ave_pool"
  top: "loss1/conv"
  param {
    lr_mult: 1
    decay_mult: 1
  }
  param {
    lr_mult: 2
    decay_mult: 0
  }
  convolution_param {
    num_output: 128
    kernel_size: 1
    weight_filler {
      type: "xavier"
      std: 0.08
    }
    bias_filler {
      type: "constant"
      value: 0.2
    }
  }
}
layer {
  name: "loss1/relu_conv"
  type: "ReLU"
  bottom: "loss1/conv"
  top: "loss1/conv"
}
layer {
  name: "loss1/fc"
  type: "InnerProduct"
  bottom: "loss1/conv"
  top: "loss1/fc"
  param {
    lr_mult: 1
    decay_mult: 1
  }
  param {
    lr_mult: 2
    decay_mult: 0
  }
  inner_product_param {
    num_output: 1024
    weight_filler {
      type: "xavier"
      std: 0.02
    }
    bias_filler {
      type: "constant"
      value: 0.2
    }
  }
}
layer {
  name: "loss1/relu_fc"
  type: "ReLU"
  bottom: "loss1/fc"
  top: "loss1/fc"
}
layer {
  name: "loss1/drop_fc"
  type: "Dropout"
  bottom: "loss1/fc"
  top: "loss1/fc"
  dropout_param {
    dropout_ratio: 0.7
  }
}
layer {
  name: "loss1/classifier_plantvillage"
  type: "InnerProduct"
  bottom: "loss1/fc"
  top: "loss1/classifier_plantvillage"
  param {
    lr_mult: 1
    decay_mult: 1
  }
  param {
    lr_mult: 2
    decay_mult: 0
  }
  inner_product_param {
    num_output: 38
    weight_filler {
      type: "xavier"
      std: 0.0009765625
    }
    bias_filler {
      type: "constant"
      value: 0
    }
  }
}
layer {
  name: "inception_4b/1x1"
  type: "Convolution"
  bottom: "inception_4a/output"
  top: "inception_4b/1x1"
  param {
    lr_mult: 1
    decay_mult: 1
  }
  param {
    lr_mult: 2
    decay_mult: 0
  }
  convolution_param {
    num_output: 160
    kernel_size: 1
    weight_filler {
      type: "xavier"
      std: 0.03
    }
    bias_filler {
      type: "constant"
      value: 0.2
    }
  }
}
layer {
  name: "inception_4b/relu_1x1"
  type: "ReLU"
  bottom: "inception_4b/1x1"
  top: "inception_4b/1x1"
}
layer {
  name: "inception_4b/3x3_reduce"
  type: "Convolution"
  bottom: "inception_4a/output"
  top: "inception_4b/3x3_reduce"
  param {
    lr_mult: 1
    decay_mult: 1
  }
  param {
    lr_mult: 2
    decay_mult: 0
  }
  convolution_param {
    num_output: 112
    kernel_size: 1
    weight_filler {
      type: "xavier"
      std: 0.09
    }
    bias_filler {
      type: "constant"
      value: 0.2
    }
  }
}
layer {
  name: "inception_4b/relu_3x3_reduce"
  type: "ReLU"
  bottom: "inception_4b/3x3_reduce"
  top: "inception_4b/3x3_reduce"
}
layer {
  name: "inception_4b/3x3"
  type: "Convolution"
  bottom: "inception_4b/3x3_reduce"
  top: "inception_4b/3x3"
  param {
    lr_mult: 1
    decay_mult: 1
  }
  param {
    lr_mult: 2
    decay_mult: 0
  }
  convolution_param {
    num_output: 224
    pad: 1
    kernel_size: 3
    weight_filler {
      type: "xavier"
      std: 0.03
    }
    bias_filler {
      type: "constant"
      value: 0.2
    }
  }
}
layer {
  name: "inception_4b/relu_3x3"
  type: "ReLU"
  bottom: "inception_4b/3x3"
  top: "inception_4b/3x3"
}
layer {
  name: "inception_4b/5x5_reduce"
  type: "Convolution"
  bottom: "inception_4a/output"
  top: "inception_4b/5x5_reduce"
  param {
    lr_mult: 1
    decay_mult: 1
  }
  param {
    lr_mult: 2
    decay_mult: 0
  }
  convolution_param {
    num_output: 24
    kernel_size: 1
    weight_filler {
      type: "xavier"
      std: 0.2
    }
    bias_filler {
      type: "constant"
      value: 0.2
    }
  }
}
layer {
  name: "inception_4b/relu_5x5_reduce"
  type: "ReLU"
  bottom: "inception_4b/5x5_reduce"
  top: "inception_4b/5x5_reduce"
}
layer {
  name: "inception_4b/5x5"
  type: "Convolution"
  bottom: "inception_4b/5x5_reduce"
  top: "inception_4b/5x5"
  param {
    lr_mult: 1
    decay_mult: 1
  }
  param {
    lr_mult: 2
    decay_mult: 0
  }
  convolution_param {
    num_output: 64
    pad: 2
    kernel_size: 5
    weight_filler {
      type: "xavier"
      std: 0.03
    }
    bias_filler {
      type: "constant"
      value: 0.2
    }
  }
}
layer {
  name: "inception_4b/relu_5x5"
  type: "ReLU"
  bottom: "inception_4b/5x5"
  top: "inception_4b/5x5"
}
layer {
  name: "inception_4b/pool"
  type: "Pooling"
  bottom: "inception_4a/output"
  top: "inception_4b/pool"
  pooling_param {
    pool: MAX
    kernel_size: 3
    stride: 1
    pad: 1
  }
}
layer {
  name: "inception_4b/pool_proj"
  type: "Convolution"
  bottom: "inception_4b/pool"
  top: "inception_4b/pool_proj"
  param {
    lr_mult: 1
    decay_mult: 1
  }
  param {
    lr_mult: 2
    decay_mult: 0
  }
  convolution_param {
    num_output: 64
    kernel_size: 1
    weight_filler {
      type: "xavier"
      std: 0.1
    }
    bias_filler {
      type: "constant"
      value: 0.2
    }
  }
}
layer {
  name: "inception_4b/relu_pool_proj"
  type: "ReLU"
  bottom: "inception_4b/pool_proj"
  top: "inception_4b/pool_proj"
}
layer {
  name: "inception_4b/output"
  type: "Concat"
  bottom: "inception_4b/1x1"
  bottom: "inception_4b/3x3"
  bottom: "inception_4b/5x5"
  bottom: "inception_4b/pool_proj"
  top: "inception_4b/output"
}
layer {
  name: "inception_4c/1x1"
  type: "Convolution"
  bottom: "inception_4b/output"
  top: "inception_4c/1x1"
  param {
    lr_mult: 1
    decay_mult: 1
  }
  param {
    lr_mult: 2
    decay_mult: 0
  }
  convolution_param {
    num_output: 128
    kernel_size: 1
    weight_filler {
      type: "xavier"
      std: 0.03
    }
    bias_filler {
      type: "constant"
      value: 0.2
    }
  }
}
layer {
  name: "inception_4c/relu_1x1"
  type: "ReLU"
  bottom: "inception_4c/1x1"
  top: "inception_4c/1x1"
}
layer {
  name: "inception_4c/3x3_reduce"
  type: "Convolution"
  bottom: "inception_4b/output"
  top: "inception_4c/3x3_reduce"
  param {
    lr_mult: 1
    decay_mult: 1
  }
  param {
    lr_mult: 2
    decay_mult: 0
  }
  convolution_param {
    num_output: 128
    kernel_size: 1
    weight_filler {
      type: "xavier"
      std: 0.09
    }
    bias_filler {
      type: "constant"
      value: 0.2
    }
  }
}
layer {
  name: "inception_4c/relu_3x3_reduce"
  type: "ReLU"
  bottom: "inception_4c/3x3_reduce"
  top: "inception_4c/3x3_reduce"
}
layer {
  name: "inception_4c/3x3"
  type: "Convolution"
  bottom: "inception_4c/3x3_reduce"
  top: "inception_4c/3x3"
  param {
    lr_mult: 1
    decay_mult: 1
  }
  param {
    lr_mult: 2
    decay_mult: 0
  }
  convolution_param {
    num_output: 256
    pad: 1
    kernel_size: 3
    weight_filler {
      type: "xavier"
      std: 0.03
    }
    bias_filler {
      type: "constant"
      value: 0.2
    }
  }
}
layer {
  name: "inception_4c/relu_3x3"
  type: "ReLU"
  bottom: "inception_4c/3x3"
  top: "inception_4c/3x3"
}
layer {
  name: "inception_4c/5x5_reduce"
  type: "Convolution"
  bottom: "inception_4b/output"
  top: "inception_4c/5x5_reduce"
  param {
    lr_mult: 1
    decay_mult: 1
  }
  param {
    lr_mult: 2
    decay_mult: 0
  }
  convolution_param {
    num_output: 24
    kernel_size: 1
    weight_filler {
      type: "xavier"
      std: 0.2
    }
    bias_filler {
      type: "constant"
      value: 0.2
    }
  }
}
layer {
  name: "inception_4c/relu_5x5_reduce"
  type: "ReLU"
  bottom: "inception_4c/5x5_reduce"
  top: "inception_4c/5x5_reduce"
}
layer {
  name: "inception_4c/5x5"
  type: "Convolution"
  bottom: "inception_4c/5x5_reduce"
  top: "inception_4c/5x5"
  param {
    lr_mult: 1
    decay_mult: 1
  }
  param {
    lr_mult: 2
    decay_mult: 0
  }
  convolution_param {
    num_output: 64
    pad: 2
    kernel_size: 5
    weight_filler {
      type: "xavier"
      std: 0.03
    }
    bias_filler {
      type: "constant"
      value: 0.2
    }
  }
}
layer {
  name: "inception_4c/relu_5x5"
  type: "ReLU"
  bottom: "inception_4c/5x5"
  top: "inception_4c/5x5"
}
layer {
  name: "inception_4c/pool"
  type: "Pooling"
  bottom: "inception_4b/output"
  top: "inception_4c/pool"
  pooling_param {
    pool: MAX
    kernel_size: 3
    stride: 1
    pad: 1
  }
}
layer {
  name: "inception_4c/pool_proj"
  type: "Convolution"
  bottom: "inception_4c/pool"
  top: "inception_4c/pool_proj"
  param {
    lr_mult: 1
    decay_mult: 1
  }
  param {
    lr_mult: 2
    decay_mult: 0
  }
  convolution_param {
    num_output: 64
    kernel_size: 1
    weight_filler {
      type: "xavier"
      std: 0.1
    }
    bias_filler {
      type: "constant"
      value: 0.2
    }
  }
}
layer {
  name: "inception_4c/relu_pool_proj"
  type: "ReLU"
  bottom: "inception_4c/pool_proj"
  top: "inception_4c/pool_proj"
}
layer {
  name: "inception_4c/output"
  type: "Concat"
  bottom: "inception_4c/1x1"
  bottom: "inception_4c/3x3"
  bottom: "inception_4c/5x5"
  bottom: "inception_4c/pool_proj"
  top: "inception_4c/output"
}
layer {
  name: "inception_4d/1x1"
  type: "Convolution"
  bottom: "inception_4c/output"
  top: "inception_4d/1x1"
  param {
    lr_mult: 1
    decay_mult: 1
  }
  param {
    lr_mult: 2
    decay_mult: 0
  }
  convolution_param {
    num_output: 112
    kernel_size: 1
    weight_filler {
      type: "xavier"
      std: 0.03
    }
    bias_filler {
      type: "constant"
      value: 0.2
    }
  }
}
layer {
  name: "inception_4d/relu_1x1"
  type: "ReLU"
  bottom: "inception_4d/1x1"
  top: "inception_4d/1x1"
}
layer {
  name: "inception_4d/3x3_reduce"
  type: "Convolution"
  bottom: "inception_4c/output"
  top: "inception_4d/3x3_reduce"
  param {
    lr_mult: 1
    decay_mult: 1
  }
  param {
    lr_mult: 2
    decay_mult: 0
  }
  convolution_param {
    num_output: 144
    kernel_size: 1
    weight_filler {
      type: "xavier"
      std: 0.09
    }
    bias_filler {
      type: "constant"
      value: 0.2
    }
  }
}
layer {
  name: "inception_4d/relu_3x3_reduce"
  type: "ReLU"
  bottom: "inception_4d/3x3_reduce"
  top: "inception_4d/3x3_reduce"
}
layer {
  name: "inception_4d/3x3"
  type: "Convolution"
  bottom: "inception_4d/3x3_reduce"
  top: "inception_4d/3x3"
  param {
    lr_mult: 1
    decay_mult: 1
  }
  param {
    lr_mult: 2
    decay_mult: 0
  }
  convolution_param {
    num_output: 288
    pad: 1
    kernel_size: 3
    weight_filler {
      type: "xavier"
      std: 0.03
    }
    bias_filler {
      type: "constant"
      value: 0.2
    }
  }
}
layer {
  name: "inception_4d/relu_3x3"
  type: "ReLU"
  bottom: "inception_4d/3x3"
  top: "inception_4d/3x3"
}
layer {
  name: "inception_4d/5x5_reduce"
  type: "Convolution"
  bottom: "inception_4c/output"
  top: "inception_4d/5x5_reduce"
  param {
    lr_mult: 1
    decay_mult: 1
  }
  param {
    lr_mult: 2
    decay_mult: 0
  }
  convolution_param {
    num_output: 32
    kernel_size: 1
    weight_filler {
      type: "xavier"
      std: 0.2
    }
    bias_filler {
      type: "constant"
      value: 0.2
    }
  }
}
layer {
  name: "inception_4d/relu_5x5_reduce"
  type: "ReLU"
  bottom: "inception_4d/5x5_reduce"
  top: "inception_4d/5x5_reduce"
}
layer {
  name: "inception_4d/5x5"
  type: "Convolution"
  bottom: "inception_4d/5x5_reduce"
  top: "inception_4d/5x5"
  param {
    lr_mult: 1
    decay_mult: 1
  }
  param {
    lr_mult: 2
    decay_mult: 0
  }
  convolution_param {
    num_output: 64
    pad: 2
    kernel_size: 5
    weight_filler {
      type: "xavier"
      std: 0.03
    }
    bias_filler {
      type: "constant"
      value: 0.2
    }
  }
}
layer {
  name: "inception_4d/relu_5x5"
  type: "ReLU"
  bottom: "inception_4d/5x5"
  top: "inception_4d/5x5"
}
layer {
  name: "inception_4d/pool"
  type: "Pooling"
  bottom: "inception_4c/output"
  top: "inception_4d/pool"
  pooling_param {
    pool: MAX
    kernel_size: 3
    stride: 1
    pad: 1
  }
}
layer {
  name: "inception_4d/pool_proj"
  type: "Convolution"
  bottom: "inception_4d/pool"
  top: "inception_4d/pool_proj"
  param {
    lr_mult: 1
    decay_mult: 1
  }
  param {
    lr_mult: 2
    decay_mult: 0
  }
  convolution_param {
    num_output: 64
    kernel_size: 1
    weight_filler {
      type: "xavier"
      std: 0.1
    }
    bias_filler {
      type: "constant"
      value: 0.2
    }
  }
}
layer {
  name: "inception_4d/relu_pool_proj"
  type: "ReLU"
  bottom: "inception_4d/pool_proj"
  top: "inception_4d/pool_proj"
}
layer {
  name: "inception_4d/output"
  type: "Concat"
  bottom: "inception_4d/1x1"
  bottom: "inception_4d/3x3"
  bottom: "inception_4d/5x5"
  bottom: "inception_4d/pool_proj"
  top: "inception_4d/output"
}
layer {
  name: "loss2/ave_pool"
  type: "Pooling"
  bottom: "inception_4d/output"
  top: "loss2/ave_pool"
  pooling_param {
    pool: AVE
    kernel_size: 5
    stride: 3
  }
}
layer {
  name: "loss2/conv"
  type: "Convolution"
  bottom: "loss2/ave_pool"
  top: "loss2/conv"
  param {
    lr_mult: 1
    decay_mult: 1
  }
  param {
    lr_mult: 2
    decay_mult: 0
  }
  convolution_param {
    num_output: 128
    kernel_size: 1
    weight_filler {
      type: "xavier"
      std: 0.08
    }
    bias_filler {
      type: "constant"
      value: 0.2
    }
  }
}
layer {
  name: "loss2/relu_conv"
  type: "ReLU"
  bottom: "loss2/conv"
  top: "loss2/conv"
}
layer {
  name: "loss2/fc"
  type: "InnerProduct"
  bottom: "loss2/conv"
  top: "loss2/fc"
  param {
    lr_mult: 1
    decay_mult: 1
  }
  param {
    lr_mult: 2
    decay_mult: 0
  }
  inner_product_param {
    num_output: 1024
    weight_filler {
      type: "xavier"
      std: 0.02
    }
    bias_filler {
      type: "constant"
      value: 0.2
    }
  }
}
layer {
  name: "loss2/relu_fc"
  type: "ReLU"
  bottom: "loss2/fc"
  top: "loss2/fc"
}
layer {
  name: "loss2/drop_fc"
  type: "Dropout"
  bottom: "loss2/fc"
  top: "loss2/fc"
  dropout_param {
    dropout_ratio: 0.7
  }
}
layer {
  name: "loss2/classifier_plantvillage"
  type: "InnerProduct"
  bottom: "loss2/fc"
  top: "loss2/classifier_plantvillage"
  param {
    lr_mult: 1
    decay_mult: 1
  }
  param {
    lr_mult: 2
    decay_mult: 0
  }
  inner_product_param {
    num_output: 38
    weight_filler {
      type: "xavier"
      std: 0.0009765625
    }
    bias_filler {
      type: "constant"
      value: 0
    }
  }
}
layer {
  name: "inception_4e/1x1"
  type: "Convolution"
  bottom: "inception_4d/output"
  top: "inception_4e/1x1"
  param {
    lr_mult: 1
    decay_mult: 1
  }
  param {
    lr_mult: 2
    decay_mult: 0
  }
  convolution_param {
    num_output: 256
    kernel_size: 1
    weight_filler {
      type: "xavier"
      std: 0.03
    }
    bias_filler {
      type: "constant"
      value: 0.2
    }
  }
}
layer {
  name: "inception_4e/relu_1x1"
  type: "ReLU"
  bottom: "inception_4e/1x1"
  top: "inception_4e/1x1"
}
layer {
  name: "inception_4e/3x3_reduce"
  type: "Convolution"
  bottom: "inception_4d/output"
  top: "inception_4e/3x3_reduce"
  param {
    lr_mult: 1
    decay_mult: 1
  }
  param {
    lr_mult: 2
    decay_mult: 0
  }
  convolution_param {
    num_output: 160
    kernel_size: 1
    weight_filler {
      type: "xavier"
      std: 0.09
    }
    bias_filler {
      type: "constant"
      value: 0.2
    }
  }
}
layer {
  name: "inception_4e/relu_3x3_reduce"
  type: "ReLU"
  bottom: "inception_4e/3x3_reduce"
  top: "inception_4e/3x3_reduce"
}
layer {
  name: "inception_4e/3x3"
  type: "Convolution"
  bottom: "inception_4e/3x3_reduce"
  top: "inception_4e/3x3"
  param {
    lr_mult: 1
    decay_mult: 1
  }
  param {
    lr_mult: 2
    decay_mult: 0
  }
  convolution_param {
    num_output: 320
    pad: 1
    kernel_size: 3
    weight_filler {
      type: "xavier"
      std: 0.03
    }
    bias_filler {
      type: "constant"
      value: 0.2
    }
  }
}
layer {
  name: "inception_4e/relu_3x3"
  type: "ReLU"
  bottom: "inception_4e/3x3"
  top: "inception_4e/3x3"
}
layer {
  name: "inception_4e/5x5_reduce"
  type: "Convolution"
  bottom: "inception_4d/output"
  top: "inception_4e/5x5_reduce"
  param {
    lr_mult: 1
    decay_mult: 1
  }
  param {
    lr_mult: 2
    decay_mult: 0
  }
  convolution_param {
    num_output: 32
    kernel_size: 1
    weight_filler {
      type: "xavier"
      std: 0.2
    }
    bias_filler {
      type: "constant"
      value: 0.2
    }
  }
}
layer {
  name: "inception_4e/relu_5x5_reduce"
  type: "ReLU"
  bottom: "inception_4e/5x5_reduce"
  top: "inception_4e/5x5_reduce"
}
layer {
  name: "inception_4e/5x5"
  type: "Convolution"
  bottom: "inception_4e/5x5_reduce"
  top: "inception_4e/
I0403 15:43:49.312973  3414 layer_factory.hpp:77] Creating layer data
I0403 15:43:49.313575  3414 net.cpp:91] Creating Layer data
I0403 15:43:49.313607  3414 net.cpp:399] data -> data
I0403 15:43:49.313658  3414 net.cpp:399] data -> label
I0403 15:43:49.313694  3414 data_transformer.cpp:25] Loading mean file from: /home/mohanty/data/final_dataset/lmdb/segmented-60-40/mean.binaryproto
I0403 15:43:49.316089  3417 db_lmdb.cpp:38] Opened lmdb /home/mohanty/data/final_dataset/lmdb/segmented-60-40/test_db
I0403 15:43:49.326727  3414 data_layer.cpp:41] output data size: 24,3,224,224
I0403 15:43:49.354415  3414 net.cpp:141] Setting up data
I0403 15:43:49.354508  3414 net.cpp:148] Top shape: 24 3 224 224 (3612672)
I0403 15:43:49.354532  3414 net.cpp:148] Top shape: 24 (24)
I0403 15:43:49.354548  3414 net.cpp:156] Memory required for data: 14450784
I0403 15:43:49.354576  3414 layer_factory.hpp:77] Creating layer label_data_1_split
I0403 15:43:49.354604  3414 net.cpp:91] Creating Layer label_data_1_split
I0403 15:43:49.354621  3414 net.cpp:425] label_data_1_split <- label
I0403 15:43:49.354653  3414 net.cpp:399] label_data_1_split -> label_data_1_split_0
I0403 15:43:49.354681  3414 net.cpp:399] label_data_1_split -> label_data_1_split_1
I0403 15:43:49.354703  3414 net.cpp:399] label_data_1_split -> label_data_1_split_2
I0403 15:43:49.354727  3414 net.cpp:399] label_data_1_split -> label_data_1_split_3
I0403 15:43:49.354748  3414 net.cpp:399] label_data_1_split -> label_data_1_split_4
I0403 15:43:49.354769  3414 net.cpp:399] label_data_1_split -> label_data_1_split_5
I0403 15:43:49.354790  3414 net.cpp:399] label_data_1_split -> label_data_1_split_6
I0403 15:43:49.354812  3414 net.cpp:399] label_data_1_split -> label_data_1_split_7
I0403 15:43:49.354833  3414 net.cpp:399] label_data_1_split -> label_data_1_split_8
I0403 15:43:49.354854  3414 net.cpp:399] label_data_1_split -> label_data_1_split_9
I0403 15:43:49.354974  3414 net.cpp:141] Setting up label_data_1_split
I0403 15:43:49.354997  3414 net.cpp:148] Top shape: 24 (24)
I0403 15:43:49.355016  3414 net.cpp:148] Top shape: 24 (24)
I0403 15:43:49.355032  3414 net.cpp:148] Top shape: 24 (24)
I0403 15:43:49.355049  3414 net.cpp:148] Top shape: 24 (24)
I0403 15:43:49.355065  3414 net.cpp:148] Top shape: 24 (24)
I0403 15:43:49.355082  3414 net.cpp:148] Top shape: 24 (24)
I0403 15:43:49.355098  3414 net.cpp:148] Top shape: 24 (24)
I0403 15:43:49.355114  3414 net.cpp:148] Top shape: 24 (24)
I0403 15:43:49.355131  3414 net.cpp:148] Top shape: 24 (24)
I0403 15:43:49.355149  3414 net.cpp:148] Top shape: 24 (24)
I0403 15:43:49.355192  3414 net.cpp:156] Memory required for data: 14451744
I0403 15:43:49.355213  3414 layer_factory.hpp:77] Creating layer conv1/7x7_s2
I0403 15:43:49.355248  3414 net.cpp:91] Creating Layer conv1/7x7_s2
I0403 15:43:49.355268  3414 net.cpp:425] conv1/7x7_s2 <- data
I0403 15:43:49.355288  3414 net.cpp:399] conv1/7x7_s2 -> conv1/7x7_s2
I0403 15:43:49.496536  3414 net.cpp:141] Setting up conv1/7x7_s2
I0403 15:43:49.496603  3414 net.cpp:148] Top shape: 24 64 112 112 (19267584)
I0403 15:43:49.496621  3414 net.cpp:156] Memory required for data: 91522080
I0403 15:43:49.496654  3414 layer_factory.hpp:77] Creating layer conv1/relu_7x7
I0403 15:43:49.496681  3414 net.cpp:91] Creating Layer conv1/relu_7x7
I0403 15:43:49.496700  3414 net.cpp:425] conv1/relu_7x7 <- conv1/7x7_s2
I0403 15:43:49.496723  3414 net.cpp:386] conv1/relu_7x7 -> conv1/7x7_s2 (in-place)
I0403 15:43:49.497000  3414 net.cpp:141] Setting up conv1/relu_7x7
I0403 15:43:49.497031  3414 net.cpp:148] Top shape: 24 64 112 112 (19267584)
I0403 15:43:49.497047  3414 net.cpp:156] Memory required for data: 168592416
I0403 15:43:49.497064  3414 layer_factory.hpp:77] Creating layer pool1/3x3_s2
I0403 15:43:49.497089  3414 net.cpp:91] Creating Layer pool1/3x3_s2
I0403 15:43:49.497107  3414 net.cpp:425] pool1/3x3_s2 <- conv1/7x7_s2
I0403 15:43:49.497129  3414 net.cpp:399] pool1/3x3_s2 -> pool1/3x3_s2
I0403 15:43:49.497205  3414 net.cpp:141] Setting up pool1/3x3_s2
I0403 15:43:49.497241  3414 net.cpp:148] Top shape: 24 64 56 56 (4816896)
I0403 15:43:49.497257  3414 net.cpp:156] Memory required for data: 187860000
I0403 15:43:49.497272  3414 layer_factory.hpp:77] Creating layer pool1/norm1
I0403 15:43:49.497298  3414 net.cpp:91] Creating Layer pool1/norm1
I0403 15:43:49.497315  3414 net.cpp:425] pool1/norm1 <- pool1/3x3_s2
I0403 15:43:49.497336  3414 net.cpp:399] pool1/norm1 -> pool1/norm1
I0403 15:43:49.497642  3414 net.cpp:141] Setting up pool1/norm1
I0403 15:43:49.497669  3414 net.cpp:148] Top shape: 24 64 56 56 (4816896)
I0403 15:43:49.497686  3414 net.cpp:156] Memory required for data: 207127584
I0403 15:43:49.497702  3414 layer_factory.hpp:77] Creating layer conv2/3x3_reduce
I0403 15:43:49.497730  3414 net.cpp:91] Creating Layer conv2/3x3_reduce
I0403 15:43:49.497747  3414 net.cpp:425] conv2/3x3_reduce <- pool1/norm1
I0403 15:43:49.497769  3414 net.cpp:399] conv2/3x3_reduce -> conv2/3x3_reduce
I0403 15:43:49.499186  3414 net.cpp:141] Setting up conv2/3x3_reduce
I0403 15:43:49.499222  3414 net.cpp:148] Top shape: 24 64 56 56 (4816896)
I0403 15:43:49.499240  3414 net.cpp:156] Memory required for data: 226395168
I0403 15:43:49.499261  3414 layer_factory.hpp:77] Creating layer conv2/relu_3x3_reduce
I0403 15:43:49.499286  3414 net.cpp:91] Creating Layer conv2/relu_3x3_reduce
I0403 15:43:49.499303  3414 net.cpp:425] conv2/relu_3x3_reduce <- conv2/3x3_reduce
I0403 15:43:49.499322  3414 net.cpp:386] conv2/relu_3x3_reduce -> conv2/3x3_reduce (in-place)
I0403 15:43:49.499598  3414 net.cpp:141] Setting up conv2/relu_3x3_reduce
I0403 15:43:49.499625  3414 net.cpp:148] Top shape: 24 64 56 56 (4816896)
I0403 15:43:49.499641  3414 net.cpp:156] Memory required for data: 245662752
I0403 15:43:49.499656  3414 layer_factory.hpp:77] Creating layer conv2/3x3
I0403 15:43:49.499687  3414 net.cpp:91] Creating Layer conv2/3x3
I0403 15:43:49.499706  3414 net.cpp:425] conv2/3x3 <- conv2/3x3_reduce
I0403 15:43:49.499727  3414 net.cpp:399] conv2/3x3 -> conv2/3x3
I0403 15:43:49.502070  3414 net.cpp:141] Setting up conv2/3x3
I0403 15:43:49.502101  3414 net.cpp:148] Top shape: 24 192 56 56 (14450688)
I0403 15:43:49.502118  3414 net.cpp:156] Memory required for data: 303465504
I0403 15:43:49.502140  3414 layer_factory.hpp:77] Creating layer conv2/relu_3x3
I0403 15:43:49.502163  3414 net.cpp:91] Creating Layer conv2/relu_3x3
I0403 15:43:49.502180  3414 net.cpp:425] conv2/relu_3x3 <- conv2/3x3
I0403 15:43:49.502198  3414 net.cpp:386] conv2/relu_3x3 -> conv2/3x3 (in-place)
I0403 15:43:49.502387  3414 net.cpp:141] Setting up conv2/relu_3x3
I0403 15:43:49.502413  3414 net.cpp:148] Top shape: 24 192 56 56 (14450688)
I0403 15:43:49.502459  3414 net.cpp:156] Memory required for data: 361268256
I0403 15:43:49.502485  3414 layer_factory.hpp:77] Creating layer conv2/norm2
I0403 15:43:49.502506  3414 net.cpp:91] Creating Layer conv2/norm2
I0403 15:43:49.502523  3414 net.cpp:425] conv2/norm2 <- conv2/3x3
I0403 15:43:49.502542  3414 net.cpp:399] conv2/norm2 -> conv2/norm2
I0403 15:43:49.502858  3414 net.cpp:141] Setting up conv2/norm2
I0403 15:43:49.502885  3414 net.cpp:148] Top shape: 24 192 56 56 (14450688)
I0403 15:43:49.502902  3414 net.cpp:156] Memory required for data: 419071008
I0403 15:43:49.502918  3414 layer_factory.hpp:77] Creating layer pool2/3x3_s2
I0403 15:43:49.502938  3414 net.cpp:91] Creating Layer pool2/3x3_s2
I0403 15:43:49.502955  3414 net.cpp:425] pool2/3x3_s2 <- conv2/norm2
I0403 15:43:49.502974  3414 net.cpp:399] pool2/3x3_s2 -> pool2/3x3_s2
I0403 15:43:49.503028  3414 net.cpp:141] Setting up pool2/3x3_s2
I0403 15:43:49.503052  3414 net.cpp:148] Top shape: 24 192 28 28 (3612672)
I0403 15:43:49.503067  3414 net.cpp:156] Memory required for data: 433521696
I0403 15:43:49.503083  3414 layer_factory.hpp:77] Creating layer pool2/3x3_s2_pool2/3x3_s2_0_split
I0403 15:43:49.503101  3414 net.cpp:91] Creating Layer pool2/3x3_s2_pool2/3x3_s2_0_split
I0403 15:43:49.503116  3414 net.cpp:425] pool2/3x3_s2_pool2/3x3_s2_0_split <- pool2/3x3_s2
I0403 15:43:49.503137  3414 net.cpp:399] pool2/3x3_s2_pool2/3x3_s2_0_split -> pool2/3x3_s2_pool2/3x3_s2_0_split_0
I0403 15:43:49.503159  3414 net.cpp:399] pool2/3x3_s2_pool2/3x3_s2_0_split -> pool2/3x3_s2_pool2/3x3_s2_0_split_1
I0403 15:43:49.503180  3414 net.cpp:399] pool2/3x3_s2_pool2/3x3_s2_0_split -> pool2/3x3_s2_pool2/3x3_s2_0_split_2
I0403 15:43:49.503201  3414 net.cpp:399] pool2/3x3_s2_pool2/3x3_s2_0_split -> pool2/3x3_s2_pool2/3x3_s2_0_split_3
I0403 15:43:49.503284  3414 net.cpp:141] Setting up pool2/3x3_s2_pool2/3x3_s2_0_split
I0403 15:43:49.503311  3414 net.cpp:148] Top shape: 24 192 28 28 (3612672)
I0403 15:43:49.503330  3414 net.cpp:148] Top shape: 24 192 28 28 (3612672)
I0403 15:43:49.503346  3414 net.cpp:148] Top shape: 24 192 28 28 (3612672)
I0403 15:43:49.503362  3414 net.cpp:148] Top shape: 24 192 28 28 (3612672)
I0403 15:43:49.503377  3414 net.cpp:156] Memory required for data: 491324448
I0403 15:43:49.503392  3414 layer_factory.hpp:77] Creating layer inception_3a/1x1
I0403 15:43:49.503415  3414 net.cpp:91] Creating Layer inception_3a/1x1
I0403 15:43:49.503433  3414 net.cpp:425] inception_3a/1x1 <- pool2/3x3_s2_pool2/3x3_s2_0_split_0
I0403 15:43:49.503453  3414 net.cpp:399] inception_3a/1x1 -> inception_3a/1x1
I0403 15:43:49.505012  3414 net.cpp:141] Setting up inception_3a/1x1
I0403 15:43:49.505043  3414 net.cpp:148] Top shape: 24 64 28 28 (1204224)
I0403 15:43:49.505059  3414 net.cpp:156] Memory required for data: 496141344
I0403 15:43:49.505079  3414 layer_factory.hpp:77] Creating layer inception_3a/relu_1x1
I0403 15:43:49.505100  3414 net.cpp:91] Creating Layer inception_3a/relu_1x1
I0403 15:43:49.505117  3414 net.cpp:425] inception_3a/relu_1x1 <- inception_3a/1x1
I0403 15:43:49.505136  3414 net.cpp:386] inception_3a/relu_1x1 -> inception_3a/1x1 (in-place)
I0403 15:43:49.505319  3414 net.cpp:141] Setting up inception_3a/relu_1x1
I0403 15:43:49.505347  3414 net.cpp:148] Top shape: 24 64 28 28 (1204224)
I0403 15:43:49.505362  3414 net.cpp:156] Memory required for data: 500958240
I0403 15:43:49.505378  3414 layer_factory.hpp:77] Creating layer inception_3a/3x3_reduce
I0403 15:43:49.505404  3414 net.cpp:91] Creating Layer inception_3a/3x3_reduce
I0403 15:43:49.505422  3414 net.cpp:425] inception_3a/3x3_reduce <- pool2/3x3_s2_pool2/3x3_s2_0_split_1
I0403 15:43:49.505442  3414 net.cpp:399] inception_3a/3x3_reduce -> inception_3a/3x3_reduce
I0403 15:43:49.507138  3414 net.cpp:141] Setting up inception_3a/3x3_reduce
I0403 15:43:49.507169  3414 net.cpp:148] Top shape: 24 96 28 28 (1806336)
I0403 15:43:49.507185  3414 net.cpp:156] Memory required for data: 508183584
I0403 15:43:49.507212  3414 layer_factory.hpp:77] Creating layer inception_3a/relu_3x3_reduce
I0403 15:43:49.507251  3414 net.cpp:91] Creating Layer inception_3a/relu_3x3_reduce
I0403 15:43:49.507271  3414 net.cpp:425] inception_3a/relu_3x3_reduce <- inception_3a/3x3_reduce
I0403 15:43:49.507292  3414 net.cpp:386] inception_3a/relu_3x3_reduce -> inception_3a/3x3_reduce (in-place)
I0403 15:43:49.507477  3414 net.cpp:141] Setting up inception_3a/relu_3x3_reduce
I0403 15:43:49.507503  3414 net.cpp:148] Top shape: 24 96 28 28 (1806336)
I0403 15:43:49.507518  3414 net.cpp:156] Memory required for data: 515408928
I0403 15:43:49.507534  3414 layer_factory.hpp:77] Creating layer inception_3a/3x3
I0403 15:43:49.507556  3414 net.cpp:91] Creating Layer inception_3a/3x3
I0403 15:43:49.507575  3414 net.cpp:425] inception_3a/3x3 <- inception_3a/3x3_reduce
I0403 15:43:49.507598  3414 net.cpp:399] inception_3a/3x3 -> inception_3a/3x3
I0403 15:43:49.509268  3414 net.cpp:141] Setting up inception_3a/3x3
I0403 15:43:49.509299  3414 net.cpp:148] Top shape: 24 128 28 28 (2408448)
I0403 15:43:49.509316  3414 net.cpp:156] Memory required for data: 525042720
I0403 15:43:49.509336  3414 layer_factory.hpp:77] Creating layer inception_3a/relu_3x3
I0403 15:43:49.509356  3414 net.cpp:91] Creating Layer inception_3a/relu_3x3
I0403 15:43:49.509371  3414 net.cpp:425] inception_3a/relu_3x3 <- inception_3a/3x3
I0403 15:43:49.509389  3414 net.cpp:386] inception_3a/relu_3x3 -> inception_3a/3x3 (in-place)
I0403 15:43:49.509672  3414 net.cpp:141] Setting up inception_3a/relu_3x3
I0403 15:43:49.509701  3414 net.cpp:148] Top shape: 24 128 28 28 (2408448)
I0403 15:43:49.509718  3414 net.cpp:156] Memory required for data: 534676512
I0403 15:43:49.509733  3414 layer_factory.hpp:77] Creating layer inception_3a/5x5_reduce
I0403 15:43:49.509757  3414 net.cpp:91] Creating Layer inception_3a/5x5_reduce
I0403 15:43:49.509774  3414 net.cpp:425] inception_3a/5x5_reduce <- pool2/3x3_s2_pool2/3x3_s2_0_split_2
I0403 15:43:49.509794  3414 net.cpp:399] inception_3a/5x5_reduce -> inception_3a/5x5_reduce
I0403 15:43:49.510766  3414 net.cpp:141] Setting up inception_3a/5x5_reduce
I0403 15:43:49.510797  3414 net.cpp:148] Top shape: 24 16 28 28 (301056)
I0403 15:43:49.510812  3414 net.cpp:156] Memory required for data: 535880736
I0403 15:43:49.510833  3414 layer_factory.hpp:77] Creating layer inception_3a/relu_5x5_reduce
I0403 15:43:49.510851  3414 net.cpp:91] Creating Layer inception_3a/relu_5x5_reduce
I0403 15:43:49.510867  3414 net.cpp:425] inception_3a/relu_5x5_reduce <- inception_3a/5x5_reduce
I0403 15:43:49.510888  3414 net.cpp:386] inception_3a/relu_5x5_reduce -> inception_3a/5x5_reduce (in-place)
I0403 15:43:49.511188  3414 net.cpp:141] Setting up inception_3a/relu_5x5_reduce
I0403 15:43:49.511219  3414 net.cpp:148] Top shape: 24 16 28 28 (301056)
I0403 15:43:49.511236  3414 net.cpp:156] Memory required for data: 537084960
I0403 15:43:49.511252  3414 layer_factory.hpp:77] Creating layer inception_3a/5x5
I0403 15:43:49.511276  3414 net.cpp:91] Creating Layer inception_3a/5x5
I0403 15:43:49.511294  3414 net.cpp:425] inception_3a/5x5 <- inception_3a/5x5_reduce
I0403 15:43:49.511317  3414 net.cpp:399] inception_3a/5x5 -> inception_3a/5x5
I0403 15:43:49.512351  3414 net.cpp:141] Setting up inception_3a/5x5
I0403 15:43:49.512382  3414 net.cpp:148] Top shape: 24 32 28 28 (602112)
I0403 15:43:49.512399  3414 net.cpp:156] Memory required for data: 539493408
I0403 15:43:49.512418  3414 layer_factory.hpp:77] Creating layer inception_3a/relu_5x5
I0403 15:43:49.512437  3414 net.cpp:91] Creating Layer inception_3a/relu_5x5
I0403 15:43:49.512454  3414 net.cpp:425] inception_3a/relu_5x5 <- inception_3a/5x5
I0403 15:43:49.512472  3414 net.cpp:386] inception_3a/relu_5x5 -> inception_3a/5x5 (in-place)
I0403 15:43:49.512650  3414 net.cpp:141] Setting up inception_3a/relu_5x5
I0403 15:43:49.512677  3414 net.cpp:148] Top shape: 24 32 28 28 (602112)
I0403 15:43:49.512694  3414 net.cpp:156] Memory required for data: 541901856
I0403 15:43:49.512711  3414 layer_factory.hpp:77] Creating layer inception_3a/pool
I0403 15:43:49.512728  3414 net.cpp:91] Creating Layer inception_3a/pool
I0403 15:43:49.512759  3414 net.cpp:425] inception_3a/pool <- pool2/3x3_s2_pool2/3x3_s2_0_split_3
I0403 15:43:49.512783  3414 net.cpp:399] inception_3a/pool -> inception_3a/pool
I0403 15:43:49.512841  3414 net.cpp:141] Setting up inception_3a/pool
I0403 15:43:49.512867  3414 net.cpp:148] Top shape: 24 192 28 28 (3612672)
I0403 15:43:49.512883  3414 net.cpp:156] Memory required for data: 556352544
I0403 15:43:49.512899  3414 layer_factory.hpp:77] Creating layer inception_3a/pool_proj
I0403 15:43:49.512920  3414 net.cpp:91] Creating Layer inception_3a/pool_proj
I0403 15:43:49.512938  3414 net.cpp:425] inception_3a/pool_proj <- inception_3a/pool
I0403 15:43:49.512960  3414 net.cpp:399] inception_3a/pool_proj -> inception_3a/pool_proj
I0403 15:43:49.513936  3414 net.cpp:141] Setting up inception_3a/pool_proj
I0403 15:43:49.513965  3414 net.cpp:148] Top shape: 24 32 28 28 (602112)
I0403 15:43:49.513980  3414 net.cpp:156] Memory required for data: 558760992
I0403 15:43:49.514005  3414 layer_factory.hpp:77] Creating layer inception_3a/relu_pool_proj
I0403 15:43:49.514026  3414 net.cpp:91] Creating Layer inception_3a/relu_pool_proj
I0403 15:43:49.514044  3414 net.cpp:425] inception_3a/relu_pool_proj <- inception_3a/pool_proj
I0403 15:43:49.514065  3414 net.cpp:386] inception_3a/relu_pool_proj -> inception_3a/pool_proj (in-place)
I0403 15:43:49.514344  3414 net.cpp:141] Setting up inception_3a/relu_pool_proj
I0403 15:43:49.514374  3414 net.cpp:148] Top shape: 24 32 28 28 (602112)
I0403 15:43:49.514391  3414 net.cpp:156] Memory required for data: 561169440
I0403 15:43:49.514407  3414 layer_factory.hpp:77] Creating layer inception_3a/output
I0403 15:43:49.514425  3414 net.cpp:91] Creating Layer inception_3a/output
I0403 15:43:49.514442  3414 net.cpp:425] inception_3a/output <- inception_3a/1x1
I0403 15:43:49.514459  3414 net.cpp:425] inception_3a/output <- inception_3a/3x3
I0403 15:43:49.514482  3414 net.cpp:425] inception_3a/output <- inception_3a/5x5
I0403 15:43:49.514498  3414 net.cpp:425] inception_3a/output <- inception_3a/pool_proj
I0403 15:43:49.514516  3414 net.cpp:399] inception_3a/output -> inception_3a/output
I0403 15:43:49.514565  3414 net.cpp:141] Setting up inception_3a/output
I0403 15:43:49.514590  3414 net.cpp:148] Top shape: 24 256 28 28 (4816896)
I0403 15:43:49.514605  3414 net.cpp:156] Memory required for data: 580437024
I0403 15:43:49.514619  3414 layer_factory.hpp:77] Creating layer inception_3a/output_inception_3a/output_0_split
I0403 15:43:49.514639  3414 net.cpp:91] Creating Layer inception_3a/output_inception_3a/output_0_split
I0403 15:43:49.514657  3414 net.cpp:425] inception_3a/output_inception_3a/output_0_split <- inception_3a/output
I0403 15:43:49.514674  3414 net.cpp:399] inception_3a/output_inception_3a/output_0_split -> inception_3a/output_inception_3a/output_0_split_0
I0403 15:43:49.514695  3414 net.cpp:399] inception_3a/output_inception_3a/output_0_split -> inception_3a/output_inception_3a/output_0_split_1
I0403 15:43:49.514721  3414 net.cpp:399] inception_3a/output_inception_3a/output_0_split -> inception_3a/output_inception_3a/output_0_split_2
I0403 15:43:49.514744  3414 net.cpp:399] inception_3a/output_inception_3a/output_0_split -> inception_3a/output_inception_3a/output_0_split_3
I0403 15:43:49.514828  3414 net.cpp:141] Setting up inception_3a/output_inception_3a/output_0_split
I0403 15:43:49.514852  3414 net.cpp:148] Top shape: 24 256 28 28 (4816896)
I0403 15:43:49.514868  3414 net.cpp:148] Top shape: 24 256 28 28 (4816896)
I0403 15:43:49.514885  3414 net.cpp:148] Top shape: 24 256 28 28 (4816896)
I0403 15:43:49.514901  3414 net.cpp:148] Top shape: 24 256 28 28 (4816896)
I0403 15:43:49.514915  3414 net.cpp:156] Memory required for data: 657507360
I0403 15:43:49.514930  3414 layer_factory.hpp:77] Creating layer inception_3b/1x1
I0403 15:43:49.514955  3414 net.cpp:91] Creating Layer inception_3b/1x1
I0403 15:43:49.514973  3414 net.cpp:425] inception_3b/1x1 <- inception_3a/output_inception_3a/output_0_split_0
I0403 15:43:49.514993  3414 net.cpp:399] inception_3b/1x1 -> inception_3b/1x1
I0403 15:43:49.516146  3414 net.cpp:141] Setting up inception_3b/1x1
I0403 15:43:49.516190  3414 net.cpp:148] Top shape: 24 128 28 28 (2408448)
I0403 15:43:49.516206  3414 net.cpp:156] Memory required for data: 667141152
I0403 15:43:49.516232  3414 layer_factory.hpp:77] Creating layer inception_3b/relu_1x1
I0403 15:43:49.516253  3414 net.cpp:91] Creating Layer inception_3b/relu_1x1
I0403 15:43:49.516271  3414 net.cpp:425] inception_3b/relu_1x1 <- inception_3b/1x1
I0403 15:43:49.516289  3414 net.cpp:386] inception_3b/relu_1x1 -> inception_3b/1x1 (in-place)
I0403 15:43:49.516469  3414 net.cpp:141] Setting up inception_3b/relu_1x1
I0403 15:43:49.516497  3414 net.cpp:148] Top shape: 24 128 28 28 (2408448)
I0403 15:43:49.516513  3414 net.cpp:156] Memory required for data: 676774944
I0403 15:43:49.516530  3414 layer_factory.hpp:77] Creating layer inception_3b/3x3_reduce
I0403 15:43:49.516552  3414 net.cpp:91] Creating Layer inception_3b/3x3_reduce
I0403 15:43:49.516571  3414 net.cpp:425] inception_3b/3x3_reduce <- inception_3a/output_inception_3a/output_0_split_1
I0403 15:43:49.516592  3414 net.cpp:399] inception_3b/3x3_reduce -> inception_3b/3x3_reduce
I0403 15:43:49.517753  3414 net.cpp:141] Setting up inception_3b/3x3_reduce
I0403 15:43:49.517781  3414 net.cpp:148] Top shape: 24 128 28 28 (2408448)
I0403 15:43:49.517797  3414 net.cpp:156] Memory required for data: 686408736
I0403 15:43:49.517817  3414 layer_factory.hpp:77] Creating layer inception_3b/relu_3x3_reduce
I0403 15:43:49.517838  3414 net.cpp:91] Creating Layer inception_3b/relu_3x3_reduce
I0403 15:43:49.517856  3414 net.cpp:425] inception_3b/relu_3x3_reduce <- inception_3b/3x3_reduce
I0403 15:43:49.517874  3414 net.cpp:386] inception_3b/relu_3x3_reduce -> inception_3b/3x3_reduce (in-place)
I0403 15:43:49.518049  3414 net.cpp:141] Setting up inception_3b/relu_3x3_reduce
I0403 15:43:49.518077  3414 net.cpp:148] Top shape: 24 128 28 28 (2408448)
I0403 15:43:49.518093  3414 net.cpp:156] Memory required for data: 696042528
I0403 15:43:49.518110  3414 layer_factory.hpp:77] Creating layer inception_3b/3x3
I0403 15:43:49.518134  3414 net.cpp:91] Creating Layer inception_3b/3x3
I0403 15:43:49.518153  3414 net.cpp:425] inception_3b/3x3 <- inception_3b/3x3_reduce
I0403 15:43:49.518174  3414 net.cpp:399] inception_3b/3x3 -> inception_3b/3x3
I0403 15:43:49.521188  3414 net.cpp:141] Setting up inception_3b/3x3
I0403 15:43:49.521226  3414 net.cpp:148] Top shape: 24 192 28 28 (3612672)
I0403 15:43:49.521245  3414 net.cpp:156] Memory required for data: 710493216
I0403 15:43:49.521265  3414 layer_factory.hpp:77] Creating layer inception_3b/relu_3x3
I0403 15:43:49.521286  3414 net.cpp:91] Creating Layer inception_3b/relu_3x3
I0403 15:43:49.521303  3414 net.cpp:425] inception_3b/relu_3x3 <- inception_3b/3x3
I0403 15:43:49.521322  3414 net.cpp:386] inception_3b/relu_3x3 -> inception_3b/3x3 (in-place)
I0403 15:43:49.521610  3414 net.cpp:141] Setting up inception_3b/relu_3x3
I0403 15:43:49.521641  3414 net.cpp:148] Top shape: 24 192 28 28 (3612672)
I0403 15:43:49.521658  3414 net.cpp:156] Memory required for data: 724943904
I0403 15:43:49.521674  3414 layer_factory.hpp:77] Creating layer inception_3b/5x5_reduce
I0403 15:43:49.521699  3414 net.cpp:91] Creating Layer inception_3b/5x5_reduce
I0403 15:43:49.521718  3414 net.cpp:425] inception_3b/5x5_reduce <- inception_3a/output_inception_3a/output_0_split_2
I0403 15:43:49.521739  3414 net.cpp:399] inception_3b/5x5_reduce -> inception_3b/5x5_reduce
I0403 15:43:49.522779  3414 net.cpp:141] Setting up inception_3b/5x5_reduce
I0403 15:43:49.522811  3414 net.cpp:148] Top shape: 24 32 28 28 (602112)
I0403 15:43:49.522830  3414 net.cpp:156] Memory required for data: 727352352
I0403 15:43:49.522850  3414 layer_factory.hpp:77] Creating layer inception_3b/relu_5x5_reduce
I0403 15:43:49.522868  3414 net.cpp:91] Creating Layer inception_3b/relu_5x5_reduce
I0403 15:43:49.522886  3414 net.cpp:425] inception_3b/relu_5x5_reduce <- inception_3b/5x5_reduce
I0403 15:43:49.522904  3414 net.cpp:386] inception_3b/relu_5x5_reduce -> inception_3b/5x5_reduce (in-place)
I0403 15:43:49.523105  3414 net.cpp:141] Setting up inception_3b/relu_5x5_reduce
I0403 15:43:49.523135  3414 net.cpp:148] Top shape: 24 32 28 28 (602112)
I0403 15:43:49.523151  3414 net.cpp:156] Memory required for data: 729760800
I0403 15:43:49.523167  3414 layer_factory.hpp:77] Creating layer inception_3b/5x5
I0403 15:43:49.523193  3414 net.cpp:91] Creating Layer inception_3b/5x5
I0403 15:43:49.523223  3414 net.cpp:425] inception_3b/5x5 <- inception_3b/5x5_reduce
I0403 15:43:49.523250  3414 net.cpp:399] inception_3b/5x5 -> inception_3b/5x5
I0403 15:43:49.525310  3414 net.cpp:141] Setting up inception_3b/5x5
I0403 15:43:49.525341  3414 net.cpp:148] Top shape: 24 96 28 28 (1806336)
I0403 15:43:49.525358  3414 net.cpp:156] Memory required for data: 736986144
I0403 15:43:49.525377  3414 layer_factory.hpp:77] Creating layer inception_3b/relu_5x5
I0403 15:43:49.525399  3414 net.cpp:91] Creating Layer inception_3b/relu_5x5
I0403 15:43:49.525418  3414 net.cpp:425] inception_3b/relu_5x5 <- inception_3b/5x5
I0403 15:43:49.525436  3414 net.cpp:386] inception_3b/relu_5x5 -> inception_3b/5x5 (in-place)
I0403 15:43:49.525638  3414 net.cpp:141] Setting up inception_3b/relu_5x5
I0403 15:43:49.525665  3414 net.cpp:148] Top shape: 24 96 28 28 (1806336)
I0403 15:43:49.525681  3414 net.cpp:156] Memory required for data: 744211488
I0403 15:43:49.525696  3414 layer_factory.hpp:77] Creating layer inception_3b/pool
I0403 15:43:49.525715  3414 net.cpp:91] Creating Layer inception_3b/pool
I0403 15:43:49.525733  3414 net.cpp:425] inception_3b/pool <- inception_3a/output_inception_3a/output_0_split_3
I0403 15:43:49.525753  3414 net.cpp:399] inception_3b/pool -> inception_3b/pool
I0403 15:43:49.525811  3414 net.cpp:141] Setting up inception_3b/pool
I0403 15:43:49.525835  3414 net.cpp:148] Top shape: 24 256 28 28 (4816896)
I0403 15:43:49.525851  3414 net.cpp:156] Memory required for data: 763479072
I0403 15:43:49.525867  3414 layer_factory.hpp:77] Creating layer inception_3b/pool_proj
I0403 15:43:49.525892  3414 net.cpp:91] Creating Layer inception_3b/pool_proj
I0403 15:43:49.525912  3414 net.cpp:425] inception_3b/pool_proj <- inception_3b/pool
I0403 15:43:49.525935  3414 net.cpp:399] inception_3b/pool_proj -> inception_3b/pool_proj
I0403 15:43:49.527043  3414 net.cpp:141] Setting up inception_3b/pool_proj
I0403 15:43:49.527072  3414 net.cpp:148] Top shape: 24 64 28 28 (1204224)
I0403 15:43:49.527089  3414 net.cpp:156] Memory required for data: 768295968
I0403 15:43:49.527108  3414 layer_factory.hpp:77] Creating layer inception_3b/relu_pool_proj
I0403 15:43:49.527128  3414 net.cpp:91] Creating Layer inception_3b/relu_pool_proj
I0403 15:43:49.527146  3414 net.cpp:425] inception_3b/relu_pool_proj <- inception_3b/pool_proj
I0403 15:43:49.527168  3414 net.cpp:386] inception_3b/relu_pool_proj -> inception_3b/pool_proj (in-place)
I0403 15:43:49.527583  3414 net.cpp:141] Setting up inception_3b/relu_pool_proj
I0403 15:43:49.527611  3414 net.cpp:148] Top shape: 24 64 28 28 (1204224)
I0403 15:43:49.527628  3414 net.cpp:156] Memory required for data: 773112864
I0403 15:43:49.527644  3414 layer_factory.hpp:77] Creating layer inception_3b/output
I0403 15:43:49.527662  3414 net.cpp:91] Creating Layer inception_3b/output
I0403 15:43:49.527679  3414 net.cpp:425] inception_3b/output <- inception_3b/1x1
I0403 15:43:49.527698  3414 net.cpp:425] inception_3b/output <- inception_3b/3x3
I0403 15:43:49.527715  3414 net.cpp:425] inception_3b/output <- inception_3b/5x5
I0403 15:43:49.527732  3414 net.cpp:425] inception_3b/output <- inception_3b/pool_proj
I0403 15:43:49.527752  3414 net.cpp:399] inception_3b/output -> inception_3b/output
I0403 15:43:49.527799  3414 net.cpp:141] Setting up inception_3b/output
I0403 15:43:49.527822  3414 net.cpp:148] Top shape: 24 480 28 28 (9031680)
I0403 15:43:49.527842  3414 net.cpp:156] Memory required for data: 809239584
I0403 15:43:49.527858  3414 layer_factory.hpp:77] Creating layer pool3/3x3_s2
I0403 15:43:49.527876  3414 net.cpp:91] Creating Layer pool3/3x3_s2
I0403 15:43:49.527894  3414 net.cpp:425] pool3/3x3_s2 <- inception_3b/output
I0403 15:43:49.527928  3414 net.cpp:399] pool3/3x3_s2 -> pool3/3x3_s2
I0403 15:43:49.527992  3414 net.cpp:141] Setting up pool3/3x3_s2
I0403 15:43:49.528017  3414 net.cpp:148] Top shape: 24 480 14 14 (2257920)
I0403 15:43:49.528033  3414 net.cpp:156] Memory required for data: 818271264
I0403 15:43:49.528048  3414 layer_factory.hpp:77] Creating layer pool3/3x3_s2_pool3/3x3_s2_0_split
I0403 15:43:49.528066  3414 net.cpp:91] Creating Layer pool3/3x3_s2_pool3/3x3_s2_0_split
I0403 15:43:49.528084  3414 net.cpp:425] pool3/3x3_s2_pool3/3x3_s2_0_split <- pool3/3x3_s2
I0403 15:43:49.528103  3414 net.cpp:399] pool3/3x3_s2_pool3/3x3_s2_0_split -> pool3/3x3_s2_pool3/3x3_s2_0_split_0
I0403 15:43:49.528126  3414 net.cpp:399] pool3/3x3_s2_pool3/3x3_s2_0_split -> pool3/3x3_s2_pool3/3x3_s2_0_split_1
I0403 15:43:49.528147  3414 net.cpp:399] pool3/3x3_s2_pool3/3x3_s2_0_split -> pool3/3x3_s2_pool3/3x3_s2_0_split_2
I0403 15:43:49.528169  3414 net.cpp:399] pool3/3x3_s2_pool3/3x3_s2_0_split -> pool3/3x3_s2_pool3/3x3_s2_0_split_3
I0403 15:43:49.528257  3414 net.cpp:141] Setting up pool3/3x3_s2_pool3/3x3_s2_0_split
I0403 15:43:49.528285  3414 net.cpp:148] Top shape: 24 480 14 14 (2257920)
I0403 15:43:49.528302  3414 net.cpp:148] Top shape: 24 480 14 14 (2257920)
I0403 15:43:49.528319  3414 net.cpp:148] Top shape: 24 480 14 14 (2257920)
I0403 15:43:49.528337  3414 net.cpp:148] Top shape: 24 480 14 14 (2257920)
I0403 15:43:49.528352  3414 net.cpp:156] Memory required for data: 854397984
I0403 15:43:49.528367  3414 layer_factory.hpp:77] Creating layer inception_4a/1x1
I0403 15:43:49.528390  3414 net.cpp:91] Creating Layer inception_4a/1x1
I0403 15:43:49.528409  3414 net.cpp:425] inception_4a/1x1 <- pool3/3x3_s2_pool3/3x3_s2_0_split_0
I0403 15:43:49.528432  3414 net.cpp:399] inception_4a/1x1 -> inception_4a/1x1
I0403 15:43:49.530088  3414 net.cpp:141] Setting up inception_4a/1x1
I0403 15:43:49.530118  3414 net.cpp:148] Top shape: 24 192 14 14 (903168)
I0403 15:43:49.530135  3414 net.cpp:156] Memory required for data: 858010656
I0403 15:43:49.530155  3414 layer_factory.hpp:77] Creating layer inception_4a/relu_1x1
I0403 15:43:49.530177  3414 net.cpp:91] Creating Layer inception_4a/relu_1x1
I0403 15:43:49.530195  3414 net.cpp:425] inception_4a/relu_1x1 <- inception_4a/1x1
I0403 15:43:49.530220  3414 net.cpp:386] inception_4a/relu_1x1 -> inception_4a/1x1 (in-place)
I0403 15:43:49.530410  3414 net.cpp:141] Setting up inception_4a/relu_1x1
I0403 15:43:49.530436  3414 net.cpp:148] Top shape: 24 192 14 14 (903168)
I0403 15:43:49.530452  3414 net.cpp:156] Memory required for data: 861623328
I0403 15:43:49.530467  3414 layer_factory.hpp:77] Creating layer inception_4a/3x3_reduce
I0403 15:43:49.530493  3414 net.cpp:91] Creating Layer inception_4a/3x3_reduce
I0403 15:43:49.530516  3414 net.cpp:425] inception_4a/3x3_reduce <- pool3/3x3_s2_pool3/3x3_s2_0_split_1
I0403 15:43:49.530536  3414 net.cpp:399] inception_4a/3x3_reduce -> inception_4a/3x3_reduce
I0403 15:43:49.531929  3414 net.cpp:141] Setting up inception_4a/3x3_reduce
I0403 15:43:49.531957  3414 net.cpp:148] Top shape: 24 96 14 14 (451584)
I0403 15:43:49.531973  3414 net.cpp:156] Memory required for data: 863429664
I0403 15:43:49.531999  3414 layer_factory.hpp:77] Creating layer inception_4a/relu_3x3_reduce
I0403 15:43:49.532021  3414 net.cpp:91] Creating Layer inception_4a/relu_3x3_reduce
I0403 15:43:49.532037  3414 net.cpp:425] inception_4a/relu_3x3_reduce <- inception_4a/3x3_reduce
I0403 15:43:49.532059  3414 net.cpp:386] inception_4a/relu_3x3_reduce -> inception_4a/3x3_reduce (in-place)
I0403 15:43:49.532248  3414 net.cpp:141] Setting up inception_4a/relu_3x3_reduce
I0403 15:43:49.532274  3414 net.cpp:148] Top shape: 24 96 14 14 (451584)
I0403 15:43:49.532289  3414 net.cpp:156] Memory required for data: 865236000
I0403 15:43:49.532305  3414 layer_factory.hpp:77] Creating layer inception_4a/3x3
I0403 15:43:49.532328  3414 net.cpp:91] Creating Layer inception_4a/3x3
I0403 15:43:49.532347  3414 net.cpp:425] inception_4a/3x3 <- inception_4a/3x3_reduce
I0403 15:43:49.532369  3414 net.cpp:399] inception_4a/3x3 -> inception_4a/3x3
I0403 15:43:49.535172  3414 net.cpp:141] Setting up inception_4a/3x3
I0403 15:43:49.535202  3414 net.cpp:148] Top shape: 24 208 14 14 (978432)
I0403 15:43:49.535223  3414 net.cpp:156] Memory required for data: 869149728
I0403 15:43:49.535243  3414 layer_factory.hpp:77] Creating layer inception_4a/relu_3x3
I0403 15:43:49.535265  3414 net.cpp:91] Creating Layer inception_4a/relu_3x3
I0403 15:43:49.535284  3414 net.cpp:425] inception_4a/relu_3x3 <- inception_4a/3x3
I0403 15:43:49.535302  3414 net.cpp:386] inception_4a/relu_3x3 -> inception_4a/3x3 (in-place)
I0403 15:43:49.535596  3414 net.cpp:141] Setting up inception_4a/relu_3x3
I0403 15:43:49.535624  3414 net.cpp:148] Top shape: 24 208 14 14 (978432)
I0403 15:43:49.535640  3414 net.cpp:156] Memory required for data: 873063456
I0403 15:43:49.535655  3414 layer_factory.hpp:77] Creating layer inception_4a/5x5_reduce
I0403 15:43:49.535679  3414 net.cpp:91] Creating Layer inception_4a/5x5_reduce
I0403 15:43:49.535697  3414 net.cpp:425] inception_4a/5x5_reduce <- pool3/3x3_s2_pool3/3x3_s2_0_split_2
I0403 15:43:49.535719  3414 net.cpp:399] inception_4a/5x5_reduce -> inception_4a/5x5_reduce
I0403 15:43:49.536761  3414 net.cpp:141] Setting up inception_4a/5x5_reduce
I0403 15:43:49.536789  3414 net.cpp:148] Top shape: 24 16 14 14 (75264)
I0403 15:43:49.536808  3414 net.cpp:156] Memory required for data: 873364512
I0403 15:43:49.536828  3414 layer_factory.hpp:77] Creating layer inception_4a/relu_5x5_reduce
I0403 15:43:49.536847  3414 net.cpp:91] Creating Layer inception_4a/relu_5x5_reduce
I0403 15:43:49.536864  3414 net.cpp:425] inception_4a/relu_5x5_reduce <- inception_4a/5x5_reduce
I0403 15:43:49.536882  3414 net.cpp:386] inception_4a/relu_5x5_reduce -> inception_4a/5x5_reduce (in-place)
I0403 15:43:49.537067  3414 net.cpp:141] Setting up inception_4a/relu_5x5_reduce
I0403 15:43:49.537096  3414 net.cpp:148] Top shape: 24 16 14 14 (75264)
I0403 15:43:49.537112  3414 net.cpp:156] Memory required for data: 873665568
I0403 15:43:49.537128  3414 layer_factory.hpp:77] Creating layer inception_4a/5x5
I0403 15:43:49.537150  3414 net.cpp:91] Creating Layer inception_4a/5x5
I0403 15:43:49.537168  3414 net.cpp:425] inception_4a/5x5 <- inception_4a/5x5_reduce
I0403 15:43:49.537189  3414 net.cpp:399] inception_4a/5x5 -> inception_4a/5x5
I0403 15:43:49.538313  3414 net.cpp:141] Setting up inception_4a/5x5
I0403 15:43:49.538341  3414 net.cpp:148] Top shape: 24 48 14 14 (225792)
I0403 15:43:49.538357  3414 net.cpp:156] Memory required for data: 874568736
I0403 15:43:49.538377  3414 layer_factory.hpp:77] Creating layer inception_4a/relu_5x5
I0403 15:43:49.538395  3414 net.cpp:91] Creating Layer inception_4a/relu_5x5
I0403 15:43:49.538413  3414 net.cpp:425] inception_4a/relu_5x5 <- inception_4a/5x5
I0403 15:43:49.538434  3414 net.cpp:386] inception_4a/relu_5x5 -> inception_4a/5x5 (in-place)
I0403 15:43:49.538619  3414 net.cpp:141] Setting up inception_4a/relu_5x5
I0403 15:43:49.538645  3414 net.cpp:148] Top shape: 24 48 14 14 (225792)
I0403 15:43:49.538661  3414 net.cpp:156] Memory required for data: 875471904
I0403 15:43:49.538676  3414 layer_factory.hpp:77] Creating layer inception_4a/pool
I0403 15:43:49.538698  3414 net.cpp:91] Creating Layer inception_4a/pool
I0403 15:43:49.538715  3414 net.cpp:425] inception_4a/pool <- pool3/3x3_s2_pool3/3x3_s2_0_split_3
I0403 15:43:49.538734  3414 net.cpp:399] inception_4a/pool -> inception_4a/pool
I0403 15:43:49.538799  3414 net.cpp:141] Setting up inception_4a/pool
I0403 15:43:49.538822  3414 net.cpp:148] Top shape: 24 480 14 14 (2257920)
I0403 15:43:49.538837  3414 net.cpp:156] Memory required for data: 884503584
I0403 15:43:49.538853  3414 layer_factory.hpp:77] Creating layer inception_4a/pool_proj
I0403 15:43:49.538875  3414 net.cpp:91] Creating Layer inception_4a/pool_proj
I0403 15:43:49.538893  3414 net.cpp:425] inception_4a/pool_proj <- inception_4a/pool
I0403 15:43:49.538915  3414 net.cpp:399] inception_4a/pool_proj -> inception_4a/pool_proj
I0403 15:43:49.540117  3414 net.cpp:141] Setting up inception_4a/pool_proj
I0403 15:43:49.540146  3414 net.cpp:148] Top shape: 24 64 14 14 (301056)
I0403 15:43:49.540179  3414 net.cpp:156] Memory required for data: 885707808
I0403 15:43:49.540199  3414 layer_factory.hpp:77] Creating layer inception_4a/relu_pool_proj
I0403 15:43:49.540223  3414 net.cpp:91] Creating Layer inception_4a/relu_pool_proj
I0403 15:43:49.540241  3414 net.cpp:425] inception_4a/relu_pool_proj <- inception_4a/pool_proj
I0403 15:43:49.540263  3414 net.cpp:386] inception_4a/relu_pool_proj -> inception_4a/pool_proj (in-place)
I0403 15:43:49.540558  3414 net.cpp:141] Setting up inception_4a/relu_pool_proj
I0403 15:43:49.540585  3414 net.cpp:148] Top shape: 24 64 14 14 (301056)
I0403 15:43:49.540601  3414 net.cpp:156] Memory required for data: 886912032
I0403 15:43:49.540617  3414 layer_factory.hpp:77] Creating layer inception_4a/output
I0403 15:43:49.540635  3414 net.cpp:91] Creating Layer inception_4a/output
I0403 15:43:49.540652  3414 net.cpp:425] inception_4a/output <- inception_4a/1x1
I0403 15:43:49.540668  3414 net.cpp:425] inception_4a/output <- inception_4a/3x3
I0403 15:43:49.540686  3414 net.cpp:425] inception_4a/output <- inception_4a/5x5
I0403 15:43:49.540702  3414 net.cpp:425] inception_4a/output <- inception_4a/pool_proj
I0403 15:43:49.540724  3414 net.cpp:399] inception_4a/output -> inception_4a/output
I0403 15:43:49.540771  3414 net.cpp:141] Setting up inception_4a/output
I0403 15:43:49.540796  3414 net.cpp:148] Top shape: 24 512 14 14 (2408448)
I0403 15:43:49.540812  3414 net.cpp:156] Memory required for data: 896545824
I0403 15:43:49.540828  3414 layer_factory.hpp:77] Creating layer inception_4a/output_inception_4a/output_0_split
I0403 15:43:49.540846  3414 net.cpp:91] Creating Layer inception_4a/output_inception_4a/output_0_split
I0403 15:43:49.540863  3414 net.cpp:425] inception_4a/output_inception_4a/output_0_split <- inception_4a/output
I0403 15:43:49.540884  3414 net.cpp:399] inception_4a/output_inception_4a/output_0_split -> inception_4a/output_inception_4a/output_0_split_0
I0403 15:43:49.540905  3414 net.cpp:399] inception_4a/output_inception_4a/output_0_split -> inception_4a/output_inception_4a/output_0_split_1
I0403 15:43:49.540927  3414 net.cpp:399] inception_4a/output_inception_4a/output_0_split -> inception_4a/output_inception_4a/output_0_split_2
I0403 15:43:49.540949  3414 net.cpp:399] inception_4a/output_inception_4a/output_0_split -> inception_4a/output_inception_4a/output_0_split_3
I0403 15:43:49.540972  3414 net.cpp:399] inception_4a/output_inception_4a/output_0_split -> inception_4a/output_inception_4a/output_0_split_4
I0403 15:43:49.541066  3414 net.cpp:141] Setting up inception_4a/output_inception_4a/output_0_split
I0403 15:43:49.541093  3414 net.cpp:148] Top shape: 24 512 14 14 (2408448)
I0403 15:43:49.541110  3414 net.cpp:148] Top shape: 24 512 14 14 (2408448)
I0403 15:43:49.541127  3414 net.cpp:148] Top shape: 24 512 14 14 (2408448)
I0403 15:43:49.541143  3414 net.cpp:148] Top shape: 24 512 14 14 (2408448)
I0403 15:43:49.541158  3414 net.cpp:148] Top shape: 24 512 14 14 (2408448)
I0403 15:43:49.541172  3414 net.cpp:156] Memory required for data: 944714784
I0403 15:43:49.541188  3414 layer_factory.hpp:77] Creating layer loss1/ave_pool
I0403 15:43:49.541206  3414 net.cpp:91] Creating Layer loss1/ave_pool
I0403 15:43:49.541227  3414 net.cpp:425] loss1/ave_pool <- inception_4a/output_inception_4a/output_0_split_0
I0403 15:43:49.541247  3414 net.cpp:399] loss1/ave_pool -> loss1/ave_pool
I0403 15:43:49.541465  3414 net.cpp:141] Setting up loss1/ave_pool
I0403 15:43:49.541491  3414 net.cpp:148] Top shape: 24 512 4 4 (196608)
I0403 15:43:49.541507  3414 net.cpp:156] Memory required for data: 945501216
I0403 15:43:49.541523  3414 layer_factory.hpp:77] Creating layer loss1/conv
I0403 15:43:49.541546  3414 net.cpp:91] Creating Layer loss1/conv
I0403 15:43:49.541565  3414 net.cpp:425] loss1/conv <- loss1/ave_pool
I0403 15:43:49.541587  3414 net.cpp:399] loss1/conv -> loss1/conv
I0403 15:43:49.543040  3414 net.cpp:141] Setting up loss1/conv
I0403 15:43:49.543069  3414 net.cpp:148] Top shape: 24 128 4 4 (49152)
I0403 15:43:49.543100  3414 net.cpp:156] Memory required for data: 945697824
I0403 15:43:49.543120  3414 layer_factory.hpp:77] Creating layer loss1/relu_conv
I0403 15:43:49.543143  3414 net.cpp:91] Creating Layer loss1/relu_conv
I0403 15:43:49.543160  3414 net.cpp:425] loss1/relu_conv <- loss1/conv
I0403 15:43:49.543179  3414 net.cpp:386] loss1/relu_conv -> loss1/conv (in-place)
I0403 15:43:49.543514  3414 net.cpp:141] Setting up loss1/relu_conv
I0403 15:43:49.543551  3414 net.cpp:148] Top shape: 24 128 4 4 (49152)
I0403 15:43:49.543567  3414 net.cpp:156] Memory required for data: 945894432
I0403 15:43:49.543584  3414 layer_factory.hpp:77] Creating layer loss1/fc
I0403 15:43:49.543622  3414 net.cpp:91] Creating Layer loss1/fc
I0403 15:43:49.543642  3414 net.cpp:425] loss1/fc <- loss1/conv
I0403 15:43:49.543664  3414 net.cpp:399] loss1/fc -> loss1/fc
I0403 15:43:49.562508  3414 net.cpp:141] Setting up loss1/fc
I0403 15:43:49.562553  3414 net.cpp:148] Top shape: 24 1024 (24576)
I0403 15:43:49.562571  3414 net.cpp:156] Memory required for data: 945992736
I0403 15:43:49.562592  3414 layer_factory.hpp:77] Creating layer loss1/relu_fc
I0403 15:43:49.562613  3414 net.cpp:91] Creating Layer loss1/relu_fc
I0403 15:43:49.562633  3414 net.cpp:425] loss1/relu_fc <- loss1/fc
I0403 15:43:49.562655  3414 net.cpp:386] loss1/relu_fc -> loss1/fc (in-place)
I0403 15:43:49.562885  3414 net.cpp:141] Setting up loss1/relu_fc
I0403 15:43:49.562911  3414 net.cpp:148] Top shape: 24 1024 (24576)
I0403 15:43:49.562927  3414 net.cpp:156] Memory required for data: 946091040
I0403 15:43:49.562943  3414 layer_factory.hpp:77] Creating layer loss1/drop_fc
I0403 15:43:49.562975  3414 net.cpp:91] Creating Layer loss1/drop_fc
I0403 15:43:49.562994  3414 net.cpp:425] loss1/drop_fc <- loss1/fc
I0403 15:43:49.563014  3414 net.cpp:386] loss1/drop_fc -> loss1/fc (in-place)
I0403 15:43:49.563071  3414 net.cpp:141] Setting up loss1/drop_fc
I0403 15:43:49.563097  3414 net.cpp:148] Top shape: 24 1024 (24576)
I0403 15:43:49.563113  3414 net.cpp:156] Memory required for data: 946189344
I0403 15:43:49.563130  3414 layer_factory.hpp:77] Creating layer loss1/classifier_plantvillage
I0403 15:43:49.563151  3414 net.cpp:91] Creating Layer loss1/classifier_plantvillage
I0403 15:43:49.563169  3414 net.cpp:425] loss1/classifier_plantvillage <- loss1/fc
I0403 15:43:49.563191  3414 net.cpp:399] loss1/classifier_plantvillage -> loss1/classifier_plantvillage
I0403 15:43:49.564182  3414 net.cpp:141] Setting up loss1/classifier_plantvillage
I0403 15:43:49.564214  3414 net.cpp:148] Top shape: 24 38 (912)
I0403 15:43:49.564232  3414 net.cpp:156] Memory required for data: 946192992
I0403 15:43:49.564252  3414 layer_factory.hpp:77] Creating layer loss1/classifier_plantvillage_loss1/classifier_plantvillage_0_split
I0403 15:43:49.564275  3414 net.cpp:91] Creating Layer loss1/classifier_plantvillage_loss1/classifier_plantvillage_0_split
I0403 15:43:49.564292  3414 net.cpp:425] loss1/classifier_plantvillage_loss1/classifier_plantvillage_0_split <- loss1/classifier_plantvillage
I0403 15:43:49.564311  3414 net.cpp:399] loss1/classifier_plantvillage_loss1/classifier_plantvillage_0_split -> loss1/classifier_plantvillage_loss1/classifier_plantvillage_0_split_0
I0403 15:43:49.564333  3414 net.cpp:399] loss1/classifier_plantvillage_loss1/classifier_plantvillage_0_split -> loss1/classifier_plantvillage_loss1/classifier_plantvillage_0_split_1
I0403 15:43:49.564354  3414 net.cpp:399] loss1/classifier_plantvillage_loss1/classifier_plantvillage_0_split -> loss1/classifier_plantvillage_loss1/classifier_plantvillage_0_split_2
I0403 15:43:49.564424  3414 net.cpp:141] Setting up loss1/classifier_plantvillage_loss1/classifier_plantvillage_0_split
I0403 15:43:49.564447  3414 net.cpp:148] Top shape: 24 38 (912)
I0403 15:43:49.564465  3414 net.cpp:148] Top shape: 24 38 (912)
I0403 15:43:49.564481  3414 net.cpp:148] Top shape: 24 38 (912)
I0403 15:43:49.564494  3414 net.cpp:156] Memory required for data: 946203936
I0403 15:43:49.564509  3414 layer_factory.hpp:77] Creating layer inception_4b/1x1
I0403 15:43:49.564532  3414 net.cpp:91] Creating Layer inception_4b/1x1
I0403 15:43:49.564574  3414 net.cpp:425] inception_4b/1x1 <- inception_4a/output_inception_4a/output_0_split_1
I0403 15:43:49.564599  3414 net.cpp:399] inception_4b/1x1 -> inception_4b/1x1
I0403 15:43:49.566334  3414 net.cpp:141] Setting up inception_4b/1x1
I0403 15:43:49.566364  3414 net.cpp:148] Top shape: 24 160 14 14 (752640)
I0403 15:43:49.566383  3414 net.cpp:156] Memory required for data: 949214496
I0403 15:43:49.566403  3414 layer_factory.hpp:77] Creating layer inception_4b/relu_1x1
I0403 15:43:49.566421  3414 net.cpp:91] Creating Layer inception_4b/relu_1x1
I0403 15:43:49.566440  3414 net.cpp:425] inception_4b/relu_1x1 <- inception_4b/1x1
I0403 15:43:49.566458  3414 net.cpp:386] inception_4b/relu_1x1 -> inception_4b/1x1 (in-place)
I0403 15:43:49.566655  3414 net.cpp:141] Setting up inception_4b/relu_1x1
I0403 15:43:49.566685  3414 net.cpp:148] Top shape: 24 160 14 14 (752640)
I0403 15:43:49.566701  3414 net.cpp:156] Memory required for data: 952225056
I0403 15:43:49.566730  3414 layer_factory.hpp:77] Creating layer inception_4b/3x3_reduce
I0403 15:43:49.566752  3414 net.cpp:91] Creating Layer inception_4b/3x3_reduce
I0403 15:43:49.566771  3414 net.cpp:425] inception_4b/3x3_reduce <- inception_4a/output_inception_4a/output_0_split_2
I0403 15:43:49.566789  3414 net.cpp:399] inception_4b/3x3_reduce -> inception_4b/3x3_reduce
I0403 15:43:49.568173  3414 net.cpp:141] Setting up inception_4b/3x3_reduce
I0403 15:43:49.568204  3414 net.cpp:148] Top shape: 24 112 14 14 (526848)
I0403 15:43:49.568238  3414 net.cpp:156] Memory required for data: 954332448
I0403 15:43:49.568259  3414 layer_factory.hpp:77] Creating layer inception_4b/relu_3x3_reduce
I0403 15:43:49.568279  3414 net.cpp:91] Creating Layer inception_4b/relu_3x3_reduce
I0403 15:43:49.568296  3414 net.cpp:425] inception_4b/relu_3x3_reduce <- inception_4b/3x3_reduce
I0403 15:43:49.568318  3414 net.cpp:386] inception_4b/relu_3x3_reduce -> inception_4b/3x3_reduce (in-place)
I0403 15:43:49.568689  3414 net.cpp:141] Setting up inception_4b/relu_3x3_reduce
I0403 15:43:49.568719  3414 net.cpp:148] Top shape: 24 112 14 14 (526848)
I0403 15:43:49.568737  3414 net.cpp:156] Memory required for data: 956439840
I0403 15:43:49.568764  3414 layer_factory.hpp:77] Creating layer inception_4b/3x3
I0403 15:43:49.568786  3414 net.cpp:91] Creating Layer inception_4b/3x3
I0403 15:43:49.568804  3414 net.cpp:425] inception_4b/3x3 <- inception_4b/3x3_reduce
I0403 15:43:49.568825  3414 net.cpp:399] inception_4b/3x3 -> inception_4b/3x3
I0403 15:43:49.571840  3414 net.cpp:141] Setting up inception_4b/3x3
I0403 15:43:49.571869  3414 net.cpp:148] Top shape: 24 224 14 14 (1053696)
I0403 15:43:49.571884  3414 net.cpp:156] Memory required for data: 960654624
I0403 15:43:49.571903  3414 layer_factory.hpp:77] Creating layer inception_4b/relu_3x3
I0403 15:43:49.571924  3414 net.cpp:91] Creating Layer inception_4b/relu_3x3
I0403 15:43:49.571941  3414 net.cpp:425] inception_4b/relu_3x3 <- inception_4b/3x3
I0403 15:43:49.571959  3414 net.cpp:386] inception_4b/relu_3x3 -> inception_4b/3x3 (in-place)
I0403 15:43:49.572141  3414 net.cpp:141] Setting up inception_4b/relu_3x3
I0403 15:43:49.572166  3414 net.cpp:148] Top shape: 24 224 14 14 (1053696)
I0403 15:43:49.572181  3414 net.cpp:156] Memory required for data: 964869408
I0403 15:43:49.572196  3414 layer_factory.hpp:77] Creating layer inception_4b/5x5_reduce
I0403 15:43:49.572226  3414 net.cpp:91] Creating Layer inception_4b/5x5_reduce
I0403 15:43:49.572244  3414 net.cpp:425] inception_4b/5x5_reduce <- inception_4a/output_inception_4a/output_0_split_3
I0403 15:43:49.572264  3414 net.cpp:399] inception_4b/5x5_reduce -> inception_4b/5x5_reduce
I0403 15:43:49.573360  3414 net.cpp:141] Setting up inception_4b/5x5_reduce
I0403 15:43:49.573390  3414 net.cpp:148] Top shape: 24 24 14 14 (112896)
I0403 15:43:49.573406  3414 net.cpp:156] Memory required for data: 965320992
I0403 15:43:49.573426  3414 layer_factory.hpp:77] Creating layer inception_4b/relu_5x5_reduce
I0403 15:43:49.573443  3414 net.cpp:91] Creating Layer inception_4b/relu_5x5_reduce
I0403 15:43:49.573474  3414 net.cpp:425] inception_4b/relu_5x5_reduce <- inception_4b/5x5_reduce
I0403 15:43:49.573495  3414 net.cpp:386] inception_4b/relu_5x5_reduce -> inception_4b/5x5_reduce (in-place)
I0403 15:43:49.573679  3414 net.cpp:141] Setting up inception_4b/relu_5x5_reduce
I0403 15:43:49.573704  3414 net.cpp:148] Top shape: 24 24 14 14 (112896)
I0403 15:43:49.573719  3414 net.cpp:156] Memory required for data: 965772576
I0403 15:43:49.573734  3414 layer_factory.hpp:77] Creating layer inception_4b/5x5
I0403 15:43:49.573756  3414 net.cpp:91] Creating Layer inception_4b/5x5
I0403 15:43:49.573775  3414 net.cpp:425] inception_4b/5x5 <- inception_4b/5x5_reduce
I0403 15:43:49.573796  3414 net.cpp:399] inception_4b/5x5 -> inception_4b/5x5
I0403 15:43:49.575026  3414 net.cpp:141] Setting up inception_4b/5x5
I0403 15:43:49.575055  3414 net.cpp:148] Top shape: 24 64 14 14 (301056)
I0403 15:43:49.575074  3414 net.cpp:156] Memory required for data: 966976800
I0403 15:43:49.575093  3414 layer_factory.hpp:77] Creating layer inception_4b/relu_5x5
I0403 15:43:49.575112  3414 net.cpp:91] Creating Layer inception_4b/relu_5x5
I0403 15:43:49.575129  3414 net.cpp:425] inception_4b/relu_5x5 <- inception_4b/5x5
I0403 15:43:49.575145  3414 net.cpp:386] inception_4b/relu_5x5 -> inception_4b/5x5 (in-place)
I0403 15:43:49.575438  3414 net.cpp:141] Setting up inception_4b/relu_5x5
I0403 15:43:49.575465  3414 net.cpp:148] Top shape: 24 64 14 14 (301056)
I0403 15:43:49.575484  3414 net.cpp:156] Memory required for data: 968181024
I0403 15:43:49.575500  3414 layer_factory.hpp:77] Creating layer inception_4b/pool
I0403 15:43:49.575518  3414 net.cpp:91] Creating Layer inception_4b/pool
I0403 15:43:49.575534  3414 net.cpp:425] inception_4b/pool <- inception_4a/output_inception_4a/output_0_split_4
I0403 15:43:49.575552  3414 net.cpp:399] inception_4b/pool -> inception_4b/pool
I0403 15:43:49.575620  3414 net.cpp:141] Setting up inception_4b/pool
I0403 15:43:49.575644  3414 net.cpp:148] Top shape: 24 512 14 14 (2408448)
I0403 15:43:49.575659  3414 net.cpp:156] Memory required for data: 977814816
I0403 15:43:49.575673  3414 layer_factory.hpp:77] Creating layer inception_4b/pool_proj
I0403 15:43:49.575696  3414 net.cpp:91] Creating Layer inception_4b/pool_proj
I0403 15:43:49.575713  3414 net.cpp:425] inception_4b/pool_proj <- inception_4b/pool
I0403 15:43:49.575734  3414 net.cpp:399] inception_4b/pool_proj -> inception_4b/pool_proj
I0403 15:43:49.576972  3414 net.cpp:141] Setting up inception_4b/pool_proj
I0403 15:43:49.577003  3414 net.cpp:148] Top shape: 24 64 14 14 (301056)
I0403 15:43:49.577020  3414 net.cpp:156] Memory required for data: 979019040
I0403 15:43:49.577039  3414 layer_factory.hpp:77] Creating layer inception_4b/relu_pool_proj
I0403 15:43:49.577059  3414 net.cpp:91] Creating Layer inception_4b/relu_pool_proj
I0403 15:43:49.577075  3414 net.cpp:425] inception_4b/relu_pool_proj <- inception_4b/pool_proj
I0403 15:43:49.577092  3414 net.cpp:386] inception_4b/relu_pool_proj -> inception_4b/pool_proj (in-place)
I0403 15:43:49.577280  3414 net.cpp:141] Setting up inception_4b/relu_pool_proj
I0403 15:43:49.577306  3414 net.cpp:148] Top shape: 24 64 14 14 (301056)
I0403 15:43:49.577321  3414 net.cpp:156] Memory required for data: 980223264
I0403 15:43:49.577334  3414 layer_factory.hpp:77] Creating layer inception_4b/output
I0403 15:43:49.577353  3414 net.cpp:91] Creating Layer inception_4b/output
I0403 15:43:49.577368  3414 net.cpp:425] inception_4b/output <- inception_4b/1x1
I0403 15:43:49.577384  3414 net.cpp:425] inception_4b/output <- inception_4b/3x3
I0403 15:43:49.577400  3414 net.cpp:425] inception_4b/output <- inception_4b/5x5
I0403 15:43:49.577416  3414 net.cpp:425] inception_4b/output <- inception_4b/pool_proj
I0403 15:43:49.577436  3414 net.cpp:399] inception_4b/output -> inception_4b/output
I0403 15:43:49.577481  3414 net.cpp:141] Setting up inception_4b/output
I0403 15:43:49.577507  3414 net.cpp:148] Top shape: 24 512 14 14 (2408448)
I0403 15:43:49.577522  3414 net.cpp:156] Memory required for data: 989857056
I0403 15:43:49.577551  3414 layer_factory.hpp:77] Creating layer inception_4b/output_inception_4b/output_0_split
I0403 15:43:49.577570  3414 net.cpp:91] Creating Layer inception_4b/output_inception_4b/output_0_split
I0403 15:43:49.577586  3414 net.cpp:425] inception_4b/output_inception_4b/output_0_split <- inception_4b/output
I0403 15:43:49.577603  3414 net.cpp:399] inception_4b/output_inception_4b/output_0_split -> inception_4b/output_inception_4b/output_0_split_0
I0403 15:43:49.577627  3414 net.cpp:399] inception_4b/output_inception_4b/output_0_split -> inception_4b/output_inception_4b/output_0_split_1
I0403 15:43:49.577648  3414 net.cpp:399] inception_4b/output_inception_4b/output_0_split -> inception_4b/output_inception_4b/output_0_split_2
I0403 15:43:49.577669  3414 net.cpp:399] inception_4b/output_inception_4b/output_0_split -> inception_4b/output_inception_4b/output_0_split_3
I0403 15:43:49.577752  3414 net.cpp:141] Setting up inception_4b/output_inception_4b/output_0_split
I0403 15:43:49.577775  3414 net.cpp:148] Top shape: 24 512 14 14 (2408448)
I0403 15:43:49.577792  3414 net.cpp:148] Top shape: 24 512 14 14 (2408448)
I0403 15:43:49.577810  3414 net.cpp:148] Top shape: 24 512 14 14 (2408448)
I0403 15:43:49.577824  3414 net.cpp:148] Top shape: 24 512 14 14 (2408448)
I0403 15:43:49.577839  3414 net.cpp:156] Memory required for data: 1028392224
I0403 15:43:49.577854  3414 layer_factory.hpp:77] Creating layer inception_4c/1x1
I0403 15:43:49.577877  3414 net.cpp:91] Creating Layer inception_4c/1x1
I0403 15:43:49.577894  3414 net.cpp:425] inception_4c/1x1 <- inception_4b/output_inception_4b/output_0_split_0
I0403 15:43:49.577914  3414 net.cpp:399] inception_4c/1x1 -> inception_4c/1x1
I0403 15:43:49.579375  3414 net.cpp:141] Setting up inception_4c/1x1
I0403 15:43:49.579404  3414 net.cpp:148] Top shape: 24 128 14 14 (602112)
I0403 15:43:49.579421  3414 net.cpp:156] Memory required for data: 1030800672
I0403 15:43:49.579439  3414 layer_factory.hpp:77] Creating layer inception_4c/relu_1x1
I0403 15:43:49.579457  3414 net.cpp:91] Creating Layer inception_4c/relu_1x1
I0403 15:43:49.579478  3414 net.cpp:425] inception_4c/relu_1x1 <- inception_4c/1x1
I0403 15:43:49.579495  3414 net.cpp:386] inception_4c/relu_1x1 -> inception_4c/1x1 (in-place)
I0403 15:43:49.579682  3414 net.cpp:141] Setting up inception_4c/relu_1x1
I0403 15:43:49.579707  3414 net.cpp:148] Top shape: 24 128 14 14 (602112)
I0403 15:43:49.579723  3414 net.cpp:156] Memory required for data: 1033209120
I0403 15:43:49.579740  3414 layer_factory.hpp:77] Creating layer inception_4c/3x3_reduce
I0403 15:43:49.579774  3414 net.cpp:91] Creating Layer inception_4c/3x3_reduce
I0403 15:43:49.579792  3414 net.cpp:425] inception_4c/3x3_reduce <- inception_4b/output_inception_4b/output_0_split_1
I0403 15:43:49.579814  3414 net.cpp:399] inception_4c/3x3_reduce -> inception_4c/3x3_reduce
I0403 15:43:49.581764  3414 net.cpp:141] Setting up inception_4c/3x3_reduce
I0403 15:43:49.581794  3414 net.cpp:148] Top shape: 24 128 14 14 (602112)
I0403 15:43:49.581809  3414 net.cpp:156] Memory required for data: 1035617568
I0403 15:43:49.581828  3414 layer_factory.hpp:77] Creating layer inception_4c/relu_3x3_reduce
I0403 15:43:49.581850  3414 net.cpp:91] Creating Layer inception_4c/relu_3x3_reduce
I0403 15:43:49.581866  3414 net.cpp:425] inception_4c/relu_3x3_reduce <- inception_4c/3x3_reduce
I0403 15:43:49.581884  3414 net.cpp:386] inception_4c/relu_3x3_reduce -> inception_4c/3x3_reduce (in-place)
I0403 15:43:49.582170  3414 net.cpp:141] Setting up inception_4c/relu_3x3_reduce
I0403 15:43:49.582196  3414 net.cpp:148] Top shape: 24 128 14 14 (602112)
I0403 15:43:49.582216  3414 net.cpp:156] Memory required for data: 1038026016
I0403 15:43:49.582232  3414 layer_factory.hpp:77] Creating layer inception_4c/3x3
I0403 15:43:49.582257  3414 net.cpp:91] Creating Layer inception_4c/3x3
I0403 15:43:49.582278  3414 net.cpp:425] inception_4c/3x3 <- inception_4c/3x3_reduce
I0403 15:43:49.582298  3414 net.cpp:399] inception_4c/3x3 -> inception_4c/3x3
I0403 15:43:49.585912  3414 net.cpp:141] Setting up inception_4c/3x3
I0403 15:43:49.585955  3414 net.cpp:148] Top shape: 24 256 14 14 (1204224)
I0403 15:43:49.585973  3414 net.cpp:156] Memory required for data: 1042842912
I0403 15:43:49.586005  3414 layer_factory.hpp:77] Creating layer inception_4c/relu_3x3
I0403 15:43:49.586026  3414 net.cpp:91] Creating Layer inception_4c/relu_3x3
I0403 15:43:49.586043  3414 net.cpp:425] inception_4c/relu_3x3 <- inception_4c/3x3
I0403 15:43:49.586061  3414 net.cpp:386] inception_4c/relu_3x3 -> inception_4c/3x3 (in-place)
I0403 15:43:49.586249  3414 net.cpp:141] Setting up inception_4c/relu_3x3
I0403 15:43:49.586278  3414 net.cpp:148] Top shape: 24 256 14 14 (1204224)
I0403 15:43:49.586294  3414 net.cpp:156] Memory required for data: 1047659808
I0403 15:43:49.586309  3414 layer_factory.hpp:77] Creating layer inception_4c/5x5_reduce
I0403 15:43:49.586333  3414 net.cpp:91] Creating Layer inception_4c/5x5_reduce
I0403 15:43:49.586350  3414 net.cpp:425] inception_4c/5x5_reduce <- inception_4b/output_inception_4b/output_0_split_2
I0403 15:43:49.586370  3414 net.cpp:399] inception_4c/5x5_reduce -> inception_4c/5x5_reduce
I0403 15:43:49.587458  3414 net.cpp:141] Setting up inception_4c/5x5_reduce
I0403 15:43:49.587487  3414 net.cpp:148] Top shape: 24 24 14 14 (112896)
I0403 15:43:49.587502  3414 net.cpp:156] Memory required for data: 1048111392
I0403 15:43:49.587522  3414 layer_factory.hpp:77] Creating layer inception_4c/relu_5x5_reduce
I0403 15:43:49.587543  3414 net.cpp:91] Creating Layer inception_4c/relu_5x5_reduce
I0403 15:43:49.587560  3414 net.cpp:425] inception_4c/relu_5x5_reduce <- inception_4c/5x5_reduce
I0403 15:43:49.587577  3414 net.cpp:386] inception_4c/relu_5x5_reduce -> inception_4c/5x5_reduce (in-place)
I0403 15:43:49.587764  3414 net.cpp:141] Setting up inception_4c/relu_5x5_reduce
I0403 15:43:49.587790  3414 net.cpp:148] Top shape: 24 24 14 14 (112896)
I0403 15:43:49.587803  3414 net.cpp:156] Memory required for data: 1048562976
I0403 15:43:49.587820  3414 layer_factory.hpp:77] Creating layer inception_4c/5x5
I0403 15:43:49.587841  3414 net.cpp:91] Creating Layer inception_4c/5x5
I0403 15:43:49.587859  3414 net.cpp:425] inception_4c/5x5 <- inception_4c/5x5_reduce
I0403 15:43:49.587880  3414 net.cpp:399] inception_4c/5x5 -> inception_4c/5x5
I0403 15:43:49.589130  3414 net.cpp:141] Setting up inception_4c/5x5
I0403 15:43:49.589157  3414 net.cpp:148] Top shape: 24 64 14 14 (301056)
I0403 15:43:49.589174  3414 net.cpp:156] Memory required for data: 1049767200
I0403 15:43:49.589192  3414 layer_factory.hpp:77] Creating layer inception_4c/relu_5x5
I0403 15:43:49.589213  3414 net.cpp:91] Creating Layer inception_4c/relu_5x5
I0403 15:43:49.589231  3414 net.cpp:425] inception_4c/relu_5x5 <- inception_4c/5x5
I0403 15:43:49.589251  3414 net.cpp:386] inception_4c/relu_5x5 -> inception_4c/5x5 (in-place)
I0403 15:43:49.589540  3414 net.cpp:141] Setting up inception_4c/relu_5x5
I0403 15:43:49.589566  3414 net.cpp:148] Top shape: 24 64 14 14 (301056)
I0403 15:43:49.589582  3414 net.cpp:156] Memory required for data: 1050971424
I0403 15:43:49.589598  3414 layer_factory.hpp:77] Creating layer inception_4c/pool
I0403 15:43:49.589615  3414 net.cpp:91] Creating Layer inception_4c/pool
I0403 15:43:49.589632  3414 net.cpp:425] inception_4c/pool <- inception_4b/output_inception_4b/output_0_split_3
I0403 15:43:49.589653  3414 net.cpp:399] inception_4c/pool -> inception_4c/pool
I0403 15:43:49.589717  3414 net.cpp:141] Setting up inception_4c/pool
I0403 15:43:49.589745  3414 net.cpp:148] Top shape: 24 512 14 14 (2408448)
I0403 15:43:49.589761  3414 net.cpp:156] Memory required for data: 1060605216
I0403 15:43:49.589776  3414 layer_factory.hpp:77] Creating layer inception_4c/pool_proj
I0403 15:43:49.589797  3414 net.cpp:91] Creating Layer inception_4c/pool_proj
I0403 15:43:49.589815  3414 net.cpp:425] inception_4c/pool_proj <- inception_4c/pool
I0403 15:43:49.589834  3414 net.cpp:399] inception_4c/pool_proj -> inception_4c/pool_proj
I0403 15:43:49.591051  3414 net.cpp:141] Setting up inception_4c/pool_proj
I0403 15:43:49.591083  3414 net.cpp:148] Top shape: 24 64 14 14 (301056)
I0403 15:43:49.591112  3414 net.cpp:156] Memory required for data: 1061809440
I0403 15:43:49.591132  3414 layer_factory.hpp:77] Creating layer inception_4c/relu_pool_proj
I0403 15:43:49.591151  3414 net.cpp:91] Creating Layer inception_4c/relu_pool_proj
I0403 15:43:49.591168  3414 net.cpp:425] inception_4c/relu_pool_proj <- inception_4c/pool_proj
I0403 15:43:49.591186  3414 net.cpp:386] inception_4c/relu_pool_proj -> inception_4c/pool_proj (in-place)
I0403 15:43:49.591374  3414 net.cpp:141] Setting up inception_4c/relu_pool_proj
I0403 15:43:49.591399  3414 net.cpp:148] Top shape: 24 64 14 14 (301056)
I0403 15:43:49.591414  3414 net.cpp:156] Memory required for data: 1063013664
I0403 15:43:49.591428  3414 layer_factory.hpp:77] Creating layer inception_4c/output
I0403 15:43:49.591446  3414 net.cpp:91] Creating Layer inception_4c/output
I0403 15:43:49.591461  3414 net.cpp:425] inception_4c/output <- inception_4c/1x1
I0403 15:43:49.591478  3414 net.cpp:425] inception_4c/output <- inception_4c/3x3
I0403 15:43:49.591495  3414 net.cpp:425] inception_4c/output <- inception_4c/5x5
I0403 15:43:49.591511  3414 net.cpp:425] inception_4c/output <- inception_4c/pool_proj
I0403 15:43:49.591529  3414 net.cpp:399] inception_4c/output -> inception_4c/output
I0403 15:43:49.591577  3414 net.cpp:141] Setting up inception_4c/output
I0403 15:43:49.591599  3414 net.cpp:148] Top shape: 24 512 14 14 (2408448)
I0403 15:43:49.591614  3414 net.cpp:156] Memory required for data: 1072647456
I0403 15:43:49.591629  3414 layer_factory.hpp:77] Creating layer inception_4c/output_inception_4c/output_0_split
I0403 15:43:49.591648  3414 net.cpp:91] Creating Layer inception_4c/output_inception_4c/output_0_split
I0403 15:43:49.591665  3414 net.cpp:425] inception_4c/output_inception_4c/output_0_split <- inception_4c/output
I0403 15:43:49.591682  3414 net.cpp:399] inception_4c/output_inception_4c/output_0_split -> inception_4c/output_inception_4c/output_0_split_0
I0403 15:43:49.591706  3414 net.cpp:399] inception_4c/output_inception_4c/output_0_split -> inception_4c/output_inception_4c/output_0_split_1
I0403 15:43:49.591727  3414 net.cpp:399] inception_4c/output_inception_4c/output_0_split -> inception_4c/output_inception_4c/output_0_split_2
I0403 15:43:49.591747  3414 net.cpp:399] inception_4c/output_inception_4c/output_0_split -> inception_4c/output_inception_4c/output_0_split_3
I0403 15:43:49.591832  3414 net.cpp:141] Setting up inception_4c/output_inception_4c/output_0_split
I0403 15:43:49.591856  3414 net.cpp:148] Top shape: 24 512 14 14 (2408448)
I0403 15:43:49.591871  3414 net.cpp:148] Top shape: 24 512 14 14 (2408448)
I0403 15:43:49.591887  3414 net.cpp:148] Top shape: 24 512 14 14 (2408448)
I0403 15:43:49.591903  3414 net.cpp:148] Top shape: 24 512 14 14 (2408448)
I0403 15:43:49.591917  3414 net.cpp:156] Memory required for data: 1111182624
I0403 15:43:49.591933  3414 layer_factory.hpp:77] Creating layer inception_4d/1x1
I0403 15:43:49.591954  3414 net.cpp:91] Creating Layer inception_4d/1x1
I0403 15:43:49.591971  3414 net.cpp:425] inception_4d/1x1 <- inception_4c/output_inception_4c/output_0_split_0
I0403 15:43:49.591994  3414 net.cpp:399] inception_4d/1x1 -> inception_4d/1x1
I0403 15:43:49.593395  3414 net.cpp:141] Setting up inception_4d/1x1
I0403 15:43:49.593423  3414 net.cpp:148] Top shape: 24 112 14 14 (526848)
I0403 15:43:49.593439  3414 net.cpp:156] Memory required for data: 1113290016
I0403 15:43:49.593458  3414 layer_factory.hpp:77] Creating layer inception_4d/relu_1x1
I0403 15:43:49.593478  3414 net.cpp:91] Creating Layer inception_4d/relu_1x1
I0403 15:43:49.593497  3414 net.cpp:425] inception_4d/relu_1x1 <- inception_4d/1x1
I0403 15:43:49.593515  3414 net.cpp:386] inception_4d/relu_1x1 -> inception_4d/1x1 (in-place)
I0403 15:43:49.593700  3414 net.cpp:141] Setting up inception_4d/relu_1x1
I0403 15:43:49.593725  3414 net.cpp:148] Top shape: 24 112 14 14 (526848)
I0403 15:43:49.593740  3414 net.cpp:156] Memory required for data: 1115397408
I0403 15:43:49.593755  3414 layer_factory.hpp:77] Creating layer inception_4d/3x3_reduce
I0403 15:43:49.593796  3414 net.cpp:91] Creating Layer inception_4d/3x3_reduce
I0403 15:43:49.593814  3414 net.cpp:425] inception_4d/3x3_reduce <- inception_4c/output_inception_4c/output_0_split_1
I0403 15:43:49.593834  3414 net.cpp:399] inception_4d/3x3_reduce -> inception_4d/3x3_reduce
I0403 15:43:49.595401  3414 net.cpp:141] Setting up inception_4d/3x3_reduce
I0403 15:43:49.595430  3414 net.cpp:148] Top shape: 24 144 14 14 (677376)
I0403 15:43:49.595448  3414 net.cpp:156] Memory required for data: 1118106912
I0403 15:43:49.595468  3414 layer_factory.hpp:77] Creating layer inception_4d/relu_3x3_reduce
I0403 15:43:49.595486  3414 net.cpp:91] Creating Layer inception_4d/relu_3x3_reduce
I0403 15:43:49.595504  3414 net.cpp:425] inception_4d/relu_3x3_reduce <- inception_4d/3x3_reduce
I0403 15:43:49.595526  3414 net.cpp:386] inception_4d/relu_3x3_reduce -> inception_4d/3x3_reduce (in-place)
I0403 15:43:49.595846  3414 net.cpp:141] Setting up inception_4d/relu_3x3_reduce
I0403 15:43:49.595873  3414 net.cpp:148] Top shape: 24 144 14 14 (677376)
I0403 15:43:49.595888  3414 net.cpp:156] Memory required for data: 1120816416
I0403 15:43:49.595904  3414 layer_factory.hpp:77] Creating layer inception_4d/3x3
I0403 15:43:49.595928  3414 net.cpp:91] Creating Layer inception_4d/3x3
I0403 15:43:49.595947  3414 net.cpp:425] inception_4d/3x3 <- inception_4d/3x3_reduce
I0403 15:43:49.595968  3414 net.cpp:399] inception_4d/3x3 -> inception_4d/3x3
I0403 15:43:49.600376  3414 net.cpp:141] Setting up inception_4d/3x3
I0403 15:43:49.600405  3414 net.cpp:148] Top shape: 24 288 14 14 (1354752)
I0403 15:43:49.600422  3414 net.cpp:156] Memory required for data: 1126235424
I0403 15:43:49.600441  3414 layer_factory.hpp:77] Creating layer inception_4d/relu_3x3
I0403 15:43:49.600462  3414 net.cpp:91] Creating Layer inception_4d/relu_3x3
I0403 15:43:49.600481  3414 net.cpp:425] inception_4d/relu_3x3 <- inception_4d/3x3
I0403 15:43:49.600498  3414 net.cpp:386] inception_4d/relu_3x3 -> inception_4d/3x3 (in-place)
I0403 15:43:49.600687  3414 net.cpp:141] Setting up inception_4d/relu_3x3
I0403 15:43:49.600715  3414 net.cpp:148] Top shape: 24 288 14 14 (1354752)
I0403 15:43:49.600733  3414 net.cpp:156] Memory required for data: 1131654432
I0403 15:43:49.600747  3414 layer_factory.hpp:77] Creating layer inception_4d/5x5_reduce
I0403 15:43:49.600770  3414 net.cpp:91] Creating Layer inception_4d/5x5_reduce
I0403 15:43:49.600788  3414 net.cpp:425] inception_4d/5x5_reduce <- inception_4c/output_inception_4c/output_0_split_2
I0403 15:43:49.600808  3414 net.cpp:399] inception_4d/5x5_reduce -> inception_4d/5x5_reduce
I0403 15:43:49.601990  3414 net.cpp:141] Setting up inception_4d/5x5_reduce
I0403 15:43:49.602020  3414 net.cpp:148] Top shape: 24 32 14 14 (150528)
I0403 15:43:49.602035  3414 net.cpp:156] Memory required for data: 1132256544
I0403 15:43:49.602056  3414 layer_factory.hpp:77] Creating layer inception_4d/relu_5x5_reduce
I0403 15:43:49.602077  3414 net.cpp:91] Creating Layer inception_4d/relu_5x5_reduce
I0403 15:43:49.602094  3414 net.cpp:425] inception_4d/relu_5x5_reduce <- inception_4d/5x5_reduce
I0403 15:43:49.602113  3414 net.cpp:386] inception_4d/relu_5x5_reduce -> inception_4d/5x5_reduce (in-place)
I0403 15:43:49.602315  3414 net.cpp:141] Setting up inception_4d/relu_5x5_reduce
I0403 15:43:49.602344  3414 net.cpp:148] Top shape: 24 32 14 14 (150528)
I0403 15:43:49.602360  3414 net.cpp:156] Memory required for data: 1132858656
I0403 15:43:49.602376  3414 layer_factory.hpp:77] Creating layer inception_4d/5x5
I0403 15:43:49.602399  3414 net.cpp:91] Creating Layer inception_4d/5x5
I0403 15:43:49.602417  3414 net.cpp:425] inception_4d/5x5 <- inception_4d/5x5_reduce
I0403 15:43:49.602437  3414 net.cpp:399] inception_4d/5x5 -> inception_4d/5x5
I0403 15:43:49.603966  3414 net.cpp:141] Setting up inception_4d/5x5
I0403 15:43:49.603997  3414 net.cpp:148] Top shape: 24 64 14 14 (301056)
I0403 15:43:49.604014  3414 net.cpp:156] Memory required for data: 1134062880
I0403 15:43:49.604034  3414 layer_factory.hpp:77] Creating layer inception_4d/relu_5x5
I0403 15:43:49.604068  3414 net.cpp:91] Creating Layer inception_4d/relu_5x5
I0403 15:43:49.604085  3414 net.cpp:425] inception_4d/relu_5x5 <- inception_4d/5x5
I0403 15:43:49.604106  3414 net.cpp:386] inception_4d/relu_5x5 -> inception_4d/5x5 (in-place)
I0403 15:43:49.604423  3414 net.cpp:141] Setting up inception_4d/relu_5x5
I0403 15:43:49.604452  3414 net.cpp:148] Top shape: 24 64 14 14 (301056)
I0403 15:43:49.604470  3414 net.cpp:156] Memory required for data: 1135267104
I0403 15:43:49.604485  3414 layer_factory.hpp:77] Creating layer inception_4d/pool
I0403 15:43:49.604503  3414 net.cpp:91] Creating Layer inception_4d/pool
I0403 15:43:49.604521  3414 net.cpp:425] inception_4d/pool <- inception_4c/output_inception_4c/output_0_split_3
I0403 15:43:49.604542  3414 net.cpp:399] inception_4d/pool -> inception_4d/pool
I0403 15:43:49.604610  3414 net.cpp:141] Setting up inception_4d/pool
I0403 15:43:49.604635  3414 net.cpp:148] Top shape: 24 512 14 14 (2408448)
I0403 15:43:49.604650  3414 net.cpp:156] Memory required for data: 1144900896
I0403 15:43:49.604665  3414 layer_factory.hpp:77] Creating layer inception_4d/pool_proj
I0403 15:43:49.604688  3414 net.cpp:91] Creating Layer inception_4d/pool_proj
I0403 15:43:49.604707  3414 net.cpp:425] inception_4d/pool_proj <- inception_4d/pool
I0403 15:43:49.604727  3414 net.cpp:399] inception_4d/pool_proj -> inception_4d/pool_proj
I0403 15:43:49.606539  3414 net.cpp:141] Setting up inception_4d/pool_proj
I0403 15:43:49.606569  3414 net.cpp:148] Top shape: 24 64 14 14 (301056)
I0403 15:43:49.606585  3414 net.cpp:156] Memory required for data: 1146105120
I0403 15:43:49.606605  3414 layer_factory.hpp:77] Creating layer inception_4d/relu_pool_proj
I0403 15:43:49.606626  3414 net.cpp:91] Creating Layer inception_4d/relu_pool_proj
I0403 15:43:49.606644  3414 net.cpp:425] inception_4d/relu_pool_proj <- inception_4d/pool_proj
I0403 15:43:49.606663  3414 net.cpp:386] inception_4d/relu_pool_proj -> inception_4d/pool_proj (in-place)
I0403 15:43:49.606855  3414 net.cpp:141] Setting up inception_4d/relu_pool_proj
I0403 15:43:49.606883  3414 net.cpp:148] Top shape: 24 64 14 14 (301056)
I0403 15:43:49.606899  3414 net.cpp:156] Memory required for data: 1147309344
I0403 15:43:49.606914  3414 layer_factory.hpp:77] Creating layer inception_4d/output
I0403 15:43:49.606932  3414 net.cpp:91] Creating Layer inception_4d/output
I0403 15:43:49.606948  3414 net.cpp:425] inception_4d/output <- inception_4d/1x1
I0403 15:43:49.606966  3414 net.cpp:425] inception_4d/output <- inception_4d/3x3
I0403 15:43:49.606983  3414 net.cpp:425] inception_4d/output <- inception_4d/5x5
I0403 15:43:49.607000  3414 net.cpp:425] inception_4d/output <- inception_4d/pool_proj
I0403 15:43:49.607017  3414 net.cpp:399] inception_4d/output -> inception_4d/output
I0403 15:43:49.607069  3414 net.cpp:141] Setting up inception_4d/output
I0403 15:43:49.607094  3414 net.cpp:148] Top shape: 24 528 14 14 (2483712)
I0403 15:43:49.607108  3414 net.cpp:156] Memory required for data: 1157244192
I0403 15:43:49.607123  3414 layer_factory.hpp:77] Creating layer inception_4d/output_inception_4d/output_0_split
I0403 15:43:49.607144  3414 net.cpp:91] Creating Layer inception_4d/output_inception_4d/output_0_split
I0403 15:43:49.607161  3414 net.cpp:425] inception_4d/output_inception_4d/output_0_split <- inception_4d/output
I0403 15:43:49.607180  3414 net.cpp:399] inception_4d/output_inception_4d/output_0_split -> inception_4d/output_inception_4d/output_0_split_0
I0403 15:43:49.607203  3414 net.cpp:399] inception_4d/output_inception_4d/output_0_split -> inception_4d/output_inception_4d/output_0_split_1
I0403 15:43:49.607229  3414 net.cpp:399] inception_4d/output_inception_4d/output_0_split -> inception_4d/output_inception_4d/output_0_split_2
I0403 15:43:49.607254  3414 net.cpp:399] inception_4d/output_inception_4d/output_0_split -> inception_4d/output_inception_4d/output_0_split_3
I0403 15:43:49.607277  3414 net.cpp:399] inception_4d/output_inception_4d/output_0_split -> inception_4d/output_inception_4d/output_0_split_4
I0403 15:43:49.607383  3414 net.cpp:141] Setting up inception_4d/output_inception_4d/output_0_split
I0403 15:43:49.607419  3414 net.cpp:148] Top shape: 24 528 14 14 (2483712)
I0403 15:43:49.607437  3414 net.cpp:148] Top shape: 24 528 14 14 (2483712)
I0403 15:43:49.607455  3414 net.cpp:148] Top shape: 24 528 14 14 (2483712)
I0403 15:43:49.607470  3414 net.cpp:148] Top shape: 24 528 14 14 (2483712)
I0403 15:43:49.607486  3414 net.cpp:148] Top shape: 24 528 14 14 (2483712)
I0403 15:43:49.607501  3414 net.cpp:156] Memory required for data: 1206918432
I0403 15:43:49.607517  3414 layer_factory.hpp:77] Creating layer loss2/ave_pool
I0403 15:43:49.607537  3414 net.cpp:91] Creating Layer loss2/ave_pool
I0403 15:43:49.607555  3414 net.cpp:425] loss2/ave_pool <- inception_4d/output_inception_4d/output_0_split_0
I0403 15:43:49.607574  3414 net.cpp:399] loss2/ave_pool -> loss2/ave_pool
I0403 15:43:49.607899  3414 net.cpp:141] Setting up loss2/ave_pool
I0403 15:43:49.607926  3414 net.cpp:148] Top shape: 24 528 4 4 (202752)
I0403 15:43:49.607942  3414 net.cpp:156] Memory required for data: 1207729440
I0403 15:43:49.607957  3414 layer_factory.hpp:77] Creating layer loss2/conv
I0403 15:43:49.607981  3414 net.cpp:91] Creating Layer loss2/conv
I0403 15:43:49.608000  3414 net.cpp:425] loss2/conv <- loss2/ave_pool
I0403 15:43:49.608021  3414 net.cpp:399] loss2/conv -> loss2/conv
I0403 15:43:49.610018  3414 net.cpp:141] Setting up loss2/conv
I0403 15:43:49.610051  3414 net.cpp:148] Top shape: 24 128 4 4 (49152)
I0403 15:43:49.610069  3414 net.cpp:156] Memory required for data: 1207926048
I0403 15:43:49.610088  3414 layer_factory.hpp:77] Creating layer loss2/relu_conv
I0403 15:43:49.610108  3414 net.cpp:91] Creating Layer loss2/relu_conv
I0403 15:43:49.610126  3414 net.cpp:425] loss2/relu_conv <- loss2/conv
I0403 15:43:49.610147  3414 net.cpp:386] loss2/relu_conv -> loss2/conv (in-place)
I0403 15:43:49.610461  3414 net.cpp:141] Setting up loss2/relu_conv
I0403 15:43:49.610491  3414 net.cpp:148] Top shape: 24 128 4 4 (49152)
I0403 15:43:49.610507  3414 net.cpp:156] Memory required for data: 1208122656
I0403 15:43:49.610524  3414 layer_factory.hpp:77] Creating layer loss2/fc
I0403 15:43:49.610545  3414 net.cpp:91] Creating Layer loss2/fc
I0403 15:43:49.610563  3414 net.cpp:425] loss2/fc <- loss2/conv
I0403 15:43:49.610585  3414 net.cpp:399] loss2/fc -> loss2/fc
I0403 15:43:49.628921  3414 net.cpp:141] Setting up loss2/fc
I0403 15:43:49.628984  3414 net.cpp:148] Top shape: 24 1024 (24576)
I0403 15:43:49.629001  3414 net.cpp:156] Memory required for data: 1208220960
I0403 15:43:49.629022  3414 layer_factory.hpp:77] Creating layer loss2/relu_fc
I0403 15:43:49.629043  3414 net.cpp:91] Creating Layer loss2/relu_fc
I0403 15:43:49.629062  3414 net.cpp:425] loss2/relu_fc <- loss2/fc
I0403 15:43:49.629081  3414 net.cpp:386] loss2/relu_fc -> loss2/fc (in-place)
I0403 15:43:49.629437  3414 net.cpp:141] Setting up loss2/relu_fc
I0403 15:43:49.629467  3414 net.cpp:148] Top shape: 24 1024 (24576)
I0403 15:43:49.629487  3414 net.cpp:156] Memory required for data: 1208319264
I0403 15:43:49.629503  3414 layer_factory.hpp:77] Creating layer loss2/drop_fc
I0403 15:43:49.629523  3414 net.cpp:91] Creating Layer loss2/drop_fc
I0403 15:43:49.629539  3414 net.cpp:425] loss2/drop_fc <- loss2/fc
I0403 15:43:49.629559  3414 net.cpp:386] loss2/drop_fc -> loss2/fc (in-place)
I0403 15:43:49.629611  3414 net.cpp:141] Setting up loss2/drop_fc
I0403 15:43:49.629636  3414 net.cpp:148] Top shape: 24 1024 (24576)
I0403 15:43:49.629652  3414 net.cpp:156] Memory required for data: 1208417568
I0403 15:43:49.629667  3414 layer_factory.hpp:77] Creating layer loss2/classifier_plantvillage
I0403 15:43:49.629688  3414 net.cpp:91] Creating Layer loss2/classifier_plantvillage
I0403 15:43:49.629706  3414 net.cpp:425] loss2/classifier_plantvillage <- loss2/fc
I0403 15:43:49.629726  3414 net.cpp:399] loss2/classifier_plantvillage -> loss2/classifier_plantvillage
I0403 15:43:49.630152  3414 net.cpp:141] Setting up loss2/classifier_plantvillage
I0403 15:43:49.630177  3414 net.cpp:148] Top shape: 24 38 (912)
I0403 15:43:49.630223  3414 net.cpp:156] Memory required for data: 1208421216
I0403 15:43:49.630244  3414 layer_factory.hpp:77] Creating layer loss2/classifier_plantvillage_loss2/classifier_plantvillage_0_split
I0403 15:43:49.630262  3414 net.cpp:91] Creating Layer loss2/classifier_plantvillage_loss2/classifier_plantvillage_0_split
I0403 15:43:49.630280  3414 net.cpp:425] loss2/classifier_plantvillage_loss2/classifier_plantvillage_0_split <- loss2/classifier_plantvillage
I0403 15:43:49.630300  3414 net.cpp:399] loss2/classifier_plantvillage_loss2/classifier_plantvillage_0_split -> loss2/classifier_plantvillage_loss2/classifier_plantvillage_0_split_0
I0403 15:43:49.630323  3414 net.cpp:399] loss2/classifier_plantvillage_loss2/classifier_plantvillage_0_split -> loss2/classifier_plantvillage_loss2/classifier_plantvillage_0_split_1
I0403 15:43:49.630347  3414 net.cpp:399] loss2/classifier_plantvillage_loss2/classifier_plantvillage_0_split -> loss2/classifier_plantvillage_loss2/classifier_plantvillage_0_split_2
I0403 15:43:49.630426  3414 net.cpp:141] Setting up loss2/classifier_plantvillage_loss2/classifier_plantvillage_0_split
I0403 15:43:49.630453  3414 net.cpp:148] Top shape: 24 38 (912)
I0403 15:43:49.630472  3414 net.cpp:148] Top shape: 24 38 (912)
I0403 15:43:49.630489  3414 net.cpp:148] Top shape: 24 38 (912)
I0403 15:43:49.630503  3414 net.cpp:156] Memory required for data: 1208432160
I0403 15:43:49.630518  3414 layer_factory.hpp:77] Creating layer inception_4e/1x1
I0403 15:43:49.630542  3414 net.cpp:91] Creating Layer inception_4e/1x1
I0403 15:43:49.630561  3414 net.cpp:425] inception_4e/1x1 <- inception_4d/output_inception_4d/output_0_split_1
I0403 15:43:49.630581  3414 net.cpp:399] inception_4e/1x1 -> inception_4e/1x1
I0403 15:43:49.632490  3414 net.cpp:141] Setting up inception_4e/1x1
I0403 15:43:49.632521  3414 net.cpp:148] Top shape: 24 256 14 14 (1204224)
I0403 15:43:49.632539  3414 net.cpp:156] Memory required for data: 1213249056
I0403 15:43:49.632558  3414 layer_factory.hpp:77] Creating layer inception_4e/relu_1x1
I0403 15:43:49.632577  3414 net.cpp:91] Creating Layer inception_4e/relu_1x1
I0403 15:43:49.632594  3414 net.cpp:425] inception_4e/relu_1x1 <- inception_4e/1x1
I0403 15:43:49.632614  3414 net.cpp:386] inception_4e/relu_1x1 -> inception_4e/1x1 (in-place)
I0403 15:43:49.632920  3414 net.cpp:141] Setting up inception_4e/relu_1x1
I0403 15:43:49.632949  3414 net.cpp:148] Top shape: 24 256 14 14 (1204224)
I0403 15:43:49.632966  3414 net.cpp:156] Memory required for data: 1218065952
I0403 15:43:49.632983  3414 layer_factory.hpp:77] Creating layer inception_4e/3x3_reduce
I0403 15:43:49.633007  3414 net.cpp:91] Creating Layer inception_4e/3x3_reduce
I0403 15:43:49.633024  3414 net.cpp:425] inception_4e/3x3_reduce <- inception_4d/output_inception_4d/output_0_split_2
I0403 15:43:49.633047  3414 net.cpp:399] inception_4e/3x3_reduce -> inception_4e/3x3_reduce
I0403 15:43:49.635262  3414 net.cpp:141] Setting up inception_4e/3x3_reduce
I0403 15:43:49.635295  3414 net.cpp:148] Top shape: 24 160 14 14 (752640)
I0403 15:43:49.635313  3414 net.cpp:156] Memory required for data: 1221076512
I0403 15:43:49.635332  3414 layer_factory.hpp:77] Creating layer inception_4e/relu_3x3_reduce
I0403 15:43:49.635352  3414 net.cpp:91] Creating Layer inception_4e/relu_3x3_reduce
I0403 15:43:49.635370  3414 net.cpp:425] inception_4e/relu_3x3_reduce <- inception_4e/3x3_reduce
I0403 15:43:49.635387  3414 net.cpp:386] inception_4e/relu_3x3_reduce -> inception_4e/3x3_reduce (in-place)
I0403 15:43:49.635581  3414 net.cpp:141] Setting up inception_4e/relu_3x3_reduce
I0403 15:43:49.635607  3414 net.cpp:148] Top shape: 24 160 14 14 (752640)
I0403 15:43:49.635622  3414 net.cpp:156] Memory required for data: 1224087072
I0403 15:43:49.635638  3414 layer_factory.hpp:77] Creating layer inception_4e/3x3
I0403 15:43:49.635661  3414 net.cpp:91] Creating Layer inception_4e/3x3
I0403 15:43:49.635679  3414 net.cpp:425] inception_4e/3x3 <- inception_4e/3x3_reduce
I0403 15:43:49.635701  3414 net.cpp:399] inception_4e/3x3 -> inception_4e/3x3
I0403 15:43:49.640904  3414 net.cpp:141] Setting up inception_4e/3x3
I0403 15:43:49.640946  3414 net.cpp:148] Top shape: 24 320 14 14 (1505280)
I0403 15:43:49.640964  3414 net.cpp:156] Memory required for data: 1230108192
I0403 15:43:49.640985  3414 layer_factory.hpp:77] Creating layer inception_4e/relu_3x3
I0403 15:43:49.641006  3414 net.cpp:91] Creating Layer inception_4e/relu_3x3
I0403 15:43:49.641024  3414 net.cpp:425] inception_4e/relu_3x3 <- inception_4e/3x3
I0403 15:43:49.641042  3414 net.cpp:386] inception_4e/relu_3x3 -> inception_4e/3x3 (in-place)
I0403 15:43:49.641355  3414 net.cpp:141] Setting up inception_4e/relu_3x3
I0403 15:43:49.641381  3414 net.cpp:148] Top shape: 24 320 14 14 (1505280)
I0403 15:43:49.641397  3414 net.cpp:156] Memory required for data: 1236129312
I0403 15:43:49.641413  3414 layer_factory.hpp:77] Creating layer inception_4e/5x5_reduce
I0403 15:43:49.641436  3414 net.cpp:91] Creating Layer inception_4e/5x5_reduce
I0403 15:43:49.641455  3414 net.cpp:425] inception_4e/5x5_reduce <- inception_4d/output_inception_4d/output_0_split_3
I0403 15:43:49.641479  3414 net.cpp:399] inception_4e/5x5_reduce -> inception_4e/5x5_reduce
I0403 15:43:49.642585  3414 net.cpp:141] Setting up inception_4e/5x5_reduce
I0403 15:43:49.642616  3414 net.cpp:148] Top shape: 24 32 14 14 (150528)
I0403 15:43:49.642633  3414 net.cpp:156] Memory required for data: 1236731424
I0403 15:43:49.642653  3414 layer_factory.hpp:77] Creating layer inception_4e/relu_5x5_reduce
I0403 15:43:49.642673  3414 net.cpp:91] Creating Layer inception_4e/relu_5x5_reduce
I0403 15:43:49.642689  3414 net.cpp:425] inception_4e/relu_5x5_reduce <- inception_4e/5x5_reduce
I0403 15:43:49.642710  3414 net.cpp:386] inception_4e/relu_5x5_reduce -> inception_4e/5x5_reduce (in-place)
I0403 15:43:49.643016  3414 net.cpp:141] Setting up inception_4e/relu_5x5_reduce
I0403 15:43:49.643046  3414 net.cpp:148] Top shape: 24 32 14 14 (150528)
I0403 15:43:49.643062  3414 net.cpp:156] Memory required for data: 1237333536
I0403 15:43:49.643079  3414 layer_factory.hpp:77] Creating layer inception_4e/5x5
I0403 15:43:49.643121  3414 net.cpp:91] Creating Layer inception_4e/5x5
I0403 15:43:49.643141  3414 net.cpp:425] inception_4e/5x5 <- inception_4e/5x5_reduce
I0403 15:43:49.643162  3414 net.cpp:399] inception_4e/5x5 -> inception_4e/5x5
I0403 15:43:49.645081  3414 net.cpp:141] Setting up inception_4e/5x5
I0403 15:43:49.645113  3414 net.cpp:148] Top shape: 24 128 14 14 (602112)
I0403 15:43:49.645130  3414 net.cpp:156] Memory required for data: 1239741984
I0403 15:43:49.645150  3414 layer_factory.hpp:77] Creating layer inception_4e/relu_5x5
I0403 15:43:49.645172  3414 net.cpp:91] Creating Layer inception_4e/relu_5x5
I0403 15:43:49.645190  3414 net.cpp:425] inception_4e/relu_5x5 <- inception_4e/5x5
I0403 15:43:49.645213  3414 net.cpp:386] inception_4e/relu_5x5 -> inception_4e/5x5 (in-place)
I0403 15:43:49.645424  3414 net.cpp:141] Setting up inception_4e/relu_5x5
I0403 15:43:49.645455  3414 net.cpp:148] Top shape: 24 128 14 14 (602112)
I0403 15:43:49.645479  3414 net.cpp:156] Memory required for data: 1242150432
I0403 15:43:49.645503  3414 layer_factory.hpp:77] Creating layer inception_4e/pool
I0403 15:43:49.645534  3414 net.cpp:91] Creating Layer inception_4e/pool
I0403 15:43:49.645551  3414 net.cpp:425] inception_4e/pool <- inception_4d/output_inception_4d/output_0_split_4
I0403 15:43:49.645573  3414 net.cpp:399] inception_4e/pool -> inception_4e/pool
I0403 15:43:49.645647  3414 net.cpp:141] Setting up inception_4e/pool
I0403 15:43:49.645673  3414 net.cpp:148] Top shape: 24 528 14 14 (2483712)
I0403 15:43:49.645689  3414 net.cpp:156] Memory required for data: 1252085280
I0403 15:43:49.645705  3414 layer_factory.hpp:77] Creating layer inception_4e/pool_proj
I0403 15:43:49.645730  3414 net.cpp:91] Creating Layer inception_4e/pool_proj
I0403 15:43:49.645750  3414 net.cpp:425] inception_4e/pool_proj <- inception_4e/pool
I0403 15:43:49.645769  3414 net.cpp:399] inception_4e/pool_proj -> inception_4e/pool_proj
I0403 15:43:49.647330  3414 net.cpp:141] Setting up inception_4e/pool_proj
I0403 15:43:49.647370  3414 net.cpp:148] Top shape: 24 128 14 14 (602112)
I0403 15:43:49.647387  3414 net.cpp:156] Memory required for data: 1254493728
I0403 15:43:49.647408  3414 layer_factory.hpp:77] Creating layer inception_4e/relu_pool_proj
I0403 15:43:49.647428  3414 net.cpp:91] Creating Layer inception_4e/relu_pool_proj
I0403 15:43:49.647446  3414 net.cpp:425] inception_4e/relu_pool_proj <- inception_4e/pool_proj
I0403 15:43:49.647466  3414 net.cpp:386] inception_4e/relu_pool_proj -> inception_4e/pool_proj (in-place)
I0403 15:43:49.647769  3414 net.cpp:141] Setting up inception_4e/relu_pool_proj
I0403 15:43:49.647796  3414 net.cpp:148] Top shape: 24 128 14 14 (602112)
I0403 15:43:49.647812  3414 net.cpp:156] Memory required for data: 1256902176
I0403 15:43:49.647827  3414 layer_factory.hpp:77] Creating layer inception_4e/output
I0403 15:43:49.647848  3414 net.cpp:91] Creating Layer inception_4e/output
I0403 15:43:49.647866  3414 net.cpp:425] inception_4e/output <- inception_4e/1x1
I0403 15:43:49.647883  3414 net.cpp:425] inception_4e/output <- inception_4e/3x3
I0403 15:43:49.647900  3414 net.cpp:425] inception_4e/output <- inception_4e/5x5
I0403 15:43:49.647917  3414 net.cpp:425] inception_4e/output <- inception_4e/pool_proj
I0403 15:43:49.647934  3414 net.cpp:399] inception_4e/output -> inception_4e/output
I0403 15:43:49.647990  3414 net.cpp:141] Setting up inception_4e/output
I0403 15:43:49.648015  3414 net.cpp:148] Top shape: 24 832 14 14 (3913728)
I0403 15:43:49.648030  3414 net.cpp:156] Memory required for data: 1272557088
I0403 15:43:49.648046  3414 layer_factory.hpp:77] Creating layer pool4/3x3_s2
I0403 15:43:49.648064  3414 net.cpp:91] Creating Layer pool4/3x3_s2
I0403 15:43:49.648082  3414 net.cpp:425] pool4/3x3_s2 <- inception_4e/output
I0403 15:43:49.648103  3414 net.cpp:399] pool4/3x3_s2 -> pool4/3x3_s2
I0403 15:43:49.648172  3414 net.cpp:141] Setting up pool4/3x3_s2
I0403 15:43:49.648196  3414 net.cpp:148] Top shape: 24 832 7 7 (978432)
I0403 15:43:49.648217  3414 net.cpp:156] Memory required for data: 1276470816
I0403 15:43:49.648233  3414 layer_factory.hpp:77] Creating layer pool4/3x3_s2_pool4/3x3_s2_0_split
I0403 15:43:49.648255  3414 net.cpp:91] Creating Layer pool4/3x3_s2_pool4/3x3_s2_0_split
I0403 15:43:49.648274  3414 net.cpp:425] pool4/3x3_s2_pool4/3x3_s2_0_split <- pool4/3x3_s2
I0403 15:43:49.648295  3414 net.cpp:399] pool4/3x3_s2_pool4/3x3_s2_0_split -> pool4/3x3_s2_pool4/3x3_s2_0_split_0
I0403 15:43:49.648318  3414 net.cpp:399] pool4/3x3_s2_pool4/3x3_s2_0_split -> pool4/3x3_s2_pool4/3x3_s2_0_split_1
I0403 15:43:49.648339  3414 net.cpp:399] pool4/3x3_s2_pool4/3x3_s2_0_split -> pool4/3x3_s2_pool4/3x3_s2_0_split_2
I0403 15:43:49.648360  3414 net.cpp:399] pool4/3x3_s2_pool4/3x3_s2_0_split -> pool4/3x3_s2_pool4/3x3_s2_0_split_3
I0403 15:43:49.648452  3414 net.cpp:141] Setting up pool4/3x3_s2_pool4/3x3_s2_0_split
I0403 15:43:49.648476  3414 net.cpp:148] Top shape: 24 832 7 7 (978432)
I0403 15:43:49.648497  3414 net.cpp:148] Top shape: 24 832 7 7 (978432)
I0403 15:43:49.648514  3414 net.cpp:148] Top shape: 24 832 7 7 (978432)
I0403 15:43:49.648531  3414 net.cpp:148] Top shape: 24 832 7 7 (978432)
I0403 15:43:49.648546  3414 net.cpp:156] Memory required for data: 1292125728
I0403 15:43:49.648561  3414 layer_factory.hpp:77] Creating layer inception_5a/1x1
I0403 15:43:49.648582  3414 net.cpp:91] Creating Layer inception_5a/1x1
I0403 15:43:49.648599  3414 net.cpp:425] inception_5a/1x1 <- pool4/3x3_s2_pool4/3x3_s2_0_split_0
I0403 15:43:49.648622  3414 net.cpp:399] inception_5a/1x1 -> inception_5a/1x1
I0403 15:43:49.651653  3414 net.cpp:141] Setting up inception_5a/1x1
I0403 15:43:49.651689  3414 net.cpp:148] Top shape: 24 256 7 7 (301056)
I0403 15:43:49.651705  3414 net.cpp:156] Memory required for data: 1293329952
I0403 15:43:49.651726  3414 layer_factory.hpp:77] Creating layer inception_5a/relu_1x1
I0403 15:43:49.651746  3414 net.cpp:91] Creating Layer inception_5a/relu_1x1
I0403 15:43:49.651763  3414 net.cpp:425] inception_5a/relu_1x1 <- inception_5a/1x1
I0403 15:43:49.651782  3414 net.cpp:386] inception_5a/relu_1x1 -> inception_5a/1x1 (in-place)
I0403 15:43:49.652117  3414 net.cpp:141] Setting up inception_5a/relu_1x1
I0403 15:43:49.652146  3414 net.cpp:148] Top shape: 24 256 7 7 (301056)
I0403 15:43:49.652163  3414 net.cpp:156] Memory required for data: 1294534176
I0403 15:43:49.652180  3414 layer_factory.hpp:77] Creating layer inception_5a/3x3_reduce
I0403 15:43:49.652205  3414 net.cpp:91] Creating Layer inception_5a/3x3_reduce
I0403 15:43:49.652230  3414 net.cpp:425] inception_5a/3x3_reduce <- pool4/3x3_s2_pool4/3x3_s2_0_split_1
I0403 15:43:49.652252  3414 net.cpp:399] inception_5a/3x3_reduce -> inception_5a/3x3_reduce
I0403 15:43:49.654899  3414 net.cpp:141] Setting up inception_5a/3x3_reduce
I0403 15:43:49.654932  3414 net.cpp:148] Top shape: 24 160 7 7 (188160)
I0403 15:43:49.654948  3414 net.cpp:156] Memory required for data: 1295286816
I0403 15:43:49.654968  3414 layer_factory.hpp:77] Creating layer inception_5a/relu_3x3_reduce
I0403 15:43:49.654989  3414 net.cpp:91] Creating Layer inception_5a/relu_3x3_reduce
I0403 15:43:49.655007  3414 net.cpp:425] inception_5a/relu_3x3_reduce <- inception_5a/3x3_reduce
I0403 15:43:49.655026  3414 net.cpp:386] inception_5a/relu_3x3_reduce -> inception_5a/3x3_reduce (in-place)
I0403 15:43:49.655223  3414 net.cpp:141] Setting up inception_5a/relu_3x3_reduce
I0403 15:43:49.655252  3414 net.cpp:148] Top shape: 24 160 7 7 (188160)
I0403 15:43:49.655269  3414 net.cpp:156] Memory required for data: 1296039456
I0403 15:43:49.655285  3414 layer_factory.hpp:77] Creating layer inception_5a/3x3
I0403 15:43:49.655306  3414 net.cpp:91] Creating Layer inception_5a/3x3
I0403 15:43:49.655323  3414 net.cpp:425] inception_5a/3x3 <- inception_5a/3x3_reduce
I0403 15:43:49.655346  3414 net.cpp:399] inception_5a/3x3 -> inception_5a/3x3
I0403 15:43:49.660617  3414 net.cpp:141] Setting up inception_5a/3x3
I0403 15:43:49.660650  3414 net.cpp:148] Top shape: 24 320 7 7 (376320)
I0403 15:43:49.660666  3414 net.cpp:156] Memory required for data: 1297544736
I0403 15:43:49.660686  3414 layer_factory.hpp:77] Creating layer inception_5a/relu_3x3
I0403 15:43:49.660706  3414 net.cpp:91] Creating Layer inception_5a/relu_3x3
I0403 15:43:49.660725  3414 net.cpp:425] inception_5a/relu_3x3 <- inception_5a/3x3
I0403 15:43:49.660743  3414 net.cpp:386] inception_5a/relu_3x3 -> inception_5a/3x3 (in-place)
I0403 15:43:49.661046  3414 net.cpp:141] Setting up inception_5a/relu_3x3
I0403 15:43:49.661074  3414 net.cpp:148] Top shape: 24 320 7 7 (376320)
I0403 15:43:49.661090  3414 net.cpp:156] Memory required for data: 1299050016
I0403 15:43:49.661106  3414 layer_factory.hpp:77] Creating layer inception_5a/5x5_reduce
I0403 15:43:49.661133  3414 net.cpp:91] Creating Layer inception_5a/5x5_reduce
I0403 15:43:49.661152  3414 net.cpp:425] inception_5a/5x5_reduce <- pool4/3x3_s2_pool4/3x3_s2_0_split_2
I0403 15:43:49.661173  3414 net.cpp:399] inception_5a/5x5_reduce -> inception_5a/5x5_reduce
I0403 15:43:49.662395  3414 net.cpp:141] Setting up inception_5a/5x5_reduce
I0403 15:43:49.662426  3414 net.cpp:148] Top shape: 24 32 7 7 (37632)
I0403 15:43:49.662444  3414 net.cpp:156] Memory required for data: 1299200544
I0403 15:43:49.662463  3414 layer_factory.hpp:77] Creating layer inception_5a/relu_5x5_reduce
I0403 15:43:49.662483  3414 net.cpp:91] Creating Layer inception_5a/relu_5x5_reduce
I0403 15:43:49.662500  3414 net.cpp:425] inception_5a/relu_5x5_reduce <- inception_5a/5x5_reduce
I0403 15:43:49.662520  3414 net.cpp:386] inception_5a/relu_5x5_reduce -> inception_5a/5x5_reduce (in-place)
I0403 15:43:49.662834  3414 net.cpp:141] Setting up inception_5a/relu_5x5_reduce
I0403 15:43:49.662863  3414 net.cpp:148] Top shape: 24 32 7 7 (37632)
I0403 15:43:49.662879  3414 net.cpp:156] Memory required for data: 1299351072
I0403 15:43:49.662895  3414 layer_factory.hpp:77] Creating layer inception_5a/5x5
I0403 15:43:49.662919  3414 net.cpp:91] Creating Layer inception_5a/5x5
I0403 15:43:49.662937  3414 net.cpp:425] inception_5a/5x5 <- inception_5a/5x5_reduce
I0403 15:43:49.662960  3414 net.cpp:399] inception_5a/5x5 -> inception_5a/5x5
I0403 15:43:49.664791  3414 net.cpp:141] Setting up inception_5a/5x5
I0403 15:43:49.664832  3414 net.cpp:148] Top shape: 24 128 7 7 (150528)
I0403 15:43:49.664849  3414 net.cpp:156] Memory required for data: 1299953184
I0403 15:43:49.664870  3414 layer_factory.hpp:77] Creating layer inception_5a/relu_5x5
I0403 15:43:49.664891  3414 net.cpp:91] Creating Layer inception_5a/relu_5x5
I0403 15:43:49.664908  3414 net.cpp:425] inception_5a/relu_5x5 <- inception_5a/5x5
I0403 15:43:49.664927  3414 net.cpp:386] inception_5a/relu_5x5 -> inception_5a/5x5 (in-place)
I0403 15:43:49.665125  3414 net.cpp:141] Setting up inception_5a/relu_5x5
I0403 15:43:49.665151  3414 net.cpp:148] Top shape: 24 128 7 7 (150528)
I0403 15:43:49.665166  3414 net.cpp:156] Memory required for data: 1300555296
I0403 15:43:49.665182  3414 layer_factory.hpp:77] Creating layer inception_5a/pool
I0403 15:43:49.665200  3414 net.cpp:91] Creating Layer inception_5a/pool
I0403 15:43:49.665223  3414 net.cpp:425] inception_5a/pool <- pool4/3x3_s2_pool4/3x3_s2_0_split_3
I0403 15:43:49.665252  3414 net.cpp:399] inception_5a/pool -> inception_5a/pool
I0403 15:43:49.665328  3414 net.cpp:141] Setting up inception_5a/pool
I0403 15:43:49.665354  3414 net.cpp:148] Top shape: 24 832 7 7 (978432)
I0403 15:43:49.665369  3414 net.cpp:156] Memory required for data: 1304469024
I0403 15:43:49.665385  3414 layer_factory.hpp:77] Creating layer inception_5a/pool_proj
I0403 15:43:49.665410  3414 net.cpp:91] Creating Layer inception_5a/pool_proj
I0403 15:43:49.665427  3414 net.cpp:425] inception_5a/pool_proj <- inception_5a/pool
I0403 15:43:49.665447  3414 net.cpp:399] inception_5a/pool_proj -> inception_5a/pool_proj
I0403 15:43:49.667839  3414 net.cpp:141] Setting up inception_5a/pool_proj
I0403 15:43:49.667870  3414 net.cpp:148] Top shape: 24 128 7 7 (150528)
I0403 15:43:49.667886  3414 net.cpp:156] Memory required for data: 1305071136
I0403 15:43:49.667906  3414 layer_factory.hpp:77] Creating layer inception_5a/relu_pool_proj
I0403 15:43:49.667930  3414 net.cpp:91] Creating Layer inception_5a/relu_pool_proj
I0403 15:43:49.667948  3414 net.cpp:425] inception_5a/relu_pool_proj <- inception_5a/pool_proj
I0403 15:43:49.667968  3414 net.cpp:386] inception_5a/relu_pool_proj -> inception_5a/pool_proj (in-place)
I0403 15:43:49.668290  3414 net.cpp:141] Setting up inception_5a/relu_pool_proj
I0403 15:43:49.668318  3414 net.cpp:148] Top shape: 24 128 7 7 (150528)
I0403 15:43:49.668334  3414 net.cpp:156] Memory required for data: 1305673248
I0403 15:43:49.668349  3414 layer_factory.hpp:77] Creating layer inception_5a/output
I0403 15:43:49.668370  3414 net.cpp:91] Creating Layer inception_5a/output
I0403 15:43:49.668387  3414 net.cpp:425] inception_5a/output <- inception_5a/1x1
I0403 15:43:49.668406  3414 net.cpp:425] inception_5a/output <- inception_5a/3x3
I0403 15:43:49.668423  3414 net.cpp:425] inception_5a/output <- inception_5a/5x5
I0403 15:43:49.668439  3414 net.cpp:425] inception_5a/output <- inception_5a/pool_proj
I0403 15:43:49.668457  3414 net.cpp:399] inception_5a/output -> inception_5a/output
I0403 15:43:49.668510  3414 net.cpp:141] Setting up inception_5a/output
I0403 15:43:49.668535  3414 net.cpp:148] Top shape: 24 832 7 7 (978432)
I0403 15:43:49.668550  3414 net.cpp:156] Memory required for data: 1309586976
I0403 15:43:49.668566  3414 layer_factory.hpp:77] Creating layer inception_5a/output_inception_5a/output_0_split
I0403 15:43:49.668584  3414 net.cpp:91] Creating Layer inception_5a/output_inception_5a/output_0_split
I0403 15:43:49.668601  3414 net.cpp:425] inception_5a/output_inception_5a/output_0_split <- inception_5a/output
I0403 15:43:49.668622  3414 net.cpp:399] inception_5a/output_inception_5a/output_0_split -> inception_5a/output_inception_5a/output_0_split_0
I0403 15:43:49.668643  3414 net.cpp:399] inception_5a/output_inception_5a/output_0_split -> inception_5a/output_inception_5a/output_0_split_1
I0403 15:43:49.668664  3414 net.cpp:399] inception_5a/output_inception_5a/output_0_split -> inception_5a/output_inception_5a/output_0_split_2
I0403 15:43:49.668686  3414 net.cpp:399] inception_5a/output_inception_5a/output_0_split -> inception_5a/output_inception_5a/output_0_split_3
I0403 15:43:49.668808  3414 net.cpp:141] Setting up inception_5a/output_inception_5a/output_0_split
I0403 15:43:49.668834  3414 net.cpp:148] Top shape: 24 832 7 7 (978432)
I0403 15:43:49.668853  3414 net.cpp:148] Top shape: 24 832 7 7 (978432)
I0403 15:43:49.668869  3414 net.cpp:148] Top shape: 24 832 7 7 (978432)
I0403 15:43:49.668884  3414 net.cpp:148] Top shape: 24 832 7 7 (978432)
I0403 15:43:49.668898  3414 net.cpp:156] Memory required for data: 1325241888
I0403 15:43:49.668913  3414 layer_factory.hpp:77] Creating layer inception_5b/1x1
I0403 15:43:49.668936  3414 net.cpp:91] Creating Layer inception_5b/1x1
I0403 15:43:49.668956  3414 net.cpp:425] inception_5b/1x1 <- inception_5a/output_inception_5a/output_0_split_0
I0403 15:43:49.668978  3414 net.cpp:399] inception_5b/1x1 -> inception_5b/1x1
I0403 15:43:49.672890  3414 net.cpp:141] Setting up inception_5b/1x1
I0403 15:43:49.672922  3414 net.cpp:148] Top shape: 24 384 7 7 (451584)
I0403 15:43:49.672938  3414 net.cpp:156] Memory required for data: 1327048224
I0403 15:43:49.672958  3414 layer_factory.hpp:77] Creating layer inception_5b/relu_1x1
I0403 15:43:49.672981  3414 net.cpp:91] Creating Layer inception_5b/relu_1x1
I0403 15:43:49.672999  3414 net.cpp:425] inception_5b/relu_1x1 <- inception_5b/1x1
I0403 15:43:49.673018  3414 net.cpp:386] inception_5b/relu_1x1 -> inception_5b/1x1 (in-place)
I0403 15:43:49.673341  3414 net.cpp:141] Setting up inception_5b/relu_1x1
I0403 15:43:49.673379  3414 net.cpp:148] Top shape: 24 384 7 7 (451584)
I0403 15:43:49.673394  3414 net.cpp:156] Memory required for data: 1328854560
I0403 15:43:49.673410  3414 layer_factory.hpp:77] Creating layer inception_5b/3x3_reduce
I0403 15:43:49.673435  3414 net.cpp:91] Creating Layer inception_5b/3x3_reduce
I0403 15:43:49.673454  3414 net.cpp:425] inception_5b/3x3_reduce <- inception_5a/output_inception_5a/output_0_split_1
I0403 15:43:49.673476  3414 net.cpp:399] inception_5b/3x3_reduce -> inception_5b/3x3_reduce
I0403 15:43:49.676179  3414 net.cpp:141] Setting up inception_5b/3x3_reduce
I0403 15:43:49.676215  3414 net.cpp:148] Top shape: 24 192 7 7 (225792)
I0403 15:43:49.676244  3414 net.cpp:156] Memory required for data: 1329757728
I0403 15:43:49.676265  3414 layer_factory.hpp:77] Creating layer inception_5b/relu_3x3_reduce
I0403 15:43:49.676291  3414 net.cpp:91] Creating Layer inception_5b/relu_3x3_reduce
I0403 15:43:49.676309  3414 net.cpp:425] inception_5b/relu_3x3_reduce <- inception_5b/3x3_reduce
I0403 15:43:49.676327  3414 net.cpp:386] inception_5b/relu_3x3_reduce -> inception_5b/3x3_reduce (in-place)
I0403 15:43:49.676519  3414 net.cpp:141] Setting up inception_5b/relu_3x3_reduce
I0403 15:43:49.676547  3414 net.cpp:148] Top shape: 24 192 7 7 (225792)
I0403 15:43:49.676563  3414 net.cpp:156] Memory required for data: 1330660896
I0403 15:43:49.676580  3414 layer_factory.hpp:77] Creating layer inception_5b/3x3
I0403 15:43:49.676604  3414 net.cpp:91] Creating Layer inception_5b/3x3
I0403 15:43:49.676621  3414 net.cpp:425] inception_5b/3x3 <- inception_5b/3x3_reduce
I0403 15:43:49.676641  3414 net.cpp:399] inception_5b/3x3 -> inception_5b/3x3
I0403 15:43:49.683416  3414 net.cpp:141] Setting up inception_5b/3x3
I0403 15:43:49.683446  3414 net.cpp:148] Top shape: 24 384 7 7 (451584)
I0403 15:43:49.683462  3414 net.cpp:156] Memory required for data: 1332467232
I0403 15:43:49.683482  3414 layer_factory.hpp:77] Creating layer inception_5b/relu_3x3
I0403 15:43:49.683502  3414 net.cpp:91] Creating Layer inception_5b/relu_3x3
I0403 15:43:49.683519  3414 net.cpp:425] inception_5b/relu_3x3 <- inception_5b/3x3
I0403 15:43:49.683537  3414 net.cpp:386] inception_5b/relu_3x3 -> inception_5b/3x3 (in-place)
I0403 15:43:49.683845  3414 net.cpp:141] Setting up inception_5b/relu_3x3
I0403 15:43:49.683872  3414 net.cpp:148] Top shape: 24 384 7 7 (451584)
I0403 15:43:49.683887  3414 net.cpp:156] Memory required for data: 1334273568
I0403 15:43:49.683902  3414 layer_factory.hpp:77] Creating layer inception_5b/5x5_reduce
I0403 15:43:49.683940  3414 net.cpp:91] Creating Layer inception_5b/5x5_reduce
I0403 15:43:49.683959  3414 net.cpp:425] inception_5b/5x5_reduce <- inception_5a/output_inception_5a/output_0_split_2
I0403 15:43:49.683981  3414 net.cpp:399] inception_5b/5x5_reduce -> inception_5b/5x5_reduce
I0403 15:43:49.685284  3414 net.cpp:141] Setting up inception_5b/5x5_reduce
I0403 15:43:49.685312  3414 net.cpp:148] Top shape: 24 48 7 7 (56448)
I0403 15:43:49.685328  3414 net.cpp:156] Memory required for data: 1334499360
I0403 15:43:49.685348  3414 layer_factory.hpp:77] Creating layer inception_5b/relu_5x5_reduce
I0403 15:43:49.685369  3414 net.cpp:91] Creating Layer inception_5b/relu_5x5_reduce
I0403 15:43:49.685385  3414 net.cpp:425] inception_5b/relu_5x5_reduce <- inception_5b/5x5_reduce
I0403 15:43:49.685403  3414 net.cpp:386] inception_5b/relu_5x5_reduce -> inception_5b/5x5_reduce (in-place)
I0403 15:43:49.685784  3414 net.cpp:141] Setting up inception_5b/relu_5x5_reduce
I0403 15:43:49.685811  3414 net.cpp:148] Top shape: 24 48 7 7 (56448)
I0403 15:43:49.685827  3414 net.cpp:156] Memory required for data: 1334725152
I0403 15:43:49.685842  3414 layer_factory.hpp:77] Creating layer inception_5b/5x5
I0403 15:43:49.685863  3414 net.cpp:91] Creating Layer inception_5b/5x5
I0403 15:43:49.685880  3414 net.cpp:425] inception_5b/5x5 <- inception_5b/5x5_reduce
I0403 15:43:49.685900  3414 net.cpp:399] inception_5b/5x5 -> inception_5b/5x5
I0403 15:43:49.687966  3414 net.cpp:141] Setting up inception_5b/5x5
I0403 15:43:49.687997  3414 net.cpp:148] Top shape: 24 128 7 7 (150528)
I0403 15:43:49.688014  3414 net.cpp:156] Memory required for data: 1335327264
I0403 15:43:49.688032  3414 layer_factory.hpp:77] Creating layer inception_5b/relu_5x5
I0403 15:43:49.688051  3414 net.cpp:91] Creating Layer inception_5b/relu_5x5
I0403 15:43:49.688067  3414 net.cpp:425] inception_5b/relu_5x5 <- inception_5b/5x5
I0403 15:43:49.688086  3414 net.cpp:386] inception_5b/relu_5x5 -> inception_5b/5x5 (in-place)
I0403 15:43:49.688300  3414 net.cpp:141] Setting up inception_5b/relu_5x5
I0403 15:43:49.688325  3414 net.cpp:148] Top shape: 24 128 7 7 (150528)
I0403 15:43:49.688340  3414 net.cpp:156] Memory required for data: 1335929376
I0403 15:43:49.688356  3414 layer_factory.hpp:77] Creating layer inception_5b/pool
I0403 15:43:49.688374  3414 net.cpp:91] Creating Layer inception_5b/pool
I0403 15:43:49.688391  3414 net.cpp:425] inception_5b/pool <- inception_5a/output_inception_5a/output_0_split_3
I0403 15:43:49.688412  3414 net.cpp:399] inception_5b/pool -> inception_5b/pool
I0403 15:43:49.688485  3414 net.cpp:141] Setting up inception_5b/pool
I0403 15:43:49.688511  3414 net.cpp:148] Top shape: 24 832 7 7 (978432)
I0403 15:43:49.688526  3414 net.cpp:156] Memory required for data: 1339843104
I0403 15:43:49.688541  3414 layer_factory.hpp:77] Creating layer inception_5b/pool_proj
I0403 15:43:49.688563  3414 net.cpp:91] Creating Layer inception_5b/pool_proj
I0403 15:43:49.688583  3414 net.cpp:425] inception_5b/pool_proj <- inception_5b/pool
I0403 15:43:49.688602  3414 net.cpp:399] inception_5b/pool_proj -> inception_5b/pool_proj
I0403 15:43:49.690918  3414 net.cpp:141] Setting up inception_5b/pool_proj
I0403 15:43:49.690948  3414 net.cpp:148] Top shape: 24 128 7 7 (150528)
I0403 15:43:49.690963  3414 net.cpp:156] Memory required for data: 1340445216
I0403 15:43:49.690982  3414 layer_factory.hpp:77] Creating layer inception_5b/relu_pool_proj
I0403 15:43:49.691005  3414 net.cpp:91] Creating Layer inception_5b/relu_pool_proj
I0403 15:43:49.691022  3414 net.cpp:425] inception_5b/relu_pool_proj <- inception_5b/pool_proj
I0403 15:43:49.691041  3414 net.cpp:386] inception_5b/relu_pool_proj -> inception_5b/pool_proj (in-place)
I0403 15:43:49.691347  3414 net.cpp:141] Setting up inception_5b/relu_pool_proj
I0403 15:43:49.691375  3414 net.cpp:148] Top shape: 24 128 7 7 (150528)
I0403 15:43:49.691390  3414 net.cpp:156] Memory required for data: 1341047328
I0403 15:43:49.691406  3414 layer_factory.hpp:77] Creating layer inception_5b/output
I0403 15:43:49.691424  3414 net.cpp:91] Creating Layer inception_5b/output
I0403 15:43:49.691455  3414 net.cpp:425] inception_5b/output <- inception_5b/1x1
I0403 15:43:49.691474  3414 net.cpp:425] inception_5b/output <- inception_5b/3x3
I0403 15:43:49.691491  3414 net.cpp:425] inception_5b/output <- inception_5b/5x5
I0403 15:43:49.691507  3414 net.cpp:425] inception_5b/output <- inception_5b/pool_proj
I0403 15:43:49.691524  3414 net.cpp:399] inception_5b/output -> inception_5b/output
I0403 15:43:49.691578  3414 net.cpp:141] Setting up inception_5b/output
I0403 15:43:49.691601  3414 net.cpp:148] Top shape: 24 1024 7 7 (1204224)
I0403 15:43:49.691617  3414 net.cpp:156] Memory required for data: 1345864224
I0403 15:43:49.691632  3414 layer_factory.hpp:77] Creating layer pool5/7x7_s1
I0403 15:43:49.691649  3414 net.cpp:91] Creating Layer pool5/7x7_s1
I0403 15:43:49.691664  3414 net.cpp:425] pool5/7x7_s1 <- inception_5b/output
I0403 15:43:49.691685  3414 net.cpp:399] pool5/7x7_s1 -> pool5/7x7_s1
I0403 15:43:49.691900  3414 net.cpp:141] Setting up pool5/7x7_s1
I0403 15:43:49.691928  3414 net.cpp:148] Top shape: 24 1024 1 1 (24576)
I0403 15:43:49.691943  3414 net.cpp:156] Memory required for data: 1345962528
I0403 15:43:49.691958  3414 layer_factory.hpp:77] Creating layer pool5/drop_7x7_s1
I0403 15:43:49.691977  3414 net.cpp:91] Creating Layer pool5/drop_7x7_s1
I0403 15:43:49.691993  3414 net.cpp:425] pool5/drop_7x7_s1 <- pool5/7x7_s1
I0403 15:43:49.692010  3414 net.cpp:386] pool5/drop_7x7_s1 -> pool5/7x7_s1 (in-place)
I0403 15:43:49.692062  3414 net.cpp:141] Setting up pool5/drop_7x7_s1
I0403 15:43:49.692085  3414 net.cpp:148] Top shape: 24 1024 1 1 (24576)
I0403 15:43:49.692101  3414 net.cpp:156] Memory required for data: 1346060832
I0403 15:43:49.692114  3414 layer_factory.hpp:77] Creating layer loss3/classifier_plantvillage
I0403 15:43:49.692137  3414 net.cpp:91] Creating Layer loss3/classifier_plantvillage
I0403 15:43:49.692153  3414 net.cpp:425] loss3/classifier_plantvillage <- pool5/7x7_s1
I0403 15:43:49.692173  3414 net.cpp:399] loss3/classifier_plantvillage -> loss3/classifier_plantvillage
I0403 15:43:49.692615  3414 net.cpp:141] Setting up loss3/classifier_plantvillage
I0403 15:43:49.692641  3414 net.cpp:148] Top shape: 24 38 (912)
I0403 15:43:49.692656  3414 net.cpp:156] Memory required for data: 1346064480
I0403 15:43:49.692674  3414 layer_factory.hpp:77] Creating layer loss3/classifier_plantvillage_loss3/classifier_plantvillage_0_split
I0403 15:43:49.692693  3414 net.cpp:91] Creating Layer loss3/classifier_plantvillage_loss3/classifier_plantvillage_0_split
I0403 15:43:49.692710  3414 net.cpp:425] loss3/classifier_plantvillage_loss3/classifier_plantvillage_0_split <- loss3/classifier_plantvillage
I0403 15:43:49.692734  3414 net.cpp:399] loss3/classifier_plantvillage_loss3/classifier_plantvillage_0_split -> loss3/classifier_plantvillage_loss3/classifier_plantvillage_0_split_0
I0403 15:43:49.692755  3414 net.cpp:399] loss3/classifier_plantvillage_loss3/classifier_plantvillage_0_split -> loss3/classifier_plantvillage_loss3/classifier_plantvillage_0_split_1
I0403 15:43:49.692776  3414 net.cpp:399] loss3/classifier_plantvillage_loss3/classifier_plantvillage_0_split -> loss3/classifier_plantvillage_loss3/classifier_plantvillage_0_split_2
I0403 15:43:49.692798  3414 net.cpp:399] loss3/classifier_plantvillage_loss3/classifier_plantvillage_0_split -> loss3/classifier_plantvillage_loss3/classifier_plantvillage_0_split_3
I0403 15:43:49.692899  3414 net.cpp:141] Setting up loss3/classifier_plantvillage_loss3/classifier_plantvillage_0_split
I0403 15:43:49.692922  3414 net.cpp:148] Top shape: 24 38 (912)
I0403 15:43:49.692939  3414 net.cpp:148] Top shape: 24 38 (912)
I0403 15:43:49.692955  3414 net.cpp:148] Top shape: 24 38 (912)
I0403 15:43:49.692971  3414 net.cpp:148] Top shape: 24 38 (912)
I0403 15:43:49.692986  3414 net.cpp:156] Memory required for data: 1346079072
I0403 15:43:49.693001  3414 layer_factory.hpp:77] Creating layer loss1/loss
I0403 15:43:49.693022  3414 net.cpp:91] Creating Layer loss1/loss
I0403 15:43:49.693039  3414 net.cpp:425] loss1/loss <- loss1/classifier_plantvillage_loss1/classifier_plantvillage_0_split_0
I0403 15:43:49.693069  3414 net.cpp:425] loss1/loss <- label_data_1_split_0
…
