…
I0403 15:42:25.618494  3391 net.cpp:313] The NetState phase (1) differed from the phase (0) specified by a rule in layer data
I0403 15:42:25.619807  3391 net.cpp:49] Initializing net from parameters: 
state {
  phase: TEST
}
layer {
  name: "data"
  type: "Data"
  top: "data"
  top: "label"
  include {
    phase: TEST
  }
  transform_param {
    mirror: false
    crop_size: 224
    mean_file: "/home/mohanty/data/final_dataset/lmdb/segmented-60-40/mean.binaryproto"
  }
  data_param {
    source: "/home/mohanty/data/final_dataset/lmdb/segmented-60-40/test_db"
    batch_size: 24
    backend: LMDB
  }
}
layer {
  name: "conv1/7x7_s2"
  type: "Convolution"
  bottom: "data"
  top: "conv1/7x7_s2"
  param {
    lr_mult: 1
    decay_mult: 1
  }
  param {
    lr_mult: 2
    decay_mult: 0
  }
  convolution_param {
    num_output: 64
    pad: 3
    kernel_size: 7
    stride: 2
    weight_filler {
      type: "xavier"
      std: 0.1
    }
    bias_filler {
      type: "constant"
      value: 0.2
    }
  }
}
layer {
  name: "conv1/relu_7x7"
  type: "ReLU"
  bottom: "conv1/7x7_s2"
  top: "conv1/7x7_s2"
}
layer {
  name: "pool1/3x3_s2"
  type: "Pooling"
  bottom: "conv1/7x7_s2"
  top: "pool1/3x3_s2"
  pooling_param {
    pool: MAX
    kernel_size: 3
    stride: 2
  }
}
layer {
  name: "pool1/norm1"
  type: "LRN"
  bottom: "pool1/3x3_s2"
  top: "pool1/norm1"
  lrn_param {
    local_size: 5
    alpha: 0.0001
    beta: 0.75
  }
}
layer {
  name: "conv2/3x3_reduce"
  type: "Convolution"
  bottom: "pool1/norm1"
  top: "conv2/3x3_reduce"
  param {
    lr_mult: 1
    decay_mult: 1
  }
  param {
    lr_mult: 2
    decay_mult: 0
  }
  convolution_param {
    num_output: 64
    kernel_size: 1
    weight_filler {
      type: "xavier"
      std: 0.1
    }
    bias_filler {
      type: "constant"
      value: 0.2
    }
  }
}
layer {
  name: "conv2/relu_3x3_reduce"
  type: "ReLU"
  bottom: "conv2/3x3_reduce"
  top: "conv2/3x3_reduce"
}
layer {
  name: "conv2/3x3"
  type: "Convolution"
  bottom: "conv2/3x3_reduce"
  top: "conv2/3x3"
  param {
    lr_mult: 1
    decay_mult: 1
  }
  param {
    lr_mult: 2
    decay_mult: 0
  }
  convolution_param {
    num_output: 192
    pad: 1
    kernel_size: 3
    weight_filler {
      type: "xavier"
      std: 0.03
    }
    bias_filler {
      type: "constant"
      value: 0.2
    }
  }
}
layer {
  name: "conv2/relu_3x3"
  type: "ReLU"
  bottom: "conv2/3x3"
  top: "conv2/3x3"
}
layer {
  name: "conv2/norm2"
  type: "LRN"
  bottom: "conv2/3x3"
  top: "conv2/norm2"
  lrn_param {
    local_size: 5
    alpha: 0.0001
    beta: 0.75
  }
}
layer {
  name: "pool2/3x3_s2"
  type: "Pooling"
  bottom: "conv2/norm2"
  top: "pool2/3x3_s2"
  pooling_param {
    pool: MAX
    kernel_size: 3
    stride: 2
  }
}
layer {
  name: "inception_3a/1x1"
  type: "Convolution"
  bottom: "pool2/3x3_s2"
  top: "inception_3a/1x1"
  param {
    lr_mult: 1
    decay_mult: 1
  }
  param {
    lr_mult: 2
    decay_mult: 0
  }
  convolution_param {
    num_output: 64
    kernel_size: 1
    weight_filler {
      type: "xavier"
      std: 0.03
    }
    bias_filler {
      type: "constant"
      value: 0.2
    }
  }
}
layer {
  name: "inception_3a/relu_1x1"
  type: "ReLU"
  bottom: "inception_3a/1x1"
  top: "inception_3a/1x1"
}
layer {
  name: "inception_3a/3x3_reduce"
  type: "Convolution"
  bottom: "pool2/3x3_s2"
  top: "inception_3a/3x3_reduce"
  param {
    lr_mult: 1
    decay_mult: 1
  }
  param {
    lr_mult: 2
    decay_mult: 0
  }
  convolution_param {
    num_output: 96
    kernel_size: 1
    weight_filler {
      type: "xavier"
      std: 0.09
    }
    bias_filler {
      type: "constant"
      value: 0.2
    }
  }
}
layer {
  name: "inception_3a/relu_3x3_reduce"
  type: "ReLU"
  bottom: "inception_3a/3x3_reduce"
  top: "inception_3a/3x3_reduce"
}
layer {
  name: "inception_3a/3x3"
  type: "Convolution"
  bottom: "inception_3a/3x3_reduce"
  top: "inception_3a/3x3"
  param {
    lr_mult: 1
    decay_mult: 1
  }
  param {
    lr_mult: 2
    decay_mult: 0
  }
  convolution_param {
    num_output: 128
    pad: 1
    kernel_size: 3
    weight_filler {
      type: "xavier"
      std: 0.03
    }
    bias_filler {
      type: "constant"
      value: 0.2
    }
  }
}
layer {
  name: "inception_3a/relu_3x3"
  type: "ReLU"
  bottom: "inception_3a/3x3"
  top: "inception_3a/3x3"
}
layer {
  name: "inception_3a/5x5_reduce"
  type: "Convolution"
  bottom: "pool2/3x3_s2"
  top: "inception_3a/5x5_reduce"
  param {
    lr_mult: 1
    decay_mult: 1
  }
  param {
    lr_mult: 2
    decay_mult: 0
  }
  convolution_param {
    num_output: 16
    kernel_size: 1
    weight_filler {
      type: "xavier"
      std: 0.2
    }
    bias_filler {
      type: "constant"
      value: 0.2
    }
  }
}
layer {
  name: "inception_3a/relu_5x5_reduce"
  type: "ReLU"
  bottom: "inception_3a/5x5_reduce"
  top: "inception_3a/5x5_reduce"
}
layer {
  name: "inception_3a/5x5"
  type: "Convolution"
  bottom: "inception_3a/5x5_reduce"
  top: "inception_3a/5x5"
  param {
    lr_mult: 1
    decay_mult: 1
  }
  param {
    lr_mult: 2
    decay_mult: 0
  }
  convolution_param {
    num_output: 32
    pad: 2
    kernel_size: 5
    weight_filler {
      type: "xavier"
      std: 0.03
    }
    bias_filler {
      type: "constant"
      value: 0.2
    }
  }
}
layer {
  name: "inception_3a/relu_5x5"
  type: "ReLU"
  bottom: "inception_3a/5x5"
  top: "inception_3a/5x5"
}
layer {
  name: "inception_3a/pool"
  type: "Pooling"
  bottom: "pool2/3x3_s2"
  top: "inception_3a/pool"
  pooling_param {
    pool: MAX
    kernel_size: 3
    stride: 1
    pad: 1
  }
}
layer {
  name: "inception_3a/pool_proj"
  type: "Convolution"
  bottom: "inception_3a/pool"
  top: "inception_3a/pool_proj"
  param {
    lr_mult: 1
    decay_mult: 1
  }
  param {
    lr_mult: 2
    decay_mult: 0
  }
  convolution_param {
    num_output: 32
    kernel_size: 1
    weight_filler {
      type: "xavier"
      std: 0.1
    }
    bias_filler {
      type: "constant"
      value: 0.2
    }
  }
}
layer {
  name: "inception_3a/relu_pool_proj"
  type: "ReLU"
  bottom: "inception_3a/pool_proj"
  top: "inception_3a/pool_proj"
}
layer {
  name: "inception_3a/output"
  type: "Concat"
  bottom: "inception_3a/1x1"
  bottom: "inception_3a/3x3"
  bottom: "inception_3a/5x5"
  bottom: "inception_3a/pool_proj"
  top: "inception_3a/output"
}
layer {
  name: "inception_3b/1x1"
  type: "Convolution"
  bottom: "inception_3a/output"
  top: "inception_3b/1x1"
  param {
    lr_mult: 1
    decay_mult: 1
  }
  param {
    lr_mult: 2
    decay_mult: 0
  }
  convolution_param {
    num_output: 128
    kernel_size: 1
    weight_filler {
      type: "xavier"
      std: 0.03
    }
    bias_filler {
      type: "constant"
      value: 0.2
    }
  }
}
layer {
  name: "inception_3b/relu_1x1"
  type: "ReLU"
  bottom: "inception_3b/1x1"
  top: "inception_3b/1x1"
}
layer {
  name: "inception_3b/3x3_reduce"
  type: "Convolution"
  bottom: "inception_3a/output"
  top: "inception_3b/3x3_reduce"
  param {
    lr_mult: 1
    decay_mult: 1
  }
  param {
    lr_mult: 2
    decay_mult: 0
  }
  convolution_param {
    num_output: 128
    kernel_size: 1
    weight_filler {
      type: "xavier"
      std: 0.09
    }
    bias_filler {
      type: "constant"
      value: 0.2
    }
  }
}
layer {
  name: "inception_3b/relu_3x3_reduce"
  type: "ReLU"
  bottom: "inception_3b/3x3_reduce"
  top: "inception_3b/3x3_reduce"
}
layer {
  name: "inception_3b/3x3"
  type: "Convolution"
  bottom: "inception_3b/3x3_reduce"
  top: "inception_3b/3x3"
  param {
    lr_mult: 1
    decay_mult: 1
  }
  param {
    lr_mult: 2
    decay_mult: 0
  }
  convolution_param {
    num_output: 192
    pad: 1
    kernel_size: 3
    weight_filler {
      type: "xavier"
      std: 0.03
    }
    bias_filler {
      type: "constant"
      value: 0.2
    }
  }
}
layer {
  name: "inception_3b/relu_3x3"
  type: "ReLU"
  bottom: "inception_3b/3x3"
  top: "inception_3b/3x3"
}
layer {
  name: "inception_3b/5x5_reduce"
  type: "Convolution"
  bottom: "inception_3a/output"
  top: "inception_3b/5x5_reduce"
  param {
    lr_mult: 1
    decay_mult: 1
  }
  param {
    lr_mult: 2
    decay_mult: 0
  }
  convolution_param {
    num_output: 32
    kernel_size: 1
    weight_filler {
      type: "xavier"
      std: 0.2
    }
    bias_filler {
      type: "constant"
      value: 0.2
    }
  }
}
layer {
  name: "inception_3b/relu_5x5_reduce"
  type: "ReLU"
  bottom: "inception_3b/5x5_reduce"
  top: "inception_3b/5x5_reduce"
}
layer {
  name: "inception_3b/5x5"
  type: "Convolution"
  bottom: "inception_3b/5x5_reduce"
  top: "inception_3b/5x5"
  param {
    lr_mult: 1
    decay_mult: 1
  }
  param {
    lr_mult: 2
    decay_mult: 0
  }
  convolution_param {
    num_output: 96
    pad: 2
    kernel_size: 5
    weight_filler {
      type: "xavier"
      std: 0.03
    }
    bias_filler {
      type: "constant"
      value: 0.2
    }
  }
}
layer {
  name: "inception_3b/relu_5x5"
  type: "ReLU"
  bottom: "inception_3b/5x5"
  top: "inception_3b/5x5"
}
layer {
  name: "inception_3b/pool"
  type: "Pooling"
  bottom: "inception_3a/output"
  top: "inception_3b/pool"
  pooling_param {
    pool: MAX
    kernel_size: 3
    stride: 1
    pad: 1
  }
}
layer {
  name: "inception_3b/pool_proj"
  type: "Convolution"
  bottom: "inception_3b/pool"
  top: "inception_3b/pool_proj"
  param {
    lr_mult: 1
    decay_mult: 1
  }
  param {
    lr_mult: 2
    decay_mult: 0
  }
  convolution_param {
    num_output: 64
    kernel_size: 1
    weight_filler {
      type: "xavier"
      std: 0.1
    }
    bias_filler {
      type: "constant"
      value: 0.2
    }
  }
}
layer {
  name: "inception_3b/relu_pool_proj"
  type: "ReLU"
  bottom: "inception_3b/pool_proj"
  top: "inception_3b/pool_proj"
}
layer {
  name: "inception_3b/output"
  type: "Concat"
  bottom: "inception_3b/1x1"
  bottom: "inception_3b/3x3"
  bottom: "inception_3b/5x5"
  bottom: "inception_3b/pool_proj"
  top: "inception_3b/output"
}
layer {
  name: "pool3/3x3_s2"
  type: "Pooling"
  bottom: "inception_3b/output"
  top: "pool3/3x3_s2"
  pooling_param {
    pool: MAX
    kernel_size: 3
    stride: 2
  }
}
layer {
  name: "inception_4a/1x1"
  type: "Convolution"
  bottom: "pool3/3x3_s2"
  top: "inception_4a/1x1"
  param {
    lr_mult: 1
    decay_mult: 1
  }
  param {
    lr_mult: 2
    decay_mult: 0
  }
  convolution_param {
    num_output: 192
    kernel_size: 1
    weight_filler {
      type: "xavier"
      std: 0.03
    }
    bias_filler {
      type: "constant"
      value: 0.2
    }
  }
}
layer {
  name: "inception_4a/relu_1x1"
  type: "ReLU"
  bottom: "inception_4a/1x1"
  top: "inception_4a/1x1"
}
layer {
  name: "inception_4a/3x3_reduce"
  type: "Convolution"
  bottom: "pool3/3x3_s2"
  top: "inception_4a/3x3_reduce"
  param {
    lr_mult: 1
    decay_mult: 1
  }
  param {
    lr_mult: 2
    decay_mult: 0
  }
  convolution_param {
    num_output: 96
    kernel_size: 1
    weight_filler {
      type: "xavier"
      std: 0.09
    }
    bias_filler {
      type: "constant"
      value: 0.2
    }
  }
}
layer {
  name: "inception_4a/relu_3x3_reduce"
  type: "ReLU"
  bottom: "inception_4a/3x3_reduce"
  top: "inception_4a/3x3_reduce"
}
layer {
  name: "inception_4a/3x3"
  type: "Convolution"
  bottom: "inception_4a/3x3_reduce"
  top: "inception_4a/3x3"
  param {
    lr_mult: 1
    decay_mult: 1
  }
  param {
    lr_mult: 2
    decay_mult: 0
  }
  convolution_param {
    num_output: 208
    pad: 1
    kernel_size: 3
    weight_filler {
      type: "xavier"
      std: 0.03
    }
    bias_filler {
      type: "constant"
      value: 0.2
    }
  }
}
layer {
  name: "inception_4a/relu_3x3"
  type: "ReLU"
  bottom: "inception_4a/3x3"
  top: "inception_4a/3x3"
}
layer {
  name: "inception_4a/5x5_reduce"
  type: "Convolution"
  bottom: "pool3/3x3_s2"
  top: "inception_4a/5x5_reduce"
  param {
    lr_mult: 1
    decay_mult: 1
  }
  param {
    lr_mult: 2
    decay_mult: 0
  }
  convolution_param {
    num_output: 16
    kernel_size: 1
    weight_filler {
      type: "xavier"
      std: 0.2
    }
    bias_filler {
      type: "constant"
      value: 0.2
    }
  }
}
layer {
  name: "inception_4a/relu_5x5_reduce"
  type: "ReLU"
  bottom: "inception_4a/5x5_reduce"
  top: "inception_4a/5x5_reduce"
}
layer {
  name: "inception_4a/5x5"
  type: "Convolution"
  bottom: "inception_4a/5x5_reduce"
  top: "inception_4a/5x5"
  param {
    lr_mult: 1
    decay_mult: 1
  }
  param {
    lr_mult: 2
    decay_mult: 0
  }
  convolution_param {
    num_output: 48
    pad: 2
    kernel_size: 5
    weight_filler {
      type: "xavier"
      std: 0.03
    }
    bias_filler {
      type: "constant"
      value: 0.2
    }
  }
}
layer {
  name: "inception_4a/relu_5x5"
  type: "ReLU"
  bottom: "inception_4a/5x5"
  top: "inception_4a/5x5"
}
layer {
  name: "inception_4a/pool"
  type: "Pooling"
  bottom: "pool3/3x3_s2"
  top: "inception_4a/pool"
  pooling_param {
    pool: MAX
    kernel_size: 3
    stride: 1
    pad: 1
  }
}
layer {
  name: "inception_4a/pool_proj"
  type: "Convolution"
  bottom: "inception_4a/pool"
  top: "inception_4a/pool_proj"
  param {
    lr_mult: 1
    decay_mult: 1
  }
  param {
    lr_mult: 2
    decay_mult: 0
  }
  convolution_param {
    num_output: 64
    kernel_size: 1
    weight_filler {
      type: "xavier"
      std: 0.1
    }
    bias_filler {
      type: "constant"
      value: 0.2
    }
  }
}
layer {
  name: "inception_4a/relu_pool_proj"
  type: "ReLU"
  bottom: "inception_4a/pool_proj"
  top: "inception_4a/pool_proj"
}
layer {
  name: "inception_4a/output"
  type: "Concat"
  bottom: "inception_4a/1x1"
  bottom: "inception_4a/3x3"
  bottom: "inception_4a/5x5"
  bottom: "inception_4a/pool_proj"
  top: "inception_4a/output"
}
layer {
  name: "loss1/ave_pool"
  type: "Pooling"
  bottom: "inception_4a/output"
  top: "loss1/ave_pool"
  pooling_param {
    pool: AVE
    kernel_size: 5
    stride: 3
  }
}
layer {
  name: "loss1/conv"
  type: "Convolution"
  bottom: "loss1/ave_pool"
  top: "loss1/conv"
  param {
    lr_mult: 1
    decay_mult: 1
  }
  param {
    lr_mult: 2
    decay_mult: 0
  }
  convolution_param {
    num_output: 128
    kernel_size: 1
    weight_filler {
      type: "xavier"
      std: 0.08
    }
    bias_filler {
      type: "constant"
      value: 0.2
    }
  }
}
layer {
  name: "loss1/relu_conv"
  type: "ReLU"
  bottom: "loss1/conv"
  top: "loss1/conv"
}
layer {
  name: "loss1/fc"
  type: "InnerProduct"
  bottom: "loss1/conv"
  top: "loss1/fc"
  param {
    lr_mult: 1
    decay_mult: 1
  }
  param {
    lr_mult: 2
    decay_mult: 0
  }
  inner_product_param {
    num_output: 1024
    weight_filler {
      type: "xavier"
      std: 0.02
    }
    bias_filler {
      type: "constant"
      value: 0.2
    }
  }
}
layer {
  name: "loss1/relu_fc"
  type: "ReLU"
  bottom: "loss1/fc"
  top: "loss1/fc"
}
layer {
  name: "loss1/drop_fc"
  type: "Dropout"
  bottom: "loss1/fc"
  top: "loss1/fc"
  dropout_param {
    dropout_ratio: 0.7
  }
}
layer {
  name: "loss1/classifier_plantvillage"
  type: "InnerProduct"
  bottom: "loss1/fc"
  top: "loss1/classifier_plantvillage"
  param {
    lr_mult: 1
    decay_mult: 1
  }
  param {
    lr_mult: 2
    decay_mult: 0
  }
  inner_product_param {
    num_output: 38
    weight_filler {
      type: "xavier"
      std: 0.0009765625
    }
    bias_filler {
      type: "constant"
      value: 0
    }
  }
}
layer {
  name: "inception_4b/1x1"
  type: "Convolution"
  bottom: "inception_4a/output"
  top: "inception_4b/1x1"
  param {
    lr_mult: 1
    decay_mult: 1
  }
  param {
    lr_mult: 2
    decay_mult: 0
  }
  convolution_param {
    num_output: 160
    kernel_size: 1
    weight_filler {
      type: "xavier"
      std: 0.03
    }
    bias_filler {
      type: "constant"
      value: 0.2
    }
  }
}
layer {
  name: "inception_4b/relu_1x1"
  type: "ReLU"
  bottom: "inception_4b/1x1"
  top: "inception_4b/1x1"
}
layer {
  name: "inception_4b/3x3_reduce"
  type: "Convolution"
  bottom: "inception_4a/output"
  top: "inception_4b/3x3_reduce"
  param {
    lr_mult: 1
    decay_mult: 1
  }
  param {
    lr_mult: 2
    decay_mult: 0
  }
  convolution_param {
    num_output: 112
    kernel_size: 1
    weight_filler {
      type: "xavier"
      std: 0.09
    }
    bias_filler {
      type: "constant"
      value: 0.2
    }
  }
}
layer {
  name: "inception_4b/relu_3x3_reduce"
  type: "ReLU"
  bottom: "inception_4b/3x3_reduce"
  top: "inception_4b/3x3_reduce"
}
layer {
  name: "inception_4b/3x3"
  type: "Convolution"
  bottom: "inception_4b/3x3_reduce"
  top: "inception_4b/3x3"
  param {
    lr_mult: 1
    decay_mult: 1
  }
  param {
    lr_mult: 2
    decay_mult: 0
  }
  convolution_param {
    num_output: 224
    pad: 1
    kernel_size: 3
    weight_filler {
      type: "xavier"
      std: 0.03
    }
    bias_filler {
      type: "constant"
      value: 0.2
    }
  }
}
layer {
  name: "inception_4b/relu_3x3"
  type: "ReLU"
  bottom: "inception_4b/3x3"
  top: "inception_4b/3x3"
}
layer {
  name: "inception_4b/5x5_reduce"
  type: "Convolution"
  bottom: "inception_4a/output"
  top: "inception_4b/5x5_reduce"
  param {
    lr_mult: 1
    decay_mult: 1
  }
  param {
    lr_mult: 2
    decay_mult: 0
  }
  convolution_param {
    num_output: 24
    kernel_size: 1
    weight_filler {
      type: "xavier"
      std: 0.2
    }
    bias_filler {
      type: "constant"
      value: 0.2
    }
  }
}
layer {
  name: "inception_4b/relu_5x5_reduce"
  type: "ReLU"
  bottom: "inception_4b/5x5_reduce"
  top: "inception_4b/5x5_reduce"
}
layer {
  name: "inception_4b/5x5"
  type: "Convolution"
  bottom: "inception_4b/5x5_reduce"
  top: "inception_4b/5x5"
  param {
    lr_mult: 1
    decay_mult: 1
  }
  param {
    lr_mult: 2
    decay_mult: 0
  }
  convolution_param {
    num_output: 64
    pad: 2
    kernel_size: 5
    weight_filler {
      type: "xavier"
      std: 0.03
    }
    bias_filler {
      type: "constant"
      value: 0.2
    }
  }
}
layer {
  name: "inception_4b/relu_5x5"
  type: "ReLU"
  bottom: "inception_4b/5x5"
  top: "inception_4b/5x5"
}
layer {
  name: "inception_4b/pool"
  type: "Pooling"
  bottom: "inception_4a/output"
  top: "inception_4b/pool"
  pooling_param {
    pool: MAX
    kernel_size: 3
    stride: 1
    pad: 1
  }
}
layer {
  name: "inception_4b/pool_proj"
  type: "Convolution"
  bottom: "inception_4b/pool"
  top: "inception_4b/pool_proj"
  param {
    lr_mult: 1
    decay_mult: 1
  }
  param {
    lr_mult: 2
    decay_mult: 0
  }
  convolution_param {
    num_output: 64
    kernel_size: 1
    weight_filler {
      type: "xavier"
      std: 0.1
    }
    bias_filler {
      type: "constant"
      value: 0.2
    }
  }
}
layer {
  name: "inception_4b/relu_pool_proj"
  type: "ReLU"
  bottom: "inception_4b/pool_proj"
  top: "inception_4b/pool_proj"
}
layer {
  name: "inception_4b/output"
  type: "Concat"
  bottom: "inception_4b/1x1"
  bottom: "inception_4b/3x3"
  bottom: "inception_4b/5x5"
  bottom: "inception_4b/pool_proj"
  top: "inception_4b/output"
}
layer {
  name: "inception_4c/1x1"
  type: "Convolution"
  bottom: "inception_4b/output"
  top: "inception_4c/1x1"
  param {
    lr_mult: 1
    decay_mult: 1
  }
  param {
    lr_mult: 2
    decay_mult: 0
  }
  convolution_param {
    num_output: 128
    kernel_size: 1
    weight_filler {
      type: "xavier"
      std: 0.03
    }
    bias_filler {
      type: "constant"
      value: 0.2
    }
  }
}
layer {
  name: "inception_4c/relu_1x1"
  type: "ReLU"
  bottom: "inception_4c/1x1"
  top: "inception_4c/1x1"
}
layer {
  name: "inception_4c/3x3_reduce"
  type: "Convolution"
  bottom: "inception_4b/output"
  top: "inception_4c/3x3_reduce"
  param {
    lr_mult: 1
    decay_mult: 1
  }
  param {
    lr_mult: 2
    decay_mult: 0
  }
  convolution_param {
    num_output: 128
    kernel_size: 1
    weight_filler {
      type: "xavier"
      std: 0.09
    }
    bias_filler {
      type: "constant"
      value: 0.2
    }
  }
}
layer {
  name: "inception_4c/relu_3x3_reduce"
  type: "ReLU"
  bottom: "inception_4c/3x3_reduce"
  top: "inception_4c/3x3_reduce"
}
layer {
  name: "inception_4c/3x3"
  type: "Convolution"
  bottom: "inception_4c/3x3_reduce"
  top: "inception_4c/3x3"
  param {
    lr_mult: 1
    decay_mult: 1
  }
  param {
    lr_mult: 2
    decay_mult: 0
  }
  convolution_param {
    num_output: 256
    pad: 1
    kernel_size: 3
    weight_filler {
      type: "xavier"
      std: 0.03
    }
    bias_filler {
      type: "constant"
      value: 0.2
    }
  }
}
layer {
  name: "inception_4c/relu_3x3"
  type: "ReLU"
  bottom: "inception_4c/3x3"
  top: "inception_4c/3x3"
}
layer {
  name: "inception_4c/5x5_reduce"
  type: "Convolution"
  bottom: "inception_4b/output"
  top: "inception_4c/5x5_reduce"
  param {
    lr_mult: 1
    decay_mult: 1
  }
  param {
    lr_mult: 2
    decay_mult: 0
  }
  convolution_param {
    num_output: 24
    kernel_size: 1
    weight_filler {
      type: "xavier"
      std: 0.2
    }
    bias_filler {
      type: "constant"
      value: 0.2
    }
  }
}
layer {
  name: "inception_4c/relu_5x5_reduce"
  type: "ReLU"
  bottom: "inception_4c/5x5_reduce"
  top: "inception_4c/5x5_reduce"
}
layer {
  name: "inception_4c/5x5"
  type: "Convolution"
  bottom: "inception_4c/5x5_reduce"
  top: "inception_4c/5x5"
  param {
    lr_mult: 1
    decay_mult: 1
  }
  param {
    lr_mult: 2
    decay_mult: 0
  }
  convolution_param {
    num_output: 64
    pad: 2
    kernel_size: 5
    weight_filler {
      type: "xavier"
      std: 0.03
    }
    bias_filler {
      type: "constant"
      value: 0.2
    }
  }
}
layer {
  name: "inception_4c/relu_5x5"
  type: "ReLU"
  bottom: "inception_4c/5x5"
  top: "inception_4c/5x5"
}
layer {
  name: "inception_4c/pool"
  type: "Pooling"
  bottom: "inception_4b/output"
  top: "inception_4c/pool"
  pooling_param {
    pool: MAX
    kernel_size: 3
    stride: 1
    pad: 1
  }
}
layer {
  name: "inception_4c/pool_proj"
  type: "Convolution"
  bottom: "inception_4c/pool"
  top: "inception_4c/pool_proj"
  param {
    lr_mult: 1
    decay_mult: 1
  }
  param {
    lr_mult: 2
    decay_mult: 0
  }
  convolution_param {
    num_output: 64
    kernel_size: 1
    weight_filler {
      type: "xavier"
      std: 0.1
    }
    bias_filler {
      type: "constant"
      value: 0.2
    }
  }
}
layer {
  name: "inception_4c/relu_pool_proj"
  type: "ReLU"
  bottom: "inception_4c/pool_proj"
  top: "inception_4c/pool_proj"
}
layer {
  name: "inception_4c/output"
  type: "Concat"
  bottom: "inception_4c/1x1"
  bottom: "inception_4c/3x3"
  bottom: "inception_4c/5x5"
  bottom: "inception_4c/pool_proj"
  top: "inception_4c/output"
}
layer {
  name: "inception_4d/1x1"
  type: "Convolution"
  bottom: "inception_4c/output"
  top: "inception_4d/1x1"
  param {
    lr_mult: 1
    decay_mult: 1
  }
  param {
    lr_mult: 2
    decay_mult: 0
  }
  convolution_param {
    num_output: 112
    kernel_size: 1
    weight_filler {
      type: "xavier"
      std: 0.03
    }
    bias_filler {
      type: "constant"
      value: 0.2
    }
  }
}
layer {
  name: "inception_4d/relu_1x1"
  type: "ReLU"
  bottom: "inception_4d/1x1"
  top: "inception_4d/1x1"
}
layer {
  name: "inception_4d/3x3_reduce"
  type: "Convolution"
  bottom: "inception_4c/output"
  top: "inception_4d/3x3_reduce"
  param {
    lr_mult: 1
    decay_mult: 1
  }
  param {
    lr_mult: 2
    decay_mult: 0
  }
  convolution_param {
    num_output: 144
    kernel_size: 1
    weight_filler {
      type: "xavier"
      std: 0.09
    }
    bias_filler {
      type: "constant"
      value: 0.2
    }
  }
}
layer {
  name: "inception_4d/relu_3x3_reduce"
  type: "ReLU"
  bottom: "inception_4d/3x3_reduce"
  top: "inception_4d/3x3_reduce"
}
layer {
  name: "inception_4d/3x3"
  type: "Convolution"
  bottom: "inception_4d/3x3_reduce"
  top: "inception_4d/3x3"
  param {
    lr_mult: 1
    decay_mult: 1
  }
  param {
    lr_mult: 2
    decay_mult: 0
  }
  convolution_param {
    num_output: 288
    pad: 1
    kernel_size: 3
    weight_filler {
      type: "xavier"
      std: 0.03
    }
    bias_filler {
      type: "constant"
      value: 0.2
    }
  }
}
layer {
  name: "inception_4d/relu_3x3"
  type: "ReLU"
  bottom: "inception_4d/3x3"
  top: "inception_4d/3x3"
}
layer {
  name: "inception_4d/5x5_reduce"
  type: "Convolution"
  bottom: "inception_4c/output"
  top: "inception_4d/5x5_reduce"
  param {
    lr_mult: 1
    decay_mult: 1
  }
  param {
    lr_mult: 2
    decay_mult: 0
  }
  convolution_param {
    num_output: 32
    kernel_size: 1
    weight_filler {
      type: "xavier"
      std: 0.2
    }
    bias_filler {
      type: "constant"
      value: 0.2
    }
  }
}
layer {
  name: "inception_4d/relu_5x5_reduce"
  type: "ReLU"
  bottom: "inception_4d/5x5_reduce"
  top: "inception_4d/5x5_reduce"
}
layer {
  name: "inception_4d/5x5"
  type: "Convolution"
  bottom: "inception_4d/5x5_reduce"
  top: "inception_4d/5x5"
  param {
    lr_mult: 1
    decay_mult: 1
  }
  param {
    lr_mult: 2
    decay_mult: 0
  }
  convolution_param {
    num_output: 64
    pad: 2
    kernel_size: 5
    weight_filler {
      type: "xavier"
      std: 0.03
    }
    bias_filler {
      type: "constant"
      value: 0.2
    }
  }
}
layer {
  name: "inception_4d/relu_5x5"
  type: "ReLU"
  bottom: "inception_4d/5x5"
  top: "inception_4d/5x5"
}
layer {
  name: "inception_4d/pool"
  type: "Pooling"
  bottom: "inception_4c/output"
  top: "inception_4d/pool"
  pooling_param {
    pool: MAX
    kernel_size: 3
    stride: 1
    pad: 1
  }
}
layer {
  name: "inception_4d/pool_proj"
  type: "Convolution"
  bottom: "inception_4d/pool"
  top: "inception_4d/pool_proj"
  param {
    lr_mult: 1
    decay_mult: 1
  }
  param {
    lr_mult: 2
    decay_mult: 0
  }
  convolution_param {
    num_output: 64
    kernel_size: 1
    weight_filler {
      type: "xavier"
      std: 0.1
    }
    bias_filler {
      type: "constant"
      value: 0.2
    }
  }
}
layer {
  name: "inception_4d/relu_pool_proj"
  type: "ReLU"
  bottom: "inception_4d/pool_proj"
  top: "inception_4d/pool_proj"
}
layer {
  name: "inception_4d/output"
  type: "Concat"
  bottom: "inception_4d/1x1"
  bottom: "inception_4d/3x3"
  bottom: "inception_4d/5x5"
  bottom: "inception_4d/pool_proj"
  top: "inception_4d/output"
}
layer {
  name: "loss2/ave_pool"
  type: "Pooling"
  bottom: "inception_4d/output"
  top: "loss2/ave_pool"
  pooling_param {
    pool: AVE
    kernel_size: 5
    stride: 3
  }
}
layer {
  name: "loss2/conv"
  type: "Convolution"
  bottom: "loss2/ave_pool"
  top: "loss2/conv"
  param {
    lr_mult: 1
    decay_mult: 1
  }
  param {
    lr_mult: 2
    decay_mult: 0
  }
  convolution_param {
    num_output: 128
    kernel_size: 1
    weight_filler {
      type: "xavier"
      std: 0.08
    }
    bias_filler {
      type: "constant"
      value: 0.2
    }
  }
}
layer {
  name: "loss2/relu_conv"
  type: "ReLU"
  bottom: "loss2/conv"
  top: "loss2/conv"
}
layer {
  name: "loss2/fc"
  type: "InnerProduct"
  bottom: "loss2/conv"
  top: "loss2/fc"
  param {
    lr_mult: 1
    decay_mult: 1
  }
  param {
    lr_mult: 2
    decay_mult: 0
  }
  inner_product_param {
    num_output: 1024
    weight_filler {
      type: "xavier"
      std: 0.02
    }
    bias_filler {
      type: "constant"
      value: 0.2
    }
  }
}
layer {
  name: "loss2/relu_fc"
  type: "ReLU"
  bottom: "loss2/fc"
  top: "loss2/fc"
}
layer {
  name: "loss2/drop_fc"
  type: "Dropout"
  bottom: "loss2/fc"
  top: "loss2/fc"
  dropout_param {
    dropout_ratio: 0.7
  }
}
layer {
  name: "loss2/classifier_plantvillage"
  type: "InnerProduct"
  bottom: "loss2/fc"
  top: "loss2/classifier_plantvillage"
  param {
    lr_mult: 1
    decay_mult: 1
  }
  param {
    lr_mult: 2
    decay_mult: 0
  }
  inner_product_param {
    num_output: 38
    weight_filler {
      type: "xavier"
      std: 0.0009765625
    }
    bias_filler {
      type: "constant"
      value: 0
    }
  }
}
layer {
  name: "inception_4e/1x1"
  type: "Convolution"
  bottom: "inception_4d/output"
  top: "inception_4e/1x1"
  param {
    lr_mult: 1
    decay_mult: 1
  }
  param {
    lr_mult: 2
    decay_mult: 0
  }
  convolution_param {
    num_output: 256
    kernel_size: 1
    weight_filler {
      type: "xavier"
      std: 0.03
    }
    bias_filler {
      type: "constant"
      value: 0.2
    }
  }
}
layer {
  name: "inception_4e/relu_1x1"
  type: "ReLU"
  bottom: "inception_4e/1x1"
  top: "inception_4e/1x1"
}
layer {
  name: "inception_4e/3x3_reduce"
  type: "Convolution"
  bottom: "inception_4d/output"
  top: "inception_4e/3x3_reduce"
  param {
    lr_mult: 1
    decay_mult: 1
  }
  param {
    lr_mult: 2
    decay_mult: 0
  }
  convolution_param {
    num_output: 160
    kernel_size: 1
    weight_filler {
      type: "xavier"
      std: 0.09
    }
    bias_filler {
      type: "constant"
      value: 0.2
    }
  }
}
layer {
  name: "inception_4e/relu_3x3_reduce"
  type: "ReLU"
  bottom: "inception_4e/3x3_reduce"
  top: "inception_4e/3x3_reduce"
}
layer {
  name: "inception_4e/3x3"
  type: "Convolution"
  bottom: "inception_4e/3x3_reduce"
  top: "inception_4e/3x3"
  param {
    lr_mult: 1
    decay_mult: 1
  }
  param {
    lr_mult: 2
    decay_mult: 0
  }
  convolution_param {
    num_output: 320
    pad: 1
    kernel_size: 3
    weight_filler {
      type: "xavier"
      std: 0.03
    }
    bias_filler {
      type: "constant"
      value: 0.2
    }
  }
}
layer {
  name: "inception_4e/relu_3x3"
  type: "ReLU"
  bottom: "inception_4e/3x3"
  top: "inception_4e/3x3"
}
layer {
  name: "inception_4e/5x5_reduce"
  type: "Convolution"
  bottom: "inception_4d/output"
  top: "inception_4e/5x5_reduce"
  param {
    lr_mult: 1
    decay_mult: 1
  }
  param {
    lr_mult: 2
    decay_mult: 0
  }
  convolution_param {
    num_output: 32
    kernel_size: 1
    weight_filler {
      type: "xavier"
      std: 0.2
    }
    bias_filler {
      type: "constant"
      value: 0.2
    }
  }
}
layer {
  name: "inception_4e/relu_5x5_reduce"
  type: "ReLU"
  bottom: "inception_4e/5x5_reduce"
  top: "inception_4e/5x5_reduce"
}
layer {
  name: "inception_4e/5x5"
  type: "Convolution"
  bottom: "inception_4e/5x5_reduce"
  top: "inception_4e/
I0403 15:42:25.621109  3391 layer_factory.hpp:77] Creating layer data
I0403 15:42:25.621709  3391 net.cpp:91] Creating Layer data
I0403 15:42:25.621737  3391 net.cpp:399] data -> data
I0403 15:42:25.621784  3391 net.cpp:399] data -> label
I0403 15:42:25.621829  3391 data_transformer.cpp:25] Loading mean file from: /home/mohanty/data/final_dataset/lmdb/segmented-60-40/mean.binaryproto
I0403 15:42:25.635295  3394 db_lmdb.cpp:38] Opened lmdb /home/mohanty/data/final_dataset/lmdb/segmented-60-40/test_db
I0403 15:42:25.638231  3391 data_layer.cpp:41] output data size: 24,3,224,224
I0403 15:42:25.667907  3391 net.cpp:141] Setting up data
I0403 15:42:25.667992  3391 net.cpp:148] Top shape: 24 3 224 224 (3612672)
I0403 15:42:25.668015  3391 net.cpp:148] Top shape: 24 (24)
I0403 15:42:25.668030  3391 net.cpp:156] Memory required for data: 14450784
I0403 15:42:25.668058  3391 layer_factory.hpp:77] Creating layer label_data_1_split
I0403 15:42:25.668086  3391 net.cpp:91] Creating Layer label_data_1_split
I0403 15:42:25.668104  3391 net.cpp:425] label_data_1_split <- label
I0403 15:42:25.668136  3391 net.cpp:399] label_data_1_split -> label_data_1_split_0
I0403 15:42:25.668165  3391 net.cpp:399] label_data_1_split -> label_data_1_split_1
I0403 15:42:25.668186  3391 net.cpp:399] label_data_1_split -> label_data_1_split_2
I0403 15:42:25.668215  3391 net.cpp:399] label_data_1_split -> label_data_1_split_3
I0403 15:42:25.668237  3391 net.cpp:399] label_data_1_split -> label_data_1_split_4
I0403 15:42:25.668257  3391 net.cpp:399] label_data_1_split -> label_data_1_split_5
I0403 15:42:25.668277  3391 net.cpp:399] label_data_1_split -> label_data_1_split_6
I0403 15:42:25.668298  3391 net.cpp:399] label_data_1_split -> label_data_1_split_7
I0403 15:42:25.668319  3391 net.cpp:399] label_data_1_split -> label_data_1_split_8
I0403 15:42:25.668342  3391 net.cpp:399] label_data_1_split -> label_data_1_split_9
I0403 15:42:25.668464  3391 net.cpp:141] Setting up label_data_1_split
I0403 15:42:25.668488  3391 net.cpp:148] Top shape: 24 (24)
I0403 15:42:25.668505  3391 net.cpp:148] Top shape: 24 (24)
I0403 15:42:25.668521  3391 net.cpp:148] Top shape: 24 (24)
I0403 15:42:25.668539  3391 net.cpp:148] Top shape: 24 (24)
I0403 15:42:25.668555  3391 net.cpp:148] Top shape: 24 (24)
I0403 15:42:25.668570  3391 net.cpp:148] Top shape: 24 (24)
I0403 15:42:25.668589  3391 net.cpp:148] Top shape: 24 (24)
I0403 15:42:25.668606  3391 net.cpp:148] Top shape: 24 (24)
I0403 15:42:25.668622  3391 net.cpp:148] Top shape: 24 (24)
I0403 15:42:25.668638  3391 net.cpp:148] Top shape: 24 (24)
I0403 15:42:25.668683  3391 net.cpp:156] Memory required for data: 14451744
I0403 15:42:25.668699  3391 layer_factory.hpp:77] Creating layer conv1/7x7_s2
I0403 15:42:25.668730  3391 net.cpp:91] Creating Layer conv1/7x7_s2
I0403 15:42:25.668750  3391 net.cpp:425] conv1/7x7_s2 <- data
I0403 15:42:25.668769  3391 net.cpp:399] conv1/7x7_s2 -> conv1/7x7_s2
I0403 15:42:25.826143  3391 net.cpp:141] Setting up conv1/7x7_s2
I0403 15:42:25.826216  3391 net.cpp:148] Top shape: 24 64 112 112 (19267584)
I0403 15:42:25.826236  3391 net.cpp:156] Memory required for data: 91522080
I0403 15:42:25.826267  3391 layer_factory.hpp:77] Creating layer conv1/relu_7x7
I0403 15:42:25.826295  3391 net.cpp:91] Creating Layer conv1/relu_7x7
I0403 15:42:25.826316  3391 net.cpp:425] conv1/relu_7x7 <- conv1/7x7_s2
I0403 15:42:25.826336  3391 net.cpp:386] conv1/relu_7x7 -> conv1/7x7_s2 (in-place)
I0403 15:42:25.826608  3391 net.cpp:141] Setting up conv1/relu_7x7
I0403 15:42:25.826637  3391 net.cpp:148] Top shape: 24 64 112 112 (19267584)
I0403 15:42:25.826653  3391 net.cpp:156] Memory required for data: 168592416
I0403 15:42:25.826668  3391 layer_factory.hpp:77] Creating layer pool1/3x3_s2
I0403 15:42:25.826694  3391 net.cpp:91] Creating Layer pool1/3x3_s2
I0403 15:42:25.826711  3391 net.cpp:425] pool1/3x3_s2 <- conv1/7x7_s2
I0403 15:42:25.826730  3391 net.cpp:399] pool1/3x3_s2 -> pool1/3x3_s2
I0403 15:42:25.826802  3391 net.cpp:141] Setting up pool1/3x3_s2
I0403 15:42:25.826827  3391 net.cpp:148] Top shape: 24 64 56 56 (4816896)
I0403 15:42:25.826841  3391 net.cpp:156] Memory required for data: 187860000
I0403 15:42:25.826856  3391 layer_factory.hpp:77] Creating layer pool1/norm1
I0403 15:42:25.826880  3391 net.cpp:91] Creating Layer pool1/norm1
I0403 15:42:25.826897  3391 net.cpp:425] pool1/norm1 <- pool1/3x3_s2
I0403 15:42:25.826915  3391 net.cpp:399] pool1/norm1 -> pool1/norm1
I0403 15:42:25.827252  3391 net.cpp:141] Setting up pool1/norm1
I0403 15:42:25.827280  3391 net.cpp:148] Top shape: 24 64 56 56 (4816896)
I0403 15:42:25.827296  3391 net.cpp:156] Memory required for data: 207127584
I0403 15:42:25.827311  3391 layer_factory.hpp:77] Creating layer conv2/3x3_reduce
I0403 15:42:25.827337  3391 net.cpp:91] Creating Layer conv2/3x3_reduce
I0403 15:42:25.827353  3391 net.cpp:425] conv2/3x3_reduce <- pool1/norm1
I0403 15:42:25.827373  3391 net.cpp:399] conv2/3x3_reduce -> conv2/3x3_reduce
I0403 15:42:25.828696  3391 net.cpp:141] Setting up conv2/3x3_reduce
I0403 15:42:25.828727  3391 net.cpp:148] Top shape: 24 64 56 56 (4816896)
I0403 15:42:25.828743  3391 net.cpp:156] Memory required for data: 226395168
I0403 15:42:25.828765  3391 layer_factory.hpp:77] Creating layer conv2/relu_3x3_reduce
I0403 15:42:25.828784  3391 net.cpp:91] Creating Layer conv2/relu_3x3_reduce
I0403 15:42:25.828800  3391 net.cpp:425] conv2/relu_3x3_reduce <- conv2/3x3_reduce
I0403 15:42:25.828817  3391 net.cpp:386] conv2/relu_3x3_reduce -> conv2/3x3_reduce (in-place)
I0403 15:42:25.829150  3391 net.cpp:141] Setting up conv2/relu_3x3_reduce
I0403 15:42:25.829176  3391 net.cpp:148] Top shape: 24 64 56 56 (4816896)
I0403 15:42:25.829192  3391 net.cpp:156] Memory required for data: 245662752
I0403 15:42:25.829211  3391 layer_factory.hpp:77] Creating layer conv2/3x3
I0403 15:42:25.829236  3391 net.cpp:91] Creating Layer conv2/3x3
I0403 15:42:25.829253  3391 net.cpp:425] conv2/3x3 <- conv2/3x3_reduce
I0403 15:42:25.829272  3391 net.cpp:399] conv2/3x3 -> conv2/3x3
I0403 15:42:25.831648  3391 net.cpp:141] Setting up conv2/3x3
I0403 15:42:25.831679  3391 net.cpp:148] Top shape: 24 192 56 56 (14450688)
I0403 15:42:25.831696  3391 net.cpp:156] Memory required for data: 303465504
I0403 15:42:25.831720  3391 layer_factory.hpp:77] Creating layer conv2/relu_3x3
I0403 15:42:25.831740  3391 net.cpp:91] Creating Layer conv2/relu_3x3
I0403 15:42:25.831756  3391 net.cpp:425] conv2/relu_3x3 <- conv2/3x3
I0403 15:42:25.831773  3391 net.cpp:386] conv2/relu_3x3 -> conv2/3x3 (in-place)
I0403 15:42:25.831951  3391 net.cpp:141] Setting up conv2/relu_3x3
I0403 15:42:25.831979  3391 net.cpp:148] Top shape: 24 192 56 56 (14450688)
I0403 15:42:25.832025  3391 net.cpp:156] Memory required for data: 361268256
I0403 15:42:25.832041  3391 layer_factory.hpp:77] Creating layer conv2/norm2
I0403 15:42:25.832059  3391 net.cpp:91] Creating Layer conv2/norm2
I0403 15:42:25.832075  3391 net.cpp:425] conv2/norm2 <- conv2/3x3
I0403 15:42:25.832095  3391 net.cpp:399] conv2/norm2 -> conv2/norm2
I0403 15:42:25.832417  3391 net.cpp:141] Setting up conv2/norm2
I0403 15:42:25.832445  3391 net.cpp:148] Top shape: 24 192 56 56 (14450688)
I0403 15:42:25.832473  3391 net.cpp:156] Memory required for data: 419071008
I0403 15:42:25.832487  3391 layer_factory.hpp:77] Creating layer pool2/3x3_s2
I0403 15:42:25.832504  3391 net.cpp:91] Creating Layer pool2/3x3_s2
I0403 15:42:25.832520  3391 net.cpp:425] pool2/3x3_s2 <- conv2/norm2
I0403 15:42:25.832540  3391 net.cpp:399] pool2/3x3_s2 -> pool2/3x3_s2
I0403 15:42:25.832592  3391 net.cpp:141] Setting up pool2/3x3_s2
I0403 15:42:25.832617  3391 net.cpp:148] Top shape: 24 192 28 28 (3612672)
I0403 15:42:25.832630  3391 net.cpp:156] Memory required for data: 433521696
I0403 15:42:25.832644  3391 layer_factory.hpp:77] Creating layer pool2/3x3_s2_pool2/3x3_s2_0_split
I0403 15:42:25.832662  3391 net.cpp:91] Creating Layer pool2/3x3_s2_pool2/3x3_s2_0_split
I0403 15:42:25.832677  3391 net.cpp:425] pool2/3x3_s2_pool2/3x3_s2_0_split <- pool2/3x3_s2
I0403 15:42:25.832693  3391 net.cpp:399] pool2/3x3_s2_pool2/3x3_s2_0_split -> pool2/3x3_s2_pool2/3x3_s2_0_split_0
I0403 15:42:25.832715  3391 net.cpp:399] pool2/3x3_s2_pool2/3x3_s2_0_split -> pool2/3x3_s2_pool2/3x3_s2_0_split_1
I0403 15:42:25.832736  3391 net.cpp:399] pool2/3x3_s2_pool2/3x3_s2_0_split -> pool2/3x3_s2_pool2/3x3_s2_0_split_2
I0403 15:42:25.832756  3391 net.cpp:399] pool2/3x3_s2_pool2/3x3_s2_0_split -> pool2/3x3_s2_pool2/3x3_s2_0_split_3
I0403 15:42:25.832826  3391 net.cpp:141] Setting up pool2/3x3_s2_pool2/3x3_s2_0_split
I0403 15:42:25.832849  3391 net.cpp:148] Top shape: 24 192 28 28 (3612672)
I0403 15:42:25.832865  3391 net.cpp:148] Top shape: 24 192 28 28 (3612672)
I0403 15:42:25.832880  3391 net.cpp:148] Top shape: 24 192 28 28 (3612672)
I0403 15:42:25.832895  3391 net.cpp:148] Top shape: 24 192 28 28 (3612672)
I0403 15:42:25.832908  3391 net.cpp:156] Memory required for data: 491324448
I0403 15:42:25.832923  3391 layer_factory.hpp:77] Creating layer inception_3a/1x1
I0403 15:42:25.832947  3391 net.cpp:91] Creating Layer inception_3a/1x1
I0403 15:42:25.832964  3391 net.cpp:425] inception_3a/1x1 <- pool2/3x3_s2_pool2/3x3_s2_0_split_0
I0403 15:42:25.832983  3391 net.cpp:399] inception_3a/1x1 -> inception_3a/1x1
I0403 15:42:25.834632  3391 net.cpp:141] Setting up inception_3a/1x1
I0403 15:42:25.834661  3391 net.cpp:148] Top shape: 24 64 28 28 (1204224)
I0403 15:42:25.834677  3391 net.cpp:156] Memory required for data: 496141344
I0403 15:42:25.834697  3391 layer_factory.hpp:77] Creating layer inception_3a/relu_1x1
I0403 15:42:25.834717  3391 net.cpp:91] Creating Layer inception_3a/relu_1x1
I0403 15:42:25.834733  3391 net.cpp:425] inception_3a/relu_1x1 <- inception_3a/1x1
I0403 15:42:25.834750  3391 net.cpp:386] inception_3a/relu_1x1 -> inception_3a/1x1 (in-place)
I0403 15:42:25.834923  3391 net.cpp:141] Setting up inception_3a/relu_1x1
I0403 15:42:25.834949  3391 net.cpp:148] Top shape: 24 64 28 28 (1204224)
I0403 15:42:25.834964  3391 net.cpp:156] Memory required for data: 500958240
I0403 15:42:25.834978  3391 layer_factory.hpp:77] Creating layer inception_3a/3x3_reduce
I0403 15:42:25.835000  3391 net.cpp:91] Creating Layer inception_3a/3x3_reduce
I0403 15:42:25.835016  3391 net.cpp:425] inception_3a/3x3_reduce <- pool2/3x3_s2_pool2/3x3_s2_0_split_1
I0403 15:42:25.835036  3391 net.cpp:399] inception_3a/3x3_reduce -> inception_3a/3x3_reduce
I0403 15:42:25.836709  3391 net.cpp:141] Setting up inception_3a/3x3_reduce
I0403 15:42:25.836738  3391 net.cpp:148] Top shape: 24 96 28 28 (1806336)
I0403 15:42:25.836755  3391 net.cpp:156] Memory required for data: 508183584
I0403 15:42:25.836778  3391 layer_factory.hpp:77] Creating layer inception_3a/relu_3x3_reduce
I0403 15:42:25.836812  3391 net.cpp:91] Creating Layer inception_3a/relu_3x3_reduce
I0403 15:42:25.836829  3391 net.cpp:425] inception_3a/relu_3x3_reduce <- inception_3a/3x3_reduce
I0403 15:42:25.836848  3391 net.cpp:386] inception_3a/relu_3x3_reduce -> inception_3a/3x3_reduce (in-place)
I0403 15:42:25.837029  3391 net.cpp:141] Setting up inception_3a/relu_3x3_reduce
I0403 15:42:25.837054  3391 net.cpp:148] Top shape: 24 96 28 28 (1806336)
I0403 15:42:25.837069  3391 net.cpp:156] Memory required for data: 515408928
I0403 15:42:25.837083  3391 layer_factory.hpp:77] Creating layer inception_3a/3x3
I0403 15:42:25.837106  3391 net.cpp:91] Creating Layer inception_3a/3x3
I0403 15:42:25.837123  3391 net.cpp:425] inception_3a/3x3 <- inception_3a/3x3_reduce
I0403 15:42:25.837144  3391 net.cpp:399] inception_3a/3x3 -> inception_3a/3x3
I0403 15:42:25.838822  3391 net.cpp:141] Setting up inception_3a/3x3
I0403 15:42:25.838850  3391 net.cpp:148] Top shape: 24 128 28 28 (2408448)
I0403 15:42:25.838866  3391 net.cpp:156] Memory required for data: 525042720
I0403 15:42:25.838884  3391 layer_factory.hpp:77] Creating layer inception_3a/relu_3x3
I0403 15:42:25.838904  3391 net.cpp:91] Creating Layer inception_3a/relu_3x3
I0403 15:42:25.838920  3391 net.cpp:425] inception_3a/relu_3x3 <- inception_3a/3x3
I0403 15:42:25.838938  3391 net.cpp:386] inception_3a/relu_3x3 -> inception_3a/3x3 (in-place)
I0403 15:42:25.839272  3391 net.cpp:141] Setting up inception_3a/relu_3x3
I0403 15:42:25.839300  3391 net.cpp:148] Top shape: 24 128 28 28 (2408448)
I0403 15:42:25.839315  3391 net.cpp:156] Memory required for data: 534676512
I0403 15:42:25.839330  3391 layer_factory.hpp:77] Creating layer inception_3a/5x5_reduce
I0403 15:42:25.839354  3391 net.cpp:91] Creating Layer inception_3a/5x5_reduce
I0403 15:42:25.839372  3391 net.cpp:425] inception_3a/5x5_reduce <- pool2/3x3_s2_pool2/3x3_s2_0_split_2
I0403 15:42:25.839392  3391 net.cpp:399] inception_3a/5x5_reduce -> inception_3a/5x5_reduce
I0403 15:42:25.840355  3391 net.cpp:141] Setting up inception_3a/5x5_reduce
I0403 15:42:25.840384  3391 net.cpp:148] Top shape: 24 16 28 28 (301056)
I0403 15:42:25.840399  3391 net.cpp:156] Memory required for data: 535880736
I0403 15:42:25.840417  3391 layer_factory.hpp:77] Creating layer inception_3a/relu_5x5_reduce
I0403 15:42:25.840440  3391 net.cpp:91] Creating Layer inception_3a/relu_5x5_reduce
I0403 15:42:25.840456  3391 net.cpp:425] inception_3a/relu_5x5_reduce <- inception_3a/5x5_reduce
I0403 15:42:25.840473  3391 net.cpp:386] inception_3a/relu_5x5_reduce -> inception_3a/5x5_reduce (in-place)
I0403 15:42:25.840770  3391 net.cpp:141] Setting up inception_3a/relu_5x5_reduce
I0403 15:42:25.840797  3391 net.cpp:148] Top shape: 24 16 28 28 (301056)
I0403 15:42:25.840812  3391 net.cpp:156] Memory required for data: 537084960
I0403 15:42:25.840827  3391 layer_factory.hpp:77] Creating layer inception_3a/5x5
I0403 15:42:25.840849  3391 net.cpp:91] Creating Layer inception_3a/5x5
I0403 15:42:25.840867  3391 net.cpp:425] inception_3a/5x5 <- inception_3a/5x5_reduce
I0403 15:42:25.840885  3391 net.cpp:399] inception_3a/5x5 -> inception_3a/5x5
I0403 15:42:25.841969  3391 net.cpp:141] Setting up inception_3a/5x5
I0403 15:42:25.841996  3391 net.cpp:148] Top shape: 24 32 28 28 (602112)
I0403 15:42:25.842012  3391 net.cpp:156] Memory required for data: 539493408
I0403 15:42:25.842031  3391 layer_factory.hpp:77] Creating layer inception_3a/relu_5x5
I0403 15:42:25.842051  3391 net.cpp:91] Creating Layer inception_3a/relu_5x5
I0403 15:42:25.842069  3391 net.cpp:425] inception_3a/relu_5x5 <- inception_3a/5x5
I0403 15:42:25.842087  3391 net.cpp:386] inception_3a/relu_5x5 -> inception_3a/5x5 (in-place)
I0403 15:42:25.842267  3391 net.cpp:141] Setting up inception_3a/relu_5x5
I0403 15:42:25.842294  3391 net.cpp:148] Top shape: 24 32 28 28 (602112)
I0403 15:42:25.842311  3391 net.cpp:156] Memory required for data: 541901856
I0403 15:42:25.842326  3391 layer_factory.hpp:77] Creating layer inception_3a/pool
I0403 15:42:25.842344  3391 net.cpp:91] Creating Layer inception_3a/pool
I0403 15:42:25.842375  3391 net.cpp:425] inception_3a/pool <- pool2/3x3_s2_pool2/3x3_s2_0_split_3
I0403 15:42:25.842396  3391 net.cpp:399] inception_3a/pool -> inception_3a/pool
I0403 15:42:25.842454  3391 net.cpp:141] Setting up inception_3a/pool
I0403 15:42:25.842478  3391 net.cpp:148] Top shape: 24 192 28 28 (3612672)
I0403 15:42:25.842494  3391 net.cpp:156] Memory required for data: 556352544
I0403 15:42:25.842509  3391 layer_factory.hpp:77] Creating layer inception_3a/pool_proj
I0403 15:42:25.842531  3391 net.cpp:91] Creating Layer inception_3a/pool_proj
I0403 15:42:25.842550  3391 net.cpp:425] inception_3a/pool_proj <- inception_3a/pool
I0403 15:42:25.842572  3391 net.cpp:399] inception_3a/pool_proj -> inception_3a/pool_proj
I0403 15:42:25.843578  3391 net.cpp:141] Setting up inception_3a/pool_proj
I0403 15:42:25.843607  3391 net.cpp:148] Top shape: 24 32 28 28 (602112)
I0403 15:42:25.843623  3391 net.cpp:156] Memory required for data: 558760992
I0403 15:42:25.843647  3391 layer_factory.hpp:77] Creating layer inception_3a/relu_pool_proj
I0403 15:42:25.843667  3391 net.cpp:91] Creating Layer inception_3a/relu_pool_proj
I0403 15:42:25.843684  3391 net.cpp:425] inception_3a/relu_pool_proj <- inception_3a/pool_proj
I0403 15:42:25.843703  3391 net.cpp:386] inception_3a/relu_pool_proj -> inception_3a/pool_proj (in-place)
I0403 15:42:25.843986  3391 net.cpp:141] Setting up inception_3a/relu_pool_proj
I0403 15:42:25.844012  3391 net.cpp:148] Top shape: 24 32 28 28 (602112)
I0403 15:42:25.844028  3391 net.cpp:156] Memory required for data: 561169440
I0403 15:42:25.844043  3391 layer_factory.hpp:77] Creating layer inception_3a/output
I0403 15:42:25.844063  3391 net.cpp:91] Creating Layer inception_3a/output
I0403 15:42:25.844079  3391 net.cpp:425] inception_3a/output <- inception_3a/1x1
I0403 15:42:25.844096  3391 net.cpp:425] inception_3a/output <- inception_3a/3x3
I0403 15:42:25.844112  3391 net.cpp:425] inception_3a/output <- inception_3a/5x5
I0403 15:42:25.844128  3391 net.cpp:425] inception_3a/output <- inception_3a/pool_proj
I0403 15:42:25.844146  3391 net.cpp:399] inception_3a/output -> inception_3a/output
I0403 15:42:25.844194  3391 net.cpp:141] Setting up inception_3a/output
I0403 15:42:25.844223  3391 net.cpp:148] Top shape: 24 256 28 28 (4816896)
I0403 15:42:25.844238  3391 net.cpp:156] Memory required for data: 580437024
I0403 15:42:25.844252  3391 layer_factory.hpp:77] Creating layer inception_3a/output_inception_3a/output_0_split
I0403 15:42:25.844269  3391 net.cpp:91] Creating Layer inception_3a/output_inception_3a/output_0_split
I0403 15:42:25.844285  3391 net.cpp:425] inception_3a/output_inception_3a/output_0_split <- inception_3a/output
I0403 15:42:25.844305  3391 net.cpp:399] inception_3a/output_inception_3a/output_0_split -> inception_3a/output_inception_3a/output_0_split_0
I0403 15:42:25.844326  3391 net.cpp:399] inception_3a/output_inception_3a/output_0_split -> inception_3a/output_inception_3a/output_0_split_1
I0403 15:42:25.844350  3391 net.cpp:399] inception_3a/output_inception_3a/output_0_split -> inception_3a/output_inception_3a/output_0_split_2
I0403 15:42:25.844372  3391 net.cpp:399] inception_3a/output_inception_3a/output_0_split -> inception_3a/output_inception_3a/output_0_split_3
I0403 15:42:25.844447  3391 net.cpp:141] Setting up inception_3a/output_inception_3a/output_0_split
I0403 15:42:25.844470  3391 net.cpp:148] Top shape: 24 256 28 28 (4816896)
I0403 15:42:25.844487  3391 net.cpp:148] Top shape: 24 256 28 28 (4816896)
I0403 15:42:25.844503  3391 net.cpp:148] Top shape: 24 256 28 28 (4816896)
I0403 15:42:25.844519  3391 net.cpp:148] Top shape: 24 256 28 28 (4816896)
I0403 15:42:25.844532  3391 net.cpp:156] Memory required for data: 657507360
I0403 15:42:25.844547  3391 layer_factory.hpp:77] Creating layer inception_3b/1x1
I0403 15:42:25.844570  3391 net.cpp:91] Creating Layer inception_3b/1x1
I0403 15:42:25.844588  3391 net.cpp:425] inception_3b/1x1 <- inception_3a/output_inception_3a/output_0_split_0
I0403 15:42:25.844609  3391 net.cpp:399] inception_3b/1x1 -> inception_3b/1x1
I0403 15:42:25.845830  3391 net.cpp:141] Setting up inception_3b/1x1
I0403 15:42:25.845870  3391 net.cpp:148] Top shape: 24 128 28 28 (2408448)
I0403 15:42:25.845886  3391 net.cpp:156] Memory required for data: 667141152
I0403 15:42:25.845906  3391 layer_factory.hpp:77] Creating layer inception_3b/relu_1x1
I0403 15:42:25.845927  3391 net.cpp:91] Creating Layer inception_3b/relu_1x1
I0403 15:42:25.845945  3391 net.cpp:425] inception_3b/relu_1x1 <- inception_3b/1x1
I0403 15:42:25.845963  3391 net.cpp:386] inception_3b/relu_1x1 -> inception_3b/1x1 (in-place)
I0403 15:42:25.846138  3391 net.cpp:141] Setting up inception_3b/relu_1x1
I0403 15:42:25.846163  3391 net.cpp:148] Top shape: 24 128 28 28 (2408448)
I0403 15:42:25.846179  3391 net.cpp:156] Memory required for data: 676774944
I0403 15:42:25.846194  3391 layer_factory.hpp:77] Creating layer inception_3b/3x3_reduce
I0403 15:42:25.846223  3391 net.cpp:91] Creating Layer inception_3b/3x3_reduce
I0403 15:42:25.846242  3391 net.cpp:425] inception_3b/3x3_reduce <- inception_3a/output_inception_3a/output_0_split_1
I0403 15:42:25.846261  3391 net.cpp:399] inception_3b/3x3_reduce -> inception_3b/3x3_reduce
I0403 15:42:25.847419  3391 net.cpp:141] Setting up inception_3b/3x3_reduce
I0403 15:42:25.847448  3391 net.cpp:148] Top shape: 24 128 28 28 (2408448)
I0403 15:42:25.847463  3391 net.cpp:156] Memory required for data: 686408736
I0403 15:42:25.847482  3391 layer_factory.hpp:77] Creating layer inception_3b/relu_3x3_reduce
I0403 15:42:25.847501  3391 net.cpp:91] Creating Layer inception_3b/relu_3x3_reduce
I0403 15:42:25.847517  3391 net.cpp:425] inception_3b/relu_3x3_reduce <- inception_3b/3x3_reduce
I0403 15:42:25.847537  3391 net.cpp:386] inception_3b/relu_3x3_reduce -> inception_3b/3x3_reduce (in-place)
I0403 15:42:25.847712  3391 net.cpp:141] Setting up inception_3b/relu_3x3_reduce
I0403 15:42:25.847738  3391 net.cpp:148] Top shape: 24 128 28 28 (2408448)
I0403 15:42:25.847753  3391 net.cpp:156] Memory required for data: 696042528
I0403 15:42:25.847767  3391 layer_factory.hpp:77] Creating layer inception_3b/3x3
I0403 15:42:25.847795  3391 net.cpp:91] Creating Layer inception_3b/3x3
I0403 15:42:25.847812  3391 net.cpp:425] inception_3b/3x3 <- inception_3b/3x3_reduce
I0403 15:42:25.847834  3391 net.cpp:399] inception_3b/3x3 -> inception_3b/3x3
I0403 15:42:25.850790  3391 net.cpp:141] Setting up inception_3b/3x3
I0403 15:42:25.850821  3391 net.cpp:148] Top shape: 24 192 28 28 (3612672)
I0403 15:42:25.850836  3391 net.cpp:156] Memory required for data: 710493216
I0403 15:42:25.850854  3391 layer_factory.hpp:77] Creating layer inception_3b/relu_3x3
I0403 15:42:25.850874  3391 net.cpp:91] Creating Layer inception_3b/relu_3x3
I0403 15:42:25.850891  3391 net.cpp:425] inception_3b/relu_3x3 <- inception_3b/3x3
I0403 15:42:25.850910  3391 net.cpp:386] inception_3b/relu_3x3 -> inception_3b/3x3 (in-place)
I0403 15:42:25.851191  3391 net.cpp:141] Setting up inception_3b/relu_3x3
I0403 15:42:25.851222  3391 net.cpp:148] Top shape: 24 192 28 28 (3612672)
I0403 15:42:25.851238  3391 net.cpp:156] Memory required for data: 724943904
I0403 15:42:25.851253  3391 layer_factory.hpp:77] Creating layer inception_3b/5x5_reduce
I0403 15:42:25.851277  3391 net.cpp:91] Creating Layer inception_3b/5x5_reduce
I0403 15:42:25.851296  3391 net.cpp:425] inception_3b/5x5_reduce <- inception_3a/output_inception_3a/output_0_split_2
I0403 15:42:25.851316  3391 net.cpp:399] inception_3b/5x5_reduce -> inception_3b/5x5_reduce
I0403 15:42:25.852375  3391 net.cpp:141] Setting up inception_3b/5x5_reduce
I0403 15:42:25.852403  3391 net.cpp:148] Top shape: 24 32 28 28 (602112)
I0403 15:42:25.852419  3391 net.cpp:156] Memory required for data: 727352352
I0403 15:42:25.852438  3391 layer_factory.hpp:77] Creating layer inception_3b/relu_5x5_reduce
I0403 15:42:25.852458  3391 net.cpp:91] Creating Layer inception_3b/relu_5x5_reduce
I0403 15:42:25.852475  3391 net.cpp:425] inception_3b/relu_5x5_reduce <- inception_3b/5x5_reduce
I0403 15:42:25.852494  3391 net.cpp:386] inception_3b/relu_5x5_reduce -> inception_3b/5x5_reduce (in-place)
I0403 15:42:25.852685  3391 net.cpp:141] Setting up inception_3b/relu_5x5_reduce
I0403 15:42:25.852713  3391 net.cpp:148] Top shape: 24 32 28 28 (602112)
I0403 15:42:25.852728  3391 net.cpp:156] Memory required for data: 729760800
I0403 15:42:25.852743  3391 layer_factory.hpp:77] Creating layer inception_3b/5x5
I0403 15:42:25.852766  3391 net.cpp:91] Creating Layer inception_3b/5x5
I0403 15:42:25.852784  3391 net.cpp:425] inception_3b/5x5 <- inception_3b/5x5_reduce
I0403 15:42:25.852803  3391 net.cpp:399] inception_3b/5x5 -> inception_3b/5x5
I0403 15:42:25.854862  3391 net.cpp:141] Setting up inception_3b/5x5
I0403 15:42:25.854892  3391 net.cpp:148] Top shape: 24 96 28 28 (1806336)
I0403 15:42:25.854908  3391 net.cpp:156] Memory required for data: 736986144
I0403 15:42:25.854928  3391 layer_factory.hpp:77] Creating layer inception_3b/relu_5x5
I0403 15:42:25.854945  3391 net.cpp:91] Creating Layer inception_3b/relu_5x5
I0403 15:42:25.854962  3391 net.cpp:425] inception_3b/relu_5x5 <- inception_3b/5x5
I0403 15:42:25.854982  3391 net.cpp:386] inception_3b/relu_5x5 -> inception_3b/5x5 (in-place)
I0403 15:42:25.855180  3391 net.cpp:141] Setting up inception_3b/relu_5x5
I0403 15:42:25.855206  3391 net.cpp:148] Top shape: 24 96 28 28 (1806336)
I0403 15:42:25.855226  3391 net.cpp:156] Memory required for data: 744211488
I0403 15:42:25.855242  3391 layer_factory.hpp:77] Creating layer inception_3b/pool
I0403 15:42:25.855259  3391 net.cpp:91] Creating Layer inception_3b/pool
I0403 15:42:25.855276  3391 net.cpp:425] inception_3b/pool <- inception_3a/output_inception_3a/output_0_split_3
I0403 15:42:25.855294  3391 net.cpp:399] inception_3b/pool -> inception_3b/pool
I0403 15:42:25.855352  3391 net.cpp:141] Setting up inception_3b/pool
I0403 15:42:25.855376  3391 net.cpp:148] Top shape: 24 256 28 28 (4816896)
I0403 15:42:25.855391  3391 net.cpp:156] Memory required for data: 763479072
I0403 15:42:25.855406  3391 layer_factory.hpp:77] Creating layer inception_3b/pool_proj
I0403 15:42:25.855428  3391 net.cpp:91] Creating Layer inception_3b/pool_proj
I0403 15:42:25.855446  3391 net.cpp:425] inception_3b/pool_proj <- inception_3b/pool
I0403 15:42:25.855466  3391 net.cpp:399] inception_3b/pool_proj -> inception_3b/pool_proj
I0403 15:42:25.856534  3391 net.cpp:141] Setting up inception_3b/pool_proj
I0403 15:42:25.856564  3391 net.cpp:148] Top shape: 24 64 28 28 (1204224)
I0403 15:42:25.856581  3391 net.cpp:156] Memory required for data: 768295968
I0403 15:42:25.856600  3391 layer_factory.hpp:77] Creating layer inception_3b/relu_pool_proj
I0403 15:42:25.856619  3391 net.cpp:91] Creating Layer inception_3b/relu_pool_proj
I0403 15:42:25.856634  3391 net.cpp:425] inception_3b/relu_pool_proj <- inception_3b/pool_proj
I0403 15:42:25.856654  3391 net.cpp:386] inception_3b/relu_pool_proj -> inception_3b/pool_proj (in-place)
I0403 15:42:25.857098  3391 net.cpp:141] Setting up inception_3b/relu_pool_proj
I0403 15:42:25.857127  3391 net.cpp:148] Top shape: 24 64 28 28 (1204224)
I0403 15:42:25.857144  3391 net.cpp:156] Memory required for data: 773112864
I0403 15:42:25.857159  3391 layer_factory.hpp:77] Creating layer inception_3b/output
I0403 15:42:25.857177  3391 net.cpp:91] Creating Layer inception_3b/output
I0403 15:42:25.857192  3391 net.cpp:425] inception_3b/output <- inception_3b/1x1
I0403 15:42:25.857213  3391 net.cpp:425] inception_3b/output <- inception_3b/3x3
I0403 15:42:25.857231  3391 net.cpp:425] inception_3b/output <- inception_3b/5x5
I0403 15:42:25.857247  3391 net.cpp:425] inception_3b/output <- inception_3b/pool_proj
I0403 15:42:25.857265  3391 net.cpp:399] inception_3b/output -> inception_3b/output
I0403 15:42:25.857311  3391 net.cpp:141] Setting up inception_3b/output
I0403 15:42:25.857334  3391 net.cpp:148] Top shape: 24 480 28 28 (9031680)
I0403 15:42:25.857348  3391 net.cpp:156] Memory required for data: 809239584
I0403 15:42:25.857363  3391 layer_factory.hpp:77] Creating layer pool3/3x3_s2
I0403 15:42:25.857384  3391 net.cpp:91] Creating Layer pool3/3x3_s2
I0403 15:42:25.857401  3391 net.cpp:425] pool3/3x3_s2 <- inception_3b/output
I0403 15:42:25.857436  3391 net.cpp:399] pool3/3x3_s2 -> pool3/3x3_s2
I0403 15:42:25.857497  3391 net.cpp:141] Setting up pool3/3x3_s2
I0403 15:42:25.857522  3391 net.cpp:148] Top shape: 24 480 14 14 (2257920)
I0403 15:42:25.857535  3391 net.cpp:156] Memory required for data: 818271264
I0403 15:42:25.857550  3391 layer_factory.hpp:77] Creating layer pool3/3x3_s2_pool3/3x3_s2_0_split
I0403 15:42:25.857568  3391 net.cpp:91] Creating Layer pool3/3x3_s2_pool3/3x3_s2_0_split
I0403 15:42:25.857583  3391 net.cpp:425] pool3/3x3_s2_pool3/3x3_s2_0_split <- pool3/3x3_s2
I0403 15:42:25.857604  3391 net.cpp:399] pool3/3x3_s2_pool3/3x3_s2_0_split -> pool3/3x3_s2_pool3/3x3_s2_0_split_0
I0403 15:42:25.857623  3391 net.cpp:399] pool3/3x3_s2_pool3/3x3_s2_0_split -> pool3/3x3_s2_pool3/3x3_s2_0_split_1
I0403 15:42:25.857643  3391 net.cpp:399] pool3/3x3_s2_pool3/3x3_s2_0_split -> pool3/3x3_s2_pool3/3x3_s2_0_split_2
I0403 15:42:25.857663  3391 net.cpp:399] pool3/3x3_s2_pool3/3x3_s2_0_split -> pool3/3x3_s2_pool3/3x3_s2_0_split_3
I0403 15:42:25.857739  3391 net.cpp:141] Setting up pool3/3x3_s2_pool3/3x3_s2_0_split
I0403 15:42:25.857764  3391 net.cpp:148] Top shape: 24 480 14 14 (2257920)
I0403 15:42:25.857782  3391 net.cpp:148] Top shape: 24 480 14 14 (2257920)
I0403 15:42:25.857798  3391 net.cpp:148] Top shape: 24 480 14 14 (2257920)
I0403 15:42:25.857813  3391 net.cpp:148] Top shape: 24 480 14 14 (2257920)
I0403 15:42:25.857827  3391 net.cpp:156] Memory required for data: 854397984
I0403 15:42:25.857841  3391 layer_factory.hpp:77] Creating layer inception_4a/1x1
I0403 15:42:25.857864  3391 net.cpp:91] Creating Layer inception_4a/1x1
I0403 15:42:25.857882  3391 net.cpp:425] inception_4a/1x1 <- pool3/3x3_s2_pool3/3x3_s2_0_split_0
I0403 15:42:25.857902  3391 net.cpp:399] inception_4a/1x1 -> inception_4a/1x1
I0403 15:42:25.859575  3391 net.cpp:141] Setting up inception_4a/1x1
I0403 15:42:25.859603  3391 net.cpp:148] Top shape: 24 192 14 14 (903168)
I0403 15:42:25.859619  3391 net.cpp:156] Memory required for data: 858010656
I0403 15:42:25.859638  3391 layer_factory.hpp:77] Creating layer inception_4a/relu_1x1
I0403 15:42:25.859658  3391 net.cpp:91] Creating Layer inception_4a/relu_1x1
I0403 15:42:25.859673  3391 net.cpp:425] inception_4a/relu_1x1 <- inception_4a/1x1
I0403 15:42:25.859693  3391 net.cpp:386] inception_4a/relu_1x1 -> inception_4a/1x1 (in-place)
I0403 15:42:25.859880  3391 net.cpp:141] Setting up inception_4a/relu_1x1
I0403 15:42:25.859905  3391 net.cpp:148] Top shape: 24 192 14 14 (903168)
I0403 15:42:25.859920  3391 net.cpp:156] Memory required for data: 861623328
I0403 15:42:25.859935  3391 layer_factory.hpp:77] Creating layer inception_4a/3x3_reduce
I0403 15:42:25.859956  3391 net.cpp:91] Creating Layer inception_4a/3x3_reduce
I0403 15:42:25.859972  3391 net.cpp:425] inception_4a/3x3_reduce <- pool3/3x3_s2_pool3/3x3_s2_0_split_1
I0403 15:42:25.859993  3391 net.cpp:399] inception_4a/3x3_reduce -> inception_4a/3x3_reduce
I0403 15:42:25.861251  3391 net.cpp:141] Setting up inception_4a/3x3_reduce
I0403 15:42:25.861280  3391 net.cpp:148] Top shape: 24 96 14 14 (451584)
I0403 15:42:25.861297  3391 net.cpp:156] Memory required for data: 863429664
I0403 15:42:25.861321  3391 layer_factory.hpp:77] Creating layer inception_4a/relu_3x3_reduce
I0403 15:42:25.861341  3391 net.cpp:91] Creating Layer inception_4a/relu_3x3_reduce
I0403 15:42:25.861356  3391 net.cpp:425] inception_4a/relu_3x3_reduce <- inception_4a/3x3_reduce
I0403 15:42:25.861374  3391 net.cpp:386] inception_4a/relu_3x3_reduce -> inception_4a/3x3_reduce (in-place)
I0403 15:42:25.861552  3391 net.cpp:141] Setting up inception_4a/relu_3x3_reduce
I0403 15:42:25.861575  3391 net.cpp:148] Top shape: 24 96 14 14 (451584)
I0403 15:42:25.861589  3391 net.cpp:156] Memory required for data: 865236000
I0403 15:42:25.861603  3391 layer_factory.hpp:77] Creating layer inception_4a/3x3
I0403 15:42:25.861625  3391 net.cpp:91] Creating Layer inception_4a/3x3
I0403 15:42:25.861642  3391 net.cpp:425] inception_4a/3x3 <- inception_4a/3x3_reduce
I0403 15:42:25.861662  3391 net.cpp:399] inception_4a/3x3 -> inception_4a/3x3
I0403 15:42:25.864413  3391 net.cpp:141] Setting up inception_4a/3x3
I0403 15:42:25.864442  3391 net.cpp:148] Top shape: 24 208 14 14 (978432)
I0403 15:42:25.864457  3391 net.cpp:156] Memory required for data: 869149728
I0403 15:42:25.864475  3391 layer_factory.hpp:77] Creating layer inception_4a/relu_3x3
I0403 15:42:25.864496  3391 net.cpp:91] Creating Layer inception_4a/relu_3x3
I0403 15:42:25.864512  3391 net.cpp:425] inception_4a/relu_3x3 <- inception_4a/3x3
I0403 15:42:25.864529  3391 net.cpp:386] inception_4a/relu_3x3 -> inception_4a/3x3 (in-place)
I0403 15:42:25.864826  3391 net.cpp:141] Setting up inception_4a/relu_3x3
I0403 15:42:25.864853  3391 net.cpp:148] Top shape: 24 208 14 14 (978432)
I0403 15:42:25.864868  3391 net.cpp:156] Memory required for data: 873063456
I0403 15:42:25.864883  3391 layer_factory.hpp:77] Creating layer inception_4a/5x5_reduce
I0403 15:42:25.864905  3391 net.cpp:91] Creating Layer inception_4a/5x5_reduce
I0403 15:42:25.864923  3391 net.cpp:425] inception_4a/5x5_reduce <- pool3/3x3_s2_pool3/3x3_s2_0_split_2
I0403 15:42:25.864943  3391 net.cpp:399] inception_4a/5x5_reduce -> inception_4a/5x5_reduce
I0403 15:42:25.865955  3391 net.cpp:141] Setting up inception_4a/5x5_reduce
I0403 15:42:25.865981  3391 net.cpp:148] Top shape: 24 16 14 14 (75264)
I0403 15:42:25.865996  3391 net.cpp:156] Memory required for data: 873364512
I0403 15:42:25.866014  3391 layer_factory.hpp:77] Creating layer inception_4a/relu_5x5_reduce
I0403 15:42:25.866034  3391 net.cpp:91] Creating Layer inception_4a/relu_5x5_reduce
I0403 15:42:25.866051  3391 net.cpp:425] inception_4a/relu_5x5_reduce <- inception_4a/5x5_reduce
I0403 15:42:25.866067  3391 net.cpp:386] inception_4a/relu_5x5_reduce -> inception_4a/5x5_reduce (in-place)
I0403 15:42:25.866240  3391 net.cpp:141] Setting up inception_4a/relu_5x5_reduce
I0403 15:42:25.866267  3391 net.cpp:148] Top shape: 24 16 14 14 (75264)
I0403 15:42:25.866283  3391 net.cpp:156] Memory required for data: 873665568
I0403 15:42:25.866297  3391 layer_factory.hpp:77] Creating layer inception_4a/5x5
I0403 15:42:25.866318  3391 net.cpp:91] Creating Layer inception_4a/5x5
I0403 15:42:25.866335  3391 net.cpp:425] inception_4a/5x5 <- inception_4a/5x5_reduce
I0403 15:42:25.866353  3391 net.cpp:399] inception_4a/5x5 -> inception_4a/5x5
I0403 15:42:25.867390  3391 net.cpp:141] Setting up inception_4a/5x5
I0403 15:42:25.867419  3391 net.cpp:148] Top shape: 24 48 14 14 (225792)
I0403 15:42:25.867436  3391 net.cpp:156] Memory required for data: 874568736
I0403 15:42:25.867455  3391 layer_factory.hpp:77] Creating layer inception_4a/relu_5x5
I0403 15:42:25.867472  3391 net.cpp:91] Creating Layer inception_4a/relu_5x5
I0403 15:42:25.867487  3391 net.cpp:425] inception_4a/relu_5x5 <- inception_4a/5x5
I0403 15:42:25.867506  3391 net.cpp:386] inception_4a/relu_5x5 -> inception_4a/5x5 (in-place)
I0403 15:42:25.867677  3391 net.cpp:141] Setting up inception_4a/relu_5x5
I0403 15:42:25.867702  3391 net.cpp:148] Top shape: 24 48 14 14 (225792)
I0403 15:42:25.867715  3391 net.cpp:156] Memory required for data: 875471904
I0403 15:42:25.867729  3391 layer_factory.hpp:77] Creating layer inception_4a/pool
I0403 15:42:25.867748  3391 net.cpp:91] Creating Layer inception_4a/pool
I0403 15:42:25.867763  3391 net.cpp:425] inception_4a/pool <- pool3/3x3_s2_pool3/3x3_s2_0_split_3
I0403 15:42:25.867781  3391 net.cpp:399] inception_4a/pool -> inception_4a/pool
I0403 15:42:25.867840  3391 net.cpp:141] Setting up inception_4a/pool
I0403 15:42:25.867861  3391 net.cpp:148] Top shape: 24 480 14 14 (2257920)
I0403 15:42:25.867876  3391 net.cpp:156] Memory required for data: 884503584
I0403 15:42:25.867890  3391 layer_factory.hpp:77] Creating layer inception_4a/pool_proj
I0403 15:42:25.867913  3391 net.cpp:91] Creating Layer inception_4a/pool_proj
I0403 15:42:25.867929  3391 net.cpp:425] inception_4a/pool_proj <- inception_4a/pool
I0403 15:42:25.867946  3391 net.cpp:399] inception_4a/pool_proj -> inception_4a/pool_proj
I0403 15:42:25.869113  3391 net.cpp:141] Setting up inception_4a/pool_proj
I0403 15:42:25.869145  3391 net.cpp:148] Top shape: 24 64 14 14 (301056)
I0403 15:42:25.869174  3391 net.cpp:156] Memory required for data: 885707808
I0403 15:42:25.869192  3391 layer_factory.hpp:77] Creating layer inception_4a/relu_pool_proj
I0403 15:42:25.869213  3391 net.cpp:91] Creating Layer inception_4a/relu_pool_proj
I0403 15:42:25.869230  3391 net.cpp:425] inception_4a/relu_pool_proj <- inception_4a/pool_proj
I0403 15:42:25.869251  3391 net.cpp:386] inception_4a/relu_pool_proj -> inception_4a/pool_proj (in-place)
I0403 15:42:25.869521  3391 net.cpp:141] Setting up inception_4a/relu_pool_proj
I0403 15:42:25.869549  3391 net.cpp:148] Top shape: 24 64 14 14 (301056)
I0403 15:42:25.869563  3391 net.cpp:156] Memory required for data: 886912032
I0403 15:42:25.869578  3391 layer_factory.hpp:77] Creating layer inception_4a/output
I0403 15:42:25.869595  3391 net.cpp:91] Creating Layer inception_4a/output
I0403 15:42:25.869609  3391 net.cpp:425] inception_4a/output <- inception_4a/1x1
I0403 15:42:25.869624  3391 net.cpp:425] inception_4a/output <- inception_4a/3x3
I0403 15:42:25.869639  3391 net.cpp:425] inception_4a/output <- inception_4a/5x5
I0403 15:42:25.869654  3391 net.cpp:425] inception_4a/output <- inception_4a/pool_proj
I0403 15:42:25.869673  3391 net.cpp:399] inception_4a/output -> inception_4a/output
I0403 15:42:25.869714  3391 net.cpp:141] Setting up inception_4a/output
I0403 15:42:25.869736  3391 net.cpp:148] Top shape: 24 512 14 14 (2408448)
I0403 15:42:25.869750  3391 net.cpp:156] Memory required for data: 896545824
I0403 15:42:25.869765  3391 layer_factory.hpp:77] Creating layer inception_4a/output_inception_4a/output_0_split
I0403 15:42:25.869783  3391 net.cpp:91] Creating Layer inception_4a/output_inception_4a/output_0_split
I0403 15:42:25.869798  3391 net.cpp:425] inception_4a/output_inception_4a/output_0_split <- inception_4a/output
I0403 15:42:25.869815  3391 net.cpp:399] inception_4a/output_inception_4a/output_0_split -> inception_4a/output_inception_4a/output_0_split_0
I0403 15:42:25.869837  3391 net.cpp:399] inception_4a/output_inception_4a/output_0_split -> inception_4a/output_inception_4a/output_0_split_1
I0403 15:42:25.869858  3391 net.cpp:399] inception_4a/output_inception_4a/output_0_split -> inception_4a/output_inception_4a/output_0_split_2
I0403 15:42:25.869877  3391 net.cpp:399] inception_4a/output_inception_4a/output_0_split -> inception_4a/output_inception_4a/output_0_split_3
I0403 15:42:25.869896  3391 net.cpp:399] inception_4a/output_inception_4a/output_0_split -> inception_4a/output_inception_4a/output_0_split_4
I0403 15:42:25.869983  3391 net.cpp:141] Setting up inception_4a/output_inception_4a/output_0_split
I0403 15:42:25.870005  3391 net.cpp:148] Top shape: 24 512 14 14 (2408448)
I0403 15:42:25.870021  3391 net.cpp:148] Top shape: 24 512 14 14 (2408448)
I0403 15:42:25.870035  3391 net.cpp:148] Top shape: 24 512 14 14 (2408448)
I0403 15:42:25.870050  3391 net.cpp:148] Top shape: 24 512 14 14 (2408448)
I0403 15:42:25.870064  3391 net.cpp:148] Top shape: 24 512 14 14 (2408448)
I0403 15:42:25.870077  3391 net.cpp:156] Memory required for data: 944714784
I0403 15:42:25.870092  3391 layer_factory.hpp:77] Creating layer loss1/ave_pool
I0403 15:42:25.870110  3391 net.cpp:91] Creating Layer loss1/ave_pool
I0403 15:42:25.870127  3391 net.cpp:425] loss1/ave_pool <- inception_4a/output_inception_4a/output_0_split_0
I0403 15:42:25.870143  3391 net.cpp:399] loss1/ave_pool -> loss1/ave_pool
I0403 15:42:25.870344  3391 net.cpp:141] Setting up loss1/ave_pool
I0403 15:42:25.870371  3391 net.cpp:148] Top shape: 24 512 4 4 (196608)
I0403 15:42:25.870386  3391 net.cpp:156] Memory required for data: 945501216
I0403 15:42:25.870400  3391 layer_factory.hpp:77] Creating layer loss1/conv
I0403 15:42:25.870421  3391 net.cpp:91] Creating Layer loss1/conv
I0403 15:42:25.870440  3391 net.cpp:425] loss1/conv <- loss1/ave_pool
I0403 15:42:25.870457  3391 net.cpp:399] loss1/conv -> loss1/conv
I0403 15:42:25.871953  3391 net.cpp:141] Setting up loss1/conv
I0403 15:42:25.871981  3391 net.cpp:148] Top shape: 24 128 4 4 (49152)
I0403 15:42:25.872011  3391 net.cpp:156] Memory required for data: 945697824
I0403 15:42:25.872030  3391 layer_factory.hpp:77] Creating layer loss1/relu_conv
I0403 15:42:25.872051  3391 net.cpp:91] Creating Layer loss1/relu_conv
I0403 15:42:25.872067  3391 net.cpp:425] loss1/relu_conv <- loss1/conv
I0403 15:42:25.872086  3391 net.cpp:386] loss1/relu_conv -> loss1/conv (in-place)
I0403 15:42:25.872378  3391 net.cpp:141] Setting up loss1/relu_conv
I0403 15:42:25.872405  3391 net.cpp:148] Top shape: 24 128 4 4 (49152)
I0403 15:42:25.872419  3391 net.cpp:156] Memory required for data: 945894432
I0403 15:42:25.872434  3391 layer_factory.hpp:77] Creating layer loss1/fc
I0403 15:42:25.872460  3391 net.cpp:91] Creating Layer loss1/fc
I0403 15:42:25.872478  3391 net.cpp:425] loss1/fc <- loss1/conv
I0403 15:42:25.872498  3391 net.cpp:399] loss1/fc -> loss1/fc
I0403 15:42:25.890447  3391 net.cpp:141] Setting up loss1/fc
I0403 15:42:25.890480  3391 net.cpp:148] Top shape: 24 1024 (24576)
I0403 15:42:25.890496  3391 net.cpp:156] Memory required for data: 945992736
I0403 15:42:25.890516  3391 layer_factory.hpp:77] Creating layer loss1/relu_fc
I0403 15:42:25.890534  3391 net.cpp:91] Creating Layer loss1/relu_fc
I0403 15:42:25.890552  3391 net.cpp:425] loss1/relu_fc <- loss1/fc
I0403 15:42:25.890570  3391 net.cpp:386] loss1/relu_fc -> loss1/fc (in-place)
I0403 15:42:25.890764  3391 net.cpp:141] Setting up loss1/relu_fc
I0403 15:42:25.890789  3391 net.cpp:148] Top shape: 24 1024 (24576)
I0403 15:42:25.890804  3391 net.cpp:156] Memory required for data: 946091040
I0403 15:42:25.890818  3391 layer_factory.hpp:77] Creating layer loss1/drop_fc
I0403 15:42:25.890846  3391 net.cpp:91] Creating Layer loss1/drop_fc
I0403 15:42:25.890864  3391 net.cpp:425] loss1/drop_fc <- loss1/fc
I0403 15:42:25.890883  3391 net.cpp:386] loss1/drop_fc -> loss1/fc (in-place)
I0403 15:42:25.890933  3391 net.cpp:141] Setting up loss1/drop_fc
I0403 15:42:25.890957  3391 net.cpp:148] Top shape: 24 1024 (24576)
I0403 15:42:25.890974  3391 net.cpp:156] Memory required for data: 946189344
I0403 15:42:25.890988  3391 layer_factory.hpp:77] Creating layer loss1/classifier_plantvillage
I0403 15:42:25.891007  3391 net.cpp:91] Creating Layer loss1/classifier_plantvillage
I0403 15:42:25.891022  3391 net.cpp:425] loss1/classifier_plantvillage <- loss1/fc
I0403 15:42:25.891043  3391 net.cpp:399] loss1/classifier_plantvillage -> loss1/classifier_plantvillage
I0403 15:42:25.891958  3391 net.cpp:141] Setting up loss1/classifier_plantvillage
I0403 15:42:25.891986  3391 net.cpp:148] Top shape: 24 38 (912)
I0403 15:42:25.892001  3391 net.cpp:156] Memory required for data: 946192992
I0403 15:42:25.892019  3391 layer_factory.hpp:77] Creating layer loss1/classifier_plantvillage_loss1/classifier_plantvillage_0_split
I0403 15:42:25.892037  3391 net.cpp:91] Creating Layer loss1/classifier_plantvillage_loss1/classifier_plantvillage_0_split
I0403 15:42:25.892052  3391 net.cpp:425] loss1/classifier_plantvillage_loss1/classifier_plantvillage_0_split <- loss1/classifier_plantvillage
I0403 15:42:25.892072  3391 net.cpp:399] loss1/classifier_plantvillage_loss1/classifier_plantvillage_0_split -> loss1/classifier_plantvillage_loss1/classifier_plantvillage_0_split_0
I0403 15:42:25.892093  3391 net.cpp:399] loss1/classifier_plantvillage_loss1/classifier_plantvillage_0_split -> loss1/classifier_plantvillage_loss1/classifier_plantvillage_0_split_1
I0403 15:42:25.892113  3391 net.cpp:399] loss1/classifier_plantvillage_loss1/classifier_plantvillage_0_split -> loss1/classifier_plantvillage_loss1/classifier_plantvillage_0_split_2
I0403 15:42:25.892181  3391 net.cpp:141] Setting up loss1/classifier_plantvillage_loss1/classifier_plantvillage_0_split
I0403 15:42:25.892204  3391 net.cpp:148] Top shape: 24 38 (912)
I0403 15:42:25.892225  3391 net.cpp:148] Top shape: 24 38 (912)
I0403 15:42:25.892241  3391 net.cpp:148] Top shape: 24 38 (912)
I0403 15:42:25.892253  3391 net.cpp:156] Memory required for data: 946203936
I0403 15:42:25.892268  3391 layer_factory.hpp:77] Creating layer inception_4b/1x1
I0403 15:42:25.892292  3391 net.cpp:91] Creating Layer inception_4b/1x1
I0403 15:42:25.892325  3391 net.cpp:425] inception_4b/1x1 <- inception_4a/output_inception_4a/output_0_split_1
I0403 15:42:25.892345  3391 net.cpp:399] inception_4b/1x1 -> inception_4b/1x1
I0403 15:42:25.894007  3391 net.cpp:141] Setting up inception_4b/1x1
I0403 15:42:25.894035  3391 net.cpp:148] Top shape: 24 160 14 14 (752640)
I0403 15:42:25.894050  3391 net.cpp:156] Memory required for data: 949214496
I0403 15:42:25.894068  3391 layer_factory.hpp:77] Creating layer inception_4b/relu_1x1
I0403 15:42:25.894088  3391 net.cpp:91] Creating Layer inception_4b/relu_1x1
I0403 15:42:25.894104  3391 net.cpp:425] inception_4b/relu_1x1 <- inception_4b/1x1
I0403 15:42:25.894121  3391 net.cpp:386] inception_4b/relu_1x1 -> inception_4b/1x1 (in-place)
I0403 15:42:25.894304  3391 net.cpp:141] Setting up inception_4b/relu_1x1
I0403 15:42:25.894330  3391 net.cpp:148] Top shape: 24 160 14 14 (752640)
I0403 15:42:25.894345  3391 net.cpp:156] Memory required for data: 952225056
I0403 15:42:25.894361  3391 layer_factory.hpp:77] Creating layer inception_4b/3x3_reduce
I0403 15:42:25.894384  3391 net.cpp:91] Creating Layer inception_4b/3x3_reduce
I0403 15:42:25.894402  3391 net.cpp:425] inception_4b/3x3_reduce <- inception_4a/output_inception_4a/output_0_split_2
I0403 15:42:25.894420  3391 net.cpp:399] inception_4b/3x3_reduce -> inception_4b/3x3_reduce
I0403 15:42:25.895761  3391 net.cpp:141] Setting up inception_4b/3x3_reduce
I0403 15:42:25.895790  3391 net.cpp:148] Top shape: 24 112 14 14 (526848)
I0403 15:42:25.895807  3391 net.cpp:156] Memory required for data: 954332448
I0403 15:42:25.895826  3391 layer_factory.hpp:77] Creating layer inception_4b/relu_3x3_reduce
I0403 15:42:25.895843  3391 net.cpp:91] Creating Layer inception_4b/relu_3x3_reduce
I0403 15:42:25.895860  3391 net.cpp:425] inception_4b/relu_3x3_reduce <- inception_4b/3x3_reduce
I0403 15:42:25.895877  3391 net.cpp:386] inception_4b/relu_3x3_reduce -> inception_4b/3x3_reduce (in-place)
I0403 15:42:25.896159  3391 net.cpp:141] Setting up inception_4b/relu_3x3_reduce
I0403 15:42:25.896188  3391 net.cpp:148] Top shape: 24 112 14 14 (526848)
I0403 15:42:25.896203  3391 net.cpp:156] Memory required for data: 956439840
I0403 15:42:25.896224  3391 layer_factory.hpp:77] Creating layer inception_4b/3x3
I0403 15:42:25.896244  3391 net.cpp:91] Creating Layer inception_4b/3x3
I0403 15:42:25.896260  3391 net.cpp:425] inception_4b/3x3 <- inception_4b/3x3_reduce
I0403 15:42:25.896281  3391 net.cpp:399] inception_4b/3x3 -> inception_4b/3x3
I0403 15:42:25.899240  3391 net.cpp:141] Setting up inception_4b/3x3
I0403 15:42:25.899271  3391 net.cpp:148] Top shape: 24 224 14 14 (1053696)
I0403 15:42:25.899286  3391 net.cpp:156] Memory required for data: 960654624
I0403 15:42:25.899304  3391 layer_factory.hpp:77] Creating layer inception_4b/relu_3x3
I0403 15:42:25.899322  3391 net.cpp:91] Creating Layer inception_4b/relu_3x3
I0403 15:42:25.899338  3391 net.cpp:425] inception_4b/relu_3x3 <- inception_4b/3x3
I0403 15:42:25.899358  3391 net.cpp:386] inception_4b/relu_3x3 -> inception_4b/3x3 (in-place)
I0403 15:42:25.899536  3391 net.cpp:141] Setting up inception_4b/relu_3x3
I0403 15:42:25.899561  3391 net.cpp:148] Top shape: 24 224 14 14 (1053696)
I0403 15:42:25.899575  3391 net.cpp:156] Memory required for data: 964869408
I0403 15:42:25.899590  3391 layer_factory.hpp:77] Creating layer inception_4b/5x5_reduce
I0403 15:42:25.899612  3391 net.cpp:91] Creating Layer inception_4b/5x5_reduce
I0403 15:42:25.899629  3391 net.cpp:425] inception_4b/5x5_reduce <- inception_4a/output_inception_4a/output_0_split_3
I0403 15:42:25.899652  3391 net.cpp:399] inception_4b/5x5_reduce -> inception_4b/5x5_reduce
I0403 15:42:25.900733  3391 net.cpp:141] Setting up inception_4b/5x5_reduce
I0403 15:42:25.900761  3391 net.cpp:148] Top shape: 24 24 14 14 (112896)
I0403 15:42:25.900776  3391 net.cpp:156] Memory required for data: 965320992
I0403 15:42:25.900794  3391 layer_factory.hpp:77] Creating layer inception_4b/relu_5x5_reduce
I0403 15:42:25.900815  3391 net.cpp:91] Creating Layer inception_4b/relu_5x5_reduce
I0403 15:42:25.900846  3391 net.cpp:425] inception_4b/relu_5x5_reduce <- inception_4b/5x5_reduce
I0403 15:42:25.900864  3391 net.cpp:386] inception_4b/relu_5x5_reduce -> inception_4b/5x5_reduce (in-place)
I0403 15:42:25.901048  3391 net.cpp:141] Setting up inception_4b/relu_5x5_reduce
I0403 15:42:25.901074  3391 net.cpp:148] Top shape: 24 24 14 14 (112896)
I0403 15:42:25.901090  3391 net.cpp:156] Memory required for data: 965772576
I0403 15:42:25.901105  3391 layer_factory.hpp:77] Creating layer inception_4b/5x5
I0403 15:42:25.901127  3391 net.cpp:91] Creating Layer inception_4b/5x5
I0403 15:42:25.901144  3391 net.cpp:425] inception_4b/5x5 <- inception_4b/5x5_reduce
I0403 15:42:25.901163  3391 net.cpp:399] inception_4b/5x5 -> inception_4b/5x5
I0403 15:42:25.902387  3391 net.cpp:141] Setting up inception_4b/5x5
I0403 15:42:25.902415  3391 net.cpp:148] Top shape: 24 64 14 14 (301056)
I0403 15:42:25.902431  3391 net.cpp:156] Memory required for data: 966976800
I0403 15:42:25.902449  3391 layer_factory.hpp:77] Creating layer inception_4b/relu_5x5
I0403 15:42:25.902470  3391 net.cpp:91] Creating Layer inception_4b/relu_5x5
I0403 15:42:25.902487  3391 net.cpp:425] inception_4b/relu_5x5 <- inception_4b/5x5
I0403 15:42:25.902503  3391 net.cpp:386] inception_4b/relu_5x5 -> inception_4b/5x5 (in-place)
I0403 15:42:25.902788  3391 net.cpp:141] Setting up inception_4b/relu_5x5
I0403 15:42:25.902814  3391 net.cpp:148] Top shape: 24 64 14 14 (301056)
I0403 15:42:25.902829  3391 net.cpp:156] Memory required for data: 968181024
I0403 15:42:25.902843  3391 layer_factory.hpp:77] Creating layer inception_4b/pool
I0403 15:42:25.902864  3391 net.cpp:91] Creating Layer inception_4b/pool
I0403 15:42:25.902880  3391 net.cpp:425] inception_4b/pool <- inception_4a/output_inception_4a/output_0_split_4
I0403 15:42:25.902899  3391 net.cpp:399] inception_4b/pool -> inception_4b/pool
I0403 15:42:25.902962  3391 net.cpp:141] Setting up inception_4b/pool
I0403 15:42:25.902986  3391 net.cpp:148] Top shape: 24 512 14 14 (2408448)
I0403 15:42:25.903000  3391 net.cpp:156] Memory required for data: 977814816
I0403 15:42:25.903014  3391 layer_factory.hpp:77] Creating layer inception_4b/pool_proj
I0403 15:42:25.903035  3391 net.cpp:91] Creating Layer inception_4b/pool_proj
I0403 15:42:25.903053  3391 net.cpp:425] inception_4b/pool_proj <- inception_4b/pool
I0403 15:42:25.903074  3391 net.cpp:399] inception_4b/pool_proj -> inception_4b/pool_proj
I0403 15:42:25.904286  3391 net.cpp:141] Setting up inception_4b/pool_proj
I0403 15:42:25.904314  3391 net.cpp:148] Top shape: 24 64 14 14 (301056)
I0403 15:42:25.904330  3391 net.cpp:156] Memory required for data: 979019040
I0403 15:42:25.904347  3391 layer_factory.hpp:77] Creating layer inception_4b/relu_pool_proj
I0403 15:42:25.904367  3391 net.cpp:91] Creating Layer inception_4b/relu_pool_proj
I0403 15:42:25.904384  3391 net.cpp:425] inception_4b/relu_pool_proj <- inception_4b/pool_proj
I0403 15:42:25.904402  3391 net.cpp:386] inception_4b/relu_pool_proj -> inception_4b/pool_proj (in-place)
I0403 15:42:25.904582  3391 net.cpp:141] Setting up inception_4b/relu_pool_proj
I0403 15:42:25.904608  3391 net.cpp:148] Top shape: 24 64 14 14 (301056)
I0403 15:42:25.904623  3391 net.cpp:156] Memory required for data: 980223264
I0403 15:42:25.904639  3391 layer_factory.hpp:77] Creating layer inception_4b/output
I0403 15:42:25.904655  3391 net.cpp:91] Creating Layer inception_4b/output
I0403 15:42:25.904670  3391 net.cpp:425] inception_4b/output <- inception_4b/1x1
I0403 15:42:25.904686  3391 net.cpp:425] inception_4b/output <- inception_4b/3x3
I0403 15:42:25.904702  3391 net.cpp:425] inception_4b/output <- inception_4b/5x5
I0403 15:42:25.904718  3391 net.cpp:425] inception_4b/output <- inception_4b/pool_proj
I0403 15:42:25.904734  3391 net.cpp:399] inception_4b/output -> inception_4b/output
I0403 15:42:25.904780  3391 net.cpp:141] Setting up inception_4b/output
I0403 15:42:25.904803  3391 net.cpp:148] Top shape: 24 512 14 14 (2408448)
I0403 15:42:25.904817  3391 net.cpp:156] Memory required for data: 989857056
I0403 15:42:25.904845  3391 layer_factory.hpp:77] Creating layer inception_4b/output_inception_4b/output_0_split
I0403 15:42:25.904866  3391 net.cpp:91] Creating Layer inception_4b/output_inception_4b/output_0_split
I0403 15:42:25.904882  3391 net.cpp:425] inception_4b/output_inception_4b/output_0_split <- inception_4b/output
I0403 15:42:25.904899  3391 net.cpp:399] inception_4b/output_inception_4b/output_0_split -> inception_4b/output_inception_4b/output_0_split_0
I0403 15:42:25.904919  3391 net.cpp:399] inception_4b/output_inception_4b/output_0_split -> inception_4b/output_inception_4b/output_0_split_1
I0403 15:42:25.904939  3391 net.cpp:399] inception_4b/output_inception_4b/output_0_split -> inception_4b/output_inception_4b/output_0_split_2
I0403 15:42:25.904959  3391 net.cpp:399] inception_4b/output_inception_4b/output_0_split -> inception_4b/output_inception_4b/output_0_split_3
I0403 15:42:25.905056  3391 net.cpp:141] Setting up inception_4b/output_inception_4b/output_0_split
I0403 15:42:25.905081  3391 net.cpp:148] Top shape: 24 512 14 14 (2408448)
I0403 15:42:25.905097  3391 net.cpp:148] Top shape: 24 512 14 14 (2408448)
I0403 15:42:25.905112  3391 net.cpp:148] Top shape: 24 512 14 14 (2408448)
I0403 15:42:25.905128  3391 net.cpp:148] Top shape: 24 512 14 14 (2408448)
I0403 15:42:25.905140  3391 net.cpp:156] Memory required for data: 1028392224
I0403 15:42:25.905155  3391 layer_factory.hpp:77] Creating layer inception_4c/1x1
I0403 15:42:25.905177  3391 net.cpp:91] Creating Layer inception_4c/1x1
I0403 15:42:25.905195  3391 net.cpp:425] inception_4c/1x1 <- inception_4b/output_inception_4b/output_0_split_0
I0403 15:42:25.905220  3391 net.cpp:399] inception_4c/1x1 -> inception_4c/1x1
I0403 15:42:25.906675  3391 net.cpp:141] Setting up inception_4c/1x1
I0403 15:42:25.906707  3391 net.cpp:148] Top shape: 24 128 14 14 (602112)
I0403 15:42:25.906723  3391 net.cpp:156] Memory required for data: 1030800672
I0403 15:42:25.906740  3391 layer_factory.hpp:77] Creating layer inception_4c/relu_1x1
I0403 15:42:25.906759  3391 net.cpp:91] Creating Layer inception_4c/relu_1x1
I0403 15:42:25.906774  3391 net.cpp:425] inception_4c/relu_1x1 <- inception_4c/1x1
I0403 15:42:25.906793  3391 net.cpp:386] inception_4c/relu_1x1 -> inception_4c/1x1 (in-place)
I0403 15:42:25.906978  3391 net.cpp:141] Setting up inception_4c/relu_1x1
I0403 15:42:25.907002  3391 net.cpp:148] Top shape: 24 128 14 14 (602112)
I0403 15:42:25.907016  3391 net.cpp:156] Memory required for data: 1033209120
I0403 15:42:25.907032  3391 layer_factory.hpp:77] Creating layer inception_4c/3x3_reduce
I0403 15:42:25.907054  3391 net.cpp:91] Creating Layer inception_4c/3x3_reduce
I0403 15:42:25.907071  3391 net.cpp:425] inception_4c/3x3_reduce <- inception_4b/output_inception_4b/output_0_split_1
I0403 15:42:25.907091  3391 net.cpp:399] inception_4c/3x3_reduce -> inception_4c/3x3_reduce
I0403 15:42:25.909021  3391 net.cpp:141] Setting up inception_4c/3x3_reduce
I0403 15:42:25.909049  3391 net.cpp:148] Top shape: 24 128 14 14 (602112)
I0403 15:42:25.909065  3391 net.cpp:156] Memory required for data: 1035617568
I0403 15:42:25.909083  3391 layer_factory.hpp:77] Creating layer inception_4c/relu_3x3_reduce
I0403 15:42:25.909102  3391 net.cpp:91] Creating Layer inception_4c/relu_3x3_reduce
I0403 15:42:25.909119  3391 net.cpp:425] inception_4c/relu_3x3_reduce <- inception_4c/3x3_reduce
I0403 15:42:25.909137  3391 net.cpp:386] inception_4c/relu_3x3_reduce -> inception_4c/3x3_reduce (in-place)
I0403 15:42:25.909425  3391 net.cpp:141] Setting up inception_4c/relu_3x3_reduce
I0403 15:42:25.909452  3391 net.cpp:148] Top shape: 24 128 14 14 (602112)
I0403 15:42:25.909467  3391 net.cpp:156] Memory required for data: 1038026016
I0403 15:42:25.909482  3391 layer_factory.hpp:77] Creating layer inception_4c/3x3
I0403 15:42:25.909505  3391 net.cpp:91] Creating Layer inception_4c/3x3
I0403 15:42:25.909523  3391 net.cpp:425] inception_4c/3x3 <- inception_4c/3x3_reduce
I0403 15:42:25.909543  3391 net.cpp:399] inception_4c/3x3 -> inception_4c/3x3
I0403 15:42:25.913148  3391 net.cpp:141] Setting up inception_4c/3x3
I0403 15:42:25.913189  3391 net.cpp:148] Top shape: 24 256 14 14 (1204224)
I0403 15:42:25.913205  3391 net.cpp:156] Memory required for data: 1042842912
I0403 15:42:25.913251  3391 layer_factory.hpp:77] Creating layer inception_4c/relu_3x3
I0403 15:42:25.913275  3391 net.cpp:91] Creating Layer inception_4c/relu_3x3
I0403 15:42:25.913291  3391 net.cpp:425] inception_4c/relu_3x3 <- inception_4c/3x3
I0403 15:42:25.913308  3391 net.cpp:386] inception_4c/relu_3x3 -> inception_4c/3x3 (in-place)
I0403 15:42:25.913489  3391 net.cpp:141] Setting up inception_4c/relu_3x3
I0403 15:42:25.913513  3391 net.cpp:148] Top shape: 24 256 14 14 (1204224)
I0403 15:42:25.913528  3391 net.cpp:156] Memory required for data: 1047659808
I0403 15:42:25.913542  3391 layer_factory.hpp:77] Creating layer inception_4c/5x5_reduce
I0403 15:42:25.913564  3391 net.cpp:91] Creating Layer inception_4c/5x5_reduce
I0403 15:42:25.913583  3391 net.cpp:425] inception_4c/5x5_reduce <- inception_4b/output_inception_4b/output_0_split_2
I0403 15:42:25.913604  3391 net.cpp:399] inception_4c/5x5_reduce -> inception_4c/5x5_reduce
I0403 15:42:25.914690  3391 net.cpp:141] Setting up inception_4c/5x5_reduce
I0403 15:42:25.914718  3391 net.cpp:148] Top shape: 24 24 14 14 (112896)
I0403 15:42:25.914733  3391 net.cpp:156] Memory required for data: 1048111392
I0403 15:42:25.914752  3391 layer_factory.hpp:77] Creating layer inception_4c/relu_5x5_reduce
I0403 15:42:25.914772  3391 net.cpp:91] Creating Layer inception_4c/relu_5x5_reduce
I0403 15:42:25.914788  3391 net.cpp:425] inception_4c/relu_5x5_reduce <- inception_4c/5x5_reduce
I0403 15:42:25.914805  3391 net.cpp:386] inception_4c/relu_5x5_reduce -> inception_4c/5x5_reduce (in-place)
I0403 15:42:25.914989  3391 net.cpp:141] Setting up inception_4c/relu_5x5_reduce
I0403 15:42:25.915015  3391 net.cpp:148] Top shape: 24 24 14 14 (112896)
I0403 15:42:25.915030  3391 net.cpp:156] Memory required for data: 1048562976
I0403 15:42:25.915045  3391 layer_factory.hpp:77] Creating layer inception_4c/5x5
I0403 15:42:25.915066  3391 net.cpp:91] Creating Layer inception_4c/5x5
I0403 15:42:25.915084  3391 net.cpp:425] inception_4c/5x5 <- inception_4c/5x5_reduce
I0403 15:42:25.915103  3391 net.cpp:399] inception_4c/5x5 -> inception_4c/5x5
I0403 15:42:25.916340  3391 net.cpp:141] Setting up inception_4c/5x5
I0403 15:42:25.916369  3391 net.cpp:148] Top shape: 24 64 14 14 (301056)
I0403 15:42:25.916385  3391 net.cpp:156] Memory required for data: 1049767200
I0403 15:42:25.916404  3391 layer_factory.hpp:77] Creating layer inception_4c/relu_5x5
I0403 15:42:25.916421  3391 net.cpp:91] Creating Layer inception_4c/relu_5x5
I0403 15:42:25.916440  3391 net.cpp:425] inception_4c/relu_5x5 <- inception_4c/5x5
I0403 15:42:25.916456  3391 net.cpp:386] inception_4c/relu_5x5 -> inception_4c/5x5 (in-place)
I0403 15:42:25.916743  3391 net.cpp:141] Setting up inception_4c/relu_5x5
I0403 15:42:25.916771  3391 net.cpp:148] Top shape: 24 64 14 14 (301056)
I0403 15:42:25.916786  3391 net.cpp:156] Memory required for data: 1050971424
I0403 15:42:25.916800  3391 layer_factory.hpp:77] Creating layer inception_4c/pool
I0403 15:42:25.916817  3391 net.cpp:91] Creating Layer inception_4c/pool
I0403 15:42:25.916833  3391 net.cpp:425] inception_4c/pool <- inception_4b/output_inception_4b/output_0_split_3
I0403 15:42:25.916853  3391 net.cpp:399] inception_4c/pool -> inception_4c/pool
I0403 15:42:25.916918  3391 net.cpp:141] Setting up inception_4c/pool
I0403 15:42:25.916941  3391 net.cpp:148] Top shape: 24 512 14 14 (2408448)
I0403 15:42:25.916955  3391 net.cpp:156] Memory required for data: 1060605216
I0403 15:42:25.916970  3391 layer_factory.hpp:77] Creating layer inception_4c/pool_proj
I0403 15:42:25.916991  3391 net.cpp:91] Creating Layer inception_4c/pool_proj
I0403 15:42:25.917009  3391 net.cpp:425] inception_4c/pool_proj <- inception_4c/pool
I0403 15:42:25.917031  3391 net.cpp:399] inception_4c/pool_proj -> inception_4c/pool_proj
I0403 15:42:25.918262  3391 net.cpp:141] Setting up inception_4c/pool_proj
I0403 15:42:25.918289  3391 net.cpp:148] Top shape: 24 64 14 14 (301056)
I0403 15:42:25.918318  3391 net.cpp:156] Memory required for data: 1061809440
I0403 15:42:25.918337  3391 layer_factory.hpp:77] Creating layer inception_4c/relu_pool_proj
I0403 15:42:25.918359  3391 net.cpp:91] Creating Layer inception_4c/relu_pool_proj
I0403 15:42:25.918375  3391 net.cpp:425] inception_4c/relu_pool_proj <- inception_4c/pool_proj
I0403 15:42:25.918392  3391 net.cpp:386] inception_4c/relu_pool_proj -> inception_4c/pool_proj (in-place)
I0403 15:42:25.918573  3391 net.cpp:141] Setting up inception_4c/relu_pool_proj
I0403 15:42:25.918599  3391 net.cpp:148] Top shape: 24 64 14 14 (301056)
I0403 15:42:25.918614  3391 net.cpp:156] Memory required for data: 1063013664
I0403 15:42:25.918629  3391 layer_factory.hpp:77] Creating layer inception_4c/output
I0403 15:42:25.918647  3391 net.cpp:91] Creating Layer inception_4c/output
I0403 15:42:25.918661  3391 net.cpp:425] inception_4c/output <- inception_4c/1x1
I0403 15:42:25.918678  3391 net.cpp:425] inception_4c/output <- inception_4c/3x3
I0403 15:42:25.918694  3391 net.cpp:425] inception_4c/output <- inception_4c/5x5
I0403 15:42:25.918709  3391 net.cpp:425] inception_4c/output <- inception_4c/pool_proj
I0403 15:42:25.918725  3391 net.cpp:399] inception_4c/output -> inception_4c/output
I0403 15:42:25.918772  3391 net.cpp:141] Setting up inception_4c/output
I0403 15:42:25.918795  3391 net.cpp:148] Top shape: 24 512 14 14 (2408448)
I0403 15:42:25.918809  3391 net.cpp:156] Memory required for data: 1072647456
I0403 15:42:25.918824  3391 layer_factory.hpp:77] Creating layer inception_4c/output_inception_4c/output_0_split
I0403 15:42:25.918843  3391 net.cpp:91] Creating Layer inception_4c/output_inception_4c/output_0_split
I0403 15:42:25.918859  3391 net.cpp:425] inception_4c/output_inception_4c/output_0_split <- inception_4c/output
I0403 15:42:25.918879  3391 net.cpp:399] inception_4c/output_inception_4c/output_0_split -> inception_4c/output_inception_4c/output_0_split_0
I0403 15:42:25.918898  3391 net.cpp:399] inception_4c/output_inception_4c/output_0_split -> inception_4c/output_inception_4c/output_0_split_1
I0403 15:42:25.918918  3391 net.cpp:399] inception_4c/output_inception_4c/output_0_split -> inception_4c/output_inception_4c/output_0_split_2
I0403 15:42:25.918938  3391 net.cpp:399] inception_4c/output_inception_4c/output_0_split -> inception_4c/output_inception_4c/output_0_split_3
I0403 15:42:25.919024  3391 net.cpp:141] Setting up inception_4c/output_inception_4c/output_0_split
I0403 15:42:25.919047  3391 net.cpp:148] Top shape: 24 512 14 14 (2408448)
I0403 15:42:25.919064  3391 net.cpp:148] Top shape: 24 512 14 14 (2408448)
I0403 15:42:25.919080  3391 net.cpp:148] Top shape: 24 512 14 14 (2408448)
I0403 15:42:25.919095  3391 net.cpp:148] Top shape: 24 512 14 14 (2408448)
I0403 15:42:25.919107  3391 net.cpp:156] Memory required for data: 1111182624
I0403 15:42:25.919122  3391 layer_factory.hpp:77] Creating layer inception_4d/1x1
I0403 15:42:25.919143  3391 net.cpp:91] Creating Layer inception_4d/1x1
I0403 15:42:25.919160  3391 net.cpp:425] inception_4d/1x1 <- inception_4c/output_inception_4c/output_0_split_0
I0403 15:42:25.919181  3391 net.cpp:399] inception_4d/1x1 -> inception_4d/1x1
I0403 15:42:25.920603  3391 net.cpp:141] Setting up inception_4d/1x1
I0403 15:42:25.920630  3391 net.cpp:148] Top shape: 24 112 14 14 (526848)
I0403 15:42:25.920646  3391 net.cpp:156] Memory required for data: 1113290016
I0403 15:42:25.920665  3391 layer_factory.hpp:77] Creating layer inception_4d/relu_1x1
I0403 15:42:25.920685  3391 net.cpp:91] Creating Layer inception_4d/relu_1x1
I0403 15:42:25.920701  3391 net.cpp:425] inception_4d/relu_1x1 <- inception_4d/1x1
I0403 15:42:25.920720  3391 net.cpp:386] inception_4d/relu_1x1 -> inception_4d/1x1 (in-place)
I0403 15:42:25.920908  3391 net.cpp:141] Setting up inception_4d/relu_1x1
I0403 15:42:25.920934  3391 net.cpp:148] Top shape: 24 112 14 14 (526848)
I0403 15:42:25.920949  3391 net.cpp:156] Memory required for data: 1115397408
I0403 15:42:25.920964  3391 layer_factory.hpp:77] Creating layer inception_4d/3x3_reduce
I0403 15:42:25.921000  3391 net.cpp:91] Creating Layer inception_4d/3x3_reduce
I0403 15:42:25.921018  3391 net.cpp:425] inception_4d/3x3_reduce <- inception_4c/output_inception_4c/output_0_split_1
I0403 15:42:25.921041  3391 net.cpp:399] inception_4d/3x3_reduce -> inception_4d/3x3_reduce
I0403 15:42:25.922600  3391 net.cpp:141] Setting up inception_4d/3x3_reduce
I0403 15:42:25.922629  3391 net.cpp:148] Top shape: 24 144 14 14 (677376)
I0403 15:42:25.922646  3391 net.cpp:156] Memory required for data: 1118106912
I0403 15:42:25.922665  3391 layer_factory.hpp:77] Creating layer inception_4d/relu_3x3_reduce
I0403 15:42:25.922683  3391 net.cpp:91] Creating Layer inception_4d/relu_3x3_reduce
I0403 15:42:25.922698  3391 net.cpp:425] inception_4d/relu_3x3_reduce <- inception_4d/3x3_reduce
I0403 15:42:25.922719  3391 net.cpp:386] inception_4d/relu_3x3_reduce -> inception_4d/3x3_reduce (in-place)
I0403 15:42:25.923017  3391 net.cpp:141] Setting up inception_4d/relu_3x3_reduce
I0403 15:42:25.923046  3391 net.cpp:148] Top shape: 24 144 14 14 (677376)
I0403 15:42:25.923063  3391 net.cpp:156] Memory required for data: 1120816416
I0403 15:42:25.923077  3391 layer_factory.hpp:77] Creating layer inception_4d/3x3
I0403 15:42:25.923100  3391 net.cpp:91] Creating Layer inception_4d/3x3
I0403 15:42:25.923118  3391 net.cpp:425] inception_4d/3x3 <- inception_4d/3x3_reduce
I0403 15:42:25.923138  3391 net.cpp:399] inception_4d/3x3 -> inception_4d/3x3
I0403 15:42:25.927532  3391 net.cpp:141] Setting up inception_4d/3x3
I0403 15:42:25.927562  3391 net.cpp:148] Top shape: 24 288 14 14 (1354752)
I0403 15:42:25.927578  3391 net.cpp:156] Memory required for data: 1126235424
I0403 15:42:25.927597  3391 layer_factory.hpp:77] Creating layer inception_4d/relu_3x3
I0403 15:42:25.927618  3391 net.cpp:91] Creating Layer inception_4d/relu_3x3
I0403 15:42:25.927636  3391 net.cpp:425] inception_4d/relu_3x3 <- inception_4d/3x3
I0403 15:42:25.927654  3391 net.cpp:386] inception_4d/relu_3x3 -> inception_4d/3x3 (in-place)
I0403 15:42:25.927840  3391 net.cpp:141] Setting up inception_4d/relu_3x3
I0403 15:42:25.927865  3391 net.cpp:148] Top shape: 24 288 14 14 (1354752)
I0403 15:42:25.927881  3391 net.cpp:156] Memory required for data: 1131654432
I0403 15:42:25.927896  3391 layer_factory.hpp:77] Creating layer inception_4d/5x5_reduce
I0403 15:42:25.927917  3391 net.cpp:91] Creating Layer inception_4d/5x5_reduce
I0403 15:42:25.927938  3391 net.cpp:425] inception_4d/5x5_reduce <- inception_4c/output_inception_4c/output_0_split_2
I0403 15:42:25.927958  3391 net.cpp:399] inception_4d/5x5_reduce -> inception_4d/5x5_reduce
I0403 15:42:25.929175  3391 net.cpp:141] Setting up inception_4d/5x5_reduce
I0403 15:42:25.929203  3391 net.cpp:148] Top shape: 24 32 14 14 (150528)
I0403 15:42:25.929224  3391 net.cpp:156] Memory required for data: 1132256544
I0403 15:42:25.929244  3391 layer_factory.hpp:77] Creating layer inception_4d/relu_5x5_reduce
I0403 15:42:25.929262  3391 net.cpp:91] Creating Layer inception_4d/relu_5x5_reduce
I0403 15:42:25.929278  3391 net.cpp:425] inception_4d/relu_5x5_reduce <- inception_4d/5x5_reduce
I0403 15:42:25.929298  3391 net.cpp:386] inception_4d/relu_5x5_reduce -> inception_4d/5x5_reduce (in-place)
I0403 15:42:25.929489  3391 net.cpp:141] Setting up inception_4d/relu_5x5_reduce
I0403 15:42:25.929514  3391 net.cpp:148] Top shape: 24 32 14 14 (150528)
I0403 15:42:25.929529  3391 net.cpp:156] Memory required for data: 1132858656
I0403 15:42:25.929544  3391 layer_factory.hpp:77] Creating layer inception_4d/5x5
I0403 15:42:25.929568  3391 net.cpp:91] Creating Layer inception_4d/5x5
I0403 15:42:25.929585  3391 net.cpp:425] inception_4d/5x5 <- inception_4d/5x5_reduce
I0403 15:42:25.929606  3391 net.cpp:399] inception_4d/5x5 -> inception_4d/5x5
I0403 15:42:25.931162  3391 net.cpp:141] Setting up inception_4d/5x5
I0403 15:42:25.931195  3391 net.cpp:148] Top shape: 24 64 14 14 (301056)
I0403 15:42:25.931216  3391 net.cpp:156] Memory required for data: 1134062880
I0403 15:42:25.931236  3391 layer_factory.hpp:77] Creating layer inception_4d/relu_5x5
I0403 15:42:25.931282  3391 net.cpp:91] Creating Layer inception_4d/relu_5x5
I0403 15:42:25.931298  3391 net.cpp:425] inception_4d/relu_5x5 <- inception_4d/5x5
I0403 15:42:25.931316  3391 net.cpp:386] inception_4d/relu_5x5 -> inception_4d/5x5 (in-place)
I0403 15:42:25.931617  3391 net.cpp:141] Setting up inception_4d/relu_5x5
I0403 15:42:25.931644  3391 net.cpp:148] Top shape: 24 64 14 14 (301056)
I0403 15:42:25.931660  3391 net.cpp:156] Memory required for data: 1135267104
I0403 15:42:25.931675  3391 layer_factory.hpp:77] Creating layer inception_4d/pool
I0403 15:42:25.931692  3391 net.cpp:91] Creating Layer inception_4d/pool
I0403 15:42:25.931709  3391 net.cpp:425] inception_4d/pool <- inception_4c/output_inception_4c/output_0_split_3
I0403 15:42:25.931727  3391 net.cpp:399] inception_4d/pool -> inception_4d/pool
I0403 15:42:25.931794  3391 net.cpp:141] Setting up inception_4d/pool
I0403 15:42:25.931818  3391 net.cpp:148] Top shape: 24 512 14 14 (2408448)
I0403 15:42:25.931833  3391 net.cpp:156] Memory required for data: 1144900896
I0403 15:42:25.931846  3391 layer_factory.hpp:77] Creating layer inception_4d/pool_proj
I0403 15:42:25.931869  3391 net.cpp:91] Creating Layer inception_4d/pool_proj
I0403 15:42:25.931885  3391 net.cpp:425] inception_4d/pool_proj <- inception_4d/pool
I0403 15:42:25.931906  3391 net.cpp:399] inception_4d/pool_proj -> inception_4d/pool_proj
I0403 15:42:25.933689  3391 net.cpp:141] Setting up inception_4d/pool_proj
I0403 15:42:25.933718  3391 net.cpp:148] Top shape: 24 64 14 14 (301056)
I0403 15:42:25.933733  3391 net.cpp:156] Memory required for data: 1146105120
I0403 15:42:25.933751  3391 layer_factory.hpp:77] Creating layer inception_4d/relu_pool_proj
I0403 15:42:25.933771  3391 net.cpp:91] Creating Layer inception_4d/relu_pool_proj
I0403 15:42:25.933787  3391 net.cpp:425] inception_4d/relu_pool_proj <- inception_4d/pool_proj
I0403 15:42:25.933804  3391 net.cpp:386] inception_4d/relu_pool_proj -> inception_4d/pool_proj (in-place)
I0403 15:42:25.933990  3391 net.cpp:141] Setting up inception_4d/relu_pool_proj
I0403 15:42:25.934013  3391 net.cpp:148] Top shape: 24 64 14 14 (301056)
I0403 15:42:25.934027  3391 net.cpp:156] Memory required for data: 1147309344
I0403 15:42:25.934042  3391 layer_factory.hpp:77] Creating layer inception_4d/output
I0403 15:42:25.934062  3391 net.cpp:91] Creating Layer inception_4d/output
I0403 15:42:25.934078  3391 net.cpp:425] inception_4d/output <- inception_4d/1x1
I0403 15:42:25.934094  3391 net.cpp:425] inception_4d/output <- inception_4d/3x3
I0403 15:42:25.934110  3391 net.cpp:425] inception_4d/output <- inception_4d/5x5
I0403 15:42:25.934126  3391 net.cpp:425] inception_4d/output <- inception_4d/pool_proj
I0403 15:42:25.934144  3391 net.cpp:399] inception_4d/output -> inception_4d/output
I0403 15:42:25.934191  3391 net.cpp:141] Setting up inception_4d/output
I0403 15:42:25.934218  3391 net.cpp:148] Top shape: 24 528 14 14 (2483712)
I0403 15:42:25.934234  3391 net.cpp:156] Memory required for data: 1157244192
I0403 15:42:25.934249  3391 layer_factory.hpp:77] Creating layer inception_4d/output_inception_4d/output_0_split
I0403 15:42:25.934267  3391 net.cpp:91] Creating Layer inception_4d/output_inception_4d/output_0_split
I0403 15:42:25.934283  3391 net.cpp:425] inception_4d/output_inception_4d/output_0_split <- inception_4d/output
I0403 15:42:25.934303  3391 net.cpp:399] inception_4d/output_inception_4d/output_0_split -> inception_4d/output_inception_4d/output_0_split_0
I0403 15:42:25.934324  3391 net.cpp:399] inception_4d/output_inception_4d/output_0_split -> inception_4d/output_inception_4d/output_0_split_1
I0403 15:42:25.934343  3391 net.cpp:399] inception_4d/output_inception_4d/output_0_split -> inception_4d/output_inception_4d/output_0_split_2
I0403 15:42:25.934363  3391 net.cpp:399] inception_4d/output_inception_4d/output_0_split -> inception_4d/output_inception_4d/output_0_split_3
I0403 15:42:25.934386  3391 net.cpp:399] inception_4d/output_inception_4d/output_0_split -> inception_4d/output_inception_4d/output_0_split_4
I0403 15:42:25.934490  3391 net.cpp:141] Setting up inception_4d/output_inception_4d/output_0_split
I0403 15:42:25.934525  3391 net.cpp:148] Top shape: 24 528 14 14 (2483712)
I0403 15:42:25.934542  3391 net.cpp:148] Top shape: 24 528 14 14 (2483712)
I0403 15:42:25.934558  3391 net.cpp:148] Top shape: 24 528 14 14 (2483712)
I0403 15:42:25.934573  3391 net.cpp:148] Top shape: 24 528 14 14 (2483712)
I0403 15:42:25.934587  3391 net.cpp:148] Top shape: 24 528 14 14 (2483712)
I0403 15:42:25.934602  3391 net.cpp:156] Memory required for data: 1206918432
I0403 15:42:25.934615  3391 layer_factory.hpp:77] Creating layer loss2/ave_pool
I0403 15:42:25.934633  3391 net.cpp:91] Creating Layer loss2/ave_pool
I0403 15:42:25.934648  3391 net.cpp:425] loss2/ave_pool <- inception_4d/output_inception_4d/output_0_split_0
I0403 15:42:25.934669  3391 net.cpp:399] loss2/ave_pool -> loss2/ave_pool
I0403 15:42:25.934986  3391 net.cpp:141] Setting up loss2/ave_pool
I0403 15:42:25.935012  3391 net.cpp:148] Top shape: 24 528 4 4 (202752)
I0403 15:42:25.935027  3391 net.cpp:156] Memory required for data: 1207729440
I0403 15:42:25.935041  3391 layer_factory.hpp:77] Creating layer loss2/conv
I0403 15:42:25.935065  3391 net.cpp:91] Creating Layer loss2/conv
I0403 15:42:25.935081  3391 net.cpp:425] loss2/conv <- loss2/ave_pool
I0403 15:42:25.935102  3391 net.cpp:399] loss2/conv -> loss2/conv
I0403 15:42:25.936997  3391 net.cpp:141] Setting up loss2/conv
I0403 15:42:25.937026  3391 net.cpp:148] Top shape: 24 128 4 4 (49152)
I0403 15:42:25.937041  3391 net.cpp:156] Memory required for data: 1207926048
I0403 15:42:25.937059  3391 layer_factory.hpp:77] Creating layer loss2/relu_conv
I0403 15:42:25.937082  3391 net.cpp:91] Creating Layer loss2/relu_conv
I0403 15:42:25.937098  3391 net.cpp:425] loss2/relu_conv <- loss2/conv
I0403 15:42:25.937116  3391 net.cpp:386] loss2/relu_conv -> loss2/conv (in-place)
I0403 15:42:25.937422  3391 net.cpp:141] Setting up loss2/relu_conv
I0403 15:42:25.937448  3391 net.cpp:148] Top shape: 24 128 4 4 (49152)
I0403 15:42:25.937463  3391 net.cpp:156] Memory required for data: 1208122656
I0403 15:42:25.937479  3391 layer_factory.hpp:77] Creating layer loss2/fc
I0403 15:42:25.937500  3391 net.cpp:91] Creating Layer loss2/fc
I0403 15:42:25.937518  3391 net.cpp:425] loss2/fc <- loss2/conv
I0403 15:42:25.937539  3391 net.cpp:399] loss2/fc -> loss2/fc
I0403 15:42:25.954855  3391 net.cpp:141] Setting up loss2/fc
I0403 15:42:25.954887  3391 net.cpp:148] Top shape: 24 1024 (24576)
I0403 15:42:25.954902  3391 net.cpp:156] Memory required for data: 1208220960
I0403 15:42:25.954921  3391 layer_factory.hpp:77] Creating layer loss2/relu_fc
I0403 15:42:25.954937  3391 net.cpp:91] Creating Layer loss2/relu_fc
I0403 15:42:25.954952  3391 net.cpp:425] loss2/relu_fc <- loss2/fc
I0403 15:42:25.954972  3391 net.cpp:386] loss2/relu_fc -> loss2/fc (in-place)
I0403 15:42:25.955265  3391 net.cpp:141] Setting up loss2/relu_fc
I0403 15:42:25.955289  3391 net.cpp:148] Top shape: 24 1024 (24576)
I0403 15:42:25.955304  3391 net.cpp:156] Memory required for data: 1208319264
I0403 15:42:25.955318  3391 layer_factory.hpp:77] Creating layer loss2/drop_fc
I0403 15:42:25.955335  3391 net.cpp:91] Creating Layer loss2/drop_fc
I0403 15:42:25.955351  3391 net.cpp:425] loss2/drop_fc <- loss2/fc
I0403 15:42:25.955370  3391 net.cpp:386] loss2/drop_fc -> loss2/fc (in-place)
I0403 15:42:25.955420  3391 net.cpp:141] Setting up loss2/drop_fc
I0403 15:42:25.955443  3391 net.cpp:148] Top shape: 24 1024 (24576)
I0403 15:42:25.955457  3391 net.cpp:156] Memory required for data: 1208417568
I0403 15:42:25.955471  3391 layer_factory.hpp:77] Creating layer loss2/classifier_plantvillage
I0403 15:42:25.955488  3391 net.cpp:91] Creating Layer loss2/classifier_plantvillage
I0403 15:42:25.955504  3391 net.cpp:425] loss2/classifier_plantvillage <- loss2/fc
I0403 15:42:25.955525  3391 net.cpp:399] loss2/classifier_plantvillage -> loss2/classifier_plantvillage
I0403 15:42:25.955917  3391 net.cpp:141] Setting up loss2/classifier_plantvillage
I0403 15:42:25.955941  3391 net.cpp:148] Top shape: 24 38 (912)
I0403 15:42:25.955972  3391 net.cpp:156] Memory required for data: 1208421216
I0403 15:42:25.955991  3391 layer_factory.hpp:77] Creating layer loss2/classifier_plantvillage_loss2/classifier_plantvillage_0_split
I0403 15:42:25.956012  3391 net.cpp:91] Creating Layer loss2/classifier_plantvillage_loss2/classifier_plantvillage_0_split
I0403 15:42:25.956027  3391 net.cpp:425] loss2/classifier_plantvillage_loss2/classifier_plantvillage_0_split <- loss2/classifier_plantvillage
I0403 15:42:25.956046  3391 net.cpp:399] loss2/classifier_plantvillage_loss2/classifier_plantvillage_0_split -> loss2/classifier_plantvillage_loss2/classifier_plantvillage_0_split_0
I0403 15:42:25.956066  3391 net.cpp:399] loss2/classifier_plantvillage_loss2/classifier_plantvillage_0_split -> loss2/classifier_plantvillage_loss2/classifier_plantvillage_0_split_1
I0403 15:42:25.956085  3391 net.cpp:399] loss2/classifier_plantvillage_loss2/classifier_plantvillage_0_split -> loss2/classifier_plantvillage_loss2/classifier_plantvillage_0_split_2
I0403 15:42:25.956159  3391 net.cpp:141] Setting up loss2/classifier_plantvillage_loss2/classifier_plantvillage_0_split
I0403 15:42:25.956182  3391 net.cpp:148] Top shape: 24 38 (912)
I0403 15:42:25.956197  3391 net.cpp:148] Top shape: 24 38 (912)
I0403 15:42:25.956214  3391 net.cpp:148] Top shape: 24 38 (912)
I0403 15:42:25.956229  3391 net.cpp:156] Memory required for data: 1208432160
I0403 15:42:25.956243  3391 layer_factory.hpp:77] Creating layer inception_4e/1x1
I0403 15:42:25.956264  3391 net.cpp:91] Creating Layer inception_4e/1x1
I0403 15:42:25.956281  3391 net.cpp:425] inception_4e/1x1 <- inception_4d/output_inception_4d/output_0_split_1
I0403 15:42:25.956300  3391 net.cpp:399] inception_4e/1x1 -> inception_4e/1x1
I0403 15:42:25.958061  3391 net.cpp:141] Setting up inception_4e/1x1
I0403 15:42:25.958091  3391 net.cpp:148] Top shape: 24 256 14 14 (1204224)
I0403 15:42:25.958107  3391 net.cpp:156] Memory required for data: 1213249056
I0403 15:42:25.958124  3391 layer_factory.hpp:77] Creating layer inception_4e/relu_1x1
I0403 15:42:25.958142  3391 net.cpp:91] Creating Layer inception_4e/relu_1x1
I0403 15:42:25.958158  3391 net.cpp:425] inception_4e/relu_1x1 <- inception_4e/1x1
I0403 15:42:25.958175  3391 net.cpp:386] inception_4e/relu_1x1 -> inception_4e/1x1 (in-place)
I0403 15:42:25.958467  3391 net.cpp:141] Setting up inception_4e/relu_1x1
I0403 15:42:25.958495  3391 net.cpp:148] Top shape: 24 256 14 14 (1204224)
I0403 15:42:25.958510  3391 net.cpp:156] Memory required for data: 1218065952
I0403 15:42:25.958524  3391 layer_factory.hpp:77] Creating layer inception_4e/3x3_reduce
I0403 15:42:25.958545  3391 net.cpp:91] Creating Layer inception_4e/3x3_reduce
I0403 15:42:25.958564  3391 net.cpp:425] inception_4e/3x3_reduce <- inception_4d/output_inception_4d/output_0_split_2
I0403 15:42:25.958581  3391 net.cpp:399] inception_4e/3x3_reduce -> inception_4e/3x3_reduce
I0403 15:42:25.960630  3391 net.cpp:141] Setting up inception_4e/3x3_reduce
I0403 15:42:25.960659  3391 net.cpp:148] Top shape: 24 160 14 14 (752640)
I0403 15:42:25.960674  3391 net.cpp:156] Memory required for data: 1221076512
I0403 15:42:25.960691  3391 layer_factory.hpp:77] Creating layer inception_4e/relu_3x3_reduce
I0403 15:42:25.960711  3391 net.cpp:91] Creating Layer inception_4e/relu_3x3_reduce
I0403 15:42:25.960727  3391 net.cpp:425] inception_4e/relu_3x3_reduce <- inception_4e/3x3_reduce
I0403 15:42:25.960743  3391 net.cpp:386] inception_4e/relu_3x3_reduce -> inception_4e/3x3_reduce (in-place)
I0403 15:42:25.960924  3391 net.cpp:141] Setting up inception_4e/relu_3x3_reduce
I0403 15:42:25.960950  3391 net.cpp:148] Top shape: 24 160 14 14 (752640)
I0403 15:42:25.960964  3391 net.cpp:156] Memory required for data: 1224087072
I0403 15:42:25.960978  3391 layer_factory.hpp:77] Creating layer inception_4e/3x3
I0403 15:42:25.960999  3391 net.cpp:91] Creating Layer inception_4e/3x3
I0403 15:42:25.961016  3391 net.cpp:425] inception_4e/3x3 <- inception_4e/3x3_reduce
I0403 15:42:25.961038  3391 net.cpp:399] inception_4e/3x3 -> inception_4e/3x3
I0403 15:42:25.965894  3391 net.cpp:141] Setting up inception_4e/3x3
I0403 15:42:25.965936  3391 net.cpp:148] Top shape: 24 320 14 14 (1505280)
I0403 15:42:25.965952  3391 net.cpp:156] Memory required for data: 1230108192
I0403 15:42:25.965970  3391 layer_factory.hpp:77] Creating layer inception_4e/relu_3x3
I0403 15:42:25.965987  3391 net.cpp:91] Creating Layer inception_4e/relu_3x3
I0403 15:42:25.966002  3391 net.cpp:425] inception_4e/relu_3x3 <- inception_4e/3x3
I0403 15:42:25.966022  3391 net.cpp:386] inception_4e/relu_3x3 -> inception_4e/3x3 (in-place)
I0403 15:42:25.966325  3391 net.cpp:141] Setting up inception_4e/relu_3x3
I0403 15:42:25.966351  3391 net.cpp:148] Top shape: 24 320 14 14 (1505280)
I0403 15:42:25.966366  3391 net.cpp:156] Memory required for data: 1236129312
I0403 15:42:25.966379  3391 layer_factory.hpp:77] Creating layer inception_4e/5x5_reduce
I0403 15:42:25.966403  3391 net.cpp:91] Creating Layer inception_4e/5x5_reduce
I0403 15:42:25.966419  3391 net.cpp:425] inception_4e/5x5_reduce <- inception_4d/output_inception_4d/output_0_split_3
I0403 15:42:25.966442  3391 net.cpp:399] inception_4e/5x5_reduce -> inception_4e/5x5_reduce
I0403 15:42:25.967481  3391 net.cpp:141] Setting up inception_4e/5x5_reduce
I0403 15:42:25.967507  3391 net.cpp:148] Top shape: 24 32 14 14 (150528)
I0403 15:42:25.967525  3391 net.cpp:156] Memory required for data: 1236731424
I0403 15:42:25.967543  3391 layer_factory.hpp:77] Creating layer inception_4e/relu_5x5_reduce
I0403 15:42:25.967561  3391 net.cpp:91] Creating Layer inception_4e/relu_5x5_reduce
I0403 15:42:25.967576  3391 net.cpp:425] inception_4e/relu_5x5_reduce <- inception_4e/5x5_reduce
I0403 15:42:25.967592  3391 net.cpp:386] inception_4e/relu_5x5_reduce -> inception_4e/5x5_reduce (in-place)
I0403 15:42:25.967881  3391 net.cpp:141] Setting up inception_4e/relu_5x5_reduce
I0403 15:42:25.967906  3391 net.cpp:148] Top shape: 24 32 14 14 (150528)
I0403 15:42:25.967923  3391 net.cpp:156] Memory required for data: 1237333536
I0403 15:42:25.967937  3391 layer_factory.hpp:77] Creating layer inception_4e/5x5
I0403 15:42:25.967974  3391 net.cpp:91] Creating Layer inception_4e/5x5
I0403 15:42:25.967993  3391 net.cpp:425] inception_4e/5x5 <- inception_4e/5x5_reduce
I0403 15:42:25.968014  3391 net.cpp:399] inception_4e/5x5 -> inception_4e/5x5
I0403 15:42:25.969806  3391 net.cpp:141] Setting up inception_4e/5x5
I0403 15:42:25.969833  3391 net.cpp:148] Top shape: 24 128 14 14 (602112)
I0403 15:42:25.969847  3391 net.cpp:156] Memory required for data: 1239741984
I0403 15:42:25.969866  3391 layer_factory.hpp:77] Creating layer inception_4e/relu_5x5
I0403 15:42:25.969885  3391 net.cpp:91] Creating Layer inception_4e/relu_5x5
I0403 15:42:25.969902  3391 net.cpp:425] inception_4e/relu_5x5 <- inception_4e/5x5
I0403 15:42:25.969918  3391 net.cpp:386] inception_4e/relu_5x5 -> inception_4e/5x5 (in-place)
I0403 15:42:25.970111  3391 net.cpp:141] Setting up inception_4e/relu_5x5
I0403 15:42:25.970135  3391 net.cpp:148] Top shape: 24 128 14 14 (602112)
I0403 15:42:25.970149  3391 net.cpp:156] Memory required for data: 1242150432
I0403 15:42:25.970163  3391 layer_factory.hpp:77] Creating layer inception_4e/pool
I0403 15:42:25.970183  3391 net.cpp:91] Creating Layer inception_4e/pool
I0403 15:42:25.970199  3391 net.cpp:425] inception_4e/pool <- inception_4d/output_inception_4d/output_0_split_4
I0403 15:42:25.970221  3391 net.cpp:399] inception_4e/pool -> inception_4e/pool
I0403 15:42:25.970291  3391 net.cpp:141] Setting up inception_4e/pool
I0403 15:42:25.970314  3391 net.cpp:148] Top shape: 24 528 14 14 (2483712)
I0403 15:42:25.970329  3391 net.cpp:156] Memory required for data: 1252085280
I0403 15:42:25.970342  3391 layer_factory.hpp:77] Creating layer inception_4e/pool_proj
I0403 15:42:25.970363  3391 net.cpp:91] Creating Layer inception_4e/pool_proj
I0403 15:42:25.970381  3391 net.cpp:425] inception_4e/pool_proj <- inception_4e/pool
I0403 15:42:25.970401  3391 net.cpp:399] inception_4e/pool_proj -> inception_4e/pool_proj
I0403 15:42:25.971853  3391 net.cpp:141] Setting up inception_4e/pool_proj
I0403 15:42:25.971890  3391 net.cpp:148] Top shape: 24 128 14 14 (602112)
I0403 15:42:25.971905  3391 net.cpp:156] Memory required for data: 1254493728
I0403 15:42:25.971923  3391 layer_factory.hpp:77] Creating layer inception_4e/relu_pool_proj
I0403 15:42:25.971942  3391 net.cpp:91] Creating Layer inception_4e/relu_pool_proj
I0403 15:42:25.971959  3391 net.cpp:425] inception_4e/relu_pool_proj <- inception_4e/pool_proj
I0403 15:42:25.971976  3391 net.cpp:386] inception_4e/relu_pool_proj -> inception_4e/pool_proj (in-place)
I0403 15:42:25.972262  3391 net.cpp:141] Setting up inception_4e/relu_pool_proj
I0403 15:42:25.972287  3391 net.cpp:148] Top shape: 24 128 14 14 (602112)
I0403 15:42:25.972302  3391 net.cpp:156] Memory required for data: 1256902176
I0403 15:42:25.972316  3391 layer_factory.hpp:77] Creating layer inception_4e/output
I0403 15:42:25.972333  3391 net.cpp:91] Creating Layer inception_4e/output
I0403 15:42:25.972348  3391 net.cpp:425] inception_4e/output <- inception_4e/1x1
I0403 15:42:25.972364  3391 net.cpp:425] inception_4e/output <- inception_4e/3x3
I0403 15:42:25.972383  3391 net.cpp:425] inception_4e/output <- inception_4e/5x5
I0403 15:42:25.972398  3391 net.cpp:425] inception_4e/output <- inception_4e/pool_proj
I0403 15:42:25.972415  3391 net.cpp:399] inception_4e/output -> inception_4e/output
I0403 15:42:25.972461  3391 net.cpp:141] Setting up inception_4e/output
I0403 15:42:25.972486  3391 net.cpp:148] Top shape: 24 832 14 14 (3913728)
I0403 15:42:25.972501  3391 net.cpp:156] Memory required for data: 1272557088
I0403 15:42:25.972515  3391 layer_factory.hpp:77] Creating layer pool4/3x3_s2
I0403 15:42:25.972532  3391 net.cpp:91] Creating Layer pool4/3x3_s2
I0403 15:42:25.972548  3391 net.cpp:425] pool4/3x3_s2 <- inception_4e/output
I0403 15:42:25.972568  3391 net.cpp:399] pool4/3x3_s2 -> pool4/3x3_s2
I0403 15:42:25.972632  3391 net.cpp:141] Setting up pool4/3x3_s2
I0403 15:42:25.972656  3391 net.cpp:148] Top shape: 24 832 7 7 (978432)
I0403 15:42:25.972669  3391 net.cpp:156] Memory required for data: 1276470816
I0403 15:42:25.972683  3391 layer_factory.hpp:77] Creating layer pool4/3x3_s2_pool4/3x3_s2_0_split
I0403 15:42:25.972702  3391 net.cpp:91] Creating Layer pool4/3x3_s2_pool4/3x3_s2_0_split
I0403 15:42:25.972718  3391 net.cpp:425] pool4/3x3_s2_pool4/3x3_s2_0_split <- pool4/3x3_s2
I0403 15:42:25.972735  3391 net.cpp:399] pool4/3x3_s2_pool4/3x3_s2_0_split -> pool4/3x3_s2_pool4/3x3_s2_0_split_0
I0403 15:42:25.972754  3391 net.cpp:399] pool4/3x3_s2_pool4/3x3_s2_0_split -> pool4/3x3_s2_pool4/3x3_s2_0_split_1
I0403 15:42:25.972774  3391 net.cpp:399] pool4/3x3_s2_pool4/3x3_s2_0_split -> pool4/3x3_s2_pool4/3x3_s2_0_split_2
I0403 15:42:25.972795  3391 net.cpp:399] pool4/3x3_s2_pool4/3x3_s2_0_split -> pool4/3x3_s2_pool4/3x3_s2_0_split_3
I0403 15:42:25.972885  3391 net.cpp:141] Setting up pool4/3x3_s2_pool4/3x3_s2_0_split
I0403 15:42:25.972908  3391 net.cpp:148] Top shape: 24 832 7 7 (978432)
I0403 15:42:25.972923  3391 net.cpp:148] Top shape: 24 832 7 7 (978432)
I0403 15:42:25.972939  3391 net.cpp:148] Top shape: 24 832 7 7 (978432)
I0403 15:42:25.972954  3391 net.cpp:148] Top shape: 24 832 7 7 (978432)
I0403 15:42:25.972965  3391 net.cpp:156] Memory required for data: 1292125728
I0403 15:42:25.972980  3391 layer_factory.hpp:77] Creating layer inception_5a/1x1
I0403 15:42:25.973001  3391 net.cpp:91] Creating Layer inception_5a/1x1
I0403 15:42:25.973018  3391 net.cpp:425] inception_5a/1x1 <- pool4/3x3_s2_pool4/3x3_s2_0_split_0
I0403 15:42:25.973040  3391 net.cpp:399] inception_5a/1x1 -> inception_5a/1x1
I0403 15:42:25.975929  3391 net.cpp:141] Setting up inception_5a/1x1
I0403 15:42:25.975958  3391 net.cpp:148] Top shape: 24 256 7 7 (301056)
I0403 15:42:25.975975  3391 net.cpp:156] Memory required for data: 1293329952
I0403 15:42:25.975994  3391 layer_factory.hpp:77] Creating layer inception_5a/relu_1x1
I0403 15:42:25.976014  3391 net.cpp:91] Creating Layer inception_5a/relu_1x1
I0403 15:42:25.976032  3391 net.cpp:425] inception_5a/relu_1x1 <- inception_5a/1x1
I0403 15:42:25.976050  3391 net.cpp:386] inception_5a/relu_1x1 -> inception_5a/1x1 (in-place)
I0403 15:42:25.976380  3391 net.cpp:141] Setting up inception_5a/relu_1x1
I0403 15:42:25.976408  3391 net.cpp:148] Top shape: 24 256 7 7 (301056)
I0403 15:42:25.976423  3391 net.cpp:156] Memory required for data: 1294534176
I0403 15:42:25.976438  3391 layer_factory.hpp:77] Creating layer inception_5a/3x3_reduce
I0403 15:42:25.976460  3391 net.cpp:91] Creating Layer inception_5a/3x3_reduce
I0403 15:42:25.976478  3391 net.cpp:425] inception_5a/3x3_reduce <- pool4/3x3_s2_pool4/3x3_s2_0_split_1
I0403 15:42:25.976500  3391 net.cpp:399] inception_5a/3x3_reduce -> inception_5a/3x3_reduce
I0403 15:42:25.979071  3391 net.cpp:141] Setting up inception_5a/3x3_reduce
I0403 15:42:25.979102  3391 net.cpp:148] Top shape: 24 160 7 7 (188160)
I0403 15:42:25.979118  3391 net.cpp:156] Memory required for data: 1295286816
I0403 15:42:25.979138  3391 layer_factory.hpp:77] Creating layer inception_5a/relu_3x3_reduce
I0403 15:42:25.979156  3391 net.cpp:91] Creating Layer inception_5a/relu_3x3_reduce
I0403 15:42:25.979172  3391 net.cpp:425] inception_5a/relu_3x3_reduce <- inception_5a/3x3_reduce
I0403 15:42:25.979192  3391 net.cpp:386] inception_5a/relu_3x3_reduce -> inception_5a/3x3_reduce (in-place)
I0403 15:42:25.979389  3391 net.cpp:141] Setting up inception_5a/relu_3x3_reduce
I0403 15:42:25.979414  3391 net.cpp:148] Top shape: 24 160 7 7 (188160)
I0403 15:42:25.979429  3391 net.cpp:156] Memory required for data: 1296039456
I0403 15:42:25.979444  3391 layer_factory.hpp:77] Creating layer inception_5a/3x3
I0403 15:42:25.979467  3391 net.cpp:91] Creating Layer inception_5a/3x3
I0403 15:42:25.979485  3391 net.cpp:425] inception_5a/3x3 <- inception_5a/3x3_reduce
I0403 15:42:25.979507  3391 net.cpp:399] inception_5a/3x3 -> inception_5a/3x3
I0403 15:42:25.984706  3391 net.cpp:141] Setting up inception_5a/3x3
I0403 15:42:25.984737  3391 net.cpp:148] Top shape: 24 320 7 7 (376320)
I0403 15:42:25.984756  3391 net.cpp:156] Memory required for data: 1297544736
I0403 15:42:25.984776  3391 layer_factory.hpp:77] Creating layer inception_5a/relu_3x3
I0403 15:42:25.984797  3391 net.cpp:91] Creating Layer inception_5a/relu_3x3
I0403 15:42:25.984815  3391 net.cpp:425] inception_5a/relu_3x3 <- inception_5a/3x3
I0403 15:42:25.984833  3391 net.cpp:386] inception_5a/relu_3x3 -> inception_5a/3x3 (in-place)
I0403 15:42:25.985136  3391 net.cpp:141] Setting up inception_5a/relu_3x3
I0403 15:42:25.985163  3391 net.cpp:148] Top shape: 24 320 7 7 (376320)
I0403 15:42:25.985178  3391 net.cpp:156] Memory required for data: 1299050016
I0403 15:42:25.985193  3391 layer_factory.hpp:77] Creating layer inception_5a/5x5_reduce
I0403 15:42:25.985221  3391 net.cpp:91] Creating Layer inception_5a/5x5_reduce
I0403 15:42:25.985240  3391 net.cpp:425] inception_5a/5x5_reduce <- pool4/3x3_s2_pool4/3x3_s2_0_split_2
I0403 15:42:25.985262  3391 net.cpp:399] inception_5a/5x5_reduce -> inception_5a/5x5_reduce
I0403 15:42:25.986474  3391 net.cpp:141] Setting up inception_5a/5x5_reduce
I0403 15:42:25.986503  3391 net.cpp:148] Top shape: 24 32 7 7 (37632)
I0403 15:42:25.986520  3391 net.cpp:156] Memory required for data: 1299200544
I0403 15:42:25.986538  3391 layer_factory.hpp:77] Creating layer inception_5a/relu_5x5_reduce
I0403 15:42:25.986558  3391 net.cpp:91] Creating Layer inception_5a/relu_5x5_reduce
I0403 15:42:25.986575  3391 net.cpp:425] inception_5a/relu_5x5_reduce <- inception_5a/5x5_reduce
I0403 15:42:25.986593  3391 net.cpp:386] inception_5a/relu_5x5_reduce -> inception_5a/5x5_reduce (in-place)
I0403 15:42:25.986901  3391 net.cpp:141] Setting up inception_5a/relu_5x5_reduce
I0403 15:42:25.986927  3391 net.cpp:148] Top shape: 24 32 7 7 (37632)
I0403 15:42:25.986943  3391 net.cpp:156] Memory required for data: 1299351072
I0403 15:42:25.986958  3391 layer_factory.hpp:77] Creating layer inception_5a/5x5
I0403 15:42:25.986982  3391 net.cpp:91] Creating Layer inception_5a/5x5
I0403 15:42:25.987001  3391 net.cpp:425] inception_5a/5x5 <- inception_5a/5x5_reduce
I0403 15:42:25.987021  3391 net.cpp:399] inception_5a/5x5 -> inception_5a/5x5
I0403 15:42:25.988809  3391 net.cpp:141] Setting up inception_5a/5x5
I0403 15:42:25.988850  3391 net.cpp:148] Top shape: 24 128 7 7 (150528)
I0403 15:42:25.988867  3391 net.cpp:156] Memory required for data: 1299953184
I0403 15:42:25.988885  3391 layer_factory.hpp:77] Creating layer inception_5a/relu_5x5
I0403 15:42:25.988906  3391 net.cpp:91] Creating Layer inception_5a/relu_5x5
I0403 15:42:25.988924  3391 net.cpp:425] inception_5a/relu_5x5 <- inception_5a/5x5
I0403 15:42:25.988941  3391 net.cpp:386] inception_5a/relu_5x5 -> inception_5a/5x5 (in-place)
I0403 15:42:25.989140  3391 net.cpp:141] Setting up inception_5a/relu_5x5
I0403 15:42:25.989167  3391 net.cpp:148] Top shape: 24 128 7 7 (150528)
I0403 15:42:25.989183  3391 net.cpp:156] Memory required for data: 1300555296
I0403 15:42:25.989198  3391 layer_factory.hpp:77] Creating layer inception_5a/pool
I0403 15:42:25.989223  3391 net.cpp:91] Creating Layer inception_5a/pool
I0403 15:42:25.989239  3391 net.cpp:425] inception_5a/pool <- pool4/3x3_s2_pool4/3x3_s2_0_split_3
I0403 15:42:25.989261  3391 net.cpp:399] inception_5a/pool -> inception_5a/pool
I0403 15:42:25.989336  3391 net.cpp:141] Setting up inception_5a/pool
I0403 15:42:25.989359  3391 net.cpp:148] Top shape: 24 832 7 7 (978432)
I0403 15:42:25.989374  3391 net.cpp:156] Memory required for data: 1304469024
I0403 15:42:25.989388  3391 layer_factory.hpp:77] Creating layer inception_5a/pool_proj
I0403 15:42:25.989411  3391 net.cpp:91] Creating Layer inception_5a/pool_proj
I0403 15:42:25.989428  3391 net.cpp:425] inception_5a/pool_proj <- inception_5a/pool
I0403 15:42:25.989450  3391 net.cpp:399] inception_5a/pool_proj -> inception_5a/pool_proj
I0403 15:42:25.991803  3391 net.cpp:141] Setting up inception_5a/pool_proj
I0403 15:42:25.991834  3391 net.cpp:148] Top shape: 24 128 7 7 (150528)
I0403 15:42:25.991853  3391 net.cpp:156] Memory required for data: 1305071136
I0403 15:42:25.991873  3391 layer_factory.hpp:77] Creating layer inception_5a/relu_pool_proj
I0403 15:42:25.991894  3391 net.cpp:91] Creating Layer inception_5a/relu_pool_proj
I0403 15:42:25.991910  3391 net.cpp:425] inception_5a/relu_pool_proj <- inception_5a/pool_proj
I0403 15:42:25.991928  3391 net.cpp:386] inception_5a/relu_pool_proj -> inception_5a/pool_proj (in-place)
I0403 15:42:25.992238  3391 net.cpp:141] Setting up inception_5a/relu_pool_proj
I0403 15:42:25.992264  3391 net.cpp:148] Top shape: 24 128 7 7 (150528)
I0403 15:42:25.992280  3391 net.cpp:156] Memory required for data: 1305673248
I0403 15:42:25.992295  3391 layer_factory.hpp:77] Creating layer inception_5a/output
I0403 15:42:25.992313  3391 net.cpp:91] Creating Layer inception_5a/output
I0403 15:42:25.992329  3391 net.cpp:425] inception_5a/output <- inception_5a/1x1
I0403 15:42:25.992347  3391 net.cpp:425] inception_5a/output <- inception_5a/3x3
I0403 15:42:25.992363  3391 net.cpp:425] inception_5a/output <- inception_5a/5x5
I0403 15:42:25.992396  3391 net.cpp:425] inception_5a/output <- inception_5a/pool_proj
I0403 15:42:25.992419  3391 net.cpp:399] inception_5a/output -> inception_5a/output
I0403 15:42:25.992486  3391 net.cpp:141] Setting up inception_5a/output
I0403 15:42:25.992513  3391 net.cpp:148] Top shape: 24 832 7 7 (978432)
I0403 15:42:25.992527  3391 net.cpp:156] Memory required for data: 1309586976
I0403 15:42:25.992542  3391 layer_factory.hpp:77] Creating layer inception_5a/output_inception_5a/output_0_split
I0403 15:42:25.992560  3391 net.cpp:91] Creating Layer inception_5a/output_inception_5a/output_0_split
I0403 15:42:25.992575  3391 net.cpp:425] inception_5a/output_inception_5a/output_0_split <- inception_5a/output
I0403 15:42:25.992595  3391 net.cpp:399] inception_5a/output_inception_5a/output_0_split -> inception_5a/output_inception_5a/output_0_split_0
I0403 15:42:25.992616  3391 net.cpp:399] inception_5a/output_inception_5a/output_0_split -> inception_5a/output_inception_5a/output_0_split_1
I0403 15:42:25.992637  3391 net.cpp:399] inception_5a/output_inception_5a/output_0_split -> inception_5a/output_inception_5a/output_0_split_2
I0403 15:42:25.992658  3391 net.cpp:399] inception_5a/output_inception_5a/output_0_split -> inception_5a/output_inception_5a/output_0_split_3
I0403 15:42:25.992787  3391 net.cpp:141] Setting up inception_5a/output_inception_5a/output_0_split
I0403 15:42:25.992810  3391 net.cpp:148] Top shape: 24 832 7 7 (978432)
I0403 15:42:25.992826  3391 net.cpp:148] Top shape: 24 832 7 7 (978432)
I0403 15:42:25.992841  3391 net.cpp:148] Top shape: 24 832 7 7 (978432)
I0403 15:42:25.992856  3391 net.cpp:148] Top shape: 24 832 7 7 (978432)
I0403 15:42:25.992869  3391 net.cpp:156] Memory required for data: 1325241888
I0403 15:42:25.992884  3391 layer_factory.hpp:77] Creating layer inception_5b/1x1
I0403 15:42:25.992908  3391 net.cpp:91] Creating Layer inception_5b/1x1
I0403 15:42:25.992926  3391 net.cpp:425] inception_5b/1x1 <- inception_5a/output_inception_5a/output_0_split_0
I0403 15:42:25.992945  3391 net.cpp:399] inception_5b/1x1 -> inception_5b/1x1
I0403 15:42:25.996748  3391 net.cpp:141] Setting up inception_5b/1x1
I0403 15:42:25.996778  3391 net.cpp:148] Top shape: 24 384 7 7 (451584)
I0403 15:42:25.996794  3391 net.cpp:156] Memory required for data: 1327048224
I0403 15:42:25.996812  3391 layer_factory.hpp:77] Creating layer inception_5b/relu_1x1
I0403 15:42:25.996830  3391 net.cpp:91] Creating Layer inception_5b/relu_1x1
I0403 15:42:25.996878  3391 net.cpp:425] inception_5b/relu_1x1 <- inception_5b/1x1
I0403 15:42:25.996896  3391 net.cpp:386] inception_5b/relu_1x1 -> inception_5b/1x1 (in-place)
I0403 15:42:25.997225  3391 net.cpp:141] Setting up inception_5b/relu_1x1
I0403 15:42:25.997251  3391 net.cpp:148] Top shape: 24 384 7 7 (451584)
I0403 15:42:25.997267  3391 net.cpp:156] Memory required for data: 1328854560
I0403 15:42:25.997282  3391 layer_factory.hpp:77] Creating layer inception_5b/3x3_reduce
I0403 15:42:25.997305  3391 net.cpp:91] Creating Layer inception_5b/3x3_reduce
I0403 15:42:25.997323  3391 net.cpp:425] inception_5b/3x3_reduce <- inception_5a/output_inception_5a/output_0_split_1
I0403 15:42:25.997346  3391 net.cpp:399] inception_5b/3x3_reduce -> inception_5b/3x3_reduce
I0403 15:42:26.000054  3391 net.cpp:141] Setting up inception_5b/3x3_reduce
I0403 15:42:26.000084  3391 net.cpp:148] Top shape: 24 192 7 7 (225792)
I0403 15:42:26.000100  3391 net.cpp:156] Memory required for data: 1329757728
I0403 15:42:26.000119  3391 layer_factory.hpp:77] Creating layer inception_5b/relu_3x3_reduce
I0403 15:42:26.000136  3391 net.cpp:91] Creating Layer inception_5b/relu_3x3_reduce
I0403 15:42:26.000154  3391 net.cpp:425] inception_5b/relu_3x3_reduce <- inception_5b/3x3_reduce
I0403 15:42:26.000172  3391 net.cpp:386] inception_5b/relu_3x3_reduce -> inception_5b/3x3_reduce (in-place)
I0403 15:42:26.000367  3391 net.cpp:141] Setting up inception_5b/relu_3x3_reduce
I0403 15:42:26.000392  3391 net.cpp:148] Top shape: 24 192 7 7 (225792)
I0403 15:42:26.000406  3391 net.cpp:156] Memory required for data: 1330660896
I0403 15:42:26.000422  3391 layer_factory.hpp:77] Creating layer inception_5b/3x3
I0403 15:42:26.000445  3391 net.cpp:91] Creating Layer inception_5b/3x3
I0403 15:42:26.000463  3391 net.cpp:425] inception_5b/3x3 <- inception_5b/3x3_reduce
I0403 15:42:26.000483  3391 net.cpp:399] inception_5b/3x3 -> inception_5b/3x3
I0403 15:42:26.007323  3391 net.cpp:141] Setting up inception_5b/3x3
I0403 15:42:26.007354  3391 net.cpp:148] Top shape: 24 384 7 7 (451584)
I0403 15:42:26.007370  3391 net.cpp:156] Memory required for data: 1332467232
I0403 15:42:26.007390  3391 layer_factory.hpp:77] Creating layer inception_5b/relu_3x3
I0403 15:42:26.007410  3391 net.cpp:91] Creating Layer inception_5b/relu_3x3
I0403 15:42:26.007426  3391 net.cpp:425] inception_5b/relu_3x3 <- inception_5b/3x3
I0403 15:42:26.007446  3391 net.cpp:386] inception_5b/relu_3x3 -> inception_5b/3x3 (in-place)
I0403 15:42:26.007750  3391 net.cpp:141] Setting up inception_5b/relu_3x3
I0403 15:42:26.007776  3391 net.cpp:148] Top shape: 24 384 7 7 (451584)
I0403 15:42:26.007791  3391 net.cpp:156] Memory required for data: 1334273568
I0403 15:42:26.007805  3391 layer_factory.hpp:77] Creating layer inception_5b/5x5_reduce
I0403 15:42:26.007845  3391 net.cpp:91] Creating Layer inception_5b/5x5_reduce
I0403 15:42:26.007864  3391 net.cpp:425] inception_5b/5x5_reduce <- inception_5a/output_inception_5a/output_0_split_2
I0403 15:42:26.007886  3391 net.cpp:399] inception_5b/5x5_reduce -> inception_5b/5x5_reduce
I0403 15:42:26.009197  3391 net.cpp:141] Setting up inception_5b/5x5_reduce
I0403 15:42:26.009229  3391 net.cpp:148] Top shape: 24 48 7 7 (56448)
I0403 15:42:26.009244  3391 net.cpp:156] Memory required for data: 1334499360
I0403 15:42:26.009263  3391 layer_factory.hpp:77] Creating layer inception_5b/relu_5x5_reduce
I0403 15:42:26.009285  3391 net.cpp:91] Creating Layer inception_5b/relu_5x5_reduce
I0403 15:42:26.009302  3391 net.cpp:425] inception_5b/relu_5x5_reduce <- inception_5b/5x5_reduce
I0403 15:42:26.009320  3391 net.cpp:386] inception_5b/relu_5x5_reduce -> inception_5b/5x5_reduce (in-place)
I0403 15:42:26.009697  3391 net.cpp:141] Setting up inception_5b/relu_5x5_reduce
I0403 15:42:26.009723  3391 net.cpp:148] Top shape: 24 48 7 7 (56448)
I0403 15:42:26.009738  3391 net.cpp:156] Memory required for data: 1334725152
I0403 15:42:26.009753  3391 layer_factory.hpp:77] Creating layer inception_5b/5x5
I0403 15:42:26.009773  3391 net.cpp:91] Creating Layer inception_5b/5x5
I0403 15:42:26.009791  3391 net.cpp:425] inception_5b/5x5 <- inception_5b/5x5_reduce
I0403 15:42:26.009809  3391 net.cpp:399] inception_5b/5x5 -> inception_5b/5x5
I0403 15:42:26.011894  3391 net.cpp:141] Setting up inception_5b/5x5
I0403 15:42:26.011922  3391 net.cpp:148] Top shape: 24 128 7 7 (150528)
I0403 15:42:26.011939  3391 net.cpp:156] Memory required for data: 1335327264
I0403 15:42:26.011956  3391 layer_factory.hpp:77] Creating layer inception_5b/relu_5x5
I0403 15:42:26.011976  3391 net.cpp:91] Creating Layer inception_5b/relu_5x5
I0403 15:42:26.011993  3391 net.cpp:425] inception_5b/relu_5x5 <- inception_5b/5x5
I0403 15:42:26.012011  3391 net.cpp:386] inception_5b/relu_5x5 -> inception_5b/5x5 (in-place)
I0403 15:42:26.012212  3391 net.cpp:141] Setting up inception_5b/relu_5x5
I0403 15:42:26.012239  3391 net.cpp:148] Top shape: 24 128 7 7 (150528)
I0403 15:42:26.012254  3391 net.cpp:156] Memory required for data: 1335929376
I0403 15:42:26.012269  3391 layer_factory.hpp:77] Creating layer inception_5b/pool
I0403 15:42:26.012287  3391 net.cpp:91] Creating Layer inception_5b/pool
I0403 15:42:26.012303  3391 net.cpp:425] inception_5b/pool <- inception_5a/output_inception_5a/output_0_split_3
I0403 15:42:26.012325  3391 net.cpp:399] inception_5b/pool -> inception_5b/pool
I0403 15:42:26.012399  3391 net.cpp:141] Setting up inception_5b/pool
I0403 15:42:26.012423  3391 net.cpp:148] Top shape: 24 832 7 7 (978432)
I0403 15:42:26.012439  3391 net.cpp:156] Memory required for data: 1339843104
I0403 15:42:26.012454  3391 layer_factory.hpp:77] Creating layer inception_5b/pool_proj
I0403 15:42:26.012475  3391 net.cpp:91] Creating Layer inception_5b/pool_proj
I0403 15:42:26.012493  3391 net.cpp:425] inception_5b/pool_proj <- inception_5b/pool
I0403 15:42:26.012516  3391 net.cpp:399] inception_5b/pool_proj -> inception_5b/pool_proj
I0403 15:42:26.014840  3391 net.cpp:141] Setting up inception_5b/pool_proj
I0403 15:42:26.014869  3391 net.cpp:148] Top shape: 24 128 7 7 (150528)
I0403 15:42:26.014886  3391 net.cpp:156] Memory required for data: 1340445216
I0403 15:42:26.014904  3391 layer_factory.hpp:77] Creating layer inception_5b/relu_pool_proj
I0403 15:42:26.014925  3391 net.cpp:91] Creating Layer inception_5b/relu_pool_proj
I0403 15:42:26.014941  3391 net.cpp:425] inception_5b/relu_pool_proj <- inception_5b/pool_proj
I0403 15:42:26.014960  3391 net.cpp:386] inception_5b/relu_pool_proj -> inception_5b/pool_proj (in-place)
I0403 15:42:26.015264  3391 net.cpp:141] Setting up inception_5b/relu_pool_proj
I0403 15:42:26.015290  3391 net.cpp:148] Top shape: 24 128 7 7 (150528)
I0403 15:42:26.015305  3391 net.cpp:156] Memory required for data: 1341047328
I0403 15:42:26.015318  3391 layer_factory.hpp:77] Creating layer inception_5b/output
I0403 15:42:26.015336  3391 net.cpp:91] Creating Layer inception_5b/output
I0403 15:42:26.015370  3391 net.cpp:425] inception_5b/output <- inception_5b/1x1
I0403 15:42:26.015388  3391 net.cpp:425] inception_5b/output <- inception_5b/3x3
I0403 15:42:26.015404  3391 net.cpp:425] inception_5b/output <- inception_5b/5x5
I0403 15:42:26.015420  3391 net.cpp:425] inception_5b/output <- inception_5b/pool_proj
I0403 15:42:26.015439  3391 net.cpp:399] inception_5b/output -> inception_5b/output
I0403 15:42:26.015491  3391 net.cpp:141] Setting up inception_5b/output
I0403 15:42:26.015516  3391 net.cpp:148] Top shape: 24 1024 7 7 (1204224)
I0403 15:42:26.015532  3391 net.cpp:156] Memory required for data: 1345864224
I0403 15:42:26.015547  3391 layer_factory.hpp:77] Creating layer pool5/7x7_s1
I0403 15:42:26.015564  3391 net.cpp:91] Creating Layer pool5/7x7_s1
I0403 15:42:26.015579  3391 net.cpp:425] pool5/7x7_s1 <- inception_5b/output
I0403 15:42:26.015599  3391 net.cpp:399] pool5/7x7_s1 -> pool5/7x7_s1
I0403 15:42:26.015820  3391 net.cpp:141] Setting up pool5/7x7_s1
I0403 15:42:26.015844  3391 net.cpp:148] Top shape: 24 1024 1 1 (24576)
I0403 15:42:26.015859  3391 net.cpp:156] Memory required for data: 1345962528
I0403 15:42:26.015874  3391 layer_factory.hpp:77] Creating layer pool5/drop_7x7_s1
I0403 15:42:26.015894  3391 net.cpp:91] Creating Layer pool5/drop_7x7_s1
I0403 15:42:26.015911  3391 net.cpp:425] pool5/drop_7x7_s1 <- pool5/7x7_s1
I0403 15:42:26.015928  3391 net.cpp:386] pool5/drop_7x7_s1 -> pool5/7x7_s1 (in-place)
I0403 15:42:26.015980  3391 net.cpp:141] Setting up pool5/drop_7x7_s1
I0403 15:42:26.016002  3391 net.cpp:148] Top shape: 24 1024 1 1 (24576)
I0403 15:42:26.016017  3391 net.cpp:156] Memory required for data: 1346060832
I0403 15:42:26.016031  3391 layer_factory.hpp:77] Creating layer loss3/classifier_plantvillage
I0403 15:42:26.016052  3391 net.cpp:91] Creating Layer loss3/classifier_plantvillage
I0403 15:42:26.016067  3391 net.cpp:425] loss3/classifier_plantvillage <- pool5/7x7_s1
I0403 15:42:26.016088  3391 net.cpp:399] loss3/classifier_plantvillage -> loss3/classifier_plantvillage
I0403 15:42:26.016525  3391 net.cpp:141] Setting up loss3/classifier_plantvillage
I0403 15:42:26.016549  3391 net.cpp:148] Top shape: 24 38 (912)
I0403 15:42:26.016564  3391 net.cpp:156] Memory required for data: 1346064480
I0403 15:42:26.016582  3391 layer_factory.hpp:77] Creating layer loss3/classifier_plantvillage_loss3/classifier_plantvillage_0_split
I0403 15:42:26.016602  3391 net.cpp:91] Creating Layer loss3/classifier_plantvillage_loss3/classifier_plantvillage_0_split
I0403 15:42:26.016618  3391 net.cpp:425] loss3/classifier_plantvillage_loss3/classifier_plantvillage_0_split <- loss3/classifier_plantvillage
I0403 15:42:26.016638  3391 net.cpp:399] loss3/classifier_plantvillage_loss3/classifier_plantvillage_0_split -> loss3/classifier_plantvillage_loss3/classifier_plantvillage_0_split_0
I0403 15:42:26.016659  3391 net.cpp:399] loss3/classifier_plantvillage_loss3/classifier_plantvillage_0_split -> loss3/classifier_plantvillage_loss3/classifier_plantvillage_0_split_1
I0403 15:42:26.016680  3391 net.cpp:399] loss3/classifier_plantvillage_loss3/classifier_plantvillage_0_split -> loss3/classifier_plantvillage_loss3/classifier_plantvillage_0_split_2
I0403 15:42:26.016701  3391 net.cpp:399] loss3/classifier_plantvillage_loss3/classifier_plantvillage_0_split -> loss3/classifier_plantvillage_loss3/classifier_plantvillage_0_split_3
I0403 15:42:26.016804  3391 net.cpp:141] Setting up loss3/classifier_plantvillage_loss3/classifier_plantvillage_0_split
I0403 15:42:26.016827  3391 net.cpp:148] Top shape: 24 38 (912)
I0403 15:42:26.016844  3391 net.cpp:148] Top shape: 24 38 (912)
I0403 15:42:26.016860  3391 net.cpp:148] Top shape: 24 38 (912)
I0403 15:42:26.016875  3391 net.cpp:148] Top shape: 24 38 (912)
I0403 15:42:26.016888  3391 net.cpp:156] Memory required for data: 1346079072
I0403 15:42:26.016902  3391 layer_factory.hpp:77] Creating layer loss1/loss
I0403 15:42:26.016927  3391 net.cpp:91] Creating Layer loss1/loss
I0403 15:42:26.016943  3391 net.cpp:425] loss1/loss <- loss1/classifier_plantvillage_loss1/classifier_plantvillage_0_split_0
I0403 15:42:26.016976  3391 net.cpp:425] loss1/loss <- label_data_1_split_0
…
