…
I0403 15:28:19.796495  3123 net.cpp:313] The NetState phase (1) differed from the phase (0) specified by a rule in layer data
I0403 15:28:19.797652  3123 net.cpp:49] Initializing net from parameters: 
state {
  phase: TEST
}
layer {
  name: "data"
  type: "Data"
  top: "data"
  top: "label"
  include {
    phase: TEST
  }
  transform_param {
    mirror: false
    crop_size: 224
    mean_file: "/home/mohanty/data/final_dataset/lmdb/segmented-60-40/mean.binaryproto"
  }
  data_param {
    source: "/home/mohanty/data/final_dataset/lmdb/segmented-60-40/test_db"
    batch_size: 24
    backend: LMDB
  }
}
layer {
  name: "conv1/7x7_s2"
  type: "Convolution"
  bottom: "data"
  top: "conv1/7x7_s2"
  param {
    lr_mult: 1
    decay_mult: 1
  }
  param {
    lr_mult: 2
    decay_mult: 0
  }
  convolution_param {
    num_output: 64
    pad: 3
    kernel_size: 7
    stride: 2
    weight_filler {
      type: "xavier"
      std: 0.1
    }
    bias_filler {
      type: "constant"
      value: 0.2
    }
  }
}
layer {
  name: "conv1/relu_7x7"
  type: "ReLU"
  bottom: "conv1/7x7_s2"
  top: "conv1/7x7_s2"
}
layer {
  name: "pool1/3x3_s2"
  type: "Pooling"
  bottom: "conv1/7x7_s2"
  top: "pool1/3x3_s2"
  pooling_param {
    pool: MAX
    kernel_size: 3
    stride: 2
  }
}
layer {
  name: "pool1/norm1"
  type: "LRN"
  bottom: "pool1/3x3_s2"
  top: "pool1/norm1"
  lrn_param {
    local_size: 5
    alpha: 0.0001
    beta: 0.75
  }
}
layer {
  name: "conv2/3x3_reduce"
  type: "Convolution"
  bottom: "pool1/norm1"
  top: "conv2/3x3_reduce"
  param {
    lr_mult: 1
    decay_mult: 1
  }
  param {
    lr_mult: 2
    decay_mult: 0
  }
  convolution_param {
    num_output: 64
    kernel_size: 1
    weight_filler {
      type: "xavier"
      std: 0.1
    }
    bias_filler {
      type: "constant"
      value: 0.2
    }
  }
}
layer {
  name: "conv2/relu_3x3_reduce"
  type: "ReLU"
  bottom: "conv2/3x3_reduce"
  top: "conv2/3x3_reduce"
}
layer {
  name: "conv2/3x3"
  type: "Convolution"
  bottom: "conv2/3x3_reduce"
  top: "conv2/3x3"
  param {
    lr_mult: 1
    decay_mult: 1
  }
  param {
    lr_mult: 2
    decay_mult: 0
  }
  convolution_param {
    num_output: 192
    pad: 1
    kernel_size: 3
    weight_filler {
      type: "xavier"
      std: 0.03
    }
    bias_filler {
      type: "constant"
      value: 0.2
    }
  }
}
layer {
  name: "conv2/relu_3x3"
  type: "ReLU"
  bottom: "conv2/3x3"
  top: "conv2/3x3"
}
layer {
  name: "conv2/norm2"
  type: "LRN"
  bottom: "conv2/3x3"
  top: "conv2/norm2"
  lrn_param {
    local_size: 5
    alpha: 0.0001
    beta: 0.75
  }
}
layer {
  name: "pool2/3x3_s2"
  type: "Pooling"
  bottom: "conv2/norm2"
  top: "pool2/3x3_s2"
  pooling_param {
    pool: MAX
    kernel_size: 3
    stride: 2
  }
}
layer {
  name: "inception_3a/1x1"
  type: "Convolution"
  bottom: "pool2/3x3_s2"
  top: "inception_3a/1x1"
  param {
    lr_mult: 1
    decay_mult: 1
  }
  param {
    lr_mult: 2
    decay_mult: 0
  }
  convolution_param {
    num_output: 64
    kernel_size: 1
    weight_filler {
      type: "xavier"
      std: 0.03
    }
    bias_filler {
      type: "constant"
      value: 0.2
    }
  }
}
layer {
  name: "inception_3a/relu_1x1"
  type: "ReLU"
  bottom: "inception_3a/1x1"
  top: "inception_3a/1x1"
}
layer {
  name: "inception_3a/3x3_reduce"
  type: "Convolution"
  bottom: "pool2/3x3_s2"
  top: "inception_3a/3x3_reduce"
  param {
    lr_mult: 1
    decay_mult: 1
  }
  param {
    lr_mult: 2
    decay_mult: 0
  }
  convolution_param {
    num_output: 96
    kernel_size: 1
    weight_filler {
      type: "xavier"
      std: 0.09
    }
    bias_filler {
      type: "constant"
      value: 0.2
    }
  }
}
layer {
  name: "inception_3a/relu_3x3_reduce"
  type: "ReLU"
  bottom: "inception_3a/3x3_reduce"
  top: "inception_3a/3x3_reduce"
}
layer {
  name: "inception_3a/3x3"
  type: "Convolution"
  bottom: "inception_3a/3x3_reduce"
  top: "inception_3a/3x3"
  param {
    lr_mult: 1
    decay_mult: 1
  }
  param {
    lr_mult: 2
    decay_mult: 0
  }
  convolution_param {
    num_output: 128
    pad: 1
    kernel_size: 3
    weight_filler {
      type: "xavier"
      std: 0.03
    }
    bias_filler {
      type: "constant"
      value: 0.2
    }
  }
}
layer {
  name: "inception_3a/relu_3x3"
  type: "ReLU"
  bottom: "inception_3a/3x3"
  top: "inception_3a/3x3"
}
layer {
  name: "inception_3a/5x5_reduce"
  type: "Convolution"
  bottom: "pool2/3x3_s2"
  top: "inception_3a/5x5_reduce"
  param {
    lr_mult: 1
    decay_mult: 1
  }
  param {
    lr_mult: 2
    decay_mult: 0
  }
  convolution_param {
    num_output: 16
    kernel_size: 1
    weight_filler {
      type: "xavier"
      std: 0.2
    }
    bias_filler {
      type: "constant"
      value: 0.2
    }
  }
}
layer {
  name: "inception_3a/relu_5x5_reduce"
  type: "ReLU"
  bottom: "inception_3a/5x5_reduce"
  top: "inception_3a/5x5_reduce"
}
layer {
  name: "inception_3a/5x5"
  type: "Convolution"
  bottom: "inception_3a/5x5_reduce"
  top: "inception_3a/5x5"
  param {
    lr_mult: 1
    decay_mult: 1
  }
  param {
    lr_mult: 2
    decay_mult: 0
  }
  convolution_param {
    num_output: 32
    pad: 2
    kernel_size: 5
    weight_filler {
      type: "xavier"
      std: 0.03
    }
    bias_filler {
      type: "constant"
      value: 0.2
    }
  }
}
layer {
  name: "inception_3a/relu_5x5"
  type: "ReLU"
  bottom: "inception_3a/5x5"
  top: "inception_3a/5x5"
}
layer {
  name: "inception_3a/pool"
  type: "Pooling"
  bottom: "pool2/3x3_s2"
  top: "inception_3a/pool"
  pooling_param {
    pool: MAX
    kernel_size: 3
    stride: 1
    pad: 1
  }
}
layer {
  name: "inception_3a/pool_proj"
  type: "Convolution"
  bottom: "inception_3a/pool"
  top: "inception_3a/pool_proj"
  param {
    lr_mult: 1
    decay_mult: 1
  }
  param {
    lr_mult: 2
    decay_mult: 0
  }
  convolution_param {
    num_output: 32
    kernel_size: 1
    weight_filler {
      type: "xavier"
      std: 0.1
    }
    bias_filler {
      type: "constant"
      value: 0.2
    }
  }
}
layer {
  name: "inception_3a/relu_pool_proj"
  type: "ReLU"
  bottom: "inception_3a/pool_proj"
  top: "inception_3a/pool_proj"
}
layer {
  name: "inception_3a/output"
  type: "Concat"
  bottom: "inception_3a/1x1"
  bottom: "inception_3a/3x3"
  bottom: "inception_3a/5x5"
  bottom: "inception_3a/pool_proj"
  top: "inception_3a/output"
}
layer {
  name: "inception_3b/1x1"
  type: "Convolution"
  bottom: "inception_3a/output"
  top: "inception_3b/1x1"
  param {
    lr_mult: 1
    decay_mult: 1
  }
  param {
    lr_mult: 2
    decay_mult: 0
  }
  convolution_param {
    num_output: 128
    kernel_size: 1
    weight_filler {
      type: "xavier"
      std: 0.03
    }
    bias_filler {
      type: "constant"
      value: 0.2
    }
  }
}
layer {
  name: "inception_3b/relu_1x1"
  type: "ReLU"
  bottom: "inception_3b/1x1"
  top: "inception_3b/1x1"
}
layer {
  name: "inception_3b/3x3_reduce"
  type: "Convolution"
  bottom: "inception_3a/output"
  top: "inception_3b/3x3_reduce"
  param {
    lr_mult: 1
    decay_mult: 1
  }
  param {
    lr_mult: 2
    decay_mult: 0
  }
  convolution_param {
    num_output: 128
    kernel_size: 1
    weight_filler {
      type: "xavier"
      std: 0.09
    }
    bias_filler {
      type: "constant"
      value: 0.2
    }
  }
}
layer {
  name: "inception_3b/relu_3x3_reduce"
  type: "ReLU"
  bottom: "inception_3b/3x3_reduce"
  top: "inception_3b/3x3_reduce"
}
layer {
  name: "inception_3b/3x3"
  type: "Convolution"
  bottom: "inception_3b/3x3_reduce"
  top: "inception_3b/3x3"
  param {
    lr_mult: 1
    decay_mult: 1
  }
  param {
    lr_mult: 2
    decay_mult: 0
  }
  convolution_param {
    num_output: 192
    pad: 1
    kernel_size: 3
    weight_filler {
      type: "xavier"
      std: 0.03
    }
    bias_filler {
      type: "constant"
      value: 0.2
    }
  }
}
layer {
  name: "inception_3b/relu_3x3"
  type: "ReLU"
  bottom: "inception_3b/3x3"
  top: "inception_3b/3x3"
}
layer {
  name: "inception_3b/5x5_reduce"
  type: "Convolution"
  bottom: "inception_3a/output"
  top: "inception_3b/5x5_reduce"
  param {
    lr_mult: 1
    decay_mult: 1
  }
  param {
    lr_mult: 2
    decay_mult: 0
  }
  convolution_param {
    num_output: 32
    kernel_size: 1
    weight_filler {
      type: "xavier"
      std: 0.2
    }
    bias_filler {
      type: "constant"
      value: 0.2
    }
  }
}
layer {
  name: "inception_3b/relu_5x5_reduce"
  type: "ReLU"
  bottom: "inception_3b/5x5_reduce"
  top: "inception_3b/5x5_reduce"
}
layer {
  name: "inception_3b/5x5"
  type: "Convolution"
  bottom: "inception_3b/5x5_reduce"
  top: "inception_3b/5x5"
  param {
    lr_mult: 1
    decay_mult: 1
  }
  param {
    lr_mult: 2
    decay_mult: 0
  }
  convolution_param {
    num_output: 96
    pad: 2
    kernel_size: 5
    weight_filler {
      type: "xavier"
      std: 0.03
    }
    bias_filler {
      type: "constant"
      value: 0.2
    }
  }
}
layer {
  name: "inception_3b/relu_5x5"
  type: "ReLU"
  bottom: "inception_3b/5x5"
  top: "inception_3b/5x5"
}
layer {
  name: "inception_3b/pool"
  type: "Pooling"
  bottom: "inception_3a/output"
  top: "inception_3b/pool"
  pooling_param {
    pool: MAX
    kernel_size: 3
    stride: 1
    pad: 1
  }
}
layer {
  name: "inception_3b/pool_proj"
  type: "Convolution"
  bottom: "inception_3b/pool"
  top: "inception_3b/pool_proj"
  param {
    lr_mult: 1
    decay_mult: 1
  }
  param {
    lr_mult: 2
    decay_mult: 0
  }
  convolution_param {
    num_output: 64
    kernel_size: 1
    weight_filler {
      type: "xavier"
      std: 0.1
    }
    bias_filler {
      type: "constant"
      value: 0.2
    }
  }
}
layer {
  name: "inception_3b/relu_pool_proj"
  type: "ReLU"
  bottom: "inception_3b/pool_proj"
  top: "inception_3b/pool_proj"
}
layer {
  name: "inception_3b/output"
  type: "Concat"
  bottom: "inception_3b/1x1"
  bottom: "inception_3b/3x3"
  bottom: "inception_3b/5x5"
  bottom: "inception_3b/pool_proj"
  top: "inception_3b/output"
}
layer {
  name: "pool3/3x3_s2"
  type: "Pooling"
  bottom: "inception_3b/output"
  top: "pool3/3x3_s2"
  pooling_param {
    pool: MAX
    kernel_size: 3
    stride: 2
  }
}
layer {
  name: "inception_4a/1x1"
  type: "Convolution"
  bottom: "pool3/3x3_s2"
  top: "inception_4a/1x1"
  param {
    lr_mult: 1
    decay_mult: 1
  }
  param {
    lr_mult: 2
    decay_mult: 0
  }
  convolution_param {
    num_output: 192
    kernel_size: 1
    weight_filler {
      type: "xavier"
      std: 0.03
    }
    bias_filler {
      type: "constant"
      value: 0.2
    }
  }
}
layer {
  name: "inception_4a/relu_1x1"
  type: "ReLU"
  bottom: "inception_4a/1x1"
  top: "inception_4a/1x1"
}
layer {
  name: "inception_4a/3x3_reduce"
  type: "Convolution"
  bottom: "pool3/3x3_s2"
  top: "inception_4a/3x3_reduce"
  param {
    lr_mult: 1
    decay_mult: 1
  }
  param {
    lr_mult: 2
    decay_mult: 0
  }
  convolution_param {
    num_output: 96
    kernel_size: 1
    weight_filler {
      type: "xavier"
      std: 0.09
    }
    bias_filler {
      type: "constant"
      value: 0.2
    }
  }
}
layer {
  name: "inception_4a/relu_3x3_reduce"
  type: "ReLU"
  bottom: "inception_4a/3x3_reduce"
  top: "inception_4a/3x3_reduce"
}
layer {
  name: "inception_4a/3x3"
  type: "Convolution"
  bottom: "inception_4a/3x3_reduce"
  top: "inception_4a/3x3"
  param {
    lr_mult: 1
    decay_mult: 1
  }
  param {
    lr_mult: 2
    decay_mult: 0
  }
  convolution_param {
    num_output: 208
    pad: 1
    kernel_size: 3
    weight_filler {
      type: "xavier"
      std: 0.03
    }
    bias_filler {
      type: "constant"
      value: 0.2
    }
  }
}
layer {
  name: "inception_4a/relu_3x3"
  type: "ReLU"
  bottom: "inception_4a/3x3"
  top: "inception_4a/3x3"
}
layer {
  name: "inception_4a/5x5_reduce"
  type: "Convolution"
  bottom: "pool3/3x3_s2"
  top: "inception_4a/5x5_reduce"
  param {
    lr_mult: 1
    decay_mult: 1
  }
  param {
    lr_mult: 2
    decay_mult: 0
  }
  convolution_param {
    num_output: 16
    kernel_size: 1
    weight_filler {
      type: "xavier"
      std: 0.2
    }
    bias_filler {
      type: "constant"
      value: 0.2
    }
  }
}
layer {
  name: "inception_4a/relu_5x5_reduce"
  type: "ReLU"
  bottom: "inception_4a/5x5_reduce"
  top: "inception_4a/5x5_reduce"
}
layer {
  name: "inception_4a/5x5"
  type: "Convolution"
  bottom: "inception_4a/5x5_reduce"
  top: "inception_4a/5x5"
  param {
    lr_mult: 1
    decay_mult: 1
  }
  param {
    lr_mult: 2
    decay_mult: 0
  }
  convolution_param {
    num_output: 48
    pad: 2
    kernel_size: 5
    weight_filler {
      type: "xavier"
      std: 0.03
    }
    bias_filler {
      type: "constant"
      value: 0.2
    }
  }
}
layer {
  name: "inception_4a/relu_5x5"
  type: "ReLU"
  bottom: "inception_4a/5x5"
  top: "inception_4a/5x5"
}
layer {
  name: "inception_4a/pool"
  type: "Pooling"
  bottom: "pool3/3x3_s2"
  top: "inception_4a/pool"
  pooling_param {
    pool: MAX
    kernel_size: 3
    stride: 1
    pad: 1
  }
}
layer {
  name: "inception_4a/pool_proj"
  type: "Convolution"
  bottom: "inception_4a/pool"
  top: "inception_4a/pool_proj"
  param {
    lr_mult: 1
    decay_mult: 1
  }
  param {
    lr_mult: 2
    decay_mult: 0
  }
  convolution_param {
    num_output: 64
    kernel_size: 1
    weight_filler {
      type: "xavier"
      std: 0.1
    }
    bias_filler {
      type: "constant"
      value: 0.2
    }
  }
}
layer {
  name: "inception_4a/relu_pool_proj"
  type: "ReLU"
  bottom: "inception_4a/pool_proj"
  top: "inception_4a/pool_proj"
}
layer {
  name: "inception_4a/output"
  type: "Concat"
  bottom: "inception_4a/1x1"
  bottom: "inception_4a/3x3"
  bottom: "inception_4a/5x5"
  bottom: "inception_4a/pool_proj"
  top: "inception_4a/output"
}
layer {
  name: "loss1/ave_pool"
  type: "Pooling"
  bottom: "inception_4a/output"
  top: "loss1/ave_pool"
  pooling_param {
    pool: AVE
    kernel_size: 5
    stride: 3
  }
}
layer {
  name: "loss1/conv"
  type: "Convolution"
  bottom: "loss1/ave_pool"
  top: "loss1/conv"
  param {
    lr_mult: 1
    decay_mult: 1
  }
  param {
    lr_mult: 2
    decay_mult: 0
  }
  convolution_param {
    num_output: 128
    kernel_size: 1
    weight_filler {
      type: "xavier"
      std: 0.08
    }
    bias_filler {
      type: "constant"
      value: 0.2
    }
  }
}
layer {
  name: "loss1/relu_conv"
  type: "ReLU"
  bottom: "loss1/conv"
  top: "loss1/conv"
}
layer {
  name: "loss1/fc"
  type: "InnerProduct"
  bottom: "loss1/conv"
  top: "loss1/fc"
  param {
    lr_mult: 1
    decay_mult: 1
  }
  param {
    lr_mult: 2
    decay_mult: 0
  }
  inner_product_param {
    num_output: 1024
    weight_filler {
      type: "xavier"
      std: 0.02
    }
    bias_filler {
      type: "constant"
      value: 0.2
    }
  }
}
layer {
  name: "loss1/relu_fc"
  type: "ReLU"
  bottom: "loss1/fc"
  top: "loss1/fc"
}
layer {
  name: "loss1/drop_fc"
  type: "Dropout"
  bottom: "loss1/fc"
  top: "loss1/fc"
  dropout_param {
    dropout_ratio: 0.7
  }
}
layer {
  name: "loss1/classifier_plantvillage"
  type: "InnerProduct"
  bottom: "loss1/fc"
  top: "loss1/classifier_plantvillage"
  param {
    lr_mult: 1
    decay_mult: 1
  }
  param {
    lr_mult: 2
    decay_mult: 0
  }
  inner_product_param {
    num_output: 38
    weight_filler {
      type: "xavier"
      std: 0.0009765625
    }
    bias_filler {
      type: "constant"
      value: 0
    }
  }
}
layer {
  name: "inception_4b/1x1"
  type: "Convolution"
  bottom: "inception_4a/output"
  top: "inception_4b/1x1"
  param {
    lr_mult: 1
    decay_mult: 1
  }
  param {
    lr_mult: 2
    decay_mult: 0
  }
  convolution_param {
    num_output: 160
    kernel_size: 1
    weight_filler {
      type: "xavier"
      std: 0.03
    }
    bias_filler {
      type: "constant"
      value: 0.2
    }
  }
}
layer {
  name: "inception_4b/relu_1x1"
  type: "ReLU"
  bottom: "inception_4b/1x1"
  top: "inception_4b/1x1"
}
layer {
  name: "inception_4b/3x3_reduce"
  type: "Convolution"
  bottom: "inception_4a/output"
  top: "inception_4b/3x3_reduce"
  param {
    lr_mult: 1
    decay_mult: 1
  }
  param {
    lr_mult: 2
    decay_mult: 0
  }
  convolution_param {
    num_output: 112
    kernel_size: 1
    weight_filler {
      type: "xavier"
      std: 0.09
    }
    bias_filler {
      type: "constant"
      value: 0.2
    }
  }
}
layer {
  name: "inception_4b/relu_3x3_reduce"
  type: "ReLU"
  bottom: "inception_4b/3x3_reduce"
  top: "inception_4b/3x3_reduce"
}
layer {
  name: "inception_4b/3x3"
  type: "Convolution"
  bottom: "inception_4b/3x3_reduce"
  top: "inception_4b/3x3"
  param {
    lr_mult: 1
    decay_mult: 1
  }
  param {
    lr_mult: 2
    decay_mult: 0
  }
  convolution_param {
    num_output: 224
    pad: 1
    kernel_size: 3
    weight_filler {
      type: "xavier"
      std: 0.03
    }
    bias_filler {
      type: "constant"
      value: 0.2
    }
  }
}
layer {
  name: "inception_4b/relu_3x3"
  type: "ReLU"
  bottom: "inception_4b/3x3"
  top: "inception_4b/3x3"
}
layer {
  name: "inception_4b/5x5_reduce"
  type: "Convolution"
  bottom: "inception_4a/output"
  top: "inception_4b/5x5_reduce"
  param {
    lr_mult: 1
    decay_mult: 1
  }
  param {
    lr_mult: 2
    decay_mult: 0
  }
  convolution_param {
    num_output: 24
    kernel_size: 1
    weight_filler {
      type: "xavier"
      std: 0.2
    }
    bias_filler {
      type: "constant"
      value: 0.2
    }
  }
}
layer {
  name: "inception_4b/relu_5x5_reduce"
  type: "ReLU"
  bottom: "inception_4b/5x5_reduce"
  top: "inception_4b/5x5_reduce"
}
layer {
  name: "inception_4b/5x5"
  type: "Convolution"
  bottom: "inception_4b/5x5_reduce"
  top: "inception_4b/5x5"
  param {
    lr_mult: 1
    decay_mult: 1
  }
  param {
    lr_mult: 2
    decay_mult: 0
  }
  convolution_param {
    num_output: 64
    pad: 2
    kernel_size: 5
    weight_filler {
      type: "xavier"
      std: 0.03
    }
    bias_filler {
      type: "constant"
      value: 0.2
    }
  }
}
layer {
  name: "inception_4b/relu_5x5"
  type: "ReLU"
  bottom: "inception_4b/5x5"
  top: "inception_4b/5x5"
}
layer {
  name: "inception_4b/pool"
  type: "Pooling"
  bottom: "inception_4a/output"
  top: "inception_4b/pool"
  pooling_param {
    pool: MAX
    kernel_size: 3
    stride: 1
    pad: 1
  }
}
layer {
  name: "inception_4b/pool_proj"
  type: "Convolution"
  bottom: "inception_4b/pool"
  top: "inception_4b/pool_proj"
  param {
    lr_mult: 1
    decay_mult: 1
  }
  param {
    lr_mult: 2
    decay_mult: 0
  }
  convolution_param {
    num_output: 64
    kernel_size: 1
    weight_filler {
      type: "xavier"
      std: 0.1
    }
    bias_filler {
      type: "constant"
      value: 0.2
    }
  }
}
layer {
  name: "inception_4b/relu_pool_proj"
  type: "ReLU"
  bottom: "inception_4b/pool_proj"
  top: "inception_4b/pool_proj"
}
layer {
  name: "inception_4b/output"
  type: "Concat"
  bottom: "inception_4b/1x1"
  bottom: "inception_4b/3x3"
  bottom: "inception_4b/5x5"
  bottom: "inception_4b/pool_proj"
  top: "inception_4b/output"
}
layer {
  name: "inception_4c/1x1"
  type: "Convolution"
  bottom: "inception_4b/output"
  top: "inception_4c/1x1"
  param {
    lr_mult: 1
    decay_mult: 1
  }
  param {
    lr_mult: 2
    decay_mult: 0
  }
  convolution_param {
    num_output: 128
    kernel_size: 1
    weight_filler {
      type: "xavier"
      std: 0.03
    }
    bias_filler {
      type: "constant"
      value: 0.2
    }
  }
}
layer {
  name: "inception_4c/relu_1x1"
  type: "ReLU"
  bottom: "inception_4c/1x1"
  top: "inception_4c/1x1"
}
layer {
  name: "inception_4c/3x3_reduce"
  type: "Convolution"
  bottom: "inception_4b/output"
  top: "inception_4c/3x3_reduce"
  param {
    lr_mult: 1
    decay_mult: 1
  }
  param {
    lr_mult: 2
    decay_mult: 0
  }
  convolution_param {
    num_output: 128
    kernel_size: 1
    weight_filler {
      type: "xavier"
      std: 0.09
    }
    bias_filler {
      type: "constant"
      value: 0.2
    }
  }
}
layer {
  name: "inception_4c/relu_3x3_reduce"
  type: "ReLU"
  bottom: "inception_4c/3x3_reduce"
  top: "inception_4c/3x3_reduce"
}
layer {
  name: "inception_4c/3x3"
  type: "Convolution"
  bottom: "inception_4c/3x3_reduce"
  top: "inception_4c/3x3"
  param {
    lr_mult: 1
    decay_mult: 1
  }
  param {
    lr_mult: 2
    decay_mult: 0
  }
  convolution_param {
    num_output: 256
    pad: 1
    kernel_size: 3
    weight_filler {
      type: "xavier"
      std: 0.03
    }
    bias_filler {
      type: "constant"
      value: 0.2
    }
  }
}
layer {
  name: "inception_4c/relu_3x3"
  type: "ReLU"
  bottom: "inception_4c/3x3"
  top: "inception_4c/3x3"
}
layer {
  name: "inception_4c/5x5_reduce"
  type: "Convolution"
  bottom: "inception_4b/output"
  top: "inception_4c/5x5_reduce"
  param {
    lr_mult: 1
    decay_mult: 1
  }
  param {
    lr_mult: 2
    decay_mult: 0
  }
  convolution_param {
    num_output: 24
    kernel_size: 1
    weight_filler {
      type: "xavier"
      std: 0.2
    }
    bias_filler {
      type: "constant"
      value: 0.2
    }
  }
}
layer {
  name: "inception_4c/relu_5x5_reduce"
  type: "ReLU"
  bottom: "inception_4c/5x5_reduce"
  top: "inception_4c/5x5_reduce"
}
layer {
  name: "inception_4c/5x5"
  type: "Convolution"
  bottom: "inception_4c/5x5_reduce"
  top: "inception_4c/5x5"
  param {
    lr_mult: 1
    decay_mult: 1
  }
  param {
    lr_mult: 2
    decay_mult: 0
  }
  convolution_param {
    num_output: 64
    pad: 2
    kernel_size: 5
    weight_filler {
      type: "xavier"
      std: 0.03
    }
    bias_filler {
      type: "constant"
      value: 0.2
    }
  }
}
layer {
  name: "inception_4c/relu_5x5"
  type: "ReLU"
  bottom: "inception_4c/5x5"
  top: "inception_4c/5x5"
}
layer {
  name: "inception_4c/pool"
  type: "Pooling"
  bottom: "inception_4b/output"
  top: "inception_4c/pool"
  pooling_param {
    pool: MAX
    kernel_size: 3
    stride: 1
    pad: 1
  }
}
layer {
  name: "inception_4c/pool_proj"
  type: "Convolution"
  bottom: "inception_4c/pool"
  top: "inception_4c/pool_proj"
  param {
    lr_mult: 1
    decay_mult: 1
  }
  param {
    lr_mult: 2
    decay_mult: 0
  }
  convolution_param {
    num_output: 64
    kernel_size: 1
    weight_filler {
      type: "xavier"
      std: 0.1
    }
    bias_filler {
      type: "constant"
      value: 0.2
    }
  }
}
layer {
  name: "inception_4c/relu_pool_proj"
  type: "ReLU"
  bottom: "inception_4c/pool_proj"
  top: "inception_4c/pool_proj"
}
layer {
  name: "inception_4c/output"
  type: "Concat"
  bottom: "inception_4c/1x1"
  bottom: "inception_4c/3x3"
  bottom: "inception_4c/5x5"
  bottom: "inception_4c/pool_proj"
  top: "inception_4c/output"
}
layer {
  name: "inception_4d/1x1"
  type: "Convolution"
  bottom: "inception_4c/output"
  top: "inception_4d/1x1"
  param {
    lr_mult: 1
    decay_mult: 1
  }
  param {
    lr_mult: 2
    decay_mult: 0
  }
  convolution_param {
    num_output: 112
    kernel_size: 1
    weight_filler {
      type: "xavier"
      std: 0.03
    }
    bias_filler {
      type: "constant"
      value: 0.2
    }
  }
}
layer {
  name: "inception_4d/relu_1x1"
  type: "ReLU"
  bottom: "inception_4d/1x1"
  top: "inception_4d/1x1"
}
layer {
  name: "inception_4d/3x3_reduce"
  type: "Convolution"
  bottom: "inception_4c/output"
  top: "inception_4d/3x3_reduce"
  param {
    lr_mult: 1
    decay_mult: 1
  }
  param {
    lr_mult: 2
    decay_mult: 0
  }
  convolution_param {
    num_output: 144
    kernel_size: 1
    weight_filler {
      type: "xavier"
      std: 0.09
    }
    bias_filler {
      type: "constant"
      value: 0.2
    }
  }
}
layer {
  name: "inception_4d/relu_3x3_reduce"
  type: "ReLU"
  bottom: "inception_4d/3x3_reduce"
  top: "inception_4d/3x3_reduce"
}
layer {
  name: "inception_4d/3x3"
  type: "Convolution"
  bottom: "inception_4d/3x3_reduce"
  top: "inception_4d/3x3"
  param {
    lr_mult: 1
    decay_mult: 1
  }
  param {
    lr_mult: 2
    decay_mult: 0
  }
  convolution_param {
    num_output: 288
    pad: 1
    kernel_size: 3
    weight_filler {
      type: "xavier"
      std: 0.03
    }
    bias_filler {
      type: "constant"
      value: 0.2
    }
  }
}
layer {
  name: "inception_4d/relu_3x3"
  type: "ReLU"
  bottom: "inception_4d/3x3"
  top: "inception_4d/3x3"
}
layer {
  name: "inception_4d/5x5_reduce"
  type: "Convolution"
  bottom: "inception_4c/output"
  top: "inception_4d/5x5_reduce"
  param {
    lr_mult: 1
    decay_mult: 1
  }
  param {
    lr_mult: 2
    decay_mult: 0
  }
  convolution_param {
    num_output: 32
    kernel_size: 1
    weight_filler {
      type: "xavier"
      std: 0.2
    }
    bias_filler {
      type: "constant"
      value: 0.2
    }
  }
}
layer {
  name: "inception_4d/relu_5x5_reduce"
  type: "ReLU"
  bottom: "inception_4d/5x5_reduce"
  top: "inception_4d/5x5_reduce"
}
layer {
  name: "inception_4d/5x5"
  type: "Convolution"
  bottom: "inception_4d/5x5_reduce"
  top: "inception_4d/5x5"
  param {
    lr_mult: 1
    decay_mult: 1
  }
  param {
    lr_mult: 2
    decay_mult: 0
  }
  convolution_param {
    num_output: 64
    pad: 2
    kernel_size: 5
    weight_filler {
      type: "xavier"
      std: 0.03
    }
    bias_filler {
      type: "constant"
      value: 0.2
    }
  }
}
layer {
  name: "inception_4d/relu_5x5"
  type: "ReLU"
  bottom: "inception_4d/5x5"
  top: "inception_4d/5x5"
}
layer {
  name: "inception_4d/pool"
  type: "Pooling"
  bottom: "inception_4c/output"
  top: "inception_4d/pool"
  pooling_param {
    pool: MAX
    kernel_size: 3
    stride: 1
    pad: 1
  }
}
layer {
  name: "inception_4d/pool_proj"
  type: "Convolution"
  bottom: "inception_4d/pool"
  top: "inception_4d/pool_proj"
  param {
    lr_mult: 1
    decay_mult: 1
  }
  param {
    lr_mult: 2
    decay_mult: 0
  }
  convolution_param {
    num_output: 64
    kernel_size: 1
    weight_filler {
      type: "xavier"
      std: 0.1
    }
    bias_filler {
      type: "constant"
      value: 0.2
    }
  }
}
layer {
  name: "inception_4d/relu_pool_proj"
  type: "ReLU"
  bottom: "inception_4d/pool_proj"
  top: "inception_4d/pool_proj"
}
layer {
  name: "inception_4d/output"
  type: "Concat"
  bottom: "inception_4d/1x1"
  bottom: "inception_4d/3x3"
  bottom: "inception_4d/5x5"
  bottom: "inception_4d/pool_proj"
  top: "inception_4d/output"
}
layer {
  name: "loss2/ave_pool"
  type: "Pooling"
  bottom: "inception_4d/output"
  top: "loss2/ave_pool"
  pooling_param {
    pool: AVE
    kernel_size: 5
    stride: 3
  }
}
layer {
  name: "loss2/conv"
  type: "Convolution"
  bottom: "loss2/ave_pool"
  top: "loss2/conv"
  param {
    lr_mult: 1
    decay_mult: 1
  }
  param {
    lr_mult: 2
    decay_mult: 0
  }
  convolution_param {
    num_output: 128
    kernel_size: 1
    weight_filler {
      type: "xavier"
      std: 0.08
    }
    bias_filler {
      type: "constant"
      value: 0.2
    }
  }
}
layer {
  name: "loss2/relu_conv"
  type: "ReLU"
  bottom: "loss2/conv"
  top: "loss2/conv"
}
layer {
  name: "loss2/fc"
  type: "InnerProduct"
  bottom: "loss2/conv"
  top: "loss2/fc"
  param {
    lr_mult: 1
    decay_mult: 1
  }
  param {
    lr_mult: 2
    decay_mult: 0
  }
  inner_product_param {
    num_output: 1024
    weight_filler {
      type: "xavier"
      std: 0.02
    }
    bias_filler {
      type: "constant"
      value: 0.2
    }
  }
}
layer {
  name: "loss2/relu_fc"
  type: "ReLU"
  bottom: "loss2/fc"
  top: "loss2/fc"
}
layer {
  name: "loss2/drop_fc"
  type: "Dropout"
  bottom: "loss2/fc"
  top: "loss2/fc"
  dropout_param {
    dropout_ratio: 0.7
  }
}
layer {
  name: "loss2/classifier_plantvillage"
  type: "InnerProduct"
  bottom: "loss2/fc"
  top: "loss2/classifier_plantvillage"
  param {
    lr_mult: 1
    decay_mult: 1
  }
  param {
    lr_mult: 2
    decay_mult: 0
  }
  inner_product_param {
    num_output: 38
    weight_filler {
      type: "xavier"
      std: 0.0009765625
    }
    bias_filler {
      type: "constant"
      value: 0
    }
  }
}
layer {
  name: "inception_4e/1x1"
  type: "Convolution"
  bottom: "inception_4d/output"
  top: "inception_4e/1x1"
  param {
    lr_mult: 1
    decay_mult: 1
  }
  param {
    lr_mult: 2
    decay_mult: 0
  }
  convolution_param {
    num_output: 256
    kernel_size: 1
    weight_filler {
      type: "xavier"
      std: 0.03
    }
    bias_filler {
      type: "constant"
      value: 0.2
    }
  }
}
layer {
  name: "inception_4e/relu_1x1"
  type: "ReLU"
  bottom: "inception_4e/1x1"
  top: "inception_4e/1x1"
}
layer {
  name: "inception_4e/3x3_reduce"
  type: "Convolution"
  bottom: "inception_4d/output"
  top: "inception_4e/3x3_reduce"
  param {
    lr_mult: 1
    decay_mult: 1
  }
  param {
    lr_mult: 2
    decay_mult: 0
  }
  convolution_param {
    num_output: 160
    kernel_size: 1
    weight_filler {
      type: "xavier"
      std: 0.09
    }
    bias_filler {
      type: "constant"
      value: 0.2
    }
  }
}
layer {
  name: "inception_4e/relu_3x3_reduce"
  type: "ReLU"
  bottom: "inception_4e/3x3_reduce"
  top: "inception_4e/3x3_reduce"
}
layer {
  name: "inception_4e/3x3"
  type: "Convolution"
  bottom: "inception_4e/3x3_reduce"
  top: "inception_4e/3x3"
  param {
    lr_mult: 1
    decay_mult: 1
  }
  param {
    lr_mult: 2
    decay_mult: 0
  }
  convolution_param {
    num_output: 320
    pad: 1
    kernel_size: 3
    weight_filler {
      type: "xavier"
      std: 0.03
    }
    bias_filler {
      type: "constant"
      value: 0.2
    }
  }
}
layer {
  name: "inception_4e/relu_3x3"
  type: "ReLU"
  bottom: "inception_4e/3x3"
  top: "inception_4e/3x3"
}
layer {
  name: "inception_4e/5x5_reduce"
  type: "Convolution"
  bottom: "inception_4d/output"
  top: "inception_4e/5x5_reduce"
  param {
    lr_mult: 1
    decay_mult: 1
  }
  param {
    lr_mult: 2
    decay_mult: 0
  }
  convolution_param {
    num_output: 32
    kernel_size: 1
    weight_filler {
      type: "xavier"
      std: 0.2
    }
    bias_filler {
      type: "constant"
      value: 0.2
    }
  }
}
layer {
  name: "inception_4e/relu_5x5_reduce"
  type: "ReLU"
  bottom: "inception_4e/5x5_reduce"
  top: "inception_4e/5x5_reduce"
}
layer {
  name: "inception_4e/5x5"
  type: "Convolution"
  bottom: "inception_4e/5x5_reduce"
  top: "inception_4e/
I0403 15:28:19.798902  3123 layer_factory.hpp:77] Creating layer data
I0403 15:28:19.799510  3123 net.cpp:91] Creating Layer data
I0403 15:28:19.799540  3123 net.cpp:399] data -> data
I0403 15:28:19.799588  3123 net.cpp:399] data -> label
I0403 15:28:19.799623  3123 data_transformer.cpp:25] Loading mean file from: /home/mohanty/data/final_dataset/lmdb/segmented-60-40/mean.binaryproto
I0403 15:28:19.802088  3128 db_lmdb.cpp:38] Opened lmdb /home/mohanty/data/final_dataset/lmdb/segmented-60-40/test_db
I0403 15:28:19.812803  3123 data_layer.cpp:41] output data size: 24,3,224,224
I0403 15:28:19.840564  3123 net.cpp:141] Setting up data
I0403 15:28:19.840620  3123 net.cpp:148] Top shape: 24 3 224 224 (3612672)
I0403 15:28:19.840642  3123 net.cpp:148] Top shape: 24 (24)
I0403 15:28:19.840658  3123 net.cpp:156] Memory required for data: 14450784
I0403 15:28:19.840683  3123 layer_factory.hpp:77] Creating layer label_data_1_split
I0403 15:28:19.840708  3123 net.cpp:91] Creating Layer label_data_1_split
I0403 15:28:19.840724  3123 net.cpp:425] label_data_1_split <- label
I0403 15:28:19.840754  3123 net.cpp:399] label_data_1_split -> label_data_1_split_0
I0403 15:28:19.840780  3123 net.cpp:399] label_data_1_split -> label_data_1_split_1
I0403 15:28:19.840801  3123 net.cpp:399] label_data_1_split -> label_data_1_split_2
I0403 15:28:19.840821  3123 net.cpp:399] label_data_1_split -> label_data_1_split_3
I0403 15:28:19.840842  3123 net.cpp:399] label_data_1_split -> label_data_1_split_4
I0403 15:28:19.840862  3123 net.cpp:399] label_data_1_split -> label_data_1_split_5
I0403 15:28:19.840880  3123 net.cpp:399] label_data_1_split -> label_data_1_split_6
I0403 15:28:19.840900  3123 net.cpp:399] label_data_1_split -> label_data_1_split_7
I0403 15:28:19.840920  3123 net.cpp:399] label_data_1_split -> label_data_1_split_8
I0403 15:28:19.840940  3123 net.cpp:399] label_data_1_split -> label_data_1_split_9
I0403 15:28:19.841056  3123 net.cpp:141] Setting up label_data_1_split
I0403 15:28:19.841079  3123 net.cpp:148] Top shape: 24 (24)
I0403 15:28:19.841096  3123 net.cpp:148] Top shape: 24 (24)
I0403 15:28:19.841114  3123 net.cpp:148] Top shape: 24 (24)
I0403 15:28:19.841130  3123 net.cpp:148] Top shape: 24 (24)
I0403 15:28:19.841145  3123 net.cpp:148] Top shape: 24 (24)
I0403 15:28:19.841161  3123 net.cpp:148] Top shape: 24 (24)
I0403 15:28:19.841179  3123 net.cpp:148] Top shape: 24 (24)
I0403 15:28:19.841197  3123 net.cpp:148] Top shape: 24 (24)
I0403 15:28:19.841213  3123 net.cpp:148] Top shape: 24 (24)
I0403 15:28:19.841230  3123 net.cpp:148] Top shape: 24 (24)
I0403 15:28:19.841262  3123 net.cpp:156] Memory required for data: 14451744
I0403 15:28:19.841279  3123 layer_factory.hpp:77] Creating layer conv1/7x7_s2
I0403 15:28:19.841308  3123 net.cpp:91] Creating Layer conv1/7x7_s2
I0403 15:28:19.841326  3123 net.cpp:425] conv1/7x7_s2 <- data
I0403 15:28:19.841346  3123 net.cpp:399] conv1/7x7_s2 -> conv1/7x7_s2
I0403 15:28:19.984807  3123 net.cpp:141] Setting up conv1/7x7_s2
I0403 15:28:19.984885  3123 net.cpp:148] Top shape: 24 64 112 112 (19267584)
I0403 15:28:19.984906  3123 net.cpp:156] Memory required for data: 91522080
I0403 15:28:19.984941  3123 layer_factory.hpp:77] Creating layer conv1/relu_7x7
I0403 15:28:19.984971  3123 net.cpp:91] Creating Layer conv1/relu_7x7
I0403 15:28:19.984992  3123 net.cpp:425] conv1/relu_7x7 <- conv1/7x7_s2
I0403 15:28:19.985015  3123 net.cpp:386] conv1/relu_7x7 -> conv1/7x7_s2 (in-place)
I0403 15:28:19.985312  3123 net.cpp:141] Setting up conv1/relu_7x7
I0403 15:28:19.985342  3123 net.cpp:148] Top shape: 24 64 112 112 (19267584)
I0403 15:28:19.985360  3123 net.cpp:156] Memory required for data: 168592416
I0403 15:28:19.985379  3123 layer_factory.hpp:77] Creating layer pool1/3x3_s2
I0403 15:28:19.985409  3123 net.cpp:91] Creating Layer pool1/3x3_s2
I0403 15:28:19.985430  3123 net.cpp:425] pool1/3x3_s2 <- conv1/7x7_s2
I0403 15:28:19.985450  3123 net.cpp:399] pool1/3x3_s2 -> pool1/3x3_s2
I0403 15:28:19.985532  3123 net.cpp:141] Setting up pool1/3x3_s2
I0403 15:28:19.985558  3123 net.cpp:148] Top shape: 24 64 56 56 (4816896)
I0403 15:28:19.985575  3123 net.cpp:156] Memory required for data: 187860000
I0403 15:28:19.985592  3123 layer_factory.hpp:77] Creating layer pool1/norm1
I0403 15:28:19.985620  3123 net.cpp:91] Creating Layer pool1/norm1
I0403 15:28:19.985641  3123 net.cpp:425] pool1/norm1 <- pool1/3x3_s2
I0403 15:28:19.985666  3123 net.cpp:399] pool1/norm1 -> pool1/norm1
I0403 15:28:19.985985  3123 net.cpp:141] Setting up pool1/norm1
I0403 15:28:19.986013  3123 net.cpp:148] Top shape: 24 64 56 56 (4816896)
I0403 15:28:19.986032  3123 net.cpp:156] Memory required for data: 207127584
I0403 15:28:19.986049  3123 layer_factory.hpp:77] Creating layer conv2/3x3_reduce
I0403 15:28:19.986078  3123 net.cpp:91] Creating Layer conv2/3x3_reduce
I0403 15:28:19.986099  3123 net.cpp:425] conv2/3x3_reduce <- pool1/norm1
I0403 15:28:19.986120  3123 net.cpp:399] conv2/3x3_reduce -> conv2/3x3_reduce
I0403 15:28:19.987598  3123 net.cpp:141] Setting up conv2/3x3_reduce
I0403 15:28:19.987633  3123 net.cpp:148] Top shape: 24 64 56 56 (4816896)
I0403 15:28:19.987651  3123 net.cpp:156] Memory required for data: 226395168
I0403 15:28:19.987674  3123 layer_factory.hpp:77] Creating layer conv2/relu_3x3_reduce
I0403 15:28:19.987694  3123 net.cpp:91] Creating Layer conv2/relu_3x3_reduce
I0403 15:28:19.987711  3123 net.cpp:425] conv2/relu_3x3_reduce <- conv2/3x3_reduce
I0403 15:28:19.987732  3123 net.cpp:386] conv2/relu_3x3_reduce -> conv2/3x3_reduce (in-place)
I0403 15:28:19.988831  3123 net.cpp:141] Setting up conv2/relu_3x3_reduce
I0403 15:28:19.988914  3123 net.cpp:148] Top shape: 24 64 56 56 (4816896)
I0403 15:28:19.988948  3123 net.cpp:156] Memory required for data: 245662752
I0403 15:28:19.988970  3123 layer_factory.hpp:77] Creating layer conv2/3x3
I0403 15:28:19.988998  3123 net.cpp:91] Creating Layer conv2/3x3
I0403 15:28:19.989027  3123 net.cpp:425] conv2/3x3 <- conv2/3x3_reduce
I0403 15:28:19.989049  3123 net.cpp:399] conv2/3x3 -> conv2/3x3
I0403 15:28:19.991503  3123 net.cpp:141] Setting up conv2/3x3
I0403 15:28:19.991538  3123 net.cpp:148] Top shape: 24 192 56 56 (14450688)
I0403 15:28:19.991556  3123 net.cpp:156] Memory required for data: 303465504
I0403 15:28:19.991578  3123 layer_factory.hpp:77] Creating layer conv2/relu_3x3
I0403 15:28:19.991598  3123 net.cpp:91] Creating Layer conv2/relu_3x3
I0403 15:28:19.991616  3123 net.cpp:425] conv2/relu_3x3 <- conv2/3x3
I0403 15:28:19.991636  3123 net.cpp:386] conv2/relu_3x3 -> conv2/3x3 (in-place)
I0403 15:28:19.991823  3123 net.cpp:141] Setting up conv2/relu_3x3
I0403 15:28:19.991850  3123 net.cpp:148] Top shape: 24 192 56 56 (14450688)
I0403 15:28:19.991900  3123 net.cpp:156] Memory required for data: 361268256
I0403 15:28:19.991919  3123 layer_factory.hpp:77] Creating layer conv2/norm2
I0403 15:28:19.991943  3123 net.cpp:91] Creating Layer conv2/norm2
I0403 15:28:19.991962  3123 net.cpp:425] conv2/norm2 <- conv2/3x3
I0403 15:28:19.991983  3123 net.cpp:399] conv2/norm2 -> conv2/norm2
I0403 15:28:19.992326  3123 net.cpp:141] Setting up conv2/norm2
I0403 15:28:19.992355  3123 net.cpp:148] Top shape: 24 192 56 56 (14450688)
I0403 15:28:19.992374  3123 net.cpp:156] Memory required for data: 419071008
I0403 15:28:19.992390  3123 layer_factory.hpp:77] Creating layer pool2/3x3_s2
I0403 15:28:19.992415  3123 net.cpp:91] Creating Layer pool2/3x3_s2
I0403 15:28:19.992435  3123 net.cpp:425] pool2/3x3_s2 <- conv2/norm2
I0403 15:28:19.992456  3123 net.cpp:399] pool2/3x3_s2 -> pool2/3x3_s2
I0403 15:28:19.992518  3123 net.cpp:141] Setting up pool2/3x3_s2
I0403 15:28:19.992547  3123 net.cpp:148] Top shape: 24 192 28 28 (3612672)
I0403 15:28:19.992566  3123 net.cpp:156] Memory required for data: 433521696
I0403 15:28:19.992583  3123 layer_factory.hpp:77] Creating layer pool2/3x3_s2_pool2/3x3_s2_0_split
I0403 15:28:19.992604  3123 net.cpp:91] Creating Layer pool2/3x3_s2_pool2/3x3_s2_0_split
I0403 15:28:19.992626  3123 net.cpp:425] pool2/3x3_s2_pool2/3x3_s2_0_split <- pool2/3x3_s2
I0403 15:28:19.992647  3123 net.cpp:399] pool2/3x3_s2_pool2/3x3_s2_0_split -> pool2/3x3_s2_pool2/3x3_s2_0_split_0
I0403 15:28:19.992671  3123 net.cpp:399] pool2/3x3_s2_pool2/3x3_s2_0_split -> pool2/3x3_s2_pool2/3x3_s2_0_split_1
I0403 15:28:19.992696  3123 net.cpp:399] pool2/3x3_s2_pool2/3x3_s2_0_split -> pool2/3x3_s2_pool2/3x3_s2_0_split_2
I0403 15:28:19.992717  3123 net.cpp:399] pool2/3x3_s2_pool2/3x3_s2_0_split -> pool2/3x3_s2_pool2/3x3_s2_0_split_3
I0403 15:28:19.992797  3123 net.cpp:141] Setting up pool2/3x3_s2_pool2/3x3_s2_0_split
I0403 15:28:19.992822  3123 net.cpp:148] Top shape: 24 192 28 28 (3612672)
I0403 15:28:19.992842  3123 net.cpp:148] Top shape: 24 192 28 28 (3612672)
I0403 15:28:19.992861  3123 net.cpp:148] Top shape: 24 192 28 28 (3612672)
I0403 15:28:19.992880  3123 net.cpp:148] Top shape: 24 192 28 28 (3612672)
I0403 15:28:19.992899  3123 net.cpp:156] Memory required for data: 491324448
I0403 15:28:19.992916  3123 layer_factory.hpp:77] Creating layer inception_3a/1x1
I0403 15:28:19.992946  3123 net.cpp:91] Creating Layer inception_3a/1x1
I0403 15:28:19.992969  3123 net.cpp:425] inception_3a/1x1 <- pool2/3x3_s2_pool2/3x3_s2_0_split_0
I0403 15:28:19.992991  3123 net.cpp:399] inception_3a/1x1 -> inception_3a/1x1
I0403 15:28:19.994616  3123 net.cpp:141] Setting up inception_3a/1x1
I0403 15:28:19.994649  3123 net.cpp:148] Top shape: 24 64 28 28 (1204224)
I0403 15:28:19.994668  3123 net.cpp:156] Memory required for data: 496141344
I0403 15:28:19.994688  3123 layer_factory.hpp:77] Creating layer inception_3a/relu_1x1
I0403 15:28:19.994707  3123 net.cpp:91] Creating Layer inception_3a/relu_1x1
I0403 15:28:19.994724  3123 net.cpp:425] inception_3a/relu_1x1 <- inception_3a/1x1
I0403 15:28:19.994742  3123 net.cpp:386] inception_3a/relu_1x1 -> inception_3a/1x1 (in-place)
I0403 15:28:19.994925  3123 net.cpp:141] Setting up inception_3a/relu_1x1
I0403 15:28:19.994951  3123 net.cpp:148] Top shape: 24 64 28 28 (1204224)
I0403 15:28:19.994967  3123 net.cpp:156] Memory required for data: 500958240
I0403 15:28:19.994982  3123 layer_factory.hpp:77] Creating layer inception_3a/3x3_reduce
I0403 15:28:19.995008  3123 net.cpp:91] Creating Layer inception_3a/3x3_reduce
I0403 15:28:19.995026  3123 net.cpp:425] inception_3a/3x3_reduce <- pool2/3x3_s2_pool2/3x3_s2_0_split_1
I0403 15:28:19.995049  3123 net.cpp:399] inception_3a/3x3_reduce -> inception_3a/3x3_reduce
I0403 15:28:19.996829  3123 net.cpp:141] Setting up inception_3a/3x3_reduce
I0403 15:28:19.996865  3123 net.cpp:148] Top shape: 24 96 28 28 (1806336)
I0403 15:28:19.996884  3123 net.cpp:156] Memory required for data: 508183584
I0403 15:28:19.996908  3123 layer_factory.hpp:77] Creating layer inception_3a/relu_3x3_reduce
I0403 15:28:19.996953  3123 net.cpp:91] Creating Layer inception_3a/relu_3x3_reduce
I0403 15:28:19.996973  3123 net.cpp:425] inception_3a/relu_3x3_reduce <- inception_3a/3x3_reduce
I0403 15:28:19.996991  3123 net.cpp:386] inception_3a/relu_3x3_reduce -> inception_3a/3x3_reduce (in-place)
I0403 15:28:19.997191  3123 net.cpp:141] Setting up inception_3a/relu_3x3_reduce
I0403 15:28:19.997220  3123 net.cpp:148] Top shape: 24 96 28 28 (1806336)
I0403 15:28:19.997236  3123 net.cpp:156] Memory required for data: 515408928
I0403 15:28:19.997251  3123 layer_factory.hpp:77] Creating layer inception_3a/3x3
I0403 15:28:19.997277  3123 net.cpp:91] Creating Layer inception_3a/3x3
I0403 15:28:19.997295  3123 net.cpp:425] inception_3a/3x3 <- inception_3a/3x3_reduce
I0403 15:28:19.997316  3123 net.cpp:399] inception_3a/3x3 -> inception_3a/3x3
I0403 15:28:19.999089  3123 net.cpp:141] Setting up inception_3a/3x3
I0403 15:28:19.999119  3123 net.cpp:148] Top shape: 24 128 28 28 (2408448)
I0403 15:28:19.999136  3123 net.cpp:156] Memory required for data: 525042720
I0403 15:28:19.999156  3123 layer_factory.hpp:77] Creating layer inception_3a/relu_3x3
I0403 15:28:19.999176  3123 net.cpp:91] Creating Layer inception_3a/relu_3x3
I0403 15:28:19.999199  3123 net.cpp:425] inception_3a/relu_3x3 <- inception_3a/3x3
I0403 15:28:19.999222  3123 net.cpp:386] inception_3a/relu_3x3 -> inception_3a/3x3 (in-place)
I0403 15:28:19.999516  3123 net.cpp:141] Setting up inception_3a/relu_3x3
I0403 15:28:19.999544  3123 net.cpp:148] Top shape: 24 128 28 28 (2408448)
I0403 15:28:19.999562  3123 net.cpp:156] Memory required for data: 534676512
I0403 15:28:19.999577  3123 layer_factory.hpp:77] Creating layer inception_3a/5x5_reduce
I0403 15:28:19.999599  3123 net.cpp:91] Creating Layer inception_3a/5x5_reduce
I0403 15:28:19.999619  3123 net.cpp:425] inception_3a/5x5_reduce <- pool2/3x3_s2_pool2/3x3_s2_0_split_2
I0403 15:28:19.999640  3123 net.cpp:399] inception_3a/5x5_reduce -> inception_3a/5x5_reduce
I0403 15:28:20.000656  3123 net.cpp:141] Setting up inception_3a/5x5_reduce
I0403 15:28:20.000687  3123 net.cpp:148] Top shape: 24 16 28 28 (301056)
I0403 15:28:20.000706  3123 net.cpp:156] Memory required for data: 535880736
I0403 15:28:20.000727  3123 layer_factory.hpp:77] Creating layer inception_3a/relu_5x5_reduce
I0403 15:28:20.000749  3123 net.cpp:91] Creating Layer inception_3a/relu_5x5_reduce
I0403 15:28:20.000767  3123 net.cpp:425] inception_3a/relu_5x5_reduce <- inception_3a/5x5_reduce
I0403 15:28:20.000789  3123 net.cpp:386] inception_3a/relu_5x5_reduce -> inception_3a/5x5_reduce (in-place)
I0403 15:28:20.001107  3123 net.cpp:141] Setting up inception_3a/relu_5x5_reduce
I0403 15:28:20.001135  3123 net.cpp:148] Top shape: 24 16 28 28 (301056)
I0403 15:28:20.001152  3123 net.cpp:156] Memory required for data: 537084960
I0403 15:28:20.001168  3123 layer_factory.hpp:77] Creating layer inception_3a/5x5
I0403 15:28:20.001199  3123 net.cpp:91] Creating Layer inception_3a/5x5
I0403 15:28:20.001219  3123 net.cpp:425] inception_3a/5x5 <- inception_3a/5x5_reduce
I0403 15:28:20.001267  3123 net.cpp:399] inception_3a/5x5 -> inception_3a/5x5
I0403 15:28:20.002334  3123 net.cpp:141] Setting up inception_3a/5x5
I0403 15:28:20.002367  3123 net.cpp:148] Top shape: 24 32 28 28 (602112)
I0403 15:28:20.002384  3123 net.cpp:156] Memory required for data: 539493408
I0403 15:28:20.002403  3123 layer_factory.hpp:77] Creating layer inception_3a/relu_5x5
I0403 15:28:20.002423  3123 net.cpp:91] Creating Layer inception_3a/relu_5x5
I0403 15:28:20.002439  3123 net.cpp:425] inception_3a/relu_5x5 <- inception_3a/5x5
I0403 15:28:20.002460  3123 net.cpp:386] inception_3a/relu_5x5 -> inception_3a/5x5 (in-place)
I0403 15:28:20.002645  3123 net.cpp:141] Setting up inception_3a/relu_5x5
I0403 15:28:20.002672  3123 net.cpp:148] Top shape: 24 32 28 28 (602112)
I0403 15:28:20.002688  3123 net.cpp:156] Memory required for data: 541901856
I0403 15:28:20.002704  3123 layer_factory.hpp:77] Creating layer inception_3a/pool
I0403 15:28:20.002727  3123 net.cpp:91] Creating Layer inception_3a/pool
I0403 15:28:20.002761  3123 net.cpp:425] inception_3a/pool <- pool2/3x3_s2_pool2/3x3_s2_0_split_3
I0403 15:28:20.002781  3123 net.cpp:399] inception_3a/pool -> inception_3a/pool
I0403 15:28:20.002845  3123 net.cpp:141] Setting up inception_3a/pool
I0403 15:28:20.002869  3123 net.cpp:148] Top shape: 24 192 28 28 (3612672)
I0403 15:28:20.002884  3123 net.cpp:156] Memory required for data: 556352544
I0403 15:28:20.002900  3123 layer_factory.hpp:77] Creating layer inception_3a/pool_proj
I0403 15:28:20.002923  3123 net.cpp:91] Creating Layer inception_3a/pool_proj
I0403 15:28:20.002941  3123 net.cpp:425] inception_3a/pool_proj <- inception_3a/pool
I0403 15:28:20.002964  3123 net.cpp:399] inception_3a/pool_proj -> inception_3a/pool_proj
I0403 15:28:20.003999  3123 net.cpp:141] Setting up inception_3a/pool_proj
I0403 15:28:20.004030  3123 net.cpp:148] Top shape: 24 32 28 28 (602112)
I0403 15:28:20.004052  3123 net.cpp:156] Memory required for data: 558760992
I0403 15:28:20.004078  3123 layer_factory.hpp:77] Creating layer inception_3a/relu_pool_proj
I0403 15:28:20.004102  3123 net.cpp:91] Creating Layer inception_3a/relu_pool_proj
I0403 15:28:20.004122  3123 net.cpp:425] inception_3a/relu_pool_proj <- inception_3a/pool_proj
I0403 15:28:20.004142  3123 net.cpp:386] inception_3a/relu_pool_proj -> inception_3a/pool_proj (in-place)
I0403 15:28:20.004438  3123 net.cpp:141] Setting up inception_3a/relu_pool_proj
I0403 15:28:20.004469  3123 net.cpp:148] Top shape: 24 32 28 28 (602112)
I0403 15:28:20.004488  3123 net.cpp:156] Memory required for data: 561169440
I0403 15:28:20.004504  3123 layer_factory.hpp:77] Creating layer inception_3a/output
I0403 15:28:20.004525  3123 net.cpp:91] Creating Layer inception_3a/output
I0403 15:28:20.004544  3123 net.cpp:425] inception_3a/output <- inception_3a/1x1
I0403 15:28:20.004562  3123 net.cpp:425] inception_3a/output <- inception_3a/3x3
I0403 15:28:20.004581  3123 net.cpp:425] inception_3a/output <- inception_3a/5x5
I0403 15:28:20.004601  3123 net.cpp:425] inception_3a/output <- inception_3a/pool_proj
I0403 15:28:20.004634  3123 net.cpp:399] inception_3a/output -> inception_3a/output
I0403 15:28:20.004686  3123 net.cpp:141] Setting up inception_3a/output
I0403 15:28:20.004715  3123 net.cpp:148] Top shape: 24 256 28 28 (4816896)
I0403 15:28:20.004734  3123 net.cpp:156] Memory required for data: 580437024
I0403 15:28:20.004750  3123 layer_factory.hpp:77] Creating layer inception_3a/output_inception_3a/output_0_split
I0403 15:28:20.004771  3123 net.cpp:91] Creating Layer inception_3a/output_inception_3a/output_0_split
I0403 15:28:20.004788  3123 net.cpp:425] inception_3a/output_inception_3a/output_0_split <- inception_3a/output
I0403 15:28:20.004811  3123 net.cpp:399] inception_3a/output_inception_3a/output_0_split -> inception_3a/output_inception_3a/output_0_split_0
I0403 15:28:20.004833  3123 net.cpp:399] inception_3a/output_inception_3a/output_0_split -> inception_3a/output_inception_3a/output_0_split_1
I0403 15:28:20.004863  3123 net.cpp:399] inception_3a/output_inception_3a/output_0_split -> inception_3a/output_inception_3a/output_0_split_2
I0403 15:28:20.004889  3123 net.cpp:399] inception_3a/output_inception_3a/output_0_split -> inception_3a/output_inception_3a/output_0_split_3
I0403 15:28:20.004973  3123 net.cpp:141] Setting up inception_3a/output_inception_3a/output_0_split
I0403 15:28:20.005002  3123 net.cpp:148] Top shape: 24 256 28 28 (4816896)
I0403 15:28:20.005022  3123 net.cpp:148] Top shape: 24 256 28 28 (4816896)
I0403 15:28:20.005039  3123 net.cpp:148] Top shape: 24 256 28 28 (4816896)
I0403 15:28:20.005058  3123 net.cpp:148] Top shape: 24 256 28 28 (4816896)
I0403 15:28:20.005075  3123 net.cpp:156] Memory required for data: 657507360
I0403 15:28:20.005094  3123 layer_factory.hpp:77] Creating layer inception_3b/1x1
I0403 15:28:20.005122  3123 net.cpp:91] Creating Layer inception_3b/1x1
I0403 15:28:20.005142  3123 net.cpp:425] inception_3b/1x1 <- inception_3a/output_inception_3a/output_0_split_0
I0403 15:28:20.005163  3123 net.cpp:399] inception_3b/1x1 -> inception_3b/1x1
I0403 15:28:20.006381  3123 net.cpp:141] Setting up inception_3b/1x1
I0403 15:28:20.006430  3123 net.cpp:148] Top shape: 24 128 28 28 (2408448)
I0403 15:28:20.006449  3123 net.cpp:156] Memory required for data: 667141152
I0403 15:28:20.006471  3123 layer_factory.hpp:77] Creating layer inception_3b/relu_1x1
I0403 15:28:20.006494  3123 net.cpp:91] Creating Layer inception_3b/relu_1x1
I0403 15:28:20.006510  3123 net.cpp:425] inception_3b/relu_1x1 <- inception_3b/1x1
I0403 15:28:20.006532  3123 net.cpp:386] inception_3b/relu_1x1 -> inception_3b/1x1 (in-place)
I0403 15:28:20.006728  3123 net.cpp:141] Setting up inception_3b/relu_1x1
I0403 15:28:20.006764  3123 net.cpp:148] Top shape: 24 128 28 28 (2408448)
I0403 15:28:20.006780  3123 net.cpp:156] Memory required for data: 676774944
I0403 15:28:20.006796  3123 layer_factory.hpp:77] Creating layer inception_3b/3x3_reduce
I0403 15:28:20.006820  3123 net.cpp:91] Creating Layer inception_3b/3x3_reduce
I0403 15:28:20.006839  3123 net.cpp:425] inception_3b/3x3_reduce <- inception_3a/output_inception_3a/output_0_split_1
I0403 15:28:20.006861  3123 net.cpp:399] inception_3b/3x3_reduce -> inception_3b/3x3_reduce
I0403 15:28:20.008065  3123 net.cpp:141] Setting up inception_3b/3x3_reduce
I0403 15:28:20.008100  3123 net.cpp:148] Top shape: 24 128 28 28 (2408448)
I0403 15:28:20.008118  3123 net.cpp:156] Memory required for data: 686408736
I0403 15:28:20.008141  3123 layer_factory.hpp:77] Creating layer inception_3b/relu_3x3_reduce
I0403 15:28:20.008162  3123 net.cpp:91] Creating Layer inception_3b/relu_3x3_reduce
I0403 15:28:20.008185  3123 net.cpp:425] inception_3b/relu_3x3_reduce <- inception_3b/3x3_reduce
I0403 15:28:20.008205  3123 net.cpp:386] inception_3b/relu_3x3_reduce -> inception_3b/3x3_reduce (in-place)
I0403 15:28:20.008391  3123 net.cpp:141] Setting up inception_3b/relu_3x3_reduce
I0403 15:28:20.008419  3123 net.cpp:148] Top shape: 24 128 28 28 (2408448)
I0403 15:28:20.008435  3123 net.cpp:156] Memory required for data: 696042528
I0403 15:28:20.008452  3123 layer_factory.hpp:77] Creating layer inception_3b/3x3
I0403 15:28:20.008484  3123 net.cpp:91] Creating Layer inception_3b/3x3
I0403 15:28:20.008504  3123 net.cpp:425] inception_3b/3x3 <- inception_3b/3x3_reduce
I0403 15:28:20.008528  3123 net.cpp:399] inception_3b/3x3 -> inception_3b/3x3
I0403 15:28:20.011626  3123 net.cpp:141] Setting up inception_3b/3x3
I0403 15:28:20.011658  3123 net.cpp:148] Top shape: 24 192 28 28 (3612672)
I0403 15:28:20.011677  3123 net.cpp:156] Memory required for data: 710493216
I0403 15:28:20.011698  3123 layer_factory.hpp:77] Creating layer inception_3b/relu_3x3
I0403 15:28:20.011716  3123 net.cpp:91] Creating Layer inception_3b/relu_3x3
I0403 15:28:20.011736  3123 net.cpp:425] inception_3b/relu_3x3 <- inception_3b/3x3
I0403 15:28:20.011757  3123 net.cpp:386] inception_3b/relu_3x3 -> inception_3b/3x3 (in-place)
I0403 15:28:20.012048  3123 net.cpp:141] Setting up inception_3b/relu_3x3
I0403 15:28:20.012078  3123 net.cpp:148] Top shape: 24 192 28 28 (3612672)
I0403 15:28:20.012094  3123 net.cpp:156] Memory required for data: 724943904
I0403 15:28:20.012110  3123 layer_factory.hpp:77] Creating layer inception_3b/5x5_reduce
I0403 15:28:20.012133  3123 net.cpp:91] Creating Layer inception_3b/5x5_reduce
I0403 15:28:20.012156  3123 net.cpp:425] inception_3b/5x5_reduce <- inception_3a/output_inception_3a/output_0_split_2
I0403 15:28:20.012195  3123 net.cpp:399] inception_3b/5x5_reduce -> inception_3b/5x5_reduce
I0403 15:28:20.013259  3123 net.cpp:141] Setting up inception_3b/5x5_reduce
I0403 15:28:20.013290  3123 net.cpp:148] Top shape: 24 32 28 28 (602112)
I0403 15:28:20.013309  3123 net.cpp:156] Memory required for data: 727352352
I0403 15:28:20.013327  3123 layer_factory.hpp:77] Creating layer inception_3b/relu_5x5_reduce
I0403 15:28:20.013347  3123 net.cpp:91] Creating Layer inception_3b/relu_5x5_reduce
I0403 15:28:20.013366  3123 net.cpp:425] inception_3b/relu_5x5_reduce <- inception_3b/5x5_reduce
I0403 15:28:20.013386  3123 net.cpp:386] inception_3b/relu_5x5_reduce -> inception_3b/5x5_reduce (in-place)
I0403 15:28:20.013593  3123 net.cpp:141] Setting up inception_3b/relu_5x5_reduce
I0403 15:28:20.013622  3123 net.cpp:148] Top shape: 24 32 28 28 (602112)
I0403 15:28:20.013640  3123 net.cpp:156] Memory required for data: 729760800
I0403 15:28:20.013658  3123 layer_factory.hpp:77] Creating layer inception_3b/5x5
I0403 15:28:20.013681  3123 net.cpp:91] Creating Layer inception_3b/5x5
I0403 15:28:20.013700  3123 net.cpp:425] inception_3b/5x5 <- inception_3b/5x5_reduce
I0403 15:28:20.013727  3123 net.cpp:399] inception_3b/5x5 -> inception_3b/5x5
I0403 15:28:20.015808  3123 net.cpp:141] Setting up inception_3b/5x5
I0403 15:28:20.015841  3123 net.cpp:148] Top shape: 24 96 28 28 (1806336)
I0403 15:28:20.015861  3123 net.cpp:156] Memory required for data: 736986144
I0403 15:28:20.015880  3123 layer_factory.hpp:77] Creating layer inception_3b/relu_5x5
I0403 15:28:20.015902  3123 net.cpp:91] Creating Layer inception_3b/relu_5x5
I0403 15:28:20.015921  3123 net.cpp:425] inception_3b/relu_5x5 <- inception_3b/5x5
I0403 15:28:20.015940  3123 net.cpp:386] inception_3b/relu_5x5 -> inception_3b/5x5 (in-place)
I0403 15:28:20.016144  3123 net.cpp:141] Setting up inception_3b/relu_5x5
I0403 15:28:20.016171  3123 net.cpp:148] Top shape: 24 96 28 28 (1806336)
I0403 15:28:20.016191  3123 net.cpp:156] Memory required for data: 744211488
I0403 15:28:20.016208  3123 layer_factory.hpp:77] Creating layer inception_3b/pool
I0403 15:28:20.016230  3123 net.cpp:91] Creating Layer inception_3b/pool
I0403 15:28:20.016248  3123 net.cpp:425] inception_3b/pool <- inception_3a/output_inception_3a/output_0_split_3
I0403 15:28:20.016270  3123 net.cpp:399] inception_3b/pool -> inception_3b/pool
I0403 15:28:20.016333  3123 net.cpp:141] Setting up inception_3b/pool
I0403 15:28:20.016361  3123 net.cpp:148] Top shape: 24 256 28 28 (4816896)
I0403 15:28:20.016379  3123 net.cpp:156] Memory required for data: 763479072
I0403 15:28:20.016396  3123 layer_factory.hpp:77] Creating layer inception_3b/pool_proj
I0403 15:28:20.016420  3123 net.cpp:91] Creating Layer inception_3b/pool_proj
I0403 15:28:20.016440  3123 net.cpp:425] inception_3b/pool_proj <- inception_3b/pool
I0403 15:28:20.016461  3123 net.cpp:399] inception_3b/pool_proj -> inception_3b/pool_proj
I0403 15:28:20.017582  3123 net.cpp:141] Setting up inception_3b/pool_proj
I0403 15:28:20.017612  3123 net.cpp:148] Top shape: 24 64 28 28 (1204224)
I0403 15:28:20.017629  3123 net.cpp:156] Memory required for data: 768295968
I0403 15:28:20.017652  3123 layer_factory.hpp:77] Creating layer inception_3b/relu_pool_proj
I0403 15:28:20.017674  3123 net.cpp:91] Creating Layer inception_3b/relu_pool_proj
I0403 15:28:20.017695  3123 net.cpp:425] inception_3b/relu_pool_proj <- inception_3b/pool_proj
I0403 15:28:20.017715  3123 net.cpp:386] inception_3b/relu_pool_proj -> inception_3b/pool_proj (in-place)
I0403 15:28:20.018139  3123 net.cpp:141] Setting up inception_3b/relu_pool_proj
I0403 15:28:20.018168  3123 net.cpp:148] Top shape: 24 64 28 28 (1204224)
I0403 15:28:20.018190  3123 net.cpp:156] Memory required for data: 773112864
I0403 15:28:20.018209  3123 layer_factory.hpp:77] Creating layer inception_3b/output
I0403 15:28:20.018227  3123 net.cpp:91] Creating Layer inception_3b/output
I0403 15:28:20.018245  3123 net.cpp:425] inception_3b/output <- inception_3b/1x1
I0403 15:28:20.018265  3123 net.cpp:425] inception_3b/output <- inception_3b/3x3
I0403 15:28:20.018281  3123 net.cpp:425] inception_3b/output <- inception_3b/5x5
I0403 15:28:20.018301  3123 net.cpp:425] inception_3b/output <- inception_3b/pool_proj
I0403 15:28:20.018319  3123 net.cpp:399] inception_3b/output -> inception_3b/output
I0403 15:28:20.018368  3123 net.cpp:141] Setting up inception_3b/output
I0403 15:28:20.018396  3123 net.cpp:148] Top shape: 24 480 28 28 (9031680)
I0403 15:28:20.018414  3123 net.cpp:156] Memory required for data: 809239584
I0403 15:28:20.018431  3123 layer_factory.hpp:77] Creating layer pool3/3x3_s2
I0403 15:28:20.018450  3123 net.cpp:91] Creating Layer pool3/3x3_s2
I0403 15:28:20.018471  3123 net.cpp:425] pool3/3x3_s2 <- inception_3b/output
I0403 15:28:20.018508  3123 net.cpp:399] pool3/3x3_s2 -> pool3/3x3_s2
I0403 15:28:20.018571  3123 net.cpp:141] Setting up pool3/3x3_s2
I0403 15:28:20.018595  3123 net.cpp:148] Top shape: 24 480 14 14 (2257920)
I0403 15:28:20.018612  3123 net.cpp:156] Memory required for data: 818271264
I0403 15:28:20.018631  3123 layer_factory.hpp:77] Creating layer pool3/3x3_s2_pool3/3x3_s2_0_split
I0403 15:28:20.018653  3123 net.cpp:91] Creating Layer pool3/3x3_s2_pool3/3x3_s2_0_split
I0403 15:28:20.018672  3123 net.cpp:425] pool3/3x3_s2_pool3/3x3_s2_0_split <- pool3/3x3_s2
I0403 15:28:20.018692  3123 net.cpp:399] pool3/3x3_s2_pool3/3x3_s2_0_split -> pool3/3x3_s2_pool3/3x3_s2_0_split_0
I0403 15:28:20.018712  3123 net.cpp:399] pool3/3x3_s2_pool3/3x3_s2_0_split -> pool3/3x3_s2_pool3/3x3_s2_0_split_1
I0403 15:28:20.018738  3123 net.cpp:399] pool3/3x3_s2_pool3/3x3_s2_0_split -> pool3/3x3_s2_pool3/3x3_s2_0_split_2
I0403 15:28:20.018760  3123 net.cpp:399] pool3/3x3_s2_pool3/3x3_s2_0_split -> pool3/3x3_s2_pool3/3x3_s2_0_split_3
I0403 15:28:20.018843  3123 net.cpp:141] Setting up pool3/3x3_s2_pool3/3x3_s2_0_split
I0403 15:28:20.018868  3123 net.cpp:148] Top shape: 24 480 14 14 (2257920)
I0403 15:28:20.018885  3123 net.cpp:148] Top shape: 24 480 14 14 (2257920)
I0403 15:28:20.018903  3123 net.cpp:148] Top shape: 24 480 14 14 (2257920)
I0403 15:28:20.018920  3123 net.cpp:148] Top shape: 24 480 14 14 (2257920)
I0403 15:28:20.018936  3123 net.cpp:156] Memory required for data: 854397984
I0403 15:28:20.018954  3123 layer_factory.hpp:77] Creating layer inception_4a/1x1
I0403 15:28:20.018976  3123 net.cpp:91] Creating Layer inception_4a/1x1
I0403 15:28:20.018996  3123 net.cpp:425] inception_4a/1x1 <- pool3/3x3_s2_pool3/3x3_s2_0_split_0
I0403 15:28:20.019019  3123 net.cpp:399] inception_4a/1x1 -> inception_4a/1x1
I0403 15:28:20.020687  3123 net.cpp:141] Setting up inception_4a/1x1
I0403 15:28:20.020716  3123 net.cpp:148] Top shape: 24 192 14 14 (903168)
I0403 15:28:20.020732  3123 net.cpp:156] Memory required for data: 858010656
I0403 15:28:20.020752  3123 layer_factory.hpp:77] Creating layer inception_4a/relu_1x1
I0403 15:28:20.020773  3123 net.cpp:91] Creating Layer inception_4a/relu_1x1
I0403 15:28:20.020790  3123 net.cpp:425] inception_4a/relu_1x1 <- inception_4a/1x1
I0403 15:28:20.020808  3123 net.cpp:386] inception_4a/relu_1x1 -> inception_4a/1x1 (in-place)
I0403 15:28:20.020994  3123 net.cpp:141] Setting up inception_4a/relu_1x1
I0403 15:28:20.021023  3123 net.cpp:148] Top shape: 24 192 14 14 (903168)
I0403 15:28:20.021039  3123 net.cpp:156] Memory required for data: 861623328
I0403 15:28:20.021055  3123 layer_factory.hpp:77] Creating layer inception_4a/3x3_reduce
I0403 15:28:20.021081  3123 net.cpp:91] Creating Layer inception_4a/3x3_reduce
I0403 15:28:20.021100  3123 net.cpp:425] inception_4a/3x3_reduce <- pool3/3x3_s2_pool3/3x3_s2_0_split_1
I0403 15:28:20.021119  3123 net.cpp:399] inception_4a/3x3_reduce -> inception_4a/3x3_reduce
I0403 15:28:20.022480  3123 net.cpp:141] Setting up inception_4a/3x3_reduce
I0403 15:28:20.022510  3123 net.cpp:148] Top shape: 24 96 14 14 (451584)
I0403 15:28:20.022526  3123 net.cpp:156] Memory required for data: 863429664
I0403 15:28:20.022555  3123 layer_factory.hpp:77] Creating layer inception_4a/relu_3x3_reduce
I0403 15:28:20.022583  3123 net.cpp:91] Creating Layer inception_4a/relu_3x3_reduce
I0403 15:28:20.022600  3123 net.cpp:425] inception_4a/relu_3x3_reduce <- inception_4a/3x3_reduce
I0403 15:28:20.022619  3123 net.cpp:386] inception_4a/relu_3x3_reduce -> inception_4a/3x3_reduce (in-place)
I0403 15:28:20.022806  3123 net.cpp:141] Setting up inception_4a/relu_3x3_reduce
I0403 15:28:20.022835  3123 net.cpp:148] Top shape: 24 96 14 14 (451584)
I0403 15:28:20.022850  3123 net.cpp:156] Memory required for data: 865236000
I0403 15:28:20.022866  3123 layer_factory.hpp:77] Creating layer inception_4a/3x3
I0403 15:28:20.022892  3123 net.cpp:91] Creating Layer inception_4a/3x3
I0403 15:28:20.022912  3123 net.cpp:425] inception_4a/3x3 <- inception_4a/3x3_reduce
I0403 15:28:20.022934  3123 net.cpp:399] inception_4a/3x3 -> inception_4a/3x3
I0403 15:28:20.025797  3123 net.cpp:141] Setting up inception_4a/3x3
I0403 15:28:20.025832  3123 net.cpp:148] Top shape: 24 208 14 14 (978432)
I0403 15:28:20.025851  3123 net.cpp:156] Memory required for data: 869149728
I0403 15:28:20.025871  3123 layer_factory.hpp:77] Creating layer inception_4a/relu_3x3
I0403 15:28:20.025890  3123 net.cpp:91] Creating Layer inception_4a/relu_3x3
I0403 15:28:20.025909  3123 net.cpp:425] inception_4a/relu_3x3 <- inception_4a/3x3
I0403 15:28:20.025928  3123 net.cpp:386] inception_4a/relu_3x3 -> inception_4a/3x3 (in-place)
I0403 15:28:20.026233  3123 net.cpp:141] Setting up inception_4a/relu_3x3
I0403 15:28:20.026265  3123 net.cpp:148] Top shape: 24 208 14 14 (978432)
I0403 15:28:20.026283  3123 net.cpp:156] Memory required for data: 873063456
I0403 15:28:20.026298  3123 layer_factory.hpp:77] Creating layer inception_4a/5x5_reduce
I0403 15:28:20.026321  3123 net.cpp:91] Creating Layer inception_4a/5x5_reduce
I0403 15:28:20.026340  3123 net.cpp:425] inception_4a/5x5_reduce <- pool3/3x3_s2_pool3/3x3_s2_0_split_2
I0403 15:28:20.026360  3123 net.cpp:399] inception_4a/5x5_reduce -> inception_4a/5x5_reduce
I0403 15:28:20.027452  3123 net.cpp:141] Setting up inception_4a/5x5_reduce
I0403 15:28:20.027485  3123 net.cpp:148] Top shape: 24 16 14 14 (75264)
I0403 15:28:20.027504  3123 net.cpp:156] Memory required for data: 873364512
I0403 15:28:20.027524  3123 layer_factory.hpp:77] Creating layer inception_4a/relu_5x5_reduce
I0403 15:28:20.027544  3123 net.cpp:91] Creating Layer inception_4a/relu_5x5_reduce
I0403 15:28:20.027562  3123 net.cpp:425] inception_4a/relu_5x5_reduce <- inception_4a/5x5_reduce
I0403 15:28:20.027585  3123 net.cpp:386] inception_4a/relu_5x5_reduce -> inception_4a/5x5_reduce (in-place)
I0403 15:28:20.027776  3123 net.cpp:141] Setting up inception_4a/relu_5x5_reduce
I0403 15:28:20.027802  3123 net.cpp:148] Top shape: 24 16 14 14 (75264)
I0403 15:28:20.027818  3123 net.cpp:156] Memory required for data: 873665568
I0403 15:28:20.027835  3123 layer_factory.hpp:77] Creating layer inception_4a/5x5
I0403 15:28:20.027860  3123 net.cpp:91] Creating Layer inception_4a/5x5
I0403 15:28:20.027879  3123 net.cpp:425] inception_4a/5x5 <- inception_4a/5x5_reduce
I0403 15:28:20.027901  3123 net.cpp:399] inception_4a/5x5 -> inception_4a/5x5
I0403 15:28:20.029055  3123 net.cpp:141] Setting up inception_4a/5x5
I0403 15:28:20.029083  3123 net.cpp:148] Top shape: 24 48 14 14 (225792)
I0403 15:28:20.029100  3123 net.cpp:156] Memory required for data: 874568736
I0403 15:28:20.029119  3123 layer_factory.hpp:77] Creating layer inception_4a/relu_5x5
I0403 15:28:20.029141  3123 net.cpp:91] Creating Layer inception_4a/relu_5x5
I0403 15:28:20.029160  3123 net.cpp:425] inception_4a/relu_5x5 <- inception_4a/5x5
I0403 15:28:20.029181  3123 net.cpp:386] inception_4a/relu_5x5 -> inception_4a/5x5 (in-place)
I0403 15:28:20.029374  3123 net.cpp:141] Setting up inception_4a/relu_5x5
I0403 15:28:20.029402  3123 net.cpp:148] Top shape: 24 48 14 14 (225792)
I0403 15:28:20.029422  3123 net.cpp:156] Memory required for data: 875471904
I0403 15:28:20.029439  3123 layer_factory.hpp:77] Creating layer inception_4a/pool
I0403 15:28:20.029459  3123 net.cpp:91] Creating Layer inception_4a/pool
I0403 15:28:20.029476  3123 net.cpp:425] inception_4a/pool <- pool3/3x3_s2_pool3/3x3_s2_0_split_3
I0403 15:28:20.029496  3123 net.cpp:399] inception_4a/pool -> inception_4a/pool
I0403 15:28:20.029563  3123 net.cpp:141] Setting up inception_4a/pool
I0403 15:28:20.029588  3123 net.cpp:148] Top shape: 24 480 14 14 (2257920)
I0403 15:28:20.029606  3123 net.cpp:156] Memory required for data: 884503584
I0403 15:28:20.029623  3123 layer_factory.hpp:77] Creating layer inception_4a/pool_proj
I0403 15:28:20.029649  3123 net.cpp:91] Creating Layer inception_4a/pool_proj
I0403 15:28:20.029670  3123 net.cpp:425] inception_4a/pool_proj <- inception_4a/pool
I0403 15:28:20.029693  3123 net.cpp:399] inception_4a/pool_proj -> inception_4a/pool_proj
I0403 15:28:20.030946  3123 net.cpp:141] Setting up inception_4a/pool_proj
I0403 15:28:20.030975  3123 net.cpp:148] Top shape: 24 64 14 14 (301056)
I0403 15:28:20.031009  3123 net.cpp:156] Memory required for data: 885707808
I0403 15:28:20.031030  3123 layer_factory.hpp:77] Creating layer inception_4a/relu_pool_proj
I0403 15:28:20.031054  3123 net.cpp:91] Creating Layer inception_4a/relu_pool_proj
I0403 15:28:20.031072  3123 net.cpp:425] inception_4a/relu_pool_proj <- inception_4a/pool_proj
I0403 15:28:20.031090  3123 net.cpp:386] inception_4a/relu_pool_proj -> inception_4a/pool_proj (in-place)
I0403 15:28:20.031393  3123 net.cpp:141] Setting up inception_4a/relu_pool_proj
I0403 15:28:20.031420  3123 net.cpp:148] Top shape: 24 64 14 14 (301056)
I0403 15:28:20.031437  3123 net.cpp:156] Memory required for data: 886912032
I0403 15:28:20.031456  3123 layer_factory.hpp:77] Creating layer inception_4a/output
I0403 15:28:20.031479  3123 net.cpp:91] Creating Layer inception_4a/output
I0403 15:28:20.031497  3123 net.cpp:425] inception_4a/output <- inception_4a/1x1
I0403 15:28:20.031515  3123 net.cpp:425] inception_4a/output <- inception_4a/3x3
I0403 15:28:20.031533  3123 net.cpp:425] inception_4a/output <- inception_4a/5x5
I0403 15:28:20.031551  3123 net.cpp:425] inception_4a/output <- inception_4a/pool_proj
I0403 15:28:20.031571  3123 net.cpp:399] inception_4a/output -> inception_4a/output
I0403 15:28:20.031621  3123 net.cpp:141] Setting up inception_4a/output
I0403 15:28:20.031646  3123 net.cpp:148] Top shape: 24 512 14 14 (2408448)
I0403 15:28:20.031663  3123 net.cpp:156] Memory required for data: 896545824
I0403 15:28:20.031680  3123 layer_factory.hpp:77] Creating layer inception_4a/output_inception_4a/output_0_split
I0403 15:28:20.031699  3123 net.cpp:91] Creating Layer inception_4a/output_inception_4a/output_0_split
I0403 15:28:20.031716  3123 net.cpp:425] inception_4a/output_inception_4a/output_0_split <- inception_4a/output
I0403 15:28:20.031736  3123 net.cpp:399] inception_4a/output_inception_4a/output_0_split -> inception_4a/output_inception_4a/output_0_split_0
I0403 15:28:20.031760  3123 net.cpp:399] inception_4a/output_inception_4a/output_0_split -> inception_4a/output_inception_4a/output_0_split_1
I0403 15:28:20.031781  3123 net.cpp:399] inception_4a/output_inception_4a/output_0_split -> inception_4a/output_inception_4a/output_0_split_2
I0403 15:28:20.031805  3123 net.cpp:399] inception_4a/output_inception_4a/output_0_split -> inception_4a/output_inception_4a/output_0_split_3
I0403 15:28:20.031827  3123 net.cpp:399] inception_4a/output_inception_4a/output_0_split -> inception_4a/output_inception_4a/output_0_split_4
I0403 15:28:20.031926  3123 net.cpp:141] Setting up inception_4a/output_inception_4a/output_0_split
I0403 15:28:20.031951  3123 net.cpp:148] Top shape: 24 512 14 14 (2408448)
I0403 15:28:20.031971  3123 net.cpp:148] Top shape: 24 512 14 14 (2408448)
I0403 15:28:20.031990  3123 net.cpp:148] Top shape: 24 512 14 14 (2408448)
I0403 15:28:20.032006  3123 net.cpp:148] Top shape: 24 512 14 14 (2408448)
I0403 15:28:20.032024  3123 net.cpp:148] Top shape: 24 512 14 14 (2408448)
I0403 15:28:20.032038  3123 net.cpp:156] Memory required for data: 944714784
I0403 15:28:20.032055  3123 layer_factory.hpp:77] Creating layer loss1/ave_pool
I0403 15:28:20.032075  3123 net.cpp:91] Creating Layer loss1/ave_pool
I0403 15:28:20.032093  3123 net.cpp:425] loss1/ave_pool <- inception_4a/output_inception_4a/output_0_split_0
I0403 15:28:20.032114  3123 net.cpp:399] loss1/ave_pool -> loss1/ave_pool
I0403 15:28:20.032344  3123 net.cpp:141] Setting up loss1/ave_pool
I0403 15:28:20.032372  3123 net.cpp:148] Top shape: 24 512 4 4 (196608)
I0403 15:28:20.032390  3123 net.cpp:156] Memory required for data: 945501216
I0403 15:28:20.032408  3123 layer_factory.hpp:77] Creating layer loss1/conv
I0403 15:28:20.032434  3123 net.cpp:91] Creating Layer loss1/conv
I0403 15:28:20.032454  3123 net.cpp:425] loss1/conv <- loss1/ave_pool
I0403 15:28:20.032479  3123 net.cpp:399] loss1/conv -> loss1/conv
I0403 15:28:20.033993  3123 net.cpp:141] Setting up loss1/conv
I0403 15:28:20.034027  3123 net.cpp:148] Top shape: 24 128 4 4 (49152)
I0403 15:28:20.034059  3123 net.cpp:156] Memory required for data: 945697824
I0403 15:28:20.034080  3123 layer_factory.hpp:77] Creating layer loss1/relu_conv
I0403 15:28:20.034101  3123 net.cpp:91] Creating Layer loss1/relu_conv
I0403 15:28:20.034118  3123 net.cpp:425] loss1/relu_conv <- loss1/conv
I0403 15:28:20.034137  3123 net.cpp:386] loss1/relu_conv -> loss1/conv (in-place)
I0403 15:28:20.034437  3123 net.cpp:141] Setting up loss1/relu_conv
I0403 15:28:20.034469  3123 net.cpp:148] Top shape: 24 128 4 4 (49152)
I0403 15:28:20.034488  3123 net.cpp:156] Memory required for data: 945894432
I0403 15:28:20.034507  3123 layer_factory.hpp:77] Creating layer loss1/fc
I0403 15:28:20.034533  3123 net.cpp:91] Creating Layer loss1/fc
I0403 15:28:20.034553  3123 net.cpp:425] loss1/fc <- loss1/conv
I0403 15:28:20.034575  3123 net.cpp:399] loss1/fc -> loss1/fc
I0403 15:28:20.054074  3123 net.cpp:141] Setting up loss1/fc
I0403 15:28:20.054119  3123 net.cpp:148] Top shape: 24 1024 (24576)
I0403 15:28:20.054137  3123 net.cpp:156] Memory required for data: 945992736
I0403 15:28:20.054159  3123 layer_factory.hpp:77] Creating layer loss1/relu_fc
I0403 15:28:20.054185  3123 net.cpp:91] Creating Layer loss1/relu_fc
I0403 15:28:20.054205  3123 net.cpp:425] loss1/relu_fc <- loss1/fc
I0403 15:28:20.054225  3123 net.cpp:386] loss1/relu_fc -> loss1/fc (in-place)
I0403 15:28:20.054466  3123 net.cpp:141] Setting up loss1/relu_fc
I0403 15:28:20.054494  3123 net.cpp:148] Top shape: 24 1024 (24576)
I0403 15:28:20.054512  3123 net.cpp:156] Memory required for data: 946091040
I0403 15:28:20.054527  3123 layer_factory.hpp:77] Creating layer loss1/drop_fc
I0403 15:28:20.054558  3123 net.cpp:91] Creating Layer loss1/drop_fc
I0403 15:28:20.054575  3123 net.cpp:425] loss1/drop_fc <- loss1/fc
I0403 15:28:20.054594  3123 net.cpp:386] loss1/drop_fc -> loss1/fc (in-place)
I0403 15:28:20.054652  3123 net.cpp:141] Setting up loss1/drop_fc
I0403 15:28:20.054677  3123 net.cpp:148] Top shape: 24 1024 (24576)
I0403 15:28:20.054692  3123 net.cpp:156] Memory required for data: 946189344
I0403 15:28:20.054708  3123 layer_factory.hpp:77] Creating layer loss1/classifier_plantvillage
I0403 15:28:20.054731  3123 net.cpp:91] Creating Layer loss1/classifier_plantvillage
I0403 15:28:20.054749  3123 net.cpp:425] loss1/classifier_plantvillage <- loss1/fc
I0403 15:28:20.054767  3123 net.cpp:399] loss1/classifier_plantvillage -> loss1/classifier_plantvillage
I0403 15:28:20.055775  3123 net.cpp:141] Setting up loss1/classifier_plantvillage
I0403 15:28:20.071285  3123 net.cpp:148] Top shape: 24 38 (912)
I0403 15:28:20.071316  3123 net.cpp:156] Memory required for data: 946192992
I0403 15:28:20.071336  3123 layer_factory.hpp:77] Creating layer loss1/classifier_plantvillage_loss1/classifier_plantvillage_0_split
I0403 15:28:20.071357  3123 net.cpp:91] Creating Layer loss1/classifier_plantvillage_loss1/classifier_plantvillage_0_split
I0403 15:28:20.071374  3123 net.cpp:425] loss1/classifier_plantvillage_loss1/classifier_plantvillage_0_split <- loss1/classifier_plantvillage
I0403 15:28:20.071393  3123 net.cpp:399] loss1/classifier_plantvillage_loss1/classifier_plantvillage_0_split -> loss1/classifier_plantvillage_loss1/classifier_plantvillage_0_split_0
I0403 15:28:20.071414  3123 net.cpp:399] loss1/classifier_plantvillage_loss1/classifier_plantvillage_0_split -> loss1/classifier_plantvillage_loss1/classifier_plantvillage_0_split_1
I0403 15:28:20.071435  3123 net.cpp:399] loss1/classifier_plantvillage_loss1/classifier_plantvillage_0_split -> loss1/classifier_plantvillage_loss1/classifier_plantvillage_0_split_2
I0403 15:28:20.071532  3123 net.cpp:141] Setting up loss1/classifier_plantvillage_loss1/classifier_plantvillage_0_split
I0403 15:28:20.071559  3123 net.cpp:148] Top shape: 24 38 (912)
I0403 15:28:20.071576  3123 net.cpp:148] Top shape: 24 38 (912)
I0403 15:28:20.071593  3123 net.cpp:148] Top shape: 24 38 (912)
I0403 15:28:20.071609  3123 net.cpp:156] Memory required for data: 946203936
I0403 15:28:20.071624  3123 layer_factory.hpp:77] Creating layer inception_4b/1x1
I0403 15:28:20.071648  3123 net.cpp:91] Creating Layer inception_4b/1x1
I0403 15:28:20.071689  3123 net.cpp:425] inception_4b/1x1 <- inception_4a/output_inception_4a/output_0_split_1
I0403 15:28:20.071713  3123 net.cpp:399] inception_4b/1x1 -> inception_4b/1x1
I0403 15:28:20.083652  3123 net.cpp:141] Setting up inception_4b/1x1
I0403 15:28:20.083688  3123 net.cpp:148] Top shape: 24 160 14 14 (752640)
I0403 15:28:20.083705  3123 net.cpp:156] Memory required for data: 949214496
I0403 15:28:20.083726  3123 layer_factory.hpp:77] Creating layer inception_4b/relu_1x1
I0403 15:28:20.083746  3123 net.cpp:91] Creating Layer inception_4b/relu_1x1
I0403 15:28:20.083762  3123 net.cpp:425] inception_4b/relu_1x1 <- inception_4b/1x1
I0403 15:28:20.083782  3123 net.cpp:386] inception_4b/relu_1x1 -> inception_4b/1x1 (in-place)
I0403 15:28:20.083977  3123 net.cpp:141] Setting up inception_4b/relu_1x1
I0403 15:28:20.084004  3123 net.cpp:148] Top shape: 24 160 14 14 (752640)
I0403 15:28:20.084020  3123 net.cpp:156] Memory required for data: 952225056
I0403 15:28:20.084035  3123 layer_factory.hpp:77] Creating layer inception_4b/3x3_reduce
I0403 15:28:20.084059  3123 net.cpp:91] Creating Layer inception_4b/3x3_reduce
I0403 15:28:20.084079  3123 net.cpp:425] inception_4b/3x3_reduce <- inception_4a/output_inception_4a/output_0_split_2
I0403 15:28:20.084100  3123 net.cpp:399] inception_4b/3x3_reduce -> inception_4b/3x3_reduce
I0403 15:28:20.085559  3123 net.cpp:141] Setting up inception_4b/3x3_reduce
I0403 15:28:20.085589  3123 net.cpp:148] Top shape: 24 112 14 14 (526848)
I0403 15:28:20.085605  3123 net.cpp:156] Memory required for data: 954332448
I0403 15:28:20.085624  3123 layer_factory.hpp:77] Creating layer inception_4b/relu_3x3_reduce
I0403 15:28:20.085646  3123 net.cpp:91] Creating Layer inception_4b/relu_3x3_reduce
I0403 15:28:20.085664  3123 net.cpp:425] inception_4b/relu_3x3_reduce <- inception_4b/3x3_reduce
I0403 15:28:20.085682  3123 net.cpp:386] inception_4b/relu_3x3_reduce -> inception_4b/3x3_reduce (in-place)
I0403 15:28:20.085986  3123 net.cpp:141] Setting up inception_4b/relu_3x3_reduce
I0403 15:28:20.086014  3123 net.cpp:148] Top shape: 24 112 14 14 (526848)
I0403 15:28:20.086030  3123 net.cpp:156] Memory required for data: 956439840
I0403 15:28:20.086045  3123 layer_factory.hpp:77] Creating layer inception_4b/3x3
I0403 15:28:20.086069  3123 net.cpp:91] Creating Layer inception_4b/3x3
I0403 15:28:20.086087  3123 net.cpp:425] inception_4b/3x3 <- inception_4b/3x3_reduce
I0403 15:28:20.086112  3123 net.cpp:399] inception_4b/3x3 -> inception_4b/3x3
I0403 15:28:20.089298  3123 net.cpp:141] Setting up inception_4b/3x3
I0403 15:28:20.089328  3123 net.cpp:148] Top shape: 24 224 14 14 (1053696)
I0403 15:28:20.089345  3123 net.cpp:156] Memory required for data: 960654624
I0403 15:28:20.089365  3123 layer_factory.hpp:77] Creating layer inception_4b/relu_3x3
I0403 15:28:20.089386  3123 net.cpp:91] Creating Layer inception_4b/relu_3x3
I0403 15:28:20.089406  3123 net.cpp:425] inception_4b/relu_3x3 <- inception_4b/3x3
I0403 15:28:20.089424  3123 net.cpp:386] inception_4b/relu_3x3 -> inception_4b/3x3 (in-place)
I0403 15:28:20.089618  3123 net.cpp:141] Setting up inception_4b/relu_3x3
I0403 15:28:20.089646  3123 net.cpp:148] Top shape: 24 224 14 14 (1053696)
I0403 15:28:20.089663  3123 net.cpp:156] Memory required for data: 964869408
I0403 15:28:20.089679  3123 layer_factory.hpp:77] Creating layer inception_4b/5x5_reduce
I0403 15:28:20.089702  3123 net.cpp:91] Creating Layer inception_4b/5x5_reduce
I0403 15:28:20.089720  3123 net.cpp:425] inception_4b/5x5_reduce <- inception_4a/output_inception_4a/output_0_split_3
I0403 15:28:20.089740  3123 net.cpp:399] inception_4b/5x5_reduce -> inception_4b/5x5_reduce
I0403 15:28:20.090912  3123 net.cpp:141] Setting up inception_4b/5x5_reduce
I0403 15:28:20.090945  3123 net.cpp:148] Top shape: 24 24 14 14 (112896)
I0403 15:28:20.090962  3123 net.cpp:156] Memory required for data: 965320992
I0403 15:28:20.090982  3123 layer_factory.hpp:77] Creating layer inception_4b/relu_5x5_reduce
I0403 15:28:20.091001  3123 net.cpp:91] Creating Layer inception_4b/relu_5x5_reduce
I0403 15:28:20.091034  3123 net.cpp:425] inception_4b/relu_5x5_reduce <- inception_4b/5x5_reduce
I0403 15:28:20.091058  3123 net.cpp:386] inception_4b/relu_5x5_reduce -> inception_4b/5x5_reduce (in-place)
I0403 15:28:20.091256  3123 net.cpp:141] Setting up inception_4b/relu_5x5_reduce
I0403 15:28:20.091286  3123 net.cpp:148] Top shape: 24 24 14 14 (112896)
I0403 15:28:20.091301  3123 net.cpp:156] Memory required for data: 965772576
I0403 15:28:20.091317  3123 layer_factory.hpp:77] Creating layer inception_4b/5x5
I0403 15:28:20.091341  3123 net.cpp:91] Creating Layer inception_4b/5x5
I0403 15:28:20.091359  3123 net.cpp:425] inception_4b/5x5 <- inception_4b/5x5_reduce
I0403 15:28:20.091382  3123 net.cpp:399] inception_4b/5x5 -> inception_4b/5x5
I0403 15:28:20.092686  3123 net.cpp:141] Setting up inception_4b/5x5
I0403 15:28:20.092718  3123 net.cpp:148] Top shape: 24 64 14 14 (301056)
I0403 15:28:20.092736  3123 net.cpp:156] Memory required for data: 966976800
I0403 15:28:20.092754  3123 layer_factory.hpp:77] Creating layer inception_4b/relu_5x5
I0403 15:28:20.092773  3123 net.cpp:91] Creating Layer inception_4b/relu_5x5
I0403 15:28:20.092790  3123 net.cpp:425] inception_4b/relu_5x5 <- inception_4b/5x5
I0403 15:28:20.092810  3123 net.cpp:386] inception_4b/relu_5x5 -> inception_4b/5x5 (in-place)
I0403 15:28:20.093108  3123 net.cpp:141] Setting up inception_4b/relu_5x5
I0403 15:28:20.093138  3123 net.cpp:148] Top shape: 24 64 14 14 (301056)
I0403 15:28:20.093154  3123 net.cpp:156] Memory required for data: 968181024
I0403 15:28:20.093170  3123 layer_factory.hpp:77] Creating layer inception_4b/pool
I0403 15:28:20.093202  3123 net.cpp:91] Creating Layer inception_4b/pool
I0403 15:28:20.093221  3123 net.cpp:425] inception_4b/pool <- inception_4a/output_inception_4a/output_0_split_4
I0403 15:28:20.093245  3123 net.cpp:399] inception_4b/pool -> inception_4b/pool
I0403 15:28:20.093315  3123 net.cpp:141] Setting up inception_4b/pool
I0403 15:28:20.093339  3123 net.cpp:148] Top shape: 24 512 14 14 (2408448)
I0403 15:28:20.093354  3123 net.cpp:156] Memory required for data: 977814816
I0403 15:28:20.093370  3123 layer_factory.hpp:77] Creating layer inception_4b/pool_proj
I0403 15:28:20.093395  3123 net.cpp:91] Creating Layer inception_4b/pool_proj
I0403 15:28:20.093413  3123 net.cpp:425] inception_4b/pool_proj <- inception_4b/pool
I0403 15:28:20.093432  3123 net.cpp:399] inception_4b/pool_proj -> inception_4b/pool_proj
I0403 15:28:20.094722  3123 net.cpp:141] Setting up inception_4b/pool_proj
I0403 15:28:20.094751  3123 net.cpp:148] Top shape: 24 64 14 14 (301056)
I0403 15:28:20.094768  3123 net.cpp:156] Memory required for data: 979019040
I0403 15:28:20.094787  3123 layer_factory.hpp:77] Creating layer inception_4b/relu_pool_proj
I0403 15:28:20.094806  3123 net.cpp:91] Creating Layer inception_4b/relu_pool_proj
I0403 15:28:20.094825  3123 net.cpp:425] inception_4b/relu_pool_proj <- inception_4b/pool_proj
I0403 15:28:20.094848  3123 net.cpp:386] inception_4b/relu_pool_proj -> inception_4b/pool_proj (in-place)
I0403 15:28:20.095038  3123 net.cpp:141] Setting up inception_4b/relu_pool_proj
I0403 15:28:20.095065  3123 net.cpp:148] Top shape: 24 64 14 14 (301056)
I0403 15:28:20.095080  3123 net.cpp:156] Memory required for data: 980223264
I0403 15:28:20.095096  3123 layer_factory.hpp:77] Creating layer inception_4b/output
I0403 15:28:20.095118  3123 net.cpp:91] Creating Layer inception_4b/output
I0403 15:28:20.095134  3123 net.cpp:425] inception_4b/output <- inception_4b/1x1
I0403 15:28:20.095151  3123 net.cpp:425] inception_4b/output <- inception_4b/3x3
I0403 15:28:20.095168  3123 net.cpp:425] inception_4b/output <- inception_4b/5x5
I0403 15:28:20.095191  3123 net.cpp:425] inception_4b/output <- inception_4b/pool_proj
I0403 15:28:20.095211  3123 net.cpp:399] inception_4b/output -> inception_4b/output
I0403 15:28:20.095258  3123 net.cpp:141] Setting up inception_4b/output
I0403 15:28:20.095285  3123 net.cpp:148] Top shape: 24 512 14 14 (2408448)
I0403 15:28:20.095302  3123 net.cpp:156] Memory required for data: 989857056
I0403 15:28:20.095332  3123 layer_factory.hpp:77] Creating layer inception_4b/output_inception_4b/output_0_split
I0403 15:28:20.095351  3123 net.cpp:91] Creating Layer inception_4b/output_inception_4b/output_0_split
I0403 15:28:20.095367  3123 net.cpp:425] inception_4b/output_inception_4b/output_0_split <- inception_4b/output
I0403 15:28:20.095388  3123 net.cpp:399] inception_4b/output_inception_4b/output_0_split -> inception_4b/output_inception_4b/output_0_split_0
I0403 15:28:20.095410  3123 net.cpp:399] inception_4b/output_inception_4b/output_0_split -> inception_4b/output_inception_4b/output_0_split_1
I0403 15:28:20.095432  3123 net.cpp:399] inception_4b/output_inception_4b/output_0_split -> inception_4b/output_inception_4b/output_0_split_2
I0403 15:28:20.095453  3123 net.cpp:399] inception_4b/output_inception_4b/output_0_split -> inception_4b/output_inception_4b/output_0_split_3
I0403 15:28:20.095541  3123 net.cpp:141] Setting up inception_4b/output_inception_4b/output_0_split
I0403 15:28:20.095568  3123 net.cpp:148] Top shape: 24 512 14 14 (2408448)
I0403 15:28:20.095587  3123 net.cpp:148] Top shape: 24 512 14 14 (2408448)
I0403 15:28:20.095603  3123 net.cpp:148] Top shape: 24 512 14 14 (2408448)
I0403 15:28:20.095620  3123 net.cpp:148] Top shape: 24 512 14 14 (2408448)
I0403 15:28:20.095634  3123 net.cpp:156] Memory required for data: 1028392224
I0403 15:28:20.095650  3123 layer_factory.hpp:77] Creating layer inception_4c/1x1
I0403 15:28:20.095674  3123 net.cpp:91] Creating Layer inception_4c/1x1
I0403 15:28:20.095692  3123 net.cpp:425] inception_4c/1x1 <- inception_4b/output_inception_4b/output_0_split_0
I0403 15:28:20.095711  3123 net.cpp:399] inception_4c/1x1 -> inception_4c/1x1
I0403 15:28:20.097406  3123 net.cpp:141] Setting up inception_4c/1x1
I0403 15:28:20.097437  3123 net.cpp:148] Top shape: 24 128 14 14 (602112)
I0403 15:28:20.097455  3123 net.cpp:156] Memory required for data: 1030800672
I0403 15:28:20.097476  3123 layer_factory.hpp:77] Creating layer inception_4c/relu_1x1
I0403 15:28:20.097497  3123 net.cpp:91] Creating Layer inception_4c/relu_1x1
I0403 15:28:20.097515  3123 net.cpp:425] inception_4c/relu_1x1 <- inception_4c/1x1
I0403 15:28:20.097533  3123 net.cpp:386] inception_4c/relu_1x1 -> inception_4c/1x1 (in-place)
I0403 15:28:20.097729  3123 net.cpp:141] Setting up inception_4c/relu_1x1
I0403 15:28:20.097757  3123 net.cpp:148] Top shape: 24 128 14 14 (602112)
I0403 15:28:20.097774  3123 net.cpp:156] Memory required for data: 1033209120
I0403 15:28:20.097790  3123 layer_factory.hpp:77] Creating layer inception_4c/3x3_reduce
I0403 15:28:20.097812  3123 net.cpp:91] Creating Layer inception_4c/3x3_reduce
I0403 15:28:20.097831  3123 net.cpp:425] inception_4c/3x3_reduce <- inception_4b/output_inception_4b/output_0_split_1
I0403 15:28:20.097851  3123 net.cpp:399] inception_4c/3x3_reduce -> inception_4c/3x3_reduce
I0403 15:28:20.099916  3123 net.cpp:141] Setting up inception_4c/3x3_reduce
I0403 15:28:20.099951  3123 net.cpp:148] Top shape: 24 128 14 14 (602112)
I0403 15:28:20.099968  3123 net.cpp:156] Memory required for data: 1035617568
I0403 15:28:20.099987  3123 layer_factory.hpp:77] Creating layer inception_4c/relu_3x3_reduce
I0403 15:28:20.100008  3123 net.cpp:91] Creating Layer inception_4c/relu_3x3_reduce
I0403 15:28:20.100024  3123 net.cpp:425] inception_4c/relu_3x3_reduce <- inception_4c/3x3_reduce
I0403 15:28:20.100045  3123 net.cpp:386] inception_4c/relu_3x3_reduce -> inception_4c/3x3_reduce (in-place)
I0403 15:28:20.100354  3123 net.cpp:141] Setting up inception_4c/relu_3x3_reduce
I0403 15:28:20.100384  3123 net.cpp:148] Top shape: 24 128 14 14 (602112)
I0403 15:28:20.100401  3123 net.cpp:156] Memory required for data: 1038026016
I0403 15:28:20.100417  3123 layer_factory.hpp:77] Creating layer inception_4c/3x3
I0403 15:28:20.100441  3123 net.cpp:91] Creating Layer inception_4c/3x3
I0403 15:28:20.100461  3123 net.cpp:425] inception_4c/3x3 <- inception_4c/3x3_reduce
I0403 15:28:20.100481  3123 net.cpp:399] inception_4c/3x3 -> inception_4c/3x3
I0403 15:28:20.104322  3123 net.cpp:141] Setting up inception_4c/3x3
I0403 15:28:20.104367  3123 net.cpp:148] Top shape: 24 256 14 14 (1204224)
I0403 15:28:20.104383  3123 net.cpp:156] Memory required for data: 1042842912
I0403 15:28:20.104418  3123 layer_factory.hpp:77] Creating layer inception_4c/relu_3x3
I0403 15:28:20.104440  3123 net.cpp:91] Creating Layer inception_4c/relu_3x3
I0403 15:28:20.104457  3123 net.cpp:425] inception_4c/relu_3x3 <- inception_4c/3x3
I0403 15:28:20.104477  3123 net.cpp:386] inception_4c/relu_3x3 -> inception_4c/3x3 (in-place)
I0403 15:28:20.104671  3123 net.cpp:141] Setting up inception_4c/relu_3x3
I0403 15:28:20.104698  3123 net.cpp:148] Top shape: 24 256 14 14 (1204224)
I0403 15:28:20.104714  3123 net.cpp:156] Memory required for data: 1047659808
I0403 15:28:20.104730  3123 layer_factory.hpp:77] Creating layer inception_4c/5x5_reduce
I0403 15:28:20.104754  3123 net.cpp:91] Creating Layer inception_4c/5x5_reduce
I0403 15:28:20.104773  3123 net.cpp:425] inception_4c/5x5_reduce <- inception_4b/output_inception_4b/output_0_split_2
I0403 15:28:20.104795  3123 net.cpp:399] inception_4c/5x5_reduce -> inception_4c/5x5_reduce
I0403 15:28:20.105965  3123 net.cpp:141] Setting up inception_4c/5x5_reduce
I0403 15:28:20.105998  3123 net.cpp:148] Top shape: 24 24 14 14 (112896)
I0403 15:28:20.106014  3123 net.cpp:156] Memory required for data: 1048111392
I0403 15:28:20.106034  3123 layer_factory.hpp:77] Creating layer inception_4c/relu_5x5_reduce
I0403 15:28:20.106052  3123 net.cpp:91] Creating Layer inception_4c/relu_5x5_reduce
I0403 15:28:20.106070  3123 net.cpp:425] inception_4c/relu_5x5_reduce <- inception_4c/5x5_reduce
I0403 15:28:20.106089  3123 net.cpp:386] inception_4c/relu_5x5_reduce -> inception_4c/5x5_reduce (in-place)
I0403 15:28:20.106295  3123 net.cpp:141] Setting up inception_4c/relu_5x5_reduce
I0403 15:28:20.106320  3123 net.cpp:148] Top shape: 24 24 14 14 (112896)
I0403 15:28:20.106336  3123 net.cpp:156] Memory required for data: 1048562976
I0403 15:28:20.106351  3123 layer_factory.hpp:77] Creating layer inception_4c/5x5
I0403 15:28:20.106374  3123 net.cpp:91] Creating Layer inception_4c/5x5
I0403 15:28:20.106394  3123 net.cpp:425] inception_4c/5x5 <- inception_4c/5x5_reduce
I0403 15:28:20.106415  3123 net.cpp:399] inception_4c/5x5 -> inception_4c/5x5
I0403 15:28:20.107735  3123 net.cpp:141] Setting up inception_4c/5x5
I0403 15:28:20.107765  3123 net.cpp:148] Top shape: 24 64 14 14 (301056)
I0403 15:28:20.107781  3123 net.cpp:156] Memory required for data: 1049767200
I0403 15:28:20.107800  3123 layer_factory.hpp:77] Creating layer inception_4c/relu_5x5
I0403 15:28:20.107821  3123 net.cpp:91] Creating Layer inception_4c/relu_5x5
I0403 15:28:20.107839  3123 net.cpp:425] inception_4c/relu_5x5 <- inception_4c/5x5
I0403 15:28:20.107857  3123 net.cpp:386] inception_4c/relu_5x5 -> inception_4c/5x5 (in-place)
I0403 15:28:20.108160  3123 net.cpp:141] Setting up inception_4c/relu_5x5
I0403 15:28:20.108192  3123 net.cpp:148] Top shape: 24 64 14 14 (301056)
I0403 15:28:20.108209  3123 net.cpp:156] Memory required for data: 1050971424
I0403 15:28:20.108225  3123 layer_factory.hpp:77] Creating layer inception_4c/pool
I0403 15:28:20.108247  3123 net.cpp:91] Creating Layer inception_4c/pool
I0403 15:28:20.108264  3123 net.cpp:425] inception_4c/pool <- inception_4b/output_inception_4b/output_0_split_3
I0403 15:28:20.108283  3123 net.cpp:399] inception_4c/pool -> inception_4c/pool
I0403 15:28:20.108355  3123 net.cpp:141] Setting up inception_4c/pool
I0403 15:28:20.108379  3123 net.cpp:148] Top shape: 24 512 14 14 (2408448)
I0403 15:28:20.108394  3123 net.cpp:156] Memory required for data: 1060605216
I0403 15:28:20.108409  3123 layer_factory.hpp:77] Creating layer inception_4c/pool_proj
I0403 15:28:20.108433  3123 net.cpp:91] Creating Layer inception_4c/pool_proj
I0403 15:28:20.108450  3123 net.cpp:425] inception_4c/pool_proj <- inception_4c/pool
I0403 15:28:20.108474  3123 net.cpp:399] inception_4c/pool_proj -> inception_4c/pool_proj
I0403 15:28:20.109777  3123 net.cpp:141] Setting up inception_4c/pool_proj
I0403 15:28:20.109807  3123 net.cpp:148] Top shape: 24 64 14 14 (301056)
I0403 15:28:20.109838  3123 net.cpp:156] Memory required for data: 1061809440
I0403 15:28:20.109859  3123 layer_factory.hpp:77] Creating layer inception_4c/relu_pool_proj
I0403 15:28:20.109879  3123 net.cpp:91] Creating Layer inception_4c/relu_pool_proj
I0403 15:28:20.109895  3123 net.cpp:425] inception_4c/relu_pool_proj <- inception_4c/pool_proj
I0403 15:28:20.109915  3123 net.cpp:386] inception_4c/relu_pool_proj -> inception_4c/pool_proj (in-place)
I0403 15:28:20.110115  3123 net.cpp:141] Setting up inception_4c/relu_pool_proj
I0403 15:28:20.110141  3123 net.cpp:148] Top shape: 24 64 14 14 (301056)
I0403 15:28:20.110157  3123 net.cpp:156] Memory required for data: 1063013664
I0403 15:28:20.110172  3123 layer_factory.hpp:77] Creating layer inception_4c/output
I0403 15:28:20.110195  3123 net.cpp:91] Creating Layer inception_4c/output
I0403 15:28:20.110216  3123 net.cpp:425] inception_4c/output <- inception_4c/1x1
I0403 15:28:20.110234  3123 net.cpp:425] inception_4c/output <- inception_4c/3x3
I0403 15:28:20.110250  3123 net.cpp:425] inception_4c/output <- inception_4c/5x5
I0403 15:28:20.110267  3123 net.cpp:425] inception_4c/output <- inception_4c/pool_proj
I0403 15:28:20.110285  3123 net.cpp:399] inception_4c/output -> inception_4c/output
I0403 15:28:20.110333  3123 net.cpp:141] Setting up inception_4c/output
I0403 15:28:20.110360  3123 net.cpp:148] Top shape: 24 512 14 14 (2408448)
I0403 15:28:20.110376  3123 net.cpp:156] Memory required for data: 1072647456
I0403 15:28:20.110391  3123 layer_factory.hpp:77] Creating layer inception_4c/output_inception_4c/output_0_split
I0403 15:28:20.110409  3123 net.cpp:91] Creating Layer inception_4c/output_inception_4c/output_0_split
I0403 15:28:20.110425  3123 net.cpp:425] inception_4c/output_inception_4c/output_0_split <- inception_4c/output
I0403 15:28:20.110446  3123 net.cpp:399] inception_4c/output_inception_4c/output_0_split -> inception_4c/output_inception_4c/output_0_split_0
I0403 15:28:20.110471  3123 net.cpp:399] inception_4c/output_inception_4c/output_0_split -> inception_4c/output_inception_4c/output_0_split_1
I0403 15:28:20.110491  3123 net.cpp:399] inception_4c/output_inception_4c/output_0_split -> inception_4c/output_inception_4c/output_0_split_2
I0403 15:28:20.110512  3123 net.cpp:399] inception_4c/output_inception_4c/output_0_split -> inception_4c/output_inception_4c/output_0_split_3
I0403 15:28:20.110602  3123 net.cpp:141] Setting up inception_4c/output_inception_4c/output_0_split
I0403 15:28:20.110630  3123 net.cpp:148] Top shape: 24 512 14 14 (2408448)
I0403 15:28:20.110647  3123 net.cpp:148] Top shape: 24 512 14 14 (2408448)
I0403 15:28:20.110664  3123 net.cpp:148] Top shape: 24 512 14 14 (2408448)
I0403 15:28:20.110680  3123 net.cpp:148] Top shape: 24 512 14 14 (2408448)
I0403 15:28:20.110695  3123 net.cpp:156] Memory required for data: 1111182624
I0403 15:28:20.110710  3123 layer_factory.hpp:77] Creating layer inception_4d/1x1
I0403 15:28:20.110734  3123 net.cpp:91] Creating Layer inception_4d/1x1
I0403 15:28:20.110752  3123 net.cpp:425] inception_4d/1x1 <- inception_4c/output_inception_4c/output_0_split_0
I0403 15:28:20.110772  3123 net.cpp:399] inception_4d/1x1 -> inception_4d/1x1
I0403 15:28:20.112226  3123 net.cpp:141] Setting up inception_4d/1x1
I0403 15:28:20.112257  3123 net.cpp:148] Top shape: 24 112 14 14 (526848)
I0403 15:28:20.112274  3123 net.cpp:156] Memory required for data: 1113290016
I0403 15:28:20.112293  3123 layer_factory.hpp:77] Creating layer inception_4d/relu_1x1
I0403 15:28:20.112313  3123 net.cpp:91] Creating Layer inception_4d/relu_1x1
I0403 15:28:20.112329  3123 net.cpp:425] inception_4d/relu_1x1 <- inception_4d/1x1
I0403 15:28:20.112345  3123 net.cpp:386] inception_4d/relu_1x1 -> inception_4d/1x1 (in-place)
I0403 15:28:20.112535  3123 net.cpp:141] Setting up inception_4d/relu_1x1
I0403 15:28:20.112562  3123 net.cpp:148] Top shape: 24 112 14 14 (526848)
I0403 15:28:20.112578  3123 net.cpp:156] Memory required for data: 1115397408
I0403 15:28:20.112593  3123 layer_factory.hpp:77] Creating layer inception_4d/3x3_reduce
I0403 15:28:20.112630  3123 net.cpp:91] Creating Layer inception_4d/3x3_reduce
I0403 15:28:20.112648  3123 net.cpp:425] inception_4d/3x3_reduce <- inception_4c/output_inception_4c/output_0_split_1
I0403 15:28:20.112668  3123 net.cpp:399] inception_4d/3x3_reduce -> inception_4d/3x3_reduce
I0403 15:28:20.114449  3123 net.cpp:141] Setting up inception_4d/3x3_reduce
I0403 15:28:20.114480  3123 net.cpp:148] Top shape: 24 144 14 14 (677376)
I0403 15:28:20.114496  3123 net.cpp:156] Memory required for data: 1118106912
I0403 15:28:20.114516  3123 layer_factory.hpp:77] Creating layer inception_4d/relu_3x3_reduce
I0403 15:28:20.114538  3123 net.cpp:91] Creating Layer inception_4d/relu_3x3_reduce
I0403 15:28:20.114557  3123 net.cpp:425] inception_4d/relu_3x3_reduce <- inception_4d/3x3_reduce
I0403 15:28:20.114574  3123 net.cpp:386] inception_4d/relu_3x3_reduce -> inception_4d/3x3_reduce (in-place)
I0403 15:28:20.114912  3123 net.cpp:141] Setting up inception_4d/relu_3x3_reduce
I0403 15:28:20.114939  3123 net.cpp:148] Top shape: 24 144 14 14 (677376)
I0403 15:28:20.114955  3123 net.cpp:156] Memory required for data: 1120816416
I0403 15:28:20.114971  3123 layer_factory.hpp:77] Creating layer inception_4d/3x3
I0403 15:28:20.114994  3123 net.cpp:91] Creating Layer inception_4d/3x3
I0403 15:28:20.115011  3123 net.cpp:425] inception_4d/3x3 <- inception_4d/3x3_reduce
I0403 15:28:20.115033  3123 net.cpp:399] inception_4d/3x3 -> inception_4d/3x3
I0403 15:28:20.119489  3123 net.cpp:141] Setting up inception_4d/3x3
I0403 15:28:20.119521  3123 net.cpp:148] Top shape: 24 288 14 14 (1354752)
I0403 15:28:20.119539  3123 net.cpp:156] Memory required for data: 1126235424
I0403 15:28:20.119557  3123 layer_factory.hpp:77] Creating layer inception_4d/relu_3x3
I0403 15:28:20.119576  3123 net.cpp:91] Creating Layer inception_4d/relu_3x3
I0403 15:28:20.119592  3123 net.cpp:425] inception_4d/relu_3x3 <- inception_4d/3x3
I0403 15:28:20.119612  3123 net.cpp:386] inception_4d/relu_3x3 -> inception_4d/3x3 (in-place)
I0403 15:28:20.119801  3123 net.cpp:141] Setting up inception_4d/relu_3x3
I0403 15:28:20.119827  3123 net.cpp:148] Top shape: 24 288 14 14 (1354752)
I0403 15:28:20.119843  3123 net.cpp:156] Memory required for data: 1131654432
I0403 15:28:20.119858  3123 layer_factory.hpp:77] Creating layer inception_4d/5x5_reduce
I0403 15:28:20.119880  3123 net.cpp:91] Creating Layer inception_4d/5x5_reduce
I0403 15:28:20.119899  3123 net.cpp:425] inception_4d/5x5_reduce <- inception_4c/output_inception_4c/output_0_split_2
I0403 15:28:20.119920  3123 net.cpp:399] inception_4d/5x5_reduce -> inception_4d/5x5_reduce
I0403 15:28:20.121111  3123 net.cpp:141] Setting up inception_4d/5x5_reduce
I0403 15:28:20.121142  3123 net.cpp:148] Top shape: 24 32 14 14 (150528)
I0403 15:28:20.121160  3123 net.cpp:156] Memory required for data: 1132256544
I0403 15:28:20.121182  3123 layer_factory.hpp:77] Creating layer inception_4d/relu_5x5_reduce
I0403 15:28:20.121202  3123 net.cpp:91] Creating Layer inception_4d/relu_5x5_reduce
I0403 15:28:20.121219  3123 net.cpp:425] inception_4d/relu_5x5_reduce <- inception_4d/5x5_reduce
I0403 15:28:20.121237  3123 net.cpp:386] inception_4d/relu_5x5_reduce -> inception_4d/5x5_reduce (in-place)
I0403 15:28:20.121430  3123 net.cpp:141] Setting up inception_4d/relu_5x5_reduce
I0403 15:28:20.121456  3123 net.cpp:148] Top shape: 24 32 14 14 (150528)
I0403 15:28:20.121471  3123 net.cpp:156] Memory required for data: 1132858656
I0403 15:28:20.121486  3123 layer_factory.hpp:77] Creating layer inception_4d/5x5
I0403 15:28:20.121510  3123 net.cpp:91] Creating Layer inception_4d/5x5
I0403 15:28:20.121529  3123 net.cpp:425] inception_4d/5x5 <- inception_4d/5x5_reduce
I0403 15:28:20.121551  3123 net.cpp:399] inception_4d/5x5 -> inception_4d/5x5
I0403 15:28:20.123072  3123 net.cpp:141] Setting up inception_4d/5x5
I0403 15:28:20.123101  3123 net.cpp:148] Top shape: 24 64 14 14 (301056)
I0403 15:28:20.123117  3123 net.cpp:156] Memory required for data: 1134062880
I0403 15:28:20.123136  3123 layer_factory.hpp:77] Creating layer inception_4d/relu_5x5
I0403 15:28:20.123172  3123 net.cpp:91] Creating Layer inception_4d/relu_5x5
I0403 15:28:20.123213  3123 net.cpp:425] inception_4d/relu_5x5 <- inception_4d/5x5
I0403 15:28:20.123245  3123 net.cpp:386] inception_4d/relu_5x5 -> inception_4d/5x5 (in-place)
I0403 15:28:20.123574  3123 net.cpp:141] Setting up inception_4d/relu_5x5
I0403 15:28:20.123601  3123 net.cpp:148] Top shape: 24 64 14 14 (301056)
I0403 15:28:20.123617  3123 net.cpp:156] Memory required for data: 1135267104
I0403 15:28:20.123632  3123 layer_factory.hpp:77] Creating layer inception_4d/pool
I0403 15:28:20.123651  3123 net.cpp:91] Creating Layer inception_4d/pool
I0403 15:28:20.123667  3123 net.cpp:425] inception_4d/pool <- inception_4c/output_inception_4c/output_0_split_3
I0403 15:28:20.123688  3123 net.cpp:399] inception_4d/pool -> inception_4d/pool
I0403 15:28:20.123756  3123 net.cpp:141] Setting up inception_4d/pool
I0403 15:28:20.123783  3123 net.cpp:148] Top shape: 24 512 14 14 (2408448)
I0403 15:28:20.123798  3123 net.cpp:156] Memory required for data: 1144900896
I0403 15:28:20.123826  3123 layer_factory.hpp:77] Creating layer inception_4d/pool_proj
I0403 15:28:20.123849  3123 net.cpp:91] Creating Layer inception_4d/pool_proj
I0403 15:28:20.123868  3123 net.cpp:425] inception_4d/pool_proj <- inception_4d/pool
I0403 15:28:20.123889  3123 net.cpp:399] inception_4d/pool_proj -> inception_4d/pool_proj
I0403 15:28:20.125730  3123 net.cpp:141] Setting up inception_4d/pool_proj
I0403 15:28:20.125762  3123 net.cpp:148] Top shape: 24 64 14 14 (301056)
I0403 15:28:20.125780  3123 net.cpp:156] Memory required for data: 1146105120
I0403 15:28:20.125799  3123 layer_factory.hpp:77] Creating layer inception_4d/relu_pool_proj
I0403 15:28:20.125818  3123 net.cpp:91] Creating Layer inception_4d/relu_pool_proj
I0403 15:28:20.125834  3123 net.cpp:425] inception_4d/relu_pool_proj <- inception_4d/pool_proj
I0403 15:28:20.125855  3123 net.cpp:386] inception_4d/relu_pool_proj -> inception_4d/pool_proj (in-place)
I0403 15:28:20.126046  3123 net.cpp:141] Setting up inception_4d/relu_pool_proj
I0403 15:28:20.126072  3123 net.cpp:148] Top shape: 24 64 14 14 (301056)
I0403 15:28:20.126086  3123 net.cpp:156] Memory required for data: 1147309344
I0403 15:28:20.126101  3123 layer_factory.hpp:77] Creating layer inception_4d/output
I0403 15:28:20.126118  3123 net.cpp:91] Creating Layer inception_4d/output
I0403 15:28:20.126134  3123 net.cpp:425] inception_4d/output <- inception_4d/1x1
I0403 15:28:20.126152  3123 net.cpp:425] inception_4d/output <- inception_4d/3x3
I0403 15:28:20.126168  3123 net.cpp:425] inception_4d/output <- inception_4d/5x5
I0403 15:28:20.126188  3123 net.cpp:425] inception_4d/output <- inception_4d/pool_proj
I0403 15:28:20.126209  3123 net.cpp:399] inception_4d/output -> inception_4d/output
I0403 15:28:20.126260  3123 net.cpp:141] Setting up inception_4d/output
I0403 15:28:20.126286  3123 net.cpp:148] Top shape: 24 528 14 14 (2483712)
I0403 15:28:20.126302  3123 net.cpp:156] Memory required for data: 1157244192
I0403 15:28:20.126317  3123 layer_factory.hpp:77] Creating layer inception_4d/output_inception_4d/output_0_split
I0403 15:28:20.126334  3123 net.cpp:91] Creating Layer inception_4d/output_inception_4d/output_0_split
I0403 15:28:20.126349  3123 net.cpp:425] inception_4d/output_inception_4d/output_0_split <- inception_4d/output
I0403 15:28:20.126368  3123 net.cpp:399] inception_4d/output_inception_4d/output_0_split -> inception_4d/output_inception_4d/output_0_split_0
I0403 15:28:20.126389  3123 net.cpp:399] inception_4d/output_inception_4d/output_0_split -> inception_4d/output_inception_4d/output_0_split_1
I0403 15:28:20.126411  3123 net.cpp:399] inception_4d/output_inception_4d/output_0_split -> inception_4d/output_inception_4d/output_0_split_2
I0403 15:28:20.126433  3123 net.cpp:399] inception_4d/output_inception_4d/output_0_split -> inception_4d/output_inception_4d/output_0_split_3
I0403 15:28:20.126453  3123 net.cpp:399] inception_4d/output_inception_4d/output_0_split -> inception_4d/output_inception_4d/output_0_split_4
I0403 15:28:20.126562  3123 net.cpp:141] Setting up inception_4d/output_inception_4d/output_0_split
I0403 15:28:20.126598  3123 net.cpp:148] Top shape: 24 528 14 14 (2483712)
I0403 15:28:20.126616  3123 net.cpp:148] Top shape: 24 528 14 14 (2483712)
I0403 15:28:20.126636  3123 net.cpp:148] Top shape: 24 528 14 14 (2483712)
I0403 15:28:20.126652  3123 net.cpp:148] Top shape: 24 528 14 14 (2483712)
I0403 15:28:20.126667  3123 net.cpp:148] Top shape: 24 528 14 14 (2483712)
I0403 15:28:20.126682  3123 net.cpp:156] Memory required for data: 1206918432
I0403 15:28:20.126695  3123 layer_factory.hpp:77] Creating layer loss2/ave_pool
I0403 15:28:20.126713  3123 net.cpp:91] Creating Layer loss2/ave_pool
I0403 15:28:20.126729  3123 net.cpp:425] loss2/ave_pool <- inception_4d/output_inception_4d/output_0_split_0
I0403 15:28:20.126749  3123 net.cpp:399] loss2/ave_pool -> loss2/ave_pool
I0403 15:28:20.127071  3123 net.cpp:141] Setting up loss2/ave_pool
I0403 15:28:20.127100  3123 net.cpp:148] Top shape: 24 528 4 4 (202752)
I0403 15:28:20.127116  3123 net.cpp:156] Memory required for data: 1207729440
I0403 15:28:20.127132  3123 layer_factory.hpp:77] Creating layer loss2/conv
I0403 15:28:20.127156  3123 net.cpp:91] Creating Layer loss2/conv
I0403 15:28:20.127173  3123 net.cpp:425] loss2/conv <- loss2/ave_pool
I0403 15:28:20.127198  3123 net.cpp:399] loss2/conv -> loss2/conv
I0403 15:28:20.129143  3123 net.cpp:141] Setting up loss2/conv
I0403 15:28:20.129173  3123 net.cpp:148] Top shape: 24 128 4 4 (49152)
I0403 15:28:20.129194  3123 net.cpp:156] Memory required for data: 1207926048
I0403 15:28:20.129214  3123 layer_factory.hpp:77] Creating layer loss2/relu_conv
I0403 15:28:20.129232  3123 net.cpp:91] Creating Layer loss2/relu_conv
I0403 15:28:20.129250  3123 net.cpp:425] loss2/relu_conv <- loss2/conv
I0403 15:28:20.129269  3123 net.cpp:386] loss2/relu_conv -> loss2/conv (in-place)
I0403 15:28:20.129565  3123 net.cpp:141] Setting up loss2/relu_conv
I0403 15:28:20.129591  3123 net.cpp:148] Top shape: 24 128 4 4 (49152)
I0403 15:28:20.129606  3123 net.cpp:156] Memory required for data: 1208122656
I0403 15:28:20.129622  3123 layer_factory.hpp:77] Creating layer loss2/fc
I0403 15:28:20.129642  3123 net.cpp:91] Creating Layer loss2/fc
I0403 15:28:20.129658  3123 net.cpp:425] loss2/fc <- loss2/conv
I0403 15:28:20.129679  3123 net.cpp:399] loss2/fc -> loss2/fc
I0403 15:28:20.147878  3123 net.cpp:141] Setting up loss2/fc
I0403 15:28:20.147913  3123 net.cpp:148] Top shape: 24 1024 (24576)
I0403 15:28:20.147929  3123 net.cpp:156] Memory required for data: 1208220960
I0403 15:28:20.147948  3123 layer_factory.hpp:77] Creating layer loss2/relu_fc
I0403 15:28:20.147966  3123 net.cpp:91] Creating Layer loss2/relu_fc
I0403 15:28:20.147982  3123 net.cpp:425] loss2/relu_fc <- loss2/fc
I0403 15:28:20.148000  3123 net.cpp:386] loss2/relu_fc -> loss2/fc (in-place)
I0403 15:28:20.148313  3123 net.cpp:141] Setting up loss2/relu_fc
I0403 15:28:20.148342  3123 net.cpp:148] Top shape: 24 1024 (24576)
I0403 15:28:20.148357  3123 net.cpp:156] Memory required for data: 1208319264
I0403 15:28:20.148373  3123 layer_factory.hpp:77] Creating layer loss2/drop_fc
I0403 15:28:20.148392  3123 net.cpp:91] Creating Layer loss2/drop_fc
I0403 15:28:20.148407  3123 net.cpp:425] loss2/drop_fc <- loss2/fc
I0403 15:28:20.148425  3123 net.cpp:386] loss2/drop_fc -> loss2/fc (in-place)
I0403 15:28:20.148478  3123 net.cpp:141] Setting up loss2/drop_fc
I0403 15:28:20.148501  3123 net.cpp:148] Top shape: 24 1024 (24576)
I0403 15:28:20.148515  3123 net.cpp:156] Memory required for data: 1208417568
I0403 15:28:20.148531  3123 layer_factory.hpp:77] Creating layer loss2/classifier_plantvillage
I0403 15:28:20.148551  3123 net.cpp:91] Creating Layer loss2/classifier_plantvillage
I0403 15:28:20.148568  3123 net.cpp:425] loss2/classifier_plantvillage <- loss2/fc
I0403 15:28:20.148587  3123 net.cpp:399] loss2/classifier_plantvillage -> loss2/classifier_plantvillage
I0403 15:28:20.149005  3123 net.cpp:141] Setting up loss2/classifier_plantvillage
I0403 15:28:20.149030  3123 net.cpp:148] Top shape: 24 38 (912)
I0403 15:28:20.149062  3123 net.cpp:156] Memory required for data: 1208421216
I0403 15:28:20.149081  3123 layer_factory.hpp:77] Creating layer loss2/classifier_plantvillage_loss2/classifier_plantvillage_0_split
I0403 15:28:20.149101  3123 net.cpp:91] Creating Layer loss2/classifier_plantvillage_loss2/classifier_plantvillage_0_split
I0403 15:28:20.149116  3123 net.cpp:425] loss2/classifier_plantvillage_loss2/classifier_plantvillage_0_split <- loss2/classifier_plantvillage
I0403 15:28:20.149137  3123 net.cpp:399] loss2/classifier_plantvillage_loss2/classifier_plantvillage_0_split -> loss2/classifier_plantvillage_loss2/classifier_plantvillage_0_split_0
I0403 15:28:20.149158  3123 net.cpp:399] loss2/classifier_plantvillage_loss2/classifier_plantvillage_0_split -> loss2/classifier_plantvillage_loss2/classifier_plantvillage_0_split_1
I0403 15:28:20.149184  3123 net.cpp:399] loss2/classifier_plantvillage_loss2/classifier_plantvillage_0_split -> loss2/classifier_plantvillage_loss2/classifier_plantvillage_0_split_2
I0403 15:28:20.149267  3123 net.cpp:141] Setting up loss2/classifier_plantvillage_loss2/classifier_plantvillage_0_split
I0403 15:28:20.149291  3123 net.cpp:148] Top shape: 24 38 (912)
I0403 15:28:20.149308  3123 net.cpp:148] Top shape: 24 38 (912)
I0403 15:28:20.149324  3123 net.cpp:148] Top shape: 24 38 (912)
I0403 15:28:20.149338  3123 net.cpp:156] Memory required for data: 1208432160
I0403 15:28:20.149353  3123 layer_factory.hpp:77] Creating layer inception_4e/1x1
I0403 15:28:20.149374  3123 net.cpp:91] Creating Layer inception_4e/1x1
I0403 15:28:20.149392  3123 net.cpp:425] inception_4e/1x1 <- inception_4d/output_inception_4d/output_0_split_1
I0403 15:28:20.149411  3123 net.cpp:399] inception_4e/1x1 -> inception_4e/1x1
I0403 15:28:20.151306  3123 net.cpp:141] Setting up inception_4e/1x1
I0403 15:28:20.151336  3123 net.cpp:148] Top shape: 24 256 14 14 (1204224)
I0403 15:28:20.151352  3123 net.cpp:156] Memory required for data: 1213249056
I0403 15:28:20.151371  3123 layer_factory.hpp:77] Creating layer inception_4e/relu_1x1
I0403 15:28:20.151391  3123 net.cpp:91] Creating Layer inception_4e/relu_1x1
I0403 15:28:20.151408  3123 net.cpp:425] inception_4e/relu_1x1 <- inception_4e/1x1
I0403 15:28:20.151427  3123 net.cpp:386] inception_4e/relu_1x1 -> inception_4e/1x1 (in-place)
I0403 15:28:20.151732  3123 net.cpp:141] Setting up inception_4e/relu_1x1
I0403 15:28:20.151759  3123 net.cpp:148] Top shape: 24 256 14 14 (1204224)
I0403 15:28:20.151774  3123 net.cpp:156] Memory required for data: 1218065952
I0403 15:28:20.151789  3123 layer_factory.hpp:77] Creating layer inception_4e/3x3_reduce
I0403 15:28:20.151813  3123 net.cpp:91] Creating Layer inception_4e/3x3_reduce
I0403 15:28:20.151830  3123 net.cpp:425] inception_4e/3x3_reduce <- inception_4d/output_inception_4d/output_0_split_2
I0403 15:28:20.151852  3123 net.cpp:399] inception_4e/3x3_reduce -> inception_4e/3x3_reduce
I0403 15:28:20.154044  3123 net.cpp:141] Setting up inception_4e/3x3_reduce
I0403 15:28:20.154075  3123 net.cpp:148] Top shape: 24 160 14 14 (752640)
I0403 15:28:20.154091  3123 net.cpp:156] Memory required for data: 1221076512
I0403 15:28:20.154110  3123 layer_factory.hpp:77] Creating layer inception_4e/relu_3x3_reduce
I0403 15:28:20.154129  3123 net.cpp:91] Creating Layer inception_4e/relu_3x3_reduce
I0403 15:28:20.154145  3123 net.cpp:425] inception_4e/relu_3x3_reduce <- inception_4e/3x3_reduce
I0403 15:28:20.154165  3123 net.cpp:386] inception_4e/relu_3x3_reduce -> inception_4e/3x3_reduce (in-place)
I0403 15:28:20.154366  3123 net.cpp:141] Setting up inception_4e/relu_3x3_reduce
I0403 15:28:20.154392  3123 net.cpp:148] Top shape: 24 160 14 14 (752640)
I0403 15:28:20.154407  3123 net.cpp:156] Memory required for data: 1224087072
I0403 15:28:20.154422  3123 layer_factory.hpp:77] Creating layer inception_4e/3x3
I0403 15:28:20.154444  3123 net.cpp:91] Creating Layer inception_4e/3x3
I0403 15:28:20.154464  3123 net.cpp:425] inception_4e/3x3 <- inception_4e/3x3_reduce
I0403 15:28:20.154485  3123 net.cpp:399] inception_4e/3x3 -> inception_4e/3x3
I0403 15:28:20.159654  3123 net.cpp:141] Setting up inception_4e/3x3
I0403 15:28:20.159696  3123 net.cpp:148] Top shape: 24 320 14 14 (1505280)
I0403 15:28:20.159713  3123 net.cpp:156] Memory required for data: 1230108192
I0403 15:28:20.159732  3123 layer_factory.hpp:77] Creating layer inception_4e/relu_3x3
I0403 15:28:20.159754  3123 net.cpp:91] Creating Layer inception_4e/relu_3x3
I0403 15:28:20.159772  3123 net.cpp:425] inception_4e/relu_3x3 <- inception_4e/3x3
I0403 15:28:20.159790  3123 net.cpp:386] inception_4e/relu_3x3 -> inception_4e/3x3 (in-place)
I0403 15:28:20.160104  3123 net.cpp:141] Setting up inception_4e/relu_3x3
I0403 15:28:20.160133  3123 net.cpp:148] Top shape: 24 320 14 14 (1505280)
I0403 15:28:20.160150  3123 net.cpp:156] Memory required for data: 1236129312
I0403 15:28:20.160166  3123 layer_factory.hpp:77] Creating layer inception_4e/5x5_reduce
I0403 15:28:20.160193  3123 net.cpp:91] Creating Layer inception_4e/5x5_reduce
I0403 15:28:20.160213  3123 net.cpp:425] inception_4e/5x5_reduce <- inception_4d/output_inception_4d/output_0_split_3
I0403 15:28:20.160233  3123 net.cpp:399] inception_4e/5x5_reduce -> inception_4e/5x5_reduce
I0403 15:28:20.161346  3123 net.cpp:141] Setting up inception_4e/5x5_reduce
I0403 15:28:20.161375  3123 net.cpp:148] Top shape: 24 32 14 14 (150528)
I0403 15:28:20.161391  3123 net.cpp:156] Memory required for data: 1236731424
I0403 15:28:20.161408  3123 layer_factory.hpp:77] Creating layer inception_4e/relu_5x5_reduce
I0403 15:28:20.161429  3123 net.cpp:91] Creating Layer inception_4e/relu_5x5_reduce
I0403 15:28:20.161447  3123 net.cpp:425] inception_4e/relu_5x5_reduce <- inception_4e/5x5_reduce
I0403 15:28:20.161463  3123 net.cpp:386] inception_4e/relu_5x5_reduce -> inception_4e/5x5_reduce (in-place)
I0403 15:28:20.161769  3123 net.cpp:141] Setting up inception_4e/relu_5x5_reduce
I0403 15:28:20.161795  3123 net.cpp:148] Top shape: 24 32 14 14 (150528)
I0403 15:28:20.161811  3123 net.cpp:156] Memory required for data: 1237333536
I0403 15:28:20.161826  3123 layer_factory.hpp:77] Creating layer inception_4e/5x5
I0403 15:28:20.161866  3123 net.cpp:91] Creating Layer inception_4e/5x5
I0403 15:28:20.161886  3123 net.cpp:425] inception_4e/5x5 <- inception_4e/5x5_reduce
I0403 15:28:20.161906  3123 net.cpp:399] inception_4e/5x5 -> inception_4e/5x5
I0403 15:28:20.163837  3123 net.cpp:141] Setting up inception_4e/5x5
I0403 15:28:20.163868  3123 net.cpp:148] Top shape: 24 128 14 14 (602112)
I0403 15:28:20.163885  3123 net.cpp:156] Memory required for data: 1239741984
I0403 15:28:20.163907  3123 layer_factory.hpp:77] Creating layer inception_4e/relu_5x5
I0403 15:28:20.163925  3123 net.cpp:91] Creating Layer inception_4e/relu_5x5
I0403 15:28:20.163943  3123 net.cpp:425] inception_4e/relu_5x5 <- inception_4e/5x5
I0403 15:28:20.163961  3123 net.cpp:386] inception_4e/relu_5x5 -> inception_4e/5x5 (in-place)
I0403 15:28:20.164165  3123 net.cpp:141] Setting up inception_4e/relu_5x5
I0403 15:28:20.164218  3123 net.cpp:148] Top shape: 24 128 14 14 (602112)
I0403 15:28:20.164237  3123 net.cpp:156] Memory required for data: 1242150432
I0403 15:28:20.164252  3123 layer_factory.hpp:77] Creating layer inception_4e/pool
I0403 15:28:20.164271  3123 net.cpp:91] Creating Layer inception_4e/pool
I0403 15:28:20.164288  3123 net.cpp:425] inception_4e/pool <- inception_4d/output_inception_4d/output_0_split_4
I0403 15:28:20.164309  3123 net.cpp:399] inception_4e/pool -> inception_4e/pool
I0403 15:28:20.164386  3123 net.cpp:141] Setting up inception_4e/pool
I0403 15:28:20.164412  3123 net.cpp:148] Top shape: 24 528 14 14 (2483712)
I0403 15:28:20.164427  3123 net.cpp:156] Memory required for data: 1252085280
I0403 15:28:20.164441  3123 layer_factory.hpp:77] Creating layer inception_4e/pool_proj
I0403 15:28:20.164468  3123 net.cpp:91] Creating Layer inception_4e/pool_proj
I0403 15:28:20.164485  3123 net.cpp:425] inception_4e/pool_proj <- inception_4e/pool
I0403 15:28:20.164517  3123 net.cpp:399] inception_4e/pool_proj -> inception_4e/pool_proj
I0403 15:28:20.166133  3123 net.cpp:141] Setting up inception_4e/pool_proj
I0403 15:28:20.166182  3123 net.cpp:148] Top shape: 24 128 14 14 (602112)
I0403 15:28:20.166200  3123 net.cpp:156] Memory required for data: 1254493728
I0403 15:28:20.166219  3123 layer_factory.hpp:77] Creating layer inception_4e/relu_pool_proj
I0403 15:28:20.166239  3123 net.cpp:91] Creating Layer inception_4e/relu_pool_proj
I0403 15:28:20.166254  3123 net.cpp:425] inception_4e/relu_pool_proj <- inception_4e/pool_proj
I0403 15:28:20.166275  3123 net.cpp:386] inception_4e/relu_pool_proj -> inception_4e/pool_proj (in-place)
I0403 15:28:20.166579  3123 net.cpp:141] Setting up inception_4e/relu_pool_proj
I0403 15:28:20.166607  3123 net.cpp:148] Top shape: 24 128 14 14 (602112)
I0403 15:28:20.166623  3123 net.cpp:156] Memory required for data: 1256902176
I0403 15:28:20.166640  3123 layer_factory.hpp:77] Creating layer inception_4e/output
I0403 15:28:20.166657  3123 net.cpp:91] Creating Layer inception_4e/output
I0403 15:28:20.166673  3123 net.cpp:425] inception_4e/output <- inception_4e/1x1
I0403 15:28:20.166690  3123 net.cpp:425] inception_4e/output <- inception_4e/3x3
I0403 15:28:20.166707  3123 net.cpp:425] inception_4e/output <- inception_4e/5x5
I0403 15:28:20.166723  3123 net.cpp:425] inception_4e/output <- inception_4e/pool_proj
I0403 15:28:20.166740  3123 net.cpp:399] inception_4e/output -> inception_4e/output
I0403 15:28:20.166793  3123 net.cpp:141] Setting up inception_4e/output
I0403 15:28:20.166817  3123 net.cpp:148] Top shape: 24 832 14 14 (3913728)
I0403 15:28:20.166832  3123 net.cpp:156] Memory required for data: 1272557088
I0403 15:28:20.166847  3123 layer_factory.hpp:77] Creating layer pool4/3x3_s2
I0403 15:28:20.166868  3123 net.cpp:91] Creating Layer pool4/3x3_s2
I0403 15:28:20.166885  3123 net.cpp:425] pool4/3x3_s2 <- inception_4e/output
I0403 15:28:20.166903  3123 net.cpp:399] pool4/3x3_s2 -> pool4/3x3_s2
I0403 15:28:20.166975  3123 net.cpp:141] Setting up pool4/3x3_s2
I0403 15:28:20.166998  3123 net.cpp:148] Top shape: 24 832 7 7 (978432)
I0403 15:28:20.167013  3123 net.cpp:156] Memory required for data: 1276470816
I0403 15:28:20.167028  3123 layer_factory.hpp:77] Creating layer pool4/3x3_s2_pool4/3x3_s2_0_split
I0403 15:28:20.167045  3123 net.cpp:91] Creating Layer pool4/3x3_s2_pool4/3x3_s2_0_split
I0403 15:28:20.167062  3123 net.cpp:425] pool4/3x3_s2_pool4/3x3_s2_0_split <- pool4/3x3_s2
I0403 15:28:20.167081  3123 net.cpp:399] pool4/3x3_s2_pool4/3x3_s2_0_split -> pool4/3x3_s2_pool4/3x3_s2_0_split_0
I0403 15:28:20.167101  3123 net.cpp:399] pool4/3x3_s2_pool4/3x3_s2_0_split -> pool4/3x3_s2_pool4/3x3_s2_0_split_1
I0403 15:28:20.167121  3123 net.cpp:399] pool4/3x3_s2_pool4/3x3_s2_0_split -> pool4/3x3_s2_pool4/3x3_s2_0_split_2
I0403 15:28:20.167141  3123 net.cpp:399] pool4/3x3_s2_pool4/3x3_s2_0_split -> pool4/3x3_s2_pool4/3x3_s2_0_split_3
I0403 15:28:20.167240  3123 net.cpp:141] Setting up pool4/3x3_s2_pool4/3x3_s2_0_split
I0403 15:28:20.167266  3123 net.cpp:148] Top shape: 24 832 7 7 (978432)
I0403 15:28:20.167284  3123 net.cpp:148] Top shape: 24 832 7 7 (978432)
I0403 15:28:20.167300  3123 net.cpp:148] Top shape: 24 832 7 7 (978432)
I0403 15:28:20.167316  3123 net.cpp:148] Top shape: 24 832 7 7 (978432)
I0403 15:28:20.167330  3123 net.cpp:156] Memory required for data: 1292125728
I0403 15:28:20.167346  3123 layer_factory.hpp:77] Creating layer inception_5a/1x1
I0403 15:28:20.167368  3123 net.cpp:91] Creating Layer inception_5a/1x1
I0403 15:28:20.167385  3123 net.cpp:425] inception_5a/1x1 <- pool4/3x3_s2_pool4/3x3_s2_0_split_0
I0403 15:28:20.167409  3123 net.cpp:399] inception_5a/1x1 -> inception_5a/1x1
I0403 15:28:20.170367  3123 net.cpp:141] Setting up inception_5a/1x1
I0403 15:28:20.170397  3123 net.cpp:148] Top shape: 24 256 7 7 (301056)
I0403 15:28:20.170413  3123 net.cpp:156] Memory required for data: 1293329952
I0403 15:28:20.170433  3123 layer_factory.hpp:77] Creating layer inception_5a/relu_1x1
I0403 15:28:20.170451  3123 net.cpp:91] Creating Layer inception_5a/relu_1x1
I0403 15:28:20.170469  3123 net.cpp:425] inception_5a/relu_1x1 <- inception_5a/1x1
I0403 15:28:20.170488  3123 net.cpp:386] inception_5a/relu_1x1 -> inception_5a/1x1 (in-place)
I0403 15:28:20.170810  3123 net.cpp:141] Setting up inception_5a/relu_1x1
I0403 15:28:20.170837  3123 net.cpp:148] Top shape: 24 256 7 7 (301056)
I0403 15:28:20.170853  3123 net.cpp:156] Memory required for data: 1294534176
I0403 15:28:20.170868  3123 layer_factory.hpp:77] Creating layer inception_5a/3x3_reduce
I0403 15:28:20.170892  3123 net.cpp:91] Creating Layer inception_5a/3x3_reduce
I0403 15:28:20.170910  3123 net.cpp:425] inception_5a/3x3_reduce <- pool4/3x3_s2_pool4/3x3_s2_0_split_1
I0403 15:28:20.170933  3123 net.cpp:399] inception_5a/3x3_reduce -> inception_5a/3x3_reduce
I0403 15:28:20.173529  3123 net.cpp:141] Setting up inception_5a/3x3_reduce
I0403 15:28:20.173560  3123 net.cpp:148] Top shape: 24 160 7 7 (188160)
I0403 15:28:20.173578  3123 net.cpp:156] Memory required for data: 1295286816
I0403 15:28:20.173595  3123 layer_factory.hpp:77] Creating layer inception_5a/relu_3x3_reduce
I0403 15:28:20.173617  3123 net.cpp:91] Creating Layer inception_5a/relu_3x3_reduce
I0403 15:28:20.173636  3123 net.cpp:425] inception_5a/relu_3x3_reduce <- inception_5a/3x3_reduce
I0403 15:28:20.173655  3123 net.cpp:386] inception_5a/relu_3x3_reduce -> inception_5a/3x3_reduce (in-place)
I0403 15:28:20.173848  3123 net.cpp:141] Setting up inception_5a/relu_3x3_reduce
I0403 15:28:20.173873  3123 net.cpp:148] Top shape: 24 160 7 7 (188160)
I0403 15:28:20.173889  3123 net.cpp:156] Memory required for data: 1296039456
I0403 15:28:20.173904  3123 layer_factory.hpp:77] Creating layer inception_5a/3x3
I0403 15:28:20.173928  3123 net.cpp:91] Creating Layer inception_5a/3x3
I0403 15:28:20.173946  3123 net.cpp:425] inception_5a/3x3 <- inception_5a/3x3_reduce
I0403 15:28:20.173967  3123 net.cpp:399] inception_5a/3x3 -> inception_5a/3x3
I0403 15:28:20.179318  3123 net.cpp:141] Setting up inception_5a/3x3
I0403 15:28:20.179353  3123 net.cpp:148] Top shape: 24 320 7 7 (376320)
I0403 15:28:20.179371  3123 net.cpp:156] Memory required for data: 1297544736
I0403 15:28:20.179390  3123 layer_factory.hpp:77] Creating layer inception_5a/relu_3x3
I0403 15:28:20.179409  3123 net.cpp:91] Creating Layer inception_5a/relu_3x3
I0403 15:28:20.179425  3123 net.cpp:425] inception_5a/relu_3x3 <- inception_5a/3x3
I0403 15:28:20.179445  3123 net.cpp:386] inception_5a/relu_3x3 -> inception_5a/3x3 (in-place)
I0403 15:28:20.179754  3123 net.cpp:141] Setting up inception_5a/relu_3x3
I0403 15:28:20.179785  3123 net.cpp:148] Top shape: 24 320 7 7 (376320)
I0403 15:28:20.179801  3123 net.cpp:156] Memory required for data: 1299050016
I0403 15:28:20.179817  3123 layer_factory.hpp:77] Creating layer inception_5a/5x5_reduce
I0403 15:28:20.179841  3123 net.cpp:91] Creating Layer inception_5a/5x5_reduce
I0403 15:28:20.179858  3123 net.cpp:425] inception_5a/5x5_reduce <- pool4/3x3_s2_pool4/3x3_s2_0_split_2
I0403 15:28:20.179878  3123 net.cpp:399] inception_5a/5x5_reduce -> inception_5a/5x5_reduce
I0403 15:28:20.181102  3123 net.cpp:141] Setting up inception_5a/5x5_reduce
I0403 15:28:20.181133  3123 net.cpp:148] Top shape: 24 32 7 7 (37632)
I0403 15:28:20.181149  3123 net.cpp:156] Memory required for data: 1299200544
I0403 15:28:20.181167  3123 layer_factory.hpp:77] Creating layer inception_5a/relu_5x5_reduce
I0403 15:28:20.181190  3123 net.cpp:91] Creating Layer inception_5a/relu_5x5_reduce
I0403 15:28:20.181208  3123 net.cpp:425] inception_5a/relu_5x5_reduce <- inception_5a/5x5_reduce
I0403 15:28:20.181228  3123 net.cpp:386] inception_5a/relu_5x5_reduce -> inception_5a/5x5_reduce (in-place)
I0403 15:28:20.181576  3123 net.cpp:141] Setting up inception_5a/relu_5x5_reduce
I0403 15:28:20.181602  3123 net.cpp:148] Top shape: 24 32 7 7 (37632)
I0403 15:28:20.181618  3123 net.cpp:156] Memory required for data: 1299351072
I0403 15:28:20.181633  3123 layer_factory.hpp:77] Creating layer inception_5a/5x5
I0403 15:28:20.181655  3123 net.cpp:91] Creating Layer inception_5a/5x5
I0403 15:28:20.181674  3123 net.cpp:425] inception_5a/5x5 <- inception_5a/5x5_reduce
I0403 15:28:20.181694  3123 net.cpp:399] inception_5a/5x5 -> inception_5a/5x5
I0403 15:28:20.183539  3123 net.cpp:141] Setting up inception_5a/5x5
I0403 15:28:20.183583  3123 net.cpp:148] Top shape: 24 128 7 7 (150528)
I0403 15:28:20.183600  3123 net.cpp:156] Memory required for data: 1299953184
I0403 15:28:20.183619  3123 layer_factory.hpp:77] Creating layer inception_5a/relu_5x5
I0403 15:28:20.183637  3123 net.cpp:91] Creating Layer inception_5a/relu_5x5
I0403 15:28:20.183655  3123 net.cpp:425] inception_5a/relu_5x5 <- inception_5a/5x5
I0403 15:28:20.183689  3123 net.cpp:386] inception_5a/relu_5x5 -> inception_5a/5x5 (in-place)
I0403 15:28:20.183894  3123 net.cpp:141] Setting up inception_5a/relu_5x5
I0403 15:28:20.183920  3123 net.cpp:148] Top shape: 24 128 7 7 (150528)
I0403 15:28:20.183936  3123 net.cpp:156] Memory required for data: 1300555296
I0403 15:28:20.183953  3123 layer_factory.hpp:77] Creating layer inception_5a/pool
I0403 15:28:20.183971  3123 net.cpp:91] Creating Layer inception_5a/pool
I0403 15:28:20.183987  3123 net.cpp:425] inception_5a/pool <- pool4/3x3_s2_pool4/3x3_s2_0_split_3
I0403 15:28:20.184008  3123 net.cpp:399] inception_5a/pool -> inception_5a/pool
I0403 15:28:20.184085  3123 net.cpp:141] Setting up inception_5a/pool
I0403 15:28:20.184110  3123 net.cpp:148] Top shape: 24 832 7 7 (978432)
I0403 15:28:20.184125  3123 net.cpp:156] Memory required for data: 1304469024
I0403 15:28:20.184140  3123 layer_factory.hpp:77] Creating layer inception_5a/pool_proj
I0403 15:28:20.184166  3123 net.cpp:91] Creating Layer inception_5a/pool_proj
I0403 15:28:20.184190  3123 net.cpp:425] inception_5a/pool_proj <- inception_5a/pool
I0403 15:28:20.184213  3123 net.cpp:399] inception_5a/pool_proj -> inception_5a/pool_proj
I0403 15:28:20.186643  3123 net.cpp:141] Setting up inception_5a/pool_proj
I0403 15:28:20.186677  3123 net.cpp:148] Top shape: 24 128 7 7 (150528)
I0403 15:28:20.186696  3123 net.cpp:156] Memory required for data: 1305071136
I0403 15:28:20.186715  3123 layer_factory.hpp:77] Creating layer inception_5a/relu_pool_proj
I0403 15:28:20.186734  3123 net.cpp:91] Creating Layer inception_5a/relu_pool_proj
I0403 15:28:20.186753  3123 net.cpp:425] inception_5a/relu_pool_proj <- inception_5a/pool_proj
I0403 15:28:20.186771  3123 net.cpp:386] inception_5a/relu_pool_proj -> inception_5a/pool_proj (in-place)
I0403 15:28:20.187084  3123 net.cpp:141] Setting up inception_5a/relu_pool_proj
I0403 15:28:20.187117  3123 net.cpp:148] Top shape: 24 128 7 7 (150528)
I0403 15:28:20.187134  3123 net.cpp:156] Memory required for data: 1305673248
I0403 15:28:20.187150  3123 layer_factory.hpp:77] Creating layer inception_5a/output
I0403 15:28:20.187168  3123 net.cpp:91] Creating Layer inception_5a/output
I0403 15:28:20.187191  3123 net.cpp:425] inception_5a/output <- inception_5a/1x1
I0403 15:28:20.187208  3123 net.cpp:425] inception_5a/output <- inception_5a/3x3
I0403 15:28:20.187227  3123 net.cpp:425] inception_5a/output <- inception_5a/5x5
I0403 15:28:20.187242  3123 net.cpp:425] inception_5a/output <- inception_5a/pool_proj
I0403 15:28:20.187261  3123 net.cpp:399] inception_5a/output -> inception_5a/output
I0403 15:28:20.187316  3123 net.cpp:141] Setting up inception_5a/output
I0403 15:28:20.187341  3123 net.cpp:148] Top shape: 24 832 7 7 (978432)
I0403 15:28:20.187356  3123 net.cpp:156] Memory required for data: 1309586976
I0403 15:28:20.187372  3123 layer_factory.hpp:77] Creating layer inception_5a/output_inception_5a/output_0_split
I0403 15:28:20.187392  3123 net.cpp:91] Creating Layer inception_5a/output_inception_5a/output_0_split
I0403 15:28:20.187410  3123 net.cpp:425] inception_5a/output_inception_5a/output_0_split <- inception_5a/output
I0403 15:28:20.187428  3123 net.cpp:399] inception_5a/output_inception_5a/output_0_split -> inception_5a/output_inception_5a/output_0_split_0
I0403 15:28:20.187449  3123 net.cpp:399] inception_5a/output_inception_5a/output_0_split -> inception_5a/output_inception_5a/output_0_split_1
I0403 15:28:20.187474  3123 net.cpp:399] inception_5a/output_inception_5a/output_0_split -> inception_5a/output_inception_5a/output_0_split_2
I0403 15:28:20.187494  3123 net.cpp:399] inception_5a/output_inception_5a/output_0_split -> inception_5a/output_inception_5a/output_0_split_3
I0403 15:28:20.187615  3123 net.cpp:141] Setting up inception_5a/output_inception_5a/output_0_split
I0403 15:28:20.187640  3123 net.cpp:148] Top shape: 24 832 7 7 (978432)
I0403 15:28:20.187657  3123 net.cpp:148] Top shape: 24 832 7 7 (978432)
I0403 15:28:20.187674  3123 net.cpp:148] Top shape: 24 832 7 7 (978432)
I0403 15:28:20.187690  3123 net.cpp:148] Top shape: 24 832 7 7 (978432)
I0403 15:28:20.187705  3123 net.cpp:156] Memory required for data: 1325241888
I0403 15:28:20.187721  3123 layer_factory.hpp:77] Creating layer inception_5b/1x1
I0403 15:28:20.187744  3123 net.cpp:91] Creating Layer inception_5b/1x1
I0403 15:28:20.187762  3123 net.cpp:425] inception_5b/1x1 <- inception_5a/output_inception_5a/output_0_split_0
I0403 15:28:20.187784  3123 net.cpp:399] inception_5b/1x1 -> inception_5b/1x1
I0403 15:28:20.191799  3123 net.cpp:141] Setting up inception_5b/1x1
I0403 15:28:20.191830  3123 net.cpp:148] Top shape: 24 384 7 7 (451584)
I0403 15:28:20.191848  3123 net.cpp:156] Memory required for data: 1327048224
I0403 15:28:20.191867  3123 layer_factory.hpp:77] Creating layer inception_5b/relu_1x1
I0403 15:28:20.191890  3123 net.cpp:91] Creating Layer inception_5b/relu_1x1
I0403 15:28:20.191907  3123 net.cpp:425] inception_5b/relu_1x1 <- inception_5b/1x1
I0403 15:28:20.191926  3123 net.cpp:386] inception_5b/relu_1x1 -> inception_5b/1x1 (in-place)
I0403 15:28:20.192255  3123 net.cpp:141] Setting up inception_5b/relu_1x1
I0403 15:28:20.192282  3123 net.cpp:148] Top shape: 24 384 7 7 (451584)
I0403 15:28:20.192298  3123 net.cpp:156] Memory required for data: 1328854560
I0403 15:28:20.192314  3123 layer_factory.hpp:77] Creating layer inception_5b/3x3_reduce
I0403 15:28:20.192340  3123 net.cpp:91] Creating Layer inception_5b/3x3_reduce
I0403 15:28:20.192359  3123 net.cpp:425] inception_5b/3x3_reduce <- inception_5a/output_inception_5a/output_0_split_1
I0403 15:28:20.192380  3123 net.cpp:399] inception_5b/3x3_reduce -> inception_5b/3x3_reduce
I0403 15:28:20.195245  3123 net.cpp:141] Setting up inception_5b/3x3_reduce
I0403 15:28:20.195278  3123 net.cpp:148] Top shape: 24 192 7 7 (225792)
I0403 15:28:20.195297  3123 net.cpp:156] Memory required for data: 1329757728
I0403 15:28:20.195317  3123 layer_factory.hpp:77] Creating layer inception_5b/relu_3x3_reduce
I0403 15:28:20.195335  3123 net.cpp:91] Creating Layer inception_5b/relu_3x3_reduce
I0403 15:28:20.195353  3123 net.cpp:425] inception_5b/relu_3x3_reduce <- inception_5b/3x3_reduce
I0403 15:28:20.195370  3123 net.cpp:386] inception_5b/relu_3x3_reduce -> inception_5b/3x3_reduce (in-place)
I0403 15:28:20.195576  3123 net.cpp:141] Setting up inception_5b/relu_3x3_reduce
I0403 15:28:20.195602  3123 net.cpp:148] Top shape: 24 192 7 7 (225792)
I0403 15:28:20.195617  3123 net.cpp:156] Memory required for data: 1330660896
I0403 15:28:20.195633  3123 layer_factory.hpp:77] Creating layer inception_5b/3x3
I0403 15:28:20.195657  3123 net.cpp:91] Creating Layer inception_5b/3x3
I0403 15:28:20.195675  3123 net.cpp:425] inception_5b/3x3 <- inception_5b/3x3_reduce
I0403 15:28:20.195699  3123 net.cpp:399] inception_5b/3x3 -> inception_5b/3x3
I0403 15:28:20.202874  3123 net.cpp:141] Setting up inception_5b/3x3
I0403 15:28:20.202909  3123 net.cpp:148] Top shape: 24 384 7 7 (451584)
I0403 15:28:20.202927  3123 net.cpp:156] Memory required for data: 1332467232
I0403 15:28:20.202947  3123 layer_factory.hpp:77] Creating layer inception_5b/relu_3x3
I0403 15:28:20.202966  3123 net.cpp:91] Creating Layer inception_5b/relu_3x3
I0403 15:28:20.202983  3123 net.cpp:425] inception_5b/relu_3x3 <- inception_5b/3x3
I0403 15:28:20.203001  3123 net.cpp:386] inception_5b/relu_3x3 -> inception_5b/3x3 (in-place)
I0403 15:28:20.203332  3123 net.cpp:141] Setting up inception_5b/relu_3x3
I0403 15:28:20.203363  3123 net.cpp:148] Top shape: 24 384 7 7 (451584)
I0403 15:28:20.203382  3123 net.cpp:156] Memory required for data: 1334273568
I0403 15:28:20.203397  3123 layer_factory.hpp:77] Creating layer inception_5b/5x5_reduce
I0403 15:28:20.203438  3123 net.cpp:91] Creating Layer inception_5b/5x5_reduce
I0403 15:28:20.203457  3123 net.cpp:425] inception_5b/5x5_reduce <- inception_5a/output_inception_5a/output_0_split_2
I0403 15:28:20.203479  3123 net.cpp:399] inception_5b/5x5_reduce -> inception_5b/5x5_reduce
I0403 15:28:20.204844  3123 net.cpp:141] Setting up inception_5b/5x5_reduce
I0403 15:28:20.204877  3123 net.cpp:148] Top shape: 24 48 7 7 (56448)
I0403 15:28:20.204895  3123 net.cpp:156] Memory required for data: 1334499360
I0403 15:28:20.204916  3123 layer_factory.hpp:77] Creating layer inception_5b/relu_5x5_reduce
I0403 15:28:20.204934  3123 net.cpp:91] Creating Layer inception_5b/relu_5x5_reduce
I0403 15:28:20.204952  3123 net.cpp:425] inception_5b/relu_5x5_reduce <- inception_5b/5x5_reduce
I0403 15:28:20.204972  3123 net.cpp:386] inception_5b/relu_5x5_reduce -> inception_5b/5x5_reduce (in-place)
I0403 15:28:20.205373  3123 net.cpp:141] Setting up inception_5b/relu_5x5_reduce
I0403 15:28:20.205401  3123 net.cpp:148] Top shape: 24 48 7 7 (56448)
I0403 15:28:20.205417  3123 net.cpp:156] Memory required for data: 1334725152
I0403 15:28:20.205435  3123 layer_factory.hpp:77] Creating layer inception_5b/5x5
I0403 15:28:20.205456  3123 net.cpp:91] Creating Layer inception_5b/5x5
I0403 15:28:20.205472  3123 net.cpp:425] inception_5b/5x5 <- inception_5b/5x5_reduce
I0403 15:28:20.205492  3123 net.cpp:399] inception_5b/5x5 -> inception_5b/5x5
I0403 15:28:20.207715  3123 net.cpp:141] Setting up inception_5b/5x5
I0403 15:28:20.207744  3123 net.cpp:148] Top shape: 24 128 7 7 (150528)
I0403 15:28:20.207761  3123 net.cpp:156] Memory required for data: 1335327264
I0403 15:28:20.207779  3123 layer_factory.hpp:77] Creating layer inception_5b/relu_5x5
I0403 15:28:20.207799  3123 net.cpp:91] Creating Layer inception_5b/relu_5x5
I0403 15:28:20.207816  3123 net.cpp:425] inception_5b/relu_5x5 <- inception_5b/5x5
I0403 15:28:20.207837  3123 net.cpp:386] inception_5b/relu_5x5 -> inception_5b/5x5 (in-place)
I0403 15:28:20.208046  3123 net.cpp:141] Setting up inception_5b/relu_5x5
I0403 15:28:20.208072  3123 net.cpp:148] Top shape: 24 128 7 7 (150528)
I0403 15:28:20.208088  3123 net.cpp:156] Memory required for data: 1335929376
I0403 15:28:20.208104  3123 layer_factory.hpp:77] Creating layer inception_5b/pool
I0403 15:28:20.208125  3123 net.cpp:91] Creating Layer inception_5b/pool
I0403 15:28:20.208143  3123 net.cpp:425] inception_5b/pool <- inception_5a/output_inception_5a/output_0_split_3
I0403 15:28:20.208163  3123 net.cpp:399] inception_5b/pool -> inception_5b/pool
I0403 15:28:20.208246  3123 net.cpp:141] Setting up inception_5b/pool
I0403 15:28:20.208271  3123 net.cpp:148] Top shape: 24 832 7 7 (978432)
I0403 15:28:20.208287  3123 net.cpp:156] Memory required for data: 1339843104
I0403 15:28:20.208303  3123 layer_factory.hpp:77] Creating layer inception_5b/pool_proj
I0403 15:28:20.208325  3123 net.cpp:91] Creating Layer inception_5b/pool_proj
I0403 15:28:20.208344  3123 net.cpp:425] inception_5b/pool_proj <- inception_5b/pool
I0403 15:28:20.208366  3123 net.cpp:399] inception_5b/pool_proj -> inception_5b/pool_proj
I0403 15:28:20.210824  3123 net.cpp:141] Setting up inception_5b/pool_proj
I0403 15:28:20.210858  3123 net.cpp:148] Top shape: 24 128 7 7 (150528)
I0403 15:28:20.210876  3123 net.cpp:156] Memory required for data: 1340445216
I0403 15:28:20.210896  3123 layer_factory.hpp:77] Creating layer inception_5b/relu_pool_proj
I0403 15:28:20.210917  3123 net.cpp:91] Creating Layer inception_5b/relu_pool_proj
I0403 15:28:20.210935  3123 net.cpp:425] inception_5b/relu_pool_proj <- inception_5b/pool_proj
I0403 15:28:20.210955  3123 net.cpp:386] inception_5b/relu_pool_proj -> inception_5b/pool_proj (in-place)
I0403 15:28:20.211277  3123 net.cpp:141] Setting up inception_5b/relu_pool_proj
I0403 15:28:20.211309  3123 net.cpp:148] Top shape: 24 128 7 7 (150528)
I0403 15:28:20.211328  3123 net.cpp:156] Memory required for data: 1341047328
I0403 15:28:20.211344  3123 layer_factory.hpp:77] Creating layer inception_5b/output
I0403 15:28:20.211364  3123 net.cpp:91] Creating Layer inception_5b/output
I0403 15:28:20.211395  3123 net.cpp:425] inception_5b/output <- inception_5b/1x1
I0403 15:28:20.211415  3123 net.cpp:425] inception_5b/output <- inception_5b/3x3
I0403 15:28:20.211432  3123 net.cpp:425] inception_5b/output <- inception_5b/5x5
I0403 15:28:20.211449  3123 net.cpp:425] inception_5b/output <- inception_5b/pool_proj
I0403 15:28:20.211472  3123 net.cpp:399] inception_5b/output -> inception_5b/output
I0403 15:28:20.211529  3123 net.cpp:141] Setting up inception_5b/output
I0403 15:28:20.211554  3123 net.cpp:148] Top shape: 24 1024 7 7 (1204224)
I0403 15:28:20.211568  3123 net.cpp:156] Memory required for data: 1345864224
I0403 15:28:20.211585  3123 layer_factory.hpp:77] Creating layer pool5/7x7_s1
I0403 15:28:20.211606  3123 net.cpp:91] Creating Layer pool5/7x7_s1
I0403 15:28:20.211624  3123 net.cpp:425] pool5/7x7_s1 <- inception_5b/output
I0403 15:28:20.211644  3123 net.cpp:399] pool5/7x7_s1 -> pool5/7x7_s1
I0403 15:28:20.211874  3123 net.cpp:141] Setting up pool5/7x7_s1
I0403 15:28:20.211902  3123 net.cpp:148] Top shape: 24 1024 1 1 (24576)
I0403 15:28:20.211918  3123 net.cpp:156] Memory required for data: 1345962528
I0403 15:28:20.211935  3123 layer_factory.hpp:77] Creating layer pool5/drop_7x7_s1
I0403 15:28:20.211954  3123 net.cpp:91] Creating Layer pool5/drop_7x7_s1
I0403 15:28:20.211971  3123 net.cpp:425] pool5/drop_7x7_s1 <- pool5/7x7_s1
I0403 15:28:20.211992  3123 net.cpp:386] pool5/drop_7x7_s1 -> pool5/7x7_s1 (in-place)
I0403 15:28:20.212045  3123 net.cpp:141] Setting up pool5/drop_7x7_s1
I0403 15:28:20.212069  3123 net.cpp:148] Top shape: 24 1024 1 1 (24576)
I0403 15:28:20.212085  3123 net.cpp:156] Memory required for data: 1346060832
I0403 15:28:20.212100  3123 layer_factory.hpp:77] Creating layer loss3/classifier_plantvillage
I0403 15:28:20.212124  3123 net.cpp:91] Creating Layer loss3/classifier_plantvillage
I0403 15:28:20.212141  3123 net.cpp:425] loss3/classifier_plantvillage <- pool5/7x7_s1
I0403 15:28:20.212164  3123 net.cpp:399] loss3/classifier_plantvillage -> loss3/classifier_plantvillage
I0403 15:28:20.212623  3123 net.cpp:141] Setting up loss3/classifier_plantvillage
I0403 15:28:20.212649  3123 net.cpp:148] Top shape: 24 38 (912)
I0403 15:28:20.212666  3123 net.cpp:156] Memory required for data: 1346064480
I0403 15:28:20.212684  3123 layer_factory.hpp:77] Creating layer loss3/classifier_plantvillage_loss3/classifier_plantvillage_0_split
I0403 15:28:20.212705  3123 net.cpp:91] Creating Layer loss3/classifier_plantvillage_loss3/classifier_plantvillage_0_split
I0403 15:28:20.212723  3123 net.cpp:425] loss3/classifier_plantvillage_loss3/classifier_plantvillage_0_split <- loss3/classifier_plantvillage
I0403 15:28:20.212743  3123 net.cpp:399] loss3/classifier_plantvillage_loss3/classifier_plantvillage_0_split -> loss3/classifier_plantvillage_loss3/classifier_plantvillage_0_split_0
I0403 15:28:20.212764  3123 net.cpp:399] loss3/classifier_plantvillage_loss3/classifier_plantvillage_0_split -> loss3/classifier_plantvillage_loss3/classifier_plantvillage_0_split_1
I0403 15:28:20.212785  3123 net.cpp:399] loss3/classifier_plantvillage_loss3/classifier_plantvillage_0_split -> loss3/classifier_plantvillage_loss3/classifier_plantvillage_0_split_2
I0403 15:28:20.212805  3123 net.cpp:399] loss3/classifier_plantvillage_loss3/classifier_plantvillage_0_split -> loss3/classifier_plantvillage_loss3/classifier_plantvillage_0_split_3
I0403 15:28:20.212914  3123 net.cpp:141] Setting up loss3/classifier_plantvillage_loss3/classifier_plantvillage_0_split
I0403 15:28:20.212939  3123 net.cpp:148] Top shape: 24 38 (912)
I0403 15:28:20.212955  3123 net.cpp:148] Top shape: 24 38 (912)
I0403 15:28:20.212971  3123 net.cpp:148] Top shape: 24 38 (912)
I0403 15:28:20.212987  3123 net.cpp:148] Top shape: 24 38 (912)
I0403 15:28:20.213002  3123 net.cpp:156] Memory required for data: 1346079072
I0403 15:28:20.213017  3123 layer_factory.hpp:77] Creating layer loss1/loss
I0403 15:28:20.213040  3123 net.cpp:91] Creating Layer loss1/loss
I0403 15:28:20.213058  3123 net.cpp:425] loss1/loss <- loss1/classifier_plantvillage_loss1/classifier_plantvillage_0_split_0
I0403 15:28:20.213090  3123 net.cpp:425] loss1/loss <- label_data_1_split_0
…
