…
I0403 15:21:17.296476  2997 net.cpp:313] The NetState phase (1) differed from the phase (0) specified by a rule in layer data
I0403 15:21:17.297722  2997 net.cpp:49] Initializing net from parameters: 
state {
  phase: TEST
}
layer {
  name: "data"
  type: "Data"
  top: "data"
  top: "label"
  include {
    phase: TEST
  }
  transform_param {
    mirror: false
    crop_size: 224
    mean_file: "/home/mohanty/data/final_dataset/lmdb/segmented-60-40/mean.binaryproto"
  }
  data_param {
    source: "/home/mohanty/data/final_dataset/lmdb/segmented-60-40/test_db"
    batch_size: 24
    backend: LMDB
  }
}
layer {
  name: "conv1/7x7_s2"
  type: "Convolution"
  bottom: "data"
  top: "conv1/7x7_s2"
  param {
    lr_mult: 1
    decay_mult: 1
  }
  param {
    lr_mult: 2
    decay_mult: 0
  }
  convolution_param {
    num_output: 64
    pad: 3
    kernel_size: 7
    stride: 2
    weight_filler {
      type: "xavier"
      std: 0.1
    }
    bias_filler {
      type: "constant"
      value: 0.2
    }
  }
}
layer {
  name: "conv1/relu_7x7"
  type: "ReLU"
  bottom: "conv1/7x7_s2"
  top: "conv1/7x7_s2"
}
layer {
  name: "pool1/3x3_s2"
  type: "Pooling"
  bottom: "conv1/7x7_s2"
  top: "pool1/3x3_s2"
  pooling_param {
    pool: MAX
    kernel_size: 3
    stride: 2
  }
}
layer {
  name: "pool1/norm1"
  type: "LRN"
  bottom: "pool1/3x3_s2"
  top: "pool1/norm1"
  lrn_param {
    local_size: 5
    alpha: 0.0001
    beta: 0.75
  }
}
layer {
  name: "conv2/3x3_reduce"
  type: "Convolution"
  bottom: "pool1/norm1"
  top: "conv2/3x3_reduce"
  param {
    lr_mult: 1
    decay_mult: 1
  }
  param {
    lr_mult: 2
    decay_mult: 0
  }
  convolution_param {
    num_output: 64
    kernel_size: 1
    weight_filler {
      type: "xavier"
      std: 0.1
    }
    bias_filler {
      type: "constant"
      value: 0.2
    }
  }
}
layer {
  name: "conv2/relu_3x3_reduce"
  type: "ReLU"
  bottom: "conv2/3x3_reduce"
  top: "conv2/3x3_reduce"
}
layer {
  name: "conv2/3x3"
  type: "Convolution"
  bottom: "conv2/3x3_reduce"
  top: "conv2/3x3"
  param {
    lr_mult: 1
    decay_mult: 1
  }
  param {
    lr_mult: 2
    decay_mult: 0
  }
  convolution_param {
    num_output: 192
    pad: 1
    kernel_size: 3
    weight_filler {
      type: "xavier"
      std: 0.03
    }
    bias_filler {
      type: "constant"
      value: 0.2
    }
  }
}
layer {
  name: "conv2/relu_3x3"
  type: "ReLU"
  bottom: "conv2/3x3"
  top: "conv2/3x3"
}
layer {
  name: "conv2/norm2"
  type: "LRN"
  bottom: "conv2/3x3"
  top: "conv2/norm2"
  lrn_param {
    local_size: 5
    alpha: 0.0001
    beta: 0.75
  }
}
layer {
  name: "pool2/3x3_s2"
  type: "Pooling"
  bottom: "conv2/norm2"
  top: "pool2/3x3_s2"
  pooling_param {
    pool: MAX
    kernel_size: 3
    stride: 2
  }
}
layer {
  name: "inception_3a/1x1"
  type: "Convolution"
  bottom: "pool2/3x3_s2"
  top: "inception_3a/1x1"
  param {
    lr_mult: 1
    decay_mult: 1
  }
  param {
    lr_mult: 2
    decay_mult: 0
  }
  convolution_param {
    num_output: 64
    kernel_size: 1
    weight_filler {
      type: "xavier"
      std: 0.03
    }
    bias_filler {
      type: "constant"
      value: 0.2
    }
  }
}
layer {
  name: "inception_3a/relu_1x1"
  type: "ReLU"
  bottom: "inception_3a/1x1"
  top: "inception_3a/1x1"
}
layer {
  name: "inception_3a/3x3_reduce"
  type: "Convolution"
  bottom: "pool2/3x3_s2"
  top: "inception_3a/3x3_reduce"
  param {
    lr_mult: 1
    decay_mult: 1
  }
  param {
    lr_mult: 2
    decay_mult: 0
  }
  convolution_param {
    num_output: 96
    kernel_size: 1
    weight_filler {
      type: "xavier"
      std: 0.09
    }
    bias_filler {
      type: "constant"
      value: 0.2
    }
  }
}
layer {
  name: "inception_3a/relu_3x3_reduce"
  type: "ReLU"
  bottom: "inception_3a/3x3_reduce"
  top: "inception_3a/3x3_reduce"
}
layer {
  name: "inception_3a/3x3"
  type: "Convolution"
  bottom: "inception_3a/3x3_reduce"
  top: "inception_3a/3x3"
  param {
    lr_mult: 1
    decay_mult: 1
  }
  param {
    lr_mult: 2
    decay_mult: 0
  }
  convolution_param {
    num_output: 128
    pad: 1
    kernel_size: 3
    weight_filler {
      type: "xavier"
      std: 0.03
    }
    bias_filler {
      type: "constant"
      value: 0.2
    }
  }
}
layer {
  name: "inception_3a/relu_3x3"
  type: "ReLU"
  bottom: "inception_3a/3x3"
  top: "inception_3a/3x3"
}
layer {
  name: "inception_3a/5x5_reduce"
  type: "Convolution"
  bottom: "pool2/3x3_s2"
  top: "inception_3a/5x5_reduce"
  param {
    lr_mult: 1
    decay_mult: 1
  }
  param {
    lr_mult: 2
    decay_mult: 0
  }
  convolution_param {
    num_output: 16
    kernel_size: 1
    weight_filler {
      type: "xavier"
      std: 0.2
    }
    bias_filler {
      type: "constant"
      value: 0.2
    }
  }
}
layer {
  name: "inception_3a/relu_5x5_reduce"
  type: "ReLU"
  bottom: "inception_3a/5x5_reduce"
  top: "inception_3a/5x5_reduce"
}
layer {
  name: "inception_3a/5x5"
  type: "Convolution"
  bottom: "inception_3a/5x5_reduce"
  top: "inception_3a/5x5"
  param {
    lr_mult: 1
    decay_mult: 1
  }
  param {
    lr_mult: 2
    decay_mult: 0
  }
  convolution_param {
    num_output: 32
    pad: 2
    kernel_size: 5
    weight_filler {
      type: "xavier"
      std: 0.03
    }
    bias_filler {
      type: "constant"
      value: 0.2
    }
  }
}
layer {
  name: "inception_3a/relu_5x5"
  type: "ReLU"
  bottom: "inception_3a/5x5"
  top: "inception_3a/5x5"
}
layer {
  name: "inception_3a/pool"
  type: "Pooling"
  bottom: "pool2/3x3_s2"
  top: "inception_3a/pool"
  pooling_param {
    pool: MAX
    kernel_size: 3
    stride: 1
    pad: 1
  }
}
layer {
  name: "inception_3a/pool_proj"
  type: "Convolution"
  bottom: "inception_3a/pool"
  top: "inception_3a/pool_proj"
  param {
    lr_mult: 1
    decay_mult: 1
  }
  param {
    lr_mult: 2
    decay_mult: 0
  }
  convolution_param {
    num_output: 32
    kernel_size: 1
    weight_filler {
      type: "xavier"
      std: 0.1
    }
    bias_filler {
      type: "constant"
      value: 0.2
    }
  }
}
layer {
  name: "inception_3a/relu_pool_proj"
  type: "ReLU"
  bottom: "inception_3a/pool_proj"
  top: "inception_3a/pool_proj"
}
layer {
  name: "inception_3a/output"
  type: "Concat"
  bottom: "inception_3a/1x1"
  bottom: "inception_3a/3x3"
  bottom: "inception_3a/5x5"
  bottom: "inception_3a/pool_proj"
  top: "inception_3a/output"
}
layer {
  name: "inception_3b/1x1"
  type: "Convolution"
  bottom: "inception_3a/output"
  top: "inception_3b/1x1"
  param {
    lr_mult: 1
    decay_mult: 1
  }
  param {
    lr_mult: 2
    decay_mult: 0
  }
  convolution_param {
    num_output: 128
    kernel_size: 1
    weight_filler {
      type: "xavier"
      std: 0.03
    }
    bias_filler {
      type: "constant"
      value: 0.2
    }
  }
}
layer {
  name: "inception_3b/relu_1x1"
  type: "ReLU"
  bottom: "inception_3b/1x1"
  top: "inception_3b/1x1"
}
layer {
  name: "inception_3b/3x3_reduce"
  type: "Convolution"
  bottom: "inception_3a/output"
  top: "inception_3b/3x3_reduce"
  param {
    lr_mult: 1
    decay_mult: 1
  }
  param {
    lr_mult: 2
    decay_mult: 0
  }
  convolution_param {
    num_output: 128
    kernel_size: 1
    weight_filler {
      type: "xavier"
      std: 0.09
    }
    bias_filler {
      type: "constant"
      value: 0.2
    }
  }
}
layer {
  name: "inception_3b/relu_3x3_reduce"
  type: "ReLU"
  bottom: "inception_3b/3x3_reduce"
  top: "inception_3b/3x3_reduce"
}
layer {
  name: "inception_3b/3x3"
  type: "Convolution"
  bottom: "inception_3b/3x3_reduce"
  top: "inception_3b/3x3"
  param {
    lr_mult: 1
    decay_mult: 1
  }
  param {
    lr_mult: 2
    decay_mult: 0
  }
  convolution_param {
    num_output: 192
    pad: 1
    kernel_size: 3
    weight_filler {
      type: "xavier"
      std: 0.03
    }
    bias_filler {
      type: "constant"
      value: 0.2
    }
  }
}
layer {
  name: "inception_3b/relu_3x3"
  type: "ReLU"
  bottom: "inception_3b/3x3"
  top: "inception_3b/3x3"
}
layer {
  name: "inception_3b/5x5_reduce"
  type: "Convolution"
  bottom: "inception_3a/output"
  top: "inception_3b/5x5_reduce"
  param {
    lr_mult: 1
    decay_mult: 1
  }
  param {
    lr_mult: 2
    decay_mult: 0
  }
  convolution_param {
    num_output: 32
    kernel_size: 1
    weight_filler {
      type: "xavier"
      std: 0.2
    }
    bias_filler {
      type: "constant"
      value: 0.2
    }
  }
}
layer {
  name: "inception_3b/relu_5x5_reduce"
  type: "ReLU"
  bottom: "inception_3b/5x5_reduce"
  top: "inception_3b/5x5_reduce"
}
layer {
  name: "inception_3b/5x5"
  type: "Convolution"
  bottom: "inception_3b/5x5_reduce"
  top: "inception_3b/5x5"
  param {
    lr_mult: 1
    decay_mult: 1
  }
  param {
    lr_mult: 2
    decay_mult: 0
  }
  convolution_param {
    num_output: 96
    pad: 2
    kernel_size: 5
    weight_filler {
      type: "xavier"
      std: 0.03
    }
    bias_filler {
      type: "constant"
      value: 0.2
    }
  }
}
layer {
  name: "inception_3b/relu_5x5"
  type: "ReLU"
  bottom: "inception_3b/5x5"
  top: "inception_3b/5x5"
}
layer {
  name: "inception_3b/pool"
  type: "Pooling"
  bottom: "inception_3a/output"
  top: "inception_3b/pool"
  pooling_param {
    pool: MAX
    kernel_size: 3
    stride: 1
    pad: 1
  }
}
layer {
  name: "inception_3b/pool_proj"
  type: "Convolution"
  bottom: "inception_3b/pool"
  top: "inception_3b/pool_proj"
  param {
    lr_mult: 1
    decay_mult: 1
  }
  param {
    lr_mult: 2
    decay_mult: 0
  }
  convolution_param {
    num_output: 64
    kernel_size: 1
    weight_filler {
      type: "xavier"
      std: 0.1
    }
    bias_filler {
      type: "constant"
      value: 0.2
    }
  }
}
layer {
  name: "inception_3b/relu_pool_proj"
  type: "ReLU"
  bottom: "inception_3b/pool_proj"
  top: "inception_3b/pool_proj"
}
layer {
  name: "inception_3b/output"
  type: "Concat"
  bottom: "inception_3b/1x1"
  bottom: "inception_3b/3x3"
  bottom: "inception_3b/5x5"
  bottom: "inception_3b/pool_proj"
  top: "inception_3b/output"
}
layer {
  name: "pool3/3x3_s2"
  type: "Pooling"
  bottom: "inception_3b/output"
  top: "pool3/3x3_s2"
  pooling_param {
    pool: MAX
    kernel_size: 3
    stride: 2
  }
}
layer {
  name: "inception_4a/1x1"
  type: "Convolution"
  bottom: "pool3/3x3_s2"
  top: "inception_4a/1x1"
  param {
    lr_mult: 1
    decay_mult: 1
  }
  param {
    lr_mult: 2
    decay_mult: 0
  }
  convolution_param {
    num_output: 192
    kernel_size: 1
    weight_filler {
      type: "xavier"
      std: 0.03
    }
    bias_filler {
      type: "constant"
      value: 0.2
    }
  }
}
layer {
  name: "inception_4a/relu_1x1"
  type: "ReLU"
  bottom: "inception_4a/1x1"
  top: "inception_4a/1x1"
}
layer {
  name: "inception_4a/3x3_reduce"
  type: "Convolution"
  bottom: "pool3/3x3_s2"
  top: "inception_4a/3x3_reduce"
  param {
    lr_mult: 1
    decay_mult: 1
  }
  param {
    lr_mult: 2
    decay_mult: 0
  }
  convolution_param {
    num_output: 96
    kernel_size: 1
    weight_filler {
      type: "xavier"
      std: 0.09
    }
    bias_filler {
      type: "constant"
      value: 0.2
    }
  }
}
layer {
  name: "inception_4a/relu_3x3_reduce"
  type: "ReLU"
  bottom: "inception_4a/3x3_reduce"
  top: "inception_4a/3x3_reduce"
}
layer {
  name: "inception_4a/3x3"
  type: "Convolution"
  bottom: "inception_4a/3x3_reduce"
  top: "inception_4a/3x3"
  param {
    lr_mult: 1
    decay_mult: 1
  }
  param {
    lr_mult: 2
    decay_mult: 0
  }
  convolution_param {
    num_output: 208
    pad: 1
    kernel_size: 3
    weight_filler {
      type: "xavier"
      std: 0.03
    }
    bias_filler {
      type: "constant"
      value: 0.2
    }
  }
}
layer {
  name: "inception_4a/relu_3x3"
  type: "ReLU"
  bottom: "inception_4a/3x3"
  top: "inception_4a/3x3"
}
layer {
  name: "inception_4a/5x5_reduce"
  type: "Convolution"
  bottom: "pool3/3x3_s2"
  top: "inception_4a/5x5_reduce"
  param {
    lr_mult: 1
    decay_mult: 1
  }
  param {
    lr_mult: 2
    decay_mult: 0
  }
  convolution_param {
    num_output: 16
    kernel_size: 1
    weight_filler {
      type: "xavier"
      std: 0.2
    }
    bias_filler {
      type: "constant"
      value: 0.2
    }
  }
}
layer {
  name: "inception_4a/relu_5x5_reduce"
  type: "ReLU"
  bottom: "inception_4a/5x5_reduce"
  top: "inception_4a/5x5_reduce"
}
layer {
  name: "inception_4a/5x5"
  type: "Convolution"
  bottom: "inception_4a/5x5_reduce"
  top: "inception_4a/5x5"
  param {
    lr_mult: 1
    decay_mult: 1
  }
  param {
    lr_mult: 2
    decay_mult: 0
  }
  convolution_param {
    num_output: 48
    pad: 2
    kernel_size: 5
    weight_filler {
      type: "xavier"
      std: 0.03
    }
    bias_filler {
      type: "constant"
      value: 0.2
    }
  }
}
layer {
  name: "inception_4a/relu_5x5"
  type: "ReLU"
  bottom: "inception_4a/5x5"
  top: "inception_4a/5x5"
}
layer {
  name: "inception_4a/pool"
  type: "Pooling"
  bottom: "pool3/3x3_s2"
  top: "inception_4a/pool"
  pooling_param {
    pool: MAX
    kernel_size: 3
    stride: 1
    pad: 1
  }
}
layer {
  name: "inception_4a/pool_proj"
  type: "Convolution"
  bottom: "inception_4a/pool"
  top: "inception_4a/pool_proj"
  param {
    lr_mult: 1
    decay_mult: 1
  }
  param {
    lr_mult: 2
    decay_mult: 0
  }
  convolution_param {
    num_output: 64
    kernel_size: 1
    weight_filler {
      type: "xavier"
      std: 0.1
    }
    bias_filler {
      type: "constant"
      value: 0.2
    }
  }
}
layer {
  name: "inception_4a/relu_pool_proj"
  type: "ReLU"
  bottom: "inception_4a/pool_proj"
  top: "inception_4a/pool_proj"
}
layer {
  name: "inception_4a/output"
  type: "Concat"
  bottom: "inception_4a/1x1"
  bottom: "inception_4a/3x3"
  bottom: "inception_4a/5x5"
  bottom: "inception_4a/pool_proj"
  top: "inception_4a/output"
}
layer {
  name: "loss1/ave_pool"
  type: "Pooling"
  bottom: "inception_4a/output"
  top: "loss1/ave_pool"
  pooling_param {
    pool: AVE
    kernel_size: 5
    stride: 3
  }
}
layer {
  name: "loss1/conv"
  type: "Convolution"
  bottom: "loss1/ave_pool"
  top: "loss1/conv"
  param {
    lr_mult: 1
    decay_mult: 1
  }
  param {
    lr_mult: 2
    decay_mult: 0
  }
  convolution_param {
    num_output: 128
    kernel_size: 1
    weight_filler {
      type: "xavier"
      std: 0.08
    }
    bias_filler {
      type: "constant"
      value: 0.2
    }
  }
}
layer {
  name: "loss1/relu_conv"
  type: "ReLU"
  bottom: "loss1/conv"
  top: "loss1/conv"
}
layer {
  name: "loss1/fc"
  type: "InnerProduct"
  bottom: "loss1/conv"
  top: "loss1/fc"
  param {
    lr_mult: 1
    decay_mult: 1
  }
  param {
    lr_mult: 2
    decay_mult: 0
  }
  inner_product_param {
    num_output: 1024
    weight_filler {
      type: "xavier"
      std: 0.02
    }
    bias_filler {
      type: "constant"
      value: 0.2
    }
  }
}
layer {
  name: "loss1/relu_fc"
  type: "ReLU"
  bottom: "loss1/fc"
  top: "loss1/fc"
}
layer {
  name: "loss1/drop_fc"
  type: "Dropout"
  bottom: "loss1/fc"
  top: "loss1/fc"
  dropout_param {
    dropout_ratio: 0.7
  }
}
layer {
  name: "loss1/classifier_plantvillage"
  type: "InnerProduct"
  bottom: "loss1/fc"
  top: "loss1/classifier_plantvillage"
  param {
    lr_mult: 1
    decay_mult: 1
  }
  param {
    lr_mult: 2
    decay_mult: 0
  }
  inner_product_param {
    num_output: 38
    weight_filler {
      type: "xavier"
      std: 0.0009765625
    }
    bias_filler {
      type: "constant"
      value: 0
    }
  }
}
layer {
  name: "inception_4b/1x1"
  type: "Convolution"
  bottom: "inception_4a/output"
  top: "inception_4b/1x1"
  param {
    lr_mult: 1
    decay_mult: 1
  }
  param {
    lr_mult: 2
    decay_mult: 0
  }
  convolution_param {
    num_output: 160
    kernel_size: 1
    weight_filler {
      type: "xavier"
      std: 0.03
    }
    bias_filler {
      type: "constant"
      value: 0.2
    }
  }
}
layer {
  name: "inception_4b/relu_1x1"
  type: "ReLU"
  bottom: "inception_4b/1x1"
  top: "inception_4b/1x1"
}
layer {
  name: "inception_4b/3x3_reduce"
  type: "Convolution"
  bottom: "inception_4a/output"
  top: "inception_4b/3x3_reduce"
  param {
    lr_mult: 1
    decay_mult: 1
  }
  param {
    lr_mult: 2
    decay_mult: 0
  }
  convolution_param {
    num_output: 112
    kernel_size: 1
    weight_filler {
      type: "xavier"
      std: 0.09
    }
    bias_filler {
      type: "constant"
      value: 0.2
    }
  }
}
layer {
  name: "inception_4b/relu_3x3_reduce"
  type: "ReLU"
  bottom: "inception_4b/3x3_reduce"
  top: "inception_4b/3x3_reduce"
}
layer {
  name: "inception_4b/3x3"
  type: "Convolution"
  bottom: "inception_4b/3x3_reduce"
  top: "inception_4b/3x3"
  param {
    lr_mult: 1
    decay_mult: 1
  }
  param {
    lr_mult: 2
    decay_mult: 0
  }
  convolution_param {
    num_output: 224
    pad: 1
    kernel_size: 3
    weight_filler {
      type: "xavier"
      std: 0.03
    }
    bias_filler {
      type: "constant"
      value: 0.2
    }
  }
}
layer {
  name: "inception_4b/relu_3x3"
  type: "ReLU"
  bottom: "inception_4b/3x3"
  top: "inception_4b/3x3"
}
layer {
  name: "inception_4b/5x5_reduce"
  type: "Convolution"
  bottom: "inception_4a/output"
  top: "inception_4b/5x5_reduce"
  param {
    lr_mult: 1
    decay_mult: 1
  }
  param {
    lr_mult: 2
    decay_mult: 0
  }
  convolution_param {
    num_output: 24
    kernel_size: 1
    weight_filler {
      type: "xavier"
      std: 0.2
    }
    bias_filler {
      type: "constant"
      value: 0.2
    }
  }
}
layer {
  name: "inception_4b/relu_5x5_reduce"
  type: "ReLU"
  bottom: "inception_4b/5x5_reduce"
  top: "inception_4b/5x5_reduce"
}
layer {
  name: "inception_4b/5x5"
  type: "Convolution"
  bottom: "inception_4b/5x5_reduce"
  top: "inception_4b/5x5"
  param {
    lr_mult: 1
    decay_mult: 1
  }
  param {
    lr_mult: 2
    decay_mult: 0
  }
  convolution_param {
    num_output: 64
    pad: 2
    kernel_size: 5
    weight_filler {
      type: "xavier"
      std: 0.03
    }
    bias_filler {
      type: "constant"
      value: 0.2
    }
  }
}
layer {
  name: "inception_4b/relu_5x5"
  type: "ReLU"
  bottom: "inception_4b/5x5"
  top: "inception_4b/5x5"
}
layer {
  name: "inception_4b/pool"
  type: "Pooling"
  bottom: "inception_4a/output"
  top: "inception_4b/pool"
  pooling_param {
    pool: MAX
    kernel_size: 3
    stride: 1
    pad: 1
  }
}
layer {
  name: "inception_4b/pool_proj"
  type: "Convolution"
  bottom: "inception_4b/pool"
  top: "inception_4b/pool_proj"
  param {
    lr_mult: 1
    decay_mult: 1
  }
  param {
    lr_mult: 2
    decay_mult: 0
  }
  convolution_param {
    num_output: 64
    kernel_size: 1
    weight_filler {
      type: "xavier"
      std: 0.1
    }
    bias_filler {
      type: "constant"
      value: 0.2
    }
  }
}
layer {
  name: "inception_4b/relu_pool_proj"
  type: "ReLU"
  bottom: "inception_4b/pool_proj"
  top: "inception_4b/pool_proj"
}
layer {
  name: "inception_4b/output"
  type: "Concat"
  bottom: "inception_4b/1x1"
  bottom: "inception_4b/3x3"
  bottom: "inception_4b/5x5"
  bottom: "inception_4b/pool_proj"
  top: "inception_4b/output"
}
layer {
  name: "inception_4c/1x1"
  type: "Convolution"
  bottom: "inception_4b/output"
  top: "inception_4c/1x1"
  param {
    lr_mult: 1
    decay_mult: 1
  }
  param {
    lr_mult: 2
    decay_mult: 0
  }
  convolution_param {
    num_output: 128
    kernel_size: 1
    weight_filler {
      type: "xavier"
      std: 0.03
    }
    bias_filler {
      type: "constant"
      value: 0.2
    }
  }
}
layer {
  name: "inception_4c/relu_1x1"
  type: "ReLU"
  bottom: "inception_4c/1x1"
  top: "inception_4c/1x1"
}
layer {
  name: "inception_4c/3x3_reduce"
  type: "Convolution"
  bottom: "inception_4b/output"
  top: "inception_4c/3x3_reduce"
  param {
    lr_mult: 1
    decay_mult: 1
  }
  param {
    lr_mult: 2
    decay_mult: 0
  }
  convolution_param {
    num_output: 128
    kernel_size: 1
    weight_filler {
      type: "xavier"
      std: 0.09
    }
    bias_filler {
      type: "constant"
      value: 0.2
    }
  }
}
layer {
  name: "inception_4c/relu_3x3_reduce"
  type: "ReLU"
  bottom: "inception_4c/3x3_reduce"
  top: "inception_4c/3x3_reduce"
}
layer {
  name: "inception_4c/3x3"
  type: "Convolution"
  bottom: "inception_4c/3x3_reduce"
  top: "inception_4c/3x3"
  param {
    lr_mult: 1
    decay_mult: 1
  }
  param {
    lr_mult: 2
    decay_mult: 0
  }
  convolution_param {
    num_output: 256
    pad: 1
    kernel_size: 3
    weight_filler {
      type: "xavier"
      std: 0.03
    }
    bias_filler {
      type: "constant"
      value: 0.2
    }
  }
}
layer {
  name: "inception_4c/relu_3x3"
  type: "ReLU"
  bottom: "inception_4c/3x3"
  top: "inception_4c/3x3"
}
layer {
  name: "inception_4c/5x5_reduce"
  type: "Convolution"
  bottom: "inception_4b/output"
  top: "inception_4c/5x5_reduce"
  param {
    lr_mult: 1
    decay_mult: 1
  }
  param {
    lr_mult: 2
    decay_mult: 0
  }
  convolution_param {
    num_output: 24
    kernel_size: 1
    weight_filler {
      type: "xavier"
      std: 0.2
    }
    bias_filler {
      type: "constant"
      value: 0.2
    }
  }
}
layer {
  name: "inception_4c/relu_5x5_reduce"
  type: "ReLU"
  bottom: "inception_4c/5x5_reduce"
  top: "inception_4c/5x5_reduce"
}
layer {
  name: "inception_4c/5x5"
  type: "Convolution"
  bottom: "inception_4c/5x5_reduce"
  top: "inception_4c/5x5"
  param {
    lr_mult: 1
    decay_mult: 1
  }
  param {
    lr_mult: 2
    decay_mult: 0
  }
  convolution_param {
    num_output: 64
    pad: 2
    kernel_size: 5
    weight_filler {
      type: "xavier"
      std: 0.03
    }
    bias_filler {
      type: "constant"
      value: 0.2
    }
  }
}
layer {
  name: "inception_4c/relu_5x5"
  type: "ReLU"
  bottom: "inception_4c/5x5"
  top: "inception_4c/5x5"
}
layer {
  name: "inception_4c/pool"
  type: "Pooling"
  bottom: "inception_4b/output"
  top: "inception_4c/pool"
  pooling_param {
    pool: MAX
    kernel_size: 3
    stride: 1
    pad: 1
  }
}
layer {
  name: "inception_4c/pool_proj"
  type: "Convolution"
  bottom: "inception_4c/pool"
  top: "inception_4c/pool_proj"
  param {
    lr_mult: 1
    decay_mult: 1
  }
  param {
    lr_mult: 2
    decay_mult: 0
  }
  convolution_param {
    num_output: 64
    kernel_size: 1
    weight_filler {
      type: "xavier"
      std: 0.1
    }
    bias_filler {
      type: "constant"
      value: 0.2
    }
  }
}
layer {
  name: "inception_4c/relu_pool_proj"
  type: "ReLU"
  bottom: "inception_4c/pool_proj"
  top: "inception_4c/pool_proj"
}
layer {
  name: "inception_4c/output"
  type: "Concat"
  bottom: "inception_4c/1x1"
  bottom: "inception_4c/3x3"
  bottom: "inception_4c/5x5"
  bottom: "inception_4c/pool_proj"
  top: "inception_4c/output"
}
layer {
  name: "inception_4d/1x1"
  type: "Convolution"
  bottom: "inception_4c/output"
  top: "inception_4d/1x1"
  param {
    lr_mult: 1
    decay_mult: 1
  }
  param {
    lr_mult: 2
    decay_mult: 0
  }
  convolution_param {
    num_output: 112
    kernel_size: 1
    weight_filler {
      type: "xavier"
      std: 0.03
    }
    bias_filler {
      type: "constant"
      value: 0.2
    }
  }
}
layer {
  name: "inception_4d/relu_1x1"
  type: "ReLU"
  bottom: "inception_4d/1x1"
  top: "inception_4d/1x1"
}
layer {
  name: "inception_4d/3x3_reduce"
  type: "Convolution"
  bottom: "inception_4c/output"
  top: "inception_4d/3x3_reduce"
  param {
    lr_mult: 1
    decay_mult: 1
  }
  param {
    lr_mult: 2
    decay_mult: 0
  }
  convolution_param {
    num_output: 144
    kernel_size: 1
    weight_filler {
      type: "xavier"
      std: 0.09
    }
    bias_filler {
      type: "constant"
      value: 0.2
    }
  }
}
layer {
  name: "inception_4d/relu_3x3_reduce"
  type: "ReLU"
  bottom: "inception_4d/3x3_reduce"
  top: "inception_4d/3x3_reduce"
}
layer {
  name: "inception_4d/3x3"
  type: "Convolution"
  bottom: "inception_4d/3x3_reduce"
  top: "inception_4d/3x3"
  param {
    lr_mult: 1
    decay_mult: 1
  }
  param {
    lr_mult: 2
    decay_mult: 0
  }
  convolution_param {
    num_output: 288
    pad: 1
    kernel_size: 3
    weight_filler {
      type: "xavier"
      std: 0.03
    }
    bias_filler {
      type: "constant"
      value: 0.2
    }
  }
}
layer {
  name: "inception_4d/relu_3x3"
  type: "ReLU"
  bottom: "inception_4d/3x3"
  top: "inception_4d/3x3"
}
layer {
  name: "inception_4d/5x5_reduce"
  type: "Convolution"
  bottom: "inception_4c/output"
  top: "inception_4d/5x5_reduce"
  param {
    lr_mult: 1
    decay_mult: 1
  }
  param {
    lr_mult: 2
    decay_mult: 0
  }
  convolution_param {
    num_output: 32
    kernel_size: 1
    weight_filler {
      type: "xavier"
      std: 0.2
    }
    bias_filler {
      type: "constant"
      value: 0.2
    }
  }
}
layer {
  name: "inception_4d/relu_5x5_reduce"
  type: "ReLU"
  bottom: "inception_4d/5x5_reduce"
  top: "inception_4d/5x5_reduce"
}
layer {
  name: "inception_4d/5x5"
  type: "Convolution"
  bottom: "inception_4d/5x5_reduce"
  top: "inception_4d/5x5"
  param {
    lr_mult: 1
    decay_mult: 1
  }
  param {
    lr_mult: 2
    decay_mult: 0
  }
  convolution_param {
    num_output: 64
    pad: 2
    kernel_size: 5
    weight_filler {
      type: "xavier"
      std: 0.03
    }
    bias_filler {
      type: "constant"
      value: 0.2
    }
  }
}
layer {
  name: "inception_4d/relu_5x5"
  type: "ReLU"
  bottom: "inception_4d/5x5"
  top: "inception_4d/5x5"
}
layer {
  name: "inception_4d/pool"
  type: "Pooling"
  bottom: "inception_4c/output"
  top: "inception_4d/pool"
  pooling_param {
    pool: MAX
    kernel_size: 3
    stride: 1
    pad: 1
  }
}
layer {
  name: "inception_4d/pool_proj"
  type: "Convolution"
  bottom: "inception_4d/pool"
  top: "inception_4d/pool_proj"
  param {
    lr_mult: 1
    decay_mult: 1
  }
  param {
    lr_mult: 2
    decay_mult: 0
  }
  convolution_param {
    num_output: 64
    kernel_size: 1
    weight_filler {
      type: "xavier"
      std: 0.1
    }
    bias_filler {
      type: "constant"
      value: 0.2
    }
  }
}
layer {
  name: "inception_4d/relu_pool_proj"
  type: "ReLU"
  bottom: "inception_4d/pool_proj"
  top: "inception_4d/pool_proj"
}
layer {
  name: "inception_4d/output"
  type: "Concat"
  bottom: "inception_4d/1x1"
  bottom: "inception_4d/3x3"
  bottom: "inception_4d/5x5"
  bottom: "inception_4d/pool_proj"
  top: "inception_4d/output"
}
layer {
  name: "loss2/ave_pool"
  type: "Pooling"
  bottom: "inception_4d/output"
  top: "loss2/ave_pool"
  pooling_param {
    pool: AVE
    kernel_size: 5
    stride: 3
  }
}
layer {
  name: "loss2/conv"
  type: "Convolution"
  bottom: "loss2/ave_pool"
  top: "loss2/conv"
  param {
    lr_mult: 1
    decay_mult: 1
  }
  param {
    lr_mult: 2
    decay_mult: 0
  }
  convolution_param {
    num_output: 128
    kernel_size: 1
    weight_filler {
      type: "xavier"
      std: 0.08
    }
    bias_filler {
      type: "constant"
      value: 0.2
    }
  }
}
layer {
  name: "loss2/relu_conv"
  type: "ReLU"
  bottom: "loss2/conv"
  top: "loss2/conv"
}
layer {
  name: "loss2/fc"
  type: "InnerProduct"
  bottom: "loss2/conv"
  top: "loss2/fc"
  param {
    lr_mult: 1
    decay_mult: 1
  }
  param {
    lr_mult: 2
    decay_mult: 0
  }
  inner_product_param {
    num_output: 1024
    weight_filler {
      type: "xavier"
      std: 0.02
    }
    bias_filler {
      type: "constant"
      value: 0.2
    }
  }
}
layer {
  name: "loss2/relu_fc"
  type: "ReLU"
  bottom: "loss2/fc"
  top: "loss2/fc"
}
layer {
  name: "loss2/drop_fc"
  type: "Dropout"
  bottom: "loss2/fc"
  top: "loss2/fc"
  dropout_param {
    dropout_ratio: 0.7
  }
}
layer {
  name: "loss2/classifier_plantvillage"
  type: "InnerProduct"
  bottom: "loss2/fc"
  top: "loss2/classifier_plantvillage"
  param {
    lr_mult: 1
    decay_mult: 1
  }
  param {
    lr_mult: 2
    decay_mult: 0
  }
  inner_product_param {
    num_output: 38
    weight_filler {
      type: "xavier"
      std: 0.0009765625
    }
    bias_filler {
      type: "constant"
      value: 0
    }
  }
}
layer {
  name: "inception_4e/1x1"
  type: "Convolution"
  bottom: "inception_4d/output"
  top: "inception_4e/1x1"
  param {
    lr_mult: 1
    decay_mult: 1
  }
  param {
    lr_mult: 2
    decay_mult: 0
  }
  convolution_param {
    num_output: 256
    kernel_size: 1
    weight_filler {
      type: "xavier"
      std: 0.03
    }
    bias_filler {
      type: "constant"
      value: 0.2
    }
  }
}
layer {
  name: "inception_4e/relu_1x1"
  type: "ReLU"
  bottom: "inception_4e/1x1"
  top: "inception_4e/1x1"
}
layer {
  name: "inception_4e/3x3_reduce"
  type: "Convolution"
  bottom: "inception_4d/output"
  top: "inception_4e/3x3_reduce"
  param {
    lr_mult: 1
    decay_mult: 1
  }
  param {
    lr_mult: 2
    decay_mult: 0
  }
  convolution_param {
    num_output: 160
    kernel_size: 1
    weight_filler {
      type: "xavier"
      std: 0.09
    }
    bias_filler {
      type: "constant"
      value: 0.2
    }
  }
}
layer {
  name: "inception_4e/relu_3x3_reduce"
  type: "ReLU"
  bottom: "inception_4e/3x3_reduce"
  top: "inception_4e/3x3_reduce"
}
layer {
  name: "inception_4e/3x3"
  type: "Convolution"
  bottom: "inception_4e/3x3_reduce"
  top: "inception_4e/3x3"
  param {
    lr_mult: 1
    decay_mult: 1
  }
  param {
    lr_mult: 2
    decay_mult: 0
  }
  convolution_param {
    num_output: 320
    pad: 1
    kernel_size: 3
    weight_filler {
      type: "xavier"
      std: 0.03
    }
    bias_filler {
      type: "constant"
      value: 0.2
    }
  }
}
layer {
  name: "inception_4e/relu_3x3"
  type: "ReLU"
  bottom: "inception_4e/3x3"
  top: "inception_4e/3x3"
}
layer {
  name: "inception_4e/5x5_reduce"
  type: "Convolution"
  bottom: "inception_4d/output"
  top: "inception_4e/5x5_reduce"
  param {
    lr_mult: 1
    decay_mult: 1
  }
  param {
    lr_mult: 2
    decay_mult: 0
  }
  convolution_param {
    num_output: 32
    kernel_size: 1
    weight_filler {
      type: "xavier"
      std: 0.2
    }
    bias_filler {
      type: "constant"
      value: 0.2
    }
  }
}
layer {
  name: "inception_4e/relu_5x5_reduce"
  type: "ReLU"
  bottom: "inception_4e/5x5_reduce"
  top: "inception_4e/5x5_reduce"
}
layer {
  name: "inception_4e/5x5"
  type: "Convolution"
  bottom: "inception_4e/5x5_reduce"
  top: "inception_4e/
I0403 15:21:17.299018  2997 layer_factory.hpp:77] Creating layer data
I0403 15:21:17.299628  2997 net.cpp:91] Creating Layer data
I0403 15:21:17.299659  2997 net.cpp:399] data -> data
I0403 15:21:17.299710  2997 net.cpp:399] data -> label
I0403 15:21:17.299747  2997 data_transformer.cpp:25] Loading mean file from: /home/mohanty/data/final_dataset/lmdb/segmented-60-40/mean.binaryproto
I0403 15:21:17.302566  3000 db_lmdb.cpp:38] Opened lmdb /home/mohanty/data/final_dataset/lmdb/segmented-60-40/test_db
I0403 15:21:17.312947  2997 data_layer.cpp:41] output data size: 24,3,224,224
I0403 15:21:17.341470  2997 net.cpp:141] Setting up data
I0403 15:21:17.341575  2997 net.cpp:148] Top shape: 24 3 224 224 (3612672)
I0403 15:21:17.341598  2997 net.cpp:148] Top shape: 24 (24)
I0403 15:21:17.341614  2997 net.cpp:156] Memory required for data: 14450784
I0403 15:21:17.341642  2997 layer_factory.hpp:77] Creating layer label_data_1_split
I0403 15:21:17.341670  2997 net.cpp:91] Creating Layer label_data_1_split
I0403 15:21:17.341688  2997 net.cpp:425] label_data_1_split <- label
I0403 15:21:17.341722  2997 net.cpp:399] label_data_1_split -> label_data_1_split_0
I0403 15:21:17.341750  2997 net.cpp:399] label_data_1_split -> label_data_1_split_1
I0403 15:21:17.341773  2997 net.cpp:399] label_data_1_split -> label_data_1_split_2
I0403 15:21:17.341794  2997 net.cpp:399] label_data_1_split -> label_data_1_split_3
I0403 15:21:17.341815  2997 net.cpp:399] label_data_1_split -> label_data_1_split_4
I0403 15:21:17.341835  2997 net.cpp:399] label_data_1_split -> label_data_1_split_5
I0403 15:21:17.341856  2997 net.cpp:399] label_data_1_split -> label_data_1_split_6
I0403 15:21:17.341877  2997 net.cpp:399] label_data_1_split -> label_data_1_split_7
I0403 15:21:17.341897  2997 net.cpp:399] label_data_1_split -> label_data_1_split_8
I0403 15:21:17.341918  2997 net.cpp:399] label_data_1_split -> label_data_1_split_9
I0403 15:21:17.342042  2997 net.cpp:141] Setting up label_data_1_split
I0403 15:21:17.342067  2997 net.cpp:148] Top shape: 24 (24)
I0403 15:21:17.342084  2997 net.cpp:148] Top shape: 24 (24)
I0403 15:21:17.342102  2997 net.cpp:148] Top shape: 24 (24)
I0403 15:21:17.342118  2997 net.cpp:148] Top shape: 24 (24)
I0403 15:21:17.342135  2997 net.cpp:148] Top shape: 24 (24)
I0403 15:21:17.342151  2997 net.cpp:148] Top shape: 24 (24)
I0403 15:21:17.342167  2997 net.cpp:148] Top shape: 24 (24)
I0403 15:21:17.342190  2997 net.cpp:148] Top shape: 24 (24)
I0403 15:21:17.342208  2997 net.cpp:148] Top shape: 24 (24)
I0403 15:21:17.342226  2997 net.cpp:148] Top shape: 24 (24)
I0403 15:21:17.342273  2997 net.cpp:156] Memory required for data: 14451744
I0403 15:21:17.342290  2997 layer_factory.hpp:77] Creating layer conv1/7x7_s2
I0403 15:21:17.342324  2997 net.cpp:91] Creating Layer conv1/7x7_s2
I0403 15:21:17.342344  2997 net.cpp:425] conv1/7x7_s2 <- data
I0403 15:21:17.342363  2997 net.cpp:399] conv1/7x7_s2 -> conv1/7x7_s2
I0403 15:21:17.479972  2997 net.cpp:141] Setting up conv1/7x7_s2
I0403 15:21:17.480063  2997 net.cpp:148] Top shape: 24 64 112 112 (19267584)
I0403 15:21:17.480082  2997 net.cpp:156] Memory required for data: 91522080
I0403 15:21:17.480113  2997 layer_factory.hpp:77] Creating layer conv1/relu_7x7
I0403 15:21:17.480140  2997 net.cpp:91] Creating Layer conv1/relu_7x7
I0403 15:21:17.480159  2997 net.cpp:425] conv1/relu_7x7 <- conv1/7x7_s2
I0403 15:21:17.480183  2997 net.cpp:386] conv1/relu_7x7 -> conv1/7x7_s2 (in-place)
I0403 15:21:17.480468  2997 net.cpp:141] Setting up conv1/relu_7x7
I0403 15:21:17.480497  2997 net.cpp:148] Top shape: 24 64 112 112 (19267584)
I0403 15:21:17.480514  2997 net.cpp:156] Memory required for data: 168592416
I0403 15:21:17.480530  2997 layer_factory.hpp:77] Creating layer pool1/3x3_s2
I0403 15:21:17.480554  2997 net.cpp:91] Creating Layer pool1/3x3_s2
I0403 15:21:17.480572  2997 net.cpp:425] pool1/3x3_s2 <- conv1/7x7_s2
I0403 15:21:17.480595  2997 net.cpp:399] pool1/3x3_s2 -> pool1/3x3_s2
I0403 15:21:17.480672  2997 net.cpp:141] Setting up pool1/3x3_s2
I0403 15:21:17.480700  2997 net.cpp:148] Top shape: 24 64 56 56 (4816896)
I0403 15:21:17.480715  2997 net.cpp:156] Memory required for data: 187860000
I0403 15:21:17.480731  2997 layer_factory.hpp:77] Creating layer pool1/norm1
I0403 15:21:17.480754  2997 net.cpp:91] Creating Layer pool1/norm1
I0403 15:21:17.480772  2997 net.cpp:425] pool1/norm1 <- pool1/3x3_s2
I0403 15:21:17.480794  2997 net.cpp:399] pool1/norm1 -> pool1/norm1
I0403 15:21:17.481101  2997 net.cpp:141] Setting up pool1/norm1
I0403 15:21:17.481127  2997 net.cpp:148] Top shape: 24 64 56 56 (4816896)
I0403 15:21:17.481143  2997 net.cpp:156] Memory required for data: 207127584
I0403 15:21:17.481158  2997 layer_factory.hpp:77] Creating layer conv2/3x3_reduce
I0403 15:21:17.481190  2997 net.cpp:91] Creating Layer conv2/3x3_reduce
I0403 15:21:17.481209  2997 net.cpp:425] conv2/3x3_reduce <- pool1/norm1
I0403 15:21:17.481231  2997 net.cpp:399] conv2/3x3_reduce -> conv2/3x3_reduce
I0403 15:21:17.482676  2997 net.cpp:141] Setting up conv2/3x3_reduce
I0403 15:21:17.482705  2997 net.cpp:148] Top shape: 24 64 56 56 (4816896)
I0403 15:21:17.482722  2997 net.cpp:156] Memory required for data: 226395168
I0403 15:21:17.482743  2997 layer_factory.hpp:77] Creating layer conv2/relu_3x3_reduce
I0403 15:21:17.482764  2997 net.cpp:91] Creating Layer conv2/relu_3x3_reduce
I0403 15:21:17.482782  2997 net.cpp:425] conv2/relu_3x3_reduce <- conv2/3x3_reduce
I0403 15:21:17.482800  2997 net.cpp:386] conv2/relu_3x3_reduce -> conv2/3x3_reduce (in-place)
I0403 15:21:17.483072  2997 net.cpp:141] Setting up conv2/relu_3x3_reduce
I0403 15:21:17.483098  2997 net.cpp:148] Top shape: 24 64 56 56 (4816896)
I0403 15:21:17.483114  2997 net.cpp:156] Memory required for data: 245662752
I0403 15:21:17.483130  2997 layer_factory.hpp:77] Creating layer conv2/3x3
I0403 15:21:17.483156  2997 net.cpp:91] Creating Layer conv2/3x3
I0403 15:21:17.483199  2997 net.cpp:425] conv2/3x3 <- conv2/3x3_reduce
I0403 15:21:17.483222  2997 net.cpp:399] conv2/3x3 -> conv2/3x3
I0403 15:21:17.485682  2997 net.cpp:141] Setting up conv2/3x3
I0403 15:21:17.485713  2997 net.cpp:148] Top shape: 24 192 56 56 (14450688)
I0403 15:21:17.485730  2997 net.cpp:156] Memory required for data: 303465504
I0403 15:21:17.485754  2997 layer_factory.hpp:77] Creating layer conv2/relu_3x3
I0403 15:21:17.485775  2997 net.cpp:91] Creating Layer conv2/relu_3x3
I0403 15:21:17.485793  2997 net.cpp:425] conv2/relu_3x3 <- conv2/3x3
I0403 15:21:17.485811  2997 net.cpp:386] conv2/relu_3x3 -> conv2/3x3 (in-place)
I0403 15:21:17.486002  2997 net.cpp:141] Setting up conv2/relu_3x3
I0403 15:21:17.486028  2997 net.cpp:148] Top shape: 24 192 56 56 (14450688)
I0403 15:21:17.486076  2997 net.cpp:156] Memory required for data: 361268256
I0403 15:21:17.486094  2997 layer_factory.hpp:77] Creating layer conv2/norm2
I0403 15:21:17.486116  2997 net.cpp:91] Creating Layer conv2/norm2
I0403 15:21:17.486134  2997 net.cpp:425] conv2/norm2 <- conv2/3x3
I0403 15:21:17.486152  2997 net.cpp:399] conv2/norm2 -> conv2/norm2
I0403 15:21:17.486491  2997 net.cpp:141] Setting up conv2/norm2
I0403 15:21:17.486520  2997 net.cpp:148] Top shape: 24 192 56 56 (14450688)
I0403 15:21:17.486536  2997 net.cpp:156] Memory required for data: 419071008
I0403 15:21:17.486552  2997 layer_factory.hpp:77] Creating layer pool2/3x3_s2
I0403 15:21:17.486572  2997 net.cpp:91] Creating Layer pool2/3x3_s2
I0403 15:21:17.486590  2997 net.cpp:425] pool2/3x3_s2 <- conv2/norm2
I0403 15:21:17.486609  2997 net.cpp:399] pool2/3x3_s2 -> pool2/3x3_s2
I0403 15:21:17.486667  2997 net.cpp:141] Setting up pool2/3x3_s2
I0403 15:21:17.486691  2997 net.cpp:148] Top shape: 24 192 28 28 (3612672)
I0403 15:21:17.486707  2997 net.cpp:156] Memory required for data: 433521696
I0403 15:21:17.486723  2997 layer_factory.hpp:77] Creating layer pool2/3x3_s2_pool2/3x3_s2_0_split
I0403 15:21:17.486742  2997 net.cpp:91] Creating Layer pool2/3x3_s2_pool2/3x3_s2_0_split
I0403 15:21:17.486758  2997 net.cpp:425] pool2/3x3_s2_pool2/3x3_s2_0_split <- pool2/3x3_s2
I0403 15:21:17.486779  2997 net.cpp:399] pool2/3x3_s2_pool2/3x3_s2_0_split -> pool2/3x3_s2_pool2/3x3_s2_0_split_0
I0403 15:21:17.486801  2997 net.cpp:399] pool2/3x3_s2_pool2/3x3_s2_0_split -> pool2/3x3_s2_pool2/3x3_s2_0_split_1
I0403 15:21:17.486824  2997 net.cpp:399] pool2/3x3_s2_pool2/3x3_s2_0_split -> pool2/3x3_s2_pool2/3x3_s2_0_split_2
I0403 15:21:17.486843  2997 net.cpp:399] pool2/3x3_s2_pool2/3x3_s2_0_split -> pool2/3x3_s2_pool2/3x3_s2_0_split_3
I0403 15:21:17.486917  2997 net.cpp:141] Setting up pool2/3x3_s2_pool2/3x3_s2_0_split
I0403 15:21:17.486943  2997 net.cpp:148] Top shape: 24 192 28 28 (3612672)
I0403 15:21:17.486961  2997 net.cpp:148] Top shape: 24 192 28 28 (3612672)
I0403 15:21:17.486979  2997 net.cpp:148] Top shape: 24 192 28 28 (3612672)
I0403 15:21:17.486995  2997 net.cpp:148] Top shape: 24 192 28 28 (3612672)
I0403 15:21:17.487010  2997 net.cpp:156] Memory required for data: 491324448
I0403 15:21:17.487026  2997 layer_factory.hpp:77] Creating layer inception_3a/1x1
I0403 15:21:17.487051  2997 net.cpp:91] Creating Layer inception_3a/1x1
I0403 15:21:17.487068  2997 net.cpp:425] inception_3a/1x1 <- pool2/3x3_s2_pool2/3x3_s2_0_split_0
I0403 15:21:17.487089  2997 net.cpp:399] inception_3a/1x1 -> inception_3a/1x1
I0403 15:21:17.488724  2997 net.cpp:141] Setting up inception_3a/1x1
I0403 15:21:17.488754  2997 net.cpp:148] Top shape: 24 64 28 28 (1204224)
I0403 15:21:17.488771  2997 net.cpp:156] Memory required for data: 496141344
I0403 15:21:17.488791  2997 layer_factory.hpp:77] Creating layer inception_3a/relu_1x1
I0403 15:21:17.488812  2997 net.cpp:91] Creating Layer inception_3a/relu_1x1
I0403 15:21:17.488829  2997 net.cpp:425] inception_3a/relu_1x1 <- inception_3a/1x1
I0403 15:21:17.488848  2997 net.cpp:386] inception_3a/relu_1x1 -> inception_3a/1x1 (in-place)
I0403 15:21:17.489037  2997 net.cpp:141] Setting up inception_3a/relu_1x1
I0403 15:21:17.489064  2997 net.cpp:148] Top shape: 24 64 28 28 (1204224)
I0403 15:21:17.489081  2997 net.cpp:156] Memory required for data: 500958240
I0403 15:21:17.489097  2997 layer_factory.hpp:77] Creating layer inception_3a/3x3_reduce
I0403 15:21:17.489120  2997 net.cpp:91] Creating Layer inception_3a/3x3_reduce
I0403 15:21:17.489140  2997 net.cpp:425] inception_3a/3x3_reduce <- pool2/3x3_s2_pool2/3x3_s2_0_split_1
I0403 15:21:17.489159  2997 net.cpp:399] inception_3a/3x3_reduce -> inception_3a/3x3_reduce
I0403 15:21:17.490942  2997 net.cpp:141] Setting up inception_3a/3x3_reduce
I0403 15:21:17.490972  2997 net.cpp:148] Top shape: 24 96 28 28 (1806336)
I0403 15:21:17.490988  2997 net.cpp:156] Memory required for data: 508183584
I0403 15:21:17.491011  2997 layer_factory.hpp:77] Creating layer inception_3a/relu_3x3_reduce
I0403 15:21:17.491050  2997 net.cpp:91] Creating Layer inception_3a/relu_3x3_reduce
I0403 15:21:17.491070  2997 net.cpp:425] inception_3a/relu_3x3_reduce <- inception_3a/3x3_reduce
I0403 15:21:17.491091  2997 net.cpp:386] inception_3a/relu_3x3_reduce -> inception_3a/3x3_reduce (in-place)
I0403 15:21:17.491294  2997 net.cpp:141] Setting up inception_3a/relu_3x3_reduce
I0403 15:21:17.491320  2997 net.cpp:148] Top shape: 24 96 28 28 (1806336)
I0403 15:21:17.491335  2997 net.cpp:156] Memory required for data: 515408928
I0403 15:21:17.491351  2997 layer_factory.hpp:77] Creating layer inception_3a/3x3
I0403 15:21:17.491375  2997 net.cpp:91] Creating Layer inception_3a/3x3
I0403 15:21:17.491394  2997 net.cpp:425] inception_3a/3x3 <- inception_3a/3x3_reduce
I0403 15:21:17.491417  2997 net.cpp:399] inception_3a/3x3 -> inception_3a/3x3
I0403 15:21:17.493175  2997 net.cpp:141] Setting up inception_3a/3x3
I0403 15:21:17.493209  2997 net.cpp:148] Top shape: 24 128 28 28 (2408448)
I0403 15:21:17.493227  2997 net.cpp:156] Memory required for data: 525042720
I0403 15:21:17.493245  2997 layer_factory.hpp:77] Creating layer inception_3a/relu_3x3
I0403 15:21:17.493264  2997 net.cpp:91] Creating Layer inception_3a/relu_3x3
I0403 15:21:17.493281  2997 net.cpp:425] inception_3a/relu_3x3 <- inception_3a/3x3
I0403 15:21:17.493299  2997 net.cpp:386] inception_3a/relu_3x3 -> inception_3a/3x3 (in-place)
I0403 15:21:17.493578  2997 net.cpp:141] Setting up inception_3a/relu_3x3
I0403 15:21:17.493607  2997 net.cpp:148] Top shape: 24 128 28 28 (2408448)
I0403 15:21:17.493624  2997 net.cpp:156] Memory required for data: 534676512
I0403 15:21:17.493639  2997 layer_factory.hpp:77] Creating layer inception_3a/5x5_reduce
I0403 15:21:17.493662  2997 net.cpp:91] Creating Layer inception_3a/5x5_reduce
I0403 15:21:17.493681  2997 net.cpp:425] inception_3a/5x5_reduce <- pool2/3x3_s2_pool2/3x3_s2_0_split_2
I0403 15:21:17.493701  2997 net.cpp:399] inception_3a/5x5_reduce -> inception_3a/5x5_reduce
I0403 15:21:17.494686  2997 net.cpp:141] Setting up inception_3a/5x5_reduce
I0403 15:21:17.494716  2997 net.cpp:148] Top shape: 24 16 28 28 (301056)
I0403 15:21:17.494734  2997 net.cpp:156] Memory required for data: 535880736
I0403 15:21:17.494753  2997 layer_factory.hpp:77] Creating layer inception_3a/relu_5x5_reduce
I0403 15:21:17.494773  2997 net.cpp:91] Creating Layer inception_3a/relu_5x5_reduce
I0403 15:21:17.494791  2997 net.cpp:425] inception_3a/relu_5x5_reduce <- inception_3a/5x5_reduce
I0403 15:21:17.494812  2997 net.cpp:386] inception_3a/relu_5x5_reduce -> inception_3a/5x5_reduce (in-place)
I0403 15:21:17.495117  2997 net.cpp:141] Setting up inception_3a/relu_5x5_reduce
I0403 15:21:17.495144  2997 net.cpp:148] Top shape: 24 16 28 28 (301056)
I0403 15:21:17.495159  2997 net.cpp:156] Memory required for data: 537084960
I0403 15:21:17.495175  2997 layer_factory.hpp:77] Creating layer inception_3a/5x5
I0403 15:21:17.495203  2997 net.cpp:91] Creating Layer inception_3a/5x5
I0403 15:21:17.495223  2997 net.cpp:425] inception_3a/5x5 <- inception_3a/5x5_reduce
I0403 15:21:17.495244  2997 net.cpp:399] inception_3a/5x5 -> inception_3a/5x5
I0403 15:21:17.496280  2997 net.cpp:141] Setting up inception_3a/5x5
I0403 15:21:17.496310  2997 net.cpp:148] Top shape: 24 32 28 28 (602112)
I0403 15:21:17.496340  2997 net.cpp:156] Memory required for data: 539493408
I0403 15:21:17.496361  2997 layer_factory.hpp:77] Creating layer inception_3a/relu_5x5
I0403 15:21:17.496379  2997 net.cpp:91] Creating Layer inception_3a/relu_5x5
I0403 15:21:17.496397  2997 net.cpp:425] inception_3a/relu_5x5 <- inception_3a/5x5
I0403 15:21:17.496414  2997 net.cpp:386] inception_3a/relu_5x5 -> inception_3a/5x5 (in-place)
I0403 15:21:17.496598  2997 net.cpp:141] Setting up inception_3a/relu_5x5
I0403 15:21:17.496626  2997 net.cpp:148] Top shape: 24 32 28 28 (602112)
I0403 15:21:17.496654  2997 net.cpp:156] Memory required for data: 541901856
I0403 15:21:17.496670  2997 layer_factory.hpp:77] Creating layer inception_3a/pool
I0403 15:21:17.496688  2997 net.cpp:91] Creating Layer inception_3a/pool
I0403 15:21:17.496719  2997 net.cpp:425] inception_3a/pool <- pool2/3x3_s2_pool2/3x3_s2_0_split_3
I0403 15:21:17.496742  2997 net.cpp:399] inception_3a/pool -> inception_3a/pool
I0403 15:21:17.496814  2997 net.cpp:141] Setting up inception_3a/pool
I0403 15:21:17.496841  2997 net.cpp:148] Top shape: 24 192 28 28 (3612672)
I0403 15:21:17.496857  2997 net.cpp:156] Memory required for data: 556352544
I0403 15:21:17.496873  2997 layer_factory.hpp:77] Creating layer inception_3a/pool_proj
I0403 15:21:17.496897  2997 net.cpp:91] Creating Layer inception_3a/pool_proj
I0403 15:21:17.496917  2997 net.cpp:425] inception_3a/pool_proj <- inception_3a/pool
I0403 15:21:17.496937  2997 net.cpp:399] inception_3a/pool_proj -> inception_3a/pool_proj
I0403 15:21:17.497972  2997 net.cpp:141] Setting up inception_3a/pool_proj
I0403 15:21:17.498000  2997 net.cpp:148] Top shape: 24 32 28 28 (602112)
I0403 15:21:17.498016  2997 net.cpp:156] Memory required for data: 558760992
I0403 15:21:17.498041  2997 layer_factory.hpp:77] Creating layer inception_3a/relu_pool_proj
I0403 15:21:17.498062  2997 net.cpp:91] Creating Layer inception_3a/relu_pool_proj
I0403 15:21:17.498080  2997 net.cpp:425] inception_3a/relu_pool_proj <- inception_3a/pool_proj
I0403 15:21:17.498100  2997 net.cpp:386] inception_3a/relu_pool_proj -> inception_3a/pool_proj (in-place)
I0403 15:21:17.498385  2997 net.cpp:141] Setting up inception_3a/relu_pool_proj
I0403 15:21:17.498416  2997 net.cpp:148] Top shape: 24 32 28 28 (602112)
I0403 15:21:17.498435  2997 net.cpp:156] Memory required for data: 561169440
I0403 15:21:17.498450  2997 layer_factory.hpp:77] Creating layer inception_3a/output
I0403 15:21:17.498471  2997 net.cpp:91] Creating Layer inception_3a/output
I0403 15:21:17.498486  2997 net.cpp:425] inception_3a/output <- inception_3a/1x1
I0403 15:21:17.498504  2997 net.cpp:425] inception_3a/output <- inception_3a/3x3
I0403 15:21:17.498520  2997 net.cpp:425] inception_3a/output <- inception_3a/5x5
I0403 15:21:17.498536  2997 net.cpp:425] inception_3a/output <- inception_3a/pool_proj
I0403 15:21:17.498554  2997 net.cpp:399] inception_3a/output -> inception_3a/output
I0403 15:21:17.498603  2997 net.cpp:141] Setting up inception_3a/output
I0403 15:21:17.498626  2997 net.cpp:148] Top shape: 24 256 28 28 (4816896)
I0403 15:21:17.498642  2997 net.cpp:156] Memory required for data: 580437024
I0403 15:21:17.498657  2997 layer_factory.hpp:77] Creating layer inception_3a/output_inception_3a/output_0_split
I0403 15:21:17.498677  2997 net.cpp:91] Creating Layer inception_3a/output_inception_3a/output_0_split
I0403 15:21:17.498694  2997 net.cpp:425] inception_3a/output_inception_3a/output_0_split <- inception_3a/output
I0403 15:21:17.498713  2997 net.cpp:399] inception_3a/output_inception_3a/output_0_split -> inception_3a/output_inception_3a/output_0_split_0
I0403 15:21:17.498733  2997 net.cpp:399] inception_3a/output_inception_3a/output_0_split -> inception_3a/output_inception_3a/output_0_split_1
I0403 15:21:17.498759  2997 net.cpp:399] inception_3a/output_inception_3a/output_0_split -> inception_3a/output_inception_3a/output_0_split_2
I0403 15:21:17.498781  2997 net.cpp:399] inception_3a/output_inception_3a/output_0_split -> inception_3a/output_inception_3a/output_0_split_3
I0403 15:21:17.498858  2997 net.cpp:141] Setting up inception_3a/output_inception_3a/output_0_split
I0403 15:21:17.498883  2997 net.cpp:148] Top shape: 24 256 28 28 (4816896)
I0403 15:21:17.498899  2997 net.cpp:148] Top shape: 24 256 28 28 (4816896)
I0403 15:21:17.498915  2997 net.cpp:148] Top shape: 24 256 28 28 (4816896)
I0403 15:21:17.498931  2997 net.cpp:148] Top shape: 24 256 28 28 (4816896)
I0403 15:21:17.498946  2997 net.cpp:156] Memory required for data: 657507360
I0403 15:21:17.498961  2997 layer_factory.hpp:77] Creating layer inception_3b/1x1
I0403 15:21:17.498986  2997 net.cpp:91] Creating Layer inception_3b/1x1
I0403 15:21:17.499003  2997 net.cpp:425] inception_3b/1x1 <- inception_3a/output_inception_3a/output_0_split_0
I0403 15:21:17.499023  2997 net.cpp:399] inception_3b/1x1 -> inception_3b/1x1
I0403 15:21:17.500200  2997 net.cpp:141] Setting up inception_3b/1x1
I0403 15:21:17.500243  2997 net.cpp:148] Top shape: 24 128 28 28 (2408448)
I0403 15:21:17.500262  2997 net.cpp:156] Memory required for data: 667141152
I0403 15:21:17.500282  2997 layer_factory.hpp:77] Creating layer inception_3b/relu_1x1
I0403 15:21:17.500303  2997 net.cpp:91] Creating Layer inception_3b/relu_1x1
I0403 15:21:17.500320  2997 net.cpp:425] inception_3b/relu_1x1 <- inception_3b/1x1
I0403 15:21:17.500340  2997 net.cpp:386] inception_3b/relu_1x1 -> inception_3b/1x1 (in-place)
I0403 15:21:17.500535  2997 net.cpp:141] Setting up inception_3b/relu_1x1
I0403 15:21:17.500563  2997 net.cpp:148] Top shape: 24 128 28 28 (2408448)
I0403 15:21:17.500581  2997 net.cpp:156] Memory required for data: 676774944
I0403 15:21:17.500597  2997 layer_factory.hpp:77] Creating layer inception_3b/3x3_reduce
I0403 15:21:17.500620  2997 net.cpp:91] Creating Layer inception_3b/3x3_reduce
I0403 15:21:17.500638  2997 net.cpp:425] inception_3b/3x3_reduce <- inception_3a/output_inception_3a/output_0_split_1
I0403 15:21:17.500659  2997 net.cpp:399] inception_3b/3x3_reduce -> inception_3b/3x3_reduce
I0403 15:21:17.501834  2997 net.cpp:141] Setting up inception_3b/3x3_reduce
I0403 15:21:17.501863  2997 net.cpp:148] Top shape: 24 128 28 28 (2408448)
I0403 15:21:17.501881  2997 net.cpp:156] Memory required for data: 686408736
I0403 15:21:17.501901  2997 layer_factory.hpp:77] Creating layer inception_3b/relu_3x3_reduce
I0403 15:21:17.501922  2997 net.cpp:91] Creating Layer inception_3b/relu_3x3_reduce
I0403 15:21:17.501940  2997 net.cpp:425] inception_3b/relu_3x3_reduce <- inception_3b/3x3_reduce
I0403 15:21:17.501957  2997 net.cpp:386] inception_3b/relu_3x3_reduce -> inception_3b/3x3_reduce (in-place)
I0403 15:21:17.502135  2997 net.cpp:141] Setting up inception_3b/relu_3x3_reduce
I0403 15:21:17.502163  2997 net.cpp:148] Top shape: 24 128 28 28 (2408448)
I0403 15:21:17.502183  2997 net.cpp:156] Memory required for data: 696042528
I0403 15:21:17.502199  2997 layer_factory.hpp:77] Creating layer inception_3b/3x3
I0403 15:21:17.502225  2997 net.cpp:91] Creating Layer inception_3b/3x3
I0403 15:21:17.502244  2997 net.cpp:425] inception_3b/3x3 <- inception_3b/3x3_reduce
I0403 15:21:17.502266  2997 net.cpp:399] inception_3b/3x3 -> inception_3b/3x3
I0403 15:21:17.505250  2997 net.cpp:141] Setting up inception_3b/3x3
I0403 15:21:17.505283  2997 net.cpp:148] Top shape: 24 192 28 28 (3612672)
I0403 15:21:17.505301  2997 net.cpp:156] Memory required for data: 710493216
I0403 15:21:17.505321  2997 layer_factory.hpp:77] Creating layer inception_3b/relu_3x3
I0403 15:21:17.505339  2997 net.cpp:91] Creating Layer inception_3b/relu_3x3
I0403 15:21:17.505357  2997 net.cpp:425] inception_3b/relu_3x3 <- inception_3b/3x3
I0403 15:21:17.505375  2997 net.cpp:386] inception_3b/relu_3x3 -> inception_3b/3x3 (in-place)
I0403 15:21:17.505664  2997 net.cpp:141] Setting up inception_3b/relu_3x3
I0403 15:21:17.505695  2997 net.cpp:148] Top shape: 24 192 28 28 (3612672)
I0403 15:21:17.505712  2997 net.cpp:156] Memory required for data: 724943904
I0403 15:21:17.505729  2997 layer_factory.hpp:77] Creating layer inception_3b/5x5_reduce
I0403 15:21:17.505753  2997 net.cpp:91] Creating Layer inception_3b/5x5_reduce
I0403 15:21:17.505774  2997 net.cpp:425] inception_3b/5x5_reduce <- inception_3a/output_inception_3a/output_0_split_2
I0403 15:21:17.505794  2997 net.cpp:399] inception_3b/5x5_reduce -> inception_3b/5x5_reduce
I0403 15:21:17.506820  2997 net.cpp:141] Setting up inception_3b/5x5_reduce
I0403 15:21:17.506855  2997 net.cpp:148] Top shape: 24 32 28 28 (602112)
I0403 15:21:17.506871  2997 net.cpp:156] Memory required for data: 727352352
I0403 15:21:17.506891  2997 layer_factory.hpp:77] Creating layer inception_3b/relu_5x5_reduce
I0403 15:21:17.506909  2997 net.cpp:91] Creating Layer inception_3b/relu_5x5_reduce
I0403 15:21:17.506927  2997 net.cpp:425] inception_3b/relu_5x5_reduce <- inception_3b/5x5_reduce
I0403 15:21:17.506944  2997 net.cpp:386] inception_3b/relu_5x5_reduce -> inception_3b/5x5_reduce (in-place)
I0403 15:21:17.507144  2997 net.cpp:141] Setting up inception_3b/relu_5x5_reduce
I0403 15:21:17.507169  2997 net.cpp:148] Top shape: 24 32 28 28 (602112)
I0403 15:21:17.507203  2997 net.cpp:156] Memory required for data: 729760800
I0403 15:21:17.507221  2997 layer_factory.hpp:77] Creating layer inception_3b/5x5
I0403 15:21:17.507246  2997 net.cpp:91] Creating Layer inception_3b/5x5
I0403 15:21:17.507264  2997 net.cpp:425] inception_3b/5x5 <- inception_3b/5x5_reduce
I0403 15:21:17.507287  2997 net.cpp:399] inception_3b/5x5 -> inception_3b/5x5
I0403 15:21:17.509364  2997 net.cpp:141] Setting up inception_3b/5x5
I0403 15:21:17.509394  2997 net.cpp:148] Top shape: 24 96 28 28 (1806336)
I0403 15:21:17.509412  2997 net.cpp:156] Memory required for data: 736986144
I0403 15:21:17.509431  2997 layer_factory.hpp:77] Creating layer inception_3b/relu_5x5
I0403 15:21:17.509452  2997 net.cpp:91] Creating Layer inception_3b/relu_5x5
I0403 15:21:17.509471  2997 net.cpp:425] inception_3b/relu_5x5 <- inception_3b/5x5
I0403 15:21:17.509490  2997 net.cpp:386] inception_3b/relu_5x5 -> inception_3b/5x5 (in-place)
I0403 15:21:17.509687  2997 net.cpp:141] Setting up inception_3b/relu_5x5
I0403 15:21:17.509714  2997 net.cpp:148] Top shape: 24 96 28 28 (1806336)
I0403 15:21:17.509732  2997 net.cpp:156] Memory required for data: 744211488
I0403 15:21:17.509748  2997 layer_factory.hpp:77] Creating layer inception_3b/pool
I0403 15:21:17.509766  2997 net.cpp:91] Creating Layer inception_3b/pool
I0403 15:21:17.509783  2997 net.cpp:425] inception_3b/pool <- inception_3a/output_inception_3a/output_0_split_3
I0403 15:21:17.509804  2997 net.cpp:399] inception_3b/pool -> inception_3b/pool
I0403 15:21:17.509861  2997 net.cpp:141] Setting up inception_3b/pool
I0403 15:21:17.509884  2997 net.cpp:148] Top shape: 24 256 28 28 (4816896)
I0403 15:21:17.509901  2997 net.cpp:156] Memory required for data: 763479072
I0403 15:21:17.509917  2997 layer_factory.hpp:77] Creating layer inception_3b/pool_proj
I0403 15:21:17.509939  2997 net.cpp:91] Creating Layer inception_3b/pool_proj
I0403 15:21:17.509958  2997 net.cpp:425] inception_3b/pool_proj <- inception_3b/pool
I0403 15:21:17.509980  2997 net.cpp:399] inception_3b/pool_proj -> inception_3b/pool_proj
I0403 15:21:17.511106  2997 net.cpp:141] Setting up inception_3b/pool_proj
I0403 15:21:17.511134  2997 net.cpp:148] Top shape: 24 64 28 28 (1204224)
I0403 15:21:17.511152  2997 net.cpp:156] Memory required for data: 768295968
I0403 15:21:17.511170  2997 layer_factory.hpp:77] Creating layer inception_3b/relu_pool_proj
I0403 15:21:17.511194  2997 net.cpp:91] Creating Layer inception_3b/relu_pool_proj
I0403 15:21:17.511215  2997 net.cpp:425] inception_3b/relu_pool_proj <- inception_3b/pool_proj
I0403 15:21:17.511234  2997 net.cpp:386] inception_3b/relu_pool_proj -> inception_3b/pool_proj (in-place)
I0403 15:21:17.511637  2997 net.cpp:141] Setting up inception_3b/relu_pool_proj
I0403 15:21:17.511664  2997 net.cpp:148] Top shape: 24 64 28 28 (1204224)
I0403 15:21:17.511680  2997 net.cpp:156] Memory required for data: 773112864
I0403 15:21:17.511695  2997 layer_factory.hpp:77] Creating layer inception_3b/output
I0403 15:21:17.511714  2997 net.cpp:91] Creating Layer inception_3b/output
I0403 15:21:17.511730  2997 net.cpp:425] inception_3b/output <- inception_3b/1x1
I0403 15:21:17.511747  2997 net.cpp:425] inception_3b/output <- inception_3b/3x3
I0403 15:21:17.511765  2997 net.cpp:425] inception_3b/output <- inception_3b/5x5
I0403 15:21:17.511780  2997 net.cpp:425] inception_3b/output <- inception_3b/pool_proj
I0403 15:21:17.511801  2997 net.cpp:399] inception_3b/output -> inception_3b/output
I0403 15:21:17.511845  2997 net.cpp:141] Setting up inception_3b/output
I0403 15:21:17.511870  2997 net.cpp:148] Top shape: 24 480 28 28 (9031680)
I0403 15:21:17.511885  2997 net.cpp:156] Memory required for data: 809239584
I0403 15:21:17.511900  2997 layer_factory.hpp:77] Creating layer pool3/3x3_s2
I0403 15:21:17.511919  2997 net.cpp:91] Creating Layer pool3/3x3_s2
I0403 15:21:17.511934  2997 net.cpp:425] pool3/3x3_s2 <- inception_3b/output
I0403 15:21:17.511970  2997 net.cpp:399] pool3/3x3_s2 -> pool3/3x3_s2
I0403 15:21:17.512030  2997 net.cpp:141] Setting up pool3/3x3_s2
I0403 15:21:17.512054  2997 net.cpp:148] Top shape: 24 480 14 14 (2257920)
I0403 15:21:17.512069  2997 net.cpp:156] Memory required for data: 818271264
I0403 15:21:17.512084  2997 layer_factory.hpp:77] Creating layer pool3/3x3_s2_pool3/3x3_s2_0_split
I0403 15:21:17.512101  2997 net.cpp:91] Creating Layer pool3/3x3_s2_pool3/3x3_s2_0_split
I0403 15:21:17.512117  2997 net.cpp:425] pool3/3x3_s2_pool3/3x3_s2_0_split <- pool3/3x3_s2
I0403 15:21:17.512137  2997 net.cpp:399] pool3/3x3_s2_pool3/3x3_s2_0_split -> pool3/3x3_s2_pool3/3x3_s2_0_split_0
I0403 15:21:17.512158  2997 net.cpp:399] pool3/3x3_s2_pool3/3x3_s2_0_split -> pool3/3x3_s2_pool3/3x3_s2_0_split_1
I0403 15:21:17.512183  2997 net.cpp:399] pool3/3x3_s2_pool3/3x3_s2_0_split -> pool3/3x3_s2_pool3/3x3_s2_0_split_2
I0403 15:21:17.512205  2997 net.cpp:399] pool3/3x3_s2_pool3/3x3_s2_0_split -> pool3/3x3_s2_pool3/3x3_s2_0_split_3
I0403 15:21:17.512289  2997 net.cpp:141] Setting up pool3/3x3_s2_pool3/3x3_s2_0_split
I0403 15:21:17.512312  2997 net.cpp:148] Top shape: 24 480 14 14 (2257920)
I0403 15:21:17.512329  2997 net.cpp:148] Top shape: 24 480 14 14 (2257920)
I0403 15:21:17.512346  2997 net.cpp:148] Top shape: 24 480 14 14 (2257920)
I0403 15:21:17.512362  2997 net.cpp:148] Top shape: 24 480 14 14 (2257920)
I0403 15:21:17.512375  2997 net.cpp:156] Memory required for data: 854397984
I0403 15:21:17.512390  2997 layer_factory.hpp:77] Creating layer inception_4a/1x1
I0403 15:21:17.512413  2997 net.cpp:91] Creating Layer inception_4a/1x1
I0403 15:21:17.512430  2997 net.cpp:425] inception_4a/1x1 <- pool3/3x3_s2_pool3/3x3_s2_0_split_0
I0403 15:21:17.512454  2997 net.cpp:399] inception_4a/1x1 -> inception_4a/1x1
I0403 15:21:17.514065  2997 net.cpp:141] Setting up inception_4a/1x1
I0403 15:21:17.514096  2997 net.cpp:148] Top shape: 24 192 14 14 (903168)
I0403 15:21:17.514112  2997 net.cpp:156] Memory required for data: 858010656
I0403 15:21:17.514132  2997 layer_factory.hpp:77] Creating layer inception_4a/relu_1x1
I0403 15:21:17.514154  2997 net.cpp:91] Creating Layer inception_4a/relu_1x1
I0403 15:21:17.514171  2997 net.cpp:425] inception_4a/relu_1x1 <- inception_4a/1x1
I0403 15:21:17.514194  2997 net.cpp:386] inception_4a/relu_1x1 -> inception_4a/1x1 (in-place)
I0403 15:21:17.514374  2997 net.cpp:141] Setting up inception_4a/relu_1x1
I0403 15:21:17.514400  2997 net.cpp:148] Top shape: 24 192 14 14 (903168)
I0403 15:21:17.514415  2997 net.cpp:156] Memory required for data: 861623328
I0403 15:21:17.514431  2997 layer_factory.hpp:77] Creating layer inception_4a/3x3_reduce
I0403 15:21:17.514456  2997 net.cpp:91] Creating Layer inception_4a/3x3_reduce
I0403 15:21:17.514474  2997 net.cpp:425] inception_4a/3x3_reduce <- pool3/3x3_s2_pool3/3x3_s2_0_split_1
I0403 15:21:17.514494  2997 net.cpp:399] inception_4a/3x3_reduce -> inception_4a/3x3_reduce
I0403 15:21:17.515810  2997 net.cpp:141] Setting up inception_4a/3x3_reduce
I0403 15:21:17.515839  2997 net.cpp:148] Top shape: 24 96 14 14 (451584)
I0403 15:21:17.515857  2997 net.cpp:156] Memory required for data: 863429664
I0403 15:21:17.515883  2997 layer_factory.hpp:77] Creating layer inception_4a/relu_3x3_reduce
I0403 15:21:17.515904  2997 net.cpp:91] Creating Layer inception_4a/relu_3x3_reduce
I0403 15:21:17.515923  2997 net.cpp:425] inception_4a/relu_3x3_reduce <- inception_4a/3x3_reduce
I0403 15:21:17.515944  2997 net.cpp:386] inception_4a/relu_3x3_reduce -> inception_4a/3x3_reduce (in-place)
I0403 15:21:17.516126  2997 net.cpp:141] Setting up inception_4a/relu_3x3_reduce
I0403 15:21:17.516154  2997 net.cpp:148] Top shape: 24 96 14 14 (451584)
I0403 15:21:17.516170  2997 net.cpp:156] Memory required for data: 865236000
I0403 15:21:17.516191  2997 layer_factory.hpp:77] Creating layer inception_4a/3x3
I0403 15:21:17.516216  2997 net.cpp:91] Creating Layer inception_4a/3x3
I0403 15:21:17.516232  2997 net.cpp:425] inception_4a/3x3 <- inception_4a/3x3_reduce
I0403 15:21:17.516254  2997 net.cpp:399] inception_4a/3x3 -> inception_4a/3x3
I0403 15:21:17.519001  2997 net.cpp:141] Setting up inception_4a/3x3
I0403 15:21:17.519031  2997 net.cpp:148] Top shape: 24 208 14 14 (978432)
I0403 15:21:17.519047  2997 net.cpp:156] Memory required for data: 869149728
I0403 15:21:17.519068  2997 layer_factory.hpp:77] Creating layer inception_4a/relu_3x3
I0403 15:21:17.519088  2997 net.cpp:91] Creating Layer inception_4a/relu_3x3
I0403 15:21:17.519107  2997 net.cpp:425] inception_4a/relu_3x3 <- inception_4a/3x3
I0403 15:21:17.519126  2997 net.cpp:386] inception_4a/relu_3x3 -> inception_4a/3x3 (in-place)
I0403 15:21:17.519419  2997 net.cpp:141] Setting up inception_4a/relu_3x3
I0403 15:21:17.519448  2997 net.cpp:148] Top shape: 24 208 14 14 (978432)
I0403 15:21:17.519464  2997 net.cpp:156] Memory required for data: 873063456
I0403 15:21:17.519480  2997 layer_factory.hpp:77] Creating layer inception_4a/5x5_reduce
I0403 15:21:17.519505  2997 net.cpp:91] Creating Layer inception_4a/5x5_reduce
I0403 15:21:17.519523  2997 net.cpp:425] inception_4a/5x5_reduce <- pool3/3x3_s2_pool3/3x3_s2_0_split_2
I0403 15:21:17.519546  2997 net.cpp:399] inception_4a/5x5_reduce -> inception_4a/5x5_reduce
I0403 15:21:17.520612  2997 net.cpp:141] Setting up inception_4a/5x5_reduce
I0403 15:21:17.520642  2997 net.cpp:148] Top shape: 24 16 14 14 (75264)
I0403 15:21:17.520661  2997 net.cpp:156] Memory required for data: 873364512
I0403 15:21:17.520680  2997 layer_factory.hpp:77] Creating layer inception_4a/relu_5x5_reduce
I0403 15:21:17.520700  2997 net.cpp:91] Creating Layer inception_4a/relu_5x5_reduce
I0403 15:21:17.520717  2997 net.cpp:425] inception_4a/relu_5x5_reduce <- inception_4a/5x5_reduce
I0403 15:21:17.520737  2997 net.cpp:386] inception_4a/relu_5x5_reduce -> inception_4a/5x5_reduce (in-place)
I0403 15:21:17.520922  2997 net.cpp:141] Setting up inception_4a/relu_5x5_reduce
I0403 15:21:17.520952  2997 net.cpp:148] Top shape: 24 16 14 14 (75264)
I0403 15:21:17.520968  2997 net.cpp:156] Memory required for data: 873665568
I0403 15:21:17.520984  2997 layer_factory.hpp:77] Creating layer inception_4a/5x5
I0403 15:21:17.521006  2997 net.cpp:91] Creating Layer inception_4a/5x5
I0403 15:21:17.521025  2997 net.cpp:425] inception_4a/5x5 <- inception_4a/5x5_reduce
I0403 15:21:17.521047  2997 net.cpp:399] inception_4a/5x5 -> inception_4a/5x5
I0403 15:21:17.522168  2997 net.cpp:141] Setting up inception_4a/5x5
I0403 15:21:17.522202  2997 net.cpp:148] Top shape: 24 48 14 14 (225792)
I0403 15:21:17.522218  2997 net.cpp:156] Memory required for data: 874568736
I0403 15:21:17.522238  2997 layer_factory.hpp:77] Creating layer inception_4a/relu_5x5
I0403 15:21:17.522258  2997 net.cpp:91] Creating Layer inception_4a/relu_5x5
I0403 15:21:17.522274  2997 net.cpp:425] inception_4a/relu_5x5 <- inception_4a/5x5
I0403 15:21:17.522295  2997 net.cpp:386] inception_4a/relu_5x5 -> inception_4a/5x5 (in-place)
I0403 15:21:17.522478  2997 net.cpp:141] Setting up inception_4a/relu_5x5
I0403 15:21:17.522505  2997 net.cpp:148] Top shape: 24 48 14 14 (225792)
I0403 15:21:17.522519  2997 net.cpp:156] Memory required for data: 875471904
I0403 15:21:17.522536  2997 layer_factory.hpp:77] Creating layer inception_4a/pool
I0403 15:21:17.522555  2997 net.cpp:91] Creating Layer inception_4a/pool
I0403 15:21:17.522572  2997 net.cpp:425] inception_4a/pool <- pool3/3x3_s2_pool3/3x3_s2_0_split_3
I0403 15:21:17.522591  2997 net.cpp:399] inception_4a/pool -> inception_4a/pool
I0403 15:21:17.522653  2997 net.cpp:141] Setting up inception_4a/pool
I0403 15:21:17.522677  2997 net.cpp:148] Top shape: 24 480 14 14 (2257920)
I0403 15:21:17.522692  2997 net.cpp:156] Memory required for data: 884503584
I0403 15:21:17.522707  2997 layer_factory.hpp:77] Creating layer inception_4a/pool_proj
I0403 15:21:17.522730  2997 net.cpp:91] Creating Layer inception_4a/pool_proj
I0403 15:21:17.522748  2997 net.cpp:425] inception_4a/pool_proj <- inception_4a/pool
I0403 15:21:17.522770  2997 net.cpp:399] inception_4a/pool_proj -> inception_4a/pool_proj
I0403 15:21:17.523988  2997 net.cpp:141] Setting up inception_4a/pool_proj
I0403 15:21:17.524016  2997 net.cpp:148] Top shape: 24 64 14 14 (301056)
I0403 15:21:17.524049  2997 net.cpp:156] Memory required for data: 885707808
I0403 15:21:17.524070  2997 layer_factory.hpp:77] Creating layer inception_4a/relu_pool_proj
I0403 15:21:17.524088  2997 net.cpp:91] Creating Layer inception_4a/relu_pool_proj
I0403 15:21:17.524106  2997 net.cpp:425] inception_4a/relu_pool_proj <- inception_4a/pool_proj
I0403 15:21:17.524128  2997 net.cpp:386] inception_4a/relu_pool_proj -> inception_4a/pool_proj (in-place)
I0403 15:21:17.524425  2997 net.cpp:141] Setting up inception_4a/relu_pool_proj
I0403 15:21:17.524453  2997 net.cpp:148] Top shape: 24 64 14 14 (301056)
I0403 15:21:17.524471  2997 net.cpp:156] Memory required for data: 886912032
I0403 15:21:17.524487  2997 layer_factory.hpp:77] Creating layer inception_4a/output
I0403 15:21:17.524504  2997 net.cpp:91] Creating Layer inception_4a/output
I0403 15:21:17.524521  2997 net.cpp:425] inception_4a/output <- inception_4a/1x1
I0403 15:21:17.524538  2997 net.cpp:425] inception_4a/output <- inception_4a/3x3
I0403 15:21:17.524555  2997 net.cpp:425] inception_4a/output <- inception_4a/5x5
I0403 15:21:17.524572  2997 net.cpp:425] inception_4a/output <- inception_4a/pool_proj
I0403 15:21:17.524595  2997 net.cpp:399] inception_4a/output -> inception_4a/output
I0403 15:21:17.524641  2997 net.cpp:141] Setting up inception_4a/output
I0403 15:21:17.524667  2997 net.cpp:148] Top shape: 24 512 14 14 (2408448)
I0403 15:21:17.524682  2997 net.cpp:156] Memory required for data: 896545824
I0403 15:21:17.524698  2997 layer_factory.hpp:77] Creating layer inception_4a/output_inception_4a/output_0_split
I0403 15:21:17.524716  2997 net.cpp:91] Creating Layer inception_4a/output_inception_4a/output_0_split
I0403 15:21:17.524731  2997 net.cpp:425] inception_4a/output_inception_4a/output_0_split <- inception_4a/output
I0403 15:21:17.524752  2997 net.cpp:399] inception_4a/output_inception_4a/output_0_split -> inception_4a/output_inception_4a/output_0_split_0
I0403 15:21:17.524775  2997 net.cpp:399] inception_4a/output_inception_4a/output_0_split -> inception_4a/output_inception_4a/output_0_split_1
I0403 15:21:17.524796  2997 net.cpp:399] inception_4a/output_inception_4a/output_0_split -> inception_4a/output_inception_4a/output_0_split_2
I0403 15:21:17.524818  2997 net.cpp:399] inception_4a/output_inception_4a/output_0_split -> inception_4a/output_inception_4a/output_0_split_3
I0403 15:21:17.524840  2997 net.cpp:399] inception_4a/output_inception_4a/output_0_split -> inception_4a/output_inception_4a/output_0_split_4
I0403 15:21:17.524948  2997 net.cpp:141] Setting up inception_4a/output_inception_4a/output_0_split
I0403 15:21:17.524976  2997 net.cpp:148] Top shape: 24 512 14 14 (2408448)
I0403 15:21:17.524994  2997 net.cpp:148] Top shape: 24 512 14 14 (2408448)
I0403 15:21:17.525012  2997 net.cpp:148] Top shape: 24 512 14 14 (2408448)
I0403 15:21:17.525028  2997 net.cpp:148] Top shape: 24 512 14 14 (2408448)
I0403 15:21:17.525045  2997 net.cpp:148] Top shape: 24 512 14 14 (2408448)
I0403 15:21:17.525060  2997 net.cpp:156] Memory required for data: 944714784
I0403 15:21:17.525075  2997 layer_factory.hpp:77] Creating layer loss1/ave_pool
I0403 15:21:17.525095  2997 net.cpp:91] Creating Layer loss1/ave_pool
I0403 15:21:17.525112  2997 net.cpp:425] loss1/ave_pool <- inception_4a/output_inception_4a/output_0_split_0
I0403 15:21:17.525130  2997 net.cpp:399] loss1/ave_pool -> loss1/ave_pool
I0403 15:21:17.525400  2997 net.cpp:141] Setting up loss1/ave_pool
I0403 15:21:17.525429  2997 net.cpp:148] Top shape: 24 512 4 4 (196608)
I0403 15:21:17.525445  2997 net.cpp:156] Memory required for data: 945501216
I0403 15:21:17.525462  2997 layer_factory.hpp:77] Creating layer loss1/conv
I0403 15:21:17.525486  2997 net.cpp:91] Creating Layer loss1/conv
I0403 15:21:17.525516  2997 net.cpp:425] loss1/conv <- loss1/ave_pool
I0403 15:21:17.525548  2997 net.cpp:399] loss1/conv -> loss1/conv
I0403 15:21:17.527056  2997 net.cpp:141] Setting up loss1/conv
I0403 15:21:17.527086  2997 net.cpp:148] Top shape: 24 128 4 4 (49152)
I0403 15:21:17.527117  2997 net.cpp:156] Memory required for data: 945697824
I0403 15:21:17.527137  2997 layer_factory.hpp:77] Creating layer loss1/relu_conv
I0403 15:21:17.527158  2997 net.cpp:91] Creating Layer loss1/relu_conv
I0403 15:21:17.527174  2997 net.cpp:425] loss1/relu_conv <- loss1/conv
I0403 15:21:17.527199  2997 net.cpp:386] loss1/relu_conv -> loss1/conv (in-place)
I0403 15:21:17.527480  2997 net.cpp:141] Setting up loss1/relu_conv
I0403 15:21:17.527508  2997 net.cpp:148] Top shape: 24 128 4 4 (49152)
I0403 15:21:17.527524  2997 net.cpp:156] Memory required for data: 945894432
I0403 15:21:17.527540  2997 layer_factory.hpp:77] Creating layer loss1/fc
I0403 15:21:17.527567  2997 net.cpp:91] Creating Layer loss1/fc
I0403 15:21:17.527586  2997 net.cpp:425] loss1/fc <- loss1/conv
I0403 15:21:17.527607  2997 net.cpp:399] loss1/fc -> loss1/fc
I0403 15:21:17.545426  2997 net.cpp:141] Setting up loss1/fc
I0403 15:21:17.545460  2997 net.cpp:148] Top shape: 24 1024 (24576)
I0403 15:21:17.545485  2997 net.cpp:156] Memory required for data: 945992736
I0403 15:21:17.545503  2997 layer_factory.hpp:77] Creating layer loss1/relu_fc
I0403 15:21:17.545521  2997 net.cpp:91] Creating Layer loss1/relu_fc
I0403 15:21:17.545539  2997 net.cpp:425] loss1/relu_fc <- loss1/fc
I0403 15:21:17.545557  2997 net.cpp:386] loss1/relu_fc -> loss1/fc (in-place)
I0403 15:21:17.545744  2997 net.cpp:141] Setting up loss1/relu_fc
I0403 15:21:17.545769  2997 net.cpp:148] Top shape: 24 1024 (24576)
I0403 15:21:17.545785  2997 net.cpp:156] Memory required for data: 946091040
I0403 15:21:17.545800  2997 layer_factory.hpp:77] Creating layer loss1/drop_fc
I0403 15:21:17.545830  2997 net.cpp:91] Creating Layer loss1/drop_fc
I0403 15:21:17.545847  2997 net.cpp:425] loss1/drop_fc <- loss1/fc
I0403 15:21:17.545866  2997 net.cpp:386] loss1/drop_fc -> loss1/fc (in-place)
I0403 15:21:17.545915  2997 net.cpp:141] Setting up loss1/drop_fc
I0403 15:21:17.545941  2997 net.cpp:148] Top shape: 24 1024 (24576)
I0403 15:21:17.545974  2997 net.cpp:156] Memory required for data: 946189344
I0403 15:21:17.545989  2997 layer_factory.hpp:77] Creating layer loss1/classifier_plantvillage
I0403 15:21:17.546008  2997 net.cpp:91] Creating Layer loss1/classifier_plantvillage
I0403 15:21:17.546025  2997 net.cpp:425] loss1/classifier_plantvillage <- loss1/fc
I0403 15:21:17.546046  2997 net.cpp:399] loss1/classifier_plantvillage -> loss1/classifier_plantvillage
I0403 15:21:17.546962  2997 net.cpp:141] Setting up loss1/classifier_plantvillage
I0403 15:21:17.546990  2997 net.cpp:148] Top shape: 24 38 (912)
I0403 15:21:17.547006  2997 net.cpp:156] Memory required for data: 946192992
I0403 15:21:17.547024  2997 layer_factory.hpp:77] Creating layer loss1/classifier_plantvillage_loss1/classifier_plantvillage_0_split
I0403 15:21:17.547044  2997 net.cpp:91] Creating Layer loss1/classifier_plantvillage_loss1/classifier_plantvillage_0_split
I0403 15:21:17.547061  2997 net.cpp:425] loss1/classifier_plantvillage_loss1/classifier_plantvillage_0_split <- loss1/classifier_plantvillage
I0403 15:21:17.547080  2997 net.cpp:399] loss1/classifier_plantvillage_loss1/classifier_plantvillage_0_split -> loss1/classifier_plantvillage_loss1/classifier_plantvillage_0_split_0
I0403 15:21:17.547101  2997 net.cpp:399] loss1/classifier_plantvillage_loss1/classifier_plantvillage_0_split -> loss1/classifier_plantvillage_loss1/classifier_plantvillage_0_split_1
I0403 15:21:17.547121  2997 net.cpp:399] loss1/classifier_plantvillage_loss1/classifier_plantvillage_0_split -> loss1/classifier_plantvillage_loss1/classifier_plantvillage_0_split_2
I0403 15:21:17.547190  2997 net.cpp:141] Setting up loss1/classifier_plantvillage_loss1/classifier_plantvillage_0_split
I0403 15:21:17.547214  2997 net.cpp:148] Top shape: 24 38 (912)
I0403 15:21:17.547231  2997 net.cpp:148] Top shape: 24 38 (912)
I0403 15:21:17.547247  2997 net.cpp:148] Top shape: 24 38 (912)
I0403 15:21:17.547261  2997 net.cpp:156] Memory required for data: 946203936
I0403 15:21:17.547276  2997 layer_factory.hpp:77] Creating layer inception_4b/1x1
I0403 15:21:17.547297  2997 net.cpp:91] Creating Layer inception_4b/1x1
I0403 15:21:17.547333  2997 net.cpp:425] inception_4b/1x1 <- inception_4a/output_inception_4a/output_0_split_1
I0403 15:21:17.547355  2997 net.cpp:399] inception_4b/1x1 -> inception_4b/1x1
I0403 15:21:17.549049  2997 net.cpp:141] Setting up inception_4b/1x1
I0403 15:21:17.549082  2997 net.cpp:148] Top shape: 24 160 14 14 (752640)
I0403 15:21:17.549100  2997 net.cpp:156] Memory required for data: 949214496
I0403 15:21:17.549119  2997 layer_factory.hpp:77] Creating layer inception_4b/relu_1x1
I0403 15:21:17.549139  2997 net.cpp:91] Creating Layer inception_4b/relu_1x1
I0403 15:21:17.549155  2997 net.cpp:425] inception_4b/relu_1x1 <- inception_4b/1x1
I0403 15:21:17.549172  2997 net.cpp:386] inception_4b/relu_1x1 -> inception_4b/1x1 (in-place)
I0403 15:21:17.549360  2997 net.cpp:141] Setting up inception_4b/relu_1x1
I0403 15:21:17.549386  2997 net.cpp:148] Top shape: 24 160 14 14 (752640)
I0403 15:21:17.549402  2997 net.cpp:156] Memory required for data: 952225056
I0403 15:21:17.549417  2997 layer_factory.hpp:77] Creating layer inception_4b/3x3_reduce
I0403 15:21:17.549439  2997 net.cpp:91] Creating Layer inception_4b/3x3_reduce
I0403 15:21:17.549458  2997 net.cpp:425] inception_4b/3x3_reduce <- inception_4a/output_inception_4a/output_0_split_2
I0403 15:21:17.549476  2997 net.cpp:399] inception_4b/3x3_reduce -> inception_4b/3x3_reduce
I0403 15:21:17.550843  2997 net.cpp:141] Setting up inception_4b/3x3_reduce
I0403 15:21:17.550873  2997 net.cpp:148] Top shape: 24 112 14 14 (526848)
I0403 15:21:17.550892  2997 net.cpp:156] Memory required for data: 954332448
I0403 15:21:17.550911  2997 layer_factory.hpp:77] Creating layer inception_4b/relu_3x3_reduce
I0403 15:21:17.550930  2997 net.cpp:91] Creating Layer inception_4b/relu_3x3_reduce
I0403 15:21:17.550946  2997 net.cpp:425] inception_4b/relu_3x3_reduce <- inception_4b/3x3_reduce
I0403 15:21:17.550967  2997 net.cpp:386] inception_4b/relu_3x3_reduce -> inception_4b/3x3_reduce (in-place)
I0403 15:21:17.551257  2997 net.cpp:141] Setting up inception_4b/relu_3x3_reduce
I0403 15:21:17.551285  2997 net.cpp:148] Top shape: 24 112 14 14 (526848)
I0403 15:21:17.551302  2997 net.cpp:156] Memory required for data: 956439840
I0403 15:21:17.551317  2997 layer_factory.hpp:77] Creating layer inception_4b/3x3
I0403 15:21:17.551339  2997 net.cpp:91] Creating Layer inception_4b/3x3
I0403 15:21:17.551357  2997 net.cpp:425] inception_4b/3x3 <- inception_4b/3x3_reduce
I0403 15:21:17.551376  2997 net.cpp:399] inception_4b/3x3 -> inception_4b/3x3
I0403 15:21:17.554355  2997 net.cpp:141] Setting up inception_4b/3x3
I0403 15:21:17.554383  2997 net.cpp:148] Top shape: 24 224 14 14 (1053696)
I0403 15:21:17.554400  2997 net.cpp:156] Memory required for data: 960654624
I0403 15:21:17.554419  2997 layer_factory.hpp:77] Creating layer inception_4b/relu_3x3
I0403 15:21:17.554441  2997 net.cpp:91] Creating Layer inception_4b/relu_3x3
I0403 15:21:17.554461  2997 net.cpp:425] inception_4b/relu_3x3 <- inception_4b/3x3
I0403 15:21:17.554481  2997 net.cpp:386] inception_4b/relu_3x3 -> inception_4b/3x3 (in-place)
I0403 15:21:17.554666  2997 net.cpp:141] Setting up inception_4b/relu_3x3
I0403 15:21:17.554692  2997 net.cpp:148] Top shape: 24 224 14 14 (1053696)
I0403 15:21:17.554707  2997 net.cpp:156] Memory required for data: 964869408
I0403 15:21:17.554723  2997 layer_factory.hpp:77] Creating layer inception_4b/5x5_reduce
I0403 15:21:17.554749  2997 net.cpp:91] Creating Layer inception_4b/5x5_reduce
I0403 15:21:17.554766  2997 net.cpp:425] inception_4b/5x5_reduce <- inception_4a/output_inception_4a/output_0_split_3
I0403 15:21:17.554786  2997 net.cpp:399] inception_4b/5x5_reduce -> inception_4b/5x5_reduce
I0403 15:21:17.555881  2997 net.cpp:141] Setting up inception_4b/5x5_reduce
I0403 15:21:17.555910  2997 net.cpp:148] Top shape: 24 24 14 14 (112896)
I0403 15:21:17.555927  2997 net.cpp:156] Memory required for data: 965320992
I0403 15:21:17.555948  2997 layer_factory.hpp:77] Creating layer inception_4b/relu_5x5_reduce
I0403 15:21:17.555966  2997 net.cpp:91] Creating Layer inception_4b/relu_5x5_reduce
I0403 15:21:17.555997  2997 net.cpp:425] inception_4b/relu_5x5_reduce <- inception_4b/5x5_reduce
I0403 15:21:17.556018  2997 net.cpp:386] inception_4b/relu_5x5_reduce -> inception_4b/5x5_reduce (in-place)
I0403 15:21:17.556210  2997 net.cpp:141] Setting up inception_4b/relu_5x5_reduce
I0403 15:21:17.556236  2997 net.cpp:148] Top shape: 24 24 14 14 (112896)
I0403 15:21:17.556252  2997 net.cpp:156] Memory required for data: 965772576
I0403 15:21:17.556267  2997 layer_factory.hpp:77] Creating layer inception_4b/5x5
I0403 15:21:17.556288  2997 net.cpp:91] Creating Layer inception_4b/5x5
I0403 15:21:17.556305  2997 net.cpp:425] inception_4b/5x5 <- inception_4b/5x5_reduce
I0403 15:21:17.556327  2997 net.cpp:399] inception_4b/5x5 -> inception_4b/5x5
I0403 15:21:17.557555  2997 net.cpp:141] Setting up inception_4b/5x5
I0403 15:21:17.557586  2997 net.cpp:148] Top shape: 24 64 14 14 (301056)
I0403 15:21:17.557605  2997 net.cpp:156] Memory required for data: 966976800
I0403 15:21:17.557624  2997 layer_factory.hpp:77] Creating layer inception_4b/relu_5x5
I0403 15:21:17.557642  2997 net.cpp:91] Creating Layer inception_4b/relu_5x5
I0403 15:21:17.557659  2997 net.cpp:425] inception_4b/relu_5x5 <- inception_4b/5x5
I0403 15:21:17.557677  2997 net.cpp:386] inception_4b/relu_5x5 -> inception_4b/5x5 (in-place)
I0403 15:21:17.557963  2997 net.cpp:141] Setting up inception_4b/relu_5x5
I0403 15:21:17.557991  2997 net.cpp:148] Top shape: 24 64 14 14 (301056)
I0403 15:21:17.558007  2997 net.cpp:156] Memory required for data: 968181024
I0403 15:21:17.558023  2997 layer_factory.hpp:77] Creating layer inception_4b/pool
I0403 15:21:17.558040  2997 net.cpp:91] Creating Layer inception_4b/pool
I0403 15:21:17.558058  2997 net.cpp:425] inception_4b/pool <- inception_4a/output_inception_4a/output_0_split_4
I0403 15:21:17.558075  2997 net.cpp:399] inception_4b/pool -> inception_4b/pool
I0403 15:21:17.558143  2997 net.cpp:141] Setting up inception_4b/pool
I0403 15:21:17.558167  2997 net.cpp:148] Top shape: 24 512 14 14 (2408448)
I0403 15:21:17.558187  2997 net.cpp:156] Memory required for data: 977814816
I0403 15:21:17.558207  2997 layer_factory.hpp:77] Creating layer inception_4b/pool_proj
I0403 15:21:17.558228  2997 net.cpp:91] Creating Layer inception_4b/pool_proj
I0403 15:21:17.558246  2997 net.cpp:425] inception_4b/pool_proj <- inception_4b/pool
I0403 15:21:17.558269  2997 net.cpp:399] inception_4b/pool_proj -> inception_4b/pool_proj
I0403 15:21:17.559483  2997 net.cpp:141] Setting up inception_4b/pool_proj
I0403 15:21:17.559514  2997 net.cpp:148] Top shape: 24 64 14 14 (301056)
I0403 15:21:17.559530  2997 net.cpp:156] Memory required for data: 979019040
I0403 15:21:17.559550  2997 layer_factory.hpp:77] Creating layer inception_4b/relu_pool_proj
I0403 15:21:17.559567  2997 net.cpp:91] Creating Layer inception_4b/relu_pool_proj
I0403 15:21:17.559584  2997 net.cpp:425] inception_4b/relu_pool_proj <- inception_4b/pool_proj
I0403 15:21:17.559603  2997 net.cpp:386] inception_4b/relu_pool_proj -> inception_4b/pool_proj (in-place)
I0403 15:21:17.559788  2997 net.cpp:141] Setting up inception_4b/relu_pool_proj
I0403 15:21:17.559814  2997 net.cpp:148] Top shape: 24 64 14 14 (301056)
I0403 15:21:17.559829  2997 net.cpp:156] Memory required for data: 980223264
I0403 15:21:17.559844  2997 layer_factory.hpp:77] Creating layer inception_4b/output
I0403 15:21:17.559861  2997 net.cpp:91] Creating Layer inception_4b/output
I0403 15:21:17.559877  2997 net.cpp:425] inception_4b/output <- inception_4b/1x1
I0403 15:21:17.559895  2997 net.cpp:425] inception_4b/output <- inception_4b/3x3
I0403 15:21:17.559911  2997 net.cpp:425] inception_4b/output <- inception_4b/5x5
I0403 15:21:17.559927  2997 net.cpp:425] inception_4b/output <- inception_4b/pool_proj
I0403 15:21:17.559949  2997 net.cpp:399] inception_4b/output -> inception_4b/output
I0403 15:21:17.559995  2997 net.cpp:141] Setting up inception_4b/output
I0403 15:21:17.560021  2997 net.cpp:148] Top shape: 24 512 14 14 (2408448)
I0403 15:21:17.560036  2997 net.cpp:156] Memory required for data: 989857056
I0403 15:21:17.560065  2997 layer_factory.hpp:77] Creating layer inception_4b/output_inception_4b/output_0_split
I0403 15:21:17.560084  2997 net.cpp:91] Creating Layer inception_4b/output_inception_4b/output_0_split
I0403 15:21:17.560101  2997 net.cpp:425] inception_4b/output_inception_4b/output_0_split <- inception_4b/output
I0403 15:21:17.560118  2997 net.cpp:399] inception_4b/output_inception_4b/output_0_split -> inception_4b/output_inception_4b/output_0_split_0
I0403 15:21:17.560142  2997 net.cpp:399] inception_4b/output_inception_4b/output_0_split -> inception_4b/output_inception_4b/output_0_split_1
I0403 15:21:17.560163  2997 net.cpp:399] inception_4b/output_inception_4b/output_0_split -> inception_4b/output_inception_4b/output_0_split_2
I0403 15:21:17.560189  2997 net.cpp:399] inception_4b/output_inception_4b/output_0_split -> inception_4b/output_inception_4b/output_0_split_3
I0403 15:21:17.560281  2997 net.cpp:141] Setting up inception_4b/output_inception_4b/output_0_split
I0403 15:21:17.560304  2997 net.cpp:148] Top shape: 24 512 14 14 (2408448)
I0403 15:21:17.560322  2997 net.cpp:148] Top shape: 24 512 14 14 (2408448)
I0403 15:21:17.560338  2997 net.cpp:148] Top shape: 24 512 14 14 (2408448)
I0403 15:21:17.560353  2997 net.cpp:148] Top shape: 24 512 14 14 (2408448)
I0403 15:21:17.560367  2997 net.cpp:156] Memory required for data: 1028392224
I0403 15:21:17.560382  2997 layer_factory.hpp:77] Creating layer inception_4c/1x1
I0403 15:21:17.560405  2997 net.cpp:91] Creating Layer inception_4c/1x1
I0403 15:21:17.560422  2997 net.cpp:425] inception_4c/1x1 <- inception_4b/output_inception_4b/output_0_split_0
I0403 15:21:17.560443  2997 net.cpp:399] inception_4c/1x1 -> inception_4c/1x1
I0403 15:21:17.561910  2997 net.cpp:141] Setting up inception_4c/1x1
I0403 15:21:17.561940  2997 net.cpp:148] Top shape: 24 128 14 14 (602112)
I0403 15:21:17.561956  2997 net.cpp:156] Memory required for data: 1030800672
I0403 15:21:17.561976  2997 layer_factory.hpp:77] Creating layer inception_4c/relu_1x1
I0403 15:21:17.562010  2997 net.cpp:91] Creating Layer inception_4c/relu_1x1
I0403 15:21:17.562026  2997 net.cpp:425] inception_4c/relu_1x1 <- inception_4c/1x1
I0403 15:21:17.562044  2997 net.cpp:386] inception_4c/relu_1x1 -> inception_4c/1x1 (in-place)
I0403 15:21:17.562232  2997 net.cpp:141] Setting up inception_4c/relu_1x1
I0403 15:21:17.562257  2997 net.cpp:148] Top shape: 24 128 14 14 (602112)
I0403 15:21:17.562271  2997 net.cpp:156] Memory required for data: 1033209120
I0403 15:21:17.562285  2997 layer_factory.hpp:77] Creating layer inception_4c/3x3_reduce
I0403 15:21:17.562309  2997 net.cpp:91] Creating Layer inception_4c/3x3_reduce
I0403 15:21:17.562325  2997 net.cpp:425] inception_4c/3x3_reduce <- inception_4b/output_inception_4b/output_0_split_1
I0403 15:21:17.562348  2997 net.cpp:399] inception_4c/3x3_reduce -> inception_4c/3x3_reduce
I0403 15:21:17.564327  2997 net.cpp:141] Setting up inception_4c/3x3_reduce
I0403 15:21:17.564357  2997 net.cpp:148] Top shape: 24 128 14 14 (602112)
I0403 15:21:17.564373  2997 net.cpp:156] Memory required for data: 1035617568
I0403 15:21:17.564393  2997 layer_factory.hpp:77] Creating layer inception_4c/relu_3x3_reduce
I0403 15:21:17.564414  2997 net.cpp:91] Creating Layer inception_4c/relu_3x3_reduce
I0403 15:21:17.564434  2997 net.cpp:425] inception_4c/relu_3x3_reduce <- inception_4c/3x3_reduce
I0403 15:21:17.564453  2997 net.cpp:386] inception_4c/relu_3x3_reduce -> inception_4c/3x3_reduce (in-place)
I0403 15:21:17.564744  2997 net.cpp:141] Setting up inception_4c/relu_3x3_reduce
I0403 15:21:17.564770  2997 net.cpp:148] Top shape: 24 128 14 14 (602112)
I0403 15:21:17.564786  2997 net.cpp:156] Memory required for data: 1038026016
I0403 15:21:17.564801  2997 layer_factory.hpp:77] Creating layer inception_4c/3x3
I0403 15:21:17.564826  2997 net.cpp:91] Creating Layer inception_4c/3x3
I0403 15:21:17.564844  2997 net.cpp:425] inception_4c/3x3 <- inception_4c/3x3_reduce
I0403 15:21:17.564864  2997 net.cpp:399] inception_4c/3x3 -> inception_4c/3x3
I0403 15:21:17.568501  2997 net.cpp:141] Setting up inception_4c/3x3
I0403 15:21:17.568547  2997 net.cpp:148] Top shape: 24 256 14 14 (1204224)
I0403 15:21:17.568564  2997 net.cpp:156] Memory required for data: 1042842912
I0403 15:21:17.568595  2997 layer_factory.hpp:77] Creating layer inception_4c/relu_3x3
I0403 15:21:17.568616  2997 net.cpp:91] Creating Layer inception_4c/relu_3x3
I0403 15:21:17.568634  2997 net.cpp:425] inception_4c/relu_3x3 <- inception_4c/3x3
I0403 15:21:17.568650  2997 net.cpp:386] inception_4c/relu_3x3 -> inception_4c/3x3 (in-place)
I0403 15:21:17.568836  2997 net.cpp:141] Setting up inception_4c/relu_3x3
I0403 15:21:17.568863  2997 net.cpp:148] Top shape: 24 256 14 14 (1204224)
I0403 15:21:17.568879  2997 net.cpp:156] Memory required for data: 1047659808
I0403 15:21:17.568894  2997 layer_factory.hpp:77] Creating layer inception_4c/5x5_reduce
I0403 15:21:17.568917  2997 net.cpp:91] Creating Layer inception_4c/5x5_reduce
I0403 15:21:17.568935  2997 net.cpp:425] inception_4c/5x5_reduce <- inception_4b/output_inception_4b/output_0_split_2
I0403 15:21:17.568955  2997 net.cpp:399] inception_4c/5x5_reduce -> inception_4c/5x5_reduce
I0403 15:21:17.570068  2997 net.cpp:141] Setting up inception_4c/5x5_reduce
I0403 15:21:17.570099  2997 net.cpp:148] Top shape: 24 24 14 14 (112896)
I0403 15:21:17.570116  2997 net.cpp:156] Memory required for data: 1048111392
I0403 15:21:17.570137  2997 layer_factory.hpp:77] Creating layer inception_4c/relu_5x5_reduce
I0403 15:21:17.570154  2997 net.cpp:91] Creating Layer inception_4c/relu_5x5_reduce
I0403 15:21:17.570170  2997 net.cpp:425] inception_4c/relu_5x5_reduce <- inception_4c/5x5_reduce
I0403 15:21:17.570195  2997 net.cpp:386] inception_4c/relu_5x5_reduce -> inception_4c/5x5_reduce (in-place)
I0403 15:21:17.570386  2997 net.cpp:141] Setting up inception_4c/relu_5x5_reduce
I0403 15:21:17.570412  2997 net.cpp:148] Top shape: 24 24 14 14 (112896)
I0403 15:21:17.570428  2997 net.cpp:156] Memory required for data: 1048562976
I0403 15:21:17.570443  2997 layer_factory.hpp:77] Creating layer inception_4c/5x5
I0403 15:21:17.570466  2997 net.cpp:91] Creating Layer inception_4c/5x5
I0403 15:21:17.570483  2997 net.cpp:425] inception_4c/5x5 <- inception_4c/5x5_reduce
I0403 15:21:17.570504  2997 net.cpp:399] inception_4c/5x5 -> inception_4c/5x5
I0403 15:21:17.571771  2997 net.cpp:141] Setting up inception_4c/5x5
I0403 15:21:17.571799  2997 net.cpp:148] Top shape: 24 64 14 14 (301056)
I0403 15:21:17.571815  2997 net.cpp:156] Memory required for data: 1049767200
I0403 15:21:17.571835  2997 layer_factory.hpp:77] Creating layer inception_4c/relu_5x5
I0403 15:21:17.571853  2997 net.cpp:91] Creating Layer inception_4c/relu_5x5
I0403 15:21:17.571907  2997 net.cpp:425] inception_4c/relu_5x5 <- inception_4c/5x5
I0403 15:21:17.571925  2997 net.cpp:386] inception_4c/relu_5x5 -> inception_4c/5x5 (in-place)
I0403 15:21:17.572254  2997 net.cpp:141] Setting up inception_4c/relu_5x5
I0403 15:21:17.572281  2997 net.cpp:148] Top shape: 24 64 14 14 (301056)
I0403 15:21:17.572296  2997 net.cpp:156] Memory required for data: 1050971424
I0403 15:21:17.572311  2997 layer_factory.hpp:77] Creating layer inception_4c/pool
I0403 15:21:17.572329  2997 net.cpp:91] Creating Layer inception_4c/pool
I0403 15:21:17.572345  2997 net.cpp:425] inception_4c/pool <- inception_4b/output_inception_4b/output_0_split_3
I0403 15:21:17.572366  2997 net.cpp:399] inception_4c/pool -> inception_4c/pool
I0403 15:21:17.572432  2997 net.cpp:141] Setting up inception_4c/pool
I0403 15:21:17.572463  2997 net.cpp:148] Top shape: 24 512 14 14 (2408448)
I0403 15:21:17.572486  2997 net.cpp:156] Memory required for data: 1060605216
I0403 15:21:17.572510  2997 layer_factory.hpp:77] Creating layer inception_4c/pool_proj
I0403 15:21:17.572540  2997 net.cpp:91] Creating Layer inception_4c/pool_proj
I0403 15:21:17.572562  2997 net.cpp:425] inception_4c/pool_proj <- inception_4c/pool
I0403 15:21:17.572588  2997 net.cpp:399] inception_4c/pool_proj -> inception_4c/pool_proj
I0403 15:21:17.573879  2997 net.cpp:141] Setting up inception_4c/pool_proj
I0403 15:21:17.573914  2997 net.cpp:148] Top shape: 24 64 14 14 (301056)
I0403 15:21:17.573945  2997 net.cpp:156] Memory required for data: 1061809440
I0403 15:21:17.573968  2997 layer_factory.hpp:77] Creating layer inception_4c/relu_pool_proj
I0403 15:21:17.573987  2997 net.cpp:91] Creating Layer inception_4c/relu_pool_proj
I0403 15:21:17.574003  2997 net.cpp:425] inception_4c/relu_pool_proj <- inception_4c/pool_proj
I0403 15:21:17.574021  2997 net.cpp:386] inception_4c/relu_pool_proj -> inception_4c/pool_proj (in-place)
I0403 15:21:17.574239  2997 net.cpp:141] Setting up inception_4c/relu_pool_proj
I0403 15:21:17.574267  2997 net.cpp:148] Top shape: 24 64 14 14 (301056)
I0403 15:21:17.574283  2997 net.cpp:156] Memory required for data: 1063013664
I0403 15:21:17.574300  2997 layer_factory.hpp:77] Creating layer inception_4c/output
I0403 15:21:17.574318  2997 net.cpp:91] Creating Layer inception_4c/output
I0403 15:21:17.574336  2997 net.cpp:425] inception_4c/output <- inception_4c/1x1
I0403 15:21:17.574353  2997 net.cpp:425] inception_4c/output <- inception_4c/3x3
I0403 15:21:17.574381  2997 net.cpp:425] inception_4c/output <- inception_4c/5x5
I0403 15:21:17.574425  2997 net.cpp:425] inception_4c/output <- inception_4c/pool_proj
I0403 15:21:17.574448  2997 net.cpp:399] inception_4c/output -> inception_4c/output
I0403 15:21:17.574506  2997 net.cpp:141] Setting up inception_4c/output
I0403 15:21:17.574529  2997 net.cpp:148] Top shape: 24 512 14 14 (2408448)
I0403 15:21:17.574545  2997 net.cpp:156] Memory required for data: 1072647456
I0403 15:21:17.574561  2997 layer_factory.hpp:77] Creating layer inception_4c/output_inception_4c/output_0_split
I0403 15:21:17.574582  2997 net.cpp:91] Creating Layer inception_4c/output_inception_4c/output_0_split
I0403 15:21:17.574599  2997 net.cpp:425] inception_4c/output_inception_4c/output_0_split <- inception_4c/output
I0403 15:21:17.574617  2997 net.cpp:399] inception_4c/output_inception_4c/output_0_split -> inception_4c/output_inception_4c/output_0_split_0
I0403 15:21:17.574641  2997 net.cpp:399] inception_4c/output_inception_4c/output_0_split -> inception_4c/output_inception_4c/output_0_split_1
I0403 15:21:17.574664  2997 net.cpp:399] inception_4c/output_inception_4c/output_0_split -> inception_4c/output_inception_4c/output_0_split_2
I0403 15:21:17.574698  2997 net.cpp:399] inception_4c/output_inception_4c/output_0_split -> inception_4c/output_inception_4c/output_0_split_3
I0403 15:21:17.574786  2997 net.cpp:141] Setting up inception_4c/output_inception_4c/output_0_split
I0403 15:21:17.574810  2997 net.cpp:148] Top shape: 24 512 14 14 (2408448)
I0403 15:21:17.574826  2997 net.cpp:148] Top shape: 24 512 14 14 (2408448)
I0403 15:21:17.574843  2997 net.cpp:148] Top shape: 24 512 14 14 (2408448)
I0403 15:21:17.574859  2997 net.cpp:148] Top shape: 24 512 14 14 (2408448)
I0403 15:21:17.574873  2997 net.cpp:156] Memory required for data: 1111182624
I0403 15:21:17.574888  2997 layer_factory.hpp:77] Creating layer inception_4d/1x1
I0403 15:21:17.574911  2997 net.cpp:91] Creating Layer inception_4d/1x1
I0403 15:21:17.574929  2997 net.cpp:425] inception_4d/1x1 <- inception_4c/output_inception_4c/output_0_split_0
I0403 15:21:17.574952  2997 net.cpp:399] inception_4d/1x1 -> inception_4d/1x1
I0403 15:21:17.576395  2997 net.cpp:141] Setting up inception_4d/1x1
I0403 15:21:17.576426  2997 net.cpp:148] Top shape: 24 112 14 14 (526848)
I0403 15:21:17.576442  2997 net.cpp:156] Memory required for data: 1113290016
I0403 15:21:17.576462  2997 layer_factory.hpp:77] Creating layer inception_4d/relu_1x1
I0403 15:21:17.576484  2997 net.cpp:91] Creating Layer inception_4d/relu_1x1
I0403 15:21:17.576501  2997 net.cpp:425] inception_4d/relu_1x1 <- inception_4d/1x1
I0403 15:21:17.576520  2997 net.cpp:386] inception_4d/relu_1x1 -> inception_4d/1x1 (in-place)
I0403 15:21:17.576716  2997 net.cpp:141] Setting up inception_4d/relu_1x1
I0403 15:21:17.576741  2997 net.cpp:148] Top shape: 24 112 14 14 (526848)
I0403 15:21:17.576757  2997 net.cpp:156] Memory required for data: 1115397408
I0403 15:21:17.576773  2997 layer_factory.hpp:77] Creating layer inception_4d/3x3_reduce
I0403 15:21:17.576812  2997 net.cpp:91] Creating Layer inception_4d/3x3_reduce
I0403 15:21:17.576831  2997 net.cpp:425] inception_4d/3x3_reduce <- inception_4c/output_inception_4c/output_0_split_1
I0403 15:21:17.576851  2997 net.cpp:399] inception_4d/3x3_reduce -> inception_4d/3x3_reduce
I0403 15:21:17.578439  2997 net.cpp:141] Setting up inception_4d/3x3_reduce
I0403 15:21:17.578469  2997 net.cpp:148] Top shape: 24 144 14 14 (677376)
I0403 15:21:17.578495  2997 net.cpp:156] Memory required for data: 1118106912
I0403 15:21:17.578516  2997 layer_factory.hpp:77] Creating layer inception_4d/relu_3x3_reduce
I0403 15:21:17.578536  2997 net.cpp:91] Creating Layer inception_4d/relu_3x3_reduce
I0403 15:21:17.578552  2997 net.cpp:425] inception_4d/relu_3x3_reduce <- inception_4d/3x3_reduce
I0403 15:21:17.578574  2997 net.cpp:386] inception_4d/relu_3x3_reduce -> inception_4d/3x3_reduce (in-place)
I0403 15:21:17.578876  2997 net.cpp:141] Setting up inception_4d/relu_3x3_reduce
I0403 15:21:17.579021  2997 net.cpp:148] Top shape: 24 144 14 14 (677376)
I0403 15:21:17.579040  2997 net.cpp:156] Memory required for data: 1120816416
I0403 15:21:17.579056  2997 layer_factory.hpp:77] Creating layer inception_4d/3x3
I0403 15:21:17.579080  2997 net.cpp:91] Creating Layer inception_4d/3x3
I0403 15:21:17.579100  2997 net.cpp:425] inception_4d/3x3 <- inception_4d/3x3_reduce
I0403 15:21:17.579123  2997 net.cpp:399] inception_4d/3x3 -> inception_4d/3x3
I0403 15:21:17.583600  2997 net.cpp:141] Setting up inception_4d/3x3
I0403 15:21:17.583632  2997 net.cpp:148] Top shape: 24 288 14 14 (1354752)
I0403 15:21:17.583649  2997 net.cpp:156] Memory required for data: 1126235424
I0403 15:21:17.583668  2997 layer_factory.hpp:77] Creating layer inception_4d/relu_3x3
I0403 15:21:17.583689  2997 net.cpp:91] Creating Layer inception_4d/relu_3x3
I0403 15:21:17.583706  2997 net.cpp:425] inception_4d/relu_3x3 <- inception_4d/3x3
I0403 15:21:17.583724  2997 net.cpp:386] inception_4d/relu_3x3 -> inception_4d/3x3 (in-place)
I0403 15:21:17.583921  2997 net.cpp:141] Setting up inception_4d/relu_3x3
I0403 15:21:17.583950  2997 net.cpp:148] Top shape: 24 288 14 14 (1354752)
I0403 15:21:17.583966  2997 net.cpp:156] Memory required for data: 1131654432
I0403 15:21:17.583981  2997 layer_factory.hpp:77] Creating layer inception_4d/5x5_reduce
I0403 15:21:17.584004  2997 net.cpp:91] Creating Layer inception_4d/5x5_reduce
I0403 15:21:17.584022  2997 net.cpp:425] inception_4d/5x5_reduce <- inception_4c/output_inception_4c/output_0_split_2
I0403 15:21:17.584043  2997 net.cpp:399] inception_4d/5x5_reduce -> inception_4d/5x5_reduce
I0403 15:21:17.585247  2997 net.cpp:141] Setting up inception_4d/5x5_reduce
I0403 15:21:17.585278  2997 net.cpp:148] Top shape: 24 32 14 14 (150528)
I0403 15:21:17.585294  2997 net.cpp:156] Memory required for data: 1132256544
I0403 15:21:17.585314  2997 layer_factory.hpp:77] Creating layer inception_4d/relu_5x5_reduce
I0403 15:21:17.585335  2997 net.cpp:91] Creating Layer inception_4d/relu_5x5_reduce
I0403 15:21:17.585353  2997 net.cpp:425] inception_4d/relu_5x5_reduce <- inception_4d/5x5_reduce
I0403 15:21:17.585371  2997 net.cpp:386] inception_4d/relu_5x5_reduce -> inception_4d/5x5_reduce (in-place)
I0403 15:21:17.585568  2997 net.cpp:141] Setting up inception_4d/relu_5x5_reduce
I0403 15:21:17.585595  2997 net.cpp:148] Top shape: 24 32 14 14 (150528)
I0403 15:21:17.585613  2997 net.cpp:156] Memory required for data: 1132858656
I0403 15:21:17.585628  2997 layer_factory.hpp:77] Creating layer inception_4d/5x5
I0403 15:21:17.585651  2997 net.cpp:91] Creating Layer inception_4d/5x5
I0403 15:21:17.585669  2997 net.cpp:425] inception_4d/5x5 <- inception_4d/5x5_reduce
I0403 15:21:17.585690  2997 net.cpp:399] inception_4d/5x5 -> inception_4d/5x5
I0403 15:21:17.587234  2997 net.cpp:141] Setting up inception_4d/5x5
I0403 15:21:17.587265  2997 net.cpp:148] Top shape: 24 64 14 14 (301056)
I0403 15:21:17.587283  2997 net.cpp:156] Memory required for data: 1134062880
I0403 15:21:17.587304  2997 layer_factory.hpp:77] Creating layer inception_4d/relu_5x5
I0403 15:21:17.587338  2997 net.cpp:91] Creating Layer inception_4d/relu_5x5
I0403 15:21:17.587357  2997 net.cpp:425] inception_4d/relu_5x5 <- inception_4d/5x5
I0403 15:21:17.587376  2997 net.cpp:386] inception_4d/relu_5x5 -> inception_4d/5x5 (in-place)
I0403 15:21:17.587720  2997 net.cpp:141] Setting up inception_4d/relu_5x5
I0403 15:21:17.587754  2997 net.cpp:148] Top shape: 24 64 14 14 (301056)
I0403 15:21:17.587771  2997 net.cpp:156] Memory required for data: 1135267104
I0403 15:21:17.587788  2997 layer_factory.hpp:77] Creating layer inception_4d/pool
I0403 15:21:17.587807  2997 net.cpp:91] Creating Layer inception_4d/pool
I0403 15:21:17.587823  2997 net.cpp:425] inception_4d/pool <- inception_4c/output_inception_4c/output_0_split_3
I0403 15:21:17.587846  2997 net.cpp:399] inception_4d/pool -> inception_4d/pool
I0403 15:21:17.587915  2997 net.cpp:141] Setting up inception_4d/pool
I0403 15:21:17.587940  2997 net.cpp:148] Top shape: 24 512 14 14 (2408448)
I0403 15:21:17.587955  2997 net.cpp:156] Memory required for data: 1144900896
I0403 15:21:17.587971  2997 layer_factory.hpp:77] Creating layer inception_4d/pool_proj
I0403 15:21:17.587995  2997 net.cpp:91] Creating Layer inception_4d/pool_proj
I0403 15:21:17.588011  2997 net.cpp:425] inception_4d/pool_proj <- inception_4d/pool
I0403 15:21:17.588033  2997 net.cpp:399] inception_4d/pool_proj -> inception_4d/pool_proj
I0403 15:21:17.589881  2997 net.cpp:141] Setting up inception_4d/pool_proj
I0403 15:21:17.589912  2997 net.cpp:148] Top shape: 24 64 14 14 (301056)
I0403 15:21:17.589929  2997 net.cpp:156] Memory required for data: 1146105120
I0403 15:21:17.589949  2997 layer_factory.hpp:77] Creating layer inception_4d/relu_pool_proj
I0403 15:21:17.589972  2997 net.cpp:91] Creating Layer inception_4d/relu_pool_proj
I0403 15:21:17.589989  2997 net.cpp:425] inception_4d/relu_pool_proj <- inception_4d/pool_proj
I0403 15:21:17.590009  2997 net.cpp:386] inception_4d/relu_pool_proj -> inception_4d/pool_proj (in-place)
I0403 15:21:17.590207  2997 net.cpp:141] Setting up inception_4d/relu_pool_proj
I0403 15:21:17.590236  2997 net.cpp:148] Top shape: 24 64 14 14 (301056)
I0403 15:21:17.590251  2997 net.cpp:156] Memory required for data: 1147309344
I0403 15:21:17.590267  2997 layer_factory.hpp:77] Creating layer inception_4d/output
I0403 15:21:17.590286  2997 net.cpp:91] Creating Layer inception_4d/output
I0403 15:21:17.590302  2997 net.cpp:425] inception_4d/output <- inception_4d/1x1
I0403 15:21:17.590319  2997 net.cpp:425] inception_4d/output <- inception_4d/3x3
I0403 15:21:17.590337  2997 net.cpp:425] inception_4d/output <- inception_4d/5x5
I0403 15:21:17.590353  2997 net.cpp:425] inception_4d/output <- inception_4d/pool_proj
I0403 15:21:17.590370  2997 net.cpp:399] inception_4d/output -> inception_4d/output
I0403 15:21:17.590421  2997 net.cpp:141] Setting up inception_4d/output
I0403 15:21:17.590445  2997 net.cpp:148] Top shape: 24 528 14 14 (2483712)
I0403 15:21:17.590461  2997 net.cpp:156] Memory required for data: 1157244192
I0403 15:21:17.590476  2997 layer_factory.hpp:77] Creating layer inception_4d/output_inception_4d/output_0_split
I0403 15:21:17.590495  2997 net.cpp:91] Creating Layer inception_4d/output_inception_4d/output_0_split
I0403 15:21:17.590513  2997 net.cpp:425] inception_4d/output_inception_4d/output_0_split <- inception_4d/output
I0403 15:21:17.590533  2997 net.cpp:399] inception_4d/output_inception_4d/output_0_split -> inception_4d/output_inception_4d/output_0_split_0
I0403 15:21:17.590553  2997 net.cpp:399] inception_4d/output_inception_4d/output_0_split -> inception_4d/output_inception_4d/output_0_split_1
I0403 15:21:17.590575  2997 net.cpp:399] inception_4d/output_inception_4d/output_0_split -> inception_4d/output_inception_4d/output_0_split_2
I0403 15:21:17.590600  2997 net.cpp:399] inception_4d/output_inception_4d/output_0_split -> inception_4d/output_inception_4d/output_0_split_3
I0403 15:21:17.590620  2997 net.cpp:399] inception_4d/output_inception_4d/output_0_split -> inception_4d/output_inception_4d/output_0_split_4
I0403 15:21:17.590728  2997 net.cpp:141] Setting up inception_4d/output_inception_4d/output_0_split
I0403 15:21:17.590765  2997 net.cpp:148] Top shape: 24 528 14 14 (2483712)
I0403 15:21:17.590783  2997 net.cpp:148] Top shape: 24 528 14 14 (2483712)
I0403 15:21:17.590801  2997 net.cpp:148] Top shape: 24 528 14 14 (2483712)
I0403 15:21:17.590816  2997 net.cpp:148] Top shape: 24 528 14 14 (2483712)
I0403 15:21:17.590833  2997 net.cpp:148] Top shape: 24 528 14 14 (2483712)
I0403 15:21:17.590847  2997 net.cpp:156] Memory required for data: 1206918432
I0403 15:21:17.590862  2997 layer_factory.hpp:77] Creating layer loss2/ave_pool
I0403 15:21:17.590886  2997 net.cpp:91] Creating Layer loss2/ave_pool
I0403 15:21:17.590904  2997 net.cpp:425] loss2/ave_pool <- inception_4d/output_inception_4d/output_0_split_0
I0403 15:21:17.590924  2997 net.cpp:399] loss2/ave_pool -> loss2/ave_pool
I0403 15:21:17.591258  2997 net.cpp:141] Setting up loss2/ave_pool
I0403 15:21:17.591284  2997 net.cpp:148] Top shape: 24 528 4 4 (202752)
I0403 15:21:17.591300  2997 net.cpp:156] Memory required for data: 1207729440
I0403 15:21:17.591316  2997 layer_factory.hpp:77] Creating layer loss2/conv
I0403 15:21:17.591341  2997 net.cpp:91] Creating Layer loss2/conv
I0403 15:21:17.591359  2997 net.cpp:425] loss2/conv <- loss2/ave_pool
I0403 15:21:17.591382  2997 net.cpp:399] loss2/conv -> loss2/conv
I0403 15:21:17.593405  2997 net.cpp:141] Setting up loss2/conv
I0403 15:21:17.593435  2997 net.cpp:148] Top shape: 24 128 4 4 (49152)
I0403 15:21:17.593452  2997 net.cpp:156] Memory required for data: 1207926048
I0403 15:21:17.593472  2997 layer_factory.hpp:77] Creating layer loss2/relu_conv
I0403 15:21:17.593500  2997 net.cpp:91] Creating Layer loss2/relu_conv
I0403 15:21:17.593519  2997 net.cpp:425] loss2/relu_conv <- loss2/conv
I0403 15:21:17.593541  2997 net.cpp:386] loss2/relu_conv -> loss2/conv (in-place)
I0403 15:21:17.593847  2997 net.cpp:141] Setting up loss2/relu_conv
I0403 15:21:17.593874  2997 net.cpp:148] Top shape: 24 128 4 4 (49152)
I0403 15:21:17.593891  2997 net.cpp:156] Memory required for data: 1208122656
I0403 15:21:17.593907  2997 layer_factory.hpp:77] Creating layer loss2/fc
I0403 15:21:17.593927  2997 net.cpp:91] Creating Layer loss2/fc
I0403 15:21:17.593945  2997 net.cpp:425] loss2/fc <- loss2/conv
I0403 15:21:17.593967  2997 net.cpp:399] loss2/fc -> loss2/fc
I0403 15:21:17.612332  2997 net.cpp:141] Setting up loss2/fc
I0403 15:21:17.612396  2997 net.cpp:148] Top shape: 24 1024 (24576)
I0403 15:21:17.612412  2997 net.cpp:156] Memory required for data: 1208220960
I0403 15:21:17.612433  2997 layer_factory.hpp:77] Creating layer loss2/relu_fc
I0403 15:21:17.612453  2997 net.cpp:91] Creating Layer loss2/relu_fc
I0403 15:21:17.612470  2997 net.cpp:425] loss2/relu_fc <- loss2/fc
I0403 15:21:17.612498  2997 net.cpp:386] loss2/relu_fc -> loss2/fc (in-place)
I0403 15:21:17.612840  2997 net.cpp:141] Setting up loss2/relu_fc
I0403 15:21:17.612869  2997 net.cpp:148] Top shape: 24 1024 (24576)
I0403 15:21:17.612886  2997 net.cpp:156] Memory required for data: 1208319264
I0403 15:21:17.612902  2997 layer_factory.hpp:77] Creating layer loss2/drop_fc
I0403 15:21:17.612922  2997 net.cpp:91] Creating Layer loss2/drop_fc
I0403 15:21:17.612938  2997 net.cpp:425] loss2/drop_fc <- loss2/fc
I0403 15:21:17.612957  2997 net.cpp:386] loss2/drop_fc -> loss2/fc (in-place)
I0403 15:21:17.613011  2997 net.cpp:141] Setting up loss2/drop_fc
I0403 15:21:17.613035  2997 net.cpp:148] Top shape: 24 1024 (24576)
I0403 15:21:17.613050  2997 net.cpp:156] Memory required for data: 1208417568
I0403 15:21:17.613066  2997 layer_factory.hpp:77] Creating layer loss2/classifier_plantvillage
I0403 15:21:17.613088  2997 net.cpp:91] Creating Layer loss2/classifier_plantvillage
I0403 15:21:17.613106  2997 net.cpp:425] loss2/classifier_plantvillage <- loss2/fc
I0403 15:21:17.613126  2997 net.cpp:399] loss2/classifier_plantvillage -> loss2/classifier_plantvillage
I0403 15:21:17.613559  2997 net.cpp:141] Setting up loss2/classifier_plantvillage
I0403 15:21:17.613584  2997 net.cpp:148] Top shape: 24 38 (912)
I0403 15:21:17.613620  2997 net.cpp:156] Memory required for data: 1208421216
I0403 15:21:17.613641  2997 layer_factory.hpp:77] Creating layer loss2/classifier_plantvillage_loss2/classifier_plantvillage_0_split
I0403 15:21:17.613659  2997 net.cpp:91] Creating Layer loss2/classifier_plantvillage_loss2/classifier_plantvillage_0_split
I0403 15:21:17.613677  2997 net.cpp:425] loss2/classifier_plantvillage_loss2/classifier_plantvillage_0_split <- loss2/classifier_plantvillage
I0403 15:21:17.613698  2997 net.cpp:399] loss2/classifier_plantvillage_loss2/classifier_plantvillage_0_split -> loss2/classifier_plantvillage_loss2/classifier_plantvillage_0_split_0
I0403 15:21:17.613720  2997 net.cpp:399] loss2/classifier_plantvillage_loss2/classifier_plantvillage_0_split -> loss2/classifier_plantvillage_loss2/classifier_plantvillage_0_split_1
I0403 15:21:17.613742  2997 net.cpp:399] loss2/classifier_plantvillage_loss2/classifier_plantvillage_0_split -> loss2/classifier_plantvillage_loss2/classifier_plantvillage_0_split_2
I0403 15:21:17.613823  2997 net.cpp:141] Setting up loss2/classifier_plantvillage_loss2/classifier_plantvillage_0_split
I0403 15:21:17.613852  2997 net.cpp:148] Top shape: 24 38 (912)
I0403 15:21:17.613869  2997 net.cpp:148] Top shape: 24 38 (912)
I0403 15:21:17.613885  2997 net.cpp:148] Top shape: 24 38 (912)
I0403 15:21:17.613900  2997 net.cpp:156] Memory required for data: 1208432160
I0403 15:21:17.613916  2997 layer_factory.hpp:77] Creating layer inception_4e/1x1
I0403 15:21:17.613940  2997 net.cpp:91] Creating Layer inception_4e/1x1
I0403 15:21:17.613960  2997 net.cpp:425] inception_4e/1x1 <- inception_4d/output_inception_4d/output_0_split_1
I0403 15:21:17.613979  2997 net.cpp:399] inception_4e/1x1 -> inception_4e/1x1
I0403 15:21:17.615921  2997 net.cpp:141] Setting up inception_4e/1x1
I0403 15:21:17.615954  2997 net.cpp:148] Top shape: 24 256 14 14 (1204224)
I0403 15:21:17.615972  2997 net.cpp:156] Memory required for data: 1213249056
I0403 15:21:17.615993  2997 layer_factory.hpp:77] Creating layer inception_4e/relu_1x1
I0403 15:21:17.616010  2997 net.cpp:91] Creating Layer inception_4e/relu_1x1
I0403 15:21:17.616027  2997 net.cpp:425] inception_4e/relu_1x1 <- inception_4e/1x1
I0403 15:21:17.616047  2997 net.cpp:386] inception_4e/relu_1x1 -> inception_4e/1x1 (in-place)
I0403 15:21:17.616353  2997 net.cpp:141] Setting up inception_4e/relu_1x1
I0403 15:21:17.616380  2997 net.cpp:148] Top shape: 24 256 14 14 (1204224)
I0403 15:21:17.616396  2997 net.cpp:156] Memory required for data: 1218065952
I0403 15:21:17.616412  2997 layer_factory.hpp:77] Creating layer inception_4e/3x3_reduce
I0403 15:21:17.616436  2997 net.cpp:91] Creating Layer inception_4e/3x3_reduce
I0403 15:21:17.616453  2997 net.cpp:425] inception_4e/3x3_reduce <- inception_4d/output_inception_4d/output_0_split_2
I0403 15:21:17.616477  2997 net.cpp:399] inception_4e/3x3_reduce -> inception_4e/3x3_reduce
I0403 15:21:17.618629  2997 net.cpp:141] Setting up inception_4e/3x3_reduce
I0403 15:21:17.618661  2997 net.cpp:148] Top shape: 24 160 14 14 (752640)
I0403 15:21:17.618679  2997 net.cpp:156] Memory required for data: 1221076512
I0403 15:21:17.618698  2997 layer_factory.hpp:77] Creating layer inception_4e/relu_3x3_reduce
I0403 15:21:17.618716  2997 net.cpp:91] Creating Layer inception_4e/relu_3x3_reduce
I0403 15:21:17.618732  2997 net.cpp:425] inception_4e/relu_3x3_reduce <- inception_4e/3x3_reduce
I0403 15:21:17.618751  2997 net.cpp:386] inception_4e/relu_3x3_reduce -> inception_4e/3x3_reduce (in-place)
I0403 15:21:17.618942  2997 net.cpp:141] Setting up inception_4e/relu_3x3_reduce
I0403 15:21:17.618968  2997 net.cpp:148] Top shape: 24 160 14 14 (752640)
I0403 15:21:17.618981  2997 net.cpp:156] Memory required for data: 1224087072
I0403 15:21:17.618996  2997 layer_factory.hpp:77] Creating layer inception_4e/3x3
I0403 15:21:17.619019  2997 net.cpp:91] Creating Layer inception_4e/3x3
I0403 15:21:17.619037  2997 net.cpp:425] inception_4e/3x3 <- inception_4e/3x3_reduce
I0403 15:21:17.619058  2997 net.cpp:399] inception_4e/3x3 -> inception_4e/3x3
I0403 15:21:17.624090  2997 net.cpp:141] Setting up inception_4e/3x3
I0403 15:21:17.624132  2997 net.cpp:148] Top shape: 24 320 14 14 (1505280)
I0403 15:21:17.624150  2997 net.cpp:156] Memory required for data: 1230108192
I0403 15:21:17.624169  2997 layer_factory.hpp:77] Creating layer inception_4e/relu_3x3
I0403 15:21:17.624194  2997 net.cpp:91] Creating Layer inception_4e/relu_3x3
I0403 15:21:17.624212  2997 net.cpp:425] inception_4e/relu_3x3 <- inception_4e/3x3
I0403 15:21:17.624230  2997 net.cpp:386] inception_4e/relu_3x3 -> inception_4e/3x3 (in-place)
I0403 15:21:17.624549  2997 net.cpp:141] Setting up inception_4e/relu_3x3
I0403 15:21:17.624578  2997 net.cpp:148] Top shape: 24 320 14 14 (1505280)
I0403 15:21:17.624594  2997 net.cpp:156] Memory required for data: 1236129312
I0403 15:21:17.624610  2997 layer_factory.hpp:77] Creating layer inception_4e/5x5_reduce
I0403 15:21:17.624634  2997 net.cpp:91] Creating Layer inception_4e/5x5_reduce
I0403 15:21:17.624653  2997 net.cpp:425] inception_4e/5x5_reduce <- inception_4d/output_inception_4d/output_0_split_3
I0403 15:21:17.624677  2997 net.cpp:399] inception_4e/5x5_reduce -> inception_4e/5x5_reduce
I0403 15:21:17.625808  2997 net.cpp:141] Setting up inception_4e/5x5_reduce
I0403 15:21:17.625843  2997 net.cpp:148] Top shape: 24 32 14 14 (150528)
I0403 15:21:17.625860  2997 net.cpp:156] Memory required for data: 1236731424
I0403 15:21:17.625880  2997 layer_factory.hpp:77] Creating layer inception_4e/relu_5x5_reduce
I0403 15:21:17.625900  2997 net.cpp:91] Creating Layer inception_4e/relu_5x5_reduce
I0403 15:21:17.625917  2997 net.cpp:425] inception_4e/relu_5x5_reduce <- inception_4e/5x5_reduce
I0403 15:21:17.625938  2997 net.cpp:386] inception_4e/relu_5x5_reduce -> inception_4e/5x5_reduce (in-place)
I0403 15:21:17.626258  2997 net.cpp:141] Setting up inception_4e/relu_5x5_reduce
I0403 15:21:17.626288  2997 net.cpp:148] Top shape: 24 32 14 14 (150528)
I0403 15:21:17.626305  2997 net.cpp:156] Memory required for data: 1237333536
I0403 15:21:17.626322  2997 layer_factory.hpp:77] Creating layer inception_4e/5x5
I0403 15:21:17.626363  2997 net.cpp:91] Creating Layer inception_4e/5x5
I0403 15:21:17.626382  2997 net.cpp:425] inception_4e/5x5 <- inception_4e/5x5_reduce
I0403 15:21:17.626402  2997 net.cpp:399] inception_4e/5x5 -> inception_4e/5x5
I0403 15:21:17.628322  2997 net.cpp:141] Setting up inception_4e/5x5
I0403 15:21:17.628350  2997 net.cpp:148] Top shape: 24 128 14 14 (602112)
I0403 15:21:17.628366  2997 net.cpp:156] Memory required for data: 1239741984
I0403 15:21:17.628386  2997 layer_factory.hpp:77] Creating layer inception_4e/relu_5x5
I0403 15:21:17.628407  2997 net.cpp:91] Creating Layer inception_4e/relu_5x5
I0403 15:21:17.628424  2997 net.cpp:425] inception_4e/relu_5x5 <- inception_4e/5x5
I0403 15:21:17.628444  2997 net.cpp:386] inception_4e/relu_5x5 -> inception_4e/5x5 (in-place)
I0403 15:21:17.628645  2997 net.cpp:141] Setting up inception_4e/relu_5x5
I0403 15:21:17.628670  2997 net.cpp:148] Top shape: 24 128 14 14 (602112)
I0403 15:21:17.628685  2997 net.cpp:156] Memory required for data: 1242150432
I0403 15:21:17.628700  2997 layer_factory.hpp:77] Creating layer inception_4e/pool
I0403 15:21:17.628720  2997 net.cpp:91] Creating Layer inception_4e/pool
I0403 15:21:17.628736  2997 net.cpp:425] inception_4e/pool <- inception_4d/output_inception_4d/output_0_split_4
I0403 15:21:17.628757  2997 net.cpp:399] inception_4e/pool -> inception_4e/pool
I0403 15:21:17.628829  2997 net.cpp:141] Setting up inception_4e/pool
I0403 15:21:17.628852  2997 net.cpp:148] Top shape: 24 528 14 14 (2483712)
I0403 15:21:17.628867  2997 net.cpp:156] Memory required for data: 1252085280
I0403 15:21:17.628882  2997 layer_factory.hpp:77] Creating layer inception_4e/pool_proj
I0403 15:21:17.628906  2997 net.cpp:91] Creating Layer inception_4e/pool_proj
I0403 15:21:17.628924  2997 net.cpp:425] inception_4e/pool_proj <- inception_4e/pool
I0403 15:21:17.628944  2997 net.cpp:399] inception_4e/pool_proj -> inception_4e/pool_proj
I0403 15:21:17.630470  2997 net.cpp:141] Setting up inception_4e/pool_proj
I0403 15:21:17.630511  2997 net.cpp:148] Top shape: 24 128 14 14 (602112)
I0403 15:21:17.630527  2997 net.cpp:156] Memory required for data: 1254493728
I0403 15:21:17.630548  2997 layer_factory.hpp:77] Creating layer inception_4e/relu_pool_proj
I0403 15:21:17.630568  2997 net.cpp:91] Creating Layer inception_4e/relu_pool_proj
I0403 15:21:17.630585  2997 net.cpp:425] inception_4e/relu_pool_proj <- inception_4e/pool_proj
I0403 15:21:17.630604  2997 net.cpp:386] inception_4e/relu_pool_proj -> inception_4e/pool_proj (in-place)
I0403 15:21:17.630897  2997 net.cpp:141] Setting up inception_4e/relu_pool_proj
I0403 15:21:17.630923  2997 net.cpp:148] Top shape: 24 128 14 14 (602112)
I0403 15:21:17.630939  2997 net.cpp:156] Memory required for data: 1256902176
I0403 15:21:17.630954  2997 layer_factory.hpp:77] Creating layer inception_4e/output
I0403 15:21:17.630975  2997 net.cpp:91] Creating Layer inception_4e/output
I0403 15:21:17.630990  2997 net.cpp:425] inception_4e/output <- inception_4e/1x1
I0403 15:21:17.631008  2997 net.cpp:425] inception_4e/output <- inception_4e/3x3
I0403 15:21:17.631024  2997 net.cpp:425] inception_4e/output <- inception_4e/5x5
I0403 15:21:17.631042  2997 net.cpp:425] inception_4e/output <- inception_4e/pool_proj
I0403 15:21:17.631058  2997 net.cpp:399] inception_4e/output -> inception_4e/output
I0403 15:21:17.631110  2997 net.cpp:141] Setting up inception_4e/output
I0403 15:21:17.631134  2997 net.cpp:148] Top shape: 24 832 14 14 (3913728)
I0403 15:21:17.631148  2997 net.cpp:156] Memory required for data: 1272557088
I0403 15:21:17.631162  2997 layer_factory.hpp:77] Creating layer pool4/3x3_s2
I0403 15:21:17.631184  2997 net.cpp:91] Creating Layer pool4/3x3_s2
I0403 15:21:17.631208  2997 net.cpp:425] pool4/3x3_s2 <- inception_4e/output
I0403 15:21:17.631229  2997 net.cpp:399] pool4/3x3_s2 -> pool4/3x3_s2
I0403 15:21:17.631297  2997 net.cpp:141] Setting up pool4/3x3_s2
I0403 15:21:17.631321  2997 net.cpp:148] Top shape: 24 832 7 7 (978432)
I0403 15:21:17.631336  2997 net.cpp:156] Memory required for data: 1276470816
I0403 15:21:17.631351  2997 layer_factory.hpp:77] Creating layer pool4/3x3_s2_pool4/3x3_s2_0_split
I0403 15:21:17.631371  2997 net.cpp:91] Creating Layer pool4/3x3_s2_pool4/3x3_s2_0_split
I0403 15:21:17.631387  2997 net.cpp:425] pool4/3x3_s2_pool4/3x3_s2_0_split <- pool4/3x3_s2
I0403 15:21:17.631407  2997 net.cpp:399] pool4/3x3_s2_pool4/3x3_s2_0_split -> pool4/3x3_s2_pool4/3x3_s2_0_split_0
I0403 15:21:17.631428  2997 net.cpp:399] pool4/3x3_s2_pool4/3x3_s2_0_split -> pool4/3x3_s2_pool4/3x3_s2_0_split_1
I0403 15:21:17.631448  2997 net.cpp:399] pool4/3x3_s2_pool4/3x3_s2_0_split -> pool4/3x3_s2_pool4/3x3_s2_0_split_2
I0403 15:21:17.631469  2997 net.cpp:399] pool4/3x3_s2_pool4/3x3_s2_0_split -> pool4/3x3_s2_pool4/3x3_s2_0_split_3
I0403 15:21:17.631568  2997 net.cpp:141] Setting up pool4/3x3_s2_pool4/3x3_s2_0_split
I0403 15:21:17.631593  2997 net.cpp:148] Top shape: 24 832 7 7 (978432)
I0403 15:21:17.631611  2997 net.cpp:148] Top shape: 24 832 7 7 (978432)
I0403 15:21:17.631628  2997 net.cpp:148] Top shape: 24 832 7 7 (978432)
I0403 15:21:17.631642  2997 net.cpp:148] Top shape: 24 832 7 7 (978432)
I0403 15:21:17.631657  2997 net.cpp:156] Memory required for data: 1292125728
I0403 15:21:17.631671  2997 layer_factory.hpp:77] Creating layer inception_5a/1x1
I0403 15:21:17.631691  2997 net.cpp:91] Creating Layer inception_5a/1x1
I0403 15:21:17.631707  2997 net.cpp:425] inception_5a/1x1 <- pool4/3x3_s2_pool4/3x3_s2_0_split_0
I0403 15:21:17.631728  2997 net.cpp:399] inception_5a/1x1 -> inception_5a/1x1
I0403 15:21:17.634611  2997 net.cpp:141] Setting up inception_5a/1x1
I0403 15:21:17.634644  2997 net.cpp:148] Top shape: 24 256 7 7 (301056)
I0403 15:21:17.634660  2997 net.cpp:156] Memory required for data: 1293329952
I0403 15:21:17.634680  2997 layer_factory.hpp:77] Creating layer inception_5a/relu_1x1
I0403 15:21:17.634699  2997 net.cpp:91] Creating Layer inception_5a/relu_1x1
I0403 15:21:17.634716  2997 net.cpp:425] inception_5a/relu_1x1 <- inception_5a/1x1
I0403 15:21:17.634733  2997 net.cpp:386] inception_5a/relu_1x1 -> inception_5a/1x1 (in-place)
I0403 15:21:17.635051  2997 net.cpp:141] Setting up inception_5a/relu_1x1
I0403 15:21:17.635079  2997 net.cpp:148] Top shape: 24 256 7 7 (301056)
I0403 15:21:17.635095  2997 net.cpp:156] Memory required for data: 1294534176
I0403 15:21:17.635110  2997 layer_factory.hpp:77] Creating layer inception_5a/3x3_reduce
I0403 15:21:17.635133  2997 net.cpp:91] Creating Layer inception_5a/3x3_reduce
I0403 15:21:17.635151  2997 net.cpp:425] inception_5a/3x3_reduce <- pool4/3x3_s2_pool4/3x3_s2_0_split_1
I0403 15:21:17.635171  2997 net.cpp:399] inception_5a/3x3_reduce -> inception_5a/3x3_reduce
I0403 15:21:17.637655  2997 net.cpp:141] Setting up inception_5a/3x3_reduce
I0403 15:21:17.637686  2997 net.cpp:148] Top shape: 24 160 7 7 (188160)
I0403 15:21:17.637702  2997 net.cpp:156] Memory required for data: 1295286816
I0403 15:21:17.637722  2997 layer_factory.hpp:77] Creating layer inception_5a/relu_3x3_reduce
I0403 15:21:17.637743  2997 net.cpp:91] Creating Layer inception_5a/relu_3x3_reduce
I0403 15:21:17.637760  2997 net.cpp:425] inception_5a/relu_3x3_reduce <- inception_5a/3x3_reduce
I0403 15:21:17.637778  2997 net.cpp:386] inception_5a/relu_3x3_reduce -> inception_5a/3x3_reduce (in-place)
I0403 15:21:17.637969  2997 net.cpp:141] Setting up inception_5a/relu_3x3_reduce
I0403 15:21:17.637997  2997 net.cpp:148] Top shape: 24 160 7 7 (188160)
I0403 15:21:17.638015  2997 net.cpp:156] Memory required for data: 1296039456
I0403 15:21:17.638031  2997 layer_factory.hpp:77] Creating layer inception_5a/3x3
I0403 15:21:17.638054  2997 net.cpp:91] Creating Layer inception_5a/3x3
I0403 15:21:17.638073  2997 net.cpp:425] inception_5a/3x3 <- inception_5a/3x3_reduce
I0403 15:21:17.638093  2997 net.cpp:399] inception_5a/3x3 -> inception_5a/3x3
I0403 15:21:17.643187  2997 net.cpp:141] Setting up inception_5a/3x3
I0403 15:21:17.643218  2997 net.cpp:148] Top shape: 24 320 7 7 (376320)
I0403 15:21:17.643234  2997 net.cpp:156] Memory required for data: 1297544736
I0403 15:21:17.643254  2997 layer_factory.hpp:77] Creating layer inception_5a/relu_3x3
I0403 15:21:17.643275  2997 net.cpp:91] Creating Layer inception_5a/relu_3x3
I0403 15:21:17.643293  2997 net.cpp:425] inception_5a/relu_3x3 <- inception_5a/3x3
I0403 15:21:17.643313  2997 net.cpp:386] inception_5a/relu_3x3 -> inception_5a/3x3 (in-place)
I0403 15:21:17.643612  2997 net.cpp:141] Setting up inception_5a/relu_3x3
I0403 15:21:17.643638  2997 net.cpp:148] Top shape: 24 320 7 7 (376320)
I0403 15:21:17.643653  2997 net.cpp:156] Memory required for data: 1299050016
I0403 15:21:17.643669  2997 layer_factory.hpp:77] Creating layer inception_5a/5x5_reduce
I0403 15:21:17.643694  2997 net.cpp:91] Creating Layer inception_5a/5x5_reduce
I0403 15:21:17.643712  2997 net.cpp:425] inception_5a/5x5_reduce <- pool4/3x3_s2_pool4/3x3_s2_0_split_2
I0403 15:21:17.643731  2997 net.cpp:399] inception_5a/5x5_reduce -> inception_5a/5x5_reduce
I0403 15:21:17.644932  2997 net.cpp:141] Setting up inception_5a/5x5_reduce
I0403 15:21:17.644963  2997 net.cpp:148] Top shape: 24 32 7 7 (37632)
I0403 15:21:17.644981  2997 net.cpp:156] Memory required for data: 1299200544
I0403 15:21:17.645000  2997 layer_factory.hpp:77] Creating layer inception_5a/relu_5x5_reduce
I0403 15:21:17.645020  2997 net.cpp:91] Creating Layer inception_5a/relu_5x5_reduce
I0403 15:21:17.645035  2997 net.cpp:425] inception_5a/relu_5x5_reduce <- inception_5a/5x5_reduce
I0403 15:21:17.645056  2997 net.cpp:386] inception_5a/relu_5x5_reduce -> inception_5a/5x5_reduce (in-place)
I0403 15:21:17.645364  2997 net.cpp:141] Setting up inception_5a/relu_5x5_reduce
I0403 15:21:17.645390  2997 net.cpp:148] Top shape: 24 32 7 7 (37632)
I0403 15:21:17.645406  2997 net.cpp:156] Memory required for data: 1299351072
I0403 15:21:17.645421  2997 layer_factory.hpp:77] Creating layer inception_5a/5x5
I0403 15:21:17.645444  2997 net.cpp:91] Creating Layer inception_5a/5x5
I0403 15:21:17.645462  2997 net.cpp:425] inception_5a/5x5 <- inception_5a/5x5_reduce
I0403 15:21:17.645483  2997 net.cpp:399] inception_5a/5x5 -> inception_5a/5x5
I0403 15:21:17.647264  2997 net.cpp:141] Setting up inception_5a/5x5
I0403 15:21:17.647303  2997 net.cpp:148] Top shape: 24 128 7 7 (150528)
I0403 15:21:17.647320  2997 net.cpp:156] Memory required for data: 1299953184
I0403 15:21:17.647339  2997 layer_factory.hpp:77] Creating layer inception_5a/relu_5x5
I0403 15:21:17.647361  2997 net.cpp:91] Creating Layer inception_5a/relu_5x5
I0403 15:21:17.647378  2997 net.cpp:425] inception_5a/relu_5x5 <- inception_5a/5x5
I0403 15:21:17.647397  2997 net.cpp:386] inception_5a/relu_5x5 -> inception_5a/5x5 (in-place)
I0403 15:21:17.647598  2997 net.cpp:141] Setting up inception_5a/relu_5x5
I0403 15:21:17.647624  2997 net.cpp:148] Top shape: 24 128 7 7 (150528)
I0403 15:21:17.647637  2997 net.cpp:156] Memory required for data: 1300555296
I0403 15:21:17.647652  2997 layer_factory.hpp:77] Creating layer inception_5a/pool
I0403 15:21:17.647670  2997 net.cpp:91] Creating Layer inception_5a/pool
I0403 15:21:17.647686  2997 net.cpp:425] inception_5a/pool <- pool4/3x3_s2_pool4/3x3_s2_0_split_3
I0403 15:21:17.647707  2997 net.cpp:399] inception_5a/pool -> inception_5a/pool
I0403 15:21:17.647778  2997 net.cpp:141] Setting up inception_5a/pool
I0403 15:21:17.647802  2997 net.cpp:148] Top shape: 24 832 7 7 (978432)
I0403 15:21:17.647817  2997 net.cpp:156] Memory required for data: 1304469024
I0403 15:21:17.647833  2997 layer_factory.hpp:77] Creating layer inception_5a/pool_proj
I0403 15:21:17.647860  2997 net.cpp:91] Creating Layer inception_5a/pool_proj
I0403 15:21:17.647878  2997 net.cpp:425] inception_5a/pool_proj <- inception_5a/pool
I0403 15:21:17.647897  2997 net.cpp:399] inception_5a/pool_proj -> inception_5a/pool_proj
I0403 15:21:17.650225  2997 net.cpp:141] Setting up inception_5a/pool_proj
I0403 15:21:17.650256  2997 net.cpp:148] Top shape: 24 128 7 7 (150528)
I0403 15:21:17.650274  2997 net.cpp:156] Memory required for data: 1305071136
I0403 15:21:17.650293  2997 layer_factory.hpp:77] Creating layer inception_5a/relu_pool_proj
I0403 15:21:17.650315  2997 net.cpp:91] Creating Layer inception_5a/relu_pool_proj
I0403 15:21:17.650331  2997 net.cpp:425] inception_5a/relu_pool_proj <- inception_5a/pool_proj
I0403 15:21:17.650351  2997 net.cpp:386] inception_5a/relu_pool_proj -> inception_5a/pool_proj (in-place)
I0403 15:21:17.650651  2997 net.cpp:141] Setting up inception_5a/relu_pool_proj
I0403 15:21:17.650678  2997 net.cpp:148] Top shape: 24 128 7 7 (150528)
I0403 15:21:17.650694  2997 net.cpp:156] Memory required for data: 1305673248
I0403 15:21:17.650710  2997 layer_factory.hpp:77] Creating layer inception_5a/output
I0403 15:21:17.650730  2997 net.cpp:91] Creating Layer inception_5a/output
I0403 15:21:17.650748  2997 net.cpp:425] inception_5a/output <- inception_5a/1x1
I0403 15:21:17.650764  2997 net.cpp:425] inception_5a/output <- inception_5a/3x3
I0403 15:21:17.650781  2997 net.cpp:425] inception_5a/output <- inception_5a/5x5
I0403 15:21:17.650799  2997 net.cpp:425] inception_5a/output <- inception_5a/pool_proj
I0403 15:21:17.650815  2997 net.cpp:399] inception_5a/output -> inception_5a/output
I0403 15:21:17.650867  2997 net.cpp:141] Setting up inception_5a/output
I0403 15:21:17.650892  2997 net.cpp:148] Top shape: 24 832 7 7 (978432)
I0403 15:21:17.650905  2997 net.cpp:156] Memory required for data: 1309586976
I0403 15:21:17.650921  2997 layer_factory.hpp:77] Creating layer inception_5a/output_inception_5a/output_0_split
I0403 15:21:17.650938  2997 net.cpp:91] Creating Layer inception_5a/output_inception_5a/output_0_split
I0403 15:21:17.650954  2997 net.cpp:425] inception_5a/output_inception_5a/output_0_split <- inception_5a/output
I0403 15:21:17.650974  2997 net.cpp:399] inception_5a/output_inception_5a/output_0_split -> inception_5a/output_inception_5a/output_0_split_0
I0403 15:21:17.650995  2997 net.cpp:399] inception_5a/output_inception_5a/output_0_split -> inception_5a/output_inception_5a/output_0_split_1
I0403 15:21:17.651017  2997 net.cpp:399] inception_5a/output_inception_5a/output_0_split -> inception_5a/output_inception_5a/output_0_split_2
I0403 15:21:17.651038  2997 net.cpp:399] inception_5a/output_inception_5a/output_0_split -> inception_5a/output_inception_5a/output_0_split_3
I0403 15:21:17.651152  2997 net.cpp:141] Setting up inception_5a/output_inception_5a/output_0_split
I0403 15:21:17.651183  2997 net.cpp:148] Top shape: 24 832 7 7 (978432)
I0403 15:21:17.651212  2997 net.cpp:148] Top shape: 24 832 7 7 (978432)
I0403 15:21:17.651229  2997 net.cpp:148] Top shape: 24 832 7 7 (978432)
I0403 15:21:17.651245  2997 net.cpp:148] Top shape: 24 832 7 7 (978432)
I0403 15:21:17.651269  2997 net.cpp:156] Memory required for data: 1325241888
I0403 15:21:17.651285  2997 layer_factory.hpp:77] Creating layer inception_5b/1x1
I0403 15:21:17.651307  2997 net.cpp:91] Creating Layer inception_5b/1x1
I0403 15:21:17.651325  2997 net.cpp:425] inception_5b/1x1 <- inception_5a/output_inception_5a/output_0_split_0
I0403 15:21:17.651347  2997 net.cpp:399] inception_5b/1x1 -> inception_5b/1x1
I0403 15:21:17.655167  2997 net.cpp:141] Setting up inception_5b/1x1
I0403 15:21:17.655205  2997 net.cpp:148] Top shape: 24 384 7 7 (451584)
I0403 15:21:17.655222  2997 net.cpp:156] Memory required for data: 1327048224
I0403 15:21:17.655242  2997 layer_factory.hpp:77] Creating layer inception_5b/relu_1x1
I0403 15:21:17.655268  2997 net.cpp:91] Creating Layer inception_5b/relu_1x1
I0403 15:21:17.655284  2997 net.cpp:425] inception_5b/relu_1x1 <- inception_5b/1x1
I0403 15:21:17.655303  2997 net.cpp:386] inception_5b/relu_1x1 -> inception_5b/1x1 (in-place)
I0403 15:21:17.655623  2997 net.cpp:141] Setting up inception_5b/relu_1x1
I0403 15:21:17.655649  2997 net.cpp:148] Top shape: 24 384 7 7 (451584)
I0403 15:21:17.655665  2997 net.cpp:156] Memory required for data: 1328854560
I0403 15:21:17.655680  2997 layer_factory.hpp:77] Creating layer inception_5b/3x3_reduce
I0403 15:21:17.655704  2997 net.cpp:91] Creating Layer inception_5b/3x3_reduce
I0403 15:21:17.655720  2997 net.cpp:425] inception_5b/3x3_reduce <- inception_5a/output_inception_5a/output_0_split_1
I0403 15:21:17.655743  2997 net.cpp:399] inception_5b/3x3_reduce -> inception_5b/3x3_reduce
I0403 15:21:17.658452  2997 net.cpp:141] Setting up inception_5b/3x3_reduce
I0403 15:21:17.658483  2997 net.cpp:148] Top shape: 24 192 7 7 (225792)
I0403 15:21:17.658500  2997 net.cpp:156] Memory required for data: 1329757728
I0403 15:21:17.658519  2997 layer_factory.hpp:77] Creating layer inception_5b/relu_3x3_reduce
I0403 15:21:17.658541  2997 net.cpp:91] Creating Layer inception_5b/relu_3x3_reduce
I0403 15:21:17.658560  2997 net.cpp:425] inception_5b/relu_3x3_reduce <- inception_5b/3x3_reduce
I0403 15:21:17.658578  2997 net.cpp:386] inception_5b/relu_3x3_reduce -> inception_5b/3x3_reduce (in-place)
I0403 15:21:17.658776  2997 net.cpp:141] Setting up inception_5b/relu_3x3_reduce
I0403 15:21:17.658803  2997 net.cpp:148] Top shape: 24 192 7 7 (225792)
I0403 15:21:17.658818  2997 net.cpp:156] Memory required for data: 1330660896
I0403 15:21:17.658833  2997 layer_factory.hpp:77] Creating layer inception_5b/3x3
I0403 15:21:17.658856  2997 net.cpp:91] Creating Layer inception_5b/3x3
I0403 15:21:17.658874  2997 net.cpp:425] inception_5b/3x3 <- inception_5b/3x3_reduce
I0403 15:21:17.658893  2997 net.cpp:399] inception_5b/3x3 -> inception_5b/3x3
I0403 15:21:17.665850  2997 net.cpp:141] Setting up inception_5b/3x3
I0403 15:21:17.665882  2997 net.cpp:148] Top shape: 24 384 7 7 (451584)
I0403 15:21:17.665899  2997 net.cpp:156] Memory required for data: 1332467232
I0403 15:21:17.665918  2997 layer_factory.hpp:77] Creating layer inception_5b/relu_3x3
I0403 15:21:17.665940  2997 net.cpp:91] Creating Layer inception_5b/relu_3x3
I0403 15:21:17.665957  2997 net.cpp:425] inception_5b/relu_3x3 <- inception_5b/3x3
I0403 15:21:17.665977  2997 net.cpp:386] inception_5b/relu_3x3 -> inception_5b/3x3 (in-place)
I0403 15:21:17.666293  2997 net.cpp:141] Setting up inception_5b/relu_3x3
I0403 15:21:17.666321  2997 net.cpp:148] Top shape: 24 384 7 7 (451584)
I0403 15:21:17.666337  2997 net.cpp:156] Memory required for data: 1334273568
I0403 15:21:17.666352  2997 layer_factory.hpp:77] Creating layer inception_5b/5x5_reduce
I0403 15:21:17.666390  2997 net.cpp:91] Creating Layer inception_5b/5x5_reduce
I0403 15:21:17.666410  2997 net.cpp:425] inception_5b/5x5_reduce <- inception_5a/output_inception_5a/output_0_split_2
I0403 15:21:17.666434  2997 net.cpp:399] inception_5b/5x5_reduce -> inception_5b/5x5_reduce
I0403 15:21:17.667776  2997 net.cpp:141] Setting up inception_5b/5x5_reduce
I0403 15:21:17.667807  2997 net.cpp:148] Top shape: 24 48 7 7 (56448)
I0403 15:21:17.667824  2997 net.cpp:156] Memory required for data: 1334499360
I0403 15:21:17.667843  2997 layer_factory.hpp:77] Creating layer inception_5b/relu_5x5_reduce
I0403 15:21:17.667865  2997 net.cpp:91] Creating Layer inception_5b/relu_5x5_reduce
I0403 15:21:17.667886  2997 net.cpp:425] inception_5b/relu_5x5_reduce <- inception_5b/5x5_reduce
I0403 15:21:17.667906  2997 net.cpp:386] inception_5b/relu_5x5_reduce -> inception_5b/5x5_reduce (in-place)
I0403 15:21:17.668304  2997 net.cpp:141] Setting up inception_5b/relu_5x5_reduce
I0403 15:21:17.668331  2997 net.cpp:148] Top shape: 24 48 7 7 (56448)
I0403 15:21:17.668347  2997 net.cpp:156] Memory required for data: 1334725152
I0403 15:21:17.668364  2997 layer_factory.hpp:77] Creating layer inception_5b/5x5
I0403 15:21:17.668385  2997 net.cpp:91] Creating Layer inception_5b/5x5
I0403 15:21:17.668402  2997 net.cpp:425] inception_5b/5x5 <- inception_5b/5x5_reduce
I0403 15:21:17.668422  2997 net.cpp:399] inception_5b/5x5 -> inception_5b/5x5
I0403 15:21:17.670671  2997 net.cpp:141] Setting up inception_5b/5x5
I0403 15:21:17.670703  2997 net.cpp:148] Top shape: 24 128 7 7 (150528)
I0403 15:21:17.670722  2997 net.cpp:156] Memory required for data: 1335327264
I0403 15:21:17.670743  2997 layer_factory.hpp:77] Creating layer inception_5b/relu_5x5
I0403 15:21:17.670763  2997 net.cpp:91] Creating Layer inception_5b/relu_5x5
I0403 15:21:17.670780  2997 net.cpp:425] inception_5b/relu_5x5 <- inception_5b/5x5
I0403 15:21:17.670800  2997 net.cpp:386] inception_5b/relu_5x5 -> inception_5b/5x5 (in-place)
I0403 15:21:17.671010  2997 net.cpp:141] Setting up inception_5b/relu_5x5
I0403 15:21:17.671036  2997 net.cpp:148] Top shape: 24 128 7 7 (150528)
I0403 15:21:17.671053  2997 net.cpp:156] Memory required for data: 1335929376
I0403 15:21:17.671069  2997 layer_factory.hpp:77] Creating layer inception_5b/pool
I0403 15:21:17.671088  2997 net.cpp:91] Creating Layer inception_5b/pool
I0403 15:21:17.671106  2997 net.cpp:425] inception_5b/pool <- inception_5a/output_inception_5a/output_0_split_3
I0403 15:21:17.671128  2997 net.cpp:399] inception_5b/pool -> inception_5b/pool
I0403 15:21:17.671213  2997 net.cpp:141] Setting up inception_5b/pool
I0403 15:21:17.671241  2997 net.cpp:148] Top shape: 24 832 7 7 (978432)
I0403 15:21:17.671267  2997 net.cpp:156] Memory required for data: 1339843104
I0403 15:21:17.671283  2997 layer_factory.hpp:77] Creating layer inception_5b/pool_proj
I0403 15:21:17.671309  2997 net.cpp:91] Creating Layer inception_5b/pool_proj
I0403 15:21:17.671329  2997 net.cpp:425] inception_5b/pool_proj <- inception_5b/pool
I0403 15:21:17.671350  2997 net.cpp:399] inception_5b/pool_proj -> inception_5b/pool_proj
I0403 15:21:17.673773  2997 net.cpp:141] Setting up inception_5b/pool_proj
I0403 15:21:17.673804  2997 net.cpp:148] Top shape: 24 128 7 7 (150528)
I0403 15:21:17.673820  2997 net.cpp:156] Memory required for data: 1340445216
I0403 15:21:17.673840  2997 layer_factory.hpp:77] Creating layer inception_5b/relu_pool_proj
I0403 15:21:17.673862  2997 net.cpp:91] Creating Layer inception_5b/relu_pool_proj
I0403 15:21:17.673880  2997 net.cpp:425] inception_5b/relu_pool_proj <- inception_5b/pool_proj
I0403 15:21:17.673900  2997 net.cpp:386] inception_5b/relu_pool_proj -> inception_5b/pool_proj (in-place)
I0403 15:21:17.674221  2997 net.cpp:141] Setting up inception_5b/relu_pool_proj
I0403 15:21:17.674247  2997 net.cpp:148] Top shape: 24 128 7 7 (150528)
I0403 15:21:17.674263  2997 net.cpp:156] Memory required for data: 1341047328
I0403 15:21:17.674279  2997 layer_factory.hpp:77] Creating layer inception_5b/output
I0403 15:21:17.674299  2997 net.cpp:91] Creating Layer inception_5b/output
I0403 15:21:17.674331  2997 net.cpp:425] inception_5b/output <- inception_5b/1x1
I0403 15:21:17.674350  2997 net.cpp:425] inception_5b/output <- inception_5b/3x3
I0403 15:21:17.674368  2997 net.cpp:425] inception_5b/output <- inception_5b/5x5
I0403 15:21:17.674386  2997 net.cpp:425] inception_5b/output <- inception_5b/pool_proj
I0403 15:21:17.674404  2997 net.cpp:399] inception_5b/output -> inception_5b/output
I0403 15:21:17.674460  2997 net.cpp:141] Setting up inception_5b/output
I0403 15:21:17.674486  2997 net.cpp:148] Top shape: 24 1024 7 7 (1204224)
I0403 15:21:17.674501  2997 net.cpp:156] Memory required for data: 1345864224
I0403 15:21:17.674517  2997 layer_factory.hpp:77] Creating layer pool5/7x7_s1
I0403 15:21:17.674535  2997 net.cpp:91] Creating Layer pool5/7x7_s1
I0403 15:21:17.674552  2997 net.cpp:425] pool5/7x7_s1 <- inception_5b/output
I0403 15:21:17.674573  2997 net.cpp:399] pool5/7x7_s1 -> pool5/7x7_s1
I0403 15:21:17.674801  2997 net.cpp:141] Setting up pool5/7x7_s1
I0403 15:21:17.674832  2997 net.cpp:148] Top shape: 24 1024 1 1 (24576)
I0403 15:21:17.674849  2997 net.cpp:156] Memory required for data: 1345962528
I0403 15:21:17.674865  2997 layer_factory.hpp:77] Creating layer pool5/drop_7x7_s1
I0403 15:21:17.674883  2997 net.cpp:91] Creating Layer pool5/drop_7x7_s1
I0403 15:21:17.674899  2997 net.cpp:425] pool5/drop_7x7_s1 <- pool5/7x7_s1
I0403 15:21:17.674918  2997 net.cpp:386] pool5/drop_7x7_s1 -> pool5/7x7_s1 (in-place)
I0403 15:21:17.674971  2997 net.cpp:141] Setting up pool5/drop_7x7_s1
I0403 15:21:17.674995  2997 net.cpp:148] Top shape: 24 1024 1 1 (24576)
I0403 15:21:17.675010  2997 net.cpp:156] Memory required for data: 1346060832
I0403 15:21:17.675026  2997 layer_factory.hpp:77] Creating layer loss3/classifier_plantvillage
I0403 15:21:17.675050  2997 net.cpp:91] Creating Layer loss3/classifier_plantvillage
I0403 15:21:17.675067  2997 net.cpp:425] loss3/classifier_plantvillage <- pool5/7x7_s1
I0403 15:21:17.675086  2997 net.cpp:399] loss3/classifier_plantvillage -> loss3/classifier_plantvillage
I0403 15:21:17.675539  2997 net.cpp:141] Setting up loss3/classifier_plantvillage
I0403 15:21:17.675568  2997 net.cpp:148] Top shape: 24 38 (912)
I0403 15:21:17.675585  2997 net.cpp:156] Memory required for data: 1346064480
I0403 15:21:17.675606  2997 layer_factory.hpp:77] Creating layer loss3/classifier_plantvillage_loss3/classifier_plantvillage_0_split
I0403 15:21:17.675624  2997 net.cpp:91] Creating Layer loss3/classifier_plantvillage_loss3/classifier_plantvillage_0_split
I0403 15:21:17.675642  2997 net.cpp:425] loss3/classifier_plantvillage_loss3/classifier_plantvillage_0_split <- loss3/classifier_plantvillage
I0403 15:21:17.675664  2997 net.cpp:399] loss3/classifier_plantvillage_loss3/classifier_plantvillage_0_split -> loss3/classifier_plantvillage_loss3/classifier_plantvillage_0_split_0
I0403 15:21:17.675686  2997 net.cpp:399] loss3/classifier_plantvillage_loss3/classifier_plantvillage_0_split -> loss3/classifier_plantvillage_loss3/classifier_plantvillage_0_split_1
I0403 15:21:17.675707  2997 net.cpp:399] loss3/classifier_plantvillage_loss3/classifier_plantvillage_0_split -> loss3/classifier_plantvillage_loss3/classifier_plantvillage_0_split_2
I0403 15:21:17.675729  2997 net.cpp:399] loss3/classifier_plantvillage_loss3/classifier_plantvillage_0_split -> loss3/classifier_plantvillage_loss3/classifier_plantvillage_0_split_3
I0403 15:21:17.675832  2997 net.cpp:141] Setting up loss3/classifier_plantvillage_loss3/classifier_plantvillage_0_split
I0403 15:21:17.675856  2997 net.cpp:148] Top shape: 24 38 (912)
I0403 15:21:17.675873  2997 net.cpp:148] Top shape: 24 38 (912)
I0403 15:21:17.675889  2997 net.cpp:148] Top shape: 24 38 (912)
I0403 15:21:17.675905  2997 net.cpp:148] Top shape: 24 38 (912)
I0403 15:21:17.675920  2997 net.cpp:156] Memory required for data: 1346079072
I0403 15:21:17.675936  2997 layer_factory.hpp:77] Creating layer loss1/loss
I0403 15:21:17.675958  2997 net.cpp:91] Creating Layer loss1/loss
I0403 15:21:17.675977  2997 net.cpp:425] loss1/loss <- loss1/classifier_plantvillage_loss1/classifier_plantvillage_0_split_0
I0403 15:21:17.676008  2997 net.cpp:425] loss1/loss <- label_data_1_split_0
…
