…
I0403 15:19:53.125610  2969 net.cpp:313] The NetState phase (1) differed from the phase (0) specified by a rule in layer data
I0403 15:19:53.126821  2969 net.cpp:49] Initializing net from parameters: 
state {
  phase: TEST
}
layer {
  name: "data"
  type: "Data"
  top: "data"
  top: "label"
  include {
    phase: TEST
  }
  transform_param {
    mirror: false
    crop_size: 224
    mean_file: "/home/mohanty/data/final_dataset/lmdb/segmented-60-40/mean.binaryproto"
  }
  data_param {
    source: "/home/mohanty/data/final_dataset/lmdb/segmented-60-40/test_db"
    batch_size: 24
    backend: LMDB
  }
}
layer {
  name: "conv1/7x7_s2"
  type: "Convolution"
  bottom: "data"
  top: "conv1/7x7_s2"
  param {
    lr_mult: 1
    decay_mult: 1
  }
  param {
    lr_mult: 2
    decay_mult: 0
  }
  convolution_param {
    num_output: 64
    pad: 3
    kernel_size: 7
    stride: 2
    weight_filler {
      type: "xavier"
      std: 0.1
    }
    bias_filler {
      type: "constant"
      value: 0.2
    }
  }
}
layer {
  name: "conv1/relu_7x7"
  type: "ReLU"
  bottom: "conv1/7x7_s2"
  top: "conv1/7x7_s2"
}
layer {
  name: "pool1/3x3_s2"
  type: "Pooling"
  bottom: "conv1/7x7_s2"
  top: "pool1/3x3_s2"
  pooling_param {
    pool: MAX
    kernel_size: 3
    stride: 2
  }
}
layer {
  name: "pool1/norm1"
  type: "LRN"
  bottom: "pool1/3x3_s2"
  top: "pool1/norm1"
  lrn_param {
    local_size: 5
    alpha: 0.0001
    beta: 0.75
  }
}
layer {
  name: "conv2/3x3_reduce"
  type: "Convolution"
  bottom: "pool1/norm1"
  top: "conv2/3x3_reduce"
  param {
    lr_mult: 1
    decay_mult: 1
  }
  param {
    lr_mult: 2
    decay_mult: 0
  }
  convolution_param {
    num_output: 64
    kernel_size: 1
    weight_filler {
      type: "xavier"
      std: 0.1
    }
    bias_filler {
      type: "constant"
      value: 0.2
    }
  }
}
layer {
  name: "conv2/relu_3x3_reduce"
  type: "ReLU"
  bottom: "conv2/3x3_reduce"
  top: "conv2/3x3_reduce"
}
layer {
  name: "conv2/3x3"
  type: "Convolution"
  bottom: "conv2/3x3_reduce"
  top: "conv2/3x3"
  param {
    lr_mult: 1
    decay_mult: 1
  }
  param {
    lr_mult: 2
    decay_mult: 0
  }
  convolution_param {
    num_output: 192
    pad: 1
    kernel_size: 3
    weight_filler {
      type: "xavier"
      std: 0.03
    }
    bias_filler {
      type: "constant"
      value: 0.2
    }
  }
}
layer {
  name: "conv2/relu_3x3"
  type: "ReLU"
  bottom: "conv2/3x3"
  top: "conv2/3x3"
}
layer {
  name: "conv2/norm2"
  type: "LRN"
  bottom: "conv2/3x3"
  top: "conv2/norm2"
  lrn_param {
    local_size: 5
    alpha: 0.0001
    beta: 0.75
  }
}
layer {
  name: "pool2/3x3_s2"
  type: "Pooling"
  bottom: "conv2/norm2"
  top: "pool2/3x3_s2"
  pooling_param {
    pool: MAX
    kernel_size: 3
    stride: 2
  }
}
layer {
  name: "inception_3a/1x1"
  type: "Convolution"
  bottom: "pool2/3x3_s2"
  top: "inception_3a/1x1"
  param {
    lr_mult: 1
    decay_mult: 1
  }
  param {
    lr_mult: 2
    decay_mult: 0
  }
  convolution_param {
    num_output: 64
    kernel_size: 1
    weight_filler {
      type: "xavier"
      std: 0.03
    }
    bias_filler {
      type: "constant"
      value: 0.2
    }
  }
}
layer {
  name: "inception_3a/relu_1x1"
  type: "ReLU"
  bottom: "inception_3a/1x1"
  top: "inception_3a/1x1"
}
layer {
  name: "inception_3a/3x3_reduce"
  type: "Convolution"
  bottom: "pool2/3x3_s2"
  top: "inception_3a/3x3_reduce"
  param {
    lr_mult: 1
    decay_mult: 1
  }
  param {
    lr_mult: 2
    decay_mult: 0
  }
  convolution_param {
    num_output: 96
    kernel_size: 1
    weight_filler {
      type: "xavier"
      std: 0.09
    }
    bias_filler {
      type: "constant"
      value: 0.2
    }
  }
}
layer {
  name: "inception_3a/relu_3x3_reduce"
  type: "ReLU"
  bottom: "inception_3a/3x3_reduce"
  top: "inception_3a/3x3_reduce"
}
layer {
  name: "inception_3a/3x3"
  type: "Convolution"
  bottom: "inception_3a/3x3_reduce"
  top: "inception_3a/3x3"
  param {
    lr_mult: 1
    decay_mult: 1
  }
  param {
    lr_mult: 2
    decay_mult: 0
  }
  convolution_param {
    num_output: 128
    pad: 1
    kernel_size: 3
    weight_filler {
      type: "xavier"
      std: 0.03
    }
    bias_filler {
      type: "constant"
      value: 0.2
    }
  }
}
layer {
  name: "inception_3a/relu_3x3"
  type: "ReLU"
  bottom: "inception_3a/3x3"
  top: "inception_3a/3x3"
}
layer {
  name: "inception_3a/5x5_reduce"
  type: "Convolution"
  bottom: "pool2/3x3_s2"
  top: "inception_3a/5x5_reduce"
  param {
    lr_mult: 1
    decay_mult: 1
  }
  param {
    lr_mult: 2
    decay_mult: 0
  }
  convolution_param {
    num_output: 16
    kernel_size: 1
    weight_filler {
      type: "xavier"
      std: 0.2
    }
    bias_filler {
      type: "constant"
      value: 0.2
    }
  }
}
layer {
  name: "inception_3a/relu_5x5_reduce"
  type: "ReLU"
  bottom: "inception_3a/5x5_reduce"
  top: "inception_3a/5x5_reduce"
}
layer {
  name: "inception_3a/5x5"
  type: "Convolution"
  bottom: "inception_3a/5x5_reduce"
  top: "inception_3a/5x5"
  param {
    lr_mult: 1
    decay_mult: 1
  }
  param {
    lr_mult: 2
    decay_mult: 0
  }
  convolution_param {
    num_output: 32
    pad: 2
    kernel_size: 5
    weight_filler {
      type: "xavier"
      std: 0.03
    }
    bias_filler {
      type: "constant"
      value: 0.2
    }
  }
}
layer {
  name: "inception_3a/relu_5x5"
  type: "ReLU"
  bottom: "inception_3a/5x5"
  top: "inception_3a/5x5"
}
layer {
  name: "inception_3a/pool"
  type: "Pooling"
  bottom: "pool2/3x3_s2"
  top: "inception_3a/pool"
  pooling_param {
    pool: MAX
    kernel_size: 3
    stride: 1
    pad: 1
  }
}
layer {
  name: "inception_3a/pool_proj"
  type: "Convolution"
  bottom: "inception_3a/pool"
  top: "inception_3a/pool_proj"
  param {
    lr_mult: 1
    decay_mult: 1
  }
  param {
    lr_mult: 2
    decay_mult: 0
  }
  convolution_param {
    num_output: 32
    kernel_size: 1
    weight_filler {
      type: "xavier"
      std: 0.1
    }
    bias_filler {
      type: "constant"
      value: 0.2
    }
  }
}
layer {
  name: "inception_3a/relu_pool_proj"
  type: "ReLU"
  bottom: "inception_3a/pool_proj"
  top: "inception_3a/pool_proj"
}
layer {
  name: "inception_3a/output"
  type: "Concat"
  bottom: "inception_3a/1x1"
  bottom: "inception_3a/3x3"
  bottom: "inception_3a/5x5"
  bottom: "inception_3a/pool_proj"
  top: "inception_3a/output"
}
layer {
  name: "inception_3b/1x1"
  type: "Convolution"
  bottom: "inception_3a/output"
  top: "inception_3b/1x1"
  param {
    lr_mult: 1
    decay_mult: 1
  }
  param {
    lr_mult: 2
    decay_mult: 0
  }
  convolution_param {
    num_output: 128
    kernel_size: 1
    weight_filler {
      type: "xavier"
      std: 0.03
    }
    bias_filler {
      type: "constant"
      value: 0.2
    }
  }
}
layer {
  name: "inception_3b/relu_1x1"
  type: "ReLU"
  bottom: "inception_3b/1x1"
  top: "inception_3b/1x1"
}
layer {
  name: "inception_3b/3x3_reduce"
  type: "Convolution"
  bottom: "inception_3a/output"
  top: "inception_3b/3x3_reduce"
  param {
    lr_mult: 1
    decay_mult: 1
  }
  param {
    lr_mult: 2
    decay_mult: 0
  }
  convolution_param {
    num_output: 128
    kernel_size: 1
    weight_filler {
      type: "xavier"
      std: 0.09
    }
    bias_filler {
      type: "constant"
      value: 0.2
    }
  }
}
layer {
  name: "inception_3b/relu_3x3_reduce"
  type: "ReLU"
  bottom: "inception_3b/3x3_reduce"
  top: "inception_3b/3x3_reduce"
}
layer {
  name: "inception_3b/3x3"
  type: "Convolution"
  bottom: "inception_3b/3x3_reduce"
  top: "inception_3b/3x3"
  param {
    lr_mult: 1
    decay_mult: 1
  }
  param {
    lr_mult: 2
    decay_mult: 0
  }
  convolution_param {
    num_output: 192
    pad: 1
    kernel_size: 3
    weight_filler {
      type: "xavier"
      std: 0.03
    }
    bias_filler {
      type: "constant"
      value: 0.2
    }
  }
}
layer {
  name: "inception_3b/relu_3x3"
  type: "ReLU"
  bottom: "inception_3b/3x3"
  top: "inception_3b/3x3"
}
layer {
  name: "inception_3b/5x5_reduce"
  type: "Convolution"
  bottom: "inception_3a/output"
  top: "inception_3b/5x5_reduce"
  param {
    lr_mult: 1
    decay_mult: 1
  }
  param {
    lr_mult: 2
    decay_mult: 0
  }
  convolution_param {
    num_output: 32
    kernel_size: 1
    weight_filler {
      type: "xavier"
      std: 0.2
    }
    bias_filler {
      type: "constant"
      value: 0.2
    }
  }
}
layer {
  name: "inception_3b/relu_5x5_reduce"
  type: "ReLU"
  bottom: "inception_3b/5x5_reduce"
  top: "inception_3b/5x5_reduce"
}
layer {
  name: "inception_3b/5x5"
  type: "Convolution"
  bottom: "inception_3b/5x5_reduce"
  top: "inception_3b/5x5"
  param {
    lr_mult: 1
    decay_mult: 1
  }
  param {
    lr_mult: 2
    decay_mult: 0
  }
  convolution_param {
    num_output: 96
    pad: 2
    kernel_size: 5
    weight_filler {
      type: "xavier"
      std: 0.03
    }
    bias_filler {
      type: "constant"
      value: 0.2
    }
  }
}
layer {
  name: "inception_3b/relu_5x5"
  type: "ReLU"
  bottom: "inception_3b/5x5"
  top: "inception_3b/5x5"
}
layer {
  name: "inception_3b/pool"
  type: "Pooling"
  bottom: "inception_3a/output"
  top: "inception_3b/pool"
  pooling_param {
    pool: MAX
    kernel_size: 3
    stride: 1
    pad: 1
  }
}
layer {
  name: "inception_3b/pool_proj"
  type: "Convolution"
  bottom: "inception_3b/pool"
  top: "inception_3b/pool_proj"
  param {
    lr_mult: 1
    decay_mult: 1
  }
  param {
    lr_mult: 2
    decay_mult: 0
  }
  convolution_param {
    num_output: 64
    kernel_size: 1
    weight_filler {
      type: "xavier"
      std: 0.1
    }
    bias_filler {
      type: "constant"
      value: 0.2
    }
  }
}
layer {
  name: "inception_3b/relu_pool_proj"
  type: "ReLU"
  bottom: "inception_3b/pool_proj"
  top: "inception_3b/pool_proj"
}
layer {
  name: "inception_3b/output"
  type: "Concat"
  bottom: "inception_3b/1x1"
  bottom: "inception_3b/3x3"
  bottom: "inception_3b/5x5"
  bottom: "inception_3b/pool_proj"
  top: "inception_3b/output"
}
layer {
  name: "pool3/3x3_s2"
  type: "Pooling"
  bottom: "inception_3b/output"
  top: "pool3/3x3_s2"
  pooling_param {
    pool: MAX
    kernel_size: 3
    stride: 2
  }
}
layer {
  name: "inception_4a/1x1"
  type: "Convolution"
  bottom: "pool3/3x3_s2"
  top: "inception_4a/1x1"
  param {
    lr_mult: 1
    decay_mult: 1
  }
  param {
    lr_mult: 2
    decay_mult: 0
  }
  convolution_param {
    num_output: 192
    kernel_size: 1
    weight_filler {
      type: "xavier"
      std: 0.03
    }
    bias_filler {
      type: "constant"
      value: 0.2
    }
  }
}
layer {
  name: "inception_4a/relu_1x1"
  type: "ReLU"
  bottom: "inception_4a/1x1"
  top: "inception_4a/1x1"
}
layer {
  name: "inception_4a/3x3_reduce"
  type: "Convolution"
  bottom: "pool3/3x3_s2"
  top: "inception_4a/3x3_reduce"
  param {
    lr_mult: 1
    decay_mult: 1
  }
  param {
    lr_mult: 2
    decay_mult: 0
  }
  convolution_param {
    num_output: 96
    kernel_size: 1
    weight_filler {
      type: "xavier"
      std: 0.09
    }
    bias_filler {
      type: "constant"
      value: 0.2
    }
  }
}
layer {
  name: "inception_4a/relu_3x3_reduce"
  type: "ReLU"
  bottom: "inception_4a/3x3_reduce"
  top: "inception_4a/3x3_reduce"
}
layer {
  name: "inception_4a/3x3"
  type: "Convolution"
  bottom: "inception_4a/3x3_reduce"
  top: "inception_4a/3x3"
  param {
    lr_mult: 1
    decay_mult: 1
  }
  param {
    lr_mult: 2
    decay_mult: 0
  }
  convolution_param {
    num_output: 208
    pad: 1
    kernel_size: 3
    weight_filler {
      type: "xavier"
      std: 0.03
    }
    bias_filler {
      type: "constant"
      value: 0.2
    }
  }
}
layer {
  name: "inception_4a/relu_3x3"
  type: "ReLU"
  bottom: "inception_4a/3x3"
  top: "inception_4a/3x3"
}
layer {
  name: "inception_4a/5x5_reduce"
  type: "Convolution"
  bottom: "pool3/3x3_s2"
  top: "inception_4a/5x5_reduce"
  param {
    lr_mult: 1
    decay_mult: 1
  }
  param {
    lr_mult: 2
    decay_mult: 0
  }
  convolution_param {
    num_output: 16
    kernel_size: 1
    weight_filler {
      type: "xavier"
      std: 0.2
    }
    bias_filler {
      type: "constant"
      value: 0.2
    }
  }
}
layer {
  name: "inception_4a/relu_5x5_reduce"
  type: "ReLU"
  bottom: "inception_4a/5x5_reduce"
  top: "inception_4a/5x5_reduce"
}
layer {
  name: "inception_4a/5x5"
  type: "Convolution"
  bottom: "inception_4a/5x5_reduce"
  top: "inception_4a/5x5"
  param {
    lr_mult: 1
    decay_mult: 1
  }
  param {
    lr_mult: 2
    decay_mult: 0
  }
  convolution_param {
    num_output: 48
    pad: 2
    kernel_size: 5
    weight_filler {
      type: "xavier"
      std: 0.03
    }
    bias_filler {
      type: "constant"
      value: 0.2
    }
  }
}
layer {
  name: "inception_4a/relu_5x5"
  type: "ReLU"
  bottom: "inception_4a/5x5"
  top: "inception_4a/5x5"
}
layer {
  name: "inception_4a/pool"
  type: "Pooling"
  bottom: "pool3/3x3_s2"
  top: "inception_4a/pool"
  pooling_param {
    pool: MAX
    kernel_size: 3
    stride: 1
    pad: 1
  }
}
layer {
  name: "inception_4a/pool_proj"
  type: "Convolution"
  bottom: "inception_4a/pool"
  top: "inception_4a/pool_proj"
  param {
    lr_mult: 1
    decay_mult: 1
  }
  param {
    lr_mult: 2
    decay_mult: 0
  }
  convolution_param {
    num_output: 64
    kernel_size: 1
    weight_filler {
      type: "xavier"
      std: 0.1
    }
    bias_filler {
      type: "constant"
      value: 0.2
    }
  }
}
layer {
  name: "inception_4a/relu_pool_proj"
  type: "ReLU"
  bottom: "inception_4a/pool_proj"
  top: "inception_4a/pool_proj"
}
layer {
  name: "inception_4a/output"
  type: "Concat"
  bottom: "inception_4a/1x1"
  bottom: "inception_4a/3x3"
  bottom: "inception_4a/5x5"
  bottom: "inception_4a/pool_proj"
  top: "inception_4a/output"
}
layer {
  name: "loss1/ave_pool"
  type: "Pooling"
  bottom: "inception_4a/output"
  top: "loss1/ave_pool"
  pooling_param {
    pool: AVE
    kernel_size: 5
    stride: 3
  }
}
layer {
  name: "loss1/conv"
  type: "Convolution"
  bottom: "loss1/ave_pool"
  top: "loss1/conv"
  param {
    lr_mult: 1
    decay_mult: 1
  }
  param {
    lr_mult: 2
    decay_mult: 0
  }
  convolution_param {
    num_output: 128
    kernel_size: 1
    weight_filler {
      type: "xavier"
      std: 0.08
    }
    bias_filler {
      type: "constant"
      value: 0.2
    }
  }
}
layer {
  name: "loss1/relu_conv"
  type: "ReLU"
  bottom: "loss1/conv"
  top: "loss1/conv"
}
layer {
  name: "loss1/fc"
  type: "InnerProduct"
  bottom: "loss1/conv"
  top: "loss1/fc"
  param {
    lr_mult: 1
    decay_mult: 1
  }
  param {
    lr_mult: 2
    decay_mult: 0
  }
  inner_product_param {
    num_output: 1024
    weight_filler {
      type: "xavier"
      std: 0.02
    }
    bias_filler {
      type: "constant"
      value: 0.2
    }
  }
}
layer {
  name: "loss1/relu_fc"
  type: "ReLU"
  bottom: "loss1/fc"
  top: "loss1/fc"
}
layer {
  name: "loss1/drop_fc"
  type: "Dropout"
  bottom: "loss1/fc"
  top: "loss1/fc"
  dropout_param {
    dropout_ratio: 0.7
  }
}
layer {
  name: "loss1/classifier_plantvillage"
  type: "InnerProduct"
  bottom: "loss1/fc"
  top: "loss1/classifier_plantvillage"
  param {
    lr_mult: 1
    decay_mult: 1
  }
  param {
    lr_mult: 2
    decay_mult: 0
  }
  inner_product_param {
    num_output: 38
    weight_filler {
      type: "xavier"
      std: 0.0009765625
    }
    bias_filler {
      type: "constant"
      value: 0
    }
  }
}
layer {
  name: "inception_4b/1x1"
  type: "Convolution"
  bottom: "inception_4a/output"
  top: "inception_4b/1x1"
  param {
    lr_mult: 1
    decay_mult: 1
  }
  param {
    lr_mult: 2
    decay_mult: 0
  }
  convolution_param {
    num_output: 160
    kernel_size: 1
    weight_filler {
      type: "xavier"
      std: 0.03
    }
    bias_filler {
      type: "constant"
      value: 0.2
    }
  }
}
layer {
  name: "inception_4b/relu_1x1"
  type: "ReLU"
  bottom: "inception_4b/1x1"
  top: "inception_4b/1x1"
}
layer {
  name: "inception_4b/3x3_reduce"
  type: "Convolution"
  bottom: "inception_4a/output"
  top: "inception_4b/3x3_reduce"
  param {
    lr_mult: 1
    decay_mult: 1
  }
  param {
    lr_mult: 2
    decay_mult: 0
  }
  convolution_param {
    num_output: 112
    kernel_size: 1
    weight_filler {
      type: "xavier"
      std: 0.09
    }
    bias_filler {
      type: "constant"
      value: 0.2
    }
  }
}
layer {
  name: "inception_4b/relu_3x3_reduce"
  type: "ReLU"
  bottom: "inception_4b/3x3_reduce"
  top: "inception_4b/3x3_reduce"
}
layer {
  name: "inception_4b/3x3"
  type: "Convolution"
  bottom: "inception_4b/3x3_reduce"
  top: "inception_4b/3x3"
  param {
    lr_mult: 1
    decay_mult: 1
  }
  param {
    lr_mult: 2
    decay_mult: 0
  }
  convolution_param {
    num_output: 224
    pad: 1
    kernel_size: 3
    weight_filler {
      type: "xavier"
      std: 0.03
    }
    bias_filler {
      type: "constant"
      value: 0.2
    }
  }
}
layer {
  name: "inception_4b/relu_3x3"
  type: "ReLU"
  bottom: "inception_4b/3x3"
  top: "inception_4b/3x3"
}
layer {
  name: "inception_4b/5x5_reduce"
  type: "Convolution"
  bottom: "inception_4a/output"
  top: "inception_4b/5x5_reduce"
  param {
    lr_mult: 1
    decay_mult: 1
  }
  param {
    lr_mult: 2
    decay_mult: 0
  }
  convolution_param {
    num_output: 24
    kernel_size: 1
    weight_filler {
      type: "xavier"
      std: 0.2
    }
    bias_filler {
      type: "constant"
      value: 0.2
    }
  }
}
layer {
  name: "inception_4b/relu_5x5_reduce"
  type: "ReLU"
  bottom: "inception_4b/5x5_reduce"
  top: "inception_4b/5x5_reduce"
}
layer {
  name: "inception_4b/5x5"
  type: "Convolution"
  bottom: "inception_4b/5x5_reduce"
  top: "inception_4b/5x5"
  param {
    lr_mult: 1
    decay_mult: 1
  }
  param {
    lr_mult: 2
    decay_mult: 0
  }
  convolution_param {
    num_output: 64
    pad: 2
    kernel_size: 5
    weight_filler {
      type: "xavier"
      std: 0.03
    }
    bias_filler {
      type: "constant"
      value: 0.2
    }
  }
}
layer {
  name: "inception_4b/relu_5x5"
  type: "ReLU"
  bottom: "inception_4b/5x5"
  top: "inception_4b/5x5"
}
layer {
  name: "inception_4b/pool"
  type: "Pooling"
  bottom: "inception_4a/output"
  top: "inception_4b/pool"
  pooling_param {
    pool: MAX
    kernel_size: 3
    stride: 1
    pad: 1
  }
}
layer {
  name: "inception_4b/pool_proj"
  type: "Convolution"
  bottom: "inception_4b/pool"
  top: "inception_4b/pool_proj"
  param {
    lr_mult: 1
    decay_mult: 1
  }
  param {
    lr_mult: 2
    decay_mult: 0
  }
  convolution_param {
    num_output: 64
    kernel_size: 1
    weight_filler {
      type: "xavier"
      std: 0.1
    }
    bias_filler {
      type: "constant"
      value: 0.2
    }
  }
}
layer {
  name: "inception_4b/relu_pool_proj"
  type: "ReLU"
  bottom: "inception_4b/pool_proj"
  top: "inception_4b/pool_proj"
}
layer {
  name: "inception_4b/output"
  type: "Concat"
  bottom: "inception_4b/1x1"
  bottom: "inception_4b/3x3"
  bottom: "inception_4b/5x5"
  bottom: "inception_4b/pool_proj"
  top: "inception_4b/output"
}
layer {
  name: "inception_4c/1x1"
  type: "Convolution"
  bottom: "inception_4b/output"
  top: "inception_4c/1x1"
  param {
    lr_mult: 1
    decay_mult: 1
  }
  param {
    lr_mult: 2
    decay_mult: 0
  }
  convolution_param {
    num_output: 128
    kernel_size: 1
    weight_filler {
      type: "xavier"
      std: 0.03
    }
    bias_filler {
      type: "constant"
      value: 0.2
    }
  }
}
layer {
  name: "inception_4c/relu_1x1"
  type: "ReLU"
  bottom: "inception_4c/1x1"
  top: "inception_4c/1x1"
}
layer {
  name: "inception_4c/3x3_reduce"
  type: "Convolution"
  bottom: "inception_4b/output"
  top: "inception_4c/3x3_reduce"
  param {
    lr_mult: 1
    decay_mult: 1
  }
  param {
    lr_mult: 2
    decay_mult: 0
  }
  convolution_param {
    num_output: 128
    kernel_size: 1
    weight_filler {
      type: "xavier"
      std: 0.09
    }
    bias_filler {
      type: "constant"
      value: 0.2
    }
  }
}
layer {
  name: "inception_4c/relu_3x3_reduce"
  type: "ReLU"
  bottom: "inception_4c/3x3_reduce"
  top: "inception_4c/3x3_reduce"
}
layer {
  name: "inception_4c/3x3"
  type: "Convolution"
  bottom: "inception_4c/3x3_reduce"
  top: "inception_4c/3x3"
  param {
    lr_mult: 1
    decay_mult: 1
  }
  param {
    lr_mult: 2
    decay_mult: 0
  }
  convolution_param {
    num_output: 256
    pad: 1
    kernel_size: 3
    weight_filler {
      type: "xavier"
      std: 0.03
    }
    bias_filler {
      type: "constant"
      value: 0.2
    }
  }
}
layer {
  name: "inception_4c/relu_3x3"
  type: "ReLU"
  bottom: "inception_4c/3x3"
  top: "inception_4c/3x3"
}
layer {
  name: "inception_4c/5x5_reduce"
  type: "Convolution"
  bottom: "inception_4b/output"
  top: "inception_4c/5x5_reduce"
  param {
    lr_mult: 1
    decay_mult: 1
  }
  param {
    lr_mult: 2
    decay_mult: 0
  }
  convolution_param {
    num_output: 24
    kernel_size: 1
    weight_filler {
      type: "xavier"
      std: 0.2
    }
    bias_filler {
      type: "constant"
      value: 0.2
    }
  }
}
layer {
  name: "inception_4c/relu_5x5_reduce"
  type: "ReLU"
  bottom: "inception_4c/5x5_reduce"
  top: "inception_4c/5x5_reduce"
}
layer {
  name: "inception_4c/5x5"
  type: "Convolution"
  bottom: "inception_4c/5x5_reduce"
  top: "inception_4c/5x5"
  param {
    lr_mult: 1
    decay_mult: 1
  }
  param {
    lr_mult: 2
    decay_mult: 0
  }
  convolution_param {
    num_output: 64
    pad: 2
    kernel_size: 5
    weight_filler {
      type: "xavier"
      std: 0.03
    }
    bias_filler {
      type: "constant"
      value: 0.2
    }
  }
}
layer {
  name: "inception_4c/relu_5x5"
  type: "ReLU"
  bottom: "inception_4c/5x5"
  top: "inception_4c/5x5"
}
layer {
  name: "inception_4c/pool"
  type: "Pooling"
  bottom: "inception_4b/output"
  top: "inception_4c/pool"
  pooling_param {
    pool: MAX
    kernel_size: 3
    stride: 1
    pad: 1
  }
}
layer {
  name: "inception_4c/pool_proj"
  type: "Convolution"
  bottom: "inception_4c/pool"
  top: "inception_4c/pool_proj"
  param {
    lr_mult: 1
    decay_mult: 1
  }
  param {
    lr_mult: 2
    decay_mult: 0
  }
  convolution_param {
    num_output: 64
    kernel_size: 1
    weight_filler {
      type: "xavier"
      std: 0.1
    }
    bias_filler {
      type: "constant"
      value: 0.2
    }
  }
}
layer {
  name: "inception_4c/relu_pool_proj"
  type: "ReLU"
  bottom: "inception_4c/pool_proj"
  top: "inception_4c/pool_proj"
}
layer {
  name: "inception_4c/output"
  type: "Concat"
  bottom: "inception_4c/1x1"
  bottom: "inception_4c/3x3"
  bottom: "inception_4c/5x5"
  bottom: "inception_4c/pool_proj"
  top: "inception_4c/output"
}
layer {
  name: "inception_4d/1x1"
  type: "Convolution"
  bottom: "inception_4c/output"
  top: "inception_4d/1x1"
  param {
    lr_mult: 1
    decay_mult: 1
  }
  param {
    lr_mult: 2
    decay_mult: 0
  }
  convolution_param {
    num_output: 112
    kernel_size: 1
    weight_filler {
      type: "xavier"
      std: 0.03
    }
    bias_filler {
      type: "constant"
      value: 0.2
    }
  }
}
layer {
  name: "inception_4d/relu_1x1"
  type: "ReLU"
  bottom: "inception_4d/1x1"
  top: "inception_4d/1x1"
}
layer {
  name: "inception_4d/3x3_reduce"
  type: "Convolution"
  bottom: "inception_4c/output"
  top: "inception_4d/3x3_reduce"
  param {
    lr_mult: 1
    decay_mult: 1
  }
  param {
    lr_mult: 2
    decay_mult: 0
  }
  convolution_param {
    num_output: 144
    kernel_size: 1
    weight_filler {
      type: "xavier"
      std: 0.09
    }
    bias_filler {
      type: "constant"
      value: 0.2
    }
  }
}
layer {
  name: "inception_4d/relu_3x3_reduce"
  type: "ReLU"
  bottom: "inception_4d/3x3_reduce"
  top: "inception_4d/3x3_reduce"
}
layer {
  name: "inception_4d/3x3"
  type: "Convolution"
  bottom: "inception_4d/3x3_reduce"
  top: "inception_4d/3x3"
  param {
    lr_mult: 1
    decay_mult: 1
  }
  param {
    lr_mult: 2
    decay_mult: 0
  }
  convolution_param {
    num_output: 288
    pad: 1
    kernel_size: 3
    weight_filler {
      type: "xavier"
      std: 0.03
    }
    bias_filler {
      type: "constant"
      value: 0.2
    }
  }
}
layer {
  name: "inception_4d/relu_3x3"
  type: "ReLU"
  bottom: "inception_4d/3x3"
  top: "inception_4d/3x3"
}
layer {
  name: "inception_4d/5x5_reduce"
  type: "Convolution"
  bottom: "inception_4c/output"
  top: "inception_4d/5x5_reduce"
  param {
    lr_mult: 1
    decay_mult: 1
  }
  param {
    lr_mult: 2
    decay_mult: 0
  }
  convolution_param {
    num_output: 32
    kernel_size: 1
    weight_filler {
      type: "xavier"
      std: 0.2
    }
    bias_filler {
      type: "constant"
      value: 0.2
    }
  }
}
layer {
  name: "inception_4d/relu_5x5_reduce"
  type: "ReLU"
  bottom: "inception_4d/5x5_reduce"
  top: "inception_4d/5x5_reduce"
}
layer {
  name: "inception_4d/5x5"
  type: "Convolution"
  bottom: "inception_4d/5x5_reduce"
  top: "inception_4d/5x5"
  param {
    lr_mult: 1
    decay_mult: 1
  }
  param {
    lr_mult: 2
    decay_mult: 0
  }
  convolution_param {
    num_output: 64
    pad: 2
    kernel_size: 5
    weight_filler {
      type: "xavier"
      std: 0.03
    }
    bias_filler {
      type: "constant"
      value: 0.2
    }
  }
}
layer {
  name: "inception_4d/relu_5x5"
  type: "ReLU"
  bottom: "inception_4d/5x5"
  top: "inception_4d/5x5"
}
layer {
  name: "inception_4d/pool"
  type: "Pooling"
  bottom: "inception_4c/output"
  top: "inception_4d/pool"
  pooling_param {
    pool: MAX
    kernel_size: 3
    stride: 1
    pad: 1
  }
}
layer {
  name: "inception_4d/pool_proj"
  type: "Convolution"
  bottom: "inception_4d/pool"
  top: "inception_4d/pool_proj"
  param {
    lr_mult: 1
    decay_mult: 1
  }
  param {
    lr_mult: 2
    decay_mult: 0
  }
  convolution_param {
    num_output: 64
    kernel_size: 1
    weight_filler {
      type: "xavier"
      std: 0.1
    }
    bias_filler {
      type: "constant"
      value: 0.2
    }
  }
}
layer {
  name: "inception_4d/relu_pool_proj"
  type: "ReLU"
  bottom: "inception_4d/pool_proj"
  top: "inception_4d/pool_proj"
}
layer {
  name: "inception_4d/output"
  type: "Concat"
  bottom: "inception_4d/1x1"
  bottom: "inception_4d/3x3"
  bottom: "inception_4d/5x5"
  bottom: "inception_4d/pool_proj"
  top: "inception_4d/output"
}
layer {
  name: "loss2/ave_pool"
  type: "Pooling"
  bottom: "inception_4d/output"
  top: "loss2/ave_pool"
  pooling_param {
    pool: AVE
    kernel_size: 5
    stride: 3
  }
}
layer {
  name: "loss2/conv"
  type: "Convolution"
  bottom: "loss2/ave_pool"
  top: "loss2/conv"
  param {
    lr_mult: 1
    decay_mult: 1
  }
  param {
    lr_mult: 2
    decay_mult: 0
  }
  convolution_param {
    num_output: 128
    kernel_size: 1
    weight_filler {
      type: "xavier"
      std: 0.08
    }
    bias_filler {
      type: "constant"
      value: 0.2
    }
  }
}
layer {
  name: "loss2/relu_conv"
  type: "ReLU"
  bottom: "loss2/conv"
  top: "loss2/conv"
}
layer {
  name: "loss2/fc"
  type: "InnerProduct"
  bottom: "loss2/conv"
  top: "loss2/fc"
  param {
    lr_mult: 1
    decay_mult: 1
  }
  param {
    lr_mult: 2
    decay_mult: 0
  }
  inner_product_param {
    num_output: 1024
    weight_filler {
      type: "xavier"
      std: 0.02
    }
    bias_filler {
      type: "constant"
      value: 0.2
    }
  }
}
layer {
  name: "loss2/relu_fc"
  type: "ReLU"
  bottom: "loss2/fc"
  top: "loss2/fc"
}
layer {
  name: "loss2/drop_fc"
  type: "Dropout"
  bottom: "loss2/fc"
  top: "loss2/fc"
  dropout_param {
    dropout_ratio: 0.7
  }
}
layer {
  name: "loss2/classifier_plantvillage"
  type: "InnerProduct"
  bottom: "loss2/fc"
  top: "loss2/classifier_plantvillage"
  param {
    lr_mult: 1
    decay_mult: 1
  }
  param {
    lr_mult: 2
    decay_mult: 0
  }
  inner_product_param {
    num_output: 38
    weight_filler {
      type: "xavier"
      std: 0.0009765625
    }
    bias_filler {
      type: "constant"
      value: 0
    }
  }
}
layer {
  name: "inception_4e/1x1"
  type: "Convolution"
  bottom: "inception_4d/output"
  top: "inception_4e/1x1"
  param {
    lr_mult: 1
    decay_mult: 1
  }
  param {
    lr_mult: 2
    decay_mult: 0
  }
  convolution_param {
    num_output: 256
    kernel_size: 1
    weight_filler {
      type: "xavier"
      std: 0.03
    }
    bias_filler {
      type: "constant"
      value: 0.2
    }
  }
}
layer {
  name: "inception_4e/relu_1x1"
  type: "ReLU"
  bottom: "inception_4e/1x1"
  top: "inception_4e/1x1"
}
layer {
  name: "inception_4e/3x3_reduce"
  type: "Convolution"
  bottom: "inception_4d/output"
  top: "inception_4e/3x3_reduce"
  param {
    lr_mult: 1
    decay_mult: 1
  }
  param {
    lr_mult: 2
    decay_mult: 0
  }
  convolution_param {
    num_output: 160
    kernel_size: 1
    weight_filler {
      type: "xavier"
      std: 0.09
    }
    bias_filler {
      type: "constant"
      value: 0.2
    }
  }
}
layer {
  name: "inception_4e/relu_3x3_reduce"
  type: "ReLU"
  bottom: "inception_4e/3x3_reduce"
  top: "inception_4e/3x3_reduce"
}
layer {
  name: "inception_4e/3x3"
  type: "Convolution"
  bottom: "inception_4e/3x3_reduce"
  top: "inception_4e/3x3"
  param {
    lr_mult: 1
    decay_mult: 1
  }
  param {
    lr_mult: 2
    decay_mult: 0
  }
  convolution_param {
    num_output: 320
    pad: 1
    kernel_size: 3
    weight_filler {
      type: "xavier"
      std: 0.03
    }
    bias_filler {
      type: "constant"
      value: 0.2
    }
  }
}
layer {
  name: "inception_4e/relu_3x3"
  type: "ReLU"
  bottom: "inception_4e/3x3"
  top: "inception_4e/3x3"
}
layer {
  name: "inception_4e/5x5_reduce"
  type: "Convolution"
  bottom: "inception_4d/output"
  top: "inception_4e/5x5_reduce"
  param {
    lr_mult: 1
    decay_mult: 1
  }
  param {
    lr_mult: 2
    decay_mult: 0
  }
  convolution_param {
    num_output: 32
    kernel_size: 1
    weight_filler {
      type: "xavier"
      std: 0.2
    }
    bias_filler {
      type: "constant"
      value: 0.2
    }
  }
}
layer {
  name: "inception_4e/relu_5x5_reduce"
  type: "ReLU"
  bottom: "inception_4e/5x5_reduce"
  top: "inception_4e/5x5_reduce"
}
layer {
  name: "inception_4e/5x5"
  type: "Convolution"
  bottom: "inception_4e/5x5_reduce"
  top: "inception_4e/
I0403 15:19:53.128103  2969 layer_factory.hpp:77] Creating layer data
I0403 15:19:53.128720  2969 net.cpp:91] Creating Layer data
I0403 15:19:53.128752  2969 net.cpp:399] data -> data
I0403 15:19:53.128811  2969 net.cpp:399] data -> label
I0403 15:19:53.128849  2969 data_transformer.cpp:25] Loading mean file from: /home/mohanty/data/final_dataset/lmdb/segmented-60-40/mean.binaryproto
I0403 15:19:53.131243  2972 db_lmdb.cpp:38] Opened lmdb /home/mohanty/data/final_dataset/lmdb/segmented-60-40/test_db
I0403 15:19:53.142241  2969 data_layer.cpp:41] output data size: 24,3,224,224
I0403 15:19:53.170950  2969 net.cpp:141] Setting up data
I0403 15:19:53.171053  2969 net.cpp:148] Top shape: 24 3 224 224 (3612672)
I0403 15:19:53.171077  2969 net.cpp:148] Top shape: 24 (24)
I0403 15:19:53.171092  2969 net.cpp:156] Memory required for data: 14450784
I0403 15:19:53.171120  2969 layer_factory.hpp:77] Creating layer label_data_1_split
I0403 15:19:53.171149  2969 net.cpp:91] Creating Layer label_data_1_split
I0403 15:19:53.171167  2969 net.cpp:425] label_data_1_split <- label
I0403 15:19:53.171206  2969 net.cpp:399] label_data_1_split -> label_data_1_split_0
I0403 15:19:53.171236  2969 net.cpp:399] label_data_1_split -> label_data_1_split_1
I0403 15:19:53.171258  2969 net.cpp:399] label_data_1_split -> label_data_1_split_2
I0403 15:19:53.171280  2969 net.cpp:399] label_data_1_split -> label_data_1_split_3
I0403 15:19:53.171303  2969 net.cpp:399] label_data_1_split -> label_data_1_split_4
I0403 15:19:53.171324  2969 net.cpp:399] label_data_1_split -> label_data_1_split_5
I0403 15:19:53.171344  2969 net.cpp:399] label_data_1_split -> label_data_1_split_6
I0403 15:19:53.171365  2969 net.cpp:399] label_data_1_split -> label_data_1_split_7
I0403 15:19:53.171386  2969 net.cpp:399] label_data_1_split -> label_data_1_split_8
I0403 15:19:53.171406  2969 net.cpp:399] label_data_1_split -> label_data_1_split_9
I0403 15:19:53.171531  2969 net.cpp:141] Setting up label_data_1_split
I0403 15:19:53.171555  2969 net.cpp:148] Top shape: 24 (24)
I0403 15:19:53.171573  2969 net.cpp:148] Top shape: 24 (24)
I0403 15:19:53.171591  2969 net.cpp:148] Top shape: 24 (24)
I0403 15:19:53.171607  2969 net.cpp:148] Top shape: 24 (24)
I0403 15:19:53.171623  2969 net.cpp:148] Top shape: 24 (24)
I0403 15:19:53.171640  2969 net.cpp:148] Top shape: 24 (24)
I0403 15:19:53.171656  2969 net.cpp:148] Top shape: 24 (24)
I0403 15:19:53.171674  2969 net.cpp:148] Top shape: 24 (24)
I0403 15:19:53.171689  2969 net.cpp:148] Top shape: 24 (24)
I0403 15:19:53.171706  2969 net.cpp:148] Top shape: 24 (24)
I0403 15:19:53.171751  2969 net.cpp:156] Memory required for data: 14451744
I0403 15:19:53.171767  2969 layer_factory.hpp:77] Creating layer conv1/7x7_s2
I0403 15:19:53.171799  2969 net.cpp:91] Creating Layer conv1/7x7_s2
I0403 15:19:53.171818  2969 net.cpp:425] conv1/7x7_s2 <- data
I0403 15:19:53.171838  2969 net.cpp:399] conv1/7x7_s2 -> conv1/7x7_s2
I0403 15:19:53.313719  2969 net.cpp:141] Setting up conv1/7x7_s2
I0403 15:19:53.313765  2969 net.cpp:148] Top shape: 24 64 112 112 (19267584)
I0403 15:19:53.313783  2969 net.cpp:156] Memory required for data: 91522080
I0403 15:19:53.313815  2969 layer_factory.hpp:77] Creating layer conv1/relu_7x7
I0403 15:19:53.313844  2969 net.cpp:91] Creating Layer conv1/relu_7x7
I0403 15:19:53.313864  2969 net.cpp:425] conv1/relu_7x7 <- conv1/7x7_s2
I0403 15:19:53.313884  2969 net.cpp:386] conv1/relu_7x7 -> conv1/7x7_s2 (in-place)
I0403 15:19:53.314154  2969 net.cpp:141] Setting up conv1/relu_7x7
I0403 15:19:53.314189  2969 net.cpp:148] Top shape: 24 64 112 112 (19267584)
I0403 15:19:53.314208  2969 net.cpp:156] Memory required for data: 168592416
I0403 15:19:53.314224  2969 layer_factory.hpp:77] Creating layer pool1/3x3_s2
I0403 15:19:53.314250  2969 net.cpp:91] Creating Layer pool1/3x3_s2
I0403 15:19:53.314270  2969 net.cpp:425] pool1/3x3_s2 <- conv1/7x7_s2
I0403 15:19:53.314288  2969 net.cpp:399] pool1/3x3_s2 -> pool1/3x3_s2
I0403 15:19:53.314365  2969 net.cpp:141] Setting up pool1/3x3_s2
I0403 15:19:53.314390  2969 net.cpp:148] Top shape: 24 64 56 56 (4816896)
I0403 15:19:53.314406  2969 net.cpp:156] Memory required for data: 187860000
I0403 15:19:53.314421  2969 layer_factory.hpp:77] Creating layer pool1/norm1
I0403 15:19:53.314447  2969 net.cpp:91] Creating Layer pool1/norm1
I0403 15:19:53.314465  2969 net.cpp:425] pool1/norm1 <- pool1/3x3_s2
I0403 15:19:53.314484  2969 net.cpp:399] pool1/norm1 -> pool1/norm1
I0403 15:19:53.314785  2969 net.cpp:141] Setting up pool1/norm1
I0403 15:19:53.314815  2969 net.cpp:148] Top shape: 24 64 56 56 (4816896)
I0403 15:19:53.314831  2969 net.cpp:156] Memory required for data: 207127584
I0403 15:19:53.314846  2969 layer_factory.hpp:77] Creating layer conv2/3x3_reduce
I0403 15:19:53.314872  2969 net.cpp:91] Creating Layer conv2/3x3_reduce
I0403 15:19:53.314889  2969 net.cpp:425] conv2/3x3_reduce <- pool1/norm1
I0403 15:19:53.314908  2969 net.cpp:399] conv2/3x3_reduce -> conv2/3x3_reduce
I0403 15:19:53.316383  2969 net.cpp:141] Setting up conv2/3x3_reduce
I0403 15:19:53.316414  2969 net.cpp:148] Top shape: 24 64 56 56 (4816896)
I0403 15:19:53.316431  2969 net.cpp:156] Memory required for data: 226395168
I0403 15:19:53.316453  2969 layer_factory.hpp:77] Creating layer conv2/relu_3x3_reduce
I0403 15:19:53.316473  2969 net.cpp:91] Creating Layer conv2/relu_3x3_reduce
I0403 15:19:53.316489  2969 net.cpp:425] conv2/relu_3x3_reduce <- conv2/3x3_reduce
I0403 15:19:53.316510  2969 net.cpp:386] conv2/relu_3x3_reduce -> conv2/3x3_reduce (in-place)
I0403 15:19:53.316794  2969 net.cpp:141] Setting up conv2/relu_3x3_reduce
I0403 15:19:53.316823  2969 net.cpp:148] Top shape: 24 64 56 56 (4816896)
I0403 15:19:53.316838  2969 net.cpp:156] Memory required for data: 245662752
I0403 15:19:53.316854  2969 layer_factory.hpp:77] Creating layer conv2/3x3
I0403 15:19:53.316879  2969 net.cpp:91] Creating Layer conv2/3x3
I0403 15:19:53.316898  2969 net.cpp:425] conv2/3x3 <- conv2/3x3_reduce
I0403 15:19:53.316920  2969 net.cpp:399] conv2/3x3 -> conv2/3x3
I0403 15:19:53.319344  2969 net.cpp:141] Setting up conv2/3x3
I0403 15:19:53.319375  2969 net.cpp:148] Top shape: 24 192 56 56 (14450688)
I0403 15:19:53.319392  2969 net.cpp:156] Memory required for data: 303465504
I0403 15:19:53.319416  2969 layer_factory.hpp:77] Creating layer conv2/relu_3x3
I0403 15:19:53.319434  2969 net.cpp:91] Creating Layer conv2/relu_3x3
I0403 15:19:53.319452  2969 net.cpp:425] conv2/relu_3x3 <- conv2/3x3
I0403 15:19:53.319473  2969 net.cpp:386] conv2/relu_3x3 -> conv2/3x3 (in-place)
I0403 15:19:53.319661  2969 net.cpp:141] Setting up conv2/relu_3x3
I0403 15:19:53.319689  2969 net.cpp:148] Top shape: 24 192 56 56 (14450688)
I0403 15:19:53.319741  2969 net.cpp:156] Memory required for data: 361268256
I0403 15:19:53.319757  2969 layer_factory.hpp:77] Creating layer conv2/norm2
I0403 15:19:53.319775  2969 net.cpp:91] Creating Layer conv2/norm2
I0403 15:19:53.319792  2969 net.cpp:425] conv2/norm2 <- conv2/3x3
I0403 15:19:53.319814  2969 net.cpp:399] conv2/norm2 -> conv2/norm2
I0403 15:19:53.320133  2969 net.cpp:141] Setting up conv2/norm2
I0403 15:19:53.320164  2969 net.cpp:148] Top shape: 24 192 56 56 (14450688)
I0403 15:19:53.320186  2969 net.cpp:156] Memory required for data: 419071008
I0403 15:19:53.320204  2969 layer_factory.hpp:77] Creating layer pool2/3x3_s2
I0403 15:19:53.320224  2969 net.cpp:91] Creating Layer pool2/3x3_s2
I0403 15:19:53.320240  2969 net.cpp:425] pool2/3x3_s2 <- conv2/norm2
I0403 15:19:53.320261  2969 net.cpp:399] pool2/3x3_s2 -> pool2/3x3_s2
I0403 15:19:53.320318  2969 net.cpp:141] Setting up pool2/3x3_s2
I0403 15:19:53.320343  2969 net.cpp:148] Top shape: 24 192 28 28 (3612672)
I0403 15:19:53.320358  2969 net.cpp:156] Memory required for data: 433521696
I0403 15:19:53.320374  2969 layer_factory.hpp:77] Creating layer pool2/3x3_s2_pool2/3x3_s2_0_split
I0403 15:19:53.320394  2969 net.cpp:91] Creating Layer pool2/3x3_s2_pool2/3x3_s2_0_split
I0403 15:19:53.320411  2969 net.cpp:425] pool2/3x3_s2_pool2/3x3_s2_0_split <- pool2/3x3_s2
I0403 15:19:53.320430  2969 net.cpp:399] pool2/3x3_s2_pool2/3x3_s2_0_split -> pool2/3x3_s2_pool2/3x3_s2_0_split_0
I0403 15:19:53.320451  2969 net.cpp:399] pool2/3x3_s2_pool2/3x3_s2_0_split -> pool2/3x3_s2_pool2/3x3_s2_0_split_1
I0403 15:19:53.320474  2969 net.cpp:399] pool2/3x3_s2_pool2/3x3_s2_0_split -> pool2/3x3_s2_pool2/3x3_s2_0_split_2
I0403 15:19:53.320495  2969 net.cpp:399] pool2/3x3_s2_pool2/3x3_s2_0_split -> pool2/3x3_s2_pool2/3x3_s2_0_split_3
I0403 15:19:53.320569  2969 net.cpp:141] Setting up pool2/3x3_s2_pool2/3x3_s2_0_split
I0403 15:19:53.320593  2969 net.cpp:148] Top shape: 24 192 28 28 (3612672)
I0403 15:19:53.320611  2969 net.cpp:148] Top shape: 24 192 28 28 (3612672)
I0403 15:19:53.320628  2969 net.cpp:148] Top shape: 24 192 28 28 (3612672)
I0403 15:19:53.320646  2969 net.cpp:148] Top shape: 24 192 28 28 (3612672)
I0403 15:19:53.320659  2969 net.cpp:156] Memory required for data: 491324448
I0403 15:19:53.320674  2969 layer_factory.hpp:77] Creating layer inception_3a/1x1
I0403 15:19:53.320698  2969 net.cpp:91] Creating Layer inception_3a/1x1
I0403 15:19:53.320716  2969 net.cpp:425] inception_3a/1x1 <- pool2/3x3_s2_pool2/3x3_s2_0_split_0
I0403 15:19:53.320739  2969 net.cpp:399] inception_3a/1x1 -> inception_3a/1x1
I0403 15:19:53.322361  2969 net.cpp:141] Setting up inception_3a/1x1
I0403 15:19:53.322393  2969 net.cpp:148] Top shape: 24 64 28 28 (1204224)
I0403 15:19:53.322410  2969 net.cpp:156] Memory required for data: 496141344
I0403 15:19:53.322430  2969 layer_factory.hpp:77] Creating layer inception_3a/relu_1x1
I0403 15:19:53.322449  2969 net.cpp:91] Creating Layer inception_3a/relu_1x1
I0403 15:19:53.322465  2969 net.cpp:425] inception_3a/relu_1x1 <- inception_3a/1x1
I0403 15:19:53.322486  2969 net.cpp:386] inception_3a/relu_1x1 -> inception_3a/1x1 (in-place)
I0403 15:19:53.322674  2969 net.cpp:141] Setting up inception_3a/relu_1x1
I0403 15:19:53.322701  2969 net.cpp:148] Top shape: 24 64 28 28 (1204224)
I0403 15:19:53.322716  2969 net.cpp:156] Memory required for data: 500958240
I0403 15:19:53.322732  2969 layer_factory.hpp:77] Creating layer inception_3a/3x3_reduce
I0403 15:19:53.322757  2969 net.cpp:91] Creating Layer inception_3a/3x3_reduce
I0403 15:19:53.322774  2969 net.cpp:425] inception_3a/3x3_reduce <- pool2/3x3_s2_pool2/3x3_s2_0_split_1
I0403 15:19:53.322796  2969 net.cpp:399] inception_3a/3x3_reduce -> inception_3a/3x3_reduce
I0403 15:19:53.324582  2969 net.cpp:141] Setting up inception_3a/3x3_reduce
I0403 15:19:53.324614  2969 net.cpp:148] Top shape: 24 96 28 28 (1806336)
I0403 15:19:53.324630  2969 net.cpp:156] Memory required for data: 508183584
I0403 15:19:53.324652  2969 layer_factory.hpp:77] Creating layer inception_3a/relu_3x3_reduce
I0403 15:19:53.324692  2969 net.cpp:91] Creating Layer inception_3a/relu_3x3_reduce
I0403 15:19:53.324712  2969 net.cpp:425] inception_3a/relu_3x3_reduce <- inception_3a/3x3_reduce
I0403 15:19:53.324730  2969 net.cpp:386] inception_3a/relu_3x3_reduce -> inception_3a/3x3_reduce (in-place)
I0403 15:19:53.324919  2969 net.cpp:141] Setting up inception_3a/relu_3x3_reduce
I0403 15:19:53.324950  2969 net.cpp:148] Top shape: 24 96 28 28 (1806336)
I0403 15:19:53.324966  2969 net.cpp:156] Memory required for data: 515408928
I0403 15:19:53.324981  2969 layer_factory.hpp:77] Creating layer inception_3a/3x3
I0403 15:19:53.325007  2969 net.cpp:91] Creating Layer inception_3a/3x3
I0403 15:19:53.325026  2969 net.cpp:425] inception_3a/3x3 <- inception_3a/3x3_reduce
I0403 15:19:53.325050  2969 net.cpp:399] inception_3a/3x3 -> inception_3a/3x3
I0403 15:19:53.326807  2969 net.cpp:141] Setting up inception_3a/3x3
I0403 15:19:53.326839  2969 net.cpp:148] Top shape: 24 128 28 28 (2408448)
I0403 15:19:53.326856  2969 net.cpp:156] Memory required for data: 525042720
I0403 15:19:53.326875  2969 layer_factory.hpp:77] Creating layer inception_3a/relu_3x3
I0403 15:19:53.326897  2969 net.cpp:91] Creating Layer inception_3a/relu_3x3
I0403 15:19:53.326915  2969 net.cpp:425] inception_3a/relu_3x3 <- inception_3a/3x3
I0403 15:19:53.326933  2969 net.cpp:386] inception_3a/relu_3x3 -> inception_3a/3x3 (in-place)
I0403 15:19:53.327230  2969 net.cpp:141] Setting up inception_3a/relu_3x3
I0403 15:19:53.327266  2969 net.cpp:148] Top shape: 24 128 28 28 (2408448)
I0403 15:19:53.327282  2969 net.cpp:156] Memory required for data: 534676512
I0403 15:19:53.327298  2969 layer_factory.hpp:77] Creating layer inception_3a/5x5_reduce
I0403 15:19:53.327322  2969 net.cpp:91] Creating Layer inception_3a/5x5_reduce
I0403 15:19:53.327340  2969 net.cpp:425] inception_3a/5x5_reduce <- pool2/3x3_s2_pool2/3x3_s2_0_split_2
I0403 15:19:53.327363  2969 net.cpp:399] inception_3a/5x5_reduce -> inception_3a/5x5_reduce
I0403 15:19:53.328385  2969 net.cpp:141] Setting up inception_3a/5x5_reduce
I0403 15:19:53.328415  2969 net.cpp:148] Top shape: 24 16 28 28 (301056)
I0403 15:19:53.328433  2969 net.cpp:156] Memory required for data: 535880736
I0403 15:19:53.328451  2969 layer_factory.hpp:77] Creating layer inception_3a/relu_5x5_reduce
I0403 15:19:53.328474  2969 net.cpp:91] Creating Layer inception_3a/relu_5x5_reduce
I0403 15:19:53.328490  2969 net.cpp:425] inception_3a/relu_5x5_reduce <- inception_3a/5x5_reduce
I0403 15:19:53.328510  2969 net.cpp:386] inception_3a/relu_5x5_reduce -> inception_3a/5x5_reduce (in-place)
I0403 15:19:53.328825  2969 net.cpp:141] Setting up inception_3a/relu_5x5_reduce
I0403 15:19:53.328853  2969 net.cpp:148] Top shape: 24 16 28 28 (301056)
I0403 15:19:53.328872  2969 net.cpp:156] Memory required for data: 537084960
I0403 15:19:53.328888  2969 layer_factory.hpp:77] Creating layer inception_3a/5x5
I0403 15:19:53.328910  2969 net.cpp:91] Creating Layer inception_3a/5x5
I0403 15:19:53.328927  2969 net.cpp:425] inception_3a/5x5 <- inception_3a/5x5_reduce
I0403 15:19:53.328951  2969 net.cpp:399] inception_3a/5x5 -> inception_3a/5x5
I0403 15:19:53.330024  2969 net.cpp:141] Setting up inception_3a/5x5
I0403 15:19:53.330054  2969 net.cpp:148] Top shape: 24 32 28 28 (602112)
I0403 15:19:53.330070  2969 net.cpp:156] Memory required for data: 539493408
I0403 15:19:53.330090  2969 layer_factory.hpp:77] Creating layer inception_3a/relu_5x5
I0403 15:19:53.330111  2969 net.cpp:91] Creating Layer inception_3a/relu_5x5
I0403 15:19:53.330130  2969 net.cpp:425] inception_3a/relu_5x5 <- inception_3a/5x5
I0403 15:19:53.330148  2969 net.cpp:386] inception_3a/relu_5x5 -> inception_3a/5x5 (in-place)
I0403 15:19:53.330335  2969 net.cpp:141] Setting up inception_3a/relu_5x5
I0403 15:19:53.330363  2969 net.cpp:148] Top shape: 24 32 28 28 (602112)
I0403 15:19:53.330379  2969 net.cpp:156] Memory required for data: 541901856
I0403 15:19:53.330394  2969 layer_factory.hpp:77] Creating layer inception_3a/pool
I0403 15:19:53.330415  2969 net.cpp:91] Creating Layer inception_3a/pool
I0403 15:19:53.330447  2969 net.cpp:425] inception_3a/pool <- pool2/3x3_s2_pool2/3x3_s2_0_split_3
I0403 15:19:53.330467  2969 net.cpp:399] inception_3a/pool -> inception_3a/pool
I0403 15:19:53.330530  2969 net.cpp:141] Setting up inception_3a/pool
I0403 15:19:53.330555  2969 net.cpp:148] Top shape: 24 192 28 28 (3612672)
I0403 15:19:53.330571  2969 net.cpp:156] Memory required for data: 556352544
I0403 15:19:53.330587  2969 layer_factory.hpp:77] Creating layer inception_3a/pool_proj
I0403 15:19:53.330610  2969 net.cpp:91] Creating Layer inception_3a/pool_proj
I0403 15:19:53.330629  2969 net.cpp:425] inception_3a/pool_proj <- inception_3a/pool
I0403 15:19:53.330653  2969 net.cpp:399] inception_3a/pool_proj -> inception_3a/pool_proj
I0403 15:19:53.331682  2969 net.cpp:141] Setting up inception_3a/pool_proj
I0403 15:19:53.331715  2969 net.cpp:148] Top shape: 24 32 28 28 (602112)
I0403 15:19:53.331732  2969 net.cpp:156] Memory required for data: 558760992
I0403 15:19:53.331756  2969 layer_factory.hpp:77] Creating layer inception_3a/relu_pool_proj
I0403 15:19:53.331779  2969 net.cpp:91] Creating Layer inception_3a/relu_pool_proj
I0403 15:19:53.331796  2969 net.cpp:425] inception_3a/relu_pool_proj <- inception_3a/pool_proj
I0403 15:19:53.331815  2969 net.cpp:386] inception_3a/relu_pool_proj -> inception_3a/pool_proj (in-place)
I0403 15:19:53.332101  2969 net.cpp:141] Setting up inception_3a/relu_pool_proj
I0403 15:19:53.332132  2969 net.cpp:148] Top shape: 24 32 28 28 (602112)
I0403 15:19:53.332149  2969 net.cpp:156] Memory required for data: 561169440
I0403 15:19:53.332167  2969 layer_factory.hpp:77] Creating layer inception_3a/output
I0403 15:19:53.332212  2969 net.cpp:91] Creating Layer inception_3a/output
I0403 15:19:53.332231  2969 net.cpp:425] inception_3a/output <- inception_3a/1x1
I0403 15:19:53.332249  2969 net.cpp:425] inception_3a/output <- inception_3a/3x3
I0403 15:19:53.332281  2969 net.cpp:425] inception_3a/output <- inception_3a/5x5
I0403 15:19:53.332298  2969 net.cpp:425] inception_3a/output <- inception_3a/pool_proj
I0403 15:19:53.332317  2969 net.cpp:399] inception_3a/output -> inception_3a/output
I0403 15:19:53.332365  2969 net.cpp:141] Setting up inception_3a/output
I0403 15:19:53.332393  2969 net.cpp:148] Top shape: 24 256 28 28 (4816896)
I0403 15:19:53.332409  2969 net.cpp:156] Memory required for data: 580437024
I0403 15:19:53.332425  2969 layer_factory.hpp:77] Creating layer inception_3a/output_inception_3a/output_0_split
I0403 15:19:53.332443  2969 net.cpp:91] Creating Layer inception_3a/output_inception_3a/output_0_split
I0403 15:19:53.332460  2969 net.cpp:425] inception_3a/output_inception_3a/output_0_split <- inception_3a/output
I0403 15:19:53.332481  2969 net.cpp:399] inception_3a/output_inception_3a/output_0_split -> inception_3a/output_inception_3a/output_0_split_0
I0403 15:19:53.332504  2969 net.cpp:399] inception_3a/output_inception_3a/output_0_split -> inception_3a/output_inception_3a/output_0_split_1
I0403 15:19:53.332527  2969 net.cpp:399] inception_3a/output_inception_3a/output_0_split -> inception_3a/output_inception_3a/output_0_split_2
I0403 15:19:53.332558  2969 net.cpp:399] inception_3a/output_inception_3a/output_0_split -> inception_3a/output_inception_3a/output_0_split_3
I0403 15:19:53.332640  2969 net.cpp:141] Setting up inception_3a/output_inception_3a/output_0_split
I0403 15:19:53.332664  2969 net.cpp:148] Top shape: 24 256 28 28 (4816896)
I0403 15:19:53.332684  2969 net.cpp:148] Top shape: 24 256 28 28 (4816896)
I0403 15:19:53.332702  2969 net.cpp:148] Top shape: 24 256 28 28 (4816896)
I0403 15:19:53.332718  2969 net.cpp:148] Top shape: 24 256 28 28 (4816896)
I0403 15:19:53.332733  2969 net.cpp:156] Memory required for data: 657507360
I0403 15:19:53.332749  2969 layer_factory.hpp:77] Creating layer inception_3b/1x1
I0403 15:19:53.332773  2969 net.cpp:91] Creating Layer inception_3b/1x1
I0403 15:19:53.332792  2969 net.cpp:425] inception_3b/1x1 <- inception_3a/output_inception_3a/output_0_split_0
I0403 15:19:53.332814  2969 net.cpp:399] inception_3b/1x1 -> inception_3b/1x1
I0403 15:19:53.334017  2969 net.cpp:141] Setting up inception_3b/1x1
I0403 15:19:53.334059  2969 net.cpp:148] Top shape: 24 128 28 28 (2408448)
I0403 15:19:53.334079  2969 net.cpp:156] Memory required for data: 667141152
I0403 15:19:53.334097  2969 layer_factory.hpp:77] Creating layer inception_3b/relu_1x1
I0403 15:19:53.334117  2969 net.cpp:91] Creating Layer inception_3b/relu_1x1
I0403 15:19:53.334136  2969 net.cpp:425] inception_3b/relu_1x1 <- inception_3b/1x1
I0403 15:19:53.334157  2969 net.cpp:386] inception_3b/relu_1x1 -> inception_3b/1x1 (in-place)
I0403 15:19:53.334350  2969 net.cpp:141] Setting up inception_3b/relu_1x1
I0403 15:19:53.334379  2969 net.cpp:148] Top shape: 24 128 28 28 (2408448)
I0403 15:19:53.334399  2969 net.cpp:156] Memory required for data: 676774944
I0403 15:19:53.334415  2969 layer_factory.hpp:77] Creating layer inception_3b/3x3_reduce
I0403 15:19:53.334439  2969 net.cpp:91] Creating Layer inception_3b/3x3_reduce
I0403 15:19:53.334456  2969 net.cpp:425] inception_3b/3x3_reduce <- inception_3a/output_inception_3a/output_0_split_1
I0403 15:19:53.334480  2969 net.cpp:399] inception_3b/3x3_reduce -> inception_3b/3x3_reduce
I0403 15:19:53.335686  2969 net.cpp:141] Setting up inception_3b/3x3_reduce
I0403 15:19:53.335721  2969 net.cpp:148] Top shape: 24 128 28 28 (2408448)
I0403 15:19:53.335738  2969 net.cpp:156] Memory required for data: 686408736
I0403 15:19:53.335758  2969 layer_factory.hpp:77] Creating layer inception_3b/relu_3x3_reduce
I0403 15:19:53.335778  2969 net.cpp:91] Creating Layer inception_3b/relu_3x3_reduce
I0403 15:19:53.335795  2969 net.cpp:425] inception_3b/relu_3x3_reduce <- inception_3b/3x3_reduce
I0403 15:19:53.335819  2969 net.cpp:386] inception_3b/relu_3x3_reduce -> inception_3b/3x3_reduce (in-place)
I0403 15:19:53.336000  2969 net.cpp:141] Setting up inception_3b/relu_3x3_reduce
I0403 15:19:53.336030  2969 net.cpp:148] Top shape: 24 128 28 28 (2408448)
I0403 15:19:53.336046  2969 net.cpp:156] Memory required for data: 696042528
I0403 15:19:53.336062  2969 layer_factory.hpp:77] Creating layer inception_3b/3x3
I0403 15:19:53.336092  2969 net.cpp:91] Creating Layer inception_3b/3x3
I0403 15:19:53.336112  2969 net.cpp:425] inception_3b/3x3 <- inception_3b/3x3_reduce
I0403 15:19:53.336133  2969 net.cpp:399] inception_3b/3x3 -> inception_3b/3x3
I0403 15:19:53.339216  2969 net.cpp:141] Setting up inception_3b/3x3
I0403 15:19:53.339248  2969 net.cpp:148] Top shape: 24 192 28 28 (3612672)
I0403 15:19:53.339272  2969 net.cpp:156] Memory required for data: 710493216
I0403 15:19:53.339293  2969 layer_factory.hpp:77] Creating layer inception_3b/relu_3x3
I0403 15:19:53.339315  2969 net.cpp:91] Creating Layer inception_3b/relu_3x3
I0403 15:19:53.339334  2969 net.cpp:425] inception_3b/relu_3x3 <- inception_3b/3x3
I0403 15:19:53.339354  2969 net.cpp:386] inception_3b/relu_3x3 -> inception_3b/3x3 (in-place)
I0403 15:19:53.339644  2969 net.cpp:141] Setting up inception_3b/relu_3x3
I0403 15:19:53.339673  2969 net.cpp:148] Top shape: 24 192 28 28 (3612672)
I0403 15:19:53.339690  2969 net.cpp:156] Memory required for data: 724943904
I0403 15:19:53.339707  2969 layer_factory.hpp:77] Creating layer inception_3b/5x5_reduce
I0403 15:19:53.339732  2969 net.cpp:91] Creating Layer inception_3b/5x5_reduce
I0403 15:19:53.339753  2969 net.cpp:425] inception_3b/5x5_reduce <- inception_3a/output_inception_3a/output_0_split_2
I0403 15:19:53.339777  2969 net.cpp:399] inception_3b/5x5_reduce -> inception_3b/5x5_reduce
I0403 15:19:53.340842  2969 net.cpp:141] Setting up inception_3b/5x5_reduce
I0403 15:19:53.340873  2969 net.cpp:148] Top shape: 24 32 28 28 (602112)
I0403 15:19:53.340890  2969 net.cpp:156] Memory required for data: 727352352
I0403 15:19:53.340910  2969 layer_factory.hpp:77] Creating layer inception_3b/relu_5x5_reduce
I0403 15:19:53.340934  2969 net.cpp:91] Creating Layer inception_3b/relu_5x5_reduce
I0403 15:19:53.340951  2969 net.cpp:425] inception_3b/relu_5x5_reduce <- inception_3b/5x5_reduce
I0403 15:19:53.340970  2969 net.cpp:386] inception_3b/relu_5x5_reduce -> inception_3b/5x5_reduce (in-place)
I0403 15:19:53.341182  2969 net.cpp:141] Setting up inception_3b/relu_5x5_reduce
I0403 15:19:53.341212  2969 net.cpp:148] Top shape: 24 32 28 28 (602112)
I0403 15:19:53.341228  2969 net.cpp:156] Memory required for data: 729760800
I0403 15:19:53.341244  2969 layer_factory.hpp:77] Creating layer inception_3b/5x5
I0403 15:19:53.341269  2969 net.cpp:91] Creating Layer inception_3b/5x5
I0403 15:19:53.341287  2969 net.cpp:425] inception_3b/5x5 <- inception_3b/5x5_reduce
I0403 15:19:53.341310  2969 net.cpp:399] inception_3b/5x5 -> inception_3b/5x5
I0403 15:19:53.343412  2969 net.cpp:141] Setting up inception_3b/5x5
I0403 15:19:53.343446  2969 net.cpp:148] Top shape: 24 96 28 28 (1806336)
I0403 15:19:53.343466  2969 net.cpp:156] Memory required for data: 736986144
I0403 15:19:53.343487  2969 layer_factory.hpp:77] Creating layer inception_3b/relu_5x5
I0403 15:19:53.343507  2969 net.cpp:91] Creating Layer inception_3b/relu_5x5
I0403 15:19:53.343524  2969 net.cpp:425] inception_3b/relu_5x5 <- inception_3b/5x5
I0403 15:19:53.343554  2969 net.cpp:386] inception_3b/relu_5x5 -> inception_3b/5x5 (in-place)
I0403 15:19:53.343756  2969 net.cpp:141] Setting up inception_3b/relu_5x5
I0403 15:19:53.343787  2969 net.cpp:148] Top shape: 24 96 28 28 (1806336)
I0403 15:19:53.343804  2969 net.cpp:156] Memory required for data: 744211488
I0403 15:19:53.343822  2969 layer_factory.hpp:77] Creating layer inception_3b/pool
I0403 15:19:53.343842  2969 net.cpp:91] Creating Layer inception_3b/pool
I0403 15:19:53.343858  2969 net.cpp:425] inception_3b/pool <- inception_3a/output_inception_3a/output_0_split_3
I0403 15:19:53.343878  2969 net.cpp:399] inception_3b/pool -> inception_3b/pool
I0403 15:19:53.343938  2969 net.cpp:141] Setting up inception_3b/pool
I0403 15:19:53.343964  2969 net.cpp:148] Top shape: 24 256 28 28 (4816896)
I0403 15:19:53.343981  2969 net.cpp:156] Memory required for data: 763479072
I0403 15:19:53.343997  2969 layer_factory.hpp:77] Creating layer inception_3b/pool_proj
I0403 15:19:53.344023  2969 net.cpp:91] Creating Layer inception_3b/pool_proj
I0403 15:19:53.344044  2969 net.cpp:425] inception_3b/pool_proj <- inception_3b/pool
I0403 15:19:53.344065  2969 net.cpp:399] inception_3b/pool_proj -> inception_3b/pool_proj
I0403 15:19:53.345186  2969 net.cpp:141] Setting up inception_3b/pool_proj
I0403 15:19:53.345216  2969 net.cpp:148] Top shape: 24 64 28 28 (1204224)
I0403 15:19:53.345234  2969 net.cpp:156] Memory required for data: 768295968
I0403 15:19:53.345254  2969 layer_factory.hpp:77] Creating layer inception_3b/relu_pool_proj
I0403 15:19:53.345275  2969 net.cpp:91] Creating Layer inception_3b/relu_pool_proj
I0403 15:19:53.345293  2969 net.cpp:425] inception_3b/relu_pool_proj <- inception_3b/pool_proj
I0403 15:19:53.345312  2969 net.cpp:386] inception_3b/relu_pool_proj -> inception_3b/pool_proj (in-place)
I0403 15:19:53.345727  2969 net.cpp:141] Setting up inception_3b/relu_pool_proj
I0403 15:19:53.345757  2969 net.cpp:148] Top shape: 24 64 28 28 (1204224)
I0403 15:19:53.345774  2969 net.cpp:156] Memory required for data: 773112864
I0403 15:19:53.345793  2969 layer_factory.hpp:77] Creating layer inception_3b/output
I0403 15:19:53.345813  2969 net.cpp:91] Creating Layer inception_3b/output
I0403 15:19:53.345832  2969 net.cpp:425] inception_3b/output <- inception_3b/1x1
I0403 15:19:53.345851  2969 net.cpp:425] inception_3b/output <- inception_3b/3x3
I0403 15:19:53.345870  2969 net.cpp:425] inception_3b/output <- inception_3b/5x5
I0403 15:19:53.345886  2969 net.cpp:425] inception_3b/output <- inception_3b/pool_proj
I0403 15:19:53.345906  2969 net.cpp:399] inception_3b/output -> inception_3b/output
I0403 15:19:53.345953  2969 net.cpp:141] Setting up inception_3b/output
I0403 15:19:53.345978  2969 net.cpp:148] Top shape: 24 480 28 28 (9031680)
I0403 15:19:53.345993  2969 net.cpp:156] Memory required for data: 809239584
I0403 15:19:53.346009  2969 layer_factory.hpp:77] Creating layer pool3/3x3_s2
I0403 15:19:53.346026  2969 net.cpp:91] Creating Layer pool3/3x3_s2
I0403 15:19:53.346043  2969 net.cpp:425] pool3/3x3_s2 <- inception_3b/output
I0403 15:19:53.346079  2969 net.cpp:399] pool3/3x3_s2 -> pool3/3x3_s2
I0403 15:19:53.346141  2969 net.cpp:141] Setting up pool3/3x3_s2
I0403 15:19:53.346169  2969 net.cpp:148] Top shape: 24 480 14 14 (2257920)
I0403 15:19:53.346192  2969 net.cpp:156] Memory required for data: 818271264
I0403 15:19:53.346210  2969 layer_factory.hpp:77] Creating layer pool3/3x3_s2_pool3/3x3_s2_0_split
I0403 15:19:53.346227  2969 net.cpp:91] Creating Layer pool3/3x3_s2_pool3/3x3_s2_0_split
I0403 15:19:53.346243  2969 net.cpp:425] pool3/3x3_s2_pool3/3x3_s2_0_split <- pool3/3x3_s2
I0403 15:19:53.346261  2969 net.cpp:399] pool3/3x3_s2_pool3/3x3_s2_0_split -> pool3/3x3_s2_pool3/3x3_s2_0_split_0
I0403 15:19:53.346284  2969 net.cpp:399] pool3/3x3_s2_pool3/3x3_s2_0_split -> pool3/3x3_s2_pool3/3x3_s2_0_split_1
I0403 15:19:53.346307  2969 net.cpp:399] pool3/3x3_s2_pool3/3x3_s2_0_split -> pool3/3x3_s2_pool3/3x3_s2_0_split_2
I0403 15:19:53.346328  2969 net.cpp:399] pool3/3x3_s2_pool3/3x3_s2_0_split -> pool3/3x3_s2_pool3/3x3_s2_0_split_3
I0403 15:19:53.346410  2969 net.cpp:141] Setting up pool3/3x3_s2_pool3/3x3_s2_0_split
I0403 15:19:53.346434  2969 net.cpp:148] Top shape: 24 480 14 14 (2257920)
I0403 15:19:53.346452  2969 net.cpp:148] Top shape: 24 480 14 14 (2257920)
I0403 15:19:53.346469  2969 net.cpp:148] Top shape: 24 480 14 14 (2257920)
I0403 15:19:53.346487  2969 net.cpp:148] Top shape: 24 480 14 14 (2257920)
I0403 15:19:53.346501  2969 net.cpp:156] Memory required for data: 854397984
I0403 15:19:53.346516  2969 layer_factory.hpp:77] Creating layer inception_4a/1x1
I0403 15:19:53.346540  2969 net.cpp:91] Creating Layer inception_4a/1x1
I0403 15:19:53.346560  2969 net.cpp:425] inception_4a/1x1 <- pool3/3x3_s2_pool3/3x3_s2_0_split_0
I0403 15:19:53.346580  2969 net.cpp:399] inception_4a/1x1 -> inception_4a/1x1
I0403 15:19:53.348251  2969 net.cpp:141] Setting up inception_4a/1x1
I0403 15:19:53.348283  2969 net.cpp:148] Top shape: 24 192 14 14 (903168)
I0403 15:19:53.348299  2969 net.cpp:156] Memory required for data: 858010656
I0403 15:19:53.348320  2969 layer_factory.hpp:77] Creating layer inception_4a/relu_1x1
I0403 15:19:53.348341  2969 net.cpp:91] Creating Layer inception_4a/relu_1x1
I0403 15:19:53.348361  2969 net.cpp:425] inception_4a/relu_1x1 <- inception_4a/1x1
I0403 15:19:53.348378  2969 net.cpp:386] inception_4a/relu_1x1 -> inception_4a/1x1 (in-place)
I0403 15:19:53.348568  2969 net.cpp:141] Setting up inception_4a/relu_1x1
I0403 15:19:53.348595  2969 net.cpp:148] Top shape: 24 192 14 14 (903168)
I0403 15:19:53.348611  2969 net.cpp:156] Memory required for data: 861623328
I0403 15:19:53.348628  2969 layer_factory.hpp:77] Creating layer inception_4a/3x3_reduce
I0403 15:19:53.348651  2969 net.cpp:91] Creating Layer inception_4a/3x3_reduce
I0403 15:19:53.348670  2969 net.cpp:425] inception_4a/3x3_reduce <- pool3/3x3_s2_pool3/3x3_s2_0_split_1
I0403 15:19:53.348691  2969 net.cpp:399] inception_4a/3x3_reduce -> inception_4a/3x3_reduce
I0403 15:19:53.350044  2969 net.cpp:141] Setting up inception_4a/3x3_reduce
I0403 15:19:53.350085  2969 net.cpp:148] Top shape: 24 96 14 14 (451584)
I0403 15:19:53.350102  2969 net.cpp:156] Memory required for data: 863429664
I0403 15:19:53.350127  2969 layer_factory.hpp:77] Creating layer inception_4a/relu_3x3_reduce
I0403 15:19:53.350152  2969 net.cpp:91] Creating Layer inception_4a/relu_3x3_reduce
I0403 15:19:53.350169  2969 net.cpp:425] inception_4a/relu_3x3_reduce <- inception_4a/3x3_reduce
I0403 15:19:53.350196  2969 net.cpp:386] inception_4a/relu_3x3_reduce -> inception_4a/3x3_reduce (in-place)
I0403 15:19:53.350395  2969 net.cpp:141] Setting up inception_4a/relu_3x3_reduce
I0403 15:19:53.350425  2969 net.cpp:148] Top shape: 24 96 14 14 (451584)
I0403 15:19:53.350440  2969 net.cpp:156] Memory required for data: 865236000
I0403 15:19:53.350455  2969 layer_factory.hpp:77] Creating layer inception_4a/3x3
I0403 15:19:53.350481  2969 net.cpp:91] Creating Layer inception_4a/3x3
I0403 15:19:53.350499  2969 net.cpp:425] inception_4a/3x3 <- inception_4a/3x3_reduce
I0403 15:19:53.350522  2969 net.cpp:399] inception_4a/3x3 -> inception_4a/3x3
I0403 15:19:53.353375  2969 net.cpp:141] Setting up inception_4a/3x3
I0403 15:19:53.353410  2969 net.cpp:148] Top shape: 24 208 14 14 (978432)
I0403 15:19:53.353430  2969 net.cpp:156] Memory required for data: 869149728
I0403 15:19:53.353451  2969 layer_factory.hpp:77] Creating layer inception_4a/relu_3x3
I0403 15:19:53.353469  2969 net.cpp:91] Creating Layer inception_4a/relu_3x3
I0403 15:19:53.353487  2969 net.cpp:425] inception_4a/relu_3x3 <- inception_4a/3x3
I0403 15:19:53.353509  2969 net.cpp:386] inception_4a/relu_3x3 -> inception_4a/3x3 (in-place)
I0403 15:19:53.353801  2969 net.cpp:141] Setting up inception_4a/relu_3x3
I0403 15:19:53.353832  2969 net.cpp:148] Top shape: 24 208 14 14 (978432)
I0403 15:19:53.353848  2969 net.cpp:156] Memory required for data: 873063456
I0403 15:19:53.353864  2969 layer_factory.hpp:77] Creating layer inception_4a/5x5_reduce
I0403 15:19:53.353889  2969 net.cpp:91] Creating Layer inception_4a/5x5_reduce
I0403 15:19:53.353909  2969 net.cpp:425] inception_4a/5x5_reduce <- pool3/3x3_s2_pool3/3x3_s2_0_split_2
I0403 15:19:53.353929  2969 net.cpp:399] inception_4a/5x5_reduce -> inception_4a/5x5_reduce
I0403 15:19:53.355015  2969 net.cpp:141] Setting up inception_4a/5x5_reduce
I0403 15:19:53.355046  2969 net.cpp:148] Top shape: 24 16 14 14 (75264)
I0403 15:19:53.355062  2969 net.cpp:156] Memory required for data: 873364512
I0403 15:19:53.355082  2969 layer_factory.hpp:77] Creating layer inception_4a/relu_5x5_reduce
I0403 15:19:53.355103  2969 net.cpp:91] Creating Layer inception_4a/relu_5x5_reduce
I0403 15:19:53.355124  2969 net.cpp:425] inception_4a/relu_5x5_reduce <- inception_4a/5x5_reduce
I0403 15:19:53.355145  2969 net.cpp:386] inception_4a/relu_5x5_reduce -> inception_4a/5x5_reduce (in-place)
I0403 15:19:53.355340  2969 net.cpp:141] Setting up inception_4a/relu_5x5_reduce
I0403 15:19:53.355366  2969 net.cpp:148] Top shape: 24 16 14 14 (75264)
I0403 15:19:53.355381  2969 net.cpp:156] Memory required for data: 873665568
I0403 15:19:53.355396  2969 layer_factory.hpp:77] Creating layer inception_4a/5x5
I0403 15:19:53.355420  2969 net.cpp:91] Creating Layer inception_4a/5x5
I0403 15:19:53.355439  2969 net.cpp:425] inception_4a/5x5 <- inception_4a/5x5_reduce
I0403 15:19:53.355463  2969 net.cpp:399] inception_4a/5x5 -> inception_4a/5x5
I0403 15:19:53.356600  2969 net.cpp:141] Setting up inception_4a/5x5
I0403 15:19:53.356628  2969 net.cpp:148] Top shape: 24 48 14 14 (225792)
I0403 15:19:53.356644  2969 net.cpp:156] Memory required for data: 874568736
I0403 15:19:53.356663  2969 layer_factory.hpp:77] Creating layer inception_4a/relu_5x5
I0403 15:19:53.356684  2969 net.cpp:91] Creating Layer inception_4a/relu_5x5
I0403 15:19:53.356701  2969 net.cpp:425] inception_4a/relu_5x5 <- inception_4a/5x5
I0403 15:19:53.356719  2969 net.cpp:386] inception_4a/relu_5x5 -> inception_4a/5x5 (in-place)
I0403 15:19:53.356899  2969 net.cpp:141] Setting up inception_4a/relu_5x5
I0403 15:19:53.356927  2969 net.cpp:148] Top shape: 24 48 14 14 (225792)
I0403 15:19:53.356945  2969 net.cpp:156] Memory required for data: 875471904
I0403 15:19:53.356959  2969 layer_factory.hpp:77] Creating layer inception_4a/pool
I0403 15:19:53.356978  2969 net.cpp:91] Creating Layer inception_4a/pool
I0403 15:19:53.356994  2969 net.cpp:425] inception_4a/pool <- pool3/3x3_s2_pool3/3x3_s2_0_split_3
I0403 15:19:53.357015  2969 net.cpp:399] inception_4a/pool -> inception_4a/pool
I0403 15:19:53.357077  2969 net.cpp:141] Setting up inception_4a/pool
I0403 15:19:53.357102  2969 net.cpp:148] Top shape: 24 480 14 14 (2257920)
I0403 15:19:53.357118  2969 net.cpp:156] Memory required for data: 884503584
I0403 15:19:53.357134  2969 layer_factory.hpp:77] Creating layer inception_4a/pool_proj
I0403 15:19:53.357156  2969 net.cpp:91] Creating Layer inception_4a/pool_proj
I0403 15:19:53.357173  2969 net.cpp:425] inception_4a/pool_proj <- inception_4a/pool
I0403 15:19:53.357203  2969 net.cpp:399] inception_4a/pool_proj -> inception_4a/pool_proj
I0403 15:19:53.358417  2969 net.cpp:141] Setting up inception_4a/pool_proj
I0403 15:19:53.358450  2969 net.cpp:148] Top shape: 24 64 14 14 (301056)
I0403 15:19:53.358482  2969 net.cpp:156] Memory required for data: 885707808
I0403 15:19:53.358502  2969 layer_factory.hpp:77] Creating layer inception_4a/relu_pool_proj
I0403 15:19:53.358521  2969 net.cpp:91] Creating Layer inception_4a/relu_pool_proj
I0403 15:19:53.358537  2969 net.cpp:425] inception_4a/relu_pool_proj <- inception_4a/pool_proj
I0403 15:19:53.358556  2969 net.cpp:386] inception_4a/relu_pool_proj -> inception_4a/pool_proj (in-place)
I0403 15:19:53.358850  2969 net.cpp:141] Setting up inception_4a/relu_pool_proj
I0403 15:19:53.358880  2969 net.cpp:148] Top shape: 24 64 14 14 (301056)
I0403 15:19:53.358896  2969 net.cpp:156] Memory required for data: 886912032
I0403 15:19:53.358912  2969 layer_factory.hpp:77] Creating layer inception_4a/output
I0403 15:19:53.358930  2969 net.cpp:91] Creating Layer inception_4a/output
I0403 15:19:53.358947  2969 net.cpp:425] inception_4a/output <- inception_4a/1x1
I0403 15:19:53.358964  2969 net.cpp:425] inception_4a/output <- inception_4a/3x3
I0403 15:19:53.358981  2969 net.cpp:425] inception_4a/output <- inception_4a/5x5
I0403 15:19:53.358997  2969 net.cpp:425] inception_4a/output <- inception_4a/pool_proj
I0403 15:19:53.359015  2969 net.cpp:399] inception_4a/output -> inception_4a/output
I0403 15:19:53.359062  2969 net.cpp:141] Setting up inception_4a/output
I0403 15:19:53.359086  2969 net.cpp:148] Top shape: 24 512 14 14 (2408448)
I0403 15:19:53.359102  2969 net.cpp:156] Memory required for data: 896545824
I0403 15:19:53.359117  2969 layer_factory.hpp:77] Creating layer inception_4a/output_inception_4a/output_0_split
I0403 15:19:53.359138  2969 net.cpp:91] Creating Layer inception_4a/output_inception_4a/output_0_split
I0403 15:19:53.359154  2969 net.cpp:425] inception_4a/output_inception_4a/output_0_split <- inception_4a/output
I0403 15:19:53.359174  2969 net.cpp:399] inception_4a/output_inception_4a/output_0_split -> inception_4a/output_inception_4a/output_0_split_0
I0403 15:19:53.359203  2969 net.cpp:399] inception_4a/output_inception_4a/output_0_split -> inception_4a/output_inception_4a/output_0_split_1
I0403 15:19:53.359225  2969 net.cpp:399] inception_4a/output_inception_4a/output_0_split -> inception_4a/output_inception_4a/output_0_split_2
I0403 15:19:53.359246  2969 net.cpp:399] inception_4a/output_inception_4a/output_0_split -> inception_4a/output_inception_4a/output_0_split_3
I0403 15:19:53.359271  2969 net.cpp:399] inception_4a/output_inception_4a/output_0_split -> inception_4a/output_inception_4a/output_0_split_4
I0403 15:19:53.359372  2969 net.cpp:141] Setting up inception_4a/output_inception_4a/output_0_split
I0403 15:19:53.359396  2969 net.cpp:148] Top shape: 24 512 14 14 (2408448)
I0403 15:19:53.359414  2969 net.cpp:148] Top shape: 24 512 14 14 (2408448)
I0403 15:19:53.359431  2969 net.cpp:148] Top shape: 24 512 14 14 (2408448)
I0403 15:19:53.359447  2969 net.cpp:148] Top shape: 24 512 14 14 (2408448)
I0403 15:19:53.359463  2969 net.cpp:148] Top shape: 24 512 14 14 (2408448)
I0403 15:19:53.359477  2969 net.cpp:156] Memory required for data: 944714784
I0403 15:19:53.359493  2969 layer_factory.hpp:77] Creating layer loss1/ave_pool
I0403 15:19:53.359511  2969 net.cpp:91] Creating Layer loss1/ave_pool
I0403 15:19:53.359527  2969 net.cpp:425] loss1/ave_pool <- inception_4a/output_inception_4a/output_0_split_0
I0403 15:19:53.359549  2969 net.cpp:399] loss1/ave_pool -> loss1/ave_pool
I0403 15:19:53.359758  2969 net.cpp:141] Setting up loss1/ave_pool
I0403 15:19:53.359788  2969 net.cpp:148] Top shape: 24 512 4 4 (196608)
I0403 15:19:53.359804  2969 net.cpp:156] Memory required for data: 945501216
I0403 15:19:53.359819  2969 layer_factory.hpp:77] Creating layer loss1/conv
I0403 15:19:53.359843  2969 net.cpp:91] Creating Layer loss1/conv
I0403 15:19:53.359859  2969 net.cpp:425] loss1/conv <- loss1/ave_pool
I0403 15:19:53.359879  2969 net.cpp:399] loss1/conv -> loss1/conv
I0403 15:19:53.361371  2969 net.cpp:141] Setting up loss1/conv
I0403 15:19:53.361402  2969 net.cpp:148] Top shape: 24 128 4 4 (49152)
I0403 15:19:53.361435  2969 net.cpp:156] Memory required for data: 945697824
I0403 15:19:53.361456  2969 layer_factory.hpp:77] Creating layer loss1/relu_conv
I0403 15:19:53.361476  2969 net.cpp:91] Creating Layer loss1/relu_conv
I0403 15:19:53.361493  2969 net.cpp:425] loss1/relu_conv <- loss1/conv
I0403 15:19:53.361515  2969 net.cpp:386] loss1/relu_conv -> loss1/conv (in-place)
I0403 15:19:53.361812  2969 net.cpp:141] Setting up loss1/relu_conv
I0403 15:19:53.361842  2969 net.cpp:148] Top shape: 24 128 4 4 (49152)
I0403 15:19:53.361860  2969 net.cpp:156] Memory required for data: 945894432
I0403 15:19:53.361876  2969 layer_factory.hpp:77] Creating layer loss1/fc
I0403 15:19:53.361901  2969 net.cpp:91] Creating Layer loss1/fc
I0403 15:19:53.361922  2969 net.cpp:425] loss1/fc <- loss1/conv
I0403 15:19:53.361945  2969 net.cpp:399] loss1/fc -> loss1/fc
I0403 15:19:53.380329  2969 net.cpp:141] Setting up loss1/fc
I0403 15:19:53.380364  2969 net.cpp:148] Top shape: 24 1024 (24576)
I0403 15:19:53.380381  2969 net.cpp:156] Memory required for data: 945992736
I0403 15:19:53.380401  2969 layer_factory.hpp:77] Creating layer loss1/relu_fc
I0403 15:19:53.380422  2969 net.cpp:91] Creating Layer loss1/relu_fc
I0403 15:19:53.380441  2969 net.cpp:425] loss1/relu_fc <- loss1/fc
I0403 15:19:53.380460  2969 net.cpp:386] loss1/relu_fc -> loss1/fc (in-place)
I0403 15:19:53.380656  2969 net.cpp:141] Setting up loss1/relu_fc
I0403 15:19:53.380682  2969 net.cpp:148] Top shape: 24 1024 (24576)
I0403 15:19:53.380698  2969 net.cpp:156] Memory required for data: 946091040
I0403 15:19:53.380722  2969 layer_factory.hpp:77] Creating layer loss1/drop_fc
I0403 15:19:53.380749  2969 net.cpp:91] Creating Layer loss1/drop_fc
I0403 15:19:53.380769  2969 net.cpp:425] loss1/drop_fc <- loss1/fc
I0403 15:19:53.380790  2969 net.cpp:386] loss1/drop_fc -> loss1/fc (in-place)
I0403 15:19:53.380842  2969 net.cpp:141] Setting up loss1/drop_fc
I0403 15:19:53.380867  2969 net.cpp:148] Top shape: 24 1024 (24576)
I0403 15:19:53.380882  2969 net.cpp:156] Memory required for data: 946189344
I0403 15:19:53.380897  2969 layer_factory.hpp:77] Creating layer loss1/classifier_plantvillage
I0403 15:19:53.380919  2969 net.cpp:91] Creating Layer loss1/classifier_plantvillage
I0403 15:19:53.380938  2969 net.cpp:425] loss1/classifier_plantvillage <- loss1/fc
I0403 15:19:53.380959  2969 net.cpp:399] loss1/classifier_plantvillage -> loss1/classifier_plantvillage
I0403 15:19:53.381911  2969 net.cpp:141] Setting up loss1/classifier_plantvillage
I0403 15:19:53.381942  2969 net.cpp:148] Top shape: 24 38 (912)
I0403 15:19:53.381958  2969 net.cpp:156] Memory required for data: 946192992
I0403 15:19:53.381978  2969 layer_factory.hpp:77] Creating layer loss1/classifier_plantvillage_loss1/classifier_plantvillage_0_split
I0403 15:19:53.381996  2969 net.cpp:91] Creating Layer loss1/classifier_plantvillage_loss1/classifier_plantvillage_0_split
I0403 15:19:53.382014  2969 net.cpp:425] loss1/classifier_plantvillage_loss1/classifier_plantvillage_0_split <- loss1/classifier_plantvillage
I0403 15:19:53.382033  2969 net.cpp:399] loss1/classifier_plantvillage_loss1/classifier_plantvillage_0_split -> loss1/classifier_plantvillage_loss1/classifier_plantvillage_0_split_0
I0403 15:19:53.382055  2969 net.cpp:399] loss1/classifier_plantvillage_loss1/classifier_plantvillage_0_split -> loss1/classifier_plantvillage_loss1/classifier_plantvillage_0_split_1
I0403 15:19:53.382076  2969 net.cpp:399] loss1/classifier_plantvillage_loss1/classifier_plantvillage_0_split -> loss1/classifier_plantvillage_loss1/classifier_plantvillage_0_split_2
I0403 15:19:53.382144  2969 net.cpp:141] Setting up loss1/classifier_plantvillage_loss1/classifier_plantvillage_0_split
I0403 15:19:53.382169  2969 net.cpp:148] Top shape: 24 38 (912)
I0403 15:19:53.382200  2969 net.cpp:148] Top shape: 24 38 (912)
I0403 15:19:53.382218  2969 net.cpp:148] Top shape: 24 38 (912)
I0403 15:19:53.382232  2969 net.cpp:156] Memory required for data: 946203936
I0403 15:19:53.382247  2969 layer_factory.hpp:77] Creating layer inception_4b/1x1
I0403 15:19:53.382271  2969 net.cpp:91] Creating Layer inception_4b/1x1
I0403 15:19:53.382304  2969 net.cpp:425] inception_4b/1x1 <- inception_4a/output_inception_4a/output_0_split_1
I0403 15:19:53.382325  2969 net.cpp:399] inception_4b/1x1 -> inception_4b/1x1
I0403 15:19:53.384027  2969 net.cpp:141] Setting up inception_4b/1x1
I0403 15:19:53.384057  2969 net.cpp:148] Top shape: 24 160 14 14 (752640)
I0403 15:19:53.384075  2969 net.cpp:156] Memory required for data: 949214496
I0403 15:19:53.384095  2969 layer_factory.hpp:77] Creating layer inception_4b/relu_1x1
I0403 15:19:53.384114  2969 net.cpp:91] Creating Layer inception_4b/relu_1x1
I0403 15:19:53.384138  2969 net.cpp:425] inception_4b/relu_1x1 <- inception_4b/1x1
I0403 15:19:53.384158  2969 net.cpp:386] inception_4b/relu_1x1 -> inception_4b/1x1 (in-place)
I0403 15:19:53.384346  2969 net.cpp:141] Setting up inception_4b/relu_1x1
I0403 15:19:53.384372  2969 net.cpp:148] Top shape: 24 160 14 14 (752640)
I0403 15:19:53.384389  2969 net.cpp:156] Memory required for data: 952225056
I0403 15:19:53.384405  2969 layer_factory.hpp:77] Creating layer inception_4b/3x3_reduce
I0403 15:19:53.384428  2969 net.cpp:91] Creating Layer inception_4b/3x3_reduce
I0403 15:19:53.384446  2969 net.cpp:425] inception_4b/3x3_reduce <- inception_4a/output_inception_4a/output_0_split_2
I0403 15:19:53.384469  2969 net.cpp:399] inception_4b/3x3_reduce -> inception_4b/3x3_reduce
I0403 15:19:53.385900  2969 net.cpp:141] Setting up inception_4b/3x3_reduce
I0403 15:19:53.385928  2969 net.cpp:148] Top shape: 24 112 14 14 (526848)
I0403 15:19:53.385946  2969 net.cpp:156] Memory required for data: 954332448
I0403 15:19:53.385967  2969 layer_factory.hpp:77] Creating layer inception_4b/relu_3x3_reduce
I0403 15:19:53.385988  2969 net.cpp:91] Creating Layer inception_4b/relu_3x3_reduce
I0403 15:19:53.386008  2969 net.cpp:425] inception_4b/relu_3x3_reduce <- inception_4b/3x3_reduce
I0403 15:19:53.386025  2969 net.cpp:386] inception_4b/relu_3x3_reduce -> inception_4b/3x3_reduce (in-place)
I0403 15:19:53.386328  2969 net.cpp:141] Setting up inception_4b/relu_3x3_reduce
I0403 15:19:53.386356  2969 net.cpp:148] Top shape: 24 112 14 14 (526848)
I0403 15:19:53.386373  2969 net.cpp:156] Memory required for data: 956439840
I0403 15:19:53.386389  2969 layer_factory.hpp:77] Creating layer inception_4b/3x3
I0403 15:19:53.386414  2969 net.cpp:91] Creating Layer inception_4b/3x3
I0403 15:19:53.386432  2969 net.cpp:425] inception_4b/3x3 <- inception_4b/3x3_reduce
I0403 15:19:53.386456  2969 net.cpp:399] inception_4b/3x3 -> inception_4b/3x3
I0403 15:19:53.389677  2969 net.cpp:141] Setting up inception_4b/3x3
I0403 15:19:53.389710  2969 net.cpp:148] Top shape: 24 224 14 14 (1053696)
I0403 15:19:53.389729  2969 net.cpp:156] Memory required for data: 960654624
I0403 15:19:53.389749  2969 layer_factory.hpp:77] Creating layer inception_4b/relu_3x3
I0403 15:19:53.389767  2969 net.cpp:91] Creating Layer inception_4b/relu_3x3
I0403 15:19:53.389783  2969 net.cpp:425] inception_4b/relu_3x3 <- inception_4b/3x3
I0403 15:19:53.389804  2969 net.cpp:386] inception_4b/relu_3x3 -> inception_4b/3x3 (in-place)
I0403 15:19:53.389988  2969 net.cpp:141] Setting up inception_4b/relu_3x3
I0403 15:19:53.390014  2969 net.cpp:148] Top shape: 24 224 14 14 (1053696)
I0403 15:19:53.390029  2969 net.cpp:156] Memory required for data: 964869408
I0403 15:19:53.390045  2969 layer_factory.hpp:77] Creating layer inception_4b/5x5_reduce
I0403 15:19:53.390067  2969 net.cpp:91] Creating Layer inception_4b/5x5_reduce
I0403 15:19:53.390086  2969 net.cpp:425] inception_4b/5x5_reduce <- inception_4a/output_inception_4a/output_0_split_3
I0403 15:19:53.390110  2969 net.cpp:399] inception_4b/5x5_reduce -> inception_4b/5x5_reduce
I0403 15:19:53.391225  2969 net.cpp:141] Setting up inception_4b/5x5_reduce
I0403 15:19:53.391255  2969 net.cpp:148] Top shape: 24 24 14 14 (112896)
I0403 15:19:53.391273  2969 net.cpp:156] Memory required for data: 965320992
I0403 15:19:53.391294  2969 layer_factory.hpp:77] Creating layer inception_4b/relu_5x5_reduce
I0403 15:19:53.391315  2969 net.cpp:91] Creating Layer inception_4b/relu_5x5_reduce
I0403 15:19:53.391348  2969 net.cpp:425] inception_4b/relu_5x5_reduce <- inception_4b/5x5_reduce
I0403 15:19:53.391367  2969 net.cpp:386] inception_4b/relu_5x5_reduce -> inception_4b/5x5_reduce (in-place)
I0403 15:19:53.391553  2969 net.cpp:141] Setting up inception_4b/relu_5x5_reduce
I0403 15:19:53.391580  2969 net.cpp:148] Top shape: 24 24 14 14 (112896)
I0403 15:19:53.391598  2969 net.cpp:156] Memory required for data: 965772576
I0403 15:19:53.391614  2969 layer_factory.hpp:77] Creating layer inception_4b/5x5
I0403 15:19:53.391635  2969 net.cpp:91] Creating Layer inception_4b/5x5
I0403 15:19:53.391652  2969 net.cpp:425] inception_4b/5x5 <- inception_4b/5x5_reduce
I0403 15:19:53.391674  2969 net.cpp:399] inception_4b/5x5 -> inception_4b/5x5
I0403 15:19:53.392946  2969 net.cpp:141] Setting up inception_4b/5x5
I0403 15:19:53.392976  2969 net.cpp:148] Top shape: 24 64 14 14 (301056)
I0403 15:19:53.392992  2969 net.cpp:156] Memory required for data: 966976800
I0403 15:19:53.393013  2969 layer_factory.hpp:77] Creating layer inception_4b/relu_5x5
I0403 15:19:53.393031  2969 net.cpp:91] Creating Layer inception_4b/relu_5x5
I0403 15:19:53.393051  2969 net.cpp:425] inception_4b/relu_5x5 <- inception_4b/5x5
I0403 15:19:53.393070  2969 net.cpp:386] inception_4b/relu_5x5 -> inception_4b/5x5 (in-place)
I0403 15:19:53.393369  2969 net.cpp:141] Setting up inception_4b/relu_5x5
I0403 15:19:53.393396  2969 net.cpp:148] Top shape: 24 64 14 14 (301056)
I0403 15:19:53.393412  2969 net.cpp:156] Memory required for data: 968181024
I0403 15:19:53.393427  2969 layer_factory.hpp:77] Creating layer inception_4b/pool
I0403 15:19:53.393446  2969 net.cpp:91] Creating Layer inception_4b/pool
I0403 15:19:53.393463  2969 net.cpp:425] inception_4b/pool <- inception_4a/output_inception_4a/output_0_split_4
I0403 15:19:53.393486  2969 net.cpp:399] inception_4b/pool -> inception_4b/pool
I0403 15:19:53.393550  2969 net.cpp:141] Setting up inception_4b/pool
I0403 15:19:53.393584  2969 net.cpp:148] Top shape: 24 512 14 14 (2408448)
I0403 15:19:53.393600  2969 net.cpp:156] Memory required for data: 977814816
I0403 15:19:53.393615  2969 layer_factory.hpp:77] Creating layer inception_4b/pool_proj
I0403 15:19:53.393638  2969 net.cpp:91] Creating Layer inception_4b/pool_proj
I0403 15:19:53.393656  2969 net.cpp:425] inception_4b/pool_proj <- inception_4b/pool
I0403 15:19:53.393676  2969 net.cpp:399] inception_4b/pool_proj -> inception_4b/pool_proj
I0403 15:19:53.394912  2969 net.cpp:141] Setting up inception_4b/pool_proj
I0403 15:19:53.394942  2969 net.cpp:148] Top shape: 24 64 14 14 (301056)
I0403 15:19:53.394958  2969 net.cpp:156] Memory required for data: 979019040
I0403 15:19:53.394979  2969 layer_factory.hpp:77] Creating layer inception_4b/relu_pool_proj
I0403 15:19:53.395000  2969 net.cpp:91] Creating Layer inception_4b/relu_pool_proj
I0403 15:19:53.395018  2969 net.cpp:425] inception_4b/relu_pool_proj <- inception_4b/pool_proj
I0403 15:19:53.395036  2969 net.cpp:386] inception_4b/relu_pool_proj -> inception_4b/pool_proj (in-place)
I0403 15:19:53.395227  2969 net.cpp:141] Setting up inception_4b/relu_pool_proj
I0403 15:19:53.395253  2969 net.cpp:148] Top shape: 24 64 14 14 (301056)
I0403 15:19:53.395269  2969 net.cpp:156] Memory required for data: 980223264
I0403 15:19:53.395284  2969 layer_factory.hpp:77] Creating layer inception_4b/output
I0403 15:19:53.395305  2969 net.cpp:91] Creating Layer inception_4b/output
I0403 15:19:53.395323  2969 net.cpp:425] inception_4b/output <- inception_4b/1x1
I0403 15:19:53.395339  2969 net.cpp:425] inception_4b/output <- inception_4b/3x3
I0403 15:19:53.395356  2969 net.cpp:425] inception_4b/output <- inception_4b/5x5
I0403 15:19:53.395372  2969 net.cpp:425] inception_4b/output <- inception_4b/pool_proj
I0403 15:19:53.395390  2969 net.cpp:399] inception_4b/output -> inception_4b/output
I0403 15:19:53.395439  2969 net.cpp:141] Setting up inception_4b/output
I0403 15:19:53.395463  2969 net.cpp:148] Top shape: 24 512 14 14 (2408448)
I0403 15:19:53.395479  2969 net.cpp:156] Memory required for data: 989857056
I0403 15:19:53.395509  2969 layer_factory.hpp:77] Creating layer inception_4b/output_inception_4b/output_0_split
I0403 15:19:53.395527  2969 net.cpp:91] Creating Layer inception_4b/output_inception_4b/output_0_split
I0403 15:19:53.395545  2969 net.cpp:425] inception_4b/output_inception_4b/output_0_split <- inception_4b/output
I0403 15:19:53.395565  2969 net.cpp:399] inception_4b/output_inception_4b/output_0_split -> inception_4b/output_inception_4b/output_0_split_0
I0403 15:19:53.395587  2969 net.cpp:399] inception_4b/output_inception_4b/output_0_split -> inception_4b/output_inception_4b/output_0_split_1
I0403 15:19:53.395608  2969 net.cpp:399] inception_4b/output_inception_4b/output_0_split -> inception_4b/output_inception_4b/output_0_split_2
I0403 15:19:53.395629  2969 net.cpp:399] inception_4b/output_inception_4b/output_0_split -> inception_4b/output_inception_4b/output_0_split_3
I0403 15:19:53.395720  2969 net.cpp:141] Setting up inception_4b/output_inception_4b/output_0_split
I0403 15:19:53.395746  2969 net.cpp:148] Top shape: 24 512 14 14 (2408448)
I0403 15:19:53.395764  2969 net.cpp:148] Top shape: 24 512 14 14 (2408448)
I0403 15:19:53.395781  2969 net.cpp:148] Top shape: 24 512 14 14 (2408448)
I0403 15:19:53.395798  2969 net.cpp:148] Top shape: 24 512 14 14 (2408448)
I0403 15:19:53.395812  2969 net.cpp:156] Memory required for data: 1028392224
I0403 15:19:53.395828  2969 layer_factory.hpp:77] Creating layer inception_4c/1x1
I0403 15:19:53.395850  2969 net.cpp:91] Creating Layer inception_4c/1x1
I0403 15:19:53.395867  2969 net.cpp:425] inception_4c/1x1 <- inception_4b/output_inception_4b/output_0_split_0
I0403 15:19:53.395887  2969 net.cpp:399] inception_4c/1x1 -> inception_4c/1x1
I0403 15:19:53.397370  2969 net.cpp:141] Setting up inception_4c/1x1
I0403 15:19:53.397399  2969 net.cpp:148] Top shape: 24 128 14 14 (602112)
I0403 15:19:53.397416  2969 net.cpp:156] Memory required for data: 1030800672
I0403 15:19:53.397442  2969 layer_factory.hpp:77] Creating layer inception_4c/relu_1x1
I0403 15:19:53.397472  2969 net.cpp:91] Creating Layer inception_4c/relu_1x1
I0403 15:19:53.397493  2969 net.cpp:425] inception_4c/relu_1x1 <- inception_4c/1x1
I0403 15:19:53.397514  2969 net.cpp:386] inception_4c/relu_1x1 -> inception_4c/1x1 (in-place)
I0403 15:19:53.397707  2969 net.cpp:141] Setting up inception_4c/relu_1x1
I0403 15:19:53.397734  2969 net.cpp:148] Top shape: 24 128 14 14 (602112)
I0403 15:19:53.397749  2969 net.cpp:156] Memory required for data: 1033209120
I0403 15:19:53.397765  2969 layer_factory.hpp:77] Creating layer inception_4c/3x3_reduce
I0403 15:19:53.397788  2969 net.cpp:91] Creating Layer inception_4c/3x3_reduce
I0403 15:19:53.397805  2969 net.cpp:425] inception_4c/3x3_reduce <- inception_4b/output_inception_4b/output_0_split_1
I0403 15:19:53.397841  2969 net.cpp:399] inception_4c/3x3_reduce -> inception_4c/3x3_reduce
I0403 15:19:53.399926  2969 net.cpp:141] Setting up inception_4c/3x3_reduce
I0403 15:19:53.399957  2969 net.cpp:148] Top shape: 24 128 14 14 (602112)
I0403 15:19:53.399974  2969 net.cpp:156] Memory required for data: 1035617568
I0403 15:19:53.399994  2969 layer_factory.hpp:77] Creating layer inception_4c/relu_3x3_reduce
I0403 15:19:53.400013  2969 net.cpp:91] Creating Layer inception_4c/relu_3x3_reduce
I0403 15:19:53.400030  2969 net.cpp:425] inception_4c/relu_3x3_reduce <- inception_4c/3x3_reduce
I0403 15:19:53.400051  2969 net.cpp:386] inception_4c/relu_3x3_reduce -> inception_4c/3x3_reduce (in-place)
I0403 15:19:53.400360  2969 net.cpp:141] Setting up inception_4c/relu_3x3_reduce
I0403 15:19:53.400389  2969 net.cpp:148] Top shape: 24 128 14 14 (602112)
I0403 15:19:53.400405  2969 net.cpp:156] Memory required for data: 1038026016
I0403 15:19:53.400421  2969 layer_factory.hpp:77] Creating layer inception_4c/3x3
I0403 15:19:53.400446  2969 net.cpp:91] Creating Layer inception_4c/3x3
I0403 15:19:53.400466  2969 net.cpp:425] inception_4c/3x3 <- inception_4c/3x3_reduce
I0403 15:19:53.400490  2969 net.cpp:399] inception_4c/3x3 -> inception_4c/3x3
I0403 15:19:53.404346  2969 net.cpp:141] Setting up inception_4c/3x3
I0403 15:19:53.404393  2969 net.cpp:148] Top shape: 24 256 14 14 (1204224)
I0403 15:19:53.404410  2969 net.cpp:156] Memory required for data: 1042842912
I0403 15:19:53.404448  2969 layer_factory.hpp:77] Creating layer inception_4c/relu_3x3
I0403 15:19:53.404471  2969 net.cpp:91] Creating Layer inception_4c/relu_3x3
I0403 15:19:53.404489  2969 net.cpp:425] inception_4c/relu_3x3 <- inception_4c/3x3
I0403 15:19:53.404507  2969 net.cpp:386] inception_4c/relu_3x3 -> inception_4c/3x3 (in-place)
I0403 15:19:53.404700  2969 net.cpp:141] Setting up inception_4c/relu_3x3
I0403 15:19:53.404728  2969 net.cpp:148] Top shape: 24 256 14 14 (1204224)
I0403 15:19:53.404744  2969 net.cpp:156] Memory required for data: 1047659808
I0403 15:19:53.404760  2969 layer_factory.hpp:77] Creating layer inception_4c/5x5_reduce
I0403 15:19:53.404785  2969 net.cpp:91] Creating Layer inception_4c/5x5_reduce
I0403 15:19:53.404806  2969 net.cpp:425] inception_4c/5x5_reduce <- inception_4b/output_inception_4b/output_0_split_2
I0403 15:19:53.404829  2969 net.cpp:399] inception_4c/5x5_reduce -> inception_4c/5x5_reduce
I0403 15:19:53.405993  2969 net.cpp:141] Setting up inception_4c/5x5_reduce
I0403 15:19:53.406025  2969 net.cpp:148] Top shape: 24 24 14 14 (112896)
I0403 15:19:53.406043  2969 net.cpp:156] Memory required for data: 1048111392
I0403 15:19:53.406064  2969 layer_factory.hpp:77] Creating layer inception_4c/relu_5x5_reduce
I0403 15:19:53.406082  2969 net.cpp:91] Creating Layer inception_4c/relu_5x5_reduce
I0403 15:19:53.406100  2969 net.cpp:425] inception_4c/relu_5x5_reduce <- inception_4c/5x5_reduce
I0403 15:19:53.406121  2969 net.cpp:386] inception_4c/relu_5x5_reduce -> inception_4c/5x5_reduce (in-place)
I0403 15:19:53.406324  2969 net.cpp:141] Setting up inception_4c/relu_5x5_reduce
I0403 15:19:53.406352  2969 net.cpp:148] Top shape: 24 24 14 14 (112896)
I0403 15:19:53.406368  2969 net.cpp:156] Memory required for data: 1048562976
I0403 15:19:53.406383  2969 layer_factory.hpp:77] Creating layer inception_4c/5x5
I0403 15:19:53.406407  2969 net.cpp:91] Creating Layer inception_4c/5x5
I0403 15:19:53.406426  2969 net.cpp:425] inception_4c/5x5 <- inception_4c/5x5_reduce
I0403 15:19:53.406448  2969 net.cpp:399] inception_4c/5x5 -> inception_4c/5x5
I0403 15:19:53.407773  2969 net.cpp:141] Setting up inception_4c/5x5
I0403 15:19:53.407804  2969 net.cpp:148] Top shape: 24 64 14 14 (301056)
I0403 15:19:53.407821  2969 net.cpp:156] Memory required for data: 1049767200
I0403 15:19:53.407841  2969 layer_factory.hpp:77] Creating layer inception_4c/relu_5x5
I0403 15:19:53.407862  2969 net.cpp:91] Creating Layer inception_4c/relu_5x5
I0403 15:19:53.407881  2969 net.cpp:425] inception_4c/relu_5x5 <- inception_4c/5x5
I0403 15:19:53.407902  2969 net.cpp:386] inception_4c/relu_5x5 -> inception_4c/5x5 (in-place)
I0403 15:19:53.408215  2969 net.cpp:141] Setting up inception_4c/relu_5x5
I0403 15:19:53.408243  2969 net.cpp:148] Top shape: 24 64 14 14 (301056)
I0403 15:19:53.408260  2969 net.cpp:156] Memory required for data: 1050971424
I0403 15:19:53.408277  2969 layer_factory.hpp:77] Creating layer inception_4c/pool
I0403 15:19:53.408300  2969 net.cpp:91] Creating Layer inception_4c/pool
I0403 15:19:53.408318  2969 net.cpp:425] inception_4c/pool <- inception_4b/output_inception_4b/output_0_split_3
I0403 15:19:53.408339  2969 net.cpp:399] inception_4c/pool -> inception_4c/pool
I0403 15:19:53.408408  2969 net.cpp:141] Setting up inception_4c/pool
I0403 15:19:53.408437  2969 net.cpp:148] Top shape: 24 512 14 14 (2408448)
I0403 15:19:53.408452  2969 net.cpp:156] Memory required for data: 1060605216
I0403 15:19:53.408469  2969 layer_factory.hpp:77] Creating layer inception_4c/pool_proj
I0403 15:19:53.408494  2969 net.cpp:91] Creating Layer inception_4c/pool_proj
I0403 15:19:53.408514  2969 net.cpp:425] inception_4c/pool_proj <- inception_4c/pool
I0403 15:19:53.408537  2969 net.cpp:399] inception_4c/pool_proj -> inception_4c/pool_proj
I0403 15:19:53.409844  2969 net.cpp:141] Setting up inception_4c/pool_proj
I0403 15:19:53.409874  2969 net.cpp:148] Top shape: 24 64 14 14 (301056)
I0403 15:19:53.409905  2969 net.cpp:156] Memory required for data: 1061809440
I0403 15:19:53.409926  2969 layer_factory.hpp:77] Creating layer inception_4c/relu_pool_proj
I0403 15:19:53.409948  2969 net.cpp:91] Creating Layer inception_4c/relu_pool_proj
I0403 15:19:53.409966  2969 net.cpp:425] inception_4c/relu_pool_proj <- inception_4c/pool_proj
I0403 15:19:53.409984  2969 net.cpp:386] inception_4c/relu_pool_proj -> inception_4c/pool_proj (in-place)
I0403 15:19:53.410182  2969 net.cpp:141] Setting up inception_4c/relu_pool_proj
I0403 15:19:53.410210  2969 net.cpp:148] Top shape: 24 64 14 14 (301056)
I0403 15:19:53.410228  2969 net.cpp:156] Memory required for data: 1063013664
I0403 15:19:53.410243  2969 layer_factory.hpp:77] Creating layer inception_4c/output
I0403 15:19:53.410264  2969 net.cpp:91] Creating Layer inception_4c/output
I0403 15:19:53.410281  2969 net.cpp:425] inception_4c/output <- inception_4c/1x1
I0403 15:19:53.410300  2969 net.cpp:425] inception_4c/output <- inception_4c/3x3
I0403 15:19:53.410316  2969 net.cpp:425] inception_4c/output <- inception_4c/5x5
I0403 15:19:53.410333  2969 net.cpp:425] inception_4c/output <- inception_4c/pool_proj
I0403 15:19:53.410352  2969 net.cpp:399] inception_4c/output -> inception_4c/output
I0403 15:19:53.410405  2969 net.cpp:141] Setting up inception_4c/output
I0403 15:19:53.410430  2969 net.cpp:148] Top shape: 24 512 14 14 (2408448)
I0403 15:19:53.410446  2969 net.cpp:156] Memory required for data: 1072647456
I0403 15:19:53.410462  2969 layer_factory.hpp:77] Creating layer inception_4c/output_inception_4c/output_0_split
I0403 15:19:53.410480  2969 net.cpp:91] Creating Layer inception_4c/output_inception_4c/output_0_split
I0403 15:19:53.410496  2969 net.cpp:425] inception_4c/output_inception_4c/output_0_split <- inception_4c/output
I0403 15:19:53.410517  2969 net.cpp:399] inception_4c/output_inception_4c/output_0_split -> inception_4c/output_inception_4c/output_0_split_0
I0403 15:19:53.410540  2969 net.cpp:399] inception_4c/output_inception_4c/output_0_split -> inception_4c/output_inception_4c/output_0_split_1
I0403 15:19:53.410562  2969 net.cpp:399] inception_4c/output_inception_4c/output_0_split -> inception_4c/output_inception_4c/output_0_split_2
I0403 15:19:53.410583  2969 net.cpp:399] inception_4c/output_inception_4c/output_0_split -> inception_4c/output_inception_4c/output_0_split_3
I0403 15:19:53.410678  2969 net.cpp:141] Setting up inception_4c/output_inception_4c/output_0_split
I0403 15:19:53.410706  2969 net.cpp:148] Top shape: 24 512 14 14 (2408448)
I0403 15:19:53.410724  2969 net.cpp:148] Top shape: 24 512 14 14 (2408448)
I0403 15:19:53.410742  2969 net.cpp:148] Top shape: 24 512 14 14 (2408448)
I0403 15:19:53.410759  2969 net.cpp:148] Top shape: 24 512 14 14 (2408448)
I0403 15:19:53.410774  2969 net.cpp:156] Memory required for data: 1111182624
I0403 15:19:53.410789  2969 layer_factory.hpp:77] Creating layer inception_4d/1x1
I0403 15:19:53.410814  2969 net.cpp:91] Creating Layer inception_4d/1x1
I0403 15:19:53.410831  2969 net.cpp:425] inception_4d/1x1 <- inception_4c/output_inception_4c/output_0_split_0
I0403 15:19:53.410851  2969 net.cpp:399] inception_4d/1x1 -> inception_4d/1x1
I0403 15:19:53.412343  2969 net.cpp:141] Setting up inception_4d/1x1
I0403 15:19:53.412376  2969 net.cpp:148] Top shape: 24 112 14 14 (526848)
I0403 15:19:53.412395  2969 net.cpp:156] Memory required for data: 1113290016
I0403 15:19:53.412416  2969 layer_factory.hpp:77] Creating layer inception_4d/relu_1x1
I0403 15:19:53.412436  2969 net.cpp:91] Creating Layer inception_4d/relu_1x1
I0403 15:19:53.412453  2969 net.cpp:425] inception_4d/relu_1x1 <- inception_4d/1x1
I0403 15:19:53.412475  2969 net.cpp:386] inception_4d/relu_1x1 -> inception_4d/1x1 (in-place)
I0403 15:19:53.412673  2969 net.cpp:141] Setting up inception_4d/relu_1x1
I0403 15:19:53.412701  2969 net.cpp:148] Top shape: 24 112 14 14 (526848)
I0403 15:19:53.412717  2969 net.cpp:156] Memory required for data: 1115397408
I0403 15:19:53.412734  2969 layer_factory.hpp:77] Creating layer inception_4d/3x3_reduce
I0403 15:19:53.412771  2969 net.cpp:91] Creating Layer inception_4d/3x3_reduce
I0403 15:19:53.412791  2969 net.cpp:425] inception_4d/3x3_reduce <- inception_4c/output_inception_4c/output_0_split_1
I0403 15:19:53.412814  2969 net.cpp:399] inception_4d/3x3_reduce -> inception_4d/3x3_reduce
I0403 15:19:53.414436  2969 net.cpp:141] Setting up inception_4d/3x3_reduce
I0403 15:19:53.414469  2969 net.cpp:148] Top shape: 24 144 14 14 (677376)
I0403 15:19:53.414489  2969 net.cpp:156] Memory required for data: 1118106912
I0403 15:19:53.414508  2969 layer_factory.hpp:77] Creating layer inception_4d/relu_3x3_reduce
I0403 15:19:53.414528  2969 net.cpp:91] Creating Layer inception_4d/relu_3x3_reduce
I0403 15:19:53.414546  2969 net.cpp:425] inception_4d/relu_3x3_reduce <- inception_4d/3x3_reduce
I0403 15:19:53.414566  2969 net.cpp:386] inception_4d/relu_3x3_reduce -> inception_4d/3x3_reduce (in-place)
I0403 15:19:53.414873  2969 net.cpp:141] Setting up inception_4d/relu_3x3_reduce
I0403 15:19:53.414904  2969 net.cpp:148] Top shape: 24 144 14 14 (677376)
I0403 15:19:53.414922  2969 net.cpp:156] Memory required for data: 1120816416
I0403 15:19:53.414939  2969 layer_factory.hpp:77] Creating layer inception_4d/3x3
I0403 15:19:53.414961  2969 net.cpp:91] Creating Layer inception_4d/3x3
I0403 15:19:53.414980  2969 net.cpp:425] inception_4d/3x3 <- inception_4d/3x3_reduce
I0403 15:19:53.415004  2969 net.cpp:399] inception_4d/3x3 -> inception_4d/3x3
I0403 15:19:53.419545  2969 net.cpp:141] Setting up inception_4d/3x3
I0403 15:19:53.419577  2969 net.cpp:148] Top shape: 24 288 14 14 (1354752)
I0403 15:19:53.419595  2969 net.cpp:156] Memory required for data: 1126235424
I0403 15:19:53.419616  2969 layer_factory.hpp:77] Creating layer inception_4d/relu_3x3
I0403 15:19:53.419636  2969 net.cpp:91] Creating Layer inception_4d/relu_3x3
I0403 15:19:53.419653  2969 net.cpp:425] inception_4d/relu_3x3 <- inception_4d/3x3
I0403 15:19:53.419674  2969 net.cpp:386] inception_4d/relu_3x3 -> inception_4d/3x3 (in-place)
I0403 15:19:53.419873  2969 net.cpp:141] Setting up inception_4d/relu_3x3
I0403 15:19:53.419901  2969 net.cpp:148] Top shape: 24 288 14 14 (1354752)
I0403 15:19:53.419916  2969 net.cpp:156] Memory required for data: 1131654432
I0403 15:19:53.419934  2969 layer_factory.hpp:77] Creating layer inception_4d/5x5_reduce
I0403 15:19:53.419957  2969 net.cpp:91] Creating Layer inception_4d/5x5_reduce
I0403 15:19:53.419975  2969 net.cpp:425] inception_4d/5x5_reduce <- inception_4c/output_inception_4c/output_0_split_2
I0403 15:19:53.419998  2969 net.cpp:399] inception_4d/5x5_reduce -> inception_4d/5x5_reduce
I0403 15:19:53.421258  2969 net.cpp:141] Setting up inception_4d/5x5_reduce
I0403 15:19:53.421293  2969 net.cpp:148] Top shape: 24 32 14 14 (150528)
I0403 15:19:53.421311  2969 net.cpp:156] Memory required for data: 1132256544
I0403 15:19:53.421332  2969 layer_factory.hpp:77] Creating layer inception_4d/relu_5x5_reduce
I0403 15:19:53.421352  2969 net.cpp:91] Creating Layer inception_4d/relu_5x5_reduce
I0403 15:19:53.421370  2969 net.cpp:425] inception_4d/relu_5x5_reduce <- inception_4d/5x5_reduce
I0403 15:19:53.421391  2969 net.cpp:386] inception_4d/relu_5x5_reduce -> inception_4d/5x5_reduce (in-place)
I0403 15:19:53.421591  2969 net.cpp:141] Setting up inception_4d/relu_5x5_reduce
I0403 15:19:53.421620  2969 net.cpp:148] Top shape: 24 32 14 14 (150528)
I0403 15:19:53.421638  2969 net.cpp:156] Memory required for data: 1132858656
I0403 15:19:53.421655  2969 layer_factory.hpp:77] Creating layer inception_4d/5x5
I0403 15:19:53.421680  2969 net.cpp:91] Creating Layer inception_4d/5x5
I0403 15:19:53.421700  2969 net.cpp:425] inception_4d/5x5 <- inception_4d/5x5_reduce
I0403 15:19:53.421722  2969 net.cpp:399] inception_4d/5x5 -> inception_4d/5x5
I0403 15:19:53.423315  2969 net.cpp:141] Setting up inception_4d/5x5
I0403 15:19:53.423346  2969 net.cpp:148] Top shape: 24 64 14 14 (301056)
I0403 15:19:53.423363  2969 net.cpp:156] Memory required for data: 1134062880
I0403 15:19:53.423385  2969 layer_factory.hpp:77] Creating layer inception_4d/relu_5x5
I0403 15:19:53.423424  2969 net.cpp:91] Creating Layer inception_4d/relu_5x5
I0403 15:19:53.423444  2969 net.cpp:425] inception_4d/relu_5x5 <- inception_4d/5x5
I0403 15:19:53.423463  2969 net.cpp:386] inception_4d/relu_5x5 -> inception_4d/5x5 (in-place)
I0403 15:19:53.423782  2969 net.cpp:141] Setting up inception_4d/relu_5x5
I0403 15:19:53.423812  2969 net.cpp:148] Top shape: 24 64 14 14 (301056)
I0403 15:19:53.423832  2969 net.cpp:156] Memory required for data: 1135267104
I0403 15:19:53.423848  2969 layer_factory.hpp:77] Creating layer inception_4d/pool
I0403 15:19:53.423871  2969 net.cpp:91] Creating Layer inception_4d/pool
I0403 15:19:53.423890  2969 net.cpp:425] inception_4d/pool <- inception_4c/output_inception_4c/output_0_split_3
I0403 15:19:53.423912  2969 net.cpp:399] inception_4d/pool -> inception_4d/pool
I0403 15:19:53.423985  2969 net.cpp:141] Setting up inception_4d/pool
I0403 15:19:53.424010  2969 net.cpp:148] Top shape: 24 512 14 14 (2408448)
I0403 15:19:53.424026  2969 net.cpp:156] Memory required for data: 1144900896
I0403 15:19:53.424041  2969 layer_factory.hpp:77] Creating layer inception_4d/pool_proj
I0403 15:19:53.424067  2969 net.cpp:91] Creating Layer inception_4d/pool_proj
I0403 15:19:53.424087  2969 net.cpp:425] inception_4d/pool_proj <- inception_4d/pool
I0403 15:19:53.424109  2969 net.cpp:399] inception_4d/pool_proj -> inception_4d/pool_proj
I0403 15:19:53.426003  2969 net.cpp:141] Setting up inception_4d/pool_proj
I0403 15:19:53.426035  2969 net.cpp:148] Top shape: 24 64 14 14 (301056)
I0403 15:19:53.426054  2969 net.cpp:156] Memory required for data: 1146105120
I0403 15:19:53.426074  2969 layer_factory.hpp:77] Creating layer inception_4d/relu_pool_proj
I0403 15:19:53.426093  2969 net.cpp:91] Creating Layer inception_4d/relu_pool_proj
I0403 15:19:53.426110  2969 net.cpp:425] inception_4d/relu_pool_proj <- inception_4d/pool_proj
I0403 15:19:53.426131  2969 net.cpp:386] inception_4d/relu_pool_proj -> inception_4d/pool_proj (in-place)
I0403 15:19:53.426337  2969 net.cpp:141] Setting up inception_4d/relu_pool_proj
I0403 15:19:53.426365  2969 net.cpp:148] Top shape: 24 64 14 14 (301056)
I0403 15:19:53.426383  2969 net.cpp:156] Memory required for data: 1147309344
I0403 15:19:53.426399  2969 layer_factory.hpp:77] Creating layer inception_4d/output
I0403 15:19:53.426419  2969 net.cpp:91] Creating Layer inception_4d/output
I0403 15:19:53.426440  2969 net.cpp:425] inception_4d/output <- inception_4d/1x1
I0403 15:19:53.426458  2969 net.cpp:425] inception_4d/output <- inception_4d/3x3
I0403 15:19:53.426476  2969 net.cpp:425] inception_4d/output <- inception_4d/5x5
I0403 15:19:53.426494  2969 net.cpp:425] inception_4d/output <- inception_4d/pool_proj
I0403 15:19:53.426513  2969 net.cpp:399] inception_4d/output -> inception_4d/output
I0403 15:19:53.426563  2969 net.cpp:141] Setting up inception_4d/output
I0403 15:19:53.426592  2969 net.cpp:148] Top shape: 24 528 14 14 (2483712)
I0403 15:19:53.426610  2969 net.cpp:156] Memory required for data: 1157244192
I0403 15:19:53.426626  2969 layer_factory.hpp:77] Creating layer inception_4d/output_inception_4d/output_0_split
I0403 15:19:53.426646  2969 net.cpp:91] Creating Layer inception_4d/output_inception_4d/output_0_split
I0403 15:19:53.426664  2969 net.cpp:425] inception_4d/output_inception_4d/output_0_split <- inception_4d/output
I0403 15:19:53.426687  2969 net.cpp:399] inception_4d/output_inception_4d/output_0_split -> inception_4d/output_inception_4d/output_0_split_0
I0403 15:19:53.426709  2969 net.cpp:399] inception_4d/output_inception_4d/output_0_split -> inception_4d/output_inception_4d/output_0_split_1
I0403 15:19:53.426733  2969 net.cpp:399] inception_4d/output_inception_4d/output_0_split -> inception_4d/output_inception_4d/output_0_split_2
I0403 15:19:53.426754  2969 net.cpp:399] inception_4d/output_inception_4d/output_0_split -> inception_4d/output_inception_4d/output_0_split_3
I0403 15:19:53.426775  2969 net.cpp:399] inception_4d/output_inception_4d/output_0_split -> inception_4d/output_inception_4d/output_0_split_4
I0403 15:19:53.426885  2969 net.cpp:141] Setting up inception_4d/output_inception_4d/output_0_split
I0403 15:19:53.426923  2969 net.cpp:148] Top shape: 24 528 14 14 (2483712)
I0403 15:19:53.426945  2969 net.cpp:148] Top shape: 24 528 14 14 (2483712)
I0403 15:19:53.426964  2969 net.cpp:148] Top shape: 24 528 14 14 (2483712)
I0403 15:19:53.426980  2969 net.cpp:148] Top shape: 24 528 14 14 (2483712)
I0403 15:19:53.426997  2969 net.cpp:148] Top shape: 24 528 14 14 (2483712)
I0403 15:19:53.427012  2969 net.cpp:156] Memory required for data: 1206918432
I0403 15:19:53.427028  2969 layer_factory.hpp:77] Creating layer loss2/ave_pool
I0403 15:19:53.427047  2969 net.cpp:91] Creating Layer loss2/ave_pool
I0403 15:19:53.427064  2969 net.cpp:425] loss2/ave_pool <- inception_4d/output_inception_4d/output_0_split_0
I0403 15:19:53.427088  2969 net.cpp:399] loss2/ave_pool -> loss2/ave_pool
I0403 15:19:53.427433  2969 net.cpp:141] Setting up loss2/ave_pool
I0403 15:19:53.427461  2969 net.cpp:148] Top shape: 24 528 4 4 (202752)
I0403 15:19:53.427477  2969 net.cpp:156] Memory required for data: 1207729440
I0403 15:19:53.427495  2969 layer_factory.hpp:77] Creating layer loss2/conv
I0403 15:19:53.427517  2969 net.cpp:91] Creating Layer loss2/conv
I0403 15:19:53.427536  2969 net.cpp:425] loss2/conv <- loss2/ave_pool
I0403 15:19:53.427561  2969 net.cpp:399] loss2/conv -> loss2/conv
I0403 15:19:53.429576  2969 net.cpp:141] Setting up loss2/conv
I0403 15:19:53.429607  2969 net.cpp:148] Top shape: 24 128 4 4 (49152)
I0403 15:19:53.429625  2969 net.cpp:156] Memory required for data: 1207926048
I0403 15:19:53.429646  2969 layer_factory.hpp:77] Creating layer loss2/relu_conv
I0403 15:19:53.429668  2969 net.cpp:91] Creating Layer loss2/relu_conv
I0403 15:19:53.429687  2969 net.cpp:425] loss2/relu_conv <- loss2/conv
I0403 15:19:53.429705  2969 net.cpp:386] loss2/relu_conv -> loss2/conv (in-place)
I0403 15:19:53.430207  2969 net.cpp:141] Setting up loss2/relu_conv
I0403 15:19:53.430238  2969 net.cpp:148] Top shape: 24 128 4 4 (49152)
I0403 15:19:53.430255  2969 net.cpp:156] Memory required for data: 1208122656
I0403 15:19:53.430271  2969 layer_factory.hpp:77] Creating layer loss2/fc
I0403 15:19:53.430295  2969 net.cpp:91] Creating Layer loss2/fc
I0403 15:19:53.430313  2969 net.cpp:425] loss2/fc <- loss2/conv
I0403 15:19:53.430335  2969 net.cpp:399] loss2/fc -> loss2/fc
I0403 15:19:53.448992  2969 net.cpp:141] Setting up loss2/fc
I0403 15:19:53.449043  2969 net.cpp:148] Top shape: 24 1024 (24576)
I0403 15:19:53.449059  2969 net.cpp:156] Memory required for data: 1208220960
I0403 15:19:53.449079  2969 layer_factory.hpp:77] Creating layer loss2/relu_fc
I0403 15:19:53.449098  2969 net.cpp:91] Creating Layer loss2/relu_fc
I0403 15:19:53.449115  2969 net.cpp:425] loss2/relu_fc <- loss2/fc
I0403 15:19:53.449136  2969 net.cpp:386] loss2/relu_fc -> loss2/fc (in-place)
I0403 15:19:53.449484  2969 net.cpp:141] Setting up loss2/relu_fc
I0403 15:19:53.449512  2969 net.cpp:148] Top shape: 24 1024 (24576)
I0403 15:19:53.449528  2969 net.cpp:156] Memory required for data: 1208319264
I0403 15:19:53.449544  2969 layer_factory.hpp:77] Creating layer loss2/drop_fc
I0403 15:19:53.449563  2969 net.cpp:91] Creating Layer loss2/drop_fc
I0403 15:19:53.449586  2969 net.cpp:425] loss2/drop_fc <- loss2/fc
I0403 15:19:53.449607  2969 net.cpp:386] loss2/drop_fc -> loss2/fc (in-place)
I0403 15:19:53.449712  2969 net.cpp:141] Setting up loss2/drop_fc
I0403 15:19:53.449743  2969 net.cpp:148] Top shape: 24 1024 (24576)
I0403 15:19:53.449759  2969 net.cpp:156] Memory required for data: 1208417568
I0403 15:19:53.449775  2969 layer_factory.hpp:77] Creating layer loss2/classifier_plantvillage
I0403 15:19:53.449795  2969 net.cpp:91] Creating Layer loss2/classifier_plantvillage
I0403 15:19:53.449812  2969 net.cpp:425] loss2/classifier_plantvillage <- loss2/fc
I0403 15:19:53.449834  2969 net.cpp:399] loss2/classifier_plantvillage -> loss2/classifier_plantvillage
I0403 15:19:53.450279  2969 net.cpp:141] Setting up loss2/classifier_plantvillage
I0403 15:19:53.450310  2969 net.cpp:148] Top shape: 24 38 (912)
I0403 15:19:53.450351  2969 net.cpp:156] Memory required for data: 1208421216
I0403 15:19:53.450373  2969 layer_factory.hpp:77] Creating layer loss2/classifier_plantvillage_loss2/classifier_plantvillage_0_split
I0403 15:19:53.450393  2969 net.cpp:91] Creating Layer loss2/classifier_plantvillage_loss2/classifier_plantvillage_0_split
I0403 15:19:53.450412  2969 net.cpp:425] loss2/classifier_plantvillage_loss2/classifier_plantvillage_0_split <- loss2/classifier_plantvillage
I0403 15:19:53.450431  2969 net.cpp:399] loss2/classifier_plantvillage_loss2/classifier_plantvillage_0_split -> loss2/classifier_plantvillage_loss2/classifier_plantvillage_0_split_0
I0403 15:19:53.450453  2969 net.cpp:399] loss2/classifier_plantvillage_loss2/classifier_plantvillage_0_split -> loss2/classifier_plantvillage_loss2/classifier_plantvillage_0_split_1
I0403 15:19:53.450475  2969 net.cpp:399] loss2/classifier_plantvillage_loss2/classifier_plantvillage_0_split -> loss2/classifier_plantvillage_loss2/classifier_plantvillage_0_split_2
I0403 15:19:53.450561  2969 net.cpp:141] Setting up loss2/classifier_plantvillage_loss2/classifier_plantvillage_0_split
I0403 15:19:53.450587  2969 net.cpp:148] Top shape: 24 38 (912)
I0403 15:19:53.450605  2969 net.cpp:148] Top shape: 24 38 (912)
I0403 15:19:53.450623  2969 net.cpp:148] Top shape: 24 38 (912)
I0403 15:19:53.450639  2969 net.cpp:156] Memory required for data: 1208432160
I0403 15:19:53.450656  2969 layer_factory.hpp:77] Creating layer inception_4e/1x1
I0403 15:19:53.450678  2969 net.cpp:91] Creating Layer inception_4e/1x1
I0403 15:19:53.450697  2969 net.cpp:425] inception_4e/1x1 <- inception_4d/output_inception_4d/output_0_split_1
I0403 15:19:53.450721  2969 net.cpp:399] inception_4e/1x1 -> inception_4e/1x1
I0403 15:19:53.452667  2969 net.cpp:141] Setting up inception_4e/1x1
I0403 15:19:53.452698  2969 net.cpp:148] Top shape: 24 256 14 14 (1204224)
I0403 15:19:53.452714  2969 net.cpp:156] Memory required for data: 1213249056
I0403 15:19:53.452734  2969 layer_factory.hpp:77] Creating layer inception_4e/relu_1x1
I0403 15:19:53.452755  2969 net.cpp:91] Creating Layer inception_4e/relu_1x1
I0403 15:19:53.452774  2969 net.cpp:425] inception_4e/relu_1x1 <- inception_4e/1x1
I0403 15:19:53.452792  2969 net.cpp:386] inception_4e/relu_1x1 -> inception_4e/1x1 (in-place)
I0403 15:19:53.453097  2969 net.cpp:141] Setting up inception_4e/relu_1x1
I0403 15:19:53.453125  2969 net.cpp:148] Top shape: 24 256 14 14 (1204224)
I0403 15:19:53.453140  2969 net.cpp:156] Memory required for data: 1218065952
I0403 15:19:53.453155  2969 layer_factory.hpp:77] Creating layer inception_4e/3x3_reduce
I0403 15:19:53.453186  2969 net.cpp:91] Creating Layer inception_4e/3x3_reduce
I0403 15:19:53.453207  2969 net.cpp:425] inception_4e/3x3_reduce <- inception_4d/output_inception_4d/output_0_split_2
I0403 15:19:53.453230  2969 net.cpp:399] inception_4e/3x3_reduce -> inception_4e/3x3_reduce
I0403 15:19:53.455436  2969 net.cpp:141] Setting up inception_4e/3x3_reduce
I0403 15:19:53.455466  2969 net.cpp:148] Top shape: 24 160 14 14 (752640)
I0403 15:19:53.455483  2969 net.cpp:156] Memory required for data: 1221076512
I0403 15:19:53.455503  2969 layer_factory.hpp:77] Creating layer inception_4e/relu_3x3_reduce
I0403 15:19:53.455526  2969 net.cpp:91] Creating Layer inception_4e/relu_3x3_reduce
I0403 15:19:53.455545  2969 net.cpp:425] inception_4e/relu_3x3_reduce <- inception_4e/3x3_reduce
I0403 15:19:53.455565  2969 net.cpp:386] inception_4e/relu_3x3_reduce -> inception_4e/3x3_reduce (in-place)
I0403 15:19:53.455757  2969 net.cpp:141] Setting up inception_4e/relu_3x3_reduce
I0403 15:19:53.455783  2969 net.cpp:148] Top shape: 24 160 14 14 (752640)
I0403 15:19:53.455798  2969 net.cpp:156] Memory required for data: 1224087072
I0403 15:19:53.455814  2969 layer_factory.hpp:77] Creating layer inception_4e/3x3
I0403 15:19:53.455838  2969 net.cpp:91] Creating Layer inception_4e/3x3
I0403 15:19:53.455857  2969 net.cpp:425] inception_4e/3x3 <- inception_4e/3x3_reduce
I0403 15:19:53.455876  2969 net.cpp:399] inception_4e/3x3 -> inception_4e/3x3
I0403 15:19:53.461130  2969 net.cpp:141] Setting up inception_4e/3x3
I0403 15:19:53.461174  2969 net.cpp:148] Top shape: 24 320 14 14 (1505280)
I0403 15:19:53.461199  2969 net.cpp:156] Memory required for data: 1230108192
I0403 15:19:53.461218  2969 layer_factory.hpp:77] Creating layer inception_4e/relu_3x3
I0403 15:19:53.461239  2969 net.cpp:91] Creating Layer inception_4e/relu_3x3
I0403 15:19:53.461256  2969 net.cpp:425] inception_4e/relu_3x3 <- inception_4e/3x3
I0403 15:19:53.461274  2969 net.cpp:386] inception_4e/relu_3x3 -> inception_4e/3x3 (in-place)
I0403 15:19:53.461596  2969 net.cpp:141] Setting up inception_4e/relu_3x3
I0403 15:19:53.461626  2969 net.cpp:148] Top shape: 24 320 14 14 (1505280)
I0403 15:19:53.461642  2969 net.cpp:156] Memory required for data: 1236129312
I0403 15:19:53.461658  2969 layer_factory.hpp:77] Creating layer inception_4e/5x5_reduce
I0403 15:19:53.461683  2969 net.cpp:91] Creating Layer inception_4e/5x5_reduce
I0403 15:19:53.461700  2969 net.cpp:425] inception_4e/5x5_reduce <- inception_4d/output_inception_4d/output_0_split_3
I0403 15:19:53.461719  2969 net.cpp:399] inception_4e/5x5_reduce -> inception_4e/5x5_reduce
I0403 15:19:53.462842  2969 net.cpp:141] Setting up inception_4e/5x5_reduce
I0403 15:19:53.462872  2969 net.cpp:148] Top shape: 24 32 14 14 (150528)
I0403 15:19:53.462890  2969 net.cpp:156] Memory required for data: 1236731424
I0403 15:19:53.462911  2969 layer_factory.hpp:77] Creating layer inception_4e/relu_5x5_reduce
I0403 15:19:53.462932  2969 net.cpp:91] Creating Layer inception_4e/relu_5x5_reduce
I0403 15:19:53.462950  2969 net.cpp:425] inception_4e/relu_5x5_reduce <- inception_4e/5x5_reduce
I0403 15:19:53.462968  2969 net.cpp:386] inception_4e/relu_5x5_reduce -> inception_4e/5x5_reduce (in-place)
I0403 15:19:53.463284  2969 net.cpp:141] Setting up inception_4e/relu_5x5_reduce
I0403 15:19:53.463310  2969 net.cpp:148] Top shape: 24 32 14 14 (150528)
I0403 15:19:53.463327  2969 net.cpp:156] Memory required for data: 1237333536
I0403 15:19:53.463343  2969 layer_factory.hpp:77] Creating layer inception_4e/5x5
I0403 15:19:53.463382  2969 net.cpp:91] Creating Layer inception_4e/5x5
I0403 15:19:53.463403  2969 net.cpp:425] inception_4e/5x5 <- inception_4e/5x5_reduce
I0403 15:19:53.463425  2969 net.cpp:399] inception_4e/5x5 -> inception_4e/5x5
I0403 15:19:53.465396  2969 net.cpp:141] Setting up inception_4e/5x5
I0403 15:19:53.465426  2969 net.cpp:148] Top shape: 24 128 14 14 (602112)
I0403 15:19:53.465443  2969 net.cpp:156] Memory required for data: 1239741984
I0403 15:19:53.465464  2969 layer_factory.hpp:77] Creating layer inception_4e/relu_5x5
I0403 15:19:53.465483  2969 net.cpp:91] Creating Layer inception_4e/relu_5x5
I0403 15:19:53.465500  2969 net.cpp:425] inception_4e/relu_5x5 <- inception_4e/5x5
I0403 15:19:53.465520  2969 net.cpp:386] inception_4e/relu_5x5 -> inception_4e/5x5 (in-place)
I0403 15:19:53.465734  2969 net.cpp:141] Setting up inception_4e/relu_5x5
I0403 15:19:53.465760  2969 net.cpp:148] Top shape: 24 128 14 14 (602112)
I0403 15:19:53.465775  2969 net.cpp:156] Memory required for data: 1242150432
I0403 15:19:53.465790  2969 layer_factory.hpp:77] Creating layer inception_4e/pool
I0403 15:19:53.465812  2969 net.cpp:91] Creating Layer inception_4e/pool
I0403 15:19:53.465829  2969 net.cpp:425] inception_4e/pool <- inception_4d/output_inception_4d/output_0_split_4
I0403 15:19:53.465848  2969 net.cpp:399] inception_4e/pool -> inception_4e/pool
I0403 15:19:53.465922  2969 net.cpp:141] Setting up inception_4e/pool
I0403 15:19:53.465947  2969 net.cpp:148] Top shape: 24 528 14 14 (2483712)
I0403 15:19:53.465962  2969 net.cpp:156] Memory required for data: 1252085280
I0403 15:19:53.465977  2969 layer_factory.hpp:77] Creating layer inception_4e/pool_proj
I0403 15:19:53.466001  2969 net.cpp:91] Creating Layer inception_4e/pool_proj
I0403 15:19:53.466018  2969 net.cpp:425] inception_4e/pool_proj <- inception_4e/pool
I0403 15:19:53.466040  2969 net.cpp:399] inception_4e/pool_proj -> inception_4e/pool_proj
I0403 15:19:53.467608  2969 net.cpp:141] Setting up inception_4e/pool_proj
I0403 15:19:53.467650  2969 net.cpp:148] Top shape: 24 128 14 14 (602112)
I0403 15:19:53.467667  2969 net.cpp:156] Memory required for data: 1254493728
I0403 15:19:53.467687  2969 layer_factory.hpp:77] Creating layer inception_4e/relu_pool_proj
I0403 15:19:53.467706  2969 net.cpp:91] Creating Layer inception_4e/relu_pool_proj
I0403 15:19:53.467725  2969 net.cpp:425] inception_4e/relu_pool_proj <- inception_4e/pool_proj
I0403 15:19:53.467747  2969 net.cpp:386] inception_4e/relu_pool_proj -> inception_4e/pool_proj (in-place)
I0403 15:19:53.468053  2969 net.cpp:141] Setting up inception_4e/relu_pool_proj
I0403 15:19:53.468081  2969 net.cpp:148] Top shape: 24 128 14 14 (602112)
I0403 15:19:53.468097  2969 net.cpp:156] Memory required for data: 1256902176
I0403 15:19:53.468113  2969 layer_factory.hpp:77] Creating layer inception_4e/output
I0403 15:19:53.468132  2969 net.cpp:91] Creating Layer inception_4e/output
I0403 15:19:53.468147  2969 net.cpp:425] inception_4e/output <- inception_4e/1x1
I0403 15:19:53.468165  2969 net.cpp:425] inception_4e/output <- inception_4e/3x3
I0403 15:19:53.468188  2969 net.cpp:425] inception_4e/output <- inception_4e/5x5
I0403 15:19:53.468205  2969 net.cpp:425] inception_4e/output <- inception_4e/pool_proj
I0403 15:19:53.468226  2969 net.cpp:399] inception_4e/output -> inception_4e/output
I0403 15:19:53.468278  2969 net.cpp:141] Setting up inception_4e/output
I0403 15:19:53.468305  2969 net.cpp:148] Top shape: 24 832 14 14 (3913728)
I0403 15:19:53.468322  2969 net.cpp:156] Memory required for data: 1272557088
I0403 15:19:53.468336  2969 layer_factory.hpp:77] Creating layer pool4/3x3_s2
I0403 15:19:53.468354  2969 net.cpp:91] Creating Layer pool4/3x3_s2
I0403 15:19:53.468371  2969 net.cpp:425] pool4/3x3_s2 <- inception_4e/output
I0403 15:19:53.468390  2969 net.cpp:399] pool4/3x3_s2 -> pool4/3x3_s2
I0403 15:19:53.468462  2969 net.cpp:141] Setting up pool4/3x3_s2
I0403 15:19:53.468487  2969 net.cpp:148] Top shape: 24 832 7 7 (978432)
I0403 15:19:53.468502  2969 net.cpp:156] Memory required for data: 1276470816
I0403 15:19:53.468516  2969 layer_factory.hpp:77] Creating layer pool4/3x3_s2_pool4/3x3_s2_0_split
I0403 15:19:53.468533  2969 net.cpp:91] Creating Layer pool4/3x3_s2_pool4/3x3_s2_0_split
I0403 15:19:53.468550  2969 net.cpp:425] pool4/3x3_s2_pool4/3x3_s2_0_split <- pool4/3x3_s2
I0403 15:19:53.468570  2969 net.cpp:399] pool4/3x3_s2_pool4/3x3_s2_0_split -> pool4/3x3_s2_pool4/3x3_s2_0_split_0
I0403 15:19:53.468592  2969 net.cpp:399] pool4/3x3_s2_pool4/3x3_s2_0_split -> pool4/3x3_s2_pool4/3x3_s2_0_split_1
I0403 15:19:53.468614  2969 net.cpp:399] pool4/3x3_s2_pool4/3x3_s2_0_split -> pool4/3x3_s2_pool4/3x3_s2_0_split_2
I0403 15:19:53.468634  2969 net.cpp:399] pool4/3x3_s2_pool4/3x3_s2_0_split -> pool4/3x3_s2_pool4/3x3_s2_0_split_3
I0403 15:19:53.468732  2969 net.cpp:141] Setting up pool4/3x3_s2_pool4/3x3_s2_0_split
I0403 15:19:53.468756  2969 net.cpp:148] Top shape: 24 832 7 7 (978432)
I0403 15:19:53.468775  2969 net.cpp:148] Top shape: 24 832 7 7 (978432)
I0403 15:19:53.468791  2969 net.cpp:148] Top shape: 24 832 7 7 (978432)
I0403 15:19:53.468807  2969 net.cpp:148] Top shape: 24 832 7 7 (978432)
I0403 15:19:53.468822  2969 net.cpp:156] Memory required for data: 1292125728
I0403 15:19:53.468837  2969 layer_factory.hpp:77] Creating layer inception_5a/1x1
I0403 15:19:53.468859  2969 net.cpp:91] Creating Layer inception_5a/1x1
I0403 15:19:53.468878  2969 net.cpp:425] inception_5a/1x1 <- pool4/3x3_s2_pool4/3x3_s2_0_split_0
I0403 15:19:53.468900  2969 net.cpp:399] inception_5a/1x1 -> inception_5a/1x1
I0403 15:19:53.471863  2969 net.cpp:141] Setting up inception_5a/1x1
I0403 15:19:53.471895  2969 net.cpp:148] Top shape: 24 256 7 7 (301056)
I0403 15:19:53.471912  2969 net.cpp:156] Memory required for data: 1293329952
I0403 15:19:53.471932  2969 layer_factory.hpp:77] Creating layer inception_5a/relu_1x1
I0403 15:19:53.471953  2969 net.cpp:91] Creating Layer inception_5a/relu_1x1
I0403 15:19:53.471972  2969 net.cpp:425] inception_5a/relu_1x1 <- inception_5a/1x1
I0403 15:19:53.471992  2969 net.cpp:386] inception_5a/relu_1x1 -> inception_5a/1x1 (in-place)
I0403 15:19:53.472331  2969 net.cpp:141] Setting up inception_5a/relu_1x1
I0403 15:19:53.472357  2969 net.cpp:148] Top shape: 24 256 7 7 (301056)
I0403 15:19:53.472373  2969 net.cpp:156] Memory required for data: 1294534176
I0403 15:19:53.472390  2969 layer_factory.hpp:77] Creating layer inception_5a/3x3_reduce
I0403 15:19:53.472414  2969 net.cpp:91] Creating Layer inception_5a/3x3_reduce
I0403 15:19:53.472431  2969 net.cpp:425] inception_5a/3x3_reduce <- pool4/3x3_s2_pool4/3x3_s2_0_split_1
I0403 15:19:53.472453  2969 net.cpp:399] inception_5a/3x3_reduce -> inception_5a/3x3_reduce
I0403 15:19:53.474995  2969 net.cpp:141] Setting up inception_5a/3x3_reduce
I0403 15:19:53.475029  2969 net.cpp:148] Top shape: 24 160 7 7 (188160)
I0403 15:19:53.475047  2969 net.cpp:156] Memory required for data: 1295286816
I0403 15:19:53.475067  2969 layer_factory.hpp:77] Creating layer inception_5a/relu_3x3_reduce
I0403 15:19:53.475087  2969 net.cpp:91] Creating Layer inception_5a/relu_3x3_reduce
I0403 15:19:53.475106  2969 net.cpp:425] inception_5a/relu_3x3_reduce <- inception_5a/3x3_reduce
I0403 15:19:53.475123  2969 net.cpp:386] inception_5a/relu_3x3_reduce -> inception_5a/3x3_reduce (in-place)
I0403 15:19:53.475327  2969 net.cpp:141] Setting up inception_5a/relu_3x3_reduce
I0403 15:19:53.475353  2969 net.cpp:148] Top shape: 24 160 7 7 (188160)
I0403 15:19:53.475368  2969 net.cpp:156] Memory required for data: 1296039456
I0403 15:19:53.475384  2969 layer_factory.hpp:77] Creating layer inception_5a/3x3
I0403 15:19:53.475407  2969 net.cpp:91] Creating Layer inception_5a/3x3
I0403 15:19:53.475426  2969 net.cpp:425] inception_5a/3x3 <- inception_5a/3x3_reduce
I0403 15:19:53.475450  2969 net.cpp:399] inception_5a/3x3 -> inception_5a/3x3
I0403 15:19:53.480650  2969 net.cpp:141] Setting up inception_5a/3x3
I0403 15:19:53.480682  2969 net.cpp:148] Top shape: 24 320 7 7 (376320)
I0403 15:19:53.480698  2969 net.cpp:156] Memory required for data: 1297544736
I0403 15:19:53.480718  2969 layer_factory.hpp:77] Creating layer inception_5a/relu_3x3
I0403 15:19:53.480738  2969 net.cpp:91] Creating Layer inception_5a/relu_3x3
I0403 15:19:53.480756  2969 net.cpp:425] inception_5a/relu_3x3 <- inception_5a/3x3
I0403 15:19:53.480777  2969 net.cpp:386] inception_5a/relu_3x3 -> inception_5a/3x3 (in-place)
I0403 15:19:53.481081  2969 net.cpp:141] Setting up inception_5a/relu_3x3
I0403 15:19:53.481108  2969 net.cpp:148] Top shape: 24 320 7 7 (376320)
I0403 15:19:53.481124  2969 net.cpp:156] Memory required for data: 1299050016
I0403 15:19:53.481142  2969 layer_factory.hpp:77] Creating layer inception_5a/5x5_reduce
I0403 15:19:53.481164  2969 net.cpp:91] Creating Layer inception_5a/5x5_reduce
I0403 15:19:53.481192  2969 net.cpp:425] inception_5a/5x5_reduce <- pool4/3x3_s2_pool4/3x3_s2_0_split_2
I0403 15:19:53.481218  2969 net.cpp:399] inception_5a/5x5_reduce -> inception_5a/5x5_reduce
I0403 15:19:53.482453  2969 net.cpp:141] Setting up inception_5a/5x5_reduce
I0403 15:19:53.482486  2969 net.cpp:148] Top shape: 24 32 7 7 (37632)
I0403 15:19:53.482504  2969 net.cpp:156] Memory required for data: 1299200544
I0403 15:19:53.482523  2969 layer_factory.hpp:77] Creating layer inception_5a/relu_5x5_reduce
I0403 15:19:53.482542  2969 net.cpp:91] Creating Layer inception_5a/relu_5x5_reduce
I0403 15:19:53.482558  2969 net.cpp:425] inception_5a/relu_5x5_reduce <- inception_5a/5x5_reduce
I0403 15:19:53.482576  2969 net.cpp:386] inception_5a/relu_5x5_reduce -> inception_5a/5x5_reduce (in-place)
I0403 15:19:53.482883  2969 net.cpp:141] Setting up inception_5a/relu_5x5_reduce
I0403 15:19:53.482910  2969 net.cpp:148] Top shape: 24 32 7 7 (37632)
I0403 15:19:53.482925  2969 net.cpp:156] Memory required for data: 1299351072
I0403 15:19:53.482941  2969 layer_factory.hpp:77] Creating layer inception_5a/5x5
I0403 15:19:53.482964  2969 net.cpp:91] Creating Layer inception_5a/5x5
I0403 15:19:53.482982  2969 net.cpp:425] inception_5a/5x5 <- inception_5a/5x5_reduce
I0403 15:19:53.483006  2969 net.cpp:399] inception_5a/5x5 -> inception_5a/5x5
I0403 15:19:53.484799  2969 net.cpp:141] Setting up inception_5a/5x5
I0403 15:19:53.484840  2969 net.cpp:148] Top shape: 24 128 7 7 (150528)
I0403 15:19:53.484858  2969 net.cpp:156] Memory required for data: 1299953184
I0403 15:19:53.484876  2969 layer_factory.hpp:77] Creating layer inception_5a/relu_5x5
I0403 15:19:53.484894  2969 net.cpp:91] Creating Layer inception_5a/relu_5x5
I0403 15:19:53.484911  2969 net.cpp:425] inception_5a/relu_5x5 <- inception_5a/5x5
I0403 15:19:53.484931  2969 net.cpp:386] inception_5a/relu_5x5 -> inception_5a/5x5 (in-place)
I0403 15:19:53.485131  2969 net.cpp:141] Setting up inception_5a/relu_5x5
I0403 15:19:53.485157  2969 net.cpp:148] Top shape: 24 128 7 7 (150528)
I0403 15:19:53.485172  2969 net.cpp:156] Memory required for data: 1300555296
I0403 15:19:53.485194  2969 layer_factory.hpp:77] Creating layer inception_5a/pool
I0403 15:19:53.485216  2969 net.cpp:91] Creating Layer inception_5a/pool
I0403 15:19:53.485234  2969 net.cpp:425] inception_5a/pool <- pool4/3x3_s2_pool4/3x3_s2_0_split_3
I0403 15:19:53.485255  2969 net.cpp:399] inception_5a/pool -> inception_5a/pool
I0403 15:19:53.485328  2969 net.cpp:141] Setting up inception_5a/pool
I0403 15:19:53.485353  2969 net.cpp:148] Top shape: 24 832 7 7 (978432)
I0403 15:19:53.485368  2969 net.cpp:156] Memory required for data: 1304469024
I0403 15:19:53.485383  2969 layer_factory.hpp:77] Creating layer inception_5a/pool_proj
I0403 15:19:53.485406  2969 net.cpp:91] Creating Layer inception_5a/pool_proj
I0403 15:19:53.485424  2969 net.cpp:425] inception_5a/pool_proj <- inception_5a/pool
I0403 15:19:53.485446  2969 net.cpp:399] inception_5a/pool_proj -> inception_5a/pool_proj
I0403 15:19:53.487910  2969 net.cpp:141] Setting up inception_5a/pool_proj
I0403 15:19:53.487944  2969 net.cpp:148] Top shape: 24 128 7 7 (150528)
I0403 15:19:53.487963  2969 net.cpp:156] Memory required for data: 1305071136
I0403 15:19:53.487984  2969 layer_factory.hpp:77] Creating layer inception_5a/relu_pool_proj
I0403 15:19:53.488004  2969 net.cpp:91] Creating Layer inception_5a/relu_pool_proj
I0403 15:19:53.488023  2969 net.cpp:425] inception_5a/relu_pool_proj <- inception_5a/pool_proj
I0403 15:19:53.488044  2969 net.cpp:386] inception_5a/relu_pool_proj -> inception_5a/pool_proj (in-place)
I0403 15:19:53.488364  2969 net.cpp:141] Setting up inception_5a/relu_pool_proj
I0403 15:19:53.488395  2969 net.cpp:148] Top shape: 24 128 7 7 (150528)
I0403 15:19:53.488414  2969 net.cpp:156] Memory required for data: 1305673248
I0403 15:19:53.488430  2969 layer_factory.hpp:77] Creating layer inception_5a/output
I0403 15:19:53.488447  2969 net.cpp:91] Creating Layer inception_5a/output
I0403 15:19:53.488464  2969 net.cpp:425] inception_5a/output <- inception_5a/1x1
I0403 15:19:53.488482  2969 net.cpp:425] inception_5a/output <- inception_5a/3x3
I0403 15:19:53.488500  2969 net.cpp:425] inception_5a/output <- inception_5a/5x5
I0403 15:19:53.488517  2969 net.cpp:425] inception_5a/output <- inception_5a/pool_proj
I0403 15:19:53.488538  2969 net.cpp:399] inception_5a/output -> inception_5a/output
I0403 15:19:53.488592  2969 net.cpp:141] Setting up inception_5a/output
I0403 15:19:53.488617  2969 net.cpp:148] Top shape: 24 832 7 7 (978432)
I0403 15:19:53.488633  2969 net.cpp:156] Memory required for data: 1309586976
I0403 15:19:53.488648  2969 layer_factory.hpp:77] Creating layer inception_5a/output_inception_5a/output_0_split
I0403 15:19:53.488669  2969 net.cpp:91] Creating Layer inception_5a/output_inception_5a/output_0_split
I0403 15:19:53.488688  2969 net.cpp:425] inception_5a/output_inception_5a/output_0_split <- inception_5a/output
I0403 15:19:53.488708  2969 net.cpp:399] inception_5a/output_inception_5a/output_0_split -> inception_5a/output_inception_5a/output_0_split_0
I0403 15:19:53.488732  2969 net.cpp:399] inception_5a/output_inception_5a/output_0_split -> inception_5a/output_inception_5a/output_0_split_1
I0403 15:19:53.488755  2969 net.cpp:399] inception_5a/output_inception_5a/output_0_split -> inception_5a/output_inception_5a/output_0_split_2
I0403 15:19:53.488778  2969 net.cpp:399] inception_5a/output_inception_5a/output_0_split -> inception_5a/output_inception_5a/output_0_split_3
I0403 15:19:53.488898  2969 net.cpp:141] Setting up inception_5a/output_inception_5a/output_0_split
I0403 15:19:53.488922  2969 net.cpp:148] Top shape: 24 832 7 7 (978432)
I0403 15:19:53.488940  2969 net.cpp:148] Top shape: 24 832 7 7 (978432)
I0403 15:19:53.488956  2969 net.cpp:148] Top shape: 24 832 7 7 (978432)
I0403 15:19:53.488973  2969 net.cpp:148] Top shape: 24 832 7 7 (978432)
I0403 15:19:53.488988  2969 net.cpp:156] Memory required for data: 1325241888
I0403 15:19:53.489003  2969 layer_factory.hpp:77] Creating layer inception_5b/1x1
I0403 15:19:53.489027  2969 net.cpp:91] Creating Layer inception_5b/1x1
I0403 15:19:53.489047  2969 net.cpp:425] inception_5b/1x1 <- inception_5a/output_inception_5a/output_0_split_0
I0403 15:19:53.489069  2969 net.cpp:399] inception_5b/1x1 -> inception_5b/1x1
I0403 15:19:53.493145  2969 net.cpp:141] Setting up inception_5b/1x1
I0403 15:19:53.493187  2969 net.cpp:148] Top shape: 24 384 7 7 (451584)
I0403 15:19:53.493208  2969 net.cpp:156] Memory required for data: 1327048224
I0403 15:19:53.493229  2969 layer_factory.hpp:77] Creating layer inception_5b/relu_1x1
I0403 15:19:53.493249  2969 net.cpp:91] Creating Layer inception_5b/relu_1x1
I0403 15:19:53.493273  2969 net.cpp:425] inception_5b/relu_1x1 <- inception_5b/1x1
I0403 15:19:53.493294  2969 net.cpp:386] inception_5b/relu_1x1 -> inception_5b/1x1 (in-place)
I0403 15:19:53.493633  2969 net.cpp:141] Setting up inception_5b/relu_1x1
I0403 15:19:53.493664  2969 net.cpp:148] Top shape: 24 384 7 7 (451584)
I0403 15:19:53.493680  2969 net.cpp:156] Memory required for data: 1328854560
I0403 15:19:53.493696  2969 layer_factory.hpp:77] Creating layer inception_5b/3x3_reduce
I0403 15:19:53.493721  2969 net.cpp:91] Creating Layer inception_5b/3x3_reduce
I0403 15:19:53.493739  2969 net.cpp:425] inception_5b/3x3_reduce <- inception_5a/output_inception_5a/output_0_split_1
I0403 15:19:53.493760  2969 net.cpp:399] inception_5b/3x3_reduce -> inception_5b/3x3_reduce
I0403 15:19:53.496623  2969 net.cpp:141] Setting up inception_5b/3x3_reduce
I0403 15:19:53.496659  2969 net.cpp:148] Top shape: 24 192 7 7 (225792)
I0403 15:19:53.496676  2969 net.cpp:156] Memory required for data: 1329757728
I0403 15:19:53.496696  2969 layer_factory.hpp:77] Creating layer inception_5b/relu_3x3_reduce
I0403 15:19:53.496716  2969 net.cpp:91] Creating Layer inception_5b/relu_3x3_reduce
I0403 15:19:53.496733  2969 net.cpp:425] inception_5b/relu_3x3_reduce <- inception_5b/3x3_reduce
I0403 15:19:53.496755  2969 net.cpp:386] inception_5b/relu_3x3_reduce -> inception_5b/3x3_reduce (in-place)
I0403 15:19:53.496960  2969 net.cpp:141] Setting up inception_5b/relu_3x3_reduce
I0403 15:19:53.496987  2969 net.cpp:148] Top shape: 24 192 7 7 (225792)
I0403 15:19:53.497004  2969 net.cpp:156] Memory required for data: 1330660896
I0403 15:19:53.497019  2969 layer_factory.hpp:77] Creating layer inception_5b/3x3
I0403 15:19:53.497042  2969 net.cpp:91] Creating Layer inception_5b/3x3
I0403 15:19:53.497061  2969 net.cpp:425] inception_5b/3x3 <- inception_5b/3x3_reduce
I0403 15:19:53.497088  2969 net.cpp:399] inception_5b/3x3 -> inception_5b/3x3
I0403 15:19:53.504341  2969 net.cpp:141] Setting up inception_5b/3x3
I0403 15:19:53.504379  2969 net.cpp:148] Top shape: 24 384 7 7 (451584)
I0403 15:19:53.504396  2969 net.cpp:156] Memory required for data: 1332467232
I0403 15:19:53.504416  2969 layer_factory.hpp:77] Creating layer inception_5b/relu_3x3
I0403 15:19:53.504448  2969 net.cpp:91] Creating Layer inception_5b/relu_3x3
I0403 15:19:53.504468  2969 net.cpp:425] inception_5b/relu_3x3 <- inception_5b/3x3
I0403 15:19:53.504488  2969 net.cpp:386] inception_5b/relu_3x3 -> inception_5b/3x3 (in-place)
I0403 15:19:53.504796  2969 net.cpp:141] Setting up inception_5b/relu_3x3
I0403 15:19:53.504825  2969 net.cpp:148] Top shape: 24 384 7 7 (451584)
I0403 15:19:53.504842  2969 net.cpp:156] Memory required for data: 1334273568
I0403 15:19:53.504858  2969 layer_factory.hpp:77] Creating layer inception_5b/5x5_reduce
I0403 15:19:53.504901  2969 net.cpp:91] Creating Layer inception_5b/5x5_reduce
I0403 15:19:53.504921  2969 net.cpp:425] inception_5b/5x5_reduce <- inception_5a/output_inception_5a/output_0_split_2
I0403 15:19:53.504945  2969 net.cpp:399] inception_5b/5x5_reduce -> inception_5b/5x5_reduce
I0403 15:19:53.506294  2969 net.cpp:141] Setting up inception_5b/5x5_reduce
I0403 15:19:53.506324  2969 net.cpp:148] Top shape: 24 48 7 7 (56448)
I0403 15:19:53.506341  2969 net.cpp:156] Memory required for data: 1334499360
I0403 15:19:53.506361  2969 layer_factory.hpp:77] Creating layer inception_5b/relu_5x5_reduce
I0403 15:19:53.506381  2969 net.cpp:91] Creating Layer inception_5b/relu_5x5_reduce
I0403 15:19:53.506398  2969 net.cpp:425] inception_5b/relu_5x5_reduce <- inception_5b/5x5_reduce
I0403 15:19:53.506419  2969 net.cpp:386] inception_5b/relu_5x5_reduce -> inception_5b/5x5_reduce (in-place)
I0403 15:19:53.506811  2969 net.cpp:141] Setting up inception_5b/relu_5x5_reduce
I0403 15:19:53.506841  2969 net.cpp:148] Top shape: 24 48 7 7 (56448)
I0403 15:19:53.506857  2969 net.cpp:156] Memory required for data: 1334725152
I0403 15:19:53.506873  2969 layer_factory.hpp:77] Creating layer inception_5b/5x5
I0403 15:19:53.506896  2969 net.cpp:91] Creating Layer inception_5b/5x5
I0403 15:19:53.506913  2969 net.cpp:425] inception_5b/5x5 <- inception_5b/5x5_reduce
I0403 15:19:53.506933  2969 net.cpp:399] inception_5b/5x5 -> inception_5b/5x5
I0403 15:19:53.509109  2969 net.cpp:141] Setting up inception_5b/5x5
I0403 15:19:53.509140  2969 net.cpp:148] Top shape: 24 128 7 7 (150528)
I0403 15:19:53.509157  2969 net.cpp:156] Memory required for data: 1335327264
I0403 15:19:53.509182  2969 layer_factory.hpp:77] Creating layer inception_5b/relu_5x5
I0403 15:19:53.509205  2969 net.cpp:91] Creating Layer inception_5b/relu_5x5
I0403 15:19:53.509223  2969 net.cpp:425] inception_5b/relu_5x5 <- inception_5b/5x5
I0403 15:19:53.509243  2969 net.cpp:386] inception_5b/relu_5x5 -> inception_5b/5x5 (in-place)
I0403 15:19:53.509450  2969 net.cpp:141] Setting up inception_5b/relu_5x5
I0403 15:19:53.509477  2969 net.cpp:148] Top shape: 24 128 7 7 (150528)
I0403 15:19:53.509492  2969 net.cpp:156] Memory required for data: 1335929376
I0403 15:19:53.509507  2969 layer_factory.hpp:77] Creating layer inception_5b/pool
I0403 15:19:53.509529  2969 net.cpp:91] Creating Layer inception_5b/pool
I0403 15:19:53.509555  2969 net.cpp:425] inception_5b/pool <- inception_5a/output_inception_5a/output_0_split_3
I0403 15:19:53.509575  2969 net.cpp:399] inception_5b/pool -> inception_5b/pool
I0403 15:19:53.509654  2969 net.cpp:141] Setting up inception_5b/pool
I0403 15:19:53.509678  2969 net.cpp:148] Top shape: 24 832 7 7 (978432)
I0403 15:19:53.509695  2969 net.cpp:156] Memory required for data: 1339843104
I0403 15:19:53.509709  2969 layer_factory.hpp:77] Creating layer inception_5b/pool_proj
I0403 15:19:53.509733  2969 net.cpp:91] Creating Layer inception_5b/pool_proj
I0403 15:19:53.509752  2969 net.cpp:425] inception_5b/pool_proj <- inception_5b/pool
I0403 15:19:53.509773  2969 net.cpp:399] inception_5b/pool_proj -> inception_5b/pool_proj
I0403 15:19:53.512190  2969 net.cpp:141] Setting up inception_5b/pool_proj
I0403 15:19:53.512223  2969 net.cpp:148] Top shape: 24 128 7 7 (150528)
I0403 15:19:53.512240  2969 net.cpp:156] Memory required for data: 1340445216
I0403 15:19:53.512261  2969 layer_factory.hpp:77] Creating layer inception_5b/relu_pool_proj
I0403 15:19:53.512280  2969 net.cpp:91] Creating Layer inception_5b/relu_pool_proj
I0403 15:19:53.512297  2969 net.cpp:425] inception_5b/relu_pool_proj <- inception_5b/pool_proj
I0403 15:19:53.512318  2969 net.cpp:386] inception_5b/relu_pool_proj -> inception_5b/pool_proj (in-place)
I0403 15:19:53.512632  2969 net.cpp:141] Setting up inception_5b/relu_pool_proj
I0403 15:19:53.512661  2969 net.cpp:148] Top shape: 24 128 7 7 (150528)
I0403 15:19:53.512677  2969 net.cpp:156] Memory required for data: 1341047328
I0403 15:19:53.512694  2969 layer_factory.hpp:77] Creating layer inception_5b/output
I0403 15:19:53.512712  2969 net.cpp:91] Creating Layer inception_5b/output
I0403 15:19:53.512747  2969 net.cpp:425] inception_5b/output <- inception_5b/1x1
I0403 15:19:53.512765  2969 net.cpp:425] inception_5b/output <- inception_5b/3x3
I0403 15:19:53.512784  2969 net.cpp:425] inception_5b/output <- inception_5b/5x5
I0403 15:19:53.512802  2969 net.cpp:425] inception_5b/output <- inception_5b/pool_proj
I0403 15:19:53.512822  2969 net.cpp:399] inception_5b/output -> inception_5b/output
I0403 15:19:53.512876  2969 net.cpp:141] Setting up inception_5b/output
I0403 15:19:53.512904  2969 net.cpp:148] Top shape: 24 1024 7 7 (1204224)
I0403 15:19:53.512920  2969 net.cpp:156] Memory required for data: 1345864224
I0403 15:19:53.512935  2969 layer_factory.hpp:77] Creating layer pool5/7x7_s1
I0403 15:19:53.512953  2969 net.cpp:91] Creating Layer pool5/7x7_s1
I0403 15:19:53.512969  2969 net.cpp:425] pool5/7x7_s1 <- inception_5b/output
I0403 15:19:53.512989  2969 net.cpp:399] pool5/7x7_s1 -> pool5/7x7_s1
I0403 15:19:53.513226  2969 net.cpp:141] Setting up pool5/7x7_s1
I0403 15:19:53.513258  2969 net.cpp:148] Top shape: 24 1024 1 1 (24576)
I0403 15:19:53.513274  2969 net.cpp:156] Memory required for data: 1345962528
I0403 15:19:53.513289  2969 layer_factory.hpp:77] Creating layer pool5/drop_7x7_s1
I0403 15:19:53.513309  2969 net.cpp:91] Creating Layer pool5/drop_7x7_s1
I0403 15:19:53.513325  2969 net.cpp:425] pool5/drop_7x7_s1 <- pool5/7x7_s1
I0403 15:19:53.513345  2969 net.cpp:386] pool5/drop_7x7_s1 -> pool5/7x7_s1 (in-place)
I0403 15:19:53.513398  2969 net.cpp:141] Setting up pool5/drop_7x7_s1
I0403 15:19:53.513425  2969 net.cpp:148] Top shape: 24 1024 1 1 (24576)
I0403 15:19:53.513442  2969 net.cpp:156] Memory required for data: 1346060832
I0403 15:19:53.513458  2969 layer_factory.hpp:77] Creating layer loss3/classifier_plantvillage
I0403 15:19:53.513478  2969 net.cpp:91] Creating Layer loss3/classifier_plantvillage
I0403 15:19:53.513494  2969 net.cpp:425] loss3/classifier_plantvillage <- pool5/7x7_s1
I0403 15:19:53.513516  2969 net.cpp:399] loss3/classifier_plantvillage -> loss3/classifier_plantvillage
I0403 15:19:53.513974  2969 net.cpp:141] Setting up loss3/classifier_plantvillage
I0403 15:19:53.514000  2969 net.cpp:148] Top shape: 24 38 (912)
I0403 15:19:53.514015  2969 net.cpp:156] Memory required for data: 1346064480
I0403 15:19:53.514034  2969 layer_factory.hpp:77] Creating layer loss3/classifier_plantvillage_loss3/classifier_plantvillage_0_split
I0403 15:19:53.514056  2969 net.cpp:91] Creating Layer loss3/classifier_plantvillage_loss3/classifier_plantvillage_0_split
I0403 15:19:53.514075  2969 net.cpp:425] loss3/classifier_plantvillage_loss3/classifier_plantvillage_0_split <- loss3/classifier_plantvillage
I0403 15:19:53.514092  2969 net.cpp:399] loss3/classifier_plantvillage_loss3/classifier_plantvillage_0_split -> loss3/classifier_plantvillage_loss3/classifier_plantvillage_0_split_0
I0403 15:19:53.514117  2969 net.cpp:399] loss3/classifier_plantvillage_loss3/classifier_plantvillage_0_split -> loss3/classifier_plantvillage_loss3/classifier_plantvillage_0_split_1
I0403 15:19:53.514138  2969 net.cpp:399] loss3/classifier_plantvillage_loss3/classifier_plantvillage_0_split -> loss3/classifier_plantvillage_loss3/classifier_plantvillage_0_split_2
I0403 15:19:53.514159  2969 net.cpp:399] loss3/classifier_plantvillage_loss3/classifier_plantvillage_0_split -> loss3/classifier_plantvillage_loss3/classifier_plantvillage_0_split_3
I0403 15:19:53.514273  2969 net.cpp:141] Setting up loss3/classifier_plantvillage_loss3/classifier_plantvillage_0_split
I0403 15:19:53.514297  2969 net.cpp:148] Top shape: 24 38 (912)
I0403 15:19:53.514314  2969 net.cpp:148] Top shape: 24 38 (912)
I0403 15:19:53.514330  2969 net.cpp:148] Top shape: 24 38 (912)
I0403 15:19:53.514348  2969 net.cpp:148] Top shape: 24 38 (912)
I0403 15:19:53.514363  2969 net.cpp:156] Memory required for data: 1346079072
I0403 15:19:53.514377  2969 layer_factory.hpp:77] Creating layer loss1/loss
I0403 15:19:53.514400  2969 net.cpp:91] Creating Layer loss1/loss
I0403 15:19:53.514417  2969 net.cpp:425] loss1/loss <- loss1/classifier_plantvillage_loss1/classifier_plantvillage_0_split_0
I0403 15:19:53.514449  2969 net.cpp:425] loss1/loss <- label_data_1_split_0
…
