…
I0403 15:36:46.480872  3282 net.cpp:313] The NetState phase (1) differed from the phase (0) specified by a rule in layer data
I0403 15:36:46.482090  3282 net.cpp:49] Initializing net from parameters: 
state {
  phase: TEST
}
layer {
  name: "data"
  type: "Data"
  top: "data"
  top: "label"
  include {
    phase: TEST
  }
  transform_param {
    mirror: false
    crop_size: 224
    mean_file: "/home/mohanty/data/final_dataset/lmdb/segmented-60-40/mean.binaryproto"
  }
  data_param {
    source: "/home/mohanty/data/final_dataset/lmdb/segmented-60-40/test_db"
    batch_size: 24
    backend: LMDB
  }
}
layer {
  name: "conv1/7x7_s2"
  type: "Convolution"
  bottom: "data"
  top: "conv1/7x7_s2"
  param {
    lr_mult: 1
    decay_mult: 1
  }
  param {
    lr_mult: 2
    decay_mult: 0
  }
  convolution_param {
    num_output: 64
    pad: 3
    kernel_size: 7
    stride: 2
    weight_filler {
      type: "xavier"
      std: 0.1
    }
    bias_filler {
      type: "constant"
      value: 0.2
    }
  }
}
layer {
  name: "conv1/relu_7x7"
  type: "ReLU"
  bottom: "conv1/7x7_s2"
  top: "conv1/7x7_s2"
}
layer {
  name: "pool1/3x3_s2"
  type: "Pooling"
  bottom: "conv1/7x7_s2"
  top: "pool1/3x3_s2"
  pooling_param {
    pool: MAX
    kernel_size: 3
    stride: 2
  }
}
layer {
  name: "pool1/norm1"
  type: "LRN"
  bottom: "pool1/3x3_s2"
  top: "pool1/norm1"
  lrn_param {
    local_size: 5
    alpha: 0.0001
    beta: 0.75
  }
}
layer {
  name: "conv2/3x3_reduce"
  type: "Convolution"
  bottom: "pool1/norm1"
  top: "conv2/3x3_reduce"
  param {
    lr_mult: 1
    decay_mult: 1
  }
  param {
    lr_mult: 2
    decay_mult: 0
  }
  convolution_param {
    num_output: 64
    kernel_size: 1
    weight_filler {
      type: "xavier"
      std: 0.1
    }
    bias_filler {
      type: "constant"
      value: 0.2
    }
  }
}
layer {
  name: "conv2/relu_3x3_reduce"
  type: "ReLU"
  bottom: "conv2/3x3_reduce"
  top: "conv2/3x3_reduce"
}
layer {
  name: "conv2/3x3"
  type: "Convolution"
  bottom: "conv2/3x3_reduce"
  top: "conv2/3x3"
  param {
    lr_mult: 1
    decay_mult: 1
  }
  param {
    lr_mult: 2
    decay_mult: 0
  }
  convolution_param {
    num_output: 192
    pad: 1
    kernel_size: 3
    weight_filler {
      type: "xavier"
      std: 0.03
    }
    bias_filler {
      type: "constant"
      value: 0.2
    }
  }
}
layer {
  name: "conv2/relu_3x3"
  type: "ReLU"
  bottom: "conv2/3x3"
  top: "conv2/3x3"
}
layer {
  name: "conv2/norm2"
  type: "LRN"
  bottom: "conv2/3x3"
  top: "conv2/norm2"
  lrn_param {
    local_size: 5
    alpha: 0.0001
    beta: 0.75
  }
}
layer {
  name: "pool2/3x3_s2"
  type: "Pooling"
  bottom: "conv2/norm2"
  top: "pool2/3x3_s2"
  pooling_param {
    pool: MAX
    kernel_size: 3
    stride: 2
  }
}
layer {
  name: "inception_3a/1x1"
  type: "Convolution"
  bottom: "pool2/3x3_s2"
  top: "inception_3a/1x1"
  param {
    lr_mult: 1
    decay_mult: 1
  }
  param {
    lr_mult: 2
    decay_mult: 0
  }
  convolution_param {
    num_output: 64
    kernel_size: 1
    weight_filler {
      type: "xavier"
      std: 0.03
    }
    bias_filler {
      type: "constant"
      value: 0.2
    }
  }
}
layer {
  name: "inception_3a/relu_1x1"
  type: "ReLU"
  bottom: "inception_3a/1x1"
  top: "inception_3a/1x1"
}
layer {
  name: "inception_3a/3x3_reduce"
  type: "Convolution"
  bottom: "pool2/3x3_s2"
  top: "inception_3a/3x3_reduce"
  param {
    lr_mult: 1
    decay_mult: 1
  }
  param {
    lr_mult: 2
    decay_mult: 0
  }
  convolution_param {
    num_output: 96
    kernel_size: 1
    weight_filler {
      type: "xavier"
      std: 0.09
    }
    bias_filler {
      type: "constant"
      value: 0.2
    }
  }
}
layer {
  name: "inception_3a/relu_3x3_reduce"
  type: "ReLU"
  bottom: "inception_3a/3x3_reduce"
  top: "inception_3a/3x3_reduce"
}
layer {
  name: "inception_3a/3x3"
  type: "Convolution"
  bottom: "inception_3a/3x3_reduce"
  top: "inception_3a/3x3"
  param {
    lr_mult: 1
    decay_mult: 1
  }
  param {
    lr_mult: 2
    decay_mult: 0
  }
  convolution_param {
    num_output: 128
    pad: 1
    kernel_size: 3
    weight_filler {
      type: "xavier"
      std: 0.03
    }
    bias_filler {
      type: "constant"
      value: 0.2
    }
  }
}
layer {
  name: "inception_3a/relu_3x3"
  type: "ReLU"
  bottom: "inception_3a/3x3"
  top: "inception_3a/3x3"
}
layer {
  name: "inception_3a/5x5_reduce"
  type: "Convolution"
  bottom: "pool2/3x3_s2"
  top: "inception_3a/5x5_reduce"
  param {
    lr_mult: 1
    decay_mult: 1
  }
  param {
    lr_mult: 2
    decay_mult: 0
  }
  convolution_param {
    num_output: 16
    kernel_size: 1
    weight_filler {
      type: "xavier"
      std: 0.2
    }
    bias_filler {
      type: "constant"
      value: 0.2
    }
  }
}
layer {
  name: "inception_3a/relu_5x5_reduce"
  type: "ReLU"
  bottom: "inception_3a/5x5_reduce"
  top: "inception_3a/5x5_reduce"
}
layer {
  name: "inception_3a/5x5"
  type: "Convolution"
  bottom: "inception_3a/5x5_reduce"
  top: "inception_3a/5x5"
  param {
    lr_mult: 1
    decay_mult: 1
  }
  param {
    lr_mult: 2
    decay_mult: 0
  }
  convolution_param {
    num_output: 32
    pad: 2
    kernel_size: 5
    weight_filler {
      type: "xavier"
      std: 0.03
    }
    bias_filler {
      type: "constant"
      value: 0.2
    }
  }
}
layer {
  name: "inception_3a/relu_5x5"
  type: "ReLU"
  bottom: "inception_3a/5x5"
  top: "inception_3a/5x5"
}
layer {
  name: "inception_3a/pool"
  type: "Pooling"
  bottom: "pool2/3x3_s2"
  top: "inception_3a/pool"
  pooling_param {
    pool: MAX
    kernel_size: 3
    stride: 1
    pad: 1
  }
}
layer {
  name: "inception_3a/pool_proj"
  type: "Convolution"
  bottom: "inception_3a/pool"
  top: "inception_3a/pool_proj"
  param {
    lr_mult: 1
    decay_mult: 1
  }
  param {
    lr_mult: 2
    decay_mult: 0
  }
  convolution_param {
    num_output: 32
    kernel_size: 1
    weight_filler {
      type: "xavier"
      std: 0.1
    }
    bias_filler {
      type: "constant"
      value: 0.2
    }
  }
}
layer {
  name: "inception_3a/relu_pool_proj"
  type: "ReLU"
  bottom: "inception_3a/pool_proj"
  top: "inception_3a/pool_proj"
}
layer {
  name: "inception_3a/output"
  type: "Concat"
  bottom: "inception_3a/1x1"
  bottom: "inception_3a/3x3"
  bottom: "inception_3a/5x5"
  bottom: "inception_3a/pool_proj"
  top: "inception_3a/output"
}
layer {
  name: "inception_3b/1x1"
  type: "Convolution"
  bottom: "inception_3a/output"
  top: "inception_3b/1x1"
  param {
    lr_mult: 1
    decay_mult: 1
  }
  param {
    lr_mult: 2
    decay_mult: 0
  }
  convolution_param {
    num_output: 128
    kernel_size: 1
    weight_filler {
      type: "xavier"
      std: 0.03
    }
    bias_filler {
      type: "constant"
      value: 0.2
    }
  }
}
layer {
  name: "inception_3b/relu_1x1"
  type: "ReLU"
  bottom: "inception_3b/1x1"
  top: "inception_3b/1x1"
}
layer {
  name: "inception_3b/3x3_reduce"
  type: "Convolution"
  bottom: "inception_3a/output"
  top: "inception_3b/3x3_reduce"
  param {
    lr_mult: 1
    decay_mult: 1
  }
  param {
    lr_mult: 2
    decay_mult: 0
  }
  convolution_param {
    num_output: 128
    kernel_size: 1
    weight_filler {
      type: "xavier"
      std: 0.09
    }
    bias_filler {
      type: "constant"
      value: 0.2
    }
  }
}
layer {
  name: "inception_3b/relu_3x3_reduce"
  type: "ReLU"
  bottom: "inception_3b/3x3_reduce"
  top: "inception_3b/3x3_reduce"
}
layer {
  name: "inception_3b/3x3"
  type: "Convolution"
  bottom: "inception_3b/3x3_reduce"
  top: "inception_3b/3x3"
  param {
    lr_mult: 1
    decay_mult: 1
  }
  param {
    lr_mult: 2
    decay_mult: 0
  }
  convolution_param {
    num_output: 192
    pad: 1
    kernel_size: 3
    weight_filler {
      type: "xavier"
      std: 0.03
    }
    bias_filler {
      type: "constant"
      value: 0.2
    }
  }
}
layer {
  name: "inception_3b/relu_3x3"
  type: "ReLU"
  bottom: "inception_3b/3x3"
  top: "inception_3b/3x3"
}
layer {
  name: "inception_3b/5x5_reduce"
  type: "Convolution"
  bottom: "inception_3a/output"
  top: "inception_3b/5x5_reduce"
  param {
    lr_mult: 1
    decay_mult: 1
  }
  param {
    lr_mult: 2
    decay_mult: 0
  }
  convolution_param {
    num_output: 32
    kernel_size: 1
    weight_filler {
      type: "xavier"
      std: 0.2
    }
    bias_filler {
      type: "constant"
      value: 0.2
    }
  }
}
layer {
  name: "inception_3b/relu_5x5_reduce"
  type: "ReLU"
  bottom: "inception_3b/5x5_reduce"
  top: "inception_3b/5x5_reduce"
}
layer {
  name: "inception_3b/5x5"
  type: "Convolution"
  bottom: "inception_3b/5x5_reduce"
  top: "inception_3b/5x5"
  param {
    lr_mult: 1
    decay_mult: 1
  }
  param {
    lr_mult: 2
    decay_mult: 0
  }
  convolution_param {
    num_output: 96
    pad: 2
    kernel_size: 5
    weight_filler {
      type: "xavier"
      std: 0.03
    }
    bias_filler {
      type: "constant"
      value: 0.2
    }
  }
}
layer {
  name: "inception_3b/relu_5x5"
  type: "ReLU"
  bottom: "inception_3b/5x5"
  top: "inception_3b/5x5"
}
layer {
  name: "inception_3b/pool"
  type: "Pooling"
  bottom: "inception_3a/output"
  top: "inception_3b/pool"
  pooling_param {
    pool: MAX
    kernel_size: 3
    stride: 1
    pad: 1
  }
}
layer {
  name: "inception_3b/pool_proj"
  type: "Convolution"
  bottom: "inception_3b/pool"
  top: "inception_3b/pool_proj"
  param {
    lr_mult: 1
    decay_mult: 1
  }
  param {
    lr_mult: 2
    decay_mult: 0
  }
  convolution_param {
    num_output: 64
    kernel_size: 1
    weight_filler {
      type: "xavier"
      std: 0.1
    }
    bias_filler {
      type: "constant"
      value: 0.2
    }
  }
}
layer {
  name: "inception_3b/relu_pool_proj"
  type: "ReLU"
  bottom: "inception_3b/pool_proj"
  top: "inception_3b/pool_proj"
}
layer {
  name: "inception_3b/output"
  type: "Concat"
  bottom: "inception_3b/1x1"
  bottom: "inception_3b/3x3"
  bottom: "inception_3b/5x5"
  bottom: "inception_3b/pool_proj"
  top: "inception_3b/output"
}
layer {
  name: "pool3/3x3_s2"
  type: "Pooling"
  bottom: "inception_3b/output"
  top: "pool3/3x3_s2"
  pooling_param {
    pool: MAX
    kernel_size: 3
    stride: 2
  }
}
layer {
  name: "inception_4a/1x1"
  type: "Convolution"
  bottom: "pool3/3x3_s2"
  top: "inception_4a/1x1"
  param {
    lr_mult: 1
    decay_mult: 1
  }
  param {
    lr_mult: 2
    decay_mult: 0
  }
  convolution_param {
    num_output: 192
    kernel_size: 1
    weight_filler {
      type: "xavier"
      std: 0.03
    }
    bias_filler {
      type: "constant"
      value: 0.2
    }
  }
}
layer {
  name: "inception_4a/relu_1x1"
  type: "ReLU"
  bottom: "inception_4a/1x1"
  top: "inception_4a/1x1"
}
layer {
  name: "inception_4a/3x3_reduce"
  type: "Convolution"
  bottom: "pool3/3x3_s2"
  top: "inception_4a/3x3_reduce"
  param {
    lr_mult: 1
    decay_mult: 1
  }
  param {
    lr_mult: 2
    decay_mult: 0
  }
  convolution_param {
    num_output: 96
    kernel_size: 1
    weight_filler {
      type: "xavier"
      std: 0.09
    }
    bias_filler {
      type: "constant"
      value: 0.2
    }
  }
}
layer {
  name: "inception_4a/relu_3x3_reduce"
  type: "ReLU"
  bottom: "inception_4a/3x3_reduce"
  top: "inception_4a/3x3_reduce"
}
layer {
  name: "inception_4a/3x3"
  type: "Convolution"
  bottom: "inception_4a/3x3_reduce"
  top: "inception_4a/3x3"
  param {
    lr_mult: 1
    decay_mult: 1
  }
  param {
    lr_mult: 2
    decay_mult: 0
  }
  convolution_param {
    num_output: 208
    pad: 1
    kernel_size: 3
    weight_filler {
      type: "xavier"
      std: 0.03
    }
    bias_filler {
      type: "constant"
      value: 0.2
    }
  }
}
layer {
  name: "inception_4a/relu_3x3"
  type: "ReLU"
  bottom: "inception_4a/3x3"
  top: "inception_4a/3x3"
}
layer {
  name: "inception_4a/5x5_reduce"
  type: "Convolution"
  bottom: "pool3/3x3_s2"
  top: "inception_4a/5x5_reduce"
  param {
    lr_mult: 1
    decay_mult: 1
  }
  param {
    lr_mult: 2
    decay_mult: 0
  }
  convolution_param {
    num_output: 16
    kernel_size: 1
    weight_filler {
      type: "xavier"
      std: 0.2
    }
    bias_filler {
      type: "constant"
      value: 0.2
    }
  }
}
layer {
  name: "inception_4a/relu_5x5_reduce"
  type: "ReLU"
  bottom: "inception_4a/5x5_reduce"
  top: "inception_4a/5x5_reduce"
}
layer {
  name: "inception_4a/5x5"
  type: "Convolution"
  bottom: "inception_4a/5x5_reduce"
  top: "inception_4a/5x5"
  param {
    lr_mult: 1
    decay_mult: 1
  }
  param {
    lr_mult: 2
    decay_mult: 0
  }
  convolution_param {
    num_output: 48
    pad: 2
    kernel_size: 5
    weight_filler {
      type: "xavier"
      std: 0.03
    }
    bias_filler {
      type: "constant"
      value: 0.2
    }
  }
}
layer {
  name: "inception_4a/relu_5x5"
  type: "ReLU"
  bottom: "inception_4a/5x5"
  top: "inception_4a/5x5"
}
layer {
  name: "inception_4a/pool"
  type: "Pooling"
  bottom: "pool3/3x3_s2"
  top: "inception_4a/pool"
  pooling_param {
    pool: MAX
    kernel_size: 3
    stride: 1
    pad: 1
  }
}
layer {
  name: "inception_4a/pool_proj"
  type: "Convolution"
  bottom: "inception_4a/pool"
  top: "inception_4a/pool_proj"
  param {
    lr_mult: 1
    decay_mult: 1
  }
  param {
    lr_mult: 2
    decay_mult: 0
  }
  convolution_param {
    num_output: 64
    kernel_size: 1
    weight_filler {
      type: "xavier"
      std: 0.1
    }
    bias_filler {
      type: "constant"
      value: 0.2
    }
  }
}
layer {
  name: "inception_4a/relu_pool_proj"
  type: "ReLU"
  bottom: "inception_4a/pool_proj"
  top: "inception_4a/pool_proj"
}
layer {
  name: "inception_4a/output"
  type: "Concat"
  bottom: "inception_4a/1x1"
  bottom: "inception_4a/3x3"
  bottom: "inception_4a/5x5"
  bottom: "inception_4a/pool_proj"
  top: "inception_4a/output"
}
layer {
  name: "loss1/ave_pool"
  type: "Pooling"
  bottom: "inception_4a/output"
  top: "loss1/ave_pool"
  pooling_param {
    pool: AVE
    kernel_size: 5
    stride: 3
  }
}
layer {
  name: "loss1/conv"
  type: "Convolution"
  bottom: "loss1/ave_pool"
  top: "loss1/conv"
  param {
    lr_mult: 1
    decay_mult: 1
  }
  param {
    lr_mult: 2
    decay_mult: 0
  }
  convolution_param {
    num_output: 128
    kernel_size: 1
    weight_filler {
      type: "xavier"
      std: 0.08
    }
    bias_filler {
      type: "constant"
      value: 0.2
    }
  }
}
layer {
  name: "loss1/relu_conv"
  type: "ReLU"
  bottom: "loss1/conv"
  top: "loss1/conv"
}
layer {
  name: "loss1/fc"
  type: "InnerProduct"
  bottom: "loss1/conv"
  top: "loss1/fc"
  param {
    lr_mult: 1
    decay_mult: 1
  }
  param {
    lr_mult: 2
    decay_mult: 0
  }
  inner_product_param {
    num_output: 1024
    weight_filler {
      type: "xavier"
      std: 0.02
    }
    bias_filler {
      type: "constant"
      value: 0.2
    }
  }
}
layer {
  name: "loss1/relu_fc"
  type: "ReLU"
  bottom: "loss1/fc"
  top: "loss1/fc"
}
layer {
  name: "loss1/drop_fc"
  type: "Dropout"
  bottom: "loss1/fc"
  top: "loss1/fc"
  dropout_param {
    dropout_ratio: 0.7
  }
}
layer {
  name: "loss1/classifier_plantvillage"
  type: "InnerProduct"
  bottom: "loss1/fc"
  top: "loss1/classifier_plantvillage"
  param {
    lr_mult: 1
    decay_mult: 1
  }
  param {
    lr_mult: 2
    decay_mult: 0
  }
  inner_product_param {
    num_output: 38
    weight_filler {
      type: "xavier"
      std: 0.0009765625
    }
    bias_filler {
      type: "constant"
      value: 0
    }
  }
}
layer {
  name: "inception_4b/1x1"
  type: "Convolution"
  bottom: "inception_4a/output"
  top: "inception_4b/1x1"
  param {
    lr_mult: 1
    decay_mult: 1
  }
  param {
    lr_mult: 2
    decay_mult: 0
  }
  convolution_param {
    num_output: 160
    kernel_size: 1
    weight_filler {
      type: "xavier"
      std: 0.03
    }
    bias_filler {
      type: "constant"
      value: 0.2
    }
  }
}
layer {
  name: "inception_4b/relu_1x1"
  type: "ReLU"
  bottom: "inception_4b/1x1"
  top: "inception_4b/1x1"
}
layer {
  name: "inception_4b/3x3_reduce"
  type: "Convolution"
  bottom: "inception_4a/output"
  top: "inception_4b/3x3_reduce"
  param {
    lr_mult: 1
    decay_mult: 1
  }
  param {
    lr_mult: 2
    decay_mult: 0
  }
  convolution_param {
    num_output: 112
    kernel_size: 1
    weight_filler {
      type: "xavier"
      std: 0.09
    }
    bias_filler {
      type: "constant"
      value: 0.2
    }
  }
}
layer {
  name: "inception_4b/relu_3x3_reduce"
  type: "ReLU"
  bottom: "inception_4b/3x3_reduce"
  top: "inception_4b/3x3_reduce"
}
layer {
  name: "inception_4b/3x3"
  type: "Convolution"
  bottom: "inception_4b/3x3_reduce"
  top: "inception_4b/3x3"
  param {
    lr_mult: 1
    decay_mult: 1
  }
  param {
    lr_mult: 2
    decay_mult: 0
  }
  convolution_param {
    num_output: 224
    pad: 1
    kernel_size: 3
    weight_filler {
      type: "xavier"
      std: 0.03
    }
    bias_filler {
      type: "constant"
      value: 0.2
    }
  }
}
layer {
  name: "inception_4b/relu_3x3"
  type: "ReLU"
  bottom: "inception_4b/3x3"
  top: "inception_4b/3x3"
}
layer {
  name: "inception_4b/5x5_reduce"
  type: "Convolution"
  bottom: "inception_4a/output"
  top: "inception_4b/5x5_reduce"
  param {
    lr_mult: 1
    decay_mult: 1
  }
  param {
    lr_mult: 2
    decay_mult: 0
  }
  convolution_param {
    num_output: 24
    kernel_size: 1
    weight_filler {
      type: "xavier"
      std: 0.2
    }
    bias_filler {
      type: "constant"
      value: 0.2
    }
  }
}
layer {
  name: "inception_4b/relu_5x5_reduce"
  type: "ReLU"
  bottom: "inception_4b/5x5_reduce"
  top: "inception_4b/5x5_reduce"
}
layer {
  name: "inception_4b/5x5"
  type: "Convolution"
  bottom: "inception_4b/5x5_reduce"
  top: "inception_4b/5x5"
  param {
    lr_mult: 1
    decay_mult: 1
  }
  param {
    lr_mult: 2
    decay_mult: 0
  }
  convolution_param {
    num_output: 64
    pad: 2
    kernel_size: 5
    weight_filler {
      type: "xavier"
      std: 0.03
    }
    bias_filler {
      type: "constant"
      value: 0.2
    }
  }
}
layer {
  name: "inception_4b/relu_5x5"
  type: "ReLU"
  bottom: "inception_4b/5x5"
  top: "inception_4b/5x5"
}
layer {
  name: "inception_4b/pool"
  type: "Pooling"
  bottom: "inception_4a/output"
  top: "inception_4b/pool"
  pooling_param {
    pool: MAX
    kernel_size: 3
    stride: 1
    pad: 1
  }
}
layer {
  name: "inception_4b/pool_proj"
  type: "Convolution"
  bottom: "inception_4b/pool"
  top: "inception_4b/pool_proj"
  param {
    lr_mult: 1
    decay_mult: 1
  }
  param {
    lr_mult: 2
    decay_mult: 0
  }
  convolution_param {
    num_output: 64
    kernel_size: 1
    weight_filler {
      type: "xavier"
      std: 0.1
    }
    bias_filler {
      type: "constant"
      value: 0.2
    }
  }
}
layer {
  name: "inception_4b/relu_pool_proj"
  type: "ReLU"
  bottom: "inception_4b/pool_proj"
  top: "inception_4b/pool_proj"
}
layer {
  name: "inception_4b/output"
  type: "Concat"
  bottom: "inception_4b/1x1"
  bottom: "inception_4b/3x3"
  bottom: "inception_4b/5x5"
  bottom: "inception_4b/pool_proj"
  top: "inception_4b/output"
}
layer {
  name: "inception_4c/1x1"
  type: "Convolution"
  bottom: "inception_4b/output"
  top: "inception_4c/1x1"
  param {
    lr_mult: 1
    decay_mult: 1
  }
  param {
    lr_mult: 2
    decay_mult: 0
  }
  convolution_param {
    num_output: 128
    kernel_size: 1
    weight_filler {
      type: "xavier"
      std: 0.03
    }
    bias_filler {
      type: "constant"
      value: 0.2
    }
  }
}
layer {
  name: "inception_4c/relu_1x1"
  type: "ReLU"
  bottom: "inception_4c/1x1"
  top: "inception_4c/1x1"
}
layer {
  name: "inception_4c/3x3_reduce"
  type: "Convolution"
  bottom: "inception_4b/output"
  top: "inception_4c/3x3_reduce"
  param {
    lr_mult: 1
    decay_mult: 1
  }
  param {
    lr_mult: 2
    decay_mult: 0
  }
  convolution_param {
    num_output: 128
    kernel_size: 1
    weight_filler {
      type: "xavier"
      std: 0.09
    }
    bias_filler {
      type: "constant"
      value: 0.2
    }
  }
}
layer {
  name: "inception_4c/relu_3x3_reduce"
  type: "ReLU"
  bottom: "inception_4c/3x3_reduce"
  top: "inception_4c/3x3_reduce"
}
layer {
  name: "inception_4c/3x3"
  type: "Convolution"
  bottom: "inception_4c/3x3_reduce"
  top: "inception_4c/3x3"
  param {
    lr_mult: 1
    decay_mult: 1
  }
  param {
    lr_mult: 2
    decay_mult: 0
  }
  convolution_param {
    num_output: 256
    pad: 1
    kernel_size: 3
    weight_filler {
      type: "xavier"
      std: 0.03
    }
    bias_filler {
      type: "constant"
      value: 0.2
    }
  }
}
layer {
  name: "inception_4c/relu_3x3"
  type: "ReLU"
  bottom: "inception_4c/3x3"
  top: "inception_4c/3x3"
}
layer {
  name: "inception_4c/5x5_reduce"
  type: "Convolution"
  bottom: "inception_4b/output"
  top: "inception_4c/5x5_reduce"
  param {
    lr_mult: 1
    decay_mult: 1
  }
  param {
    lr_mult: 2
    decay_mult: 0
  }
  convolution_param {
    num_output: 24
    kernel_size: 1
    weight_filler {
      type: "xavier"
      std: 0.2
    }
    bias_filler {
      type: "constant"
      value: 0.2
    }
  }
}
layer {
  name: "inception_4c/relu_5x5_reduce"
  type: "ReLU"
  bottom: "inception_4c/5x5_reduce"
  top: "inception_4c/5x5_reduce"
}
layer {
  name: "inception_4c/5x5"
  type: "Convolution"
  bottom: "inception_4c/5x5_reduce"
  top: "inception_4c/5x5"
  param {
    lr_mult: 1
    decay_mult: 1
  }
  param {
    lr_mult: 2
    decay_mult: 0
  }
  convolution_param {
    num_output: 64
    pad: 2
    kernel_size: 5
    weight_filler {
      type: "xavier"
      std: 0.03
    }
    bias_filler {
      type: "constant"
      value: 0.2
    }
  }
}
layer {
  name: "inception_4c/relu_5x5"
  type: "ReLU"
  bottom: "inception_4c/5x5"
  top: "inception_4c/5x5"
}
layer {
  name: "inception_4c/pool"
  type: "Pooling"
  bottom: "inception_4b/output"
  top: "inception_4c/pool"
  pooling_param {
    pool: MAX
    kernel_size: 3
    stride: 1
    pad: 1
  }
}
layer {
  name: "inception_4c/pool_proj"
  type: "Convolution"
  bottom: "inception_4c/pool"
  top: "inception_4c/pool_proj"
  param {
    lr_mult: 1
    decay_mult: 1
  }
  param {
    lr_mult: 2
    decay_mult: 0
  }
  convolution_param {
    num_output: 64
    kernel_size: 1
    weight_filler {
      type: "xavier"
      std: 0.1
    }
    bias_filler {
      type: "constant"
      value: 0.2
    }
  }
}
layer {
  name: "inception_4c/relu_pool_proj"
  type: "ReLU"
  bottom: "inception_4c/pool_proj"
  top: "inception_4c/pool_proj"
}
layer {
  name: "inception_4c/output"
  type: "Concat"
  bottom: "inception_4c/1x1"
  bottom: "inception_4c/3x3"
  bottom: "inception_4c/5x5"
  bottom: "inception_4c/pool_proj"
  top: "inception_4c/output"
}
layer {
  name: "inception_4d/1x1"
  type: "Convolution"
  bottom: "inception_4c/output"
  top: "inception_4d/1x1"
  param {
    lr_mult: 1
    decay_mult: 1
  }
  param {
    lr_mult: 2
    decay_mult: 0
  }
  convolution_param {
    num_output: 112
    kernel_size: 1
    weight_filler {
      type: "xavier"
      std: 0.03
    }
    bias_filler {
      type: "constant"
      value: 0.2
    }
  }
}
layer {
  name: "inception_4d/relu_1x1"
  type: "ReLU"
  bottom: "inception_4d/1x1"
  top: "inception_4d/1x1"
}
layer {
  name: "inception_4d/3x3_reduce"
  type: "Convolution"
  bottom: "inception_4c/output"
  top: "inception_4d/3x3_reduce"
  param {
    lr_mult: 1
    decay_mult: 1
  }
  param {
    lr_mult: 2
    decay_mult: 0
  }
  convolution_param {
    num_output: 144
    kernel_size: 1
    weight_filler {
      type: "xavier"
      std: 0.09
    }
    bias_filler {
      type: "constant"
      value: 0.2
    }
  }
}
layer {
  name: "inception_4d/relu_3x3_reduce"
  type: "ReLU"
  bottom: "inception_4d/3x3_reduce"
  top: "inception_4d/3x3_reduce"
}
layer {
  name: "inception_4d/3x3"
  type: "Convolution"
  bottom: "inception_4d/3x3_reduce"
  top: "inception_4d/3x3"
  param {
    lr_mult: 1
    decay_mult: 1
  }
  param {
    lr_mult: 2
    decay_mult: 0
  }
  convolution_param {
    num_output: 288
    pad: 1
    kernel_size: 3
    weight_filler {
      type: "xavier"
      std: 0.03
    }
    bias_filler {
      type: "constant"
      value: 0.2
    }
  }
}
layer {
  name: "inception_4d/relu_3x3"
  type: "ReLU"
  bottom: "inception_4d/3x3"
  top: "inception_4d/3x3"
}
layer {
  name: "inception_4d/5x5_reduce"
  type: "Convolution"
  bottom: "inception_4c/output"
  top: "inception_4d/5x5_reduce"
  param {
    lr_mult: 1
    decay_mult: 1
  }
  param {
    lr_mult: 2
    decay_mult: 0
  }
  convolution_param {
    num_output: 32
    kernel_size: 1
    weight_filler {
      type: "xavier"
      std: 0.2
    }
    bias_filler {
      type: "constant"
      value: 0.2
    }
  }
}
layer {
  name: "inception_4d/relu_5x5_reduce"
  type: "ReLU"
  bottom: "inception_4d/5x5_reduce"
  top: "inception_4d/5x5_reduce"
}
layer {
  name: "inception_4d/5x5"
  type: "Convolution"
  bottom: "inception_4d/5x5_reduce"
  top: "inception_4d/5x5"
  param {
    lr_mult: 1
    decay_mult: 1
  }
  param {
    lr_mult: 2
    decay_mult: 0
  }
  convolution_param {
    num_output: 64
    pad: 2
    kernel_size: 5
    weight_filler {
      type: "xavier"
      std: 0.03
    }
    bias_filler {
      type: "constant"
      value: 0.2
    }
  }
}
layer {
  name: "inception_4d/relu_5x5"
  type: "ReLU"
  bottom: "inception_4d/5x5"
  top: "inception_4d/5x5"
}
layer {
  name: "inception_4d/pool"
  type: "Pooling"
  bottom: "inception_4c/output"
  top: "inception_4d/pool"
  pooling_param {
    pool: MAX
    kernel_size: 3
    stride: 1
    pad: 1
  }
}
layer {
  name: "inception_4d/pool_proj"
  type: "Convolution"
  bottom: "inception_4d/pool"
  top: "inception_4d/pool_proj"
  param {
    lr_mult: 1
    decay_mult: 1
  }
  param {
    lr_mult: 2
    decay_mult: 0
  }
  convolution_param {
    num_output: 64
    kernel_size: 1
    weight_filler {
      type: "xavier"
      std: 0.1
    }
    bias_filler {
      type: "constant"
      value: 0.2
    }
  }
}
layer {
  name: "inception_4d/relu_pool_proj"
  type: "ReLU"
  bottom: "inception_4d/pool_proj"
  top: "inception_4d/pool_proj"
}
layer {
  name: "inception_4d/output"
  type: "Concat"
  bottom: "inception_4d/1x1"
  bottom: "inception_4d/3x3"
  bottom: "inception_4d/5x5"
  bottom: "inception_4d/pool_proj"
  top: "inception_4d/output"
}
layer {
  name: "loss2/ave_pool"
  type: "Pooling"
  bottom: "inception_4d/output"
  top: "loss2/ave_pool"
  pooling_param {
    pool: AVE
    kernel_size: 5
    stride: 3
  }
}
layer {
  name: "loss2/conv"
  type: "Convolution"
  bottom: "loss2/ave_pool"
  top: "loss2/conv"
  param {
    lr_mult: 1
    decay_mult: 1
  }
  param {
    lr_mult: 2
    decay_mult: 0
  }
  convolution_param {
    num_output: 128
    kernel_size: 1
    weight_filler {
      type: "xavier"
      std: 0.08
    }
    bias_filler {
      type: "constant"
      value: 0.2
    }
  }
}
layer {
  name: "loss2/relu_conv"
  type: "ReLU"
  bottom: "loss2/conv"
  top: "loss2/conv"
}
layer {
  name: "loss2/fc"
  type: "InnerProduct"
  bottom: "loss2/conv"
  top: "loss2/fc"
  param {
    lr_mult: 1
    decay_mult: 1
  }
  param {
    lr_mult: 2
    decay_mult: 0
  }
  inner_product_param {
    num_output: 1024
    weight_filler {
      type: "xavier"
      std: 0.02
    }
    bias_filler {
      type: "constant"
      value: 0.2
    }
  }
}
layer {
  name: "loss2/relu_fc"
  type: "ReLU"
  bottom: "loss2/fc"
  top: "loss2/fc"
}
layer {
  name: "loss2/drop_fc"
  type: "Dropout"
  bottom: "loss2/fc"
  top: "loss2/fc"
  dropout_param {
    dropout_ratio: 0.7
  }
}
layer {
  name: "loss2/classifier_plantvillage"
  type: "InnerProduct"
  bottom: "loss2/fc"
  top: "loss2/classifier_plantvillage"
  param {
    lr_mult: 1
    decay_mult: 1
  }
  param {
    lr_mult: 2
    decay_mult: 0
  }
  inner_product_param {
    num_output: 38
    weight_filler {
      type: "xavier"
      std: 0.0009765625
    }
    bias_filler {
      type: "constant"
      value: 0
    }
  }
}
layer {
  name: "inception_4e/1x1"
  type: "Convolution"
  bottom: "inception_4d/output"
  top: "inception_4e/1x1"
  param {
    lr_mult: 1
    decay_mult: 1
  }
  param {
    lr_mult: 2
    decay_mult: 0
  }
  convolution_param {
    num_output: 256
    kernel_size: 1
    weight_filler {
      type: "xavier"
      std: 0.03
    }
    bias_filler {
      type: "constant"
      value: 0.2
    }
  }
}
layer {
  name: "inception_4e/relu_1x1"
  type: "ReLU"
  bottom: "inception_4e/1x1"
  top: "inception_4e/1x1"
}
layer {
  name: "inception_4e/3x3_reduce"
  type: "Convolution"
  bottom: "inception_4d/output"
  top: "inception_4e/3x3_reduce"
  param {
    lr_mult: 1
    decay_mult: 1
  }
  param {
    lr_mult: 2
    decay_mult: 0
  }
  convolution_param {
    num_output: 160
    kernel_size: 1
    weight_filler {
      type: "xavier"
      std: 0.09
    }
    bias_filler {
      type: "constant"
      value: 0.2
    }
  }
}
layer {
  name: "inception_4e/relu_3x3_reduce"
  type: "ReLU"
  bottom: "inception_4e/3x3_reduce"
  top: "inception_4e/3x3_reduce"
}
layer {
  name: "inception_4e/3x3"
  type: "Convolution"
  bottom: "inception_4e/3x3_reduce"
  top: "inception_4e/3x3"
  param {
    lr_mult: 1
    decay_mult: 1
  }
  param {
    lr_mult: 2
    decay_mult: 0
  }
  convolution_param {
    num_output: 320
    pad: 1
    kernel_size: 3
    weight_filler {
      type: "xavier"
      std: 0.03
    }
    bias_filler {
      type: "constant"
      value: 0.2
    }
  }
}
layer {
  name: "inception_4e/relu_3x3"
  type: "ReLU"
  bottom: "inception_4e/3x3"
  top: "inception_4e/3x3"
}
layer {
  name: "inception_4e/5x5_reduce"
  type: "Convolution"
  bottom: "inception_4d/output"
  top: "inception_4e/5x5_reduce"
  param {
    lr_mult: 1
    decay_mult: 1
  }
  param {
    lr_mult: 2
    decay_mult: 0
  }
  convolution_param {
    num_output: 32
    kernel_size: 1
    weight_filler {
      type: "xavier"
      std: 0.2
    }
    bias_filler {
      type: "constant"
      value: 0.2
    }
  }
}
layer {
  name: "inception_4e/relu_5x5_reduce"
  type: "ReLU"
  bottom: "inception_4e/5x5_reduce"
  top: "inception_4e/5x5_reduce"
}
layer {
  name: "inception_4e/5x5"
  type: "Convolution"
  bottom: "inception_4e/5x5_reduce"
  top: "inception_4e/
I0403 15:36:46.483494  3282 layer_factory.hpp:77] Creating layer data
I0403 15:36:46.484124  3282 net.cpp:91] Creating Layer data
I0403 15:36:46.484158  3282 net.cpp:399] data -> data
I0403 15:36:46.484215  3282 net.cpp:399] data -> label
I0403 15:36:46.484252  3282 data_transformer.cpp:25] Loading mean file from: /home/mohanty/data/final_dataset/lmdb/segmented-60-40/mean.binaryproto
I0403 15:36:46.487272  3287 db_lmdb.cpp:38] Opened lmdb /home/mohanty/data/final_dataset/lmdb/segmented-60-40/test_db
I0403 15:36:46.497647  3282 data_layer.cpp:41] output data size: 24,3,224,224
I0403 15:36:46.525938  3282 net.cpp:141] Setting up data
I0403 15:36:46.526036  3282 net.cpp:148] Top shape: 24 3 224 224 (3612672)
I0403 15:36:46.526059  3282 net.cpp:148] Top shape: 24 (24)
I0403 15:36:46.526074  3282 net.cpp:156] Memory required for data: 14450784
I0403 15:36:46.526101  3282 layer_factory.hpp:77] Creating layer label_data_1_split
I0403 15:36:46.526129  3282 net.cpp:91] Creating Layer label_data_1_split
I0403 15:36:46.526146  3282 net.cpp:425] label_data_1_split <- label
I0403 15:36:46.526180  3282 net.cpp:399] label_data_1_split -> label_data_1_split_0
I0403 15:36:46.526213  3282 net.cpp:399] label_data_1_split -> label_data_1_split_1
I0403 15:36:46.526238  3282 net.cpp:399] label_data_1_split -> label_data_1_split_2
I0403 15:36:46.526259  3282 net.cpp:399] label_data_1_split -> label_data_1_split_3
I0403 15:36:46.526279  3282 net.cpp:399] label_data_1_split -> label_data_1_split_4
I0403 15:36:46.526300  3282 net.cpp:399] label_data_1_split -> label_data_1_split_5
I0403 15:36:46.526320  3282 net.cpp:399] label_data_1_split -> label_data_1_split_6
I0403 15:36:46.526341  3282 net.cpp:399] label_data_1_split -> label_data_1_split_7
I0403 15:36:46.526362  3282 net.cpp:399] label_data_1_split -> label_data_1_split_8
I0403 15:36:46.526382  3282 net.cpp:399] label_data_1_split -> label_data_1_split_9
I0403 15:36:46.526504  3282 net.cpp:141] Setting up label_data_1_split
I0403 15:36:46.526527  3282 net.cpp:148] Top shape: 24 (24)
I0403 15:36:46.526545  3282 net.cpp:148] Top shape: 24 (24)
I0403 15:36:46.526561  3282 net.cpp:148] Top shape: 24 (24)
I0403 15:36:46.526577  3282 net.cpp:148] Top shape: 24 (24)
I0403 15:36:46.526594  3282 net.cpp:148] Top shape: 24 (24)
I0403 15:36:46.526610  3282 net.cpp:148] Top shape: 24 (24)
I0403 15:36:46.526626  3282 net.cpp:148] Top shape: 24 (24)
I0403 15:36:46.526643  3282 net.cpp:148] Top shape: 24 (24)
I0403 15:36:46.526659  3282 net.cpp:148] Top shape: 24 (24)
I0403 15:36:46.526675  3282 net.cpp:148] Top shape: 24 (24)
I0403 15:36:46.526721  3282 net.cpp:156] Memory required for data: 14451744
I0403 15:36:46.526737  3282 layer_factory.hpp:77] Creating layer conv1/7x7_s2
I0403 15:36:46.526770  3282 net.cpp:91] Creating Layer conv1/7x7_s2
I0403 15:36:46.526788  3282 net.cpp:425] conv1/7x7_s2 <- data
I0403 15:36:46.526808  3282 net.cpp:399] conv1/7x7_s2 -> conv1/7x7_s2
I0403 15:36:46.672761  3282 net.cpp:141] Setting up conv1/7x7_s2
I0403 15:36:46.672853  3282 net.cpp:148] Top shape: 24 64 112 112 (19267584)
I0403 15:36:46.672871  3282 net.cpp:156] Memory required for data: 91522080
I0403 15:36:46.672904  3282 layer_factory.hpp:77] Creating layer conv1/relu_7x7
I0403 15:36:46.672932  3282 net.cpp:91] Creating Layer conv1/relu_7x7
I0403 15:36:46.672950  3282 net.cpp:425] conv1/relu_7x7 <- conv1/7x7_s2
I0403 15:36:46.672969  3282 net.cpp:386] conv1/relu_7x7 -> conv1/7x7_s2 (in-place)
I0403 15:36:46.673259  3282 net.cpp:141] Setting up conv1/relu_7x7
I0403 15:36:46.673288  3282 net.cpp:148] Top shape: 24 64 112 112 (19267584)
I0403 15:36:46.673305  3282 net.cpp:156] Memory required for data: 168592416
I0403 15:36:46.673321  3282 layer_factory.hpp:77] Creating layer pool1/3x3_s2
I0403 15:36:46.673346  3282 net.cpp:91] Creating Layer pool1/3x3_s2
I0403 15:36:46.673365  3282 net.cpp:425] pool1/3x3_s2 <- conv1/7x7_s2
I0403 15:36:46.673384  3282 net.cpp:399] pool1/3x3_s2 -> pool1/3x3_s2
I0403 15:36:46.673460  3282 net.cpp:141] Setting up pool1/3x3_s2
I0403 15:36:46.673485  3282 net.cpp:148] Top shape: 24 64 56 56 (4816896)
I0403 15:36:46.673499  3282 net.cpp:156] Memory required for data: 187860000
I0403 15:36:46.673516  3282 layer_factory.hpp:77] Creating layer pool1/norm1
I0403 15:36:46.673540  3282 net.cpp:91] Creating Layer pool1/norm1
I0403 15:36:46.673557  3282 net.cpp:425] pool1/norm1 <- pool1/3x3_s2
I0403 15:36:46.673576  3282 net.cpp:399] pool1/norm1 -> pool1/norm1
I0403 15:36:46.673877  3282 net.cpp:141] Setting up pool1/norm1
I0403 15:36:46.673905  3282 net.cpp:148] Top shape: 24 64 56 56 (4816896)
I0403 15:36:46.673923  3282 net.cpp:156] Memory required for data: 207127584
I0403 15:36:46.673938  3282 layer_factory.hpp:77] Creating layer conv2/3x3_reduce
I0403 15:36:46.673962  3282 net.cpp:91] Creating Layer conv2/3x3_reduce
I0403 15:36:46.673979  3282 net.cpp:425] conv2/3x3_reduce <- pool1/norm1
I0403 15:36:46.673998  3282 net.cpp:399] conv2/3x3_reduce -> conv2/3x3_reduce
I0403 15:36:46.675393  3282 net.cpp:141] Setting up conv2/3x3_reduce
I0403 15:36:46.675425  3282 net.cpp:148] Top shape: 24 64 56 56 (4816896)
I0403 15:36:46.675441  3282 net.cpp:156] Memory required for data: 226395168
I0403 15:36:46.675463  3282 layer_factory.hpp:77] Creating layer conv2/relu_3x3_reduce
I0403 15:36:46.675483  3282 net.cpp:91] Creating Layer conv2/relu_3x3_reduce
I0403 15:36:46.675500  3282 net.cpp:425] conv2/relu_3x3_reduce <- conv2/3x3_reduce
I0403 15:36:46.675529  3282 net.cpp:386] conv2/relu_3x3_reduce -> conv2/3x3_reduce (in-place)
I0403 15:36:46.675789  3282 net.cpp:141] Setting up conv2/relu_3x3_reduce
I0403 15:36:46.675817  3282 net.cpp:148] Top shape: 24 64 56 56 (4816896)
I0403 15:36:46.675832  3282 net.cpp:156] Memory required for data: 245662752
I0403 15:36:46.675848  3282 layer_factory.hpp:77] Creating layer conv2/3x3
I0403 15:36:46.675869  3282 net.cpp:91] Creating Layer conv2/3x3
I0403 15:36:46.675886  3282 net.cpp:425] conv2/3x3 <- conv2/3x3_reduce
I0403 15:36:46.675905  3282 net.cpp:399] conv2/3x3 -> conv2/3x3
I0403 15:36:46.678164  3282 net.cpp:141] Setting up conv2/3x3
I0403 15:36:46.678194  3282 net.cpp:148] Top shape: 24 192 56 56 (14450688)
I0403 15:36:46.678215  3282 net.cpp:156] Memory required for data: 303465504
I0403 15:36:46.678238  3282 layer_factory.hpp:77] Creating layer conv2/relu_3x3
I0403 15:36:46.678261  3282 net.cpp:91] Creating Layer conv2/relu_3x3
I0403 15:36:46.678277  3282 net.cpp:425] conv2/relu_3x3 <- conv2/3x3
I0403 15:36:46.678295  3282 net.cpp:386] conv2/relu_3x3 -> conv2/3x3 (in-place)
I0403 15:36:46.678478  3282 net.cpp:141] Setting up conv2/relu_3x3
I0403 15:36:46.678503  3282 net.cpp:148] Top shape: 24 192 56 56 (14450688)
I0403 15:36:46.678549  3282 net.cpp:156] Memory required for data: 361268256
I0403 15:36:46.678565  3282 layer_factory.hpp:77] Creating layer conv2/norm2
I0403 15:36:46.678586  3282 net.cpp:91] Creating Layer conv2/norm2
I0403 15:36:46.678602  3282 net.cpp:425] conv2/norm2 <- conv2/3x3
I0403 15:36:46.678620  3282 net.cpp:399] conv2/norm2 -> conv2/norm2
I0403 15:36:46.678936  3282 net.cpp:141] Setting up conv2/norm2
I0403 15:36:46.678962  3282 net.cpp:148] Top shape: 24 192 56 56 (14450688)
I0403 15:36:46.678978  3282 net.cpp:156] Memory required for data: 419071008
I0403 15:36:46.678994  3282 layer_factory.hpp:77] Creating layer pool2/3x3_s2
I0403 15:36:46.679014  3282 net.cpp:91] Creating Layer pool2/3x3_s2
I0403 15:36:46.679031  3282 net.cpp:425] pool2/3x3_s2 <- conv2/norm2
I0403 15:36:46.679049  3282 net.cpp:399] pool2/3x3_s2 -> pool2/3x3_s2
I0403 15:36:46.679103  3282 net.cpp:141] Setting up pool2/3x3_s2
I0403 15:36:46.679126  3282 net.cpp:148] Top shape: 24 192 28 28 (3612672)
I0403 15:36:46.679141  3282 net.cpp:156] Memory required for data: 433521696
I0403 15:36:46.679157  3282 layer_factory.hpp:77] Creating layer pool2/3x3_s2_pool2/3x3_s2_0_split
I0403 15:36:46.679174  3282 net.cpp:91] Creating Layer pool2/3x3_s2_pool2/3x3_s2_0_split
I0403 15:36:46.679189  3282 net.cpp:425] pool2/3x3_s2_pool2/3x3_s2_0_split <- pool2/3x3_s2
I0403 15:36:46.679214  3282 net.cpp:399] pool2/3x3_s2_pool2/3x3_s2_0_split -> pool2/3x3_s2_pool2/3x3_s2_0_split_0
I0403 15:36:46.679237  3282 net.cpp:399] pool2/3x3_s2_pool2/3x3_s2_0_split -> pool2/3x3_s2_pool2/3x3_s2_0_split_1
I0403 15:36:46.679258  3282 net.cpp:399] pool2/3x3_s2_pool2/3x3_s2_0_split -> pool2/3x3_s2_pool2/3x3_s2_0_split_2
I0403 15:36:46.679278  3282 net.cpp:399] pool2/3x3_s2_pool2/3x3_s2_0_split -> pool2/3x3_s2_pool2/3x3_s2_0_split_3
I0403 15:36:46.679352  3282 net.cpp:141] Setting up pool2/3x3_s2_pool2/3x3_s2_0_split
I0403 15:36:46.679375  3282 net.cpp:148] Top shape: 24 192 28 28 (3612672)
I0403 15:36:46.679391  3282 net.cpp:148] Top shape: 24 192 28 28 (3612672)
I0403 15:36:46.679407  3282 net.cpp:148] Top shape: 24 192 28 28 (3612672)
I0403 15:36:46.679427  3282 net.cpp:148] Top shape: 24 192 28 28 (3612672)
I0403 15:36:46.679455  3282 net.cpp:156] Memory required for data: 491324448
I0403 15:36:46.679471  3282 layer_factory.hpp:77] Creating layer inception_3a/1x1
I0403 15:36:46.679496  3282 net.cpp:91] Creating Layer inception_3a/1x1
I0403 15:36:46.679513  3282 net.cpp:425] inception_3a/1x1 <- pool2/3x3_s2_pool2/3x3_s2_0_split_0
I0403 15:36:46.679535  3282 net.cpp:399] inception_3a/1x1 -> inception_3a/1x1
I0403 15:36:46.681108  3282 net.cpp:141] Setting up inception_3a/1x1
I0403 15:36:46.681140  3282 net.cpp:148] Top shape: 24 64 28 28 (1204224)
I0403 15:36:46.681156  3282 net.cpp:156] Memory required for data: 496141344
I0403 15:36:46.681176  3282 layer_factory.hpp:77] Creating layer inception_3a/relu_1x1
I0403 15:36:46.681193  3282 net.cpp:91] Creating Layer inception_3a/relu_1x1
I0403 15:36:46.681216  3282 net.cpp:425] inception_3a/relu_1x1 <- inception_3a/1x1
I0403 15:36:46.681234  3282 net.cpp:386] inception_3a/relu_1x1 -> inception_3a/1x1 (in-place)
I0403 15:36:46.681407  3282 net.cpp:141] Setting up inception_3a/relu_1x1
I0403 15:36:46.681434  3282 net.cpp:148] Top shape: 24 64 28 28 (1204224)
I0403 15:36:46.681449  3282 net.cpp:156] Memory required for data: 500958240
I0403 15:36:46.681464  3282 layer_factory.hpp:77] Creating layer inception_3a/3x3_reduce
I0403 15:36:46.681485  3282 net.cpp:91] Creating Layer inception_3a/3x3_reduce
I0403 15:36:46.681502  3282 net.cpp:425] inception_3a/3x3_reduce <- pool2/3x3_s2_pool2/3x3_s2_0_split_1
I0403 15:36:46.681522  3282 net.cpp:399] inception_3a/3x3_reduce -> inception_3a/3x3_reduce
I0403 15:36:46.683281  3282 net.cpp:141] Setting up inception_3a/3x3_reduce
I0403 15:36:46.683311  3282 net.cpp:148] Top shape: 24 96 28 28 (1806336)
I0403 15:36:46.683327  3282 net.cpp:156] Memory required for data: 508183584
I0403 15:36:46.683351  3282 layer_factory.hpp:77] Creating layer inception_3a/relu_3x3_reduce
I0403 15:36:46.683385  3282 net.cpp:91] Creating Layer inception_3a/relu_3x3_reduce
I0403 15:36:46.683401  3282 net.cpp:425] inception_3a/relu_3x3_reduce <- inception_3a/3x3_reduce
I0403 15:36:46.683423  3282 net.cpp:386] inception_3a/relu_3x3_reduce -> inception_3a/3x3_reduce (in-place)
I0403 15:36:46.683604  3282 net.cpp:141] Setting up inception_3a/relu_3x3_reduce
I0403 15:36:46.683629  3282 net.cpp:148] Top shape: 24 96 28 28 (1806336)
I0403 15:36:46.683643  3282 net.cpp:156] Memory required for data: 515408928
I0403 15:36:46.683657  3282 layer_factory.hpp:77] Creating layer inception_3a/3x3
I0403 15:36:46.683679  3282 net.cpp:91] Creating Layer inception_3a/3x3
I0403 15:36:46.683698  3282 net.cpp:425] inception_3a/3x3 <- inception_3a/3x3_reduce
I0403 15:36:46.683717  3282 net.cpp:399] inception_3a/3x3 -> inception_3a/3x3
I0403 15:36:46.685417  3282 net.cpp:141] Setting up inception_3a/3x3
I0403 15:36:46.685447  3282 net.cpp:148] Top shape: 24 128 28 28 (2408448)
I0403 15:36:46.685464  3282 net.cpp:156] Memory required for data: 525042720
I0403 15:36:46.685482  3282 layer_factory.hpp:77] Creating layer inception_3a/relu_3x3
I0403 15:36:46.685500  3282 net.cpp:91] Creating Layer inception_3a/relu_3x3
I0403 15:36:46.685515  3282 net.cpp:425] inception_3a/relu_3x3 <- inception_3a/3x3
I0403 15:36:46.685535  3282 net.cpp:386] inception_3a/relu_3x3 -> inception_3a/3x3 (in-place)
I0403 15:36:46.685806  3282 net.cpp:141] Setting up inception_3a/relu_3x3
I0403 15:36:46.685835  3282 net.cpp:148] Top shape: 24 128 28 28 (2408448)
I0403 15:36:46.685849  3282 net.cpp:156] Memory required for data: 534676512
I0403 15:36:46.685864  3282 layer_factory.hpp:77] Creating layer inception_3a/5x5_reduce
I0403 15:36:46.685886  3282 net.cpp:91] Creating Layer inception_3a/5x5_reduce
I0403 15:36:46.685904  3282 net.cpp:425] inception_3a/5x5_reduce <- pool2/3x3_s2_pool2/3x3_s2_0_split_2
I0403 15:36:46.685926  3282 net.cpp:399] inception_3a/5x5_reduce -> inception_3a/5x5_reduce
I0403 15:36:46.686939  3282 net.cpp:141] Setting up inception_3a/5x5_reduce
I0403 15:36:46.686967  3282 net.cpp:148] Top shape: 24 16 28 28 (301056)
I0403 15:36:46.686983  3282 net.cpp:156] Memory required for data: 535880736
I0403 15:36:46.687002  3282 layer_factory.hpp:77] Creating layer inception_3a/relu_5x5_reduce
I0403 15:36:46.687021  3282 net.cpp:91] Creating Layer inception_3a/relu_5x5_reduce
I0403 15:36:46.687037  3282 net.cpp:425] inception_3a/relu_5x5_reduce <- inception_3a/5x5_reduce
I0403 15:36:46.687058  3282 net.cpp:386] inception_3a/relu_5x5_reduce -> inception_3a/5x5_reduce (in-place)
I0403 15:36:46.687368  3282 net.cpp:141] Setting up inception_3a/relu_5x5_reduce
I0403 15:36:46.687396  3282 net.cpp:148] Top shape: 24 16 28 28 (301056)
I0403 15:36:46.687410  3282 net.cpp:156] Memory required for data: 537084960
I0403 15:36:46.687427  3282 layer_factory.hpp:77] Creating layer inception_3a/5x5
I0403 15:36:46.687449  3282 net.cpp:91] Creating Layer inception_3a/5x5
I0403 15:36:46.687468  3282 net.cpp:425] inception_3a/5x5 <- inception_3a/5x5_reduce
I0403 15:36:46.687489  3282 net.cpp:399] inception_3a/5x5 -> inception_3a/5x5
I0403 15:36:46.688555  3282 net.cpp:141] Setting up inception_3a/5x5
I0403 15:36:46.688585  3282 net.cpp:148] Top shape: 24 32 28 28 (602112)
I0403 15:36:46.688601  3282 net.cpp:156] Memory required for data: 539493408
I0403 15:36:46.688618  3282 layer_factory.hpp:77] Creating layer inception_3a/relu_5x5
I0403 15:36:46.688637  3282 net.cpp:91] Creating Layer inception_3a/relu_5x5
I0403 15:36:46.688652  3282 net.cpp:425] inception_3a/relu_5x5 <- inception_3a/5x5
I0403 15:36:46.688668  3282 net.cpp:386] inception_3a/relu_5x5 -> inception_3a/5x5 (in-place)
I0403 15:36:46.688838  3282 net.cpp:141] Setting up inception_3a/relu_5x5
I0403 15:36:46.688861  3282 net.cpp:148] Top shape: 24 32 28 28 (602112)
I0403 15:36:46.688874  3282 net.cpp:156] Memory required for data: 541901856
I0403 15:36:46.688889  3282 layer_factory.hpp:77] Creating layer inception_3a/pool
I0403 15:36:46.688906  3282 net.cpp:91] Creating Layer inception_3a/pool
I0403 15:36:46.688935  3282 net.cpp:425] inception_3a/pool <- pool2/3x3_s2_pool2/3x3_s2_0_split_3
I0403 15:36:46.688956  3282 net.cpp:399] inception_3a/pool -> inception_3a/pool
I0403 15:36:46.689013  3282 net.cpp:141] Setting up inception_3a/pool
I0403 15:36:46.689038  3282 net.cpp:148] Top shape: 24 192 28 28 (3612672)
I0403 15:36:46.689052  3282 net.cpp:156] Memory required for data: 556352544
I0403 15:36:46.689066  3282 layer_factory.hpp:77] Creating layer inception_3a/pool_proj
I0403 15:36:46.689087  3282 net.cpp:91] Creating Layer inception_3a/pool_proj
I0403 15:36:46.689105  3282 net.cpp:425] inception_3a/pool_proj <- inception_3a/pool
I0403 15:36:46.689121  3282 net.cpp:399] inception_3a/pool_proj -> inception_3a/pool_proj
I0403 15:36:46.690057  3282 net.cpp:141] Setting up inception_3a/pool_proj
I0403 15:36:46.690083  3282 net.cpp:148] Top shape: 24 32 28 28 (602112)
I0403 15:36:46.690098  3282 net.cpp:156] Memory required for data: 558760992
I0403 15:36:46.690121  3282 layer_factory.hpp:77] Creating layer inception_3a/relu_pool_proj
I0403 15:36:46.690140  3282 net.cpp:91] Creating Layer inception_3a/relu_pool_proj
I0403 15:36:46.690155  3282 net.cpp:425] inception_3a/relu_pool_proj <- inception_3a/pool_proj
I0403 15:36:46.690173  3282 net.cpp:386] inception_3a/relu_pool_proj -> inception_3a/pool_proj (in-place)
I0403 15:36:46.690440  3282 net.cpp:141] Setting up inception_3a/relu_pool_proj
I0403 15:36:46.690469  3282 net.cpp:148] Top shape: 24 32 28 28 (602112)
I0403 15:36:46.690484  3282 net.cpp:156] Memory required for data: 561169440
I0403 15:36:46.690497  3282 layer_factory.hpp:77] Creating layer inception_3a/output
I0403 15:36:46.690515  3282 net.cpp:91] Creating Layer inception_3a/output
I0403 15:36:46.690529  3282 net.cpp:425] inception_3a/output <- inception_3a/1x1
I0403 15:36:46.690544  3282 net.cpp:425] inception_3a/output <- inception_3a/3x3
I0403 15:36:46.690560  3282 net.cpp:425] inception_3a/output <- inception_3a/5x5
I0403 15:36:46.690575  3282 net.cpp:425] inception_3a/output <- inception_3a/pool_proj
I0403 15:36:46.690592  3282 net.cpp:399] inception_3a/output -> inception_3a/output
I0403 15:36:46.690637  3282 net.cpp:141] Setting up inception_3a/output
I0403 15:36:46.690659  3282 net.cpp:148] Top shape: 24 256 28 28 (4816896)
I0403 15:36:46.690673  3282 net.cpp:156] Memory required for data: 580437024
I0403 15:36:46.690687  3282 layer_factory.hpp:77] Creating layer inception_3a/output_inception_3a/output_0_split
I0403 15:36:46.690706  3282 net.cpp:91] Creating Layer inception_3a/output_inception_3a/output_0_split
I0403 15:36:46.690721  3282 net.cpp:425] inception_3a/output_inception_3a/output_0_split <- inception_3a/output
I0403 15:36:46.690738  3282 net.cpp:399] inception_3a/output_inception_3a/output_0_split -> inception_3a/output_inception_3a/output_0_split_0
I0403 15:36:46.690757  3282 net.cpp:399] inception_3a/output_inception_3a/output_0_split -> inception_3a/output_inception_3a/output_0_split_1
I0403 15:36:46.690780  3282 net.cpp:399] inception_3a/output_inception_3a/output_0_split -> inception_3a/output_inception_3a/output_0_split_2
I0403 15:36:46.690801  3282 net.cpp:399] inception_3a/output_inception_3a/output_0_split -> inception_3a/output_inception_3a/output_0_split_3
I0403 15:36:46.690872  3282 net.cpp:141] Setting up inception_3a/output_inception_3a/output_0_split
I0403 15:36:46.690893  3282 net.cpp:148] Top shape: 24 256 28 28 (4816896)
I0403 15:36:46.690909  3282 net.cpp:148] Top shape: 24 256 28 28 (4816896)
I0403 15:36:46.690924  3282 net.cpp:148] Top shape: 24 256 28 28 (4816896)
I0403 15:36:46.690939  3282 net.cpp:148] Top shape: 24 256 28 28 (4816896)
I0403 15:36:46.690953  3282 net.cpp:156] Memory required for data: 657507360
I0403 15:36:46.690966  3282 layer_factory.hpp:77] Creating layer inception_3b/1x1
I0403 15:36:46.690989  3282 net.cpp:91] Creating Layer inception_3b/1x1
I0403 15:36:46.691005  3282 net.cpp:425] inception_3b/1x1 <- inception_3a/output_inception_3a/output_0_split_0
I0403 15:36:46.691023  3282 net.cpp:399] inception_3b/1x1 -> inception_3b/1x1
I0403 15:36:46.692159  3282 net.cpp:141] Setting up inception_3b/1x1
I0403 15:36:46.692203  3282 net.cpp:148] Top shape: 24 128 28 28 (2408448)
I0403 15:36:46.692234  3282 net.cpp:156] Memory required for data: 667141152
I0403 15:36:46.692255  3282 layer_factory.hpp:77] Creating layer inception_3b/relu_1x1
I0403 15:36:46.692276  3282 net.cpp:91] Creating Layer inception_3b/relu_1x1
I0403 15:36:46.692291  3282 net.cpp:425] inception_3b/relu_1x1 <- inception_3b/1x1
I0403 15:36:46.692308  3282 net.cpp:386] inception_3b/relu_1x1 -> inception_3b/1x1 (in-place)
I0403 15:36:46.692498  3282 net.cpp:141] Setting up inception_3b/relu_1x1
I0403 15:36:46.692523  3282 net.cpp:148] Top shape: 24 128 28 28 (2408448)
I0403 15:36:46.692536  3282 net.cpp:156] Memory required for data: 676774944
I0403 15:36:46.692550  3282 layer_factory.hpp:77] Creating layer inception_3b/3x3_reduce
I0403 15:36:46.692572  3282 net.cpp:91] Creating Layer inception_3b/3x3_reduce
I0403 15:36:46.692589  3282 net.cpp:425] inception_3b/3x3_reduce <- inception_3a/output_inception_3a/output_0_split_1
I0403 15:36:46.692610  3282 net.cpp:399] inception_3b/3x3_reduce -> inception_3b/3x3_reduce
I0403 15:36:46.693758  3282 net.cpp:141] Setting up inception_3b/3x3_reduce
I0403 15:36:46.693785  3282 net.cpp:148] Top shape: 24 128 28 28 (2408448)
I0403 15:36:46.693800  3282 net.cpp:156] Memory required for data: 686408736
I0403 15:36:46.693819  3282 layer_factory.hpp:77] Creating layer inception_3b/relu_3x3_reduce
I0403 15:36:46.693841  3282 net.cpp:91] Creating Layer inception_3b/relu_3x3_reduce
I0403 15:36:46.693856  3282 net.cpp:425] inception_3b/relu_3x3_reduce <- inception_3b/3x3_reduce
I0403 15:36:46.693886  3282 net.cpp:386] inception_3b/relu_3x3_reduce -> inception_3b/3x3_reduce (in-place)
I0403 15:36:46.694054  3282 net.cpp:141] Setting up inception_3b/relu_3x3_reduce
I0403 15:36:46.694079  3282 net.cpp:148] Top shape: 24 128 28 28 (2408448)
I0403 15:36:46.694094  3282 net.cpp:156] Memory required for data: 696042528
I0403 15:36:46.694108  3282 layer_factory.hpp:77] Creating layer inception_3b/3x3
I0403 15:36:46.694131  3282 net.cpp:91] Creating Layer inception_3b/3x3
I0403 15:36:46.694149  3282 net.cpp:425] inception_3b/3x3 <- inception_3b/3x3_reduce
I0403 15:36:46.694169  3282 net.cpp:399] inception_3b/3x3 -> inception_3b/3x3
I0403 15:36:46.697101  3282 net.cpp:141] Setting up inception_3b/3x3
I0403 15:36:46.697131  3282 net.cpp:148] Top shape: 24 192 28 28 (3612672)
I0403 15:36:46.697147  3282 net.cpp:156] Memory required for data: 710493216
I0403 15:36:46.697165  3282 layer_factory.hpp:77] Creating layer inception_3b/relu_3x3
I0403 15:36:46.697182  3282 net.cpp:91] Creating Layer inception_3b/relu_3x3
I0403 15:36:46.697197  3282 net.cpp:425] inception_3b/relu_3x3 <- inception_3b/3x3
I0403 15:36:46.697222  3282 net.cpp:386] inception_3b/relu_3x3 -> inception_3b/3x3 (in-place)
I0403 15:36:46.697489  3282 net.cpp:141] Setting up inception_3b/relu_3x3
I0403 15:36:46.697517  3282 net.cpp:148] Top shape: 24 192 28 28 (3612672)
I0403 15:36:46.697532  3282 net.cpp:156] Memory required for data: 724943904
I0403 15:36:46.697546  3282 layer_factory.hpp:77] Creating layer inception_3b/5x5_reduce
I0403 15:36:46.697567  3282 net.cpp:91] Creating Layer inception_3b/5x5_reduce
I0403 15:36:46.697584  3282 net.cpp:425] inception_3b/5x5_reduce <- inception_3a/output_inception_3a/output_0_split_2
I0403 15:36:46.697607  3282 net.cpp:399] inception_3b/5x5_reduce -> inception_3b/5x5_reduce
I0403 15:36:46.698616  3282 net.cpp:141] Setting up inception_3b/5x5_reduce
I0403 15:36:46.698647  3282 net.cpp:148] Top shape: 24 32 28 28 (602112)
I0403 15:36:46.698662  3282 net.cpp:156] Memory required for data: 727352352
I0403 15:36:46.698681  3282 layer_factory.hpp:77] Creating layer inception_3b/relu_5x5_reduce
I0403 15:36:46.698699  3282 net.cpp:91] Creating Layer inception_3b/relu_5x5_reduce
I0403 15:36:46.698716  3282 net.cpp:425] inception_3b/relu_5x5_reduce <- inception_3b/5x5_reduce
I0403 15:36:46.698732  3282 net.cpp:386] inception_3b/relu_5x5_reduce -> inception_3b/5x5_reduce (in-place)
I0403 15:36:46.698923  3282 net.cpp:141] Setting up inception_3b/relu_5x5_reduce
I0403 15:36:46.698948  3282 net.cpp:148] Top shape: 24 32 28 28 (602112)
I0403 15:36:46.698963  3282 net.cpp:156] Memory required for data: 729760800
I0403 15:36:46.698978  3282 layer_factory.hpp:77] Creating layer inception_3b/5x5
I0403 15:36:46.699000  3282 net.cpp:91] Creating Layer inception_3b/5x5
I0403 15:36:46.699018  3282 net.cpp:425] inception_3b/5x5 <- inception_3b/5x5_reduce
I0403 15:36:46.699038  3282 net.cpp:399] inception_3b/5x5 -> inception_3b/5x5
I0403 15:36:46.700995  3282 net.cpp:141] Setting up inception_3b/5x5
I0403 15:36:46.701025  3282 net.cpp:148] Top shape: 24 96 28 28 (1806336)
I0403 15:36:46.701040  3282 net.cpp:156] Memory required for data: 736986144
I0403 15:36:46.701057  3282 layer_factory.hpp:77] Creating layer inception_3b/relu_5x5
I0403 15:36:46.701077  3282 net.cpp:91] Creating Layer inception_3b/relu_5x5
I0403 15:36:46.701094  3282 net.cpp:425] inception_3b/relu_5x5 <- inception_3b/5x5
I0403 15:36:46.701112  3282 net.cpp:386] inception_3b/relu_5x5 -> inception_3b/5x5 (in-place)
I0403 15:36:46.701309  3282 net.cpp:141] Setting up inception_3b/relu_5x5
I0403 15:36:46.701334  3282 net.cpp:148] Top shape: 24 96 28 28 (1806336)
I0403 15:36:46.701349  3282 net.cpp:156] Memory required for data: 744211488
I0403 15:36:46.701364  3282 layer_factory.hpp:77] Creating layer inception_3b/pool
I0403 15:36:46.701380  3282 net.cpp:91] Creating Layer inception_3b/pool
I0403 15:36:46.701396  3282 net.cpp:425] inception_3b/pool <- inception_3a/output_inception_3a/output_0_split_3
I0403 15:36:46.701416  3282 net.cpp:399] inception_3b/pool -> inception_3b/pool
I0403 15:36:46.701470  3282 net.cpp:141] Setting up inception_3b/pool
I0403 15:36:46.701493  3282 net.cpp:148] Top shape: 24 256 28 28 (4816896)
I0403 15:36:46.701506  3282 net.cpp:156] Memory required for data: 763479072
I0403 15:36:46.701521  3282 layer_factory.hpp:77] Creating layer inception_3b/pool_proj
I0403 15:36:46.701544  3282 net.cpp:91] Creating Layer inception_3b/pool_proj
I0403 15:36:46.701560  3282 net.cpp:425] inception_3b/pool_proj <- inception_3b/pool
I0403 15:36:46.701581  3282 net.cpp:399] inception_3b/pool_proj -> inception_3b/pool_proj
I0403 15:36:46.702637  3282 net.cpp:141] Setting up inception_3b/pool_proj
I0403 15:36:46.702664  3282 net.cpp:148] Top shape: 24 64 28 28 (1204224)
I0403 15:36:46.702679  3282 net.cpp:156] Memory required for data: 768295968
I0403 15:36:46.702698  3282 layer_factory.hpp:77] Creating layer inception_3b/relu_pool_proj
I0403 15:36:46.702718  3282 net.cpp:91] Creating Layer inception_3b/relu_pool_proj
I0403 15:36:46.702734  3282 net.cpp:425] inception_3b/relu_pool_proj <- inception_3b/pool_proj
I0403 15:36:46.702752  3282 net.cpp:386] inception_3b/relu_pool_proj -> inception_3b/pool_proj (in-place)
I0403 15:36:46.703150  3282 net.cpp:141] Setting up inception_3b/relu_pool_proj
I0403 15:36:46.703176  3282 net.cpp:148] Top shape: 24 64 28 28 (1204224)
I0403 15:36:46.703191  3282 net.cpp:156] Memory required for data: 773112864
I0403 15:36:46.703207  3282 layer_factory.hpp:77] Creating layer inception_3b/output
I0403 15:36:46.703230  3282 net.cpp:91] Creating Layer inception_3b/output
I0403 15:36:46.703246  3282 net.cpp:425] inception_3b/output <- inception_3b/1x1
I0403 15:36:46.703263  3282 net.cpp:425] inception_3b/output <- inception_3b/3x3
I0403 15:36:46.703279  3282 net.cpp:425] inception_3b/output <- inception_3b/5x5
I0403 15:36:46.703294  3282 net.cpp:425] inception_3b/output <- inception_3b/pool_proj
I0403 15:36:46.703313  3282 net.cpp:399] inception_3b/output -> inception_3b/output
I0403 15:36:46.703356  3282 net.cpp:141] Setting up inception_3b/output
I0403 15:36:46.703382  3282 net.cpp:148] Top shape: 24 480 28 28 (9031680)
I0403 15:36:46.703397  3282 net.cpp:156] Memory required for data: 809239584
I0403 15:36:46.703410  3282 layer_factory.hpp:77] Creating layer pool3/3x3_s2
I0403 15:36:46.703428  3282 net.cpp:91] Creating Layer pool3/3x3_s2
I0403 15:36:46.703444  3282 net.cpp:425] pool3/3x3_s2 <- inception_3b/output
I0403 15:36:46.703475  3282 net.cpp:399] pool3/3x3_s2 -> pool3/3x3_s2
I0403 15:36:46.703534  3282 net.cpp:141] Setting up pool3/3x3_s2
I0403 15:36:46.703557  3282 net.cpp:148] Top shape: 24 480 14 14 (2257920)
I0403 15:36:46.703572  3282 net.cpp:156] Memory required for data: 818271264
I0403 15:36:46.703584  3282 layer_factory.hpp:77] Creating layer pool3/3x3_s2_pool3/3x3_s2_0_split
I0403 15:36:46.703601  3282 net.cpp:91] Creating Layer pool3/3x3_s2_pool3/3x3_s2_0_split
I0403 15:36:46.703616  3282 net.cpp:425] pool3/3x3_s2_pool3/3x3_s2_0_split <- pool3/3x3_s2
I0403 15:36:46.703635  3282 net.cpp:399] pool3/3x3_s2_pool3/3x3_s2_0_split -> pool3/3x3_s2_pool3/3x3_s2_0_split_0
I0403 15:36:46.703655  3282 net.cpp:399] pool3/3x3_s2_pool3/3x3_s2_0_split -> pool3/3x3_s2_pool3/3x3_s2_0_split_1
I0403 15:36:46.703675  3282 net.cpp:399] pool3/3x3_s2_pool3/3x3_s2_0_split -> pool3/3x3_s2_pool3/3x3_s2_0_split_2
I0403 15:36:46.703697  3282 net.cpp:399] pool3/3x3_s2_pool3/3x3_s2_0_split -> pool3/3x3_s2_pool3/3x3_s2_0_split_3
I0403 15:36:46.703773  3282 net.cpp:141] Setting up pool3/3x3_s2_pool3/3x3_s2_0_split
I0403 15:36:46.703796  3282 net.cpp:148] Top shape: 24 480 14 14 (2257920)
I0403 15:36:46.703812  3282 net.cpp:148] Top shape: 24 480 14 14 (2257920)
I0403 15:36:46.703827  3282 net.cpp:148] Top shape: 24 480 14 14 (2257920)
I0403 15:36:46.703842  3282 net.cpp:148] Top shape: 24 480 14 14 (2257920)
I0403 15:36:46.703856  3282 net.cpp:156] Memory required for data: 854397984
I0403 15:36:46.703871  3282 layer_factory.hpp:77] Creating layer inception_4a/1x1
I0403 15:36:46.703892  3282 net.cpp:91] Creating Layer inception_4a/1x1
I0403 15:36:46.703908  3282 net.cpp:425] inception_4a/1x1 <- pool3/3x3_s2_pool3/3x3_s2_0_split_0
I0403 15:36:46.703929  3282 net.cpp:399] inception_4a/1x1 -> inception_4a/1x1
I0403 15:36:46.705505  3282 net.cpp:141] Setting up inception_4a/1x1
I0403 15:36:46.705533  3282 net.cpp:148] Top shape: 24 192 14 14 (903168)
I0403 15:36:46.705549  3282 net.cpp:156] Memory required for data: 858010656
I0403 15:36:46.705566  3282 layer_factory.hpp:77] Creating layer inception_4a/relu_1x1
I0403 15:36:46.705586  3282 net.cpp:91] Creating Layer inception_4a/relu_1x1
I0403 15:36:46.705603  3282 net.cpp:425] inception_4a/relu_1x1 <- inception_4a/1x1
I0403 15:36:46.705621  3282 net.cpp:386] inception_4a/relu_1x1 -> inception_4a/1x1 (in-place)
I0403 15:36:46.705797  3282 net.cpp:141] Setting up inception_4a/relu_1x1
I0403 15:36:46.705822  3282 net.cpp:148] Top shape: 24 192 14 14 (903168)
I0403 15:36:46.705837  3282 net.cpp:156] Memory required for data: 861623328
I0403 15:36:46.705852  3282 layer_factory.hpp:77] Creating layer inception_4a/3x3_reduce
I0403 15:36:46.705875  3282 net.cpp:91] Creating Layer inception_4a/3x3_reduce
I0403 15:36:46.705893  3282 net.cpp:425] inception_4a/3x3_reduce <- pool3/3x3_s2_pool3/3x3_s2_0_split_1
I0403 15:36:46.705911  3282 net.cpp:399] inception_4a/3x3_reduce -> inception_4a/3x3_reduce
I0403 15:36:46.707178  3282 net.cpp:141] Setting up inception_4a/3x3_reduce
I0403 15:36:46.707206  3282 net.cpp:148] Top shape: 24 96 14 14 (451584)
I0403 15:36:46.707228  3282 net.cpp:156] Memory required for data: 863429664
I0403 15:36:46.707253  3282 layer_factory.hpp:77] Creating layer inception_4a/relu_3x3_reduce
I0403 15:36:46.707273  3282 net.cpp:91] Creating Layer inception_4a/relu_3x3_reduce
I0403 15:36:46.707289  3282 net.cpp:425] inception_4a/relu_3x3_reduce <- inception_4a/3x3_reduce
I0403 15:36:46.707309  3282 net.cpp:386] inception_4a/relu_3x3_reduce -> inception_4a/3x3_reduce (in-place)
I0403 15:36:46.707489  3282 net.cpp:141] Setting up inception_4a/relu_3x3_reduce
I0403 15:36:46.707514  3282 net.cpp:148] Top shape: 24 96 14 14 (451584)
I0403 15:36:46.707527  3282 net.cpp:156] Memory required for data: 865236000
I0403 15:36:46.707542  3282 layer_factory.hpp:77] Creating layer inception_4a/3x3
I0403 15:36:46.707564  3282 net.cpp:91] Creating Layer inception_4a/3x3
I0403 15:36:46.707583  3282 net.cpp:425] inception_4a/3x3 <- inception_4a/3x3_reduce
I0403 15:36:46.707602  3282 net.cpp:399] inception_4a/3x3 -> inception_4a/3x3
I0403 15:36:46.710263  3282 net.cpp:141] Setting up inception_4a/3x3
I0403 15:36:46.710291  3282 net.cpp:148] Top shape: 24 208 14 14 (978432)
I0403 15:36:46.710310  3282 net.cpp:156] Memory required for data: 869149728
I0403 15:36:46.710330  3282 layer_factory.hpp:77] Creating layer inception_4a/relu_3x3
I0403 15:36:46.710347  3282 net.cpp:91] Creating Layer inception_4a/relu_3x3
I0403 15:36:46.710362  3282 net.cpp:425] inception_4a/relu_3x3 <- inception_4a/3x3
I0403 15:36:46.710379  3282 net.cpp:386] inception_4a/relu_3x3 -> inception_4a/3x3 (in-place)
I0403 15:36:46.710654  3282 net.cpp:141] Setting up inception_4a/relu_3x3
I0403 15:36:46.710682  3282 net.cpp:148] Top shape: 24 208 14 14 (978432)
I0403 15:36:46.710698  3282 net.cpp:156] Memory required for data: 873063456
I0403 15:36:46.710712  3282 layer_factory.hpp:77] Creating layer inception_4a/5x5_reduce
I0403 15:36:46.710732  3282 net.cpp:91] Creating Layer inception_4a/5x5_reduce
I0403 15:36:46.710749  3282 net.cpp:425] inception_4a/5x5_reduce <- pool3/3x3_s2_pool3/3x3_s2_0_split_2
I0403 15:36:46.710770  3282 net.cpp:399] inception_4a/5x5_reduce -> inception_4a/5x5_reduce
I0403 15:36:46.711791  3282 net.cpp:141] Setting up inception_4a/5x5_reduce
I0403 15:36:46.711819  3282 net.cpp:148] Top shape: 24 16 14 14 (75264)
I0403 15:36:46.711835  3282 net.cpp:156] Memory required for data: 873364512
I0403 15:36:46.711854  3282 layer_factory.hpp:77] Creating layer inception_4a/relu_5x5_reduce
I0403 15:36:46.711872  3282 net.cpp:91] Creating Layer inception_4a/relu_5x5_reduce
I0403 15:36:46.711887  3282 net.cpp:425] inception_4a/relu_5x5_reduce <- inception_4a/5x5_reduce
I0403 15:36:46.711905  3282 net.cpp:386] inception_4a/relu_5x5_reduce -> inception_4a/5x5_reduce (in-place)
I0403 15:36:46.712083  3282 net.cpp:141] Setting up inception_4a/relu_5x5_reduce
I0403 15:36:46.712108  3282 net.cpp:148] Top shape: 24 16 14 14 (75264)
I0403 15:36:46.712122  3282 net.cpp:156] Memory required for data: 873665568
I0403 15:36:46.712136  3282 layer_factory.hpp:77] Creating layer inception_4a/5x5
I0403 15:36:46.712159  3282 net.cpp:91] Creating Layer inception_4a/5x5
I0403 15:36:46.712177  3282 net.cpp:425] inception_4a/5x5 <- inception_4a/5x5_reduce
I0403 15:36:46.712198  3282 net.cpp:399] inception_4a/5x5 -> inception_4a/5x5
I0403 15:36:46.713287  3282 net.cpp:141] Setting up inception_4a/5x5
I0403 15:36:46.713315  3282 net.cpp:148] Top shape: 24 48 14 14 (225792)
I0403 15:36:46.713330  3282 net.cpp:156] Memory required for data: 874568736
I0403 15:36:46.713347  3282 layer_factory.hpp:77] Creating layer inception_4a/relu_5x5
I0403 15:36:46.713364  3282 net.cpp:91] Creating Layer inception_4a/relu_5x5
I0403 15:36:46.713382  3282 net.cpp:425] inception_4a/relu_5x5 <- inception_4a/5x5
I0403 15:36:46.713400  3282 net.cpp:386] inception_4a/relu_5x5 -> inception_4a/5x5 (in-place)
I0403 15:36:46.713577  3282 net.cpp:141] Setting up inception_4a/relu_5x5
I0403 15:36:46.713601  3282 net.cpp:148] Top shape: 24 48 14 14 (225792)
I0403 15:36:46.713616  3282 net.cpp:156] Memory required for data: 875471904
I0403 15:36:46.713630  3282 layer_factory.hpp:77] Creating layer inception_4a/pool
I0403 15:36:46.713649  3282 net.cpp:91] Creating Layer inception_4a/pool
I0403 15:36:46.713666  3282 net.cpp:425] inception_4a/pool <- pool3/3x3_s2_pool3/3x3_s2_0_split_3
I0403 15:36:46.713685  3282 net.cpp:399] inception_4a/pool -> inception_4a/pool
I0403 15:36:46.713745  3282 net.cpp:141] Setting up inception_4a/pool
I0403 15:36:46.713768  3282 net.cpp:148] Top shape: 24 480 14 14 (2257920)
I0403 15:36:46.713783  3282 net.cpp:156] Memory required for data: 884503584
I0403 15:36:46.713796  3282 layer_factory.hpp:77] Creating layer inception_4a/pool_proj
I0403 15:36:46.713817  3282 net.cpp:91] Creating Layer inception_4a/pool_proj
I0403 15:36:46.713835  3282 net.cpp:425] inception_4a/pool_proj <- inception_4a/pool
I0403 15:36:46.713855  3282 net.cpp:399] inception_4a/pool_proj -> inception_4a/pool_proj
I0403 15:36:46.715018  3282 net.cpp:141] Setting up inception_4a/pool_proj
I0403 15:36:46.715044  3282 net.cpp:148] Top shape: 24 64 14 14 (301056)
I0403 15:36:46.715073  3282 net.cpp:156] Memory required for data: 885707808
I0403 15:36:46.715092  3282 layer_factory.hpp:77] Creating layer inception_4a/relu_pool_proj
I0403 15:36:46.715113  3282 net.cpp:91] Creating Layer inception_4a/relu_pool_proj
I0403 15:36:46.715131  3282 net.cpp:425] inception_4a/relu_pool_proj <- inception_4a/pool_proj
I0403 15:36:46.715148  3282 net.cpp:386] inception_4a/relu_pool_proj -> inception_4a/pool_proj (in-place)
I0403 15:36:46.715433  3282 net.cpp:141] Setting up inception_4a/relu_pool_proj
I0403 15:36:46.715461  3282 net.cpp:148] Top shape: 24 64 14 14 (301056)
I0403 15:36:46.715474  3282 net.cpp:156] Memory required for data: 886912032
I0403 15:36:46.715489  3282 layer_factory.hpp:77] Creating layer inception_4a/output
I0403 15:36:46.715507  3282 net.cpp:91] Creating Layer inception_4a/output
I0403 15:36:46.715523  3282 net.cpp:425] inception_4a/output <- inception_4a/1x1
I0403 15:36:46.715538  3282 net.cpp:425] inception_4a/output <- inception_4a/3x3
I0403 15:36:46.715554  3282 net.cpp:425] inception_4a/output <- inception_4a/5x5
I0403 15:36:46.715571  3282 net.cpp:425] inception_4a/output <- inception_4a/pool_proj
I0403 15:36:46.715590  3282 net.cpp:399] inception_4a/output -> inception_4a/output
I0403 15:36:46.715637  3282 net.cpp:141] Setting up inception_4a/output
I0403 15:36:46.715659  3282 net.cpp:148] Top shape: 24 512 14 14 (2408448)
I0403 15:36:46.715673  3282 net.cpp:156] Memory required for data: 896545824
I0403 15:36:46.715687  3282 layer_factory.hpp:77] Creating layer inception_4a/output_inception_4a/output_0_split
I0403 15:36:46.715704  3282 net.cpp:91] Creating Layer inception_4a/output_inception_4a/output_0_split
I0403 15:36:46.715719  3282 net.cpp:425] inception_4a/output_inception_4a/output_0_split <- inception_4a/output
I0403 15:36:46.715739  3282 net.cpp:399] inception_4a/output_inception_4a/output_0_split -> inception_4a/output_inception_4a/output_0_split_0
I0403 15:36:46.715760  3282 net.cpp:399] inception_4a/output_inception_4a/output_0_split -> inception_4a/output_inception_4a/output_0_split_1
I0403 15:36:46.715780  3282 net.cpp:399] inception_4a/output_inception_4a/output_0_split -> inception_4a/output_inception_4a/output_0_split_2
I0403 15:36:46.715801  3282 net.cpp:399] inception_4a/output_inception_4a/output_0_split -> inception_4a/output_inception_4a/output_0_split_3
I0403 15:36:46.715821  3282 net.cpp:399] inception_4a/output_inception_4a/output_0_split -> inception_4a/output_inception_4a/output_0_split_4
I0403 15:36:46.715910  3282 net.cpp:141] Setting up inception_4a/output_inception_4a/output_0_split
I0403 15:36:46.715935  3282 net.cpp:148] Top shape: 24 512 14 14 (2408448)
I0403 15:36:46.715952  3282 net.cpp:148] Top shape: 24 512 14 14 (2408448)
I0403 15:36:46.715968  3282 net.cpp:148] Top shape: 24 512 14 14 (2408448)
I0403 15:36:46.715983  3282 net.cpp:148] Top shape: 24 512 14 14 (2408448)
I0403 15:36:46.715999  3282 net.cpp:148] Top shape: 24 512 14 14 (2408448)
I0403 15:36:46.716012  3282 net.cpp:156] Memory required for data: 944714784
I0403 15:36:46.716027  3282 layer_factory.hpp:77] Creating layer loss1/ave_pool
I0403 15:36:46.716044  3282 net.cpp:91] Creating Layer loss1/ave_pool
I0403 15:36:46.716060  3282 net.cpp:425] loss1/ave_pool <- inception_4a/output_inception_4a/output_0_split_0
I0403 15:36:46.716079  3282 net.cpp:399] loss1/ave_pool -> loss1/ave_pool
I0403 15:36:46.716289  3282 net.cpp:141] Setting up loss1/ave_pool
I0403 15:36:46.716315  3282 net.cpp:148] Top shape: 24 512 4 4 (196608)
I0403 15:36:46.716330  3282 net.cpp:156] Memory required for data: 945501216
I0403 15:36:46.716344  3282 layer_factory.hpp:77] Creating layer loss1/conv
I0403 15:36:46.716366  3282 net.cpp:91] Creating Layer loss1/conv
I0403 15:36:46.716383  3282 net.cpp:425] loss1/conv <- loss1/ave_pool
I0403 15:36:46.716404  3282 net.cpp:399] loss1/conv -> loss1/conv
I0403 15:36:46.717860  3282 net.cpp:141] Setting up loss1/conv
I0403 15:36:46.717890  3282 net.cpp:148] Top shape: 24 128 4 4 (49152)
I0403 15:36:46.717921  3282 net.cpp:156] Memory required for data: 945697824
I0403 15:36:46.717941  3282 layer_factory.hpp:77] Creating layer loss1/relu_conv
I0403 15:36:46.717959  3282 net.cpp:91] Creating Layer loss1/relu_conv
I0403 15:36:46.717974  3282 net.cpp:425] loss1/relu_conv <- loss1/conv
I0403 15:36:46.717993  3282 net.cpp:386] loss1/relu_conv -> loss1/conv (in-place)
I0403 15:36:46.718287  3282 net.cpp:141] Setting up loss1/relu_conv
I0403 15:36:46.718315  3282 net.cpp:148] Top shape: 24 128 4 4 (49152)
I0403 15:36:46.718330  3282 net.cpp:156] Memory required for data: 945894432
I0403 15:36:46.718345  3282 layer_factory.hpp:77] Creating layer loss1/fc
I0403 15:36:46.718369  3282 net.cpp:91] Creating Layer loss1/fc
I0403 15:36:46.718385  3282 net.cpp:425] loss1/fc <- loss1/conv
I0403 15:36:46.718406  3282 net.cpp:399] loss1/fc -> loss1/fc
I0403 15:36:46.736687  3282 net.cpp:141] Setting up loss1/fc
I0403 15:36:46.736723  3282 net.cpp:148] Top shape: 24 1024 (24576)
I0403 15:36:46.736739  3282 net.cpp:156] Memory required for data: 945992736
I0403 15:36:46.736759  3282 layer_factory.hpp:77] Creating layer loss1/relu_fc
I0403 15:36:46.736781  3282 net.cpp:91] Creating Layer loss1/relu_fc
I0403 15:36:46.736799  3282 net.cpp:425] loss1/relu_fc <- loss1/fc
I0403 15:36:46.736819  3282 net.cpp:386] loss1/relu_fc -> loss1/fc (in-place)
I0403 15:36:46.737026  3282 net.cpp:141] Setting up loss1/relu_fc
I0403 15:36:46.737051  3282 net.cpp:148] Top shape: 24 1024 (24576)
I0403 15:36:46.737066  3282 net.cpp:156] Memory required for data: 946091040
I0403 15:36:46.737082  3282 layer_factory.hpp:77] Creating layer loss1/drop_fc
I0403 15:36:46.737112  3282 net.cpp:91] Creating Layer loss1/drop_fc
I0403 15:36:46.737130  3282 net.cpp:425] loss1/drop_fc <- loss1/fc
I0403 15:36:46.737149  3282 net.cpp:386] loss1/drop_fc -> loss1/fc (in-place)
I0403 15:36:46.737201  3282 net.cpp:141] Setting up loss1/drop_fc
I0403 15:36:46.737231  3282 net.cpp:148] Top shape: 24 1024 (24576)
I0403 15:36:46.737246  3282 net.cpp:156] Memory required for data: 946189344
I0403 15:36:46.737262  3282 layer_factory.hpp:77] Creating layer loss1/classifier_plantvillage
I0403 15:36:46.737282  3282 net.cpp:91] Creating Layer loss1/classifier_plantvillage
I0403 15:36:46.737298  3282 net.cpp:425] loss1/classifier_plantvillage <- loss1/fc
I0403 15:36:46.737321  3282 net.cpp:399] loss1/classifier_plantvillage -> loss1/classifier_plantvillage
I0403 15:36:46.738277  3282 net.cpp:141] Setting up loss1/classifier_plantvillage
I0403 15:36:46.738308  3282 net.cpp:148] Top shape: 24 38 (912)
I0403 15:36:46.738324  3282 net.cpp:156] Memory required for data: 946192992
I0403 15:36:46.738343  3282 layer_factory.hpp:77] Creating layer loss1/classifier_plantvillage_loss1/classifier_plantvillage_0_split
I0403 15:36:46.738363  3282 net.cpp:91] Creating Layer loss1/classifier_plantvillage_loss1/classifier_plantvillage_0_split
I0403 15:36:46.738379  3282 net.cpp:425] loss1/classifier_plantvillage_loss1/classifier_plantvillage_0_split <- loss1/classifier_plantvillage
I0403 15:36:46.738396  3282 net.cpp:399] loss1/classifier_plantvillage_loss1/classifier_plantvillage_0_split -> loss1/classifier_plantvillage_loss1/classifier_plantvillage_0_split_0
I0403 15:36:46.738417  3282 net.cpp:399] loss1/classifier_plantvillage_loss1/classifier_plantvillage_0_split -> loss1/classifier_plantvillage_loss1/classifier_plantvillage_0_split_1
I0403 15:36:46.738438  3282 net.cpp:399] loss1/classifier_plantvillage_loss1/classifier_plantvillage_0_split -> loss1/classifier_plantvillage_loss1/classifier_plantvillage_0_split_2
I0403 15:36:46.738507  3282 net.cpp:141] Setting up loss1/classifier_plantvillage_loss1/classifier_plantvillage_0_split
I0403 15:36:46.738530  3282 net.cpp:148] Top shape: 24 38 (912)
I0403 15:36:46.738546  3282 net.cpp:148] Top shape: 24 38 (912)
I0403 15:36:46.738562  3282 net.cpp:148] Top shape: 24 38 (912)
I0403 15:36:46.738576  3282 net.cpp:156] Memory required for data: 946203936
I0403 15:36:46.738591  3282 layer_factory.hpp:77] Creating layer inception_4b/1x1
I0403 15:36:46.738612  3282 net.cpp:91] Creating Layer inception_4b/1x1
I0403 15:36:46.738647  3282 net.cpp:425] inception_4b/1x1 <- inception_4a/output_inception_4a/output_0_split_1
I0403 15:36:46.738670  3282 net.cpp:399] inception_4b/1x1 -> inception_4b/1x1
I0403 15:36:46.740392  3282 net.cpp:141] Setting up inception_4b/1x1
I0403 15:36:46.740423  3282 net.cpp:148] Top shape: 24 160 14 14 (752640)
I0403 15:36:46.740440  3282 net.cpp:156] Memory required for data: 949214496
I0403 15:36:46.740459  3282 layer_factory.hpp:77] Creating layer inception_4b/relu_1x1
I0403 15:36:46.740478  3282 net.cpp:91] Creating Layer inception_4b/relu_1x1
I0403 15:36:46.740494  3282 net.cpp:425] inception_4b/relu_1x1 <- inception_4b/1x1
I0403 15:36:46.740511  3282 net.cpp:386] inception_4b/relu_1x1 -> inception_4b/1x1 (in-place)
I0403 15:36:46.740699  3282 net.cpp:141] Setting up inception_4b/relu_1x1
I0403 15:36:46.740725  3282 net.cpp:148] Top shape: 24 160 14 14 (752640)
I0403 15:36:46.740739  3282 net.cpp:156] Memory required for data: 952225056
I0403 15:36:46.740754  3282 layer_factory.hpp:77] Creating layer inception_4b/3x3_reduce
I0403 15:36:46.740777  3282 net.cpp:91] Creating Layer inception_4b/3x3_reduce
I0403 15:36:46.740794  3282 net.cpp:425] inception_4b/3x3_reduce <- inception_4a/output_inception_4a/output_0_split_2
I0403 15:36:46.740818  3282 net.cpp:399] inception_4b/3x3_reduce -> inception_4b/3x3_reduce
I0403 15:36:46.742229  3282 net.cpp:141] Setting up inception_4b/3x3_reduce
I0403 15:36:46.742262  3282 net.cpp:148] Top shape: 24 112 14 14 (526848)
I0403 15:36:46.742280  3282 net.cpp:156] Memory required for data: 954332448
I0403 15:36:46.742298  3282 layer_factory.hpp:77] Creating layer inception_4b/relu_3x3_reduce
I0403 15:36:46.742316  3282 net.cpp:91] Creating Layer inception_4b/relu_3x3_reduce
I0403 15:36:46.742333  3282 net.cpp:425] inception_4b/relu_3x3_reduce <- inception_4b/3x3_reduce
I0403 15:36:46.742353  3282 net.cpp:386] inception_4b/relu_3x3_reduce -> inception_4b/3x3_reduce (in-place)
I0403 15:36:46.742647  3282 net.cpp:141] Setting up inception_4b/relu_3x3_reduce
I0403 15:36:46.742676  3282 net.cpp:148] Top shape: 24 112 14 14 (526848)
I0403 15:36:46.742692  3282 net.cpp:156] Memory required for data: 956439840
I0403 15:36:46.742708  3282 layer_factory.hpp:77] Creating layer inception_4b/3x3
I0403 15:36:46.742732  3282 net.cpp:91] Creating Layer inception_4b/3x3
I0403 15:36:46.742748  3282 net.cpp:425] inception_4b/3x3 <- inception_4b/3x3_reduce
I0403 15:36:46.742769  3282 net.cpp:399] inception_4b/3x3 -> inception_4b/3x3
I0403 15:36:46.745836  3282 net.cpp:141] Setting up inception_4b/3x3
I0403 15:36:46.745864  3282 net.cpp:148] Top shape: 24 224 14 14 (1053696)
I0403 15:36:46.745882  3282 net.cpp:156] Memory required for data: 960654624
I0403 15:36:46.745900  3282 layer_factory.hpp:77] Creating layer inception_4b/relu_3x3
I0403 15:36:46.745923  3282 net.cpp:91] Creating Layer inception_4b/relu_3x3
I0403 15:36:46.745940  3282 net.cpp:425] inception_4b/relu_3x3 <- inception_4b/3x3
I0403 15:36:46.745959  3282 net.cpp:386] inception_4b/relu_3x3 -> inception_4b/3x3 (in-place)
I0403 15:36:46.746145  3282 net.cpp:141] Setting up inception_4b/relu_3x3
I0403 15:36:46.746170  3282 net.cpp:148] Top shape: 24 224 14 14 (1053696)
I0403 15:36:46.746186  3282 net.cpp:156] Memory required for data: 964869408
I0403 15:36:46.746199  3282 layer_factory.hpp:77] Creating layer inception_4b/5x5_reduce
I0403 15:36:46.746245  3282 net.cpp:91] Creating Layer inception_4b/5x5_reduce
I0403 15:36:46.746265  3282 net.cpp:425] inception_4b/5x5_reduce <- inception_4a/output_inception_4a/output_0_split_3
I0403 15:36:46.746285  3282 net.cpp:399] inception_4b/5x5_reduce -> inception_4b/5x5_reduce
I0403 15:36:46.747428  3282 net.cpp:141] Setting up inception_4b/5x5_reduce
I0403 15:36:46.747459  3282 net.cpp:148] Top shape: 24 24 14 14 (112896)
I0403 15:36:46.747475  3282 net.cpp:156] Memory required for data: 965320992
I0403 15:36:46.747494  3282 layer_factory.hpp:77] Creating layer inception_4b/relu_5x5_reduce
I0403 15:36:46.747512  3282 net.cpp:91] Creating Layer inception_4b/relu_5x5_reduce
I0403 15:36:46.747544  3282 net.cpp:425] inception_4b/relu_5x5_reduce <- inception_4b/5x5_reduce
I0403 15:36:46.747565  3282 net.cpp:386] inception_4b/relu_5x5_reduce -> inception_4b/5x5_reduce (in-place)
I0403 15:36:46.747756  3282 net.cpp:141] Setting up inception_4b/relu_5x5_reduce
I0403 15:36:46.747781  3282 net.cpp:148] Top shape: 24 24 14 14 (112896)
I0403 15:36:46.747797  3282 net.cpp:156] Memory required for data: 965772576
I0403 15:36:46.747812  3282 layer_factory.hpp:77] Creating layer inception_4b/5x5
I0403 15:36:46.747834  3282 net.cpp:91] Creating Layer inception_4b/5x5
I0403 15:36:46.747853  3282 net.cpp:425] inception_4b/5x5 <- inception_4b/5x5_reduce
I0403 15:36:46.747875  3282 net.cpp:399] inception_4b/5x5 -> inception_4b/5x5
I0403 15:36:46.749150  3282 net.cpp:141] Setting up inception_4b/5x5
I0403 15:36:46.749181  3282 net.cpp:148] Top shape: 24 64 14 14 (301056)
I0403 15:36:46.749197  3282 net.cpp:156] Memory required for data: 966976800
I0403 15:36:46.749223  3282 layer_factory.hpp:77] Creating layer inception_4b/relu_5x5
I0403 15:36:46.749243  3282 net.cpp:91] Creating Layer inception_4b/relu_5x5
I0403 15:36:46.749260  3282 net.cpp:425] inception_4b/relu_5x5 <- inception_4b/5x5
I0403 15:36:46.749279  3282 net.cpp:386] inception_4b/relu_5x5 -> inception_4b/5x5 (in-place)
I0403 15:36:46.749577  3282 net.cpp:141] Setting up inception_4b/relu_5x5
I0403 15:36:46.749608  3282 net.cpp:148] Top shape: 24 64 14 14 (301056)
I0403 15:36:46.749624  3282 net.cpp:156] Memory required for data: 968181024
I0403 15:36:46.749639  3282 layer_factory.hpp:77] Creating layer inception_4b/pool
I0403 15:36:46.749657  3282 net.cpp:91] Creating Layer inception_4b/pool
I0403 15:36:46.749673  3282 net.cpp:425] inception_4b/pool <- inception_4a/output_inception_4a/output_0_split_4
I0403 15:36:46.749692  3282 net.cpp:399] inception_4b/pool -> inception_4b/pool
I0403 15:36:46.749760  3282 net.cpp:141] Setting up inception_4b/pool
I0403 15:36:46.749783  3282 net.cpp:148] Top shape: 24 512 14 14 (2408448)
I0403 15:36:46.749799  3282 net.cpp:156] Memory required for data: 977814816
I0403 15:36:46.749814  3282 layer_factory.hpp:77] Creating layer inception_4b/pool_proj
I0403 15:36:46.749835  3282 net.cpp:91] Creating Layer inception_4b/pool_proj
I0403 15:36:46.749853  3282 net.cpp:425] inception_4b/pool_proj <- inception_4b/pool
I0403 15:36:46.749876  3282 net.cpp:399] inception_4b/pool_proj -> inception_4b/pool_proj
I0403 15:36:46.751133  3282 net.cpp:141] Setting up inception_4b/pool_proj
I0403 15:36:46.751164  3282 net.cpp:148] Top shape: 24 64 14 14 (301056)
I0403 15:36:46.751180  3282 net.cpp:156] Memory required for data: 979019040
I0403 15:36:46.751199  3282 layer_factory.hpp:77] Creating layer inception_4b/relu_pool_proj
I0403 15:36:46.751225  3282 net.cpp:91] Creating Layer inception_4b/relu_pool_proj
I0403 15:36:46.751243  3282 net.cpp:425] inception_4b/relu_pool_proj <- inception_4b/pool_proj
I0403 15:36:46.751265  3282 net.cpp:386] inception_4b/relu_pool_proj -> inception_4b/pool_proj (in-place)
I0403 15:36:46.751456  3282 net.cpp:141] Setting up inception_4b/relu_pool_proj
I0403 15:36:46.751482  3282 net.cpp:148] Top shape: 24 64 14 14 (301056)
I0403 15:36:46.751497  3282 net.cpp:156] Memory required for data: 980223264
I0403 15:36:46.751512  3282 layer_factory.hpp:77] Creating layer inception_4b/output
I0403 15:36:46.751529  3282 net.cpp:91] Creating Layer inception_4b/output
I0403 15:36:46.751544  3282 net.cpp:425] inception_4b/output <- inception_4b/1x1
I0403 15:36:46.751561  3282 net.cpp:425] inception_4b/output <- inception_4b/3x3
I0403 15:36:46.751577  3282 net.cpp:425] inception_4b/output <- inception_4b/5x5
I0403 15:36:46.751595  3282 net.cpp:425] inception_4b/output <- inception_4b/pool_proj
I0403 15:36:46.751615  3282 net.cpp:399] inception_4b/output -> inception_4b/output
I0403 15:36:46.751660  3282 net.cpp:141] Setting up inception_4b/output
I0403 15:36:46.751687  3282 net.cpp:148] Top shape: 24 512 14 14 (2408448)
I0403 15:36:46.751703  3282 net.cpp:156] Memory required for data: 989857056
I0403 15:36:46.751732  3282 layer_factory.hpp:77] Creating layer inception_4b/output_inception_4b/output_0_split
I0403 15:36:46.751750  3282 net.cpp:91] Creating Layer inception_4b/output_inception_4b/output_0_split
I0403 15:36:46.751766  3282 net.cpp:425] inception_4b/output_inception_4b/output_0_split <- inception_4b/output
I0403 15:36:46.751786  3282 net.cpp:399] inception_4b/output_inception_4b/output_0_split -> inception_4b/output_inception_4b/output_0_split_0
I0403 15:36:46.751808  3282 net.cpp:399] inception_4b/output_inception_4b/output_0_split -> inception_4b/output_inception_4b/output_0_split_1
I0403 15:36:46.751829  3282 net.cpp:399] inception_4b/output_inception_4b/output_0_split -> inception_4b/output_inception_4b/output_0_split_2
I0403 15:36:46.751850  3282 net.cpp:399] inception_4b/output_inception_4b/output_0_split -> inception_4b/output_inception_4b/output_0_split_3
I0403 15:36:46.751932  3282 net.cpp:141] Setting up inception_4b/output_inception_4b/output_0_split
I0403 15:36:46.751955  3282 net.cpp:148] Top shape: 24 512 14 14 (2408448)
I0403 15:36:46.751972  3282 net.cpp:148] Top shape: 24 512 14 14 (2408448)
I0403 15:36:46.751988  3282 net.cpp:148] Top shape: 24 512 14 14 (2408448)
I0403 15:36:46.752004  3282 net.cpp:148] Top shape: 24 512 14 14 (2408448)
I0403 15:36:46.752017  3282 net.cpp:156] Memory required for data: 1028392224
I0403 15:36:46.752032  3282 layer_factory.hpp:77] Creating layer inception_4c/1x1
I0403 15:36:46.752056  3282 net.cpp:91] Creating Layer inception_4c/1x1
I0403 15:36:46.752074  3282 net.cpp:425] inception_4c/1x1 <- inception_4b/output_inception_4b/output_0_split_0
I0403 15:36:46.752095  3282 net.cpp:399] inception_4c/1x1 -> inception_4c/1x1
I0403 15:36:46.753598  3282 net.cpp:141] Setting up inception_4c/1x1
I0403 15:36:46.753628  3282 net.cpp:148] Top shape: 24 128 14 14 (602112)
I0403 15:36:46.753643  3282 net.cpp:156] Memory required for data: 1030800672
I0403 15:36:46.753662  3282 layer_factory.hpp:77] Creating layer inception_4c/relu_1x1
I0403 15:36:46.753684  3282 net.cpp:91] Creating Layer inception_4c/relu_1x1
I0403 15:36:46.753701  3282 net.cpp:425] inception_4c/relu_1x1 <- inception_4c/1x1
I0403 15:36:46.753720  3282 net.cpp:386] inception_4c/relu_1x1 -> inception_4c/1x1 (in-place)
I0403 15:36:46.753911  3282 net.cpp:141] Setting up inception_4c/relu_1x1
I0403 15:36:46.753936  3282 net.cpp:148] Top shape: 24 128 14 14 (602112)
I0403 15:36:46.753950  3282 net.cpp:156] Memory required for data: 1033209120
I0403 15:36:46.753965  3282 layer_factory.hpp:77] Creating layer inception_4c/3x3_reduce
I0403 15:36:46.753990  3282 net.cpp:91] Creating Layer inception_4c/3x3_reduce
I0403 15:36:46.754007  3282 net.cpp:425] inception_4c/3x3_reduce <- inception_4b/output_inception_4b/output_0_split_1
I0403 15:36:46.754027  3282 net.cpp:399] inception_4c/3x3_reduce -> inception_4c/3x3_reduce
I0403 15:36:46.756042  3282 net.cpp:141] Setting up inception_4c/3x3_reduce
I0403 15:36:46.756072  3282 net.cpp:148] Top shape: 24 128 14 14 (602112)
I0403 15:36:46.756088  3282 net.cpp:156] Memory required for data: 1035617568
I0403 15:36:46.756108  3282 layer_factory.hpp:77] Creating layer inception_4c/relu_3x3_reduce
I0403 15:36:46.756127  3282 net.cpp:91] Creating Layer inception_4c/relu_3x3_reduce
I0403 15:36:46.756145  3282 net.cpp:425] inception_4c/relu_3x3_reduce <- inception_4c/3x3_reduce
I0403 15:36:46.756163  3282 net.cpp:386] inception_4c/relu_3x3_reduce -> inception_4c/3x3_reduce (in-place)
I0403 15:36:46.756465  3282 net.cpp:141] Setting up inception_4c/relu_3x3_reduce
I0403 15:36:46.756492  3282 net.cpp:148] Top shape: 24 128 14 14 (602112)
I0403 15:36:46.756508  3282 net.cpp:156] Memory required for data: 1038026016
I0403 15:36:46.756522  3282 layer_factory.hpp:77] Creating layer inception_4c/3x3
I0403 15:36:46.756548  3282 net.cpp:91] Creating Layer inception_4c/3x3
I0403 15:36:46.756567  3282 net.cpp:425] inception_4c/3x3 <- inception_4c/3x3_reduce
I0403 15:36:46.756587  3282 net.cpp:399] inception_4c/3x3 -> inception_4c/3x3
I0403 15:36:46.760316  3282 net.cpp:141] Setting up inception_4c/3x3
I0403 15:36:46.760361  3282 net.cpp:148] Top shape: 24 256 14 14 (1204224)
I0403 15:36:46.760378  3282 net.cpp:156] Memory required for data: 1042842912
I0403 15:36:46.760413  3282 layer_factory.hpp:77] Creating layer inception_4c/relu_3x3
I0403 15:36:46.760434  3282 net.cpp:91] Creating Layer inception_4c/relu_3x3
I0403 15:36:46.760450  3282 net.cpp:425] inception_4c/relu_3x3 <- inception_4c/3x3
I0403 15:36:46.760468  3282 net.cpp:386] inception_4c/relu_3x3 -> inception_4c/3x3 (in-place)
I0403 15:36:46.760658  3282 net.cpp:141] Setting up inception_4c/relu_3x3
I0403 15:36:46.760684  3282 net.cpp:148] Top shape: 24 256 14 14 (1204224)
I0403 15:36:46.760700  3282 net.cpp:156] Memory required for data: 1047659808
I0403 15:36:46.760715  3282 layer_factory.hpp:77] Creating layer inception_4c/5x5_reduce
I0403 15:36:46.760740  3282 net.cpp:91] Creating Layer inception_4c/5x5_reduce
I0403 15:36:46.760757  3282 net.cpp:425] inception_4c/5x5_reduce <- inception_4b/output_inception_4b/output_0_split_2
I0403 15:36:46.760776  3282 net.cpp:399] inception_4c/5x5_reduce -> inception_4c/5x5_reduce
I0403 15:36:46.761899  3282 net.cpp:141] Setting up inception_4c/5x5_reduce
I0403 15:36:46.761930  3282 net.cpp:148] Top shape: 24 24 14 14 (112896)
I0403 15:36:46.761947  3282 net.cpp:156] Memory required for data: 1048111392
I0403 15:36:46.761966  3282 layer_factory.hpp:77] Creating layer inception_4c/relu_5x5_reduce
I0403 15:36:46.761984  3282 net.cpp:91] Creating Layer inception_4c/relu_5x5_reduce
I0403 15:36:46.762001  3282 net.cpp:425] inception_4c/relu_5x5_reduce <- inception_4c/5x5_reduce
I0403 15:36:46.762022  3282 net.cpp:386] inception_4c/relu_5x5_reduce -> inception_4c/5x5_reduce (in-place)
I0403 15:36:46.762225  3282 net.cpp:141] Setting up inception_4c/relu_5x5_reduce
I0403 15:36:46.762251  3282 net.cpp:148] Top shape: 24 24 14 14 (112896)
I0403 15:36:46.762266  3282 net.cpp:156] Memory required for data: 1048562976
I0403 15:36:46.762282  3282 layer_factory.hpp:77] Creating layer inception_4c/5x5
I0403 15:36:46.762305  3282 net.cpp:91] Creating Layer inception_4c/5x5
I0403 15:36:46.762322  3282 net.cpp:425] inception_4c/5x5 <- inception_4c/5x5_reduce
I0403 15:36:46.762344  3282 net.cpp:399] inception_4c/5x5 -> inception_4c/5x5
I0403 15:36:46.763629  3282 net.cpp:141] Setting up inception_4c/5x5
I0403 15:36:46.763658  3282 net.cpp:148] Top shape: 24 64 14 14 (301056)
I0403 15:36:46.763674  3282 net.cpp:156] Memory required for data: 1049767200
I0403 15:36:46.763691  3282 layer_factory.hpp:77] Creating layer inception_4c/relu_5x5
I0403 15:36:46.763712  3282 net.cpp:91] Creating Layer inception_4c/relu_5x5
I0403 15:36:46.763728  3282 net.cpp:425] inception_4c/relu_5x5 <- inception_4c/5x5
I0403 15:36:46.763746  3282 net.cpp:386] inception_4c/relu_5x5 -> inception_4c/5x5 (in-place)
I0403 15:36:46.764046  3282 net.cpp:141] Setting up inception_4c/relu_5x5
I0403 15:36:46.764073  3282 net.cpp:148] Top shape: 24 64 14 14 (301056)
I0403 15:36:46.764088  3282 net.cpp:156] Memory required for data: 1050971424
I0403 15:36:46.764104  3282 layer_factory.hpp:77] Creating layer inception_4c/pool
I0403 15:36:46.764122  3282 net.cpp:91] Creating Layer inception_4c/pool
I0403 15:36:46.764137  3282 net.cpp:425] inception_4c/pool <- inception_4b/output_inception_4b/output_0_split_3
I0403 15:36:46.764159  3282 net.cpp:399] inception_4c/pool -> inception_4c/pool
I0403 15:36:46.764233  3282 net.cpp:141] Setting up inception_4c/pool
I0403 15:36:46.764259  3282 net.cpp:148] Top shape: 24 512 14 14 (2408448)
I0403 15:36:46.764273  3282 net.cpp:156] Memory required for data: 1060605216
I0403 15:36:46.764288  3282 layer_factory.hpp:77] Creating layer inception_4c/pool_proj
I0403 15:36:46.764310  3282 net.cpp:91] Creating Layer inception_4c/pool_proj
I0403 15:36:46.764328  3282 net.cpp:425] inception_4c/pool_proj <- inception_4c/pool
I0403 15:36:46.764348  3282 net.cpp:399] inception_4c/pool_proj -> inception_4c/pool_proj
I0403 15:36:46.765638  3282 net.cpp:141] Setting up inception_4c/pool_proj
I0403 15:36:46.765669  3282 net.cpp:148] Top shape: 24 64 14 14 (301056)
I0403 15:36:46.765698  3282 net.cpp:156] Memory required for data: 1061809440
I0403 15:36:46.765718  3282 layer_factory.hpp:77] Creating layer inception_4c/relu_pool_proj
I0403 15:36:46.765735  3282 net.cpp:91] Creating Layer inception_4c/relu_pool_proj
I0403 15:36:46.765751  3282 net.cpp:425] inception_4c/relu_pool_proj <- inception_4c/pool_proj
I0403 15:36:46.765769  3282 net.cpp:386] inception_4c/relu_pool_proj -> inception_4c/pool_proj (in-place)
I0403 15:36:46.765956  3282 net.cpp:141] Setting up inception_4c/relu_pool_proj
I0403 15:36:46.765981  3282 net.cpp:148] Top shape: 24 64 14 14 (301056)
I0403 15:36:46.765995  3282 net.cpp:156] Memory required for data: 1063013664
I0403 15:36:46.766010  3282 layer_factory.hpp:77] Creating layer inception_4c/output
I0403 15:36:46.766027  3282 net.cpp:91] Creating Layer inception_4c/output
I0403 15:36:46.766042  3282 net.cpp:425] inception_4c/output <- inception_4c/1x1
I0403 15:36:46.766058  3282 net.cpp:425] inception_4c/output <- inception_4c/3x3
I0403 15:36:46.766074  3282 net.cpp:425] inception_4c/output <- inception_4c/5x5
I0403 15:36:46.766090  3282 net.cpp:425] inception_4c/output <- inception_4c/pool_proj
I0403 15:36:46.766109  3282 net.cpp:399] inception_4c/output -> inception_4c/output
I0403 15:36:46.766156  3282 net.cpp:141] Setting up inception_4c/output
I0403 15:36:46.766181  3282 net.cpp:148] Top shape: 24 512 14 14 (2408448)
I0403 15:36:46.766196  3282 net.cpp:156] Memory required for data: 1072647456
I0403 15:36:46.766216  3282 layer_factory.hpp:77] Creating layer inception_4c/output_inception_4c/output_0_split
I0403 15:36:46.766235  3282 net.cpp:91] Creating Layer inception_4c/output_inception_4c/output_0_split
I0403 15:36:46.766252  3282 net.cpp:425] inception_4c/output_inception_4c/output_0_split <- inception_4c/output
I0403 15:36:46.766268  3282 net.cpp:399] inception_4c/output_inception_4c/output_0_split -> inception_4c/output_inception_4c/output_0_split_0
I0403 15:36:46.766293  3282 net.cpp:399] inception_4c/output_inception_4c/output_0_split -> inception_4c/output_inception_4c/output_0_split_1
I0403 15:36:46.766312  3282 net.cpp:399] inception_4c/output_inception_4c/output_0_split -> inception_4c/output_inception_4c/output_0_split_2
I0403 15:36:46.766333  3282 net.cpp:399] inception_4c/output_inception_4c/output_0_split -> inception_4c/output_inception_4c/output_0_split_3
I0403 15:36:46.766418  3282 net.cpp:141] Setting up inception_4c/output_inception_4c/output_0_split
I0403 15:36:46.766441  3282 net.cpp:148] Top shape: 24 512 14 14 (2408448)
I0403 15:36:46.766458  3282 net.cpp:148] Top shape: 24 512 14 14 (2408448)
I0403 15:36:46.766472  3282 net.cpp:148] Top shape: 24 512 14 14 (2408448)
I0403 15:36:46.766487  3282 net.cpp:148] Top shape: 24 512 14 14 (2408448)
I0403 15:36:46.766501  3282 net.cpp:156] Memory required for data: 1111182624
I0403 15:36:46.766516  3282 layer_factory.hpp:77] Creating layer inception_4d/1x1
I0403 15:36:46.766538  3282 net.cpp:91] Creating Layer inception_4d/1x1
I0403 15:36:46.766554  3282 net.cpp:425] inception_4d/1x1 <- inception_4c/output_inception_4c/output_0_split_0
I0403 15:36:46.766576  3282 net.cpp:399] inception_4d/1x1 -> inception_4d/1x1
I0403 15:36:46.767966  3282 net.cpp:141] Setting up inception_4d/1x1
I0403 15:36:46.767992  3282 net.cpp:148] Top shape: 24 112 14 14 (526848)
I0403 15:36:46.768007  3282 net.cpp:156] Memory required for data: 1113290016
I0403 15:36:46.768024  3282 layer_factory.hpp:77] Creating layer inception_4d/relu_1x1
I0403 15:36:46.768044  3282 net.cpp:91] Creating Layer inception_4d/relu_1x1
I0403 15:36:46.768060  3282 net.cpp:425] inception_4d/relu_1x1 <- inception_4d/1x1
I0403 15:36:46.768076  3282 net.cpp:386] inception_4d/relu_1x1 -> inception_4d/1x1 (in-place)
I0403 15:36:46.768263  3282 net.cpp:141] Setting up inception_4d/relu_1x1
I0403 15:36:46.768290  3282 net.cpp:148] Top shape: 24 112 14 14 (526848)
I0403 15:36:46.768304  3282 net.cpp:156] Memory required for data: 1115397408
I0403 15:36:46.768318  3282 layer_factory.hpp:77] Creating layer inception_4d/3x3_reduce
I0403 15:36:46.768352  3282 net.cpp:91] Creating Layer inception_4d/3x3_reduce
I0403 15:36:46.768369  3282 net.cpp:425] inception_4d/3x3_reduce <- inception_4c/output_inception_4c/output_0_split_1
I0403 15:36:46.768388  3282 net.cpp:399] inception_4d/3x3_reduce -> inception_4d/3x3_reduce
I0403 15:36:46.769860  3282 net.cpp:141] Setting up inception_4d/3x3_reduce
I0403 15:36:46.769887  3282 net.cpp:148] Top shape: 24 144 14 14 (677376)
I0403 15:36:46.769902  3282 net.cpp:156] Memory required for data: 1118106912
I0403 15:36:46.769919  3282 layer_factory.hpp:77] Creating layer inception_4d/relu_3x3_reduce
I0403 15:36:46.769937  3282 net.cpp:91] Creating Layer inception_4d/relu_3x3_reduce
I0403 15:36:46.769951  3282 net.cpp:425] inception_4d/relu_3x3_reduce <- inception_4d/3x3_reduce
I0403 15:36:46.769969  3282 net.cpp:386] inception_4d/relu_3x3_reduce -> inception_4d/3x3_reduce (in-place)
I0403 15:36:46.770261  3282 net.cpp:141] Setting up inception_4d/relu_3x3_reduce
I0403 15:36:46.770285  3282 net.cpp:148] Top shape: 24 144 14 14 (677376)
I0403 15:36:46.770300  3282 net.cpp:156] Memory required for data: 1120816416
I0403 15:36:46.770314  3282 layer_factory.hpp:77] Creating layer inception_4d/3x3
I0403 15:36:46.770336  3282 net.cpp:91] Creating Layer inception_4d/3x3
I0403 15:36:46.770354  3282 net.cpp:425] inception_4d/3x3 <- inception_4d/3x3_reduce
I0403 15:36:46.770373  3282 net.cpp:399] inception_4d/3x3 -> inception_4d/3x3
I0403 15:36:46.774525  3282 net.cpp:141] Setting up inception_4d/3x3
I0403 15:36:46.774554  3282 net.cpp:148] Top shape: 24 288 14 14 (1354752)
I0403 15:36:46.774569  3282 net.cpp:156] Memory required for data: 1126235424
I0403 15:36:46.774586  3282 layer_factory.hpp:77] Creating layer inception_4d/relu_3x3
I0403 15:36:46.774605  3282 net.cpp:91] Creating Layer inception_4d/relu_3x3
I0403 15:36:46.774622  3282 net.cpp:425] inception_4d/relu_3x3 <- inception_4d/3x3
I0403 15:36:46.774639  3282 net.cpp:386] inception_4d/relu_3x3 -> inception_4d/3x3 (in-place)
I0403 15:36:46.774816  3282 net.cpp:141] Setting up inception_4d/relu_3x3
I0403 15:36:46.774842  3282 net.cpp:148] Top shape: 24 288 14 14 (1354752)
I0403 15:36:46.774857  3282 net.cpp:156] Memory required for data: 1131654432
I0403 15:36:46.774871  3282 layer_factory.hpp:77] Creating layer inception_4d/5x5_reduce
I0403 15:36:46.774893  3282 net.cpp:91] Creating Layer inception_4d/5x5_reduce
I0403 15:36:46.774910  3282 net.cpp:425] inception_4d/5x5_reduce <- inception_4c/output_inception_4c/output_0_split_2
I0403 15:36:46.774931  3282 net.cpp:399] inception_4d/5x5_reduce -> inception_4d/5x5_reduce
I0403 15:36:46.776103  3282 net.cpp:141] Setting up inception_4d/5x5_reduce
I0403 15:36:46.776129  3282 net.cpp:148] Top shape: 24 32 14 14 (150528)
I0403 15:36:46.776144  3282 net.cpp:156] Memory required for data: 1132256544
I0403 15:36:46.776162  3282 layer_factory.hpp:77] Creating layer inception_4d/relu_5x5_reduce
I0403 15:36:46.776183  3282 net.cpp:91] Creating Layer inception_4d/relu_5x5_reduce
I0403 15:36:46.776199  3282 net.cpp:425] inception_4d/relu_5x5_reduce <- inception_4d/5x5_reduce
I0403 15:36:46.776222  3282 net.cpp:386] inception_4d/relu_5x5_reduce -> inception_4d/5x5_reduce (in-place)
I0403 15:36:46.776412  3282 net.cpp:141] Setting up inception_4d/relu_5x5_reduce
I0403 15:36:46.776439  3282 net.cpp:148] Top shape: 24 32 14 14 (150528)
I0403 15:36:46.776454  3282 net.cpp:156] Memory required for data: 1132858656
I0403 15:36:46.776469  3282 layer_factory.hpp:77] Creating layer inception_4d/5x5
I0403 15:36:46.776492  3282 net.cpp:91] Creating Layer inception_4d/5x5
I0403 15:36:46.776510  3282 net.cpp:425] inception_4d/5x5 <- inception_4d/5x5_reduce
I0403 15:36:46.776528  3282 net.cpp:399] inception_4d/5x5 -> inception_4d/5x5
I0403 15:36:46.778064  3282 net.cpp:141] Setting up inception_4d/5x5
I0403 15:36:46.778092  3282 net.cpp:148] Top shape: 24 64 14 14 (301056)
I0403 15:36:46.778108  3282 net.cpp:156] Memory required for data: 1134062880
I0403 15:36:46.778127  3282 layer_factory.hpp:77] Creating layer inception_4d/relu_5x5
I0403 15:36:46.778159  3282 net.cpp:91] Creating Layer inception_4d/relu_5x5
I0403 15:36:46.778177  3282 net.cpp:425] inception_4d/relu_5x5 <- inception_4d/5x5
I0403 15:36:46.778195  3282 net.cpp:386] inception_4d/relu_5x5 -> inception_4d/5x5 (in-place)
I0403 15:36:46.778517  3282 net.cpp:141] Setting up inception_4d/relu_5x5
I0403 15:36:46.778545  3282 net.cpp:148] Top shape: 24 64 14 14 (301056)
I0403 15:36:46.778560  3282 net.cpp:156] Memory required for data: 1135267104
I0403 15:36:46.778589  3282 layer_factory.hpp:77] Creating layer inception_4d/pool
I0403 15:36:46.778606  3282 net.cpp:91] Creating Layer inception_4d/pool
I0403 15:36:46.778621  3282 net.cpp:425] inception_4d/pool <- inception_4c/output_inception_4c/output_0_split_3
I0403 15:36:46.778641  3282 net.cpp:399] inception_4d/pool -> inception_4d/pool
I0403 15:36:46.778707  3282 net.cpp:141] Setting up inception_4d/pool
I0403 15:36:46.778730  3282 net.cpp:148] Top shape: 24 512 14 14 (2408448)
I0403 15:36:46.778745  3282 net.cpp:156] Memory required for data: 1144900896
I0403 15:36:46.778759  3282 layer_factory.hpp:77] Creating layer inception_4d/pool_proj
I0403 15:36:46.778779  3282 net.cpp:91] Creating Layer inception_4d/pool_proj
I0403 15:36:46.778795  3282 net.cpp:425] inception_4d/pool_proj <- inception_4d/pool
I0403 15:36:46.778813  3282 net.cpp:399] inception_4d/pool_proj -> inception_4d/pool_proj
I0403 15:36:46.780627  3282 net.cpp:141] Setting up inception_4d/pool_proj
I0403 15:36:46.780657  3282 net.cpp:148] Top shape: 24 64 14 14 (301056)
I0403 15:36:46.780671  3282 net.cpp:156] Memory required for data: 1146105120
I0403 15:36:46.780690  3282 layer_factory.hpp:77] Creating layer inception_4d/relu_pool_proj
I0403 15:36:46.780709  3282 net.cpp:91] Creating Layer inception_4d/relu_pool_proj
I0403 15:36:46.780726  3282 net.cpp:425] inception_4d/relu_pool_proj <- inception_4d/pool_proj
I0403 15:36:46.780743  3282 net.cpp:386] inception_4d/relu_pool_proj -> inception_4d/pool_proj (in-place)
I0403 15:36:46.780926  3282 net.cpp:141] Setting up inception_4d/relu_pool_proj
I0403 15:36:46.780951  3282 net.cpp:148] Top shape: 24 64 14 14 (301056)
I0403 15:36:46.780966  3282 net.cpp:156] Memory required for data: 1147309344
I0403 15:36:46.780980  3282 layer_factory.hpp:77] Creating layer inception_4d/output
I0403 15:36:46.780997  3282 net.cpp:91] Creating Layer inception_4d/output
I0403 15:36:46.781011  3282 net.cpp:425] inception_4d/output <- inception_4d/1x1
I0403 15:36:46.781028  3282 net.cpp:425] inception_4d/output <- inception_4d/3x3
I0403 15:36:46.781043  3282 net.cpp:425] inception_4d/output <- inception_4d/5x5
I0403 15:36:46.781057  3282 net.cpp:425] inception_4d/output <- inception_4d/pool_proj
I0403 15:36:46.781075  3282 net.cpp:399] inception_4d/output -> inception_4d/output
I0403 15:36:46.781121  3282 net.cpp:141] Setting up inception_4d/output
I0403 15:36:46.781143  3282 net.cpp:148] Top shape: 24 528 14 14 (2483712)
I0403 15:36:46.781157  3282 net.cpp:156] Memory required for data: 1157244192
I0403 15:36:46.781172  3282 layer_factory.hpp:77] Creating layer inception_4d/output_inception_4d/output_0_split
I0403 15:36:46.781190  3282 net.cpp:91] Creating Layer inception_4d/output_inception_4d/output_0_split
I0403 15:36:46.781206  3282 net.cpp:425] inception_4d/output_inception_4d/output_0_split <- inception_4d/output
I0403 15:36:46.781229  3282 net.cpp:399] inception_4d/output_inception_4d/output_0_split -> inception_4d/output_inception_4d/output_0_split_0
I0403 15:36:46.781249  3282 net.cpp:399] inception_4d/output_inception_4d/output_0_split -> inception_4d/output_inception_4d/output_0_split_1
I0403 15:36:46.781270  3282 net.cpp:399] inception_4d/output_inception_4d/output_0_split -> inception_4d/output_inception_4d/output_0_split_2
I0403 15:36:46.781291  3282 net.cpp:399] inception_4d/output_inception_4d/output_0_split -> inception_4d/output_inception_4d/output_0_split_3
I0403 15:36:46.781311  3282 net.cpp:399] inception_4d/output_inception_4d/output_0_split -> inception_4d/output_inception_4d/output_0_split_4
I0403 15:36:46.781411  3282 net.cpp:141] Setting up inception_4d/output_inception_4d/output_0_split
I0403 15:36:46.781445  3282 net.cpp:148] Top shape: 24 528 14 14 (2483712)
I0403 15:36:46.781462  3282 net.cpp:148] Top shape: 24 528 14 14 (2483712)
I0403 15:36:46.781477  3282 net.cpp:148] Top shape: 24 528 14 14 (2483712)
I0403 15:36:46.781492  3282 net.cpp:148] Top shape: 24 528 14 14 (2483712)
I0403 15:36:46.781507  3282 net.cpp:148] Top shape: 24 528 14 14 (2483712)
I0403 15:36:46.781520  3282 net.cpp:156] Memory required for data: 1206918432
I0403 15:36:46.781534  3282 layer_factory.hpp:77] Creating layer loss2/ave_pool
I0403 15:36:46.781554  3282 net.cpp:91] Creating Layer loss2/ave_pool
I0403 15:36:46.781571  3282 net.cpp:425] loss2/ave_pool <- inception_4d/output_inception_4d/output_0_split_0
I0403 15:36:46.781589  3282 net.cpp:399] loss2/ave_pool -> loss2/ave_pool
I0403 15:36:46.781899  3282 net.cpp:141] Setting up loss2/ave_pool
I0403 15:36:46.781925  3282 net.cpp:148] Top shape: 24 528 4 4 (202752)
I0403 15:36:46.781939  3282 net.cpp:156] Memory required for data: 1207729440
I0403 15:36:46.781954  3282 layer_factory.hpp:77] Creating layer loss2/conv
I0403 15:36:46.781976  3282 net.cpp:91] Creating Layer loss2/conv
I0403 15:36:46.781993  3282 net.cpp:425] loss2/conv <- loss2/ave_pool
I0403 15:36:46.782012  3282 net.cpp:399] loss2/conv -> loss2/conv
I0403 15:36:46.783960  3282 net.cpp:141] Setting up loss2/conv
I0403 15:36:46.783988  3282 net.cpp:148] Top shape: 24 128 4 4 (49152)
I0403 15:36:46.784005  3282 net.cpp:156] Memory required for data: 1207926048
I0403 15:36:46.784024  3282 layer_factory.hpp:77] Creating layer loss2/relu_conv
I0403 15:36:46.784040  3282 net.cpp:91] Creating Layer loss2/relu_conv
I0403 15:36:46.784056  3282 net.cpp:425] loss2/relu_conv <- loss2/conv
I0403 15:36:46.784076  3282 net.cpp:386] loss2/relu_conv -> loss2/conv (in-place)
I0403 15:36:46.784369  3282 net.cpp:141] Setting up loss2/relu_conv
I0403 15:36:46.784395  3282 net.cpp:148] Top shape: 24 128 4 4 (49152)
I0403 15:36:46.784410  3282 net.cpp:156] Memory required for data: 1208122656
I0403 15:36:46.784425  3282 layer_factory.hpp:77] Creating layer loss2/fc
I0403 15:36:46.784445  3282 net.cpp:91] Creating Layer loss2/fc
I0403 15:36:46.784461  3282 net.cpp:425] loss2/fc <- loss2/conv
I0403 15:36:46.784482  3282 net.cpp:399] loss2/fc -> loss2/fc
I0403 15:36:46.802117  3282 net.cpp:141] Setting up loss2/fc
I0403 15:36:46.802155  3282 net.cpp:148] Top shape: 24 1024 (24576)
I0403 15:36:46.802170  3282 net.cpp:156] Memory required for data: 1208220960
I0403 15:36:46.802188  3282 layer_factory.hpp:77] Creating layer loss2/relu_fc
I0403 15:36:46.802206  3282 net.cpp:91] Creating Layer loss2/relu_fc
I0403 15:36:46.802227  3282 net.cpp:425] loss2/relu_fc <- loss2/fc
I0403 15:36:46.802243  3282 net.cpp:386] loss2/relu_fc -> loss2/fc (in-place)
I0403 15:36:46.802536  3282 net.cpp:141] Setting up loss2/relu_fc
I0403 15:36:46.802564  3282 net.cpp:148] Top shape: 24 1024 (24576)
I0403 15:36:46.802579  3282 net.cpp:156] Memory required for data: 1208319264
I0403 15:36:46.802594  3282 layer_factory.hpp:77] Creating layer loss2/drop_fc
I0403 15:36:46.802611  3282 net.cpp:91] Creating Layer loss2/drop_fc
I0403 15:36:46.802626  3282 net.cpp:425] loss2/drop_fc <- loss2/fc
I0403 15:36:46.802642  3282 net.cpp:386] loss2/drop_fc -> loss2/fc (in-place)
I0403 15:36:46.802693  3282 net.cpp:141] Setting up loss2/drop_fc
I0403 15:36:46.802714  3282 net.cpp:148] Top shape: 24 1024 (24576)
I0403 15:36:46.802728  3282 net.cpp:156] Memory required for data: 1208417568
I0403 15:36:46.802742  3282 layer_factory.hpp:77] Creating layer loss2/classifier_plantvillage
I0403 15:36:46.802762  3282 net.cpp:91] Creating Layer loss2/classifier_plantvillage
I0403 15:36:46.802778  3282 net.cpp:425] loss2/classifier_plantvillage <- loss2/fc
I0403 15:36:46.802796  3282 net.cpp:399] loss2/classifier_plantvillage -> loss2/classifier_plantvillage
I0403 15:36:46.803194  3282 net.cpp:141] Setting up loss2/classifier_plantvillage
I0403 15:36:46.803228  3282 net.cpp:148] Top shape: 24 38 (912)
I0403 15:36:46.803258  3282 net.cpp:156] Memory required for data: 1208421216
I0403 15:36:46.803277  3282 layer_factory.hpp:77] Creating layer loss2/classifier_plantvillage_loss2/classifier_plantvillage_0_split
I0403 15:36:46.803294  3282 net.cpp:91] Creating Layer loss2/classifier_plantvillage_loss2/classifier_plantvillage_0_split
I0403 15:36:46.803309  3282 net.cpp:425] loss2/classifier_plantvillage_loss2/classifier_plantvillage_0_split <- loss2/classifier_plantvillage
I0403 15:36:46.803328  3282 net.cpp:399] loss2/classifier_plantvillage_loss2/classifier_plantvillage_0_split -> loss2/classifier_plantvillage_loss2/classifier_plantvillage_0_split_0
I0403 15:36:46.803349  3282 net.cpp:399] loss2/classifier_plantvillage_loss2/classifier_plantvillage_0_split -> loss2/classifier_plantvillage_loss2/classifier_plantvillage_0_split_1
I0403 15:36:46.803370  3282 net.cpp:399] loss2/classifier_plantvillage_loss2/classifier_plantvillage_0_split -> loss2/classifier_plantvillage_loss2/classifier_plantvillage_0_split_2
I0403 15:36:46.803447  3282 net.cpp:141] Setting up loss2/classifier_plantvillage_loss2/classifier_plantvillage_0_split
I0403 15:36:46.803470  3282 net.cpp:148] Top shape: 24 38 (912)
I0403 15:36:46.803485  3282 net.cpp:148] Top shape: 24 38 (912)
I0403 15:36:46.803500  3282 net.cpp:148] Top shape: 24 38 (912)
I0403 15:36:46.803514  3282 net.cpp:156] Memory required for data: 1208432160
I0403 15:36:46.803527  3282 layer_factory.hpp:77] Creating layer inception_4e/1x1
I0403 15:36:46.803549  3282 net.cpp:91] Creating Layer inception_4e/1x1
I0403 15:36:46.803565  3282 net.cpp:425] inception_4e/1x1 <- inception_4d/output_inception_4d/output_0_split_1
I0403 15:36:46.803583  3282 net.cpp:399] inception_4e/1x1 -> inception_4e/1x1
I0403 15:36:46.805359  3282 net.cpp:141] Setting up inception_4e/1x1
I0403 15:36:46.805385  3282 net.cpp:148] Top shape: 24 256 14 14 (1204224)
I0403 15:36:46.805400  3282 net.cpp:156] Memory required for data: 1213249056
I0403 15:36:46.805418  3282 layer_factory.hpp:77] Creating layer inception_4e/relu_1x1
I0403 15:36:46.805436  3282 net.cpp:91] Creating Layer inception_4e/relu_1x1
I0403 15:36:46.805456  3282 net.cpp:425] inception_4e/relu_1x1 <- inception_4e/1x1
I0403 15:36:46.805474  3282 net.cpp:386] inception_4e/relu_1x1 -> inception_4e/1x1 (in-place)
I0403 15:36:46.805762  3282 net.cpp:141] Setting up inception_4e/relu_1x1
I0403 15:36:46.805786  3282 net.cpp:148] Top shape: 24 256 14 14 (1204224)
I0403 15:36:46.805800  3282 net.cpp:156] Memory required for data: 1218065952
I0403 15:36:46.805815  3282 layer_factory.hpp:77] Creating layer inception_4e/3x3_reduce
I0403 15:36:46.805837  3282 net.cpp:91] Creating Layer inception_4e/3x3_reduce
I0403 15:36:46.805855  3282 net.cpp:425] inception_4e/3x3_reduce <- inception_4d/output_inception_4d/output_0_split_2
I0403 15:36:46.805874  3282 net.cpp:399] inception_4e/3x3_reduce -> inception_4e/3x3_reduce
I0403 15:36:46.807937  3282 net.cpp:141] Setting up inception_4e/3x3_reduce
I0403 15:36:46.807966  3282 net.cpp:148] Top shape: 24 160 14 14 (752640)
I0403 15:36:46.807981  3282 net.cpp:156] Memory required for data: 1221076512
I0403 15:36:46.807999  3282 layer_factory.hpp:77] Creating layer inception_4e/relu_3x3_reduce
I0403 15:36:46.808017  3282 net.cpp:91] Creating Layer inception_4e/relu_3x3_reduce
I0403 15:36:46.808032  3282 net.cpp:425] inception_4e/relu_3x3_reduce <- inception_4e/3x3_reduce
I0403 15:36:46.808051  3282 net.cpp:386] inception_4e/relu_3x3_reduce -> inception_4e/3x3_reduce (in-place)
I0403 15:36:46.808241  3282 net.cpp:141] Setting up inception_4e/relu_3x3_reduce
I0403 15:36:46.808265  3282 net.cpp:148] Top shape: 24 160 14 14 (752640)
I0403 15:36:46.808279  3282 net.cpp:156] Memory required for data: 1224087072
I0403 15:36:46.808295  3282 layer_factory.hpp:77] Creating layer inception_4e/3x3
I0403 15:36:46.808315  3282 net.cpp:91] Creating Layer inception_4e/3x3
I0403 15:36:46.808332  3282 net.cpp:425] inception_4e/3x3 <- inception_4e/3x3_reduce
I0403 15:36:46.808352  3282 net.cpp:399] inception_4e/3x3 -> inception_4e/3x3
I0403 15:36:46.813330  3282 net.cpp:141] Setting up inception_4e/3x3
I0403 15:36:46.813371  3282 net.cpp:148] Top shape: 24 320 14 14 (1505280)
I0403 15:36:46.813387  3282 net.cpp:156] Memory required for data: 1230108192
I0403 15:36:46.813405  3282 layer_factory.hpp:77] Creating layer inception_4e/relu_3x3
I0403 15:36:46.813426  3282 net.cpp:91] Creating Layer inception_4e/relu_3x3
I0403 15:36:46.813442  3282 net.cpp:425] inception_4e/relu_3x3 <- inception_4e/3x3
I0403 15:36:46.813460  3282 net.cpp:386] inception_4e/relu_3x3 -> inception_4e/3x3 (in-place)
I0403 15:36:46.813766  3282 net.cpp:141] Setting up inception_4e/relu_3x3
I0403 15:36:46.813791  3282 net.cpp:148] Top shape: 24 320 14 14 (1505280)
I0403 15:36:46.813807  3282 net.cpp:156] Memory required for data: 1236129312
I0403 15:36:46.813822  3282 layer_factory.hpp:77] Creating layer inception_4e/5x5_reduce
I0403 15:36:46.813844  3282 net.cpp:91] Creating Layer inception_4e/5x5_reduce
I0403 15:36:46.813861  3282 net.cpp:425] inception_4e/5x5_reduce <- inception_4d/output_inception_4d/output_0_split_3
I0403 15:36:46.813884  3282 net.cpp:399] inception_4e/5x5_reduce -> inception_4e/5x5_reduce
I0403 15:36:46.815001  3282 net.cpp:141] Setting up inception_4e/5x5_reduce
I0403 15:36:46.815031  3282 net.cpp:148] Top shape: 24 32 14 14 (150528)
I0403 15:36:46.815047  3282 net.cpp:156] Memory required for data: 1236731424
I0403 15:36:46.815067  3282 layer_factory.hpp:77] Creating layer inception_4e/relu_5x5_reduce
I0403 15:36:46.815084  3282 net.cpp:91] Creating Layer inception_4e/relu_5x5_reduce
I0403 15:36:46.815100  3282 net.cpp:425] inception_4e/relu_5x5_reduce <- inception_4e/5x5_reduce
I0403 15:36:46.815120  3282 net.cpp:386] inception_4e/relu_5x5_reduce -> inception_4e/5x5_reduce (in-place)
I0403 15:36:46.815423  3282 net.cpp:141] Setting up inception_4e/relu_5x5_reduce
I0403 15:36:46.815453  3282 net.cpp:148] Top shape: 24 32 14 14 (150528)
I0403 15:36:46.815469  3282 net.cpp:156] Memory required for data: 1237333536
I0403 15:36:46.815482  3282 layer_factory.hpp:77] Creating layer inception_4e/5x5
I0403 15:36:46.815521  3282 net.cpp:91] Creating Layer inception_4e/5x5
I0403 15:36:46.815541  3282 net.cpp:425] inception_4e/5x5 <- inception_4e/5x5_reduce
I0403 15:36:46.815560  3282 net.cpp:399] inception_4e/5x5 -> inception_4e/5x5
I0403 15:36:46.817432  3282 net.cpp:141] Setting up inception_4e/5x5
I0403 15:36:46.817461  3282 net.cpp:148] Top shape: 24 128 14 14 (602112)
I0403 15:36:46.817476  3282 net.cpp:156] Memory required for data: 1239741984
I0403 15:36:46.817495  3282 layer_factory.hpp:77] Creating layer inception_4e/relu_5x5
I0403 15:36:46.817517  3282 net.cpp:91] Creating Layer inception_4e/relu_5x5
I0403 15:36:46.817533  3282 net.cpp:425] inception_4e/relu_5x5 <- inception_4e/5x5
I0403 15:36:46.817553  3282 net.cpp:386] inception_4e/relu_5x5 -> inception_4e/5x5 (in-place)
I0403 15:36:46.817764  3282 net.cpp:141] Setting up inception_4e/relu_5x5
I0403 15:36:46.817790  3282 net.cpp:148] Top shape: 24 128 14 14 (602112)
I0403 15:36:46.817803  3282 net.cpp:156] Memory required for data: 1242150432
I0403 15:36:46.817817  3282 layer_factory.hpp:77] Creating layer inception_4e/pool
I0403 15:36:46.817836  3282 net.cpp:91] Creating Layer inception_4e/pool
I0403 15:36:46.817852  3282 net.cpp:425] inception_4e/pool <- inception_4d/output_inception_4d/output_0_split_4
I0403 15:36:46.817872  3282 net.cpp:399] inception_4e/pool -> inception_4e/pool
I0403 15:36:46.817942  3282 net.cpp:141] Setting up inception_4e/pool
I0403 15:36:46.817966  3282 net.cpp:148] Top shape: 24 528 14 14 (2483712)
I0403 15:36:46.817981  3282 net.cpp:156] Memory required for data: 1252085280
I0403 15:36:46.817994  3282 layer_factory.hpp:77] Creating layer inception_4e/pool_proj
I0403 15:36:46.818018  3282 net.cpp:91] Creating Layer inception_4e/pool_proj
I0403 15:36:46.818035  3282 net.cpp:425] inception_4e/pool_proj <- inception_4e/pool
I0403 15:36:46.818053  3282 net.cpp:399] inception_4e/pool_proj -> inception_4e/pool_proj
I0403 15:36:46.819571  3282 net.cpp:141] Setting up inception_4e/pool_proj
I0403 15:36:46.819609  3282 net.cpp:148] Top shape: 24 128 14 14 (602112)
I0403 15:36:46.819625  3282 net.cpp:156] Memory required for data: 1254493728
I0403 15:36:46.819643  3282 layer_factory.hpp:77] Creating layer inception_4e/relu_pool_proj
I0403 15:36:46.819664  3282 net.cpp:91] Creating Layer inception_4e/relu_pool_proj
I0403 15:36:46.819680  3282 net.cpp:425] inception_4e/relu_pool_proj <- inception_4e/pool_proj
I0403 15:36:46.819699  3282 net.cpp:386] inception_4e/relu_pool_proj -> inception_4e/pool_proj (in-place)
I0403 15:36:46.819993  3282 net.cpp:141] Setting up inception_4e/relu_pool_proj
I0403 15:36:46.820019  3282 net.cpp:148] Top shape: 24 128 14 14 (602112)
I0403 15:36:46.820035  3282 net.cpp:156] Memory required for data: 1256902176
I0403 15:36:46.820050  3282 layer_factory.hpp:77] Creating layer inception_4e/output
I0403 15:36:46.820070  3282 net.cpp:91] Creating Layer inception_4e/output
I0403 15:36:46.820086  3282 net.cpp:425] inception_4e/output <- inception_4e/1x1
I0403 15:36:46.820102  3282 net.cpp:425] inception_4e/output <- inception_4e/3x3
I0403 15:36:46.820118  3282 net.cpp:425] inception_4e/output <- inception_4e/5x5
I0403 15:36:46.820134  3282 net.cpp:425] inception_4e/output <- inception_4e/pool_proj
I0403 15:36:46.820152  3282 net.cpp:399] inception_4e/output -> inception_4e/output
I0403 15:36:46.820221  3282 net.cpp:141] Setting up inception_4e/output
I0403 15:36:46.820246  3282 net.cpp:148] Top shape: 24 832 14 14 (3913728)
I0403 15:36:46.820266  3282 net.cpp:156] Memory required for data: 1272557088
I0403 15:36:46.820281  3282 layer_factory.hpp:77] Creating layer pool4/3x3_s2
I0403 15:36:46.820305  3282 net.cpp:91] Creating Layer pool4/3x3_s2
I0403 15:36:46.820325  3282 net.cpp:425] pool4/3x3_s2 <- inception_4e/output
I0403 15:36:46.820361  3282 net.cpp:399] pool4/3x3_s2 -> pool4/3x3_s2
I0403 15:36:46.820433  3282 net.cpp:141] Setting up pool4/3x3_s2
I0403 15:36:46.820458  3282 net.cpp:148] Top shape: 24 832 7 7 (978432)
I0403 15:36:46.820474  3282 net.cpp:156] Memory required for data: 1276470816
I0403 15:36:46.820492  3282 layer_factory.hpp:77] Creating layer pool4/3x3_s2_pool4/3x3_s2_0_split
I0403 15:36:46.820514  3282 net.cpp:91] Creating Layer pool4/3x3_s2_pool4/3x3_s2_0_split
I0403 15:36:46.820533  3282 net.cpp:425] pool4/3x3_s2_pool4/3x3_s2_0_split <- pool4/3x3_s2
I0403 15:36:46.820552  3282 net.cpp:399] pool4/3x3_s2_pool4/3x3_s2_0_split -> pool4/3x3_s2_pool4/3x3_s2_0_split_0
I0403 15:36:46.820574  3282 net.cpp:399] pool4/3x3_s2_pool4/3x3_s2_0_split -> pool4/3x3_s2_pool4/3x3_s2_0_split_1
I0403 15:36:46.820595  3282 net.cpp:399] pool4/3x3_s2_pool4/3x3_s2_0_split -> pool4/3x3_s2_pool4/3x3_s2_0_split_2
I0403 15:36:46.820617  3282 net.cpp:399] pool4/3x3_s2_pool4/3x3_s2_0_split -> pool4/3x3_s2_pool4/3x3_s2_0_split_3
I0403 15:36:46.820716  3282 net.cpp:141] Setting up pool4/3x3_s2_pool4/3x3_s2_0_split
I0403 15:36:46.820742  3282 net.cpp:148] Top shape: 24 832 7 7 (978432)
I0403 15:36:46.820760  3282 net.cpp:148] Top shape: 24 832 7 7 (978432)
I0403 15:36:46.820788  3282 net.cpp:148] Top shape: 24 832 7 7 (978432)
I0403 15:36:46.820803  3282 net.cpp:148] Top shape: 24 832 7 7 (978432)
I0403 15:36:46.820818  3282 net.cpp:156] Memory required for data: 1292125728
I0403 15:36:46.820832  3282 layer_factory.hpp:77] Creating layer inception_5a/1x1
I0403 15:36:46.820858  3282 net.cpp:91] Creating Layer inception_5a/1x1
I0403 15:36:46.820876  3282 net.cpp:425] inception_5a/1x1 <- pool4/3x3_s2_pool4/3x3_s2_0_split_0
I0403 15:36:46.820896  3282 net.cpp:399] inception_5a/1x1 -> inception_5a/1x1
I0403 15:36:46.824007  3282 net.cpp:141] Setting up inception_5a/1x1
I0403 15:36:46.824043  3282 net.cpp:148] Top shape: 24 256 7 7 (301056)
I0403 15:36:46.824060  3282 net.cpp:156] Memory required for data: 1293329952
I0403 15:36:46.824086  3282 layer_factory.hpp:77] Creating layer inception_5a/relu_1x1
I0403 15:36:46.824107  3282 net.cpp:91] Creating Layer inception_5a/relu_1x1
I0403 15:36:46.824126  3282 net.cpp:425] inception_5a/relu_1x1 <- inception_5a/1x1
I0403 15:36:46.824144  3282 net.cpp:386] inception_5a/relu_1x1 -> inception_5a/1x1 (in-place)
I0403 15:36:46.824491  3282 net.cpp:141] Setting up inception_5a/relu_1x1
I0403 15:36:46.824522  3282 net.cpp:148] Top shape: 24 256 7 7 (301056)
I0403 15:36:46.824538  3282 net.cpp:156] Memory required for data: 1294534176
I0403 15:36:46.824554  3282 layer_factory.hpp:77] Creating layer inception_5a/3x3_reduce
I0403 15:36:46.824578  3282 net.cpp:91] Creating Layer inception_5a/3x3_reduce
I0403 15:36:46.824596  3282 net.cpp:425] inception_5a/3x3_reduce <- pool4/3x3_s2_pool4/3x3_s2_0_split_1
I0403 15:36:46.824616  3282 net.cpp:399] inception_5a/3x3_reduce -> inception_5a/3x3_reduce
I0403 15:36:46.827253  3282 net.cpp:141] Setting up inception_5a/3x3_reduce
I0403 15:36:46.827286  3282 net.cpp:148] Top shape: 24 160 7 7 (188160)
I0403 15:36:46.827302  3282 net.cpp:156] Memory required for data: 1295286816
I0403 15:36:46.827322  3282 layer_factory.hpp:77] Creating layer inception_5a/relu_3x3_reduce
I0403 15:36:46.827343  3282 net.cpp:91] Creating Layer inception_5a/relu_3x3_reduce
I0403 15:36:46.827361  3282 net.cpp:425] inception_5a/relu_3x3_reduce <- inception_5a/3x3_reduce
I0403 15:36:46.827380  3282 net.cpp:386] inception_5a/relu_3x3_reduce -> inception_5a/3x3_reduce (in-place)
I0403 15:36:46.827582  3282 net.cpp:141] Setting up inception_5a/relu_3x3_reduce
I0403 15:36:46.827611  3282 net.cpp:148] Top shape: 24 160 7 7 (188160)
I0403 15:36:46.827627  3282 net.cpp:156] Memory required for data: 1296039456
I0403 15:36:46.827642  3282 layer_factory.hpp:77] Creating layer inception_5a/3x3
I0403 15:36:46.827667  3282 net.cpp:91] Creating Layer inception_5a/3x3
I0403 15:36:46.827685  3282 net.cpp:425] inception_5a/3x3 <- inception_5a/3x3_reduce
I0403 15:36:46.827705  3282 net.cpp:399] inception_5a/3x3 -> inception_5a/3x3
I0403 15:36:46.833076  3282 net.cpp:141] Setting up inception_5a/3x3
I0403 15:36:46.833111  3282 net.cpp:148] Top shape: 24 320 7 7 (376320)
I0403 15:36:46.833127  3282 net.cpp:156] Memory required for data: 1297544736
I0403 15:36:46.833148  3282 layer_factory.hpp:77] Creating layer inception_5a/relu_3x3
I0403 15:36:46.833168  3282 net.cpp:91] Creating Layer inception_5a/relu_3x3
I0403 15:36:46.833184  3282 net.cpp:425] inception_5a/relu_3x3 <- inception_5a/3x3
I0403 15:36:46.833205  3282 net.cpp:386] inception_5a/relu_3x3 -> inception_5a/3x3 (in-place)
I0403 15:36:46.833533  3282 net.cpp:141] Setting up inception_5a/relu_3x3
I0403 15:36:46.833562  3282 net.cpp:148] Top shape: 24 320 7 7 (376320)
I0403 15:36:46.833578  3282 net.cpp:156] Memory required for data: 1299050016
I0403 15:36:46.833595  3282 layer_factory.hpp:77] Creating layer inception_5a/5x5_reduce
I0403 15:36:46.833619  3282 net.cpp:91] Creating Layer inception_5a/5x5_reduce
I0403 15:36:46.833638  3282 net.cpp:425] inception_5a/5x5_reduce <- pool4/3x3_s2_pool4/3x3_s2_0_split_2
I0403 15:36:46.833658  3282 net.cpp:399] inception_5a/5x5_reduce -> inception_5a/5x5_reduce
I0403 15:36:46.834916  3282 net.cpp:141] Setting up inception_5a/5x5_reduce
I0403 15:36:46.834949  3282 net.cpp:148] Top shape: 24 32 7 7 (37632)
I0403 15:36:46.834966  3282 net.cpp:156] Memory required for data: 1299200544
I0403 15:36:46.834985  3282 layer_factory.hpp:77] Creating layer inception_5a/relu_5x5_reduce
I0403 15:36:46.835005  3282 net.cpp:91] Creating Layer inception_5a/relu_5x5_reduce
I0403 15:36:46.835022  3282 net.cpp:425] inception_5a/relu_5x5_reduce <- inception_5a/5x5_reduce
I0403 15:36:46.835042  3282 net.cpp:386] inception_5a/relu_5x5_reduce -> inception_5a/5x5_reduce (in-place)
I0403 15:36:46.835367  3282 net.cpp:141] Setting up inception_5a/relu_5x5_reduce
I0403 15:36:46.835396  3282 net.cpp:148] Top shape: 24 32 7 7 (37632)
I0403 15:36:46.835412  3282 net.cpp:156] Memory required for data: 1299351072
I0403 15:36:46.835427  3282 layer_factory.hpp:77] Creating layer inception_5a/5x5
I0403 15:36:46.835450  3282 net.cpp:91] Creating Layer inception_5a/5x5
I0403 15:36:46.835469  3282 net.cpp:425] inception_5a/5x5 <- inception_5a/5x5_reduce
I0403 15:36:46.835492  3282 net.cpp:399] inception_5a/5x5 -> inception_5a/5x5
I0403 15:36:46.837342  3282 net.cpp:141] Setting up inception_5a/5x5
I0403 15:36:46.837391  3282 net.cpp:148] Top shape: 24 128 7 7 (150528)
I0403 15:36:46.837409  3282 net.cpp:156] Memory required for data: 1299953184
I0403 15:36:46.837429  3282 layer_factory.hpp:77] Creating layer inception_5a/relu_5x5
I0403 15:36:46.837447  3282 net.cpp:91] Creating Layer inception_5a/relu_5x5
I0403 15:36:46.837465  3282 net.cpp:425] inception_5a/relu_5x5 <- inception_5a/5x5
I0403 15:36:46.837486  3282 net.cpp:386] inception_5a/relu_5x5 -> inception_5a/5x5 (in-place)
I0403 15:36:46.837689  3282 net.cpp:141] Setting up inception_5a/relu_5x5
I0403 15:36:46.837716  3282 net.cpp:148] Top shape: 24 128 7 7 (150528)
I0403 15:36:46.837731  3282 net.cpp:156] Memory required for data: 1300555296
I0403 15:36:46.837748  3282 layer_factory.hpp:77] Creating layer inception_5a/pool
I0403 15:36:46.837765  3282 net.cpp:91] Creating Layer inception_5a/pool
I0403 15:36:46.837782  3282 net.cpp:425] inception_5a/pool <- pool4/3x3_s2_pool4/3x3_s2_0_split_3
I0403 15:36:46.837803  3282 net.cpp:399] inception_5a/pool -> inception_5a/pool
I0403 15:36:46.837880  3282 net.cpp:141] Setting up inception_5a/pool
I0403 15:36:46.837904  3282 net.cpp:148] Top shape: 24 832 7 7 (978432)
I0403 15:36:46.837920  3282 net.cpp:156] Memory required for data: 1304469024
I0403 15:36:46.837935  3282 layer_factory.hpp:77] Creating layer inception_5a/pool_proj
I0403 15:36:46.837960  3282 net.cpp:91] Creating Layer inception_5a/pool_proj
I0403 15:36:46.837978  3282 net.cpp:425] inception_5a/pool_proj <- inception_5a/pool
I0403 15:36:46.837998  3282 net.cpp:399] inception_5a/pool_proj -> inception_5a/pool_proj
I0403 15:36:46.840438  3282 net.cpp:141] Setting up inception_5a/pool_proj
I0403 15:36:46.840468  3282 net.cpp:148] Top shape: 24 128 7 7 (150528)
I0403 15:36:46.840488  3282 net.cpp:156] Memory required for data: 1305071136
I0403 15:36:46.840508  3282 layer_factory.hpp:77] Creating layer inception_5a/relu_pool_proj
I0403 15:36:46.840528  3282 net.cpp:91] Creating Layer inception_5a/relu_pool_proj
I0403 15:36:46.840546  3282 net.cpp:425] inception_5a/relu_pool_proj <- inception_5a/pool_proj
I0403 15:36:46.840565  3282 net.cpp:386] inception_5a/relu_pool_proj -> inception_5a/pool_proj (in-place)
I0403 15:36:46.840888  3282 net.cpp:141] Setting up inception_5a/relu_pool_proj
I0403 15:36:46.840915  3282 net.cpp:148] Top shape: 24 128 7 7 (150528)
I0403 15:36:46.840934  3282 net.cpp:156] Memory required for data: 1305673248
I0403 15:36:46.840950  3282 layer_factory.hpp:77] Creating layer inception_5a/output
I0403 15:36:46.840968  3282 net.cpp:91] Creating Layer inception_5a/output
I0403 15:36:46.840984  3282 net.cpp:425] inception_5a/output <- inception_5a/1x1
I0403 15:36:46.841002  3282 net.cpp:425] inception_5a/output <- inception_5a/3x3
I0403 15:36:46.841019  3282 net.cpp:425] inception_5a/output <- inception_5a/5x5
I0403 15:36:46.841037  3282 net.cpp:425] inception_5a/output <- inception_5a/pool_proj
I0403 15:36:46.841054  3282 net.cpp:399] inception_5a/output -> inception_5a/output
I0403 15:36:46.841109  3282 net.cpp:141] Setting up inception_5a/output
I0403 15:36:46.841135  3282 net.cpp:148] Top shape: 24 832 7 7 (978432)
I0403 15:36:46.841150  3282 net.cpp:156] Memory required for data: 1309586976
I0403 15:36:46.841163  3282 layer_factory.hpp:77] Creating layer inception_5a/output_inception_5a/output_0_split
I0403 15:36:46.841181  3282 net.cpp:91] Creating Layer inception_5a/output_inception_5a/output_0_split
I0403 15:36:46.841197  3282 net.cpp:425] inception_5a/output_inception_5a/output_0_split <- inception_5a/output
I0403 15:36:46.841224  3282 net.cpp:399] inception_5a/output_inception_5a/output_0_split -> inception_5a/output_inception_5a/output_0_split_0
I0403 15:36:46.841248  3282 net.cpp:399] inception_5a/output_inception_5a/output_0_split -> inception_5a/output_inception_5a/output_0_split_1
I0403 15:36:46.841270  3282 net.cpp:399] inception_5a/output_inception_5a/output_0_split -> inception_5a/output_inception_5a/output_0_split_2
I0403 15:36:46.841292  3282 net.cpp:399] inception_5a/output_inception_5a/output_0_split -> inception_5a/output_inception_5a/output_0_split_3
I0403 15:36:46.841413  3282 net.cpp:141] Setting up inception_5a/output_inception_5a/output_0_split
I0403 15:36:46.841437  3282 net.cpp:148] Top shape: 24 832 7 7 (978432)
I0403 15:36:46.841454  3282 net.cpp:148] Top shape: 24 832 7 7 (978432)
I0403 15:36:46.841471  3282 net.cpp:148] Top shape: 24 832 7 7 (978432)
I0403 15:36:46.841487  3282 net.cpp:148] Top shape: 24 832 7 7 (978432)
I0403 15:36:46.841502  3282 net.cpp:156] Memory required for data: 1325241888
I0403 15:36:46.841517  3282 layer_factory.hpp:77] Creating layer inception_5b/1x1
I0403 15:36:46.841542  3282 net.cpp:91] Creating Layer inception_5b/1x1
I0403 15:36:46.841559  3282 net.cpp:425] inception_5b/1x1 <- inception_5a/output_inception_5a/output_0_split_0
I0403 15:36:46.841583  3282 net.cpp:399] inception_5b/1x1 -> inception_5b/1x1
I0403 15:36:46.845633  3282 net.cpp:141] Setting up inception_5b/1x1
I0403 15:36:46.845665  3282 net.cpp:148] Top shape: 24 384 7 7 (451584)
I0403 15:36:46.845682  3282 net.cpp:156] Memory required for data: 1327048224
I0403 15:36:46.845701  3282 layer_factory.hpp:77] Creating layer inception_5b/relu_1x1
I0403 15:36:46.845722  3282 net.cpp:91] Creating Layer inception_5b/relu_1x1
I0403 15:36:46.845741  3282 net.cpp:425] inception_5b/relu_1x1 <- inception_5b/1x1
I0403 15:36:46.845759  3282 net.cpp:386] inception_5b/relu_1x1 -> inception_5b/1x1 (in-place)
I0403 15:36:46.846083  3282 net.cpp:141] Setting up inception_5b/relu_1x1
I0403 15:36:46.846112  3282 net.cpp:148] Top shape: 24 384 7 7 (451584)
I0403 15:36:46.846127  3282 net.cpp:156] Memory required for data: 1328854560
I0403 15:36:46.846143  3282 layer_factory.hpp:77] Creating layer inception_5b/3x3_reduce
I0403 15:36:46.846166  3282 net.cpp:91] Creating Layer inception_5b/3x3_reduce
I0403 15:36:46.846185  3282 net.cpp:425] inception_5b/3x3_reduce <- inception_5a/output_inception_5a/output_0_split_1
I0403 15:36:46.846212  3282 net.cpp:399] inception_5b/3x3_reduce -> inception_5b/3x3_reduce
I0403 15:36:46.849061  3282 net.cpp:141] Setting up inception_5b/3x3_reduce
I0403 15:36:46.849092  3282 net.cpp:148] Top shape: 24 192 7 7 (225792)
I0403 15:36:46.849108  3282 net.cpp:156] Memory required for data: 1329757728
I0403 15:36:46.849128  3282 layer_factory.hpp:77] Creating layer inception_5b/relu_3x3_reduce
I0403 15:36:46.849149  3282 net.cpp:91] Creating Layer inception_5b/relu_3x3_reduce
I0403 15:36:46.849167  3282 net.cpp:425] inception_5b/relu_3x3_reduce <- inception_5b/3x3_reduce
I0403 15:36:46.849189  3282 net.cpp:386] inception_5b/relu_3x3_reduce -> inception_5b/3x3_reduce (in-place)
I0403 15:36:46.849396  3282 net.cpp:141] Setting up inception_5b/relu_3x3_reduce
I0403 15:36:46.849424  3282 net.cpp:148] Top shape: 24 192 7 7 (225792)
I0403 15:36:46.849442  3282 net.cpp:156] Memory required for data: 1330660896
I0403 15:36:46.849457  3282 layer_factory.hpp:77] Creating layer inception_5b/3x3
I0403 15:36:46.849480  3282 net.cpp:91] Creating Layer inception_5b/3x3
I0403 15:36:46.849499  3282 net.cpp:425] inception_5b/3x3 <- inception_5b/3x3_reduce
I0403 15:36:46.849519  3282 net.cpp:399] inception_5b/3x3 -> inception_5b/3x3
I0403 15:36:46.856714  3282 net.cpp:141] Setting up inception_5b/3x3
I0403 15:36:46.856746  3282 net.cpp:148] Top shape: 24 384 7 7 (451584)
I0403 15:36:46.856766  3282 net.cpp:156] Memory required for data: 1332467232
I0403 15:36:46.856786  3282 layer_factory.hpp:77] Creating layer inception_5b/relu_3x3
I0403 15:36:46.856806  3282 net.cpp:91] Creating Layer inception_5b/relu_3x3
I0403 15:36:46.856823  3282 net.cpp:425] inception_5b/relu_3x3 <- inception_5b/3x3
I0403 15:36:46.856842  3282 net.cpp:386] inception_5b/relu_3x3 -> inception_5b/3x3 (in-place)
I0403 15:36:46.857162  3282 net.cpp:141] Setting up inception_5b/relu_3x3
I0403 15:36:46.857190  3282 net.cpp:148] Top shape: 24 384 7 7 (451584)
I0403 15:36:46.857214  3282 net.cpp:156] Memory required for data: 1334273568
I0403 15:36:46.857231  3282 layer_factory.hpp:77] Creating layer inception_5b/5x5_reduce
I0403 15:36:46.857272  3282 net.cpp:91] Creating Layer inception_5b/5x5_reduce
I0403 15:36:46.857290  3282 net.cpp:425] inception_5b/5x5_reduce <- inception_5a/output_inception_5a/output_0_split_2
I0403 15:36:46.857313  3282 net.cpp:399] inception_5b/5x5_reduce -> inception_5b/5x5_reduce
I0403 15:36:46.858685  3282 net.cpp:141] Setting up inception_5b/5x5_reduce
I0403 15:36:46.858714  3282 net.cpp:148] Top shape: 24 48 7 7 (56448)
I0403 15:36:46.858731  3282 net.cpp:156] Memory required for data: 1334499360
I0403 15:36:46.858749  3282 layer_factory.hpp:77] Creating layer inception_5b/relu_5x5_reduce
I0403 15:36:46.858770  3282 net.cpp:91] Creating Layer inception_5b/relu_5x5_reduce
I0403 15:36:46.858788  3282 net.cpp:425] inception_5b/relu_5x5_reduce <- inception_5b/5x5_reduce
I0403 15:36:46.858808  3282 net.cpp:386] inception_5b/relu_5x5_reduce -> inception_5b/5x5_reduce (in-place)
I0403 15:36:46.859203  3282 net.cpp:141] Setting up inception_5b/relu_5x5_reduce
I0403 15:36:46.859236  3282 net.cpp:148] Top shape: 24 48 7 7 (56448)
I0403 15:36:46.859252  3282 net.cpp:156] Memory required for data: 1334725152
I0403 15:36:46.859268  3282 layer_factory.hpp:77] Creating layer inception_5b/5x5
I0403 15:36:46.859290  3282 net.cpp:91] Creating Layer inception_5b/5x5
I0403 15:36:46.859308  3282 net.cpp:425] inception_5b/5x5 <- inception_5b/5x5_reduce
I0403 15:36:46.859328  3282 net.cpp:399] inception_5b/5x5 -> inception_5b/5x5
I0403 15:36:46.861552  3282 net.cpp:141] Setting up inception_5b/5x5
I0403 15:36:46.861583  3282 net.cpp:148] Top shape: 24 128 7 7 (150528)
I0403 15:36:46.861600  3282 net.cpp:156] Memory required for data: 1335327264
I0403 15:36:46.861620  3282 layer_factory.hpp:77] Creating layer inception_5b/relu_5x5
I0403 15:36:46.861639  3282 net.cpp:91] Creating Layer inception_5b/relu_5x5
I0403 15:36:46.861656  3282 net.cpp:425] inception_5b/relu_5x5 <- inception_5b/5x5
I0403 15:36:46.861675  3282 net.cpp:386] inception_5b/relu_5x5 -> inception_5b/5x5 (in-place)
I0403 15:36:46.861886  3282 net.cpp:141] Setting up inception_5b/relu_5x5
I0403 15:36:46.861912  3282 net.cpp:148] Top shape: 24 128 7 7 (150528)
I0403 15:36:46.861928  3282 net.cpp:156] Memory required for data: 1335929376
I0403 15:36:46.861943  3282 layer_factory.hpp:77] Creating layer inception_5b/pool
I0403 15:36:46.861963  3282 net.cpp:91] Creating Layer inception_5b/pool
I0403 15:36:46.861979  3282 net.cpp:425] inception_5b/pool <- inception_5a/output_inception_5a/output_0_split_3
I0403 15:36:46.862001  3282 net.cpp:399] inception_5b/pool -> inception_5b/pool
I0403 15:36:46.862079  3282 net.cpp:141] Setting up inception_5b/pool
I0403 15:36:46.862107  3282 net.cpp:148] Top shape: 24 832 7 7 (978432)
I0403 15:36:46.862121  3282 net.cpp:156] Memory required for data: 1339843104
I0403 15:36:46.862136  3282 layer_factory.hpp:77] Creating layer inception_5b/pool_proj
I0403 15:36:46.862160  3282 net.cpp:91] Creating Layer inception_5b/pool_proj
I0403 15:36:46.862179  3282 net.cpp:425] inception_5b/pool_proj <- inception_5b/pool
I0403 15:36:46.862197  3282 net.cpp:399] inception_5b/pool_proj -> inception_5b/pool_proj
I0403 15:36:46.864707  3282 net.cpp:141] Setting up inception_5b/pool_proj
I0403 15:36:46.864738  3282 net.cpp:148] Top shape: 24 128 7 7 (150528)
I0403 15:36:46.864754  3282 net.cpp:156] Memory required for data: 1340445216
I0403 15:36:46.864774  3282 layer_factory.hpp:77] Creating layer inception_5b/relu_pool_proj
I0403 15:36:46.864795  3282 net.cpp:91] Creating Layer inception_5b/relu_pool_proj
I0403 15:36:46.864814  3282 net.cpp:425] inception_5b/relu_pool_proj <- inception_5b/pool_proj
I0403 15:36:46.864831  3282 net.cpp:386] inception_5b/relu_pool_proj -> inception_5b/pool_proj (in-place)
I0403 15:36:46.865159  3282 net.cpp:141] Setting up inception_5b/relu_pool_proj
I0403 15:36:46.865186  3282 net.cpp:148] Top shape: 24 128 7 7 (150528)
I0403 15:36:46.865201  3282 net.cpp:156] Memory required for data: 1341047328
I0403 15:36:46.865222  3282 layer_factory.hpp:77] Creating layer inception_5b/output
I0403 15:36:46.865243  3282 net.cpp:91] Creating Layer inception_5b/output
I0403 15:36:46.865273  3282 net.cpp:425] inception_5b/output <- inception_5b/1x1
I0403 15:36:46.865291  3282 net.cpp:425] inception_5b/output <- inception_5b/3x3
I0403 15:36:46.865309  3282 net.cpp:425] inception_5b/output <- inception_5b/5x5
I0403 15:36:46.865325  3282 net.cpp:425] inception_5b/output <- inception_5b/pool_proj
I0403 15:36:46.865342  3282 net.cpp:399] inception_5b/output -> inception_5b/output
I0403 15:36:46.865397  3282 net.cpp:141] Setting up inception_5b/output
I0403 15:36:46.865422  3282 net.cpp:148] Top shape: 24 1024 7 7 (1204224)
I0403 15:36:46.865438  3282 net.cpp:156] Memory required for data: 1345864224
I0403 15:36:46.865453  3282 layer_factory.hpp:77] Creating layer pool5/7x7_s1
I0403 15:36:46.865471  3282 net.cpp:91] Creating Layer pool5/7x7_s1
I0403 15:36:46.865488  3282 net.cpp:425] pool5/7x7_s1 <- inception_5b/output
I0403 15:36:46.865509  3282 net.cpp:399] pool5/7x7_s1 -> pool5/7x7_s1
I0403 15:36:46.865734  3282 net.cpp:141] Setting up pool5/7x7_s1
I0403 15:36:46.865762  3282 net.cpp:148] Top shape: 24 1024 1 1 (24576)
I0403 15:36:46.865777  3282 net.cpp:156] Memory required for data: 1345962528
I0403 15:36:46.865792  3282 layer_factory.hpp:77] Creating layer pool5/drop_7x7_s1
I0403 15:36:46.865810  3282 net.cpp:91] Creating Layer pool5/drop_7x7_s1
I0403 15:36:46.865826  3282 net.cpp:425] pool5/drop_7x7_s1 <- pool5/7x7_s1
I0403 15:36:46.865846  3282 net.cpp:386] pool5/drop_7x7_s1 -> pool5/7x7_s1 (in-place)
I0403 15:36:46.865897  3282 net.cpp:141] Setting up pool5/drop_7x7_s1
I0403 15:36:46.865921  3282 net.cpp:148] Top shape: 24 1024 1 1 (24576)
I0403 15:36:46.865934  3282 net.cpp:156] Memory required for data: 1346060832
I0403 15:36:46.865949  3282 layer_factory.hpp:77] Creating layer loss3/classifier_plantvillage
I0403 15:36:46.865972  3282 net.cpp:91] Creating Layer loss3/classifier_plantvillage
I0403 15:36:46.865989  3282 net.cpp:425] loss3/classifier_plantvillage <- pool5/7x7_s1
I0403 15:36:46.866010  3282 net.cpp:399] loss3/classifier_plantvillage -> loss3/classifier_plantvillage
I0403 15:36:46.866477  3282 net.cpp:141] Setting up loss3/classifier_plantvillage
I0403 15:36:46.866503  3282 net.cpp:148] Top shape: 24 38 (912)
I0403 15:36:46.866519  3282 net.cpp:156] Memory required for data: 1346064480
I0403 15:36:46.866538  3282 layer_factory.hpp:77] Creating layer loss3/classifier_plantvillage_loss3/classifier_plantvillage_0_split
I0403 15:36:46.866559  3282 net.cpp:91] Creating Layer loss3/classifier_plantvillage_loss3/classifier_plantvillage_0_split
I0403 15:36:46.866580  3282 net.cpp:425] loss3/classifier_plantvillage_loss3/classifier_plantvillage_0_split <- loss3/classifier_plantvillage
I0403 15:36:46.866598  3282 net.cpp:399] loss3/classifier_plantvillage_loss3/classifier_plantvillage_0_split -> loss3/classifier_plantvillage_loss3/classifier_plantvillage_0_split_0
I0403 15:36:46.866622  3282 net.cpp:399] loss3/classifier_plantvillage_loss3/classifier_plantvillage_0_split -> loss3/classifier_plantvillage_loss3/classifier_plantvillage_0_split_1
I0403 15:36:46.866647  3282 net.cpp:399] loss3/classifier_plantvillage_loss3/classifier_plantvillage_0_split -> loss3/classifier_plantvillage_loss3/classifier_plantvillage_0_split_2
I0403 15:36:46.866678  3282 net.cpp:399] loss3/classifier_plantvillage_loss3/classifier_plantvillage_0_split -> loss3/classifier_plantvillage_loss3/classifier_plantvillage_0_split_3
I0403 15:36:46.866794  3282 net.cpp:141] Setting up loss3/classifier_plantvillage_loss3/classifier_plantvillage_0_split
I0403 15:36:46.866822  3282 net.cpp:148] Top shape: 24 38 (912)
I0403 15:36:46.866840  3282 net.cpp:148] Top shape: 24 38 (912)
I0403 15:36:46.866857  3282 net.cpp:148] Top shape: 24 38 (912)
I0403 15:36:46.866873  3282 net.cpp:148] Top shape: 24 38 (912)
I0403 15:36:46.866888  3282 net.cpp:156] Memory required for data: 1346079072
I0403 15:36:46.866904  3282 layer_factory.hpp:77] Creating layer loss1/loss
I0403 15:36:46.866926  3282 net.cpp:91] Creating Layer loss1/loss
I0403 15:36:46.866945  3282 net.cpp:425] loss1/loss <- loss1/classifier_plantvillage_loss1/classifier_plantvillage_0_split_0
I0403 15:36:46.866977  3282 net.cpp:425] loss1/loss <- label_data_1_split_0
…
