…
I0403 15:22:41.123337  3015 net.cpp:313] The NetState phase (1) differed from the phase (0) specified by a rule in layer data
I0403 15:22:41.124539  3015 net.cpp:49] Initializing net from parameters: 
state {
  phase: TEST
}
layer {
  name: "data"
  type: "Data"
  top: "data"
  top: "label"
  include {
    phase: TEST
  }
  transform_param {
    mirror: false
    crop_size: 224
    mean_file: "/home/mohanty/data/final_dataset/lmdb/segmented-60-40/mean.binaryproto"
  }
  data_param {
    source: "/home/mohanty/data/final_dataset/lmdb/segmented-60-40/test_db"
    batch_size: 24
    backend: LMDB
  }
}
layer {
  name: "conv1/7x7_s2"
  type: "Convolution"
  bottom: "data"
  top: "conv1/7x7_s2"
  param {
    lr_mult: 1
    decay_mult: 1
  }
  param {
    lr_mult: 2
    decay_mult: 0
  }
  convolution_param {
    num_output: 64
    pad: 3
    kernel_size: 7
    stride: 2
    weight_filler {
      type: "xavier"
      std: 0.1
    }
    bias_filler {
      type: "constant"
      value: 0.2
    }
  }
}
layer {
  name: "conv1/relu_7x7"
  type: "ReLU"
  bottom: "conv1/7x7_s2"
  top: "conv1/7x7_s2"
}
layer {
  name: "pool1/3x3_s2"
  type: "Pooling"
  bottom: "conv1/7x7_s2"
  top: "pool1/3x3_s2"
  pooling_param {
    pool: MAX
    kernel_size: 3
    stride: 2
  }
}
layer {
  name: "pool1/norm1"
  type: "LRN"
  bottom: "pool1/3x3_s2"
  top: "pool1/norm1"
  lrn_param {
    local_size: 5
    alpha: 0.0001
    beta: 0.75
  }
}
layer {
  name: "conv2/3x3_reduce"
  type: "Convolution"
  bottom: "pool1/norm1"
  top: "conv2/3x3_reduce"
  param {
    lr_mult: 1
    decay_mult: 1
  }
  param {
    lr_mult: 2
    decay_mult: 0
  }
  convolution_param {
    num_output: 64
    kernel_size: 1
    weight_filler {
      type: "xavier"
      std: 0.1
    }
    bias_filler {
      type: "constant"
      value: 0.2
    }
  }
}
layer {
  name: "conv2/relu_3x3_reduce"
  type: "ReLU"
  bottom: "conv2/3x3_reduce"
  top: "conv2/3x3_reduce"
}
layer {
  name: "conv2/3x3"
  type: "Convolution"
  bottom: "conv2/3x3_reduce"
  top: "conv2/3x3"
  param {
    lr_mult: 1
    decay_mult: 1
  }
  param {
    lr_mult: 2
    decay_mult: 0
  }
  convolution_param {
    num_output: 192
    pad: 1
    kernel_size: 3
    weight_filler {
      type: "xavier"
      std: 0.03
    }
    bias_filler {
      type: "constant"
      value: 0.2
    }
  }
}
layer {
  name: "conv2/relu_3x3"
  type: "ReLU"
  bottom: "conv2/3x3"
  top: "conv2/3x3"
}
layer {
  name: "conv2/norm2"
  type: "LRN"
  bottom: "conv2/3x3"
  top: "conv2/norm2"
  lrn_param {
    local_size: 5
    alpha: 0.0001
    beta: 0.75
  }
}
layer {
  name: "pool2/3x3_s2"
  type: "Pooling"
  bottom: "conv2/norm2"
  top: "pool2/3x3_s2"
  pooling_param {
    pool: MAX
    kernel_size: 3
    stride: 2
  }
}
layer {
  name: "inception_3a/1x1"
  type: "Convolution"
  bottom: "pool2/3x3_s2"
  top: "inception_3a/1x1"
  param {
    lr_mult: 1
    decay_mult: 1
  }
  param {
    lr_mult: 2
    decay_mult: 0
  }
  convolution_param {
    num_output: 64
    kernel_size: 1
    weight_filler {
      type: "xavier"
      std: 0.03
    }
    bias_filler {
      type: "constant"
      value: 0.2
    }
  }
}
layer {
  name: "inception_3a/relu_1x1"
  type: "ReLU"
  bottom: "inception_3a/1x1"
  top: "inception_3a/1x1"
}
layer {
  name: "inception_3a/3x3_reduce"
  type: "Convolution"
  bottom: "pool2/3x3_s2"
  top: "inception_3a/3x3_reduce"
  param {
    lr_mult: 1
    decay_mult: 1
  }
  param {
    lr_mult: 2
    decay_mult: 0
  }
  convolution_param {
    num_output: 96
    kernel_size: 1
    weight_filler {
      type: "xavier"
      std: 0.09
    }
    bias_filler {
      type: "constant"
      value: 0.2
    }
  }
}
layer {
  name: "inception_3a/relu_3x3_reduce"
  type: "ReLU"
  bottom: "inception_3a/3x3_reduce"
  top: "inception_3a/3x3_reduce"
}
layer {
  name: "inception_3a/3x3"
  type: "Convolution"
  bottom: "inception_3a/3x3_reduce"
  top: "inception_3a/3x3"
  param {
    lr_mult: 1
    decay_mult: 1
  }
  param {
    lr_mult: 2
    decay_mult: 0
  }
  convolution_param {
    num_output: 128
    pad: 1
    kernel_size: 3
    weight_filler {
      type: "xavier"
      std: 0.03
    }
    bias_filler {
      type: "constant"
      value: 0.2
    }
  }
}
layer {
  name: "inception_3a/relu_3x3"
  type: "ReLU"
  bottom: "inception_3a/3x3"
  top: "inception_3a/3x3"
}
layer {
  name: "inception_3a/5x5_reduce"
  type: "Convolution"
  bottom: "pool2/3x3_s2"
  top: "inception_3a/5x5_reduce"
  param {
    lr_mult: 1
    decay_mult: 1
  }
  param {
    lr_mult: 2
    decay_mult: 0
  }
  convolution_param {
    num_output: 16
    kernel_size: 1
    weight_filler {
      type: "xavier"
      std: 0.2
    }
    bias_filler {
      type: "constant"
      value: 0.2
    }
  }
}
layer {
  name: "inception_3a/relu_5x5_reduce"
  type: "ReLU"
  bottom: "inception_3a/5x5_reduce"
  top: "inception_3a/5x5_reduce"
}
layer {
  name: "inception_3a/5x5"
  type: "Convolution"
  bottom: "inception_3a/5x5_reduce"
  top: "inception_3a/5x5"
  param {
    lr_mult: 1
    decay_mult: 1
  }
  param {
    lr_mult: 2
    decay_mult: 0
  }
  convolution_param {
    num_output: 32
    pad: 2
    kernel_size: 5
    weight_filler {
      type: "xavier"
      std: 0.03
    }
    bias_filler {
      type: "constant"
      value: 0.2
    }
  }
}
layer {
  name: "inception_3a/relu_5x5"
  type: "ReLU"
  bottom: "inception_3a/5x5"
  top: "inception_3a/5x5"
}
layer {
  name: "inception_3a/pool"
  type: "Pooling"
  bottom: "pool2/3x3_s2"
  top: "inception_3a/pool"
  pooling_param {
    pool: MAX
    kernel_size: 3
    stride: 1
    pad: 1
  }
}
layer {
  name: "inception_3a/pool_proj"
  type: "Convolution"
  bottom: "inception_3a/pool"
  top: "inception_3a/pool_proj"
  param {
    lr_mult: 1
    decay_mult: 1
  }
  param {
    lr_mult: 2
    decay_mult: 0
  }
  convolution_param {
    num_output: 32
    kernel_size: 1
    weight_filler {
      type: "xavier"
      std: 0.1
    }
    bias_filler {
      type: "constant"
      value: 0.2
    }
  }
}
layer {
  name: "inception_3a/relu_pool_proj"
  type: "ReLU"
  bottom: "inception_3a/pool_proj"
  top: "inception_3a/pool_proj"
}
layer {
  name: "inception_3a/output"
  type: "Concat"
  bottom: "inception_3a/1x1"
  bottom: "inception_3a/3x3"
  bottom: "inception_3a/5x5"
  bottom: "inception_3a/pool_proj"
  top: "inception_3a/output"
}
layer {
  name: "inception_3b/1x1"
  type: "Convolution"
  bottom: "inception_3a/output"
  top: "inception_3b/1x1"
  param {
    lr_mult: 1
    decay_mult: 1
  }
  param {
    lr_mult: 2
    decay_mult: 0
  }
  convolution_param {
    num_output: 128
    kernel_size: 1
    weight_filler {
      type: "xavier"
      std: 0.03
    }
    bias_filler {
      type: "constant"
      value: 0.2
    }
  }
}
layer {
  name: "inception_3b/relu_1x1"
  type: "ReLU"
  bottom: "inception_3b/1x1"
  top: "inception_3b/1x1"
}
layer {
  name: "inception_3b/3x3_reduce"
  type: "Convolution"
  bottom: "inception_3a/output"
  top: "inception_3b/3x3_reduce"
  param {
    lr_mult: 1
    decay_mult: 1
  }
  param {
    lr_mult: 2
    decay_mult: 0
  }
  convolution_param {
    num_output: 128
    kernel_size: 1
    weight_filler {
      type: "xavier"
      std: 0.09
    }
    bias_filler {
      type: "constant"
      value: 0.2
    }
  }
}
layer {
  name: "inception_3b/relu_3x3_reduce"
  type: "ReLU"
  bottom: "inception_3b/3x3_reduce"
  top: "inception_3b/3x3_reduce"
}
layer {
  name: "inception_3b/3x3"
  type: "Convolution"
  bottom: "inception_3b/3x3_reduce"
  top: "inception_3b/3x3"
  param {
    lr_mult: 1
    decay_mult: 1
  }
  param {
    lr_mult: 2
    decay_mult: 0
  }
  convolution_param {
    num_output: 192
    pad: 1
    kernel_size: 3
    weight_filler {
      type: "xavier"
      std: 0.03
    }
    bias_filler {
      type: "constant"
      value: 0.2
    }
  }
}
layer {
  name: "inception_3b/relu_3x3"
  type: "ReLU"
  bottom: "inception_3b/3x3"
  top: "inception_3b/3x3"
}
layer {
  name: "inception_3b/5x5_reduce"
  type: "Convolution"
  bottom: "inception_3a/output"
  top: "inception_3b/5x5_reduce"
  param {
    lr_mult: 1
    decay_mult: 1
  }
  param {
    lr_mult: 2
    decay_mult: 0
  }
  convolution_param {
    num_output: 32
    kernel_size: 1
    weight_filler {
      type: "xavier"
      std: 0.2
    }
    bias_filler {
      type: "constant"
      value: 0.2
    }
  }
}
layer {
  name: "inception_3b/relu_5x5_reduce"
  type: "ReLU"
  bottom: "inception_3b/5x5_reduce"
  top: "inception_3b/5x5_reduce"
}
layer {
  name: "inception_3b/5x5"
  type: "Convolution"
  bottom: "inception_3b/5x5_reduce"
  top: "inception_3b/5x5"
  param {
    lr_mult: 1
    decay_mult: 1
  }
  param {
    lr_mult: 2
    decay_mult: 0
  }
  convolution_param {
    num_output: 96
    pad: 2
    kernel_size: 5
    weight_filler {
      type: "xavier"
      std: 0.03
    }
    bias_filler {
      type: "constant"
      value: 0.2
    }
  }
}
layer {
  name: "inception_3b/relu_5x5"
  type: "ReLU"
  bottom: "inception_3b/5x5"
  top: "inception_3b/5x5"
}
layer {
  name: "inception_3b/pool"
  type: "Pooling"
  bottom: "inception_3a/output"
  top: "inception_3b/pool"
  pooling_param {
    pool: MAX
    kernel_size: 3
    stride: 1
    pad: 1
  }
}
layer {
  name: "inception_3b/pool_proj"
  type: "Convolution"
  bottom: "inception_3b/pool"
  top: "inception_3b/pool_proj"
  param {
    lr_mult: 1
    decay_mult: 1
  }
  param {
    lr_mult: 2
    decay_mult: 0
  }
  convolution_param {
    num_output: 64
    kernel_size: 1
    weight_filler {
      type: "xavier"
      std: 0.1
    }
    bias_filler {
      type: "constant"
      value: 0.2
    }
  }
}
layer {
  name: "inception_3b/relu_pool_proj"
  type: "ReLU"
  bottom: "inception_3b/pool_proj"
  top: "inception_3b/pool_proj"
}
layer {
  name: "inception_3b/output"
  type: "Concat"
  bottom: "inception_3b/1x1"
  bottom: "inception_3b/3x3"
  bottom: "inception_3b/5x5"
  bottom: "inception_3b/pool_proj"
  top: "inception_3b/output"
}
layer {
  name: "pool3/3x3_s2"
  type: "Pooling"
  bottom: "inception_3b/output"
  top: "pool3/3x3_s2"
  pooling_param {
    pool: MAX
    kernel_size: 3
    stride: 2
  }
}
layer {
  name: "inception_4a/1x1"
  type: "Convolution"
  bottom: "pool3/3x3_s2"
  top: "inception_4a/1x1"
  param {
    lr_mult: 1
    decay_mult: 1
  }
  param {
    lr_mult: 2
    decay_mult: 0
  }
  convolution_param {
    num_output: 192
    kernel_size: 1
    weight_filler {
      type: "xavier"
      std: 0.03
    }
    bias_filler {
      type: "constant"
      value: 0.2
    }
  }
}
layer {
  name: "inception_4a/relu_1x1"
  type: "ReLU"
  bottom: "inception_4a/1x1"
  top: "inception_4a/1x1"
}
layer {
  name: "inception_4a/3x3_reduce"
  type: "Convolution"
  bottom: "pool3/3x3_s2"
  top: "inception_4a/3x3_reduce"
  param {
    lr_mult: 1
    decay_mult: 1
  }
  param {
    lr_mult: 2
    decay_mult: 0
  }
  convolution_param {
    num_output: 96
    kernel_size: 1
    weight_filler {
      type: "xavier"
      std: 0.09
    }
    bias_filler {
      type: "constant"
      value: 0.2
    }
  }
}
layer {
  name: "inception_4a/relu_3x3_reduce"
  type: "ReLU"
  bottom: "inception_4a/3x3_reduce"
  top: "inception_4a/3x3_reduce"
}
layer {
  name: "inception_4a/3x3"
  type: "Convolution"
  bottom: "inception_4a/3x3_reduce"
  top: "inception_4a/3x3"
  param {
    lr_mult: 1
    decay_mult: 1
  }
  param {
    lr_mult: 2
    decay_mult: 0
  }
  convolution_param {
    num_output: 208
    pad: 1
    kernel_size: 3
    weight_filler {
      type: "xavier"
      std: 0.03
    }
    bias_filler {
      type: "constant"
      value: 0.2
    }
  }
}
layer {
  name: "inception_4a/relu_3x3"
  type: "ReLU"
  bottom: "inception_4a/3x3"
  top: "inception_4a/3x3"
}
layer {
  name: "inception_4a/5x5_reduce"
  type: "Convolution"
  bottom: "pool3/3x3_s2"
  top: "inception_4a/5x5_reduce"
  param {
    lr_mult: 1
    decay_mult: 1
  }
  param {
    lr_mult: 2
    decay_mult: 0
  }
  convolution_param {
    num_output: 16
    kernel_size: 1
    weight_filler {
      type: "xavier"
      std: 0.2
    }
    bias_filler {
      type: "constant"
      value: 0.2
    }
  }
}
layer {
  name: "inception_4a/relu_5x5_reduce"
  type: "ReLU"
  bottom: "inception_4a/5x5_reduce"
  top: "inception_4a/5x5_reduce"
}
layer {
  name: "inception_4a/5x5"
  type: "Convolution"
  bottom: "inception_4a/5x5_reduce"
  top: "inception_4a/5x5"
  param {
    lr_mult: 1
    decay_mult: 1
  }
  param {
    lr_mult: 2
    decay_mult: 0
  }
  convolution_param {
    num_output: 48
    pad: 2
    kernel_size: 5
    weight_filler {
      type: "xavier"
      std: 0.03
    }
    bias_filler {
      type: "constant"
      value: 0.2
    }
  }
}
layer {
  name: "inception_4a/relu_5x5"
  type: "ReLU"
  bottom: "inception_4a/5x5"
  top: "inception_4a/5x5"
}
layer {
  name: "inception_4a/pool"
  type: "Pooling"
  bottom: "pool3/3x3_s2"
  top: "inception_4a/pool"
  pooling_param {
    pool: MAX
    kernel_size: 3
    stride: 1
    pad: 1
  }
}
layer {
  name: "inception_4a/pool_proj"
  type: "Convolution"
  bottom: "inception_4a/pool"
  top: "inception_4a/pool_proj"
  param {
    lr_mult: 1
    decay_mult: 1
  }
  param {
    lr_mult: 2
    decay_mult: 0
  }
  convolution_param {
    num_output: 64
    kernel_size: 1
    weight_filler {
      type: "xavier"
      std: 0.1
    }
    bias_filler {
      type: "constant"
      value: 0.2
    }
  }
}
layer {
  name: "inception_4a/relu_pool_proj"
  type: "ReLU"
  bottom: "inception_4a/pool_proj"
  top: "inception_4a/pool_proj"
}
layer {
  name: "inception_4a/output"
  type: "Concat"
  bottom: "inception_4a/1x1"
  bottom: "inception_4a/3x3"
  bottom: "inception_4a/5x5"
  bottom: "inception_4a/pool_proj"
  top: "inception_4a/output"
}
layer {
  name: "loss1/ave_pool"
  type: "Pooling"
  bottom: "inception_4a/output"
  top: "loss1/ave_pool"
  pooling_param {
    pool: AVE
    kernel_size: 5
    stride: 3
  }
}
layer {
  name: "loss1/conv"
  type: "Convolution"
  bottom: "loss1/ave_pool"
  top: "loss1/conv"
  param {
    lr_mult: 1
    decay_mult: 1
  }
  param {
    lr_mult: 2
    decay_mult: 0
  }
  convolution_param {
    num_output: 128
    kernel_size: 1
    weight_filler {
      type: "xavier"
      std: 0.08
    }
    bias_filler {
      type: "constant"
      value: 0.2
    }
  }
}
layer {
  name: "loss1/relu_conv"
  type: "ReLU"
  bottom: "loss1/conv"
  top: "loss1/conv"
}
layer {
  name: "loss1/fc"
  type: "InnerProduct"
  bottom: "loss1/conv"
  top: "loss1/fc"
  param {
    lr_mult: 1
    decay_mult: 1
  }
  param {
    lr_mult: 2
    decay_mult: 0
  }
  inner_product_param {
    num_output: 1024
    weight_filler {
      type: "xavier"
      std: 0.02
    }
    bias_filler {
      type: "constant"
      value: 0.2
    }
  }
}
layer {
  name: "loss1/relu_fc"
  type: "ReLU"
  bottom: "loss1/fc"
  top: "loss1/fc"
}
layer {
  name: "loss1/drop_fc"
  type: "Dropout"
  bottom: "loss1/fc"
  top: "loss1/fc"
  dropout_param {
    dropout_ratio: 0.7
  }
}
layer {
  name: "loss1/classifier_plantvillage"
  type: "InnerProduct"
  bottom: "loss1/fc"
  top: "loss1/classifier_plantvillage"
  param {
    lr_mult: 1
    decay_mult: 1
  }
  param {
    lr_mult: 2
    decay_mult: 0
  }
  inner_product_param {
    num_output: 38
    weight_filler {
      type: "xavier"
      std: 0.0009765625
    }
    bias_filler {
      type: "constant"
      value: 0
    }
  }
}
layer {
  name: "inception_4b/1x1"
  type: "Convolution"
  bottom: "inception_4a/output"
  top: "inception_4b/1x1"
  param {
    lr_mult: 1
    decay_mult: 1
  }
  param {
    lr_mult: 2
    decay_mult: 0
  }
  convolution_param {
    num_output: 160
    kernel_size: 1
    weight_filler {
      type: "xavier"
      std: 0.03
    }
    bias_filler {
      type: "constant"
      value: 0.2
    }
  }
}
layer {
  name: "inception_4b/relu_1x1"
  type: "ReLU"
  bottom: "inception_4b/1x1"
  top: "inception_4b/1x1"
}
layer {
  name: "inception_4b/3x3_reduce"
  type: "Convolution"
  bottom: "inception_4a/output"
  top: "inception_4b/3x3_reduce"
  param {
    lr_mult: 1
    decay_mult: 1
  }
  param {
    lr_mult: 2
    decay_mult: 0
  }
  convolution_param {
    num_output: 112
    kernel_size: 1
    weight_filler {
      type: "xavier"
      std: 0.09
    }
    bias_filler {
      type: "constant"
      value: 0.2
    }
  }
}
layer {
  name: "inception_4b/relu_3x3_reduce"
  type: "ReLU"
  bottom: "inception_4b/3x3_reduce"
  top: "inception_4b/3x3_reduce"
}
layer {
  name: "inception_4b/3x3"
  type: "Convolution"
  bottom: "inception_4b/3x3_reduce"
  top: "inception_4b/3x3"
  param {
    lr_mult: 1
    decay_mult: 1
  }
  param {
    lr_mult: 2
    decay_mult: 0
  }
  convolution_param {
    num_output: 224
    pad: 1
    kernel_size: 3
    weight_filler {
      type: "xavier"
      std: 0.03
    }
    bias_filler {
      type: "constant"
      value: 0.2
    }
  }
}
layer {
  name: "inception_4b/relu_3x3"
  type: "ReLU"
  bottom: "inception_4b/3x3"
  top: "inception_4b/3x3"
}
layer {
  name: "inception_4b/5x5_reduce"
  type: "Convolution"
  bottom: "inception_4a/output"
  top: "inception_4b/5x5_reduce"
  param {
    lr_mult: 1
    decay_mult: 1
  }
  param {
    lr_mult: 2
    decay_mult: 0
  }
  convolution_param {
    num_output: 24
    kernel_size: 1
    weight_filler {
      type: "xavier"
      std: 0.2
    }
    bias_filler {
      type: "constant"
      value: 0.2
    }
  }
}
layer {
  name: "inception_4b/relu_5x5_reduce"
  type: "ReLU"
  bottom: "inception_4b/5x5_reduce"
  top: "inception_4b/5x5_reduce"
}
layer {
  name: "inception_4b/5x5"
  type: "Convolution"
  bottom: "inception_4b/5x5_reduce"
  top: "inception_4b/5x5"
  param {
    lr_mult: 1
    decay_mult: 1
  }
  param {
    lr_mult: 2
    decay_mult: 0
  }
  convolution_param {
    num_output: 64
    pad: 2
    kernel_size: 5
    weight_filler {
      type: "xavier"
      std: 0.03
    }
    bias_filler {
      type: "constant"
      value: 0.2
    }
  }
}
layer {
  name: "inception_4b/relu_5x5"
  type: "ReLU"
  bottom: "inception_4b/5x5"
  top: "inception_4b/5x5"
}
layer {
  name: "inception_4b/pool"
  type: "Pooling"
  bottom: "inception_4a/output"
  top: "inception_4b/pool"
  pooling_param {
    pool: MAX
    kernel_size: 3
    stride: 1
    pad: 1
  }
}
layer {
  name: "inception_4b/pool_proj"
  type: "Convolution"
  bottom: "inception_4b/pool"
  top: "inception_4b/pool_proj"
  param {
    lr_mult: 1
    decay_mult: 1
  }
  param {
    lr_mult: 2
    decay_mult: 0
  }
  convolution_param {
    num_output: 64
    kernel_size: 1
    weight_filler {
      type: "xavier"
      std: 0.1
    }
    bias_filler {
      type: "constant"
      value: 0.2
    }
  }
}
layer {
  name: "inception_4b/relu_pool_proj"
  type: "ReLU"
  bottom: "inception_4b/pool_proj"
  top: "inception_4b/pool_proj"
}
layer {
  name: "inception_4b/output"
  type: "Concat"
  bottom: "inception_4b/1x1"
  bottom: "inception_4b/3x3"
  bottom: "inception_4b/5x5"
  bottom: "inception_4b/pool_proj"
  top: "inception_4b/output"
}
layer {
  name: "inception_4c/1x1"
  type: "Convolution"
  bottom: "inception_4b/output"
  top: "inception_4c/1x1"
  param {
    lr_mult: 1
    decay_mult: 1
  }
  param {
    lr_mult: 2
    decay_mult: 0
  }
  convolution_param {
    num_output: 128
    kernel_size: 1
    weight_filler {
      type: "xavier"
      std: 0.03
    }
    bias_filler {
      type: "constant"
      value: 0.2
    }
  }
}
layer {
  name: "inception_4c/relu_1x1"
  type: "ReLU"
  bottom: "inception_4c/1x1"
  top: "inception_4c/1x1"
}
layer {
  name: "inception_4c/3x3_reduce"
  type: "Convolution"
  bottom: "inception_4b/output"
  top: "inception_4c/3x3_reduce"
  param {
    lr_mult: 1
    decay_mult: 1
  }
  param {
    lr_mult: 2
    decay_mult: 0
  }
  convolution_param {
    num_output: 128
    kernel_size: 1
    weight_filler {
      type: "xavier"
      std: 0.09
    }
    bias_filler {
      type: "constant"
      value: 0.2
    }
  }
}
layer {
  name: "inception_4c/relu_3x3_reduce"
  type: "ReLU"
  bottom: "inception_4c/3x3_reduce"
  top: "inception_4c/3x3_reduce"
}
layer {
  name: "inception_4c/3x3"
  type: "Convolution"
  bottom: "inception_4c/3x3_reduce"
  top: "inception_4c/3x3"
  param {
    lr_mult: 1
    decay_mult: 1
  }
  param {
    lr_mult: 2
    decay_mult: 0
  }
  convolution_param {
    num_output: 256
    pad: 1
    kernel_size: 3
    weight_filler {
      type: "xavier"
      std: 0.03
    }
    bias_filler {
      type: "constant"
      value: 0.2
    }
  }
}
layer {
  name: "inception_4c/relu_3x3"
  type: "ReLU"
  bottom: "inception_4c/3x3"
  top: "inception_4c/3x3"
}
layer {
  name: "inception_4c/5x5_reduce"
  type: "Convolution"
  bottom: "inception_4b/output"
  top: "inception_4c/5x5_reduce"
  param {
    lr_mult: 1
    decay_mult: 1
  }
  param {
    lr_mult: 2
    decay_mult: 0
  }
  convolution_param {
    num_output: 24
    kernel_size: 1
    weight_filler {
      type: "xavier"
      std: 0.2
    }
    bias_filler {
      type: "constant"
      value: 0.2
    }
  }
}
layer {
  name: "inception_4c/relu_5x5_reduce"
  type: "ReLU"
  bottom: "inception_4c/5x5_reduce"
  top: "inception_4c/5x5_reduce"
}
layer {
  name: "inception_4c/5x5"
  type: "Convolution"
  bottom: "inception_4c/5x5_reduce"
  top: "inception_4c/5x5"
  param {
    lr_mult: 1
    decay_mult: 1
  }
  param {
    lr_mult: 2
    decay_mult: 0
  }
  convolution_param {
    num_output: 64
    pad: 2
    kernel_size: 5
    weight_filler {
      type: "xavier"
      std: 0.03
    }
    bias_filler {
      type: "constant"
      value: 0.2
    }
  }
}
layer {
  name: "inception_4c/relu_5x5"
  type: "ReLU"
  bottom: "inception_4c/5x5"
  top: "inception_4c/5x5"
}
layer {
  name: "inception_4c/pool"
  type: "Pooling"
  bottom: "inception_4b/output"
  top: "inception_4c/pool"
  pooling_param {
    pool: MAX
    kernel_size: 3
    stride: 1
    pad: 1
  }
}
layer {
  name: "inception_4c/pool_proj"
  type: "Convolution"
  bottom: "inception_4c/pool"
  top: "inception_4c/pool_proj"
  param {
    lr_mult: 1
    decay_mult: 1
  }
  param {
    lr_mult: 2
    decay_mult: 0
  }
  convolution_param {
    num_output: 64
    kernel_size: 1
    weight_filler {
      type: "xavier"
      std: 0.1
    }
    bias_filler {
      type: "constant"
      value: 0.2
    }
  }
}
layer {
  name: "inception_4c/relu_pool_proj"
  type: "ReLU"
  bottom: "inception_4c/pool_proj"
  top: "inception_4c/pool_proj"
}
layer {
  name: "inception_4c/output"
  type: "Concat"
  bottom: "inception_4c/1x1"
  bottom: "inception_4c/3x3"
  bottom: "inception_4c/5x5"
  bottom: "inception_4c/pool_proj"
  top: "inception_4c/output"
}
layer {
  name: "inception_4d/1x1"
  type: "Convolution"
  bottom: "inception_4c/output"
  top: "inception_4d/1x1"
  param {
    lr_mult: 1
    decay_mult: 1
  }
  param {
    lr_mult: 2
    decay_mult: 0
  }
  convolution_param {
    num_output: 112
    kernel_size: 1
    weight_filler {
      type: "xavier"
      std: 0.03
    }
    bias_filler {
      type: "constant"
      value: 0.2
    }
  }
}
layer {
  name: "inception_4d/relu_1x1"
  type: "ReLU"
  bottom: "inception_4d/1x1"
  top: "inception_4d/1x1"
}
layer {
  name: "inception_4d/3x3_reduce"
  type: "Convolution"
  bottom: "inception_4c/output"
  top: "inception_4d/3x3_reduce"
  param {
    lr_mult: 1
    decay_mult: 1
  }
  param {
    lr_mult: 2
    decay_mult: 0
  }
  convolution_param {
    num_output: 144
    kernel_size: 1
    weight_filler {
      type: "xavier"
      std: 0.09
    }
    bias_filler {
      type: "constant"
      value: 0.2
    }
  }
}
layer {
  name: "inception_4d/relu_3x3_reduce"
  type: "ReLU"
  bottom: "inception_4d/3x3_reduce"
  top: "inception_4d/3x3_reduce"
}
layer {
  name: "inception_4d/3x3"
  type: "Convolution"
  bottom: "inception_4d/3x3_reduce"
  top: "inception_4d/3x3"
  param {
    lr_mult: 1
    decay_mult: 1
  }
  param {
    lr_mult: 2
    decay_mult: 0
  }
  convolution_param {
    num_output: 288
    pad: 1
    kernel_size: 3
    weight_filler {
      type: "xavier"
      std: 0.03
    }
    bias_filler {
      type: "constant"
      value: 0.2
    }
  }
}
layer {
  name: "inception_4d/relu_3x3"
  type: "ReLU"
  bottom: "inception_4d/3x3"
  top: "inception_4d/3x3"
}
layer {
  name: "inception_4d/5x5_reduce"
  type: "Convolution"
  bottom: "inception_4c/output"
  top: "inception_4d/5x5_reduce"
  param {
    lr_mult: 1
    decay_mult: 1
  }
  param {
    lr_mult: 2
    decay_mult: 0
  }
  convolution_param {
    num_output: 32
    kernel_size: 1
    weight_filler {
      type: "xavier"
      std: 0.2
    }
    bias_filler {
      type: "constant"
      value: 0.2
    }
  }
}
layer {
  name: "inception_4d/relu_5x5_reduce"
  type: "ReLU"
  bottom: "inception_4d/5x5_reduce"
  top: "inception_4d/5x5_reduce"
}
layer {
  name: "inception_4d/5x5"
  type: "Convolution"
  bottom: "inception_4d/5x5_reduce"
  top: "inception_4d/5x5"
  param {
    lr_mult: 1
    decay_mult: 1
  }
  param {
    lr_mult: 2
    decay_mult: 0
  }
  convolution_param {
    num_output: 64
    pad: 2
    kernel_size: 5
    weight_filler {
      type: "xavier"
      std: 0.03
    }
    bias_filler {
      type: "constant"
      value: 0.2
    }
  }
}
layer {
  name: "inception_4d/relu_5x5"
  type: "ReLU"
  bottom: "inception_4d/5x5"
  top: "inception_4d/5x5"
}
layer {
  name: "inception_4d/pool"
  type: "Pooling"
  bottom: "inception_4c/output"
  top: "inception_4d/pool"
  pooling_param {
    pool: MAX
    kernel_size: 3
    stride: 1
    pad: 1
  }
}
layer {
  name: "inception_4d/pool_proj"
  type: "Convolution"
  bottom: "inception_4d/pool"
  top: "inception_4d/pool_proj"
  param {
    lr_mult: 1
    decay_mult: 1
  }
  param {
    lr_mult: 2
    decay_mult: 0
  }
  convolution_param {
    num_output: 64
    kernel_size: 1
    weight_filler {
      type: "xavier"
      std: 0.1
    }
    bias_filler {
      type: "constant"
      value: 0.2
    }
  }
}
layer {
  name: "inception_4d/relu_pool_proj"
  type: "ReLU"
  bottom: "inception_4d/pool_proj"
  top: "inception_4d/pool_proj"
}
layer {
  name: "inception_4d/output"
  type: "Concat"
  bottom: "inception_4d/1x1"
  bottom: "inception_4d/3x3"
  bottom: "inception_4d/5x5"
  bottom: "inception_4d/pool_proj"
  top: "inception_4d/output"
}
layer {
  name: "loss2/ave_pool"
  type: "Pooling"
  bottom: "inception_4d/output"
  top: "loss2/ave_pool"
  pooling_param {
    pool: AVE
    kernel_size: 5
    stride: 3
  }
}
layer {
  name: "loss2/conv"
  type: "Convolution"
  bottom: "loss2/ave_pool"
  top: "loss2/conv"
  param {
    lr_mult: 1
    decay_mult: 1
  }
  param {
    lr_mult: 2
    decay_mult: 0
  }
  convolution_param {
    num_output: 128
    kernel_size: 1
    weight_filler {
      type: "xavier"
      std: 0.08
    }
    bias_filler {
      type: "constant"
      value: 0.2
    }
  }
}
layer {
  name: "loss2/relu_conv"
  type: "ReLU"
  bottom: "loss2/conv"
  top: "loss2/conv"
}
layer {
  name: "loss2/fc"
  type: "InnerProduct"
  bottom: "loss2/conv"
  top: "loss2/fc"
  param {
    lr_mult: 1
    decay_mult: 1
  }
  param {
    lr_mult: 2
    decay_mult: 0
  }
  inner_product_param {
    num_output: 1024
    weight_filler {
      type: "xavier"
      std: 0.02
    }
    bias_filler {
      type: "constant"
      value: 0.2
    }
  }
}
layer {
  name: "loss2/relu_fc"
  type: "ReLU"
  bottom: "loss2/fc"
  top: "loss2/fc"
}
layer {
  name: "loss2/drop_fc"
  type: "Dropout"
  bottom: "loss2/fc"
  top: "loss2/fc"
  dropout_param {
    dropout_ratio: 0.7
  }
}
layer {
  name: "loss2/classifier_plantvillage"
  type: "InnerProduct"
  bottom: "loss2/fc"
  top: "loss2/classifier_plantvillage"
  param {
    lr_mult: 1
    decay_mult: 1
  }
  param {
    lr_mult: 2
    decay_mult: 0
  }
  inner_product_param {
    num_output: 38
    weight_filler {
      type: "xavier"
      std: 0.0009765625
    }
    bias_filler {
      type: "constant"
      value: 0
    }
  }
}
layer {
  name: "inception_4e/1x1"
  type: "Convolution"
  bottom: "inception_4d/output"
  top: "inception_4e/1x1"
  param {
    lr_mult: 1
    decay_mult: 1
  }
  param {
    lr_mult: 2
    decay_mult: 0
  }
  convolution_param {
    num_output: 256
    kernel_size: 1
    weight_filler {
      type: "xavier"
      std: 0.03
    }
    bias_filler {
      type: "constant"
      value: 0.2
    }
  }
}
layer {
  name: "inception_4e/relu_1x1"
  type: "ReLU"
  bottom: "inception_4e/1x1"
  top: "inception_4e/1x1"
}
layer {
  name: "inception_4e/3x3_reduce"
  type: "Convolution"
  bottom: "inception_4d/output"
  top: "inception_4e/3x3_reduce"
  param {
    lr_mult: 1
    decay_mult: 1
  }
  param {
    lr_mult: 2
    decay_mult: 0
  }
  convolution_param {
    num_output: 160
    kernel_size: 1
    weight_filler {
      type: "xavier"
      std: 0.09
    }
    bias_filler {
      type: "constant"
      value: 0.2
    }
  }
}
layer {
  name: "inception_4e/relu_3x3_reduce"
  type: "ReLU"
  bottom: "inception_4e/3x3_reduce"
  top: "inception_4e/3x3_reduce"
}
layer {
  name: "inception_4e/3x3"
  type: "Convolution"
  bottom: "inception_4e/3x3_reduce"
  top: "inception_4e/3x3"
  param {
    lr_mult: 1
    decay_mult: 1
  }
  param {
    lr_mult: 2
    decay_mult: 0
  }
  convolution_param {
    num_output: 320
    pad: 1
    kernel_size: 3
    weight_filler {
      type: "xavier"
      std: 0.03
    }
    bias_filler {
      type: "constant"
      value: 0.2
    }
  }
}
layer {
  name: "inception_4e/relu_3x3"
  type: "ReLU"
  bottom: "inception_4e/3x3"
  top: "inception_4e/3x3"
}
layer {
  name: "inception_4e/5x5_reduce"
  type: "Convolution"
  bottom: "inception_4d/output"
  top: "inception_4e/5x5_reduce"
  param {
    lr_mult: 1
    decay_mult: 1
  }
  param {
    lr_mult: 2
    decay_mult: 0
  }
  convolution_param {
    num_output: 32
    kernel_size: 1
    weight_filler {
      type: "xavier"
      std: 0.2
    }
    bias_filler {
      type: "constant"
      value: 0.2
    }
  }
}
layer {
  name: "inception_4e/relu_5x5_reduce"
  type: "ReLU"
  bottom: "inception_4e/5x5_reduce"
  top: "inception_4e/5x5_reduce"
}
layer {
  name: "inception_4e/5x5"
  type: "Convolution"
  bottom: "inception_4e/5x5_reduce"
  top: "inception_4e/
I0403 15:22:41.125970  3015 layer_factory.hpp:77] Creating layer data
I0403 15:22:41.126595  3015 net.cpp:91] Creating Layer data
I0403 15:22:41.126626  3015 net.cpp:399] data -> data
I0403 15:22:41.126679  3015 net.cpp:399] data -> label
I0403 15:22:41.126718  3015 data_transformer.cpp:25] Loading mean file from: /home/mohanty/data/final_dataset/lmdb/segmented-60-40/mean.binaryproto
I0403 15:22:41.129104  3018 db_lmdb.cpp:38] Opened lmdb /home/mohanty/data/final_dataset/lmdb/segmented-60-40/test_db
I0403 15:22:41.139966  3015 data_layer.cpp:41] output data size: 24,3,224,224
I0403 15:22:41.168267  3015 net.cpp:141] Setting up data
I0403 15:22:41.168355  3015 net.cpp:148] Top shape: 24 3 224 224 (3612672)
I0403 15:22:41.168378  3015 net.cpp:148] Top shape: 24 (24)
I0403 15:22:41.168395  3015 net.cpp:156] Memory required for data: 14450784
I0403 15:22:41.168422  3015 layer_factory.hpp:77] Creating layer label_data_1_split
I0403 15:22:41.168449  3015 net.cpp:91] Creating Layer label_data_1_split
I0403 15:22:41.168467  3015 net.cpp:425] label_data_1_split <- label
I0403 15:22:41.168499  3015 net.cpp:399] label_data_1_split -> label_data_1_split_0
I0403 15:22:41.168529  3015 net.cpp:399] label_data_1_split -> label_data_1_split_1
I0403 15:22:41.168550  3015 net.cpp:399] label_data_1_split -> label_data_1_split_2
I0403 15:22:41.168572  3015 net.cpp:399] label_data_1_split -> label_data_1_split_3
I0403 15:22:41.168592  3015 net.cpp:399] label_data_1_split -> label_data_1_split_4
I0403 15:22:41.168613  3015 net.cpp:399] label_data_1_split -> label_data_1_split_5
I0403 15:22:41.168633  3015 net.cpp:399] label_data_1_split -> label_data_1_split_6
I0403 15:22:41.168655  3015 net.cpp:399] label_data_1_split -> label_data_1_split_7
I0403 15:22:41.168676  3015 net.cpp:399] label_data_1_split -> label_data_1_split_8
I0403 15:22:41.168697  3015 net.cpp:399] label_data_1_split -> label_data_1_split_9
I0403 15:22:41.168817  3015 net.cpp:141] Setting up label_data_1_split
I0403 15:22:41.168840  3015 net.cpp:148] Top shape: 24 (24)
I0403 15:22:41.168859  3015 net.cpp:148] Top shape: 24 (24)
I0403 15:22:41.168875  3015 net.cpp:148] Top shape: 24 (24)
I0403 15:22:41.168891  3015 net.cpp:148] Top shape: 24 (24)
I0403 15:22:41.168907  3015 net.cpp:148] Top shape: 24 (24)
I0403 15:22:41.168923  3015 net.cpp:148] Top shape: 24 (24)
I0403 15:22:41.168941  3015 net.cpp:148] Top shape: 24 (24)
I0403 15:22:41.168956  3015 net.cpp:148] Top shape: 24 (24)
I0403 15:22:41.168972  3015 net.cpp:148] Top shape: 24 (24)
I0403 15:22:41.168988  3015 net.cpp:148] Top shape: 24 (24)
I0403 15:22:41.169034  3015 net.cpp:156] Memory required for data: 14451744
I0403 15:22:41.169051  3015 layer_factory.hpp:77] Creating layer conv1/7x7_s2
I0403 15:22:41.169085  3015 net.cpp:91] Creating Layer conv1/7x7_s2
I0403 15:22:41.169103  3015 net.cpp:425] conv1/7x7_s2 <- data
I0403 15:22:41.169123  3015 net.cpp:399] conv1/7x7_s2 -> conv1/7x7_s2
I0403 15:22:41.313530  3015 net.cpp:141] Setting up conv1/7x7_s2
I0403 15:22:41.313622  3015 net.cpp:148] Top shape: 24 64 112 112 (19267584)
I0403 15:22:41.313642  3015 net.cpp:156] Memory required for data: 91522080
I0403 15:22:41.313673  3015 layer_factory.hpp:77] Creating layer conv1/relu_7x7
I0403 15:22:41.313700  3015 net.cpp:91] Creating Layer conv1/relu_7x7
I0403 15:22:41.313719  3015 net.cpp:425] conv1/relu_7x7 <- conv1/7x7_s2
I0403 15:22:41.313737  3015 net.cpp:386] conv1/relu_7x7 -> conv1/7x7_s2 (in-place)
I0403 15:22:41.314007  3015 net.cpp:141] Setting up conv1/relu_7x7
I0403 15:22:41.314035  3015 net.cpp:148] Top shape: 24 64 112 112 (19267584)
I0403 15:22:41.314051  3015 net.cpp:156] Memory required for data: 168592416
I0403 15:22:41.314067  3015 layer_factory.hpp:77] Creating layer pool1/3x3_s2
I0403 15:22:41.314095  3015 net.cpp:91] Creating Layer pool1/3x3_s2
I0403 15:22:41.314113  3015 net.cpp:425] pool1/3x3_s2 <- conv1/7x7_s2
I0403 15:22:41.314131  3015 net.cpp:399] pool1/3x3_s2 -> pool1/3x3_s2
I0403 15:22:41.314216  3015 net.cpp:141] Setting up pool1/3x3_s2
I0403 15:22:41.314240  3015 net.cpp:148] Top shape: 24 64 56 56 (4816896)
I0403 15:22:41.314255  3015 net.cpp:156] Memory required for data: 187860000
I0403 15:22:41.314270  3015 layer_factory.hpp:77] Creating layer pool1/norm1
I0403 15:22:41.314296  3015 net.cpp:91] Creating Layer pool1/norm1
I0403 15:22:41.314312  3015 net.cpp:425] pool1/norm1 <- pool1/3x3_s2
I0403 15:22:41.314332  3015 net.cpp:399] pool1/norm1 -> pool1/norm1
I0403 15:22:41.314638  3015 net.cpp:141] Setting up pool1/norm1
I0403 15:22:41.314666  3015 net.cpp:148] Top shape: 24 64 56 56 (4816896)
I0403 15:22:41.314682  3015 net.cpp:156] Memory required for data: 207127584
I0403 15:22:41.314697  3015 layer_factory.hpp:77] Creating layer conv2/3x3_reduce
I0403 15:22:41.314724  3015 net.cpp:91] Creating Layer conv2/3x3_reduce
I0403 15:22:41.314741  3015 net.cpp:425] conv2/3x3_reduce <- pool1/norm1
I0403 15:22:41.314764  3015 net.cpp:399] conv2/3x3_reduce -> conv2/3x3_reduce
I0403 15:22:41.316200  3015 net.cpp:141] Setting up conv2/3x3_reduce
I0403 15:22:41.316232  3015 net.cpp:148] Top shape: 24 64 56 56 (4816896)
I0403 15:22:41.316251  3015 net.cpp:156] Memory required for data: 226395168
I0403 15:22:41.316272  3015 layer_factory.hpp:77] Creating layer conv2/relu_3x3_reduce
I0403 15:22:41.316290  3015 net.cpp:91] Creating Layer conv2/relu_3x3_reduce
I0403 15:22:41.316306  3015 net.cpp:425] conv2/relu_3x3_reduce <- conv2/3x3_reduce
I0403 15:22:41.316326  3015 net.cpp:386] conv2/relu_3x3_reduce -> conv2/3x3_reduce (in-place)
I0403 15:22:41.316601  3015 net.cpp:141] Setting up conv2/relu_3x3_reduce
I0403 15:22:41.316629  3015 net.cpp:148] Top shape: 24 64 56 56 (4816896)
I0403 15:22:41.316647  3015 net.cpp:156] Memory required for data: 245662752
I0403 15:22:41.316661  3015 layer_factory.hpp:77] Creating layer conv2/3x3
I0403 15:22:41.316685  3015 net.cpp:91] Creating Layer conv2/3x3
I0403 15:22:41.316704  3015 net.cpp:425] conv2/3x3 <- conv2/3x3_reduce
I0403 15:22:41.316723  3015 net.cpp:399] conv2/3x3 -> conv2/3x3
I0403 15:22:41.319057  3015 net.cpp:141] Setting up conv2/3x3
I0403 15:22:41.319092  3015 net.cpp:148] Top shape: 24 192 56 56 (14450688)
I0403 15:22:41.319108  3015 net.cpp:156] Memory required for data: 303465504
I0403 15:22:41.319130  3015 layer_factory.hpp:77] Creating layer conv2/relu_3x3
I0403 15:22:41.319149  3015 net.cpp:91] Creating Layer conv2/relu_3x3
I0403 15:22:41.319165  3015 net.cpp:425] conv2/relu_3x3 <- conv2/3x3
I0403 15:22:41.319190  3015 net.cpp:386] conv2/relu_3x3 -> conv2/3x3 (in-place)
I0403 15:22:41.319373  3015 net.cpp:141] Setting up conv2/relu_3x3
I0403 15:22:41.319399  3015 net.cpp:148] Top shape: 24 192 56 56 (14450688)
I0403 15:22:41.319445  3015 net.cpp:156] Memory required for data: 361268256
I0403 15:22:41.319461  3015 layer_factory.hpp:77] Creating layer conv2/norm2
I0403 15:22:41.319483  3015 net.cpp:91] Creating Layer conv2/norm2
I0403 15:22:41.319500  3015 net.cpp:425] conv2/norm2 <- conv2/3x3
I0403 15:22:41.319519  3015 net.cpp:399] conv2/norm2 -> conv2/norm2
I0403 15:22:41.319828  3015 net.cpp:141] Setting up conv2/norm2
I0403 15:22:41.319854  3015 net.cpp:148] Top shape: 24 192 56 56 (14450688)
I0403 15:22:41.319870  3015 net.cpp:156] Memory required for data: 419071008
I0403 15:22:41.319886  3015 layer_factory.hpp:77] Creating layer pool2/3x3_s2
I0403 15:22:41.319906  3015 net.cpp:91] Creating Layer pool2/3x3_s2
I0403 15:22:41.319922  3015 net.cpp:425] pool2/3x3_s2 <- conv2/norm2
I0403 15:22:41.319941  3015 net.cpp:399] pool2/3x3_s2 -> pool2/3x3_s2
I0403 15:22:41.320006  3015 net.cpp:141] Setting up pool2/3x3_s2
I0403 15:22:41.320029  3015 net.cpp:148] Top shape: 24 192 28 28 (3612672)
I0403 15:22:41.320044  3015 net.cpp:156] Memory required for data: 433521696
I0403 15:22:41.320057  3015 layer_factory.hpp:77] Creating layer pool2/3x3_s2_pool2/3x3_s2_0_split
I0403 15:22:41.320077  3015 net.cpp:91] Creating Layer pool2/3x3_s2_pool2/3x3_s2_0_split
I0403 15:22:41.320093  3015 net.cpp:425] pool2/3x3_s2_pool2/3x3_s2_0_split <- pool2/3x3_s2
I0403 15:22:41.320111  3015 net.cpp:399] pool2/3x3_s2_pool2/3x3_s2_0_split -> pool2/3x3_s2_pool2/3x3_s2_0_split_0
I0403 15:22:41.320130  3015 net.cpp:399] pool2/3x3_s2_pool2/3x3_s2_0_split -> pool2/3x3_s2_pool2/3x3_s2_0_split_1
I0403 15:22:41.320150  3015 net.cpp:399] pool2/3x3_s2_pool2/3x3_s2_0_split -> pool2/3x3_s2_pool2/3x3_s2_0_split_2
I0403 15:22:41.320169  3015 net.cpp:399] pool2/3x3_s2_pool2/3x3_s2_0_split -> pool2/3x3_s2_pool2/3x3_s2_0_split_3
I0403 15:22:41.320245  3015 net.cpp:141] Setting up pool2/3x3_s2_pool2/3x3_s2_0_split
I0403 15:22:41.320266  3015 net.cpp:148] Top shape: 24 192 28 28 (3612672)
I0403 15:22:41.320282  3015 net.cpp:148] Top shape: 24 192 28 28 (3612672)
I0403 15:22:41.320298  3015 net.cpp:148] Top shape: 24 192 28 28 (3612672)
I0403 15:22:41.320313  3015 net.cpp:148] Top shape: 24 192 28 28 (3612672)
I0403 15:22:41.320328  3015 net.cpp:156] Memory required for data: 491324448
I0403 15:22:41.320343  3015 layer_factory.hpp:77] Creating layer inception_3a/1x1
I0403 15:22:41.320364  3015 net.cpp:91] Creating Layer inception_3a/1x1
I0403 15:22:41.320381  3015 net.cpp:425] inception_3a/1x1 <- pool2/3x3_s2_pool2/3x3_s2_0_split_0
I0403 15:22:41.320402  3015 net.cpp:399] inception_3a/1x1 -> inception_3a/1x1
I0403 15:22:41.321912  3015 net.cpp:141] Setting up inception_3a/1x1
I0403 15:22:41.321943  3015 net.cpp:148] Top shape: 24 64 28 28 (1204224)
I0403 15:22:41.321960  3015 net.cpp:156] Memory required for data: 496141344
I0403 15:22:41.321979  3015 layer_factory.hpp:77] Creating layer inception_3a/relu_1x1
I0403 15:22:41.321995  3015 net.cpp:91] Creating Layer inception_3a/relu_1x1
I0403 15:22:41.322011  3015 net.cpp:425] inception_3a/relu_1x1 <- inception_3a/1x1
I0403 15:22:41.322028  3015 net.cpp:386] inception_3a/relu_1x1 -> inception_3a/1x1 (in-place)
I0403 15:22:41.322208  3015 net.cpp:141] Setting up inception_3a/relu_1x1
I0403 15:22:41.322232  3015 net.cpp:148] Top shape: 24 64 28 28 (1204224)
I0403 15:22:41.322247  3015 net.cpp:156] Memory required for data: 500958240
I0403 15:22:41.322262  3015 layer_factory.hpp:77] Creating layer inception_3a/3x3_reduce
I0403 15:22:41.322284  3015 net.cpp:91] Creating Layer inception_3a/3x3_reduce
I0403 15:22:41.322301  3015 net.cpp:425] inception_3a/3x3_reduce <- pool2/3x3_s2_pool2/3x3_s2_0_split_1
I0403 15:22:41.322322  3015 net.cpp:399] inception_3a/3x3_reduce -> inception_3a/3x3_reduce
I0403 15:22:41.324023  3015 net.cpp:141] Setting up inception_3a/3x3_reduce
I0403 15:22:41.324054  3015 net.cpp:148] Top shape: 24 96 28 28 (1806336)
I0403 15:22:41.324070  3015 net.cpp:156] Memory required for data: 508183584
I0403 15:22:41.324091  3015 layer_factory.hpp:77] Creating layer inception_3a/relu_3x3_reduce
I0403 15:22:41.324128  3015 net.cpp:91] Creating Layer inception_3a/relu_3x3_reduce
I0403 15:22:41.324146  3015 net.cpp:425] inception_3a/relu_3x3_reduce <- inception_3a/3x3_reduce
I0403 15:22:41.324163  3015 net.cpp:386] inception_3a/relu_3x3_reduce -> inception_3a/3x3_reduce (in-place)
I0403 15:22:41.324347  3015 net.cpp:141] Setting up inception_3a/relu_3x3_reduce
I0403 15:22:41.324373  3015 net.cpp:148] Top shape: 24 96 28 28 (1806336)
I0403 15:22:41.324388  3015 net.cpp:156] Memory required for data: 515408928
I0403 15:22:41.324400  3015 layer_factory.hpp:77] Creating layer inception_3a/3x3
I0403 15:22:41.324424  3015 net.cpp:91] Creating Layer inception_3a/3x3
I0403 15:22:41.324442  3015 net.cpp:425] inception_3a/3x3 <- inception_3a/3x3_reduce
I0403 15:22:41.324462  3015 net.cpp:399] inception_3a/3x3 -> inception_3a/3x3
I0403 15:22:41.326160  3015 net.cpp:141] Setting up inception_3a/3x3
I0403 15:22:41.326196  3015 net.cpp:148] Top shape: 24 128 28 28 (2408448)
I0403 15:22:41.326215  3015 net.cpp:156] Memory required for data: 525042720
I0403 15:22:41.326233  3015 layer_factory.hpp:77] Creating layer inception_3a/relu_3x3
I0403 15:22:41.326253  3015 net.cpp:91] Creating Layer inception_3a/relu_3x3
I0403 15:22:41.326269  3015 net.cpp:425] inception_3a/relu_3x3 <- inception_3a/3x3
I0403 15:22:41.326290  3015 net.cpp:386] inception_3a/relu_3x3 -> inception_3a/3x3 (in-place)
I0403 15:22:41.326576  3015 net.cpp:141] Setting up inception_3a/relu_3x3
I0403 15:22:41.326604  3015 net.cpp:148] Top shape: 24 128 28 28 (2408448)
I0403 15:22:41.326622  3015 net.cpp:156] Memory required for data: 534676512
I0403 15:22:41.326637  3015 layer_factory.hpp:77] Creating layer inception_3a/5x5_reduce
I0403 15:22:41.326660  3015 net.cpp:91] Creating Layer inception_3a/5x5_reduce
I0403 15:22:41.326679  3015 net.cpp:425] inception_3a/5x5_reduce <- pool2/3x3_s2_pool2/3x3_s2_0_split_2
I0403 15:22:41.326702  3015 net.cpp:399] inception_3a/5x5_reduce -> inception_3a/5x5_reduce
I0403 15:22:41.327719  3015 net.cpp:141] Setting up inception_3a/5x5_reduce
I0403 15:22:41.327747  3015 net.cpp:148] Top shape: 24 16 28 28 (301056)
I0403 15:22:41.327764  3015 net.cpp:156] Memory required for data: 535880736
I0403 15:22:41.327783  3015 layer_factory.hpp:77] Creating layer inception_3a/relu_5x5_reduce
I0403 15:22:41.327801  3015 net.cpp:91] Creating Layer inception_3a/relu_5x5_reduce
I0403 15:22:41.327818  3015 net.cpp:425] inception_3a/relu_5x5_reduce <- inception_3a/5x5_reduce
I0403 15:22:41.327838  3015 net.cpp:386] inception_3a/relu_5x5_reduce -> inception_3a/5x5_reduce (in-place)
I0403 15:22:41.328147  3015 net.cpp:141] Setting up inception_3a/relu_5x5_reduce
I0403 15:22:41.328174  3015 net.cpp:148] Top shape: 24 16 28 28 (301056)
I0403 15:22:41.328197  3015 net.cpp:156] Memory required for data: 537084960
I0403 15:22:41.328212  3015 layer_factory.hpp:77] Creating layer inception_3a/5x5
I0403 15:22:41.328235  3015 net.cpp:91] Creating Layer inception_3a/5x5
I0403 15:22:41.328253  3015 net.cpp:425] inception_3a/5x5 <- inception_3a/5x5_reduce
I0403 15:22:41.328274  3015 net.cpp:399] inception_3a/5x5 -> inception_3a/5x5
I0403 15:22:41.329303  3015 net.cpp:141] Setting up inception_3a/5x5
I0403 15:22:41.329335  3015 net.cpp:148] Top shape: 24 32 28 28 (602112)
I0403 15:22:41.329352  3015 net.cpp:156] Memory required for data: 539493408
I0403 15:22:41.329371  3015 layer_factory.hpp:77] Creating layer inception_3a/relu_5x5
I0403 15:22:41.329391  3015 net.cpp:91] Creating Layer inception_3a/relu_5x5
I0403 15:22:41.329406  3015 net.cpp:425] inception_3a/relu_5x5 <- inception_3a/5x5
I0403 15:22:41.329427  3015 net.cpp:386] inception_3a/relu_5x5 -> inception_3a/5x5 (in-place)
I0403 15:22:41.329601  3015 net.cpp:141] Setting up inception_3a/relu_5x5
I0403 15:22:41.329627  3015 net.cpp:148] Top shape: 24 32 28 28 (602112)
I0403 15:22:41.329641  3015 net.cpp:156] Memory required for data: 541901856
I0403 15:22:41.329656  3015 layer_factory.hpp:77] Creating layer inception_3a/pool
I0403 15:22:41.329675  3015 net.cpp:91] Creating Layer inception_3a/pool
I0403 15:22:41.329709  3015 net.cpp:425] inception_3a/pool <- pool2/3x3_s2_pool2/3x3_s2_0_split_3
I0403 15:22:41.329728  3015 net.cpp:399] inception_3a/pool -> inception_3a/pool
I0403 15:22:41.329787  3015 net.cpp:141] Setting up inception_3a/pool
I0403 15:22:41.329810  3015 net.cpp:148] Top shape: 24 192 28 28 (3612672)
I0403 15:22:41.329826  3015 net.cpp:156] Memory required for data: 556352544
I0403 15:22:41.329841  3015 layer_factory.hpp:77] Creating layer inception_3a/pool_proj
I0403 15:22:41.329864  3015 net.cpp:91] Creating Layer inception_3a/pool_proj
I0403 15:22:41.329881  3015 net.cpp:425] inception_3a/pool_proj <- inception_3a/pool
I0403 15:22:41.329903  3015 net.cpp:399] inception_3a/pool_proj -> inception_3a/pool_proj
I0403 15:22:41.330883  3015 net.cpp:141] Setting up inception_3a/pool_proj
I0403 15:22:41.330912  3015 net.cpp:148] Top shape: 24 32 28 28 (602112)
I0403 15:22:41.330929  3015 net.cpp:156] Memory required for data: 558760992
I0403 15:22:41.330953  3015 layer_factory.hpp:77] Creating layer inception_3a/relu_pool_proj
I0403 15:22:41.330974  3015 net.cpp:91] Creating Layer inception_3a/relu_pool_proj
I0403 15:22:41.330991  3015 net.cpp:425] inception_3a/relu_pool_proj <- inception_3a/pool_proj
I0403 15:22:41.331010  3015 net.cpp:386] inception_3a/relu_pool_proj -> inception_3a/pool_proj (in-place)
I0403 15:22:41.331301  3015 net.cpp:141] Setting up inception_3a/relu_pool_proj
I0403 15:22:41.331328  3015 net.cpp:148] Top shape: 24 32 28 28 (602112)
I0403 15:22:41.331344  3015 net.cpp:156] Memory required for data: 561169440
I0403 15:22:41.331359  3015 layer_factory.hpp:77] Creating layer inception_3a/output
I0403 15:22:41.331377  3015 net.cpp:91] Creating Layer inception_3a/output
I0403 15:22:41.331393  3015 net.cpp:425] inception_3a/output <- inception_3a/1x1
I0403 15:22:41.331409  3015 net.cpp:425] inception_3a/output <- inception_3a/3x3
I0403 15:22:41.331426  3015 net.cpp:425] inception_3a/output <- inception_3a/5x5
I0403 15:22:41.331442  3015 net.cpp:425] inception_3a/output <- inception_3a/pool_proj
I0403 15:22:41.331462  3015 net.cpp:399] inception_3a/output -> inception_3a/output
I0403 15:22:41.331509  3015 net.cpp:141] Setting up inception_3a/output
I0403 15:22:41.331535  3015 net.cpp:148] Top shape: 24 256 28 28 (4816896)
I0403 15:22:41.331550  3015 net.cpp:156] Memory required for data: 580437024
I0403 15:22:41.331565  3015 layer_factory.hpp:77] Creating layer inception_3a/output_inception_3a/output_0_split
I0403 15:22:41.331583  3015 net.cpp:91] Creating Layer inception_3a/output_inception_3a/output_0_split
I0403 15:22:41.331598  3015 net.cpp:425] inception_3a/output_inception_3a/output_0_split <- inception_3a/output
I0403 15:22:41.331615  3015 net.cpp:399] inception_3a/output_inception_3a/output_0_split -> inception_3a/output_inception_3a/output_0_split_0
I0403 15:22:41.331635  3015 net.cpp:399] inception_3a/output_inception_3a/output_0_split -> inception_3a/output_inception_3a/output_0_split_1
I0403 15:22:41.331660  3015 net.cpp:399] inception_3a/output_inception_3a/output_0_split -> inception_3a/output_inception_3a/output_0_split_2
I0403 15:22:41.331683  3015 net.cpp:399] inception_3a/output_inception_3a/output_0_split -> inception_3a/output_inception_3a/output_0_split_3
I0403 15:22:41.331759  3015 net.cpp:141] Setting up inception_3a/output_inception_3a/output_0_split
I0403 15:22:41.331784  3015 net.cpp:148] Top shape: 24 256 28 28 (4816896)
I0403 15:22:41.331802  3015 net.cpp:148] Top shape: 24 256 28 28 (4816896)
I0403 15:22:41.331818  3015 net.cpp:148] Top shape: 24 256 28 28 (4816896)
I0403 15:22:41.331835  3015 net.cpp:148] Top shape: 24 256 28 28 (4816896)
I0403 15:22:41.331848  3015 net.cpp:156] Memory required for data: 657507360
I0403 15:22:41.331863  3015 layer_factory.hpp:77] Creating layer inception_3b/1x1
I0403 15:22:41.331887  3015 net.cpp:91] Creating Layer inception_3b/1x1
I0403 15:22:41.331904  3015 net.cpp:425] inception_3b/1x1 <- inception_3a/output_inception_3a/output_0_split_0
I0403 15:22:41.331923  3015 net.cpp:399] inception_3b/1x1 -> inception_3b/1x1
I0403 15:22:41.333086  3015 net.cpp:141] Setting up inception_3b/1x1
I0403 15:22:41.333127  3015 net.cpp:148] Top shape: 24 128 28 28 (2408448)
I0403 15:22:41.333143  3015 net.cpp:156] Memory required for data: 667141152
I0403 15:22:41.333175  3015 layer_factory.hpp:77] Creating layer inception_3b/relu_1x1
I0403 15:22:41.333204  3015 net.cpp:91] Creating Layer inception_3b/relu_1x1
I0403 15:22:41.333221  3015 net.cpp:425] inception_3b/relu_1x1 <- inception_3b/1x1
I0403 15:22:41.333240  3015 net.cpp:386] inception_3b/relu_1x1 -> inception_3b/1x1 (in-place)
I0403 15:22:41.333426  3015 net.cpp:141] Setting up inception_3b/relu_1x1
I0403 15:22:41.333452  3015 net.cpp:148] Top shape: 24 128 28 28 (2408448)
I0403 15:22:41.333480  3015 net.cpp:156] Memory required for data: 676774944
I0403 15:22:41.333495  3015 layer_factory.hpp:77] Creating layer inception_3b/3x3_reduce
I0403 15:22:41.333518  3015 net.cpp:91] Creating Layer inception_3b/3x3_reduce
I0403 15:22:41.333536  3015 net.cpp:425] inception_3b/3x3_reduce <- inception_3a/output_inception_3a/output_0_split_1
I0403 15:22:41.333559  3015 net.cpp:399] inception_3b/3x3_reduce -> inception_3b/3x3_reduce
I0403 15:22:41.334708  3015 net.cpp:141] Setting up inception_3b/3x3_reduce
I0403 15:22:41.334740  3015 net.cpp:148] Top shape: 24 128 28 28 (2408448)
I0403 15:22:41.334758  3015 net.cpp:156] Memory required for data: 686408736
I0403 15:22:41.334776  3015 layer_factory.hpp:77] Creating layer inception_3b/relu_3x3_reduce
I0403 15:22:41.334794  3015 net.cpp:91] Creating Layer inception_3b/relu_3x3_reduce
I0403 15:22:41.334810  3015 net.cpp:425] inception_3b/relu_3x3_reduce <- inception_3b/3x3_reduce
I0403 15:22:41.334828  3015 net.cpp:386] inception_3b/relu_3x3_reduce -> inception_3b/3x3_reduce (in-place)
I0403 15:22:41.335005  3015 net.cpp:141] Setting up inception_3b/relu_3x3_reduce
I0403 15:22:41.335033  3015 net.cpp:148] Top shape: 24 128 28 28 (2408448)
I0403 15:22:41.335049  3015 net.cpp:156] Memory required for data: 696042528
I0403 15:22:41.335064  3015 layer_factory.hpp:77] Creating layer inception_3b/3x3
I0403 15:22:41.335089  3015 net.cpp:91] Creating Layer inception_3b/3x3
I0403 15:22:41.335108  3015 net.cpp:425] inception_3b/3x3 <- inception_3b/3x3_reduce
I0403 15:22:41.335129  3015 net.cpp:399] inception_3b/3x3 -> inception_3b/3x3
I0403 15:22:41.338109  3015 net.cpp:141] Setting up inception_3b/3x3
I0403 15:22:41.338138  3015 net.cpp:148] Top shape: 24 192 28 28 (3612672)
I0403 15:22:41.338155  3015 net.cpp:156] Memory required for data: 710493216
I0403 15:22:41.338173  3015 layer_factory.hpp:77] Creating layer inception_3b/relu_3x3
I0403 15:22:41.338198  3015 net.cpp:91] Creating Layer inception_3b/relu_3x3
I0403 15:22:41.338215  3015 net.cpp:425] inception_3b/relu_3x3 <- inception_3b/3x3
I0403 15:22:41.338237  3015 net.cpp:386] inception_3b/relu_3x3 -> inception_3b/3x3 (in-place)
I0403 15:22:41.338517  3015 net.cpp:141] Setting up inception_3b/relu_3x3
I0403 15:22:41.338544  3015 net.cpp:148] Top shape: 24 192 28 28 (3612672)
I0403 15:22:41.338560  3015 net.cpp:156] Memory required for data: 724943904
I0403 15:22:41.338575  3015 layer_factory.hpp:77] Creating layer inception_3b/5x5_reduce
I0403 15:22:41.338598  3015 net.cpp:91] Creating Layer inception_3b/5x5_reduce
I0403 15:22:41.338615  3015 net.cpp:425] inception_3b/5x5_reduce <- inception_3a/output_inception_3a/output_0_split_2
I0403 15:22:41.338639  3015 net.cpp:399] inception_3b/5x5_reduce -> inception_3b/5x5_reduce
I0403 15:22:41.339650  3015 net.cpp:141] Setting up inception_3b/5x5_reduce
I0403 15:22:41.339679  3015 net.cpp:148] Top shape: 24 32 28 28 (602112)
I0403 15:22:41.339695  3015 net.cpp:156] Memory required for data: 727352352
I0403 15:22:41.339714  3015 layer_factory.hpp:77] Creating layer inception_3b/relu_5x5_reduce
I0403 15:22:41.339732  3015 net.cpp:91] Creating Layer inception_3b/relu_5x5_reduce
I0403 15:22:41.339748  3015 net.cpp:425] inception_3b/relu_5x5_reduce <- inception_3b/5x5_reduce
I0403 15:22:41.339767  3015 net.cpp:386] inception_3b/relu_5x5_reduce -> inception_3b/5x5_reduce (in-place)
I0403 15:22:41.339963  3015 net.cpp:141] Setting up inception_3b/relu_5x5_reduce
I0403 15:22:41.339989  3015 net.cpp:148] Top shape: 24 32 28 28 (602112)
I0403 15:22:41.340005  3015 net.cpp:156] Memory required for data: 729760800
I0403 15:22:41.340020  3015 layer_factory.hpp:77] Creating layer inception_3b/5x5
I0403 15:22:41.340042  3015 net.cpp:91] Creating Layer inception_3b/5x5
I0403 15:22:41.340060  3015 net.cpp:425] inception_3b/5x5 <- inception_3b/5x5_reduce
I0403 15:22:41.340082  3015 net.cpp:399] inception_3b/5x5 -> inception_3b/5x5
I0403 15:22:41.342090  3015 net.cpp:141] Setting up inception_3b/5x5
I0403 15:22:41.342123  3015 net.cpp:148] Top shape: 24 96 28 28 (1806336)
I0403 15:22:41.342139  3015 net.cpp:156] Memory required for data: 736986144
I0403 15:22:41.342159  3015 layer_factory.hpp:77] Creating layer inception_3b/relu_5x5
I0403 15:22:41.342188  3015 net.cpp:91] Creating Layer inception_3b/relu_5x5
I0403 15:22:41.342208  3015 net.cpp:425] inception_3b/relu_5x5 <- inception_3b/5x5
I0403 15:22:41.342226  3015 net.cpp:386] inception_3b/relu_5x5 -> inception_3b/5x5 (in-place)
I0403 15:22:41.342427  3015 net.cpp:141] Setting up inception_3b/relu_5x5
I0403 15:22:41.342453  3015 net.cpp:148] Top shape: 24 96 28 28 (1806336)
I0403 15:22:41.342468  3015 net.cpp:156] Memory required for data: 744211488
I0403 15:22:41.342483  3015 layer_factory.hpp:77] Creating layer inception_3b/pool
I0403 15:22:41.342500  3015 net.cpp:91] Creating Layer inception_3b/pool
I0403 15:22:41.342516  3015 net.cpp:425] inception_3b/pool <- inception_3a/output_inception_3a/output_0_split_3
I0403 15:22:41.342535  3015 net.cpp:399] inception_3b/pool -> inception_3b/pool
I0403 15:22:41.342592  3015 net.cpp:141] Setting up inception_3b/pool
I0403 15:22:41.342617  3015 net.cpp:148] Top shape: 24 256 28 28 (4816896)
I0403 15:22:41.342633  3015 net.cpp:156] Memory required for data: 763479072
I0403 15:22:41.342648  3015 layer_factory.hpp:77] Creating layer inception_3b/pool_proj
I0403 15:22:41.342669  3015 net.cpp:91] Creating Layer inception_3b/pool_proj
I0403 15:22:41.342687  3015 net.cpp:425] inception_3b/pool_proj <- inception_3b/pool
I0403 15:22:41.342706  3015 net.cpp:399] inception_3b/pool_proj -> inception_3b/pool_proj
I0403 15:22:41.343786  3015 net.cpp:141] Setting up inception_3b/pool_proj
I0403 15:22:41.343814  3015 net.cpp:148] Top shape: 24 64 28 28 (1204224)
I0403 15:22:41.343832  3015 net.cpp:156] Memory required for data: 768295968
I0403 15:22:41.343849  3015 layer_factory.hpp:77] Creating layer inception_3b/relu_pool_proj
I0403 15:22:41.343870  3015 net.cpp:91] Creating Layer inception_3b/relu_pool_proj
I0403 15:22:41.343888  3015 net.cpp:425] inception_3b/relu_pool_proj <- inception_3b/pool_proj
I0403 15:22:41.343906  3015 net.cpp:386] inception_3b/relu_pool_proj -> inception_3b/pool_proj (in-place)
I0403 15:22:41.344367  3015 net.cpp:141] Setting up inception_3b/relu_pool_proj
I0403 15:22:41.344393  3015 net.cpp:148] Top shape: 24 64 28 28 (1204224)
I0403 15:22:41.344409  3015 net.cpp:156] Memory required for data: 773112864
I0403 15:22:41.344424  3015 layer_factory.hpp:77] Creating layer inception_3b/output
I0403 15:22:41.344441  3015 net.cpp:91] Creating Layer inception_3b/output
I0403 15:22:41.344457  3015 net.cpp:425] inception_3b/output <- inception_3b/1x1
I0403 15:22:41.344473  3015 net.cpp:425] inception_3b/output <- inception_3b/3x3
I0403 15:22:41.344490  3015 net.cpp:425] inception_3b/output <- inception_3b/5x5
I0403 15:22:41.344506  3015 net.cpp:425] inception_3b/output <- inception_3b/pool_proj
I0403 15:22:41.344523  3015 net.cpp:399] inception_3b/output -> inception_3b/output
I0403 15:22:41.344568  3015 net.cpp:141] Setting up inception_3b/output
I0403 15:22:41.344591  3015 net.cpp:148] Top shape: 24 480 28 28 (9031680)
I0403 15:22:41.344607  3015 net.cpp:156] Memory required for data: 809239584
I0403 15:22:41.344626  3015 layer_factory.hpp:77] Creating layer pool3/3x3_s2
I0403 15:22:41.344643  3015 net.cpp:91] Creating Layer pool3/3x3_s2
I0403 15:22:41.344660  3015 net.cpp:425] pool3/3x3_s2 <- inception_3b/output
I0403 15:22:41.344694  3015 net.cpp:399] pool3/3x3_s2 -> pool3/3x3_s2
I0403 15:22:41.344751  3015 net.cpp:141] Setting up pool3/3x3_s2
I0403 15:22:41.344774  3015 net.cpp:148] Top shape: 24 480 14 14 (2257920)
I0403 15:22:41.344789  3015 net.cpp:156] Memory required for data: 818271264
I0403 15:22:41.344802  3015 layer_factory.hpp:77] Creating layer pool3/3x3_s2_pool3/3x3_s2_0_split
I0403 15:22:41.344821  3015 net.cpp:91] Creating Layer pool3/3x3_s2_pool3/3x3_s2_0_split
I0403 15:22:41.344838  3015 net.cpp:425] pool3/3x3_s2_pool3/3x3_s2_0_split <- pool3/3x3_s2
I0403 15:22:41.344856  3015 net.cpp:399] pool3/3x3_s2_pool3/3x3_s2_0_split -> pool3/3x3_s2_pool3/3x3_s2_0_split_0
I0403 15:22:41.344874  3015 net.cpp:399] pool3/3x3_s2_pool3/3x3_s2_0_split -> pool3/3x3_s2_pool3/3x3_s2_0_split_1
I0403 15:22:41.344897  3015 net.cpp:399] pool3/3x3_s2_pool3/3x3_s2_0_split -> pool3/3x3_s2_pool3/3x3_s2_0_split_2
I0403 15:22:41.344916  3015 net.cpp:399] pool3/3x3_s2_pool3/3x3_s2_0_split -> pool3/3x3_s2_pool3/3x3_s2_0_split_3
I0403 15:22:41.344991  3015 net.cpp:141] Setting up pool3/3x3_s2_pool3/3x3_s2_0_split
I0403 15:22:41.345013  3015 net.cpp:148] Top shape: 24 480 14 14 (2257920)
I0403 15:22:41.345029  3015 net.cpp:148] Top shape: 24 480 14 14 (2257920)
I0403 15:22:41.345044  3015 net.cpp:148] Top shape: 24 480 14 14 (2257920)
I0403 15:22:41.345059  3015 net.cpp:148] Top shape: 24 480 14 14 (2257920)
I0403 15:22:41.345073  3015 net.cpp:156] Memory required for data: 854397984
I0403 15:22:41.345088  3015 layer_factory.hpp:77] Creating layer inception_4a/1x1
I0403 15:22:41.345109  3015 net.cpp:91] Creating Layer inception_4a/1x1
I0403 15:22:41.345127  3015 net.cpp:425] inception_4a/1x1 <- pool3/3x3_s2_pool3/3x3_s2_0_split_0
I0403 15:22:41.345149  3015 net.cpp:399] inception_4a/1x1 -> inception_4a/1x1
I0403 15:22:41.346719  3015 net.cpp:141] Setting up inception_4a/1x1
I0403 15:22:41.346746  3015 net.cpp:148] Top shape: 24 192 14 14 (903168)
I0403 15:22:41.346762  3015 net.cpp:156] Memory required for data: 858010656
I0403 15:22:41.346781  3015 layer_factory.hpp:77] Creating layer inception_4a/relu_1x1
I0403 15:22:41.346801  3015 net.cpp:91] Creating Layer inception_4a/relu_1x1
I0403 15:22:41.346817  3015 net.cpp:425] inception_4a/relu_1x1 <- inception_4a/1x1
I0403 15:22:41.346835  3015 net.cpp:386] inception_4a/relu_1x1 -> inception_4a/1x1 (in-place)
I0403 15:22:41.347012  3015 net.cpp:141] Setting up inception_4a/relu_1x1
I0403 15:22:41.347039  3015 net.cpp:148] Top shape: 24 192 14 14 (903168)
I0403 15:22:41.347055  3015 net.cpp:156] Memory required for data: 861623328
I0403 15:22:41.347069  3015 layer_factory.hpp:77] Creating layer inception_4a/3x3_reduce
I0403 15:22:41.347091  3015 net.cpp:91] Creating Layer inception_4a/3x3_reduce
I0403 15:22:41.347108  3015 net.cpp:425] inception_4a/3x3_reduce <- pool3/3x3_s2_pool3/3x3_s2_0_split_1
I0403 15:22:41.347127  3015 net.cpp:399] inception_4a/3x3_reduce -> inception_4a/3x3_reduce
I0403 15:22:41.348384  3015 net.cpp:141] Setting up inception_4a/3x3_reduce
I0403 15:22:41.348412  3015 net.cpp:148] Top shape: 24 96 14 14 (451584)
I0403 15:22:41.348426  3015 net.cpp:156] Memory required for data: 863429664
I0403 15:22:41.348450  3015 layer_factory.hpp:77] Creating layer inception_4a/relu_3x3_reduce
I0403 15:22:41.348472  3015 net.cpp:91] Creating Layer inception_4a/relu_3x3_reduce
I0403 15:22:41.348489  3015 net.cpp:425] inception_4a/relu_3x3_reduce <- inception_4a/3x3_reduce
I0403 15:22:41.348506  3015 net.cpp:386] inception_4a/relu_3x3_reduce -> inception_4a/3x3_reduce (in-place)
I0403 15:22:41.348678  3015 net.cpp:141] Setting up inception_4a/relu_3x3_reduce
I0403 15:22:41.348703  3015 net.cpp:148] Top shape: 24 96 14 14 (451584)
I0403 15:22:41.348717  3015 net.cpp:156] Memory required for data: 865236000
I0403 15:22:41.348731  3015 layer_factory.hpp:77] Creating layer inception_4a/3x3
I0403 15:22:41.348755  3015 net.cpp:91] Creating Layer inception_4a/3x3
I0403 15:22:41.348773  3015 net.cpp:425] inception_4a/3x3 <- inception_4a/3x3_reduce
I0403 15:22:41.348791  3015 net.cpp:399] inception_4a/3x3 -> inception_4a/3x3
I0403 15:22:41.351446  3015 net.cpp:141] Setting up inception_4a/3x3
I0403 15:22:41.351480  3015 net.cpp:148] Top shape: 24 208 14 14 (978432)
I0403 15:22:41.351496  3015 net.cpp:156] Memory required for data: 869149728
I0403 15:22:41.351514  3015 layer_factory.hpp:77] Creating layer inception_4a/relu_3x3
I0403 15:22:41.351532  3015 net.cpp:91] Creating Layer inception_4a/relu_3x3
I0403 15:22:41.351548  3015 net.cpp:425] inception_4a/relu_3x3 <- inception_4a/3x3
I0403 15:22:41.351565  3015 net.cpp:386] inception_4a/relu_3x3 -> inception_4a/3x3 (in-place)
I0403 15:22:41.351842  3015 net.cpp:141] Setting up inception_4a/relu_3x3
I0403 15:22:41.351871  3015 net.cpp:148] Top shape: 24 208 14 14 (978432)
I0403 15:22:41.351887  3015 net.cpp:156] Memory required for data: 873063456
I0403 15:22:41.351902  3015 layer_factory.hpp:77] Creating layer inception_4a/5x5_reduce
I0403 15:22:41.351923  3015 net.cpp:91] Creating Layer inception_4a/5x5_reduce
I0403 15:22:41.351941  3015 net.cpp:425] inception_4a/5x5_reduce <- pool3/3x3_s2_pool3/3x3_s2_0_split_2
I0403 15:22:41.351959  3015 net.cpp:399] inception_4a/5x5_reduce -> inception_4a/5x5_reduce
I0403 15:22:41.352975  3015 net.cpp:141] Setting up inception_4a/5x5_reduce
I0403 15:22:41.353005  3015 net.cpp:148] Top shape: 24 16 14 14 (75264)
I0403 15:22:41.353021  3015 net.cpp:156] Memory required for data: 873364512
I0403 15:22:41.353039  3015 layer_factory.hpp:77] Creating layer inception_4a/relu_5x5_reduce
I0403 15:22:41.353058  3015 net.cpp:91] Creating Layer inception_4a/relu_5x5_reduce
I0403 15:22:41.353075  3015 net.cpp:425] inception_4a/relu_5x5_reduce <- inception_4a/5x5_reduce
I0403 15:22:41.353093  3015 net.cpp:386] inception_4a/relu_5x5_reduce -> inception_4a/5x5_reduce (in-place)
I0403 15:22:41.353307  3015 net.cpp:141] Setting up inception_4a/relu_5x5_reduce
I0403 15:22:41.353332  3015 net.cpp:148] Top shape: 24 16 14 14 (75264)
I0403 15:22:41.353348  3015 net.cpp:156] Memory required for data: 873665568
I0403 15:22:41.353364  3015 layer_factory.hpp:77] Creating layer inception_4a/5x5
I0403 15:22:41.353387  3015 net.cpp:91] Creating Layer inception_4a/5x5
I0403 15:22:41.353406  3015 net.cpp:425] inception_4a/5x5 <- inception_4a/5x5_reduce
I0403 15:22:41.353428  3015 net.cpp:399] inception_4a/5x5 -> inception_4a/5x5
I0403 15:22:41.354547  3015 net.cpp:141] Setting up inception_4a/5x5
I0403 15:22:41.354574  3015 net.cpp:148] Top shape: 24 48 14 14 (225792)
I0403 15:22:41.354589  3015 net.cpp:156] Memory required for data: 874568736
I0403 15:22:41.354607  3015 layer_factory.hpp:77] Creating layer inception_4a/relu_5x5
I0403 15:22:41.354625  3015 net.cpp:91] Creating Layer inception_4a/relu_5x5
I0403 15:22:41.354640  3015 net.cpp:425] inception_4a/relu_5x5 <- inception_4a/5x5
I0403 15:22:41.354660  3015 net.cpp:386] inception_4a/relu_5x5 -> inception_4a/5x5 (in-place)
I0403 15:22:41.354835  3015 net.cpp:141] Setting up inception_4a/relu_5x5
I0403 15:22:41.354861  3015 net.cpp:148] Top shape: 24 48 14 14 (225792)
I0403 15:22:41.354876  3015 net.cpp:156] Memory required for data: 875471904
I0403 15:22:41.354889  3015 layer_factory.hpp:77] Creating layer inception_4a/pool
I0403 15:22:41.354909  3015 net.cpp:91] Creating Layer inception_4a/pool
I0403 15:22:41.354925  3015 net.cpp:425] inception_4a/pool <- pool3/3x3_s2_pool3/3x3_s2_0_split_3
I0403 15:22:41.354943  3015 net.cpp:399] inception_4a/pool -> inception_4a/pool
I0403 15:22:41.355005  3015 net.cpp:141] Setting up inception_4a/pool
I0403 15:22:41.355027  3015 net.cpp:148] Top shape: 24 480 14 14 (2257920)
I0403 15:22:41.355041  3015 net.cpp:156] Memory required for data: 884503584
I0403 15:22:41.355056  3015 layer_factory.hpp:77] Creating layer inception_4a/pool_proj
I0403 15:22:41.355077  3015 net.cpp:91] Creating Layer inception_4a/pool_proj
I0403 15:22:41.355094  3015 net.cpp:425] inception_4a/pool_proj <- inception_4a/pool
I0403 15:22:41.355114  3015 net.cpp:399] inception_4a/pool_proj -> inception_4a/pool_proj
I0403 15:22:41.356273  3015 net.cpp:141] Setting up inception_4a/pool_proj
I0403 15:22:41.356302  3015 net.cpp:148] Top shape: 24 64 14 14 (301056)
I0403 15:22:41.356331  3015 net.cpp:156] Memory required for data: 885707808
I0403 15:22:41.356351  3015 layer_factory.hpp:77] Creating layer inception_4a/relu_pool_proj
I0403 15:22:41.356372  3015 net.cpp:91] Creating Layer inception_4a/relu_pool_proj
I0403 15:22:41.356389  3015 net.cpp:425] inception_4a/relu_pool_proj <- inception_4a/pool_proj
I0403 15:22:41.356406  3015 net.cpp:386] inception_4a/relu_pool_proj -> inception_4a/pool_proj (in-place)
I0403 15:22:41.356688  3015 net.cpp:141] Setting up inception_4a/relu_pool_proj
I0403 15:22:41.356714  3015 net.cpp:148] Top shape: 24 64 14 14 (301056)
I0403 15:22:41.356729  3015 net.cpp:156] Memory required for data: 886912032
I0403 15:22:41.356745  3015 layer_factory.hpp:77] Creating layer inception_4a/output
I0403 15:22:41.356761  3015 net.cpp:91] Creating Layer inception_4a/output
I0403 15:22:41.356776  3015 net.cpp:425] inception_4a/output <- inception_4a/1x1
I0403 15:22:41.356796  3015 net.cpp:425] inception_4a/output <- inception_4a/3x3
I0403 15:22:41.356812  3015 net.cpp:425] inception_4a/output <- inception_4a/5x5
I0403 15:22:41.356828  3015 net.cpp:425] inception_4a/output <- inception_4a/pool_proj
I0403 15:22:41.356844  3015 net.cpp:399] inception_4a/output -> inception_4a/output
I0403 15:22:41.356890  3015 net.cpp:141] Setting up inception_4a/output
I0403 15:22:41.356912  3015 net.cpp:148] Top shape: 24 512 14 14 (2408448)
I0403 15:22:41.356927  3015 net.cpp:156] Memory required for data: 896545824
I0403 15:22:41.356941  3015 layer_factory.hpp:77] Creating layer inception_4a/output_inception_4a/output_0_split
I0403 15:22:41.356959  3015 net.cpp:91] Creating Layer inception_4a/output_inception_4a/output_0_split
I0403 15:22:41.356974  3015 net.cpp:425] inception_4a/output_inception_4a/output_0_split <- inception_4a/output
I0403 15:22:41.356994  3015 net.cpp:399] inception_4a/output_inception_4a/output_0_split -> inception_4a/output_inception_4a/output_0_split_0
I0403 15:22:41.357015  3015 net.cpp:399] inception_4a/output_inception_4a/output_0_split -> inception_4a/output_inception_4a/output_0_split_1
I0403 15:22:41.357036  3015 net.cpp:399] inception_4a/output_inception_4a/output_0_split -> inception_4a/output_inception_4a/output_0_split_2
I0403 15:22:41.357056  3015 net.cpp:399] inception_4a/output_inception_4a/output_0_split -> inception_4a/output_inception_4a/output_0_split_3
I0403 15:22:41.357076  3015 net.cpp:399] inception_4a/output_inception_4a/output_0_split -> inception_4a/output_inception_4a/output_0_split_4
I0403 15:22:41.357167  3015 net.cpp:141] Setting up inception_4a/output_inception_4a/output_0_split
I0403 15:22:41.357210  3015 net.cpp:148] Top shape: 24 512 14 14 (2408448)
I0403 15:22:41.357228  3015 net.cpp:148] Top shape: 24 512 14 14 (2408448)
I0403 15:22:41.357246  3015 net.cpp:148] Top shape: 24 512 14 14 (2408448)
I0403 15:22:41.357262  3015 net.cpp:148] Top shape: 24 512 14 14 (2408448)
I0403 15:22:41.357278  3015 net.cpp:148] Top shape: 24 512 14 14 (2408448)
I0403 15:22:41.357292  3015 net.cpp:156] Memory required for data: 944714784
I0403 15:22:41.357306  3015 layer_factory.hpp:77] Creating layer loss1/ave_pool
I0403 15:22:41.357324  3015 net.cpp:91] Creating Layer loss1/ave_pool
I0403 15:22:41.357339  3015 net.cpp:425] loss1/ave_pool <- inception_4a/output_inception_4a/output_0_split_0
I0403 15:22:41.357360  3015 net.cpp:399] loss1/ave_pool -> loss1/ave_pool
I0403 15:22:41.357568  3015 net.cpp:141] Setting up loss1/ave_pool
I0403 15:22:41.357594  3015 net.cpp:148] Top shape: 24 512 4 4 (196608)
I0403 15:22:41.357609  3015 net.cpp:156] Memory required for data: 945501216
I0403 15:22:41.357625  3015 layer_factory.hpp:77] Creating layer loss1/conv
I0403 15:22:41.357647  3015 net.cpp:91] Creating Layer loss1/conv
I0403 15:22:41.357666  3015 net.cpp:425] loss1/conv <- loss1/ave_pool
I0403 15:22:41.357686  3015 net.cpp:399] loss1/conv -> loss1/conv
I0403 15:22:41.359115  3015 net.cpp:141] Setting up loss1/conv
I0403 15:22:41.359148  3015 net.cpp:148] Top shape: 24 128 4 4 (49152)
I0403 15:22:41.359182  3015 net.cpp:156] Memory required for data: 945697824
I0403 15:22:41.359205  3015 layer_factory.hpp:77] Creating layer loss1/relu_conv
I0403 15:22:41.359223  3015 net.cpp:91] Creating Layer loss1/relu_conv
I0403 15:22:41.359241  3015 net.cpp:425] loss1/relu_conv <- loss1/conv
I0403 15:22:41.359257  3015 net.cpp:386] loss1/relu_conv -> loss1/conv (in-place)
I0403 15:22:41.359544  3015 net.cpp:141] Setting up loss1/relu_conv
I0403 15:22:41.359573  3015 net.cpp:148] Top shape: 24 128 4 4 (49152)
I0403 15:22:41.359589  3015 net.cpp:156] Memory required for data: 945894432
I0403 15:22:41.359606  3015 layer_factory.hpp:77] Creating layer loss1/fc
I0403 15:22:41.359628  3015 net.cpp:91] Creating Layer loss1/fc
I0403 15:22:41.359647  3015 net.cpp:425] loss1/fc <- loss1/conv
I0403 15:22:41.359671  3015 net.cpp:399] loss1/fc -> loss1/fc
I0403 15:22:41.378464  3015 net.cpp:141] Setting up loss1/fc
I0403 15:22:41.378507  3015 net.cpp:148] Top shape: 24 1024 (24576)
I0403 15:22:41.378523  3015 net.cpp:156] Memory required for data: 945992736
I0403 15:22:41.378545  3015 layer_factory.hpp:77] Creating layer loss1/relu_fc
I0403 15:22:41.378567  3015 net.cpp:91] Creating Layer loss1/relu_fc
I0403 15:22:41.378585  3015 net.cpp:425] loss1/relu_fc <- loss1/fc
I0403 15:22:41.378604  3015 net.cpp:386] loss1/relu_fc -> loss1/fc (in-place)
I0403 15:22:41.378821  3015 net.cpp:141] Setting up loss1/relu_fc
I0403 15:22:41.378849  3015 net.cpp:148] Top shape: 24 1024 (24576)
I0403 15:22:41.378865  3015 net.cpp:156] Memory required for data: 946091040
I0403 15:22:41.378881  3015 layer_factory.hpp:77] Creating layer loss1/drop_fc
I0403 15:22:41.378911  3015 net.cpp:91] Creating Layer loss1/drop_fc
I0403 15:22:41.378929  3015 net.cpp:425] loss1/drop_fc <- loss1/fc
I0403 15:22:41.378947  3015 net.cpp:386] loss1/drop_fc -> loss1/fc (in-place)
I0403 15:22:41.379001  3015 net.cpp:141] Setting up loss1/drop_fc
I0403 15:22:41.379024  3015 net.cpp:148] Top shape: 24 1024 (24576)
I0403 15:22:41.379040  3015 net.cpp:156] Memory required for data: 946189344
I0403 15:22:41.379055  3015 layer_factory.hpp:77] Creating layer loss1/classifier_plantvillage
I0403 15:22:41.379078  3015 net.cpp:91] Creating Layer loss1/classifier_plantvillage
I0403 15:22:41.379096  3015 net.cpp:425] loss1/classifier_plantvillage <- loss1/fc
I0403 15:22:41.379113  3015 net.cpp:399] loss1/classifier_plantvillage -> loss1/classifier_plantvillage
I0403 15:22:41.380079  3015 net.cpp:141] Setting up loss1/classifier_plantvillage
I0403 15:22:41.380110  3015 net.cpp:148] Top shape: 24 38 (912)
I0403 15:22:41.380128  3015 net.cpp:156] Memory required for data: 946192992
I0403 15:22:41.380146  3015 layer_factory.hpp:77] Creating layer loss1/classifier_plantvillage_loss1/classifier_plantvillage_0_split
I0403 15:22:41.380165  3015 net.cpp:91] Creating Layer loss1/classifier_plantvillage_loss1/classifier_plantvillage_0_split
I0403 15:22:41.380187  3015 net.cpp:425] loss1/classifier_plantvillage_loss1/classifier_plantvillage_0_split <- loss1/classifier_plantvillage
I0403 15:22:41.380206  3015 net.cpp:399] loss1/classifier_plantvillage_loss1/classifier_plantvillage_0_split -> loss1/classifier_plantvillage_loss1/classifier_plantvillage_0_split_0
I0403 15:22:41.380228  3015 net.cpp:399] loss1/classifier_plantvillage_loss1/classifier_plantvillage_0_split -> loss1/classifier_plantvillage_loss1/classifier_plantvillage_0_split_1
I0403 15:22:41.380249  3015 net.cpp:399] loss1/classifier_plantvillage_loss1/classifier_plantvillage_0_split -> loss1/classifier_plantvillage_loss1/classifier_plantvillage_0_split_2
I0403 15:22:41.380318  3015 net.cpp:141] Setting up loss1/classifier_plantvillage_loss1/classifier_plantvillage_0_split
I0403 15:22:41.380342  3015 net.cpp:148] Top shape: 24 38 (912)
I0403 15:22:41.380358  3015 net.cpp:148] Top shape: 24 38 (912)
I0403 15:22:41.380374  3015 net.cpp:148] Top shape: 24 38 (912)
I0403 15:22:41.380388  3015 net.cpp:156] Memory required for data: 946203936
I0403 15:22:41.380403  3015 layer_factory.hpp:77] Creating layer inception_4b/1x1
I0403 15:22:41.380424  3015 net.cpp:91] Creating Layer inception_4b/1x1
I0403 15:22:41.380468  3015 net.cpp:425] inception_4b/1x1 <- inception_4a/output_inception_4a/output_0_split_1
I0403 15:22:41.380491  3015 net.cpp:399] inception_4b/1x1 -> inception_4b/1x1
I0403 15:22:41.382236  3015 net.cpp:141] Setting up inception_4b/1x1
I0403 15:22:41.382267  3015 net.cpp:148] Top shape: 24 160 14 14 (752640)
I0403 15:22:41.382284  3015 net.cpp:156] Memory required for data: 949214496
I0403 15:22:41.382303  3015 layer_factory.hpp:77] Creating layer inception_4b/relu_1x1
I0403 15:22:41.382321  3015 net.cpp:91] Creating Layer inception_4b/relu_1x1
I0403 15:22:41.382339  3015 net.cpp:425] inception_4b/relu_1x1 <- inception_4b/1x1
I0403 15:22:41.382357  3015 net.cpp:386] inception_4b/relu_1x1 -> inception_4b/1x1 (in-place)
I0403 15:22:41.382544  3015 net.cpp:141] Setting up inception_4b/relu_1x1
I0403 15:22:41.382570  3015 net.cpp:148] Top shape: 24 160 14 14 (752640)
I0403 15:22:41.382586  3015 net.cpp:156] Memory required for data: 952225056
I0403 15:22:41.382601  3015 layer_factory.hpp:77] Creating layer inception_4b/3x3_reduce
I0403 15:22:41.382623  3015 net.cpp:91] Creating Layer inception_4b/3x3_reduce
I0403 15:22:41.382642  3015 net.cpp:425] inception_4b/3x3_reduce <- inception_4a/output_inception_4a/output_0_split_2
I0403 15:22:41.382663  3015 net.cpp:399] inception_4b/3x3_reduce -> inception_4b/3x3_reduce
I0403 15:22:41.384054  3015 net.cpp:141] Setting up inception_4b/3x3_reduce
I0403 15:22:41.384083  3015 net.cpp:148] Top shape: 24 112 14 14 (526848)
I0403 15:22:41.384099  3015 net.cpp:156] Memory required for data: 954332448
I0403 15:22:41.384117  3015 layer_factory.hpp:77] Creating layer inception_4b/relu_3x3_reduce
I0403 15:22:41.384135  3015 net.cpp:91] Creating Layer inception_4b/relu_3x3_reduce
I0403 15:22:41.384156  3015 net.cpp:425] inception_4b/relu_3x3_reduce <- inception_4b/3x3_reduce
I0403 15:22:41.384173  3015 net.cpp:386] inception_4b/relu_3x3_reduce -> inception_4b/3x3_reduce (in-place)
I0403 15:22:41.384465  3015 net.cpp:141] Setting up inception_4b/relu_3x3_reduce
I0403 15:22:41.384492  3015 net.cpp:148] Top shape: 24 112 14 14 (526848)
I0403 15:22:41.384508  3015 net.cpp:156] Memory required for data: 956439840
I0403 15:22:41.384522  3015 layer_factory.hpp:77] Creating layer inception_4b/3x3
I0403 15:22:41.384546  3015 net.cpp:91] Creating Layer inception_4b/3x3
I0403 15:22:41.384564  3015 net.cpp:425] inception_4b/3x3 <- inception_4b/3x3_reduce
I0403 15:22:41.384588  3015 net.cpp:399] inception_4b/3x3 -> inception_4b/3x3
I0403 15:22:41.387696  3015 net.cpp:141] Setting up inception_4b/3x3
I0403 15:22:41.387727  3015 net.cpp:148] Top shape: 24 224 14 14 (1053696)
I0403 15:22:41.387742  3015 net.cpp:156] Memory required for data: 960654624
I0403 15:22:41.387761  3015 layer_factory.hpp:77] Creating layer inception_4b/relu_3x3
I0403 15:22:41.387783  3015 net.cpp:91] Creating Layer inception_4b/relu_3x3
I0403 15:22:41.387800  3015 net.cpp:425] inception_4b/relu_3x3 <- inception_4b/3x3
I0403 15:22:41.387819  3015 net.cpp:386] inception_4b/relu_3x3 -> inception_4b/3x3 (in-place)
I0403 15:22:41.388002  3015 net.cpp:141] Setting up inception_4b/relu_3x3
I0403 15:22:41.388031  3015 net.cpp:148] Top shape: 24 224 14 14 (1053696)
I0403 15:22:41.388046  3015 net.cpp:156] Memory required for data: 964869408
I0403 15:22:41.388062  3015 layer_factory.hpp:77] Creating layer inception_4b/5x5_reduce
I0403 15:22:41.388083  3015 net.cpp:91] Creating Layer inception_4b/5x5_reduce
I0403 15:22:41.388101  3015 net.cpp:425] inception_4b/5x5_reduce <- inception_4a/output_inception_4a/output_0_split_3
I0403 15:22:41.388121  3015 net.cpp:399] inception_4b/5x5_reduce -> inception_4b/5x5_reduce
I0403 15:22:41.389250  3015 net.cpp:141] Setting up inception_4b/5x5_reduce
I0403 15:22:41.389282  3015 net.cpp:148] Top shape: 24 24 14 14 (112896)
I0403 15:22:41.389300  3015 net.cpp:156] Memory required for data: 965320992
I0403 15:22:41.389320  3015 layer_factory.hpp:77] Creating layer inception_4b/relu_5x5_reduce
I0403 15:22:41.389339  3015 net.cpp:91] Creating Layer inception_4b/relu_5x5_reduce
I0403 15:22:41.389370  3015 net.cpp:425] inception_4b/relu_5x5_reduce <- inception_4b/5x5_reduce
I0403 15:22:41.389394  3015 net.cpp:386] inception_4b/relu_5x5_reduce -> inception_4b/5x5_reduce (in-place)
I0403 15:22:41.389583  3015 net.cpp:141] Setting up inception_4b/relu_5x5_reduce
I0403 15:22:41.389611  3015 net.cpp:148] Top shape: 24 24 14 14 (112896)
I0403 15:22:41.389626  3015 net.cpp:156] Memory required for data: 965772576
I0403 15:22:41.389641  3015 layer_factory.hpp:77] Creating layer inception_4b/5x5
I0403 15:22:41.389663  3015 net.cpp:91] Creating Layer inception_4b/5x5
I0403 15:22:41.389681  3015 net.cpp:425] inception_4b/5x5 <- inception_4b/5x5_reduce
I0403 15:22:41.389703  3015 net.cpp:399] inception_4b/5x5 -> inception_4b/5x5
I0403 15:22:41.390969  3015 net.cpp:141] Setting up inception_4b/5x5
I0403 15:22:41.391000  3015 net.cpp:148] Top shape: 24 64 14 14 (301056)
I0403 15:22:41.391017  3015 net.cpp:156] Memory required for data: 966976800
I0403 15:22:41.391036  3015 layer_factory.hpp:77] Creating layer inception_4b/relu_5x5
I0403 15:22:41.391054  3015 net.cpp:91] Creating Layer inception_4b/relu_5x5
I0403 15:22:41.391070  3015 net.cpp:425] inception_4b/relu_5x5 <- inception_4b/5x5
I0403 15:22:41.391088  3015 net.cpp:386] inception_4b/relu_5x5 -> inception_4b/5x5 (in-place)
I0403 15:22:41.391389  3015 net.cpp:141] Setting up inception_4b/relu_5x5
I0403 15:22:41.391419  3015 net.cpp:148] Top shape: 24 64 14 14 (301056)
I0403 15:22:41.391436  3015 net.cpp:156] Memory required for data: 968181024
I0403 15:22:41.391451  3015 layer_factory.hpp:77] Creating layer inception_4b/pool
I0403 15:22:41.391470  3015 net.cpp:91] Creating Layer inception_4b/pool
I0403 15:22:41.391489  3015 net.cpp:425] inception_4b/pool <- inception_4a/output_inception_4a/output_0_split_4
I0403 15:22:41.391511  3015 net.cpp:399] inception_4b/pool -> inception_4b/pool
I0403 15:22:41.391580  3015 net.cpp:141] Setting up inception_4b/pool
I0403 15:22:41.391607  3015 net.cpp:148] Top shape: 24 512 14 14 (2408448)
I0403 15:22:41.391621  3015 net.cpp:156] Memory required for data: 977814816
I0403 15:22:41.391635  3015 layer_factory.hpp:77] Creating layer inception_4b/pool_proj
I0403 15:22:41.391659  3015 net.cpp:91] Creating Layer inception_4b/pool_proj
I0403 15:22:41.391679  3015 net.cpp:425] inception_4b/pool_proj <- inception_4b/pool
I0403 15:22:41.391698  3015 net.cpp:399] inception_4b/pool_proj -> inception_4b/pool_proj
I0403 15:22:41.392943  3015 net.cpp:141] Setting up inception_4b/pool_proj
I0403 15:22:41.392972  3015 net.cpp:148] Top shape: 24 64 14 14 (301056)
I0403 15:22:41.392988  3015 net.cpp:156] Memory required for data: 979019040
I0403 15:22:41.393007  3015 layer_factory.hpp:77] Creating layer inception_4b/relu_pool_proj
I0403 15:22:41.393026  3015 net.cpp:91] Creating Layer inception_4b/relu_pool_proj
I0403 15:22:41.393044  3015 net.cpp:425] inception_4b/relu_pool_proj <- inception_4b/pool_proj
I0403 15:22:41.393065  3015 net.cpp:386] inception_4b/relu_pool_proj -> inception_4b/pool_proj (in-place)
I0403 15:22:41.393260  3015 net.cpp:141] Setting up inception_4b/relu_pool_proj
I0403 15:22:41.393286  3015 net.cpp:148] Top shape: 24 64 14 14 (301056)
I0403 15:22:41.393302  3015 net.cpp:156] Memory required for data: 980223264
I0403 15:22:41.393317  3015 layer_factory.hpp:77] Creating layer inception_4b/output
I0403 15:22:41.393335  3015 net.cpp:91] Creating Layer inception_4b/output
I0403 15:22:41.393354  3015 net.cpp:425] inception_4b/output <- inception_4b/1x1
I0403 15:22:41.393373  3015 net.cpp:425] inception_4b/output <- inception_4b/3x3
I0403 15:22:41.393389  3015 net.cpp:425] inception_4b/output <- inception_4b/5x5
I0403 15:22:41.393405  3015 net.cpp:425] inception_4b/output <- inception_4b/pool_proj
I0403 15:22:41.393422  3015 net.cpp:399] inception_4b/output -> inception_4b/output
I0403 15:22:41.393470  3015 net.cpp:141] Setting up inception_4b/output
I0403 15:22:41.393496  3015 net.cpp:148] Top shape: 24 512 14 14 (2408448)
I0403 15:22:41.393512  3015 net.cpp:156] Memory required for data: 989857056
I0403 15:22:41.393544  3015 layer_factory.hpp:77] Creating layer inception_4b/output_inception_4b/output_0_split
I0403 15:22:41.393564  3015 net.cpp:91] Creating Layer inception_4b/output_inception_4b/output_0_split
I0403 15:22:41.393580  3015 net.cpp:425] inception_4b/output_inception_4b/output_0_split <- inception_4b/output
I0403 15:22:41.393600  3015 net.cpp:399] inception_4b/output_inception_4b/output_0_split -> inception_4b/output_inception_4b/output_0_split_0
I0403 15:22:41.393622  3015 net.cpp:399] inception_4b/output_inception_4b/output_0_split -> inception_4b/output_inception_4b/output_0_split_1
I0403 15:22:41.393646  3015 net.cpp:399] inception_4b/output_inception_4b/output_0_split -> inception_4b/output_inception_4b/output_0_split_2
I0403 15:22:41.393667  3015 net.cpp:399] inception_4b/output_inception_4b/output_0_split -> inception_4b/output_inception_4b/output_0_split_3
I0403 15:22:41.393750  3015 net.cpp:141] Setting up inception_4b/output_inception_4b/output_0_split
I0403 15:22:41.393775  3015 net.cpp:148] Top shape: 24 512 14 14 (2408448)
I0403 15:22:41.393792  3015 net.cpp:148] Top shape: 24 512 14 14 (2408448)
I0403 15:22:41.393808  3015 net.cpp:148] Top shape: 24 512 14 14 (2408448)
I0403 15:22:41.393824  3015 net.cpp:148] Top shape: 24 512 14 14 (2408448)
I0403 15:22:41.393839  3015 net.cpp:156] Memory required for data: 1028392224
I0403 15:22:41.393853  3015 layer_factory.hpp:77] Creating layer inception_4c/1x1
I0403 15:22:41.393877  3015 net.cpp:91] Creating Layer inception_4c/1x1
I0403 15:22:41.393894  3015 net.cpp:425] inception_4c/1x1 <- inception_4b/output_inception_4b/output_0_split_0
I0403 15:22:41.393913  3015 net.cpp:399] inception_4c/1x1 -> inception_4c/1x1
I0403 15:22:41.395391  3015 net.cpp:141] Setting up inception_4c/1x1
I0403 15:22:41.395421  3015 net.cpp:148] Top shape: 24 128 14 14 (602112)
I0403 15:22:41.395437  3015 net.cpp:156] Memory required for data: 1030800672
I0403 15:22:41.395455  3015 layer_factory.hpp:77] Creating layer inception_4c/relu_1x1
I0403 15:22:41.395478  3015 net.cpp:91] Creating Layer inception_4c/relu_1x1
I0403 15:22:41.395495  3015 net.cpp:425] inception_4c/relu_1x1 <- inception_4c/1x1
I0403 15:22:41.395512  3015 net.cpp:386] inception_4c/relu_1x1 -> inception_4c/1x1 (in-place)
I0403 15:22:41.395701  3015 net.cpp:141] Setting up inception_4c/relu_1x1
I0403 15:22:41.395727  3015 net.cpp:148] Top shape: 24 128 14 14 (602112)
I0403 15:22:41.395742  3015 net.cpp:156] Memory required for data: 1033209120
I0403 15:22:41.395757  3015 layer_factory.hpp:77] Creating layer inception_4c/3x3_reduce
I0403 15:22:41.395782  3015 net.cpp:91] Creating Layer inception_4c/3x3_reduce
I0403 15:22:41.395802  3015 net.cpp:425] inception_4c/3x3_reduce <- inception_4b/output_inception_4b/output_0_split_1
I0403 15:22:41.395822  3015 net.cpp:399] inception_4c/3x3_reduce -> inception_4c/3x3_reduce
I0403 15:22:41.397826  3015 net.cpp:141] Setting up inception_4c/3x3_reduce
I0403 15:22:41.397858  3015 net.cpp:148] Top shape: 24 128 14 14 (602112)
I0403 15:22:41.397876  3015 net.cpp:156] Memory required for data: 1035617568
I0403 15:22:41.397896  3015 layer_factory.hpp:77] Creating layer inception_4c/relu_3x3_reduce
I0403 15:22:41.397914  3015 net.cpp:91] Creating Layer inception_4c/relu_3x3_reduce
I0403 15:22:41.397933  3015 net.cpp:425] inception_4c/relu_3x3_reduce <- inception_4c/3x3_reduce
I0403 15:22:41.397953  3015 net.cpp:386] inception_4c/relu_3x3_reduce -> inception_4c/3x3_reduce (in-place)
I0403 15:22:41.398252  3015 net.cpp:141] Setting up inception_4c/relu_3x3_reduce
I0403 15:22:41.398283  3015 net.cpp:148] Top shape: 24 128 14 14 (602112)
I0403 15:22:41.398299  3015 net.cpp:156] Memory required for data: 1038026016
I0403 15:22:41.398315  3015 layer_factory.hpp:77] Creating layer inception_4c/3x3
I0403 15:22:41.398339  3015 net.cpp:91] Creating Layer inception_4c/3x3
I0403 15:22:41.398357  3015 net.cpp:425] inception_4c/3x3 <- inception_4c/3x3_reduce
I0403 15:22:41.398377  3015 net.cpp:399] inception_4c/3x3 -> inception_4c/3x3
I0403 15:22:41.402102  3015 net.cpp:141] Setting up inception_4c/3x3
I0403 15:22:41.402148  3015 net.cpp:148] Top shape: 24 256 14 14 (1204224)
I0403 15:22:41.402165  3015 net.cpp:156] Memory required for data: 1042842912
I0403 15:22:41.402214  3015 layer_factory.hpp:77] Creating layer inception_4c/relu_3x3
I0403 15:22:41.402237  3015 net.cpp:91] Creating Layer inception_4c/relu_3x3
I0403 15:22:41.402254  3015 net.cpp:425] inception_4c/relu_3x3 <- inception_4c/3x3
I0403 15:22:41.402276  3015 net.cpp:386] inception_4c/relu_3x3 -> inception_4c/3x3 (in-place)
I0403 15:22:41.402462  3015 net.cpp:141] Setting up inception_4c/relu_3x3
I0403 15:22:41.402490  3015 net.cpp:148] Top shape: 24 256 14 14 (1204224)
I0403 15:22:41.402508  3015 net.cpp:156] Memory required for data: 1047659808
I0403 15:22:41.402524  3015 layer_factory.hpp:77] Creating layer inception_4c/5x5_reduce
I0403 15:22:41.402547  3015 net.cpp:91] Creating Layer inception_4c/5x5_reduce
I0403 15:22:41.402565  3015 net.cpp:425] inception_4c/5x5_reduce <- inception_4b/output_inception_4b/output_0_split_2
I0403 15:22:41.402586  3015 net.cpp:399] inception_4c/5x5_reduce -> inception_4c/5x5_reduce
I0403 15:22:41.403717  3015 net.cpp:141] Setting up inception_4c/5x5_reduce
I0403 15:22:41.403748  3015 net.cpp:148] Top shape: 24 24 14 14 (112896)
I0403 15:22:41.403767  3015 net.cpp:156] Memory required for data: 1048111392
I0403 15:22:41.403787  3015 layer_factory.hpp:77] Creating layer inception_4c/relu_5x5_reduce
I0403 15:22:41.403805  3015 net.cpp:91] Creating Layer inception_4c/relu_5x5_reduce
I0403 15:22:41.403821  3015 net.cpp:425] inception_4c/relu_5x5_reduce <- inception_4c/5x5_reduce
I0403 15:22:41.403842  3015 net.cpp:386] inception_4c/relu_5x5_reduce -> inception_4c/5x5_reduce (in-place)
I0403 15:22:41.404034  3015 net.cpp:141] Setting up inception_4c/relu_5x5_reduce
I0403 15:22:41.404060  3015 net.cpp:148] Top shape: 24 24 14 14 (112896)
I0403 15:22:41.404075  3015 net.cpp:156] Memory required for data: 1048562976
I0403 15:22:41.404091  3015 layer_factory.hpp:77] Creating layer inception_4c/5x5
I0403 15:22:41.404114  3015 net.cpp:91] Creating Layer inception_4c/5x5
I0403 15:22:41.404132  3015 net.cpp:425] inception_4c/5x5 <- inception_4c/5x5_reduce
I0403 15:22:41.404153  3015 net.cpp:399] inception_4c/5x5 -> inception_4c/5x5
I0403 15:22:41.405447  3015 net.cpp:141] Setting up inception_4c/5x5
I0403 15:22:41.405475  3015 net.cpp:148] Top shape: 24 64 14 14 (301056)
I0403 15:22:41.405493  3015 net.cpp:156] Memory required for data: 1049767200
I0403 15:22:41.405511  3015 layer_factory.hpp:77] Creating layer inception_4c/relu_5x5
I0403 15:22:41.405532  3015 net.cpp:91] Creating Layer inception_4c/relu_5x5
I0403 15:22:41.405550  3015 net.cpp:425] inception_4c/relu_5x5 <- inception_4c/5x5
I0403 15:22:41.405568  3015 net.cpp:386] inception_4c/relu_5x5 -> inception_4c/5x5 (in-place)
I0403 15:22:41.405870  3015 net.cpp:141] Setting up inception_4c/relu_5x5
I0403 15:22:41.405899  3015 net.cpp:148] Top shape: 24 64 14 14 (301056)
I0403 15:22:41.405915  3015 net.cpp:156] Memory required for data: 1050971424
I0403 15:22:41.405930  3015 layer_factory.hpp:77] Creating layer inception_4c/pool
I0403 15:22:41.405951  3015 net.cpp:91] Creating Layer inception_4c/pool
I0403 15:22:41.405967  3015 net.cpp:425] inception_4c/pool <- inception_4b/output_inception_4b/output_0_split_3
I0403 15:22:41.405987  3015 net.cpp:399] inception_4c/pool -> inception_4c/pool
I0403 15:22:41.406054  3015 net.cpp:141] Setting up inception_4c/pool
I0403 15:22:41.406077  3015 net.cpp:148] Top shape: 24 512 14 14 (2408448)
I0403 15:22:41.406093  3015 net.cpp:156] Memory required for data: 1060605216
I0403 15:22:41.406108  3015 layer_factory.hpp:77] Creating layer inception_4c/pool_proj
I0403 15:22:41.406131  3015 net.cpp:91] Creating Layer inception_4c/pool_proj
I0403 15:22:41.406148  3015 net.cpp:425] inception_4c/pool_proj <- inception_4c/pool
I0403 15:22:41.406170  3015 net.cpp:399] inception_4c/pool_proj -> inception_4c/pool_proj
I0403 15:22:41.407446  3015 net.cpp:141] Setting up inception_4c/pool_proj
I0403 15:22:41.407475  3015 net.cpp:148] Top shape: 24 64 14 14 (301056)
I0403 15:22:41.407505  3015 net.cpp:156] Memory required for data: 1061809440
I0403 15:22:41.407526  3015 layer_factory.hpp:77] Creating layer inception_4c/relu_pool_proj
I0403 15:22:41.407543  3015 net.cpp:91] Creating Layer inception_4c/relu_pool_proj
I0403 15:22:41.407560  3015 net.cpp:425] inception_4c/relu_pool_proj <- inception_4c/pool_proj
I0403 15:22:41.407580  3015 net.cpp:386] inception_4c/relu_pool_proj -> inception_4c/pool_proj (in-place)
I0403 15:22:41.407771  3015 net.cpp:141] Setting up inception_4c/relu_pool_proj
I0403 15:22:41.407799  3015 net.cpp:148] Top shape: 24 64 14 14 (301056)
I0403 15:22:41.407814  3015 net.cpp:156] Memory required for data: 1063013664
I0403 15:22:41.407829  3015 layer_factory.hpp:77] Creating layer inception_4c/output
I0403 15:22:41.407845  3015 net.cpp:91] Creating Layer inception_4c/output
I0403 15:22:41.407861  3015 net.cpp:425] inception_4c/output <- inception_4c/1x1
I0403 15:22:41.407878  3015 net.cpp:425] inception_4c/output <- inception_4c/3x3
I0403 15:22:41.407901  3015 net.cpp:425] inception_4c/output <- inception_4c/5x5
I0403 15:22:41.407917  3015 net.cpp:425] inception_4c/output <- inception_4c/pool_proj
I0403 15:22:41.407935  3015 net.cpp:399] inception_4c/output -> inception_4c/output
I0403 15:22:41.407994  3015 net.cpp:141] Setting up inception_4c/output
I0403 15:22:41.408017  3015 net.cpp:148] Top shape: 24 512 14 14 (2408448)
I0403 15:22:41.408032  3015 net.cpp:156] Memory required for data: 1072647456
I0403 15:22:41.408047  3015 layer_factory.hpp:77] Creating layer inception_4c/output_inception_4c/output_0_split
I0403 15:22:41.408064  3015 net.cpp:91] Creating Layer inception_4c/output_inception_4c/output_0_split
I0403 15:22:41.408079  3015 net.cpp:425] inception_4c/output_inception_4c/output_0_split <- inception_4c/output
I0403 15:22:41.408098  3015 net.cpp:399] inception_4c/output_inception_4c/output_0_split -> inception_4c/output_inception_4c/output_0_split_0
I0403 15:22:41.408119  3015 net.cpp:399] inception_4c/output_inception_4c/output_0_split -> inception_4c/output_inception_4c/output_0_split_1
I0403 15:22:41.408139  3015 net.cpp:399] inception_4c/output_inception_4c/output_0_split -> inception_4c/output_inception_4c/output_0_split_2
I0403 15:22:41.408159  3015 net.cpp:399] inception_4c/output_inception_4c/output_0_split -> inception_4c/output_inception_4c/output_0_split_3
I0403 15:22:41.408278  3015 net.cpp:141] Setting up inception_4c/output_inception_4c/output_0_split
I0403 15:22:41.408305  3015 net.cpp:148] Top shape: 24 512 14 14 (2408448)
I0403 15:22:41.408324  3015 net.cpp:148] Top shape: 24 512 14 14 (2408448)
I0403 15:22:41.408339  3015 net.cpp:148] Top shape: 24 512 14 14 (2408448)
I0403 15:22:41.408354  3015 net.cpp:148] Top shape: 24 512 14 14 (2408448)
I0403 15:22:41.408368  3015 net.cpp:156] Memory required for data: 1111182624
I0403 15:22:41.408383  3015 layer_factory.hpp:77] Creating layer inception_4d/1x1
I0403 15:22:41.408402  3015 net.cpp:91] Creating Layer inception_4d/1x1
I0403 15:22:41.408419  3015 net.cpp:425] inception_4d/1x1 <- inception_4c/output_inception_4c/output_0_split_0
I0403 15:22:41.408442  3015 net.cpp:399] inception_4d/1x1 -> inception_4d/1x1
I0403 15:22:41.409869  3015 net.cpp:141] Setting up inception_4d/1x1
I0403 15:22:41.409898  3015 net.cpp:148] Top shape: 24 112 14 14 (526848)
I0403 15:22:41.409917  3015 net.cpp:156] Memory required for data: 1113290016
I0403 15:22:41.409935  3015 layer_factory.hpp:77] Creating layer inception_4d/relu_1x1
I0403 15:22:41.409955  3015 net.cpp:91] Creating Layer inception_4d/relu_1x1
I0403 15:22:41.409971  3015 net.cpp:425] inception_4d/relu_1x1 <- inception_4d/1x1
I0403 15:22:41.409988  3015 net.cpp:386] inception_4d/relu_1x1 -> inception_4d/1x1 (in-place)
I0403 15:22:41.410187  3015 net.cpp:141] Setting up inception_4d/relu_1x1
I0403 15:22:41.410215  3015 net.cpp:148] Top shape: 24 112 14 14 (526848)
I0403 15:22:41.410231  3015 net.cpp:156] Memory required for data: 1115397408
I0403 15:22:41.410246  3015 layer_factory.hpp:77] Creating layer inception_4d/3x3_reduce
I0403 15:22:41.410284  3015 net.cpp:91] Creating Layer inception_4d/3x3_reduce
I0403 15:22:41.410302  3015 net.cpp:425] inception_4d/3x3_reduce <- inception_4c/output_inception_4c/output_0_split_1
I0403 15:22:41.410322  3015 net.cpp:399] inception_4d/3x3_reduce -> inception_4d/3x3_reduce
I0403 15:22:41.411876  3015 net.cpp:141] Setting up inception_4d/3x3_reduce
I0403 15:22:41.411905  3015 net.cpp:148] Top shape: 24 144 14 14 (677376)
I0403 15:22:41.411921  3015 net.cpp:156] Memory required for data: 1118106912
I0403 15:22:41.411939  3015 layer_factory.hpp:77] Creating layer inception_4d/relu_3x3_reduce
I0403 15:22:41.411960  3015 net.cpp:91] Creating Layer inception_4d/relu_3x3_reduce
I0403 15:22:41.411978  3015 net.cpp:425] inception_4d/relu_3x3_reduce <- inception_4d/3x3_reduce
I0403 15:22:41.411995  3015 net.cpp:386] inception_4d/relu_3x3_reduce -> inception_4d/3x3_reduce (in-place)
I0403 15:22:41.412307  3015 net.cpp:141] Setting up inception_4d/relu_3x3_reduce
I0403 15:22:41.412334  3015 net.cpp:148] Top shape: 24 144 14 14 (677376)
I0403 15:22:41.412350  3015 net.cpp:156] Memory required for data: 1120816416
I0403 15:22:41.412365  3015 layer_factory.hpp:77] Creating layer inception_4d/3x3
I0403 15:22:41.412389  3015 net.cpp:91] Creating Layer inception_4d/3x3
I0403 15:22:41.412406  3015 net.cpp:425] inception_4d/3x3 <- inception_4d/3x3_reduce
I0403 15:22:41.412427  3015 net.cpp:399] inception_4d/3x3 -> inception_4d/3x3
I0403 15:22:41.416924  3015 net.cpp:141] Setting up inception_4d/3x3
I0403 15:22:41.416954  3015 net.cpp:148] Top shape: 24 288 14 14 (1354752)
I0403 15:22:41.416970  3015 net.cpp:156] Memory required for data: 1126235424
I0403 15:22:41.416990  3015 layer_factory.hpp:77] Creating layer inception_4d/relu_3x3
I0403 15:22:41.417011  3015 net.cpp:91] Creating Layer inception_4d/relu_3x3
I0403 15:22:41.417027  3015 net.cpp:425] inception_4d/relu_3x3 <- inception_4d/3x3
I0403 15:22:41.417045  3015 net.cpp:386] inception_4d/relu_3x3 -> inception_4d/3x3 (in-place)
I0403 15:22:41.417244  3015 net.cpp:141] Setting up inception_4d/relu_3x3
I0403 15:22:41.417270  3015 net.cpp:148] Top shape: 24 288 14 14 (1354752)
I0403 15:22:41.417286  3015 net.cpp:156] Memory required for data: 1131654432
I0403 15:22:41.417301  3015 layer_factory.hpp:77] Creating layer inception_4d/5x5_reduce
I0403 15:22:41.417325  3015 net.cpp:91] Creating Layer inception_4d/5x5_reduce
I0403 15:22:41.417343  3015 net.cpp:425] inception_4d/5x5_reduce <- inception_4c/output_inception_4c/output_0_split_2
I0403 15:22:41.417366  3015 net.cpp:399] inception_4d/5x5_reduce -> inception_4d/5x5_reduce
I0403 15:22:41.418550  3015 net.cpp:141] Setting up inception_4d/5x5_reduce
I0403 15:22:41.418581  3015 net.cpp:148] Top shape: 24 32 14 14 (150528)
I0403 15:22:41.418597  3015 net.cpp:156] Memory required for data: 1132256544
I0403 15:22:41.418617  3015 layer_factory.hpp:77] Creating layer inception_4d/relu_5x5_reduce
I0403 15:22:41.418634  3015 net.cpp:91] Creating Layer inception_4d/relu_5x5_reduce
I0403 15:22:41.418650  3015 net.cpp:425] inception_4d/relu_5x5_reduce <- inception_4d/5x5_reduce
I0403 15:22:41.418668  3015 net.cpp:386] inception_4d/relu_5x5_reduce -> inception_4d/5x5_reduce (in-place)
I0403 15:22:41.418861  3015 net.cpp:141] Setting up inception_4d/relu_5x5_reduce
I0403 15:22:41.418889  3015 net.cpp:148] Top shape: 24 32 14 14 (150528)
I0403 15:22:41.418905  3015 net.cpp:156] Memory required for data: 1132858656
I0403 15:22:41.418920  3015 layer_factory.hpp:77] Creating layer inception_4d/5x5
I0403 15:22:41.418942  3015 net.cpp:91] Creating Layer inception_4d/5x5
I0403 15:22:41.418961  3015 net.cpp:425] inception_4d/5x5 <- inception_4d/5x5_reduce
I0403 15:22:41.418982  3015 net.cpp:399] inception_4d/5x5 -> inception_4d/5x5
I0403 15:22:41.420522  3015 net.cpp:141] Setting up inception_4d/5x5
I0403 15:22:41.420550  3015 net.cpp:148] Top shape: 24 64 14 14 (301056)
I0403 15:22:41.420567  3015 net.cpp:156] Memory required for data: 1134062880
I0403 15:22:41.420586  3015 layer_factory.hpp:77] Creating layer inception_4d/relu_5x5
I0403 15:22:41.420620  3015 net.cpp:91] Creating Layer inception_4d/relu_5x5
I0403 15:22:41.420817  3015 net.cpp:425] inception_4d/relu_5x5 <- inception_4d/5x5
I0403 15:22:41.420837  3015 net.cpp:386] inception_4d/relu_5x5 -> inception_4d/5x5 (in-place)
I0403 15:22:41.421154  3015 net.cpp:141] Setting up inception_4d/relu_5x5
I0403 15:22:41.421188  3015 net.cpp:148] Top shape: 24 64 14 14 (301056)
I0403 15:22:41.421205  3015 net.cpp:156] Memory required for data: 1135267104
I0403 15:22:41.421221  3015 layer_factory.hpp:77] Creating layer inception_4d/pool
I0403 15:22:41.421239  3015 net.cpp:91] Creating Layer inception_4d/pool
I0403 15:22:41.421255  3015 net.cpp:425] inception_4d/pool <- inception_4c/output_inception_4c/output_0_split_3
I0403 15:22:41.421277  3015 net.cpp:399] inception_4d/pool -> inception_4d/pool
I0403 15:22:41.421346  3015 net.cpp:141] Setting up inception_4d/pool
I0403 15:22:41.421372  3015 net.cpp:148] Top shape: 24 512 14 14 (2408448)
I0403 15:22:41.421388  3015 net.cpp:156] Memory required for data: 1144900896
I0403 15:22:41.421403  3015 layer_factory.hpp:77] Creating layer inception_4d/pool_proj
I0403 15:22:41.421425  3015 net.cpp:91] Creating Layer inception_4d/pool_proj
I0403 15:22:41.421443  3015 net.cpp:425] inception_4d/pool_proj <- inception_4d/pool
I0403 15:22:41.421463  3015 net.cpp:399] inception_4d/pool_proj -> inception_4d/pool_proj
I0403 15:22:41.423334  3015 net.cpp:141] Setting up inception_4d/pool_proj
I0403 15:22:41.423364  3015 net.cpp:148] Top shape: 24 64 14 14 (301056)
I0403 15:22:41.423380  3015 net.cpp:156] Memory required for data: 1146105120
I0403 15:22:41.423399  3015 layer_factory.hpp:77] Creating layer inception_4d/relu_pool_proj
I0403 15:22:41.423419  3015 net.cpp:91] Creating Layer inception_4d/relu_pool_proj
I0403 15:22:41.423437  3015 net.cpp:425] inception_4d/relu_pool_proj <- inception_4d/pool_proj
I0403 15:22:41.423454  3015 net.cpp:386] inception_4d/relu_pool_proj -> inception_4d/pool_proj (in-place)
I0403 15:22:41.423648  3015 net.cpp:141] Setting up inception_4d/relu_pool_proj
I0403 15:22:41.423674  3015 net.cpp:148] Top shape: 24 64 14 14 (301056)
I0403 15:22:41.423689  3015 net.cpp:156] Memory required for data: 1147309344
I0403 15:22:41.423704  3015 layer_factory.hpp:77] Creating layer inception_4d/output
I0403 15:22:41.423722  3015 net.cpp:91] Creating Layer inception_4d/output
I0403 15:22:41.423738  3015 net.cpp:425] inception_4d/output <- inception_4d/1x1
I0403 15:22:41.423754  3015 net.cpp:425] inception_4d/output <- inception_4d/3x3
I0403 15:22:41.423771  3015 net.cpp:425] inception_4d/output <- inception_4d/5x5
I0403 15:22:41.423787  3015 net.cpp:425] inception_4d/output <- inception_4d/pool_proj
I0403 15:22:41.423807  3015 net.cpp:399] inception_4d/output -> inception_4d/output
I0403 15:22:41.423857  3015 net.cpp:141] Setting up inception_4d/output
I0403 15:22:41.423883  3015 net.cpp:148] Top shape: 24 528 14 14 (2483712)
I0403 15:22:41.423898  3015 net.cpp:156] Memory required for data: 1157244192
I0403 15:22:41.423913  3015 layer_factory.hpp:77] Creating layer inception_4d/output_inception_4d/output_0_split
I0403 15:22:41.423930  3015 net.cpp:91] Creating Layer inception_4d/output_inception_4d/output_0_split
I0403 15:22:41.423946  3015 net.cpp:425] inception_4d/output_inception_4d/output_0_split <- inception_4d/output
I0403 15:22:41.423964  3015 net.cpp:399] inception_4d/output_inception_4d/output_0_split -> inception_4d/output_inception_4d/output_0_split_0
I0403 15:22:41.423987  3015 net.cpp:399] inception_4d/output_inception_4d/output_0_split -> inception_4d/output_inception_4d/output_0_split_1
I0403 15:22:41.424010  3015 net.cpp:399] inception_4d/output_inception_4d/output_0_split -> inception_4d/output_inception_4d/output_0_split_2
I0403 15:22:41.424031  3015 net.cpp:399] inception_4d/output_inception_4d/output_0_split -> inception_4d/output_inception_4d/output_0_split_3
I0403 15:22:41.424052  3015 net.cpp:399] inception_4d/output_inception_4d/output_0_split -> inception_4d/output_inception_4d/output_0_split_4
I0403 15:22:41.424161  3015 net.cpp:141] Setting up inception_4d/output_inception_4d/output_0_split
I0403 15:22:41.424206  3015 net.cpp:148] Top shape: 24 528 14 14 (2483712)
I0403 15:22:41.424223  3015 net.cpp:148] Top shape: 24 528 14 14 (2483712)
I0403 15:22:41.424239  3015 net.cpp:148] Top shape: 24 528 14 14 (2483712)
I0403 15:22:41.424255  3015 net.cpp:148] Top shape: 24 528 14 14 (2483712)
I0403 15:22:41.424271  3015 net.cpp:148] Top shape: 24 528 14 14 (2483712)
I0403 15:22:41.424285  3015 net.cpp:156] Memory required for data: 1206918432
I0403 15:22:41.424299  3015 layer_factory.hpp:77] Creating layer loss2/ave_pool
I0403 15:22:41.424320  3015 net.cpp:91] Creating Layer loss2/ave_pool
I0403 15:22:41.424337  3015 net.cpp:425] loss2/ave_pool <- inception_4d/output_inception_4d/output_0_split_0
I0403 15:22:41.424356  3015 net.cpp:399] loss2/ave_pool -> loss2/ave_pool
I0403 15:22:41.424681  3015 net.cpp:141] Setting up loss2/ave_pool
I0403 15:22:41.424708  3015 net.cpp:148] Top shape: 24 528 4 4 (202752)
I0403 15:22:41.424724  3015 net.cpp:156] Memory required for data: 1207729440
I0403 15:22:41.424739  3015 layer_factory.hpp:77] Creating layer loss2/conv
I0403 15:22:41.424764  3015 net.cpp:91] Creating Layer loss2/conv
I0403 15:22:41.424782  3015 net.cpp:425] loss2/conv <- loss2/ave_pool
I0403 15:22:41.424803  3015 net.cpp:399] loss2/conv -> loss2/conv
I0403 15:22:41.426787  3015 net.cpp:141] Setting up loss2/conv
I0403 15:22:41.426817  3015 net.cpp:148] Top shape: 24 128 4 4 (49152)
I0403 15:22:41.426834  3015 net.cpp:156] Memory required for data: 1207926048
I0403 15:22:41.426862  3015 layer_factory.hpp:77] Creating layer loss2/relu_conv
I0403 15:22:41.426879  3015 net.cpp:91] Creating Layer loss2/relu_conv
I0403 15:22:41.426895  3015 net.cpp:425] loss2/relu_conv <- loss2/conv
I0403 15:22:41.426915  3015 net.cpp:386] loss2/relu_conv -> loss2/conv (in-place)
I0403 15:22:41.427212  3015 net.cpp:141] Setting up loss2/relu_conv
I0403 15:22:41.427238  3015 net.cpp:148] Top shape: 24 128 4 4 (49152)
I0403 15:22:41.427254  3015 net.cpp:156] Memory required for data: 1208122656
I0403 15:22:41.427268  3015 layer_factory.hpp:77] Creating layer loss2/fc
I0403 15:22:41.427287  3015 net.cpp:91] Creating Layer loss2/fc
I0403 15:22:41.427304  3015 net.cpp:425] loss2/fc <- loss2/conv
I0403 15:22:41.427325  3015 net.cpp:399] loss2/fc -> loss2/fc
I0403 15:22:41.445125  3015 net.cpp:141] Setting up loss2/fc
I0403 15:22:41.445158  3015 net.cpp:148] Top shape: 24 1024 (24576)
I0403 15:22:41.445173  3015 net.cpp:156] Memory required for data: 1208220960
I0403 15:22:41.445199  3015 layer_factory.hpp:77] Creating layer loss2/relu_fc
I0403 15:22:41.445219  3015 net.cpp:91] Creating Layer loss2/relu_fc
I0403 15:22:41.445235  3015 net.cpp:425] loss2/relu_fc <- loss2/fc
I0403 15:22:41.445253  3015 net.cpp:386] loss2/relu_fc -> loss2/fc (in-place)
I0403 15:22:41.445551  3015 net.cpp:141] Setting up loss2/relu_fc
I0403 15:22:41.445580  3015 net.cpp:148] Top shape: 24 1024 (24576)
I0403 15:22:41.445596  3015 net.cpp:156] Memory required for data: 1208319264
I0403 15:22:41.445611  3015 layer_factory.hpp:77] Creating layer loss2/drop_fc
I0403 15:22:41.445629  3015 net.cpp:91] Creating Layer loss2/drop_fc
I0403 15:22:41.445646  3015 net.cpp:425] loss2/drop_fc <- loss2/fc
I0403 15:22:41.445663  3015 net.cpp:386] loss2/drop_fc -> loss2/fc (in-place)
I0403 15:22:41.445713  3015 net.cpp:141] Setting up loss2/drop_fc
I0403 15:22:41.445735  3015 net.cpp:148] Top shape: 24 1024 (24576)
I0403 15:22:41.445749  3015 net.cpp:156] Memory required for data: 1208417568
I0403 15:22:41.445763  3015 layer_factory.hpp:77] Creating layer loss2/classifier_plantvillage
I0403 15:22:41.445783  3015 net.cpp:91] Creating Layer loss2/classifier_plantvillage
I0403 15:22:41.445801  3015 net.cpp:425] loss2/classifier_plantvillage <- loss2/fc
I0403 15:22:41.445818  3015 net.cpp:399] loss2/classifier_plantvillage -> loss2/classifier_plantvillage
I0403 15:22:41.446233  3015 net.cpp:141] Setting up loss2/classifier_plantvillage
I0403 15:22:41.446256  3015 net.cpp:148] Top shape: 24 38 (912)
I0403 15:22:41.446288  3015 net.cpp:156] Memory required for data: 1208421216
I0403 15:22:41.446306  3015 layer_factory.hpp:77] Creating layer loss2/classifier_plantvillage_loss2/classifier_plantvillage_0_split
I0403 15:22:41.446324  3015 net.cpp:91] Creating Layer loss2/classifier_plantvillage_loss2/classifier_plantvillage_0_split
I0403 15:22:41.446341  3015 net.cpp:425] loss2/classifier_plantvillage_loss2/classifier_plantvillage_0_split <- loss2/classifier_plantvillage
I0403 15:22:41.446360  3015 net.cpp:399] loss2/classifier_plantvillage_loss2/classifier_plantvillage_0_split -> loss2/classifier_plantvillage_loss2/classifier_plantvillage_0_split_0
I0403 15:22:41.446382  3015 net.cpp:399] loss2/classifier_plantvillage_loss2/classifier_plantvillage_0_split -> loss2/classifier_plantvillage_loss2/classifier_plantvillage_0_split_1
I0403 15:22:41.446403  3015 net.cpp:399] loss2/classifier_plantvillage_loss2/classifier_plantvillage_0_split -> loss2/classifier_plantvillage_loss2/classifier_plantvillage_0_split_2
I0403 15:22:41.446482  3015 net.cpp:141] Setting up loss2/classifier_plantvillage_loss2/classifier_plantvillage_0_split
I0403 15:22:41.446504  3015 net.cpp:148] Top shape: 24 38 (912)
I0403 15:22:41.446521  3015 net.cpp:148] Top shape: 24 38 (912)
I0403 15:22:41.446537  3015 net.cpp:148] Top shape: 24 38 (912)
I0403 15:22:41.446549  3015 net.cpp:156] Memory required for data: 1208432160
I0403 15:22:41.446564  3015 layer_factory.hpp:77] Creating layer inception_4e/1x1
I0403 15:22:41.446586  3015 net.cpp:91] Creating Layer inception_4e/1x1
I0403 15:22:41.446604  3015 net.cpp:425] inception_4e/1x1 <- inception_4d/output_inception_4d/output_0_split_1
I0403 15:22:41.446622  3015 net.cpp:399] inception_4e/1x1 -> inception_4e/1x1
I0403 15:22:41.448449  3015 net.cpp:141] Setting up inception_4e/1x1
I0403 15:22:41.448477  3015 net.cpp:148] Top shape: 24 256 14 14 (1204224)
I0403 15:22:41.448493  3015 net.cpp:156] Memory required for data: 1213249056
I0403 15:22:41.448511  3015 layer_factory.hpp:77] Creating layer inception_4e/relu_1x1
I0403 15:22:41.448531  3015 net.cpp:91] Creating Layer inception_4e/relu_1x1
I0403 15:22:41.448547  3015 net.cpp:425] inception_4e/relu_1x1 <- inception_4e/1x1
I0403 15:22:41.448565  3015 net.cpp:386] inception_4e/relu_1x1 -> inception_4e/1x1 (in-place)
I0403 15:22:41.448869  3015 net.cpp:141] Setting up inception_4e/relu_1x1
I0403 15:22:41.448895  3015 net.cpp:148] Top shape: 24 256 14 14 (1204224)
I0403 15:22:41.448910  3015 net.cpp:156] Memory required for data: 1218065952
I0403 15:22:41.448925  3015 layer_factory.hpp:77] Creating layer inception_4e/3x3_reduce
I0403 15:22:41.448947  3015 net.cpp:91] Creating Layer inception_4e/3x3_reduce
I0403 15:22:41.448964  3015 net.cpp:425] inception_4e/3x3_reduce <- inception_4d/output_inception_4d/output_0_split_2
I0403 15:22:41.448987  3015 net.cpp:399] inception_4e/3x3_reduce -> inception_4e/3x3_reduce
I0403 15:22:41.451145  3015 net.cpp:141] Setting up inception_4e/3x3_reduce
I0403 15:22:41.451175  3015 net.cpp:148] Top shape: 24 160 14 14 (752640)
I0403 15:22:41.451200  3015 net.cpp:156] Memory required for data: 1221076512
I0403 15:22:41.451220  3015 layer_factory.hpp:77] Creating layer inception_4e/relu_3x3_reduce
I0403 15:22:41.451237  3015 net.cpp:91] Creating Layer inception_4e/relu_3x3_reduce
I0403 15:22:41.451254  3015 net.cpp:425] inception_4e/relu_3x3_reduce <- inception_4e/3x3_reduce
I0403 15:22:41.451274  3015 net.cpp:386] inception_4e/relu_3x3_reduce -> inception_4e/3x3_reduce (in-place)
I0403 15:22:41.451467  3015 net.cpp:141] Setting up inception_4e/relu_3x3_reduce
I0403 15:22:41.451494  3015 net.cpp:148] Top shape: 24 160 14 14 (752640)
I0403 15:22:41.451510  3015 net.cpp:156] Memory required for data: 1224087072
I0403 15:22:41.451525  3015 layer_factory.hpp:77] Creating layer inception_4e/3x3
I0403 15:22:41.451548  3015 net.cpp:91] Creating Layer inception_4e/3x3
I0403 15:22:41.451566  3015 net.cpp:425] inception_4e/3x3 <- inception_4e/3x3_reduce
I0403 15:22:41.451588  3015 net.cpp:399] inception_4e/3x3 -> inception_4e/3x3
I0403 15:22:41.456848  3015 net.cpp:141] Setting up inception_4e/3x3
I0403 15:22:41.456892  3015 net.cpp:148] Top shape: 24 320 14 14 (1505280)
I0403 15:22:41.456908  3015 net.cpp:156] Memory required for data: 1230108192
I0403 15:22:41.456926  3015 layer_factory.hpp:77] Creating layer inception_4e/relu_3x3
I0403 15:22:41.456948  3015 net.cpp:91] Creating Layer inception_4e/relu_3x3
I0403 15:22:41.456964  3015 net.cpp:425] inception_4e/relu_3x3 <- inception_4e/3x3
I0403 15:22:41.456984  3015 net.cpp:386] inception_4e/relu_3x3 -> inception_4e/3x3 (in-place)
I0403 15:22:41.457301  3015 net.cpp:141] Setting up inception_4e/relu_3x3
I0403 15:22:41.457331  3015 net.cpp:148] Top shape: 24 320 14 14 (1505280)
I0403 15:22:41.457348  3015 net.cpp:156] Memory required for data: 1236129312
I0403 15:22:41.457365  3015 layer_factory.hpp:77] Creating layer inception_4e/5x5_reduce
I0403 15:22:41.457384  3015 net.cpp:91] Creating Layer inception_4e/5x5_reduce
I0403 15:22:41.457401  3015 net.cpp:425] inception_4e/5x5_reduce <- inception_4d/output_inception_4d/output_0_split_3
I0403 15:22:41.457424  3015 net.cpp:399] inception_4e/5x5_reduce -> inception_4e/5x5_reduce
I0403 15:22:41.458544  3015 net.cpp:141] Setting up inception_4e/5x5_reduce
I0403 15:22:41.458573  3015 net.cpp:148] Top shape: 24 32 14 14 (150528)
I0403 15:22:41.458590  3015 net.cpp:156] Memory required for data: 1236731424
I0403 15:22:41.458607  3015 layer_factory.hpp:77] Creating layer inception_4e/relu_5x5_reduce
I0403 15:22:41.458626  3015 net.cpp:91] Creating Layer inception_4e/relu_5x5_reduce
I0403 15:22:41.458647  3015 net.cpp:425] inception_4e/relu_5x5_reduce <- inception_4e/5x5_reduce
I0403 15:22:41.458664  3015 net.cpp:386] inception_4e/relu_5x5_reduce -> inception_4e/5x5_reduce (in-place)
I0403 15:22:41.458977  3015 net.cpp:141] Setting up inception_4e/relu_5x5_reduce
I0403 15:22:41.459004  3015 net.cpp:148] Top shape: 24 32 14 14 (150528)
I0403 15:22:41.459020  3015 net.cpp:156] Memory required for data: 1237333536
I0403 15:22:41.459035  3015 layer_factory.hpp:77] Creating layer inception_4e/5x5
I0403 15:22:41.459076  3015 net.cpp:91] Creating Layer inception_4e/5x5
I0403 15:22:41.459096  3015 net.cpp:425] inception_4e/5x5 <- inception_4e/5x5_reduce
I0403 15:22:41.459117  3015 net.cpp:399] inception_4e/5x5 -> inception_4e/5x5
I0403 15:22:41.461033  3015 net.cpp:141] Setting up inception_4e/5x5
I0403 15:22:41.461064  3015 net.cpp:148] Top shape: 24 128 14 14 (602112)
I0403 15:22:41.461082  3015 net.cpp:156] Memory required for data: 1239741984
I0403 15:22:41.461102  3015 layer_factory.hpp:77] Creating layer inception_4e/relu_5x5
I0403 15:22:41.461120  3015 net.cpp:91] Creating Layer inception_4e/relu_5x5
I0403 15:22:41.461136  3015 net.cpp:425] inception_4e/relu_5x5 <- inception_4e/5x5
I0403 15:22:41.461158  3015 net.cpp:386] inception_4e/relu_5x5 -> inception_4e/5x5 (in-place)
I0403 15:22:41.461367  3015 net.cpp:141] Setting up inception_4e/relu_5x5
I0403 15:22:41.461393  3015 net.cpp:148] Top shape: 24 128 14 14 (602112)
I0403 15:22:41.461408  3015 net.cpp:156] Memory required for data: 1242150432
I0403 15:22:41.461424  3015 layer_factory.hpp:77] Creating layer inception_4e/pool
I0403 15:22:41.461442  3015 net.cpp:91] Creating Layer inception_4e/pool
I0403 15:22:41.461459  3015 net.cpp:425] inception_4e/pool <- inception_4d/output_inception_4d/output_0_split_4
I0403 15:22:41.461479  3015 net.cpp:399] inception_4e/pool -> inception_4e/pool
I0403 15:22:41.461554  3015 net.cpp:141] Setting up inception_4e/pool
I0403 15:22:41.461576  3015 net.cpp:148] Top shape: 24 528 14 14 (2483712)
I0403 15:22:41.461591  3015 net.cpp:156] Memory required for data: 1252085280
I0403 15:22:41.461606  3015 layer_factory.hpp:77] Creating layer inception_4e/pool_proj
I0403 15:22:41.461630  3015 net.cpp:91] Creating Layer inception_4e/pool_proj
I0403 15:22:41.461648  3015 net.cpp:425] inception_4e/pool_proj <- inception_4e/pool
I0403 15:22:41.461668  3015 net.cpp:399] inception_4e/pool_proj -> inception_4e/pool_proj
I0403 15:22:41.463244  3015 net.cpp:141] Setting up inception_4e/pool_proj
I0403 15:22:41.463287  3015 net.cpp:148] Top shape: 24 128 14 14 (602112)
I0403 15:22:41.463305  3015 net.cpp:156] Memory required for data: 1254493728
I0403 15:22:41.463323  3015 layer_factory.hpp:77] Creating layer inception_4e/relu_pool_proj
I0403 15:22:41.463342  3015 net.cpp:91] Creating Layer inception_4e/relu_pool_proj
I0403 15:22:41.463359  3015 net.cpp:425] inception_4e/relu_pool_proj <- inception_4e/pool_proj
I0403 15:22:41.463379  3015 net.cpp:386] inception_4e/relu_pool_proj -> inception_4e/pool_proj (in-place)
I0403 15:22:41.463680  3015 net.cpp:141] Setting up inception_4e/relu_pool_proj
I0403 15:22:41.463709  3015 net.cpp:148] Top shape: 24 128 14 14 (602112)
I0403 15:22:41.463726  3015 net.cpp:156] Memory required for data: 1256902176
I0403 15:22:41.463742  3015 layer_factory.hpp:77] Creating layer inception_4e/output
I0403 15:22:41.463759  3015 net.cpp:91] Creating Layer inception_4e/output
I0403 15:22:41.463775  3015 net.cpp:425] inception_4e/output <- inception_4e/1x1
I0403 15:22:41.463793  3015 net.cpp:425] inception_4e/output <- inception_4e/3x3
I0403 15:22:41.463810  3015 net.cpp:425] inception_4e/output <- inception_4e/5x5
I0403 15:22:41.463827  3015 net.cpp:425] inception_4e/output <- inception_4e/pool_proj
I0403 15:22:41.463845  3015 net.cpp:399] inception_4e/output -> inception_4e/output
I0403 15:22:41.463897  3015 net.cpp:141] Setting up inception_4e/output
I0403 15:22:41.463920  3015 net.cpp:148] Top shape: 24 832 14 14 (3913728)
I0403 15:22:41.463935  3015 net.cpp:156] Memory required for data: 1272557088
I0403 15:22:41.463950  3015 layer_factory.hpp:77] Creating layer pool4/3x3_s2
I0403 15:22:41.463969  3015 net.cpp:91] Creating Layer pool4/3x3_s2
I0403 15:22:41.463987  3015 net.cpp:425] pool4/3x3_s2 <- inception_4e/output
I0403 15:22:41.464006  3015 net.cpp:399] pool4/3x3_s2 -> pool4/3x3_s2
I0403 15:22:41.464076  3015 net.cpp:141] Setting up pool4/3x3_s2
I0403 15:22:41.464100  3015 net.cpp:148] Top shape: 24 832 7 7 (978432)
I0403 15:22:41.464115  3015 net.cpp:156] Memory required for data: 1276470816
I0403 15:22:41.464130  3015 layer_factory.hpp:77] Creating layer pool4/3x3_s2_pool4/3x3_s2_0_split
I0403 15:22:41.464148  3015 net.cpp:91] Creating Layer pool4/3x3_s2_pool4/3x3_s2_0_split
I0403 15:22:41.464164  3015 net.cpp:425] pool4/3x3_s2_pool4/3x3_s2_0_split <- pool4/3x3_s2
I0403 15:22:41.464206  3015 net.cpp:399] pool4/3x3_s2_pool4/3x3_s2_0_split -> pool4/3x3_s2_pool4/3x3_s2_0_split_0
I0403 15:22:41.464231  3015 net.cpp:399] pool4/3x3_s2_pool4/3x3_s2_0_split -> pool4/3x3_s2_pool4/3x3_s2_0_split_1
I0403 15:22:41.464251  3015 net.cpp:399] pool4/3x3_s2_pool4/3x3_s2_0_split -> pool4/3x3_s2_pool4/3x3_s2_0_split_2
I0403 15:22:41.464273  3015 net.cpp:399] pool4/3x3_s2_pool4/3x3_s2_0_split -> pool4/3x3_s2_pool4/3x3_s2_0_split_3
I0403 15:22:41.464368  3015 net.cpp:141] Setting up pool4/3x3_s2_pool4/3x3_s2_0_split
I0403 15:22:41.464395  3015 net.cpp:148] Top shape: 24 832 7 7 (978432)
I0403 15:22:41.464413  3015 net.cpp:148] Top shape: 24 832 7 7 (978432)
I0403 15:22:41.464431  3015 net.cpp:148] Top shape: 24 832 7 7 (978432)
I0403 15:22:41.464447  3015 net.cpp:148] Top shape: 24 832 7 7 (978432)
I0403 15:22:41.464460  3015 net.cpp:156] Memory required for data: 1292125728
I0403 15:22:41.464476  3015 layer_factory.hpp:77] Creating layer inception_5a/1x1
I0403 15:22:41.464498  3015 net.cpp:91] Creating Layer inception_5a/1x1
I0403 15:22:41.464526  3015 net.cpp:425] inception_5a/1x1 <- pool4/3x3_s2_pool4/3x3_s2_0_split_0
I0403 15:22:41.464547  3015 net.cpp:399] inception_5a/1x1 -> inception_5a/1x1
I0403 15:22:41.467604  3015 net.cpp:141] Setting up inception_5a/1x1
I0403 15:22:41.467635  3015 net.cpp:148] Top shape: 24 256 7 7 (301056)
I0403 15:22:41.467653  3015 net.cpp:156] Memory required for data: 1293329952
I0403 15:22:41.467671  3015 layer_factory.hpp:77] Creating layer inception_5a/relu_1x1
I0403 15:22:41.467690  3015 net.cpp:91] Creating Layer inception_5a/relu_1x1
I0403 15:22:41.467707  3015 net.cpp:425] inception_5a/relu_1x1 <- inception_5a/1x1
I0403 15:22:41.467728  3015 net.cpp:386] inception_5a/relu_1x1 -> inception_5a/1x1 (in-place)
I0403 15:22:41.468068  3015 net.cpp:141] Setting up inception_5a/relu_1x1
I0403 15:22:41.468096  3015 net.cpp:148] Top shape: 24 256 7 7 (301056)
I0403 15:22:41.468112  3015 net.cpp:156] Memory required for data: 1294534176
I0403 15:22:41.468127  3015 layer_factory.hpp:77] Creating layer inception_5a/3x3_reduce
I0403 15:22:41.468152  3015 net.cpp:91] Creating Layer inception_5a/3x3_reduce
I0403 15:22:41.468170  3015 net.cpp:425] inception_5a/3x3_reduce <- pool4/3x3_s2_pool4/3x3_s2_0_split_1
I0403 15:22:41.468202  3015 net.cpp:399] inception_5a/3x3_reduce -> inception_5a/3x3_reduce
I0403 15:22:41.470820  3015 net.cpp:141] Setting up inception_5a/3x3_reduce
I0403 15:22:41.470851  3015 net.cpp:148] Top shape: 24 160 7 7 (188160)
I0403 15:22:41.470868  3015 net.cpp:156] Memory required for data: 1295286816
I0403 15:22:41.470887  3015 layer_factory.hpp:77] Creating layer inception_5a/relu_3x3_reduce
I0403 15:22:41.470909  3015 net.cpp:91] Creating Layer inception_5a/relu_3x3_reduce
I0403 15:22:41.470927  3015 net.cpp:425] inception_5a/relu_3x3_reduce <- inception_5a/3x3_reduce
I0403 15:22:41.470947  3015 net.cpp:386] inception_5a/relu_3x3_reduce -> inception_5a/3x3_reduce (in-place)
I0403 15:22:41.471146  3015 net.cpp:141] Setting up inception_5a/relu_3x3_reduce
I0403 15:22:41.471184  3015 net.cpp:148] Top shape: 24 160 7 7 (188160)
I0403 15:22:41.471201  3015 net.cpp:156] Memory required for data: 1296039456
I0403 15:22:41.471217  3015 layer_factory.hpp:77] Creating layer inception_5a/3x3
I0403 15:22:41.471241  3015 net.cpp:91] Creating Layer inception_5a/3x3
I0403 15:22:41.471261  3015 net.cpp:425] inception_5a/3x3 <- inception_5a/3x3_reduce
I0403 15:22:41.471283  3015 net.cpp:399] inception_5a/3x3 -> inception_5a/3x3
I0403 15:22:41.476655  3015 net.cpp:141] Setting up inception_5a/3x3
I0403 15:22:41.476691  3015 net.cpp:148] Top shape: 24 320 7 7 (376320)
I0403 15:22:41.476708  3015 net.cpp:156] Memory required for data: 1297544736
I0403 15:22:41.476728  3015 layer_factory.hpp:77] Creating layer inception_5a/relu_3x3
I0403 15:22:41.476747  3015 net.cpp:91] Creating Layer inception_5a/relu_3x3
I0403 15:22:41.476764  3015 net.cpp:425] inception_5a/relu_3x3 <- inception_5a/3x3
I0403 15:22:41.476785  3015 net.cpp:386] inception_5a/relu_3x3 -> inception_5a/3x3 (in-place)
I0403 15:22:41.477100  3015 net.cpp:141] Setting up inception_5a/relu_3x3
I0403 15:22:41.477133  3015 net.cpp:148] Top shape: 24 320 7 7 (376320)
I0403 15:22:41.477150  3015 net.cpp:156] Memory required for data: 1299050016
I0403 15:22:41.477166  3015 layer_factory.hpp:77] Creating layer inception_5a/5x5_reduce
I0403 15:22:41.477200  3015 net.cpp:91] Creating Layer inception_5a/5x5_reduce
I0403 15:22:41.477219  3015 net.cpp:425] inception_5a/5x5_reduce <- pool4/3x3_s2_pool4/3x3_s2_0_split_2
I0403 15:22:41.477241  3015 net.cpp:399] inception_5a/5x5_reduce -> inception_5a/5x5_reduce
I0403 15:22:41.478495  3015 net.cpp:141] Setting up inception_5a/5x5_reduce
I0403 15:22:41.478528  3015 net.cpp:148] Top shape: 24 32 7 7 (37632)
I0403 15:22:41.478544  3015 net.cpp:156] Memory required for data: 1299200544
I0403 15:22:41.478564  3015 layer_factory.hpp:77] Creating layer inception_5a/relu_5x5_reduce
I0403 15:22:41.478585  3015 net.cpp:91] Creating Layer inception_5a/relu_5x5_reduce
I0403 15:22:41.478601  3015 net.cpp:425] inception_5a/relu_5x5_reduce <- inception_5a/5x5_reduce
I0403 15:22:41.478621  3015 net.cpp:386] inception_5a/relu_5x5_reduce -> inception_5a/5x5_reduce (in-place)
I0403 15:22:41.478941  3015 net.cpp:141] Setting up inception_5a/relu_5x5_reduce
I0403 15:22:41.478970  3015 net.cpp:148] Top shape: 24 32 7 7 (37632)
I0403 15:22:41.478986  3015 net.cpp:156] Memory required for data: 1299351072
I0403 15:22:41.479001  3015 layer_factory.hpp:77] Creating layer inception_5a/5x5
I0403 15:22:41.479024  3015 net.cpp:91] Creating Layer inception_5a/5x5
I0403 15:22:41.479043  3015 net.cpp:425] inception_5a/5x5 <- inception_5a/5x5_reduce
I0403 15:22:41.479066  3015 net.cpp:399] inception_5a/5x5 -> inception_5a/5x5
I0403 15:22:41.480918  3015 net.cpp:141] Setting up inception_5a/5x5
I0403 15:22:41.480965  3015 net.cpp:148] Top shape: 24 128 7 7 (150528)
I0403 15:22:41.480983  3015 net.cpp:156] Memory required for data: 1299953184
I0403 15:22:41.481003  3015 layer_factory.hpp:77] Creating layer inception_5a/relu_5x5
I0403 15:22:41.481021  3015 net.cpp:91] Creating Layer inception_5a/relu_5x5
I0403 15:22:41.481039  3015 net.cpp:425] inception_5a/relu_5x5 <- inception_5a/5x5
I0403 15:22:41.481060  3015 net.cpp:386] inception_5a/relu_5x5 -> inception_5a/5x5 (in-place)
I0403 15:22:41.481271  3015 net.cpp:141] Setting up inception_5a/relu_5x5
I0403 15:22:41.481297  3015 net.cpp:148] Top shape: 24 128 7 7 (150528)
I0403 15:22:41.481313  3015 net.cpp:156] Memory required for data: 1300555296
I0403 15:22:41.481329  3015 layer_factory.hpp:77] Creating layer inception_5a/pool
I0403 15:22:41.481348  3015 net.cpp:91] Creating Layer inception_5a/pool
I0403 15:22:41.481364  3015 net.cpp:425] inception_5a/pool <- pool4/3x3_s2_pool4/3x3_s2_0_split_3
I0403 15:22:41.481385  3015 net.cpp:399] inception_5a/pool -> inception_5a/pool
I0403 15:22:41.481465  3015 net.cpp:141] Setting up inception_5a/pool
I0403 15:22:41.481489  3015 net.cpp:148] Top shape: 24 832 7 7 (978432)
I0403 15:22:41.481504  3015 net.cpp:156] Memory required for data: 1304469024
I0403 15:22:41.481520  3015 layer_factory.hpp:77] Creating layer inception_5a/pool_proj
I0403 15:22:41.481545  3015 net.cpp:91] Creating Layer inception_5a/pool_proj
I0403 15:22:41.481564  3015 net.cpp:425] inception_5a/pool_proj <- inception_5a/pool
I0403 15:22:41.481583  3015 net.cpp:399] inception_5a/pool_proj -> inception_5a/pool_proj
I0403 15:22:41.484021  3015 net.cpp:141] Setting up inception_5a/pool_proj
I0403 15:22:41.484055  3015 net.cpp:148] Top shape: 24 128 7 7 (150528)
I0403 15:22:41.484071  3015 net.cpp:156] Memory required for data: 1305071136
I0403 15:22:41.484091  3015 layer_factory.hpp:77] Creating layer inception_5a/relu_pool_proj
I0403 15:22:41.484109  3015 net.cpp:91] Creating Layer inception_5a/relu_pool_proj
I0403 15:22:41.484125  3015 net.cpp:425] inception_5a/relu_pool_proj <- inception_5a/pool_proj
I0403 15:22:41.484143  3015 net.cpp:386] inception_5a/relu_pool_proj -> inception_5a/pool_proj (in-place)
I0403 15:22:41.484453  3015 net.cpp:141] Setting up inception_5a/relu_pool_proj
I0403 15:22:41.484483  3015 net.cpp:148] Top shape: 24 128 7 7 (150528)
I0403 15:22:41.484499  3015 net.cpp:156] Memory required for data: 1305673248
I0403 15:22:41.484514  3015 layer_factory.hpp:77] Creating layer inception_5a/output
I0403 15:22:41.484532  3015 net.cpp:91] Creating Layer inception_5a/output
I0403 15:22:41.484549  3015 net.cpp:425] inception_5a/output <- inception_5a/1x1
I0403 15:22:41.484565  3015 net.cpp:425] inception_5a/output <- inception_5a/3x3
I0403 15:22:41.484581  3015 net.cpp:425] inception_5a/output <- inception_5a/5x5
I0403 15:22:41.484597  3015 net.cpp:425] inception_5a/output <- inception_5a/pool_proj
I0403 15:22:41.484616  3015 net.cpp:399] inception_5a/output -> inception_5a/output
I0403 15:22:41.484668  3015 net.cpp:141] Setting up inception_5a/output
I0403 15:22:41.484693  3015 net.cpp:148] Top shape: 24 832 7 7 (978432)
I0403 15:22:41.484707  3015 net.cpp:156] Memory required for data: 1309586976
I0403 15:22:41.484722  3015 layer_factory.hpp:77] Creating layer inception_5a/output_inception_5a/output_0_split
I0403 15:22:41.484742  3015 net.cpp:91] Creating Layer inception_5a/output_inception_5a/output_0_split
I0403 15:22:41.484760  3015 net.cpp:425] inception_5a/output_inception_5a/output_0_split <- inception_5a/output
I0403 15:22:41.484777  3015 net.cpp:399] inception_5a/output_inception_5a/output_0_split -> inception_5a/output_inception_5a/output_0_split_0
I0403 15:22:41.484798  3015 net.cpp:399] inception_5a/output_inception_5a/output_0_split -> inception_5a/output_inception_5a/output_0_split_1
I0403 15:22:41.484819  3015 net.cpp:399] inception_5a/output_inception_5a/output_0_split -> inception_5a/output_inception_5a/output_0_split_2
I0403 15:22:41.484841  3015 net.cpp:399] inception_5a/output_inception_5a/output_0_split -> inception_5a/output_inception_5a/output_0_split_3
I0403 15:22:41.484956  3015 net.cpp:141] Setting up inception_5a/output_inception_5a/output_0_split
I0403 15:22:41.484979  3015 net.cpp:148] Top shape: 24 832 7 7 (978432)
I0403 15:22:41.484997  3015 net.cpp:148] Top shape: 24 832 7 7 (978432)
I0403 15:22:41.485013  3015 net.cpp:148] Top shape: 24 832 7 7 (978432)
I0403 15:22:41.485028  3015 net.cpp:148] Top shape: 24 832 7 7 (978432)
I0403 15:22:41.485044  3015 net.cpp:156] Memory required for data: 1325241888
I0403 15:22:41.485057  3015 layer_factory.hpp:77] Creating layer inception_5b/1x1
I0403 15:22:41.485080  3015 net.cpp:91] Creating Layer inception_5b/1x1
I0403 15:22:41.485098  3015 net.cpp:425] inception_5b/1x1 <- inception_5a/output_inception_5a/output_0_split_0
I0403 15:22:41.485121  3015 net.cpp:399] inception_5b/1x1 -> inception_5b/1x1
I0403 15:22:41.489028  3015 net.cpp:141] Setting up inception_5b/1x1
I0403 15:22:41.489059  3015 net.cpp:148] Top shape: 24 384 7 7 (451584)
I0403 15:22:41.489076  3015 net.cpp:156] Memory required for data: 1327048224
I0403 15:22:41.489095  3015 layer_factory.hpp:77] Creating layer inception_5b/relu_1x1
I0403 15:22:41.489116  3015 net.cpp:91] Creating Layer inception_5b/relu_1x1
I0403 15:22:41.489132  3015 net.cpp:425] inception_5b/relu_1x1 <- inception_5b/1x1
I0403 15:22:41.489151  3015 net.cpp:386] inception_5b/relu_1x1 -> inception_5b/1x1 (in-place)
I0403 15:22:41.489473  3015 net.cpp:141] Setting up inception_5b/relu_1x1
I0403 15:22:41.489500  3015 net.cpp:148] Top shape: 24 384 7 7 (451584)
I0403 15:22:41.489516  3015 net.cpp:156] Memory required for data: 1328854560
I0403 15:22:41.489531  3015 layer_factory.hpp:77] Creating layer inception_5b/3x3_reduce
I0403 15:22:41.489557  3015 net.cpp:91] Creating Layer inception_5b/3x3_reduce
I0403 15:22:41.489575  3015 net.cpp:425] inception_5b/3x3_reduce <- inception_5a/output_inception_5a/output_0_split_1
I0403 15:22:41.489595  3015 net.cpp:399] inception_5b/3x3_reduce -> inception_5b/3x3_reduce
I0403 15:22:41.492383  3015 net.cpp:141] Setting up inception_5b/3x3_reduce
I0403 15:22:41.492418  3015 net.cpp:148] Top shape: 24 192 7 7 (225792)
I0403 15:22:41.492435  3015 net.cpp:156] Memory required for data: 1329757728
I0403 15:22:41.492455  3015 layer_factory.hpp:77] Creating layer inception_5b/relu_3x3_reduce
I0403 15:22:41.492475  3015 net.cpp:91] Creating Layer inception_5b/relu_3x3_reduce
I0403 15:22:41.492491  3015 net.cpp:425] inception_5b/relu_3x3_reduce <- inception_5b/3x3_reduce
I0403 15:22:41.492509  3015 net.cpp:386] inception_5b/relu_3x3_reduce -> inception_5b/3x3_reduce (in-place)
I0403 15:22:41.492722  3015 net.cpp:141] Setting up inception_5b/relu_3x3_reduce
I0403 15:22:41.492750  3015 net.cpp:148] Top shape: 24 192 7 7 (225792)
I0403 15:22:41.492766  3015 net.cpp:156] Memory required for data: 1330660896
I0403 15:22:41.492781  3015 layer_factory.hpp:77] Creating layer inception_5b/3x3
I0403 15:22:41.492805  3015 net.cpp:91] Creating Layer inception_5b/3x3
I0403 15:22:41.492822  3015 net.cpp:425] inception_5b/3x3 <- inception_5b/3x3_reduce
I0403 15:22:41.492844  3015 net.cpp:399] inception_5b/3x3 -> inception_5b/3x3
I0403 15:22:41.499682  3015 net.cpp:141] Setting up inception_5b/3x3
I0403 15:22:41.499713  3015 net.cpp:148] Top shape: 24 384 7 7 (451584)
I0403 15:22:41.499730  3015 net.cpp:156] Memory required for data: 1332467232
I0403 15:22:41.499748  3015 layer_factory.hpp:77] Creating layer inception_5b/relu_3x3
I0403 15:22:41.499766  3015 net.cpp:91] Creating Layer inception_5b/relu_3x3
I0403 15:22:41.499783  3015 net.cpp:425] inception_5b/relu_3x3 <- inception_5b/3x3
I0403 15:22:41.499800  3015 net.cpp:386] inception_5b/relu_3x3 -> inception_5b/3x3 (in-place)
I0403 15:22:41.500102  3015 net.cpp:141] Setting up inception_5b/relu_3x3
I0403 15:22:41.500130  3015 net.cpp:148] Top shape: 24 384 7 7 (451584)
I0403 15:22:41.500146  3015 net.cpp:156] Memory required for data: 1334273568
I0403 15:22:41.500161  3015 layer_factory.hpp:77] Creating layer inception_5b/5x5_reduce
I0403 15:22:41.500206  3015 net.cpp:91] Creating Layer inception_5b/5x5_reduce
I0403 15:22:41.500226  3015 net.cpp:425] inception_5b/5x5_reduce <- inception_5a/output_inception_5a/output_0_split_2
I0403 15:22:41.500244  3015 net.cpp:399] inception_5b/5x5_reduce -> inception_5b/5x5_reduce
I0403 15:22:41.501520  3015 net.cpp:141] Setting up inception_5b/5x5_reduce
I0403 15:22:41.501548  3015 net.cpp:148] Top shape: 24 48 7 7 (56448)
I0403 15:22:41.501564  3015 net.cpp:156] Memory required for data: 1334499360
I0403 15:22:41.501585  3015 layer_factory.hpp:77] Creating layer inception_5b/relu_5x5_reduce
I0403 15:22:41.501603  3015 net.cpp:91] Creating Layer inception_5b/relu_5x5_reduce
I0403 15:22:41.501621  3015 net.cpp:425] inception_5b/relu_5x5_reduce <- inception_5b/5x5_reduce
I0403 15:22:41.501637  3015 net.cpp:386] inception_5b/relu_5x5_reduce -> inception_5b/5x5_reduce (in-place)
I0403 15:22:41.502015  3015 net.cpp:141] Setting up inception_5b/relu_5x5_reduce
I0403 15:22:41.502041  3015 net.cpp:148] Top shape: 24 48 7 7 (56448)
I0403 15:22:41.502058  3015 net.cpp:156] Memory required for data: 1334725152
I0403 15:22:41.502071  3015 layer_factory.hpp:77] Creating layer inception_5b/5x5
I0403 15:22:41.502091  3015 net.cpp:91] Creating Layer inception_5b/5x5
I0403 15:22:41.502109  3015 net.cpp:425] inception_5b/5x5 <- inception_5b/5x5_reduce
I0403 15:22:41.502127  3015 net.cpp:399] inception_5b/5x5 -> inception_5b/5x5
I0403 15:22:41.504293  3015 net.cpp:141] Setting up inception_5b/5x5
I0403 15:22:41.504323  3015 net.cpp:148] Top shape: 24 128 7 7 (150528)
I0403 15:22:41.504339  3015 net.cpp:156] Memory required for data: 1335327264
I0403 15:22:41.504357  3015 layer_factory.hpp:77] Creating layer inception_5b/relu_5x5
I0403 15:22:41.504376  3015 net.cpp:91] Creating Layer inception_5b/relu_5x5
I0403 15:22:41.504392  3015 net.cpp:425] inception_5b/relu_5x5 <- inception_5b/5x5
I0403 15:22:41.504413  3015 net.cpp:386] inception_5b/relu_5x5 -> inception_5b/5x5 (in-place)
I0403 15:22:41.504624  3015 net.cpp:141] Setting up inception_5b/relu_5x5
I0403 15:22:41.504649  3015 net.cpp:148] Top shape: 24 128 7 7 (150528)
I0403 15:22:41.504664  3015 net.cpp:156] Memory required for data: 1335929376
I0403 15:22:41.504679  3015 layer_factory.hpp:77] Creating layer inception_5b/pool
I0403 15:22:41.504699  3015 net.cpp:91] Creating Layer inception_5b/pool
I0403 15:22:41.504715  3015 net.cpp:425] inception_5b/pool <- inception_5a/output_inception_5a/output_0_split_3
I0403 15:22:41.504734  3015 net.cpp:399] inception_5b/pool -> inception_5b/pool
I0403 15:22:41.504811  3015 net.cpp:141] Setting up inception_5b/pool
I0403 15:22:41.504833  3015 net.cpp:148] Top shape: 24 832 7 7 (978432)
I0403 15:22:41.504848  3015 net.cpp:156] Memory required for data: 1339843104
I0403 15:22:41.504863  3015 layer_factory.hpp:77] Creating layer inception_5b/pool_proj
I0403 15:22:41.504884  3015 net.cpp:91] Creating Layer inception_5b/pool_proj
I0403 15:22:41.504901  3015 net.cpp:425] inception_5b/pool_proj <- inception_5b/pool
I0403 15:22:41.504922  3015 net.cpp:399] inception_5b/pool_proj -> inception_5b/pool_proj
I0403 15:22:41.507330  3015 net.cpp:141] Setting up inception_5b/pool_proj
I0403 15:22:41.507362  3015 net.cpp:148] Top shape: 24 128 7 7 (150528)
I0403 15:22:41.507380  3015 net.cpp:156] Memory required for data: 1340445216
I0403 15:22:41.507400  3015 layer_factory.hpp:77] Creating layer inception_5b/relu_pool_proj
I0403 15:22:41.507417  3015 net.cpp:91] Creating Layer inception_5b/relu_pool_proj
I0403 15:22:41.507434  3015 net.cpp:425] inception_5b/relu_pool_proj <- inception_5b/pool_proj
I0403 15:22:41.507455  3015 net.cpp:386] inception_5b/relu_pool_proj -> inception_5b/pool_proj (in-place)
I0403 15:22:41.507768  3015 net.cpp:141] Setting up inception_5b/relu_pool_proj
I0403 15:22:41.507797  3015 net.cpp:148] Top shape: 24 128 7 7 (150528)
I0403 15:22:41.507813  3015 net.cpp:156] Memory required for data: 1341047328
I0403 15:22:41.507828  3015 layer_factory.hpp:77] Creating layer inception_5b/output
I0403 15:22:41.507845  3015 net.cpp:91] Creating Layer inception_5b/output
I0403 15:22:41.507875  3015 net.cpp:425] inception_5b/output <- inception_5b/1x1
I0403 15:22:41.507892  3015 net.cpp:425] inception_5b/output <- inception_5b/3x3
I0403 15:22:41.507910  3015 net.cpp:425] inception_5b/output <- inception_5b/5x5
I0403 15:22:41.507925  3015 net.cpp:425] inception_5b/output <- inception_5b/pool_proj
I0403 15:22:41.507942  3015 net.cpp:399] inception_5b/output -> inception_5b/output
I0403 15:22:41.507997  3015 net.cpp:141] Setting up inception_5b/output
I0403 15:22:41.508019  3015 net.cpp:148] Top shape: 24 1024 7 7 (1204224)
I0403 15:22:41.508034  3015 net.cpp:156] Memory required for data: 1345864224
I0403 15:22:41.508049  3015 layer_factory.hpp:77] Creating layer pool5/7x7_s1
I0403 15:22:41.508069  3015 net.cpp:91] Creating Layer pool5/7x7_s1
I0403 15:22:41.508086  3015 net.cpp:425] pool5/7x7_s1 <- inception_5b/output
I0403 15:22:41.508105  3015 net.cpp:399] pool5/7x7_s1 -> pool5/7x7_s1
I0403 15:22:41.508345  3015 net.cpp:141] Setting up pool5/7x7_s1
I0403 15:22:41.508373  3015 net.cpp:148] Top shape: 24 1024 1 1 (24576)
I0403 15:22:41.508390  3015 net.cpp:156] Memory required for data: 1345962528
I0403 15:22:41.508405  3015 layer_factory.hpp:77] Creating layer pool5/drop_7x7_s1
I0403 15:22:41.508424  3015 net.cpp:91] Creating Layer pool5/drop_7x7_s1
I0403 15:22:41.508440  3015 net.cpp:425] pool5/drop_7x7_s1 <- pool5/7x7_s1
I0403 15:22:41.508461  3015 net.cpp:386] pool5/drop_7x7_s1 -> pool5/7x7_s1 (in-place)
I0403 15:22:41.508512  3015 net.cpp:141] Setting up pool5/drop_7x7_s1
I0403 15:22:41.508536  3015 net.cpp:148] Top shape: 24 1024 1 1 (24576)
I0403 15:22:41.508563  3015 net.cpp:156] Memory required for data: 1346060832
I0403 15:22:41.508577  3015 layer_factory.hpp:77] Creating layer loss3/classifier_plantvillage
I0403 15:22:41.508599  3015 net.cpp:91] Creating Layer loss3/classifier_plantvillage
I0403 15:22:41.508616  3015 net.cpp:425] loss3/classifier_plantvillage <- pool5/7x7_s1
I0403 15:22:41.508637  3015 net.cpp:399] loss3/classifier_plantvillage -> loss3/classifier_plantvillage
I0403 15:22:41.509064  3015 net.cpp:141] Setting up loss3/classifier_plantvillage
I0403 15:22:41.509088  3015 net.cpp:148] Top shape: 24 38 (912)
I0403 15:22:41.509102  3015 net.cpp:156] Memory required for data: 1346064480
I0403 15:22:41.509120  3015 layer_factory.hpp:77] Creating layer loss3/classifier_plantvillage_loss3/classifier_plantvillage_0_split
I0403 15:22:41.509141  3015 net.cpp:91] Creating Layer loss3/classifier_plantvillage_loss3/classifier_plantvillage_0_split
I0403 15:22:41.509158  3015 net.cpp:425] loss3/classifier_plantvillage_loss3/classifier_plantvillage_0_split <- loss3/classifier_plantvillage
I0403 15:22:41.509176  3015 net.cpp:399] loss3/classifier_plantvillage_loss3/classifier_plantvillage_0_split -> loss3/classifier_plantvillage_loss3/classifier_plantvillage_0_split_0
I0403 15:22:41.509204  3015 net.cpp:399] loss3/classifier_plantvillage_loss3/classifier_plantvillage_0_split -> loss3/classifier_plantvillage_loss3/classifier_plantvillage_0_split_1
I0403 15:22:41.509224  3015 net.cpp:399] loss3/classifier_plantvillage_loss3/classifier_plantvillage_0_split -> loss3/classifier_plantvillage_loss3/classifier_plantvillage_0_split_2
I0403 15:22:41.509244  3015 net.cpp:399] loss3/classifier_plantvillage_loss3/classifier_plantvillage_0_split -> loss3/classifier_plantvillage_loss3/classifier_plantvillage_0_split_3
I0403 15:22:41.509361  3015 net.cpp:141] Setting up loss3/classifier_plantvillage_loss3/classifier_plantvillage_0_split
I0403 15:22:41.509384  3015 net.cpp:148] Top shape: 24 38 (912)
I0403 15:22:41.509402  3015 net.cpp:148] Top shape: 24 38 (912)
I0403 15:22:41.509416  3015 net.cpp:148] Top shape: 24 38 (912)
I0403 15:22:41.509433  3015 net.cpp:148] Top shape: 24 38 (912)
I0403 15:22:41.509446  3015 net.cpp:156] Memory required for data: 1346079072
I0403 15:22:41.509460  3015 layer_factory.hpp:77] Creating layer loss1/loss
I0403 15:22:41.509481  3015 net.cpp:91] Creating Layer loss1/loss
I0403 15:22:41.509500  3015 net.cpp:425] loss1/loss <- loss1/classifier_plantvillage_loss1/classifier_plantvillage_0_split_0
I0403 15:22:41.509531  3015 net.cpp:425] loss1/loss <- label_data_1_split_0
…
