…
I0403 15:15:37.976266  2882 net.cpp:313] The NetState phase (1) differed from the phase (0) specified by a rule in layer data
I0403 15:15:37.977428  2882 net.cpp:49] Initializing net from parameters: 
state {
  phase: TEST
}
layer {
  name: "data"
  type: "Data"
  top: "data"
  top: "label"
  include {
    phase: TEST
  }
  transform_param {
    mirror: false
    crop_size: 224
    mean_file: "/home/mohanty/data/final_dataset/lmdb/segmented-60-40/mean.binaryproto"
  }
  data_param {
    source: "/home/mohanty/data/final_dataset/lmdb/segmented-60-40/test_db"
    batch_size: 24
    backend: LMDB
  }
}
layer {
  name: "conv1/7x7_s2"
  type: "Convolution"
  bottom: "data"
  top: "conv1/7x7_s2"
  param {
    lr_mult: 1
    decay_mult: 1
  }
  param {
    lr_mult: 2
    decay_mult: 0
  }
  convolution_param {
    num_output: 64
    pad: 3
    kernel_size: 7
    stride: 2
    weight_filler {
      type: "xavier"
      std: 0.1
    }
    bias_filler {
      type: "constant"
      value: 0.2
    }
  }
}
layer {
  name: "conv1/relu_7x7"
  type: "ReLU"
  bottom: "conv1/7x7_s2"
  top: "conv1/7x7_s2"
}
layer {
  name: "pool1/3x3_s2"
  type: "Pooling"
  bottom: "conv1/7x7_s2"
  top: "pool1/3x3_s2"
  pooling_param {
    pool: MAX
    kernel_size: 3
    stride: 2
  }
}
layer {
  name: "pool1/norm1"
  type: "LRN"
  bottom: "pool1/3x3_s2"
  top: "pool1/norm1"
  lrn_param {
    local_size: 5
    alpha: 0.0001
    beta: 0.75
  }
}
layer {
  name: "conv2/3x3_reduce"
  type: "Convolution"
  bottom: "pool1/norm1"
  top: "conv2/3x3_reduce"
  param {
    lr_mult: 1
    decay_mult: 1
  }
  param {
    lr_mult: 2
    decay_mult: 0
  }
  convolution_param {
    num_output: 64
    kernel_size: 1
    weight_filler {
      type: "xavier"
      std: 0.1
    }
    bias_filler {
      type: "constant"
      value: 0.2
    }
  }
}
layer {
  name: "conv2/relu_3x3_reduce"
  type: "ReLU"
  bottom: "conv2/3x3_reduce"
  top: "conv2/3x3_reduce"
}
layer {
  name: "conv2/3x3"
  type: "Convolution"
  bottom: "conv2/3x3_reduce"
  top: "conv2/3x3"
  param {
    lr_mult: 1
    decay_mult: 1
  }
  param {
    lr_mult: 2
    decay_mult: 0
  }
  convolution_param {
    num_output: 192
    pad: 1
    kernel_size: 3
    weight_filler {
      type: "xavier"
      std: 0.03
    }
    bias_filler {
      type: "constant"
      value: 0.2
    }
  }
}
layer {
  name: "conv2/relu_3x3"
  type: "ReLU"
  bottom: "conv2/3x3"
  top: "conv2/3x3"
}
layer {
  name: "conv2/norm2"
  type: "LRN"
  bottom: "conv2/3x3"
  top: "conv2/norm2"
  lrn_param {
    local_size: 5
    alpha: 0.0001
    beta: 0.75
  }
}
layer {
  name: "pool2/3x3_s2"
  type: "Pooling"
  bottom: "conv2/norm2"
  top: "pool2/3x3_s2"
  pooling_param {
    pool: MAX
    kernel_size: 3
    stride: 2
  }
}
layer {
  name: "inception_3a/1x1"
  type: "Convolution"
  bottom: "pool2/3x3_s2"
  top: "inception_3a/1x1"
  param {
    lr_mult: 1
    decay_mult: 1
  }
  param {
    lr_mult: 2
    decay_mult: 0
  }
  convolution_param {
    num_output: 64
    kernel_size: 1
    weight_filler {
      type: "xavier"
      std: 0.03
    }
    bias_filler {
      type: "constant"
      value: 0.2
    }
  }
}
layer {
  name: "inception_3a/relu_1x1"
  type: "ReLU"
  bottom: "inception_3a/1x1"
  top: "inception_3a/1x1"
}
layer {
  name: "inception_3a/3x3_reduce"
  type: "Convolution"
  bottom: "pool2/3x3_s2"
  top: "inception_3a/3x3_reduce"
  param {
    lr_mult: 1
    decay_mult: 1
  }
  param {
    lr_mult: 2
    decay_mult: 0
  }
  convolution_param {
    num_output: 96
    kernel_size: 1
    weight_filler {
      type: "xavier"
      std: 0.09
    }
    bias_filler {
      type: "constant"
      value: 0.2
    }
  }
}
layer {
  name: "inception_3a/relu_3x3_reduce"
  type: "ReLU"
  bottom: "inception_3a/3x3_reduce"
  top: "inception_3a/3x3_reduce"
}
layer {
  name: "inception_3a/3x3"
  type: "Convolution"
  bottom: "inception_3a/3x3_reduce"
  top: "inception_3a/3x3"
  param {
    lr_mult: 1
    decay_mult: 1
  }
  param {
    lr_mult: 2
    decay_mult: 0
  }
  convolution_param {
    num_output: 128
    pad: 1
    kernel_size: 3
    weight_filler {
      type: "xavier"
      std: 0.03
    }
    bias_filler {
      type: "constant"
      value: 0.2
    }
  }
}
layer {
  name: "inception_3a/relu_3x3"
  type: "ReLU"
  bottom: "inception_3a/3x3"
  top: "inception_3a/3x3"
}
layer {
  name: "inception_3a/5x5_reduce"
  type: "Convolution"
  bottom: "pool2/3x3_s2"
  top: "inception_3a/5x5_reduce"
  param {
    lr_mult: 1
    decay_mult: 1
  }
  param {
    lr_mult: 2
    decay_mult: 0
  }
  convolution_param {
    num_output: 16
    kernel_size: 1
    weight_filler {
      type: "xavier"
      std: 0.2
    }
    bias_filler {
      type: "constant"
      value: 0.2
    }
  }
}
layer {
  name: "inception_3a/relu_5x5_reduce"
  type: "ReLU"
  bottom: "inception_3a/5x5_reduce"
  top: "inception_3a/5x5_reduce"
}
layer {
  name: "inception_3a/5x5"
  type: "Convolution"
  bottom: "inception_3a/5x5_reduce"
  top: "inception_3a/5x5"
  param {
    lr_mult: 1
    decay_mult: 1
  }
  param {
    lr_mult: 2
    decay_mult: 0
  }
  convolution_param {
    num_output: 32
    pad: 2
    kernel_size: 5
    weight_filler {
      type: "xavier"
      std: 0.03
    }
    bias_filler {
      type: "constant"
      value: 0.2
    }
  }
}
layer {
  name: "inception_3a/relu_5x5"
  type: "ReLU"
  bottom: "inception_3a/5x5"
  top: "inception_3a/5x5"
}
layer {
  name: "inception_3a/pool"
  type: "Pooling"
  bottom: "pool2/3x3_s2"
  top: "inception_3a/pool"
  pooling_param {
    pool: MAX
    kernel_size: 3
    stride: 1
    pad: 1
  }
}
layer {
  name: "inception_3a/pool_proj"
  type: "Convolution"
  bottom: "inception_3a/pool"
  top: "inception_3a/pool_proj"
  param {
    lr_mult: 1
    decay_mult: 1
  }
  param {
    lr_mult: 2
    decay_mult: 0
  }
  convolution_param {
    num_output: 32
    kernel_size: 1
    weight_filler {
      type: "xavier"
      std: 0.1
    }
    bias_filler {
      type: "constant"
      value: 0.2
    }
  }
}
layer {
  name: "inception_3a/relu_pool_proj"
  type: "ReLU"
  bottom: "inception_3a/pool_proj"
  top: "inception_3a/pool_proj"
}
layer {
  name: "inception_3a/output"
  type: "Concat"
  bottom: "inception_3a/1x1"
  bottom: "inception_3a/3x3"
  bottom: "inception_3a/5x5"
  bottom: "inception_3a/pool_proj"
  top: "inception_3a/output"
}
layer {
  name: "inception_3b/1x1"
  type: "Convolution"
  bottom: "inception_3a/output"
  top: "inception_3b/1x1"
  param {
    lr_mult: 1
    decay_mult: 1
  }
  param {
    lr_mult: 2
    decay_mult: 0
  }
  convolution_param {
    num_output: 128
    kernel_size: 1
    weight_filler {
      type: "xavier"
      std: 0.03
    }
    bias_filler {
      type: "constant"
      value: 0.2
    }
  }
}
layer {
  name: "inception_3b/relu_1x1"
  type: "ReLU"
  bottom: "inception_3b/1x1"
  top: "inception_3b/1x1"
}
layer {
  name: "inception_3b/3x3_reduce"
  type: "Convolution"
  bottom: "inception_3a/output"
  top: "inception_3b/3x3_reduce"
  param {
    lr_mult: 1
    decay_mult: 1
  }
  param {
    lr_mult: 2
    decay_mult: 0
  }
  convolution_param {
    num_output: 128
    kernel_size: 1
    weight_filler {
      type: "xavier"
      std: 0.09
    }
    bias_filler {
      type: "constant"
      value: 0.2
    }
  }
}
layer {
  name: "inception_3b/relu_3x3_reduce"
  type: "ReLU"
  bottom: "inception_3b/3x3_reduce"
  top: "inception_3b/3x3_reduce"
}
layer {
  name: "inception_3b/3x3"
  type: "Convolution"
  bottom: "inception_3b/3x3_reduce"
  top: "inception_3b/3x3"
  param {
    lr_mult: 1
    decay_mult: 1
  }
  param {
    lr_mult: 2
    decay_mult: 0
  }
  convolution_param {
    num_output: 192
    pad: 1
    kernel_size: 3
    weight_filler {
      type: "xavier"
      std: 0.03
    }
    bias_filler {
      type: "constant"
      value: 0.2
    }
  }
}
layer {
  name: "inception_3b/relu_3x3"
  type: "ReLU"
  bottom: "inception_3b/3x3"
  top: "inception_3b/3x3"
}
layer {
  name: "inception_3b/5x5_reduce"
  type: "Convolution"
  bottom: "inception_3a/output"
  top: "inception_3b/5x5_reduce"
  param {
    lr_mult: 1
    decay_mult: 1
  }
  param {
    lr_mult: 2
    decay_mult: 0
  }
  convolution_param {
    num_output: 32
    kernel_size: 1
    weight_filler {
      type: "xavier"
      std: 0.2
    }
    bias_filler {
      type: "constant"
      value: 0.2
    }
  }
}
layer {
  name: "inception_3b/relu_5x5_reduce"
  type: "ReLU"
  bottom: "inception_3b/5x5_reduce"
  top: "inception_3b/5x5_reduce"
}
layer {
  name: "inception_3b/5x5"
  type: "Convolution"
  bottom: "inception_3b/5x5_reduce"
  top: "inception_3b/5x5"
  param {
    lr_mult: 1
    decay_mult: 1
  }
  param {
    lr_mult: 2
    decay_mult: 0
  }
  convolution_param {
    num_output: 96
    pad: 2
    kernel_size: 5
    weight_filler {
      type: "xavier"
      std: 0.03
    }
    bias_filler {
      type: "constant"
      value: 0.2
    }
  }
}
layer {
  name: "inception_3b/relu_5x5"
  type: "ReLU"
  bottom: "inception_3b/5x5"
  top: "inception_3b/5x5"
}
layer {
  name: "inception_3b/pool"
  type: "Pooling"
  bottom: "inception_3a/output"
  top: "inception_3b/pool"
  pooling_param {
    pool: MAX
    kernel_size: 3
    stride: 1
    pad: 1
  }
}
layer {
  name: "inception_3b/pool_proj"
  type: "Convolution"
  bottom: "inception_3b/pool"
  top: "inception_3b/pool_proj"
  param {
    lr_mult: 1
    decay_mult: 1
  }
  param {
    lr_mult: 2
    decay_mult: 0
  }
  convolution_param {
    num_output: 64
    kernel_size: 1
    weight_filler {
      type: "xavier"
      std: 0.1
    }
    bias_filler {
      type: "constant"
      value: 0.2
    }
  }
}
layer {
  name: "inception_3b/relu_pool_proj"
  type: "ReLU"
  bottom: "inception_3b/pool_proj"
  top: "inception_3b/pool_proj"
}
layer {
  name: "inception_3b/output"
  type: "Concat"
  bottom: "inception_3b/1x1"
  bottom: "inception_3b/3x3"
  bottom: "inception_3b/5x5"
  bottom: "inception_3b/pool_proj"
  top: "inception_3b/output"
}
layer {
  name: "pool3/3x3_s2"
  type: "Pooling"
  bottom: "inception_3b/output"
  top: "pool3/3x3_s2"
  pooling_param {
    pool: MAX
    kernel_size: 3
    stride: 2
  }
}
layer {
  name: "inception_4a/1x1"
  type: "Convolution"
  bottom: "pool3/3x3_s2"
  top: "inception_4a/1x1"
  param {
    lr_mult: 1
    decay_mult: 1
  }
  param {
    lr_mult: 2
    decay_mult: 0
  }
  convolution_param {
    num_output: 192
    kernel_size: 1
    weight_filler {
      type: "xavier"
      std: 0.03
    }
    bias_filler {
      type: "constant"
      value: 0.2
    }
  }
}
layer {
  name: "inception_4a/relu_1x1"
  type: "ReLU"
  bottom: "inception_4a/1x1"
  top: "inception_4a/1x1"
}
layer {
  name: "inception_4a/3x3_reduce"
  type: "Convolution"
  bottom: "pool3/3x3_s2"
  top: "inception_4a/3x3_reduce"
  param {
    lr_mult: 1
    decay_mult: 1
  }
  param {
    lr_mult: 2
    decay_mult: 0
  }
  convolution_param {
    num_output: 96
    kernel_size: 1
    weight_filler {
      type: "xavier"
      std: 0.09
    }
    bias_filler {
      type: "constant"
      value: 0.2
    }
  }
}
layer {
  name: "inception_4a/relu_3x3_reduce"
  type: "ReLU"
  bottom: "inception_4a/3x3_reduce"
  top: "inception_4a/3x3_reduce"
}
layer {
  name: "inception_4a/3x3"
  type: "Convolution"
  bottom: "inception_4a/3x3_reduce"
  top: "inception_4a/3x3"
  param {
    lr_mult: 1
    decay_mult: 1
  }
  param {
    lr_mult: 2
    decay_mult: 0
  }
  convolution_param {
    num_output: 208
    pad: 1
    kernel_size: 3
    weight_filler {
      type: "xavier"
      std: 0.03
    }
    bias_filler {
      type: "constant"
      value: 0.2
    }
  }
}
layer {
  name: "inception_4a/relu_3x3"
  type: "ReLU"
  bottom: "inception_4a/3x3"
  top: "inception_4a/3x3"
}
layer {
  name: "inception_4a/5x5_reduce"
  type: "Convolution"
  bottom: "pool3/3x3_s2"
  top: "inception_4a/5x5_reduce"
  param {
    lr_mult: 1
    decay_mult: 1
  }
  param {
    lr_mult: 2
    decay_mult: 0
  }
  convolution_param {
    num_output: 16
    kernel_size: 1
    weight_filler {
      type: "xavier"
      std: 0.2
    }
    bias_filler {
      type: "constant"
      value: 0.2
    }
  }
}
layer {
  name: "inception_4a/relu_5x5_reduce"
  type: "ReLU"
  bottom: "inception_4a/5x5_reduce"
  top: "inception_4a/5x5_reduce"
}
layer {
  name: "inception_4a/5x5"
  type: "Convolution"
  bottom: "inception_4a/5x5_reduce"
  top: "inception_4a/5x5"
  param {
    lr_mult: 1
    decay_mult: 1
  }
  param {
    lr_mult: 2
    decay_mult: 0
  }
  convolution_param {
    num_output: 48
    pad: 2
    kernel_size: 5
    weight_filler {
      type: "xavier"
      std: 0.03
    }
    bias_filler {
      type: "constant"
      value: 0.2
    }
  }
}
layer {
  name: "inception_4a/relu_5x5"
  type: "ReLU"
  bottom: "inception_4a/5x5"
  top: "inception_4a/5x5"
}
layer {
  name: "inception_4a/pool"
  type: "Pooling"
  bottom: "pool3/3x3_s2"
  top: "inception_4a/pool"
  pooling_param {
    pool: MAX
    kernel_size: 3
    stride: 1
    pad: 1
  }
}
layer {
  name: "inception_4a/pool_proj"
  type: "Convolution"
  bottom: "inception_4a/pool"
  top: "inception_4a/pool_proj"
  param {
    lr_mult: 1
    decay_mult: 1
  }
  param {
    lr_mult: 2
    decay_mult: 0
  }
  convolution_param {
    num_output: 64
    kernel_size: 1
    weight_filler {
      type: "xavier"
      std: 0.1
    }
    bias_filler {
      type: "constant"
      value: 0.2
    }
  }
}
layer {
  name: "inception_4a/relu_pool_proj"
  type: "ReLU"
  bottom: "inception_4a/pool_proj"
  top: "inception_4a/pool_proj"
}
layer {
  name: "inception_4a/output"
  type: "Concat"
  bottom: "inception_4a/1x1"
  bottom: "inception_4a/3x3"
  bottom: "inception_4a/5x5"
  bottom: "inception_4a/pool_proj"
  top: "inception_4a/output"
}
layer {
  name: "loss1/ave_pool"
  type: "Pooling"
  bottom: "inception_4a/output"
  top: "loss1/ave_pool"
  pooling_param {
    pool: AVE
    kernel_size: 5
    stride: 3
  }
}
layer {
  name: "loss1/conv"
  type: "Convolution"
  bottom: "loss1/ave_pool"
  top: "loss1/conv"
  param {
    lr_mult: 1
    decay_mult: 1
  }
  param {
    lr_mult: 2
    decay_mult: 0
  }
  convolution_param {
    num_output: 128
    kernel_size: 1
    weight_filler {
      type: "xavier"
      std: 0.08
    }
    bias_filler {
      type: "constant"
      value: 0.2
    }
  }
}
layer {
  name: "loss1/relu_conv"
  type: "ReLU"
  bottom: "loss1/conv"
  top: "loss1/conv"
}
layer {
  name: "loss1/fc"
  type: "InnerProduct"
  bottom: "loss1/conv"
  top: "loss1/fc"
  param {
    lr_mult: 1
    decay_mult: 1
  }
  param {
    lr_mult: 2
    decay_mult: 0
  }
  inner_product_param {
    num_output: 1024
    weight_filler {
      type: "xavier"
      std: 0.02
    }
    bias_filler {
      type: "constant"
      value: 0.2
    }
  }
}
layer {
  name: "loss1/relu_fc"
  type: "ReLU"
  bottom: "loss1/fc"
  top: "loss1/fc"
}
layer {
  name: "loss1/drop_fc"
  type: "Dropout"
  bottom: "loss1/fc"
  top: "loss1/fc"
  dropout_param {
    dropout_ratio: 0.7
  }
}
layer {
  name: "loss1/classifier_plantvillage"
  type: "InnerProduct"
  bottom: "loss1/fc"
  top: "loss1/classifier_plantvillage"
  param {
    lr_mult: 1
    decay_mult: 1
  }
  param {
    lr_mult: 2
    decay_mult: 0
  }
  inner_product_param {
    num_output: 38
    weight_filler {
      type: "xavier"
      std: 0.0009765625
    }
    bias_filler {
      type: "constant"
      value: 0
    }
  }
}
layer {
  name: "inception_4b/1x1"
  type: "Convolution"
  bottom: "inception_4a/output"
  top: "inception_4b/1x1"
  param {
    lr_mult: 1
    decay_mult: 1
  }
  param {
    lr_mult: 2
    decay_mult: 0
  }
  convolution_param {
    num_output: 160
    kernel_size: 1
    weight_filler {
      type: "xavier"
      std: 0.03
    }
    bias_filler {
      type: "constant"
      value: 0.2
    }
  }
}
layer {
  name: "inception_4b/relu_1x1"
  type: "ReLU"
  bottom: "inception_4b/1x1"
  top: "inception_4b/1x1"
}
layer {
  name: "inception_4b/3x3_reduce"
  type: "Convolution"
  bottom: "inception_4a/output"
  top: "inception_4b/3x3_reduce"
  param {
    lr_mult: 1
    decay_mult: 1
  }
  param {
    lr_mult: 2
    decay_mult: 0
  }
  convolution_param {
    num_output: 112
    kernel_size: 1
    weight_filler {
      type: "xavier"
      std: 0.09
    }
    bias_filler {
      type: "constant"
      value: 0.2
    }
  }
}
layer {
  name: "inception_4b/relu_3x3_reduce"
  type: "ReLU"
  bottom: "inception_4b/3x3_reduce"
  top: "inception_4b/3x3_reduce"
}
layer {
  name: "inception_4b/3x3"
  type: "Convolution"
  bottom: "inception_4b/3x3_reduce"
  top: "inception_4b/3x3"
  param {
    lr_mult: 1
    decay_mult: 1
  }
  param {
    lr_mult: 2
    decay_mult: 0
  }
  convolution_param {
    num_output: 224
    pad: 1
    kernel_size: 3
    weight_filler {
      type: "xavier"
      std: 0.03
    }
    bias_filler {
      type: "constant"
      value: 0.2
    }
  }
}
layer {
  name: "inception_4b/relu_3x3"
  type: "ReLU"
  bottom: "inception_4b/3x3"
  top: "inception_4b/3x3"
}
layer {
  name: "inception_4b/5x5_reduce"
  type: "Convolution"
  bottom: "inception_4a/output"
  top: "inception_4b/5x5_reduce"
  param {
    lr_mult: 1
    decay_mult: 1
  }
  param {
    lr_mult: 2
    decay_mult: 0
  }
  convolution_param {
    num_output: 24
    kernel_size: 1
    weight_filler {
      type: "xavier"
      std: 0.2
    }
    bias_filler {
      type: "constant"
      value: 0.2
    }
  }
}
layer {
  name: "inception_4b/relu_5x5_reduce"
  type: "ReLU"
  bottom: "inception_4b/5x5_reduce"
  top: "inception_4b/5x5_reduce"
}
layer {
  name: "inception_4b/5x5"
  type: "Convolution"
  bottom: "inception_4b/5x5_reduce"
  top: "inception_4b/5x5"
  param {
    lr_mult: 1
    decay_mult: 1
  }
  param {
    lr_mult: 2
    decay_mult: 0
  }
  convolution_param {
    num_output: 64
    pad: 2
    kernel_size: 5
    weight_filler {
      type: "xavier"
      std: 0.03
    }
    bias_filler {
      type: "constant"
      value: 0.2
    }
  }
}
layer {
  name: "inception_4b/relu_5x5"
  type: "ReLU"
  bottom: "inception_4b/5x5"
  top: "inception_4b/5x5"
}
layer {
  name: "inception_4b/pool"
  type: "Pooling"
  bottom: "inception_4a/output"
  top: "inception_4b/pool"
  pooling_param {
    pool: MAX
    kernel_size: 3
    stride: 1
    pad: 1
  }
}
layer {
  name: "inception_4b/pool_proj"
  type: "Convolution"
  bottom: "inception_4b/pool"
  top: "inception_4b/pool_proj"
  param {
    lr_mult: 1
    decay_mult: 1
  }
  param {
    lr_mult: 2
    decay_mult: 0
  }
  convolution_param {
    num_output: 64
    kernel_size: 1
    weight_filler {
      type: "xavier"
      std: 0.1
    }
    bias_filler {
      type: "constant"
      value: 0.2
    }
  }
}
layer {
  name: "inception_4b/relu_pool_proj"
  type: "ReLU"
  bottom: "inception_4b/pool_proj"
  top: "inception_4b/pool_proj"
}
layer {
  name: "inception_4b/output"
  type: "Concat"
  bottom: "inception_4b/1x1"
  bottom: "inception_4b/3x3"
  bottom: "inception_4b/5x5"
  bottom: "inception_4b/pool_proj"
  top: "inception_4b/output"
}
layer {
  name: "inception_4c/1x1"
  type: "Convolution"
  bottom: "inception_4b/output"
  top: "inception_4c/1x1"
  param {
    lr_mult: 1
    decay_mult: 1
  }
  param {
    lr_mult: 2
    decay_mult: 0
  }
  convolution_param {
    num_output: 128
    kernel_size: 1
    weight_filler {
      type: "xavier"
      std: 0.03
    }
    bias_filler {
      type: "constant"
      value: 0.2
    }
  }
}
layer {
  name: "inception_4c/relu_1x1"
  type: "ReLU"
  bottom: "inception_4c/1x1"
  top: "inception_4c/1x1"
}
layer {
  name: "inception_4c/3x3_reduce"
  type: "Convolution"
  bottom: "inception_4b/output"
  top: "inception_4c/3x3_reduce"
  param {
    lr_mult: 1
    decay_mult: 1
  }
  param {
    lr_mult: 2
    decay_mult: 0
  }
  convolution_param {
    num_output: 128
    kernel_size: 1
    weight_filler {
      type: "xavier"
      std: 0.09
    }
    bias_filler {
      type: "constant"
      value: 0.2
    }
  }
}
layer {
  name: "inception_4c/relu_3x3_reduce"
  type: "ReLU"
  bottom: "inception_4c/3x3_reduce"
  top: "inception_4c/3x3_reduce"
}
layer {
  name: "inception_4c/3x3"
  type: "Convolution"
  bottom: "inception_4c/3x3_reduce"
  top: "inception_4c/3x3"
  param {
    lr_mult: 1
    decay_mult: 1
  }
  param {
    lr_mult: 2
    decay_mult: 0
  }
  convolution_param {
    num_output: 256
    pad: 1
    kernel_size: 3
    weight_filler {
      type: "xavier"
      std: 0.03
    }
    bias_filler {
      type: "constant"
      value: 0.2
    }
  }
}
layer {
  name: "inception_4c/relu_3x3"
  type: "ReLU"
  bottom: "inception_4c/3x3"
  top: "inception_4c/3x3"
}
layer {
  name: "inception_4c/5x5_reduce"
  type: "Convolution"
  bottom: "inception_4b/output"
  top: "inception_4c/5x5_reduce"
  param {
    lr_mult: 1
    decay_mult: 1
  }
  param {
    lr_mult: 2
    decay_mult: 0
  }
  convolution_param {
    num_output: 24
    kernel_size: 1
    weight_filler {
      type: "xavier"
      std: 0.2
    }
    bias_filler {
      type: "constant"
      value: 0.2
    }
  }
}
layer {
  name: "inception_4c/relu_5x5_reduce"
  type: "ReLU"
  bottom: "inception_4c/5x5_reduce"
  top: "inception_4c/5x5_reduce"
}
layer {
  name: "inception_4c/5x5"
  type: "Convolution"
  bottom: "inception_4c/5x5_reduce"
  top: "inception_4c/5x5"
  param {
    lr_mult: 1
    decay_mult: 1
  }
  param {
    lr_mult: 2
    decay_mult: 0
  }
  convolution_param {
    num_output: 64
    pad: 2
    kernel_size: 5
    weight_filler {
      type: "xavier"
      std: 0.03
    }
    bias_filler {
      type: "constant"
      value: 0.2
    }
  }
}
layer {
  name: "inception_4c/relu_5x5"
  type: "ReLU"
  bottom: "inception_4c/5x5"
  top: "inception_4c/5x5"
}
layer {
  name: "inception_4c/pool"
  type: "Pooling"
  bottom: "inception_4b/output"
  top: "inception_4c/pool"
  pooling_param {
    pool: MAX
    kernel_size: 3
    stride: 1
    pad: 1
  }
}
layer {
  name: "inception_4c/pool_proj"
  type: "Convolution"
  bottom: "inception_4c/pool"
  top: "inception_4c/pool_proj"
  param {
    lr_mult: 1
    decay_mult: 1
  }
  param {
    lr_mult: 2
    decay_mult: 0
  }
  convolution_param {
    num_output: 64
    kernel_size: 1
    weight_filler {
      type: "xavier"
      std: 0.1
    }
    bias_filler {
      type: "constant"
      value: 0.2
    }
  }
}
layer {
  name: "inception_4c/relu_pool_proj"
  type: "ReLU"
  bottom: "inception_4c/pool_proj"
  top: "inception_4c/pool_proj"
}
layer {
  name: "inception_4c/output"
  type: "Concat"
  bottom: "inception_4c/1x1"
  bottom: "inception_4c/3x3"
  bottom: "inception_4c/5x5"
  bottom: "inception_4c/pool_proj"
  top: "inception_4c/output"
}
layer {
  name: "inception_4d/1x1"
  type: "Convolution"
  bottom: "inception_4c/output"
  top: "inception_4d/1x1"
  param {
    lr_mult: 1
    decay_mult: 1
  }
  param {
    lr_mult: 2
    decay_mult: 0
  }
  convolution_param {
    num_output: 112
    kernel_size: 1
    weight_filler {
      type: "xavier"
      std: 0.03
    }
    bias_filler {
      type: "constant"
      value: 0.2
    }
  }
}
layer {
  name: "inception_4d/relu_1x1"
  type: "ReLU"
  bottom: "inception_4d/1x1"
  top: "inception_4d/1x1"
}
layer {
  name: "inception_4d/3x3_reduce"
  type: "Convolution"
  bottom: "inception_4c/output"
  top: "inception_4d/3x3_reduce"
  param {
    lr_mult: 1
    decay_mult: 1
  }
  param {
    lr_mult: 2
    decay_mult: 0
  }
  convolution_param {
    num_output: 144
    kernel_size: 1
    weight_filler {
      type: "xavier"
      std: 0.09
    }
    bias_filler {
      type: "constant"
      value: 0.2
    }
  }
}
layer {
  name: "inception_4d/relu_3x3_reduce"
  type: "ReLU"
  bottom: "inception_4d/3x3_reduce"
  top: "inception_4d/3x3_reduce"
}
layer {
  name: "inception_4d/3x3"
  type: "Convolution"
  bottom: "inception_4d/3x3_reduce"
  top: "inception_4d/3x3"
  param {
    lr_mult: 1
    decay_mult: 1
  }
  param {
    lr_mult: 2
    decay_mult: 0
  }
  convolution_param {
    num_output: 288
    pad: 1
    kernel_size: 3
    weight_filler {
      type: "xavier"
      std: 0.03
    }
    bias_filler {
      type: "constant"
      value: 0.2
    }
  }
}
layer {
  name: "inception_4d/relu_3x3"
  type: "ReLU"
  bottom: "inception_4d/3x3"
  top: "inception_4d/3x3"
}
layer {
  name: "inception_4d/5x5_reduce"
  type: "Convolution"
  bottom: "inception_4c/output"
  top: "inception_4d/5x5_reduce"
  param {
    lr_mult: 1
    decay_mult: 1
  }
  param {
    lr_mult: 2
    decay_mult: 0
  }
  convolution_param {
    num_output: 32
    kernel_size: 1
    weight_filler {
      type: "xavier"
      std: 0.2
    }
    bias_filler {
      type: "constant"
      value: 0.2
    }
  }
}
layer {
  name: "inception_4d/relu_5x5_reduce"
  type: "ReLU"
  bottom: "inception_4d/5x5_reduce"
  top: "inception_4d/5x5_reduce"
}
layer {
  name: "inception_4d/5x5"
  type: "Convolution"
  bottom: "inception_4d/5x5_reduce"
  top: "inception_4d/5x5"
  param {
    lr_mult: 1
    decay_mult: 1
  }
  param {
    lr_mult: 2
    decay_mult: 0
  }
  convolution_param {
    num_output: 64
    pad: 2
    kernel_size: 5
    weight_filler {
      type: "xavier"
      std: 0.03
    }
    bias_filler {
      type: "constant"
      value: 0.2
    }
  }
}
layer {
  name: "inception_4d/relu_5x5"
  type: "ReLU"
  bottom: "inception_4d/5x5"
  top: "inception_4d/5x5"
}
layer {
  name: "inception_4d/pool"
  type: "Pooling"
  bottom: "inception_4c/output"
  top: "inception_4d/pool"
  pooling_param {
    pool: MAX
    kernel_size: 3
    stride: 1
    pad: 1
  }
}
layer {
  name: "inception_4d/pool_proj"
  type: "Convolution"
  bottom: "inception_4d/pool"
  top: "inception_4d/pool_proj"
  param {
    lr_mult: 1
    decay_mult: 1
  }
  param {
    lr_mult: 2
    decay_mult: 0
  }
  convolution_param {
    num_output: 64
    kernel_size: 1
    weight_filler {
      type: "xavier"
      std: 0.1
    }
    bias_filler {
      type: "constant"
      value: 0.2
    }
  }
}
layer {
  name: "inception_4d/relu_pool_proj"
  type: "ReLU"
  bottom: "inception_4d/pool_proj"
  top: "inception_4d/pool_proj"
}
layer {
  name: "inception_4d/output"
  type: "Concat"
  bottom: "inception_4d/1x1"
  bottom: "inception_4d/3x3"
  bottom: "inception_4d/5x5"
  bottom: "inception_4d/pool_proj"
  top: "inception_4d/output"
}
layer {
  name: "loss2/ave_pool"
  type: "Pooling"
  bottom: "inception_4d/output"
  top: "loss2/ave_pool"
  pooling_param {
    pool: AVE
    kernel_size: 5
    stride: 3
  }
}
layer {
  name: "loss2/conv"
  type: "Convolution"
  bottom: "loss2/ave_pool"
  top: "loss2/conv"
  param {
    lr_mult: 1
    decay_mult: 1
  }
  param {
    lr_mult: 2
    decay_mult: 0
  }
  convolution_param {
    num_output: 128
    kernel_size: 1
    weight_filler {
      type: "xavier"
      std: 0.08
    }
    bias_filler {
      type: "constant"
      value: 0.2
    }
  }
}
layer {
  name: "loss2/relu_conv"
  type: "ReLU"
  bottom: "loss2/conv"
  top: "loss2/conv"
}
layer {
  name: "loss2/fc"
  type: "InnerProduct"
  bottom: "loss2/conv"
  top: "loss2/fc"
  param {
    lr_mult: 1
    decay_mult: 1
  }
  param {
    lr_mult: 2
    decay_mult: 0
  }
  inner_product_param {
    num_output: 1024
    weight_filler {
      type: "xavier"
      std: 0.02
    }
    bias_filler {
      type: "constant"
      value: 0.2
    }
  }
}
layer {
  name: "loss2/relu_fc"
  type: "ReLU"
  bottom: "loss2/fc"
  top: "loss2/fc"
}
layer {
  name: "loss2/drop_fc"
  type: "Dropout"
  bottom: "loss2/fc"
  top: "loss2/fc"
  dropout_param {
    dropout_ratio: 0.7
  }
}
layer {
  name: "loss2/classifier_plantvillage"
  type: "InnerProduct"
  bottom: "loss2/fc"
  top: "loss2/classifier_plantvillage"
  param {
    lr_mult: 1
    decay_mult: 1
  }
  param {
    lr_mult: 2
    decay_mult: 0
  }
  inner_product_param {
    num_output: 38
    weight_filler {
      type: "xavier"
      std: 0.0009765625
    }
    bias_filler {
      type: "constant"
      value: 0
    }
  }
}
layer {
  name: "inception_4e/1x1"
  type: "Convolution"
  bottom: "inception_4d/output"
  top: "inception_4e/1x1"
  param {
    lr_mult: 1
    decay_mult: 1
  }
  param {
    lr_mult: 2
    decay_mult: 0
  }
  convolution_param {
    num_output: 256
    kernel_size: 1
    weight_filler {
      type: "xavier"
      std: 0.03
    }
    bias_filler {
      type: "constant"
      value: 0.2
    }
  }
}
layer {
  name: "inception_4e/relu_1x1"
  type: "ReLU"
  bottom: "inception_4e/1x1"
  top: "inception_4e/1x1"
}
layer {
  name: "inception_4e/3x3_reduce"
  type: "Convolution"
  bottom: "inception_4d/output"
  top: "inception_4e/3x3_reduce"
  param {
    lr_mult: 1
    decay_mult: 1
  }
  param {
    lr_mult: 2
    decay_mult: 0
  }
  convolution_param {
    num_output: 160
    kernel_size: 1
    weight_filler {
      type: "xavier"
      std: 0.09
    }
    bias_filler {
      type: "constant"
      value: 0.2
    }
  }
}
layer {
  name: "inception_4e/relu_3x3_reduce"
  type: "ReLU"
  bottom: "inception_4e/3x3_reduce"
  top: "inception_4e/3x3_reduce"
}
layer {
  name: "inception_4e/3x3"
  type: "Convolution"
  bottom: "inception_4e/3x3_reduce"
  top: "inception_4e/3x3"
  param {
    lr_mult: 1
    decay_mult: 1
  }
  param {
    lr_mult: 2
    decay_mult: 0
  }
  convolution_param {
    num_output: 320
    pad: 1
    kernel_size: 3
    weight_filler {
      type: "xavier"
      std: 0.03
    }
    bias_filler {
      type: "constant"
      value: 0.2
    }
  }
}
layer {
  name: "inception_4e/relu_3x3"
  type: "ReLU"
  bottom: "inception_4e/3x3"
  top: "inception_4e/3x3"
}
layer {
  name: "inception_4e/5x5_reduce"
  type: "Convolution"
  bottom: "inception_4d/output"
  top: "inception_4e/5x5_reduce"
  param {
    lr_mult: 1
    decay_mult: 1
  }
  param {
    lr_mult: 2
    decay_mult: 0
  }
  convolution_param {
    num_output: 32
    kernel_size: 1
    weight_filler {
      type: "xavier"
      std: 0.2
    }
    bias_filler {
      type: "constant"
      value: 0.2
    }
  }
}
layer {
  name: "inception_4e/relu_5x5_reduce"
  type: "ReLU"
  bottom: "inception_4e/5x5_reduce"
  top: "inception_4e/5x5_reduce"
}
layer {
  name: "inception_4e/5x5"
  type: "Convolution"
  bottom: "inception_4e/5x5_reduce"
  top: "inception_4e/
I0403 15:15:37.978767  2882 layer_factory.hpp:77] Creating layer data
I0403 15:15:37.979363  2882 net.cpp:91] Creating Layer data
I0403 15:15:37.979393  2882 net.cpp:399] data -> data
I0403 15:15:37.979442  2882 net.cpp:399] data -> label
I0403 15:15:37.979480  2882 data_transformer.cpp:25] Loading mean file from: /home/mohanty/data/final_dataset/lmdb/segmented-60-40/mean.binaryproto
I0403 15:15:37.992379  2885 db_lmdb.cpp:38] Opened lmdb /home/mohanty/data/final_dataset/lmdb/segmented-60-40/test_db
I0403 15:15:38.001927  2882 data_layer.cpp:41] output data size: 24,3,224,224
I0403 15:15:38.030323  2882 net.cpp:141] Setting up data
I0403 15:15:38.030382  2882 net.cpp:148] Top shape: 24 3 224 224 (3612672)
I0403 15:15:38.030406  2882 net.cpp:148] Top shape: 24 (24)
I0403 15:15:38.030422  2882 net.cpp:156] Memory required for data: 14450784
I0403 15:15:38.030455  2882 layer_factory.hpp:77] Creating layer label_data_1_split
I0403 15:15:38.030491  2882 net.cpp:91] Creating Layer label_data_1_split
I0403 15:15:38.030514  2882 net.cpp:425] label_data_1_split <- label
I0403 15:15:38.030547  2882 net.cpp:399] label_data_1_split -> label_data_1_split_0
I0403 15:15:38.030576  2882 net.cpp:399] label_data_1_split -> label_data_1_split_1
I0403 15:15:38.030608  2882 net.cpp:399] label_data_1_split -> label_data_1_split_2
I0403 15:15:38.030640  2882 net.cpp:399] label_data_1_split -> label_data_1_split_3
I0403 15:15:38.030661  2882 net.cpp:399] label_data_1_split -> label_data_1_split_4
I0403 15:15:38.030683  2882 net.cpp:399] label_data_1_split -> label_data_1_split_5
I0403 15:15:38.030704  2882 net.cpp:399] label_data_1_split -> label_data_1_split_6
I0403 15:15:38.030725  2882 net.cpp:399] label_data_1_split -> label_data_1_split_7
I0403 15:15:38.030746  2882 net.cpp:399] label_data_1_split -> label_data_1_split_8
I0403 15:15:38.030767  2882 net.cpp:399] label_data_1_split -> label_data_1_split_9
I0403 15:15:38.030889  2882 net.cpp:141] Setting up label_data_1_split
I0403 15:15:38.030913  2882 net.cpp:148] Top shape: 24 (24)
I0403 15:15:38.030931  2882 net.cpp:148] Top shape: 24 (24)
I0403 15:15:38.030948  2882 net.cpp:148] Top shape: 24 (24)
I0403 15:15:38.030966  2882 net.cpp:148] Top shape: 24 (24)
I0403 15:15:38.030982  2882 net.cpp:148] Top shape: 24 (24)
I0403 15:15:38.030998  2882 net.cpp:148] Top shape: 24 (24)
I0403 15:15:38.031015  2882 net.cpp:148] Top shape: 24 (24)
I0403 15:15:38.031031  2882 net.cpp:148] Top shape: 24 (24)
I0403 15:15:38.031047  2882 net.cpp:148] Top shape: 24 (24)
I0403 15:15:38.031064  2882 net.cpp:148] Top shape: 24 (24)
I0403 15:15:38.031111  2882 net.cpp:156] Memory required for data: 14451744
I0403 15:15:38.031127  2882 layer_factory.hpp:77] Creating layer conv1/7x7_s2
I0403 15:15:38.031159  2882 net.cpp:91] Creating Layer conv1/7x7_s2
I0403 15:15:38.031183  2882 net.cpp:425] conv1/7x7_s2 <- data
I0403 15:15:38.031204  2882 net.cpp:399] conv1/7x7_s2 -> conv1/7x7_s2
I0403 15:15:38.176105  2882 net.cpp:141] Setting up conv1/7x7_s2
I0403 15:15:38.176198  2882 net.cpp:148] Top shape: 24 64 112 112 (19267584)
I0403 15:15:38.176216  2882 net.cpp:156] Memory required for data: 91522080
I0403 15:15:38.176249  2882 layer_factory.hpp:77] Creating layer conv1/relu_7x7
I0403 15:15:38.176276  2882 net.cpp:91] Creating Layer conv1/relu_7x7
I0403 15:15:38.176295  2882 net.cpp:425] conv1/relu_7x7 <- conv1/7x7_s2
I0403 15:15:38.176314  2882 net.cpp:386] conv1/relu_7x7 -> conv1/7x7_s2 (in-place)
I0403 15:15:38.176573  2882 net.cpp:141] Setting up conv1/relu_7x7
I0403 15:15:38.176601  2882 net.cpp:148] Top shape: 24 64 112 112 (19267584)
I0403 15:15:38.176617  2882 net.cpp:156] Memory required for data: 168592416
I0403 15:15:38.176633  2882 layer_factory.hpp:77] Creating layer pool1/3x3_s2
I0403 15:15:38.176659  2882 net.cpp:91] Creating Layer pool1/3x3_s2
I0403 15:15:38.176677  2882 net.cpp:425] pool1/3x3_s2 <- conv1/7x7_s2
I0403 15:15:38.176697  2882 net.cpp:399] pool1/3x3_s2 -> pool1/3x3_s2
I0403 15:15:38.176770  2882 net.cpp:141] Setting up pool1/3x3_s2
I0403 15:15:38.176795  2882 net.cpp:148] Top shape: 24 64 56 56 (4816896)
I0403 15:15:38.176810  2882 net.cpp:156] Memory required for data: 187860000
I0403 15:15:38.176826  2882 layer_factory.hpp:77] Creating layer pool1/norm1
I0403 15:15:38.176851  2882 net.cpp:91] Creating Layer pool1/norm1
I0403 15:15:38.176868  2882 net.cpp:425] pool1/norm1 <- pool1/3x3_s2
I0403 15:15:38.176887  2882 net.cpp:399] pool1/norm1 -> pool1/norm1
I0403 15:15:38.177193  2882 net.cpp:141] Setting up pool1/norm1
I0403 15:15:38.177222  2882 net.cpp:148] Top shape: 24 64 56 56 (4816896)
I0403 15:15:38.177239  2882 net.cpp:156] Memory required for data: 207127584
I0403 15:15:38.177255  2882 layer_factory.hpp:77] Creating layer conv2/3x3_reduce
I0403 15:15:38.177281  2882 net.cpp:91] Creating Layer conv2/3x3_reduce
I0403 15:15:38.177299  2882 net.cpp:425] conv2/3x3_reduce <- pool1/norm1
I0403 15:15:38.177319  2882 net.cpp:399] conv2/3x3_reduce -> conv2/3x3_reduce
I0403 15:15:38.178768  2882 net.cpp:141] Setting up conv2/3x3_reduce
I0403 15:15:38.178802  2882 net.cpp:148] Top shape: 24 64 56 56 (4816896)
I0403 15:15:38.178818  2882 net.cpp:156] Memory required for data: 226395168
I0403 15:15:38.178840  2882 layer_factory.hpp:77] Creating layer conv2/relu_3x3_reduce
I0403 15:15:38.178860  2882 net.cpp:91] Creating Layer conv2/relu_3x3_reduce
I0403 15:15:38.178879  2882 net.cpp:425] conv2/relu_3x3_reduce <- conv2/3x3_reduce
I0403 15:15:38.178900  2882 net.cpp:386] conv2/relu_3x3_reduce -> conv2/3x3_reduce (in-place)
I0403 15:15:38.179184  2882 net.cpp:141] Setting up conv2/relu_3x3_reduce
I0403 15:15:38.179213  2882 net.cpp:148] Top shape: 24 64 56 56 (4816896)
I0403 15:15:38.179229  2882 net.cpp:156] Memory required for data: 245662752
I0403 15:15:38.179244  2882 layer_factory.hpp:77] Creating layer conv2/3x3
I0403 15:15:38.179270  2882 net.cpp:91] Creating Layer conv2/3x3
I0403 15:15:38.179287  2882 net.cpp:425] conv2/3x3 <- conv2/3x3_reduce
I0403 15:15:38.179311  2882 net.cpp:399] conv2/3x3 -> conv2/3x3
I0403 15:15:38.181730  2882 net.cpp:141] Setting up conv2/3x3
I0403 15:15:38.181762  2882 net.cpp:148] Top shape: 24 192 56 56 (14450688)
I0403 15:15:38.181779  2882 net.cpp:156] Memory required for data: 303465504
I0403 15:15:38.181802  2882 layer_factory.hpp:77] Creating layer conv2/relu_3x3
I0403 15:15:38.181821  2882 net.cpp:91] Creating Layer conv2/relu_3x3
I0403 15:15:38.181838  2882 net.cpp:425] conv2/relu_3x3 <- conv2/3x3
I0403 15:15:38.181859  2882 net.cpp:386] conv2/relu_3x3 -> conv2/3x3 (in-place)
I0403 15:15:38.182046  2882 net.cpp:141] Setting up conv2/relu_3x3
I0403 15:15:38.182075  2882 net.cpp:148] Top shape: 24 192 56 56 (14450688)
I0403 15:15:38.182123  2882 net.cpp:156] Memory required for data: 361268256
I0403 15:15:38.182140  2882 layer_factory.hpp:77] Creating layer conv2/norm2
I0403 15:15:38.182159  2882 net.cpp:91] Creating Layer conv2/norm2
I0403 15:15:38.182175  2882 net.cpp:425] conv2/norm2 <- conv2/3x3
I0403 15:15:38.182202  2882 net.cpp:399] conv2/norm2 -> conv2/norm2
I0403 15:15:38.182525  2882 net.cpp:141] Setting up conv2/norm2
I0403 15:15:38.182554  2882 net.cpp:148] Top shape: 24 192 56 56 (14450688)
I0403 15:15:38.182571  2882 net.cpp:156] Memory required for data: 419071008
I0403 15:15:38.182587  2882 layer_factory.hpp:77] Creating layer pool2/3x3_s2
I0403 15:15:38.182606  2882 net.cpp:91] Creating Layer pool2/3x3_s2
I0403 15:15:38.182623  2882 net.cpp:425] pool2/3x3_s2 <- conv2/norm2
I0403 15:15:38.182643  2882 net.cpp:399] pool2/3x3_s2 -> pool2/3x3_s2
I0403 15:15:38.182701  2882 net.cpp:141] Setting up pool2/3x3_s2
I0403 15:15:38.182725  2882 net.cpp:148] Top shape: 24 192 28 28 (3612672)
I0403 15:15:38.182741  2882 net.cpp:156] Memory required for data: 433521696
I0403 15:15:38.182756  2882 layer_factory.hpp:77] Creating layer pool2/3x3_s2_pool2/3x3_s2_0_split
I0403 15:15:38.182780  2882 net.cpp:91] Creating Layer pool2/3x3_s2_pool2/3x3_s2_0_split
I0403 15:15:38.182797  2882 net.cpp:425] pool2/3x3_s2_pool2/3x3_s2_0_split <- pool2/3x3_s2
I0403 15:15:38.182816  2882 net.cpp:399] pool2/3x3_s2_pool2/3x3_s2_0_split -> pool2/3x3_s2_pool2/3x3_s2_0_split_0
I0403 15:15:38.182837  2882 net.cpp:399] pool2/3x3_s2_pool2/3x3_s2_0_split -> pool2/3x3_s2_pool2/3x3_s2_0_split_1
I0403 15:15:38.182860  2882 net.cpp:399] pool2/3x3_s2_pool2/3x3_s2_0_split -> pool2/3x3_s2_pool2/3x3_s2_0_split_2
I0403 15:15:38.182881  2882 net.cpp:399] pool2/3x3_s2_pool2/3x3_s2_0_split -> pool2/3x3_s2_pool2/3x3_s2_0_split_3
I0403 15:15:38.182955  2882 net.cpp:141] Setting up pool2/3x3_s2_pool2/3x3_s2_0_split
I0403 15:15:38.182979  2882 net.cpp:148] Top shape: 24 192 28 28 (3612672)
I0403 15:15:38.182997  2882 net.cpp:148] Top shape: 24 192 28 28 (3612672)
I0403 15:15:38.183014  2882 net.cpp:148] Top shape: 24 192 28 28 (3612672)
I0403 15:15:38.183030  2882 net.cpp:148] Top shape: 24 192 28 28 (3612672)
I0403 15:15:38.183045  2882 net.cpp:156] Memory required for data: 491324448
I0403 15:15:38.183060  2882 layer_factory.hpp:77] Creating layer inception_3a/1x1
I0403 15:15:38.183084  2882 net.cpp:91] Creating Layer inception_3a/1x1
I0403 15:15:38.183101  2882 net.cpp:425] inception_3a/1x1 <- pool2/3x3_s2_pool2/3x3_s2_0_split_0
I0403 15:15:38.183123  2882 net.cpp:399] inception_3a/1x1 -> inception_3a/1x1
I0403 15:15:38.184741  2882 net.cpp:141] Setting up inception_3a/1x1
I0403 15:15:38.184770  2882 net.cpp:148] Top shape: 24 64 28 28 (1204224)
I0403 15:15:38.184787  2882 net.cpp:156] Memory required for data: 496141344
I0403 15:15:38.184808  2882 layer_factory.hpp:77] Creating layer inception_3a/relu_1x1
I0403 15:15:38.184828  2882 net.cpp:91] Creating Layer inception_3a/relu_1x1
I0403 15:15:38.184849  2882 net.cpp:425] inception_3a/relu_1x1 <- inception_3a/1x1
I0403 15:15:38.184869  2882 net.cpp:386] inception_3a/relu_1x1 -> inception_3a/1x1 (in-place)
I0403 15:15:38.185050  2882 net.cpp:141] Setting up inception_3a/relu_1x1
I0403 15:15:38.185077  2882 net.cpp:148] Top shape: 24 64 28 28 (1204224)
I0403 15:15:38.185093  2882 net.cpp:156] Memory required for data: 500958240
I0403 15:15:38.185108  2882 layer_factory.hpp:77] Creating layer inception_3a/3x3_reduce
I0403 15:15:38.185132  2882 net.cpp:91] Creating Layer inception_3a/3x3_reduce
I0403 15:15:38.185150  2882 net.cpp:425] inception_3a/3x3_reduce <- pool2/3x3_s2_pool2/3x3_s2_0_split_1
I0403 15:15:38.185173  2882 net.cpp:399] inception_3a/3x3_reduce -> inception_3a/3x3_reduce
I0403 15:15:38.186965  2882 net.cpp:141] Setting up inception_3a/3x3_reduce
I0403 15:15:38.186996  2882 net.cpp:148] Top shape: 24 96 28 28 (1806336)
I0403 15:15:38.187013  2882 net.cpp:156] Memory required for data: 508183584
I0403 15:15:38.187036  2882 layer_factory.hpp:77] Creating layer inception_3a/relu_3x3_reduce
I0403 15:15:38.187075  2882 net.cpp:91] Creating Layer inception_3a/relu_3x3_reduce
I0403 15:15:38.187096  2882 net.cpp:425] inception_3a/relu_3x3_reduce <- inception_3a/3x3_reduce
I0403 15:15:38.187115  2882 net.cpp:386] inception_3a/relu_3x3_reduce -> inception_3a/3x3_reduce (in-place)
I0403 15:15:38.187315  2882 net.cpp:141] Setting up inception_3a/relu_3x3_reduce
I0403 15:15:38.187342  2882 net.cpp:148] Top shape: 24 96 28 28 (1806336)
I0403 15:15:38.187358  2882 net.cpp:156] Memory required for data: 515408928
I0403 15:15:38.187374  2882 layer_factory.hpp:77] Creating layer inception_3a/3x3
I0403 15:15:38.187398  2882 net.cpp:91] Creating Layer inception_3a/3x3
I0403 15:15:38.187417  2882 net.cpp:425] inception_3a/3x3 <- inception_3a/3x3_reduce
I0403 15:15:38.187441  2882 net.cpp:399] inception_3a/3x3 -> inception_3a/3x3
I0403 15:15:38.189185  2882 net.cpp:141] Setting up inception_3a/3x3
I0403 15:15:38.189215  2882 net.cpp:148] Top shape: 24 128 28 28 (2408448)
I0403 15:15:38.189232  2882 net.cpp:156] Memory required for data: 525042720
I0403 15:15:38.189251  2882 layer_factory.hpp:77] Creating layer inception_3a/relu_3x3
I0403 15:15:38.189273  2882 net.cpp:91] Creating Layer inception_3a/relu_3x3
I0403 15:15:38.189291  2882 net.cpp:425] inception_3a/relu_3x3 <- inception_3a/3x3
I0403 15:15:38.189309  2882 net.cpp:386] inception_3a/relu_3x3 -> inception_3a/3x3 (in-place)
I0403 15:15:38.189599  2882 net.cpp:141] Setting up inception_3a/relu_3x3
I0403 15:15:38.189627  2882 net.cpp:148] Top shape: 24 128 28 28 (2408448)
I0403 15:15:38.189643  2882 net.cpp:156] Memory required for data: 534676512
I0403 15:15:38.189659  2882 layer_factory.hpp:77] Creating layer inception_3a/5x5_reduce
I0403 15:15:38.189683  2882 net.cpp:91] Creating Layer inception_3a/5x5_reduce
I0403 15:15:38.189702  2882 net.cpp:425] inception_3a/5x5_reduce <- pool2/3x3_s2_pool2/3x3_s2_0_split_2
I0403 15:15:38.189723  2882 net.cpp:399] inception_3a/5x5_reduce -> inception_3a/5x5_reduce
I0403 15:15:38.190737  2882 net.cpp:141] Setting up inception_3a/5x5_reduce
I0403 15:15:38.190767  2882 net.cpp:148] Top shape: 24 16 28 28 (301056)
I0403 15:15:38.190783  2882 net.cpp:156] Memory required for data: 535880736
I0403 15:15:38.190803  2882 layer_factory.hpp:77] Creating layer inception_3a/relu_5x5_reduce
I0403 15:15:38.190824  2882 net.cpp:91] Creating Layer inception_3a/relu_5x5_reduce
I0403 15:15:38.190842  2882 net.cpp:425] inception_3a/relu_5x5_reduce <- inception_3a/5x5_reduce
I0403 15:15:38.190860  2882 net.cpp:386] inception_3a/relu_5x5_reduce -> inception_3a/5x5_reduce (in-place)
I0403 15:15:38.191175  2882 net.cpp:141] Setting up inception_3a/relu_5x5_reduce
I0403 15:15:38.191210  2882 net.cpp:148] Top shape: 24 16 28 28 (301056)
I0403 15:15:38.191227  2882 net.cpp:156] Memory required for data: 537084960
I0403 15:15:38.191243  2882 layer_factory.hpp:77] Creating layer inception_3a/5x5
I0403 15:15:38.191267  2882 net.cpp:91] Creating Layer inception_3a/5x5
I0403 15:15:38.191284  2882 net.cpp:425] inception_3a/5x5 <- inception_3a/5x5_reduce
I0403 15:15:38.191304  2882 net.cpp:399] inception_3a/5x5 -> inception_3a/5x5
I0403 15:15:38.192370  2882 net.cpp:141] Setting up inception_3a/5x5
I0403 15:15:38.192399  2882 net.cpp:148] Top shape: 24 32 28 28 (602112)
I0403 15:15:38.192416  2882 net.cpp:156] Memory required for data: 539493408
I0403 15:15:38.192437  2882 layer_factory.hpp:77] Creating layer inception_3a/relu_5x5
I0403 15:15:38.192459  2882 net.cpp:91] Creating Layer inception_3a/relu_5x5
I0403 15:15:38.192476  2882 net.cpp:425] inception_3a/relu_5x5 <- inception_3a/5x5
I0403 15:15:38.192495  2882 net.cpp:386] inception_3a/relu_5x5 -> inception_3a/5x5 (in-place)
I0403 15:15:38.192678  2882 net.cpp:141] Setting up inception_3a/relu_5x5
I0403 15:15:38.192704  2882 net.cpp:148] Top shape: 24 32 28 28 (602112)
I0403 15:15:38.192719  2882 net.cpp:156] Memory required for data: 541901856
I0403 15:15:38.192735  2882 layer_factory.hpp:77] Creating layer inception_3a/pool
I0403 15:15:38.192759  2882 net.cpp:91] Creating Layer inception_3a/pool
I0403 15:15:38.192790  2882 net.cpp:425] inception_3a/pool <- pool2/3x3_s2_pool2/3x3_s2_0_split_3
I0403 15:15:38.192811  2882 net.cpp:399] inception_3a/pool -> inception_3a/pool
I0403 15:15:38.192873  2882 net.cpp:141] Setting up inception_3a/pool
I0403 15:15:38.192896  2882 net.cpp:148] Top shape: 24 192 28 28 (3612672)
I0403 15:15:38.192912  2882 net.cpp:156] Memory required for data: 556352544
I0403 15:15:38.192927  2882 layer_factory.hpp:77] Creating layer inception_3a/pool_proj
I0403 15:15:38.192950  2882 net.cpp:91] Creating Layer inception_3a/pool_proj
I0403 15:15:38.192968  2882 net.cpp:425] inception_3a/pool_proj <- inception_3a/pool
I0403 15:15:38.192991  2882 net.cpp:399] inception_3a/pool_proj -> inception_3a/pool_proj
I0403 15:15:38.194012  2882 net.cpp:141] Setting up inception_3a/pool_proj
I0403 15:15:38.194044  2882 net.cpp:148] Top shape: 24 32 28 28 (602112)
I0403 15:15:38.194062  2882 net.cpp:156] Memory required for data: 558760992
I0403 15:15:38.194085  2882 layer_factory.hpp:77] Creating layer inception_3a/relu_pool_proj
I0403 15:15:38.194108  2882 net.cpp:91] Creating Layer inception_3a/relu_pool_proj
I0403 15:15:38.194124  2882 net.cpp:425] inception_3a/relu_pool_proj <- inception_3a/pool_proj
I0403 15:15:38.194144  2882 net.cpp:386] inception_3a/relu_pool_proj -> inception_3a/pool_proj (in-place)
I0403 15:15:38.194437  2882 net.cpp:141] Setting up inception_3a/relu_pool_proj
I0403 15:15:38.194464  2882 net.cpp:148] Top shape: 24 32 28 28 (602112)
I0403 15:15:38.194480  2882 net.cpp:156] Memory required for data: 561169440
I0403 15:15:38.194496  2882 layer_factory.hpp:77] Creating layer inception_3a/output
I0403 15:15:38.194515  2882 net.cpp:91] Creating Layer inception_3a/output
I0403 15:15:38.194535  2882 net.cpp:425] inception_3a/output <- inception_3a/1x1
I0403 15:15:38.194552  2882 net.cpp:425] inception_3a/output <- inception_3a/3x3
I0403 15:15:38.194569  2882 net.cpp:425] inception_3a/output <- inception_3a/5x5
I0403 15:15:38.194586  2882 net.cpp:425] inception_3a/output <- inception_3a/pool_proj
I0403 15:15:38.194604  2882 net.cpp:399] inception_3a/output -> inception_3a/output
I0403 15:15:38.194651  2882 net.cpp:141] Setting up inception_3a/output
I0403 15:15:38.194679  2882 net.cpp:148] Top shape: 24 256 28 28 (4816896)
I0403 15:15:38.194696  2882 net.cpp:156] Memory required for data: 580437024
I0403 15:15:38.194712  2882 layer_factory.hpp:77] Creating layer inception_3a/output_inception_3a/output_0_split
I0403 15:15:38.194730  2882 net.cpp:91] Creating Layer inception_3a/output_inception_3a/output_0_split
I0403 15:15:38.194746  2882 net.cpp:425] inception_3a/output_inception_3a/output_0_split <- inception_3a/output
I0403 15:15:38.194767  2882 net.cpp:399] inception_3a/output_inception_3a/output_0_split -> inception_3a/output_inception_3a/output_0_split_0
I0403 15:15:38.194788  2882 net.cpp:399] inception_3a/output_inception_3a/output_0_split -> inception_3a/output_inception_3a/output_0_split_1
I0403 15:15:38.194811  2882 net.cpp:399] inception_3a/output_inception_3a/output_0_split -> inception_3a/output_inception_3a/output_0_split_2
I0403 15:15:38.194833  2882 net.cpp:399] inception_3a/output_inception_3a/output_0_split -> inception_3a/output_inception_3a/output_0_split_3
I0403 15:15:38.194911  2882 net.cpp:141] Setting up inception_3a/output_inception_3a/output_0_split
I0403 15:15:38.194936  2882 net.cpp:148] Top shape: 24 256 28 28 (4816896)
I0403 15:15:38.194953  2882 net.cpp:148] Top shape: 24 256 28 28 (4816896)
I0403 15:15:38.194970  2882 net.cpp:148] Top shape: 24 256 28 28 (4816896)
I0403 15:15:38.194988  2882 net.cpp:148] Top shape: 24 256 28 28 (4816896)
I0403 15:15:38.195001  2882 net.cpp:156] Memory required for data: 657507360
I0403 15:15:38.195016  2882 layer_factory.hpp:77] Creating layer inception_3b/1x1
I0403 15:15:38.195040  2882 net.cpp:91] Creating Layer inception_3b/1x1
I0403 15:15:38.195058  2882 net.cpp:425] inception_3b/1x1 <- inception_3a/output_inception_3a/output_0_split_0
I0403 15:15:38.195080  2882 net.cpp:399] inception_3b/1x1 -> inception_3b/1x1
I0403 15:15:38.196286  2882 net.cpp:141] Setting up inception_3b/1x1
I0403 15:15:38.196328  2882 net.cpp:148] Top shape: 24 128 28 28 (2408448)
I0403 15:15:38.196346  2882 net.cpp:156] Memory required for data: 667141152
I0403 15:15:38.196365  2882 layer_factory.hpp:77] Creating layer inception_3b/relu_1x1
I0403 15:15:38.196384  2882 net.cpp:91] Creating Layer inception_3b/relu_1x1
I0403 15:15:38.196401  2882 net.cpp:425] inception_3b/relu_1x1 <- inception_3b/1x1
I0403 15:15:38.196422  2882 net.cpp:386] inception_3b/relu_1x1 -> inception_3b/1x1 (in-place)
I0403 15:15:38.196615  2882 net.cpp:141] Setting up inception_3b/relu_1x1
I0403 15:15:38.196641  2882 net.cpp:148] Top shape: 24 128 28 28 (2408448)
I0403 15:15:38.196657  2882 net.cpp:156] Memory required for data: 676774944
I0403 15:15:38.196673  2882 layer_factory.hpp:77] Creating layer inception_3b/3x3_reduce
I0403 15:15:38.196697  2882 net.cpp:91] Creating Layer inception_3b/3x3_reduce
I0403 15:15:38.196715  2882 net.cpp:425] inception_3b/3x3_reduce <- inception_3a/output_inception_3a/output_0_split_1
I0403 15:15:38.196738  2882 net.cpp:399] inception_3b/3x3_reduce -> inception_3b/3x3_reduce
I0403 15:15:38.197931  2882 net.cpp:141] Setting up inception_3b/3x3_reduce
I0403 15:15:38.197962  2882 net.cpp:148] Top shape: 24 128 28 28 (2408448)
I0403 15:15:38.197980  2882 net.cpp:156] Memory required for data: 686408736
I0403 15:15:38.198000  2882 layer_factory.hpp:77] Creating layer inception_3b/relu_3x3_reduce
I0403 15:15:38.198019  2882 net.cpp:91] Creating Layer inception_3b/relu_3x3_reduce
I0403 15:15:38.198036  2882 net.cpp:425] inception_3b/relu_3x3_reduce <- inception_3b/3x3_reduce
I0403 15:15:38.198057  2882 net.cpp:386] inception_3b/relu_3x3_reduce -> inception_3b/3x3_reduce (in-place)
I0403 15:15:38.198246  2882 net.cpp:141] Setting up inception_3b/relu_3x3_reduce
I0403 15:15:38.198272  2882 net.cpp:148] Top shape: 24 128 28 28 (2408448)
I0403 15:15:38.198288  2882 net.cpp:156] Memory required for data: 696042528
I0403 15:15:38.198303  2882 layer_factory.hpp:77] Creating layer inception_3b/3x3
I0403 15:15:38.198331  2882 net.cpp:91] Creating Layer inception_3b/3x3
I0403 15:15:38.198349  2882 net.cpp:425] inception_3b/3x3 <- inception_3b/3x3_reduce
I0403 15:15:38.198369  2882 net.cpp:399] inception_3b/3x3 -> inception_3b/3x3
I0403 15:15:38.201406  2882 net.cpp:141] Setting up inception_3b/3x3
I0403 15:15:38.201436  2882 net.cpp:148] Top shape: 24 192 28 28 (3612672)
I0403 15:15:38.201452  2882 net.cpp:156] Memory required for data: 710493216
I0403 15:15:38.201470  2882 layer_factory.hpp:77] Creating layer inception_3b/relu_3x3
I0403 15:15:38.201491  2882 net.cpp:91] Creating Layer inception_3b/relu_3x3
I0403 15:15:38.201508  2882 net.cpp:425] inception_3b/relu_3x3 <- inception_3b/3x3
I0403 15:15:38.201526  2882 net.cpp:386] inception_3b/relu_3x3 -> inception_3b/3x3 (in-place)
I0403 15:15:38.201812  2882 net.cpp:141] Setting up inception_3b/relu_3x3
I0403 15:15:38.201839  2882 net.cpp:148] Top shape: 24 192 28 28 (3612672)
I0403 15:15:38.201855  2882 net.cpp:156] Memory required for data: 724943904
I0403 15:15:38.201870  2882 layer_factory.hpp:77] Creating layer inception_3b/5x5_reduce
I0403 15:15:38.201894  2882 net.cpp:91] Creating Layer inception_3b/5x5_reduce
I0403 15:15:38.201911  2882 net.cpp:425] inception_3b/5x5_reduce <- inception_3a/output_inception_3a/output_0_split_2
I0403 15:15:38.201935  2882 net.cpp:399] inception_3b/5x5_reduce -> inception_3b/5x5_reduce
I0403 15:15:38.202965  2882 net.cpp:141] Setting up inception_3b/5x5_reduce
I0403 15:15:38.202993  2882 net.cpp:148] Top shape: 24 32 28 28 (602112)
I0403 15:15:38.203009  2882 net.cpp:156] Memory required for data: 727352352
I0403 15:15:38.203028  2882 layer_factory.hpp:77] Creating layer inception_3b/relu_5x5_reduce
I0403 15:15:38.203049  2882 net.cpp:91] Creating Layer inception_3b/relu_5x5_reduce
I0403 15:15:38.203066  2882 net.cpp:425] inception_3b/relu_5x5_reduce <- inception_3b/5x5_reduce
I0403 15:15:38.203084  2882 net.cpp:386] inception_3b/relu_5x5_reduce -> inception_3b/5x5_reduce (in-place)
I0403 15:15:38.203296  2882 net.cpp:141] Setting up inception_3b/relu_5x5_reduce
I0403 15:15:38.203322  2882 net.cpp:148] Top shape: 24 32 28 28 (602112)
I0403 15:15:38.203338  2882 net.cpp:156] Memory required for data: 729760800
I0403 15:15:38.203353  2882 layer_factory.hpp:77] Creating layer inception_3b/5x5
I0403 15:15:38.203377  2882 net.cpp:91] Creating Layer inception_3b/5x5
I0403 15:15:38.203395  2882 net.cpp:425] inception_3b/5x5 <- inception_3b/5x5_reduce
I0403 15:15:38.203415  2882 net.cpp:399] inception_3b/5x5 -> inception_3b/5x5
I0403 15:15:38.205443  2882 net.cpp:141] Setting up inception_3b/5x5
I0403 15:15:38.205476  2882 net.cpp:148] Top shape: 24 96 28 28 (1806336)
I0403 15:15:38.205492  2882 net.cpp:156] Memory required for data: 736986144
I0403 15:15:38.205513  2882 layer_factory.hpp:77] Creating layer inception_3b/relu_5x5
I0403 15:15:38.205530  2882 net.cpp:91] Creating Layer inception_3b/relu_5x5
I0403 15:15:38.205546  2882 net.cpp:425] inception_3b/relu_5x5 <- inception_3b/5x5
I0403 15:15:38.205566  2882 net.cpp:386] inception_3b/relu_5x5 -> inception_3b/5x5 (in-place)
I0403 15:15:38.205762  2882 net.cpp:141] Setting up inception_3b/relu_5x5
I0403 15:15:38.205788  2882 net.cpp:148] Top shape: 24 96 28 28 (1806336)
I0403 15:15:38.205804  2882 net.cpp:156] Memory required for data: 744211488
I0403 15:15:38.205821  2882 layer_factory.hpp:77] Creating layer inception_3b/pool
I0403 15:15:38.205839  2882 net.cpp:91] Creating Layer inception_3b/pool
I0403 15:15:38.205855  2882 net.cpp:425] inception_3b/pool <- inception_3a/output_inception_3a/output_0_split_3
I0403 15:15:38.205873  2882 net.cpp:399] inception_3b/pool -> inception_3b/pool
I0403 15:15:38.205934  2882 net.cpp:141] Setting up inception_3b/pool
I0403 15:15:38.205957  2882 net.cpp:148] Top shape: 24 256 28 28 (4816896)
I0403 15:15:38.205972  2882 net.cpp:156] Memory required for data: 763479072
I0403 15:15:38.205987  2882 layer_factory.hpp:77] Creating layer inception_3b/pool_proj
I0403 15:15:38.206010  2882 net.cpp:91] Creating Layer inception_3b/pool_proj
I0403 15:15:38.206028  2882 net.cpp:425] inception_3b/pool_proj <- inception_3b/pool
I0403 15:15:38.206049  2882 net.cpp:399] inception_3b/pool_proj -> inception_3b/pool_proj
I0403 15:15:38.207139  2882 net.cpp:141] Setting up inception_3b/pool_proj
I0403 15:15:38.207167  2882 net.cpp:148] Top shape: 24 64 28 28 (1204224)
I0403 15:15:38.207192  2882 net.cpp:156] Memory required for data: 768295968
I0403 15:15:38.207212  2882 layer_factory.hpp:77] Creating layer inception_3b/relu_pool_proj
I0403 15:15:38.207233  2882 net.cpp:91] Creating Layer inception_3b/relu_pool_proj
I0403 15:15:38.207252  2882 net.cpp:425] inception_3b/relu_pool_proj <- inception_3b/pool_proj
I0403 15:15:38.207270  2882 net.cpp:386] inception_3b/relu_pool_proj -> inception_3b/pool_proj (in-place)
I0403 15:15:38.207679  2882 net.cpp:141] Setting up inception_3b/relu_pool_proj
I0403 15:15:38.207711  2882 net.cpp:148] Top shape: 24 64 28 28 (1204224)
I0403 15:15:38.207733  2882 net.cpp:156] Memory required for data: 773112864
I0403 15:15:38.207756  2882 layer_factory.hpp:77] Creating layer inception_3b/output
I0403 15:15:38.207787  2882 net.cpp:91] Creating Layer inception_3b/output
I0403 15:15:38.207809  2882 net.cpp:425] inception_3b/output <- inception_3b/1x1
I0403 15:15:38.207833  2882 net.cpp:425] inception_3b/output <- inception_3b/3x3
I0403 15:15:38.207855  2882 net.cpp:425] inception_3b/output <- inception_3b/5x5
I0403 15:15:38.207872  2882 net.cpp:425] inception_3b/output <- inception_3b/pool_proj
I0403 15:15:38.207890  2882 net.cpp:399] inception_3b/output -> inception_3b/output
I0403 15:15:38.207937  2882 net.cpp:141] Setting up inception_3b/output
I0403 15:15:38.207960  2882 net.cpp:148] Top shape: 24 480 28 28 (9031680)
I0403 15:15:38.207976  2882 net.cpp:156] Memory required for data: 809239584
I0403 15:15:38.207991  2882 layer_factory.hpp:77] Creating layer pool3/3x3_s2
I0403 15:15:38.208009  2882 net.cpp:91] Creating Layer pool3/3x3_s2
I0403 15:15:38.208026  2882 net.cpp:425] pool3/3x3_s2 <- inception_3b/output
I0403 15:15:38.208063  2882 net.cpp:399] pool3/3x3_s2 -> pool3/3x3_s2
I0403 15:15:38.208122  2882 net.cpp:141] Setting up pool3/3x3_s2
I0403 15:15:38.208148  2882 net.cpp:148] Top shape: 24 480 14 14 (2257920)
I0403 15:15:38.208164  2882 net.cpp:156] Memory required for data: 818271264
I0403 15:15:38.208184  2882 layer_factory.hpp:77] Creating layer pool3/3x3_s2_pool3/3x3_s2_0_split
I0403 15:15:38.208202  2882 net.cpp:91] Creating Layer pool3/3x3_s2_pool3/3x3_s2_0_split
I0403 15:15:38.208219  2882 net.cpp:425] pool3/3x3_s2_pool3/3x3_s2_0_split <- pool3/3x3_s2
I0403 15:15:38.208235  2882 net.cpp:399] pool3/3x3_s2_pool3/3x3_s2_0_split -> pool3/3x3_s2_pool3/3x3_s2_0_split_0
I0403 15:15:38.208258  2882 net.cpp:399] pool3/3x3_s2_pool3/3x3_s2_0_split -> pool3/3x3_s2_pool3/3x3_s2_0_split_1
I0403 15:15:38.208279  2882 net.cpp:399] pool3/3x3_s2_pool3/3x3_s2_0_split -> pool3/3x3_s2_pool3/3x3_s2_0_split_2
I0403 15:15:38.208300  2882 net.cpp:399] pool3/3x3_s2_pool3/3x3_s2_0_split -> pool3/3x3_s2_pool3/3x3_s2_0_split_3
I0403 15:15:38.208380  2882 net.cpp:141] Setting up pool3/3x3_s2_pool3/3x3_s2_0_split
I0403 15:15:38.208403  2882 net.cpp:148] Top shape: 24 480 14 14 (2257920)
I0403 15:15:38.208420  2882 net.cpp:148] Top shape: 24 480 14 14 (2257920)
I0403 15:15:38.208438  2882 net.cpp:148] Top shape: 24 480 14 14 (2257920)
I0403 15:15:38.208454  2882 net.cpp:148] Top shape: 24 480 14 14 (2257920)
I0403 15:15:38.208469  2882 net.cpp:156] Memory required for data: 854397984
I0403 15:15:38.208484  2882 layer_factory.hpp:77] Creating layer inception_4a/1x1
I0403 15:15:38.208509  2882 net.cpp:91] Creating Layer inception_4a/1x1
I0403 15:15:38.208528  2882 net.cpp:425] inception_4a/1x1 <- pool3/3x3_s2_pool3/3x3_s2_0_split_0
I0403 15:15:38.208546  2882 net.cpp:399] inception_4a/1x1 -> inception_4a/1x1
I0403 15:15:38.210217  2882 net.cpp:141] Setting up inception_4a/1x1
I0403 15:15:38.210249  2882 net.cpp:148] Top shape: 24 192 14 14 (903168)
I0403 15:15:38.210266  2882 net.cpp:156] Memory required for data: 858010656
I0403 15:15:38.210285  2882 layer_factory.hpp:77] Creating layer inception_4a/relu_1x1
I0403 15:15:38.210304  2882 net.cpp:91] Creating Layer inception_4a/relu_1x1
I0403 15:15:38.210321  2882 net.cpp:425] inception_4a/relu_1x1 <- inception_4a/1x1
I0403 15:15:38.210342  2882 net.cpp:386] inception_4a/relu_1x1 -> inception_4a/1x1 (in-place)
I0403 15:15:38.210530  2882 net.cpp:141] Setting up inception_4a/relu_1x1
I0403 15:15:38.210557  2882 net.cpp:148] Top shape: 24 192 14 14 (903168)
I0403 15:15:38.210573  2882 net.cpp:156] Memory required for data: 861623328
I0403 15:15:38.210588  2882 layer_factory.hpp:77] Creating layer inception_4a/3x3_reduce
I0403 15:15:38.210613  2882 net.cpp:91] Creating Layer inception_4a/3x3_reduce
I0403 15:15:38.210630  2882 net.cpp:425] inception_4a/3x3_reduce <- pool3/3x3_s2_pool3/3x3_s2_0_split_1
I0403 15:15:38.210652  2882 net.cpp:399] inception_4a/3x3_reduce -> inception_4a/3x3_reduce
I0403 15:15:38.212018  2882 net.cpp:141] Setting up inception_4a/3x3_reduce
I0403 15:15:38.212049  2882 net.cpp:148] Top shape: 24 96 14 14 (451584)
I0403 15:15:38.212066  2882 net.cpp:156] Memory required for data: 863429664
I0403 15:15:38.212091  2882 layer_factory.hpp:77] Creating layer inception_4a/relu_3x3_reduce
I0403 15:15:38.212116  2882 net.cpp:91] Creating Layer inception_4a/relu_3x3_reduce
I0403 15:15:38.212134  2882 net.cpp:425] inception_4a/relu_3x3_reduce <- inception_4a/3x3_reduce
I0403 15:15:38.212153  2882 net.cpp:386] inception_4a/relu_3x3_reduce -> inception_4a/3x3_reduce (in-place)
I0403 15:15:38.212347  2882 net.cpp:141] Setting up inception_4a/relu_3x3_reduce
I0403 15:15:38.212373  2882 net.cpp:148] Top shape: 24 96 14 14 (451584)
I0403 15:15:38.212389  2882 net.cpp:156] Memory required for data: 865236000
I0403 15:15:38.212405  2882 layer_factory.hpp:77] Creating layer inception_4a/3x3
I0403 15:15:38.212429  2882 net.cpp:91] Creating Layer inception_4a/3x3
I0403 15:15:38.212447  2882 net.cpp:425] inception_4a/3x3 <- inception_4a/3x3_reduce
I0403 15:15:38.212469  2882 net.cpp:399] inception_4a/3x3 -> inception_4a/3x3
I0403 15:15:38.215312  2882 net.cpp:141] Setting up inception_4a/3x3
I0403 15:15:38.215342  2882 net.cpp:148] Top shape: 24 208 14 14 (978432)
I0403 15:15:38.215359  2882 net.cpp:156] Memory required for data: 869149728
I0403 15:15:38.215378  2882 layer_factory.hpp:77] Creating layer inception_4a/relu_3x3
I0403 15:15:38.215397  2882 net.cpp:91] Creating Layer inception_4a/relu_3x3
I0403 15:15:38.215415  2882 net.cpp:425] inception_4a/relu_3x3 <- inception_4a/3x3
I0403 15:15:38.215438  2882 net.cpp:386] inception_4a/relu_3x3 -> inception_4a/3x3 (in-place)
I0403 15:15:38.215744  2882 net.cpp:141] Setting up inception_4a/relu_3x3
I0403 15:15:38.215771  2882 net.cpp:148] Top shape: 24 208 14 14 (978432)
I0403 15:15:38.215788  2882 net.cpp:156] Memory required for data: 873063456
I0403 15:15:38.215804  2882 layer_factory.hpp:77] Creating layer inception_4a/5x5_reduce
I0403 15:15:38.215829  2882 net.cpp:91] Creating Layer inception_4a/5x5_reduce
I0403 15:15:38.215848  2882 net.cpp:425] inception_4a/5x5_reduce <- pool3/3x3_s2_pool3/3x3_s2_0_split_2
I0403 15:15:38.215872  2882 net.cpp:399] inception_4a/5x5_reduce -> inception_4a/5x5_reduce
I0403 15:15:38.216961  2882 net.cpp:141] Setting up inception_4a/5x5_reduce
I0403 15:15:38.216989  2882 net.cpp:148] Top shape: 24 16 14 14 (75264)
I0403 15:15:38.217005  2882 net.cpp:156] Memory required for data: 873364512
I0403 15:15:38.217025  2882 layer_factory.hpp:77] Creating layer inception_4a/relu_5x5_reduce
I0403 15:15:38.217046  2882 net.cpp:91] Creating Layer inception_4a/relu_5x5_reduce
I0403 15:15:38.217063  2882 net.cpp:425] inception_4a/relu_5x5_reduce <- inception_4a/5x5_reduce
I0403 15:15:38.217082  2882 net.cpp:386] inception_4a/relu_5x5_reduce -> inception_4a/5x5_reduce (in-place)
I0403 15:15:38.217272  2882 net.cpp:141] Setting up inception_4a/relu_5x5_reduce
I0403 15:15:38.217298  2882 net.cpp:148] Top shape: 24 16 14 14 (75264)
I0403 15:15:38.217313  2882 net.cpp:156] Memory required for data: 873665568
I0403 15:15:38.217329  2882 layer_factory.hpp:77] Creating layer inception_4a/5x5
I0403 15:15:38.217351  2882 net.cpp:91] Creating Layer inception_4a/5x5
I0403 15:15:38.217370  2882 net.cpp:425] inception_4a/5x5 <- inception_4a/5x5_reduce
I0403 15:15:38.217391  2882 net.cpp:399] inception_4a/5x5 -> inception_4a/5x5
I0403 15:15:38.218519  2882 net.cpp:141] Setting up inception_4a/5x5
I0403 15:15:38.218547  2882 net.cpp:148] Top shape: 24 48 14 14 (225792)
I0403 15:15:38.218562  2882 net.cpp:156] Memory required for data: 874568736
I0403 15:15:38.218581  2882 layer_factory.hpp:77] Creating layer inception_4a/relu_5x5
I0403 15:15:38.218603  2882 net.cpp:91] Creating Layer inception_4a/relu_5x5
I0403 15:15:38.218621  2882 net.cpp:425] inception_4a/relu_5x5 <- inception_4a/5x5
I0403 15:15:38.218638  2882 net.cpp:386] inception_4a/relu_5x5 -> inception_4a/5x5 (in-place)
I0403 15:15:38.218823  2882 net.cpp:141] Setting up inception_4a/relu_5x5
I0403 15:15:38.218852  2882 net.cpp:148] Top shape: 24 48 14 14 (225792)
I0403 15:15:38.218868  2882 net.cpp:156] Memory required for data: 875471904
I0403 15:15:38.218883  2882 layer_factory.hpp:77] Creating layer inception_4a/pool
I0403 15:15:38.218901  2882 net.cpp:91] Creating Layer inception_4a/pool
I0403 15:15:38.218917  2882 net.cpp:425] inception_4a/pool <- pool3/3x3_s2_pool3/3x3_s2_0_split_3
I0403 15:15:38.218937  2882 net.cpp:399] inception_4a/pool -> inception_4a/pool
I0403 15:15:38.219002  2882 net.cpp:141] Setting up inception_4a/pool
I0403 15:15:38.219027  2882 net.cpp:148] Top shape: 24 480 14 14 (2257920)
I0403 15:15:38.219043  2882 net.cpp:156] Memory required for data: 884503584
I0403 15:15:38.219058  2882 layer_factory.hpp:77] Creating layer inception_4a/pool_proj
I0403 15:15:38.219079  2882 net.cpp:91] Creating Layer inception_4a/pool_proj
I0403 15:15:38.219096  2882 net.cpp:425] inception_4a/pool_proj <- inception_4a/pool
I0403 15:15:38.219117  2882 net.cpp:399] inception_4a/pool_proj -> inception_4a/pool_proj
I0403 15:15:38.220326  2882 net.cpp:141] Setting up inception_4a/pool_proj
I0403 15:15:38.220358  2882 net.cpp:148] Top shape: 24 64 14 14 (301056)
I0403 15:15:38.220389  2882 net.cpp:156] Memory required for data: 885707808
I0403 15:15:38.220409  2882 layer_factory.hpp:77] Creating layer inception_4a/relu_pool_proj
I0403 15:15:38.220427  2882 net.cpp:91] Creating Layer inception_4a/relu_pool_proj
I0403 15:15:38.220444  2882 net.cpp:425] inception_4a/relu_pool_proj <- inception_4a/pool_proj
I0403 15:15:38.220463  2882 net.cpp:386] inception_4a/relu_pool_proj -> inception_4a/pool_proj (in-place)
I0403 15:15:38.220757  2882 net.cpp:141] Setting up inception_4a/relu_pool_proj
I0403 15:15:38.220785  2882 net.cpp:148] Top shape: 24 64 14 14 (301056)
I0403 15:15:38.220803  2882 net.cpp:156] Memory required for data: 886912032
I0403 15:15:38.220818  2882 layer_factory.hpp:77] Creating layer inception_4a/output
I0403 15:15:38.220836  2882 net.cpp:91] Creating Layer inception_4a/output
I0403 15:15:38.220852  2882 net.cpp:425] inception_4a/output <- inception_4a/1x1
I0403 15:15:38.220870  2882 net.cpp:425] inception_4a/output <- inception_4a/3x3
I0403 15:15:38.220885  2882 net.cpp:425] inception_4a/output <- inception_4a/5x5
I0403 15:15:38.220902  2882 net.cpp:425] inception_4a/output <- inception_4a/pool_proj
I0403 15:15:38.220919  2882 net.cpp:399] inception_4a/output -> inception_4a/output
I0403 15:15:38.220968  2882 net.cpp:141] Setting up inception_4a/output
I0403 15:15:38.220993  2882 net.cpp:148] Top shape: 24 512 14 14 (2408448)
I0403 15:15:38.221007  2882 net.cpp:156] Memory required for data: 896545824
I0403 15:15:38.221022  2882 layer_factory.hpp:77] Creating layer inception_4a/output_inception_4a/output_0_split
I0403 15:15:38.221042  2882 net.cpp:91] Creating Layer inception_4a/output_inception_4a/output_0_split
I0403 15:15:38.221060  2882 net.cpp:425] inception_4a/output_inception_4a/output_0_split <- inception_4a/output
I0403 15:15:38.221077  2882 net.cpp:399] inception_4a/output_inception_4a/output_0_split -> inception_4a/output_inception_4a/output_0_split_0
I0403 15:15:38.221098  2882 net.cpp:399] inception_4a/output_inception_4a/output_0_split -> inception_4a/output_inception_4a/output_0_split_1
I0403 15:15:38.221119  2882 net.cpp:399] inception_4a/output_inception_4a/output_0_split -> inception_4a/output_inception_4a/output_0_split_2
I0403 15:15:38.221141  2882 net.cpp:399] inception_4a/output_inception_4a/output_0_split -> inception_4a/output_inception_4a/output_0_split_3
I0403 15:15:38.221164  2882 net.cpp:399] inception_4a/output_inception_4a/output_0_split -> inception_4a/output_inception_4a/output_0_split_4
I0403 15:15:38.221266  2882 net.cpp:141] Setting up inception_4a/output_inception_4a/output_0_split
I0403 15:15:38.221290  2882 net.cpp:148] Top shape: 24 512 14 14 (2408448)
I0403 15:15:38.221308  2882 net.cpp:148] Top shape: 24 512 14 14 (2408448)
I0403 15:15:38.221325  2882 net.cpp:148] Top shape: 24 512 14 14 (2408448)
I0403 15:15:38.221341  2882 net.cpp:148] Top shape: 24 512 14 14 (2408448)
I0403 15:15:38.221357  2882 net.cpp:148] Top shape: 24 512 14 14 (2408448)
I0403 15:15:38.221372  2882 net.cpp:156] Memory required for data: 944714784
I0403 15:15:38.221387  2882 layer_factory.hpp:77] Creating layer loss1/ave_pool
I0403 15:15:38.221405  2882 net.cpp:91] Creating Layer loss1/ave_pool
I0403 15:15:38.221426  2882 net.cpp:425] loss1/ave_pool <- inception_4a/output_inception_4a/output_0_split_0
I0403 15:15:38.221443  2882 net.cpp:399] loss1/ave_pool -> loss1/ave_pool
I0403 15:15:38.221660  2882 net.cpp:141] Setting up loss1/ave_pool
I0403 15:15:38.221688  2882 net.cpp:148] Top shape: 24 512 4 4 (196608)
I0403 15:15:38.221705  2882 net.cpp:156] Memory required for data: 945501216
I0403 15:15:38.221720  2882 layer_factory.hpp:77] Creating layer loss1/conv
I0403 15:15:38.221742  2882 net.cpp:91] Creating Layer loss1/conv
I0403 15:15:38.221760  2882 net.cpp:425] loss1/conv <- loss1/ave_pool
I0403 15:15:38.221779  2882 net.cpp:399] loss1/conv -> loss1/conv
I0403 15:15:38.223264  2882 net.cpp:141] Setting up loss1/conv
I0403 15:15:38.223294  2882 net.cpp:148] Top shape: 24 128 4 4 (49152)
I0403 15:15:38.223323  2882 net.cpp:156] Memory required for data: 945697824
I0403 15:15:38.223343  2882 layer_factory.hpp:77] Creating layer loss1/relu_conv
I0403 15:15:38.223362  2882 net.cpp:91] Creating Layer loss1/relu_conv
I0403 15:15:38.223378  2882 net.cpp:425] loss1/relu_conv <- loss1/conv
I0403 15:15:38.223399  2882 net.cpp:386] loss1/relu_conv -> loss1/conv (in-place)
I0403 15:15:38.223690  2882 net.cpp:141] Setting up loss1/relu_conv
I0403 15:15:38.223717  2882 net.cpp:148] Top shape: 24 128 4 4 (49152)
I0403 15:15:38.223732  2882 net.cpp:156] Memory required for data: 945894432
I0403 15:15:38.223748  2882 layer_factory.hpp:77] Creating layer loss1/fc
I0403 15:15:38.223773  2882 net.cpp:91] Creating Layer loss1/fc
I0403 15:15:38.223790  2882 net.cpp:425] loss1/fc <- loss1/conv
I0403 15:15:38.223812  2882 net.cpp:399] loss1/fc -> loss1/fc
I0403 15:15:38.241736  2882 net.cpp:141] Setting up loss1/fc
I0403 15:15:38.241771  2882 net.cpp:148] Top shape: 24 1024 (24576)
I0403 15:15:38.241786  2882 net.cpp:156] Memory required for data: 945992736
I0403 15:15:38.241806  2882 layer_factory.hpp:77] Creating layer loss1/relu_fc
I0403 15:15:38.241825  2882 net.cpp:91] Creating Layer loss1/relu_fc
I0403 15:15:38.241842  2882 net.cpp:425] loss1/relu_fc <- loss1/fc
I0403 15:15:38.241860  2882 net.cpp:386] loss1/relu_fc -> loss1/fc (in-place)
I0403 15:15:38.242051  2882 net.cpp:141] Setting up loss1/relu_fc
I0403 15:15:38.242076  2882 net.cpp:148] Top shape: 24 1024 (24576)
I0403 15:15:38.242091  2882 net.cpp:156] Memory required for data: 946091040
I0403 15:15:38.242107  2882 layer_factory.hpp:77] Creating layer loss1/drop_fc
I0403 15:15:38.242135  2882 net.cpp:91] Creating Layer loss1/drop_fc
I0403 15:15:38.242151  2882 net.cpp:425] loss1/drop_fc <- loss1/fc
I0403 15:15:38.242171  2882 net.cpp:386] loss1/drop_fc -> loss1/fc (in-place)
I0403 15:15:38.242226  2882 net.cpp:141] Setting up loss1/drop_fc
I0403 15:15:38.242249  2882 net.cpp:148] Top shape: 24 1024 (24576)
I0403 15:15:38.242264  2882 net.cpp:156] Memory required for data: 946189344
I0403 15:15:38.242280  2882 layer_factory.hpp:77] Creating layer loss1/classifier_plantvillage
I0403 15:15:38.242302  2882 net.cpp:91] Creating Layer loss1/classifier_plantvillage
I0403 15:15:38.242319  2882 net.cpp:425] loss1/classifier_plantvillage <- loss1/fc
I0403 15:15:38.242339  2882 net.cpp:399] loss1/classifier_plantvillage -> loss1/classifier_plantvillage
I0403 15:15:38.243254  2882 net.cpp:141] Setting up loss1/classifier_plantvillage
I0403 15:15:38.243284  2882 net.cpp:148] Top shape: 24 38 (912)
I0403 15:15:38.243301  2882 net.cpp:156] Memory required for data: 946192992
I0403 15:15:38.243319  2882 layer_factory.hpp:77] Creating layer loss1/classifier_plantvillage_loss1/classifier_plantvillage_0_split
I0403 15:15:38.243337  2882 net.cpp:91] Creating Layer loss1/classifier_plantvillage_loss1/classifier_plantvillage_0_split
I0403 15:15:38.243352  2882 net.cpp:425] loss1/classifier_plantvillage_loss1/classifier_plantvillage_0_split <- loss1/classifier_plantvillage
I0403 15:15:38.243372  2882 net.cpp:399] loss1/classifier_plantvillage_loss1/classifier_plantvillage_0_split -> loss1/classifier_plantvillage_loss1/classifier_plantvillage_0_split_0
I0403 15:15:38.243393  2882 net.cpp:399] loss1/classifier_plantvillage_loss1/classifier_plantvillage_0_split -> loss1/classifier_plantvillage_loss1/classifier_plantvillage_0_split_1
I0403 15:15:38.243414  2882 net.cpp:399] loss1/classifier_plantvillage_loss1/classifier_plantvillage_0_split -> loss1/classifier_plantvillage_loss1/classifier_plantvillage_0_split_2
I0403 15:15:38.243482  2882 net.cpp:141] Setting up loss1/classifier_plantvillage_loss1/classifier_plantvillage_0_split
I0403 15:15:38.243505  2882 net.cpp:148] Top shape: 24 38 (912)
I0403 15:15:38.243521  2882 net.cpp:148] Top shape: 24 38 (912)
I0403 15:15:38.243537  2882 net.cpp:148] Top shape: 24 38 (912)
I0403 15:15:38.243551  2882 net.cpp:156] Memory required for data: 946203936
I0403 15:15:38.243566  2882 layer_factory.hpp:77] Creating layer inception_4b/1x1
I0403 15:15:38.243588  2882 net.cpp:91] Creating Layer inception_4b/1x1
I0403 15:15:38.243623  2882 net.cpp:425] inception_4b/1x1 <- inception_4a/output_inception_4a/output_0_split_1
I0403 15:15:38.243643  2882 net.cpp:399] inception_4b/1x1 -> inception_4b/1x1
I0403 15:15:38.245321  2882 net.cpp:141] Setting up inception_4b/1x1
I0403 15:15:38.245350  2882 net.cpp:148] Top shape: 24 160 14 14 (752640)
I0403 15:15:38.245365  2882 net.cpp:156] Memory required for data: 949214496
I0403 15:15:38.245385  2882 layer_factory.hpp:77] Creating layer inception_4b/relu_1x1
I0403 15:15:38.245405  2882 net.cpp:91] Creating Layer inception_4b/relu_1x1
I0403 15:15:38.245422  2882 net.cpp:425] inception_4b/relu_1x1 <- inception_4b/1x1
I0403 15:15:38.245441  2882 net.cpp:386] inception_4b/relu_1x1 -> inception_4b/1x1 (in-place)
I0403 15:15:38.245636  2882 net.cpp:141] Setting up inception_4b/relu_1x1
I0403 15:15:38.245661  2882 net.cpp:148] Top shape: 24 160 14 14 (752640)
I0403 15:15:38.245676  2882 net.cpp:156] Memory required for data: 952225056
I0403 15:15:38.245690  2882 layer_factory.hpp:77] Creating layer inception_4b/3x3_reduce
I0403 15:15:38.245712  2882 net.cpp:91] Creating Layer inception_4b/3x3_reduce
I0403 15:15:38.245730  2882 net.cpp:425] inception_4b/3x3_reduce <- inception_4a/output_inception_4a/output_0_split_2
I0403 15:15:38.245751  2882 net.cpp:399] inception_4b/3x3_reduce -> inception_4b/3x3_reduce
I0403 15:15:38.247189  2882 net.cpp:141] Setting up inception_4b/3x3_reduce
I0403 15:15:38.247216  2882 net.cpp:148] Top shape: 24 112 14 14 (526848)
I0403 15:15:38.247232  2882 net.cpp:156] Memory required for data: 954332448
I0403 15:15:38.247251  2882 layer_factory.hpp:77] Creating layer inception_4b/relu_3x3_reduce
I0403 15:15:38.247274  2882 net.cpp:91] Creating Layer inception_4b/relu_3x3_reduce
I0403 15:15:38.247290  2882 net.cpp:425] inception_4b/relu_3x3_reduce <- inception_4b/3x3_reduce
I0403 15:15:38.247308  2882 net.cpp:386] inception_4b/relu_3x3_reduce -> inception_4b/3x3_reduce (in-place)
I0403 15:15:38.247597  2882 net.cpp:141] Setting up inception_4b/relu_3x3_reduce
I0403 15:15:38.247623  2882 net.cpp:148] Top shape: 24 112 14 14 (526848)
I0403 15:15:38.247638  2882 net.cpp:156] Memory required for data: 956439840
I0403 15:15:38.247653  2882 layer_factory.hpp:77] Creating layer inception_4b/3x3
I0403 15:15:38.247676  2882 net.cpp:91] Creating Layer inception_4b/3x3
I0403 15:15:38.247694  2882 net.cpp:425] inception_4b/3x3 <- inception_4b/3x3_reduce
I0403 15:15:38.247715  2882 net.cpp:399] inception_4b/3x3 -> inception_4b/3x3
I0403 15:15:38.250706  2882 net.cpp:141] Setting up inception_4b/3x3
I0403 15:15:38.250740  2882 net.cpp:148] Top shape: 24 224 14 14 (1053696)
I0403 15:15:38.250756  2882 net.cpp:156] Memory required for data: 960654624
I0403 15:15:38.250776  2882 layer_factory.hpp:77] Creating layer inception_4b/relu_3x3
I0403 15:15:38.250793  2882 net.cpp:91] Creating Layer inception_4b/relu_3x3
I0403 15:15:38.250809  2882 net.cpp:425] inception_4b/relu_3x3 <- inception_4b/3x3
I0403 15:15:38.250830  2882 net.cpp:386] inception_4b/relu_3x3 -> inception_4b/3x3 (in-place)
I0403 15:15:38.251016  2882 net.cpp:141] Setting up inception_4b/relu_3x3
I0403 15:15:38.251041  2882 net.cpp:148] Top shape: 24 224 14 14 (1053696)
I0403 15:15:38.251056  2882 net.cpp:156] Memory required for data: 964869408
I0403 15:15:38.251070  2882 layer_factory.hpp:77] Creating layer inception_4b/5x5_reduce
I0403 15:15:38.251093  2882 net.cpp:91] Creating Layer inception_4b/5x5_reduce
I0403 15:15:38.251111  2882 net.cpp:425] inception_4b/5x5_reduce <- inception_4a/output_inception_4a/output_0_split_3
I0403 15:15:38.251132  2882 net.cpp:399] inception_4b/5x5_reduce -> inception_4b/5x5_reduce
I0403 15:15:38.252233  2882 net.cpp:141] Setting up inception_4b/5x5_reduce
I0403 15:15:38.252261  2882 net.cpp:148] Top shape: 24 24 14 14 (112896)
I0403 15:15:38.252276  2882 net.cpp:156] Memory required for data: 965320992
I0403 15:15:38.252295  2882 layer_factory.hpp:77] Creating layer inception_4b/relu_5x5_reduce
I0403 15:15:38.252315  2882 net.cpp:91] Creating Layer inception_4b/relu_5x5_reduce
I0403 15:15:38.252346  2882 net.cpp:425] inception_4b/relu_5x5_reduce <- inception_4b/5x5_reduce
I0403 15:15:38.252363  2882 net.cpp:386] inception_4b/relu_5x5_reduce -> inception_4b/5x5_reduce (in-place)
I0403 15:15:38.252549  2882 net.cpp:141] Setting up inception_4b/relu_5x5_reduce
I0403 15:15:38.252576  2882 net.cpp:148] Top shape: 24 24 14 14 (112896)
I0403 15:15:38.252593  2882 net.cpp:156] Memory required for data: 965772576
I0403 15:15:38.252607  2882 layer_factory.hpp:77] Creating layer inception_4b/5x5
I0403 15:15:38.252627  2882 net.cpp:91] Creating Layer inception_4b/5x5
I0403 15:15:38.252643  2882 net.cpp:425] inception_4b/5x5 <- inception_4b/5x5_reduce
I0403 15:15:38.252665  2882 net.cpp:399] inception_4b/5x5 -> inception_4b/5x5
I0403 15:15:38.253947  2882 net.cpp:141] Setting up inception_4b/5x5
I0403 15:15:38.253975  2882 net.cpp:148] Top shape: 24 64 14 14 (301056)
I0403 15:15:38.253990  2882 net.cpp:156] Memory required for data: 966976800
I0403 15:15:38.254009  2882 layer_factory.hpp:77] Creating layer inception_4b/relu_5x5
I0403 15:15:38.254030  2882 net.cpp:91] Creating Layer inception_4b/relu_5x5
I0403 15:15:38.254047  2882 net.cpp:425] inception_4b/relu_5x5 <- inception_4b/5x5
I0403 15:15:38.254065  2882 net.cpp:386] inception_4b/relu_5x5 -> inception_4b/5x5 (in-place)
I0403 15:15:38.254359  2882 net.cpp:141] Setting up inception_4b/relu_5x5
I0403 15:15:38.254384  2882 net.cpp:148] Top shape: 24 64 14 14 (301056)
I0403 15:15:38.254400  2882 net.cpp:156] Memory required for data: 968181024
I0403 15:15:38.254416  2882 layer_factory.hpp:77] Creating layer inception_4b/pool
I0403 15:15:38.254436  2882 net.cpp:91] Creating Layer inception_4b/pool
I0403 15:15:38.254451  2882 net.cpp:425] inception_4b/pool <- inception_4a/output_inception_4a/output_0_split_4
I0403 15:15:38.254472  2882 net.cpp:399] inception_4b/pool -> inception_4b/pool
I0403 15:15:38.254537  2882 net.cpp:141] Setting up inception_4b/pool
I0403 15:15:38.254562  2882 net.cpp:148] Top shape: 24 512 14 14 (2408448)
I0403 15:15:38.254577  2882 net.cpp:156] Memory required for data: 977814816
I0403 15:15:38.254592  2882 layer_factory.hpp:77] Creating layer inception_4b/pool_proj
I0403 15:15:38.254614  2882 net.cpp:91] Creating Layer inception_4b/pool_proj
I0403 15:15:38.254631  2882 net.cpp:425] inception_4b/pool_proj <- inception_4b/pool
I0403 15:15:38.254650  2882 net.cpp:399] inception_4b/pool_proj -> inception_4b/pool_proj
I0403 15:15:38.255861  2882 net.cpp:141] Setting up inception_4b/pool_proj
I0403 15:15:38.255889  2882 net.cpp:148] Top shape: 24 64 14 14 (301056)
I0403 15:15:38.255904  2882 net.cpp:156] Memory required for data: 979019040
I0403 15:15:38.255923  2882 layer_factory.hpp:77] Creating layer inception_4b/relu_pool_proj
I0403 15:15:38.255944  2882 net.cpp:91] Creating Layer inception_4b/relu_pool_proj
I0403 15:15:38.255961  2882 net.cpp:425] inception_4b/relu_pool_proj <- inception_4b/pool_proj
I0403 15:15:38.255980  2882 net.cpp:386] inception_4b/relu_pool_proj -> inception_4b/pool_proj (in-place)
I0403 15:15:38.256163  2882 net.cpp:141] Setting up inception_4b/relu_pool_proj
I0403 15:15:38.256192  2882 net.cpp:148] Top shape: 24 64 14 14 (301056)
I0403 15:15:38.256208  2882 net.cpp:156] Memory required for data: 980223264
I0403 15:15:38.256223  2882 layer_factory.hpp:77] Creating layer inception_4b/output
I0403 15:15:38.256242  2882 net.cpp:91] Creating Layer inception_4b/output
I0403 15:15:38.256259  2882 net.cpp:425] inception_4b/output <- inception_4b/1x1
I0403 15:15:38.256276  2882 net.cpp:425] inception_4b/output <- inception_4b/3x3
I0403 15:15:38.256292  2882 net.cpp:425] inception_4b/output <- inception_4b/5x5
I0403 15:15:38.256309  2882 net.cpp:425] inception_4b/output <- inception_4b/pool_proj
I0403 15:15:38.256325  2882 net.cpp:399] inception_4b/output -> inception_4b/output
I0403 15:15:38.256372  2882 net.cpp:141] Setting up inception_4b/output
I0403 15:15:38.256395  2882 net.cpp:148] Top shape: 24 512 14 14 (2408448)
I0403 15:15:38.256409  2882 net.cpp:156] Memory required for data: 989857056
I0403 15:15:38.256440  2882 layer_factory.hpp:77] Creating layer inception_4b/output_inception_4b/output_0_split
I0403 15:15:38.256458  2882 net.cpp:91] Creating Layer inception_4b/output_inception_4b/output_0_split
I0403 15:15:38.256474  2882 net.cpp:425] inception_4b/output_inception_4b/output_0_split <- inception_4b/output
I0403 15:15:38.256494  2882 net.cpp:399] inception_4b/output_inception_4b/output_0_split -> inception_4b/output_inception_4b/output_0_split_0
I0403 15:15:38.256515  2882 net.cpp:399] inception_4b/output_inception_4b/output_0_split -> inception_4b/output_inception_4b/output_0_split_1
I0403 15:15:38.256534  2882 net.cpp:399] inception_4b/output_inception_4b/output_0_split -> inception_4b/output_inception_4b/output_0_split_2
I0403 15:15:38.256554  2882 net.cpp:399] inception_4b/output_inception_4b/output_0_split -> inception_4b/output_inception_4b/output_0_split_3
I0403 15:15:38.256639  2882 net.cpp:141] Setting up inception_4b/output_inception_4b/output_0_split
I0403 15:15:38.256665  2882 net.cpp:148] Top shape: 24 512 14 14 (2408448)
I0403 15:15:38.256683  2882 net.cpp:148] Top shape: 24 512 14 14 (2408448)
I0403 15:15:38.256698  2882 net.cpp:148] Top shape: 24 512 14 14 (2408448)
I0403 15:15:38.256713  2882 net.cpp:148] Top shape: 24 512 14 14 (2408448)
I0403 15:15:38.256727  2882 net.cpp:156] Memory required for data: 1028392224
I0403 15:15:38.256742  2882 layer_factory.hpp:77] Creating layer inception_4c/1x1
I0403 15:15:38.256764  2882 net.cpp:91] Creating Layer inception_4c/1x1
I0403 15:15:38.256781  2882 net.cpp:425] inception_4c/1x1 <- inception_4b/output_inception_4b/output_0_split_0
I0403 15:15:38.256803  2882 net.cpp:399] inception_4c/1x1 -> inception_4c/1x1
I0403 15:15:38.258266  2882 net.cpp:141] Setting up inception_4c/1x1
I0403 15:15:38.258294  2882 net.cpp:148] Top shape: 24 128 14 14 (602112)
I0403 15:15:38.258311  2882 net.cpp:156] Memory required for data: 1030800672
I0403 15:15:38.258329  2882 layer_factory.hpp:77] Creating layer inception_4c/relu_1x1
I0403 15:15:38.258354  2882 net.cpp:91] Creating Layer inception_4c/relu_1x1
I0403 15:15:38.258371  2882 net.cpp:425] inception_4c/relu_1x1 <- inception_4c/1x1
I0403 15:15:38.258389  2882 net.cpp:386] inception_4c/relu_1x1 -> inception_4c/1x1 (in-place)
I0403 15:15:38.258584  2882 net.cpp:141] Setting up inception_4c/relu_1x1
I0403 15:15:38.258610  2882 net.cpp:148] Top shape: 24 128 14 14 (602112)
I0403 15:15:38.258625  2882 net.cpp:156] Memory required for data: 1033209120
I0403 15:15:38.258641  2882 layer_factory.hpp:77] Creating layer inception_4c/3x3_reduce
I0403 15:15:38.258663  2882 net.cpp:91] Creating Layer inception_4c/3x3_reduce
I0403 15:15:38.258682  2882 net.cpp:425] inception_4c/3x3_reduce <- inception_4b/output_inception_4b/output_0_split_1
I0403 15:15:38.258703  2882 net.cpp:399] inception_4c/3x3_reduce -> inception_4c/3x3_reduce
I0403 15:15:38.260761  2882 net.cpp:141] Setting up inception_4c/3x3_reduce
I0403 15:15:38.260790  2882 net.cpp:148] Top shape: 24 128 14 14 (602112)
I0403 15:15:38.260807  2882 net.cpp:156] Memory required for data: 1035617568
I0403 15:15:38.260828  2882 layer_factory.hpp:77] Creating layer inception_4c/relu_3x3_reduce
I0403 15:15:38.260846  2882 net.cpp:91] Creating Layer inception_4c/relu_3x3_reduce
I0403 15:15:38.260864  2882 net.cpp:425] inception_4c/relu_3x3_reduce <- inception_4c/3x3_reduce
I0403 15:15:38.260884  2882 net.cpp:386] inception_4c/relu_3x3_reduce -> inception_4c/3x3_reduce (in-place)
I0403 15:15:38.261207  2882 net.cpp:141] Setting up inception_4c/relu_3x3_reduce
I0403 15:15:38.261236  2882 net.cpp:148] Top shape: 24 128 14 14 (602112)
I0403 15:15:38.261252  2882 net.cpp:156] Memory required for data: 1038026016
I0403 15:15:38.261268  2882 layer_factory.hpp:77] Creating layer inception_4c/3x3
I0403 15:15:38.261293  2882 net.cpp:91] Creating Layer inception_4c/3x3
I0403 15:15:38.261312  2882 net.cpp:425] inception_4c/3x3 <- inception_4c/3x3_reduce
I0403 15:15:38.261334  2882 net.cpp:399] inception_4c/3x3 -> inception_4c/3x3
I0403 15:15:38.265382  2882 net.cpp:141] Setting up inception_4c/3x3
I0403 15:15:38.265425  2882 net.cpp:148] Top shape: 24 256 14 14 (1204224)
I0403 15:15:38.265444  2882 net.cpp:156] Memory required for data: 1042842912
I0403 15:15:38.265480  2882 layer_factory.hpp:77] Creating layer inception_4c/relu_3x3
I0403 15:15:38.265503  2882 net.cpp:91] Creating Layer inception_4c/relu_3x3
I0403 15:15:38.265522  2882 net.cpp:425] inception_4c/relu_3x3 <- inception_4c/3x3
I0403 15:15:38.265540  2882 net.cpp:386] inception_4c/relu_3x3 -> inception_4c/3x3 (in-place)
I0403 15:15:38.265738  2882 net.cpp:141] Setting up inception_4c/relu_3x3
I0403 15:15:38.265764  2882 net.cpp:148] Top shape: 24 256 14 14 (1204224)
I0403 15:15:38.265780  2882 net.cpp:156] Memory required for data: 1047659808
I0403 15:15:38.265796  2882 layer_factory.hpp:77] Creating layer inception_4c/5x5_reduce
I0403 15:15:38.265821  2882 net.cpp:91] Creating Layer inception_4c/5x5_reduce
I0403 15:15:38.265841  2882 net.cpp:425] inception_4c/5x5_reduce <- inception_4b/output_inception_4b/output_0_split_2
I0403 15:15:38.265864  2882 net.cpp:399] inception_4c/5x5_reduce -> inception_4c/5x5_reduce
I0403 15:15:38.267038  2882 net.cpp:141] Setting up inception_4c/5x5_reduce
I0403 15:15:38.267068  2882 net.cpp:148] Top shape: 24 24 14 14 (112896)
I0403 15:15:38.267086  2882 net.cpp:156] Memory required for data: 1048111392
I0403 15:15:38.267104  2882 layer_factory.hpp:77] Creating layer inception_4c/relu_5x5_reduce
I0403 15:15:38.267129  2882 net.cpp:91] Creating Layer inception_4c/relu_5x5_reduce
I0403 15:15:38.267148  2882 net.cpp:425] inception_4c/relu_5x5_reduce <- inception_4c/5x5_reduce
I0403 15:15:38.267166  2882 net.cpp:386] inception_4c/relu_5x5_reduce -> inception_4c/5x5_reduce (in-place)
I0403 15:15:38.267371  2882 net.cpp:141] Setting up inception_4c/relu_5x5_reduce
I0403 15:15:38.267397  2882 net.cpp:148] Top shape: 24 24 14 14 (112896)
I0403 15:15:38.267416  2882 net.cpp:156] Memory required for data: 1048562976
I0403 15:15:38.267434  2882 layer_factory.hpp:77] Creating layer inception_4c/5x5
I0403 15:15:38.267455  2882 net.cpp:91] Creating Layer inception_4c/5x5
I0403 15:15:38.267473  2882 net.cpp:425] inception_4c/5x5 <- inception_4c/5x5_reduce
I0403 15:15:38.267495  2882 net.cpp:399] inception_4c/5x5 -> inception_4c/5x5
I0403 15:15:38.268834  2882 net.cpp:141] Setting up inception_4c/5x5
I0403 15:15:38.268863  2882 net.cpp:148] Top shape: 24 64 14 14 (301056)
I0403 15:15:38.268880  2882 net.cpp:156] Memory required for data: 1049767200
I0403 15:15:38.268899  2882 layer_factory.hpp:77] Creating layer inception_4c/relu_5x5
I0403 15:15:38.268921  2882 net.cpp:91] Creating Layer inception_4c/relu_5x5
I0403 15:15:38.268939  2882 net.cpp:425] inception_4c/relu_5x5 <- inception_4c/5x5
I0403 15:15:38.268957  2882 net.cpp:386] inception_4c/relu_5x5 -> inception_4c/5x5 (in-place)
I0403 15:15:38.269273  2882 net.cpp:141] Setting up inception_4c/relu_5x5
I0403 15:15:38.269300  2882 net.cpp:148] Top shape: 24 64 14 14 (301056)
I0403 15:15:38.269316  2882 net.cpp:156] Memory required for data: 1050971424
I0403 15:15:38.269333  2882 layer_factory.hpp:77] Creating layer inception_4c/pool
I0403 15:15:38.269354  2882 net.cpp:91] Creating Layer inception_4c/pool
I0403 15:15:38.269372  2882 net.cpp:425] inception_4c/pool <- inception_4b/output_inception_4b/output_0_split_3
I0403 15:15:38.269392  2882 net.cpp:399] inception_4c/pool -> inception_4c/pool
I0403 15:15:38.269464  2882 net.cpp:141] Setting up inception_4c/pool
I0403 15:15:38.269490  2882 net.cpp:148] Top shape: 24 512 14 14 (2408448)
I0403 15:15:38.269505  2882 net.cpp:156] Memory required for data: 1060605216
I0403 15:15:38.269520  2882 layer_factory.hpp:77] Creating layer inception_4c/pool_proj
I0403 15:15:38.269543  2882 net.cpp:91] Creating Layer inception_4c/pool_proj
I0403 15:15:38.269562  2882 net.cpp:425] inception_4c/pool_proj <- inception_4c/pool
I0403 15:15:38.269584  2882 net.cpp:399] inception_4c/pool_proj -> inception_4c/pool_proj
I0403 15:15:38.270901  2882 net.cpp:141] Setting up inception_4c/pool_proj
I0403 15:15:38.270931  2882 net.cpp:148] Top shape: 24 64 14 14 (301056)
I0403 15:15:38.270962  2882 net.cpp:156] Memory required for data: 1061809440
I0403 15:15:38.270983  2882 layer_factory.hpp:77] Creating layer inception_4c/relu_pool_proj
I0403 15:15:38.271008  2882 net.cpp:91] Creating Layer inception_4c/relu_pool_proj
I0403 15:15:38.271026  2882 net.cpp:425] inception_4c/relu_pool_proj <- inception_4c/pool_proj
I0403 15:15:38.271045  2882 net.cpp:386] inception_4c/relu_pool_proj -> inception_4c/pool_proj (in-place)
I0403 15:15:38.271248  2882 net.cpp:141] Setting up inception_4c/relu_pool_proj
I0403 15:15:38.271275  2882 net.cpp:148] Top shape: 24 64 14 14 (301056)
I0403 15:15:38.271291  2882 net.cpp:156] Memory required for data: 1063013664
I0403 15:15:38.271306  2882 layer_factory.hpp:77] Creating layer inception_4c/output
I0403 15:15:38.271327  2882 net.cpp:91] Creating Layer inception_4c/output
I0403 15:15:38.271344  2882 net.cpp:425] inception_4c/output <- inception_4c/1x1
I0403 15:15:38.271363  2882 net.cpp:425] inception_4c/output <- inception_4c/3x3
I0403 15:15:38.271379  2882 net.cpp:425] inception_4c/output <- inception_4c/5x5
I0403 15:15:38.271396  2882 net.cpp:425] inception_4c/output <- inception_4c/pool_proj
I0403 15:15:38.271414  2882 net.cpp:399] inception_4c/output -> inception_4c/output
I0403 15:15:38.271466  2882 net.cpp:141] Setting up inception_4c/output
I0403 15:15:38.271492  2882 net.cpp:148] Top shape: 24 512 14 14 (2408448)
I0403 15:15:38.271508  2882 net.cpp:156] Memory required for data: 1072647456
I0403 15:15:38.271524  2882 layer_factory.hpp:77] Creating layer inception_4c/output_inception_4c/output_0_split
I0403 15:15:38.271541  2882 net.cpp:91] Creating Layer inception_4c/output_inception_4c/output_0_split
I0403 15:15:38.271558  2882 net.cpp:425] inception_4c/output_inception_4c/output_0_split <- inception_4c/output
I0403 15:15:38.271579  2882 net.cpp:399] inception_4c/output_inception_4c/output_0_split -> inception_4c/output_inception_4c/output_0_split_0
I0403 15:15:38.271600  2882 net.cpp:399] inception_4c/output_inception_4c/output_0_split -> inception_4c/output_inception_4c/output_0_split_1
I0403 15:15:38.271622  2882 net.cpp:399] inception_4c/output_inception_4c/output_0_split -> inception_4c/output_inception_4c/output_0_split_2
I0403 15:15:38.271644  2882 net.cpp:399] inception_4c/output_inception_4c/output_0_split -> inception_4c/output_inception_4c/output_0_split_3
I0403 15:15:38.271739  2882 net.cpp:141] Setting up inception_4c/output_inception_4c/output_0_split
I0403 15:15:38.271765  2882 net.cpp:148] Top shape: 24 512 14 14 (2408448)
I0403 15:15:38.271783  2882 net.cpp:148] Top shape: 24 512 14 14 (2408448)
I0403 15:15:38.271800  2882 net.cpp:148] Top shape: 24 512 14 14 (2408448)
I0403 15:15:38.271816  2882 net.cpp:148] Top shape: 24 512 14 14 (2408448)
I0403 15:15:38.271831  2882 net.cpp:156] Memory required for data: 1111182624
I0403 15:15:38.271847  2882 layer_factory.hpp:77] Creating layer inception_4d/1x1
I0403 15:15:38.271870  2882 net.cpp:91] Creating Layer inception_4d/1x1
I0403 15:15:38.271889  2882 net.cpp:425] inception_4d/1x1 <- inception_4c/output_inception_4c/output_0_split_0
I0403 15:15:38.271909  2882 net.cpp:399] inception_4d/1x1 -> inception_4d/1x1
I0403 15:15:38.273413  2882 net.cpp:141] Setting up inception_4d/1x1
I0403 15:15:38.273444  2882 net.cpp:148] Top shape: 24 112 14 14 (526848)
I0403 15:15:38.273463  2882 net.cpp:156] Memory required for data: 1113290016
I0403 15:15:38.273483  2882 layer_factory.hpp:77] Creating layer inception_4d/relu_1x1
I0403 15:15:38.273501  2882 net.cpp:91] Creating Layer inception_4d/relu_1x1
I0403 15:15:38.273519  2882 net.cpp:425] inception_4d/relu_1x1 <- inception_4d/1x1
I0403 15:15:38.273540  2882 net.cpp:386] inception_4d/relu_1x1 -> inception_4d/1x1 (in-place)
I0403 15:15:38.273738  2882 net.cpp:141] Setting up inception_4d/relu_1x1
I0403 15:15:38.273766  2882 net.cpp:148] Top shape: 24 112 14 14 (526848)
I0403 15:15:38.273782  2882 net.cpp:156] Memory required for data: 1115397408
I0403 15:15:38.273797  2882 layer_factory.hpp:77] Creating layer inception_4d/3x3_reduce
I0403 15:15:38.273835  2882 net.cpp:91] Creating Layer inception_4d/3x3_reduce
I0403 15:15:38.273855  2882 net.cpp:425] inception_4d/3x3_reduce <- inception_4c/output_inception_4c/output_0_split_1
I0403 15:15:38.273879  2882 net.cpp:399] inception_4d/3x3_reduce -> inception_4d/3x3_reduce
I0403 15:15:38.275509  2882 net.cpp:141] Setting up inception_4d/3x3_reduce
I0403 15:15:38.275544  2882 net.cpp:148] Top shape: 24 144 14 14 (677376)
I0403 15:15:38.275562  2882 net.cpp:156] Memory required for data: 1118106912
I0403 15:15:38.275580  2882 layer_factory.hpp:77] Creating layer inception_4d/relu_3x3_reduce
I0403 15:15:38.275600  2882 net.cpp:91] Creating Layer inception_4d/relu_3x3_reduce
I0403 15:15:38.275617  2882 net.cpp:425] inception_4d/relu_3x3_reduce <- inception_4d/3x3_reduce
I0403 15:15:38.275636  2882 net.cpp:386] inception_4d/relu_3x3_reduce -> inception_4d/3x3_reduce (in-place)
I0403 15:15:38.275948  2882 net.cpp:141] Setting up inception_4d/relu_3x3_reduce
I0403 15:15:38.275979  2882 net.cpp:148] Top shape: 24 144 14 14 (677376)
I0403 15:15:38.275995  2882 net.cpp:156] Memory required for data: 1120816416
I0403 15:15:38.276011  2882 layer_factory.hpp:77] Creating layer inception_4d/3x3
I0403 15:15:38.276036  2882 net.cpp:91] Creating Layer inception_4d/3x3
I0403 15:15:38.276054  2882 net.cpp:425] inception_4d/3x3 <- inception_4d/3x3_reduce
I0403 15:15:38.276075  2882 net.cpp:399] inception_4d/3x3 -> inception_4d/3x3
I0403 15:15:38.280592  2882 net.cpp:141] Setting up inception_4d/3x3
I0403 15:15:38.280622  2882 net.cpp:148] Top shape: 24 288 14 14 (1354752)
I0403 15:15:38.280639  2882 net.cpp:156] Memory required for data: 1126235424
I0403 15:15:38.280658  2882 layer_factory.hpp:77] Creating layer inception_4d/relu_3x3
I0403 15:15:38.280676  2882 net.cpp:91] Creating Layer inception_4d/relu_3x3
I0403 15:15:38.280694  2882 net.cpp:425] inception_4d/relu_3x3 <- inception_4d/3x3
I0403 15:15:38.280712  2882 net.cpp:386] inception_4d/relu_3x3 -> inception_4d/3x3 (in-place)
I0403 15:15:38.280906  2882 net.cpp:141] Setting up inception_4d/relu_3x3
I0403 15:15:38.280932  2882 net.cpp:148] Top shape: 24 288 14 14 (1354752)
I0403 15:15:38.280947  2882 net.cpp:156] Memory required for data: 1131654432
I0403 15:15:38.280963  2882 layer_factory.hpp:77] Creating layer inception_4d/5x5_reduce
I0403 15:15:38.280985  2882 net.cpp:91] Creating Layer inception_4d/5x5_reduce
I0403 15:15:38.281004  2882 net.cpp:425] inception_4d/5x5_reduce <- inception_4c/output_inception_4c/output_0_split_2
I0403 15:15:38.281025  2882 net.cpp:399] inception_4d/5x5_reduce -> inception_4d/5x5_reduce
I0403 15:15:38.282251  2882 net.cpp:141] Setting up inception_4d/5x5_reduce
I0403 15:15:38.282282  2882 net.cpp:148] Top shape: 24 32 14 14 (150528)
I0403 15:15:38.282300  2882 net.cpp:156] Memory required for data: 1132256544
I0403 15:15:38.282320  2882 layer_factory.hpp:77] Creating layer inception_4d/relu_5x5_reduce
I0403 15:15:38.282337  2882 net.cpp:91] Creating Layer inception_4d/relu_5x5_reduce
I0403 15:15:38.282354  2882 net.cpp:425] inception_4d/relu_5x5_reduce <- inception_4d/5x5_reduce
I0403 15:15:38.282374  2882 net.cpp:386] inception_4d/relu_5x5_reduce -> inception_4d/5x5_reduce (in-place)
I0403 15:15:38.282572  2882 net.cpp:141] Setting up inception_4d/relu_5x5_reduce
I0403 15:15:38.282596  2882 net.cpp:148] Top shape: 24 32 14 14 (150528)
I0403 15:15:38.282611  2882 net.cpp:156] Memory required for data: 1132858656
I0403 15:15:38.282626  2882 layer_factory.hpp:77] Creating layer inception_4d/5x5
I0403 15:15:38.282652  2882 net.cpp:91] Creating Layer inception_4d/5x5
I0403 15:15:38.282670  2882 net.cpp:425] inception_4d/5x5 <- inception_4d/5x5_reduce
I0403 15:15:38.282692  2882 net.cpp:399] inception_4d/5x5 -> inception_4d/5x5
I0403 15:15:38.284241  2882 net.cpp:141] Setting up inception_4d/5x5
I0403 15:15:38.284270  2882 net.cpp:148] Top shape: 24 64 14 14 (301056)
I0403 15:15:38.284286  2882 net.cpp:156] Memory required for data: 1134062880
I0403 15:15:38.284307  2882 layer_factory.hpp:77] Creating layer inception_4d/relu_5x5
I0403 15:15:38.284343  2882 net.cpp:91] Creating Layer inception_4d/relu_5x5
I0403 15:15:38.284363  2882 net.cpp:425] inception_4d/relu_5x5 <- inception_4d/5x5
I0403 15:15:38.284380  2882 net.cpp:386] inception_4d/relu_5x5 -> inception_4d/5x5 (in-place)
I0403 15:15:38.284690  2882 net.cpp:141] Setting up inception_4d/relu_5x5
I0403 15:15:38.284718  2882 net.cpp:148] Top shape: 24 64 14 14 (301056)
I0403 15:15:38.284734  2882 net.cpp:156] Memory required for data: 1135267104
I0403 15:15:38.284749  2882 layer_factory.hpp:77] Creating layer inception_4d/pool
I0403 15:15:38.284770  2882 net.cpp:91] Creating Layer inception_4d/pool
I0403 15:15:38.284787  2882 net.cpp:425] inception_4d/pool <- inception_4c/output_inception_4c/output_0_split_3
I0403 15:15:38.284806  2882 net.cpp:399] inception_4d/pool -> inception_4d/pool
I0403 15:15:38.284878  2882 net.cpp:141] Setting up inception_4d/pool
I0403 15:15:38.284903  2882 net.cpp:148] Top shape: 24 512 14 14 (2408448)
I0403 15:15:38.284917  2882 net.cpp:156] Memory required for data: 1144900896
I0403 15:15:38.284934  2882 layer_factory.hpp:77] Creating layer inception_4d/pool_proj
I0403 15:15:38.284955  2882 net.cpp:91] Creating Layer inception_4d/pool_proj
I0403 15:15:38.284973  2882 net.cpp:425] inception_4d/pool_proj <- inception_4d/pool
I0403 15:15:38.284994  2882 net.cpp:399] inception_4d/pool_proj -> inception_4d/pool_proj
I0403 15:15:38.286844  2882 net.cpp:141] Setting up inception_4d/pool_proj
I0403 15:15:38.286872  2882 net.cpp:148] Top shape: 24 64 14 14 (301056)
I0403 15:15:38.286888  2882 net.cpp:156] Memory required for data: 1146105120
I0403 15:15:38.286907  2882 layer_factory.hpp:77] Creating layer inception_4d/relu_pool_proj
I0403 15:15:38.286926  2882 net.cpp:91] Creating Layer inception_4d/relu_pool_proj
I0403 15:15:38.286942  2882 net.cpp:425] inception_4d/relu_pool_proj <- inception_4d/pool_proj
I0403 15:15:38.286963  2882 net.cpp:386] inception_4d/relu_pool_proj -> inception_4d/pool_proj (in-place)
I0403 15:15:38.287161  2882 net.cpp:141] Setting up inception_4d/relu_pool_proj
I0403 15:15:38.287194  2882 net.cpp:148] Top shape: 24 64 14 14 (301056)
I0403 15:15:38.287210  2882 net.cpp:156] Memory required for data: 1147309344
I0403 15:15:38.287225  2882 layer_factory.hpp:77] Creating layer inception_4d/output
I0403 15:15:38.287245  2882 net.cpp:91] Creating Layer inception_4d/output
I0403 15:15:38.287262  2882 net.cpp:425] inception_4d/output <- inception_4d/1x1
I0403 15:15:38.287279  2882 net.cpp:425] inception_4d/output <- inception_4d/3x3
I0403 15:15:38.287297  2882 net.cpp:425] inception_4d/output <- inception_4d/5x5
I0403 15:15:38.287313  2882 net.cpp:425] inception_4d/output <- inception_4d/pool_proj
I0403 15:15:38.287331  2882 net.cpp:399] inception_4d/output -> inception_4d/output
I0403 15:15:38.287380  2882 net.cpp:141] Setting up inception_4d/output
I0403 15:15:38.287410  2882 net.cpp:148] Top shape: 24 528 14 14 (2483712)
I0403 15:15:38.287425  2882 net.cpp:156] Memory required for data: 1157244192
I0403 15:15:38.287441  2882 layer_factory.hpp:77] Creating layer inception_4d/output_inception_4d/output_0_split
I0403 15:15:38.287459  2882 net.cpp:91] Creating Layer inception_4d/output_inception_4d/output_0_split
I0403 15:15:38.287475  2882 net.cpp:425] inception_4d/output_inception_4d/output_0_split <- inception_4d/output
I0403 15:15:38.287508  2882 net.cpp:399] inception_4d/output_inception_4d/output_0_split -> inception_4d/output_inception_4d/output_0_split_0
I0403 15:15:38.287529  2882 net.cpp:399] inception_4d/output_inception_4d/output_0_split -> inception_4d/output_inception_4d/output_0_split_1
I0403 15:15:38.287550  2882 net.cpp:399] inception_4d/output_inception_4d/output_0_split -> inception_4d/output_inception_4d/output_0_split_2
I0403 15:15:38.287571  2882 net.cpp:399] inception_4d/output_inception_4d/output_0_split -> inception_4d/output_inception_4d/output_0_split_3
I0403 15:15:38.287591  2882 net.cpp:399] inception_4d/output_inception_4d/output_0_split -> inception_4d/output_inception_4d/output_0_split_4
I0403 15:15:38.287696  2882 net.cpp:141] Setting up inception_4d/output_inception_4d/output_0_split
I0403 15:15:38.287732  2882 net.cpp:148] Top shape: 24 528 14 14 (2483712)
I0403 15:15:38.287751  2882 net.cpp:148] Top shape: 24 528 14 14 (2483712)
I0403 15:15:38.287768  2882 net.cpp:148] Top shape: 24 528 14 14 (2483712)
I0403 15:15:38.287784  2882 net.cpp:148] Top shape: 24 528 14 14 (2483712)
I0403 15:15:38.287801  2882 net.cpp:148] Top shape: 24 528 14 14 (2483712)
I0403 15:15:38.287814  2882 net.cpp:156] Memory required for data: 1206918432
I0403 15:15:38.287828  2882 layer_factory.hpp:77] Creating layer loss2/ave_pool
I0403 15:15:38.287847  2882 net.cpp:91] Creating Layer loss2/ave_pool
I0403 15:15:38.287863  2882 net.cpp:425] loss2/ave_pool <- inception_4d/output_inception_4d/output_0_split_0
I0403 15:15:38.287884  2882 net.cpp:399] loss2/ave_pool -> loss2/ave_pool
I0403 15:15:38.288209  2882 net.cpp:141] Setting up loss2/ave_pool
I0403 15:15:38.288236  2882 net.cpp:148] Top shape: 24 528 4 4 (202752)
I0403 15:15:38.288251  2882 net.cpp:156] Memory required for data: 1207729440
I0403 15:15:38.288266  2882 layer_factory.hpp:77] Creating layer loss2/conv
I0403 15:15:38.288288  2882 net.cpp:91] Creating Layer loss2/conv
I0403 15:15:38.288306  2882 net.cpp:425] loss2/conv <- loss2/ave_pool
I0403 15:15:38.288327  2882 net.cpp:399] loss2/conv -> loss2/conv
I0403 15:15:38.290247  2882 net.cpp:141] Setting up loss2/conv
I0403 15:15:38.290276  2882 net.cpp:148] Top shape: 24 128 4 4 (49152)
I0403 15:15:38.290292  2882 net.cpp:156] Memory required for data: 1207926048
I0403 15:15:38.290310  2882 layer_factory.hpp:77] Creating layer loss2/relu_conv
I0403 15:15:38.290331  2882 net.cpp:91] Creating Layer loss2/relu_conv
I0403 15:15:38.290349  2882 net.cpp:425] loss2/relu_conv <- loss2/conv
I0403 15:15:38.290366  2882 net.cpp:386] loss2/relu_conv -> loss2/conv (in-place)
I0403 15:15:38.290663  2882 net.cpp:141] Setting up loss2/relu_conv
I0403 15:15:38.290688  2882 net.cpp:148] Top shape: 24 128 4 4 (49152)
I0403 15:15:38.290704  2882 net.cpp:156] Memory required for data: 1208122656
I0403 15:15:38.290719  2882 layer_factory.hpp:77] Creating layer loss2/fc
I0403 15:15:38.290740  2882 net.cpp:91] Creating Layer loss2/fc
I0403 15:15:38.290757  2882 net.cpp:425] loss2/fc <- loss2/conv
I0403 15:15:38.290776  2882 net.cpp:399] loss2/fc -> loss2/fc
I0403 15:15:38.308383  2882 net.cpp:141] Setting up loss2/fc
I0403 15:15:38.308415  2882 net.cpp:148] Top shape: 24 1024 (24576)
I0403 15:15:38.308430  2882 net.cpp:156] Memory required for data: 1208220960
I0403 15:15:38.308449  2882 layer_factory.hpp:77] Creating layer loss2/relu_fc
I0403 15:15:38.308468  2882 net.cpp:91] Creating Layer loss2/relu_fc
I0403 15:15:38.308485  2882 net.cpp:425] loss2/relu_fc <- loss2/fc
I0403 15:15:38.308506  2882 net.cpp:386] loss2/relu_fc -> loss2/fc (in-place)
I0403 15:15:38.308840  2882 net.cpp:141] Setting up loss2/relu_fc
I0403 15:15:38.308866  2882 net.cpp:148] Top shape: 24 1024 (24576)
I0403 15:15:38.308881  2882 net.cpp:156] Memory required for data: 1208319264
I0403 15:15:38.308897  2882 layer_factory.hpp:77] Creating layer loss2/drop_fc
I0403 15:15:38.308913  2882 net.cpp:91] Creating Layer loss2/drop_fc
I0403 15:15:38.308929  2882 net.cpp:425] loss2/drop_fc <- loss2/fc
I0403 15:15:38.308948  2882 net.cpp:386] loss2/drop_fc -> loss2/fc (in-place)
I0403 15:15:38.308997  2882 net.cpp:141] Setting up loss2/drop_fc
I0403 15:15:38.309023  2882 net.cpp:148] Top shape: 24 1024 (24576)
I0403 15:15:38.309039  2882 net.cpp:156] Memory required for data: 1208417568
I0403 15:15:38.309053  2882 layer_factory.hpp:77] Creating layer loss2/classifier_plantvillage
I0403 15:15:38.309072  2882 net.cpp:91] Creating Layer loss2/classifier_plantvillage
I0403 15:15:38.309087  2882 net.cpp:425] loss2/classifier_plantvillage <- loss2/fc
I0403 15:15:38.309109  2882 net.cpp:399] loss2/classifier_plantvillage -> loss2/classifier_plantvillage
I0403 15:15:38.309517  2882 net.cpp:141] Setting up loss2/classifier_plantvillage
I0403 15:15:38.309545  2882 net.cpp:148] Top shape: 24 38 (912)
I0403 15:15:38.309581  2882 net.cpp:156] Memory required for data: 1208421216
I0403 15:15:38.309600  2882 layer_factory.hpp:77] Creating layer loss2/classifier_plantvillage_loss2/classifier_plantvillage_0_split
I0403 15:15:38.309620  2882 net.cpp:91] Creating Layer loss2/classifier_plantvillage_loss2/classifier_plantvillage_0_split
I0403 15:15:38.309636  2882 net.cpp:425] loss2/classifier_plantvillage_loss2/classifier_plantvillage_0_split <- loss2/classifier_plantvillage
I0403 15:15:38.309654  2882 net.cpp:399] loss2/classifier_plantvillage_loss2/classifier_plantvillage_0_split -> loss2/classifier_plantvillage_loss2/classifier_plantvillage_0_split_0
I0403 15:15:38.309674  2882 net.cpp:399] loss2/classifier_plantvillage_loss2/classifier_plantvillage_0_split -> loss2/classifier_plantvillage_loss2/classifier_plantvillage_0_split_1
I0403 15:15:38.309695  2882 net.cpp:399] loss2/classifier_plantvillage_loss2/classifier_plantvillage_0_split -> loss2/classifier_plantvillage_loss2/classifier_plantvillage_0_split_2
I0403 15:15:38.309770  2882 net.cpp:141] Setting up loss2/classifier_plantvillage_loss2/classifier_plantvillage_0_split
I0403 15:15:38.309793  2882 net.cpp:148] Top shape: 24 38 (912)
I0403 15:15:38.309809  2882 net.cpp:148] Top shape: 24 38 (912)
I0403 15:15:38.309824  2882 net.cpp:148] Top shape: 24 38 (912)
I0403 15:15:38.309839  2882 net.cpp:156] Memory required for data: 1208432160
I0403 15:15:38.309852  2882 layer_factory.hpp:77] Creating layer inception_4e/1x1
I0403 15:15:38.309872  2882 net.cpp:91] Creating Layer inception_4e/1x1
I0403 15:15:38.309890  2882 net.cpp:425] inception_4e/1x1 <- inception_4d/output_inception_4d/output_0_split_1
I0403 15:15:38.309911  2882 net.cpp:399] inception_4e/1x1 -> inception_4e/1x1
I0403 15:15:38.311794  2882 net.cpp:141] Setting up inception_4e/1x1
I0403 15:15:38.311821  2882 net.cpp:148] Top shape: 24 256 14 14 (1204224)
I0403 15:15:38.311837  2882 net.cpp:156] Memory required for data: 1213249056
I0403 15:15:38.311856  2882 layer_factory.hpp:77] Creating layer inception_4e/relu_1x1
I0403 15:15:38.311877  2882 net.cpp:91] Creating Layer inception_4e/relu_1x1
I0403 15:15:38.311893  2882 net.cpp:425] inception_4e/relu_1x1 <- inception_4e/1x1
I0403 15:15:38.311911  2882 net.cpp:386] inception_4e/relu_1x1 -> inception_4e/1x1 (in-place)
I0403 15:15:38.312225  2882 net.cpp:141] Setting up inception_4e/relu_1x1
I0403 15:15:38.312252  2882 net.cpp:148] Top shape: 24 256 14 14 (1204224)
I0403 15:15:38.312268  2882 net.cpp:156] Memory required for data: 1218065952
I0403 15:15:38.312283  2882 layer_factory.hpp:77] Creating layer inception_4e/3x3_reduce
I0403 15:15:38.312304  2882 net.cpp:91] Creating Layer inception_4e/3x3_reduce
I0403 15:15:38.312324  2882 net.cpp:425] inception_4e/3x3_reduce <- inception_4d/output_inception_4d/output_0_split_2
I0403 15:15:38.312343  2882 net.cpp:399] inception_4e/3x3_reduce -> inception_4e/3x3_reduce
I0403 15:15:38.314493  2882 net.cpp:141] Setting up inception_4e/3x3_reduce
I0403 15:15:38.314522  2882 net.cpp:148] Top shape: 24 160 14 14 (752640)
I0403 15:15:38.314538  2882 net.cpp:156] Memory required for data: 1221076512
I0403 15:15:38.314556  2882 layer_factory.hpp:77] Creating layer inception_4e/relu_3x3_reduce
I0403 15:15:38.314579  2882 net.cpp:91] Creating Layer inception_4e/relu_3x3_reduce
I0403 15:15:38.314597  2882 net.cpp:425] inception_4e/relu_3x3_reduce <- inception_4e/3x3_reduce
I0403 15:15:38.314615  2882 net.cpp:386] inception_4e/relu_3x3_reduce -> inception_4e/3x3_reduce (in-place)
I0403 15:15:38.314805  2882 net.cpp:141] Setting up inception_4e/relu_3x3_reduce
I0403 15:15:38.314831  2882 net.cpp:148] Top shape: 24 160 14 14 (752640)
I0403 15:15:38.314846  2882 net.cpp:156] Memory required for data: 1224087072
I0403 15:15:38.314860  2882 layer_factory.hpp:77] Creating layer inception_4e/3x3
I0403 15:15:38.314884  2882 net.cpp:91] Creating Layer inception_4e/3x3
I0403 15:15:38.314901  2882 net.cpp:425] inception_4e/3x3 <- inception_4e/3x3_reduce
I0403 15:15:38.314920  2882 net.cpp:399] inception_4e/3x3 -> inception_4e/3x3
I0403 15:15:38.319941  2882 net.cpp:141] Setting up inception_4e/3x3
I0403 15:15:38.319983  2882 net.cpp:148] Top shape: 24 320 14 14 (1505280)
I0403 15:15:38.320000  2882 net.cpp:156] Memory required for data: 1230108192
I0403 15:15:38.320021  2882 layer_factory.hpp:77] Creating layer inception_4e/relu_3x3
I0403 15:15:38.320040  2882 net.cpp:91] Creating Layer inception_4e/relu_3x3
I0403 15:15:38.320056  2882 net.cpp:425] inception_4e/relu_3x3 <- inception_4e/3x3
I0403 15:15:38.320075  2882 net.cpp:386] inception_4e/relu_3x3 -> inception_4e/3x3 (in-place)
I0403 15:15:38.320387  2882 net.cpp:141] Setting up inception_4e/relu_3x3
I0403 15:15:38.320416  2882 net.cpp:148] Top shape: 24 320 14 14 (1505280)
I0403 15:15:38.320432  2882 net.cpp:156] Memory required for data: 1236129312
I0403 15:15:38.320448  2882 layer_factory.hpp:77] Creating layer inception_4e/5x5_reduce
I0403 15:15:38.320472  2882 net.cpp:91] Creating Layer inception_4e/5x5_reduce
I0403 15:15:38.320490  2882 net.cpp:425] inception_4e/5x5_reduce <- inception_4d/output_inception_4d/output_0_split_3
I0403 15:15:38.320509  2882 net.cpp:399] inception_4e/5x5_reduce -> inception_4e/5x5_reduce
I0403 15:15:38.321610  2882 net.cpp:141] Setting up inception_4e/5x5_reduce
I0403 15:15:38.321638  2882 net.cpp:148] Top shape: 24 32 14 14 (150528)
I0403 15:15:38.321653  2882 net.cpp:156] Memory required for data: 1236731424
I0403 15:15:38.321672  2882 layer_factory.hpp:77] Creating layer inception_4e/relu_5x5_reduce
I0403 15:15:38.321692  2882 net.cpp:91] Creating Layer inception_4e/relu_5x5_reduce
I0403 15:15:38.321709  2882 net.cpp:425] inception_4e/relu_5x5_reduce <- inception_4e/5x5_reduce
I0403 15:15:38.321727  2882 net.cpp:386] inception_4e/relu_5x5_reduce -> inception_4e/5x5_reduce (in-place)
I0403 15:15:38.322031  2882 net.cpp:141] Setting up inception_4e/relu_5x5_reduce
I0403 15:15:38.322057  2882 net.cpp:148] Top shape: 24 32 14 14 (150528)
I0403 15:15:38.322072  2882 net.cpp:156] Memory required for data: 1237333536
I0403 15:15:38.322088  2882 layer_factory.hpp:77] Creating layer inception_4e/5x5
I0403 15:15:38.322125  2882 net.cpp:91] Creating Layer inception_4e/5x5
I0403 15:15:38.322144  2882 net.cpp:425] inception_4e/5x5 <- inception_4e/5x5_reduce
I0403 15:15:38.322165  2882 net.cpp:399] inception_4e/5x5 -> inception_4e/5x5
I0403 15:15:38.324064  2882 net.cpp:141] Setting up inception_4e/5x5
I0403 15:15:38.324091  2882 net.cpp:148] Top shape: 24 128 14 14 (602112)
I0403 15:15:38.324107  2882 net.cpp:156] Memory required for data: 1239741984
I0403 15:15:38.324126  2882 layer_factory.hpp:77] Creating layer inception_4e/relu_5x5
I0403 15:15:38.324144  2882 net.cpp:91] Creating Layer inception_4e/relu_5x5
I0403 15:15:38.324162  2882 net.cpp:425] inception_4e/relu_5x5 <- inception_4e/5x5
I0403 15:15:38.324189  2882 net.cpp:386] inception_4e/relu_5x5 -> inception_4e/5x5 (in-place)
I0403 15:15:38.324391  2882 net.cpp:141] Setting up inception_4e/relu_5x5
I0403 15:15:38.324416  2882 net.cpp:148] Top shape: 24 128 14 14 (602112)
I0403 15:15:38.324431  2882 net.cpp:156] Memory required for data: 1242150432
I0403 15:15:38.324446  2882 layer_factory.hpp:77] Creating layer inception_4e/pool
I0403 15:15:38.324467  2882 net.cpp:91] Creating Layer inception_4e/pool
I0403 15:15:38.324483  2882 net.cpp:425] inception_4e/pool <- inception_4d/output_inception_4d/output_0_split_4
I0403 15:15:38.324502  2882 net.cpp:399] inception_4e/pool -> inception_4e/pool
I0403 15:15:38.324574  2882 net.cpp:141] Setting up inception_4e/pool
I0403 15:15:38.324599  2882 net.cpp:148] Top shape: 24 528 14 14 (2483712)
I0403 15:15:38.324614  2882 net.cpp:156] Memory required for data: 1252085280
I0403 15:15:38.324630  2882 layer_factory.hpp:77] Creating layer inception_4e/pool_proj
I0403 15:15:38.324651  2882 net.cpp:91] Creating Layer inception_4e/pool_proj
I0403 15:15:38.324668  2882 net.cpp:425] inception_4e/pool_proj <- inception_4e/pool
I0403 15:15:38.324688  2882 net.cpp:399] inception_4e/pool_proj -> inception_4e/pool_proj
I0403 15:15:38.326216  2882 net.cpp:141] Setting up inception_4e/pool_proj
I0403 15:15:38.326256  2882 net.cpp:148] Top shape: 24 128 14 14 (602112)
I0403 15:15:38.326272  2882 net.cpp:156] Memory required for data: 1254493728
I0403 15:15:38.326292  2882 layer_factory.hpp:77] Creating layer inception_4e/relu_pool_proj
I0403 15:15:38.326309  2882 net.cpp:91] Creating Layer inception_4e/relu_pool_proj
I0403 15:15:38.326325  2882 net.cpp:425] inception_4e/relu_pool_proj <- inception_4e/pool_proj
I0403 15:15:38.326344  2882 net.cpp:386] inception_4e/relu_pool_proj -> inception_4e/pool_proj (in-place)
I0403 15:15:38.326644  2882 net.cpp:141] Setting up inception_4e/relu_pool_proj
I0403 15:15:38.326670  2882 net.cpp:148] Top shape: 24 128 14 14 (602112)
I0403 15:15:38.326686  2882 net.cpp:156] Memory required for data: 1256902176
I0403 15:15:38.326701  2882 layer_factory.hpp:77] Creating layer inception_4e/output
I0403 15:15:38.326719  2882 net.cpp:91] Creating Layer inception_4e/output
I0403 15:15:38.326735  2882 net.cpp:425] inception_4e/output <- inception_4e/1x1
I0403 15:15:38.326751  2882 net.cpp:425] inception_4e/output <- inception_4e/3x3
I0403 15:15:38.326767  2882 net.cpp:425] inception_4e/output <- inception_4e/5x5
I0403 15:15:38.326782  2882 net.cpp:425] inception_4e/output <- inception_4e/pool_proj
I0403 15:15:38.326802  2882 net.cpp:399] inception_4e/output -> inception_4e/output
I0403 15:15:38.326853  2882 net.cpp:141] Setting up inception_4e/output
I0403 15:15:38.326879  2882 net.cpp:148] Top shape: 24 832 14 14 (3913728)
I0403 15:15:38.326894  2882 net.cpp:156] Memory required for data: 1272557088
I0403 15:15:38.326908  2882 layer_factory.hpp:77] Creating layer pool4/3x3_s2
I0403 15:15:38.326926  2882 net.cpp:91] Creating Layer pool4/3x3_s2
I0403 15:15:38.326941  2882 net.cpp:425] pool4/3x3_s2 <- inception_4e/output
I0403 15:15:38.326959  2882 net.cpp:399] pool4/3x3_s2 -> pool4/3x3_s2
I0403 15:15:38.327030  2882 net.cpp:141] Setting up pool4/3x3_s2
I0403 15:15:38.327054  2882 net.cpp:148] Top shape: 24 832 7 7 (978432)
I0403 15:15:38.327069  2882 net.cpp:156] Memory required for data: 1276470816
I0403 15:15:38.327085  2882 layer_factory.hpp:77] Creating layer pool4/3x3_s2_pool4/3x3_s2_0_split
I0403 15:15:38.327101  2882 net.cpp:91] Creating Layer pool4/3x3_s2_pool4/3x3_s2_0_split
I0403 15:15:38.327117  2882 net.cpp:425] pool4/3x3_s2_pool4/3x3_s2_0_split <- pool4/3x3_s2
I0403 15:15:38.327136  2882 net.cpp:399] pool4/3x3_s2_pool4/3x3_s2_0_split -> pool4/3x3_s2_pool4/3x3_s2_0_split_0
I0403 15:15:38.327157  2882 net.cpp:399] pool4/3x3_s2_pool4/3x3_s2_0_split -> pool4/3x3_s2_pool4/3x3_s2_0_split_1
I0403 15:15:38.327184  2882 net.cpp:399] pool4/3x3_s2_pool4/3x3_s2_0_split -> pool4/3x3_s2_pool4/3x3_s2_0_split_2
I0403 15:15:38.327208  2882 net.cpp:399] pool4/3x3_s2_pool4/3x3_s2_0_split -> pool4/3x3_s2_pool4/3x3_s2_0_split_3
I0403 15:15:38.327306  2882 net.cpp:141] Setting up pool4/3x3_s2_pool4/3x3_s2_0_split
I0403 15:15:38.327329  2882 net.cpp:148] Top shape: 24 832 7 7 (978432)
I0403 15:15:38.327345  2882 net.cpp:148] Top shape: 24 832 7 7 (978432)
I0403 15:15:38.327361  2882 net.cpp:148] Top shape: 24 832 7 7 (978432)
I0403 15:15:38.327378  2882 net.cpp:148] Top shape: 24 832 7 7 (978432)
I0403 15:15:38.327391  2882 net.cpp:156] Memory required for data: 1292125728
I0403 15:15:38.327405  2882 layer_factory.hpp:77] Creating layer inception_5a/1x1
I0403 15:15:38.327427  2882 net.cpp:91] Creating Layer inception_5a/1x1
I0403 15:15:38.327445  2882 net.cpp:425] inception_5a/1x1 <- pool4/3x3_s2_pool4/3x3_s2_0_split_0
I0403 15:15:38.327466  2882 net.cpp:399] inception_5a/1x1 -> inception_5a/1x1
I0403 15:15:38.330353  2882 net.cpp:141] Setting up inception_5a/1x1
I0403 15:15:38.330381  2882 net.cpp:148] Top shape: 24 256 7 7 (301056)
I0403 15:15:38.330396  2882 net.cpp:156] Memory required for data: 1293329952
I0403 15:15:38.330415  2882 layer_factory.hpp:77] Creating layer inception_5a/relu_1x1
I0403 15:15:38.330435  2882 net.cpp:91] Creating Layer inception_5a/relu_1x1
I0403 15:15:38.330451  2882 net.cpp:425] inception_5a/relu_1x1 <- inception_5a/1x1
I0403 15:15:38.330467  2882 net.cpp:386] inception_5a/relu_1x1 -> inception_5a/1x1 (in-place)
I0403 15:15:38.330776  2882 net.cpp:141] Setting up inception_5a/relu_1x1
I0403 15:15:38.330802  2882 net.cpp:148] Top shape: 24 256 7 7 (301056)
I0403 15:15:38.330817  2882 net.cpp:156] Memory required for data: 1294534176
I0403 15:15:38.330832  2882 layer_factory.hpp:77] Creating layer inception_5a/3x3_reduce
I0403 15:15:38.330853  2882 net.cpp:91] Creating Layer inception_5a/3x3_reduce
I0403 15:15:38.330870  2882 net.cpp:425] inception_5a/3x3_reduce <- pool4/3x3_s2_pool4/3x3_s2_0_split_1
I0403 15:15:38.330891  2882 net.cpp:399] inception_5a/3x3_reduce -> inception_5a/3x3_reduce
I0403 15:15:38.333317  2882 net.cpp:141] Setting up inception_5a/3x3_reduce
I0403 15:15:38.333348  2882 net.cpp:148] Top shape: 24 160 7 7 (188160)
I0403 15:15:38.333364  2882 net.cpp:156] Memory required for data: 1295286816
I0403 15:15:38.333382  2882 layer_factory.hpp:77] Creating layer inception_5a/relu_3x3_reduce
I0403 15:15:38.333400  2882 net.cpp:91] Creating Layer inception_5a/relu_3x3_reduce
I0403 15:15:38.333415  2882 net.cpp:425] inception_5a/relu_3x3_reduce <- inception_5a/3x3_reduce
I0403 15:15:38.333433  2882 net.cpp:386] inception_5a/relu_3x3_reduce -> inception_5a/3x3_reduce (in-place)
I0403 15:15:38.333663  2882 net.cpp:141] Setting up inception_5a/relu_3x3_reduce
I0403 15:15:38.333688  2882 net.cpp:148] Top shape: 24 160 7 7 (188160)
I0403 15:15:38.333703  2882 net.cpp:156] Memory required for data: 1296039456
I0403 15:15:38.333719  2882 layer_factory.hpp:77] Creating layer inception_5a/3x3
I0403 15:15:38.333741  2882 net.cpp:91] Creating Layer inception_5a/3x3
I0403 15:15:38.333758  2882 net.cpp:425] inception_5a/3x3 <- inception_5a/3x3_reduce
I0403 15:15:38.333780  2882 net.cpp:399] inception_5a/3x3 -> inception_5a/3x3
I0403 15:15:38.338698  2882 net.cpp:141] Setting up inception_5a/3x3
I0403 15:15:38.338727  2882 net.cpp:148] Top shape: 24 320 7 7 (376320)
I0403 15:15:38.338742  2882 net.cpp:156] Memory required for data: 1297544736
I0403 15:15:38.338760  2882 layer_factory.hpp:77] Creating layer inception_5a/relu_3x3
I0403 15:15:38.338778  2882 net.cpp:91] Creating Layer inception_5a/relu_3x3
I0403 15:15:38.338793  2882 net.cpp:425] inception_5a/relu_3x3 <- inception_5a/3x3
I0403 15:15:38.338812  2882 net.cpp:386] inception_5a/relu_3x3 -> inception_5a/3x3 (in-place)
I0403 15:15:38.339107  2882 net.cpp:141] Setting up inception_5a/relu_3x3
I0403 15:15:38.339133  2882 net.cpp:148] Top shape: 24 320 7 7 (376320)
I0403 15:15:38.339148  2882 net.cpp:156] Memory required for data: 1299050016
I0403 15:15:38.339162  2882 layer_factory.hpp:77] Creating layer inception_5a/5x5_reduce
I0403 15:15:38.339190  2882 net.cpp:91] Creating Layer inception_5a/5x5_reduce
I0403 15:15:38.339210  2882 net.cpp:425] inception_5a/5x5_reduce <- pool4/3x3_s2_pool4/3x3_s2_0_split_2
I0403 15:15:38.339231  2882 net.cpp:399] inception_5a/5x5_reduce -> inception_5a/5x5_reduce
I0403 15:15:38.340400  2882 net.cpp:141] Setting up inception_5a/5x5_reduce
I0403 15:15:38.340431  2882 net.cpp:148] Top shape: 24 32 7 7 (37632)
I0403 15:15:38.340447  2882 net.cpp:156] Memory required for data: 1299200544
I0403 15:15:38.340466  2882 layer_factory.hpp:77] Creating layer inception_5a/relu_5x5_reduce
I0403 15:15:38.340482  2882 net.cpp:91] Creating Layer inception_5a/relu_5x5_reduce
I0403 15:15:38.340498  2882 net.cpp:425] inception_5a/relu_5x5_reduce <- inception_5a/5x5_reduce
I0403 15:15:38.340515  2882 net.cpp:386] inception_5a/relu_5x5_reduce -> inception_5a/5x5_reduce (in-place)
I0403 15:15:38.340812  2882 net.cpp:141] Setting up inception_5a/relu_5x5_reduce
I0403 15:15:38.340837  2882 net.cpp:148] Top shape: 24 32 7 7 (37632)
I0403 15:15:38.340852  2882 net.cpp:156] Memory required for data: 1299351072
I0403 15:15:38.340867  2882 layer_factory.hpp:77] Creating layer inception_5a/5x5
I0403 15:15:38.340889  2882 net.cpp:91] Creating Layer inception_5a/5x5
I0403 15:15:38.340906  2882 net.cpp:425] inception_5a/5x5 <- inception_5a/5x5_reduce
I0403 15:15:38.340926  2882 net.cpp:399] inception_5a/5x5 -> inception_5a/5x5
I0403 15:15:38.342747  2882 net.cpp:141] Setting up inception_5a/5x5
I0403 15:15:38.342787  2882 net.cpp:148] Top shape: 24 128 7 7 (150528)
I0403 15:15:38.342802  2882 net.cpp:156] Memory required for data: 1299953184
I0403 15:15:38.342820  2882 layer_factory.hpp:77] Creating layer inception_5a/relu_5x5
I0403 15:15:38.342838  2882 net.cpp:91] Creating Layer inception_5a/relu_5x5
I0403 15:15:38.342854  2882 net.cpp:425] inception_5a/relu_5x5 <- inception_5a/5x5
I0403 15:15:38.342872  2882 net.cpp:386] inception_5a/relu_5x5 -> inception_5a/5x5 (in-place)
I0403 15:15:38.343062  2882 net.cpp:141] Setting up inception_5a/relu_5x5
I0403 15:15:38.343086  2882 net.cpp:148] Top shape: 24 128 7 7 (150528)
I0403 15:15:38.343101  2882 net.cpp:156] Memory required for data: 1300555296
I0403 15:15:38.343116  2882 layer_factory.hpp:77] Creating layer inception_5a/pool
I0403 15:15:38.343134  2882 net.cpp:91] Creating Layer inception_5a/pool
I0403 15:15:38.343150  2882 net.cpp:425] inception_5a/pool <- pool4/3x3_s2_pool4/3x3_s2_0_split_3
I0403 15:15:38.343168  2882 net.cpp:399] inception_5a/pool -> inception_5a/pool
I0403 15:15:38.343246  2882 net.cpp:141] Setting up inception_5a/pool
I0403 15:15:38.343269  2882 net.cpp:148] Top shape: 24 832 7 7 (978432)
I0403 15:15:38.343284  2882 net.cpp:156] Memory required for data: 1304469024
I0403 15:15:38.343299  2882 layer_factory.hpp:77] Creating layer inception_5a/pool_proj
I0403 15:15:38.343320  2882 net.cpp:91] Creating Layer inception_5a/pool_proj
I0403 15:15:38.343338  2882 net.cpp:425] inception_5a/pool_proj <- inception_5a/pool
I0403 15:15:38.343358  2882 net.cpp:399] inception_5a/pool_proj -> inception_5a/pool_proj
I0403 15:15:38.345598  2882 net.cpp:141] Setting up inception_5a/pool_proj
I0403 15:15:38.345628  2882 net.cpp:148] Top shape: 24 128 7 7 (150528)
I0403 15:15:38.345643  2882 net.cpp:156] Memory required for data: 1305071136
I0403 15:15:38.345660  2882 layer_factory.hpp:77] Creating layer inception_5a/relu_pool_proj
I0403 15:15:38.345679  2882 net.cpp:91] Creating Layer inception_5a/relu_pool_proj
I0403 15:15:38.345695  2882 net.cpp:425] inception_5a/relu_pool_proj <- inception_5a/pool_proj
I0403 15:15:38.345712  2882 net.cpp:386] inception_5a/relu_pool_proj -> inception_5a/pool_proj (in-place)
I0403 15:15:38.346007  2882 net.cpp:141] Setting up inception_5a/relu_pool_proj
I0403 15:15:38.346032  2882 net.cpp:148] Top shape: 24 128 7 7 (150528)
I0403 15:15:38.346047  2882 net.cpp:156] Memory required for data: 1305673248
I0403 15:15:38.346062  2882 layer_factory.hpp:77] Creating layer inception_5a/output
I0403 15:15:38.346079  2882 net.cpp:91] Creating Layer inception_5a/output
I0403 15:15:38.346094  2882 net.cpp:425] inception_5a/output <- inception_5a/1x1
I0403 15:15:38.346110  2882 net.cpp:425] inception_5a/output <- inception_5a/3x3
I0403 15:15:38.346125  2882 net.cpp:425] inception_5a/output <- inception_5a/5x5
I0403 15:15:38.346141  2882 net.cpp:425] inception_5a/output <- inception_5a/pool_proj
I0403 15:15:38.346160  2882 net.cpp:399] inception_5a/output -> inception_5a/output
I0403 15:15:38.346216  2882 net.cpp:141] Setting up inception_5a/output
I0403 15:15:38.346240  2882 net.cpp:148] Top shape: 24 832 7 7 (978432)
I0403 15:15:38.346253  2882 net.cpp:156] Memory required for data: 1309586976
I0403 15:15:38.346268  2882 layer_factory.hpp:77] Creating layer inception_5a/output_inception_5a/output_0_split
I0403 15:15:38.346287  2882 net.cpp:91] Creating Layer inception_5a/output_inception_5a/output_0_split
I0403 15:15:38.346302  2882 net.cpp:425] inception_5a/output_inception_5a/output_0_split <- inception_5a/output
I0403 15:15:38.346319  2882 net.cpp:399] inception_5a/output_inception_5a/output_0_split -> inception_5a/output_inception_5a/output_0_split_0
I0403 15:15:38.346343  2882 net.cpp:399] inception_5a/output_inception_5a/output_0_split -> inception_5a/output_inception_5a/output_0_split_1
I0403 15:15:38.346364  2882 net.cpp:399] inception_5a/output_inception_5a/output_0_split -> inception_5a/output_inception_5a/output_0_split_2
I0403 15:15:38.346385  2882 net.cpp:399] inception_5a/output_inception_5a/output_0_split -> inception_5a/output_inception_5a/output_0_split_3
I0403 15:15:38.346493  2882 net.cpp:141] Setting up inception_5a/output_inception_5a/output_0_split
I0403 15:15:38.346515  2882 net.cpp:148] Top shape: 24 832 7 7 (978432)
I0403 15:15:38.346531  2882 net.cpp:148] Top shape: 24 832 7 7 (978432)
I0403 15:15:38.346546  2882 net.cpp:148] Top shape: 24 832 7 7 (978432)
I0403 15:15:38.346561  2882 net.cpp:148] Top shape: 24 832 7 7 (978432)
I0403 15:15:38.346575  2882 net.cpp:156] Memory required for data: 1325241888
I0403 15:15:38.346590  2882 layer_factory.hpp:77] Creating layer inception_5b/1x1
I0403 15:15:38.346611  2882 net.cpp:91] Creating Layer inception_5b/1x1
I0403 15:15:38.346628  2882 net.cpp:425] inception_5b/1x1 <- inception_5a/output_inception_5a/output_0_split_0
I0403 15:15:38.346648  2882 net.cpp:399] inception_5b/1x1 -> inception_5b/1x1
I0403 15:15:38.350424  2882 net.cpp:141] Setting up inception_5b/1x1
I0403 15:15:38.350455  2882 net.cpp:148] Top shape: 24 384 7 7 (451584)
I0403 15:15:38.350471  2882 net.cpp:156] Memory required for data: 1327048224
I0403 15:15:38.350489  2882 layer_factory.hpp:77] Creating layer inception_5b/relu_1x1
I0403 15:15:38.350507  2882 net.cpp:91] Creating Layer inception_5b/relu_1x1
I0403 15:15:38.350522  2882 net.cpp:425] inception_5b/relu_1x1 <- inception_5b/1x1
I0403 15:15:38.350543  2882 net.cpp:386] inception_5b/relu_1x1 -> inception_5b/1x1 (in-place)
I0403 15:15:38.350852  2882 net.cpp:141] Setting up inception_5b/relu_1x1
I0403 15:15:38.350880  2882 net.cpp:148] Top shape: 24 384 7 7 (451584)
I0403 15:15:38.350895  2882 net.cpp:156] Memory required for data: 1328854560
I0403 15:15:38.350910  2882 layer_factory.hpp:77] Creating layer inception_5b/3x3_reduce
I0403 15:15:38.350934  2882 net.cpp:91] Creating Layer inception_5b/3x3_reduce
I0403 15:15:38.350951  2882 net.cpp:425] inception_5b/3x3_reduce <- inception_5a/output_inception_5a/output_0_split_1
I0403 15:15:38.350973  2882 net.cpp:399] inception_5b/3x3_reduce -> inception_5b/3x3_reduce
I0403 15:15:38.353688  2882 net.cpp:141] Setting up inception_5b/3x3_reduce
I0403 15:15:38.353719  2882 net.cpp:148] Top shape: 24 192 7 7 (225792)
I0403 15:15:38.353736  2882 net.cpp:156] Memory required for data: 1329757728
I0403 15:15:38.353755  2882 layer_factory.hpp:77] Creating layer inception_5b/relu_3x3_reduce
I0403 15:15:38.353773  2882 net.cpp:91] Creating Layer inception_5b/relu_3x3_reduce
I0403 15:15:38.353790  2882 net.cpp:425] inception_5b/relu_3x3_reduce <- inception_5b/3x3_reduce
I0403 15:15:38.353811  2882 net.cpp:386] inception_5b/relu_3x3_reduce -> inception_5b/3x3_reduce (in-place)
I0403 15:15:38.354004  2882 net.cpp:141] Setting up inception_5b/relu_3x3_reduce
I0403 15:15:38.354030  2882 net.cpp:148] Top shape: 24 192 7 7 (225792)
I0403 15:15:38.354045  2882 net.cpp:156] Memory required for data: 1330660896
I0403 15:15:38.354060  2882 layer_factory.hpp:77] Creating layer inception_5b/3x3
I0403 15:15:38.354082  2882 net.cpp:91] Creating Layer inception_5b/3x3
I0403 15:15:38.354099  2882 net.cpp:425] inception_5b/3x3 <- inception_5b/3x3_reduce
I0403 15:15:38.354122  2882 net.cpp:399] inception_5b/3x3 -> inception_5b/3x3
I0403 15:15:38.360873  2882 net.cpp:141] Setting up inception_5b/3x3
I0403 15:15:38.360903  2882 net.cpp:148] Top shape: 24 384 7 7 (451584)
I0403 15:15:38.360918  2882 net.cpp:156] Memory required for data: 1332467232
I0403 15:15:38.360937  2882 layer_factory.hpp:77] Creating layer inception_5b/relu_3x3
I0403 15:15:38.360955  2882 net.cpp:91] Creating Layer inception_5b/relu_3x3
I0403 15:15:38.360972  2882 net.cpp:425] inception_5b/relu_3x3 <- inception_5b/3x3
I0403 15:15:38.360991  2882 net.cpp:386] inception_5b/relu_3x3 -> inception_5b/3x3 (in-place)
I0403 15:15:38.361301  2882 net.cpp:141] Setting up inception_5b/relu_3x3
I0403 15:15:38.361328  2882 net.cpp:148] Top shape: 24 384 7 7 (451584)
I0403 15:15:38.361343  2882 net.cpp:156] Memory required for data: 1334273568
I0403 15:15:38.361358  2882 layer_factory.hpp:77] Creating layer inception_5b/5x5_reduce
I0403 15:15:38.361398  2882 net.cpp:91] Creating Layer inception_5b/5x5_reduce
I0403 15:15:38.361416  2882 net.cpp:425] inception_5b/5x5_reduce <- inception_5a/output_inception_5a/output_0_split_2
I0403 15:15:38.361441  2882 net.cpp:399] inception_5b/5x5_reduce -> inception_5b/5x5_reduce
I0403 15:15:38.362754  2882 net.cpp:141] Setting up inception_5b/5x5_reduce
I0403 15:15:38.362782  2882 net.cpp:148] Top shape: 24 48 7 7 (56448)
I0403 15:15:38.362798  2882 net.cpp:156] Memory required for data: 1334499360
I0403 15:15:38.362817  2882 layer_factory.hpp:77] Creating layer inception_5b/relu_5x5_reduce
I0403 15:15:38.362834  2882 net.cpp:91] Creating Layer inception_5b/relu_5x5_reduce
I0403 15:15:38.362850  2882 net.cpp:425] inception_5b/relu_5x5_reduce <- inception_5b/5x5_reduce
I0403 15:15:38.362870  2882 net.cpp:386] inception_5b/relu_5x5_reduce -> inception_5b/5x5_reduce (in-place)
I0403 15:15:38.363255  2882 net.cpp:141] Setting up inception_5b/relu_5x5_reduce
I0403 15:15:38.363282  2882 net.cpp:148] Top shape: 24 48 7 7 (56448)
I0403 15:15:38.363297  2882 net.cpp:156] Memory required for data: 1334725152
I0403 15:15:38.363312  2882 layer_factory.hpp:77] Creating layer inception_5b/5x5
I0403 15:15:38.363333  2882 net.cpp:91] Creating Layer inception_5b/5x5
I0403 15:15:38.363351  2882 net.cpp:425] inception_5b/5x5 <- inception_5b/5x5_reduce
I0403 15:15:38.363370  2882 net.cpp:399] inception_5b/5x5 -> inception_5b/5x5
I0403 15:15:38.365520  2882 net.cpp:141] Setting up inception_5b/5x5
I0403 15:15:38.365548  2882 net.cpp:148] Top shape: 24 128 7 7 (150528)
I0403 15:15:38.365566  2882 net.cpp:156] Memory required for data: 1335327264
I0403 15:15:38.365584  2882 layer_factory.hpp:77] Creating layer inception_5b/relu_5x5
I0403 15:15:38.365604  2882 net.cpp:91] Creating Layer inception_5b/relu_5x5
I0403 15:15:38.365622  2882 net.cpp:425] inception_5b/relu_5x5 <- inception_5b/5x5
I0403 15:15:38.365640  2882 net.cpp:386] inception_5b/relu_5x5 -> inception_5b/5x5 (in-place)
I0403 15:15:38.365846  2882 net.cpp:141] Setting up inception_5b/relu_5x5
I0403 15:15:38.365872  2882 net.cpp:148] Top shape: 24 128 7 7 (150528)
I0403 15:15:38.365888  2882 net.cpp:156] Memory required for data: 1335929376
I0403 15:15:38.365903  2882 layer_factory.hpp:77] Creating layer inception_5b/pool
I0403 15:15:38.365924  2882 net.cpp:91] Creating Layer inception_5b/pool
I0403 15:15:38.365942  2882 net.cpp:425] inception_5b/pool <- inception_5a/output_inception_5a/output_0_split_3
I0403 15:15:38.365962  2882 net.cpp:399] inception_5b/pool -> inception_5b/pool
I0403 15:15:38.366040  2882 net.cpp:141] Setting up inception_5b/pool
I0403 15:15:38.366065  2882 net.cpp:148] Top shape: 24 832 7 7 (978432)
I0403 15:15:38.366080  2882 net.cpp:156] Memory required for data: 1339843104
I0403 15:15:38.366096  2882 layer_factory.hpp:77] Creating layer inception_5b/pool_proj
I0403 15:15:38.366118  2882 net.cpp:91] Creating Layer inception_5b/pool_proj
I0403 15:15:38.366137  2882 net.cpp:425] inception_5b/pool_proj <- inception_5b/pool
I0403 15:15:38.366158  2882 net.cpp:399] inception_5b/pool_proj -> inception_5b/pool_proj
I0403 15:15:38.368585  2882 net.cpp:141] Setting up inception_5b/pool_proj
I0403 15:15:38.368616  2882 net.cpp:148] Top shape: 24 128 7 7 (150528)
I0403 15:15:38.368633  2882 net.cpp:156] Memory required for data: 1340445216
I0403 15:15:38.368652  2882 layer_factory.hpp:77] Creating layer inception_5b/relu_pool_proj
I0403 15:15:38.368671  2882 net.cpp:91] Creating Layer inception_5b/relu_pool_proj
I0403 15:15:38.368688  2882 net.cpp:425] inception_5b/relu_pool_proj <- inception_5b/pool_proj
I0403 15:15:38.368708  2882 net.cpp:386] inception_5b/relu_pool_proj -> inception_5b/pool_proj (in-place)
I0403 15:15:38.369026  2882 net.cpp:141] Setting up inception_5b/relu_pool_proj
I0403 15:15:38.369053  2882 net.cpp:148] Top shape: 24 128 7 7 (150528)
I0403 15:15:38.369070  2882 net.cpp:156] Memory required for data: 1341047328
I0403 15:15:38.369086  2882 layer_factory.hpp:77] Creating layer inception_5b/output
I0403 15:15:38.369103  2882 net.cpp:91] Creating Layer inception_5b/output
I0403 15:15:38.369138  2882 net.cpp:425] inception_5b/output <- inception_5b/1x1
I0403 15:15:38.369155  2882 net.cpp:425] inception_5b/output <- inception_5b/3x3
I0403 15:15:38.369174  2882 net.cpp:425] inception_5b/output <- inception_5b/5x5
I0403 15:15:38.369199  2882 net.cpp:425] inception_5b/output <- inception_5b/pool_proj
I0403 15:15:38.369220  2882 net.cpp:399] inception_5b/output -> inception_5b/output
I0403 15:15:38.369276  2882 net.cpp:141] Setting up inception_5b/output
I0403 15:15:38.369302  2882 net.cpp:148] Top shape: 24 1024 7 7 (1204224)
I0403 15:15:38.369319  2882 net.cpp:156] Memory required for data: 1345864224
I0403 15:15:38.369334  2882 layer_factory.hpp:77] Creating layer pool5/7x7_s1
I0403 15:15:38.369352  2882 net.cpp:91] Creating Layer pool5/7x7_s1
I0403 15:15:38.369369  2882 net.cpp:425] pool5/7x7_s1 <- inception_5b/output
I0403 15:15:38.369387  2882 net.cpp:399] pool5/7x7_s1 -> pool5/7x7_s1
I0403 15:15:38.369616  2882 net.cpp:141] Setting up pool5/7x7_s1
I0403 15:15:38.369642  2882 net.cpp:148] Top shape: 24 1024 1 1 (24576)
I0403 15:15:38.369657  2882 net.cpp:156] Memory required for data: 1345962528
I0403 15:15:38.369673  2882 layer_factory.hpp:77] Creating layer pool5/drop_7x7_s1
I0403 15:15:38.369691  2882 net.cpp:91] Creating Layer pool5/drop_7x7_s1
I0403 15:15:38.369707  2882 net.cpp:425] pool5/drop_7x7_s1 <- pool5/7x7_s1
I0403 15:15:38.369727  2882 net.cpp:386] pool5/drop_7x7_s1 -> pool5/7x7_s1 (in-place)
I0403 15:15:38.369781  2882 net.cpp:141] Setting up pool5/drop_7x7_s1
I0403 15:15:38.369807  2882 net.cpp:148] Top shape: 24 1024 1 1 (24576)
I0403 15:15:38.369822  2882 net.cpp:156] Memory required for data: 1346060832
I0403 15:15:38.369837  2882 layer_factory.hpp:77] Creating layer loss3/classifier_plantvillage
I0403 15:15:38.369856  2882 net.cpp:91] Creating Layer loss3/classifier_plantvillage
I0403 15:15:38.369874  2882 net.cpp:425] loss3/classifier_plantvillage <- pool5/7x7_s1
I0403 15:15:38.369894  2882 net.cpp:399] loss3/classifier_plantvillage -> loss3/classifier_plantvillage
I0403 15:15:38.370352  2882 net.cpp:141] Setting up loss3/classifier_plantvillage
I0403 15:15:38.370378  2882 net.cpp:148] Top shape: 24 38 (912)
I0403 15:15:38.370393  2882 net.cpp:156] Memory required for data: 1346064480
I0403 15:15:38.370411  2882 layer_factory.hpp:77] Creating layer loss3/classifier_plantvillage_loss3/classifier_plantvillage_0_split
I0403 15:15:38.370434  2882 net.cpp:91] Creating Layer loss3/classifier_plantvillage_loss3/classifier_plantvillage_0_split
I0403 15:15:38.370451  2882 net.cpp:425] loss3/classifier_plantvillage_loss3/classifier_plantvillage_0_split <- loss3/classifier_plantvillage
I0403 15:15:38.370470  2882 net.cpp:399] loss3/classifier_plantvillage_loss3/classifier_plantvillage_0_split -> loss3/classifier_plantvillage_loss3/classifier_plantvillage_0_split_0
I0403 15:15:38.370493  2882 net.cpp:399] loss3/classifier_plantvillage_loss3/classifier_plantvillage_0_split -> loss3/classifier_plantvillage_loss3/classifier_plantvillage_0_split_1
I0403 15:15:38.370515  2882 net.cpp:399] loss3/classifier_plantvillage_loss3/classifier_plantvillage_0_split -> loss3/classifier_plantvillage_loss3/classifier_plantvillage_0_split_2
I0403 15:15:38.370537  2882 net.cpp:399] loss3/classifier_plantvillage_loss3/classifier_plantvillage_0_split -> loss3/classifier_plantvillage_loss3/classifier_plantvillage_0_split_3
I0403 15:15:38.370643  2882 net.cpp:141] Setting up loss3/classifier_plantvillage_loss3/classifier_plantvillage_0_split
I0403 15:15:38.370668  2882 net.cpp:148] Top shape: 24 38 (912)
I0403 15:15:38.370685  2882 net.cpp:148] Top shape: 24 38 (912)
I0403 15:15:38.370702  2882 net.cpp:148] Top shape: 24 38 (912)
I0403 15:15:38.370718  2882 net.cpp:148] Top shape: 24 38 (912)
I0403 15:15:38.370733  2882 net.cpp:156] Memory required for data: 1346079072
I0403 15:15:38.370748  2882 layer_factory.hpp:77] Creating layer loss1/loss
I0403 15:15:38.370770  2882 net.cpp:91] Creating Layer loss1/loss
I0403 15:15:38.370789  2882 net.cpp:425] loss1/loss <- loss1/classifier_plantvillage_loss1/classifier_plantvillage_0_split_0
I0403 15:15:38.370820  2882 net.cpp:425] loss1/loss <- label_data_1_split_0
…
