…
I0403 15:04:19.264531  2616 net.cpp:313] The NetState phase (1) differed from the phase (0) specified by a rule in layer data
I0403 15:04:19.265655  2616 net.cpp:49] Initializing net from parameters: 
state {
  phase: TEST
}
layer {
  name: "data"
  type: "Data"
  top: "data"
  top: "label"
  include {
    phase: TEST
  }
  transform_param {
    mirror: false
    crop_size: 224
    mean_file: "/home/mohanty/data/final_dataset/lmdb/segmented-60-40/mean.binaryproto"
  }
  data_param {
    source: "/home/mohanty/data/final_dataset/lmdb/segmented-60-40/test_db"
    batch_size: 24
    backend: LMDB
  }
}
layer {
  name: "conv1/7x7_s2"
  type: "Convolution"
  bottom: "data"
  top: "conv1/7x7_s2"
  param {
    lr_mult: 1
    decay_mult: 1
  }
  param {
    lr_mult: 2
    decay_mult: 0
  }
  convolution_param {
    num_output: 64
    pad: 3
    kernel_size: 7
    stride: 2
    weight_filler {
      type: "xavier"
      std: 0.1
    }
    bias_filler {
      type: "constant"
      value: 0.2
    }
  }
}
layer {
  name: "conv1/relu_7x7"
  type: "ReLU"
  bottom: "conv1/7x7_s2"
  top: "conv1/7x7_s2"
}
layer {
  name: "pool1/3x3_s2"
  type: "Pooling"
  bottom: "conv1/7x7_s2"
  top: "pool1/3x3_s2"
  pooling_param {
    pool: MAX
    kernel_size: 3
    stride: 2
  }
}
layer {
  name: "pool1/norm1"
  type: "LRN"
  bottom: "pool1/3x3_s2"
  top: "pool1/norm1"
  lrn_param {
    local_size: 5
    alpha: 0.0001
    beta: 0.75
  }
}
layer {
  name: "conv2/3x3_reduce"
  type: "Convolution"
  bottom: "pool1/norm1"
  top: "conv2/3x3_reduce"
  param {
    lr_mult: 1
    decay_mult: 1
  }
  param {
    lr_mult: 2
    decay_mult: 0
  }
  convolution_param {
    num_output: 64
    kernel_size: 1
    weight_filler {
      type: "xavier"
      std: 0.1
    }
    bias_filler {
      type: "constant"
      value: 0.2
    }
  }
}
layer {
  name: "conv2/relu_3x3_reduce"
  type: "ReLU"
  bottom: "conv2/3x3_reduce"
  top: "conv2/3x3_reduce"
}
layer {
  name: "conv2/3x3"
  type: "Convolution"
  bottom: "conv2/3x3_reduce"
  top: "conv2/3x3"
  param {
    lr_mult: 1
    decay_mult: 1
  }
  param {
    lr_mult: 2
    decay_mult: 0
  }
  convolution_param {
    num_output: 192
    pad: 1
    kernel_size: 3
    weight_filler {
      type: "xavier"
      std: 0.03
    }
    bias_filler {
      type: "constant"
      value: 0.2
    }
  }
}
layer {
  name: "conv2/relu_3x3"
  type: "ReLU"
  bottom: "conv2/3x3"
  top: "conv2/3x3"
}
layer {
  name: "conv2/norm2"
  type: "LRN"
  bottom: "conv2/3x3"
  top: "conv2/norm2"
  lrn_param {
    local_size: 5
    alpha: 0.0001
    beta: 0.75
  }
}
layer {
  name: "pool2/3x3_s2"
  type: "Pooling"
  bottom: "conv2/norm2"
  top: "pool2/3x3_s2"
  pooling_param {
    pool: MAX
    kernel_size: 3
    stride: 2
  }
}
layer {
  name: "inception_3a/1x1"
  type: "Convolution"
  bottom: "pool2/3x3_s2"
  top: "inception_3a/1x1"
  param {
    lr_mult: 1
    decay_mult: 1
  }
  param {
    lr_mult: 2
    decay_mult: 0
  }
  convolution_param {
    num_output: 64
    kernel_size: 1
    weight_filler {
      type: "xavier"
      std: 0.03
    }
    bias_filler {
      type: "constant"
      value: 0.2
    }
  }
}
layer {
  name: "inception_3a/relu_1x1"
  type: "ReLU"
  bottom: "inception_3a/1x1"
  top: "inception_3a/1x1"
}
layer {
  name: "inception_3a/3x3_reduce"
  type: "Convolution"
  bottom: "pool2/3x3_s2"
  top: "inception_3a/3x3_reduce"
  param {
    lr_mult: 1
    decay_mult: 1
  }
  param {
    lr_mult: 2
    decay_mult: 0
  }
  convolution_param {
    num_output: 96
    kernel_size: 1
    weight_filler {
      type: "xavier"
      std: 0.09
    }
    bias_filler {
      type: "constant"
      value: 0.2
    }
  }
}
layer {
  name: "inception_3a/relu_3x3_reduce"
  type: "ReLU"
  bottom: "inception_3a/3x3_reduce"
  top: "inception_3a/3x3_reduce"
}
layer {
  name: "inception_3a/3x3"
  type: "Convolution"
  bottom: "inception_3a/3x3_reduce"
  top: "inception_3a/3x3"
  param {
    lr_mult: 1
    decay_mult: 1
  }
  param {
    lr_mult: 2
    decay_mult: 0
  }
  convolution_param {
    num_output: 128
    pad: 1
    kernel_size: 3
    weight_filler {
      type: "xavier"
      std: 0.03
    }
    bias_filler {
      type: "constant"
      value: 0.2
    }
  }
}
layer {
  name: "inception_3a/relu_3x3"
  type: "ReLU"
  bottom: "inception_3a/3x3"
  top: "inception_3a/3x3"
}
layer {
  name: "inception_3a/5x5_reduce"
  type: "Convolution"
  bottom: "pool2/3x3_s2"
  top: "inception_3a/5x5_reduce"
  param {
    lr_mult: 1
    decay_mult: 1
  }
  param {
    lr_mult: 2
    decay_mult: 0
  }
  convolution_param {
    num_output: 16
    kernel_size: 1
    weight_filler {
      type: "xavier"
      std: 0.2
    }
    bias_filler {
      type: "constant"
      value: 0.2
    }
  }
}
layer {
  name: "inception_3a/relu_5x5_reduce"
  type: "ReLU"
  bottom: "inception_3a/5x5_reduce"
  top: "inception_3a/5x5_reduce"
}
layer {
  name: "inception_3a/5x5"
  type: "Convolution"
  bottom: "inception_3a/5x5_reduce"
  top: "inception_3a/5x5"
  param {
    lr_mult: 1
    decay_mult: 1
  }
  param {
    lr_mult: 2
    decay_mult: 0
  }
  convolution_param {
    num_output: 32
    pad: 2
    kernel_size: 5
    weight_filler {
      type: "xavier"
      std: 0.03
    }
    bias_filler {
      type: "constant"
      value: 0.2
    }
  }
}
layer {
  name: "inception_3a/relu_5x5"
  type: "ReLU"
  bottom: "inception_3a/5x5"
  top: "inception_3a/5x5"
}
layer {
  name: "inception_3a/pool"
  type: "Pooling"
  bottom: "pool2/3x3_s2"
  top: "inception_3a/pool"
  pooling_param {
    pool: MAX
    kernel_size: 3
    stride: 1
    pad: 1
  }
}
layer {
  name: "inception_3a/pool_proj"
  type: "Convolution"
  bottom: "inception_3a/pool"
  top: "inception_3a/pool_proj"
  param {
    lr_mult: 1
    decay_mult: 1
  }
  param {
    lr_mult: 2
    decay_mult: 0
  }
  convolution_param {
    num_output: 32
    kernel_size: 1
    weight_filler {
      type: "xavier"
      std: 0.1
    }
    bias_filler {
      type: "constant"
      value: 0.2
    }
  }
}
layer {
  name: "inception_3a/relu_pool_proj"
  type: "ReLU"
  bottom: "inception_3a/pool_proj"
  top: "inception_3a/pool_proj"
}
layer {
  name: "inception_3a/output"
  type: "Concat"
  bottom: "inception_3a/1x1"
  bottom: "inception_3a/3x3"
  bottom: "inception_3a/5x5"
  bottom: "inception_3a/pool_proj"
  top: "inception_3a/output"
}
layer {
  name: "inception_3b/1x1"
  type: "Convolution"
  bottom: "inception_3a/output"
  top: "inception_3b/1x1"
  param {
    lr_mult: 1
    decay_mult: 1
  }
  param {
    lr_mult: 2
    decay_mult: 0
  }
  convolution_param {
    num_output: 128
    kernel_size: 1
    weight_filler {
      type: "xavier"
      std: 0.03
    }
    bias_filler {
      type: "constant"
      value: 0.2
    }
  }
}
layer {
  name: "inception_3b/relu_1x1"
  type: "ReLU"
  bottom: "inception_3b/1x1"
  top: "inception_3b/1x1"
}
layer {
  name: "inception_3b/3x3_reduce"
  type: "Convolution"
  bottom: "inception_3a/output"
  top: "inception_3b/3x3_reduce"
  param {
    lr_mult: 1
    decay_mult: 1
  }
  param {
    lr_mult: 2
    decay_mult: 0
  }
  convolution_param {
    num_output: 128
    kernel_size: 1
    weight_filler {
      type: "xavier"
      std: 0.09
    }
    bias_filler {
      type: "constant"
      value: 0.2
    }
  }
}
layer {
  name: "inception_3b/relu_3x3_reduce"
  type: "ReLU"
  bottom: "inception_3b/3x3_reduce"
  top: "inception_3b/3x3_reduce"
}
layer {
  name: "inception_3b/3x3"
  type: "Convolution"
  bottom: "inception_3b/3x3_reduce"
  top: "inception_3b/3x3"
  param {
    lr_mult: 1
    decay_mult: 1
  }
  param {
    lr_mult: 2
    decay_mult: 0
  }
  convolution_param {
    num_output: 192
    pad: 1
    kernel_size: 3
    weight_filler {
      type: "xavier"
      std: 0.03
    }
    bias_filler {
      type: "constant"
      value: 0.2
    }
  }
}
layer {
  name: "inception_3b/relu_3x3"
  type: "ReLU"
  bottom: "inception_3b/3x3"
  top: "inception_3b/3x3"
}
layer {
  name: "inception_3b/5x5_reduce"
  type: "Convolution"
  bottom: "inception_3a/output"
  top: "inception_3b/5x5_reduce"
  param {
    lr_mult: 1
    decay_mult: 1
  }
  param {
    lr_mult: 2
    decay_mult: 0
  }
  convolution_param {
    num_output: 32
    kernel_size: 1
    weight_filler {
      type: "xavier"
      std: 0.2
    }
    bias_filler {
      type: "constant"
      value: 0.2
    }
  }
}
layer {
  name: "inception_3b/relu_5x5_reduce"
  type: "ReLU"
  bottom: "inception_3b/5x5_reduce"
  top: "inception_3b/5x5_reduce"
}
layer {
  name: "inception_3b/5x5"
  type: "Convolution"
  bottom: "inception_3b/5x5_reduce"
  top: "inception_3b/5x5"
  param {
    lr_mult: 1
    decay_mult: 1
  }
  param {
    lr_mult: 2
    decay_mult: 0
  }
  convolution_param {
    num_output: 96
    pad: 2
    kernel_size: 5
    weight_filler {
      type: "xavier"
      std: 0.03
    }
    bias_filler {
      type: "constant"
      value: 0.2
    }
  }
}
layer {
  name: "inception_3b/relu_5x5"
  type: "ReLU"
  bottom: "inception_3b/5x5"
  top: "inception_3b/5x5"
}
layer {
  name: "inception_3b/pool"
  type: "Pooling"
  bottom: "inception_3a/output"
  top: "inception_3b/pool"
  pooling_param {
    pool: MAX
    kernel_size: 3
    stride: 1
    pad: 1
  }
}
layer {
  name: "inception_3b/pool_proj"
  type: "Convolution"
  bottom: "inception_3b/pool"
  top: "inception_3b/pool_proj"
  param {
    lr_mult: 1
    decay_mult: 1
  }
  param {
    lr_mult: 2
    decay_mult: 0
  }
  convolution_param {
    num_output: 64
    kernel_size: 1
    weight_filler {
      type: "xavier"
      std: 0.1
    }
    bias_filler {
      type: "constant"
      value: 0.2
    }
  }
}
layer {
  name: "inception_3b/relu_pool_proj"
  type: "ReLU"
  bottom: "inception_3b/pool_proj"
  top: "inception_3b/pool_proj"
}
layer {
  name: "inception_3b/output"
  type: "Concat"
  bottom: "inception_3b/1x1"
  bottom: "inception_3b/3x3"
  bottom: "inception_3b/5x5"
  bottom: "inception_3b/pool_proj"
  top: "inception_3b/output"
}
layer {
  name: "pool3/3x3_s2"
  type: "Pooling"
  bottom: "inception_3b/output"
  top: "pool3/3x3_s2"
  pooling_param {
    pool: MAX
    kernel_size: 3
    stride: 2
  }
}
layer {
  name: "inception_4a/1x1"
  type: "Convolution"
  bottom: "pool3/3x3_s2"
  top: "inception_4a/1x1"
  param {
    lr_mult: 1
    decay_mult: 1
  }
  param {
    lr_mult: 2
    decay_mult: 0
  }
  convolution_param {
    num_output: 192
    kernel_size: 1
    weight_filler {
      type: "xavier"
      std: 0.03
    }
    bias_filler {
      type: "constant"
      value: 0.2
    }
  }
}
layer {
  name: "inception_4a/relu_1x1"
  type: "ReLU"
  bottom: "inception_4a/1x1"
  top: "inception_4a/1x1"
}
layer {
  name: "inception_4a/3x3_reduce"
  type: "Convolution"
  bottom: "pool3/3x3_s2"
  top: "inception_4a/3x3_reduce"
  param {
    lr_mult: 1
    decay_mult: 1
  }
  param {
    lr_mult: 2
    decay_mult: 0
  }
  convolution_param {
    num_output: 96
    kernel_size: 1
    weight_filler {
      type: "xavier"
      std: 0.09
    }
    bias_filler {
      type: "constant"
      value: 0.2
    }
  }
}
layer {
  name: "inception_4a/relu_3x3_reduce"
  type: "ReLU"
  bottom: "inception_4a/3x3_reduce"
  top: "inception_4a/3x3_reduce"
}
layer {
  name: "inception_4a/3x3"
  type: "Convolution"
  bottom: "inception_4a/3x3_reduce"
  top: "inception_4a/3x3"
  param {
    lr_mult: 1
    decay_mult: 1
  }
  param {
    lr_mult: 2
    decay_mult: 0
  }
  convolution_param {
    num_output: 208
    pad: 1
    kernel_size: 3
    weight_filler {
      type: "xavier"
      std: 0.03
    }
    bias_filler {
      type: "constant"
      value: 0.2
    }
  }
}
layer {
  name: "inception_4a/relu_3x3"
  type: "ReLU"
  bottom: "inception_4a/3x3"
  top: "inception_4a/3x3"
}
layer {
  name: "inception_4a/5x5_reduce"
  type: "Convolution"
  bottom: "pool3/3x3_s2"
  top: "inception_4a/5x5_reduce"
  param {
    lr_mult: 1
    decay_mult: 1
  }
  param {
    lr_mult: 2
    decay_mult: 0
  }
  convolution_param {
    num_output: 16
    kernel_size: 1
    weight_filler {
      type: "xavier"
      std: 0.2
    }
    bias_filler {
      type: "constant"
      value: 0.2
    }
  }
}
layer {
  name: "inception_4a/relu_5x5_reduce"
  type: "ReLU"
  bottom: "inception_4a/5x5_reduce"
  top: "inception_4a/5x5_reduce"
}
layer {
  name: "inception_4a/5x5"
  type: "Convolution"
  bottom: "inception_4a/5x5_reduce"
  top: "inception_4a/5x5"
  param {
    lr_mult: 1
    decay_mult: 1
  }
  param {
    lr_mult: 2
    decay_mult: 0
  }
  convolution_param {
    num_output: 48
    pad: 2
    kernel_size: 5
    weight_filler {
      type: "xavier"
      std: 0.03
    }
    bias_filler {
      type: "constant"
      value: 0.2
    }
  }
}
layer {
  name: "inception_4a/relu_5x5"
  type: "ReLU"
  bottom: "inception_4a/5x5"
  top: "inception_4a/5x5"
}
layer {
  name: "inception_4a/pool"
  type: "Pooling"
  bottom: "pool3/3x3_s2"
  top: "inception_4a/pool"
  pooling_param {
    pool: MAX
    kernel_size: 3
    stride: 1
    pad: 1
  }
}
layer {
  name: "inception_4a/pool_proj"
  type: "Convolution"
  bottom: "inception_4a/pool"
  top: "inception_4a/pool_proj"
  param {
    lr_mult: 1
    decay_mult: 1
  }
  param {
    lr_mult: 2
    decay_mult: 0
  }
  convolution_param {
    num_output: 64
    kernel_size: 1
    weight_filler {
      type: "xavier"
      std: 0.1
    }
    bias_filler {
      type: "constant"
      value: 0.2
    }
  }
}
layer {
  name: "inception_4a/relu_pool_proj"
  type: "ReLU"
  bottom: "inception_4a/pool_proj"
  top: "inception_4a/pool_proj"
}
layer {
  name: "inception_4a/output"
  type: "Concat"
  bottom: "inception_4a/1x1"
  bottom: "inception_4a/3x3"
  bottom: "inception_4a/5x5"
  bottom: "inception_4a/pool_proj"
  top: "inception_4a/output"
}
layer {
  name: "loss1/ave_pool"
  type: "Pooling"
  bottom: "inception_4a/output"
  top: "loss1/ave_pool"
  pooling_param {
    pool: AVE
    kernel_size: 5
    stride: 3
  }
}
layer {
  name: "loss1/conv"
  type: "Convolution"
  bottom: "loss1/ave_pool"
  top: "loss1/conv"
  param {
    lr_mult: 1
    decay_mult: 1
  }
  param {
    lr_mult: 2
    decay_mult: 0
  }
  convolution_param {
    num_output: 128
    kernel_size: 1
    weight_filler {
      type: "xavier"
      std: 0.08
    }
    bias_filler {
      type: "constant"
      value: 0.2
    }
  }
}
layer {
  name: "loss1/relu_conv"
  type: "ReLU"
  bottom: "loss1/conv"
  top: "loss1/conv"
}
layer {
  name: "loss1/fc"
  type: "InnerProduct"
  bottom: "loss1/conv"
  top: "loss1/fc"
  param {
    lr_mult: 1
    decay_mult: 1
  }
  param {
    lr_mult: 2
    decay_mult: 0
  }
  inner_product_param {
    num_output: 1024
    weight_filler {
      type: "xavier"
      std: 0.02
    }
    bias_filler {
      type: "constant"
      value: 0.2
    }
  }
}
layer {
  name: "loss1/relu_fc"
  type: "ReLU"
  bottom: "loss1/fc"
  top: "loss1/fc"
}
layer {
  name: "loss1/drop_fc"
  type: "Dropout"
  bottom: "loss1/fc"
  top: "loss1/fc"
  dropout_param {
    dropout_ratio: 0.7
  }
}
layer {
  name: "loss1/classifier_plantvillage"
  type: "InnerProduct"
  bottom: "loss1/fc"
  top: "loss1/classifier_plantvillage"
  param {
    lr_mult: 1
    decay_mult: 1
  }
  param {
    lr_mult: 2
    decay_mult: 0
  }
  inner_product_param {
    num_output: 38
    weight_filler {
      type: "xavier"
      std: 0.0009765625
    }
    bias_filler {
      type: "constant"
      value: 0
    }
  }
}
layer {
  name: "inception_4b/1x1"
  type: "Convolution"
  bottom: "inception_4a/output"
  top: "inception_4b/1x1"
  param {
    lr_mult: 1
    decay_mult: 1
  }
  param {
    lr_mult: 2
    decay_mult: 0
  }
  convolution_param {
    num_output: 160
    kernel_size: 1
    weight_filler {
      type: "xavier"
      std: 0.03
    }
    bias_filler {
      type: "constant"
      value: 0.2
    }
  }
}
layer {
  name: "inception_4b/relu_1x1"
  type: "ReLU"
  bottom: "inception_4b/1x1"
  top: "inception_4b/1x1"
}
layer {
  name: "inception_4b/3x3_reduce"
  type: "Convolution"
  bottom: "inception_4a/output"
  top: "inception_4b/3x3_reduce"
  param {
    lr_mult: 1
    decay_mult: 1
  }
  param {
    lr_mult: 2
    decay_mult: 0
  }
  convolution_param {
    num_output: 112
    kernel_size: 1
    weight_filler {
      type: "xavier"
      std: 0.09
    }
    bias_filler {
      type: "constant"
      value: 0.2
    }
  }
}
layer {
  name: "inception_4b/relu_3x3_reduce"
  type: "ReLU"
  bottom: "inception_4b/3x3_reduce"
  top: "inception_4b/3x3_reduce"
}
layer {
  name: "inception_4b/3x3"
  type: "Convolution"
  bottom: "inception_4b/3x3_reduce"
  top: "inception_4b/3x3"
  param {
    lr_mult: 1
    decay_mult: 1
  }
  param {
    lr_mult: 2
    decay_mult: 0
  }
  convolution_param {
    num_output: 224
    pad: 1
    kernel_size: 3
    weight_filler {
      type: "xavier"
      std: 0.03
    }
    bias_filler {
      type: "constant"
      value: 0.2
    }
  }
}
layer {
  name: "inception_4b/relu_3x3"
  type: "ReLU"
  bottom: "inception_4b/3x3"
  top: "inception_4b/3x3"
}
layer {
  name: "inception_4b/5x5_reduce"
  type: "Convolution"
  bottom: "inception_4a/output"
  top: "inception_4b/5x5_reduce"
  param {
    lr_mult: 1
    decay_mult: 1
  }
  param {
    lr_mult: 2
    decay_mult: 0
  }
  convolution_param {
    num_output: 24
    kernel_size: 1
    weight_filler {
      type: "xavier"
      std: 0.2
    }
    bias_filler {
      type: "constant"
      value: 0.2
    }
  }
}
layer {
  name: "inception_4b/relu_5x5_reduce"
  type: "ReLU"
  bottom: "inception_4b/5x5_reduce"
  top: "inception_4b/5x5_reduce"
}
layer {
  name: "inception_4b/5x5"
  type: "Convolution"
  bottom: "inception_4b/5x5_reduce"
  top: "inception_4b/5x5"
  param {
    lr_mult: 1
    decay_mult: 1
  }
  param {
    lr_mult: 2
    decay_mult: 0
  }
  convolution_param {
    num_output: 64
    pad: 2
    kernel_size: 5
    weight_filler {
      type: "xavier"
      std: 0.03
    }
    bias_filler {
      type: "constant"
      value: 0.2
    }
  }
}
layer {
  name: "inception_4b/relu_5x5"
  type: "ReLU"
  bottom: "inception_4b/5x5"
  top: "inception_4b/5x5"
}
layer {
  name: "inception_4b/pool"
  type: "Pooling"
  bottom: "inception_4a/output"
  top: "inception_4b/pool"
  pooling_param {
    pool: MAX
    kernel_size: 3
    stride: 1
    pad: 1
  }
}
layer {
  name: "inception_4b/pool_proj"
  type: "Convolution"
  bottom: "inception_4b/pool"
  top: "inception_4b/pool_proj"
  param {
    lr_mult: 1
    decay_mult: 1
  }
  param {
    lr_mult: 2
    decay_mult: 0
  }
  convolution_param {
    num_output: 64
    kernel_size: 1
    weight_filler {
      type: "xavier"
      std: 0.1
    }
    bias_filler {
      type: "constant"
      value: 0.2
    }
  }
}
layer {
  name: "inception_4b/relu_pool_proj"
  type: "ReLU"
  bottom: "inception_4b/pool_proj"
  top: "inception_4b/pool_proj"
}
layer {
  name: "inception_4b/output"
  type: "Concat"
  bottom: "inception_4b/1x1"
  bottom: "inception_4b/3x3"
  bottom: "inception_4b/5x5"
  bottom: "inception_4b/pool_proj"
  top: "inception_4b/output"
}
layer {
  name: "inception_4c/1x1"
  type: "Convolution"
  bottom: "inception_4b/output"
  top: "inception_4c/1x1"
  param {
    lr_mult: 1
    decay_mult: 1
  }
  param {
    lr_mult: 2
    decay_mult: 0
  }
  convolution_param {
    num_output: 128
    kernel_size: 1
    weight_filler {
      type: "xavier"
      std: 0.03
    }
    bias_filler {
      type: "constant"
      value: 0.2
    }
  }
}
layer {
  name: "inception_4c/relu_1x1"
  type: "ReLU"
  bottom: "inception_4c/1x1"
  top: "inception_4c/1x1"
}
layer {
  name: "inception_4c/3x3_reduce"
  type: "Convolution"
  bottom: "inception_4b/output"
  top: "inception_4c/3x3_reduce"
  param {
    lr_mult: 1
    decay_mult: 1
  }
  param {
    lr_mult: 2
    decay_mult: 0
  }
  convolution_param {
    num_output: 128
    kernel_size: 1
    weight_filler {
      type: "xavier"
      std: 0.09
    }
    bias_filler {
      type: "constant"
      value: 0.2
    }
  }
}
layer {
  name: "inception_4c/relu_3x3_reduce"
  type: "ReLU"
  bottom: "inception_4c/3x3_reduce"
  top: "inception_4c/3x3_reduce"
}
layer {
  name: "inception_4c/3x3"
  type: "Convolution"
  bottom: "inception_4c/3x3_reduce"
  top: "inception_4c/3x3"
  param {
    lr_mult: 1
    decay_mult: 1
  }
  param {
    lr_mult: 2
    decay_mult: 0
  }
  convolution_param {
    num_output: 256
    pad: 1
    kernel_size: 3
    weight_filler {
      type: "xavier"
      std: 0.03
    }
    bias_filler {
      type: "constant"
      value: 0.2
    }
  }
}
layer {
  name: "inception_4c/relu_3x3"
  type: "ReLU"
  bottom: "inception_4c/3x3"
  top: "inception_4c/3x3"
}
layer {
  name: "inception_4c/5x5_reduce"
  type: "Convolution"
  bottom: "inception_4b/output"
  top: "inception_4c/5x5_reduce"
  param {
    lr_mult: 1
    decay_mult: 1
  }
  param {
    lr_mult: 2
    decay_mult: 0
  }
  convolution_param {
    num_output: 24
    kernel_size: 1
    weight_filler {
      type: "xavier"
      std: 0.2
    }
    bias_filler {
      type: "constant"
      value: 0.2
    }
  }
}
layer {
  name: "inception_4c/relu_5x5_reduce"
  type: "ReLU"
  bottom: "inception_4c/5x5_reduce"
  top: "inception_4c/5x5_reduce"
}
layer {
  name: "inception_4c/5x5"
  type: "Convolution"
  bottom: "inception_4c/5x5_reduce"
  top: "inception_4c/5x5"
  param {
    lr_mult: 1
    decay_mult: 1
  }
  param {
    lr_mult: 2
    decay_mult: 0
  }
  convolution_param {
    num_output: 64
    pad: 2
    kernel_size: 5
    weight_filler {
      type: "xavier"
      std: 0.03
    }
    bias_filler {
      type: "constant"
      value: 0.2
    }
  }
}
layer {
  name: "inception_4c/relu_5x5"
  type: "ReLU"
  bottom: "inception_4c/5x5"
  top: "inception_4c/5x5"
}
layer {
  name: "inception_4c/pool"
  type: "Pooling"
  bottom: "inception_4b/output"
  top: "inception_4c/pool"
  pooling_param {
    pool: MAX
    kernel_size: 3
    stride: 1
    pad: 1
  }
}
layer {
  name: "inception_4c/pool_proj"
  type: "Convolution"
  bottom: "inception_4c/pool"
  top: "inception_4c/pool_proj"
  param {
    lr_mult: 1
    decay_mult: 1
  }
  param {
    lr_mult: 2
    decay_mult: 0
  }
  convolution_param {
    num_output: 64
    kernel_size: 1
    weight_filler {
      type: "xavier"
      std: 0.1
    }
    bias_filler {
      type: "constant"
      value: 0.2
    }
  }
}
layer {
  name: "inception_4c/relu_pool_proj"
  type: "ReLU"
  bottom: "inception_4c/pool_proj"
  top: "inception_4c/pool_proj"
}
layer {
  name: "inception_4c/output"
  type: "Concat"
  bottom: "inception_4c/1x1"
  bottom: "inception_4c/3x3"
  bottom: "inception_4c/5x5"
  bottom: "inception_4c/pool_proj"
  top: "inception_4c/output"
}
layer {
  name: "inception_4d/1x1"
  type: "Convolution"
  bottom: "inception_4c/output"
  top: "inception_4d/1x1"
  param {
    lr_mult: 1
    decay_mult: 1
  }
  param {
    lr_mult: 2
    decay_mult: 0
  }
  convolution_param {
    num_output: 112
    kernel_size: 1
    weight_filler {
      type: "xavier"
      std: 0.03
    }
    bias_filler {
      type: "constant"
      value: 0.2
    }
  }
}
layer {
  name: "inception_4d/relu_1x1"
  type: "ReLU"
  bottom: "inception_4d/1x1"
  top: "inception_4d/1x1"
}
layer {
  name: "inception_4d/3x3_reduce"
  type: "Convolution"
  bottom: "inception_4c/output"
  top: "inception_4d/3x3_reduce"
  param {
    lr_mult: 1
    decay_mult: 1
  }
  param {
    lr_mult: 2
    decay_mult: 0
  }
  convolution_param {
    num_output: 144
    kernel_size: 1
    weight_filler {
      type: "xavier"
      std: 0.09
    }
    bias_filler {
      type: "constant"
      value: 0.2
    }
  }
}
layer {
  name: "inception_4d/relu_3x3_reduce"
  type: "ReLU"
  bottom: "inception_4d/3x3_reduce"
  top: "inception_4d/3x3_reduce"
}
layer {
  name: "inception_4d/3x3"
  type: "Convolution"
  bottom: "inception_4d/3x3_reduce"
  top: "inception_4d/3x3"
  param {
    lr_mult: 1
    decay_mult: 1
  }
  param {
    lr_mult: 2
    decay_mult: 0
  }
  convolution_param {
    num_output: 288
    pad: 1
    kernel_size: 3
    weight_filler {
      type: "xavier"
      std: 0.03
    }
    bias_filler {
      type: "constant"
      value: 0.2
    }
  }
}
layer {
  name: "inception_4d/relu_3x3"
  type: "ReLU"
  bottom: "inception_4d/3x3"
  top: "inception_4d/3x3"
}
layer {
  name: "inception_4d/5x5_reduce"
  type: "Convolution"
  bottom: "inception_4c/output"
  top: "inception_4d/5x5_reduce"
  param {
    lr_mult: 1
    decay_mult: 1
  }
  param {
    lr_mult: 2
    decay_mult: 0
  }
  convolution_param {
    num_output: 32
    kernel_size: 1
    weight_filler {
      type: "xavier"
      std: 0.2
    }
    bias_filler {
      type: "constant"
      value: 0.2
    }
  }
}
layer {
  name: "inception_4d/relu_5x5_reduce"
  type: "ReLU"
  bottom: "inception_4d/5x5_reduce"
  top: "inception_4d/5x5_reduce"
}
layer {
  name: "inception_4d/5x5"
  type: "Convolution"
  bottom: "inception_4d/5x5_reduce"
  top: "inception_4d/5x5"
  param {
    lr_mult: 1
    decay_mult: 1
  }
  param {
    lr_mult: 2
    decay_mult: 0
  }
  convolution_param {
    num_output: 64
    pad: 2
    kernel_size: 5
    weight_filler {
      type: "xavier"
      std: 0.03
    }
    bias_filler {
      type: "constant"
      value: 0.2
    }
  }
}
layer {
  name: "inception_4d/relu_5x5"
  type: "ReLU"
  bottom: "inception_4d/5x5"
  top: "inception_4d/5x5"
}
layer {
  name: "inception_4d/pool"
  type: "Pooling"
  bottom: "inception_4c/output"
  top: "inception_4d/pool"
  pooling_param {
    pool: MAX
    kernel_size: 3
    stride: 1
    pad: 1
  }
}
layer {
  name: "inception_4d/pool_proj"
  type: "Convolution"
  bottom: "inception_4d/pool"
  top: "inception_4d/pool_proj"
  param {
    lr_mult: 1
    decay_mult: 1
  }
  param {
    lr_mult: 2
    decay_mult: 0
  }
  convolution_param {
    num_output: 64
    kernel_size: 1
    weight_filler {
      type: "xavier"
      std: 0.1
    }
    bias_filler {
      type: "constant"
      value: 0.2
    }
  }
}
layer {
  name: "inception_4d/relu_pool_proj"
  type: "ReLU"
  bottom: "inception_4d/pool_proj"
  top: "inception_4d/pool_proj"
}
layer {
  name: "inception_4d/output"
  type: "Concat"
  bottom: "inception_4d/1x1"
  bottom: "inception_4d/3x3"
  bottom: "inception_4d/5x5"
  bottom: "inception_4d/pool_proj"
  top: "inception_4d/output"
}
layer {
  name: "loss2/ave_pool"
  type: "Pooling"
  bottom: "inception_4d/output"
  top: "loss2/ave_pool"
  pooling_param {
    pool: AVE
    kernel_size: 5
    stride: 3
  }
}
layer {
  name: "loss2/conv"
  type: "Convolution"
  bottom: "loss2/ave_pool"
  top: "loss2/conv"
  param {
    lr_mult: 1
    decay_mult: 1
  }
  param {
    lr_mult: 2
    decay_mult: 0
  }
  convolution_param {
    num_output: 128
    kernel_size: 1
    weight_filler {
      type: "xavier"
      std: 0.08
    }
    bias_filler {
      type: "constant"
      value: 0.2
    }
  }
}
layer {
  name: "loss2/relu_conv"
  type: "ReLU"
  bottom: "loss2/conv"
  top: "loss2/conv"
}
layer {
  name: "loss2/fc"
  type: "InnerProduct"
  bottom: "loss2/conv"
  top: "loss2/fc"
  param {
    lr_mult: 1
    decay_mult: 1
  }
  param {
    lr_mult: 2
    decay_mult: 0
  }
  inner_product_param {
    num_output: 1024
    weight_filler {
      type: "xavier"
      std: 0.02
    }
    bias_filler {
      type: "constant"
      value: 0.2
    }
  }
}
layer {
  name: "loss2/relu_fc"
  type: "ReLU"
  bottom: "loss2/fc"
  top: "loss2/fc"
}
layer {
  name: "loss2/drop_fc"
  type: "Dropout"
  bottom: "loss2/fc"
  top: "loss2/fc"
  dropout_param {
    dropout_ratio: 0.7
  }
}
layer {
  name: "loss2/classifier_plantvillage"
  type: "InnerProduct"
  bottom: "loss2/fc"
  top: "loss2/classifier_plantvillage"
  param {
    lr_mult: 1
    decay_mult: 1
  }
  param {
    lr_mult: 2
    decay_mult: 0
  }
  inner_product_param {
    num_output: 38
    weight_filler {
      type: "xavier"
      std: 0.0009765625
    }
    bias_filler {
      type: "constant"
      value: 0
    }
  }
}
layer {
  name: "inception_4e/1x1"
  type: "Convolution"
  bottom: "inception_4d/output"
  top: "inception_4e/1x1"
  param {
    lr_mult: 1
    decay_mult: 1
  }
  param {
    lr_mult: 2
    decay_mult: 0
  }
  convolution_param {
    num_output: 256
    kernel_size: 1
    weight_filler {
      type: "xavier"
      std: 0.03
    }
    bias_filler {
      type: "constant"
      value: 0.2
    }
  }
}
layer {
  name: "inception_4e/relu_1x1"
  type: "ReLU"
  bottom: "inception_4e/1x1"
  top: "inception_4e/1x1"
}
layer {
  name: "inception_4e/3x3_reduce"
  type: "Convolution"
  bottom: "inception_4d/output"
  top: "inception_4e/3x3_reduce"
  param {
    lr_mult: 1
    decay_mult: 1
  }
  param {
    lr_mult: 2
    decay_mult: 0
  }
  convolution_param {
    num_output: 160
    kernel_size: 1
    weight_filler {
      type: "xavier"
      std: 0.09
    }
    bias_filler {
      type: "constant"
      value: 0.2
    }
  }
}
layer {
  name: "inception_4e/relu_3x3_reduce"
  type: "ReLU"
  bottom: "inception_4e/3x3_reduce"
  top: "inception_4e/3x3_reduce"
}
layer {
  name: "inception_4e/3x3"
  type: "Convolution"
  bottom: "inception_4e/3x3_reduce"
  top: "inception_4e/3x3"
  param {
    lr_mult: 1
    decay_mult: 1
  }
  param {
    lr_mult: 2
    decay_mult: 0
  }
  convolution_param {
    num_output: 320
    pad: 1
    kernel_size: 3
    weight_filler {
      type: "xavier"
      std: 0.03
    }
    bias_filler {
      type: "constant"
      value: 0.2
    }
  }
}
layer {
  name: "inception_4e/relu_3x3"
  type: "ReLU"
  bottom: "inception_4e/3x3"
  top: "inception_4e/3x3"
}
layer {
  name: "inception_4e/5x5_reduce"
  type: "Convolution"
  bottom: "inception_4d/output"
  top: "inception_4e/5x5_reduce"
  param {
    lr_mult: 1
    decay_mult: 1
  }
  param {
    lr_mult: 2
    decay_mult: 0
  }
  convolution_param {
    num_output: 32
    kernel_size: 1
    weight_filler {
      type: "xavier"
      std: 0.2
    }
    bias_filler {
      type: "constant"
      value: 0.2
    }
  }
}
layer {
  name: "inception_4e/relu_5x5_reduce"
  type: "ReLU"
  bottom: "inception_4e/5x5_reduce"
  top: "inception_4e/5x5_reduce"
}
layer {
  name: "inception_4e/5x5"
  type: "Convolution"
  bottom: "inception_4e/5x5_reduce"
  top: "inception_4e/
I0403 15:04:19.266919  2616 layer_factory.hpp:77] Creating layer data
I0403 15:04:19.267513  2616 net.cpp:91] Creating Layer data
I0403 15:04:19.267544  2616 net.cpp:399] data -> data
I0403 15:04:19.267598  2616 net.cpp:399] data -> label
I0403 15:04:19.267635  2616 data_transformer.cpp:25] Loading mean file from: /home/mohanty/data/final_dataset/lmdb/segmented-60-40/mean.binaryproto
I0403 15:04:19.270877  2619 db_lmdb.cpp:38] Opened lmdb /home/mohanty/data/final_dataset/lmdb/segmented-60-40/test_db
I0403 15:04:19.281023  2616 data_layer.cpp:41] output data size: 24,3,224,224
I0403 15:04:19.308734  2616 net.cpp:141] Setting up data
I0403 15:04:19.308820  2616 net.cpp:148] Top shape: 24 3 224 224 (3612672)
I0403 15:04:19.308842  2616 net.cpp:148] Top shape: 24 (24)
I0403 15:04:19.308857  2616 net.cpp:156] Memory required for data: 14450784
I0403 15:04:19.308886  2616 layer_factory.hpp:77] Creating layer label_data_1_split
I0403 15:04:19.308912  2616 net.cpp:91] Creating Layer label_data_1_split
I0403 15:04:19.308930  2616 net.cpp:425] label_data_1_split <- label
I0403 15:04:19.308962  2616 net.cpp:399] label_data_1_split -> label_data_1_split_0
I0403 15:04:19.308990  2616 net.cpp:399] label_data_1_split -> label_data_1_split_1
I0403 15:04:19.309013  2616 net.cpp:399] label_data_1_split -> label_data_1_split_2
I0403 15:04:19.309036  2616 net.cpp:399] label_data_1_split -> label_data_1_split_3
I0403 15:04:19.309056  2616 net.cpp:399] label_data_1_split -> label_data_1_split_4
I0403 15:04:19.309077  2616 net.cpp:399] label_data_1_split -> label_data_1_split_5
I0403 15:04:19.309097  2616 net.cpp:399] label_data_1_split -> label_data_1_split_6
I0403 15:04:19.309118  2616 net.cpp:399] label_data_1_split -> label_data_1_split_7
I0403 15:04:19.309139  2616 net.cpp:399] label_data_1_split -> label_data_1_split_8
I0403 15:04:19.309160  2616 net.cpp:399] label_data_1_split -> label_data_1_split_9
I0403 15:04:19.309283  2616 net.cpp:141] Setting up label_data_1_split
I0403 15:04:19.309308  2616 net.cpp:148] Top shape: 24 (24)
I0403 15:04:19.309324  2616 net.cpp:148] Top shape: 24 (24)
I0403 15:04:19.309340  2616 net.cpp:148] Top shape: 24 (24)
I0403 15:04:19.309357  2616 net.cpp:148] Top shape: 24 (24)
I0403 15:04:19.309373  2616 net.cpp:148] Top shape: 24 (24)
I0403 15:04:19.309391  2616 net.cpp:148] Top shape: 24 (24)
I0403 15:04:19.309406  2616 net.cpp:148] Top shape: 24 (24)
I0403 15:04:19.309422  2616 net.cpp:148] Top shape: 24 (24)
I0403 15:04:19.309438  2616 net.cpp:148] Top shape: 24 (24)
I0403 15:04:19.309455  2616 net.cpp:148] Top shape: 24 (24)
I0403 15:04:19.309499  2616 net.cpp:156] Memory required for data: 14451744
I0403 15:04:19.309515  2616 layer_factory.hpp:77] Creating layer conv1/7x7_s2
I0403 15:04:19.309546  2616 net.cpp:91] Creating Layer conv1/7x7_s2
I0403 15:04:19.309566  2616 net.cpp:425] conv1/7x7_s2 <- data
I0403 15:04:19.309586  2616 net.cpp:399] conv1/7x7_s2 -> conv1/7x7_s2
I0403 15:04:19.452257  2616 net.cpp:141] Setting up conv1/7x7_s2
I0403 15:04:19.452319  2616 net.cpp:148] Top shape: 24 64 112 112 (19267584)
I0403 15:04:19.452337  2616 net.cpp:156] Memory required for data: 91522080
I0403 15:04:19.452368  2616 layer_factory.hpp:77] Creating layer conv1/relu_7x7
I0403 15:04:19.452394  2616 net.cpp:91] Creating Layer conv1/relu_7x7
I0403 15:04:19.452414  2616 net.cpp:425] conv1/relu_7x7 <- conv1/7x7_s2
I0403 15:04:19.452435  2616 net.cpp:386] conv1/relu_7x7 -> conv1/7x7_s2 (in-place)
I0403 15:04:19.452708  2616 net.cpp:141] Setting up conv1/relu_7x7
I0403 15:04:19.452734  2616 net.cpp:148] Top shape: 24 64 112 112 (19267584)
I0403 15:04:19.452750  2616 net.cpp:156] Memory required for data: 168592416
I0403 15:04:19.452765  2616 layer_factory.hpp:77] Creating layer pool1/3x3_s2
I0403 15:04:19.452793  2616 net.cpp:91] Creating Layer pool1/3x3_s2
I0403 15:04:19.452811  2616 net.cpp:425] pool1/3x3_s2 <- conv1/7x7_s2
I0403 15:04:19.452831  2616 net.cpp:399] pool1/3x3_s2 -> pool1/3x3_s2
I0403 15:04:19.452908  2616 net.cpp:141] Setting up pool1/3x3_s2
I0403 15:04:19.452931  2616 net.cpp:148] Top shape: 24 64 56 56 (4816896)
I0403 15:04:19.452946  2616 net.cpp:156] Memory required for data: 187860000
I0403 15:04:19.452961  2616 layer_factory.hpp:77] Creating layer pool1/norm1
I0403 15:04:19.452987  2616 net.cpp:91] Creating Layer pool1/norm1
I0403 15:04:19.453006  2616 net.cpp:425] pool1/norm1 <- pool1/3x3_s2
I0403 15:04:19.453023  2616 net.cpp:399] pool1/norm1 -> pool1/norm1
I0403 15:04:19.453336  2616 net.cpp:141] Setting up pool1/norm1
I0403 15:04:19.453363  2616 net.cpp:148] Top shape: 24 64 56 56 (4816896)
I0403 15:04:19.453394  2616 net.cpp:156] Memory required for data: 207127584
I0403 15:04:19.453410  2616 layer_factory.hpp:77] Creating layer conv2/3x3_reduce
I0403 15:04:19.453439  2616 net.cpp:91] Creating Layer conv2/3x3_reduce
I0403 15:04:19.453457  2616 net.cpp:425] conv2/3x3_reduce <- pool1/norm1
I0403 15:04:19.453480  2616 net.cpp:399] conv2/3x3_reduce -> conv2/3x3_reduce
I0403 15:04:19.454886  2616 net.cpp:141] Setting up conv2/3x3_reduce
I0403 15:04:19.454917  2616 net.cpp:148] Top shape: 24 64 56 56 (4816896)
I0403 15:04:19.454934  2616 net.cpp:156] Memory required for data: 226395168
I0403 15:04:19.454957  2616 layer_factory.hpp:77] Creating layer conv2/relu_3x3_reduce
I0403 15:04:19.454974  2616 net.cpp:91] Creating Layer conv2/relu_3x3_reduce
I0403 15:04:19.454990  2616 net.cpp:425] conv2/relu_3x3_reduce <- conv2/3x3_reduce
I0403 15:04:19.455010  2616 net.cpp:386] conv2/relu_3x3_reduce -> conv2/3x3_reduce (in-place)
I0403 15:04:19.455282  2616 net.cpp:141] Setting up conv2/relu_3x3_reduce
I0403 15:04:19.455312  2616 net.cpp:148] Top shape: 24 64 56 56 (4816896)
I0403 15:04:19.455328  2616 net.cpp:156] Memory required for data: 245662752
I0403 15:04:19.455343  2616 layer_factory.hpp:77] Creating layer conv2/3x3
I0403 15:04:19.455366  2616 net.cpp:91] Creating Layer conv2/3x3
I0403 15:04:19.455385  2616 net.cpp:425] conv2/3x3 <- conv2/3x3_reduce
I0403 15:04:19.455409  2616 net.cpp:399] conv2/3x3 -> conv2/3x3
I0403 15:04:19.457696  2616 net.cpp:141] Setting up conv2/3x3
I0403 15:04:19.457728  2616 net.cpp:148] Top shape: 24 192 56 56 (14450688)
I0403 15:04:19.457744  2616 net.cpp:156] Memory required for data: 303465504
I0403 15:04:19.457767  2616 layer_factory.hpp:77] Creating layer conv2/relu_3x3
I0403 15:04:19.457785  2616 net.cpp:91] Creating Layer conv2/relu_3x3
I0403 15:04:19.457803  2616 net.cpp:425] conv2/relu_3x3 <- conv2/3x3
I0403 15:04:19.457821  2616 net.cpp:386] conv2/relu_3x3 -> conv2/3x3 (in-place)
I0403 15:04:19.457996  2616 net.cpp:141] Setting up conv2/relu_3x3
I0403 15:04:19.458022  2616 net.cpp:148] Top shape: 24 192 56 56 (14450688)
I0403 15:04:19.458066  2616 net.cpp:156] Memory required for data: 361268256
I0403 15:04:19.458082  2616 layer_factory.hpp:77] Creating layer conv2/norm2
I0403 15:04:19.458104  2616 net.cpp:91] Creating Layer conv2/norm2
I0403 15:04:19.458122  2616 net.cpp:425] conv2/norm2 <- conv2/3x3
I0403 15:04:19.458139  2616 net.cpp:399] conv2/norm2 -> conv2/norm2
I0403 15:04:19.458446  2616 net.cpp:141] Setting up conv2/norm2
I0403 15:04:19.458477  2616 net.cpp:148] Top shape: 24 192 56 56 (14450688)
I0403 15:04:19.458492  2616 net.cpp:156] Memory required for data: 419071008
I0403 15:04:19.458508  2616 layer_factory.hpp:77] Creating layer pool2/3x3_s2
I0403 15:04:19.458524  2616 net.cpp:91] Creating Layer pool2/3x3_s2
I0403 15:04:19.458540  2616 net.cpp:425] pool2/3x3_s2 <- conv2/norm2
I0403 15:04:19.458559  2616 net.cpp:399] pool2/3x3_s2 -> pool2/3x3_s2
I0403 15:04:19.458613  2616 net.cpp:141] Setting up pool2/3x3_s2
I0403 15:04:19.458636  2616 net.cpp:148] Top shape: 24 192 28 28 (3612672)
I0403 15:04:19.458652  2616 net.cpp:156] Memory required for data: 433521696
I0403 15:04:19.458667  2616 layer_factory.hpp:77] Creating layer pool2/3x3_s2_pool2/3x3_s2_0_split
I0403 15:04:19.458684  2616 net.cpp:91] Creating Layer pool2/3x3_s2_pool2/3x3_s2_0_split
I0403 15:04:19.458699  2616 net.cpp:425] pool2/3x3_s2_pool2/3x3_s2_0_split <- pool2/3x3_s2
I0403 15:04:19.458719  2616 net.cpp:399] pool2/3x3_s2_pool2/3x3_s2_0_split -> pool2/3x3_s2_pool2/3x3_s2_0_split_0
I0403 15:04:19.458740  2616 net.cpp:399] pool2/3x3_s2_pool2/3x3_s2_0_split -> pool2/3x3_s2_pool2/3x3_s2_0_split_1
I0403 15:04:19.458761  2616 net.cpp:399] pool2/3x3_s2_pool2/3x3_s2_0_split -> pool2/3x3_s2_pool2/3x3_s2_0_split_2
I0403 15:04:19.458783  2616 net.cpp:399] pool2/3x3_s2_pool2/3x3_s2_0_split -> pool2/3x3_s2_pool2/3x3_s2_0_split_3
I0403 15:04:19.458855  2616 net.cpp:141] Setting up pool2/3x3_s2_pool2/3x3_s2_0_split
I0403 15:04:19.458878  2616 net.cpp:148] Top shape: 24 192 28 28 (3612672)
I0403 15:04:19.458895  2616 net.cpp:148] Top shape: 24 192 28 28 (3612672)
I0403 15:04:19.458911  2616 net.cpp:148] Top shape: 24 192 28 28 (3612672)
I0403 15:04:19.458926  2616 net.cpp:148] Top shape: 24 192 28 28 (3612672)
I0403 15:04:19.458940  2616 net.cpp:156] Memory required for data: 491324448
I0403 15:04:19.458955  2616 layer_factory.hpp:77] Creating layer inception_3a/1x1
I0403 15:04:19.458981  2616 net.cpp:91] Creating Layer inception_3a/1x1
I0403 15:04:19.458998  2616 net.cpp:425] inception_3a/1x1 <- pool2/3x3_s2_pool2/3x3_s2_0_split_0
I0403 15:04:19.459019  2616 net.cpp:399] inception_3a/1x1 -> inception_3a/1x1
I0403 15:04:19.460613  2616 net.cpp:141] Setting up inception_3a/1x1
I0403 15:04:19.460646  2616 net.cpp:148] Top shape: 24 64 28 28 (1204224)
I0403 15:04:19.460664  2616 net.cpp:156] Memory required for data: 496141344
I0403 15:04:19.460683  2616 layer_factory.hpp:77] Creating layer inception_3a/relu_1x1
I0403 15:04:19.460703  2616 net.cpp:91] Creating Layer inception_3a/relu_1x1
I0403 15:04:19.460719  2616 net.cpp:425] inception_3a/relu_1x1 <- inception_3a/1x1
I0403 15:04:19.460741  2616 net.cpp:386] inception_3a/relu_1x1 -> inception_3a/1x1 (in-place)
I0403 15:04:19.460918  2616 net.cpp:141] Setting up inception_3a/relu_1x1
I0403 15:04:19.460944  2616 net.cpp:148] Top shape: 24 64 28 28 (1204224)
I0403 15:04:19.460960  2616 net.cpp:156] Memory required for data: 500958240
I0403 15:04:19.460976  2616 layer_factory.hpp:77] Creating layer inception_3a/3x3_reduce
I0403 15:04:19.460999  2616 net.cpp:91] Creating Layer inception_3a/3x3_reduce
I0403 15:04:19.461019  2616 net.cpp:425] inception_3a/3x3_reduce <- pool2/3x3_s2_pool2/3x3_s2_0_split_1
I0403 15:04:19.461040  2616 net.cpp:399] inception_3a/3x3_reduce -> inception_3a/3x3_reduce
I0403 15:04:19.462800  2616 net.cpp:141] Setting up inception_3a/3x3_reduce
I0403 15:04:19.462833  2616 net.cpp:148] Top shape: 24 96 28 28 (1806336)
I0403 15:04:19.462851  2616 net.cpp:156] Memory required for data: 508183584
I0403 15:04:19.462874  2616 layer_factory.hpp:77] Creating layer inception_3a/relu_3x3_reduce
I0403 15:04:19.462910  2616 net.cpp:91] Creating Layer inception_3a/relu_3x3_reduce
I0403 15:04:19.462929  2616 net.cpp:425] inception_3a/relu_3x3_reduce <- inception_3a/3x3_reduce
I0403 15:04:19.462950  2616 net.cpp:386] inception_3a/relu_3x3_reduce -> inception_3a/3x3_reduce (in-place)
I0403 15:04:19.463136  2616 net.cpp:141] Setting up inception_3a/relu_3x3_reduce
I0403 15:04:19.463166  2616 net.cpp:148] Top shape: 24 96 28 28 (1806336)
I0403 15:04:19.463182  2616 net.cpp:156] Memory required for data: 515408928
I0403 15:04:19.463198  2616 layer_factory.hpp:77] Creating layer inception_3a/3x3
I0403 15:04:19.463233  2616 net.cpp:91] Creating Layer inception_3a/3x3
I0403 15:04:19.463253  2616 net.cpp:425] inception_3a/3x3 <- inception_3a/3x3_reduce
I0403 15:04:19.463274  2616 net.cpp:399] inception_3a/3x3 -> inception_3a/3x3
I0403 15:04:19.464962  2616 net.cpp:141] Setting up inception_3a/3x3
I0403 15:04:19.464990  2616 net.cpp:148] Top shape: 24 128 28 28 (2408448)
I0403 15:04:19.465006  2616 net.cpp:156] Memory required for data: 525042720
I0403 15:04:19.465026  2616 layer_factory.hpp:77] Creating layer inception_3a/relu_3x3
I0403 15:04:19.465044  2616 net.cpp:91] Creating Layer inception_3a/relu_3x3
I0403 15:04:19.465062  2616 net.cpp:425] inception_3a/relu_3x3 <- inception_3a/3x3
I0403 15:04:19.465085  2616 net.cpp:386] inception_3a/relu_3x3 -> inception_3a/3x3 (in-place)
I0403 15:04:19.465373  2616 net.cpp:141] Setting up inception_3a/relu_3x3
I0403 15:04:19.465401  2616 net.cpp:148] Top shape: 24 128 28 28 (2408448)
I0403 15:04:19.465417  2616 net.cpp:156] Memory required for data: 534676512
I0403 15:04:19.465433  2616 layer_factory.hpp:77] Creating layer inception_3a/5x5_reduce
I0403 15:04:19.465456  2616 net.cpp:91] Creating Layer inception_3a/5x5_reduce
I0403 15:04:19.465474  2616 net.cpp:425] inception_3a/5x5_reduce <- pool2/3x3_s2_pool2/3x3_s2_0_split_2
I0403 15:04:19.465497  2616 net.cpp:399] inception_3a/5x5_reduce -> inception_3a/5x5_reduce
I0403 15:04:19.466526  2616 net.cpp:141] Setting up inception_3a/5x5_reduce
I0403 15:04:19.466567  2616 net.cpp:148] Top shape: 24 16 28 28 (301056)
I0403 15:04:19.466583  2616 net.cpp:156] Memory required for data: 535880736
I0403 15:04:19.466601  2616 layer_factory.hpp:77] Creating layer inception_3a/relu_5x5_reduce
I0403 15:04:19.466624  2616 net.cpp:91] Creating Layer inception_3a/relu_5x5_reduce
I0403 15:04:19.466641  2616 net.cpp:425] inception_3a/relu_5x5_reduce <- inception_3a/5x5_reduce
I0403 15:04:19.466660  2616 net.cpp:386] inception_3a/relu_5x5_reduce -> inception_3a/5x5_reduce (in-place)
I0403 15:04:19.466963  2616 net.cpp:141] Setting up inception_3a/relu_5x5_reduce
I0403 15:04:19.466989  2616 net.cpp:148] Top shape: 24 16 28 28 (301056)
I0403 15:04:19.467005  2616 net.cpp:156] Memory required for data: 537084960
I0403 15:04:19.467020  2616 layer_factory.hpp:77] Creating layer inception_3a/5x5
I0403 15:04:19.467042  2616 net.cpp:91] Creating Layer inception_3a/5x5
I0403 15:04:19.467061  2616 net.cpp:425] inception_3a/5x5 <- inception_3a/5x5_reduce
I0403 15:04:19.467082  2616 net.cpp:399] inception_3a/5x5 -> inception_3a/5x5
I0403 15:04:19.468083  2616 net.cpp:141] Setting up inception_3a/5x5
I0403 15:04:19.468114  2616 net.cpp:148] Top shape: 24 32 28 28 (602112)
I0403 15:04:19.468132  2616 net.cpp:156] Memory required for data: 539493408
I0403 15:04:19.468152  2616 layer_factory.hpp:77] Creating layer inception_3a/relu_5x5
I0403 15:04:19.468169  2616 net.cpp:91] Creating Layer inception_3a/relu_5x5
I0403 15:04:19.468185  2616 net.cpp:425] inception_3a/relu_5x5 <- inception_3a/5x5
I0403 15:04:19.468206  2616 net.cpp:386] inception_3a/relu_5x5 -> inception_3a/5x5 (in-place)
I0403 15:04:19.468392  2616 net.cpp:141] Setting up inception_3a/relu_5x5
I0403 15:04:19.468417  2616 net.cpp:148] Top shape: 24 32 28 28 (602112)
I0403 15:04:19.468432  2616 net.cpp:156] Memory required for data: 541901856
I0403 15:04:19.468446  2616 layer_factory.hpp:77] Creating layer inception_3a/pool
I0403 15:04:19.468464  2616 net.cpp:91] Creating Layer inception_3a/pool
I0403 15:04:19.468494  2616 net.cpp:425] inception_3a/pool <- pool2/3x3_s2_pool2/3x3_s2_0_split_3
I0403 15:04:19.468523  2616 net.cpp:399] inception_3a/pool -> inception_3a/pool
I0403 15:04:19.468582  2616 net.cpp:141] Setting up inception_3a/pool
I0403 15:04:19.468605  2616 net.cpp:148] Top shape: 24 192 28 28 (3612672)
I0403 15:04:19.468621  2616 net.cpp:156] Memory required for data: 556352544
I0403 15:04:19.468636  2616 layer_factory.hpp:77] Creating layer inception_3a/pool_proj
I0403 15:04:19.468657  2616 net.cpp:91] Creating Layer inception_3a/pool_proj
I0403 15:04:19.468675  2616 net.cpp:425] inception_3a/pool_proj <- inception_3a/pool
I0403 15:04:19.468700  2616 net.cpp:399] inception_3a/pool_proj -> inception_3a/pool_proj
I0403 15:04:19.469645  2616 net.cpp:141] Setting up inception_3a/pool_proj
I0403 15:04:19.469672  2616 net.cpp:148] Top shape: 24 32 28 28 (602112)
I0403 15:04:19.469689  2616 net.cpp:156] Memory required for data: 558760992
I0403 15:04:19.469714  2616 layer_factory.hpp:77] Creating layer inception_3a/relu_pool_proj
I0403 15:04:19.469750  2616 net.cpp:91] Creating Layer inception_3a/relu_pool_proj
I0403 15:04:19.469769  2616 net.cpp:425] inception_3a/relu_pool_proj <- inception_3a/pool_proj
I0403 15:04:19.469789  2616 net.cpp:386] inception_3a/relu_pool_proj -> inception_3a/pool_proj (in-place)
I0403 15:04:19.470077  2616 net.cpp:141] Setting up inception_3a/relu_pool_proj
I0403 15:04:19.470103  2616 net.cpp:148] Top shape: 24 32 28 28 (602112)
I0403 15:04:19.470129  2616 net.cpp:156] Memory required for data: 561169440
I0403 15:04:19.470145  2616 layer_factory.hpp:77] Creating layer inception_3a/output
I0403 15:04:19.470165  2616 net.cpp:91] Creating Layer inception_3a/output
I0403 15:04:19.470181  2616 net.cpp:425] inception_3a/output <- inception_3a/1x1
I0403 15:04:19.470198  2616 net.cpp:425] inception_3a/output <- inception_3a/3x3
I0403 15:04:19.470221  2616 net.cpp:425] inception_3a/output <- inception_3a/5x5
I0403 15:04:19.470238  2616 net.cpp:425] inception_3a/output <- inception_3a/pool_proj
I0403 15:04:19.470258  2616 net.cpp:399] inception_3a/output -> inception_3a/output
I0403 15:04:19.470305  2616 net.cpp:141] Setting up inception_3a/output
I0403 15:04:19.470331  2616 net.cpp:148] Top shape: 24 256 28 28 (4816896)
I0403 15:04:19.470346  2616 net.cpp:156] Memory required for data: 580437024
I0403 15:04:19.470361  2616 layer_factory.hpp:77] Creating layer inception_3a/output_inception_3a/output_0_split
I0403 15:04:19.470378  2616 net.cpp:91] Creating Layer inception_3a/output_inception_3a/output_0_split
I0403 15:04:19.470394  2616 net.cpp:425] inception_3a/output_inception_3a/output_0_split <- inception_3a/output
I0403 15:04:19.470412  2616 net.cpp:399] inception_3a/output_inception_3a/output_0_split -> inception_3a/output_inception_3a/output_0_split_0
I0403 15:04:19.470444  2616 net.cpp:399] inception_3a/output_inception_3a/output_0_split -> inception_3a/output_inception_3a/output_0_split_1
I0403 15:04:19.470468  2616 net.cpp:399] inception_3a/output_inception_3a/output_0_split -> inception_3a/output_inception_3a/output_0_split_2
I0403 15:04:19.470489  2616 net.cpp:399] inception_3a/output_inception_3a/output_0_split -> inception_3a/output_inception_3a/output_0_split_3
I0403 15:04:19.470562  2616 net.cpp:141] Setting up inception_3a/output_inception_3a/output_0_split
I0403 15:04:19.470587  2616 net.cpp:148] Top shape: 24 256 28 28 (4816896)
I0403 15:04:19.470605  2616 net.cpp:148] Top shape: 24 256 28 28 (4816896)
I0403 15:04:19.470621  2616 net.cpp:148] Top shape: 24 256 28 28 (4816896)
I0403 15:04:19.470638  2616 net.cpp:148] Top shape: 24 256 28 28 (4816896)
I0403 15:04:19.470651  2616 net.cpp:156] Memory required for data: 657507360
I0403 15:04:19.470666  2616 layer_factory.hpp:77] Creating layer inception_3b/1x1
I0403 15:04:19.470688  2616 net.cpp:91] Creating Layer inception_3b/1x1
I0403 15:04:19.470705  2616 net.cpp:425] inception_3b/1x1 <- inception_3a/output_inception_3a/output_0_split_0
I0403 15:04:19.470727  2616 net.cpp:399] inception_3b/1x1 -> inception_3b/1x1
I0403 15:04:19.471844  2616 net.cpp:141] Setting up inception_3b/1x1
I0403 15:04:19.471885  2616 net.cpp:148] Top shape: 24 128 28 28 (2408448)
I0403 15:04:19.471904  2616 net.cpp:156] Memory required for data: 667141152
I0403 15:04:19.471922  2616 layer_factory.hpp:77] Creating layer inception_3b/relu_1x1
I0403 15:04:19.471941  2616 net.cpp:91] Creating Layer inception_3b/relu_1x1
I0403 15:04:19.471958  2616 net.cpp:425] inception_3b/relu_1x1 <- inception_3b/1x1
I0403 15:04:19.471977  2616 net.cpp:386] inception_3b/relu_1x1 -> inception_3b/1x1 (in-place)
I0403 15:04:19.472151  2616 net.cpp:141] Setting up inception_3b/relu_1x1
I0403 15:04:19.472175  2616 net.cpp:148] Top shape: 24 128 28 28 (2408448)
I0403 15:04:19.472190  2616 net.cpp:156] Memory required for data: 676774944
I0403 15:04:19.472205  2616 layer_factory.hpp:77] Creating layer inception_3b/3x3_reduce
I0403 15:04:19.472235  2616 net.cpp:91] Creating Layer inception_3b/3x3_reduce
I0403 15:04:19.472254  2616 net.cpp:425] inception_3b/3x3_reduce <- inception_3a/output_inception_3a/output_0_split_1
I0403 15:04:19.472275  2616 net.cpp:399] inception_3b/3x3_reduce -> inception_3b/3x3_reduce
I0403 15:04:19.473412  2616 net.cpp:141] Setting up inception_3b/3x3_reduce
I0403 15:04:19.473443  2616 net.cpp:148] Top shape: 24 128 28 28 (2408448)
I0403 15:04:19.473460  2616 net.cpp:156] Memory required for data: 686408736
I0403 15:04:19.473479  2616 layer_factory.hpp:77] Creating layer inception_3b/relu_3x3_reduce
I0403 15:04:19.473498  2616 net.cpp:91] Creating Layer inception_3b/relu_3x3_reduce
I0403 15:04:19.473525  2616 net.cpp:425] inception_3b/relu_3x3_reduce <- inception_3b/3x3_reduce
I0403 15:04:19.473546  2616 net.cpp:386] inception_3b/relu_3x3_reduce -> inception_3b/3x3_reduce (in-place)
I0403 15:04:19.473716  2616 net.cpp:141] Setting up inception_3b/relu_3x3_reduce
I0403 15:04:19.473740  2616 net.cpp:148] Top shape: 24 128 28 28 (2408448)
I0403 15:04:19.473755  2616 net.cpp:156] Memory required for data: 696042528
I0403 15:04:19.473772  2616 layer_factory.hpp:77] Creating layer inception_3b/3x3
I0403 15:04:19.473798  2616 net.cpp:91] Creating Layer inception_3b/3x3
I0403 15:04:19.473816  2616 net.cpp:425] inception_3b/3x3 <- inception_3b/3x3_reduce
I0403 15:04:19.473835  2616 net.cpp:399] inception_3b/3x3 -> inception_3b/3x3
I0403 15:04:19.476745  2616 net.cpp:141] Setting up inception_3b/3x3
I0403 15:04:19.476775  2616 net.cpp:148] Top shape: 24 192 28 28 (3612672)
I0403 15:04:19.476791  2616 net.cpp:156] Memory required for data: 710493216
I0403 15:04:19.476810  2616 layer_factory.hpp:77] Creating layer inception_3b/relu_3x3
I0403 15:04:19.476830  2616 net.cpp:91] Creating Layer inception_3b/relu_3x3
I0403 15:04:19.476845  2616 net.cpp:425] inception_3b/relu_3x3 <- inception_3b/3x3
I0403 15:04:19.476864  2616 net.cpp:386] inception_3b/relu_3x3 -> inception_3b/3x3 (in-place)
I0403 15:04:19.477140  2616 net.cpp:141] Setting up inception_3b/relu_3x3
I0403 15:04:19.477169  2616 net.cpp:148] Top shape: 24 192 28 28 (3612672)
I0403 15:04:19.477185  2616 net.cpp:156] Memory required for data: 724943904
I0403 15:04:19.477200  2616 layer_factory.hpp:77] Creating layer inception_3b/5x5_reduce
I0403 15:04:19.477231  2616 net.cpp:91] Creating Layer inception_3b/5x5_reduce
I0403 15:04:19.477252  2616 net.cpp:425] inception_3b/5x5_reduce <- inception_3a/output_inception_3a/output_0_split_2
I0403 15:04:19.477273  2616 net.cpp:399] inception_3b/5x5_reduce -> inception_3b/5x5_reduce
I0403 15:04:19.478255  2616 net.cpp:141] Setting up inception_3b/5x5_reduce
I0403 15:04:19.478291  2616 net.cpp:148] Top shape: 24 32 28 28 (602112)
I0403 15:04:19.478308  2616 net.cpp:156] Memory required for data: 727352352
I0403 15:04:19.478327  2616 layer_factory.hpp:77] Creating layer inception_3b/relu_5x5_reduce
I0403 15:04:19.478346  2616 net.cpp:91] Creating Layer inception_3b/relu_5x5_reduce
I0403 15:04:19.478363  2616 net.cpp:425] inception_3b/relu_5x5_reduce <- inception_3b/5x5_reduce
I0403 15:04:19.478382  2616 net.cpp:386] inception_3b/relu_5x5_reduce -> inception_3b/5x5_reduce (in-place)
I0403 15:04:19.478576  2616 net.cpp:141] Setting up inception_3b/relu_5x5_reduce
I0403 15:04:19.478601  2616 net.cpp:148] Top shape: 24 32 28 28 (602112)
I0403 15:04:19.478615  2616 net.cpp:156] Memory required for data: 729760800
I0403 15:04:19.478629  2616 layer_factory.hpp:77] Creating layer inception_3b/5x5
I0403 15:04:19.478652  2616 net.cpp:91] Creating Layer inception_3b/5x5
I0403 15:04:19.478668  2616 net.cpp:425] inception_3b/5x5 <- inception_3b/5x5_reduce
I0403 15:04:19.478689  2616 net.cpp:399] inception_3b/5x5 -> inception_3b/5x5
I0403 15:04:19.480725  2616 net.cpp:141] Setting up inception_3b/5x5
I0403 15:04:19.480754  2616 net.cpp:148] Top shape: 24 96 28 28 (1806336)
I0403 15:04:19.480770  2616 net.cpp:156] Memory required for data: 736986144
I0403 15:04:19.480789  2616 layer_factory.hpp:77] Creating layer inception_3b/relu_5x5
I0403 15:04:19.480808  2616 net.cpp:91] Creating Layer inception_3b/relu_5x5
I0403 15:04:19.480824  2616 net.cpp:425] inception_3b/relu_5x5 <- inception_3b/5x5
I0403 15:04:19.480844  2616 net.cpp:386] inception_3b/relu_5x5 -> inception_3b/5x5 (in-place)
I0403 15:04:19.481026  2616 net.cpp:141] Setting up inception_3b/relu_5x5
I0403 15:04:19.481051  2616 net.cpp:148] Top shape: 24 96 28 28 (1806336)
I0403 15:04:19.481066  2616 net.cpp:156] Memory required for data: 744211488
I0403 15:04:19.481081  2616 layer_factory.hpp:77] Creating layer inception_3b/pool
I0403 15:04:19.481098  2616 net.cpp:91] Creating Layer inception_3b/pool
I0403 15:04:19.481114  2616 net.cpp:425] inception_3b/pool <- inception_3a/output_inception_3a/output_0_split_3
I0403 15:04:19.481133  2616 net.cpp:399] inception_3b/pool -> inception_3b/pool
I0403 15:04:19.481187  2616 net.cpp:141] Setting up inception_3b/pool
I0403 15:04:19.481214  2616 net.cpp:148] Top shape: 24 256 28 28 (4816896)
I0403 15:04:19.481231  2616 net.cpp:156] Memory required for data: 763479072
I0403 15:04:19.481246  2616 layer_factory.hpp:77] Creating layer inception_3b/pool_proj
I0403 15:04:19.481271  2616 net.cpp:91] Creating Layer inception_3b/pool_proj
I0403 15:04:19.481289  2616 net.cpp:425] inception_3b/pool_proj <- inception_3b/pool
I0403 15:04:19.481307  2616 net.cpp:399] inception_3b/pool_proj -> inception_3b/pool_proj
I0403 15:04:19.482319  2616 net.cpp:141] Setting up inception_3b/pool_proj
I0403 15:04:19.482347  2616 net.cpp:148] Top shape: 24 64 28 28 (1204224)
I0403 15:04:19.482363  2616 net.cpp:156] Memory required for data: 768295968
I0403 15:04:19.482383  2616 layer_factory.hpp:77] Creating layer inception_3b/relu_pool_proj
I0403 15:04:19.482403  2616 net.cpp:91] Creating Layer inception_3b/relu_pool_proj
I0403 15:04:19.482419  2616 net.cpp:425] inception_3b/relu_pool_proj <- inception_3b/pool_proj
I0403 15:04:19.482436  2616 net.cpp:386] inception_3b/relu_pool_proj -> inception_3b/pool_proj (in-place)
I0403 15:04:19.482820  2616 net.cpp:141] Setting up inception_3b/relu_pool_proj
I0403 15:04:19.482846  2616 net.cpp:148] Top shape: 24 64 28 28 (1204224)
I0403 15:04:19.482861  2616 net.cpp:156] Memory required for data: 773112864
I0403 15:04:19.482877  2616 layer_factory.hpp:77] Creating layer inception_3b/output
I0403 15:04:19.482894  2616 net.cpp:91] Creating Layer inception_3b/output
I0403 15:04:19.482909  2616 net.cpp:425] inception_3b/output <- inception_3b/1x1
I0403 15:04:19.482931  2616 net.cpp:425] inception_3b/output <- inception_3b/3x3
I0403 15:04:19.482947  2616 net.cpp:425] inception_3b/output <- inception_3b/5x5
I0403 15:04:19.482964  2616 net.cpp:425] inception_3b/output <- inception_3b/pool_proj
I0403 15:04:19.482981  2616 net.cpp:399] inception_3b/output -> inception_3b/output
I0403 15:04:19.483023  2616 net.cpp:141] Setting up inception_3b/output
I0403 15:04:19.483047  2616 net.cpp:148] Top shape: 24 480 28 28 (9031680)
I0403 15:04:19.483062  2616 net.cpp:156] Memory required for data: 809239584
I0403 15:04:19.483078  2616 layer_factory.hpp:77] Creating layer pool3/3x3_s2
I0403 15:04:19.483094  2616 net.cpp:91] Creating Layer pool3/3x3_s2
I0403 15:04:19.483109  2616 net.cpp:425] pool3/3x3_s2 <- inception_3b/output
I0403 15:04:19.483144  2616 net.cpp:399] pool3/3x3_s2 -> pool3/3x3_s2
I0403 15:04:19.483201  2616 net.cpp:141] Setting up pool3/3x3_s2
I0403 15:04:19.483237  2616 net.cpp:148] Top shape: 24 480 14 14 (2257920)
I0403 15:04:19.483253  2616 net.cpp:156] Memory required for data: 818271264
I0403 15:04:19.483268  2616 layer_factory.hpp:77] Creating layer pool3/3x3_s2_pool3/3x3_s2_0_split
I0403 15:04:19.483284  2616 net.cpp:91] Creating Layer pool3/3x3_s2_pool3/3x3_s2_0_split
I0403 15:04:19.483299  2616 net.cpp:425] pool3/3x3_s2_pool3/3x3_s2_0_split <- pool3/3x3_s2
I0403 15:04:19.483316  2616 net.cpp:399] pool3/3x3_s2_pool3/3x3_s2_0_split -> pool3/3x3_s2_pool3/3x3_s2_0_split_0
I0403 15:04:19.483335  2616 net.cpp:399] pool3/3x3_s2_pool3/3x3_s2_0_split -> pool3/3x3_s2_pool3/3x3_s2_0_split_1
I0403 15:04:19.483357  2616 net.cpp:399] pool3/3x3_s2_pool3/3x3_s2_0_split -> pool3/3x3_s2_pool3/3x3_s2_0_split_2
I0403 15:04:19.483378  2616 net.cpp:399] pool3/3x3_s2_pool3/3x3_s2_0_split -> pool3/3x3_s2_pool3/3x3_s2_0_split_3
I0403 15:04:19.483455  2616 net.cpp:141] Setting up pool3/3x3_s2_pool3/3x3_s2_0_split
I0403 15:04:19.483477  2616 net.cpp:148] Top shape: 24 480 14 14 (2257920)
I0403 15:04:19.483494  2616 net.cpp:148] Top shape: 24 480 14 14 (2257920)
I0403 15:04:19.483510  2616 net.cpp:148] Top shape: 24 480 14 14 (2257920)
I0403 15:04:19.483525  2616 net.cpp:148] Top shape: 24 480 14 14 (2257920)
I0403 15:04:19.483537  2616 net.cpp:156] Memory required for data: 854397984
I0403 15:04:19.483551  2616 layer_factory.hpp:77] Creating layer inception_4a/1x1
I0403 15:04:19.483573  2616 net.cpp:91] Creating Layer inception_4a/1x1
I0403 15:04:19.483592  2616 net.cpp:425] inception_4a/1x1 <- pool3/3x3_s2_pool3/3x3_s2_0_split_0
I0403 15:04:19.483611  2616 net.cpp:399] inception_4a/1x1 -> inception_4a/1x1
I0403 15:04:19.485110  2616 net.cpp:141] Setting up inception_4a/1x1
I0403 15:04:19.485136  2616 net.cpp:148] Top shape: 24 192 14 14 (903168)
I0403 15:04:19.485152  2616 net.cpp:156] Memory required for data: 858010656
I0403 15:04:19.485172  2616 layer_factory.hpp:77] Creating layer inception_4a/relu_1x1
I0403 15:04:19.485191  2616 net.cpp:91] Creating Layer inception_4a/relu_1x1
I0403 15:04:19.485213  2616 net.cpp:425] inception_4a/relu_1x1 <- inception_4a/1x1
I0403 15:04:19.485232  2616 net.cpp:386] inception_4a/relu_1x1 -> inception_4a/1x1 (in-place)
I0403 15:04:19.485399  2616 net.cpp:141] Setting up inception_4a/relu_1x1
I0403 15:04:19.485427  2616 net.cpp:148] Top shape: 24 192 14 14 (903168)
I0403 15:04:19.485442  2616 net.cpp:156] Memory required for data: 861623328
I0403 15:04:19.485457  2616 layer_factory.hpp:77] Creating layer inception_4a/3x3_reduce
I0403 15:04:19.485481  2616 net.cpp:91] Creating Layer inception_4a/3x3_reduce
I0403 15:04:19.485497  2616 net.cpp:425] inception_4a/3x3_reduce <- pool3/3x3_s2_pool3/3x3_s2_0_split_1
I0403 15:04:19.485517  2616 net.cpp:399] inception_4a/3x3_reduce -> inception_4a/3x3_reduce
I0403 15:04:19.486737  2616 net.cpp:141] Setting up inception_4a/3x3_reduce
I0403 15:04:19.486765  2616 net.cpp:148] Top shape: 24 96 14 14 (451584)
I0403 15:04:19.486780  2616 net.cpp:156] Memory required for data: 863429664
I0403 15:04:19.486805  2616 layer_factory.hpp:77] Creating layer inception_4a/relu_3x3_reduce
I0403 15:04:19.486826  2616 net.cpp:91] Creating Layer inception_4a/relu_3x3_reduce
I0403 15:04:19.486843  2616 net.cpp:425] inception_4a/relu_3x3_reduce <- inception_4a/3x3_reduce
I0403 15:04:19.486860  2616 net.cpp:386] inception_4a/relu_3x3_reduce -> inception_4a/3x3_reduce (in-place)
I0403 15:04:19.487033  2616 net.cpp:141] Setting up inception_4a/relu_3x3_reduce
I0403 15:04:19.487059  2616 net.cpp:148] Top shape: 24 96 14 14 (451584)
I0403 15:04:19.487076  2616 net.cpp:156] Memory required for data: 865236000
I0403 15:04:19.487090  2616 layer_factory.hpp:77] Creating layer inception_4a/3x3
I0403 15:04:19.487112  2616 net.cpp:91] Creating Layer inception_4a/3x3
I0403 15:04:19.487129  2616 net.cpp:425] inception_4a/3x3 <- inception_4a/3x3_reduce
I0403 15:04:19.487149  2616 net.cpp:399] inception_4a/3x3 -> inception_4a/3x3
I0403 15:04:19.489722  2616 net.cpp:141] Setting up inception_4a/3x3
I0403 15:04:19.489751  2616 net.cpp:148] Top shape: 24 208 14 14 (978432)
I0403 15:04:19.489769  2616 net.cpp:156] Memory required for data: 869149728
I0403 15:04:19.489789  2616 layer_factory.hpp:77] Creating layer inception_4a/relu_3x3
I0403 15:04:19.489806  2616 net.cpp:91] Creating Layer inception_4a/relu_3x3
I0403 15:04:19.489821  2616 net.cpp:425] inception_4a/relu_3x3 <- inception_4a/3x3
I0403 15:04:19.489842  2616 net.cpp:386] inception_4a/relu_3x3 -> inception_4a/3x3 (in-place)
I0403 15:04:19.490106  2616 net.cpp:141] Setting up inception_4a/relu_3x3
I0403 15:04:19.490134  2616 net.cpp:148] Top shape: 24 208 14 14 (978432)
I0403 15:04:19.490149  2616 net.cpp:156] Memory required for data: 873063456
I0403 15:04:19.490165  2616 layer_factory.hpp:77] Creating layer inception_4a/5x5_reduce
I0403 15:04:19.490188  2616 net.cpp:91] Creating Layer inception_4a/5x5_reduce
I0403 15:04:19.490206  2616 net.cpp:425] inception_4a/5x5_reduce <- pool3/3x3_s2_pool3/3x3_s2_0_split_2
I0403 15:04:19.490231  2616 net.cpp:399] inception_4a/5x5_reduce -> inception_4a/5x5_reduce
I0403 15:04:19.491245  2616 net.cpp:141] Setting up inception_4a/5x5_reduce
I0403 15:04:19.491277  2616 net.cpp:148] Top shape: 24 16 14 14 (75264)
I0403 15:04:19.491299  2616 net.cpp:156] Memory required for data: 873364512
I0403 15:04:19.491319  2616 layer_factory.hpp:77] Creating layer inception_4a/relu_5x5_reduce
I0403 15:04:19.491339  2616 net.cpp:91] Creating Layer inception_4a/relu_5x5_reduce
I0403 15:04:19.491358  2616 net.cpp:425] inception_4a/relu_5x5_reduce <- inception_4a/5x5_reduce
I0403 15:04:19.491379  2616 net.cpp:386] inception_4a/relu_5x5_reduce -> inception_4a/5x5_reduce (in-place)
I0403 15:04:19.491564  2616 net.cpp:141] Setting up inception_4a/relu_5x5_reduce
I0403 15:04:19.491595  2616 net.cpp:148] Top shape: 24 16 14 14 (75264)
I0403 15:04:19.491611  2616 net.cpp:156] Memory required for data: 873665568
I0403 15:04:19.491626  2616 layer_factory.hpp:77] Creating layer inception_4a/5x5
I0403 15:04:19.491649  2616 net.cpp:91] Creating Layer inception_4a/5x5
I0403 15:04:19.491668  2616 net.cpp:425] inception_4a/5x5 <- inception_4a/5x5_reduce
I0403 15:04:19.491693  2616 net.cpp:399] inception_4a/5x5 -> inception_4a/5x5
I0403 15:04:19.492841  2616 net.cpp:141] Setting up inception_4a/5x5
I0403 15:04:19.492871  2616 net.cpp:148] Top shape: 24 48 14 14 (225792)
I0403 15:04:19.492888  2616 net.cpp:156] Memory required for data: 874568736
I0403 15:04:19.492908  2616 layer_factory.hpp:77] Creating layer inception_4a/relu_5x5
I0403 15:04:19.492930  2616 net.cpp:91] Creating Layer inception_4a/relu_5x5
I0403 15:04:19.492947  2616 net.cpp:425] inception_4a/relu_5x5 <- inception_4a/5x5
I0403 15:04:19.492965  2616 net.cpp:386] inception_4a/relu_5x5 -> inception_4a/5x5 (in-place)
I0403 15:04:19.493149  2616 net.cpp:141] Setting up inception_4a/relu_5x5
I0403 15:04:19.493175  2616 net.cpp:148] Top shape: 24 48 14 14 (225792)
I0403 15:04:19.493190  2616 net.cpp:156] Memory required for data: 875471904
I0403 15:04:19.493204  2616 layer_factory.hpp:77] Creating layer inception_4a/pool
I0403 15:04:19.493230  2616 net.cpp:91] Creating Layer inception_4a/pool
I0403 15:04:19.493249  2616 net.cpp:425] inception_4a/pool <- pool3/3x3_s2_pool3/3x3_s2_0_split_3
I0403 15:04:19.493268  2616 net.cpp:399] inception_4a/pool -> inception_4a/pool
I0403 15:04:19.493331  2616 net.cpp:141] Setting up inception_4a/pool
I0403 15:04:19.493355  2616 net.cpp:148] Top shape: 24 480 14 14 (2257920)
I0403 15:04:19.493371  2616 net.cpp:156] Memory required for data: 884503584
I0403 15:04:19.493386  2616 layer_factory.hpp:77] Creating layer inception_4a/pool_proj
I0403 15:04:19.493408  2616 net.cpp:91] Creating Layer inception_4a/pool_proj
I0403 15:04:19.493427  2616 net.cpp:425] inception_4a/pool_proj <- inception_4a/pool
I0403 15:04:19.493448  2616 net.cpp:399] inception_4a/pool_proj -> inception_4a/pool_proj
I0403 15:04:19.494640  2616 net.cpp:141] Setting up inception_4a/pool_proj
I0403 15:04:19.494669  2616 net.cpp:148] Top shape: 24 64 14 14 (301056)
I0403 15:04:19.494701  2616 net.cpp:156] Memory required for data: 885707808
I0403 15:04:19.494722  2616 layer_factory.hpp:77] Creating layer inception_4a/relu_pool_proj
I0403 15:04:19.494747  2616 net.cpp:91] Creating Layer inception_4a/relu_pool_proj
I0403 15:04:19.494765  2616 net.cpp:425] inception_4a/relu_pool_proj <- inception_4a/pool_proj
I0403 15:04:19.494783  2616 net.cpp:386] inception_4a/relu_pool_proj -> inception_4a/pool_proj (in-place)
I0403 15:04:19.495072  2616 net.cpp:141] Setting up inception_4a/relu_pool_proj
I0403 15:04:19.495100  2616 net.cpp:148] Top shape: 24 64 14 14 (301056)
I0403 15:04:19.495115  2616 net.cpp:156] Memory required for data: 886912032
I0403 15:04:19.495131  2616 layer_factory.hpp:77] Creating layer inception_4a/output
I0403 15:04:19.495151  2616 net.cpp:91] Creating Layer inception_4a/output
I0403 15:04:19.495168  2616 net.cpp:425] inception_4a/output <- inception_4a/1x1
I0403 15:04:19.495187  2616 net.cpp:425] inception_4a/output <- inception_4a/3x3
I0403 15:04:19.495203  2616 net.cpp:425] inception_4a/output <- inception_4a/5x5
I0403 15:04:19.495234  2616 net.cpp:425] inception_4a/output <- inception_4a/pool_proj
I0403 15:04:19.495252  2616 net.cpp:399] inception_4a/output -> inception_4a/output
I0403 15:04:19.495301  2616 net.cpp:141] Setting up inception_4a/output
I0403 15:04:19.495326  2616 net.cpp:148] Top shape: 24 512 14 14 (2408448)
I0403 15:04:19.495340  2616 net.cpp:156] Memory required for data: 896545824
I0403 15:04:19.495355  2616 layer_factory.hpp:77] Creating layer inception_4a/output_inception_4a/output_0_split
I0403 15:04:19.495374  2616 net.cpp:91] Creating Layer inception_4a/output_inception_4a/output_0_split
I0403 15:04:19.495390  2616 net.cpp:425] inception_4a/output_inception_4a/output_0_split <- inception_4a/output
I0403 15:04:19.495410  2616 net.cpp:399] inception_4a/output_inception_4a/output_0_split -> inception_4a/output_inception_4a/output_0_split_0
I0403 15:04:19.495434  2616 net.cpp:399] inception_4a/output_inception_4a/output_0_split -> inception_4a/output_inception_4a/output_0_split_1
I0403 15:04:19.495455  2616 net.cpp:399] inception_4a/output_inception_4a/output_0_split -> inception_4a/output_inception_4a/output_0_split_2
I0403 15:04:19.495476  2616 net.cpp:399] inception_4a/output_inception_4a/output_0_split -> inception_4a/output_inception_4a/output_0_split_3
I0403 15:04:19.495497  2616 net.cpp:399] inception_4a/output_inception_4a/output_0_split -> inception_4a/output_inception_4a/output_0_split_4
I0403 15:04:19.495594  2616 net.cpp:141] Setting up inception_4a/output_inception_4a/output_0_split
I0403 15:04:19.495617  2616 net.cpp:148] Top shape: 24 512 14 14 (2408448)
I0403 15:04:19.495637  2616 net.cpp:148] Top shape: 24 512 14 14 (2408448)
I0403 15:04:19.495654  2616 net.cpp:148] Top shape: 24 512 14 14 (2408448)
I0403 15:04:19.495671  2616 net.cpp:148] Top shape: 24 512 14 14 (2408448)
I0403 15:04:19.495687  2616 net.cpp:148] Top shape: 24 512 14 14 (2408448)
I0403 15:04:19.495702  2616 net.cpp:156] Memory required for data: 944714784
I0403 15:04:19.495717  2616 layer_factory.hpp:77] Creating layer loss1/ave_pool
I0403 15:04:19.495735  2616 net.cpp:91] Creating Layer loss1/ave_pool
I0403 15:04:19.495751  2616 net.cpp:425] loss1/ave_pool <- inception_4a/output_inception_4a/output_0_split_0
I0403 15:04:19.495774  2616 net.cpp:399] loss1/ave_pool -> loss1/ave_pool
I0403 15:04:19.495980  2616 net.cpp:141] Setting up loss1/ave_pool
I0403 15:04:19.496006  2616 net.cpp:148] Top shape: 24 512 4 4 (196608)
I0403 15:04:19.496022  2616 net.cpp:156] Memory required for data: 945501216
I0403 15:04:19.496037  2616 layer_factory.hpp:77] Creating layer loss1/conv
I0403 15:04:19.496060  2616 net.cpp:91] Creating Layer loss1/conv
I0403 15:04:19.496078  2616 net.cpp:425] loss1/conv <- loss1/ave_pool
I0403 15:04:19.496100  2616 net.cpp:399] loss1/conv -> loss1/conv
I0403 15:04:19.497540  2616 net.cpp:141] Setting up loss1/conv
I0403 15:04:19.497571  2616 net.cpp:148] Top shape: 24 128 4 4 (49152)
I0403 15:04:19.497601  2616 net.cpp:156] Memory required for data: 945697824
I0403 15:04:19.497622  2616 layer_factory.hpp:77] Creating layer loss1/relu_conv
I0403 15:04:19.497642  2616 net.cpp:91] Creating Layer loss1/relu_conv
I0403 15:04:19.497658  2616 net.cpp:425] loss1/relu_conv <- loss1/conv
I0403 15:04:19.497678  2616 net.cpp:386] loss1/relu_conv -> loss1/conv (in-place)
I0403 15:04:19.497967  2616 net.cpp:141] Setting up loss1/relu_conv
I0403 15:04:19.497995  2616 net.cpp:148] Top shape: 24 128 4 4 (49152)
I0403 15:04:19.498011  2616 net.cpp:156] Memory required for data: 945894432
I0403 15:04:19.498028  2616 layer_factory.hpp:77] Creating layer loss1/fc
I0403 15:04:19.498052  2616 net.cpp:91] Creating Layer loss1/fc
I0403 15:04:19.498070  2616 net.cpp:425] loss1/fc <- loss1/conv
I0403 15:04:19.498092  2616 net.cpp:399] loss1/fc -> loss1/fc
I0403 15:04:19.516152  2616 net.cpp:141] Setting up loss1/fc
I0403 15:04:19.516221  2616 net.cpp:148] Top shape: 24 1024 (24576)
I0403 15:04:19.516237  2616 net.cpp:156] Memory required for data: 945992736
I0403 15:04:19.516258  2616 layer_factory.hpp:77] Creating layer loss1/relu_fc
I0403 15:04:19.516279  2616 net.cpp:91] Creating Layer loss1/relu_fc
I0403 15:04:19.516297  2616 net.cpp:425] loss1/relu_fc <- loss1/fc
I0403 15:04:19.516316  2616 net.cpp:386] loss1/relu_fc -> loss1/fc (in-place)
I0403 15:04:19.516518  2616 net.cpp:141] Setting up loss1/relu_fc
I0403 15:04:19.516546  2616 net.cpp:148] Top shape: 24 1024 (24576)
I0403 15:04:19.516561  2616 net.cpp:156] Memory required for data: 946091040
I0403 15:04:19.516577  2616 layer_factory.hpp:77] Creating layer loss1/drop_fc
I0403 15:04:19.516604  2616 net.cpp:91] Creating Layer loss1/drop_fc
I0403 15:04:19.516621  2616 net.cpp:425] loss1/drop_fc <- loss1/fc
I0403 15:04:19.516641  2616 net.cpp:386] loss1/drop_fc -> loss1/fc (in-place)
I0403 15:04:19.516695  2616 net.cpp:141] Setting up loss1/drop_fc
I0403 15:04:19.516717  2616 net.cpp:148] Top shape: 24 1024 (24576)
I0403 15:04:19.516731  2616 net.cpp:156] Memory required for data: 946189344
I0403 15:04:19.516746  2616 layer_factory.hpp:77] Creating layer loss1/classifier_plantvillage
I0403 15:04:19.516770  2616 net.cpp:91] Creating Layer loss1/classifier_plantvillage
I0403 15:04:19.516788  2616 net.cpp:425] loss1/classifier_plantvillage <- loss1/fc
I0403 15:04:19.516805  2616 net.cpp:399] loss1/classifier_plantvillage -> loss1/classifier_plantvillage
I0403 15:04:19.517751  2616 net.cpp:141] Setting up loss1/classifier_plantvillage
I0403 15:04:19.517781  2616 net.cpp:148] Top shape: 24 38 (912)
I0403 15:04:19.517796  2616 net.cpp:156] Memory required for data: 946192992
I0403 15:04:19.517814  2616 layer_factory.hpp:77] Creating layer loss1/classifier_plantvillage_loss1/classifier_plantvillage_0_split
I0403 15:04:19.517834  2616 net.cpp:91] Creating Layer loss1/classifier_plantvillage_loss1/classifier_plantvillage_0_split
I0403 15:04:19.517851  2616 net.cpp:425] loss1/classifier_plantvillage_loss1/classifier_plantvillage_0_split <- loss1/classifier_plantvillage
I0403 15:04:19.517869  2616 net.cpp:399] loss1/classifier_plantvillage_loss1/classifier_plantvillage_0_split -> loss1/classifier_plantvillage_loss1/classifier_plantvillage_0_split_0
I0403 15:04:19.517892  2616 net.cpp:399] loss1/classifier_plantvillage_loss1/classifier_plantvillage_0_split -> loss1/classifier_plantvillage_loss1/classifier_plantvillage_0_split_1
I0403 15:04:19.517915  2616 net.cpp:399] loss1/classifier_plantvillage_loss1/classifier_plantvillage_0_split -> loss1/classifier_plantvillage_loss1/classifier_plantvillage_0_split_2
I0403 15:04:19.517982  2616 net.cpp:141] Setting up loss1/classifier_plantvillage_loss1/classifier_plantvillage_0_split
I0403 15:04:19.518005  2616 net.cpp:148] Top shape: 24 38 (912)
I0403 15:04:19.518021  2616 net.cpp:148] Top shape: 24 38 (912)
I0403 15:04:19.518038  2616 net.cpp:148] Top shape: 24 38 (912)
I0403 15:04:19.518051  2616 net.cpp:156] Memory required for data: 946203936
I0403 15:04:19.518065  2616 layer_factory.hpp:77] Creating layer inception_4b/1x1
I0403 15:04:19.518090  2616 net.cpp:91] Creating Layer inception_4b/1x1
I0403 15:04:19.518131  2616 net.cpp:425] inception_4b/1x1 <- inception_4a/output_inception_4a/output_0_split_1
I0403 15:04:19.518152  2616 net.cpp:399] inception_4b/1x1 -> inception_4b/1x1
I0403 15:04:19.519822  2616 net.cpp:141] Setting up inception_4b/1x1
I0403 15:04:19.519852  2616 net.cpp:148] Top shape: 24 160 14 14 (752640)
I0403 15:04:19.519870  2616 net.cpp:156] Memory required for data: 949214496
I0403 15:04:19.519887  2616 layer_factory.hpp:77] Creating layer inception_4b/relu_1x1
I0403 15:04:19.519906  2616 net.cpp:91] Creating Layer inception_4b/relu_1x1
I0403 15:04:19.519922  2616 net.cpp:425] inception_4b/relu_1x1 <- inception_4b/1x1
I0403 15:04:19.519942  2616 net.cpp:386] inception_4b/relu_1x1 -> inception_4b/1x1 (in-place)
I0403 15:04:19.520118  2616 net.cpp:141] Setting up inception_4b/relu_1x1
I0403 15:04:19.520143  2616 net.cpp:148] Top shape: 24 160 14 14 (752640)
I0403 15:04:19.520159  2616 net.cpp:156] Memory required for data: 952225056
I0403 15:04:19.520174  2616 layer_factory.hpp:77] Creating layer inception_4b/3x3_reduce
I0403 15:04:19.520198  2616 net.cpp:91] Creating Layer inception_4b/3x3_reduce
I0403 15:04:19.520221  2616 net.cpp:425] inception_4b/3x3_reduce <- inception_4a/output_inception_4a/output_0_split_2
I0403 15:04:19.520243  2616 net.cpp:399] inception_4b/3x3_reduce -> inception_4b/3x3_reduce
I0403 15:04:19.521584  2616 net.cpp:141] Setting up inception_4b/3x3_reduce
I0403 15:04:19.521610  2616 net.cpp:148] Top shape: 24 112 14 14 (526848)
I0403 15:04:19.521626  2616 net.cpp:156] Memory required for data: 954332448
I0403 15:04:19.521646  2616 layer_factory.hpp:77] Creating layer inception_4b/relu_3x3_reduce
I0403 15:04:19.521664  2616 net.cpp:91] Creating Layer inception_4b/relu_3x3_reduce
I0403 15:04:19.521680  2616 net.cpp:425] inception_4b/relu_3x3_reduce <- inception_4b/3x3_reduce
I0403 15:04:19.521700  2616 net.cpp:386] inception_4b/relu_3x3_reduce -> inception_4b/3x3_reduce (in-place)
I0403 15:04:19.521986  2616 net.cpp:141] Setting up inception_4b/relu_3x3_reduce
I0403 15:04:19.522012  2616 net.cpp:148] Top shape: 24 112 14 14 (526848)
I0403 15:04:19.522027  2616 net.cpp:156] Memory required for data: 956439840
I0403 15:04:19.522042  2616 layer_factory.hpp:77] Creating layer inception_4b/3x3
I0403 15:04:19.522065  2616 net.cpp:91] Creating Layer inception_4b/3x3
I0403 15:04:19.522083  2616 net.cpp:425] inception_4b/3x3 <- inception_4b/3x3_reduce
I0403 15:04:19.522104  2616 net.cpp:399] inception_4b/3x3 -> inception_4b/3x3
I0403 15:04:19.525112  2616 net.cpp:141] Setting up inception_4b/3x3
I0403 15:04:19.525141  2616 net.cpp:148] Top shape: 24 224 14 14 (1053696)
I0403 15:04:19.525156  2616 net.cpp:156] Memory required for data: 960654624
I0403 15:04:19.525176  2616 layer_factory.hpp:77] Creating layer inception_4b/relu_3x3
I0403 15:04:19.525195  2616 net.cpp:91] Creating Layer inception_4b/relu_3x3
I0403 15:04:19.525219  2616 net.cpp:425] inception_4b/relu_3x3 <- inception_4b/3x3
I0403 15:04:19.525239  2616 net.cpp:386] inception_4b/relu_3x3 -> inception_4b/3x3 (in-place)
I0403 15:04:19.525429  2616 net.cpp:141] Setting up inception_4b/relu_3x3
I0403 15:04:19.525454  2616 net.cpp:148] Top shape: 24 224 14 14 (1053696)
I0403 15:04:19.525470  2616 net.cpp:156] Memory required for data: 964869408
I0403 15:04:19.525485  2616 layer_factory.hpp:77] Creating layer inception_4b/5x5_reduce
I0403 15:04:19.525517  2616 net.cpp:91] Creating Layer inception_4b/5x5_reduce
I0403 15:04:19.525535  2616 net.cpp:425] inception_4b/5x5_reduce <- inception_4a/output_inception_4a/output_0_split_3
I0403 15:04:19.525560  2616 net.cpp:399] inception_4b/5x5_reduce -> inception_4b/5x5_reduce
I0403 15:04:19.526676  2616 net.cpp:141] Setting up inception_4b/5x5_reduce
I0403 15:04:19.526705  2616 net.cpp:148] Top shape: 24 24 14 14 (112896)
I0403 15:04:19.526721  2616 net.cpp:156] Memory required for data: 965320992
I0403 15:04:19.526738  2616 layer_factory.hpp:77] Creating layer inception_4b/relu_5x5_reduce
I0403 15:04:19.526757  2616 net.cpp:91] Creating Layer inception_4b/relu_5x5_reduce
I0403 15:04:19.526787  2616 net.cpp:425] inception_4b/relu_5x5_reduce <- inception_4b/5x5_reduce
I0403 15:04:19.526808  2616 net.cpp:386] inception_4b/relu_5x5_reduce -> inception_4b/5x5_reduce (in-place)
I0403 15:04:19.526993  2616 net.cpp:141] Setting up inception_4b/relu_5x5_reduce
I0403 15:04:19.527020  2616 net.cpp:148] Top shape: 24 24 14 14 (112896)
I0403 15:04:19.527035  2616 net.cpp:156] Memory required for data: 965772576
I0403 15:04:19.527050  2616 layer_factory.hpp:77] Creating layer inception_4b/5x5
I0403 15:04:19.527079  2616 net.cpp:91] Creating Layer inception_4b/5x5
I0403 15:04:19.527101  2616 net.cpp:425] inception_4b/5x5 <- inception_4b/5x5_reduce
I0403 15:04:19.527123  2616 net.cpp:399] inception_4b/5x5 -> inception_4b/5x5
I0403 15:04:19.528364  2616 net.cpp:141] Setting up inception_4b/5x5
I0403 15:04:19.528394  2616 net.cpp:148] Top shape: 24 64 14 14 (301056)
I0403 15:04:19.528411  2616 net.cpp:156] Memory required for data: 966976800
I0403 15:04:19.528430  2616 layer_factory.hpp:77] Creating layer inception_4b/relu_5x5
I0403 15:04:19.528448  2616 net.cpp:91] Creating Layer inception_4b/relu_5x5
I0403 15:04:19.528465  2616 net.cpp:425] inception_4b/relu_5x5 <- inception_4b/5x5
I0403 15:04:19.528484  2616 net.cpp:386] inception_4b/relu_5x5 -> inception_4b/5x5 (in-place)
I0403 15:04:19.528764  2616 net.cpp:141] Setting up inception_4b/relu_5x5
I0403 15:04:19.528794  2616 net.cpp:148] Top shape: 24 64 14 14 (301056)
I0403 15:04:19.528810  2616 net.cpp:156] Memory required for data: 968181024
I0403 15:04:19.528825  2616 layer_factory.hpp:77] Creating layer inception_4b/pool
I0403 15:04:19.528843  2616 net.cpp:91] Creating Layer inception_4b/pool
I0403 15:04:19.528859  2616 net.cpp:425] inception_4b/pool <- inception_4a/output_inception_4a/output_0_split_4
I0403 15:04:19.528880  2616 net.cpp:399] inception_4b/pool -> inception_4b/pool
I0403 15:04:19.528945  2616 net.cpp:141] Setting up inception_4b/pool
I0403 15:04:19.528971  2616 net.cpp:148] Top shape: 24 512 14 14 (2408448)
I0403 15:04:19.528987  2616 net.cpp:156] Memory required for data: 977814816
I0403 15:04:19.529002  2616 layer_factory.hpp:77] Creating layer inception_4b/pool_proj
I0403 15:04:19.529021  2616 net.cpp:91] Creating Layer inception_4b/pool_proj
I0403 15:04:19.529039  2616 net.cpp:425] inception_4b/pool_proj <- inception_4b/pool
I0403 15:04:19.529060  2616 net.cpp:399] inception_4b/pool_proj -> inception_4b/pool_proj
I0403 15:04:19.530267  2616 net.cpp:141] Setting up inception_4b/pool_proj
I0403 15:04:19.530295  2616 net.cpp:148] Top shape: 24 64 14 14 (301056)
I0403 15:04:19.530311  2616 net.cpp:156] Memory required for data: 979019040
I0403 15:04:19.530329  2616 layer_factory.hpp:77] Creating layer inception_4b/relu_pool_proj
I0403 15:04:19.530347  2616 net.cpp:91] Creating Layer inception_4b/relu_pool_proj
I0403 15:04:19.530364  2616 net.cpp:425] inception_4b/relu_pool_proj <- inception_4b/pool_proj
I0403 15:04:19.530383  2616 net.cpp:386] inception_4b/relu_pool_proj -> inception_4b/pool_proj (in-place)
I0403 15:04:19.530561  2616 net.cpp:141] Setting up inception_4b/relu_pool_proj
I0403 15:04:19.530586  2616 net.cpp:148] Top shape: 24 64 14 14 (301056)
I0403 15:04:19.530601  2616 net.cpp:156] Memory required for data: 980223264
I0403 15:04:19.530616  2616 layer_factory.hpp:77] Creating layer inception_4b/output
I0403 15:04:19.530632  2616 net.cpp:91] Creating Layer inception_4b/output
I0403 15:04:19.530648  2616 net.cpp:425] inception_4b/output <- inception_4b/1x1
I0403 15:04:19.530668  2616 net.cpp:425] inception_4b/output <- inception_4b/3x3
I0403 15:04:19.530684  2616 net.cpp:425] inception_4b/output <- inception_4b/5x5
I0403 15:04:19.530700  2616 net.cpp:425] inception_4b/output <- inception_4b/pool_proj
I0403 15:04:19.530719  2616 net.cpp:399] inception_4b/output -> inception_4b/output
I0403 15:04:19.530766  2616 net.cpp:141] Setting up inception_4b/output
I0403 15:04:19.530791  2616 net.cpp:148] Top shape: 24 512 14 14 (2408448)
I0403 15:04:19.530805  2616 net.cpp:156] Memory required for data: 989857056
I0403 15:04:19.530833  2616 layer_factory.hpp:77] Creating layer inception_4b/output_inception_4b/output_0_split
I0403 15:04:19.530853  2616 net.cpp:91] Creating Layer inception_4b/output_inception_4b/output_0_split
I0403 15:04:19.530867  2616 net.cpp:425] inception_4b/output_inception_4b/output_0_split <- inception_4b/output
I0403 15:04:19.530889  2616 net.cpp:399] inception_4b/output_inception_4b/output_0_split -> inception_4b/output_inception_4b/output_0_split_0
I0403 15:04:19.530910  2616 net.cpp:399] inception_4b/output_inception_4b/output_0_split -> inception_4b/output_inception_4b/output_0_split_1
I0403 15:04:19.530931  2616 net.cpp:399] inception_4b/output_inception_4b/output_0_split -> inception_4b/output_inception_4b/output_0_split_2
I0403 15:04:19.530952  2616 net.cpp:399] inception_4b/output_inception_4b/output_0_split -> inception_4b/output_inception_4b/output_0_split_3
I0403 15:04:19.531038  2616 net.cpp:141] Setting up inception_4b/output_inception_4b/output_0_split
I0403 15:04:19.531064  2616 net.cpp:148] Top shape: 24 512 14 14 (2408448)
I0403 15:04:19.531082  2616 net.cpp:148] Top shape: 24 512 14 14 (2408448)
I0403 15:04:19.531098  2616 net.cpp:148] Top shape: 24 512 14 14 (2408448)
I0403 15:04:19.531114  2616 net.cpp:148] Top shape: 24 512 14 14 (2408448)
I0403 15:04:19.531129  2616 net.cpp:156] Memory required for data: 1028392224
I0403 15:04:19.531143  2616 layer_factory.hpp:77] Creating layer inception_4c/1x1
I0403 15:04:19.531167  2616 net.cpp:91] Creating Layer inception_4c/1x1
I0403 15:04:19.531183  2616 net.cpp:425] inception_4c/1x1 <- inception_4b/output_inception_4b/output_0_split_0
I0403 15:04:19.531203  2616 net.cpp:399] inception_4c/1x1 -> inception_4c/1x1
I0403 15:04:19.532647  2616 net.cpp:141] Setting up inception_4c/1x1
I0403 15:04:19.532675  2616 net.cpp:148] Top shape: 24 128 14 14 (602112)
I0403 15:04:19.532691  2616 net.cpp:156] Memory required for data: 1030800672
I0403 15:04:19.532709  2616 layer_factory.hpp:77] Creating layer inception_4c/relu_1x1
I0403 15:04:19.532732  2616 net.cpp:91] Creating Layer inception_4c/relu_1x1
I0403 15:04:19.532749  2616 net.cpp:425] inception_4c/relu_1x1 <- inception_4c/1x1
I0403 15:04:19.532766  2616 net.cpp:386] inception_4c/relu_1x1 -> inception_4c/1x1 (in-place)
I0403 15:04:19.532946  2616 net.cpp:141] Setting up inception_4c/relu_1x1
I0403 15:04:19.532974  2616 net.cpp:148] Top shape: 24 128 14 14 (602112)
I0403 15:04:19.532989  2616 net.cpp:156] Memory required for data: 1033209120
I0403 15:04:19.533004  2616 layer_factory.hpp:77] Creating layer inception_4c/3x3_reduce
I0403 15:04:19.533026  2616 net.cpp:91] Creating Layer inception_4c/3x3_reduce
I0403 15:04:19.533044  2616 net.cpp:425] inception_4c/3x3_reduce <- inception_4b/output_inception_4b/output_0_split_1
I0403 15:04:19.533064  2616 net.cpp:399] inception_4c/3x3_reduce -> inception_4c/3x3_reduce
I0403 15:04:19.535023  2616 net.cpp:141] Setting up inception_4c/3x3_reduce
I0403 15:04:19.535053  2616 net.cpp:148] Top shape: 24 128 14 14 (602112)
I0403 15:04:19.535070  2616 net.cpp:156] Memory required for data: 1035617568
I0403 15:04:19.535089  2616 layer_factory.hpp:77] Creating layer inception_4c/relu_3x3_reduce
I0403 15:04:19.535107  2616 net.cpp:91] Creating Layer inception_4c/relu_3x3_reduce
I0403 15:04:19.535123  2616 net.cpp:425] inception_4c/relu_3x3_reduce <- inception_4c/3x3_reduce
I0403 15:04:19.535143  2616 net.cpp:386] inception_4c/relu_3x3_reduce -> inception_4c/3x3_reduce (in-place)
I0403 15:04:19.535431  2616 net.cpp:141] Setting up inception_4c/relu_3x3_reduce
I0403 15:04:19.535459  2616 net.cpp:148] Top shape: 24 128 14 14 (602112)
I0403 15:04:19.535487  2616 net.cpp:156] Memory required for data: 1038026016
I0403 15:04:19.535502  2616 layer_factory.hpp:77] Creating layer inception_4c/3x3
I0403 15:04:19.535526  2616 net.cpp:91] Creating Layer inception_4c/3x3
I0403 15:04:19.535542  2616 net.cpp:425] inception_4c/3x3 <- inception_4c/3x3_reduce
I0403 15:04:19.535564  2616 net.cpp:399] inception_4c/3x3 -> inception_4c/3x3
I0403 15:04:19.539078  2616 net.cpp:141] Setting up inception_4c/3x3
I0403 15:04:19.539119  2616 net.cpp:148] Top shape: 24 256 14 14 (1204224)
I0403 15:04:19.539136  2616 net.cpp:156] Memory required for data: 1042842912
I0403 15:04:19.539168  2616 layer_factory.hpp:77] Creating layer inception_4c/relu_3x3
I0403 15:04:19.539189  2616 net.cpp:91] Creating Layer inception_4c/relu_3x3
I0403 15:04:19.539206  2616 net.cpp:425] inception_4c/relu_3x3 <- inception_4c/3x3
I0403 15:04:19.539247  2616 net.cpp:386] inception_4c/relu_3x3 -> inception_4c/3x3 (in-place)
I0403 15:04:19.539428  2616 net.cpp:141] Setting up inception_4c/relu_3x3
I0403 15:04:19.539453  2616 net.cpp:148] Top shape: 24 256 14 14 (1204224)
I0403 15:04:19.539469  2616 net.cpp:156] Memory required for data: 1047659808
I0403 15:04:19.539484  2616 layer_factory.hpp:77] Creating layer inception_4c/5x5_reduce
I0403 15:04:19.539506  2616 net.cpp:91] Creating Layer inception_4c/5x5_reduce
I0403 15:04:19.539525  2616 net.cpp:425] inception_4c/5x5_reduce <- inception_4b/output_inception_4b/output_0_split_2
I0403 15:04:19.539547  2616 net.cpp:399] inception_4c/5x5_reduce -> inception_4c/5x5_reduce
I0403 15:04:19.540642  2616 net.cpp:141] Setting up inception_4c/5x5_reduce
I0403 15:04:19.540669  2616 net.cpp:148] Top shape: 24 24 14 14 (112896)
I0403 15:04:19.540685  2616 net.cpp:156] Memory required for data: 1048111392
I0403 15:04:19.540704  2616 layer_factory.hpp:77] Creating layer inception_4c/relu_5x5_reduce
I0403 15:04:19.540721  2616 net.cpp:91] Creating Layer inception_4c/relu_5x5_reduce
I0403 15:04:19.540737  2616 net.cpp:425] inception_4c/relu_5x5_reduce <- inception_4c/5x5_reduce
I0403 15:04:19.540756  2616 net.cpp:386] inception_4c/relu_5x5_reduce -> inception_4c/5x5_reduce (in-place)
I0403 15:04:19.540942  2616 net.cpp:141] Setting up inception_4c/relu_5x5_reduce
I0403 15:04:19.540967  2616 net.cpp:148] Top shape: 24 24 14 14 (112896)
I0403 15:04:19.540982  2616 net.cpp:156] Memory required for data: 1048562976
I0403 15:04:19.540997  2616 layer_factory.hpp:77] Creating layer inception_4c/5x5
I0403 15:04:19.541019  2616 net.cpp:91] Creating Layer inception_4c/5x5
I0403 15:04:19.541036  2616 net.cpp:425] inception_4c/5x5 <- inception_4c/5x5_reduce
I0403 15:04:19.541059  2616 net.cpp:399] inception_4c/5x5 -> inception_4c/5x5
I0403 15:04:19.542321  2616 net.cpp:141] Setting up inception_4c/5x5
I0403 15:04:19.542349  2616 net.cpp:148] Top shape: 24 64 14 14 (301056)
I0403 15:04:19.542364  2616 net.cpp:156] Memory required for data: 1049767200
I0403 15:04:19.542383  2616 layer_factory.hpp:77] Creating layer inception_4c/relu_5x5
I0403 15:04:19.542403  2616 net.cpp:91] Creating Layer inception_4c/relu_5x5
I0403 15:04:19.542420  2616 net.cpp:425] inception_4c/relu_5x5 <- inception_4c/5x5
I0403 15:04:19.542438  2616 net.cpp:386] inception_4c/relu_5x5 -> inception_4c/5x5 (in-place)
I0403 15:04:19.542731  2616 net.cpp:141] Setting up inception_4c/relu_5x5
I0403 15:04:19.542757  2616 net.cpp:148] Top shape: 24 64 14 14 (301056)
I0403 15:04:19.542773  2616 net.cpp:156] Memory required for data: 1050971424
I0403 15:04:19.542788  2616 layer_factory.hpp:77] Creating layer inception_4c/pool
I0403 15:04:19.542807  2616 net.cpp:91] Creating Layer inception_4c/pool
I0403 15:04:19.542824  2616 net.cpp:425] inception_4c/pool <- inception_4b/output_inception_4b/output_0_split_3
I0403 15:04:19.542843  2616 net.cpp:399] inception_4c/pool -> inception_4c/pool
I0403 15:04:19.542912  2616 net.cpp:141] Setting up inception_4c/pool
I0403 15:04:19.542935  2616 net.cpp:148] Top shape: 24 512 14 14 (2408448)
I0403 15:04:19.542950  2616 net.cpp:156] Memory required for data: 1060605216
I0403 15:04:19.542964  2616 layer_factory.hpp:77] Creating layer inception_4c/pool_proj
I0403 15:04:19.542987  2616 net.cpp:91] Creating Layer inception_4c/pool_proj
I0403 15:04:19.543004  2616 net.cpp:425] inception_4c/pool_proj <- inception_4c/pool
I0403 15:04:19.543025  2616 net.cpp:399] inception_4c/pool_proj -> inception_4c/pool_proj
I0403 15:04:19.544275  2616 net.cpp:141] Setting up inception_4c/pool_proj
I0403 15:04:19.544306  2616 net.cpp:148] Top shape: 24 64 14 14 (301056)
I0403 15:04:19.544337  2616 net.cpp:156] Memory required for data: 1061809440
I0403 15:04:19.544356  2616 layer_factory.hpp:77] Creating layer inception_4c/relu_pool_proj
I0403 15:04:19.544374  2616 net.cpp:91] Creating Layer inception_4c/relu_pool_proj
I0403 15:04:19.544391  2616 net.cpp:425] inception_4c/relu_pool_proj <- inception_4c/pool_proj
I0403 15:04:19.544411  2616 net.cpp:386] inception_4c/relu_pool_proj -> inception_4c/pool_proj (in-place)
I0403 15:04:19.544610  2616 net.cpp:141] Setting up inception_4c/relu_pool_proj
I0403 15:04:19.544636  2616 net.cpp:148] Top shape: 24 64 14 14 (301056)
I0403 15:04:19.544651  2616 net.cpp:156] Memory required for data: 1063013664
I0403 15:04:19.544667  2616 layer_factory.hpp:77] Creating layer inception_4c/output
I0403 15:04:19.544685  2616 net.cpp:91] Creating Layer inception_4c/output
I0403 15:04:19.544702  2616 net.cpp:425] inception_4c/output <- inception_4c/1x1
I0403 15:04:19.544730  2616 net.cpp:425] inception_4c/output <- inception_4c/3x3
I0403 15:04:19.544746  2616 net.cpp:425] inception_4c/output <- inception_4c/5x5
I0403 15:04:19.544764  2616 net.cpp:425] inception_4c/output <- inception_4c/pool_proj
I0403 15:04:19.544800  2616 net.cpp:399] inception_4c/output -> inception_4c/output
I0403 15:04:19.544852  2616 net.cpp:141] Setting up inception_4c/output
I0403 15:04:19.544877  2616 net.cpp:148] Top shape: 24 512 14 14 (2408448)
I0403 15:04:19.544891  2616 net.cpp:156] Memory required for data: 1072647456
I0403 15:04:19.544906  2616 layer_factory.hpp:77] Creating layer inception_4c/output_inception_4c/output_0_split
I0403 15:04:19.544924  2616 net.cpp:91] Creating Layer inception_4c/output_inception_4c/output_0_split
I0403 15:04:19.544940  2616 net.cpp:425] inception_4c/output_inception_4c/output_0_split <- inception_4c/output
I0403 15:04:19.544966  2616 net.cpp:399] inception_4c/output_inception_4c/output_0_split -> inception_4c/output_inception_4c/output_0_split_0
I0403 15:04:19.544988  2616 net.cpp:399] inception_4c/output_inception_4c/output_0_split -> inception_4c/output_inception_4c/output_0_split_1
I0403 15:04:19.545011  2616 net.cpp:399] inception_4c/output_inception_4c/output_0_split -> inception_4c/output_inception_4c/output_0_split_2
I0403 15:04:19.545032  2616 net.cpp:399] inception_4c/output_inception_4c/output_0_split -> inception_4c/output_inception_4c/output_0_split_3
I0403 15:04:19.545128  2616 net.cpp:141] Setting up inception_4c/output_inception_4c/output_0_split
I0403 15:04:19.545156  2616 net.cpp:148] Top shape: 24 512 14 14 (2408448)
I0403 15:04:19.545173  2616 net.cpp:148] Top shape: 24 512 14 14 (2408448)
I0403 15:04:19.545189  2616 net.cpp:148] Top shape: 24 512 14 14 (2408448)
I0403 15:04:19.545205  2616 net.cpp:148] Top shape: 24 512 14 14 (2408448)
I0403 15:04:19.545228  2616 net.cpp:156] Memory required for data: 1111182624
I0403 15:04:19.545243  2616 layer_factory.hpp:77] Creating layer inception_4d/1x1
I0403 15:04:19.545266  2616 net.cpp:91] Creating Layer inception_4d/1x1
I0403 15:04:19.545285  2616 net.cpp:425] inception_4d/1x1 <- inception_4c/output_inception_4c/output_0_split_0
I0403 15:04:19.545305  2616 net.cpp:399] inception_4d/1x1 -> inception_4d/1x1
I0403 15:04:19.546696  2616 net.cpp:141] Setting up inception_4d/1x1
I0403 15:04:19.546725  2616 net.cpp:148] Top shape: 24 112 14 14 (526848)
I0403 15:04:19.546739  2616 net.cpp:156] Memory required for data: 1113290016
I0403 15:04:19.546757  2616 layer_factory.hpp:77] Creating layer inception_4d/relu_1x1
I0403 15:04:19.546778  2616 net.cpp:91] Creating Layer inception_4d/relu_1x1
I0403 15:04:19.546794  2616 net.cpp:425] inception_4d/relu_1x1 <- inception_4d/1x1
I0403 15:04:19.546813  2616 net.cpp:386] inception_4d/relu_1x1 -> inception_4d/1x1 (in-place)
I0403 15:04:19.546998  2616 net.cpp:141] Setting up inception_4d/relu_1x1
I0403 15:04:19.547021  2616 net.cpp:148] Top shape: 24 112 14 14 (526848)
I0403 15:04:19.547036  2616 net.cpp:156] Memory required for data: 1115397408
I0403 15:04:19.547051  2616 layer_factory.hpp:77] Creating layer inception_4d/3x3_reduce
I0403 15:04:19.547087  2616 net.cpp:91] Creating Layer inception_4d/3x3_reduce
I0403 15:04:19.547106  2616 net.cpp:425] inception_4d/3x3_reduce <- inception_4c/output_inception_4c/output_0_split_1
I0403 15:04:19.547127  2616 net.cpp:399] inception_4d/3x3_reduce -> inception_4d/3x3_reduce
I0403 15:04:19.548642  2616 net.cpp:141] Setting up inception_4d/3x3_reduce
I0403 15:04:19.548669  2616 net.cpp:148] Top shape: 24 144 14 14 (677376)
I0403 15:04:19.548686  2616 net.cpp:156] Memory required for data: 1118106912
I0403 15:04:19.548704  2616 layer_factory.hpp:77] Creating layer inception_4d/relu_3x3_reduce
I0403 15:04:19.548725  2616 net.cpp:91] Creating Layer inception_4d/relu_3x3_reduce
I0403 15:04:19.548741  2616 net.cpp:425] inception_4d/relu_3x3_reduce <- inception_4d/3x3_reduce
I0403 15:04:19.548759  2616 net.cpp:386] inception_4d/relu_3x3_reduce -> inception_4d/3x3_reduce (in-place)
I0403 15:04:19.549052  2616 net.cpp:141] Setting up inception_4d/relu_3x3_reduce
I0403 15:04:19.549078  2616 net.cpp:148] Top shape: 24 144 14 14 (677376)
I0403 15:04:19.549093  2616 net.cpp:156] Memory required for data: 1120816416
I0403 15:04:19.549108  2616 layer_factory.hpp:77] Creating layer inception_4d/3x3
I0403 15:04:19.549131  2616 net.cpp:91] Creating Layer inception_4d/3x3
I0403 15:04:19.549149  2616 net.cpp:425] inception_4d/3x3 <- inception_4d/3x3_reduce
I0403 15:04:19.549170  2616 net.cpp:399] inception_4d/3x3 -> inception_4d/3x3
I0403 15:04:19.553449  2616 net.cpp:141] Setting up inception_4d/3x3
I0403 15:04:19.553480  2616 net.cpp:148] Top shape: 24 288 14 14 (1354752)
I0403 15:04:19.553498  2616 net.cpp:156] Memory required for data: 1126235424
I0403 15:04:19.553515  2616 layer_factory.hpp:77] Creating layer inception_4d/relu_3x3
I0403 15:04:19.553534  2616 net.cpp:91] Creating Layer inception_4d/relu_3x3
I0403 15:04:19.553550  2616 net.cpp:425] inception_4d/relu_3x3 <- inception_4d/3x3
I0403 15:04:19.553567  2616 net.cpp:386] inception_4d/relu_3x3 -> inception_4d/3x3 (in-place)
I0403 15:04:19.553752  2616 net.cpp:141] Setting up inception_4d/relu_3x3
I0403 15:04:19.553777  2616 net.cpp:148] Top shape: 24 288 14 14 (1354752)
I0403 15:04:19.553792  2616 net.cpp:156] Memory required for data: 1131654432
I0403 15:04:19.553808  2616 layer_factory.hpp:77] Creating layer inception_4d/5x5_reduce
I0403 15:04:19.553830  2616 net.cpp:91] Creating Layer inception_4d/5x5_reduce
I0403 15:04:19.553848  2616 net.cpp:425] inception_4d/5x5_reduce <- inception_4c/output_inception_4c/output_0_split_2
I0403 15:04:19.553871  2616 net.cpp:399] inception_4d/5x5_reduce -> inception_4d/5x5_reduce
I0403 15:04:19.555016  2616 net.cpp:141] Setting up inception_4d/5x5_reduce
I0403 15:04:19.555045  2616 net.cpp:148] Top shape: 24 32 14 14 (150528)
I0403 15:04:19.555063  2616 net.cpp:156] Memory required for data: 1132256544
I0403 15:04:19.555081  2616 layer_factory.hpp:77] Creating layer inception_4d/relu_5x5_reduce
I0403 15:04:19.555099  2616 net.cpp:91] Creating Layer inception_4d/relu_5x5_reduce
I0403 15:04:19.555116  2616 net.cpp:425] inception_4d/relu_5x5_reduce <- inception_4d/5x5_reduce
I0403 15:04:19.555135  2616 net.cpp:386] inception_4d/relu_5x5_reduce -> inception_4d/5x5_reduce (in-place)
I0403 15:04:19.555327  2616 net.cpp:141] Setting up inception_4d/relu_5x5_reduce
I0403 15:04:19.555352  2616 net.cpp:148] Top shape: 24 32 14 14 (150528)
I0403 15:04:19.555367  2616 net.cpp:156] Memory required for data: 1132858656
I0403 15:04:19.555382  2616 layer_factory.hpp:77] Creating layer inception_4d/5x5
I0403 15:04:19.555404  2616 net.cpp:91] Creating Layer inception_4d/5x5
I0403 15:04:19.555423  2616 net.cpp:425] inception_4d/5x5 <- inception_4d/5x5_reduce
I0403 15:04:19.555444  2616 net.cpp:399] inception_4d/5x5 -> inception_4d/5x5
I0403 15:04:19.556927  2616 net.cpp:141] Setting up inception_4d/5x5
I0403 15:04:19.556956  2616 net.cpp:148] Top shape: 24 64 14 14 (301056)
I0403 15:04:19.556970  2616 net.cpp:156] Memory required for data: 1134062880
I0403 15:04:19.556989  2616 layer_factory.hpp:77] Creating layer inception_4d/relu_5x5
I0403 15:04:19.557024  2616 net.cpp:91] Creating Layer inception_4d/relu_5x5
I0403 15:04:19.557041  2616 net.cpp:425] inception_4d/relu_5x5 <- inception_4d/5x5
I0403 15:04:19.557062  2616 net.cpp:386] inception_4d/relu_5x5 -> inception_4d/5x5 (in-place)
I0403 15:04:19.557370  2616 net.cpp:141] Setting up inception_4d/relu_5x5
I0403 15:04:19.557409  2616 net.cpp:148] Top shape: 24 64 14 14 (301056)
I0403 15:04:19.557423  2616 net.cpp:156] Memory required for data: 1135267104
I0403 15:04:19.557438  2616 layer_factory.hpp:77] Creating layer inception_4d/pool
I0403 15:04:19.557468  2616 net.cpp:91] Creating Layer inception_4d/pool
I0403 15:04:19.557485  2616 net.cpp:425] inception_4d/pool <- inception_4c/output_inception_4c/output_0_split_3
I0403 15:04:19.557510  2616 net.cpp:399] inception_4d/pool -> inception_4d/pool
I0403 15:04:19.557579  2616 net.cpp:141] Setting up inception_4d/pool
I0403 15:04:19.557602  2616 net.cpp:148] Top shape: 24 512 14 14 (2408448)
I0403 15:04:19.557617  2616 net.cpp:156] Memory required for data: 1144900896
I0403 15:04:19.557632  2616 layer_factory.hpp:77] Creating layer inception_4d/pool_proj
I0403 15:04:19.557657  2616 net.cpp:91] Creating Layer inception_4d/pool_proj
I0403 15:04:19.557674  2616 net.cpp:425] inception_4d/pool_proj <- inception_4d/pool
I0403 15:04:19.557693  2616 net.cpp:399] inception_4d/pool_proj -> inception_4d/pool_proj
I0403 15:04:19.559434  2616 net.cpp:141] Setting up inception_4d/pool_proj
I0403 15:04:19.559464  2616 net.cpp:148] Top shape: 24 64 14 14 (301056)
I0403 15:04:19.559480  2616 net.cpp:156] Memory required for data: 1146105120
I0403 15:04:19.559499  2616 layer_factory.hpp:77] Creating layer inception_4d/relu_pool_proj
I0403 15:04:19.559516  2616 net.cpp:91] Creating Layer inception_4d/relu_pool_proj
I0403 15:04:19.559532  2616 net.cpp:425] inception_4d/relu_pool_proj <- inception_4d/pool_proj
I0403 15:04:19.559551  2616 net.cpp:386] inception_4d/relu_pool_proj -> inception_4d/pool_proj (in-place)
I0403 15:04:19.559733  2616 net.cpp:141] Setting up inception_4d/relu_pool_proj
I0403 15:04:19.559758  2616 net.cpp:148] Top shape: 24 64 14 14 (301056)
I0403 15:04:19.559772  2616 net.cpp:156] Memory required for data: 1147309344
I0403 15:04:19.559787  2616 layer_factory.hpp:77] Creating layer inception_4d/output
I0403 15:04:19.559804  2616 net.cpp:91] Creating Layer inception_4d/output
I0403 15:04:19.559819  2616 net.cpp:425] inception_4d/output <- inception_4d/1x1
I0403 15:04:19.559836  2616 net.cpp:425] inception_4d/output <- inception_4d/3x3
I0403 15:04:19.559852  2616 net.cpp:425] inception_4d/output <- inception_4d/5x5
I0403 15:04:19.559869  2616 net.cpp:425] inception_4d/output <- inception_4d/pool_proj
I0403 15:04:19.559888  2616 net.cpp:399] inception_4d/output -> inception_4d/output
I0403 15:04:19.559934  2616 net.cpp:141] Setting up inception_4d/output
I0403 15:04:19.559960  2616 net.cpp:148] Top shape: 24 528 14 14 (2483712)
I0403 15:04:19.559975  2616 net.cpp:156] Memory required for data: 1157244192
I0403 15:04:19.559990  2616 layer_factory.hpp:77] Creating layer inception_4d/output_inception_4d/output_0_split
I0403 15:04:19.560009  2616 net.cpp:91] Creating Layer inception_4d/output_inception_4d/output_0_split
I0403 15:04:19.560024  2616 net.cpp:425] inception_4d/output_inception_4d/output_0_split <- inception_4d/output
I0403 15:04:19.560045  2616 net.cpp:399] inception_4d/output_inception_4d/output_0_split -> inception_4d/output_inception_4d/output_0_split_0
I0403 15:04:19.560065  2616 net.cpp:399] inception_4d/output_inception_4d/output_0_split -> inception_4d/output_inception_4d/output_0_split_1
I0403 15:04:19.560086  2616 net.cpp:399] inception_4d/output_inception_4d/output_0_split -> inception_4d/output_inception_4d/output_0_split_2
I0403 15:04:19.560107  2616 net.cpp:399] inception_4d/output_inception_4d/output_0_split -> inception_4d/output_inception_4d/output_0_split_3
I0403 15:04:19.560127  2616 net.cpp:399] inception_4d/output_inception_4d/output_0_split -> inception_4d/output_inception_4d/output_0_split_4
I0403 15:04:19.560236  2616 net.cpp:141] Setting up inception_4d/output_inception_4d/output_0_split
I0403 15:04:19.560271  2616 net.cpp:148] Top shape: 24 528 14 14 (2483712)
I0403 15:04:19.560288  2616 net.cpp:148] Top shape: 24 528 14 14 (2483712)
I0403 15:04:19.560304  2616 net.cpp:148] Top shape: 24 528 14 14 (2483712)
I0403 15:04:19.560320  2616 net.cpp:148] Top shape: 24 528 14 14 (2483712)
I0403 15:04:19.560336  2616 net.cpp:148] Top shape: 24 528 14 14 (2483712)
I0403 15:04:19.560350  2616 net.cpp:156] Memory required for data: 1206918432
I0403 15:04:19.560364  2616 layer_factory.hpp:77] Creating layer loss2/ave_pool
I0403 15:04:19.560384  2616 net.cpp:91] Creating Layer loss2/ave_pool
I0403 15:04:19.560400  2616 net.cpp:425] loss2/ave_pool <- inception_4d/output_inception_4d/output_0_split_0
I0403 15:04:19.560420  2616 net.cpp:399] loss2/ave_pool -> loss2/ave_pool
I0403 15:04:19.560721  2616 net.cpp:141] Setting up loss2/ave_pool
I0403 15:04:19.560750  2616 net.cpp:148] Top shape: 24 528 4 4 (202752)
I0403 15:04:19.560765  2616 net.cpp:156] Memory required for data: 1207729440
I0403 15:04:19.560781  2616 layer_factory.hpp:77] Creating layer loss2/conv
I0403 15:04:19.560801  2616 net.cpp:91] Creating Layer loss2/conv
I0403 15:04:19.560819  2616 net.cpp:425] loss2/conv <- loss2/ave_pool
I0403 15:04:19.560838  2616 net.cpp:399] loss2/conv -> loss2/conv
I0403 15:04:19.562698  2616 net.cpp:141] Setting up loss2/conv
I0403 15:04:19.562726  2616 net.cpp:148] Top shape: 24 128 4 4 (49152)
I0403 15:04:19.562741  2616 net.cpp:156] Memory required for data: 1207926048
I0403 15:04:19.562759  2616 layer_factory.hpp:77] Creating layer loss2/relu_conv
I0403 15:04:19.562782  2616 net.cpp:91] Creating Layer loss2/relu_conv
I0403 15:04:19.562798  2616 net.cpp:425] loss2/relu_conv <- loss2/conv
I0403 15:04:19.562816  2616 net.cpp:386] loss2/relu_conv -> loss2/conv (in-place)
I0403 15:04:19.563092  2616 net.cpp:141] Setting up loss2/relu_conv
I0403 15:04:19.563118  2616 net.cpp:148] Top shape: 24 128 4 4 (49152)
I0403 15:04:19.563133  2616 net.cpp:156] Memory required for data: 1208122656
I0403 15:04:19.563148  2616 layer_factory.hpp:77] Creating layer loss2/fc
I0403 15:04:19.563169  2616 net.cpp:91] Creating Layer loss2/fc
I0403 15:04:19.563187  2616 net.cpp:425] loss2/fc <- loss2/conv
I0403 15:04:19.563206  2616 net.cpp:399] loss2/fc -> loss2/fc
I0403 15:04:19.580530  2616 net.cpp:141] Setting up loss2/fc
I0403 15:04:19.580565  2616 net.cpp:148] Top shape: 24 1024 (24576)
I0403 15:04:19.580581  2616 net.cpp:156] Memory required for data: 1208220960
I0403 15:04:19.580600  2616 layer_factory.hpp:77] Creating layer loss2/relu_fc
I0403 15:04:19.580618  2616 net.cpp:91] Creating Layer loss2/relu_fc
I0403 15:04:19.580634  2616 net.cpp:425] loss2/relu_fc <- loss2/fc
I0403 15:04:19.580656  2616 net.cpp:386] loss2/relu_fc -> loss2/fc (in-place)
I0403 15:04:19.580950  2616 net.cpp:141] Setting up loss2/relu_fc
I0403 15:04:19.580978  2616 net.cpp:148] Top shape: 24 1024 (24576)
I0403 15:04:19.580994  2616 net.cpp:156] Memory required for data: 1208319264
I0403 15:04:19.581009  2616 layer_factory.hpp:77] Creating layer loss2/drop_fc
I0403 15:04:19.581027  2616 net.cpp:91] Creating Layer loss2/drop_fc
I0403 15:04:19.581043  2616 net.cpp:425] loss2/drop_fc <- loss2/fc
I0403 15:04:19.581063  2616 net.cpp:386] loss2/drop_fc -> loss2/fc (in-place)
I0403 15:04:19.581112  2616 net.cpp:141] Setting up loss2/drop_fc
I0403 15:04:19.581135  2616 net.cpp:148] Top shape: 24 1024 (24576)
I0403 15:04:19.581149  2616 net.cpp:156] Memory required for data: 1208417568
I0403 15:04:19.581164  2616 layer_factory.hpp:77] Creating layer loss2/classifier_plantvillage
I0403 15:04:19.581187  2616 net.cpp:91] Creating Layer loss2/classifier_plantvillage
I0403 15:04:19.581204  2616 net.cpp:425] loss2/classifier_plantvillage <- loss2/fc
I0403 15:04:19.581233  2616 net.cpp:399] loss2/classifier_plantvillage -> loss2/classifier_plantvillage
I0403 15:04:19.581635  2616 net.cpp:141] Setting up loss2/classifier_plantvillage
I0403 15:04:19.581660  2616 net.cpp:148] Top shape: 24 38 (912)
I0403 15:04:19.581692  2616 net.cpp:156] Memory required for data: 1208421216
I0403 15:04:19.581712  2616 layer_factory.hpp:77] Creating layer loss2/classifier_plantvillage_loss2/classifier_plantvillage_0_split
I0403 15:04:19.581735  2616 net.cpp:91] Creating Layer loss2/classifier_plantvillage_loss2/classifier_plantvillage_0_split
I0403 15:04:19.581753  2616 net.cpp:425] loss2/classifier_plantvillage_loss2/classifier_plantvillage_0_split <- loss2/classifier_plantvillage
I0403 15:04:19.581770  2616 net.cpp:399] loss2/classifier_plantvillage_loss2/classifier_plantvillage_0_split -> loss2/classifier_plantvillage_loss2/classifier_plantvillage_0_split_0
I0403 15:04:19.581791  2616 net.cpp:399] loss2/classifier_plantvillage_loss2/classifier_plantvillage_0_split -> loss2/classifier_plantvillage_loss2/classifier_plantvillage_0_split_1
I0403 15:04:19.581814  2616 net.cpp:399] loss2/classifier_plantvillage_loss2/classifier_plantvillage_0_split -> loss2/classifier_plantvillage_loss2/classifier_plantvillage_0_split_2
I0403 15:04:19.581892  2616 net.cpp:141] Setting up loss2/classifier_plantvillage_loss2/classifier_plantvillage_0_split
I0403 15:04:19.581917  2616 net.cpp:148] Top shape: 24 38 (912)
I0403 15:04:19.581933  2616 net.cpp:148] Top shape: 24 38 (912)
I0403 15:04:19.581948  2616 net.cpp:148] Top shape: 24 38 (912)
I0403 15:04:19.581962  2616 net.cpp:156] Memory required for data: 1208432160
I0403 15:04:19.581977  2616 layer_factory.hpp:77] Creating layer inception_4e/1x1
I0403 15:04:19.581997  2616 net.cpp:91] Creating Layer inception_4e/1x1
I0403 15:04:19.582015  2616 net.cpp:425] inception_4e/1x1 <- inception_4d/output_inception_4d/output_0_split_1
I0403 15:04:19.582036  2616 net.cpp:399] inception_4e/1x1 -> inception_4e/1x1
I0403 15:04:19.583864  2616 net.cpp:141] Setting up inception_4e/1x1
I0403 15:04:19.583892  2616 net.cpp:148] Top shape: 24 256 14 14 (1204224)
I0403 15:04:19.583909  2616 net.cpp:156] Memory required for data: 1213249056
I0403 15:04:19.583927  2616 layer_factory.hpp:77] Creating layer inception_4e/relu_1x1
I0403 15:04:19.583947  2616 net.cpp:91] Creating Layer inception_4e/relu_1x1
I0403 15:04:19.583964  2616 net.cpp:425] inception_4e/relu_1x1 <- inception_4e/1x1
I0403 15:04:19.583981  2616 net.cpp:386] inception_4e/relu_1x1 -> inception_4e/1x1 (in-place)
I0403 15:04:19.584288  2616 net.cpp:141] Setting up inception_4e/relu_1x1
I0403 15:04:19.584314  2616 net.cpp:148] Top shape: 24 256 14 14 (1204224)
I0403 15:04:19.584329  2616 net.cpp:156] Memory required for data: 1218065952
I0403 15:04:19.584344  2616 layer_factory.hpp:77] Creating layer inception_4e/3x3_reduce
I0403 15:04:19.584367  2616 net.cpp:91] Creating Layer inception_4e/3x3_reduce
I0403 15:04:19.584385  2616 net.cpp:425] inception_4e/3x3_reduce <- inception_4d/output_inception_4d/output_0_split_2
I0403 15:04:19.584408  2616 net.cpp:399] inception_4e/3x3_reduce -> inception_4e/3x3_reduce
I0403 15:04:19.586531  2616 net.cpp:141] Setting up inception_4e/3x3_reduce
I0403 15:04:19.586560  2616 net.cpp:148] Top shape: 24 160 14 14 (752640)
I0403 15:04:19.586576  2616 net.cpp:156] Memory required for data: 1221076512
I0403 15:04:19.586596  2616 layer_factory.hpp:77] Creating layer inception_4e/relu_3x3_reduce
I0403 15:04:19.586614  2616 net.cpp:91] Creating Layer inception_4e/relu_3x3_reduce
I0403 15:04:19.586634  2616 net.cpp:425] inception_4e/relu_3x3_reduce <- inception_4e/3x3_reduce
I0403 15:04:19.586652  2616 net.cpp:386] inception_4e/relu_3x3_reduce -> inception_4e/3x3_reduce (in-place)
I0403 15:04:19.586838  2616 net.cpp:141] Setting up inception_4e/relu_3x3_reduce
I0403 15:04:19.586863  2616 net.cpp:148] Top shape: 24 160 14 14 (752640)
I0403 15:04:19.586879  2616 net.cpp:156] Memory required for data: 1224087072
I0403 15:04:19.586894  2616 layer_factory.hpp:77] Creating layer inception_4e/3x3
I0403 15:04:19.586916  2616 net.cpp:91] Creating Layer inception_4e/3x3
I0403 15:04:19.586933  2616 net.cpp:425] inception_4e/3x3 <- inception_4e/3x3_reduce
I0403 15:04:19.586956  2616 net.cpp:399] inception_4e/3x3 -> inception_4e/3x3
I0403 15:04:19.591979  2616 net.cpp:141] Setting up inception_4e/3x3
I0403 15:04:19.592021  2616 net.cpp:148] Top shape: 24 320 14 14 (1505280)
I0403 15:04:19.592038  2616 net.cpp:156] Memory required for data: 1230108192
I0403 15:04:19.592056  2616 layer_factory.hpp:77] Creating layer inception_4e/relu_3x3
I0403 15:04:19.592077  2616 net.cpp:91] Creating Layer inception_4e/relu_3x3
I0403 15:04:19.592095  2616 net.cpp:425] inception_4e/relu_3x3 <- inception_4e/3x3
I0403 15:04:19.592113  2616 net.cpp:386] inception_4e/relu_3x3 -> inception_4e/3x3 (in-place)
I0403 15:04:19.592432  2616 net.cpp:141] Setting up inception_4e/relu_3x3
I0403 15:04:19.592458  2616 net.cpp:148] Top shape: 24 320 14 14 (1505280)
I0403 15:04:19.592473  2616 net.cpp:156] Memory required for data: 1236129312
I0403 15:04:19.592489  2616 layer_factory.hpp:77] Creating layer inception_4e/5x5_reduce
I0403 15:04:19.592512  2616 net.cpp:91] Creating Layer inception_4e/5x5_reduce
I0403 15:04:19.592530  2616 net.cpp:425] inception_4e/5x5_reduce <- inception_4d/output_inception_4d/output_0_split_3
I0403 15:04:19.592550  2616 net.cpp:399] inception_4e/5x5_reduce -> inception_4e/5x5_reduce
I0403 15:04:19.593619  2616 net.cpp:141] Setting up inception_4e/5x5_reduce
I0403 15:04:19.593647  2616 net.cpp:148] Top shape: 24 32 14 14 (150528)
I0403 15:04:19.593662  2616 net.cpp:156] Memory required for data: 1236731424
I0403 15:04:19.593683  2616 layer_factory.hpp:77] Creating layer inception_4e/relu_5x5_reduce
I0403 15:04:19.593701  2616 net.cpp:91] Creating Layer inception_4e/relu_5x5_reduce
I0403 15:04:19.593716  2616 net.cpp:425] inception_4e/relu_5x5_reduce <- inception_4e/5x5_reduce
I0403 15:04:19.593736  2616 net.cpp:386] inception_4e/relu_5x5_reduce -> inception_4e/5x5_reduce (in-place)
I0403 15:04:19.594033  2616 net.cpp:141] Setting up inception_4e/relu_5x5_reduce
I0403 15:04:19.594060  2616 net.cpp:148] Top shape: 24 32 14 14 (150528)
I0403 15:04:19.594075  2616 net.cpp:156] Memory required for data: 1237333536
I0403 15:04:19.594091  2616 layer_factory.hpp:77] Creating layer inception_4e/5x5
I0403 15:04:19.594130  2616 net.cpp:91] Creating Layer inception_4e/5x5
I0403 15:04:19.594149  2616 net.cpp:425] inception_4e/5x5 <- inception_4e/5x5_reduce
I0403 15:04:19.594169  2616 net.cpp:399] inception_4e/5x5 -> inception_4e/5x5
I0403 15:04:19.596089  2616 net.cpp:141] Setting up inception_4e/5x5
I0403 15:04:19.596119  2616 net.cpp:148] Top shape: 24 128 14 14 (602112)
I0403 15:04:19.596137  2616 net.cpp:156] Memory required for data: 1239741984
I0403 15:04:19.596156  2616 layer_factory.hpp:77] Creating layer inception_4e/relu_5x5
I0403 15:04:19.596175  2616 net.cpp:91] Creating Layer inception_4e/relu_5x5
I0403 15:04:19.596192  2616 net.cpp:425] inception_4e/relu_5x5 <- inception_4e/5x5
I0403 15:04:19.596220  2616 net.cpp:386] inception_4e/relu_5x5 -> inception_4e/5x5 (in-place)
I0403 15:04:19.596424  2616 net.cpp:141] Setting up inception_4e/relu_5x5
I0403 15:04:19.596451  2616 net.cpp:148] Top shape: 24 128 14 14 (602112)
I0403 15:04:19.596465  2616 net.cpp:156] Memory required for data: 1242150432
I0403 15:04:19.596482  2616 layer_factory.hpp:77] Creating layer inception_4e/pool
I0403 15:04:19.596503  2616 net.cpp:91] Creating Layer inception_4e/pool
I0403 15:04:19.596520  2616 net.cpp:425] inception_4e/pool <- inception_4d/output_inception_4d/output_0_split_4
I0403 15:04:19.596539  2616 net.cpp:399] inception_4e/pool -> inception_4e/pool
I0403 15:04:19.596612  2616 net.cpp:141] Setting up inception_4e/pool
I0403 15:04:19.596637  2616 net.cpp:148] Top shape: 24 528 14 14 (2483712)
I0403 15:04:19.596652  2616 net.cpp:156] Memory required for data: 1252085280
I0403 15:04:19.596668  2616 layer_factory.hpp:77] Creating layer inception_4e/pool_proj
I0403 15:04:19.596691  2616 net.cpp:91] Creating Layer inception_4e/pool_proj
I0403 15:04:19.596709  2616 net.cpp:425] inception_4e/pool_proj <- inception_4e/pool
I0403 15:04:19.596731  2616 net.cpp:399] inception_4e/pool_proj -> inception_4e/pool_proj
I0403 15:04:19.598274  2616 net.cpp:141] Setting up inception_4e/pool_proj
I0403 15:04:19.598317  2616 net.cpp:148] Top shape: 24 128 14 14 (602112)
I0403 15:04:19.598335  2616 net.cpp:156] Memory required for data: 1254493728
I0403 15:04:19.598354  2616 layer_factory.hpp:77] Creating layer inception_4e/relu_pool_proj
I0403 15:04:19.598373  2616 net.cpp:91] Creating Layer inception_4e/relu_pool_proj
I0403 15:04:19.598390  2616 net.cpp:425] inception_4e/relu_pool_proj <- inception_4e/pool_proj
I0403 15:04:19.598407  2616 net.cpp:386] inception_4e/relu_pool_proj -> inception_4e/pool_proj (in-place)
I0403 15:04:19.598706  2616 net.cpp:141] Setting up inception_4e/relu_pool_proj
I0403 15:04:19.598736  2616 net.cpp:148] Top shape: 24 128 14 14 (602112)
I0403 15:04:19.598752  2616 net.cpp:156] Memory required for data: 1256902176
I0403 15:04:19.598767  2616 layer_factory.hpp:77] Creating layer inception_4e/output
I0403 15:04:19.598785  2616 net.cpp:91] Creating Layer inception_4e/output
I0403 15:04:19.598801  2616 net.cpp:425] inception_4e/output <- inception_4e/1x1
I0403 15:04:19.598819  2616 net.cpp:425] inception_4e/output <- inception_4e/3x3
I0403 15:04:19.598835  2616 net.cpp:425] inception_4e/output <- inception_4e/5x5
I0403 15:04:19.598852  2616 net.cpp:425] inception_4e/output <- inception_4e/pool_proj
I0403 15:04:19.598871  2616 net.cpp:399] inception_4e/output -> inception_4e/output
I0403 15:04:19.598924  2616 net.cpp:141] Setting up inception_4e/output
I0403 15:04:19.598949  2616 net.cpp:148] Top shape: 24 832 14 14 (3913728)
I0403 15:04:19.598964  2616 net.cpp:156] Memory required for data: 1272557088
I0403 15:04:19.598979  2616 layer_factory.hpp:77] Creating layer pool4/3x3_s2
I0403 15:04:19.599000  2616 net.cpp:91] Creating Layer pool4/3x3_s2
I0403 15:04:19.599019  2616 net.cpp:425] pool4/3x3_s2 <- inception_4e/output
I0403 15:04:19.599037  2616 net.cpp:399] pool4/3x3_s2 -> pool4/3x3_s2
I0403 15:04:19.599109  2616 net.cpp:141] Setting up pool4/3x3_s2
I0403 15:04:19.599134  2616 net.cpp:148] Top shape: 24 832 7 7 (978432)
I0403 15:04:19.599149  2616 net.cpp:156] Memory required for data: 1276470816
I0403 15:04:19.599165  2616 layer_factory.hpp:77] Creating layer pool4/3x3_s2_pool4/3x3_s2_0_split
I0403 15:04:19.599184  2616 net.cpp:91] Creating Layer pool4/3x3_s2_pool4/3x3_s2_0_split
I0403 15:04:19.599200  2616 net.cpp:425] pool4/3x3_s2_pool4/3x3_s2_0_split <- pool4/3x3_s2
I0403 15:04:19.599230  2616 net.cpp:399] pool4/3x3_s2_pool4/3x3_s2_0_split -> pool4/3x3_s2_pool4/3x3_s2_0_split_0
I0403 15:04:19.599252  2616 net.cpp:399] pool4/3x3_s2_pool4/3x3_s2_0_split -> pool4/3x3_s2_pool4/3x3_s2_0_split_1
I0403 15:04:19.599274  2616 net.cpp:399] pool4/3x3_s2_pool4/3x3_s2_0_split -> pool4/3x3_s2_pool4/3x3_s2_0_split_2
I0403 15:04:19.599297  2616 net.cpp:399] pool4/3x3_s2_pool4/3x3_s2_0_split -> pool4/3x3_s2_pool4/3x3_s2_0_split_3
I0403 15:04:19.599392  2616 net.cpp:141] Setting up pool4/3x3_s2_pool4/3x3_s2_0_split
I0403 15:04:19.599419  2616 net.cpp:148] Top shape: 24 832 7 7 (978432)
I0403 15:04:19.599437  2616 net.cpp:148] Top shape: 24 832 7 7 (978432)
I0403 15:04:19.599454  2616 net.cpp:148] Top shape: 24 832 7 7 (978432)
I0403 15:04:19.599470  2616 net.cpp:148] Top shape: 24 832 7 7 (978432)
I0403 15:04:19.599488  2616 net.cpp:156] Memory required for data: 1292125728
I0403 15:04:19.599503  2616 layer_factory.hpp:77] Creating layer inception_5a/1x1
I0403 15:04:19.599525  2616 net.cpp:91] Creating Layer inception_5a/1x1
I0403 15:04:19.599544  2616 net.cpp:425] inception_5a/1x1 <- pool4/3x3_s2_pool4/3x3_s2_0_split_0
I0403 15:04:19.599565  2616 net.cpp:399] inception_5a/1x1 -> inception_5a/1x1
I0403 15:04:19.602519  2616 net.cpp:141] Setting up inception_5a/1x1
I0403 15:04:19.602550  2616 net.cpp:148] Top shape: 24 256 7 7 (301056)
I0403 15:04:19.602566  2616 net.cpp:156] Memory required for data: 1293329952
I0403 15:04:19.602586  2616 layer_factory.hpp:77] Creating layer inception_5a/relu_1x1
I0403 15:04:19.602604  2616 net.cpp:91] Creating Layer inception_5a/relu_1x1
I0403 15:04:19.602622  2616 net.cpp:425] inception_5a/relu_1x1 <- inception_5a/1x1
I0403 15:04:19.602641  2616 net.cpp:386] inception_5a/relu_1x1 -> inception_5a/1x1 (in-place)
I0403 15:04:19.602965  2616 net.cpp:141] Setting up inception_5a/relu_1x1
I0403 15:04:19.602993  2616 net.cpp:148] Top shape: 24 256 7 7 (301056)
I0403 15:04:19.603008  2616 net.cpp:156] Memory required for data: 1294534176
I0403 15:04:19.603024  2616 layer_factory.hpp:77] Creating layer inception_5a/3x3_reduce
I0403 15:04:19.603047  2616 net.cpp:91] Creating Layer inception_5a/3x3_reduce
I0403 15:04:19.603066  2616 net.cpp:425] inception_5a/3x3_reduce <- pool4/3x3_s2_pool4/3x3_s2_0_split_1
I0403 15:04:19.603090  2616 net.cpp:399] inception_5a/3x3_reduce -> inception_5a/3x3_reduce
I0403 15:04:19.605633  2616 net.cpp:141] Setting up inception_5a/3x3_reduce
I0403 15:04:19.605664  2616 net.cpp:148] Top shape: 24 160 7 7 (188160)
I0403 15:04:19.605682  2616 net.cpp:156] Memory required for data: 1295286816
I0403 15:04:19.605702  2616 layer_factory.hpp:77] Creating layer inception_5a/relu_3x3_reduce
I0403 15:04:19.605720  2616 net.cpp:91] Creating Layer inception_5a/relu_3x3_reduce
I0403 15:04:19.605737  2616 net.cpp:425] inception_5a/relu_3x3_reduce <- inception_5a/3x3_reduce
I0403 15:04:19.605756  2616 net.cpp:386] inception_5a/relu_3x3_reduce -> inception_5a/3x3_reduce (in-place)
I0403 15:04:19.605950  2616 net.cpp:141] Setting up inception_5a/relu_3x3_reduce
I0403 15:04:19.605978  2616 net.cpp:148] Top shape: 24 160 7 7 (188160)
I0403 15:04:19.605994  2616 net.cpp:156] Memory required for data: 1296039456
I0403 15:04:19.606010  2616 layer_factory.hpp:77] Creating layer inception_5a/3x3
I0403 15:04:19.606034  2616 net.cpp:91] Creating Layer inception_5a/3x3
I0403 15:04:19.606051  2616 net.cpp:425] inception_5a/3x3 <- inception_5a/3x3_reduce
I0403 15:04:19.606071  2616 net.cpp:399] inception_5a/3x3 -> inception_5a/3x3
I0403 15:04:19.611280  2616 net.cpp:141] Setting up inception_5a/3x3
I0403 15:04:19.611313  2616 net.cpp:148] Top shape: 24 320 7 7 (376320)
I0403 15:04:19.611330  2616 net.cpp:156] Memory required for data: 1297544736
I0403 15:04:19.611349  2616 layer_factory.hpp:77] Creating layer inception_5a/relu_3x3
I0403 15:04:19.611368  2616 net.cpp:91] Creating Layer inception_5a/relu_3x3
I0403 15:04:19.611385  2616 net.cpp:425] inception_5a/relu_3x3 <- inception_5a/3x3
I0403 15:04:19.611407  2616 net.cpp:386] inception_5a/relu_3x3 -> inception_5a/3x3 (in-place)
I0403 15:04:19.611714  2616 net.cpp:141] Setting up inception_5a/relu_3x3
I0403 15:04:19.611740  2616 net.cpp:148] Top shape: 24 320 7 7 (376320)
I0403 15:04:19.611757  2616 net.cpp:156] Memory required for data: 1299050016
I0403 15:04:19.611773  2616 layer_factory.hpp:77] Creating layer inception_5a/5x5_reduce
I0403 15:04:19.611796  2616 net.cpp:91] Creating Layer inception_5a/5x5_reduce
I0403 15:04:19.611815  2616 net.cpp:425] inception_5a/5x5_reduce <- pool4/3x3_s2_pool4/3x3_s2_0_split_2
I0403 15:04:19.611838  2616 net.cpp:399] inception_5a/5x5_reduce -> inception_5a/5x5_reduce
I0403 15:04:19.613055  2616 net.cpp:141] Setting up inception_5a/5x5_reduce
I0403 15:04:19.613086  2616 net.cpp:148] Top shape: 24 32 7 7 (37632)
I0403 15:04:19.613102  2616 net.cpp:156] Memory required for data: 1299200544
I0403 15:04:19.613122  2616 layer_factory.hpp:77] Creating layer inception_5a/relu_5x5_reduce
I0403 15:04:19.613142  2616 net.cpp:91] Creating Layer inception_5a/relu_5x5_reduce
I0403 15:04:19.613160  2616 net.cpp:425] inception_5a/relu_5x5_reduce <- inception_5a/5x5_reduce
I0403 15:04:19.613178  2616 net.cpp:386] inception_5a/relu_5x5_reduce -> inception_5a/5x5_reduce (in-place)
I0403 15:04:19.613482  2616 net.cpp:141] Setting up inception_5a/relu_5x5_reduce
I0403 15:04:19.613508  2616 net.cpp:148] Top shape: 24 32 7 7 (37632)
I0403 15:04:19.613523  2616 net.cpp:156] Memory required for data: 1299351072
I0403 15:04:19.613539  2616 layer_factory.hpp:77] Creating layer inception_5a/5x5
I0403 15:04:19.613561  2616 net.cpp:91] Creating Layer inception_5a/5x5
I0403 15:04:19.613580  2616 net.cpp:425] inception_5a/5x5 <- inception_5a/5x5_reduce
I0403 15:04:19.613601  2616 net.cpp:399] inception_5a/5x5 -> inception_5a/5x5
I0403 15:04:19.615335  2616 net.cpp:141] Setting up inception_5a/5x5
I0403 15:04:19.615378  2616 net.cpp:148] Top shape: 24 128 7 7 (150528)
I0403 15:04:19.615394  2616 net.cpp:156] Memory required for data: 1299953184
I0403 15:04:19.615412  2616 layer_factory.hpp:77] Creating layer inception_5a/relu_5x5
I0403 15:04:19.615432  2616 net.cpp:91] Creating Layer inception_5a/relu_5x5
I0403 15:04:19.615447  2616 net.cpp:425] inception_5a/relu_5x5 <- inception_5a/5x5
I0403 15:04:19.615468  2616 net.cpp:386] inception_5a/relu_5x5 -> inception_5a/5x5 (in-place)
I0403 15:04:19.615669  2616 net.cpp:141] Setting up inception_5a/relu_5x5
I0403 15:04:19.615694  2616 net.cpp:148] Top shape: 24 128 7 7 (150528)
I0403 15:04:19.615708  2616 net.cpp:156] Memory required for data: 1300555296
I0403 15:04:19.615723  2616 layer_factory.hpp:77] Creating layer inception_5a/pool
I0403 15:04:19.615744  2616 net.cpp:91] Creating Layer inception_5a/pool
I0403 15:04:19.615761  2616 net.cpp:425] inception_5a/pool <- pool4/3x3_s2_pool4/3x3_s2_0_split_3
I0403 15:04:19.615780  2616 net.cpp:399] inception_5a/pool -> inception_5a/pool
I0403 15:04:19.615852  2616 net.cpp:141] Setting up inception_5a/pool
I0403 15:04:19.615880  2616 net.cpp:148] Top shape: 24 832 7 7 (978432)
I0403 15:04:19.615897  2616 net.cpp:156] Memory required for data: 1304469024
I0403 15:04:19.615916  2616 layer_factory.hpp:77] Creating layer inception_5a/pool_proj
I0403 15:04:19.615942  2616 net.cpp:91] Creating Layer inception_5a/pool_proj
I0403 15:04:19.615964  2616 net.cpp:425] inception_5a/pool_proj <- inception_5a/pool
I0403 15:04:19.615985  2616 net.cpp:399] inception_5a/pool_proj -> inception_5a/pool_proj
I0403 15:04:19.618309  2616 net.cpp:141] Setting up inception_5a/pool_proj
I0403 15:04:19.618340  2616 net.cpp:148] Top shape: 24 128 7 7 (150528)
I0403 15:04:19.618357  2616 net.cpp:156] Memory required for data: 1305071136
I0403 15:04:19.618376  2616 layer_factory.hpp:77] Creating layer inception_5a/relu_pool_proj
I0403 15:04:19.618394  2616 net.cpp:91] Creating Layer inception_5a/relu_pool_proj
I0403 15:04:19.618412  2616 net.cpp:425] inception_5a/relu_pool_proj <- inception_5a/pool_proj
I0403 15:04:19.618432  2616 net.cpp:386] inception_5a/relu_pool_proj -> inception_5a/pool_proj (in-place)
I0403 15:04:19.618726  2616 net.cpp:141] Setting up inception_5a/relu_pool_proj
I0403 15:04:19.618755  2616 net.cpp:148] Top shape: 24 128 7 7 (150528)
I0403 15:04:19.618772  2616 net.cpp:156] Memory required for data: 1305673248
I0403 15:04:19.618787  2616 layer_factory.hpp:77] Creating layer inception_5a/output
I0403 15:04:19.618803  2616 net.cpp:91] Creating Layer inception_5a/output
I0403 15:04:19.618819  2616 net.cpp:425] inception_5a/output <- inception_5a/1x1
I0403 15:04:19.618836  2616 net.cpp:425] inception_5a/output <- inception_5a/3x3
I0403 15:04:19.618854  2616 net.cpp:425] inception_5a/output <- inception_5a/5x5
I0403 15:04:19.618870  2616 net.cpp:425] inception_5a/output <- inception_5a/pool_proj
I0403 15:04:19.618886  2616 net.cpp:399] inception_5a/output -> inception_5a/output
I0403 15:04:19.618943  2616 net.cpp:141] Setting up inception_5a/output
I0403 15:04:19.618966  2616 net.cpp:148] Top shape: 24 832 7 7 (978432)
I0403 15:04:19.618981  2616 net.cpp:156] Memory required for data: 1309586976
I0403 15:04:19.618998  2616 layer_factory.hpp:77] Creating layer inception_5a/output_inception_5a/output_0_split
I0403 15:04:19.619019  2616 net.cpp:91] Creating Layer inception_5a/output_inception_5a/output_0_split
I0403 15:04:19.619035  2616 net.cpp:425] inception_5a/output_inception_5a/output_0_split <- inception_5a/output
I0403 15:04:19.619053  2616 net.cpp:399] inception_5a/output_inception_5a/output_0_split -> inception_5a/output_inception_5a/output_0_split_0
I0403 15:04:19.619074  2616 net.cpp:399] inception_5a/output_inception_5a/output_0_split -> inception_5a/output_inception_5a/output_0_split_1
I0403 15:04:19.619094  2616 net.cpp:399] inception_5a/output_inception_5a/output_0_split -> inception_5a/output_inception_5a/output_0_split_2
I0403 15:04:19.619119  2616 net.cpp:399] inception_5a/output_inception_5a/output_0_split -> inception_5a/output_inception_5a/output_0_split_3
I0403 15:04:19.619241  2616 net.cpp:141] Setting up inception_5a/output_inception_5a/output_0_split
I0403 15:04:19.619266  2616 net.cpp:148] Top shape: 24 832 7 7 (978432)
I0403 15:04:19.619282  2616 net.cpp:148] Top shape: 24 832 7 7 (978432)
I0403 15:04:19.619297  2616 net.cpp:148] Top shape: 24 832 7 7 (978432)
I0403 15:04:19.619314  2616 net.cpp:148] Top shape: 24 832 7 7 (978432)
I0403 15:04:19.619328  2616 net.cpp:156] Memory required for data: 1325241888
I0403 15:04:19.619343  2616 layer_factory.hpp:77] Creating layer inception_5b/1x1
I0403 15:04:19.619364  2616 net.cpp:91] Creating Layer inception_5b/1x1
I0403 15:04:19.619382  2616 net.cpp:425] inception_5b/1x1 <- inception_5a/output_inception_5a/output_0_split_0
I0403 15:04:19.619403  2616 net.cpp:399] inception_5b/1x1 -> inception_5b/1x1
I0403 15:04:19.623188  2616 net.cpp:141] Setting up inception_5b/1x1
I0403 15:04:19.623225  2616 net.cpp:148] Top shape: 24 384 7 7 (451584)
I0403 15:04:19.623244  2616 net.cpp:156] Memory required for data: 1327048224
I0403 15:04:19.623263  2616 layer_factory.hpp:77] Creating layer inception_5b/relu_1x1
I0403 15:04:19.623282  2616 net.cpp:91] Creating Layer inception_5b/relu_1x1
I0403 15:04:19.623298  2616 net.cpp:425] inception_5b/relu_1x1 <- inception_5b/1x1
I0403 15:04:19.623317  2616 net.cpp:386] inception_5b/relu_1x1 -> inception_5b/1x1 (in-place)
I0403 15:04:19.623625  2616 net.cpp:141] Setting up inception_5b/relu_1x1
I0403 15:04:19.623653  2616 net.cpp:148] Top shape: 24 384 7 7 (451584)
I0403 15:04:19.623669  2616 net.cpp:156] Memory required for data: 1328854560
I0403 15:04:19.623685  2616 layer_factory.hpp:77] Creating layer inception_5b/3x3_reduce
I0403 15:04:19.623705  2616 net.cpp:91] Creating Layer inception_5b/3x3_reduce
I0403 15:04:19.623723  2616 net.cpp:425] inception_5b/3x3_reduce <- inception_5a/output_inception_5a/output_0_split_1
I0403 15:04:19.623745  2616 net.cpp:399] inception_5b/3x3_reduce -> inception_5b/3x3_reduce
I0403 15:04:19.626435  2616 net.cpp:141] Setting up inception_5b/3x3_reduce
I0403 15:04:19.626464  2616 net.cpp:148] Top shape: 24 192 7 7 (225792)
I0403 15:04:19.626482  2616 net.cpp:156] Memory required for data: 1329757728
I0403 15:04:19.626499  2616 layer_factory.hpp:77] Creating layer inception_5b/relu_3x3_reduce
I0403 15:04:19.626518  2616 net.cpp:91] Creating Layer inception_5b/relu_3x3_reduce
I0403 15:04:19.626533  2616 net.cpp:425] inception_5b/relu_3x3_reduce <- inception_5b/3x3_reduce
I0403 15:04:19.626552  2616 net.cpp:386] inception_5b/relu_3x3_reduce -> inception_5b/3x3_reduce (in-place)
I0403 15:04:19.626736  2616 net.cpp:141] Setting up inception_5b/relu_3x3_reduce
I0403 15:04:19.626760  2616 net.cpp:148] Top shape: 24 192 7 7 (225792)
I0403 15:04:19.626775  2616 net.cpp:156] Memory required for data: 1330660896
I0403 15:04:19.626790  2616 layer_factory.hpp:77] Creating layer inception_5b/3x3
I0403 15:04:19.626811  2616 net.cpp:91] Creating Layer inception_5b/3x3
I0403 15:04:19.626828  2616 net.cpp:425] inception_5b/3x3 <- inception_5b/3x3_reduce
I0403 15:04:19.626850  2616 net.cpp:399] inception_5b/3x3 -> inception_5b/3x3
I0403 15:04:19.633441  2616 net.cpp:141] Setting up inception_5b/3x3
I0403 15:04:19.633471  2616 net.cpp:148] Top shape: 24 384 7 7 (451584)
I0403 15:04:19.633487  2616 net.cpp:156] Memory required for data: 1332467232
I0403 15:04:19.633507  2616 layer_factory.hpp:77] Creating layer inception_5b/relu_3x3
I0403 15:04:19.633524  2616 net.cpp:91] Creating Layer inception_5b/relu_3x3
I0403 15:04:19.633541  2616 net.cpp:425] inception_5b/relu_3x3 <- inception_5b/3x3
I0403 15:04:19.633560  2616 net.cpp:386] inception_5b/relu_3x3 -> inception_5b/3x3 (in-place)
I0403 15:04:19.633849  2616 net.cpp:141] Setting up inception_5b/relu_3x3
I0403 15:04:19.633877  2616 net.cpp:148] Top shape: 24 384 7 7 (451584)
I0403 15:04:19.633893  2616 net.cpp:156] Memory required for data: 1334273568
I0403 15:04:19.633908  2616 layer_factory.hpp:77] Creating layer inception_5b/5x5_reduce
I0403 15:04:19.633946  2616 net.cpp:91] Creating Layer inception_5b/5x5_reduce
I0403 15:04:19.633965  2616 net.cpp:425] inception_5b/5x5_reduce <- inception_5a/output_inception_5a/output_0_split_2
I0403 15:04:19.633985  2616 net.cpp:399] inception_5b/5x5_reduce -> inception_5b/5x5_reduce
I0403 15:04:19.635231  2616 net.cpp:141] Setting up inception_5b/5x5_reduce
I0403 15:04:19.635262  2616 net.cpp:148] Top shape: 24 48 7 7 (56448)
I0403 15:04:19.635277  2616 net.cpp:156] Memory required for data: 1334499360
I0403 15:04:19.635295  2616 layer_factory.hpp:77] Creating layer inception_5b/relu_5x5_reduce
I0403 15:04:19.635314  2616 net.cpp:91] Creating Layer inception_5b/relu_5x5_reduce
I0403 15:04:19.635329  2616 net.cpp:425] inception_5b/relu_5x5_reduce <- inception_5b/5x5_reduce
I0403 15:04:19.635346  2616 net.cpp:386] inception_5b/relu_5x5_reduce -> inception_5b/5x5_reduce (in-place)
I0403 15:04:19.635715  2616 net.cpp:141] Setting up inception_5b/relu_5x5_reduce
I0403 15:04:19.635740  2616 net.cpp:148] Top shape: 24 48 7 7 (56448)
I0403 15:04:19.635756  2616 net.cpp:156] Memory required for data: 1334725152
I0403 15:04:19.635771  2616 layer_factory.hpp:77] Creating layer inception_5b/5x5
I0403 15:04:19.635790  2616 net.cpp:91] Creating Layer inception_5b/5x5
I0403 15:04:19.635807  2616 net.cpp:425] inception_5b/5x5 <- inception_5b/5x5_reduce
I0403 15:04:19.635825  2616 net.cpp:399] inception_5b/5x5 -> inception_5b/5x5
I0403 15:04:19.637833  2616 net.cpp:141] Setting up inception_5b/5x5
I0403 15:04:19.637862  2616 net.cpp:148] Top shape: 24 128 7 7 (150528)
I0403 15:04:19.637878  2616 net.cpp:156] Memory required for data: 1335327264
I0403 15:04:19.637897  2616 layer_factory.hpp:77] Creating layer inception_5b/relu_5x5
I0403 15:04:19.637914  2616 net.cpp:91] Creating Layer inception_5b/relu_5x5
I0403 15:04:19.637930  2616 net.cpp:425] inception_5b/relu_5x5 <- inception_5b/5x5
I0403 15:04:19.637950  2616 net.cpp:386] inception_5b/relu_5x5 -> inception_5b/5x5 (in-place)
I0403 15:04:19.638141  2616 net.cpp:141] Setting up inception_5b/relu_5x5
I0403 15:04:19.638165  2616 net.cpp:148] Top shape: 24 128 7 7 (150528)
I0403 15:04:19.638180  2616 net.cpp:156] Memory required for data: 1335929376
I0403 15:04:19.638195  2616 layer_factory.hpp:77] Creating layer inception_5b/pool
I0403 15:04:19.638221  2616 net.cpp:91] Creating Layer inception_5b/pool
I0403 15:04:19.638239  2616 net.cpp:425] inception_5b/pool <- inception_5a/output_inception_5a/output_0_split_3
I0403 15:04:19.638257  2616 net.cpp:399] inception_5b/pool -> inception_5b/pool
I0403 15:04:19.638330  2616 net.cpp:141] Setting up inception_5b/pool
I0403 15:04:19.638355  2616 net.cpp:148] Top shape: 24 832 7 7 (978432)
I0403 15:04:19.638368  2616 net.cpp:156] Memory required for data: 1339843104
I0403 15:04:19.638382  2616 layer_factory.hpp:77] Creating layer inception_5b/pool_proj
I0403 15:04:19.638404  2616 net.cpp:91] Creating Layer inception_5b/pool_proj
I0403 15:04:19.638422  2616 net.cpp:425] inception_5b/pool_proj <- inception_5b/pool
I0403 15:04:19.638442  2616 net.cpp:399] inception_5b/pool_proj -> inception_5b/pool_proj
I0403 15:04:19.640697  2616 net.cpp:141] Setting up inception_5b/pool_proj
I0403 15:04:19.640727  2616 net.cpp:148] Top shape: 24 128 7 7 (150528)
I0403 15:04:19.640743  2616 net.cpp:156] Memory required for data: 1340445216
I0403 15:04:19.640763  2616 layer_factory.hpp:77] Creating layer inception_5b/relu_pool_proj
I0403 15:04:19.640780  2616 net.cpp:91] Creating Layer inception_5b/relu_pool_proj
I0403 15:04:19.640796  2616 net.cpp:425] inception_5b/relu_pool_proj <- inception_5b/pool_proj
I0403 15:04:19.640816  2616 net.cpp:386] inception_5b/relu_pool_proj -> inception_5b/pool_proj (in-place)
I0403 15:04:19.641108  2616 net.cpp:141] Setting up inception_5b/relu_pool_proj
I0403 15:04:19.641135  2616 net.cpp:148] Top shape: 24 128 7 7 (150528)
I0403 15:04:19.641152  2616 net.cpp:156] Memory required for data: 1341047328
I0403 15:04:19.641167  2616 layer_factory.hpp:77] Creating layer inception_5b/output
I0403 15:04:19.641185  2616 net.cpp:91] Creating Layer inception_5b/output
I0403 15:04:19.641221  2616 net.cpp:425] inception_5b/output <- inception_5b/1x1
I0403 15:04:19.641240  2616 net.cpp:425] inception_5b/output <- inception_5b/3x3
I0403 15:04:19.641257  2616 net.cpp:425] inception_5b/output <- inception_5b/5x5
I0403 15:04:19.641273  2616 net.cpp:425] inception_5b/output <- inception_5b/pool_proj
I0403 15:04:19.641289  2616 net.cpp:399] inception_5b/output -> inception_5b/output
I0403 15:04:19.641343  2616 net.cpp:141] Setting up inception_5b/output
I0403 15:04:19.641366  2616 net.cpp:148] Top shape: 24 1024 7 7 (1204224)
I0403 15:04:19.641382  2616 net.cpp:156] Memory required for data: 1345864224
I0403 15:04:19.641396  2616 layer_factory.hpp:77] Creating layer pool5/7x7_s1
I0403 15:04:19.641417  2616 net.cpp:91] Creating Layer pool5/7x7_s1
I0403 15:04:19.641433  2616 net.cpp:425] pool5/7x7_s1 <- inception_5b/output
I0403 15:04:19.641450  2616 net.cpp:399] pool5/7x7_s1 -> pool5/7x7_s1
I0403 15:04:19.641666  2616 net.cpp:141] Setting up pool5/7x7_s1
I0403 15:04:19.641691  2616 net.cpp:148] Top shape: 24 1024 1 1 (24576)
I0403 15:04:19.641705  2616 net.cpp:156] Memory required for data: 1345962528
I0403 15:04:19.641721  2616 layer_factory.hpp:77] Creating layer pool5/drop_7x7_s1
I0403 15:04:19.641737  2616 net.cpp:91] Creating Layer pool5/drop_7x7_s1
I0403 15:04:19.641753  2616 net.cpp:425] pool5/drop_7x7_s1 <- pool5/7x7_s1
I0403 15:04:19.641772  2616 net.cpp:386] pool5/drop_7x7_s1 -> pool5/7x7_s1 (in-place)
I0403 15:04:19.641821  2616 net.cpp:141] Setting up pool5/drop_7x7_s1
I0403 15:04:19.641846  2616 net.cpp:148] Top shape: 24 1024 1 1 (24576)
I0403 15:04:19.641861  2616 net.cpp:156] Memory required for data: 1346060832
I0403 15:04:19.641876  2616 layer_factory.hpp:77] Creating layer loss3/classifier_plantvillage
I0403 15:04:19.641896  2616 net.cpp:91] Creating Layer loss3/classifier_plantvillage
I0403 15:04:19.641911  2616 net.cpp:425] loss3/classifier_plantvillage <- pool5/7x7_s1
I0403 15:04:19.641932  2616 net.cpp:399] loss3/classifier_plantvillage -> loss3/classifier_plantvillage
I0403 15:04:19.642400  2616 net.cpp:141] Setting up loss3/classifier_plantvillage
I0403 15:04:19.642427  2616 net.cpp:148] Top shape: 24 38 (912)
I0403 15:04:19.642443  2616 net.cpp:156] Memory required for data: 1346064480
I0403 15:04:19.642462  2616 layer_factory.hpp:77] Creating layer loss3/classifier_plantvillage_loss3/classifier_plantvillage_0_split
I0403 15:04:19.642495  2616 net.cpp:91] Creating Layer loss3/classifier_plantvillage_loss3/classifier_plantvillage_0_split
I0403 15:04:19.642513  2616 net.cpp:425] loss3/classifier_plantvillage_loss3/classifier_plantvillage_0_split <- loss3/classifier_plantvillage
I0403 15:04:19.642531  2616 net.cpp:399] loss3/classifier_plantvillage_loss3/classifier_plantvillage_0_split -> loss3/classifier_plantvillage_loss3/classifier_plantvillage_0_split_0
I0403 15:04:19.642552  2616 net.cpp:399] loss3/classifier_plantvillage_loss3/classifier_plantvillage_0_split -> loss3/classifier_plantvillage_loss3/classifier_plantvillage_0_split_1
I0403 15:04:19.642581  2616 net.cpp:399] loss3/classifier_plantvillage_loss3/classifier_plantvillage_0_split -> loss3/classifier_plantvillage_loss3/classifier_plantvillage_0_split_2
I0403 15:04:19.642606  2616 net.cpp:399] loss3/classifier_plantvillage_loss3/classifier_plantvillage_0_split -> loss3/classifier_plantvillage_loss3/classifier_plantvillage_0_split_3
I0403 15:04:19.642709  2616 net.cpp:141] Setting up loss3/classifier_plantvillage_loss3/classifier_plantvillage_0_split
I0403 15:04:19.642734  2616 net.cpp:148] Top shape: 24 38 (912)
I0403 15:04:19.642750  2616 net.cpp:148] Top shape: 24 38 (912)
I0403 15:04:19.642765  2616 net.cpp:148] Top shape: 24 38 (912)
I0403 15:04:19.642781  2616 net.cpp:148] Top shape: 24 38 (912)
I0403 15:04:19.642794  2616 net.cpp:156] Memory required for data: 1346079072
I0403 15:04:19.642809  2616 layer_factory.hpp:77] Creating layer loss1/loss
I0403 15:04:19.642832  2616 net.cpp:91] Creating Layer loss1/loss
I0403 15:04:19.642850  2616 net.cpp:425] loss1/loss <- loss1/classifier_plantvillage_loss1/classifier_plantvillage_0_split_0
I0403 15:04:19.642881  2616 net.cpp:425] loss1/loss <- label_data_1_split_0
…
