…
I0403 15:33:56.779973  3229 net.cpp:313] The NetState phase (1) differed from the phase (0) specified by a rule in layer data
I0403 15:33:56.781185  3229 net.cpp:49] Initializing net from parameters: 
state {
  phase: TEST
}
layer {
  name: "data"
  type: "Data"
  top: "data"
  top: "label"
  include {
    phase: TEST
  }
  transform_param {
    mirror: false
    crop_size: 224
    mean_file: "/home/mohanty/data/final_dataset/lmdb/segmented-60-40/mean.binaryproto"
  }
  data_param {
    source: "/home/mohanty/data/final_dataset/lmdb/segmented-60-40/test_db"
    batch_size: 24
    backend: LMDB
  }
}
layer {
  name: "conv1/7x7_s2"
  type: "Convolution"
  bottom: "data"
  top: "conv1/7x7_s2"
  param {
    lr_mult: 1
    decay_mult: 1
  }
  param {
    lr_mult: 2
    decay_mult: 0
  }
  convolution_param {
    num_output: 64
    pad: 3
    kernel_size: 7
    stride: 2
    weight_filler {
      type: "xavier"
      std: 0.1
    }
    bias_filler {
      type: "constant"
      value: 0.2
    }
  }
}
layer {
  name: "conv1/relu_7x7"
  type: "ReLU"
  bottom: "conv1/7x7_s2"
  top: "conv1/7x7_s2"
}
layer {
  name: "pool1/3x3_s2"
  type: "Pooling"
  bottom: "conv1/7x7_s2"
  top: "pool1/3x3_s2"
  pooling_param {
    pool: MAX
    kernel_size: 3
    stride: 2
  }
}
layer {
  name: "pool1/norm1"
  type: "LRN"
  bottom: "pool1/3x3_s2"
  top: "pool1/norm1"
  lrn_param {
    local_size: 5
    alpha: 0.0001
    beta: 0.75
  }
}
layer {
  name: "conv2/3x3_reduce"
  type: "Convolution"
  bottom: "pool1/norm1"
  top: "conv2/3x3_reduce"
  param {
    lr_mult: 1
    decay_mult: 1
  }
  param {
    lr_mult: 2
    decay_mult: 0
  }
  convolution_param {
    num_output: 64
    kernel_size: 1
    weight_filler {
      type: "xavier"
      std: 0.1
    }
    bias_filler {
      type: "constant"
      value: 0.2
    }
  }
}
layer {
  name: "conv2/relu_3x3_reduce"
  type: "ReLU"
  bottom: "conv2/3x3_reduce"
  top: "conv2/3x3_reduce"
}
layer {
  name: "conv2/3x3"
  type: "Convolution"
  bottom: "conv2/3x3_reduce"
  top: "conv2/3x3"
  param {
    lr_mult: 1
    decay_mult: 1
  }
  param {
    lr_mult: 2
    decay_mult: 0
  }
  convolution_param {
    num_output: 192
    pad: 1
    kernel_size: 3
    weight_filler {
      type: "xavier"
      std: 0.03
    }
    bias_filler {
      type: "constant"
      value: 0.2
    }
  }
}
layer {
  name: "conv2/relu_3x3"
  type: "ReLU"
  bottom: "conv2/3x3"
  top: "conv2/3x3"
}
layer {
  name: "conv2/norm2"
  type: "LRN"
  bottom: "conv2/3x3"
  top: "conv2/norm2"
  lrn_param {
    local_size: 5
    alpha: 0.0001
    beta: 0.75
  }
}
layer {
  name: "pool2/3x3_s2"
  type: "Pooling"
  bottom: "conv2/norm2"
  top: "pool2/3x3_s2"
  pooling_param {
    pool: MAX
    kernel_size: 3
    stride: 2
  }
}
layer {
  name: "inception_3a/1x1"
  type: "Convolution"
  bottom: "pool2/3x3_s2"
  top: "inception_3a/1x1"
  param {
    lr_mult: 1
    decay_mult: 1
  }
  param {
    lr_mult: 2
    decay_mult: 0
  }
  convolution_param {
    num_output: 64
    kernel_size: 1
    weight_filler {
      type: "xavier"
      std: 0.03
    }
    bias_filler {
      type: "constant"
      value: 0.2
    }
  }
}
layer {
  name: "inception_3a/relu_1x1"
  type: "ReLU"
  bottom: "inception_3a/1x1"
  top: "inception_3a/1x1"
}
layer {
  name: "inception_3a/3x3_reduce"
  type: "Convolution"
  bottom: "pool2/3x3_s2"
  top: "inception_3a/3x3_reduce"
  param {
    lr_mult: 1
    decay_mult: 1
  }
  param {
    lr_mult: 2
    decay_mult: 0
  }
  convolution_param {
    num_output: 96
    kernel_size: 1
    weight_filler {
      type: "xavier"
      std: 0.09
    }
    bias_filler {
      type: "constant"
      value: 0.2
    }
  }
}
layer {
  name: "inception_3a/relu_3x3_reduce"
  type: "ReLU"
  bottom: "inception_3a/3x3_reduce"
  top: "inception_3a/3x3_reduce"
}
layer {
  name: "inception_3a/3x3"
  type: "Convolution"
  bottom: "inception_3a/3x3_reduce"
  top: "inception_3a/3x3"
  param {
    lr_mult: 1
    decay_mult: 1
  }
  param {
    lr_mult: 2
    decay_mult: 0
  }
  convolution_param {
    num_output: 128
    pad: 1
    kernel_size: 3
    weight_filler {
      type: "xavier"
      std: 0.03
    }
    bias_filler {
      type: "constant"
      value: 0.2
    }
  }
}
layer {
  name: "inception_3a/relu_3x3"
  type: "ReLU"
  bottom: "inception_3a/3x3"
  top: "inception_3a/3x3"
}
layer {
  name: "inception_3a/5x5_reduce"
  type: "Convolution"
  bottom: "pool2/3x3_s2"
  top: "inception_3a/5x5_reduce"
  param {
    lr_mult: 1
    decay_mult: 1
  }
  param {
    lr_mult: 2
    decay_mult: 0
  }
  convolution_param {
    num_output: 16
    kernel_size: 1
    weight_filler {
      type: "xavier"
      std: 0.2
    }
    bias_filler {
      type: "constant"
      value: 0.2
    }
  }
}
layer {
  name: "inception_3a/relu_5x5_reduce"
  type: "ReLU"
  bottom: "inception_3a/5x5_reduce"
  top: "inception_3a/5x5_reduce"
}
layer {
  name: "inception_3a/5x5"
  type: "Convolution"
  bottom: "inception_3a/5x5_reduce"
  top: "inception_3a/5x5"
  param {
    lr_mult: 1
    decay_mult: 1
  }
  param {
    lr_mult: 2
    decay_mult: 0
  }
  convolution_param {
    num_output: 32
    pad: 2
    kernel_size: 5
    weight_filler {
      type: "xavier"
      std: 0.03
    }
    bias_filler {
      type: "constant"
      value: 0.2
    }
  }
}
layer {
  name: "inception_3a/relu_5x5"
  type: "ReLU"
  bottom: "inception_3a/5x5"
  top: "inception_3a/5x5"
}
layer {
  name: "inception_3a/pool"
  type: "Pooling"
  bottom: "pool2/3x3_s2"
  top: "inception_3a/pool"
  pooling_param {
    pool: MAX
    kernel_size: 3
    stride: 1
    pad: 1
  }
}
layer {
  name: "inception_3a/pool_proj"
  type: "Convolution"
  bottom: "inception_3a/pool"
  top: "inception_3a/pool_proj"
  param {
    lr_mult: 1
    decay_mult: 1
  }
  param {
    lr_mult: 2
    decay_mult: 0
  }
  convolution_param {
    num_output: 32
    kernel_size: 1
    weight_filler {
      type: "xavier"
      std: 0.1
    }
    bias_filler {
      type: "constant"
      value: 0.2
    }
  }
}
layer {
  name: "inception_3a/relu_pool_proj"
  type: "ReLU"
  bottom: "inception_3a/pool_proj"
  top: "inception_3a/pool_proj"
}
layer {
  name: "inception_3a/output"
  type: "Concat"
  bottom: "inception_3a/1x1"
  bottom: "inception_3a/3x3"
  bottom: "inception_3a/5x5"
  bottom: "inception_3a/pool_proj"
  top: "inception_3a/output"
}
layer {
  name: "inception_3b/1x1"
  type: "Convolution"
  bottom: "inception_3a/output"
  top: "inception_3b/1x1"
  param {
    lr_mult: 1
    decay_mult: 1
  }
  param {
    lr_mult: 2
    decay_mult: 0
  }
  convolution_param {
    num_output: 128
    kernel_size: 1
    weight_filler {
      type: "xavier"
      std: 0.03
    }
    bias_filler {
      type: "constant"
      value: 0.2
    }
  }
}
layer {
  name: "inception_3b/relu_1x1"
  type: "ReLU"
  bottom: "inception_3b/1x1"
  top: "inception_3b/1x1"
}
layer {
  name: "inception_3b/3x3_reduce"
  type: "Convolution"
  bottom: "inception_3a/output"
  top: "inception_3b/3x3_reduce"
  param {
    lr_mult: 1
    decay_mult: 1
  }
  param {
    lr_mult: 2
    decay_mult: 0
  }
  convolution_param {
    num_output: 128
    kernel_size: 1
    weight_filler {
      type: "xavier"
      std: 0.09
    }
    bias_filler {
      type: "constant"
      value: 0.2
    }
  }
}
layer {
  name: "inception_3b/relu_3x3_reduce"
  type: "ReLU"
  bottom: "inception_3b/3x3_reduce"
  top: "inception_3b/3x3_reduce"
}
layer {
  name: "inception_3b/3x3"
  type: "Convolution"
  bottom: "inception_3b/3x3_reduce"
  top: "inception_3b/3x3"
  param {
    lr_mult: 1
    decay_mult: 1
  }
  param {
    lr_mult: 2
    decay_mult: 0
  }
  convolution_param {
    num_output: 192
    pad: 1
    kernel_size: 3
    weight_filler {
      type: "xavier"
      std: 0.03
    }
    bias_filler {
      type: "constant"
      value: 0.2
    }
  }
}
layer {
  name: "inception_3b/relu_3x3"
  type: "ReLU"
  bottom: "inception_3b/3x3"
  top: "inception_3b/3x3"
}
layer {
  name: "inception_3b/5x5_reduce"
  type: "Convolution"
  bottom: "inception_3a/output"
  top: "inception_3b/5x5_reduce"
  param {
    lr_mult: 1
    decay_mult: 1
  }
  param {
    lr_mult: 2
    decay_mult: 0
  }
  convolution_param {
    num_output: 32
    kernel_size: 1
    weight_filler {
      type: "xavier"
      std: 0.2
    }
    bias_filler {
      type: "constant"
      value: 0.2
    }
  }
}
layer {
  name: "inception_3b/relu_5x5_reduce"
  type: "ReLU"
  bottom: "inception_3b/5x5_reduce"
  top: "inception_3b/5x5_reduce"
}
layer {
  name: "inception_3b/5x5"
  type: "Convolution"
  bottom: "inception_3b/5x5_reduce"
  top: "inception_3b/5x5"
  param {
    lr_mult: 1
    decay_mult: 1
  }
  param {
    lr_mult: 2
    decay_mult: 0
  }
  convolution_param {
    num_output: 96
    pad: 2
    kernel_size: 5
    weight_filler {
      type: "xavier"
      std: 0.03
    }
    bias_filler {
      type: "constant"
      value: 0.2
    }
  }
}
layer {
  name: "inception_3b/relu_5x5"
  type: "ReLU"
  bottom: "inception_3b/5x5"
  top: "inception_3b/5x5"
}
layer {
  name: "inception_3b/pool"
  type: "Pooling"
  bottom: "inception_3a/output"
  top: "inception_3b/pool"
  pooling_param {
    pool: MAX
    kernel_size: 3
    stride: 1
    pad: 1
  }
}
layer {
  name: "inception_3b/pool_proj"
  type: "Convolution"
  bottom: "inception_3b/pool"
  top: "inception_3b/pool_proj"
  param {
    lr_mult: 1
    decay_mult: 1
  }
  param {
    lr_mult: 2
    decay_mult: 0
  }
  convolution_param {
    num_output: 64
    kernel_size: 1
    weight_filler {
      type: "xavier"
      std: 0.1
    }
    bias_filler {
      type: "constant"
      value: 0.2
    }
  }
}
layer {
  name: "inception_3b/relu_pool_proj"
  type: "ReLU"
  bottom: "inception_3b/pool_proj"
  top: "inception_3b/pool_proj"
}
layer {
  name: "inception_3b/output"
  type: "Concat"
  bottom: "inception_3b/1x1"
  bottom: "inception_3b/3x3"
  bottom: "inception_3b/5x5"
  bottom: "inception_3b/pool_proj"
  top: "inception_3b/output"
}
layer {
  name: "pool3/3x3_s2"
  type: "Pooling"
  bottom: "inception_3b/output"
  top: "pool3/3x3_s2"
  pooling_param {
    pool: MAX
    kernel_size: 3
    stride: 2
  }
}
layer {
  name: "inception_4a/1x1"
  type: "Convolution"
  bottom: "pool3/3x3_s2"
  top: "inception_4a/1x1"
  param {
    lr_mult: 1
    decay_mult: 1
  }
  param {
    lr_mult: 2
    decay_mult: 0
  }
  convolution_param {
    num_output: 192
    kernel_size: 1
    weight_filler {
      type: "xavier"
      std: 0.03
    }
    bias_filler {
      type: "constant"
      value: 0.2
    }
  }
}
layer {
  name: "inception_4a/relu_1x1"
  type: "ReLU"
  bottom: "inception_4a/1x1"
  top: "inception_4a/1x1"
}
layer {
  name: "inception_4a/3x3_reduce"
  type: "Convolution"
  bottom: "pool3/3x3_s2"
  top: "inception_4a/3x3_reduce"
  param {
    lr_mult: 1
    decay_mult: 1
  }
  param {
    lr_mult: 2
    decay_mult: 0
  }
  convolution_param {
    num_output: 96
    kernel_size: 1
    weight_filler {
      type: "xavier"
      std: 0.09
    }
    bias_filler {
      type: "constant"
      value: 0.2
    }
  }
}
layer {
  name: "inception_4a/relu_3x3_reduce"
  type: "ReLU"
  bottom: "inception_4a/3x3_reduce"
  top: "inception_4a/3x3_reduce"
}
layer {
  name: "inception_4a/3x3"
  type: "Convolution"
  bottom: "inception_4a/3x3_reduce"
  top: "inception_4a/3x3"
  param {
    lr_mult: 1
    decay_mult: 1
  }
  param {
    lr_mult: 2
    decay_mult: 0
  }
  convolution_param {
    num_output: 208
    pad: 1
    kernel_size: 3
    weight_filler {
      type: "xavier"
      std: 0.03
    }
    bias_filler {
      type: "constant"
      value: 0.2
    }
  }
}
layer {
  name: "inception_4a/relu_3x3"
  type: "ReLU"
  bottom: "inception_4a/3x3"
  top: "inception_4a/3x3"
}
layer {
  name: "inception_4a/5x5_reduce"
  type: "Convolution"
  bottom: "pool3/3x3_s2"
  top: "inception_4a/5x5_reduce"
  param {
    lr_mult: 1
    decay_mult: 1
  }
  param {
    lr_mult: 2
    decay_mult: 0
  }
  convolution_param {
    num_output: 16
    kernel_size: 1
    weight_filler {
      type: "xavier"
      std: 0.2
    }
    bias_filler {
      type: "constant"
      value: 0.2
    }
  }
}
layer {
  name: "inception_4a/relu_5x5_reduce"
  type: "ReLU"
  bottom: "inception_4a/5x5_reduce"
  top: "inception_4a/5x5_reduce"
}
layer {
  name: "inception_4a/5x5"
  type: "Convolution"
  bottom: "inception_4a/5x5_reduce"
  top: "inception_4a/5x5"
  param {
    lr_mult: 1
    decay_mult: 1
  }
  param {
    lr_mult: 2
    decay_mult: 0
  }
  convolution_param {
    num_output: 48
    pad: 2
    kernel_size: 5
    weight_filler {
      type: "xavier"
      std: 0.03
    }
    bias_filler {
      type: "constant"
      value: 0.2
    }
  }
}
layer {
  name: "inception_4a/relu_5x5"
  type: "ReLU"
  bottom: "inception_4a/5x5"
  top: "inception_4a/5x5"
}
layer {
  name: "inception_4a/pool"
  type: "Pooling"
  bottom: "pool3/3x3_s2"
  top: "inception_4a/pool"
  pooling_param {
    pool: MAX
    kernel_size: 3
    stride: 1
    pad: 1
  }
}
layer {
  name: "inception_4a/pool_proj"
  type: "Convolution"
  bottom: "inception_4a/pool"
  top: "inception_4a/pool_proj"
  param {
    lr_mult: 1
    decay_mult: 1
  }
  param {
    lr_mult: 2
    decay_mult: 0
  }
  convolution_param {
    num_output: 64
    kernel_size: 1
    weight_filler {
      type: "xavier"
      std: 0.1
    }
    bias_filler {
      type: "constant"
      value: 0.2
    }
  }
}
layer {
  name: "inception_4a/relu_pool_proj"
  type: "ReLU"
  bottom: "inception_4a/pool_proj"
  top: "inception_4a/pool_proj"
}
layer {
  name: "inception_4a/output"
  type: "Concat"
  bottom: "inception_4a/1x1"
  bottom: "inception_4a/3x3"
  bottom: "inception_4a/5x5"
  bottom: "inception_4a/pool_proj"
  top: "inception_4a/output"
}
layer {
  name: "loss1/ave_pool"
  type: "Pooling"
  bottom: "inception_4a/output"
  top: "loss1/ave_pool"
  pooling_param {
    pool: AVE
    kernel_size: 5
    stride: 3
  }
}
layer {
  name: "loss1/conv"
  type: "Convolution"
  bottom: "loss1/ave_pool"
  top: "loss1/conv"
  param {
    lr_mult: 1
    decay_mult: 1
  }
  param {
    lr_mult: 2
    decay_mult: 0
  }
  convolution_param {
    num_output: 128
    kernel_size: 1
    weight_filler {
      type: "xavier"
      std: 0.08
    }
    bias_filler {
      type: "constant"
      value: 0.2
    }
  }
}
layer {
  name: "loss1/relu_conv"
  type: "ReLU"
  bottom: "loss1/conv"
  top: "loss1/conv"
}
layer {
  name: "loss1/fc"
  type: "InnerProduct"
  bottom: "loss1/conv"
  top: "loss1/fc"
  param {
    lr_mult: 1
    decay_mult: 1
  }
  param {
    lr_mult: 2
    decay_mult: 0
  }
  inner_product_param {
    num_output: 1024
    weight_filler {
      type: "xavier"
      std: 0.02
    }
    bias_filler {
      type: "constant"
      value: 0.2
    }
  }
}
layer {
  name: "loss1/relu_fc"
  type: "ReLU"
  bottom: "loss1/fc"
  top: "loss1/fc"
}
layer {
  name: "loss1/drop_fc"
  type: "Dropout"
  bottom: "loss1/fc"
  top: "loss1/fc"
  dropout_param {
    dropout_ratio: 0.7
  }
}
layer {
  name: "loss1/classifier_plantvillage"
  type: "InnerProduct"
  bottom: "loss1/fc"
  top: "loss1/classifier_plantvillage"
  param {
    lr_mult: 1
    decay_mult: 1
  }
  param {
    lr_mult: 2
    decay_mult: 0
  }
  inner_product_param {
    num_output: 38
    weight_filler {
      type: "xavier"
      std: 0.0009765625
    }
    bias_filler {
      type: "constant"
      value: 0
    }
  }
}
layer {
  name: "inception_4b/1x1"
  type: "Convolution"
  bottom: "inception_4a/output"
  top: "inception_4b/1x1"
  param {
    lr_mult: 1
    decay_mult: 1
  }
  param {
    lr_mult: 2
    decay_mult: 0
  }
  convolution_param {
    num_output: 160
    kernel_size: 1
    weight_filler {
      type: "xavier"
      std: 0.03
    }
    bias_filler {
      type: "constant"
      value: 0.2
    }
  }
}
layer {
  name: "inception_4b/relu_1x1"
  type: "ReLU"
  bottom: "inception_4b/1x1"
  top: "inception_4b/1x1"
}
layer {
  name: "inception_4b/3x3_reduce"
  type: "Convolution"
  bottom: "inception_4a/output"
  top: "inception_4b/3x3_reduce"
  param {
    lr_mult: 1
    decay_mult: 1
  }
  param {
    lr_mult: 2
    decay_mult: 0
  }
  convolution_param {
    num_output: 112
    kernel_size: 1
    weight_filler {
      type: "xavier"
      std: 0.09
    }
    bias_filler {
      type: "constant"
      value: 0.2
    }
  }
}
layer {
  name: "inception_4b/relu_3x3_reduce"
  type: "ReLU"
  bottom: "inception_4b/3x3_reduce"
  top: "inception_4b/3x3_reduce"
}
layer {
  name: "inception_4b/3x3"
  type: "Convolution"
  bottom: "inception_4b/3x3_reduce"
  top: "inception_4b/3x3"
  param {
    lr_mult: 1
    decay_mult: 1
  }
  param {
    lr_mult: 2
    decay_mult: 0
  }
  convolution_param {
    num_output: 224
    pad: 1
    kernel_size: 3
    weight_filler {
      type: "xavier"
      std: 0.03
    }
    bias_filler {
      type: "constant"
      value: 0.2
    }
  }
}
layer {
  name: "inception_4b/relu_3x3"
  type: "ReLU"
  bottom: "inception_4b/3x3"
  top: "inception_4b/3x3"
}
layer {
  name: "inception_4b/5x5_reduce"
  type: "Convolution"
  bottom: "inception_4a/output"
  top: "inception_4b/5x5_reduce"
  param {
    lr_mult: 1
    decay_mult: 1
  }
  param {
    lr_mult: 2
    decay_mult: 0
  }
  convolution_param {
    num_output: 24
    kernel_size: 1
    weight_filler {
      type: "xavier"
      std: 0.2
    }
    bias_filler {
      type: "constant"
      value: 0.2
    }
  }
}
layer {
  name: "inception_4b/relu_5x5_reduce"
  type: "ReLU"
  bottom: "inception_4b/5x5_reduce"
  top: "inception_4b/5x5_reduce"
}
layer {
  name: "inception_4b/5x5"
  type: "Convolution"
  bottom: "inception_4b/5x5_reduce"
  top: "inception_4b/5x5"
  param {
    lr_mult: 1
    decay_mult: 1
  }
  param {
    lr_mult: 2
    decay_mult: 0
  }
  convolution_param {
    num_output: 64
    pad: 2
    kernel_size: 5
    weight_filler {
      type: "xavier"
      std: 0.03
    }
    bias_filler {
      type: "constant"
      value: 0.2
    }
  }
}
layer {
  name: "inception_4b/relu_5x5"
  type: "ReLU"
  bottom: "inception_4b/5x5"
  top: "inception_4b/5x5"
}
layer {
  name: "inception_4b/pool"
  type: "Pooling"
  bottom: "inception_4a/output"
  top: "inception_4b/pool"
  pooling_param {
    pool: MAX
    kernel_size: 3
    stride: 1
    pad: 1
  }
}
layer {
  name: "inception_4b/pool_proj"
  type: "Convolution"
  bottom: "inception_4b/pool"
  top: "inception_4b/pool_proj"
  param {
    lr_mult: 1
    decay_mult: 1
  }
  param {
    lr_mult: 2
    decay_mult: 0
  }
  convolution_param {
    num_output: 64
    kernel_size: 1
    weight_filler {
      type: "xavier"
      std: 0.1
    }
    bias_filler {
      type: "constant"
      value: 0.2
    }
  }
}
layer {
  name: "inception_4b/relu_pool_proj"
  type: "ReLU"
  bottom: "inception_4b/pool_proj"
  top: "inception_4b/pool_proj"
}
layer {
  name: "inception_4b/output"
  type: "Concat"
  bottom: "inception_4b/1x1"
  bottom: "inception_4b/3x3"
  bottom: "inception_4b/5x5"
  bottom: "inception_4b/pool_proj"
  top: "inception_4b/output"
}
layer {
  name: "inception_4c/1x1"
  type: "Convolution"
  bottom: "inception_4b/output"
  top: "inception_4c/1x1"
  param {
    lr_mult: 1
    decay_mult: 1
  }
  param {
    lr_mult: 2
    decay_mult: 0
  }
  convolution_param {
    num_output: 128
    kernel_size: 1
    weight_filler {
      type: "xavier"
      std: 0.03
    }
    bias_filler {
      type: "constant"
      value: 0.2
    }
  }
}
layer {
  name: "inception_4c/relu_1x1"
  type: "ReLU"
  bottom: "inception_4c/1x1"
  top: "inception_4c/1x1"
}
layer {
  name: "inception_4c/3x3_reduce"
  type: "Convolution"
  bottom: "inception_4b/output"
  top: "inception_4c/3x3_reduce"
  param {
    lr_mult: 1
    decay_mult: 1
  }
  param {
    lr_mult: 2
    decay_mult: 0
  }
  convolution_param {
    num_output: 128
    kernel_size: 1
    weight_filler {
      type: "xavier"
      std: 0.09
    }
    bias_filler {
      type: "constant"
      value: 0.2
    }
  }
}
layer {
  name: "inception_4c/relu_3x3_reduce"
  type: "ReLU"
  bottom: "inception_4c/3x3_reduce"
  top: "inception_4c/3x3_reduce"
}
layer {
  name: "inception_4c/3x3"
  type: "Convolution"
  bottom: "inception_4c/3x3_reduce"
  top: "inception_4c/3x3"
  param {
    lr_mult: 1
    decay_mult: 1
  }
  param {
    lr_mult: 2
    decay_mult: 0
  }
  convolution_param {
    num_output: 256
    pad: 1
    kernel_size: 3
    weight_filler {
      type: "xavier"
      std: 0.03
    }
    bias_filler {
      type: "constant"
      value: 0.2
    }
  }
}
layer {
  name: "inception_4c/relu_3x3"
  type: "ReLU"
  bottom: "inception_4c/3x3"
  top: "inception_4c/3x3"
}
layer {
  name: "inception_4c/5x5_reduce"
  type: "Convolution"
  bottom: "inception_4b/output"
  top: "inception_4c/5x5_reduce"
  param {
    lr_mult: 1
    decay_mult: 1
  }
  param {
    lr_mult: 2
    decay_mult: 0
  }
  convolution_param {
    num_output: 24
    kernel_size: 1
    weight_filler {
      type: "xavier"
      std: 0.2
    }
    bias_filler {
      type: "constant"
      value: 0.2
    }
  }
}
layer {
  name: "inception_4c/relu_5x5_reduce"
  type: "ReLU"
  bottom: "inception_4c/5x5_reduce"
  top: "inception_4c/5x5_reduce"
}
layer {
  name: "inception_4c/5x5"
  type: "Convolution"
  bottom: "inception_4c/5x5_reduce"
  top: "inception_4c/5x5"
  param {
    lr_mult: 1
    decay_mult: 1
  }
  param {
    lr_mult: 2
    decay_mult: 0
  }
  convolution_param {
    num_output: 64
    pad: 2
    kernel_size: 5
    weight_filler {
      type: "xavier"
      std: 0.03
    }
    bias_filler {
      type: "constant"
      value: 0.2
    }
  }
}
layer {
  name: "inception_4c/relu_5x5"
  type: "ReLU"
  bottom: "inception_4c/5x5"
  top: "inception_4c/5x5"
}
layer {
  name: "inception_4c/pool"
  type: "Pooling"
  bottom: "inception_4b/output"
  top: "inception_4c/pool"
  pooling_param {
    pool: MAX
    kernel_size: 3
    stride: 1
    pad: 1
  }
}
layer {
  name: "inception_4c/pool_proj"
  type: "Convolution"
  bottom: "inception_4c/pool"
  top: "inception_4c/pool_proj"
  param {
    lr_mult: 1
    decay_mult: 1
  }
  param {
    lr_mult: 2
    decay_mult: 0
  }
  convolution_param {
    num_output: 64
    kernel_size: 1
    weight_filler {
      type: "xavier"
      std: 0.1
    }
    bias_filler {
      type: "constant"
      value: 0.2
    }
  }
}
layer {
  name: "inception_4c/relu_pool_proj"
  type: "ReLU"
  bottom: "inception_4c/pool_proj"
  top: "inception_4c/pool_proj"
}
layer {
  name: "inception_4c/output"
  type: "Concat"
  bottom: "inception_4c/1x1"
  bottom: "inception_4c/3x3"
  bottom: "inception_4c/5x5"
  bottom: "inception_4c/pool_proj"
  top: "inception_4c/output"
}
layer {
  name: "inception_4d/1x1"
  type: "Convolution"
  bottom: "inception_4c/output"
  top: "inception_4d/1x1"
  param {
    lr_mult: 1
    decay_mult: 1
  }
  param {
    lr_mult: 2
    decay_mult: 0
  }
  convolution_param {
    num_output: 112
    kernel_size: 1
    weight_filler {
      type: "xavier"
      std: 0.03
    }
    bias_filler {
      type: "constant"
      value: 0.2
    }
  }
}
layer {
  name: "inception_4d/relu_1x1"
  type: "ReLU"
  bottom: "inception_4d/1x1"
  top: "inception_4d/1x1"
}
layer {
  name: "inception_4d/3x3_reduce"
  type: "Convolution"
  bottom: "inception_4c/output"
  top: "inception_4d/3x3_reduce"
  param {
    lr_mult: 1
    decay_mult: 1
  }
  param {
    lr_mult: 2
    decay_mult: 0
  }
  convolution_param {
    num_output: 144
    kernel_size: 1
    weight_filler {
      type: "xavier"
      std: 0.09
    }
    bias_filler {
      type: "constant"
      value: 0.2
    }
  }
}
layer {
  name: "inception_4d/relu_3x3_reduce"
  type: "ReLU"
  bottom: "inception_4d/3x3_reduce"
  top: "inception_4d/3x3_reduce"
}
layer {
  name: "inception_4d/3x3"
  type: "Convolution"
  bottom: "inception_4d/3x3_reduce"
  top: "inception_4d/3x3"
  param {
    lr_mult: 1
    decay_mult: 1
  }
  param {
    lr_mult: 2
    decay_mult: 0
  }
  convolution_param {
    num_output: 288
    pad: 1
    kernel_size: 3
    weight_filler {
      type: "xavier"
      std: 0.03
    }
    bias_filler {
      type: "constant"
      value: 0.2
    }
  }
}
layer {
  name: "inception_4d/relu_3x3"
  type: "ReLU"
  bottom: "inception_4d/3x3"
  top: "inception_4d/3x3"
}
layer {
  name: "inception_4d/5x5_reduce"
  type: "Convolution"
  bottom: "inception_4c/output"
  top: "inception_4d/5x5_reduce"
  param {
    lr_mult: 1
    decay_mult: 1
  }
  param {
    lr_mult: 2
    decay_mult: 0
  }
  convolution_param {
    num_output: 32
    kernel_size: 1
    weight_filler {
      type: "xavier"
      std: 0.2
    }
    bias_filler {
      type: "constant"
      value: 0.2
    }
  }
}
layer {
  name: "inception_4d/relu_5x5_reduce"
  type: "ReLU"
  bottom: "inception_4d/5x5_reduce"
  top: "inception_4d/5x5_reduce"
}
layer {
  name: "inception_4d/5x5"
  type: "Convolution"
  bottom: "inception_4d/5x5_reduce"
  top: "inception_4d/5x5"
  param {
    lr_mult: 1
    decay_mult: 1
  }
  param {
    lr_mult: 2
    decay_mult: 0
  }
  convolution_param {
    num_output: 64
    pad: 2
    kernel_size: 5
    weight_filler {
      type: "xavier"
      std: 0.03
    }
    bias_filler {
      type: "constant"
      value: 0.2
    }
  }
}
layer {
  name: "inception_4d/relu_5x5"
  type: "ReLU"
  bottom: "inception_4d/5x5"
  top: "inception_4d/5x5"
}
layer {
  name: "inception_4d/pool"
  type: "Pooling"
  bottom: "inception_4c/output"
  top: "inception_4d/pool"
  pooling_param {
    pool: MAX
    kernel_size: 3
    stride: 1
    pad: 1
  }
}
layer {
  name: "inception_4d/pool_proj"
  type: "Convolution"
  bottom: "inception_4d/pool"
  top: "inception_4d/pool_proj"
  param {
    lr_mult: 1
    decay_mult: 1
  }
  param {
    lr_mult: 2
    decay_mult: 0
  }
  convolution_param {
    num_output: 64
    kernel_size: 1
    weight_filler {
      type: "xavier"
      std: 0.1
    }
    bias_filler {
      type: "constant"
      value: 0.2
    }
  }
}
layer {
  name: "inception_4d/relu_pool_proj"
  type: "ReLU"
  bottom: "inception_4d/pool_proj"
  top: "inception_4d/pool_proj"
}
layer {
  name: "inception_4d/output"
  type: "Concat"
  bottom: "inception_4d/1x1"
  bottom: "inception_4d/3x3"
  bottom: "inception_4d/5x5"
  bottom: "inception_4d/pool_proj"
  top: "inception_4d/output"
}
layer {
  name: "loss2/ave_pool"
  type: "Pooling"
  bottom: "inception_4d/output"
  top: "loss2/ave_pool"
  pooling_param {
    pool: AVE
    kernel_size: 5
    stride: 3
  }
}
layer {
  name: "loss2/conv"
  type: "Convolution"
  bottom: "loss2/ave_pool"
  top: "loss2/conv"
  param {
    lr_mult: 1
    decay_mult: 1
  }
  param {
    lr_mult: 2
    decay_mult: 0
  }
  convolution_param {
    num_output: 128
    kernel_size: 1
    weight_filler {
      type: "xavier"
      std: 0.08
    }
    bias_filler {
      type: "constant"
      value: 0.2
    }
  }
}
layer {
  name: "loss2/relu_conv"
  type: "ReLU"
  bottom: "loss2/conv"
  top: "loss2/conv"
}
layer {
  name: "loss2/fc"
  type: "InnerProduct"
  bottom: "loss2/conv"
  top: "loss2/fc"
  param {
    lr_mult: 1
    decay_mult: 1
  }
  param {
    lr_mult: 2
    decay_mult: 0
  }
  inner_product_param {
    num_output: 1024
    weight_filler {
      type: "xavier"
      std: 0.02
    }
    bias_filler {
      type: "constant"
      value: 0.2
    }
  }
}
layer {
  name: "loss2/relu_fc"
  type: "ReLU"
  bottom: "loss2/fc"
  top: "loss2/fc"
}
layer {
  name: "loss2/drop_fc"
  type: "Dropout"
  bottom: "loss2/fc"
  top: "loss2/fc"
  dropout_param {
    dropout_ratio: 0.7
  }
}
layer {
  name: "loss2/classifier_plantvillage"
  type: "InnerProduct"
  bottom: "loss2/fc"
  top: "loss2/classifier_plantvillage"
  param {
    lr_mult: 1
    decay_mult: 1
  }
  param {
    lr_mult: 2
    decay_mult: 0
  }
  inner_product_param {
    num_output: 38
    weight_filler {
      type: "xavier"
      std: 0.0009765625
    }
    bias_filler {
      type: "constant"
      value: 0
    }
  }
}
layer {
  name: "inception_4e/1x1"
  type: "Convolution"
  bottom: "inception_4d/output"
  top: "inception_4e/1x1"
  param {
    lr_mult: 1
    decay_mult: 1
  }
  param {
    lr_mult: 2
    decay_mult: 0
  }
  convolution_param {
    num_output: 256
    kernel_size: 1
    weight_filler {
      type: "xavier"
      std: 0.03
    }
    bias_filler {
      type: "constant"
      value: 0.2
    }
  }
}
layer {
  name: "inception_4e/relu_1x1"
  type: "ReLU"
  bottom: "inception_4e/1x1"
  top: "inception_4e/1x1"
}
layer {
  name: "inception_4e/3x3_reduce"
  type: "Convolution"
  bottom: "inception_4d/output"
  top: "inception_4e/3x3_reduce"
  param {
    lr_mult: 1
    decay_mult: 1
  }
  param {
    lr_mult: 2
    decay_mult: 0
  }
  convolution_param {
    num_output: 160
    kernel_size: 1
    weight_filler {
      type: "xavier"
      std: 0.09
    }
    bias_filler {
      type: "constant"
      value: 0.2
    }
  }
}
layer {
  name: "inception_4e/relu_3x3_reduce"
  type: "ReLU"
  bottom: "inception_4e/3x3_reduce"
  top: "inception_4e/3x3_reduce"
}
layer {
  name: "inception_4e/3x3"
  type: "Convolution"
  bottom: "inception_4e/3x3_reduce"
  top: "inception_4e/3x3"
  param {
    lr_mult: 1
    decay_mult: 1
  }
  param {
    lr_mult: 2
    decay_mult: 0
  }
  convolution_param {
    num_output: 320
    pad: 1
    kernel_size: 3
    weight_filler {
      type: "xavier"
      std: 0.03
    }
    bias_filler {
      type: "constant"
      value: 0.2
    }
  }
}
layer {
  name: "inception_4e/relu_3x3"
  type: "ReLU"
  bottom: "inception_4e/3x3"
  top: "inception_4e/3x3"
}
layer {
  name: "inception_4e/5x5_reduce"
  type: "Convolution"
  bottom: "inception_4d/output"
  top: "inception_4e/5x5_reduce"
  param {
    lr_mult: 1
    decay_mult: 1
  }
  param {
    lr_mult: 2
    decay_mult: 0
  }
  convolution_param {
    num_output: 32
    kernel_size: 1
    weight_filler {
      type: "xavier"
      std: 0.2
    }
    bias_filler {
      type: "constant"
      value: 0.2
    }
  }
}
layer {
  name: "inception_4e/relu_5x5_reduce"
  type: "ReLU"
  bottom: "inception_4e/5x5_reduce"
  top: "inception_4e/5x5_reduce"
}
layer {
  name: "inception_4e/5x5"
  type: "Convolution"
  bottom: "inception_4e/5x5_reduce"
  top: "inception_4e/
I0403 15:33:56.782475  3229 layer_factory.hpp:77] Creating layer data
I0403 15:33:56.783074  3229 net.cpp:91] Creating Layer data
I0403 15:33:56.783107  3229 net.cpp:399] data -> data
I0403 15:33:56.783156  3229 net.cpp:399] data -> label
I0403 15:33:56.783193  3229 data_transformer.cpp:25] Loading mean file from: /home/mohanty/data/final_dataset/lmdb/segmented-60-40/mean.binaryproto
I0403 15:33:56.785946  3233 db_lmdb.cpp:38] Opened lmdb /home/mohanty/data/final_dataset/lmdb/segmented-60-40/test_db
I0403 15:33:56.796334  3229 data_layer.cpp:41] output data size: 24,3,224,224
I0403 15:33:56.824964  3229 net.cpp:141] Setting up data
I0403 15:33:56.825067  3229 net.cpp:148] Top shape: 24 3 224 224 (3612672)
I0403 15:33:56.825090  3229 net.cpp:148] Top shape: 24 (24)
I0403 15:33:56.825106  3229 net.cpp:156] Memory required for data: 14450784
I0403 15:33:56.825135  3229 layer_factory.hpp:77] Creating layer label_data_1_split
I0403 15:33:56.825165  3229 net.cpp:91] Creating Layer label_data_1_split
I0403 15:33:56.825183  3229 net.cpp:425] label_data_1_split <- label
I0403 15:33:56.825222  3229 net.cpp:399] label_data_1_split -> label_data_1_split_0
I0403 15:33:56.825253  3229 net.cpp:399] label_data_1_split -> label_data_1_split_1
I0403 15:33:56.825274  3229 net.cpp:399] label_data_1_split -> label_data_1_split_2
I0403 15:33:56.825296  3229 net.cpp:399] label_data_1_split -> label_data_1_split_3
I0403 15:33:56.825317  3229 net.cpp:399] label_data_1_split -> label_data_1_split_4
I0403 15:33:56.825338  3229 net.cpp:399] label_data_1_split -> label_data_1_split_5
I0403 15:33:56.825358  3229 net.cpp:399] label_data_1_split -> label_data_1_split_6
I0403 15:33:56.825378  3229 net.cpp:399] label_data_1_split -> label_data_1_split_7
I0403 15:33:56.825399  3229 net.cpp:399] label_data_1_split -> label_data_1_split_8
I0403 15:33:56.825420  3229 net.cpp:399] label_data_1_split -> label_data_1_split_9
I0403 15:33:56.825541  3229 net.cpp:141] Setting up label_data_1_split
I0403 15:33:56.825567  3229 net.cpp:148] Top shape: 24 (24)
I0403 15:33:56.825583  3229 net.cpp:148] Top shape: 24 (24)
I0403 15:33:56.825600  3229 net.cpp:148] Top shape: 24 (24)
I0403 15:33:56.825618  3229 net.cpp:148] Top shape: 24 (24)
I0403 15:33:56.825634  3229 net.cpp:148] Top shape: 24 (24)
I0403 15:33:56.825650  3229 net.cpp:148] Top shape: 24 (24)
I0403 15:33:56.825667  3229 net.cpp:148] Top shape: 24 (24)
I0403 15:33:56.825683  3229 net.cpp:148] Top shape: 24 (24)
I0403 15:33:56.825700  3229 net.cpp:148] Top shape: 24 (24)
I0403 15:33:56.825717  3229 net.cpp:148] Top shape: 24 (24)
I0403 15:33:56.825762  3229 net.cpp:156] Memory required for data: 14451744
I0403 15:33:56.825778  3229 layer_factory.hpp:77] Creating layer conv1/7x7_s2
I0403 15:33:56.825811  3229 net.cpp:91] Creating Layer conv1/7x7_s2
I0403 15:33:56.825830  3229 net.cpp:425] conv1/7x7_s2 <- data
I0403 15:33:56.825850  3229 net.cpp:399] conv1/7x7_s2 -> conv1/7x7_s2
I0403 15:33:56.972306  3229 net.cpp:141] Setting up conv1/7x7_s2
I0403 15:33:56.972399  3229 net.cpp:148] Top shape: 24 64 112 112 (19267584)
I0403 15:33:56.972417  3229 net.cpp:156] Memory required for data: 91522080
I0403 15:33:56.972450  3229 layer_factory.hpp:77] Creating layer conv1/relu_7x7
I0403 15:33:56.972477  3229 net.cpp:91] Creating Layer conv1/relu_7x7
I0403 15:33:56.972496  3229 net.cpp:425] conv1/relu_7x7 <- conv1/7x7_s2
I0403 15:33:56.972514  3229 net.cpp:386] conv1/relu_7x7 -> conv1/7x7_s2 (in-place)
I0403 15:33:56.972798  3229 net.cpp:141] Setting up conv1/relu_7x7
I0403 15:33:56.972826  3229 net.cpp:148] Top shape: 24 64 112 112 (19267584)
I0403 15:33:56.972842  3229 net.cpp:156] Memory required for data: 168592416
I0403 15:33:56.972858  3229 layer_factory.hpp:77] Creating layer pool1/3x3_s2
I0403 15:33:56.972884  3229 net.cpp:91] Creating Layer pool1/3x3_s2
I0403 15:33:56.972903  3229 net.cpp:425] pool1/3x3_s2 <- conv1/7x7_s2
I0403 15:33:56.972921  3229 net.cpp:399] pool1/3x3_s2 -> pool1/3x3_s2
I0403 15:33:56.972996  3229 net.cpp:141] Setting up pool1/3x3_s2
I0403 15:33:56.973021  3229 net.cpp:148] Top shape: 24 64 56 56 (4816896)
I0403 15:33:56.973036  3229 net.cpp:156] Memory required for data: 187860000
I0403 15:33:56.973050  3229 layer_factory.hpp:77] Creating layer pool1/norm1
I0403 15:33:56.973075  3229 net.cpp:91] Creating Layer pool1/norm1
I0403 15:33:56.973093  3229 net.cpp:425] pool1/norm1 <- pool1/3x3_s2
I0403 15:33:56.973112  3229 net.cpp:399] pool1/norm1 -> pool1/norm1
I0403 15:33:56.973417  3229 net.cpp:141] Setting up pool1/norm1
I0403 15:33:56.973444  3229 net.cpp:148] Top shape: 24 64 56 56 (4816896)
I0403 15:33:56.973460  3229 net.cpp:156] Memory required for data: 207127584
I0403 15:33:56.973475  3229 layer_factory.hpp:77] Creating layer conv2/3x3_reduce
I0403 15:33:56.973500  3229 net.cpp:91] Creating Layer conv2/3x3_reduce
I0403 15:33:56.973516  3229 net.cpp:425] conv2/3x3_reduce <- pool1/norm1
I0403 15:33:56.973536  3229 net.cpp:399] conv2/3x3_reduce -> conv2/3x3_reduce
I0403 15:33:56.974933  3229 net.cpp:141] Setting up conv2/3x3_reduce
I0403 15:33:56.974979  3229 net.cpp:148] Top shape: 24 64 56 56 (4816896)
I0403 15:33:56.975003  3229 net.cpp:156] Memory required for data: 226395168
I0403 15:33:56.975024  3229 layer_factory.hpp:77] Creating layer conv2/relu_3x3_reduce
I0403 15:33:56.975042  3229 net.cpp:91] Creating Layer conv2/relu_3x3_reduce
I0403 15:33:56.975059  3229 net.cpp:425] conv2/relu_3x3_reduce <- conv2/3x3_reduce
I0403 15:33:56.975075  3229 net.cpp:386] conv2/relu_3x3_reduce -> conv2/3x3_reduce (in-place)
I0403 15:33:56.975364  3229 net.cpp:141] Setting up conv2/relu_3x3_reduce
I0403 15:33:56.975394  3229 net.cpp:148] Top shape: 24 64 56 56 (4816896)
I0403 15:33:56.975409  3229 net.cpp:156] Memory required for data: 245662752
I0403 15:33:56.975425  3229 layer_factory.hpp:77] Creating layer conv2/3x3
I0403 15:33:56.975450  3229 net.cpp:91] Creating Layer conv2/3x3
I0403 15:33:56.975467  3229 net.cpp:425] conv2/3x3 <- conv2/3x3_reduce
I0403 15:33:56.975487  3229 net.cpp:399] conv2/3x3 -> conv2/3x3
I0403 15:33:56.977856  3229 net.cpp:141] Setting up conv2/3x3
I0403 15:33:56.977890  3229 net.cpp:148] Top shape: 24 192 56 56 (14450688)
I0403 15:33:56.977908  3229 net.cpp:156] Memory required for data: 303465504
I0403 15:33:56.977931  3229 layer_factory.hpp:77] Creating layer conv2/relu_3x3
I0403 15:33:56.977951  3229 net.cpp:91] Creating Layer conv2/relu_3x3
I0403 15:33:56.977967  3229 net.cpp:425] conv2/relu_3x3 <- conv2/3x3
I0403 15:33:56.977984  3229 net.cpp:386] conv2/relu_3x3 -> conv2/3x3 (in-place)
I0403 15:33:56.978168  3229 net.cpp:141] Setting up conv2/relu_3x3
I0403 15:33:56.978193  3229 net.cpp:148] Top shape: 24 192 56 56 (14450688)
I0403 15:33:56.978245  3229 net.cpp:156] Memory required for data: 361268256
I0403 15:33:56.978261  3229 layer_factory.hpp:77] Creating layer conv2/norm2
I0403 15:33:56.978283  3229 net.cpp:91] Creating Layer conv2/norm2
I0403 15:33:56.978302  3229 net.cpp:425] conv2/norm2 <- conv2/3x3
I0403 15:33:56.978320  3229 net.cpp:399] conv2/norm2 -> conv2/norm2
I0403 15:33:56.978628  3229 net.cpp:141] Setting up conv2/norm2
I0403 15:33:56.978655  3229 net.cpp:148] Top shape: 24 192 56 56 (14450688)
I0403 15:33:56.978672  3229 net.cpp:156] Memory required for data: 419071008
I0403 15:33:56.978687  3229 layer_factory.hpp:77] Creating layer pool2/3x3_s2
I0403 15:33:56.978708  3229 net.cpp:91] Creating Layer pool2/3x3_s2
I0403 15:33:56.978724  3229 net.cpp:425] pool2/3x3_s2 <- conv2/norm2
I0403 15:33:56.978742  3229 net.cpp:399] pool2/3x3_s2 -> pool2/3x3_s2
I0403 15:33:56.978799  3229 net.cpp:141] Setting up pool2/3x3_s2
I0403 15:33:56.978822  3229 net.cpp:148] Top shape: 24 192 28 28 (3612672)
I0403 15:33:56.978837  3229 net.cpp:156] Memory required for data: 433521696
I0403 15:33:56.978852  3229 layer_factory.hpp:77] Creating layer pool2/3x3_s2_pool2/3x3_s2_0_split
I0403 15:33:56.978870  3229 net.cpp:91] Creating Layer pool2/3x3_s2_pool2/3x3_s2_0_split
I0403 15:33:56.978885  3229 net.cpp:425] pool2/3x3_s2_pool2/3x3_s2_0_split <- pool2/3x3_s2
I0403 15:33:56.978905  3229 net.cpp:399] pool2/3x3_s2_pool2/3x3_s2_0_split -> pool2/3x3_s2_pool2/3x3_s2_0_split_0
I0403 15:33:56.978926  3229 net.cpp:399] pool2/3x3_s2_pool2/3x3_s2_0_split -> pool2/3x3_s2_pool2/3x3_s2_0_split_1
I0403 15:33:56.978947  3229 net.cpp:399] pool2/3x3_s2_pool2/3x3_s2_0_split -> pool2/3x3_s2_pool2/3x3_s2_0_split_2
I0403 15:33:56.978966  3229 net.cpp:399] pool2/3x3_s2_pool2/3x3_s2_0_split -> pool2/3x3_s2_pool2/3x3_s2_0_split_3
I0403 15:33:56.979044  3229 net.cpp:141] Setting up pool2/3x3_s2_pool2/3x3_s2_0_split
I0403 15:33:56.979069  3229 net.cpp:148] Top shape: 24 192 28 28 (3612672)
I0403 15:33:56.979086  3229 net.cpp:148] Top shape: 24 192 28 28 (3612672)
I0403 15:33:56.979104  3229 net.cpp:148] Top shape: 24 192 28 28 (3612672)
I0403 15:33:56.979120  3229 net.cpp:148] Top shape: 24 192 28 28 (3612672)
I0403 15:33:56.979133  3229 net.cpp:156] Memory required for data: 491324448
I0403 15:33:56.979148  3229 layer_factory.hpp:77] Creating layer inception_3a/1x1
I0403 15:33:56.979171  3229 net.cpp:91] Creating Layer inception_3a/1x1
I0403 15:33:56.979188  3229 net.cpp:425] inception_3a/1x1 <- pool2/3x3_s2_pool2/3x3_s2_0_split_0
I0403 15:33:56.979207  3229 net.cpp:399] inception_3a/1x1 -> inception_3a/1x1
I0403 15:33:56.980769  3229 net.cpp:141] Setting up inception_3a/1x1
I0403 15:33:56.980799  3229 net.cpp:148] Top shape: 24 64 28 28 (1204224)
I0403 15:33:56.980816  3229 net.cpp:156] Memory required for data: 496141344
I0403 15:33:56.980836  3229 layer_factory.hpp:77] Creating layer inception_3a/relu_1x1
I0403 15:33:56.980857  3229 net.cpp:91] Creating Layer inception_3a/relu_1x1
I0403 15:33:56.980875  3229 net.cpp:425] inception_3a/relu_1x1 <- inception_3a/1x1
I0403 15:33:56.980892  3229 net.cpp:386] inception_3a/relu_1x1 -> inception_3a/1x1 (in-place)
I0403 15:33:56.981070  3229 net.cpp:141] Setting up inception_3a/relu_1x1
I0403 15:33:56.981096  3229 net.cpp:148] Top shape: 24 64 28 28 (1204224)
I0403 15:33:56.981111  3229 net.cpp:156] Memory required for data: 500958240
I0403 15:33:56.981125  3229 layer_factory.hpp:77] Creating layer inception_3a/3x3_reduce
I0403 15:33:56.981148  3229 net.cpp:91] Creating Layer inception_3a/3x3_reduce
I0403 15:33:56.981166  3229 net.cpp:425] inception_3a/3x3_reduce <- pool2/3x3_s2_pool2/3x3_s2_0_split_1
I0403 15:33:56.981187  3229 net.cpp:399] inception_3a/3x3_reduce -> inception_3a/3x3_reduce
I0403 15:33:56.982941  3229 net.cpp:141] Setting up inception_3a/3x3_reduce
I0403 15:33:56.982974  3229 net.cpp:148] Top shape: 24 96 28 28 (1806336)
I0403 15:33:56.982990  3229 net.cpp:156] Memory required for data: 508183584
I0403 15:33:56.983013  3229 layer_factory.hpp:77] Creating layer inception_3a/relu_3x3_reduce
I0403 15:33:56.983048  3229 net.cpp:91] Creating Layer inception_3a/relu_3x3_reduce
I0403 15:33:56.983067  3229 net.cpp:425] inception_3a/relu_3x3_reduce <- inception_3a/3x3_reduce
I0403 15:33:56.983086  3229 net.cpp:386] inception_3a/relu_3x3_reduce -> inception_3a/3x3_reduce (in-place)
I0403 15:33:56.983300  3229 net.cpp:141] Setting up inception_3a/relu_3x3_reduce
I0403 15:33:56.983327  3229 net.cpp:148] Top shape: 24 96 28 28 (1806336)
I0403 15:33:56.983343  3229 net.cpp:156] Memory required for data: 515408928
I0403 15:33:56.983358  3229 layer_factory.hpp:77] Creating layer inception_3a/3x3
I0403 15:33:56.983381  3229 net.cpp:91] Creating Layer inception_3a/3x3
I0403 15:33:56.983399  3229 net.cpp:425] inception_3a/3x3 <- inception_3a/3x3_reduce
I0403 15:33:56.983423  3229 net.cpp:399] inception_3a/3x3 -> inception_3a/3x3
I0403 15:33:56.985159  3229 net.cpp:141] Setting up inception_3a/3x3
I0403 15:33:56.985193  3229 net.cpp:148] Top shape: 24 128 28 28 (2408448)
I0403 15:33:56.985214  3229 net.cpp:156] Memory required for data: 525042720
I0403 15:33:56.985234  3229 layer_factory.hpp:77] Creating layer inception_3a/relu_3x3
I0403 15:33:56.985255  3229 net.cpp:91] Creating Layer inception_3a/relu_3x3
I0403 15:33:56.985270  3229 net.cpp:425] inception_3a/relu_3x3 <- inception_3a/3x3
I0403 15:33:56.985291  3229 net.cpp:386] inception_3a/relu_3x3 -> inception_3a/3x3 (in-place)
I0403 15:33:56.985566  3229 net.cpp:141] Setting up inception_3a/relu_3x3
I0403 15:33:56.985595  3229 net.cpp:148] Top shape: 24 128 28 28 (2408448)
I0403 15:33:56.985611  3229 net.cpp:156] Memory required for data: 534676512
I0403 15:33:56.985627  3229 layer_factory.hpp:77] Creating layer inception_3a/5x5_reduce
I0403 15:33:56.985652  3229 net.cpp:91] Creating Layer inception_3a/5x5_reduce
I0403 15:33:56.985669  3229 net.cpp:425] inception_3a/5x5_reduce <- pool2/3x3_s2_pool2/3x3_s2_0_split_2
I0403 15:33:56.985689  3229 net.cpp:399] inception_3a/5x5_reduce -> inception_3a/5x5_reduce
I0403 15:33:56.986676  3229 net.cpp:141] Setting up inception_3a/5x5_reduce
I0403 15:33:56.986707  3229 net.cpp:148] Top shape: 24 16 28 28 (301056)
I0403 15:33:56.986724  3229 net.cpp:156] Memory required for data: 535880736
I0403 15:33:56.986743  3229 layer_factory.hpp:77] Creating layer inception_3a/relu_5x5_reduce
I0403 15:33:56.986763  3229 net.cpp:91] Creating Layer inception_3a/relu_5x5_reduce
I0403 15:33:56.986778  3229 net.cpp:425] inception_3a/relu_5x5_reduce <- inception_3a/5x5_reduce
I0403 15:33:56.986799  3229 net.cpp:386] inception_3a/relu_5x5_reduce -> inception_3a/5x5_reduce (in-place)
I0403 15:33:56.987103  3229 net.cpp:141] Setting up inception_3a/relu_5x5_reduce
I0403 15:33:56.987130  3229 net.cpp:148] Top shape: 24 16 28 28 (301056)
I0403 15:33:56.987146  3229 net.cpp:156] Memory required for data: 537084960
I0403 15:33:56.987162  3229 layer_factory.hpp:77] Creating layer inception_3a/5x5
I0403 15:33:56.987186  3229 net.cpp:91] Creating Layer inception_3a/5x5
I0403 15:33:56.987205  3229 net.cpp:425] inception_3a/5x5 <- inception_3a/5x5_reduce
I0403 15:33:56.987231  3229 net.cpp:399] inception_3a/5x5 -> inception_3a/5x5
I0403 15:33:56.988308  3229 net.cpp:141] Setting up inception_3a/5x5
I0403 15:33:56.988337  3229 net.cpp:148] Top shape: 24 32 28 28 (602112)
I0403 15:33:56.988353  3229 net.cpp:156] Memory required for data: 539493408
I0403 15:33:56.988373  3229 layer_factory.hpp:77] Creating layer inception_3a/relu_5x5
I0403 15:33:56.988395  3229 net.cpp:91] Creating Layer inception_3a/relu_5x5
I0403 15:33:56.988414  3229 net.cpp:425] inception_3a/relu_5x5 <- inception_3a/5x5
I0403 15:33:56.988431  3229 net.cpp:386] inception_3a/relu_5x5 -> inception_3a/5x5 (in-place)
I0403 15:33:56.988615  3229 net.cpp:141] Setting up inception_3a/relu_5x5
I0403 15:33:56.988641  3229 net.cpp:148] Top shape: 24 32 28 28 (602112)
I0403 15:33:56.988656  3229 net.cpp:156] Memory required for data: 541901856
I0403 15:33:56.988672  3229 layer_factory.hpp:77] Creating layer inception_3a/pool
I0403 15:33:56.988690  3229 net.cpp:91] Creating Layer inception_3a/pool
I0403 15:33:56.988721  3229 net.cpp:425] inception_3a/pool <- pool2/3x3_s2_pool2/3x3_s2_0_split_3
I0403 15:33:56.988744  3229 net.cpp:399] inception_3a/pool -> inception_3a/pool
I0403 15:33:56.988807  3229 net.cpp:141] Setting up inception_3a/pool
I0403 15:33:56.988831  3229 net.cpp:148] Top shape: 24 192 28 28 (3612672)
I0403 15:33:56.988847  3229 net.cpp:156] Memory required for data: 556352544
I0403 15:33:56.988862  3229 layer_factory.hpp:77] Creating layer inception_3a/pool_proj
I0403 15:33:56.988888  3229 net.cpp:91] Creating Layer inception_3a/pool_proj
I0403 15:33:56.988906  3229 net.cpp:425] inception_3a/pool_proj <- inception_3a/pool
I0403 15:33:56.988926  3229 net.cpp:399] inception_3a/pool_proj -> inception_3a/pool_proj
I0403 15:33:56.989944  3229 net.cpp:141] Setting up inception_3a/pool_proj
I0403 15:33:56.989974  3229 net.cpp:148] Top shape: 24 32 28 28 (602112)
I0403 15:33:56.989990  3229 net.cpp:156] Memory required for data: 558760992
I0403 15:33:56.990016  3229 layer_factory.hpp:77] Creating layer inception_3a/relu_pool_proj
I0403 15:33:56.990037  3229 net.cpp:91] Creating Layer inception_3a/relu_pool_proj
I0403 15:33:56.990053  3229 net.cpp:425] inception_3a/relu_pool_proj <- inception_3a/pool_proj
I0403 15:33:56.990073  3229 net.cpp:386] inception_3a/relu_pool_proj -> inception_3a/pool_proj (in-place)
I0403 15:33:56.990363  3229 net.cpp:141] Setting up inception_3a/relu_pool_proj
I0403 15:33:56.990393  3229 net.cpp:148] Top shape: 24 32 28 28 (602112)
I0403 15:33:56.990411  3229 net.cpp:156] Memory required for data: 561169440
I0403 15:33:56.990427  3229 layer_factory.hpp:77] Creating layer inception_3a/output
I0403 15:33:56.990445  3229 net.cpp:91] Creating Layer inception_3a/output
I0403 15:33:56.990463  3229 net.cpp:425] inception_3a/output <- inception_3a/1x1
I0403 15:33:56.990479  3229 net.cpp:425] inception_3a/output <- inception_3a/3x3
I0403 15:33:56.990496  3229 net.cpp:425] inception_3a/output <- inception_3a/5x5
I0403 15:33:56.990514  3229 net.cpp:425] inception_3a/output <- inception_3a/pool_proj
I0403 15:33:56.990531  3229 net.cpp:399] inception_3a/output -> inception_3a/output
I0403 15:33:56.990582  3229 net.cpp:141] Setting up inception_3a/output
I0403 15:33:56.990607  3229 net.cpp:148] Top shape: 24 256 28 28 (4816896)
I0403 15:33:56.990622  3229 net.cpp:156] Memory required for data: 580437024
I0403 15:33:56.990638  3229 layer_factory.hpp:77] Creating layer inception_3a/output_inception_3a/output_0_split
I0403 15:33:56.990658  3229 net.cpp:91] Creating Layer inception_3a/output_inception_3a/output_0_split
I0403 15:33:56.990675  3229 net.cpp:425] inception_3a/output_inception_3a/output_0_split <- inception_3a/output
I0403 15:33:56.990694  3229 net.cpp:399] inception_3a/output_inception_3a/output_0_split -> inception_3a/output_inception_3a/output_0_split_0
I0403 15:33:56.990715  3229 net.cpp:399] inception_3a/output_inception_3a/output_0_split -> inception_3a/output_inception_3a/output_0_split_1
I0403 15:33:56.990741  3229 net.cpp:399] inception_3a/output_inception_3a/output_0_split -> inception_3a/output_inception_3a/output_0_split_2
I0403 15:33:56.990763  3229 net.cpp:399] inception_3a/output_inception_3a/output_0_split -> inception_3a/output_inception_3a/output_0_split_3
I0403 15:33:56.990840  3229 net.cpp:141] Setting up inception_3a/output_inception_3a/output_0_split
I0403 15:33:56.990864  3229 net.cpp:148] Top shape: 24 256 28 28 (4816896)
I0403 15:33:56.990885  3229 net.cpp:148] Top shape: 24 256 28 28 (4816896)
I0403 15:33:56.990902  3229 net.cpp:148] Top shape: 24 256 28 28 (4816896)
I0403 15:33:56.990918  3229 net.cpp:148] Top shape: 24 256 28 28 (4816896)
I0403 15:33:56.990932  3229 net.cpp:156] Memory required for data: 657507360
I0403 15:33:56.990948  3229 layer_factory.hpp:77] Creating layer inception_3b/1x1
I0403 15:33:56.990968  3229 net.cpp:91] Creating Layer inception_3b/1x1
I0403 15:33:56.990985  3229 net.cpp:425] inception_3b/1x1 <- inception_3a/output_inception_3a/output_0_split_0
I0403 15:33:56.991010  3229 net.cpp:399] inception_3b/1x1 -> inception_3b/1x1
I0403 15:33:56.992218  3229 net.cpp:141] Setting up inception_3b/1x1
I0403 15:33:56.992261  3229 net.cpp:148] Top shape: 24 128 28 28 (2408448)
I0403 15:33:56.992279  3229 net.cpp:156] Memory required for data: 667141152
I0403 15:33:56.992297  3229 layer_factory.hpp:77] Creating layer inception_3b/relu_1x1
I0403 15:33:56.992319  3229 net.cpp:91] Creating Layer inception_3b/relu_1x1
I0403 15:33:56.992336  3229 net.cpp:425] inception_3b/relu_1x1 <- inception_3b/1x1
I0403 15:33:56.992355  3229 net.cpp:386] inception_3b/relu_1x1 -> inception_3b/1x1 (in-place)
I0403 15:33:56.992552  3229 net.cpp:141] Setting up inception_3b/relu_1x1
I0403 15:33:56.992580  3229 net.cpp:148] Top shape: 24 128 28 28 (2408448)
I0403 15:33:56.992596  3229 net.cpp:156] Memory required for data: 676774944
I0403 15:33:56.992611  3229 layer_factory.hpp:77] Creating layer inception_3b/3x3_reduce
I0403 15:33:56.992635  3229 net.cpp:91] Creating Layer inception_3b/3x3_reduce
I0403 15:33:56.992651  3229 net.cpp:425] inception_3b/3x3_reduce <- inception_3a/output_inception_3a/output_0_split_1
I0403 15:33:56.992671  3229 net.cpp:399] inception_3b/3x3_reduce -> inception_3b/3x3_reduce
I0403 15:33:56.993834  3229 net.cpp:141] Setting up inception_3b/3x3_reduce
I0403 15:33:56.993862  3229 net.cpp:148] Top shape: 24 128 28 28 (2408448)
I0403 15:33:56.993877  3229 net.cpp:156] Memory required for data: 686408736
I0403 15:33:56.993896  3229 layer_factory.hpp:77] Creating layer inception_3b/relu_3x3_reduce
I0403 15:33:56.993916  3229 net.cpp:91] Creating Layer inception_3b/relu_3x3_reduce
I0403 15:33:56.993934  3229 net.cpp:425] inception_3b/relu_3x3_reduce <- inception_3b/3x3_reduce
I0403 15:33:56.993952  3229 net.cpp:386] inception_3b/relu_3x3_reduce -> inception_3b/3x3_reduce (in-place)
I0403 15:33:56.994128  3229 net.cpp:141] Setting up inception_3b/relu_3x3_reduce
I0403 15:33:56.994155  3229 net.cpp:148] Top shape: 24 128 28 28 (2408448)
I0403 15:33:56.994171  3229 net.cpp:156] Memory required for data: 696042528
I0403 15:33:56.994186  3229 layer_factory.hpp:77] Creating layer inception_3b/3x3
I0403 15:33:56.994215  3229 net.cpp:91] Creating Layer inception_3b/3x3
I0403 15:33:56.994235  3229 net.cpp:425] inception_3b/3x3 <- inception_3b/3x3_reduce
I0403 15:33:56.994257  3229 net.cpp:399] inception_3b/3x3 -> inception_3b/3x3
I0403 15:33:56.997279  3229 net.cpp:141] Setting up inception_3b/3x3
I0403 15:33:56.997311  3229 net.cpp:148] Top shape: 24 192 28 28 (3612672)
I0403 15:33:56.997328  3229 net.cpp:156] Memory required for data: 710493216
I0403 15:33:56.997347  3229 layer_factory.hpp:77] Creating layer inception_3b/relu_3x3
I0403 15:33:56.997366  3229 net.cpp:91] Creating Layer inception_3b/relu_3x3
I0403 15:33:56.997381  3229 net.cpp:425] inception_3b/relu_3x3 <- inception_3b/3x3
I0403 15:33:56.997405  3229 net.cpp:386] inception_3b/relu_3x3 -> inception_3b/3x3 (in-place)
I0403 15:33:56.997689  3229 net.cpp:141] Setting up inception_3b/relu_3x3
I0403 15:33:56.997717  3229 net.cpp:148] Top shape: 24 192 28 28 (3612672)
I0403 15:33:56.997735  3229 net.cpp:156] Memory required for data: 724943904
I0403 15:33:56.997750  3229 layer_factory.hpp:77] Creating layer inception_3b/5x5_reduce
I0403 15:33:56.997773  3229 net.cpp:91] Creating Layer inception_3b/5x5_reduce
I0403 15:33:56.997792  3229 net.cpp:425] inception_3b/5x5_reduce <- inception_3a/output_inception_3a/output_0_split_2
I0403 15:33:56.997810  3229 net.cpp:399] inception_3b/5x5_reduce -> inception_3b/5x5_reduce
I0403 15:33:56.998827  3229 net.cpp:141] Setting up inception_3b/5x5_reduce
I0403 15:33:56.998858  3229 net.cpp:148] Top shape: 24 32 28 28 (602112)
I0403 15:33:56.998874  3229 net.cpp:156] Memory required for data: 727352352
I0403 15:33:56.998894  3229 layer_factory.hpp:77] Creating layer inception_3b/relu_5x5_reduce
I0403 15:33:56.998913  3229 net.cpp:91] Creating Layer inception_3b/relu_5x5_reduce
I0403 15:33:56.998929  3229 net.cpp:425] inception_3b/relu_5x5_reduce <- inception_3b/5x5_reduce
I0403 15:33:56.998949  3229 net.cpp:386] inception_3b/relu_5x5_reduce -> inception_3b/5x5_reduce (in-place)
I0403 15:33:56.999142  3229 net.cpp:141] Setting up inception_3b/relu_5x5_reduce
I0403 15:33:56.999168  3229 net.cpp:148] Top shape: 24 32 28 28 (602112)
I0403 15:33:56.999183  3229 net.cpp:156] Memory required for data: 729760800
I0403 15:33:56.999198  3229 layer_factory.hpp:77] Creating layer inception_3b/5x5
I0403 15:33:56.999227  3229 net.cpp:91] Creating Layer inception_3b/5x5
I0403 15:33:56.999245  3229 net.cpp:425] inception_3b/5x5 <- inception_3b/5x5_reduce
I0403 15:33:56.999266  3229 net.cpp:399] inception_3b/5x5 -> inception_3b/5x5
I0403 15:33:57.001327  3229 net.cpp:141] Setting up inception_3b/5x5
I0403 15:33:57.001355  3229 net.cpp:148] Top shape: 24 96 28 28 (1806336)
I0403 15:33:57.001371  3229 net.cpp:156] Memory required for data: 736986144
I0403 15:33:57.001390  3229 layer_factory.hpp:77] Creating layer inception_3b/relu_5x5
I0403 15:33:57.001411  3229 net.cpp:91] Creating Layer inception_3b/relu_5x5
I0403 15:33:57.001427  3229 net.cpp:425] inception_3b/relu_5x5 <- inception_3b/5x5
I0403 15:33:57.001446  3229 net.cpp:386] inception_3b/relu_5x5 -> inception_3b/5x5 (in-place)
I0403 15:33:57.001659  3229 net.cpp:141] Setting up inception_3b/relu_5x5
I0403 15:33:57.001685  3229 net.cpp:148] Top shape: 24 96 28 28 (1806336)
I0403 15:33:57.001701  3229 net.cpp:156] Memory required for data: 744211488
I0403 15:33:57.001718  3229 layer_factory.hpp:77] Creating layer inception_3b/pool
I0403 15:33:57.001741  3229 net.cpp:91] Creating Layer inception_3b/pool
I0403 15:33:57.001759  3229 net.cpp:425] inception_3b/pool <- inception_3a/output_inception_3a/output_0_split_3
I0403 15:33:57.001777  3229 net.cpp:399] inception_3b/pool -> inception_3b/pool
I0403 15:33:57.001837  3229 net.cpp:141] Setting up inception_3b/pool
I0403 15:33:57.001862  3229 net.cpp:148] Top shape: 24 256 28 28 (4816896)
I0403 15:33:57.001876  3229 net.cpp:156] Memory required for data: 763479072
I0403 15:33:57.001891  3229 layer_factory.hpp:77] Creating layer inception_3b/pool_proj
I0403 15:33:57.001926  3229 net.cpp:91] Creating Layer inception_3b/pool_proj
I0403 15:33:57.001945  3229 net.cpp:425] inception_3b/pool_proj <- inception_3b/pool
I0403 15:33:57.001965  3229 net.cpp:399] inception_3b/pool_proj -> inception_3b/pool_proj
I0403 15:33:57.003093  3229 net.cpp:141] Setting up inception_3b/pool_proj
I0403 15:33:57.003121  3229 net.cpp:148] Top shape: 24 64 28 28 (1204224)
I0403 15:33:57.003137  3229 net.cpp:156] Memory required for data: 768295968
I0403 15:33:57.003156  3229 layer_factory.hpp:77] Creating layer inception_3b/relu_pool_proj
I0403 15:33:57.003175  3229 net.cpp:91] Creating Layer inception_3b/relu_pool_proj
I0403 15:33:57.003192  3229 net.cpp:425] inception_3b/relu_pool_proj <- inception_3b/pool_proj
I0403 15:33:57.003216  3229 net.cpp:386] inception_3b/relu_pool_proj -> inception_3b/pool_proj (in-place)
I0403 15:33:57.003624  3229 net.cpp:141] Setting up inception_3b/relu_pool_proj
I0403 15:33:57.003654  3229 net.cpp:148] Top shape: 24 64 28 28 (1204224)
I0403 15:33:57.003670  3229 net.cpp:156] Memory required for data: 773112864
I0403 15:33:57.003685  3229 layer_factory.hpp:77] Creating layer inception_3b/output
I0403 15:33:57.003703  3229 net.cpp:91] Creating Layer inception_3b/output
I0403 15:33:57.003720  3229 net.cpp:425] inception_3b/output <- inception_3b/1x1
I0403 15:33:57.003737  3229 net.cpp:425] inception_3b/output <- inception_3b/3x3
I0403 15:33:57.003753  3229 net.cpp:425] inception_3b/output <- inception_3b/5x5
I0403 15:33:57.003770  3229 net.cpp:425] inception_3b/output <- inception_3b/pool_proj
I0403 15:33:57.003789  3229 net.cpp:399] inception_3b/output -> inception_3b/output
I0403 15:33:57.003835  3229 net.cpp:141] Setting up inception_3b/output
I0403 15:33:57.003859  3229 net.cpp:148] Top shape: 24 480 28 28 (9031680)
I0403 15:33:57.003873  3229 net.cpp:156] Memory required for data: 809239584
I0403 15:33:57.003888  3229 layer_factory.hpp:77] Creating layer pool3/3x3_s2
I0403 15:33:57.003908  3229 net.cpp:91] Creating Layer pool3/3x3_s2
I0403 15:33:57.003926  3229 net.cpp:425] pool3/3x3_s2 <- inception_3b/output
I0403 15:33:57.003959  3229 net.cpp:399] pool3/3x3_s2 -> pool3/3x3_s2
I0403 15:33:57.004021  3229 net.cpp:141] Setting up pool3/3x3_s2
I0403 15:33:57.004045  3229 net.cpp:148] Top shape: 24 480 14 14 (2257920)
I0403 15:33:57.004060  3229 net.cpp:156] Memory required for data: 818271264
I0403 15:33:57.004075  3229 layer_factory.hpp:77] Creating layer pool3/3x3_s2_pool3/3x3_s2_0_split
I0403 15:33:57.004093  3229 net.cpp:91] Creating Layer pool3/3x3_s2_pool3/3x3_s2_0_split
I0403 15:33:57.004111  3229 net.cpp:425] pool3/3x3_s2_pool3/3x3_s2_0_split <- pool3/3x3_s2
I0403 15:33:57.004128  3229 net.cpp:399] pool3/3x3_s2_pool3/3x3_s2_0_split -> pool3/3x3_s2_pool3/3x3_s2_0_split_0
I0403 15:33:57.004148  3229 net.cpp:399] pool3/3x3_s2_pool3/3x3_s2_0_split -> pool3/3x3_s2_pool3/3x3_s2_0_split_1
I0403 15:33:57.004168  3229 net.cpp:399] pool3/3x3_s2_pool3/3x3_s2_0_split -> pool3/3x3_s2_pool3/3x3_s2_0_split_2
I0403 15:33:57.004189  3229 net.cpp:399] pool3/3x3_s2_pool3/3x3_s2_0_split -> pool3/3x3_s2_pool3/3x3_s2_0_split_3
I0403 15:33:57.004287  3229 net.cpp:141] Setting up pool3/3x3_s2_pool3/3x3_s2_0_split
I0403 15:33:57.004310  3229 net.cpp:148] Top shape: 24 480 14 14 (2257920)
I0403 15:33:57.004328  3229 net.cpp:148] Top shape: 24 480 14 14 (2257920)
I0403 15:33:57.004345  3229 net.cpp:148] Top shape: 24 480 14 14 (2257920)
I0403 15:33:57.004361  3229 net.cpp:148] Top shape: 24 480 14 14 (2257920)
I0403 15:33:57.004376  3229 net.cpp:156] Memory required for data: 854397984
I0403 15:33:57.004392  3229 layer_factory.hpp:77] Creating layer inception_4a/1x1
I0403 15:33:57.004415  3229 net.cpp:91] Creating Layer inception_4a/1x1
I0403 15:33:57.004433  3229 net.cpp:425] inception_4a/1x1 <- pool3/3x3_s2_pool3/3x3_s2_0_split_0
I0403 15:33:57.004456  3229 net.cpp:399] inception_4a/1x1 -> inception_4a/1x1
I0403 15:33:57.006081  3229 net.cpp:141] Setting up inception_4a/1x1
I0403 15:33:57.006121  3229 net.cpp:148] Top shape: 24 192 14 14 (903168)
I0403 15:33:57.006137  3229 net.cpp:156] Memory required for data: 858010656
I0403 15:33:57.006176  3229 layer_factory.hpp:77] Creating layer inception_4a/relu_1x1
I0403 15:33:57.006197  3229 net.cpp:91] Creating Layer inception_4a/relu_1x1
I0403 15:33:57.006230  3229 net.cpp:425] inception_4a/relu_1x1 <- inception_4a/1x1
I0403 15:33:57.006249  3229 net.cpp:386] inception_4a/relu_1x1 -> inception_4a/1x1 (in-place)
I0403 15:33:57.006430  3229 net.cpp:141] Setting up inception_4a/relu_1x1
I0403 15:33:57.006467  3229 net.cpp:148] Top shape: 24 192 14 14 (903168)
I0403 15:33:57.006485  3229 net.cpp:156] Memory required for data: 861623328
I0403 15:33:57.006500  3229 layer_factory.hpp:77] Creating layer inception_4a/3x3_reduce
I0403 15:33:57.006520  3229 net.cpp:91] Creating Layer inception_4a/3x3_reduce
I0403 15:33:57.006536  3229 net.cpp:425] inception_4a/3x3_reduce <- pool3/3x3_s2_pool3/3x3_s2_0_split_1
I0403 15:33:57.006556  3229 net.cpp:399] inception_4a/3x3_reduce -> inception_4a/3x3_reduce
I0403 15:33:57.007838  3229 net.cpp:141] Setting up inception_4a/3x3_reduce
I0403 15:33:57.007864  3229 net.cpp:148] Top shape: 24 96 14 14 (451584)
I0403 15:33:57.007880  3229 net.cpp:156] Memory required for data: 863429664
I0403 15:33:57.007905  3229 layer_factory.hpp:77] Creating layer inception_4a/relu_3x3_reduce
I0403 15:33:57.007925  3229 net.cpp:91] Creating Layer inception_4a/relu_3x3_reduce
I0403 15:33:57.007941  3229 net.cpp:425] inception_4a/relu_3x3_reduce <- inception_4a/3x3_reduce
I0403 15:33:57.007961  3229 net.cpp:386] inception_4a/relu_3x3_reduce -> inception_4a/3x3_reduce (in-place)
I0403 15:33:57.008138  3229 net.cpp:141] Setting up inception_4a/relu_3x3_reduce
I0403 15:33:57.008162  3229 net.cpp:148] Top shape: 24 96 14 14 (451584)
I0403 15:33:57.008177  3229 net.cpp:156] Memory required for data: 865236000
I0403 15:33:57.008191  3229 layer_factory.hpp:77] Creating layer inception_4a/3x3
I0403 15:33:57.008220  3229 net.cpp:91] Creating Layer inception_4a/3x3
I0403 15:33:57.008239  3229 net.cpp:425] inception_4a/3x3 <- inception_4a/3x3_reduce
I0403 15:33:57.008260  3229 net.cpp:399] inception_4a/3x3 -> inception_4a/3x3
I0403 15:33:57.010984  3229 net.cpp:141] Setting up inception_4a/3x3
I0403 15:33:57.011014  3229 net.cpp:148] Top shape: 24 208 14 14 (978432)
I0403 15:33:57.011030  3229 net.cpp:156] Memory required for data: 869149728
I0403 15:33:57.011049  3229 layer_factory.hpp:77] Creating layer inception_4a/relu_3x3
I0403 15:33:57.011067  3229 net.cpp:91] Creating Layer inception_4a/relu_3x3
I0403 15:33:57.011085  3229 net.cpp:425] inception_4a/relu_3x3 <- inception_4a/3x3
I0403 15:33:57.011101  3229 net.cpp:386] inception_4a/relu_3x3 -> inception_4a/3x3 (in-place)
I0403 15:33:57.011384  3229 net.cpp:141] Setting up inception_4a/relu_3x3
I0403 15:33:57.011409  3229 net.cpp:148] Top shape: 24 208 14 14 (978432)
I0403 15:33:57.011425  3229 net.cpp:156] Memory required for data: 873063456
I0403 15:33:57.011440  3229 layer_factory.hpp:77] Creating layer inception_4a/5x5_reduce
I0403 15:33:57.011462  3229 net.cpp:91] Creating Layer inception_4a/5x5_reduce
I0403 15:33:57.011484  3229 net.cpp:425] inception_4a/5x5_reduce <- pool3/3x3_s2_pool3/3x3_s2_0_split_2
I0403 15:33:57.011503  3229 net.cpp:399] inception_4a/5x5_reduce -> inception_4a/5x5_reduce
I0403 15:33:57.012531  3229 net.cpp:141] Setting up inception_4a/5x5_reduce
I0403 15:33:57.012558  3229 net.cpp:148] Top shape: 24 16 14 14 (75264)
I0403 15:33:57.012574  3229 net.cpp:156] Memory required for data: 873364512
I0403 15:33:57.012593  3229 layer_factory.hpp:77] Creating layer inception_4a/relu_5x5_reduce
I0403 15:33:57.012614  3229 net.cpp:91] Creating Layer inception_4a/relu_5x5_reduce
I0403 15:33:57.012630  3229 net.cpp:425] inception_4a/relu_5x5_reduce <- inception_4a/5x5_reduce
I0403 15:33:57.012650  3229 net.cpp:386] inception_4a/relu_5x5_reduce -> inception_4a/5x5_reduce (in-place)
I0403 15:33:57.012828  3229 net.cpp:141] Setting up inception_4a/relu_5x5_reduce
I0403 15:33:57.012852  3229 net.cpp:148] Top shape: 24 16 14 14 (75264)
I0403 15:33:57.012866  3229 net.cpp:156] Memory required for data: 873665568
I0403 15:33:57.012882  3229 layer_factory.hpp:77] Creating layer inception_4a/5x5
I0403 15:33:57.012904  3229 net.cpp:91] Creating Layer inception_4a/5x5
I0403 15:33:57.012922  3229 net.cpp:425] inception_4a/5x5 <- inception_4a/5x5_reduce
I0403 15:33:57.012941  3229 net.cpp:399] inception_4a/5x5 -> inception_4a/5x5
I0403 15:33:57.014024  3229 net.cpp:141] Setting up inception_4a/5x5
I0403 15:33:57.014051  3229 net.cpp:148] Top shape: 24 48 14 14 (225792)
I0403 15:33:57.014067  3229 net.cpp:156] Memory required for data: 874568736
I0403 15:33:57.014086  3229 layer_factory.hpp:77] Creating layer inception_4a/relu_5x5
I0403 15:33:57.014104  3229 net.cpp:91] Creating Layer inception_4a/relu_5x5
I0403 15:33:57.014120  3229 net.cpp:425] inception_4a/relu_5x5 <- inception_4a/5x5
I0403 15:33:57.014139  3229 net.cpp:386] inception_4a/relu_5x5 -> inception_4a/5x5 (in-place)
I0403 15:33:57.014323  3229 net.cpp:141] Setting up inception_4a/relu_5x5
I0403 15:33:57.014348  3229 net.cpp:148] Top shape: 24 48 14 14 (225792)
I0403 15:33:57.014363  3229 net.cpp:156] Memory required for data: 875471904
I0403 15:33:57.014377  3229 layer_factory.hpp:77] Creating layer inception_4a/pool
I0403 15:33:57.014397  3229 net.cpp:91] Creating Layer inception_4a/pool
I0403 15:33:57.014413  3229 net.cpp:425] inception_4a/pool <- pool3/3x3_s2_pool3/3x3_s2_0_split_3
I0403 15:33:57.014431  3229 net.cpp:399] inception_4a/pool -> inception_4a/pool
I0403 15:33:57.014493  3229 net.cpp:141] Setting up inception_4a/pool
I0403 15:33:57.014516  3229 net.cpp:148] Top shape: 24 480 14 14 (2257920)
I0403 15:33:57.014531  3229 net.cpp:156] Memory required for data: 884503584
I0403 15:33:57.014545  3229 layer_factory.hpp:77] Creating layer inception_4a/pool_proj
I0403 15:33:57.014567  3229 net.cpp:91] Creating Layer inception_4a/pool_proj
I0403 15:33:57.014585  3229 net.cpp:425] inception_4a/pool_proj <- inception_4a/pool
I0403 15:33:57.014607  3229 net.cpp:399] inception_4a/pool_proj -> inception_4a/pool_proj
I0403 15:33:57.015861  3229 net.cpp:141] Setting up inception_4a/pool_proj
I0403 15:33:57.015892  3229 net.cpp:148] Top shape: 24 64 14 14 (301056)
I0403 15:33:57.015924  3229 net.cpp:156] Memory required for data: 885707808
I0403 15:33:57.015944  3229 layer_factory.hpp:77] Creating layer inception_4a/relu_pool_proj
I0403 15:33:57.015965  3229 net.cpp:91] Creating Layer inception_4a/relu_pool_proj
I0403 15:33:57.015982  3229 net.cpp:425] inception_4a/relu_pool_proj <- inception_4a/pool_proj
I0403 15:33:57.016001  3229 net.cpp:386] inception_4a/relu_pool_proj -> inception_4a/pool_proj (in-place)
I0403 15:33:57.016304  3229 net.cpp:141] Setting up inception_4a/relu_pool_proj
I0403 15:33:57.016330  3229 net.cpp:148] Top shape: 24 64 14 14 (301056)
I0403 15:33:57.016345  3229 net.cpp:156] Memory required for data: 886912032
I0403 15:33:57.016360  3229 layer_factory.hpp:77] Creating layer inception_4a/output
I0403 15:33:57.016376  3229 net.cpp:91] Creating Layer inception_4a/output
I0403 15:33:57.016391  3229 net.cpp:425] inception_4a/output <- inception_4a/1x1
I0403 15:33:57.016408  3229 net.cpp:425] inception_4a/output <- inception_4a/3x3
I0403 15:33:57.016423  3229 net.cpp:425] inception_4a/output <- inception_4a/5x5
I0403 15:33:57.016439  3229 net.cpp:425] inception_4a/output <- inception_4a/pool_proj
I0403 15:33:57.016458  3229 net.cpp:399] inception_4a/output -> inception_4a/output
I0403 15:33:57.016504  3229 net.cpp:141] Setting up inception_4a/output
I0403 15:33:57.016527  3229 net.cpp:148] Top shape: 24 512 14 14 (2408448)
I0403 15:33:57.016542  3229 net.cpp:156] Memory required for data: 896545824
I0403 15:33:57.016557  3229 layer_factory.hpp:77] Creating layer inception_4a/output_inception_4a/output_0_split
I0403 15:33:57.016576  3229 net.cpp:91] Creating Layer inception_4a/output_inception_4a/output_0_split
I0403 15:33:57.016592  3229 net.cpp:425] inception_4a/output_inception_4a/output_0_split <- inception_4a/output
I0403 15:33:57.016612  3229 net.cpp:399] inception_4a/output_inception_4a/output_0_split -> inception_4a/output_inception_4a/output_0_split_0
I0403 15:33:57.016631  3229 net.cpp:399] inception_4a/output_inception_4a/output_0_split -> inception_4a/output_inception_4a/output_0_split_1
I0403 15:33:57.016652  3229 net.cpp:399] inception_4a/output_inception_4a/output_0_split -> inception_4a/output_inception_4a/output_0_split_2
I0403 15:33:57.016672  3229 net.cpp:399] inception_4a/output_inception_4a/output_0_split -> inception_4a/output_inception_4a/output_0_split_3
I0403 15:33:57.016692  3229 net.cpp:399] inception_4a/output_inception_4a/output_0_split -> inception_4a/output_inception_4a/output_0_split_4
I0403 15:33:57.016785  3229 net.cpp:141] Setting up inception_4a/output_inception_4a/output_0_split
I0403 15:33:57.016808  3229 net.cpp:148] Top shape: 24 512 14 14 (2408448)
I0403 15:33:57.016826  3229 net.cpp:148] Top shape: 24 512 14 14 (2408448)
I0403 15:33:57.016844  3229 net.cpp:148] Top shape: 24 512 14 14 (2408448)
I0403 15:33:57.016860  3229 net.cpp:148] Top shape: 24 512 14 14 (2408448)
I0403 15:33:57.016875  3229 net.cpp:148] Top shape: 24 512 14 14 (2408448)
I0403 15:33:57.016890  3229 net.cpp:156] Memory required for data: 944714784
I0403 15:33:57.016904  3229 layer_factory.hpp:77] Creating layer loss1/ave_pool
I0403 15:33:57.016921  3229 net.cpp:91] Creating Layer loss1/ave_pool
I0403 15:33:57.016937  3229 net.cpp:425] loss1/ave_pool <- inception_4a/output_inception_4a/output_0_split_0
I0403 15:33:57.016957  3229 net.cpp:399] loss1/ave_pool -> loss1/ave_pool
I0403 15:33:57.017164  3229 net.cpp:141] Setting up loss1/ave_pool
I0403 15:33:57.017189  3229 net.cpp:148] Top shape: 24 512 4 4 (196608)
I0403 15:33:57.017204  3229 net.cpp:156] Memory required for data: 945501216
I0403 15:33:57.017225  3229 layer_factory.hpp:77] Creating layer loss1/conv
I0403 15:33:57.017247  3229 net.cpp:91] Creating Layer loss1/conv
I0403 15:33:57.017266  3229 net.cpp:425] loss1/conv <- loss1/ave_pool
I0403 15:33:57.017285  3229 net.cpp:399] loss1/conv -> loss1/conv
I0403 15:33:57.018774  3229 net.cpp:141] Setting up loss1/conv
I0403 15:33:57.018802  3229 net.cpp:148] Top shape: 24 128 4 4 (49152)
I0403 15:33:57.018836  3229 net.cpp:156] Memory required for data: 945697824
I0403 15:33:57.018856  3229 layer_factory.hpp:77] Creating layer loss1/relu_conv
I0403 15:33:57.018877  3229 net.cpp:91] Creating Layer loss1/relu_conv
I0403 15:33:57.018893  3229 net.cpp:425] loss1/relu_conv <- loss1/conv
I0403 15:33:57.018911  3229 net.cpp:386] loss1/relu_conv -> loss1/conv (in-place)
I0403 15:33:57.019202  3229 net.cpp:141] Setting up loss1/relu_conv
I0403 15:33:57.019233  3229 net.cpp:148] Top shape: 24 128 4 4 (49152)
I0403 15:33:57.019249  3229 net.cpp:156] Memory required for data: 945894432
I0403 15:33:57.019264  3229 layer_factory.hpp:77] Creating layer loss1/fc
I0403 15:33:57.019291  3229 net.cpp:91] Creating Layer loss1/fc
I0403 15:33:57.019310  3229 net.cpp:425] loss1/fc <- loss1/conv
I0403 15:33:57.019331  3229 net.cpp:399] loss1/fc -> loss1/fc
I0403 15:33:57.037263  3229 net.cpp:141] Setting up loss1/fc
I0403 15:33:57.037299  3229 net.cpp:148] Top shape: 24 1024 (24576)
I0403 15:33:57.037328  3229 net.cpp:156] Memory required for data: 945992736
I0403 15:33:57.037346  3229 layer_factory.hpp:77] Creating layer loss1/relu_fc
I0403 15:33:57.037364  3229 net.cpp:91] Creating Layer loss1/relu_fc
I0403 15:33:57.037392  3229 net.cpp:425] loss1/relu_fc <- loss1/fc
I0403 15:33:57.037412  3229 net.cpp:386] loss1/relu_fc -> loss1/fc (in-place)
I0403 15:33:57.037616  3229 net.cpp:141] Setting up loss1/relu_fc
I0403 15:33:57.037642  3229 net.cpp:148] Top shape: 24 1024 (24576)
I0403 15:33:57.037657  3229 net.cpp:156] Memory required for data: 946091040
I0403 15:33:57.037685  3229 layer_factory.hpp:77] Creating layer loss1/drop_fc
I0403 15:33:57.037711  3229 net.cpp:91] Creating Layer loss1/drop_fc
I0403 15:33:57.037740  3229 net.cpp:425] loss1/drop_fc <- loss1/fc
I0403 15:33:57.037758  3229 net.cpp:386] loss1/drop_fc -> loss1/fc (in-place)
I0403 15:33:57.037811  3229 net.cpp:141] Setting up loss1/drop_fc
I0403 15:33:57.037833  3229 net.cpp:148] Top shape: 24 1024 (24576)
I0403 15:33:57.037848  3229 net.cpp:156] Memory required for data: 946189344
I0403 15:33:57.037863  3229 layer_factory.hpp:77] Creating layer loss1/classifier_plantvillage
I0403 15:33:57.037881  3229 net.cpp:91] Creating Layer loss1/classifier_plantvillage
I0403 15:33:57.037897  3229 net.cpp:425] loss1/classifier_plantvillage <- loss1/fc
I0403 15:33:57.037919  3229 net.cpp:399] loss1/classifier_plantvillage -> loss1/classifier_plantvillage
I0403 15:33:57.038820  3229 net.cpp:141] Setting up loss1/classifier_plantvillage
I0403 15:33:57.038847  3229 net.cpp:148] Top shape: 24 38 (912)
I0403 15:33:57.038861  3229 net.cpp:156] Memory required for data: 946192992
I0403 15:33:57.038879  3229 layer_factory.hpp:77] Creating layer loss1/classifier_plantvillage_loss1/classifier_plantvillage_0_split
I0403 15:33:57.038899  3229 net.cpp:91] Creating Layer loss1/classifier_plantvillage_loss1/classifier_plantvillage_0_split
I0403 15:33:57.038915  3229 net.cpp:425] loss1/classifier_plantvillage_loss1/classifier_plantvillage_0_split <- loss1/classifier_plantvillage
I0403 15:33:57.038933  3229 net.cpp:399] loss1/classifier_plantvillage_loss1/classifier_plantvillage_0_split -> loss1/classifier_plantvillage_loss1/classifier_plantvillage_0_split_0
I0403 15:33:57.038952  3229 net.cpp:399] loss1/classifier_plantvillage_loss1/classifier_plantvillage_0_split -> loss1/classifier_plantvillage_loss1/classifier_plantvillage_0_split_1
I0403 15:33:57.038972  3229 net.cpp:399] loss1/classifier_plantvillage_loss1/classifier_plantvillage_0_split -> loss1/classifier_plantvillage_loss1/classifier_plantvillage_0_split_2
I0403 15:33:57.039052  3229 net.cpp:141] Setting up loss1/classifier_plantvillage_loss1/classifier_plantvillage_0_split
I0403 15:33:57.039073  3229 net.cpp:148] Top shape: 24 38 (912)
I0403 15:33:57.039089  3229 net.cpp:148] Top shape: 24 38 (912)
I0403 15:33:57.039104  3229 net.cpp:148] Top shape: 24 38 (912)
I0403 15:33:57.039119  3229 net.cpp:156] Memory required for data: 946203936
I0403 15:33:57.039132  3229 layer_factory.hpp:77] Creating layer inception_4b/1x1
I0403 15:33:57.039155  3229 net.cpp:91] Creating Layer inception_4b/1x1
I0403 15:33:57.039188  3229 net.cpp:425] inception_4b/1x1 <- inception_4a/output_inception_4a/output_0_split_1
I0403 15:33:57.039212  3229 net.cpp:399] inception_4b/1x1 -> inception_4b/1x1
I0403 15:33:57.040844  3229 net.cpp:141] Setting up inception_4b/1x1
I0403 15:33:57.040873  3229 net.cpp:148] Top shape: 24 160 14 14 (752640)
I0403 15:33:57.040889  3229 net.cpp:156] Memory required for data: 949214496
I0403 15:33:57.040907  3229 layer_factory.hpp:77] Creating layer inception_4b/relu_1x1
I0403 15:33:57.040927  3229 net.cpp:91] Creating Layer inception_4b/relu_1x1
I0403 15:33:57.040943  3229 net.cpp:425] inception_4b/relu_1x1 <- inception_4b/1x1
I0403 15:33:57.040961  3229 net.cpp:386] inception_4b/relu_1x1 -> inception_4b/1x1 (in-place)
I0403 15:33:57.041132  3229 net.cpp:141] Setting up inception_4b/relu_1x1
I0403 15:33:57.041157  3229 net.cpp:148] Top shape: 24 160 14 14 (752640)
I0403 15:33:57.041170  3229 net.cpp:156] Memory required for data: 952225056
I0403 15:33:57.041184  3229 layer_factory.hpp:77] Creating layer inception_4b/3x3_reduce
I0403 15:33:57.041211  3229 net.cpp:91] Creating Layer inception_4b/3x3_reduce
I0403 15:33:57.041229  3229 net.cpp:425] inception_4b/3x3_reduce <- inception_4a/output_inception_4a/output_0_split_2
I0403 15:33:57.041251  3229 net.cpp:399] inception_4b/3x3_reduce -> inception_4b/3x3_reduce
I0403 15:33:57.042569  3229 net.cpp:141] Setting up inception_4b/3x3_reduce
I0403 15:33:57.042596  3229 net.cpp:148] Top shape: 24 112 14 14 (526848)
I0403 15:33:57.042611  3229 net.cpp:156] Memory required for data: 954332448
I0403 15:33:57.042629  3229 layer_factory.hpp:77] Creating layer inception_4b/relu_3x3_reduce
I0403 15:33:57.042645  3229 net.cpp:91] Creating Layer inception_4b/relu_3x3_reduce
I0403 15:33:57.042661  3229 net.cpp:425] inception_4b/relu_3x3_reduce <- inception_4b/3x3_reduce
I0403 15:33:57.042680  3229 net.cpp:386] inception_4b/relu_3x3_reduce -> inception_4b/3x3_reduce (in-place)
I0403 15:33:57.042956  3229 net.cpp:141] Setting up inception_4b/relu_3x3_reduce
I0403 15:33:57.042981  3229 net.cpp:148] Top shape: 24 112 14 14 (526848)
I0403 15:33:57.042996  3229 net.cpp:156] Memory required for data: 956439840
I0403 15:33:57.043010  3229 layer_factory.hpp:77] Creating layer inception_4b/3x3
I0403 15:33:57.043031  3229 net.cpp:91] Creating Layer inception_4b/3x3
I0403 15:33:57.043050  3229 net.cpp:425] inception_4b/3x3 <- inception_4b/3x3_reduce
I0403 15:33:57.043069  3229 net.cpp:399] inception_4b/3x3 -> inception_4b/3x3
I0403 15:33:57.046015  3229 net.cpp:141] Setting up inception_4b/3x3
I0403 15:33:57.046056  3229 net.cpp:148] Top shape: 24 224 14 14 (1053696)
I0403 15:33:57.046072  3229 net.cpp:156] Memory required for data: 960654624
I0403 15:33:57.046098  3229 layer_factory.hpp:77] Creating layer inception_4b/relu_3x3
I0403 15:33:57.046118  3229 net.cpp:91] Creating Layer inception_4b/relu_3x3
I0403 15:33:57.046135  3229 net.cpp:425] inception_4b/relu_3x3 <- inception_4b/3x3
I0403 15:33:57.046152  3229 net.cpp:386] inception_4b/relu_3x3 -> inception_4b/3x3 (in-place)
I0403 15:33:57.046331  3229 net.cpp:141] Setting up inception_4b/relu_3x3
I0403 15:33:57.046357  3229 net.cpp:148] Top shape: 24 224 14 14 (1053696)
I0403 15:33:57.046372  3229 net.cpp:156] Memory required for data: 964869408
I0403 15:33:57.046386  3229 layer_factory.hpp:77] Creating layer inception_4b/5x5_reduce
I0403 15:33:57.046406  3229 net.cpp:91] Creating Layer inception_4b/5x5_reduce
I0403 15:33:57.046422  3229 net.cpp:425] inception_4b/5x5_reduce <- inception_4a/output_inception_4a/output_0_split_3
I0403 15:33:57.046443  3229 net.cpp:399] inception_4b/5x5_reduce -> inception_4b/5x5_reduce
I0403 15:33:57.047505  3229 net.cpp:141] Setting up inception_4b/5x5_reduce
I0403 15:33:57.047534  3229 net.cpp:148] Top shape: 24 24 14 14 (112896)
I0403 15:33:57.047550  3229 net.cpp:156] Memory required for data: 965320992
I0403 15:33:57.047569  3229 layer_factory.hpp:77] Creating layer inception_4b/relu_5x5_reduce
I0403 15:33:57.047586  3229 net.cpp:91] Creating Layer inception_4b/relu_5x5_reduce
I0403 15:33:57.047616  3229 net.cpp:425] inception_4b/relu_5x5_reduce <- inception_4b/5x5_reduce
I0403 15:33:57.047633  3229 net.cpp:386] inception_4b/relu_5x5_reduce -> inception_4b/5x5_reduce (in-place)
I0403 15:33:57.047812  3229 net.cpp:141] Setting up inception_4b/relu_5x5_reduce
I0403 15:33:57.047837  3229 net.cpp:148] Top shape: 24 24 14 14 (112896)
I0403 15:33:57.047850  3229 net.cpp:156] Memory required for data: 965772576
I0403 15:33:57.047865  3229 layer_factory.hpp:77] Creating layer inception_4b/5x5
I0403 15:33:57.047888  3229 net.cpp:91] Creating Layer inception_4b/5x5
I0403 15:33:57.047904  3229 net.cpp:425] inception_4b/5x5 <- inception_4b/5x5_reduce
I0403 15:33:57.047924  3229 net.cpp:399] inception_4b/5x5 -> inception_4b/5x5
I0403 15:33:57.049113  3229 net.cpp:141] Setting up inception_4b/5x5
I0403 15:33:57.049139  3229 net.cpp:148] Top shape: 24 64 14 14 (301056)
I0403 15:33:57.049154  3229 net.cpp:156] Memory required for data: 966976800
I0403 15:33:57.049171  3229 layer_factory.hpp:77] Creating layer inception_4b/relu_5x5
I0403 15:33:57.049191  3229 net.cpp:91] Creating Layer inception_4b/relu_5x5
I0403 15:33:57.049207  3229 net.cpp:425] inception_4b/relu_5x5 <- inception_4b/5x5
I0403 15:33:57.049229  3229 net.cpp:386] inception_4b/relu_5x5 -> inception_4b/5x5 (in-place)
I0403 15:33:57.049504  3229 net.cpp:141] Setting up inception_4b/relu_5x5
I0403 15:33:57.049530  3229 net.cpp:148] Top shape: 24 64 14 14 (301056)
I0403 15:33:57.049545  3229 net.cpp:156] Memory required for data: 968181024
I0403 15:33:57.049558  3229 layer_factory.hpp:77] Creating layer inception_4b/pool
I0403 15:33:57.049577  3229 net.cpp:91] Creating Layer inception_4b/pool
I0403 15:33:57.049594  3229 net.cpp:425] inception_4b/pool <- inception_4a/output_inception_4a/output_0_split_4
I0403 15:33:57.049612  3229 net.cpp:399] inception_4b/pool -> inception_4b/pool
I0403 15:33:57.049675  3229 net.cpp:141] Setting up inception_4b/pool
I0403 15:33:57.049698  3229 net.cpp:148] Top shape: 24 512 14 14 (2408448)
I0403 15:33:57.049713  3229 net.cpp:156] Memory required for data: 977814816
I0403 15:33:57.049727  3229 layer_factory.hpp:77] Creating layer inception_4b/pool_proj
I0403 15:33:57.049748  3229 net.cpp:91] Creating Layer inception_4b/pool_proj
I0403 15:33:57.049764  3229 net.cpp:425] inception_4b/pool_proj <- inception_4b/pool
I0403 15:33:57.049787  3229 net.cpp:399] inception_4b/pool_proj -> inception_4b/pool_proj
I0403 15:33:57.050959  3229 net.cpp:141] Setting up inception_4b/pool_proj
I0403 15:33:57.050988  3229 net.cpp:148] Top shape: 24 64 14 14 (301056)
I0403 15:33:57.051004  3229 net.cpp:156] Memory required for data: 979019040
I0403 15:33:57.051022  3229 layer_factory.hpp:77] Creating layer inception_4b/relu_pool_proj
I0403 15:33:57.051038  3229 net.cpp:91] Creating Layer inception_4b/relu_pool_proj
I0403 15:33:57.051054  3229 net.cpp:425] inception_4b/relu_pool_proj <- inception_4b/pool_proj
I0403 15:33:57.051072  3229 net.cpp:386] inception_4b/relu_pool_proj -> inception_4b/pool_proj (in-place)
I0403 15:33:57.051270  3229 net.cpp:141] Setting up inception_4b/relu_pool_proj
I0403 15:33:57.051293  3229 net.cpp:148] Top shape: 24 64 14 14 (301056)
I0403 15:33:57.051307  3229 net.cpp:156] Memory required for data: 980223264
I0403 15:33:57.051322  3229 layer_factory.hpp:77] Creating layer inception_4b/output
I0403 15:33:57.051339  3229 net.cpp:91] Creating Layer inception_4b/output
I0403 15:33:57.051354  3229 net.cpp:425] inception_4b/output <- inception_4b/1x1
I0403 15:33:57.051372  3229 net.cpp:425] inception_4b/output <- inception_4b/3x3
I0403 15:33:57.051386  3229 net.cpp:425] inception_4b/output <- inception_4b/5x5
I0403 15:33:57.051414  3229 net.cpp:425] inception_4b/output <- inception_4b/pool_proj
I0403 15:33:57.051431  3229 net.cpp:399] inception_4b/output -> inception_4b/output
I0403 15:33:57.051476  3229 net.cpp:141] Setting up inception_4b/output
I0403 15:33:57.051499  3229 net.cpp:148] Top shape: 24 512 14 14 (2408448)
I0403 15:33:57.051514  3229 net.cpp:156] Memory required for data: 989857056
I0403 15:33:57.051542  3229 layer_factory.hpp:77] Creating layer inception_4b/output_inception_4b/output_0_split
I0403 15:33:57.051560  3229 net.cpp:91] Creating Layer inception_4b/output_inception_4b/output_0_split
I0403 15:33:57.051575  3229 net.cpp:425] inception_4b/output_inception_4b/output_0_split <- inception_4b/output
I0403 15:33:57.051591  3229 net.cpp:399] inception_4b/output_inception_4b/output_0_split -> inception_4b/output_inception_4b/output_0_split_0
I0403 15:33:57.051614  3229 net.cpp:399] inception_4b/output_inception_4b/output_0_split -> inception_4b/output_inception_4b/output_0_split_1
I0403 15:33:57.051635  3229 net.cpp:399] inception_4b/output_inception_4b/output_0_split -> inception_4b/output_inception_4b/output_0_split_2
I0403 15:33:57.051654  3229 net.cpp:399] inception_4b/output_inception_4b/output_0_split -> inception_4b/output_inception_4b/output_0_split_3
I0403 15:33:57.051735  3229 net.cpp:141] Setting up inception_4b/output_inception_4b/output_0_split
I0403 15:33:57.051758  3229 net.cpp:148] Top shape: 24 512 14 14 (2408448)
I0403 15:33:57.051774  3229 net.cpp:148] Top shape: 24 512 14 14 (2408448)
I0403 15:33:57.051789  3229 net.cpp:148] Top shape: 24 512 14 14 (2408448)
I0403 15:33:57.051803  3229 net.cpp:148] Top shape: 24 512 14 14 (2408448)
I0403 15:33:57.051816  3229 net.cpp:156] Memory required for data: 1028392224
I0403 15:33:57.051831  3229 layer_factory.hpp:77] Creating layer inception_4c/1x1
I0403 15:33:57.051852  3229 net.cpp:91] Creating Layer inception_4c/1x1
I0403 15:33:57.051869  3229 net.cpp:425] inception_4c/1x1 <- inception_4b/output_inception_4b/output_0_split_0
I0403 15:33:57.051889  3229 net.cpp:399] inception_4c/1x1 -> inception_4c/1x1
I0403 15:33:57.053292  3229 net.cpp:141] Setting up inception_4c/1x1
I0403 15:33:57.053318  3229 net.cpp:148] Top shape: 24 128 14 14 (602112)
I0403 15:33:57.053333  3229 net.cpp:156] Memory required for data: 1030800672
I0403 15:33:57.053350  3229 layer_factory.hpp:77] Creating layer inception_4c/relu_1x1
I0403 15:33:57.053367  3229 net.cpp:91] Creating Layer inception_4c/relu_1x1
I0403 15:33:57.053382  3229 net.cpp:425] inception_4c/relu_1x1 <- inception_4c/1x1
I0403 15:33:57.053401  3229 net.cpp:386] inception_4c/relu_1x1 -> inception_4c/1x1 (in-place)
I0403 15:33:57.053580  3229 net.cpp:141] Setting up inception_4c/relu_1x1
I0403 15:33:57.053603  3229 net.cpp:148] Top shape: 24 128 14 14 (602112)
I0403 15:33:57.053617  3229 net.cpp:156] Memory required for data: 1033209120
I0403 15:33:57.053632  3229 layer_factory.hpp:77] Creating layer inception_4c/3x3_reduce
I0403 15:33:57.053653  3229 net.cpp:91] Creating Layer inception_4c/3x3_reduce
I0403 15:33:57.053670  3229 net.cpp:425] inception_4c/3x3_reduce <- inception_4b/output_inception_4b/output_0_split_1
I0403 15:33:57.053690  3229 net.cpp:399] inception_4c/3x3_reduce -> inception_4c/3x3_reduce
I0403 15:33:57.055601  3229 net.cpp:141] Setting up inception_4c/3x3_reduce
I0403 15:33:57.055629  3229 net.cpp:148] Top shape: 24 128 14 14 (602112)
I0403 15:33:57.055647  3229 net.cpp:156] Memory required for data: 1035617568
I0403 15:33:57.055665  3229 layer_factory.hpp:77] Creating layer inception_4c/relu_3x3_reduce
I0403 15:33:57.055683  3229 net.cpp:91] Creating Layer inception_4c/relu_3x3_reduce
I0403 15:33:57.055699  3229 net.cpp:425] inception_4c/relu_3x3_reduce <- inception_4c/3x3_reduce
I0403 15:33:57.055716  3229 net.cpp:386] inception_4c/relu_3x3_reduce -> inception_4c/3x3_reduce (in-place)
I0403 15:33:57.055992  3229 net.cpp:141] Setting up inception_4c/relu_3x3_reduce
I0403 15:33:57.056016  3229 net.cpp:148] Top shape: 24 128 14 14 (602112)
I0403 15:33:57.056035  3229 net.cpp:156] Memory required for data: 1038026016
I0403 15:33:57.056048  3229 layer_factory.hpp:77] Creating layer inception_4c/3x3
I0403 15:33:57.056068  3229 net.cpp:91] Creating Layer inception_4c/3x3
I0403 15:33:57.056084  3229 net.cpp:425] inception_4c/3x3 <- inception_4c/3x3_reduce
I0403 15:33:57.056105  3229 net.cpp:399] inception_4c/3x3 -> inception_4c/3x3
I0403 15:33:57.059696  3229 net.cpp:141] Setting up inception_4c/3x3
I0403 15:33:57.059738  3229 net.cpp:148] Top shape: 24 256 14 14 (1204224)
I0403 15:33:57.059756  3229 net.cpp:156] Memory required for data: 1042842912
I0403 15:33:57.059787  3229 layer_factory.hpp:77] Creating layer inception_4c/relu_3x3
I0403 15:33:57.059806  3229 net.cpp:91] Creating Layer inception_4c/relu_3x3
I0403 15:33:57.059823  3229 net.cpp:425] inception_4c/relu_3x3 <- inception_4c/3x3
I0403 15:33:57.059841  3229 net.cpp:386] inception_4c/relu_3x3 -> inception_4c/3x3 (in-place)
I0403 15:33:57.060034  3229 net.cpp:141] Setting up inception_4c/relu_3x3
I0403 15:33:57.060061  3229 net.cpp:148] Top shape: 24 256 14 14 (1204224)
I0403 15:33:57.060077  3229 net.cpp:156] Memory required for data: 1047659808
I0403 15:33:57.060092  3229 layer_factory.hpp:77] Creating layer inception_4c/5x5_reduce
I0403 15:33:57.060114  3229 net.cpp:91] Creating Layer inception_4c/5x5_reduce
I0403 15:33:57.060132  3229 net.cpp:425] inception_4c/5x5_reduce <- inception_4b/output_inception_4b/output_0_split_2
I0403 15:33:57.060150  3229 net.cpp:399] inception_4c/5x5_reduce -> inception_4c/5x5_reduce
I0403 15:33:57.061293  3229 net.cpp:141] Setting up inception_4c/5x5_reduce
I0403 15:33:57.061323  3229 net.cpp:148] Top shape: 24 24 14 14 (112896)
I0403 15:33:57.061339  3229 net.cpp:156] Memory required for data: 1048111392
I0403 15:33:57.061358  3229 layer_factory.hpp:77] Creating layer inception_4c/relu_5x5_reduce
I0403 15:33:57.061375  3229 net.cpp:91] Creating Layer inception_4c/relu_5x5_reduce
I0403 15:33:57.061391  3229 net.cpp:425] inception_4c/relu_5x5_reduce <- inception_4c/5x5_reduce
I0403 15:33:57.061408  3229 net.cpp:386] inception_4c/relu_5x5_reduce -> inception_4c/5x5_reduce (in-place)
I0403 15:33:57.061590  3229 net.cpp:141] Setting up inception_4c/relu_5x5_reduce
I0403 15:33:57.061614  3229 net.cpp:148] Top shape: 24 24 14 14 (112896)
I0403 15:33:57.061628  3229 net.cpp:156] Memory required for data: 1048562976
I0403 15:33:57.061642  3229 layer_factory.hpp:77] Creating layer inception_4c/5x5
I0403 15:33:57.061664  3229 net.cpp:91] Creating Layer inception_4c/5x5
I0403 15:33:57.061681  3229 net.cpp:425] inception_4c/5x5 <- inception_4c/5x5_reduce
I0403 15:33:57.061702  3229 net.cpp:399] inception_4c/5x5 -> inception_4c/5x5
I0403 15:33:57.062919  3229 net.cpp:141] Setting up inception_4c/5x5
I0403 15:33:57.062945  3229 net.cpp:148] Top shape: 24 64 14 14 (301056)
I0403 15:33:57.062960  3229 net.cpp:156] Memory required for data: 1049767200
I0403 15:33:57.062978  3229 layer_factory.hpp:77] Creating layer inception_4c/relu_5x5
I0403 15:33:57.062996  3229 net.cpp:91] Creating Layer inception_4c/relu_5x5
I0403 15:33:57.063011  3229 net.cpp:425] inception_4c/relu_5x5 <- inception_4c/5x5
I0403 15:33:57.063030  3229 net.cpp:386] inception_4c/relu_5x5 -> inception_4c/5x5 (in-place)
I0403 15:33:57.063333  3229 net.cpp:141] Setting up inception_4c/relu_5x5
I0403 15:33:57.063359  3229 net.cpp:148] Top shape: 24 64 14 14 (301056)
I0403 15:33:57.063374  3229 net.cpp:156] Memory required for data: 1050971424
I0403 15:33:57.063388  3229 layer_factory.hpp:77] Creating layer inception_4c/pool
I0403 15:33:57.063417  3229 net.cpp:91] Creating Layer inception_4c/pool
I0403 15:33:57.063434  3229 net.cpp:425] inception_4c/pool <- inception_4b/output_inception_4b/output_0_split_3
I0403 15:33:57.063454  3229 net.cpp:399] inception_4c/pool -> inception_4c/pool
I0403 15:33:57.063521  3229 net.cpp:141] Setting up inception_4c/pool
I0403 15:33:57.063544  3229 net.cpp:148] Top shape: 24 512 14 14 (2408448)
I0403 15:33:57.063560  3229 net.cpp:156] Memory required for data: 1060605216
I0403 15:33:57.063575  3229 layer_factory.hpp:77] Creating layer inception_4c/pool_proj
I0403 15:33:57.063598  3229 net.cpp:91] Creating Layer inception_4c/pool_proj
I0403 15:33:57.063617  3229 net.cpp:425] inception_4c/pool_proj <- inception_4c/pool
I0403 15:33:57.063637  3229 net.cpp:399] inception_4c/pool_proj -> inception_4c/pool_proj
I0403 15:33:57.064878  3229 net.cpp:141] Setting up inception_4c/pool_proj
I0403 15:33:57.064908  3229 net.cpp:148] Top shape: 24 64 14 14 (301056)
I0403 15:33:57.064937  3229 net.cpp:156] Memory required for data: 1061809440
I0403 15:33:57.064957  3229 layer_factory.hpp:77] Creating layer inception_4c/relu_pool_proj
I0403 15:33:57.064975  3229 net.cpp:91] Creating Layer inception_4c/relu_pool_proj
I0403 15:33:57.064991  3229 net.cpp:425] inception_4c/relu_pool_proj <- inception_4c/pool_proj
I0403 15:33:57.065021  3229 net.cpp:386] inception_4c/relu_pool_proj -> inception_4c/pool_proj (in-place)
I0403 15:33:57.065207  3229 net.cpp:141] Setting up inception_4c/relu_pool_proj
I0403 15:33:57.065235  3229 net.cpp:148] Top shape: 24 64 14 14 (301056)
I0403 15:33:57.065264  3229 net.cpp:156] Memory required for data: 1063013664
I0403 15:33:57.065279  3229 layer_factory.hpp:77] Creating layer inception_4c/output
I0403 15:33:57.065297  3229 net.cpp:91] Creating Layer inception_4c/output
I0403 15:33:57.065313  3229 net.cpp:425] inception_4c/output <- inception_4c/1x1
I0403 15:33:57.065337  3229 net.cpp:425] inception_4c/output <- inception_4c/3x3
I0403 15:33:57.065353  3229 net.cpp:425] inception_4c/output <- inception_4c/5x5
I0403 15:33:57.065369  3229 net.cpp:425] inception_4c/output <- inception_4c/pool_proj
I0403 15:33:57.065389  3229 net.cpp:399] inception_4c/output -> inception_4c/output
I0403 15:33:57.065438  3229 net.cpp:141] Setting up inception_4c/output
I0403 15:33:57.065464  3229 net.cpp:148] Top shape: 24 512 14 14 (2408448)
I0403 15:33:57.065480  3229 net.cpp:156] Memory required for data: 1072647456
I0403 15:33:57.065495  3229 layer_factory.hpp:77] Creating layer inception_4c/output_inception_4c/output_0_split
I0403 15:33:57.065512  3229 net.cpp:91] Creating Layer inception_4c/output_inception_4c/output_0_split
I0403 15:33:57.065528  3229 net.cpp:425] inception_4c/output_inception_4c/output_0_split <- inception_4c/output
I0403 15:33:57.065559  3229 net.cpp:399] inception_4c/output_inception_4c/output_0_split -> inception_4c/output_inception_4c/output_0_split_0
I0403 15:33:57.065580  3229 net.cpp:399] inception_4c/output_inception_4c/output_0_split -> inception_4c/output_inception_4c/output_0_split_1
I0403 15:33:57.065603  3229 net.cpp:399] inception_4c/output_inception_4c/output_0_split -> inception_4c/output_inception_4c/output_0_split_2
I0403 15:33:57.065623  3229 net.cpp:399] inception_4c/output_inception_4c/output_0_split -> inception_4c/output_inception_4c/output_0_split_3
I0403 15:33:57.065711  3229 net.cpp:141] Setting up inception_4c/output_inception_4c/output_0_split
I0403 15:33:57.065734  3229 net.cpp:148] Top shape: 24 512 14 14 (2408448)
I0403 15:33:57.065750  3229 net.cpp:148] Top shape: 24 512 14 14 (2408448)
I0403 15:33:57.065767  3229 net.cpp:148] Top shape: 24 512 14 14 (2408448)
I0403 15:33:57.065783  3229 net.cpp:148] Top shape: 24 512 14 14 (2408448)
I0403 15:33:57.065796  3229 net.cpp:156] Memory required for data: 1111182624
I0403 15:33:57.065810  3229 layer_factory.hpp:77] Creating layer inception_4d/1x1
I0403 15:33:57.065832  3229 net.cpp:91] Creating Layer inception_4d/1x1
I0403 15:33:57.065850  3229 net.cpp:425] inception_4d/1x1 <- inception_4c/output_inception_4c/output_0_split_0
I0403 15:33:57.065871  3229 net.cpp:399] inception_4d/1x1 -> inception_4d/1x1
I0403 15:33:57.067276  3229 net.cpp:141] Setting up inception_4d/1x1
I0403 15:33:57.067304  3229 net.cpp:148] Top shape: 24 112 14 14 (526848)
I0403 15:33:57.067320  3229 net.cpp:156] Memory required for data: 1113290016
I0403 15:33:57.067339  3229 layer_factory.hpp:77] Creating layer inception_4d/relu_1x1
I0403 15:33:57.067360  3229 net.cpp:91] Creating Layer inception_4d/relu_1x1
I0403 15:33:57.067378  3229 net.cpp:425] inception_4d/relu_1x1 <- inception_4d/1x1
I0403 15:33:57.067396  3229 net.cpp:386] inception_4d/relu_1x1 -> inception_4d/1x1 (in-place)
I0403 15:33:57.067584  3229 net.cpp:141] Setting up inception_4d/relu_1x1
I0403 15:33:57.067612  3229 net.cpp:148] Top shape: 24 112 14 14 (526848)
I0403 15:33:57.067627  3229 net.cpp:156] Memory required for data: 1115397408
I0403 15:33:57.067642  3229 layer_factory.hpp:77] Creating layer inception_4d/3x3_reduce
I0403 15:33:57.067679  3229 net.cpp:91] Creating Layer inception_4d/3x3_reduce
I0403 15:33:57.067698  3229 net.cpp:425] inception_4d/3x3_reduce <- inception_4c/output_inception_4c/output_0_split_1
I0403 15:33:57.067718  3229 net.cpp:399] inception_4d/3x3_reduce -> inception_4d/3x3_reduce
I0403 15:33:57.069316  3229 net.cpp:141] Setting up inception_4d/3x3_reduce
I0403 15:33:57.069345  3229 net.cpp:148] Top shape: 24 144 14 14 (677376)
I0403 15:33:57.069360  3229 net.cpp:156] Memory required for data: 1118106912
I0403 15:33:57.069380  3229 layer_factory.hpp:77] Creating layer inception_4d/relu_3x3_reduce
I0403 15:33:57.069399  3229 net.cpp:91] Creating Layer inception_4d/relu_3x3_reduce
I0403 15:33:57.069416  3229 net.cpp:425] inception_4d/relu_3x3_reduce <- inception_4d/3x3_reduce
I0403 15:33:57.069434  3229 net.cpp:386] inception_4d/relu_3x3_reduce -> inception_4d/3x3_reduce (in-place)
I0403 15:33:57.069732  3229 net.cpp:141] Setting up inception_4d/relu_3x3_reduce
I0403 15:33:57.069759  3229 net.cpp:148] Top shape: 24 144 14 14 (677376)
I0403 15:33:57.069775  3229 net.cpp:156] Memory required for data: 1120816416
I0403 15:33:57.069790  3229 layer_factory.hpp:77] Creating layer inception_4d/3x3
I0403 15:33:57.069813  3229 net.cpp:91] Creating Layer inception_4d/3x3
I0403 15:33:57.069831  3229 net.cpp:425] inception_4d/3x3 <- inception_4d/3x3_reduce
I0403 15:33:57.069854  3229 net.cpp:399] inception_4d/3x3 -> inception_4d/3x3
I0403 15:33:57.074239  3229 net.cpp:141] Setting up inception_4d/3x3
I0403 15:33:57.074268  3229 net.cpp:148] Top shape: 24 288 14 14 (1354752)
I0403 15:33:57.074285  3229 net.cpp:156] Memory required for data: 1126235424
I0403 15:33:57.074304  3229 layer_factory.hpp:77] Creating layer inception_4d/relu_3x3
I0403 15:33:57.074326  3229 net.cpp:91] Creating Layer inception_4d/relu_3x3
I0403 15:33:57.074342  3229 net.cpp:425] inception_4d/relu_3x3 <- inception_4d/3x3
I0403 15:33:57.074360  3229 net.cpp:386] inception_4d/relu_3x3 -> inception_4d/3x3 (in-place)
I0403 15:33:57.074550  3229 net.cpp:141] Setting up inception_4d/relu_3x3
I0403 15:33:57.074579  3229 net.cpp:148] Top shape: 24 288 14 14 (1354752)
I0403 15:33:57.074594  3229 net.cpp:156] Memory required for data: 1131654432
I0403 15:33:57.074609  3229 layer_factory.hpp:77] Creating layer inception_4d/5x5_reduce
I0403 15:33:57.074631  3229 net.cpp:91] Creating Layer inception_4d/5x5_reduce
I0403 15:33:57.074650  3229 net.cpp:425] inception_4d/5x5_reduce <- inception_4c/output_inception_4c/output_0_split_2
I0403 15:33:57.074668  3229 net.cpp:399] inception_4d/5x5_reduce -> inception_4d/5x5_reduce
I0403 15:33:57.075860  3229 net.cpp:141] Setting up inception_4d/5x5_reduce
I0403 15:33:57.075889  3229 net.cpp:148] Top shape: 24 32 14 14 (150528)
I0403 15:33:57.075919  3229 net.cpp:156] Memory required for data: 1132256544
I0403 15:33:57.075944  3229 layer_factory.hpp:77] Creating layer inception_4d/relu_5x5_reduce
I0403 15:33:57.075966  3229 net.cpp:91] Creating Layer inception_4d/relu_5x5_reduce
I0403 15:33:57.075984  3229 net.cpp:425] inception_4d/relu_5x5_reduce <- inception_4d/5x5_reduce
I0403 15:33:57.076002  3229 net.cpp:386] inception_4d/relu_5x5_reduce -> inception_4d/5x5_reduce (in-place)
I0403 15:33:57.076192  3229 net.cpp:141] Setting up inception_4d/relu_5x5_reduce
I0403 15:33:57.076225  3229 net.cpp:148] Top shape: 24 32 14 14 (150528)
I0403 15:33:57.076243  3229 net.cpp:156] Memory required for data: 1132858656
I0403 15:33:57.076258  3229 layer_factory.hpp:77] Creating layer inception_4d/5x5
I0403 15:33:57.076282  3229 net.cpp:91] Creating Layer inception_4d/5x5
I0403 15:33:57.076299  3229 net.cpp:425] inception_4d/5x5 <- inception_4d/5x5_reduce
I0403 15:33:57.076319  3229 net.cpp:399] inception_4d/5x5 -> inception_4d/5x5
I0403 15:33:57.077863  3229 net.cpp:141] Setting up inception_4d/5x5
I0403 15:33:57.077893  3229 net.cpp:148] Top shape: 24 64 14 14 (301056)
I0403 15:33:57.077909  3229 net.cpp:156] Memory required for data: 1134062880
I0403 15:33:57.077929  3229 layer_factory.hpp:77] Creating layer inception_4d/relu_5x5
I0403 15:33:57.077961  3229 net.cpp:91] Creating Layer inception_4d/relu_5x5
I0403 15:33:57.077980  3229 net.cpp:425] inception_4d/relu_5x5 <- inception_4d/5x5
I0403 15:33:57.077999  3229 net.cpp:386] inception_4d/relu_5x5 -> inception_4d/5x5 (in-place)
I0403 15:33:57.078316  3229 net.cpp:141] Setting up inception_4d/relu_5x5
I0403 15:33:57.078344  3229 net.cpp:148] Top shape: 24 64 14 14 (301056)
I0403 15:33:57.078361  3229 net.cpp:156] Memory required for data: 1135267104
I0403 15:33:57.078375  3229 layer_factory.hpp:77] Creating layer inception_4d/pool
I0403 15:33:57.078393  3229 net.cpp:91] Creating Layer inception_4d/pool
I0403 15:33:57.078410  3229 net.cpp:425] inception_4d/pool <- inception_4c/output_inception_4c/output_0_split_3
I0403 15:33:57.078433  3229 net.cpp:399] inception_4d/pool -> inception_4d/pool
I0403 15:33:57.078503  3229 net.cpp:141] Setting up inception_4d/pool
I0403 15:33:57.078526  3229 net.cpp:148] Top shape: 24 512 14 14 (2408448)
I0403 15:33:57.078541  3229 net.cpp:156] Memory required for data: 1144900896
I0403 15:33:57.078557  3229 layer_factory.hpp:77] Creating layer inception_4d/pool_proj
I0403 15:33:57.078582  3229 net.cpp:91] Creating Layer inception_4d/pool_proj
I0403 15:33:57.078599  3229 net.cpp:425] inception_4d/pool_proj <- inception_4d/pool
I0403 15:33:57.078619  3229 net.cpp:399] inception_4d/pool_proj -> inception_4d/pool_proj
I0403 15:33:57.080464  3229 net.cpp:141] Setting up inception_4d/pool_proj
I0403 15:33:57.080494  3229 net.cpp:148] Top shape: 24 64 14 14 (301056)
I0403 15:33:57.080510  3229 net.cpp:156] Memory required for data: 1146105120
I0403 15:33:57.080528  3229 layer_factory.hpp:77] Creating layer inception_4d/relu_pool_proj
I0403 15:33:57.080550  3229 net.cpp:91] Creating Layer inception_4d/relu_pool_proj
I0403 15:33:57.080569  3229 net.cpp:425] inception_4d/relu_pool_proj <- inception_4d/pool_proj
I0403 15:33:57.080585  3229 net.cpp:386] inception_4d/relu_pool_proj -> inception_4d/pool_proj (in-place)
I0403 15:33:57.080777  3229 net.cpp:141] Setting up inception_4d/relu_pool_proj
I0403 15:33:57.080806  3229 net.cpp:148] Top shape: 24 64 14 14 (301056)
I0403 15:33:57.080821  3229 net.cpp:156] Memory required for data: 1147309344
I0403 15:33:57.080837  3229 layer_factory.hpp:77] Creating layer inception_4d/output
I0403 15:33:57.080854  3229 net.cpp:91] Creating Layer inception_4d/output
I0403 15:33:57.080883  3229 net.cpp:425] inception_4d/output <- inception_4d/1x1
I0403 15:33:57.080900  3229 net.cpp:425] inception_4d/output <- inception_4d/3x3
I0403 15:33:57.080917  3229 net.cpp:425] inception_4d/output <- inception_4d/5x5
I0403 15:33:57.080935  3229 net.cpp:425] inception_4d/output <- inception_4d/pool_proj
I0403 15:33:57.080955  3229 net.cpp:399] inception_4d/output -> inception_4d/output
I0403 15:33:57.081007  3229 net.cpp:141] Setting up inception_4d/output
I0403 15:33:57.081032  3229 net.cpp:148] Top shape: 24 528 14 14 (2483712)
I0403 15:33:57.081046  3229 net.cpp:156] Memory required for data: 1157244192
I0403 15:33:57.081063  3229 layer_factory.hpp:77] Creating layer inception_4d/output_inception_4d/output_0_split
I0403 15:33:57.081084  3229 net.cpp:91] Creating Layer inception_4d/output_inception_4d/output_0_split
I0403 15:33:57.081101  3229 net.cpp:425] inception_4d/output_inception_4d/output_0_split <- inception_4d/output
I0403 15:33:57.081123  3229 net.cpp:399] inception_4d/output_inception_4d/output_0_split -> inception_4d/output_inception_4d/output_0_split_0
I0403 15:33:57.081146  3229 net.cpp:399] inception_4d/output_inception_4d/output_0_split -> inception_4d/output_inception_4d/output_0_split_1
I0403 15:33:57.081183  3229 net.cpp:399] inception_4d/output_inception_4d/output_0_split -> inception_4d/output_inception_4d/output_0_split_2
I0403 15:33:57.081205  3229 net.cpp:399] inception_4d/output_inception_4d/output_0_split -> inception_4d/output_inception_4d/output_0_split_3
I0403 15:33:57.081231  3229 net.cpp:399] inception_4d/output_inception_4d/output_0_split -> inception_4d/output_inception_4d/output_0_split_4
I0403 15:33:57.081352  3229 net.cpp:141] Setting up inception_4d/output_inception_4d/output_0_split
I0403 15:33:57.081389  3229 net.cpp:148] Top shape: 24 528 14 14 (2483712)
I0403 15:33:57.081408  3229 net.cpp:148] Top shape: 24 528 14 14 (2483712)
I0403 15:33:57.081425  3229 net.cpp:148] Top shape: 24 528 14 14 (2483712)
I0403 15:33:57.081442  3229 net.cpp:148] Top shape: 24 528 14 14 (2483712)
I0403 15:33:57.081459  3229 net.cpp:148] Top shape: 24 528 14 14 (2483712)
I0403 15:33:57.081473  3229 net.cpp:156] Memory required for data: 1206918432
I0403 15:33:57.081488  3229 layer_factory.hpp:77] Creating layer loss2/ave_pool
I0403 15:33:57.081507  3229 net.cpp:91] Creating Layer loss2/ave_pool
I0403 15:33:57.081524  3229 net.cpp:425] loss2/ave_pool <- inception_4d/output_inception_4d/output_0_split_0
I0403 15:33:57.081558  3229 net.cpp:399] loss2/ave_pool -> loss2/ave_pool
I0403 15:33:57.081881  3229 net.cpp:141] Setting up loss2/ave_pool
I0403 15:33:57.081908  3229 net.cpp:148] Top shape: 24 528 4 4 (202752)
I0403 15:33:57.081923  3229 net.cpp:156] Memory required for data: 1207729440
I0403 15:33:57.081938  3229 layer_factory.hpp:77] Creating layer loss2/conv
I0403 15:33:57.081961  3229 net.cpp:91] Creating Layer loss2/conv
I0403 15:33:57.081979  3229 net.cpp:425] loss2/conv <- loss2/ave_pool
I0403 15:33:57.082013  3229 net.cpp:399] loss2/conv -> loss2/conv
I0403 15:33:57.084004  3229 net.cpp:141] Setting up loss2/conv
I0403 15:33:57.084038  3229 net.cpp:148] Top shape: 24 128 4 4 (49152)
I0403 15:33:57.084066  3229 net.cpp:156] Memory required for data: 1207926048
I0403 15:33:57.084085  3229 layer_factory.hpp:77] Creating layer loss2/relu_conv
I0403 15:33:57.084105  3229 net.cpp:91] Creating Layer loss2/relu_conv
I0403 15:33:57.084121  3229 net.cpp:425] loss2/relu_conv <- loss2/conv
I0403 15:33:57.084142  3229 net.cpp:386] loss2/relu_conv -> loss2/conv (in-place)
I0403 15:33:57.084437  3229 net.cpp:141] Setting up loss2/relu_conv
I0403 15:33:57.084480  3229 net.cpp:148] Top shape: 24 128 4 4 (49152)
I0403 15:33:57.084496  3229 net.cpp:156] Memory required for data: 1208122656
I0403 15:33:57.084513  3229 layer_factory.hpp:77] Creating layer loss2/fc
I0403 15:33:57.084533  3229 net.cpp:91] Creating Layer loss2/fc
I0403 15:33:57.084552  3229 net.cpp:425] loss2/fc <- loss2/conv
I0403 15:33:57.084574  3229 net.cpp:399] loss2/fc -> loss2/fc
I0403 15:33:57.102531  3229 net.cpp:141] Setting up loss2/fc
I0403 15:33:57.102584  3229 net.cpp:148] Top shape: 24 1024 (24576)
I0403 15:33:57.102601  3229 net.cpp:156] Memory required for data: 1208220960
I0403 15:33:57.102619  3229 layer_factory.hpp:77] Creating layer loss2/relu_fc
I0403 15:33:57.102643  3229 net.cpp:91] Creating Layer loss2/relu_fc
I0403 15:33:57.102660  3229 net.cpp:425] loss2/relu_fc <- loss2/fc
I0403 15:33:57.102679  3229 net.cpp:386] loss2/relu_fc -> loss2/fc (in-place)
I0403 15:33:57.103013  3229 net.cpp:141] Setting up loss2/relu_fc
I0403 15:33:57.103039  3229 net.cpp:148] Top shape: 24 1024 (24576)
I0403 15:33:57.103055  3229 net.cpp:156] Memory required for data: 1208319264
I0403 15:33:57.103068  3229 layer_factory.hpp:77] Creating layer loss2/drop_fc
I0403 15:33:57.103090  3229 net.cpp:91] Creating Layer loss2/drop_fc
I0403 15:33:57.103106  3229 net.cpp:425] loss2/drop_fc <- loss2/fc
I0403 15:33:57.103123  3229 net.cpp:386] loss2/drop_fc -> loss2/fc (in-place)
I0403 15:33:57.103176  3229 net.cpp:141] Setting up loss2/drop_fc
I0403 15:33:57.103199  3229 net.cpp:148] Top shape: 24 1024 (24576)
I0403 15:33:57.103225  3229 net.cpp:156] Memory required for data: 1208417568
I0403 15:33:57.103242  3229 layer_factory.hpp:77] Creating layer loss2/classifier_plantvillage
I0403 15:33:57.103266  3229 net.cpp:91] Creating Layer loss2/classifier_plantvillage
I0403 15:33:57.103282  3229 net.cpp:425] loss2/classifier_plantvillage <- loss2/fc
I0403 15:33:57.103301  3229 net.cpp:399] loss2/classifier_plantvillage -> loss2/classifier_plantvillage
I0403 15:33:57.103719  3229 net.cpp:141] Setting up loss2/classifier_plantvillage
I0403 15:33:57.103744  3229 net.cpp:148] Top shape: 24 38 (912)
I0403 15:33:57.103783  3229 net.cpp:156] Memory required for data: 1208421216
I0403 15:33:57.103802  3229 layer_factory.hpp:77] Creating layer loss2/classifier_plantvillage_loss2/classifier_plantvillage_0_split
I0403 15:33:57.103821  3229 net.cpp:91] Creating Layer loss2/classifier_plantvillage_loss2/classifier_plantvillage_0_split
I0403 15:33:57.103837  3229 net.cpp:425] loss2/classifier_plantvillage_loss2/classifier_plantvillage_0_split <- loss2/classifier_plantvillage
I0403 15:33:57.103857  3229 net.cpp:399] loss2/classifier_plantvillage_loss2/classifier_plantvillage_0_split -> loss2/classifier_plantvillage_loss2/classifier_plantvillage_0_split_0
I0403 15:33:57.103878  3229 net.cpp:399] loss2/classifier_plantvillage_loss2/classifier_plantvillage_0_split -> loss2/classifier_plantvillage_loss2/classifier_plantvillage_0_split_1
I0403 15:33:57.103900  3229 net.cpp:399] loss2/classifier_plantvillage_loss2/classifier_plantvillage_0_split -> loss2/classifier_plantvillage_loss2/classifier_plantvillage_0_split_2
I0403 15:33:57.103979  3229 net.cpp:141] Setting up loss2/classifier_plantvillage_loss2/classifier_plantvillage_0_split
I0403 15:33:57.104003  3229 net.cpp:148] Top shape: 24 38 (912)
I0403 15:33:57.104020  3229 net.cpp:148] Top shape: 24 38 (912)
I0403 15:33:57.104037  3229 net.cpp:148] Top shape: 24 38 (912)
I0403 15:33:57.104049  3229 net.cpp:156] Memory required for data: 1208432160
I0403 15:33:57.104064  3229 layer_factory.hpp:77] Creating layer inception_4e/1x1
I0403 15:33:57.104085  3229 net.cpp:91] Creating Layer inception_4e/1x1
I0403 15:33:57.104102  3229 net.cpp:425] inception_4e/1x1 <- inception_4d/output_inception_4d/output_0_split_1
I0403 15:33:57.104120  3229 net.cpp:399] inception_4e/1x1 -> inception_4e/1x1
I0403 15:33:57.106019  3229 net.cpp:141] Setting up inception_4e/1x1
I0403 15:33:57.106047  3229 net.cpp:148] Top shape: 24 256 14 14 (1204224)
I0403 15:33:57.106063  3229 net.cpp:156] Memory required for data: 1213249056
I0403 15:33:57.106082  3229 layer_factory.hpp:77] Creating layer inception_4e/relu_1x1
I0403 15:33:57.106102  3229 net.cpp:91] Creating Layer inception_4e/relu_1x1
I0403 15:33:57.106118  3229 net.cpp:425] inception_4e/relu_1x1 <- inception_4e/1x1
I0403 15:33:57.106138  3229 net.cpp:386] inception_4e/relu_1x1 -> inception_4e/1x1 (in-place)
I0403 15:33:57.106462  3229 net.cpp:141] Setting up inception_4e/relu_1x1
I0403 15:33:57.106488  3229 net.cpp:148] Top shape: 24 256 14 14 (1204224)
I0403 15:33:57.106503  3229 net.cpp:156] Memory required for data: 1218065952
I0403 15:33:57.106518  3229 layer_factory.hpp:77] Creating layer inception_4e/3x3_reduce
I0403 15:33:57.106539  3229 net.cpp:91] Creating Layer inception_4e/3x3_reduce
I0403 15:33:57.106557  3229 net.cpp:425] inception_4e/3x3_reduce <- inception_4d/output_inception_4d/output_0_split_2
I0403 15:33:57.106578  3229 net.cpp:399] inception_4e/3x3_reduce -> inception_4e/3x3_reduce
I0403 15:33:57.108752  3229 net.cpp:141] Setting up inception_4e/3x3_reduce
I0403 15:33:57.108783  3229 net.cpp:148] Top shape: 24 160 14 14 (752640)
I0403 15:33:57.108799  3229 net.cpp:156] Memory required for data: 1221076512
I0403 15:33:57.108817  3229 layer_factory.hpp:77] Creating layer inception_4e/relu_3x3_reduce
I0403 15:33:57.108836  3229 net.cpp:91] Creating Layer inception_4e/relu_3x3_reduce
I0403 15:33:57.108852  3229 net.cpp:425] inception_4e/relu_3x3_reduce <- inception_4e/3x3_reduce
I0403 15:33:57.108872  3229 net.cpp:386] inception_4e/relu_3x3_reduce -> inception_4e/3x3_reduce (in-place)
I0403 15:33:57.109071  3229 net.cpp:141] Setting up inception_4e/relu_3x3_reduce
I0403 15:33:57.109096  3229 net.cpp:148] Top shape: 24 160 14 14 (752640)
I0403 15:33:57.109109  3229 net.cpp:156] Memory required for data: 1224087072
I0403 15:33:57.109123  3229 layer_factory.hpp:77] Creating layer inception_4e/3x3
I0403 15:33:57.109145  3229 net.cpp:91] Creating Layer inception_4e/3x3
I0403 15:33:57.109163  3229 net.cpp:425] inception_4e/3x3 <- inception_4e/3x3_reduce
I0403 15:33:57.109195  3229 net.cpp:399] inception_4e/3x3 -> inception_4e/3x3
I0403 15:33:57.114145  3229 net.cpp:141] Setting up inception_4e/3x3
I0403 15:33:57.114186  3229 net.cpp:148] Top shape: 24 320 14 14 (1505280)
I0403 15:33:57.114217  3229 net.cpp:156] Memory required for data: 1230108192
I0403 15:33:57.114238  3229 layer_factory.hpp:77] Creating layer inception_4e/relu_3x3
I0403 15:33:57.114256  3229 net.cpp:91] Creating Layer inception_4e/relu_3x3
I0403 15:33:57.114272  3229 net.cpp:425] inception_4e/relu_3x3 <- inception_4e/3x3
I0403 15:33:57.114292  3229 net.cpp:386] inception_4e/relu_3x3 -> inception_4e/3x3 (in-place)
I0403 15:33:57.114606  3229 net.cpp:141] Setting up inception_4e/relu_3x3
I0403 15:33:57.114631  3229 net.cpp:148] Top shape: 24 320 14 14 (1505280)
I0403 15:33:57.114646  3229 net.cpp:156] Memory required for data: 1236129312
I0403 15:33:57.114660  3229 layer_factory.hpp:77] Creating layer inception_4e/5x5_reduce
I0403 15:33:57.114684  3229 net.cpp:91] Creating Layer inception_4e/5x5_reduce
I0403 15:33:57.114701  3229 net.cpp:425] inception_4e/5x5_reduce <- inception_4d/output_inception_4d/output_0_split_3
I0403 15:33:57.114723  3229 net.cpp:399] inception_4e/5x5_reduce -> inception_4e/5x5_reduce
I0403 15:33:57.115841  3229 net.cpp:141] Setting up inception_4e/5x5_reduce
I0403 15:33:57.115871  3229 net.cpp:148] Top shape: 24 32 14 14 (150528)
I0403 15:33:57.115887  3229 net.cpp:156] Memory required for data: 1236731424
I0403 15:33:57.115906  3229 layer_factory.hpp:77] Creating layer inception_4e/relu_5x5_reduce
I0403 15:33:57.115923  3229 net.cpp:91] Creating Layer inception_4e/relu_5x5_reduce
I0403 15:33:57.115938  3229 net.cpp:425] inception_4e/relu_5x5_reduce <- inception_4e/5x5_reduce
I0403 15:33:57.115958  3229 net.cpp:386] inception_4e/relu_5x5_reduce -> inception_4e/5x5_reduce (in-place)
I0403 15:33:57.116261  3229 net.cpp:141] Setting up inception_4e/relu_5x5_reduce
I0403 15:33:57.116288  3229 net.cpp:148] Top shape: 24 32 14 14 (150528)
I0403 15:33:57.116303  3229 net.cpp:156] Memory required for data: 1237333536
I0403 15:33:57.116319  3229 layer_factory.hpp:77] Creating layer inception_4e/5x5
I0403 15:33:57.116358  3229 net.cpp:91] Creating Layer inception_4e/5x5
I0403 15:33:57.116376  3229 net.cpp:425] inception_4e/5x5 <- inception_4e/5x5_reduce
I0403 15:33:57.116396  3229 net.cpp:399] inception_4e/5x5 -> inception_4e/5x5
I0403 15:33:57.118219  3229 net.cpp:141] Setting up inception_4e/5x5
I0403 15:33:57.118248  3229 net.cpp:148] Top shape: 24 128 14 14 (602112)
I0403 15:33:57.118264  3229 net.cpp:156] Memory required for data: 1239741984
I0403 15:33:57.118283  3229 layer_factory.hpp:77] Creating layer inception_4e/relu_5x5
I0403 15:33:57.118300  3229 net.cpp:91] Creating Layer inception_4e/relu_5x5
I0403 15:33:57.118316  3229 net.cpp:425] inception_4e/relu_5x5 <- inception_4e/5x5
I0403 15:33:57.118332  3229 net.cpp:386] inception_4e/relu_5x5 -> inception_4e/5x5 (in-place)
I0403 15:33:57.118530  3229 net.cpp:141] Setting up inception_4e/relu_5x5
I0403 15:33:57.118556  3229 net.cpp:148] Top shape: 24 128 14 14 (602112)
I0403 15:33:57.118571  3229 net.cpp:156] Memory required for data: 1242150432
I0403 15:33:57.118585  3229 layer_factory.hpp:77] Creating layer inception_4e/pool
I0403 15:33:57.118602  3229 net.cpp:91] Creating Layer inception_4e/pool
I0403 15:33:57.118618  3229 net.cpp:425] inception_4e/pool <- inception_4d/output_inception_4d/output_0_split_4
I0403 15:33:57.118638  3229 net.cpp:399] inception_4e/pool -> inception_4e/pool
I0403 15:33:57.118705  3229 net.cpp:141] Setting up inception_4e/pool
I0403 15:33:57.118731  3229 net.cpp:148] Top shape: 24 528 14 14 (2483712)
I0403 15:33:57.118746  3229 net.cpp:156] Memory required for data: 1252085280
I0403 15:33:57.118759  3229 layer_factory.hpp:77] Creating layer inception_4e/pool_proj
I0403 15:33:57.118780  3229 net.cpp:91] Creating Layer inception_4e/pool_proj
I0403 15:33:57.118798  3229 net.cpp:425] inception_4e/pool_proj <- inception_4e/pool
I0403 15:33:57.118815  3229 net.cpp:399] inception_4e/pool_proj -> inception_4e/pool_proj
I0403 15:33:57.120286  3229 net.cpp:141] Setting up inception_4e/pool_proj
I0403 15:33:57.120323  3229 net.cpp:148] Top shape: 24 128 14 14 (602112)
I0403 15:33:57.120339  3229 net.cpp:156] Memory required for data: 1254493728
I0403 15:33:57.120357  3229 layer_factory.hpp:77] Creating layer inception_4e/relu_pool_proj
I0403 15:33:57.120376  3229 net.cpp:91] Creating Layer inception_4e/relu_pool_proj
I0403 15:33:57.120393  3229 net.cpp:425] inception_4e/relu_pool_proj <- inception_4e/pool_proj
I0403 15:33:57.120410  3229 net.cpp:386] inception_4e/relu_pool_proj -> inception_4e/pool_proj (in-place)
I0403 15:33:57.120698  3229 net.cpp:141] Setting up inception_4e/relu_pool_proj
I0403 15:33:57.120723  3229 net.cpp:148] Top shape: 24 128 14 14 (602112)
I0403 15:33:57.120738  3229 net.cpp:156] Memory required for data: 1256902176
I0403 15:33:57.120754  3229 layer_factory.hpp:77] Creating layer inception_4e/output
I0403 15:33:57.120772  3229 net.cpp:91] Creating Layer inception_4e/output
I0403 15:33:57.120789  3229 net.cpp:425] inception_4e/output <- inception_4e/1x1
I0403 15:33:57.120803  3229 net.cpp:425] inception_4e/output <- inception_4e/3x3
I0403 15:33:57.120820  3229 net.cpp:425] inception_4e/output <- inception_4e/5x5
I0403 15:33:57.120834  3229 net.cpp:425] inception_4e/output <- inception_4e/pool_proj
I0403 15:33:57.120851  3229 net.cpp:399] inception_4e/output -> inception_4e/output
I0403 15:33:57.120900  3229 net.cpp:141] Setting up inception_4e/output
I0403 15:33:57.120923  3229 net.cpp:148] Top shape: 24 832 14 14 (3913728)
I0403 15:33:57.120937  3229 net.cpp:156] Memory required for data: 1272557088
I0403 15:33:57.120951  3229 layer_factory.hpp:77] Creating layer pool4/3x3_s2
I0403 15:33:57.120967  3229 net.cpp:91] Creating Layer pool4/3x3_s2
I0403 15:33:57.120983  3229 net.cpp:425] pool4/3x3_s2 <- inception_4e/output
I0403 15:33:57.121003  3229 net.cpp:399] pool4/3x3_s2 -> pool4/3x3_s2
I0403 15:33:57.121069  3229 net.cpp:141] Setting up pool4/3x3_s2
I0403 15:33:57.121093  3229 net.cpp:148] Top shape: 24 832 7 7 (978432)
I0403 15:33:57.121106  3229 net.cpp:156] Memory required for data: 1276470816
I0403 15:33:57.121120  3229 layer_factory.hpp:77] Creating layer pool4/3x3_s2_pool4/3x3_s2_0_split
I0403 15:33:57.121137  3229 net.cpp:91] Creating Layer pool4/3x3_s2_pool4/3x3_s2_0_split
I0403 15:33:57.121152  3229 net.cpp:425] pool4/3x3_s2_pool4/3x3_s2_0_split <- pool4/3x3_s2
I0403 15:33:57.121170  3229 net.cpp:399] pool4/3x3_s2_pool4/3x3_s2_0_split -> pool4/3x3_s2_pool4/3x3_s2_0_split_0
I0403 15:33:57.121191  3229 net.cpp:399] pool4/3x3_s2_pool4/3x3_s2_0_split -> pool4/3x3_s2_pool4/3x3_s2_0_split_1
I0403 15:33:57.121217  3229 net.cpp:399] pool4/3x3_s2_pool4/3x3_s2_0_split -> pool4/3x3_s2_pool4/3x3_s2_0_split_2
I0403 15:33:57.121237  3229 net.cpp:399] pool4/3x3_s2_pool4/3x3_s2_0_split -> pool4/3x3_s2_pool4/3x3_s2_0_split_3
I0403 15:33:57.121326  3229 net.cpp:141] Setting up pool4/3x3_s2_pool4/3x3_s2_0_split
I0403 15:33:57.121350  3229 net.cpp:148] Top shape: 24 832 7 7 (978432)
I0403 15:33:57.121364  3229 net.cpp:148] Top shape: 24 832 7 7 (978432)
I0403 15:33:57.121381  3229 net.cpp:148] Top shape: 24 832 7 7 (978432)
I0403 15:33:57.121395  3229 net.cpp:148] Top shape: 24 832 7 7 (978432)
I0403 15:33:57.121409  3229 net.cpp:156] Memory required for data: 1292125728
I0403 15:33:57.121423  3229 layer_factory.hpp:77] Creating layer inception_5a/1x1
I0403 15:33:57.121448  3229 net.cpp:91] Creating Layer inception_5a/1x1
I0403 15:33:57.121465  3229 net.cpp:425] inception_5a/1x1 <- pool4/3x3_s2_pool4/3x3_s2_0_split_0
I0403 15:33:57.121484  3229 net.cpp:399] inception_5a/1x1 -> inception_5a/1x1
I0403 15:33:57.124385  3229 net.cpp:141] Setting up inception_5a/1x1
I0403 15:33:57.124418  3229 net.cpp:148] Top shape: 24 256 7 7 (301056)
I0403 15:33:57.124433  3229 net.cpp:156] Memory required for data: 1293329952
I0403 15:33:57.124451  3229 layer_factory.hpp:77] Creating layer inception_5a/relu_1x1
I0403 15:33:57.124471  3229 net.cpp:91] Creating Layer inception_5a/relu_1x1
I0403 15:33:57.124487  3229 net.cpp:425] inception_5a/relu_1x1 <- inception_5a/1x1
I0403 15:33:57.124507  3229 net.cpp:386] inception_5a/relu_1x1 -> inception_5a/1x1 (in-place)
I0403 15:33:57.124830  3229 net.cpp:141] Setting up inception_5a/relu_1x1
I0403 15:33:57.124858  3229 net.cpp:148] Top shape: 24 256 7 7 (301056)
I0403 15:33:57.124874  3229 net.cpp:156] Memory required for data: 1294534176
I0403 15:33:57.124891  3229 layer_factory.hpp:77] Creating layer inception_5a/3x3_reduce
I0403 15:33:57.124912  3229 net.cpp:91] Creating Layer inception_5a/3x3_reduce
I0403 15:33:57.124929  3229 net.cpp:425] inception_5a/3x3_reduce <- pool4/3x3_s2_pool4/3x3_s2_0_split_1
I0403 15:33:57.124949  3229 net.cpp:399] inception_5a/3x3_reduce -> inception_5a/3x3_reduce
I0403 15:33:57.127415  3229 net.cpp:141] Setting up inception_5a/3x3_reduce
I0403 15:33:57.127444  3229 net.cpp:148] Top shape: 24 160 7 7 (188160)
I0403 15:33:57.127460  3229 net.cpp:156] Memory required for data: 1295286816
I0403 15:33:57.127478  3229 layer_factory.hpp:77] Creating layer inception_5a/relu_3x3_reduce
I0403 15:33:57.127499  3229 net.cpp:91] Creating Layer inception_5a/relu_3x3_reduce
I0403 15:33:57.127516  3229 net.cpp:425] inception_5a/relu_3x3_reduce <- inception_5a/3x3_reduce
I0403 15:33:57.127532  3229 net.cpp:386] inception_5a/relu_3x3_reduce -> inception_5a/3x3_reduce (in-place)
I0403 15:33:57.127722  3229 net.cpp:141] Setting up inception_5a/relu_3x3_reduce
I0403 15:33:57.127746  3229 net.cpp:148] Top shape: 24 160 7 7 (188160)
I0403 15:33:57.127761  3229 net.cpp:156] Memory required for data: 1296039456
I0403 15:33:57.127775  3229 layer_factory.hpp:77] Creating layer inception_5a/3x3
I0403 15:33:57.127800  3229 net.cpp:91] Creating Layer inception_5a/3x3
I0403 15:33:57.127817  3229 net.cpp:425] inception_5a/3x3 <- inception_5a/3x3_reduce
I0403 15:33:57.127836  3229 net.cpp:399] inception_5a/3x3 -> inception_5a/3x3
I0403 15:33:57.132895  3229 net.cpp:141] Setting up inception_5a/3x3
I0403 15:33:57.132926  3229 net.cpp:148] Top shape: 24 320 7 7 (376320)
I0403 15:33:57.132943  3229 net.cpp:156] Memory required for data: 1297544736
I0403 15:33:57.132962  3229 layer_factory.hpp:77] Creating layer inception_5a/relu_3x3
I0403 15:33:57.132980  3229 net.cpp:91] Creating Layer inception_5a/relu_3x3
I0403 15:33:57.132997  3229 net.cpp:425] inception_5a/relu_3x3 <- inception_5a/3x3
I0403 15:33:57.133014  3229 net.cpp:386] inception_5a/relu_3x3 -> inception_5a/3x3 (in-place)
I0403 15:33:57.133319  3229 net.cpp:141] Setting up inception_5a/relu_3x3
I0403 15:33:57.133348  3229 net.cpp:148] Top shape: 24 320 7 7 (376320)
I0403 15:33:57.133363  3229 net.cpp:156] Memory required for data: 1299050016
I0403 15:33:57.133379  3229 layer_factory.hpp:77] Creating layer inception_5a/5x5_reduce
I0403 15:33:57.133400  3229 net.cpp:91] Creating Layer inception_5a/5x5_reduce
I0403 15:33:57.133419  3229 net.cpp:425] inception_5a/5x5_reduce <- pool4/3x3_s2_pool4/3x3_s2_0_split_2
I0403 15:33:57.133437  3229 net.cpp:399] inception_5a/5x5_reduce -> inception_5a/5x5_reduce
I0403 15:33:57.134616  3229 net.cpp:141] Setting up inception_5a/5x5_reduce
I0403 15:33:57.134647  3229 net.cpp:148] Top shape: 24 32 7 7 (37632)
I0403 15:33:57.134663  3229 net.cpp:156] Memory required for data: 1299200544
I0403 15:33:57.134682  3229 layer_factory.hpp:77] Creating layer inception_5a/relu_5x5_reduce
I0403 15:33:57.134701  3229 net.cpp:91] Creating Layer inception_5a/relu_5x5_reduce
I0403 15:33:57.134716  3229 net.cpp:425] inception_5a/relu_5x5_reduce <- inception_5a/5x5_reduce
I0403 15:33:57.134735  3229 net.cpp:386] inception_5a/relu_5x5_reduce -> inception_5a/5x5_reduce (in-place)
I0403 15:33:57.135033  3229 net.cpp:141] Setting up inception_5a/relu_5x5_reduce
I0403 15:33:57.135061  3229 net.cpp:148] Top shape: 24 32 7 7 (37632)
I0403 15:33:57.135077  3229 net.cpp:156] Memory required for data: 1299351072
I0403 15:33:57.135092  3229 layer_factory.hpp:77] Creating layer inception_5a/5x5
I0403 15:33:57.135114  3229 net.cpp:91] Creating Layer inception_5a/5x5
I0403 15:33:57.135131  3229 net.cpp:425] inception_5a/5x5 <- inception_5a/5x5_reduce
I0403 15:33:57.135150  3229 net.cpp:399] inception_5a/5x5 -> inception_5a/5x5
I0403 15:33:57.136883  3229 net.cpp:141] Setting up inception_5a/5x5
I0403 15:33:57.136929  3229 net.cpp:148] Top shape: 24 128 7 7 (150528)
I0403 15:33:57.136945  3229 net.cpp:156] Memory required for data: 1299953184
I0403 15:33:57.136965  3229 layer_factory.hpp:77] Creating layer inception_5a/relu_5x5
I0403 15:33:57.136982  3229 net.cpp:91] Creating Layer inception_5a/relu_5x5
I0403 15:33:57.136999  3229 net.cpp:425] inception_5a/relu_5x5 <- inception_5a/5x5
I0403 15:33:57.137017  3229 net.cpp:386] inception_5a/relu_5x5 -> inception_5a/5x5 (in-place)
I0403 15:33:57.137214  3229 net.cpp:141] Setting up inception_5a/relu_5x5
I0403 15:33:57.137238  3229 net.cpp:148] Top shape: 24 128 7 7 (150528)
I0403 15:33:57.137253  3229 net.cpp:156] Memory required for data: 1300555296
I0403 15:33:57.137269  3229 layer_factory.hpp:77] Creating layer inception_5a/pool
I0403 15:33:57.137285  3229 net.cpp:91] Creating Layer inception_5a/pool
I0403 15:33:57.137301  3229 net.cpp:425] inception_5a/pool <- pool4/3x3_s2_pool4/3x3_s2_0_split_3
I0403 15:33:57.137322  3229 net.cpp:399] inception_5a/pool -> inception_5a/pool
I0403 15:33:57.137392  3229 net.cpp:141] Setting up inception_5a/pool
I0403 15:33:57.137418  3229 net.cpp:148] Top shape: 24 832 7 7 (978432)
I0403 15:33:57.137434  3229 net.cpp:156] Memory required for data: 1304469024
I0403 15:33:57.137447  3229 layer_factory.hpp:77] Creating layer inception_5a/pool_proj
I0403 15:33:57.137471  3229 net.cpp:91] Creating Layer inception_5a/pool_proj
I0403 15:33:57.137488  3229 net.cpp:425] inception_5a/pool_proj <- inception_5a/pool
I0403 15:33:57.137507  3229 net.cpp:399] inception_5a/pool_proj -> inception_5a/pool_proj
I0403 15:33:57.139807  3229 net.cpp:141] Setting up inception_5a/pool_proj
I0403 15:33:57.139835  3229 net.cpp:148] Top shape: 24 128 7 7 (150528)
I0403 15:33:57.139852  3229 net.cpp:156] Memory required for data: 1305071136
I0403 15:33:57.139870  3229 layer_factory.hpp:77] Creating layer inception_5a/relu_pool_proj
I0403 15:33:57.139889  3229 net.cpp:91] Creating Layer inception_5a/relu_pool_proj
I0403 15:33:57.139906  3229 net.cpp:425] inception_5a/relu_pool_proj <- inception_5a/pool_proj
I0403 15:33:57.139925  3229 net.cpp:386] inception_5a/relu_pool_proj -> inception_5a/pool_proj (in-place)
I0403 15:33:57.140228  3229 net.cpp:141] Setting up inception_5a/relu_pool_proj
I0403 15:33:57.140272  3229 net.cpp:148] Top shape: 24 128 7 7 (150528)
I0403 15:33:57.140286  3229 net.cpp:156] Memory required for data: 1305673248
I0403 15:33:57.140301  3229 layer_factory.hpp:77] Creating layer inception_5a/output
I0403 15:33:57.140321  3229 net.cpp:91] Creating Layer inception_5a/output
I0403 15:33:57.140336  3229 net.cpp:425] inception_5a/output <- inception_5a/1x1
I0403 15:33:57.140352  3229 net.cpp:425] inception_5a/output <- inception_5a/3x3
I0403 15:33:57.140368  3229 net.cpp:425] inception_5a/output <- inception_5a/5x5
I0403 15:33:57.140384  3229 net.cpp:425] inception_5a/output <- inception_5a/pool_proj
I0403 15:33:57.140400  3229 net.cpp:399] inception_5a/output -> inception_5a/output
I0403 15:33:57.140450  3229 net.cpp:141] Setting up inception_5a/output
I0403 15:33:57.140475  3229 net.cpp:148] Top shape: 24 832 7 7 (978432)
I0403 15:33:57.140488  3229 net.cpp:156] Memory required for data: 1309586976
I0403 15:33:57.140502  3229 layer_factory.hpp:77] Creating layer inception_5a/output_inception_5a/output_0_split
I0403 15:33:57.140519  3229 net.cpp:91] Creating Layer inception_5a/output_inception_5a/output_0_split
I0403 15:33:57.140534  3229 net.cpp:425] inception_5a/output_inception_5a/output_0_split <- inception_5a/output
I0403 15:33:57.140553  3229 net.cpp:399] inception_5a/output_inception_5a/output_0_split -> inception_5a/output_inception_5a/output_0_split_0
I0403 15:33:57.140574  3229 net.cpp:399] inception_5a/output_inception_5a/output_0_split -> inception_5a/output_inception_5a/output_0_split_1
I0403 15:33:57.140594  3229 net.cpp:399] inception_5a/output_inception_5a/output_0_split -> inception_5a/output_inception_5a/output_0_split_2
I0403 15:33:57.140614  3229 net.cpp:399] inception_5a/output_inception_5a/output_0_split -> inception_5a/output_inception_5a/output_0_split_3
I0403 15:33:57.140724  3229 net.cpp:141] Setting up inception_5a/output_inception_5a/output_0_split
I0403 15:33:57.140750  3229 net.cpp:148] Top shape: 24 832 7 7 (978432)
I0403 15:33:57.140768  3229 net.cpp:148] Top shape: 24 832 7 7 (978432)
I0403 15:33:57.140782  3229 net.cpp:148] Top shape: 24 832 7 7 (978432)
I0403 15:33:57.140797  3229 net.cpp:148] Top shape: 24 832 7 7 (978432)
I0403 15:33:57.140811  3229 net.cpp:156] Memory required for data: 1325241888
I0403 15:33:57.140825  3229 layer_factory.hpp:77] Creating layer inception_5b/1x1
I0403 15:33:57.140846  3229 net.cpp:91] Creating Layer inception_5b/1x1
I0403 15:33:57.140863  3229 net.cpp:425] inception_5b/1x1 <- inception_5a/output_inception_5a/output_0_split_0
I0403 15:33:57.140882  3229 net.cpp:399] inception_5b/1x1 -> inception_5b/1x1
I0403 15:33:57.144556  3229 net.cpp:141] Setting up inception_5b/1x1
I0403 15:33:57.144584  3229 net.cpp:148] Top shape: 24 384 7 7 (451584)
I0403 15:33:57.144599  3229 net.cpp:156] Memory required for data: 1327048224
I0403 15:33:57.144618  3229 layer_factory.hpp:77] Creating layer inception_5b/relu_1x1
I0403 15:33:57.144639  3229 net.cpp:91] Creating Layer inception_5b/relu_1x1
I0403 15:33:57.144655  3229 net.cpp:425] inception_5b/relu_1x1 <- inception_5b/1x1
I0403 15:33:57.144672  3229 net.cpp:386] inception_5b/relu_1x1 -> inception_5b/1x1 (in-place)
I0403 15:33:57.144968  3229 net.cpp:141] Setting up inception_5b/relu_1x1
I0403 15:33:57.144994  3229 net.cpp:148] Top shape: 24 384 7 7 (451584)
I0403 15:33:57.145007  3229 net.cpp:156] Memory required for data: 1328854560
I0403 15:33:57.145022  3229 layer_factory.hpp:77] Creating layer inception_5b/3x3_reduce
I0403 15:33:57.145043  3229 net.cpp:91] Creating Layer inception_5b/3x3_reduce
I0403 15:33:57.145061  3229 net.cpp:425] inception_5b/3x3_reduce <- inception_5a/output_inception_5a/output_0_split_1
I0403 15:33:57.145081  3229 net.cpp:399] inception_5b/3x3_reduce -> inception_5b/3x3_reduce
I0403 15:33:57.147696  3229 net.cpp:141] Setting up inception_5b/3x3_reduce
I0403 15:33:57.147724  3229 net.cpp:148] Top shape: 24 192 7 7 (225792)
I0403 15:33:57.147739  3229 net.cpp:156] Memory required for data: 1329757728
I0403 15:33:57.147758  3229 layer_factory.hpp:77] Creating layer inception_5b/relu_3x3_reduce
I0403 15:33:57.147779  3229 net.cpp:91] Creating Layer inception_5b/relu_3x3_reduce
I0403 15:33:57.147795  3229 net.cpp:425] inception_5b/relu_3x3_reduce <- inception_5b/3x3_reduce
I0403 15:33:57.147814  3229 net.cpp:386] inception_5b/relu_3x3_reduce -> inception_5b/3x3_reduce (in-place)
I0403 15:33:57.148000  3229 net.cpp:141] Setting up inception_5b/relu_3x3_reduce
I0403 15:33:57.148026  3229 net.cpp:148] Top shape: 24 192 7 7 (225792)
I0403 15:33:57.148041  3229 net.cpp:156] Memory required for data: 1330660896
I0403 15:33:57.148056  3229 layer_factory.hpp:77] Creating layer inception_5b/3x3
I0403 15:33:57.148077  3229 net.cpp:91] Creating Layer inception_5b/3x3
I0403 15:33:57.148094  3229 net.cpp:425] inception_5b/3x3 <- inception_5b/3x3_reduce
I0403 15:33:57.148113  3229 net.cpp:399] inception_5b/3x3 -> inception_5b/3x3
I0403 15:33:57.154852  3229 net.cpp:141] Setting up inception_5b/3x3
I0403 15:33:57.154882  3229 net.cpp:148] Top shape: 24 384 7 7 (451584)
I0403 15:33:57.154898  3229 net.cpp:156] Memory required for data: 1332467232
I0403 15:33:57.154918  3229 layer_factory.hpp:77] Creating layer inception_5b/relu_3x3
I0403 15:33:57.154938  3229 net.cpp:91] Creating Layer inception_5b/relu_3x3
I0403 15:33:57.154955  3229 net.cpp:425] inception_5b/relu_3x3 <- inception_5b/3x3
I0403 15:33:57.154973  3229 net.cpp:386] inception_5b/relu_3x3 -> inception_5b/3x3 (in-place)
I0403 15:33:57.155282  3229 net.cpp:141] Setting up inception_5b/relu_3x3
I0403 15:33:57.155308  3229 net.cpp:148] Top shape: 24 384 7 7 (451584)
I0403 15:33:57.155323  3229 net.cpp:156] Memory required for data: 1334273568
I0403 15:33:57.155338  3229 layer_factory.hpp:77] Creating layer inception_5b/5x5_reduce
I0403 15:33:57.155377  3229 net.cpp:91] Creating Layer inception_5b/5x5_reduce
I0403 15:33:57.155396  3229 net.cpp:425] inception_5b/5x5_reduce <- inception_5a/output_inception_5a/output_0_split_2
I0403 15:33:57.155416  3229 net.cpp:399] inception_5b/5x5_reduce -> inception_5b/5x5_reduce
I0403 15:33:57.156705  3229 net.cpp:141] Setting up inception_5b/5x5_reduce
I0403 15:33:57.156733  3229 net.cpp:148] Top shape: 24 48 7 7 (56448)
I0403 15:33:57.156749  3229 net.cpp:156] Memory required for data: 1334499360
I0403 15:33:57.156767  3229 layer_factory.hpp:77] Creating layer inception_5b/relu_5x5_reduce
I0403 15:33:57.156788  3229 net.cpp:91] Creating Layer inception_5b/relu_5x5_reduce
I0403 15:33:57.156805  3229 net.cpp:425] inception_5b/relu_5x5_reduce <- inception_5b/5x5_reduce
I0403 15:33:57.156823  3229 net.cpp:386] inception_5b/relu_5x5_reduce -> inception_5b/5x5_reduce (in-place)
I0403 15:33:57.157202  3229 net.cpp:141] Setting up inception_5b/relu_5x5_reduce
I0403 15:33:57.157237  3229 net.cpp:148] Top shape: 24 48 7 7 (56448)
I0403 15:33:57.157253  3229 net.cpp:156] Memory required for data: 1334725152
I0403 15:33:57.157268  3229 layer_factory.hpp:77] Creating layer inception_5b/5x5
I0403 15:33:57.157289  3229 net.cpp:91] Creating Layer inception_5b/5x5
I0403 15:33:57.157305  3229 net.cpp:425] inception_5b/5x5 <- inception_5b/5x5_reduce
I0403 15:33:57.157323  3229 net.cpp:399] inception_5b/5x5 -> inception_5b/5x5
I0403 15:33:57.162159  3229 net.cpp:141] Setting up inception_5b/5x5
I0403 15:33:57.162197  3229 net.cpp:148] Top shape: 24 128 7 7 (150528)
I0403 15:33:57.162220  3229 net.cpp:156] Memory required for data: 1335327264
I0403 15:33:57.162240  3229 layer_factory.hpp:77] Creating layer inception_5b/relu_5x5
I0403 15:33:57.162259  3229 net.cpp:91] Creating Layer inception_5b/relu_5x5
I0403 15:33:57.162276  3229 net.cpp:425] inception_5b/relu_5x5 <- inception_5b/5x5
I0403 15:33:57.162297  3229 net.cpp:386] inception_5b/relu_5x5 -> inception_5b/5x5 (in-place)
I0403 15:33:57.162495  3229 net.cpp:141] Setting up inception_5b/relu_5x5
I0403 15:33:57.162520  3229 net.cpp:148] Top shape: 24 128 7 7 (150528)
I0403 15:33:57.162535  3229 net.cpp:156] Memory required for data: 1335929376
I0403 15:33:57.162549  3229 layer_factory.hpp:77] Creating layer inception_5b/pool
I0403 15:33:57.162567  3229 net.cpp:91] Creating Layer inception_5b/pool
I0403 15:33:57.162582  3229 net.cpp:425] inception_5b/pool <- inception_5a/output_inception_5a/output_0_split_3
I0403 15:33:57.162602  3229 net.cpp:399] inception_5b/pool -> inception_5b/pool
I0403 15:33:57.162678  3229 net.cpp:141] Setting up inception_5b/pool
I0403 15:33:57.162701  3229 net.cpp:148] Top shape: 24 832 7 7 (978432)
I0403 15:33:57.162716  3229 net.cpp:156] Memory required for data: 1339843104
I0403 15:33:57.162731  3229 layer_factory.hpp:77] Creating layer inception_5b/pool_proj
I0403 15:33:57.162755  3229 net.cpp:91] Creating Layer inception_5b/pool_proj
I0403 15:33:57.162773  3229 net.cpp:425] inception_5b/pool_proj <- inception_5b/pool
I0403 15:33:57.162792  3229 net.cpp:399] inception_5b/pool_proj -> inception_5b/pool_proj
I0403 15:33:57.165137  3229 net.cpp:141] Setting up inception_5b/pool_proj
I0403 15:33:57.165166  3229 net.cpp:148] Top shape: 24 128 7 7 (150528)
I0403 15:33:57.165184  3229 net.cpp:156] Memory required for data: 1340445216
I0403 15:33:57.165205  3229 layer_factory.hpp:77] Creating layer inception_5b/relu_pool_proj
I0403 15:33:57.165228  3229 net.cpp:91] Creating Layer inception_5b/relu_pool_proj
I0403 15:33:57.165247  3229 net.cpp:425] inception_5b/relu_pool_proj <- inception_5b/pool_proj
I0403 15:33:57.165266  3229 net.cpp:386] inception_5b/relu_pool_proj -> inception_5b/pool_proj (in-place)
I0403 15:33:57.165576  3229 net.cpp:141] Setting up inception_5b/relu_pool_proj
I0403 15:33:57.165604  3229 net.cpp:148] Top shape: 24 128 7 7 (150528)
I0403 15:33:57.165621  3229 net.cpp:156] Memory required for data: 1341047328
I0403 15:33:57.165637  3229 layer_factory.hpp:77] Creating layer inception_5b/output
I0403 15:33:57.165654  3229 net.cpp:91] Creating Layer inception_5b/output
I0403 15:33:57.165686  3229 net.cpp:425] inception_5b/output <- inception_5b/1x1
I0403 15:33:57.165704  3229 net.cpp:425] inception_5b/output <- inception_5b/3x3
I0403 15:33:57.165720  3229 net.cpp:425] inception_5b/output <- inception_5b/5x5
I0403 15:33:57.165736  3229 net.cpp:425] inception_5b/output <- inception_5b/pool_proj
I0403 15:33:57.165753  3229 net.cpp:399] inception_5b/output -> inception_5b/output
I0403 15:33:57.165807  3229 net.cpp:141] Setting up inception_5b/output
I0403 15:33:57.165832  3229 net.cpp:148] Top shape: 24 1024 7 7 (1204224)
I0403 15:33:57.165846  3229 net.cpp:156] Memory required for data: 1345864224
I0403 15:33:57.165860  3229 layer_factory.hpp:77] Creating layer pool5/7x7_s1
I0403 15:33:57.165880  3229 net.cpp:91] Creating Layer pool5/7x7_s1
I0403 15:33:57.165896  3229 net.cpp:425] pool5/7x7_s1 <- inception_5b/output
I0403 15:33:57.165915  3229 net.cpp:399] pool5/7x7_s1 -> pool5/7x7_s1
I0403 15:33:57.166132  3229 net.cpp:141] Setting up pool5/7x7_s1
I0403 15:33:57.166159  3229 net.cpp:148] Top shape: 24 1024 1 1 (24576)
I0403 15:33:57.166175  3229 net.cpp:156] Memory required for data: 1345962528
I0403 15:33:57.166189  3229 layer_factory.hpp:77] Creating layer pool5/drop_7x7_s1
I0403 15:33:57.166211  3229 net.cpp:91] Creating Layer pool5/drop_7x7_s1
I0403 15:33:57.166229  3229 net.cpp:425] pool5/drop_7x7_s1 <- pool5/7x7_s1
I0403 15:33:57.166250  3229 net.cpp:386] pool5/drop_7x7_s1 -> pool5/7x7_s1 (in-place)
I0403 15:33:57.166302  3229 net.cpp:141] Setting up pool5/drop_7x7_s1
I0403 15:33:57.166326  3229 net.cpp:148] Top shape: 24 1024 1 1 (24576)
I0403 15:33:57.166340  3229 net.cpp:156] Memory required for data: 1346060832
I0403 15:33:57.166355  3229 layer_factory.hpp:77] Creating layer loss3/classifier_plantvillage
I0403 15:33:57.166376  3229 net.cpp:91] Creating Layer loss3/classifier_plantvillage
I0403 15:33:57.166393  3229 net.cpp:425] loss3/classifier_plantvillage <- pool5/7x7_s1
I0403 15:33:57.166412  3229 net.cpp:399] loss3/classifier_plantvillage -> loss3/classifier_plantvillage
I0403 15:33:57.166844  3229 net.cpp:141] Setting up loss3/classifier_plantvillage
I0403 15:33:57.166868  3229 net.cpp:148] Top shape: 24 38 (912)
I0403 15:33:57.166883  3229 net.cpp:156] Memory required for data: 1346064480
I0403 15:33:57.166903  3229 layer_factory.hpp:77] Creating layer loss3/classifier_plantvillage_loss3/classifier_plantvillage_0_split
I0403 15:33:57.166920  3229 net.cpp:91] Creating Layer loss3/classifier_plantvillage_loss3/classifier_plantvillage_0_split
I0403 15:33:57.166936  3229 net.cpp:425] loss3/classifier_plantvillage_loss3/classifier_plantvillage_0_split <- loss3/classifier_plantvillage
I0403 15:33:57.166957  3229 net.cpp:399] loss3/classifier_plantvillage_loss3/classifier_plantvillage_0_split -> loss3/classifier_plantvillage_loss3/classifier_plantvillage_0_split_0
I0403 15:33:57.166978  3229 net.cpp:399] loss3/classifier_plantvillage_loss3/classifier_plantvillage_0_split -> loss3/classifier_plantvillage_loss3/classifier_plantvillage_0_split_1
I0403 15:33:57.166999  3229 net.cpp:399] loss3/classifier_plantvillage_loss3/classifier_plantvillage_0_split -> loss3/classifier_plantvillage_loss3/classifier_plantvillage_0_split_2
I0403 15:33:57.167021  3229 net.cpp:399] loss3/classifier_plantvillage_loss3/classifier_plantvillage_0_split -> loss3/classifier_plantvillage_loss3/classifier_plantvillage_0_split_3
I0403 15:33:57.167124  3229 net.cpp:141] Setting up loss3/classifier_plantvillage_loss3/classifier_plantvillage_0_split
I0403 15:33:57.167150  3229 net.cpp:148] Top shape: 24 38 (912)
I0403 15:33:57.167167  3229 net.cpp:148] Top shape: 24 38 (912)
I0403 15:33:57.167183  3229 net.cpp:148] Top shape: 24 38 (912)
I0403 15:33:57.167199  3229 net.cpp:148] Top shape: 24 38 (912)
I0403 15:33:57.167217  3229 net.cpp:156] Memory required for data: 1346079072
I0403 15:33:57.167232  3229 layer_factory.hpp:77] Creating layer loss1/loss
I0403 15:33:57.167256  3229 net.cpp:91] Creating Layer loss1/loss
I0403 15:33:57.167274  3229 net.cpp:425] loss1/loss <- loss1/classifier_plantvillage_loss1/classifier_plantvillage_0_split_0
I0403 15:33:57.167306  3229 net.cpp:425] loss1/loss <- label_data_1_split_0
…
