…
I0403 15:01:30.512554  2562 net.cpp:313] The NetState phase (1) differed from the phase (0) specified by a rule in layer data
I0403 15:01:30.513764  2562 net.cpp:49] Initializing net from parameters: 
state {
  phase: TEST
}
layer {
  name: "data"
  type: "Data"
  top: "data"
  top: "label"
  include {
    phase: TEST
  }
  transform_param {
    mirror: false
    crop_size: 224
    mean_file: "/home/mohanty/data/final_dataset/lmdb/segmented-60-40/mean.binaryproto"
  }
  data_param {
    source: "/home/mohanty/data/final_dataset/lmdb/segmented-60-40/test_db"
    batch_size: 24
    backend: LMDB
  }
}
layer {
  name: "conv1/7x7_s2"
  type: "Convolution"
  bottom: "data"
  top: "conv1/7x7_s2"
  param {
    lr_mult: 1
    decay_mult: 1
  }
  param {
    lr_mult: 2
    decay_mult: 0
  }
  convolution_param {
    num_output: 64
    pad: 3
    kernel_size: 7
    stride: 2
    weight_filler {
      type: "xavier"
      std: 0.1
    }
    bias_filler {
      type: "constant"
      value: 0.2
    }
  }
}
layer {
  name: "conv1/relu_7x7"
  type: "ReLU"
  bottom: "conv1/7x7_s2"
  top: "conv1/7x7_s2"
}
layer {
  name: "pool1/3x3_s2"
  type: "Pooling"
  bottom: "conv1/7x7_s2"
  top: "pool1/3x3_s2"
  pooling_param {
    pool: MAX
    kernel_size: 3
    stride: 2
  }
}
layer {
  name: "pool1/norm1"
  type: "LRN"
  bottom: "pool1/3x3_s2"
  top: "pool1/norm1"
  lrn_param {
    local_size: 5
    alpha: 0.0001
    beta: 0.75
  }
}
layer {
  name: "conv2/3x3_reduce"
  type: "Convolution"
  bottom: "pool1/norm1"
  top: "conv2/3x3_reduce"
  param {
    lr_mult: 1
    decay_mult: 1
  }
  param {
    lr_mult: 2
    decay_mult: 0
  }
  convolution_param {
    num_output: 64
    kernel_size: 1
    weight_filler {
      type: "xavier"
      std: 0.1
    }
    bias_filler {
      type: "constant"
      value: 0.2
    }
  }
}
layer {
  name: "conv2/relu_3x3_reduce"
  type: "ReLU"
  bottom: "conv2/3x3_reduce"
  top: "conv2/3x3_reduce"
}
layer {
  name: "conv2/3x3"
  type: "Convolution"
  bottom: "conv2/3x3_reduce"
  top: "conv2/3x3"
  param {
    lr_mult: 1
    decay_mult: 1
  }
  param {
    lr_mult: 2
    decay_mult: 0
  }
  convolution_param {
    num_output: 192
    pad: 1
    kernel_size: 3
    weight_filler {
      type: "xavier"
      std: 0.03
    }
    bias_filler {
      type: "constant"
      value: 0.2
    }
  }
}
layer {
  name: "conv2/relu_3x3"
  type: "ReLU"
  bottom: "conv2/3x3"
  top: "conv2/3x3"
}
layer {
  name: "conv2/norm2"
  type: "LRN"
  bottom: "conv2/3x3"
  top: "conv2/norm2"
  lrn_param {
    local_size: 5
    alpha: 0.0001
    beta: 0.75
  }
}
layer {
  name: "pool2/3x3_s2"
  type: "Pooling"
  bottom: "conv2/norm2"
  top: "pool2/3x3_s2"
  pooling_param {
    pool: MAX
    kernel_size: 3
    stride: 2
  }
}
layer {
  name: "inception_3a/1x1"
  type: "Convolution"
  bottom: "pool2/3x3_s2"
  top: "inception_3a/1x1"
  param {
    lr_mult: 1
    decay_mult: 1
  }
  param {
    lr_mult: 2
    decay_mult: 0
  }
  convolution_param {
    num_output: 64
    kernel_size: 1
    weight_filler {
      type: "xavier"
      std: 0.03
    }
    bias_filler {
      type: "constant"
      value: 0.2
    }
  }
}
layer {
  name: "inception_3a/relu_1x1"
  type: "ReLU"
  bottom: "inception_3a/1x1"
  top: "inception_3a/1x1"
}
layer {
  name: "inception_3a/3x3_reduce"
  type: "Convolution"
  bottom: "pool2/3x3_s2"
  top: "inception_3a/3x3_reduce"
  param {
    lr_mult: 1
    decay_mult: 1
  }
  param {
    lr_mult: 2
    decay_mult: 0
  }
  convolution_param {
    num_output: 96
    kernel_size: 1
    weight_filler {
      type: "xavier"
      std: 0.09
    }
    bias_filler {
      type: "constant"
      value: 0.2
    }
  }
}
layer {
  name: "inception_3a/relu_3x3_reduce"
  type: "ReLU"
  bottom: "inception_3a/3x3_reduce"
  top: "inception_3a/3x3_reduce"
}
layer {
  name: "inception_3a/3x3"
  type: "Convolution"
  bottom: "inception_3a/3x3_reduce"
  top: "inception_3a/3x3"
  param {
    lr_mult: 1
    decay_mult: 1
  }
  param {
    lr_mult: 2
    decay_mult: 0
  }
  convolution_param {
    num_output: 128
    pad: 1
    kernel_size: 3
    weight_filler {
      type: "xavier"
      std: 0.03
    }
    bias_filler {
      type: "constant"
      value: 0.2
    }
  }
}
layer {
  name: "inception_3a/relu_3x3"
  type: "ReLU"
  bottom: "inception_3a/3x3"
  top: "inception_3a/3x3"
}
layer {
  name: "inception_3a/5x5_reduce"
  type: "Convolution"
  bottom: "pool2/3x3_s2"
  top: "inception_3a/5x5_reduce"
  param {
    lr_mult: 1
    decay_mult: 1
  }
  param {
    lr_mult: 2
    decay_mult: 0
  }
  convolution_param {
    num_output: 16
    kernel_size: 1
    weight_filler {
      type: "xavier"
      std: 0.2
    }
    bias_filler {
      type: "constant"
      value: 0.2
    }
  }
}
layer {
  name: "inception_3a/relu_5x5_reduce"
  type: "ReLU"
  bottom: "inception_3a/5x5_reduce"
  top: "inception_3a/5x5_reduce"
}
layer {
  name: "inception_3a/5x5"
  type: "Convolution"
  bottom: "inception_3a/5x5_reduce"
  top: "inception_3a/5x5"
  param {
    lr_mult: 1
    decay_mult: 1
  }
  param {
    lr_mult: 2
    decay_mult: 0
  }
  convolution_param {
    num_output: 32
    pad: 2
    kernel_size: 5
    weight_filler {
      type: "xavier"
      std: 0.03
    }
    bias_filler {
      type: "constant"
      value: 0.2
    }
  }
}
layer {
  name: "inception_3a/relu_5x5"
  type: "ReLU"
  bottom: "inception_3a/5x5"
  top: "inception_3a/5x5"
}
layer {
  name: "inception_3a/pool"
  type: "Pooling"
  bottom: "pool2/3x3_s2"
  top: "inception_3a/pool"
  pooling_param {
    pool: MAX
    kernel_size: 3
    stride: 1
    pad: 1
  }
}
layer {
  name: "inception_3a/pool_proj"
  type: "Convolution"
  bottom: "inception_3a/pool"
  top: "inception_3a/pool_proj"
  param {
    lr_mult: 1
    decay_mult: 1
  }
  param {
    lr_mult: 2
    decay_mult: 0
  }
  convolution_param {
    num_output: 32
    kernel_size: 1
    weight_filler {
      type: "xavier"
      std: 0.1
    }
    bias_filler {
      type: "constant"
      value: 0.2
    }
  }
}
layer {
  name: "inception_3a/relu_pool_proj"
  type: "ReLU"
  bottom: "inception_3a/pool_proj"
  top: "inception_3a/pool_proj"
}
layer {
  name: "inception_3a/output"
  type: "Concat"
  bottom: "inception_3a/1x1"
  bottom: "inception_3a/3x3"
  bottom: "inception_3a/5x5"
  bottom: "inception_3a/pool_proj"
  top: "inception_3a/output"
}
layer {
  name: "inception_3b/1x1"
  type: "Convolution"
  bottom: "inception_3a/output"
  top: "inception_3b/1x1"
  param {
    lr_mult: 1
    decay_mult: 1
  }
  param {
    lr_mult: 2
    decay_mult: 0
  }
  convolution_param {
    num_output: 128
    kernel_size: 1
    weight_filler {
      type: "xavier"
      std: 0.03
    }
    bias_filler {
      type: "constant"
      value: 0.2
    }
  }
}
layer {
  name: "inception_3b/relu_1x1"
  type: "ReLU"
  bottom: "inception_3b/1x1"
  top: "inception_3b/1x1"
}
layer {
  name: "inception_3b/3x3_reduce"
  type: "Convolution"
  bottom: "inception_3a/output"
  top: "inception_3b/3x3_reduce"
  param {
    lr_mult: 1
    decay_mult: 1
  }
  param {
    lr_mult: 2
    decay_mult: 0
  }
  convolution_param {
    num_output: 128
    kernel_size: 1
    weight_filler {
      type: "xavier"
      std: 0.09
    }
    bias_filler {
      type: "constant"
      value: 0.2
    }
  }
}
layer {
  name: "inception_3b/relu_3x3_reduce"
  type: "ReLU"
  bottom: "inception_3b/3x3_reduce"
  top: "inception_3b/3x3_reduce"
}
layer {
  name: "inception_3b/3x3"
  type: "Convolution"
  bottom: "inception_3b/3x3_reduce"
  top: "inception_3b/3x3"
  param {
    lr_mult: 1
    decay_mult: 1
  }
  param {
    lr_mult: 2
    decay_mult: 0
  }
  convolution_param {
    num_output: 192
    pad: 1
    kernel_size: 3
    weight_filler {
      type: "xavier"
      std: 0.03
    }
    bias_filler {
      type: "constant"
      value: 0.2
    }
  }
}
layer {
  name: "inception_3b/relu_3x3"
  type: "ReLU"
  bottom: "inception_3b/3x3"
  top: "inception_3b/3x3"
}
layer {
  name: "inception_3b/5x5_reduce"
  type: "Convolution"
  bottom: "inception_3a/output"
  top: "inception_3b/5x5_reduce"
  param {
    lr_mult: 1
    decay_mult: 1
  }
  param {
    lr_mult: 2
    decay_mult: 0
  }
  convolution_param {
    num_output: 32
    kernel_size: 1
    weight_filler {
      type: "xavier"
      std: 0.2
    }
    bias_filler {
      type: "constant"
      value: 0.2
    }
  }
}
layer {
  name: "inception_3b/relu_5x5_reduce"
  type: "ReLU"
  bottom: "inception_3b/5x5_reduce"
  top: "inception_3b/5x5_reduce"
}
layer {
  name: "inception_3b/5x5"
  type: "Convolution"
  bottom: "inception_3b/5x5_reduce"
  top: "inception_3b/5x5"
  param {
    lr_mult: 1
    decay_mult: 1
  }
  param {
    lr_mult: 2
    decay_mult: 0
  }
  convolution_param {
    num_output: 96
    pad: 2
    kernel_size: 5
    weight_filler {
      type: "xavier"
      std: 0.03
    }
    bias_filler {
      type: "constant"
      value: 0.2
    }
  }
}
layer {
  name: "inception_3b/relu_5x5"
  type: "ReLU"
  bottom: "inception_3b/5x5"
  top: "inception_3b/5x5"
}
layer {
  name: "inception_3b/pool"
  type: "Pooling"
  bottom: "inception_3a/output"
  top: "inception_3b/pool"
  pooling_param {
    pool: MAX
    kernel_size: 3
    stride: 1
    pad: 1
  }
}
layer {
  name: "inception_3b/pool_proj"
  type: "Convolution"
  bottom: "inception_3b/pool"
  top: "inception_3b/pool_proj"
  param {
    lr_mult: 1
    decay_mult: 1
  }
  param {
    lr_mult: 2
    decay_mult: 0
  }
  convolution_param {
    num_output: 64
    kernel_size: 1
    weight_filler {
      type: "xavier"
      std: 0.1
    }
    bias_filler {
      type: "constant"
      value: 0.2
    }
  }
}
layer {
  name: "inception_3b/relu_pool_proj"
  type: "ReLU"
  bottom: "inception_3b/pool_proj"
  top: "inception_3b/pool_proj"
}
layer {
  name: "inception_3b/output"
  type: "Concat"
  bottom: "inception_3b/1x1"
  bottom: "inception_3b/3x3"
  bottom: "inception_3b/5x5"
  bottom: "inception_3b/pool_proj"
  top: "inception_3b/output"
}
layer {
  name: "pool3/3x3_s2"
  type: "Pooling"
  bottom: "inception_3b/output"
  top: "pool3/3x3_s2"
  pooling_param {
    pool: MAX
    kernel_size: 3
    stride: 2
  }
}
layer {
  name: "inception_4a/1x1"
  type: "Convolution"
  bottom: "pool3/3x3_s2"
  top: "inception_4a/1x1"
  param {
    lr_mult: 1
    decay_mult: 1
  }
  param {
    lr_mult: 2
    decay_mult: 0
  }
  convolution_param {
    num_output: 192
    kernel_size: 1
    weight_filler {
      type: "xavier"
      std: 0.03
    }
    bias_filler {
      type: "constant"
      value: 0.2
    }
  }
}
layer {
  name: "inception_4a/relu_1x1"
  type: "ReLU"
  bottom: "inception_4a/1x1"
  top: "inception_4a/1x1"
}
layer {
  name: "inception_4a/3x3_reduce"
  type: "Convolution"
  bottom: "pool3/3x3_s2"
  top: "inception_4a/3x3_reduce"
  param {
    lr_mult: 1
    decay_mult: 1
  }
  param {
    lr_mult: 2
    decay_mult: 0
  }
  convolution_param {
    num_output: 96
    kernel_size: 1
    weight_filler {
      type: "xavier"
      std: 0.09
    }
    bias_filler {
      type: "constant"
      value: 0.2
    }
  }
}
layer {
  name: "inception_4a/relu_3x3_reduce"
  type: "ReLU"
  bottom: "inception_4a/3x3_reduce"
  top: "inception_4a/3x3_reduce"
}
layer {
  name: "inception_4a/3x3"
  type: "Convolution"
  bottom: "inception_4a/3x3_reduce"
  top: "inception_4a/3x3"
  param {
    lr_mult: 1
    decay_mult: 1
  }
  param {
    lr_mult: 2
    decay_mult: 0
  }
  convolution_param {
    num_output: 208
    pad: 1
    kernel_size: 3
    weight_filler {
      type: "xavier"
      std: 0.03
    }
    bias_filler {
      type: "constant"
      value: 0.2
    }
  }
}
layer {
  name: "inception_4a/relu_3x3"
  type: "ReLU"
  bottom: "inception_4a/3x3"
  top: "inception_4a/3x3"
}
layer {
  name: "inception_4a/5x5_reduce"
  type: "Convolution"
  bottom: "pool3/3x3_s2"
  top: "inception_4a/5x5_reduce"
  param {
    lr_mult: 1
    decay_mult: 1
  }
  param {
    lr_mult: 2
    decay_mult: 0
  }
  convolution_param {
    num_output: 16
    kernel_size: 1
    weight_filler {
      type: "xavier"
      std: 0.2
    }
    bias_filler {
      type: "constant"
      value: 0.2
    }
  }
}
layer {
  name: "inception_4a/relu_5x5_reduce"
  type: "ReLU"
  bottom: "inception_4a/5x5_reduce"
  top: "inception_4a/5x5_reduce"
}
layer {
  name: "inception_4a/5x5"
  type: "Convolution"
  bottom: "inception_4a/5x5_reduce"
  top: "inception_4a/5x5"
  param {
    lr_mult: 1
    decay_mult: 1
  }
  param {
    lr_mult: 2
    decay_mult: 0
  }
  convolution_param {
    num_output: 48
    pad: 2
    kernel_size: 5
    weight_filler {
      type: "xavier"
      std: 0.03
    }
    bias_filler {
      type: "constant"
      value: 0.2
    }
  }
}
layer {
  name: "inception_4a/relu_5x5"
  type: "ReLU"
  bottom: "inception_4a/5x5"
  top: "inception_4a/5x5"
}
layer {
  name: "inception_4a/pool"
  type: "Pooling"
  bottom: "pool3/3x3_s2"
  top: "inception_4a/pool"
  pooling_param {
    pool: MAX
    kernel_size: 3
    stride: 1
    pad: 1
  }
}
layer {
  name: "inception_4a/pool_proj"
  type: "Convolution"
  bottom: "inception_4a/pool"
  top: "inception_4a/pool_proj"
  param {
    lr_mult: 1
    decay_mult: 1
  }
  param {
    lr_mult: 2
    decay_mult: 0
  }
  convolution_param {
    num_output: 64
    kernel_size: 1
    weight_filler {
      type: "xavier"
      std: 0.1
    }
    bias_filler {
      type: "constant"
      value: 0.2
    }
  }
}
layer {
  name: "inception_4a/relu_pool_proj"
  type: "ReLU"
  bottom: "inception_4a/pool_proj"
  top: "inception_4a/pool_proj"
}
layer {
  name: "inception_4a/output"
  type: "Concat"
  bottom: "inception_4a/1x1"
  bottom: "inception_4a/3x3"
  bottom: "inception_4a/5x5"
  bottom: "inception_4a/pool_proj"
  top: "inception_4a/output"
}
layer {
  name: "loss1/ave_pool"
  type: "Pooling"
  bottom: "inception_4a/output"
  top: "loss1/ave_pool"
  pooling_param {
    pool: AVE
    kernel_size: 5
    stride: 3
  }
}
layer {
  name: "loss1/conv"
  type: "Convolution"
  bottom: "loss1/ave_pool"
  top: "loss1/conv"
  param {
    lr_mult: 1
    decay_mult: 1
  }
  param {
    lr_mult: 2
    decay_mult: 0
  }
  convolution_param {
    num_output: 128
    kernel_size: 1
    weight_filler {
      type: "xavier"
      std: 0.08
    }
    bias_filler {
      type: "constant"
      value: 0.2
    }
  }
}
layer {
  name: "loss1/relu_conv"
  type: "ReLU"
  bottom: "loss1/conv"
  top: "loss1/conv"
}
layer {
  name: "loss1/fc"
  type: "InnerProduct"
  bottom: "loss1/conv"
  top: "loss1/fc"
  param {
    lr_mult: 1
    decay_mult: 1
  }
  param {
    lr_mult: 2
    decay_mult: 0
  }
  inner_product_param {
    num_output: 1024
    weight_filler {
      type: "xavier"
      std: 0.02
    }
    bias_filler {
      type: "constant"
      value: 0.2
    }
  }
}
layer {
  name: "loss1/relu_fc"
  type: "ReLU"
  bottom: "loss1/fc"
  top: "loss1/fc"
}
layer {
  name: "loss1/drop_fc"
  type: "Dropout"
  bottom: "loss1/fc"
  top: "loss1/fc"
  dropout_param {
    dropout_ratio: 0.7
  }
}
layer {
  name: "loss1/classifier_plantvillage"
  type: "InnerProduct"
  bottom: "loss1/fc"
  top: "loss1/classifier_plantvillage"
  param {
    lr_mult: 1
    decay_mult: 1
  }
  param {
    lr_mult: 2
    decay_mult: 0
  }
  inner_product_param {
    num_output: 38
    weight_filler {
      type: "xavier"
      std: 0.0009765625
    }
    bias_filler {
      type: "constant"
      value: 0
    }
  }
}
layer {
  name: "inception_4b/1x1"
  type: "Convolution"
  bottom: "inception_4a/output"
  top: "inception_4b/1x1"
  param {
    lr_mult: 1
    decay_mult: 1
  }
  param {
    lr_mult: 2
    decay_mult: 0
  }
  convolution_param {
    num_output: 160
    kernel_size: 1
    weight_filler {
      type: "xavier"
      std: 0.03
    }
    bias_filler {
      type: "constant"
      value: 0.2
    }
  }
}
layer {
  name: "inception_4b/relu_1x1"
  type: "ReLU"
  bottom: "inception_4b/1x1"
  top: "inception_4b/1x1"
}
layer {
  name: "inception_4b/3x3_reduce"
  type: "Convolution"
  bottom: "inception_4a/output"
  top: "inception_4b/3x3_reduce"
  param {
    lr_mult: 1
    decay_mult: 1
  }
  param {
    lr_mult: 2
    decay_mult: 0
  }
  convolution_param {
    num_output: 112
    kernel_size: 1
    weight_filler {
      type: "xavier"
      std: 0.09
    }
    bias_filler {
      type: "constant"
      value: 0.2
    }
  }
}
layer {
  name: "inception_4b/relu_3x3_reduce"
  type: "ReLU"
  bottom: "inception_4b/3x3_reduce"
  top: "inception_4b/3x3_reduce"
}
layer {
  name: "inception_4b/3x3"
  type: "Convolution"
  bottom: "inception_4b/3x3_reduce"
  top: "inception_4b/3x3"
  param {
    lr_mult: 1
    decay_mult: 1
  }
  param {
    lr_mult: 2
    decay_mult: 0
  }
  convolution_param {
    num_output: 224
    pad: 1
    kernel_size: 3
    weight_filler {
      type: "xavier"
      std: 0.03
    }
    bias_filler {
      type: "constant"
      value: 0.2
    }
  }
}
layer {
  name: "inception_4b/relu_3x3"
  type: "ReLU"
  bottom: "inception_4b/3x3"
  top: "inception_4b/3x3"
}
layer {
  name: "inception_4b/5x5_reduce"
  type: "Convolution"
  bottom: "inception_4a/output"
  top: "inception_4b/5x5_reduce"
  param {
    lr_mult: 1
    decay_mult: 1
  }
  param {
    lr_mult: 2
    decay_mult: 0
  }
  convolution_param {
    num_output: 24
    kernel_size: 1
    weight_filler {
      type: "xavier"
      std: 0.2
    }
    bias_filler {
      type: "constant"
      value: 0.2
    }
  }
}
layer {
  name: "inception_4b/relu_5x5_reduce"
  type: "ReLU"
  bottom: "inception_4b/5x5_reduce"
  top: "inception_4b/5x5_reduce"
}
layer {
  name: "inception_4b/5x5"
  type: "Convolution"
  bottom: "inception_4b/5x5_reduce"
  top: "inception_4b/5x5"
  param {
    lr_mult: 1
    decay_mult: 1
  }
  param {
    lr_mult: 2
    decay_mult: 0
  }
  convolution_param {
    num_output: 64
    pad: 2
    kernel_size: 5
    weight_filler {
      type: "xavier"
      std: 0.03
    }
    bias_filler {
      type: "constant"
      value: 0.2
    }
  }
}
layer {
  name: "inception_4b/relu_5x5"
  type: "ReLU"
  bottom: "inception_4b/5x5"
  top: "inception_4b/5x5"
}
layer {
  name: "inception_4b/pool"
  type: "Pooling"
  bottom: "inception_4a/output"
  top: "inception_4b/pool"
  pooling_param {
    pool: MAX
    kernel_size: 3
    stride: 1
    pad: 1
  }
}
layer {
  name: "inception_4b/pool_proj"
  type: "Convolution"
  bottom: "inception_4b/pool"
  top: "inception_4b/pool_proj"
  param {
    lr_mult: 1
    decay_mult: 1
  }
  param {
    lr_mult: 2
    decay_mult: 0
  }
  convolution_param {
    num_output: 64
    kernel_size: 1
    weight_filler {
      type: "xavier"
      std: 0.1
    }
    bias_filler {
      type: "constant"
      value: 0.2
    }
  }
}
layer {
  name: "inception_4b/relu_pool_proj"
  type: "ReLU"
  bottom: "inception_4b/pool_proj"
  top: "inception_4b/pool_proj"
}
layer {
  name: "inception_4b/output"
  type: "Concat"
  bottom: "inception_4b/1x1"
  bottom: "inception_4b/3x3"
  bottom: "inception_4b/5x5"
  bottom: "inception_4b/pool_proj"
  top: "inception_4b/output"
}
layer {
  name: "inception_4c/1x1"
  type: "Convolution"
  bottom: "inception_4b/output"
  top: "inception_4c/1x1"
  param {
    lr_mult: 1
    decay_mult: 1
  }
  param {
    lr_mult: 2
    decay_mult: 0
  }
  convolution_param {
    num_output: 128
    kernel_size: 1
    weight_filler {
      type: "xavier"
      std: 0.03
    }
    bias_filler {
      type: "constant"
      value: 0.2
    }
  }
}
layer {
  name: "inception_4c/relu_1x1"
  type: "ReLU"
  bottom: "inception_4c/1x1"
  top: "inception_4c/1x1"
}
layer {
  name: "inception_4c/3x3_reduce"
  type: "Convolution"
  bottom: "inception_4b/output"
  top: "inception_4c/3x3_reduce"
  param {
    lr_mult: 1
    decay_mult: 1
  }
  param {
    lr_mult: 2
    decay_mult: 0
  }
  convolution_param {
    num_output: 128
    kernel_size: 1
    weight_filler {
      type: "xavier"
      std: 0.09
    }
    bias_filler {
      type: "constant"
      value: 0.2
    }
  }
}
layer {
  name: "inception_4c/relu_3x3_reduce"
  type: "ReLU"
  bottom: "inception_4c/3x3_reduce"
  top: "inception_4c/3x3_reduce"
}
layer {
  name: "inception_4c/3x3"
  type: "Convolution"
  bottom: "inception_4c/3x3_reduce"
  top: "inception_4c/3x3"
  param {
    lr_mult: 1
    decay_mult: 1
  }
  param {
    lr_mult: 2
    decay_mult: 0
  }
  convolution_param {
    num_output: 256
    pad: 1
    kernel_size: 3
    weight_filler {
      type: "xavier"
      std: 0.03
    }
    bias_filler {
      type: "constant"
      value: 0.2
    }
  }
}
layer {
  name: "inception_4c/relu_3x3"
  type: "ReLU"
  bottom: "inception_4c/3x3"
  top: "inception_4c/3x3"
}
layer {
  name: "inception_4c/5x5_reduce"
  type: "Convolution"
  bottom: "inception_4b/output"
  top: "inception_4c/5x5_reduce"
  param {
    lr_mult: 1
    decay_mult: 1
  }
  param {
    lr_mult: 2
    decay_mult: 0
  }
  convolution_param {
    num_output: 24
    kernel_size: 1
    weight_filler {
      type: "xavier"
      std: 0.2
    }
    bias_filler {
      type: "constant"
      value: 0.2
    }
  }
}
layer {
  name: "inception_4c/relu_5x5_reduce"
  type: "ReLU"
  bottom: "inception_4c/5x5_reduce"
  top: "inception_4c/5x5_reduce"
}
layer {
  name: "inception_4c/5x5"
  type: "Convolution"
  bottom: "inception_4c/5x5_reduce"
  top: "inception_4c/5x5"
  param {
    lr_mult: 1
    decay_mult: 1
  }
  param {
    lr_mult: 2
    decay_mult: 0
  }
  convolution_param {
    num_output: 64
    pad: 2
    kernel_size: 5
    weight_filler {
      type: "xavier"
      std: 0.03
    }
    bias_filler {
      type: "constant"
      value: 0.2
    }
  }
}
layer {
  name: "inception_4c/relu_5x5"
  type: "ReLU"
  bottom: "inception_4c/5x5"
  top: "inception_4c/5x5"
}
layer {
  name: "inception_4c/pool"
  type: "Pooling"
  bottom: "inception_4b/output"
  top: "inception_4c/pool"
  pooling_param {
    pool: MAX
    kernel_size: 3
    stride: 1
    pad: 1
  }
}
layer {
  name: "inception_4c/pool_proj"
  type: "Convolution"
  bottom: "inception_4c/pool"
  top: "inception_4c/pool_proj"
  param {
    lr_mult: 1
    decay_mult: 1
  }
  param {
    lr_mult: 2
    decay_mult: 0
  }
  convolution_param {
    num_output: 64
    kernel_size: 1
    weight_filler {
      type: "xavier"
      std: 0.1
    }
    bias_filler {
      type: "constant"
      value: 0.2
    }
  }
}
layer {
  name: "inception_4c/relu_pool_proj"
  type: "ReLU"
  bottom: "inception_4c/pool_proj"
  top: "inception_4c/pool_proj"
}
layer {
  name: "inception_4c/output"
  type: "Concat"
  bottom: "inception_4c/1x1"
  bottom: "inception_4c/3x3"
  bottom: "inception_4c/5x5"
  bottom: "inception_4c/pool_proj"
  top: "inception_4c/output"
}
layer {
  name: "inception_4d/1x1"
  type: "Convolution"
  bottom: "inception_4c/output"
  top: "inception_4d/1x1"
  param {
    lr_mult: 1
    decay_mult: 1
  }
  param {
    lr_mult: 2
    decay_mult: 0
  }
  convolution_param {
    num_output: 112
    kernel_size: 1
    weight_filler {
      type: "xavier"
      std: 0.03
    }
    bias_filler {
      type: "constant"
      value: 0.2
    }
  }
}
layer {
  name: "inception_4d/relu_1x1"
  type: "ReLU"
  bottom: "inception_4d/1x1"
  top: "inception_4d/1x1"
}
layer {
  name: "inception_4d/3x3_reduce"
  type: "Convolution"
  bottom: "inception_4c/output"
  top: "inception_4d/3x3_reduce"
  param {
    lr_mult: 1
    decay_mult: 1
  }
  param {
    lr_mult: 2
    decay_mult: 0
  }
  convolution_param {
    num_output: 144
    kernel_size: 1
    weight_filler {
      type: "xavier"
      std: 0.09
    }
    bias_filler {
      type: "constant"
      value: 0.2
    }
  }
}
layer {
  name: "inception_4d/relu_3x3_reduce"
  type: "ReLU"
  bottom: "inception_4d/3x3_reduce"
  top: "inception_4d/3x3_reduce"
}
layer {
  name: "inception_4d/3x3"
  type: "Convolution"
  bottom: "inception_4d/3x3_reduce"
  top: "inception_4d/3x3"
  param {
    lr_mult: 1
    decay_mult: 1
  }
  param {
    lr_mult: 2
    decay_mult: 0
  }
  convolution_param {
    num_output: 288
    pad: 1
    kernel_size: 3
    weight_filler {
      type: "xavier"
      std: 0.03
    }
    bias_filler {
      type: "constant"
      value: 0.2
    }
  }
}
layer {
  name: "inception_4d/relu_3x3"
  type: "ReLU"
  bottom: "inception_4d/3x3"
  top: "inception_4d/3x3"
}
layer {
  name: "inception_4d/5x5_reduce"
  type: "Convolution"
  bottom: "inception_4c/output"
  top: "inception_4d/5x5_reduce"
  param {
    lr_mult: 1
    decay_mult: 1
  }
  param {
    lr_mult: 2
    decay_mult: 0
  }
  convolution_param {
    num_output: 32
    kernel_size: 1
    weight_filler {
      type: "xavier"
      std: 0.2
    }
    bias_filler {
      type: "constant"
      value: 0.2
    }
  }
}
layer {
  name: "inception_4d/relu_5x5_reduce"
  type: "ReLU"
  bottom: "inception_4d/5x5_reduce"
  top: "inception_4d/5x5_reduce"
}
layer {
  name: "inception_4d/5x5"
  type: "Convolution"
  bottom: "inception_4d/5x5_reduce"
  top: "inception_4d/5x5"
  param {
    lr_mult: 1
    decay_mult: 1
  }
  param {
    lr_mult: 2
    decay_mult: 0
  }
  convolution_param {
    num_output: 64
    pad: 2
    kernel_size: 5
    weight_filler {
      type: "xavier"
      std: 0.03
    }
    bias_filler {
      type: "constant"
      value: 0.2
    }
  }
}
layer {
  name: "inception_4d/relu_5x5"
  type: "ReLU"
  bottom: "inception_4d/5x5"
  top: "inception_4d/5x5"
}
layer {
  name: "inception_4d/pool"
  type: "Pooling"
  bottom: "inception_4c/output"
  top: "inception_4d/pool"
  pooling_param {
    pool: MAX
    kernel_size: 3
    stride: 1
    pad: 1
  }
}
layer {
  name: "inception_4d/pool_proj"
  type: "Convolution"
  bottom: "inception_4d/pool"
  top: "inception_4d/pool_proj"
  param {
    lr_mult: 1
    decay_mult: 1
  }
  param {
    lr_mult: 2
    decay_mult: 0
  }
  convolution_param {
    num_output: 64
    kernel_size: 1
    weight_filler {
      type: "xavier"
      std: 0.1
    }
    bias_filler {
      type: "constant"
      value: 0.2
    }
  }
}
layer {
  name: "inception_4d/relu_pool_proj"
  type: "ReLU"
  bottom: "inception_4d/pool_proj"
  top: "inception_4d/pool_proj"
}
layer {
  name: "inception_4d/output"
  type: "Concat"
  bottom: "inception_4d/1x1"
  bottom: "inception_4d/3x3"
  bottom: "inception_4d/5x5"
  bottom: "inception_4d/pool_proj"
  top: "inception_4d/output"
}
layer {
  name: "loss2/ave_pool"
  type: "Pooling"
  bottom: "inception_4d/output"
  top: "loss2/ave_pool"
  pooling_param {
    pool: AVE
    kernel_size: 5
    stride: 3
  }
}
layer {
  name: "loss2/conv"
  type: "Convolution"
  bottom: "loss2/ave_pool"
  top: "loss2/conv"
  param {
    lr_mult: 1
    decay_mult: 1
  }
  param {
    lr_mult: 2
    decay_mult: 0
  }
  convolution_param {
    num_output: 128
    kernel_size: 1
    weight_filler {
      type: "xavier"
      std: 0.08
    }
    bias_filler {
      type: "constant"
      value: 0.2
    }
  }
}
layer {
  name: "loss2/relu_conv"
  type: "ReLU"
  bottom: "loss2/conv"
  top: "loss2/conv"
}
layer {
  name: "loss2/fc"
  type: "InnerProduct"
  bottom: "loss2/conv"
  top: "loss2/fc"
  param {
    lr_mult: 1
    decay_mult: 1
  }
  param {
    lr_mult: 2
    decay_mult: 0
  }
  inner_product_param {
    num_output: 1024
    weight_filler {
      type: "xavier"
      std: 0.02
    }
    bias_filler {
      type: "constant"
      value: 0.2
    }
  }
}
layer {
  name: "loss2/relu_fc"
  type: "ReLU"
  bottom: "loss2/fc"
  top: "loss2/fc"
}
layer {
  name: "loss2/drop_fc"
  type: "Dropout"
  bottom: "loss2/fc"
  top: "loss2/fc"
  dropout_param {
    dropout_ratio: 0.7
  }
}
layer {
  name: "loss2/classifier_plantvillage"
  type: "InnerProduct"
  bottom: "loss2/fc"
  top: "loss2/classifier_plantvillage"
  param {
    lr_mult: 1
    decay_mult: 1
  }
  param {
    lr_mult: 2
    decay_mult: 0
  }
  inner_product_param {
    num_output: 38
    weight_filler {
      type: "xavier"
      std: 0.0009765625
    }
    bias_filler {
      type: "constant"
      value: 0
    }
  }
}
layer {
  name: "inception_4e/1x1"
  type: "Convolution"
  bottom: "inception_4d/output"
  top: "inception_4e/1x1"
  param {
    lr_mult: 1
    decay_mult: 1
  }
  param {
    lr_mult: 2
    decay_mult: 0
  }
  convolution_param {
    num_output: 256
    kernel_size: 1
    weight_filler {
      type: "xavier"
      std: 0.03
    }
    bias_filler {
      type: "constant"
      value: 0.2
    }
  }
}
layer {
  name: "inception_4e/relu_1x1"
  type: "ReLU"
  bottom: "inception_4e/1x1"
  top: "inception_4e/1x1"
}
layer {
  name: "inception_4e/3x3_reduce"
  type: "Convolution"
  bottom: "inception_4d/output"
  top: "inception_4e/3x3_reduce"
  param {
    lr_mult: 1
    decay_mult: 1
  }
  param {
    lr_mult: 2
    decay_mult: 0
  }
  convolution_param {
    num_output: 160
    kernel_size: 1
    weight_filler {
      type: "xavier"
      std: 0.09
    }
    bias_filler {
      type: "constant"
      value: 0.2
    }
  }
}
layer {
  name: "inception_4e/relu_3x3_reduce"
  type: "ReLU"
  bottom: "inception_4e/3x3_reduce"
  top: "inception_4e/3x3_reduce"
}
layer {
  name: "inception_4e/3x3"
  type: "Convolution"
  bottom: "inception_4e/3x3_reduce"
  top: "inception_4e/3x3"
  param {
    lr_mult: 1
    decay_mult: 1
  }
  param {
    lr_mult: 2
    decay_mult: 0
  }
  convolution_param {
    num_output: 320
    pad: 1
    kernel_size: 3
    weight_filler {
      type: "xavier"
      std: 0.03
    }
    bias_filler {
      type: "constant"
      value: 0.2
    }
  }
}
layer {
  name: "inception_4e/relu_3x3"
  type: "ReLU"
  bottom: "inception_4e/3x3"
  top: "inception_4e/3x3"
}
layer {
  name: "inception_4e/5x5_reduce"
  type: "Convolution"
  bottom: "inception_4d/output"
  top: "inception_4e/5x5_reduce"
  param {
    lr_mult: 1
    decay_mult: 1
  }
  param {
    lr_mult: 2
    decay_mult: 0
  }
  convolution_param {
    num_output: 32
    kernel_size: 1
    weight_filler {
      type: "xavier"
      std: 0.2
    }
    bias_filler {
      type: "constant"
      value: 0.2
    }
  }
}
layer {
  name: "inception_4e/relu_5x5_reduce"
  type: "ReLU"
  bottom: "inception_4e/5x5_reduce"
  top: "inception_4e/5x5_reduce"
}
layer {
  name: "inception_4e/5x5"
  type: "Convolution"
  bottom: "inception_4e/5x5_reduce"
  top: "inception_4e/
I0403 15:01:30.516741  2562 layer_factory.hpp:77] Creating layer data
I0403 15:01:30.517375  2562 net.cpp:91] Creating Layer data
I0403 15:01:30.517407  2562 net.cpp:399] data -> data
I0403 15:01:30.517459  2562 net.cpp:399] data -> label
I0403 15:01:30.517496  2562 data_transformer.cpp:25] Loading mean file from: /home/mohanty/data/final_dataset/lmdb/segmented-60-40/mean.binaryproto
I0403 15:01:30.543298  2565 db_lmdb.cpp:38] Opened lmdb /home/mohanty/data/final_dataset/lmdb/segmented-60-40/test_db
I0403 15:01:30.552072  2562 data_layer.cpp:41] output data size: 24,3,224,224
I0403 15:01:30.581153  2562 net.cpp:141] Setting up data
I0403 15:01:30.581249  2562 net.cpp:148] Top shape: 24 3 224 224 (3612672)
I0403 15:01:30.581274  2562 net.cpp:148] Top shape: 24 (24)
I0403 15:01:30.581289  2562 net.cpp:156] Memory required for data: 14450784
I0403 15:01:30.581316  2562 layer_factory.hpp:77] Creating layer label_data_1_split
I0403 15:01:30.581344  2562 net.cpp:91] Creating Layer label_data_1_split
I0403 15:01:30.581362  2562 net.cpp:425] label_data_1_split <- label
I0403 15:01:30.581394  2562 net.cpp:399] label_data_1_split -> label_data_1_split_0
I0403 15:01:30.581423  2562 net.cpp:399] label_data_1_split -> label_data_1_split_1
I0403 15:01:30.581444  2562 net.cpp:399] label_data_1_split -> label_data_1_split_2
I0403 15:01:30.581466  2562 net.cpp:399] label_data_1_split -> label_data_1_split_3
I0403 15:01:30.581486  2562 net.cpp:399] label_data_1_split -> label_data_1_split_4
I0403 15:01:30.581507  2562 net.cpp:399] label_data_1_split -> label_data_1_split_5
I0403 15:01:30.581527  2562 net.cpp:399] label_data_1_split -> label_data_1_split_6
I0403 15:01:30.581547  2562 net.cpp:399] label_data_1_split -> label_data_1_split_7
I0403 15:01:30.581568  2562 net.cpp:399] label_data_1_split -> label_data_1_split_8
I0403 15:01:30.581589  2562 net.cpp:399] label_data_1_split -> label_data_1_split_9
I0403 15:01:30.581712  2562 net.cpp:141] Setting up label_data_1_split
I0403 15:01:30.581735  2562 net.cpp:148] Top shape: 24 (24)
I0403 15:01:30.581753  2562 net.cpp:148] Top shape: 24 (24)
I0403 15:01:30.581769  2562 net.cpp:148] Top shape: 24 (24)
I0403 15:01:30.581785  2562 net.cpp:148] Top shape: 24 (24)
I0403 15:01:30.581801  2562 net.cpp:148] Top shape: 24 (24)
I0403 15:01:30.581817  2562 net.cpp:148] Top shape: 24 (24)
I0403 15:01:30.581833  2562 net.cpp:148] Top shape: 24 (24)
I0403 15:01:30.581851  2562 net.cpp:148] Top shape: 24 (24)
I0403 15:01:30.581866  2562 net.cpp:148] Top shape: 24 (24)
I0403 15:01:30.581882  2562 net.cpp:148] Top shape: 24 (24)
I0403 15:01:30.581928  2562 net.cpp:156] Memory required for data: 14451744
I0403 15:01:30.581944  2562 layer_factory.hpp:77] Creating layer conv1/7x7_s2
I0403 15:01:30.581976  2562 net.cpp:91] Creating Layer conv1/7x7_s2
I0403 15:01:30.581995  2562 net.cpp:425] conv1/7x7_s2 <- data
I0403 15:01:30.582015  2562 net.cpp:399] conv1/7x7_s2 -> conv1/7x7_s2
I0403 15:01:30.726513  2562 net.cpp:141] Setting up conv1/7x7_s2
I0403 15:01:30.726616  2562 net.cpp:148] Top shape: 24 64 112 112 (19267584)
I0403 15:01:30.726634  2562 net.cpp:156] Memory required for data: 91522080
I0403 15:01:30.726675  2562 layer_factory.hpp:77] Creating layer conv1/relu_7x7
I0403 15:01:30.726701  2562 net.cpp:91] Creating Layer conv1/relu_7x7
I0403 15:01:30.726718  2562 net.cpp:425] conv1/relu_7x7 <- conv1/7x7_s2
I0403 15:01:30.726737  2562 net.cpp:386] conv1/relu_7x7 -> conv1/7x7_s2 (in-place)
I0403 15:01:30.726999  2562 net.cpp:141] Setting up conv1/relu_7x7
I0403 15:01:30.727025  2562 net.cpp:148] Top shape: 24 64 112 112 (19267584)
I0403 15:01:30.727042  2562 net.cpp:156] Memory required for data: 168592416
I0403 15:01:30.727057  2562 layer_factory.hpp:77] Creating layer pool1/3x3_s2
I0403 15:01:30.727082  2562 net.cpp:91] Creating Layer pool1/3x3_s2
I0403 15:01:30.727100  2562 net.cpp:425] pool1/3x3_s2 <- conv1/7x7_s2
I0403 15:01:30.727119  2562 net.cpp:399] pool1/3x3_s2 -> pool1/3x3_s2
I0403 15:01:30.727203  2562 net.cpp:141] Setting up pool1/3x3_s2
I0403 15:01:30.727228  2562 net.cpp:148] Top shape: 24 64 56 56 (4816896)
I0403 15:01:30.727243  2562 net.cpp:156] Memory required for data: 187860000
I0403 15:01:30.727270  2562 layer_factory.hpp:77] Creating layer pool1/norm1
I0403 15:01:30.727296  2562 net.cpp:91] Creating Layer pool1/norm1
I0403 15:01:30.727315  2562 net.cpp:425] pool1/norm1 <- pool1/3x3_s2
I0403 15:01:30.727334  2562 net.cpp:399] pool1/norm1 -> pool1/norm1
I0403 15:01:30.727640  2562 net.cpp:141] Setting up pool1/norm1
I0403 15:01:30.727668  2562 net.cpp:148] Top shape: 24 64 56 56 (4816896)
I0403 15:01:30.727684  2562 net.cpp:156] Memory required for data: 207127584
I0403 15:01:30.727699  2562 layer_factory.hpp:77] Creating layer conv2/3x3_reduce
I0403 15:01:30.727722  2562 net.cpp:91] Creating Layer conv2/3x3_reduce
I0403 15:01:30.727740  2562 net.cpp:425] conv2/3x3_reduce <- pool1/norm1
I0403 15:01:30.727758  2562 net.cpp:399] conv2/3x3_reduce -> conv2/3x3_reduce
I0403 15:01:30.729306  2562 net.cpp:141] Setting up conv2/3x3_reduce
I0403 15:01:30.729337  2562 net.cpp:148] Top shape: 24 64 56 56 (4816896)
I0403 15:01:30.729354  2562 net.cpp:156] Memory required for data: 226395168
I0403 15:01:30.729380  2562 layer_factory.hpp:77] Creating layer conv2/relu_3x3_reduce
I0403 15:01:30.729401  2562 net.cpp:91] Creating Layer conv2/relu_3x3_reduce
I0403 15:01:30.729418  2562 net.cpp:425] conv2/relu_3x3_reduce <- conv2/3x3_reduce
I0403 15:01:30.729434  2562 net.cpp:386] conv2/relu_3x3_reduce -> conv2/3x3_reduce (in-place)
I0403 15:01:30.729725  2562 net.cpp:141] Setting up conv2/relu_3x3_reduce
I0403 15:01:30.729753  2562 net.cpp:148] Top shape: 24 64 56 56 (4816896)
I0403 15:01:30.729768  2562 net.cpp:156] Memory required for data: 245662752
I0403 15:01:30.729782  2562 layer_factory.hpp:77] Creating layer conv2/3x3
I0403 15:01:30.729806  2562 net.cpp:91] Creating Layer conv2/3x3
I0403 15:01:30.729825  2562 net.cpp:425] conv2/3x3 <- conv2/3x3_reduce
I0403 15:01:30.729845  2562 net.cpp:399] conv2/3x3 -> conv2/3x3
I0403 15:01:30.733356  2562 net.cpp:141] Setting up conv2/3x3
I0403 15:01:30.733387  2562 net.cpp:148] Top shape: 24 192 56 56 (14450688)
I0403 15:01:30.733403  2562 net.cpp:156] Memory required for data: 303465504
I0403 15:01:30.733427  2562 layer_factory.hpp:77] Creating layer conv2/relu_3x3
I0403 15:01:30.733445  2562 net.cpp:91] Creating Layer conv2/relu_3x3
I0403 15:01:30.733460  2562 net.cpp:425] conv2/relu_3x3 <- conv2/3x3
I0403 15:01:30.733477  2562 net.cpp:386] conv2/relu_3x3 -> conv2/3x3 (in-place)
I0403 15:01:30.733652  2562 net.cpp:141] Setting up conv2/relu_3x3
I0403 15:01:30.733680  2562 net.cpp:148] Top shape: 24 192 56 56 (14450688)
I0403 15:01:30.733722  2562 net.cpp:156] Memory required for data: 361268256
I0403 15:01:30.733738  2562 layer_factory.hpp:77] Creating layer conv2/norm2
I0403 15:01:30.733759  2562 net.cpp:91] Creating Layer conv2/norm2
I0403 15:01:30.733775  2562 net.cpp:425] conv2/norm2 <- conv2/3x3
I0403 15:01:30.733793  2562 net.cpp:399] conv2/norm2 -> conv2/norm2
I0403 15:01:30.734087  2562 net.cpp:141] Setting up conv2/norm2
I0403 15:01:30.734113  2562 net.cpp:148] Top shape: 24 192 56 56 (14450688)
I0403 15:01:30.734129  2562 net.cpp:156] Memory required for data: 419071008
I0403 15:01:30.734143  2562 layer_factory.hpp:77] Creating layer pool2/3x3_s2
I0403 15:01:30.734163  2562 net.cpp:91] Creating Layer pool2/3x3_s2
I0403 15:01:30.734185  2562 net.cpp:425] pool2/3x3_s2 <- conv2/norm2
I0403 15:01:30.734205  2562 net.cpp:399] pool2/3x3_s2 -> pool2/3x3_s2
I0403 15:01:30.734257  2562 net.cpp:141] Setting up pool2/3x3_s2
I0403 15:01:30.734279  2562 net.cpp:148] Top shape: 24 192 28 28 (3612672)
I0403 15:01:30.734293  2562 net.cpp:156] Memory required for data: 433521696
I0403 15:01:30.734308  2562 layer_factory.hpp:77] Creating layer pool2/3x3_s2_pool2/3x3_s2_0_split
I0403 15:01:30.734324  2562 net.cpp:91] Creating Layer pool2/3x3_s2_pool2/3x3_s2_0_split
I0403 15:01:30.734339  2562 net.cpp:425] pool2/3x3_s2_pool2/3x3_s2_0_split <- pool2/3x3_s2
I0403 15:01:30.734359  2562 net.cpp:399] pool2/3x3_s2_pool2/3x3_s2_0_split -> pool2/3x3_s2_pool2/3x3_s2_0_split_0
I0403 15:01:30.734380  2562 net.cpp:399] pool2/3x3_s2_pool2/3x3_s2_0_split -> pool2/3x3_s2_pool2/3x3_s2_0_split_1
I0403 15:01:30.734400  2562 net.cpp:399] pool2/3x3_s2_pool2/3x3_s2_0_split -> pool2/3x3_s2_pool2/3x3_s2_0_split_2
I0403 15:01:30.734418  2562 net.cpp:399] pool2/3x3_s2_pool2/3x3_s2_0_split -> pool2/3x3_s2_pool2/3x3_s2_0_split_3
I0403 15:01:30.734488  2562 net.cpp:141] Setting up pool2/3x3_s2_pool2/3x3_s2_0_split
I0403 15:01:30.734509  2562 net.cpp:148] Top shape: 24 192 28 28 (3612672)
I0403 15:01:30.734525  2562 net.cpp:148] Top shape: 24 192 28 28 (3612672)
I0403 15:01:30.734541  2562 net.cpp:148] Top shape: 24 192 28 28 (3612672)
I0403 15:01:30.734555  2562 net.cpp:148] Top shape: 24 192 28 28 (3612672)
I0403 15:01:30.734570  2562 net.cpp:156] Memory required for data: 491324448
I0403 15:01:30.734583  2562 layer_factory.hpp:77] Creating layer inception_3a/1x1
I0403 15:01:30.734606  2562 net.cpp:91] Creating Layer inception_3a/1x1
I0403 15:01:30.734622  2562 net.cpp:425] inception_3a/1x1 <- pool2/3x3_s2_pool2/3x3_s2_0_split_0
I0403 15:01:30.734640  2562 net.cpp:399] inception_3a/1x1 -> inception_3a/1x1
I0403 15:01:30.736186  2562 net.cpp:141] Setting up inception_3a/1x1
I0403 15:01:30.736217  2562 net.cpp:148] Top shape: 24 64 28 28 (1204224)
I0403 15:01:30.736232  2562 net.cpp:156] Memory required for data: 496141344
I0403 15:01:30.736250  2562 layer_factory.hpp:77] Creating layer inception_3a/relu_1x1
I0403 15:01:30.736270  2562 net.cpp:91] Creating Layer inception_3a/relu_1x1
I0403 15:01:30.736287  2562 net.cpp:425] inception_3a/relu_1x1 <- inception_3a/1x1
I0403 15:01:30.736304  2562 net.cpp:386] inception_3a/relu_1x1 -> inception_3a/1x1 (in-place)
I0403 15:01:30.736474  2562 net.cpp:141] Setting up inception_3a/relu_1x1
I0403 15:01:30.736501  2562 net.cpp:148] Top shape: 24 64 28 28 (1204224)
I0403 15:01:30.736517  2562 net.cpp:156] Memory required for data: 500958240
I0403 15:01:30.736531  2562 layer_factory.hpp:77] Creating layer inception_3a/3x3_reduce
I0403 15:01:30.736553  2562 net.cpp:91] Creating Layer inception_3a/3x3_reduce
I0403 15:01:30.736570  2562 net.cpp:425] inception_3a/3x3_reduce <- pool2/3x3_s2_pool2/3x3_s2_0_split_1
I0403 15:01:30.736588  2562 net.cpp:399] inception_3a/3x3_reduce -> inception_3a/3x3_reduce
I0403 15:01:30.738247  2562 net.cpp:141] Setting up inception_3a/3x3_reduce
I0403 15:01:30.738276  2562 net.cpp:148] Top shape: 24 96 28 28 (1806336)
I0403 15:01:30.738292  2562 net.cpp:156] Memory required for data: 508183584
I0403 15:01:30.738328  2562 layer_factory.hpp:77] Creating layer inception_3a/relu_3x3_reduce
I0403 15:01:30.738364  2562 net.cpp:91] Creating Layer inception_3a/relu_3x3_reduce
I0403 15:01:30.738381  2562 net.cpp:425] inception_3a/relu_3x3_reduce <- inception_3a/3x3_reduce
I0403 15:01:30.738399  2562 net.cpp:386] inception_3a/relu_3x3_reduce -> inception_3a/3x3_reduce (in-place)
I0403 15:01:30.738589  2562 net.cpp:141] Setting up inception_3a/relu_3x3_reduce
I0403 15:01:30.738615  2562 net.cpp:148] Top shape: 24 96 28 28 (1806336)
I0403 15:01:30.738629  2562 net.cpp:156] Memory required for data: 515408928
I0403 15:01:30.738644  2562 layer_factory.hpp:77] Creating layer inception_3a/3x3
I0403 15:01:30.738668  2562 net.cpp:91] Creating Layer inception_3a/3x3
I0403 15:01:30.738687  2562 net.cpp:425] inception_3a/3x3 <- inception_3a/3x3_reduce
I0403 15:01:30.738708  2562 net.cpp:399] inception_3a/3x3 -> inception_3a/3x3
I0403 15:01:30.740406  2562 net.cpp:141] Setting up inception_3a/3x3
I0403 15:01:30.740437  2562 net.cpp:148] Top shape: 24 128 28 28 (2408448)
I0403 15:01:30.740453  2562 net.cpp:156] Memory required for data: 525042720
I0403 15:01:30.740483  2562 layer_factory.hpp:77] Creating layer inception_3a/relu_3x3
I0403 15:01:30.740504  2562 net.cpp:91] Creating Layer inception_3a/relu_3x3
I0403 15:01:30.740520  2562 net.cpp:425] inception_3a/relu_3x3 <- inception_3a/3x3
I0403 15:01:30.740538  2562 net.cpp:386] inception_3a/relu_3x3 -> inception_3a/3x3 (in-place)
I0403 15:01:30.740813  2562 net.cpp:141] Setting up inception_3a/relu_3x3
I0403 15:01:30.740839  2562 net.cpp:148] Top shape: 24 128 28 28 (2408448)
I0403 15:01:30.740855  2562 net.cpp:156] Memory required for data: 534676512
I0403 15:01:30.740870  2562 layer_factory.hpp:77] Creating layer inception_3a/5x5_reduce
I0403 15:01:30.740895  2562 net.cpp:91] Creating Layer inception_3a/5x5_reduce
I0403 15:01:30.740912  2562 net.cpp:425] inception_3a/5x5_reduce <- pool2/3x3_s2_pool2/3x3_s2_0_split_2
I0403 15:01:30.740931  2562 net.cpp:399] inception_3a/5x5_reduce -> inception_3a/5x5_reduce
I0403 15:01:30.741904  2562 net.cpp:141] Setting up inception_3a/5x5_reduce
I0403 15:01:30.741935  2562 net.cpp:148] Top shape: 24 16 28 28 (301056)
I0403 15:01:30.741951  2562 net.cpp:156] Memory required for data: 535880736
I0403 15:01:30.741971  2562 layer_factory.hpp:77] Creating layer inception_3a/relu_5x5_reduce
I0403 15:01:30.741989  2562 net.cpp:91] Creating Layer inception_3a/relu_5x5_reduce
I0403 15:01:30.742005  2562 net.cpp:425] inception_3a/relu_5x5_reduce <- inception_3a/5x5_reduce
I0403 15:01:30.742025  2562 net.cpp:386] inception_3a/relu_5x5_reduce -> inception_3a/5x5_reduce (in-place)
I0403 15:01:30.742342  2562 net.cpp:141] Setting up inception_3a/relu_5x5_reduce
I0403 15:01:30.742372  2562 net.cpp:148] Top shape: 24 16 28 28 (301056)
I0403 15:01:30.742388  2562 net.cpp:156] Memory required for data: 537084960
I0403 15:01:30.742403  2562 layer_factory.hpp:77] Creating layer inception_3a/5x5
I0403 15:01:30.742424  2562 net.cpp:91] Creating Layer inception_3a/5x5
I0403 15:01:30.742442  2562 net.cpp:425] inception_3a/5x5 <- inception_3a/5x5_reduce
I0403 15:01:30.742463  2562 net.cpp:399] inception_3a/5x5 -> inception_3a/5x5
I0403 15:01:30.743489  2562 net.cpp:141] Setting up inception_3a/5x5
I0403 15:01:30.743517  2562 net.cpp:148] Top shape: 24 32 28 28 (602112)
I0403 15:01:30.743533  2562 net.cpp:156] Memory required for data: 539493408
I0403 15:01:30.743552  2562 layer_factory.hpp:77] Creating layer inception_3a/relu_5x5
I0403 15:01:30.743572  2562 net.cpp:91] Creating Layer inception_3a/relu_5x5
I0403 15:01:30.743589  2562 net.cpp:425] inception_3a/relu_5x5 <- inception_3a/5x5
I0403 15:01:30.743607  2562 net.cpp:386] inception_3a/relu_5x5 -> inception_3a/5x5 (in-place)
I0403 15:01:30.743783  2562 net.cpp:141] Setting up inception_3a/relu_5x5
I0403 15:01:30.743811  2562 net.cpp:148] Top shape: 24 32 28 28 (602112)
I0403 15:01:30.743826  2562 net.cpp:156] Memory required for data: 541901856
I0403 15:01:30.743841  2562 layer_factory.hpp:77] Creating layer inception_3a/pool
I0403 15:01:30.743860  2562 net.cpp:91] Creating Layer inception_3a/pool
I0403 15:01:30.743890  2562 net.cpp:425] inception_3a/pool <- pool2/3x3_s2_pool2/3x3_s2_0_split_3
I0403 15:01:30.743911  2562 net.cpp:399] inception_3a/pool -> inception_3a/pool
I0403 15:01:30.743969  2562 net.cpp:141] Setting up inception_3a/pool
I0403 15:01:30.743993  2562 net.cpp:148] Top shape: 24 192 28 28 (3612672)
I0403 15:01:30.744007  2562 net.cpp:156] Memory required for data: 556352544
I0403 15:01:30.744022  2562 layer_factory.hpp:77] Creating layer inception_3a/pool_proj
I0403 15:01:30.744045  2562 net.cpp:91] Creating Layer inception_3a/pool_proj
I0403 15:01:30.744065  2562 net.cpp:425] inception_3a/pool_proj <- inception_3a/pool
I0403 15:01:30.744084  2562 net.cpp:399] inception_3a/pool_proj -> inception_3a/pool_proj
I0403 15:01:30.745072  2562 net.cpp:141] Setting up inception_3a/pool_proj
I0403 15:01:30.745100  2562 net.cpp:148] Top shape: 24 32 28 28 (602112)
I0403 15:01:30.745116  2562 net.cpp:156] Memory required for data: 558760992
I0403 15:01:30.745141  2562 layer_factory.hpp:77] Creating layer inception_3a/relu_pool_proj
I0403 15:01:30.745160  2562 net.cpp:91] Creating Layer inception_3a/relu_pool_proj
I0403 15:01:30.745175  2562 net.cpp:425] inception_3a/relu_pool_proj <- inception_3a/pool_proj
I0403 15:01:30.745203  2562 net.cpp:386] inception_3a/relu_pool_proj -> inception_3a/pool_proj (in-place)
I0403 15:01:30.745484  2562 net.cpp:141] Setting up inception_3a/relu_pool_proj
I0403 15:01:30.745510  2562 net.cpp:148] Top shape: 24 32 28 28 (602112)
I0403 15:01:30.745525  2562 net.cpp:156] Memory required for data: 561169440
I0403 15:01:30.745540  2562 layer_factory.hpp:77] Creating layer inception_3a/output
I0403 15:01:30.745561  2562 net.cpp:91] Creating Layer inception_3a/output
I0403 15:01:30.745578  2562 net.cpp:425] inception_3a/output <- inception_3a/1x1
I0403 15:01:30.745594  2562 net.cpp:425] inception_3a/output <- inception_3a/3x3
I0403 15:01:30.745610  2562 net.cpp:425] inception_3a/output <- inception_3a/5x5
I0403 15:01:30.745626  2562 net.cpp:425] inception_3a/output <- inception_3a/pool_proj
I0403 15:01:30.745643  2562 net.cpp:399] inception_3a/output -> inception_3a/output
I0403 15:01:30.745692  2562 net.cpp:141] Setting up inception_3a/output
I0403 15:01:30.745714  2562 net.cpp:148] Top shape: 24 256 28 28 (4816896)
I0403 15:01:30.745729  2562 net.cpp:156] Memory required for data: 580437024
I0403 15:01:30.745744  2562 layer_factory.hpp:77] Creating layer inception_3a/output_inception_3a/output_0_split
I0403 15:01:30.745760  2562 net.cpp:91] Creating Layer inception_3a/output_inception_3a/output_0_split
I0403 15:01:30.745776  2562 net.cpp:425] inception_3a/output_inception_3a/output_0_split <- inception_3a/output
I0403 15:01:30.745796  2562 net.cpp:399] inception_3a/output_inception_3a/output_0_split -> inception_3a/output_inception_3a/output_0_split_0
I0403 15:01:30.745817  2562 net.cpp:399] inception_3a/output_inception_3a/output_0_split -> inception_3a/output_inception_3a/output_0_split_1
I0403 15:01:30.745842  2562 net.cpp:399] inception_3a/output_inception_3a/output_0_split -> inception_3a/output_inception_3a/output_0_split_2
I0403 15:01:30.745864  2562 net.cpp:399] inception_3a/output_inception_3a/output_0_split -> inception_3a/output_inception_3a/output_0_split_3
I0403 15:01:30.745937  2562 net.cpp:141] Setting up inception_3a/output_inception_3a/output_0_split
I0403 15:01:30.745960  2562 net.cpp:148] Top shape: 24 256 28 28 (4816896)
I0403 15:01:30.745980  2562 net.cpp:148] Top shape: 24 256 28 28 (4816896)
I0403 15:01:30.745995  2562 net.cpp:148] Top shape: 24 256 28 28 (4816896)
I0403 15:01:30.746011  2562 net.cpp:148] Top shape: 24 256 28 28 (4816896)
I0403 15:01:30.746026  2562 net.cpp:156] Memory required for data: 657507360
I0403 15:01:30.746039  2562 layer_factory.hpp:77] Creating layer inception_3b/1x1
I0403 15:01:30.746059  2562 net.cpp:91] Creating Layer inception_3b/1x1
I0403 15:01:30.746075  2562 net.cpp:425] inception_3b/1x1 <- inception_3a/output_inception_3a/output_0_split_0
I0403 15:01:30.746096  2562 net.cpp:399] inception_3b/1x1 -> inception_3b/1x1
I0403 15:01:30.747265  2562 net.cpp:141] Setting up inception_3b/1x1
I0403 15:01:30.747305  2562 net.cpp:148] Top shape: 24 128 28 28 (2408448)
I0403 15:01:30.747321  2562 net.cpp:156] Memory required for data: 667141152
I0403 15:01:30.747339  2562 layer_factory.hpp:77] Creating layer inception_3b/relu_1x1
I0403 15:01:30.747360  2562 net.cpp:91] Creating Layer inception_3b/relu_1x1
I0403 15:01:30.747376  2562 net.cpp:425] inception_3b/relu_1x1 <- inception_3b/1x1
I0403 15:01:30.747395  2562 net.cpp:386] inception_3b/relu_1x1 -> inception_3b/1x1 (in-place)
I0403 15:01:30.747575  2562 net.cpp:141] Setting up inception_3b/relu_1x1
I0403 15:01:30.747599  2562 net.cpp:148] Top shape: 24 128 28 28 (2408448)
I0403 15:01:30.747614  2562 net.cpp:156] Memory required for data: 676774944
I0403 15:01:30.747629  2562 layer_factory.hpp:77] Creating layer inception_3b/3x3_reduce
I0403 15:01:30.747653  2562 net.cpp:91] Creating Layer inception_3b/3x3_reduce
I0403 15:01:30.747669  2562 net.cpp:425] inception_3b/3x3_reduce <- inception_3a/output_inception_3a/output_0_split_1
I0403 15:01:30.747689  2562 net.cpp:399] inception_3b/3x3_reduce -> inception_3b/3x3_reduce
I0403 15:01:30.748844  2562 net.cpp:141] Setting up inception_3b/3x3_reduce
I0403 15:01:30.748872  2562 net.cpp:148] Top shape: 24 128 28 28 (2408448)
I0403 15:01:30.748889  2562 net.cpp:156] Memory required for data: 686408736
I0403 15:01:30.748908  2562 layer_factory.hpp:77] Creating layer inception_3b/relu_3x3_reduce
I0403 15:01:30.748929  2562 net.cpp:91] Creating Layer inception_3b/relu_3x3_reduce
I0403 15:01:30.748945  2562 net.cpp:425] inception_3b/relu_3x3_reduce <- inception_3b/3x3_reduce
I0403 15:01:30.748965  2562 net.cpp:386] inception_3b/relu_3x3_reduce -> inception_3b/3x3_reduce (in-place)
I0403 15:01:30.749138  2562 net.cpp:141] Setting up inception_3b/relu_3x3_reduce
I0403 15:01:30.749166  2562 net.cpp:148] Top shape: 24 128 28 28 (2408448)
I0403 15:01:30.749188  2562 net.cpp:156] Memory required for data: 696042528
I0403 15:01:30.749204  2562 layer_factory.hpp:77] Creating layer inception_3b/3x3
I0403 15:01:30.749230  2562 net.cpp:91] Creating Layer inception_3b/3x3
I0403 15:01:30.749248  2562 net.cpp:425] inception_3b/3x3 <- inception_3b/3x3_reduce
I0403 15:01:30.749270  2562 net.cpp:399] inception_3b/3x3 -> inception_3b/3x3
I0403 15:01:30.752197  2562 net.cpp:141] Setting up inception_3b/3x3
I0403 15:01:30.752226  2562 net.cpp:148] Top shape: 24 192 28 28 (3612672)
I0403 15:01:30.752241  2562 net.cpp:156] Memory required for data: 710493216
I0403 15:01:30.752259  2562 layer_factory.hpp:77] Creating layer inception_3b/relu_3x3
I0403 15:01:30.752279  2562 net.cpp:91] Creating Layer inception_3b/relu_3x3
I0403 15:01:30.752295  2562 net.cpp:425] inception_3b/relu_3x3 <- inception_3b/3x3
I0403 15:01:30.752312  2562 net.cpp:386] inception_3b/relu_3x3 -> inception_3b/3x3 (in-place)
I0403 15:01:30.752583  2562 net.cpp:141] Setting up inception_3b/relu_3x3
I0403 15:01:30.752609  2562 net.cpp:148] Top shape: 24 192 28 28 (3612672)
I0403 15:01:30.752624  2562 net.cpp:156] Memory required for data: 724943904
I0403 15:01:30.752638  2562 layer_factory.hpp:77] Creating layer inception_3b/5x5_reduce
I0403 15:01:30.752662  2562 net.cpp:91] Creating Layer inception_3b/5x5_reduce
I0403 15:01:30.752681  2562 net.cpp:425] inception_3b/5x5_reduce <- inception_3a/output_inception_3a/output_0_split_2
I0403 15:01:30.752699  2562 net.cpp:399] inception_3b/5x5_reduce -> inception_3b/5x5_reduce
I0403 15:01:30.753679  2562 net.cpp:141] Setting up inception_3b/5x5_reduce
I0403 15:01:30.753706  2562 net.cpp:148] Top shape: 24 32 28 28 (602112)
I0403 15:01:30.753721  2562 net.cpp:156] Memory required for data: 727352352
I0403 15:01:30.753738  2562 layer_factory.hpp:77] Creating layer inception_3b/relu_5x5_reduce
I0403 15:01:30.753762  2562 net.cpp:91] Creating Layer inception_3b/relu_5x5_reduce
I0403 15:01:30.753777  2562 net.cpp:425] inception_3b/relu_5x5_reduce <- inception_3b/5x5_reduce
I0403 15:01:30.753795  2562 net.cpp:386] inception_3b/relu_5x5_reduce -> inception_3b/5x5_reduce (in-place)
I0403 15:01:30.753983  2562 net.cpp:141] Setting up inception_3b/relu_5x5_reduce
I0403 15:01:30.754009  2562 net.cpp:148] Top shape: 24 32 28 28 (602112)
I0403 15:01:30.754024  2562 net.cpp:156] Memory required for data: 729760800
I0403 15:01:30.754039  2562 layer_factory.hpp:77] Creating layer inception_3b/5x5
I0403 15:01:30.754060  2562 net.cpp:91] Creating Layer inception_3b/5x5
I0403 15:01:30.754077  2562 net.cpp:425] inception_3b/5x5 <- inception_3b/5x5_reduce
I0403 15:01:30.754099  2562 net.cpp:399] inception_3b/5x5 -> inception_3b/5x5
I0403 15:01:30.756081  2562 net.cpp:141] Setting up inception_3b/5x5
I0403 15:01:30.756110  2562 net.cpp:148] Top shape: 24 96 28 28 (1806336)
I0403 15:01:30.756126  2562 net.cpp:156] Memory required for data: 736986144
I0403 15:01:30.756145  2562 layer_factory.hpp:77] Creating layer inception_3b/relu_5x5
I0403 15:01:30.756163  2562 net.cpp:91] Creating Layer inception_3b/relu_5x5
I0403 15:01:30.756186  2562 net.cpp:425] inception_3b/relu_5x5 <- inception_3b/5x5
I0403 15:01:30.756204  2562 net.cpp:386] inception_3b/relu_5x5 -> inception_3b/5x5 (in-place)
I0403 15:01:30.756398  2562 net.cpp:141] Setting up inception_3b/relu_5x5
I0403 15:01:30.756423  2562 net.cpp:148] Top shape: 24 96 28 28 (1806336)
I0403 15:01:30.756438  2562 net.cpp:156] Memory required for data: 744211488
I0403 15:01:30.756453  2562 layer_factory.hpp:77] Creating layer inception_3b/pool
I0403 15:01:30.756470  2562 net.cpp:91] Creating Layer inception_3b/pool
I0403 15:01:30.756486  2562 net.cpp:425] inception_3b/pool <- inception_3a/output_inception_3a/output_0_split_3
I0403 15:01:30.756505  2562 net.cpp:399] inception_3b/pool -> inception_3b/pool
I0403 15:01:30.756559  2562 net.cpp:141] Setting up inception_3b/pool
I0403 15:01:30.756582  2562 net.cpp:148] Top shape: 24 256 28 28 (4816896)
I0403 15:01:30.756595  2562 net.cpp:156] Memory required for data: 763479072
I0403 15:01:30.756609  2562 layer_factory.hpp:77] Creating layer inception_3b/pool_proj
I0403 15:01:30.756630  2562 net.cpp:91] Creating Layer inception_3b/pool_proj
I0403 15:01:30.756649  2562 net.cpp:425] inception_3b/pool_proj <- inception_3b/pool
I0403 15:01:30.756669  2562 net.cpp:399] inception_3b/pool_proj -> inception_3b/pool_proj
I0403 15:01:30.757756  2562 net.cpp:141] Setting up inception_3b/pool_proj
I0403 15:01:30.757784  2562 net.cpp:148] Top shape: 24 64 28 28 (1204224)
I0403 15:01:30.757799  2562 net.cpp:156] Memory required for data: 768295968
I0403 15:01:30.757818  2562 layer_factory.hpp:77] Creating layer inception_3b/relu_pool_proj
I0403 15:01:30.757836  2562 net.cpp:91] Creating Layer inception_3b/relu_pool_proj
I0403 15:01:30.757853  2562 net.cpp:425] inception_3b/relu_pool_proj <- inception_3b/pool_proj
I0403 15:01:30.757872  2562 net.cpp:386] inception_3b/relu_pool_proj -> inception_3b/pool_proj (in-place)
I0403 15:01:30.758285  2562 net.cpp:141] Setting up inception_3b/relu_pool_proj
I0403 15:01:30.758313  2562 net.cpp:148] Top shape: 24 64 28 28 (1204224)
I0403 15:01:30.758329  2562 net.cpp:156] Memory required for data: 773112864
I0403 15:01:30.758344  2562 layer_factory.hpp:77] Creating layer inception_3b/output
I0403 15:01:30.758363  2562 net.cpp:91] Creating Layer inception_3b/output
I0403 15:01:30.758378  2562 net.cpp:425] inception_3b/output <- inception_3b/1x1
I0403 15:01:30.758395  2562 net.cpp:425] inception_3b/output <- inception_3b/3x3
I0403 15:01:30.758411  2562 net.cpp:425] inception_3b/output <- inception_3b/5x5
I0403 15:01:30.758426  2562 net.cpp:425] inception_3b/output <- inception_3b/pool_proj
I0403 15:01:30.758446  2562 net.cpp:399] inception_3b/output -> inception_3b/output
I0403 15:01:30.758491  2562 net.cpp:141] Setting up inception_3b/output
I0403 15:01:30.758513  2562 net.cpp:148] Top shape: 24 480 28 28 (9031680)
I0403 15:01:30.758528  2562 net.cpp:156] Memory required for data: 809239584
I0403 15:01:30.758543  2562 layer_factory.hpp:77] Creating layer pool3/3x3_s2
I0403 15:01:30.758563  2562 net.cpp:91] Creating Layer pool3/3x3_s2
I0403 15:01:30.758580  2562 net.cpp:425] pool3/3x3_s2 <- inception_3b/output
I0403 15:01:30.758613  2562 net.cpp:399] pool3/3x3_s2 -> pool3/3x3_s2
I0403 15:01:30.758674  2562 net.cpp:141] Setting up pool3/3x3_s2
I0403 15:01:30.758698  2562 net.cpp:148] Top shape: 24 480 14 14 (2257920)
I0403 15:01:30.758713  2562 net.cpp:156] Memory required for data: 818271264
I0403 15:01:30.758728  2562 layer_factory.hpp:77] Creating layer pool3/3x3_s2_pool3/3x3_s2_0_split
I0403 15:01:30.758744  2562 net.cpp:91] Creating Layer pool3/3x3_s2_pool3/3x3_s2_0_split
I0403 15:01:30.758829  2562 net.cpp:425] pool3/3x3_s2_pool3/3x3_s2_0_split <- pool3/3x3_s2
I0403 15:01:30.758857  2562 net.cpp:399] pool3/3x3_s2_pool3/3x3_s2_0_split -> pool3/3x3_s2_pool3/3x3_s2_0_split_0
I0403 15:01:30.758878  2562 net.cpp:399] pool3/3x3_s2_pool3/3x3_s2_0_split -> pool3/3x3_s2_pool3/3x3_s2_0_split_1
I0403 15:01:30.758900  2562 net.cpp:399] pool3/3x3_s2_pool3/3x3_s2_0_split -> pool3/3x3_s2_pool3/3x3_s2_0_split_2
I0403 15:01:30.758919  2562 net.cpp:399] pool3/3x3_s2_pool3/3x3_s2_0_split -> pool3/3x3_s2_pool3/3x3_s2_0_split_3
I0403 15:01:30.758999  2562 net.cpp:141] Setting up pool3/3x3_s2_pool3/3x3_s2_0_split
I0403 15:01:30.759023  2562 net.cpp:148] Top shape: 24 480 14 14 (2257920)
I0403 15:01:30.759039  2562 net.cpp:148] Top shape: 24 480 14 14 (2257920)
I0403 15:01:30.759055  2562 net.cpp:148] Top shape: 24 480 14 14 (2257920)
I0403 15:01:30.759070  2562 net.cpp:148] Top shape: 24 480 14 14 (2257920)
I0403 15:01:30.759084  2562 net.cpp:156] Memory required for data: 854397984
I0403 15:01:30.759099  2562 layer_factory.hpp:77] Creating layer inception_4a/1x1
I0403 15:01:30.759124  2562 net.cpp:91] Creating Layer inception_4a/1x1
I0403 15:01:30.759140  2562 net.cpp:425] inception_4a/1x1 <- pool3/3x3_s2_pool3/3x3_s2_0_split_0
I0403 15:01:30.759162  2562 net.cpp:399] inception_4a/1x1 -> inception_4a/1x1
I0403 15:01:30.760782  2562 net.cpp:141] Setting up inception_4a/1x1
I0403 15:01:30.760810  2562 net.cpp:148] Top shape: 24 192 14 14 (903168)
I0403 15:01:30.760825  2562 net.cpp:156] Memory required for data: 858010656
I0403 15:01:30.760844  2562 layer_factory.hpp:77] Creating layer inception_4a/relu_1x1
I0403 15:01:30.760862  2562 net.cpp:91] Creating Layer inception_4a/relu_1x1
I0403 15:01:30.760879  2562 net.cpp:425] inception_4a/relu_1x1 <- inception_4a/1x1
I0403 15:01:30.760898  2562 net.cpp:386] inception_4a/relu_1x1 -> inception_4a/1x1 (in-place)
I0403 15:01:30.761078  2562 net.cpp:141] Setting up inception_4a/relu_1x1
I0403 15:01:30.761103  2562 net.cpp:148] Top shape: 24 192 14 14 (903168)
I0403 15:01:30.761119  2562 net.cpp:156] Memory required for data: 861623328
I0403 15:01:30.761134  2562 layer_factory.hpp:77] Creating layer inception_4a/3x3_reduce
I0403 15:01:30.761157  2562 net.cpp:91] Creating Layer inception_4a/3x3_reduce
I0403 15:01:30.761173  2562 net.cpp:425] inception_4a/3x3_reduce <- pool3/3x3_s2_pool3/3x3_s2_0_split_1
I0403 15:01:30.761204  2562 net.cpp:399] inception_4a/3x3_reduce -> inception_4a/3x3_reduce
I0403 15:01:30.762531  2562 net.cpp:141] Setting up inception_4a/3x3_reduce
I0403 15:01:30.762559  2562 net.cpp:148] Top shape: 24 96 14 14 (451584)
I0403 15:01:30.762575  2562 net.cpp:156] Memory required for data: 863429664
I0403 15:01:30.762600  2562 layer_factory.hpp:77] Creating layer inception_4a/relu_3x3_reduce
I0403 15:01:30.762620  2562 net.cpp:91] Creating Layer inception_4a/relu_3x3_reduce
I0403 15:01:30.762636  2562 net.cpp:425] inception_4a/relu_3x3_reduce <- inception_4a/3x3_reduce
I0403 15:01:30.762653  2562 net.cpp:386] inception_4a/relu_3x3_reduce -> inception_4a/3x3_reduce (in-place)
I0403 15:01:30.762833  2562 net.cpp:141] Setting up inception_4a/relu_3x3_reduce
I0403 15:01:30.762858  2562 net.cpp:148] Top shape: 24 96 14 14 (451584)
I0403 15:01:30.762873  2562 net.cpp:156] Memory required for data: 865236000
I0403 15:01:30.762887  2562 layer_factory.hpp:77] Creating layer inception_4a/3x3
I0403 15:01:30.762910  2562 net.cpp:91] Creating Layer inception_4a/3x3
I0403 15:01:30.762928  2562 net.cpp:425] inception_4a/3x3 <- inception_4a/3x3_reduce
I0403 15:01:30.762948  2562 net.cpp:399] inception_4a/3x3 -> inception_4a/3x3
I0403 15:01:30.765710  2562 net.cpp:141] Setting up inception_4a/3x3
I0403 15:01:30.765740  2562 net.cpp:148] Top shape: 24 208 14 14 (978432)
I0403 15:01:30.765756  2562 net.cpp:156] Memory required for data: 869149728
I0403 15:01:30.765775  2562 layer_factory.hpp:77] Creating layer inception_4a/relu_3x3
I0403 15:01:30.765796  2562 net.cpp:91] Creating Layer inception_4a/relu_3x3
I0403 15:01:30.765813  2562 net.cpp:425] inception_4a/relu_3x3 <- inception_4a/3x3
I0403 15:01:30.765831  2562 net.cpp:386] inception_4a/relu_3x3 -> inception_4a/3x3 (in-place)
I0403 15:01:30.766114  2562 net.cpp:141] Setting up inception_4a/relu_3x3
I0403 15:01:30.766140  2562 net.cpp:148] Top shape: 24 208 14 14 (978432)
I0403 15:01:30.766155  2562 net.cpp:156] Memory required for data: 873063456
I0403 15:01:30.766170  2562 layer_factory.hpp:77] Creating layer inception_4a/5x5_reduce
I0403 15:01:30.766202  2562 net.cpp:91] Creating Layer inception_4a/5x5_reduce
I0403 15:01:30.766222  2562 net.cpp:425] inception_4a/5x5_reduce <- pool3/3x3_s2_pool3/3x3_s2_0_split_2
I0403 15:01:30.766244  2562 net.cpp:399] inception_4a/5x5_reduce -> inception_4a/5x5_reduce
I0403 15:01:30.767288  2562 net.cpp:141] Setting up inception_4a/5x5_reduce
I0403 15:01:30.767316  2562 net.cpp:148] Top shape: 24 16 14 14 (75264)
I0403 15:01:30.767333  2562 net.cpp:156] Memory required for data: 873364512
I0403 15:01:30.767350  2562 layer_factory.hpp:77] Creating layer inception_4a/relu_5x5_reduce
I0403 15:01:30.767371  2562 net.cpp:91] Creating Layer inception_4a/relu_5x5_reduce
I0403 15:01:30.767388  2562 net.cpp:425] inception_4a/relu_5x5_reduce <- inception_4a/5x5_reduce
I0403 15:01:30.767406  2562 net.cpp:386] inception_4a/relu_5x5_reduce -> inception_4a/5x5_reduce (in-place)
I0403 15:01:30.767586  2562 net.cpp:141] Setting up inception_4a/relu_5x5_reduce
I0403 15:01:30.767614  2562 net.cpp:148] Top shape: 24 16 14 14 (75264)
I0403 15:01:30.767630  2562 net.cpp:156] Memory required for data: 873665568
I0403 15:01:30.767645  2562 layer_factory.hpp:77] Creating layer inception_4a/5x5
I0403 15:01:30.767670  2562 net.cpp:91] Creating Layer inception_4a/5x5
I0403 15:01:30.767688  2562 net.cpp:425] inception_4a/5x5 <- inception_4a/5x5_reduce
I0403 15:01:30.767709  2562 net.cpp:399] inception_4a/5x5 -> inception_4a/5x5
I0403 15:01:30.768821  2562 net.cpp:141] Setting up inception_4a/5x5
I0403 15:01:30.768851  2562 net.cpp:148] Top shape: 24 48 14 14 (225792)
I0403 15:01:30.768867  2562 net.cpp:156] Memory required for data: 874568736
I0403 15:01:30.768885  2562 layer_factory.hpp:77] Creating layer inception_4a/relu_5x5
I0403 15:01:30.768903  2562 net.cpp:91] Creating Layer inception_4a/relu_5x5
I0403 15:01:30.768919  2562 net.cpp:425] inception_4a/relu_5x5 <- inception_4a/5x5
I0403 15:01:30.768939  2562 net.cpp:386] inception_4a/relu_5x5 -> inception_4a/5x5 (in-place)
I0403 15:01:30.769119  2562 net.cpp:141] Setting up inception_4a/relu_5x5
I0403 15:01:30.769143  2562 net.cpp:148] Top shape: 24 48 14 14 (225792)
I0403 15:01:30.769158  2562 net.cpp:156] Memory required for data: 875471904
I0403 15:01:30.769173  2562 layer_factory.hpp:77] Creating layer inception_4a/pool
I0403 15:01:30.769198  2562 net.cpp:91] Creating Layer inception_4a/pool
I0403 15:01:30.769214  2562 net.cpp:425] inception_4a/pool <- pool3/3x3_s2_pool3/3x3_s2_0_split_3
I0403 15:01:30.769235  2562 net.cpp:399] inception_4a/pool -> inception_4a/pool
I0403 15:01:30.769297  2562 net.cpp:141] Setting up inception_4a/pool
I0403 15:01:30.769321  2562 net.cpp:148] Top shape: 24 480 14 14 (2257920)
I0403 15:01:30.769336  2562 net.cpp:156] Memory required for data: 884503584
I0403 15:01:30.769351  2562 layer_factory.hpp:77] Creating layer inception_4a/pool_proj
I0403 15:01:30.769374  2562 net.cpp:91] Creating Layer inception_4a/pool_proj
I0403 15:01:30.769392  2562 net.cpp:425] inception_4a/pool_proj <- inception_4a/pool
I0403 15:01:30.769410  2562 net.cpp:399] inception_4a/pool_proj -> inception_4a/pool_proj
I0403 15:01:30.770603  2562 net.cpp:141] Setting up inception_4a/pool_proj
I0403 15:01:30.770632  2562 net.cpp:148] Top shape: 24 64 14 14 (301056)
I0403 15:01:30.770663  2562 net.cpp:156] Memory required for data: 885707808
I0403 15:01:30.770684  2562 layer_factory.hpp:77] Creating layer inception_4a/relu_pool_proj
I0403 15:01:30.770701  2562 net.cpp:91] Creating Layer inception_4a/relu_pool_proj
I0403 15:01:30.770717  2562 net.cpp:425] inception_4a/relu_pool_proj <- inception_4a/pool_proj
I0403 15:01:30.770738  2562 net.cpp:386] inception_4a/relu_pool_proj -> inception_4a/pool_proj (in-place)
I0403 15:01:30.771026  2562 net.cpp:141] Setting up inception_4a/relu_pool_proj
I0403 15:01:30.771052  2562 net.cpp:148] Top shape: 24 64 14 14 (301056)
I0403 15:01:30.771067  2562 net.cpp:156] Memory required for data: 886912032
I0403 15:01:30.771082  2562 layer_factory.hpp:77] Creating layer inception_4a/output
I0403 15:01:30.771100  2562 net.cpp:91] Creating Layer inception_4a/output
I0403 15:01:30.771116  2562 net.cpp:425] inception_4a/output <- inception_4a/1x1
I0403 15:01:30.771131  2562 net.cpp:425] inception_4a/output <- inception_4a/3x3
I0403 15:01:30.771147  2562 net.cpp:425] inception_4a/output <- inception_4a/5x5
I0403 15:01:30.771163  2562 net.cpp:425] inception_4a/output <- inception_4a/pool_proj
I0403 15:01:30.771193  2562 net.cpp:399] inception_4a/output -> inception_4a/output
I0403 15:01:30.771241  2562 net.cpp:141] Setting up inception_4a/output
I0403 15:01:30.771265  2562 net.cpp:148] Top shape: 24 512 14 14 (2408448)
I0403 15:01:30.771278  2562 net.cpp:156] Memory required for data: 896545824
I0403 15:01:30.771292  2562 layer_factory.hpp:77] Creating layer inception_4a/output_inception_4a/output_0_split
I0403 15:01:30.771313  2562 net.cpp:91] Creating Layer inception_4a/output_inception_4a/output_0_split
I0403 15:01:30.771329  2562 net.cpp:425] inception_4a/output_inception_4a/output_0_split <- inception_4a/output
I0403 15:01:30.771349  2562 net.cpp:399] inception_4a/output_inception_4a/output_0_split -> inception_4a/output_inception_4a/output_0_split_0
I0403 15:01:30.771371  2562 net.cpp:399] inception_4a/output_inception_4a/output_0_split -> inception_4a/output_inception_4a/output_0_split_1
I0403 15:01:30.771391  2562 net.cpp:399] inception_4a/output_inception_4a/output_0_split -> inception_4a/output_inception_4a/output_0_split_2
I0403 15:01:30.771412  2562 net.cpp:399] inception_4a/output_inception_4a/output_0_split -> inception_4a/output_inception_4a/output_0_split_3
I0403 15:01:30.771432  2562 net.cpp:399] inception_4a/output_inception_4a/output_0_split -> inception_4a/output_inception_4a/output_0_split_4
I0403 15:01:30.771528  2562 net.cpp:141] Setting up inception_4a/output_inception_4a/output_0_split
I0403 15:01:30.771550  2562 net.cpp:148] Top shape: 24 512 14 14 (2408448)
I0403 15:01:30.771567  2562 net.cpp:148] Top shape: 24 512 14 14 (2408448)
I0403 15:01:30.771584  2562 net.cpp:148] Top shape: 24 512 14 14 (2408448)
I0403 15:01:30.771598  2562 net.cpp:148] Top shape: 24 512 14 14 (2408448)
I0403 15:01:30.771615  2562 net.cpp:148] Top shape: 24 512 14 14 (2408448)
I0403 15:01:30.771627  2562 net.cpp:156] Memory required for data: 944714784
I0403 15:01:30.771642  2562 layer_factory.hpp:77] Creating layer loss1/ave_pool
I0403 15:01:30.771662  2562 net.cpp:91] Creating Layer loss1/ave_pool
I0403 15:01:30.771679  2562 net.cpp:425] loss1/ave_pool <- inception_4a/output_inception_4a/output_0_split_0
I0403 15:01:30.771697  2562 net.cpp:399] loss1/ave_pool -> loss1/ave_pool
I0403 15:01:30.771908  2562 net.cpp:141] Setting up loss1/ave_pool
I0403 15:01:30.771934  2562 net.cpp:148] Top shape: 24 512 4 4 (196608)
I0403 15:01:30.771949  2562 net.cpp:156] Memory required for data: 945501216
I0403 15:01:30.771963  2562 layer_factory.hpp:77] Creating layer loss1/conv
I0403 15:01:30.771986  2562 net.cpp:91] Creating Layer loss1/conv
I0403 15:01:30.772003  2562 net.cpp:425] loss1/conv <- loss1/ave_pool
I0403 15:01:30.772024  2562 net.cpp:399] loss1/conv -> loss1/conv
I0403 15:01:30.773481  2562 net.cpp:141] Setting up loss1/conv
I0403 15:01:30.773509  2562 net.cpp:148] Top shape: 24 128 4 4 (49152)
I0403 15:01:30.773540  2562 net.cpp:156] Memory required for data: 945697824
I0403 15:01:30.773560  2562 layer_factory.hpp:77] Creating layer loss1/relu_conv
I0403 15:01:30.773581  2562 net.cpp:91] Creating Layer loss1/relu_conv
I0403 15:01:30.773597  2562 net.cpp:425] loss1/relu_conv <- loss1/conv
I0403 15:01:30.773614  2562 net.cpp:386] loss1/relu_conv -> loss1/conv (in-place)
I0403 15:01:30.773898  2562 net.cpp:141] Setting up loss1/relu_conv
I0403 15:01:30.773926  2562 net.cpp:148] Top shape: 24 128 4 4 (49152)
I0403 15:01:30.773941  2562 net.cpp:156] Memory required for data: 945894432
I0403 15:01:30.773957  2562 layer_factory.hpp:77] Creating layer loss1/fc
I0403 15:01:30.773983  2562 net.cpp:91] Creating Layer loss1/fc
I0403 15:01:30.774001  2562 net.cpp:425] loss1/fc <- loss1/conv
I0403 15:01:30.774019  2562 net.cpp:399] loss1/fc -> loss1/fc
I0403 15:01:30.791703  2562 net.cpp:141] Setting up loss1/fc
I0403 15:01:30.791760  2562 net.cpp:148] Top shape: 24 1024 (24576)
I0403 15:01:30.791775  2562 net.cpp:156] Memory required for data: 945992736
I0403 15:01:30.791793  2562 layer_factory.hpp:77] Creating layer loss1/relu_fc
I0403 15:01:30.791811  2562 net.cpp:91] Creating Layer loss1/relu_fc
I0403 15:01:30.791826  2562 net.cpp:425] loss1/relu_fc <- loss1/fc
I0403 15:01:30.791846  2562 net.cpp:386] loss1/relu_fc -> loss1/fc (in-place)
I0403 15:01:30.792031  2562 net.cpp:141] Setting up loss1/relu_fc
I0403 15:01:30.792054  2562 net.cpp:148] Top shape: 24 1024 (24576)
I0403 15:01:30.792069  2562 net.cpp:156] Memory required for data: 946091040
I0403 15:01:30.792083  2562 layer_factory.hpp:77] Creating layer loss1/drop_fc
I0403 15:01:30.792111  2562 net.cpp:91] Creating Layer loss1/drop_fc
I0403 15:01:30.792129  2562 net.cpp:425] loss1/drop_fc <- loss1/fc
I0403 15:01:30.792145  2562 net.cpp:386] loss1/drop_fc -> loss1/fc (in-place)
I0403 15:01:30.792206  2562 net.cpp:141] Setting up loss1/drop_fc
I0403 15:01:30.792232  2562 net.cpp:148] Top shape: 24 1024 (24576)
I0403 15:01:30.792246  2562 net.cpp:156] Memory required for data: 946189344
I0403 15:01:30.792260  2562 layer_factory.hpp:77] Creating layer loss1/classifier_plantvillage
I0403 15:01:30.792279  2562 net.cpp:91] Creating Layer loss1/classifier_plantvillage
I0403 15:01:30.792294  2562 net.cpp:425] loss1/classifier_plantvillage <- loss1/fc
I0403 15:01:30.792315  2562 net.cpp:399] loss1/classifier_plantvillage -> loss1/classifier_plantvillage
I0403 15:01:30.793218  2562 net.cpp:141] Setting up loss1/classifier_plantvillage
I0403 15:01:30.793246  2562 net.cpp:148] Top shape: 24 38 (912)
I0403 15:01:30.793261  2562 net.cpp:156] Memory required for data: 946192992
I0403 15:01:30.793277  2562 layer_factory.hpp:77] Creating layer loss1/classifier_plantvillage_loss1/classifier_plantvillage_0_split
I0403 15:01:30.793295  2562 net.cpp:91] Creating Layer loss1/classifier_plantvillage_loss1/classifier_plantvillage_0_split
I0403 15:01:30.793309  2562 net.cpp:425] loss1/classifier_plantvillage_loss1/classifier_plantvillage_0_split <- loss1/classifier_plantvillage
I0403 15:01:30.793329  2562 net.cpp:399] loss1/classifier_plantvillage_loss1/classifier_plantvillage_0_split -> loss1/classifier_plantvillage_loss1/classifier_plantvillage_0_split_0
I0403 15:01:30.793359  2562 net.cpp:399] loss1/classifier_plantvillage_loss1/classifier_plantvillage_0_split -> loss1/classifier_plantvillage_loss1/classifier_plantvillage_0_split_1
I0403 15:01:30.793377  2562 net.cpp:399] loss1/classifier_plantvillage_loss1/classifier_plantvillage_0_split -> loss1/classifier_plantvillage_loss1/classifier_plantvillage_0_split_2
I0403 15:01:30.793442  2562 net.cpp:141] Setting up loss1/classifier_plantvillage_loss1/classifier_plantvillage_0_split
I0403 15:01:30.793463  2562 net.cpp:148] Top shape: 24 38 (912)
I0403 15:01:30.793479  2562 net.cpp:148] Top shape: 24 38 (912)
I0403 15:01:30.793494  2562 net.cpp:148] Top shape: 24 38 (912)
I0403 15:01:30.793508  2562 net.cpp:156] Memory required for data: 946203936
I0403 15:01:30.793520  2562 layer_factory.hpp:77] Creating layer inception_4b/1x1
I0403 15:01:30.793545  2562 net.cpp:91] Creating Layer inception_4b/1x1
I0403 15:01:30.793581  2562 net.cpp:425] inception_4b/1x1 <- inception_4a/output_inception_4a/output_0_split_1
I0403 15:01:30.793601  2562 net.cpp:399] inception_4b/1x1 -> inception_4b/1x1
I0403 15:01:30.795284  2562 net.cpp:141] Setting up inception_4b/1x1
I0403 15:01:30.795311  2562 net.cpp:148] Top shape: 24 160 14 14 (752640)
I0403 15:01:30.795326  2562 net.cpp:156] Memory required for data: 949214496
I0403 15:01:30.795343  2562 layer_factory.hpp:77] Creating layer inception_4b/relu_1x1
I0403 15:01:30.795363  2562 net.cpp:91] Creating Layer inception_4b/relu_1x1
I0403 15:01:30.795380  2562 net.cpp:425] inception_4b/relu_1x1 <- inception_4b/1x1
I0403 15:01:30.795397  2562 net.cpp:386] inception_4b/relu_1x1 -> inception_4b/1x1 (in-place)
I0403 15:01:30.795569  2562 net.cpp:141] Setting up inception_4b/relu_1x1
I0403 15:01:30.795594  2562 net.cpp:148] Top shape: 24 160 14 14 (752640)
I0403 15:01:30.795610  2562 net.cpp:156] Memory required for data: 952225056
I0403 15:01:30.795624  2562 layer_factory.hpp:77] Creating layer inception_4b/3x3_reduce
I0403 15:01:30.795646  2562 net.cpp:91] Creating Layer inception_4b/3x3_reduce
I0403 15:01:30.795662  2562 net.cpp:425] inception_4b/3x3_reduce <- inception_4a/output_inception_4a/output_0_split_2
I0403 15:01:30.795680  2562 net.cpp:399] inception_4b/3x3_reduce -> inception_4b/3x3_reduce
I0403 15:01:30.796993  2562 net.cpp:141] Setting up inception_4b/3x3_reduce
I0403 15:01:30.797022  2562 net.cpp:148] Top shape: 24 112 14 14 (526848)
I0403 15:01:30.797039  2562 net.cpp:156] Memory required for data: 954332448
I0403 15:01:30.797056  2562 layer_factory.hpp:77] Creating layer inception_4b/relu_3x3_reduce
I0403 15:01:30.797073  2562 net.cpp:91] Creating Layer inception_4b/relu_3x3_reduce
I0403 15:01:30.797088  2562 net.cpp:425] inception_4b/relu_3x3_reduce <- inception_4b/3x3_reduce
I0403 15:01:30.797106  2562 net.cpp:386] inception_4b/relu_3x3_reduce -> inception_4b/3x3_reduce (in-place)
I0403 15:01:30.797384  2562 net.cpp:141] Setting up inception_4b/relu_3x3_reduce
I0403 15:01:30.797411  2562 net.cpp:148] Top shape: 24 112 14 14 (526848)
I0403 15:01:30.797426  2562 net.cpp:156] Memory required for data: 956439840
I0403 15:01:30.797441  2562 layer_factory.hpp:77] Creating layer inception_4b/3x3
I0403 15:01:30.797462  2562 net.cpp:91] Creating Layer inception_4b/3x3
I0403 15:01:30.797479  2562 net.cpp:425] inception_4b/3x3 <- inception_4b/3x3_reduce
I0403 15:01:30.797497  2562 net.cpp:399] inception_4b/3x3 -> inception_4b/3x3
I0403 15:01:30.800389  2562 net.cpp:141] Setting up inception_4b/3x3
I0403 15:01:30.800416  2562 net.cpp:148] Top shape: 24 224 14 14 (1053696)
I0403 15:01:30.800431  2562 net.cpp:156] Memory required for data: 960654624
I0403 15:01:30.800449  2562 layer_factory.hpp:77] Creating layer inception_4b/relu_3x3
I0403 15:01:30.800467  2562 net.cpp:91] Creating Layer inception_4b/relu_3x3
I0403 15:01:30.800482  2562 net.cpp:425] inception_4b/relu_3x3 <- inception_4b/3x3
I0403 15:01:30.800500  2562 net.cpp:386] inception_4b/relu_3x3 -> inception_4b/3x3 (in-place)
I0403 15:01:30.800673  2562 net.cpp:141] Setting up inception_4b/relu_3x3
I0403 15:01:30.800698  2562 net.cpp:148] Top shape: 24 224 14 14 (1053696)
I0403 15:01:30.800711  2562 net.cpp:156] Memory required for data: 964869408
I0403 15:01:30.800725  2562 layer_factory.hpp:77] Creating layer inception_4b/5x5_reduce
I0403 15:01:30.800746  2562 net.cpp:91] Creating Layer inception_4b/5x5_reduce
I0403 15:01:30.800763  2562 net.cpp:425] inception_4b/5x5_reduce <- inception_4a/output_inception_4a/output_0_split_3
I0403 15:01:30.800784  2562 net.cpp:399] inception_4b/5x5_reduce -> inception_4b/5x5_reduce
I0403 15:01:30.801826  2562 net.cpp:141] Setting up inception_4b/5x5_reduce
I0403 15:01:30.801853  2562 net.cpp:148] Top shape: 24 24 14 14 (112896)
I0403 15:01:30.801872  2562 net.cpp:156] Memory required for data: 965320992
I0403 15:01:30.801889  2562 layer_factory.hpp:77] Creating layer inception_4b/relu_5x5_reduce
I0403 15:01:30.801906  2562 net.cpp:91] Creating Layer inception_4b/relu_5x5_reduce
I0403 15:01:30.801935  2562 net.cpp:425] inception_4b/relu_5x5_reduce <- inception_4b/5x5_reduce
I0403 15:01:30.801954  2562 net.cpp:386] inception_4b/relu_5x5_reduce -> inception_4b/5x5_reduce (in-place)
I0403 15:01:30.802127  2562 net.cpp:141] Setting up inception_4b/relu_5x5_reduce
I0403 15:01:30.802155  2562 net.cpp:148] Top shape: 24 24 14 14 (112896)
I0403 15:01:30.802171  2562 net.cpp:156] Memory required for data: 965772576
I0403 15:01:30.802199  2562 layer_factory.hpp:77] Creating layer inception_4b/5x5
I0403 15:01:30.802222  2562 net.cpp:91] Creating Layer inception_4b/5x5
I0403 15:01:30.802239  2562 net.cpp:425] inception_4b/5x5 <- inception_4b/5x5_reduce
I0403 15:01:30.802258  2562 net.cpp:399] inception_4b/5x5 -> inception_4b/5x5
I0403 15:01:30.803439  2562 net.cpp:141] Setting up inception_4b/5x5
I0403 15:01:30.803467  2562 net.cpp:148] Top shape: 24 64 14 14 (301056)
I0403 15:01:30.803480  2562 net.cpp:156] Memory required for data: 966976800
I0403 15:01:30.803498  2562 layer_factory.hpp:77] Creating layer inception_4b/relu_5x5
I0403 15:01:30.803516  2562 net.cpp:91] Creating Layer inception_4b/relu_5x5
I0403 15:01:30.803532  2562 net.cpp:425] inception_4b/relu_5x5 <- inception_4b/5x5
I0403 15:01:30.803549  2562 net.cpp:386] inception_4b/relu_5x5 -> inception_4b/5x5 (in-place)
I0403 15:01:30.803828  2562 net.cpp:141] Setting up inception_4b/relu_5x5
I0403 15:01:30.803853  2562 net.cpp:148] Top shape: 24 64 14 14 (301056)
I0403 15:01:30.803867  2562 net.cpp:156] Memory required for data: 968181024
I0403 15:01:30.803881  2562 layer_factory.hpp:77] Creating layer inception_4b/pool
I0403 15:01:30.803902  2562 net.cpp:91] Creating Layer inception_4b/pool
I0403 15:01:30.803920  2562 net.cpp:425] inception_4b/pool <- inception_4a/output_inception_4a/output_0_split_4
I0403 15:01:30.803937  2562 net.cpp:399] inception_4b/pool -> inception_4b/pool
I0403 15:01:30.803999  2562 net.cpp:141] Setting up inception_4b/pool
I0403 15:01:30.804023  2562 net.cpp:148] Top shape: 24 512 14 14 (2408448)
I0403 15:01:30.804035  2562 net.cpp:156] Memory required for data: 977814816
I0403 15:01:30.804049  2562 layer_factory.hpp:77] Creating layer inception_4b/pool_proj
I0403 15:01:30.804070  2562 net.cpp:91] Creating Layer inception_4b/pool_proj
I0403 15:01:30.804087  2562 net.cpp:425] inception_4b/pool_proj <- inception_4b/pool
I0403 15:01:30.804107  2562 net.cpp:399] inception_4b/pool_proj -> inception_4b/pool_proj
I0403 15:01:30.805346  2562 net.cpp:141] Setting up inception_4b/pool_proj
I0403 15:01:30.805372  2562 net.cpp:148] Top shape: 24 64 14 14 (301056)
I0403 15:01:30.805388  2562 net.cpp:156] Memory required for data: 979019040
I0403 15:01:30.805407  2562 layer_factory.hpp:77] Creating layer inception_4b/relu_pool_proj
I0403 15:01:30.805426  2562 net.cpp:91] Creating Layer inception_4b/relu_pool_proj
I0403 15:01:30.805443  2562 net.cpp:425] inception_4b/relu_pool_proj <- inception_4b/pool_proj
I0403 15:01:30.805460  2562 net.cpp:386] inception_4b/relu_pool_proj -> inception_4b/pool_proj (in-place)
I0403 15:01:30.805639  2562 net.cpp:141] Setting up inception_4b/relu_pool_proj
I0403 15:01:30.805663  2562 net.cpp:148] Top shape: 24 64 14 14 (301056)
I0403 15:01:30.805677  2562 net.cpp:156] Memory required for data: 980223264
I0403 15:01:30.805691  2562 layer_factory.hpp:77] Creating layer inception_4b/output
I0403 15:01:30.805708  2562 net.cpp:91] Creating Layer inception_4b/output
I0403 15:01:30.805724  2562 net.cpp:425] inception_4b/output <- inception_4b/1x1
I0403 15:01:30.805740  2562 net.cpp:425] inception_4b/output <- inception_4b/3x3
I0403 15:01:30.805755  2562 net.cpp:425] inception_4b/output <- inception_4b/5x5
I0403 15:01:30.805771  2562 net.cpp:425] inception_4b/output <- inception_4b/pool_proj
I0403 15:01:30.805790  2562 net.cpp:399] inception_4b/output -> inception_4b/output
I0403 15:01:30.805835  2562 net.cpp:141] Setting up inception_4b/output
I0403 15:01:30.805857  2562 net.cpp:148] Top shape: 24 512 14 14 (2408448)
I0403 15:01:30.805878  2562 net.cpp:156] Memory required for data: 989857056
I0403 15:01:30.805907  2562 layer_factory.hpp:77] Creating layer inception_4b/output_inception_4b/output_0_split
I0403 15:01:30.805924  2562 net.cpp:91] Creating Layer inception_4b/output_inception_4b/output_0_split
I0403 15:01:30.805939  2562 net.cpp:425] inception_4b/output_inception_4b/output_0_split <- inception_4b/output
I0403 15:01:30.805958  2562 net.cpp:399] inception_4b/output_inception_4b/output_0_split -> inception_4b/output_inception_4b/output_0_split_0
I0403 15:01:30.805977  2562 net.cpp:399] inception_4b/output_inception_4b/output_0_split -> inception_4b/output_inception_4b/output_0_split_1
I0403 15:01:30.805997  2562 net.cpp:399] inception_4b/output_inception_4b/output_0_split -> inception_4b/output_inception_4b/output_0_split_2
I0403 15:01:30.806020  2562 net.cpp:399] inception_4b/output_inception_4b/output_0_split -> inception_4b/output_inception_4b/output_0_split_3
I0403 15:01:30.806105  2562 net.cpp:141] Setting up inception_4b/output_inception_4b/output_0_split
I0403 15:01:30.806128  2562 net.cpp:148] Top shape: 24 512 14 14 (2408448)
I0403 15:01:30.806144  2562 net.cpp:148] Top shape: 24 512 14 14 (2408448)
I0403 15:01:30.806159  2562 net.cpp:148] Top shape: 24 512 14 14 (2408448)
I0403 15:01:30.806174  2562 net.cpp:148] Top shape: 24 512 14 14 (2408448)
I0403 15:01:30.806196  2562 net.cpp:156] Memory required for data: 1028392224
I0403 15:01:30.806211  2562 layer_factory.hpp:77] Creating layer inception_4c/1x1
I0403 15:01:30.806232  2562 net.cpp:91] Creating Layer inception_4c/1x1
I0403 15:01:30.806251  2562 net.cpp:425] inception_4c/1x1 <- inception_4b/output_inception_4b/output_0_split_0
I0403 15:01:30.806272  2562 net.cpp:399] inception_4c/1x1 -> inception_4c/1x1
I0403 15:01:30.807708  2562 net.cpp:141] Setting up inception_4c/1x1
I0403 15:01:30.807736  2562 net.cpp:148] Top shape: 24 128 14 14 (602112)
I0403 15:01:30.807751  2562 net.cpp:156] Memory required for data: 1030800672
I0403 15:01:30.807770  2562 layer_factory.hpp:77] Creating layer inception_4c/relu_1x1
I0403 15:01:30.807786  2562 net.cpp:91] Creating Layer inception_4c/relu_1x1
I0403 15:01:30.807802  2562 net.cpp:425] inception_4c/relu_1x1 <- inception_4c/1x1
I0403 15:01:30.807821  2562 net.cpp:386] inception_4c/relu_1x1 -> inception_4c/1x1 (in-place)
I0403 15:01:30.808001  2562 net.cpp:141] Setting up inception_4c/relu_1x1
I0403 15:01:30.808024  2562 net.cpp:148] Top shape: 24 128 14 14 (602112)
I0403 15:01:30.808039  2562 net.cpp:156] Memory required for data: 1033209120
I0403 15:01:30.808053  2562 layer_factory.hpp:77] Creating layer inception_4c/3x3_reduce
I0403 15:01:30.808075  2562 net.cpp:91] Creating Layer inception_4c/3x3_reduce
I0403 15:01:30.808092  2562 net.cpp:425] inception_4c/3x3_reduce <- inception_4b/output_inception_4b/output_0_split_1
I0403 15:01:30.808115  2562 net.cpp:399] inception_4c/3x3_reduce -> inception_4c/3x3_reduce
I0403 15:01:30.810129  2562 net.cpp:141] Setting up inception_4c/3x3_reduce
I0403 15:01:30.810159  2562 net.cpp:148] Top shape: 24 128 14 14 (602112)
I0403 15:01:30.810174  2562 net.cpp:156] Memory required for data: 1035617568
I0403 15:01:30.810201  2562 layer_factory.hpp:77] Creating layer inception_4c/relu_3x3_reduce
I0403 15:01:30.810221  2562 net.cpp:91] Creating Layer inception_4c/relu_3x3_reduce
I0403 15:01:30.810237  2562 net.cpp:425] inception_4c/relu_3x3_reduce <- inception_4c/3x3_reduce
I0403 15:01:30.810255  2562 net.cpp:386] inception_4c/relu_3x3_reduce -> inception_4c/3x3_reduce (in-place)
I0403 15:01:30.810540  2562 net.cpp:141] Setting up inception_4c/relu_3x3_reduce
I0403 15:01:30.810566  2562 net.cpp:148] Top shape: 24 128 14 14 (602112)
I0403 15:01:30.810581  2562 net.cpp:156] Memory required for data: 1038026016
I0403 15:01:30.810596  2562 layer_factory.hpp:77] Creating layer inception_4c/3x3
I0403 15:01:30.810618  2562 net.cpp:91] Creating Layer inception_4c/3x3
I0403 15:01:30.810636  2562 net.cpp:425] inception_4c/3x3 <- inception_4c/3x3_reduce
I0403 15:01:30.810657  2562 net.cpp:399] inception_4c/3x3 -> inception_4c/3x3
I0403 15:01:30.814354  2562 net.cpp:141] Setting up inception_4c/3x3
I0403 15:01:30.814401  2562 net.cpp:148] Top shape: 24 256 14 14 (1204224)
I0403 15:01:30.814419  2562 net.cpp:156] Memory required for data: 1042842912
I0403 15:01:30.814453  2562 layer_factory.hpp:77] Creating layer inception_4c/relu_3x3
I0403 15:01:30.814477  2562 net.cpp:91] Creating Layer inception_4c/relu_3x3
I0403 15:01:30.814496  2562 net.cpp:425] inception_4c/relu_3x3 <- inception_4c/3x3
I0403 15:01:30.814513  2562 net.cpp:386] inception_4c/relu_3x3 -> inception_4c/3x3 (in-place)
I0403 15:01:30.814718  2562 net.cpp:141] Setting up inception_4c/relu_3x3
I0403 15:01:30.814749  2562 net.cpp:148] Top shape: 24 256 14 14 (1204224)
I0403 15:01:30.814770  2562 net.cpp:156] Memory required for data: 1047659808
I0403 15:01:30.814786  2562 layer_factory.hpp:77] Creating layer inception_4c/5x5_reduce
I0403 15:01:30.814807  2562 net.cpp:91] Creating Layer inception_4c/5x5_reduce
I0403 15:01:30.814824  2562 net.cpp:425] inception_4c/5x5_reduce <- inception_4b/output_inception_4b/output_0_split_2
I0403 15:01:30.814848  2562 net.cpp:399] inception_4c/5x5_reduce -> inception_4c/5x5_reduce
I0403 15:01:30.816014  2562 net.cpp:141] Setting up inception_4c/5x5_reduce
I0403 15:01:30.816041  2562 net.cpp:148] Top shape: 24 24 14 14 (112896)
I0403 15:01:30.816056  2562 net.cpp:156] Memory required for data: 1048111392
I0403 15:01:30.816073  2562 layer_factory.hpp:77] Creating layer inception_4c/relu_5x5_reduce
I0403 15:01:30.816094  2562 net.cpp:91] Creating Layer inception_4c/relu_5x5_reduce
I0403 15:01:30.816110  2562 net.cpp:425] inception_4c/relu_5x5_reduce <- inception_4c/5x5_reduce
I0403 15:01:30.816128  2562 net.cpp:386] inception_4c/relu_5x5_reduce -> inception_4c/5x5_reduce (in-place)
I0403 15:01:30.816318  2562 net.cpp:141] Setting up inception_4c/relu_5x5_reduce
I0403 15:01:30.816344  2562 net.cpp:148] Top shape: 24 24 14 14 (112896)
I0403 15:01:30.816360  2562 net.cpp:156] Memory required for data: 1048562976
I0403 15:01:30.816375  2562 layer_factory.hpp:77] Creating layer inception_4c/5x5
I0403 15:01:30.816396  2562 net.cpp:91] Creating Layer inception_4c/5x5
I0403 15:01:30.816413  2562 net.cpp:425] inception_4c/5x5 <- inception_4c/5x5_reduce
I0403 15:01:30.816432  2562 net.cpp:399] inception_4c/5x5 -> inception_4c/5x5
I0403 15:01:30.817704  2562 net.cpp:141] Setting up inception_4c/5x5
I0403 15:01:30.817733  2562 net.cpp:148] Top shape: 24 64 14 14 (301056)
I0403 15:01:30.817747  2562 net.cpp:156] Memory required for data: 1049767200
I0403 15:01:30.817765  2562 layer_factory.hpp:77] Creating layer inception_4c/relu_5x5
I0403 15:01:30.817783  2562 net.cpp:91] Creating Layer inception_4c/relu_5x5
I0403 15:01:30.817800  2562 net.cpp:425] inception_4c/relu_5x5 <- inception_4c/5x5
I0403 15:01:30.817817  2562 net.cpp:386] inception_4c/relu_5x5 -> inception_4c/5x5 (in-place)
I0403 15:01:30.818109  2562 net.cpp:141] Setting up inception_4c/relu_5x5
I0403 15:01:30.818135  2562 net.cpp:148] Top shape: 24 64 14 14 (301056)
I0403 15:01:30.818148  2562 net.cpp:156] Memory required for data: 1050971424
I0403 15:01:30.818163  2562 layer_factory.hpp:77] Creating layer inception_4c/pool
I0403 15:01:30.818186  2562 net.cpp:91] Creating Layer inception_4c/pool
I0403 15:01:30.818204  2562 net.cpp:425] inception_4c/pool <- inception_4b/output_inception_4b/output_0_split_3
I0403 15:01:30.818225  2562 net.cpp:399] inception_4c/pool -> inception_4c/pool
I0403 15:01:30.818290  2562 net.cpp:141] Setting up inception_4c/pool
I0403 15:01:30.818313  2562 net.cpp:148] Top shape: 24 512 14 14 (2408448)
I0403 15:01:30.818328  2562 net.cpp:156] Memory required for data: 1060605216
I0403 15:01:30.818342  2562 layer_factory.hpp:77] Creating layer inception_4c/pool_proj
I0403 15:01:30.818366  2562 net.cpp:91] Creating Layer inception_4c/pool_proj
I0403 15:01:30.818382  2562 net.cpp:425] inception_4c/pool_proj <- inception_4c/pool
I0403 15:01:30.818402  2562 net.cpp:399] inception_4c/pool_proj -> inception_4c/pool_proj
I0403 15:01:30.819664  2562 net.cpp:141] Setting up inception_4c/pool_proj
I0403 15:01:30.819690  2562 net.cpp:148] Top shape: 24 64 14 14 (301056)
I0403 15:01:30.819720  2562 net.cpp:156] Memory required for data: 1061809440
I0403 15:01:30.819738  2562 layer_factory.hpp:77] Creating layer inception_4c/relu_pool_proj
I0403 15:01:30.819758  2562 net.cpp:91] Creating Layer inception_4c/relu_pool_proj
I0403 15:01:30.819774  2562 net.cpp:425] inception_4c/relu_pool_proj <- inception_4c/pool_proj
I0403 15:01:30.819792  2562 net.cpp:386] inception_4c/relu_pool_proj -> inception_4c/pool_proj (in-place)
I0403 15:01:30.819972  2562 net.cpp:141] Setting up inception_4c/relu_pool_proj
I0403 15:01:30.819998  2562 net.cpp:148] Top shape: 24 64 14 14 (301056)
I0403 15:01:30.820013  2562 net.cpp:156] Memory required for data: 1063013664
I0403 15:01:30.820027  2562 layer_factory.hpp:77] Creating layer inception_4c/output
I0403 15:01:30.820044  2562 net.cpp:91] Creating Layer inception_4c/output
I0403 15:01:30.820060  2562 net.cpp:425] inception_4c/output <- inception_4c/1x1
I0403 15:01:30.820075  2562 net.cpp:425] inception_4c/output <- inception_4c/3x3
I0403 15:01:30.820091  2562 net.cpp:425] inception_4c/output <- inception_4c/5x5
I0403 15:01:30.820107  2562 net.cpp:425] inception_4c/output <- inception_4c/pool_proj
I0403 15:01:30.820123  2562 net.cpp:399] inception_4c/output -> inception_4c/output
I0403 15:01:30.820171  2562 net.cpp:141] Setting up inception_4c/output
I0403 15:01:30.820200  2562 net.cpp:148] Top shape: 24 512 14 14 (2408448)
I0403 15:01:30.820215  2562 net.cpp:156] Memory required for data: 1072647456
I0403 15:01:30.820230  2562 layer_factory.hpp:77] Creating layer inception_4c/output_inception_4c/output_0_split
I0403 15:01:30.820248  2562 net.cpp:91] Creating Layer inception_4c/output_inception_4c/output_0_split
I0403 15:01:30.820264  2562 net.cpp:425] inception_4c/output_inception_4c/output_0_split <- inception_4c/output
I0403 15:01:30.820281  2562 net.cpp:399] inception_4c/output_inception_4c/output_0_split -> inception_4c/output_inception_4c/output_0_split_0
I0403 15:01:30.820300  2562 net.cpp:399] inception_4c/output_inception_4c/output_0_split -> inception_4c/output_inception_4c/output_0_split_1
I0403 15:01:30.820319  2562 net.cpp:399] inception_4c/output_inception_4c/output_0_split -> inception_4c/output_inception_4c/output_0_split_2
I0403 15:01:30.820341  2562 net.cpp:399] inception_4c/output_inception_4c/output_0_split -> inception_4c/output_inception_4c/output_0_split_3
I0403 15:01:30.820428  2562 net.cpp:141] Setting up inception_4c/output_inception_4c/output_0_split
I0403 15:01:30.820451  2562 net.cpp:148] Top shape: 24 512 14 14 (2408448)
I0403 15:01:30.820467  2562 net.cpp:148] Top shape: 24 512 14 14 (2408448)
I0403 15:01:30.820482  2562 net.cpp:148] Top shape: 24 512 14 14 (2408448)
I0403 15:01:30.820497  2562 net.cpp:148] Top shape: 24 512 14 14 (2408448)
I0403 15:01:30.820510  2562 net.cpp:156] Memory required for data: 1111182624
I0403 15:01:30.820523  2562 layer_factory.hpp:77] Creating layer inception_4d/1x1
I0403 15:01:30.820544  2562 net.cpp:91] Creating Layer inception_4d/1x1
I0403 15:01:30.820561  2562 net.cpp:425] inception_4d/1x1 <- inception_4c/output_inception_4c/output_0_split_0
I0403 15:01:30.820585  2562 net.cpp:399] inception_4d/1x1 -> inception_4d/1x1
I0403 15:01:30.821971  2562 net.cpp:141] Setting up inception_4d/1x1
I0403 15:01:30.821998  2562 net.cpp:148] Top shape: 24 112 14 14 (526848)
I0403 15:01:30.822015  2562 net.cpp:156] Memory required for data: 1113290016
I0403 15:01:30.822032  2562 layer_factory.hpp:77] Creating layer inception_4d/relu_1x1
I0403 15:01:30.822049  2562 net.cpp:91] Creating Layer inception_4d/relu_1x1
I0403 15:01:30.822065  2562 net.cpp:425] inception_4d/relu_1x1 <- inception_4d/1x1
I0403 15:01:30.822083  2562 net.cpp:386] inception_4d/relu_1x1 -> inception_4d/1x1 (in-place)
I0403 15:01:30.822283  2562 net.cpp:141] Setting up inception_4d/relu_1x1
I0403 15:01:30.822307  2562 net.cpp:148] Top shape: 24 112 14 14 (526848)
I0403 15:01:30.822322  2562 net.cpp:156] Memory required for data: 1115397408
I0403 15:01:30.822337  2562 layer_factory.hpp:77] Creating layer inception_4d/3x3_reduce
I0403 15:01:30.822382  2562 net.cpp:91] Creating Layer inception_4d/3x3_reduce
I0403 15:01:30.822404  2562 net.cpp:425] inception_4d/3x3_reduce <- inception_4c/output_inception_4c/output_0_split_1
I0403 15:01:30.822438  2562 net.cpp:399] inception_4d/3x3_reduce -> inception_4d/3x3_reduce
I0403 15:01:30.823901  2562 net.cpp:141] Setting up inception_4d/3x3_reduce
I0403 15:01:30.823930  2562 net.cpp:148] Top shape: 24 144 14 14 (677376)
I0403 15:01:30.823945  2562 net.cpp:156] Memory required for data: 1118106912
I0403 15:01:30.823962  2562 layer_factory.hpp:77] Creating layer inception_4d/relu_3x3_reduce
I0403 15:01:30.823979  2562 net.cpp:91] Creating Layer inception_4d/relu_3x3_reduce
I0403 15:01:30.823994  2562 net.cpp:425] inception_4d/relu_3x3_reduce <- inception_4d/3x3_reduce
I0403 15:01:30.824013  2562 net.cpp:386] inception_4d/relu_3x3_reduce -> inception_4d/3x3_reduce (in-place)
I0403 15:01:30.824298  2562 net.cpp:141] Setting up inception_4d/relu_3x3_reduce
I0403 15:01:30.824326  2562 net.cpp:148] Top shape: 24 144 14 14 (677376)
I0403 15:01:30.824342  2562 net.cpp:156] Memory required for data: 1120816416
I0403 15:01:30.824357  2562 layer_factory.hpp:77] Creating layer inception_4d/3x3
I0403 15:01:30.824378  2562 net.cpp:91] Creating Layer inception_4d/3x3
I0403 15:01:30.824394  2562 net.cpp:425] inception_4d/3x3 <- inception_4d/3x3_reduce
I0403 15:01:30.824414  2562 net.cpp:399] inception_4d/3x3 -> inception_4d/3x3
I0403 15:01:30.828635  2562 net.cpp:141] Setting up inception_4d/3x3
I0403 15:01:30.828665  2562 net.cpp:148] Top shape: 24 288 14 14 (1354752)
I0403 15:01:30.828681  2562 net.cpp:156] Memory required for data: 1126235424
I0403 15:01:30.828698  2562 layer_factory.hpp:77] Creating layer inception_4d/relu_3x3
I0403 15:01:30.828719  2562 net.cpp:91] Creating Layer inception_4d/relu_3x3
I0403 15:01:30.828735  2562 net.cpp:425] inception_4d/relu_3x3 <- inception_4d/3x3
I0403 15:01:30.828752  2562 net.cpp:386] inception_4d/relu_3x3 -> inception_4d/3x3 (in-place)
I0403 15:01:30.828938  2562 net.cpp:141] Setting up inception_4d/relu_3x3
I0403 15:01:30.828963  2562 net.cpp:148] Top shape: 24 288 14 14 (1354752)
I0403 15:01:30.828977  2562 net.cpp:156] Memory required for data: 1131654432
I0403 15:01:30.828991  2562 layer_factory.hpp:77] Creating layer inception_4d/5x5_reduce
I0403 15:01:30.829015  2562 net.cpp:91] Creating Layer inception_4d/5x5_reduce
I0403 15:01:30.829032  2562 net.cpp:425] inception_4d/5x5_reduce <- inception_4c/output_inception_4c/output_0_split_2
I0403 15:01:30.829051  2562 net.cpp:399] inception_4d/5x5_reduce -> inception_4d/5x5_reduce
I0403 15:01:30.830243  2562 net.cpp:141] Setting up inception_4d/5x5_reduce
I0403 15:01:30.830271  2562 net.cpp:148] Top shape: 24 32 14 14 (150528)
I0403 15:01:30.830286  2562 net.cpp:156] Memory required for data: 1132256544
I0403 15:01:30.830303  2562 layer_factory.hpp:77] Creating layer inception_4d/relu_5x5_reduce
I0403 15:01:30.830323  2562 net.cpp:91] Creating Layer inception_4d/relu_5x5_reduce
I0403 15:01:30.830339  2562 net.cpp:425] inception_4d/relu_5x5_reduce <- inception_4d/5x5_reduce
I0403 15:01:30.830356  2562 net.cpp:386] inception_4d/relu_5x5_reduce -> inception_4d/5x5_reduce (in-place)
I0403 15:01:30.830543  2562 net.cpp:141] Setting up inception_4d/relu_5x5_reduce
I0403 15:01:30.830569  2562 net.cpp:148] Top shape: 24 32 14 14 (150528)
I0403 15:01:30.830585  2562 net.cpp:156] Memory required for data: 1132858656
I0403 15:01:30.830600  2562 layer_factory.hpp:77] Creating layer inception_4d/5x5
I0403 15:01:30.830620  2562 net.cpp:91] Creating Layer inception_4d/5x5
I0403 15:01:30.830636  2562 net.cpp:425] inception_4d/5x5 <- inception_4d/5x5_reduce
I0403 15:01:30.830657  2562 net.cpp:399] inception_4d/5x5 -> inception_4d/5x5
I0403 15:01:30.832137  2562 net.cpp:141] Setting up inception_4d/5x5
I0403 15:01:30.832167  2562 net.cpp:148] Top shape: 24 64 14 14 (301056)
I0403 15:01:30.832198  2562 net.cpp:156] Memory required for data: 1134062880
I0403 15:01:30.832219  2562 layer_factory.hpp:77] Creating layer inception_4d/relu_5x5
I0403 15:01:30.832253  2562 net.cpp:91] Creating Layer inception_4d/relu_5x5
I0403 15:01:30.832269  2562 net.cpp:425] inception_4d/relu_5x5 <- inception_4d/5x5
I0403 15:01:30.832288  2562 net.cpp:386] inception_4d/relu_5x5 -> inception_4d/5x5 (in-place)
I0403 15:01:30.832587  2562 net.cpp:141] Setting up inception_4d/relu_5x5
I0403 15:01:30.832615  2562 net.cpp:148] Top shape: 24 64 14 14 (301056)
I0403 15:01:30.832631  2562 net.cpp:156] Memory required for data: 1135267104
I0403 15:01:30.832645  2562 layer_factory.hpp:77] Creating layer inception_4d/pool
I0403 15:01:30.832664  2562 net.cpp:91] Creating Layer inception_4d/pool
I0403 15:01:30.832679  2562 net.cpp:425] inception_4d/pool <- inception_4c/output_inception_4c/output_0_split_3
I0403 15:01:30.832700  2562 net.cpp:399] inception_4d/pool -> inception_4d/pool
I0403 15:01:30.832770  2562 net.cpp:141] Setting up inception_4d/pool
I0403 15:01:30.832793  2562 net.cpp:148] Top shape: 24 512 14 14 (2408448)
I0403 15:01:30.832808  2562 net.cpp:156] Memory required for data: 1144900896
I0403 15:01:30.832821  2562 layer_factory.hpp:77] Creating layer inception_4d/pool_proj
I0403 15:01:30.832844  2562 net.cpp:91] Creating Layer inception_4d/pool_proj
I0403 15:01:30.832862  2562 net.cpp:425] inception_4d/pool_proj <- inception_4d/pool
I0403 15:01:30.832882  2562 net.cpp:399] inception_4d/pool_proj -> inception_4d/pool_proj
I0403 15:01:30.834661  2562 net.cpp:141] Setting up inception_4d/pool_proj
I0403 15:01:30.834691  2562 net.cpp:148] Top shape: 24 64 14 14 (301056)
I0403 15:01:30.834707  2562 net.cpp:156] Memory required for data: 1146105120
I0403 15:01:30.834724  2562 layer_factory.hpp:77] Creating layer inception_4d/relu_pool_proj
I0403 15:01:30.834744  2562 net.cpp:91] Creating Layer inception_4d/relu_pool_proj
I0403 15:01:30.834760  2562 net.cpp:425] inception_4d/relu_pool_proj <- inception_4d/pool_proj
I0403 15:01:30.834777  2562 net.cpp:386] inception_4d/relu_pool_proj -> inception_4d/pool_proj (in-place)
I0403 15:01:30.834964  2562 net.cpp:141] Setting up inception_4d/relu_pool_proj
I0403 15:01:30.834988  2562 net.cpp:148] Top shape: 24 64 14 14 (301056)
I0403 15:01:30.835003  2562 net.cpp:156] Memory required for data: 1147309344
I0403 15:01:30.835017  2562 layer_factory.hpp:77] Creating layer inception_4d/output
I0403 15:01:30.835036  2562 net.cpp:91] Creating Layer inception_4d/output
I0403 15:01:30.835052  2562 net.cpp:425] inception_4d/output <- inception_4d/1x1
I0403 15:01:30.835069  2562 net.cpp:425] inception_4d/output <- inception_4d/3x3
I0403 15:01:30.835085  2562 net.cpp:425] inception_4d/output <- inception_4d/5x5
I0403 15:01:30.835100  2562 net.cpp:425] inception_4d/output <- inception_4d/pool_proj
I0403 15:01:30.835117  2562 net.cpp:399] inception_4d/output -> inception_4d/output
I0403 15:01:30.835165  2562 net.cpp:141] Setting up inception_4d/output
I0403 15:01:30.835196  2562 net.cpp:148] Top shape: 24 528 14 14 (2483712)
I0403 15:01:30.835211  2562 net.cpp:156] Memory required for data: 1157244192
I0403 15:01:30.835224  2562 layer_factory.hpp:77] Creating layer inception_4d/output_inception_4d/output_0_split
I0403 15:01:30.835242  2562 net.cpp:91] Creating Layer inception_4d/output_inception_4d/output_0_split
I0403 15:01:30.835258  2562 net.cpp:425] inception_4d/output_inception_4d/output_0_split <- inception_4d/output
I0403 15:01:30.835278  2562 net.cpp:399] inception_4d/output_inception_4d/output_0_split -> inception_4d/output_inception_4d/output_0_split_0
I0403 15:01:30.835299  2562 net.cpp:399] inception_4d/output_inception_4d/output_0_split -> inception_4d/output_inception_4d/output_0_split_1
I0403 15:01:30.835319  2562 net.cpp:399] inception_4d/output_inception_4d/output_0_split -> inception_4d/output_inception_4d/output_0_split_2
I0403 15:01:30.835342  2562 net.cpp:399] inception_4d/output_inception_4d/output_0_split -> inception_4d/output_inception_4d/output_0_split_3
I0403 15:01:30.835363  2562 net.cpp:399] inception_4d/output_inception_4d/output_0_split -> inception_4d/output_inception_4d/output_0_split_4
I0403 15:01:30.835464  2562 net.cpp:141] Setting up inception_4d/output_inception_4d/output_0_split
I0403 15:01:30.835500  2562 net.cpp:148] Top shape: 24 528 14 14 (2483712)
I0403 15:01:30.835515  2562 net.cpp:148] Top shape: 24 528 14 14 (2483712)
I0403 15:01:30.835531  2562 net.cpp:148] Top shape: 24 528 14 14 (2483712)
I0403 15:01:30.835546  2562 net.cpp:148] Top shape: 24 528 14 14 (2483712)
I0403 15:01:30.835561  2562 net.cpp:148] Top shape: 24 528 14 14 (2483712)
I0403 15:01:30.835575  2562 net.cpp:156] Memory required for data: 1206918432
I0403 15:01:30.835588  2562 layer_factory.hpp:77] Creating layer loss2/ave_pool
I0403 15:01:30.835607  2562 net.cpp:91] Creating Layer loss2/ave_pool
I0403 15:01:30.835621  2562 net.cpp:425] loss2/ave_pool <- inception_4d/output_inception_4d/output_0_split_0
I0403 15:01:30.835644  2562 net.cpp:399] loss2/ave_pool -> loss2/ave_pool
I0403 15:01:30.835963  2562 net.cpp:141] Setting up loss2/ave_pool
I0403 15:01:30.835988  2562 net.cpp:148] Top shape: 24 528 4 4 (202752)
I0403 15:01:30.836004  2562 net.cpp:156] Memory required for data: 1207729440
I0403 15:01:30.836019  2562 layer_factory.hpp:77] Creating layer loss2/conv
I0403 15:01:30.836041  2562 net.cpp:91] Creating Layer loss2/conv
I0403 15:01:30.836058  2562 net.cpp:425] loss2/conv <- loss2/ave_pool
I0403 15:01:30.836081  2562 net.cpp:399] loss2/conv -> loss2/conv
I0403 15:01:30.837990  2562 net.cpp:141] Setting up loss2/conv
I0403 15:01:30.838022  2562 net.cpp:148] Top shape: 24 128 4 4 (49152)
I0403 15:01:30.838038  2562 net.cpp:156] Memory required for data: 1207926048
I0403 15:01:30.838057  2562 layer_factory.hpp:77] Creating layer loss2/relu_conv
I0403 15:01:30.838074  2562 net.cpp:91] Creating Layer loss2/relu_conv
I0403 15:01:30.838090  2562 net.cpp:425] loss2/relu_conv <- loss2/conv
I0403 15:01:30.838110  2562 net.cpp:386] loss2/relu_conv -> loss2/conv (in-place)
I0403 15:01:30.838421  2562 net.cpp:141] Setting up loss2/relu_conv
I0403 15:01:30.838450  2562 net.cpp:148] Top shape: 24 128 4 4 (49152)
I0403 15:01:30.838467  2562 net.cpp:156] Memory required for data: 1208122656
I0403 15:01:30.838482  2562 layer_factory.hpp:77] Creating layer loss2/fc
I0403 15:01:30.838501  2562 net.cpp:91] Creating Layer loss2/fc
I0403 15:01:30.838518  2562 net.cpp:425] loss2/fc <- loss2/conv
I0403 15:01:30.838551  2562 net.cpp:399] loss2/fc -> loss2/fc
I0403 15:01:30.856971  2562 net.cpp:141] Setting up loss2/fc
I0403 15:01:30.857034  2562 net.cpp:148] Top shape: 24 1024 (24576)
I0403 15:01:30.857050  2562 net.cpp:156] Memory required for data: 1208220960
I0403 15:01:30.857069  2562 layer_factory.hpp:77] Creating layer loss2/relu_fc
I0403 15:01:30.857092  2562 net.cpp:91] Creating Layer loss2/relu_fc
I0403 15:01:30.857111  2562 net.cpp:425] loss2/relu_fc <- loss2/fc
I0403 15:01:30.857131  2562 net.cpp:386] loss2/relu_fc -> loss2/fc (in-place)
I0403 15:01:30.857501  2562 net.cpp:141] Setting up loss2/relu_fc
I0403 15:01:30.857528  2562 net.cpp:148] Top shape: 24 1024 (24576)
I0403 15:01:30.857544  2562 net.cpp:156] Memory required for data: 1208319264
I0403 15:01:30.857560  2562 layer_factory.hpp:77] Creating layer loss2/drop_fc
I0403 15:01:30.857583  2562 net.cpp:91] Creating Layer loss2/drop_fc
I0403 15:01:30.857599  2562 net.cpp:425] loss2/drop_fc <- loss2/fc
I0403 15:01:30.857617  2562 net.cpp:386] loss2/drop_fc -> loss2/fc (in-place)
I0403 15:01:30.857671  2562 net.cpp:141] Setting up loss2/drop_fc
I0403 15:01:30.857694  2562 net.cpp:148] Top shape: 24 1024 (24576)
I0403 15:01:30.857709  2562 net.cpp:156] Memory required for data: 1208417568
I0403 15:01:30.857724  2562 layer_factory.hpp:77] Creating layer loss2/classifier_plantvillage
I0403 15:01:30.857743  2562 net.cpp:91] Creating Layer loss2/classifier_plantvillage
I0403 15:01:30.857759  2562 net.cpp:425] loss2/classifier_plantvillage <- loss2/fc
I0403 15:01:30.857784  2562 net.cpp:399] loss2/classifier_plantvillage -> loss2/classifier_plantvillage
I0403 15:01:30.858237  2562 net.cpp:141] Setting up loss2/classifier_plantvillage
I0403 15:01:30.858260  2562 net.cpp:148] Top shape: 24 38 (912)
I0403 15:01:30.858299  2562 net.cpp:156] Memory required for data: 1208421216
I0403 15:01:30.858319  2562 layer_factory.hpp:77] Creating layer loss2/classifier_plantvillage_loss2/classifier_plantvillage_0_split
I0403 15:01:30.858341  2562 net.cpp:91] Creating Layer loss2/classifier_plantvillage_loss2/classifier_plantvillage_0_split
I0403 15:01:30.858357  2562 net.cpp:425] loss2/classifier_plantvillage_loss2/classifier_plantvillage_0_split <- loss2/classifier_plantvillage
I0403 15:01:30.858377  2562 net.cpp:399] loss2/classifier_plantvillage_loss2/classifier_plantvillage_0_split -> loss2/classifier_plantvillage_loss2/classifier_plantvillage_0_split_0
I0403 15:01:30.858398  2562 net.cpp:399] loss2/classifier_plantvillage_loss2/classifier_plantvillage_0_split -> loss2/classifier_plantvillage_loss2/classifier_plantvillage_0_split_1
I0403 15:01:30.858419  2562 net.cpp:399] loss2/classifier_plantvillage_loss2/classifier_plantvillage_0_split -> loss2/classifier_plantvillage_loss2/classifier_plantvillage_0_split_2
I0403 15:01:30.858497  2562 net.cpp:141] Setting up loss2/classifier_plantvillage_loss2/classifier_plantvillage_0_split
I0403 15:01:30.858520  2562 net.cpp:148] Top shape: 24 38 (912)
I0403 15:01:30.858536  2562 net.cpp:148] Top shape: 24 38 (912)
I0403 15:01:30.858551  2562 net.cpp:148] Top shape: 24 38 (912)
I0403 15:01:30.858564  2562 net.cpp:156] Memory required for data: 1208432160
I0403 15:01:30.858578  2562 layer_factory.hpp:77] Creating layer inception_4e/1x1
I0403 15:01:30.858602  2562 net.cpp:91] Creating Layer inception_4e/1x1
I0403 15:01:30.858619  2562 net.cpp:425] inception_4e/1x1 <- inception_4d/output_inception_4d/output_0_split_1
I0403 15:01:30.858638  2562 net.cpp:399] inception_4e/1x1 -> inception_4e/1x1
I0403 15:01:30.860503  2562 net.cpp:141] Setting up inception_4e/1x1
I0403 15:01:30.860533  2562 net.cpp:148] Top shape: 24 256 14 14 (1204224)
I0403 15:01:30.860549  2562 net.cpp:156] Memory required for data: 1213249056
I0403 15:01:30.860568  2562 layer_factory.hpp:77] Creating layer inception_4e/relu_1x1
I0403 15:01:30.860584  2562 net.cpp:91] Creating Layer inception_4e/relu_1x1
I0403 15:01:30.860599  2562 net.cpp:425] inception_4e/relu_1x1 <- inception_4e/1x1
I0403 15:01:30.860620  2562 net.cpp:386] inception_4e/relu_1x1 -> inception_4e/1x1 (in-place)
I0403 15:01:30.860918  2562 net.cpp:141] Setting up inception_4e/relu_1x1
I0403 15:01:30.860945  2562 net.cpp:148] Top shape: 24 256 14 14 (1204224)
I0403 15:01:30.860962  2562 net.cpp:156] Memory required for data: 1218065952
I0403 15:01:30.860977  2562 layer_factory.hpp:77] Creating layer inception_4e/3x3_reduce
I0403 15:01:30.860999  2562 net.cpp:91] Creating Layer inception_4e/3x3_reduce
I0403 15:01:30.861016  2562 net.cpp:425] inception_4e/3x3_reduce <- inception_4d/output_inception_4d/output_0_split_2
I0403 15:01:30.861035  2562 net.cpp:399] inception_4e/3x3_reduce -> inception_4e/3x3_reduce
I0403 15:01:30.863276  2562 net.cpp:141] Setting up inception_4e/3x3_reduce
I0403 15:01:30.863304  2562 net.cpp:148] Top shape: 24 160 14 14 (752640)
I0403 15:01:30.863320  2562 net.cpp:156] Memory required for data: 1221076512
I0403 15:01:30.863339  2562 layer_factory.hpp:77] Creating layer inception_4e/relu_3x3_reduce
I0403 15:01:30.863358  2562 net.cpp:91] Creating Layer inception_4e/relu_3x3_reduce
I0403 15:01:30.863375  2562 net.cpp:425] inception_4e/relu_3x3_reduce <- inception_4e/3x3_reduce
I0403 15:01:30.863392  2562 net.cpp:386] inception_4e/relu_3x3_reduce -> inception_4e/3x3_reduce (in-place)
I0403 15:01:30.863579  2562 net.cpp:141] Setting up inception_4e/relu_3x3_reduce
I0403 15:01:30.863603  2562 net.cpp:148] Top shape: 24 160 14 14 (752640)
I0403 15:01:30.863618  2562 net.cpp:156] Memory required for data: 1224087072
I0403 15:01:30.863632  2562 layer_factory.hpp:77] Creating layer inception_4e/3x3
I0403 15:01:30.863654  2562 net.cpp:91] Creating Layer inception_4e/3x3
I0403 15:01:30.863672  2562 net.cpp:425] inception_4e/3x3 <- inception_4e/3x3_reduce
I0403 15:01:30.863693  2562 net.cpp:399] inception_4e/3x3 -> inception_4e/3x3
I0403 15:01:30.868741  2562 net.cpp:141] Setting up inception_4e/3x3
I0403 15:01:30.868784  2562 net.cpp:148] Top shape: 24 320 14 14 (1505280)
I0403 15:01:30.868800  2562 net.cpp:156] Memory required for data: 1230108192
I0403 15:01:30.868819  2562 layer_factory.hpp:77] Creating layer inception_4e/relu_3x3
I0403 15:01:30.868837  2562 net.cpp:91] Creating Layer inception_4e/relu_3x3
I0403 15:01:30.868854  2562 net.cpp:425] inception_4e/relu_3x3 <- inception_4e/3x3
I0403 15:01:30.868872  2562 net.cpp:386] inception_4e/relu_3x3 -> inception_4e/3x3 (in-place)
I0403 15:01:30.869175  2562 net.cpp:141] Setting up inception_4e/relu_3x3
I0403 15:01:30.869206  2562 net.cpp:148] Top shape: 24 320 14 14 (1505280)
I0403 15:01:30.869221  2562 net.cpp:156] Memory required for data: 1236129312
I0403 15:01:30.869236  2562 layer_factory.hpp:77] Creating layer inception_4e/5x5_reduce
I0403 15:01:30.869259  2562 net.cpp:91] Creating Layer inception_4e/5x5_reduce
I0403 15:01:30.869277  2562 net.cpp:425] inception_4e/5x5_reduce <- inception_4d/output_inception_4d/output_0_split_3
I0403 15:01:30.869298  2562 net.cpp:399] inception_4e/5x5_reduce -> inception_4e/5x5_reduce
I0403 15:01:30.870375  2562 net.cpp:141] Setting up inception_4e/5x5_reduce
I0403 15:01:30.870404  2562 net.cpp:148] Top shape: 24 32 14 14 (150528)
I0403 15:01:30.870419  2562 net.cpp:156] Memory required for data: 1236731424
I0403 15:01:30.870437  2562 layer_factory.hpp:77] Creating layer inception_4e/relu_5x5_reduce
I0403 15:01:30.870455  2562 net.cpp:91] Creating Layer inception_4e/relu_5x5_reduce
I0403 15:01:30.870470  2562 net.cpp:425] inception_4e/relu_5x5_reduce <- inception_4e/5x5_reduce
I0403 15:01:30.870486  2562 net.cpp:386] inception_4e/relu_5x5_reduce -> inception_4e/5x5_reduce (in-place)
I0403 15:01:30.870775  2562 net.cpp:141] Setting up inception_4e/relu_5x5_reduce
I0403 15:01:30.870802  2562 net.cpp:148] Top shape: 24 32 14 14 (150528)
I0403 15:01:30.870818  2562 net.cpp:156] Memory required for data: 1237333536
I0403 15:01:30.870832  2562 layer_factory.hpp:77] Creating layer inception_4e/5x5
I0403 15:01:30.870872  2562 net.cpp:91] Creating Layer inception_4e/5x5
I0403 15:01:30.870889  2562 net.cpp:425] inception_4e/5x5 <- inception_4e/5x5_reduce
I0403 15:01:30.870909  2562 net.cpp:399] inception_4e/5x5 -> inception_4e/5x5
I0403 15:01:30.872722  2562 net.cpp:141] Setting up inception_4e/5x5
I0403 15:01:30.872748  2562 net.cpp:148] Top shape: 24 128 14 14 (602112)
I0403 15:01:30.872763  2562 net.cpp:156] Memory required for data: 1239741984
I0403 15:01:30.872781  2562 layer_factory.hpp:77] Creating layer inception_4e/relu_5x5
I0403 15:01:30.872802  2562 net.cpp:91] Creating Layer inception_4e/relu_5x5
I0403 15:01:30.872818  2562 net.cpp:425] inception_4e/relu_5x5 <- inception_4e/5x5
I0403 15:01:30.872835  2562 net.cpp:386] inception_4e/relu_5x5 -> inception_4e/5x5 (in-place)
I0403 15:01:30.873028  2562 net.cpp:141] Setting up inception_4e/relu_5x5
I0403 15:01:30.873054  2562 net.cpp:148] Top shape: 24 128 14 14 (602112)
I0403 15:01:30.873067  2562 net.cpp:156] Memory required for data: 1242150432
I0403 15:01:30.873082  2562 layer_factory.hpp:77] Creating layer inception_4e/pool
I0403 15:01:30.873100  2562 net.cpp:91] Creating Layer inception_4e/pool
I0403 15:01:30.873116  2562 net.cpp:425] inception_4e/pool <- inception_4d/output_inception_4d/output_0_split_4
I0403 15:01:30.873134  2562 net.cpp:399] inception_4e/pool -> inception_4e/pool
I0403 15:01:30.873211  2562 net.cpp:141] Setting up inception_4e/pool
I0403 15:01:30.873234  2562 net.cpp:148] Top shape: 24 528 14 14 (2483712)
I0403 15:01:30.873247  2562 net.cpp:156] Memory required for data: 1252085280
I0403 15:01:30.873261  2562 layer_factory.hpp:77] Creating layer inception_4e/pool_proj
I0403 15:01:30.873282  2562 net.cpp:91] Creating Layer inception_4e/pool_proj
I0403 15:01:30.873298  2562 net.cpp:425] inception_4e/pool_proj <- inception_4e/pool
I0403 15:01:30.873318  2562 net.cpp:399] inception_4e/pool_proj -> inception_4e/pool_proj
I0403 15:01:30.874778  2562 net.cpp:141] Setting up inception_4e/pool_proj
I0403 15:01:30.874816  2562 net.cpp:148] Top shape: 24 128 14 14 (602112)
I0403 15:01:30.874832  2562 net.cpp:156] Memory required for data: 1254493728
I0403 15:01:30.874850  2562 layer_factory.hpp:77] Creating layer inception_4e/relu_pool_proj
I0403 15:01:30.874871  2562 net.cpp:91] Creating Layer inception_4e/relu_pool_proj
I0403 15:01:30.874888  2562 net.cpp:425] inception_4e/relu_pool_proj <- inception_4e/pool_proj
I0403 15:01:30.874905  2562 net.cpp:386] inception_4e/relu_pool_proj -> inception_4e/pool_proj (in-place)
I0403 15:01:30.875196  2562 net.cpp:141] Setting up inception_4e/relu_pool_proj
I0403 15:01:30.875221  2562 net.cpp:148] Top shape: 24 128 14 14 (602112)
I0403 15:01:30.875236  2562 net.cpp:156] Memory required for data: 1256902176
I0403 15:01:30.875250  2562 layer_factory.hpp:77] Creating layer inception_4e/output
I0403 15:01:30.875269  2562 net.cpp:91] Creating Layer inception_4e/output
I0403 15:01:30.875284  2562 net.cpp:425] inception_4e/output <- inception_4e/1x1
I0403 15:01:30.875300  2562 net.cpp:425] inception_4e/output <- inception_4e/3x3
I0403 15:01:30.875316  2562 net.cpp:425] inception_4e/output <- inception_4e/5x5
I0403 15:01:30.875331  2562 net.cpp:425] inception_4e/output <- inception_4e/pool_proj
I0403 15:01:30.875349  2562 net.cpp:399] inception_4e/output -> inception_4e/output
I0403 15:01:30.875396  2562 net.cpp:141] Setting up inception_4e/output
I0403 15:01:30.875419  2562 net.cpp:148] Top shape: 24 832 14 14 (3913728)
I0403 15:01:30.875433  2562 net.cpp:156] Memory required for data: 1272557088
I0403 15:01:30.875447  2562 layer_factory.hpp:77] Creating layer pool4/3x3_s2
I0403 15:01:30.875464  2562 net.cpp:91] Creating Layer pool4/3x3_s2
I0403 15:01:30.875479  2562 net.cpp:425] pool4/3x3_s2 <- inception_4e/output
I0403 15:01:30.875499  2562 net.cpp:399] pool4/3x3_s2 -> pool4/3x3_s2
I0403 15:01:30.875563  2562 net.cpp:141] Setting up pool4/3x3_s2
I0403 15:01:30.875588  2562 net.cpp:148] Top shape: 24 832 7 7 (978432)
I0403 15:01:30.875602  2562 net.cpp:156] Memory required for data: 1276470816
I0403 15:01:30.875617  2562 layer_factory.hpp:77] Creating layer pool4/3x3_s2_pool4/3x3_s2_0_split
I0403 15:01:30.875633  2562 net.cpp:91] Creating Layer pool4/3x3_s2_pool4/3x3_s2_0_split
I0403 15:01:30.875648  2562 net.cpp:425] pool4/3x3_s2_pool4/3x3_s2_0_split <- pool4/3x3_s2
I0403 15:01:30.875664  2562 net.cpp:399] pool4/3x3_s2_pool4/3x3_s2_0_split -> pool4/3x3_s2_pool4/3x3_s2_0_split_0
I0403 15:01:30.875684  2562 net.cpp:399] pool4/3x3_s2_pool4/3x3_s2_0_split -> pool4/3x3_s2_pool4/3x3_s2_0_split_1
I0403 15:01:30.875705  2562 net.cpp:399] pool4/3x3_s2_pool4/3x3_s2_0_split -> pool4/3x3_s2_pool4/3x3_s2_0_split_2
I0403 15:01:30.875725  2562 net.cpp:399] pool4/3x3_s2_pool4/3x3_s2_0_split -> pool4/3x3_s2_pool4/3x3_s2_0_split_3
I0403 15:01:30.875814  2562 net.cpp:141] Setting up pool4/3x3_s2_pool4/3x3_s2_0_split
I0403 15:01:30.875835  2562 net.cpp:148] Top shape: 24 832 7 7 (978432)
I0403 15:01:30.875851  2562 net.cpp:148] Top shape: 24 832 7 7 (978432)
I0403 15:01:30.875865  2562 net.cpp:148] Top shape: 24 832 7 7 (978432)
I0403 15:01:30.875880  2562 net.cpp:148] Top shape: 24 832 7 7 (978432)
I0403 15:01:30.875892  2562 net.cpp:156] Memory required for data: 1292125728
I0403 15:01:30.875906  2562 layer_factory.hpp:77] Creating layer inception_5a/1x1
I0403 15:01:30.875927  2562 net.cpp:91] Creating Layer inception_5a/1x1
I0403 15:01:30.875944  2562 net.cpp:425] inception_5a/1x1 <- pool4/3x3_s2_pool4/3x3_s2_0_split_0
I0403 15:01:30.875964  2562 net.cpp:399] inception_5a/1x1 -> inception_5a/1x1
I0403 15:01:30.878788  2562 net.cpp:141] Setting up inception_5a/1x1
I0403 15:01:30.878818  2562 net.cpp:148] Top shape: 24 256 7 7 (301056)
I0403 15:01:30.878834  2562 net.cpp:156] Memory required for data: 1293329952
I0403 15:01:30.878851  2562 layer_factory.hpp:77] Creating layer inception_5a/relu_1x1
I0403 15:01:30.878871  2562 net.cpp:91] Creating Layer inception_5a/relu_1x1
I0403 15:01:30.878888  2562 net.cpp:425] inception_5a/relu_1x1 <- inception_5a/1x1
I0403 15:01:30.878906  2562 net.cpp:386] inception_5a/relu_1x1 -> inception_5a/1x1 (in-place)
I0403 15:01:30.879230  2562 net.cpp:141] Setting up inception_5a/relu_1x1
I0403 15:01:30.879256  2562 net.cpp:148] Top shape: 24 256 7 7 (301056)
I0403 15:01:30.879271  2562 net.cpp:156] Memory required for data: 1294534176
I0403 15:01:30.879286  2562 layer_factory.hpp:77] Creating layer inception_5a/3x3_reduce
I0403 15:01:30.879309  2562 net.cpp:91] Creating Layer inception_5a/3x3_reduce
I0403 15:01:30.879326  2562 net.cpp:425] inception_5a/3x3_reduce <- pool4/3x3_s2_pool4/3x3_s2_0_split_1
I0403 15:01:30.879345  2562 net.cpp:399] inception_5a/3x3_reduce -> inception_5a/3x3_reduce
I0403 15:01:30.881788  2562 net.cpp:141] Setting up inception_5a/3x3_reduce
I0403 15:01:30.881817  2562 net.cpp:148] Top shape: 24 160 7 7 (188160)
I0403 15:01:30.881832  2562 net.cpp:156] Memory required for data: 1295286816
I0403 15:01:30.881850  2562 layer_factory.hpp:77] Creating layer inception_5a/relu_3x3_reduce
I0403 15:01:30.881870  2562 net.cpp:91] Creating Layer inception_5a/relu_3x3_reduce
I0403 15:01:30.881886  2562 net.cpp:425] inception_5a/relu_3x3_reduce <- inception_5a/3x3_reduce
I0403 15:01:30.881902  2562 net.cpp:386] inception_5a/relu_3x3_reduce -> inception_5a/3x3_reduce (in-place)
I0403 15:01:30.882083  2562 net.cpp:141] Setting up inception_5a/relu_3x3_reduce
I0403 15:01:30.882107  2562 net.cpp:148] Top shape: 24 160 7 7 (188160)
I0403 15:01:30.882122  2562 net.cpp:156] Memory required for data: 1296039456
I0403 15:01:30.882135  2562 layer_factory.hpp:77] Creating layer inception_5a/3x3
I0403 15:01:30.882158  2562 net.cpp:91] Creating Layer inception_5a/3x3
I0403 15:01:30.882189  2562 net.cpp:425] inception_5a/3x3 <- inception_5a/3x3_reduce
I0403 15:01:30.882211  2562 net.cpp:399] inception_5a/3x3 -> inception_5a/3x3
I0403 15:01:30.887150  2562 net.cpp:141] Setting up inception_5a/3x3
I0403 15:01:30.887186  2562 net.cpp:148] Top shape: 24 320 7 7 (376320)
I0403 15:01:30.887202  2562 net.cpp:156] Memory required for data: 1297544736
I0403 15:01:30.887219  2562 layer_factory.hpp:77] Creating layer inception_5a/relu_3x3
I0403 15:01:30.887239  2562 net.cpp:91] Creating Layer inception_5a/relu_3x3
I0403 15:01:30.887255  2562 net.cpp:425] inception_5a/relu_3x3 <- inception_5a/3x3
I0403 15:01:30.887274  2562 net.cpp:386] inception_5a/relu_3x3 -> inception_5a/3x3 (in-place)
I0403 15:01:30.887562  2562 net.cpp:141] Setting up inception_5a/relu_3x3
I0403 15:01:30.887586  2562 net.cpp:148] Top shape: 24 320 7 7 (376320)
I0403 15:01:30.887600  2562 net.cpp:156] Memory required for data: 1299050016
I0403 15:01:30.887614  2562 layer_factory.hpp:77] Creating layer inception_5a/5x5_reduce
I0403 15:01:30.887636  2562 net.cpp:91] Creating Layer inception_5a/5x5_reduce
I0403 15:01:30.887653  2562 net.cpp:425] inception_5a/5x5_reduce <- pool4/3x3_s2_pool4/3x3_s2_0_split_2
I0403 15:01:30.887673  2562 net.cpp:399] inception_5a/5x5_reduce -> inception_5a/5x5_reduce
I0403 15:01:30.888823  2562 net.cpp:141] Setting up inception_5a/5x5_reduce
I0403 15:01:30.888852  2562 net.cpp:148] Top shape: 24 32 7 7 (37632)
I0403 15:01:30.888869  2562 net.cpp:156] Memory required for data: 1299200544
I0403 15:01:30.888885  2562 layer_factory.hpp:77] Creating layer inception_5a/relu_5x5_reduce
I0403 15:01:30.888902  2562 net.cpp:91] Creating Layer inception_5a/relu_5x5_reduce
I0403 15:01:30.888918  2562 net.cpp:425] inception_5a/relu_5x5_reduce <- inception_5a/5x5_reduce
I0403 15:01:30.888937  2562 net.cpp:386] inception_5a/relu_5x5_reduce -> inception_5a/5x5_reduce (in-place)
I0403 15:01:30.889237  2562 net.cpp:141] Setting up inception_5a/relu_5x5_reduce
I0403 15:01:30.889263  2562 net.cpp:148] Top shape: 24 32 7 7 (37632)
I0403 15:01:30.889279  2562 net.cpp:156] Memory required for data: 1299351072
I0403 15:01:30.889293  2562 layer_factory.hpp:77] Creating layer inception_5a/5x5
I0403 15:01:30.889314  2562 net.cpp:91] Creating Layer inception_5a/5x5
I0403 15:01:30.889331  2562 net.cpp:425] inception_5a/5x5 <- inception_5a/5x5_reduce
I0403 15:01:30.889349  2562 net.cpp:399] inception_5a/5x5 -> inception_5a/5x5
I0403 15:01:30.891026  2562 net.cpp:141] Setting up inception_5a/5x5
I0403 15:01:30.891063  2562 net.cpp:148] Top shape: 24 128 7 7 (150528)
I0403 15:01:30.891078  2562 net.cpp:156] Memory required for data: 1299953184
I0403 15:01:30.891095  2562 layer_factory.hpp:77] Creating layer inception_5a/relu_5x5
I0403 15:01:30.891114  2562 net.cpp:91] Creating Layer inception_5a/relu_5x5
I0403 15:01:30.891131  2562 net.cpp:425] inception_5a/relu_5x5 <- inception_5a/5x5
I0403 15:01:30.891149  2562 net.cpp:386] inception_5a/relu_5x5 -> inception_5a/5x5 (in-place)
I0403 15:01:30.891341  2562 net.cpp:141] Setting up inception_5a/relu_5x5
I0403 15:01:30.891366  2562 net.cpp:148] Top shape: 24 128 7 7 (150528)
I0403 15:01:30.891381  2562 net.cpp:156] Memory required for data: 1300555296
I0403 15:01:30.891396  2562 layer_factory.hpp:77] Creating layer inception_5a/pool
I0403 15:01:30.891412  2562 net.cpp:91] Creating Layer inception_5a/pool
I0403 15:01:30.891428  2562 net.cpp:425] inception_5a/pool <- pool4/3x3_s2_pool4/3x3_s2_0_split_3
I0403 15:01:30.891448  2562 net.cpp:399] inception_5a/pool -> inception_5a/pool
I0403 15:01:30.891515  2562 net.cpp:141] Setting up inception_5a/pool
I0403 15:01:30.891537  2562 net.cpp:148] Top shape: 24 832 7 7 (978432)
I0403 15:01:30.891551  2562 net.cpp:156] Memory required for data: 1304469024
I0403 15:01:30.891566  2562 layer_factory.hpp:77] Creating layer inception_5a/pool_proj
I0403 15:01:30.891587  2562 net.cpp:91] Creating Layer inception_5a/pool_proj
I0403 15:01:30.891603  2562 net.cpp:425] inception_5a/pool_proj <- inception_5a/pool
I0403 15:01:30.891625  2562 net.cpp:399] inception_5a/pool_proj -> inception_5a/pool_proj
I0403 15:01:30.893862  2562 net.cpp:141] Setting up inception_5a/pool_proj
I0403 15:01:30.893890  2562 net.cpp:148] Top shape: 24 128 7 7 (150528)
I0403 15:01:30.893905  2562 net.cpp:156] Memory required for data: 1305071136
I0403 15:01:30.893923  2562 layer_factory.hpp:77] Creating layer inception_5a/relu_pool_proj
I0403 15:01:30.893942  2562 net.cpp:91] Creating Layer inception_5a/relu_pool_proj
I0403 15:01:30.893959  2562 net.cpp:425] inception_5a/relu_pool_proj <- inception_5a/pool_proj
I0403 15:01:30.893975  2562 net.cpp:386] inception_5a/relu_pool_proj -> inception_5a/pool_proj (in-place)
I0403 15:01:30.894271  2562 net.cpp:141] Setting up inception_5a/relu_pool_proj
I0403 15:01:30.894296  2562 net.cpp:148] Top shape: 24 128 7 7 (150528)
I0403 15:01:30.894311  2562 net.cpp:156] Memory required for data: 1305673248
I0403 15:01:30.894325  2562 layer_factory.hpp:77] Creating layer inception_5a/output
I0403 15:01:30.894342  2562 net.cpp:91] Creating Layer inception_5a/output
I0403 15:01:30.894356  2562 net.cpp:425] inception_5a/output <- inception_5a/1x1
I0403 15:01:30.894372  2562 net.cpp:425] inception_5a/output <- inception_5a/3x3
I0403 15:01:30.894388  2562 net.cpp:425] inception_5a/output <- inception_5a/5x5
I0403 15:01:30.894403  2562 net.cpp:425] inception_5a/output <- inception_5a/pool_proj
I0403 15:01:30.894423  2562 net.cpp:399] inception_5a/output -> inception_5a/output
I0403 15:01:30.894472  2562 net.cpp:141] Setting up inception_5a/output
I0403 15:01:30.894495  2562 net.cpp:148] Top shape: 24 832 7 7 (978432)
I0403 15:01:30.894508  2562 net.cpp:156] Memory required for data: 1309586976
I0403 15:01:30.894522  2562 layer_factory.hpp:77] Creating layer inception_5a/output_inception_5a/output_0_split
I0403 15:01:30.894538  2562 net.cpp:91] Creating Layer inception_5a/output_inception_5a/output_0_split
I0403 15:01:30.894553  2562 net.cpp:425] inception_5a/output_inception_5a/output_0_split <- inception_5a/output
I0403 15:01:30.894572  2562 net.cpp:399] inception_5a/output_inception_5a/output_0_split -> inception_5a/output_inception_5a/output_0_split_0
I0403 15:01:30.894593  2562 net.cpp:399] inception_5a/output_inception_5a/output_0_split -> inception_5a/output_inception_5a/output_0_split_1
I0403 15:01:30.894613  2562 net.cpp:399] inception_5a/output_inception_5a/output_0_split -> inception_5a/output_inception_5a/output_0_split_2
I0403 15:01:30.894634  2562 net.cpp:399] inception_5a/output_inception_5a/output_0_split -> inception_5a/output_inception_5a/output_0_split_3
I0403 15:01:30.894742  2562 net.cpp:141] Setting up inception_5a/output_inception_5a/output_0_split
I0403 15:01:30.894767  2562 net.cpp:148] Top shape: 24 832 7 7 (978432)
I0403 15:01:30.894783  2562 net.cpp:148] Top shape: 24 832 7 7 (978432)
I0403 15:01:30.894796  2562 net.cpp:148] Top shape: 24 832 7 7 (978432)
I0403 15:01:30.894811  2562 net.cpp:148] Top shape: 24 832 7 7 (978432)
I0403 15:01:30.894824  2562 net.cpp:156] Memory required for data: 1325241888
I0403 15:01:30.894839  2562 layer_factory.hpp:77] Creating layer inception_5b/1x1
I0403 15:01:30.894860  2562 net.cpp:91] Creating Layer inception_5b/1x1
I0403 15:01:30.894876  2562 net.cpp:425] inception_5b/1x1 <- inception_5a/output_inception_5a/output_0_split_0
I0403 15:01:30.894894  2562 net.cpp:399] inception_5b/1x1 -> inception_5b/1x1
I0403 15:01:30.898597  2562 net.cpp:141] Setting up inception_5b/1x1
I0403 15:01:30.898625  2562 net.cpp:148] Top shape: 24 384 7 7 (451584)
I0403 15:01:30.898640  2562 net.cpp:156] Memory required for data: 1327048224
I0403 15:01:30.898658  2562 layer_factory.hpp:77] Creating layer inception_5b/relu_1x1
I0403 15:01:30.898677  2562 net.cpp:91] Creating Layer inception_5b/relu_1x1
I0403 15:01:30.898694  2562 net.cpp:425] inception_5b/relu_1x1 <- inception_5b/1x1
I0403 15:01:30.898710  2562 net.cpp:386] inception_5b/relu_1x1 -> inception_5b/1x1 (in-place)
I0403 15:01:30.899009  2562 net.cpp:141] Setting up inception_5b/relu_1x1
I0403 15:01:30.899034  2562 net.cpp:148] Top shape: 24 384 7 7 (451584)
I0403 15:01:30.899049  2562 net.cpp:156] Memory required for data: 1328854560
I0403 15:01:30.899062  2562 layer_factory.hpp:77] Creating layer inception_5b/3x3_reduce
I0403 15:01:30.899083  2562 net.cpp:91] Creating Layer inception_5b/3x3_reduce
I0403 15:01:30.899101  2562 net.cpp:425] inception_5b/3x3_reduce <- inception_5a/output_inception_5a/output_0_split_1
I0403 15:01:30.899122  2562 net.cpp:399] inception_5b/3x3_reduce -> inception_5b/3x3_reduce
I0403 15:01:30.901732  2562 net.cpp:141] Setting up inception_5b/3x3_reduce
I0403 15:01:30.901760  2562 net.cpp:148] Top shape: 24 192 7 7 (225792)
I0403 15:01:30.901777  2562 net.cpp:156] Memory required for data: 1329757728
I0403 15:01:30.901793  2562 layer_factory.hpp:77] Creating layer inception_5b/relu_3x3_reduce
I0403 15:01:30.901813  2562 net.cpp:91] Creating Layer inception_5b/relu_3x3_reduce
I0403 15:01:30.901829  2562 net.cpp:425] inception_5b/relu_3x3_reduce <- inception_5b/3x3_reduce
I0403 15:01:30.901846  2562 net.cpp:386] inception_5b/relu_3x3_reduce -> inception_5b/3x3_reduce (in-place)
I0403 15:01:30.902034  2562 net.cpp:141] Setting up inception_5b/relu_3x3_reduce
I0403 15:01:30.902060  2562 net.cpp:148] Top shape: 24 192 7 7 (225792)
I0403 15:01:30.902075  2562 net.cpp:156] Memory required for data: 1330660896
I0403 15:01:30.902088  2562 layer_factory.hpp:77] Creating layer inception_5b/3x3
I0403 15:01:30.902107  2562 net.cpp:91] Creating Layer inception_5b/3x3
I0403 15:01:30.902125  2562 net.cpp:425] inception_5b/3x3 <- inception_5b/3x3_reduce
I0403 15:01:30.902146  2562 net.cpp:399] inception_5b/3x3 -> inception_5b/3x3
I0403 15:01:30.908942  2562 net.cpp:141] Setting up inception_5b/3x3
I0403 15:01:30.908972  2562 net.cpp:148] Top shape: 24 384 7 7 (451584)
I0403 15:01:30.908987  2562 net.cpp:156] Memory required for data: 1332467232
I0403 15:01:30.909005  2562 layer_factory.hpp:77] Creating layer inception_5b/relu_3x3
I0403 15:01:30.909025  2562 net.cpp:91] Creating Layer inception_5b/relu_3x3
I0403 15:01:30.909042  2562 net.cpp:425] inception_5b/relu_3x3 <- inception_5b/3x3
I0403 15:01:30.909060  2562 net.cpp:386] inception_5b/relu_3x3 -> inception_5b/3x3 (in-place)
I0403 15:01:30.909363  2562 net.cpp:141] Setting up inception_5b/relu_3x3
I0403 15:01:30.909389  2562 net.cpp:148] Top shape: 24 384 7 7 (451584)
I0403 15:01:30.909404  2562 net.cpp:156] Memory required for data: 1334273568
I0403 15:01:30.909418  2562 layer_factory.hpp:77] Creating layer inception_5b/5x5_reduce
I0403 15:01:30.909456  2562 net.cpp:91] Creating Layer inception_5b/5x5_reduce
I0403 15:01:30.909474  2562 net.cpp:425] inception_5b/5x5_reduce <- inception_5a/output_inception_5a/output_0_split_2
I0403 15:01:30.909497  2562 net.cpp:399] inception_5b/5x5_reduce -> inception_5b/5x5_reduce
I0403 15:01:30.910784  2562 net.cpp:141] Setting up inception_5b/5x5_reduce
I0403 15:01:30.910811  2562 net.cpp:148] Top shape: 24 48 7 7 (56448)
I0403 15:01:30.910826  2562 net.cpp:156] Memory required for data: 1334499360
I0403 15:01:30.910845  2562 layer_factory.hpp:77] Creating layer inception_5b/relu_5x5_reduce
I0403 15:01:30.910864  2562 net.cpp:91] Creating Layer inception_5b/relu_5x5_reduce
I0403 15:01:30.910881  2562 net.cpp:425] inception_5b/relu_5x5_reduce <- inception_5b/5x5_reduce
I0403 15:01:30.910899  2562 net.cpp:386] inception_5b/relu_5x5_reduce -> inception_5b/5x5_reduce (in-place)
I0403 15:01:30.911304  2562 net.cpp:141] Setting up inception_5b/relu_5x5_reduce
I0403 15:01:30.911331  2562 net.cpp:148] Top shape: 24 48 7 7 (56448)
I0403 15:01:30.911347  2562 net.cpp:156] Memory required for data: 1334725152
I0403 15:01:30.911363  2562 layer_factory.hpp:77] Creating layer inception_5b/5x5
I0403 15:01:30.911383  2562 net.cpp:91] Creating Layer inception_5b/5x5
I0403 15:01:30.911401  2562 net.cpp:425] inception_5b/5x5 <- inception_5b/5x5_reduce
I0403 15:01:30.911420  2562 net.cpp:399] inception_5b/5x5 -> inception_5b/5x5
I0403 15:01:30.913583  2562 net.cpp:141] Setting up inception_5b/5x5
I0403 15:01:30.913611  2562 net.cpp:148] Top shape: 24 128 7 7 (150528)
I0403 15:01:30.913627  2562 net.cpp:156] Memory required for data: 1335327264
I0403 15:01:30.913645  2562 layer_factory.hpp:77] Creating layer inception_5b/relu_5x5
I0403 15:01:30.913666  2562 net.cpp:91] Creating Layer inception_5b/relu_5x5
I0403 15:01:30.913681  2562 net.cpp:425] inception_5b/relu_5x5 <- inception_5b/5x5
I0403 15:01:30.913698  2562 net.cpp:386] inception_5b/relu_5x5 -> inception_5b/5x5 (in-place)
I0403 15:01:30.913895  2562 net.cpp:141] Setting up inception_5b/relu_5x5
I0403 15:01:30.913920  2562 net.cpp:148] Top shape: 24 128 7 7 (150528)
I0403 15:01:30.913935  2562 net.cpp:156] Memory required for data: 1335929376
I0403 15:01:30.913949  2562 layer_factory.hpp:77] Creating layer inception_5b/pool
I0403 15:01:30.913966  2562 net.cpp:91] Creating Layer inception_5b/pool
I0403 15:01:30.913982  2562 net.cpp:425] inception_5b/pool <- inception_5a/output_inception_5a/output_0_split_3
I0403 15:01:30.914002  2562 net.cpp:399] inception_5b/pool -> inception_5b/pool
I0403 15:01:30.914077  2562 net.cpp:141] Setting up inception_5b/pool
I0403 15:01:30.914099  2562 net.cpp:148] Top shape: 24 832 7 7 (978432)
I0403 15:01:30.914113  2562 net.cpp:156] Memory required for data: 1339843104
I0403 15:01:30.914129  2562 layer_factory.hpp:77] Creating layer inception_5b/pool_proj
I0403 15:01:30.914152  2562 net.cpp:91] Creating Layer inception_5b/pool_proj
I0403 15:01:30.914170  2562 net.cpp:425] inception_5b/pool_proj <- inception_5b/pool
I0403 15:01:30.914196  2562 net.cpp:399] inception_5b/pool_proj -> inception_5b/pool_proj
I0403 15:01:30.916620  2562 net.cpp:141] Setting up inception_5b/pool_proj
I0403 15:01:30.916649  2562 net.cpp:148] Top shape: 24 128 7 7 (150528)
I0403 15:01:30.916666  2562 net.cpp:156] Memory required for data: 1340445216
I0403 15:01:30.916683  2562 layer_factory.hpp:77] Creating layer inception_5b/relu_pool_proj
I0403 15:01:30.916704  2562 net.cpp:91] Creating Layer inception_5b/relu_pool_proj
I0403 15:01:30.916723  2562 net.cpp:425] inception_5b/relu_pool_proj <- inception_5b/pool_proj
I0403 15:01:30.916741  2562 net.cpp:386] inception_5b/relu_pool_proj -> inception_5b/pool_proj (in-place)
I0403 15:01:30.917049  2562 net.cpp:141] Setting up inception_5b/relu_pool_proj
I0403 15:01:30.917075  2562 net.cpp:148] Top shape: 24 128 7 7 (150528)
I0403 15:01:30.917091  2562 net.cpp:156] Memory required for data: 1341047328
I0403 15:01:30.917106  2562 layer_factory.hpp:77] Creating layer inception_5b/output
I0403 15:01:30.917125  2562 net.cpp:91] Creating Layer inception_5b/output
I0403 15:01:30.917156  2562 net.cpp:425] inception_5b/output <- inception_5b/1x1
I0403 15:01:30.917176  2562 net.cpp:425] inception_5b/output <- inception_5b/3x3
I0403 15:01:30.917199  2562 net.cpp:425] inception_5b/output <- inception_5b/5x5
I0403 15:01:30.917217  2562 net.cpp:425] inception_5b/output <- inception_5b/pool_proj
I0403 15:01:30.917234  2562 net.cpp:399] inception_5b/output -> inception_5b/output
I0403 15:01:30.917289  2562 net.cpp:141] Setting up inception_5b/output
I0403 15:01:30.917314  2562 net.cpp:148] Top shape: 24 1024 7 7 (1204224)
I0403 15:01:30.917328  2562 net.cpp:156] Memory required for data: 1345864224
I0403 15:01:30.917342  2562 layer_factory.hpp:77] Creating layer pool5/7x7_s1
I0403 15:01:30.917361  2562 net.cpp:91] Creating Layer pool5/7x7_s1
I0403 15:01:30.917376  2562 net.cpp:425] pool5/7x7_s1 <- inception_5b/output
I0403 15:01:30.917397  2562 net.cpp:399] pool5/7x7_s1 -> pool5/7x7_s1
I0403 15:01:30.917621  2562 net.cpp:141] Setting up pool5/7x7_s1
I0403 15:01:30.917647  2562 net.cpp:148] Top shape: 24 1024 1 1 (24576)
I0403 15:01:30.917665  2562 net.cpp:156] Memory required for data: 1345962528
I0403 15:01:30.917680  2562 layer_factory.hpp:77] Creating layer pool5/drop_7x7_s1
I0403 15:01:30.917700  2562 net.cpp:91] Creating Layer pool5/drop_7x7_s1
I0403 15:01:30.917716  2562 net.cpp:425] pool5/drop_7x7_s1 <- pool5/7x7_s1
I0403 15:01:30.917733  2562 net.cpp:386] pool5/drop_7x7_s1 -> pool5/7x7_s1 (in-place)
I0403 15:01:30.917790  2562 net.cpp:141] Setting up pool5/drop_7x7_s1
I0403 15:01:30.917814  2562 net.cpp:148] Top shape: 24 1024 1 1 (24576)
I0403 15:01:30.917827  2562 net.cpp:156] Memory required for data: 1346060832
I0403 15:01:30.917842  2562 layer_factory.hpp:77] Creating layer loss3/classifier_plantvillage
I0403 15:01:30.917865  2562 net.cpp:91] Creating Layer loss3/classifier_plantvillage
I0403 15:01:30.917881  2562 net.cpp:425] loss3/classifier_plantvillage <- pool5/7x7_s1
I0403 15:01:30.917901  2562 net.cpp:399] loss3/classifier_plantvillage -> loss3/classifier_plantvillage
I0403 15:01:30.918350  2562 net.cpp:141] Setting up loss3/classifier_plantvillage
I0403 15:01:30.918376  2562 net.cpp:148] Top shape: 24 38 (912)
I0403 15:01:30.918391  2562 net.cpp:156] Memory required for data: 1346064480
I0403 15:01:30.918409  2562 layer_factory.hpp:77] Creating layer loss3/classifier_plantvillage_loss3/classifier_plantvillage_0_split
I0403 15:01:30.918427  2562 net.cpp:91] Creating Layer loss3/classifier_plantvillage_loss3/classifier_plantvillage_0_split
I0403 15:01:30.918444  2562 net.cpp:425] loss3/classifier_plantvillage_loss3/classifier_plantvillage_0_split <- loss3/classifier_plantvillage
I0403 15:01:30.918465  2562 net.cpp:399] loss3/classifier_plantvillage_loss3/classifier_plantvillage_0_split -> loss3/classifier_plantvillage_loss3/classifier_plantvillage_0_split_0
I0403 15:01:30.918488  2562 net.cpp:399] loss3/classifier_plantvillage_loss3/classifier_plantvillage_0_split -> loss3/classifier_plantvillage_loss3/classifier_plantvillage_0_split_1
I0403 15:01:30.918509  2562 net.cpp:399] loss3/classifier_plantvillage_loss3/classifier_plantvillage_0_split -> loss3/classifier_plantvillage_loss3/classifier_plantvillage_0_split_2
I0403 15:01:30.918530  2562 net.cpp:399] loss3/classifier_plantvillage_loss3/classifier_plantvillage_0_split -> loss3/classifier_plantvillage_loss3/classifier_plantvillage_0_split_3
I0403 15:01:30.918638  2562 net.cpp:141] Setting up loss3/classifier_plantvillage_loss3/classifier_plantvillage_0_split
I0403 15:01:30.918663  2562 net.cpp:148] Top shape: 24 38 (912)
I0403 15:01:30.918681  2562 net.cpp:148] Top shape: 24 38 (912)
I0403 15:01:30.918697  2562 net.cpp:148] Top shape: 24 38 (912)
I0403 15:01:30.918712  2562 net.cpp:148] Top shape: 24 38 (912)
I0403 15:01:30.918726  2562 net.cpp:156] Memory required for data: 1346079072
I0403 15:01:30.918740  2562 layer_factory.hpp:77] Creating layer loss1/loss
I0403 15:01:30.918762  2562 net.cpp:91] Creating Layer loss1/loss
I0403 15:01:30.918779  2562 net.cpp:425] loss1/loss <- loss1/classifier_plantvillage_loss1/classifier_plantvillage_0_split_0
I0403 15:01:30.918810  2562 net.cpp:425] loss1/loss <- label_data_1_split_0
…
