…
I0403 15:41:01.458750  3367 net.cpp:313] The NetState phase (1) differed from the phase (0) specified by a rule in layer data
I0403 15:41:01.459868  3367 net.cpp:49] Initializing net from parameters: 
state {
  phase: TEST
}
layer {
  name: "data"
  type: "Data"
  top: "data"
  top: "label"
  include {
    phase: TEST
  }
  transform_param {
    mirror: false
    crop_size: 224
    mean_file: "/home/mohanty/data/final_dataset/lmdb/segmented-60-40/mean.binaryproto"
  }
  data_param {
    source: "/home/mohanty/data/final_dataset/lmdb/segmented-60-40/test_db"
    batch_size: 24
    backend: LMDB
  }
}
layer {
  name: "conv1/7x7_s2"
  type: "Convolution"
  bottom: "data"
  top: "conv1/7x7_s2"
  param {
    lr_mult: 1
    decay_mult: 1
  }
  param {
    lr_mult: 2
    decay_mult: 0
  }
  convolution_param {
    num_output: 64
    pad: 3
    kernel_size: 7
    stride: 2
    weight_filler {
      type: "xavier"
      std: 0.1
    }
    bias_filler {
      type: "constant"
      value: 0.2
    }
  }
}
layer {
  name: "conv1/relu_7x7"
  type: "ReLU"
  bottom: "conv1/7x7_s2"
  top: "conv1/7x7_s2"
}
layer {
  name: "pool1/3x3_s2"
  type: "Pooling"
  bottom: "conv1/7x7_s2"
  top: "pool1/3x3_s2"
  pooling_param {
    pool: MAX
    kernel_size: 3
    stride: 2
  }
}
layer {
  name: "pool1/norm1"
  type: "LRN"
  bottom: "pool1/3x3_s2"
  top: "pool1/norm1"
  lrn_param {
    local_size: 5
    alpha: 0.0001
    beta: 0.75
  }
}
layer {
  name: "conv2/3x3_reduce"
  type: "Convolution"
  bottom: "pool1/norm1"
  top: "conv2/3x3_reduce"
  param {
    lr_mult: 1
    decay_mult: 1
  }
  param {
    lr_mult: 2
    decay_mult: 0
  }
  convolution_param {
    num_output: 64
    kernel_size: 1
    weight_filler {
      type: "xavier"
      std: 0.1
    }
    bias_filler {
      type: "constant"
      value: 0.2
    }
  }
}
layer {
  name: "conv2/relu_3x3_reduce"
  type: "ReLU"
  bottom: "conv2/3x3_reduce"
  top: "conv2/3x3_reduce"
}
layer {
  name: "conv2/3x3"
  type: "Convolution"
  bottom: "conv2/3x3_reduce"
  top: "conv2/3x3"
  param {
    lr_mult: 1
    decay_mult: 1
  }
  param {
    lr_mult: 2
    decay_mult: 0
  }
  convolution_param {
    num_output: 192
    pad: 1
    kernel_size: 3
    weight_filler {
      type: "xavier"
      std: 0.03
    }
    bias_filler {
      type: "constant"
      value: 0.2
    }
  }
}
layer {
  name: "conv2/relu_3x3"
  type: "ReLU"
  bottom: "conv2/3x3"
  top: "conv2/3x3"
}
layer {
  name: "conv2/norm2"
  type: "LRN"
  bottom: "conv2/3x3"
  top: "conv2/norm2"
  lrn_param {
    local_size: 5
    alpha: 0.0001
    beta: 0.75
  }
}
layer {
  name: "pool2/3x3_s2"
  type: "Pooling"
  bottom: "conv2/norm2"
  top: "pool2/3x3_s2"
  pooling_param {
    pool: MAX
    kernel_size: 3
    stride: 2
  }
}
layer {
  name: "inception_3a/1x1"
  type: "Convolution"
  bottom: "pool2/3x3_s2"
  top: "inception_3a/1x1"
  param {
    lr_mult: 1
    decay_mult: 1
  }
  param {
    lr_mult: 2
    decay_mult: 0
  }
  convolution_param {
    num_output: 64
    kernel_size: 1
    weight_filler {
      type: "xavier"
      std: 0.03
    }
    bias_filler {
      type: "constant"
      value: 0.2
    }
  }
}
layer {
  name: "inception_3a/relu_1x1"
  type: "ReLU"
  bottom: "inception_3a/1x1"
  top: "inception_3a/1x1"
}
layer {
  name: "inception_3a/3x3_reduce"
  type: "Convolution"
  bottom: "pool2/3x3_s2"
  top: "inception_3a/3x3_reduce"
  param {
    lr_mult: 1
    decay_mult: 1
  }
  param {
    lr_mult: 2
    decay_mult: 0
  }
  convolution_param {
    num_output: 96
    kernel_size: 1
    weight_filler {
      type: "xavier"
      std: 0.09
    }
    bias_filler {
      type: "constant"
      value: 0.2
    }
  }
}
layer {
  name: "inception_3a/relu_3x3_reduce"
  type: "ReLU"
  bottom: "inception_3a/3x3_reduce"
  top: "inception_3a/3x3_reduce"
}
layer {
  name: "inception_3a/3x3"
  type: "Convolution"
  bottom: "inception_3a/3x3_reduce"
  top: "inception_3a/3x3"
  param {
    lr_mult: 1
    decay_mult: 1
  }
  param {
    lr_mult: 2
    decay_mult: 0
  }
  convolution_param {
    num_output: 128
    pad: 1
    kernel_size: 3
    weight_filler {
      type: "xavier"
      std: 0.03
    }
    bias_filler {
      type: "constant"
      value: 0.2
    }
  }
}
layer {
  name: "inception_3a/relu_3x3"
  type: "ReLU"
  bottom: "inception_3a/3x3"
  top: "inception_3a/3x3"
}
layer {
  name: "inception_3a/5x5_reduce"
  type: "Convolution"
  bottom: "pool2/3x3_s2"
  top: "inception_3a/5x5_reduce"
  param {
    lr_mult: 1
    decay_mult: 1
  }
  param {
    lr_mult: 2
    decay_mult: 0
  }
  convolution_param {
    num_output: 16
    kernel_size: 1
    weight_filler {
      type: "xavier"
      std: 0.2
    }
    bias_filler {
      type: "constant"
      value: 0.2
    }
  }
}
layer {
  name: "inception_3a/relu_5x5_reduce"
  type: "ReLU"
  bottom: "inception_3a/5x5_reduce"
  top: "inception_3a/5x5_reduce"
}
layer {
  name: "inception_3a/5x5"
  type: "Convolution"
  bottom: "inception_3a/5x5_reduce"
  top: "inception_3a/5x5"
  param {
    lr_mult: 1
    decay_mult: 1
  }
  param {
    lr_mult: 2
    decay_mult: 0
  }
  convolution_param {
    num_output: 32
    pad: 2
    kernel_size: 5
    weight_filler {
      type: "xavier"
      std: 0.03
    }
    bias_filler {
      type: "constant"
      value: 0.2
    }
  }
}
layer {
  name: "inception_3a/relu_5x5"
  type: "ReLU"
  bottom: "inception_3a/5x5"
  top: "inception_3a/5x5"
}
layer {
  name: "inception_3a/pool"
  type: "Pooling"
  bottom: "pool2/3x3_s2"
  top: "inception_3a/pool"
  pooling_param {
    pool: MAX
    kernel_size: 3
    stride: 1
    pad: 1
  }
}
layer {
  name: "inception_3a/pool_proj"
  type: "Convolution"
  bottom: "inception_3a/pool"
  top: "inception_3a/pool_proj"
  param {
    lr_mult: 1
    decay_mult: 1
  }
  param {
    lr_mult: 2
    decay_mult: 0
  }
  convolution_param {
    num_output: 32
    kernel_size: 1
    weight_filler {
      type: "xavier"
      std: 0.1
    }
    bias_filler {
      type: "constant"
      value: 0.2
    }
  }
}
layer {
  name: "inception_3a/relu_pool_proj"
  type: "ReLU"
  bottom: "inception_3a/pool_proj"
  top: "inception_3a/pool_proj"
}
layer {
  name: "inception_3a/output"
  type: "Concat"
  bottom: "inception_3a/1x1"
  bottom: "inception_3a/3x3"
  bottom: "inception_3a/5x5"
  bottom: "inception_3a/pool_proj"
  top: "inception_3a/output"
}
layer {
  name: "inception_3b/1x1"
  type: "Convolution"
  bottom: "inception_3a/output"
  top: "inception_3b/1x1"
  param {
    lr_mult: 1
    decay_mult: 1
  }
  param {
    lr_mult: 2
    decay_mult: 0
  }
  convolution_param {
    num_output: 128
    kernel_size: 1
    weight_filler {
      type: "xavier"
      std: 0.03
    }
    bias_filler {
      type: "constant"
      value: 0.2
    }
  }
}
layer {
  name: "inception_3b/relu_1x1"
  type: "ReLU"
  bottom: "inception_3b/1x1"
  top: "inception_3b/1x1"
}
layer {
  name: "inception_3b/3x3_reduce"
  type: "Convolution"
  bottom: "inception_3a/output"
  top: "inception_3b/3x3_reduce"
  param {
    lr_mult: 1
    decay_mult: 1
  }
  param {
    lr_mult: 2
    decay_mult: 0
  }
  convolution_param {
    num_output: 128
    kernel_size: 1
    weight_filler {
      type: "xavier"
      std: 0.09
    }
    bias_filler {
      type: "constant"
      value: 0.2
    }
  }
}
layer {
  name: "inception_3b/relu_3x3_reduce"
  type: "ReLU"
  bottom: "inception_3b/3x3_reduce"
  top: "inception_3b/3x3_reduce"
}
layer {
  name: "inception_3b/3x3"
  type: "Convolution"
  bottom: "inception_3b/3x3_reduce"
  top: "inception_3b/3x3"
  param {
    lr_mult: 1
    decay_mult: 1
  }
  param {
    lr_mult: 2
    decay_mult: 0
  }
  convolution_param {
    num_output: 192
    pad: 1
    kernel_size: 3
    weight_filler {
      type: "xavier"
      std: 0.03
    }
    bias_filler {
      type: "constant"
      value: 0.2
    }
  }
}
layer {
  name: "inception_3b/relu_3x3"
  type: "ReLU"
  bottom: "inception_3b/3x3"
  top: "inception_3b/3x3"
}
layer {
  name: "inception_3b/5x5_reduce"
  type: "Convolution"
  bottom: "inception_3a/output"
  top: "inception_3b/5x5_reduce"
  param {
    lr_mult: 1
    decay_mult: 1
  }
  param {
    lr_mult: 2
    decay_mult: 0
  }
  convolution_param {
    num_output: 32
    kernel_size: 1
    weight_filler {
      type: "xavier"
      std: 0.2
    }
    bias_filler {
      type: "constant"
      value: 0.2
    }
  }
}
layer {
  name: "inception_3b/relu_5x5_reduce"
  type: "ReLU"
  bottom: "inception_3b/5x5_reduce"
  top: "inception_3b/5x5_reduce"
}
layer {
  name: "inception_3b/5x5"
  type: "Convolution"
  bottom: "inception_3b/5x5_reduce"
  top: "inception_3b/5x5"
  param {
    lr_mult: 1
    decay_mult: 1
  }
  param {
    lr_mult: 2
    decay_mult: 0
  }
  convolution_param {
    num_output: 96
    pad: 2
    kernel_size: 5
    weight_filler {
      type: "xavier"
      std: 0.03
    }
    bias_filler {
      type: "constant"
      value: 0.2
    }
  }
}
layer {
  name: "inception_3b/relu_5x5"
  type: "ReLU"
  bottom: "inception_3b/5x5"
  top: "inception_3b/5x5"
}
layer {
  name: "inception_3b/pool"
  type: "Pooling"
  bottom: "inception_3a/output"
  top: "inception_3b/pool"
  pooling_param {
    pool: MAX
    kernel_size: 3
    stride: 1
    pad: 1
  }
}
layer {
  name: "inception_3b/pool_proj"
  type: "Convolution"
  bottom: "inception_3b/pool"
  top: "inception_3b/pool_proj"
  param {
    lr_mult: 1
    decay_mult: 1
  }
  param {
    lr_mult: 2
    decay_mult: 0
  }
  convolution_param {
    num_output: 64
    kernel_size: 1
    weight_filler {
      type: "xavier"
      std: 0.1
    }
    bias_filler {
      type: "constant"
      value: 0.2
    }
  }
}
layer {
  name: "inception_3b/relu_pool_proj"
  type: "ReLU"
  bottom: "inception_3b/pool_proj"
  top: "inception_3b/pool_proj"
}
layer {
  name: "inception_3b/output"
  type: "Concat"
  bottom: "inception_3b/1x1"
  bottom: "inception_3b/3x3"
  bottom: "inception_3b/5x5"
  bottom: "inception_3b/pool_proj"
  top: "inception_3b/output"
}
layer {
  name: "pool3/3x3_s2"
  type: "Pooling"
  bottom: "inception_3b/output"
  top: "pool3/3x3_s2"
  pooling_param {
    pool: MAX
    kernel_size: 3
    stride: 2
  }
}
layer {
  name: "inception_4a/1x1"
  type: "Convolution"
  bottom: "pool3/3x3_s2"
  top: "inception_4a/1x1"
  param {
    lr_mult: 1
    decay_mult: 1
  }
  param {
    lr_mult: 2
    decay_mult: 0
  }
  convolution_param {
    num_output: 192
    kernel_size: 1
    weight_filler {
      type: "xavier"
      std: 0.03
    }
    bias_filler {
      type: "constant"
      value: 0.2
    }
  }
}
layer {
  name: "inception_4a/relu_1x1"
  type: "ReLU"
  bottom: "inception_4a/1x1"
  top: "inception_4a/1x1"
}
layer {
  name: "inception_4a/3x3_reduce"
  type: "Convolution"
  bottom: "pool3/3x3_s2"
  top: "inception_4a/3x3_reduce"
  param {
    lr_mult: 1
    decay_mult: 1
  }
  param {
    lr_mult: 2
    decay_mult: 0
  }
  convolution_param {
    num_output: 96
    kernel_size: 1
    weight_filler {
      type: "xavier"
      std: 0.09
    }
    bias_filler {
      type: "constant"
      value: 0.2
    }
  }
}
layer {
  name: "inception_4a/relu_3x3_reduce"
  type: "ReLU"
  bottom: "inception_4a/3x3_reduce"
  top: "inception_4a/3x3_reduce"
}
layer {
  name: "inception_4a/3x3"
  type: "Convolution"
  bottom: "inception_4a/3x3_reduce"
  top: "inception_4a/3x3"
  param {
    lr_mult: 1
    decay_mult: 1
  }
  param {
    lr_mult: 2
    decay_mult: 0
  }
  convolution_param {
    num_output: 208
    pad: 1
    kernel_size: 3
    weight_filler {
      type: "xavier"
      std: 0.03
    }
    bias_filler {
      type: "constant"
      value: 0.2
    }
  }
}
layer {
  name: "inception_4a/relu_3x3"
  type: "ReLU"
  bottom: "inception_4a/3x3"
  top: "inception_4a/3x3"
}
layer {
  name: "inception_4a/5x5_reduce"
  type: "Convolution"
  bottom: "pool3/3x3_s2"
  top: "inception_4a/5x5_reduce"
  param {
    lr_mult: 1
    decay_mult: 1
  }
  param {
    lr_mult: 2
    decay_mult: 0
  }
  convolution_param {
    num_output: 16
    kernel_size: 1
    weight_filler {
      type: "xavier"
      std: 0.2
    }
    bias_filler {
      type: "constant"
      value: 0.2
    }
  }
}
layer {
  name: "inception_4a/relu_5x5_reduce"
  type: "ReLU"
  bottom: "inception_4a/5x5_reduce"
  top: "inception_4a/5x5_reduce"
}
layer {
  name: "inception_4a/5x5"
  type: "Convolution"
  bottom: "inception_4a/5x5_reduce"
  top: "inception_4a/5x5"
  param {
    lr_mult: 1
    decay_mult: 1
  }
  param {
    lr_mult: 2
    decay_mult: 0
  }
  convolution_param {
    num_output: 48
    pad: 2
    kernel_size: 5
    weight_filler {
      type: "xavier"
      std: 0.03
    }
    bias_filler {
      type: "constant"
      value: 0.2
    }
  }
}
layer {
  name: "inception_4a/relu_5x5"
  type: "ReLU"
  bottom: "inception_4a/5x5"
  top: "inception_4a/5x5"
}
layer {
  name: "inception_4a/pool"
  type: "Pooling"
  bottom: "pool3/3x3_s2"
  top: "inception_4a/pool"
  pooling_param {
    pool: MAX
    kernel_size: 3
    stride: 1
    pad: 1
  }
}
layer {
  name: "inception_4a/pool_proj"
  type: "Convolution"
  bottom: "inception_4a/pool"
  top: "inception_4a/pool_proj"
  param {
    lr_mult: 1
    decay_mult: 1
  }
  param {
    lr_mult: 2
    decay_mult: 0
  }
  convolution_param {
    num_output: 64
    kernel_size: 1
    weight_filler {
      type: "xavier"
      std: 0.1
    }
    bias_filler {
      type: "constant"
      value: 0.2
    }
  }
}
layer {
  name: "inception_4a/relu_pool_proj"
  type: "ReLU"
  bottom: "inception_4a/pool_proj"
  top: "inception_4a/pool_proj"
}
layer {
  name: "inception_4a/output"
  type: "Concat"
  bottom: "inception_4a/1x1"
  bottom: "inception_4a/3x3"
  bottom: "inception_4a/5x5"
  bottom: "inception_4a/pool_proj"
  top: "inception_4a/output"
}
layer {
  name: "loss1/ave_pool"
  type: "Pooling"
  bottom: "inception_4a/output"
  top: "loss1/ave_pool"
  pooling_param {
    pool: AVE
    kernel_size: 5
    stride: 3
  }
}
layer {
  name: "loss1/conv"
  type: "Convolution"
  bottom: "loss1/ave_pool"
  top: "loss1/conv"
  param {
    lr_mult: 1
    decay_mult: 1
  }
  param {
    lr_mult: 2
    decay_mult: 0
  }
  convolution_param {
    num_output: 128
    kernel_size: 1
    weight_filler {
      type: "xavier"
      std: 0.08
    }
    bias_filler {
      type: "constant"
      value: 0.2
    }
  }
}
layer {
  name: "loss1/relu_conv"
  type: "ReLU"
  bottom: "loss1/conv"
  top: "loss1/conv"
}
layer {
  name: "loss1/fc"
  type: "InnerProduct"
  bottom: "loss1/conv"
  top: "loss1/fc"
  param {
    lr_mult: 1
    decay_mult: 1
  }
  param {
    lr_mult: 2
    decay_mult: 0
  }
  inner_product_param {
    num_output: 1024
    weight_filler {
      type: "xavier"
      std: 0.02
    }
    bias_filler {
      type: "constant"
      value: 0.2
    }
  }
}
layer {
  name: "loss1/relu_fc"
  type: "ReLU"
  bottom: "loss1/fc"
  top: "loss1/fc"
}
layer {
  name: "loss1/drop_fc"
  type: "Dropout"
  bottom: "loss1/fc"
  top: "loss1/fc"
  dropout_param {
    dropout_ratio: 0.7
  }
}
layer {
  name: "loss1/classifier_plantvillage"
  type: "InnerProduct"
  bottom: "loss1/fc"
  top: "loss1/classifier_plantvillage"
  param {
    lr_mult: 1
    decay_mult: 1
  }
  param {
    lr_mult: 2
    decay_mult: 0
  }
  inner_product_param {
    num_output: 38
    weight_filler {
      type: "xavier"
      std: 0.0009765625
    }
    bias_filler {
      type: "constant"
      value: 0
    }
  }
}
layer {
  name: "inception_4b/1x1"
  type: "Convolution"
  bottom: "inception_4a/output"
  top: "inception_4b/1x1"
  param {
    lr_mult: 1
    decay_mult: 1
  }
  param {
    lr_mult: 2
    decay_mult: 0
  }
  convolution_param {
    num_output: 160
    kernel_size: 1
    weight_filler {
      type: "xavier"
      std: 0.03
    }
    bias_filler {
      type: "constant"
      value: 0.2
    }
  }
}
layer {
  name: "inception_4b/relu_1x1"
  type: "ReLU"
  bottom: "inception_4b/1x1"
  top: "inception_4b/1x1"
}
layer {
  name: "inception_4b/3x3_reduce"
  type: "Convolution"
  bottom: "inception_4a/output"
  top: "inception_4b/3x3_reduce"
  param {
    lr_mult: 1
    decay_mult: 1
  }
  param {
    lr_mult: 2
    decay_mult: 0
  }
  convolution_param {
    num_output: 112
    kernel_size: 1
    weight_filler {
      type: "xavier"
      std: 0.09
    }
    bias_filler {
      type: "constant"
      value: 0.2
    }
  }
}
layer {
  name: "inception_4b/relu_3x3_reduce"
  type: "ReLU"
  bottom: "inception_4b/3x3_reduce"
  top: "inception_4b/3x3_reduce"
}
layer {
  name: "inception_4b/3x3"
  type: "Convolution"
  bottom: "inception_4b/3x3_reduce"
  top: "inception_4b/3x3"
  param {
    lr_mult: 1
    decay_mult: 1
  }
  param {
    lr_mult: 2
    decay_mult: 0
  }
  convolution_param {
    num_output: 224
    pad: 1
    kernel_size: 3
    weight_filler {
      type: "xavier"
      std: 0.03
    }
    bias_filler {
      type: "constant"
      value: 0.2
    }
  }
}
layer {
  name: "inception_4b/relu_3x3"
  type: "ReLU"
  bottom: "inception_4b/3x3"
  top: "inception_4b/3x3"
}
layer {
  name: "inception_4b/5x5_reduce"
  type: "Convolution"
  bottom: "inception_4a/output"
  top: "inception_4b/5x5_reduce"
  param {
    lr_mult: 1
    decay_mult: 1
  }
  param {
    lr_mult: 2
    decay_mult: 0
  }
  convolution_param {
    num_output: 24
    kernel_size: 1
    weight_filler {
      type: "xavier"
      std: 0.2
    }
    bias_filler {
      type: "constant"
      value: 0.2
    }
  }
}
layer {
  name: "inception_4b/relu_5x5_reduce"
  type: "ReLU"
  bottom: "inception_4b/5x5_reduce"
  top: "inception_4b/5x5_reduce"
}
layer {
  name: "inception_4b/5x5"
  type: "Convolution"
  bottom: "inception_4b/5x5_reduce"
  top: "inception_4b/5x5"
  param {
    lr_mult: 1
    decay_mult: 1
  }
  param {
    lr_mult: 2
    decay_mult: 0
  }
  convolution_param {
    num_output: 64
    pad: 2
    kernel_size: 5
    weight_filler {
      type: "xavier"
      std: 0.03
    }
    bias_filler {
      type: "constant"
      value: 0.2
    }
  }
}
layer {
  name: "inception_4b/relu_5x5"
  type: "ReLU"
  bottom: "inception_4b/5x5"
  top: "inception_4b/5x5"
}
layer {
  name: "inception_4b/pool"
  type: "Pooling"
  bottom: "inception_4a/output"
  top: "inception_4b/pool"
  pooling_param {
    pool: MAX
    kernel_size: 3
    stride: 1
    pad: 1
  }
}
layer {
  name: "inception_4b/pool_proj"
  type: "Convolution"
  bottom: "inception_4b/pool"
  top: "inception_4b/pool_proj"
  param {
    lr_mult: 1
    decay_mult: 1
  }
  param {
    lr_mult: 2
    decay_mult: 0
  }
  convolution_param {
    num_output: 64
    kernel_size: 1
    weight_filler {
      type: "xavier"
      std: 0.1
    }
    bias_filler {
      type: "constant"
      value: 0.2
    }
  }
}
layer {
  name: "inception_4b/relu_pool_proj"
  type: "ReLU"
  bottom: "inception_4b/pool_proj"
  top: "inception_4b/pool_proj"
}
layer {
  name: "inception_4b/output"
  type: "Concat"
  bottom: "inception_4b/1x1"
  bottom: "inception_4b/3x3"
  bottom: "inception_4b/5x5"
  bottom: "inception_4b/pool_proj"
  top: "inception_4b/output"
}
layer {
  name: "inception_4c/1x1"
  type: "Convolution"
  bottom: "inception_4b/output"
  top: "inception_4c/1x1"
  param {
    lr_mult: 1
    decay_mult: 1
  }
  param {
    lr_mult: 2
    decay_mult: 0
  }
  convolution_param {
    num_output: 128
    kernel_size: 1
    weight_filler {
      type: "xavier"
      std: 0.03
    }
    bias_filler {
      type: "constant"
      value: 0.2
    }
  }
}
layer {
  name: "inception_4c/relu_1x1"
  type: "ReLU"
  bottom: "inception_4c/1x1"
  top: "inception_4c/1x1"
}
layer {
  name: "inception_4c/3x3_reduce"
  type: "Convolution"
  bottom: "inception_4b/output"
  top: "inception_4c/3x3_reduce"
  param {
    lr_mult: 1
    decay_mult: 1
  }
  param {
    lr_mult: 2
    decay_mult: 0
  }
  convolution_param {
    num_output: 128
    kernel_size: 1
    weight_filler {
      type: "xavier"
      std: 0.09
    }
    bias_filler {
      type: "constant"
      value: 0.2
    }
  }
}
layer {
  name: "inception_4c/relu_3x3_reduce"
  type: "ReLU"
  bottom: "inception_4c/3x3_reduce"
  top: "inception_4c/3x3_reduce"
}
layer {
  name: "inception_4c/3x3"
  type: "Convolution"
  bottom: "inception_4c/3x3_reduce"
  top: "inception_4c/3x3"
  param {
    lr_mult: 1
    decay_mult: 1
  }
  param {
    lr_mult: 2
    decay_mult: 0
  }
  convolution_param {
    num_output: 256
    pad: 1
    kernel_size: 3
    weight_filler {
      type: "xavier"
      std: 0.03
    }
    bias_filler {
      type: "constant"
      value: 0.2
    }
  }
}
layer {
  name: "inception_4c/relu_3x3"
  type: "ReLU"
  bottom: "inception_4c/3x3"
  top: "inception_4c/3x3"
}
layer {
  name: "inception_4c/5x5_reduce"
  type: "Convolution"
  bottom: "inception_4b/output"
  top: "inception_4c/5x5_reduce"
  param {
    lr_mult: 1
    decay_mult: 1
  }
  param {
    lr_mult: 2
    decay_mult: 0
  }
  convolution_param {
    num_output: 24
    kernel_size: 1
    weight_filler {
      type: "xavier"
      std: 0.2
    }
    bias_filler {
      type: "constant"
      value: 0.2
    }
  }
}
layer {
  name: "inception_4c/relu_5x5_reduce"
  type: "ReLU"
  bottom: "inception_4c/5x5_reduce"
  top: "inception_4c/5x5_reduce"
}
layer {
  name: "inception_4c/5x5"
  type: "Convolution"
  bottom: "inception_4c/5x5_reduce"
  top: "inception_4c/5x5"
  param {
    lr_mult: 1
    decay_mult: 1
  }
  param {
    lr_mult: 2
    decay_mult: 0
  }
  convolution_param {
    num_output: 64
    pad: 2
    kernel_size: 5
    weight_filler {
      type: "xavier"
      std: 0.03
    }
    bias_filler {
      type: "constant"
      value: 0.2
    }
  }
}
layer {
  name: "inception_4c/relu_5x5"
  type: "ReLU"
  bottom: "inception_4c/5x5"
  top: "inception_4c/5x5"
}
layer {
  name: "inception_4c/pool"
  type: "Pooling"
  bottom: "inception_4b/output"
  top: "inception_4c/pool"
  pooling_param {
    pool: MAX
    kernel_size: 3
    stride: 1
    pad: 1
  }
}
layer {
  name: "inception_4c/pool_proj"
  type: "Convolution"
  bottom: "inception_4c/pool"
  top: "inception_4c/pool_proj"
  param {
    lr_mult: 1
    decay_mult: 1
  }
  param {
    lr_mult: 2
    decay_mult: 0
  }
  convolution_param {
    num_output: 64
    kernel_size: 1
    weight_filler {
      type: "xavier"
      std: 0.1
    }
    bias_filler {
      type: "constant"
      value: 0.2
    }
  }
}
layer {
  name: "inception_4c/relu_pool_proj"
  type: "ReLU"
  bottom: "inception_4c/pool_proj"
  top: "inception_4c/pool_proj"
}
layer {
  name: "inception_4c/output"
  type: "Concat"
  bottom: "inception_4c/1x1"
  bottom: "inception_4c/3x3"
  bottom: "inception_4c/5x5"
  bottom: "inception_4c/pool_proj"
  top: "inception_4c/output"
}
layer {
  name: "inception_4d/1x1"
  type: "Convolution"
  bottom: "inception_4c/output"
  top: "inception_4d/1x1"
  param {
    lr_mult: 1
    decay_mult: 1
  }
  param {
    lr_mult: 2
    decay_mult: 0
  }
  convolution_param {
    num_output: 112
    kernel_size: 1
    weight_filler {
      type: "xavier"
      std: 0.03
    }
    bias_filler {
      type: "constant"
      value: 0.2
    }
  }
}
layer {
  name: "inception_4d/relu_1x1"
  type: "ReLU"
  bottom: "inception_4d/1x1"
  top: "inception_4d/1x1"
}
layer {
  name: "inception_4d/3x3_reduce"
  type: "Convolution"
  bottom: "inception_4c/output"
  top: "inception_4d/3x3_reduce"
  param {
    lr_mult: 1
    decay_mult: 1
  }
  param {
    lr_mult: 2
    decay_mult: 0
  }
  convolution_param {
    num_output: 144
    kernel_size: 1
    weight_filler {
      type: "xavier"
      std: 0.09
    }
    bias_filler {
      type: "constant"
      value: 0.2
    }
  }
}
layer {
  name: "inception_4d/relu_3x3_reduce"
  type: "ReLU"
  bottom: "inception_4d/3x3_reduce"
  top: "inception_4d/3x3_reduce"
}
layer {
  name: "inception_4d/3x3"
  type: "Convolution"
  bottom: "inception_4d/3x3_reduce"
  top: "inception_4d/3x3"
  param {
    lr_mult: 1
    decay_mult: 1
  }
  param {
    lr_mult: 2
    decay_mult: 0
  }
  convolution_param {
    num_output: 288
    pad: 1
    kernel_size: 3
    weight_filler {
      type: "xavier"
      std: 0.03
    }
    bias_filler {
      type: "constant"
      value: 0.2
    }
  }
}
layer {
  name: "inception_4d/relu_3x3"
  type: "ReLU"
  bottom: "inception_4d/3x3"
  top: "inception_4d/3x3"
}
layer {
  name: "inception_4d/5x5_reduce"
  type: "Convolution"
  bottom: "inception_4c/output"
  top: "inception_4d/5x5_reduce"
  param {
    lr_mult: 1
    decay_mult: 1
  }
  param {
    lr_mult: 2
    decay_mult: 0
  }
  convolution_param {
    num_output: 32
    kernel_size: 1
    weight_filler {
      type: "xavier"
      std: 0.2
    }
    bias_filler {
      type: "constant"
      value: 0.2
    }
  }
}
layer {
  name: "inception_4d/relu_5x5_reduce"
  type: "ReLU"
  bottom: "inception_4d/5x5_reduce"
  top: "inception_4d/5x5_reduce"
}
layer {
  name: "inception_4d/5x5"
  type: "Convolution"
  bottom: "inception_4d/5x5_reduce"
  top: "inception_4d/5x5"
  param {
    lr_mult: 1
    decay_mult: 1
  }
  param {
    lr_mult: 2
    decay_mult: 0
  }
  convolution_param {
    num_output: 64
    pad: 2
    kernel_size: 5
    weight_filler {
      type: "xavier"
      std: 0.03
    }
    bias_filler {
      type: "constant"
      value: 0.2
    }
  }
}
layer {
  name: "inception_4d/relu_5x5"
  type: "ReLU"
  bottom: "inception_4d/5x5"
  top: "inception_4d/5x5"
}
layer {
  name: "inception_4d/pool"
  type: "Pooling"
  bottom: "inception_4c/output"
  top: "inception_4d/pool"
  pooling_param {
    pool: MAX
    kernel_size: 3
    stride: 1
    pad: 1
  }
}
layer {
  name: "inception_4d/pool_proj"
  type: "Convolution"
  bottom: "inception_4d/pool"
  top: "inception_4d/pool_proj"
  param {
    lr_mult: 1
    decay_mult: 1
  }
  param {
    lr_mult: 2
    decay_mult: 0
  }
  convolution_param {
    num_output: 64
    kernel_size: 1
    weight_filler {
      type: "xavier"
      std: 0.1
    }
    bias_filler {
      type: "constant"
      value: 0.2
    }
  }
}
layer {
  name: "inception_4d/relu_pool_proj"
  type: "ReLU"
  bottom: "inception_4d/pool_proj"
  top: "inception_4d/pool_proj"
}
layer {
  name: "inception_4d/output"
  type: "Concat"
  bottom: "inception_4d/1x1"
  bottom: "inception_4d/3x3"
  bottom: "inception_4d/5x5"
  bottom: "inception_4d/pool_proj"
  top: "inception_4d/output"
}
layer {
  name: "loss2/ave_pool"
  type: "Pooling"
  bottom: "inception_4d/output"
  top: "loss2/ave_pool"
  pooling_param {
    pool: AVE
    kernel_size: 5
    stride: 3
  }
}
layer {
  name: "loss2/conv"
  type: "Convolution"
  bottom: "loss2/ave_pool"
  top: "loss2/conv"
  param {
    lr_mult: 1
    decay_mult: 1
  }
  param {
    lr_mult: 2
    decay_mult: 0
  }
  convolution_param {
    num_output: 128
    kernel_size: 1
    weight_filler {
      type: "xavier"
      std: 0.08
    }
    bias_filler {
      type: "constant"
      value: 0.2
    }
  }
}
layer {
  name: "loss2/relu_conv"
  type: "ReLU"
  bottom: "loss2/conv"
  top: "loss2/conv"
}
layer {
  name: "loss2/fc"
  type: "InnerProduct"
  bottom: "loss2/conv"
  top: "loss2/fc"
  param {
    lr_mult: 1
    decay_mult: 1
  }
  param {
    lr_mult: 2
    decay_mult: 0
  }
  inner_product_param {
    num_output: 1024
    weight_filler {
      type: "xavier"
      std: 0.02
    }
    bias_filler {
      type: "constant"
      value: 0.2
    }
  }
}
layer {
  name: "loss2/relu_fc"
  type: "ReLU"
  bottom: "loss2/fc"
  top: "loss2/fc"
}
layer {
  name: "loss2/drop_fc"
  type: "Dropout"
  bottom: "loss2/fc"
  top: "loss2/fc"
  dropout_param {
    dropout_ratio: 0.7
  }
}
layer {
  name: "loss2/classifier_plantvillage"
  type: "InnerProduct"
  bottom: "loss2/fc"
  top: "loss2/classifier_plantvillage"
  param {
    lr_mult: 1
    decay_mult: 1
  }
  param {
    lr_mult: 2
    decay_mult: 0
  }
  inner_product_param {
    num_output: 38
    weight_filler {
      type: "xavier"
      std: 0.0009765625
    }
    bias_filler {
      type: "constant"
      value: 0
    }
  }
}
layer {
  name: "inception_4e/1x1"
  type: "Convolution"
  bottom: "inception_4d/output"
  top: "inception_4e/1x1"
  param {
    lr_mult: 1
    decay_mult: 1
  }
  param {
    lr_mult: 2
    decay_mult: 0
  }
  convolution_param {
    num_output: 256
    kernel_size: 1
    weight_filler {
      type: "xavier"
      std: 0.03
    }
    bias_filler {
      type: "constant"
      value: 0.2
    }
  }
}
layer {
  name: "inception_4e/relu_1x1"
  type: "ReLU"
  bottom: "inception_4e/1x1"
  top: "inception_4e/1x1"
}
layer {
  name: "inception_4e/3x3_reduce"
  type: "Convolution"
  bottom: "inception_4d/output"
  top: "inception_4e/3x3_reduce"
  param {
    lr_mult: 1
    decay_mult: 1
  }
  param {
    lr_mult: 2
    decay_mult: 0
  }
  convolution_param {
    num_output: 160
    kernel_size: 1
    weight_filler {
      type: "xavier"
      std: 0.09
    }
    bias_filler {
      type: "constant"
      value: 0.2
    }
  }
}
layer {
  name: "inception_4e/relu_3x3_reduce"
  type: "ReLU"
  bottom: "inception_4e/3x3_reduce"
  top: "inception_4e/3x3_reduce"
}
layer {
  name: "inception_4e/3x3"
  type: "Convolution"
  bottom: "inception_4e/3x3_reduce"
  top: "inception_4e/3x3"
  param {
    lr_mult: 1
    decay_mult: 1
  }
  param {
    lr_mult: 2
    decay_mult: 0
  }
  convolution_param {
    num_output: 320
    pad: 1
    kernel_size: 3
    weight_filler {
      type: "xavier"
      std: 0.03
    }
    bias_filler {
      type: "constant"
      value: 0.2
    }
  }
}
layer {
  name: "inception_4e/relu_3x3"
  type: "ReLU"
  bottom: "inception_4e/3x3"
  top: "inception_4e/3x3"
}
layer {
  name: "inception_4e/5x5_reduce"
  type: "Convolution"
  bottom: "inception_4d/output"
  top: "inception_4e/5x5_reduce"
  param {
    lr_mult: 1
    decay_mult: 1
  }
  param {
    lr_mult: 2
    decay_mult: 0
  }
  convolution_param {
    num_output: 32
    kernel_size: 1
    weight_filler {
      type: "xavier"
      std: 0.2
    }
    bias_filler {
      type: "constant"
      value: 0.2
    }
  }
}
layer {
  name: "inception_4e/relu_5x5_reduce"
  type: "ReLU"
  bottom: "inception_4e/5x5_reduce"
  top: "inception_4e/5x5_reduce"
}
layer {
  name: "inception_4e/5x5"
  type: "Convolution"
  bottom: "inception_4e/5x5_reduce"
  top: "inception_4e/
I0403 15:41:01.461174  3367 layer_factory.hpp:77] Creating layer data
I0403 15:41:01.461769  3367 net.cpp:91] Creating Layer data
I0403 15:41:01.461799  3367 net.cpp:399] data -> data
I0403 15:41:01.461849  3367 net.cpp:399] data -> label
I0403 15:41:01.461885  3367 data_transformer.cpp:25] Loading mean file from: /home/mohanty/data/final_dataset/lmdb/segmented-60-40/mean.binaryproto
I0403 15:41:01.464692  3372 db_lmdb.cpp:38] Opened lmdb /home/mohanty/data/final_dataset/lmdb/segmented-60-40/test_db
I0403 15:41:01.474968  3367 data_layer.cpp:41] output data size: 24,3,224,224
I0403 15:41:01.502279  3367 net.cpp:141] Setting up data
I0403 15:41:01.502378  3367 net.cpp:148] Top shape: 24 3 224 224 (3612672)
I0403 15:41:01.502401  3367 net.cpp:148] Top shape: 24 (24)
I0403 15:41:01.502416  3367 net.cpp:156] Memory required for data: 14450784
I0403 15:41:01.502444  3367 layer_factory.hpp:77] Creating layer label_data_1_split
I0403 15:41:01.502472  3367 net.cpp:91] Creating Layer label_data_1_split
I0403 15:41:01.502490  3367 net.cpp:425] label_data_1_split <- label
I0403 15:41:01.502521  3367 net.cpp:399] label_data_1_split -> label_data_1_split_0
I0403 15:41:01.502549  3367 net.cpp:399] label_data_1_split -> label_data_1_split_1
I0403 15:41:01.502570  3367 net.cpp:399] label_data_1_split -> label_data_1_split_2
I0403 15:41:01.502591  3367 net.cpp:399] label_data_1_split -> label_data_1_split_3
I0403 15:41:01.502611  3367 net.cpp:399] label_data_1_split -> label_data_1_split_4
I0403 15:41:01.502630  3367 net.cpp:399] label_data_1_split -> label_data_1_split_5
I0403 15:41:01.502650  3367 net.cpp:399] label_data_1_split -> label_data_1_split_6
I0403 15:41:01.502671  3367 net.cpp:399] label_data_1_split -> label_data_1_split_7
I0403 15:41:01.502691  3367 net.cpp:399] label_data_1_split -> label_data_1_split_8
I0403 15:41:01.502712  3367 net.cpp:399] label_data_1_split -> label_data_1_split_9
I0403 15:41:01.502826  3367 net.cpp:141] Setting up label_data_1_split
I0403 15:41:01.502849  3367 net.cpp:148] Top shape: 24 (24)
I0403 15:41:01.502866  3367 net.cpp:148] Top shape: 24 (24)
I0403 15:41:01.502882  3367 net.cpp:148] Top shape: 24 (24)
I0403 15:41:01.502897  3367 net.cpp:148] Top shape: 24 (24)
I0403 15:41:01.502912  3367 net.cpp:148] Top shape: 24 (24)
I0403 15:41:01.502926  3367 net.cpp:148] Top shape: 24 (24)
I0403 15:41:01.502943  3367 net.cpp:148] Top shape: 24 (24)
I0403 15:41:01.502957  3367 net.cpp:148] Top shape: 24 (24)
I0403 15:41:01.502972  3367 net.cpp:148] Top shape: 24 (24)
I0403 15:41:01.502987  3367 net.cpp:148] Top shape: 24 (24)
I0403 15:41:01.503047  3367 net.cpp:156] Memory required for data: 14451744
I0403 15:41:01.503063  3367 layer_factory.hpp:77] Creating layer conv1/7x7_s2
I0403 15:41:01.503095  3367 net.cpp:91] Creating Layer conv1/7x7_s2
I0403 15:41:01.503114  3367 net.cpp:425] conv1/7x7_s2 <- data
I0403 15:41:01.503134  3367 net.cpp:399] conv1/7x7_s2 -> conv1/7x7_s2
I0403 15:41:01.639451  3367 net.cpp:141] Setting up conv1/7x7_s2
I0403 15:41:01.639515  3367 net.cpp:148] Top shape: 24 64 112 112 (19267584)
I0403 15:41:01.639533  3367 net.cpp:156] Memory required for data: 91522080
I0403 15:41:01.639564  3367 layer_factory.hpp:77] Creating layer conv1/relu_7x7
I0403 15:41:01.639591  3367 net.cpp:91] Creating Layer conv1/relu_7x7
I0403 15:41:01.639611  3367 net.cpp:425] conv1/relu_7x7 <- conv1/7x7_s2
I0403 15:41:01.639628  3367 net.cpp:386] conv1/relu_7x7 -> conv1/7x7_s2 (in-place)
I0403 15:41:01.639878  3367 net.cpp:141] Setting up conv1/relu_7x7
I0403 15:41:01.639904  3367 net.cpp:148] Top shape: 24 64 112 112 (19267584)
I0403 15:41:01.639919  3367 net.cpp:156] Memory required for data: 168592416
I0403 15:41:01.639935  3367 layer_factory.hpp:77] Creating layer pool1/3x3_s2
I0403 15:41:01.639958  3367 net.cpp:91] Creating Layer pool1/3x3_s2
I0403 15:41:01.639976  3367 net.cpp:425] pool1/3x3_s2 <- conv1/7x7_s2
I0403 15:41:01.639994  3367 net.cpp:399] pool1/3x3_s2 -> pool1/3x3_s2
I0403 15:41:01.640066  3367 net.cpp:141] Setting up pool1/3x3_s2
I0403 15:41:01.640089  3367 net.cpp:148] Top shape: 24 64 56 56 (4816896)
I0403 15:41:01.640105  3367 net.cpp:156] Memory required for data: 187860000
I0403 15:41:01.640120  3367 layer_factory.hpp:77] Creating layer pool1/norm1
I0403 15:41:01.640148  3367 net.cpp:91] Creating Layer pool1/norm1
I0403 15:41:01.640166  3367 net.cpp:425] pool1/norm1 <- pool1/3x3_s2
I0403 15:41:01.640184  3367 net.cpp:399] pool1/norm1 -> pool1/norm1
I0403 15:41:01.640475  3367 net.cpp:141] Setting up pool1/norm1
I0403 15:41:01.640502  3367 net.cpp:148] Top shape: 24 64 56 56 (4816896)
I0403 15:41:01.640517  3367 net.cpp:156] Memory required for data: 207127584
I0403 15:41:01.640532  3367 layer_factory.hpp:77] Creating layer conv2/3x3_reduce
I0403 15:41:01.640558  3367 net.cpp:91] Creating Layer conv2/3x3_reduce
I0403 15:41:01.640576  3367 net.cpp:425] conv2/3x3_reduce <- pool1/norm1
I0403 15:41:01.640597  3367 net.cpp:399] conv2/3x3_reduce -> conv2/3x3_reduce
I0403 15:41:01.641978  3367 net.cpp:141] Setting up conv2/3x3_reduce
I0403 15:41:01.642007  3367 net.cpp:148] Top shape: 24 64 56 56 (4816896)
I0403 15:41:01.642022  3367 net.cpp:156] Memory required for data: 226395168
I0403 15:41:01.642042  3367 layer_factory.hpp:77] Creating layer conv2/relu_3x3_reduce
I0403 15:41:01.642061  3367 net.cpp:91] Creating Layer conv2/relu_3x3_reduce
I0403 15:41:01.642076  3367 net.cpp:425] conv2/relu_3x3_reduce <- conv2/3x3_reduce
I0403 15:41:01.642096  3367 net.cpp:386] conv2/relu_3x3_reduce -> conv2/3x3_reduce (in-place)
I0403 15:41:01.642369  3367 net.cpp:141] Setting up conv2/relu_3x3_reduce
I0403 15:41:01.642396  3367 net.cpp:148] Top shape: 24 64 56 56 (4816896)
I0403 15:41:01.642412  3367 net.cpp:156] Memory required for data: 245662752
I0403 15:41:01.642426  3367 layer_factory.hpp:77] Creating layer conv2/3x3
I0403 15:41:01.642451  3367 net.cpp:91] Creating Layer conv2/3x3
I0403 15:41:01.642468  3367 net.cpp:425] conv2/3x3 <- conv2/3x3_reduce
I0403 15:41:01.642490  3367 net.cpp:399] conv2/3x3 -> conv2/3x3
I0403 15:41:01.644834  3367 net.cpp:141] Setting up conv2/3x3
I0403 15:41:01.644866  3367 net.cpp:148] Top shape: 24 192 56 56 (14450688)
I0403 15:41:01.644883  3367 net.cpp:156] Memory required for data: 303465504
I0403 15:41:01.644906  3367 layer_factory.hpp:77] Creating layer conv2/relu_3x3
I0403 15:41:01.644924  3367 net.cpp:91] Creating Layer conv2/relu_3x3
I0403 15:41:01.644940  3367 net.cpp:425] conv2/relu_3x3 <- conv2/3x3
I0403 15:41:01.644960  3367 net.cpp:386] conv2/relu_3x3 -> conv2/3x3 (in-place)
I0403 15:41:01.645135  3367 net.cpp:141] Setting up conv2/relu_3x3
I0403 15:41:01.645161  3367 net.cpp:148] Top shape: 24 192 56 56 (14450688)
I0403 15:41:01.645206  3367 net.cpp:156] Memory required for data: 361268256
I0403 15:41:01.645227  3367 layer_factory.hpp:77] Creating layer conv2/norm2
I0403 15:41:01.645249  3367 net.cpp:91] Creating Layer conv2/norm2
I0403 15:41:01.645267  3367 net.cpp:425] conv2/norm2 <- conv2/3x3
I0403 15:41:01.645284  3367 net.cpp:399] conv2/norm2 -> conv2/norm2
I0403 15:41:01.645593  3367 net.cpp:141] Setting up conv2/norm2
I0403 15:41:01.645622  3367 net.cpp:148] Top shape: 24 192 56 56 (14450688)
I0403 15:41:01.645639  3367 net.cpp:156] Memory required for data: 419071008
I0403 15:41:01.645654  3367 layer_factory.hpp:77] Creating layer pool2/3x3_s2
I0403 15:41:01.645673  3367 net.cpp:91] Creating Layer pool2/3x3_s2
I0403 15:41:01.645690  3367 net.cpp:425] pool2/3x3_s2 <- conv2/norm2
I0403 15:41:01.645714  3367 net.cpp:399] pool2/3x3_s2 -> pool2/3x3_s2
I0403 15:41:01.645767  3367 net.cpp:141] Setting up pool2/3x3_s2
I0403 15:41:01.645792  3367 net.cpp:148] Top shape: 24 192 28 28 (3612672)
I0403 15:41:01.645807  3367 net.cpp:156] Memory required for data: 433521696
I0403 15:41:01.645822  3367 layer_factory.hpp:77] Creating layer pool2/3x3_s2_pool2/3x3_s2_0_split
I0403 15:41:01.645843  3367 net.cpp:91] Creating Layer pool2/3x3_s2_pool2/3x3_s2_0_split
I0403 15:41:01.645859  3367 net.cpp:425] pool2/3x3_s2_pool2/3x3_s2_0_split <- pool2/3x3_s2
I0403 15:41:01.645876  3367 net.cpp:399] pool2/3x3_s2_pool2/3x3_s2_0_split -> pool2/3x3_s2_pool2/3x3_s2_0_split_0
I0403 15:41:01.645896  3367 net.cpp:399] pool2/3x3_s2_pool2/3x3_s2_0_split -> pool2/3x3_s2_pool2/3x3_s2_0_split_1
I0403 15:41:01.645916  3367 net.cpp:399] pool2/3x3_s2_pool2/3x3_s2_0_split -> pool2/3x3_s2_pool2/3x3_s2_0_split_2
I0403 15:41:01.645941  3367 net.cpp:399] pool2/3x3_s2_pool2/3x3_s2_0_split -> pool2/3x3_s2_pool2/3x3_s2_0_split_3
I0403 15:41:01.646015  3367 net.cpp:141] Setting up pool2/3x3_s2_pool2/3x3_s2_0_split
I0403 15:41:01.646039  3367 net.cpp:148] Top shape: 24 192 28 28 (3612672)
I0403 15:41:01.646055  3367 net.cpp:148] Top shape: 24 192 28 28 (3612672)
I0403 15:41:01.646071  3367 net.cpp:148] Top shape: 24 192 28 28 (3612672)
I0403 15:41:01.646087  3367 net.cpp:148] Top shape: 24 192 28 28 (3612672)
I0403 15:41:01.646101  3367 net.cpp:156] Memory required for data: 491324448
I0403 15:41:01.646116  3367 layer_factory.hpp:77] Creating layer inception_3a/1x1
I0403 15:41:01.646138  3367 net.cpp:91] Creating Layer inception_3a/1x1
I0403 15:41:01.646157  3367 net.cpp:425] inception_3a/1x1 <- pool2/3x3_s2_pool2/3x3_s2_0_split_0
I0403 15:41:01.646178  3367 net.cpp:399] inception_3a/1x1 -> inception_3a/1x1
I0403 15:41:01.647739  3367 net.cpp:141] Setting up inception_3a/1x1
I0403 15:41:01.647773  3367 net.cpp:148] Top shape: 24 64 28 28 (1204224)
I0403 15:41:01.647790  3367 net.cpp:156] Memory required for data: 496141344
I0403 15:41:01.647809  3367 layer_factory.hpp:77] Creating layer inception_3a/relu_1x1
I0403 15:41:01.647830  3367 net.cpp:91] Creating Layer inception_3a/relu_1x1
I0403 15:41:01.647845  3367 net.cpp:425] inception_3a/relu_1x1 <- inception_3a/1x1
I0403 15:41:01.647864  3367 net.cpp:386] inception_3a/relu_1x1 -> inception_3a/1x1 (in-place)
I0403 15:41:01.648039  3367 net.cpp:141] Setting up inception_3a/relu_1x1
I0403 15:41:01.648066  3367 net.cpp:148] Top shape: 24 64 28 28 (1204224)
I0403 15:41:01.648080  3367 net.cpp:156] Memory required for data: 500958240
I0403 15:41:01.648094  3367 layer_factory.hpp:77] Creating layer inception_3a/3x3_reduce
I0403 15:41:01.648118  3367 net.cpp:91] Creating Layer inception_3a/3x3_reduce
I0403 15:41:01.648135  3367 net.cpp:425] inception_3a/3x3_reduce <- pool2/3x3_s2_pool2/3x3_s2_0_split_1
I0403 15:41:01.648157  3367 net.cpp:399] inception_3a/3x3_reduce -> inception_3a/3x3_reduce
I0403 15:41:01.649886  3367 net.cpp:141] Setting up inception_3a/3x3_reduce
I0403 15:41:01.649917  3367 net.cpp:148] Top shape: 24 96 28 28 (1806336)
I0403 15:41:01.649935  3367 net.cpp:156] Memory required for data: 508183584
I0403 15:41:01.649957  3367 layer_factory.hpp:77] Creating layer inception_3a/relu_3x3_reduce
I0403 15:41:01.649996  3367 net.cpp:91] Creating Layer inception_3a/relu_3x3_reduce
I0403 15:41:01.650017  3367 net.cpp:425] inception_3a/relu_3x3_reduce <- inception_3a/3x3_reduce
I0403 15:41:01.650035  3367 net.cpp:386] inception_3a/relu_3x3_reduce -> inception_3a/3x3_reduce (in-place)
I0403 15:41:01.650221  3367 net.cpp:141] Setting up inception_3a/relu_3x3_reduce
I0403 15:41:01.650251  3367 net.cpp:148] Top shape: 24 96 28 28 (1806336)
I0403 15:41:01.650266  3367 net.cpp:156] Memory required for data: 515408928
I0403 15:41:01.650281  3367 layer_factory.hpp:77] Creating layer inception_3a/3x3
I0403 15:41:01.650305  3367 net.cpp:91] Creating Layer inception_3a/3x3
I0403 15:41:01.650322  3367 net.cpp:425] inception_3a/3x3 <- inception_3a/3x3_reduce
I0403 15:41:01.650341  3367 net.cpp:399] inception_3a/3x3 -> inception_3a/3x3
I0403 15:41:01.652025  3367 net.cpp:141] Setting up inception_3a/3x3
I0403 15:41:01.652055  3367 net.cpp:148] Top shape: 24 128 28 28 (2408448)
I0403 15:41:01.652070  3367 net.cpp:156] Memory required for data: 525042720
I0403 15:41:01.652091  3367 layer_factory.hpp:77] Creating layer inception_3a/relu_3x3
I0403 15:41:01.652110  3367 net.cpp:91] Creating Layer inception_3a/relu_3x3
I0403 15:41:01.652128  3367 net.cpp:425] inception_3a/relu_3x3 <- inception_3a/3x3
I0403 15:41:01.652148  3367 net.cpp:386] inception_3a/relu_3x3 -> inception_3a/3x3 (in-place)
I0403 15:41:01.652431  3367 net.cpp:141] Setting up inception_3a/relu_3x3
I0403 15:41:01.652461  3367 net.cpp:148] Top shape: 24 128 28 28 (2408448)
I0403 15:41:01.652477  3367 net.cpp:156] Memory required for data: 534676512
I0403 15:41:01.652493  3367 layer_factory.hpp:77] Creating layer inception_3a/5x5_reduce
I0403 15:41:01.652518  3367 net.cpp:91] Creating Layer inception_3a/5x5_reduce
I0403 15:41:01.652536  3367 net.cpp:425] inception_3a/5x5_reduce <- pool2/3x3_s2_pool2/3x3_s2_0_split_2
I0403 15:41:01.652557  3367 net.cpp:399] inception_3a/5x5_reduce -> inception_3a/5x5_reduce
I0403 15:41:01.653542  3367 net.cpp:141] Setting up inception_3a/5x5_reduce
I0403 15:41:01.653571  3367 net.cpp:148] Top shape: 24 16 28 28 (301056)
I0403 15:41:01.653587  3367 net.cpp:156] Memory required for data: 535880736
I0403 15:41:01.653607  3367 layer_factory.hpp:77] Creating layer inception_3a/relu_5x5_reduce
I0403 15:41:01.653628  3367 net.cpp:91] Creating Layer inception_3a/relu_5x5_reduce
I0403 15:41:01.653647  3367 net.cpp:425] inception_3a/relu_5x5_reduce <- inception_3a/5x5_reduce
I0403 15:41:01.653666  3367 net.cpp:386] inception_3a/relu_5x5_reduce -> inception_3a/5x5_reduce (in-place)
I0403 15:41:01.653964  3367 net.cpp:141] Setting up inception_3a/relu_5x5_reduce
I0403 15:41:01.653991  3367 net.cpp:148] Top shape: 24 16 28 28 (301056)
I0403 15:41:01.654007  3367 net.cpp:156] Memory required for data: 537084960
I0403 15:41:01.654024  3367 layer_factory.hpp:77] Creating layer inception_3a/5x5
I0403 15:41:01.654048  3367 net.cpp:91] Creating Layer inception_3a/5x5
I0403 15:41:01.654067  3367 net.cpp:425] inception_3a/5x5 <- inception_3a/5x5_reduce
I0403 15:41:01.654088  3367 net.cpp:399] inception_3a/5x5 -> inception_3a/5x5
I0403 15:41:01.655153  3367 net.cpp:141] Setting up inception_3a/5x5
I0403 15:41:01.655184  3367 net.cpp:148] Top shape: 24 32 28 28 (602112)
I0403 15:41:01.655200  3367 net.cpp:156] Memory required for data: 539493408
I0403 15:41:01.655225  3367 layer_factory.hpp:77] Creating layer inception_3a/relu_5x5
I0403 15:41:01.655246  3367 net.cpp:91] Creating Layer inception_3a/relu_5x5
I0403 15:41:01.655264  3367 net.cpp:425] inception_3a/relu_5x5 <- inception_3a/5x5
I0403 15:41:01.655285  3367 net.cpp:386] inception_3a/relu_5x5 -> inception_3a/5x5 (in-place)
I0403 15:41:01.655460  3367 net.cpp:141] Setting up inception_3a/relu_5x5
I0403 15:41:01.655488  3367 net.cpp:148] Top shape: 24 32 28 28 (602112)
I0403 15:41:01.655503  3367 net.cpp:156] Memory required for data: 541901856
I0403 15:41:01.655519  3367 layer_factory.hpp:77] Creating layer inception_3a/pool
I0403 15:41:01.655539  3367 net.cpp:91] Creating Layer inception_3a/pool
I0403 15:41:01.655570  3367 net.cpp:425] inception_3a/pool <- pool2/3x3_s2_pool2/3x3_s2_0_split_3
I0403 15:41:01.655591  3367 net.cpp:399] inception_3a/pool -> inception_3a/pool
I0403 15:41:01.655653  3367 net.cpp:141] Setting up inception_3a/pool
I0403 15:41:01.655679  3367 net.cpp:148] Top shape: 24 192 28 28 (3612672)
I0403 15:41:01.655694  3367 net.cpp:156] Memory required for data: 556352544
I0403 15:41:01.655709  3367 layer_factory.hpp:77] Creating layer inception_3a/pool_proj
I0403 15:41:01.655731  3367 net.cpp:91] Creating Layer inception_3a/pool_proj
I0403 15:41:01.655750  3367 net.cpp:425] inception_3a/pool_proj <- inception_3a/pool
I0403 15:41:01.655772  3367 net.cpp:399] inception_3a/pool_proj -> inception_3a/pool_proj
I0403 15:41:01.656755  3367 net.cpp:141] Setting up inception_3a/pool_proj
I0403 15:41:01.656785  3367 net.cpp:148] Top shape: 24 32 28 28 (602112)
I0403 15:41:01.656802  3367 net.cpp:156] Memory required for data: 558760992
I0403 15:41:01.656827  3367 layer_factory.hpp:77] Creating layer inception_3a/relu_pool_proj
I0403 15:41:01.656849  3367 net.cpp:91] Creating Layer inception_3a/relu_pool_proj
I0403 15:41:01.656867  3367 net.cpp:425] inception_3a/relu_pool_proj <- inception_3a/pool_proj
I0403 15:41:01.656886  3367 net.cpp:386] inception_3a/relu_pool_proj -> inception_3a/pool_proj (in-place)
I0403 15:41:01.657168  3367 net.cpp:141] Setting up inception_3a/relu_pool_proj
I0403 15:41:01.657196  3367 net.cpp:148] Top shape: 24 32 28 28 (602112)
I0403 15:41:01.657215  3367 net.cpp:156] Memory required for data: 561169440
I0403 15:41:01.657232  3367 layer_factory.hpp:77] Creating layer inception_3a/output
I0403 15:41:01.657250  3367 net.cpp:91] Creating Layer inception_3a/output
I0403 15:41:01.657266  3367 net.cpp:425] inception_3a/output <- inception_3a/1x1
I0403 15:41:01.657284  3367 net.cpp:425] inception_3a/output <- inception_3a/3x3
I0403 15:41:01.657299  3367 net.cpp:425] inception_3a/output <- inception_3a/5x5
I0403 15:41:01.657315  3367 net.cpp:425] inception_3a/output <- inception_3a/pool_proj
I0403 15:41:01.657335  3367 net.cpp:399] inception_3a/output -> inception_3a/output
I0403 15:41:01.657382  3367 net.cpp:141] Setting up inception_3a/output
I0403 15:41:01.657408  3367 net.cpp:148] Top shape: 24 256 28 28 (4816896)
I0403 15:41:01.657425  3367 net.cpp:156] Memory required for data: 580437024
I0403 15:41:01.657440  3367 layer_factory.hpp:77] Creating layer inception_3a/output_inception_3a/output_0_split
I0403 15:41:01.657459  3367 net.cpp:91] Creating Layer inception_3a/output_inception_3a/output_0_split
I0403 15:41:01.657474  3367 net.cpp:425] inception_3a/output_inception_3a/output_0_split <- inception_3a/output
I0403 15:41:01.657493  3367 net.cpp:399] inception_3a/output_inception_3a/output_0_split -> inception_3a/output_inception_3a/output_0_split_0
I0403 15:41:01.657515  3367 net.cpp:399] inception_3a/output_inception_3a/output_0_split -> inception_3a/output_inception_3a/output_0_split_1
I0403 15:41:01.657537  3367 net.cpp:399] inception_3a/output_inception_3a/output_0_split -> inception_3a/output_inception_3a/output_0_split_2
I0403 15:41:01.657558  3367 net.cpp:399] inception_3a/output_inception_3a/output_0_split -> inception_3a/output_inception_3a/output_0_split_3
I0403 15:41:01.657634  3367 net.cpp:141] Setting up inception_3a/output_inception_3a/output_0_split
I0403 15:41:01.657657  3367 net.cpp:148] Top shape: 24 256 28 28 (4816896)
I0403 15:41:01.657675  3367 net.cpp:148] Top shape: 24 256 28 28 (4816896)
I0403 15:41:01.657691  3367 net.cpp:148] Top shape: 24 256 28 28 (4816896)
I0403 15:41:01.657707  3367 net.cpp:148] Top shape: 24 256 28 28 (4816896)
I0403 15:41:01.657721  3367 net.cpp:156] Memory required for data: 657507360
I0403 15:41:01.657735  3367 layer_factory.hpp:77] Creating layer inception_3b/1x1
I0403 15:41:01.657757  3367 net.cpp:91] Creating Layer inception_3b/1x1
I0403 15:41:01.657776  3367 net.cpp:425] inception_3b/1x1 <- inception_3a/output_inception_3a/output_0_split_0
I0403 15:41:01.657798  3367 net.cpp:399] inception_3b/1x1 -> inception_3b/1x1
I0403 15:41:01.658963  3367 net.cpp:141] Setting up inception_3b/1x1
I0403 15:41:01.659008  3367 net.cpp:148] Top shape: 24 128 28 28 (2408448)
I0403 15:41:01.659027  3367 net.cpp:156] Memory required for data: 667141152
I0403 15:41:01.659046  3367 layer_factory.hpp:77] Creating layer inception_3b/relu_1x1
I0403 15:41:01.659065  3367 net.cpp:91] Creating Layer inception_3b/relu_1x1
I0403 15:41:01.659082  3367 net.cpp:425] inception_3b/relu_1x1 <- inception_3b/1x1
I0403 15:41:01.659102  3367 net.cpp:386] inception_3b/relu_1x1 -> inception_3b/1x1 (in-place)
I0403 15:41:01.659292  3367 net.cpp:141] Setting up inception_3b/relu_1x1
I0403 15:41:01.659319  3367 net.cpp:148] Top shape: 24 128 28 28 (2408448)
I0403 15:41:01.659334  3367 net.cpp:156] Memory required for data: 676774944
I0403 15:41:01.659349  3367 layer_factory.hpp:77] Creating layer inception_3b/3x3_reduce
I0403 15:41:01.659373  3367 net.cpp:91] Creating Layer inception_3b/3x3_reduce
I0403 15:41:01.659392  3367 net.cpp:425] inception_3b/3x3_reduce <- inception_3a/output_inception_3a/output_0_split_1
I0403 15:41:01.659415  3367 net.cpp:399] inception_3b/3x3_reduce -> inception_3b/3x3_reduce
I0403 15:41:01.660583  3367 net.cpp:141] Setting up inception_3b/3x3_reduce
I0403 15:41:01.660615  3367 net.cpp:148] Top shape: 24 128 28 28 (2408448)
I0403 15:41:01.660634  3367 net.cpp:156] Memory required for data: 686408736
I0403 15:41:01.660652  3367 layer_factory.hpp:77] Creating layer inception_3b/relu_3x3_reduce
I0403 15:41:01.660671  3367 net.cpp:91] Creating Layer inception_3b/relu_3x3_reduce
I0403 15:41:01.660688  3367 net.cpp:425] inception_3b/relu_3x3_reduce <- inception_3b/3x3_reduce
I0403 15:41:01.660708  3367 net.cpp:386] inception_3b/relu_3x3_reduce -> inception_3b/3x3_reduce (in-place)
I0403 15:41:01.660884  3367 net.cpp:141] Setting up inception_3b/relu_3x3_reduce
I0403 15:41:01.660912  3367 net.cpp:148] Top shape: 24 128 28 28 (2408448)
I0403 15:41:01.660926  3367 net.cpp:156] Memory required for data: 696042528
I0403 15:41:01.660943  3367 layer_factory.hpp:77] Creating layer inception_3b/3x3
I0403 15:41:01.660969  3367 net.cpp:91] Creating Layer inception_3b/3x3
I0403 15:41:01.660989  3367 net.cpp:425] inception_3b/3x3 <- inception_3b/3x3_reduce
I0403 15:41:01.661010  3367 net.cpp:399] inception_3b/3x3 -> inception_3b/3x3
I0403 15:41:01.664031  3367 net.cpp:141] Setting up inception_3b/3x3
I0403 15:41:01.664062  3367 net.cpp:148] Top shape: 24 192 28 28 (3612672)
I0403 15:41:01.664079  3367 net.cpp:156] Memory required for data: 710493216
I0403 15:41:01.664099  3367 layer_factory.hpp:77] Creating layer inception_3b/relu_3x3
I0403 15:41:01.664122  3367 net.cpp:91] Creating Layer inception_3b/relu_3x3
I0403 15:41:01.664140  3367 net.cpp:425] inception_3b/relu_3x3 <- inception_3b/3x3
I0403 15:41:01.664158  3367 net.cpp:386] inception_3b/relu_3x3 -> inception_3b/3x3 (in-place)
I0403 15:41:01.664443  3367 net.cpp:141] Setting up inception_3b/relu_3x3
I0403 15:41:01.664470  3367 net.cpp:148] Top shape: 24 192 28 28 (3612672)
I0403 15:41:01.664486  3367 net.cpp:156] Memory required for data: 724943904
I0403 15:41:01.664502  3367 layer_factory.hpp:77] Creating layer inception_3b/5x5_reduce
I0403 15:41:01.664527  3367 net.cpp:91] Creating Layer inception_3b/5x5_reduce
I0403 15:41:01.664546  3367 net.cpp:425] inception_3b/5x5_reduce <- inception_3a/output_inception_3a/output_0_split_2
I0403 15:41:01.664566  3367 net.cpp:399] inception_3b/5x5_reduce -> inception_3b/5x5_reduce
I0403 15:41:01.665583  3367 net.cpp:141] Setting up inception_3b/5x5_reduce
I0403 15:41:01.665613  3367 net.cpp:148] Top shape: 24 32 28 28 (602112)
I0403 15:41:01.665630  3367 net.cpp:156] Memory required for data: 727352352
I0403 15:41:01.665649  3367 layer_factory.hpp:77] Creating layer inception_3b/relu_5x5_reduce
I0403 15:41:01.665668  3367 net.cpp:91] Creating Layer inception_3b/relu_5x5_reduce
I0403 15:41:01.665688  3367 net.cpp:425] inception_3b/relu_5x5_reduce <- inception_3b/5x5_reduce
I0403 15:41:01.665707  3367 net.cpp:386] inception_3b/relu_5x5_reduce -> inception_3b/5x5_reduce (in-place)
I0403 15:41:01.665904  3367 net.cpp:141] Setting up inception_3b/relu_5x5_reduce
I0403 15:41:01.665931  3367 net.cpp:148] Top shape: 24 32 28 28 (602112)
I0403 15:41:01.665947  3367 net.cpp:156] Memory required for data: 729760800
I0403 15:41:01.665963  3367 layer_factory.hpp:77] Creating layer inception_3b/5x5
I0403 15:41:01.665987  3367 net.cpp:91] Creating Layer inception_3b/5x5
I0403 15:41:01.666007  3367 net.cpp:425] inception_3b/5x5 <- inception_3b/5x5_reduce
I0403 15:41:01.666029  3367 net.cpp:399] inception_3b/5x5 -> inception_3b/5x5
I0403 15:41:01.668041  3367 net.cpp:141] Setting up inception_3b/5x5
I0403 15:41:01.668074  3367 net.cpp:148] Top shape: 24 96 28 28 (1806336)
I0403 15:41:01.668092  3367 net.cpp:156] Memory required for data: 736986144
I0403 15:41:01.668112  3367 layer_factory.hpp:77] Creating layer inception_3b/relu_5x5
I0403 15:41:01.668129  3367 net.cpp:91] Creating Layer inception_3b/relu_5x5
I0403 15:41:01.668145  3367 net.cpp:425] inception_3b/relu_5x5 <- inception_3b/5x5
I0403 15:41:01.668179  3367 net.cpp:386] inception_3b/relu_5x5 -> inception_3b/5x5 (in-place)
I0403 15:41:01.668402  3367 net.cpp:141] Setting up inception_3b/relu_5x5
I0403 15:41:01.668428  3367 net.cpp:148] Top shape: 24 96 28 28 (1806336)
I0403 15:41:01.668444  3367 net.cpp:156] Memory required for data: 744211488
I0403 15:41:01.668460  3367 layer_factory.hpp:77] Creating layer inception_3b/pool
I0403 15:41:01.668479  3367 net.cpp:91] Creating Layer inception_3b/pool
I0403 15:41:01.668496  3367 net.cpp:425] inception_3b/pool <- inception_3a/output_inception_3a/output_0_split_3
I0403 15:41:01.668516  3367 net.cpp:399] inception_3b/pool -> inception_3b/pool
I0403 15:41:01.668588  3367 net.cpp:141] Setting up inception_3b/pool
I0403 15:41:01.668612  3367 net.cpp:148] Top shape: 24 256 28 28 (4816896)
I0403 15:41:01.668627  3367 net.cpp:156] Memory required for data: 763479072
I0403 15:41:01.668642  3367 layer_factory.hpp:77] Creating layer inception_3b/pool_proj
I0403 15:41:01.668665  3367 net.cpp:91] Creating Layer inception_3b/pool_proj
I0403 15:41:01.668684  3367 net.cpp:425] inception_3b/pool_proj <- inception_3b/pool
I0403 15:41:01.668704  3367 net.cpp:399] inception_3b/pool_proj -> inception_3b/pool_proj
I0403 15:41:01.669821  3367 net.cpp:141] Setting up inception_3b/pool_proj
I0403 15:41:01.669849  3367 net.cpp:148] Top shape: 24 64 28 28 (1204224)
I0403 15:41:01.669864  3367 net.cpp:156] Memory required for data: 768295968
I0403 15:41:01.669883  3367 layer_factory.hpp:77] Creating layer inception_3b/relu_pool_proj
I0403 15:41:01.669904  3367 net.cpp:91] Creating Layer inception_3b/relu_pool_proj
I0403 15:41:01.669922  3367 net.cpp:425] inception_3b/relu_pool_proj <- inception_3b/pool_proj
I0403 15:41:01.669940  3367 net.cpp:386] inception_3b/relu_pool_proj -> inception_3b/pool_proj (in-place)
I0403 15:41:01.670336  3367 net.cpp:141] Setting up inception_3b/relu_pool_proj
I0403 15:41:01.670363  3367 net.cpp:148] Top shape: 24 64 28 28 (1204224)
I0403 15:41:01.670379  3367 net.cpp:156] Memory required for data: 773112864
I0403 15:41:01.670395  3367 layer_factory.hpp:77] Creating layer inception_3b/output
I0403 15:41:01.670416  3367 net.cpp:91] Creating Layer inception_3b/output
I0403 15:41:01.670434  3367 net.cpp:425] inception_3b/output <- inception_3b/1x1
I0403 15:41:01.670451  3367 net.cpp:425] inception_3b/output <- inception_3b/3x3
I0403 15:41:01.670467  3367 net.cpp:425] inception_3b/output <- inception_3b/5x5
I0403 15:41:01.670485  3367 net.cpp:425] inception_3b/output <- inception_3b/pool_proj
I0403 15:41:01.670501  3367 net.cpp:399] inception_3b/output -> inception_3b/output
I0403 15:41:01.670547  3367 net.cpp:141] Setting up inception_3b/output
I0403 15:41:01.670570  3367 net.cpp:148] Top shape: 24 480 28 28 (9031680)
I0403 15:41:01.670585  3367 net.cpp:156] Memory required for data: 809239584
I0403 15:41:01.670600  3367 layer_factory.hpp:77] Creating layer pool3/3x3_s2
I0403 15:41:01.670617  3367 net.cpp:91] Creating Layer pool3/3x3_s2
I0403 15:41:01.670634  3367 net.cpp:425] pool3/3x3_s2 <- inception_3b/output
I0403 15:41:01.670667  3367 net.cpp:399] pool3/3x3_s2 -> pool3/3x3_s2
I0403 15:41:01.670725  3367 net.cpp:141] Setting up pool3/3x3_s2
I0403 15:41:01.670752  3367 net.cpp:148] Top shape: 24 480 14 14 (2257920)
I0403 15:41:01.670766  3367 net.cpp:156] Memory required for data: 818271264
I0403 15:41:01.670780  3367 layer_factory.hpp:77] Creating layer pool3/3x3_s2_pool3/3x3_s2_0_split
I0403 15:41:01.670796  3367 net.cpp:91] Creating Layer pool3/3x3_s2_pool3/3x3_s2_0_split
I0403 15:41:01.670811  3367 net.cpp:425] pool3/3x3_s2_pool3/3x3_s2_0_split <- pool3/3x3_s2
I0403 15:41:01.670827  3367 net.cpp:399] pool3/3x3_s2_pool3/3x3_s2_0_split -> pool3/3x3_s2_pool3/3x3_s2_0_split_0
I0403 15:41:01.670846  3367 net.cpp:399] pool3/3x3_s2_pool3/3x3_s2_0_split -> pool3/3x3_s2_pool3/3x3_s2_0_split_1
I0403 15:41:01.670868  3367 net.cpp:399] pool3/3x3_s2_pool3/3x3_s2_0_split -> pool3/3x3_s2_pool3/3x3_s2_0_split_2
I0403 15:41:01.670888  3367 net.cpp:399] pool3/3x3_s2_pool3/3x3_s2_0_split -> pool3/3x3_s2_pool3/3x3_s2_0_split_3
I0403 15:41:01.670966  3367 net.cpp:141] Setting up pool3/3x3_s2_pool3/3x3_s2_0_split
I0403 15:41:01.670989  3367 net.cpp:148] Top shape: 24 480 14 14 (2257920)
I0403 15:41:01.671005  3367 net.cpp:148] Top shape: 24 480 14 14 (2257920)
I0403 15:41:01.671020  3367 net.cpp:148] Top shape: 24 480 14 14 (2257920)
I0403 15:41:01.671036  3367 net.cpp:148] Top shape: 24 480 14 14 (2257920)
I0403 15:41:01.671049  3367 net.cpp:156] Memory required for data: 854397984
I0403 15:41:01.671063  3367 layer_factory.hpp:77] Creating layer inception_4a/1x1
I0403 15:41:01.671085  3367 net.cpp:91] Creating Layer inception_4a/1x1
I0403 15:41:01.671102  3367 net.cpp:425] inception_4a/1x1 <- pool3/3x3_s2_pool3/3x3_s2_0_split_0
I0403 15:41:01.671123  3367 net.cpp:399] inception_4a/1x1 -> inception_4a/1x1
I0403 15:41:01.672732  3367 net.cpp:141] Setting up inception_4a/1x1
I0403 15:41:01.672761  3367 net.cpp:148] Top shape: 24 192 14 14 (903168)
I0403 15:41:01.672791  3367 net.cpp:156] Memory required for data: 858010656
I0403 15:41:01.672809  3367 layer_factory.hpp:77] Creating layer inception_4a/relu_1x1
I0403 15:41:01.672829  3367 net.cpp:91] Creating Layer inception_4a/relu_1x1
I0403 15:41:01.672845  3367 net.cpp:425] inception_4a/relu_1x1 <- inception_4a/1x1
I0403 15:41:01.672863  3367 net.cpp:386] inception_4a/relu_1x1 -> inception_4a/1x1 (in-place)
I0403 15:41:01.673038  3367 net.cpp:141] Setting up inception_4a/relu_1x1
I0403 15:41:01.673063  3367 net.cpp:148] Top shape: 24 192 14 14 (903168)
I0403 15:41:01.673089  3367 net.cpp:156] Memory required for data: 861623328
I0403 15:41:01.673102  3367 layer_factory.hpp:77] Creating layer inception_4a/3x3_reduce
I0403 15:41:01.673125  3367 net.cpp:91] Creating Layer inception_4a/3x3_reduce
I0403 15:41:01.673141  3367 net.cpp:425] inception_4a/3x3_reduce <- pool3/3x3_s2_pool3/3x3_s2_0_split_1
I0403 15:41:01.673161  3367 net.cpp:399] inception_4a/3x3_reduce -> inception_4a/3x3_reduce
I0403 15:41:01.674412  3367 net.cpp:141] Setting up inception_4a/3x3_reduce
I0403 15:41:01.674442  3367 net.cpp:148] Top shape: 24 96 14 14 (451584)
I0403 15:41:01.674461  3367 net.cpp:156] Memory required for data: 863429664
I0403 15:41:01.674484  3367 layer_factory.hpp:77] Creating layer inception_4a/relu_3x3_reduce
I0403 15:41:01.674505  3367 net.cpp:91] Creating Layer inception_4a/relu_3x3_reduce
I0403 15:41:01.674522  3367 net.cpp:425] inception_4a/relu_3x3_reduce <- inception_4a/3x3_reduce
I0403 15:41:01.674540  3367 net.cpp:386] inception_4a/relu_3x3_reduce -> inception_4a/3x3_reduce (in-place)
I0403 15:41:01.674711  3367 net.cpp:141] Setting up inception_4a/relu_3x3_reduce
I0403 15:41:01.674737  3367 net.cpp:148] Top shape: 24 96 14 14 (451584)
I0403 15:41:01.674753  3367 net.cpp:156] Memory required for data: 865236000
I0403 15:41:01.674779  3367 layer_factory.hpp:77] Creating layer inception_4a/3x3
I0403 15:41:01.674801  3367 net.cpp:91] Creating Layer inception_4a/3x3
I0403 15:41:01.674819  3367 net.cpp:425] inception_4a/3x3 <- inception_4a/3x3_reduce
I0403 15:41:01.674839  3367 net.cpp:399] inception_4a/3x3 -> inception_4a/3x3
I0403 15:41:01.677454  3367 net.cpp:141] Setting up inception_4a/3x3
I0403 15:41:01.677486  3367 net.cpp:148] Top shape: 24 208 14 14 (978432)
I0403 15:41:01.677502  3367 net.cpp:156] Memory required for data: 869149728
I0403 15:41:01.677520  3367 layer_factory.hpp:77] Creating layer inception_4a/relu_3x3
I0403 15:41:01.677538  3367 net.cpp:91] Creating Layer inception_4a/relu_3x3
I0403 15:41:01.677552  3367 net.cpp:425] inception_4a/relu_3x3 <- inception_4a/3x3
I0403 15:41:01.677572  3367 net.cpp:386] inception_4a/relu_3x3 -> inception_4a/3x3 (in-place)
I0403 15:41:01.677841  3367 net.cpp:141] Setting up inception_4a/relu_3x3
I0403 15:41:01.677870  3367 net.cpp:148] Top shape: 24 208 14 14 (978432)
I0403 15:41:01.677884  3367 net.cpp:156] Memory required for data: 873063456
I0403 15:41:01.677898  3367 layer_factory.hpp:77] Creating layer inception_4a/5x5_reduce
I0403 15:41:01.677923  3367 net.cpp:91] Creating Layer inception_4a/5x5_reduce
I0403 15:41:01.677942  3367 net.cpp:425] inception_4a/5x5_reduce <- pool3/3x3_s2_pool3/3x3_s2_0_split_2
I0403 15:41:01.677960  3367 net.cpp:399] inception_4a/5x5_reduce -> inception_4a/5x5_reduce
I0403 15:41:01.678957  3367 net.cpp:141] Setting up inception_4a/5x5_reduce
I0403 15:41:01.678984  3367 net.cpp:148] Top shape: 24 16 14 14 (75264)
I0403 15:41:01.679000  3367 net.cpp:156] Memory required for data: 873364512
I0403 15:41:01.679019  3367 layer_factory.hpp:77] Creating layer inception_4a/relu_5x5_reduce
I0403 15:41:01.679039  3367 net.cpp:91] Creating Layer inception_4a/relu_5x5_reduce
I0403 15:41:01.679054  3367 net.cpp:425] inception_4a/relu_5x5_reduce <- inception_4a/5x5_reduce
I0403 15:41:01.679075  3367 net.cpp:386] inception_4a/relu_5x5_reduce -> inception_4a/5x5_reduce (in-place)
I0403 15:41:01.679253  3367 net.cpp:141] Setting up inception_4a/relu_5x5_reduce
I0403 15:41:01.679280  3367 net.cpp:148] Top shape: 24 16 14 14 (75264)
I0403 15:41:01.679294  3367 net.cpp:156] Memory required for data: 873665568
I0403 15:41:01.679308  3367 layer_factory.hpp:77] Creating layer inception_4a/5x5
I0403 15:41:01.679329  3367 net.cpp:91] Creating Layer inception_4a/5x5
I0403 15:41:01.679347  3367 net.cpp:425] inception_4a/5x5 <- inception_4a/5x5_reduce
I0403 15:41:01.679366  3367 net.cpp:399] inception_4a/5x5 -> inception_4a/5x5
I0403 15:41:01.680449  3367 net.cpp:141] Setting up inception_4a/5x5
I0403 15:41:01.680477  3367 net.cpp:148] Top shape: 24 48 14 14 (225792)
I0403 15:41:01.680495  3367 net.cpp:156] Memory required for data: 874568736
I0403 15:41:01.680512  3367 layer_factory.hpp:77] Creating layer inception_4a/relu_5x5
I0403 15:41:01.680533  3367 net.cpp:91] Creating Layer inception_4a/relu_5x5
I0403 15:41:01.680551  3367 net.cpp:425] inception_4a/relu_5x5 <- inception_4a/5x5
I0403 15:41:01.680569  3367 net.cpp:386] inception_4a/relu_5x5 -> inception_4a/5x5 (in-place)
I0403 15:41:01.680750  3367 net.cpp:141] Setting up inception_4a/relu_5x5
I0403 15:41:01.680778  3367 net.cpp:148] Top shape: 24 48 14 14 (225792)
I0403 15:41:01.680794  3367 net.cpp:156] Memory required for data: 875471904
I0403 15:41:01.680809  3367 layer_factory.hpp:77] Creating layer inception_4a/pool
I0403 15:41:01.680826  3367 net.cpp:91] Creating Layer inception_4a/pool
I0403 15:41:01.680842  3367 net.cpp:425] inception_4a/pool <- pool3/3x3_s2_pool3/3x3_s2_0_split_3
I0403 15:41:01.680863  3367 net.cpp:399] inception_4a/pool -> inception_4a/pool
I0403 15:41:01.680923  3367 net.cpp:141] Setting up inception_4a/pool
I0403 15:41:01.680948  3367 net.cpp:148] Top shape: 24 480 14 14 (2257920)
I0403 15:41:01.680963  3367 net.cpp:156] Memory required for data: 884503584
I0403 15:41:01.680976  3367 layer_factory.hpp:77] Creating layer inception_4a/pool_proj
I0403 15:41:01.680999  3367 net.cpp:91] Creating Layer inception_4a/pool_proj
I0403 15:41:01.681017  3367 net.cpp:425] inception_4a/pool_proj <- inception_4a/pool
I0403 15:41:01.681041  3367 net.cpp:399] inception_4a/pool_proj -> inception_4a/pool_proj
I0403 15:41:01.682217  3367 net.cpp:141] Setting up inception_4a/pool_proj
I0403 15:41:01.682246  3367 net.cpp:148] Top shape: 24 64 14 14 (301056)
I0403 15:41:01.682277  3367 net.cpp:156] Memory required for data: 885707808
I0403 15:41:01.682296  3367 layer_factory.hpp:77] Creating layer inception_4a/relu_pool_proj
I0403 15:41:01.682318  3367 net.cpp:91] Creating Layer inception_4a/relu_pool_proj
I0403 15:41:01.682335  3367 net.cpp:425] inception_4a/relu_pool_proj <- inception_4a/pool_proj
I0403 15:41:01.682353  3367 net.cpp:386] inception_4a/relu_pool_proj -> inception_4a/pool_proj (in-place)
I0403 15:41:01.682632  3367 net.cpp:141] Setting up inception_4a/relu_pool_proj
I0403 15:41:01.682658  3367 net.cpp:148] Top shape: 24 64 14 14 (301056)
I0403 15:41:01.682673  3367 net.cpp:156] Memory required for data: 886912032
I0403 15:41:01.682688  3367 layer_factory.hpp:77] Creating layer inception_4a/output
I0403 15:41:01.682708  3367 net.cpp:91] Creating Layer inception_4a/output
I0403 15:41:01.682724  3367 net.cpp:425] inception_4a/output <- inception_4a/1x1
I0403 15:41:01.682740  3367 net.cpp:425] inception_4a/output <- inception_4a/3x3
I0403 15:41:01.682756  3367 net.cpp:425] inception_4a/output <- inception_4a/5x5
I0403 15:41:01.682772  3367 net.cpp:425] inception_4a/output <- inception_4a/pool_proj
I0403 15:41:01.682788  3367 net.cpp:399] inception_4a/output -> inception_4a/output
I0403 15:41:01.682834  3367 net.cpp:141] Setting up inception_4a/output
I0403 15:41:01.682858  3367 net.cpp:148] Top shape: 24 512 14 14 (2408448)
I0403 15:41:01.682873  3367 net.cpp:156] Memory required for data: 896545824
I0403 15:41:01.682886  3367 layer_factory.hpp:77] Creating layer inception_4a/output_inception_4a/output_0_split
I0403 15:41:01.682904  3367 net.cpp:91] Creating Layer inception_4a/output_inception_4a/output_0_split
I0403 15:41:01.682919  3367 net.cpp:425] inception_4a/output_inception_4a/output_0_split <- inception_4a/output
I0403 15:41:01.682940  3367 net.cpp:399] inception_4a/output_inception_4a/output_0_split -> inception_4a/output_inception_4a/output_0_split_0
I0403 15:41:01.682961  3367 net.cpp:399] inception_4a/output_inception_4a/output_0_split -> inception_4a/output_inception_4a/output_0_split_1
I0403 15:41:01.682981  3367 net.cpp:399] inception_4a/output_inception_4a/output_0_split -> inception_4a/output_inception_4a/output_0_split_2
I0403 15:41:01.683001  3367 net.cpp:399] inception_4a/output_inception_4a/output_0_split -> inception_4a/output_inception_4a/output_0_split_3
I0403 15:41:01.683022  3367 net.cpp:399] inception_4a/output_inception_4a/output_0_split -> inception_4a/output_inception_4a/output_0_split_4
I0403 15:41:01.683115  3367 net.cpp:141] Setting up inception_4a/output_inception_4a/output_0_split
I0403 15:41:01.683138  3367 net.cpp:148] Top shape: 24 512 14 14 (2408448)
I0403 15:41:01.683154  3367 net.cpp:148] Top shape: 24 512 14 14 (2408448)
I0403 15:41:01.683171  3367 net.cpp:148] Top shape: 24 512 14 14 (2408448)
I0403 15:41:01.683187  3367 net.cpp:148] Top shape: 24 512 14 14 (2408448)
I0403 15:41:01.683202  3367 net.cpp:148] Top shape: 24 512 14 14 (2408448)
I0403 15:41:01.683238  3367 net.cpp:156] Memory required for data: 944714784
I0403 15:41:01.683254  3367 layer_factory.hpp:77] Creating layer loss1/ave_pool
I0403 15:41:01.683271  3367 net.cpp:91] Creating Layer loss1/ave_pool
I0403 15:41:01.683286  3367 net.cpp:425] loss1/ave_pool <- inception_4a/output_inception_4a/output_0_split_0
I0403 15:41:01.683306  3367 net.cpp:399] loss1/ave_pool -> loss1/ave_pool
I0403 15:41:01.683508  3367 net.cpp:141] Setting up loss1/ave_pool
I0403 15:41:01.683533  3367 net.cpp:148] Top shape: 24 512 4 4 (196608)
I0403 15:41:01.683550  3367 net.cpp:156] Memory required for data: 945501216
I0403 15:41:01.683564  3367 layer_factory.hpp:77] Creating layer loss1/conv
I0403 15:41:01.683583  3367 net.cpp:91] Creating Layer loss1/conv
I0403 15:41:01.683599  3367 net.cpp:425] loss1/conv <- loss1/ave_pool
I0403 15:41:01.683619  3367 net.cpp:399] loss1/conv -> loss1/conv
I0403 15:41:01.685032  3367 net.cpp:141] Setting up loss1/conv
I0403 15:41:01.685065  3367 net.cpp:148] Top shape: 24 128 4 4 (49152)
I0403 15:41:01.685094  3367 net.cpp:156] Memory required for data: 945697824
I0403 15:41:01.685114  3367 layer_factory.hpp:77] Creating layer loss1/relu_conv
I0403 15:41:01.685132  3367 net.cpp:91] Creating Layer loss1/relu_conv
I0403 15:41:01.685148  3367 net.cpp:425] loss1/relu_conv <- loss1/conv
I0403 15:41:01.685165  3367 net.cpp:386] loss1/relu_conv -> loss1/conv (in-place)
I0403 15:41:01.685442  3367 net.cpp:141] Setting up loss1/relu_conv
I0403 15:41:01.685469  3367 net.cpp:148] Top shape: 24 128 4 4 (49152)
I0403 15:41:01.685485  3367 net.cpp:156] Memory required for data: 945894432
I0403 15:41:01.685499  3367 layer_factory.hpp:77] Creating layer loss1/fc
I0403 15:41:01.685523  3367 net.cpp:91] Creating Layer loss1/fc
I0403 15:41:01.685539  3367 net.cpp:425] loss1/fc <- loss1/conv
I0403 15:41:01.685560  3367 net.cpp:399] loss1/fc -> loss1/fc
I0403 15:41:01.702793  3367 net.cpp:141] Setting up loss1/fc
I0403 15:41:01.702824  3367 net.cpp:148] Top shape: 24 1024 (24576)
I0403 15:41:01.702841  3367 net.cpp:156] Memory required for data: 945992736
I0403 15:41:01.702857  3367 layer_factory.hpp:77] Creating layer loss1/relu_fc
I0403 15:41:01.702877  3367 net.cpp:91] Creating Layer loss1/relu_fc
I0403 15:41:01.702893  3367 net.cpp:425] loss1/relu_fc <- loss1/fc
I0403 15:41:01.702909  3367 net.cpp:386] loss1/relu_fc -> loss1/fc (in-place)
I0403 15:41:01.703088  3367 net.cpp:141] Setting up loss1/relu_fc
I0403 15:41:01.703112  3367 net.cpp:148] Top shape: 24 1024 (24576)
I0403 15:41:01.703126  3367 net.cpp:156] Memory required for data: 946091040
I0403 15:41:01.703140  3367 layer_factory.hpp:77] Creating layer loss1/drop_fc
I0403 15:41:01.703166  3367 net.cpp:91] Creating Layer loss1/drop_fc
I0403 15:41:01.703182  3367 net.cpp:425] loss1/drop_fc <- loss1/fc
I0403 15:41:01.703202  3367 net.cpp:386] loss1/drop_fc -> loss1/fc (in-place)
I0403 15:41:01.703261  3367 net.cpp:141] Setting up loss1/drop_fc
I0403 15:41:01.703284  3367 net.cpp:148] Top shape: 24 1024 (24576)
I0403 15:41:01.703297  3367 net.cpp:156] Memory required for data: 946189344
I0403 15:41:01.703311  3367 layer_factory.hpp:77] Creating layer loss1/classifier_plantvillage
I0403 15:41:01.703333  3367 net.cpp:91] Creating Layer loss1/classifier_plantvillage
I0403 15:41:01.703351  3367 net.cpp:425] loss1/classifier_plantvillage <- loss1/fc
I0403 15:41:01.703367  3367 net.cpp:399] loss1/classifier_plantvillage -> loss1/classifier_plantvillage
I0403 15:41:01.704260  3367 net.cpp:141] Setting up loss1/classifier_plantvillage
I0403 15:41:01.704288  3367 net.cpp:148] Top shape: 24 38 (912)
I0403 15:41:01.704304  3367 net.cpp:156] Memory required for data: 946192992
I0403 15:41:01.704321  3367 layer_factory.hpp:77] Creating layer loss1/classifier_plantvillage_loss1/classifier_plantvillage_0_split
I0403 15:41:01.704341  3367 net.cpp:91] Creating Layer loss1/classifier_plantvillage_loss1/classifier_plantvillage_0_split
I0403 15:41:01.704357  3367 net.cpp:425] loss1/classifier_plantvillage_loss1/classifier_plantvillage_0_split <- loss1/classifier_plantvillage
I0403 15:41:01.704375  3367 net.cpp:399] loss1/classifier_plantvillage_loss1/classifier_plantvillage_0_split -> loss1/classifier_plantvillage_loss1/classifier_plantvillage_0_split_0
I0403 15:41:01.704397  3367 net.cpp:399] loss1/classifier_plantvillage_loss1/classifier_plantvillage_0_split -> loss1/classifier_plantvillage_loss1/classifier_plantvillage_0_split_1
I0403 15:41:01.704417  3367 net.cpp:399] loss1/classifier_plantvillage_loss1/classifier_plantvillage_0_split -> loss1/classifier_plantvillage_loss1/classifier_plantvillage_0_split_2
I0403 15:41:01.704483  3367 net.cpp:141] Setting up loss1/classifier_plantvillage_loss1/classifier_plantvillage_0_split
I0403 15:41:01.704505  3367 net.cpp:148] Top shape: 24 38 (912)
I0403 15:41:01.704520  3367 net.cpp:148] Top shape: 24 38 (912)
I0403 15:41:01.704535  3367 net.cpp:148] Top shape: 24 38 (912)
I0403 15:41:01.704550  3367 net.cpp:156] Memory required for data: 946203936
I0403 15:41:01.704562  3367 layer_factory.hpp:77] Creating layer inception_4b/1x1
I0403 15:41:01.704583  3367 net.cpp:91] Creating Layer inception_4b/1x1
I0403 15:41:01.704614  3367 net.cpp:425] inception_4b/1x1 <- inception_4a/output_inception_4a/output_0_split_1
I0403 15:41:01.704634  3367 net.cpp:399] inception_4b/1x1 -> inception_4b/1x1
I0403 15:41:01.706243  3367 net.cpp:141] Setting up inception_4b/1x1
I0403 15:41:01.706275  3367 net.cpp:148] Top shape: 24 160 14 14 (752640)
I0403 15:41:01.706292  3367 net.cpp:156] Memory required for data: 949214496
I0403 15:41:01.706310  3367 layer_factory.hpp:77] Creating layer inception_4b/relu_1x1
I0403 15:41:01.706327  3367 net.cpp:91] Creating Layer inception_4b/relu_1x1
I0403 15:41:01.706343  3367 net.cpp:425] inception_4b/relu_1x1 <- inception_4b/1x1
I0403 15:41:01.706362  3367 net.cpp:386] inception_4b/relu_1x1 -> inception_4b/1x1 (in-place)
I0403 15:41:01.706539  3367 net.cpp:141] Setting up inception_4b/relu_1x1
I0403 15:41:01.706563  3367 net.cpp:148] Top shape: 24 160 14 14 (752640)
I0403 15:41:01.706578  3367 net.cpp:156] Memory required for data: 952225056
I0403 15:41:01.706591  3367 layer_factory.hpp:77] Creating layer inception_4b/3x3_reduce
I0403 15:41:01.706614  3367 net.cpp:91] Creating Layer inception_4b/3x3_reduce
I0403 15:41:01.706632  3367 net.cpp:425] inception_4b/3x3_reduce <- inception_4a/output_inception_4a/output_0_split_2
I0403 15:41:01.706652  3367 net.cpp:399] inception_4b/3x3_reduce -> inception_4b/3x3_reduce
I0403 15:41:01.707972  3367 net.cpp:141] Setting up inception_4b/3x3_reduce
I0403 15:41:01.708000  3367 net.cpp:148] Top shape: 24 112 14 14 (526848)
I0403 15:41:01.708015  3367 net.cpp:156] Memory required for data: 954332448
I0403 15:41:01.708034  3367 layer_factory.hpp:77] Creating layer inception_4b/relu_3x3_reduce
I0403 15:41:01.708052  3367 net.cpp:91] Creating Layer inception_4b/relu_3x3_reduce
I0403 15:41:01.708070  3367 net.cpp:425] inception_4b/relu_3x3_reduce <- inception_4b/3x3_reduce
I0403 15:41:01.708087  3367 net.cpp:386] inception_4b/relu_3x3_reduce -> inception_4b/3x3_reduce (in-place)
I0403 15:41:01.708369  3367 net.cpp:141] Setting up inception_4b/relu_3x3_reduce
I0403 15:41:01.708395  3367 net.cpp:148] Top shape: 24 112 14 14 (526848)
I0403 15:41:01.708410  3367 net.cpp:156] Memory required for data: 956439840
I0403 15:41:01.708425  3367 layer_factory.hpp:77] Creating layer inception_4b/3x3
I0403 15:41:01.708446  3367 net.cpp:91] Creating Layer inception_4b/3x3
I0403 15:41:01.708464  3367 net.cpp:425] inception_4b/3x3 <- inception_4b/3x3_reduce
I0403 15:41:01.708485  3367 net.cpp:399] inception_4b/3x3 -> inception_4b/3x3
I0403 15:41:01.711405  3367 net.cpp:141] Setting up inception_4b/3x3
I0403 15:41:01.711436  3367 net.cpp:148] Top shape: 24 224 14 14 (1053696)
I0403 15:41:01.711452  3367 net.cpp:156] Memory required for data: 960654624
I0403 15:41:01.711470  3367 layer_factory.hpp:77] Creating layer inception_4b/relu_3x3
I0403 15:41:01.711490  3367 net.cpp:91] Creating Layer inception_4b/relu_3x3
I0403 15:41:01.711508  3367 net.cpp:425] inception_4b/relu_3x3 <- inception_4b/3x3
I0403 15:41:01.711525  3367 net.cpp:386] inception_4b/relu_3x3 -> inception_4b/3x3 (in-place)
I0403 15:41:01.711701  3367 net.cpp:141] Setting up inception_4b/relu_3x3
I0403 15:41:01.711726  3367 net.cpp:148] Top shape: 24 224 14 14 (1053696)
I0403 15:41:01.711740  3367 net.cpp:156] Memory required for data: 964869408
I0403 15:41:01.711755  3367 layer_factory.hpp:77] Creating layer inception_4b/5x5_reduce
I0403 15:41:01.711777  3367 net.cpp:91] Creating Layer inception_4b/5x5_reduce
I0403 15:41:01.711794  3367 net.cpp:425] inception_4b/5x5_reduce <- inception_4a/output_inception_4a/output_0_split_3
I0403 15:41:01.711818  3367 net.cpp:399] inception_4b/5x5_reduce -> inception_4b/5x5_reduce
I0403 15:41:01.712875  3367 net.cpp:141] Setting up inception_4b/5x5_reduce
I0403 15:41:01.712903  3367 net.cpp:148] Top shape: 24 24 14 14 (112896)
I0403 15:41:01.712918  3367 net.cpp:156] Memory required for data: 965320992
I0403 15:41:01.712935  3367 layer_factory.hpp:77] Creating layer inception_4b/relu_5x5_reduce
I0403 15:41:01.712952  3367 net.cpp:91] Creating Layer inception_4b/relu_5x5_reduce
I0403 15:41:01.712982  3367 net.cpp:425] inception_4b/relu_5x5_reduce <- inception_4b/5x5_reduce
I0403 15:41:01.713002  3367 net.cpp:386] inception_4b/relu_5x5_reduce -> inception_4b/5x5_reduce (in-place)
I0403 15:41:01.713182  3367 net.cpp:141] Setting up inception_4b/relu_5x5_reduce
I0403 15:41:01.713206  3367 net.cpp:148] Top shape: 24 24 14 14 (112896)
I0403 15:41:01.713232  3367 net.cpp:156] Memory required for data: 965772576
I0403 15:41:01.713248  3367 layer_factory.hpp:77] Creating layer inception_4b/5x5
I0403 15:41:01.713269  3367 net.cpp:91] Creating Layer inception_4b/5x5
I0403 15:41:01.713286  3367 net.cpp:425] inception_4b/5x5 <- inception_4b/5x5_reduce
I0403 15:41:01.713307  3367 net.cpp:399] inception_4b/5x5 -> inception_4b/5x5
I0403 15:41:01.714558  3367 net.cpp:141] Setting up inception_4b/5x5
I0403 15:41:01.714589  3367 net.cpp:148] Top shape: 24 64 14 14 (301056)
I0403 15:41:01.714608  3367 net.cpp:156] Memory required for data: 966976800
I0403 15:41:01.714627  3367 layer_factory.hpp:77] Creating layer inception_4b/relu_5x5
I0403 15:41:01.714644  3367 net.cpp:91] Creating Layer inception_4b/relu_5x5
I0403 15:41:01.714660  3367 net.cpp:425] inception_4b/relu_5x5 <- inception_4b/5x5
I0403 15:41:01.714679  3367 net.cpp:386] inception_4b/relu_5x5 -> inception_4b/5x5 (in-place)
I0403 15:41:01.714968  3367 net.cpp:141] Setting up inception_4b/relu_5x5
I0403 15:41:01.714995  3367 net.cpp:148] Top shape: 24 64 14 14 (301056)
I0403 15:41:01.715011  3367 net.cpp:156] Memory required for data: 968181024
I0403 15:41:01.715025  3367 layer_factory.hpp:77] Creating layer inception_4b/pool
I0403 15:41:01.715044  3367 net.cpp:91] Creating Layer inception_4b/pool
I0403 15:41:01.715059  3367 net.cpp:425] inception_4b/pool <- inception_4a/output_inception_4a/output_0_split_4
I0403 15:41:01.715078  3367 net.cpp:399] inception_4b/pool -> inception_4b/pool
I0403 15:41:01.715140  3367 net.cpp:141] Setting up inception_4b/pool
I0403 15:41:01.715164  3367 net.cpp:148] Top shape: 24 512 14 14 (2408448)
I0403 15:41:01.715179  3367 net.cpp:156] Memory required for data: 977814816
I0403 15:41:01.715193  3367 layer_factory.hpp:77] Creating layer inception_4b/pool_proj
I0403 15:41:01.715220  3367 net.cpp:91] Creating Layer inception_4b/pool_proj
I0403 15:41:01.715240  3367 net.cpp:425] inception_4b/pool_proj <- inception_4b/pool
I0403 15:41:01.715258  3367 net.cpp:399] inception_4b/pool_proj -> inception_4b/pool_proj
I0403 15:41:01.716429  3367 net.cpp:141] Setting up inception_4b/pool_proj
I0403 15:41:01.716456  3367 net.cpp:148] Top shape: 24 64 14 14 (301056)
I0403 15:41:01.716471  3367 net.cpp:156] Memory required for data: 979019040
I0403 15:41:01.716488  3367 layer_factory.hpp:77] Creating layer inception_4b/relu_pool_proj
I0403 15:41:01.716507  3367 net.cpp:91] Creating Layer inception_4b/relu_pool_proj
I0403 15:41:01.716524  3367 net.cpp:425] inception_4b/relu_pool_proj <- inception_4b/pool_proj
I0403 15:41:01.716542  3367 net.cpp:386] inception_4b/relu_pool_proj -> inception_4b/pool_proj (in-place)
I0403 15:41:01.716730  3367 net.cpp:141] Setting up inception_4b/relu_pool_proj
I0403 15:41:01.716755  3367 net.cpp:148] Top shape: 24 64 14 14 (301056)
I0403 15:41:01.716769  3367 net.cpp:156] Memory required for data: 980223264
I0403 15:41:01.716784  3367 layer_factory.hpp:77] Creating layer inception_4b/output
I0403 15:41:01.716804  3367 net.cpp:91] Creating Layer inception_4b/output
I0403 15:41:01.716820  3367 net.cpp:425] inception_4b/output <- inception_4b/1x1
I0403 15:41:01.716836  3367 net.cpp:425] inception_4b/output <- inception_4b/3x3
I0403 15:41:01.716852  3367 net.cpp:425] inception_4b/output <- inception_4b/5x5
I0403 15:41:01.716868  3367 net.cpp:425] inception_4b/output <- inception_4b/pool_proj
I0403 15:41:01.716886  3367 net.cpp:399] inception_4b/output -> inception_4b/output
I0403 15:41:01.716933  3367 net.cpp:141] Setting up inception_4b/output
I0403 15:41:01.716955  3367 net.cpp:148] Top shape: 24 512 14 14 (2408448)
I0403 15:41:01.716969  3367 net.cpp:156] Memory required for data: 989857056
I0403 15:41:01.716998  3367 layer_factory.hpp:77] Creating layer inception_4b/output_inception_4b/output_0_split
I0403 15:41:01.717016  3367 net.cpp:91] Creating Layer inception_4b/output_inception_4b/output_0_split
I0403 15:41:01.717031  3367 net.cpp:425] inception_4b/output_inception_4b/output_0_split <- inception_4b/output
I0403 15:41:01.717051  3367 net.cpp:399] inception_4b/output_inception_4b/output_0_split -> inception_4b/output_inception_4b/output_0_split_0
I0403 15:41:01.717072  3367 net.cpp:399] inception_4b/output_inception_4b/output_0_split -> inception_4b/output_inception_4b/output_0_split_1
I0403 15:41:01.717092  3367 net.cpp:399] inception_4b/output_inception_4b/output_0_split -> inception_4b/output_inception_4b/output_0_split_2
I0403 15:41:01.717113  3367 net.cpp:399] inception_4b/output_inception_4b/output_0_split -> inception_4b/output_inception_4b/output_0_split_3
I0403 15:41:01.717196  3367 net.cpp:141] Setting up inception_4b/output_inception_4b/output_0_split
I0403 15:41:01.717226  3367 net.cpp:148] Top shape: 24 512 14 14 (2408448)
I0403 15:41:01.717243  3367 net.cpp:148] Top shape: 24 512 14 14 (2408448)
I0403 15:41:01.717259  3367 net.cpp:148] Top shape: 24 512 14 14 (2408448)
I0403 15:41:01.717274  3367 net.cpp:148] Top shape: 24 512 14 14 (2408448)
I0403 15:41:01.717289  3367 net.cpp:156] Memory required for data: 1028392224
I0403 15:41:01.717303  3367 layer_factory.hpp:77] Creating layer inception_4c/1x1
I0403 15:41:01.717325  3367 net.cpp:91] Creating Layer inception_4c/1x1
I0403 15:41:01.717344  3367 net.cpp:425] inception_4c/1x1 <- inception_4b/output_inception_4b/output_0_split_0
I0403 15:41:01.717362  3367 net.cpp:399] inception_4c/1x1 -> inception_4c/1x1
I0403 15:41:01.718837  3367 net.cpp:141] Setting up inception_4c/1x1
I0403 15:41:01.718865  3367 net.cpp:148] Top shape: 24 128 14 14 (602112)
I0403 15:41:01.718881  3367 net.cpp:156] Memory required for data: 1030800672
I0403 15:41:01.718899  3367 layer_factory.hpp:77] Creating layer inception_4c/relu_1x1
I0403 15:41:01.718920  3367 net.cpp:91] Creating Layer inception_4c/relu_1x1
I0403 15:41:01.718937  3367 net.cpp:425] inception_4c/relu_1x1 <- inception_4c/1x1
I0403 15:41:01.718955  3367 net.cpp:386] inception_4c/relu_1x1 -> inception_4c/1x1 (in-place)
I0403 15:41:01.719138  3367 net.cpp:141] Setting up inception_4c/relu_1x1
I0403 15:41:01.719164  3367 net.cpp:148] Top shape: 24 128 14 14 (602112)
I0403 15:41:01.719180  3367 net.cpp:156] Memory required for data: 1033209120
I0403 15:41:01.719194  3367 layer_factory.hpp:77] Creating layer inception_4c/3x3_reduce
I0403 15:41:01.719220  3367 net.cpp:91] Creating Layer inception_4c/3x3_reduce
I0403 15:41:01.719239  3367 net.cpp:425] inception_4c/3x3_reduce <- inception_4b/output_inception_4b/output_0_split_1
I0403 15:41:01.719259  3367 net.cpp:399] inception_4c/3x3_reduce -> inception_4c/3x3_reduce
I0403 15:41:01.721212  3367 net.cpp:141] Setting up inception_4c/3x3_reduce
I0403 15:41:01.721245  3367 net.cpp:148] Top shape: 24 128 14 14 (602112)
I0403 15:41:01.721261  3367 net.cpp:156] Memory required for data: 1035617568
I0403 15:41:01.721281  3367 layer_factory.hpp:77] Creating layer inception_4c/relu_3x3_reduce
I0403 15:41:01.721298  3367 net.cpp:91] Creating Layer inception_4c/relu_3x3_reduce
I0403 15:41:01.721315  3367 net.cpp:425] inception_4c/relu_3x3_reduce <- inception_4c/3x3_reduce
I0403 15:41:01.721335  3367 net.cpp:386] inception_4c/relu_3x3_reduce -> inception_4c/3x3_reduce (in-place)
I0403 15:41:01.721621  3367 net.cpp:141] Setting up inception_4c/relu_3x3_reduce
I0403 15:41:01.721647  3367 net.cpp:148] Top shape: 24 128 14 14 (602112)
I0403 15:41:01.721662  3367 net.cpp:156] Memory required for data: 1038026016
I0403 15:41:01.721676  3367 layer_factory.hpp:77] Creating layer inception_4c/3x3
I0403 15:41:01.721700  3367 net.cpp:91] Creating Layer inception_4c/3x3
I0403 15:41:01.721719  3367 net.cpp:425] inception_4c/3x3 <- inception_4c/3x3_reduce
I0403 15:41:01.721741  3367 net.cpp:399] inception_4c/3x3 -> inception_4c/3x3
I0403 15:41:01.725359  3367 net.cpp:141] Setting up inception_4c/3x3
I0403 15:41:01.725401  3367 net.cpp:148] Top shape: 24 256 14 14 (1204224)
I0403 15:41:01.725419  3367 net.cpp:156] Memory required for data: 1042842912
I0403 15:41:01.725453  3367 layer_factory.hpp:77] Creating layer inception_4c/relu_3x3
I0403 15:41:01.725474  3367 net.cpp:91] Creating Layer inception_4c/relu_3x3
I0403 15:41:01.725491  3367 net.cpp:425] inception_4c/relu_3x3 <- inception_4c/3x3
I0403 15:41:01.725510  3367 net.cpp:386] inception_4c/relu_3x3 -> inception_4c/3x3 (in-place)
I0403 15:41:01.725694  3367 net.cpp:141] Setting up inception_4c/relu_3x3
I0403 15:41:01.725720  3367 net.cpp:148] Top shape: 24 256 14 14 (1204224)
I0403 15:41:01.725735  3367 net.cpp:156] Memory required for data: 1047659808
I0403 15:41:01.725751  3367 layer_factory.hpp:77] Creating layer inception_4c/5x5_reduce
I0403 15:41:01.725775  3367 net.cpp:91] Creating Layer inception_4c/5x5_reduce
I0403 15:41:01.725795  3367 net.cpp:425] inception_4c/5x5_reduce <- inception_4b/output_inception_4b/output_0_split_2
I0403 15:41:01.725816  3367 net.cpp:399] inception_4c/5x5_reduce -> inception_4c/5x5_reduce
I0403 15:41:01.726917  3367 net.cpp:141] Setting up inception_4c/5x5_reduce
I0403 15:41:01.726946  3367 net.cpp:148] Top shape: 24 24 14 14 (112896)
I0403 15:41:01.726963  3367 net.cpp:156] Memory required for data: 1048111392
I0403 15:41:01.726981  3367 layer_factory.hpp:77] Creating layer inception_4c/relu_5x5_reduce
I0403 15:41:01.726999  3367 net.cpp:91] Creating Layer inception_4c/relu_5x5_reduce
I0403 15:41:01.727016  3367 net.cpp:425] inception_4c/relu_5x5_reduce <- inception_4c/5x5_reduce
I0403 15:41:01.727035  3367 net.cpp:386] inception_4c/relu_5x5_reduce -> inception_4c/5x5_reduce (in-place)
I0403 15:41:01.727227  3367 net.cpp:141] Setting up inception_4c/relu_5x5_reduce
I0403 15:41:01.727252  3367 net.cpp:148] Top shape: 24 24 14 14 (112896)
I0403 15:41:01.727267  3367 net.cpp:156] Memory required for data: 1048562976
I0403 15:41:01.727282  3367 layer_factory.hpp:77] Creating layer inception_4c/5x5
I0403 15:41:01.727304  3367 net.cpp:91] Creating Layer inception_4c/5x5
I0403 15:41:01.727322  3367 net.cpp:425] inception_4c/5x5 <- inception_4c/5x5_reduce
I0403 15:41:01.727342  3367 net.cpp:399] inception_4c/5x5 -> inception_4c/5x5
I0403 15:41:01.728600  3367 net.cpp:141] Setting up inception_4c/5x5
I0403 15:41:01.728627  3367 net.cpp:148] Top shape: 24 64 14 14 (301056)
I0403 15:41:01.728642  3367 net.cpp:156] Memory required for data: 1049767200
I0403 15:41:01.728660  3367 layer_factory.hpp:77] Creating layer inception_4c/relu_5x5
I0403 15:41:01.728680  3367 net.cpp:91] Creating Layer inception_4c/relu_5x5
I0403 15:41:01.728698  3367 net.cpp:425] inception_4c/relu_5x5 <- inception_4c/5x5
I0403 15:41:01.728714  3367 net.cpp:386] inception_4c/relu_5x5 -> inception_4c/5x5 (in-place)
I0403 15:41:01.729003  3367 net.cpp:141] Setting up inception_4c/relu_5x5
I0403 15:41:01.729029  3367 net.cpp:148] Top shape: 24 64 14 14 (301056)
I0403 15:41:01.729043  3367 net.cpp:156] Memory required for data: 1050971424
I0403 15:41:01.729058  3367 layer_factory.hpp:77] Creating layer inception_4c/pool
I0403 15:41:01.729079  3367 net.cpp:91] Creating Layer inception_4c/pool
I0403 15:41:01.729095  3367 net.cpp:425] inception_4c/pool <- inception_4b/output_inception_4b/output_0_split_3
I0403 15:41:01.729113  3367 net.cpp:399] inception_4c/pool -> inception_4c/pool
I0403 15:41:01.729181  3367 net.cpp:141] Setting up inception_4c/pool
I0403 15:41:01.729204  3367 net.cpp:148] Top shape: 24 512 14 14 (2408448)
I0403 15:41:01.729223  3367 net.cpp:156] Memory required for data: 1060605216
I0403 15:41:01.729239  3367 layer_factory.hpp:77] Creating layer inception_4c/pool_proj
I0403 15:41:01.729261  3367 net.cpp:91] Creating Layer inception_4c/pool_proj
I0403 15:41:01.729279  3367 net.cpp:425] inception_4c/pool_proj <- inception_4c/pool
I0403 15:41:01.729298  3367 net.cpp:399] inception_4c/pool_proj -> inception_4c/pool_proj
I0403 15:41:01.730527  3367 net.cpp:141] Setting up inception_4c/pool_proj
I0403 15:41:01.730556  3367 net.cpp:148] Top shape: 24 64 14 14 (301056)
I0403 15:41:01.730587  3367 net.cpp:156] Memory required for data: 1061809440
I0403 15:41:01.730607  3367 layer_factory.hpp:77] Creating layer inception_4c/relu_pool_proj
I0403 15:41:01.730625  3367 net.cpp:91] Creating Layer inception_4c/relu_pool_proj
I0403 15:41:01.730641  3367 net.cpp:425] inception_4c/relu_pool_proj <- inception_4c/pool_proj
I0403 15:41:01.730661  3367 net.cpp:386] inception_4c/relu_pool_proj -> inception_4c/pool_proj (in-place)
I0403 15:41:01.730849  3367 net.cpp:141] Setting up inception_4c/relu_pool_proj
I0403 15:41:01.730875  3367 net.cpp:148] Top shape: 24 64 14 14 (301056)
I0403 15:41:01.730891  3367 net.cpp:156] Memory required for data: 1063013664
I0403 15:41:01.730906  3367 layer_factory.hpp:77] Creating layer inception_4c/output
I0403 15:41:01.730924  3367 net.cpp:91] Creating Layer inception_4c/output
I0403 15:41:01.730942  3367 net.cpp:425] inception_4c/output <- inception_4c/1x1
I0403 15:41:01.730959  3367 net.cpp:425] inception_4c/output <- inception_4c/3x3
I0403 15:41:01.730978  3367 net.cpp:425] inception_4c/output <- inception_4c/5x5
I0403 15:41:01.730994  3367 net.cpp:425] inception_4c/output <- inception_4c/pool_proj
I0403 15:41:01.731012  3367 net.cpp:399] inception_4c/output -> inception_4c/output
I0403 15:41:01.731061  3367 net.cpp:141] Setting up inception_4c/output
I0403 15:41:01.731086  3367 net.cpp:148] Top shape: 24 512 14 14 (2408448)
I0403 15:41:01.731101  3367 net.cpp:156] Memory required for data: 1072647456
I0403 15:41:01.731115  3367 layer_factory.hpp:77] Creating layer inception_4c/output_inception_4c/output_0_split
I0403 15:41:01.731133  3367 net.cpp:91] Creating Layer inception_4c/output_inception_4c/output_0_split
I0403 15:41:01.731148  3367 net.cpp:425] inception_4c/output_inception_4c/output_0_split <- inception_4c/output
I0403 15:41:01.731168  3367 net.cpp:399] inception_4c/output_inception_4c/output_0_split -> inception_4c/output_inception_4c/output_0_split_0
I0403 15:41:01.731189  3367 net.cpp:399] inception_4c/output_inception_4c/output_0_split -> inception_4c/output_inception_4c/output_0_split_1
I0403 15:41:01.731214  3367 net.cpp:399] inception_4c/output_inception_4c/output_0_split -> inception_4c/output_inception_4c/output_0_split_2
I0403 15:41:01.731235  3367 net.cpp:399] inception_4c/output_inception_4c/output_0_split -> inception_4c/output_inception_4c/output_0_split_3
I0403 15:41:01.731323  3367 net.cpp:141] Setting up inception_4c/output_inception_4c/output_0_split
I0403 15:41:01.731349  3367 net.cpp:148] Top shape: 24 512 14 14 (2408448)
I0403 15:41:01.731369  3367 net.cpp:148] Top shape: 24 512 14 14 (2408448)
I0403 15:41:01.731385  3367 net.cpp:148] Top shape: 24 512 14 14 (2408448)
I0403 15:41:01.731400  3367 net.cpp:148] Top shape: 24 512 14 14 (2408448)
I0403 15:41:01.731415  3367 net.cpp:156] Memory required for data: 1111182624
I0403 15:41:01.731427  3367 layer_factory.hpp:77] Creating layer inception_4d/1x1
I0403 15:41:01.731449  3367 net.cpp:91] Creating Layer inception_4d/1x1
I0403 15:41:01.731467  3367 net.cpp:425] inception_4d/1x1 <- inception_4c/output_inception_4c/output_0_split_0
I0403 15:41:01.731485  3367 net.cpp:399] inception_4d/1x1 -> inception_4d/1x1
I0403 15:41:01.732892  3367 net.cpp:141] Setting up inception_4d/1x1
I0403 15:41:01.732923  3367 net.cpp:148] Top shape: 24 112 14 14 (526848)
I0403 15:41:01.732939  3367 net.cpp:156] Memory required for data: 1113290016
I0403 15:41:01.732959  3367 layer_factory.hpp:77] Creating layer inception_4d/relu_1x1
I0403 15:41:01.732976  3367 net.cpp:91] Creating Layer inception_4d/relu_1x1
I0403 15:41:01.732993  3367 net.cpp:425] inception_4d/relu_1x1 <- inception_4d/1x1
I0403 15:41:01.733013  3367 net.cpp:386] inception_4d/relu_1x1 -> inception_4d/1x1 (in-place)
I0403 15:41:01.733199  3367 net.cpp:141] Setting up inception_4d/relu_1x1
I0403 15:41:01.733235  3367 net.cpp:148] Top shape: 24 112 14 14 (526848)
I0403 15:41:01.733253  3367 net.cpp:156] Memory required for data: 1115397408
I0403 15:41:01.733268  3367 layer_factory.hpp:77] Creating layer inception_4d/3x3_reduce
I0403 15:41:01.733305  3367 net.cpp:91] Creating Layer inception_4d/3x3_reduce
I0403 15:41:01.733326  3367 net.cpp:425] inception_4d/3x3_reduce <- inception_4c/output_inception_4c/output_0_split_1
I0403 15:41:01.733348  3367 net.cpp:399] inception_4d/3x3_reduce -> inception_4d/3x3_reduce
I0403 15:41:01.734884  3367 net.cpp:141] Setting up inception_4d/3x3_reduce
I0403 15:41:01.734913  3367 net.cpp:148] Top shape: 24 144 14 14 (677376)
I0403 15:41:01.734930  3367 net.cpp:156] Memory required for data: 1118106912
I0403 15:41:01.734948  3367 layer_factory.hpp:77] Creating layer inception_4d/relu_3x3_reduce
I0403 15:41:01.734968  3367 net.cpp:91] Creating Layer inception_4d/relu_3x3_reduce
I0403 15:41:01.734989  3367 net.cpp:425] inception_4d/relu_3x3_reduce <- inception_4d/3x3_reduce
I0403 15:41:01.735008  3367 net.cpp:386] inception_4d/relu_3x3_reduce -> inception_4d/3x3_reduce (in-place)
I0403 15:41:01.735308  3367 net.cpp:141] Setting up inception_4d/relu_3x3_reduce
I0403 15:41:01.735334  3367 net.cpp:148] Top shape: 24 144 14 14 (677376)
I0403 15:41:01.735349  3367 net.cpp:156] Memory required for data: 1120816416
I0403 15:41:01.735363  3367 layer_factory.hpp:77] Creating layer inception_4d/3x3
I0403 15:41:01.735385  3367 net.cpp:91] Creating Layer inception_4d/3x3
I0403 15:41:01.735404  3367 net.cpp:425] inception_4d/3x3 <- inception_4d/3x3_reduce
I0403 15:41:01.735424  3367 net.cpp:399] inception_4d/3x3 -> inception_4d/3x3
I0403 15:41:01.739799  3367 net.cpp:141] Setting up inception_4d/3x3
I0403 15:41:01.739830  3367 net.cpp:148] Top shape: 24 288 14 14 (1354752)
I0403 15:41:01.739847  3367 net.cpp:156] Memory required for data: 1126235424
I0403 15:41:01.739867  3367 layer_factory.hpp:77] Creating layer inception_4d/relu_3x3
I0403 15:41:01.739884  3367 net.cpp:91] Creating Layer inception_4d/relu_3x3
I0403 15:41:01.739902  3367 net.cpp:425] inception_4d/relu_3x3 <- inception_4d/3x3
I0403 15:41:01.739919  3367 net.cpp:386] inception_4d/relu_3x3 -> inception_4d/3x3 (in-place)
I0403 15:41:01.740123  3367 net.cpp:141] Setting up inception_4d/relu_3x3
I0403 15:41:01.740150  3367 net.cpp:148] Top shape: 24 288 14 14 (1354752)
I0403 15:41:01.740165  3367 net.cpp:156] Memory required for data: 1131654432
I0403 15:41:01.740182  3367 layer_factory.hpp:77] Creating layer inception_4d/5x5_reduce
I0403 15:41:01.740206  3367 net.cpp:91] Creating Layer inception_4d/5x5_reduce
I0403 15:41:01.740231  3367 net.cpp:425] inception_4d/5x5_reduce <- inception_4c/output_inception_4c/output_0_split_2
I0403 15:41:01.740257  3367 net.cpp:399] inception_4d/5x5_reduce -> inception_4d/5x5_reduce
I0403 15:41:01.741431  3367 net.cpp:141] Setting up inception_4d/5x5_reduce
I0403 15:41:01.741462  3367 net.cpp:148] Top shape: 24 32 14 14 (150528)
I0403 15:41:01.741478  3367 net.cpp:156] Memory required for data: 1132256544
I0403 15:41:01.741497  3367 layer_factory.hpp:77] Creating layer inception_4d/relu_5x5_reduce
I0403 15:41:01.741515  3367 net.cpp:91] Creating Layer inception_4d/relu_5x5_reduce
I0403 15:41:01.741533  3367 net.cpp:425] inception_4d/relu_5x5_reduce <- inception_4d/5x5_reduce
I0403 15:41:01.741551  3367 net.cpp:386] inception_4d/relu_5x5_reduce -> inception_4d/5x5_reduce (in-place)
I0403 15:41:01.741744  3367 net.cpp:141] Setting up inception_4d/relu_5x5_reduce
I0403 15:41:01.741767  3367 net.cpp:148] Top shape: 24 32 14 14 (150528)
I0403 15:41:01.741782  3367 net.cpp:156] Memory required for data: 1132858656
I0403 15:41:01.741797  3367 layer_factory.hpp:77] Creating layer inception_4d/5x5
I0403 15:41:01.741819  3367 net.cpp:91] Creating Layer inception_4d/5x5
I0403 15:41:01.741837  3367 net.cpp:425] inception_4d/5x5 <- inception_4d/5x5_reduce
I0403 15:41:01.741858  3367 net.cpp:399] inception_4d/5x5 -> inception_4d/5x5
I0403 15:41:01.743361  3367 net.cpp:141] Setting up inception_4d/5x5
I0403 15:41:01.743391  3367 net.cpp:148] Top shape: 24 64 14 14 (301056)
I0403 15:41:01.743407  3367 net.cpp:156] Memory required for data: 1134062880
I0403 15:41:01.743427  3367 layer_factory.hpp:77] Creating layer inception_4d/relu_5x5
I0403 15:41:01.743465  3367 net.cpp:91] Creating Layer inception_4d/relu_5x5
I0403 15:41:01.743482  3367 net.cpp:425] inception_4d/relu_5x5 <- inception_4d/5x5
I0403 15:41:01.743500  3367 net.cpp:386] inception_4d/relu_5x5 -> inception_4d/5x5 (in-place)
I0403 15:41:01.743803  3367 net.cpp:141] Setting up inception_4d/relu_5x5
I0403 15:41:01.743830  3367 net.cpp:148] Top shape: 24 64 14 14 (301056)
I0403 15:41:01.743846  3367 net.cpp:156] Memory required for data: 1135267104
I0403 15:41:01.743861  3367 layer_factory.hpp:77] Creating layer inception_4d/pool
I0403 15:41:01.743880  3367 net.cpp:91] Creating Layer inception_4d/pool
I0403 15:41:01.743896  3367 net.cpp:425] inception_4d/pool <- inception_4c/output_inception_4c/output_0_split_3
I0403 15:41:01.743917  3367 net.cpp:399] inception_4d/pool -> inception_4d/pool
I0403 15:41:01.743986  3367 net.cpp:141] Setting up inception_4d/pool
I0403 15:41:01.744011  3367 net.cpp:148] Top shape: 24 512 14 14 (2408448)
I0403 15:41:01.744026  3367 net.cpp:156] Memory required for data: 1144900896
I0403 15:41:01.744041  3367 layer_factory.hpp:77] Creating layer inception_4d/pool_proj
I0403 15:41:01.744065  3367 net.cpp:91] Creating Layer inception_4d/pool_proj
I0403 15:41:01.744083  3367 net.cpp:425] inception_4d/pool_proj <- inception_4d/pool
I0403 15:41:01.744102  3367 net.cpp:399] inception_4d/pool_proj -> inception_4d/pool_proj
I0403 15:41:01.745887  3367 net.cpp:141] Setting up inception_4d/pool_proj
I0403 15:41:01.745919  3367 net.cpp:148] Top shape: 24 64 14 14 (301056)
I0403 15:41:01.745936  3367 net.cpp:156] Memory required for data: 1146105120
I0403 15:41:01.745955  3367 layer_factory.hpp:77] Creating layer inception_4d/relu_pool_proj
I0403 15:41:01.745975  3367 net.cpp:91] Creating Layer inception_4d/relu_pool_proj
I0403 15:41:01.745992  3367 net.cpp:425] inception_4d/relu_pool_proj <- inception_4d/pool_proj
I0403 15:41:01.746011  3367 net.cpp:386] inception_4d/relu_pool_proj -> inception_4d/pool_proj (in-place)
I0403 15:41:01.746203  3367 net.cpp:141] Setting up inception_4d/relu_pool_proj
I0403 15:41:01.746234  3367 net.cpp:148] Top shape: 24 64 14 14 (301056)
I0403 15:41:01.746249  3367 net.cpp:156] Memory required for data: 1147309344
I0403 15:41:01.746264  3367 layer_factory.hpp:77] Creating layer inception_4d/output
I0403 15:41:01.746282  3367 net.cpp:91] Creating Layer inception_4d/output
I0403 15:41:01.746299  3367 net.cpp:425] inception_4d/output <- inception_4d/1x1
I0403 15:41:01.746315  3367 net.cpp:425] inception_4d/output <- inception_4d/3x3
I0403 15:41:01.746330  3367 net.cpp:425] inception_4d/output <- inception_4d/5x5
I0403 15:41:01.746346  3367 net.cpp:425] inception_4d/output <- inception_4d/pool_proj
I0403 15:41:01.746366  3367 net.cpp:399] inception_4d/output -> inception_4d/output
I0403 15:41:01.746412  3367 net.cpp:141] Setting up inception_4d/output
I0403 15:41:01.746439  3367 net.cpp:148] Top shape: 24 528 14 14 (2483712)
I0403 15:41:01.746454  3367 net.cpp:156] Memory required for data: 1157244192
I0403 15:41:01.746481  3367 layer_factory.hpp:77] Creating layer inception_4d/output_inception_4d/output_0_split
I0403 15:41:01.746500  3367 net.cpp:91] Creating Layer inception_4d/output_inception_4d/output_0_split
I0403 15:41:01.746515  3367 net.cpp:425] inception_4d/output_inception_4d/output_0_split <- inception_4d/output
I0403 15:41:01.746537  3367 net.cpp:399] inception_4d/output_inception_4d/output_0_split -> inception_4d/output_inception_4d/output_0_split_0
I0403 15:41:01.746559  3367 net.cpp:399] inception_4d/output_inception_4d/output_0_split -> inception_4d/output_inception_4d/output_0_split_1
I0403 15:41:01.746580  3367 net.cpp:399] inception_4d/output_inception_4d/output_0_split -> inception_4d/output_inception_4d/output_0_split_2
I0403 15:41:01.746601  3367 net.cpp:399] inception_4d/output_inception_4d/output_0_split -> inception_4d/output_inception_4d/output_0_split_3
I0403 15:41:01.746621  3367 net.cpp:399] inception_4d/output_inception_4d/output_0_split -> inception_4d/output_inception_4d/output_0_split_4
I0403 15:41:01.746726  3367 net.cpp:141] Setting up inception_4d/output_inception_4d/output_0_split
I0403 15:41:01.746775  3367 net.cpp:148] Top shape: 24 528 14 14 (2483712)
I0403 15:41:01.746793  3367 net.cpp:148] Top shape: 24 528 14 14 (2483712)
I0403 15:41:01.746808  3367 net.cpp:148] Top shape: 24 528 14 14 (2483712)
I0403 15:41:01.746822  3367 net.cpp:148] Top shape: 24 528 14 14 (2483712)
I0403 15:41:01.746837  3367 net.cpp:148] Top shape: 24 528 14 14 (2483712)
I0403 15:41:01.746851  3367 net.cpp:156] Memory required for data: 1206918432
I0403 15:41:01.746865  3367 layer_factory.hpp:77] Creating layer loss2/ave_pool
I0403 15:41:01.746886  3367 net.cpp:91] Creating Layer loss2/ave_pool
I0403 15:41:01.746901  3367 net.cpp:425] loss2/ave_pool <- inception_4d/output_inception_4d/output_0_split_0
I0403 15:41:01.746922  3367 net.cpp:399] loss2/ave_pool -> loss2/ave_pool
I0403 15:41:01.747247  3367 net.cpp:141] Setting up loss2/ave_pool
I0403 15:41:01.747277  3367 net.cpp:148] Top shape: 24 528 4 4 (202752)
I0403 15:41:01.747292  3367 net.cpp:156] Memory required for data: 1207729440
I0403 15:41:01.747308  3367 layer_factory.hpp:77] Creating layer loss2/conv
I0403 15:41:01.747329  3367 net.cpp:91] Creating Layer loss2/conv
I0403 15:41:01.747347  3367 net.cpp:425] loss2/conv <- loss2/ave_pool
I0403 15:41:01.747366  3367 net.cpp:399] loss2/conv -> loss2/conv
I0403 15:41:01.749290  3367 net.cpp:141] Setting up loss2/conv
I0403 15:41:01.749320  3367 net.cpp:148] Top shape: 24 128 4 4 (49152)
I0403 15:41:01.749336  3367 net.cpp:156] Memory required for data: 1207926048
I0403 15:41:01.749354  3367 layer_factory.hpp:77] Creating layer loss2/relu_conv
I0403 15:41:01.749375  3367 net.cpp:91] Creating Layer loss2/relu_conv
I0403 15:41:01.749394  3367 net.cpp:425] loss2/relu_conv <- loss2/conv
I0403 15:41:01.749413  3367 net.cpp:386] loss2/relu_conv -> loss2/conv (in-place)
I0403 15:41:01.749722  3367 net.cpp:141] Setting up loss2/relu_conv
I0403 15:41:01.749757  3367 net.cpp:148] Top shape: 24 128 4 4 (49152)
I0403 15:41:01.749773  3367 net.cpp:156] Memory required for data: 1208122656
I0403 15:41:01.749788  3367 layer_factory.hpp:77] Creating layer loss2/fc
I0403 15:41:01.749809  3367 net.cpp:91] Creating Layer loss2/fc
I0403 15:41:01.749827  3367 net.cpp:425] loss2/fc <- loss2/conv
I0403 15:41:01.749846  3367 net.cpp:399] loss2/fc -> loss2/fc
I0403 15:41:01.767415  3367 net.cpp:141] Setting up loss2/fc
I0403 15:41:01.767460  3367 net.cpp:148] Top shape: 24 1024 (24576)
I0403 15:41:01.767475  3367 net.cpp:156] Memory required for data: 1208220960
I0403 15:41:01.767494  3367 layer_factory.hpp:77] Creating layer loss2/relu_fc
I0403 15:41:01.767513  3367 net.cpp:91] Creating Layer loss2/relu_fc
I0403 15:41:01.767529  3367 net.cpp:425] loss2/relu_fc <- loss2/fc
I0403 15:41:01.767549  3367 net.cpp:386] loss2/relu_fc -> loss2/fc (in-place)
I0403 15:41:01.767854  3367 net.cpp:141] Setting up loss2/relu_fc
I0403 15:41:01.767882  3367 net.cpp:148] Top shape: 24 1024 (24576)
I0403 15:41:01.767897  3367 net.cpp:156] Memory required for data: 1208319264
I0403 15:41:01.767912  3367 layer_factory.hpp:77] Creating layer loss2/drop_fc
I0403 15:41:01.767930  3367 net.cpp:91] Creating Layer loss2/drop_fc
I0403 15:41:01.767946  3367 net.cpp:425] loss2/drop_fc <- loss2/fc
I0403 15:41:01.767966  3367 net.cpp:386] loss2/drop_fc -> loss2/fc (in-place)
I0403 15:41:01.768014  3367 net.cpp:141] Setting up loss2/drop_fc
I0403 15:41:01.768036  3367 net.cpp:148] Top shape: 24 1024 (24576)
I0403 15:41:01.768050  3367 net.cpp:156] Memory required for data: 1208417568
I0403 15:41:01.768064  3367 layer_factory.hpp:77] Creating layer loss2/classifier_plantvillage
I0403 15:41:01.768085  3367 net.cpp:91] Creating Layer loss2/classifier_plantvillage
I0403 15:41:01.768100  3367 net.cpp:425] loss2/classifier_plantvillage <- loss2/fc
I0403 15:41:01.768121  3367 net.cpp:399] loss2/classifier_plantvillage -> loss2/classifier_plantvillage
I0403 15:41:01.768543  3367 net.cpp:141] Setting up loss2/classifier_plantvillage
I0403 15:41:01.768568  3367 net.cpp:148] Top shape: 24 38 (912)
I0403 15:41:01.768604  3367 net.cpp:156] Memory required for data: 1208421216
I0403 15:41:01.768623  3367 layer_factory.hpp:77] Creating layer loss2/classifier_plantvillage_loss2/classifier_plantvillage_0_split
I0403 15:41:01.768643  3367 net.cpp:91] Creating Layer loss2/classifier_plantvillage_loss2/classifier_plantvillage_0_split
I0403 15:41:01.768661  3367 net.cpp:425] loss2/classifier_plantvillage_loss2/classifier_plantvillage_0_split <- loss2/classifier_plantvillage
I0403 15:41:01.768677  3367 net.cpp:399] loss2/classifier_plantvillage_loss2/classifier_plantvillage_0_split -> loss2/classifier_plantvillage_loss2/classifier_plantvillage_0_split_0
I0403 15:41:01.768697  3367 net.cpp:399] loss2/classifier_plantvillage_loss2/classifier_plantvillage_0_split -> loss2/classifier_plantvillage_loss2/classifier_plantvillage_0_split_1
I0403 15:41:01.768718  3367 net.cpp:399] loss2/classifier_plantvillage_loss2/classifier_plantvillage_0_split -> loss2/classifier_plantvillage_loss2/classifier_plantvillage_0_split_2
I0403 15:41:01.768798  3367 net.cpp:141] Setting up loss2/classifier_plantvillage_loss2/classifier_plantvillage_0_split
I0403 15:41:01.768822  3367 net.cpp:148] Top shape: 24 38 (912)
I0403 15:41:01.768838  3367 net.cpp:148] Top shape: 24 38 (912)
I0403 15:41:01.768852  3367 net.cpp:148] Top shape: 24 38 (912)
I0403 15:41:01.768867  3367 net.cpp:156] Memory required for data: 1208432160
I0403 15:41:01.768880  3367 layer_factory.hpp:77] Creating layer inception_4e/1x1
I0403 15:41:01.768901  3367 net.cpp:91] Creating Layer inception_4e/1x1
I0403 15:41:01.768918  3367 net.cpp:425] inception_4e/1x1 <- inception_4d/output_inception_4d/output_0_split_1
I0403 15:41:01.768939  3367 net.cpp:399] inception_4e/1x1 -> inception_4e/1x1
I0403 15:41:01.770781  3367 net.cpp:141] Setting up inception_4e/1x1
I0403 15:41:01.770808  3367 net.cpp:148] Top shape: 24 256 14 14 (1204224)
I0403 15:41:01.770824  3367 net.cpp:156] Memory required for data: 1213249056
I0403 15:41:01.770843  3367 layer_factory.hpp:77] Creating layer inception_4e/relu_1x1
I0403 15:41:01.770861  3367 net.cpp:91] Creating Layer inception_4e/relu_1x1
I0403 15:41:01.770879  3367 net.cpp:425] inception_4e/relu_1x1 <- inception_4e/1x1
I0403 15:41:01.770895  3367 net.cpp:386] inception_4e/relu_1x1 -> inception_4e/1x1 (in-place)
I0403 15:41:01.771184  3367 net.cpp:141] Setting up inception_4e/relu_1x1
I0403 15:41:01.771214  3367 net.cpp:148] Top shape: 24 256 14 14 (1204224)
I0403 15:41:01.771229  3367 net.cpp:156] Memory required for data: 1218065952
I0403 15:41:01.771245  3367 layer_factory.hpp:77] Creating layer inception_4e/3x3_reduce
I0403 15:41:01.771266  3367 net.cpp:91] Creating Layer inception_4e/3x3_reduce
I0403 15:41:01.771283  3367 net.cpp:425] inception_4e/3x3_reduce <- inception_4d/output_inception_4d/output_0_split_2
I0403 15:41:01.771304  3367 net.cpp:399] inception_4e/3x3_reduce -> inception_4e/3x3_reduce
I0403 15:41:01.773382  3367 net.cpp:141] Setting up inception_4e/3x3_reduce
I0403 15:41:01.773411  3367 net.cpp:148] Top shape: 24 160 14 14 (752640)
I0403 15:41:01.773428  3367 net.cpp:156] Memory required for data: 1221076512
I0403 15:41:01.773447  3367 layer_factory.hpp:77] Creating layer inception_4e/relu_3x3_reduce
I0403 15:41:01.773468  3367 net.cpp:91] Creating Layer inception_4e/relu_3x3_reduce
I0403 15:41:01.773484  3367 net.cpp:425] inception_4e/relu_3x3_reduce <- inception_4e/3x3_reduce
I0403 15:41:01.773501  3367 net.cpp:386] inception_4e/relu_3x3_reduce -> inception_4e/3x3_reduce (in-place)
I0403 15:41:01.773685  3367 net.cpp:141] Setting up inception_4e/relu_3x3_reduce
I0403 15:41:01.773710  3367 net.cpp:148] Top shape: 24 160 14 14 (752640)
I0403 15:41:01.773725  3367 net.cpp:156] Memory required for data: 1224087072
I0403 15:41:01.773738  3367 layer_factory.hpp:77] Creating layer inception_4e/3x3
I0403 15:41:01.773759  3367 net.cpp:91] Creating Layer inception_4e/3x3
I0403 15:41:01.773777  3367 net.cpp:425] inception_4e/3x3 <- inception_4e/3x3_reduce
I0403 15:41:01.773795  3367 net.cpp:399] inception_4e/3x3 -> inception_4e/3x3
I0403 15:41:01.778661  3367 net.cpp:141] Setting up inception_4e/3x3
I0403 15:41:01.778702  3367 net.cpp:148] Top shape: 24 320 14 14 (1505280)
I0403 15:41:01.778719  3367 net.cpp:156] Memory required for data: 1230108192
I0403 15:41:01.778738  3367 layer_factory.hpp:77] Creating layer inception_4e/relu_3x3
I0403 15:41:01.778758  3367 net.cpp:91] Creating Layer inception_4e/relu_3x3
I0403 15:41:01.778774  3367 net.cpp:425] inception_4e/relu_3x3 <- inception_4e/3x3
I0403 15:41:01.778794  3367 net.cpp:386] inception_4e/relu_3x3 -> inception_4e/3x3 (in-place)
I0403 15:41:01.779090  3367 net.cpp:141] Setting up inception_4e/relu_3x3
I0403 15:41:01.779119  3367 net.cpp:148] Top shape: 24 320 14 14 (1505280)
I0403 15:41:01.779134  3367 net.cpp:156] Memory required for data: 1236129312
I0403 15:41:01.779150  3367 layer_factory.hpp:77] Creating layer inception_4e/5x5_reduce
I0403 15:41:01.779173  3367 net.cpp:91] Creating Layer inception_4e/5x5_reduce
I0403 15:41:01.779192  3367 net.cpp:425] inception_4e/5x5_reduce <- inception_4d/output_inception_4d/output_0_split_3
I0403 15:41:01.779216  3367 net.cpp:399] inception_4e/5x5_reduce -> inception_4e/5x5_reduce
I0403 15:41:01.780310  3367 net.cpp:141] Setting up inception_4e/5x5_reduce
I0403 15:41:01.780338  3367 net.cpp:148] Top shape: 24 32 14 14 (150528)
I0403 15:41:01.780351  3367 net.cpp:156] Memory required for data: 1236731424
I0403 15:41:01.780369  3367 layer_factory.hpp:77] Creating layer inception_4e/relu_5x5_reduce
I0403 15:41:01.780390  3367 net.cpp:91] Creating Layer inception_4e/relu_5x5_reduce
I0403 15:41:01.780405  3367 net.cpp:425] inception_4e/relu_5x5_reduce <- inception_4e/5x5_reduce
I0403 15:41:01.780422  3367 net.cpp:386] inception_4e/relu_5x5_reduce -> inception_4e/5x5_reduce (in-place)
I0403 15:41:01.780719  3367 net.cpp:141] Setting up inception_4e/relu_5x5_reduce
I0403 15:41:01.780743  3367 net.cpp:148] Top shape: 24 32 14 14 (150528)
I0403 15:41:01.780758  3367 net.cpp:156] Memory required for data: 1237333536
I0403 15:41:01.780772  3367 layer_factory.hpp:77] Creating layer inception_4e/5x5
I0403 15:41:01.780809  3367 net.cpp:91] Creating Layer inception_4e/5x5
I0403 15:41:01.780827  3367 net.cpp:425] inception_4e/5x5 <- inception_4e/5x5_reduce
I0403 15:41:01.780846  3367 net.cpp:399] inception_4e/5x5 -> inception_4e/5x5
I0403 15:41:01.782847  3367 net.cpp:141] Setting up inception_4e/5x5
I0403 15:41:01.782881  3367 net.cpp:148] Top shape: 24 128 14 14 (602112)
I0403 15:41:01.782897  3367 net.cpp:156] Memory required for data: 1239741984
I0403 15:41:01.782917  3367 layer_factory.hpp:77] Creating layer inception_4e/relu_5x5
I0403 15:41:01.782934  3367 net.cpp:91] Creating Layer inception_4e/relu_5x5
I0403 15:41:01.782950  3367 net.cpp:425] inception_4e/relu_5x5 <- inception_4e/5x5
I0403 15:41:01.782970  3367 net.cpp:386] inception_4e/relu_5x5 -> inception_4e/5x5 (in-place)
I0403 15:41:01.783165  3367 net.cpp:141] Setting up inception_4e/relu_5x5
I0403 15:41:01.783203  3367 net.cpp:148] Top shape: 24 128 14 14 (602112)
I0403 15:41:01.783220  3367 net.cpp:156] Memory required for data: 1242150432
I0403 15:41:01.783234  3367 layer_factory.hpp:77] Creating layer inception_4e/pool
I0403 15:41:01.783254  3367 net.cpp:91] Creating Layer inception_4e/pool
I0403 15:41:01.783270  3367 net.cpp:425] inception_4e/pool <- inception_4d/output_inception_4d/output_0_split_4
I0403 15:41:01.783288  3367 net.cpp:399] inception_4e/pool -> inception_4e/pool
I0403 15:41:01.783360  3367 net.cpp:141] Setting up inception_4e/pool
I0403 15:41:01.783383  3367 net.cpp:148] Top shape: 24 528 14 14 (2483712)
I0403 15:41:01.783397  3367 net.cpp:156] Memory required for data: 1252085280
I0403 15:41:01.783411  3367 layer_factory.hpp:77] Creating layer inception_4e/pool_proj
I0403 15:41:01.783433  3367 net.cpp:91] Creating Layer inception_4e/pool_proj
I0403 15:41:01.783450  3367 net.cpp:425] inception_4e/pool_proj <- inception_4e/pool
I0403 15:41:01.783470  3367 net.cpp:399] inception_4e/pool_proj -> inception_4e/pool_proj
I0403 15:41:01.784942  3367 net.cpp:141] Setting up inception_4e/pool_proj
I0403 15:41:01.784987  3367 net.cpp:148] Top shape: 24 128 14 14 (602112)
I0403 15:41:01.785004  3367 net.cpp:156] Memory required for data: 1254493728
I0403 15:41:01.785022  3367 layer_factory.hpp:77] Creating layer inception_4e/relu_pool_proj
I0403 15:41:01.785039  3367 net.cpp:91] Creating Layer inception_4e/relu_pool_proj
I0403 15:41:01.785055  3367 net.cpp:425] inception_4e/relu_pool_proj <- inception_4e/pool_proj
I0403 15:41:01.785074  3367 net.cpp:386] inception_4e/relu_pool_proj -> inception_4e/pool_proj (in-place)
I0403 15:41:01.785370  3367 net.cpp:141] Setting up inception_4e/relu_pool_proj
I0403 15:41:01.785398  3367 net.cpp:148] Top shape: 24 128 14 14 (602112)
I0403 15:41:01.785413  3367 net.cpp:156] Memory required for data: 1256902176
I0403 15:41:01.785428  3367 layer_factory.hpp:77] Creating layer inception_4e/output
I0403 15:41:01.785445  3367 net.cpp:91] Creating Layer inception_4e/output
I0403 15:41:01.785460  3367 net.cpp:425] inception_4e/output <- inception_4e/1x1
I0403 15:41:01.785476  3367 net.cpp:425] inception_4e/output <- inception_4e/3x3
I0403 15:41:01.785492  3367 net.cpp:425] inception_4e/output <- inception_4e/5x5
I0403 15:41:01.785508  3367 net.cpp:425] inception_4e/output <- inception_4e/pool_proj
I0403 15:41:01.785526  3367 net.cpp:399] inception_4e/output -> inception_4e/output
I0403 15:41:01.785574  3367 net.cpp:141] Setting up inception_4e/output
I0403 15:41:01.785598  3367 net.cpp:148] Top shape: 24 832 14 14 (3913728)
I0403 15:41:01.785611  3367 net.cpp:156] Memory required for data: 1272557088
I0403 15:41:01.785626  3367 layer_factory.hpp:77] Creating layer pool4/3x3_s2
I0403 15:41:01.785645  3367 net.cpp:91] Creating Layer pool4/3x3_s2
I0403 15:41:01.785661  3367 net.cpp:425] pool4/3x3_s2 <- inception_4e/output
I0403 15:41:01.785678  3367 net.cpp:399] pool4/3x3_s2 -> pool4/3x3_s2
I0403 15:41:01.785744  3367 net.cpp:141] Setting up pool4/3x3_s2
I0403 15:41:01.785768  3367 net.cpp:148] Top shape: 24 832 7 7 (978432)
I0403 15:41:01.785781  3367 net.cpp:156] Memory required for data: 1276470816
I0403 15:41:01.785795  3367 layer_factory.hpp:77] Creating layer pool4/3x3_s2_pool4/3x3_s2_0_split
I0403 15:41:01.785811  3367 net.cpp:91] Creating Layer pool4/3x3_s2_pool4/3x3_s2_0_split
I0403 15:41:01.785826  3367 net.cpp:425] pool4/3x3_s2_pool4/3x3_s2_0_split <- pool4/3x3_s2
I0403 15:41:01.785845  3367 net.cpp:399] pool4/3x3_s2_pool4/3x3_s2_0_split -> pool4/3x3_s2_pool4/3x3_s2_0_split_0
I0403 15:41:01.785866  3367 net.cpp:399] pool4/3x3_s2_pool4/3x3_s2_0_split -> pool4/3x3_s2_pool4/3x3_s2_0_split_1
I0403 15:41:01.785887  3367 net.cpp:399] pool4/3x3_s2_pool4/3x3_s2_0_split -> pool4/3x3_s2_pool4/3x3_s2_0_split_2
I0403 15:41:01.785905  3367 net.cpp:399] pool4/3x3_s2_pool4/3x3_s2_0_split -> pool4/3x3_s2_pool4/3x3_s2_0_split_3
I0403 15:41:01.785996  3367 net.cpp:141] Setting up pool4/3x3_s2_pool4/3x3_s2_0_split
I0403 15:41:01.786021  3367 net.cpp:148] Top shape: 24 832 7 7 (978432)
I0403 15:41:01.786037  3367 net.cpp:148] Top shape: 24 832 7 7 (978432)
I0403 15:41:01.786052  3367 net.cpp:148] Top shape: 24 832 7 7 (978432)
I0403 15:41:01.786067  3367 net.cpp:148] Top shape: 24 832 7 7 (978432)
I0403 15:41:01.786080  3367 net.cpp:156] Memory required for data: 1292125728
I0403 15:41:01.786097  3367 layer_factory.hpp:77] Creating layer inception_5a/1x1
I0403 15:41:01.786118  3367 net.cpp:91] Creating Layer inception_5a/1x1
I0403 15:41:01.786134  3367 net.cpp:425] inception_5a/1x1 <- pool4/3x3_s2_pool4/3x3_s2_0_split_0
I0403 15:41:01.786152  3367 net.cpp:399] inception_5a/1x1 -> inception_5a/1x1
I0403 15:41:01.788954  3367 net.cpp:141] Setting up inception_5a/1x1
I0403 15:41:01.788985  3367 net.cpp:148] Top shape: 24 256 7 7 (301056)
I0403 15:41:01.789000  3367 net.cpp:156] Memory required for data: 1293329952
I0403 15:41:01.789018  3367 layer_factory.hpp:77] Creating layer inception_5a/relu_1x1
I0403 15:41:01.789036  3367 net.cpp:91] Creating Layer inception_5a/relu_1x1
I0403 15:41:01.789057  3367 net.cpp:425] inception_5a/relu_1x1 <- inception_5a/1x1
I0403 15:41:01.789073  3367 net.cpp:386] inception_5a/relu_1x1 -> inception_5a/1x1 (in-place)
I0403 15:41:01.789383  3367 net.cpp:141] Setting up inception_5a/relu_1x1
I0403 15:41:01.789408  3367 net.cpp:148] Top shape: 24 256 7 7 (301056)
I0403 15:41:01.789423  3367 net.cpp:156] Memory required for data: 1294534176
I0403 15:41:01.789439  3367 layer_factory.hpp:77] Creating layer inception_5a/3x3_reduce
I0403 15:41:01.789461  3367 net.cpp:91] Creating Layer inception_5a/3x3_reduce
I0403 15:41:01.789479  3367 net.cpp:425] inception_5a/3x3_reduce <- pool4/3x3_s2_pool4/3x3_s2_0_split_1
I0403 15:41:01.789500  3367 net.cpp:399] inception_5a/3x3_reduce -> inception_5a/3x3_reduce
I0403 15:41:01.791898  3367 net.cpp:141] Setting up inception_5a/3x3_reduce
I0403 15:41:01.791929  3367 net.cpp:148] Top shape: 24 160 7 7 (188160)
I0403 15:41:01.791947  3367 net.cpp:156] Memory required for data: 1295286816
I0403 15:41:01.791965  3367 layer_factory.hpp:77] Creating layer inception_5a/relu_3x3_reduce
I0403 15:41:01.791983  3367 net.cpp:91] Creating Layer inception_5a/relu_3x3_reduce
I0403 15:41:01.791999  3367 net.cpp:425] inception_5a/relu_3x3_reduce <- inception_5a/3x3_reduce
I0403 15:41:01.792016  3367 net.cpp:386] inception_5a/relu_3x3_reduce -> inception_5a/3x3_reduce (in-place)
I0403 15:41:01.792209  3367 net.cpp:141] Setting up inception_5a/relu_3x3_reduce
I0403 15:41:01.792234  3367 net.cpp:148] Top shape: 24 160 7 7 (188160)
I0403 15:41:01.792249  3367 net.cpp:156] Memory required for data: 1296039456
I0403 15:41:01.792263  3367 layer_factory.hpp:77] Creating layer inception_5a/3x3
I0403 15:41:01.792285  3367 net.cpp:91] Creating Layer inception_5a/3x3
I0403 15:41:01.792304  3367 net.cpp:425] inception_5a/3x3 <- inception_5a/3x3_reduce
I0403 15:41:01.792325  3367 net.cpp:399] inception_5a/3x3 -> inception_5a/3x3
I0403 15:41:01.797224  3367 net.cpp:141] Setting up inception_5a/3x3
I0403 15:41:01.797255  3367 net.cpp:148] Top shape: 24 320 7 7 (376320)
I0403 15:41:01.797271  3367 net.cpp:156] Memory required for data: 1297544736
I0403 15:41:01.797288  3367 layer_factory.hpp:77] Creating layer inception_5a/relu_3x3
I0403 15:41:01.797307  3367 net.cpp:91] Creating Layer inception_5a/relu_3x3
I0403 15:41:01.797322  3367 net.cpp:425] inception_5a/relu_3x3 <- inception_5a/3x3
I0403 15:41:01.797341  3367 net.cpp:386] inception_5a/relu_3x3 -> inception_5a/3x3 (in-place)
I0403 15:41:01.797632  3367 net.cpp:141] Setting up inception_5a/relu_3x3
I0403 15:41:01.797658  3367 net.cpp:148] Top shape: 24 320 7 7 (376320)
I0403 15:41:01.797673  3367 net.cpp:156] Memory required for data: 1299050016
I0403 15:41:01.797688  3367 layer_factory.hpp:77] Creating layer inception_5a/5x5_reduce
I0403 15:41:01.797709  3367 net.cpp:91] Creating Layer inception_5a/5x5_reduce
I0403 15:41:01.797726  3367 net.cpp:425] inception_5a/5x5_reduce <- pool4/3x3_s2_pool4/3x3_s2_0_split_2
I0403 15:41:01.797747  3367 net.cpp:399] inception_5a/5x5_reduce -> inception_5a/5x5_reduce
I0403 15:41:01.798902  3367 net.cpp:141] Setting up inception_5a/5x5_reduce
I0403 15:41:01.798933  3367 net.cpp:148] Top shape: 24 32 7 7 (37632)
I0403 15:41:01.798949  3367 net.cpp:156] Memory required for data: 1299200544
I0403 15:41:01.798966  3367 layer_factory.hpp:77] Creating layer inception_5a/relu_5x5_reduce
I0403 15:41:01.798987  3367 net.cpp:91] Creating Layer inception_5a/relu_5x5_reduce
I0403 15:41:01.799006  3367 net.cpp:425] inception_5a/relu_5x5_reduce <- inception_5a/5x5_reduce
I0403 15:41:01.799023  3367 net.cpp:386] inception_5a/relu_5x5_reduce -> inception_5a/5x5_reduce (in-place)
I0403 15:41:01.799319  3367 net.cpp:141] Setting up inception_5a/relu_5x5_reduce
I0403 15:41:01.799343  3367 net.cpp:148] Top shape: 24 32 7 7 (37632)
I0403 15:41:01.799358  3367 net.cpp:156] Memory required for data: 1299351072
I0403 15:41:01.799372  3367 layer_factory.hpp:77] Creating layer inception_5a/5x5
I0403 15:41:01.799394  3367 net.cpp:91] Creating Layer inception_5a/5x5
I0403 15:41:01.799412  3367 net.cpp:425] inception_5a/5x5 <- inception_5a/5x5_reduce
I0403 15:41:01.799432  3367 net.cpp:399] inception_5a/5x5 -> inception_5a/5x5
I0403 15:41:01.801117  3367 net.cpp:141] Setting up inception_5a/5x5
I0403 15:41:01.801157  3367 net.cpp:148] Top shape: 24 128 7 7 (150528)
I0403 15:41:01.801173  3367 net.cpp:156] Memory required for data: 1299953184
I0403 15:41:01.801197  3367 layer_factory.hpp:77] Creating layer inception_5a/relu_5x5
I0403 15:41:01.801214  3367 net.cpp:91] Creating Layer inception_5a/relu_5x5
I0403 15:41:01.801230  3367 net.cpp:425] inception_5a/relu_5x5 <- inception_5a/5x5
I0403 15:41:01.801249  3367 net.cpp:386] inception_5a/relu_5x5 -> inception_5a/5x5 (in-place)
I0403 15:41:01.801437  3367 net.cpp:141] Setting up inception_5a/relu_5x5
I0403 15:41:01.801461  3367 net.cpp:148] Top shape: 24 128 7 7 (150528)
I0403 15:41:01.801476  3367 net.cpp:156] Memory required for data: 1300555296
I0403 15:41:01.801491  3367 layer_factory.hpp:77] Creating layer inception_5a/pool
I0403 15:41:01.801509  3367 net.cpp:91] Creating Layer inception_5a/pool
I0403 15:41:01.801525  3367 net.cpp:425] inception_5a/pool <- pool4/3x3_s2_pool4/3x3_s2_0_split_3
I0403 15:41:01.801543  3367 net.cpp:399] inception_5a/pool -> inception_5a/pool
I0403 15:41:01.801614  3367 net.cpp:141] Setting up inception_5a/pool
I0403 15:41:01.801636  3367 net.cpp:148] Top shape: 24 832 7 7 (978432)
I0403 15:41:01.801651  3367 net.cpp:156] Memory required for data: 1304469024
I0403 15:41:01.801664  3367 layer_factory.hpp:77] Creating layer inception_5a/pool_proj
I0403 15:41:01.801686  3367 net.cpp:91] Creating Layer inception_5a/pool_proj
I0403 15:41:01.801702  3367 net.cpp:425] inception_5a/pool_proj <- inception_5a/pool
I0403 15:41:01.801723  3367 net.cpp:399] inception_5a/pool_proj -> inception_5a/pool_proj
I0403 15:41:01.803973  3367 net.cpp:141] Setting up inception_5a/pool_proj
I0403 15:41:01.804005  3367 net.cpp:148] Top shape: 24 128 7 7 (150528)
I0403 15:41:01.804021  3367 net.cpp:156] Memory required for data: 1305071136
I0403 15:41:01.804039  3367 layer_factory.hpp:77] Creating layer inception_5a/relu_pool_proj
I0403 15:41:01.804056  3367 net.cpp:91] Creating Layer inception_5a/relu_pool_proj
I0403 15:41:01.804072  3367 net.cpp:425] inception_5a/relu_pool_proj <- inception_5a/pool_proj
I0403 15:41:01.804091  3367 net.cpp:386] inception_5a/relu_pool_proj -> inception_5a/pool_proj (in-place)
I0403 15:41:01.804400  3367 net.cpp:141] Setting up inception_5a/relu_pool_proj
I0403 15:41:01.804430  3367 net.cpp:148] Top shape: 24 128 7 7 (150528)
I0403 15:41:01.804450  3367 net.cpp:156] Memory required for data: 1305673248
I0403 15:41:01.804464  3367 layer_factory.hpp:77] Creating layer inception_5a/output
I0403 15:41:01.804481  3367 net.cpp:91] Creating Layer inception_5a/output
I0403 15:41:01.804504  3367 net.cpp:425] inception_5a/output <- inception_5a/1x1
I0403 15:41:01.804522  3367 net.cpp:425] inception_5a/output <- inception_5a/3x3
I0403 15:41:01.804546  3367 net.cpp:425] inception_5a/output <- inception_5a/5x5
I0403 15:41:01.804563  3367 net.cpp:425] inception_5a/output <- inception_5a/pool_proj
I0403 15:41:01.804582  3367 net.cpp:399] inception_5a/output -> inception_5a/output
I0403 15:41:01.804666  3367 net.cpp:141] Setting up inception_5a/output
I0403 15:41:01.804690  3367 net.cpp:148] Top shape: 24 832 7 7 (978432)
I0403 15:41:01.804705  3367 net.cpp:156] Memory required for data: 1309586976
I0403 15:41:01.804720  3367 layer_factory.hpp:77] Creating layer inception_5a/output_inception_5a/output_0_split
I0403 15:41:01.804740  3367 net.cpp:91] Creating Layer inception_5a/output_inception_5a/output_0_split
I0403 15:41:01.804757  3367 net.cpp:425] inception_5a/output_inception_5a/output_0_split <- inception_5a/output
I0403 15:41:01.804775  3367 net.cpp:399] inception_5a/output_inception_5a/output_0_split -> inception_5a/output_inception_5a/output_0_split_0
I0403 15:41:01.804797  3367 net.cpp:399] inception_5a/output_inception_5a/output_0_split -> inception_5a/output_inception_5a/output_0_split_1
I0403 15:41:01.804821  3367 net.cpp:399] inception_5a/output_inception_5a/output_0_split -> inception_5a/output_inception_5a/output_0_split_2
I0403 15:41:01.804848  3367 net.cpp:399] inception_5a/output_inception_5a/output_0_split -> inception_5a/output_inception_5a/output_0_split_3
I0403 15:41:01.804980  3367 net.cpp:141] Setting up inception_5a/output_inception_5a/output_0_split
I0403 15:41:01.805002  3367 net.cpp:148] Top shape: 24 832 7 7 (978432)
I0403 15:41:01.805018  3367 net.cpp:148] Top shape: 24 832 7 7 (978432)
I0403 15:41:01.805033  3367 net.cpp:148] Top shape: 24 832 7 7 (978432)
I0403 15:41:01.805048  3367 net.cpp:148] Top shape: 24 832 7 7 (978432)
I0403 15:41:01.805061  3367 net.cpp:156] Memory required for data: 1325241888
I0403 15:41:01.805075  3367 layer_factory.hpp:77] Creating layer inception_5b/1x1
I0403 15:41:01.805097  3367 net.cpp:91] Creating Layer inception_5b/1x1
I0403 15:41:01.805115  3367 net.cpp:425] inception_5b/1x1 <- inception_5a/output_inception_5a/output_0_split_0
I0403 15:41:01.805135  3367 net.cpp:399] inception_5b/1x1 -> inception_5b/1x1
I0403 15:41:01.808945  3367 net.cpp:141] Setting up inception_5b/1x1
I0403 15:41:01.808979  3367 net.cpp:148] Top shape: 24 384 7 7 (451584)
I0403 15:41:01.808997  3367 net.cpp:156] Memory required for data: 1327048224
I0403 15:41:01.809016  3367 layer_factory.hpp:77] Creating layer inception_5b/relu_1x1
I0403 15:41:01.809033  3367 net.cpp:91] Creating Layer inception_5b/relu_1x1
I0403 15:41:01.809049  3367 net.cpp:425] inception_5b/relu_1x1 <- inception_5b/1x1
I0403 15:41:01.809067  3367 net.cpp:386] inception_5b/relu_1x1 -> inception_5b/1x1 (in-place)
I0403 15:41:01.809382  3367 net.cpp:141] Setting up inception_5b/relu_1x1
I0403 15:41:01.809412  3367 net.cpp:148] Top shape: 24 384 7 7 (451584)
I0403 15:41:01.809427  3367 net.cpp:156] Memory required for data: 1328854560
I0403 15:41:01.809443  3367 layer_factory.hpp:77] Creating layer inception_5b/3x3_reduce
I0403 15:41:01.809465  3367 net.cpp:91] Creating Layer inception_5b/3x3_reduce
I0403 15:41:01.809483  3367 net.cpp:425] inception_5b/3x3_reduce <- inception_5a/output_inception_5a/output_0_split_1
I0403 15:41:01.809502  3367 net.cpp:399] inception_5b/3x3_reduce -> inception_5b/3x3_reduce
I0403 15:41:01.812261  3367 net.cpp:141] Setting up inception_5b/3x3_reduce
I0403 15:41:01.812294  3367 net.cpp:148] Top shape: 24 192 7 7 (225792)
I0403 15:41:01.812309  3367 net.cpp:156] Memory required for data: 1329757728
I0403 15:41:01.812328  3367 layer_factory.hpp:77] Creating layer inception_5b/relu_3x3_reduce
I0403 15:41:01.812345  3367 net.cpp:91] Creating Layer inception_5b/relu_3x3_reduce
I0403 15:41:01.812362  3367 net.cpp:425] inception_5b/relu_3x3_reduce <- inception_5b/3x3_reduce
I0403 15:41:01.812384  3367 net.cpp:386] inception_5b/relu_3x3_reduce -> inception_5b/3x3_reduce (in-place)
I0403 15:41:01.812578  3367 net.cpp:141] Setting up inception_5b/relu_3x3_reduce
I0403 15:41:01.812603  3367 net.cpp:148] Top shape: 24 192 7 7 (225792)
I0403 15:41:01.812618  3367 net.cpp:156] Memory required for data: 1330660896
I0403 15:41:01.812633  3367 layer_factory.hpp:77] Creating layer inception_5b/3x3
I0403 15:41:01.812654  3367 net.cpp:91] Creating Layer inception_5b/3x3
I0403 15:41:01.812671  3367 net.cpp:425] inception_5b/3x3 <- inception_5b/3x3_reduce
I0403 15:41:01.812693  3367 net.cpp:399] inception_5b/3x3 -> inception_5b/3x3
I0403 15:41:01.819538  3367 net.cpp:141] Setting up inception_5b/3x3
I0403 15:41:01.819572  3367 net.cpp:148] Top shape: 24 384 7 7 (451584)
I0403 15:41:01.819589  3367 net.cpp:156] Memory required for data: 1332467232
I0403 15:41:01.819609  3367 layer_factory.hpp:77] Creating layer inception_5b/relu_3x3
I0403 15:41:01.819628  3367 net.cpp:91] Creating Layer inception_5b/relu_3x3
I0403 15:41:01.819644  3367 net.cpp:425] inception_5b/relu_3x3 <- inception_5b/3x3
I0403 15:41:01.819664  3367 net.cpp:386] inception_5b/relu_3x3 -> inception_5b/3x3 (in-place)
I0403 15:41:01.819962  3367 net.cpp:141] Setting up inception_5b/relu_3x3
I0403 15:41:01.819993  3367 net.cpp:148] Top shape: 24 384 7 7 (451584)
I0403 15:41:01.820008  3367 net.cpp:156] Memory required for data: 1334273568
I0403 15:41:01.820024  3367 layer_factory.hpp:77] Creating layer inception_5b/5x5_reduce
I0403 15:41:01.820063  3367 net.cpp:91] Creating Layer inception_5b/5x5_reduce
I0403 15:41:01.820082  3367 net.cpp:425] inception_5b/5x5_reduce <- inception_5a/output_inception_5a/output_0_split_2
I0403 15:41:01.820102  3367 net.cpp:399] inception_5b/5x5_reduce -> inception_5b/5x5_reduce
I0403 15:41:01.821434  3367 net.cpp:141] Setting up inception_5b/5x5_reduce
I0403 15:41:01.821465  3367 net.cpp:148] Top shape: 24 48 7 7 (56448)
I0403 15:41:01.821483  3367 net.cpp:156] Memory required for data: 1334499360
I0403 15:41:01.821503  3367 layer_factory.hpp:77] Creating layer inception_5b/relu_5x5_reduce
I0403 15:41:01.821522  3367 net.cpp:91] Creating Layer inception_5b/relu_5x5_reduce
I0403 15:41:01.821538  3367 net.cpp:425] inception_5b/relu_5x5_reduce <- inception_5b/5x5_reduce
I0403 15:41:01.821558  3367 net.cpp:386] inception_5b/relu_5x5_reduce -> inception_5b/5x5_reduce (in-place)
I0403 15:41:01.821935  3367 net.cpp:141] Setting up inception_5b/relu_5x5_reduce
I0403 15:41:01.821964  3367 net.cpp:148] Top shape: 24 48 7 7 (56448)
I0403 15:41:01.821979  3367 net.cpp:156] Memory required for data: 1334725152
I0403 15:41:01.821995  3367 layer_factory.hpp:77] Creating layer inception_5b/5x5
I0403 15:41:01.822016  3367 net.cpp:91] Creating Layer inception_5b/5x5
I0403 15:41:01.822032  3367 net.cpp:425] inception_5b/5x5 <- inception_5b/5x5_reduce
I0403 15:41:01.822052  3367 net.cpp:399] inception_5b/5x5 -> inception_5b/5x5
I0403 15:41:01.824162  3367 net.cpp:141] Setting up inception_5b/5x5
I0403 15:41:01.824194  3367 net.cpp:148] Top shape: 24 128 7 7 (150528)
I0403 15:41:01.824211  3367 net.cpp:156] Memory required for data: 1335327264
I0403 15:41:01.824230  3367 layer_factory.hpp:77] Creating layer inception_5b/relu_5x5
I0403 15:41:01.824249  3367 net.cpp:91] Creating Layer inception_5b/relu_5x5
I0403 15:41:01.824270  3367 net.cpp:425] inception_5b/relu_5x5 <- inception_5b/5x5
I0403 15:41:01.824288  3367 net.cpp:386] inception_5b/relu_5x5 -> inception_5b/5x5 (in-place)
I0403 15:41:01.824486  3367 net.cpp:141] Setting up inception_5b/relu_5x5
I0403 15:41:01.824511  3367 net.cpp:148] Top shape: 24 128 7 7 (150528)
I0403 15:41:01.824527  3367 net.cpp:156] Memory required for data: 1335929376
I0403 15:41:01.824542  3367 layer_factory.hpp:77] Creating layer inception_5b/pool
I0403 15:41:01.824563  3367 net.cpp:91] Creating Layer inception_5b/pool
I0403 15:41:01.824581  3367 net.cpp:425] inception_5b/pool <- inception_5a/output_inception_5a/output_0_split_3
I0403 15:41:01.824602  3367 net.cpp:399] inception_5b/pool -> inception_5b/pool
I0403 15:41:01.824678  3367 net.cpp:141] Setting up inception_5b/pool
I0403 15:41:01.824702  3367 net.cpp:148] Top shape: 24 832 7 7 (978432)
I0403 15:41:01.824717  3367 net.cpp:156] Memory required for data: 1339843104
I0403 15:41:01.824731  3367 layer_factory.hpp:77] Creating layer inception_5b/pool_proj
I0403 15:41:01.824753  3367 net.cpp:91] Creating Layer inception_5b/pool_proj
I0403 15:41:01.824770  3367 net.cpp:425] inception_5b/pool_proj <- inception_5b/pool
I0403 15:41:01.824792  3367 net.cpp:399] inception_5b/pool_proj -> inception_5b/pool_proj
I0403 15:41:01.827118  3367 net.cpp:141] Setting up inception_5b/pool_proj
I0403 15:41:01.827148  3367 net.cpp:148] Top shape: 24 128 7 7 (150528)
I0403 15:41:01.827164  3367 net.cpp:156] Memory required for data: 1340445216
I0403 15:41:01.827188  3367 layer_factory.hpp:77] Creating layer inception_5b/relu_pool_proj
I0403 15:41:01.827208  3367 net.cpp:91] Creating Layer inception_5b/relu_pool_proj
I0403 15:41:01.827225  3367 net.cpp:425] inception_5b/relu_pool_proj <- inception_5b/pool_proj
I0403 15:41:01.827245  3367 net.cpp:386] inception_5b/relu_pool_proj -> inception_5b/pool_proj (in-place)
I0403 15:41:01.827546  3367 net.cpp:141] Setting up inception_5b/relu_pool_proj
I0403 15:41:01.827572  3367 net.cpp:148] Top shape: 24 128 7 7 (150528)
I0403 15:41:01.827587  3367 net.cpp:156] Memory required for data: 1341047328
I0403 15:41:01.827601  3367 layer_factory.hpp:77] Creating layer inception_5b/output
I0403 15:41:01.827620  3367 net.cpp:91] Creating Layer inception_5b/output
I0403 15:41:01.827649  3367 net.cpp:425] inception_5b/output <- inception_5b/1x1
I0403 15:41:01.827666  3367 net.cpp:425] inception_5b/output <- inception_5b/3x3
I0403 15:41:01.827683  3367 net.cpp:425] inception_5b/output <- inception_5b/5x5
I0403 15:41:01.827699  3367 net.cpp:425] inception_5b/output <- inception_5b/pool_proj
I0403 15:41:01.827718  3367 net.cpp:399] inception_5b/output -> inception_5b/output
I0403 15:41:01.827770  3367 net.cpp:141] Setting up inception_5b/output
I0403 15:41:01.827795  3367 net.cpp:148] Top shape: 24 1024 7 7 (1204224)
I0403 15:41:01.827811  3367 net.cpp:156] Memory required for data: 1345864224
I0403 15:41:01.827826  3367 layer_factory.hpp:77] Creating layer pool5/7x7_s1
I0403 15:41:01.827843  3367 net.cpp:91] Creating Layer pool5/7x7_s1
I0403 15:41:01.827859  3367 net.cpp:425] pool5/7x7_s1 <- inception_5b/output
I0403 15:41:01.827878  3367 net.cpp:399] pool5/7x7_s1 -> pool5/7x7_s1
I0403 15:41:01.828099  3367 net.cpp:141] Setting up pool5/7x7_s1
I0403 15:41:01.828125  3367 net.cpp:148] Top shape: 24 1024 1 1 (24576)
I0403 15:41:01.828138  3367 net.cpp:156] Memory required for data: 1345962528
I0403 15:41:01.828152  3367 layer_factory.hpp:77] Creating layer pool5/drop_7x7_s1
I0403 15:41:01.828171  3367 net.cpp:91] Creating Layer pool5/drop_7x7_s1
I0403 15:41:01.828191  3367 net.cpp:425] pool5/drop_7x7_s1 <- pool5/7x7_s1
I0403 15:41:01.828212  3367 net.cpp:386] pool5/drop_7x7_s1 -> pool5/7x7_s1 (in-place)
I0403 15:41:01.828263  3367 net.cpp:141] Setting up pool5/drop_7x7_s1
I0403 15:41:01.828287  3367 net.cpp:148] Top shape: 24 1024 1 1 (24576)
I0403 15:41:01.828302  3367 net.cpp:156] Memory required for data: 1346060832
I0403 15:41:01.828316  3367 layer_factory.hpp:77] Creating layer loss3/classifier_plantvillage
I0403 15:41:01.828336  3367 net.cpp:91] Creating Layer loss3/classifier_plantvillage
I0403 15:41:01.828351  3367 net.cpp:425] loss3/classifier_plantvillage <- pool5/7x7_s1
I0403 15:41:01.828372  3367 net.cpp:399] loss3/classifier_plantvillage -> loss3/classifier_plantvillage
I0403 15:41:01.828805  3367 net.cpp:141] Setting up loss3/classifier_plantvillage
I0403 15:41:01.828830  3367 net.cpp:148] Top shape: 24 38 (912)
I0403 15:41:01.828845  3367 net.cpp:156] Memory required for data: 1346064480
I0403 15:41:01.828862  3367 layer_factory.hpp:77] Creating layer loss3/classifier_plantvillage_loss3/classifier_plantvillage_0_split
I0403 15:41:01.828882  3367 net.cpp:91] Creating Layer loss3/classifier_plantvillage_loss3/classifier_plantvillage_0_split
I0403 15:41:01.828899  3367 net.cpp:425] loss3/classifier_plantvillage_loss3/classifier_plantvillage_0_split <- loss3/classifier_plantvillage
I0403 15:41:01.828917  3367 net.cpp:399] loss3/classifier_plantvillage_loss3/classifier_plantvillage_0_split -> loss3/classifier_plantvillage_loss3/classifier_plantvillage_0_split_0
I0403 15:41:01.828938  3367 net.cpp:399] loss3/classifier_plantvillage_loss3/classifier_plantvillage_0_split -> loss3/classifier_plantvillage_loss3/classifier_plantvillage_0_split_1
I0403 15:41:01.828959  3367 net.cpp:399] loss3/classifier_plantvillage_loss3/classifier_plantvillage_0_split -> loss3/classifier_plantvillage_loss3/classifier_plantvillage_0_split_2
I0403 15:41:01.828980  3367 net.cpp:399] loss3/classifier_plantvillage_loss3/classifier_plantvillage_0_split -> loss3/classifier_plantvillage_loss3/classifier_plantvillage_0_split_3
I0403 15:41:01.829083  3367 net.cpp:141] Setting up loss3/classifier_plantvillage_loss3/classifier_plantvillage_0_split
I0403 15:41:01.829107  3367 net.cpp:148] Top shape: 24 38 (912)
I0403 15:41:01.829123  3367 net.cpp:148] Top shape: 24 38 (912)
I0403 15:41:01.829138  3367 net.cpp:148] Top shape: 24 38 (912)
I0403 15:41:01.829152  3367 net.cpp:148] Top shape: 24 38 (912)
I0403 15:41:01.829165  3367 net.cpp:156] Memory required for data: 1346079072
I0403 15:41:01.829183  3367 layer_factory.hpp:77] Creating layer loss1/loss
I0403 15:41:01.829206  3367 net.cpp:91] Creating Layer loss1/loss
I0403 15:41:01.829224  3367 net.cpp:425] loss1/loss <- loss1/classifier_plantvillage_loss1/classifier_plantvillage_0_split_0
I0403 15:41:01.829255  3367 net.cpp:425] loss1/loss <- label_data_1_split_0
…
